HloModule jit_scan, is_scheduled=true, entry_computation_layout={(f64[2,20]{1,0}, f64[2,20]{1,0}, f64[2,20]{1,0}, f64[2,20]{1,0}, f64[2,20]{1,0}, /*index=5*/f64[2,20]{1,0}, f64[2]{0}, f64[2,20]{1,0}, f64[2,20]{1,0}, f64[2,20]{1,0}, /*index=10*/f64[2,20]{1,0}, f64[2,20]{1,0}, f64[2,20]{1,0}, u32[10,2]{1,0})->(f64[2,20]{1,0}, f64[2,20]{1,0}, f64[2,20]{1,0}, f64[2,20]{1,0}, f64[2,20]{1,0}, /*index=5*/f64[2,20]{1,0}, f64[2]{0}, f64[2,20]{1,0}, f64[2,20]{1,0}, f64[2,20]{1,0}, /*index=10*/f64[2,20]{1,0}, f64[2,20]{1,0}, f64[2,20]{1,0}, f64[10,2,20]{2,1,0}, f64[10,2,20]{2,1,0}, /*index=15*/f64[10,2,20]{2,1,0}, f64[10,2,20]{2,1,0}, f64[10,2,20]{2,1,0}, f64[10,2,20]{2,1,0}, f64[10,2]{1,0}, /*index=20*/f64[10,2,20]{2,1,0}, f64[10,2,20]{2,1,0}, f64[10,2,20]{2,1,0}, f64[10,2,20]{2,1,0}, f64[10,2,20]{2,1,0}, /*index=25*/f64[10,2,20]{2,1,0}, f64[10,2,20]{2,1,0}, f64[10,2,20]{2,1,0}, f64[10,2,20]{2,1,0}, f64[10,2,20]{2,1,0}, /*index=30*/f64[10,2,20]{2,1,0}, f64[10,2,20]{2,1,0}, pred[10,2]{1,0}, pred[10,2]{1,0}, f64[10,2]{1,0}, /*index=35*/f64[10,2,20]{2,1,0}, f64[10,2,20]{2,1,0}, f64[10,2,20]{2,1,0}, f64[10,2,20]{2,1,0}, f64[10,2,20]{2,1,0}, /*index=40*/f64[10,2,20]{2,1,0}, f64[10,2,20]{2,1,0}, f64[10,2,20]{2,1,0}, f64[10,2,20]{2,1,0}, f64[10,2,20]{2,1,0}, /*index=45*/f64[10,2,20]{2,1,0}, f64[10,2,20]{2,1,0}, f64[10,2]{1,0}, f64[10,2,20]{2,1,0}, f64[10,2,20]{2,1,0}, /*index=50*/f64[10,2,20]{2,1,0}, f64[10,2,20]{2,1,0}, f64[10,2,20]{2,1,0}, f64[10,2,20]{2,1,0}, f64[10,2,20]{2,1,0}, /*index=55*/f64[10,2,20]{2,1,0}, f64[10,2,20]{2,1,0}, f64[10,2,20]{2,1,0}, f64[10,2,20]{2,1,0}, f64[10,2,20]{2,1,0}, /*index=60*/f64[10,2,20]{2,1,0}, f64[10,2,20]{2,1,0}, f64[10,2,20]{2,1,0}, f64[10,2,20]{2,1,0}, f64[10,2,20]{2,1,0}, /*index=65*/f64[10,2,20]{2,1,0}, f64[10,2]{1,0}, f64[10,2,20]{2,1,0}, f64[10,2,20]{2,1,0}, f64[10,2,20]{2,1,0}, /*index=70*/f64[10,2,20]{2,1,0}, f64[10,2,20]{2,1,0}, f64[10,2,20]{2,1,0}, s64[10,2]{1,0}, s64[10,2]{1,0}, /*index=75*/f64[10,2]{1,0})}, allow_spmd_sharding_propagation_to_parameters={true,true,true,true,true,true,true,true,true,true,true,true,true,true}, allow_spmd_sharding_propagation_to_output={true,true,true,true,true,true,true,true,true,true,true,true,true,true,true,true,true,true,true,true,true,true,true,true,true,true,true,true,true,true,true,true,true,true,true,true,true,true,true,true,true,true,true,true,true,true,true,true,true,true,true,true,true,true,true,true,true,true,true,true,true,true,true,true,true,true,true,true,true,true,true,true,true,true,true,true}, frontend_attributes={fingerprint_before_lhs="c93fa838abdf95de98111822e5cd5bbe"}

fused_select {
  param_3.44 = s32[2]{0} parameter(3)
  param_4.38 = s32[2]{0} parameter(4)
  compare.1126.2 = pred[2]{0} compare(param_3.44, param_4.38), direction=GE, metadata={op_name="jit(scan)/jit(main)/while/body/jit(_one_step)/vmap(while)/body/while/body/while/body_pred/ge" source_file="/fs04/fc37/adam/projects/psilocybin-prl-analyses/src/prl_hgf/fitting/hierarchical.py" source_line=1147}
  param_0.34 = pred[2]{0} parameter(0)
  not.20.2 = pred[2]{0} not(param_0.34), metadata={op_name="jit(scan)/jit(main)/while/body/jit(_one_step)/vmap(while)/body/while/body/while/body_pred/not" source_file="/fs04/fc37/adam/projects/psilocybin-prl-analyses/src/prl_hgf/fitting/hierarchical.py" source_line=1147}
  and.64.1 = pred[2]{0} and(compare.1126.2, not.20.2), metadata={op_name="jit(scan)/jit(main)/while/body/jit(_one_step)/vmap(while)/body/while/body/while/body_pred/and" source_file="/fs04/fc37/adam/projects/psilocybin-prl-analyses/src/prl_hgf/fitting/hierarchical.py" source_line=1147}
  param_2.53 = f64[2]{0} parameter(2)
  constant_6912_1 = f64[] constant(0)
  broadcast.4015.clone.9 = f64[2]{0} broadcast(constant_6912_1), dimensions={}
  compare.1128.3 = pred[2]{0} compare(param_2.53, broadcast.4015.clone.9), direction=LE, metadata={op_name="jit(scan)/jit(main)/while/body/jit(_one_step)/vmap(while)/body/while/body/while/body/le" source_file="/fs04/fc37/adam/projects/psilocybin-prl-analyses/src/prl_hgf/fitting/hierarchical.py" source_line=1147}
  param_1.51 = f64[2]{0} parameter(1)
  compare.1129.5 = pred[2]{0} compare(param_1.51, broadcast.4015.clone.9), direction=LE, metadata={op_name="jit(scan)/jit(main)/while/body/jit(_one_step)/vmap(while)/body/while/body/while/body/le" source_file="/fs04/fc37/adam/projects/psilocybin-prl-analyses/src/prl_hgf/fitting/hierarchical.py" source_line=1147}
  or.801.3 = pred[2]{0} or(compare.1128.3, compare.1129.5), metadata={op_name="jit(scan)/jit(main)/while/body/jit(_one_step)/vmap(while)/body/while/body/while/body/or" source_file="/fs04/fc37/adam/projects/psilocybin-prl-analyses/src/prl_hgf/fitting/hierarchical.py" source_line=1147}
  select.2971.1 = pred[2]{0} select(and.64.1, or.801.3, param_0.34), metadata={op_name="jit(scan)/jit(main)/while/body/jit(_one_step)/vmap(while)/body/while/body/while[cond_nconsts=1 body_nconsts=5]" source_file="/fs04/fc37/adam/projects/psilocybin-prl-analyses/src/prl_hgf/fitting/hierarchical.py" source_line=1147}
  constant_1334_1_clone_1 = s32[] constant(-1)
  broadcast.4010.3.clone.1 = s32[2]{0} broadcast(constant_1334_1_clone_1), dimensions={}
  add.3970.3.clone.1 = s32[2]{0} add(param_3.44, broadcast.4010.3.clone.1), metadata={op_name="jit(scan)/jit(main)/while/body/jit(_one_step)/vmap(while)/body/while/body/while/body/sub" source_file="/fs04/fc37/adam/projects/psilocybin-prl-analyses/src/prl_hgf/fitting/hierarchical.py" source_line=1147}
  select.2969.1.clone.1 = s32[2]{0} select(and.64.1, add.3970.3.clone.1, param_3.44), metadata={op_name="jit(scan)/jit(main)/while/body/jit(_one_step)/vmap(while)/body/while/body/while[cond_nconsts=1 body_nconsts=5]" source_file="/fs04/fc37/adam/projects/psilocybin-prl-analyses/src/prl_hgf/fitting/hierarchical.py" source_line=1147}
  ROOT tuple.479 = (pred[2]{0}, s32[2]{0}) tuple(select.2971.1, select.2969.1.clone.1)
} // fused_select

scalar_add_computation {
  scalar_rhs = f64[] parameter(1)
  scalar_lhs = f64[] parameter(0)
  ROOT add.3969 = f64[] add(scalar_lhs, scalar_rhs)
}

fused_reduce {
  param_0.43 = f64[2,10,120]{2,1,0} parameter(0)
  iota.42.4 = s32[2,1]{1,0} iota(), iota_dimension=0, metadata={op_name="jit(scan)/jit(main)/while/body/jit(_one_step)/vmap(while)/body/while/body/while/body/iota[dtype=int32 shape=(2, 1) dimension=0]" source_file="/fs04/fc37/adam/projects/psilocybin-prl-analyses/src/prl_hgf/fitting/hierarchical.py" source_line=1147}
  param_1.64 = s32[2]{0} parameter(1)
  constant_6918_2 = s32[] constant(0)
  broadcast.4011.4 = s32[2]{0} broadcast(constant_6918_2), dimensions={}
  compare.1127.4 = pred[2]{0} compare(param_1.64, broadcast.4011.4), direction=LT, metadata={op_name="jit(scan)/jit(main)/while/body/jit(_one_step)/vmap(while)/body/while/body/while/body/lt" source_file="/fs04/fc37/adam/projects/psilocybin-prl-analyses/src/prl_hgf/fitting/hierarchical.py" source_line=1147}
  constant_6920_2 = s32[] constant(10)
  broadcast.4012.4 = s32[2]{0} broadcast(constant_6920_2), dimensions={}
  add.3971.4 = s32[2]{0} add(param_1.64, broadcast.4012.4), metadata={op_name="jit(scan)/jit(main)/while/body/jit(_one_step)/vmap(while)/body/while/body/while/body/add" source_file="/fs04/fc37/adam/projects/psilocybin-prl-analyses/src/prl_hgf/fitting/hierarchical.py" source_line=1147}
  select.2970.4 = s32[2]{0} select(compare.1127.4, add.3971.4, param_1.64), metadata={op_name="jit(scan)/jit(main)/while/body/jit(_one_step)/vmap(while)/body/while/body/while/body/select_n" source_file="/fs04/fc37/adam/projects/psilocybin-prl-analyses/src/prl_hgf/fitting/hierarchical.py" source_line=1147}
  bitcast.10507.19 = s32[2,1]{1,0} bitcast(select.2970.4)
  broadcast.4013.4 = s32[2,1]{1,0} broadcast(constant_6918_2), dimensions={}
  concatenate.36.19 = s32[2,3]{1,0} concatenate(iota.42.4, bitcast.10507.19, broadcast.4013.4), dimensions={1}, metadata={op_name="jit(scan)/jit(main)/while/body/jit(_one_step)/vmap(while)/body/while/body/while/body/concatenate[dimension=1]" source_file="/fs04/fc37/adam/projects/psilocybin-prl-analyses/src/prl_hgf/fitting/hierarchical.py" source_line=1147}
  gather.3.11 = f64[2,1,1,120]{3,0,2,1} gather(param_0.43, concatenate.36.19), offset_dims={1,2,3}, collapsed_slice_dims={}, start_index_map={0,1,2}, index_vector_dim=1, slice_sizes={1,1,120}, indices_are_sorted=true, metadata={op_name="jit(scan)/jit(main)/while/body/jit(_one_step)/vmap(while)/body/while/body/while/body/gather[dimension_numbers=GatherDimensionNumbers(offset_dims=(np.int64(1), np.int64(2)), collapsed_slice_dims=(0,), start_index_map=(0, np.int64(1), np.int64(2))) slice_sizes=(1, 1, 120) unique_indices=True indices_are_sorted=True mode=GatherScatterMode.PROMISE_IN_BOUNDS fill_value=None]" source_file="/fs04/fc37/adam/projects/psilocybin-prl-analyses/src/prl_hgf/fitting/hierarchical.py" source_line=1147}
  bitcast.10535.11 = f64[2,120]{1,0} bitcast(gather.3.11)
  param_3.49 = f64[2,120]{1,0} parameter(3)
  param_4.43 = f64[2,10,120]{2,1,0} parameter(4)
  gather.4.9 = f64[2,1,1,120]{3,0,2,1} gather(param_4.43, concatenate.36.19), offset_dims={1,2,3}, collapsed_slice_dims={}, start_index_map={0,1,2}, index_vector_dim=1, slice_sizes={1,1,120}, indices_are_sorted=true, metadata={op_name="jit(scan)/jit(main)/while/body/jit(_one_step)/vmap(while)/body/while/body/while/body/gather[dimension_numbers=GatherDimensionNumbers(offset_dims=(np.int64(1), np.int64(2)), collapsed_slice_dims=(0,), start_index_map=(0, np.int64(1), np.int64(2))) slice_sizes=(1, 1, 120) unique_indices=True indices_are_sorted=True mode=GatherScatterMode.PROMISE_IN_BOUNDS fill_value=None]" source_file="/fs04/fc37/adam/projects/psilocybin-prl-analyses/src/prl_hgf/fitting/hierarchical.py" source_line=1147}
  bitcast.10525.7 = f64[2,120]{1,0} bitcast(gather.4.9)
  subtract.218.7 = f64[2,120]{1,0} subtract(param_3.49, bitcast.10525.7), metadata={op_name="jit(scan)/jit(main)/while/body/jit(_one_step)/vmap(while)/body/while/body/while/body/sub" source_file="/fs04/fc37/adam/projects/psilocybin-prl-analyses/src/prl_hgf/fitting/hierarchical.py" source_line=1147}
  add.3972.7 = f64[2,120]{1,0} add(subtract.218.7, bitcast.10535.11), metadata={op_name="jit(scan)/jit(main)/while/body/jit(_one_step)/vmap(while)/body/while/body/while/body/add" source_file="/fs04/fc37/adam/projects/psilocybin-prl-analyses/src/prl_hgf/fitting/hierarchical.py" source_line=1147}
  param_2.58 = f64[2,120]{1,0} parameter(2)
  add.3973.9 = f64[2,120]{1,0} add(param_2.58, bitcast.10535.11), metadata={op_name="jit(scan)/jit(main)/while/body/jit(_one_step)/vmap(while)/body/while/body/while/body/add" source_file="/fs04/fc37/adam/projects/psilocybin-prl-analyses/src/prl_hgf/fitting/hierarchical.py" source_line=1147}
  constant_1117_1 = f64[] constant(0.5)
  broadcast.4014.7 = f64[2,120]{1,0} broadcast(constant_1117_1), dimensions={}
  multiply.2886.7 = f64[2,120]{1,0} multiply(add.3973.9, broadcast.4014.7), metadata={op_name="jit(scan)/jit(main)/while/body/jit(_one_step)/vmap(while)/body/while/body/while/body/div" source_file="/fs04/fc37/adam/projects/psilocybin-prl-analyses/src/prl_hgf/fitting/hierarchical.py" source_line=1147}
  subtract.219.5 = f64[2,120]{1,0} subtract(add.3972.7, multiply.2886.7), metadata={op_name="jit(scan)/jit(main)/while/body/jit(_one_step)/vmap(while)/body/while/body/while/body/sub" source_file="/fs04/fc37/adam/projects/psilocybin-prl-analyses/src/prl_hgf/fitting/hierarchical.py" source_line=1147}
  multiply.2887.3 = f64[2,120]{1,0} multiply(bitcast.10535.11, subtract.219.5)
  constant_6912_2 = f64[] constant(0)
  reduce.13.1 = f64[2]{0} reduce(multiply.2887.3, constant_6912_2), dimensions={1}, to_apply=scalar_add_computation, metadata={op_name="jit(scan)/jit(main)/while/body/jit(_one_step)/vmap(while)/body/while/body/while/body/dot_general[dimension_numbers=(((1,), (1,)), ((0,), (0,))) precision=None preferred_element_type=float64]" source_file="/fs04/fc37/adam/projects/psilocybin-prl-analyses/src/prl_hgf/fitting/hierarchical.py" source_line=1147}
  multiply.2888.1.clone.1 = f64[2,120]{1,0} multiply(param_2.58, subtract.219.5)
  reduce.14.1.clone.1 = f64[2]{0} reduce(multiply.2888.1.clone.1, constant_6912_2), dimensions={1}, to_apply=scalar_add_computation, metadata={op_name="jit(scan)/jit(main)/while/body/jit(_one_step)/vmap(while)/body/while/body/while/body/dot_general[dimension_numbers=(((1,), (1,)), ((0,), (0,))) precision=None preferred_element_type=float64]" source_file="/fs04/fc37/adam/projects/psilocybin-prl-analyses/src/prl_hgf/fitting/hierarchical.py" source_line=1147}
  ROOT tuple.478 = (f64[2]{0}, f64[2]{0}) tuple(reduce.13.1, reduce.14.1.clone.1)
} // fused_reduce

region_35.6903 {
  arg_tuple.6904.0 = (s32[2]{0}, pred[2]{0}, s32[2]{0}, f64[2,10,120]{2,1,0}, f64[2,120]{1,0}, /*index=5*/f64[2,10,120]{2,1,0}, f64[2,120]{1,0}) parameter(0)
  get-tuple-element.16411 = s32[2]{0} get-tuple-element(arg_tuple.6904.0), index=0
  get-tuple-element.16420 = s32[2]{0} get-tuple-element(arg_tuple.6904.0), index=2
  get-tuple-element.16421 = f64[2,10,120]{2,1,0} get-tuple-element(arg_tuple.6904.0), index=3
  get-tuple-element.16422 = f64[2,120]{1,0} get-tuple-element(arg_tuple.6904.0), index=4
  get-tuple-element.16423 = f64[2,10,120]{2,1,0} get-tuple-element(arg_tuple.6904.0), index=5
  get-tuple-element.16424 = f64[2,120]{1,0} get-tuple-element(arg_tuple.6904.0), index=6
  get-tuple-element.16412 = pred[2]{0} get-tuple-element(arg_tuple.6904.0), index=1
  input_reduce_fusion = (f64[2]{0}, f64[2]{0}) fusion(get-tuple-element.16423, get-tuple-element.16411, get-tuple-element.16424, get-tuple-element.16422, get-tuple-element.16421), kind=kInput, calls=fused_reduce, metadata={op_name="jit(scan)/jit(main)/while/body/jit(_one_step)/vmap(while)/body/while/body/while/body/dot_general[dimension_numbers=(((1,), (1,)), ((0,), (0,))) precision=None preferred_element_type=float64]" source_file="/fs04/fc37/adam/projects/psilocybin-prl-analyses/src/prl_hgf/fitting/hierarchical.py" source_line=1147}
  get-tuple-element.15649 = f64[2]{0} get-tuple-element(input_reduce_fusion), index=1, metadata={op_name="jit(scan)/jit(main)/while/body/jit(_one_step)/vmap(while)/body/while/body/while/body/dot_general[dimension_numbers=(((1,), (1,)), ((0,), (0,))) precision=None preferred_element_type=float64]" source_file="/fs04/fc37/adam/projects/psilocybin-prl-analyses/src/prl_hgf/fitting/hierarchical.py" source_line=1147}
  get-tuple-element.15648 = f64[2]{0} get-tuple-element(input_reduce_fusion), index=0, metadata={op_name="jit(scan)/jit(main)/while/body/jit(_one_step)/vmap(while)/body/while/body/while/body/dot_general[dimension_numbers=(((1,), (1,)), ((0,), (0,))) precision=None preferred_element_type=float64]" source_file="/fs04/fc37/adam/projects/psilocybin-prl-analyses/src/prl_hgf/fitting/hierarchical.py" source_line=1147}
  loop_select_fusion = (pred[2]{0}, s32[2]{0}) fusion(get-tuple-element.16412, get-tuple-element.15649, get-tuple-element.15648, get-tuple-element.16411, get-tuple-element.16420), kind=kLoop, calls=fused_select, control-predecessors={input_reduce_fusion}, metadata={op_name="jit(scan)/jit(main)/while/body/jit(_one_step)/vmap(while)/body/while/body/while[cond_nconsts=1 body_nconsts=5]" source_file="/fs04/fc37/adam/projects/psilocybin-prl-analyses/src/prl_hgf/fitting/hierarchical.py" source_line=1147}
  get-tuple-element.16418 = s32[2]{0} get-tuple-element(loop_select_fusion), index=1, metadata={op_name="jit(scan)/jit(main)/while/body/jit(_one_step)/vmap(while)/body/while/body/while[cond_nconsts=1 body_nconsts=5]" source_file="/fs04/fc37/adam/projects/psilocybin-prl-analyses/src/prl_hgf/fitting/hierarchical.py" source_line=1147}
  get-tuple-element.16419 = pred[2]{0} get-tuple-element(loop_select_fusion), index=0, metadata={op_name="jit(scan)/jit(main)/while/body/jit(_one_step)/vmap(while)/body/while/body/while[cond_nconsts=1 body_nconsts=5]" source_file="/fs04/fc37/adam/projects/psilocybin-prl-analyses/src/prl_hgf/fitting/hierarchical.py" source_line=1147}
  ROOT tuple.749 = (s32[2]{0}, pred[2]{0}, s32[2]{0}, f64[2,10,120]{2,1,0}, f64[2,120]{1,0}, /*index=5*/f64[2,10,120]{2,1,0}, f64[2,120]{1,0}) tuple(get-tuple-element.16418, get-tuple-element.16419, get-tuple-element.16420, get-tuple-element.16421, get-tuple-element.16422, /*index=5*/get-tuple-element.16423, get-tuple-element.16424)
} // region_35.6903

region_37.6968 {
  Arg_1.6970 = pred[] parameter(1), metadata={op_name="jit(scan)/jit(main)/while/body/jit(_one_step)/vmap(while)/body/while/body/while[cond_nconsts=1 body_nconsts=5]"}
  Arg_0.6969 = pred[] parameter(0), metadata={op_name="jit(scan)/jit(main)/while/body/jit(_one_step)/vmap(while)/body/while/body/while[cond_nconsts=1 body_nconsts=5]"}
  ROOT or.802 = pred[] or(Arg_0.6969, Arg_1.6970), metadata={op_name="jit(scan)/jit(main)/while/body/jit(_one_step)/vmap(while)/body/while/body/while[cond_nconsts=1 body_nconsts=5]" source_file="/fs04/fc37/adam/projects/psilocybin-prl-analyses/src/prl_hgf/fitting/hierarchical.py" source_line=1147}
}

fused_reduce.1 {
  param_1.70 = s32[2]{0} parameter(1)
  param_2.64 = s32[2]{0} parameter(2)
  compare.1130.1 = pred[2]{0} compare(param_1.70, param_2.64), direction=GE, metadata={op_name="jit(scan)/jit(main)/while/body/jit(_one_step)/vmap(while)/body/while/body/while/cond/ge" source_file="/fs04/fc37/adam/projects/psilocybin-prl-analyses/src/prl_hgf/fitting/hierarchical.py" source_line=1147}
  param_0.47 = pred[2]{0} parameter(0)
  not.21.1 = pred[2]{0} not(param_0.47), metadata={op_name="jit(scan)/jit(main)/while/body/jit(_one_step)/vmap(while)/body/while/body/while/cond/not" source_file="/fs04/fc37/adam/projects/psilocybin-prl-analyses/src/prl_hgf/fitting/hierarchical.py" source_line=1147}
  and.65.1 = pred[2]{0} and(compare.1130.1, not.21.1), metadata={op_name="jit(scan)/jit(main)/while/body/jit(_one_step)/vmap(while)/body/while/body/while/cond/and" source_file="/fs04/fc37/adam/projects/psilocybin-prl-analyses/src/prl_hgf/fitting/hierarchical.py" source_line=1147}
  constant_6981_1 = pred[] constant(false)
  ROOT reduce.6985.1 = pred[] reduce(and.65.1, constant_6981_1), dimensions={0}, to_apply=region_37.6968, metadata={op_name="jit(scan)/jit(main)/while/body/jit(_one_step)/vmap(while)/body/while/body/while[cond_nconsts=1 body_nconsts=5]" source_file="/fs04/fc37/adam/projects/psilocybin-prl-analyses/src/prl_hgf/fitting/hierarchical.py" source_line=1147}
} // fused_reduce.1

region_36.6972 {
  arg_tuple.6973.0 = (s32[2]{0}, pred[2]{0}, s32[2]{0}, f64[2,10,120]{2,1,0}, f64[2,120]{1,0}, /*index=5*/f64[2,10,120]{2,1,0}, f64[2,120]{1,0}) parameter(0)
  get-tuple-element.6974.0 = s32[2]{0} get-tuple-element(arg_tuple.6973.0), index=0
  get-tuple-element.6976.0 = s32[2]{0} get-tuple-element(arg_tuple.6973.0), index=2
  get-tuple-element.6975.0 = pred[2]{0} get-tuple-element(arg_tuple.6973.0), index=1
  ROOT input_reduce_fusion.1 = pred[] fusion(get-tuple-element.6975.0, get-tuple-element.6974.0, get-tuple-element.6976.0), kind=kInput, calls=fused_reduce.1, metadata={op_name="jit(scan)/jit(main)/while/body/jit(_one_step)/vmap(while)/body/while/body/while[cond_nconsts=1 body_nconsts=5]" source_file="/fs04/fc37/adam/projects/psilocybin-prl-analyses/src/prl_hgf/fitting/hierarchical.py" source_line=1147}
}

fused_broadcast.2 {
  constant_1429_3 = f64[] constant(0)
  ROOT broadcast.4019.1 = f64[20,1]{1,0} broadcast(constant_1429_3), dimensions={}
}

fused_broadcast.1 {
  constant_1429_2 = f64[] constant(0)
  ROOT broadcast.4016.1 = f64[20]{0} broadcast(constant_1429_2), dimensions={}
}

fused_broadcast {
  constant_1429_1 = f64[] constant(0)
  ROOT broadcast.4017.1 = f64[2,20]{1,0} broadcast(constant_1429_1), dimensions={}
}

wrapped_copy_computation.179 {
  param_0.5589 = f64[2,20]{1,0} parameter(0)
  ROOT copy.1368 = f64[2,20]{1,0} copy(param_0.5589)
}

fused_multiply_negate {
  param_0.5322 = f64[2,20]{1,0} parameter(0)
  param_4.3615 = f64[] parameter(4)
  broadcast.4018.3.clone.1 = f64[2,20]{1,0} broadcast(param_4.3615), dimensions={}, metadata={op_name="jit(scan)/jit(main)/while/body/jit(_one_step)/vmap(while)/body/while/body/transpose(jvp(vmap(while)))/body/jit(beliefs_propagation)/jit(continuous_node_posterior_update)/jit(posterior_update_precision_continuous_node)/cond/branch_0_fun/jit(precision_update_missing_values)/mul" source_file="/fs04/fc37/adam/projects/psilocybin-prl-analyses/src/prl_hgf/fitting/hierarchical_patrl.py" source_line=362}
  param_2.5828 = f64[2,20]{1,0} parameter(2)
  param_3.4932 = f64[2,20]{1,0} parameter(3)
  multiply.2889.2.clone.1 = f64[2,20]{1,0} multiply(param_2.5828, param_3.4932), metadata={op_name="jit(scan)/jit(main)/while/body/jit(_one_step)/vmap(while)/body/while/body/transpose(jvp(vmap(while)))/body/jit(beliefs_propagation)/jit(continuous_node_posterior_update)/jit(posterior_update_precision_continuous_node)/cond/branch_0_fun/jit(precision_update_missing_values)/mul" source_file="/fs04/fc37/adam/projects/psilocybin-prl-analyses/src/prl_hgf/fitting/hierarchical_patrl.py" source_line=362}
  negate.466.4.clone.1 = f64[2,20]{1,0} negate(multiply.2889.2.clone.1), metadata={op_name="jit(scan)/jit(main)/while/body/jit(_one_step)/vmap(while)/body/while/body/transpose(jvp(vmap(while)))/body/jit(beliefs_propagation)/jit(continuous_node_posterior_update)/jit(posterior_update_precision_continuous_node)/cond/branch_0_fun/jit(precision_update_missing_values)/neg" source_file="/fs04/fc37/adam/projects/psilocybin-prl-analyses/src/prl_hgf/fitting/hierarchical_patrl.py" source_line=362}
  multiply.2891.3.clone.1 = f64[2,20]{1,0} multiply(broadcast.4018.3.clone.1, negate.466.4.clone.1), metadata={op_name="jit(scan)/jit(main)/while/body/jit(_one_step)/vmap(while)/body/while/body/transpose(jvp(vmap(while)))/body/jit(beliefs_propagation)/jit(continuous_node_posterior_update)/jit(posterior_update_precision_continuous_node)/cond/branch_0_fun/jit(precision_update_missing_values)/mul" source_file="/fs04/fc37/adam/projects/psilocybin-prl-analyses/src/prl_hgf/fitting/hierarchical_patrl.py" source_line=362}
  param_1.7591 = f64[2,20]{1,0} parameter(1)
  multiply.2892.1.clone.1 = f64[2,20]{1,0} multiply(multiply.2891.3.clone.1, param_1.7591), metadata={op_name="jit(scan)/jit(main)/while/body/jit(_one_step)/vmap(while)/body/while/body/transpose(jvp(vmap(while)))/body/jit(beliefs_propagation)/jit(continuous_node_posterior_update)/jit(posterior_update_precision_continuous_node)/cond/branch_0_fun/jit(precision_update_missing_values)/mul" source_file="/fs04/fc37/adam/projects/psilocybin-prl-analyses/src/prl_hgf/fitting/hierarchical_patrl.py" source_line=362}
  multiply.2893.1 = f64[2,20]{1,0} multiply(param_0.5322, multiply.2892.1.clone.1), metadata={op_name="jit(scan)/jit(main)/while/body/jit(_one_step)/vmap(while)/body/while/body/transpose(jvp(vmap(while)))/body/jit(beliefs_propagation)/jit(continuous_node_posterior_update)/jit(posterior_update_precision_continuous_node)/cond/branch_0_fun/jit(precision_update_missing_values)/mul" source_file="/fs04/fc37/adam/projects/psilocybin-prl-analyses/src/prl_hgf/fitting/hierarchical_patrl.py" source_line=362}
  param_5.2976 = f64[2,20]{1,0} parameter(5)
  multiply.2890.1.clone.1 = f64[2,20]{1,0} multiply(negate.466.4.clone.1, param_5.2976), metadata={op_name="jit(scan)/jit(main)/while/body/jit(_one_step)/vmap(while)/body/while/body/transpose(jvp(vmap(while)))/body/jit(beliefs_propagation)/jit(continuous_node_posterior_update)/jit(posterior_update_precision_continuous_node)/cond/branch_0_fun/jit(precision_update_missing_values)/mul" source_file="/fs04/fc37/adam/projects/psilocybin-prl-analyses/src/prl_hgf/fitting/hierarchical_patrl.py" source_line=362}
  negate.467.1.clone.1 = f64[2,20]{1,0} negate(multiply.2890.1.clone.1), metadata={op_name="jit(scan)/jit(main)/while/body/jit(_one_step)/vmap(while)/body/while/body/transpose(jvp(vmap(while)))/body/jit(beliefs_propagation)/jit(continuous_node_posterior_update)/jit(posterior_update_precision_continuous_node)/cond/branch_0_fun/jit(precision_update_missing_values)/neg" source_file="/fs04/fc37/adam/projects/psilocybin-prl-analyses/src/prl_hgf/fitting/hierarchical_patrl.py" source_line=362}
  ROOT tuple.481 = (f64[2,20]{1,0}, f64[2,20]{1,0}, f64[2,20]{1,0}) tuple(multiply.2893.1, multiply.2892.1.clone.1, negate.467.1.clone.1)
} // fused_multiply_negate

command_buffer.22 {
  p.944 = f64[2,20]{1,0} parameter(0)
  p.945 = f64[2,20]{1,0} parameter(1)
  p.946 = f64[2,20]{1,0} parameter(2)
  p.947 = f64[2,20]{1,0} parameter(3)
  p.948 = f64[] parameter(4)
  p.949 = f64[2,20]{1,0} parameter(5)
  loop_broadcast_fusion.2 = f64[20,1]{1,0} fusion(), kind=kLoop, calls=fused_broadcast.2
  loop_broadcast_fusion.1 = f64[20]{0} fusion(), kind=kLoop, calls=fused_broadcast.1
  loop_broadcast_fusion = f64[2,20]{1,0} fusion(), kind=kLoop, calls=fused_broadcast
  wrapped_copy.179 = f64[2,20]{1,0} fusion(loop_broadcast_fusion), kind=kLoop, calls=wrapped_copy_computation.179
  loop_multiply_negate_fusion = (f64[2,20]{1,0}, f64[2,20]{1,0}, f64[2,20]{1,0}) fusion(p.944, p.945, p.946, p.947, p.948, /*index=5*/p.949), kind=kLoop, calls=fused_multiply_negate, metadata={op_name="jit(scan)/jit(main)/while/body/jit(_one_step)/vmap(while)/body/while/body/transpose(jvp(vmap(while)))/body/jit(beliefs_propagation)/jit(continuous_node_posterior_update)/jit(posterior_update_precision_continuous_node)/cond/branch_0_fun/jit(precision_update_missing_values)/mul" source_file="/fs04/fc37/adam/projects/psilocybin-prl-analyses/src/prl_hgf/fitting/hierarchical_patrl.py" source_line=362}
  ROOT tuple.786 = (f64[20,1]{1,0}, f64[20]{0}, f64[2,20]{1,0}, f64[2,20]{1,0}, (f64[2,20]{1,0}, f64[2,20]{1,0}, f64[2,20]{1,0})) tuple(loop_broadcast_fusion.2, loop_broadcast_fusion.1, loop_broadcast_fusion, wrapped_copy.179, loop_multiply_negate_fusion)
} // command_buffer.22

region_29.5206.clone {
  arg_tuple.6.0 = (f64[2,20]{1,0}, f64[], f64[2,20]{1,0}, f64[2,20]{1,0}, f64[2,20]{1,0}, /*index=5*/f64[2,20]{1,0}) parameter(0)
  get-tuple-element.2425.0 = f64[] get-tuple-element(arg_tuple.6.0), index=1
  get-tuple-element.2429.0 = f64[2,20]{1,0} get-tuple-element(arg_tuple.6.0), index=5
  get-tuple-element.2428.0 = f64[2,20]{1,0} get-tuple-element(arg_tuple.6.0), index=4
  get-tuple-element.2427.0 = f64[2,20]{1,0} get-tuple-element(arg_tuple.6.0), index=3
  get-tuple-element.2426.0 = f64[2,20]{1,0} get-tuple-element(arg_tuple.6.0), index=2
  get-tuple-element.2424.0 = f64[2,20]{1,0} get-tuple-element(arg_tuple.6.0), index=0
  call.12 = (f64[20,1]{1,0}, f64[20]{0}, f64[2,20]{1,0}, f64[2,20]{1,0}, (f64[2,20]{1,0}, f64[2,20]{1,0}, f64[2,20]{1,0})) call(get-tuple-element.2426.0, get-tuple-element.2427.0, get-tuple-element.2429.0, get-tuple-element.2428.0, get-tuple-element.2425.0, /*index=5*/get-tuple-element.2424.0), to_apply=command_buffer.22
  get-tuple-element.18041 = f64[20,1]{1,0} get-tuple-element(call.12), index=0
  get-tuple-element.18042 = f64[20]{0} get-tuple-element(call.12), index=1
  get-tuple-element.18043 = f64[2,20]{1,0} get-tuple-element(call.12), index=2
  get-tuple-element.18044 = f64[2,20]{1,0} get-tuple-element(call.12), index=3
  get-tuple-element.18045 = (f64[2,20]{1,0}, f64[2,20]{1,0}, f64[2,20]{1,0}) get-tuple-element(call.12), index=4
  get-tuple-element.15964 = f64[2,20]{1,0} get-tuple-element(get-tuple-element.18045), index=2, metadata={op_name="jit(scan)/jit(main)/while/body/jit(_one_step)/vmap(while)/body/while/body/transpose(jvp(vmap(while)))/body/jit(beliefs_propagation)/jit(continuous_node_posterior_update)/jit(posterior_update_precision_continuous_node)/cond/branch_0_fun/jit(precision_update_missing_values)/mul" source_file="/fs04/fc37/adam/projects/psilocybin-prl-analyses/src/prl_hgf/fitting/hierarchical_patrl.py" source_line=362}
  get-tuple-element.15965 = f64[2,20]{1,0} get-tuple-element(get-tuple-element.18045), index=1, metadata={op_name="jit(scan)/jit(main)/while/body/jit(_one_step)/vmap(while)/body/while/body/transpose(jvp(vmap(while)))/body/jit(beliefs_propagation)/jit(continuous_node_posterior_update)/jit(posterior_update_precision_continuous_node)/cond/branch_0_fun/jit(precision_update_missing_values)/mul" source_file="/fs04/fc37/adam/projects/psilocybin-prl-analyses/src/prl_hgf/fitting/hierarchical_patrl.py" source_line=362}
  get-tuple-element.15966 = f64[2,20]{1,0} get-tuple-element(get-tuple-element.18045), index=0, metadata={op_name="jit(scan)/jit(main)/while/body/jit(_one_step)/vmap(while)/body/while/body/transpose(jvp(vmap(while)))/body/jit(beliefs_propagation)/jit(continuous_node_posterior_update)/jit(posterior_update_precision_continuous_node)/cond/branch_0_fun/jit(precision_update_missing_values)/mul" source_file="/fs04/fc37/adam/projects/psilocybin-prl-analyses/src/prl_hgf/fitting/hierarchical_patrl.py" source_line=362}
  ROOT tuple.739 = (f64[20]{0}, f64[2,20]{1,0}, f64[2,20]{1,0}, f64[2,20]{1,0}, f64[2,20]{1,0}, /*index=5*/f64[2,20]{1,0}, f64[20,1]{1,0}) tuple(get-tuple-element.18042, get-tuple-element.18043, get-tuple-element.18044, get-tuple-element.15964, get-tuple-element.15965, /*index=5*/get-tuple-element.15966, get-tuple-element.18041)
} // region_29.5206.clone

fused_broadcast.4 {
  constant_1436_3 = f64[] constant(0)
  ROOT broadcast.4023.1 = f64[20,1]{1,0} broadcast(constant_1436_3), dimensions={}
}

fused_broadcast.3 {
  constant_1436_2 = f64[] constant(0)
  ROOT broadcast.4020.1 = f64[20]{0} broadcast(constant_1436_2), dimensions={}
}

fused_broadcast_multiply_select {
  param_0.61 = f64[2,20]{1,0} parameter(0)
  param_2.5829 = pred[2,20]{1,0} parameter(2)
  param_3.4933 = f64[2,20]{1,0} parameter(3)
  constant_1436_1_clone_1 = f64[] constant(0)
  broadcast.4021.clone.2.1.clone.1 = f64[2,20]{1,0} broadcast(constant_1436_1_clone_1), dimensions={}, metadata={op_name="jit(scan)/jit(main)/while/body/jit(_one_step)/vmap(while)/body/while/body/transpose(jvp(vmap(while)))/body/jit(beliefs_propagation)/jit(continuous_node_posterior_update)/jit(posterior_update_precision_continuous_node)/cond/branch_1_fun/jit(precision_update)/jit(_where)/broadcast_in_dim[shape=(2, 20) broadcast_dimensions=(np.int64(1),)]" source_file="/fs04/fc37/adam/projects/psilocybin-prl-analyses/src/prl_hgf/env/pat_rl_simulator.py" source_line=92}
  select.2972.1 = f64[2,20]{1,0} select(param_2.5829, param_3.4933, broadcast.4021.clone.2.1.clone.1), metadata={op_name="jit(scan)/jit(main)/while/body/jit(_one_step)/vmap(while)/body/while/body/transpose(jvp(vmap(while)))/body/jit(beliefs_propagation)/jit(continuous_node_posterior_update)/jit(posterior_update_precision_continuous_node)/cond/branch_1_fun/jit(precision_update)/jit(_where)/select_n" source_file="/fs04/fc37/adam/projects/psilocybin-prl-analyses/src/prl_hgf/env/pat_rl_simulator.py" source_line=92}
  param_1.7592 = f64[] parameter(1)
  broadcast.4022.3 = f64[2,20]{1,0} broadcast(param_1.7592), dimensions={}, metadata={op_name="jit(scan)/jit(main)/while/body/jit(_one_step)/vmap(while)/body/while/body/transpose(jvp(vmap(while)))/body/jit(beliefs_propagation)/jit(continuous_node_posterior_update)/jit(posterior_update_precision_continuous_node)/cond/branch_1_fun/jit(precision_update)/mul" source_file="/fs04/fc37/adam/projects/psilocybin-prl-analyses/src/prl_hgf/fitting/hierarchical_patrl.py" source_line=362}
  multiply.2894.3 = f64[2,20]{1,0} multiply(select.2972.1, broadcast.4022.3), metadata={op_name="jit(scan)/jit(main)/while/body/jit(_one_step)/vmap(while)/body/while/body/transpose(jvp(vmap(while)))/body/jit(beliefs_propagation)/jit(continuous_node_posterior_update)/jit(posterior_update_precision_continuous_node)/cond/branch_1_fun/jit(precision_update)/mul" source_file="/fs04/fc37/adam/projects/psilocybin-prl-analyses/src/prl_hgf/fitting/hierarchical_patrl.py" source_line=362}
  multiply.2895.1 = f64[2,20]{1,0} multiply(param_0.61, multiply.2894.3), metadata={op_name="jit(scan)/jit(main)/while/body/jit(_one_step)/vmap(while)/body/while/body/transpose(jvp(vmap(while)))/body/jit(beliefs_propagation)/jit(continuous_node_posterior_update)/jit(posterior_update_precision_continuous_node)/cond/branch_1_fun/jit(precision_update)/mul" source_file="/fs04/fc37/adam/projects/psilocybin-prl-analyses/src/prl_hgf/fitting/hierarchical_patrl.py" source_line=362}
  ROOT tuple.483 = (f64[2,20]{1,0}, f64[2,20]{1,0}, f64[2,20]{1,0}) tuple(multiply.2895.1, select.2972.1, broadcast.4021.clone.2.1.clone.1)
} // fused_broadcast_multiply_select

wrapped_copy_computation.180 {
  param_0.5590 = f64[2,20]{1,0} parameter(0)
  ROOT copy.1369 = f64[2,20]{1,0} copy(param_0.5590)
}

wrapped_copy_computation.181 {
  param_0.5591 = f64[2,20]{1,0} parameter(0)
  ROOT copy.1370 = f64[2,20]{1,0} copy(param_0.5591)
}

command_buffer.20 {
  p.936 = f64[2,20]{1,0} parameter(0)
  p.937 = f64[] parameter(1)
  p.938 = pred[2,20]{1,0} parameter(2)
  p.939 = f64[2,20]{1,0} parameter(3)
  loop_broadcast_fusion.4 = f64[20,1]{1,0} fusion(), kind=kLoop, calls=fused_broadcast.4
  loop_broadcast_fusion.3 = f64[20]{0} fusion(), kind=kLoop, calls=fused_broadcast.3
  loop_broadcast_multiply_select_fusion = (f64[2,20]{1,0}, f64[2,20]{1,0}, f64[2,20]{1,0}) fusion(p.936, p.937, p.938, p.939), kind=kLoop, calls=fused_broadcast_multiply_select, metadata={op_name="jit(scan)/jit(main)/while/body/jit(_one_step)/vmap(while)/body/while/body/transpose(jvp(vmap(while)))/body/jit(beliefs_propagation)/jit(continuous_node_posterior_update)/jit(posterior_update_precision_continuous_node)/cond/branch_1_fun/jit(precision_update)/mul" source_file="/fs04/fc37/adam/projects/psilocybin-prl-analyses/src/prl_hgf/fitting/hierarchical_patrl.py" source_line=362}
  get-tuple-element.15973 = f64[2,20]{1,0} get-tuple-element(loop_broadcast_multiply_select_fusion), index=2, metadata={op_name="jit(scan)/jit(main)/while/body/jit(_one_step)/vmap(while)/body/while/body/transpose(jvp(vmap(while)))/body/jit(beliefs_propagation)/jit(continuous_node_posterior_update)/jit(posterior_update_precision_continuous_node)/cond/branch_1_fun/jit(precision_update)/mul" source_file="/fs04/fc37/adam/projects/psilocybin-prl-analyses/src/prl_hgf/fitting/hierarchical_patrl.py" source_line=362}
  get-tuple-element.15970 = f64[2,20]{1,0} get-tuple-element(loop_broadcast_multiply_select_fusion), index=1, metadata={op_name="jit(scan)/jit(main)/while/body/jit(_one_step)/vmap(while)/body/while/body/transpose(jvp(vmap(while)))/body/jit(beliefs_propagation)/jit(continuous_node_posterior_update)/jit(posterior_update_precision_continuous_node)/cond/branch_1_fun/jit(precision_update)/mul" source_file="/fs04/fc37/adam/projects/psilocybin-prl-analyses/src/prl_hgf/fitting/hierarchical_patrl.py" source_line=362}
  get-tuple-element.15969 = f64[2,20]{1,0} get-tuple-element(loop_broadcast_multiply_select_fusion), index=0, metadata={op_name="jit(scan)/jit(main)/while/body/jit(_one_step)/vmap(while)/body/while/body/transpose(jvp(vmap(while)))/body/jit(beliefs_propagation)/jit(continuous_node_posterior_update)/jit(posterior_update_precision_continuous_node)/cond/branch_1_fun/jit(precision_update)/mul" source_file="/fs04/fc37/adam/projects/psilocybin-prl-analyses/src/prl_hgf/fitting/hierarchical_patrl.py" source_line=362}
  wrapped_copy.180 = f64[2,20]{1,0} fusion(get-tuple-element.15973), kind=kLoop, calls=wrapped_copy_computation.180
  wrapped_copy.181 = f64[2,20]{1,0} fusion(get-tuple-element.15973), kind=kLoop, calls=wrapped_copy_computation.181
  ROOT tuple.784 = (f64[20,1]{1,0}, f64[20]{0}, f64[2,20]{1,0}, f64[2,20]{1,0}, f64[2,20]{1,0}, /*index=5*/f64[2,20]{1,0}, f64[2,20]{1,0}) tuple(loop_broadcast_fusion.4, loop_broadcast_fusion.3, get-tuple-element.15973, get-tuple-element.15970, get-tuple-element.15969, /*index=5*/wrapped_copy.180, wrapped_copy.181)
} // command_buffer.20

region_30.5243.clone.clone {
  arg_tuple.8.0 = (f64[2,20]{1,0}, f64[], pred[2,20]{1,0}, f64[2,20]{1,0}) parameter(0)
  get-tuple-element.2449.0 = f64[] get-tuple-element(arg_tuple.8.0), index=1
  get-tuple-element.2451.0 = f64[2,20]{1,0} get-tuple-element(arg_tuple.8.0), index=3
  get-tuple-element.2450.0 = pred[2,20]{1,0} get-tuple-element(arg_tuple.8.0), index=2
  get-tuple-element.2448.0 = f64[2,20]{1,0} get-tuple-element(arg_tuple.8.0), index=0
  call.11 = (f64[20,1]{1,0}, f64[20]{0}, f64[2,20]{1,0}, f64[2,20]{1,0}, f64[2,20]{1,0}, /*index=5*/f64[2,20]{1,0}, f64[2,20]{1,0}) call(get-tuple-element.2448.0, get-tuple-element.2449.0, get-tuple-element.2450.0, get-tuple-element.2451.0), to_apply=command_buffer.20
  get-tuple-element.18034 = f64[20,1]{1,0} get-tuple-element(call.11), index=0
  get-tuple-element.18035 = f64[20]{0} get-tuple-element(call.11), index=1
  get-tuple-element.18036 = f64[2,20]{1,0} get-tuple-element(call.11), index=2
  get-tuple-element.18037 = f64[2,20]{1,0} get-tuple-element(call.11), index=3
  get-tuple-element.18038 = f64[2,20]{1,0} get-tuple-element(call.11), index=4
  get-tuple-element.18039 = f64[2,20]{1,0} get-tuple-element(call.11), index=5
  get-tuple-element.18040 = f64[2,20]{1,0} get-tuple-element(call.11), index=6
  ROOT tuple.740 = (f64[20]{0}, f64[2,20]{1,0}, f64[2,20]{1,0}, f64[2,20]{1,0}, f64[2,20]{1,0}, /*index=5*/f64[2,20]{1,0}, f64[20,1]{1,0}) tuple(get-tuple-element.18035, get-tuple-element.18038, get-tuple-element.18037, get-tuple-element.18036, get-tuple-element.18039, /*index=5*/get-tuple-element.18040, get-tuple-element.18034)
} // region_30.5243.clone.clone

fused_add_select {
  param_1.1056 = pred[192,2,20]{2,1,0} parameter(1)
  constant_1987_20 = s64[] constant(191)
  param_2.880 = s64[] parameter(2)
  subtract.220.39 = s64[] subtract(constant_1987_20, param_2.880), metadata={op_name="jit(scan)/jit(main)/while/body/jit(_one_step)/vmap(while)/body/while/body/transpose(jvp(vmap(while)))/body/sub" source_file="/fs04/fc37/adam/projects/psilocybin-prl-analyses/src/prl_hgf/fitting/hierarchical_patrl.py" source_line=378}
  constant_1980_14 = s64[] constant(0)
  compare.1131.39 = pred[] compare(subtract.220.39, constant_1980_14), direction=LT, metadata={op_name="jit(scan)/jit(main)/while/body/jit(_one_step)/vmap(while)/body/while/body/transpose(jvp(vmap(while)))/body/lt" source_file="/fs04/fc37/adam/projects/psilocybin-prl-analyses/src/prl_hgf/fitting/hierarchical_patrl.py" source_line=378}
  constant_1988_20 = s64[] constant(383)
  subtract.221.39 = s64[] subtract(constant_1988_20, param_2.880), metadata={op_name="jit(scan)/jit(main)/while/body/jit(_one_step)/vmap(while)/body/while/body/transpose(jvp(vmap(while)))/body/add" source_file="/fs04/fc37/adam/projects/psilocybin-prl-analyses/src/prl_hgf/fitting/hierarchical_patrl.py" source_line=378}
  select.2973.39 = s64[] select(compare.1131.39, subtract.221.39, subtract.220.39), metadata={op_name="jit(scan)/jit(main)/while/body/jit(_one_step)/vmap(while)/body/while/body/transpose(jvp(vmap(while)))/body/select_n" source_file="/fs04/fc37/adam/projects/psilocybin-prl-analyses/src/prl_hgf/fitting/hierarchical_patrl.py" source_line=378}
  dynamic-slice.1237.30 = pred[1,2,20]{2,1,0} dynamic-slice(param_1.1056, select.2973.39, constant_1980_14, constant_1980_14), dynamic_slice_sizes={1,2,20}, metadata={op_name="jit(scan)/jit(main)/while/body/jit(_one_step)/vmap(while)/body/while/body/transpose(jvp(vmap(while)))/body/dynamic_slice[slice_sizes=(1, 2, 20)]" source_file="/fs04/fc37/adam/projects/psilocybin-prl-analyses/src/prl_hgf/fitting/hierarchical_patrl.py" source_line=378}
  bitcast.10661.29 = pred[2,20]{1,0} bitcast(dynamic-slice.1237.30)
  constant_1982_20 = f64[] constant(0)
  broadcast.4024.clone.83 = f64[2,20]{1,0} broadcast(constant_1982_20), dimensions={}
  param_0.272 = f64[2,20]{1,0} parameter(0)
  select.3007.1 = f64[2,20]{1,0} select(bitcast.10661.29, broadcast.4024.clone.83, param_0.272), metadata={op_name="jit(scan)/jit(main)/while/body/jit(_one_step)/vmap(while)/body/while/body/transpose(jvp(vmap(while)))/body/jit(_where)/select_n" source_file="/fs04/fc37/adam/projects/psilocybin-prl-analyses/src/prl_hgf/env/pat_rl_simulator.py" source_line=92}
  param_9.1697 = f64[2,20]{1,0} parameter(9)
  select.3009.3.clone.1 = f64[2,20]{1,0} select(bitcast.10661.29, broadcast.4024.clone.83, param_9.1697), metadata={op_name="jit(scan)/jit(main)/while/body/jit(_one_step)/vmap(while)/body/while/body/transpose(jvp(vmap(while)))/body/jit(_where)/select_n" source_file="/fs04/fc37/adam/projects/psilocybin-prl-analyses/src/prl_hgf/fitting/hierarchical_patrl.py" source_line=370}
  param_4.3627 = f64[2,20]{1,0} parameter(4)
  param_21.1493 = f64[192,2,20]{2,1,0} parameter(21)
  dynamic-slice.1261.6.clone.1 = f64[1,2,20]{2,1,0} dynamic-slice(param_21.1493, select.2973.39, constant_1980_14, constant_1980_14), dynamic_slice_sizes={1,2,20}, metadata={op_name="jit(scan)/jit(main)/while/body/jit(_one_step)/vmap(while)/body/while/body/transpose(jvp(vmap(while)))/body/dynamic_slice[slice_sizes=(1, 2, 20)]" source_file="/fs04/fc37/adam/projects/psilocybin-prl-analyses/src/prl_hgf/fitting/hierarchical_patrl.py" source_line=378}
  bitcast.11117.6.clone.1 = f64[2,20]{1,0} bitcast(dynamic-slice.1261.6.clone.1)
  param_20.1751 = pred[192,2,20]{2,1,0} parameter(20)
  dynamic-slice.1274.3.clone.1 = pred[1,2,20]{2,1,0} dynamic-slice(param_20.1751, select.2973.39, constant_1980_14, constant_1980_14), dynamic_slice_sizes={1,2,20}, metadata={op_name="jit(scan)/jit(main)/while/body/jit(_one_step)/vmap(while)/body/while/body/transpose(jvp(vmap(while)))/body/dynamic_slice[slice_sizes=(1, 2, 20)]" source_file="/fs04/fc37/adam/projects/psilocybin-prl-analyses/src/prl_hgf/fitting/hierarchical_patrl.py" source_line=378}
  bitcast.11451.5.clone.1 = pred[2,20]{1,0} bitcast(dynamic-slice.1274.3.clone.1)
  param_37.234 = f64[2,20]{1,0} parameter(37)
  select.2996.9.clone.1 = f64[2,20]{1,0} select(bitcast.10661.29, param_37.234, broadcast.4024.clone.83), metadata={op_name="jit(scan)/jit(main)/while/body/jit(_one_step)/vmap(while)/body/while/body/transpose(jvp(vmap(while)))/body/jit(_where)/select_n" source_file="/fs04/fc37/adam/projects/psilocybin-prl-analyses/src/prl_hgf/env/pat_rl_simulator.py" source_line=92}
  param_36.258 = f64[2,20]{1,0} parameter(36)
  select.2982.9.clone.1 = f64[2,20]{1,0} select(bitcast.10661.29, param_36.258, broadcast.4024.clone.83), metadata={op_name="jit(scan)/jit(main)/while/body/jit(_one_step)/vmap(while)/body/while/body/transpose(jvp(vmap(while)))/body/jit(_where)/select_n" source_file="/fs04/fc37/adam/projects/psilocybin-prl-analyses/src/prl_hgf/env/pat_rl_simulator.py" source_line=92}
  param_18.1529 = pred[192,2,20]{2,1,0} parameter(18)
  dynamic-slice.1243.13.clone.1 = pred[1,2,20]{2,1,0} dynamic-slice(param_18.1529, select.2973.39, constant_1980_14, constant_1980_14), dynamic_slice_sizes={1,2,20}, metadata={op_name="jit(scan)/jit(main)/while/body/jit(_one_step)/vmap(while)/body/while/body/transpose(jvp(vmap(while)))/body/dynamic_slice[slice_sizes=(1, 2, 20)]" source_file="/fs04/fc37/adam/projects/psilocybin-prl-analyses/src/prl_hgf/fitting/hierarchical_patrl.py" source_line=378}
  bitcast.10789.29.clone.1 = pred[2,20]{1,0} bitcast(dynamic-slice.1243.13.clone.1)
  param_35.267 = f64[192,2,20]{2,1,0} parameter(35)
  dynamic-slice.1244.11.clone.1 = f64[1,2,20]{2,1,0} dynamic-slice(param_35.267, select.2973.39, constant_1980_14, constant_1980_14), dynamic_slice_sizes={1,2,20}, metadata={op_name="jit(scan)/jit(main)/while/body/jit(_one_step)/vmap(while)/body/while/body/transpose(jvp(vmap(while)))/body/dynamic_slice[slice_sizes=(1, 2, 20)]" source_file="/fs04/fc37/adam/projects/psilocybin-prl-analyses/src/prl_hgf/fitting/hierarchical_patrl.py" source_line=378}
  bitcast.10798.11.clone.1 = f64[2,20]{1,0} bitcast(dynamic-slice.1244.11.clone.1)
  param_16.1173 = pred[192,2,20]{2,1,0} parameter(16)
  dynamic-slice.1245.18.clone.1 = pred[1,2,20]{2,1,0} dynamic-slice(param_16.1173, select.2973.39, constant_1980_14, constant_1980_14), dynamic_slice_sizes={1,2,20}, metadata={op_name="jit(scan)/jit(main)/while/body/jit(_one_step)/vmap(while)/body/while/body/transpose(jvp(vmap(while)))/body/dynamic_slice[slice_sizes=(1, 2, 20)]" source_file="/fs04/fc37/adam/projects/psilocybin-prl-analyses/src/prl_hgf/fitting/hierarchical_patrl.py" source_line=378}
  bitcast.10807.25.clone.1 = pred[2,20]{1,0} bitcast(dynamic-slice.1245.18.clone.1)
  param_15.1073 = s32[192,2,20]{2,1,0} parameter(15)
  dynamic-slice.1246.26.clone.1 = s32[1,2,20]{2,1,0} dynamic-slice(param_15.1073, select.2973.39, constant_1980_14, constant_1980_14), dynamic_slice_sizes={1,2,20}, metadata={op_name="jit(scan)/jit(main)/while/body/jit(_one_step)/vmap(while)/body/while/body/transpose(jvp(vmap(while)))/body/dynamic_slice[slice_sizes=(1, 2, 20)]" source_file="/fs04/fc37/adam/projects/psilocybin-prl-analyses/src/prl_hgf/fitting/hierarchical_patrl.py" source_line=378}
  constant_1983_3_clone_1 = s32[] constant(1)
  broadcast.4025.21.clone.1 = s32[1,2,20]{2,1,0} broadcast(constant_1983_3_clone_1), dimensions={}
  compare.1132.21.clone.1 = pred[1,2,20]{2,1,0} compare(dynamic-slice.1246.26.clone.1, broadcast.4025.21.clone.1), direction=EQ, metadata={op_name="jit(scan)/jit(main)/while/body/jit(_one_step)/vmap(while)/body/while/body/transpose(jvp(vmap(while)))/body/jit(beliefs_propagation)/jit(continuous_node_posterior_update_ehgf)/jit(posterior_update_precision_continuous_node)/eq" source_file="/fs04/fc37/adam/projects/psilocybin-prl-analyses/src/prl_hgf/fitting/hierarchical_patrl.py" source_line=362}
  bitcast.10819.25.clone.1 = pred[2,20]{1,0} bitcast(compare.1132.21.clone.1)
  param_14.1075 = f64[2,20]{1,0} parameter(14)
  select.2983.31.clone.1 = f64[2,20]{1,0} select(bitcast.10661.29, param_14.1075, broadcast.4024.clone.83), metadata={op_name="jit(scan)/jit(main)/while/body/jit(_one_step)/vmap(while)/body/while/body/transpose(jvp(vmap(while)))/body/jit(_where)/select_n" source_file="/fs04/fc37/adam/projects/psilocybin-prl-analyses/src/prl_hgf/env/pat_rl_simulator.py" source_line=92}
  select.2984.25.clone.1 = f64[2,20]{1,0} select(bitcast.10819.25.clone.1, select.2983.31.clone.1, broadcast.4024.clone.83), metadata={op_name="jit(scan)/jit(main)/while/body/jit(_one_step)/vmap(while)/body/while/body/transpose(jvp(vmap(while)))/body/jit(beliefs_propagation)/jit(continuous_node_posterior_update_ehgf)/jit(posterior_update_precision_continuous_node)/select_n" source_file="/fs04/fc37/adam/projects/psilocybin-prl-analyses/src/prl_hgf/fitting/hierarchical_patrl.py" source_line=362}
  select.2985.25.clone.1 = f64[2,20]{1,0} select(bitcast.10807.25.clone.1, select.2984.25.clone.1, broadcast.4024.clone.83), metadata={op_name="jit(scan)/jit(main)/while/body/jit(_one_step)/vmap(while)/body/while/body/transpose(jvp(vmap(while)))/body/jit(beliefs_propagation)/jit(continuous_node_posterior_update_ehgf)/jit(posterior_update_precision_continuous_node)/jit(precision_update)/jit(_where)/select_n" source_file="/fs04/fc37/adam/projects/psilocybin-prl-analyses/src/prl_hgf/env/pat_rl_simulator.py" source_line=92}
  param_13.1167 = f64[192,2,20]{2,1,0} parameter(13)
  dynamic-slice.1247.32.clone.1 = f64[1,2,20]{2,1,0} dynamic-slice(param_13.1167, select.2973.39, constant_1980_14, constant_1980_14), dynamic_slice_sizes={1,2,20}, metadata={op_name="jit(scan)/jit(main)/while/body/jit(_one_step)/vmap(while)/body/while/body/transpose(jvp(vmap(while)))/body/dynamic_slice[slice_sizes=(1, 2, 20)]" source_file="/fs04/fc37/adam/projects/psilocybin-prl-analyses/src/prl_hgf/fitting/hierarchical_patrl.py" source_line=378}
  bitcast.10839.32.clone.1 = f64[2,20]{1,0} bitcast(dynamic-slice.1247.32.clone.1)
  multiply.2896.13.clone.1 = f64[2,20]{1,0} multiply(select.2985.25.clone.1, bitcast.10839.32.clone.1), metadata={op_name="jit(scan)/jit(main)/while/body/jit(_one_step)/vmap(while)/body/while/body/transpose(jvp(vmap(while)))/body/jit(beliefs_propagation)/jit(continuous_node_posterior_update_ehgf)/jit(posterior_update_precision_continuous_node)/jit(precision_update)/mul" source_file="/fs04/fc37/adam/projects/psilocybin-prl-analyses/src/prl_hgf/fitting/hierarchical_patrl.py" source_line=362}
  negate.468.16.clone.1 = f64[2,20]{1,0} negate(multiply.2896.13.clone.1), metadata={op_name="jit(scan)/jit(main)/while/body/jit(_one_step)/vmap(while)/body/while/body/transpose(jvp(vmap(while)))/body/jit(beliefs_propagation)/jit(continuous_node_posterior_update_ehgf)/jit(posterior_update_precision_continuous_node)/jit(precision_update)/neg" source_file="/fs04/fc37/adam/projects/psilocybin-prl-analyses/src/prl_hgf/fitting/hierarchical_patrl.py" source_line=362}
  multiply.2897.11.clone.1 = f64[2,20]{1,0} multiply(bitcast.10798.11.clone.1, negate.468.16.clone.1), metadata={op_name="jit(scan)/jit(main)/while/body/jit(_one_step)/vmap(while)/body/while/body/transpose(jvp(vmap(while)))/body/jit(beliefs_propagation)/jit(continuous_node_posterior_update_ehgf)/jit(posterior_update_precision_continuous_node)/jit(precision_update)/mul" source_file="/fs04/fc37/adam/projects/psilocybin-prl-analyses/src/prl_hgf/fitting/hierarchical_patrl.py" source_line=362}
  param_34.278 = f64[192,2,20]{2,1,0} parameter(34)
  dynamic-slice.1248.9.clone.1 = f64[1,2,20]{2,1,0} dynamic-slice(param_34.278, select.2973.39, constant_1980_14, constant_1980_14), dynamic_slice_sizes={1,2,20}, metadata={op_name="jit(scan)/jit(main)/while/body/jit(_one_step)/vmap(while)/body/while/body/transpose(jvp(vmap(while)))/body/dynamic_slice[slice_sizes=(1, 2, 20)]" source_file="/fs04/fc37/adam/projects/psilocybin-prl-analyses/src/prl_hgf/fitting/hierarchical_patrl.py" source_line=378}
  bitcast.10851.9.clone.1 = f64[2,20]{1,0} bitcast(dynamic-slice.1248.9.clone.1)
  multiply.2898.9.clone.1 = f64[2,20]{1,0} multiply(bitcast.10851.9.clone.1, multiply.2896.13.clone.1), metadata={op_name="jit(scan)/jit(main)/while/body/jit(_one_step)/vmap(while)/body/while/body/transpose(jvp(vmap(while)))/body/jit(beliefs_propagation)/jit(continuous_node_posterior_update_ehgf)/jit(posterior_update_precision_continuous_node)/jit(precision_update)/mul" source_file="/fs04/fc37/adam/projects/psilocybin-prl-analyses/src/prl_hgf/fitting/hierarchical_patrl.py" source_line=362}
  add.3976.9.clone.1 = f64[2,20]{1,0} add(multiply.2897.11.clone.1, multiply.2898.9.clone.1), metadata={op_name="jit(scan)/jit(main)/while/body/jit(_one_step)/vmap(while)/body/while/body/transpose(jvp(vmap(while)))/body/jit(beliefs_propagation)/jit(continuous_node_posterior_update_ehgf)/jit(posterior_update_precision_continuous_node)/jit(precision_update)/add_any" source_file="/fs04/fc37/adam/projects/psilocybin-prl-analyses/src/prl_hgf/fitting/hierarchical_patrl.py" source_line=362}
  select.2986.11.clone.1 = f64[2,20]{1,0} select(bitcast.10789.29.clone.1, add.3976.9.clone.1, broadcast.4024.clone.83), metadata={op_name="jit(scan)/jit(main)/while/body/jit(_one_step)/vmap(while)/body/while/body/transpose(jvp(vmap(while)))/body/jit(beliefs_propagation)/jit(continuous_node_posterior_update_ehgf)/jit(posterior_update_precision_continuous_node)/select_n" source_file="/fs04/fc37/adam/projects/psilocybin-prl-analyses/src/prl_hgf/fitting/hierarchical_patrl.py" source_line=362}
  param_33.282 = f64[192,2,20]{2,1,0} parameter(33)
  dynamic-slice.1249.9.clone.1 = f64[1,2,20]{2,1,0} dynamic-slice(param_33.282, select.2973.39, constant_1980_14, constant_1980_14), dynamic_slice_sizes={1,2,20}, metadata={op_name="jit(scan)/jit(main)/while/body/jit(_one_step)/vmap(while)/body/while/body/transpose(jvp(vmap(while)))/body/dynamic_slice[slice_sizes=(1, 2, 20)]" source_file="/fs04/fc37/adam/projects/psilocybin-prl-analyses/src/prl_hgf/fitting/hierarchical_patrl.py" source_line=378}
  bitcast.10865.9.clone.1 = f64[2,20]{1,0} bitcast(dynamic-slice.1249.9.clone.1)
  select.2987.25.clone.1 = f64[2,20]{1,0} select(bitcast.10661.29, param_9.1697, broadcast.4024.clone.83), metadata={op_name="jit(scan)/jit(main)/while/body/jit(_one_step)/vmap(while)/body/while/body/transpose(jvp(vmap(while)))/body/jit(_where)/select_n" source_file="/fs04/fc37/adam/projects/psilocybin-prl-analyses/src/prl_hgf/fitting/hierarchical_patrl.py" source_line=370}
  multiply.2899.19.clone.1 = f64[2,20]{1,0} multiply(select.2987.25.clone.1, bitcast.10839.32.clone.1), metadata={op_name="jit(scan)/jit(main)/while/body/jit(_one_step)/vmap(while)/body/while/body/transpose(jvp(vmap(while)))/body/jit(beliefs_propagation)/jit(continuous_node_posterior_update_ehgf)/jit(posterior_update_mean_continuous_node)/mul" source_file="/fs04/fc37/adam/projects/psilocybin-prl-analyses/src/prl_hgf/fitting/hierarchical_patrl.py" source_line=362}
  param_8.1881 = f64[192,2,20]{2,1,0} parameter(8)
  dynamic-slice.1250.15.clone.1 = f64[1,2,20]{2,1,0} dynamic-slice(param_8.1881, select.2973.39, constant_1980_14, constant_1980_14), dynamic_slice_sizes={1,2,20}, metadata={op_name="jit(scan)/jit(main)/while/body/jit(_one_step)/vmap(while)/body/while/body/transpose(jvp(vmap(while)))/body/dynamic_slice[slice_sizes=(1, 2, 20)]" source_file="/fs04/fc37/adam/projects/psilocybin-prl-analyses/src/prl_hgf/fitting/hierarchical_patrl.py" source_line=378}
  bitcast.10888.15.clone.1 = f64[2,20]{1,0} bitcast(dynamic-slice.1250.15.clone.1)
  multiply.2900.15.clone.1 = f64[2,20]{1,0} multiply(multiply.2899.19.clone.1, bitcast.10888.15.clone.1), metadata={op_name="jit(scan)/jit(main)/while/body/jit(_one_step)/vmap(while)/body/while/body/transpose(jvp(vmap(while)))/body/jit(beliefs_propagation)/jit(continuous_node_posterior_update_ehgf)/jit(posterior_update_mean_continuous_node)/mul" source_file="/fs04/fc37/adam/projects/psilocybin-prl-analyses/src/prl_hgf/fitting/hierarchical_patrl.py" source_line=362}
  multiply.2901.9.clone.1 = f64[2,20]{1,0} multiply(bitcast.10865.9.clone.1, multiply.2900.15.clone.1), metadata={op_name="jit(scan)/jit(main)/while/body/jit(_one_step)/vmap(while)/body/while/body/transpose(jvp(vmap(while)))/body/jit(beliefs_propagation)/jit(continuous_node_posterior_update_ehgf)/jit(posterior_update_mean_continuous_node)/mul" source_file="/fs04/fc37/adam/projects/psilocybin-prl-analyses/src/prl_hgf/fitting/hierarchical_patrl.py" source_line=362}
  add.3977.9.clone.1 = f64[2,20]{1,0} add(select.2986.11.clone.1, multiply.2901.9.clone.1), metadata={op_name="jit(scan)/jit(main)/while/body/jit(_one_step)/vmap(while)/body/while/body/transpose(jvp(vmap(while)))/body/jit(beliefs_propagation)/jit(continuous_node_posterior_update_ehgf)/add_any" source_file="/fs04/fc37/adam/projects/psilocybin-prl-analyses/src/prl_hgf/fitting/hierarchical_patrl.py" source_line=362}
  add.3978.7.clone.1 = f64[2,20]{1,0} add(select.2982.9.clone.1, add.3977.9.clone.1), metadata={op_name="jit(scan)/jit(main)/while/body/jit(_one_step)/vmap(while)/body/while/body/transpose(jvp(vmap(while)))/body/jit(beliefs_propagation)/add_any" source_file="/fs04/fc37/adam/projects/psilocybin-prl-analyses/src/prl_hgf/fitting/hierarchical_patrl.py" source_line=362}
  param_32.297 = f64[192,2,20]{2,1,0} parameter(32)
  dynamic-slice.1266.5.clone.1 = f64[1,2,20]{2,1,0} dynamic-slice(param_32.297, select.2973.39, constant_1980_14, constant_1980_14), dynamic_slice_sizes={1,2,20}, metadata={op_name="jit(scan)/jit(main)/while/body/jit(_one_step)/vmap(while)/body/while/body/transpose(jvp(vmap(while)))/body/dynamic_slice[slice_sizes=(1, 2, 20)]" source_file="/fs04/fc37/adam/projects/psilocybin-prl-analyses/src/prl_hgf/fitting/hierarchical_patrl.py" source_line=378}
  bitcast.11213.5.clone.1 = f64[2,20]{1,0} bitcast(dynamic-slice.1266.5.clone.1)
  multiply.2919.5.clone.1 = f64[2,20]{1,0} multiply(add.3978.7.clone.1, bitcast.11213.5.clone.1), metadata={op_name="jit(scan)/jit(main)/while/body/jit(_one_step)/vmap(while)/body/while/body/transpose(jvp(vmap(while)))/body/jit(beliefs_propagation)/jit(continuous_node_prediction_error)/jit(continuous_node_volatility_prediction_error)/mul" source_file="/fs04/fc37/adam/projects/psilocybin-prl-analyses/src/prl_hgf/fitting/hierarchical_patrl.py" source_line=362}
  param_31.335 = f64[192,2,20]{2,1,0} parameter(31)
  dynamic-slice.1262.12.clone.1 = f64[1,2,20]{2,1,0} dynamic-slice(param_31.335, select.2973.39, constant_1980_14, constant_1980_14), dynamic_slice_sizes={1,2,20}, metadata={op_name="jit(scan)/jit(main)/while/body/jit(_one_step)/vmap(while)/body/while/body/transpose(jvp(vmap(while)))/body/dynamic_slice[slice_sizes=(1, 2, 20)]" source_file="/fs04/fc37/adam/projects/psilocybin-prl-analyses/src/prl_hgf/fitting/hierarchical_patrl.py" source_line=378}
  bitcast.11128.12.clone.1 = f64[2,20]{1,0} bitcast(dynamic-slice.1262.12.clone.1)
  divide.598.5.clone.1 = f64[2,20]{1,0} divide(add.3978.7.clone.1, bitcast.11128.12.clone.1), metadata={op_name="jit(scan)/jit(main)/while/body/jit(_one_step)/vmap(while)/body/while/body/transpose(jvp(vmap(while)))/body/jit(beliefs_propagation)/jit(continuous_node_prediction_error)/jit(continuous_node_volatility_prediction_error)/div" source_file="/fs04/fc37/adam/projects/psilocybin-prl-analyses/src/prl_hgf/fitting/hierarchical_patrl.py" source_line=362}
  add.4000.3.clone.1 = f64[2,20]{1,0} add(multiply.2919.5.clone.1, divide.598.5.clone.1), metadata={op_name="jit(scan)/jit(main)/while/body/jit(_one_step)/vmap(while)/body/while/body/transpose(jvp(vmap(while)))/body/jit(beliefs_propagation)/jit(continuous_node_prediction_error)/jit(continuous_node_volatility_prediction_error)/add_any" source_file="/fs04/fc37/adam/projects/psilocybin-prl-analyses/src/prl_hgf/fitting/hierarchical_patrl.py" source_line=362}
  add.4001.7.clone.1 = f64[2,20]{1,0} add(select.2996.9.clone.1, add.4000.3.clone.1), metadata={op_name="jit(scan)/jit(main)/while/body/jit(_one_step)/vmap(while)/body/while/body/transpose(jvp(vmap(while)))/body/jit(beliefs_propagation)/add_any" source_file="/fs04/fc37/adam/projects/psilocybin-prl-analyses/src/prl_hgf/fitting/hierarchical_patrl.py" source_line=362}
  param_30.407 = f64[2,20]{1,0} parameter(30)
  add.4002.5.clone.1 = f64[2,20]{1,0} add(add.4001.7.clone.1, param_30.407), metadata={op_name="jit(scan)/jit(main)/while/body/jit(_one_step)/vmap(while)/body/while/body/transpose(jvp(vmap(while)))/body/jit(beliefs_propagation)/add_any" source_file="/fs04/fc37/adam/projects/psilocybin-prl-analyses/src/prl_hgf/fitting/hierarchical_patrl.py" source_line=362}
  param_29.505 = f64[192,2,20]{2,1,0} parameter(29)
  dynamic-slice.1267.3.clone.1 = f64[1,2,20]{2,1,0} dynamic-slice(param_29.505, select.2973.39, constant_1980_14, constant_1980_14), dynamic_slice_sizes={1,2,20}, metadata={op_name="jit(scan)/jit(main)/while/body/jit(_one_step)/vmap(while)/body/while/body/transpose(jvp(vmap(while)))/body/dynamic_slice[slice_sizes=(1, 2, 20)]" source_file="/fs04/fc37/adam/projects/psilocybin-prl-analyses/src/prl_hgf/fitting/hierarchical_patrl.py" source_line=378}
  bitcast.11235.3.clone.1 = f64[2,20]{1,0} bitcast(dynamic-slice.1267.3.clone.1)
  param_19.1716 = f64[2,20]{1,0} parameter(19)
  select.2997.9.clone.1 = f64[2,20]{1,0} select(bitcast.10661.29, param_19.1716, broadcast.4024.clone.83), metadata={op_name="jit(scan)/jit(main)/while/body/jit(_one_step)/vmap(while)/body/while/body/transpose(jvp(vmap(while)))/body/jit(_where)/select_n" source_file="/fs04/fc37/adam/projects/psilocybin-prl-analyses/src/prl_hgf/env/pat_rl_simulator.py" source_line=92}
  param_17.1394 = f64[192,2,20]{2,1,0} parameter(17)
  dynamic-slice.1268.11.clone.1 = f64[1,2,20]{2,1,0} dynamic-slice(param_17.1394, select.2973.39, constant_1980_14, constant_1980_14), dynamic_slice_sizes={1,2,20}, metadata={op_name="jit(scan)/jit(main)/while/body/jit(_one_step)/vmap(while)/body/while/body/transpose(jvp(vmap(while)))/body/dynamic_slice[slice_sizes=(1, 2, 20)]" source_file="/fs04/fc37/adam/projects/psilocybin-prl-analyses/src/prl_hgf/fitting/hierarchical_patrl.py" source_line=378}
  bitcast.11257.11.clone.1 = f64[2,20]{1,0} bitcast(dynamic-slice.1268.11.clone.1)
  param_12.1281 = f64[192,2,20]{2,1,0} parameter(12)
  dynamic-slice.1269.29.clone.1 = f64[1,2,20]{2,1,0} dynamic-slice(param_12.1281, select.2973.39, constant_1980_14, constant_1980_14), dynamic_slice_sizes={1,2,20}, metadata={op_name="jit(scan)/jit(main)/while/body/jit(_one_step)/vmap(while)/body/while/body/transpose(jvp(vmap(while)))/body/dynamic_slice[slice_sizes=(1, 2, 20)]" source_file="/fs04/fc37/adam/projects/psilocybin-prl-analyses/src/prl_hgf/fitting/hierarchical_patrl.py" source_line=378}
  bitcast.11268.29.clone.1 = f64[2,20]{1,0} bitcast(dynamic-slice.1269.29.clone.1)
  multiply.2920.9.clone.1 = f64[2,20]{1,0} multiply(negate.468.16.clone.1, bitcast.11268.29.clone.1), metadata={op_name="jit(scan)/jit(main)/while/body/jit(_one_step)/vmap(while)/body/while/body/transpose(jvp(vmap(while)))/body/jit(beliefs_propagation)/jit(continuous_node_posterior_update_ehgf)/jit(posterior_update_precision_continuous_node)/jit(precision_update)/mul" source_file="/fs04/fc37/adam/projects/psilocybin-prl-analyses/src/prl_hgf/fitting/hierarchical_patrl.py" source_line=362}
  multiply.2921.11.clone.1 = f64[2,20]{1,0} multiply(bitcast.11257.11.clone.1, multiply.2920.9.clone.1), metadata={op_name="jit(scan)/jit(main)/while/body/jit(_one_step)/vmap(while)/body/while/body/transpose(jvp(vmap(while)))/body/jit(beliefs_propagation)/jit(continuous_node_posterior_update_ehgf)/jit(posterior_update_precision_continuous_node)/jit(precision_update)/mul" source_file="/fs04/fc37/adam/projects/psilocybin-prl-analyses/src/prl_hgf/fitting/hierarchical_patrl.py" source_line=362}
  param_11.1376 = f64[192,2,20]{2,1,0} parameter(11)
  dynamic-slice.1270.21.clone.1 = f64[1,2,20]{2,1,0} dynamic-slice(param_11.1376, select.2973.39, constant_1980_14, constant_1980_14), dynamic_slice_sizes={1,2,20}, metadata={op_name="jit(scan)/jit(main)/while/body/jit(_one_step)/vmap(while)/body/while/body/transpose(jvp(vmap(while)))/body/dynamic_slice[slice_sizes=(1, 2, 20)]" source_file="/fs04/fc37/adam/projects/psilocybin-prl-analyses/src/prl_hgf/fitting/hierarchical_patrl.py" source_line=378}
  bitcast.11279.21.clone.1 = f64[2,20]{1,0} bitcast(dynamic-slice.1270.21.clone.1)
  multiply.2922.11.clone.1 = f64[2,20]{1,0} multiply(multiply.2896.13.clone.1, bitcast.11268.29.clone.1), metadata={op_name="jit(scan)/jit(main)/while/body/jit(_one_step)/vmap(while)/body/while/body/transpose(jvp(vmap(while)))/body/jit(beliefs_propagation)/jit(continuous_node_posterior_update_ehgf)/jit(posterior_update_precision_continuous_node)/jit(precision_update)/mul" source_file="/fs04/fc37/adam/projects/psilocybin-prl-analyses/src/prl_hgf/fitting/hierarchical_patrl.py" source_line=362}
  param_10.1536 = f64[192,2,20]{2,1,0} parameter(10)
  dynamic-slice.1271.18.clone.1 = f64[1,2,20]{2,1,0} dynamic-slice(param_10.1536, select.2973.39, constant_1980_14, constant_1980_14), dynamic_slice_sizes={1,2,20}, metadata={op_name="jit(scan)/jit(main)/while/body/jit(_one_step)/vmap(while)/body/while/body/transpose(jvp(vmap(while)))/body/dynamic_slice[slice_sizes=(1, 2, 20)]" source_file="/fs04/fc37/adam/projects/psilocybin-prl-analyses/src/prl_hgf/fitting/hierarchical_patrl.py" source_line=378}
  bitcast.11295.18.clone.1 = f64[2,20]{1,0} bitcast(dynamic-slice.1271.18.clone.1)
  multiply.2923.9.clone.1 = f64[2,20]{1,0} multiply(multiply.2922.11.clone.1, bitcast.11295.18.clone.1), metadata={op_name="jit(scan)/jit(main)/while/body/jit(_one_step)/vmap(while)/body/while/body/transpose(jvp(vmap(while)))/body/jit(beliefs_propagation)/jit(continuous_node_posterior_update_ehgf)/jit(posterior_update_precision_continuous_node)/jit(precision_update)/mul" source_file="/fs04/fc37/adam/projects/psilocybin-prl-analyses/src/prl_hgf/fitting/hierarchical_patrl.py" source_line=362}
  multiply.2924.7.clone.1 = f64[2,20]{1,0} multiply(bitcast.11279.21.clone.1, multiply.2923.9.clone.1), metadata={op_name="jit(scan)/jit(main)/while/body/jit(_one_step)/vmap(while)/body/while/body/transpose(jvp(vmap(while)))/body/jit(beliefs_propagation)/jit(continuous_node_posterior_update_ehgf)/jit(posterior_update_precision_continuous_node)/jit(precision_update)/mul" source_file="/fs04/fc37/adam/projects/psilocybin-prl-analyses/src/prl_hgf/fitting/hierarchical_patrl.py" source_line=362}
  add.4003.9.clone.1 = f64[2,20]{1,0} add(multiply.2921.11.clone.1, multiply.2924.7.clone.1), metadata={op_name="jit(scan)/jit(main)/while/body/jit(_one_step)/vmap(while)/body/while/body/transpose(jvp(vmap(while)))/body/jit(beliefs_propagation)/jit(continuous_node_posterior_update_ehgf)/jit(posterior_update_precision_continuous_node)/jit(precision_update)/add_any" source_file="/fs04/fc37/adam/projects/psilocybin-prl-analyses/src/prl_hgf/fitting/hierarchical_patrl.py" source_line=362}
  constant_1984_2_clone_1 = f64[] constant(0.5)
  broadcast.4028.clone.19.clone.1 = f64[2,20]{1,0} broadcast(constant_1984_2_clone_1), dimensions={}
  multiply.2925.11.clone.1 = f64[2,20]{1,0} multiply(multiply.2896.13.clone.1, broadcast.4028.clone.19.clone.1), metadata={op_name="jit(scan)/jit(main)/while/body/jit(_one_step)/vmap(while)/body/while/body/transpose(jvp(vmap(while)))/body/jit(beliefs_propagation)/jit(continuous_node_posterior_update_ehgf)/jit(posterior_update_precision_continuous_node)/jit(precision_update)/mul" source_file="/fs04/fc37/adam/projects/psilocybin-prl-analyses/src/prl_hgf/fitting/hierarchical_patrl.py" source_line=362}
  multiply.2926.9.clone.1 = f64[2,20]{1,0} multiply(multiply.2925.11.clone.1, bitcast.11295.18.clone.1), metadata={op_name="jit(scan)/jit(main)/while/body/jit(_one_step)/vmap(while)/body/while/body/transpose(jvp(vmap(while)))/body/jit(beliefs_propagation)/jit(continuous_node_posterior_update_ehgf)/jit(posterior_update_precision_continuous_node)/jit(precision_update)/mul" source_file="/fs04/fc37/adam/projects/psilocybin-prl-analyses/src/prl_hgf/fitting/hierarchical_patrl.py" source_line=362}
  multiply.2927.7.clone.1 = f64[2,20]{1,0} multiply(bitcast.11279.21.clone.1, multiply.2926.9.clone.1), metadata={op_name="jit(scan)/jit(main)/while/body/jit(_one_step)/vmap(while)/body/while/body/transpose(jvp(vmap(while)))/body/jit(beliefs_propagation)/jit(continuous_node_posterior_update_ehgf)/jit(posterior_update_precision_continuous_node)/jit(precision_update)/mul" source_file="/fs04/fc37/adam/projects/psilocybin-prl-analyses/src/prl_hgf/fitting/hierarchical_patrl.py" source_line=362}
  add.4004.7.clone.1 = f64[2,20]{1,0} add(add.4003.9.clone.1, multiply.2927.7.clone.1), metadata={op_name="jit(scan)/jit(main)/while/body/jit(_one_step)/vmap(while)/body/while/body/transpose(jvp(vmap(while)))/body/jit(beliefs_propagation)/jit(continuous_node_posterior_update_ehgf)/jit(posterior_update_precision_continuous_node)/jit(precision_update)/add_any" source_file="/fs04/fc37/adam/projects/psilocybin-prl-analyses/src/prl_hgf/fitting/hierarchical_patrl.py" source_line=362}
  select.2998.11.clone.1 = f64[2,20]{1,0} select(bitcast.10789.29.clone.1, add.4004.7.clone.1, broadcast.4024.clone.83), metadata={op_name="jit(scan)/jit(main)/while/body/jit(_one_step)/vmap(while)/body/while/body/transpose(jvp(vmap(while)))/body/jit(beliefs_propagation)/jit(continuous_node_posterior_update_ehgf)/jit(posterior_update_precision_continuous_node)/select_n" source_file="/fs04/fc37/adam/projects/psilocybin-prl-analyses/src/prl_hgf/fitting/hierarchical_patrl.py" source_line=362}
  multiply.2928.9.clone.1 = f64[2,20]{1,0} multiply(multiply.2900.15.clone.1, bitcast.11268.29.clone.1), metadata={op_name="jit(scan)/jit(main)/while/body/jit(_one_step)/vmap(while)/body/while/body/transpose(jvp(vmap(while)))/body/jit(beliefs_propagation)/jit(continuous_node_posterior_update_ehgf)/jit(posterior_update_mean_continuous_node)/mul" source_file="/fs04/fc37/adam/projects/psilocybin-prl-analyses/src/prl_hgf/fitting/hierarchical_patrl.py" source_line=362}
  multiply.2929.7.clone.1 = f64[2,20]{1,0} multiply(bitcast.11279.21.clone.1, multiply.2928.9.clone.1), metadata={op_name="jit(scan)/jit(main)/while/body/jit(_one_step)/vmap(while)/body/while/body/transpose(jvp(vmap(while)))/body/jit(beliefs_propagation)/jit(continuous_node_posterior_update_ehgf)/jit(posterior_update_mean_continuous_node)/mul" source_file="/fs04/fc37/adam/projects/psilocybin-prl-analyses/src/prl_hgf/fitting/hierarchical_patrl.py" source_line=362}
  add.4005.9.clone.1 = f64[2,20]{1,0} add(select.2998.11.clone.1, multiply.2929.7.clone.1), metadata={op_name="jit(scan)/jit(main)/while/body/jit(_one_step)/vmap(while)/body/while/body/transpose(jvp(vmap(while)))/body/jit(beliefs_propagation)/jit(continuous_node_posterior_update_ehgf)/add_any" source_file="/fs04/fc37/adam/projects/psilocybin-prl-analyses/src/prl_hgf/fitting/hierarchical_patrl.py" source_line=362}
  add.4006.7.clone.1 = f64[2,20]{1,0} add(select.2997.9.clone.1, add.4005.9.clone.1), metadata={op_name="jit(scan)/jit(main)/while/body/jit(_one_step)/vmap(while)/body/while/body/transpose(jvp(vmap(while)))/body/jit(beliefs_propagation)/add_any" source_file="/fs04/fc37/adam/projects/psilocybin-prl-analyses/src/prl_hgf/fitting/hierarchical_patrl.py" source_line=362}
  param_7.2127 = f64[20]{0} parameter(7)
  broadcast.4026.77.clone.1 = f64[2,20]{1,0} broadcast(param_7.2127), dimensions={1}, metadata={op_name="jit(scan)/jit(main)/while/body/jit(_one_step)/vmap(while)/body/while/body/transpose(jvp(vmap(while)))/body/jit(beliefs_propagation)/broadcast_in_dim[shape=(2, 20) broadcast_dimensions=(np.int64(1),)]" source_file="/fs04/fc37/adam/projects/psilocybin-prl-analyses/src/prl_hgf/fitting/hierarchical_patrl.py" source_line=362}
  add.4007.5.clone.1 = f64[2,20]{1,0} add(add.4006.7.clone.1, broadcast.4026.77.clone.1), metadata={op_name="jit(scan)/jit(main)/while/body/jit(_one_step)/vmap(while)/body/while/body/transpose(jvp(vmap(while)))/body/jit(beliefs_propagation)/add_any" source_file="/fs04/fc37/adam/projects/psilocybin-prl-analyses/src/prl_hgf/fitting/hierarchical_patrl.py" source_line=362}
  multiply.2930.3.clone.1 = f64[2,20]{1,0} multiply(bitcast.11235.3.clone.1, add.4007.5.clone.1), metadata={op_name="jit(scan)/jit(main)/while/body/jit(_one_step)/vmap(while)/body/while/body/transpose(jvp(vmap(while)))/body/jit(beliefs_propagation)/jit(continuous_node_prediction)/jit(predict_precision)/mul" source_file="/fs04/fc37/adam/projects/psilocybin-prl-analyses/src/prl_hgf/fitting/hierarchical_patrl.py" source_line=362}
  add.4008.3.clone.1 = f64[2,20]{1,0} add(add.4002.5.clone.1, multiply.2930.3.clone.1), metadata={op_name="jit(scan)/jit(main)/while/body/jit(_one_step)/vmap(while)/body/while/body/transpose(jvp(vmap(while)))/body/jit(beliefs_propagation)/jit(continuous_node_prediction)/jit(predict_precision)/add_any" source_file="/fs04/fc37/adam/projects/psilocybin-prl-analyses/src/prl_hgf/fitting/hierarchical_patrl.py" source_line=362}
  param_28.610 = f64[192,2,20]{2,1,0} parameter(28)
  dynamic-slice.1272.3.clone.1 = f64[1,2,20]{2,1,0} dynamic-slice(param_28.610, select.2973.39, constant_1980_14, constant_1980_14), dynamic_slice_sizes={1,2,20}, metadata={op_name="jit(scan)/jit(main)/while/body/jit(_one_step)/vmap(while)/body/while/body/transpose(jvp(vmap(while)))/body/dynamic_slice[slice_sizes=(1, 2, 20)]" source_file="/fs04/fc37/adam/projects/psilocybin-prl-analyses/src/prl_hgf/fitting/hierarchical_patrl.py" source_line=378}
  bitcast.11345.3.clone.1 = f64[2,20]{1,0} bitcast(dynamic-slice.1272.3.clone.1)
  multiply.2931.3.clone.1 = f64[2,20]{1,0} multiply(add.4008.3.clone.1, bitcast.11345.3.clone.1), metadata={op_name="jit(scan)/jit(main)/while/body/jit(_one_step)/vmap(while)/body/while/body/transpose(jvp(vmap(while)))/body/jit(beliefs_propagation)/jit(continuous_node_prediction)/jit(predict_precision)/mul" source_file="/fs04/fc37/adam/projects/psilocybin-prl-analyses/src/prl_hgf/fitting/hierarchical_patrl.py" source_line=362}
  negate.475.1.clone.1 = f64[2,20]{1,0} negate(multiply.2931.3.clone.1), metadata={op_name="jit(scan)/jit(main)/while/body/jit(_one_step)/vmap(while)/body/while/body/transpose(jvp(vmap(while)))/body/jit(beliefs_propagation)/jit(continuous_node_prediction)/jit(predict_precision)/neg" source_file="/fs04/fc37/adam/projects/psilocybin-prl-analyses/src/prl_hgf/fitting/hierarchical_patrl.py" source_line=362}
  param_6.2417 = f64[192,2,20]{2,1,0} parameter(6)
  dynamic-slice.1252.23.clone.1 = f64[1,2,20]{2,1,0} dynamic-slice(param_6.2417, select.2973.39, constant_1980_14, constant_1980_14), dynamic_slice_sizes={1,2,20}, metadata={op_name="jit(scan)/jit(main)/while/body/jit(_one_step)/vmap(while)/body/while/body/transpose(jvp(vmap(while)))/body/dynamic_slice[slice_sizes=(1, 2, 20)]" source_file="/fs04/fc37/adam/projects/psilocybin-prl-analyses/src/prl_hgf/fitting/hierarchical_patrl.py" source_line=378}
  bitcast.10911.23.clone.1 = f64[2,20]{1,0} bitcast(dynamic-slice.1252.23.clone.1)
  multiply.2935.7.clone.1 = f64[2,20]{1,0} multiply(add.4007.5.clone.1, bitcast.10911.23.clone.1), metadata={op_name="jit(scan)/jit(main)/while/body/jit(_one_step)/vmap(while)/body/while/body/transpose(jvp(vmap(while)))/body/jit(beliefs_propagation)/jit(continuous_node_prediction)/jit(predict_precision)/mul" source_file="/fs04/fc37/adam/projects/psilocybin-prl-analyses/src/prl_hgf/fitting/hierarchical_patrl.py" source_line=362}
  add.4016.5.clone.1 = f64[2,20]{1,0} add(negate.475.1.clone.1, multiply.2935.7.clone.1), metadata={op_name="jit(scan)/jit(main)/while/body/jit(_one_step)/vmap(while)/body/while/body/transpose(jvp(vmap(while)))/body/jit(beliefs_propagation)/jit(continuous_node_prediction)/jit(predict_precision)/add_any" source_file="/fs04/fc37/adam/projects/psilocybin-prl-analyses/src/prl_hgf/fitting/hierarchical_patrl.py" source_line=362}
  select.3006.5.clone.1 = f64[2,20]{1,0} select(bitcast.11451.5.clone.1, add.4016.5.clone.1, broadcast.4024.clone.83), metadata={op_name="jit(scan)/jit(main)/while/body/jit(_one_step)/vmap(while)/body/while/body/transpose(jvp(vmap(while)))/body/jit(beliefs_propagation)/jit(continuous_node_posterior_update_ehgf)/jit(posterior_update_precision_continuous_node)/jit(precision_update)/jit(_where)/select_n" source_file="/fs04/fc37/adam/projects/psilocybin-prl-analyses/src/prl_hgf/env/pat_rl_simulator.py" source_line=92}
  param_5.2987 = f64[192,2,20]{2,1,0} parameter(5)
  dynamic-slice.1275.3.clone.1 = f64[1,2,20]{2,1,0} dynamic-slice(param_5.2987, select.2973.39, constant_1980_14, constant_1980_14), dynamic_slice_sizes={1,2,20}, metadata={op_name="jit(scan)/jit(main)/while/body/jit(_one_step)/vmap(while)/body/while/body/transpose(jvp(vmap(while)))/body/dynamic_slice[slice_sizes=(1, 2, 20)]" source_file="/fs04/fc37/adam/projects/psilocybin-prl-analyses/src/prl_hgf/fitting/hierarchical_patrl.py" source_line=378}
  bitcast.11473.3.clone.1 = f64[2,20]{1,0} bitcast(dynamic-slice.1275.3.clone.1)
  multiply.2936.3.clone.1 = f64[2,20]{1,0} multiply(select.3006.5.clone.1, bitcast.11473.3.clone.1), metadata={op_name="jit(scan)/jit(main)/while/body/jit(_one_step)/vmap(while)/body/while/body/transpose(jvp(vmap(while)))/body/jit(beliefs_propagation)/jit(continuous_node_prediction)/jit(predict_precision)/mul" source_file="/fs04/fc37/adam/projects/psilocybin-prl-analyses/src/prl_hgf/fitting/hierarchical_patrl.py" source_line=362}
  multiply.2937.5.clone.1 = f64[2,20]{1,0} multiply(bitcast.11117.6.clone.1, multiply.2936.3.clone.1), metadata={op_name="jit(scan)/jit(main)/while/body/jit(_one_step)/vmap(while)/body/while/body/transpose(jvp(vmap(while)))/body/jit(beliefs_propagation)/jit(continuous_node_prediction)/jit(predict_precision)/mul" source_file="/fs04/fc37/adam/projects/psilocybin-prl-analyses/src/prl_hgf/fitting/hierarchical_patrl.py" source_line=362}
  add.4019.3.clone.1 = f64[2,20]{1,0} add(param_4.3627, multiply.2937.5.clone.1), metadata={op_name="jit(scan)/jit(main)/while/body/jit(_one_step)/vmap(while)/body/while/body/transpose(jvp(vmap(while)))/body/jit(beliefs_propagation)/add_any" source_file="/fs04/fc37/adam/projects/psilocybin-prl-analyses/src/prl_hgf/fitting/hierarchical_patrl.py" source_line=362}
  param_3.4936 = f64[192,2,20]{2,1,0} parameter(3)
  dynamic-slice.1257.6.clone.1 = f64[1,2,20]{2,1,0} dynamic-slice(param_3.4936, select.2973.39, constant_1980_14, constant_1980_14), dynamic_slice_sizes={1,2,20}, metadata={op_name="jit(scan)/jit(main)/while/body/jit(_one_step)/vmap(while)/body/while/body/transpose(jvp(vmap(while)))/body/dynamic_slice[slice_sizes=(1, 2, 20)]" source_file="/fs04/fc37/adam/projects/psilocybin-prl-analyses/src/prl_hgf/fitting/hierarchical_patrl.py" source_line=378}
  bitcast.11005.6.clone.1 = f64[2,20]{1,0} bitcast(dynamic-slice.1257.6.clone.1)
  select.3010.5.clone.1 = f64[2,20]{1,0} select(bitcast.10661.29, param_0.272, broadcast.4024.clone.83), metadata={op_name="jit(scan)/jit(main)/while/body/jit(_one_step)/vmap(while)/body/while/body/transpose(jvp(vmap(while)))/body/jit(_where)/select_n" source_file="/fs04/fc37/adam/projects/psilocybin-prl-analyses/src/prl_hgf/env/pat_rl_simulator.py" source_line=92}
  add.4020.3.clone.1 = f64[2,20]{1,0} add(select.3010.5.clone.1, select.2987.25.clone.1), metadata={op_name="jit(scan)/jit(main)/while/body/jit(_one_step)/vmap(while)/body/while/body/transpose(jvp(vmap(while)))/body/jit(beliefs_propagation)/add_any" source_file="/fs04/fc37/adam/projects/psilocybin-prl-analyses/src/prl_hgf/fitting/hierarchical_patrl.py" source_line=362}
  add.4021.7.clone.1 = f64[2,20]{1,0} add(add.4020.3.clone.1, broadcast.4026.77.clone.1), metadata={op_name="jit(scan)/jit(main)/while/body/jit(_one_step)/vmap(while)/body/while/body/transpose(jvp(vmap(while)))/body/jit(beliefs_propagation)/add_any" source_file="/fs04/fc37/adam/projects/psilocybin-prl-analyses/src/prl_hgf/fitting/hierarchical_patrl.py" source_line=362}
  multiply.2938.5.clone.1 = f64[2,20]{1,0} multiply(bitcast.11005.6.clone.1, add.4021.7.clone.1), metadata={op_name="jit(scan)/jit(main)/while/body/jit(_one_step)/vmap(while)/body/while/body/transpose(jvp(vmap(while)))/body/jit(beliefs_propagation)/jit(continuous_node_prediction)/jit(predict_mean)/mul" source_file="/fs04/fc37/adam/projects/psilocybin-prl-analyses/src/prl_hgf/fitting/hierarchical_patrl.py" source_line=362}
  add.4022.3.clone.1 = f64[2,20]{1,0} add(add.4019.3.clone.1, multiply.2938.5.clone.1), metadata={op_name="jit(scan)/jit(main)/while/body/jit(_one_step)/vmap(while)/body/while/body/transpose(jvp(vmap(while)))/body/jit(beliefs_propagation)/add_any" source_file="/fs04/fc37/adam/projects/psilocybin-prl-analyses/src/prl_hgf/fitting/hierarchical_patrl.py" source_line=362}
  add.4023.1.clone.1 = f64[2,20]{1,0} add(select.3009.3.clone.1, add.4022.3.clone.1), metadata={op_name="jit(scan)/jit(main)/while/body/jit(_one_step)/vmap(while)/body/while/body/transpose(jvp(vmap(while)))/body/add_any" source_file="/fs04/fc37/adam/projects/psilocybin-prl-analyses/src/prl_hgf/fitting/hierarchical_patrl.py" source_line=362}
  param_23.1022 = f64[2,20]{1,0} parameter(23)
  select.3004.5.clone.1 = f64[2,20]{1,0} select(bitcast.10661.29, param_23.1022, broadcast.4024.clone.83), metadata={op_name="jit(scan)/jit(main)/while/body/jit(_one_step)/vmap(while)/body/while/body/transpose(jvp(vmap(while)))/body/jit(_where)/select_n" source_file="/fs04/fc37/adam/projects/psilocybin-prl-analyses/src/prl_hgf/fitting/hierarchical_patrl.py" source_line=370}
  select.3005.5.clone.1 = f64[2,20]{1,0} select(bitcast.10661.29, broadcast.4024.clone.83, param_23.1022), metadata={op_name="jit(scan)/jit(main)/while/body/jit(_one_step)/vmap(while)/body/while/body/transpose(jvp(vmap(while)))/body/jit(_where)/select_n" source_file="/fs04/fc37/adam/projects/psilocybin-prl-analyses/src/prl_hgf/fitting/hierarchical_patrl.py" source_line=370}
  add.4015.3.clone.1 = f64[2,20]{1,0} add(select.3004.5.clone.1, select.3005.5.clone.1), metadata={op_name="jit(scan)/jit(main)/while/body/jit(_one_step)/vmap(while)/body/while/body/transpose(jvp(vmap(while)))/body/add_any" source_file="/fs04/fc37/adam/projects/psilocybin-prl-analyses/src/prl_hgf/fitting/hierarchical_patrl.py" source_line=370}
  param_22.1216 = f64[2,20]{1,0} parameter(22)
  add.4017.1.clone.1 = f64[2,20]{1,0} add(param_22.1216, multiply.2936.3.clone.1), metadata={op_name="jit(scan)/jit(main)/while/body/jit(_one_step)/vmap(while)/body/while/body/transpose(jvp(vmap(while)))/body/jit(beliefs_propagation)/add_any" source_file="/fs04/fc37/adam/projects/psilocybin-prl-analyses/src/prl_hgf/fitting/hierarchical_patrl.py" source_line=362}
  add.4018.1.clone.1 = f64[2,20]{1,0} add(add.4015.3.clone.1, add.4017.1.clone.1), metadata={op_name="jit(scan)/jit(main)/while/body/jit(_one_step)/vmap(while)/body/while/body/transpose(jvp(vmap(while)))/body/add_any" source_file="/fs04/fc37/adam/projects/psilocybin-prl-analyses/src/prl_hgf/fitting/hierarchical_patrl.py" source_line=362}
  param_24.1010 = f64[2,20]{1,0} parameter(24)
  select.3000.1.clone.1.clone.1 = f64[2,20]{1,0} select(bitcast.10661.29, broadcast.4024.clone.83, param_24.1010), metadata={op_name="jit(scan)/jit(main)/while/body/jit(_one_step)/vmap(while)/body/while/body/transpose(jvp(vmap(while)))/body/jit(_where)/select_n" source_file="/fs04/fc37/adam/projects/psilocybin-prl-analyses/src/prl_hgf/fitting/hierarchical_patrl.py" source_line=370}
  param_27.696 = f64[2,20]{1,0} parameter(27)
  select.2995.3.clone.1 = f64[2,20]{1,0} select(bitcast.10661.29, broadcast.4024.clone.83, param_27.696), metadata={op_name="jit(scan)/jit(main)/while/body/jit(_one_step)/vmap(while)/body/while/body/transpose(jvp(vmap(while)))/body/jit(_where)/select_n" source_file="/fs04/fc37/adam/projects/psilocybin-prl-analyses/src/prl_hgf/env/pat_rl_simulator.py" source_line=92}
  param_25.937 = f64[2,20]{1,0} parameter(25)
  param_26.765 = f64[192,2,20]{2,1,0} parameter(26)
  dynamic-slice.1273.12.clone.1 = f64[1,2,20]{2,1,0} dynamic-slice(param_26.765, select.2973.39, constant_1980_14, constant_1980_14), dynamic_slice_sizes={1,2,20}, metadata={op_name="jit(scan)/jit(main)/while/body/jit(_one_step)/vmap(while)/body/while/body/transpose(jvp(vmap(while)))/body/dynamic_slice[slice_sizes=(1, 2, 20)]" source_file="/fs04/fc37/adam/projects/psilocybin-prl-analyses/src/prl_hgf/fitting/hierarchical_patrl.py" source_line=378}
  bitcast.11356.12.clone.1 = f64[2,20]{1,0} bitcast(dynamic-slice.1273.12.clone.1)
  multiply.2932.9.clone.1 = f64[2,20]{1,0} multiply(negate.475.1.clone.1, bitcast.11356.12.clone.1), metadata={op_name="jit(scan)/jit(main)/while/body/jit(_one_step)/vmap(while)/body/while/body/transpose(jvp(vmap(while)))/body/jit(beliefs_propagation)/jit(continuous_node_prediction)/jit(predict_precision)/mul" source_file="/fs04/fc37/adam/projects/psilocybin-prl-analyses/src/prl_hgf/fitting/hierarchical_patrl.py" source_line=362}
  negate.476.7.clone.1 = f64[2,20]{1,0} negate(multiply.2932.9.clone.1), metadata={op_name="jit(scan)/jit(main)/while/body/jit(_one_step)/vmap(while)/body/while/body/transpose(jvp(vmap(while)))/body/jit(beliefs_propagation)/jit(continuous_node_prediction)/jit(predict_precision)/neg" source_file="/fs04/fc37/adam/projects/psilocybin-prl-analyses/src/prl_hgf/fitting/hierarchical_patrl.py" source_line=362}
  select.2999.5.clone.1 = f64[2,20]{1,0} select(bitcast.10661.29, param_24.1010, broadcast.4024.clone.83), metadata={op_name="jit(scan)/jit(main)/while/body/jit(_one_step)/vmap(while)/body/while/body/transpose(jvp(vmap(while)))/body/jit(_where)/select_n" source_file="/fs04/fc37/adam/projects/psilocybin-prl-analyses/src/prl_hgf/fitting/hierarchical_patrl.py" source_line=370}
  add.4009.3.clone.1 = f64[2,20]{1,0} add(select.2999.5.clone.1, broadcast.4026.77.clone.1), metadata={op_name="jit(scan)/jit(main)/while/body/jit(_one_step)/vmap(while)/body/while/body/transpose(jvp(vmap(while)))/body/jit(beliefs_propagation)/add_any" source_file="/fs04/fc37/adam/projects/psilocybin-prl-analyses/src/prl_hgf/fitting/hierarchical_patrl.py" source_line=362}
  multiply.2934.5.clone.1 = f64[2,20]{1,0} multiply(add.4009.3.clone.1, bitcast.11356.12.clone.1), metadata={op_name="jit(scan)/jit(main)/while/body/jit(_one_step)/vmap(while)/body/while/body/transpose(jvp(vmap(while)))/body/jit(beliefs_propagation)/jit(continuous_node_prediction)/mul" source_file="/fs04/fc37/adam/projects/psilocybin-prl-analyses/src/prl_hgf/fitting/hierarchical_patrl.py" source_line=362}
  negate.477.3.clone.1 = f64[2,20]{1,0} negate(multiply.2934.5.clone.1), metadata={op_name="jit(scan)/jit(main)/while/body/jit(_one_step)/vmap(while)/body/while/body/transpose(jvp(vmap(while)))/body/jit(beliefs_propagation)/jit(continuous_node_prediction)/neg" source_file="/fs04/fc37/adam/projects/psilocybin-prl-analyses/src/prl_hgf/fitting/hierarchical_patrl.py" source_line=362}
  add.4010.5.clone.1 = f64[2,20]{1,0} add(negate.476.7.clone.1, negate.477.3.clone.1), metadata={op_name="jit(scan)/jit(main)/while/body/jit(_one_step)/vmap(while)/body/while/body/transpose(jvp(vmap(while)))/body/jit(beliefs_propagation)/jit(continuous_node_prediction)/add_any" source_file="/fs04/fc37/adam/projects/psilocybin-prl-analyses/src/prl_hgf/fitting/hierarchical_patrl.py" source_line=362}
  add.4011.3.clone.1 = f64[2,20]{1,0} add(param_25.937, add.4010.5.clone.1), metadata={op_name="jit(scan)/jit(main)/while/body/jit(_one_step)/vmap(while)/body/while/body/transpose(jvp(vmap(while)))/body/jit(beliefs_propagation)/add_any" source_file="/fs04/fc37/adam/projects/psilocybin-prl-analyses/src/prl_hgf/fitting/hierarchical_patrl.py" source_line=362}
  add.4012.1.clone.1 = f64[2,20]{1,0} add(select.2995.3.clone.1, add.4011.3.clone.1), metadata={op_name="jit(scan)/jit(main)/while/body/jit(_one_step)/vmap(while)/body/while/body/transpose(jvp(vmap(while)))/body/add_any" source_file="/fs04/fc37/adam/projects/psilocybin-prl-analyses/src/prl_hgf/fitting/hierarchical_patrl.py" source_line=362}
  select.3001.1.clone.1 = f64[2,20]{1,0} select(bitcast.10661.29, broadcast.4024.clone.83, param_19.1716), metadata={op_name="jit(scan)/jit(main)/while/body/jit(_one_step)/vmap(while)/body/while/body/transpose(jvp(vmap(while)))/body/jit(_where)/select_n" source_file="/fs04/fc37/adam/projects/psilocybin-prl-analyses/src/prl_hgf/env/pat_rl_simulator.py" source_line=92}
  param_43.165 = pred[192,2,20,1]{2,1,3,0} parameter(43)
  bitcast.11808.3.clone.1 = pred[192,1,2,20]{3,2,1,0} bitcast(param_43.165)
  dynamic-slice.1287.3.clone.1 = pred[1,1,2,20]{3,2,1,0} dynamic-slice(bitcast.11808.3.clone.1, select.2973.39, constant_1980_14, constant_1980_14, constant_1980_14), dynamic_slice_sizes={1,1,2,20}, metadata={op_name="jit(scan)/jit(main)/while/body/jit(_one_step)/vmap(while)/body/while/body/transpose(jvp(vmap(while)))/body/dynamic_slice[slice_sizes=(1, 2, 20, 1)]" source_file="/fs04/fc37/adam/projects/psilocybin-prl-analyses/src/prl_hgf/fitting/hierarchical_patrl.py" source_line=378}
  bitcast.11815.10.clone.1 = pred[1,2,20]{2,1,0} bitcast(dynamic-slice.1287.3.clone.1)
  param_42.187 = f64[2,20,1]{1,0,2} parameter(42)
  bitcast.11819.10.clone.1 = f64[1,2,20]{2,1,0} bitcast(param_42.187)
  broadcast.4031.4.clone.1 = f64[1,2,20]{2,1,0} broadcast(constant_1982_20), dimensions={}
  select.3024.5.clone.1 = f64[1,2,20]{2,1,0} select(bitcast.11815.10.clone.1, bitcast.11819.10.clone.1, broadcast.4031.4.clone.1), metadata={op_name="jit(scan)/jit(main)/while/body/jit(_one_step)/vmap(while)/body/while/body/transpose(jvp(vmap(while)))/body/jit(_where)/select_n" source_file="/fs04/fc37/adam/projects/psilocybin-prl-analyses/src/prl_hgf/fitting/hierarchical_patrl.py" source_line=370}
  select.3025.5.clone.1 = f64[1,2,20]{2,1,0} select(bitcast.11815.10.clone.1, broadcast.4031.4.clone.1, bitcast.11819.10.clone.1), metadata={op_name="jit(scan)/jit(main)/while/body/jit(_one_step)/vmap(while)/body/while/body/transpose(jvp(vmap(while)))/body/jit(_where)/select_n" source_file="/fs04/fc37/adam/projects/psilocybin-prl-analyses/src/prl_hgf/fitting/hierarchical_patrl.py" source_line=370}
  add.4042.3.clone.1 = f64[1,2,20]{2,1,0} add(select.3024.5.clone.1, select.3025.5.clone.1), metadata={op_name="jit(scan)/jit(main)/while/body/jit(_one_step)/vmap(while)/body/while/body/transpose(jvp(vmap(while)))/body/add_any" source_file="/fs04/fc37/adam/projects/psilocybin-prl-analyses/src/prl_hgf/fitting/hierarchical_patrl.py" source_line=370}
  param_41.195 = pred[192,2,20,1]{2,1,3,0} parameter(41)
  bitcast.11840.5.clone.1 = pred[192,1,2,20]{3,2,1,0} bitcast(param_41.195)
  dynamic-slice.1288.5.clone.1 = pred[1,1,2,20]{3,2,1,0} dynamic-slice(bitcast.11840.5.clone.1, select.2973.39, constant_1980_14, constant_1980_14, constant_1980_14), dynamic_slice_sizes={1,1,2,20}, metadata={op_name="jit(scan)/jit(main)/while/body/jit(_one_step)/vmap(while)/body/while/body/transpose(jvp(vmap(while)))/body/dynamic_slice[slice_sizes=(1, 2, 20, 1)]" source_file="/fs04/fc37/adam/projects/psilocybin-prl-analyses/src/prl_hgf/fitting/hierarchical_patrl.py" source_line=378}
  bitcast.11847.5.clone.1 = pred[1,2,20]{2,1,0} bitcast(dynamic-slice.1288.5.clone.1)
  param_40.201 = f64[192,2,20]{2,1,0} parameter(40)
  dynamic-slice.1289.26.clone.1 = f64[1,2,20]{2,1,0} dynamic-slice(param_40.201, select.2973.39, constant_1980_14, constant_1980_14), dynamic_slice_sizes={1,2,20}, metadata={op_name="jit(scan)/jit(main)/while/body/jit(_one_step)/vmap(while)/body/while/body/transpose(jvp(vmap(while)))/body/dynamic_slice[slice_sizes=(1, 2, 20)]" source_file="/fs04/fc37/adam/projects/psilocybin-prl-analyses/src/prl_hgf/fitting/hierarchical_patrl.py" source_line=378}
  bitcast.11858.26.clone.1 = f64[2,20]{1,0} bitcast(dynamic-slice.1289.26.clone.1)
  multiply.2952.7.clone.1 = f64[2,20]{1,0} multiply(multiply.2920.9.clone.1, bitcast.11858.26.clone.1), metadata={op_name="jit(scan)/jit(main)/while/body/jit(_one_step)/vmap(while)/body/while/body/transpose(jvp(vmap(while)))/body/jit(beliefs_propagation)/jit(continuous_node_posterior_update_ehgf)/jit(posterior_update_precision_continuous_node)/jit(precision_update)/mul" source_file="/fs04/fc37/adam/projects/psilocybin-prl-analyses/src/prl_hgf/fitting/hierarchical_patrl.py" source_line=362}
  multiply.2953.7.clone.1 = f64[2,20]{1,0} multiply(multiply.2952.7.clone.1, broadcast.4028.clone.19.clone.1), metadata={op_name="jit(scan)/jit(main)/while/body/jit(_one_step)/vmap(while)/body/while/body/transpose(jvp(vmap(while)))/body/jit(beliefs_propagation)/jit(continuous_node_posterior_update_ehgf)/jit(posterior_update_precision_continuous_node)/jit(precision_update)/mul" source_file="/fs04/fc37/adam/projects/psilocybin-prl-analyses/src/prl_hgf/fitting/hierarchical_patrl.py" source_line=362}
  param_39.214 = f64[192,2,20]{2,1,0} parameter(39)
  dynamic-slice.1290.5.clone.1 = f64[1,2,20]{2,1,0} dynamic-slice(param_39.214, select.2973.39, constant_1980_14, constant_1980_14), dynamic_slice_sizes={1,2,20}, metadata={op_name="jit(scan)/jit(main)/while/body/jit(_one_step)/vmap(while)/body/while/body/transpose(jvp(vmap(while)))/body/dynamic_slice[slice_sizes=(1, 2, 20)]" source_file="/fs04/fc37/adam/projects/psilocybin-prl-analyses/src/prl_hgf/fitting/hierarchical_patrl.py" source_line=378}
  bitcast.11871.5.clone.1 = f64[2,20]{1,0} bitcast(dynamic-slice.1290.5.clone.1)
  multiply.2954.5.clone.1 = f64[2,20]{1,0} multiply(multiply.2953.7.clone.1, bitcast.11871.5.clone.1), metadata={op_name="jit(scan)/jit(main)/while/body/jit(_one_step)/vmap(while)/body/while/body/transpose(jvp(vmap(while)))/body/jit(beliefs_propagation)/jit(continuous_node_posterior_update_ehgf)/jit(posterior_update_precision_continuous_node)/jit(precision_update)/mul" source_file="/fs04/fc37/adam/projects/psilocybin-prl-analyses/src/prl_hgf/fitting/hierarchical_patrl.py" source_line=362}
  multiply.2955.7.clone.1 = f64[2,20]{1,0} multiply(multiply.2923.9.clone.1, bitcast.11858.26.clone.1), metadata={op_name="jit(scan)/jit(main)/while/body/jit(_one_step)/vmap(while)/body/while/body/transpose(jvp(vmap(while)))/body/jit(beliefs_propagation)/jit(continuous_node_posterior_update_ehgf)/jit(posterior_update_precision_continuous_node)/jit(precision_update)/mul" source_file="/fs04/fc37/adam/projects/psilocybin-prl-analyses/src/prl_hgf/fitting/hierarchical_patrl.py" source_line=362}
  add.4043.5.clone.1 = f64[2,20]{1,0} add(multiply.2954.5.clone.1, multiply.2955.7.clone.1), metadata={op_name="jit(scan)/jit(main)/while/body/jit(_one_step)/vmap(while)/body/while/body/transpose(jvp(vmap(while)))/body/jit(beliefs_propagation)/jit(continuous_node_posterior_update_ehgf)/jit(posterior_update_precision_continuous_node)/jit(precision_update)/add_any" source_file="/fs04/fc37/adam/projects/psilocybin-prl-analyses/src/prl_hgf/fitting/hierarchical_patrl.py" source_line=362}
  multiply.2956.7.clone.1 = f64[2,20]{1,0} multiply(multiply.2926.9.clone.1, bitcast.11858.26.clone.1), metadata={op_name="jit(scan)/jit(main)/while/body/jit(_one_step)/vmap(while)/body/while/body/transpose(jvp(vmap(while)))/body/jit(beliefs_propagation)/jit(continuous_node_posterior_update_ehgf)/jit(posterior_update_precision_continuous_node)/jit(precision_update)/mul" source_file="/fs04/fc37/adam/projects/psilocybin-prl-analyses/src/prl_hgf/fitting/hierarchical_patrl.py" source_line=362}
  add.4044.5.clone.1 = f64[2,20]{1,0} add(add.4043.5.clone.1, multiply.2956.7.clone.1), metadata={op_name="jit(scan)/jit(main)/while/body/jit(_one_step)/vmap(while)/body/while/body/transpose(jvp(vmap(while)))/body/jit(beliefs_propagation)/jit(continuous_node_posterior_update_ehgf)/jit(posterior_update_precision_continuous_node)/jit(precision_update)/add_any" source_file="/fs04/fc37/adam/projects/psilocybin-prl-analyses/src/prl_hgf/fitting/hierarchical_patrl.py" source_line=362}
  bitcast.11890.5.clone.1 = f64[1,2,20]{2,1,0} bitcast(add.4044.5.clone.1)
  select.3026.5.clone.1 = f64[1,2,20]{2,1,0} select(bitcast.11847.5.clone.1, bitcast.11890.5.clone.1, broadcast.4031.4.clone.1), metadata={op_name="jit(scan)/jit(main)/while/body/jit(_one_step)/vmap(while)/body/while/body/transpose(jvp(vmap(while)))/body/jit(beliefs_propagation)/jit(continuous_node_posterior_update_ehgf)/jit(posterior_update_precision_continuous_node)/select_n" source_file="/fs04/fc37/adam/projects/psilocybin-prl-analyses/src/prl_hgf/fitting/hierarchical_patrl.py" source_line=362}
  multiply.2957.5.clone.1 = f64[2,20]{1,0} multiply(multiply.2928.9.clone.1, bitcast.11858.26.clone.1), metadata={op_name="jit(scan)/jit(main)/while/body/jit(_one_step)/vmap(while)/body/while/body/transpose(jvp(vmap(while)))/body/jit(beliefs_propagation)/jit(continuous_node_posterior_update_ehgf)/jit(posterior_update_mean_continuous_node)/mul" source_file="/fs04/fc37/adam/projects/psilocybin-prl-analyses/src/prl_hgf/fitting/hierarchical_patrl.py" source_line=362}
  bitcast.11903.3.clone.1 = f64[1,2,20]{2,1,0} bitcast(multiply.2957.5.clone.1)
  add.4046.3.clone.1 = f64[1,2,20]{2,1,0} add(select.3026.5.clone.1, bitcast.11903.3.clone.1), metadata={op_name="jit(scan)/jit(main)/while/body/jit(_one_step)/vmap(while)/body/while/body/transpose(jvp(vmap(while)))/body/jit(beliefs_propagation)/jit(continuous_node_posterior_update_ehgf)/add_any" source_file="/fs04/fc37/adam/projects/psilocybin-prl-analyses/src/prl_hgf/fitting/hierarchical_patrl.py" source_line=362}
  param_38.228 = f64[20,1]{1,0} parameter(38)
  bitcast.11908.5.clone.1 = f64[20]{0} bitcast(param_38.228)
  broadcast.4034.5.clone.1 = f64[1,2,20]{2,1,0} broadcast(bitcast.11908.5.clone.1), dimensions={2}, metadata={op_name="jit(scan)/jit(main)/while/body/jit(_one_step)/vmap(while)/body/while/body/transpose(jvp(vmap(while)))/body/jit(beliefs_propagation)/broadcast_in_dim[shape=(2, 20, 1) broadcast_dimensions=(np.int64(1), np.int64(2))]" source_file="/fs04/fc37/adam/projects/psilocybin-prl-analyses/src/prl_hgf/fitting/hierarchical_patrl.py" source_line=362}
  add.4047.3.clone.1 = f64[1,2,20]{2,1,0} add(add.4046.3.clone.1, broadcast.4034.5.clone.1), metadata={op_name="jit(scan)/jit(main)/while/body/jit(_one_step)/vmap(while)/body/while/body/transpose(jvp(vmap(while)))/body/jit(beliefs_propagation)/add_any" source_file="/fs04/fc37/adam/projects/psilocybin-prl-analyses/src/prl_hgf/fitting/hierarchical_patrl.py" source_line=362}
  add.4048.1.clone.1 = f64[1,2,20]{2,1,0} add(add.4042.3.clone.1, add.4047.3.clone.1), metadata={op_name="jit(scan)/jit(main)/while/body/jit(_one_step)/vmap(while)/body/while/body/transpose(jvp(vmap(while)))/body/add_any" source_file="/fs04/fc37/adam/projects/psilocybin-prl-analyses/src/prl_hgf/fitting/hierarchical_patrl.py" source_line=362}
  param_60.45 = f64[2,20]{1,0} parameter(60)
  param_61.50 = f64[192,2,20]{2,1,0} parameter(61)
  dynamic-slice.1238.5.clone.1 = f64[1,2,20]{2,1,0} dynamic-slice(param_61.50, select.2973.39, constant_1980_14, constant_1980_14), dynamic_slice_sizes={1,2,20}, metadata={op_name="jit(scan)/jit(main)/while/body/jit(_one_step)/vmap(while)/body/while/body/transpose(jvp(vmap(while)))/body/dynamic_slice[slice_sizes=(1, 2, 20)]" source_file="/fs04/fc37/adam/projects/psilocybin-prl-analyses/src/prl_hgf/fitting/hierarchical_patrl.py" source_line=378}
  bitcast.10728.5.clone.1 = f64[2,20]{1,0} bitcast(dynamic-slice.1238.5.clone.1)
  add.3975.5.clone.1 = f64[2,20]{1,0} add(param_60.45, bitcast.10728.5.clone.1), metadata={op_name="jit(scan)/jit(main)/while/body/jit(_one_step)/vmap(while)/body/while/body/transpose(jvp(vmap(while)))/body/add_any" source_file="/fs04/fc37/adam/projects/psilocybin-prl-analyses/src/prl_hgf/fitting/hierarchical_patrl.py" source_line=378}
  select.2980.3.clone.1 = f64[2,20]{1,0} select(bitcast.10661.29, broadcast.4024.clone.83, add.3975.5.clone.1), metadata={op_name="jit(scan)/jit(main)/while/body/jit(_one_step)/vmap(while)/body/while/body/transpose(jvp(vmap(while)))/body/jit(_where)/select_n" source_file="/fs04/fc37/adam/projects/psilocybin-prl-analyses/src/prl_hgf/env/pat_rl_simulator.py" source_line=92}
  param_59.44 = f64[2,20]{1,0} parameter(59)
  select.2990.5.clone.1 = f64[2,20]{1,0} select(bitcast.10661.29, param_59.44, broadcast.4024.clone.83), metadata={op_name="jit(scan)/jit(main)/while/body/jit(_one_step)/vmap(while)/body/while/body/transpose(jvp(vmap(while)))/body/jit(_where)/select_n" source_file="/fs04/fc37/adam/projects/psilocybin-prl-analyses/src/prl_hgf/env/pat_rl_simulator.py" source_line=92}
  param_58.44 = f64[2,20]{1,0} parameter(58)
  select.2989.5.clone.1 = f64[2,20]{1,0} select(bitcast.10661.29, param_58.44, broadcast.4024.clone.83), metadata={op_name="jit(scan)/jit(main)/while/body/jit(_one_step)/vmap(while)/body/while/body/transpose(jvp(vmap(while)))/body/jit(_where)/select_n" source_file="/fs04/fc37/adam/projects/psilocybin-prl-analyses/src/prl_hgf/env/pat_rl_simulator.py" source_line=92}
  multiply.2904.7.clone.1 = f64[2,20]{1,0} multiply(bitcast.10911.23.clone.1, add.3978.7.clone.1), metadata={op_name="jit(scan)/jit(main)/while/body/jit(_one_step)/vmap(while)/body/while/body/transpose(jvp(vmap(while)))/body/jit(beliefs_propagation)/jit(continuous_node_prediction_error)/jit(continuous_node_volatility_prediction_error)/mul" source_file="/fs04/fc37/adam/projects/psilocybin-prl-analyses/src/prl_hgf/fitting/hierarchical_patrl.py" source_line=362}
  param_57.58 = f64[192,2,20]{2,1,0} parameter(57)
  dynamic-slice.1253.5.clone.1 = f64[1,2,20]{2,1,0} dynamic-slice(param_57.58, select.2973.39, constant_1980_14, constant_1980_14), dynamic_slice_sizes={1,2,20}, metadata={op_name="jit(scan)/jit(main)/while/body/jit(_one_step)/vmap(while)/body/while/body/transpose(jvp(vmap(while)))/body/dynamic_slice[slice_sizes=(1, 2, 20)]" source_file="/fs04/fc37/adam/projects/psilocybin-prl-analyses/src/prl_hgf/fitting/hierarchical_patrl.py" source_line=378}
  bitcast.10948.5.clone.1 = f64[2,20]{1,0} bitcast(dynamic-slice.1253.5.clone.1)
  multiply.2905.5.clone.1 = f64[2,20]{1,0} multiply(multiply.2904.7.clone.1, bitcast.10948.5.clone.1), metadata={op_name="jit(scan)/jit(main)/while/body/jit(_one_step)/vmap(while)/body/while/body/transpose(jvp(vmap(while)))/body/jit(beliefs_propagation)/jit(continuous_node_prediction_error)/jit(continuous_node_volatility_prediction_error)/mul" source_file="/fs04/fc37/adam/projects/psilocybin-prl-analyses/src/prl_hgf/fitting/hierarchical_patrl.py" source_line=362}
  add.3980.3.clone.1 = f64[2,20]{1,0} add(select.2989.5.clone.1, multiply.2905.5.clone.1), metadata={op_name="jit(scan)/jit(main)/while/body/jit(_one_step)/vmap(while)/body/while/body/transpose(jvp(vmap(while)))/body/jit(beliefs_propagation)/jit(continuous_node_prediction_error)/add_any" source_file="/fs04/fc37/adam/projects/psilocybin-prl-analyses/src/prl_hgf/fitting/hierarchical_patrl.py" source_line=362}
  negate.471.3.clone.1 = f64[2,20]{1,0} negate(add.3980.3.clone.1), metadata={op_name="jit(scan)/jit(main)/while/body/jit(_one_step)/vmap(while)/body/while/body/transpose(jvp(vmap(while)))/body/jit(beliefs_propagation)/jit(continuous_node_prediction_error)/jit(continuous_node_value_prediction_error)/neg" source_file="/fs04/fc37/adam/projects/psilocybin-prl-analyses/src/prl_hgf/fitting/hierarchical_patrl.py" source_line=362}
  add.3983.3.clone.1 = f64[2,20]{1,0} add(select.2990.5.clone.1, negate.471.3.clone.1), metadata={op_name="jit(scan)/jit(main)/while/body/jit(_one_step)/vmap(while)/body/while/body/transpose(jvp(vmap(while)))/body/jit(beliefs_propagation)/add_any" source_file="/fs04/fc37/adam/projects/psilocybin-prl-analyses/src/prl_hgf/fitting/hierarchical_patrl.py" source_line=362}
  select.2988.5.clone.1 = f64[2,20]{1,0} select(bitcast.10661.29, add.3975.5.clone.1, broadcast.4024.clone.83), metadata={op_name="jit(scan)/jit(main)/while/body/jit(_one_step)/vmap(while)/body/while/body/transpose(jvp(vmap(while)))/body/jit(_where)/select_n" source_file="/fs04/fc37/adam/projects/psilocybin-prl-analyses/src/prl_hgf/env/pat_rl_simulator.py" source_line=92}
  add.3981.3.clone.1 = f64[2,20]{1,0} add(select.2988.5.clone.1, add.3980.3.clone.1), metadata={op_name="jit(scan)/jit(main)/while/body/jit(_one_step)/vmap(while)/body/while/body/transpose(jvp(vmap(while)))/body/jit(beliefs_propagation)/add_any" source_file="/fs04/fc37/adam/projects/psilocybin-prl-analyses/src/prl_hgf/fitting/hierarchical_patrl.py" source_line=362}
  add.3984.9.clone.1 = f64[2,20]{1,0} add(add.3981.3.clone.1, broadcast.4026.77.clone.1), metadata={op_name="jit(scan)/jit(main)/while/body/jit(_one_step)/vmap(while)/body/while/body/transpose(jvp(vmap(while)))/body/jit(beliefs_propagation)/jit(continuous_node_posterior_update)/add_any" source_file="/fs04/fc37/adam/projects/psilocybin-prl-analyses/src/prl_hgf/fitting/hierarchical_patrl.py" source_line=362}
  add.3985.7.clone.1 = f64[2,20]{1,0} add(add.3983.3.clone.1, add.3984.9.clone.1), metadata={op_name="jit(scan)/jit(main)/while/body/jit(_one_step)/vmap(while)/body/while/body/transpose(jvp(vmap(while)))/body/jit(beliefs_propagation)/add_any" source_file="/fs04/fc37/adam/projects/psilocybin-prl-analyses/src/prl_hgf/fitting/hierarchical_patrl.py" source_line=362}
  param_56.58 = f64[2,20]{1,0} parameter(56)
  select.2991.7.clone.1 = f64[2,20]{1,0} select(bitcast.10661.29, param_56.58, broadcast.4024.clone.83), metadata={op_name="jit(scan)/jit(main)/while/body/jit(_one_step)/vmap(while)/body/while/body/transpose(jvp(vmap(while)))/body/jit(_where)/select_n" source_file="/fs04/fc37/adam/projects/psilocybin-prl-analyses/src/prl_hgf/env/pat_rl_simulator.py" source_line=92}
  add.3986.5.clone.1 = f64[2,20]{1,0} add(select.2991.7.clone.1, broadcast.4026.77.clone.1), metadata={op_name="jit(scan)/jit(main)/while/body/jit(_one_step)/vmap(while)/body/while/body/transpose(jvp(vmap(while)))/body/jit(beliefs_propagation)/add_any" source_file="/fs04/fc37/adam/projects/psilocybin-prl-analyses/src/prl_hgf/fitting/hierarchical_patrl.py" source_line=362}
  param_55.60 = f64[2,20]{1,0} parameter(55)
  select.2992.7.clone.1 = f64[2,20]{1,0} select(bitcast.10661.29, param_55.60, broadcast.4024.clone.83), metadata={op_name="jit(scan)/jit(main)/while/body/jit(_one_step)/vmap(while)/body/while/body/transpose(jvp(vmap(while)))/body/jit(_where)/select_n" source_file="/fs04/fc37/adam/projects/psilocybin-prl-analyses/src/prl_hgf/env/pat_rl_simulator.py" source_line=92}
  param_54.60 = f64[192,2,20]{2,1,0} parameter(54)
  dynamic-slice.1258.7.clone.1 = f64[1,2,20]{2,1,0} dynamic-slice(param_54.60, select.2973.39, constant_1980_14, constant_1980_14), dynamic_slice_sizes={1,2,20}, metadata={op_name="jit(scan)/jit(main)/while/body/jit(_one_step)/vmap(while)/body/while/body/transpose(jvp(vmap(while)))/body/dynamic_slice[slice_sizes=(1, 2, 20)]" source_file="/fs04/fc37/adam/projects/psilocybin-prl-analyses/src/prl_hgf/fitting/hierarchical_patrl.py" source_line=378}
  bitcast.11054.7.clone.1 = f64[2,20]{1,0} bitcast(dynamic-slice.1258.7.clone.1)
  multiply.2909.7.clone.1 = f64[2,20]{1,0} multiply(bitcast.11054.7.clone.1, add.3981.3.clone.1), metadata={op_name="jit(scan)/jit(main)/while/body/jit(_one_step)/vmap(while)/body/while/body/transpose(jvp(vmap(while)))/body/jit(beliefs_propagation)/jit(continuous_node_posterior_update)/jit(posterior_update_mean_continuous_node)/mul" source_file="/fs04/fc37/adam/projects/psilocybin-prl-analyses/src/prl_hgf/fitting/hierarchical_patrl.py" source_line=362}
  param_53.64 = f64[192]{0} parameter(53)
  dynamic-slice.1241.1.clone.1 = f64[1]{0} dynamic-slice(param_53.64, select.2973.39), dynamic_slice_sizes={1}, metadata={op_name="jit(scan)/jit(main)/while/body/jit(_one_step)/vmap(while)/body/while/body/transpose(jvp(vmap(while)))/body/dynamic_slice[slice_sizes=(1,)]" source_file="/fs04/fc37/adam/projects/psilocybin-prl-analyses/src/prl_hgf/fitting/hierarchical_patrl.py" source_line=378}
  bitcast.10983.19.clone.1 = f64[] bitcast(dynamic-slice.1241.1.clone.1)
  broadcast.4027.19.clone.1 = f64[2,20]{1,0} broadcast(bitcast.10983.19.clone.1), dimensions={}, metadata={op_name="jit(scan)/jit(main)/while/body/jit(_one_step)/vmap(while)/body/while/body/transpose(jvp(vmap(while)))/body/jit(beliefs_propagation)/jit(continuous_node_posterior_update)/jit(posterior_update_mean_continuous_node)/mul" source_file="/fs04/fc37/adam/projects/psilocybin-prl-analyses/src/prl_hgf/fitting/hierarchical_patrl.py" source_line=362}
  multiply.2910.7.clone.1 = f64[2,20]{1,0} multiply(multiply.2909.7.clone.1, broadcast.4027.19.clone.1), metadata={op_name="jit(scan)/jit(main)/while/body/jit(_one_step)/vmap(while)/body/while/body/transpose(jvp(vmap(while)))/body/jit(beliefs_propagation)/jit(continuous_node_posterior_update)/jit(posterior_update_mean_continuous_node)/mul" source_file="/fs04/fc37/adam/projects/psilocybin-prl-analyses/src/prl_hgf/fitting/hierarchical_patrl.py" source_line=362}
  add.3987.7.clone.1 = f64[2,20]{1,0} add(multiply.2910.7.clone.1, broadcast.4026.77.clone.1), metadata={op_name="jit(scan)/jit(main)/while/body/jit(_one_step)/vmap(while)/body/while/body/transpose(jvp(vmap(while)))/body/jit(beliefs_propagation)/jit(continuous_node_posterior_update)/add_any" source_file="/fs04/fc37/adam/projects/psilocybin-prl-analyses/src/prl_hgf/fitting/hierarchical_patrl.py" source_line=362}
  add.3988.5.clone.1 = f64[2,20]{1,0} add(select.2992.7.clone.1, add.3987.7.clone.1), metadata={op_name="jit(scan)/jit(main)/while/body/jit(_one_step)/vmap(while)/body/while/body/transpose(jvp(vmap(while)))/body/jit(beliefs_propagation)/add_any" source_file="/fs04/fc37/adam/projects/psilocybin-prl-analyses/src/prl_hgf/fitting/hierarchical_patrl.py" source_line=362}
  param_52.65 = f64[192,2,20]{2,1,0} parameter(52)
  dynamic-slice.1259.8.clone.1 = f64[1,2,20]{2,1,0} dynamic-slice(param_52.65, select.2973.39, constant_1980_14, constant_1980_14), dynamic_slice_sizes={1,2,20}, metadata={op_name="jit(scan)/jit(main)/while/body/jit(_one_step)/vmap(while)/body/while/body/transpose(jvp(vmap(while)))/body/dynamic_slice[slice_sizes=(1, 2, 20)]" source_file="/fs04/fc37/adam/projects/psilocybin-prl-analyses/src/prl_hgf/fitting/hierarchical_patrl.py" source_line=378}
  bitcast.11076.8.clone.1 = f64[2,20]{1,0} bitcast(dynamic-slice.1259.8.clone.1)
  divide.596.5.clone.1 = f64[2,20]{1,0} divide(add.3988.5.clone.1, bitcast.11076.8.clone.1), metadata={op_name="jit(scan)/jit(main)/while/body/jit(_one_step)/vmap(while)/body/while/body/transpose(jvp(vmap(while)))/body/jit(beliefs_propagation)/jit(binary_state_node_prediction_error)/div" source_file="/fs04/fc37/adam/projects/psilocybin-prl-analyses/src/prl_hgf/fitting/hierarchical_patrl.py" source_line=362}
  multiply.2911.9.clone.1 = f64[2,20]{1,0} multiply(divide.596.5.clone.1, broadcast.4027.19.clone.1), metadata={op_name="jit(scan)/jit(main)/while/body/jit(_one_step)/vmap(while)/body/while/body/transpose(jvp(vmap(while)))/body/jit(beliefs_propagation)/jit(binary_state_node_prediction_error)/mul" source_file="/fs04/fc37/adam/projects/psilocybin-prl-analyses/src/prl_hgf/fitting/hierarchical_patrl.py" source_line=362}
  negate.472.7.clone.1 = f64[2,20]{1,0} negate(multiply.2911.9.clone.1), metadata={op_name="jit(scan)/jit(main)/while/body/jit(_one_step)/vmap(while)/body/while/body/transpose(jvp(vmap(while)))/body/jit(beliefs_propagation)/jit(binary_state_node_prediction_error)/neg" source_file="/fs04/fc37/adam/projects/psilocybin-prl-analyses/src/prl_hgf/fitting/hierarchical_patrl.py" source_line=362}
  add.3989.5.clone.1 = f64[2,20]{1,0} add(add.3986.5.clone.1, negate.472.7.clone.1), metadata={op_name="jit(scan)/jit(main)/while/body/jit(_one_step)/vmap(while)/body/while/body/transpose(jvp(vmap(while)))/body/jit(beliefs_propagation)/add_any" source_file="/fs04/fc37/adam/projects/psilocybin-prl-analyses/src/prl_hgf/fitting/hierarchical_patrl.py" source_line=362}
  param_51.71 = f64[192,2,20]{2,1,0} parameter(51)
  dynamic-slice.1260.11.clone.1 = f64[1,2,20]{2,1,0} dynamic-slice(param_51.71, select.2973.39, constant_1980_14, constant_1980_14), dynamic_slice_sizes={1,2,20}, metadata={op_name="jit(scan)/jit(main)/while/body/jit(_one_step)/vmap(while)/body/while/body/transpose(jvp(vmap(while)))/body/dynamic_slice[slice_sizes=(1, 2, 20)]" source_file="/fs04/fc37/adam/projects/psilocybin-prl-analyses/src/prl_hgf/fitting/hierarchical_patrl.py" source_line=378}
  bitcast.11089.11.clone.1 = f64[2,20]{1,0} bitcast(dynamic-slice.1260.11.clone.1)
  param_50.73 = f64[2,20]{1,0} parameter(50)
  select.2993.11.clone.1 = f64[2,20]{1,0} select(bitcast.10661.29, param_50.73, broadcast.4024.clone.83), metadata={op_name="jit(scan)/jit(main)/while/body/jit(_one_step)/vmap(while)/body/while/body/transpose(jvp(vmap(while)))/body/jit(_where)/select_n" source_file="/fs04/fc37/adam/projects/psilocybin-prl-analyses/src/prl_hgf/env/pat_rl_simulator.py" source_line=92}
  param_49.84 = f64[2,20]{1,0} parameter(49)
  select.2994.11.clone.1 = f64[2,20]{1,0} select(bitcast.10661.29, param_49.84, broadcast.4024.clone.83), metadata={op_name="jit(scan)/jit(main)/while/body/jit(_one_step)/vmap(while)/body/while/body/transpose(jvp(vmap(while)))/body/jit(_where)/select_n" source_file="/fs04/fc37/adam/projects/psilocybin-prl-analyses/src/prl_hgf/env/pat_rl_simulator.py" source_line=92}
  add.3990.9.clone.1 = f64[2,20]{1,0} add(select.2993.11.clone.1, select.2994.11.clone.1), metadata={op_name="jit(scan)/jit(main)/while/body/jit(_one_step)/vmap(while)/body/while/body/transpose(jvp(vmap(while)))/body/jit(beliefs_propagation)/add_any" source_file="/fs04/fc37/adam/projects/psilocybin-prl-analyses/src/prl_hgf/fitting/hierarchical_patrl.py" source_line=362}
  param_48.83 = f64[192,2,20]{2,1,0} parameter(48)
  dynamic-slice.1254.3.clone.1 = f64[1,2,20]{2,1,0} dynamic-slice(param_48.83, select.2973.39, constant_1980_14, constant_1980_14), dynamic_slice_sizes={1,2,20}, metadata={op_name="jit(scan)/jit(main)/while/body/jit(_one_step)/vmap(while)/body/while/body/transpose(jvp(vmap(while)))/body/dynamic_slice[slice_sizes=(1, 2, 20)]" source_file="/fs04/fc37/adam/projects/psilocybin-prl-analyses/src/prl_hgf/fitting/hierarchical_patrl.py" source_line=378}
  bitcast.10960.3.clone.1 = f64[2,20]{1,0} bitcast(dynamic-slice.1254.3.clone.1)
  multiply.2906.3.clone.1 = f64[2,20]{1,0} multiply(add.3981.3.clone.1, bitcast.10960.3.clone.1), metadata={op_name="jit(scan)/jit(main)/while/body/jit(_one_step)/vmap(while)/body/while/body/transpose(jvp(vmap(while)))/body/jit(beliefs_propagation)/jit(continuous_node_posterior_update)/jit(posterior_update_mean_continuous_node)/mul" source_file="/fs04/fc37/adam/projects/psilocybin-prl-analyses/src/prl_hgf/fitting/hierarchical_patrl.py" source_line=362}
  divide.597.7.clone.1 = f64[2,20]{1,0} divide(multiply.2906.3.clone.1, bitcast.11128.12.clone.1), metadata={op_name="jit(scan)/jit(main)/while/body/jit(_one_step)/vmap(while)/body/while/body/transpose(jvp(vmap(while)))/body/jit(beliefs_propagation)/jit(continuous_node_posterior_update)/jit(posterior_update_mean_continuous_node)/div" source_file="/fs04/fc37/adam/projects/psilocybin-prl-analyses/src/prl_hgf/fitting/hierarchical_patrl.py" source_line=362}
  multiply.2912.9.clone.1 = f64[2,20]{1,0} multiply(bitcast.11117.6.clone.1, divide.597.7.clone.1), metadata={op_name="jit(scan)/jit(main)/while/body/jit(_one_step)/vmap(while)/body/while/body/transpose(jvp(vmap(while)))/body/jit(beliefs_propagation)/jit(continuous_node_posterior_update)/jit(posterior_update_mean_continuous_node)/mul" source_file="/fs04/fc37/adam/projects/psilocybin-prl-analyses/src/prl_hgf/fitting/hierarchical_patrl.py" source_line=362}
  param_47.129 = f64[2,20]{1,0} parameter(47)
  add.3991.7.clone.1 = f64[2,20]{1,0} add(multiply.2912.9.clone.1, param_47.129), metadata={op_name="jit(scan)/jit(main)/while/body/jit(_one_step)/vmap(while)/body/while/body/transpose(jvp(vmap(while)))/body/jit(beliefs_propagation)/jit(continuous_node_posterior_update)/add_any" source_file="/fs04/fc37/adam/projects/psilocybin-prl-analyses/src/prl_hgf/fitting/hierarchical_patrl.py" source_line=362}
  add.3992.7.clone.1 = f64[2,20]{1,0} add(add.3990.9.clone.1, add.3991.7.clone.1), metadata={op_name="jit(scan)/jit(main)/while/body/jit(_one_step)/vmap(while)/body/while/body/transpose(jvp(vmap(while)))/body/jit(beliefs_propagation)/add_any" source_file="/fs04/fc37/adam/projects/psilocybin-prl-analyses/src/prl_hgf/fitting/hierarchical_patrl.py" source_line=362}
  add.3993.7.clone.1 = f64[2,20]{1,0} add(add.3992.7.clone.1, broadcast.4026.77.clone.1), metadata={op_name="jit(scan)/jit(main)/while/body/jit(_one_step)/vmap(while)/body/while/body/transpose(jvp(vmap(while)))/body/jit(beliefs_propagation)/add_any" source_file="/fs04/fc37/adam/projects/psilocybin-prl-analyses/src/prl_hgf/fitting/hierarchical_patrl.py" source_line=362}
  param_46.137 = f64[192,2,20]{2,1,0} parameter(46)
  dynamic-slice.1263.7.clone.1 = f64[1,2,20]{2,1,0} dynamic-slice(param_46.137, select.2973.39, constant_1980_14, constant_1980_14), dynamic_slice_sizes={1,2,20}, metadata={op_name="jit(scan)/jit(main)/while/body/jit(_one_step)/vmap(while)/body/while/body/transpose(jvp(vmap(while)))/body/dynamic_slice[slice_sizes=(1, 2, 20)]" source_file="/fs04/fc37/adam/projects/psilocybin-prl-analyses/src/prl_hgf/fitting/hierarchical_patrl.py" source_line=378}
  bitcast.11148.7.clone.1 = f64[2,20]{1,0} bitcast(dynamic-slice.1263.7.clone.1)
  multiply.2913.7.clone.1 = f64[2,20]{1,0} multiply(add.3988.5.clone.1, bitcast.11148.7.clone.1), metadata={op_name="jit(scan)/jit(main)/while/body/jit(_one_step)/vmap(while)/body/while/body/transpose(jvp(vmap(while)))/body/jit(beliefs_propagation)/jit(binary_state_node_prediction_error)/mul" source_file="/fs04/fc37/adam/projects/psilocybin-prl-analyses/src/prl_hgf/fitting/hierarchical_patrl.py" source_line=362}
  param_45.159 = f64[192,2,20]{2,1,0} parameter(45)
  dynamic-slice.1264.9.clone.1 = f64[1,2,20]{2,1,0} dynamic-slice(param_45.159, select.2973.39, constant_1980_14, constant_1980_14), dynamic_slice_sizes={1,2,20}, metadata={op_name="jit(scan)/jit(main)/while/body/jit(_one_step)/vmap(while)/body/while/body/transpose(jvp(vmap(while)))/body/dynamic_slice[slice_sizes=(1, 2, 20)]" source_file="/fs04/fc37/adam/projects/psilocybin-prl-analyses/src/prl_hgf/fitting/hierarchical_patrl.py" source_line=378}
  bitcast.11158.9.clone.1 = f64[2,20]{1,0} bitcast(dynamic-slice.1264.9.clone.1)
  multiply.2914.9.clone.1 = f64[2,20]{1,0} multiply(multiply.2913.7.clone.1, bitcast.11158.9.clone.1), metadata={op_name="jit(scan)/jit(main)/while/body/jit(_one_step)/vmap(while)/body/while/body/transpose(jvp(vmap(while)))/body/jit(beliefs_propagation)/jit(binary_state_node_prediction_error)/mul" source_file="/fs04/fc37/adam/projects/psilocybin-prl-analyses/src/prl_hgf/fitting/hierarchical_patrl.py" source_line=362}
  negate.473.7.clone.1 = f64[2,20]{1,0} negate(multiply.2914.9.clone.1), metadata={op_name="jit(scan)/jit(main)/while/body/jit(_one_step)/vmap(while)/body/while/body/transpose(jvp(vmap(while)))/body/jit(beliefs_propagation)/jit(binary_state_node_prediction_error)/neg" source_file="/fs04/fc37/adam/projects/psilocybin-prl-analyses/src/prl_hgf/fitting/hierarchical_patrl.py" source_line=362}
  add.3994.5.clone.1 = f64[2,20]{1,0} add(add.3993.7.clone.1, negate.473.7.clone.1), metadata={op_name="jit(scan)/jit(main)/while/body/jit(_one_step)/vmap(while)/body/while/body/transpose(jvp(vmap(while)))/body/jit(beliefs_propagation)/add_any" source_file="/fs04/fc37/adam/projects/psilocybin-prl-analyses/src/prl_hgf/fitting/hierarchical_patrl.py" source_line=362}
  multiply.2915.11.clone.1 = f64[2,20]{1,0} multiply(bitcast.11089.11.clone.1, add.3994.5.clone.1), metadata={op_name="jit(scan)/jit(main)/while/body/jit(_one_step)/vmap(while)/body/while/body/transpose(jvp(vmap(while)))/body/jit(beliefs_propagation)/jit(binary_state_node_prediction)/mul" source_file="/fs04/fc37/adam/projects/psilocybin-prl-analyses/src/prl_hgf/fitting/hierarchical_patrl.py" source_line=362}
  negate.474.9.clone.1 = f64[2,20]{1,0} negate(multiply.2915.11.clone.1), metadata={op_name="jit(scan)/jit(main)/while/body/jit(_one_step)/vmap(while)/body/while/body/transpose(jvp(vmap(while)))/body/jit(beliefs_propagation)/jit(binary_state_node_prediction)/neg" source_file="/fs04/fc37/adam/projects/psilocybin-prl-analyses/src/prl_hgf/fitting/hierarchical_patrl.py" source_line=362}
  add.3995.7.clone.1 = f64[2,20]{1,0} add(add.3989.5.clone.1, negate.474.9.clone.1), metadata={op_name="jit(scan)/jit(main)/while/body/jit(_one_step)/vmap(while)/body/while/body/transpose(jvp(vmap(while)))/body/jit(beliefs_propagation)/jit(binary_state_node_prediction)/add_any" source_file="/fs04/fc37/adam/projects/psilocybin-prl-analyses/src/prl_hgf/fitting/hierarchical_patrl.py" source_line=362}
  param_44.165 = f64[192,2,20]{2,1,0} parameter(44)
  dynamic-slice.1265.5.clone.1 = f64[1,2,20]{2,1,0} dynamic-slice(param_44.165, select.2973.39, constant_1980_14, constant_1980_14), dynamic_slice_sizes={1,2,20}, metadata={op_name="jit(scan)/jit(main)/while/body/jit(_one_step)/vmap(while)/body/while/body/transpose(jvp(vmap(while)))/body/dynamic_slice[slice_sizes=(1, 2, 20)]" source_file="/fs04/fc37/adam/projects/psilocybin-prl-analyses/src/prl_hgf/fitting/hierarchical_patrl.py" source_line=378}
  bitcast.11175.5.clone.1 = f64[2,20]{1,0} bitcast(dynamic-slice.1265.5.clone.1)
  multiply.2916.5.clone.1 = f64[2,20]{1,0} multiply(add.3994.5.clone.1, bitcast.11175.5.clone.1), metadata={op_name="jit(scan)/jit(main)/while/body/jit(_one_step)/vmap(while)/body/while/body/transpose(jvp(vmap(while)))/body/jit(beliefs_propagation)/jit(binary_state_node_prediction)/mul" source_file="/fs04/fc37/adam/projects/psilocybin-prl-analyses/src/prl_hgf/fitting/hierarchical_patrl.py" source_line=362}
  add.3996.5.clone.1 = f64[2,20]{1,0} add(add.3995.7.clone.1, multiply.2916.5.clone.1), metadata={op_name="jit(scan)/jit(main)/while/body/jit(_one_step)/vmap(while)/body/while/body/transpose(jvp(vmap(while)))/body/jit(beliefs_propagation)/jit(binary_state_node_prediction)/add_any" source_file="/fs04/fc37/adam/projects/psilocybin-prl-analyses/src/prl_hgf/fitting/hierarchical_patrl.py" source_line=362}
  multiply.2917.3.clone.1 = f64[2,20]{1,0} multiply(add.3996.5.clone.1, bitcast.11076.8.clone.1), metadata={op_name="jit(scan)/jit(main)/while/body/jit(_one_step)/vmap(while)/body/while/body/transpose(jvp(vmap(while)))/body/jit(beliefs_propagation)/jit(binary_state_node_prediction)/mul" source_file="/fs04/fc37/adam/projects/psilocybin-prl-analyses/src/prl_hgf/fitting/hierarchical_patrl.py" source_line=362}
  add.3997.5.clone.1 = f64[2,20]{1,0} add(add.3985.7.clone.1, multiply.2917.3.clone.1), metadata={op_name="jit(scan)/jit(main)/while/body/jit(_one_step)/vmap(while)/body/while/body/transpose(jvp(vmap(while)))/body/jit(beliefs_propagation)/add_any" source_file="/fs04/fc37/adam/projects/psilocybin-prl-analyses/src/prl_hgf/fitting/hierarchical_patrl.py" source_line=362}
  multiply.2918.3.clone.1 = f64[2,20]{1,0} multiply(bitcast.11005.6.clone.1, add.3997.5.clone.1), metadata={op_name="jit(scan)/jit(main)/while/body/jit(_one_step)/vmap(while)/body/while/body/transpose(jvp(vmap(while)))/body/jit(beliefs_propagation)/jit(continuous_node_prediction)/jit(predict_mean)/mul" source_file="/fs04/fc37/adam/projects/psilocybin-prl-analyses/src/prl_hgf/fitting/hierarchical_patrl.py" source_line=362}
  add.3998.3.clone.1 = f64[2,20]{1,0} add(broadcast.4026.77.clone.1, multiply.2918.3.clone.1), metadata={op_name="jit(scan)/jit(main)/while/body/jit(_one_step)/vmap(while)/body/while/body/transpose(jvp(vmap(while)))/body/jit(beliefs_propagation)/add_any" source_file="/fs04/fc37/adam/projects/psilocybin-prl-analyses/src/prl_hgf/fitting/hierarchical_patrl.py" source_line=362}
  add.3999.1.clone.1 = f64[2,20]{1,0} add(select.2980.3.clone.1, add.3998.3.clone.1), metadata={op_name="jit(scan)/jit(main)/while/body/jit(_one_step)/vmap(while)/body/while/body/transpose(jvp(vmap(while)))/body/add_any" source_file="/fs04/fc37/adam/projects/psilocybin-prl-analyses/src/prl_hgf/fitting/hierarchical_patrl.py" source_line=362}
  param_62.45 = f64[2,20]{1,0} parameter(62)
  select.3008.1.clone.1.clone.1 = f64[2,20]{1,0} select(bitcast.10661.29, broadcast.4024.clone.83, param_62.45), metadata={op_name="jit(scan)/jit(main)/while/body/jit(_one_step)/vmap(while)/body/while/body/transpose(jvp(vmap(while)))/body/jit(_where)/select_n" source_file="/fs04/fc37/adam/projects/psilocybin-prl-analyses/src/prl_hgf/env/pat_rl_simulator.py" source_line=92}
  param_63.52 = f64[2,20]{1,0} parameter(63)
  select.3018.1.clone.1.clone.1 = f64[2,20]{1,0} select(bitcast.10661.29, broadcast.4024.clone.83, param_63.52), metadata={op_name="jit(scan)/jit(main)/while/body/jit(_one_step)/vmap(while)/body/while/body/transpose(jvp(vmap(while)))/body/jit(_where)/select_n" source_file="/fs04/fc37/adam/projects/psilocybin-prl-analyses/src/prl_hgf/fitting/hierarchical_patrl.py" source_line=370}
  param_64.60 = f64[2,20]{1,0} parameter(64)
  select.3019.1.clone.1.clone.1 = f64[2,20]{1,0} select(bitcast.10661.29, broadcast.4024.clone.83, param_64.60), metadata={op_name="jit(scan)/jit(main)/while/body/jit(_one_step)/vmap(while)/body/while/body/transpose(jvp(vmap(while)))/body/jit(_where)/select_n" source_file="/fs04/fc37/adam/projects/psilocybin-prl-analyses/src/prl_hgf/env/pat_rl_simulator.py" source_line=92}
  param_75.38 = f64[2,20]{1,0} parameter(75)
  select.3020.5.clone.1.clone.1 = f64[2,20]{1,0} select(bitcast.10661.29, param_75.38, broadcast.4024.clone.83), metadata={op_name="jit(scan)/jit(main)/while/body/jit(_one_step)/vmap(while)/body/while/body/transpose(jvp(vmap(while)))/body/jit(_where)/select_n" source_file="/fs04/fc37/adam/projects/psilocybin-prl-analyses/src/prl_hgf/fitting/hierarchical_patrl.py" source_line=370}
  select.3021.5.clone.1.clone.1 = f64[2,20]{1,0} select(bitcast.10661.29, broadcast.4024.clone.83, param_75.38), metadata={op_name="jit(scan)/jit(main)/while/body/jit(_one_step)/vmap(while)/body/while/body/transpose(jvp(vmap(while)))/body/jit(_where)/select_n" source_file="/fs04/fc37/adam/projects/psilocybin-prl-analyses/src/prl_hgf/fitting/hierarchical_patrl.py" source_line=370}
  add.4036.3.clone.1.clone.1 = f64[2,20]{1,0} add(select.3020.5.clone.1.clone.1, select.3021.5.clone.1.clone.1), metadata={op_name="jit(scan)/jit(main)/while/body/jit(_one_step)/vmap(while)/body/while/body/transpose(jvp(vmap(while)))/body/add_any" source_file="/fs04/fc37/adam/projects/psilocybin-prl-analyses/src/prl_hgf/fitting/hierarchical_patrl.py" source_line=370}
  param_74.38 = pred[192,2,20]{2,1,0} parameter(74)
  dynamic-slice.1276.1.clone.1.clone.1 = pred[1,2,20]{2,1,0} dynamic-slice(param_74.38, select.2973.39, constant_1980_14, constant_1980_14), dynamic_slice_sizes={1,2,20}, metadata={op_name="jit(scan)/jit(main)/while/body/jit(_one_step)/vmap(while)/body/while/body/transpose(jvp(vmap(while)))/body/dynamic_slice[slice_sizes=(1, 2, 20)]" source_file="/fs04/fc37/adam/projects/psilocybin-prl-analyses/src/prl_hgf/fitting/hierarchical_patrl.py" source_line=378}
  bitcast.11553.12.clone.1.clone.1 = pred[2,20]{1,0} bitcast(dynamic-slice.1276.1.clone.1.clone.1)
  param_73.41 = f64[192,2,20]{2,1,0} parameter(73)
  dynamic-slice.1283.5.clone.1.clone.1 = f64[1,2,20]{2,1,0} dynamic-slice(param_73.41, select.2973.39, constant_1980_14, constant_1980_14), dynamic_slice_sizes={1,2,20}, metadata={op_name="jit(scan)/jit(main)/while/body/jit(_one_step)/vmap(while)/body/while/body/transpose(jvp(vmap(while)))/body/dynamic_slice[slice_sizes=(1, 2, 20)]" source_file="/fs04/fc37/adam/projects/psilocybin-prl-analyses/src/prl_hgf/fitting/hierarchical_patrl.py" source_line=378}
  bitcast.11751.5.clone.1.clone.1 = f64[2,20]{1,0} bitcast(dynamic-slice.1283.5.clone.1.clone.1)
  constant_1985_2_clone_1_clone_1 = s32[] constant(0)
  broadcast.4029.3.clone.1.clone.1 = s32[1,2,20]{2,1,0} broadcast(constant_1985_2_clone_1_clone_1), dimensions={}, metadata={op_name="jit(scan)/jit(main)/while/body/jit(_one_step)/vmap(while)/body/while/body/transpose(jvp(vmap(while)))/body/jit(beliefs_propagation)/jit(continuous_node_posterior_update_ehgf)/jit(posterior_update_precision_continuous_node)/eq" source_file="/fs04/fc37/adam/projects/psilocybin-prl-analyses/src/prl_hgf/fitting/hierarchical_patrl.py" source_line=362}
  compare.1133.3.clone.1.clone.1 = pred[1,2,20]{2,1,0} compare(dynamic-slice.1246.26.clone.1, broadcast.4029.3.clone.1.clone.1), direction=EQ, metadata={op_name="jit(scan)/jit(main)/while/body/jit(_one_step)/vmap(while)/body/while/body/transpose(jvp(vmap(while)))/body/jit(beliefs_propagation)/jit(continuous_node_posterior_update_ehgf)/jit(posterior_update_precision_continuous_node)/eq" source_file="/fs04/fc37/adam/projects/psilocybin-prl-analyses/src/prl_hgf/fitting/hierarchical_patrl.py" source_line=362}
  bitcast.11560.7.clone.1.clone.1 = pred[2,20]{1,0} bitcast(compare.1133.3.clone.1.clone.1)
  select.3012.7.clone.1.clone.1 = f64[2,20]{1,0} select(bitcast.11560.7.clone.1.clone.1, select.2983.31.clone.1, broadcast.4024.clone.83), metadata={op_name="jit(scan)/jit(main)/while/body/jit(_one_step)/vmap(while)/body/while/body/transpose(jvp(vmap(while)))/body/jit(beliefs_propagation)/jit(continuous_node_posterior_update_ehgf)/jit(posterior_update_precision_continuous_node)/select_n" source_file="/fs04/fc37/adam/projects/psilocybin-prl-analyses/src/prl_hgf/fitting/hierarchical_patrl.py" source_line=362}
  param_72.42 = f64[192,2,20]{2,1,0} parameter(72)
  dynamic-slice.1277.5.clone.1.clone.1 = f64[1,2,20]{2,1,0} dynamic-slice(param_72.42, select.2973.39, constant_1980_14, constant_1980_14), dynamic_slice_sizes={1,2,20}, metadata={op_name="jit(scan)/jit(main)/while/body/jit(_one_step)/vmap(while)/body/while/body/transpose(jvp(vmap(while)))/body/dynamic_slice[slice_sizes=(1, 2, 20)]" source_file="/fs04/fc37/adam/projects/psilocybin-prl-analyses/src/prl_hgf/fitting/hierarchical_patrl.py" source_line=378}
  bitcast.11574.5.clone.1.clone.1 = f64[2,20]{1,0} bitcast(dynamic-slice.1277.5.clone.1.clone.1)
  multiply.2939.5.clone.1.clone.1 = f64[2,20]{1,0} multiply(select.3012.7.clone.1.clone.1, bitcast.11574.5.clone.1.clone.1), metadata={op_name="jit(scan)/jit(main)/while/body/jit(_one_step)/vmap(while)/body/while/body/transpose(jvp(vmap(while)))/body/jit(beliefs_propagation)/jit(continuous_node_posterior_update_ehgf)/jit(posterior_update_precision_continuous_node)/jit(precision_update_missing_values)/mul" source_file="/fs04/fc37/adam/projects/psilocybin-prl-analyses/src/prl_hgf/fitting/hierarchical_patrl.py" source_line=362}
  negate.478.3.clone.1.clone.1 = f64[2,20]{1,0} negate(multiply.2939.5.clone.1.clone.1), metadata={op_name="jit(scan)/jit(main)/while/body/jit(_one_step)/vmap(while)/body/while/body/transpose(jvp(vmap(while)))/body/jit(beliefs_propagation)/jit(continuous_node_posterior_update_ehgf)/jit(posterior_update_precision_continuous_node)/jit(precision_update_missing_values)/neg" source_file="/fs04/fc37/adam/projects/psilocybin-prl-analyses/src/prl_hgf/fitting/hierarchical_patrl.py" source_line=362}
  multiply.2948.5.clone.1.clone.1 = f64[2,20]{1,0} multiply(bitcast.11751.5.clone.1.clone.1, negate.478.3.clone.1.clone.1), metadata={op_name="jit(scan)/jit(main)/while/body/jit(_one_step)/vmap(while)/body/while/body/transpose(jvp(vmap(while)))/body/jit(beliefs_propagation)/jit(continuous_node_posterior_update_ehgf)/jit(posterior_update_precision_continuous_node)/jit(precision_update_missing_values)/mul" source_file="/fs04/fc37/adam/projects/psilocybin-prl-analyses/src/prl_hgf/fitting/hierarchical_patrl.py" source_line=362}
  param_71.33 = f64[192,2,20]{2,1,0} parameter(71)
  dynamic-slice.1284.6.clone.1.clone.1 = f64[1,2,20]{2,1,0} dynamic-slice(param_71.33, select.2973.39, constant_1980_14, constant_1980_14), dynamic_slice_sizes={1,2,20}, metadata={op_name="jit(scan)/jit(main)/while/body/jit(_one_step)/vmap(while)/body/while/body/transpose(jvp(vmap(while)))/body/dynamic_slice[slice_sizes=(1, 2, 20)]" source_file="/fs04/fc37/adam/projects/psilocybin-prl-analyses/src/prl_hgf/fitting/hierarchical_patrl.py" source_line=378}
  bitcast.11763.6.clone.1.clone.1 = f64[2,20]{1,0} bitcast(dynamic-slice.1284.6.clone.1.clone.1)
  multiply.2949.3.clone.1.clone.1 = f64[2,20]{1,0} multiply(multiply.2948.5.clone.1.clone.1, bitcast.11763.6.clone.1.clone.1), metadata={op_name="jit(scan)/jit(main)/while/body/jit(_one_step)/vmap(while)/body/while/body/transpose(jvp(vmap(while)))/body/jit(beliefs_propagation)/jit(continuous_node_posterior_update_ehgf)/jit(posterior_update_precision_continuous_node)/jit(precision_update_missing_values)/mul" source_file="/fs04/fc37/adam/projects/psilocybin-prl-analyses/src/prl_hgf/fitting/hierarchical_patrl.py" source_line=362}
  select.3022.7.clone.1.clone.1 = f64[2,20]{1,0} select(bitcast.11553.12.clone.1.clone.1, multiply.2949.3.clone.1.clone.1, broadcast.4024.clone.83), metadata={op_name="jit(scan)/jit(main)/while/body/jit(_one_step)/vmap(while)/body/while/body/transpose(jvp(vmap(while)))/body/jit(beliefs_propagation)/jit(continuous_node_posterior_update_ehgf)/jit(posterior_update_precision_continuous_node)/select_n" source_file="/fs04/fc37/adam/projects/psilocybin-prl-analyses/src/prl_hgf/fitting/hierarchical_patrl.py" source_line=362}
  add.4037.5.clone.1.clone.1 = f64[2,20]{1,0} add(select.3022.7.clone.1.clone.1, broadcast.4026.77.clone.1), metadata={op_name="jit(scan)/jit(main)/while/body/jit(_one_step)/vmap(while)/body/while/body/transpose(jvp(vmap(while)))/body/jit(beliefs_propagation)/add_any" source_file="/fs04/fc37/adam/projects/psilocybin-prl-analyses/src/prl_hgf/fitting/hierarchical_patrl.py" source_line=362}
  param_70.31 = pred[192,2,20]{2,1,0} parameter(70)
  dynamic-slice.1285.1.clone.1.clone.1 = pred[1,2,20]{2,1,0} dynamic-slice(param_70.31, select.2973.39, constant_1980_14, constant_1980_14), dynamic_slice_sizes={1,2,20}, metadata={op_name="jit(scan)/jit(main)/while/body/jit(_one_step)/vmap(while)/body/while/body/transpose(jvp(vmap(while)))/body/dynamic_slice[slice_sizes=(1, 2, 20)]" source_file="/fs04/fc37/adam/projects/psilocybin-prl-analyses/src/prl_hgf/fitting/hierarchical_patrl.py" source_line=378}
  bitcast.11779.5.clone.1.clone.1 = pred[2,20]{1,0} bitcast(dynamic-slice.1285.1.clone.1.clone.1)
  select.3014.7.clone.1.clone.1 = f64[2,20]{1,0} select(bitcast.10661.29, param_62.45, broadcast.4024.clone.83), metadata={op_name="jit(scan)/jit(main)/while/body/jit(_one_step)/vmap(while)/body/while/body/transpose(jvp(vmap(while)))/body/jit(_where)/select_n" source_file="/fs04/fc37/adam/projects/psilocybin-prl-analyses/src/prl_hgf/env/pat_rl_simulator.py" source_line=92}
  select.3015.9.clone.1.clone.1 = f64[2,20]{1,0} select(bitcast.10789.29.clone.1, select.2985.25.clone.1, broadcast.4024.clone.83), metadata={op_name="jit(scan)/jit(main)/while/body/jit(_one_step)/vmap(while)/body/while/body/transpose(jvp(vmap(while)))/body/jit(beliefs_propagation)/jit(continuous_node_posterior_update_ehgf)/jit(posterior_update_precision_continuous_node)/select_n" source_file="/fs04/fc37/adam/projects/psilocybin-prl-analyses/src/prl_hgf/fitting/hierarchical_patrl.py" source_line=362}
  param_69.28 = f64[192,2,20]{2,1,0} parameter(69)
  dynamic-slice.1279.5.clone.1.clone.1 = f64[1,2,20]{2,1,0} dynamic-slice(param_69.28, select.2973.39, constant_1980_14, constant_1980_14), dynamic_slice_sizes={1,2,20}, metadata={op_name="jit(scan)/jit(main)/while/body/jit(_one_step)/vmap(while)/body/while/body/transpose(jvp(vmap(while)))/body/dynamic_slice[slice_sizes=(1, 2, 20)]" source_file="/fs04/fc37/adam/projects/psilocybin-prl-analyses/src/prl_hgf/fitting/hierarchical_patrl.py" source_line=378}
  bitcast.11618.5.clone.1.clone.1 = f64[2,20]{1,0} bitcast(dynamic-slice.1279.5.clone.1.clone.1)
  multiply.2941.5.clone.1.clone.1 = f64[2,20]{1,0} multiply(bitcast.11618.5.clone.1.clone.1, multiply.2899.19.clone.1), metadata={op_name="jit(scan)/jit(main)/while/body/jit(_one_step)/vmap(while)/body/while/body/transpose(jvp(vmap(while)))/body/jit(beliefs_propagation)/jit(continuous_node_posterior_update_ehgf)/jit(posterior_update_mean_continuous_node)/mul" source_file="/fs04/fc37/adam/projects/psilocybin-prl-analyses/src/prl_hgf/fitting/hierarchical_patrl.py" source_line=362}
  param_68.33 = f64[192,2,20]{2,1,0} parameter(68)
  dynamic-slice.1280.11.clone.1.clone.1 = f64[1,2,20]{2,1,0} dynamic-slice(param_68.33, select.2973.39, constant_1980_14, constant_1980_14), dynamic_slice_sizes={1,2,20}, metadata={op_name="jit(scan)/jit(main)/while/body/jit(_one_step)/vmap(while)/body/while/body/transpose(jvp(vmap(while)))/body/dynamic_slice[slice_sizes=(1, 2, 20)]" source_file="/fs04/fc37/adam/projects/psilocybin-prl-analyses/src/prl_hgf/fitting/hierarchical_patrl.py" source_line=378}
  bitcast.11630.11.clone.1.clone.1 = f64[2,20]{1,0} bitcast(dynamic-slice.1280.11.clone.1.clone.1)
  multiply.2942.11.clone.1.clone.1 = f64[2,20]{1,0} multiply(multiply.2941.5.clone.1.clone.1, bitcast.11630.11.clone.1.clone.1), metadata={op_name="jit(scan)/jit(main)/while/body/jit(_one_step)/vmap(while)/body/while/body/transpose(jvp(vmap(while)))/body/jit(beliefs_propagation)/jit(continuous_node_posterior_update_ehgf)/jit(posterior_update_mean_continuous_node)/mul" source_file="/fs04/fc37/adam/projects/psilocybin-prl-analyses/src/prl_hgf/fitting/hierarchical_patrl.py" source_line=362}
  negate.480.9.clone.1.clone.1 = f64[2,20]{1,0} negate(multiply.2942.11.clone.1.clone.1), metadata={op_name="jit(scan)/jit(main)/while/body/jit(_one_step)/vmap(while)/body/while/body/transpose(jvp(vmap(while)))/body/jit(beliefs_propagation)/jit(continuous_node_posterior_update_ehgf)/jit(posterior_update_mean_continuous_node)/neg" source_file="/fs04/fc37/adam/projects/psilocybin-prl-analyses/src/prl_hgf/fitting/hierarchical_patrl.py" source_line=362}
  constant_1986_2_clone_1_clone_1 = f64[] constant(2)
  broadcast.4030.9.clone.1.clone.1 = f64[2,20]{1,0} broadcast(constant_1986_2_clone_1_clone_1), dimensions={}
  multiply.2943.9.clone.1.clone.1 = f64[2,20]{1,0} multiply(negate.480.9.clone.1.clone.1, broadcast.4030.9.clone.1.clone.1), metadata={op_name="jit(scan)/jit(main)/while/body/jit(_one_step)/vmap(while)/body/while/body/transpose(jvp(vmap(while)))/body/jit(beliefs_propagation)/jit(continuous_node_posterior_update_ehgf)/jit(posterior_update_mean_continuous_node)/mul" source_file="/fs04/fc37/adam/projects/psilocybin-prl-analyses/src/prl_hgf/fitting/hierarchical_patrl.py" source_line=362}
  add.4025.7.clone.1.clone.1 = f64[2,20]{1,0} add(select.3015.9.clone.1.clone.1, multiply.2943.9.clone.1.clone.1), metadata={op_name="jit(scan)/jit(main)/while/body/jit(_one_step)/vmap(while)/body/while/body/transpose(jvp(vmap(while)))/body/jit(beliefs_propagation)/jit(continuous_node_posterior_update_ehgf)/add_any" source_file="/fs04/fc37/adam/projects/psilocybin-prl-analyses/src/prl_hgf/fitting/hierarchical_patrl.py" source_line=362}
  add.4026.5.clone.1.clone.1 = f64[2,20]{1,0} add(select.3014.7.clone.1.clone.1, add.4025.7.clone.1.clone.1), metadata={op_name="jit(scan)/jit(main)/while/body/jit(_one_step)/vmap(while)/body/while/body/transpose(jvp(vmap(while)))/body/jit(beliefs_propagation)/add_any" source_file="/fs04/fc37/adam/projects/psilocybin-prl-analyses/src/prl_hgf/fitting/hierarchical_patrl.py" source_line=362}
  add.4027.7.clone.1.clone.1 = f64[2,20]{1,0} add(add.4026.5.clone.1.clone.1, broadcast.4026.77.clone.1), metadata={op_name="jit(scan)/jit(main)/while/body/jit(_one_step)/vmap(while)/body/while/body/transpose(jvp(vmap(while)))/body/jit(beliefs_propagation)/add_any" source_file="/fs04/fc37/adam/projects/psilocybin-prl-analyses/src/prl_hgf/fitting/hierarchical_patrl.py" source_line=362}
  param_67.39 = f64[192,2,20]{2,1,0} parameter(67)
  dynamic-slice.1281.5.clone.1.clone.1 = f64[1,2,20]{2,1,0} dynamic-slice(param_67.39, select.2973.39, constant_1980_14, constant_1980_14), dynamic_slice_sizes={1,2,20}, metadata={op_name="jit(scan)/jit(main)/while/body/jit(_one_step)/vmap(while)/body/while/body/transpose(jvp(vmap(while)))/body/dynamic_slice[slice_sizes=(1, 2, 20)]" source_file="/fs04/fc37/adam/projects/psilocybin-prl-analyses/src/prl_hgf/fitting/hierarchical_patrl.py" source_line=378}
  bitcast.11649.5.clone.1.clone.1 = f64[2,20]{1,0} bitcast(dynamic-slice.1281.5.clone.1.clone.1)
  select.3016.9.clone.1.clone.1 = f64[2,20]{1,0} select(bitcast.10661.29, param_64.60, broadcast.4024.clone.83), metadata={op_name="jit(scan)/jit(main)/while/body/jit(_one_step)/vmap(while)/body/while/body/transpose(jvp(vmap(while)))/body/jit(_where)/select_n" source_file="/fs04/fc37/adam/projects/psilocybin-prl-analyses/src/prl_hgf/env/pat_rl_simulator.py" source_line=92}
  add.4028.7.clone.1.clone.1 = f64[2,20]{1,0} add(select.3016.9.clone.1.clone.1, broadcast.4026.77.clone.1), metadata={op_name="jit(scan)/jit(main)/while/body/jit(_one_step)/vmap(while)/body/while/body/transpose(jvp(vmap(while)))/body/jit(beliefs_propagation)/add_any" source_file="/fs04/fc37/adam/projects/psilocybin-prl-analyses/src/prl_hgf/fitting/hierarchical_patrl.py" source_line=362}
  multiply.2944.5.clone.1.clone.1 = f64[2,20]{1,0} multiply(bitcast.11649.5.clone.1.clone.1, add.4028.7.clone.1.clone.1), metadata={op_name="jit(scan)/jit(main)/while/body/jit(_one_step)/vmap(while)/body/while/body/transpose(jvp(vmap(while)))/body/jit(beliefs_propagation)/jit(continuous_node_prediction)/jit(predict_precision)/mul" source_file="/fs04/fc37/adam/projects/psilocybin-prl-analyses/src/prl_hgf/fitting/hierarchical_patrl.py" source_line=362}
  add.4029.5.clone.1.clone.1 = f64[2,20]{1,0} add(add.4027.7.clone.1.clone.1, multiply.2944.5.clone.1.clone.1), metadata={op_name="jit(scan)/jit(main)/while/body/jit(_one_step)/vmap(while)/body/while/body/transpose(jvp(vmap(while)))/body/jit(beliefs_propagation)/jit(continuous_node_prediction)/jit(predict_precision)/add_any" source_file="/fs04/fc37/adam/projects/psilocybin-prl-analyses/src/prl_hgf/fitting/hierarchical_patrl.py" source_line=362}
  param_66.45 = f64[192,2,20]{2,1,0} parameter(66)
  dynamic-slice.1282.5.clone.1.clone.1 = f64[1,2,20]{2,1,0} dynamic-slice(param_66.45, select.2973.39, constant_1980_14, constant_1980_14), dynamic_slice_sizes={1,2,20}, metadata={op_name="jit(scan)/jit(main)/while/body/jit(_one_step)/vmap(while)/body/while/body/transpose(jvp(vmap(while)))/body/dynamic_slice[slice_sizes=(1, 2, 20)]" source_file="/fs04/fc37/adam/projects/psilocybin-prl-analyses/src/prl_hgf/fitting/hierarchical_patrl.py" source_line=378}
  bitcast.11672.5.clone.1.clone.1 = f64[2,20]{1,0} bitcast(dynamic-slice.1282.5.clone.1.clone.1)
  multiply.2945.5.clone.1.clone.1 = f64[2,20]{1,0} multiply(add.4029.5.clone.1.clone.1, bitcast.11672.5.clone.1.clone.1), metadata={op_name="jit(scan)/jit(main)/while/body/jit(_one_step)/vmap(while)/body/while/body/transpose(jvp(vmap(while)))/body/jit(beliefs_propagation)/jit(continuous_node_prediction)/jit(predict_precision)/mul" source_file="/fs04/fc37/adam/projects/psilocybin-prl-analyses/src/prl_hgf/fitting/hierarchical_patrl.py" source_line=362}
  negate.481.3.clone.1.clone.1 = f64[2,20]{1,0} negate(multiply.2945.5.clone.1.clone.1), metadata={op_name="jit(scan)/jit(main)/while/body/jit(_one_step)/vmap(while)/body/while/body/transpose(jvp(vmap(while)))/body/jit(beliefs_propagation)/jit(continuous_node_prediction)/jit(predict_precision)/neg" source_file="/fs04/fc37/adam/projects/psilocybin-prl-analyses/src/prl_hgf/fitting/hierarchical_patrl.py" source_line=362}
  param_65.66 = f64[192,2,20]{2,1,0} parameter(65)
  dynamic-slice.1286.5.clone.1.clone.1 = f64[1,2,20]{2,1,0} dynamic-slice(param_65.66, select.2973.39, constant_1980_14, constant_1980_14), dynamic_slice_sizes={1,2,20}, metadata={op_name="jit(scan)/jit(main)/while/body/jit(_one_step)/vmap(while)/body/while/body/transpose(jvp(vmap(while)))/body/dynamic_slice[slice_sizes=(1, 2, 20)]" source_file="/fs04/fc37/adam/projects/psilocybin-prl-analyses/src/prl_hgf/fitting/hierarchical_patrl.py" source_line=378}
  bitcast.11792.5.clone.1.clone.1 = f64[2,20]{1,0} bitcast(dynamic-slice.1286.5.clone.1.clone.1)
  multiply.2950.5.clone.1.clone.1 = f64[2,20]{1,0} multiply(add.4028.7.clone.1.clone.1, bitcast.11792.5.clone.1.clone.1), metadata={op_name="jit(scan)/jit(main)/while/body/jit(_one_step)/vmap(while)/body/while/body/transpose(jvp(vmap(while)))/body/jit(beliefs_propagation)/jit(continuous_node_prediction)/jit(predict_precision)/mul" source_file="/fs04/fc37/adam/projects/psilocybin-prl-analyses/src/prl_hgf/fitting/hierarchical_patrl.py" source_line=362}
  add.4038.3.clone.1.clone.1 = f64[2,20]{1,0} add(negate.481.3.clone.1.clone.1, multiply.2950.5.clone.1.clone.1), metadata={op_name="jit(scan)/jit(main)/while/body/jit(_one_step)/vmap(while)/body/while/body/transpose(jvp(vmap(while)))/body/jit(beliefs_propagation)/jit(continuous_node_prediction)/jit(predict_precision)/add_any" source_file="/fs04/fc37/adam/projects/psilocybin-prl-analyses/src/prl_hgf/fitting/hierarchical_patrl.py" source_line=362}
  select.3023.5.clone.1.clone.1 = f64[2,20]{1,0} select(bitcast.11779.5.clone.1.clone.1, add.4038.3.clone.1.clone.1, broadcast.4024.clone.83), metadata={op_name="jit(scan)/jit(main)/while/body/jit(_one_step)/vmap(while)/body/while/body/transpose(jvp(vmap(while)))/body/jit(beliefs_propagation)/jit(continuous_node_posterior_update_ehgf)/jit(posterior_update_precision_continuous_node)/jit(precision_update)/jit(_where)/select_n" source_file="/fs04/fc37/adam/projects/psilocybin-prl-analyses/src/prl_hgf/env/pat_rl_simulator.py" source_line=92}
  multiply.2951.3.clone.1.clone.1 = f64[2,20]{1,0} multiply(select.3023.5.clone.1.clone.1, bitcast.11763.6.clone.1.clone.1), metadata={op_name="jit(scan)/jit(main)/while/body/jit(_one_step)/vmap(while)/body/while/body/transpose(jvp(vmap(while)))/body/jit(beliefs_propagation)/jit(continuous_node_prediction)/jit(predict_precision)/mul" source_file="/fs04/fc37/adam/projects/psilocybin-prl-analyses/src/prl_hgf/fitting/hierarchical_patrl.py" source_line=362}
  add.4039.3.clone.1.clone.1 = f64[2,20]{1,0} add(add.4037.5.clone.1.clone.1, multiply.2951.3.clone.1.clone.1), metadata={op_name="jit(scan)/jit(main)/while/body/jit(_one_step)/vmap(while)/body/while/body/transpose(jvp(vmap(while)))/body/jit(beliefs_propagation)/add_any" source_file="/fs04/fc37/adam/projects/psilocybin-prl-analyses/src/prl_hgf/fitting/hierarchical_patrl.py" source_line=362}
  add.4041.1.clone.1.clone.1 = f64[2,20]{1,0} add(add.4036.3.clone.1.clone.1, add.4039.3.clone.1.clone.1), metadata={op_name="jit(scan)/jit(main)/while/body/jit(_one_step)/vmap(while)/body/while/body/transpose(jvp(vmap(while)))/body/add_any" source_file="/fs04/fc37/adam/projects/psilocybin-prl-analyses/src/prl_hgf/fitting/hierarchical_patrl.py" source_line=362}
  select.3011.3.clone.1 = f64[2,20]{1,0} select(bitcast.10661.29, broadcast.4024.clone.83, param_14.1075), metadata={op_name="jit(scan)/jit(main)/while/body/jit(_one_step)/vmap(while)/body/while/body/transpose(jvp(vmap(while)))/body/jit(_where)/select_n" source_file="/fs04/fc37/adam/projects/psilocybin-prl-analyses/src/prl_hgf/env/pat_rl_simulator.py" source_line=92}
  param_76.51 = f64[192,2,20]{2,1,0} parameter(76)
  dynamic-slice.1278.21.clone.1 = f64[1,2,20]{2,1,0} dynamic-slice(param_76.51, select.2973.39, constant_1980_14, constant_1980_14), dynamic_slice_sizes={1,2,20}, metadata={op_name="jit(scan)/jit(main)/while/body/jit(_one_step)/vmap(while)/body/while/body/transpose(jvp(vmap(while)))/body/dynamic_slice[slice_sizes=(1, 2, 20)]" source_file="/fs04/fc37/adam/projects/psilocybin-prl-analyses/src/prl_hgf/fitting/hierarchical_patrl.py" source_line=378}
  bitcast.11585.21.clone.1 = f64[2,20]{1,0} bitcast(dynamic-slice.1278.21.clone.1)
  multiply.2940.7.clone.1 = f64[2,20]{1,0} multiply(negate.478.3.clone.1.clone.1, bitcast.11585.21.clone.1), metadata={op_name="jit(scan)/jit(main)/while/body/jit(_one_step)/vmap(while)/body/while/body/transpose(jvp(vmap(while)))/body/jit(beliefs_propagation)/jit(continuous_node_posterior_update_ehgf)/jit(posterior_update_precision_continuous_node)/jit(precision_update_missing_values)/mul" source_file="/fs04/fc37/adam/projects/psilocybin-prl-analyses/src/prl_hgf/fitting/hierarchical_patrl.py" source_line=362}
  negate.479.5.clone.1 = f64[2,20]{1,0} negate(multiply.2940.7.clone.1), metadata={op_name="jit(scan)/jit(main)/while/body/jit(_one_step)/vmap(while)/body/while/body/transpose(jvp(vmap(while)))/body/jit(beliefs_propagation)/jit(continuous_node_posterior_update_ehgf)/jit(posterior_update_precision_continuous_node)/jit(precision_update_missing_values)/neg" source_file="/fs04/fc37/adam/projects/psilocybin-prl-analyses/src/prl_hgf/fitting/hierarchical_patrl.py" source_line=362}
  select.3013.5.clone.1 = f64[2,20]{1,0} select(bitcast.11553.12.clone.1.clone.1, negate.479.5.clone.1, broadcast.4024.clone.83), metadata={op_name="jit(scan)/jit(main)/while/body/jit(_one_step)/vmap(while)/body/while/body/transpose(jvp(vmap(while)))/body/jit(beliefs_propagation)/jit(continuous_node_posterior_update_ehgf)/jit(posterior_update_precision_continuous_node)/select_n" source_file="/fs04/fc37/adam/projects/psilocybin-prl-analyses/src/prl_hgf/fitting/hierarchical_patrl.py" source_line=362}
  add.4024.3.clone.1 = f64[2,20]{1,0} add(select.3013.5.clone.1, broadcast.4026.77.clone.1), metadata={op_name="jit(scan)/jit(main)/while/body/jit(_one_step)/vmap(while)/body/while/body/transpose(jvp(vmap(while)))/body/jit(beliefs_propagation)/add_any" source_file="/fs04/fc37/adam/projects/psilocybin-prl-analyses/src/prl_hgf/fitting/hierarchical_patrl.py" source_line=362}
  multiply.2946.9.clone.1 = f64[2,20]{1,0} multiply(negate.481.3.clone.1.clone.1, bitcast.11585.21.clone.1), metadata={op_name="jit(scan)/jit(main)/while/body/jit(_one_step)/vmap(while)/body/while/body/transpose(jvp(vmap(while)))/body/jit(beliefs_propagation)/jit(continuous_node_prediction)/jit(predict_precision)/mul" source_file="/fs04/fc37/adam/projects/psilocybin-prl-analyses/src/prl_hgf/fitting/hierarchical_patrl.py" source_line=362}
  negate.482.7.clone.1 = f64[2,20]{1,0} negate(multiply.2946.9.clone.1), metadata={op_name="jit(scan)/jit(main)/while/body/jit(_one_step)/vmap(while)/body/while/body/transpose(jvp(vmap(while)))/body/jit(beliefs_propagation)/jit(continuous_node_prediction)/jit(predict_precision)/neg" source_file="/fs04/fc37/adam/projects/psilocybin-prl-analyses/src/prl_hgf/fitting/hierarchical_patrl.py" source_line=362}
  select.3017.5.clone.1 = f64[2,20]{1,0} select(bitcast.10661.29, param_63.52, broadcast.4024.clone.83), metadata={op_name="jit(scan)/jit(main)/while/body/jit(_one_step)/vmap(while)/body/while/body/transpose(jvp(vmap(while)))/body/jit(_where)/select_n" source_file="/fs04/fc37/adam/projects/psilocybin-prl-analyses/src/prl_hgf/fitting/hierarchical_patrl.py" source_line=370}
  add.4031.3.clone.1 = f64[2,20]{1,0} add(select.3017.5.clone.1, broadcast.4026.77.clone.1), metadata={op_name="jit(scan)/jit(main)/while/body/jit(_one_step)/vmap(while)/body/while/body/transpose(jvp(vmap(while)))/body/jit(beliefs_propagation)/add_any" source_file="/fs04/fc37/adam/projects/psilocybin-prl-analyses/src/prl_hgf/fitting/hierarchical_patrl.py" source_line=362}
  multiply.2947.5.clone.1 = f64[2,20]{1,0} multiply(add.4031.3.clone.1, bitcast.11585.21.clone.1), metadata={op_name="jit(scan)/jit(main)/while/body/jit(_one_step)/vmap(while)/body/while/body/transpose(jvp(vmap(while)))/body/jit(beliefs_propagation)/jit(continuous_node_prediction)/mul" source_file="/fs04/fc37/adam/projects/psilocybin-prl-analyses/src/prl_hgf/fitting/hierarchical_patrl.py" source_line=362}
  negate.483.3.clone.1 = f64[2,20]{1,0} negate(multiply.2947.5.clone.1), metadata={op_name="jit(scan)/jit(main)/while/body/jit(_one_step)/vmap(while)/body/while/body/transpose(jvp(vmap(while)))/body/jit(beliefs_propagation)/jit(continuous_node_prediction)/neg" source_file="/fs04/fc37/adam/projects/psilocybin-prl-analyses/src/prl_hgf/fitting/hierarchical_patrl.py" source_line=362}
  add.4032.5.clone.1 = f64[2,20]{1,0} add(negate.482.7.clone.1, negate.483.3.clone.1), metadata={op_name="jit(scan)/jit(main)/while/body/jit(_one_step)/vmap(while)/body/while/body/transpose(jvp(vmap(while)))/body/jit(beliefs_propagation)/jit(continuous_node_prediction)/add_any" source_file="/fs04/fc37/adam/projects/psilocybin-prl-analyses/src/prl_hgf/fitting/hierarchical_patrl.py" source_line=362}
  add.4033.3.clone.1 = f64[2,20]{1,0} add(add.4024.3.clone.1, add.4032.5.clone.1), metadata={op_name="jit(scan)/jit(main)/while/body/jit(_one_step)/vmap(while)/body/while/body/transpose(jvp(vmap(while)))/body/jit(beliefs_propagation)/add_any" source_file="/fs04/fc37/adam/projects/psilocybin-prl-analyses/src/prl_hgf/fitting/hierarchical_patrl.py" source_line=362}
  add.4034.1.clone.1 = f64[2,20]{1,0} add(select.3011.3.clone.1, add.4033.3.clone.1), metadata={op_name="jit(scan)/jit(main)/while/body/jit(_one_step)/vmap(while)/body/while/body/transpose(jvp(vmap(while)))/body/add_any" source_file="/fs04/fc37/adam/projects/psilocybin-prl-analyses/src/prl_hgf/fitting/hierarchical_patrl.py" source_line=362}
…
  get-tuple-element.17094 = f64[2,20]{1,0} get-tuple-element(copy_fusion.1), index=1
  get-tuple-element.17093 = f64[2,20]{1,0} get-tuple-element(copy_fusion.1), index=0
  bitcast.20852 = f64[2,20]{1,0} bitcast(get-tuple-element.17093)
  bitcast.20853 = f64[2,20]{1,0} bitcast(get-tuple-element.17094)
  copy_fusion.2 = (f64[10,2,20]{2,1,0}, f64[10,2,20]{2,1,0}, f64[10,2,20]{2,1,0}, f64[10,2,20]{2,1,0}, f64[10,2,20]{2,1,0}, /*index=5*/f64[10,2,20]{2,1,0}, f64[10,2,20]{2,1,0}, f64[10,2,20]{2,1,0}, f64[10,2,20]{2,1,0}, f64[10,2,20]{2,1,0}, /*index=10*/f64[10,2,20]{2,1,0}, f64[10,2,20]{2,1,0}, f64[10,2,20]{2,1,0}, f64[10,2,20]{2,1,0}, f64[10,2,20]{2,1,0}, /*index=15*/f64[10,2,20]{2,1,0}, f64[10,2,20]{2,1,0}, f64[10,2,20]{2,1,0}, f64[10,2,20]{2,1,0}, f64[10,2,20]{2,1,0}, /*index=20*/f64[10,2,20]{2,1,0}, f64[10,2,20]{2,1,0}, f64[10,2,20]{2,1,0}, f64[10,2,20]{2,1,0}, f64[10,2,20]{2,1,0}, /*index=25*/f64[10,2,20]{2,1,0}, f64[10,2,20]{2,1,0}, f64[10,2,20]{2,1,0}, f64[10,2,20]{2,1,0}, f64[10,2,20]{2,1,0}, /*index=30*/f64[10,2,20]{2,1,0}, f64[10,2,20]{2,1,0}, f64[10,2,20]{2,1,0}, f64[10,2,20]{2,1,0}, f64[10,2,20]{2,1,0}, /*index=35*/f64[10,2,20]{2,1,0}, f64[10,2,20]{2,1,0}, f64[10,2,20]{2,1,0}, f64[10,2,20]{2,1,0}, f64[10,2,20]{2,1,0}, /*index=40*/f64[10,2,20]{2,1,0}, f64[10,2,20]{2,1,0}, f64[10,2,20]{2,1,0}, f64[10,2,20]{2,1,0}, f64[10,2,20]{2,1,0}, /*index=45*/f64[10,2,20]{2,1,0}, f64[10,2,20]{2,1,0}, f64[10,2,20]{2,1,0}, f64[10,2,20]{2,1,0}, f64[10,2,20]{2,1,0}, /*index=50*/f64[10,2,20]{2,1,0}, f64[10,2,20]{2,1,0}, f64[10,2,20]{2,1,0}) fusion(bitcast.20847), kind=kLoop, calls=copy_horizontally_fused_computation.2
  ROOT tuple.764 = (s64[], f64[2]{0}, pred[10,2]{1,0}, pred[10,2]{1,0}, s64[10,2]{1,0}, /*index=5*/s64[10,2]{1,0}, f64[10,2]{1,0}, f64[10,2,20]{2,1,0}, f64[10,2]{1,0}, f64[10,2]{1,0}, /*index=10*/f64[10,2]{1,0}, f64[10,2]{1,0}, f64[2,20]{1,0}, f64[2,20]{1,0}, f64[2,20]{1,0}, /*index=15*/f64[2,20]{1,0}, f64[2,20]{1,0}, f64[2,20]{1,0}, f64[2,20]{1,0}, f64[2,20]{1,0}, /*index=20*/f64[2,20]{1,0}, f64[2,20]{1,0}, f64[2,20]{1,0}, f64[2,20]{1,0}, (f64[10,2,20]{2,1,0}, f64[10,2,20]{2,1,0}, f64[10,2,20]{2,1,0}, f64[10,2,20]{2,1,0}, f64[10,2,20]{2,1,0}, /*index=5*/f64[10,2,20]{2,1,0}, f64[10,2,20]{2,1,0}, f64[10,2,20]{2,1,0}, f64[10,2,20]{2,1,0}, f64[10,2,20]{2,1,0}, /*index=10*/f64[10,2,20]{2,1,0}, f64[10,2,20]{2,1,0}, f64[10,2,20]{2,1,0}, f64[10,2,20]{2,1,0}, f64[10,2,20]{2,1,0}, /*index=15*/f64[10,2,20]{2,1,0}, f64[10,2,20]{2,1,0}, f64[10,2,20]{2,1,0}, f64[10,2,20]{2,1,0}, f64[10,2,20]{2,1,0}, /*index=20*/f64[10,2,20]{2,1,0}, f64[10,2,20]{2,1,0}, f64[10,2,20]{2,1,0}, f64[10,2,20]{2,1,0}, f64[10,2,20]{2,1,0}, /*index=25*/f64[10,2,20]{2,1,0}, f64[10,2,20]{2,1,0}, f64[10,2,20]{2,1,0}, f64[10,2,20]{2,1,0}, f64[10,2,20]{2,1,0}, /*index=30*/f64[10,2,20]{2,1,0}, f64[10,2,20]{2,1,0}, f64[10,2,20]{2,1,0}, f64[10,2,20]{2,1,0}, f64[10,2,20]{2,1,0}, /*index=35*/f64[10,2,20]{2,1,0}, f64[10,2,20]{2,1,0}, f64[10,2,20]{2,1,0}, f64[10,2,20]{2,1,0}, f64[10,2,20]{2,1,0}, /*index=40*/f64[10,2,20]{2,1,0}, f64[10,2,20]{2,1,0}, f64[10,2,20]{2,1,0}, f64[10,2,20]{2,1,0}, f64[10,2,20]{2,1,0}, /*index=45*/f64[10,2,20]{2,1,0}, f64[10,2,20]{2,1,0}, f64[10,2,20]{2,1,0}, f64[10,2,20]{2,1,0}, f64[10,2,20]{2,1,0}, /*index=50*/f64[10,2,20]{2,1,0}, f64[10,2,20]{2,1,0}, f64[10,2,20]{2,1,0})) tuple(wrapped_copy, wrapped_copy.1, get-tuple-element.17085, get-tuple-element.17086, get-tuple-element.17087, /*index=5*/get-tuple-element.17088, bitcast.20846, bitcast.20847, bitcast.20851, bitcast.20850, /*index=10*/bitcast.20848, bitcast.20849, bitcast.20863, bitcast.20862, bitcast.20861, /*index=15*/bitcast.20860, bitcast.20859, bitcast.20858, bitcast.20857, bitcast.20856, /*index=20*/bitcast.20855, bitcast.20854, bitcast.20852, bitcast.20853, copy_fusion.2)
} // command_buffer

ENTRY main.10354 {
  constant_15_0 = s64[] constant(0)
  Arg_13.14.0 = u32[10,2]{1,0} parameter(13), metadata={op_name="args[13]"}
  Arg_12.13.0 = f64[2,20]{1,0} parameter(12), metadata={op_name="args[12]"}
  Arg_11.12.0 = f64[2,20]{1,0} parameter(11), metadata={op_name="args[11]"}
  Arg_10.11.0 = f64[2,20]{1,0} parameter(10), metadata={op_name="args[10]"}
  Arg_9.10.0 = f64[2,20]{1,0} parameter(9), metadata={op_name="args[9]"}
  Arg_8.9.0 = f64[2,20]{1,0} parameter(8), metadata={op_name="args[8]"}
  Arg_7.8.0 = f64[2,20]{1,0} parameter(7), metadata={op_name="args[7]"}
  Arg_6.7.0 = f64[2]{0} parameter(6), metadata={op_name="args[6]"}
  Arg_5.6.0 = f64[2,20]{1,0} parameter(5), metadata={op_name="args[5]"}
  Arg_4.5.0 = f64[2,20]{1,0} parameter(4), metadata={op_name="args[4]"}
  Arg_3.4.0 = f64[2,20]{1,0} parameter(3), metadata={op_name="args[3]"}
  Arg_2.3.0 = f64[2,20]{1,0} parameter(2), metadata={op_name="args[2]"}
  Arg_1.2.0 = f64[2,20]{1,0} parameter(1), metadata={op_name="args[1]"}
  Arg_0.1.0 = f64[2,20]{1,0} parameter(0), metadata={op_name="args[0]"}
  call.1 = (s64[], f64[2]{0}, pred[10,2]{1,0}, pred[10,2]{1,0}, s64[10,2]{1,0}, /*index=5*/s64[10,2]{1,0}, f64[10,2]{1,0}, f64[10,2,20]{2,1,0}, f64[10,2]{1,0}, f64[10,2]{1,0}, /*index=10*/f64[10,2]{1,0}, f64[10,2]{1,0}, f64[2,20]{1,0}, f64[2,20]{1,0}, f64[2,20]{1,0}, /*index=15*/f64[2,20]{1,0}, f64[2,20]{1,0}, f64[2,20]{1,0}, f64[2,20]{1,0}, f64[2,20]{1,0}, /*index=20*/f64[2,20]{1,0}, f64[2,20]{1,0}, f64[2,20]{1,0}, f64[2,20]{1,0}, (f64[10,2,20]{2,1,0}, f64[10,2,20]{2,1,0}, f64[10,2,20]{2,1,0}, f64[10,2,20]{2,1,0}, f64[10,2,20]{2,1,0}, /*index=5*/f64[10,2,20]{2,1,0}, f64[10,2,20]{2,1,0}, f64[10,2,20]{2,1,0}, f64[10,2,20]{2,1,0}, f64[10,2,20]{2,1,0}, /*index=10*/f64[10,2,20]{2,1,0}, f64[10,2,20]{2,1,0}, f64[10,2,20]{2,1,0}, f64[10,2,20]{2,1,0}, f64[10,2,20]{2,1,0}, /*index=15*/f64[10,2,20]{2,1,0}, f64[10,2,20]{2,1,0}, f64[10,2,20]{2,1,0}, f64[10,2,20]{2,1,0}, f64[10,2,20]{2,1,0}, /*index=20*/f64[10,2,20]{2,1,0}, f64[10,2,20]{2,1,0}, f64[10,2,20]{2,1,0}, f64[10,2,20]{2,1,0}, f64[10,2,20]{2,1,0}, /*index=25*/f64[10,2,20]{2,1,0}, f64[10,2,20]{2,1,0}, f64[10,2,20]{2,1,0}, f64[10,2,20]{2,1,0}, f64[10,2,20]{2,1,0}, /*index=30*/f64[10,2,20]{2,1,0}, f64[10,2,20]{2,1,0}, f64[10,2,20]{2,1,0}, f64[10,2,20]{2,1,0}, f64[10,2,20]{2,1,0}, /*index=35*/f64[10,2,20]{2,1,0}, f64[10,2,20]{2,1,0}, f64[10,2,20]{2,1,0}, f64[10,2,20]{2,1,0}, f64[10,2,20]{2,1,0}, /*index=40*/f64[10,2,20]{2,1,0}, f64[10,2,20]{2,1,0}, f64[10,2,20]{2,1,0}, f64[10,2,20]{2,1,0}, f64[10,2,20]{2,1,0}, /*index=45*/f64[10,2,20]{2,1,0}, f64[10,2,20]{2,1,0}, f64[10,2,20]{2,1,0}, f64[10,2,20]{2,1,0}, f64[10,2,20]{2,1,0}, /*index=50*/f64[10,2,20]{2,1,0}, f64[10,2,20]{2,1,0}, f64[10,2,20]{2,1,0})) call(constant_15_0, Arg_6.7.0, Arg_0.1.0, Arg_1.2.0, Arg_2.3.0, /*index=5*/Arg_3.4.0, Arg_4.5.0, Arg_5.6.0, Arg_7.8.0, Arg_8.9.0, /*index=10*/Arg_9.10.0, Arg_10.11.0, Arg_11.12.0, Arg_12.13.0), to_apply=command_buffer
  get-tuple-element.17180 = s64[] get-tuple-element(call.1), index=0
  get-tuple-element.17181 = f64[2]{0} get-tuple-element(call.1), index=1
  get-tuple-element.17182 = pred[10,2]{1,0} get-tuple-element(call.1), index=2
  get-tuple-element.17183 = pred[10,2]{1,0} get-tuple-element(call.1), index=3
  get-tuple-element.17184 = s64[10,2]{1,0} get-tuple-element(call.1), index=4
  get-tuple-element.17185 = s64[10,2]{1,0} get-tuple-element(call.1), index=5
  get-tuple-element.17186 = f64[10,2]{1,0} get-tuple-element(call.1), index=6
  get-tuple-element.17187 = f64[10,2,20]{2,1,0} get-tuple-element(call.1), index=7
  get-tuple-element.17188 = f64[10,2]{1,0} get-tuple-element(call.1), index=8
  get-tuple-element.17189 = f64[10,2]{1,0} get-tuple-element(call.1), index=9
  get-tuple-element.17190 = f64[10,2]{1,0} get-tuple-element(call.1), index=10
  get-tuple-element.17191 = f64[10,2]{1,0} get-tuple-element(call.1), index=11
  get-tuple-element.17192 = f64[2,20]{1,0} get-tuple-element(call.1), index=12
  get-tuple-element.17193 = f64[2,20]{1,0} get-tuple-element(call.1), index=13
  get-tuple-element.17194 = f64[2,20]{1,0} get-tuple-element(call.1), index=14
  get-tuple-element.17195 = f64[2,20]{1,0} get-tuple-element(call.1), index=15
  get-tuple-element.17196 = f64[2,20]{1,0} get-tuple-element(call.1), index=16
  get-tuple-element.17197 = f64[2,20]{1,0} get-tuple-element(call.1), index=17
  get-tuple-element.17198 = f64[2,20]{1,0} get-tuple-element(call.1), index=18
  get-tuple-element.17199 = f64[2,20]{1,0} get-tuple-element(call.1), index=19
  get-tuple-element.17200 = f64[2,20]{1,0} get-tuple-element(call.1), index=20
  get-tuple-element.17201 = f64[2,20]{1,0} get-tuple-element(call.1), index=21
  get-tuple-element.17202 = f64[2,20]{1,0} get-tuple-element(call.1), index=22
  get-tuple-element.17203 = f64[2,20]{1,0} get-tuple-element(call.1), index=23
  get-tuple-element.17204 = (f64[10,2,20]{2,1,0}, f64[10,2,20]{2,1,0}, f64[10,2,20]{2,1,0}, f64[10,2,20]{2,1,0}, f64[10,2,20]{2,1,0}, /*index=5*/f64[10,2,20]{2,1,0}, f64[10,2,20]{2,1,0}, f64[10,2,20]{2,1,0}, f64[10,2,20]{2,1,0}, f64[10,2,20]{2,1,0}, /*index=10*/f64[10,2,20]{2,1,0}, f64[10,2,20]{2,1,0}, f64[10,2,20]{2,1,0}, f64[10,2,20]{2,1,0}, f64[10,2,20]{2,1,0}, /*index=15*/f64[10,2,20]{2,1,0}, f64[10,2,20]{2,1,0}, f64[10,2,20]{2,1,0}, f64[10,2,20]{2,1,0}, f64[10,2,20]{2,1,0}, /*index=20*/f64[10,2,20]{2,1,0}, f64[10,2,20]{2,1,0}, f64[10,2,20]{2,1,0}, f64[10,2,20]{2,1,0}, f64[10,2,20]{2,1,0}, /*index=25*/f64[10,2,20]{2,1,0}, f64[10,2,20]{2,1,0}, f64[10,2,20]{2,1,0}, f64[10,2,20]{2,1,0}, f64[10,2,20]{2,1,0}, /*index=30*/f64[10,2,20]{2,1,0}, f64[10,2,20]{2,1,0}, f64[10,2,20]{2,1,0}, f64[10,2,20]{2,1,0}, f64[10,2,20]{2,1,0}, /*index=35*/f64[10,2,20]{2,1,0}, f64[10,2,20]{2,1,0}, f64[10,2,20]{2,1,0}, f64[10,2,20]{2,1,0}, f64[10,2,20]{2,1,0}, /*index=40*/f64[10,2,20]{2,1,0}, f64[10,2,20]{2,1,0}, f64[10,2,20]{2,1,0}, f64[10,2,20]{2,1,0}, f64[10,2,20]{2,1,0}, /*index=45*/f64[10,2,20]{2,1,0}, f64[10,2,20]{2,1,0}, f64[10,2,20]{2,1,0}, f64[10,2,20]{2,1,0}, f64[10,2,20]{2,1,0}, /*index=50*/f64[10,2,20]{2,1,0}, f64[10,2,20]{2,1,0}, f64[10,2,20]{2,1,0}) get-tuple-element(call.1), index=24
  get-tuple-element.17157 = f64[10,2,20]{2,1,0} get-tuple-element(get-tuple-element.17204), index=52
  bitcast.20916 = f64[10,2,20]{2,1,0} bitcast(get-tuple-element.17157)
  get-tuple-element.17156 = f64[10,2,20]{2,1,0} get-tuple-element(get-tuple-element.17204), index=51
  bitcast.20915 = f64[10,2,20]{2,1,0} bitcast(get-tuple-element.17156)
  get-tuple-element.17155 = f64[10,2,20]{2,1,0} get-tuple-element(get-tuple-element.17204), index=50
  bitcast.20914 = f64[10,2,20]{2,1,0} bitcast(get-tuple-element.17155)
  get-tuple-element.17154 = f64[10,2,20]{2,1,0} get-tuple-element(get-tuple-element.17204), index=49
  bitcast.20913 = f64[10,2,20]{2,1,0} bitcast(get-tuple-element.17154)
  get-tuple-element.17153 = f64[10,2,20]{2,1,0} get-tuple-element(get-tuple-element.17204), index=48
  bitcast.20912 = f64[10,2,20]{2,1,0} bitcast(get-tuple-element.17153)
  get-tuple-element.17152 = f64[10,2,20]{2,1,0} get-tuple-element(get-tuple-element.17204), index=47
  bitcast.20911 = f64[10,2,20]{2,1,0} bitcast(get-tuple-element.17152)
  get-tuple-element.17151 = f64[10,2,20]{2,1,0} get-tuple-element(get-tuple-element.17204), index=46
  bitcast.20910 = f64[10,2,20]{2,1,0} bitcast(get-tuple-element.17151)
  get-tuple-element.17150 = f64[10,2,20]{2,1,0} get-tuple-element(get-tuple-element.17204), index=45
  bitcast.20909 = f64[10,2,20]{2,1,0} bitcast(get-tuple-element.17150)
  get-tuple-element.17149 = f64[10,2,20]{2,1,0} get-tuple-element(get-tuple-element.17204), index=44
  bitcast.20908 = f64[10,2,20]{2,1,0} bitcast(get-tuple-element.17149)
  get-tuple-element.17148 = f64[10,2,20]{2,1,0} get-tuple-element(get-tuple-element.17204), index=43
  bitcast.20907 = f64[10,2,20]{2,1,0} bitcast(get-tuple-element.17148)
  get-tuple-element.17147 = f64[10,2,20]{2,1,0} get-tuple-element(get-tuple-element.17204), index=42
  bitcast.20906 = f64[10,2,20]{2,1,0} bitcast(get-tuple-element.17147)
  get-tuple-element.17146 = f64[10,2,20]{2,1,0} get-tuple-element(get-tuple-element.17204), index=41
  bitcast.20905 = f64[10,2,20]{2,1,0} bitcast(get-tuple-element.17146)
  get-tuple-element.17145 = f64[10,2,20]{2,1,0} get-tuple-element(get-tuple-element.17204), index=40
  bitcast.20904 = f64[10,2,20]{2,1,0} bitcast(get-tuple-element.17145)
  get-tuple-element.17144 = f64[10,2,20]{2,1,0} get-tuple-element(get-tuple-element.17204), index=39
  bitcast.20903 = f64[10,2,20]{2,1,0} bitcast(get-tuple-element.17144)
  get-tuple-element.17143 = f64[10,2,20]{2,1,0} get-tuple-element(get-tuple-element.17204), index=38
  bitcast.20902 = f64[10,2,20]{2,1,0} bitcast(get-tuple-element.17143)
  get-tuple-element.17142 = f64[10,2,20]{2,1,0} get-tuple-element(get-tuple-element.17204), index=37
  bitcast.20901 = f64[10,2,20]{2,1,0} bitcast(get-tuple-element.17142)
  get-tuple-element.17141 = f64[10,2,20]{2,1,0} get-tuple-element(get-tuple-element.17204), index=36
  bitcast.20900 = f64[10,2,20]{2,1,0} bitcast(get-tuple-element.17141)
  get-tuple-element.17140 = f64[10,2,20]{2,1,0} get-tuple-element(get-tuple-element.17204), index=35
  bitcast.20899 = f64[10,2,20]{2,1,0} bitcast(get-tuple-element.17140)
  get-tuple-element.17139 = f64[10,2,20]{2,1,0} get-tuple-element(get-tuple-element.17204), index=34
  bitcast.20898 = f64[10,2,20]{2,1,0} bitcast(get-tuple-element.17139)
  get-tuple-element.17138 = f64[10,2,20]{2,1,0} get-tuple-element(get-tuple-element.17204), index=33
  bitcast.20897 = f64[10,2,20]{2,1,0} bitcast(get-tuple-element.17138)
  get-tuple-element.17137 = f64[10,2,20]{2,1,0} get-tuple-element(get-tuple-element.17204), index=32
  bitcast.20896 = f64[10,2,20]{2,1,0} bitcast(get-tuple-element.17137)
  get-tuple-element.17136 = f64[10,2,20]{2,1,0} get-tuple-element(get-tuple-element.17204), index=31
  bitcast.20895 = f64[10,2,20]{2,1,0} bitcast(get-tuple-element.17136)
  get-tuple-element.17135 = f64[10,2,20]{2,1,0} get-tuple-element(get-tuple-element.17204), index=30
  bitcast.20894 = f64[10,2,20]{2,1,0} bitcast(get-tuple-element.17135)
  get-tuple-element.17134 = f64[10,2,20]{2,1,0} get-tuple-element(get-tuple-element.17204), index=29
  bitcast.20893 = f64[10,2,20]{2,1,0} bitcast(get-tuple-element.17134)
  get-tuple-element.17133 = f64[10,2,20]{2,1,0} get-tuple-element(get-tuple-element.17204), index=28
  bitcast.20892 = f64[10,2,20]{2,1,0} bitcast(get-tuple-element.17133)
  get-tuple-element.17132 = f64[10,2,20]{2,1,0} get-tuple-element(get-tuple-element.17204), index=27
  bitcast.20891 = f64[10,2,20]{2,1,0} bitcast(get-tuple-element.17132)
  get-tuple-element.17131 = f64[10,2,20]{2,1,0} get-tuple-element(get-tuple-element.17204), index=26
  bitcast.20890 = f64[10,2,20]{2,1,0} bitcast(get-tuple-element.17131)
  get-tuple-element.17130 = f64[10,2,20]{2,1,0} get-tuple-element(get-tuple-element.17204), index=25
  bitcast.20889 = f64[10,2,20]{2,1,0} bitcast(get-tuple-element.17130)
  get-tuple-element.17129 = f64[10,2,20]{2,1,0} get-tuple-element(get-tuple-element.17204), index=24
  bitcast.20888 = f64[10,2,20]{2,1,0} bitcast(get-tuple-element.17129)
  get-tuple-element.17128 = f64[10,2,20]{2,1,0} get-tuple-element(get-tuple-element.17204), index=23
  bitcast.20887 = f64[10,2,20]{2,1,0} bitcast(get-tuple-element.17128)
  get-tuple-element.17127 = f64[10,2,20]{2,1,0} get-tuple-element(get-tuple-element.17204), index=22
  bitcast.20886 = f64[10,2,20]{2,1,0} bitcast(get-tuple-element.17127)
  get-tuple-element.17126 = f64[10,2,20]{2,1,0} get-tuple-element(get-tuple-element.17204), index=21
  bitcast.20885 = f64[10,2,20]{2,1,0} bitcast(get-tuple-element.17126)
  get-tuple-element.17125 = f64[10,2,20]{2,1,0} get-tuple-element(get-tuple-element.17204), index=20
  bitcast.20884 = f64[10,2,20]{2,1,0} bitcast(get-tuple-element.17125)
  get-tuple-element.17124 = f64[10,2,20]{2,1,0} get-tuple-element(get-tuple-element.17204), index=19
  bitcast.20883 = f64[10,2,20]{2,1,0} bitcast(get-tuple-element.17124)
  get-tuple-element.17123 = f64[10,2,20]{2,1,0} get-tuple-element(get-tuple-element.17204), index=18
  bitcast.20882 = f64[10,2,20]{2,1,0} bitcast(get-tuple-element.17123)
  get-tuple-element.17122 = f64[10,2,20]{2,1,0} get-tuple-element(get-tuple-element.17204), index=17
  bitcast.20881 = f64[10,2,20]{2,1,0} bitcast(get-tuple-element.17122)
  get-tuple-element.17121 = f64[10,2,20]{2,1,0} get-tuple-element(get-tuple-element.17204), index=16
  bitcast.20880 = f64[10,2,20]{2,1,0} bitcast(get-tuple-element.17121)
  get-tuple-element.17120 = f64[10,2,20]{2,1,0} get-tuple-element(get-tuple-element.17204), index=15
  bitcast.20879 = f64[10,2,20]{2,1,0} bitcast(get-tuple-element.17120)
  get-tuple-element.17119 = f64[10,2,20]{2,1,0} get-tuple-element(get-tuple-element.17204), index=14
  bitcast.20878 = f64[10,2,20]{2,1,0} bitcast(get-tuple-element.17119)
  get-tuple-element.17118 = f64[10,2,20]{2,1,0} get-tuple-element(get-tuple-element.17204), index=13
  bitcast.20877 = f64[10,2,20]{2,1,0} bitcast(get-tuple-element.17118)
  get-tuple-element.17117 = f64[10,2,20]{2,1,0} get-tuple-element(get-tuple-element.17204), index=12
  bitcast.20876 = f64[10,2,20]{2,1,0} bitcast(get-tuple-element.17117)
  get-tuple-element.17116 = f64[10,2,20]{2,1,0} get-tuple-element(get-tuple-element.17204), index=11
  bitcast.20875 = f64[10,2,20]{2,1,0} bitcast(get-tuple-element.17116)
  get-tuple-element.17115 = f64[10,2,20]{2,1,0} get-tuple-element(get-tuple-element.17204), index=10
  bitcast.20874 = f64[10,2,20]{2,1,0} bitcast(get-tuple-element.17115)
  get-tuple-element.17114 = f64[10,2,20]{2,1,0} get-tuple-element(get-tuple-element.17204), index=9
  bitcast.20873 = f64[10,2,20]{2,1,0} bitcast(get-tuple-element.17114)
  get-tuple-element.17113 = f64[10,2,20]{2,1,0} get-tuple-element(get-tuple-element.17204), index=8
  bitcast.20872 = f64[10,2,20]{2,1,0} bitcast(get-tuple-element.17113)
  get-tuple-element.17112 = f64[10,2,20]{2,1,0} get-tuple-element(get-tuple-element.17204), index=7
  bitcast.20871 = f64[10,2,20]{2,1,0} bitcast(get-tuple-element.17112)
  get-tuple-element.17111 = f64[10,2,20]{2,1,0} get-tuple-element(get-tuple-element.17204), index=6
  bitcast.20870 = f64[10,2,20]{2,1,0} bitcast(get-tuple-element.17111)
  get-tuple-element.17110 = f64[10,2,20]{2,1,0} get-tuple-element(get-tuple-element.17204), index=5
  bitcast.20869 = f64[10,2,20]{2,1,0} bitcast(get-tuple-element.17110)
  get-tuple-element.17109 = f64[10,2,20]{2,1,0} get-tuple-element(get-tuple-element.17204), index=4
  bitcast.20868 = f64[10,2,20]{2,1,0} bitcast(get-tuple-element.17109)
  get-tuple-element.17108 = f64[10,2,20]{2,1,0} get-tuple-element(get-tuple-element.17204), index=3
  bitcast.20867 = f64[10,2,20]{2,1,0} bitcast(get-tuple-element.17108)
  get-tuple-element.17107 = f64[10,2,20]{2,1,0} get-tuple-element(get-tuple-element.17204), index=2
  bitcast.20866 = f64[10,2,20]{2,1,0} bitcast(get-tuple-element.17107)
  get-tuple-element.17106 = f64[10,2,20]{2,1,0} get-tuple-element(get-tuple-element.17204), index=1
  get-tuple-element.17105 = f64[10,2,20]{2,1,0} get-tuple-element(get-tuple-element.17204), index=0
  bitcast.20864 = f64[10,2,20]{2,1,0} bitcast(get-tuple-element.17105)
  bitcast.20865 = f64[10,2,20]{2,1,0} bitcast(get-tuple-element.17106)
  tuple.756 = (s64[], f64[2,20]{1,0}, f64[2,20]{1,0}, f64[2,20]{1,0}, f64[2,20]{1,0}, /*index=5*/f64[2,20]{1,0}, f64[2,20]{1,0}, f64[2]{0}, f64[2,20]{1,0}, f64[2,20]{1,0}, /*index=10*/f64[2,20]{1,0}, f64[2,20]{1,0}, f64[2,20]{1,0}, f64[2,20]{1,0}, f64[10,2,20]{2,1,0}, /*index=15*/f64[10,2,20]{2,1,0}, f64[10,2,20]{2,1,0}, f64[10,2,20]{2,1,0}, f64[10,2,20]{2,1,0}, f64[10,2,20]{2,1,0}, /*index=20*/f64[10,2]{1,0}, f64[10,2,20]{2,1,0}, f64[10,2,20]{2,1,0}, f64[10,2,20]{2,1,0}, f64[10,2,20]{2,1,0}, /*index=25*/f64[10,2,20]{2,1,0}, f64[10,2,20]{2,1,0}, f64[10,2,20]{2,1,0}, f64[10,2,20]{2,1,0}, f64[10,2,20]{2,1,0}, /*index=30*/f64[10,2,20]{2,1,0}, f64[10,2,20]{2,1,0}, f64[10,2,20]{2,1,0}, pred[10,2]{1,0}, pred[10,2]{1,0}, /*index=35*/f64[10,2]{1,0}, f64[10,2,20]{2,1,0}, f64[10,2,20]{2,1,0}, f64[10,2,20]{2,1,0}, f64[10,2,20]{2,1,0}, /*index=40*/f64[10,2,20]{2,1,0}, f64[10,2,20]{2,1,0}, f64[10,2,20]{2,1,0}, f64[10,2,20]{2,1,0}, f64[10,2,20]{2,1,0}, /*index=45*/f64[10,2,20]{2,1,0}, f64[10,2,20]{2,1,0}, f64[10,2,20]{2,1,0}, f64[10,2]{1,0}, f64[10,2,20]{2,1,0}, /*index=50*/f64[10,2,20]{2,1,0}, f64[10,2,20]{2,1,0}, f64[10,2,20]{2,1,0}, f64[10,2,20]{2,1,0}, f64[10,2,20]{2,1,0}, /*index=55*/f64[10,2,20]{2,1,0}, f64[10,2,20]{2,1,0}, f64[10,2,20]{2,1,0}, f64[10,2,20]{2,1,0}, f64[10,2,20]{2,1,0}, /*index=60*/f64[10,2,20]{2,1,0}, f64[10,2,20]{2,1,0}, f64[10,2,20]{2,1,0}, f64[10,2,20]{2,1,0}, f64[10,2,20]{2,1,0}, /*index=65*/f64[10,2,20]{2,1,0}, f64[10,2,20]{2,1,0}, f64[10,2]{1,0}, f64[10,2,20]{2,1,0}, f64[10,2,20]{2,1,0}, /*index=70*/f64[10,2,20]{2,1,0}, f64[10,2,20]{2,1,0}, f64[10,2,20]{2,1,0}, f64[10,2,20]{2,1,0}, s64[10,2]{1,0}, /*index=75*/s64[10,2]{1,0}, f64[10,2]{1,0}, u32[10,2]{1,0}) tuple(get-tuple-element.17180, get-tuple-element.17202, get-tuple-element.17203, get-tuple-element.17201, get-tuple-element.17200, /*index=5*/get-tuple-element.17199, get-tuple-element.17198, get-tuple-element.17181, get-tuple-element.17197, get-tuple-element.17196, /*index=10*/get-tuple-element.17195, get-tuple-element.17194, get-tuple-element.17193, get-tuple-element.17192, get-tuple-element.17187, /*index=15*/bitcast.20864, bitcast.20865, bitcast.20866, bitcast.20867, bitcast.20868, /*index=20*/get-tuple-element.17186, bitcast.20869, bitcast.20870, bitcast.20871, bitcast.20872, /*index=25*/bitcast.20873, bitcast.20874, bitcast.20875, bitcast.20876, bitcast.20877, /*index=30*/bitcast.20878, bitcast.20879, bitcast.20880, get-tuple-element.17182, get-tuple-element.17183, /*index=35*/get-tuple-element.17190, bitcast.20881, bitcast.20882, bitcast.20883, bitcast.20884, /*index=40*/bitcast.20885, bitcast.20886, bitcast.20887, bitcast.20888, bitcast.20889, /*index=45*/bitcast.20890, bitcast.20891, bitcast.20892, get-tuple-element.17191, bitcast.20893, /*index=50*/bitcast.20894, bitcast.20895, bitcast.20896, bitcast.20897, bitcast.20898, /*index=55*/bitcast.20899, bitcast.20900, bitcast.20901, bitcast.20902, bitcast.20903, /*index=60*/bitcast.20904, bitcast.20905, bitcast.20906, bitcast.20907, bitcast.20908, /*index=65*/bitcast.20909, bitcast.20910, get-tuple-element.17189, bitcast.20911, bitcast.20912, /*index=70*/bitcast.20913, bitcast.20914, bitcast.20915, bitcast.20916, get-tuple-element.17184, /*index=75*/get-tuple-element.17185, get-tuple-element.17188, Arg_13.14.0)
  while.10274.0 = (s64[], f64[2,20]{1,0}, f64[2,20]{1,0}, f64[2,20]{1,0}, f64[2,20]{1,0}, /*index=5*/f64[2,20]{1,0}, f64[2,20]{1,0}, f64[2]{0}, f64[2,20]{1,0}, f64[2,20]{1,0}, /*index=10*/f64[2,20]{1,0}, f64[2,20]{1,0}, f64[2,20]{1,0}, f64[2,20]{1,0}, f64[10,2,20]{2,1,0}, /*index=15*/f64[10,2,20]{2,1,0}, f64[10,2,20]{2,1,0}, f64[10,2,20]{2,1,0}, f64[10,2,20]{2,1,0}, f64[10,2,20]{2,1,0}, /*index=20*/f64[10,2]{1,0}, f64[10,2,20]{2,1,0}, f64[10,2,20]{2,1,0}, f64[10,2,20]{2,1,0}, f64[10,2,20]{2,1,0}, /*index=25*/f64[10,2,20]{2,1,0}, f64[10,2,20]{2,1,0}, f64[10,2,20]{2,1,0}, f64[10,2,20]{2,1,0}, f64[10,2,20]{2,1,0}, /*index=30*/f64[10,2,20]{2,1,0}, f64[10,2,20]{2,1,0}, f64[10,2,20]{2,1,0}, pred[10,2]{1,0}, pred[10,2]{1,0}, /*index=35*/f64[10,2]{1,0}, f64[10,2,20]{2,1,0}, f64[10,2,20]{2,1,0}, f64[10,2,20]{2,1,0}, f64[10,2,20]{2,1,0}, /*index=40*/f64[10,2,20]{2,1,0}, f64[10,2,20]{2,1,0}, f64[10,2,20]{2,1,0}, f64[10,2,20]{2,1,0}, f64[10,2,20]{2,1,0}, /*index=45*/f64[10,2,20]{2,1,0}, f64[10,2,20]{2,1,0}, f64[10,2,20]{2,1,0}, f64[10,2]{1,0}, f64[10,2,20]{2,1,0}, /*index=50*/f64[10,2,20]{2,1,0}, f64[10,2,20]{2,1,0}, f64[10,2,20]{2,1,0}, f64[10,2,20]{2,1,0}, f64[10,2,20]{2,1,0}, /*index=55*/f64[10,2,20]{2,1,0}, f64[10,2,20]{2,1,0}, f64[10,2,20]{2,1,0}, f64[10,2,20]{2,1,0}, f64[10,2,20]{2,1,0}, /*index=60*/f64[10,2,20]{2,1,0}, f64[10,2,20]{2,1,0}, f64[10,2,20]{2,1,0}, f64[10,2,20]{2,1,0}, f64[10,2,20]{2,1,0}, /*index=65*/f64[10,2,20]{2,1,0}, f64[10,2,20]{2,1,0}, f64[10,2]{1,0}, f64[10,2,20]{2,1,0}, f64[10,2,20]{2,1,0}, /*index=70*/f64[10,2,20]{2,1,0}, f64[10,2,20]{2,1,0}, f64[10,2,20]{2,1,0}, f64[10,2,20]{2,1,0}, s64[10,2]{1,0}, /*index=75*/s64[10,2]{1,0}, f64[10,2]{1,0}, u32[10,2]{1,0}) while(tuple.756), condition=region_42.10192, body=region_0.9710, metadata={op_name="jit(scan)/jit(main)/while[cond_nconsts=0 body_nconsts=1]" source_file="/fs04/fc37/adam/projects/psilocybin-prl-analyses/src/prl_hgf/fitting/hierarchical.py" source_line=1153}, backend_config={"known_trip_count":{"n":"10"}}
  get-tuple-element.10349.0 = s64[10,2]{1,0} get-tuple-element(while.10274.0), index=74, metadata={op_name="jit(scan)/jit(main)/while[cond_nconsts=0 body_nconsts=1]" source_file="/fs04/fc37/adam/projects/psilocybin-prl-analyses/src/prl_hgf/fitting/hierarchical.py" source_line=1153}
  get-tuple-element.10348.0 = f64[10,2,20]{2,1,0} get-tuple-element(while.10274.0), index=73, metadata={op_name="jit(scan)/jit(main)/while[cond_nconsts=0 body_nconsts=1]" source_file="/fs04/fc37/adam/projects/psilocybin-prl-analyses/src/prl_hgf/fitting/hierarchical.py" source_line=1153}
  get-tuple-element.10347.0 = f64[10,2,20]{2,1,0} get-tuple-element(while.10274.0), index=72, metadata={op_name="jit(scan)/jit(main)/while[cond_nconsts=0 body_nconsts=1]" source_file="/fs04/fc37/adam/projects/psilocybin-prl-analyses/src/prl_hgf/fitting/hierarchical.py" source_line=1153}
  get-tuple-element.10346.0 = f64[10,2,20]{2,1,0} get-tuple-element(while.10274.0), index=71, metadata={op_name="jit(scan)/jit(main)/while[cond_nconsts=0 body_nconsts=1]" source_file="/fs04/fc37/adam/projects/psilocybin-prl-analyses/src/prl_hgf/fitting/hierarchical.py" source_line=1153}
  get-tuple-element.10345.0 = f64[10,2,20]{2,1,0} get-tuple-element(while.10274.0), index=70, metadata={op_name="jit(scan)/jit(main)/while[cond_nconsts=0 body_nconsts=1]" source_file="/fs04/fc37/adam/projects/psilocybin-prl-analyses/src/prl_hgf/fitting/hierarchical.py" source_line=1153}
  get-tuple-element.10344.0 = f64[10,2,20]{2,1,0} get-tuple-element(while.10274.0), index=69, metadata={op_name="jit(scan)/jit(main)/while[cond_nconsts=0 body_nconsts=1]" source_file="/fs04/fc37/adam/projects/psilocybin-prl-analyses/src/prl_hgf/fitting/hierarchical.py" source_line=1153}
  get-tuple-element.10343.0 = f64[10,2,20]{2,1,0} get-tuple-element(while.10274.0), index=68, metadata={op_name="jit(scan)/jit(main)/while[cond_nconsts=0 body_nconsts=1]" source_file="/fs04/fc37/adam/projects/psilocybin-prl-analyses/src/prl_hgf/fitting/hierarchical.py" source_line=1153}
  get-tuple-element.10342.0 = f64[10,2]{1,0} get-tuple-element(while.10274.0), index=67, metadata={op_name="jit(scan)/jit(main)/while[cond_nconsts=0 body_nconsts=1]" source_file="/fs04/fc37/adam/projects/psilocybin-prl-analyses/src/prl_hgf/fitting/hierarchical.py" source_line=1153}
  get-tuple-element.10341.0 = f64[10,2,20]{2,1,0} get-tuple-element(while.10274.0), index=66, metadata={op_name="jit(scan)/jit(main)/while[cond_nconsts=0 body_nconsts=1]" source_file="/fs04/fc37/adam/projects/psilocybin-prl-analyses/src/prl_hgf/fitting/hierarchical.py" source_line=1153}
  get-tuple-element.10340.0 = f64[10,2,20]{2,1,0} get-tuple-element(while.10274.0), index=65, metadata={op_name="jit(scan)/jit(main)/while[cond_nconsts=0 body_nconsts=1]" source_file="/fs04/fc37/adam/projects/psilocybin-prl-analyses/src/prl_hgf/fitting/hierarchical.py" source_line=1153}
  get-tuple-element.10339.0 = f64[10,2,20]{2,1,0} get-tuple-element(while.10274.0), index=64, metadata={op_name="jit(scan)/jit(main)/while[cond_nconsts=0 body_nconsts=1]" source_file="/fs04/fc37/adam/projects/psilocybin-prl-analyses/src/prl_hgf/fitting/hierarchical.py" source_line=1153}
  get-tuple-element.10338.0 = f64[10,2,20]{2,1,0} get-tuple-element(while.10274.0), index=63, metadata={op_name="jit(scan)/jit(main)/while[cond_nconsts=0 body_nconsts=1]" source_file="/fs04/fc37/adam/projects/psilocybin-prl-analyses/src/prl_hgf/fitting/hierarchical.py" source_line=1153}
  get-tuple-element.10337.0 = f64[10,2,20]{2,1,0} get-tuple-element(while.10274.0), index=62, metadata={op_name="jit(scan)/jit(main)/while[cond_nconsts=0 body_nconsts=1]" source_file="/fs04/fc37/adam/projects/psilocybin-prl-analyses/src/prl_hgf/fitting/hierarchical.py" source_line=1153}
  get-tuple-element.10336.0 = f64[10,2,20]{2,1,0} get-tuple-element(while.10274.0), index=61, metadata={op_name="jit(scan)/jit(main)/while[cond_nconsts=0 body_nconsts=1]" source_file="/fs04/fc37/adam/projects/psilocybin-prl-analyses/src/prl_hgf/fitting/hierarchical.py" source_line=1153}
  get-tuple-element.10335.0 = f64[10,2,20]{2,1,0} get-tuple-element(while.10274.0), index=60, metadata={op_name="jit(scan)/jit(main)/while[cond_nconsts=0 body_nconsts=1]" source_file="/fs04/fc37/adam/projects/psilocybin-prl-analyses/src/prl_hgf/fitting/hierarchical.py" source_line=1153}
  get-tuple-element.10334.0 = f64[10,2,20]{2,1,0} get-tuple-element(while.10274.0), index=59, metadata={op_name="jit(scan)/jit(main)/while[cond_nconsts=0 body_nconsts=1]" source_file="/fs04/fc37/adam/projects/psilocybin-prl-analyses/src/prl_hgf/fitting/hierarchical.py" source_line=1153}
  get-tuple-element.10333.0 = f64[10,2,20]{2,1,0} get-tuple-element(while.10274.0), index=58, metadata={op_name="jit(scan)/jit(main)/while[cond_nconsts=0 body_nconsts=1]" source_file="/fs04/fc37/adam/projects/psilocybin-prl-analyses/src/prl_hgf/fitting/hierarchical.py" source_line=1153}
  get-tuple-element.10332.0 = f64[10,2,20]{2,1,0} get-tuple-element(while.10274.0), index=57, metadata={op_name="jit(scan)/jit(main)/while[cond_nconsts=0 body_nconsts=1]" source_file="/fs04/fc37/adam/projects/psilocybin-prl-analyses/src/prl_hgf/fitting/hierarchical.py" source_line=1153}
  get-tuple-element.10331.0 = f64[10,2,20]{2,1,0} get-tuple-element(while.10274.0), index=56, metadata={op_name="jit(scan)/jit(main)/while[cond_nconsts=0 body_nconsts=1]" source_file="/fs04/fc37/adam/projects/psilocybin-prl-analyses/src/prl_hgf/fitting/hierarchical.py" source_line=1153}
  get-tuple-element.10330.0 = f64[10,2,20]{2,1,0} get-tuple-element(while.10274.0), index=55, metadata={op_name="jit(scan)/jit(main)/while[cond_nconsts=0 body_nconsts=1]" source_file="/fs04/fc37/adam/projects/psilocybin-prl-analyses/src/prl_hgf/fitting/hierarchical.py" source_line=1153}
  get-tuple-element.10329.0 = f64[10,2,20]{2,1,0} get-tuple-element(while.10274.0), index=54, metadata={op_name="jit(scan)/jit(main)/while[cond_nconsts=0 body_nconsts=1]" source_file="/fs04/fc37/adam/projects/psilocybin-prl-analyses/src/prl_hgf/fitting/hierarchical.py" source_line=1153}
  get-tuple-element.10328.0 = f64[10,2,20]{2,1,0} get-tuple-element(while.10274.0), index=53, metadata={op_name="jit(scan)/jit(main)/while[cond_nconsts=0 body_nconsts=1]" source_file="/fs04/fc37/adam/projects/psilocybin-prl-analyses/src/prl_hgf/fitting/hierarchical.py" source_line=1153}
  get-tuple-element.10327.0 = f64[10,2,20]{2,1,0} get-tuple-element(while.10274.0), index=52, metadata={op_name="jit(scan)/jit(main)/while[cond_nconsts=0 body_nconsts=1]" source_file="/fs04/fc37/adam/projects/psilocybin-prl-analyses/src/prl_hgf/fitting/hierarchical.py" source_line=1153}
  get-tuple-element.10326.0 = f64[10,2,20]{2,1,0} get-tuple-element(while.10274.0), index=51, metadata={op_name="jit(scan)/jit(main)/while[cond_nconsts=0 body_nconsts=1]" source_file="/fs04/fc37/adam/projects/psilocybin-prl-analyses/src/prl_hgf/fitting/hierarchical.py" source_line=1153}
  get-tuple-element.10325.0 = f64[10,2,20]{2,1,0} get-tuple-element(while.10274.0), index=50, metadata={op_name="jit(scan)/jit(main)/while[cond_nconsts=0 body_nconsts=1]" source_file="/fs04/fc37/adam/projects/psilocybin-prl-analyses/src/prl_hgf/fitting/hierarchical.py" source_line=1153}
  get-tuple-element.10324.0 = f64[10,2,20]{2,1,0} get-tuple-element(while.10274.0), index=49, metadata={op_name="jit(scan)/jit(main)/while[cond_nconsts=0 body_nconsts=1]" source_file="/fs04/fc37/adam/projects/psilocybin-prl-analyses/src/prl_hgf/fitting/hierarchical.py" source_line=1153}
  get-tuple-element.10323.0 = f64[10,2]{1,0} get-tuple-element(while.10274.0), index=48, metadata={op_name="jit(scan)/jit(main)/while[cond_nconsts=0 body_nconsts=1]" source_file="/fs04/fc37/adam/projects/psilocybin-prl-analyses/src/prl_hgf/fitting/hierarchical.py" source_line=1153}
  get-tuple-element.10322.0 = f64[10,2,20]{2,1,0} get-tuple-element(while.10274.0), index=47, metadata={op_name="jit(scan)/jit(main)/while[cond_nconsts=0 body_nconsts=1]" source_file="/fs04/fc37/adam/projects/psilocybin-prl-analyses/src/prl_hgf/fitting/hierarchical.py" source_line=1153}
  get-tuple-element.10321.0 = f64[10,2,20]{2,1,0} get-tuple-element(while.10274.0), index=46, metadata={op_name="jit(scan)/jit(main)/while[cond_nconsts=0 body_nconsts=1]" source_file="/fs04/fc37/adam/projects/psilocybin-prl-analyses/src/prl_hgf/fitting/hierarchical.py" source_line=1153}
  get-tuple-element.10320.0 = f64[10,2,20]{2,1,0} get-tuple-element(while.10274.0), index=45, metadata={op_name="jit(scan)/jit(main)/while[cond_nconsts=0 body_nconsts=1]" source_file="/fs04/fc37/adam/projects/psilocybin-prl-analyses/src/prl_hgf/fitting/hierarchical.py" source_line=1153}
  get-tuple-element.10319.0 = f64[10,2,20]{2,1,0} get-tuple-element(while.10274.0), index=44, metadata={op_name="jit(scan)/jit(main)/while[cond_nconsts=0 body_nconsts=1]" source_file="/fs04/fc37/adam/projects/psilocybin-prl-analyses/src/prl_hgf/fitting/hierarchical.py" source_line=1153}
  get-tuple-element.10318.0 = f64[10,2,20]{2,1,0} get-tuple-element(while.10274.0), index=43, metadata={op_name="jit(scan)/jit(main)/while[cond_nconsts=0 body_nconsts=1]" source_file="/fs04/fc37/adam/projects/psilocybin-prl-analyses/src/prl_hgf/fitting/hierarchical.py" source_line=1153}
  get-tuple-element.10317.0 = f64[10,2,20]{2,1,0} get-tuple-element(while.10274.0), index=42, metadata={op_name="jit(scan)/jit(main)/while[cond_nconsts=0 body_nconsts=1]" source_file="/fs04/fc37/adam/projects/psilocybin-prl-analyses/src/prl_hgf/fitting/hierarchical.py" source_line=1153}
  get-tuple-element.10316.0 = f64[10,2,20]{2,1,0} get-tuple-element(while.10274.0), index=41, metadata={op_name="jit(scan)/jit(main)/while[cond_nconsts=0 body_nconsts=1]" source_file="/fs04/fc37/adam/projects/psilocybin-prl-analyses/src/prl_hgf/fitting/hierarchical.py" source_line=1153}
  get-tuple-element.10315.0 = f64[10,2,20]{2,1,0} get-tuple-element(while.10274.0), index=40, metadata={op_name="jit(scan)/jit(main)/while[cond_nconsts=0 body_nconsts=1]" source_file="/fs04/fc37/adam/projects/psilocybin-prl-analyses/src/prl_hgf/fitting/hierarchical.py" source_line=1153}
  get-tuple-element.10314.0 = f64[10,2,20]{2,1,0} get-tuple-element(while.10274.0), index=39, metadata={op_name="jit(scan)/jit(main)/while[cond_nconsts=0 body_nconsts=1]" source_file="/fs04/fc37/adam/projects/psilocybin-prl-analyses/src/prl_hgf/fitting/hierarchical.py" source_line=1153}
  get-tuple-element.10313.0 = f64[10,2,20]{2,1,0} get-tuple-element(while.10274.0), index=38, metadata={op_name="jit(scan)/jit(main)/while[cond_nconsts=0 body_nconsts=1]" source_file="/fs04/fc37/adam/projects/psilocybin-prl-analyses/src/prl_hgf/fitting/hierarchical.py" source_line=1153}
  get-tuple-element.10312.0 = f64[10,2,20]{2,1,0} get-tuple-element(while.10274.0), index=37, metadata={op_name="jit(scan)/jit(main)/while[cond_nconsts=0 body_nconsts=1]" source_file="/fs04/fc37/adam/projects/psilocybin-prl-analyses/src/prl_hgf/fitting/hierarchical.py" source_line=1153}
  get-tuple-element.10311.0 = f64[10,2,20]{2,1,0} get-tuple-element(while.10274.0), index=36, metadata={op_name="jit(scan)/jit(main)/while[cond_nconsts=0 body_nconsts=1]" source_file="/fs04/fc37/adam/projects/psilocybin-prl-analyses/src/prl_hgf/fitting/hierarchical.py" source_line=1153}
  get-tuple-element.10310.0 = f64[10,2]{1,0} get-tuple-element(while.10274.0), index=35, metadata={op_name="jit(scan)/jit(main)/while[cond_nconsts=0 body_nconsts=1]" source_file="/fs04/fc37/adam/projects/psilocybin-prl-analyses/src/prl_hgf/fitting/hierarchical.py" source_line=1153}
  get-tuple-element.10309.0 = pred[10,2]{1,0} get-tuple-element(while.10274.0), index=34, metadata={op_name="jit(scan)/jit(main)/while[cond_nconsts=0 body_nconsts=1]" source_file="/fs04/fc37/adam/projects/psilocybin-prl-analyses/src/prl_hgf/fitting/hierarchical.py" source_line=1153}
  get-tuple-element.10308.0 = pred[10,2]{1,0} get-tuple-element(while.10274.0), index=33, metadata={op_name="jit(scan)/jit(main)/while[cond_nconsts=0 body_nconsts=1]" source_file="/fs04/fc37/adam/projects/psilocybin-prl-analyses/src/prl_hgf/fitting/hierarchical.py" source_line=1153}
  get-tuple-element.10307.0 = f64[10,2,20]{2,1,0} get-tuple-element(while.10274.0), index=32, metadata={op_name="jit(scan)/jit(main)/while[cond_nconsts=0 body_nconsts=1]" source_file="/fs04/fc37/adam/projects/psilocybin-prl-analyses/src/prl_hgf/fitting/hierarchical.py" source_line=1153}
  get-tuple-element.10306.0 = f64[10,2,20]{2,1,0} get-tuple-element(while.10274.0), index=31, metadata={op_name="jit(scan)/jit(main)/while[cond_nconsts=0 body_nconsts=1]" source_file="/fs04/fc37/adam/projects/psilocybin-prl-analyses/src/prl_hgf/fitting/hierarchical.py" source_line=1153}
  get-tuple-element.10305.0 = f64[10,2,20]{2,1,0} get-tuple-element(while.10274.0), index=30, metadata={op_name="jit(scan)/jit(main)/while[cond_nconsts=0 body_nconsts=1]" source_file="/fs04/fc37/adam/projects/psilocybin-prl-analyses/src/prl_hgf/fitting/hierarchical.py" source_line=1153}
  get-tuple-element.10304.0 = f64[10,2,20]{2,1,0} get-tuple-element(while.10274.0), index=29, metadata={op_name="jit(scan)/jit(main)/while[cond_nconsts=0 body_nconsts=1]" source_file="/fs04/fc37/adam/projects/psilocybin-prl-analyses/src/prl_hgf/fitting/hierarchical.py" source_line=1153}
  get-tuple-element.10303.0 = f64[10,2,20]{2,1,0} get-tuple-element(while.10274.0), index=28, metadata={op_name="jit(scan)/jit(main)/while[cond_nconsts=0 body_nconsts=1]" source_file="/fs04/fc37/adam/projects/psilocybin-prl-analyses/src/prl_hgf/fitting/hierarchical.py" source_line=1153}
  get-tuple-element.10302.0 = f64[10,2,20]{2,1,0} get-tuple-element(while.10274.0), index=27, metadata={op_name="jit(scan)/jit(main)/while[cond_nconsts=0 body_nconsts=1]" source_file="/fs04/fc37/adam/projects/psilocybin-prl-analyses/src/prl_hgf/fitting/hierarchical.py" source_line=1153}
  get-tuple-element.10301.0 = f64[10,2,20]{2,1,0} get-tuple-element(while.10274.0), index=26, metadata={op_name="jit(scan)/jit(main)/while[cond_nconsts=0 body_nconsts=1]" source_file="/fs04/fc37/adam/projects/psilocybin-prl-analyses/src/prl_hgf/fitting/hierarchical.py" source_line=1153}
  get-tuple-element.10300.0 = f64[10,2,20]{2,1,0} get-tuple-element(while.10274.0), index=25, metadata={op_name="jit(scan)/jit(main)/while[cond_nconsts=0 body_nconsts=1]" source_file="/fs04/fc37/adam/projects/psilocybin-prl-analyses/src/prl_hgf/fitting/hierarchical.py" source_line=1153}
  get-tuple-element.10299.0 = f64[10,2,20]{2,1,0} get-tuple-element(while.10274.0), index=24, metadata={op_name="jit(scan)/jit(main)/while[cond_nconsts=0 body_nconsts=1]" source_file="/fs04/fc37/adam/projects/psilocybin-prl-analyses/src/prl_hgf/fitting/hierarchical.py" source_line=1153}
  get-tuple-element.10298.0 = f64[10,2,20]{2,1,0} get-tuple-element(while.10274.0), index=23, metadata={op_name="jit(scan)/jit(main)/while[cond_nconsts=0 body_nconsts=1]" source_file="/fs04/fc37/adam/projects/psilocybin-prl-analyses/src/prl_hgf/fitting/hierarchical.py" source_line=1153}
  get-tuple-element.10297.0 = f64[10,2,20]{2,1,0} get-tuple-element(while.10274.0), index=22, metadata={op_name="jit(scan)/jit(main)/while[cond_nconsts=0 body_nconsts=1]" source_file="/fs04/fc37/adam/projects/psilocybin-prl-analyses/src/prl_hgf/fitting/hierarchical.py" source_line=1153}
  get-tuple-element.10296.0 = f64[10,2,20]{2,1,0} get-tuple-element(while.10274.0), index=21, metadata={op_name="jit(scan)/jit(main)/while[cond_nconsts=0 body_nconsts=1]" source_file="/fs04/fc37/adam/projects/psilocybin-prl-analyses/src/prl_hgf/fitting/hierarchical.py" source_line=1153}
  get-tuple-element.10295.0 = f64[10,2]{1,0} get-tuple-element(while.10274.0), index=20, metadata={op_name="jit(scan)/jit(main)/while[cond_nconsts=0 body_nconsts=1]" source_file="/fs04/fc37/adam/projects/psilocybin-prl-analyses/src/prl_hgf/fitting/hierarchical.py" source_line=1153}
  get-tuple-element.10294.0 = f64[10,2,20]{2,1,0} get-tuple-element(while.10274.0), index=19, metadata={op_name="jit(scan)/jit(main)/while[cond_nconsts=0 body_nconsts=1]" source_file="/fs04/fc37/adam/projects/psilocybin-prl-analyses/src/prl_hgf/fitting/hierarchical.py" source_line=1153}
  get-tuple-element.10293.0 = f64[10,2,20]{2,1,0} get-tuple-element(while.10274.0), index=18, metadata={op_name="jit(scan)/jit(main)/while[cond_nconsts=0 body_nconsts=1]" source_file="/fs04/fc37/adam/projects/psilocybin-prl-analyses/src/prl_hgf/fitting/hierarchical.py" source_line=1153}
  get-tuple-element.10292.0 = f64[10,2,20]{2,1,0} get-tuple-element(while.10274.0), index=17, metadata={op_name="jit(scan)/jit(main)/while[cond_nconsts=0 body_nconsts=1]" source_file="/fs04/fc37/adam/projects/psilocybin-prl-analyses/src/prl_hgf/fitting/hierarchical.py" source_line=1153}
  get-tuple-element.10291.0 = f64[10,2,20]{2,1,0} get-tuple-element(while.10274.0), index=16, metadata={op_name="jit(scan)/jit(main)/while[cond_nconsts=0 body_nconsts=1]" source_file="/fs04/fc37/adam/projects/psilocybin-prl-analyses/src/prl_hgf/fitting/hierarchical.py" source_line=1153}
  get-tuple-element.10290.0 = f64[10,2,20]{2,1,0} get-tuple-element(while.10274.0), index=15, metadata={op_name="jit(scan)/jit(main)/while[cond_nconsts=0 body_nconsts=1]" source_file="/fs04/fc37/adam/projects/psilocybin-prl-analyses/src/prl_hgf/fitting/hierarchical.py" source_line=1153}
  get-tuple-element.10289.0 = f64[10,2,20]{2,1,0} get-tuple-element(while.10274.0), index=14, metadata={op_name="jit(scan)/jit(main)/while[cond_nconsts=0 body_nconsts=1]" source_file="/fs04/fc37/adam/projects/psilocybin-prl-analyses/src/prl_hgf/fitting/hierarchical.py" source_line=1153}
  get-tuple-element.10288.0 = f64[2,20]{1,0} get-tuple-element(while.10274.0), index=13, metadata={op_name="jit(scan)/jit(main)/while[cond_nconsts=0 body_nconsts=1]" source_file="/fs04/fc37/adam/projects/psilocybin-prl-analyses/src/prl_hgf/fitting/hierarchical.py" source_line=1153}
  get-tuple-element.10287.0 = f64[2,20]{1,0} get-tuple-element(while.10274.0), index=12, metadata={op_name="jit(scan)/jit(main)/while[cond_nconsts=0 body_nconsts=1]" source_file="/fs04/fc37/adam/projects/psilocybin-prl-analyses/src/prl_hgf/fitting/hierarchical.py" source_line=1153}
  get-tuple-element.10286.0 = f64[2,20]{1,0} get-tuple-element(while.10274.0), index=11, metadata={op_name="jit(scan)/jit(main)/while[cond_nconsts=0 body_nconsts=1]" source_file="/fs04/fc37/adam/projects/psilocybin-prl-analyses/src/prl_hgf/fitting/hierarchical.py" source_line=1153}
  get-tuple-element.10285.0 = f64[2,20]{1,0} get-tuple-element(while.10274.0), index=10, metadata={op_name="jit(scan)/jit(main)/while[cond_nconsts=0 body_nconsts=1]" source_file="/fs04/fc37/adam/projects/psilocybin-prl-analyses/src/prl_hgf/fitting/hierarchical.py" source_line=1153}
  get-tuple-element.10284.0 = f64[2,20]{1,0} get-tuple-element(while.10274.0), index=9, metadata={op_name="jit(scan)/jit(main)/while[cond_nconsts=0 body_nconsts=1]" source_file="/fs04/fc37/adam/projects/psilocybin-prl-analyses/src/prl_hgf/fitting/hierarchical.py" source_line=1153}
  get-tuple-element.10283.0 = f64[2,20]{1,0} get-tuple-element(while.10274.0), index=8, metadata={op_name="jit(scan)/jit(main)/while[cond_nconsts=0 body_nconsts=1]" source_file="/fs04/fc37/adam/projects/psilocybin-prl-analyses/src/prl_hgf/fitting/hierarchical.py" source_line=1153}
  get-tuple-element.10282.0 = f64[2]{0} get-tuple-element(while.10274.0), index=7, metadata={op_name="jit(scan)/jit(main)/while[cond_nconsts=0 body_nconsts=1]" source_file="/fs04/fc37/adam/projects/psilocybin-prl-analyses/src/prl_hgf/fitting/hierarchical.py" source_line=1153}
  get-tuple-element.10281.0 = f64[2,20]{1,0} get-tuple-element(while.10274.0), index=6, metadata={op_name="jit(scan)/jit(main)/while[cond_nconsts=0 body_nconsts=1]" source_file="/fs04/fc37/adam/projects/psilocybin-prl-analyses/src/prl_hgf/fitting/hierarchical.py" source_line=1153}
  get-tuple-element.10280.0 = f64[2,20]{1,0} get-tuple-element(while.10274.0), index=5, metadata={op_name="jit(scan)/jit(main)/while[cond_nconsts=0 body_nconsts=1]" source_file="/fs04/fc37/adam/projects/psilocybin-prl-analyses/src/prl_hgf/fitting/hierarchical.py" source_line=1153}
  get-tuple-element.10279.0 = f64[2,20]{1,0} get-tuple-element(while.10274.0), index=4, metadata={op_name="jit(scan)/jit(main)/while[cond_nconsts=0 body_nconsts=1]" source_file="/fs04/fc37/adam/projects/psilocybin-prl-analyses/src/prl_hgf/fitting/hierarchical.py" source_line=1153}
  get-tuple-element.10278.0 = f64[2,20]{1,0} get-tuple-element(while.10274.0), index=3, metadata={op_name="jit(scan)/jit(main)/while[cond_nconsts=0 body_nconsts=1]" source_file="/fs04/fc37/adam/projects/psilocybin-prl-analyses/src/prl_hgf/fitting/hierarchical.py" source_line=1153}
  get-tuple-element.10277.0 = f64[2,20]{1,0} get-tuple-element(while.10274.0), index=2, metadata={op_name="jit(scan)/jit(main)/while[cond_nconsts=0 body_nconsts=1]" source_file="/fs04/fc37/adam/projects/psilocybin-prl-analyses/src/prl_hgf/fitting/hierarchical.py" source_line=1153}
  get-tuple-element.10276.0 = f64[2,20]{1,0} get-tuple-element(while.10274.0), index=1, metadata={op_name="jit(scan)/jit(main)/while[cond_nconsts=0 body_nconsts=1]" source_file="/fs04/fc37/adam/projects/psilocybin-prl-analyses/src/prl_hgf/fitting/hierarchical.py" source_line=1153}
  get-tuple-element.10350.0 = s64[10,2]{1,0} get-tuple-element(while.10274.0), index=75, metadata={op_name="jit(scan)/jit(main)/while[cond_nconsts=0 body_nconsts=1]" source_file="/fs04/fc37/adam/projects/psilocybin-prl-analyses/src/prl_hgf/fitting/hierarchical.py" source_line=1153}
  get-tuple-element.10351.0 = f64[10,2]{1,0} get-tuple-element(while.10274.0), index=76, metadata={op_name="jit(scan)/jit(main)/while[cond_nconsts=0 body_nconsts=1]" source_file="/fs04/fc37/adam/projects/psilocybin-prl-analyses/src/prl_hgf/fitting/hierarchical.py" source_line=1153}
  ROOT tuple.10353.0 = (f64[2,20]{1,0}, f64[2,20]{1,0}, f64[2,20]{1,0}, f64[2,20]{1,0}, f64[2,20]{1,0}, /*index=5*/f64[2,20]{1,0}, f64[2]{0}, f64[2,20]{1,0}, f64[2,20]{1,0}, f64[2,20]{1,0}, /*index=10*/f64[2,20]{1,0}, f64[2,20]{1,0}, f64[2,20]{1,0}, f64[10,2,20]{2,1,0}, f64[10,2,20]{2,1,0}, /*index=15*/f64[10,2,20]{2,1,0}, f64[10,2,20]{2,1,0}, f64[10,2,20]{2,1,0}, f64[10,2,20]{2,1,0}, f64[10,2]{1,0}, /*index=20*/f64[10,2,20]{2,1,0}, f64[10,2,20]{2,1,0}, f64[10,2,20]{2,1,0}, f64[10,2,20]{2,1,0}, f64[10,2,20]{2,1,0}, /*index=25*/f64[10,2,20]{2,1,0}, f64[10,2,20]{2,1,0}, f64[10,2,20]{2,1,0}, f64[10,2,20]{2,1,0}, f64[10,2,20]{2,1,0}, /*index=30*/f64[10,2,20]{2,1,0}, f64[10,2,20]{2,1,0}, pred[10,2]{1,0}, pred[10,2]{1,0}, f64[10,2]{1,0}, /*index=35*/f64[10,2,20]{2,1,0}, f64[10,2,20]{2,1,0}, f64[10,2,20]{2,1,0}, f64[10,2,20]{2,1,0}, f64[10,2,20]{2,1,0}, /*index=40*/f64[10,2,20]{2,1,0}, f64[10,2,20]{2,1,0}, f64[10,2,20]{2,1,0}, f64[10,2,20]{2,1,0}, f64[10,2,20]{2,1,0}, /*index=45*/f64[10,2,20]{2,1,0}, f64[10,2,20]{2,1,0}, f64[10,2]{1,0}, f64[10,2,20]{2,1,0}, f64[10,2,20]{2,1,0}, /*index=50*/f64[10,2,20]{2,1,0}, f64[10,2,20]{2,1,0}, f64[10,2,20]{2,1,0}, f64[10,2,20]{2,1,0}, f64[10,2,20]{2,1,0}, /*index=55*/f64[10,2,20]{2,1,0}, f64[10,2,20]{2,1,0}, f64[10,2,20]{2,1,0}, f64[10,2,20]{2,1,0}, f64[10,2,20]{2,1,0}, /*index=60*/f64[10,2,20]{2,1,0}, f64[10,2,20]{2,1,0}, f64[10,2,20]{2,1,0}, f64[10,2,20]{2,1,0}, f64[10,2,20]{2,1,0}, /*index=65*/f64[10,2,20]{2,1,0}, f64[10,2]{1,0}, f64[10,2,20]{2,1,0}, f64[10,2,20]{2,1,0}, f64[10,2,20]{2,1,0}, /*index=70*/f64[10,2,20]{2,1,0}, f64[10,2,20]{2,1,0}, f64[10,2,20]{2,1,0}, s64[10,2]{1,0}, s64[10,2]{1,0}, /*index=75*/f64[10,2]{1,0}) tuple(get-tuple-element.10276.0, get-tuple-element.10277.0, get-tuple-element.10278.0, get-tuple-element.10279.0, get-tuple-element.10280.0, /*index=5*/get-tuple-element.10281.0, get-tuple-element.10282.0, get-tuple-element.10283.0, get-tuple-element.10284.0, get-tuple-element.10285.0, /*index=10*/get-tuple-element.10286.0, get-tuple-element.10287.0, get-tuple-element.10288.0, get-tuple-element.10289.0, get-tuple-element.10290.0, /*index=15*/get-tuple-element.10291.0, get-tuple-element.10292.0, get-tuple-element.10293.0, get-tuple-element.10294.0, get-tuple-element.10295.0, /*index=20*/get-tuple-element.10296.0, get-tuple-element.10297.0, get-tuple-element.10298.0, get-tuple-element.10299.0, get-tuple-element.10300.0, /*index=25*/get-tuple-element.10301.0, get-tuple-element.10302.0, get-tuple-element.10303.0, get-tuple-element.10304.0, get-tuple-element.10305.0, /*index=30*/get-tuple-element.10306.0, get-tuple-element.10307.0, get-tuple-element.10308.0, get-tuple-element.10309.0, get-tuple-element.10310.0, /*index=35*/get-tuple-element.10311.0, get-tuple-element.10312.0, get-tuple-element.10313.0, get-tuple-element.10314.0, get-tuple-element.10315.0, /*index=40*/get-tuple-element.10316.0, get-tuple-element.10317.0, get-tuple-element.10318.0, get-tuple-element.10319.0, get-tuple-element.10320.0, /*index=45*/get-tuple-element.10321.0, get-tuple-element.10322.0, get-tuple-element.10323.0, get-tuple-element.10324.0, get-tuple-element.10325.0, /*index=50*/get-tuple-element.10326.0, get-tuple-element.10327.0, get-tuple-element.10328.0, get-tuple-element.10329.0, get-tuple-element.10330.0, /*index=55*/get-tuple-element.10331.0, get-tuple-element.10332.0, get-tuple-element.10333.0, get-tuple-element.10334.0, get-tuple-element.10335.0, /*index=60*/get-tuple-element.10336.0, get-tuple-element.10337.0, get-tuple-element.10338.0, get-tuple-element.10339.0, get-tuple-element.10340.0, /*index=65*/get-tuple-element.10341.0, get-tuple-element.10342.0, get-tuple-element.10343.0, get-tuple-element.10344.0, get-tuple-element.10345.0, /*index=70*/get-tuple-element.10346.0, get-tuple-element.10347.0, get-tuple-element.10348.0, get-tuple-element.10349.0, get-tuple-element.10350.0, /*index=75*/get-tuple-element.10351.0)
} // main.10354

