HloModule jit_scan, is_scheduled=true, entry_computation_layout={(f64[2,20]{1,0}, f64[2,20]{1,0}, f64[2,20]{1,0}, f64[2,20]{1,0}, f64[2,20]{1,0}, /*index=5*/f64[2,20]{1,0}, f64[2]{0}, f64[2,20]{1,0}, f64[2,20]{1,0}, f64[2,20]{1,0}, /*index=10*/f64[2,20]{1,0}, f64[2,20]{1,0}, f64[2,20]{1,0}, u32[10,2]{1,0})->(f64[2,20]{1,0}, f64[2,20]{1,0}, f64[2,20]{1,0}, f64[2,20]{1,0}, f64[2,20]{1,0}, /*index=5*/f64[2,20]{1,0}, f64[2]{0}, f64[2,20]{1,0}, f64[2,20]{1,0}, f64[2,20]{1,0}, /*index=10*/f64[2,20]{1,0}, f64[2,20]{1,0}, f64[2,20]{1,0}, f64[10,2,20]{2,1,0}, f64[10,2,20]{2,1,0}, /*index=15*/f64[10,2,20]{2,1,0}, f64[10,2,20]{2,1,0}, f64[10,2,20]{2,1,0}, f64[10,2,20]{2,1,0}, f64[10,2]{1,0}, /*index=20*/f64[10,2,20]{2,1,0}, f64[10,2,20]{2,1,0}, f64[10,2,20]{2,1,0}, f64[10,2,20]{2,1,0}, f64[10,2,20]{2,1,0}, /*index=25*/f64[10,2,20]{2,1,0}, f64[10,2,20]{2,1,0}, f64[10,2,20]{2,1,0}, f64[10,2,20]{2,1,0}, f64[10,2,20]{2,1,0}, /*index=30*/f64[10,2,20]{2,1,0}, f64[10,2,20]{2,1,0}, pred[10,2]{1,0}, pred[10,2]{1,0}, f64[10,2]{1,0}, /*index=35*/f64[10,2,20]{2,1,0}, f64[10,2,20]{2,1,0}, f64[10,2,20]{2,1,0}, f64[10,2,20]{2,1,0}, f64[10,2,20]{2,1,0}, /*index=40*/f64[10,2,20]{2,1,0}, f64[10,2,20]{2,1,0}, f64[10,2,20]{2,1,0}, f64[10,2,20]{2,1,0}, f64[10,2,20]{2,1,0}, /*index=45*/f64[10,2,20]{2,1,0}, f64[10,2,20]{2,1,0}, f64[10,2]{1,0}, f64[10,2,20]{2,1,0}, f64[10,2,20]{2,1,0}, /*index=50*/f64[10,2,20]{2,1,0}, f64[10,2,20]{2,1,0}, f64[10,2,20]{2,1,0}, f64[10,2,20]{2,1,0}, f64[10,2,20]{2,1,0}, /*index=55*/f64[10,2,20]{2,1,0}, f64[10,2,20]{2,1,0}, f64[10,2,20]{2,1,0}, f64[10,2,20]{2,1,0}, f64[10,2,20]{2,1,0}, /*index=60*/f64[10,2,20]{2,1,0}, f64[10,2,20]{2,1,0}, f64[10,2,20]{2,1,0}, f64[10,2,20]{2,1,0}, f64[10,2,20]{2,1,0}, /*index=65*/f64[10,2,20]{2,1,0}, f64[10,2]{1,0}, f64[10,2,20]{2,1,0}, f64[10,2,20]{2,1,0}, f64[10,2,20]{2,1,0}, /*index=70*/f64[10,2,20]{2,1,0}, f64[10,2,20]{2,1,0}, f64[10,2,20]{2,1,0}, s64[10,2]{1,0}, s64[10,2]{1,0}, /*index=75*/f64[10,2]{1,0})}, allow_spmd_sharding_propagation_to_parameters={true,true,true,true,true,true,true,true,true,true,true,true,true,true}, allow_spmd_sharding_propagation_to_output={true,true,true,true,true,true,true,true,true,true,true,true,true,true,true,true,true,true,true,true,true,true,true,true,true,true,true,true,true,true,true,true,true,true,true,true,true,true,true,true,true,true,true,true,true,true,true,true,true,true,true,true,true,true,true,true,true,true,true,true,true,true,true,true,true,true,true,true,true,true,true,true,true,true,true,true}, frontend_attributes={fingerprint_before_lhs="5e3bb714b1cb57c097cba169dc15b10c"}

fused_select {
  param_0.43 = s32[2]{0} parameter(0)
  param_2.59 = s32[2]{0} parameter(2)
  compare.1126.5 = pred[2]{0} compare(param_0.43, param_2.59), direction=GE, metadata={op_name="jit(scan)/jit(main)/while/body/jit(_one_step)/vmap(while)/body/while/body/while/body_pred/ge" source_file="/fs04/fc37/adam/projects/psilocybin-prl-analyses/src/prl_hgf/fitting/hierarchical.py" source_line=1147}
  param_1.66 = pred[2]{0} parameter(1)
  not.20.5 = pred[2]{0} not(param_1.66), metadata={op_name="jit(scan)/jit(main)/while/body/jit(_one_step)/vmap(while)/body/while/body/while/body_pred/not" source_file="/fs04/fc37/adam/projects/psilocybin-prl-analyses/src/prl_hgf/fitting/hierarchical.py" source_line=1147}
  and.64.5 = pred[2]{0} and(compare.1126.5, not.20.5), metadata={op_name="jit(scan)/jit(main)/while/body/jit(_one_step)/vmap(while)/body/while/body/while/body_pred/and" source_file="/fs04/fc37/adam/projects/psilocybin-prl-analyses/src/prl_hgf/fitting/hierarchical.py" source_line=1147}
  constant_1334_1 = s32[] constant(-1)
  broadcast.4010.1 = s32[2]{0} broadcast(constant_1334_1), dimensions={}
  add.3970.1 = s32[2]{0} add(param_0.43, broadcast.4010.1), metadata={op_name="jit(scan)/jit(main)/while/body/jit(_one_step)/vmap(while)/body/while/body/while/body/sub" source_file="/fs04/fc37/adam/projects/psilocybin-prl-analyses/src/prl_hgf/fitting/hierarchical.py" source_line=1147}
  select.2969.1 = s32[2]{0} select(and.64.5, add.3970.1, param_0.43), metadata={op_name="jit(scan)/jit(main)/while/body/jit(_one_step)/vmap(while)/body/while/body/while[cond_nconsts=1 body_nconsts=5]" source_file="/fs04/fc37/adam/projects/psilocybin-prl-analyses/src/prl_hgf/fitting/hierarchical.py" source_line=1147}
  param_4.2829 = f64[2]{0} parameter(4)
  constant_6912_1_clone_1 = f64[] constant(0)
  broadcast.4015.clone.9.clone.1 = f64[2]{0} broadcast(constant_6912_1_clone_1), dimensions={}
  compare.1128.3.clone.1 = pred[2]{0} compare(param_4.2829, broadcast.4015.clone.9.clone.1), direction=LE, metadata={op_name="jit(scan)/jit(main)/while/body/jit(_one_step)/vmap(while)/body/while/body/while/body/le" source_file="/fs04/fc37/adam/projects/psilocybin-prl-analyses/src/prl_hgf/fitting/hierarchical.py" source_line=1147}
  param_3.4110 = f64[2]{0} parameter(3)
  compare.1129.5.clone.1 = pred[2]{0} compare(param_3.4110, broadcast.4015.clone.9.clone.1), direction=LE, metadata={op_name="jit(scan)/jit(main)/while/body/jit(_one_step)/vmap(while)/body/while/body/while/body/le" source_file="/fs04/fc37/adam/projects/psilocybin-prl-analyses/src/prl_hgf/fitting/hierarchical.py" source_line=1147}
  or.801.3.clone.1 = pred[2]{0} or(compare.1128.3.clone.1, compare.1129.5.clone.1), metadata={op_name="jit(scan)/jit(main)/while/body/jit(_one_step)/vmap(while)/body/while/body/while/body/or" source_file="/fs04/fc37/adam/projects/psilocybin-prl-analyses/src/prl_hgf/fitting/hierarchical.py" source_line=1147}
  select.2971.1.clone.1 = pred[2]{0} select(and.64.5, or.801.3.clone.1, param_1.66), metadata={op_name="jit(scan)/jit(main)/while/body/jit(_one_step)/vmap(while)/body/while/body/while[cond_nconsts=1 body_nconsts=5]" source_file="/fs04/fc37/adam/projects/psilocybin-prl-analyses/src/prl_hgf/fitting/hierarchical.py" source_line=1147}
  ROOT tuple.479 = (s32[2]{0}, pred[2]{0}) tuple(select.2969.1, select.2971.1.clone.1)
} // fused_select

scalar_add_computation {
  scalar_rhs = f64[] parameter(1)
  scalar_lhs = f64[] parameter(0)
  ROOT add.3969 = f64[] add(scalar_lhs, scalar_rhs)
}

fused_reduce {
  param_0.46 = f64[2,10,120]{2,1,0} parameter(0)
  iota.42.4 = s32[2,1]{1,0} iota(), iota_dimension=0, metadata={op_name="jit(scan)/jit(main)/while/body/jit(_one_step)/vmap(while)/body/while/body/while/body/iota[dtype=int32 shape=(2, 1) dimension=0]" source_file="/fs04/fc37/adam/projects/psilocybin-prl-analyses/src/prl_hgf/fitting/hierarchical.py" source_line=1147}
  param_1.64 = s32[2]{0} parameter(1)
  constant_6918_1 = s32[] constant(0)
  broadcast.4011.2 = s32[2]{0} broadcast(constant_6918_1), dimensions={}
  compare.1127.4 = pred[2]{0} compare(param_1.64, broadcast.4011.2), direction=LT, metadata={op_name="jit(scan)/jit(main)/while/body/jit(_one_step)/vmap(while)/body/while/body/while/body/lt" source_file="/fs04/fc37/adam/projects/psilocybin-prl-analyses/src/prl_hgf/fitting/hierarchical.py" source_line=1147}
  constant_6920_1 = s32[] constant(10)
  broadcast.4012.4 = s32[2]{0} broadcast(constant_6920_1), dimensions={}
  add.3971.4 = s32[2]{0} add(param_1.64, broadcast.4012.4), metadata={op_name="jit(scan)/jit(main)/while/body/jit(_one_step)/vmap(while)/body/while/body/while/body/add" source_file="/fs04/fc37/adam/projects/psilocybin-prl-analyses/src/prl_hgf/fitting/hierarchical.py" source_line=1147}
  select.2970.4 = s32[2]{0} select(compare.1127.4, add.3971.4, param_1.64), metadata={op_name="jit(scan)/jit(main)/while/body/jit(_one_step)/vmap(while)/body/while/body/while/body/select_n" source_file="/fs04/fc37/adam/projects/psilocybin-prl-analyses/src/prl_hgf/fitting/hierarchical.py" source_line=1147}
  bitcast.10507.15 = s32[2,1]{1,0} bitcast(select.2970.4)
  broadcast.4013.4 = s32[2,1]{1,0} broadcast(constant_6918_1), dimensions={}
  concatenate.36.15 = s32[2,3]{1,0} concatenate(iota.42.4, bitcast.10507.15, broadcast.4013.4), dimensions={1}, metadata={op_name="jit(scan)/jit(main)/while/body/jit(_one_step)/vmap(while)/body/while/body/while/body/concatenate[dimension=1]" source_file="/fs04/fc37/adam/projects/psilocybin-prl-analyses/src/prl_hgf/fitting/hierarchical.py" source_line=1147}
  gather.3.7 = f64[2,1,1,120]{3,0,2,1} gather(param_0.46, concatenate.36.15), offset_dims={1,2,3}, collapsed_slice_dims={}, start_index_map={0,1,2}, index_vector_dim=1, slice_sizes={1,1,120}, indices_are_sorted=true, metadata={op_name="jit(scan)/jit(main)/while/body/jit(_one_step)/vmap(while)/body/while/body/while/body/gather[dimension_numbers=GatherDimensionNumbers(offset_dims=(np.int64(1), np.int64(2)), collapsed_slice_dims=(0,), start_index_map=(0, np.int64(1), np.int64(2))) slice_sizes=(1, 1, 120) unique_indices=True indices_are_sorted=True mode=GatherScatterMode.PROMISE_IN_BOUNDS fill_value=None]" source_file="/fs04/fc37/adam/projects/psilocybin-prl-analyses/src/prl_hgf/fitting/hierarchical.py" source_line=1147}
  bitcast.10535.11 = f64[2,120]{1,0} bitcast(gather.3.7)
  param_3.44 = f64[2,120]{1,0} parameter(3)
  param_4.41 = f64[2,10,120]{2,1,0} parameter(4)
  gather.4.9 = f64[2,1,1,120]{3,0,2,1} gather(param_4.41, concatenate.36.15), offset_dims={1,2,3}, collapsed_slice_dims={}, start_index_map={0,1,2}, index_vector_dim=1, slice_sizes={1,1,120}, indices_are_sorted=true, metadata={op_name="jit(scan)/jit(main)/while/body/jit(_one_step)/vmap(while)/body/while/body/while/body/gather[dimension_numbers=GatherDimensionNumbers(offset_dims=(np.int64(1), np.int64(2)), collapsed_slice_dims=(0,), start_index_map=(0, np.int64(1), np.int64(2))) slice_sizes=(1, 1, 120) unique_indices=True indices_are_sorted=True mode=GatherScatterMode.PROMISE_IN_BOUNDS fill_value=None]" source_file="/fs04/fc37/adam/projects/psilocybin-prl-analyses/src/prl_hgf/fitting/hierarchical.py" source_line=1147}
  bitcast.10525.7 = f64[2,120]{1,0} bitcast(gather.4.9)
  subtract.218.7 = f64[2,120]{1,0} subtract(param_3.44, bitcast.10525.7), metadata={op_name="jit(scan)/jit(main)/while/body/jit(_one_step)/vmap(while)/body/while/body/while/body/sub" source_file="/fs04/fc37/adam/projects/psilocybin-prl-analyses/src/prl_hgf/fitting/hierarchical.py" source_line=1147}
  add.3972.7 = f64[2,120]{1,0} add(subtract.218.7, bitcast.10535.11), metadata={op_name="jit(scan)/jit(main)/while/body/jit(_one_step)/vmap(while)/body/while/body/while/body/add" source_file="/fs04/fc37/adam/projects/psilocybin-prl-analyses/src/prl_hgf/fitting/hierarchical.py" source_line=1147}
  param_2.57 = f64[2,120]{1,0} parameter(2)
  add.3973.9 = f64[2,120]{1,0} add(param_2.57, bitcast.10535.11), metadata={op_name="jit(scan)/jit(main)/while/body/jit(_one_step)/vmap(while)/body/while/body/while/body/add" source_file="/fs04/fc37/adam/projects/psilocybin-prl-analyses/src/prl_hgf/fitting/hierarchical.py" source_line=1147}
  constant_1117_1 = f64[] constant(0.5)
  broadcast.4014.7 = f64[2,120]{1,0} broadcast(constant_1117_1), dimensions={}
  multiply.2886.7 = f64[2,120]{1,0} multiply(add.3973.9, broadcast.4014.7), metadata={op_name="jit(scan)/jit(main)/while/body/jit(_one_step)/vmap(while)/body/while/body/while/body/div" source_file="/fs04/fc37/adam/projects/psilocybin-prl-analyses/src/prl_hgf/fitting/hierarchical.py" source_line=1147}
  subtract.219.5 = f64[2,120]{1,0} subtract(add.3972.7, multiply.2886.7), metadata={op_name="jit(scan)/jit(main)/while/body/jit(_one_step)/vmap(while)/body/while/body/while/body/sub" source_file="/fs04/fc37/adam/projects/psilocybin-prl-analyses/src/prl_hgf/fitting/hierarchical.py" source_line=1147}
  multiply.2887.3 = f64[2,120]{1,0} multiply(bitcast.10535.11, subtract.219.5)
  constant_6912_2 = f64[] constant(0)
  reduce.13.1 = f64[2]{0} reduce(multiply.2887.3, constant_6912_2), dimensions={1}, to_apply=scalar_add_computation, metadata={op_name="jit(scan)/jit(main)/while/body/jit(_one_step)/vmap(while)/body/while/body/while/body/dot_general[dimension_numbers=(((1,), (1,)), ((0,), (0,))) precision=None preferred_element_type=float64]" source_file="/fs04/fc37/adam/projects/psilocybin-prl-analyses/src/prl_hgf/fitting/hierarchical.py" source_line=1147}
  multiply.2888.1.clone.1 = f64[2,120]{1,0} multiply(param_2.57, subtract.219.5)
  reduce.14.1.clone.1 = f64[2]{0} reduce(multiply.2888.1.clone.1, constant_6912_2), dimensions={1}, to_apply=scalar_add_computation, metadata={op_name="jit(scan)/jit(main)/while/body/jit(_one_step)/vmap(while)/body/while/body/while/body/dot_general[dimension_numbers=(((1,), (1,)), ((0,), (0,))) precision=None preferred_element_type=float64]" source_file="/fs04/fc37/adam/projects/psilocybin-prl-analyses/src/prl_hgf/fitting/hierarchical.py" source_line=1147}
  ROOT tuple.478 = (f64[2]{0}, f64[2]{0}) tuple(reduce.13.1, reduce.14.1.clone.1)
} // fused_reduce

region_35.6903 {
  arg_tuple.6904.0 = (s32[2]{0}, pred[2]{0}, s32[2]{0}, f64[2,10,120]{2,1,0}, f64[2,120]{1,0}, /*index=5*/f64[2,10,120]{2,1,0}, f64[2,120]{1,0}) parameter(0)
  get-tuple-element.16403 = s32[2]{0} get-tuple-element(arg_tuple.6904.0), index=0
  get-tuple-element.16412 = s32[2]{0} get-tuple-element(arg_tuple.6904.0), index=2
  get-tuple-element.16413 = f64[2,10,120]{2,1,0} get-tuple-element(arg_tuple.6904.0), index=3
  get-tuple-element.16414 = f64[2,120]{1,0} get-tuple-element(arg_tuple.6904.0), index=4
  get-tuple-element.16415 = f64[2,10,120]{2,1,0} get-tuple-element(arg_tuple.6904.0), index=5
  get-tuple-element.16416 = f64[2,120]{1,0} get-tuple-element(arg_tuple.6904.0), index=6
  get-tuple-element.16404 = pred[2]{0} get-tuple-element(arg_tuple.6904.0), index=1
  input_reduce_fusion = (f64[2]{0}, f64[2]{0}) fusion(get-tuple-element.16415, get-tuple-element.16403, get-tuple-element.16416, get-tuple-element.16414, get-tuple-element.16413), kind=kInput, calls=fused_reduce, metadata={op_name="jit(scan)/jit(main)/while/body/jit(_one_step)/vmap(while)/body/while/body/while/body/dot_general[dimension_numbers=(((1,), (1,)), ((0,), (0,))) precision=None preferred_element_type=float64]" source_file="/fs04/fc37/adam/projects/psilocybin-prl-analyses/src/prl_hgf/fitting/hierarchical.py" source_line=1147}
  get-tuple-element.15649 = f64[2]{0} get-tuple-element(input_reduce_fusion), index=1, metadata={op_name="jit(scan)/jit(main)/while/body/jit(_one_step)/vmap(while)/body/while/body/while/body/dot_general[dimension_numbers=(((1,), (1,)), ((0,), (0,))) precision=None preferred_element_type=float64]" source_file="/fs04/fc37/adam/projects/psilocybin-prl-analyses/src/prl_hgf/fitting/hierarchical.py" source_line=1147}
  get-tuple-element.15648 = f64[2]{0} get-tuple-element(input_reduce_fusion), index=0, metadata={op_name="jit(scan)/jit(main)/while/body/jit(_one_step)/vmap(while)/body/while/body/while/body/dot_general[dimension_numbers=(((1,), (1,)), ((0,), (0,))) precision=None preferred_element_type=float64]" source_file="/fs04/fc37/adam/projects/psilocybin-prl-analyses/src/prl_hgf/fitting/hierarchical.py" source_line=1147}
  loop_select_fusion = (s32[2]{0}, pred[2]{0}) fusion(get-tuple-element.16403, get-tuple-element.16404, get-tuple-element.16412, get-tuple-element.15649, get-tuple-element.15648), kind=kLoop, calls=fused_select, control-predecessors={input_reduce_fusion}, metadata={op_name="jit(scan)/jit(main)/while/body/jit(_one_step)/vmap(while)/body/while/body/while[cond_nconsts=1 body_nconsts=5]" source_file="/fs04/fc37/adam/projects/psilocybin-prl-analyses/src/prl_hgf/fitting/hierarchical.py" source_line=1147}
  get-tuple-element.16411 = pred[2]{0} get-tuple-element(loop_select_fusion), index=1, metadata={op_name="jit(scan)/jit(main)/while/body/jit(_one_step)/vmap(while)/body/while/body/while[cond_nconsts=1 body_nconsts=5]" source_file="/fs04/fc37/adam/projects/psilocybin-prl-analyses/src/prl_hgf/fitting/hierarchical.py" source_line=1147}
  get-tuple-element.16410 = s32[2]{0} get-tuple-element(loop_select_fusion), index=0, metadata={op_name="jit(scan)/jit(main)/while/body/jit(_one_step)/vmap(while)/body/while/body/while[cond_nconsts=1 body_nconsts=5]" source_file="/fs04/fc37/adam/projects/psilocybin-prl-analyses/src/prl_hgf/fitting/hierarchical.py" source_line=1147}
  ROOT tuple.742 = (s32[2]{0}, pred[2]{0}, s32[2]{0}, f64[2,10,120]{2,1,0}, f64[2,120]{1,0}, /*index=5*/f64[2,10,120]{2,1,0}, f64[2,120]{1,0}) tuple(get-tuple-element.16410, get-tuple-element.16411, get-tuple-element.16412, get-tuple-element.16413, get-tuple-element.16414, /*index=5*/get-tuple-element.16415, get-tuple-element.16416)
} // region_35.6903

region_37.6968 {
  Arg_1.6970 = pred[] parameter(1), metadata={op_name="jit(scan)/jit(main)/while/body/jit(_one_step)/vmap(while)/body/while/body/while[cond_nconsts=1 body_nconsts=5]"}
  Arg_0.6969 = pred[] parameter(0), metadata={op_name="jit(scan)/jit(main)/while/body/jit(_one_step)/vmap(while)/body/while/body/while[cond_nconsts=1 body_nconsts=5]"}
  ROOT or.802 = pred[] or(Arg_0.6969, Arg_1.6970), metadata={op_name="jit(scan)/jit(main)/while/body/jit(_one_step)/vmap(while)/body/while/body/while[cond_nconsts=1 body_nconsts=5]" source_file="/fs04/fc37/adam/projects/psilocybin-prl-analyses/src/prl_hgf/fitting/hierarchical.py" source_line=1147}
}

fused_reduce.1 {
  param_1.70 = s32[2]{0} parameter(1)
  param_2.63 = s32[2]{0} parameter(2)
  compare.1130.1 = pred[2]{0} compare(param_1.70, param_2.63), direction=GE, metadata={op_name="jit(scan)/jit(main)/while/body/jit(_one_step)/vmap(while)/body/while/body/while/cond/ge" source_file="/fs04/fc37/adam/projects/psilocybin-prl-analyses/src/prl_hgf/fitting/hierarchical.py" source_line=1147}
  param_0.50 = pred[2]{0} parameter(0)
  not.21.1 = pred[2]{0} not(param_0.50), metadata={op_name="jit(scan)/jit(main)/while/body/jit(_one_step)/vmap(while)/body/while/body/while/cond/not" source_file="/fs04/fc37/adam/projects/psilocybin-prl-analyses/src/prl_hgf/fitting/hierarchical.py" source_line=1147}
  and.65.1 = pred[2]{0} and(compare.1130.1, not.21.1), metadata={op_name="jit(scan)/jit(main)/while/body/jit(_one_step)/vmap(while)/body/while/body/while/cond/and" source_file="/fs04/fc37/adam/projects/psilocybin-prl-analyses/src/prl_hgf/fitting/hierarchical.py" source_line=1147}
  constant_6981_1 = pred[] constant(false)
  ROOT reduce.6985.1 = pred[] reduce(and.65.1, constant_6981_1), dimensions={0}, to_apply=region_37.6968, metadata={op_name="jit(scan)/jit(main)/while/body/jit(_one_step)/vmap(while)/body/while/body/while[cond_nconsts=1 body_nconsts=5]" source_file="/fs04/fc37/adam/projects/psilocybin-prl-analyses/src/prl_hgf/fitting/hierarchical.py" source_line=1147}
} // fused_reduce.1

region_36.6972 {
  arg_tuple.6973.0 = (s32[2]{0}, pred[2]{0}, s32[2]{0}, f64[2,10,120]{2,1,0}, f64[2,120]{1,0}, /*index=5*/f64[2,10,120]{2,1,0}, f64[2,120]{1,0}) parameter(0)
  get-tuple-element.6974.0 = s32[2]{0} get-tuple-element(arg_tuple.6973.0), index=0
  get-tuple-element.6976.0 = s32[2]{0} get-tuple-element(arg_tuple.6973.0), index=2
  get-tuple-element.6975.0 = pred[2]{0} get-tuple-element(arg_tuple.6973.0), index=1
  ROOT input_reduce_fusion.1 = pred[] fusion(get-tuple-element.6975.0, get-tuple-element.6974.0, get-tuple-element.6976.0), kind=kInput, calls=fused_reduce.1, metadata={op_name="jit(scan)/jit(main)/while/body/jit(_one_step)/vmap(while)/body/while/body/while[cond_nconsts=1 body_nconsts=5]" source_file="/fs04/fc37/adam/projects/psilocybin-prl-analyses/src/prl_hgf/fitting/hierarchical.py" source_line=1147}
}

fused_broadcast.2 {
  constant_1429_3 = f64[] constant(0)
  ROOT broadcast.4019.1 = f64[20,1]{1,0} broadcast(constant_1429_3), dimensions={}
}

fused_broadcast.1 {
  constant_1429_2 = f64[] constant(0)
  ROOT broadcast.4016.1 = f64[20]{0} broadcast(constant_1429_2), dimensions={}
}

fused_broadcast {
  constant_1429_1 = f64[] constant(0)
  ROOT broadcast.4017.1 = f64[2,20]{1,0} broadcast(constant_1429_1), dimensions={}
}

wrapped_copy_computation.177 {
  param_0.5382 = f64[2,20]{1,0} parameter(0)
  ROOT copy.1366 = f64[2,20]{1,0} copy(param_0.5382)
}

fused_multiply_negate {
  param_0.5119 = f64[2,20]{1,0} parameter(0)
  param_4.2831 = f64[] parameter(4)
  broadcast.4018.1.clone.1 = f64[2,20]{1,0} broadcast(param_4.2831), dimensions={}, metadata={op_name="jit(scan)/jit(main)/while/body/jit(_one_step)/vmap(while)/body/while/body/transpose(jvp(vmap(while)))/body/jit(beliefs_propagation)/jit(continuous_node_posterior_update)/jit(posterior_update_precision_continuous_node)/cond/branch_0_fun/jit(precision_update_missing_values)/mul" source_file="/fs04/fc37/adam/projects/psilocybin-prl-analyses/src/prl_hgf/fitting/hierarchical_patrl.py" source_line=362}
  param_2.5642 = f64[2,20]{1,0} parameter(2)
  param_3.4114 = f64[2,20]{1,0} parameter(3)
  multiply.2889.2.clone.1 = f64[2,20]{1,0} multiply(param_2.5642, param_3.4114), metadata={op_name="jit(scan)/jit(main)/while/body/jit(_one_step)/vmap(while)/body/while/body/transpose(jvp(vmap(while)))/body/jit(beliefs_propagation)/jit(continuous_node_posterior_update)/jit(posterior_update_precision_continuous_node)/cond/branch_0_fun/jit(precision_update_missing_values)/mul" source_file="/fs04/fc37/adam/projects/psilocybin-prl-analyses/src/prl_hgf/fitting/hierarchical_patrl.py" source_line=362}
  negate.466.1.clone.1 = f64[2,20]{1,0} negate(multiply.2889.2.clone.1), metadata={op_name="jit(scan)/jit(main)/while/body/jit(_one_step)/vmap(while)/body/while/body/transpose(jvp(vmap(while)))/body/jit(beliefs_propagation)/jit(continuous_node_posterior_update)/jit(posterior_update_precision_continuous_node)/cond/branch_0_fun/jit(precision_update_missing_values)/neg" source_file="/fs04/fc37/adam/projects/psilocybin-prl-analyses/src/prl_hgf/fitting/hierarchical_patrl.py" source_line=362}
  multiply.2891.1.clone.1 = f64[2,20]{1,0} multiply(broadcast.4018.1.clone.1, negate.466.1.clone.1), metadata={op_name="jit(scan)/jit(main)/while/body/jit(_one_step)/vmap(while)/body/while/body/transpose(jvp(vmap(while)))/body/jit(beliefs_propagation)/jit(continuous_node_posterior_update)/jit(posterior_update_precision_continuous_node)/cond/branch_0_fun/jit(precision_update_missing_values)/mul" source_file="/fs04/fc37/adam/projects/psilocybin-prl-analyses/src/prl_hgf/fitting/hierarchical_patrl.py" source_line=362}
  param_1.7154 = f64[2,20]{1,0} parameter(1)
  multiply.2892.1.clone.1 = f64[2,20]{1,0} multiply(multiply.2891.1.clone.1, param_1.7154), metadata={op_name="jit(scan)/jit(main)/while/body/jit(_one_step)/vmap(while)/body/while/body/transpose(jvp(vmap(while)))/body/jit(beliefs_propagation)/jit(continuous_node_posterior_update)/jit(posterior_update_precision_continuous_node)/cond/branch_0_fun/jit(precision_update_missing_values)/mul" source_file="/fs04/fc37/adam/projects/psilocybin-prl-analyses/src/prl_hgf/fitting/hierarchical_patrl.py" source_line=362}
  multiply.2893.1 = f64[2,20]{1,0} multiply(param_0.5119, multiply.2892.1.clone.1), metadata={op_name="jit(scan)/jit(main)/while/body/jit(_one_step)/vmap(while)/body/while/body/transpose(jvp(vmap(while)))/body/jit(beliefs_propagation)/jit(continuous_node_posterior_update)/jit(posterior_update_precision_continuous_node)/cond/branch_0_fun/jit(precision_update_missing_values)/mul" source_file="/fs04/fc37/adam/projects/psilocybin-prl-analyses/src/prl_hgf/fitting/hierarchical_patrl.py" source_line=362}
  param_5.2375 = f64[2,20]{1,0} parameter(5)
  multiply.2890.1.clone.1 = f64[2,20]{1,0} multiply(negate.466.1.clone.1, param_5.2375), metadata={op_name="jit(scan)/jit(main)/while/body/jit(_one_step)/vmap(while)/body/while/body/transpose(jvp(vmap(while)))/body/jit(beliefs_propagation)/jit(continuous_node_posterior_update)/jit(posterior_update_precision_continuous_node)/cond/branch_0_fun/jit(precision_update_missing_values)/mul" source_file="/fs04/fc37/adam/projects/psilocybin-prl-analyses/src/prl_hgf/fitting/hierarchical_patrl.py" source_line=362}
  negate.467.1.clone.1 = f64[2,20]{1,0} negate(multiply.2890.1.clone.1), metadata={op_name="jit(scan)/jit(main)/while/body/jit(_one_step)/vmap(while)/body/while/body/transpose(jvp(vmap(while)))/body/jit(beliefs_propagation)/jit(continuous_node_posterior_update)/jit(posterior_update_precision_continuous_node)/cond/branch_0_fun/jit(precision_update_missing_values)/neg" source_file="/fs04/fc37/adam/projects/psilocybin-prl-analyses/src/prl_hgf/fitting/hierarchical_patrl.py" source_line=362}
  ROOT tuple.481 = (f64[2,20]{1,0}, f64[2,20]{1,0}, f64[2,20]{1,0}) tuple(multiply.2893.1, multiply.2892.1.clone.1, negate.467.1.clone.1)
} // fused_multiply_negate

command_buffer.22 {
  p.934 = f64[2,20]{1,0} parameter(0)
  p.935 = f64[2,20]{1,0} parameter(1)
  p.936 = f64[2,20]{1,0} parameter(2)
  p.937 = f64[2,20]{1,0} parameter(3)
  p.938 = f64[] parameter(4)
  p.939 = f64[2,20]{1,0} parameter(5)
  loop_broadcast_fusion.2 = f64[20,1]{1,0} fusion(), kind=kLoop, calls=fused_broadcast.2
  loop_broadcast_fusion.1 = f64[20]{0} fusion(), kind=kLoop, calls=fused_broadcast.1
  loop_broadcast_fusion = f64[2,20]{1,0} fusion(), kind=kLoop, calls=fused_broadcast
  wrapped_copy.177 = f64[2,20]{1,0} fusion(loop_broadcast_fusion), kind=kLoop, calls=wrapped_copy_computation.177
  loop_multiply_negate_fusion = (f64[2,20]{1,0}, f64[2,20]{1,0}, f64[2,20]{1,0}) fusion(p.934, p.935, p.936, p.937, p.938, /*index=5*/p.939), kind=kLoop, calls=fused_multiply_negate, metadata={op_name="jit(scan)/jit(main)/while/body/jit(_one_step)/vmap(while)/body/while/body/transpose(jvp(vmap(while)))/body/jit(beliefs_propagation)/jit(continuous_node_posterior_update)/jit(posterior_update_precision_continuous_node)/cond/branch_0_fun/jit(precision_update_missing_values)/mul" source_file="/fs04/fc37/adam/projects/psilocybin-prl-analyses/src/prl_hgf/fitting/hierarchical_patrl.py" source_line=362}
  ROOT tuple.779 = (f64[20,1]{1,0}, f64[20]{0}, f64[2,20]{1,0}, f64[2,20]{1,0}, (f64[2,20]{1,0}, f64[2,20]{1,0}, f64[2,20]{1,0})) tuple(loop_broadcast_fusion.2, loop_broadcast_fusion.1, loop_broadcast_fusion, wrapped_copy.177, loop_multiply_negate_fusion)
} // command_buffer.22

region_29.5206.clone {
  arg_tuple.6.0 = (f64[2,20]{1,0}, f64[], f64[2,20]{1,0}, f64[2,20]{1,0}, f64[2,20]{1,0}, /*index=5*/f64[2,20]{1,0}) parameter(0)
  get-tuple-element.2425.0 = f64[] get-tuple-element(arg_tuple.6.0), index=1
  get-tuple-element.2429.0 = f64[2,20]{1,0} get-tuple-element(arg_tuple.6.0), index=5
  get-tuple-element.2428.0 = f64[2,20]{1,0} get-tuple-element(arg_tuple.6.0), index=4
  get-tuple-element.2427.0 = f64[2,20]{1,0} get-tuple-element(arg_tuple.6.0), index=3
  get-tuple-element.2426.0 = f64[2,20]{1,0} get-tuple-element(arg_tuple.6.0), index=2
  get-tuple-element.2424.0 = f64[2,20]{1,0} get-tuple-element(arg_tuple.6.0), index=0
  call.12 = (f64[20,1]{1,0}, f64[20]{0}, f64[2,20]{1,0}, f64[2,20]{1,0}, (f64[2,20]{1,0}, f64[2,20]{1,0}, f64[2,20]{1,0})) call(get-tuple-element.2426.0, get-tuple-element.2427.0, get-tuple-element.2429.0, get-tuple-element.2428.0, get-tuple-element.2425.0, /*index=5*/get-tuple-element.2424.0), to_apply=command_buffer.22
  get-tuple-element.18011 = f64[20,1]{1,0} get-tuple-element(call.12), index=0
  get-tuple-element.18012 = f64[20]{0} get-tuple-element(call.12), index=1
  get-tuple-element.18013 = f64[2,20]{1,0} get-tuple-element(call.12), index=2
  get-tuple-element.18014 = f64[2,20]{1,0} get-tuple-element(call.12), index=3
  get-tuple-element.18015 = (f64[2,20]{1,0}, f64[2,20]{1,0}, f64[2,20]{1,0}) get-tuple-element(call.12), index=4
  get-tuple-element.15956 = f64[2,20]{1,0} get-tuple-element(get-tuple-element.18015), index=2, metadata={op_name="jit(scan)/jit(main)/while/body/jit(_one_step)/vmap(while)/body/while/body/transpose(jvp(vmap(while)))/body/jit(beliefs_propagation)/jit(continuous_node_posterior_update)/jit(posterior_update_precision_continuous_node)/cond/branch_0_fun/jit(precision_update_missing_values)/mul" source_file="/fs04/fc37/adam/projects/psilocybin-prl-analyses/src/prl_hgf/fitting/hierarchical_patrl.py" source_line=362}
  get-tuple-element.15957 = f64[2,20]{1,0} get-tuple-element(get-tuple-element.18015), index=1, metadata={op_name="jit(scan)/jit(main)/while/body/jit(_one_step)/vmap(while)/body/while/body/transpose(jvp(vmap(while)))/body/jit(beliefs_propagation)/jit(continuous_node_posterior_update)/jit(posterior_update_precision_continuous_node)/cond/branch_0_fun/jit(precision_update_missing_values)/mul" source_file="/fs04/fc37/adam/projects/psilocybin-prl-analyses/src/prl_hgf/fitting/hierarchical_patrl.py" source_line=362}
  get-tuple-element.15958 = f64[2,20]{1,0} get-tuple-element(get-tuple-element.18015), index=0, metadata={op_name="jit(scan)/jit(main)/while/body/jit(_one_step)/vmap(while)/body/while/body/transpose(jvp(vmap(while)))/body/jit(beliefs_propagation)/jit(continuous_node_posterior_update)/jit(posterior_update_precision_continuous_node)/cond/branch_0_fun/jit(precision_update_missing_values)/mul" source_file="/fs04/fc37/adam/projects/psilocybin-prl-analyses/src/prl_hgf/fitting/hierarchical_patrl.py" source_line=362}
  ROOT tuple.732 = (f64[20]{0}, f64[2,20]{1,0}, f64[2,20]{1,0}, f64[2,20]{1,0}, f64[2,20]{1,0}, /*index=5*/f64[2,20]{1,0}, f64[20,1]{1,0}) tuple(get-tuple-element.18012, get-tuple-element.18013, get-tuple-element.18014, get-tuple-element.15956, get-tuple-element.15957, /*index=5*/get-tuple-element.15958, get-tuple-element.18011)
} // region_29.5206.clone

fused_broadcast.4 {
  constant_1436_3 = f64[] constant(0)
  ROOT broadcast.4023.1 = f64[20,1]{1,0} broadcast(constant_1436_3), dimensions={}
}

fused_broadcast.3 {
  constant_1436_2 = f64[] constant(0)
  ROOT broadcast.4020.1 = f64[20]{0} broadcast(constant_1436_2), dimensions={}
}

fused_broadcast_multiply_select {
  param_0.59 = f64[2,20]{1,0} parameter(0)
  param_2.5643 = pred[2,20]{1,0} parameter(2)
  param_3.4115 = f64[2,20]{1,0} parameter(3)
  constant_1436_1_clone_1 = f64[] constant(0)
  broadcast.4021.clone.2.1.clone.1 = f64[2,20]{1,0} broadcast(constant_1436_1_clone_1), dimensions={}, metadata={op_name="jit(scan)/jit(main)/while/body/jit(_one_step)/vmap(while)/body/while/body/transpose(jvp(vmap(while)))/body/jit(beliefs_propagation)/jit(continuous_node_posterior_update)/jit(posterior_update_precision_continuous_node)/cond/branch_1_fun/jit(precision_update)/jit(_where)/broadcast_in_dim[shape=(2, 20) broadcast_dimensions=(np.int64(1),)]" source_file="/fs04/fc37/adam/projects/psilocybin-prl-analyses/src/prl_hgf/env/pat_rl_simulator.py" source_line=92}
  select.2972.1 = f64[2,20]{1,0} select(param_2.5643, param_3.4115, broadcast.4021.clone.2.1.clone.1), metadata={op_name="jit(scan)/jit(main)/while/body/jit(_one_step)/vmap(while)/body/while/body/transpose(jvp(vmap(while)))/body/jit(beliefs_propagation)/jit(continuous_node_posterior_update)/jit(posterior_update_precision_continuous_node)/cond/branch_1_fun/jit(precision_update)/jit(_where)/select_n" source_file="/fs04/fc37/adam/projects/psilocybin-prl-analyses/src/prl_hgf/env/pat_rl_simulator.py" source_line=92}
  param_1.7155 = f64[] parameter(1)
  broadcast.4022.1 = f64[2,20]{1,0} broadcast(param_1.7155), dimensions={}, metadata={op_name="jit(scan)/jit(main)/while/body/jit(_one_step)/vmap(while)/body/while/body/transpose(jvp(vmap(while)))/body/jit(beliefs_propagation)/jit(continuous_node_posterior_update)/jit(posterior_update_precision_continuous_node)/cond/branch_1_fun/jit(precision_update)/mul" source_file="/fs04/fc37/adam/projects/psilocybin-prl-analyses/src/prl_hgf/fitting/hierarchical_patrl.py" source_line=362}
  multiply.2894.1 = f64[2,20]{1,0} multiply(select.2972.1, broadcast.4022.1), metadata={op_name="jit(scan)/jit(main)/while/body/jit(_one_step)/vmap(while)/body/while/body/transpose(jvp(vmap(while)))/body/jit(beliefs_propagation)/jit(continuous_node_posterior_update)/jit(posterior_update_precision_continuous_node)/cond/branch_1_fun/jit(precision_update)/mul" source_file="/fs04/fc37/adam/projects/psilocybin-prl-analyses/src/prl_hgf/fitting/hierarchical_patrl.py" source_line=362}
  multiply.2895.1 = f64[2,20]{1,0} multiply(param_0.59, multiply.2894.1), metadata={op_name="jit(scan)/jit(main)/while/body/jit(_one_step)/vmap(while)/body/while/body/transpose(jvp(vmap(while)))/body/jit(beliefs_propagation)/jit(continuous_node_posterior_update)/jit(posterior_update_precision_continuous_node)/cond/branch_1_fun/jit(precision_update)/mul" source_file="/fs04/fc37/adam/projects/psilocybin-prl-analyses/src/prl_hgf/fitting/hierarchical_patrl.py" source_line=362}
  ROOT tuple.483 = (f64[2,20]{1,0}, f64[2,20]{1,0}, f64[2,20]{1,0}) tuple(multiply.2895.1, select.2972.1, broadcast.4021.clone.2.1.clone.1)
} // fused_broadcast_multiply_select

wrapped_copy_computation.178 {
  param_0.5383 = f64[2,20]{1,0} parameter(0)
  ROOT copy.1367 = f64[2,20]{1,0} copy(param_0.5383)
}

wrapped_copy_computation.179 {
  param_0.5384 = f64[2,20]{1,0} parameter(0)
  ROOT copy.1368 = f64[2,20]{1,0} copy(param_0.5384)
}

command_buffer.20 {
  p.926 = f64[2,20]{1,0} parameter(0)
  p.927 = f64[] parameter(1)
  p.928 = pred[2,20]{1,0} parameter(2)
  p.929 = f64[2,20]{1,0} parameter(3)
  loop_broadcast_fusion.4 = f64[20,1]{1,0} fusion(), kind=kLoop, calls=fused_broadcast.4
  loop_broadcast_fusion.3 = f64[20]{0} fusion(), kind=kLoop, calls=fused_broadcast.3
  loop_broadcast_multiply_select_fusion = (f64[2,20]{1,0}, f64[2,20]{1,0}, f64[2,20]{1,0}) fusion(p.926, p.927, p.928, p.929), kind=kLoop, calls=fused_broadcast_multiply_select, metadata={op_name="jit(scan)/jit(main)/while/body/jit(_one_step)/vmap(while)/body/while/body/transpose(jvp(vmap(while)))/body/jit(beliefs_propagation)/jit(continuous_node_posterior_update)/jit(posterior_update_precision_continuous_node)/cond/branch_1_fun/jit(precision_update)/mul" source_file="/fs04/fc37/adam/projects/psilocybin-prl-analyses/src/prl_hgf/fitting/hierarchical_patrl.py" source_line=362}
  get-tuple-element.15965 = f64[2,20]{1,0} get-tuple-element(loop_broadcast_multiply_select_fusion), index=2, metadata={op_name="jit(scan)/jit(main)/while/body/jit(_one_step)/vmap(while)/body/while/body/transpose(jvp(vmap(while)))/body/jit(beliefs_propagation)/jit(continuous_node_posterior_update)/jit(posterior_update_precision_continuous_node)/cond/branch_1_fun/jit(precision_update)/mul" source_file="/fs04/fc37/adam/projects/psilocybin-prl-analyses/src/prl_hgf/fitting/hierarchical_patrl.py" source_line=362}
  get-tuple-element.15962 = f64[2,20]{1,0} get-tuple-element(loop_broadcast_multiply_select_fusion), index=1, metadata={op_name="jit(scan)/jit(main)/while/body/jit(_one_step)/vmap(while)/body/while/body/transpose(jvp(vmap(while)))/body/jit(beliefs_propagation)/jit(continuous_node_posterior_update)/jit(posterior_update_precision_continuous_node)/cond/branch_1_fun/jit(precision_update)/mul" source_file="/fs04/fc37/adam/projects/psilocybin-prl-analyses/src/prl_hgf/fitting/hierarchical_patrl.py" source_line=362}
  get-tuple-element.15961 = f64[2,20]{1,0} get-tuple-element(loop_broadcast_multiply_select_fusion), index=0, metadata={op_name="jit(scan)/jit(main)/while/body/jit(_one_step)/vmap(while)/body/while/body/transpose(jvp(vmap(while)))/body/jit(beliefs_propagation)/jit(continuous_node_posterior_update)/jit(posterior_update_precision_continuous_node)/cond/branch_1_fun/jit(precision_update)/mul" source_file="/fs04/fc37/adam/projects/psilocybin-prl-analyses/src/prl_hgf/fitting/hierarchical_patrl.py" source_line=362}
  wrapped_copy.178 = f64[2,20]{1,0} fusion(get-tuple-element.15965), kind=kLoop, calls=wrapped_copy_computation.178
  wrapped_copy.179 = f64[2,20]{1,0} fusion(get-tuple-element.15965), kind=kLoop, calls=wrapped_copy_computation.179
  ROOT tuple.777 = (f64[20,1]{1,0}, f64[20]{0}, f64[2,20]{1,0}, f64[2,20]{1,0}, f64[2,20]{1,0}, /*index=5*/f64[2,20]{1,0}, f64[2,20]{1,0}) tuple(loop_broadcast_fusion.4, loop_broadcast_fusion.3, get-tuple-element.15965, get-tuple-element.15962, get-tuple-element.15961, /*index=5*/wrapped_copy.178, wrapped_copy.179)
} // command_buffer.20

region_30.5243.clone.clone {
  arg_tuple.8.0 = (f64[2,20]{1,0}, f64[], pred[2,20]{1,0}, f64[2,20]{1,0}) parameter(0)
  get-tuple-element.2449.0 = f64[] get-tuple-element(arg_tuple.8.0), index=1
  get-tuple-element.2451.0 = f64[2,20]{1,0} get-tuple-element(arg_tuple.8.0), index=3
  get-tuple-element.2450.0 = pred[2,20]{1,0} get-tuple-element(arg_tuple.8.0), index=2
  get-tuple-element.2448.0 = f64[2,20]{1,0} get-tuple-element(arg_tuple.8.0), index=0
  call.11 = (f64[20,1]{1,0}, f64[20]{0}, f64[2,20]{1,0}, f64[2,20]{1,0}, f64[2,20]{1,0}, /*index=5*/f64[2,20]{1,0}, f64[2,20]{1,0}) call(get-tuple-element.2448.0, get-tuple-element.2449.0, get-tuple-element.2450.0, get-tuple-element.2451.0), to_apply=command_buffer.20
  get-tuple-element.18004 = f64[20,1]{1,0} get-tuple-element(call.11), index=0
  get-tuple-element.18005 = f64[20]{0} get-tuple-element(call.11), index=1
  get-tuple-element.18006 = f64[2,20]{1,0} get-tuple-element(call.11), index=2
  get-tuple-element.18007 = f64[2,20]{1,0} get-tuple-element(call.11), index=3
  get-tuple-element.18008 = f64[2,20]{1,0} get-tuple-element(call.11), index=4
  get-tuple-element.18009 = f64[2,20]{1,0} get-tuple-element(call.11), index=5
  get-tuple-element.18010 = f64[2,20]{1,0} get-tuple-element(call.11), index=6
  ROOT tuple.733 = (f64[20]{0}, f64[2,20]{1,0}, f64[2,20]{1,0}, f64[2,20]{1,0}, f64[2,20]{1,0}, /*index=5*/f64[2,20]{1,0}, f64[20,1]{1,0}) tuple(get-tuple-element.18005, get-tuple-element.18008, get-tuple-element.18007, get-tuple-element.18006, get-tuple-element.18009, /*index=5*/get-tuple-element.18010, get-tuple-element.18004)
} // region_30.5243.clone.clone

fused_add_select {
  param_12.170 = pred[192,2,20]{2,1,0} parameter(12)
  constant_1987_17 = s64[] constant(191)
  param_21.127 = s64[] parameter(21)
  subtract.220.33 = s64[] subtract(constant_1987_17, param_21.127), metadata={op_name="jit(scan)/jit(main)/while/body/jit(_one_step)/vmap(while)/body/while/body/transpose(jvp(vmap(while)))/body/sub" source_file="/fs04/fc37/adam/projects/psilocybin-prl-analyses/src/prl_hgf/fitting/hierarchical_patrl.py" source_line=378}
  constant_1980_8 = s64[] constant(0)
  compare.1131.33 = pred[] compare(subtract.220.33, constant_1980_8), direction=LT, metadata={op_name="jit(scan)/jit(main)/while/body/jit(_one_step)/vmap(while)/body/while/body/transpose(jvp(vmap(while)))/body/lt" source_file="/fs04/fc37/adam/projects/psilocybin-prl-analyses/src/prl_hgf/fitting/hierarchical_patrl.py" source_line=378}
  constant_1988_17 = s64[] constant(383)
  subtract.221.33 = s64[] subtract(constant_1988_17, param_21.127), metadata={op_name="jit(scan)/jit(main)/while/body/jit(_one_step)/vmap(while)/body/while/body/transpose(jvp(vmap(while)))/body/add" source_file="/fs04/fc37/adam/projects/psilocybin-prl-analyses/src/prl_hgf/fitting/hierarchical_patrl.py" source_line=378}
  select.2973.33 = s64[] select(compare.1131.33, subtract.221.33, subtract.220.33), metadata={op_name="jit(scan)/jit(main)/while/body/jit(_one_step)/vmap(while)/body/while/body/transpose(jvp(vmap(while)))/body/select_n" source_file="/fs04/fc37/adam/projects/psilocybin-prl-analyses/src/prl_hgf/fitting/hierarchical_patrl.py" source_line=378}
  dynamic-slice.1237.1 = pred[1,2,20]{2,1,0} dynamic-slice(param_12.170, select.2973.33, constant_1980_8, constant_1980_8), dynamic_slice_sizes={1,2,20}, metadata={op_name="jit(scan)/jit(main)/while/body/jit(_one_step)/vmap(while)/body/while/body/transpose(jvp(vmap(while)))/body/dynamic_slice[slice_sizes=(1, 2, 20)]" source_file="/fs04/fc37/adam/projects/psilocybin-prl-analyses/src/prl_hgf/fitting/hierarchical_patrl.py" source_line=378}
  bitcast.10661.168 = pred[2,20]{1,0} bitcast(dynamic-slice.1237.1)
  param_1.843 = f64[2,20]{1,0} parameter(1)
  constant_1982_22 = f64[] constant(0)
  broadcast.4024.clone.108 = f64[2,20]{1,0} broadcast(constant_1982_22), dimensions={}
  select.3020.3 = f64[2,20]{1,0} select(bitcast.10661.168, param_1.843, broadcast.4024.clone.108), metadata={op_name="jit(scan)/jit(main)/while/body/jit(_one_step)/vmap(while)/body/while/body/transpose(jvp(vmap(while)))/body/jit(_where)/select_n" source_file="/fs04/fc37/adam/projects/psilocybin-prl-analyses/src/prl_hgf/fitting/hierarchical_patrl.py" source_line=370}
  select.3021.3 = f64[2,20]{1,0} select(bitcast.10661.168, broadcast.4024.clone.108, param_1.843), metadata={op_name="jit(scan)/jit(main)/while/body/jit(_one_step)/vmap(while)/body/while/body/transpose(jvp(vmap(while)))/body/jit(_where)/select_n" source_file="/fs04/fc37/adam/projects/psilocybin-prl-analyses/src/prl_hgf/fitting/hierarchical_patrl.py" source_line=370}
  add.4036.1 = f64[2,20]{1,0} add(select.3020.3, select.3021.3), metadata={op_name="jit(scan)/jit(main)/while/body/jit(_one_step)/vmap(while)/body/while/body/transpose(jvp(vmap(while)))/body/add_any" source_file="/fs04/fc37/adam/projects/psilocybin-prl-analyses/src/prl_hgf/fitting/hierarchical_patrl.py" source_line=370}
  param_7.330 = pred[192,2,20]{2,1,0} parameter(7)
  dynamic-slice.1276.6 = pred[1,2,20]{2,1,0} dynamic-slice(param_7.330, select.2973.33, constant_1980_8, constant_1980_8), dynamic_slice_sizes={1,2,20}, metadata={op_name="jit(scan)/jit(main)/while/body/jit(_one_step)/vmap(while)/body/while/body/transpose(jvp(vmap(while)))/body/dynamic_slice[slice_sizes=(1, 2, 20)]" source_file="/fs04/fc37/adam/projects/psilocybin-prl-analyses/src/prl_hgf/fitting/hierarchical_patrl.py" source_line=378}
  bitcast.11553.6 = pred[2,20]{1,0} bitcast(dynamic-slice.1276.6)
  param_6.395 = f64[192,2,20]{2,1,0} parameter(6)
  dynamic-slice.1283.3 = f64[1,2,20]{2,1,0} dynamic-slice(param_6.395, select.2973.33, constant_1980_8, constant_1980_8), dynamic_slice_sizes={1,2,20}, metadata={op_name="jit(scan)/jit(main)/while/body/jit(_one_step)/vmap(while)/body/while/body/transpose(jvp(vmap(while)))/body/dynamic_slice[slice_sizes=(1, 2, 20)]" source_file="/fs04/fc37/adam/projects/psilocybin-prl-analyses/src/prl_hgf/fitting/hierarchical_patrl.py" source_line=378}
  bitcast.11751.7 = f64[2,20]{1,0} bitcast(dynamic-slice.1283.3)
  param_5.419 = s32[192,2,20]{2,1,0} parameter(5)
  dynamic-slice.1246.14 = s32[1,2,20]{2,1,0} dynamic-slice(param_5.419, select.2973.33, constant_1980_8, constant_1980_8), dynamic_slice_sizes={1,2,20}, metadata={op_name="jit(scan)/jit(main)/while/body/jit(_one_step)/vmap(while)/body/while/body/transpose(jvp(vmap(while)))/body/dynamic_slice[slice_sizes=(1, 2, 20)]" source_file="/fs04/fc37/adam/projects/psilocybin-prl-analyses/src/prl_hgf/fitting/hierarchical_patrl.py" source_line=378}
  constant_1985_1 = s32[] constant(0)
  broadcast.4029.9 = s32[1,2,20]{2,1,0} broadcast(constant_1985_1), dimensions={}, metadata={op_name="jit(scan)/jit(main)/while/body/jit(_one_step)/vmap(while)/body/while/body/transpose(jvp(vmap(while)))/body/jit(beliefs_propagation)/jit(continuous_node_posterior_update_ehgf)/jit(posterior_update_precision_continuous_node)/eq" source_file="/fs04/fc37/adam/projects/psilocybin-prl-analyses/src/prl_hgf/fitting/hierarchical_patrl.py" source_line=362}
  compare.1133.9 = pred[1,2,20]{2,1,0} compare(dynamic-slice.1246.14, broadcast.4029.9), direction=EQ, metadata={op_name="jit(scan)/jit(main)/while/body/jit(_one_step)/vmap(while)/body/while/body/transpose(jvp(vmap(while)))/body/jit(beliefs_propagation)/jit(continuous_node_posterior_update_ehgf)/jit(posterior_update_precision_continuous_node)/eq" source_file="/fs04/fc37/adam/projects/psilocybin-prl-analyses/src/prl_hgf/fitting/hierarchical_patrl.py" source_line=362}
  bitcast.11560.13 = pred[2,20]{1,0} bitcast(compare.1133.9)
  param_4.480 = f64[2,20]{1,0} parameter(4)
  select.2983.21 = f64[2,20]{1,0} select(bitcast.10661.168, param_4.480, broadcast.4024.clone.108), metadata={op_name="jit(scan)/jit(main)/while/body/jit(_one_step)/vmap(while)/body/while/body/transpose(jvp(vmap(while)))/body/jit(_where)/select_n" source_file="/fs04/fc37/adam/projects/psilocybin-prl-analyses/src/prl_hgf/env/pat_rl_simulator.py" source_line=92}
  select.3012.13 = f64[2,20]{1,0} select(bitcast.11560.13, select.2983.21, broadcast.4024.clone.108), metadata={op_name="jit(scan)/jit(main)/while/body/jit(_one_step)/vmap(while)/body/while/body/transpose(jvp(vmap(while)))/body/jit(beliefs_propagation)/jit(continuous_node_posterior_update_ehgf)/jit(posterior_update_precision_continuous_node)/select_n" source_file="/fs04/fc37/adam/projects/psilocybin-prl-analyses/src/prl_hgf/fitting/hierarchical_patrl.py" source_line=362}
  param_3.545 = f64[192,2,20]{2,1,0} parameter(3)
  dynamic-slice.1277.9 = f64[1,2,20]{2,1,0} dynamic-slice(param_3.545, select.2973.33, constant_1980_8, constant_1980_8), dynamic_slice_sizes={1,2,20}, metadata={op_name="jit(scan)/jit(main)/while/body/jit(_one_step)/vmap(while)/body/while/body/transpose(jvp(vmap(while)))/body/dynamic_slice[slice_sizes=(1, 2, 20)]" source_file="/fs04/fc37/adam/projects/psilocybin-prl-analyses/src/prl_hgf/fitting/hierarchical_patrl.py" source_line=378}
  bitcast.11574.11 = f64[2,20]{1,0} bitcast(dynamic-slice.1277.9)
  multiply.2939.11 = f64[2,20]{1,0} multiply(select.3012.13, bitcast.11574.11), metadata={op_name="jit(scan)/jit(main)/while/body/jit(_one_step)/vmap(while)/body/while/body/transpose(jvp(vmap(while)))/body/jit(beliefs_propagation)/jit(continuous_node_posterior_update_ehgf)/jit(posterior_update_precision_continuous_node)/jit(precision_update_missing_values)/mul" source_file="/fs04/fc37/adam/projects/psilocybin-prl-analyses/src/prl_hgf/fitting/hierarchical_patrl.py" source_line=362}
  negate.478.9 = f64[2,20]{1,0} negate(multiply.2939.11), metadata={op_name="jit(scan)/jit(main)/while/body/jit(_one_step)/vmap(while)/body/while/body/transpose(jvp(vmap(while)))/body/jit(beliefs_propagation)/jit(continuous_node_posterior_update_ehgf)/jit(posterior_update_precision_continuous_node)/jit(precision_update_missing_values)/neg" source_file="/fs04/fc37/adam/projects/psilocybin-prl-analyses/src/prl_hgf/fitting/hierarchical_patrl.py" source_line=362}
  multiply.2948.7 = f64[2,20]{1,0} multiply(bitcast.11751.7, negate.478.9), metadata={op_name="jit(scan)/jit(main)/while/body/jit(_one_step)/vmap(while)/body/while/body/transpose(jvp(vmap(while)))/body/jit(beliefs_propagation)/jit(continuous_node_posterior_update_ehgf)/jit(posterior_update_precision_continuous_node)/jit(precision_update_missing_values)/mul" source_file="/fs04/fc37/adam/projects/psilocybin-prl-analyses/src/prl_hgf/fitting/hierarchical_patrl.py" source_line=362}
  param_2.768 = f64[192,2,20]{2,1,0} parameter(2)
  dynamic-slice.1284.4 = f64[1,2,20]{2,1,0} dynamic-slice(param_2.768, select.2973.33, constant_1980_8, constant_1980_8), dynamic_slice_sizes={1,2,20}, metadata={op_name="jit(scan)/jit(main)/while/body/jit(_one_step)/vmap(while)/body/while/body/transpose(jvp(vmap(while)))/body/dynamic_slice[slice_sizes=(1, 2, 20)]" source_file="/fs04/fc37/adam/projects/psilocybin-prl-analyses/src/prl_hgf/fitting/hierarchical_patrl.py" source_line=378}
  bitcast.11763.6 = f64[2,20]{1,0} bitcast(dynamic-slice.1284.4)
  multiply.2949.5 = f64[2,20]{1,0} multiply(multiply.2948.7, bitcast.11763.6), metadata={op_name="jit(scan)/jit(main)/while/body/jit(_one_step)/vmap(while)/body/while/body/transpose(jvp(vmap(while)))/body/jit(beliefs_propagation)/jit(continuous_node_posterior_update_ehgf)/jit(posterior_update_precision_continuous_node)/jit(precision_update_missing_values)/mul" source_file="/fs04/fc37/adam/projects/psilocybin-prl-analyses/src/prl_hgf/fitting/hierarchical_patrl.py" source_line=362}
  select.3022.3 = f64[2,20]{1,0} select(bitcast.11553.6, multiply.2949.5, broadcast.4024.clone.108), metadata={op_name="jit(scan)/jit(main)/while/body/jit(_one_step)/vmap(while)/body/while/body/transpose(jvp(vmap(while)))/body/jit(beliefs_propagation)/jit(continuous_node_posterior_update_ehgf)/jit(posterior_update_precision_continuous_node)/select_n" source_file="/fs04/fc37/adam/projects/psilocybin-prl-analyses/src/prl_hgf/fitting/hierarchical_patrl.py" source_line=362}
  param_0.653 = f64[20]{0} parameter(0)
  broadcast.4026.19 = f64[2,20]{1,0} broadcast(param_0.653), dimensions={1}, metadata={op_name="jit(scan)/jit(main)/while/body/jit(_one_step)/vmap(while)/body/while/body/transpose(jvp(vmap(while)))/body/jit(beliefs_propagation)/broadcast_in_dim[shape=(2, 20) broadcast_dimensions=(np.int64(1),)]" source_file="/fs04/fc37/adam/projects/psilocybin-prl-analyses/src/prl_hgf/fitting/hierarchical_patrl.py" source_line=362}
  add.4037.5 = f64[2,20]{1,0} add(select.3022.3, broadcast.4026.19), metadata={op_name="jit(scan)/jit(main)/while/body/jit(_one_step)/vmap(while)/body/while/body/transpose(jvp(vmap(while)))/body/jit(beliefs_propagation)/add_any" source_file="/fs04/fc37/adam/projects/psilocybin-prl-analyses/src/prl_hgf/fitting/hierarchical_patrl.py" source_line=362}
  param_11.180 = pred[192,2,20]{2,1,0} parameter(11)
  dynamic-slice.1285.3 = pred[1,2,20]{2,1,0} dynamic-slice(param_11.180, select.2973.33, constant_1980_8, constant_1980_8), dynamic_slice_sizes={1,2,20}, metadata={op_name="jit(scan)/jit(main)/while/body/jit(_one_step)/vmap(while)/body/while/body/transpose(jvp(vmap(while)))/body/dynamic_slice[slice_sizes=(1, 2, 20)]" source_file="/fs04/fc37/adam/projects/psilocybin-prl-analyses/src/prl_hgf/fitting/hierarchical_patrl.py" source_line=378}
  bitcast.11779.5 = pred[2,20]{1,0} bitcast(dynamic-slice.1285.3)
  param_20.131 = f64[2,20]{1,0} parameter(20)
  select.3014.7 = f64[2,20]{1,0} select(bitcast.10661.168, param_20.131, broadcast.4024.clone.108), metadata={op_name="jit(scan)/jit(main)/while/body/jit(_one_step)/vmap(while)/body/while/body/transpose(jvp(vmap(while)))/body/jit(_where)/select_n" source_file="/fs04/fc37/adam/projects/psilocybin-prl-analyses/src/prl_hgf/env/pat_rl_simulator.py" source_line=92}
  param_19.134 = pred[192,2,20]{2,1,0} parameter(19)
  dynamic-slice.1243.17 = pred[1,2,20]{2,1,0} dynamic-slice(param_19.134, select.2973.33, constant_1980_8, constant_1980_8), dynamic_slice_sizes={1,2,20}, metadata={op_name="jit(scan)/jit(main)/while/body/jit(_one_step)/vmap(while)/body/while/body/transpose(jvp(vmap(while)))/body/dynamic_slice[slice_sizes=(1, 2, 20)]" source_file="/fs04/fc37/adam/projects/psilocybin-prl-analyses/src/prl_hgf/fitting/hierarchical_patrl.py" source_line=378}
  bitcast.10789.21 = pred[2,20]{1,0} bitcast(dynamic-slice.1243.17)
  param_18.137 = pred[192,2,20]{2,1,0} parameter(18)
  dynamic-slice.1245.18 = pred[1,2,20]{2,1,0} dynamic-slice(param_18.137, select.2973.33, constant_1980_8, constant_1980_8), dynamic_slice_sizes={1,2,20}, metadata={op_name="jit(scan)/jit(main)/while/body/jit(_one_step)/vmap(while)/body/while/body/transpose(jvp(vmap(while)))/body/dynamic_slice[slice_sizes=(1, 2, 20)]" source_file="/fs04/fc37/adam/projects/psilocybin-prl-analyses/src/prl_hgf/fitting/hierarchical_patrl.py" source_line=378}
  bitcast.10807.21 = pred[2,20]{1,0} bitcast(dynamic-slice.1245.18)
  constant_1983_1 = s32[] constant(1)
  broadcast.4025.21 = s32[1,2,20]{2,1,0} broadcast(constant_1983_1), dimensions={}
  compare.1132.21 = pred[1,2,20]{2,1,0} compare(dynamic-slice.1246.14, broadcast.4025.21), direction=EQ, metadata={op_name="jit(scan)/jit(main)/while/body/jit(_one_step)/vmap(while)/body/while/body/transpose(jvp(vmap(while)))/body/jit(beliefs_propagation)/jit(continuous_node_posterior_update_ehgf)/jit(posterior_update_precision_continuous_node)/eq" source_file="/fs04/fc37/adam/projects/psilocybin-prl-analyses/src/prl_hgf/fitting/hierarchical_patrl.py" source_line=362}
  bitcast.10819.23 = pred[2,20]{1,0} bitcast(compare.1132.21)
  select.2984.23 = f64[2,20]{1,0} select(bitcast.10819.23, select.2983.21, broadcast.4024.clone.108), metadata={op_name="jit(scan)/jit(main)/while/body/jit(_one_step)/vmap(while)/body/while/body/transpose(jvp(vmap(while)))/body/jit(beliefs_propagation)/jit(continuous_node_posterior_update_ehgf)/jit(posterior_update_precision_continuous_node)/select_n" source_file="/fs04/fc37/adam/projects/psilocybin-prl-analyses/src/prl_hgf/fitting/hierarchical_patrl.py" source_line=362}
  select.2985.21 = f64[2,20]{1,0} select(bitcast.10807.21, select.2984.23, broadcast.4024.clone.108), metadata={op_name="jit(scan)/jit(main)/while/body/jit(_one_step)/vmap(while)/body/while/body/transpose(jvp(vmap(while)))/body/jit(beliefs_propagation)/jit(continuous_node_posterior_update_ehgf)/jit(posterior_update_precision_continuous_node)/jit(precision_update)/jit(_where)/select_n" source_file="/fs04/fc37/adam/projects/psilocybin-prl-analyses/src/prl_hgf/env/pat_rl_simulator.py" source_line=92}
  select.3015.7 = f64[2,20]{1,0} select(bitcast.10789.21, select.2985.21, broadcast.4024.clone.108), metadata={op_name="jit(scan)/jit(main)/while/body/jit(_one_step)/vmap(while)/body/while/body/transpose(jvp(vmap(while)))/body/jit(beliefs_propagation)/jit(continuous_node_posterior_update_ehgf)/jit(posterior_update_precision_continuous_node)/select_n" source_file="/fs04/fc37/adam/projects/psilocybin-prl-analyses/src/prl_hgf/fitting/hierarchical_patrl.py" source_line=362}
  param_17.142 = f64[192,2,20]{2,1,0} parameter(17)
  dynamic-slice.1279.7 = f64[1,2,20]{2,1,0} dynamic-slice(param_17.142, select.2973.33, constant_1980_8, constant_1980_8), dynamic_slice_sizes={1,2,20}, metadata={op_name="jit(scan)/jit(main)/while/body/jit(_one_step)/vmap(while)/body/while/body/transpose(jvp(vmap(while)))/body/dynamic_slice[slice_sizes=(1, 2, 20)]" source_file="/fs04/fc37/adam/projects/psilocybin-prl-analyses/src/prl_hgf/fitting/hierarchical_patrl.py" source_line=378}
  bitcast.11618.11 = f64[2,20]{1,0} bitcast(dynamic-slice.1279.7)
  param_16.153 = f64[2,20]{1,0} parameter(16)
  select.2987.23 = f64[2,20]{1,0} select(bitcast.10661.168, param_16.153, broadcast.4024.clone.108), metadata={op_name="jit(scan)/jit(main)/while/body/jit(_one_step)/vmap(while)/body/while/body/transpose(jvp(vmap(while)))/body/jit(_where)/select_n" source_file="/fs04/fc37/adam/projects/psilocybin-prl-analyses/src/prl_hgf/fitting/hierarchical_patrl.py" source_line=370}
  param_15.153 = f64[192,2,20]{2,1,0} parameter(15)
  dynamic-slice.1247.32 = f64[1,2,20]{2,1,0} dynamic-slice(param_15.153, select.2973.33, constant_1980_8, constant_1980_8), dynamic_slice_sizes={1,2,20}, metadata={op_name="jit(scan)/jit(main)/while/body/jit(_one_step)/vmap(while)/body/while/body/transpose(jvp(vmap(while)))/body/dynamic_slice[slice_sizes=(1, 2, 20)]" source_file="/fs04/fc37/adam/projects/psilocybin-prl-analyses/src/prl_hgf/fitting/hierarchical_patrl.py" source_line=378}
  bitcast.10839.32 = f64[2,20]{1,0} bitcast(dynamic-slice.1247.32)
  multiply.2899.21 = f64[2,20]{1,0} multiply(select.2987.23, bitcast.10839.32), metadata={op_name="jit(scan)/jit(main)/while/body/jit(_one_step)/vmap(while)/body/while/body/transpose(jvp(vmap(while)))/body/jit(beliefs_propagation)/jit(continuous_node_posterior_update_ehgf)/jit(posterior_update_mean_continuous_node)/mul" source_file="/fs04/fc37/adam/projects/psilocybin-prl-analyses/src/prl_hgf/fitting/hierarchical_patrl.py" source_line=362}
  multiply.2941.11 = f64[2,20]{1,0} multiply(bitcast.11618.11, multiply.2899.21), metadata={op_name="jit(scan)/jit(main)/while/body/jit(_one_step)/vmap(while)/body/while/body/transpose(jvp(vmap(while)))/body/jit(beliefs_propagation)/jit(continuous_node_posterior_update_ehgf)/jit(posterior_update_mean_continuous_node)/mul" source_file="/fs04/fc37/adam/projects/psilocybin-prl-analyses/src/prl_hgf/fitting/hierarchical_patrl.py" source_line=362}
  param_14.169 = f64[192,2,20]{2,1,0} parameter(14)
  dynamic-slice.1280.7 = f64[1,2,20]{2,1,0} dynamic-slice(param_14.169, select.2973.33, constant_1980_8, constant_1980_8), dynamic_slice_sizes={1,2,20}, metadata={op_name="jit(scan)/jit(main)/while/body/jit(_one_step)/vmap(while)/body/while/body/transpose(jvp(vmap(while)))/body/dynamic_slice[slice_sizes=(1, 2, 20)]" source_file="/fs04/fc37/adam/projects/psilocybin-prl-analyses/src/prl_hgf/fitting/hierarchical_patrl.py" source_line=378}
  bitcast.11630.9 = f64[2,20]{1,0} bitcast(dynamic-slice.1280.7)
  multiply.2942.9 = f64[2,20]{1,0} multiply(multiply.2941.11, bitcast.11630.9), metadata={op_name="jit(scan)/jit(main)/while/body/jit(_one_step)/vmap(while)/body/while/body/transpose(jvp(vmap(while)))/body/jit(beliefs_propagation)/jit(continuous_node_posterior_update_ehgf)/jit(posterior_update_mean_continuous_node)/mul" source_file="/fs04/fc37/adam/projects/psilocybin-prl-analyses/src/prl_hgf/fitting/hierarchical_patrl.py" source_line=362}
  negate.480.7 = f64[2,20]{1,0} negate(multiply.2942.9), metadata={op_name="jit(scan)/jit(main)/while/body/jit(_one_step)/vmap(while)/body/while/body/transpose(jvp(vmap(while)))/body/jit(beliefs_propagation)/jit(continuous_node_posterior_update_ehgf)/jit(posterior_update_mean_continuous_node)/neg" source_file="/fs04/fc37/adam/projects/psilocybin-prl-analyses/src/prl_hgf/fitting/hierarchical_patrl.py" source_line=362}
  constant_1986_1 = f64[] constant(2)
  broadcast.4030.5 = f64[2,20]{1,0} broadcast(constant_1986_1), dimensions={}
  multiply.2943.5 = f64[2,20]{1,0} multiply(negate.480.7, broadcast.4030.5), metadata={op_name="jit(scan)/jit(main)/while/body/jit(_one_step)/vmap(while)/body/while/body/transpose(jvp(vmap(while)))/body/jit(beliefs_propagation)/jit(continuous_node_posterior_update_ehgf)/jit(posterior_update_mean_continuous_node)/mul" source_file="/fs04/fc37/adam/projects/psilocybin-prl-analyses/src/prl_hgf/fitting/hierarchical_patrl.py" source_line=362}
  add.4025.5 = f64[2,20]{1,0} add(select.3015.7, multiply.2943.5), metadata={op_name="jit(scan)/jit(main)/while/body/jit(_one_step)/vmap(while)/body/while/body/transpose(jvp(vmap(while)))/body/jit(beliefs_propagation)/jit(continuous_node_posterior_update_ehgf)/add_any" source_file="/fs04/fc37/adam/projects/psilocybin-prl-analyses/src/prl_hgf/fitting/hierarchical_patrl.py" source_line=362}
  add.4026.5 = f64[2,20]{1,0} add(select.3014.7, add.4025.5), metadata={op_name="jit(scan)/jit(main)/while/body/jit(_one_step)/vmap(while)/body/while/body/transpose(jvp(vmap(while)))/body/jit(beliefs_propagation)/add_any" source_file="/fs04/fc37/adam/projects/psilocybin-prl-analyses/src/prl_hgf/fitting/hierarchical_patrl.py" source_line=362}
  add.4027.7 = f64[2,20]{1,0} add(add.4026.5, broadcast.4026.19), metadata={op_name="jit(scan)/jit(main)/while/body/jit(_one_step)/vmap(while)/body/while/body/transpose(jvp(vmap(while)))/body/jit(beliefs_propagation)/add_any" source_file="/fs04/fc37/adam/projects/psilocybin-prl-analyses/src/prl_hgf/fitting/hierarchical_patrl.py" source_line=362}
  param_13.180 = f64[192,2,20]{2,1,0} parameter(13)
  dynamic-slice.1281.7 = f64[1,2,20]{2,1,0} dynamic-slice(param_13.180, select.2973.33, constant_1980_8, constant_1980_8), dynamic_slice_sizes={1,2,20}, metadata={op_name="jit(scan)/jit(main)/while/body/jit(_one_step)/vmap(while)/body/while/body/transpose(jvp(vmap(while)))/body/dynamic_slice[slice_sizes=(1, 2, 20)]" source_file="/fs04/fc37/adam/projects/psilocybin-prl-analyses/src/prl_hgf/fitting/hierarchical_patrl.py" source_line=378}
  bitcast.11649.7 = f64[2,20]{1,0} bitcast(dynamic-slice.1281.7)
  param_9.237 = f64[2,20]{1,0} parameter(9)
  select.3016.15 = f64[2,20]{1,0} select(bitcast.10661.168, param_9.237, broadcast.4024.clone.108), metadata={op_name="jit(scan)/jit(main)/while/body/jit(_one_step)/vmap(while)/body/while/body/transpose(jvp(vmap(while)))/body/jit(_where)/select_n" source_file="/fs04/fc37/adam/projects/psilocybin-prl-analyses/src/prl_hgf/env/pat_rl_simulator.py" source_line=92}
  add.4028.13 = f64[2,20]{1,0} add(select.3016.15, broadcast.4026.19), metadata={op_name="jit(scan)/jit(main)/while/body/jit(_one_step)/vmap(while)/body/while/body/transpose(jvp(vmap(while)))/body/jit(beliefs_propagation)/add_any" source_file="/fs04/fc37/adam/projects/psilocybin-prl-analyses/src/prl_hgf/fitting/hierarchical_patrl.py" source_line=362}
  multiply.2944.7 = f64[2,20]{1,0} multiply(bitcast.11649.7, add.4028.13), metadata={op_name="jit(scan)/jit(main)/while/body/jit(_one_step)/vmap(while)/body/while/body/transpose(jvp(vmap(while)))/body/jit(beliefs_propagation)/jit(continuous_node_prediction)/jit(predict_precision)/mul" source_file="/fs04/fc37/adam/projects/psilocybin-prl-analyses/src/prl_hgf/fitting/hierarchical_patrl.py" source_line=362}
  add.4029.5 = f64[2,20]{1,0} add(add.4027.7, multiply.2944.7), metadata={op_name="jit(scan)/jit(main)/while/body/jit(_one_step)/vmap(while)/body/while/body/transpose(jvp(vmap(while)))/body/jit(beliefs_propagation)/jit(continuous_node_prediction)/jit(predict_precision)/add_any" source_file="/fs04/fc37/adam/projects/psilocybin-prl-analyses/src/prl_hgf/fitting/hierarchical_patrl.py" source_line=362}
  param_10.207 = f64[192,2,20]{2,1,0} parameter(10)
  dynamic-slice.1282.9 = f64[1,2,20]{2,1,0} dynamic-slice(param_10.207, select.2973.33, constant_1980_8, constant_1980_8), dynamic_slice_sizes={1,2,20}, metadata={op_name="jit(scan)/jit(main)/while/body/jit(_one_step)/vmap(while)/body/while/body/transpose(jvp(vmap(while)))/body/dynamic_slice[slice_sizes=(1, 2, 20)]" source_file="/fs04/fc37/adam/projects/psilocybin-prl-analyses/src/prl_hgf/fitting/hierarchical_patrl.py" source_line=378}
  bitcast.11672.11 = f64[2,20]{1,0} bitcast(dynamic-slice.1282.9)
  multiply.2945.11 = f64[2,20]{1,0} multiply(add.4029.5, bitcast.11672.11), metadata={op_name="jit(scan)/jit(main)/while/body/jit(_one_step)/vmap(while)/body/while/body/transpose(jvp(vmap(while)))/body/jit(beliefs_propagation)/jit(continuous_node_prediction)/jit(predict_precision)/mul" source_file="/fs04/fc37/adam/projects/psilocybin-prl-analyses/src/prl_hgf/fitting/hierarchical_patrl.py" source_line=362}
  negate.481.9 = f64[2,20]{1,0} negate(multiply.2945.11), metadata={op_name="jit(scan)/jit(main)/while/body/jit(_one_step)/vmap(while)/body/while/body/transpose(jvp(vmap(while)))/body/jit(beliefs_propagation)/jit(continuous_node_prediction)/jit(predict_precision)/neg" source_file="/fs04/fc37/adam/projects/psilocybin-prl-analyses/src/prl_hgf/fitting/hierarchical_patrl.py" source_line=362}
  param_8.273 = f64[192,2,20]{2,1,0} parameter(8)
  dynamic-slice.1286.3 = f64[1,2,20]{2,1,0} dynamic-slice(param_8.273, select.2973.33, constant_1980_8, constant_1980_8), dynamic_slice_sizes={1,2,20}, metadata={op_name="jit(scan)/jit(main)/while/body/jit(_one_step)/vmap(while)/body/while/body/transpose(jvp(vmap(while)))/body/dynamic_slice[slice_sizes=(1, 2, 20)]" source_file="/fs04/fc37/adam/projects/psilocybin-prl-analyses/src/prl_hgf/fitting/hierarchical_patrl.py" source_line=378}
  bitcast.11792.7 = f64[2,20]{1,0} bitcast(dynamic-slice.1286.3)
  multiply.2950.7 = f64[2,20]{1,0} multiply(add.4028.13, bitcast.11792.7), metadata={op_name="jit(scan)/jit(main)/while/body/jit(_one_step)/vmap(while)/body/while/body/transpose(jvp(vmap(while)))/body/jit(beliefs_propagation)/jit(continuous_node_prediction)/jit(predict_precision)/mul" source_file="/fs04/fc37/adam/projects/psilocybin-prl-analyses/src/prl_hgf/fitting/hierarchical_patrl.py" source_line=362}
  add.4038.5 = f64[2,20]{1,0} add(negate.481.9, multiply.2950.7), metadata={op_name="jit(scan)/jit(main)/while/body/jit(_one_step)/vmap(while)/body/while/body/transpose(jvp(vmap(while)))/body/jit(beliefs_propagation)/jit(continuous_node_prediction)/jit(predict_precision)/add_any" source_file="/fs04/fc37/adam/projects/psilocybin-prl-analyses/src/prl_hgf/fitting/hierarchical_patrl.py" source_line=362}
  select.3023.5 = f64[2,20]{1,0} select(bitcast.11779.5, add.4038.5, broadcast.4024.clone.108), metadata={op_name="jit(scan)/jit(main)/while/body/jit(_one_step)/vmap(while)/body/while/body/transpose(jvp(vmap(while)))/body/jit(beliefs_propagation)/jit(continuous_node_posterior_update_ehgf)/jit(posterior_update_precision_continuous_node)/jit(precision_update)/jit(_where)/select_n" source_file="/fs04/fc37/adam/projects/psilocybin-prl-analyses/src/prl_hgf/env/pat_rl_simulator.py" source_line=92}
  multiply.2951.3 = f64[2,20]{1,0} multiply(select.3023.5, bitcast.11763.6), metadata={op_name="jit(scan)/jit(main)/while/body/jit(_one_step)/vmap(while)/body/while/body/transpose(jvp(vmap(while)))/body/jit(beliefs_propagation)/jit(continuous_node_prediction)/jit(predict_precision)/mul" source_file="/fs04/fc37/adam/projects/psilocybin-prl-analyses/src/prl_hgf/fitting/hierarchical_patrl.py" source_line=362}
  add.4039.3 = f64[2,20]{1,0} add(add.4037.5, multiply.2951.3), metadata={op_name="jit(scan)/jit(main)/while/body/jit(_one_step)/vmap(while)/body/while/body/transpose(jvp(vmap(while)))/body/jit(beliefs_propagation)/add_any" source_file="/fs04/fc37/adam/projects/psilocybin-prl-analyses/src/prl_hgf/fitting/hierarchical_patrl.py" source_line=362}
  add.4041.1 = f64[2,20]{1,0} add(add.4036.1, add.4039.3), metadata={op_name="jit(scan)/jit(main)/while/body/jit(_one_step)/vmap(while)/body/while/body/transpose(jvp(vmap(while)))/body/add_any" source_file="/fs04/fc37/adam/projects/psilocybin-prl-analyses/src/prl_hgf/fitting/hierarchical_patrl.py" source_line=362}
  select.3011.3.clone.1 = f64[2,20]{1,0} select(bitcast.10661.168, broadcast.4024.clone.108, param_4.480), metadata={op_name="jit(scan)/jit(main)/while/body/jit(_one_step)/vmap(while)/body/while/body/transpose(jvp(vmap(while)))/body/jit(_where)/select_n" source_file="/fs04/fc37/adam/projects/psilocybin-prl-analyses/src/prl_hgf/env/pat_rl_simulator.py" source_line=92}
  param_23.765 = f64[192,2,20]{2,1,0} parameter(23)
  dynamic-slice.1278.7.clone.1 = f64[1,2,20]{2,1,0} dynamic-slice(param_23.765, select.2973.33, constant_1980_8, constant_1980_8), dynamic_slice_sizes={1,2,20}, metadata={op_name="jit(scan)/jit(main)/while/body/jit(_one_step)/vmap(while)/body/while/body/transpose(jvp(vmap(while)))/body/dynamic_slice[slice_sizes=(1, 2, 20)]" source_file="/fs04/fc37/adam/projects/psilocybin-prl-analyses/src/prl_hgf/fitting/hierarchical_patrl.py" source_line=378}
  bitcast.11585.15.clone.1 = f64[2,20]{1,0} bitcast(dynamic-slice.1278.7.clone.1)
  multiply.2940.7.clone.1 = f64[2,20]{1,0} multiply(negate.478.9, bitcast.11585.15.clone.1), metadata={op_name="jit(scan)/jit(main)/while/body/jit(_one_step)/vmap(while)/body/while/body/transpose(jvp(vmap(while)))/body/jit(beliefs_propagation)/jit(continuous_node_posterior_update_ehgf)/jit(posterior_update_precision_continuous_node)/jit(precision_update_missing_values)/mul" source_file="/fs04/fc37/adam/projects/psilocybin-prl-analyses/src/prl_hgf/fitting/hierarchical_patrl.py" source_line=362}
  negate.479.5.clone.1 = f64[2,20]{1,0} negate(multiply.2940.7.clone.1), metadata={op_name="jit(scan)/jit(main)/while/body/jit(_one_step)/vmap(while)/body/while/body/transpose(jvp(vmap(while)))/body/jit(beliefs_propagation)/jit(continuous_node_posterior_update_ehgf)/jit(posterior_update_precision_continuous_node)/jit(precision_update_missing_values)/neg" source_file="/fs04/fc37/adam/projects/psilocybin-prl-analyses/src/prl_hgf/fitting/hierarchical_patrl.py" source_line=362}
  select.3013.3.clone.1 = f64[2,20]{1,0} select(bitcast.11553.6, negate.479.5.clone.1, broadcast.4024.clone.108), metadata={op_name="jit(scan)/jit(main)/while/body/jit(_one_step)/vmap(while)/body/while/body/transpose(jvp(vmap(while)))/body/jit(beliefs_propagation)/jit(continuous_node_posterior_update_ehgf)/jit(posterior_update_precision_continuous_node)/select_n" source_file="/fs04/fc37/adam/projects/psilocybin-prl-analyses/src/prl_hgf/fitting/hierarchical_patrl.py" source_line=362}
  add.4024.5.clone.1 = f64[2,20]{1,0} add(select.3013.3.clone.1, broadcast.4026.19), metadata={op_name="jit(scan)/jit(main)/while/body/jit(_one_step)/vmap(while)/body/while/body/transpose(jvp(vmap(while)))/body/jit(beliefs_propagation)/add_any" source_file="/fs04/fc37/adam/projects/psilocybin-prl-analyses/src/prl_hgf/fitting/hierarchical_patrl.py" source_line=362}
  multiply.2946.5.clone.1 = f64[2,20]{1,0} multiply(negate.481.9, bitcast.11585.15.clone.1), metadata={op_name="jit(scan)/jit(main)/while/body/jit(_one_step)/vmap(while)/body/while/body/transpose(jvp(vmap(while)))/body/jit(beliefs_propagation)/jit(continuous_node_prediction)/jit(predict_precision)/mul" source_file="/fs04/fc37/adam/projects/psilocybin-prl-analyses/src/prl_hgf/fitting/hierarchical_patrl.py" source_line=362}
  negate.482.3.clone.1 = f64[2,20]{1,0} negate(multiply.2946.5.clone.1), metadata={op_name="jit(scan)/jit(main)/while/body/jit(_one_step)/vmap(while)/body/while/body/transpose(jvp(vmap(while)))/body/jit(beliefs_propagation)/jit(continuous_node_prediction)/jit(predict_precision)/neg" source_file="/fs04/fc37/adam/projects/psilocybin-prl-analyses/src/prl_hgf/fitting/hierarchical_patrl.py" source_line=362}
  param_22.797 = f64[2,20]{1,0} parameter(22)
  select.3017.5.clone.1 = f64[2,20]{1,0} select(bitcast.10661.168, param_22.797, broadcast.4024.clone.108), metadata={op_name="jit(scan)/jit(main)/while/body/jit(_one_step)/vmap(while)/body/while/body/transpose(jvp(vmap(while)))/body/jit(_where)/select_n" source_file="/fs04/fc37/adam/projects/psilocybin-prl-analyses/src/prl_hgf/fitting/hierarchical_patrl.py" source_line=370}
  add.4031.5.clone.1 = f64[2,20]{1,0} add(select.3017.5.clone.1, broadcast.4026.19), metadata={op_name="jit(scan)/jit(main)/while/body/jit(_one_step)/vmap(while)/body/while/body/transpose(jvp(vmap(while)))/body/jit(beliefs_propagation)/add_any" source_file="/fs04/fc37/adam/projects/psilocybin-prl-analyses/src/prl_hgf/fitting/hierarchical_patrl.py" source_line=362}
  multiply.2947.5.clone.1 = f64[2,20]{1,0} multiply(add.4031.5.clone.1, bitcast.11585.15.clone.1), metadata={op_name="jit(scan)/jit(main)/while/body/jit(_one_step)/vmap(while)/body/while/body/transpose(jvp(vmap(while)))/body/jit(beliefs_propagation)/jit(continuous_node_prediction)/mul" source_file="/fs04/fc37/adam/projects/psilocybin-prl-analyses/src/prl_hgf/fitting/hierarchical_patrl.py" source_line=362}
  negate.483.3.clone.1 = f64[2,20]{1,0} negate(multiply.2947.5.clone.1), metadata={op_name="jit(scan)/jit(main)/while/body/jit(_one_step)/vmap(while)/body/while/body/transpose(jvp(vmap(while)))/body/jit(beliefs_propagation)/jit(continuous_node_prediction)/neg" source_file="/fs04/fc37/adam/projects/psilocybin-prl-analyses/src/prl_hgf/fitting/hierarchical_patrl.py" source_line=362}
  add.4032.1.clone.1 = f64[2,20]{1,0} add(negate.482.3.clone.1, negate.483.3.clone.1), metadata={op_name="jit(scan)/jit(main)/while/body/jit(_one_step)/vmap(while)/body/while/body/transpose(jvp(vmap(while)))/body/jit(beliefs_propagation)/jit(continuous_node_prediction)/add_any" source_file="/fs04/fc37/adam/projects/psilocybin-prl-analyses/src/prl_hgf/fitting/hierarchical_patrl.py" source_line=362}
  add.4033.3.clone.1 = f64[2,20]{1,0} add(add.4024.5.clone.1, add.4032.1.clone.1), metadata={op_name="jit(scan)/jit(main)/while/body/jit(_one_step)/vmap(while)/body/while/body/transpose(jvp(vmap(while)))/body/jit(beliefs_propagation)/add_any" source_file="/fs04/fc37/adam/projects/psilocybin-prl-analyses/src/prl_hgf/fitting/hierarchical_patrl.py" source_line=362}
  add.4034.1.clone.1 = f64[2,20]{1,0} add(select.3011.3.clone.1, add.4033.3.clone.1), metadata={op_name="jit(scan)/jit(main)/while/body/jit(_one_step)/vmap(while)/body/while/body/transpose(jvp(vmap(while)))/body/add_any" source_file="/fs04/fc37/adam/projects/psilocybin-prl-analyses/src/prl_hgf/fitting/hierarchical_patrl.py" source_line=362}
  select.3019.1.clone.1 = f64[2,20]{1,0} select(bitcast.10661.168, broadcast.4024.clone.108, param_9.237), metadata={op_name="jit(scan)/jit(main)/while/body/jit(_one_step)/vmap(while)/body/while/body/transpose(jvp(vmap(while)))/body/jit(_where)/select_n" source_file="/fs04/fc37/adam/projects/psilocybin-prl-analyses/src/prl_hgf/env/pat_rl_simulator.py" source_line=92}
  select.3018.1.clone.1 = f64[2,20]{1,0} select(bitcast.10661.168, broadcast.4024.clone.108, param_22.797), metadata={op_name="jit(scan)/jit(main)/while/body/jit(_one_step)/vmap(while)/body/while/body/transpose(jvp(vmap(while)))/body/jit(_where)/select_n" source_file="/fs04/fc37/adam/projects/psilocybin-prl-analyses/src/prl_hgf/fitting/hierarchical_patrl.py" source_line=370}
  select.3008.1.clone.1 = f64[2,20]{1,0} select(bitcast.10661.168, broadcast.4024.clone.108, param_20.131), metadata={op_name="jit(scan)/jit(main)/while/body/jit(_one_step)/vmap(while)/body/while/body/transpose(jvp(vmap(while)))/body/jit(_where)/select_n" source_file="/fs04/fc37/adam/projects/psilocybin-prl-analyses/src/prl_hgf/env/pat_rl_simulator.py" source_line=92}
  param_49.118 = f64[2,20]{1,0} parameter(49)
  param_50.107 = f64[192,2,20]{2,1,0} parameter(50)
  dynamic-slice.1238.5.clone.1.clone.1 = f64[1,2,20]{2,1,0} dynamic-slice(param_50.107, select.2973.33, constant_1980_8, constant_1980_8), dynamic_slice_sizes={1,2,20}, metadata={op_name="jit(scan)/jit(main)/while/body/jit(_one_step)/vmap(while)/body/while/body/transpose(jvp(vmap(while)))/body/dynamic_slice[slice_sizes=(1, 2, 20)]" source_file="/fs04/fc37/adam/projects/psilocybin-prl-analyses/src/prl_hgf/fitting/hierarchical_patrl.py" source_line=378}
  bitcast.10728.5.clone.1.clone.1 = f64[2,20]{1,0} bitcast(dynamic-slice.1238.5.clone.1.clone.1)
  add.3975.5.clone.1.clone.1 = f64[2,20]{1,0} add(param_49.118, bitcast.10728.5.clone.1.clone.1), metadata={op_name="jit(scan)/jit(main)/while/body/jit(_one_step)/vmap(while)/body/while/body/transpose(jvp(vmap(while)))/body/add_any" source_file="/fs04/fc37/adam/projects/psilocybin-prl-analyses/src/prl_hgf/fitting/hierarchical_patrl.py" source_line=378}
  select.2980.3.clone.1.clone.1 = f64[2,20]{1,0} select(bitcast.10661.168, broadcast.4024.clone.108, add.3975.5.clone.1.clone.1), metadata={op_name="jit(scan)/jit(main)/while/body/jit(_one_step)/vmap(while)/body/while/body/transpose(jvp(vmap(while)))/body/jit(_where)/select_n" source_file="/fs04/fc37/adam/projects/psilocybin-prl-analyses/src/prl_hgf/env/pat_rl_simulator.py" source_line=92}
  param_48.119 = f64[192,2,20]{2,1,0} parameter(48)
  dynamic-slice.1257.2.clone.1.clone.1 = f64[1,2,20]{2,1,0} dynamic-slice(param_48.119, select.2973.33, constant_1980_8, constant_1980_8), dynamic_slice_sizes={1,2,20}, metadata={op_name="jit(scan)/jit(main)/while/body/jit(_one_step)/vmap(while)/body/while/body/transpose(jvp(vmap(while)))/body/dynamic_slice[slice_sizes=(1, 2, 20)]" source_file="/fs04/fc37/adam/projects/psilocybin-prl-analyses/src/prl_hgf/fitting/hierarchical_patrl.py" source_line=378}
  bitcast.11005.8.clone.1.clone.1 = f64[2,20]{1,0} bitcast(dynamic-slice.1257.2.clone.1.clone.1)
  param_47.133 = f64[2,20]{1,0} parameter(47)
  select.2990.7.clone.1.clone.1 = f64[2,20]{1,0} select(bitcast.10661.168, param_47.133, broadcast.4024.clone.108), metadata={op_name="jit(scan)/jit(main)/while/body/jit(_one_step)/vmap(while)/body/while/body/transpose(jvp(vmap(while)))/body/jit(_where)/select_n" source_file="/fs04/fc37/adam/projects/psilocybin-prl-analyses/src/prl_hgf/env/pat_rl_simulator.py" source_line=92}
  param_46.141 = f64[2,20]{1,0} parameter(46)
  select.2989.5.clone.1.clone.1 = f64[2,20]{1,0} select(bitcast.10661.168, param_46.141, broadcast.4024.clone.108), metadata={op_name="jit(scan)/jit(main)/while/body/jit(_one_step)/vmap(while)/body/while/body/transpose(jvp(vmap(while)))/body/jit(_where)/select_n" source_file="/fs04/fc37/adam/projects/psilocybin-prl-analyses/src/prl_hgf/env/pat_rl_simulator.py" source_line=92}
  param_45.139 = f64[192,2,20]{2,1,0} parameter(45)
  dynamic-slice.1252.5.clone.1.clone.1 = f64[1,2,20]{2,1,0} dynamic-slice(param_45.139, select.2973.33, constant_1980_8, constant_1980_8), dynamic_slice_sizes={1,2,20}, metadata={op_name="jit(scan)/jit(main)/while/body/jit(_one_step)/vmap(while)/body/while/body/transpose(jvp(vmap(while)))/body/dynamic_slice[slice_sizes=(1, 2, 20)]" source_file="/fs04/fc37/adam/projects/psilocybin-prl-analyses/src/prl_hgf/fitting/hierarchical_patrl.py" source_line=378}
  bitcast.10911.19.clone.1.clone.1 = f64[2,20]{1,0} bitcast(dynamic-slice.1252.5.clone.1.clone.1)
  param_44.130 = f64[2,20]{1,0} parameter(44)
  select.2982.5.clone.1.clone.1 = f64[2,20]{1,0} select(bitcast.10661.168, param_44.130, broadcast.4024.clone.108), metadata={op_name="jit(scan)/jit(main)/while/body/jit(_one_step)/vmap(while)/body/while/body/transpose(jvp(vmap(while)))/body/jit(_where)/select_n" source_file="/fs04/fc37/adam/projects/psilocybin-prl-analyses/src/prl_hgf/env/pat_rl_simulator.py" source_line=92}
  param_43.119 = f64[192,2,20]{2,1,0} parameter(43)
  dynamic-slice.1244.3.clone.1.clone.1 = f64[1,2,20]{2,1,0} dynamic-slice(param_43.119, select.2973.33, constant_1980_8, constant_1980_8), dynamic_slice_sizes={1,2,20}, metadata={op_name="jit(scan)/jit(main)/while/body/jit(_one_step)/vmap(while)/body/while/body/transpose(jvp(vmap(while)))/body/dynamic_slice[slice_sizes=(1, 2, 20)]" source_file="/fs04/fc37/adam/projects/psilocybin-prl-analyses/src/prl_hgf/fitting/hierarchical_patrl.py" source_line=378}
  bitcast.10798.7.clone.1.clone.1 = f64[2,20]{1,0} bitcast(dynamic-slice.1244.3.clone.1.clone.1)
  multiply.2896.9.clone.1.clone.1 = f64[2,20]{1,0} multiply(select.2985.21, bitcast.10839.32), metadata={op_name="jit(scan)/jit(main)/while/body/jit(_one_step)/vmap(while)/body/while/body/transpose(jvp(vmap(while)))/body/jit(beliefs_propagation)/jit(continuous_node_posterior_update_ehgf)/jit(posterior_update_precision_continuous_node)/jit(precision_update)/mul" source_file="/fs04/fc37/adam/projects/psilocybin-prl-analyses/src/prl_hgf/fitting/hierarchical_patrl.py" source_line=362}
  negate.468.10.clone.1.clone.1 = f64[2,20]{1,0} negate(multiply.2896.9.clone.1.clone.1), metadata={op_name="jit(scan)/jit(main)/while/body/jit(_one_step)/vmap(while)/body/while/body/transpose(jvp(vmap(while)))/body/jit(beliefs_propagation)/jit(continuous_node_posterior_update_ehgf)/jit(posterior_update_precision_continuous_node)/jit(precision_update)/neg" source_file="/fs04/fc37/adam/projects/psilocybin-prl-analyses/src/prl_hgf/fitting/hierarchical_patrl.py" source_line=362}
  multiply.2897.7.clone.1.clone.1 = f64[2,20]{1,0} multiply(bitcast.10798.7.clone.1.clone.1, negate.468.10.clone.1.clone.1), metadata={op_name="jit(scan)/jit(main)/while/body/jit(_one_step)/vmap(while)/body/while/body/transpose(jvp(vmap(while)))/body/jit(beliefs_propagation)/jit(continuous_node_posterior_update_ehgf)/jit(posterior_update_precision_continuous_node)/jit(precision_update)/mul" source_file="/fs04/fc37/adam/projects/psilocybin-prl-analyses/src/prl_hgf/fitting/hierarchical_patrl.py" source_line=362}
  param_42.120 = f64[192,2,20]{2,1,0} parameter(42)
  dynamic-slice.1248.3.clone.1.clone.1 = f64[1,2,20]{2,1,0} dynamic-slice(param_42.120, select.2973.33, constant_1980_8, constant_1980_8), dynamic_slice_sizes={1,2,20}, metadata={op_name="jit(scan)/jit(main)/while/body/jit(_one_step)/vmap(while)/body/while/body/transpose(jvp(vmap(while)))/body/dynamic_slice[slice_sizes=(1, 2, 20)]" source_file="/fs04/fc37/adam/projects/psilocybin-prl-analyses/src/prl_hgf/fitting/hierarchical_patrl.py" source_line=378}
  bitcast.10851.5.clone.1.clone.1 = f64[2,20]{1,0} bitcast(dynamic-slice.1248.3.clone.1.clone.1)
  multiply.2898.5.clone.1.clone.1 = f64[2,20]{1,0} multiply(bitcast.10851.5.clone.1.clone.1, multiply.2896.9.clone.1.clone.1), metadata={op_name="jit(scan)/jit(main)/while/body/jit(_one_step)/vmap(while)/body/while/body/transpose(jvp(vmap(while)))/body/jit(beliefs_propagation)/jit(continuous_node_posterior_update_ehgf)/jit(posterior_update_precision_continuous_node)/jit(precision_update)/mul" source_file="/fs04/fc37/adam/projects/psilocybin-prl-analyses/src/prl_hgf/fitting/hierarchical_patrl.py" source_line=362}
  add.3976.5.clone.1.clone.1 = f64[2,20]{1,0} add(multiply.2897.7.clone.1.clone.1, multiply.2898.5.clone.1.clone.1), metadata={op_name="jit(scan)/jit(main)/while/body/jit(_one_step)/vmap(while)/body/while/body/transpose(jvp(vmap(while)))/body/jit(beliefs_propagation)/jit(continuous_node_posterior_update_ehgf)/jit(posterior_update_precision_continuous_node)/jit(precision_update)/add_any" source_file="/fs04/fc37/adam/projects/psilocybin-prl-analyses/src/prl_hgf/fitting/hierarchical_patrl.py" source_line=362}
  select.2986.7.clone.1.clone.1 = f64[2,20]{1,0} select(bitcast.10789.21, add.3976.5.clone.1.clone.1, broadcast.4024.clone.108), metadata={op_name="jit(scan)/jit(main)/while/body/jit(_one_step)/vmap(while)/body/while/body/transpose(jvp(vmap(while)))/body/jit(beliefs_propagation)/jit(continuous_node_posterior_update_ehgf)/jit(posterior_update_precision_continuous_node)/select_n" source_file="/fs04/fc37/adam/projects/psilocybin-prl-analyses/src/prl_hgf/fitting/hierarchical_patrl.py" source_line=362}
  param_41.128 = f64[192,2,20]{2,1,0} parameter(41)
  dynamic-slice.1249.3.clone.1.clone.1 = f64[1,2,20]{2,1,0} dynamic-slice(param_41.128, select.2973.33, constant_1980_8, constant_1980_8), dynamic_slice_sizes={1,2,20}, metadata={op_name="jit(scan)/jit(main)/while/body/jit(_one_step)/vmap(while)/body/while/body/transpose(jvp(vmap(while)))/body/dynamic_slice[slice_sizes=(1, 2, 20)]" source_file="/fs04/fc37/adam/projects/psilocybin-prl-analyses/src/prl_hgf/fitting/hierarchical_patrl.py" source_line=378}
  bitcast.10865.5.clone.1.clone.1 = f64[2,20]{1,0} bitcast(dynamic-slice.1249.3.clone.1.clone.1)
  param_40.142 = f64[192,2,20]{2,1,0} parameter(40)
  dynamic-slice.1250.9.clone.1.clone.1 = f64[1,2,20]{2,1,0} dynamic-slice(param_40.142, select.2973.33, constant_1980_8, constant_1980_8), dynamic_slice_sizes={1,2,20}, metadata={op_name="jit(scan)/jit(main)/while/body/jit(_one_step)/vmap(while)/body/while/body/transpose(jvp(vmap(while)))/body/dynamic_slice[slice_sizes=(1, 2, 20)]" source_file="/fs04/fc37/adam/projects/psilocybin-prl-analyses/src/prl_hgf/fitting/hierarchical_patrl.py" source_line=378}
  bitcast.10888.9.clone.1.clone.1 = f64[2,20]{1,0} bitcast(dynamic-slice.1250.9.clone.1.clone.1)
  multiply.2900.9.clone.1.clone.1 = f64[2,20]{1,0} multiply(multiply.2899.21, bitcast.10888.9.clone.1.clone.1), metadata={op_name="jit(scan)/jit(main)/while/body/jit(_one_step)/vmap(while)/body/while/body/transpose(jvp(vmap(while)))/body/jit(beliefs_propagation)/jit(continuous_node_posterior_update_ehgf)/jit(posterior_update_mean_continuous_node)/mul" source_file="/fs04/fc37/adam/projects/psilocybin-prl-analyses/src/prl_hgf/fitting/hierarchical_patrl.py" source_line=362}
  multiply.2901.5.clone.1.clone.1 = f64[2,20]{1,0} multiply(bitcast.10865.5.clone.1.clone.1, multiply.2900.9.clone.1.clone.1), metadata={op_name="jit(scan)/jit(main)/while/body/jit(_one_step)/vmap(while)/body/while/body/transpose(jvp(vmap(while)))/body/jit(beliefs_propagation)/jit(continuous_node_posterior_update_ehgf)/jit(posterior_update_mean_continuous_node)/mul" source_file="/fs04/fc37/adam/projects/psilocybin-prl-analyses/src/prl_hgf/fitting/hierarchical_patrl.py" source_line=362}
  add.3977.5.clone.1.clone.1 = f64[2,20]{1,0} add(select.2986.7.clone.1.clone.1, multiply.2901.5.clone.1.clone.1), metadata={op_name="jit(scan)/jit(main)/while/body/jit(_one_step)/vmap(while)/body/while/body/transpose(jvp(vmap(while)))/body/jit(beliefs_propagation)/jit(continuous_node_posterior_update_ehgf)/add_any" source_file="/fs04/fc37/adam/projects/psilocybin-prl-analyses/src/prl_hgf/fitting/hierarchical_patrl.py" source_line=362}
  add.3978.3.clone.1.clone.1 = f64[2,20]{1,0} add(select.2982.5.clone.1.clone.1, add.3977.5.clone.1.clone.1), metadata={op_name="jit(scan)/jit(main)/while/body/jit(_one_step)/vmap(while)/body/while/body/transpose(jvp(vmap(while)))/body/jit(beliefs_propagation)/add_any" source_file="/fs04/fc37/adam/projects/psilocybin-prl-analyses/src/prl_hgf/fitting/hierarchical_patrl.py" source_line=362}
  multiply.2904.7.clone.1.clone.1 = f64[2,20]{1,0} multiply(bitcast.10911.19.clone.1.clone.1, add.3978.3.clone.1.clone.1), metadata={op_name="jit(scan)/jit(main)/while/body/jit(_one_step)/vmap(while)/body/while/body/transpose(jvp(vmap(while)))/body/jit(beliefs_propagation)/jit(continuous_node_prediction_error)/jit(continuous_node_volatility_prediction_error)/mul" source_file="/fs04/fc37/adam/projects/psilocybin-prl-analyses/src/prl_hgf/fitting/hierarchical_patrl.py" source_line=362}
  param_39.161 = f64[192,2,20]{2,1,0} parameter(39)
  dynamic-slice.1253.3.clone.1.clone.1 = f64[1,2,20]{2,1,0} dynamic-slice(param_39.161, select.2973.33, constant_1980_8, constant_1980_8), dynamic_slice_sizes={1,2,20}, metadata={op_name="jit(scan)/jit(main)/while/body/jit(_one_step)/vmap(while)/body/while/body/transpose(jvp(vmap(while)))/body/dynamic_slice[slice_sizes=(1, 2, 20)]" source_file="/fs04/fc37/adam/projects/psilocybin-prl-analyses/src/prl_hgf/fitting/hierarchical_patrl.py" source_line=378}
  bitcast.10948.5.clone.1.clone.1 = f64[2,20]{1,0} bitcast(dynamic-slice.1253.3.clone.1.clone.1)
  multiply.2905.5.clone.1.clone.1 = f64[2,20]{1,0} multiply(multiply.2904.7.clone.1.clone.1, bitcast.10948.5.clone.1.clone.1), metadata={op_name="jit(scan)/jit(main)/while/body/jit(_one_step)/vmap(while)/body/while/body/transpose(jvp(vmap(while)))/body/jit(beliefs_propagation)/jit(continuous_node_prediction_error)/jit(continuous_node_volatility_prediction_error)/mul" source_file="/fs04/fc37/adam/projects/psilocybin-prl-analyses/src/prl_hgf/fitting/hierarchical_patrl.py" source_line=362}
  add.3980.3.clone.1.clone.1 = f64[2,20]{1,0} add(select.2989.5.clone.1.clone.1, multiply.2905.5.clone.1.clone.1), metadata={op_name="jit(scan)/jit(main)/while/body/jit(_one_step)/vmap(while)/body/while/body/transpose(jvp(vmap(while)))/body/jit(beliefs_propagation)/jit(continuous_node_prediction_error)/add_any" source_file="/fs04/fc37/adam/projects/psilocybin-prl-analyses/src/prl_hgf/fitting/hierarchical_patrl.py" source_line=362}
  negate.471.1.clone.1.clone.1 = f64[2,20]{1,0} negate(add.3980.3.clone.1.clone.1), metadata={op_name="jit(scan)/jit(main)/while/body/jit(_one_step)/vmap(while)/body/while/body/transpose(jvp(vmap(while)))/body/jit(beliefs_propagation)/jit(continuous_node_prediction_error)/jit(continuous_node_value_prediction_error)/neg" source_file="/fs04/fc37/adam/projects/psilocybin-prl-analyses/src/prl_hgf/fitting/hierarchical_patrl.py" source_line=362}
  add.3983.5.clone.1.clone.1 = f64[2,20]{1,0} add(select.2990.7.clone.1.clone.1, negate.471.1.clone.1.clone.1), metadata={op_name="jit(scan)/jit(main)/while/body/jit(_one_step)/vmap(while)/body/while/body/transpose(jvp(vmap(while)))/body/jit(beliefs_propagation)/add_any" source_file="/fs04/fc37/adam/projects/psilocybin-prl-analyses/src/prl_hgf/fitting/hierarchical_patrl.py" source_line=362}
  select.2988.5.clone.1.clone.1 = f64[2,20]{1,0} select(bitcast.10661.168, add.3975.5.clone.1.clone.1, broadcast.4024.clone.108), metadata={op_name="jit(scan)/jit(main)/while/body/jit(_one_step)/vmap(while)/body/while/body/transpose(jvp(vmap(while)))/body/jit(_where)/select_n" source_file="/fs04/fc37/adam/projects/psilocybin-prl-analyses/src/prl_hgf/env/pat_rl_simulator.py" source_line=92}
  add.3981.3.clone.1.clone.1 = f64[2,20]{1,0} add(select.2988.5.clone.1.clone.1, add.3980.3.clone.1.clone.1), metadata={op_name="jit(scan)/jit(main)/while/body/jit(_one_step)/vmap(while)/body/while/body/transpose(jvp(vmap(while)))/body/jit(beliefs_propagation)/add_any" source_file="/fs04/fc37/adam/projects/psilocybin-prl-analyses/src/prl_hgf/fitting/hierarchical_patrl.py" source_line=362}
  add.3984.9.clone.1.clone.1 = f64[2,20]{1,0} add(add.3981.3.clone.1.clone.1, broadcast.4026.19), metadata={op_name="jit(scan)/jit(main)/while/body/jit(_one_step)/vmap(while)/body/while/body/transpose(jvp(vmap(while)))/body/jit(beliefs_propagation)/jit(continuous_node_posterior_update)/add_any" source_file="/fs04/fc37/adam/projects/psilocybin-prl-analyses/src/prl_hgf/fitting/hierarchical_patrl.py" source_line=362}
  add.3985.7.clone.1.clone.1 = f64[2,20]{1,0} add(add.3983.5.clone.1.clone.1, add.3984.9.clone.1.clone.1), metadata={op_name="jit(scan)/jit(main)/while/body/jit(_one_step)/vmap(while)/body/while/body/transpose(jvp(vmap(while)))/body/jit(beliefs_propagation)/add_any" source_file="/fs04/fc37/adam/projects/psilocybin-prl-analyses/src/prl_hgf/fitting/hierarchical_patrl.py" source_line=362}
  param_38.167 = f64[2,20]{1,0} parameter(38)
  select.2991.11.clone.1.clone.1 = f64[2,20]{1,0} select(bitcast.10661.168, param_38.167, broadcast.4024.clone.108), metadata={op_name="jit(scan)/jit(main)/while/body/jit(_one_step)/vmap(while)/body/while/body/transpose(jvp(vmap(while)))/body/jit(_where)/select_n" source_file="/fs04/fc37/adam/projects/psilocybin-prl-analyses/src/prl_hgf/env/pat_rl_simulator.py" source_line=92}
  add.3986.15.clone.1.clone.1 = f64[2,20]{1,0} add(select.2991.11.clone.1.clone.1, broadcast.4026.19), metadata={op_name="jit(scan)/jit(main)/while/body/jit(_one_step)/vmap(while)/body/while/body/transpose(jvp(vmap(while)))/body/jit(beliefs_propagation)/add_any" source_file="/fs04/fc37/adam/projects/psilocybin-prl-analyses/src/prl_hgf/fitting/hierarchical_patrl.py" source_line=362}
  param_37.189 = f64[2,20]{1,0} parameter(37)
  select.2992.3.clone.1.clone.1 = f64[2,20]{1,0} select(bitcast.10661.168, param_37.189, broadcast.4024.clone.108), metadata={op_name="jit(scan)/jit(main)/while/body/jit(_one_step)/vmap(while)/body/while/body/transpose(jvp(vmap(while)))/body/jit(_where)/select_n" source_file="/fs04/fc37/adam/projects/psilocybin-prl-analyses/src/prl_hgf/env/pat_rl_simulator.py" source_line=92}
  param_36.203 = f64[192,2,20]{2,1,0} parameter(36)
  dynamic-slice.1258.3.clone.1.clone.1 = f64[1,2,20]{2,1,0} dynamic-slice(param_36.203, select.2973.33, constant_1980_8, constant_1980_8), dynamic_slice_sizes={1,2,20}, metadata={op_name="jit(scan)/jit(main)/while/body/jit(_one_step)/vmap(while)/body/while/body/transpose(jvp(vmap(while)))/body/dynamic_slice[slice_sizes=(1, 2, 20)]" source_file="/fs04/fc37/adam/projects/psilocybin-prl-analyses/src/prl_hgf/fitting/hierarchical_patrl.py" source_line=378}
  bitcast.11054.3.clone.1.clone.1 = f64[2,20]{1,0} bitcast(dynamic-slice.1258.3.clone.1.clone.1)
  multiply.2909.3.clone.1.clone.1 = f64[2,20]{1,0} multiply(bitcast.11054.3.clone.1.clone.1, add.3981.3.clone.1.clone.1), metadata={op_name="jit(scan)/jit(main)/while/body/jit(_one_step)/vmap(while)/body/while/body/transpose(jvp(vmap(while)))/body/jit(beliefs_propagation)/jit(continuous_node_posterior_update)/jit(posterior_update_mean_continuous_node)/mul" source_file="/fs04/fc37/adam/projects/psilocybin-prl-analyses/src/prl_hgf/fitting/hierarchical_patrl.py" source_line=362}
  param_35.206 = f64[192]{0} parameter(35)
  dynamic-slice.1241.1.clone.1.clone.1 = f64[1]{0} dynamic-slice(param_35.206, select.2973.33), dynamic_slice_sizes={1}, metadata={op_name="jit(scan)/jit(main)/while/body/jit(_one_step)/vmap(while)/body/while/body/transpose(jvp(vmap(while)))/body/dynamic_slice[slice_sizes=(1,)]" source_file="/fs04/fc37/adam/projects/psilocybin-prl-analyses/src/prl_hgf/fitting/hierarchical_patrl.py" source_line=378}
  bitcast.10983.3.clone.1.clone.1 = f64[] bitcast(dynamic-slice.1241.1.clone.1.clone.1)
  broadcast.4027.3.clone.1.clone.1 = f64[2,20]{1,0} broadcast(bitcast.10983.3.clone.1.clone.1), dimensions={}, metadata={op_name="jit(scan)/jit(main)/while/body/jit(_one_step)/vmap(while)/body/while/body/transpose(jvp(vmap(while)))/body/jit(beliefs_propagation)/jit(continuous_node_posterior_update)/jit(posterior_update_mean_continuous_node)/mul" source_file="/fs04/fc37/adam/projects/psilocybin-prl-analyses/src/prl_hgf/fitting/hierarchical_patrl.py" source_line=362}
  multiply.2910.5.clone.1.clone.1 = f64[2,20]{1,0} multiply(multiply.2909.3.clone.1.clone.1, broadcast.4027.3.clone.1.clone.1), metadata={op_name="jit(scan)/jit(main)/while/body/jit(_one_step)/vmap(while)/body/while/body/transpose(jvp(vmap(while)))/body/jit(beliefs_propagation)/jit(continuous_node_posterior_update)/jit(posterior_update_mean_continuous_node)/mul" source_file="/fs04/fc37/adam/projects/psilocybin-prl-analyses/src/prl_hgf/fitting/hierarchical_patrl.py" source_line=362}
  add.3987.7.clone.1.clone.1 = f64[2,20]{1,0} add(multiply.2910.5.clone.1.clone.1, broadcast.4026.19), metadata={op_name="jit(scan)/jit(main)/while/body/jit(_one_step)/vmap(while)/body/while/body/transpose(jvp(vmap(while)))/body/jit(beliefs_propagation)/jit(continuous_node_posterior_update)/add_any" source_file="/fs04/fc37/adam/projects/psilocybin-prl-analyses/src/prl_hgf/fitting/hierarchical_patrl.py" source_line=362}
  add.3988.5.clone.1.clone.1 = f64[2,20]{1,0} add(select.2992.3.clone.1.clone.1, add.3987.7.clone.1.clone.1), metadata={op_name="jit(scan)/jit(main)/while/body/jit(_one_step)/vmap(while)/body/while/body/transpose(jvp(vmap(while)))/body/jit(beliefs_propagation)/add_any" source_file="/fs04/fc37/adam/projects/psilocybin-prl-analyses/src/prl_hgf/fitting/hierarchical_patrl.py" source_line=362}
  param_34.218 = f64[192,2,20]{2,1,0} parameter(34)
  dynamic-slice.1259.3.clone.1.clone.1 = f64[1,2,20]{2,1,0} dynamic-slice(param_34.218, select.2973.33, constant_1980_8, constant_1980_8), dynamic_slice_sizes={1,2,20}, metadata={op_name="jit(scan)/jit(main)/while/body/jit(_one_step)/vmap(while)/body/while/body/transpose(jvp(vmap(while)))/body/dynamic_slice[slice_sizes=(1, 2, 20)]" source_file="/fs04/fc37/adam/projects/psilocybin-prl-analyses/src/prl_hgf/fitting/hierarchical_patrl.py" source_line=378}
  bitcast.11076.20.clone.1.clone.1 = f64[2,20]{1,0} bitcast(dynamic-slice.1259.3.clone.1.clone.1)
  divide.596.13.clone.1.clone.1 = f64[2,20]{1,0} divide(add.3988.5.clone.1.clone.1, bitcast.11076.20.clone.1.clone.1), metadata={op_name="jit(scan)/jit(main)/while/body/jit(_one_step)/vmap(while)/body/while/body/transpose(jvp(vmap(while)))/body/jit(beliefs_propagation)/jit(binary_state_node_prediction_error)/div" source_file="/fs04/fc37/adam/projects/psilocybin-prl-analyses/src/prl_hgf/fitting/hierarchical_patrl.py" source_line=362}
  multiply.2911.11.clone.1.clone.1 = f64[2,20]{1,0} multiply(divide.596.13.clone.1.clone.1, broadcast.4027.3.clone.1.clone.1), metadata={op_name="jit(scan)/jit(main)/while/body/jit(_one_step)/vmap(while)/body/while/body/transpose(jvp(vmap(while)))/body/jit(beliefs_propagation)/jit(binary_state_node_prediction_error)/mul" source_file="/fs04/fc37/adam/projects/psilocybin-prl-analyses/src/prl_hgf/fitting/hierarchical_patrl.py" source_line=362}
  negate.472.9.clone.1.clone.1 = f64[2,20]{1,0} negate(multiply.2911.11.clone.1.clone.1), metadata={op_name="jit(scan)/jit(main)/while/body/jit(_one_step)/vmap(while)/body/while/body/transpose(jvp(vmap(while)))/body/jit(beliefs_propagation)/jit(binary_state_node_prediction_error)/neg" source_file="/fs04/fc37/adam/projects/psilocybin-prl-analyses/src/prl_hgf/fitting/hierarchical_patrl.py" source_line=362}
  add.3989.13.clone.1.clone.1 = f64[2,20]{1,0} add(add.3986.15.clone.1.clone.1, negate.472.9.clone.1.clone.1), metadata={op_name="jit(scan)/jit(main)/while/body/jit(_one_step)/vmap(while)/body/while/body/transpose(jvp(vmap(while)))/body/jit(beliefs_propagation)/add_any" source_file="/fs04/fc37/adam/projects/psilocybin-prl-analyses/src/prl_hgf/fitting/hierarchical_patrl.py" source_line=362}
  param_33.198 = f64[192,2,20]{2,1,0} parameter(33)
  dynamic-slice.1260.11.clone.1.clone.1 = f64[1,2,20]{2,1,0} dynamic-slice(param_33.198, select.2973.33, constant_1980_8, constant_1980_8), dynamic_slice_sizes={1,2,20}, metadata={op_name="jit(scan)/jit(main)/while/body/jit(_one_step)/vmap(while)/body/while/body/transpose(jvp(vmap(while)))/body/dynamic_slice[slice_sizes=(1, 2, 20)]" source_file="/fs04/fc37/adam/projects/psilocybin-prl-analyses/src/prl_hgf/fitting/hierarchical_patrl.py" source_line=378}
  bitcast.11089.13.clone.1.clone.1 = f64[2,20]{1,0} bitcast(dynamic-slice.1260.11.clone.1.clone.1)
  param_32.187 = f64[2,20]{1,0} parameter(32)
  select.2993.7.clone.1.clone.1 = f64[2,20]{1,0} select(bitcast.10661.168, param_32.187, broadcast.4024.clone.108), metadata={op_name="jit(scan)/jit(main)/while/body/jit(_one_step)/vmap(while)/body/while/body/transpose(jvp(vmap(while)))/body/jit(_where)/select_n" source_file="/fs04/fc37/adam/projects/psilocybin-prl-analyses/src/prl_hgf/env/pat_rl_simulator.py" source_line=92}
  param_31.192 = f64[2,20]{1,0} parameter(31)
  select.2994.7.clone.1.clone.1 = f64[2,20]{1,0} select(bitcast.10661.168, param_31.192, broadcast.4024.clone.108), metadata={op_name="jit(scan)/jit(main)/while/body/jit(_one_step)/vmap(while)/body/while/body/transpose(jvp(vmap(while)))/body/jit(_where)/select_n" source_file="/fs04/fc37/adam/projects/psilocybin-prl-analyses/src/prl_hgf/env/pat_rl_simulator.py" source_line=92}
  add.3990.5.clone.1.clone.1 = f64[2,20]{1,0} add(select.2993.7.clone.1.clone.1, select.2994.7.clone.1.clone.1), metadata={op_name="jit(scan)/jit(main)/while/body/jit(_one_step)/vmap(while)/body/while/body/transpose(jvp(vmap(while)))/body/jit(beliefs_propagation)/add_any" source_file="/fs04/fc37/adam/projects/psilocybin-prl-analyses/src/prl_hgf/fitting/hierarchical_patrl.py" source_line=362}
  param_30.214 = f64[192,2,20]{2,1,0} parameter(30)
  dynamic-slice.1261.4.clone.1.clone.1 = f64[1,2,20]{2,1,0} dynamic-slice(param_30.214, select.2973.33, constant_1980_8, constant_1980_8), dynamic_slice_sizes={1,2,20}, metadata={op_name="jit(scan)/jit(main)/while/body/jit(_one_step)/vmap(while)/body/while/body/transpose(jvp(vmap(while)))/body/dynamic_slice[slice_sizes=(1, 2, 20)]" source_file="/fs04/fc37/adam/projects/psilocybin-prl-analyses/src/prl_hgf/fitting/hierarchical_patrl.py" source_line=378}
  bitcast.11117.14.clone.1.clone.1 = f64[2,20]{1,0} bitcast(dynamic-slice.1261.4.clone.1.clone.1)
  param_29.321 = f64[192,2,20]{2,1,0} parameter(29)
  dynamic-slice.1254.7.clone.1.clone.1 = f64[1,2,20]{2,1,0} dynamic-slice(param_29.321, select.2973.33, constant_1980_8, constant_1980_8), dynamic_slice_sizes={1,2,20}, metadata={op_name="jit(scan)/jit(main)/while/body/jit(_one_step)/vmap(while)/body/while/body/transpose(jvp(vmap(while)))/body/dynamic_slice[slice_sizes=(1, 2, 20)]" source_file="/fs04/fc37/adam/projects/psilocybin-prl-analyses/src/prl_hgf/fitting/hierarchical_patrl.py" source_line=378}
  bitcast.10960.7.clone.1.clone.1 = f64[2,20]{1,0} bitcast(dynamic-slice.1254.7.clone.1.clone.1)
  multiply.2906.7.clone.1.clone.1 = f64[2,20]{1,0} multiply(add.3981.3.clone.1.clone.1, bitcast.10960.7.clone.1.clone.1), metadata={op_name="jit(scan)/jit(main)/while/body/jit(_one_step)/vmap(while)/body/while/body/transpose(jvp(vmap(while)))/body/jit(beliefs_propagation)/jit(continuous_node_posterior_update)/jit(posterior_update_mean_continuous_node)/mul" source_file="/fs04/fc37/adam/projects/psilocybin-prl-analyses/src/prl_hgf/fitting/hierarchical_patrl.py" source_line=362}
  param_28.395 = f64[192,2,20]{2,1,0} parameter(28)
  dynamic-slice.1262.6.clone.1.clone.1 = f64[1,2,20]{2,1,0} dynamic-slice(param_28.395, select.2973.33, constant_1980_8, constant_1980_8), dynamic_slice_sizes={1,2,20}, metadata={op_name="jit(scan)/jit(main)/while/body/jit(_one_step)/vmap(while)/body/while/body/transpose(jvp(vmap(while)))/body/dynamic_slice[slice_sizes=(1, 2, 20)]" source_file="/fs04/fc37/adam/projects/psilocybin-prl-analyses/src/prl_hgf/fitting/hierarchical_patrl.py" source_line=378}
  bitcast.11128.22.clone.1.clone.1 = f64[2,20]{1,0} bitcast(dynamic-slice.1262.6.clone.1.clone.1)
  divide.597.11.clone.1.clone.1 = f64[2,20]{1,0} divide(multiply.2906.7.clone.1.clone.1, bitcast.11128.22.clone.1.clone.1), metadata={op_name="jit(scan)/jit(main)/while/body/jit(_one_step)/vmap(while)/body/while/body/transpose(jvp(vmap(while)))/body/jit(beliefs_propagation)/jit(continuous_node_posterior_update)/jit(posterior_update_mean_continuous_node)/div" source_file="/fs04/fc37/adam/projects/psilocybin-prl-analyses/src/prl_hgf/fitting/hierarchical_patrl.py" source_line=362}
  multiply.2912.9.clone.1.clone.1 = f64[2,20]{1,0} multiply(bitcast.11117.14.clone.1.clone.1, divide.597.11.clone.1.clone.1), metadata={op_name="jit(scan)/jit(main)/while/body/jit(_one_step)/vmap(while)/body/while/body/transpose(jvp(vmap(while)))/body/jit(beliefs_propagation)/jit(continuous_node_posterior_update)/jit(posterior_update_mean_continuous_node)/mul" source_file="/fs04/fc37/adam/projects/psilocybin-prl-analyses/src/prl_hgf/fitting/hierarchical_patrl.py" source_line=362}
  param_27.494 = f64[2,20]{1,0} parameter(27)
  add.3991.7.clone.1.clone.1 = f64[2,20]{1,0} add(multiply.2912.9.clone.1.clone.1, param_27.494), metadata={op_name="jit(scan)/jit(main)/while/body/jit(_one_step)/vmap(while)/body/while/body/transpose(jvp(vmap(while)))/body/jit(beliefs_propagation)/jit(continuous_node_posterior_update)/add_any" source_file="/fs04/fc37/adam/projects/psilocybin-prl-analyses/src/prl_hgf/fitting/hierarchical_patrl.py" source_line=362}
  add.3992.5.clone.1.clone.1 = f64[2,20]{1,0} add(add.3990.5.clone.1.clone.1, add.3991.7.clone.1.clone.1), metadata={op_name="jit(scan)/jit(main)/while/body/jit(_one_step)/vmap(while)/body/while/body/transpose(jvp(vmap(while)))/body/jit(beliefs_propagation)/add_any" source_file="/fs04/fc37/adam/projects/psilocybin-prl-analyses/src/prl_hgf/fitting/hierarchical_patrl.py" source_line=362}
  add.3993.5.clone.1.clone.1 = f64[2,20]{1,0} add(add.3992.5.clone.1.clone.1, broadcast.4026.19), metadata={op_name="jit(scan)/jit(main)/while/body/jit(_one_step)/vmap(while)/body/while/body/transpose(jvp(vmap(while)))/body/jit(beliefs_propagation)/add_any" source_file="/fs04/fc37/adam/projects/psilocybin-prl-analyses/src/prl_hgf/fitting/hierarchical_patrl.py" source_line=362}
  param_26.498 = f64[192,2,20]{2,1,0} parameter(26)
  dynamic-slice.1263.3.clone.1.clone.1 = f64[1,2,20]{2,1,0} dynamic-slice(param_26.498, select.2973.33, constant_1980_8, constant_1980_8), dynamic_slice_sizes={1,2,20}, metadata={op_name="jit(scan)/jit(main)/while/body/jit(_one_step)/vmap(while)/body/while/body/transpose(jvp(vmap(while)))/body/dynamic_slice[slice_sizes=(1, 2, 20)]" source_file="/fs04/fc37/adam/projects/psilocybin-prl-analyses/src/prl_hgf/fitting/hierarchical_patrl.py" source_line=378}
  bitcast.11148.9.clone.1.clone.1 = f64[2,20]{1,0} bitcast(dynamic-slice.1263.3.clone.1.clone.1)
  multiply.2913.9.clone.1.clone.1 = f64[2,20]{1,0} multiply(add.3988.5.clone.1.clone.1, bitcast.11148.9.clone.1.clone.1), metadata={op_name="jit(scan)/jit(main)/while/body/jit(_one_step)/vmap(while)/body/while/body/transpose(jvp(vmap(while)))/body/jit(beliefs_propagation)/jit(binary_state_node_prediction_error)/mul" source_file="/fs04/fc37/adam/projects/psilocybin-prl-analyses/src/prl_hgf/fitting/hierarchical_patrl.py" source_line=362}
  param_25.552 = f64[192,2,20]{2,1,0} parameter(25)
  dynamic-slice.1264.3.clone.1.clone.1 = f64[1,2,20]{2,1,0} dynamic-slice(param_25.552, select.2973.33, constant_1980_8, constant_1980_8), dynamic_slice_sizes={1,2,20}, metadata={op_name="jit(scan)/jit(main)/while/body/jit(_one_step)/vmap(while)/body/while/body/transpose(jvp(vmap(while)))/body/dynamic_slice[slice_sizes=(1, 2, 20)]" source_file="/fs04/fc37/adam/projects/psilocybin-prl-analyses/src/prl_hgf/fitting/hierarchical_patrl.py" source_line=378}
  bitcast.11158.7.clone.1.clone.1 = f64[2,20]{1,0} bitcast(dynamic-slice.1264.3.clone.1.clone.1)
  multiply.2914.7.clone.1.clone.1 = f64[2,20]{1,0} multiply(multiply.2913.9.clone.1.clone.1, bitcast.11158.7.clone.1.clone.1), metadata={op_name="jit(scan)/jit(main)/while/body/jit(_one_step)/vmap(while)/body/while/body/transpose(jvp(vmap(while)))/body/jit(beliefs_propagation)/jit(binary_state_node_prediction_error)/mul" source_file="/fs04/fc37/adam/projects/psilocybin-prl-analyses/src/prl_hgf/fitting/hierarchical_patrl.py" source_line=362}
  negate.473.5.clone.1.clone.1 = f64[2,20]{1,0} negate(multiply.2914.7.clone.1.clone.1), metadata={op_name="jit(scan)/jit(main)/while/body/jit(_one_step)/vmap(while)/body/while/body/transpose(jvp(vmap(while)))/body/jit(beliefs_propagation)/jit(binary_state_node_prediction_error)/neg" source_file="/fs04/fc37/adam/projects/psilocybin-prl-analyses/src/prl_hgf/fitting/hierarchical_patrl.py" source_line=362}
  add.3994.3.clone.1.clone.1 = f64[2,20]{1,0} add(add.3993.5.clone.1.clone.1, negate.473.5.clone.1.clone.1), metadata={op_name="jit(scan)/jit(main)/while/body/jit(_one_step)/vmap(while)/body/while/body/transpose(jvp(vmap(while)))/body/jit(beliefs_propagation)/add_any" source_file="/fs04/fc37/adam/projects/psilocybin-prl-analyses/src/prl_hgf/fitting/hierarchical_patrl.py" source_line=362}
  multiply.2915.13.clone.1.clone.1 = f64[2,20]{1,0} multiply(bitcast.11089.13.clone.1.clone.1, add.3994.3.clone.1.clone.1), metadata={op_name="jit(scan)/jit(main)/while/body/jit(_one_step)/vmap(while)/body/while/body/transpose(jvp(vmap(while)))/body/jit(beliefs_propagation)/jit(binary_state_node_prediction)/mul" source_file="/fs04/fc37/adam/projects/psilocybin-prl-analyses/src/prl_hgf/fitting/hierarchical_patrl.py" source_line=362}
  negate.474.11.clone.1.clone.1 = f64[2,20]{1,0} negate(multiply.2915.13.clone.1.clone.1), metadata={op_name="jit(scan)/jit(main)/while/body/jit(_one_step)/vmap(while)/body/while/body/transpose(jvp(vmap(while)))/body/jit(beliefs_propagation)/jit(binary_state_node_prediction)/neg" source_file="/fs04/fc37/adam/projects/psilocybin-prl-analyses/src/prl_hgf/fitting/hierarchical_patrl.py" source_line=362}
  add.3995.11.clone.1.clone.1 = f64[2,20]{1,0} add(add.3989.13.clone.1.clone.1, negate.474.11.clone.1.clone.1), metadata={op_name="jit(scan)/jit(main)/while/body/jit(_one_step)/vmap(while)/body/while/body/transpose(jvp(vmap(while)))/body/jit(beliefs_propagation)/jit(binary_state_node_prediction)/add_any" source_file="/fs04/fc37/adam/projects/psilocybin-prl-analyses/src/prl_hgf/fitting/hierarchical_patrl.py" source_line=362}
  param_24.688 = f64[192,2,20]{2,1,0} parameter(24)
  dynamic-slice.1265.11.clone.1.clone.1 = f64[1,2,20]{2,1,0} dynamic-slice(param_24.688, select.2973.33, constant_1980_8, constant_1980_8), dynamic_slice_sizes={1,2,20}, metadata={op_name="jit(scan)/jit(main)/while/body/jit(_one_step)/vmap(while)/body/while/body/transpose(jvp(vmap(while)))/body/dynamic_slice[slice_sizes=(1, 2, 20)]" source_file="/fs04/fc37/adam/projects/psilocybin-prl-analyses/src/prl_hgf/fitting/hierarchical_patrl.py" source_line=378}
  bitcast.11175.11.clone.1.clone.1 = f64[2,20]{1,0} bitcast(dynamic-slice.1265.11.clone.1.clone.1)
  multiply.2916.11.clone.1.clone.1 = f64[2,20]{1,0} multiply(add.3994.3.clone.1.clone.1, bitcast.11175.11.clone.1.clone.1), metadata={op_name="jit(scan)/jit(main)/while/body/jit(_one_step)/vmap(while)/body/while/body/transpose(jvp(vmap(while)))/body/jit(beliefs_propagation)/jit(binary_state_node_prediction)/mul" source_file="/fs04/fc37/adam/projects/psilocybin-prl-analyses/src/prl_hgf/fitting/hierarchical_patrl.py" source_line=362}
  add.3996.9.clone.1.clone.1 = f64[2,20]{1,0} add(add.3995.11.clone.1.clone.1, multiply.2916.11.clone.1.clone.1), metadata={op_name="jit(scan)/jit(main)/while/body/jit(_one_step)/vmap(while)/body/while/body/transpose(jvp(vmap(while)))/body/jit(beliefs_propagation)/jit(binary_state_node_prediction)/add_any" source_file="/fs04/fc37/adam/projects/psilocybin-prl-analyses/src/prl_hgf/fitting/hierarchical_patrl.py" source_line=362}
  multiply.2917.7.clone.1.clone.1 = f64[2,20]{1,0} multiply(add.3996.9.clone.1.clone.1, bitcast.11076.20.clone.1.clone.1), metadata={op_name="jit(scan)/jit(main)/while/body/jit(_one_step)/vmap(while)/body/while/body/transpose(jvp(vmap(while)))/body/jit(beliefs_propagation)/jit(binary_state_node_prediction)/mul" source_file="/fs04/fc37/adam/projects/psilocybin-prl-analyses/src/prl_hgf/fitting/hierarchical_patrl.py" source_line=362}
  add.3997.5.clone.1.clone.1 = f64[2,20]{1,0} add(add.3985.7.clone.1.clone.1, multiply.2917.7.clone.1.clone.1), metadata={op_name="jit(scan)/jit(main)/while/body/jit(_one_step)/vmap(while)/body/while/body/transpose(jvp(vmap(while)))/body/jit(beliefs_propagation)/add_any" source_file="/fs04/fc37/adam/projects/psilocybin-prl-analyses/src/prl_hgf/fitting/hierarchical_patrl.py" source_line=362}
  multiply.2918.3.clone.1.clone.1 = f64[2,20]{1,0} multiply(bitcast.11005.8.clone.1.clone.1, add.3997.5.clone.1.clone.1), metadata={op_name="jit(scan)/jit(main)/while/body/jit(_one_step)/vmap(while)/body/while/body/transpose(jvp(vmap(while)))/body/jit(beliefs_propagation)/jit(continuous_node_prediction)/jit(predict_mean)/mul" source_file="/fs04/fc37/adam/projects/psilocybin-prl-analyses/src/prl_hgf/fitting/hierarchical_patrl.py" source_line=362}
  add.3998.3.clone.1.clone.1 = f64[2,20]{1,0} add(broadcast.4026.19, multiply.2918.3.clone.1.clone.1), metadata={op_name="jit(scan)/jit(main)/while/body/jit(_one_step)/vmap(while)/body/while/body/transpose(jvp(vmap(while)))/body/jit(beliefs_propagation)/add_any" source_file="/fs04/fc37/adam/projects/psilocybin-prl-analyses/src/prl_hgf/fitting/hierarchical_patrl.py" source_line=362}
  add.3999.1.clone.1.clone.1 = f64[2,20]{1,0} add(select.2980.3.clone.1.clone.1, add.3998.3.clone.1.clone.1), metadata={op_name="jit(scan)/jit(main)/while/body/jit(_one_step)/vmap(while)/body/while/body/transpose(jvp(vmap(while)))/body/add_any" source_file="/fs04/fc37/adam/projects/psilocybin-prl-analyses/src/prl_hgf/fitting/hierarchical_patrl.py" source_line=362}
  param_51.106 = f64[2,20]{1,0} parameter(51)
  select.3000.1.clone.1.clone.1 = f64[2,20]{1,0} select(bitcast.10661.168, broadcast.4024.clone.108, param_51.106), metadata={op_name="jit(scan)/jit(main)/while/body/jit(_one_step)/vmap(while)/body/while/body/transpose(jvp(vmap(while)))/body/jit(_where)/select_n" source_file="/fs04/fc37/adam/projects/psilocybin-prl-analyses/src/prl_hgf/fitting/hierarchical_patrl.py" source_line=370}
  param_59.110 = pred[192,2,20,1]{2,1,3,0} parameter(59)
  bitcast.11808.3.clone.1.clone.1 = pred[192,1,2,20]{3,2,1,0} bitcast(param_59.110)
  dynamic-slice.1287.3.clone.1.clone.1 = pred[1,1,2,20]{3,2,1,0} dynamic-slice(bitcast.11808.3.clone.1.clone.1, select.2973.33, constant_1980_8, constant_1980_8, constant_1980_8), dynamic_slice_sizes={1,1,2,20}, metadata={op_name="jit(scan)/jit(main)/while/body/jit(_one_step)/vmap(while)/body/while/body/transpose(jvp(vmap(while)))/body/dynamic_slice[slice_sizes=(1, 2, 20, 1)]" source_file="/fs04/fc37/adam/projects/psilocybin-prl-analyses/src/prl_hgf/fitting/hierarchical_patrl.py" source_line=378}
  bitcast.11815.10.clone.1.clone.1 = pred[1,2,20]{2,1,0} bitcast(dynamic-slice.1287.3.clone.1.clone.1)
  param_58.114 = f64[2,20,1]{1,0,2} parameter(58)
  bitcast.11819.10.clone.1.clone.1 = f64[1,2,20]{2,1,0} bitcast(param_58.114)
  broadcast.4031.1.clone.1.clone.1 = f64[1,2,20]{2,1,0} broadcast(constant_1982_22), dimensions={}
  select.3024.5.clone.1.clone.1 = f64[1,2,20]{2,1,0} select(bitcast.11815.10.clone.1.clone.1, bitcast.11819.10.clone.1.clone.1, broadcast.4031.1.clone.1.clone.1), metadata={op_name="jit(scan)/jit(main)/while/body/jit(_one_step)/vmap(while)/body/while/body/transpose(jvp(vmap(while)))/body/jit(_where)/select_n" source_file="/fs04/fc37/adam/projects/psilocybin-prl-analyses/src/prl_hgf/fitting/hierarchical_patrl.py" source_line=370}
  select.3025.5.clone.1.clone.1 = f64[1,2,20]{2,1,0} select(bitcast.11815.10.clone.1.clone.1, broadcast.4031.1.clone.1.clone.1, bitcast.11819.10.clone.1.clone.1), metadata={op_name="jit(scan)/jit(main)/while/body/jit(_one_step)/vmap(while)/body/while/body/transpose(jvp(vmap(while)))/body/jit(_where)/select_n" source_file="/fs04/fc37/adam/projects/psilocybin-prl-analyses/src/prl_hgf/fitting/hierarchical_patrl.py" source_line=370}
  add.4042.3.clone.1.clone.1 = f64[1,2,20]{2,1,0} add(select.3024.5.clone.1.clone.1, select.3025.5.clone.1.clone.1), metadata={op_name="jit(scan)/jit(main)/while/body/jit(_one_step)/vmap(while)/body/while/body/transpose(jvp(vmap(while)))/body/add_any" source_file="/fs04/fc37/adam/projects/psilocybin-prl-analyses/src/prl_hgf/fitting/hierarchical_patrl.py" source_line=370}
  param_57.106 = pred[192,2,20,1]{2,1,3,0} parameter(57)
  bitcast.11840.3.clone.1.clone.1 = pred[192,1,2,20]{3,2,1,0} bitcast(param_57.106)
  dynamic-slice.1288.3.clone.1.clone.1 = pred[1,1,2,20]{3,2,1,0} dynamic-slice(bitcast.11840.3.clone.1.clone.1, select.2973.33, constant_1980_8, constant_1980_8, constant_1980_8), dynamic_slice_sizes={1,1,2,20}, metadata={op_name="jit(scan)/jit(main)/while/body/jit(_one_step)/vmap(while)/body/while/body/transpose(jvp(vmap(while)))/body/dynamic_slice[slice_sizes=(1, 2, 20, 1)]" source_file="/fs04/fc37/adam/projects/psilocybin-prl-analyses/src/prl_hgf/fitting/hierarchical_patrl.py" source_line=378}
  bitcast.11847.7.clone.1.clone.1 = pred[1,2,20]{2,1,0} bitcast(dynamic-slice.1288.3.clone.1.clone.1)
  param_56.103 = f64[192,2,20]{2,1,0} parameter(56)
  dynamic-slice.1269.5.clone.1.clone.1 = f64[1,2,20]{2,1,0} dynamic-slice(param_56.103, select.2973.33, constant_1980_8, constant_1980_8), dynamic_slice_sizes={1,2,20}, metadata={op_name="jit(scan)/jit(main)/while/body/jit(_one_step)/vmap(while)/body/while/body/transpose(jvp(vmap(while)))/body/dynamic_slice[slice_sizes=(1, 2, 20)]" source_file="/fs04/fc37/adam/projects/psilocybin-prl-analyses/src/prl_hgf/fitting/hierarchical_patrl.py" source_line=378}
  bitcast.11268.7.clone.1.clone.1 = f64[2,20]{1,0} bitcast(dynamic-slice.1269.5.clone.1.clone.1)
  multiply.2920.3.clone.1.clone.1 = f64[2,20]{1,0} multiply(negate.468.10.clone.1.clone.1, bitcast.11268.7.clone.1.clone.1), metadata={op_name="jit(scan)/jit(main)/while/body/jit(_one_step)/vmap(while)/body/while/body/transpose(jvp(vmap(while)))/body/jit(beliefs_propagation)/jit(continuous_node_posterior_update_ehgf)/jit(posterior_update_precision_continuous_node)/jit(precision_update)/mul" source_file="/fs04/fc37/adam/projects/psilocybin-prl-analyses/src/prl_hgf/fitting/hierarchical_patrl.py" source_line=362}
  param_55.113 = f64[192,2,20]{2,1,0} parameter(55)
  dynamic-slice.1289.1.clone.1.clone.1 = f64[1,2,20]{2,1,0} dynamic-slice(param_55.113, select.2973.33, constant_1980_8, constant_1980_8), dynamic_slice_sizes={1,2,20}, metadata={op_name="jit(scan)/jit(main)/while/body/jit(_one_step)/vmap(while)/body/while/body/transpose(jvp(vmap(while)))/body/dynamic_slice[slice_sizes=(1, 2, 20)]" source_file="/fs04/fc37/adam/projects/psilocybin-prl-analyses/src/prl_hgf/fitting/hierarchical_patrl.py" source_line=378}
  bitcast.11858.42.clone.1.clone.1 = f64[2,20]{1,0} bitcast(dynamic-slice.1289.1.clone.1.clone.1)
  multiply.2952.13.clone.1.clone.1 = f64[2,20]{1,0} multiply(multiply.2920.3.clone.1.clone.1, bitcast.11858.42.clone.1.clone.1), metadata={op_name="jit(scan)/jit(main)/while/body/jit(_one_step)/vmap(while)/body/while/body/transpose(jvp(vmap(while)))/body/jit(beliefs_propagation)/jit(continuous_node_posterior_update_ehgf)/jit(posterior_update_precision_continuous_node)/jit(precision_update)/mul" source_file="/fs04/fc37/adam/projects/psilocybin-prl-analyses/src/prl_hgf/fitting/hierarchical_patrl.py" source_line=362}
  constant_1984_1_clone_1_clone_1 = f64[] constant(0.5)
  broadcast.4028.clone.3.clone.1.clone.1 = f64[2,20]{1,0} broadcast(constant_1984_1_clone_1_clone_1), dimensions={}
  multiply.2953.11.clone.1.clone.1 = f64[2,20]{1,0} multiply(multiply.2952.13.clone.1.clone.1, broadcast.4028.clone.3.clone.1.clone.1), metadata={op_name="jit(scan)/jit(main)/while/body/jit(_one_step)/vmap(while)/body/while/body/transpose(jvp(vmap(while)))/body/jit(beliefs_propagation)/jit(continuous_node_posterior_update_ehgf)/jit(posterior_update_precision_continuous_node)/jit(precision_update)/mul" source_file="/fs04/fc37/adam/projects/psilocybin-prl-analyses/src/prl_hgf/fitting/hierarchical_patrl.py" source_line=362}
  param_54.112 = f64[192,2,20]{2,1,0} parameter(54)
  dynamic-slice.1290.1.clone.1.clone.1 = f64[1,2,20]{2,1,0} dynamic-slice(param_54.112, select.2973.33, constant_1980_8, constant_1980_8), dynamic_slice_sizes={1,2,20}, metadata={op_name="jit(scan)/jit(main)/while/body/jit(_one_step)/vmap(while)/body/while/body/transpose(jvp(vmap(while)))/body/dynamic_slice[slice_sizes=(1, 2, 20)]" source_file="/fs04/fc37/adam/projects/psilocybin-prl-analyses/src/prl_hgf/fitting/hierarchical_patrl.py" source_line=378}
  bitcast.11871.9.clone.1.clone.1 = f64[2,20]{1,0} bitcast(dynamic-slice.1290.1.clone.1.clone.1)
  multiply.2954.9.clone.1.clone.1 = f64[2,20]{1,0} multiply(multiply.2953.11.clone.1.clone.1, bitcast.11871.9.clone.1.clone.1), metadata={op_name="jit(scan)/jit(main)/while/body/jit(_one_step)/vmap(while)/body/while/body/transpose(jvp(vmap(while)))/body/jit(beliefs_propagation)/jit(continuous_node_posterior_update_ehgf)/jit(posterior_update_precision_continuous_node)/jit(precision_update)/mul" source_file="/fs04/fc37/adam/projects/psilocybin-prl-analyses/src/prl_hgf/fitting/hierarchical_patrl.py" source_line=362}
  multiply.2922.5.clone.1.clone.1 = f64[2,20]{1,0} multiply(multiply.2896.9.clone.1.clone.1, bitcast.11268.7.clone.1.clone.1), metadata={op_name="jit(scan)/jit(main)/while/body/jit(_one_step)/vmap(while)/body/while/body/transpose(jvp(vmap(while)))/body/jit(beliefs_propagation)/jit(continuous_node_posterior_update_ehgf)/jit(posterior_update_precision_continuous_node)/jit(precision_update)/mul" source_file="/fs04/fc37/adam/projects/psilocybin-prl-analyses/src/prl_hgf/fitting/hierarchical_patrl.py" source_line=362}
  param_53.108 = f64[192,2,20]{2,1,0} parameter(53)
  dynamic-slice.1271.8.clone.1.clone.1 = f64[1,2,20]{2,1,0} dynamic-slice(param_53.108, select.2973.33, constant_1980_8, constant_1980_8), dynamic_slice_sizes={1,2,20}, metadata={op_name="jit(scan)/jit(main)/while/body/jit(_one_step)/vmap(while)/body/while/body/transpose(jvp(vmap(while)))/body/dynamic_slice[slice_sizes=(1, 2, 20)]" source_file="/fs04/fc37/adam/projects/psilocybin-prl-analyses/src/prl_hgf/fitting/hierarchical_patrl.py" source_line=378}
  bitcast.11295.8.clone.1.clone.1 = f64[2,20]{1,0} bitcast(dynamic-slice.1271.8.clone.1.clone.1)
  multiply.2923.3.clone.1.clone.1 = f64[2,20]{1,0} multiply(multiply.2922.5.clone.1.clone.1, bitcast.11295.8.clone.1.clone.1), metadata={op_name="jit(scan)/jit(main)/while/body/jit(_one_step)/vmap(while)/body/while/body/transpose(jvp(vmap(while)))/body/jit(beliefs_propagation)/jit(continuous_node_posterior_update_ehgf)/jit(posterior_update_precision_continuous_node)/jit(precision_update)/mul" source_file="/fs04/fc37/adam/projects/psilocybin-prl-analyses/src/prl_hgf/fitting/hierarchical_patrl.py" source_line=362}
  multiply.2955.11.clone.1.clone.1 = f64[2,20]{1,0} multiply(multiply.2923.3.clone.1.clone.1, bitcast.11858.42.clone.1.clone.1), metadata={op_name="jit(scan)/jit(main)/while/body/jit(_one_step)/vmap(while)/body/while/body/transpose(jvp(vmap(while)))/body/jit(beliefs_propagation)/jit(continuous_node_posterior_update_ehgf)/jit(posterior_update_precision_continuous_node)/jit(precision_update)/mul" source_file="/fs04/fc37/adam/projects/psilocybin-prl-analyses/src/prl_hgf/fitting/hierarchical_patrl.py" source_line=362}
  add.4043.9.clone.1.clone.1 = f64[2,20]{1,0} add(multiply.2954.9.clone.1.clone.1, multiply.2955.11.clone.1.clone.1), metadata={op_name="jit(scan)/jit(main)/while/body/jit(_one_step)/vmap(while)/body/while/body/transpose(jvp(vmap(while)))/body/jit(beliefs_propagation)/jit(continuous_node_posterior_update_ehgf)/jit(posterior_update_precision_continuous_node)/jit(precision_update)/add_any" source_file="/fs04/fc37/adam/projects/psilocybin-prl-analyses/src/prl_hgf/fitting/hierarchical_patrl.py" source_line=362}
  multiply.2925.5.clone.1.clone.1 = f64[2,20]{1,0} multiply(multiply.2896.9.clone.1.clone.1, broadcast.4028.clone.3.clone.1.clone.1), metadata={op_name="jit(scan)/jit(main)/while/body/jit(_one_step)/vmap(while)/body/while/body/transpose(jvp(vmap(while)))/body/jit(beliefs_propagation)/jit(continuous_node_posterior_update_ehgf)/jit(posterior_update_precision_continuous_node)/jit(precision_update)/mul" source_file="/fs04/fc37/adam/projects/psilocybin-prl-analyses/src/prl_hgf/fitting/hierarchical_patrl.py" source_line=362}
  multiply.2926.3.clone.1.clone.1 = f64[2,20]{1,0} multiply(multiply.2925.5.clone.1.clone.1, bitcast.11295.8.clone.1.clone.1), metadata={op_name="jit(scan)/jit(main)/while/body/jit(_one_step)/vmap(while)/body/while/body/transpose(jvp(vmap(while)))/body/jit(beliefs_propagation)/jit(continuous_node_posterior_update_ehgf)/jit(posterior_update_precision_continuous_node)/jit(precision_update)/mul" source_file="/fs04/fc37/adam/projects/psilocybin-prl-analyses/src/prl_hgf/fitting/hierarchical_patrl.py" source_line=362}
  multiply.2956.11.clone.1.clone.1 = f64[2,20]{1,0} multiply(multiply.2926.3.clone.1.clone.1, bitcast.11858.42.clone.1.clone.1), metadata={op_name="jit(scan)/jit(main)/while/body/jit(_one_step)/vmap(while)/body/while/body/transpose(jvp(vmap(while)))/body/jit(beliefs_propagation)/jit(continuous_node_posterior_update_ehgf)/jit(posterior_update_precision_continuous_node)/jit(precision_update)/mul" source_file="/fs04/fc37/adam/projects/psilocybin-prl-analyses/src/prl_hgf/fitting/hierarchical_patrl.py" source_line=362}
  add.4044.9.clone.1.clone.1 = f64[2,20]{1,0} add(add.4043.9.clone.1.clone.1, multiply.2956.11.clone.1.clone.1), metadata={op_name="jit(scan)/jit(main)/while/body/jit(_one_step)/vmap(while)/body/while/body/transpose(jvp(vmap(while)))/body/jit(beliefs_propagation)/jit(continuous_node_posterior_update_ehgf)/jit(posterior_update_precision_continuous_node)/jit(precision_update)/add_any" source_file="/fs04/fc37/adam/projects/psilocybin-prl-analyses/src/prl_hgf/fitting/hierarchical_patrl.py" source_line=362}
  bitcast.11890.7.clone.1.clone.1 = f64[1,2,20]{2,1,0} bitcast(add.4044.9.clone.1.clone.1)
  select.3026.7.clone.1.clone.1 = f64[1,2,20]{2,1,0} select(bitcast.11847.7.clone.1.clone.1, bitcast.11890.7.clone.1.clone.1, broadcast.4031.1.clone.1.clone.1), metadata={op_name="jit(scan)/jit(main)/while/body/jit(_one_step)/vmap(while)/body/while/body/transpose(jvp(vmap(while)))/body/jit(beliefs_propagation)/jit(continuous_node_posterior_update_ehgf)/jit(posterior_update_precision_continuous_node)/select_n" source_file="/fs04/fc37/adam/projects/psilocybin-prl-analyses/src/prl_hgf/fitting/hierarchical_patrl.py" source_line=362}
  multiply.2928.3.clone.1.clone.1 = f64[2,20]{1,0} multiply(multiply.2900.9.clone.1.clone.1, bitcast.11268.7.clone.1.clone.1), metadata={op_name="jit(scan)/jit(main)/while/body/jit(_one_step)/vmap(while)/body/while/body/transpose(jvp(vmap(while)))/body/jit(beliefs_propagation)/jit(continuous_node_posterior_update_ehgf)/jit(posterior_update_mean_continuous_node)/mul" source_file="/fs04/fc37/adam/projects/psilocybin-prl-analyses/src/prl_hgf/fitting/hierarchical_patrl.py" source_line=362}
  multiply.2957.7.clone.1.clone.1 = f64[2,20]{1,0} multiply(multiply.2928.3.clone.1.clone.1, bitcast.11858.42.clone.1.clone.1), metadata={op_name="jit(scan)/jit(main)/while/body/jit(_one_step)/vmap(while)/body/while/body/transpose(jvp(vmap(while)))/body/jit(beliefs_propagation)/jit(continuous_node_posterior_update_ehgf)/jit(posterior_update_mean_continuous_node)/mul" source_file="/fs04/fc37/adam/projects/psilocybin-prl-analyses/src/prl_hgf/fitting/hierarchical_patrl.py" source_line=362}
  bitcast.11903.5.clone.1.clone.1 = f64[1,2,20]{2,1,0} bitcast(multiply.2957.7.clone.1.clone.1)
  add.4046.5.clone.1.clone.1 = f64[1,2,20]{2,1,0} add(select.3026.7.clone.1.clone.1, bitcast.11903.5.clone.1.clone.1), metadata={op_name="jit(scan)/jit(main)/while/body/jit(_one_step)/vmap(while)/body/while/body/transpose(jvp(vmap(while)))/body/jit(beliefs_propagation)/jit(continuous_node_posterior_update_ehgf)/add_any" source_file="/fs04/fc37/adam/projects/psilocybin-prl-analyses/src/prl_hgf/fitting/hierarchical_patrl.py" source_line=362}
  param_52.113 = f64[20,1]{1,0} parameter(52)
  bitcast.11908.3.clone.1.clone.1 = f64[20]{0} bitcast(param_52.113)
  broadcast.4034.3.clone.1.clone.1 = f64[1,2,20]{2,1,0} broadcast(bitcast.11908.3.clone.1.clone.1), dimensions={2}, metadata={op_name="jit(scan)/jit(main)/while/body/jit(_one_step)/vmap(while)/body/while/body/transpose(jvp(vmap(while)))/body/jit(beliefs_propagation)/broadcast_in_dim[shape=(2, 20, 1) broadcast_dimensions=(np.int64(1), np.int64(2))]" source_file="/fs04/fc37/adam/projects/psilocybin-prl-analyses/src/prl_hgf/fitting/hierarchical_patrl.py" source_line=362}
  add.4047.3.clone.1.clone.1 = f64[1,2,20]{2,1,0} add(add.4046.5.clone.1.clone.1, broadcast.4034.3.clone.1.clone.1), metadata={op_name="jit(scan)/jit(main)/while/body/jit(_one_step)/vmap(while)/body/while/body/transpose(jvp(vmap(while)))/body/jit(beliefs_propagation)/add_any" source_file="/fs04/fc37/adam/projects/psilocybin-prl-analyses/src/prl_hgf/fitting/hierarchical_patrl.py" source_line=362}
  add.4048.1.clone.1.clone.1 = f64[1,2,20]{2,1,0} add(add.4042.3.clone.1.clone.1, add.4047.3.clone.1.clone.1), metadata={op_name="jit(scan)/jit(main)/while/body/jit(_one_step)/vmap(while)/body/while/body/transpose(jvp(vmap(while)))/body/add_any" source_file="/fs04/fc37/adam/projects/psilocybin-prl-analyses/src/prl_hgf/fitting/hierarchical_patrl.py" source_line=362}
  param_60.110 = f64[2,20]{1,0} parameter(60)
  select.3001.1.clone.1.clone.1 = f64[2,20]{1,0} select(bitcast.10661.168, broadcast.4024.clone.108, param_60.110), metadata={op_name="jit(scan)/jit(main)/while/body/jit(_one_step)/vmap(while)/body/while/body/transpose(jvp(vmap(while)))/body/jit(_where)/select_n" source_file="/fs04/fc37/adam/projects/psilocybin-prl-analyses/src/prl_hgf/env/pat_rl_simulator.py" source_line=92}
  param_70.27 = f64[2,20]{1,0} parameter(70)
  select.2995.3.clone.1.clone.1 = f64[2,20]{1,0} select(bitcast.10661.168, broadcast.4024.clone.108, param_70.27), metadata={op_name="jit(scan)/jit(main)/while/body/jit(_one_step)/vmap(while)/body/while/body/transpose(jvp(vmap(while)))/body/jit(_where)/select_n" source_file="/fs04/fc37/adam/projects/psilocybin-prl-analyses/src/prl_hgf/env/pat_rl_simulator.py" source_line=92}
  param_61.124 = f64[2,20]{1,0} parameter(61)
  param_69.22 = f64[2,20]{1,0} parameter(69)
  select.2996.11.clone.1.clone.1 = f64[2,20]{1,0} select(bitcast.10661.168, param_69.22, broadcast.4024.clone.108), metadata={op_name="jit(scan)/jit(main)/while/body/jit(_one_step)/vmap(while)/body/while/body/transpose(jvp(vmap(while)))/body/jit(_where)/select_n" source_file="/fs04/fc37/adam/projects/psilocybin-prl-analyses/src/prl_hgf/env/pat_rl_simulator.py" source_line=92}
  param_68.84 = f64[192,2,20]{2,1,0} parameter(68)
  dynamic-slice.1266.3.clone.1.clone.1 = f64[1,2,20]{2,1,0} dynamic-slice(param_68.84, select.2973.33, constant_1980_8, constant_1980_8), dynamic_slice_sizes={1,2,20}, metadata={op_name="jit(scan)/jit(main)/while/body/jit(_one_step)/vmap(while)/body/while/body/transpose(jvp(vmap(while)))/body/dynamic_slice[slice_sizes=(1, 2, 20)]" source_file="/fs04/fc37/adam/projects/psilocybin-prl-analyses/src/prl_hgf/fitting/hierarchical_patrl.py" source_line=378}
  bitcast.11213.5.clone.1.clone.1 = f64[2,20]{1,0} bitcast(dynamic-slice.1266.3.clone.1.clone.1)
  multiply.2919.5.clone.1.clone.1 = f64[2,20]{1,0} multiply(add.3978.3.clone.1.clone.1, bitcast.11213.5.clone.1.clone.1), metadata={op_name="jit(scan)/jit(main)/while/body/jit(_one_step)/vmap(while)/body/while/body/transpose(jvp(vmap(while)))/body/jit(beliefs_propagation)/jit(continuous_node_prediction_error)/jit(continuous_node_volatility_prediction_error)/mul" source_file="/fs04/fc37/adam/projects/psilocybin-prl-analyses/src/prl_hgf/fitting/hierarchical_patrl.py" source_line=362}
  divide.598.13.clone.1.clone.1 = f64[2,20]{1,0} divide(add.3978.3.clone.1.clone.1, bitcast.11128.22.clone.1.clone.1), metadata={op_name="jit(scan)/jit(main)/while/body/jit(_one_step)/vmap(while)/body/while/body/transpose(jvp(vmap(while)))/body/jit(beliefs_propagation)/jit(continuous_node_prediction_error)/jit(continuous_node_volatility_prediction_error)/div" source_file="/fs04/fc37/adam/projects/psilocybin-prl-analyses/src/prl_hgf/fitting/hierarchical_patrl.py" source_line=362}
  add.4000.11.clone.1.clone.1 = f64[2,20]{1,0} add(multiply.2919.5.clone.1.clone.1, divide.598.13.clone.1.clone.1), metadata={op_name="jit(scan)/jit(main)/while/body/jit(_one_step)/vmap(while)/body/while/body/transpose(jvp(vmap(while)))/body/jit(beliefs_propagation)/jit(continuous_node_prediction_error)/jit(continuous_node_volatility_prediction_error)/add_any" source_file="/fs04/fc37/adam/projects/psilocybin-prl-analyses/src/prl_hgf/fitting/hierarchical_patrl.py" source_line=362}
  add.4001.9.clone.1.clone.1 = f64[2,20]{1,0} add(select.2996.11.clone.1.clone.1, add.4000.11.clone.1.clone.1), metadata={op_name="jit(scan)/jit(main)/while/body/jit(_one_step)/vmap(while)/body/while/body/transpose(jvp(vmap(while)))/body/jit(beliefs_propagation)/add_any" source_file="/fs04/fc37/adam/projects/psilocybin-prl-analyses/src/prl_hgf/fitting/hierarchical_patrl.py" source_line=362}
  param_67.100 = f64[2,20]{1,0} parameter(67)
  add.4002.7.clone.1.clone.1 = f64[2,20]{1,0} add(add.4001.9.clone.1.clone.1, param_67.100), metadata={op_name="jit(scan)/jit(main)/while/body/jit(_one_step)/vmap(while)/body/while/body/transpose(jvp(vmap(while)))/body/jit(beliefs_propagation)/add_any" source_file="/fs04/fc37/adam/projects/psilocybin-prl-analyses/src/prl_hgf/fitting/hierarchical_patrl.py" source_line=362}
  param_66.106 = f64[192,2,20]{2,1,0} parameter(66)
  dynamic-slice.1267.3.clone.1.clone.1 = f64[1,2,20]{2,1,0} dynamic-slice(param_66.106, select.2973.33, constant_1980_8, constant_1980_8), dynamic_slice_sizes={1,2,20}, metadata={op_name="jit(scan)/jit(main)/while/body/jit(_one_step)/vmap(while)/body/while/body/transpose(jvp(vmap(while)))/body/dynamic_slice[slice_sizes=(1, 2, 20)]" source_file="/fs04/fc37/adam/projects/psilocybin-prl-analyses/src/prl_hgf/fitting/hierarchical_patrl.py" source_line=378}
  bitcast.11235.5.clone.1.clone.1 = f64[2,20]{1,0} bitcast(dynamic-slice.1267.3.clone.1.clone.1)
  select.2997.11.clone.1.clone.1 = f64[2,20]{1,0} select(bitcast.10661.168, param_60.110, broadcast.4024.clone.108), metadata={op_name="jit(scan)/jit(main)/while/body/jit(_one_step)/vmap(while)/body/while/body/transpose(jvp(vmap(while)))/body/jit(_where)/select_n" source_file="/fs04/fc37/adam/projects/psilocybin-prl-analyses/src/prl_hgf/env/pat_rl_simulator.py" source_line=92}
  param_65.128 = f64[192,2,20]{2,1,0} parameter(65)
  dynamic-slice.1268.11.clone.1.clone.1 = f64[1,2,20]{2,1,0} dynamic-slice(param_65.128, select.2973.33, constant_1980_8, constant_1980_8), dynamic_slice_sizes={1,2,20}, metadata={op_name="jit(scan)/jit(main)/while/body/jit(_one_step)/vmap(while)/body/while/body/transpose(jvp(vmap(while)))/body/dynamic_slice[slice_sizes=(1, 2, 20)]" source_file="/fs04/fc37/adam/projects/psilocybin-prl-analyses/src/prl_hgf/fitting/hierarchical_patrl.py" source_line=378}
  bitcast.11257.17.clone.1.clone.1 = f64[2,20]{1,0} bitcast(dynamic-slice.1268.11.clone.1.clone.1)
  multiply.2921.17.clone.1.clone.1 = f64[2,20]{1,0} multiply(bitcast.11257.17.clone.1.clone.1, multiply.2920.3.clone.1.clone.1), metadata={op_name="jit(scan)/jit(main)/while/body/jit(_one_step)/vmap(while)/body/while/body/transpose(jvp(vmap(while)))/body/jit(beliefs_propagation)/jit(continuous_node_posterior_update_ehgf)/jit(posterior_update_precision_continuous_node)/jit(precision_update)/mul" source_file="/fs04/fc37/adam/projects/psilocybin-prl-analyses/src/prl_hgf/fitting/hierarchical_patrl.py" source_line=362}
  param_64.128 = f64[192,2,20]{2,1,0} parameter(64)
  dynamic-slice.1270.22.clone.1.clone.1 = f64[1,2,20]{2,1,0} dynamic-slice(param_64.128, select.2973.33, constant_1980_8, constant_1980_8), dynamic_slice_sizes={1,2,20}, metadata={op_name="jit(scan)/jit(main)/while/body/jit(_one_step)/vmap(while)/body/while/body/transpose(jvp(vmap(while)))/body/dynamic_slice[slice_sizes=(1, 2, 20)]" source_file="/fs04/fc37/adam/projects/psilocybin-prl-analyses/src/prl_hgf/fitting/hierarchical_patrl.py" source_line=378}
  bitcast.11279.37.clone.1.clone.1 = f64[2,20]{1,0} bitcast(dynamic-slice.1270.22.clone.1.clone.1)
  multiply.2924.13.clone.1.clone.1 = f64[2,20]{1,0} multiply(bitcast.11279.37.clone.1.clone.1, multiply.2923.3.clone.1.clone.1), metadata={op_name="jit(scan)/jit(main)/while/body/jit(_one_step)/vmap(while)/body/while/body/transpose(jvp(vmap(while)))/body/jit(beliefs_propagation)/jit(continuous_node_posterior_update_ehgf)/jit(posterior_update_precision_continuous_node)/jit(precision_update)/mul" source_file="/fs04/fc37/adam/projects/psilocybin-prl-analyses/src/prl_hgf/fitting/hierarchical_patrl.py" source_line=362}
  add.4003.15.clone.1.clone.1 = f64[2,20]{1,0} add(multiply.2921.17.clone.1.clone.1, multiply.2924.13.clone.1.clone.1), metadata={op_name="jit(scan)/jit(main)/while/body/jit(_one_step)/vmap(while)/body/while/body/transpose(jvp(vmap(while)))/body/jit(beliefs_propagation)/jit(continuous_node_posterior_update_ehgf)/jit(posterior_update_precision_continuous_node)/jit(precision_update)/add_any" source_file="/fs04/fc37/adam/projects/psilocybin-prl-analyses/src/prl_hgf/fitting/hierarchical_patrl.py" source_line=362}
  multiply.2927.13.clone.1.clone.1 = f64[2,20]{1,0} multiply(bitcast.11279.37.clone.1.clone.1, multiply.2926.3.clone.1.clone.1), metadata={op_name="jit(scan)/jit(main)/while/body/jit(_one_step)/vmap(while)/body/while/body/transpose(jvp(vmap(while)))/body/jit(beliefs_propagation)/jit(continuous_node_posterior_update_ehgf)/jit(posterior_update_precision_continuous_node)/jit(precision_update)/mul" source_file="/fs04/fc37/adam/projects/psilocybin-prl-analyses/src/prl_hgf/fitting/hierarchical_patrl.py" source_line=362}
  add.4004.13.clone.1.clone.1 = f64[2,20]{1,0} add(add.4003.15.clone.1.clone.1, multiply.2927.13.clone.1.clone.1), metadata={op_name="jit(scan)/jit(main)/while/body/jit(_one_step)/vmap(while)/body/while/body/transpose(jvp(vmap(while)))/body/jit(beliefs_propagation)/jit(continuous_node_posterior_update_ehgf)/jit(posterior_update_precision_continuous_node)/jit(precision_update)/add_any" source_file="/fs04/fc37/adam/projects/psilocybin-prl-analyses/src/prl_hgf/fitting/hierarchical_patrl.py" source_line=362}
  select.2998.11.clone.1.clone.1 = f64[2,20]{1,0} select(bitcast.10789.21, add.4004.13.clone.1.clone.1, broadcast.4024.clone.108), metadata={op_name="jit(scan)/jit(main)/while/body/jit(_one_step)/vmap(while)/body/while/body/transpose(jvp(vmap(while)))/body/jit(beliefs_propagation)/jit(continuous_node_posterior_update_ehgf)/jit(posterior_update_precision_continuous_node)/select_n" source_file="/fs04/fc37/adam/projects/psilocybin-prl-analyses/src/prl_hgf/fitting/hierarchical_patrl.py" source_line=362}
  multiply.2929.11.clone.1.clone.1 = f64[2,20]{1,0} multiply(bitcast.11279.37.clone.1.clone.1, multiply.2928.3.clone.1.clone.1), metadata={op_name="jit(scan)/jit(main)/while/body/jit(_one_step)/vmap(while)/body/while/body/transpose(jvp(vmap(while)))/body/jit(beliefs_propagation)/jit(continuous_node_posterior_update_ehgf)/jit(posterior_update_mean_continuous_node)/mul" source_file="/fs04/fc37/adam/projects/psilocybin-prl-analyses/src/prl_hgf/fitting/hierarchical_patrl.py" source_line=362}
  add.4005.9.clone.1.clone.1 = f64[2,20]{1,0} add(select.2998.11.clone.1.clone.1, multiply.2929.11.clone.1.clone.1), metadata={op_name="jit(scan)/jit(main)/while/body/jit(_one_step)/vmap(while)/body/while/body/transpose(jvp(vmap(while)))/body/jit(beliefs_propagation)/jit(continuous_node_posterior_update_ehgf)/add_any" source_file="/fs04/fc37/adam/projects/psilocybin-prl-analyses/src/prl_hgf/fitting/hierarchical_patrl.py" source_line=362}
  add.4006.9.clone.1.clone.1 = f64[2,20]{1,0} add(select.2997.11.clone.1.clone.1, add.4005.9.clone.1.clone.1), metadata={op_name="jit(scan)/jit(main)/while/body/jit(_one_step)/vmap(while)/body/while/body/transpose(jvp(vmap(while)))/body/jit(beliefs_propagation)/add_any" source_file="/fs04/fc37/adam/projects/psilocybin-prl-analyses/src/prl_hgf/fitting/hierarchical_patrl.py" source_line=362}
  add.4007.9.clone.1.clone.1 = f64[2,20]{1,0} add(add.4006.9.clone.1.clone.1, broadcast.4026.19), metadata={op_name="jit(scan)/jit(main)/while/body/jit(_one_step)/vmap(while)/body/while/body/transpose(jvp(vmap(while)))/body/jit(beliefs_propagation)/add_any" source_file="/fs04/fc37/adam/projects/psilocybin-prl-analyses/src/prl_hgf/fitting/hierarchical_patrl.py" source_line=362}
  multiply.2930.5.clone.1.clone.1 = f64[2,20]{1,0} multiply(bitcast.11235.5.clone.1.clone.1, add.4007.9.clone.1.clone.1), metadata={op_name="jit(scan)/jit(main)/while/body/jit(_one_step)/vmap(while)/body/while/body/transpose(jvp(vmap(while)))/body/jit(beliefs_propagation)/jit(continuous_node_prediction)/jit(predict_precision)/mul" source_file="/fs04/fc37/adam/projects/psilocybin-prl-analyses/src/prl_hgf/fitting/hierarchical_patrl.py" source_line=362}
  add.4008.5.clone.1.clone.1 = f64[2,20]{1,0} add(add.4002.7.clone.1.clone.1, multiply.2930.5.clone.1.clone.1), metadata={op_name="jit(scan)/jit(main)/while/body/jit(_one_step)/vmap(while)/body/while/body/transpose(jvp(vmap(while)))/body/jit(beliefs_propagation)/jit(continuous_node_prediction)/jit(predict_precision)/add_any" source_file="/fs04/fc37/adam/projects/psilocybin-prl-analyses/src/prl_hgf/fitting/hierarchical_patrl.py" source_line=362}
  param_63.124 = f64[192,2,20]{2,1,0} parameter(63)
  dynamic-slice.1272.3.clone.1.clone.1 = f64[1,2,20]{2,1,0} dynamic-slice(param_63.124, select.2973.33, constant_1980_8, constant_1980_8), dynamic_slice_sizes={1,2,20}, metadata={op_name="jit(scan)/jit(main)/while/body/jit(_one_step)/vmap(while)/body/while/body/transpose(jvp(vmap(while)))/body/dynamic_slice[slice_sizes=(1, 2, 20)]" source_file="/fs04/fc37/adam/projects/psilocybin-prl-analyses/src/prl_hgf/fitting/hierarchical_patrl.py" source_line=378}
  bitcast.11345.3.clone.1.clone.1 = f64[2,20]{1,0} bitcast(dynamic-slice.1272.3.clone.1.clone.1)
  multiply.2931.3.clone.1.clone.1 = f64[2,20]{1,0} multiply(add.4008.5.clone.1.clone.1, bitcast.11345.3.clone.1.clone.1), metadata={op_name="jit(scan)/jit(main)/while/body/jit(_one_step)/vmap(while)/body/while/body/transpose(jvp(vmap(while)))/body/jit(beliefs_propagation)/jit(continuous_node_prediction)/jit(predict_precision)/mul" source_file="/fs04/fc37/adam/projects/psilocybin-prl-analyses/src/prl_hgf/fitting/hierarchical_patrl.py" source_line=362}
  negate.475.2.clone.1.clone.1 = f64[2,20]{1,0} negate(multiply.2931.3.clone.1.clone.1), metadata={op_name="jit(scan)/jit(main)/while/body/jit(_one_step)/vmap(while)/body/while/body/transpose(jvp(vmap(while)))/body/jit(beliefs_propagation)/jit(continuous_node_prediction)/jit(predict_precision)/neg" source_file="/fs04/fc37/adam/projects/psilocybin-prl-analyses/src/prl_hgf/fitting/hierarchical_patrl.py" source_line=362}
  param_62.119 = f64[192,2,20]{2,1,0} parameter(62)
  dynamic-slice.1273.1.clone.1.clone.1 = f64[1,2,20]{2,1,0} dynamic-slice(param_62.119, select.2973.33, constant_1980_8, constant_1980_8), dynamic_slice_sizes={1,2,20}, metadata={op_name="jit(scan)/jit(main)/while/body/jit(_one_step)/vmap(while)/body/while/body/transpose(jvp(vmap(while)))/body/dynamic_slice[slice_sizes=(1, 2, 20)]" source_file="/fs04/fc37/adam/projects/psilocybin-prl-analyses/src/prl_hgf/fitting/hierarchical_patrl.py" source_line=378}
  bitcast.11356.14.clone.1.clone.1 = f64[2,20]{1,0} bitcast(dynamic-slice.1273.1.clone.1.clone.1)
  multiply.2932.5.clone.1.clone.1 = f64[2,20]{1,0} multiply(negate.475.2.clone.1.clone.1, bitcast.11356.14.clone.1.clone.1), metadata={op_name="jit(scan)/jit(main)/while/body/jit(_one_step)/vmap(while)/body/while/body/transpose(jvp(vmap(while)))/body/jit(beliefs_propagation)/jit(continuous_node_prediction)/jit(predict_precision)/mul" source_file="/fs04/fc37/adam/projects/psilocybin-prl-analyses/src/prl_hgf/fitting/hierarchical_patrl.py" source_line=362}
  negate.476.3.clone.1.clone.1 = f64[2,20]{1,0} negate(multiply.2932.5.clone.1.clone.1), metadata={op_name="jit(scan)/jit(main)/while/body/jit(_one_step)/vmap(while)/body/while/body/transpose(jvp(vmap(while)))/body/jit(beliefs_propagation)/jit(continuous_node_prediction)/jit(predict_precision)/neg" source_file="/fs04/fc37/adam/projects/psilocybin-prl-analyses/src/prl_hgf/fitting/hierarchical_patrl.py" source_line=362}
  select.2999.3.clone.1.clone.1 = f64[2,20]{1,0} select(bitcast.10661.168, param_51.106, broadcast.4024.clone.108), metadata={op_name="jit(scan)/jit(main)/while/body/jit(_one_step)/vmap(while)/body/while/body/transpose(jvp(vmap(while)))/body/jit(_where)/select_n" source_file="/fs04/fc37/adam/projects/psilocybin-prl-analyses/src/prl_hgf/fitting/hierarchical_patrl.py" source_line=370}
  add.4009.3.clone.1.clone.1 = f64[2,20]{1,0} add(select.2999.3.clone.1.clone.1, broadcast.4026.19), metadata={op_name="jit(scan)/jit(main)/while/body/jit(_one_step)/vmap(while)/body/while/body/transpose(jvp(vmap(while)))/body/jit(beliefs_propagation)/add_any" source_file="/fs04/fc37/adam/projects/psilocybin-prl-analyses/src/prl_hgf/fitting/hierarchical_patrl.py" source_line=362}
  multiply.2934.9.clone.1.clone.1 = f64[2,20]{1,0} multiply(add.4009.3.clone.1.clone.1, bitcast.11356.14.clone.1.clone.1), metadata={op_name="jit(scan)/jit(main)/while/body/jit(_one_step)/vmap(while)/body/while/body/transpose(jvp(vmap(while)))/body/jit(beliefs_propagation)/jit(continuous_node_prediction)/mul" source_file="/fs04/fc37/adam/projects/psilocybin-prl-analyses/src/prl_hgf/fitting/hierarchical_patrl.py" source_line=362}
  negate.477.7.clone.1.clone.1 = f64[2,20]{1,0} negate(multiply.2934.9.clone.1.clone.1), metadata={op_name="jit(scan)/jit(main)/while/body/jit(_one_step)/vmap(while)/body/while/body/transpose(jvp(vmap(while)))/body/jit(beliefs_propagation)/jit(continuous_node_prediction)/neg" source_file="/fs04/fc37/adam/projects/psilocybin-prl-analyses/src/prl_hgf/fitting/hierarchical_patrl.py" source_line=362}
  add.4010.5.clone.1.clone.1 = f64[2,20]{1,0} add(negate.476.3.clone.1.clone.1, negate.477.7.clone.1.clone.1), metadata={op_name="jit(scan)/jit(main)/while/body/jit(_one_step)/vmap(while)/body/while/body/transpose(jvp(vmap(while)))/body/jit(beliefs_propagation)/jit(continuous_node_prediction)/add_any" source_file="/fs04/fc37/adam/projects/psilocybin-prl-analyses/src/prl_hgf/fitting/hierarchical_patrl.py" source_line=362}
  add.4011.3.clone.1.clone.1 = f64[2,20]{1,0} add(param_61.124, add.4010.5.clone.1.clone.1), metadata={op_name="jit(scan)/jit(main)/while/body/jit(_one_step)/vmap(while)/body/while/body/transpose(jvp(vmap(while)))/body/jit(beliefs_propagation)/add_any" source_file="/fs04/fc37/adam/projects/psilocybin-prl-analyses/src/prl_hgf/fitting/hierarchical_patrl.py" source_line=362}
  add.4012.1.clone.1.clone.1 = f64[2,20]{1,0} add(select.2995.3.clone.1.clone.1, add.4011.3.clone.1.clone.1), metadata={op_name="jit(scan)/jit(main)/while/body/jit(_one_step)/vmap(while)/body/while/body/transpose(jvp(vmap(while)))/body/add_any" source_file="/fs04/fc37/adam/projects/psilocybin-prl-analyses/src/prl_hgf/fitting/hierarchical_patrl.py" source_line=362}
  param_74.46 = f64[2,20]{1,0} parameter(74)
  select.3004.5.clone.1.clone.1 = f64[2,20]{1,0} select(bitcast.10661.168, param_74.46, broadcast.4024.clone.108), metadata={op_name="jit(scan)/jit(main)/while/body/jit(_one_step)/vmap(while)/body/while/body/transpose(jvp(vmap(while)))/body/jit(_where)/select_n" source_file="/fs04/fc37/adam/projects/psilocybin-prl-analyses/src/prl_hgf/fitting/hierarchical_patrl.py" source_line=370}
  select.3005.5.clone.1.clone.1 = f64[2,20]{1,0} select(bitcast.10661.168, broadcast.4024.clone.108, param_74.46), metadata={op_name="jit(scan)/jit(main)/while/body/jit(_one_step)/vmap(while)/body/while/body/transpose(jvp(vmap(while)))/body/jit(_where)/select_n" source_file="/fs04/fc37/adam/projects/psilocybin-prl-analyses/src/prl_hgf/fitting/hierarchical_patrl.py" source_line=370}
  add.4015.3.clone.1.clone.1 = f64[2,20]{1,0} add(select.3004.5.clone.1.clone.1, select.3005.5.clone.1.clone.1), metadata={op_name="jit(scan)/jit(main)/while/body/jit(_one_step)/vmap(while)/body/while/body/transpose(jvp(vmap(while)))/body/add_any" source_file="/fs04/fc37/adam/projects/psilocybin-prl-analyses/src/prl_hgf/fitting/hierarchical_patrl.py" source_line=370}
  param_71.32 = f64[2,20]{1,0} parameter(71)
  param_73.50 = pred[192,2,20]{2,1,0} parameter(73)
  dynamic-slice.1274.5.clone.1.clone.1 = pred[1,2,20]{2,1,0} dynamic-slice(param_73.50, select.2973.33, constant_1980_8, constant_1980_8), dynamic_slice_sizes={1,2,20}, metadata={op_name="jit(scan)/jit(main)/while/body/jit(_one_step)/vmap(while)/body/while/body/transpose(jvp(vmap(while)))/body/dynamic_slice[slice_sizes=(1, 2, 20)]" source_file="/fs04/fc37/adam/projects/psilocybin-prl-analyses/src/prl_hgf/fitting/hierarchical_patrl.py" source_line=378}
  bitcast.11451.7.clone.1.clone.1 = pred[2,20]{1,0} bitcast(dynamic-slice.1274.5.clone.1.clone.1)
  multiply.2935.11.clone.1.clone.1 = f64[2,20]{1,0} multiply(add.4007.9.clone.1.clone.1, bitcast.10911.19.clone.1.clone.1), metadata={op_name="jit(scan)/jit(main)/while/body/jit(_one_step)/vmap(while)/body/while/body/transpose(jvp(vmap(while)))/body/jit(beliefs_propagation)/jit(continuous_node_prediction)/jit(predict_precision)/mul" source_file="/fs04/fc37/adam/projects/psilocybin-prl-analyses/src/prl_hgf/fitting/hierarchical_patrl.py" source_line=362}
  add.4016.9.clone.1.clone.1 = f64[2,20]{1,0} add(negate.475.2.clone.1.clone.1, multiply.2935.11.clone.1.clone.1), metadata={op_name="jit(scan)/jit(main)/while/body/jit(_one_step)/vmap(while)/body/while/body/transpose(jvp(vmap(while)))/body/jit(beliefs_propagation)/jit(continuous_node_prediction)/jit(predict_precision)/add_any" source_file="/fs04/fc37/adam/projects/psilocybin-prl-analyses/src/prl_hgf/fitting/hierarchical_patrl.py" source_line=362}
  select.3006.7.clone.1.clone.1 = f64[2,20]{1,0} select(bitcast.11451.7.clone.1.clone.1, add.4016.9.clone.1.clone.1, broadcast.4024.clone.108), metadata={op_name="jit(scan)/jit(main)/while/body/jit(_one_step)/vmap(while)/body/while/body/transpose(jvp(vmap(while)))/body/jit(beliefs_propagation)/jit(continuous_node_posterior_update_ehgf)/jit(posterior_update_precision_continuous_node)/jit(precision_update)/jit(_where)/select_n" source_file="/fs04/fc37/adam/projects/psilocybin-prl-analyses/src/prl_hgf/env/pat_rl_simulator.py" source_line=92}
  param_72.46 = f64[192,2,20]{2,1,0} parameter(72)
  dynamic-slice.1275.5.clone.1.clone.1 = f64[1,2,20]{2,1,0} dynamic-slice(param_72.46, select.2973.33, constant_1980_8, constant_1980_8), dynamic_slice_sizes={1,2,20}, metadata={op_name="jit(scan)/jit(main)/while/body/jit(_one_step)/vmap(while)/body/while/body/transpose(jvp(vmap(while)))/body/dynamic_slice[slice_sizes=(1, 2, 20)]" source_file="/fs04/fc37/adam/projects/psilocybin-prl-analyses/src/prl_hgf/fitting/hierarchical_patrl.py" source_line=378}
  bitcast.11473.5.clone.1.clone.1 = f64[2,20]{1,0} bitcast(dynamic-slice.1275.5.clone.1.clone.1)
  multiply.2936.5.clone.1.clone.1 = f64[2,20]{1,0} multiply(select.3006.7.clone.1.clone.1, bitcast.11473.5.clone.1.clone.1), metadata={op_name="jit(scan)/jit(main)/while/body/jit(_one_step)/vmap(while)/body/while/body/transpose(jvp(vmap(while)))/body/jit(beliefs_propagation)/jit(continuous_node_prediction)/jit(predict_precision)/mul" source_file="/fs04/fc37/adam/projects/psilocybin-prl-analyses/src/prl_hgf/fitting/hierarchical_patrl.py" source_line=362}
  add.4017.1.clone.1.clone.1 = f64[2,20]{1,0} add(param_71.32, multiply.2936.5.clone.1.clone.1), metadata={op_name="jit(scan)/jit(main)/while/body/jit(_one_step)/vmap(while)/body/while/body/transpose(jvp(vmap(while)))/body/jit(beliefs_propagation)/add_any" source_file="/fs04/fc37/adam/projects/psilocybin-prl-analyses/src/prl_hgf/fitting/hierarchical_patrl.py" source_line=362}
  add.4018.1.clone.1.clone.1 = f64[2,20]{1,0} add(add.4015.3.clone.1.clone.1, add.4017.1.clone.1.clone.1), metadata={op_name="jit(scan)/jit(main)/while/body/jit(_one_step)/vmap(while)/body/while/body/transpose(jvp(vmap(while)))/body/add_any" source_file="/fs04/fc37/adam/projects/psilocybin-prl-analyses/src/prl_hgf/fitting/hierarchical_patrl.py" source_line=362}
  select.3009.3.clone.1.clone.1 = f64[2,20]{1,0} select(bitcast.10661.168, broadcast.4024.clone.108, param_16.153), metadata={op_name="jit(scan)/jit(main)/while/body/jit(_one_step)/vmap(while)/body/while/body/transpose(jvp(vmap(while)))/body/jit(_where)/select_n" source_file="/fs04/fc37/adam/projects/psilocybin-prl-analyses/src/prl_hgf/fitting/hierarchical_patrl.py" source_line=370}
  param_76.65 = f64[2,20]{1,0} parameter(76)
  multiply.2937.5.clone.1.clone.1 = f64[2,20]{1,0} multiply(bitcast.11117.14.clone.1.clone.1, multiply.2936.5.clone.1.clone.1), metadata={op_name="jit(scan)/jit(main)/while/body/jit(_one_step)/vmap(while)/body/while/body/transpose(jvp(vmap(while)))/body/jit(beliefs_propagation)/jit(continuous_node_prediction)/jit(predict_precision)/mul" source_file="/fs04/fc37/adam/projects/psilocybin-prl-analyses/src/prl_hgf/fitting/hierarchical_patrl.py" source_line=362}
  add.4019.3.clone.1.clone.1 = f64[2,20]{1,0} add(param_76.65, multiply.2937.5.clone.1.clone.1), metadata={op_name="jit(scan)/jit(main)/while/body/jit(_one_step)/vmap(while)/body/while/body/transpose(jvp(vmap(while)))/body/jit(beliefs_propagation)/add_any" source_file="/fs04/fc37/adam/projects/psilocybin-prl-analyses/src/prl_hgf/fitting/hierarchical_patrl.py" source_line=362}
  param_75.40 = f64[2,20]{1,0} parameter(75)
  select.3010.3.clone.1.clone.1 = f64[2,20]{1,0} select(bitcast.10661.168, param_75.40, broadcast.4024.clone.108), metadata={op_name="jit(scan)/jit(main)/while/body/jit(_one_step)/vmap(while)/body/while/body/transpose(jvp(vmap(while)))/body/jit(_where)/select_n" source_file="/fs04/fc37/adam/projects/psilocybin-prl-analyses/src/prl_hgf/env/pat_rl_simulator.py" source_line=92}
  add.4020.3.clone.1.clone.1 = f64[2,20]{1,0} add(select.3010.3.clone.1.clone.1, select.2987.23), metadata={op_name="jit(scan)/jit(main)/while/body/jit(_one_step)/vmap(while)/body/while/body/transpose(jvp(vmap(while)))/body/jit(beliefs_propagation)/add_any" source_file="/fs04/fc37/adam/projects/psilocybin-prl-analyses/src/prl_hgf/fitting/hierarchical_patrl.py" source_line=362}
  add.4021.3.clone.1.clone.1 = f64[2,20]{1,0} add(add.4020.3.clone.1.clone.1, broadcast.4026.19), metadata={op_name="jit(scan)/jit(main)/while/body/jit(_one_step)/vmap(while)/body/while/body/transpose(jvp(vmap(while)))/body/jit(beliefs_propagation)/add_any" source_file="/fs04/fc37/adam/projects/psilocybin-prl-analyses/src/prl_hgf/fitting/hierarchical_patrl.py" source_line=362}
  multiply.2938.5.clone.1.clone.1 = f64[2,20]{1,0} multiply(bitcast.11005.8.clone.1.clone.1, add.4021.3.clone.1.clone.1), metadata={op_name="jit(scan)/jit(main)/while/body/jit(_one_step)/vmap(while)/body/while/body/transpose(jvp(vmap(while)))/body/jit(beliefs_propagation)/jit(continuous_node_prediction)/jit(predict_mean)/mul" source_file="/fs04/fc37/adam/projects/psilocybin-prl-analyses/src/prl_hgf/fitting/hierarchical_patrl.py" source_line=362}
…
  get-tuple-element.17086 = f64[2,20]{1,0} get-tuple-element(copy_fusion.1), index=1
  get-tuple-element.17085 = f64[2,20]{1,0} get-tuple-element(copy_fusion.1), index=0
  bitcast.20852 = f64[2,20]{1,0} bitcast(get-tuple-element.17085)
  bitcast.20853 = f64[2,20]{1,0} bitcast(get-tuple-element.17086)
  copy_fusion.2 = (f64[10,2,20]{2,1,0}, f64[10,2,20]{2,1,0}, f64[10,2,20]{2,1,0}, f64[10,2,20]{2,1,0}, f64[10,2,20]{2,1,0}, /*index=5*/f64[10,2,20]{2,1,0}, f64[10,2,20]{2,1,0}, f64[10,2,20]{2,1,0}, f64[10,2,20]{2,1,0}, f64[10,2,20]{2,1,0}, /*index=10*/f64[10,2,20]{2,1,0}, f64[10,2,20]{2,1,0}, f64[10,2,20]{2,1,0}, f64[10,2,20]{2,1,0}, f64[10,2,20]{2,1,0}, /*index=15*/f64[10,2,20]{2,1,0}, f64[10,2,20]{2,1,0}, f64[10,2,20]{2,1,0}, f64[10,2,20]{2,1,0}, f64[10,2,20]{2,1,0}, /*index=20*/f64[10,2,20]{2,1,0}, f64[10,2,20]{2,1,0}, f64[10,2,20]{2,1,0}, f64[10,2,20]{2,1,0}, f64[10,2,20]{2,1,0}, /*index=25*/f64[10,2,20]{2,1,0}, f64[10,2,20]{2,1,0}, f64[10,2,20]{2,1,0}, f64[10,2,20]{2,1,0}, f64[10,2,20]{2,1,0}, /*index=30*/f64[10,2,20]{2,1,0}, f64[10,2,20]{2,1,0}, f64[10,2,20]{2,1,0}, f64[10,2,20]{2,1,0}, f64[10,2,20]{2,1,0}, /*index=35*/f64[10,2,20]{2,1,0}, f64[10,2,20]{2,1,0}, f64[10,2,20]{2,1,0}, f64[10,2,20]{2,1,0}, f64[10,2,20]{2,1,0}, /*index=40*/f64[10,2,20]{2,1,0}, f64[10,2,20]{2,1,0}, f64[10,2,20]{2,1,0}, f64[10,2,20]{2,1,0}, f64[10,2,20]{2,1,0}, /*index=45*/f64[10,2,20]{2,1,0}, f64[10,2,20]{2,1,0}, f64[10,2,20]{2,1,0}, f64[10,2,20]{2,1,0}, f64[10,2,20]{2,1,0}, /*index=50*/f64[10,2,20]{2,1,0}, f64[10,2,20]{2,1,0}, f64[10,2,20]{2,1,0}) fusion(bitcast.20847), kind=kLoop, calls=copy_horizontally_fused_computation.2
  ROOT tuple.757 = (s64[], f64[2]{0}, pred[10,2]{1,0}, pred[10,2]{1,0}, s64[10,2]{1,0}, /*index=5*/s64[10,2]{1,0}, f64[10,2]{1,0}, f64[10,2,20]{2,1,0}, f64[10,2]{1,0}, f64[10,2]{1,0}, /*index=10*/f64[10,2]{1,0}, f64[10,2]{1,0}, f64[2,20]{1,0}, f64[2,20]{1,0}, f64[2,20]{1,0}, /*index=15*/f64[2,20]{1,0}, f64[2,20]{1,0}, f64[2,20]{1,0}, f64[2,20]{1,0}, f64[2,20]{1,0}, /*index=20*/f64[2,20]{1,0}, f64[2,20]{1,0}, f64[2,20]{1,0}, f64[2,20]{1,0}, (f64[10,2,20]{2,1,0}, f64[10,2,20]{2,1,0}, f64[10,2,20]{2,1,0}, f64[10,2,20]{2,1,0}, f64[10,2,20]{2,1,0}, /*index=5*/f64[10,2,20]{2,1,0}, f64[10,2,20]{2,1,0}, f64[10,2,20]{2,1,0}, f64[10,2,20]{2,1,0}, f64[10,2,20]{2,1,0}, /*index=10*/f64[10,2,20]{2,1,0}, f64[10,2,20]{2,1,0}, f64[10,2,20]{2,1,0}, f64[10,2,20]{2,1,0}, f64[10,2,20]{2,1,0}, /*index=15*/f64[10,2,20]{2,1,0}, f64[10,2,20]{2,1,0}, f64[10,2,20]{2,1,0}, f64[10,2,20]{2,1,0}, f64[10,2,20]{2,1,0}, /*index=20*/f64[10,2,20]{2,1,0}, f64[10,2,20]{2,1,0}, f64[10,2,20]{2,1,0}, f64[10,2,20]{2,1,0}, f64[10,2,20]{2,1,0}, /*index=25*/f64[10,2,20]{2,1,0}, f64[10,2,20]{2,1,0}, f64[10,2,20]{2,1,0}, f64[10,2,20]{2,1,0}, f64[10,2,20]{2,1,0}, /*index=30*/f64[10,2,20]{2,1,0}, f64[10,2,20]{2,1,0}, f64[10,2,20]{2,1,0}, f64[10,2,20]{2,1,0}, f64[10,2,20]{2,1,0}, /*index=35*/f64[10,2,20]{2,1,0}, f64[10,2,20]{2,1,0}, f64[10,2,20]{2,1,0}, f64[10,2,20]{2,1,0}, f64[10,2,20]{2,1,0}, /*index=40*/f64[10,2,20]{2,1,0}, f64[10,2,20]{2,1,0}, f64[10,2,20]{2,1,0}, f64[10,2,20]{2,1,0}, f64[10,2,20]{2,1,0}, /*index=45*/f64[10,2,20]{2,1,0}, f64[10,2,20]{2,1,0}, f64[10,2,20]{2,1,0}, f64[10,2,20]{2,1,0}, f64[10,2,20]{2,1,0}, /*index=50*/f64[10,2,20]{2,1,0}, f64[10,2,20]{2,1,0}, f64[10,2,20]{2,1,0})) tuple(wrapped_copy, wrapped_copy.1, get-tuple-element.17077, get-tuple-element.17078, get-tuple-element.17079, /*index=5*/get-tuple-element.17080, bitcast.20846, bitcast.20847, bitcast.20851, bitcast.20850, /*index=10*/bitcast.20848, bitcast.20849, bitcast.20863, bitcast.20862, bitcast.20861, /*index=15*/bitcast.20860, bitcast.20859, bitcast.20858, bitcast.20857, bitcast.20856, /*index=20*/bitcast.20855, bitcast.20854, bitcast.20852, bitcast.20853, copy_fusion.2)
} // command_buffer

ENTRY main.10354 {
  constant_15_0 = s64[] constant(0)
  Arg_13.14.0 = u32[10,2]{1,0} parameter(13), metadata={op_name="args[13]"}
  Arg_12.13.0 = f64[2,20]{1,0} parameter(12), metadata={op_name="args[12]"}
  Arg_11.12.0 = f64[2,20]{1,0} parameter(11), metadata={op_name="args[11]"}
  Arg_10.11.0 = f64[2,20]{1,0} parameter(10), metadata={op_name="args[10]"}
  Arg_9.10.0 = f64[2,20]{1,0} parameter(9), metadata={op_name="args[9]"}
  Arg_8.9.0 = f64[2,20]{1,0} parameter(8), metadata={op_name="args[8]"}
  Arg_7.8.0 = f64[2,20]{1,0} parameter(7), metadata={op_name="args[7]"}
  Arg_6.7.0 = f64[2]{0} parameter(6), metadata={op_name="args[6]"}
  Arg_5.6.0 = f64[2,20]{1,0} parameter(5), metadata={op_name="args[5]"}
  Arg_4.5.0 = f64[2,20]{1,0} parameter(4), metadata={op_name="args[4]"}
  Arg_3.4.0 = f64[2,20]{1,0} parameter(3), metadata={op_name="args[3]"}
  Arg_2.3.0 = f64[2,20]{1,0} parameter(2), metadata={op_name="args[2]"}
  Arg_1.2.0 = f64[2,20]{1,0} parameter(1), metadata={op_name="args[1]"}
  Arg_0.1.0 = f64[2,20]{1,0} parameter(0), metadata={op_name="args[0]"}
  call.1 = (s64[], f64[2]{0}, pred[10,2]{1,0}, pred[10,2]{1,0}, s64[10,2]{1,0}, /*index=5*/s64[10,2]{1,0}, f64[10,2]{1,0}, f64[10,2,20]{2,1,0}, f64[10,2]{1,0}, f64[10,2]{1,0}, /*index=10*/f64[10,2]{1,0}, f64[10,2]{1,0}, f64[2,20]{1,0}, f64[2,20]{1,0}, f64[2,20]{1,0}, /*index=15*/f64[2,20]{1,0}, f64[2,20]{1,0}, f64[2,20]{1,0}, f64[2,20]{1,0}, f64[2,20]{1,0}, /*index=20*/f64[2,20]{1,0}, f64[2,20]{1,0}, f64[2,20]{1,0}, f64[2,20]{1,0}, (f64[10,2,20]{2,1,0}, f64[10,2,20]{2,1,0}, f64[10,2,20]{2,1,0}, f64[10,2,20]{2,1,0}, f64[10,2,20]{2,1,0}, /*index=5*/f64[10,2,20]{2,1,0}, f64[10,2,20]{2,1,0}, f64[10,2,20]{2,1,0}, f64[10,2,20]{2,1,0}, f64[10,2,20]{2,1,0}, /*index=10*/f64[10,2,20]{2,1,0}, f64[10,2,20]{2,1,0}, f64[10,2,20]{2,1,0}, f64[10,2,20]{2,1,0}, f64[10,2,20]{2,1,0}, /*index=15*/f64[10,2,20]{2,1,0}, f64[10,2,20]{2,1,0}, f64[10,2,20]{2,1,0}, f64[10,2,20]{2,1,0}, f64[10,2,20]{2,1,0}, /*index=20*/f64[10,2,20]{2,1,0}, f64[10,2,20]{2,1,0}, f64[10,2,20]{2,1,0}, f64[10,2,20]{2,1,0}, f64[10,2,20]{2,1,0}, /*index=25*/f64[10,2,20]{2,1,0}, f64[10,2,20]{2,1,0}, f64[10,2,20]{2,1,0}, f64[10,2,20]{2,1,0}, f64[10,2,20]{2,1,0}, /*index=30*/f64[10,2,20]{2,1,0}, f64[10,2,20]{2,1,0}, f64[10,2,20]{2,1,0}, f64[10,2,20]{2,1,0}, f64[10,2,20]{2,1,0}, /*index=35*/f64[10,2,20]{2,1,0}, f64[10,2,20]{2,1,0}, f64[10,2,20]{2,1,0}, f64[10,2,20]{2,1,0}, f64[10,2,20]{2,1,0}, /*index=40*/f64[10,2,20]{2,1,0}, f64[10,2,20]{2,1,0}, f64[10,2,20]{2,1,0}, f64[10,2,20]{2,1,0}, f64[10,2,20]{2,1,0}, /*index=45*/f64[10,2,20]{2,1,0}, f64[10,2,20]{2,1,0}, f64[10,2,20]{2,1,0}, f64[10,2,20]{2,1,0}, f64[10,2,20]{2,1,0}, /*index=50*/f64[10,2,20]{2,1,0}, f64[10,2,20]{2,1,0}, f64[10,2,20]{2,1,0})) call(constant_15_0, Arg_6.7.0, Arg_0.1.0, Arg_1.2.0, Arg_2.3.0, /*index=5*/Arg_3.4.0, Arg_4.5.0, Arg_5.6.0, Arg_7.8.0, Arg_8.9.0, /*index=10*/Arg_9.10.0, Arg_10.11.0, Arg_11.12.0, Arg_12.13.0), to_apply=command_buffer
  get-tuple-element.17172 = s64[] get-tuple-element(call.1), index=0
  get-tuple-element.17173 = f64[2]{0} get-tuple-element(call.1), index=1
  get-tuple-element.17174 = pred[10,2]{1,0} get-tuple-element(call.1), index=2
  get-tuple-element.17175 = pred[10,2]{1,0} get-tuple-element(call.1), index=3
  get-tuple-element.17176 = s64[10,2]{1,0} get-tuple-element(call.1), index=4
  get-tuple-element.17177 = s64[10,2]{1,0} get-tuple-element(call.1), index=5
  get-tuple-element.17178 = f64[10,2]{1,0} get-tuple-element(call.1), index=6
  get-tuple-element.17179 = f64[10,2,20]{2,1,0} get-tuple-element(call.1), index=7
  get-tuple-element.17180 = f64[10,2]{1,0} get-tuple-element(call.1), index=8
  get-tuple-element.17181 = f64[10,2]{1,0} get-tuple-element(call.1), index=9
  get-tuple-element.17182 = f64[10,2]{1,0} get-tuple-element(call.1), index=10
  get-tuple-element.17183 = f64[10,2]{1,0} get-tuple-element(call.1), index=11
  get-tuple-element.17184 = f64[2,20]{1,0} get-tuple-element(call.1), index=12
  get-tuple-element.17185 = f64[2,20]{1,0} get-tuple-element(call.1), index=13
  get-tuple-element.17186 = f64[2,20]{1,0} get-tuple-element(call.1), index=14
  get-tuple-element.17187 = f64[2,20]{1,0} get-tuple-element(call.1), index=15
  get-tuple-element.17188 = f64[2,20]{1,0} get-tuple-element(call.1), index=16
  get-tuple-element.17189 = f64[2,20]{1,0} get-tuple-element(call.1), index=17
  get-tuple-element.17190 = f64[2,20]{1,0} get-tuple-element(call.1), index=18
  get-tuple-element.17191 = f64[2,20]{1,0} get-tuple-element(call.1), index=19
  get-tuple-element.17192 = f64[2,20]{1,0} get-tuple-element(call.1), index=20
  get-tuple-element.17193 = f64[2,20]{1,0} get-tuple-element(call.1), index=21
  get-tuple-element.17194 = f64[2,20]{1,0} get-tuple-element(call.1), index=22
  get-tuple-element.17195 = f64[2,20]{1,0} get-tuple-element(call.1), index=23
  get-tuple-element.17196 = (f64[10,2,20]{2,1,0}, f64[10,2,20]{2,1,0}, f64[10,2,20]{2,1,0}, f64[10,2,20]{2,1,0}, f64[10,2,20]{2,1,0}, /*index=5*/f64[10,2,20]{2,1,0}, f64[10,2,20]{2,1,0}, f64[10,2,20]{2,1,0}, f64[10,2,20]{2,1,0}, f64[10,2,20]{2,1,0}, /*index=10*/f64[10,2,20]{2,1,0}, f64[10,2,20]{2,1,0}, f64[10,2,20]{2,1,0}, f64[10,2,20]{2,1,0}, f64[10,2,20]{2,1,0}, /*index=15*/f64[10,2,20]{2,1,0}, f64[10,2,20]{2,1,0}, f64[10,2,20]{2,1,0}, f64[10,2,20]{2,1,0}, f64[10,2,20]{2,1,0}, /*index=20*/f64[10,2,20]{2,1,0}, f64[10,2,20]{2,1,0}, f64[10,2,20]{2,1,0}, f64[10,2,20]{2,1,0}, f64[10,2,20]{2,1,0}, /*index=25*/f64[10,2,20]{2,1,0}, f64[10,2,20]{2,1,0}, f64[10,2,20]{2,1,0}, f64[10,2,20]{2,1,0}, f64[10,2,20]{2,1,0}, /*index=30*/f64[10,2,20]{2,1,0}, f64[10,2,20]{2,1,0}, f64[10,2,20]{2,1,0}, f64[10,2,20]{2,1,0}, f64[10,2,20]{2,1,0}, /*index=35*/f64[10,2,20]{2,1,0}, f64[10,2,20]{2,1,0}, f64[10,2,20]{2,1,0}, f64[10,2,20]{2,1,0}, f64[10,2,20]{2,1,0}, /*index=40*/f64[10,2,20]{2,1,0}, f64[10,2,20]{2,1,0}, f64[10,2,20]{2,1,0}, f64[10,2,20]{2,1,0}, f64[10,2,20]{2,1,0}, /*index=45*/f64[10,2,20]{2,1,0}, f64[10,2,20]{2,1,0}, f64[10,2,20]{2,1,0}, f64[10,2,20]{2,1,0}, f64[10,2,20]{2,1,0}, /*index=50*/f64[10,2,20]{2,1,0}, f64[10,2,20]{2,1,0}, f64[10,2,20]{2,1,0}) get-tuple-element(call.1), index=24
  get-tuple-element.17149 = f64[10,2,20]{2,1,0} get-tuple-element(get-tuple-element.17196), index=52
  bitcast.20916 = f64[10,2,20]{2,1,0} bitcast(get-tuple-element.17149)
  get-tuple-element.17148 = f64[10,2,20]{2,1,0} get-tuple-element(get-tuple-element.17196), index=51
  bitcast.20915 = f64[10,2,20]{2,1,0} bitcast(get-tuple-element.17148)
  get-tuple-element.17147 = f64[10,2,20]{2,1,0} get-tuple-element(get-tuple-element.17196), index=50
  bitcast.20914 = f64[10,2,20]{2,1,0} bitcast(get-tuple-element.17147)
  get-tuple-element.17146 = f64[10,2,20]{2,1,0} get-tuple-element(get-tuple-element.17196), index=49
  bitcast.20913 = f64[10,2,20]{2,1,0} bitcast(get-tuple-element.17146)
  get-tuple-element.17145 = f64[10,2,20]{2,1,0} get-tuple-element(get-tuple-element.17196), index=48
  bitcast.20912 = f64[10,2,20]{2,1,0} bitcast(get-tuple-element.17145)
  get-tuple-element.17144 = f64[10,2,20]{2,1,0} get-tuple-element(get-tuple-element.17196), index=47
  bitcast.20911 = f64[10,2,20]{2,1,0} bitcast(get-tuple-element.17144)
  get-tuple-element.17143 = f64[10,2,20]{2,1,0} get-tuple-element(get-tuple-element.17196), index=46
  bitcast.20910 = f64[10,2,20]{2,1,0} bitcast(get-tuple-element.17143)
  get-tuple-element.17142 = f64[10,2,20]{2,1,0} get-tuple-element(get-tuple-element.17196), index=45
  bitcast.20909 = f64[10,2,20]{2,1,0} bitcast(get-tuple-element.17142)
  get-tuple-element.17141 = f64[10,2,20]{2,1,0} get-tuple-element(get-tuple-element.17196), index=44
  bitcast.20908 = f64[10,2,20]{2,1,0} bitcast(get-tuple-element.17141)
  get-tuple-element.17140 = f64[10,2,20]{2,1,0} get-tuple-element(get-tuple-element.17196), index=43
  bitcast.20907 = f64[10,2,20]{2,1,0} bitcast(get-tuple-element.17140)
  get-tuple-element.17139 = f64[10,2,20]{2,1,0} get-tuple-element(get-tuple-element.17196), index=42
  bitcast.20906 = f64[10,2,20]{2,1,0} bitcast(get-tuple-element.17139)
  get-tuple-element.17138 = f64[10,2,20]{2,1,0} get-tuple-element(get-tuple-element.17196), index=41
  bitcast.20905 = f64[10,2,20]{2,1,0} bitcast(get-tuple-element.17138)
  get-tuple-element.17137 = f64[10,2,20]{2,1,0} get-tuple-element(get-tuple-element.17196), index=40
  bitcast.20904 = f64[10,2,20]{2,1,0} bitcast(get-tuple-element.17137)
  get-tuple-element.17136 = f64[10,2,20]{2,1,0} get-tuple-element(get-tuple-element.17196), index=39
  bitcast.20903 = f64[10,2,20]{2,1,0} bitcast(get-tuple-element.17136)
  get-tuple-element.17135 = f64[10,2,20]{2,1,0} get-tuple-element(get-tuple-element.17196), index=38
  bitcast.20902 = f64[10,2,20]{2,1,0} bitcast(get-tuple-element.17135)
  get-tuple-element.17134 = f64[10,2,20]{2,1,0} get-tuple-element(get-tuple-element.17196), index=37
  bitcast.20901 = f64[10,2,20]{2,1,0} bitcast(get-tuple-element.17134)
  get-tuple-element.17133 = f64[10,2,20]{2,1,0} get-tuple-element(get-tuple-element.17196), index=36
  bitcast.20900 = f64[10,2,20]{2,1,0} bitcast(get-tuple-element.17133)
  get-tuple-element.17132 = f64[10,2,20]{2,1,0} get-tuple-element(get-tuple-element.17196), index=35
  bitcast.20899 = f64[10,2,20]{2,1,0} bitcast(get-tuple-element.17132)
  get-tuple-element.17131 = f64[10,2,20]{2,1,0} get-tuple-element(get-tuple-element.17196), index=34
  bitcast.20898 = f64[10,2,20]{2,1,0} bitcast(get-tuple-element.17131)
  get-tuple-element.17130 = f64[10,2,20]{2,1,0} get-tuple-element(get-tuple-element.17196), index=33
  bitcast.20897 = f64[10,2,20]{2,1,0} bitcast(get-tuple-element.17130)
  get-tuple-element.17129 = f64[10,2,20]{2,1,0} get-tuple-element(get-tuple-element.17196), index=32
  bitcast.20896 = f64[10,2,20]{2,1,0} bitcast(get-tuple-element.17129)
  get-tuple-element.17128 = f64[10,2,20]{2,1,0} get-tuple-element(get-tuple-element.17196), index=31
  bitcast.20895 = f64[10,2,20]{2,1,0} bitcast(get-tuple-element.17128)
  get-tuple-element.17127 = f64[10,2,20]{2,1,0} get-tuple-element(get-tuple-element.17196), index=30
  bitcast.20894 = f64[10,2,20]{2,1,0} bitcast(get-tuple-element.17127)
  get-tuple-element.17126 = f64[10,2,20]{2,1,0} get-tuple-element(get-tuple-element.17196), index=29
  bitcast.20893 = f64[10,2,20]{2,1,0} bitcast(get-tuple-element.17126)
  get-tuple-element.17125 = f64[10,2,20]{2,1,0} get-tuple-element(get-tuple-element.17196), index=28
  bitcast.20892 = f64[10,2,20]{2,1,0} bitcast(get-tuple-element.17125)
  get-tuple-element.17124 = f64[10,2,20]{2,1,0} get-tuple-element(get-tuple-element.17196), index=27
  bitcast.20891 = f64[10,2,20]{2,1,0} bitcast(get-tuple-element.17124)
  get-tuple-element.17123 = f64[10,2,20]{2,1,0} get-tuple-element(get-tuple-element.17196), index=26
  bitcast.20890 = f64[10,2,20]{2,1,0} bitcast(get-tuple-element.17123)
  get-tuple-element.17122 = f64[10,2,20]{2,1,0} get-tuple-element(get-tuple-element.17196), index=25
  bitcast.20889 = f64[10,2,20]{2,1,0} bitcast(get-tuple-element.17122)
  get-tuple-element.17121 = f64[10,2,20]{2,1,0} get-tuple-element(get-tuple-element.17196), index=24
  bitcast.20888 = f64[10,2,20]{2,1,0} bitcast(get-tuple-element.17121)
  get-tuple-element.17120 = f64[10,2,20]{2,1,0} get-tuple-element(get-tuple-element.17196), index=23
  bitcast.20887 = f64[10,2,20]{2,1,0} bitcast(get-tuple-element.17120)
  get-tuple-element.17119 = f64[10,2,20]{2,1,0} get-tuple-element(get-tuple-element.17196), index=22
  bitcast.20886 = f64[10,2,20]{2,1,0} bitcast(get-tuple-element.17119)
  get-tuple-element.17118 = f64[10,2,20]{2,1,0} get-tuple-element(get-tuple-element.17196), index=21
  bitcast.20885 = f64[10,2,20]{2,1,0} bitcast(get-tuple-element.17118)
  get-tuple-element.17117 = f64[10,2,20]{2,1,0} get-tuple-element(get-tuple-element.17196), index=20
  bitcast.20884 = f64[10,2,20]{2,1,0} bitcast(get-tuple-element.17117)
  get-tuple-element.17116 = f64[10,2,20]{2,1,0} get-tuple-element(get-tuple-element.17196), index=19
  bitcast.20883 = f64[10,2,20]{2,1,0} bitcast(get-tuple-element.17116)
  get-tuple-element.17115 = f64[10,2,20]{2,1,0} get-tuple-element(get-tuple-element.17196), index=18
  bitcast.20882 = f64[10,2,20]{2,1,0} bitcast(get-tuple-element.17115)
  get-tuple-element.17114 = f64[10,2,20]{2,1,0} get-tuple-element(get-tuple-element.17196), index=17
  bitcast.20881 = f64[10,2,20]{2,1,0} bitcast(get-tuple-element.17114)
  get-tuple-element.17113 = f64[10,2,20]{2,1,0} get-tuple-element(get-tuple-element.17196), index=16
  bitcast.20880 = f64[10,2,20]{2,1,0} bitcast(get-tuple-element.17113)
  get-tuple-element.17112 = f64[10,2,20]{2,1,0} get-tuple-element(get-tuple-element.17196), index=15
  bitcast.20879 = f64[10,2,20]{2,1,0} bitcast(get-tuple-element.17112)
  get-tuple-element.17111 = f64[10,2,20]{2,1,0} get-tuple-element(get-tuple-element.17196), index=14
  bitcast.20878 = f64[10,2,20]{2,1,0} bitcast(get-tuple-element.17111)
  get-tuple-element.17110 = f64[10,2,20]{2,1,0} get-tuple-element(get-tuple-element.17196), index=13
  bitcast.20877 = f64[10,2,20]{2,1,0} bitcast(get-tuple-element.17110)
  get-tuple-element.17109 = f64[10,2,20]{2,1,0} get-tuple-element(get-tuple-element.17196), index=12
  bitcast.20876 = f64[10,2,20]{2,1,0} bitcast(get-tuple-element.17109)
  get-tuple-element.17108 = f64[10,2,20]{2,1,0} get-tuple-element(get-tuple-element.17196), index=11
  bitcast.20875 = f64[10,2,20]{2,1,0} bitcast(get-tuple-element.17108)
  get-tuple-element.17107 = f64[10,2,20]{2,1,0} get-tuple-element(get-tuple-element.17196), index=10
  bitcast.20874 = f64[10,2,20]{2,1,0} bitcast(get-tuple-element.17107)
  get-tuple-element.17106 = f64[10,2,20]{2,1,0} get-tuple-element(get-tuple-element.17196), index=9
  bitcast.20873 = f64[10,2,20]{2,1,0} bitcast(get-tuple-element.17106)
  get-tuple-element.17105 = f64[10,2,20]{2,1,0} get-tuple-element(get-tuple-element.17196), index=8
  bitcast.20872 = f64[10,2,20]{2,1,0} bitcast(get-tuple-element.17105)
  get-tuple-element.17104 = f64[10,2,20]{2,1,0} get-tuple-element(get-tuple-element.17196), index=7
  bitcast.20871 = f64[10,2,20]{2,1,0} bitcast(get-tuple-element.17104)
  get-tuple-element.17103 = f64[10,2,20]{2,1,0} get-tuple-element(get-tuple-element.17196), index=6
  bitcast.20870 = f64[10,2,20]{2,1,0} bitcast(get-tuple-element.17103)
  get-tuple-element.17102 = f64[10,2,20]{2,1,0} get-tuple-element(get-tuple-element.17196), index=5
  bitcast.20869 = f64[10,2,20]{2,1,0} bitcast(get-tuple-element.17102)
  get-tuple-element.17101 = f64[10,2,20]{2,1,0} get-tuple-element(get-tuple-element.17196), index=4
  bitcast.20868 = f64[10,2,20]{2,1,0} bitcast(get-tuple-element.17101)
  get-tuple-element.17100 = f64[10,2,20]{2,1,0} get-tuple-element(get-tuple-element.17196), index=3
  bitcast.20867 = f64[10,2,20]{2,1,0} bitcast(get-tuple-element.17100)
  get-tuple-element.17099 = f64[10,2,20]{2,1,0} get-tuple-element(get-tuple-element.17196), index=2
  bitcast.20866 = f64[10,2,20]{2,1,0} bitcast(get-tuple-element.17099)
  get-tuple-element.17098 = f64[10,2,20]{2,1,0} get-tuple-element(get-tuple-element.17196), index=1
  get-tuple-element.17097 = f64[10,2,20]{2,1,0} get-tuple-element(get-tuple-element.17196), index=0
  bitcast.20864 = f64[10,2,20]{2,1,0} bitcast(get-tuple-element.17097)
  bitcast.20865 = f64[10,2,20]{2,1,0} bitcast(get-tuple-element.17098)
  tuple.749 = (s64[], f64[2,20]{1,0}, f64[2,20]{1,0}, f64[2,20]{1,0}, f64[2,20]{1,0}, /*index=5*/f64[2,20]{1,0}, f64[2,20]{1,0}, f64[2]{0}, f64[2,20]{1,0}, f64[2,20]{1,0}, /*index=10*/f64[2,20]{1,0}, f64[2,20]{1,0}, f64[2,20]{1,0}, f64[2,20]{1,0}, f64[10,2,20]{2,1,0}, /*index=15*/f64[10,2,20]{2,1,0}, f64[10,2,20]{2,1,0}, f64[10,2,20]{2,1,0}, f64[10,2,20]{2,1,0}, f64[10,2,20]{2,1,0}, /*index=20*/f64[10,2]{1,0}, f64[10,2,20]{2,1,0}, f64[10,2,20]{2,1,0}, f64[10,2,20]{2,1,0}, f64[10,2,20]{2,1,0}, /*index=25*/f64[10,2,20]{2,1,0}, f64[10,2,20]{2,1,0}, f64[10,2,20]{2,1,0}, f64[10,2,20]{2,1,0}, f64[10,2,20]{2,1,0}, /*index=30*/f64[10,2,20]{2,1,0}, f64[10,2,20]{2,1,0}, f64[10,2,20]{2,1,0}, pred[10,2]{1,0}, pred[10,2]{1,0}, /*index=35*/f64[10,2]{1,0}, f64[10,2,20]{2,1,0}, f64[10,2,20]{2,1,0}, f64[10,2,20]{2,1,0}, f64[10,2,20]{2,1,0}, /*index=40*/f64[10,2,20]{2,1,0}, f64[10,2,20]{2,1,0}, f64[10,2,20]{2,1,0}, f64[10,2,20]{2,1,0}, f64[10,2,20]{2,1,0}, /*index=45*/f64[10,2,20]{2,1,0}, f64[10,2,20]{2,1,0}, f64[10,2,20]{2,1,0}, f64[10,2]{1,0}, f64[10,2,20]{2,1,0}, /*index=50*/f64[10,2,20]{2,1,0}, f64[10,2,20]{2,1,0}, f64[10,2,20]{2,1,0}, f64[10,2,20]{2,1,0}, f64[10,2,20]{2,1,0}, /*index=55*/f64[10,2,20]{2,1,0}, f64[10,2,20]{2,1,0}, f64[10,2,20]{2,1,0}, f64[10,2,20]{2,1,0}, f64[10,2,20]{2,1,0}, /*index=60*/f64[10,2,20]{2,1,0}, f64[10,2,20]{2,1,0}, f64[10,2,20]{2,1,0}, f64[10,2,20]{2,1,0}, f64[10,2,20]{2,1,0}, /*index=65*/f64[10,2,20]{2,1,0}, f64[10,2,20]{2,1,0}, f64[10,2]{1,0}, f64[10,2,20]{2,1,0}, f64[10,2,20]{2,1,0}, /*index=70*/f64[10,2,20]{2,1,0}, f64[10,2,20]{2,1,0}, f64[10,2,20]{2,1,0}, f64[10,2,20]{2,1,0}, s64[10,2]{1,0}, /*index=75*/s64[10,2]{1,0}, f64[10,2]{1,0}, u32[10,2]{1,0}) tuple(get-tuple-element.17172, get-tuple-element.17194, get-tuple-element.17195, get-tuple-element.17193, get-tuple-element.17192, /*index=5*/get-tuple-element.17191, get-tuple-element.17190, get-tuple-element.17173, get-tuple-element.17189, get-tuple-element.17188, /*index=10*/get-tuple-element.17187, get-tuple-element.17186, get-tuple-element.17185, get-tuple-element.17184, get-tuple-element.17179, /*index=15*/bitcast.20864, bitcast.20865, bitcast.20866, bitcast.20867, bitcast.20868, /*index=20*/get-tuple-element.17178, bitcast.20869, bitcast.20870, bitcast.20871, bitcast.20872, /*index=25*/bitcast.20873, bitcast.20874, bitcast.20875, bitcast.20876, bitcast.20877, /*index=30*/bitcast.20878, bitcast.20879, bitcast.20880, get-tuple-element.17174, get-tuple-element.17175, /*index=35*/get-tuple-element.17182, bitcast.20881, bitcast.20882, bitcast.20883, bitcast.20884, /*index=40*/bitcast.20885, bitcast.20886, bitcast.20887, bitcast.20888, bitcast.20889, /*index=45*/bitcast.20890, bitcast.20891, bitcast.20892, get-tuple-element.17183, bitcast.20893, /*index=50*/bitcast.20894, bitcast.20895, bitcast.20896, bitcast.20897, bitcast.20898, /*index=55*/bitcast.20899, bitcast.20900, bitcast.20901, bitcast.20902, bitcast.20903, /*index=60*/bitcast.20904, bitcast.20905, bitcast.20906, bitcast.20907, bitcast.20908, /*index=65*/bitcast.20909, bitcast.20910, get-tuple-element.17181, bitcast.20911, bitcast.20912, /*index=70*/bitcast.20913, bitcast.20914, bitcast.20915, bitcast.20916, get-tuple-element.17176, /*index=75*/get-tuple-element.17177, get-tuple-element.17180, Arg_13.14.0)
  while.10274.0 = (s64[], f64[2,20]{1,0}, f64[2,20]{1,0}, f64[2,20]{1,0}, f64[2,20]{1,0}, /*index=5*/f64[2,20]{1,0}, f64[2,20]{1,0}, f64[2]{0}, f64[2,20]{1,0}, f64[2,20]{1,0}, /*index=10*/f64[2,20]{1,0}, f64[2,20]{1,0}, f64[2,20]{1,0}, f64[2,20]{1,0}, f64[10,2,20]{2,1,0}, /*index=15*/f64[10,2,20]{2,1,0}, f64[10,2,20]{2,1,0}, f64[10,2,20]{2,1,0}, f64[10,2,20]{2,1,0}, f64[10,2,20]{2,1,0}, /*index=20*/f64[10,2]{1,0}, f64[10,2,20]{2,1,0}, f64[10,2,20]{2,1,0}, f64[10,2,20]{2,1,0}, f64[10,2,20]{2,1,0}, /*index=25*/f64[10,2,20]{2,1,0}, f64[10,2,20]{2,1,0}, f64[10,2,20]{2,1,0}, f64[10,2,20]{2,1,0}, f64[10,2,20]{2,1,0}, /*index=30*/f64[10,2,20]{2,1,0}, f64[10,2,20]{2,1,0}, f64[10,2,20]{2,1,0}, pred[10,2]{1,0}, pred[10,2]{1,0}, /*index=35*/f64[10,2]{1,0}, f64[10,2,20]{2,1,0}, f64[10,2,20]{2,1,0}, f64[10,2,20]{2,1,0}, f64[10,2,20]{2,1,0}, /*index=40*/f64[10,2,20]{2,1,0}, f64[10,2,20]{2,1,0}, f64[10,2,20]{2,1,0}, f64[10,2,20]{2,1,0}, f64[10,2,20]{2,1,0}, /*index=45*/f64[10,2,20]{2,1,0}, f64[10,2,20]{2,1,0}, f64[10,2,20]{2,1,0}, f64[10,2]{1,0}, f64[10,2,20]{2,1,0}, /*index=50*/f64[10,2,20]{2,1,0}, f64[10,2,20]{2,1,0}, f64[10,2,20]{2,1,0}, f64[10,2,20]{2,1,0}, f64[10,2,20]{2,1,0}, /*index=55*/f64[10,2,20]{2,1,0}, f64[10,2,20]{2,1,0}, f64[10,2,20]{2,1,0}, f64[10,2,20]{2,1,0}, f64[10,2,20]{2,1,0}, /*index=60*/f64[10,2,20]{2,1,0}, f64[10,2,20]{2,1,0}, f64[10,2,20]{2,1,0}, f64[10,2,20]{2,1,0}, f64[10,2,20]{2,1,0}, /*index=65*/f64[10,2,20]{2,1,0}, f64[10,2,20]{2,1,0}, f64[10,2]{1,0}, f64[10,2,20]{2,1,0}, f64[10,2,20]{2,1,0}, /*index=70*/f64[10,2,20]{2,1,0}, f64[10,2,20]{2,1,0}, f64[10,2,20]{2,1,0}, f64[10,2,20]{2,1,0}, s64[10,2]{1,0}, /*index=75*/s64[10,2]{1,0}, f64[10,2]{1,0}, u32[10,2]{1,0}) while(tuple.749), condition=region_42.10192, body=region_0.9710, metadata={op_name="jit(scan)/jit(main)/while[cond_nconsts=0 body_nconsts=1]" source_file="/fs04/fc37/adam/projects/psilocybin-prl-analyses/src/prl_hgf/fitting/hierarchical.py" source_line=1153}, backend_config={"known_trip_count":{"n":"10"}}
  get-tuple-element.10349.0 = s64[10,2]{1,0} get-tuple-element(while.10274.0), index=74, metadata={op_name="jit(scan)/jit(main)/while[cond_nconsts=0 body_nconsts=1]" source_file="/fs04/fc37/adam/projects/psilocybin-prl-analyses/src/prl_hgf/fitting/hierarchical.py" source_line=1153}
  get-tuple-element.10348.0 = f64[10,2,20]{2,1,0} get-tuple-element(while.10274.0), index=73, metadata={op_name="jit(scan)/jit(main)/while[cond_nconsts=0 body_nconsts=1]" source_file="/fs04/fc37/adam/projects/psilocybin-prl-analyses/src/prl_hgf/fitting/hierarchical.py" source_line=1153}
  get-tuple-element.10347.0 = f64[10,2,20]{2,1,0} get-tuple-element(while.10274.0), index=72, metadata={op_name="jit(scan)/jit(main)/while[cond_nconsts=0 body_nconsts=1]" source_file="/fs04/fc37/adam/projects/psilocybin-prl-analyses/src/prl_hgf/fitting/hierarchical.py" source_line=1153}
  get-tuple-element.10346.0 = f64[10,2,20]{2,1,0} get-tuple-element(while.10274.0), index=71, metadata={op_name="jit(scan)/jit(main)/while[cond_nconsts=0 body_nconsts=1]" source_file="/fs04/fc37/adam/projects/psilocybin-prl-analyses/src/prl_hgf/fitting/hierarchical.py" source_line=1153}
  get-tuple-element.10345.0 = f64[10,2,20]{2,1,0} get-tuple-element(while.10274.0), index=70, metadata={op_name="jit(scan)/jit(main)/while[cond_nconsts=0 body_nconsts=1]" source_file="/fs04/fc37/adam/projects/psilocybin-prl-analyses/src/prl_hgf/fitting/hierarchical.py" source_line=1153}
  get-tuple-element.10344.0 = f64[10,2,20]{2,1,0} get-tuple-element(while.10274.0), index=69, metadata={op_name="jit(scan)/jit(main)/while[cond_nconsts=0 body_nconsts=1]" source_file="/fs04/fc37/adam/projects/psilocybin-prl-analyses/src/prl_hgf/fitting/hierarchical.py" source_line=1153}
  get-tuple-element.10343.0 = f64[10,2,20]{2,1,0} get-tuple-element(while.10274.0), index=68, metadata={op_name="jit(scan)/jit(main)/while[cond_nconsts=0 body_nconsts=1]" source_file="/fs04/fc37/adam/projects/psilocybin-prl-analyses/src/prl_hgf/fitting/hierarchical.py" source_line=1153}
  get-tuple-element.10342.0 = f64[10,2]{1,0} get-tuple-element(while.10274.0), index=67, metadata={op_name="jit(scan)/jit(main)/while[cond_nconsts=0 body_nconsts=1]" source_file="/fs04/fc37/adam/projects/psilocybin-prl-analyses/src/prl_hgf/fitting/hierarchical.py" source_line=1153}
  get-tuple-element.10341.0 = f64[10,2,20]{2,1,0} get-tuple-element(while.10274.0), index=66, metadata={op_name="jit(scan)/jit(main)/while[cond_nconsts=0 body_nconsts=1]" source_file="/fs04/fc37/adam/projects/psilocybin-prl-analyses/src/prl_hgf/fitting/hierarchical.py" source_line=1153}
  get-tuple-element.10340.0 = f64[10,2,20]{2,1,0} get-tuple-element(while.10274.0), index=65, metadata={op_name="jit(scan)/jit(main)/while[cond_nconsts=0 body_nconsts=1]" source_file="/fs04/fc37/adam/projects/psilocybin-prl-analyses/src/prl_hgf/fitting/hierarchical.py" source_line=1153}
  get-tuple-element.10339.0 = f64[10,2,20]{2,1,0} get-tuple-element(while.10274.0), index=64, metadata={op_name="jit(scan)/jit(main)/while[cond_nconsts=0 body_nconsts=1]" source_file="/fs04/fc37/adam/projects/psilocybin-prl-analyses/src/prl_hgf/fitting/hierarchical.py" source_line=1153}
  get-tuple-element.10338.0 = f64[10,2,20]{2,1,0} get-tuple-element(while.10274.0), index=63, metadata={op_name="jit(scan)/jit(main)/while[cond_nconsts=0 body_nconsts=1]" source_file="/fs04/fc37/adam/projects/psilocybin-prl-analyses/src/prl_hgf/fitting/hierarchical.py" source_line=1153}
  get-tuple-element.10337.0 = f64[10,2,20]{2,1,0} get-tuple-element(while.10274.0), index=62, metadata={op_name="jit(scan)/jit(main)/while[cond_nconsts=0 body_nconsts=1]" source_file="/fs04/fc37/adam/projects/psilocybin-prl-analyses/src/prl_hgf/fitting/hierarchical.py" source_line=1153}
  get-tuple-element.10336.0 = f64[10,2,20]{2,1,0} get-tuple-element(while.10274.0), index=61, metadata={op_name="jit(scan)/jit(main)/while[cond_nconsts=0 body_nconsts=1]" source_file="/fs04/fc37/adam/projects/psilocybin-prl-analyses/src/prl_hgf/fitting/hierarchical.py" source_line=1153}
  get-tuple-element.10335.0 = f64[10,2,20]{2,1,0} get-tuple-element(while.10274.0), index=60, metadata={op_name="jit(scan)/jit(main)/while[cond_nconsts=0 body_nconsts=1]" source_file="/fs04/fc37/adam/projects/psilocybin-prl-analyses/src/prl_hgf/fitting/hierarchical.py" source_line=1153}
  get-tuple-element.10334.0 = f64[10,2,20]{2,1,0} get-tuple-element(while.10274.0), index=59, metadata={op_name="jit(scan)/jit(main)/while[cond_nconsts=0 body_nconsts=1]" source_file="/fs04/fc37/adam/projects/psilocybin-prl-analyses/src/prl_hgf/fitting/hierarchical.py" source_line=1153}
  get-tuple-element.10333.0 = f64[10,2,20]{2,1,0} get-tuple-element(while.10274.0), index=58, metadata={op_name="jit(scan)/jit(main)/while[cond_nconsts=0 body_nconsts=1]" source_file="/fs04/fc37/adam/projects/psilocybin-prl-analyses/src/prl_hgf/fitting/hierarchical.py" source_line=1153}
  get-tuple-element.10332.0 = f64[10,2,20]{2,1,0} get-tuple-element(while.10274.0), index=57, metadata={op_name="jit(scan)/jit(main)/while[cond_nconsts=0 body_nconsts=1]" source_file="/fs04/fc37/adam/projects/psilocybin-prl-analyses/src/prl_hgf/fitting/hierarchical.py" source_line=1153}
  get-tuple-element.10331.0 = f64[10,2,20]{2,1,0} get-tuple-element(while.10274.0), index=56, metadata={op_name="jit(scan)/jit(main)/while[cond_nconsts=0 body_nconsts=1]" source_file="/fs04/fc37/adam/projects/psilocybin-prl-analyses/src/prl_hgf/fitting/hierarchical.py" source_line=1153}
  get-tuple-element.10330.0 = f64[10,2,20]{2,1,0} get-tuple-element(while.10274.0), index=55, metadata={op_name="jit(scan)/jit(main)/while[cond_nconsts=0 body_nconsts=1]" source_file="/fs04/fc37/adam/projects/psilocybin-prl-analyses/src/prl_hgf/fitting/hierarchical.py" source_line=1153}
  get-tuple-element.10329.0 = f64[10,2,20]{2,1,0} get-tuple-element(while.10274.0), index=54, metadata={op_name="jit(scan)/jit(main)/while[cond_nconsts=0 body_nconsts=1]" source_file="/fs04/fc37/adam/projects/psilocybin-prl-analyses/src/prl_hgf/fitting/hierarchical.py" source_line=1153}
  get-tuple-element.10328.0 = f64[10,2,20]{2,1,0} get-tuple-element(while.10274.0), index=53, metadata={op_name="jit(scan)/jit(main)/while[cond_nconsts=0 body_nconsts=1]" source_file="/fs04/fc37/adam/projects/psilocybin-prl-analyses/src/prl_hgf/fitting/hierarchical.py" source_line=1153}
  get-tuple-element.10327.0 = f64[10,2,20]{2,1,0} get-tuple-element(while.10274.0), index=52, metadata={op_name="jit(scan)/jit(main)/while[cond_nconsts=0 body_nconsts=1]" source_file="/fs04/fc37/adam/projects/psilocybin-prl-analyses/src/prl_hgf/fitting/hierarchical.py" source_line=1153}
  get-tuple-element.10326.0 = f64[10,2,20]{2,1,0} get-tuple-element(while.10274.0), index=51, metadata={op_name="jit(scan)/jit(main)/while[cond_nconsts=0 body_nconsts=1]" source_file="/fs04/fc37/adam/projects/psilocybin-prl-analyses/src/prl_hgf/fitting/hierarchical.py" source_line=1153}
  get-tuple-element.10325.0 = f64[10,2,20]{2,1,0} get-tuple-element(while.10274.0), index=50, metadata={op_name="jit(scan)/jit(main)/while[cond_nconsts=0 body_nconsts=1]" source_file="/fs04/fc37/adam/projects/psilocybin-prl-analyses/src/prl_hgf/fitting/hierarchical.py" source_line=1153}
  get-tuple-element.10324.0 = f64[10,2,20]{2,1,0} get-tuple-element(while.10274.0), index=49, metadata={op_name="jit(scan)/jit(main)/while[cond_nconsts=0 body_nconsts=1]" source_file="/fs04/fc37/adam/projects/psilocybin-prl-analyses/src/prl_hgf/fitting/hierarchical.py" source_line=1153}
  get-tuple-element.10323.0 = f64[10,2]{1,0} get-tuple-element(while.10274.0), index=48, metadata={op_name="jit(scan)/jit(main)/while[cond_nconsts=0 body_nconsts=1]" source_file="/fs04/fc37/adam/projects/psilocybin-prl-analyses/src/prl_hgf/fitting/hierarchical.py" source_line=1153}
  get-tuple-element.10322.0 = f64[10,2,20]{2,1,0} get-tuple-element(while.10274.0), index=47, metadata={op_name="jit(scan)/jit(main)/while[cond_nconsts=0 body_nconsts=1]" source_file="/fs04/fc37/adam/projects/psilocybin-prl-analyses/src/prl_hgf/fitting/hierarchical.py" source_line=1153}
  get-tuple-element.10321.0 = f64[10,2,20]{2,1,0} get-tuple-element(while.10274.0), index=46, metadata={op_name="jit(scan)/jit(main)/while[cond_nconsts=0 body_nconsts=1]" source_file="/fs04/fc37/adam/projects/psilocybin-prl-analyses/src/prl_hgf/fitting/hierarchical.py" source_line=1153}
  get-tuple-element.10320.0 = f64[10,2,20]{2,1,0} get-tuple-element(while.10274.0), index=45, metadata={op_name="jit(scan)/jit(main)/while[cond_nconsts=0 body_nconsts=1]" source_file="/fs04/fc37/adam/projects/psilocybin-prl-analyses/src/prl_hgf/fitting/hierarchical.py" source_line=1153}
  get-tuple-element.10319.0 = f64[10,2,20]{2,1,0} get-tuple-element(while.10274.0), index=44, metadata={op_name="jit(scan)/jit(main)/while[cond_nconsts=0 body_nconsts=1]" source_file="/fs04/fc37/adam/projects/psilocybin-prl-analyses/src/prl_hgf/fitting/hierarchical.py" source_line=1153}
  get-tuple-element.10318.0 = f64[10,2,20]{2,1,0} get-tuple-element(while.10274.0), index=43, metadata={op_name="jit(scan)/jit(main)/while[cond_nconsts=0 body_nconsts=1]" source_file="/fs04/fc37/adam/projects/psilocybin-prl-analyses/src/prl_hgf/fitting/hierarchical.py" source_line=1153}
  get-tuple-element.10317.0 = f64[10,2,20]{2,1,0} get-tuple-element(while.10274.0), index=42, metadata={op_name="jit(scan)/jit(main)/while[cond_nconsts=0 body_nconsts=1]" source_file="/fs04/fc37/adam/projects/psilocybin-prl-analyses/src/prl_hgf/fitting/hierarchical.py" source_line=1153}
  get-tuple-element.10316.0 = f64[10,2,20]{2,1,0} get-tuple-element(while.10274.0), index=41, metadata={op_name="jit(scan)/jit(main)/while[cond_nconsts=0 body_nconsts=1]" source_file="/fs04/fc37/adam/projects/psilocybin-prl-analyses/src/prl_hgf/fitting/hierarchical.py" source_line=1153}
  get-tuple-element.10315.0 = f64[10,2,20]{2,1,0} get-tuple-element(while.10274.0), index=40, metadata={op_name="jit(scan)/jit(main)/while[cond_nconsts=0 body_nconsts=1]" source_file="/fs04/fc37/adam/projects/psilocybin-prl-analyses/src/prl_hgf/fitting/hierarchical.py" source_line=1153}
  get-tuple-element.10314.0 = f64[10,2,20]{2,1,0} get-tuple-element(while.10274.0), index=39, metadata={op_name="jit(scan)/jit(main)/while[cond_nconsts=0 body_nconsts=1]" source_file="/fs04/fc37/adam/projects/psilocybin-prl-analyses/src/prl_hgf/fitting/hierarchical.py" source_line=1153}
  get-tuple-element.10313.0 = f64[10,2,20]{2,1,0} get-tuple-element(while.10274.0), index=38, metadata={op_name="jit(scan)/jit(main)/while[cond_nconsts=0 body_nconsts=1]" source_file="/fs04/fc37/adam/projects/psilocybin-prl-analyses/src/prl_hgf/fitting/hierarchical.py" source_line=1153}
  get-tuple-element.10312.0 = f64[10,2,20]{2,1,0} get-tuple-element(while.10274.0), index=37, metadata={op_name="jit(scan)/jit(main)/while[cond_nconsts=0 body_nconsts=1]" source_file="/fs04/fc37/adam/projects/psilocybin-prl-analyses/src/prl_hgf/fitting/hierarchical.py" source_line=1153}
  get-tuple-element.10311.0 = f64[10,2,20]{2,1,0} get-tuple-element(while.10274.0), index=36, metadata={op_name="jit(scan)/jit(main)/while[cond_nconsts=0 body_nconsts=1]" source_file="/fs04/fc37/adam/projects/psilocybin-prl-analyses/src/prl_hgf/fitting/hierarchical.py" source_line=1153}
  get-tuple-element.10310.0 = f64[10,2]{1,0} get-tuple-element(while.10274.0), index=35, metadata={op_name="jit(scan)/jit(main)/while[cond_nconsts=0 body_nconsts=1]" source_file="/fs04/fc37/adam/projects/psilocybin-prl-analyses/src/prl_hgf/fitting/hierarchical.py" source_line=1153}
  get-tuple-element.10309.0 = pred[10,2]{1,0} get-tuple-element(while.10274.0), index=34, metadata={op_name="jit(scan)/jit(main)/while[cond_nconsts=0 body_nconsts=1]" source_file="/fs04/fc37/adam/projects/psilocybin-prl-analyses/src/prl_hgf/fitting/hierarchical.py" source_line=1153}
  get-tuple-element.10308.0 = pred[10,2]{1,0} get-tuple-element(while.10274.0), index=33, metadata={op_name="jit(scan)/jit(main)/while[cond_nconsts=0 body_nconsts=1]" source_file="/fs04/fc37/adam/projects/psilocybin-prl-analyses/src/prl_hgf/fitting/hierarchical.py" source_line=1153}
  get-tuple-element.10307.0 = f64[10,2,20]{2,1,0} get-tuple-element(while.10274.0), index=32, metadata={op_name="jit(scan)/jit(main)/while[cond_nconsts=0 body_nconsts=1]" source_file="/fs04/fc37/adam/projects/psilocybin-prl-analyses/src/prl_hgf/fitting/hierarchical.py" source_line=1153}
  get-tuple-element.10306.0 = f64[10,2,20]{2,1,0} get-tuple-element(while.10274.0), index=31, metadata={op_name="jit(scan)/jit(main)/while[cond_nconsts=0 body_nconsts=1]" source_file="/fs04/fc37/adam/projects/psilocybin-prl-analyses/src/prl_hgf/fitting/hierarchical.py" source_line=1153}
  get-tuple-element.10305.0 = f64[10,2,20]{2,1,0} get-tuple-element(while.10274.0), index=30, metadata={op_name="jit(scan)/jit(main)/while[cond_nconsts=0 body_nconsts=1]" source_file="/fs04/fc37/adam/projects/psilocybin-prl-analyses/src/prl_hgf/fitting/hierarchical.py" source_line=1153}
  get-tuple-element.10304.0 = f64[10,2,20]{2,1,0} get-tuple-element(while.10274.0), index=29, metadata={op_name="jit(scan)/jit(main)/while[cond_nconsts=0 body_nconsts=1]" source_file="/fs04/fc37/adam/projects/psilocybin-prl-analyses/src/prl_hgf/fitting/hierarchical.py" source_line=1153}
  get-tuple-element.10303.0 = f64[10,2,20]{2,1,0} get-tuple-element(while.10274.0), index=28, metadata={op_name="jit(scan)/jit(main)/while[cond_nconsts=0 body_nconsts=1]" source_file="/fs04/fc37/adam/projects/psilocybin-prl-analyses/src/prl_hgf/fitting/hierarchical.py" source_line=1153}
  get-tuple-element.10302.0 = f64[10,2,20]{2,1,0} get-tuple-element(while.10274.0), index=27, metadata={op_name="jit(scan)/jit(main)/while[cond_nconsts=0 body_nconsts=1]" source_file="/fs04/fc37/adam/projects/psilocybin-prl-analyses/src/prl_hgf/fitting/hierarchical.py" source_line=1153}
  get-tuple-element.10301.0 = f64[10,2,20]{2,1,0} get-tuple-element(while.10274.0), index=26, metadata={op_name="jit(scan)/jit(main)/while[cond_nconsts=0 body_nconsts=1]" source_file="/fs04/fc37/adam/projects/psilocybin-prl-analyses/src/prl_hgf/fitting/hierarchical.py" source_line=1153}
  get-tuple-element.10300.0 = f64[10,2,20]{2,1,0} get-tuple-element(while.10274.0), index=25, metadata={op_name="jit(scan)/jit(main)/while[cond_nconsts=0 body_nconsts=1]" source_file="/fs04/fc37/adam/projects/psilocybin-prl-analyses/src/prl_hgf/fitting/hierarchical.py" source_line=1153}
  get-tuple-element.10299.0 = f64[10,2,20]{2,1,0} get-tuple-element(while.10274.0), index=24, metadata={op_name="jit(scan)/jit(main)/while[cond_nconsts=0 body_nconsts=1]" source_file="/fs04/fc37/adam/projects/psilocybin-prl-analyses/src/prl_hgf/fitting/hierarchical.py" source_line=1153}
  get-tuple-element.10298.0 = f64[10,2,20]{2,1,0} get-tuple-element(while.10274.0), index=23, metadata={op_name="jit(scan)/jit(main)/while[cond_nconsts=0 body_nconsts=1]" source_file="/fs04/fc37/adam/projects/psilocybin-prl-analyses/src/prl_hgf/fitting/hierarchical.py" source_line=1153}
  get-tuple-element.10297.0 = f64[10,2,20]{2,1,0} get-tuple-element(while.10274.0), index=22, metadata={op_name="jit(scan)/jit(main)/while[cond_nconsts=0 body_nconsts=1]" source_file="/fs04/fc37/adam/projects/psilocybin-prl-analyses/src/prl_hgf/fitting/hierarchical.py" source_line=1153}
  get-tuple-element.10296.0 = f64[10,2,20]{2,1,0} get-tuple-element(while.10274.0), index=21, metadata={op_name="jit(scan)/jit(main)/while[cond_nconsts=0 body_nconsts=1]" source_file="/fs04/fc37/adam/projects/psilocybin-prl-analyses/src/prl_hgf/fitting/hierarchical.py" source_line=1153}
  get-tuple-element.10295.0 = f64[10,2]{1,0} get-tuple-element(while.10274.0), index=20, metadata={op_name="jit(scan)/jit(main)/while[cond_nconsts=0 body_nconsts=1]" source_file="/fs04/fc37/adam/projects/psilocybin-prl-analyses/src/prl_hgf/fitting/hierarchical.py" source_line=1153}
  get-tuple-element.10294.0 = f64[10,2,20]{2,1,0} get-tuple-element(while.10274.0), index=19, metadata={op_name="jit(scan)/jit(main)/while[cond_nconsts=0 body_nconsts=1]" source_file="/fs04/fc37/adam/projects/psilocybin-prl-analyses/src/prl_hgf/fitting/hierarchical.py" source_line=1153}
  get-tuple-element.10293.0 = f64[10,2,20]{2,1,0} get-tuple-element(while.10274.0), index=18, metadata={op_name="jit(scan)/jit(main)/while[cond_nconsts=0 body_nconsts=1]" source_file="/fs04/fc37/adam/projects/psilocybin-prl-analyses/src/prl_hgf/fitting/hierarchical.py" source_line=1153}
  get-tuple-element.10292.0 = f64[10,2,20]{2,1,0} get-tuple-element(while.10274.0), index=17, metadata={op_name="jit(scan)/jit(main)/while[cond_nconsts=0 body_nconsts=1]" source_file="/fs04/fc37/adam/projects/psilocybin-prl-analyses/src/prl_hgf/fitting/hierarchical.py" source_line=1153}
  get-tuple-element.10291.0 = f64[10,2,20]{2,1,0} get-tuple-element(while.10274.0), index=16, metadata={op_name="jit(scan)/jit(main)/while[cond_nconsts=0 body_nconsts=1]" source_file="/fs04/fc37/adam/projects/psilocybin-prl-analyses/src/prl_hgf/fitting/hierarchical.py" source_line=1153}
  get-tuple-element.10290.0 = f64[10,2,20]{2,1,0} get-tuple-element(while.10274.0), index=15, metadata={op_name="jit(scan)/jit(main)/while[cond_nconsts=0 body_nconsts=1]" source_file="/fs04/fc37/adam/projects/psilocybin-prl-analyses/src/prl_hgf/fitting/hierarchical.py" source_line=1153}
  get-tuple-element.10289.0 = f64[10,2,20]{2,1,0} get-tuple-element(while.10274.0), index=14, metadata={op_name="jit(scan)/jit(main)/while[cond_nconsts=0 body_nconsts=1]" source_file="/fs04/fc37/adam/projects/psilocybin-prl-analyses/src/prl_hgf/fitting/hierarchical.py" source_line=1153}
  get-tuple-element.10288.0 = f64[2,20]{1,0} get-tuple-element(while.10274.0), index=13, metadata={op_name="jit(scan)/jit(main)/while[cond_nconsts=0 body_nconsts=1]" source_file="/fs04/fc37/adam/projects/psilocybin-prl-analyses/src/prl_hgf/fitting/hierarchical.py" source_line=1153}
  get-tuple-element.10287.0 = f64[2,20]{1,0} get-tuple-element(while.10274.0), index=12, metadata={op_name="jit(scan)/jit(main)/while[cond_nconsts=0 body_nconsts=1]" source_file="/fs04/fc37/adam/projects/psilocybin-prl-analyses/src/prl_hgf/fitting/hierarchical.py" source_line=1153}
  get-tuple-element.10286.0 = f64[2,20]{1,0} get-tuple-element(while.10274.0), index=11, metadata={op_name="jit(scan)/jit(main)/while[cond_nconsts=0 body_nconsts=1]" source_file="/fs04/fc37/adam/projects/psilocybin-prl-analyses/src/prl_hgf/fitting/hierarchical.py" source_line=1153}
  get-tuple-element.10285.0 = f64[2,20]{1,0} get-tuple-element(while.10274.0), index=10, metadata={op_name="jit(scan)/jit(main)/while[cond_nconsts=0 body_nconsts=1]" source_file="/fs04/fc37/adam/projects/psilocybin-prl-analyses/src/prl_hgf/fitting/hierarchical.py" source_line=1153}
  get-tuple-element.10284.0 = f64[2,20]{1,0} get-tuple-element(while.10274.0), index=9, metadata={op_name="jit(scan)/jit(main)/while[cond_nconsts=0 body_nconsts=1]" source_file="/fs04/fc37/adam/projects/psilocybin-prl-analyses/src/prl_hgf/fitting/hierarchical.py" source_line=1153}
  get-tuple-element.10283.0 = f64[2,20]{1,0} get-tuple-element(while.10274.0), index=8, metadata={op_name="jit(scan)/jit(main)/while[cond_nconsts=0 body_nconsts=1]" source_file="/fs04/fc37/adam/projects/psilocybin-prl-analyses/src/prl_hgf/fitting/hierarchical.py" source_line=1153}
  get-tuple-element.10282.0 = f64[2]{0} get-tuple-element(while.10274.0), index=7, metadata={op_name="jit(scan)/jit(main)/while[cond_nconsts=0 body_nconsts=1]" source_file="/fs04/fc37/adam/projects/psilocybin-prl-analyses/src/prl_hgf/fitting/hierarchical.py" source_line=1153}
  get-tuple-element.10281.0 = f64[2,20]{1,0} get-tuple-element(while.10274.0), index=6, metadata={op_name="jit(scan)/jit(main)/while[cond_nconsts=0 body_nconsts=1]" source_file="/fs04/fc37/adam/projects/psilocybin-prl-analyses/src/prl_hgf/fitting/hierarchical.py" source_line=1153}
  get-tuple-element.10280.0 = f64[2,20]{1,0} get-tuple-element(while.10274.0), index=5, metadata={op_name="jit(scan)/jit(main)/while[cond_nconsts=0 body_nconsts=1]" source_file="/fs04/fc37/adam/projects/psilocybin-prl-analyses/src/prl_hgf/fitting/hierarchical.py" source_line=1153}
  get-tuple-element.10279.0 = f64[2,20]{1,0} get-tuple-element(while.10274.0), index=4, metadata={op_name="jit(scan)/jit(main)/while[cond_nconsts=0 body_nconsts=1]" source_file="/fs04/fc37/adam/projects/psilocybin-prl-analyses/src/prl_hgf/fitting/hierarchical.py" source_line=1153}
  get-tuple-element.10278.0 = f64[2,20]{1,0} get-tuple-element(while.10274.0), index=3, metadata={op_name="jit(scan)/jit(main)/while[cond_nconsts=0 body_nconsts=1]" source_file="/fs04/fc37/adam/projects/psilocybin-prl-analyses/src/prl_hgf/fitting/hierarchical.py" source_line=1153}
  get-tuple-element.10277.0 = f64[2,20]{1,0} get-tuple-element(while.10274.0), index=2, metadata={op_name="jit(scan)/jit(main)/while[cond_nconsts=0 body_nconsts=1]" source_file="/fs04/fc37/adam/projects/psilocybin-prl-analyses/src/prl_hgf/fitting/hierarchical.py" source_line=1153}
  get-tuple-element.10276.0 = f64[2,20]{1,0} get-tuple-element(while.10274.0), index=1, metadata={op_name="jit(scan)/jit(main)/while[cond_nconsts=0 body_nconsts=1]" source_file="/fs04/fc37/adam/projects/psilocybin-prl-analyses/src/prl_hgf/fitting/hierarchical.py" source_line=1153}
  get-tuple-element.10350.0 = s64[10,2]{1,0} get-tuple-element(while.10274.0), index=75, metadata={op_name="jit(scan)/jit(main)/while[cond_nconsts=0 body_nconsts=1]" source_file="/fs04/fc37/adam/projects/psilocybin-prl-analyses/src/prl_hgf/fitting/hierarchical.py" source_line=1153}
  get-tuple-element.10351.0 = f64[10,2]{1,0} get-tuple-element(while.10274.0), index=76, metadata={op_name="jit(scan)/jit(main)/while[cond_nconsts=0 body_nconsts=1]" source_file="/fs04/fc37/adam/projects/psilocybin-prl-analyses/src/prl_hgf/fitting/hierarchical.py" source_line=1153}
  ROOT tuple.10353.0 = (f64[2,20]{1,0}, f64[2,20]{1,0}, f64[2,20]{1,0}, f64[2,20]{1,0}, f64[2,20]{1,0}, /*index=5*/f64[2,20]{1,0}, f64[2]{0}, f64[2,20]{1,0}, f64[2,20]{1,0}, f64[2,20]{1,0}, /*index=10*/f64[2,20]{1,0}, f64[2,20]{1,0}, f64[2,20]{1,0}, f64[10,2,20]{2,1,0}, f64[10,2,20]{2,1,0}, /*index=15*/f64[10,2,20]{2,1,0}, f64[10,2,20]{2,1,0}, f64[10,2,20]{2,1,0}, f64[10,2,20]{2,1,0}, f64[10,2]{1,0}, /*index=20*/f64[10,2,20]{2,1,0}, f64[10,2,20]{2,1,0}, f64[10,2,20]{2,1,0}, f64[10,2,20]{2,1,0}, f64[10,2,20]{2,1,0}, /*index=25*/f64[10,2,20]{2,1,0}, f64[10,2,20]{2,1,0}, f64[10,2,20]{2,1,0}, f64[10,2,20]{2,1,0}, f64[10,2,20]{2,1,0}, /*index=30*/f64[10,2,20]{2,1,0}, f64[10,2,20]{2,1,0}, pred[10,2]{1,0}, pred[10,2]{1,0}, f64[10,2]{1,0}, /*index=35*/f64[10,2,20]{2,1,0}, f64[10,2,20]{2,1,0}, f64[10,2,20]{2,1,0}, f64[10,2,20]{2,1,0}, f64[10,2,20]{2,1,0}, /*index=40*/f64[10,2,20]{2,1,0}, f64[10,2,20]{2,1,0}, f64[10,2,20]{2,1,0}, f64[10,2,20]{2,1,0}, f64[10,2,20]{2,1,0}, /*index=45*/f64[10,2,20]{2,1,0}, f64[10,2,20]{2,1,0}, f64[10,2]{1,0}, f64[10,2,20]{2,1,0}, f64[10,2,20]{2,1,0}, /*index=50*/f64[10,2,20]{2,1,0}, f64[10,2,20]{2,1,0}, f64[10,2,20]{2,1,0}, f64[10,2,20]{2,1,0}, f64[10,2,20]{2,1,0}, /*index=55*/f64[10,2,20]{2,1,0}, f64[10,2,20]{2,1,0}, f64[10,2,20]{2,1,0}, f64[10,2,20]{2,1,0}, f64[10,2,20]{2,1,0}, /*index=60*/f64[10,2,20]{2,1,0}, f64[10,2,20]{2,1,0}, f64[10,2,20]{2,1,0}, f64[10,2,20]{2,1,0}, f64[10,2,20]{2,1,0}, /*index=65*/f64[10,2,20]{2,1,0}, f64[10,2]{1,0}, f64[10,2,20]{2,1,0}, f64[10,2,20]{2,1,0}, f64[10,2,20]{2,1,0}, /*index=70*/f64[10,2,20]{2,1,0}, f64[10,2,20]{2,1,0}, f64[10,2,20]{2,1,0}, s64[10,2]{1,0}, s64[10,2]{1,0}, /*index=75*/f64[10,2]{1,0}) tuple(get-tuple-element.10276.0, get-tuple-element.10277.0, get-tuple-element.10278.0, get-tuple-element.10279.0, get-tuple-element.10280.0, /*index=5*/get-tuple-element.10281.0, get-tuple-element.10282.0, get-tuple-element.10283.0, get-tuple-element.10284.0, get-tuple-element.10285.0, /*index=10*/get-tuple-element.10286.0, get-tuple-element.10287.0, get-tuple-element.10288.0, get-tuple-element.10289.0, get-tuple-element.10290.0, /*index=15*/get-tuple-element.10291.0, get-tuple-element.10292.0, get-tuple-element.10293.0, get-tuple-element.10294.0, get-tuple-element.10295.0, /*index=20*/get-tuple-element.10296.0, get-tuple-element.10297.0, get-tuple-element.10298.0, get-tuple-element.10299.0, get-tuple-element.10300.0, /*index=25*/get-tuple-element.10301.0, get-tuple-element.10302.0, get-tuple-element.10303.0, get-tuple-element.10304.0, get-tuple-element.10305.0, /*index=30*/get-tuple-element.10306.0, get-tuple-element.10307.0, get-tuple-element.10308.0, get-tuple-element.10309.0, get-tuple-element.10310.0, /*index=35*/get-tuple-element.10311.0, get-tuple-element.10312.0, get-tuple-element.10313.0, get-tuple-element.10314.0, get-tuple-element.10315.0, /*index=40*/get-tuple-element.10316.0, get-tuple-element.10317.0, get-tuple-element.10318.0, get-tuple-element.10319.0, get-tuple-element.10320.0, /*index=45*/get-tuple-element.10321.0, get-tuple-element.10322.0, get-tuple-element.10323.0, get-tuple-element.10324.0, get-tuple-element.10325.0, /*index=50*/get-tuple-element.10326.0, get-tuple-element.10327.0, get-tuple-element.10328.0, get-tuple-element.10329.0, get-tuple-element.10330.0, /*index=55*/get-tuple-element.10331.0, get-tuple-element.10332.0, get-tuple-element.10333.0, get-tuple-element.10334.0, get-tuple-element.10335.0, /*index=60*/get-tuple-element.10336.0, get-tuple-element.10337.0, get-tuple-element.10338.0, get-tuple-element.10339.0, get-tuple-element.10340.0, /*index=65*/get-tuple-element.10341.0, get-tuple-element.10342.0, get-tuple-element.10343.0, get-tuple-element.10344.0, get-tuple-element.10345.0, /*index=70*/get-tuple-element.10346.0, get-tuple-element.10347.0, get-tuple-element.10348.0, get-tuple-element.10349.0, get-tuple-element.10350.0, /*index=75*/get-tuple-element.10351.0)
} // main.10354

