HloModule jit_scan, is_scheduled=true, entry_computation_layout={(f64[20]{0}, f64[20]{0}, f64[20]{0}, f64[20]{0}, f64[20]{0}, /*index=5*/f64[20]{0}, f64[20]{0}, s32[20]{0}, f64[20]{0}, f64[20]{0}, /*index=10*/f64[20,1]{1,0}, f64[20]{0}, f64[20]{0}, f64[20]{0}, f64[20]{0}, /*index=15*/s64[20]{0}, f64[20]{0}, f64[20]{0}, f64[20]{0}, f64[20]{0}, /*index=20*/f64[20]{0}, f64[20]{0}, f64[20]{0}, f64[20,1]{1,0}, f64[20,1]{1,0}, /*index=25*/f64[20]{0}, f64[20]{0}, f64[20]{0}, f64[20]{0}, s64[20]{0}, /*index=30*/f64[20]{0}, f64[20]{0}, f64[20]{0}, f64[20]{0}, f64[20]{0}, /*index=35*/f64[20]{0}, f64[20]{0}, f64[20,1]{1,0}, f64[192,20,1]{2,1,0}, s32[192]{0}, /*index=40*/f64[192]{0})->(f64[20]{0}, f64[20]{0}, f64[20]{0}, f64[20]{0}, s32[20]{0}, /*index=5*/f64[20]{0}, f64[20]{0}, f64[20,1]{1,0}, f64[20]{0}, f64[20]{0}, /*index=10*/f64[20]{0}, f64[20]{0}, s64[20]{0}, f64[20]{0}, f64[20]{0}, /*index=15*/f64[20]{0}, f64[20]{0}, f64[20]{0}, f64[20]{0}, f64[20]{0}, /*index=20*/f64[20,1]{1,0}, f64[20,1]{1,0}, f64[20]{0}, f64[20]{0}, f64[20]{0}, /*index=25*/f64[20]{0}, s64[20]{0}, f64[20]{0}, f64[20]{0}, f64[20]{0}, /*index=30*/f64[20]{0}, f64[20]{0}, f64[20]{0}, f64[20]{0}, f64[20,1]{1,0}, /*index=35*/f64[192,20]{1,0}, f64[192,20]{1,0}, f64[192,20]{1,0}, f64[192,20]{1,0}, pred[192,20]{1,0}, /*index=40*/f64[192,20]{1,0}, f64[192,20]{1,0}, f64[192,20]{1,0}, f64[192,20]{1,0}, f64[192,20]{1,0}, /*index=45*/f64[192,20]{1,0}, f64[192,20]{1,0}, f64[192,20]{1,0}, pred[192,20]{1,0}, f64[192,20]{1,0}, /*index=50*/f64[192,20]{1,0}, f64[192,20]{1,0}, f64[192,20]{1,0}, f64[192,20]{1,0}, f64[192,20]{1,0}, /*index=55*/f64[192,20]{1,0}, f64[192]{0}, f64[192,20]{1,0}, f64[192,20]{1,0}, f64[192,20]{1,0}, /*index=60*/s32[192]{0}, f64[192,20]{1,0}, f64[192]{0}, f64[192,20]{1,0}, f64[192,20]{1,0}, /*index=65*/f64[192,20]{1,0}, pred[192,20]{1,0}, f64[192,20]{1,0}, f64[192,20]{1,0}, f64[192,20]{1,0}, /*index=70*/f64[192,20]{1,0}, f64[192,20]{1,0}, f64[192,20]{1,0}, f64[192]{0}, f64[192,20]{1,0}, /*index=75*/f64[192,20]{1,0}, f64[192,20]{1,0}, f64[192,20]{1,0}, f64[192,20]{1,0}, f64[192,20]{1,0}, /*index=80*/f64[192,20]{1,0}, f64[192,20]{1,0}, f64[192,20]{1,0}, f64[192,20]{1,0}, f64[192,20]{1,0}, /*index=85*/s32[192,20]{1,0}, pred[192,20]{1,0}, pred[192,20,1]{2,1,0}, f64[192,20]{1,0}, f64[192,20]{1,0}, /*index=90*/f64[192,20]{1,0}, f64[192,20]{1,0}, pred[192,20]{1,0}, pred[192,20,1]{2,1,0}, f64[192,20]{1,0}, /*index=95*/f64[192,20]{1,0}, f64[192,20]{1,0}, f64[192,20]{1,0}, f64[192,20]{1,0}, f64[192,20]{1,0}, /*index=100*/f64[192,20]{1,0}, f64[192,20]{1,0}, f64[192,20]{1,0}, f64[192,20]{1,0}, pred[192,20]{1,0}, /*index=105*/pred[192,20]{1,0}, pred[192,20,1]{2,1,0})}, allow_spmd_sharding_propagation_to_parameters={true,true,true,true,true,true,true,true,true,true,true,true,true,true,true,true,true,true,true,true,true,true,true,true,true,true,true,true,true,true,true,true,true,true,true,true,true,true,true,true,true}, allow_spmd_sharding_propagation_to_output={true,true,true,true,true,true,true,true,true,true,true,true,true,true,true,true,true,true,true,true,true,true,true,true,true,true,true,true,true,true,true,true,true,true,true,true,true,true,true,true,true,true,true,true,true,true,true,true,true,true,true,true,true,true,true,true,true,true,true,true,true,true,true,true,true,true,true,true,true,true,true,true,true,true,true,true,true,true,true,true,true,true,true,true,true,true,true,true,true,true,true,true,true,true,true,true,true,true,true,true,true,true,true,true,true,true,true}, frontend_attributes={fingerprint_before_lhs="14df5e81b30bf3c5b1d13d8c303bd1ca"}

fused_divide_exponential {
  constant_17_2 = f64[] constant(1)
  broadcast.445.1 = f64[20]{0} broadcast(constant_17_2), dimensions={}
  param_1.756 = f64[20]{0} parameter(1)
  divide.385.5 = f64[20]{0} divide(broadcast.445.1, param_1.756), metadata={op_name="jit(scan)/jit(main)/while/body/jit(beliefs_propagation)/jit(continuous_node_posterior_update)/jit(posterior_update_precision_continuous_node)/cond/branch_0_fun/jit(precision_update_missing_values)/div" source_file="/fs04/fc37/adam/projects/psilocybin-prl-analyses/src/prl_hgf/fitting/hierarchical_patrl.py" source_line=362}
  param_0.502 = f64[] parameter(0)
  broadcast.446.5 = f64[20]{0} broadcast(param_0.502), dimensions={}, metadata={op_name="jit(scan)/jit(main)/while/body/jit(beliefs_propagation)/jit(continuous_node_posterior_update)/jit(posterior_update_precision_continuous_node)/cond/branch_0_fun/jit(precision_update_missing_values)/mul" source_file="/fs04/fc37/adam/projects/psilocybin-prl-analyses/src/prl_hgf/fitting/hierarchical_patrl.py" source_line=362}
  param_2.679 = f64[20]{0} parameter(2)
  param_4.584 = f64[20,1]{1,0} parameter(4)
  bitcast.1630.5.clone.1 = f64[20]{0} bitcast(param_4.584)
  param_3.663 = f64[20]{0} parameter(3)
  multiply.841.5.clone.1 = f64[20]{0} multiply(bitcast.1630.5.clone.1, param_3.663), metadata={op_name="jit(scan)/jit(main)/while/body/jit(beliefs_propagation)/jit(continuous_node_posterior_update)/jit(posterior_update_precision_continuous_node)/cond/branch_0_fun/jit(precision_update_missing_values)/mul" source_file="/fs04/fc37/adam/projects/psilocybin-prl-analyses/src/prl_hgf/fitting/hierarchical_patrl.py" source_line=362}
  add.335.3.clone.1 = f64[20]{0} add(param_2.679, multiply.841.5.clone.1), metadata={op_name="jit(scan)/jit(main)/while/body/jit(beliefs_propagation)/jit(continuous_node_posterior_update)/jit(posterior_update_precision_continuous_node)/cond/branch_0_fun/jit(precision_update_missing_values)/add" source_file="/fs04/fc37/adam/projects/psilocybin-prl-analyses/src/prl_hgf/fitting/hierarchical_patrl.py" source_line=362}
  exponential.58.1.clone.1 = f64[20]{0} exponential(add.335.3.clone.1), metadata={op_name="jit(scan)/jit(main)/while/body/jit(beliefs_propagation)/jit(continuous_node_posterior_update)/jit(posterior_update_precision_continuous_node)/cond/branch_0_fun/jit(precision_update_missing_values)/exp" source_file="/fs04/fc37/adam/projects/psilocybin-prl-analyses/src/prl_hgf/fitting/hierarchical_patrl.py" source_line=362}
  multiply.842.5 = f64[20]{0} multiply(broadcast.446.5, exponential.58.1.clone.1), metadata={op_name="jit(scan)/jit(main)/while/body/jit(beliefs_propagation)/jit(continuous_node_posterior_update)/jit(posterior_update_precision_continuous_node)/cond/branch_0_fun/jit(precision_update_missing_values)/mul" source_file="/fs04/fc37/adam/projects/psilocybin-prl-analyses/src/prl_hgf/fitting/hierarchical_patrl.py" source_line=362}
  add.336.5 = f64[20]{0} add(divide.385.5, multiply.842.5), metadata={op_name="jit(scan)/jit(main)/while/body/jit(beliefs_propagation)/jit(continuous_node_posterior_update)/jit(posterior_update_precision_continuous_node)/cond/branch_0_fun/jit(precision_update_missing_values)/add" source_file="/fs04/fc37/adam/projects/psilocybin-prl-analyses/src/prl_hgf/fitting/hierarchical_patrl.py" source_line=362}
  divide.387.1 = f64[20]{0} divide(broadcast.445.1, add.336.5), metadata={op_name="jit(scan)/jit(main)/while/body/jit(beliefs_propagation)/jit(continuous_node_posterior_update)/jit(posterior_update_precision_continuous_node)/cond/branch_0_fun/jit(precision_update_missing_values)/div" source_file="/fs04/fc37/adam/projects/psilocybin-prl-analyses/src/prl_hgf/fitting/hierarchical_patrl.py" source_line=362}
  multiply.843.1.clone.1 = f64[20]{0} multiply(param_1.756, param_1.756), metadata={op_name="jit(scan)/jit(main)/while/body/jit(beliefs_propagation)/jit(continuous_node_posterior_update)/jit(posterior_update_precision_continuous_node)/cond/branch_0_fun/jit(precision_update_missing_values)/mul" source_file="/fs04/fc37/adam/projects/psilocybin-prl-analyses/src/prl_hgf/fitting/hierarchical_patrl.py" source_line=362}
  divide.388.1.clone.1 = f64[20]{0} divide(broadcast.445.1, multiply.843.1.clone.1), metadata={op_name="jit(scan)/jit(main)/while/body/jit(beliefs_propagation)/jit(continuous_node_posterior_update)/jit(posterior_update_precision_continuous_node)/cond/branch_0_fun/jit(precision_update_missing_values)/div" source_file="/fs04/fc37/adam/projects/psilocybin-prl-analyses/src/prl_hgf/fitting/hierarchical_patrl.py" source_line=362}
  multiply.844.1.clone.1 = f64[20]{0} multiply(add.336.5, add.336.5), metadata={op_name="jit(scan)/jit(main)/while/body/jit(beliefs_propagation)/jit(continuous_node_posterior_update)/jit(posterior_update_precision_continuous_node)/cond/branch_0_fun/jit(precision_update_missing_values)/mul" source_file="/fs04/fc37/adam/projects/psilocybin-prl-analyses/src/prl_hgf/fitting/hierarchical_patrl.py" source_line=362}
  divide.389.1.clone.1 = f64[20]{0} divide(broadcast.445.1, multiply.844.1.clone.1), metadata={op_name="jit(scan)/jit(main)/while/body/jit(beliefs_propagation)/jit(continuous_node_posterior_update)/jit(posterior_update_precision_continuous_node)/cond/branch_0_fun/jit(precision_update_missing_values)/div" source_file="/fs04/fc37/adam/projects/psilocybin-prl-analyses/src/prl_hgf/fitting/hierarchical_patrl.py" source_line=362}
  ROOT tuple.141 = (f64[20]{0}, f64[20]{0}, f64[20]{0}, f64[20]{0}) tuple(divide.387.1, divide.388.1.clone.1, divide.389.1.clone.1, exponential.58.1.clone.1)
} // fused_divide_exponential

fused_broadcast {
  constant_288_1 = pred[] constant(false)
  ROOT broadcast.447.1 = pred[20]{0} broadcast(constant_288_1), dimensions={}
}

wrapped_copy_computation.5 {
  param_0.611 = f64[20]{0} parameter(0)
  ROOT copy.571 = f64[20]{0} copy(param_0.611)
}

region_2.281 {
  arg_tuple.282.0 = (f64[], f64[20]{0}, f64[20]{0}, f64[20,1]{1,0}, f64[20]{0}) parameter(0)
  get-tuple-element.5166 = f64[] get-tuple-element(arg_tuple.282.0), index=0
  get-tuple-element.286.0 = f64[20,1]{1,0} get-tuple-element(arg_tuple.282.0), index=3
  bitcast.1630.0 = f64[20]{0} bitcast(get-tuple-element.286.0)
  get-tuple-element.287.0 = f64[20]{0} get-tuple-element(arg_tuple.282.0), index=4
  get-tuple-element.285.0 = f64[20]{0} get-tuple-element(arg_tuple.282.0), index=2
  get-tuple-element.284.0 = f64[20]{0} get-tuple-element(arg_tuple.282.0), index=1
  loop_broadcast_fusion = pred[20]{0} fusion(), kind=kLoop, calls=fused_broadcast
  wrapped_copy.5 = f64[20]{0} fusion(bitcast.1630.0), kind=kLoop, calls=wrapped_copy_computation.5
  loop_divide_exponential_fusion = (f64[20]{0}, f64[20]{0}, f64[20]{0}, f64[20]{0}) fusion(get-tuple-element.5166, get-tuple-element.284.0, get-tuple-element.285.0, get-tuple-element.287.0, get-tuple-element.286.0), kind=kLoop, calls=fused_divide_exponential, metadata={op_name="jit(scan)/jit(main)/while/body/jit(beliefs_propagation)/jit(continuous_node_posterior_update)/jit(posterior_update_precision_continuous_node)/cond/branch_0_fun/jit(precision_update_missing_values)/div" source_file="/fs04/fc37/adam/projects/psilocybin-prl-analyses/src/prl_hgf/fitting/hierarchical_patrl.py" source_line=362}
  get-tuple-element.5168 = f64[20]{0} get-tuple-element(loop_divide_exponential_fusion), index=3, metadata={op_name="jit(scan)/jit(main)/while/body/jit(beliefs_propagation)/jit(continuous_node_posterior_update)/jit(posterior_update_precision_continuous_node)/cond/branch_0_fun/jit(precision_update_missing_values)/div" source_file="/fs04/fc37/adam/projects/psilocybin-prl-analyses/src/prl_hgf/fitting/hierarchical_patrl.py" source_line=362}
  get-tuple-element.5169 = f64[20]{0} get-tuple-element(loop_divide_exponential_fusion), index=2, metadata={op_name="jit(scan)/jit(main)/while/body/jit(beliefs_propagation)/jit(continuous_node_posterior_update)/jit(posterior_update_precision_continuous_node)/cond/branch_0_fun/jit(precision_update_missing_values)/div" source_file="/fs04/fc37/adam/projects/psilocybin-prl-analyses/src/prl_hgf/fitting/hierarchical_patrl.py" source_line=362}
  get-tuple-element.5165 = f64[20]{0} get-tuple-element(loop_divide_exponential_fusion), index=1, metadata={op_name="jit(scan)/jit(main)/while/body/jit(beliefs_propagation)/jit(continuous_node_posterior_update)/jit(posterior_update_precision_continuous_node)/cond/branch_0_fun/jit(precision_update_missing_values)/div" source_file="/fs04/fc37/adam/projects/psilocybin-prl-analyses/src/prl_hgf/fitting/hierarchical_patrl.py" source_line=362}
  get-tuple-element.5164 = f64[20]{0} get-tuple-element(loop_divide_exponential_fusion), index=0, metadata={op_name="jit(scan)/jit(main)/while/body/jit(beliefs_propagation)/jit(continuous_node_posterior_update)/jit(posterior_update_precision_continuous_node)/cond/branch_0_fun/jit(precision_update_missing_values)/div" source_file="/fs04/fc37/adam/projects/psilocybin-prl-analyses/src/prl_hgf/fitting/hierarchical_patrl.py" source_line=362}
  ROOT tuple.177 = (f64[20]{0}, f64[20]{0}, f64[], f64[20]{0}, f64[20]{0}, /*index=5*/f64[20]{0}, pred[20]{0}) tuple(get-tuple-element.5164, get-tuple-element.5165, get-tuple-element.5166, wrapped_copy.5, get-tuple-element.5168, /*index=5*/get-tuple-element.5169, loop_broadcast_fusion)
} // region_2.281

wrapped_convert_computation {
  param_0.612 = s32[] parameter(0)
  ROOT convert.83.1 = f64[] convert(param_0.612), metadata={op_name="jit(scan)/jit(main)/while/body/jit(beliefs_propagation)/jit(continuous_node_posterior_update)/jit(posterior_update_precision_continuous_node)/cond/branch_1_fun/jit(precision_update)/convert_element_type[new_dtype=float64 weak_type=False sharding=None]" source_file="/fs04/fc37/adam/projects/psilocybin-prl-analyses/src/prl_hgf/fitting/hierarchical_patrl.py" source_line=362}
}

fused_broadcast.1 {
  constant_335_1 = f64[] constant(0)
  ROOT broadcast.451.1 = f64[20]{0} broadcast(constant_335_1), dimensions={}
}

wrapped_copy_computation.6 {
  param_0.613 = f64[20]{0} parameter(0)
  ROOT copy.572 = f64[20]{0} copy(param_0.613)
}

wrapped_copy_computation.7 {
  param_0.614 = f64[20]{0} parameter(0)
  ROOT copy.573 = f64[20]{0} copy(param_0.614)
}

fused_compare_multiply_select {
  param_0.503 = f64[20]{0} parameter(0)
  param_3.664 = f64[20,1]{1,0} parameter(3)
  multiply.845.5.clone.1 = f64[20,1]{1,0} multiply(param_3.664, param_3.664), metadata={op_name="jit(scan)/jit(main)/while/body/jit(beliefs_propagation)/jit(continuous_node_posterior_update)/jit(posterior_update_precision_continuous_node)/cond/branch_1_fun/jit(precision_update)/integer_pow[y=2]" source_file="/fs04/fc37/adam/projects/psilocybin-prl-analyses/src/prl_hgf/fitting/hierarchical_patrl.py" source_line=362}
  bitcast.1663.9.clone.1 = f64[20]{0} bitcast(multiply.845.5.clone.1)
  param_2.680 = f64[20]{0} parameter(2)
  multiply.846.9.clone.1 = f64[20]{0} multiply(bitcast.1663.9.clone.1, param_2.680), metadata={op_name="jit(scan)/jit(main)/while/body/jit(beliefs_propagation)/jit(continuous_node_posterior_update)/jit(posterior_update_precision_continuous_node)/cond/branch_1_fun/jit(precision_update)/mul" source_file="/fs04/fc37/adam/projects/psilocybin-prl-analyses/src/prl_hgf/fitting/hierarchical_patrl.py" source_line=362}
  param_1.757 = f64[] parameter(1)
  broadcast.448.5.clone.1 = f64[20]{0} broadcast(param_1.757), dimensions={}, metadata={op_name="jit(scan)/jit(main)/while/body/jit(beliefs_propagation)/jit(continuous_node_posterior_update)/jit(posterior_update_precision_continuous_node)/cond/branch_1_fun/jit(precision_update)/mul" source_file="/fs04/fc37/adam/projects/psilocybin-prl-analyses/src/prl_hgf/fitting/hierarchical_patrl.py" source_line=362}
  multiply.847.7.clone.1 = f64[20]{0} multiply(multiply.846.9.clone.1, broadcast.448.5.clone.1), metadata={op_name="jit(scan)/jit(main)/while/body/jit(beliefs_propagation)/jit(continuous_node_posterior_update)/jit(posterior_update_precision_continuous_node)/cond/branch_1_fun/jit(precision_update)/mul" source_file="/fs04/fc37/adam/projects/psilocybin-prl-analyses/src/prl_hgf/fitting/hierarchical_patrl.py" source_line=362}
  add.337.5.clone.1 = f64[20]{0} add(param_0.503, multiply.847.7.clone.1), metadata={op_name="jit(scan)/jit(main)/while/body/jit(beliefs_propagation)/jit(continuous_node_posterior_update)/jit(posterior_update_precision_continuous_node)/cond/branch_1_fun/jit(precision_update)/add" source_file="/fs04/fc37/adam/projects/psilocybin-prl-analyses/src/prl_hgf/fitting/hierarchical_patrl.py" source_line=362}
  constant_22_1_clone_1 = f64[] constant(1e-128)
  broadcast.449.1.clone.1 = f64[20]{0} broadcast(constant_22_1_clone_1), dimensions={}
  compare.262.1.clone.1 = pred[20]{0} compare(add.337.5.clone.1, broadcast.449.1.clone.1), direction=GT, metadata={op_name="jit(scan)/jit(main)/while/body/jit(beliefs_propagation)/jit(continuous_node_posterior_update)/jit(posterior_update_precision_continuous_node)/cond/branch_1_fun/jit(precision_update)/gt" source_file="/fs04/fc37/adam/projects/psilocybin-prl-analyses/src/prl_hgf/fitting/hierarchical_patrl.py" source_line=362}
  constant_23_1 = f64[] constant(nan)
  broadcast.450.1 = f64[20]{0} broadcast(constant_23_1), dimensions={}, metadata={op_name="jit(scan)/jit(main)/while/body/jit(beliefs_propagation)/jit(continuous_node_posterior_update)/jit(posterior_update_precision_continuous_node)/cond/branch_1_fun/jit(precision_update)/jit(_where)/broadcast_in_dim[shape=(20,) broadcast_dimensions=()]" source_file="/fs04/fc37/adam/projects/psilocybin-prl-analyses/src/prl_hgf/env/pat_rl_simulator.py" source_line=92}
  select.508.1 = f64[20]{0} select(compare.262.1.clone.1, add.337.5.clone.1, broadcast.450.1), metadata={op_name="jit(scan)/jit(main)/while/body/jit(beliefs_propagation)/jit(continuous_node_posterior_update)/jit(posterior_update_precision_continuous_node)/cond/branch_1_fun/jit(precision_update)/jit(_where)/select_n" source_file="/fs04/fc37/adam/projects/psilocybin-prl-analyses/src/prl_hgf/env/pat_rl_simulator.py" source_line=92}
  ROOT tuple.143 = (f64[20]{0}, pred[20]{0}, f64[20,1]{1,0}) tuple(select.508.1, compare.262.1.clone.1, multiply.845.5.clone.1)
} // fused_compare_multiply_select

command_buffer.8 {
  p.316 = s32[] parameter(0)
  p.317 = (f64[20]{0}, s32[], f64[20]{0}, f64[20,1]{1,0}) parameter(1)
  wrapped_convert = f64[] fusion(p.316), kind=kLoop, calls=wrapped_convert_computation, metadata={op_name="jit(scan)/jit(main)/while/body/jit(beliefs_propagation)/jit(continuous_node_posterior_update)/jit(posterior_update_precision_continuous_node)/cond/branch_1_fun/jit(precision_update)/convert_element_type[new_dtype=float64 weak_type=False sharding=None]" source_file="/fs04/fc37/adam/projects/psilocybin-prl-analyses/src/prl_hgf/fitting/hierarchical_patrl.py" source_line=362}
  get-tuple-element.334.0 = f64[20,1]{1,0} get-tuple-element(p.317), index=3, metadata={op_name="jit(scan)/jit(main)/while/body/jit(beliefs_propagation)/jit(continuous_node_posterior_update)/jit(posterior_update_precision_continuous_node)/cond/branch_1_fun/jit(precision_update)/squeeze[dimensions=(1,)]" source_file="/fs04/fc37/adam/projects/psilocybin-prl-analyses/src/prl_hgf/fitting/hierarchical_patrl.py" source_line=362}
  get-tuple-element.333.0 = f64[20]{0} get-tuple-element(p.317), index=2
  get-tuple-element.331.0 = f64[20]{0} get-tuple-element(p.317), index=0
  loop_broadcast_fusion.1 = f64[20]{0} fusion(), kind=kLoop, calls=fused_broadcast.1
  wrapped_copy.6 = f64[20]{0} fusion(loop_broadcast_fusion.1), kind=kLoop, calls=wrapped_copy_computation.6
  wrapped_copy.7 = f64[20]{0} fusion(loop_broadcast_fusion.1), kind=kLoop, calls=wrapped_copy_computation.7
  loop_compare_multiply_select_fusion = (f64[20]{0}, pred[20]{0}, f64[20,1]{1,0}) fusion(get-tuple-element.333.0, wrapped_convert, get-tuple-element.331.0, get-tuple-element.334.0), kind=kLoop, calls=fused_compare_multiply_select, metadata={op_name="jit(scan)/jit(main)/while/body/jit(beliefs_propagation)/jit(continuous_node_posterior_update)/jit(posterior_update_precision_continuous_node)/cond/branch_1_fun/jit(precision_update)/jit(_where)/select_n" source_file="/fs04/fc37/adam/projects/psilocybin-prl-analyses/src/prl_hgf/env/pat_rl_simulator.py" source_line=92}
  ROOT tuple.203 = (f64[], f64[20]{0}, f64[20]{0}, f64[20]{0}, (f64[20]{0}, pred[20]{0}, f64[20,1]{1,0})) tuple(wrapped_convert, loop_broadcast_fusion.1, wrapped_copy.6, wrapped_copy.7, loop_compare_multiply_select_fusion)
} // command_buffer.8

region_3.329 {
  arg_tuple.330.0 = (f64[20]{0}, s32[], f64[20]{0}, f64[20,1]{1,0}) parameter(0)
  get-tuple-element.332.0 = s32[] get-tuple-element(arg_tuple.330.0), index=1
  call.4 = (f64[], f64[20]{0}, f64[20]{0}, f64[20]{0}, (f64[20]{0}, pred[20]{0}, f64[20,1]{1,0})) call(get-tuple-element.332.0, arg_tuple.330.0), to_apply=command_buffer.8
  get-tuple-element.6093 = f64[] get-tuple-element(call.4), index=0
  get-tuple-element.6094 = f64[20]{0} get-tuple-element(call.4), index=1
  get-tuple-element.6095 = f64[20]{0} get-tuple-element(call.4), index=2
  get-tuple-element.6096 = f64[20]{0} get-tuple-element(call.4), index=3
  get-tuple-element.6097 = (f64[20]{0}, pred[20]{0}, f64[20,1]{1,0}) get-tuple-element(call.4), index=4
  get-tuple-element.5123 = f64[20,1]{1,0} get-tuple-element(get-tuple-element.6097), index=2, metadata={op_name="jit(scan)/jit(main)/while/body/jit(beliefs_propagation)/jit(continuous_node_posterior_update)/jit(posterior_update_precision_continuous_node)/cond/branch_1_fun/jit(precision_update)/jit(_where)/select_n" source_file="/fs04/fc37/adam/projects/psilocybin-prl-analyses/src/prl_hgf/env/pat_rl_simulator.py" source_line=92}
  bitcast.1663.0 = f64[20]{0} bitcast(get-tuple-element.5123)
  get-tuple-element.5177 = pred[20]{0} get-tuple-element(get-tuple-element.6097), index=1, metadata={op_name="jit(scan)/jit(main)/while/body/jit(beliefs_propagation)/jit(continuous_node_posterior_update)/jit(posterior_update_precision_continuous_node)/cond/branch_1_fun/jit(precision_update)/jit(_where)/select_n" source_file="/fs04/fc37/adam/projects/psilocybin-prl-analyses/src/prl_hgf/env/pat_rl_simulator.py" source_line=92}
  get-tuple-element.5171 = f64[20]{0} get-tuple-element(get-tuple-element.6097), index=0, metadata={op_name="jit(scan)/jit(main)/while/body/jit(beliefs_propagation)/jit(continuous_node_posterior_update)/jit(posterior_update_precision_continuous_node)/cond/branch_1_fun/jit(precision_update)/jit(_where)/select_n" source_file="/fs04/fc37/adam/projects/psilocybin-prl-analyses/src/prl_hgf/env/pat_rl_simulator.py" source_line=92}
  ROOT tuple.178 = (f64[20]{0}, f64[20]{0}, f64[], f64[20]{0}, f64[20]{0}, /*index=5*/f64[20]{0}, pred[20]{0}) tuple(get-tuple-element.5171, get-tuple-element.6094, get-tuple-element.6093, bitcast.1663.0, get-tuple-element.6095, /*index=5*/get-tuple-element.6096, get-tuple-element.5177)
} // region_3.329

fused_dynamic_slice {
  param_0.342 = f64[192]{0} parameter(0)
  param_1.472 = s64[] parameter(1)
  constant_357_62 = s64[] constant(0)
  compare.263.7 = pred[] compare(param_1.472, constant_357_62), direction=LT, metadata={op_name="jit(scan)/jit(main)/while/body/lt" source_file="/fs04/fc37/adam/projects/psilocybin-prl-analyses/src/prl_hgf/fitting/hierarchical_patrl.py" source_line=378}
  constant_356_4 = s64[] constant(192)
  add.339.7 = s64[] add(param_1.472, constant_356_4), metadata={op_name="jit(scan)/jit(main)/while/body/add" source_file="/fs04/fc37/adam/projects/psilocybin-prl-analyses/src/prl_hgf/fitting/hierarchical_patrl.py" source_line=378}
  select.509.7 = s64[] select(compare.263.7, add.339.7, param_1.472), metadata={op_name="jit(scan)/jit(main)/while/body/select_n" source_file="/fs04/fc37/adam/projects/psilocybin-prl-analyses/src/prl_hgf/fitting/hierarchical_patrl.py" source_line=378}
  ROOT dynamic-slice.39.31 = f64[1]{0} dynamic-slice(param_0.342, select.509.7), dynamic_slice_sizes={1}, metadata={op_name="jit(scan)/jit(main)/while/body/dynamic_slice[slice_sizes=(1,)]" source_file="/fs04/fc37/adam/projects/psilocybin-prl-analyses/src/prl_hgf/fitting/hierarchical_patrl.py" source_line=378}
} // fused_dynamic_slice

fused_convert_dynamic_slice {
  param_0.344 = s32[192]{0} parameter(0)
  param_1.476 = s64[] parameter(1)
  constant_357_63 = s64[] constant(0)
  compare.263.9 = pred[] compare(param_1.476, constant_357_63), direction=LT, metadata={op_name="jit(scan)/jit(main)/while/body/lt" source_file="/fs04/fc37/adam/projects/psilocybin-prl-analyses/src/prl_hgf/fitting/hierarchical_patrl.py" source_line=378}
  constant_356_5 = s64[] constant(192)
  add.339.9 = s64[] add(param_1.476, constant_356_5), metadata={op_name="jit(scan)/jit(main)/while/body/add" source_file="/fs04/fc37/adam/projects/psilocybin-prl-analyses/src/prl_hgf/fitting/hierarchical_patrl.py" source_line=378}
  select.509.9 = s64[] select(compare.263.9, add.339.9, param_1.476), metadata={op_name="jit(scan)/jit(main)/while/body/select_n" source_file="/fs04/fc37/adam/projects/psilocybin-prl-analyses/src/prl_hgf/fitting/hierarchical_patrl.py" source_line=378}
  dynamic-slice.40.21 = s32[1]{0} dynamic-slice(param_0.344, select.509.9), dynamic_slice_sizes={1}, metadata={op_name="jit(scan)/jit(main)/while/body/dynamic_slice[slice_sizes=(1,)]" source_file="/fs04/fc37/adam/projects/psilocybin-prl-analyses/src/prl_hgf/fitting/hierarchical_patrl.py" source_line=378}
  constant_360_1_clone_1 = s32[1]{0} constant({0})
  compare.264.1.clone.1 = pred[1]{0} compare(dynamic-slice.40.21, constant_360_1_clone_1), direction=NE, metadata={op_name="jit(scan)/jit(main)/while/body/jit(beliefs_propagation)/jit(continuous_node_posterior_update)/jit(posterior_update_precision_continuous_node)/convert_element_type[new_dtype=bool weak_type=False sharding=None]" source_file="/fs04/fc37/adam/projects/psilocybin-prl-analyses/src/prl_hgf/fitting/hierarchical_patrl.py" source_line=362}
  convert.84.1.clone.1 = s32[1]{0} convert(compare.264.1.clone.1), metadata={op_name="jit(scan)/jit(main)/while/body/jit(beliefs_propagation)/jit(continuous_node_posterior_update)/jit(posterior_update_precision_continuous_node)/convert_element_type[new_dtype=int32 weak_type=False sharding=None]" source_file="/fs04/fc37/adam/projects/psilocybin-prl-analyses/src/prl_hgf/fitting/hierarchical_patrl.py" source_line=362}
  ROOT tuple.171 = (s32[1]{0}, s32[1]{0}) tuple(dynamic-slice.40.21, convert.84.1.clone.1)
} // fused_convert_dynamic_slice

wrapped_copy_computation.3 {
  param_0.609 = f64[20]{0} parameter(0)
  ROOT copy.569 = f64[20]{0} copy(param_0.609)
}

wrapped_copy_computation.4 {
  param_0.610 = f64[20]{0} parameter(0)
  ROOT copy.570 = f64[20]{0} copy(param_0.610)
}

fused_divide_multiply {
  constant_358_5 = f64[] constant(1)
  broadcast.453.4 = f64[20]{0} broadcast(constant_358_5), dimensions={}
  param_6.438 = f64[20]{0} parameter(6)
  divide.391.1.clone.1 = f64[20]{0} divide(broadcast.453.4, param_6.438), metadata={op_name="jit(scan)/jit(main)/while/body/jit(beliefs_propagation)/jit(continuous_node_prediction)/jit(predict_precision)/div" source_file="/fs04/fc37/adam/projects/psilocybin-prl-analyses/src/prl_hgf/fitting/hierarchical_patrl.py" source_line=362}
  param_4.593 = f64[192]{0} parameter(4)
  param_5.480 = s64[] parameter(5)
  constant_357_80 = s64[] constant(0)
  compare.263.169 = pred[] compare(param_5.480, constant_357_80), direction=LT, metadata={op_name="jit(scan)/jit(main)/while/body/lt" source_file="/fs04/fc37/adam/projects/psilocybin-prl-analyses/src/prl_hgf/fitting/hierarchical_patrl.py" source_line=378}
  constant_356_80 = s64[] constant(192)
  add.339.169 = s64[] add(param_5.480, constant_356_80), metadata={op_name="jit(scan)/jit(main)/while/body/add" source_file="/fs04/fc37/adam/projects/psilocybin-prl-analyses/src/prl_hgf/fitting/hierarchical_patrl.py" source_line=378}
  select.509.169 = s64[] select(compare.263.169, add.339.169, param_5.480), metadata={op_name="jit(scan)/jit(main)/while/body/select_n" source_file="/fs04/fc37/adam/projects/psilocybin-prl-analyses/src/prl_hgf/fitting/hierarchical_patrl.py" source_line=378}
  dynamic-slice.39.41 = f64[1]{0} dynamic-slice(param_4.593, select.509.169), dynamic_slice_sizes={1}, metadata={op_name="jit(scan)/jit(main)/while/body/dynamic_slice[slice_sizes=(1,)]" source_file="/fs04/fc37/adam/projects/psilocybin-prl-analyses/src/prl_hgf/fitting/hierarchical_patrl.py" source_line=378}
  bitcast.1707.82 = f64[] bitcast(dynamic-slice.39.41)
  broadcast.452.79 = f64[20]{0} broadcast(bitcast.1707.82), dimensions={}, metadata={op_name="jit(scan)/jit(main)/while/body/jit(beliefs_propagation)/jit(continuous_node_prediction)/jit(predict_mean)/mul" source_file="/fs04/fc37/adam/projects/psilocybin-prl-analyses/src/prl_hgf/fitting/hierarchical_patrl.py" source_line=362}
  param_1.758 = f64[20]{0} parameter(1)
  param_3.666 = f64[20,1]{1,0} parameter(3)
  bitcast.1776.21 = f64[20]{0} bitcast(param_3.666)
  param_2.682 = f64[20]{0} parameter(2)
  multiply.852.21 = f64[20]{0} multiply(bitcast.1776.21, param_2.682), metadata={op_name="jit(scan)/jit(main)/while/body/jit(beliefs_propagation)/jit(continuous_node_prediction)/jit(predict_precision)/mul" source_file="/fs04/fc37/adam/projects/psilocybin-prl-analyses/src/prl_hgf/fitting/hierarchical_patrl.py" source_line=362}
  add.342.19 = f64[20]{0} add(param_1.758, multiply.852.21), metadata={op_name="jit(scan)/jit(main)/while/body/jit(beliefs_propagation)/jit(continuous_node_prediction)/jit(predict_precision)/add" source_file="/fs04/fc37/adam/projects/psilocybin-prl-analyses/src/prl_hgf/fitting/hierarchical_patrl.py" source_line=362}
  exponential.60.17 = f64[20]{0} exponential(add.342.19), metadata={op_name="jit(scan)/jit(main)/while/body/jit(beliefs_propagation)/jit(continuous_node_prediction)/jit(predict_precision)/exp" source_file="/fs04/fc37/adam/projects/psilocybin-prl-analyses/src/prl_hgf/fitting/hierarchical_patrl.py" source_line=362}
  multiply.853.29 = f64[20]{0} multiply(broadcast.452.79, exponential.60.17), metadata={op_name="jit(scan)/jit(main)/while/body/jit(beliefs_propagation)/jit(continuous_node_prediction)/jit(predict_precision)/mul" source_file="/fs04/fc37/adam/projects/psilocybin-prl-analyses/src/prl_hgf/fitting/hierarchical_patrl.py" source_line=362}
  constant_359_14 = f64[] constant(1e-128)
  broadcast.454.clone.35 = f64[20]{0} broadcast(constant_359_14), dimensions={}
  compare.265.15 = pred[20]{0} compare(multiply.853.29, broadcast.454.clone.35), direction=GT, metadata={op_name="jit(scan)/jit(main)/while/body/jit(beliefs_propagation)/jit(continuous_node_prediction)/jit(predict_precision)/gt" source_file="/fs04/fc37/adam/projects/psilocybin-prl-analyses/src/prl_hgf/fitting/hierarchical_patrl.py" source_line=362}
  param_0.504 = f64[20]{0} parameter(0)
  select.510.11 = f64[20]{0} select(compare.265.15, multiply.853.29, param_0.504), metadata={op_name="jit(scan)/jit(main)/while/body/jit(beliefs_propagation)/jit(continuous_node_prediction)/jit(predict_precision)/jit(_where)/select_n" source_file="/fs04/fc37/adam/projects/psilocybin-prl-analyses/src/prl_hgf/env/pat_rl_simulator.py" source_line=92}
  add.343.2 = f64[20]{0} add(divide.391.1.clone.1, select.510.11), metadata={op_name="jit(scan)/jit(main)/while/body/jit(beliefs_propagation)/jit(continuous_node_prediction)/jit(predict_precision)/add" source_file="/fs04/fc37/adam/projects/psilocybin-prl-analyses/src/prl_hgf/fitting/hierarchical_patrl.py" source_line=362}
  divide.392.1 = f64[20]{0} divide(broadcast.453.4, add.343.2), metadata={op_name="jit(scan)/jit(main)/while/body/jit(beliefs_propagation)/jit(continuous_node_prediction)/jit(predict_precision)/div" source_file="/fs04/fc37/adam/projects/psilocybin-prl-analyses/src/prl_hgf/fitting/hierarchical_patrl.py" source_line=362}
  param_8.363 = f64[20]{0} parameter(8)
  param_9.352 = f64[20]{0} parameter(9)
  multiply.848.7.clone.1.clone.1 = f64[20]{0} multiply(param_8.363, param_9.352), metadata={op_name="jit(scan)/jit(main)/while/body/jit(beliefs_propagation)/jit(continuous_node_prediction)/jit(predict_mean)/mul" source_file="/fs04/fc37/adam/projects/psilocybin-prl-analyses/src/prl_hgf/fitting/hierarchical_patrl.py" source_line=362}
  param_7.360 = f64[20]{0} parameter(7)
  multiply.849.9.clone.1.clone.1 = f64[20]{0} multiply(broadcast.452.79, param_7.360), metadata={op_name="jit(scan)/jit(main)/while/body/jit(beliefs_propagation)/jit(continuous_node_prediction)/jit(predict_mean)/mul" source_file="/fs04/fc37/adam/projects/psilocybin-prl-analyses/src/prl_hgf/fitting/hierarchical_patrl.py" source_line=362}
  add.340.7.clone.1.clone.1 = f64[20]{0} add(multiply.848.7.clone.1.clone.1, multiply.849.9.clone.1.clone.1), metadata={op_name="jit(scan)/jit(main)/while/body/jit(beliefs_propagation)/jit(continuous_node_prediction)/jit(predict_mean)/add" source_file="/fs04/fc37/adam/projects/psilocybin-prl-analyses/src/prl_hgf/fitting/hierarchical_patrl.py" source_line=362}
  negate.18.3.clone.1.clone.1 = f64[20]{0} negate(add.340.7.clone.1.clone.1), metadata={op_name="jit(scan)/jit(main)/while/body/jit(beliefs_propagation)/jit(binary_state_node_prediction)/neg" source_file="/fs04/fc37/adam/projects/psilocybin-prl-analyses/src/prl_hgf/fitting/hierarchical_patrl.py" source_line=362}
  exponential.59.3.clone.1.clone.1 = f64[20]{0} exponential(negate.18.3.clone.1.clone.1), metadata={op_name="jit(scan)/jit(main)/while/body/jit(beliefs_propagation)/jit(binary_state_node_prediction)/exp" source_file="/fs04/fc37/adam/projects/psilocybin-prl-analyses/src/prl_hgf/fitting/hierarchical_patrl.py" source_line=362}
  add.341.1.clone.1.clone.1 = f64[20]{0} add(exponential.59.3.clone.1.clone.1, broadcast.453.4), metadata={op_name="jit(scan)/jit(main)/while/body/jit(beliefs_propagation)/jit(binary_state_node_prediction)/add" source_file="/fs04/fc37/adam/projects/psilocybin-prl-analyses/src/prl_hgf/fitting/hierarchical_patrl.py" source_line=362}
  divide.390.1.clone.1.clone.1 = f64[20]{0} divide(broadcast.453.4, add.341.1.clone.1.clone.1), metadata={op_name="jit(scan)/jit(main)/while/body/jit(beliefs_propagation)/jit(binary_state_node_prediction)/div" source_file="/fs04/fc37/adam/projects/psilocybin-prl-analyses/src/prl_hgf/fitting/hierarchical_patrl.py" source_line=362}
  subtract.76.2.clone.1 = f64[20]{0} subtract(broadcast.453.4, divide.390.1.clone.1.clone.1), metadata={op_name="jit(scan)/jit(main)/while/body/jit(beliefs_propagation)/jit(binary_state_node_prediction)/sub" source_file="/fs04/fc37/adam/projects/psilocybin-prl-analyses/src/prl_hgf/fitting/hierarchical_patrl.py" source_line=362}
  multiply.850.1.clone.1 = f64[20]{0} multiply(divide.390.1.clone.1.clone.1, subtract.76.2.clone.1), metadata={op_name="jit(scan)/jit(main)/while/body/jit(beliefs_propagation)/jit(binary_state_node_prediction)/mul" source_file="/fs04/fc37/adam/projects/psilocybin-prl-analyses/src/prl_hgf/fitting/hierarchical_patrl.py" source_line=362}
  ROOT tuple.173 = (f64[20]{0}, f64[20]{0}, f64[20]{0}, f64[20]{0}) tuple(divide.392.1, divide.391.1.clone.1, multiply.850.1.clone.1, divide.390.1.clone.1.clone.1)
} // fused_divide_multiply

fused_dynamic_update_slice.59 {
  param_0.278 = s32[192]{0} parameter(0)
  param_1.746 = s32[192]{0} parameter(1)
  param_2.654 = s64[] parameter(2)
  constant_357_65 = s64[] constant(0)
  compare.263.63 = pred[] compare(param_2.654, constant_357_65), direction=LT, metadata={op_name="jit(scan)/jit(main)/while/body/lt" source_file="/fs04/fc37/adam/projects/psilocybin-prl-analyses/src/prl_hgf/fitting/hierarchical_patrl.py" source_line=378}
  constant_356_32 = s64[] constant(192)
  add.339.63 = s64[] add(param_2.654, constant_356_32), metadata={op_name="jit(scan)/jit(main)/while/body/add" source_file="/fs04/fc37/adam/projects/psilocybin-prl-analyses/src/prl_hgf/fitting/hierarchical_patrl.py" source_line=378}
  select.509.63 = s64[] select(compare.263.63, add.339.63, param_2.654), metadata={op_name="jit(scan)/jit(main)/while/body/select_n" source_file="/fs04/fc37/adam/projects/psilocybin-prl-analyses/src/prl_hgf/fitting/hierarchical_patrl.py" source_line=378}
  dynamic-slice.40.8 = s32[1]{0} dynamic-slice(param_1.746, select.509.63), dynamic_slice_sizes={1}, metadata={op_name="jit(scan)/jit(main)/while/body/dynamic_slice[slice_sizes=(1,)]" source_file="/fs04/fc37/adam/projects/psilocybin-prl-analyses/src/prl_hgf/fitting/hierarchical_patrl.py" source_line=378}
  constant_360_2 = s32[1]{0} constant({0})
  compare.264.3 = pred[1]{0} compare(dynamic-slice.40.8, constant_360_2), direction=NE, metadata={op_name="jit(scan)/jit(main)/while/body/jit(beliefs_propagation)/jit(continuous_node_posterior_update)/jit(posterior_update_precision_continuous_node)/convert_element_type[new_dtype=bool weak_type=False sharding=None]" source_file="/fs04/fc37/adam/projects/psilocybin-prl-analyses/src/prl_hgf/fitting/hierarchical_patrl.py" source_line=362}
  convert.84.3 = s32[1]{0} convert(compare.264.3), metadata={op_name="jit(scan)/jit(main)/while/body/jit(beliefs_propagation)/jit(continuous_node_posterior_update)/jit(posterior_update_precision_continuous_node)/convert_element_type[new_dtype=int32 weak_type=False sharding=None]" source_file="/fs04/fc37/adam/projects/psilocybin-prl-analyses/src/prl_hgf/fitting/hierarchical_patrl.py" source_line=362}
  ROOT dynamic-update-slice.881.1 = s32[192]{0} dynamic-update-slice(param_0.278, convert.84.3, select.509.63), metadata={op_name="jit(scan)/jit(main)/while/body/dynamic_update_slice" source_file="/fs04/fc37/adam/projects/psilocybin-prl-analyses/src/prl_hgf/fitting/hierarchical_patrl.py" source_line=378}
} // fused_dynamic_update_slice.59

command_buffer.4 {
  p.94 = f64[192]{0} parameter(0)
  p.95 = s64[] parameter(1)
  p.96 = (s64[], f64[20]{0}, f64[20]{0}, f64[20]{0}, f64[20]{0}, /*index=5*/s32[20]{0}, f64[20]{0}, f64[20]{0}, f64[20]{0}, f64[20]{0}, /*index=10*/f64[20]{0}, f64[20]{0}, s64[20]{0}, f64[20]{0}, f64[20]{0}, /*index=15*/f64[20]{0}, f64[20]{0}, f64[20]{0}, f64[20]{0}, f64[20]{0}, /*index=20*/f64[20,1]{1,0}, f64[20,1]{1,0}, f64[20]{0}, f64[20]{0}, f64[20]{0}, /*index=25*/f64[20]{0}, f64[20]{0}, f64[20]{0}, f64[20]{0}, f64[20]{0}, /*index=30*/f64[20]{0}, f64[20,1]{1,0}, f64[192,20]{1,0}, f64[192,20]{1,0}, f64[192,20]{1,0}, /*index=35*/f64[192,20]{1,0}, pred[192,20]{1,0}, f64[192,20]{1,0}, f64[192,20]{1,0}, f64[192,20]{1,0}, /*index=40*/f64[192,20]{1,0}, f64[192,20]{1,0}, f64[192,20]{1,0}, f64[192,20]{1,0}, pred[192,20]{1,0}, /*index=45*/f64[192,20]{1,0}, f64[192,20]{1,0}, f64[192,20]{1,0}, f64[192,20]{1,0}, f64[192,20]{1,0}, /*index=50*/f64[192,20]{1,0}, f64[192]{0}, f64[192,20]{1,0}, f64[192,20]{1,0}, s32[192]{0}, /*index=55*/f64[192,20]{1,0}, f64[192]{0}, f64[192,20]{1,0}, f64[192,20]{1,0}, f64[192,20]{1,0}, /*index=60*/pred[192,20]{1,0}, f64[192,20]{1,0}, f64[192,20]{1,0}, f64[192,20]{1,0}, f64[192,20]{1,0}, /*index=65*/f64[192,20]{1,0}, f64[192,20]{1,0}, f64[192,20]{1,0}, f64[192,20]{1,0}, f64[192,20]{1,0}, /*index=70*/f64[192,20]{1,0}, f64[192,20]{1,0}, f64[192,20]{1,0}, f64[192,20]{1,0}, f64[192,20]{1,0}, /*index=75*/f64[192,20]{1,0}, f64[192,20]{1,0}, s32[192,20]{1,0}, pred[192,20]{1,0}, pred[192,20,1]{2,1,0}, /*index=80*/f64[192,20]{1,0}, f64[192,20]{1,0}, pred[192,20]{1,0}, pred[192,20,1]{2,1,0}, f64[192,20]{1,0}, /*index=85*/f64[192,20]{1,0}, f64[192,20]{1,0}, f64[192,20]{1,0}, f64[192,20]{1,0}, pred[192,20]{1,0}, /*index=90*/pred[192,20]{1,0}, pred[192,20,1]{2,1,0}, f64[192,20,1]{2,1,0}, s32[192]{0}, f64[192]{0}, /*index=95*/f64[20]{0}, f64[20]{0}, f64[20]{0}) parameter(2)
  loop_dynamic_slice_fusion = f64[1]{0} fusion(p.94, p.95), kind=kLoop, calls=fused_dynamic_slice, metadata={op_name="jit(scan)/jit(main)/while/body/dynamic_slice[slice_sizes=(1,)]" source_file="/fs04/fc37/adam/projects/psilocybin-prl-analyses/src/prl_hgf/fitting/hierarchical_patrl.py" source_line=378}
  bitcast.1707.0 = f64[] bitcast(loop_dynamic_slice_fusion)
  get-tuple-element.5395 = f64[20,1]{1,0} get-tuple-element(p.96), index=21
  get-tuple-element.5393 = f64[20]{0} get-tuple-element(p.96), index=19
  get-tuple-element.5470 = f64[20]{0} get-tuple-element(p.96), index=96
  get-tuple-element.5405 = f64[20,1]{1,0} get-tuple-element(p.96), index=31
  get-tuple-element.5467 = s32[192]{0} get-tuple-element(p.96), index=93
  get-tuple-element.5386 = s64[20]{0} get-tuple-element(p.96), index=12
  get-tuple-element.5382 = f64[20]{0} get-tuple-element(p.96), index=8
  get-tuple-element.5392 = f64[20]{0} get-tuple-element(p.96), index=18
  get-tuple-element.5404 = f64[20]{0} get-tuple-element(p.96), index=30
  get-tuple-element.5394 = f64[20,1]{1,0} get-tuple-element(p.96), index=20
  get-tuple-element.5289 = f64[20]{0} get-tuple-element(p.96), index=13
  get-tuple-element.5469 = f64[20]{0} get-tuple-element(p.96), index=95
  get-tuple-element.5396 = f64[20]{0} get-tuple-element(p.96), index=22
  get-tuple-element.5466 = f64[192,20,1]{2,1,0} get-tuple-element(p.96), index=92
  get-tuple-element.5302 = f64[20]{0} get-tuple-element(p.96), index=26
  get-tuple-element.5403 = f64[20]{0} get-tuple-element(p.96), index=29
  get-tuple-element.5471 = f64[20]{0} get-tuple-element(p.96), index=97
  get-tuple-element.5277 = f64[20]{0} get-tuple-element(p.96), index=1
  get-tuple-element.5278 = f64[20]{0} get-tuple-element(p.96), index=2
  get-tuple-element.5279 = f64[20]{0} get-tuple-element(p.96), index=3
  get-tuple-element.5280 = f64[20]{0} get-tuple-element(p.96), index=4
  get-tuple-element.5281 = s32[20]{0} get-tuple-element(p.96), index=5
  get-tuple-element.5282 = f64[20]{0} get-tuple-element(p.96), index=6
  get-tuple-element.5283 = f64[20]{0} get-tuple-element(p.96), index=7
  get-tuple-element.5285 = f64[20]{0} get-tuple-element(p.96), index=9
  get-tuple-element.5286 = f64[20]{0} get-tuple-element(p.96), index=10
  get-tuple-element.5287 = f64[20]{0} get-tuple-element(p.96), index=11
  get-tuple-element.5290 = f64[20]{0} get-tuple-element(p.96), index=14
  get-tuple-element.5291 = f64[20]{0} get-tuple-element(p.96), index=15
  get-tuple-element.5292 = f64[20]{0} get-tuple-element(p.96), index=16
  get-tuple-element.5293 = f64[20]{0} get-tuple-element(p.96), index=17
  get-tuple-element.5299 = f64[20]{0} get-tuple-element(p.96), index=23
  get-tuple-element.5300 = f64[20]{0} get-tuple-element(p.96), index=24
  get-tuple-element.5301 = f64[20]{0} get-tuple-element(p.96), index=25
  get-tuple-element.5303 = f64[20]{0} get-tuple-element(p.96), index=27
  get-tuple-element.5304 = f64[20]{0} get-tuple-element(p.96), index=28
  get-tuple-element.5308 = f64[192,20]{1,0} get-tuple-element(p.96), index=32
  get-tuple-element.5309 = f64[192,20]{1,0} get-tuple-element(p.96), index=33
  get-tuple-element.5310 = f64[192,20]{1,0} get-tuple-element(p.96), index=34
  get-tuple-element.5311 = f64[192,20]{1,0} get-tuple-element(p.96), index=35
  get-tuple-element.5312 = pred[192,20]{1,0} get-tuple-element(p.96), index=36
  get-tuple-element.5313 = f64[192,20]{1,0} get-tuple-element(p.96), index=37
  get-tuple-element.5314 = f64[192,20]{1,0} get-tuple-element(p.96), index=38
  get-tuple-element.5315 = f64[192,20]{1,0} get-tuple-element(p.96), index=39
  get-tuple-element.5316 = f64[192,20]{1,0} get-tuple-element(p.96), index=40
  get-tuple-element.5317 = f64[192,20]{1,0} get-tuple-element(p.96), index=41
  get-tuple-element.5318 = f64[192,20]{1,0} get-tuple-element(p.96), index=42
  get-tuple-element.5319 = f64[192,20]{1,0} get-tuple-element(p.96), index=43
  get-tuple-element.5320 = pred[192,20]{1,0} get-tuple-element(p.96), index=44
  get-tuple-element.5321 = f64[192,20]{1,0} get-tuple-element(p.96), index=45
  get-tuple-element.5322 = f64[192,20]{1,0} get-tuple-element(p.96), index=46
  get-tuple-element.5323 = f64[192,20]{1,0} get-tuple-element(p.96), index=47
  get-tuple-element.5324 = f64[192,20]{1,0} get-tuple-element(p.96), index=48
  get-tuple-element.5325 = f64[192,20]{1,0} get-tuple-element(p.96), index=49
  get-tuple-element.5326 = f64[192,20]{1,0} get-tuple-element(p.96), index=50
  get-tuple-element.5327 = f64[192]{0} get-tuple-element(p.96), index=51
  get-tuple-element.5328 = f64[192,20]{1,0} get-tuple-element(p.96), index=52
  get-tuple-element.5329 = f64[192,20]{1,0} get-tuple-element(p.96), index=53
  get-tuple-element.5330 = s32[192]{0} get-tuple-element(p.96), index=54
  get-tuple-element.5331 = f64[192,20]{1,0} get-tuple-element(p.96), index=55
  get-tuple-element.5332 = f64[192]{0} get-tuple-element(p.96), index=56
  get-tuple-element.5333 = f64[192,20]{1,0} get-tuple-element(p.96), index=57
  get-tuple-element.5334 = f64[192,20]{1,0} get-tuple-element(p.96), index=58
  get-tuple-element.5335 = f64[192,20]{1,0} get-tuple-element(p.96), index=59
  get-tuple-element.5336 = pred[192,20]{1,0} get-tuple-element(p.96), index=60
  get-tuple-element.5337 = f64[192,20]{1,0} get-tuple-element(p.96), index=61
  get-tuple-element.5338 = f64[192,20]{1,0} get-tuple-element(p.96), index=62
  get-tuple-element.5339 = f64[192,20]{1,0} get-tuple-element(p.96), index=63
  get-tuple-element.5340 = f64[192,20]{1,0} get-tuple-element(p.96), index=64
  get-tuple-element.5341 = f64[192,20]{1,0} get-tuple-element(p.96), index=65
  get-tuple-element.5342 = f64[192,20]{1,0} get-tuple-element(p.96), index=66
  get-tuple-element.5343 = f64[192,20]{1,0} get-tuple-element(p.96), index=67
  get-tuple-element.5344 = f64[192,20]{1,0} get-tuple-element(p.96), index=68
  get-tuple-element.5345 = f64[192,20]{1,0} get-tuple-element(p.96), index=69
  get-tuple-element.5346 = f64[192,20]{1,0} get-tuple-element(p.96), index=70
  get-tuple-element.5347 = f64[192,20]{1,0} get-tuple-element(p.96), index=71
  get-tuple-element.5348 = f64[192,20]{1,0} get-tuple-element(p.96), index=72
  get-tuple-element.5349 = f64[192,20]{1,0} get-tuple-element(p.96), index=73
  get-tuple-element.5350 = f64[192,20]{1,0} get-tuple-element(p.96), index=74
  get-tuple-element.5351 = f64[192,20]{1,0} get-tuple-element(p.96), index=75
  get-tuple-element.5352 = f64[192,20]{1,0} get-tuple-element(p.96), index=76
  get-tuple-element.5353 = s32[192,20]{1,0} get-tuple-element(p.96), index=77
  get-tuple-element.5354 = pred[192,20]{1,0} get-tuple-element(p.96), index=78
  get-tuple-element.5355 = pred[192,20,1]{2,1,0} get-tuple-element(p.96), index=79
  get-tuple-element.5356 = f64[192,20]{1,0} get-tuple-element(p.96), index=80
  get-tuple-element.5357 = f64[192,20]{1,0} get-tuple-element(p.96), index=81
  get-tuple-element.5358 = pred[192,20]{1,0} get-tuple-element(p.96), index=82
  get-tuple-element.5359 = pred[192,20,1]{2,1,0} get-tuple-element(p.96), index=83
  get-tuple-element.5360 = f64[192,20]{1,0} get-tuple-element(p.96), index=84
  get-tuple-element.5361 = f64[192,20]{1,0} get-tuple-element(p.96), index=85
  get-tuple-element.5362 = f64[192,20]{1,0} get-tuple-element(p.96), index=86
  get-tuple-element.5363 = f64[192,20]{1,0} get-tuple-element(p.96), index=87
  get-tuple-element.5364 = f64[192,20]{1,0} get-tuple-element(p.96), index=88
  get-tuple-element.5365 = pred[192,20]{1,0} get-tuple-element(p.96), index=89
  get-tuple-element.5366 = pred[192,20]{1,0} get-tuple-element(p.96), index=90
  get-tuple-element.5367 = pred[192,20,1]{2,1,0} get-tuple-element(p.96), index=91
  loop_convert_dynamic_slice_fusion = (s32[1]{0}, s32[1]{0}) fusion(get-tuple-element.5467, p.95), kind=kLoop, calls=fused_convert_dynamic_slice, metadata={op_name="jit(scan)/jit(main)/while/body/dynamic_slice[slice_sizes=(1,)]" source_file="/fs04/fc37/adam/projects/psilocybin-prl-analyses/src/prl_hgf/fitting/hierarchical_patrl.py" source_line=378}
  get-tuple-element.5155 = s32[1]{0} get-tuple-element(loop_convert_dynamic_slice_fusion), index=1, metadata={op_name="jit(scan)/jit(main)/while/body/dynamic_slice[slice_sizes=(1,)]" source_file="/fs04/fc37/adam/projects/psilocybin-prl-analyses/src/prl_hgf/fitting/hierarchical_patrl.py" source_line=378}
  bitcast.1744.0 = s32[] bitcast(get-tuple-element.5155)
  get-tuple-element.5154 = s32[1]{0} get-tuple-element(loop_convert_dynamic_slice_fusion), index=0, metadata={op_name="jit(scan)/jit(main)/while/body/dynamic_slice[slice_sizes=(1,)]" source_file="/fs04/fc37/adam/projects/psilocybin-prl-analyses/src/prl_hgf/fitting/hierarchical_patrl.py" source_line=378}
  bitcast.1762.0 = s32[] bitcast(get-tuple-element.5154)
  wrapped_copy.3 = f64[20]{0} fusion(get-tuple-element.5301), kind=kLoop, calls=wrapped_copy_computation.3
  tuple.136.0 = (f64[], f64[20]{0}, f64[20]{0}, f64[20,1]{1,0}, f64[20]{0}) tuple(bitcast.1707.0, get-tuple-element.5289, get-tuple-element.5393, get-tuple-element.5395, wrapped_copy.3), metadata={op_name="jit(scan)/jit(main)/while/body/jit(beliefs_propagation)/jit(continuous_node_posterior_update)/jit(posterior_update_precision_continuous_node)/cond" source_file="/fs04/fc37/adam/projects/psilocybin-prl-analyses/src/prl_hgf/fitting/hierarchical_patrl.py" source_line=362}
  wrapped_copy.4 = f64[20]{0} fusion(get-tuple-element.5287), kind=kLoop, calls=wrapped_copy_computation.4
  loop_divide_multiply_fusion = (f64[20]{0}, f64[20]{0}, f64[20]{0}, f64[20]{0}) fusion(get-tuple-element.5470, get-tuple-element.5393, wrapped_copy.3, get-tuple-element.5395, p.94, /*index=5*/p.95, get-tuple-element.5289, get-tuple-element.5392, get-tuple-element.5382, wrapped_copy.4), kind=kLoop, calls=fused_divide_multiply, metadata={op_name="jit(scan)/jit(main)/while/body/jit(beliefs_propagation)/jit(continuous_node_prediction)/jit(predict_precision)/div" source_file="/fs04/fc37/adam/projects/psilocybin-prl-analyses/src/prl_hgf/fitting/hierarchical_patrl.py" source_line=362}
  get-tuple-element.5150 = f64[20]{0} get-tuple-element(loop_divide_multiply_fusion), index=0, metadata={op_name="jit(scan)/jit(main)/while/body/jit(beliefs_propagation)/jit(continuous_node_prediction)/jit(predict_precision)/div" source_file="/fs04/fc37/adam/projects/psilocybin-prl-analyses/src/prl_hgf/fitting/hierarchical_patrl.py" source_line=362}
  get-tuple-element.5156 = f64[20]{0} get-tuple-element(loop_divide_multiply_fusion), index=2, metadata={op_name="jit(scan)/jit(main)/while/body/jit(beliefs_propagation)/jit(continuous_node_prediction)/jit(predict_precision)/div" source_file="/fs04/fc37/adam/projects/psilocybin-prl-analyses/src/prl_hgf/fitting/hierarchical_patrl.py" source_line=362}
  get-tuple-element.5157 = f64[20]{0} get-tuple-element(loop_divide_multiply_fusion), index=3, metadata={op_name="jit(scan)/jit(main)/while/body/jit(beliefs_propagation)/jit(continuous_node_prediction)/jit(predict_precision)/div" source_file="/fs04/fc37/adam/projects/psilocybin-prl-analyses/src/prl_hgf/fitting/hierarchical_patrl.py" source_line=362}
  get-tuple-element.5151 = f64[20]{0} get-tuple-element(loop_divide_multiply_fusion), index=1, metadata={op_name="jit(scan)/jit(main)/while/body/jit(beliefs_propagation)/jit(continuous_node_prediction)/jit(predict_precision)/div" source_file="/fs04/fc37/adam/projects/psilocybin-prl-analyses/src/prl_hgf/fitting/hierarchical_patrl.py" source_line=362}
  tuple.137.0 = (f64[20]{0}, s32[], f64[20]{0}, f64[20,1]{1,0}) tuple(get-tuple-element.5156, bitcast.1762.0, get-tuple-element.5150, get-tuple-element.5394), metadata={op_name="jit(scan)/jit(main)/while/body/jit(beliefs_propagation)/jit(continuous_node_posterior_update)/jit(posterior_update_precision_continuous_node)/cond" source_file="/fs04/fc37/adam/projects/psilocybin-prl-analyses/src/prl_hgf/fitting/hierarchical_patrl.py" source_line=362}
  loop_dynamic_update_slice_fusion.59 = s32[192]{0} fusion(get-tuple-element.5330, get-tuple-element.5467, p.95), kind=kLoop, calls=fused_dynamic_update_slice.59, metadata={op_name="jit(scan)/jit(main)/while/body/dynamic_update_slice" source_file="/fs04/fc37/adam/projects/psilocybin-prl-analyses/src/prl_hgf/fitting/hierarchical_patrl.py" source_line=378}
  ROOT tuple.199 = (f64[20,1]{1,0}, f64[20]{0}, f64[20]{0}, f64[20,1]{1,0}, s32[192]{0}, /*index=5*/s64[20]{0}, f64[20]{0}, f64[20]{0}, f64[20]{0}, f64[20,1]{1,0}, /*index=10*/f64[20]{0}, f64[20]{0}, f64[20]{0}, f64[192,20,1]{2,1,0}, f64[20]{0}, /*index=15*/f64[20]{0}, f64[20]{0}, f64[20]{0}, f64[20]{0}, f64[20]{0}, /*index=20*/f64[20]{0}, s32[20]{0}, f64[20]{0}, f64[20]{0}, f64[20]{0}, /*index=25*/f64[20]{0}, f64[20]{0}, f64[20]{0}, f64[20]{0}, f64[20]{0}, /*index=30*/f64[20]{0}, f64[20]{0}, f64[20]{0}, f64[20]{0}, f64[192,20]{1,0}, /*index=35*/f64[192,20]{1,0}, f64[192,20]{1,0}, f64[192,20]{1,0}, pred[192,20]{1,0}, f64[192,20]{1,0}, /*index=40*/f64[192,20]{1,0}, f64[192,20]{1,0}, f64[192,20]{1,0}, f64[192,20]{1,0}, f64[192,20]{1,0}, /*index=45*/f64[192,20]{1,0}, pred[192,20]{1,0}, f64[192,20]{1,0}, f64[192,20]{1,0}, f64[192,20]{1,0}, /*index=50*/f64[192,20]{1,0}, f64[192,20]{1,0}, f64[192,20]{1,0}, f64[192]{0}, f64[192,20]{1,0}, /*index=55*/f64[192,20]{1,0}, f64[192,20]{1,0}, f64[192]{0}, f64[192,20]{1,0}, f64[192,20]{1,0}, /*index=60*/f64[192,20]{1,0}, pred[192,20]{1,0}, f64[192,20]{1,0}, f64[192,20]{1,0}, f64[192,20]{1,0}, /*index=65*/f64[192,20]{1,0}, f64[192,20]{1,0}, f64[192,20]{1,0}, f64[192,20]{1,0}, f64[192,20]{1,0}, /*index=70*/f64[192,20]{1,0}, f64[192,20]{1,0}, f64[192,20]{1,0}, f64[192,20]{1,0}, f64[192,20]{1,0}, /*index=75*/f64[192,20]{1,0}, f64[192,20]{1,0}, f64[192,20]{1,0}, s32[192,20]{1,0}, pred[192,20]{1,0}, /*index=80*/pred[192,20,1]{2,1,0}, f64[192,20]{1,0}, f64[192,20]{1,0}, pred[192,20]{1,0}, pred[192,20,1]{2,1,0}, /*index=85*/f64[192,20]{1,0}, f64[192,20]{1,0}, f64[192,20]{1,0}, f64[192,20]{1,0}, f64[192,20]{1,0}, /*index=90*/pred[192,20]{1,0}, pred[192,20]{1,0}, pred[192,20,1]{2,1,0}, s32[], f64[20]{0}, /*index=95*/(f64[], f64[20]{0}, f64[20]{0}, f64[20,1]{1,0}, f64[20]{0}), f64[20]{0}, f64[20]{0}, f64[20]{0}, f64[20]{0}, /*index=100*/f64[20]{0}, (f64[20]{0}, s32[], f64[20]{0}, f64[20,1]{1,0}), s32[192]{0}) tuple(get-tuple-element.5395, get-tuple-element.5393, get-tuple-element.5470, get-tuple-element.5405, get-tuple-element.5467, /*index=5*/get-tuple-element.5386, get-tuple-element.5382, get-tuple-element.5392, get-tuple-element.5404, get-tuple-element.5394, /*index=10*/get-tuple-element.5289, get-tuple-element.5469, get-tuple-element.5396, get-tuple-element.5466, get-tuple-element.5302, /*index=15*/get-tuple-element.5403, get-tuple-element.5471, get-tuple-element.5277, get-tuple-element.5278, get-tuple-element.5279, /*index=20*/get-tuple-element.5280, get-tuple-element.5281, get-tuple-element.5282, get-tuple-element.5283, get-tuple-element.5285, /*index=25*/get-tuple-element.5286, get-tuple-element.5290, get-tuple-element.5291, get-tuple-element.5292, get-tuple-element.5293, /*index=30*/get-tuple-element.5299, get-tuple-element.5300, get-tuple-element.5303, get-tuple-element.5304, get-tuple-element.5308, /*index=35*/get-tuple-element.5309, get-tuple-element.5310, get-tuple-element.5311, get-tuple-element.5312, get-tuple-element.5313, /*index=40*/get-tuple-element.5314, get-tuple-element.5315, get-tuple-element.5316, get-tuple-element.5317, get-tuple-element.5318, /*index=45*/get-tuple-element.5319, get-tuple-element.5320, get-tuple-element.5321, get-tuple-element.5322, get-tuple-element.5323, /*index=50*/get-tuple-element.5324, get-tuple-element.5325, get-tuple-element.5326, get-tuple-element.5327, get-tuple-element.5328, /*index=55*/get-tuple-element.5329, get-tuple-element.5331, get-tuple-element.5332, get-tuple-element.5333, get-tuple-element.5334, /*index=60*/get-tuple-element.5335, get-tuple-element.5336, get-tuple-element.5337, get-tuple-element.5338, get-tuple-element.5339, /*index=65*/get-tuple-element.5340, get-tuple-element.5341, get-tuple-element.5342, get-tuple-element.5343, get-tuple-element.5344, /*index=70*/get-tuple-element.5345, get-tuple-element.5346, get-tuple-element.5347, get-tuple-element.5348, get-tuple-element.5349, /*index=75*/get-tuple-element.5350, get-tuple-element.5351, get-tuple-element.5352, get-tuple-element.5353, get-tuple-element.5354, /*index=80*/get-tuple-element.5355, get-tuple-element.5356, get-tuple-element.5357, get-tuple-element.5358, get-tuple-element.5359, /*index=85*/get-tuple-element.5360, get-tuple-element.5361, get-tuple-element.5362, get-tuple-element.5363, get-tuple-element.5364, /*index=90*/get-tuple-element.5365, get-tuple-element.5366, get-tuple-element.5367, bitcast.1744.0, wrapped_copy.3, /*index=95*/tuple.136.0, wrapped_copy.4, get-tuple-element.5150, get-tuple-element.5156, get-tuple-element.5157, /*index=100*/get-tuple-element.5151, tuple.137.0, loop_dynamic_update_slice_fusion.59)
} // command_buffer.4

fused_dynamic_update_slice.34 {
  param_0.72 = f64[192]{0} parameter(0)
  param_1.533 = f64[] parameter(1)
  bitcast.2397.1 = f64[1]{0} bitcast(param_1.533)
  param_2.408 = s64[] parameter(2)
  constant_357_66 = s64[] constant(0)
  compare.263.67 = pred[] compare(param_2.408, constant_357_66), direction=LT, metadata={op_name="jit(scan)/jit(main)/while/body/lt" source_file="/fs04/fc37/adam/projects/psilocybin-prl-analyses/src/prl_hgf/fitting/hierarchical_patrl.py" source_line=378}
  constant_356_34 = s64[] constant(192)
  add.339.67 = s64[] add(param_2.408, constant_356_34), metadata={op_name="jit(scan)/jit(main)/while/body/add" source_file="/fs04/fc37/adam/projects/psilocybin-prl-analyses/src/prl_hgf/fitting/hierarchical_patrl.py" source_line=378}
  select.509.67 = s64[] select(compare.263.67, add.339.67, param_2.408), metadata={op_name="jit(scan)/jit(main)/while/body/select_n" source_file="/fs04/fc37/adam/projects/psilocybin-prl-analyses/src/prl_hgf/fitting/hierarchical_patrl.py" source_line=378}
  ROOT dynamic-update-slice.883.1 = f64[192]{0} dynamic-update-slice(param_0.72, bitcast.2397.1, select.509.67), metadata={op_name="jit(scan)/jit(main)/while/body/dynamic_update_slice" source_file="/fs04/fc37/adam/projects/psilocybin-prl-analyses/src/prl_hgf/fitting/hierarchical_patrl.py" source_line=378}
} // fused_dynamic_update_slice.34

fused_dynamic_update_slice.38 {
  param_0.76 = f64[192]{0} parameter(0)
  param_1.521 = s32[192]{0} parameter(1)
  param_2.395 = s64[] parameter(2)
  constant_357_64 = s64[] constant(0)
  compare.263.55 = pred[] compare(param_2.395, constant_357_64), direction=LT, metadata={op_name="jit(scan)/jit(main)/while/body/lt" source_file="/fs04/fc37/adam/projects/psilocybin-prl-analyses/src/prl_hgf/fitting/hierarchical_patrl.py" source_line=378}
  constant_356_28 = s64[] constant(192)
  add.339.55 = s64[] add(param_2.395, constant_356_28), metadata={op_name="jit(scan)/jit(main)/while/body/add" source_file="/fs04/fc37/adam/projects/psilocybin-prl-analyses/src/prl_hgf/fitting/hierarchical_patrl.py" source_line=378}
  select.509.55 = s64[] select(compare.263.55, add.339.55, param_2.395), metadata={op_name="jit(scan)/jit(main)/while/body/select_n" source_file="/fs04/fc37/adam/projects/psilocybin-prl-analyses/src/prl_hgf/fitting/hierarchical_patrl.py" source_line=378}
  dynamic-slice.40.4 = s32[1]{0} dynamic-slice(param_1.521, select.509.55), dynamic_slice_sizes={1}, metadata={op_name="jit(scan)/jit(main)/while/body/dynamic_slice[slice_sizes=(1,)]" source_file="/fs04/fc37/adam/projects/psilocybin-prl-analyses/src/prl_hgf/fitting/hierarchical_patrl.py" source_line=378}
  bitcast.1762.4 = s32[] bitcast(dynamic-slice.40.4)
  convert.85.3 = f64[] convert(bitcast.1762.4), metadata={op_name="jit(scan)/jit(main)/while/body/jit(beliefs_propagation)/jit(binary_state_node_prediction_error)/convert_element_type[new_dtype=float64 weak_type=False sharding=None]" source_file="/fs04/fc37/adam/projects/psilocybin-prl-analyses/src/prl_hgf/fitting/hierarchical_patrl.py" source_line=362}
  bitcast.2344.1 = f64[1]{0} bitcast(convert.85.3)
  ROOT dynamic-update-slice.878.1 = f64[192]{0} dynamic-update-slice(param_0.76, bitcast.2344.1, select.509.55), metadata={op_name="jit(scan)/jit(main)/while/body/dynamic_update_slice" source_file="/fs04/fc37/adam/projects/psilocybin-prl-analyses/src/prl_hgf/fitting/hierarchical_patrl.py" source_line=378}
} // fused_dynamic_update_slice.38

fused_dynamic_update_slice.30 {
  param_0.68 = pred[192,20]{1,0} parameter(0)
  param_1.733 = pred[20]{0} parameter(1)
  bitcast.2439.1 = pred[1,20]{1,0} bitcast(param_1.733)
  param_2.631 = s64[] parameter(2)
  constant_357_56 = s64[] constant(0)
  compare.263.75 = pred[] compare(param_2.631, constant_357_56), direction=LT, metadata={op_name="jit(scan)/jit(main)/while/body/lt" source_file="/fs04/fc37/adam/projects/psilocybin-prl-analyses/src/prl_hgf/fitting/hierarchical_patrl.py" source_line=378}
  constant_356_38 = s64[] constant(192)
  add.339.75 = s64[] add(param_2.631, constant_356_38), metadata={op_name="jit(scan)/jit(main)/while/body/add" source_file="/fs04/fc37/adam/projects/psilocybin-prl-analyses/src/prl_hgf/fitting/hierarchical_patrl.py" source_line=378}
  select.509.75 = s64[] select(compare.263.75, add.339.75, param_2.631), metadata={op_name="jit(scan)/jit(main)/while/body/select_n" source_file="/fs04/fc37/adam/projects/psilocybin-prl-analyses/src/prl_hgf/fitting/hierarchical_patrl.py" source_line=378}
  ROOT dynamic-update-slice.887.1 = pred[192,20]{1,0} dynamic-update-slice(param_0.68, bitcast.2439.1, select.509.75, constant_357_56), metadata={op_name="jit(scan)/jit(main)/while/body/dynamic_update_slice" source_file="/fs04/fc37/adam/projects/psilocybin-prl-analyses/src/prl_hgf/fitting/hierarchical_patrl.py" source_line=378}
} // fused_dynamic_update_slice.30

fused_dynamic_update_slice.45 {
  param_0.83 = pred[192,20]{1,0} parameter(0)
  param_4.550 = f64[192]{0} parameter(4)
  param_5.443 = s64[] parameter(5)
  constant_357_38 = s64[] constant(0)
  compare.263.39 = pred[] compare(param_5.443, constant_357_38), direction=LT, metadata={op_name="jit(scan)/jit(main)/while/body/lt" source_file="/fs04/fc37/adam/projects/psilocybin-prl-analyses/src/prl_hgf/fitting/hierarchical_patrl.py" source_line=378}
  constant_356_20 = s64[] constant(192)
  add.339.39 = s64[] add(param_5.443, constant_356_20), metadata={op_name="jit(scan)/jit(main)/while/body/add" source_file="/fs04/fc37/adam/projects/psilocybin-prl-analyses/src/prl_hgf/fitting/hierarchical_patrl.py" source_line=378}
  select.509.39 = s64[] select(compare.263.39, add.339.39, param_5.443), metadata={op_name="jit(scan)/jit(main)/while/body/select_n" source_file="/fs04/fc37/adam/projects/psilocybin-prl-analyses/src/prl_hgf/fitting/hierarchical_patrl.py" source_line=378}
  dynamic-slice.39.6 = f64[1]{0} dynamic-slice(param_4.550, select.509.39), dynamic_slice_sizes={1}, metadata={op_name="jit(scan)/jit(main)/while/body/dynamic_slice[slice_sizes=(1,)]" source_file="/fs04/fc37/adam/projects/psilocybin-prl-analyses/src/prl_hgf/fitting/hierarchical_patrl.py" source_line=378}
  bitcast.1707.28 = f64[] bitcast(dynamic-slice.39.6)
  broadcast.452.25 = f64[20]{0} broadcast(bitcast.1707.28), dimensions={}, metadata={op_name="jit(scan)/jit(main)/while/body/jit(beliefs_propagation)/jit(continuous_node_prediction)/jit(predict_mean)/mul" source_file="/fs04/fc37/adam/projects/psilocybin-prl-analyses/src/prl_hgf/fitting/hierarchical_patrl.py" source_line=362}
  param_1.744 = f64[20]{0} parameter(1)
  param_3.630 = f64[20,1]{1,0} parameter(3)
  bitcast.1776.9 = f64[20]{0} bitcast(param_3.630)
  param_2.650 = f64[20]{0} parameter(2)
  multiply.852.9 = f64[20]{0} multiply(bitcast.1776.9, param_2.650), metadata={op_name="jit(scan)/jit(main)/while/body/jit(beliefs_propagation)/jit(continuous_node_prediction)/jit(predict_precision)/mul" source_file="/fs04/fc37/adam/projects/psilocybin-prl-analyses/src/prl_hgf/fitting/hierarchical_patrl.py" source_line=362}
  add.342.7 = f64[20]{0} add(param_1.744, multiply.852.9), metadata={op_name="jit(scan)/jit(main)/while/body/jit(beliefs_propagation)/jit(continuous_node_prediction)/jit(predict_precision)/add" source_file="/fs04/fc37/adam/projects/psilocybin-prl-analyses/src/prl_hgf/fitting/hierarchical_patrl.py" source_line=362}
  exponential.60.5 = f64[20]{0} exponential(add.342.7), metadata={op_name="jit(scan)/jit(main)/while/body/jit(beliefs_propagation)/jit(continuous_node_prediction)/jit(predict_precision)/exp" source_file="/fs04/fc37/adam/projects/psilocybin-prl-analyses/src/prl_hgf/fitting/hierarchical_patrl.py" source_line=362}
  multiply.853.7 = f64[20]{0} multiply(broadcast.452.25, exponential.60.5), metadata={op_name="jit(scan)/jit(main)/while/body/jit(beliefs_propagation)/jit(continuous_node_prediction)/jit(predict_precision)/mul" source_file="/fs04/fc37/adam/projects/psilocybin-prl-analyses/src/prl_hgf/fitting/hierarchical_patrl.py" source_line=362}
  constant_359_6 = f64[] constant(1e-128)
  broadcast.454.clone.15 = f64[20]{0} broadcast(constant_359_6), dimensions={}
  compare.265.3 = pred[20]{0} compare(multiply.853.7, broadcast.454.clone.15), direction=GT, metadata={op_name="jit(scan)/jit(main)/while/body/jit(beliefs_propagation)/jit(continuous_node_prediction)/jit(predict_precision)/gt" source_file="/fs04/fc37/adam/projects/psilocybin-prl-analyses/src/prl_hgf/fitting/hierarchical_patrl.py" source_line=362}
  bitcast.2263.1 = pred[1,20]{1,0} bitcast(compare.265.3)
  ROOT dynamic-update-slice.871.1 = pred[192,20]{1,0} dynamic-update-slice(param_0.83, bitcast.2263.1, select.509.39, constant_357_38), metadata={op_name="jit(scan)/jit(main)/while/body/dynamic_update_slice" source_file="/fs04/fc37/adam/projects/psilocybin-prl-analyses/src/prl_hgf/fitting/hierarchical_patrl.py" source_line=378}
} // fused_dynamic_update_slice.45

fused_dynamic_update_slice.8 {
  param_0.46 = pred[192,20,1]{2,1,0} parameter(0)
  param_1.750 = s64[20]{0} parameter(1)
  constant_357_60 = s64[] constant(0)
  broadcast.460.11 = s64[20]{0} broadcast(constant_357_60), dimensions={}
  compare.268.11 = pred[20]{0} compare(param_1.750, broadcast.460.11), direction=NE, metadata={op_name="jit(scan)/jit(main)/while/body/jit(beliefs_propagation)/jit(continuous_node_posterior_update_ehgf)/jit(posterior_update_precision_continuous_node)/convert_element_type[new_dtype=bool weak_type=False sharding=None]" source_file="/fs04/fc37/adam/projects/psilocybin-prl-analyses/src/prl_hgf/fitting/hierarchical_patrl.py" source_line=362}
  convert.87.8 = s32[20]{0} convert(compare.268.11), metadata={op_name="jit(scan)/jit(main)/while/body/jit(beliefs_propagation)/jit(continuous_node_posterior_update_ehgf)/jit(posterior_update_precision_continuous_node)/convert_element_type[new_dtype=int32 weak_type=False sharding=None]" source_file="/fs04/fc37/adam/projects/psilocybin-prl-analyses/src/prl_hgf/fitting/hierarchical_patrl.py" source_line=362}
  constant_362_3 = s32[] constant(1)
  broadcast.461.clone.7 = s32[20]{0} broadcast(constant_362_3), dimensions={}
  compare.272.3 = pred[20]{0} compare(convert.87.8, broadcast.461.clone.7), direction=EQ, metadata={op_name="jit(scan)/jit(main)/while/body/jit(beliefs_propagation)/jit(continuous_node_posterior_update_ehgf)/jit(posterior_update_precision_continuous_node)/eq" source_file="/fs04/fc37/adam/projects/psilocybin-prl-analyses/src/prl_hgf/fitting/hierarchical_patrl.py" source_line=362}
  bitcast.2714.1 = pred[1,20,1]{2,1,0} bitcast(compare.272.3)
  param_2.660 = s64[] parameter(2)
  compare.263.3 = pred[] compare(param_2.660, constant_357_60), direction=LT, metadata={op_name="jit(scan)/jit(main)/while/body/lt" source_file="/fs04/fc37/adam/projects/psilocybin-prl-analyses/src/prl_hgf/fitting/hierarchical_patrl.py" source_line=378}
  constant_356_2 = s64[] constant(192)
  add.339.3 = s64[] add(param_2.660, constant_356_2), metadata={op_name="jit(scan)/jit(main)/while/body/add" source_file="/fs04/fc37/adam/projects/psilocybin-prl-analyses/src/prl_hgf/fitting/hierarchical_patrl.py" source_line=378}
  select.509.3 = s64[] select(compare.263.3, add.339.3, param_2.660), metadata={op_name="jit(scan)/jit(main)/while/body/select_n" source_file="/fs04/fc37/adam/projects/psilocybin-prl-analyses/src/prl_hgf/fitting/hierarchical_patrl.py" source_line=378}
  ROOT dynamic-update-slice.910.1 = pred[192,20,1]{2,1,0} dynamic-update-slice(param_0.46, bitcast.2714.1, select.509.3, constant_357_60, constant_357_60), metadata={op_name="jit(scan)/jit(main)/while/body/dynamic_update_slice" source_file="/fs04/fc37/adam/projects/psilocybin-prl-analyses/src/prl_hgf/fitting/hierarchical_patrl.py" source_line=378}
} // fused_dynamic_update_slice.8

fused_dynamic_update_slice.9 {
  param_0.47 = pred[192,20]{1,0} parameter(0)
  param_1.749 = s64[20]{0} parameter(1)
  constant_357_5 = s64[] constant(0)
  broadcast.460.9 = s64[20]{0} broadcast(constant_357_5), dimensions={}
  compare.268.9 = pred[20]{0} compare(param_1.749, broadcast.460.9), direction=NE, metadata={op_name="jit(scan)/jit(main)/while/body/jit(beliefs_propagation)/jit(continuous_node_posterior_update_ehgf)/jit(posterior_update_precision_continuous_node)/convert_element_type[new_dtype=bool weak_type=False sharding=None]" source_file="/fs04/fc37/adam/projects/psilocybin-prl-analyses/src/prl_hgf/fitting/hierarchical_patrl.py" source_line=362}
  convert.87.10 = s32[20]{0} convert(compare.268.9), metadata={op_name="jit(scan)/jit(main)/while/body/jit(beliefs_propagation)/jit(continuous_node_posterior_update_ehgf)/jit(posterior_update_precision_continuous_node)/convert_element_type[new_dtype=int32 weak_type=False sharding=None]" source_file="/fs04/fc37/adam/projects/psilocybin-prl-analyses/src/prl_hgf/fitting/hierarchical_patrl.py" source_line=362}
  constant_362_1 = s32[] constant(1)
  broadcast.461.clone.9 = s32[20]{0} broadcast(constant_362_1), dimensions={}
  compare.272.5 = pred[20]{0} compare(convert.87.10, broadcast.461.clone.9), direction=EQ, metadata={op_name="jit(scan)/jit(main)/while/body/jit(beliefs_propagation)/jit(continuous_node_posterior_update_ehgf)/jit(posterior_update_precision_continuous_node)/eq" source_file="/fs04/fc37/adam/projects/psilocybin-prl-analyses/src/prl_hgf/fitting/hierarchical_patrl.py" source_line=362}
  bitcast.2703.1 = pred[1,20]{1,0} bitcast(compare.272.5)
  param_2.659 = s64[] parameter(2)
  compare.263.127 = pred[] compare(param_2.659, constant_357_5), direction=LT, metadata={op_name="jit(scan)/jit(main)/while/body/lt" source_file="/fs04/fc37/adam/projects/psilocybin-prl-analyses/src/prl_hgf/fitting/hierarchical_patrl.py" source_line=378}
  constant_356_64 = s64[] constant(192)
  add.339.127 = s64[] add(param_2.659, constant_356_64), metadata={op_name="jit(scan)/jit(main)/while/body/add" source_file="/fs04/fc37/adam/projects/psilocybin-prl-analyses/src/prl_hgf/fitting/hierarchical_patrl.py" source_line=378}
  select.509.127 = s64[] select(compare.263.127, add.339.127, param_2.659), metadata={op_name="jit(scan)/jit(main)/while/body/select_n" source_file="/fs04/fc37/adam/projects/psilocybin-prl-analyses/src/prl_hgf/fitting/hierarchical_patrl.py" source_line=378}
  ROOT dynamic-update-slice.909.1 = pred[192,20]{1,0} dynamic-update-slice(param_0.47, bitcast.2703.1, select.509.127, constant_357_5), metadata={op_name="jit(scan)/jit(main)/while/body/dynamic_update_slice" source_file="/fs04/fc37/adam/projects/psilocybin-prl-analyses/src/prl_hgf/fitting/hierarchical_patrl.py" source_line=378}
} // fused_dynamic_update_slice.9

fused_dynamic_update_slice.11 {
  param_0.49 = pred[192,20,1]{2,1,0} parameter(0)
  param_1.754 = s64[20]{0} parameter(1)
  constant_357_27 = s64[] constant(0)
  broadcast.460.13 = s64[20]{0} broadcast(constant_357_27), dimensions={}
  compare.268.13 = pred[20]{0} compare(param_1.754, broadcast.460.13), direction=NE, metadata={op_name="jit(scan)/jit(main)/while/body/jit(beliefs_propagation)/jit(continuous_node_posterior_update_ehgf)/jit(posterior_update_precision_continuous_node)/convert_element_type[new_dtype=bool weak_type=False sharding=None]" source_file="/fs04/fc37/adam/projects/psilocybin-prl-analyses/src/prl_hgf/fitting/hierarchical_patrl.py" source_line=362}
  convert.87.12 = s32[20]{0} convert(compare.268.13), metadata={op_name="jit(scan)/jit(main)/while/body/jit(beliefs_propagation)/jit(continuous_node_posterior_update_ehgf)/jit(posterior_update_precision_continuous_node)/convert_element_type[new_dtype=int32 weak_type=False sharding=None]" source_file="/fs04/fc37/adam/projects/psilocybin-prl-analyses/src/prl_hgf/fitting/hierarchical_patrl.py" source_line=362}
  constant_364_2 = s32[] constant(0)
  broadcast.463.3 = s32[20]{0} broadcast(constant_364_2), dimensions={}
  compare.271.3 = pred[20]{0} compare(convert.87.12, broadcast.463.3), direction=EQ, metadata={op_name="jit(scan)/jit(main)/while/body/jit(beliefs_propagation)/jit(continuous_node_posterior_update_ehgf)/jit(posterior_update_precision_continuous_node)/eq" source_file="/fs04/fc37/adam/projects/psilocybin-prl-analyses/src/prl_hgf/fitting/hierarchical_patrl.py" source_line=362}
  bitcast.2662.1 = pred[1,20,1]{2,1,0} bitcast(compare.271.3)
  param_2.664 = s64[] parameter(2)
  compare.263.117 = pred[] compare(param_2.664, constant_357_27), direction=LT, metadata={op_name="jit(scan)/jit(main)/while/body/lt" source_file="/fs04/fc37/adam/projects/psilocybin-prl-analyses/src/prl_hgf/fitting/hierarchical_patrl.py" source_line=378}
  constant_356_59 = s64[] constant(192)
  add.339.117 = s64[] add(param_2.664, constant_356_59), metadata={op_name="jit(scan)/jit(main)/while/body/add" source_file="/fs04/fc37/adam/projects/psilocybin-prl-analyses/src/prl_hgf/fitting/hierarchical_patrl.py" source_line=378}
  select.509.117 = s64[] select(compare.263.117, add.339.117, param_2.664), metadata={op_name="jit(scan)/jit(main)/while/body/select_n" source_file="/fs04/fc37/adam/projects/psilocybin-prl-analyses/src/prl_hgf/fitting/hierarchical_patrl.py" source_line=378}
  ROOT dynamic-update-slice.906.1 = pred[192,20,1]{2,1,0} dynamic-update-slice(param_0.49, bitcast.2662.1, select.509.117, constant_357_27, constant_357_27), metadata={op_name="jit(scan)/jit(main)/while/body/dynamic_update_slice" source_file="/fs04/fc37/adam/projects/psilocybin-prl-analyses/src/prl_hgf/fitting/hierarchical_patrl.py" source_line=378}
} // fused_dynamic_update_slice.11

fused_dynamic_update_slice.12 {
  param_0.50 = pred[192,20]{1,0} parameter(0)
  param_1.753 = s64[20]{0} parameter(1)
  constant_357_39 = s64[] constant(0)
  broadcast.460.5 = s64[20]{0} broadcast(constant_357_39), dimensions={}
  compare.268.5 = pred[20]{0} compare(param_1.753, broadcast.460.5), direction=NE, metadata={op_name="jit(scan)/jit(main)/while/body/jit(beliefs_propagation)/jit(continuous_node_posterior_update_ehgf)/jit(posterior_update_precision_continuous_node)/convert_element_type[new_dtype=bool weak_type=False sharding=None]" source_file="/fs04/fc37/adam/projects/psilocybin-prl-analyses/src/prl_hgf/fitting/hierarchical_patrl.py" source_line=362}
  convert.87.14 = s32[20]{0} convert(compare.268.5), metadata={op_name="jit(scan)/jit(main)/while/body/jit(beliefs_propagation)/jit(continuous_node_posterior_update_ehgf)/jit(posterior_update_precision_continuous_node)/convert_element_type[new_dtype=int32 weak_type=False sharding=None]" source_file="/fs04/fc37/adam/projects/psilocybin-prl-analyses/src/prl_hgf/fitting/hierarchical_patrl.py" source_line=362}
  constant_364_1 = s32[] constant(0)
  broadcast.463.5 = s32[20]{0} broadcast(constant_364_1), dimensions={}
  compare.271.5 = pred[20]{0} compare(convert.87.14, broadcast.463.5), direction=EQ, metadata={op_name="jit(scan)/jit(main)/while/body/jit(beliefs_propagation)/jit(continuous_node_posterior_update_ehgf)/jit(posterior_update_precision_continuous_node)/eq" source_file="/fs04/fc37/adam/projects/psilocybin-prl-analyses/src/prl_hgf/fitting/hierarchical_patrl.py" source_line=362}
  bitcast.2651.1 = pred[1,20]{1,0} bitcast(compare.271.5)
  param_2.663 = s64[] parameter(2)
  compare.263.115 = pred[] compare(param_2.663, constant_357_39), direction=LT, metadata={op_name="jit(scan)/jit(main)/while/body/lt" source_file="/fs04/fc37/adam/projects/psilocybin-prl-analyses/src/prl_hgf/fitting/hierarchical_patrl.py" source_line=378}
  constant_356_58 = s64[] constant(192)
  add.339.115 = s64[] add(param_2.663, constant_356_58), metadata={op_name="jit(scan)/jit(main)/while/body/add" source_file="/fs04/fc37/adam/projects/psilocybin-prl-analyses/src/prl_hgf/fitting/hierarchical_patrl.py" source_line=378}
  select.509.115 = s64[] select(compare.263.115, add.339.115, param_2.663), metadata={op_name="jit(scan)/jit(main)/while/body/select_n" source_file="/fs04/fc37/adam/projects/psilocybin-prl-analyses/src/prl_hgf/fitting/hierarchical_patrl.py" source_line=378}
  ROOT dynamic-update-slice.905.1 = pred[192,20]{1,0} dynamic-update-slice(param_0.50, bitcast.2651.1, select.509.115, constant_357_39), metadata={op_name="jit(scan)/jit(main)/while/body/dynamic_update_slice" source_file="/fs04/fc37/adam/projects/psilocybin-prl-analyses/src/prl_hgf/fitting/hierarchical_patrl.py" source_line=378}
} // fused_dynamic_update_slice.12

fused_dynamic_update_slice.53 {
  param_0.91 = pred[192,20]{1,0} parameter(0)
  param_2.649 = f64[192]{0} parameter(2)
  param_3.629 = s64[] parameter(3)
  constant_357_20 = s64[] constant(0)
  compare.263.21 = pred[] compare(param_3.629, constant_357_20), direction=LT, metadata={op_name="jit(scan)/jit(main)/while/body/lt" source_file="/fs04/fc37/adam/projects/psilocybin-prl-analyses/src/prl_hgf/fitting/hierarchical_patrl.py" source_line=378}
  constant_356_11 = s64[] constant(192)
  add.339.21 = s64[] add(param_3.629, constant_356_11), metadata={op_name="jit(scan)/jit(main)/while/body/add" source_file="/fs04/fc37/adam/projects/psilocybin-prl-analyses/src/prl_hgf/fitting/hierarchical_patrl.py" source_line=378}
  select.509.21 = s64[] select(compare.263.21, add.339.21, param_3.629), metadata={op_name="jit(scan)/jit(main)/while/body/select_n" source_file="/fs04/fc37/adam/projects/psilocybin-prl-analyses/src/prl_hgf/fitting/hierarchical_patrl.py" source_line=378}
  dynamic-slice.39.10 = f64[1]{0} dynamic-slice(param_2.649, select.509.21), dynamic_slice_sizes={1}, metadata={op_name="jit(scan)/jit(main)/while/body/dynamic_slice[slice_sizes=(1,)]" source_file="/fs04/fc37/adam/projects/psilocybin-prl-analyses/src/prl_hgf/fitting/hierarchical_patrl.py" source_line=378}
  bitcast.1707.34 = f64[] bitcast(dynamic-slice.39.10)
  broadcast.452.31 = f64[20]{0} broadcast(bitcast.1707.34), dimensions={}, metadata={op_name="jit(scan)/jit(main)/while/body/jit(beliefs_propagation)/jit(continuous_node_prediction)/jit(predict_mean)/mul" source_file="/fs04/fc37/adam/projects/psilocybin-prl-analyses/src/prl_hgf/fitting/hierarchical_patrl.py" source_line=362}
  param_1.743 = f64[20]{0} parameter(1)
  exponential.61.6 = f64[20]{0} exponential(param_1.743), metadata={op_name="jit(scan)/jit(main)/while/body/jit(beliefs_propagation)/jit(continuous_node_prediction)/jit(predict_precision)/exp" source_file="/fs04/fc37/adam/projects/psilocybin-prl-analyses/src/prl_hgf/fitting/hierarchical_patrl.py" source_line=362}
  multiply.863.5 = f64[20]{0} multiply(broadcast.452.31, exponential.61.6), metadata={op_name="jit(scan)/jit(main)/while/body/jit(beliefs_propagation)/jit(continuous_node_prediction)/jit(predict_precision)/mul" source_file="/fs04/fc37/adam/projects/psilocybin-prl-analyses/src/prl_hgf/fitting/hierarchical_patrl.py" source_line=362}
  constant_359_5 = f64[] constant(1e-128)
  broadcast.454.clone.11 = f64[20]{0} broadcast(constant_359_5), dimensions={}
  compare.267.3 = pred[20]{0} compare(multiply.863.5, broadcast.454.clone.11), direction=GT, metadata={op_name="jit(scan)/jit(main)/while/body/jit(beliefs_propagation)/jit(continuous_node_prediction)/jit(predict_precision)/gt" source_file="/fs04/fc37/adam/projects/psilocybin-prl-analyses/src/prl_hgf/fitting/hierarchical_patrl.py" source_line=362}
  bitcast.2167.1 = pred[1,20]{1,0} bitcast(compare.267.3)
  ROOT dynamic-update-slice.863.1 = pred[192,20]{1,0} dynamic-update-slice(param_0.91, bitcast.2167.1, select.509.21, constant_357_20), metadata={op_name="jit(scan)/jit(main)/while/body/dynamic_update_slice" source_file="/fs04/fc37/adam/projects/psilocybin-prl-analyses/src/prl_hgf/fitting/hierarchical_patrl.py" source_line=378}
} // fused_dynamic_update_slice.53

fused_dynamic_update_slice.13 {
  param_0.51 = s32[192,20]{1,0} parameter(0)
  param_1.731 = s64[20]{0} parameter(1)
  constant_357_54 = s64[] constant(0)
  broadcast.460.3 = s64[20]{0} broadcast(constant_357_54), dimensions={}
  compare.268.3 = pred[20]{0} compare(param_1.731, broadcast.460.3), direction=NE, metadata={op_name="jit(scan)/jit(main)/while/body/jit(beliefs_propagation)/jit(continuous_node_posterior_update_ehgf)/jit(posterior_update_precision_continuous_node)/convert_element_type[new_dtype=bool weak_type=False sharding=None]" source_file="/fs04/fc37/adam/projects/psilocybin-prl-analyses/src/prl_hgf/fitting/hierarchical_patrl.py" source_line=362}
  convert.87.4 = s32[20]{0} convert(compare.268.3), metadata={op_name="jit(scan)/jit(main)/while/body/jit(beliefs_propagation)/jit(continuous_node_posterior_update_ehgf)/jit(posterior_update_precision_continuous_node)/convert_element_type[new_dtype=int32 weak_type=False sharding=None]" source_file="/fs04/fc37/adam/projects/psilocybin-prl-analyses/src/prl_hgf/fitting/hierarchical_patrl.py" source_line=362}
  bitcast.2637.1 = s32[1,20]{1,0} bitcast(convert.87.4)
  param_2.629 = s64[] parameter(2)
  compare.263.113 = pred[] compare(param_2.629, constant_357_54), direction=LT, metadata={op_name="jit(scan)/jit(main)/while/body/lt" source_file="/fs04/fc37/adam/projects/psilocybin-prl-analyses/src/prl_hgf/fitting/hierarchical_patrl.py" source_line=378}
  constant_356_57 = s64[] constant(192)
  add.339.113 = s64[] add(param_2.629, constant_356_57), metadata={op_name="jit(scan)/jit(main)/while/body/add" source_file="/fs04/fc37/adam/projects/psilocybin-prl-analyses/src/prl_hgf/fitting/hierarchical_patrl.py" source_line=378}
  select.509.113 = s64[] select(compare.263.113, add.339.113, param_2.629), metadata={op_name="jit(scan)/jit(main)/while/body/select_n" source_file="/fs04/fc37/adam/projects/psilocybin-prl-analyses/src/prl_hgf/fitting/hierarchical_patrl.py" source_line=378}
  ROOT dynamic-update-slice.904.1 = s32[192,20]{1,0} dynamic-update-slice(param_0.51, bitcast.2637.1, select.509.113, constant_357_54), metadata={op_name="jit(scan)/jit(main)/while/body/dynamic_update_slice" source_file="/fs04/fc37/adam/projects/psilocybin-prl-analyses/src/prl_hgf/fitting/hierarchical_patrl.py" source_line=378}
} // fused_dynamic_update_slice.13

fused_dynamic_update_slice.35 {
  param_0.73 = f64[192,20]{1,0} parameter(0)
  param_1.682 = f64[20]{0} parameter(1)
  bitcast.2386.1 = f64[1,20]{1,0} bitcast(param_1.682)
  param_2.580 = s64[] parameter(2)
  constant_357_4 = s64[] constant(0)
  compare.263.65 = pred[] compare(param_2.580, constant_357_4), direction=LT, metadata={op_name="jit(scan)/jit(main)/while/body/lt" source_file="/fs04/fc37/adam/projects/psilocybin-prl-analyses/src/prl_hgf/fitting/hierarchical_patrl.py" source_line=378}
  constant_356_33 = s64[] constant(192)
  add.339.65 = s64[] add(param_2.580, constant_356_33), metadata={op_name="jit(scan)/jit(main)/while/body/add" source_file="/fs04/fc37/adam/projects/psilocybin-prl-analyses/src/prl_hgf/fitting/hierarchical_patrl.py" source_line=378}
  select.509.65 = s64[] select(compare.263.65, add.339.65, param_2.580), metadata={op_name="jit(scan)/jit(main)/while/body/select_n" source_file="/fs04/fc37/adam/projects/psilocybin-prl-analyses/src/prl_hgf/fitting/hierarchical_patrl.py" source_line=378}
  ROOT dynamic-update-slice.882.1 = f64[192,20]{1,0} dynamic-update-slice(param_0.73, bitcast.2386.1, select.509.65, constant_357_4), metadata={op_name="jit(scan)/jit(main)/while/body/dynamic_update_slice" source_file="/fs04/fc37/adam/projects/psilocybin-prl-analyses/src/prl_hgf/fitting/hierarchical_patrl.py" source_line=378}
} // fused_dynamic_update_slice.35

fused_dynamic_update_slice.33 {
  param_0.71 = f64[192,20]{1,0} parameter(0)
  param_1.703 = f64[20]{0} parameter(1)
  bitcast.2406.1 = f64[1,20]{1,0} bitcast(param_1.703)
  param_2.601 = s64[] parameter(2)
  constant_357_26 = s64[] constant(0)
  compare.263.69 = pred[] compare(param_2.601, constant_357_26), direction=LT, metadata={op_name="jit(scan)/jit(main)/while/body/lt" source_file="/fs04/fc37/adam/projects/psilocybin-prl-analyses/src/prl_hgf/fitting/hierarchical_patrl.py" source_line=378}
  constant_356_35 = s64[] constant(192)
  add.339.69 = s64[] add(param_2.601, constant_356_35), metadata={op_name="jit(scan)/jit(main)/while/body/add" source_file="/fs04/fc37/adam/projects/psilocybin-prl-analyses/src/prl_hgf/fitting/hierarchical_patrl.py" source_line=378}
  select.509.69 = s64[] select(compare.263.69, add.339.69, param_2.601), metadata={op_name="jit(scan)/jit(main)/while/body/select_n" source_file="/fs04/fc37/adam/projects/psilocybin-prl-analyses/src/prl_hgf/fitting/hierarchical_patrl.py" source_line=378}
  ROOT dynamic-update-slice.884.1 = f64[192,20]{1,0} dynamic-update-slice(param_0.71, bitcast.2406.1, select.509.69, constant_357_26), metadata={op_name="jit(scan)/jit(main)/while/body/dynamic_update_slice" source_file="/fs04/fc37/adam/projects/psilocybin-prl-analyses/src/prl_hgf/fitting/hierarchical_patrl.py" source_line=378}
} // fused_dynamic_update_slice.33

fused_dynamic_update_slice.32 {
  param_0.70 = f64[192,20]{1,0} parameter(0)
  param_1.722 = f64[20]{0} parameter(1)
  bitcast.2417.1 = f64[1,20]{1,0} bitcast(param_1.722)
  param_2.620 = s64[] parameter(2)
  constant_357_45 = s64[] constant(0)
  compare.263.71 = pred[] compare(param_2.620, constant_357_45), direction=LT, metadata={op_name="jit(scan)/jit(main)/while/body/lt" source_file="/fs04/fc37/adam/projects/psilocybin-prl-analyses/src/prl_hgf/fitting/hierarchical_patrl.py" source_line=378}
  constant_356_36 = s64[] constant(192)
  add.339.71 = s64[] add(param_2.620, constant_356_36), metadata={op_name="jit(scan)/jit(main)/while/body/add" source_file="/fs04/fc37/adam/projects/psilocybin-prl-analyses/src/prl_hgf/fitting/hierarchical_patrl.py" source_line=378}
  select.509.71 = s64[] select(compare.263.71, add.339.71, param_2.620), metadata={op_name="jit(scan)/jit(main)/while/body/select_n" source_file="/fs04/fc37/adam/projects/psilocybin-prl-analyses/src/prl_hgf/fitting/hierarchical_patrl.py" source_line=378}
  ROOT dynamic-update-slice.885.1 = f64[192,20]{1,0} dynamic-update-slice(param_0.70, bitcast.2417.1, select.509.71, constant_357_45), metadata={op_name="jit(scan)/jit(main)/while/body/dynamic_update_slice" source_file="/fs04/fc37/adam/projects/psilocybin-prl-analyses/src/prl_hgf/fitting/hierarchical_patrl.py" source_line=378}
} // fused_dynamic_update_slice.32

fused_dynamic_update_slice.31 {
  param_0.69 = f64[192,20]{1,0} parameter(0)
  param_1.718 = f64[20]{0} parameter(1)
  bitcast.2428.1 = f64[1,20]{1,0} bitcast(param_1.718)
  param_2.616 = s64[] parameter(2)
  constant_357_41 = s64[] constant(0)
  compare.263.73 = pred[] compare(param_2.616, constant_357_41), direction=LT, metadata={op_name="jit(scan)/jit(main)/while/body/lt" source_file="/fs04/fc37/adam/projects/psilocybin-prl-analyses/src/prl_hgf/fitting/hierarchical_patrl.py" source_line=378}
  constant_356_37 = s64[] constant(192)
  add.339.73 = s64[] add(param_2.616, constant_356_37), metadata={op_name="jit(scan)/jit(main)/while/body/add" source_file="/fs04/fc37/adam/projects/psilocybin-prl-analyses/src/prl_hgf/fitting/hierarchical_patrl.py" source_line=378}
  select.509.73 = s64[] select(compare.263.73, add.339.73, param_2.616), metadata={op_name="jit(scan)/jit(main)/while/body/select_n" source_file="/fs04/fc37/adam/projects/psilocybin-prl-analyses/src/prl_hgf/fitting/hierarchical_patrl.py" source_line=378}
  ROOT dynamic-update-slice.886.1 = f64[192,20]{1,0} dynamic-update-slice(param_0.69, bitcast.2428.1, select.509.73, constant_357_41), metadata={op_name="jit(scan)/jit(main)/while/body/dynamic_update_slice" source_file="/fs04/fc37/adam/projects/psilocybin-prl-analyses/src/prl_hgf/fitting/hierarchical_patrl.py" source_line=378}
} // fused_dynamic_update_slice.31

fused_dynamic_update_slice.28 {
  param_0.66 = f64[192,20]{1,0} parameter(0)
  param_1.730 = f64[20]{0} parameter(1)
  bitcast.2461.1 = f64[1,20]{1,0} bitcast(param_1.730)
  param_2.628 = s64[] parameter(2)
  constant_357_53 = s64[] constant(0)
  compare.263.79 = pred[] compare(param_2.628, constant_357_53), direction=LT, metadata={op_name="jit(scan)/jit(main)/while/body/lt" source_file="/fs04/fc37/adam/projects/psilocybin-prl-analyses/src/prl_hgf/fitting/hierarchical_patrl.py" source_line=378}
  constant_356_40 = s64[] constant(192)
  add.339.79 = s64[] add(param_2.628, constant_356_40), metadata={op_name="jit(scan)/jit(main)/while/body/add" source_file="/fs04/fc37/adam/projects/psilocybin-prl-analyses/src/prl_hgf/fitting/hierarchical_patrl.py" source_line=378}
  select.509.79 = s64[] select(compare.263.79, add.339.79, param_2.628), metadata={op_name="jit(scan)/jit(main)/while/body/select_n" source_file="/fs04/fc37/adam/projects/psilocybin-prl-analyses/src/prl_hgf/fitting/hierarchical_patrl.py" source_line=378}
  ROOT dynamic-update-slice.889.1 = f64[192,20]{1,0} dynamic-update-slice(param_0.66, bitcast.2461.1, select.509.79, constant_357_53), metadata={op_name="jit(scan)/jit(main)/while/body/dynamic_update_slice" source_file="/fs04/fc37/adam/projects/psilocybin-prl-analyses/src/prl_hgf/fitting/hierarchical_patrl.py" source_line=378}
} // fused_dynamic_update_slice.28

fused_dynamic_update_slice.26 {
  param_0.64 = f64[192,20]{1,0} parameter(0)
  constant_358_17 = f64[] constant(1)
  broadcast.453.16 = f64[20]{0} broadcast(constant_358_17), dimensions={}
  param_1.692 = f64[20]{0} parameter(1)
  multiply.883.3 = f64[20]{0} multiply(param_1.692, param_1.692), metadata={op_name="jit(scan)/jit(main)/while/body/jit(beliefs_propagation)/jit(continuous_node_posterior_update)/jit(posterior_update_mean_continuous_node)/mul" source_file="/fs04/fc37/adam/projects/psilocybin-prl-analyses/src/prl_hgf/fitting/hierarchical_patrl.py" source_line=362}
  divide.405.3 = f64[20]{0} divide(broadcast.453.16, multiply.883.3), metadata={op_name="jit(scan)/jit(main)/while/body/jit(beliefs_propagation)/jit(continuous_node_posterior_update)/jit(posterior_update_mean_continuous_node)/div" source_file="/fs04/fc37/adam/projects/psilocybin-prl-analyses/src/prl_hgf/fitting/hierarchical_patrl.py" source_line=362}
  bitcast.2487.1 = f64[1,20]{1,0} bitcast(divide.405.3)
  param_2.647 = s64[] parameter(2)
  constant_357_15 = s64[] constant(0)
  compare.263.83 = pred[] compare(param_2.647, constant_357_15), direction=LT, metadata={op_name="jit(scan)/jit(main)/while/body/lt" source_file="/fs04/fc37/adam/projects/psilocybin-prl-analyses/src/prl_hgf/fitting/hierarchical_patrl.py" source_line=378}
  constant_356_42 = s64[] constant(192)
  add.339.83 = s64[] add(param_2.647, constant_356_42), metadata={op_name="jit(scan)/jit(main)/while/body/add" source_file="/fs04/fc37/adam/projects/psilocybin-prl-analyses/src/prl_hgf/fitting/hierarchical_patrl.py" source_line=378}
  select.509.83 = s64[] select(compare.263.83, add.339.83, param_2.647), metadata={op_name="jit(scan)/jit(main)/while/body/select_n" source_file="/fs04/fc37/adam/projects/psilocybin-prl-analyses/src/prl_hgf/fitting/hierarchical_patrl.py" source_line=378}
  ROOT dynamic-update-slice.891.1 = f64[192,20]{1,0} dynamic-update-slice(param_0.64, bitcast.2487.1, select.509.83, constant_357_15), metadata={op_name="jit(scan)/jit(main)/while/body/dynamic_update_slice" source_file="/fs04/fc37/adam/projects/psilocybin-prl-analyses/src/prl_hgf/fitting/hierarchical_patrl.py" source_line=378}
} // fused_dynamic_update_slice.26

fused_dynamic_update_slice.42 {
  param_0.80 = f64[192,20]{1,0} parameter(0)
  constant_358_15 = f64[] constant(1)
  broadcast.453.14 = f64[20]{0} broadcast(constant_358_15), dimensions={}
  param_1.741 = f64[20]{0} parameter(1)
  param_7.323 = f64[192]{0} parameter(7)
  param_2.645 = s64[] parameter(2)
  constant_357_46 = s64[] constant(0)
  compare.263.163 = pred[] compare(param_2.645, constant_357_46), direction=LT, metadata={op_name="jit(scan)/jit(main)/while/body/lt" source_file="/fs04/fc37/adam/projects/psilocybin-prl-analyses/src/prl_hgf/fitting/hierarchical_patrl.py" source_line=378}
  constant_356_24 = s64[] constant(192)
  add.339.163 = s64[] add(param_2.645, constant_356_24), metadata={op_name="jit(scan)/jit(main)/while/body/add" source_file="/fs04/fc37/adam/projects/psilocybin-prl-analyses/src/prl_hgf/fitting/hierarchical_patrl.py" source_line=378}
  select.509.163 = s64[] select(compare.263.163, add.339.163, param_2.645), metadata={op_name="jit(scan)/jit(main)/while/body/select_n" source_file="/fs04/fc37/adam/projects/psilocybin-prl-analyses/src/prl_hgf/fitting/hierarchical_patrl.py" source_line=378}
  dynamic-slice.39.35 = f64[1]{0} dynamic-slice(param_7.323, select.509.163), dynamic_slice_sizes={1}, metadata={op_name="jit(scan)/jit(main)/while/body/dynamic_slice[slice_sizes=(1,)]" source_file="/fs04/fc37/adam/projects/psilocybin-prl-analyses/src/prl_hgf/fitting/hierarchical_patrl.py" source_line=378}
  bitcast.1707.70 = f64[] bitcast(dynamic-slice.39.35)
  broadcast.452.67 = f64[20]{0} broadcast(bitcast.1707.70), dimensions={}, metadata={op_name="jit(scan)/jit(main)/while/body/jit(beliefs_propagation)/jit(continuous_node_prediction)/jit(predict_mean)/mul" source_file="/fs04/fc37/adam/projects/psilocybin-prl-analyses/src/prl_hgf/fitting/hierarchical_patrl.py" source_line=362}
  param_4.554 = f64[20]{0} parameter(4)
  param_6.402 = f64[20,1]{1,0} parameter(6)
  bitcast.1776.15 = f64[20]{0} bitcast(param_6.402)
  param_5.445 = f64[20]{0} parameter(5)
  multiply.852.15 = f64[20]{0} multiply(bitcast.1776.15, param_5.445), metadata={op_name="jit(scan)/jit(main)/while/body/jit(beliefs_propagation)/jit(continuous_node_prediction)/jit(predict_precision)/mul" source_file="/fs04/fc37/adam/projects/psilocybin-prl-analyses/src/prl_hgf/fitting/hierarchical_patrl.py" source_line=362}
  add.342.13 = f64[20]{0} add(param_4.554, multiply.852.15), metadata={op_name="jit(scan)/jit(main)/while/body/jit(beliefs_propagation)/jit(continuous_node_prediction)/jit(predict_precision)/add" source_file="/fs04/fc37/adam/projects/psilocybin-prl-analyses/src/prl_hgf/fitting/hierarchical_patrl.py" source_line=362}
  exponential.60.11 = f64[20]{0} exponential(add.342.13), metadata={op_name="jit(scan)/jit(main)/while/body/jit(beliefs_propagation)/jit(continuous_node_prediction)/jit(predict_precision)/exp" source_file="/fs04/fc37/adam/projects/psilocybin-prl-analyses/src/prl_hgf/fitting/hierarchical_patrl.py" source_line=362}
  multiply.853.17 = f64[20]{0} multiply(broadcast.452.67, exponential.60.11), metadata={op_name="jit(scan)/jit(main)/while/body/jit(beliefs_propagation)/jit(continuous_node_prediction)/jit(predict_precision)/mul" source_file="/fs04/fc37/adam/projects/psilocybin-prl-analyses/src/prl_hgf/fitting/hierarchical_patrl.py" source_line=362}
  constant_359_11 = f64[] constant(1e-128)
  broadcast.454.clone.29 = f64[20]{0} broadcast(constant_359_11), dimensions={}
  compare.265.9 = pred[20]{0} compare(multiply.853.17, broadcast.454.clone.29), direction=GT, metadata={op_name="jit(scan)/jit(main)/while/body/jit(beliefs_propagation)/jit(continuous_node_prediction)/jit(predict_precision)/gt" source_file="/fs04/fc37/adam/projects/psilocybin-prl-analyses/src/prl_hgf/fitting/hierarchical_patrl.py" source_line=362}
  param_3.625 = f64[20]{0} parameter(3)
  select.510.5 = f64[20]{0} select(compare.265.9, multiply.853.17, param_3.625), metadata={op_name="jit(scan)/jit(main)/while/body/jit(beliefs_propagation)/jit(continuous_node_prediction)/jit(predict_precision)/jit(_where)/select_n" source_file="/fs04/fc37/adam/projects/psilocybin-prl-analyses/src/prl_hgf/env/pat_rl_simulator.py" source_line=92}
  add.343.3 = f64[20]{0} add(param_1.741, select.510.5), metadata={op_name="jit(scan)/jit(main)/while/body/jit(beliefs_propagation)/jit(continuous_node_prediction)/jit(predict_precision)/add" source_file="/fs04/fc37/adam/projects/psilocybin-prl-analyses/src/prl_hgf/fitting/hierarchical_patrl.py" source_line=362}
  multiply.881.3 = f64[20]{0} multiply(add.343.3, add.343.3), metadata={op_name="jit(scan)/jit(main)/while/body/jit(beliefs_propagation)/jit(continuous_node_prediction)/jit(predict_precision)/mul" source_file="/fs04/fc37/adam/projects/psilocybin-prl-analyses/src/prl_hgf/fitting/hierarchical_patrl.py" source_line=362}
  divide.403.3 = f64[20]{0} divide(broadcast.453.14, multiply.881.3), metadata={op_name="jit(scan)/jit(main)/while/body/jit(beliefs_propagation)/jit(continuous_node_prediction)/jit(predict_precision)/div" source_file="/fs04/fc37/adam/projects/psilocybin-prl-analyses/src/prl_hgf/fitting/hierarchical_patrl.py" source_line=362}
  bitcast.2300.1 = f64[1,20]{1,0} bitcast(divide.403.3)
  ROOT dynamic-update-slice.874.1 = f64[192,20]{1,0} dynamic-update-slice(param_0.80, bitcast.2300.1, select.509.163, constant_357_46), metadata={op_name="jit(scan)/jit(main)/while/body/dynamic_update_slice" source_file="/fs04/fc37/adam/projects/psilocybin-prl-analyses/src/prl_hgf/fitting/hierarchical_patrl.py" source_line=378}
} // fused_dynamic_update_slice.42

fused_dynamic_update_slice.37 {
  param_0.75 = f64[192,20]{1,0} parameter(0)
  param_2.632 = f64[192,20,1]{2,1,0} parameter(2)
  param_4.534 = s64[] parameter(4)
  constant_357_57 = s64[] constant(0)
  compare.263.59 = pred[] compare(param_4.534, constant_357_57), direction=LT, metadata={op_name="jit(scan)/jit(main)/while/body/lt" source_file="/fs04/fc37/adam/projects/psilocybin-prl-analyses/src/prl_hgf/fitting/hierarchical_patrl.py" source_line=378}
  constant_356_30 = s64[] constant(192)
  add.339.59 = s64[] add(param_4.534, constant_356_30), metadata={op_name="jit(scan)/jit(main)/while/body/add" source_file="/fs04/fc37/adam/projects/psilocybin-prl-analyses/src/prl_hgf/fitting/hierarchical_patrl.py" source_line=378}
  select.509.59 = s64[] select(compare.263.59, add.339.59, param_4.534), metadata={op_name="jit(scan)/jit(main)/while/body/select_n" source_file="/fs04/fc37/adam/projects/psilocybin-prl-analyses/src/prl_hgf/fitting/hierarchical_patrl.py" source_line=378}
  dynamic-slice.41.4 = f64[1,20,1]{2,1,0} dynamic-slice(param_2.632, select.509.59, constant_357_57, constant_357_57), dynamic_slice_sizes={1,20,1}, metadata={op_name="jit(scan)/jit(main)/while/body/dynamic_slice[slice_sizes=(1, 20, 1)]" source_file="/fs04/fc37/adam/projects/psilocybin-prl-analyses/src/prl_hgf/fitting/hierarchical_patrl.py" source_line=378}
  bitcast.1804.6 = f64[20]{0} bitcast(dynamic-slice.41.4)
  param_1.734 = f64[20]{0} parameter(1)
  subtract.77.5 = f64[20]{0} subtract(bitcast.1804.6, param_1.734), metadata={op_name="jit(scan)/jit(main)/while/body/jit(beliefs_propagation)/jit(binary_state_node_prediction_error)/sub" source_file="/fs04/fc37/adam/projects/psilocybin-prl-analyses/src/prl_hgf/fitting/hierarchical_patrl.py" source_line=362}
  param_3.611 = s32[192]{0} parameter(3)
  dynamic-slice.40.7 = s32[1]{0} dynamic-slice(param_3.611, select.509.59), dynamic_slice_sizes={1}, metadata={op_name="jit(scan)/jit(main)/while/body/dynamic_slice[slice_sizes=(1,)]" source_file="/fs04/fc37/adam/projects/psilocybin-prl-analyses/src/prl_hgf/fitting/hierarchical_patrl.py" source_line=378}
  bitcast.1762.16 = s32[] bitcast(dynamic-slice.40.7)
  convert.85.13 = f64[] convert(bitcast.1762.16), metadata={op_name="jit(scan)/jit(main)/while/body/jit(beliefs_propagation)/jit(binary_state_node_prediction_error)/convert_element_type[new_dtype=float64 weak_type=False sharding=None]" source_file="/fs04/fc37/adam/projects/psilocybin-prl-analyses/src/prl_hgf/fitting/hierarchical_patrl.py" source_line=362}
  broadcast.455.8 = f64[20]{0} broadcast(convert.85.13), dimensions={}, metadata={op_name="jit(scan)/jit(main)/while/body/jit(beliefs_propagation)/jit(binary_state_node_prediction_error)/mul" source_file="/fs04/fc37/adam/projects/psilocybin-prl-analyses/src/prl_hgf/fitting/hierarchical_patrl.py" source_line=362}
  multiply.854.3 = f64[20]{0} multiply(subtract.77.5, broadcast.455.8), metadata={op_name="jit(scan)/jit(main)/while/body/jit(beliefs_propagation)/jit(binary_state_node_prediction_error)/mul" source_file="/fs04/fc37/adam/projects/psilocybin-prl-analyses/src/prl_hgf/fitting/hierarchical_patrl.py" source_line=362}
  bitcast.2353.1 = f64[1,20]{1,0} bitcast(multiply.854.3)
  ROOT dynamic-update-slice.879.1 = f64[192,20]{1,0} dynamic-update-slice(param_0.75, bitcast.2353.1, select.509.59, constant_357_57), metadata={op_name="jit(scan)/jit(main)/while/body/dynamic_update_slice" source_file="/fs04/fc37/adam/projects/psilocybin-prl-analyses/src/prl_hgf/fitting/hierarchical_patrl.py" source_line=378}
} // fused_dynamic_update_slice.37

fused_dynamic_update_slice.39 {
  param_0.77 = f64[192,20]{1,0} parameter(0)
  param_1.729 = f64[20]{0} parameter(1)
  bitcast.2333.1 = f64[1,20]{1,0} bitcast(param_1.729)
  param_2.627 = s64[] parameter(2)
  constant_357_52 = s64[] constant(0)
  compare.263.53 = pred[] compare(param_2.627, constant_357_52), direction=LT, metadata={op_name="jit(scan)/jit(main)/while/body/lt" source_file="/fs04/fc37/adam/projects/psilocybin-prl-analyses/src/prl_hgf/fitting/hierarchical_patrl.py" source_line=378}
  constant_356_27 = s64[] constant(192)
  add.339.53 = s64[] add(param_2.627, constant_356_27), metadata={op_name="jit(scan)/jit(main)/while/body/add" source_file="/fs04/fc37/adam/projects/psilocybin-prl-analyses/src/prl_hgf/fitting/hierarchical_patrl.py" source_line=378}
  select.509.53 = s64[] select(compare.263.53, add.339.53, param_2.627), metadata={op_name="jit(scan)/jit(main)/while/body/select_n" source_file="/fs04/fc37/adam/projects/psilocybin-prl-analyses/src/prl_hgf/fitting/hierarchical_patrl.py" source_line=378}
  ROOT dynamic-update-slice.877.1 = f64[192,20]{1,0} dynamic-update-slice(param_0.77, bitcast.2333.1, select.509.53, constant_357_52), metadata={op_name="jit(scan)/jit(main)/while/body/dynamic_update_slice" source_file="/fs04/fc37/adam/projects/psilocybin-prl-analyses/src/prl_hgf/fitting/hierarchical_patrl.py" source_line=378}
} // fused_dynamic_update_slice.39

fused_dynamic_update_slice.40 {
  param_0.78 = f64[192,20]{1,0} parameter(0)
  constant_358_1 = f64[] constant(1)
  broadcast.453.18 = f64[20]{0} broadcast(constant_358_1), dimensions={}
  param_1.727 = f64[20]{0} parameter(1)
  subtract.76.1 = f64[20]{0} subtract(broadcast.453.18, param_1.727), metadata={op_name="jit(scan)/jit(main)/while/body/jit(beliefs_propagation)/jit(binary_state_node_prediction)/sub" source_file="/fs04/fc37/adam/projects/psilocybin-prl-analyses/src/prl_hgf/fitting/hierarchical_patrl.py" source_line=362}
  bitcast.2322.1 = f64[1,20]{1,0} bitcast(subtract.76.1)
  param_2.637 = s64[] parameter(2)
  constant_357_50 = s64[] constant(0)
  compare.263.51 = pred[] compare(param_2.637, constant_357_50), direction=LT, metadata={op_name="jit(scan)/jit(main)/while/body/lt" source_file="/fs04/fc37/adam/projects/psilocybin-prl-analyses/src/prl_hgf/fitting/hierarchical_patrl.py" source_line=378}
  constant_356_26 = s64[] constant(192)
  add.339.51 = s64[] add(param_2.637, constant_356_26), metadata={op_name="jit(scan)/jit(main)/while/body/add" source_file="/fs04/fc37/adam/projects/psilocybin-prl-analyses/src/prl_hgf/fitting/hierarchical_patrl.py" source_line=378}
  select.509.51 = s64[] select(compare.263.51, add.339.51, param_2.637), metadata={op_name="jit(scan)/jit(main)/while/body/select_n" source_file="/fs04/fc37/adam/projects/psilocybin-prl-analyses/src/prl_hgf/fitting/hierarchical_patrl.py" source_line=378}
  ROOT dynamic-update-slice.876.1 = f64[192,20]{1,0} dynamic-update-slice(param_0.78, bitcast.2322.1, select.509.51, constant_357_50), metadata={op_name="jit(scan)/jit(main)/while/body/dynamic_update_slice" source_file="/fs04/fc37/adam/projects/psilocybin-prl-analyses/src/prl_hgf/fitting/hierarchical_patrl.py" source_line=378}
} // fused_dynamic_update_slice.40

fused_dynamic_update_slice.36 {
  param_0.74 = f64[192,20]{1,0} parameter(0)
  constant_358_16 = f64[] constant(1)
  broadcast.453.15 = f64[20]{0} broadcast(constant_358_16), dimensions={}
  param_1.736 = f64[20]{0} parameter(1)
  multiply.882.3 = f64[20]{0} multiply(param_1.736, param_1.736), metadata={op_name="jit(scan)/jit(main)/while/body/jit(beliefs_propagation)/jit(binary_state_node_prediction_error)/mul" source_file="/fs04/fc37/adam/projects/psilocybin-prl-analyses/src/prl_hgf/fitting/hierarchical_patrl.py" source_line=362}
  divide.404.3 = f64[20]{0} divide(broadcast.453.15, multiply.882.3), metadata={op_name="jit(scan)/jit(main)/while/body/jit(beliefs_propagation)/jit(binary_state_node_prediction_error)/div" source_file="/fs04/fc37/adam/projects/psilocybin-prl-analyses/src/prl_hgf/fitting/hierarchical_patrl.py" source_line=362}
  bitcast.2368.1 = f64[1,20]{1,0} bitcast(divide.404.3)
  param_2.646 = s64[] parameter(2)
  constant_357_59 = s64[] constant(0)
  compare.263.61 = pred[] compare(param_2.646, constant_357_59), direction=LT, metadata={op_name="jit(scan)/jit(main)/while/body/lt" source_file="/fs04/fc37/adam/projects/psilocybin-prl-analyses/src/prl_hgf/fitting/hierarchical_patrl.py" source_line=378}
  constant_356_31 = s64[] constant(192)
  add.339.61 = s64[] add(param_2.646, constant_356_31), metadata={op_name="jit(scan)/jit(main)/while/body/add" source_file="/fs04/fc37/adam/projects/psilocybin-prl-analyses/src/prl_hgf/fitting/hierarchical_patrl.py" source_line=378}
  select.509.61 = s64[] select(compare.263.61, add.339.61, param_2.646), metadata={op_name="jit(scan)/jit(main)/while/body/select_n" source_file="/fs04/fc37/adam/projects/psilocybin-prl-analyses/src/prl_hgf/fitting/hierarchical_patrl.py" source_line=378}
  ROOT dynamic-update-slice.880.1 = f64[192,20]{1,0} dynamic-update-slice(param_0.74, bitcast.2368.1, select.509.61, constant_357_59), metadata={op_name="jit(scan)/jit(main)/while/body/dynamic_update_slice" source_file="/fs04/fc37/adam/projects/psilocybin-prl-analyses/src/prl_hgf/fitting/hierarchical_patrl.py" source_line=378}
} // fused_dynamic_update_slice.36

fused_dynamic_update_slice.27 {
  param_0.65 = f64[192,20]{1,0} parameter(0)
  param_2.586 = f64[20,1]{1,0} parameter(2)
  bitcast.1716.3 = f64[20]{0} bitcast(param_2.586)
  param_1.688 = f64[20]{0} parameter(1)
  multiply.851.3 = f64[20]{0} multiply(bitcast.1716.3, param_1.688), metadata={op_name="jit(scan)/jit(main)/while/body/jit(beliefs_propagation)/jit(continuous_node_posterior_update)/jit(posterior_update_mean_continuous_node)/mul" source_file="/fs04/fc37/adam/projects/psilocybin-prl-analyses/src/prl_hgf/fitting/hierarchical_patrl.py" source_line=362}
  bitcast.2472.1 = f64[1,20]{1,0} bitcast(multiply.851.3)
  param_3.586 = s64[] parameter(3)
  constant_357_11 = s64[] constant(0)
  compare.263.81 = pred[] compare(param_3.586, constant_357_11), direction=LT, metadata={op_name="jit(scan)/jit(main)/while/body/lt" source_file="/fs04/fc37/adam/projects/psilocybin-prl-analyses/src/prl_hgf/fitting/hierarchical_patrl.py" source_line=378}
  constant_356_41 = s64[] constant(192)
  add.339.81 = s64[] add(param_3.586, constant_356_41), metadata={op_name="jit(scan)/jit(main)/while/body/add" source_file="/fs04/fc37/adam/projects/psilocybin-prl-analyses/src/prl_hgf/fitting/hierarchical_patrl.py" source_line=378}
  select.509.81 = s64[] select(compare.263.81, add.339.81, param_3.586), metadata={op_name="jit(scan)/jit(main)/while/body/select_n" source_file="/fs04/fc37/adam/projects/psilocybin-prl-analyses/src/prl_hgf/fitting/hierarchical_patrl.py" source_line=378}
  ROOT dynamic-update-slice.890.1 = f64[192,20]{1,0} dynamic-update-slice(param_0.65, bitcast.2472.1, select.509.81, constant_357_11), metadata={op_name="jit(scan)/jit(main)/while/body/dynamic_update_slice" source_file="/fs04/fc37/adam/projects/psilocybin-prl-analyses/src/prl_hgf/fitting/hierarchical_patrl.py" source_line=378}
} // fused_dynamic_update_slice.27

fused_dynamic_update_slice.41 {
  param_0.79 = f64[192,20]{1,0} parameter(0)
  param_1.725 = f64[20]{0} parameter(1)
  bitcast.2311.1 = f64[1,20]{1,0} bitcast(param_1.725)
  param_2.623 = s64[] parameter(2)
  constant_357_48 = s64[] constant(0)
  compare.263.49 = pred[] compare(param_2.623, constant_357_48), direction=LT, metadata={op_name="jit(scan)/jit(main)/while/body/lt" source_file="/fs04/fc37/adam/projects/psilocybin-prl-analyses/src/prl_hgf/fitting/hierarchical_patrl.py" source_line=378}
  constant_356_25 = s64[] constant(192)
  add.339.49 = s64[] add(param_2.623, constant_356_25), metadata={op_name="jit(scan)/jit(main)/while/body/add" source_file="/fs04/fc37/adam/projects/psilocybin-prl-analyses/src/prl_hgf/fitting/hierarchical_patrl.py" source_line=378}
  select.509.49 = s64[] select(compare.263.49, add.339.49, param_2.623), metadata={op_name="jit(scan)/jit(main)/while/body/select_n" source_file="/fs04/fc37/adam/projects/psilocybin-prl-analyses/src/prl_hgf/fitting/hierarchical_patrl.py" source_line=378}
  ROOT dynamic-update-slice.875.1 = f64[192,20]{1,0} dynamic-update-slice(param_0.79, bitcast.2311.1, select.509.49, constant_357_48), metadata={op_name="jit(scan)/jit(main)/while/body/dynamic_update_slice" source_file="/fs04/fc37/adam/projects/psilocybin-prl-analyses/src/prl_hgf/fitting/hierarchical_patrl.py" source_line=378}
} // fused_dynamic_update_slice.41

fused_dynamic_update_slice.21 {
  param_0.59 = f64[192,20]{1,0} parameter(0)
  param_7.326 = f64[192]{0} parameter(7)
  param_2.582 = s64[] parameter(2)
  constant_357_6 = s64[] constant(0)
  compare.263.177 = pred[] compare(param_2.582, constant_357_6), direction=LT, metadata={op_name="jit(scan)/jit(main)/while/body/lt" source_file="/fs04/fc37/adam/projects/psilocybin-prl-analyses/src/prl_hgf/fitting/hierarchical_patrl.py" source_line=378}
  constant_356_49 = s64[] constant(192)
  add.339.177 = s64[] add(param_2.582, constant_356_49), metadata={op_name="jit(scan)/jit(main)/while/body/add" source_file="/fs04/fc37/adam/projects/psilocybin-prl-analyses/src/prl_hgf/fitting/hierarchical_patrl.py" source_line=378}
  select.509.177 = s64[] select(compare.263.177, add.339.177, param_2.582), metadata={op_name="jit(scan)/jit(main)/while/body/select_n" source_file="/fs04/fc37/adam/projects/psilocybin-prl-analyses/src/prl_hgf/fitting/hierarchical_patrl.py" source_line=378}
  dynamic-slice.39.49 = f64[1]{0} dynamic-slice(param_7.326, select.509.177), dynamic_slice_sizes={1}, metadata={op_name="jit(scan)/jit(main)/while/body/dynamic_slice[slice_sizes=(1,)]" source_file="/fs04/fc37/adam/projects/psilocybin-prl-analyses/src/prl_hgf/fitting/hierarchical_patrl.py" source_line=378}
  bitcast.1707.98 = f64[] bitcast(dynamic-slice.39.49)
  broadcast.452.95 = f64[20]{0} broadcast(bitcast.1707.98), dimensions={}, metadata={op_name="jit(scan)/jit(main)/while/body/jit(beliefs_propagation)/jit(continuous_node_prediction)/jit(predict_mean)/mul" source_file="/fs04/fc37/adam/projects/psilocybin-prl-analyses/src/prl_hgf/fitting/hierarchical_patrl.py" source_line=362}
  param_4.558 = f64[20]{0} parameter(4)
  param_6.407 = f64[20,1]{1,0} parameter(6)
  bitcast.1776.29 = f64[20]{0} bitcast(param_6.407)
  param_5.449 = f64[20]{0} parameter(5)
  multiply.852.29 = f64[20]{0} multiply(bitcast.1776.29, param_5.449), metadata={op_name="jit(scan)/jit(main)/while/body/jit(beliefs_propagation)/jit(continuous_node_prediction)/jit(predict_precision)/mul" source_file="/fs04/fc37/adam/projects/psilocybin-prl-analyses/src/prl_hgf/fitting/hierarchical_patrl.py" source_line=362}
  add.342.27 = f64[20]{0} add(param_4.558, multiply.852.29), metadata={op_name="jit(scan)/jit(main)/while/body/jit(beliefs_propagation)/jit(continuous_node_prediction)/jit(predict_precision)/add" source_file="/fs04/fc37/adam/projects/psilocybin-prl-analyses/src/prl_hgf/fitting/hierarchical_patrl.py" source_line=362}
  exponential.60.25 = f64[20]{0} exponential(add.342.27), metadata={op_name="jit(scan)/jit(main)/while/body/jit(beliefs_propagation)/jit(continuous_node_prediction)/jit(predict_precision)/exp" source_file="/fs04/fc37/adam/projects/psilocybin-prl-analyses/src/prl_hgf/fitting/hierarchical_patrl.py" source_line=362}
  multiply.853.45 = f64[20]{0} multiply(broadcast.452.95, exponential.60.25), metadata={op_name="jit(scan)/jit(main)/while/body/jit(beliefs_propagation)/jit(continuous_node_prediction)/jit(predict_precision)/mul" source_file="/fs04/fc37/adam/projects/psilocybin-prl-analyses/src/prl_hgf/fitting/hierarchical_patrl.py" source_line=362}
  constant_359_17 = f64[] constant(1e-128)
  broadcast.454.clone.43 = f64[20]{0} broadcast(constant_359_17), dimensions={}
  compare.265.23 = pred[20]{0} compare(multiply.853.45, broadcast.454.clone.43), direction=GT, metadata={op_name="jit(scan)/jit(main)/while/body/jit(beliefs_propagation)/jit(continuous_node_prediction)/jit(predict_precision)/gt" source_file="/fs04/fc37/adam/projects/psilocybin-prl-analyses/src/prl_hgf/fitting/hierarchical_patrl.py" source_line=362}
  param_3.581 = f64[20]{0} parameter(3)
  select.510.19 = f64[20]{0} select(compare.265.23, multiply.853.45, param_3.581), metadata={op_name="jit(scan)/jit(main)/while/body/jit(beliefs_propagation)/jit(continuous_node_prediction)/jit(predict_precision)/jit(_where)/select_n" source_file="/fs04/fc37/adam/projects/psilocybin-prl-analyses/src/prl_hgf/env/pat_rl_simulator.py" source_line=92}
  param_1.684 = f64[20]{0} parameter(1)
  multiply.857.4 = f64[20]{0} multiply(select.510.19, param_1.684), metadata={op_name="jit(scan)/jit(main)/while/body/jit(beliefs_propagation)/jit(continuous_node_prediction)/jit(predict_precision)/mul" source_file="/fs04/fc37/adam/projects/psilocybin-prl-analyses/src/prl_hgf/fitting/hierarchical_patrl.py" source_line=362}
  bitcast.2545.1 = f64[1,20]{1,0} bitcast(multiply.857.4)
  ROOT dynamic-update-slice.896.1 = f64[192,20]{1,0} dynamic-update-slice(param_0.59, bitcast.2545.1, select.509.177, constant_357_6), metadata={op_name="jit(scan)/jit(main)/while/body/dynamic_update_slice" source_file="/fs04/fc37/adam/projects/psilocybin-prl-analyses/src/prl_hgf/fitting/hierarchical_patrl.py" source_line=378}
} // fused_dynamic_update_slice.21

fused_dynamic_update_slice.6 {
  param_0.44 = f64[192,20]{1,0} parameter(0)
  param_2.612 = f64[20,1]{1,0} parameter(2)
  bitcast.2010.19 = f64[20]{0} bitcast(param_2.612)
  param_8.323 = f64[192]{0} parameter(8)
  param_3.602 = s64[] parameter(3)
  constant_357_37 = s64[] constant(0)
  compare.263.181 = pred[] compare(param_3.602, constant_357_37), direction=LT, metadata={op_name="jit(scan)/jit(main)/while/body/lt" source_file="/fs04/fc37/adam/projects/psilocybin-prl-analyses/src/prl_hgf/fitting/hierarchical_patrl.py" source_line=378}
  constant_356_3 = s64[] constant(192)
  add.339.181 = s64[] add(param_3.602, constant_356_3), metadata={op_name="jit(scan)/jit(main)/while/body/add" source_file="/fs04/fc37/adam/projects/psilocybin-prl-analyses/src/prl_hgf/fitting/hierarchical_patrl.py" source_line=378}
  select.509.181 = s64[] select(compare.263.181, add.339.181, param_3.602), metadata={op_name="jit(scan)/jit(main)/while/body/select_n" source_file="/fs04/fc37/adam/projects/psilocybin-prl-analyses/src/prl_hgf/fitting/hierarchical_patrl.py" source_line=378}
  dynamic-slice.39.53 = f64[1]{0} dynamic-slice(param_8.323, select.509.181), dynamic_slice_sizes={1}, metadata={op_name="jit(scan)/jit(main)/while/body/dynamic_slice[slice_sizes=(1,)]" source_file="/fs04/fc37/adam/projects/psilocybin-prl-analyses/src/prl_hgf/fitting/hierarchical_patrl.py" source_line=378}
  bitcast.1707.106 = f64[] bitcast(dynamic-slice.39.53)
  broadcast.452.103 = f64[20]{0} broadcast(bitcast.1707.106), dimensions={}, metadata={op_name="jit(scan)/jit(main)/while/body/jit(beliefs_propagation)/jit(continuous_node_prediction)/jit(predict_mean)/mul" source_file="/fs04/fc37/adam/projects/psilocybin-prl-analyses/src/prl_hgf/fitting/hierarchical_patrl.py" source_line=362}
  param_5.450 = f64[20]{0} parameter(5)
  param_7.327 = f64[20,1]{1,0} parameter(7)
  bitcast.1776.33 = f64[20]{0} bitcast(param_7.327)
  param_6.408 = f64[20]{0} parameter(6)
  multiply.852.33 = f64[20]{0} multiply(bitcast.1776.33, param_6.408), metadata={op_name="jit(scan)/jit(main)/while/body/jit(beliefs_propagation)/jit(continuous_node_prediction)/jit(predict_precision)/mul" source_file="/fs04/fc37/adam/projects/psilocybin-prl-analyses/src/prl_hgf/fitting/hierarchical_patrl.py" source_line=362}
  add.342.31 = f64[20]{0} add(param_5.450, multiply.852.33), metadata={op_name="jit(scan)/jit(main)/while/body/jit(beliefs_propagation)/jit(continuous_node_prediction)/jit(predict_precision)/add" source_file="/fs04/fc37/adam/projects/psilocybin-prl-analyses/src/prl_hgf/fitting/hierarchical_patrl.py" source_line=362}
  exponential.60.29 = f64[20]{0} exponential(add.342.31), metadata={op_name="jit(scan)/jit(main)/while/body/jit(beliefs_propagation)/jit(continuous_node_prediction)/jit(predict_precision)/exp" source_file="/fs04/fc37/adam/projects/psilocybin-prl-analyses/src/prl_hgf/fitting/hierarchical_patrl.py" source_line=362}
  multiply.853.53 = f64[20]{0} multiply(broadcast.452.103, exponential.60.29), metadata={op_name="jit(scan)/jit(main)/while/body/jit(beliefs_propagation)/jit(continuous_node_prediction)/jit(predict_precision)/mul" source_file="/fs04/fc37/adam/projects/psilocybin-prl-analyses/src/prl_hgf/fitting/hierarchical_patrl.py" source_line=362}
  constant_359_18 = f64[] constant(1e-128)
  broadcast.454.clone.47 = f64[20]{0} broadcast(constant_359_18), dimensions={}
  compare.265.27 = pred[20]{0} compare(multiply.853.53, broadcast.454.clone.47), direction=GT, metadata={op_name="jit(scan)/jit(main)/while/body/jit(beliefs_propagation)/jit(continuous_node_prediction)/jit(predict_precision)/gt" source_file="/fs04/fc37/adam/projects/psilocybin-prl-analyses/src/prl_hgf/fitting/hierarchical_patrl.py" source_line=362}
  param_4.527 = f64[20]{0} parameter(4)
  select.510.23 = f64[20]{0} select(compare.265.27, multiply.853.53, param_4.527), metadata={op_name="jit(scan)/jit(main)/while/body/jit(beliefs_propagation)/jit(continuous_node_prediction)/jit(predict_precision)/jit(_where)/select_n" source_file="/fs04/fc37/adam/projects/psilocybin-prl-analyses/src/prl_hgf/env/pat_rl_simulator.py" source_line=92}
  param_1.714 = f64[20]{0} parameter(1)
  multiply.857.11 = f64[20]{0} multiply(select.510.23, param_1.714), metadata={op_name="jit(scan)/jit(main)/while/body/jit(beliefs_propagation)/jit(continuous_node_prediction)/jit(predict_precision)/mul" source_file="/fs04/fc37/adam/projects/psilocybin-prl-analyses/src/prl_hgf/fitting/hierarchical_patrl.py" source_line=362}
  multiply.864.3 = f64[20]{0} multiply(bitcast.2010.19, multiply.857.11), metadata={op_name="jit(scan)/jit(main)/while/body/jit(beliefs_propagation)/jit(continuous_node_posterior_update_ehgf)/jit(posterior_update_mean_continuous_node)/mul" source_file="/fs04/fc37/adam/projects/psilocybin-prl-analyses/src/prl_hgf/fitting/hierarchical_patrl.py" source_line=362}
  multiply.869.3 = f64[20]{0} multiply(multiply.864.3, multiply.864.3), metadata={op_name="jit(scan)/jit(main)/while/body/jit(beliefs_propagation)/jit(continuous_node_posterior_update_ehgf)/jit(posterior_update_precision_continuous_node)/jit(precision_update)/integer_pow[y=2]" source_file="/fs04/fc37/adam/projects/psilocybin-prl-analyses/src/prl_hgf/fitting/hierarchical_patrl.py" source_line=362}
  bitcast.2739.1 = f64[1,20]{1,0} bitcast(multiply.869.3)
  ROOT dynamic-update-slice.912.1 = f64[192,20]{1,0} dynamic-update-slice(param_0.44, bitcast.2739.1, select.509.181, constant_357_37), metadata={op_name="jit(scan)/jit(main)/while/body/dynamic_update_slice" source_file="/fs04/fc37/adam/projects/psilocybin-prl-analyses/src/prl_hgf/fitting/hierarchical_patrl.py" source_line=378}
} // fused_dynamic_update_slice.6

fused_dynamic_update_slice.44 {
  param_0.82 = f64[192,20]{1,0} parameter(0)
  param_1.717 = f64[20]{0} parameter(1)
  bitcast.2274.1 = f64[1,20]{1,0} bitcast(param_1.717)
  param_2.615 = s64[] parameter(2)
  constant_357_40 = s64[] constant(0)
  compare.263.41 = pred[] compare(param_2.615, constant_357_40), direction=LT, metadata={op_name="jit(scan)/jit(main)/while/body/lt" source_file="/fs04/fc37/adam/projects/psilocybin-prl-analyses/src/prl_hgf/fitting/hierarchical_patrl.py" source_line=378}
  constant_356_21 = s64[] constant(192)
  add.339.41 = s64[] add(param_2.615, constant_356_21), metadata={op_name="jit(scan)/jit(main)/while/body/add" source_file="/fs04/fc37/adam/projects/psilocybin-prl-analyses/src/prl_hgf/fitting/hierarchical_patrl.py" source_line=378}
  select.509.41 = s64[] select(compare.263.41, add.339.41, param_2.615), metadata={op_name="jit(scan)/jit(main)/while/body/select_n" source_file="/fs04/fc37/adam/projects/psilocybin-prl-analyses/src/prl_hgf/fitting/hierarchical_patrl.py" source_line=378}
  ROOT dynamic-update-slice.872.1 = f64[192,20]{1,0} dynamic-update-slice(param_0.82, bitcast.2274.1, select.509.41, constant_357_40), metadata={op_name="jit(scan)/jit(main)/while/body/dynamic_update_slice" source_file="/fs04/fc37/adam/projects/psilocybin-prl-analyses/src/prl_hgf/fitting/hierarchical_patrl.py" source_line=378}
} // fused_dynamic_update_slice.44

fused_dynamic_update_slice.7 {
  param_0.45 = f64[192,20]{1,0} parameter(0)
  param_2.657 = f64[20,1]{1,0} parameter(2)
  bitcast.2010.23 = f64[20]{0} bitcast(param_2.657)
  param_8.326 = f64[192]{0} parameter(8)
  param_3.638 = s64[] parameter(3)
  constant_357_49 = s64[] constant(0)
  compare.263.185 = pred[] compare(param_3.638, constant_357_49), direction=LT, metadata={op_name="jit(scan)/jit(main)/while/body/lt" source_file="/fs04/fc37/adam/projects/psilocybin-prl-analyses/src/prl_hgf/fitting/hierarchical_patrl.py" source_line=378}
  constant_356_23 = s64[] constant(192)
  add.339.185 = s64[] add(param_3.638, constant_356_23), metadata={op_name="jit(scan)/jit(main)/while/body/add" source_file="/fs04/fc37/adam/projects/psilocybin-prl-analyses/src/prl_hgf/fitting/hierarchical_patrl.py" source_line=378}
  select.509.185 = s64[] select(compare.263.185, add.339.185, param_3.638), metadata={op_name="jit(scan)/jit(main)/while/body/select_n" source_file="/fs04/fc37/adam/projects/psilocybin-prl-analyses/src/prl_hgf/fitting/hierarchical_patrl.py" source_line=378}
  dynamic-slice.39.57 = f64[1]{0} dynamic-slice(param_8.326, select.509.185), dynamic_slice_sizes={1}, metadata={op_name="jit(scan)/jit(main)/while/body/dynamic_slice[slice_sizes=(1,)]" source_file="/fs04/fc37/adam/projects/psilocybin-prl-analyses/src/prl_hgf/fitting/hierarchical_patrl.py" source_line=378}
  bitcast.1707.114 = f64[] bitcast(dynamic-slice.39.57)
  broadcast.452.111 = f64[20]{0} broadcast(bitcast.1707.114), dimensions={}, metadata={op_name="jit(scan)/jit(main)/while/body/jit(beliefs_propagation)/jit(continuous_node_prediction)/jit(predict_mean)/mul" source_file="/fs04/fc37/adam/projects/psilocybin-prl-analyses/src/prl_hgf/fitting/hierarchical_patrl.py" source_line=362}
  param_5.452 = f64[20]{0} parameter(5)
  param_7.330 = f64[20,1]{1,0} parameter(7)
  bitcast.1776.37 = f64[20]{0} bitcast(param_7.330)
  param_6.411 = f64[20]{0} parameter(6)
  multiply.852.37 = f64[20]{0} multiply(bitcast.1776.37, param_6.411), metadata={op_name="jit(scan)/jit(main)/while/body/jit(beliefs_propagation)/jit(continuous_node_prediction)/jit(predict_precision)/mul" source_file="/fs04/fc37/adam/projects/psilocybin-prl-analyses/src/prl_hgf/fitting/hierarchical_patrl.py" source_line=362}
  add.342.35 = f64[20]{0} add(param_5.452, multiply.852.37), metadata={op_name="jit(scan)/jit(main)/while/body/jit(beliefs_propagation)/jit(continuous_node_prediction)/jit(predict_precision)/add" source_file="/fs04/fc37/adam/projects/psilocybin-prl-analyses/src/prl_hgf/fitting/hierarchical_patrl.py" source_line=362}
  exponential.60.33 = f64[20]{0} exponential(add.342.35), metadata={op_name="jit(scan)/jit(main)/while/body/jit(beliefs_propagation)/jit(continuous_node_prediction)/jit(predict_precision)/exp" source_file="/fs04/fc37/adam/projects/psilocybin-prl-analyses/src/prl_hgf/fitting/hierarchical_patrl.py" source_line=362}
  multiply.853.61 = f64[20]{0} multiply(broadcast.452.111, exponential.60.33), metadata={op_name="jit(scan)/jit(main)/while/body/jit(beliefs_propagation)/jit(continuous_node_prediction)/jit(predict_precision)/mul" source_file="/fs04/fc37/adam/projects/psilocybin-prl-analyses/src/prl_hgf/fitting/hierarchical_patrl.py" source_line=362}
  constant_359_20 = f64[] constant(1e-128)
  broadcast.454.clone.51 = f64[20]{0} broadcast(constant_359_20), dimensions={}
  compare.265.31 = pred[20]{0} compare(multiply.853.61, broadcast.454.clone.51), direction=GT, metadata={op_name="jit(scan)/jit(main)/while/body/jit(beliefs_propagation)/jit(continuous_node_prediction)/jit(predict_precision)/gt" source_file="/fs04/fc37/adam/projects/psilocybin-prl-analyses/src/prl_hgf/fitting/hierarchical_patrl.py" source_line=362}
  param_4.560 = f64[20]{0} parameter(4)
  select.510.27 = f64[20]{0} select(compare.265.31, multiply.853.61, param_4.560), metadata={op_name="jit(scan)/jit(main)/while/body/jit(beliefs_propagation)/jit(continuous_node_prediction)/jit(predict_precision)/jit(_where)/select_n" source_file="/fs04/fc37/adam/projects/psilocybin-prl-analyses/src/prl_hgf/env/pat_rl_simulator.py" source_line=92}
  param_1.748 = f64[20]{0} parameter(1)
  multiply.857.15 = f64[20]{0} multiply(select.510.27, param_1.748), metadata={op_name="jit(scan)/jit(main)/while/body/jit(beliefs_propagation)/jit(continuous_node_prediction)/jit(predict_precision)/mul" source_file="/fs04/fc37/adam/projects/psilocybin-prl-analyses/src/prl_hgf/fitting/hierarchical_patrl.py" source_line=362}
  multiply.864.7 = f64[20]{0} multiply(bitcast.2010.23, multiply.857.15), metadata={op_name="jit(scan)/jit(main)/while/body/jit(beliefs_propagation)/jit(continuous_node_posterior_update_ehgf)/jit(posterior_update_mean_continuous_node)/mul" source_file="/fs04/fc37/adam/projects/psilocybin-prl-analyses/src/prl_hgf/fitting/hierarchical_patrl.py" source_line=362}
  constant_361_4 = f64[] constant(2)
  broadcast.459.clone.9 = f64[20]{0} broadcast(constant_361_4), dimensions={}
  multiply.887.3 = f64[20]{0} multiply(multiply.864.7, broadcast.459.clone.9), metadata={op_name="jit(scan)/jit(main)/while/body/jit(beliefs_propagation)/jit(continuous_node_posterior_update_ehgf)/jit(posterior_update_precision_continuous_node)/jit(precision_update)/mul" source_file="/fs04/fc37/adam/projects/psilocybin-prl-analyses/src/prl_hgf/fitting/hierarchical_patrl.py" source_line=362}
  bitcast.2728.1 = f64[1,20]{1,0} bitcast(multiply.887.3)
  ROOT dynamic-update-slice.911.1 = f64[192,20]{1,0} dynamic-update-slice(param_0.45, bitcast.2728.1, select.509.185, constant_357_49), metadata={op_name="jit(scan)/jit(main)/while/body/dynamic_update_slice" source_file="/fs04/fc37/adam/projects/psilocybin-prl-analyses/src/prl_hgf/fitting/hierarchical_patrl.py" source_line=378}
} // fused_dynamic_update_slice.7

fused_dynamic_update_slice.3 {
  param_0.41 = f64[192,20]{1,0} parameter(0)
  param_1.751 = f64[20,1]{1,0} parameter(1)
  bitcast.2010.13 = f64[20]{0} bitcast(param_1.751)
  multiply.872.9 = f64[20]{0} multiply(bitcast.2010.13, bitcast.2010.13), metadata={op_name="jit(scan)/jit(main)/while/body/jit(beliefs_propagation)/jit(continuous_node_posterior_update_ehgf)/jit(posterior_update_precision_continuous_node)/jit(precision_update)/integer_pow[y=2]" source_file="/fs04/fc37/adam/projects/psilocybin-prl-analyses/src/prl_hgf/fitting/hierarchical_patrl.py" source_line=362}
  constant_363_1 = f64[] constant(0.5)
  broadcast.462.clone.9 = f64[20]{0} broadcast(constant_363_1), dimensions={}
  multiply.873.7 = f64[20]{0} multiply(multiply.872.9, broadcast.462.clone.9), metadata={op_name="jit(scan)/jit(main)/while/body/jit(beliefs_propagation)/jit(continuous_node_posterior_update_ehgf)/jit(posterior_update_precision_continuous_node)/jit(precision_update)/mul" source_file="/fs04/fc37/adam/projects/psilocybin-prl-analyses/src/prl_hgf/fitting/hierarchical_patrl.py" source_line=362}
  param_8.328 = f64[192]{0} parameter(8)
  param_3.640 = s64[] parameter(3)
  constant_357_25 = s64[] constant(0)
  compare.263.161 = pred[] compare(param_3.640, constant_357_25), direction=LT, metadata={op_name="jit(scan)/jit(main)/while/body/lt" source_file="/fs04/fc37/adam/projects/psilocybin-prl-analyses/src/prl_hgf/fitting/hierarchical_patrl.py" source_line=378}
  constant_356_29 = s64[] constant(192)
  add.339.161 = s64[] add(param_3.640, constant_356_29), metadata={op_name="jit(scan)/jit(main)/while/body/add" source_file="/fs04/fc37/adam/projects/psilocybin-prl-analyses/src/prl_hgf/fitting/hierarchical_patrl.py" source_line=378}
  select.509.161 = s64[] select(compare.263.161, add.339.161, param_3.640), metadata={op_name="jit(scan)/jit(main)/while/body/select_n" source_file="/fs04/fc37/adam/projects/psilocybin-prl-analyses/src/prl_hgf/fitting/hierarchical_patrl.py" source_line=378}
  dynamic-slice.39.33 = f64[1]{0} dynamic-slice(param_8.328, select.509.161), dynamic_slice_sizes={1}, metadata={op_name="jit(scan)/jit(main)/while/body/dynamic_slice[slice_sizes=(1,)]" source_file="/fs04/fc37/adam/projects/psilocybin-prl-analyses/src/prl_hgf/fitting/hierarchical_patrl.py" source_line=378}
  bitcast.1707.66 = f64[] bitcast(dynamic-slice.39.33)
  broadcast.452.63 = f64[20]{0} broadcast(bitcast.1707.66), dimensions={}, metadata={op_name="jit(scan)/jit(main)/while/body/jit(beliefs_propagation)/jit(continuous_node_prediction)/jit(predict_mean)/mul" source_file="/fs04/fc37/adam/projects/psilocybin-prl-analyses/src/prl_hgf/fitting/hierarchical_patrl.py" source_line=362}
  param_5.454 = f64[20]{0} parameter(5)
  param_7.332 = f64[20,1]{1,0} parameter(7)
  bitcast.1776.13 = f64[20]{0} bitcast(param_7.332)
  param_6.413 = f64[20]{0} parameter(6)
  multiply.852.13 = f64[20]{0} multiply(bitcast.1776.13, param_6.413), metadata={op_name="jit(scan)/jit(main)/while/body/jit(beliefs_propagation)/jit(continuous_node_prediction)/jit(predict_precision)/mul" source_file="/fs04/fc37/adam/projects/psilocybin-prl-analyses/src/prl_hgf/fitting/hierarchical_patrl.py" source_line=362}
  add.342.11 = f64[20]{0} add(param_5.454, multiply.852.13), metadata={op_name="jit(scan)/jit(main)/while/body/jit(beliefs_propagation)/jit(continuous_node_prediction)/jit(predict_precision)/add" source_file="/fs04/fc37/adam/projects/psilocybin-prl-analyses/src/prl_hgf/fitting/hierarchical_patrl.py" source_line=362}
  exponential.60.9 = f64[20]{0} exponential(add.342.11), metadata={op_name="jit(scan)/jit(main)/while/body/jit(beliefs_propagation)/jit(continuous_node_prediction)/jit(predict_precision)/exp" source_file="/fs04/fc37/adam/projects/psilocybin-prl-analyses/src/prl_hgf/fitting/hierarchical_patrl.py" source_line=362}
  multiply.853.13 = f64[20]{0} multiply(broadcast.452.63, exponential.60.9), metadata={op_name="jit(scan)/jit(main)/while/body/jit(beliefs_propagation)/jit(continuous_node_prediction)/jit(predict_precision)/mul" source_file="/fs04/fc37/adam/projects/psilocybin-prl-analyses/src/prl_hgf/fitting/hierarchical_patrl.py" source_line=362}
  constant_359_10 = f64[] constant(1e-128)
  broadcast.454.clone.27 = f64[20]{0} broadcast(constant_359_10), dimensions={}
  compare.265.7 = pred[20]{0} compare(multiply.853.13, broadcast.454.clone.27), direction=GT, metadata={op_name="jit(scan)/jit(main)/while/body/jit(beliefs_propagation)/jit(continuous_node_prediction)/jit(predict_precision)/gt" source_file="/fs04/fc37/adam/projects/psilocybin-prl-analyses/src/prl_hgf/fitting/hierarchical_patrl.py" source_line=362}
  param_4.562 = f64[20]{0} parameter(4)
  select.510.3 = f64[20]{0} select(compare.265.7, multiply.853.13, param_4.562), metadata={op_name="jit(scan)/jit(main)/while/body/jit(beliefs_propagation)/jit(continuous_node_prediction)/jit(predict_precision)/jit(_where)/select_n" source_file="/fs04/fc37/adam/projects/psilocybin-prl-analyses/src/prl_hgf/env/pat_rl_simulator.py" source_line=92}
  param_2.661 = f64[20]{0} parameter(2)
  multiply.857.5 = f64[20]{0} multiply(select.510.3, param_2.661), metadata={op_name="jit(scan)/jit(main)/while/body/jit(beliefs_propagation)/jit(continuous_node_prediction)/jit(predict_precision)/mul" source_file="/fs04/fc37/adam/projects/psilocybin-prl-analyses/src/prl_hgf/fitting/hierarchical_patrl.py" source_line=362}
  multiply.874.1 = f64[20]{0} multiply(multiply.873.7, multiply.857.5), metadata={op_name="jit(scan)/jit(main)/while/body/jit(beliefs_propagation)/jit(continuous_node_posterior_update_ehgf)/jit(posterior_update_precision_continuous_node)/jit(precision_update)/mul" source_file="/fs04/fc37/adam/projects/psilocybin-prl-analyses/src/prl_hgf/fitting/hierarchical_patrl.py" source_line=362}
  bitcast.2777.1 = f64[1,20]{1,0} bitcast(multiply.874.1)
  ROOT dynamic-update-slice.915.1 = f64[192,20]{1,0} dynamic-update-slice(param_0.41, bitcast.2777.1, select.509.161, constant_357_25), metadata={op_name="jit(scan)/jit(main)/while/body/dynamic_update_slice" source_file="/fs04/fc37/adam/projects/psilocybin-prl-analyses/src/prl_hgf/fitting/hierarchical_patrl.py" source_line=378}
} // fused_dynamic_update_slice.3

fused_dynamic_update_slice.18 {
  param_0.56 = f64[192,20]{1,0} parameter(0)
  param_2.622 = f64[20,1]{1,0} parameter(2)
  bitcast.2010.25 = f64[20]{0} bitcast(param_2.622)
  param_8.317 = f64[192]{0} parameter(8)
  param_3.607 = s64[] parameter(3)
  constant_357_47 = s64[] constant(0)
  compare.263.187 = pred[] compare(param_3.607, constant_357_47), direction=LT, metadata={op_name="jit(scan)/jit(main)/while/body/lt" source_file="/fs04/fc37/adam/projects/psilocybin-prl-analyses/src/prl_hgf/fitting/hierarchical_patrl.py" source_line=378}
  constant_356_52 = s64[] constant(192)
  add.339.187 = s64[] add(param_3.607, constant_356_52), metadata={op_name="jit(scan)/jit(main)/while/body/add" source_file="/fs04/fc37/adam/projects/psilocybin-prl-analyses/src/prl_hgf/fitting/hierarchical_patrl.py" source_line=378}
  select.509.187 = s64[] select(compare.263.187, add.339.187, param_3.607), metadata={op_name="jit(scan)/jit(main)/while/body/select_n" source_file="/fs04/fc37/adam/projects/psilocybin-prl-analyses/src/prl_hgf/fitting/hierarchical_patrl.py" source_line=378}
  dynamic-slice.39.59 = f64[1]{0} dynamic-slice(param_8.317, select.509.187), dynamic_slice_sizes={1}, metadata={op_name="jit(scan)/jit(main)/while/body/dynamic_slice[slice_sizes=(1,)]" source_file="/fs04/fc37/adam/projects/psilocybin-prl-analyses/src/prl_hgf/fitting/hierarchical_patrl.py" source_line=378}
  bitcast.1707.118 = f64[] bitcast(dynamic-slice.39.59)
  broadcast.452.115 = f64[20]{0} broadcast(bitcast.1707.118), dimensions={}, metadata={op_name="jit(scan)/jit(main)/while/body/jit(beliefs_propagation)/jit(continuous_node_prediction)/jit(predict_mean)/mul" source_file="/fs04/fc37/adam/projects/psilocybin-prl-analyses/src/prl_hgf/fitting/hierarchical_patrl.py" source_line=362}
  param_5.440 = f64[20]{0} parameter(5)
  param_7.319 = f64[20,1]{1,0} parameter(7)
  bitcast.1776.39 = f64[20]{0} bitcast(param_7.319)
  param_6.398 = f64[20]{0} parameter(6)
  multiply.852.39 = f64[20]{0} multiply(bitcast.1776.39, param_6.398), metadata={op_name="jit(scan)/jit(main)/while/body/jit(beliefs_propagation)/jit(continuous_node_prediction)/jit(predict_precision)/mul" source_file="/fs04/fc37/adam/projects/psilocybin-prl-analyses/src/prl_hgf/fitting/hierarchical_patrl.py" source_line=362}
  add.342.37 = f64[20]{0} add(param_5.440, multiply.852.39), metadata={op_name="jit(scan)/jit(main)/while/body/jit(beliefs_propagation)/jit(continuous_node_prediction)/jit(predict_precision)/add" source_file="/fs04/fc37/adam/projects/psilocybin-prl-analyses/src/prl_hgf/fitting/hierarchical_patrl.py" source_line=362}
  exponential.60.35 = f64[20]{0} exponential(add.342.37), metadata={op_name="jit(scan)/jit(main)/while/body/jit(beliefs_propagation)/jit(continuous_node_prediction)/jit(predict_precision)/exp" source_file="/fs04/fc37/adam/projects/psilocybin-prl-analyses/src/prl_hgf/fitting/hierarchical_patrl.py" source_line=362}
  multiply.853.65 = f64[20]{0} multiply(broadcast.452.115, exponential.60.35), metadata={op_name="jit(scan)/jit(main)/while/body/jit(beliefs_propagation)/jit(continuous_node_prediction)/jit(predict_precision)/mul" source_file="/fs04/fc37/adam/projects/psilocybin-prl-analyses/src/prl_hgf/fitting/hierarchical_patrl.py" source_line=362}
  constant_359_2 = f64[] constant(1e-128)
  broadcast.454.clone.53 = f64[20]{0} broadcast(constant_359_2), dimensions={}
  compare.265.33 = pred[20]{0} compare(multiply.853.65, broadcast.454.clone.53), direction=GT, metadata={op_name="jit(scan)/jit(main)/while/body/jit(beliefs_propagation)/jit(continuous_node_prediction)/jit(predict_precision)/gt" source_file="/fs04/fc37/adam/projects/psilocybin-prl-analyses/src/prl_hgf/fitting/hierarchical_patrl.py" source_line=362}
  param_4.531 = f64[20]{0} parameter(4)
  select.510.29 = f64[20]{0} select(compare.265.33, multiply.853.65, param_4.531), metadata={op_name="jit(scan)/jit(main)/while/body/jit(beliefs_propagation)/jit(continuous_node_prediction)/jit(predict_precision)/jit(_where)/select_n" source_file="/fs04/fc37/adam/projects/psilocybin-prl-analyses/src/prl_hgf/env/pat_rl_simulator.py" source_line=92}
  param_1.724 = f64[20]{0} parameter(1)
  multiply.857.17 = f64[20]{0} multiply(select.510.29, param_1.724), metadata={op_name="jit(scan)/jit(main)/while/body/jit(beliefs_propagation)/jit(continuous_node_prediction)/jit(predict_precision)/mul" source_file="/fs04/fc37/adam/projects/psilocybin-prl-analyses/src/prl_hgf/fitting/hierarchical_patrl.py" source_line=362}
  multiply.864.9 = f64[20]{0} multiply(bitcast.2010.25, multiply.857.17), metadata={op_name="jit(scan)/jit(main)/while/body/jit(beliefs_propagation)/jit(continuous_node_posterior_update_ehgf)/jit(posterior_update_mean_continuous_node)/mul" source_file="/fs04/fc37/adam/projects/psilocybin-prl-analyses/src/prl_hgf/fitting/hierarchical_patrl.py" source_line=362}
  bitcast.2578.1 = f64[1,20]{1,0} bitcast(multiply.864.9)
  ROOT dynamic-update-slice.899.1 = f64[192,20]{1,0} dynamic-update-slice(param_0.56, bitcast.2578.1, select.509.187, constant_357_47), metadata={op_name="jit(scan)/jit(main)/while/body/dynamic_update_slice" source_file="/fs04/fc37/adam/projects/psilocybin-prl-analyses/src/prl_hgf/fitting/hierarchical_patrl.py" source_line=378}
} // fused_dynamic_update_slice.18

fused_dynamic_update_slice.43 {
  param_0.81 = f64[192,20]{1,0} parameter(0)
  param_6.403 = f64[192]{0} parameter(6)
  param_1.719 = s64[] parameter(1)
  constant_357_42 = s64[] constant(0)
  compare.263.165 = pred[] compare(param_1.719, constant_357_42), direction=LT, metadata={op_name="jit(scan)/jit(main)/while/body/lt" source_file="/fs04/fc37/adam/projects/psilocybin-prl-analyses/src/prl_hgf/fitting/hierarchical_patrl.py" source_line=378}
  constant_356_22 = s64[] constant(192)
  add.339.165 = s64[] add(param_1.719, constant_356_22), metadata={op_name="jit(scan)/jit(main)/while/body/add" source_file="/fs04/fc37/adam/projects/psilocybin-prl-analyses/src/prl_hgf/fitting/hierarchical_patrl.py" source_line=378}
  select.509.165 = s64[] select(compare.263.165, add.339.165, param_1.719), metadata={op_name="jit(scan)/jit(main)/while/body/select_n" source_file="/fs04/fc37/adam/projects/psilocybin-prl-analyses/src/prl_hgf/fitting/hierarchical_patrl.py" source_line=378}
  dynamic-slice.39.37 = f64[1]{0} dynamic-slice(param_6.403, select.509.165), dynamic_slice_sizes={1}, metadata={op_name="jit(scan)/jit(main)/while/body/dynamic_slice[slice_sizes=(1,)]" source_file="/fs04/fc37/adam/projects/psilocybin-prl-analyses/src/prl_hgf/fitting/hierarchical_patrl.py" source_line=378}
  bitcast.1707.74 = f64[] bitcast(dynamic-slice.39.37)
  broadcast.452.71 = f64[20]{0} broadcast(bitcast.1707.74), dimensions={}, metadata={op_name="jit(scan)/jit(main)/while/body/jit(beliefs_propagation)/jit(continuous_node_prediction)/jit(predict_mean)/mul" source_file="/fs04/fc37/adam/projects/psilocybin-prl-analyses/src/prl_hgf/fitting/hierarchical_patrl.py" source_line=362}
  param_3.634 = f64[20]{0} parameter(3)
  param_5.446 = f64[20,1]{1,0} parameter(5)
  bitcast.1776.17 = f64[20]{0} bitcast(param_5.446)
  param_4.555 = f64[20]{0} parameter(4)
  multiply.852.17 = f64[20]{0} multiply(bitcast.1776.17, param_4.555), metadata={op_name="jit(scan)/jit(main)/while/body/jit(beliefs_propagation)/jit(continuous_node_prediction)/jit(predict_precision)/mul" source_file="/fs04/fc37/adam/projects/psilocybin-prl-analyses/src/prl_hgf/fitting/hierarchical_patrl.py" source_line=362}
  add.342.15 = f64[20]{0} add(param_3.634, multiply.852.17), metadata={op_name="jit(scan)/jit(main)/while/body/jit(beliefs_propagation)/jit(continuous_node_prediction)/jit(predict_precision)/add" source_file="/fs04/fc37/adam/projects/psilocybin-prl-analyses/src/prl_hgf/fitting/hierarchical_patrl.py" source_line=362}
  exponential.60.13 = f64[20]{0} exponential(add.342.15), metadata={op_name="jit(scan)/jit(main)/while/body/jit(beliefs_propagation)/jit(continuous_node_prediction)/jit(predict_precision)/exp" source_file="/fs04/fc37/adam/projects/psilocybin-prl-analyses/src/prl_hgf/fitting/hierarchical_patrl.py" source_line=362}
  multiply.853.21 = f64[20]{0} multiply(broadcast.452.71, exponential.60.13), metadata={op_name="jit(scan)/jit(main)/while/body/jit(beliefs_propagation)/jit(continuous_node_prediction)/jit(predict_precision)/mul" source_file="/fs04/fc37/adam/projects/psilocybin-prl-analyses/src/prl_hgf/fitting/hierarchical_patrl.py" source_line=362}
  constant_359_12 = f64[] constant(1e-128)
  broadcast.454.clone.31 = f64[20]{0} broadcast(constant_359_12), dimensions={}
  compare.265.11 = pred[20]{0} compare(multiply.853.21, broadcast.454.clone.31), direction=GT, metadata={op_name="jit(scan)/jit(main)/while/body/jit(beliefs_propagation)/jit(continuous_node_prediction)/jit(predict_precision)/gt" source_file="/fs04/fc37/adam/projects/psilocybin-prl-analyses/src/prl_hgf/fitting/hierarchical_patrl.py" source_line=362}
  param_2.617 = f64[20]{0} parameter(2)
  select.510.7 = f64[20]{0} select(compare.265.11, multiply.853.21, param_2.617), metadata={op_name="jit(scan)/jit(main)/while/body/jit(beliefs_propagation)/jit(continuous_node_prediction)/jit(predict_precision)/jit(_where)/select_n" source_file="/fs04/fc37/adam/projects/psilocybin-prl-analyses/src/prl_hgf/env/pat_rl_simulator.py" source_line=92}
  bitcast.2285.1 = f64[1,20]{1,0} bitcast(select.510.7)
  ROOT dynamic-update-slice.873.1 = f64[192,20]{1,0} dynamic-update-slice(param_0.81, bitcast.2285.1, select.509.165, constant_357_42), metadata={op_name="jit(scan)/jit(main)/while/body/dynamic_update_slice" source_file="/fs04/fc37/adam/projects/psilocybin-prl-analyses/src/prl_hgf/fitting/hierarchical_patrl.py" source_line=378}
} // fused_dynamic_update_slice.43

fused_dynamic_update_slice.46 {
  param_0.84 = f64[192,20]{1,0} parameter(0)
  param_1.713 = f64[20]{0} parameter(1)
  param_3.601 = f64[20,1]{1,0} parameter(3)
  bitcast.1776.7 = f64[20]{0} bitcast(param_3.601)
  param_2.611 = f64[20]{0} parameter(2)
  multiply.852.7 = f64[20]{0} multiply(bitcast.1776.7, param_2.611), metadata={op_name="jit(scan)/jit(main)/while/body/jit(beliefs_propagation)/jit(continuous_node_prediction)/jit(predict_precision)/mul" source_file="/fs04/fc37/adam/projects/psilocybin-prl-analyses/src/prl_hgf/fitting/hierarchical_patrl.py" source_line=362}
  add.342.5 = f64[20]{0} add(param_1.713, multiply.852.7), metadata={op_name="jit(scan)/jit(main)/while/body/jit(beliefs_propagation)/jit(continuous_node_prediction)/jit(predict_precision)/add" source_file="/fs04/fc37/adam/projects/psilocybin-prl-analyses/src/prl_hgf/fitting/hierarchical_patrl.py" source_line=362}
  exponential.60.3 = f64[20]{0} exponential(add.342.5), metadata={op_name="jit(scan)/jit(main)/while/body/jit(beliefs_propagation)/jit(continuous_node_prediction)/jit(predict_precision)/exp" source_file="/fs04/fc37/adam/projects/psilocybin-prl-analyses/src/prl_hgf/fitting/hierarchical_patrl.py" source_line=362}
  bitcast.2252.1 = f64[1,20]{1,0} bitcast(exponential.60.3)
  param_4.526 = s64[] parameter(4)
  constant_357_36 = s64[] constant(0)
  compare.263.37 = pred[] compare(param_4.526, constant_357_36), direction=LT, metadata={op_name="jit(scan)/jit(main)/while/body/lt" source_file="/fs04/fc37/adam/projects/psilocybin-prl-analyses/src/prl_hgf/fitting/hierarchical_patrl.py" source_line=378}
  constant_356_19 = s64[] constant(192)
  add.339.37 = s64[] add(param_4.526, constant_356_19), metadata={op_name="jit(scan)/jit(main)/while/body/add" source_file="/fs04/fc37/adam/projects/psilocybin-prl-analyses/src/prl_hgf/fitting/hierarchical_patrl.py" source_line=378}
  select.509.37 = s64[] select(compare.263.37, add.339.37, param_4.526), metadata={op_name="jit(scan)/jit(main)/while/body/select_n" source_file="/fs04/fc37/adam/projects/psilocybin-prl-analyses/src/prl_hgf/fitting/hierarchical_patrl.py" source_line=378}
  ROOT dynamic-update-slice.870.1 = f64[192,20]{1,0} dynamic-update-slice(param_0.84, bitcast.2252.1, select.509.37, constant_357_36), metadata={op_name="jit(scan)/jit(main)/while/body/dynamic_update_slice" source_file="/fs04/fc37/adam/projects/psilocybin-prl-analyses/src/prl_hgf/fitting/hierarchical_patrl.py" source_line=378}
} // fused_dynamic_update_slice.46

fused_dynamic_update_slice.4 {
  param_0.42 = f64[192,20]{1,0} parameter(0)
  param_1.752 = f64[20,1]{1,0} parameter(1)
  bitcast.2010.9 = f64[20]{0} bitcast(param_1.752)
  multiply.872.5 = f64[20]{0} multiply(bitcast.2010.9, bitcast.2010.9), metadata={op_name="jit(scan)/jit(main)/while/body/jit(beliefs_propagation)/jit(continuous_node_posterior_update_ehgf)/jit(posterior_update_precision_continuous_node)/jit(precision_update)/integer_pow[y=2]" source_file="/fs04/fc37/adam/projects/psilocybin-prl-analyses/src/prl_hgf/fitting/hierarchical_patrl.py" source_line=362}
  constant_363_3 = f64[] constant(0.5)
  broadcast.462.clone.5 = f64[20]{0} broadcast(constant_363_3), dimensions={}
  multiply.873.3 = f64[20]{0} multiply(multiply.872.5, broadcast.462.clone.5), metadata={op_name="jit(scan)/jit(main)/while/body/jit(beliefs_propagation)/jit(continuous_node_posterior_update_ehgf)/jit(posterior_update_precision_continuous_node)/jit(precision_update)/mul" source_file="/fs04/fc37/adam/projects/psilocybin-prl-analyses/src/prl_hgf/fitting/hierarchical_patrl.py" source_line=362}
  bitcast.2766.1 = f64[1,20]{1,0} bitcast(multiply.873.3)
  param_2.662 = s64[] parameter(2)
  constant_357_29 = s64[] constant(0)
  compare.263.89 = pred[] compare(param_2.662, constant_357_29), direction=LT, metadata={op_name="jit(scan)/jit(main)/while/body/lt" source_file="/fs04/fc37/adam/projects/psilocybin-prl-analyses/src/prl_hgf/fitting/hierarchical_patrl.py" source_line=378}
  constant_356_45 = s64[] constant(192)
  add.339.89 = s64[] add(param_2.662, constant_356_45), metadata={op_name="jit(scan)/jit(main)/while/body/add" source_file="/fs04/fc37/adam/projects/psilocybin-prl-analyses/src/prl_hgf/fitting/hierarchical_patrl.py" source_line=378}
  select.509.89 = s64[] select(compare.263.89, add.339.89, param_2.662), metadata={op_name="jit(scan)/jit(main)/while/body/select_n" source_file="/fs04/fc37/adam/projects/psilocybin-prl-analyses/src/prl_hgf/fitting/hierarchical_patrl.py" source_line=378}
  ROOT dynamic-update-slice.914.1 = f64[192,20]{1,0} dynamic-update-slice(param_0.42, bitcast.2766.1, select.509.89, constant_357_29), metadata={op_name="jit(scan)/jit(main)/while/body/dynamic_update_slice" source_file="/fs04/fc37/adam/projects/psilocybin-prl-analyses/src/prl_hgf/fitting/hierarchical_patrl.py" source_line=378}
} // fused_dynamic_update_slice.4

fused_dynamic_update_slice.5 {
  param_0.43 = f64[192,20]{1,0} parameter(0)
  param_1.710 = f64[20,1]{1,0} parameter(1)
  bitcast.2010.5 = f64[20]{0} bitcast(param_1.710)
  constant_361_1 = f64[] constant(2)
  broadcast.459.clone.7 = f64[20]{0} broadcast(constant_361_1), dimensions={}
  multiply.888.3 = f64[20]{0} multiply(bitcast.2010.5, broadcast.459.clone.7), metadata={op_name="jit(scan)/jit(main)/while/body/jit(beliefs_propagation)/jit(continuous_node_posterior_update_ehgf)/jit(posterior_update_precision_continuous_node)/jit(precision_update)/mul" source_file="/fs04/fc37/adam/projects/psilocybin-prl-analyses/src/prl_hgf/fitting/hierarchical_patrl.py" source_line=362}
  bitcast.2755.1 = f64[1,20]{1,0} bitcast(multiply.888.3)
  param_2.655 = s64[] parameter(2)
  constant_357_33 = s64[] constant(0)
  compare.263.91 = pred[] compare(param_2.655, constant_357_33), direction=LT, metadata={op_name="jit(scan)/jit(main)/while/body/lt" source_file="/fs04/fc37/adam/projects/psilocybin-prl-analyses/src/prl_hgf/fitting/hierarchical_patrl.py" source_line=378}
  constant_356_46 = s64[] constant(192)
  add.339.91 = s64[] add(param_2.655, constant_356_46), metadata={op_name="jit(scan)/jit(main)/while/body/add" source_file="/fs04/fc37/adam/projects/psilocybin-prl-analyses/src/prl_hgf/fitting/hierarchical_patrl.py" source_line=378}
  select.509.91 = s64[] select(compare.263.91, add.339.91, param_2.655), metadata={op_name="jit(scan)/jit(main)/while/body/select_n" source_file="/fs04/fc37/adam/projects/psilocybin-prl-analyses/src/prl_hgf/fitting/hierarchical_patrl.py" source_line=378}
  ROOT dynamic-update-slice.913.1 = f64[192,20]{1,0} dynamic-update-slice(param_0.43, bitcast.2755.1, select.509.91, constant_357_33), metadata={op_name="jit(scan)/jit(main)/while/body/dynamic_update_slice" source_file="/fs04/fc37/adam/projects/psilocybin-prl-analyses/src/prl_hgf/fitting/hierarchical_patrl.py" source_line=378}
} // fused_dynamic_update_slice.5

fused_dynamic_update_slice.58 {
  param_0.162 = f64[192,20]{1,0} parameter(0)
  param_1.721 = f64[192]{0} parameter(1)
  param_2.619 = s64[] parameter(2)
  constant_357_44 = s64[] constant(0)
  compare.263.121 = pred[] compare(param_2.619, constant_357_44), direction=LT, metadata={op_name="jit(scan)/jit(main)/while/body/lt" source_file="/fs04/fc37/adam/projects/psilocybin-prl-analyses/src/prl_hgf/fitting/hierarchical_patrl.py" source_line=378}
  constant_356_61 = s64[] constant(192)
  add.339.121 = s64[] add(param_2.619, constant_356_61), metadata={op_name="jit(scan)/jit(main)/while/body/add" source_file="/fs04/fc37/adam/projects/psilocybin-prl-analyses/src/prl_hgf/fitting/hierarchical_patrl.py" source_line=378}
  select.509.121 = s64[] select(compare.263.121, add.339.121, param_2.619), metadata={op_name="jit(scan)/jit(main)/while/body/select_n" source_file="/fs04/fc37/adam/projects/psilocybin-prl-analyses/src/prl_hgf/fitting/hierarchical_patrl.py" source_line=378}
  dynamic-slice.39.2 = f64[1]{0} dynamic-slice(param_1.721, select.509.121), dynamic_slice_sizes={1}, metadata={op_name="jit(scan)/jit(main)/while/body/dynamic_slice[slice_sizes=(1,)]" source_file="/fs04/fc37/adam/projects/psilocybin-prl-analyses/src/prl_hgf/fitting/hierarchical_patrl.py" source_line=378}…
  get-tuple-element.5735 = pred[192,20,1]{2,1,0} get-tuple-element(call), index=23
  get-tuple-element.5736 = pred[192,20,1]{2,1,0} get-tuple-element(call), index=24
  get-tuple-element.5737 = pred[192,20,1]{2,1,0} get-tuple-element(call), index=25
  get-tuple-element.5738 = pred[192,20]{1,0} get-tuple-element(call), index=26
  get-tuple-element.5739 = pred[192,20]{1,0} get-tuple-element(call), index=27
  get-tuple-element.5740 = pred[192,20]{1,0} get-tuple-element(call), index=28
  get-tuple-element.5741 = pred[192,20]{1,0} get-tuple-element(call), index=29
  get-tuple-element.5742 = pred[192,20]{1,0} get-tuple-element(call), index=30
  get-tuple-element.5743 = pred[192,20]{1,0} get-tuple-element(call), index=31
  get-tuple-element.5744 = s32[192]{0} get-tuple-element(call), index=32
  get-tuple-element.5745 = s32[192,20]{1,0} get-tuple-element(call), index=33
  get-tuple-element.5746 = f64[192]{0} get-tuple-element(call), index=34
  get-tuple-element.5747 = f64[192,20]{1,0} get-tuple-element(call), index=35
  get-tuple-element.5748 = f64[192]{0} get-tuple-element(call), index=36
  get-tuple-element.5749 = (f64[192,20]{1,0}, f64[192,20]{1,0}, f64[192,20]{1,0}, f64[192,20]{1,0}, f64[192,20]{1,0}, /*index=5*/f64[192,20]{1,0}, f64[192,20]{1,0}, f64[192,20]{1,0}, f64[192,20]{1,0}, f64[192,20]{1,0}, /*index=10*/f64[192,20]{1,0}, f64[192,20]{1,0}, f64[192,20]{1,0}, f64[192,20]{1,0}, f64[192,20]{1,0}, /*index=15*/f64[192,20]{1,0}, f64[192,20]{1,0}, f64[192,20]{1,0}, f64[192,20]{1,0}, f64[192,20]{1,0}, /*index=20*/f64[192,20]{1,0}, f64[192,20]{1,0}, f64[192,20]{1,0}, f64[192,20]{1,0}, f64[192,20]{1,0}, /*index=25*/f64[192,20]{1,0}, f64[192,20]{1,0}, f64[192,20]{1,0}, f64[192,20]{1,0}, f64[192,20]{1,0}, /*index=30*/f64[192,20]{1,0}, f64[192,20]{1,0}, f64[192,20]{1,0}, f64[192,20]{1,0}, f64[192,20]{1,0}, /*index=35*/f64[192,20]{1,0}, f64[192,20]{1,0}, f64[192,20]{1,0}, f64[192,20]{1,0}, f64[192,20]{1,0}, /*index=40*/f64[192,20]{1,0}, f64[192,20]{1,0}, f64[192,20]{1,0}, f64[192,20]{1,0}, f64[192,20]{1,0}) get-tuple-element(call), index=37
  get-tuple-element.5675 = f64[192,20]{1,0} get-tuple-element(get-tuple-element.5749), index=44
  bitcast.3251 = f64[192,20]{1,0} bitcast(get-tuple-element.5675)
  get-tuple-element.5674 = f64[192,20]{1,0} get-tuple-element(get-tuple-element.5749), index=43
  bitcast.3250 = f64[192,20]{1,0} bitcast(get-tuple-element.5674)
  get-tuple-element.5673 = f64[192,20]{1,0} get-tuple-element(get-tuple-element.5749), index=42
  bitcast.3249 = f64[192,20]{1,0} bitcast(get-tuple-element.5673)
  get-tuple-element.5672 = f64[192,20]{1,0} get-tuple-element(get-tuple-element.5749), index=41
  bitcast.3248 = f64[192,20]{1,0} bitcast(get-tuple-element.5672)
  get-tuple-element.5671 = f64[192,20]{1,0} get-tuple-element(get-tuple-element.5749), index=40
  bitcast.3247 = f64[192,20]{1,0} bitcast(get-tuple-element.5671)
  get-tuple-element.5670 = f64[192,20]{1,0} get-tuple-element(get-tuple-element.5749), index=39
  bitcast.3246 = f64[192,20]{1,0} bitcast(get-tuple-element.5670)
  get-tuple-element.5669 = f64[192,20]{1,0} get-tuple-element(get-tuple-element.5749), index=38
  bitcast.3245 = f64[192,20]{1,0} bitcast(get-tuple-element.5669)
  get-tuple-element.5668 = f64[192,20]{1,0} get-tuple-element(get-tuple-element.5749), index=37
  bitcast.3244 = f64[192,20]{1,0} bitcast(get-tuple-element.5668)
  get-tuple-element.5667 = f64[192,20]{1,0} get-tuple-element(get-tuple-element.5749), index=36
  bitcast.3243 = f64[192,20]{1,0} bitcast(get-tuple-element.5667)
  get-tuple-element.5666 = f64[192,20]{1,0} get-tuple-element(get-tuple-element.5749), index=35
  bitcast.3242 = f64[192,20]{1,0} bitcast(get-tuple-element.5666)
  get-tuple-element.5665 = f64[192,20]{1,0} get-tuple-element(get-tuple-element.5749), index=34
  bitcast.3241 = f64[192,20]{1,0} bitcast(get-tuple-element.5665)
  get-tuple-element.5664 = f64[192,20]{1,0} get-tuple-element(get-tuple-element.5749), index=33
  bitcast.3240 = f64[192,20]{1,0} bitcast(get-tuple-element.5664)
  get-tuple-element.5663 = f64[192,20]{1,0} get-tuple-element(get-tuple-element.5749), index=32
  bitcast.3239 = f64[192,20]{1,0} bitcast(get-tuple-element.5663)
  get-tuple-element.5662 = f64[192,20]{1,0} get-tuple-element(get-tuple-element.5749), index=31
  bitcast.3238 = f64[192,20]{1,0} bitcast(get-tuple-element.5662)
  get-tuple-element.5661 = f64[192,20]{1,0} get-tuple-element(get-tuple-element.5749), index=30
  bitcast.3237 = f64[192,20]{1,0} bitcast(get-tuple-element.5661)
  get-tuple-element.5660 = f64[192,20]{1,0} get-tuple-element(get-tuple-element.5749), index=29
  bitcast.3236 = f64[192,20]{1,0} bitcast(get-tuple-element.5660)
  get-tuple-element.5659 = f64[192,20]{1,0} get-tuple-element(get-tuple-element.5749), index=28
  bitcast.3235 = f64[192,20]{1,0} bitcast(get-tuple-element.5659)
  get-tuple-element.5658 = f64[192,20]{1,0} get-tuple-element(get-tuple-element.5749), index=27
  bitcast.3234 = f64[192,20]{1,0} bitcast(get-tuple-element.5658)
  get-tuple-element.5657 = f64[192,20]{1,0} get-tuple-element(get-tuple-element.5749), index=26
  bitcast.3233 = f64[192,20]{1,0} bitcast(get-tuple-element.5657)
  get-tuple-element.5656 = f64[192,20]{1,0} get-tuple-element(get-tuple-element.5749), index=25
  bitcast.3232 = f64[192,20]{1,0} bitcast(get-tuple-element.5656)
  get-tuple-element.5655 = f64[192,20]{1,0} get-tuple-element(get-tuple-element.5749), index=24
  bitcast.3231 = f64[192,20]{1,0} bitcast(get-tuple-element.5655)
  get-tuple-element.5654 = f64[192,20]{1,0} get-tuple-element(get-tuple-element.5749), index=23
  bitcast.3230 = f64[192,20]{1,0} bitcast(get-tuple-element.5654)
  get-tuple-element.5653 = f64[192,20]{1,0} get-tuple-element(get-tuple-element.5749), index=22
  bitcast.3229 = f64[192,20]{1,0} bitcast(get-tuple-element.5653)
  get-tuple-element.5652 = f64[192,20]{1,0} get-tuple-element(get-tuple-element.5749), index=21
  bitcast.3228 = f64[192,20]{1,0} bitcast(get-tuple-element.5652)
  get-tuple-element.5651 = f64[192,20]{1,0} get-tuple-element(get-tuple-element.5749), index=20
  bitcast.3227 = f64[192,20]{1,0} bitcast(get-tuple-element.5651)
  get-tuple-element.5650 = f64[192,20]{1,0} get-tuple-element(get-tuple-element.5749), index=19
  bitcast.3226 = f64[192,20]{1,0} bitcast(get-tuple-element.5650)
  get-tuple-element.5649 = f64[192,20]{1,0} get-tuple-element(get-tuple-element.5749), index=18
  bitcast.3225 = f64[192,20]{1,0} bitcast(get-tuple-element.5649)
  get-tuple-element.5648 = f64[192,20]{1,0} get-tuple-element(get-tuple-element.5749), index=17
  bitcast.3224 = f64[192,20]{1,0} bitcast(get-tuple-element.5648)
  get-tuple-element.5647 = f64[192,20]{1,0} get-tuple-element(get-tuple-element.5749), index=16
  bitcast.3223 = f64[192,20]{1,0} bitcast(get-tuple-element.5647)
  get-tuple-element.5646 = f64[192,20]{1,0} get-tuple-element(get-tuple-element.5749), index=15
  bitcast.3222 = f64[192,20]{1,0} bitcast(get-tuple-element.5646)
  get-tuple-element.5645 = f64[192,20]{1,0} get-tuple-element(get-tuple-element.5749), index=14
  bitcast.3221 = f64[192,20]{1,0} bitcast(get-tuple-element.5645)
  get-tuple-element.5644 = f64[192,20]{1,0} get-tuple-element(get-tuple-element.5749), index=13
  bitcast.3220 = f64[192,20]{1,0} bitcast(get-tuple-element.5644)
  get-tuple-element.5643 = f64[192,20]{1,0} get-tuple-element(get-tuple-element.5749), index=12
  bitcast.3219 = f64[192,20]{1,0} bitcast(get-tuple-element.5643)
  get-tuple-element.5642 = f64[192,20]{1,0} get-tuple-element(get-tuple-element.5749), index=11
  bitcast.3218 = f64[192,20]{1,0} bitcast(get-tuple-element.5642)
  get-tuple-element.5641 = f64[192,20]{1,0} get-tuple-element(get-tuple-element.5749), index=10
  bitcast.3217 = f64[192,20]{1,0} bitcast(get-tuple-element.5641)
  get-tuple-element.5640 = f64[192,20]{1,0} get-tuple-element(get-tuple-element.5749), index=9
  bitcast.3216 = f64[192,20]{1,0} bitcast(get-tuple-element.5640)
  get-tuple-element.5639 = f64[192,20]{1,0} get-tuple-element(get-tuple-element.5749), index=8
  bitcast.3215 = f64[192,20]{1,0} bitcast(get-tuple-element.5639)
  get-tuple-element.5638 = f64[192,20]{1,0} get-tuple-element(get-tuple-element.5749), index=7
  bitcast.3214 = f64[192,20]{1,0} bitcast(get-tuple-element.5638)
  get-tuple-element.5637 = f64[192,20]{1,0} get-tuple-element(get-tuple-element.5749), index=6
  bitcast.3213 = f64[192,20]{1,0} bitcast(get-tuple-element.5637)
  get-tuple-element.5636 = f64[192,20]{1,0} get-tuple-element(get-tuple-element.5749), index=5
  bitcast.3212 = f64[192,20]{1,0} bitcast(get-tuple-element.5636)
  get-tuple-element.5635 = f64[192,20]{1,0} get-tuple-element(get-tuple-element.5749), index=4
  bitcast.3211 = f64[192,20]{1,0} bitcast(get-tuple-element.5635)
  get-tuple-element.5634 = f64[192,20]{1,0} get-tuple-element(get-tuple-element.5749), index=3
  bitcast.3210 = f64[192,20]{1,0} bitcast(get-tuple-element.5634)
  get-tuple-element.5633 = f64[192,20]{1,0} get-tuple-element(get-tuple-element.5749), index=2
  bitcast.3209 = f64[192,20]{1,0} bitcast(get-tuple-element.5633)
  get-tuple-element.5632 = f64[192,20]{1,0} get-tuple-element(get-tuple-element.5749), index=1
  get-tuple-element.5631 = f64[192,20]{1,0} get-tuple-element(get-tuple-element.5749), index=0
  bitcast.3207 = f64[192,20]{1,0} bitcast(get-tuple-element.5631)
  bitcast.3208 = f64[192,20]{1,0} bitcast(get-tuple-element.5632)
  tuple.179 = (s64[], f64[20]{0}, f64[20]{0}, f64[20]{0}, f64[20]{0}, /*index=5*/s32[20]{0}, f64[20]{0}, f64[20]{0}, f64[20]{0}, f64[20]{0}, /*index=10*/f64[20]{0}, f64[20]{0}, s64[20]{0}, f64[20]{0}, f64[20]{0}, /*index=15*/f64[20]{0}, f64[20]{0}, f64[20]{0}, f64[20]{0}, f64[20]{0}, /*index=20*/f64[20,1]{1,0}, f64[20,1]{1,0}, f64[20]{0}, f64[20]{0}, f64[20]{0}, /*index=25*/f64[20]{0}, f64[20]{0}, f64[20]{0}, f64[20]{0}, f64[20]{0}, /*index=30*/f64[20]{0}, f64[20,1]{1,0}, f64[192,20]{1,0}, f64[192,20]{1,0}, f64[192,20]{1,0}, /*index=35*/f64[192,20]{1,0}, pred[192,20]{1,0}, f64[192,20]{1,0}, f64[192,20]{1,0}, f64[192,20]{1,0}, /*index=40*/f64[192,20]{1,0}, f64[192,20]{1,0}, f64[192,20]{1,0}, f64[192,20]{1,0}, pred[192,20]{1,0}, /*index=45*/f64[192,20]{1,0}, f64[192,20]{1,0}, f64[192,20]{1,0}, f64[192,20]{1,0}, f64[192,20]{1,0}, /*index=50*/f64[192,20]{1,0}, f64[192]{0}, f64[192,20]{1,0}, f64[192,20]{1,0}, s32[192]{0}, /*index=55*/f64[192,20]{1,0}, f64[192]{0}, f64[192,20]{1,0}, f64[192,20]{1,0}, f64[192,20]{1,0}, /*index=60*/pred[192,20]{1,0}, f64[192,20]{1,0}, f64[192,20]{1,0}, f64[192,20]{1,0}, f64[192,20]{1,0}, /*index=65*/f64[192,20]{1,0}, f64[192,20]{1,0}, f64[192,20]{1,0}, f64[192,20]{1,0}, f64[192,20]{1,0}, /*index=70*/f64[192,20]{1,0}, f64[192,20]{1,0}, f64[192,20]{1,0}, f64[192,20]{1,0}, f64[192,20]{1,0}, /*index=75*/f64[192,20]{1,0}, f64[192,20]{1,0}, s32[192,20]{1,0}, pred[192,20]{1,0}, pred[192,20,1]{2,1,0}, /*index=80*/f64[192,20]{1,0}, f64[192,20]{1,0}, pred[192,20]{1,0}, pred[192,20,1]{2,1,0}, f64[192,20]{1,0}, /*index=85*/f64[192,20]{1,0}, f64[192,20]{1,0}, f64[192,20]{1,0}, f64[192,20]{1,0}, pred[192,20]{1,0}, /*index=90*/pred[192,20]{1,0}, pred[192,20,1]{2,1,0}, f64[192,20,1]{2,1,0}, s32[192]{0}, f64[192]{0}, /*index=95*/f64[20]{0}, f64[20]{0}, f64[20]{0}) tuple(get-tuple-element.5712, get-tuple-element.5733, get-tuple-element.5732, get-tuple-element.5731, get-tuple-element.5730, /*index=5*/get-tuple-element.5713, get-tuple-element.5729, get-tuple-element.5728, Arg_11.12.0, get-tuple-element.5727, /*index=10*/get-tuple-element.5726, get-tuple-element.5725, Arg_15.16.0, get-tuple-element.5724, get-tuple-element.5723, /*index=15*/get-tuple-element.5722, get-tuple-element.5721, get-tuple-element.5720, Arg_21.22.0, Arg_22.23.0, /*index=20*/Arg_23.24.0, Arg_24.25.0, Arg_25.26.0, get-tuple-element.5719, get-tuple-element.5718, /*index=25*/get-tuple-element.5717, get-tuple-element.5716, get-tuple-element.5715, get-tuple-element.5714, Arg_35.36.0, /*index=30*/Arg_36.37.0, Arg_37.38.0, get-tuple-element.5747, bitcast.3207, bitcast.3208, /*index=35*/bitcast.3209, get-tuple-element.5734, bitcast.3210, bitcast.3211, bitcast.3212, /*index=40*/bitcast.3213, bitcast.3214, bitcast.3215, bitcast.3216, get-tuple-element.5742, /*index=45*/bitcast.3217, bitcast.3218, bitcast.3219, bitcast.3220, bitcast.3221, /*index=50*/bitcast.3222, get-tuple-element.5746, bitcast.3223, bitcast.3224, get-tuple-element.5744, /*index=55*/bitcast.3225, get-tuple-element.5748, bitcast.3226, bitcast.3227, bitcast.3228, /*index=60*/get-tuple-element.5743, bitcast.3229, bitcast.3230, bitcast.3231, bitcast.3232, /*index=65*/bitcast.3233, bitcast.3234, bitcast.3235, bitcast.3236, bitcast.3237, /*index=70*/bitcast.3238, bitcast.3239, bitcast.3240, bitcast.3241, bitcast.3242, /*index=75*/bitcast.3243, bitcast.3244, get-tuple-element.5745, get-tuple-element.5741, get-tuple-element.5735, /*index=80*/bitcast.3245, bitcast.3246, get-tuple-element.5740, get-tuple-element.5736, bitcast.3247, /*index=85*/bitcast.3248, bitcast.3249, bitcast.3250, bitcast.3251, get-tuple-element.5738, /*index=90*/get-tuple-element.5739, get-tuple-element.5737, Arg_38.39.0, Arg_39.40.0, Arg_40.41.0, /*index=95*/Arg_0.1.0, Arg_1.2.0, Arg_2.3.0)
  while.11.0 = (s64[], f64[20]{0}, f64[20]{0}, f64[20]{0}, f64[20]{0}, /*index=5*/s32[20]{0}, f64[20]{0}, f64[20]{0}, f64[20]{0}, f64[20]{0}, /*index=10*/f64[20]{0}, f64[20]{0}, s64[20]{0}, f64[20]{0}, f64[20]{0}, /*index=15*/f64[20]{0}, f64[20]{0}, f64[20]{0}, f64[20]{0}, f64[20]{0}, /*index=20*/f64[20,1]{1,0}, f64[20,1]{1,0}, f64[20]{0}, f64[20]{0}, f64[20]{0}, /*index=25*/f64[20]{0}, f64[20]{0}, f64[20]{0}, f64[20]{0}, f64[20]{0}, /*index=30*/f64[20]{0}, f64[20,1]{1,0}, f64[192,20]{1,0}, f64[192,20]{1,0}, f64[192,20]{1,0}, /*index=35*/f64[192,20]{1,0}, pred[192,20]{1,0}, f64[192,20]{1,0}, f64[192,20]{1,0}, f64[192,20]{1,0}, /*index=40*/f64[192,20]{1,0}, f64[192,20]{1,0}, f64[192,20]{1,0}, f64[192,20]{1,0}, pred[192,20]{1,0}, /*index=45*/f64[192,20]{1,0}, f64[192,20]{1,0}, f64[192,20]{1,0}, f64[192,20]{1,0}, f64[192,20]{1,0}, /*index=50*/f64[192,20]{1,0}, f64[192]{0}, f64[192,20]{1,0}, f64[192,20]{1,0}, s32[192]{0}, /*index=55*/f64[192,20]{1,0}, f64[192]{0}, f64[192,20]{1,0}, f64[192,20]{1,0}, f64[192,20]{1,0}, /*index=60*/pred[192,20]{1,0}, f64[192,20]{1,0}, f64[192,20]{1,0}, f64[192,20]{1,0}, f64[192,20]{1,0}, /*index=65*/f64[192,20]{1,0}, f64[192,20]{1,0}, f64[192,20]{1,0}, f64[192,20]{1,0}, f64[192,20]{1,0}, /*index=70*/f64[192,20]{1,0}, f64[192,20]{1,0}, f64[192,20]{1,0}, f64[192,20]{1,0}, f64[192,20]{1,0}, /*index=75*/f64[192,20]{1,0}, f64[192,20]{1,0}, s32[192,20]{1,0}, pred[192,20]{1,0}, pred[192,20,1]{2,1,0}, /*index=80*/f64[192,20]{1,0}, f64[192,20]{1,0}, pred[192,20]{1,0}, pred[192,20,1]{2,1,0}, f64[192,20]{1,0}, /*index=85*/f64[192,20]{1,0}, f64[192,20]{1,0}, f64[192,20]{1,0}, f64[192,20]{1,0}, pred[192,20]{1,0}, /*index=90*/pred[192,20]{1,0}, pred[192,20,1]{2,1,0}, f64[192,20,1]{2,1,0}, s32[192]{0}, f64[192]{0}, /*index=95*/f64[20]{0}, f64[20]{0}, f64[20]{0}) while(tuple.179), condition=region_5.1726.clone.clone.clone.clone.clone.clone.clone.clone.clone.clone.clone.clone, body=region_0.1122.clone.clone.clone.clone.clone.clone.clone.clone.clone.clone.clone.clone, metadata={op_name="jit(scan)/jit(main)/while[cond_nconsts=0 body_nconsts=6]" source_file="/fs04/fc37/adam/projects/psilocybin-prl-analyses/src/prl_hgf/fitting/hierarchical_patrl.py" source_line=378}, backend_config={"known_trip_count":{"n":"192"}}
  get-tuple-element.5569 = f64[192,20]{1,0} get-tuple-element(while.11.0), index=84, metadata={op_name="jit(scan)/jit(main)/while[cond_nconsts=0 body_nconsts=6]" source_file="/fs04/fc37/adam/projects/psilocybin-prl-analyses/src/prl_hgf/fitting/hierarchical_patrl.py" source_line=378}
  get-tuple-element.5575 = f64[192,20]{1,0} get-tuple-element(while.11.0), index=76, metadata={op_name="jit(scan)/jit(main)/while[cond_nconsts=0 body_nconsts=6]" source_file="/fs04/fc37/adam/projects/psilocybin-prl-analyses/src/prl_hgf/fitting/hierarchical_patrl.py" source_line=378}
  get-tuple-element.5570 = f64[192,20]{1,0} get-tuple-element(while.11.0), index=71, metadata={op_name="jit(scan)/jit(main)/while[cond_nconsts=0 body_nconsts=6]" source_file="/fs04/fc37/adam/projects/psilocybin-prl-analyses/src/prl_hgf/fitting/hierarchical_patrl.py" source_line=378}
  get-tuple-element.5567 = f64[192,20]{1,0} get-tuple-element(while.11.0), index=70, metadata={op_name="jit(scan)/jit(main)/while[cond_nconsts=0 body_nconsts=6]" source_file="/fs04/fc37/adam/projects/psilocybin-prl-analyses/src/prl_hgf/fitting/hierarchical_patrl.py" source_line=378}
  get-tuple-element.5566 = f64[192,20]{1,0} get-tuple-element(while.11.0), index=69, metadata={op_name="jit(scan)/jit(main)/while[cond_nconsts=0 body_nconsts=6]" source_file="/fs04/fc37/adam/projects/psilocybin-prl-analyses/src/prl_hgf/fitting/hierarchical_patrl.py" source_line=378}
  get-tuple-element.5546 = f64[192,20]{1,0} get-tuple-element(while.11.0), index=64, metadata={op_name="jit(scan)/jit(main)/while[cond_nconsts=0 body_nconsts=6]" source_file="/fs04/fc37/adam/projects/psilocybin-prl-analyses/src/prl_hgf/fitting/hierarchical_patrl.py" source_line=378}
  get-tuple-element.5545 = f64[192]{0} get-tuple-element(while.11.0), index=51, metadata={op_name="jit(scan)/jit(main)/while[cond_nconsts=0 body_nconsts=6]" source_file="/fs04/fc37/adam/projects/psilocybin-prl-analyses/src/prl_hgf/fitting/hierarchical_patrl.py" source_line=378}
  get-tuple-element.5529 = f64[192,20]{1,0} get-tuple-element(while.11.0), index=48, metadata={op_name="jit(scan)/jit(main)/while[cond_nconsts=0 body_nconsts=6]" source_file="/fs04/fc37/adam/projects/psilocybin-prl-analyses/src/prl_hgf/fitting/hierarchical_patrl.py" source_line=378}
  get-tuple-element.5523 = f64[192,20]{1,0} get-tuple-element(while.11.0), index=40, metadata={op_name="jit(scan)/jit(main)/while[cond_nconsts=0 body_nconsts=6]" source_file="/fs04/fc37/adam/projects/psilocybin-prl-analyses/src/prl_hgf/fitting/hierarchical_patrl.py" source_line=378}
  get-tuple-element.5562 = f64[192,20]{1,0} get-tuple-element(while.11.0), index=35, metadata={op_name="jit(scan)/jit(main)/while[cond_nconsts=0 body_nconsts=6]" source_file="/fs04/fc37/adam/projects/psilocybin-prl-analyses/src/prl_hgf/fitting/hierarchical_patrl.py" source_line=378}
  get-tuple-element.5560 = f64[192,20]{1,0} get-tuple-element(while.11.0), index=33, metadata={op_name="jit(scan)/jit(main)/while[cond_nconsts=0 body_nconsts=6]" source_file="/fs04/fc37/adam/projects/psilocybin-prl-analyses/src/prl_hgf/fitting/hierarchical_patrl.py" source_line=378}
  get-tuple-element.5576 = pred[192,20]{1,0} get-tuple-element(while.11.0), index=89, metadata={op_name="jit(scan)/jit(main)/while[cond_nconsts=0 body_nconsts=6]" source_file="/fs04/fc37/adam/projects/psilocybin-prl-analyses/src/prl_hgf/fitting/hierarchical_patrl.py" source_line=378}
  get-tuple-element.5574 = f64[192,20]{1,0} get-tuple-element(while.11.0), index=88, metadata={op_name="jit(scan)/jit(main)/while[cond_nconsts=0 body_nconsts=6]" source_file="/fs04/fc37/adam/projects/psilocybin-prl-analyses/src/prl_hgf/fitting/hierarchical_patrl.py" source_line=378}
  get-tuple-element.5573 = f64[192,20]{1,0} get-tuple-element(while.11.0), index=87, metadata={op_name="jit(scan)/jit(main)/while[cond_nconsts=0 body_nconsts=6]" source_file="/fs04/fc37/adam/projects/psilocybin-prl-analyses/src/prl_hgf/fitting/hierarchical_patrl.py" source_line=378}
  get-tuple-element.5572 = f64[192,20]{1,0} get-tuple-element(while.11.0), index=86, metadata={op_name="jit(scan)/jit(main)/while[cond_nconsts=0 body_nconsts=6]" source_file="/fs04/fc37/adam/projects/psilocybin-prl-analyses/src/prl_hgf/fitting/hierarchical_patrl.py" source_line=378}
  get-tuple-element.5571 = f64[192,20]{1,0} get-tuple-element(while.11.0), index=85, metadata={op_name="jit(scan)/jit(main)/while[cond_nconsts=0 body_nconsts=6]" source_file="/fs04/fc37/adam/projects/psilocybin-prl-analyses/src/prl_hgf/fitting/hierarchical_patrl.py" source_line=378}
  get-tuple-element.5577 = pred[192,20]{1,0} get-tuple-element(while.11.0), index=90, metadata={op_name="jit(scan)/jit(main)/while[cond_nconsts=0 body_nconsts=6]" source_file="/fs04/fc37/adam/projects/psilocybin-prl-analyses/src/prl_hgf/fitting/hierarchical_patrl.py" source_line=378}
  get-tuple-element.5565 = pred[192,20,1]{2,1,0} get-tuple-element(while.11.0), index=83, metadata={op_name="jit(scan)/jit(main)/while[cond_nconsts=0 body_nconsts=6]" source_file="/fs04/fc37/adam/projects/psilocybin-prl-analyses/src/prl_hgf/fitting/hierarchical_patrl.py" source_line=378}
  get-tuple-element.5564 = pred[192,20]{1,0} get-tuple-element(while.11.0), index=82, metadata={op_name="jit(scan)/jit(main)/while[cond_nconsts=0 body_nconsts=6]" source_file="/fs04/fc37/adam/projects/psilocybin-prl-analyses/src/prl_hgf/fitting/hierarchical_patrl.py" source_line=378}
  get-tuple-element.5563 = f64[192,20]{1,0} get-tuple-element(while.11.0), index=81, metadata={op_name="jit(scan)/jit(main)/while[cond_nconsts=0 body_nconsts=6]" source_file="/fs04/fc37/adam/projects/psilocybin-prl-analyses/src/prl_hgf/fitting/hierarchical_patrl.py" source_line=378}
  get-tuple-element.5561 = f64[192,20]{1,0} get-tuple-element(while.11.0), index=80, metadata={op_name="jit(scan)/jit(main)/while[cond_nconsts=0 body_nconsts=6]" source_file="/fs04/fc37/adam/projects/psilocybin-prl-analyses/src/prl_hgf/fitting/hierarchical_patrl.py" source_line=378}
  get-tuple-element.5559 = pred[192,20,1]{2,1,0} get-tuple-element(while.11.0), index=79, metadata={op_name="jit(scan)/jit(main)/while[cond_nconsts=0 body_nconsts=6]" source_file="/fs04/fc37/adam/projects/psilocybin-prl-analyses/src/prl_hgf/fitting/hierarchical_patrl.py" source_line=378}
  get-tuple-element.5558 = pred[192,20]{1,0} get-tuple-element(while.11.0), index=78, metadata={op_name="jit(scan)/jit(main)/while[cond_nconsts=0 body_nconsts=6]" source_file="/fs04/fc37/adam/projects/psilocybin-prl-analyses/src/prl_hgf/fitting/hierarchical_patrl.py" source_line=378}
  get-tuple-element.5557 = s32[192,20]{1,0} get-tuple-element(while.11.0), index=77, metadata={op_name="jit(scan)/jit(main)/while[cond_nconsts=0 body_nconsts=6]" source_file="/fs04/fc37/adam/projects/psilocybin-prl-analyses/src/prl_hgf/fitting/hierarchical_patrl.py" source_line=378}
  get-tuple-element.5555 = f64[192,20]{1,0} get-tuple-element(while.11.0), index=75, metadata={op_name="jit(scan)/jit(main)/while[cond_nconsts=0 body_nconsts=6]" source_file="/fs04/fc37/adam/projects/psilocybin-prl-analyses/src/prl_hgf/fitting/hierarchical_patrl.py" source_line=378}
  get-tuple-element.5554 = f64[192,20]{1,0} get-tuple-element(while.11.0), index=74, metadata={op_name="jit(scan)/jit(main)/while[cond_nconsts=0 body_nconsts=6]" source_file="/fs04/fc37/adam/projects/psilocybin-prl-analyses/src/prl_hgf/fitting/hierarchical_patrl.py" source_line=378}
  get-tuple-element.5553 = f64[192,20]{1,0} get-tuple-element(while.11.0), index=73, metadata={op_name="jit(scan)/jit(main)/while[cond_nconsts=0 body_nconsts=6]" source_file="/fs04/fc37/adam/projects/psilocybin-prl-analyses/src/prl_hgf/fitting/hierarchical_patrl.py" source_line=378}
  get-tuple-element.5552 = f64[192,20]{1,0} get-tuple-element(while.11.0), index=72, metadata={op_name="jit(scan)/jit(main)/while[cond_nconsts=0 body_nconsts=6]" source_file="/fs04/fc37/adam/projects/psilocybin-prl-analyses/src/prl_hgf/fitting/hierarchical_patrl.py" source_line=378}
  get-tuple-element.5548 = f64[192,20]{1,0} get-tuple-element(while.11.0), index=68, metadata={op_name="jit(scan)/jit(main)/while[cond_nconsts=0 body_nconsts=6]" source_file="/fs04/fc37/adam/projects/psilocybin-prl-analyses/src/prl_hgf/fitting/hierarchical_patrl.py" source_line=378}
  get-tuple-element.5547 = f64[192,20]{1,0} get-tuple-element(while.11.0), index=67, metadata={op_name="jit(scan)/jit(main)/while[cond_nconsts=0 body_nconsts=6]" source_file="/fs04/fc37/adam/projects/psilocybin-prl-analyses/src/prl_hgf/fitting/hierarchical_patrl.py" source_line=378}
  get-tuple-element.5544 = f64[192,20]{1,0} get-tuple-element(while.11.0), index=66, metadata={op_name="jit(scan)/jit(main)/while[cond_nconsts=0 body_nconsts=6]" source_file="/fs04/fc37/adam/projects/psilocybin-prl-analyses/src/prl_hgf/fitting/hierarchical_patrl.py" source_line=378}
  get-tuple-element.5543 = f64[192,20]{1,0} get-tuple-element(while.11.0), index=65, metadata={op_name="jit(scan)/jit(main)/while[cond_nconsts=0 body_nconsts=6]" source_file="/fs04/fc37/adam/projects/psilocybin-prl-analyses/src/prl_hgf/fitting/hierarchical_patrl.py" source_line=378}
  get-tuple-element.5541 = f64[192,20]{1,0} get-tuple-element(while.11.0), index=63, metadata={op_name="jit(scan)/jit(main)/while[cond_nconsts=0 body_nconsts=6]" source_file="/fs04/fc37/adam/projects/psilocybin-prl-analyses/src/prl_hgf/fitting/hierarchical_patrl.py" source_line=378}
  get-tuple-element.5540 = f64[192,20]{1,0} get-tuple-element(while.11.0), index=62, metadata={op_name="jit(scan)/jit(main)/while[cond_nconsts=0 body_nconsts=6]" source_file="/fs04/fc37/adam/projects/psilocybin-prl-analyses/src/prl_hgf/fitting/hierarchical_patrl.py" source_line=378}
  get-tuple-element.5539 = f64[192,20]{1,0} get-tuple-element(while.11.0), index=61, metadata={op_name="jit(scan)/jit(main)/while[cond_nconsts=0 body_nconsts=6]" source_file="/fs04/fc37/adam/projects/psilocybin-prl-analyses/src/prl_hgf/fitting/hierarchical_patrl.py" source_line=378}
  get-tuple-element.5538 = pred[192,20]{1,0} get-tuple-element(while.11.0), index=60, metadata={op_name="jit(scan)/jit(main)/while[cond_nconsts=0 body_nconsts=6]" source_file="/fs04/fc37/adam/projects/psilocybin-prl-analyses/src/prl_hgf/fitting/hierarchical_patrl.py" source_line=378}
  get-tuple-element.5537 = f64[192,20]{1,0} get-tuple-element(while.11.0), index=59, metadata={op_name="jit(scan)/jit(main)/while[cond_nconsts=0 body_nconsts=6]" source_file="/fs04/fc37/adam/projects/psilocybin-prl-analyses/src/prl_hgf/fitting/hierarchical_patrl.py" source_line=378}
  get-tuple-element.5536 = f64[192,20]{1,0} get-tuple-element(while.11.0), index=58, metadata={op_name="jit(scan)/jit(main)/while[cond_nconsts=0 body_nconsts=6]" source_file="/fs04/fc37/adam/projects/psilocybin-prl-analyses/src/prl_hgf/fitting/hierarchical_patrl.py" source_line=378}
  get-tuple-element.5535 = f64[192,20]{1,0} get-tuple-element(while.11.0), index=57, metadata={op_name="jit(scan)/jit(main)/while[cond_nconsts=0 body_nconsts=6]" source_file="/fs04/fc37/adam/projects/psilocybin-prl-analyses/src/prl_hgf/fitting/hierarchical_patrl.py" source_line=378}
  get-tuple-element.5534 = f64[192]{0} get-tuple-element(while.11.0), index=56, metadata={op_name="jit(scan)/jit(main)/while[cond_nconsts=0 body_nconsts=6]" source_file="/fs04/fc37/adam/projects/psilocybin-prl-analyses/src/prl_hgf/fitting/hierarchical_patrl.py" source_line=378}
  get-tuple-element.5533 = f64[192,20]{1,0} get-tuple-element(while.11.0), index=55, metadata={op_name="jit(scan)/jit(main)/while[cond_nconsts=0 body_nconsts=6]" source_file="/fs04/fc37/adam/projects/psilocybin-prl-analyses/src/prl_hgf/fitting/hierarchical_patrl.py" source_line=378}
  get-tuple-element.5532 = s32[192]{0} get-tuple-element(while.11.0), index=54, metadata={op_name="jit(scan)/jit(main)/while[cond_nconsts=0 body_nconsts=6]" source_file="/fs04/fc37/adam/projects/psilocybin-prl-analyses/src/prl_hgf/fitting/hierarchical_patrl.py" source_line=378}
  get-tuple-element.5531 = f64[192,20]{1,0} get-tuple-element(while.11.0), index=53, metadata={op_name="jit(scan)/jit(main)/while[cond_nconsts=0 body_nconsts=6]" source_file="/fs04/fc37/adam/projects/psilocybin-prl-analyses/src/prl_hgf/fitting/hierarchical_patrl.py" source_line=378}
  get-tuple-element.5530 = f64[192,20]{1,0} get-tuple-element(while.11.0), index=52, metadata={op_name="jit(scan)/jit(main)/while[cond_nconsts=0 body_nconsts=6]" source_file="/fs04/fc37/adam/projects/psilocybin-prl-analyses/src/prl_hgf/fitting/hierarchical_patrl.py" source_line=378}
  get-tuple-element.5527 = f64[192,20]{1,0} get-tuple-element(while.11.0), index=50, metadata={op_name="jit(scan)/jit(main)/while[cond_nconsts=0 body_nconsts=6]" source_file="/fs04/fc37/adam/projects/psilocybin-prl-analyses/src/prl_hgf/fitting/hierarchical_patrl.py" source_line=378}
  get-tuple-element.5526 = f64[192,20]{1,0} get-tuple-element(while.11.0), index=49, metadata={op_name="jit(scan)/jit(main)/while[cond_nconsts=0 body_nconsts=6]" source_file="/fs04/fc37/adam/projects/psilocybin-prl-analyses/src/prl_hgf/fitting/hierarchical_patrl.py" source_line=378}
  get-tuple-element.5524 = f64[192,20]{1,0} get-tuple-element(while.11.0), index=47, metadata={op_name="jit(scan)/jit(main)/while[cond_nconsts=0 body_nconsts=6]" source_file="/fs04/fc37/adam/projects/psilocybin-prl-analyses/src/prl_hgf/fitting/hierarchical_patrl.py" source_line=378}
  get-tuple-element.5522 = f64[192,20]{1,0} get-tuple-element(while.11.0), index=46, metadata={op_name="jit(scan)/jit(main)/while[cond_nconsts=0 body_nconsts=6]" source_file="/fs04/fc37/adam/projects/psilocybin-prl-analyses/src/prl_hgf/fitting/hierarchical_patrl.py" source_line=378}
  get-tuple-element.5521 = f64[192,20]{1,0} get-tuple-element(while.11.0), index=45, metadata={op_name="jit(scan)/jit(main)/while[cond_nconsts=0 body_nconsts=6]" source_file="/fs04/fc37/adam/projects/psilocybin-prl-analyses/src/prl_hgf/fitting/hierarchical_patrl.py" source_line=378}
  get-tuple-element.5520 = pred[192,20]{1,0} get-tuple-element(while.11.0), index=44, metadata={op_name="jit(scan)/jit(main)/while[cond_nconsts=0 body_nconsts=6]" source_file="/fs04/fc37/adam/projects/psilocybin-prl-analyses/src/prl_hgf/fitting/hierarchical_patrl.py" source_line=378}
  get-tuple-element.5519 = f64[192,20]{1,0} get-tuple-element(while.11.0), index=43, metadata={op_name="jit(scan)/jit(main)/while[cond_nconsts=0 body_nconsts=6]" source_file="/fs04/fc37/adam/projects/psilocybin-prl-analyses/src/prl_hgf/fitting/hierarchical_patrl.py" source_line=378}
  get-tuple-element.5518 = f64[192,20]{1,0} get-tuple-element(while.11.0), index=42, metadata={op_name="jit(scan)/jit(main)/while[cond_nconsts=0 body_nconsts=6]" source_file="/fs04/fc37/adam/projects/psilocybin-prl-analyses/src/prl_hgf/fitting/hierarchical_patrl.py" source_line=378}
  get-tuple-element.5517 = f64[192,20]{1,0} get-tuple-element(while.11.0), index=41, metadata={op_name="jit(scan)/jit(main)/while[cond_nconsts=0 body_nconsts=6]" source_file="/fs04/fc37/adam/projects/psilocybin-prl-analyses/src/prl_hgf/fitting/hierarchical_patrl.py" source_line=378}
  get-tuple-element.5515 = f64[192,20]{1,0} get-tuple-element(while.11.0), index=39, metadata={op_name="jit(scan)/jit(main)/while[cond_nconsts=0 body_nconsts=6]" source_file="/fs04/fc37/adam/projects/psilocybin-prl-analyses/src/prl_hgf/fitting/hierarchical_patrl.py" source_line=378}
  get-tuple-element.5513 = f64[192,20]{1,0} get-tuple-element(while.11.0), index=38, metadata={op_name="jit(scan)/jit(main)/while[cond_nconsts=0 body_nconsts=6]" source_file="/fs04/fc37/adam/projects/psilocybin-prl-analyses/src/prl_hgf/fitting/hierarchical_patrl.py" source_line=378}
  get-tuple-element.5512 = f64[192,20]{1,0} get-tuple-element(while.11.0), index=37, metadata={op_name="jit(scan)/jit(main)/while[cond_nconsts=0 body_nconsts=6]" source_file="/fs04/fc37/adam/projects/psilocybin-prl-analyses/src/prl_hgf/fitting/hierarchical_patrl.py" source_line=378}
  get-tuple-element.5511 = pred[192,20]{1,0} get-tuple-element(while.11.0), index=36, metadata={op_name="jit(scan)/jit(main)/while[cond_nconsts=0 body_nconsts=6]" source_file="/fs04/fc37/adam/projects/psilocybin-prl-analyses/src/prl_hgf/fitting/hierarchical_patrl.py" source_line=378}
  get-tuple-element.5509 = f64[192,20]{1,0} get-tuple-element(while.11.0), index=34, metadata={op_name="jit(scan)/jit(main)/while[cond_nconsts=0 body_nconsts=6]" source_file="/fs04/fc37/adam/projects/psilocybin-prl-analyses/src/prl_hgf/fitting/hierarchical_patrl.py" source_line=378}
  get-tuple-element.5507 = f64[192,20]{1,0} get-tuple-element(while.11.0), index=32, metadata={op_name="jit(scan)/jit(main)/while[cond_nconsts=0 body_nconsts=6]" source_file="/fs04/fc37/adam/projects/psilocybin-prl-analyses/src/prl_hgf/fitting/hierarchical_patrl.py" source_line=378}
  get-tuple-element.5506 = f64[20,1]{1,0} get-tuple-element(while.11.0), index=31, metadata={op_name="jit(scan)/jit(main)/while[cond_nconsts=0 body_nconsts=6]" source_file="/fs04/fc37/adam/projects/psilocybin-prl-analyses/src/prl_hgf/fitting/hierarchical_patrl.py" source_line=378}
  get-tuple-element.5505 = f64[20]{0} get-tuple-element(while.11.0), index=30, metadata={op_name="jit(scan)/jit(main)/while[cond_nconsts=0 body_nconsts=6]" source_file="/fs04/fc37/adam/projects/psilocybin-prl-analyses/src/prl_hgf/fitting/hierarchical_patrl.py" source_line=378}
  get-tuple-element.5504 = f64[20]{0} get-tuple-element(while.11.0), index=29, metadata={op_name="jit(scan)/jit(main)/while[cond_nconsts=0 body_nconsts=6]" source_file="/fs04/fc37/adam/projects/psilocybin-prl-analyses/src/prl_hgf/fitting/hierarchical_patrl.py" source_line=378}
  get-tuple-element.5501 = f64[20]{0} get-tuple-element(while.11.0), index=28, metadata={op_name="jit(scan)/jit(main)/while[cond_nconsts=0 body_nconsts=6]" source_file="/fs04/fc37/adam/projects/psilocybin-prl-analyses/src/prl_hgf/fitting/hierarchical_patrl.py" source_line=378}
  get-tuple-element.5500 = f64[20]{0} get-tuple-element(while.11.0), index=27, metadata={op_name="jit(scan)/jit(main)/while[cond_nconsts=0 body_nconsts=6]" source_file="/fs04/fc37/adam/projects/psilocybin-prl-analyses/src/prl_hgf/fitting/hierarchical_patrl.py" source_line=378}
  get-tuple-element.5499 = f64[20]{0} get-tuple-element(while.11.0), index=26, metadata={op_name="jit(scan)/jit(main)/while[cond_nconsts=0 body_nconsts=6]" source_file="/fs04/fc37/adam/projects/psilocybin-prl-analyses/src/prl_hgf/fitting/hierarchical_patrl.py" source_line=378}
  get-tuple-element.5497 = f64[20]{0} get-tuple-element(while.11.0), index=25, metadata={op_name="jit(scan)/jit(main)/while[cond_nconsts=0 body_nconsts=6]" source_file="/fs04/fc37/adam/projects/psilocybin-prl-analyses/src/prl_hgf/fitting/hierarchical_patrl.py" source_line=378}
  get-tuple-element.5496 = f64[20]{0} get-tuple-element(while.11.0), index=24, metadata={op_name="jit(scan)/jit(main)/while[cond_nconsts=0 body_nconsts=6]" source_file="/fs04/fc37/adam/projects/psilocybin-prl-analyses/src/prl_hgf/fitting/hierarchical_patrl.py" source_line=378}
  get-tuple-element.5495 = f64[20]{0} get-tuple-element(while.11.0), index=23, metadata={op_name="jit(scan)/jit(main)/while[cond_nconsts=0 body_nconsts=6]" source_file="/fs04/fc37/adam/projects/psilocybin-prl-analyses/src/prl_hgf/fitting/hierarchical_patrl.py" source_line=378}
  get-tuple-element.5494 = f64[20]{0} get-tuple-element(while.11.0), index=22, metadata={op_name="jit(scan)/jit(main)/while[cond_nconsts=0 body_nconsts=6]" source_file="/fs04/fc37/adam/projects/psilocybin-prl-analyses/src/prl_hgf/fitting/hierarchical_patrl.py" source_line=378}
  get-tuple-element.5493 = f64[20,1]{1,0} get-tuple-element(while.11.0), index=21, metadata={op_name="jit(scan)/jit(main)/while[cond_nconsts=0 body_nconsts=6]" source_file="/fs04/fc37/adam/projects/psilocybin-prl-analyses/src/prl_hgf/fitting/hierarchical_patrl.py" source_line=378}
  get-tuple-element.5492 = f64[20,1]{1,0} get-tuple-element(while.11.0), index=20, metadata={op_name="jit(scan)/jit(main)/while[cond_nconsts=0 body_nconsts=6]" source_file="/fs04/fc37/adam/projects/psilocybin-prl-analyses/src/prl_hgf/fitting/hierarchical_patrl.py" source_line=378}
  get-tuple-element.5491 = f64[20]{0} get-tuple-element(while.11.0), index=19, metadata={op_name="jit(scan)/jit(main)/while[cond_nconsts=0 body_nconsts=6]" source_file="/fs04/fc37/adam/projects/psilocybin-prl-analyses/src/prl_hgf/fitting/hierarchical_patrl.py" source_line=378}
  get-tuple-element.5490 = f64[20]{0} get-tuple-element(while.11.0), index=18, metadata={op_name="jit(scan)/jit(main)/while[cond_nconsts=0 body_nconsts=6]" source_file="/fs04/fc37/adam/projects/psilocybin-prl-analyses/src/prl_hgf/fitting/hierarchical_patrl.py" source_line=378}
  get-tuple-element.5489 = f64[20]{0} get-tuple-element(while.11.0), index=17, metadata={op_name="jit(scan)/jit(main)/while[cond_nconsts=0 body_nconsts=6]" source_file="/fs04/fc37/adam/projects/psilocybin-prl-analyses/src/prl_hgf/fitting/hierarchical_patrl.py" source_line=378}
  get-tuple-element.5488 = f64[20]{0} get-tuple-element(while.11.0), index=16, metadata={op_name="jit(scan)/jit(main)/while[cond_nconsts=0 body_nconsts=6]" source_file="/fs04/fc37/adam/projects/psilocybin-prl-analyses/src/prl_hgf/fitting/hierarchical_patrl.py" source_line=378}
  get-tuple-element.5487 = f64[20]{0} get-tuple-element(while.11.0), index=15, metadata={op_name="jit(scan)/jit(main)/while[cond_nconsts=0 body_nconsts=6]" source_file="/fs04/fc37/adam/projects/psilocybin-prl-analyses/src/prl_hgf/fitting/hierarchical_patrl.py" source_line=378}
  get-tuple-element.5486 = f64[20]{0} get-tuple-element(while.11.0), index=14, metadata={op_name="jit(scan)/jit(main)/while[cond_nconsts=0 body_nconsts=6]" source_file="/fs04/fc37/adam/projects/psilocybin-prl-analyses/src/prl_hgf/fitting/hierarchical_patrl.py" source_line=378}
  get-tuple-element.5485 = f64[20]{0} get-tuple-element(while.11.0), index=13, metadata={op_name="jit(scan)/jit(main)/while[cond_nconsts=0 body_nconsts=6]" source_file="/fs04/fc37/adam/projects/psilocybin-prl-analyses/src/prl_hgf/fitting/hierarchical_patrl.py" source_line=378}
  get-tuple-element.5484 = s64[20]{0} get-tuple-element(while.11.0), index=12, metadata={op_name="jit(scan)/jit(main)/while[cond_nconsts=0 body_nconsts=6]" source_file="/fs04/fc37/adam/projects/psilocybin-prl-analyses/src/prl_hgf/fitting/hierarchical_patrl.py" source_line=378}
  get-tuple-element.5483 = f64[20]{0} get-tuple-element(while.11.0), index=11, metadata={op_name="jit(scan)/jit(main)/while[cond_nconsts=0 body_nconsts=6]" source_file="/fs04/fc37/adam/projects/psilocybin-prl-analyses/src/prl_hgf/fitting/hierarchical_patrl.py" source_line=378}
  get-tuple-element.5482 = f64[20]{0} get-tuple-element(while.11.0), index=10, metadata={op_name="jit(scan)/jit(main)/while[cond_nconsts=0 body_nconsts=6]" source_file="/fs04/fc37/adam/projects/psilocybin-prl-analyses/src/prl_hgf/fitting/hierarchical_patrl.py" source_line=378}
  get-tuple-element.5481 = f64[20]{0} get-tuple-element(while.11.0), index=9, metadata={op_name="jit(scan)/jit(main)/while[cond_nconsts=0 body_nconsts=6]" source_file="/fs04/fc37/adam/projects/psilocybin-prl-analyses/src/prl_hgf/fitting/hierarchical_patrl.py" source_line=378}
  get-tuple-element.5480 = f64[20]{0} get-tuple-element(while.11.0), index=8, metadata={op_name="jit(scan)/jit(main)/while[cond_nconsts=0 body_nconsts=6]" source_file="/fs04/fc37/adam/projects/psilocybin-prl-analyses/src/prl_hgf/fitting/hierarchical_patrl.py" source_line=378}
  get-tuple-element.5478 = f64[20]{0} get-tuple-element(while.11.0), index=7, metadata={op_name="jit(scan)/jit(main)/while[cond_nconsts=0 body_nconsts=6]" source_file="/fs04/fc37/adam/projects/psilocybin-prl-analyses/src/prl_hgf/fitting/hierarchical_patrl.py" source_line=378}
  get-tuple-element.5477 = f64[20]{0} get-tuple-element(while.11.0), index=6, metadata={op_name="jit(scan)/jit(main)/while[cond_nconsts=0 body_nconsts=6]" source_file="/fs04/fc37/adam/projects/psilocybin-prl-analyses/src/prl_hgf/fitting/hierarchical_patrl.py" source_line=378}
  get-tuple-element.5476 = s32[20]{0} get-tuple-element(while.11.0), index=5, metadata={op_name="jit(scan)/jit(main)/while[cond_nconsts=0 body_nconsts=6]" source_file="/fs04/fc37/adam/projects/psilocybin-prl-analyses/src/prl_hgf/fitting/hierarchical_patrl.py" source_line=378}
  get-tuple-element.5475 = f64[20]{0} get-tuple-element(while.11.0), index=4, metadata={op_name="jit(scan)/jit(main)/while[cond_nconsts=0 body_nconsts=6]" source_file="/fs04/fc37/adam/projects/psilocybin-prl-analyses/src/prl_hgf/fitting/hierarchical_patrl.py" source_line=378}
  get-tuple-element.5474 = f64[20]{0} get-tuple-element(while.11.0), index=3, metadata={op_name="jit(scan)/jit(main)/while[cond_nconsts=0 body_nconsts=6]" source_file="/fs04/fc37/adam/projects/psilocybin-prl-analyses/src/prl_hgf/fitting/hierarchical_patrl.py" source_line=378}
  get-tuple-element.5473 = f64[20]{0} get-tuple-element(while.11.0), index=2, metadata={op_name="jit(scan)/jit(main)/while[cond_nconsts=0 body_nconsts=6]" source_file="/fs04/fc37/adam/projects/psilocybin-prl-analyses/src/prl_hgf/fitting/hierarchical_patrl.py" source_line=378}
  get-tuple-element.5472 = f64[20]{0} get-tuple-element(while.11.0), index=1, metadata={op_name="jit(scan)/jit(main)/while[cond_nconsts=0 body_nconsts=6]" source_file="/fs04/fc37/adam/projects/psilocybin-prl-analyses/src/prl_hgf/fitting/hierarchical_patrl.py" source_line=378}
  get-tuple-element.5578 = pred[192,20,1]{2,1,0} get-tuple-element(while.11.0), index=91, metadata={op_name="jit(scan)/jit(main)/while[cond_nconsts=0 body_nconsts=6]" source_file="/fs04/fc37/adam/projects/psilocybin-prl-analyses/src/prl_hgf/fitting/hierarchical_patrl.py" source_line=378}
  call.1 = (s64[20]{0}, s64[20]{0}, f64[20,1]{1,0}, f64[20,1]{1,0}, f64[20]{0}, /*index=5*/f64[20]{0}, f64[20]{0}, f64[20]{0}, f64[20]{0}, f64[20]{0}, /*index=10*/f64[20]{0}, f64[20]{0}, f64[192]{0}, f64[20,1]{1,0}, f64[20,1]{1,0}, /*index=15*/(f64[192,20]{1,0}, f64[192,20]{1,0}, f64[192,20]{1,0}, f64[192,20]{1,0}, f64[192,20]{1,0}, /*index=5*/f64[192,20]{1,0}, f64[192,20]{1,0}, f64[192,20]{1,0}, f64[192,20]{1,0}, f64[192,20]{1,0}, /*index=10*/f64[192,20]{1,0})) call(get-tuple-element.5484, Arg_29.30.0, get-tuple-element.5492, get-tuple-element.5493, get-tuple-element.5480, /*index=5*/get-tuple-element.5490, get-tuple-element.5491, get-tuple-element.5494, Arg_33.34.0, Arg_34.35.0, /*index=10*/get-tuple-element.5504, get-tuple-element.5505, Arg_10.11.0, get-tuple-element.5506, get-tuple-element.5545, /*index=15*/get-tuple-element.5560, get-tuple-element.5523, get-tuple-element.5529, get-tuple-element.5546, get-tuple-element.5562, /*index=20*/get-tuple-element.5566, get-tuple-element.5567, get-tuple-element.5569, get-tuple-element.5570, get-tuple-element.5575), to_apply=command_buffer.2
  get-tuple-element.5765 = s64[20]{0} get-tuple-element(call.1), index=0
  get-tuple-element.5766 = s64[20]{0} get-tuple-element(call.1), index=1
  get-tuple-element.5767 = f64[20,1]{1,0} get-tuple-element(call.1), index=2
  get-tuple-element.5768 = f64[20,1]{1,0} get-tuple-element(call.1), index=3
  get-tuple-element.5769 = f64[20]{0} get-tuple-element(call.1), index=4
  get-tuple-element.5770 = f64[20]{0} get-tuple-element(call.1), index=5
  get-tuple-element.5771 = f64[20]{0} get-tuple-element(call.1), index=6
  get-tuple-element.5772 = f64[20]{0} get-tuple-element(call.1), index=7
  get-tuple-element.5773 = f64[20]{0} get-tuple-element(call.1), index=8
  get-tuple-element.5774 = f64[20]{0} get-tuple-element(call.1), index=9
  get-tuple-element.5775 = f64[20]{0} get-tuple-element(call.1), index=10
  get-tuple-element.5776 = f64[20]{0} get-tuple-element(call.1), index=11
  get-tuple-element.5777 = f64[192]{0} get-tuple-element(call.1), index=12
  get-tuple-element.5778 = f64[20,1]{1,0} get-tuple-element(call.1), index=13
  get-tuple-element.5779 = f64[20,1]{1,0} get-tuple-element(call.1), index=14
  get-tuple-element.5780 = (f64[192,20]{1,0}, f64[192,20]{1,0}, f64[192,20]{1,0}, f64[192,20]{1,0}, f64[192,20]{1,0}, /*index=5*/f64[192,20]{1,0}, f64[192,20]{1,0}, f64[192,20]{1,0}, f64[192,20]{1,0}, f64[192,20]{1,0}, /*index=10*/f64[192,20]{1,0}) get-tuple-element(call.1), index=15
  get-tuple-element.5601 = f64[192,20]{1,0} get-tuple-element(get-tuple-element.5780), index=10
  bitcast.3198 = f64[192,20]{1,0} bitcast(get-tuple-element.5601)
  get-tuple-element.5600 = f64[192,20]{1,0} get-tuple-element(get-tuple-element.5780), index=9
  bitcast.3197 = f64[192,20]{1,0} bitcast(get-tuple-element.5600)
  get-tuple-element.5599 = f64[192,20]{1,0} get-tuple-element(get-tuple-element.5780), index=8
  bitcast.3196 = f64[192,20]{1,0} bitcast(get-tuple-element.5599)
  get-tuple-element.5598 = f64[192,20]{1,0} get-tuple-element(get-tuple-element.5780), index=7
  bitcast.3195 = f64[192,20]{1,0} bitcast(get-tuple-element.5598)
  get-tuple-element.5597 = f64[192,20]{1,0} get-tuple-element(get-tuple-element.5780), index=6
  bitcast.3194 = f64[192,20]{1,0} bitcast(get-tuple-element.5597)
  get-tuple-element.5596 = f64[192,20]{1,0} get-tuple-element(get-tuple-element.5780), index=5
  bitcast.3193 = f64[192,20]{1,0} bitcast(get-tuple-element.5596)
  get-tuple-element.5595 = f64[192,20]{1,0} get-tuple-element(get-tuple-element.5780), index=4
  bitcast.3192 = f64[192,20]{1,0} bitcast(get-tuple-element.5595)
  get-tuple-element.5594 = f64[192,20]{1,0} get-tuple-element(get-tuple-element.5780), index=3
  bitcast.3191 = f64[192,20]{1,0} bitcast(get-tuple-element.5594)
  get-tuple-element.5593 = f64[192,20]{1,0} get-tuple-element(get-tuple-element.5780), index=2
  bitcast.3190 = f64[192,20]{1,0} bitcast(get-tuple-element.5593)
  get-tuple-element.5592 = f64[192,20]{1,0} get-tuple-element(get-tuple-element.5780), index=1
  get-tuple-element.5591 = f64[192,20]{1,0} get-tuple-element(get-tuple-element.5780), index=0
  bitcast.3188 = f64[192,20]{1,0} bitcast(get-tuple-element.5591)
  bitcast.3189 = f64[192,20]{1,0} bitcast(get-tuple-element.5592)
  ROOT tuple.183 = (f64[20]{0}, f64[20]{0}, f64[20]{0}, f64[20]{0}, s32[20]{0}, /*index=5*/f64[20]{0}, f64[20]{0}, f64[20,1]{1,0}, f64[20]{0}, f64[20]{0}, /*index=10*/f64[20]{0}, f64[20]{0}, s64[20]{0}, f64[20]{0}, f64[20]{0}, /*index=15*/f64[20]{0}, f64[20]{0}, f64[20]{0}, f64[20]{0}, f64[20]{0}, /*index=20*/f64[20,1]{1,0}, f64[20,1]{1,0}, f64[20]{0}, f64[20]{0}, f64[20]{0}, /*index=25*/f64[20]{0}, s64[20]{0}, f64[20]{0}, f64[20]{0}, f64[20]{0}, /*index=30*/f64[20]{0}, f64[20]{0}, f64[20]{0}, f64[20]{0}, f64[20,1]{1,0}, /*index=35*/f64[192,20]{1,0}, f64[192,20]{1,0}, f64[192,20]{1,0}, f64[192,20]{1,0}, pred[192,20]{1,0}, /*index=40*/f64[192,20]{1,0}, f64[192,20]{1,0}, f64[192,20]{1,0}, f64[192,20]{1,0}, f64[192,20]{1,0}, /*index=45*/f64[192,20]{1,0}, f64[192,20]{1,0}, f64[192,20]{1,0}, pred[192,20]{1,0}, f64[192,20]{1,0}, /*index=50*/f64[192,20]{1,0}, f64[192,20]{1,0}, f64[192,20]{1,0}, f64[192,20]{1,0}, f64[192,20]{1,0}, /*index=55*/f64[192,20]{1,0}, f64[192]{0}, f64[192,20]{1,0}, f64[192,20]{1,0}, f64[192,20]{1,0}, /*index=60*/s32[192]{0}, f64[192,20]{1,0}, f64[192]{0}, f64[192,20]{1,0}, f64[192,20]{1,0}, /*index=65*/f64[192,20]{1,0}, pred[192,20]{1,0}, f64[192,20]{1,0}, f64[192,20]{1,0}, f64[192,20]{1,0}, /*index=70*/f64[192,20]{1,0}, f64[192,20]{1,0}, f64[192,20]{1,0}, f64[192]{0}, f64[192,20]{1,0}, /*index=75*/f64[192,20]{1,0}, f64[192,20]{1,0}, f64[192,20]{1,0}, f64[192,20]{1,0}, f64[192,20]{1,0}, /*index=80*/f64[192,20]{1,0}, f64[192,20]{1,0}, f64[192,20]{1,0}, f64[192,20]{1,0}, f64[192,20]{1,0}, /*index=85*/s32[192,20]{1,0}, pred[192,20]{1,0}, pred[192,20,1]{2,1,0}, f64[192,20]{1,0}, f64[192,20]{1,0}, /*index=90*/f64[192,20]{1,0}, f64[192,20]{1,0}, pred[192,20]{1,0}, pred[192,20,1]{2,1,0}, f64[192,20]{1,0}, /*index=95*/f64[192,20]{1,0}, f64[192,20]{1,0}, f64[192,20]{1,0}, f64[192,20]{1,0}, f64[192,20]{1,0}, /*index=100*/f64[192,20]{1,0}, f64[192,20]{1,0}, f64[192,20]{1,0}, f64[192,20]{1,0}, pred[192,20]{1,0}, /*index=105*/pred[192,20]{1,0}, pred[192,20,1]{2,1,0}) tuple(get-tuple-element.5472, get-tuple-element.5473, get-tuple-element.5474, get-tuple-element.5475, get-tuple-element.5476, /*index=5*/get-tuple-element.5477, get-tuple-element.5478, get-tuple-element.5778, get-tuple-element.5771, get-tuple-element.5481, /*index=10*/get-tuple-element.5482, get-tuple-element.5483, get-tuple-element.5766, get-tuple-element.5485, get-tuple-element.5486, /*index=15*/get-tuple-element.5487, get-tuple-element.5488, get-tuple-element.5489, get-tuple-element.5770, get-tuple-element.5769, /*index=20*/get-tuple-element.5767, get-tuple-element.5768, get-tuple-element.5776, get-tuple-element.5495, get-tuple-element.5496, /*index=25*/get-tuple-element.5497, get-tuple-element.5765, get-tuple-element.5499, get-tuple-element.5500, get-tuple-element.5501, /*index=30*/get-tuple-element.5775, get-tuple-element.5774, get-tuple-element.5773, get-tuple-element.5772, get-tuple-element.5779, /*index=35*/get-tuple-element.5507, get-tuple-element.5560, get-tuple-element.5509, get-tuple-element.5562, get-tuple-element.5511, /*index=40*/get-tuple-element.5512, get-tuple-element.5513, bitcast.3188, get-tuple-element.5515, get-tuple-element.5523, /*index=45*/get-tuple-element.5517, get-tuple-element.5518, get-tuple-element.5519, get-tuple-element.5520, get-tuple-element.5521, /*index=50*/get-tuple-element.5522, bitcast.3189, get-tuple-element.5524, get-tuple-element.5529, get-tuple-element.5526, /*index=55*/get-tuple-element.5527, get-tuple-element.5545, bitcast.3190, get-tuple-element.5530, get-tuple-element.5531, /*index=60*/get-tuple-element.5532, get-tuple-element.5533, get-tuple-element.5534, get-tuple-element.5535, get-tuple-element.5536, /*index=65*/get-tuple-element.5537, get-tuple-element.5538, get-tuple-element.5539, get-tuple-element.5540, get-tuple-element.5541, /*index=70*/get-tuple-element.5546, get-tuple-element.5543, get-tuple-element.5544, get-tuple-element.5777, bitcast.3191, /*index=75*/get-tuple-element.5547, get-tuple-element.5548, get-tuple-element.5566, get-tuple-element.5567, get-tuple-element.5570, /*index=80*/get-tuple-element.5552, get-tuple-element.5553, get-tuple-element.5554, get-tuple-element.5555, get-tuple-element.5575, /*index=85*/get-tuple-element.5557, get-tuple-element.5558, get-tuple-element.5559, bitcast.3192, get-tuple-element.5561, /*index=90*/bitcast.3193, get-tuple-element.5563, get-tuple-element.5564, get-tuple-element.5565, bitcast.3194, /*index=95*/bitcast.3195, get-tuple-element.5569, bitcast.3196, bitcast.3197, get-tuple-element.5571, /*index=100*/get-tuple-element.5572, get-tuple-element.5573, get-tuple-element.5574, bitcast.3198, get-tuple-element.5576, /*index=105*/get-tuple-element.5577, get-tuple-element.5578)
} // main.1960

