HloModule jit_scan, is_scheduled=true, entry_computation_layout={(s32[20,192]{1,0}, f64[1]{0}, f64[1]{0}, f64[1]{0}, f32[20,192]{1,0}, /*index=5*/f32[20,192]{1,0}, s32[20,192]{1,0}, pred[20,192]{1,0}, f64[20]{0}, f64[20]{0}, /*index=10*/f64[20]{0}, f64[20]{0}, f64[20]{0}, f64[20]{0}, f64[], /*index=15*/f64[20]{0}, f64[20]{0}, f64[20]{0}, f64[20]{0}, f64[20]{0}, /*index=20*/f64[20]{0}, f64[], f64[], s64[], f64[], /*index=25*/f64[], f64[120]{0}, f64[120]{0}, f64[120]{0}, s64[], /*index=30*/f64[], f64[120]{0}, u32[10,2]{1,0}, s64[10,2]{1,0})->(f64[20]{0}, f64[20]{0}, f64[20]{0}, f64[20]{0}, f64[20]{0}, /*index=5*/f64[20]{0}, f64[], f64[20]{0}, f64[20]{0}, f64[20]{0}, /*index=10*/f64[20]{0}, f64[20]{0}, f64[20]{0}, f64[], f64[], /*index=15*/s64[], f64[], f64[], f64[120]{0}, f64[120]{0}, /*index=20*/f64[120]{0}, s64[], f64[], f64[120]{0}, f64[10,20]{1,0}, /*index=25*/f64[10,20]{1,0}, f64[10,20]{1,0}, f64[10,20]{1,0}, f64[10,20]{1,0}, f64[10,20]{1,0}, /*index=30*/f64[10]{0}, f64[10,20]{1,0}, f64[10,20]{1,0}, f64[10,20]{1,0}, f64[10,20]{1,0}, /*index=35*/f64[10,20]{1,0}, f64[10,20]{1,0}, f64[10,20]{1,0}, f64[10,20]{1,0}, f64[10,20]{1,0}, /*index=40*/f64[10,20]{1,0}, f64[10,20]{1,0}, f64[10,20]{1,0}, pred[10]{0}, pred[10]{0}, /*index=45*/f64[10]{0}, f64[10,20]{1,0}, f64[10,20]{1,0}, f64[10,20]{1,0}, f64[10,20]{1,0}, /*index=50*/f64[10,20]{1,0}, f64[10,20]{1,0}, f64[10,20]{1,0}, f64[10,20]{1,0}, f64[10,20]{1,0}, /*index=55*/f64[10,20]{1,0}, f64[10,20]{1,0}, f64[10,20]{1,0}, f64[10]{0}, f64[10,20]{1,0}, /*index=60*/f64[10,20]{1,0}, f64[10,20]{1,0}, f64[10,20]{1,0}, f64[10,20]{1,0}, f64[10,20]{1,0}, /*index=65*/f64[10,20]{1,0}, f64[10,20]{1,0}, f64[10,20]{1,0}, f64[10,20]{1,0}, f64[10,20]{1,0}, /*index=70*/f64[10,20]{1,0}, f64[10,20]{1,0}, f64[10,20]{1,0}, f64[10,20]{1,0}, f64[10,20]{1,0}, /*index=75*/f64[10,20]{1,0}, f64[10,20]{1,0}, f64[10]{0}, f64[10,20]{1,0}, f64[10,20]{1,0}, /*index=80*/f64[10,20]{1,0}, f64[10,20]{1,0}, f64[10,20]{1,0}, f64[10,20]{1,0}, s64[10]{0}, /*index=85*/s64[10]{0}, f64[10]{0}, f64[10]{0}, f64[10]{0}, s64[10]{0}, /*index=90*/f64[10]{0}, f64[10]{0}, f64[10,120]{1,0}, f64[10,120]{1,0}, f64[10,120]{1,0}, /*index=95*/s64[10]{0}, f64[10]{0}, f64[10,120]{1,0})}, allow_spmd_sharding_propagation_to_parameters={true,true,true,true,true,true,true,true,true,true,true,true,true,true,true,true,true,true,true,true,true,true,true,true,true,true,true,true,true,true,true,true,true,true}, allow_spmd_sharding_propagation_to_output={true,true,true,true,true,true,true,true,true,true,true,true,true,true,true,true,true,true,true,true,true,true,true,true,true,true,true,true,true,true,true,true,true,true,true,true,true,true,true,true,true,true,true,true,true,true,true,true,true,true,true,true,true,true,true,true,true,true,true,true,true,true,true,true,true,true,true,true,true,true,true,true,true,true,true,true,true,true,true,true,true,true,true,true,true,true,true,true,true,true,true,true,true,true,true,true,true,true}, frontend_attributes={fingerprint_before_lhs="30a0810e85029b6361a989cf65404dff"}

fused_add {
  param_2.12 = s64[] parameter(2)
  convert.165.1 = f64[] convert(param_2.12), metadata={op_name="jit(scan)/jit(main)/while/body/cond/branch_0_fun/convert_element_type[new_dtype=float64 weak_type=True sharding=None]" source_file="/fs04/fc37/adam/projects/psilocybin-prl-analyses/src/prl_hgf/fitting/hierarchical.py" source_line=1011}
  constant_9010_1 = f64[] constant(-0.75)
  power.2.1 = f64[] power(convert.165.1, constant_9010_1), metadata={op_name="jit(scan)/jit(main)/while/body/cond/branch_0_fun/pow" source_file="/fs04/fc37/adam/projects/psilocybin-prl-analyses/src/prl_hgf/fitting/hierarchical.py" source_line=1011}
  param_1.13 = f64[] parameter(1)
  multiply.2774.1 = f64[] multiply(power.2.1, param_1.13), metadata={op_name="jit(scan)/jit(main)/while/body/cond/branch_0_fun/mul" source_file="/fs04/fc37/adam/projects/psilocybin-prl-analyses/src/prl_hgf/fitting/hierarchical.py" source_line=1011}
  constant_9009_2 = f64[] constant(1)
  subtract.211.1 = f64[] subtract(constant_9009_2, power.2.1), metadata={op_name="jit(scan)/jit(main)/while/body/cond/branch_0_fun/sub" source_file="/fs04/fc37/adam/projects/psilocybin-prl-analyses/src/prl_hgf/fitting/hierarchical.py" source_line=1011}
  param_0.1 = f64[] parameter(0)
  multiply.2775.1 = f64[] multiply(subtract.211.1, param_0.1), metadata={op_name="jit(scan)/jit(main)/while/body/cond/branch_0_fun/mul" source_file="/fs04/fc37/adam/projects/psilocybin-prl-analyses/src/prl_hgf/fitting/hierarchical.py" source_line=1011}
  ROOT add.3607.1 = f64[] add(multiply.2774.1, multiply.2775.1), metadata={op_name="jit(scan)/jit(main)/while/body/cond/branch_0_fun/add" source_file="/fs04/fc37/adam/projects/psilocybin-prl-analyses/src/prl_hgf/fitting/hierarchical.py" source_line=1011}
} // fused_add

fused_add.1 {
  param_0.6 = s64[] parameter(0)
  constant_9007_1 = s64[] constant(1)
  ROOT add.3608.1 = s64[] add(param_0.6, constant_9007_1), metadata={op_name="jit(scan)/jit(main)/while/body/cond/branch_0_fun/add" source_file="/fs04/fc37/adam/projects/psilocybin-prl-analyses/src/prl_hgf/fitting/hierarchical.py" source_line=1011}
}

fused_add_exponential_subtract {
  param_0.3230 = f64[] parameter(0)
  param_1.4627 = s64[] parameter(1)
  convert.165.2.clone.1 = f64[] convert(param_1.4627), metadata={op_name="jit(scan)/jit(main)/while/body/cond/branch_0_fun/convert_element_type[new_dtype=float64 weak_type=True sharding=None]" source_file="/fs04/fc37/adam/projects/psilocybin-prl-analyses/src/prl_hgf/fitting/hierarchical.py" source_line=1011}
  sqrt.8.1.clone.1 = f64[] sqrt(convert.165.2.clone.1), metadata={op_name="jit(scan)/jit(main)/while/body/cond/branch_0_fun/sqrt" source_file="/fs04/fc37/adam/projects/psilocybin-prl-analyses/src/prl_hgf/fitting/hierarchical.py" source_line=1011}
  constant_993_1_clone_1 = f64[] constant(20)
  multiply.2771.1.clone.1 = f64[] multiply(sqrt.8.1.clone.1, constant_993_1_clone_1), metadata={op_name="jit(scan)/jit(main)/while/body/cond/branch_0_fun/div" source_file="/fs04/fc37/adam/projects/psilocybin-prl-analyses/src/prl_hgf/fitting/hierarchical.py" source_line=1011}
  constant_9009_1_clone_1 = f64[] constant(1)
  constant_9011_1_clone_1 = s64[] constant(10)
  add.3605.1.clone.1 = s64[] add(param_1.4627, constant_9011_1_clone_1), metadata={op_name="jit(scan)/jit(main)/while/body/cond/branch_0_fun/add" source_file="/fs04/fc37/adam/projects/psilocybin-prl-analyses/src/prl_hgf/fitting/hierarchical.py" source_line=1011}
  convert.166.1.clone.1 = f64[] convert(add.3605.1.clone.1), metadata={op_name="jit(scan)/jit(main)/while/body/cond/branch_0_fun/convert_element_type[new_dtype=float64 weak_type=True sharding=None]" source_file="/fs04/fc37/adam/projects/psilocybin-prl-analyses/src/prl_hgf/fitting/hierarchical.py" source_line=1011}
  divide.563.1.clone.1 = f64[] divide(constant_9009_1_clone_1, convert.166.1.clone.1), metadata={op_name="jit(scan)/jit(main)/while/body/cond/branch_0_fun/div" source_file="/fs04/fc37/adam/projects/psilocybin-prl-analyses/src/prl_hgf/fitting/hierarchical.py" source_line=1011}
  subtract.208.1.clone.1 = f64[] subtract(constant_9009_1_clone_1, divide.563.1.clone.1), metadata={op_name="jit(scan)/jit(main)/while/body/cond/branch_0_fun/sub" source_file="/fs04/fc37/adam/projects/psilocybin-prl-analyses/src/prl_hgf/fitting/hierarchical.py" source_line=1011}
  param_3.2897 = f64[] parameter(3)
  multiply.2772.1.clone.1 = f64[] multiply(subtract.208.1.clone.1, param_3.2897), metadata={op_name="jit(scan)/jit(main)/while/body/cond/branch_0_fun/mul" source_file="/fs04/fc37/adam/projects/psilocybin-prl-analyses/src/prl_hgf/fitting/hierarchical.py" source_line=1011}
  constant_9012_1_clone_1 = f64[] constant(0.9)
  param_2.3613 = f64[] parameter(2)
  subtract.209.1.clone.1 = f64[] subtract(constant_9012_1_clone_1, param_2.3613), metadata={op_name="jit(scan)/jit(main)/while/body/cond/branch_0_fun/sub" source_file="/fs04/fc37/adam/projects/psilocybin-prl-analyses/src/prl_hgf/fitting/hierarchical.py" source_line=1011}
  divide.564.1.clone.1 = f64[] divide(subtract.209.1.clone.1, convert.166.1.clone.1), metadata={op_name="jit(scan)/jit(main)/while/body/cond/branch_0_fun/div" source_file="/fs04/fc37/adam/projects/psilocybin-prl-analyses/src/prl_hgf/fitting/hierarchical.py" source_line=1011}
  add.3606.1.clone.1 = f64[] add(multiply.2772.1.clone.1, divide.564.1.clone.1), metadata={op_name="jit(scan)/jit(main)/while/body/cond/branch_0_fun/add" source_file="/fs04/fc37/adam/projects/psilocybin-prl-analyses/src/prl_hgf/fitting/hierarchical.py" source_line=1011}
  multiply.2773.1.clone.1 = f64[] multiply(multiply.2771.1.clone.1, add.3606.1.clone.1), metadata={op_name="jit(scan)/jit(main)/while/body/cond/branch_0_fun/mul" source_file="/fs04/fc37/adam/projects/psilocybin-prl-analyses/src/prl_hgf/fitting/hierarchical.py" source_line=1011}
  subtract.210.1.clone.1 = f64[] subtract(param_0.3230, multiply.2773.1.clone.1), metadata={op_name="jit(scan)/jit(main)/while/body/cond/branch_0_fun/sub" source_file="/fs04/fc37/adam/projects/psilocybin-prl-analyses/src/prl_hgf/fitting/hierarchical.py" source_line=1011}
  exponential.100.1 = f64[] exponential(subtract.210.1.clone.1), metadata={op_name="jit(scan)/jit(main)/while/body/cond/branch_0_fun/exp" source_file="/fs04/fc37/adam/projects/psilocybin-prl-analyses/src/prl_hgf/fitting/hierarchical.py" source_line=1011}
  ROOT tuple.501 = (f64[], f64[], f64[]) tuple(exponential.100.1, subtract.210.1.clone.1, add.3606.1.clone.1)
} // fused_add_exponential_subtract

region_55.8994 {
  arg_tuple.8995.0 = (f64[], s64[], f64[], f64[], f64[], /*index=5*/f64[], f64[120]{0}, f64[120]{0}, f64[120]{0}, s64[], /*index=10*/f64[120]{0}) parameter(0)
  get-tuple-element.18112 = s64[] get-tuple-element(arg_tuple.8995.0), index=9
  get-tuple-element.9001.0 = f64[] get-tuple-element(arg_tuple.8995.0), index=5
  get-tuple-element.9000.0 = f64[] get-tuple-element(arg_tuple.8995.0), index=4
  get-tuple-element.8996.0 = f64[] get-tuple-element(arg_tuple.8995.0), index=0
  get-tuple-element.8998.0 = f64[] get-tuple-element(arg_tuple.8995.0), index=2
  get-tuple-element.8997.0 = s64[] get-tuple-element(arg_tuple.8995.0), index=1
  loop_add_fusion.1 = s64[] fusion(get-tuple-element.8997.0), kind=kLoop, calls=fused_add.1, metadata={op_name="jit(scan)/jit(main)/while/body/cond/branch_0_fun/add" source_file="/fs04/fc37/adam/projects/psilocybin-prl-analyses/src/prl_hgf/fitting/hierarchical.py" source_line=1011 deduplicated_name="loop_add_fusion.1"}
  loop_add_fusion = f64[] fusion(get-tuple-element.9001.0, get-tuple-element.9000.0, get-tuple-element.8997.0), kind=kLoop, calls=fused_add, metadata={op_name="jit(scan)/jit(main)/while/body/cond/branch_0_fun/add" source_file="/fs04/fc37/adam/projects/psilocybin-prl-analyses/src/prl_hgf/fitting/hierarchical.py" source_line=1011 deduplicated_name="loop_add_fusion"}
  get-tuple-element.18108 = f64[] get-tuple-element(arg_tuple.8995.0), index=3
  get-tuple-element.18114 = f64[120]{0} get-tuple-element(arg_tuple.8995.0), index=10
  get-tuple-element.18111 = f64[120]{0} get-tuple-element(arg_tuple.8995.0), index=8
  get-tuple-element.18110 = f64[120]{0} get-tuple-element(arg_tuple.8995.0), index=7
  get-tuple-element.18109 = f64[120]{0} get-tuple-element(arg_tuple.8995.0), index=6
  loop_add_exponential_subtract_fusion = (f64[], f64[], f64[]) fusion(get-tuple-element.18108, get-tuple-element.8997.0, get-tuple-element.8996.0, get-tuple-element.8998.0), kind=kLoop, calls=fused_add_exponential_subtract, metadata={op_name="jit(scan)/jit(main)/while/body/cond/branch_0_fun/exp" source_file="/fs04/fc37/adam/projects/psilocybin-prl-analyses/src/prl_hgf/fitting/hierarchical.py" source_line=1011 deduplicated_name="loop_add_exponential_subtract_fusion"}
  get-tuple-element.18107 = f64[] get-tuple-element(loop_add_exponential_subtract_fusion), index=2, metadata={op_name="jit(scan)/jit(main)/while/body/cond/branch_0_fun/exp" source_file="/fs04/fc37/adam/projects/psilocybin-prl-analyses/src/prl_hgf/fitting/hierarchical.py" source_line=1011}
  get-tuple-element.18104 = f64[] get-tuple-element(loop_add_exponential_subtract_fusion), index=1, metadata={op_name="jit(scan)/jit(main)/while/body/cond/branch_0_fun/exp" source_file="/fs04/fc37/adam/projects/psilocybin-prl-analyses/src/prl_hgf/fitting/hierarchical.py" source_line=1011}
  get-tuple-element.18113 = f64[] get-tuple-element(loop_add_exponential_subtract_fusion), index=0, metadata={op_name="jit(scan)/jit(main)/while/body/cond/branch_0_fun/exp" source_file="/fs04/fc37/adam/projects/psilocybin-prl-analyses/src/prl_hgf/fitting/hierarchical.py" source_line=1011}
  ROOT tuple.618 = (f64[], f64[], s64[], f64[], f64[], /*index=5*/f64[120]{0}, f64[120]{0}, f64[120]{0}, s64[], f64[], /*index=10*/f64[120]{0}) tuple(get-tuple-element.18104, loop_add_fusion, loop_add_fusion.1, get-tuple-element.18107, get-tuple-element.18108, /*index=5*/get-tuple-element.18109, get-tuple-element.18110, get-tuple-element.18111, get-tuple-element.18112, get-tuple-element.18113, /*index=10*/get-tuple-element.18114)
} // region_55.8994

fused_add.3 {
  param_0.26 = s64[] parameter(0)
  constant_9060_1 = s64[] constant(1)
  ROOT add.3613.1 = s64[] add(param_0.26, constant_9060_1), metadata={op_name="jit(scan)/jit(main)/while/body/cond/branch_1_fun/add" source_file="/fs04/fc37/adam/projects/psilocybin-prl-analyses/src/prl_hgf/fitting/hierarchical.py" source_line=1011}
}

fused_add.4 {
  param_0.27 = s64[] parameter(0)
  constant_9060_2 = s64[] constant(1)
  ROOT add.3612.1 = s64[] add(param_0.27, constant_9060_2), metadata={op_name="jit(scan)/jit(main)/while/body/cond/branch_1_fun/add" source_file="/fs04/fc37/adam/projects/psilocybin-prl-analyses/src/prl_hgf/fitting/hierarchical.py" source_line=1011}
}

fused_add.2 {
  param_2.41 = s64[] parameter(2)
  convert.167.1 = f64[] convert(param_2.41), metadata={op_name="jit(scan)/jit(main)/while/body/cond/branch_1_fun/convert_element_type[new_dtype=float64 weak_type=True sharding=None]" source_file="/fs04/fc37/adam/projects/psilocybin-prl-analyses/src/prl_hgf/fitting/hierarchical.py" source_line=1011}
  constant_9057_1 = f64[] constant(-0.75)
  power.3.1 = f64[] power(convert.167.1, constant_9057_1), metadata={op_name="jit(scan)/jit(main)/while/body/cond/branch_1_fun/pow" source_file="/fs04/fc37/adam/projects/psilocybin-prl-analyses/src/prl_hgf/fitting/hierarchical.py" source_line=1011}
  param_1.43 = f64[] parameter(1)
  multiply.2779.1 = f64[] multiply(power.3.1, param_1.43), metadata={op_name="jit(scan)/jit(main)/while/body/cond/branch_1_fun/mul" source_file="/fs04/fc37/adam/projects/psilocybin-prl-analyses/src/prl_hgf/fitting/hierarchical.py" source_line=1011}
  constant_9056_2 = f64[] constant(1)
  subtract.215.1 = f64[] subtract(constant_9056_2, power.3.1), metadata={op_name="jit(scan)/jit(main)/while/body/cond/branch_1_fun/sub" source_file="/fs04/fc37/adam/projects/psilocybin-prl-analyses/src/prl_hgf/fitting/hierarchical.py" source_line=1011}
  param_0.18 = f64[] parameter(0)
  multiply.2780.1 = f64[] multiply(subtract.215.1, param_0.18), metadata={op_name="jit(scan)/jit(main)/while/body/cond/branch_1_fun/mul" source_file="/fs04/fc37/adam/projects/psilocybin-prl-analyses/src/prl_hgf/fitting/hierarchical.py" source_line=1011}
  ROOT add.3611.1 = f64[] add(multiply.2779.1, multiply.2780.1), metadata={op_name="jit(scan)/jit(main)/while/body/cond/branch_1_fun/add" source_file="/fs04/fc37/adam/projects/psilocybin-prl-analyses/src/prl_hgf/fitting/hierarchical.py" source_line=1011}
} // fused_add.2

fused_add_exponential_subtract.1 {
  param_0.3232 = f64[] parameter(0)
  param_1.4632 = s64[] parameter(1)
  convert.167.2.clone.1 = f64[] convert(param_1.4632), metadata={op_name="jit(scan)/jit(main)/while/body/cond/branch_1_fun/convert_element_type[new_dtype=float64 weak_type=True sharding=None]" source_file="/fs04/fc37/adam/projects/psilocybin-prl-analyses/src/prl_hgf/fitting/hierarchical.py" source_line=1011}
  sqrt.9.1.clone.1 = f64[] sqrt(convert.167.2.clone.1), metadata={op_name="jit(scan)/jit(main)/while/body/cond/branch_1_fun/sqrt" source_file="/fs04/fc37/adam/projects/psilocybin-prl-analyses/src/prl_hgf/fitting/hierarchical.py" source_line=1011}
  constant_994_1_clone_1 = f64[] constant(20)
  multiply.2776.1.clone.1 = f64[] multiply(sqrt.9.1.clone.1, constant_994_1_clone_1), metadata={op_name="jit(scan)/jit(main)/while/body/cond/branch_1_fun/div" source_file="/fs04/fc37/adam/projects/psilocybin-prl-analyses/src/prl_hgf/fitting/hierarchical.py" source_line=1011}
  constant_9056_1_clone_1 = f64[] constant(1)
  constant_9058_1_clone_1 = s64[] constant(10)
  add.3609.1.clone.1 = s64[] add(param_1.4632, constant_9058_1_clone_1), metadata={op_name="jit(scan)/jit(main)/while/body/cond/branch_1_fun/add" source_file="/fs04/fc37/adam/projects/psilocybin-prl-analyses/src/prl_hgf/fitting/hierarchical.py" source_line=1011}
  convert.168.1.clone.1 = f64[] convert(add.3609.1.clone.1), metadata={op_name="jit(scan)/jit(main)/while/body/cond/branch_1_fun/convert_element_type[new_dtype=float64 weak_type=True sharding=None]" source_file="/fs04/fc37/adam/projects/psilocybin-prl-analyses/src/prl_hgf/fitting/hierarchical.py" source_line=1011}
  divide.565.1.clone.1 = f64[] divide(constant_9056_1_clone_1, convert.168.1.clone.1), metadata={op_name="jit(scan)/jit(main)/while/body/cond/branch_1_fun/div" source_file="/fs04/fc37/adam/projects/psilocybin-prl-analyses/src/prl_hgf/fitting/hierarchical.py" source_line=1011}
  subtract.212.1.clone.1 = f64[] subtract(constant_9056_1_clone_1, divide.565.1.clone.1), metadata={op_name="jit(scan)/jit(main)/while/body/cond/branch_1_fun/sub" source_file="/fs04/fc37/adam/projects/psilocybin-prl-analyses/src/prl_hgf/fitting/hierarchical.py" source_line=1011}
  param_3.2904 = f64[] parameter(3)
  multiply.2777.1.clone.1 = f64[] multiply(subtract.212.1.clone.1, param_3.2904), metadata={op_name="jit(scan)/jit(main)/while/body/cond/branch_1_fun/mul" source_file="/fs04/fc37/adam/projects/psilocybin-prl-analyses/src/prl_hgf/fitting/hierarchical.py" source_line=1011}
  constant_9059_1_clone_1 = f64[] constant(0.9)
  param_2.3621 = f64[] parameter(2)
  subtract.213.1.clone.1 = f64[] subtract(constant_9059_1_clone_1, param_2.3621), metadata={op_name="jit(scan)/jit(main)/while/body/cond/branch_1_fun/sub" source_file="/fs04/fc37/adam/projects/psilocybin-prl-analyses/src/prl_hgf/fitting/hierarchical.py" source_line=1011}
  divide.566.1.clone.1 = f64[] divide(subtract.213.1.clone.1, convert.168.1.clone.1), metadata={op_name="jit(scan)/jit(main)/while/body/cond/branch_1_fun/div" source_file="/fs04/fc37/adam/projects/psilocybin-prl-analyses/src/prl_hgf/fitting/hierarchical.py" source_line=1011}
  add.3610.1.clone.1 = f64[] add(multiply.2777.1.clone.1, divide.566.1.clone.1), metadata={op_name="jit(scan)/jit(main)/while/body/cond/branch_1_fun/add" source_file="/fs04/fc37/adam/projects/psilocybin-prl-analyses/src/prl_hgf/fitting/hierarchical.py" source_line=1011}
  multiply.2778.1.clone.1 = f64[] multiply(multiply.2776.1.clone.1, add.3610.1.clone.1), metadata={op_name="jit(scan)/jit(main)/while/body/cond/branch_1_fun/mul" source_file="/fs04/fc37/adam/projects/psilocybin-prl-analyses/src/prl_hgf/fitting/hierarchical.py" source_line=1011}
  subtract.214.1.clone.1 = f64[] subtract(param_0.3232, multiply.2778.1.clone.1), metadata={op_name="jit(scan)/jit(main)/while/body/cond/branch_1_fun/sub" source_file="/fs04/fc37/adam/projects/psilocybin-prl-analyses/src/prl_hgf/fitting/hierarchical.py" source_line=1011}
  exponential.101.1 = f64[] exponential(subtract.214.1.clone.1), metadata={op_name="jit(scan)/jit(main)/while/body/cond/branch_1_fun/exp" source_file="/fs04/fc37/adam/projects/psilocybin-prl-analyses/src/prl_hgf/fitting/hierarchical.py" source_line=1011}
  ROOT tuple.504 = (f64[], f64[], f64[]) tuple(exponential.101.1, subtract.214.1.clone.1, add.3610.1.clone.1)
} // fused_add_exponential_subtract.1

fused_concatenate {
  param_0.13 = f64[120]{0} parameter(0)
  param_1.4628 = f64[20]{0} parameter(1)
  param_2.3614 = f64[20]{0} parameter(2)
  param_3.2898 = f64[20]{0} parameter(3)
  param_4.2160 = f64[20]{0} parameter(4)
  param_5.1803 = f64[20]{0} parameter(5)
  param_6.1447 = f64[20]{0} parameter(6)
  concatenate.36.6 = f64[120]{0} concatenate(param_1.4628, param_2.3614, param_3.2898, param_4.2160, param_5.1803, /*index=5*/param_6.1447), dimensions={0}, metadata={op_name="jit(scan)/jit(main)/while/body/cond/branch_1_fun/concatenate[dimension=0]" source_file="/fs04/fc37/adam/projects/psilocybin-prl-analyses/src/prl_hgf/fitting/hierarchical.py" source_line=1011}
  param_7.1215 = f64[120]{0} parameter(7)
  subtract.216.3 = f64[120]{0} subtract(concatenate.36.6, param_7.1215), metadata={op_name="jit(scan)/jit(main)/while/body/cond/branch_1_fun/sub" source_file="/fs04/fc37/adam/projects/psilocybin-prl-analyses/src/prl_hgf/fitting/hierarchical.py" source_line=1011}
  param_8.1137 = s64[] parameter(8)
  convert.169.1.clone.1 = f64[] convert(param_8.1137), metadata={op_name="jit(scan)/jit(main)/while/body/cond/branch_1_fun/convert_element_type[new_dtype=float64 weak_type=False sharding=None]" source_file="/fs04/fc37/adam/projects/psilocybin-prl-analyses/src/prl_hgf/fitting/hierarchical.py" source_line=1011}
  broadcast.1874.3.clone.1 = f64[120]{0} broadcast(convert.169.1.clone.1), dimensions={}, metadata={op_name="jit(scan)/jit(main)/while/body/cond/branch_1_fun/div" source_file="/fs04/fc37/adam/projects/psilocybin-prl-analyses/src/prl_hgf/fitting/hierarchical.py" source_line=1011}
  divide.567.3.clone.1 = f64[120]{0} divide(subtract.216.3, broadcast.1874.3.clone.1), metadata={op_name="jit(scan)/jit(main)/while/body/cond/branch_1_fun/div" source_file="/fs04/fc37/adam/projects/psilocybin-prl-analyses/src/prl_hgf/fitting/hierarchical.py" source_line=1011}
  add.3614.1.clone.1 = f64[120]{0} add(param_7.1215, divide.567.3.clone.1), metadata={op_name="jit(scan)/jit(main)/while/body/cond/branch_1_fun/add" source_file="/fs04/fc37/adam/projects/psilocybin-prl-analyses/src/prl_hgf/fitting/hierarchical.py" source_line=1011}
  subtract.217.3 = f64[120]{0} subtract(concatenate.36.6, add.3614.1.clone.1), metadata={op_name="jit(scan)/jit(main)/while/body/cond/branch_1_fun/sub" source_file="/fs04/fc37/adam/projects/psilocybin-prl-analyses/src/prl_hgf/fitting/hierarchical.py" source_line=1011}
  multiply.2781.1 = f64[120]{0} multiply(subtract.216.3, subtract.217.3), metadata={op_name="jit(scan)/jit(main)/while/body/cond/branch_1_fun/mul" source_file="/fs04/fc37/adam/projects/psilocybin-prl-analyses/src/prl_hgf/fitting/hierarchical.py" source_line=1011}
  add.3615.1 = f64[120]{0} add(param_0.13, multiply.2781.1), metadata={op_name="jit(scan)/jit(main)/while/body/cond/branch_1_fun/add" source_file="/fs04/fc37/adam/projects/psilocybin-prl-analyses/src/prl_hgf/fitting/hierarchical.py" source_line=1011}
  ROOT tuple.502 = (f64[120]{0}, f64[120]{0}) tuple(add.3615.1, add.3614.1.clone.1)
} // fused_concatenate

command_buffer.58 {
  p.622 = s64[] parameter(0)
  p.623 = (f64[20]{0}, f64[20]{0}, f64[20]{0}, f64[20]{0}, f64[20]{0}, /*index=5*/f64[20]{0}, s64[], f64[120]{0}, f64[120]{0}, f64[], /*index=10*/s64[], f64[], f64[], f64[], f64[], /*index=15*/f64[120]{0}, f64[120]{0}) parameter(1)
  loop_add_fusion.3 = s64[] fusion(p.622), kind=kLoop, calls=fused_add.3, metadata={op_name="jit(scan)/jit(main)/while/body/cond/branch_1_fun/add" source_file="/fs04/fc37/adam/projects/psilocybin-prl-analyses/src/prl_hgf/fitting/hierarchical.py" source_line=1011 deduplicated_name="loop_add_fusion.1"}
  get-tuple-element.9052.0 = f64[] get-tuple-element(p.623), index=14
  get-tuple-element.9051.0 = f64[] get-tuple-element(p.623), index=13
  get-tuple-element.9047.0 = f64[] get-tuple-element(p.623), index=9
  get-tuple-element.9049.0 = f64[] get-tuple-element(p.623), index=11
  get-tuple-element.9048.0 = s64[] get-tuple-element(p.623), index=10
  loop_add_fusion.4 = s64[] fusion(get-tuple-element.9048.0), kind=kLoop, calls=fused_add.4, metadata={op_name="jit(scan)/jit(main)/while/body/cond/branch_1_fun/add" source_file="/fs04/fc37/adam/projects/psilocybin-prl-analyses/src/prl_hgf/fitting/hierarchical.py" source_line=1011 deduplicated_name="loop_add_fusion.1"}
  loop_add_fusion.2 = f64[] fusion(get-tuple-element.9052.0, get-tuple-element.9051.0, get-tuple-element.9048.0), kind=kLoop, calls=fused_add.2, metadata={op_name="jit(scan)/jit(main)/while/body/cond/branch_1_fun/add" source_file="/fs04/fc37/adam/projects/psilocybin-prl-analyses/src/prl_hgf/fitting/hierarchical.py" source_line=1011 deduplicated_name="loop_add_fusion"}
  get-tuple-element.18119 = f64[] get-tuple-element(p.623), index=12
  get-tuple-element.18125 = f64[120]{0} get-tuple-element(p.623), index=16
  get-tuple-element.9046.0 = f64[120]{0} get-tuple-element(p.623), index=8
  get-tuple-element.9043.0 = f64[20]{0} get-tuple-element(p.623), index=5
  get-tuple-element.9042.0 = f64[20]{0} get-tuple-element(p.623), index=4
  get-tuple-element.9041.0 = f64[20]{0} get-tuple-element(p.623), index=3
  get-tuple-element.9040.0 = f64[20]{0} get-tuple-element(p.623), index=2
  get-tuple-element.9039.0 = f64[20]{0} get-tuple-element(p.623), index=1
  get-tuple-element.9038.0 = f64[20]{0} get-tuple-element(p.623), index=0
  get-tuple-element.9045.0 = f64[120]{0} get-tuple-element(p.623), index=7
  get-tuple-element.18120 = f64[120]{0} get-tuple-element(p.623), index=15
  loop_add_exponential_subtract_fusion.1 = (f64[], f64[], f64[]) fusion(get-tuple-element.18119, get-tuple-element.9048.0, get-tuple-element.9047.0, get-tuple-element.9049.0), kind=kLoop, calls=fused_add_exponential_subtract.1, metadata={op_name="jit(scan)/jit(main)/while/body/cond/branch_1_fun/exp" source_file="/fs04/fc37/adam/projects/psilocybin-prl-analyses/src/prl_hgf/fitting/hierarchical.py" source_line=1011 deduplicated_name="loop_add_exponential_subtract_fusion"}
  get-tuple-element.18118 = f64[] get-tuple-element(loop_add_exponential_subtract_fusion.1), index=2, metadata={op_name="jit(scan)/jit(main)/while/body/cond/branch_1_fun/exp" source_file="/fs04/fc37/adam/projects/psilocybin-prl-analyses/src/prl_hgf/fitting/hierarchical.py" source_line=1011}
  get-tuple-element.18115 = f64[] get-tuple-element(loop_add_exponential_subtract_fusion.1), index=1, metadata={op_name="jit(scan)/jit(main)/while/body/cond/branch_1_fun/exp" source_file="/fs04/fc37/adam/projects/psilocybin-prl-analyses/src/prl_hgf/fitting/hierarchical.py" source_line=1011}
  get-tuple-element.18124 = f64[] get-tuple-element(loop_add_exponential_subtract_fusion.1), index=0, metadata={op_name="jit(scan)/jit(main)/while/body/cond/branch_1_fun/exp" source_file="/fs04/fc37/adam/projects/psilocybin-prl-analyses/src/prl_hgf/fitting/hierarchical.py" source_line=1011}
  loop_concatenate_fusion = (f64[120]{0}, f64[120]{0}) fusion(get-tuple-element.9046.0, get-tuple-element.9038.0, get-tuple-element.9039.0, get-tuple-element.9040.0, get-tuple-element.9041.0, /*index=5*/get-tuple-element.9042.0, get-tuple-element.9043.0, get-tuple-element.9045.0, loop_add_fusion.3), kind=kLoop, calls=fused_concatenate, metadata={op_name="jit(scan)/jit(main)/while/body/cond/branch_1_fun/add" source_file="/fs04/fc37/adam/projects/psilocybin-prl-analyses/src/prl_hgf/fitting/hierarchical.py" source_line=1011}
  ROOT tuple.692 = (s64[], s64[], f64[], f64[], f64[120]{0}, /*index=5*/f64[120]{0}, f64[], f64[], f64[], (f64[120]{0}, f64[120]{0})) tuple(loop_add_fusion.3, loop_add_fusion.4, loop_add_fusion.2, get-tuple-element.18119, get-tuple-element.18125, /*index=5*/get-tuple-element.18120, get-tuple-element.18118, get-tuple-element.18115, get-tuple-element.18124, loop_concatenate_fusion)
} // command_buffer.58

region_56.9036 {
  arg_tuple.9037.0 = (f64[20]{0}, f64[20]{0}, f64[20]{0}, f64[20]{0}, f64[20]{0}, /*index=5*/f64[20]{0}, s64[], f64[120]{0}, f64[120]{0}, f64[], /*index=10*/s64[], f64[], f64[], f64[], f64[], /*index=15*/f64[120]{0}, f64[120]{0}) parameter(0)
  get-tuple-element.9044.0 = s64[] get-tuple-element(arg_tuple.9037.0), index=6
  call.32 = (s64[], s64[], f64[], f64[], f64[120]{0}, /*index=5*/f64[120]{0}, f64[], f64[], f64[], (f64[120]{0}, f64[120]{0})) call(get-tuple-element.9044.0, arg_tuple.9037.0), to_apply=command_buffer.58
  get-tuple-element.20963 = s64[] get-tuple-element(call.32), index=0
  get-tuple-element.20964 = s64[] get-tuple-element(call.32), index=1
  get-tuple-element.20965 = f64[] get-tuple-element(call.32), index=2
  get-tuple-element.20966 = f64[] get-tuple-element(call.32), index=3
  get-tuple-element.20967 = f64[120]{0} get-tuple-element(call.32), index=4
  get-tuple-element.20968 = f64[120]{0} get-tuple-element(call.32), index=5
  get-tuple-element.20969 = f64[] get-tuple-element(call.32), index=6
  get-tuple-element.20970 = f64[] get-tuple-element(call.32), index=7
  get-tuple-element.20971 = f64[] get-tuple-element(call.32), index=8
  get-tuple-element.20972 = (f64[120]{0}, f64[120]{0}) get-tuple-element(call.32), index=9
  get-tuple-element.18121 = f64[120]{0} get-tuple-element(get-tuple-element.20972), index=1, metadata={op_name="jit(scan)/jit(main)/while/body/cond/branch_1_fun/add" source_file="/fs04/fc37/adam/projects/psilocybin-prl-analyses/src/prl_hgf/fitting/hierarchical.py" source_line=1011}
  get-tuple-element.18122 = f64[120]{0} get-tuple-element(get-tuple-element.20972), index=0, metadata={op_name="jit(scan)/jit(main)/while/body/cond/branch_1_fun/add" source_file="/fs04/fc37/adam/projects/psilocybin-prl-analyses/src/prl_hgf/fitting/hierarchical.py" source_line=1011}
  ROOT tuple.619 = (f64[], f64[], s64[], f64[], f64[], /*index=5*/f64[120]{0}, f64[120]{0}, f64[120]{0}, s64[], f64[], /*index=10*/f64[120]{0}) tuple(get-tuple-element.20970, get-tuple-element.20965, get-tuple-element.20964, get-tuple-element.20969, get-tuple-element.20966, /*index=5*/get-tuple-element.20968, get-tuple-element.18121, get-tuple-element.18122, get-tuple-element.20963, get-tuple-element.20971, /*index=10*/get-tuple-element.20967)
} // region_56.9036

wrapped_copy_computation.553 {
  param_0.3919 = f64[] parameter(0)
  ROOT copy.2397 = f64[] copy(param_0.3919)
}

wrapped_copy_computation.554 {
  param_0.3920 = f64[120]{0} parameter(0)
  ROOT copy.2398 = f64[120]{0} copy(param_0.3920)
}

wrapped_copy_computation.555 {
  param_0.3921 = s64[] parameter(0)
  ROOT copy.2399 = s64[] copy(param_0.3921)
}

region_57.9094 {
  arg_tuple.9095.0 = (f64[], f64[], s64[], f64[], f64[], /*index=5*/f64[120]{0}, f64[120]{0}, f64[120]{0}, s64[], f64[], /*index=10*/f64[120]{0}) parameter(0)
  get-tuple-element.18135 = f64[] get-tuple-element(arg_tuple.9095.0), index=9
  get-tuple-element.18134 = s64[] get-tuple-element(arg_tuple.9095.0), index=8
  wrapped_copy.555 = s64[] fusion(get-tuple-element.18134), kind=kLoop, calls=wrapped_copy_computation.555
  get-tuple-element.18130 = f64[] get-tuple-element(arg_tuple.9095.0), index=4
  get-tuple-element.18129 = f64[] get-tuple-element(arg_tuple.9095.0), index=3
  get-tuple-element.18128 = s64[] get-tuple-element(arg_tuple.9095.0), index=2
  get-tuple-element.18127 = f64[] get-tuple-element(arg_tuple.9095.0), index=1
  wrapped_copy.553 = f64[] fusion(get-tuple-element.18127), kind=kLoop, calls=wrapped_copy_computation.553
  get-tuple-element.18126 = f64[] get-tuple-element(arg_tuple.9095.0), index=0
  get-tuple-element.18136 = f64[120]{0} get-tuple-element(arg_tuple.9095.0), index=10
  get-tuple-element.18133 = f64[120]{0} get-tuple-element(arg_tuple.9095.0), index=7
  get-tuple-element.18132 = f64[120]{0} get-tuple-element(arg_tuple.9095.0), index=6
  get-tuple-element.18131 = f64[120]{0} get-tuple-element(arg_tuple.9095.0), index=5
  wrapped_copy.554 = f64[120]{0} fusion(get-tuple-element.18133), kind=kLoop, calls=wrapped_copy_computation.554
  ROOT tuple.620 = (f64[], f64[], s64[], f64[], f64[], /*index=5*/f64[120]{0}, f64[120]{0}, f64[120]{0}, s64[], f64[], /*index=10*/f64[120]{0}) tuple(get-tuple-element.18126, wrapped_copy.553, get-tuple-element.18128, get-tuple-element.18129, get-tuple-element.18130, /*index=5*/get-tuple-element.18131, get-tuple-element.18132, wrapped_copy.554, wrapped_copy.555, get-tuple-element.18135, /*index=10*/get-tuple-element.18136)
} // region_57.9094

wrapped_copy_computation.558 {
  param_0.3924 = s64[] parameter(0)
  ROOT copy.2402 = s64[] copy(param_0.3924)
}

wrapped_copy_computation.557 {
  param_0.3923 = f64[] parameter(0)
  ROOT copy.2401 = f64[] copy(param_0.3923)
}

wrapped_copy_computation.559 {
  param_0.3925 = f64[] parameter(0)
  ROOT copy.2403 = f64[] copy(param_0.3925)
}

wrapped_copy_computation.561 {
  param_0.3927 = s64[] parameter(0)
  ROOT copy.2405 = s64[] copy(param_0.3927)
}

wrapped_copy_computation.556 {
  param_0.3922 = f64[] parameter(0)
  ROOT copy.2400 = f64[] copy(param_0.3922)
}

fused_exponential_log {
  param_0.3233 = f64[] parameter(0)
  exponential.102.1 = f64[] exponential(param_0.3233), metadata={op_name="jit(scan)/jit(main)/while/body/cond/branch_1_fun/exp" source_file="/fs04/fc37/adam/projects/psilocybin-prl-analyses/src/prl_hgf/fitting/hierarchical.py" source_line=1011}
  constant_9117_1 = f64[] constant(10)
  multiply.2782.1 = f64[] multiply(exponential.102.1, constant_9117_1), metadata={op_name="jit(scan)/jit(main)/while/body/cond/branch_1_fun/mul" source_file="/fs04/fc37/adam/projects/psilocybin-prl-analyses/src/prl_hgf/fitting/hierarchical.py" source_line=1011}
  log.5.1 = f64[] log(multiply.2782.1), metadata={op_name="jit(scan)/jit(main)/while/body/cond/branch_1_fun/log" source_file="/fs04/fc37/adam/projects/psilocybin-prl-analyses/src/prl_hgf/fitting/hierarchical.py" source_line=1011}
  ROOT tuple.505 = (f64[], f64[]) tuple(log.5.1, exponential.102.1)
} // fused_exponential_log

fused_add.5 {
  param_1.66 = s64[] parameter(1)
  convert.170.3 = f64[] convert(param_1.66), metadata={op_name="jit(scan)/jit(main)/while/body/cond/branch_1_fun/convert_element_type[new_dtype=float64 weak_type=True sharding=None]" source_file="/fs04/fc37/adam/projects/psilocybin-prl-analyses/src/prl_hgf/fitting/hierarchical.py" source_line=1011}
  constant_9120_1 = s64[] constant(5)
  add.3616.1 = s64[] add(param_1.66, constant_9120_1), metadata={op_name="jit(scan)/jit(main)/while/body/cond/branch_1_fun/add" source_file="/fs04/fc37/adam/projects/psilocybin-prl-analyses/src/prl_hgf/fitting/hierarchical.py" source_line=1011}
  convert.171.2 = f64[] convert(add.3616.1), metadata={op_name="jit(scan)/jit(main)/while/body/cond/branch_1_fun/convert_element_type[new_dtype=float64 weak_type=True sharding=None]" source_file="/fs04/fc37/adam/projects/psilocybin-prl-analyses/src/prl_hgf/fitting/hierarchical.py" source_line=1011}
  divide.568.3 = f64[] divide(convert.170.3, convert.171.2), metadata={op_name="jit(scan)/jit(main)/while/body/cond/branch_1_fun/div" source_file="/fs04/fc37/adam/projects/psilocybin-prl-analyses/src/prl_hgf/fitting/hierarchical.py" source_line=1011}
  broadcast.1875.3 = f64[120]{0} broadcast(divide.568.3), dimensions={}, metadata={op_name="jit(scan)/jit(main)/while/body/cond/branch_1_fun/mul" source_file="/fs04/fc37/adam/projects/psilocybin-prl-analyses/src/prl_hgf/fitting/hierarchical.py" source_line=1011}
  param_0.43 = f64[120]{0} parameter(0)
  constant_1163_1 = s64[] constant(-1)
  add.3617.1 = s64[] add(param_1.66, constant_1163_1), metadata={op_name="jit(scan)/jit(main)/while/body/cond/branch_1_fun/sub" source_file="/fs04/fc37/adam/projects/psilocybin-prl-analyses/src/prl_hgf/fitting/hierarchical.py" source_line=1011}
  convert.172.1 = f64[] convert(add.3617.1), metadata={op_name="jit(scan)/jit(main)/while/body/cond/branch_1_fun/convert_element_type[new_dtype=float64 weak_type=False sharding=None]" source_file="/fs04/fc37/adam/projects/psilocybin-prl-analyses/src/prl_hgf/fitting/hierarchical.py" source_line=1011}
  broadcast.1876.3 = f64[120]{0} broadcast(convert.172.1), dimensions={}, metadata={op_name="jit(scan)/jit(main)/while/body/cond/branch_1_fun/div" source_file="/fs04/fc37/adam/projects/psilocybin-prl-analyses/src/prl_hgf/fitting/hierarchical.py" source_line=1011}
  divide.569.3 = f64[120]{0} divide(param_0.43, broadcast.1876.3), metadata={op_name="jit(scan)/jit(main)/while/body/cond/branch_1_fun/div" source_file="/fs04/fc37/adam/projects/psilocybin-prl-analyses/src/prl_hgf/fitting/hierarchical.py" source_line=1011}
  multiply.2783.3 = f64[120]{0} multiply(broadcast.1875.3, divide.569.3), metadata={op_name="jit(scan)/jit(main)/while/body/cond/branch_1_fun/mul" source_file="/fs04/fc37/adam/projects/psilocybin-prl-analyses/src/prl_hgf/fitting/hierarchical.py" source_line=1011}
  constant_9119_1 = f64[] constant(5)
  divide.570.3 = f64[] divide(constant_9119_1, convert.171.2), metadata={op_name="jit(scan)/jit(main)/while/body/cond/branch_1_fun/div" source_file="/fs04/fc37/adam/projects/psilocybin-prl-analyses/src/prl_hgf/fitting/hierarchical.py" source_line=1011}
  constant_9118_1 = f64[] constant(0.001)
  multiply.2785.3 = f64[] multiply(divide.570.3, constant_9118_1), metadata={op_name="jit(scan)/jit(main)/while/body/cond/branch_1_fun/mul" source_file="/fs04/fc37/adam/projects/psilocybin-prl-analyses/src/prl_hgf/fitting/hierarchical.py" source_line=1011}
  broadcast.1877.1 = f64[120]{0} broadcast(multiply.2785.3), dimensions={}, metadata={op_name="jit(scan)/jit(main)/while/body/cond/branch_1_fun/add" source_file="/fs04/fc37/adam/projects/psilocybin-prl-analyses/src/prl_hgf/fitting/hierarchical.py" source_line=1011}
  ROOT add.3618.1 = f64[120]{0} add(multiply.2783.3, broadcast.1877.1), metadata={op_name="jit(scan)/jit(main)/while/body/cond/branch_1_fun/add" source_file="/fs04/fc37/adam/projects/psilocybin-prl-analyses/src/prl_hgf/fitting/hierarchical.py" source_line=1011}
} // fused_add.5

fused_broadcast {
  constant_9114_1 = f64[] constant(0)
  ROOT broadcast.1878.1 = f64[120]{0} broadcast(constant_9114_1), dimensions={}
}

wrapped_copy_computation.560 {
  param_0.3926 = f64[120]{0} parameter(0)
  ROOT copy.2404 = f64[120]{0} copy(param_0.3926)
}

wrapped_copy_computation.562 {
  param_0.3928 = f64[120]{0} parameter(0)
  ROOT copy.2406 = f64[120]{0} copy(param_0.3928)
}

command_buffer.56 {
  p.614 = s64[] parameter(0)
  p.615 = f64[] parameter(1)
  p.616 = s64[] parameter(2)
  p.617 = (s64[], f64[120]{0}, f64[]) parameter(3)
  wrapped_copy.558 = s64[] fusion(p.614), kind=kLoop, calls=wrapped_copy_computation.558
  wrapped_copy.557 = f64[] fusion(p.615), kind=kLoop, calls=wrapped_copy_computation.557
  wrapped_copy.559 = f64[] fusion(wrapped_copy.557), kind=kLoop, calls=wrapped_copy_computation.559
  wrapped_copy.561 = s64[] fusion(p.616), kind=kLoop, calls=wrapped_copy_computation.561
  get-tuple-element.9110.0 = s64[] get-tuple-element(p.617), index=0
  get-tuple-element.18137 = f64[] get-tuple-element(p.617), index=2, metadata={op_name="jit(scan)/jit(main)/while/body/cond/branch_1_fun/log" source_file="/fs04/fc37/adam/projects/psilocybin-prl-analyses/src/prl_hgf/fitting/hierarchical.py" source_line=1011}
  wrapped_copy.556 = f64[] fusion(get-tuple-element.18137), kind=kLoop, calls=wrapped_copy_computation.556
  get-tuple-element.9111.0 = f64[120]{0} get-tuple-element(p.617), index=1
  loop_exponential_log_fusion = (f64[], f64[]) fusion(get-tuple-element.18137), kind=kLoop, calls=fused_exponential_log, metadata={op_name="jit(scan)/jit(main)/while/body/cond/branch_1_fun/log" source_file="/fs04/fc37/adam/projects/psilocybin-prl-analyses/src/prl_hgf/fitting/hierarchical.py" source_line=1011}
  get-tuple-element.18146 = f64[] get-tuple-element(loop_exponential_log_fusion), index=1, metadata={op_name="jit(scan)/jit(main)/while/body/cond/branch_1_fun/log" source_file="/fs04/fc37/adam/projects/psilocybin-prl-analyses/src/prl_hgf/fitting/hierarchical.py" source_line=1011}
  get-tuple-element.18141 = f64[] get-tuple-element(loop_exponential_log_fusion), index=0, metadata={op_name="jit(scan)/jit(main)/while/body/cond/branch_1_fun/log" source_file="/fs04/fc37/adam/projects/psilocybin-prl-analyses/src/prl_hgf/fitting/hierarchical.py" source_line=1011}
  loop_add_fusion.5 = f64[120]{0} fusion(get-tuple-element.9111.0, get-tuple-element.9110.0), kind=kLoop, calls=fused_add.5, metadata={op_name="jit(scan)/jit(main)/while/body/cond/branch_1_fun/add" source_file="/fs04/fc37/adam/projects/psilocybin-prl-analyses/src/prl_hgf/fitting/hierarchical.py" source_line=1011}
  loop_broadcast_fusion = f64[120]{0} fusion(), kind=kLoop, calls=fused_broadcast
  wrapped_copy.560 = f64[120]{0} fusion(loop_broadcast_fusion), kind=kLoop, calls=wrapped_copy_computation.560
  wrapped_copy.562 = f64[120]{0} fusion(loop_add_fusion.5), kind=kLoop, calls=wrapped_copy_computation.562
  ROOT tuple.690 = (s64[], f64[], f64[], s64[], f64[], /*index=5*/f64[], f64[], f64[120]{0}, f64[120]{0}, f64[120]{0}, /*index=10*/f64[120]{0}) tuple(wrapped_copy.558, wrapped_copy.557, wrapped_copy.559, wrapped_copy.561, wrapped_copy.556, /*index=5*/get-tuple-element.18146, get-tuple-element.18141, loop_add_fusion.5, loop_broadcast_fusion, wrapped_copy.560, /*index=10*/wrapped_copy.562)
} // command_buffer.56

region_58.9108 {
  constant_9121_0 = s64[] constant(1)
  constant_9114_0 = f64[] constant(0)
  constant_9113_0 = s64[] constant(0)
  arg_tuple.9109.0 = (s64[], f64[120]{0}, f64[]) parameter(0)
  call.31 = (s64[], f64[], f64[], s64[], f64[], /*index=5*/f64[], f64[], f64[120]{0}, f64[120]{0}, f64[120]{0}, /*index=10*/f64[120]{0}) call(constant_9121_0, constant_9114_0, constant_9113_0, arg_tuple.9109.0), to_apply=command_buffer.56
  get-tuple-element.20946 = s64[] get-tuple-element(call.31), index=0
  get-tuple-element.20947 = f64[] get-tuple-element(call.31), index=1
  get-tuple-element.20948 = f64[] get-tuple-element(call.31), index=2
  get-tuple-element.20949 = s64[] get-tuple-element(call.31), index=3
  get-tuple-element.20950 = f64[] get-tuple-element(call.31), index=4
  get-tuple-element.20951 = f64[] get-tuple-element(call.31), index=5
  get-tuple-element.20952 = f64[] get-tuple-element(call.31), index=6
  get-tuple-element.20953 = f64[120]{0} get-tuple-element(call.31), index=7
  get-tuple-element.20954 = f64[120]{0} get-tuple-element(call.31), index=8
  get-tuple-element.20955 = f64[120]{0} get-tuple-element(call.31), index=9
  get-tuple-element.20956 = f64[120]{0} get-tuple-element(call.31), index=10
  ROOT tuple.621 = (f64[], f64[], s64[], f64[], f64[], /*index=5*/f64[120]{0}, f64[120]{0}, f64[120]{0}, s64[], f64[], /*index=10*/f64[120]{0}) tuple(get-tuple-element.20950, get-tuple-element.20947, get-tuple-element.20946, get-tuple-element.20948, get-tuple-element.20952, /*index=5*/get-tuple-element.20953, get-tuple-element.20954, get-tuple-element.20955, get-tuple-element.20949, get-tuple-element.20951, /*index=10*/get-tuple-element.20956)
} // region_58.9108

wrapped_copy_computation.73 {
  param_0.3425 = f64[] parameter(0)
  ROOT copy.1917 = f64[] copy(param_0.3425)
}

wrapped_copy_computation.61 {
  param_0.3413 = f64[20]{0} parameter(0)
  ROOT copy.1905 = f64[20]{0} copy(param_0.3413)
}

wrapped_copy_computation.62 {
  param_0.3414 = f64[20]{0} parameter(0)
  ROOT copy.1906 = f64[20]{0} copy(param_0.3414)
}

wrapped_copy_computation.63 {
  param_0.3415 = f64[20]{0} parameter(0)
  ROOT copy.1907 = f64[20]{0} copy(param_0.3415)
}

wrapped_copy_computation.64 {
  param_0.3416 = f64[20]{0} parameter(0)
  ROOT copy.1908 = f64[20]{0} copy(param_0.3416)
}

wrapped_copy_computation.65 {
  param_0.3417 = f64[20]{0} parameter(0)
  ROOT copy.1909 = f64[20]{0} copy(param_0.3417)
}

wrapped_copy_computation.66 {
  param_0.3418 = f64[20]{0} parameter(0)
  ROOT copy.1910 = f64[20]{0} copy(param_0.3418)
}

wrapped_copy_computation.67 {
  param_0.3419 = f64[20]{0} parameter(0)
  ROOT copy.1911 = f64[20]{0} copy(param_0.3419)
}

wrapped_copy_computation.68 {
  param_0.3420 = f64[20]{0} parameter(0)
  ROOT copy.1912 = f64[20]{0} copy(param_0.3420)
}

wrapped_copy_computation.69 {
  param_0.3421 = f64[20]{0} parameter(0)
  ROOT copy.1913 = f64[20]{0} copy(param_0.3421)
}

wrapped_copy_computation.70 {
  param_0.3422 = f64[20]{0} parameter(0)
  ROOT copy.1914 = f64[20]{0} copy(param_0.3422)
}

wrapped_copy_computation.71 {
  param_0.3423 = f64[20]{0} parameter(0)
  ROOT copy.1915 = f64[20]{0} copy(param_0.3423)
}

wrapped_copy_computation.72 {
  param_0.3424 = f64[20]{0} parameter(0)
  ROOT copy.1916 = f64[20]{0} copy(param_0.3424)
}

wrapped_copy_computation.74 {
  param_0.3426 = f64[20]{0} parameter(0)
  ROOT copy.1918 = f64[20]{0} copy(param_0.3426)
}

wrapped_copy_computation.75 {
  param_0.3427 = f64[20]{0} parameter(0)
  ROOT copy.1919 = f64[20]{0} copy(param_0.3427)
}

wrapped_copy_computation.76 {
  param_0.3428 = f64[20]{0} parameter(0)
  ROOT copy.1920 = f64[20]{0} copy(param_0.3428)
}

wrapped_copy_computation.77 {
  param_0.3429 = f64[20]{0} parameter(0)
  ROOT copy.1921 = f64[20]{0} copy(param_0.3429)
}

wrapped_copy_computation.78 {
  param_0.3430 = f64[20]{0} parameter(0)
  ROOT copy.1922 = f64[20]{0} copy(param_0.3430)
}

wrapped_copy_computation.79 {
  param_0.3431 = f64[20]{0} parameter(0)
  ROOT copy.1923 = f64[20]{0} copy(param_0.3431)
}

command_buffer.54 {
  p.610 = f64[] parameter(0)
  p.611 = (f64[20]{0}, f64[20]{0}, f64[20]{0}, f64[20]{0}, f64[20]{0}, /*index=5*/f64[20]{0}, f64[20]{0}, f64[20]{0}, f64[20]{0}, f64[20]{0}, /*index=10*/f64[20]{0}, f64[20]{0}, f64[], f64[20]{0}, f64[20]{0}, /*index=15*/f64[20]{0}, f64[20]{0}, f64[20]{0}, f64[20]{0}) parameter(1)
  wrapped_copy.73 = f64[] fusion(p.610), kind=kLoop, calls=wrapped_copy_computation.73
  get-tuple-element.17330 = f64[20]{0} get-tuple-element(p.611), index=18
  get-tuple-element.17329 = f64[20]{0} get-tuple-element(p.611), index=17
  get-tuple-element.17328 = f64[20]{0} get-tuple-element(p.611), index=16
  get-tuple-element.17327 = f64[20]{0} get-tuple-element(p.611), index=15
  get-tuple-element.17326 = f64[20]{0} get-tuple-element(p.611), index=14
  get-tuple-element.17325 = f64[20]{0} get-tuple-element(p.611), index=13
  get-tuple-element.17323 = f64[20]{0} get-tuple-element(p.611), index=11
  get-tuple-element.17322 = f64[20]{0} get-tuple-element(p.611), index=10
  get-tuple-element.17321 = f64[20]{0} get-tuple-element(p.611), index=9
  get-tuple-element.17320 = f64[20]{0} get-tuple-element(p.611), index=8
  get-tuple-element.17319 = f64[20]{0} get-tuple-element(p.611), index=7
  get-tuple-element.17318 = f64[20]{0} get-tuple-element(p.611), index=6
  get-tuple-element.17317 = f64[20]{0} get-tuple-element(p.611), index=5
  get-tuple-element.17316 = f64[20]{0} get-tuple-element(p.611), index=4
  get-tuple-element.17315 = f64[20]{0} get-tuple-element(p.611), index=3
  get-tuple-element.17314 = f64[20]{0} get-tuple-element(p.611), index=2
  get-tuple-element.17313 = f64[20]{0} get-tuple-element(p.611), index=1
  get-tuple-element.17312 = f64[20]{0} get-tuple-element(p.611), index=0
  wrapped_copy.61 = f64[20]{0} fusion(get-tuple-element.17312), kind=kLoop, calls=wrapped_copy_computation.61
  wrapped_copy.62 = f64[20]{0} fusion(get-tuple-element.17313), kind=kLoop, calls=wrapped_copy_computation.62
  wrapped_copy.63 = f64[20]{0} fusion(get-tuple-element.17314), kind=kLoop, calls=wrapped_copy_computation.63
  wrapped_copy.64 = f64[20]{0} fusion(get-tuple-element.17315), kind=kLoop, calls=wrapped_copy_computation.64
  wrapped_copy.65 = f64[20]{0} fusion(get-tuple-element.17316), kind=kLoop, calls=wrapped_copy_computation.65
  wrapped_copy.66 = f64[20]{0} fusion(get-tuple-element.17317), kind=kLoop, calls=wrapped_copy_computation.66
  wrapped_copy.67 = f64[20]{0} fusion(get-tuple-element.17318), kind=kLoop, calls=wrapped_copy_computation.67
  wrapped_copy.68 = f64[20]{0} fusion(get-tuple-element.17319), kind=kLoop, calls=wrapped_copy_computation.68
  wrapped_copy.69 = f64[20]{0} fusion(get-tuple-element.17320), kind=kLoop, calls=wrapped_copy_computation.69
  wrapped_copy.70 = f64[20]{0} fusion(get-tuple-element.17321), kind=kLoop, calls=wrapped_copy_computation.70
  wrapped_copy.71 = f64[20]{0} fusion(get-tuple-element.17322), kind=kLoop, calls=wrapped_copy_computation.71
  wrapped_copy.72 = f64[20]{0} fusion(get-tuple-element.17323), kind=kLoop, calls=wrapped_copy_computation.72
  wrapped_copy.74 = f64[20]{0} fusion(get-tuple-element.17325), kind=kLoop, calls=wrapped_copy_computation.74
  wrapped_copy.75 = f64[20]{0} fusion(get-tuple-element.17326), kind=kLoop, calls=wrapped_copy_computation.75
  wrapped_copy.76 = f64[20]{0} fusion(get-tuple-element.17327), kind=kLoop, calls=wrapped_copy_computation.76
  wrapped_copy.77 = f64[20]{0} fusion(get-tuple-element.17328), kind=kLoop, calls=wrapped_copy_computation.77
  wrapped_copy.78 = f64[20]{0} fusion(get-tuple-element.17329), kind=kLoop, calls=wrapped_copy_computation.78
  wrapped_copy.79 = f64[20]{0} fusion(get-tuple-element.17330), kind=kLoop, calls=wrapped_copy_computation.79
  ROOT tuple.688 = (f64[], f64[20]{0}, f64[20]{0}, f64[20]{0}, f64[20]{0}, /*index=5*/f64[20]{0}, f64[20]{0}, f64[20]{0}, f64[20]{0}, f64[20]{0}, /*index=10*/f64[20]{0}, f64[20]{0}, f64[20]{0}, f64[20]{0}, f64[20]{0}, /*index=15*/f64[20]{0}, f64[20]{0}, f64[20]{0}, f64[20]{0}) tuple(wrapped_copy.73, wrapped_copy.61, wrapped_copy.62, wrapped_copy.63, wrapped_copy.64, /*index=5*/wrapped_copy.65, wrapped_copy.66, wrapped_copy.67, wrapped_copy.68, wrapped_copy.69, /*index=10*/wrapped_copy.70, wrapped_copy.71, wrapped_copy.72, wrapped_copy.74, wrapped_copy.75, /*index=15*/wrapped_copy.76, wrapped_copy.77, wrapped_copy.78, wrapped_copy.79)
} // command_buffer.54

region_2.1157.clone {
  arg_tuple.83.0 = (f64[20]{0}, f64[20]{0}, f64[20]{0}, f64[20]{0}, f64[20]{0}, /*index=5*/f64[20]{0}, f64[20]{0}, f64[20]{0}, f64[20]{0}, f64[20]{0}, /*index=10*/f64[20]{0}, f64[20]{0}, f64[], f64[20]{0}, f64[20]{0}, /*index=15*/f64[20]{0}, f64[20]{0}, f64[20]{0}, f64[20]{0}) parameter(0)
  get-tuple-element.17324 = f64[] get-tuple-element(arg_tuple.83.0), index=12
  call.30 = (f64[], f64[20]{0}, f64[20]{0}, f64[20]{0}, f64[20]{0}, /*index=5*/f64[20]{0}, f64[20]{0}, f64[20]{0}, f64[20]{0}, f64[20]{0}, /*index=10*/f64[20]{0}, f64[20]{0}, f64[20]{0}, f64[20]{0}, f64[20]{0}, /*index=15*/f64[20]{0}, f64[20]{0}, f64[20]{0}, f64[20]{0}) call(get-tuple-element.17324, arg_tuple.83.0), to_apply=command_buffer.54
  get-tuple-element.20924 = f64[] get-tuple-element(call.30), index=0
  get-tuple-element.20925 = f64[20]{0} get-tuple-element(call.30), index=1
  get-tuple-element.20926 = f64[20]{0} get-tuple-element(call.30), index=2
  get-tuple-element.20927 = f64[20]{0} get-tuple-element(call.30), index=3
  get-tuple-element.20928 = f64[20]{0} get-tuple-element(call.30), index=4
  get-tuple-element.20929 = f64[20]{0} get-tuple-element(call.30), index=5
  get-tuple-element.20930 = f64[20]{0} get-tuple-element(call.30), index=6
  get-tuple-element.20931 = f64[20]{0} get-tuple-element(call.30), index=7
  get-tuple-element.20932 = f64[20]{0} get-tuple-element(call.30), index=8
  get-tuple-element.20933 = f64[20]{0} get-tuple-element(call.30), index=9
  get-tuple-element.20934 = f64[20]{0} get-tuple-element(call.30), index=10
  get-tuple-element.20935 = f64[20]{0} get-tuple-element(call.30), index=11
  get-tuple-element.20936 = f64[20]{0} get-tuple-element(call.30), index=12
  get-tuple-element.20937 = f64[20]{0} get-tuple-element(call.30), index=13
  get-tuple-element.20938 = f64[20]{0} get-tuple-element(call.30), index=14
  get-tuple-element.20939 = f64[20]{0} get-tuple-element(call.30), index=15
  get-tuple-element.20940 = f64[20]{0} get-tuple-element(call.30), index=16
  get-tuple-element.20941 = f64[20]{0} get-tuple-element(call.30), index=17
  get-tuple-element.20942 = f64[20]{0} get-tuple-element(call.30), index=18
  ROOT tuple.604 = (f64[20]{0}, f64[20]{0}, f64[20]{0}, f64[20]{0}, f64[20]{0}, /*index=5*/f64[20]{0}, f64[20]{0}, f64[20]{0}, f64[20]{0}, f64[20]{0}, /*index=10*/f64[20]{0}, f64[20]{0}, f64[], f64[20]{0}, f64[20]{0}, /*index=15*/f64[20]{0}, f64[20]{0}, f64[20]{0}, f64[20]{0}) tuple(get-tuple-element.20925, get-tuple-element.20926, get-tuple-element.20927, get-tuple-element.20928, get-tuple-element.20929, /*index=5*/get-tuple-element.20930, get-tuple-element.20931, get-tuple-element.20932, get-tuple-element.20933, get-tuple-element.20934, /*index=10*/get-tuple-element.20935, get-tuple-element.20936, get-tuple-element.20924, get-tuple-element.20937, get-tuple-element.20938, /*index=15*/get-tuple-element.20939, get-tuple-element.20940, get-tuple-element.20941, get-tuple-element.20942)
} // region_2.1157.clone

wrapped_copy_computation.92 {
  param_0.3444 = f64[] parameter(0)
  ROOT copy.1936 = f64[] copy(param_0.3444)
}

wrapped_copy_computation.80 {
  param_0.3432 = f64[20]{0} parameter(0)
  ROOT copy.1924 = f64[20]{0} copy(param_0.3432)
}

wrapped_copy_computation.81 {
  param_0.3433 = f64[20]{0} parameter(0)
  ROOT copy.1925 = f64[20]{0} copy(param_0.3433)
}

wrapped_copy_computation.82 {
  param_0.3434 = f64[20]{0} parameter(0)
  ROOT copy.1926 = f64[20]{0} copy(param_0.3434)
}

wrapped_copy_computation.83 {
  param_0.3435 = f64[20]{0} parameter(0)
  ROOT copy.1927 = f64[20]{0} copy(param_0.3435)
}

wrapped_copy_computation.84 {
  param_0.3436 = f64[20]{0} parameter(0)
  ROOT copy.1928 = f64[20]{0} copy(param_0.3436)
}

wrapped_copy_computation.85 {
  param_0.3437 = f64[20]{0} parameter(0)
  ROOT copy.1929 = f64[20]{0} copy(param_0.3437)
}

wrapped_copy_computation.86 {
  param_0.3438 = f64[20]{0} parameter(0)
  ROOT copy.1930 = f64[20]{0} copy(param_0.3438)
}

wrapped_copy_computation.87 {
  param_0.3439 = f64[20]{0} parameter(0)
  ROOT copy.1931 = f64[20]{0} copy(param_0.3439)
}

wrapped_copy_computation.88 {
  param_0.3440 = f64[20]{0} parameter(0)
  ROOT copy.1932 = f64[20]{0} copy(param_0.3440)
}

wrapped_copy_computation.89 {
  param_0.3441 = f64[20]{0} parameter(0)
  ROOT copy.1933 = f64[20]{0} copy(param_0.3441)
}

wrapped_copy_computation.90 {
  param_0.3442 = f64[20]{0} parameter(0)
  ROOT copy.1934 = f64[20]{0} copy(param_0.3442)
}

wrapped_copy_computation.91 {
  param_0.3443 = f64[20]{0} parameter(0)
  ROOT copy.1935 = f64[20]{0} copy(param_0.3443)
}

wrapped_copy_computation.93 {
  param_0.3445 = f64[20]{0} parameter(0)
  ROOT copy.1937 = f64[20]{0} copy(param_0.3445)
}

wrapped_copy_computation.94 {
  param_0.3446 = f64[20]{0} parameter(0)
  ROOT copy.1938 = f64[20]{0} copy(param_0.3446)
}

wrapped_copy_computation.95 {
  param_0.3447 = f64[20]{0} parameter(0)
  ROOT copy.1939 = f64[20]{0} copy(param_0.3447)
}

wrapped_copy_computation.96 {
  param_0.3448 = f64[20]{0} parameter(0)
  ROOT copy.1940 = f64[20]{0} copy(param_0.3448)
}

wrapped_copy_computation.97 {
  param_0.3449 = f64[20]{0} parameter(0)
  ROOT copy.1941 = f64[20]{0} copy(param_0.3449)
}

wrapped_copy_computation.98 {
  param_0.3450 = f64[20]{0} parameter(0)
  ROOT copy.1942 = f64[20]{0} copy(param_0.3450)
}

command_buffer.52 {
  p.606 = f64[] parameter(0)
  p.607 = (f64[20]{0}, f64[20]{0}, f64[20]{0}, f64[20]{0}, f64[20]{0}, /*index=5*/f64[20]{0}, f64[20]{0}, f64[20]{0}, f64[20]{0}, f64[20]{0}, /*index=10*/f64[20]{0}, f64[20]{0}, f64[], f64[20]{0}, f64[20]{0}, /*index=15*/f64[20]{0}, f64[20]{0}, f64[20]{0}, f64[20]{0}) parameter(1)
  wrapped_copy.92 = f64[] fusion(p.606), kind=kLoop, calls=wrapped_copy_computation.92
  get-tuple-element.17349 = f64[20]{0} get-tuple-element(p.607), index=18
  get-tuple-element.17348 = f64[20]{0} get-tuple-element(p.607), index=17
  get-tuple-element.17347 = f64[20]{0} get-tuple-element(p.607), index=16
  get-tuple-element.17346 = f64[20]{0} get-tuple-element(p.607), index=15
  get-tuple-element.17345 = f64[20]{0} get-tuple-element(p.607), index=14
  get-tuple-element.17344 = f64[20]{0} get-tuple-element(p.607), index=13
  get-tuple-element.17342 = f64[20]{0} get-tuple-element(p.607), index=11
  get-tuple-element.17341 = f64[20]{0} get-tuple-element(p.607), index=10
  get-tuple-element.17340 = f64[20]{0} get-tuple-element(p.607), index=9
  get-tuple-element.17339 = f64[20]{0} get-tuple-element(p.607), index=8
  get-tuple-element.17338 = f64[20]{0} get-tuple-element(p.607), index=7
  get-tuple-element.17337 = f64[20]{0} get-tuple-element(p.607), index=6
  get-tuple-element.17336 = f64[20]{0} get-tuple-element(p.607), index=5
  get-tuple-element.17335 = f64[20]{0} get-tuple-element(p.607), index=4
  get-tuple-element.17334 = f64[20]{0} get-tuple-element(p.607), index=3
  get-tuple-element.17333 = f64[20]{0} get-tuple-element(p.607), index=2
  get-tuple-element.17332 = f64[20]{0} get-tuple-element(p.607), index=1
  get-tuple-element.17331 = f64[20]{0} get-tuple-element(p.607), index=0
  wrapped_copy.80 = f64[20]{0} fusion(get-tuple-element.17331), kind=kLoop, calls=wrapped_copy_computation.80
  wrapped_copy.81 = f64[20]{0} fusion(get-tuple-element.17332), kind=kLoop, calls=wrapped_copy_computation.81
  wrapped_copy.82 = f64[20]{0} fusion(get-tuple-element.17333), kind=kLoop, calls=wrapped_copy_computation.82
  wrapped_copy.83 = f64[20]{0} fusion(get-tuple-element.17334), kind=kLoop, calls=wrapped_copy_computation.83
  wrapped_copy.84 = f64[20]{0} fusion(get-tuple-element.17335), kind=kLoop, calls=wrapped_copy_computation.84
  wrapped_copy.85 = f64[20]{0} fusion(get-tuple-element.17336), kind=kLoop, calls=wrapped_copy_computation.85
  wrapped_copy.86 = f64[20]{0} fusion(get-tuple-element.17337), kind=kLoop, calls=wrapped_copy_computation.86
  wrapped_copy.87 = f64[20]{0} fusion(get-tuple-element.17338), kind=kLoop, calls=wrapped_copy_computation.87
  wrapped_copy.88 = f64[20]{0} fusion(get-tuple-element.17339), kind=kLoop, calls=wrapped_copy_computation.88
  wrapped_copy.89 = f64[20]{0} fusion(get-tuple-element.17340), kind=kLoop, calls=wrapped_copy_computation.89
  wrapped_copy.90 = f64[20]{0} fusion(get-tuple-element.17341), kind=kLoop, calls=wrapped_copy_computation.90
  wrapped_copy.91 = f64[20]{0} fusion(get-tuple-element.17342), kind=kLoop, calls=wrapped_copy_computation.91
  wrapped_copy.93 = f64[20]{0} fusion(get-tuple-element.17344), kind=kLoop, calls=wrapped_copy_computation.93
  wrapped_copy.94 = f64[20]{0} fusion(get-tuple-element.17345), kind=kLoop, calls=wrapped_copy_computation.94
  wrapped_copy.95 = f64[20]{0} fusion(get-tuple-element.17346), kind=kLoop, calls=wrapped_copy_computation.95
  wrapped_copy.96 = f64[20]{0} fusion(get-tuple-element.17347), kind=kLoop, calls=wrapped_copy_computation.96
  wrapped_copy.97 = f64[20]{0} fusion(get-tuple-element.17348), kind=kLoop, calls=wrapped_copy_computation.97
  wrapped_copy.98 = f64[20]{0} fusion(get-tuple-element.17349), kind=kLoop, calls=wrapped_copy_computation.98
  ROOT tuple.686 = (f64[], f64[20]{0}, f64[20]{0}, f64[20]{0}, f64[20]{0}, /*index=5*/f64[20]{0}, f64[20]{0}, f64[20]{0}, f64[20]{0}, f64[20]{0}, /*index=10*/f64[20]{0}, f64[20]{0}, f64[20]{0}, f64[20]{0}, f64[20]{0}, /*index=15*/f64[20]{0}, f64[20]{0}, f64[20]{0}, f64[20]{0}) tuple(wrapped_copy.92, wrapped_copy.80, wrapped_copy.81, wrapped_copy.82, wrapped_copy.83, /*index=5*/wrapped_copy.84, wrapped_copy.85, wrapped_copy.86, wrapped_copy.87, wrapped_copy.88, /*index=10*/wrapped_copy.89, wrapped_copy.90, wrapped_copy.91, wrapped_copy.93, wrapped_copy.94, /*index=15*/wrapped_copy.95, wrapped_copy.96, wrapped_copy.97, wrapped_copy.98)
} // command_buffer.52

region_2.1157 {
  arg_tuple.1158.0 = (f64[20]{0}, f64[20]{0}, f64[20]{0}, f64[20]{0}, f64[20]{0}, /*index=5*/f64[20]{0}, f64[20]{0}, f64[20]{0}, f64[20]{0}, f64[20]{0}, /*index=10*/f64[20]{0}, f64[20]{0}, f64[], f64[20]{0}, f64[20]{0}, /*index=15*/f64[20]{0}, f64[20]{0}, f64[20]{0}, f64[20]{0}) parameter(0)
  get-tuple-element.17343 = f64[] get-tuple-element(arg_tuple.1158.0), index=12
  call.29 = (f64[], f64[20]{0}, f64[20]{0}, f64[20]{0}, f64[20]{0}, /*index=5*/f64[20]{0}, f64[20]{0}, f64[20]{0}, f64[20]{0}, f64[20]{0}, /*index=10*/f64[20]{0}, f64[20]{0}, f64[20]{0}, f64[20]{0}, f64[20]{0}, /*index=15*/f64[20]{0}, f64[20]{0}, f64[20]{0}, f64[20]{0}) call(get-tuple-element.17343, arg_tuple.1158.0), to_apply=command_buffer.52
  get-tuple-element.20887 = f64[] get-tuple-element(call.29), index=0
  get-tuple-element.20888 = f64[20]{0} get-tuple-element(call.29), index=1
  get-tuple-element.20889 = f64[20]{0} get-tuple-element(call.29), index=2
  get-tuple-element.20890 = f64[20]{0} get-tuple-element(call.29), index=3
  get-tuple-element.20891 = f64[20]{0} get-tuple-element(call.29), index=4
  get-tuple-element.20892 = f64[20]{0} get-tuple-element(call.29), index=5
  get-tuple-element.20893 = f64[20]{0} get-tuple-element(call.29), index=6
  get-tuple-element.20894 = f64[20]{0} get-tuple-element(call.29), index=7
  get-tuple-element.20895 = f64[20]{0} get-tuple-element(call.29), index=8
  get-tuple-element.20896 = f64[20]{0} get-tuple-element(call.29), index=9
  get-tuple-element.20897 = f64[20]{0} get-tuple-element(call.29), index=10
  get-tuple-element.20898 = f64[20]{0} get-tuple-element(call.29), index=11
  get-tuple-element.20899 = f64[20]{0} get-tuple-element(call.29), index=12
  get-tuple-element.20900 = f64[20]{0} get-tuple-element(call.29), index=13
  get-tuple-element.20901 = f64[20]{0} get-tuple-element(call.29), index=14
  get-tuple-element.20902 = f64[20]{0} get-tuple-element(call.29), index=15
  get-tuple-element.20903 = f64[20]{0} get-tuple-element(call.29), index=16
  get-tuple-element.20904 = f64[20]{0} get-tuple-element(call.29), index=17
  get-tuple-element.20905 = f64[20]{0} get-tuple-element(call.29), index=18
  ROOT tuple.605 = (f64[20]{0}, f64[20]{0}, f64[20]{0}, f64[20]{0}, f64[20]{0}, /*index=5*/f64[20]{0}, f64[20]{0}, f64[20]{0}, f64[20]{0}, f64[20]{0}, /*index=10*/f64[20]{0}, f64[20]{0}, f64[], f64[20]{0}, f64[20]{0}, /*index=15*/f64[20]{0}, f64[20]{0}, f64[20]{0}, f64[20]{0}) tuple(get-tuple-element.20888, get-tuple-element.20889, get-tuple-element.20890, get-tuple-element.20891, get-tuple-element.20892, /*index=5*/get-tuple-element.20893, get-tuple-element.20894, get-tuple-element.20895, get-tuple-element.20896, get-tuple-element.20897, /*index=10*/get-tuple-element.20898, get-tuple-element.20899, get-tuple-element.20887, get-tuple-element.20900, get-tuple-element.20901, /*index=15*/get-tuple-element.20902, get-tuple-element.20903, get-tuple-element.20904, get-tuple-element.20905)
} // region_2.1157

wrapped_copy_computation.423 {
  param_0.3782 = f64[] parameter(0)
  ROOT copy.2267 = f64[] copy(param_0.3782)
}

wrapped_copy_computation.404 {
  param_0.3763 = f64[] parameter(0)
  ROOT copy.2248 = f64[] copy(param_0.3763)
}

wrapped_copy_computation.392 {
  param_0.3751 = f64[20]{0} parameter(0)
  ROOT copy.2236 = f64[20]{0} copy(param_0.3751)
}

wrapped_copy_computation.393 {
  param_0.3752 = f64[20]{0} parameter(0)
  ROOT copy.2237 = f64[20]{0} copy(param_0.3752)
}

wrapped_copy_computation.394 {
  param_0.3753 = f64[20]{0} parameter(0)
  ROOT copy.2238 = f64[20]{0} copy(param_0.3753)
}

wrapped_copy_computation.395 {
  param_0.3754 = f64[20]{0} parameter(0)
  ROOT copy.2239 = f64[20]{0} copy(param_0.3754)
}

wrapped_copy_computation.396 {
  param_0.3755 = f64[20]{0} parameter(0)
  ROOT copy.2240 = f64[20]{0} copy(param_0.3755)
}

wrapped_copy_computation.397 {
  param_0.3756 = f64[20]{0} parameter(0)
  ROOT copy.2241 = f64[20]{0} copy(param_0.3756)
}

wrapped_copy_computation.398 {
  param_0.3757 = f64[20]{0} parameter(0)
  ROOT copy.2242 = f64[20]{0} copy(param_0.3757)
}

wrapped_copy_computation.399 {
  param_0.3758 = f64[20]{0} parameter(0)
  ROOT copy.2243 = f64[20]{0} copy(param_0.3758)
}

wrapped_copy_computation.400 {
  param_0.3759 = f64[20]{0} parameter(0)
  ROOT copy.2244 = f64[20]{0} copy(param_0.3759)
}

wrapped_copy_computation.401 {
  param_0.3760 = f64[20]{0} parameter(0)
  ROOT copy.2245 = f64[20]{0} copy(param_0.3760)
}

wrapped_copy_computation.402 {
  param_0.3761 = f64[20]{0} parameter(0)
  ROOT copy.2246 = f64[20]{0} copy(param_0.3761)
}

wrapped_copy_computation.403 {
  param_0.3762 = f64[20]{0} parameter(0)
  ROOT copy.2247 = f64[20]{0} copy(param_0.3762)
}

wrapped_copy_computation.405 {
  param_0.3764 = f64[20]{0} parameter(0)
  ROOT copy.2249 = f64[20]{0} copy(param_0.3764)
}

wrapped_copy_computation.406 {
  param_0.3765 = f64[20]{0} parameter(0)
  ROOT copy.2250 = f64[20]{0} copy(param_0.3765)
}

wrapped_copy_computation.407 {
  param_0.3766 = f64[20]{0} parameter(0)
  ROOT copy.2251 = f64[20]{0} copy(param_0.3766)
}

wrapped_copy_computation.408 {
  param_0.3767 = f64[20]{0} parameter(0)
  ROOT copy.2252 = f64[20]{0} copy(param_0.3767)
}

wrapped_copy_computation.409 {
  param_0.3768 = f64[20]{0} parameter(0)
  ROOT copy.2253 = f64[20]{0} copy(param_0.3768)
}

wrapped_copy_computation.410 {
  param_0.3769 = f64[20]{0} parameter(0)
  ROOT copy.2254 = f64[20]{0} copy(param_0.3769)
}

wrapped_copy_computation.411 {
  param_0.3770 = f64[20]{0} parameter(0)
  ROOT copy.2255 = f64[20]{0} copy(param_0.3770)
}

wrapped_copy_computation.412 {
  param_0.3771 = f64[20]{0} parameter(0)
  ROOT copy.2256 = f64[20]{0} copy(param_0.3771)
}

wrapped_copy_computation.413 {
  param_0.3772 = f64[20]{0} parameter(0)
  ROOT copy.2257 = f64[20]{0} copy(param_0.3772)
}

wrapped_copy_computation.414 {
  param_0.3773 = f64[20]{0} parameter(0)
  ROOT copy.2258 = f64[20]{0} copy(param_0.3773)
}

wrapped_copy_computation.415 {
  param_0.3774 = f64[20]{0} parameter(0)
  ROOT copy.2259 = f64[20]{0} copy(param_0.3774)
}

wrapped_copy_computation.416 {
  param_0.3775 = f64[20]{0} parameter(0)
  ROOT copy.2260 = f64[20]{0} copy(param_0.3775)
}

wrapped_copy_computation.417 {
  param_0.3776 = f64[20]{0} parameter(0)
  ROOT copy.2261 = f64[20]{0} copy(param_0.3776)
}

wrapped_copy_computation.418 {
  param_0.3777 = f64[20]{0} parameter(0)
  ROOT copy.2262 = f64[20]{0} copy(param_0.3777)
}

wrapped_copy_computation.419 {
  param_0.3778 = f64[20]{0} parameter(0)
  ROOT copy.2263 = f64[20]{0} copy(param_0.3778)
}

wrapped_copy_computation.420 {
  param_0.3779 = f64[20]{0} parameter(0)
  ROOT copy.2264 = f64[20]{0} copy(param_0.3779)
}

wrapped_copy_computation.421 {
  param_0.3780 = f64[20]{0} parameter(0)
  ROOT copy.2265 = f64[20]{0} copy(param_0.3780)
}

wrapped_copy_computation.422 {
  param_0.3781 = f64[20]{0} parameter(0)
  ROOT copy.2266 = f64[20]{0} copy(param_0.3781)
}

wrapped_copy_computation.424 {
  param_0.3783 = f64[20]{0} parameter(0)
  ROOT copy.2268 = f64[20]{0} copy(param_0.3783)
}

wrapped_copy_computation.425 {
  param_0.3784 = f64[20]{0} parameter(0)
  ROOT copy.2269 = f64[20]{0} copy(param_0.3784)
}

wrapped_copy_computation.426 {
  param_0.3785 = f64[20]{0} parameter(0)
  ROOT copy.2270 = f64[20]{0} copy(param_0.3785)
}

wrapped_copy_computation.427 {
  param_0.3786 = f64[20]{0} parameter(0)
  ROOT copy.2271 = f64[20]{0} copy(param_0.3786)
}

wrapped_copy_computation.428 {
  param_0.3787 = f64[20]{0} parameter(0)
  ROOT copy.2272 = f64[20]{0} copy(param_0.3787)
}

wrapped_copy_computation.429 {
  param_0.3788 = f64[20]{0} parameter(0)
  ROOT copy.2273 = f64[20]{0} copy(param_0.3788)
}

command_buffer.50 {
  p.602 = f64[] parameter(0)
  p.603 = (f64[20]{0}, f64[20]{0}, f64[20]{0}, f64[20]{0}, f64[20]{0}, /*index=5*/f64[20]{0}, f64[20]{0}, f64[20]{0}, f64[20]{0}, f64[20]{0}, /*index=10*/f64[20]{0}, f64[20]{0}, f64[], f64[20]{0}, f64[20]{0}, /*index=15*/f64[20]{0}, f64[20]{0}, f64[20]{0}, f64[20]{0}, f64[20]{0}, /*index=20*/f64[20]{0}, f64[20]{0}, f64[20]{0}, f64[20]{0}, f64[20]{0}, /*index=25*/f64[20]{0}, f64[20]{0}, f64[20]{0}, f64[20]{0}, f64[20]{0}, /*index=30*/f64[20]{0}, f64[], f64[20]{0}, f64[20]{0}, f64[20]{0}, /*index=35*/f64[20]{0}, f64[20]{0}, f64[20]{0}, f64[20]{0}, f64[20]{0}, /*index=40*/f64[20]{0}, f64[20]{0}, f64[20]{0}, f64[20]{0}, s64[]) parameter(1)
  wrapped_copy.423 = f64[] fusion(p.602), kind=kLoop, calls=wrapped_copy_computation.423
  get-tuple-element.17667 = f64[] get-tuple-element(p.603), index=12
  wrapped_copy.404 = f64[] fusion(get-tuple-element.17667), kind=kLoop, calls=wrapped_copy_computation.404
  get-tuple-element.17698 = f64[20]{0} get-tuple-element(p.603), index=43
  get-tuple-element.17697 = f64[20]{0} get-tuple-element(p.603), index=42
  get-tuple-element.17696 = f64[20]{0} get-tuple-element(p.603), index=41
  get-tuple-element.17695 = f64[20]{0} get-tuple-element(p.603), index=40
  get-tuple-element.17694 = f64[20]{0} get-tuple-element(p.603), index=39
  get-tuple-element.17693 = f64[20]{0} get-tuple-element(p.603), index=38
  get-tuple-element.17692 = f64[20]{0} get-tuple-element(p.603), index=37
  get-tuple-element.17691 = f64[20]{0} get-tuple-element(p.603), index=36
  get-tuple-element.17690 = f64[20]{0} get-tuple-element(p.603), index=35
  get-tuple-element.17689 = f64[20]{0} get-tuple-element(p.603), index=34
  get-tuple-element.17688 = f64[20]{0} get-tuple-element(p.603), index=33
  get-tuple-element.17687 = f64[20]{0} get-tuple-element(p.603), index=32
  get-tuple-element.17685 = f64[20]{0} get-tuple-element(p.603), index=30
  get-tuple-element.17684 = f64[20]{0} get-tuple-element(p.603), index=29
  get-tuple-element.17683 = f64[20]{0} get-tuple-element(p.603), index=28
  get-tuple-element.17682 = f64[20]{0} get-tuple-element(p.603), index=27
  get-tuple-element.17681 = f64[20]{0} get-tuple-element(p.603), index=26
  get-tuple-element.17680 = f64[20]{0} get-tuple-element(p.603), index=25
  get-tuple-element.17679 = f64[20]{0} get-tuple-element(p.603), index=24
  get-tuple-element.17678 = f64[20]{0} get-tuple-element(p.603), index=23
  get-tuple-element.17677 = f64[20]{0} get-tuple-element(p.603), index=22
  get-tuple-element.17676 = f64[20]{0} get-tuple-element(p.603), index=21
  get-tuple-element.17675 = f64[20]{0} get-tuple-element(p.603), index=20
  get-tuple-element.17674 = f64[20]{0} get-tuple-element(p.603), index=19
  get-tuple-element.17673 = f64[20]{0} get-tuple-element(p.603), index=18
  get-tuple-element.17672 = f64[20]{0} get-tuple-element(p.603), index=17
  get-tuple-element.17671 = f64[20]{0} get-tuple-element(p.603), index=16
  get-tuple-element.17670 = f64[20]{0} get-tuple-element(p.603), index=15
  get-tuple-element.17669 = f64[20]{0} get-tuple-element(p.603), index=14
  get-tuple-element.17668 = f64[20]{0} get-tuple-element(p.603), index=13
  get-tuple-element.17666 = f64[20]{0} get-tuple-element(p.603), index=11
  get-tuple-element.17665 = f64[20]{0} get-tuple-element(p.603), index=10
  get-tuple-element.17664 = f64[20]{0} get-tuple-element(p.603), index=9
  get-tuple-element.17663 = f64[20]{0} get-tuple-element(p.603), index=8
  get-tuple-element.17662 = f64[20]{0} get-tuple-element(p.603), index=7
  get-tuple-element.17661 = f64[20]{0} get-tuple-element(p.603), index=6
  get-tuple-element.17660 = f64[20]{0} get-tuple-element(p.603), index=5
  get-tuple-element.17659 = f64[20]{0} get-tuple-element(p.603), index=4
  get-tuple-element.17658 = f64[20]{0} get-tuple-element(p.603), index=3
  get-tuple-element.17657 = f64[20]{0} get-tuple-element(p.603), index=2
  get-tuple-element.17656 = f64[20]{0} get-tuple-element(p.603), index=1
  get-tuple-element.17655 = f64[20]{0} get-tuple-element(p.603), index=0
  wrapped_copy.392 = f64[20]{0} fusion(get-tuple-element.17655), kind=kLoop, calls=wrapped_copy_computation.392
  wrapped_copy.393 = f64[20]{0} fusion(get-tuple-element.17656), kind=kLoop, calls=wrapped_copy_computation.393
  wrapped_copy.394 = f64[20]{0} fusion(get-tuple-element.17657), kind=kLoop, calls=wrapped_copy_computation.394
  wrapped_copy.395 = f64[20]{0} fusion(get-tuple-element.17658), kind=kLoop, calls=wrapped_copy_computation.395
  wrapped_copy.396 = f64[20]{0} fusion(get-tuple-element.17659), kind=kLoop, calls=wrapped_copy_computation.396
  wrapped_copy.397 = f64[20]{0} fusion(get-tuple-element.17660), kind=kLoop, calls=wrapped_copy_computation.397
  wrapped_copy.398 = f64[20]{0} fusion(get-tuple-element.17661), kind=kLoop, calls=wrapped_copy_computation.398
  wrapped_copy.399 = f64[20]{0} fusion(get-tuple-element.17662), kind=kLoop, calls=wrapped_copy_computation.399
  wrapped_copy.400 = f64[20]{0} fusion(get-tuple-element.17663), kind=kLoop, calls=wrapped_copy_computation.400
  wrapped_copy.401 = f64[20]{0} fusion(get-tuple-element.17664), kind=kLoop, calls=wrapped_copy_computation.401
  wrapped_copy.402 = f64[20]{0} fusion(get-tuple-element.17665), kind=kLoop, calls=wrapped_copy_computation.402
  wrapped_copy.403 = f64[20]{0} fusion(get-tuple-element.17666), kind=kLoop, calls=wrapped_copy_computation.403
  wrapped_copy.405 = f64[20]{0} fusion(get-tuple-element.17668), kind=kLoop, calls=wrapped_copy_computation.405
  wrapped_copy.406 = f64[20]{0} fusion(get-tuple-element.17669), kind=kLoop, calls=wrapped_copy_computation.406
  wrapped_copy.407 = f64[20]{0} fusion(get-tuple-element.17670), kind=kLoop, calls=wrapped_copy_computation.407
  wrapped_copy.408 = f64[20]{0} fusion(get-tuple-element.17671), kind=kLoop, calls=wrapped_copy_computation.408
  wrapped_copy.409 = f64[20]{0} fusion(get-tuple-element.17672), kind=kLoop, calls=wrapped_copy_computation.409
  wrapped_copy.410 = f64[20]{0} fusion(get-tuple-element.17673), kind=kLoop, calls=wrapped_copy_computation.410
  wrapped_copy.411 = f64[20]{0} fusion(get-tuple-element.17674), kind=kLoop, calls=wrapped_copy_computation.411
  wrapped_copy.412 = f64[20]{0} fusion(get-tuple-element.17675), kind=kLoop, calls=wrapped_copy_computation.412
  wrapped_copy.413 = f64[20]{0} fusion(get-tuple-element.17676), kind=kLoop, calls=wrapped_copy_computation.413
  wrapped_copy.414 = f64[20]{0} fusion(get-tuple-element.17677), kind=kLoop, calls=wrapped_copy_computation.414
  wrapped_copy.415 = f64[20]{0} fusion(get-tuple-element.17678), kind=kLoop, calls=wrapped_copy_computation.415
  wrapped_copy.416 = f64[20]{0} fusion(get-tuple-element.17679), kind=kLoop, calls=wrapped_copy_computation.416
  wrapped_copy.417 = f64[20]{0} fusion(get-tuple-element.17680), kind=kLoop, calls=wrapped_copy_computation.417
  wrapped_copy.418 = f64[20]{0} fusion(get-tuple-element.17681), kind=kLoop, calls=wrapped_copy_computation.418
  wrapped_copy.419 = f64[20]{0} fusion(get-tuple-element.17682), kind=kLoop, calls=wrapped_copy_computation.419
  wrapped_copy.420 = f64[20]{0} fusion(get-tuple-element.17683), kind=kLoop, calls=wrapped_copy_computation.420
  wrapped_copy.421 = f64[20]{0} fusion(get-tuple-element.17684), kind=kLoop, calls=wrapped_copy_computation.421
  wrapped_copy.422 = f64[20]{0} fusion(get-tuple-element.17685), kind=kLoop, calls=wrapped_copy_computation.422
  wrapped_copy.424 = f64[20]{0} fusion(get-tuple-element.17687), kind=kLoop, calls=wrapped_copy_computation.424
  wrapped_copy.425 = f64[20]{0} fusion(get-tuple-element.17688), kind=kLoop, calls=wrapped_copy_computation.425
  wrapped_copy.426 = f64[20]{0} fusion(get-tuple-element.17689), kind=kLoop, calls=wrapped_copy_computation.426
  wrapped_copy.427 = f64[20]{0} fusion(get-tuple-element.17690), kind=kLoop, calls=wrapped_copy_computation.427
  wrapped_copy.428 = f64[20]{0} fusion(get-tuple-element.17691), kind=kLoop, calls=wrapped_copy_computation.428
  wrapped_copy.429 = f64[20]{0} fusion(get-tuple-element.17692), kind=kLoop, calls=wrapped_copy_computation.429
  ROOT tuple.684 = (f64[], f64[], f64[20]{0}, f64[20]{0}, f64[20]{0}, /*index=5*/f64[20]{0}, f64[20]{0}, f64[20]{0}, f64[20]{0}, f64[20]{0}, /*index=10*/f64[20]{0}, f64[20]{0}, f64[20]{0}, f64[20]{0}, f64[20]{0}, /*index=15*/f64[20]{0}, f64[20]{0}, f64[20]{0}, f64[20]{0}, f64[20]{0}, /*index=20*/f64[20]{0}, f64[20]{0}, f64[20]{0}, f64[20]{0}, f64[20]{0}, /*index=25*/f64[20]{0}, f64[20]{0}, f64[20]{0}, f64[20]{0}, f64[20]{0}, /*index=30*/f64[20]{0}, f64[20]{0}, f64[20]{0}, f64[20]{0}, f64[20]{0}, /*index=35*/f64[20]{0}, f64[20]{0}, f64[20]{0}, f64[20]{0}, f64[20]{0}, /*index=40*/f64[20]{0}, f64[20]{0}, f64[20]{0}, f64[20]{0}) tuple(wrapped_copy.423, wrapped_copy.404, get-tuple-element.17698, get-tuple-element.17697, get-tuple-element.17696, /*index=5*/get-tuple-element.17695, get-tuple-element.17694, get-tuple-element.17693, wrapped_copy.392, wrapped_copy.393, /*index=10*/wrapped_copy.394, wrapped_copy.395, wrapped_copy.396, wrapped_copy.397, wrapped_copy.398, /*index=15*/wrapped_copy.399, wrapped_copy.400, wrapped_copy.401, wrapped_copy.402, wrapped_copy.403, /*index=20*/wrapped_copy.405, wrapped_copy.406, wrapped_copy.407, wrapped_copy.408, wrapped_copy.409, /*index=25*/wrapped_copy.410, wrapped_copy.411, wrapped_copy.412, wrapped_copy.413, wrapped_copy.414, /*index=30*/wrapped_copy.415, wrapped_copy.416, wrapped_copy.417, wrapped_copy.418, wrapped_copy.419, /*index=35*/wrapped_copy.420, wrapped_copy.421, wrapped_copy.422, wrapped_copy.424, wrapped_copy.425, /*index=40*/wrapped_copy.426, wrapped_copy.427, wrapped_copy.428, wrapped_copy.429)
} // command_buffer.50

region_46.7784.clone {
  arg_tuple.84.0 = (f64[20]{0}, f64[20]{0}, f64[20]{0}, f64[20]{0}, f64[20]{0}, /*index=5*/f64[20]{0}, f64[20]{0}, f64[20]{0}, f64[20]{0}, f64[20]{0}, /*index=10*/f64[20]{0}, f64[20]{0}, f64[], f64[20]{0}, f64[20]{0}, /*index=15*/f64[20]{0}, f64[20]{0}, f64[20]{0}, f64[20]{0}, f64[20]{0}, /*index=20*/f64[20]{0}, f64[20]{0}, f64[20]{0}, f64[20]{0}, f64[20]{0}, /*index=25*/f64[20]{0}, f64[20]{0}, f64[20]{0}, f64[20]{0}, f64[20]{0}, /*index=30*/f64[20]{0}, f64[], f64[20]{0}, f64[20]{0}, f64[20]{0}, /*index=35*/f64[20]{0}, f64[20]{0}, f64[20]{0}, f64[20]{0}, f64[20]{0}, /*index=40*/f64[20]{0}, f64[20]{0}, f64[20]{0}, f64[20]{0}, s64[]) parameter(0)
  get-tuple-element.17699 = s64[] get-tuple-element(arg_tuple.84.0), index=44
  get-tuple-element.17686 = f64[] get-tuple-element(arg_tuple.84.0), index=31
  call.28 = (f64[], f64[], f64[20]{0}, f64[20]{0}, f64[20]{0}, /*index=5*/f64[20]{0}, f64[20]{0}, f64[20]{0}, f64[20]{0}, f64[20]{0}, /*index=10*/f64[20]{0}, f64[20]{0}, f64[20]{0}, f64[20]{0}, f64[20]{0}, /*index=15*/f64[20]{0}, f64[20]{0}, f64[20]{0}, f64[20]{0}, f64[20]{0}, /*index=20*/f64[20]{0}, f64[20]{0}, f64[20]{0}, f64[20]{0}, f64[20]{0}, /*index=25*/f64[20]{0}, f64[20]{0}, f64[20]{0}, f64[20]{0}, f64[20]{0}, /*index=30*/f64[20]{0}, f64[20]{0}, f64[20]{0}, f64[20]{0}, f64[20]{0}, /*index=35*/f64[20]{0}, f64[20]{0}, f64[20]{0}, f64[20]{0}, f64[20]{0}, /*index=40*/f64[20]{0}, f64[20]{0}, f64[20]{0}, f64[20]{0}) call(get-tuple-element.17686, arg_tuple.84.0), to_apply=command_buffer.50
  get-tuple-element.20825 = f64[] get-tuple-element(call.28), index=0
  get-tuple-element.20826 = f64[] get-tuple-element(call.28), index=1
  get-tuple-element.20827 = f64[20]{0} get-tuple-element(call.28), index=2
  get-tuple-element.20828 = f64[20]{0} get-tuple-element(call.28), index=3
  get-tuple-element.20829 = f64[20]{0} get-tuple-element(call.28), index=4
  get-tuple-element.20830 = f64[20]{0} get-tuple-element(call.28), index=5
  get-tuple-element.20831 = f64[20]{0} get-tuple-element(call.28), index=6
  get-tuple-element.20832 = f64[20]{0} get-tuple-element(call.28), index=7
  get-tuple-element.20833 = f64[20]{0} get-tuple-element(call.28), index=8
  get-tuple-element.20834 = f64[20]{0} get-tuple-element(call.28), index=9
  get-tuple-element.20835 = f64[20]{0} get-tuple-element(call.28), index=10
  get-tuple-element.20836 = f64[20]{0} get-tuple-element(call.28), index=11
  get-tuple-element.20837 = f64[20]{0} get-tuple-element(call.28), index=12
  get-tuple-element.20838 = f64[20]{0} get-tuple-element(call.28), index=13
  get-tuple-element.20839 = f64[20]{0} get-tuple-element(call.28), index=14
  get-tuple-element.20840 = f64[20]{0} get-tuple-element(call.28), index=15
  get-tuple-element.20841 = f64[20]{0} get-tuple-element(call.28), index=16
  get-tuple-element.20842 = f64[20]{0} get-tuple-element(call.28), index=17
  get-tuple-element.20843 = f64[20]{0} get-tuple-element(call.28), index=18
  get-tuple-element.20844 = f64[20]{0} get-tuple-element(call.28), index=19
  get-tuple-element.20845 = f64[20]{0} get-tuple-element(call.28), index=20
  get-tuple-element.20846 = f64[20]{0} get-tuple-element(call.28), index=21
  get-tuple-element.20847 = f64[20]{0} get-tuple-element(call.28), index=22
  get-tuple-element.20848 = f64[20]{0} get-tuple-element(call.28), index=23
  get-tuple-element.20849 = f64[20]{0} get-tuple-element(call.28), index=24
  get-tuple-element.20850 = f64[20]{0} get-tuple-element(call.28), index=25
  get-tuple-element.20851 = f64[20]{0} get-tuple-element(call.28), index=26
  get-tuple-element.20852 = f64[20]{0} get-tuple-element(call.28), index=27
  get-tuple-element.20853 = f64[20]{0} get-tuple-element(call.28), index=28
  get-tuple-element.20854 = f64[20]{0} get-tuple-element(call.28), index=29
  get-tuple-element.20855 = f64[20]{0} get-tuple-element(call.28), index=30
  get-tuple-element.20856 = f64[20]{0} get-tuple-element(call.28), index=31
  get-tuple-element.20857 = f64[20]{0} get-tuple-element(call.28), index=32
  get-tuple-element.20858 = f64[20]{0} get-tuple-element(call.28), index=33
  get-tuple-element.20859 = f64[20]{0} get-tuple-element(call.28), index=34
  get-tuple-element.20860 = f64[20]{0} get-tuple-element(call.28), index=35
  get-tuple-element.20861 = f64[20]{0} get-tuple-element(call.28), index=36
  get-tuple-element.20862 = f64[20]{0} get-tuple-element(call.28), index=37
  get-tuple-element.20863 = f64[20]{0} get-tuple-element(call.28), index=38
  get-tuple-element.20864 = f64[20]{0} get-tuple-element(call.28), index=39
  get-tuple-element.20865 = f64[20]{0} get-tuple-element(call.28), index=40
  get-tuple-element.20866 = f64[20]{0} get-tuple-element(call.28), index=41
  get-tuple-element.20867 = f64[20]{0} get-tuple-element(call.28), index=42
  get-tuple-element.20868 = f64[20]{0} get-tuple-element(call.28), index=43
  ROOT tuple.611 = (f64[20]{0}, f64[20]{0}, f64[20]{0}, f64[20]{0}, f64[20]{0}, /*index=5*/f64[20]{0}, f64[20]{0}, f64[20]{0}, f64[20]{0}, f64[20]{0}, /*index=10*/f64[20]{0}, f64[20]{0}, f64[], f64[20]{0}, f64[20]{0}, /*index=15*/f64[20]{0}, f64[20]{0}, f64[20]{0}, f64[20]{0}, f64[20]{0}, /*index=20*/f64[20]{0}, f64[20]{0}, f64[20]{0}, f64[20]{0}, f64[20]{0}, /*index=25*/f64[20]{0}, f64[20]{0}, f64[20]{0}, f64[20]{0}, f64[20]{0}, /*index=30*/f64[20]{0}, f64[], f64[20]{0}, f64[20]{0}, f64[20]{0}, /*index=35*/f64[20]{0}, f64[20]{0}, f64[20]{0}, f64[20]{0}, f64[20]{0}, /*index=40*/f64[20]{0}, f64[20]{0}, f64[20]{0}, f64[20]{0}, s64[]) tuple(get-tuple-element.20833, get-tuple-element.20834, get-tuple-element.20835, get-tuple-element.20836, get-tuple-element.20837, /*index=5*/get-tuple-element.20838, get-tuple-element.20839, get-tuple-element.20840, get-tuple-element.20841, get-tuple-element.20842, /*index=10*/get-tuple-element.20843, get-tuple-element.20844, get-tuple-element.20826, get-tuple-element.20845, get-tuple-element.20846, /*index=15*/get-tuple-element.20847, get-tuple-element.20848, get-tuple-element.20849, get-tuple-element.20850, get-tuple-element.20851, /*index=20*/get-tuple-element.20852, get-tuple-element.20853, get-tuple-element.20854, get-tuple-element.20855, get-tuple-element.20856, /*index=25*/get-tuple-element.20857, get-tuple-element.20858, get-tuple-element.20859, get-tuple-element.20860, get-tuple-element.20861, /*index=30*/get-tuple-element.20862, get-tuple-element.20825, get-tuple-element.20863, get-tuple-element.20864, get-tuple-element.20865, /*index=35*/get-tuple-element.20866, get-tuple-element.20867, get-tuple-element.20868, get-tuple-element.20832, get-tuple-element.20831, /*index=40*/get-tuple-element.20830, get-tuple-element.20829, get-tuple-element.20828, get-tuple-element.20827, get-tuple-element.17699)
} // region_46.7784.clone

wrapped_copy_computation.461 {
  param_0.3820 = f64[] parameter(0)
  ROOT copy.2305 = f64[] copy(param_0.3820)
}

wrapped_copy_computation.442 {
  param_0.3801 = f64[] parameter(0)
  ROOT copy.2286 = f64[] copy(param_0.3801)
}

wrapped_copy_computation.430 {
  param_0.3789 = f64[20]{0} parameter(0)
  ROOT copy.2274 = f64[20]{0} copy(param_0.3789)
}

wrapped_copy_computation.431 {
  param_0.3790 = f64[20]{0} parameter(0)
  ROOT copy.2275 = f64[20]{0} copy(param_0.3790)
}

wrapped_copy_computation.432 {
  param_0.3791 = f64[20]{0} parameter(0)
  ROOT copy.2276 = f64[20]{0} copy(param_0.3791)
}

wrapped_copy_computation.433 {
  param_0.3792 = f64[20]{0} parameter(0)
  ROOT copy.2277 = f64[20]{0} copy(param_0.3792)
}

wrapped_copy_computation.434 {
  param_0.3793 = f64[20]{0} parameter(0)
  ROOT copy.2278 = f64[20]{0} copy(param_0.3793)
}

wrapped_copy_computation.435 {
  param_0.3794 = f64[20]{0} parameter(0)
  ROOT copy.2279 = f64[20]{0} copy(param_0.3794)
}

wrapped_copy_computation.436 {
  param_0.3795 = f64[20]{0} parameter(0)
  ROOT copy.2280 = f64[20]{0} copy(param_0.3795)
}

wrapped_copy_computation.437 {
  param_0.3796 = f64[20]{0} parameter(0)
  ROOT copy.2281 = f64[20]{0} copy(param_0.3796)
}

wrapped_copy_computation.438 {
  param_0.3797 = f64[20]{0} parameter(0)
  ROOT copy.2282 = f64[20]{0} copy(param_0.3797)
}

wrapped_copy_computation.439 {
  param_0.3798 = f64[20]{0} parameter(0)
  ROOT copy.2283 = f64[20]{0} copy(param_0.3798)
}

wrapped_copy_computation.440 {
  param_0.3799 = f64[20]{0} parameter(0)
  ROOT copy.2284 = f64[20]{0} copy(param_0.3799)
}

wrapped_copy_computation.441 {
  param_0.3800 = f64[20]{0} parameter(0)
  ROOT copy.2285 = f64[20]{0} copy(param_0.3800)
}

wrapped_copy_computation.443 {
  param_0.3802 = f64[20]{0} parameter(0)
  ROOT copy.2287 = f64[20]{0} copy(param_0.3802)
}

wrapped_copy_computation.444 {
  param_0.3803 = f64[20]{0} parameter(0)
  ROOT copy.2288 = f64[20]{0} copy(param_0.3803)
}

wrapped_copy_computation.445 {
  param_0.3804 = f64[20]{0} parameter(0)
  ROOT copy.2289 = f64[20]{0} copy(param_0.3804)
}

wrapped_copy_computation.446 {
  param_0.3805 = f64[20]{0} parameter(0)
  ROOT copy.2290 = f64[20]{0} copy(param_0.3805)
}

wrapped_copy_computation.447 {
  param_0.3806 = f64[20]{0} parameter(0)
  ROOT copy.2291 = f64[20]{0} copy(param_0.3806)
}

wrapped_copy_computation.448 {
  param_0.3807 = f64[20]{0} parameter(0)
  ROOT copy.2292 = f64[20]{0} copy(param_0.3807)
}

wrapped_copy_computation.449 {
  param_0.3808 = f64[20]{0} parameter(0)
  ROOT copy.2293 = f64[20]{0} copy(param_0.3808)
}

wrapped_copy_computation.450 {
  param_0.3809 = f64[20]{0} parameter(0)
  ROOT copy.2294 = f64[20]{0} copy(param_0.3809)
}

wrapped_copy_computation.451 {
  param_0.3810 = f64[20]{0} parameter(0)
  ROOT copy.2295 = f64[20]{0} copy(param_0.3810)
}

wrapped_copy_computation.452 {
  param_0.3811 = f64[20]{0} parameter(0)
  ROOT copy.2296 = f64[20]{0} copy(param_0.3811)
}

wrapped_copy_computation.453 {
  param_0.3812 = f64[20]{0} parameter(0)
  ROOT copy.2297 = f64[20]{0} copy(param_0.3812)
}

wrapped_copy_computation.454 {
  param_0.3813 = f64[20]{0} parameter(0)
  ROOT copy.2298 = f64[20]{0} copy(param_0.3813)
}

wrapped_copy_computation.455 {
  param_0.3814 = f64[20]{0} parameter(0)
  ROOT copy.2299 = f64[20]{0} copy(param_0.3814)
}

wrapped_copy_computation.456 {
  param_0.3815 = f64[20]{0} parameter(0)
  ROOT copy.2300 = f64[20]{0} copy(param_0.3815)
}

wrapped_copy_computation.457 {
  param_0.3816 = f64[20]{0} parameter(0)
  ROOT copy.2301 = f64[20]{0} copy(param_0.3816)
}

wrapped_copy_computation.458 {
  param_0.3817 = f64[20]{0} parameter(0)
  ROOT copy.2302 = f64[20]{0} copy(param_0.3817)
}

wrapped_copy_computation.459 {
  param_0.3818 = f64[20]{0} parameter(0)
  ROOT copy.2303 = f64[20]{0} copy(param_0.3818)
}

wrapped_copy_computation.460 {
  param_0.3819 = f64[20]{0} parameter(0)
  ROOT copy.2304 = f64[20]{0} copy(param_0.3819)
}

wrapped_copy_computation.462 {
  param_0.3821 = f64[20]{0} parameter(0)
  ROOT copy.2306 = f64[20]{0} copy(param_0.3821)
}

wrapped_copy_computation.463 {
  param_0.3822 = f64[20]{0} parameter(0)
  ROOT copy.2307 = f64[20]{0} copy(param_0.3822)
}

wrapped_copy_computation.464 {
  param_0.3823 = f64[20]{0} parameter(0)
  ROOT copy.2308 = f64[20]{0} copy(param_0.3823)
}

wrapped_copy_computation.465 {
  param_0.3824 = f64[20]{0} parameter(0)
  ROOT copy.2309 = f64[20]{0} copy(param_0.3824)
}

wrapped_copy_computation.466 {
  param_0.3825 = f64[20]{0} parameter(0)
  ROOT copy.2310 = f64[20]{0} copy(param_0.3825)
}

wrapped_copy_computation.467 {
  param_0.3826 = f64[20]{0} parameter(0)
  ROOT copy.2311 = f64[20]{0} copy(param_0.3826)
}

command_buffer.48 {
  p.598 = f64[] parameter(0)
  p.599 = (f64[20]{0}, f64[20]{0}, f64[20]{0}, f64[20]{0}, f64[20]{0}, /*index=5*/f64[20]{0}, f64[20]{0}, f64[20]{0}, f64[20]{0}, f64[20]{0}, /*index=10*/f64[20]{0}, f64[20]{0}, f64[], f64[20]{0}, f64[20]{0}, /*index=15*/f64[20]{0}, f64[20]{0}, f64[20]{0}, f64[20]{0}, f64[20]{0}, /*index=20*/f64[20]{0}, f64[20]{0}, f64[20]{0}, f64[20]{0}, f64[20]{0}, /*index=25*/f64[20]{0}, f64[20]{0}, f64[20]{0}, f64[20]{0}, f64[20]{0}, /*index=30*/f64[20]{0}, f64[], f64[20]{0}, f64[20]{0}, f64[20]{0}, /*index=35*/f64[20]{0}, f64[20]{0}, f64[20]{0}, f64[20]{0}, f64[20]{0}, /*index=40*/f64[20]{0}, f64[20]{0}, f64[20]{0}, f64[20]{0}, s64[]) parameter(1)
  wrapped_copy.461 = f64[] fusion(p.598), kind=kLoop, calls=wrapped_copy_computation.461
  get-tuple-element.17712 = f64[] get-tuple-element(p.599), index=12
  wrapped_copy.442 = f64[] fusion(get-tuple-element.17712), kind=kLoop, calls=wrapped_copy_computation.442
  get-tuple-element.17743 = f64[20]{0} get-tuple-element(p.599), index=43
  get-tuple-element.17742 = f64[20]{0} get-tuple-element(p.599), index=42
  get-tuple-element.17741 = f64[20]{0} get-tuple-element(p.599), index=41
  get-tuple-element.17740 = f64[20]{0} get-tuple-element(p.599), index=40
  get-tuple-element.17739 = f64[20]{0} get-tuple-element(p.599), index=39
  get-tuple-element.17738 = f64[20]{0} get-tuple-element(p.599), index=38
  get-tuple-element.17737 = f64[20]{0} get-tuple-element(p.599), index=37
  get-tuple-element.17736 = f64[20]{0} get-tuple-element(p.599), index=36
  get-tuple-element.17735 = f64[20]{0} get-tuple-element(p.599), index=35
  get-tuple-element.17734 = f64[20]{0} get-tuple-element(p.599), index=34
  get-tuple-element.17733 = f64[20]{0} get-tuple-element(p.599), index=33
  get-tuple-element.17732 = f64[20]{0} get-tuple-element(p.599), index=32
  get-tuple-element.17730 = f64[20]{0} get-tuple-element(p.599), index=30
  get-tuple-element.17729 = f64[20]{0} get-tuple-element(p.599), index=29
  get-tuple-element.17728 = f64[20]{0} get-tuple-element(p.599), index=28
  get-tuple-element.17727 = f64[20]{0} get-tuple-element(p.599), index=27
  get-tuple-element.17726 = f64[20]{0} get-tuple-element(p.599), index=26
  get-tuple-element.17725 = f64[20]{0} get-tuple-element(p.599), index=25
  get-tuple-element.17724 = f64[20]{0} get-tuple-element(p.599), index=24
  get-tuple-element.17723 = f64[20]{0} get-tuple-element(p.599), index=23
  get-tuple-element.17722 = f64[20]{0} get-tuple-element(p.599), index=22
  get-tuple-element.17721 = f64[20]{0} get-tuple-element(p.599), index=21
  get-tuple-element.17720 = f64[20]{0} get-tuple-element(p.599), index=20
  get-tuple-element.17719 = f64[20]{0} get-tuple-element(p.599), index=19
  get-tuple-element.17718 = f64[20]{0} get-tuple-element(p.599), index=18
  get-tuple-element.17717 = f64[20]{0} get-tuple-element(p.599), index=17
  get-tuple-element.17716 = f64[20]{0} get-tuple-element(p.599), index=16
  get-tuple-element.17715 = f64[20]{0} get-tuple-element(p.599), index=15
  get-tuple-element.17714 = f64[20]{0} get-tuple-element(p.599), index=14
  get-tuple-element.17713 = f64[20]{0} get-tuple-element(p.599), index=13
  get-tuple-element.17711 = f64[20]{0} get-tuple-element(p.599), index=11
  get-tuple-element.17710 = f64[20]{0} get-tuple-element(p.599), index=10
  get-tuple-element.17709 = f64[20]{0} get-tuple-element(p.599), index=9
  get-tuple-element.17708 = f64[20]{0} get-tuple-element(p.599), index=8
  get-tuple-element.17707 = f64[20]{0} get-tuple-element(p.599), index=7
  get-tuple-element.17706 = f64[20]{0} get-tuple-element(p.599), index=6
  get-tuple-element.17705 = f64[20]{0} get-tuple-element(p.599), index=5
  get-tuple-element.17704 = f64[20]{0} get-tuple-element(p.599), index=4
  get-tuple-element.17703 = f64[20]{0} get-tuple-element(p.599), index=3
  get-tuple-element.17702 = f64[20]{0} get-tuple-element(p.599), index=2
  get-tuple-element.17701 = f64[20]{0} get-tuple-element(p.599), index=1
  get-tuple-element.17700 = f64[20]{0} get-tuple-element(p.599), index=0
  wrapped_copy.430 = f64[20]{0} fusion(get-tuple-element.17700), kind=kLoop, calls=wrapped_copy_computation.430
  wrapped_copy.431 = f64[20]{0} fusion(get-tuple-element.17701), kind=kLoop, calls=wrapped_copy_computation.431
  wrapped_copy.432 = f64[20]{0} fusion(get-tuple-element.17702), kind=kLoop, calls=wrapped_copy_computation.432
  wrapped_copy.433 = f64[20]{0} fusion(get-tuple-element.17703), kind=kLoop, calls=wrapped_copy_computation.433
  wrapped_copy.434 = f64[20]{0} fusion(get-tuple-element.17704), kind=kLoop, calls=wrapped_copy_computation.434
  wrapped_copy.435 = f64[20]{0} fusion(get-tuple-element.17705), kind=kLoop, calls=wrapped_copy_computation.435
  wrapped_copy.436 = f64[20]{0} fusion(get-tuple-element.17706), kind=kLoop, calls=wrapped_copy_computation.436
  wrapped_copy.437 = f64[20]{0} fusion(get-tuple-element.17707), kind=kLoop, calls=wrapped_copy_computation.437
  wrapped_copy.438 = f64[20]{0} fusion(get-tuple-element.17708), kind=kLoop, calls=wrapped_copy_computation.438
  wrapped_copy.439 = f64[20]{0} fusion(get-tuple-element.17709), kind=kLoop, calls=wrapped_copy_computation.439
  wrapped_copy.440 = f64[20]{0} fusion(get-tuple-element.17710), kind=kLoop, calls=wrapped_copy_computation.440
  wrapped_copy.441 = f64[20]{0} fusion(get-tuple-element.17711), kind=kLoop, calls=wrapped_copy_computation.441
  wrapped_copy.443 = f64[20]{0} fusion(get-tuple-element.17713), kind=kLoop, calls=wrapped_copy_computation.443
  wrapped_copy.444 = f64[20]{0} fusion(get-tuple-element.17714), kind=kLoop, calls=wrapped_copy_computation.444
  wrapped_copy.445 = f64[20]{0} fusion(get-tuple-element.17715), kind=kLoop, calls=wrapped_copy_computation.445
  wrapped_copy.446 = f64[20]{0} fusion(get-tuple-element.17716), kind=kLoop, calls=wrapped_copy_computation.446
  wrapped_copy.447 = f64[20]{0} fusion(get-tuple-element.17717), kind=kLoop, calls=wrapped_copy_computation.447
  wrapped_copy.448 = f64[20]{0} fusion(get-tuple-element.17718), kind=kLoop, calls=wrapped_copy_computation.448
  wrapped_copy.449 = f64[20]{0} fusion(get-tuple-element.17719), kind=kLoop, calls=wrapped_copy_computation.449
  wrapped_copy.450 = f64[20]{0} fusion(get-tuple-element.17720), kind=kLoop, calls=wrapped_copy_computation.450
  wrapped_copy.451 = f64[20]{0} fusion(get-tuple-element.17721), kind=kLoop, calls=wrapped_copy_computation.451
  wrapped_copy.452 = f64[20]{0} fusion(get-tuple-element.17722), kind=kLoop, calls=wrapped_copy_computation.452
  wrapped_copy.453 = f64[20]{0} fusion(get-tuple-element.17723), kind=kLoop, calls=wrapped_copy_computation.453
  wrapped_copy.454 = f64[20]{0} fusion(get-tuple-element.17724), kind=kLoop, calls=wrapped_copy_computation.454
  wrapped_copy.455 = f64[20]{0} fusion(get-tuple-element.17725), kind=kLoop, calls=wrapped_copy_computation.455
  wrapped_copy.456 = f64[20]{0} fusion(get-tuple-element.17726), kind=kLoop, calls=wrapped_copy_computation.456
  wrapped_copy.457 = f64[20]{0} fusion(get-tuple-element.17727), kind=kLoop, calls=wrapped_copy_computation.457
  wrapped_copy.458 = f64[20]{0} fusion(get-tuple-element.17728), kind=kLoop, calls=wrapped_copy_computation.458
  wrapped_copy.459 = f64[20]{0} fusion(get-tuple-element.17729), kind=kLoop, calls=wrapped_copy_computation.459
  wrapped_copy.460 = f64[20]{0} fusion(get-tuple-element.17730), kind=kLoop, calls=wrapped_copy_computation.460
  wrapped_copy.462 = f64[20]{0} fusion(get-tuple-element.17732), kind=kLoop, calls=wrapped_copy_computation.462
  wrapped_copy.463 = f64[20]{0} fusion(get-tuple-element.17733), kind=kLoop, calls=wrapped_copy_computation.463
  wrapped_copy.464 = f64[20]{0} fusion(get-tuple-element.17734), kind=kLoop, calls=wrapped_copy_computation.464
  wrapped_copy.465 = f64[20]{0} fusion(get-tuple-element.17735), kind=kLoop, calls=wrapped_copy_computation.465
  wrapped_copy.466 = f64[20]{0} fusion(get-tuple-element.17736), kind=kLoop, calls=wrapped_copy_computation.466
  wrapped_copy.467 = f64[20]{0} fusion(get-tuple-element.17737), kind=kLoop, calls=wrapped_copy_computation.467
  ROOT tuple.682 = (f64[], f64[], f64[20]{0}, f64[20]{0}, f64[20]{0}, /*index=5*/f64[20]{0}, f64[20]{0}, f64[20]{0}, f64[20]{0}, f64[20]{0}, /*index=10*/f64[20]{0}, f64[20]{0}, f64[20]{0}, f64[20]{0}, f64[20]{0}, /*index=15*/f64[20]{0}, f64[20]{0}, f64[20]{0}, f64[20]{0}, f64[20]{0}, /*index=20*/f64[20]{0}, f64[20]{0}, f64[20]{0}, f64[20]{0}, f64[20]{0}, /*index=25*/f64[20]{0}, f64[20]{0}, f64[20]{0}, f64[20]{0}, f64[20]{0}, /*index=30*/f64[20]{0}, f64[20]{0}, f64[20]{0}, f64[20]{0}, f64[20]{0}, /*index=35*/f64[20]{0}, f64[20]{0}, f64[20]{0}, f64[20]{0}, f64[20]{0}, /*index=40*/f64[20]{0}, f64[20]{0}, f64[20]{0}, f64[20]{0}) tuple(wrapped_copy.461, wrapped_copy.442, get-tuple-element.17743, get-tuple-element.17742, get-tuple-element.17741, /*index=5*/get-tuple-element.17740, get-tuple-element.17739, get-tuple-element.17738, wrapped_copy.430, wrapped_copy.431, /*index=10*/wrapped_copy.432, wrapped_copy.433, wrapped_copy.434, wrapped_copy.435, wrapped_copy.436, /*index=15*/wrapped_copy.437, wrapped_copy.438, wrapped_copy.439, wrapped_copy.440, wrapped_copy.441, /*index=20*/wrapped_copy.443, wrapped_copy.444, wrapped_copy.445, wrapped_copy.446, wrapped_copy.447, /*index=25*/wrapped_copy.448, wrapped_copy.449, wrapped_copy.450, wrapped_copy.451, wrapped_copy.452, /*index=30*/wrapped_copy.453, wrapped_copy.454, wrapped_copy.455, wrapped_copy.456, wrapped_copy.457, /*index=35*/wrapped_copy.458, wrapped_copy.459, wrapped_copy.460, wrapped_copy.462, wrapped_copy.463, /*index=40*/wrapped_copy.464, wrapped_copy.465, wrapped_copy.466, wrapped_copy.467)
} // command_buffer.48

region_46.7784 {
  arg_tuple.7785.0 = (f64[20]{0}, f64[20]{0}, f64[20]{0}, f64[20]{0}, f64[20]{0}, /*index=5*/f64[20]{0}, f64[20]{0}, f64[20]{0}, f64[20]{0}, f64[20]{0}, /*index=10*/f64[20]{0}, f64[20]{0}, f64[], f64[20]{0}, f64[20]{0}, /*index=15*/f64[20]{0}, f64[20]{0}, f64[20]{0}, f64[20]{0}, f64[20]{0}, /*index=20*/f64[20]{0}, f64[20]{0}, f64[20]{0}, f64[20]{0}, f64[20]{0}, /*index=25*/f64[20]{0}, f64[20]{0}, f64[20]{0}, f64[20]{0}, f64[20]{0}, /*index=30*/f64[20]{0}, f64[], f64[20]{0}, f64[20]{0}, f64[20]{0}, /*index=35*/f64[20]{0}, f64[20]{0}, f64[20]{0}, f64[20]{0}, f64[20]{0}, /*index=40*/f64[20]{0}, f64[20]{0}, f64[20]{0}, f64[20]{0}, s64[]) parameter(0)
  get-tuple-element.17744 = s64[] get-tuple-element(arg_tuple.7785.0), index=44
  get-tuple-element.17731 = f64[] get-tuple-element(arg_tuple.7785.0), index=31
  call.27 = (f64[], f64[], f64[20]{0}, f64[20]{0}, f64[20]{0}, /*index=5*/f64[20]{0}, f64[20]{0}, f64[20]{0}, f64[20]{0}, f64[20]{0}, /*index=10*/f64[20]{0}, f64[20]{0}, f64[20]{0}, f64[20]{0}, f64[20]{0}, /*index=15*/f64[20]{0}, f64[20]{0}, f64[20]{0}, f64[20]{0}, f64[20]{0}, /*index=20*/f64[20]{0}, f64[20]{0}, f64[20]{0}, f64[20]{0}, f64[20]{0}, /*index=25*/f64[20]{0}, f64[20]{0}, f64[20]{0}, f64[20]{0}, f64[20]{0}, /*index=30*/f64[20]{0}, f64[20]{0}, f64[20]{0}, f64[20]{0}, f64[20]{0}, /*index=35*/f64[20]{0}, f64[20]{0}, f64[20]{0}, f64[20]{0}, f64[20]{0}, /*index=40*/f64[20]{0}, f64[20]{0}, f64[20]{0}, f64[20]{0}) call(get-tuple-element.17731, arg_tuple.7785.0), to_apply=command_buffer.48
  get-tuple-element.20738 = f64[] get-tuple-element(call.27), index=0
  get-tuple-element.20739 = f64[] get-tuple-element(call.27), index=1
  get-tuple-element.20740 = f64[20]{0} get-tuple-element(call.27), index=2
  get-tuple-element.20741 = f64[20]{0} get-tuple-element(call.27), index=3
  get-tuple-element.20742 = f64[20]{0} get-tuple-element(call.27), index=4
  get-tuple-element.20743 = f64[20]{0} get-tuple-element(call.27), index=5
  get-tuple-element.20744 = f64[20]{0} get-tuple-element(call.27), index=6
  get-tuple-element.20745 = f64[20]{0} get-tuple-element(call.27), index=7
  get-tuple-element.20746 = f64[20]{0} get-tuple-element(call.27), index=8
  get-tuple-element.20747 = f64[20]{0} get-tuple-element(call.27), index=9
  get-tuple-element.20748 = f64[20]{0} get-tuple-element(call.27), index=10
  get-tuple-element.20749 = f64[20]{0} get-tuple-element(call.27), index=11
  get-tuple-element.20750 = f64[20]{0} get-tuple-element(call.27), index=12
  get-tuple-element.20751 = f64[20]{0} get-tuple-element(call.27), index=13
  get-tuple-element.20752 = f64[20]{0} get-tuple-element(call.27), index=14
  get-tuple-element.20753 = f64[20]{0} get-tuple-element(call.27), index=15
  get-tuple-element.20754 = f64[20]{0} get-tuple-element(call.27), index=16
  get-tuple-element.20755 = f64[20]{0} get-tuple-element(call.27), index=17
  get-tuple-element.20756 = f64[20]{0} get-tuple-element(call.27), index=18
  get-tuple-element.20757 = f64[20]{0} get-tuple-element(call.27), index=19
  get-tuple-element.20758 = f64[20]{0} get-tuple-element(call.27), index=20
  get-tuple-element.20759 = f64[20]{0} get-tuple-element(call.27), index=21
  get-tuple-element.20760 = f64[20]{0} get-tuple-element(call.27), index=22
  get-tuple-element.20761 = f64[20]{0} get-tuple-element(call.27), index=23
  get-tuple-element.20762 = f64[20]{0} get-tuple-element(call.27), index=24
  get-tuple-element.20763 = f64[20]{0} get-tuple-element(call.27), index=25
  get-tuple-element.20764 = f64[20]{0} get-tuple-element(call.27), index=26
  get-tuple-element.20765 = f64[20]{0} get-tuple-element(call.27), index=27
  get-tuple-element.20766 = f64[20]{0} get-tuple-element(call.27), index=28
  get-tuple-element.20767 = f64[20]{0} get-tuple-element(call.27), index=29
  get-tuple-element.20768 = f64[20]{0} get-tuple-element(call.27), index=30
  get-tuple-element.20769 = f64[20]{0} get-tuple-element(call.27), index=31
  get-tuple-element.20770 = f64[20]{0} get-tuple-element(call.27), index=32
  get-tuple-element.20771 = f64[20]{0} get-tuple-element(call.27), index=33
  get-tuple-element.20772 = f64[20]{0} get-tuple-element(call.27), index=34
  get-tuple-element.20773 = f64[20]{0} get-tuple-element(call.27), index=35
  get-tuple-element.20774 = f64[20]{0} get-tuple-element(call.27), index=36
  get-tuple-element.20775 = f64[20]{0} get-tuple-element(call.27), index=37
  get-tuple-element.20776 = f64[20]{0} get-tuple-element(call.27), index=38
  get-tuple-element.20777 = f64[20]{0} get-tuple-element(call.27), index=39
  get-tuple-element.20778 = f64[20]{0} get-tuple-element(call.27), index=40
  get-tuple-element.20779 = f64[20]{0} get-tuple-element(call.27), index=41
  get-tuple-element.20780 = f64[20]{0} get-tuple-element(call.27), index=42
  get-tuple-element.20781 = f64[20]{0} get-tuple-element(call.27), index=43
  ROOT tuple.612 = (f64[20]{0}, f64[20]{0}, f64[20]{0}, f64[20]{0}, f64[20]{0}, /*index=5*/f64[20]{0}, f64[20]{0}, f64[20]{0}, f64[20]{0}, f64[20]{0}, /*index=10*/f64[20]{0}, f64[20]{0}, f64[], f64[20]{0}, f64[20]{0}, /*index=15*/f64[20]{0}, f64[20]{0}, f64[20]{0}, f64[20]{0}, f64[20]{0}, /*index=20*/f64[20]{0}, f64[20]{0}, f64[20]{0}, f64[20]{0}, f64[20]{0}, /*index=25*/f64[20]{0}, f64[20]{0}, f64[20]{0}, f64[20]{0}, f64[20]{0}, /*index=30*/f64[20]{0}, f64[], f64[20]{0}, f64[20]{0}, f64[20]{0}, /*index=35*/f64[20]{0}, f64[20]{0}, f64[20]{0}, f64[20]{0}, f64[20]{0}, /*index=40*/f64[20]{0}, f64[20]{0}, f64[20]{0}, f64[20]{0}, s64[]) tuple(get-tuple-element.20746, get-tuple-element.20747, get-tuple-element.20748, get-tuple-element.20749, get-tuple-element.20750, /*index=5*/get-tuple-element.20751, get-tuple-element.20752, get-tuple-element.20753, get-tuple-element.20754, get-tuple-element.20755, /*index=10*/get-tuple-element.20756, get-tuple-element.20757, get-tuple-element.20739, get-tuple-element.20758, get-tuple-element.20759, /*index=15*/get-tuple-element.20760, get-tuple-element.20761, get-tuple-element.20762, get-tuple-element.20763, get-tuple-element.20764, /*index=20*/get-tuple-element.20765, get-tuple-element.20766, get-tuple-element.20767, get-tuple-element.20768, get-tuple-element.20769, /*index=25*/get-tuple-element.20770, get-tuple-element.20771, get-tuple-element.20772, get-tuple-element.20773, get-tuple-element.20774, /*index=30*/get-tuple-element.20775, get-tuple-element.20738, get-tuple-element.20776, get-tuple-element.20777, get-tuple-element.20778, /*index=35*/get-tuple-element.20779, get-tuple-element.20780, get-tuple-element.20781, get-tuple-element.20745, get-tuple-element.20744, /*index=40*/get-tuple-element.20743, get-tuple-element.20742, get-tuple-element.20741, get-tuple-element.20740, get-tuple-element.17744)
} // region_46.7784

wrapped_copy_computation.328 {
  param_0.3687 = f64[] parameter(0)
  ROOT copy.2172 = f64[] copy(param_0.3687)
}

wrapped_copy_computation.321 {
  param_0.3680 = f64[] parameter(0)
  ROOT copy.2165 = f64[] copy(param_0.3680)
}

wrapped_copy_computation.309 {
  param_0.3668 = f64[20]{0} parameter(0)
  ROOT copy.2153 = f64[20]{0} copy(param_0.3668)
}

wrapped_copy_computation.310 {
  param_0.3669 = f64[20]{0} parameter(0)
  ROOT copy.2154 = f64[20]{0} copy(param_0.3669)
}

wrapped_copy_computation.311 {
  param_0.3670 = f64[20]{0} parameter(0)
  ROOT copy.2155 = f64[20]{0} copy(param_0.3670)
}

wrapped_copy_computation.312 {
  param_0.3671 = f64[20]{0} parameter(0)
  ROOT copy.2156 = f64[20]{0} copy(param_0.3671)
}

wrapped_copy_computation.313 {
  param_0.3672 = f64[20]{0} parameter(0)
  ROOT copy.2157 = f64[20]{0} copy(param_0.3672)
}

wrapped_copy_computation.314 {
  param_0.3673 = f64[20]{0} parameter(0)
  ROOT copy.2158 = f64[20]{0} copy(param_0.3673)
}

wrapped_copy_computation.315 {
  param_0.3674 = f64[20]{0} parameter(0)
  ROOT copy.2159 = f64[20]{0} copy(param_0.3674)
}

wrapped_copy_computation.316 {
  param_0.3675 = f64[20]{0} parameter(0)
  ROOT copy.2160 = f64[20]{0} copy(param_0.3675)
}

wrapped_copy_computation.317 {
  param_0.3676 = f64[20]{0} parameter(0)
  ROOT copy.2161 = f64[20]{0} copy(param_0.3676)
}

wrapped_copy_computation.318 {
  param_0.3677 = f64[20]{0} parameter(0)
  ROOT copy.2162 = f64[20]{0} copy(param_0.3677)
}

wrapped_copy_computation.319 {
  param_0.3678 = f64[20]{0} parameter(0)
  ROOT copy.2163 = f64[20]{0} copy(param_0.3678)
}

wrapped_copy_computation.320 {
  param_0.3679 = f64[20]{0} parameter(0)
  ROOT copy.2164 = f64[20]{0} copy(param_0.3679)
}

wrapped_copy_computation.322 {
  param_0.3681 = f64[20]{0} parameter(0)
  ROOT copy.2166 = f64[20]{0} copy(param_0.3681)
}

wrapped_copy_computation.323 {
  param_0.3682 = f64[20]{0} parameter(0)
  ROOT copy.2167 = f64[20]{0} copy(param_0.3682)
}

wrapped_copy_computation.324 {
  param_0.3683 = f64[20]{0} parameter(0)
  ROOT copy.2168 = f64[20]{0} copy(param_0.3683)
}

wrapped_copy_computation.325 {
  param_0.3684 = f64[20]{0} parameter(0)
  ROOT copy.2169 = f64[20]{0} copy(param_0.3684)
}

wrapped_copy_computation.326 {
  param_0.3685 = f64[20]{0} parameter(0)
  ROOT copy.2170 = f64[20]{0} copy(param_0.3685)
}

wrapped_copy_computation.327 {
  param_0.3686 = f64[20]{0} parameter(0)
  ROOT copy.2171 = f64[20]{0} copy(param_0.3686)
}

command_buffer.46 {
  p.594 = f64[] parameter(0)
  p.595 = (f64[20]{0}, f64[20]{0}, f64[20]{0}, f64[20]{0}, f64[20]{0}, /*index=5*/f64[20]{0}, f64[20]{0}, f64[20]{0}, f64[20]{0}, f64[20]{0}, /*index=10*/f64[20]{0}, f64[20]{0}, f64[], f64[20]{0}, f64[20]{0}, /*index=15*/f64[20]{0}, f64[20]{0}, f64[20]{0}, f64[20]{0}, f64[], /*index=20*/f64[], f64[]) parameter(1)
  wrapped_copy.328 = f64[] fusion(p.594), kind=kLoop, calls=wrapped_copy_computation.328
  get-tuple-element.16619 = f64[] get-tuple-element(p.595), index=12
  wrapped_copy.321 = f64[] fusion(get-tuple-element.16619), kind=kLoop, calls=wrapped_copy_computation.321
  get-tuple-element.16625 = f64[20]{0} get-tuple-element(p.595), index=18
  get-tuple-element.16624 = f64[20]{0} get-tuple-element(p.595), index=17
  get-tuple-element.16623 = f64[20]{0} get-tuple-element(p.595), index=16
  get-tuple-element.16622 = f64[20]{0} get-tuple-element(p.595), index=15
  get-tuple-element.16621 = f64[20]{0} get-tuple-element(p.595), index=14
  get-tuple-element.16620 = f64[20]{0} get-tuple-element(p.595), index=13
  get-tuple-element.16618 = f64[20]{0} get-tuple-element(p.595), index=11
  get-tuple-element.16617 = f64[20]{0} get-tuple-element(p.595), index=10
  get-tuple-element.16616 = f64[20]{0} get-tuple-element(p.595), index=9
  get-tuple-element.16615 = f64[20]{0} get-tuple-element(p.595), index=8
  get-tuple-element.16614 = f64[20]{0} get-tuple-element(p.595), index=7
  get-tuple-element.16613 = f64[20]{0} get-tuple-element(p.595), index=6
  get-tuple-element.16612 = f64[20]{0} get-tuple-element(p.595), index=5
  get-tuple-element.16611 = f64[20]{0} get-tuple-element(p.595), index=4
  get-tuple-element.16610 = f64[20]{0} get-tuple-element(p.595), index=3
  get-tuple-element.16609 = f64[20]{0} get-tuple-element(p.595), index=2
  get-tuple-element.16608 = f64[20]{0} get-tuple-element(p.595), index=1
  get-tuple-element.16607 = f64[20]{0} get-tuple-element(p.595), index=0
  wrapped_copy.309 = f64[20]{0} fusion(get-tuple-element.16607), kind=kLoop, calls=wrapped_copy_computation.309
  wrapped_copy.310 = f64[20]{0} fusion(get-tuple-element.16608), kind=kLoop, calls=wrapped_copy_computation.310
  wrapped_copy.311 = f64[20]{0} fusion(get-tuple-element.16609), kind=kLoop, calls=wrapped_copy_computation.311
  wrapped_copy.312 = f64[20]{0} fusion(get-tuple-element.16610), kind=kLoop, calls=wrapped_copy_computation.312
  wrapped_copy.313 = f64[20]{0} fusion(get-tuple-element.16611), kind=kLoop, calls=wrapped_copy_computation.313
  wrapped_copy.314 = f64[20]{0} fusion(get-tuple-element.16612), kind=kLoop, calls=wrapped_copy_computation.314
  wrapped_copy.315 = f64[20]{0} fusion(get-tuple-element.16613), kind=kLoop, calls=wrapped_copy_computation.315
  wrapped_copy.316 = f64[20]{0} fusion(get-tuple-element.16614), kind=kLoop, calls=wrapped_copy_computation.316
  wrapped_copy.317 = f64[20]{0} fusion(get-tuple-element.16615), kind=kLoop, calls=wrapped_copy_computation.317
  wrapped_copy.318 = f64[20]{0} fusion(get-tuple-element.16616), kind=kLoop, calls=wrapped_copy_computation.318
  wrapped_copy.319 = f64[20]{0} fusion(get-tuple-element.16617), kind=kLoop, calls=wrapped_copy_computation.319
  wrapped_copy.320 = f64[20]{0} fusion(get-tuple-element.16618), kind=kLoop, calls=wrapped_copy_computation.320
  wrapped_copy.322 = f64[20]{0} fusion(get-tuple-element.16620), kind=kLoop, calls=wrapped_copy_computation.322
  wrapped_copy.323 = f64[20]{0} fusion(get-tuple-element.16621), kind=kLoop, calls=wrapped_copy_computation.323
  wrapped_copy.324 = f64[20]{0} fusion(get-tuple-element.16622), kind=kLoop, calls=wrapped_copy_computation.324
  wrapped_copy.325 = f64[20]{0} fusion(get-tuple-element.16623), kind=kLoop, calls=wrapped_copy_computation.325
  wrapped_copy.326 = f64[20]{0} fusion(get-tuple-element.16624), kind=kLoop, calls=wrapped_copy_computation.326
  wrapped_copy.327 = f64[20]{0} fusion(get-tuple-element.16625), kind=kLoop, calls=wrapped_copy_computation.327
  ROOT tuple.680 = (f64[], f64[], f64[20]{0}, f64[20]{0}, f64[20]{0}, /*index=5*/f64[20]{0}, f64[20]{0}, f64[20]{0}, f64[20]{0}, f64[20]{0}, /*index=10*/f64[20]{0}, f64[20]{0}, f64[20]{0}, f64[20]{0}, f64[20]{0}, /*index=15*/f64[20]{0}, f64[20]{0}, f64[20]{0}, f64[20]{0}, f64[20]{0}) tuple(wrapped_copy.328, wrapped_copy.321, wrapped_copy.309, wrapped_copy.310, wrapped_copy.311, /*index=5*/wrapped_copy.312, wrapped_copy.313, wrapped_copy.314, wrapped_copy.315, wrapped_copy.316, /*index=10*/wrapped_copy.317, wrapped_copy.318, wrapped_copy.319, wrapped_copy.320, wrapped_copy.322, /*index=15*/wrapped_copy.323, wrapped_copy.324, wrapped_copy.325, wrapped_copy.326, wrapped_copy.327)
} // command_buffer.46

region_49.8085.clone.1 {
  arg_tuple.86.0 = (f64[20]{0}, f64[20]{0}, f64[20]{0}, f64[20]{0}, f64[20]{0}, /*index=5*/f64[20]{0}, f64[20]{0}, f64[20]{0}, f64[20]{0}, f64[20]{0}, /*index=10*/f64[20]{0}, f64[20]{0}, f64[], f64[20]{0}, f64[20]{0}, /*index=15*/f64[20]{0}, f64[20]{0}, f64[20]{0}, f64[20]{0}, f64[], /*index=20*/f64[], f64[]) parameter(0)
  get-tuple-element.16628 = f64[] get-tuple-element(arg_tuple.86.0), index=21
  get-tuple-element.16627 = f64[] get-tuple-element(arg_tuple.86.0), index=20
  get-tuple-element.16626 = f64[] get-tuple-element(arg_tuple.86.0), index=19
  call.26 = (f64[], f64[], f64[20]{0}, f64[20]{0}, f64[20]{0}, /*index=5*/f64[20]{0}, f64[20]{0}, f64[20]{0}, f64[20]{0}, f64[20]{0}, /*index=10*/f64[20]{0}, f64[20]{0}, f64[20]{0}, f64[20]{0}, f64[20]{0}, /*index=15*/f64[20]{0}, f64[20]{0}, f64[20]{0}, f64[20]{0}, f64[20]{0}) call(get-tuple-element.16626, arg_tuple.86.0), to_apply=command_buffer.46
  get-tuple-element.20675 = f64[] get-tuple-element(call.26), index=0
  get-tuple-element.20676 = f64[] get-tuple-element(call.26), index=1
  get-tuple-element.20677 = f64[20]{0} get-tuple-element(call.26), index=2
  get-tuple-element.20678 = f64[20]{0} get-tuple-element(call.26), index=3
  get-tuple-element.20679 = f64[20]{0} get-tuple-element(call.26), index=4
  get-tuple-element.20680 = f64[20]{0} get-tuple-element(call.26), index=5
  get-tuple-element.20681 = f64[20]{0} get-tuple-element(call.26), index=6
  get-tuple-element.20682 = f64[20]{0} get-tuple-element(call.26), index=7
  get-tuple-element.20683 = f64[20]{0} get-tuple-element(call.26), index=8
  get-tuple-element.20684 = f64[20]{0} get-tuple-element(call.26), index=9
  get-tuple-element.20685 = f64[20]{0} get-tuple-element(call.26), index=10
  get-tuple-element.20686 = f64[20]{0} get-tuple-element(call.26), index=11
  get-tuple-element.20687 = f64[20]{0} get-tuple-element(call.26), index=12
  get-tuple-element.20688 = f64[20]{0} get-tuple-element(call.26), index=13
  get-tuple-element.20689 = f64[20]{0} get-tuple-element(call.26), index=14
  get-tuple-element.20690 = f64[20]{0} get-tuple-element(call.26), index=15
  get-tuple-element.20691 = f64[20]{0} get-tuple-element(call.26), index=16
  get-tuple-element.20692 = f64[20]{0} get-tuple-element(call.26), index=17
  get-tuple-element.20693 = f64[20]{0} get-tuple-element(call.26), index=18
  get-tuple-element.20694 = f64[20]{0} get-tuple-element(call.26), index=19
  ROOT tuple.585 = (f64[20]{0}, f64[20]{0}, f64[20]{0}, f64[20]{0}, f64[20]{0}, /*index=5*/f64[20]{0}, f64[20]{0}, f64[20]{0}, f64[20]{0}, f64[20]{0}, /*index=10*/f64[20]{0}, f64[20]{0}, f64[], f64[20]{0}, f64[20]{0}, /*index=15*/f64[20]{0}, f64[20]{0}, f64[20]{0}, f64[20]{0}, f64[], /*index=20*/f64[], f64[]) tuple(get-tuple-element.20677, get-tuple-element.20678, get-tuple-element.20679, get-tuple-element.20680, get-tuple-element.20681, /*index=5*/get-tuple-element.20682, get-tuple-element.20683, get-tuple-element.20684, get-tuple-element.20685, get-tuple-element.20686, /*index=10*/get-tuple-element.20687, get-tuple-element.20688, get-tuple-element.20676, get-tuple-element.20689, get-tuple-element.20690, /*index=15*/get-tuple-element.20691, get-tuple-element.20692, get-tuple-element.20693, get-tuple-element.20694, get-tuple-element.20675, /*index=20*/get-tuple-element.16627, get-tuple-element.16628)
} // region_49.8085.clone.1

wrapped_copy_computation.348 {
  param_0.3707 = f64[] parameter(0)
  ROOT copy.2192 = f64[] copy(param_0.3707)
}

wrapped_copy_computation.341 {
  param_0.3700 = f64[] parameter(0)
  ROOT copy.2185 = f64[] copy(param_0.3700)
}

wrapped_copy_computation.329 {
  param_0.3688 = f64[20]{0} parameter(0)
  ROOT copy.2173 = f64[20]{0} copy(param_0.3688)
}

wrapped_copy_computation.330 {
  param_0.3689 = f64[20]{0} parameter(0)
  ROOT copy.2174 = f64[20]{0} copy(param_0.3689)
}

wrapped_copy_computation.331 {
  param_0.3690 = f64[20]{0} parameter(0)
  ROOT copy.2175 = f64[20]{0} copy(param_0.3690)
}

wrapped_copy_computation.332 {
  param_0.3691 = f64[20]{0} parameter(0)
  ROOT copy.2176 = f64[20]{0} copy(param_0.3691)
}

wrapped_copy_computation.333 {
  param_0.3692 = f64[20]{0} parameter(0)
  ROOT copy.2177 = f64[20]{0} copy(param_0.3692)
}

wrapped_copy_computation.334 {
  param_0.3693 = f64[20]{0} parameter(0)
  ROOT copy.2178 = f64[20]{0} copy(param_0.3693)
}

wrapped_copy_computation.335 {
  param_0.3694 = f64[20]{0} parameter(0)
  ROOT copy.2179 = f64[20]{0} copy(param_0.3694)
}

wrapped_copy_computation.336 {
  param_0.3695 = f64[20]{0} parameter(0)
  ROOT copy.2180 = f64[20]{0} copy(param_0.3695)
}

wrapped_copy_computation.337 {
  param_0.3696 = f64[20]{0} parameter(0)
  ROOT copy.2181 = f64[20]{0} copy(param_0.3696)
}

wrapped_copy_computation.338 {
  param_0.3697 = f64[20]{0} parameter(0)
  ROOT copy.2182 = f64[20]{0} copy(param_0.3697)
}

wrapped_copy_computation.339 {
  param_0.3698 = f64[20]{0} parameter(0)
  ROOT copy.2183 = f64[20]{0} copy(param_0.3698)
}

wrapped_copy_computation.340 {
  param_0.3699 = f64[20]{0} parameter(0)
  ROOT copy.2184 = f64[20]{0} copy(param_0.3699)
}

wrapped_copy_computation.342 {
  param_0.3701 = f64[20]{0} parameter(0)
  ROOT copy.2186 = f64[20]{0} copy(param_0.3701)
}

wrapped_copy_computation.343 {
  param_0.3702 = f64[20]{0} parameter(0)
  ROOT copy.2187 = f64[20]{0} copy(param_0.3702)
}

wrapped_copy_computation.344 {
  param_0.3703 = f64[20]{0} parameter(0)
  ROOT copy.2188 = f64[20]{0} copy(param_0.3703)
}

wrapped_copy_computation.345 {
  param_0.3704 = f64[20]{0} parameter(0)
  ROOT copy.2189 = f64[20]{0} copy(param_0.3704)
}

wrapped_copy_computation.346 {
  param_0.3705 = f64[20]{0} parameter(0)
  ROOT copy.2190 = f64[20]{0} copy(param_0.3705)
}

wrapped_copy_computation.347 {
  param_0.3706 = f64[20]{0} parameter(0)
  ROOT copy.2191 = f64[20]{0} copy(param_0.3706)
}

command_buffer.44 {
  p.590 = f64[] parameter(0)
  p.591 = (f64[20]{0}, f64[20]{0}, f64[20]{0}, f64[20]{0}, f64[20]{0}, /*index=5*/f64[20]{0}, f64[20]{0}, f64[20]{0}, f64[20]{0}, f64[20]{0}, /*index=10*/f64[20]{0}, f64[20]{0}, f64[], f64[20]{0}, f64[20]{0}, /*index=15*/f64[20]{0}, f64[20]{0}, f64[20]{0}, f64[20]{0}, f64[], /*index=20*/f64[], f64[]) parameter(1)
  wrapped_copy.348 = f64[] fusion(p.590), kind=kLoop, calls=wrapped_copy_computation.348
  get-tuple-element.16641 = f64[] get-tuple-element(p.591), index=12
  wrapped_copy.341 = f64[] fusion(get-tuple-element.16641), kind=kLoop, calls=wrapped_copy_computation.341
  get-tuple-element.16647 = f64[20]{0} get-tuple-element(p.591), index=18
  get-tuple-element.16646 = f64[20]{0} get-tuple-element(p.591), index=17
  get-tuple-element.16645 = f64[20]{0} get-tuple-element(p.591), index=16
  get-tuple-element.16644 = f64[20]{0} get-tuple-element(p.591), index=15
  get-tuple-element.16643 = f64[20]{0} get-tuple-element(p.591), index=14
  get-tuple-element.16642 = f64[20]{0} get-tuple-element(p.591), index=13
  get-tuple-element.16640 = f64[20]{0} get-tuple-element(p.591), index=11
  get-tuple-element.16639 = f64[20]{0} get-tuple-element(p.591), index=10
  get-tuple-element.16638 = f64[20]{0} get-tuple-element(p.591), index=9
  get-tuple-element.16637 = f64[20]{0} get-tuple-element(p.591), index=8
  get-tuple-element.16636 = f64[20]{0} get-tuple-element(p.591), index=7
  get-tuple-element.16635 = f64[20]{0} get-tuple-element(p.591), index=6
  get-tuple-element.16634 = f64[20]{0} get-tuple-element(p.591), index=5
  get-tuple-element.16633 = f64[20]{0} get-tuple-element(p.591), index=4
  get-tuple-element.16632 = f64[20]{0} get-tuple-element(p.591), index=3
  get-tuple-element.16631 = f64[20]{0} get-tuple-element(p.591), index=2
  get-tuple-element.16630 = f64[20]{0} get-tuple-element(p.591), index=1
  get-tuple-element.16629 = f64[20]{0} get-tuple-element(p.591), index=0
  wrapped_copy.329 = f64[20]{0} fusion(get-tuple-element.16629), kind=kLoop, calls=wrapped_copy_computation.329
  wrapped_copy.330 = f64[20]{0} fusion(get-tuple-element.16630), kind=kLoop, calls=wrapped_copy_computation.330
  wrapped_copy.331 = f64[20]{0} fusion(get-tuple-element.16631), kind=kLoop, calls=wrapped_copy_computation.331
  wrapped_copy.332 = f64[20]{0} fusion(get-tuple-element.16632), kind=kLoop, calls=wrapped_copy_computation.332
  wrapped_copy.333 = f64[20]{0} fusion(get-tuple-element.16633), kind=kLoop, calls=wrapped_copy_computation.333
  wrapped_copy.334 = f64[20]{0} fusion(get-tuple-element.16634), kind=kLoop, calls=wrapped_copy_computation.334
  wrapped_copy.335 = f64[20]{0} fusion(get-tuple-element.16635), kind=kLoop, calls=wrapped_copy_computation.335
  wrapped_copy.336 = f64[20]{0} fusion(get-tuple-element.16636), kind=kLoop, calls=wrapped_copy_computation.336
  wrapped_copy.337 = f64[20]{0} fusion(get-tuple-element.16637), kind=kLoop, calls=wrapped_copy_computation.337
  wrapped_copy.338 = f64[20]{0} fusion(get-tuple-element.16638), kind=kLoop, calls=wrapped_copy_computation.338
  wrapped_copy.339 = f64[20]{0} fusion(get-tuple-element.16639), kind=kLoop, calls=wrapped_copy_computation.339
  wrapped_copy.340 = f64[20]{0} fusion(get-tuple-element.16640), kind=kLoop, calls=wrapped_copy_computation.340
  wrapped_copy.342 = f64[20]{0} fusion(get-tuple-element.16642), kind=kLoop, calls=wrapped_copy_computation.342
  wrapped_copy.343 = f64[20]{0} fusion(get-tuple-element.16643), kind=kLoop, calls=wrapped_copy_computation.343
  wrapped_copy.344 = f64[20]{0} fusion(get-tuple-element.16644), kind=kLoop, calls=wrapped_copy_computation.344
  wrapped_copy.345 = f64[20]{0} fusion(get-tuple-element.16645), kind=kLoop, calls=wrapped_copy_computation.345
  wrapped_copy.346 = f64[20]{0} fusion(get-tuple-element.16646), kind=kLoop, calls=wrapped_copy_computation.346
  wrapped_copy.347 = f64[20]{0} fusion(get-tuple-element.16647), kind=kLoop, calls=wrapped_copy_computation.347
  ROOT tuple.678 = (f64[], f64[], f64[20]{0}, f64[20]{0}, f64[20]{0}, /*index=5*/f64[20]{0}, f64[20]{0}, f64[20]{0}, f64[20]{0}, f64[20]{0}, /*index=10*/f64[20]{0}, f64[20]{0}, f64[20]{0}, f64[20]{0}, f64[20]{0}, /*index=15*/f64[20]{0}, f64[20]{0}, f64[20]{0}, f64[20]{0}, f64[20]{0}) tuple(wrapped_copy.348, wrapped_copy.341, wrapped_copy.329, wrapped_copy.330, wrapped_copy.331, /*index=5*/wrapped_copy.332, wrapped_copy.333, wrapped_copy.334, wrapped_copy.335, wrapped_copy.336, /*index=10*/wrapped_copy.337, wrapped_copy.338, wrapped_copy.339, wrapped_copy.340, wrapped_copy.342, /*index=15*/wrapped_copy.343, wrapped_copy.344, wrapped_copy.345, wrapped_copy.346, wrapped_copy.347)
} // command_buffer.44

region_49.8085.clone.2 {
  arg_tuple.87.0 = (f64[20]{0}, f64[20]{0}, f64[20]{0}, f64[20]{0}, f64[20]{0}, /*index=5*/f64[20]{0}, f64[20]{0}, f64[20]{0}, f64[20]{0}, f64[20]{0}, /*index=10*/f64[20]{0}, f64[20]{0}, f64[], f64[20]{0}, f64[20]{0}, /*index=15*/f64[20]{0}, f64[20]{0}, f64[20]{0}, f64[20]{0}, f64[], /*index=20*/f64[], f64[]) parameter(0)
  get-tuple-element.16650 = f64[] get-tuple-element(arg_tuple.87.0), index=21
  get-tuple-element.16649 = f64[] get-tuple-element(arg_tuple.87.0), index=20
  get-tuple-element.16648 = f64[] get-tuple-element(arg_tuple.87.0), index=19
  call.25 = (f64[], f64[], f64[20]{0}, f64[20]{0}, f64[20]{0}, /*index=5*/f64[20]{0}, f64[20]{0}, f64[20]{0}, f64[20]{0}, f64[20]{0}, /*index=10*/f64[20]{0}, f64[20]{0}, f64[20]{0}, f64[20]{0}, f64[20]{0}, /*index=15*/f64[20]{0}, f64[20]{0}, f64[20]{0}, f64[20]{0}, f64[20]{0}) call(get-tuple-element.16648, arg_tuple.87.0), to_apply=command_buffer.44
  get-tuple-element.20636 = f64[] get-tuple-element(call.25), index=0
  get-tuple-element.20637 = f64[] get-tuple-element(call.25), index=1
  get-tuple-element.20638 = f64[20]{0} get-tuple-element(call.25), index=2
  get-tuple-element.20639 = f64[20]{0} get-tuple-element(call.25), index=3
  get-tuple-element.20640 = f64[20]{0} get-tuple-element(call.25), index=4
  get-tuple-element.20641 = f64[20]{0} get-tuple-element(call.25), index=5
  get-tuple-element.20642 = f64[20]{0} get-tuple-element(call.25), index=6
  get-tuple-element.20643 = f64[20]{0} get-tuple-element(call.25), index=7
  get-tuple-element.20644 = f64[20]{0} get-tuple-element(call.25), index=8
  get-tuple-element.20645 = f64[20]{0} get-tuple-element(call.25), index=9
  get-tuple-element.20646 = f64[20]{0} get-tuple-element(call.25), index=10
  get-tuple-element.20647 = f64[20]{0} get-tuple-element(call.25), index=11
  get-tuple-element.20648 = f64[20]{0} get-tuple-element(call.25), index=12
  get-tuple-element.20649 = f64[20]{0} get-tuple-element(call.25), index=13
  get-tuple-element.20650 = f64[20]{0} get-tuple-element(call.25), index=14
  get-tuple-element.20651 = f64[20]{0} get-tuple-element(call.25), index=15
  get-tuple-element.20652 = f64[20]{0} get-tuple-element(call.25), index=16
  get-tuple-element.20653 = f64[20]{0} get-tuple-element(call.25), index=17
  get-tuple-element.20654 = f64[20]{0} get-tuple-element(call.25), index=18
  get-tuple-element.20655 = f64[20]{0} get-tuple-element(call.25), index=19
  ROOT tuple.586 = (f64[20]{0}, f64[20]{0}, f64[20]{0}, f64[20]{0}, f64[20]{0}, /*index=5*/f64[20]{0}, f64[20]{0}, f64[20]{0}, f64[20]{0}, f64[20]{0}, /*index=10*/f64[20]{0}, f64[20]{0}, f64[], f64[20]{0}, f64[20]{0}, /*index=15*/f64[20]{0}, f64[20]{0}, f64[20]{0}, f64[20]{0}, f64[], /*index=20*/f64[], f64[]) tuple(get-tuple-element.20638, get-tuple-element.20639, get-tuple-element.20640, get-tuple-element.20641, get-tuple-element.20642, /*index=5*/get-tuple-element.20643, get-tuple-element.20644, get-tuple-element.20645, get-tuple-element.20646, get-tuple-element.20647, /*index=10*/get-tuple-element.20648, get-tuple-element.20649, get-tuple-element.20637, get-tuple-element.20650, get-tuple-element.20651, /*index=15*/get-tuple-element.20652, get-tuple-element.20653, get-tuple-element.20654, get-tuple-element.20655, get-tuple-element.20636, /*index=20*/get-tuple-element.16649, get-tuple-element.16650)
} // region_49.8085.clone.2

fused_select {
  param_0.124 = f64[] parameter(0)
  param_1.162 = f64[] parameter(1)
  subtract.220.1 = f64[] subtract(param_0.124, param_1.162), metadata={op_name="jit(scan)/jit(main)/while/body/while/body/cond/branch_0_fun/jit(logaddexp)/sub" source_file="/fs04/fc37/adam/projects/psilocybin-prl-analyses/src/prl_hgf/fitting/hierarchical.py" source_line=1011}
  compare.609.1 = pred[] compare(subtract.220.1, subtract.220.1), direction=NE, metadata={op_name="jit(scan)/jit(main)/while/body/while/body/cond/branch_0_fun/jit(logaddexp)/ne" source_file="/fs04/fc37/adam/projects/psilocybin-prl-analyses/src/prl_hgf/fitting/hierarchical.py" source_line=1011}
  add.3662.1 = f64[] add(param_0.124, param_1.162), metadata={op_name="jit(scan)/jit(main)/while/body/while/body/cond/branch_0_fun/jit(logaddexp)/add" source_file="/fs04/fc37/adam/projects/psilocybin-prl-analyses/src/prl_hgf/fitting/hierarchical.py" source_line=1011}
  maximum.36.1 = f64[] maximum(param_0.124, param_1.162), metadata={op_name="jit(scan)/jit(main)/while/body/while/body/cond/branch_0_fun/jit(logaddexp)/max" source_file="/fs04/fc37/adam/projects/psilocybin-prl-analyses/src/prl_hgf/fitting/hierarchical.py" source_line=1011}
  abs.42.1 = f64[] abs(subtract.220.1), metadata={op_name="jit(scan)/jit(main)/while/body/while/body/cond/branch_0_fun/jit(logaddexp)/abs" source_file="/fs04/fc37/adam/projects/psilocybin-prl-analyses/src/prl_hgf/fitting/hierarchical.py" source_line=1011}
  negate.443.1 = f64[] negate(abs.42.1), metadata={op_name="jit(scan)/jit(main)/while/body/while/body/cond/branch_0_fun/jit(logaddexp)/neg" source_file="/fs04/fc37/adam/projects/psilocybin-prl-analyses/src/prl_hgf/fitting/hierarchical.py" source_line=1011}
  exponential.105.1 = f64[] exponential(negate.443.1), metadata={op_name="jit(scan)/jit(main)/while/body/while/body/cond/branch_0_fun/jit(logaddexp)/exp" source_file="/fs04/fc37/adam/projects/psilocybin-prl-analyses/src/prl_hgf/fitting/hierarchical.py" source_line=1011}
  log-plus-one.16.1 = f64[] log-plus-one(exponential.105.1), metadata={op_name="jit(scan)/jit(main)/while/body/while/body/cond/branch_0_fun/jit(logaddexp)/log1p" source_file="/fs04/fc37/adam/projects/psilocybin-prl-analyses/src/prl_hgf/fitting/hierarchical.py" source_line=1011}
  add.3663.1 = f64[] add(maximum.36.1, log-plus-one.16.1), metadata={op_name="jit(scan)/jit(main)/while/body/while/body/cond/branch_0_fun/jit(logaddexp)/add" source_file="/fs04/fc37/adam/projects/psilocybin-prl-analyses/src/prl_hgf/fitting/hierarchical.py" source_line=1011}
  ROOT select.2188.1 = f64[] select(compare.609.1, add.3662.1, add.3663.1), metadata={op_name="jit(scan)/jit(main)/while/body/while/body/cond/branch_0_fun/jit(logaddexp)/select_n" source_file="/fs04/fc37/adam/projects/psilocybin-prl-analyses/src/prl_hgf/fitting/hierarchical.py" source_line=1011}
} // fused_select

fused_select.1 {
  param_0.125 = f64[] parameter(0)
  param_1.164 = f64[] parameter(1)
  subtract.219.1 = f64[] subtract(param_0.125, param_1.164), metadata={op_name="jit(scan)/jit(main)/while/body/while/body/cond/branch_0_fun/jit(logaddexp)/sub" source_file="/fs04/fc37/adam/projects/psilocybin-prl-analyses/src/prl_hgf/fitting/hierarchical.py" source_line=1011}
  compare.608.1 = pred[] compare(subtract.219.1, subtract.219.1), direction=NE, metadata={op_name="jit(scan)/jit(main)/while/body/while/body/cond/branch_0_fun/jit(logaddexp)/ne" source_file="/fs04/fc37/adam/projects/psilocybin-prl-analyses/src/prl_hgf/fitting/hierarchical.py" source_line=1011}
  add.3660.1 = f64[] add(param_0.125, param_1.164), metadata={op_name="jit(scan)/jit(main)/while/body/while/body/cond/branch_0_fun/jit(logaddexp)/add" source_file="/fs04/fc37/adam/projects/psilocybin-prl-analyses/src/prl_hgf/fitting/hierarchical.py" source_line=1011}
  maximum.35.1 = f64[] maximum(param_0.125, param_1.164), metadata={op_name="jit(scan)/jit(main)/while/body/while/body/cond/branch_0_fun/jit(logaddexp)/max" source_file="/fs04/fc37/adam/projects/psilocybin-prl-analyses/src/prl_hgf/fitting/hierarchical.py" source_line=1011}
  abs.41.1 = f64[] abs(subtract.219.1), metadata={op_name="jit(scan)/jit(main)/while/body/while/body/cond/branch_0_fun/jit(logaddexp)/abs" source_file="/fs04/fc37/adam/projects/psilocybin-prl-analyses/src/prl_hgf/fitting/hierarchical.py" source_line=1011}
  negate.442.1 = f64[] negate(abs.41.1), metadata={op_name="jit(scan)/jit(main)/while/body/while/body/cond/branch_0_fun/jit(logaddexp)/neg" source_file="/fs04/fc37/adam/projects/psilocybin-prl-analyses/src/prl_hgf/fitting/hierarchical.py" source_line=1011}
  exponential.104.1 = f64[] exponential(negate.442.1), metadata={op_name="jit(scan)/jit(main)/while/body/while/body/cond/branch_0_fun/jit(logaddexp)/exp" source_file="/fs04/fc37/adam/projects/psilocybin-prl-analyses/src/prl_hgf/fitting/hierarchical.py" source_line=1011}
  log-plus-one.15.1 = f64[] log-plus-one(exponential.104.1), metadata={op_name="jit(scan)/jit(main)/while/body/while/body/cond/branch_0_fun/jit(logaddexp)/log1p" source_file="/fs04/fc37/adam/projects/psilocybin-prl-analyses/src/prl_hgf/fitting/hierarchical.py" source_line=1011}
  add.3661.1 = f64[] add(maximum.35.1, log-plus-one.15.1), metadata={op_name="jit(scan)/jit(main)/while/body/while/body/cond/branch_0_fun/jit(logaddexp)/add" source_file="/fs04/fc37/adam/projects/psilocybin-prl-analyses/src/prl_hgf/fitting/hierarchical.py" source_line=1011}
  ROOT select.2187.1 = f64[] select(compare.608.1, add.3660.1, add.3661.1), metadata={op_name="jit(scan)/jit(main)/while/body/while/body/cond/branch_0_fun/jit(logaddexp)/select_n" source_file="/fs04/fc37/adam/projects/psilocybin-prl-analyses/src/prl_hgf/fitting/hierarchical.py" source_line=1011}
} // fused_select.1

fused_convert {
  constant_1334_1 = f64[1]{0} constant({0})
  iota.28.3 = u32[2]{0} iota(), iota_dimension=0, metadata={op_name="jit(scan)/jit(main)/while/body/while/body/while/body/cond/branch_0_fun/jit(_bernoulli)/jit(_uniform)/iota[dtype=uint32 shape=(2,) dimension=0]" source_file="/fs04/fc37/adam/projects/psilocybin-prl-analyses/src/prl_hgf/fitting/hierarchical.py" source_line=1011}
  param_2.129 = u32[2]{0} parameter(2)
  add.3620.3 = u32[2]{0} add(iota.28.3, param_2.129), metadata={op_name="jit(scan)/jit(main)/while/body/while/body/while/body/cond/branch_0_fun/jit(_bernoulli)/jit(_uniform)/add" source_file="/fs04/fc37/adam/projects/psilocybin-prl-analyses/src/prl_hgf/fitting/hierarchical.py" source_line=1011}
  slice.175.7 = u32[1]{0} slice(add.3620.3), slice={[0:1]}, metadata={op_name="jit(scan)/jit(main)/while/body/while/body/while/body/cond/branch_0_fun/jit(_bernoulli)/jit(_uniform)/slice[start_indices=(np.int64(0),) limit_indices=(np.int64(1),) strides=None]" source_file="/fs04/fc37/adam/projects/psilocybin-prl-analyses/src/prl_hgf/fitting/hierarchical.py" source_line=1011}
  slice.176.15 = u32[1]{0} slice(add.3620.3), slice={[1:2]}, metadata={op_name="jit(scan)/jit(main)/while/body/while/body/while/body/cond/branch_0_fun/jit(_bernoulli)/jit(_uniform)/slice[start_indices=(np.int64(1),) limit_indices=(np.int64(2),) strides=None]" source_file="/fs04/fc37/adam/projects/psilocybin-prl-analyses/src/prl_hgf/fitting/hierarchical.py" source_line=1011}
  add.3621.7 = u32[1]{0} add(slice.175.7, slice.176.15), metadata={op_name="jit(scan)/jit(main)/while/body/while/body/while/body/cond/branch_0_fun/jit(_bernoulli)/jit(_uniform)/add" source_file="/fs04/fc37/adam/projects/psilocybin-prl-analyses/src/prl_hgf/fitting/hierarchical.py" source_line=1011}
  constant_611_1 = u32[1]{0} constant({13})
  shift-left.629.5 = u32[1]{0} shift-left(slice.176.15, constant_611_1), metadata={op_name="jit(scan)/jit(main)/while/body/while/body/while/body/cond/branch_0_fun/jit(_bernoulli)/jit(_uniform)/shift_left" source_file="/fs04/fc37/adam/projects/psilocybin-prl-analyses/src/prl_hgf/fitting/hierarchical.py" source_line=1011}
  constant_612_1 = u32[1]{0} constant({19})
  shift-right-logical.652.7 = u32[1]{0} shift-right-logical(slice.176.15, constant_612_1), metadata={op_name="jit(scan)/jit(main)/while/body/while/body/while/body/cond/branch_0_fun/jit(_bernoulli)/jit(_uniform)/shift_right_logical" source_file="/fs04/fc37/adam/projects/psilocybin-prl-analyses/src/prl_hgf/fitting/hierarchical.py" source_line=1011}
  or.656.5 = u32[1]{0} or(shift-left.629.5, shift-right-logical.652.7), metadata={op_name="jit(scan)/jit(main)/while/body/while/body/while/body/cond/branch_0_fun/jit(_bernoulli)/jit(_uniform)/or" source_file="/fs04/fc37/adam/projects/psilocybin-prl-analyses/src/prl_hgf/fitting/hierarchical.py" source_line=1011}
  xor.688.3 = u32[1]{0} xor(add.3621.7, or.656.5), metadata={op_name="jit(scan)/jit(main)/while/body/while/body/while/body/cond/branch_0_fun/jit(_bernoulli)/jit(_uniform)/xor" source_file="/fs04/fc37/adam/projects/psilocybin-prl-analyses/src/prl_hgf/fitting/hierarchical.py" source_line=1011}
  add.3622.3 = u32[1]{0} add(add.3621.7, xor.688.3), metadata={op_name="jit(scan)/jit(main)/while/body/while/body/while/body/cond/branch_0_fun/jit(_bernoulli)/jit(_uniform)/add" source_file="/fs04/fc37/adam/projects/psilocybin-prl-analyses/src/prl_hgf/fitting/hierarchical.py" source_line=1011}
  constant_613_1 = u32[1]{0} constant({15})
  shift-left.630.1 = u32[1]{0} shift-left(xor.688.3, constant_613_1), metadata={op_name="jit(scan)/jit(main)/while/body/while/body/while/body/cond/branch_0_fun/jit(_bernoulli)/jit(_uniform)/shift_left" source_file="/fs04/fc37/adam/projects/psilocybin-prl-analyses/src/prl_hgf/fitting/hierarchical.py" source_line=1011}
  constant_614_1 = u32[1]{0} constant({17})
  shift-right-logical.653.1 = u32[1]{0} shift-right-logical(xor.688.3, constant_614_1), metadata={op_name="jit(scan)/jit(main)/while/body/while/body/while/body/cond/branch_0_fun/jit(_bernoulli)/jit(_uniform)/shift_right_logical" source_file="/fs04/fc37/adam/projects/psilocybin-prl-analyses/src/prl_hgf/fitting/hierarchical.py" source_line=1011}
  or.657.1 = u32[1]{0} or(shift-left.630.1, shift-right-logical.653.1), metadata={op_name="jit(scan)/jit(main)/while/body/while/body/while/body/cond/branch_0_fun/jit(_bernoulli)/jit(_uniform)/or" source_file="/fs04/fc37/adam/projects/psilocybin-prl-analyses/src/prl_hgf/fitting/hierarchical.py" source_line=1011}
  xor.689.1 = u32[1]{0} xor(add.3622.3, or.657.1), metadata={op_name="jit(scan)/jit(main)/while/body/while/body/while/body/cond/branch_0_fun/jit(_bernoulli)/jit(_uniform)/xor" source_file="/fs04/fc37/adam/projects/psilocybin-prl-analyses/src/prl_hgf/fitting/hierarchical.py" source_line=1011}
  add.3623.1 = u32[1]{0} add(add.3622.3, xor.689.1), metadata={op_name="jit(scan)/jit(main)/while/body/while/body/while/body/cond/branch_0_fun/jit(_bernoulli)/jit(_uniform)/add" source_file="/fs04/fc37/adam/projects/psilocybin-prl-analyses/src/prl_hgf/fitting/hierarchical.py" source_line=1011}
  constant_615_1 = u32[1]{0} constant({26})
  shift-left.631.1 = u32[1]{0} shift-left(xor.689.1, constant_615_1), metadata={op_name="jit(scan)/jit(main)/while/body/while/body/while/body/cond/branch_0_fun/jit(_bernoulli)/jit(_uniform)/shift_left" source_file="/fs04/fc37/adam/projects/psilocybin-prl-analyses/src/prl_hgf/fitting/hierarchical.py" source_line=1011}
  constant_616_1 = u32[1]{0} constant({6})
  shift-right-logical.654.1 = u32[1]{0} shift-right-logical(xor.689.1, constant_616_1), metadata={op_name="jit(scan)/jit(main)/while/body/while/body/while/body/cond/branch_0_fun/jit(_bernoulli)/jit(_uniform)/shift_right_logical" source_file="/fs04/fc37/adam/projects/psilocybin-prl-analyses/src/prl_hgf/fitting/hierarchical.py" source_line=1011}
  or.658.1 = u32[1]{0} or(shift-left.631.1, shift-right-logical.654.1), metadata={op_name="jit(scan)/jit(main)/while/body/while/body/while/body/cond/branch_0_fun/jit(_bernoulli)/jit(_uniform)/or" source_file="/fs04/fc37/adam/projects/psilocybin-prl-analyses/src/prl_hgf/fitting/hierarchical.py" source_line=1011}
  xor.690.1 = u32[1]{0} xor(add.3623.1, or.658.1), metadata={op_name="jit(scan)/jit(main)/while/body/while/body/while/body/cond/branch_0_fun/jit(_bernoulli)/jit(_uniform)/xor" source_file="/fs04/fc37/adam/projects/psilocybin-prl-analyses/src/prl_hgf/fitting/hierarchical.py" source_line=1011}
  add.3624.1 = u32[1]{0} add(add.3623.1, xor.690.1), metadata={op_name="jit(scan)/jit(main)/while/body/while/body/while/body/cond/branch_0_fun/jit(_bernoulli)/jit(_uniform)/add" source_file="/fs04/fc37/adam/projects/psilocybin-prl-analyses/src/prl_hgf/fitting/hierarchical.py" source_line=1011}
  slice.177.18 = u32[1]{0} slice(param_2.129), slice={[1:2]}, metadata={op_name="jit(scan)/jit(main)/while/body/while/body/while/body/cond/branch_0_fun/jit(_bernoulli)/jit(_uniform)/slice[start_indices=(1,) limit_indices=(2,) strides=(1,)]" source_file="/fs04/fc37/adam/projects/psilocybin-prl-analyses/src/prl_hgf/fitting/hierarchical.py" source_line=1011}
  add.3625.5 = u32[1]{0} add(add.3624.1, slice.177.18), metadata={op_name="jit(scan)/jit(main)/while/body/while/body/while/body/cond/branch_0_fun/jit(_bernoulli)/jit(_uniform)/add" source_file="/fs04/fc37/adam/projects/psilocybin-prl-analyses/src/prl_hgf/fitting/hierarchical.py" source_line=1011}
  shift-left.632.1 = u32[1]{0} shift-left(xor.690.1, constant_616_1), metadata={op_name="jit(scan)/jit(main)/while/body/while/body/while/body/cond/branch_0_fun/jit(_bernoulli)/jit(_uniform)/shift_left" source_file="/fs04/fc37/adam/projects/psilocybin-prl-analyses/src/prl_hgf/fitting/hierarchical.py" source_line=1011}
  shift-right-logical.655.1 = u32[1]{0} shift-right-logical(xor.690.1, constant_615_1), metadata={op_name="jit(scan)/jit(main)/while/body/while/body/while/body/cond/branch_0_fun/jit(_bernoulli)/jit(_uniform)/shift_right_logical" source_file="/fs04/fc37/adam/projects/psilocybin-prl-analyses/src/prl_hgf/fitting/hierarchical.py" source_line=1011}
  or.659.1 = u32[1]{0} or(shift-left.632.1, shift-right-logical.655.1), metadata={op_name="jit(scan)/jit(main)/while/body/while/body/while/body/cond/branch_0_fun/jit(_bernoulli)/jit(_uniform)/or" source_file="/fs04/fc37/adam/projects/psilocybin-prl-analyses/src/prl_hgf/fitting/hierarchical.py" source_line=1011}
  xor.691.1 = u32[1]{0} xor(add.3624.1, or.659.1), metadata={op_name="jit(scan)/jit(main)/while/body/while/body/while/body/cond/branch_0_fun/jit(_bernoulli)/jit(_uniform)/xor" source_file="/fs04/fc37/adam/projects/psilocybin-prl-analyses/src/prl_hgf/fitting/hierarchical.py" source_line=1011}
  slice.178.30 = u32[1]{0} slice(param_2.129), slice={[0:1]}, metadata={op_name="jit(scan)/jit(main)/while/body/while/body/while/body/cond/branch_0_fun/jit(_bernoulli)/jit(_uniform)/slice[start_indices=(0,) limit_indices=(1,) strides=(1,)]" source_file="/fs04/fc37/adam/projects/psilocybin-prl-analyses/src/prl_hgf/fitting/hierarchical.py" source_line=1011}
  xor.692.5 = u32[1]{0} xor(slice.178.30, slice.177.18), metadata={op_name="jit(scan)/jit(main)/while/body/while/body/while/body/cond/branch_0_fun/jit(_bernoulli)/jit(_uniform)/xor" source_file="/fs04/fc37/adam/projects/psilocybin-prl-analyses/src/prl_hgf/fitting/hierarchical.py" source_line=1011}
  constant_1223_1 = u32[1]{0} constant({466688986})
  xor.693.3 = u32[1]{0} xor(xor.692.5, constant_1223_1), metadata={op_name="jit(scan)/jit(main)/while/body/while/body/while/body/cond/branch_0_fun/jit(_bernoulli)/jit(_uniform)/xor" source_file="/fs04/fc37/adam/projects/psilocybin-prl-analyses/src/prl_hgf/fitting/hierarchical.py" source_line=1011}
  add.3626.1 = u32[1]{0} add(xor.691.1, xor.693.3), metadata={op_name="jit(scan)/jit(main)/while/body/while/body/while/body/cond/branch_0_fun/jit(_bernoulli)/jit(_uniform)/add" source_file="/fs04/fc37/adam/projects/psilocybin-prl-analyses/src/prl_hgf/fitting/hierarchical.py" source_line=1011}
  constant_618_1 = u32[1]{0} constant({1})
  add.3627.1 = u32[1]{0} add(add.3626.1, constant_618_1), metadata={op_name="jit(scan)/jit(main)/while/body/while/body/while/body/cond/branch_0_fun/jit(_bernoulli)/jit(_uniform)/add" source_file="/fs04/fc37/adam/projects/psilocybin-prl-analyses/src/prl_hgf/fitting/hierarchical.py" source_line=1011}
  add.3628.3 = u32[1]{0} add(add.3625.5, add.3627.1), metadata={op_name="jit(scan)/jit(main)/while/body/while/body/while/body/cond/branch_0_fun/jit(_bernoulli)/jit(_uniform)/add" source_file="/fs04/fc37/adam/projects/psilocybin-prl-analyses/src/prl_hgf/fitting/hierarchical.py" source_line=1011}
  shift-left.633.1 = u32[1]{0} shift-left(add.3627.1, constant_614_1), metadata={op_name="jit(scan)/jit(main)/while/body/while/body/while/body/cond/branch_0_fun/jit(_bernoulli)/jit(_uniform)/shift_left" source_file="/fs04/fc37/adam/projects/psilocybin-prl-analyses/src/prl_hgf/fitting/hierarchical.py" source_line=1011}
  shift-right-logical.656.1 = u32[1]{0} shift-right-logical(add.3627.1, constant_613_1), metadata={op_name="jit(scan)/jit(main)/while/body/while/body/while/body/cond/branch_0_fun/jit(_bernoulli)/jit(_uniform)/shift_right_logical" source_file="/fs04/fc37/adam/projects/psilocybin-prl-analyses/src/prl_hgf/fitting/hierarchical.py" source_line=1011}
  or.660.1 = u32[1]{0} or(shift-left.633.1, shift-right-logical.656.1), metadata={op_name="jit(scan)/jit(main)/while/body/while/body/while/body/cond/branch_0_fun/jit(_bernoulli)/jit(_uniform)/or" source_file="/fs04/fc37/adam/projects/psilocybin-prl-analyses/src/prl_hgf/fitting/hierarchical.py" source_line=1011}
  xor.694.1 = u32[1]{0} xor(add.3628.3, or.660.1), metadata={op_name="jit(scan)/jit(main)/while/body/while/body/while/body/cond/branch_0_fun/jit(_bernoulli)/jit(_uniform)/xor" source_file="/fs04/fc37/adam/projects/psilocybin-prl-analyses/src/prl_hgf/fitting/hierarchical.py" source_line=1011}
  add.3630.1 = u32[1]{0} add(add.3628.3, xor.694.1), metadata={op_name="jit(scan)/jit(main)/while/body/while/body/while/body/cond/branch_0_fun/jit(_bernoulli)/jit(_uniform)/add" source_file="/fs04/fc37/adam/projects/psilocybin-prl-analyses/src/prl_hgf/fitting/hierarchical.py" source_line=1011}
  constant_619_1 = u32[1]{0} constant({29})
  shift-left.634.1 = u32[1]{0} shift-left(xor.694.1, constant_619_1), metadata={op_name="jit(scan)/jit(main)/while/body/while/body/while/body/cond/branch_0_fun/jit(_bernoulli)/jit(_uniform)/shift_left" source_file="/fs04/fc37/adam/projects/psilocybin-prl-analyses/src/prl_hgf/fitting/hierarchical.py" source_line=1011}
  constant_620_1 = u32[1]{0} constant({3})
  shift-right-logical.657.1 = u32[1]{0} shift-right-logical(xor.694.1, constant_620_1), metadata={op_name="jit(scan)/jit(main)/while/body/while/body/while/body/cond/branch_0_fun/jit(_bernoulli)/jit(_uniform)/shift_right_logical" source_file="/fs04/fc37/adam/projects/psilocybin-prl-analyses/src/prl_hgf/fitting/hierarchical.py" source_line=1011}
  or.661.1 = u32[1]{0} or(shift-left.634.1, shift-right-logical.657.1), metadata={op_name="jit(scan)/jit(main)/while/body/while/body/while/body/cond/branch_0_fun/jit(_bernoulli)/jit(_uniform)/or" source_file="/fs04/fc37/adam/projects/psilocybin-prl-analyses/src/prl_hgf/fitting/hierarchical.py" source_line=1011}
  xor.695.1 = u32[1]{0} xor(add.3630.1, or.661.1), metadata={op_name="jit(scan)/jit(main)/while/body/while/body/while/body/cond/branch_0_fun/jit(_bernoulli)/jit(_uniform)/xor" source_file="/fs04/fc37/adam/projects/psilocybin-prl-analyses/src/prl_hgf/fitting/hierarchical.py" source_line=1011}
  add.3631.1 = u32[1]{0} add(add.3630.1, xor.695.1), metadata={op_name="jit(scan)/jit(main)/while/body/while/body/while/body/cond/branch_0_fun/jit(_bernoulli)/jit(_uniform)/add" source_file="/fs04/fc37/adam/projects/psilocybin-prl-analyses/src/prl_hgf/fitting/hierarchical.py" source_line=1011}
  constant_621_1 = u32[1]{0} constant({16})
  shift-left.635.1 = u32[1]{0} shift-left(xor.695.1, constant_621_1), metadata={op_name="jit(scan)/jit(main)/while/body/while/body/while/body/cond/branch_0_fun/jit(_bernoulli)/jit(_uniform)/shift_left" source_file="/fs04/fc37/adam/projects/psilocybin-prl-analyses/src/prl_hgf/fitting/hierarchical.py" source_line=1011}
  shift-right-logical.658.1 = u32[1]{0} shift-right-logical(xor.695.1, constant_621_1), metadata={op_name="jit(scan)/jit(main)/while/body/while/body/while/body/cond/branch_0_fun/jit(_bernoulli)/jit(_uniform)/shift_right_logical" source_file="/fs04/fc37/adam/projects/psilocybin-prl-analyses/src/prl_hgf/fitting/hierarchical.py" source_line=1011}
  or.662.1 = u32[1]{0} or(shift-left.635.1, shift-right-logical.658.1), metadata={op_name="jit(scan)/jit(main)/while/body/while/body/while/body/cond/branch_0_fun/jit(_bernoulli)/jit(_uniform)/or" source_file="/fs04/fc37/adam/projects/psilocybin-prl-analyses/src/prl_hgf/fitting/hierarchical.py" source_line=1011}
  xor.698.1 = u32[1]{0} xor(add.3631.1, or.662.1), metadata={op_name="jit(scan)/jit(main)/while/body/while/body/while/body/cond/branch_0_fun/jit(_bernoulli)/jit(_uniform)/xor" source_file="/fs04/fc37/adam/projects/psilocybin-prl-analyses/src/prl_hgf/fitting/hierarchical.py" source_line=1011}
  add.3632.1 = u32[1]{0} add(add.3631.1, xor.698.1), metadata={op_name="jit(scan)/jit(main)/while/body/while/body/while/body/cond/branch_0_fun/jit(_bernoulli)/jit(_uniform)/add" source_file="/fs04/fc37/adam/projects/psilocybin-prl-analyses/src/prl_hgf/fitting/hierarchical.py" source_line=1011}
  add.3633.1 = u32[1]{0} add(add.3632.1, xor.693.3), metadata={op_name="jit(scan)/jit(main)/while/body/while/body/while/body/cond/branch_0_fun/jit(_bernoulli)/jit(_uniform)/add" source_file="/fs04/fc37/adam/projects/psilocybin-prl-analyses/src/prl_hgf/fitting/hierarchical.py" source_line=1011}
  constant_622_1 = u32[1]{0} constant({24})
  shift-left.636.1 = u32[1]{0} shift-left(xor.698.1, constant_622_1), metadata={op_name="jit(scan)/jit(main)/while/body/while/body/while/body/cond/branch_0_fun/jit(_bernoulli)/jit(_uniform)/shift_left" source_file="/fs04/fc37/adam/projects/psilocybin-prl-analyses/src/prl_hgf/fitting/hierarchical.py" source_line=1011}
  constant_623_1 = u32[1]{0} constant({8})
  shift-right-logical.659.1 = u32[1]{0} shift-right-logical(xor.698.1, constant_623_1), metadata={op_name="jit(scan)/jit(main)/while/body/while/body/while/body/cond/branch_0_fun/jit(_bernoulli)/jit(_uniform)/shift_right_logical" source_file="/fs04/fc37/adam/projects/psilocybin-prl-analyses/src/prl_hgf/fitting/hierarchical.py" source_line=1011}
  or.663.1 = u32[1]{0} or(shift-left.636.1, shift-right-logical.659.1), metadata={op_name="jit(scan)/jit(main)/while/body/while/body/while/body/cond/branch_0_fun/jit(_bernoulli)/jit(_uniform)/or" source_file="/fs04/fc37/adam/projects/psilocybin-prl-analyses/src/prl_hgf/fitting/hierarchical.py" source_line=1011}
  xor.699.3 = u32[1]{0} xor(add.3632.1, or.663.1), metadata={op_name="jit(scan)/jit(main)/while/body/while/body/while/body/cond/branch_0_fun/jit(_bernoulli)/jit(_uniform)/xor" source_file="/fs04/fc37/adam/projects/psilocybin-prl-analyses/src/prl_hgf/fitting/hierarchical.py" source_line=1011}
  add.3635.5 = u32[1]{0} add(xor.699.3, slice.178.30), metadata={op_name="jit(scan)/jit(main)/while/body/while/body/while/body/cond/branch_0_fun/jit(_bernoulli)/jit(_uniform)/add" source_file="/fs04/fc37/adam/projects/psilocybin-prl-analyses/src/prl_hgf/fitting/hierarchical.py" source_line=1011}
  constant_624_1 = u32[1]{0} constant({2})
  add.3636.3 = u32[1]{0} add(add.3635.5, constant_624_1), metadata={op_name="jit(scan)/jit(main)/while/body/while/body/while/body/cond/branch_0_fun/jit(_bernoulli)/jit(_uniform)/add" source_file="/fs04/fc37/adam/projects/psilocybin-prl-analyses/src/prl_hgf/fitting/hierarchical.py" source_line=1011}
  add.3637.1 = u32[1]{0} add(add.3633.1, add.3636.3), metadata={op_name="jit(scan)/jit(main)/while/body/while/body/while/body/cond/branch_0_fun/jit(_bernoulli)/jit(_uniform)/add" source_file="/fs04/fc37/adam/projects/psilocybin-prl-analyses/src/prl_hgf/fitting/hierarchical.py" source_line=1011}
  shift-left.637.1 = u32[1]{0} shift-left(add.3636.3, constant_611_1), metadata={op_name="jit(scan)/jit(main)/while/body/while/body/while/body/cond/branch_0_fun/jit(_bernoulli)/jit(_uniform)/shift_left" source_file="/fs04/fc37/adam/projects/psilocybin-prl-analyses/src/prl_hgf/fitting/hierarchical.py" source_line=1011}
  shift-right-logical.660.1 = u32[1]{0} shift-right-logical(add.3636.3, constant_612_1), metadata={op_name="jit(scan)/jit(main)/while/body/while/body/while/body/cond/branch_0_fun/jit(_bernoulli)/jit(_uniform)/shift_right_logical" source_file="/fs04/fc37/adam/projects/psilocybin-prl-analyses/src/prl_hgf/fitting/hierarchical.py" source_line=1011}
…
  get-tuple-element.18638 = f64[20]{0} get-tuple-element(call.3), index=24
  get-tuple-element.18639 = f64[20]{0} get-tuple-element(call.3), index=25
  get-tuple-element.18640 = f64[20]{0} get-tuple-element(call.3), index=26
  get-tuple-element.18641 = f64[120]{0} get-tuple-element(call.3), index=27
  get-tuple-element.18642 = f64[120]{0} get-tuple-element(call.3), index=28
  get-tuple-element.18643 = f64[120]{0} get-tuple-element(call.3), index=29
  get-tuple-element.18644 = f64[120]{0} get-tuple-element(call.3), index=30
  get-tuple-element.18645 = f64[10]{0} get-tuple-element(call.3), index=31
  get-tuple-element.18646 = f64[10,20]{1,0} get-tuple-element(call.3), index=32
  get-tuple-element.18647 = f64[10,120]{1,0} get-tuple-element(call.3), index=33
  get-tuple-element.18648 = f64[10]{0} get-tuple-element(call.3), index=34
  get-tuple-element.18649 = f64[10]{0} get-tuple-element(call.3), index=35
  get-tuple-element.18650 = f64[10]{0} get-tuple-element(call.3), index=36
  get-tuple-element.18651 = f64[10]{0} get-tuple-element(call.3), index=37
  get-tuple-element.18652 = f64[10]{0} get-tuple-element(call.3), index=38
  get-tuple-element.18653 = f64[10]{0} get-tuple-element(call.3), index=39
  get-tuple-element.18654 = f64[10]{0} get-tuple-element(call.3), index=40
  get-tuple-element.18655 = f64[10]{0} get-tuple-element(call.3), index=41
  get-tuple-element.18656 = f64[10]{0} get-tuple-element(call.3), index=42
  get-tuple-element.18657 = s32[20,192]{0,1} get-tuple-element(call.3), index=43
  get-tuple-element.18658 = f32[20,192]{0,1} get-tuple-element(call.3), index=44
  get-tuple-element.18659 = f32[20,192]{0,1} get-tuple-element(call.3), index=45
  get-tuple-element.18660 = f64[10,120]{1,0} get-tuple-element(call.3), index=46
  get-tuple-element.18661 = f64[10,120]{1,0} get-tuple-element(call.3), index=47
  get-tuple-element.18662 = f64[10,120]{1,0} get-tuple-element(call.3), index=48
  get-tuple-element.18663 = (f64[10,20]{1,0}, f64[10,20]{1,0}, f64[10,20]{1,0}, f64[10,20]{1,0}, f64[10,20]{1,0}, /*index=5*/f64[10,20]{1,0}, f64[10,20]{1,0}, f64[10,20]{1,0}, f64[10,20]{1,0}, f64[10,20]{1,0}, /*index=10*/f64[10,20]{1,0}, f64[10,20]{1,0}, f64[10,20]{1,0}, f64[10,20]{1,0}, f64[10,20]{1,0}, /*index=15*/f64[10,20]{1,0}, f64[10,20]{1,0}, f64[10,20]{1,0}, f64[10,20]{1,0}, f64[10,20]{1,0}, /*index=20*/f64[10,20]{1,0}, f64[10,20]{1,0}, f64[10,20]{1,0}, f64[10,20]{1,0}, f64[10,20]{1,0}, /*index=25*/f64[10,20]{1,0}, f64[10,20]{1,0}, f64[10,20]{1,0}, f64[10,20]{1,0}, f64[10,20]{1,0}, /*index=30*/f64[10,20]{1,0}, f64[10,20]{1,0}, f64[10,20]{1,0}, f64[10,20]{1,0}, f64[10,20]{1,0}, /*index=35*/f64[10,20]{1,0}, f64[10,20]{1,0}, f64[10,20]{1,0}, f64[10,20]{1,0}, f64[10,20]{1,0}, /*index=40*/f64[10,20]{1,0}, f64[10,20]{1,0}, f64[10,20]{1,0}, f64[10,20]{1,0}, f64[10,20]{1,0}, /*index=45*/f64[10,20]{1,0}, f64[10,20]{1,0}, f64[10,20]{1,0}, f64[10,20]{1,0}, f64[10,20]{1,0}, /*index=50*/f64[10,20]{1,0}, f64[10,20]{1,0}, f64[10,20]{1,0}) get-tuple-element(call.3), index=49
  get-tuple-element.18564 = f64[10,20]{1,0} get-tuple-element(get-tuple-element.18663), index=52
  bitcast.20855 = f64[10,20]{1,0} bitcast(get-tuple-element.18564)
  get-tuple-element.18563 = f64[10,20]{1,0} get-tuple-element(get-tuple-element.18663), index=51
  bitcast.20854 = f64[10,20]{1,0} bitcast(get-tuple-element.18563)
  get-tuple-element.18562 = f64[10,20]{1,0} get-tuple-element(get-tuple-element.18663), index=50
  bitcast.20853 = f64[10,20]{1,0} bitcast(get-tuple-element.18562)
  get-tuple-element.18561 = f64[10,20]{1,0} get-tuple-element(get-tuple-element.18663), index=49
  bitcast.20852 = f64[10,20]{1,0} bitcast(get-tuple-element.18561)
  get-tuple-element.18560 = f64[10,20]{1,0} get-tuple-element(get-tuple-element.18663), index=48
  bitcast.20851 = f64[10,20]{1,0} bitcast(get-tuple-element.18560)
  get-tuple-element.18559 = f64[10,20]{1,0} get-tuple-element(get-tuple-element.18663), index=47
  bitcast.20850 = f64[10,20]{1,0} bitcast(get-tuple-element.18559)
  get-tuple-element.18558 = f64[10,20]{1,0} get-tuple-element(get-tuple-element.18663), index=46
  bitcast.20849 = f64[10,20]{1,0} bitcast(get-tuple-element.18558)
  get-tuple-element.18557 = f64[10,20]{1,0} get-tuple-element(get-tuple-element.18663), index=45
  bitcast.20848 = f64[10,20]{1,0} bitcast(get-tuple-element.18557)
  get-tuple-element.18556 = f64[10,20]{1,0} get-tuple-element(get-tuple-element.18663), index=44
  bitcast.20847 = f64[10,20]{1,0} bitcast(get-tuple-element.18556)
  get-tuple-element.18555 = f64[10,20]{1,0} get-tuple-element(get-tuple-element.18663), index=43
  bitcast.20846 = f64[10,20]{1,0} bitcast(get-tuple-element.18555)
  get-tuple-element.18554 = f64[10,20]{1,0} get-tuple-element(get-tuple-element.18663), index=42
  bitcast.20845 = f64[10,20]{1,0} bitcast(get-tuple-element.18554)
  get-tuple-element.18553 = f64[10,20]{1,0} get-tuple-element(get-tuple-element.18663), index=41
  bitcast.20844 = f64[10,20]{1,0} bitcast(get-tuple-element.18553)
  get-tuple-element.18552 = f64[10,20]{1,0} get-tuple-element(get-tuple-element.18663), index=40
  bitcast.20843 = f64[10,20]{1,0} bitcast(get-tuple-element.18552)
  get-tuple-element.18551 = f64[10,20]{1,0} get-tuple-element(get-tuple-element.18663), index=39
  bitcast.20842 = f64[10,20]{1,0} bitcast(get-tuple-element.18551)
  get-tuple-element.18550 = f64[10,20]{1,0} get-tuple-element(get-tuple-element.18663), index=38
  bitcast.20841 = f64[10,20]{1,0} bitcast(get-tuple-element.18550)
  get-tuple-element.18549 = f64[10,20]{1,0} get-tuple-element(get-tuple-element.18663), index=37
  bitcast.20840 = f64[10,20]{1,0} bitcast(get-tuple-element.18549)
  get-tuple-element.18548 = f64[10,20]{1,0} get-tuple-element(get-tuple-element.18663), index=36
  bitcast.20839 = f64[10,20]{1,0} bitcast(get-tuple-element.18548)
  get-tuple-element.18547 = f64[10,20]{1,0} get-tuple-element(get-tuple-element.18663), index=35
  bitcast.20838 = f64[10,20]{1,0} bitcast(get-tuple-element.18547)
  get-tuple-element.18546 = f64[10,20]{1,0} get-tuple-element(get-tuple-element.18663), index=34
  bitcast.20837 = f64[10,20]{1,0} bitcast(get-tuple-element.18546)
  get-tuple-element.18545 = f64[10,20]{1,0} get-tuple-element(get-tuple-element.18663), index=33
  bitcast.20836 = f64[10,20]{1,0} bitcast(get-tuple-element.18545)
  get-tuple-element.18544 = f64[10,20]{1,0} get-tuple-element(get-tuple-element.18663), index=32
  bitcast.20835 = f64[10,20]{1,0} bitcast(get-tuple-element.18544)
  get-tuple-element.18543 = f64[10,20]{1,0} get-tuple-element(get-tuple-element.18663), index=31
  bitcast.20834 = f64[10,20]{1,0} bitcast(get-tuple-element.18543)
  get-tuple-element.18542 = f64[10,20]{1,0} get-tuple-element(get-tuple-element.18663), index=30
  bitcast.20833 = f64[10,20]{1,0} bitcast(get-tuple-element.18542)
  get-tuple-element.18541 = f64[10,20]{1,0} get-tuple-element(get-tuple-element.18663), index=29
  bitcast.20832 = f64[10,20]{1,0} bitcast(get-tuple-element.18541)
  get-tuple-element.18540 = f64[10,20]{1,0} get-tuple-element(get-tuple-element.18663), index=28
  bitcast.20831 = f64[10,20]{1,0} bitcast(get-tuple-element.18540)
  get-tuple-element.18539 = f64[10,20]{1,0} get-tuple-element(get-tuple-element.18663), index=27
  bitcast.20830 = f64[10,20]{1,0} bitcast(get-tuple-element.18539)
  get-tuple-element.18538 = f64[10,20]{1,0} get-tuple-element(get-tuple-element.18663), index=26
  bitcast.20829 = f64[10,20]{1,0} bitcast(get-tuple-element.18538)
  get-tuple-element.18537 = f64[10,20]{1,0} get-tuple-element(get-tuple-element.18663), index=25
  bitcast.20828 = f64[10,20]{1,0} bitcast(get-tuple-element.18537)
  get-tuple-element.18536 = f64[10,20]{1,0} get-tuple-element(get-tuple-element.18663), index=24
  bitcast.20827 = f64[10,20]{1,0} bitcast(get-tuple-element.18536)
  get-tuple-element.18535 = f64[10,20]{1,0} get-tuple-element(get-tuple-element.18663), index=23
  bitcast.20826 = f64[10,20]{1,0} bitcast(get-tuple-element.18535)
  get-tuple-element.18534 = f64[10,20]{1,0} get-tuple-element(get-tuple-element.18663), index=22
  bitcast.20825 = f64[10,20]{1,0} bitcast(get-tuple-element.18534)
  get-tuple-element.18533 = f64[10,20]{1,0} get-tuple-element(get-tuple-element.18663), index=21
  bitcast.20824 = f64[10,20]{1,0} bitcast(get-tuple-element.18533)
  get-tuple-element.18532 = f64[10,20]{1,0} get-tuple-element(get-tuple-element.18663), index=20
  bitcast.20823 = f64[10,20]{1,0} bitcast(get-tuple-element.18532)
  get-tuple-element.18531 = f64[10,20]{1,0} get-tuple-element(get-tuple-element.18663), index=19
  bitcast.20822 = f64[10,20]{1,0} bitcast(get-tuple-element.18531)
  get-tuple-element.18530 = f64[10,20]{1,0} get-tuple-element(get-tuple-element.18663), index=18
  bitcast.20821 = f64[10,20]{1,0} bitcast(get-tuple-element.18530)
  get-tuple-element.18529 = f64[10,20]{1,0} get-tuple-element(get-tuple-element.18663), index=17
  bitcast.20820 = f64[10,20]{1,0} bitcast(get-tuple-element.18529)
  get-tuple-element.18528 = f64[10,20]{1,0} get-tuple-element(get-tuple-element.18663), index=16
  bitcast.20819 = f64[10,20]{1,0} bitcast(get-tuple-element.18528)
  get-tuple-element.18527 = f64[10,20]{1,0} get-tuple-element(get-tuple-element.18663), index=15
  bitcast.20818 = f64[10,20]{1,0} bitcast(get-tuple-element.18527)
  get-tuple-element.18526 = f64[10,20]{1,0} get-tuple-element(get-tuple-element.18663), index=14
  bitcast.20817 = f64[10,20]{1,0} bitcast(get-tuple-element.18526)
  get-tuple-element.18525 = f64[10,20]{1,0} get-tuple-element(get-tuple-element.18663), index=13
  bitcast.20816 = f64[10,20]{1,0} bitcast(get-tuple-element.18525)
  get-tuple-element.18524 = f64[10,20]{1,0} get-tuple-element(get-tuple-element.18663), index=12
  bitcast.20815 = f64[10,20]{1,0} bitcast(get-tuple-element.18524)
  get-tuple-element.18523 = f64[10,20]{1,0} get-tuple-element(get-tuple-element.18663), index=11
  bitcast.20814 = f64[10,20]{1,0} bitcast(get-tuple-element.18523)
  get-tuple-element.18522 = f64[10,20]{1,0} get-tuple-element(get-tuple-element.18663), index=10
  bitcast.20813 = f64[10,20]{1,0} bitcast(get-tuple-element.18522)
  get-tuple-element.18521 = f64[10,20]{1,0} get-tuple-element(get-tuple-element.18663), index=9
  bitcast.20812 = f64[10,20]{1,0} bitcast(get-tuple-element.18521)
  get-tuple-element.18520 = f64[10,20]{1,0} get-tuple-element(get-tuple-element.18663), index=8
  bitcast.20811 = f64[10,20]{1,0} bitcast(get-tuple-element.18520)
  get-tuple-element.18519 = f64[10,20]{1,0} get-tuple-element(get-tuple-element.18663), index=7
  bitcast.20810 = f64[10,20]{1,0} bitcast(get-tuple-element.18519)
  get-tuple-element.18518 = f64[10,20]{1,0} get-tuple-element(get-tuple-element.18663), index=6
  bitcast.20809 = f64[10,20]{1,0} bitcast(get-tuple-element.18518)
  get-tuple-element.18517 = f64[10,20]{1,0} get-tuple-element(get-tuple-element.18663), index=5
  bitcast.20808 = f64[10,20]{1,0} bitcast(get-tuple-element.18517)
  get-tuple-element.18516 = f64[10,20]{1,0} get-tuple-element(get-tuple-element.18663), index=4
  bitcast.20807 = f64[10,20]{1,0} bitcast(get-tuple-element.18516)
  get-tuple-element.18515 = f64[10,20]{1,0} get-tuple-element(get-tuple-element.18663), index=3
  bitcast.20806 = f64[10,20]{1,0} bitcast(get-tuple-element.18515)
  get-tuple-element.18514 = f64[10,20]{1,0} get-tuple-element(get-tuple-element.18663), index=2
  bitcast.20805 = f64[10,20]{1,0} bitcast(get-tuple-element.18514)
  get-tuple-element.18513 = f64[10,20]{1,0} get-tuple-element(get-tuple-element.18663), index=1
  get-tuple-element.18512 = f64[10,20]{1,0} get-tuple-element(get-tuple-element.18663), index=0
  bitcast.20803 = f64[10,20]{1,0} bitcast(get-tuple-element.18512)
  bitcast.20804 = f64[10,20]{1,0} bitcast(get-tuple-element.18513)
  tuple.622 = (s64[], f64[20]{0}, f64[20]{0}, f64[20]{0}, f64[20]{0}, /*index=5*/f64[20]{0}, f64[20]{0}, f64[], f64[20]{0}, f64[20]{0}, /*index=10*/f64[20]{0}, f64[20]{0}, f64[20]{0}, f64[20]{0}, f64[], /*index=15*/f64[], s64[], f64[], f64[], f64[120]{0}, /*index=20*/f64[120]{0}, f64[120]{0}, s64[], f64[], f64[120]{0}, /*index=25*/f64[10,20]{1,0}, f64[10,20]{1,0}, f64[10,20]{1,0}, f64[10,20]{1,0}, f64[10,20]{1,0}, /*index=30*/f64[10,20]{1,0}, f64[10]{0}, f64[10,20]{1,0}, f64[10,20]{1,0}, f64[10,20]{1,0}, /*index=35*/f64[10,20]{1,0}, f64[10,20]{1,0}, f64[10,20]{1,0}, f64[10,20]{1,0}, f64[10,20]{1,0}, /*index=40*/f64[10,20]{1,0}, f64[10,20]{1,0}, f64[10,20]{1,0}, f64[10,20]{1,0}, pred[10]{0}, /*index=45*/pred[10]{0}, f64[10]{0}, f64[10,20]{1,0}, f64[10,20]{1,0}, f64[10,20]{1,0}, /*index=50*/f64[10,20]{1,0}, f64[10,20]{1,0}, f64[10,20]{1,0}, f64[10,20]{1,0}, f64[10,20]{1,0}, /*index=55*/f64[10,20]{1,0}, f64[10,20]{1,0}, f64[10,20]{1,0}, f64[10,20]{1,0}, f64[10]{0}, /*index=60*/f64[10,20]{1,0}, f64[10,20]{1,0}, f64[10,20]{1,0}, f64[10,20]{1,0}, f64[10,20]{1,0}, /*index=65*/f64[10,20]{1,0}, f64[10,20]{1,0}, f64[10,20]{1,0}, f64[10,20]{1,0}, f64[10,20]{1,0}, /*index=70*/f64[10,20]{1,0}, f64[10,20]{1,0}, f64[10,20]{1,0}, f64[10,20]{1,0}, f64[10,20]{1,0}, /*index=75*/f64[10,20]{1,0}, f64[10,20]{1,0}, f64[10,20]{1,0}, f64[10]{0}, f64[10,20]{1,0}, /*index=80*/f64[10,20]{1,0}, f64[10,20]{1,0}, f64[10,20]{1,0}, f64[10,20]{1,0}, f64[10,20]{1,0}, /*index=85*/s64[10]{0}, s64[10]{0}, f64[10]{0}, f64[10]{0}, f64[10]{0}, /*index=90*/s64[10]{0}, f64[10]{0}, f64[10]{0}, f64[10,120]{1,0}, f64[10,120]{1,0}, /*index=95*/f64[10,120]{1,0}, s64[10]{0}, f64[10]{0}, f64[10,120]{1,0}, u32[10,2]{1,0}, /*index=100*/s64[10,2]{1,0}, s32[20,192]{0,1}, f64[1]{0}, f64[1]{0}, f32[20,192]{0,1}, /*index=105*/f32[20,192]{0,1}, s32[20,192]{1,0}, pred[20,192]{1,0}) tuple(get-tuple-element.18618, get-tuple-element.18640, get-tuple-element.18639, get-tuple-element.18638, get-tuple-element.18637, /*index=5*/get-tuple-element.18636, get-tuple-element.18635, get-tuple-element.18624, get-tuple-element.18634, get-tuple-element.18633, /*index=10*/get-tuple-element.18632, get-tuple-element.18631, get-tuple-element.18630, get-tuple-element.18629, get-tuple-element.18623, /*index=15*/get-tuple-element.18622, get-tuple-element.18617, get-tuple-element.18621, get-tuple-element.18620, get-tuple-element.18644, /*index=20*/get-tuple-element.18643, get-tuple-element.18642, get-tuple-element.18616, get-tuple-element.18619, get-tuple-element.18641, /*index=25*/get-tuple-element.18646, bitcast.20803, bitcast.20804, bitcast.20805, bitcast.20806, /*index=30*/bitcast.20807, get-tuple-element.18645, bitcast.20808, bitcast.20809, bitcast.20810, /*index=35*/bitcast.20811, bitcast.20812, bitcast.20813, bitcast.20814, bitcast.20815, /*index=40*/bitcast.20816, bitcast.20817, bitcast.20818, bitcast.20819, get-tuple-element.18614, /*index=45*/get-tuple-element.18615, get-tuple-element.18656, bitcast.20820, bitcast.20821, bitcast.20822, /*index=50*/bitcast.20823, bitcast.20824, bitcast.20825, bitcast.20826, bitcast.20827, /*index=55*/bitcast.20828, bitcast.20829, bitcast.20830, bitcast.20831, get-tuple-element.18655, /*index=60*/bitcast.20832, bitcast.20833, bitcast.20834, bitcast.20835, bitcast.20836, /*index=65*/bitcast.20837, bitcast.20838, bitcast.20839, bitcast.20840, bitcast.20841, /*index=70*/bitcast.20842, bitcast.20843, bitcast.20844, bitcast.20845, bitcast.20846, /*index=75*/bitcast.20847, bitcast.20848, bitcast.20849, get-tuple-element.18654, bitcast.20850, /*index=80*/bitcast.20851, bitcast.20852, bitcast.20853, bitcast.20854, bitcast.20855, /*index=85*/get-tuple-element.18627, get-tuple-element.18626, get-tuple-element.18653, get-tuple-element.18652, get-tuple-element.18651, /*index=90*/get-tuple-element.18625, get-tuple-element.18650, get-tuple-element.18649, get-tuple-element.18647, get-tuple-element.18661, /*index=95*/get-tuple-element.18662, get-tuple-element.18628, get-tuple-element.18648, get-tuple-element.18660, Arg_32.33.0, /*index=100*/Arg_33.34.0, get-tuple-element.18657, Arg_2.3.0, Arg_3.4.0, get-tuple-element.18658, /*index=105*/get-tuple-element.18659, Arg_6.7.0, Arg_7.8.0)
  while.45.0 = (s64[], f64[20]{0}, f64[20]{0}, f64[20]{0}, f64[20]{0}, /*index=5*/f64[20]{0}, f64[20]{0}, f64[], f64[20]{0}, f64[20]{0}, /*index=10*/f64[20]{0}, f64[20]{0}, f64[20]{0}, f64[20]{0}, f64[], /*index=15*/f64[], s64[], f64[], f64[], f64[120]{0}, /*index=20*/f64[120]{0}, f64[120]{0}, s64[], f64[], f64[120]{0}, /*index=25*/f64[10,20]{1,0}, f64[10,20]{1,0}, f64[10,20]{1,0}, f64[10,20]{1,0}, f64[10,20]{1,0}, /*index=30*/f64[10,20]{1,0}, f64[10]{0}, f64[10,20]{1,0}, f64[10,20]{1,0}, f64[10,20]{1,0}, /*index=35*/f64[10,20]{1,0}, f64[10,20]{1,0}, f64[10,20]{1,0}, f64[10,20]{1,0}, f64[10,20]{1,0}, /*index=40*/f64[10,20]{1,0}, f64[10,20]{1,0}, f64[10,20]{1,0}, f64[10,20]{1,0}, pred[10]{0}, /*index=45*/pred[10]{0}, f64[10]{0}, f64[10,20]{1,0}, f64[10,20]{1,0}, f64[10,20]{1,0}, /*index=50*/f64[10,20]{1,0}, f64[10,20]{1,0}, f64[10,20]{1,0}, f64[10,20]{1,0}, f64[10,20]{1,0}, /*index=55*/f64[10,20]{1,0}, f64[10,20]{1,0}, f64[10,20]{1,0}, f64[10,20]{1,0}, f64[10]{0}, /*index=60*/f64[10,20]{1,0}, f64[10,20]{1,0}, f64[10,20]{1,0}, f64[10,20]{1,0}, f64[10,20]{1,0}, /*index=65*/f64[10,20]{1,0}, f64[10,20]{1,0}, f64[10,20]{1,0}, f64[10,20]{1,0}, f64[10,20]{1,0}, /*index=70*/f64[10,20]{1,0}, f64[10,20]{1,0}, f64[10,20]{1,0}, f64[10,20]{1,0}, f64[10,20]{1,0}, /*index=75*/f64[10,20]{1,0}, f64[10,20]{1,0}, f64[10,20]{1,0}, f64[10]{0}, f64[10,20]{1,0}, /*index=80*/f64[10,20]{1,0}, f64[10,20]{1,0}, f64[10,20]{1,0}, f64[10,20]{1,0}, f64[10,20]{1,0}, /*index=85*/s64[10]{0}, s64[10]{0}, f64[10]{0}, f64[10]{0}, f64[10]{0}, /*index=90*/s64[10]{0}, f64[10]{0}, f64[10]{0}, f64[10,120]{1,0}, f64[10,120]{1,0}, /*index=95*/f64[10,120]{1,0}, s64[10]{0}, f64[10]{0}, f64[10,120]{1,0}, u32[10,2]{1,0}, /*index=100*/s64[10,2]{1,0}, s32[20,192]{0,1}, f64[1]{0}, f64[1]{0}, f32[20,192]{0,1}, /*index=105*/f32[20,192]{0,1}, s32[20,192]{1,0}, pred[20,192]{1,0}) while(tuple.622), condition=region_59.9934.clone, body=region_0.9339.clone, metadata={op_name="jit(scan)/jit(main)/while[cond_nconsts=0 body_nconsts=10]" source_file="/fs04/fc37/adam/projects/psilocybin-prl-analyses/src/prl_hgf/fitting/hierarchical.py" source_line=1011}, backend_config={"known_trip_count":{"n":"10"}}
  get-tuple-element.10071.0 = f64[] get-tuple-element(while.45.0), index=23, metadata={op_name="jit(scan)/jit(main)/while[cond_nconsts=0 body_nconsts=10]" source_file="/fs04/fc37/adam/projects/psilocybin-prl-analyses/src/prl_hgf/fitting/hierarchical.py" source_line=1011}
  get-tuple-element.10070.0 = s64[] get-tuple-element(while.45.0), index=22, metadata={op_name="jit(scan)/jit(main)/while[cond_nconsts=0 body_nconsts=10]" source_file="/fs04/fc37/adam/projects/psilocybin-prl-analyses/src/prl_hgf/fitting/hierarchical.py" source_line=1011}
  get-tuple-element.10066.0 = f64[] get-tuple-element(while.45.0), index=18, metadata={op_name="jit(scan)/jit(main)/while[cond_nconsts=0 body_nconsts=10]" source_file="/fs04/fc37/adam/projects/psilocybin-prl-analyses/src/prl_hgf/fitting/hierarchical.py" source_line=1011}
  get-tuple-element.10065.0 = f64[] get-tuple-element(while.45.0), index=17, metadata={op_name="jit(scan)/jit(main)/while[cond_nconsts=0 body_nconsts=10]" source_file="/fs04/fc37/adam/projects/psilocybin-prl-analyses/src/prl_hgf/fitting/hierarchical.py" source_line=1011}
  get-tuple-element.10064.0 = s64[] get-tuple-element(while.45.0), index=16, metadata={op_name="jit(scan)/jit(main)/while[cond_nconsts=0 body_nconsts=10]" source_file="/fs04/fc37/adam/projects/psilocybin-prl-analyses/src/prl_hgf/fitting/hierarchical.py" source_line=1011}
  get-tuple-element.10063.0 = f64[] get-tuple-element(while.45.0), index=15, metadata={op_name="jit(scan)/jit(main)/while[cond_nconsts=0 body_nconsts=10]" source_file="/fs04/fc37/adam/projects/psilocybin-prl-analyses/src/prl_hgf/fitting/hierarchical.py" source_line=1011}
  get-tuple-element.10062.0 = f64[] get-tuple-element(while.45.0), index=14, metadata={op_name="jit(scan)/jit(main)/while[cond_nconsts=0 body_nconsts=10]" source_file="/fs04/fc37/adam/projects/psilocybin-prl-analyses/src/prl_hgf/fitting/hierarchical.py" source_line=1011}
  get-tuple-element.10055.0 = f64[] get-tuple-element(while.45.0), index=7, metadata={op_name="jit(scan)/jit(main)/while[cond_nconsts=0 body_nconsts=10]" source_file="/fs04/fc37/adam/projects/psilocybin-prl-analyses/src/prl_hgf/fitting/hierarchical.py" source_line=1011}
  get-tuple-element.10145.0 = f64[10]{0} get-tuple-element(while.45.0), index=97, metadata={op_name="jit(scan)/jit(main)/while[cond_nconsts=0 body_nconsts=10]" source_file="/fs04/fc37/adam/projects/psilocybin-prl-analyses/src/prl_hgf/fitting/hierarchical.py" source_line=1011}
  get-tuple-element.10144.0 = s64[10]{0} get-tuple-element(while.45.0), index=96, metadata={op_name="jit(scan)/jit(main)/while[cond_nconsts=0 body_nconsts=10]" source_file="/fs04/fc37/adam/projects/psilocybin-prl-analyses/src/prl_hgf/fitting/hierarchical.py" source_line=1011}
  get-tuple-element.10143.0 = f64[10,120]{1,0} get-tuple-element(while.45.0), index=95, metadata={op_name="jit(scan)/jit(main)/while[cond_nconsts=0 body_nconsts=10]" source_file="/fs04/fc37/adam/projects/psilocybin-prl-analyses/src/prl_hgf/fitting/hierarchical.py" source_line=1011}
  get-tuple-element.10142.0 = f64[10,120]{1,0} get-tuple-element(while.45.0), index=94, metadata={op_name="jit(scan)/jit(main)/while[cond_nconsts=0 body_nconsts=10]" source_file="/fs04/fc37/adam/projects/psilocybin-prl-analyses/src/prl_hgf/fitting/hierarchical.py" source_line=1011}
  get-tuple-element.10141.0 = f64[10,120]{1,0} get-tuple-element(while.45.0), index=93, metadata={op_name="jit(scan)/jit(main)/while[cond_nconsts=0 body_nconsts=10]" source_file="/fs04/fc37/adam/projects/psilocybin-prl-analyses/src/prl_hgf/fitting/hierarchical.py" source_line=1011}
  get-tuple-element.10140.0 = f64[10]{0} get-tuple-element(while.45.0), index=92, metadata={op_name="jit(scan)/jit(main)/while[cond_nconsts=0 body_nconsts=10]" source_file="/fs04/fc37/adam/projects/psilocybin-prl-analyses/src/prl_hgf/fitting/hierarchical.py" source_line=1011}
  get-tuple-element.10139.0 = f64[10]{0} get-tuple-element(while.45.0), index=91, metadata={op_name="jit(scan)/jit(main)/while[cond_nconsts=0 body_nconsts=10]" source_file="/fs04/fc37/adam/projects/psilocybin-prl-analyses/src/prl_hgf/fitting/hierarchical.py" source_line=1011}
  get-tuple-element.10138.0 = s64[10]{0} get-tuple-element(while.45.0), index=90, metadata={op_name="jit(scan)/jit(main)/while[cond_nconsts=0 body_nconsts=10]" source_file="/fs04/fc37/adam/projects/psilocybin-prl-analyses/src/prl_hgf/fitting/hierarchical.py" source_line=1011}
  get-tuple-element.10137.0 = f64[10]{0} get-tuple-element(while.45.0), index=89, metadata={op_name="jit(scan)/jit(main)/while[cond_nconsts=0 body_nconsts=10]" source_file="/fs04/fc37/adam/projects/psilocybin-prl-analyses/src/prl_hgf/fitting/hierarchical.py" source_line=1011}
  get-tuple-element.10136.0 = f64[10]{0} get-tuple-element(while.45.0), index=88, metadata={op_name="jit(scan)/jit(main)/while[cond_nconsts=0 body_nconsts=10]" source_file="/fs04/fc37/adam/projects/psilocybin-prl-analyses/src/prl_hgf/fitting/hierarchical.py" source_line=1011}
  get-tuple-element.10135.0 = f64[10]{0} get-tuple-element(while.45.0), index=87, metadata={op_name="jit(scan)/jit(main)/while[cond_nconsts=0 body_nconsts=10]" source_file="/fs04/fc37/adam/projects/psilocybin-prl-analyses/src/prl_hgf/fitting/hierarchical.py" source_line=1011}
  get-tuple-element.10134.0 = s64[10]{0} get-tuple-element(while.45.0), index=86, metadata={op_name="jit(scan)/jit(main)/while[cond_nconsts=0 body_nconsts=10]" source_file="/fs04/fc37/adam/projects/psilocybin-prl-analyses/src/prl_hgf/fitting/hierarchical.py" source_line=1011}
  get-tuple-element.10133.0 = s64[10]{0} get-tuple-element(while.45.0), index=85, metadata={op_name="jit(scan)/jit(main)/while[cond_nconsts=0 body_nconsts=10]" source_file="/fs04/fc37/adam/projects/psilocybin-prl-analyses/src/prl_hgf/fitting/hierarchical.py" source_line=1011}
  get-tuple-element.10132.0 = f64[10,20]{1,0} get-tuple-element(while.45.0), index=84, metadata={op_name="jit(scan)/jit(main)/while[cond_nconsts=0 body_nconsts=10]" source_file="/fs04/fc37/adam/projects/psilocybin-prl-analyses/src/prl_hgf/fitting/hierarchical.py" source_line=1011}
  get-tuple-element.10131.0 = f64[10,20]{1,0} get-tuple-element(while.45.0), index=83, metadata={op_name="jit(scan)/jit(main)/while[cond_nconsts=0 body_nconsts=10]" source_file="/fs04/fc37/adam/projects/psilocybin-prl-analyses/src/prl_hgf/fitting/hierarchical.py" source_line=1011}
  get-tuple-element.10130.0 = f64[10,20]{1,0} get-tuple-element(while.45.0), index=82, metadata={op_name="jit(scan)/jit(main)/while[cond_nconsts=0 body_nconsts=10]" source_file="/fs04/fc37/adam/projects/psilocybin-prl-analyses/src/prl_hgf/fitting/hierarchical.py" source_line=1011}
  get-tuple-element.10129.0 = f64[10,20]{1,0} get-tuple-element(while.45.0), index=81, metadata={op_name="jit(scan)/jit(main)/while[cond_nconsts=0 body_nconsts=10]" source_file="/fs04/fc37/adam/projects/psilocybin-prl-analyses/src/prl_hgf/fitting/hierarchical.py" source_line=1011}
  get-tuple-element.10128.0 = f64[10,20]{1,0} get-tuple-element(while.45.0), index=80, metadata={op_name="jit(scan)/jit(main)/while[cond_nconsts=0 body_nconsts=10]" source_file="/fs04/fc37/adam/projects/psilocybin-prl-analyses/src/prl_hgf/fitting/hierarchical.py" source_line=1011}
  get-tuple-element.10127.0 = f64[10,20]{1,0} get-tuple-element(while.45.0), index=79, metadata={op_name="jit(scan)/jit(main)/while[cond_nconsts=0 body_nconsts=10]" source_file="/fs04/fc37/adam/projects/psilocybin-prl-analyses/src/prl_hgf/fitting/hierarchical.py" source_line=1011}
  get-tuple-element.10126.0 = f64[10]{0} get-tuple-element(while.45.0), index=78, metadata={op_name="jit(scan)/jit(main)/while[cond_nconsts=0 body_nconsts=10]" source_file="/fs04/fc37/adam/projects/psilocybin-prl-analyses/src/prl_hgf/fitting/hierarchical.py" source_line=1011}
  get-tuple-element.10125.0 = f64[10,20]{1,0} get-tuple-element(while.45.0), index=77, metadata={op_name="jit(scan)/jit(main)/while[cond_nconsts=0 body_nconsts=10]" source_file="/fs04/fc37/adam/projects/psilocybin-prl-analyses/src/prl_hgf/fitting/hierarchical.py" source_line=1011}
  get-tuple-element.10124.0 = f64[10,20]{1,0} get-tuple-element(while.45.0), index=76, metadata={op_name="jit(scan)/jit(main)/while[cond_nconsts=0 body_nconsts=10]" source_file="/fs04/fc37/adam/projects/psilocybin-prl-analyses/src/prl_hgf/fitting/hierarchical.py" source_line=1011}
  get-tuple-element.10123.0 = f64[10,20]{1,0} get-tuple-element(while.45.0), index=75, metadata={op_name="jit(scan)/jit(main)/while[cond_nconsts=0 body_nconsts=10]" source_file="/fs04/fc37/adam/projects/psilocybin-prl-analyses/src/prl_hgf/fitting/hierarchical.py" source_line=1011}
  get-tuple-element.10122.0 = f64[10,20]{1,0} get-tuple-element(while.45.0), index=74, metadata={op_name="jit(scan)/jit(main)/while[cond_nconsts=0 body_nconsts=10]" source_file="/fs04/fc37/adam/projects/psilocybin-prl-analyses/src/prl_hgf/fitting/hierarchical.py" source_line=1011}
  get-tuple-element.10121.0 = f64[10,20]{1,0} get-tuple-element(while.45.0), index=73, metadata={op_name="jit(scan)/jit(main)/while[cond_nconsts=0 body_nconsts=10]" source_file="/fs04/fc37/adam/projects/psilocybin-prl-analyses/src/prl_hgf/fitting/hierarchical.py" source_line=1011}
  get-tuple-element.10120.0 = f64[10,20]{1,0} get-tuple-element(while.45.0), index=72, metadata={op_name="jit(scan)/jit(main)/while[cond_nconsts=0 body_nconsts=10]" source_file="/fs04/fc37/adam/projects/psilocybin-prl-analyses/src/prl_hgf/fitting/hierarchical.py" source_line=1011}
  get-tuple-element.10119.0 = f64[10,20]{1,0} get-tuple-element(while.45.0), index=71, metadata={op_name="jit(scan)/jit(main)/while[cond_nconsts=0 body_nconsts=10]" source_file="/fs04/fc37/adam/projects/psilocybin-prl-analyses/src/prl_hgf/fitting/hierarchical.py" source_line=1011}
  get-tuple-element.10118.0 = f64[10,20]{1,0} get-tuple-element(while.45.0), index=70, metadata={op_name="jit(scan)/jit(main)/while[cond_nconsts=0 body_nconsts=10]" source_file="/fs04/fc37/adam/projects/psilocybin-prl-analyses/src/prl_hgf/fitting/hierarchical.py" source_line=1011}
  get-tuple-element.10117.0 = f64[10,20]{1,0} get-tuple-element(while.45.0), index=69, metadata={op_name="jit(scan)/jit(main)/while[cond_nconsts=0 body_nconsts=10]" source_file="/fs04/fc37/adam/projects/psilocybin-prl-analyses/src/prl_hgf/fitting/hierarchical.py" source_line=1011}
  get-tuple-element.10116.0 = f64[10,20]{1,0} get-tuple-element(while.45.0), index=68, metadata={op_name="jit(scan)/jit(main)/while[cond_nconsts=0 body_nconsts=10]" source_file="/fs04/fc37/adam/projects/psilocybin-prl-analyses/src/prl_hgf/fitting/hierarchical.py" source_line=1011}
  get-tuple-element.10115.0 = f64[10,20]{1,0} get-tuple-element(while.45.0), index=67, metadata={op_name="jit(scan)/jit(main)/while[cond_nconsts=0 body_nconsts=10]" source_file="/fs04/fc37/adam/projects/psilocybin-prl-analyses/src/prl_hgf/fitting/hierarchical.py" source_line=1011}
  get-tuple-element.10114.0 = f64[10,20]{1,0} get-tuple-element(while.45.0), index=66, metadata={op_name="jit(scan)/jit(main)/while[cond_nconsts=0 body_nconsts=10]" source_file="/fs04/fc37/adam/projects/psilocybin-prl-analyses/src/prl_hgf/fitting/hierarchical.py" source_line=1011}
  get-tuple-element.10113.0 = f64[10,20]{1,0} get-tuple-element(while.45.0), index=65, metadata={op_name="jit(scan)/jit(main)/while[cond_nconsts=0 body_nconsts=10]" source_file="/fs04/fc37/adam/projects/psilocybin-prl-analyses/src/prl_hgf/fitting/hierarchical.py" source_line=1011}
  get-tuple-element.10112.0 = f64[10,20]{1,0} get-tuple-element(while.45.0), index=64, metadata={op_name="jit(scan)/jit(main)/while[cond_nconsts=0 body_nconsts=10]" source_file="/fs04/fc37/adam/projects/psilocybin-prl-analyses/src/prl_hgf/fitting/hierarchical.py" source_line=1011}
  get-tuple-element.10111.0 = f64[10,20]{1,0} get-tuple-element(while.45.0), index=63, metadata={op_name="jit(scan)/jit(main)/while[cond_nconsts=0 body_nconsts=10]" source_file="/fs04/fc37/adam/projects/psilocybin-prl-analyses/src/prl_hgf/fitting/hierarchical.py" source_line=1011}
  get-tuple-element.10110.0 = f64[10,20]{1,0} get-tuple-element(while.45.0), index=62, metadata={op_name="jit(scan)/jit(main)/while[cond_nconsts=0 body_nconsts=10]" source_file="/fs04/fc37/adam/projects/psilocybin-prl-analyses/src/prl_hgf/fitting/hierarchical.py" source_line=1011}
  get-tuple-element.10109.0 = f64[10,20]{1,0} get-tuple-element(while.45.0), index=61, metadata={op_name="jit(scan)/jit(main)/while[cond_nconsts=0 body_nconsts=10]" source_file="/fs04/fc37/adam/projects/psilocybin-prl-analyses/src/prl_hgf/fitting/hierarchical.py" source_line=1011}
  get-tuple-element.10108.0 = f64[10,20]{1,0} get-tuple-element(while.45.0), index=60, metadata={op_name="jit(scan)/jit(main)/while[cond_nconsts=0 body_nconsts=10]" source_file="/fs04/fc37/adam/projects/psilocybin-prl-analyses/src/prl_hgf/fitting/hierarchical.py" source_line=1011}
  get-tuple-element.10107.0 = f64[10]{0} get-tuple-element(while.45.0), index=59, metadata={op_name="jit(scan)/jit(main)/while[cond_nconsts=0 body_nconsts=10]" source_file="/fs04/fc37/adam/projects/psilocybin-prl-analyses/src/prl_hgf/fitting/hierarchical.py" source_line=1011}
  get-tuple-element.10106.0 = f64[10,20]{1,0} get-tuple-element(while.45.0), index=58, metadata={op_name="jit(scan)/jit(main)/while[cond_nconsts=0 body_nconsts=10]" source_file="/fs04/fc37/adam/projects/psilocybin-prl-analyses/src/prl_hgf/fitting/hierarchical.py" source_line=1011}
  get-tuple-element.10105.0 = f64[10,20]{1,0} get-tuple-element(while.45.0), index=57, metadata={op_name="jit(scan)/jit(main)/while[cond_nconsts=0 body_nconsts=10]" source_file="/fs04/fc37/adam/projects/psilocybin-prl-analyses/src/prl_hgf/fitting/hierarchical.py" source_line=1011}
  get-tuple-element.10104.0 = f64[10,20]{1,0} get-tuple-element(while.45.0), index=56, metadata={op_name="jit(scan)/jit(main)/while[cond_nconsts=0 body_nconsts=10]" source_file="/fs04/fc37/adam/projects/psilocybin-prl-analyses/src/prl_hgf/fitting/hierarchical.py" source_line=1011}
  get-tuple-element.10103.0 = f64[10,20]{1,0} get-tuple-element(while.45.0), index=55, metadata={op_name="jit(scan)/jit(main)/while[cond_nconsts=0 body_nconsts=10]" source_file="/fs04/fc37/adam/projects/psilocybin-prl-analyses/src/prl_hgf/fitting/hierarchical.py" source_line=1011}
  get-tuple-element.10102.0 = f64[10,20]{1,0} get-tuple-element(while.45.0), index=54, metadata={op_name="jit(scan)/jit(main)/while[cond_nconsts=0 body_nconsts=10]" source_file="/fs04/fc37/adam/projects/psilocybin-prl-analyses/src/prl_hgf/fitting/hierarchical.py" source_line=1011}
  get-tuple-element.10101.0 = f64[10,20]{1,0} get-tuple-element(while.45.0), index=53, metadata={op_name="jit(scan)/jit(main)/while[cond_nconsts=0 body_nconsts=10]" source_file="/fs04/fc37/adam/projects/psilocybin-prl-analyses/src/prl_hgf/fitting/hierarchical.py" source_line=1011}
  get-tuple-element.10100.0 = f64[10,20]{1,0} get-tuple-element(while.45.0), index=52, metadata={op_name="jit(scan)/jit(main)/while[cond_nconsts=0 body_nconsts=10]" source_file="/fs04/fc37/adam/projects/psilocybin-prl-analyses/src/prl_hgf/fitting/hierarchical.py" source_line=1011}
  get-tuple-element.10099.0 = f64[10,20]{1,0} get-tuple-element(while.45.0), index=51, metadata={op_name="jit(scan)/jit(main)/while[cond_nconsts=0 body_nconsts=10]" source_file="/fs04/fc37/adam/projects/psilocybin-prl-analyses/src/prl_hgf/fitting/hierarchical.py" source_line=1011}
  get-tuple-element.10098.0 = f64[10,20]{1,0} get-tuple-element(while.45.0), index=50, metadata={op_name="jit(scan)/jit(main)/while[cond_nconsts=0 body_nconsts=10]" source_file="/fs04/fc37/adam/projects/psilocybin-prl-analyses/src/prl_hgf/fitting/hierarchical.py" source_line=1011}
  get-tuple-element.10097.0 = f64[10,20]{1,0} get-tuple-element(while.45.0), index=49, metadata={op_name="jit(scan)/jit(main)/while[cond_nconsts=0 body_nconsts=10]" source_file="/fs04/fc37/adam/projects/psilocybin-prl-analyses/src/prl_hgf/fitting/hierarchical.py" source_line=1011}
  get-tuple-element.10096.0 = f64[10,20]{1,0} get-tuple-element(while.45.0), index=48, metadata={op_name="jit(scan)/jit(main)/while[cond_nconsts=0 body_nconsts=10]" source_file="/fs04/fc37/adam/projects/psilocybin-prl-analyses/src/prl_hgf/fitting/hierarchical.py" source_line=1011}
  get-tuple-element.10095.0 = f64[10,20]{1,0} get-tuple-element(while.45.0), index=47, metadata={op_name="jit(scan)/jit(main)/while[cond_nconsts=0 body_nconsts=10]" source_file="/fs04/fc37/adam/projects/psilocybin-prl-analyses/src/prl_hgf/fitting/hierarchical.py" source_line=1011}
  get-tuple-element.10094.0 = f64[10]{0} get-tuple-element(while.45.0), index=46, metadata={op_name="jit(scan)/jit(main)/while[cond_nconsts=0 body_nconsts=10]" source_file="/fs04/fc37/adam/projects/psilocybin-prl-analyses/src/prl_hgf/fitting/hierarchical.py" source_line=1011}
  get-tuple-element.10093.0 = pred[10]{0} get-tuple-element(while.45.0), index=45, metadata={op_name="jit(scan)/jit(main)/while[cond_nconsts=0 body_nconsts=10]" source_file="/fs04/fc37/adam/projects/psilocybin-prl-analyses/src/prl_hgf/fitting/hierarchical.py" source_line=1011}
  get-tuple-element.10092.0 = pred[10]{0} get-tuple-element(while.45.0), index=44, metadata={op_name="jit(scan)/jit(main)/while[cond_nconsts=0 body_nconsts=10]" source_file="/fs04/fc37/adam/projects/psilocybin-prl-analyses/src/prl_hgf/fitting/hierarchical.py" source_line=1011}
  get-tuple-element.10091.0 = f64[10,20]{1,0} get-tuple-element(while.45.0), index=43, metadata={op_name="jit(scan)/jit(main)/while[cond_nconsts=0 body_nconsts=10]" source_file="/fs04/fc37/adam/projects/psilocybin-prl-analyses/src/prl_hgf/fitting/hierarchical.py" source_line=1011}
  get-tuple-element.10090.0 = f64[10,20]{1,0} get-tuple-element(while.45.0), index=42, metadata={op_name="jit(scan)/jit(main)/while[cond_nconsts=0 body_nconsts=10]" source_file="/fs04/fc37/adam/projects/psilocybin-prl-analyses/src/prl_hgf/fitting/hierarchical.py" source_line=1011}
  get-tuple-element.10089.0 = f64[10,20]{1,0} get-tuple-element(while.45.0), index=41, metadata={op_name="jit(scan)/jit(main)/while[cond_nconsts=0 body_nconsts=10]" source_file="/fs04/fc37/adam/projects/psilocybin-prl-analyses/src/prl_hgf/fitting/hierarchical.py" source_line=1011}
  get-tuple-element.10088.0 = f64[10,20]{1,0} get-tuple-element(while.45.0), index=40, metadata={op_name="jit(scan)/jit(main)/while[cond_nconsts=0 body_nconsts=10]" source_file="/fs04/fc37/adam/projects/psilocybin-prl-analyses/src/prl_hgf/fitting/hierarchical.py" source_line=1011}
  get-tuple-element.10087.0 = f64[10,20]{1,0} get-tuple-element(while.45.0), index=39, metadata={op_name="jit(scan)/jit(main)/while[cond_nconsts=0 body_nconsts=10]" source_file="/fs04/fc37/adam/projects/psilocybin-prl-analyses/src/prl_hgf/fitting/hierarchical.py" source_line=1011}
  get-tuple-element.10086.0 = f64[10,20]{1,0} get-tuple-element(while.45.0), index=38, metadata={op_name="jit(scan)/jit(main)/while[cond_nconsts=0 body_nconsts=10]" source_file="/fs04/fc37/adam/projects/psilocybin-prl-analyses/src/prl_hgf/fitting/hierarchical.py" source_line=1011}
  get-tuple-element.10085.0 = f64[10,20]{1,0} get-tuple-element(while.45.0), index=37, metadata={op_name="jit(scan)/jit(main)/while[cond_nconsts=0 body_nconsts=10]" source_file="/fs04/fc37/adam/projects/psilocybin-prl-analyses/src/prl_hgf/fitting/hierarchical.py" source_line=1011}
  get-tuple-element.10084.0 = f64[10,20]{1,0} get-tuple-element(while.45.0), index=36, metadata={op_name="jit(scan)/jit(main)/while[cond_nconsts=0 body_nconsts=10]" source_file="/fs04/fc37/adam/projects/psilocybin-prl-analyses/src/prl_hgf/fitting/hierarchical.py" source_line=1011}
  get-tuple-element.10083.0 = f64[10,20]{1,0} get-tuple-element(while.45.0), index=35, metadata={op_name="jit(scan)/jit(main)/while[cond_nconsts=0 body_nconsts=10]" source_file="/fs04/fc37/adam/projects/psilocybin-prl-analyses/src/prl_hgf/fitting/hierarchical.py" source_line=1011}
  get-tuple-element.10082.0 = f64[10,20]{1,0} get-tuple-element(while.45.0), index=34, metadata={op_name="jit(scan)/jit(main)/while[cond_nconsts=0 body_nconsts=10]" source_file="/fs04/fc37/adam/projects/psilocybin-prl-analyses/src/prl_hgf/fitting/hierarchical.py" source_line=1011}
  get-tuple-element.10081.0 = f64[10,20]{1,0} get-tuple-element(while.45.0), index=33, metadata={op_name="jit(scan)/jit(main)/while[cond_nconsts=0 body_nconsts=10]" source_file="/fs04/fc37/adam/projects/psilocybin-prl-analyses/src/prl_hgf/fitting/hierarchical.py" source_line=1011}
  get-tuple-element.10080.0 = f64[10,20]{1,0} get-tuple-element(while.45.0), index=32, metadata={op_name="jit(scan)/jit(main)/while[cond_nconsts=0 body_nconsts=10]" source_file="/fs04/fc37/adam/projects/psilocybin-prl-analyses/src/prl_hgf/fitting/hierarchical.py" source_line=1011}
  get-tuple-element.10079.0 = f64[10]{0} get-tuple-element(while.45.0), index=31, metadata={op_name="jit(scan)/jit(main)/while[cond_nconsts=0 body_nconsts=10]" source_file="/fs04/fc37/adam/projects/psilocybin-prl-analyses/src/prl_hgf/fitting/hierarchical.py" source_line=1011}
  get-tuple-element.10078.0 = f64[10,20]{1,0} get-tuple-element(while.45.0), index=30, metadata={op_name="jit(scan)/jit(main)/while[cond_nconsts=0 body_nconsts=10]" source_file="/fs04/fc37/adam/projects/psilocybin-prl-analyses/src/prl_hgf/fitting/hierarchical.py" source_line=1011}
  get-tuple-element.10077.0 = f64[10,20]{1,0} get-tuple-element(while.45.0), index=29, metadata={op_name="jit(scan)/jit(main)/while[cond_nconsts=0 body_nconsts=10]" source_file="/fs04/fc37/adam/projects/psilocybin-prl-analyses/src/prl_hgf/fitting/hierarchical.py" source_line=1011}
  get-tuple-element.10076.0 = f64[10,20]{1,0} get-tuple-element(while.45.0), index=28, metadata={op_name="jit(scan)/jit(main)/while[cond_nconsts=0 body_nconsts=10]" source_file="/fs04/fc37/adam/projects/psilocybin-prl-analyses/src/prl_hgf/fitting/hierarchical.py" source_line=1011}
  get-tuple-element.10075.0 = f64[10,20]{1,0} get-tuple-element(while.45.0), index=27, metadata={op_name="jit(scan)/jit(main)/while[cond_nconsts=0 body_nconsts=10]" source_file="/fs04/fc37/adam/projects/psilocybin-prl-analyses/src/prl_hgf/fitting/hierarchical.py" source_line=1011}
  get-tuple-element.10074.0 = f64[10,20]{1,0} get-tuple-element(while.45.0), index=26, metadata={op_name="jit(scan)/jit(main)/while[cond_nconsts=0 body_nconsts=10]" source_file="/fs04/fc37/adam/projects/psilocybin-prl-analyses/src/prl_hgf/fitting/hierarchical.py" source_line=1011}
  get-tuple-element.10073.0 = f64[10,20]{1,0} get-tuple-element(while.45.0), index=25, metadata={op_name="jit(scan)/jit(main)/while[cond_nconsts=0 body_nconsts=10]" source_file="/fs04/fc37/adam/projects/psilocybin-prl-analyses/src/prl_hgf/fitting/hierarchical.py" source_line=1011}
  get-tuple-element.10072.0 = f64[120]{0} get-tuple-element(while.45.0), index=24, metadata={op_name="jit(scan)/jit(main)/while[cond_nconsts=0 body_nconsts=10]" source_file="/fs04/fc37/adam/projects/psilocybin-prl-analyses/src/prl_hgf/fitting/hierarchical.py" source_line=1011}
  get-tuple-element.10069.0 = f64[120]{0} get-tuple-element(while.45.0), index=21, metadata={op_name="jit(scan)/jit(main)/while[cond_nconsts=0 body_nconsts=10]" source_file="/fs04/fc37/adam/projects/psilocybin-prl-analyses/src/prl_hgf/fitting/hierarchical.py" source_line=1011}
  get-tuple-element.10068.0 = f64[120]{0} get-tuple-element(while.45.0), index=20, metadata={op_name="jit(scan)/jit(main)/while[cond_nconsts=0 body_nconsts=10]" source_file="/fs04/fc37/adam/projects/psilocybin-prl-analyses/src/prl_hgf/fitting/hierarchical.py" source_line=1011}
  get-tuple-element.10067.0 = f64[120]{0} get-tuple-element(while.45.0), index=19, metadata={op_name="jit(scan)/jit(main)/while[cond_nconsts=0 body_nconsts=10]" source_file="/fs04/fc37/adam/projects/psilocybin-prl-analyses/src/prl_hgf/fitting/hierarchical.py" source_line=1011}
  get-tuple-element.10061.0 = f64[20]{0} get-tuple-element(while.45.0), index=13, metadata={op_name="jit(scan)/jit(main)/while[cond_nconsts=0 body_nconsts=10]" source_file="/fs04/fc37/adam/projects/psilocybin-prl-analyses/src/prl_hgf/fitting/hierarchical.py" source_line=1011}
  get-tuple-element.10060.0 = f64[20]{0} get-tuple-element(while.45.0), index=12, metadata={op_name="jit(scan)/jit(main)/while[cond_nconsts=0 body_nconsts=10]" source_file="/fs04/fc37/adam/projects/psilocybin-prl-analyses/src/prl_hgf/fitting/hierarchical.py" source_line=1011}
  get-tuple-element.10059.0 = f64[20]{0} get-tuple-element(while.45.0), index=11, metadata={op_name="jit(scan)/jit(main)/while[cond_nconsts=0 body_nconsts=10]" source_file="/fs04/fc37/adam/projects/psilocybin-prl-analyses/src/prl_hgf/fitting/hierarchical.py" source_line=1011}
  get-tuple-element.10058.0 = f64[20]{0} get-tuple-element(while.45.0), index=10, metadata={op_name="jit(scan)/jit(main)/while[cond_nconsts=0 body_nconsts=10]" source_file="/fs04/fc37/adam/projects/psilocybin-prl-analyses/src/prl_hgf/fitting/hierarchical.py" source_line=1011}
  get-tuple-element.10057.0 = f64[20]{0} get-tuple-element(while.45.0), index=9, metadata={op_name="jit(scan)/jit(main)/while[cond_nconsts=0 body_nconsts=10]" source_file="/fs04/fc37/adam/projects/psilocybin-prl-analyses/src/prl_hgf/fitting/hierarchical.py" source_line=1011}
  get-tuple-element.10056.0 = f64[20]{0} get-tuple-element(while.45.0), index=8, metadata={op_name="jit(scan)/jit(main)/while[cond_nconsts=0 body_nconsts=10]" source_file="/fs04/fc37/adam/projects/psilocybin-prl-analyses/src/prl_hgf/fitting/hierarchical.py" source_line=1011}
  get-tuple-element.10054.0 = f64[20]{0} get-tuple-element(while.45.0), index=6, metadata={op_name="jit(scan)/jit(main)/while[cond_nconsts=0 body_nconsts=10]" source_file="/fs04/fc37/adam/projects/psilocybin-prl-analyses/src/prl_hgf/fitting/hierarchical.py" source_line=1011}
  get-tuple-element.10053.0 = f64[20]{0} get-tuple-element(while.45.0), index=5, metadata={op_name="jit(scan)/jit(main)/while[cond_nconsts=0 body_nconsts=10]" source_file="/fs04/fc37/adam/projects/psilocybin-prl-analyses/src/prl_hgf/fitting/hierarchical.py" source_line=1011}
  get-tuple-element.10052.0 = f64[20]{0} get-tuple-element(while.45.0), index=4, metadata={op_name="jit(scan)/jit(main)/while[cond_nconsts=0 body_nconsts=10]" source_file="/fs04/fc37/adam/projects/psilocybin-prl-analyses/src/prl_hgf/fitting/hierarchical.py" source_line=1011}
  get-tuple-element.10051.0 = f64[20]{0} get-tuple-element(while.45.0), index=3, metadata={op_name="jit(scan)/jit(main)/while[cond_nconsts=0 body_nconsts=10]" source_file="/fs04/fc37/adam/projects/psilocybin-prl-analyses/src/prl_hgf/fitting/hierarchical.py" source_line=1011}
  get-tuple-element.10050.0 = f64[20]{0} get-tuple-element(while.45.0), index=2, metadata={op_name="jit(scan)/jit(main)/while[cond_nconsts=0 body_nconsts=10]" source_file="/fs04/fc37/adam/projects/psilocybin-prl-analyses/src/prl_hgf/fitting/hierarchical.py" source_line=1011}
  get-tuple-element.10049.0 = f64[20]{0} get-tuple-element(while.45.0), index=1, metadata={op_name="jit(scan)/jit(main)/while[cond_nconsts=0 body_nconsts=10]" source_file="/fs04/fc37/adam/projects/psilocybin-prl-analyses/src/prl_hgf/fitting/hierarchical.py" source_line=1011}
  get-tuple-element.10146.0 = f64[10,120]{1,0} get-tuple-element(while.45.0), index=98, metadata={op_name="jit(scan)/jit(main)/while[cond_nconsts=0 body_nconsts=10]" source_file="/fs04/fc37/adam/projects/psilocybin-prl-analyses/src/prl_hgf/fitting/hierarchical.py" source_line=1011}
  ROOT tuple.10157.0 = (f64[20]{0}, f64[20]{0}, f64[20]{0}, f64[20]{0}, f64[20]{0}, /*index=5*/f64[20]{0}, f64[], f64[20]{0}, f64[20]{0}, f64[20]{0}, /*index=10*/f64[20]{0}, f64[20]{0}, f64[20]{0}, f64[], f64[], /*index=15*/s64[], f64[], f64[], f64[120]{0}, f64[120]{0}, /*index=20*/f64[120]{0}, s64[], f64[], f64[120]{0}, f64[10,20]{1,0}, /*index=25*/f64[10,20]{1,0}, f64[10,20]{1,0}, f64[10,20]{1,0}, f64[10,20]{1,0}, f64[10,20]{1,0}, /*index=30*/f64[10]{0}, f64[10,20]{1,0}, f64[10,20]{1,0}, f64[10,20]{1,0}, f64[10,20]{1,0}, /*index=35*/f64[10,20]{1,0}, f64[10,20]{1,0}, f64[10,20]{1,0}, f64[10,20]{1,0}, f64[10,20]{1,0}, /*index=40*/f64[10,20]{1,0}, f64[10,20]{1,0}, f64[10,20]{1,0}, pred[10]{0}, pred[10]{0}, /*index=45*/f64[10]{0}, f64[10,20]{1,0}, f64[10,20]{1,0}, f64[10,20]{1,0}, f64[10,20]{1,0}, /*index=50*/f64[10,20]{1,0}, f64[10,20]{1,0}, f64[10,20]{1,0}, f64[10,20]{1,0}, f64[10,20]{1,0}, /*index=55*/f64[10,20]{1,0}, f64[10,20]{1,0}, f64[10,20]{1,0}, f64[10]{0}, f64[10,20]{1,0}, /*index=60*/f64[10,20]{1,0}, f64[10,20]{1,0}, f64[10,20]{1,0}, f64[10,20]{1,0}, f64[10,20]{1,0}, /*index=65*/f64[10,20]{1,0}, f64[10,20]{1,0}, f64[10,20]{1,0}, f64[10,20]{1,0}, f64[10,20]{1,0}, /*index=70*/f64[10,20]{1,0}, f64[10,20]{1,0}, f64[10,20]{1,0}, f64[10,20]{1,0}, f64[10,20]{1,0}, /*index=75*/f64[10,20]{1,0}, f64[10,20]{1,0}, f64[10]{0}, f64[10,20]{1,0}, f64[10,20]{1,0}, /*index=80*/f64[10,20]{1,0}, f64[10,20]{1,0}, f64[10,20]{1,0}, f64[10,20]{1,0}, s64[10]{0}, /*index=85*/s64[10]{0}, f64[10]{0}, f64[10]{0}, f64[10]{0}, s64[10]{0}, /*index=90*/f64[10]{0}, f64[10]{0}, f64[10,120]{1,0}, f64[10,120]{1,0}, f64[10,120]{1,0}, /*index=95*/s64[10]{0}, f64[10]{0}, f64[10,120]{1,0}) tuple(get-tuple-element.10049.0, get-tuple-element.10050.0, get-tuple-element.10051.0, get-tuple-element.10052.0, get-tuple-element.10053.0, /*index=5*/get-tuple-element.10054.0, get-tuple-element.10055.0, get-tuple-element.10056.0, get-tuple-element.10057.0, get-tuple-element.10058.0, /*index=10*/get-tuple-element.10059.0, get-tuple-element.10060.0, get-tuple-element.10061.0, get-tuple-element.10062.0, get-tuple-element.10063.0, /*index=15*/get-tuple-element.10064.0, get-tuple-element.10065.0, get-tuple-element.10066.0, get-tuple-element.10067.0, get-tuple-element.10068.0, /*index=20*/get-tuple-element.10069.0, get-tuple-element.10070.0, get-tuple-element.10071.0, get-tuple-element.10072.0, get-tuple-element.10073.0, /*index=25*/get-tuple-element.10074.0, get-tuple-element.10075.0, get-tuple-element.10076.0, get-tuple-element.10077.0, get-tuple-element.10078.0, /*index=30*/get-tuple-element.10079.0, get-tuple-element.10080.0, get-tuple-element.10081.0, get-tuple-element.10082.0, get-tuple-element.10083.0, /*index=35*/get-tuple-element.10084.0, get-tuple-element.10085.0, get-tuple-element.10086.0, get-tuple-element.10087.0, get-tuple-element.10088.0, /*index=40*/get-tuple-element.10089.0, get-tuple-element.10090.0, get-tuple-element.10091.0, get-tuple-element.10092.0, get-tuple-element.10093.0, /*index=45*/get-tuple-element.10094.0, get-tuple-element.10095.0, get-tuple-element.10096.0, get-tuple-element.10097.0, get-tuple-element.10098.0, /*index=50*/get-tuple-element.10099.0, get-tuple-element.10100.0, get-tuple-element.10101.0, get-tuple-element.10102.0, get-tuple-element.10103.0, /*index=55*/get-tuple-element.10104.0, get-tuple-element.10105.0, get-tuple-element.10106.0, get-tuple-element.10107.0, get-tuple-element.10108.0, /*index=60*/get-tuple-element.10109.0, get-tuple-element.10110.0, get-tuple-element.10111.0, get-tuple-element.10112.0, get-tuple-element.10113.0, /*index=65*/get-tuple-element.10114.0, get-tuple-element.10115.0, get-tuple-element.10116.0, get-tuple-element.10117.0, get-tuple-element.10118.0, /*index=70*/get-tuple-element.10119.0, get-tuple-element.10120.0, get-tuple-element.10121.0, get-tuple-element.10122.0, get-tuple-element.10123.0, /*index=75*/get-tuple-element.10124.0, get-tuple-element.10125.0, get-tuple-element.10126.0, get-tuple-element.10127.0, get-tuple-element.10128.0, /*index=80*/get-tuple-element.10129.0, get-tuple-element.10130.0, get-tuple-element.10131.0, get-tuple-element.10132.0, get-tuple-element.10133.0, /*index=85*/get-tuple-element.10134.0, get-tuple-element.10135.0, get-tuple-element.10136.0, get-tuple-element.10137.0, get-tuple-element.10138.0, /*index=90*/get-tuple-element.10139.0, get-tuple-element.10140.0, get-tuple-element.10141.0, get-tuple-element.10142.0, get-tuple-element.10143.0, /*index=95*/get-tuple-element.10144.0, get-tuple-element.10145.0, get-tuple-element.10146.0)
} // main.10158

