HloModule jit__threefry_split, entry_computation_layout={(u32[2]{0})->u32[2,2]{1,0}}, allow_spmd_sharding_propagation_to_parameters={true}, allow_spmd_sharding_propagation_to_output={true}

ENTRY main.173 {
  iota.33 = u32[4]{0} iota(), iota_dimension=0, metadata={op_name="jit(_threefry_split)/jit(main)/iota[dtype=uint32 shape=(4,) dimension=0]" source_file="/fs04/fc37/adam/projects/psilocybin-prl-analyses/src/prl_hgf/fitting/hierarchical.py" source_line=1011}
  slice.38 = u32[2]{0} slice(iota.33), slice={[0:2]}, metadata={op_name="jit(_threefry_split)/jit(main)/slice[start_indices=(np.int64(0),) limit_indices=(np.int64(2),) strides=None]" source_file="/fs04/fc37/adam/projects/psilocybin-prl-analyses/src/prl_hgf/fitting/hierarchical.py" source_line=1011}
  Arg_0.1 = u32[2]{0} parameter(0), metadata={op_name="key"}
  slice.34 = u32[1]{0} slice(Arg_0.1), slice={[0:1]}, metadata={op_name="jit(_threefry_split)/jit(main)/slice[start_indices=(0,) limit_indices=(1,) strides=(1,)]" source_file="/fs04/fc37/adam/projects/psilocybin-prl-analyses/src/prl_hgf/fitting/hierarchical.py" source_line=1011}
  reshape.35 = u32[] reshape(slice.34), metadata={op_name="jit(_threefry_split)/jit(main)/squeeze[dimensions=(0,)]" source_file="/fs04/fc37/adam/projects/psilocybin-prl-analyses/src/prl_hgf/fitting/hierarchical.py" source_line=1011}
  broadcast.42 = u32[2]{0} broadcast(reshape.35), dimensions={}, metadata={op_name="jit(_threefry_split)/jit(main)/add" source_file="/fs04/fc37/adam/projects/psilocybin-prl-analyses/src/prl_hgf/fitting/hierarchical.py" source_line=1011}
  add.43 = u32[2]{0} add(slice.38, broadcast.42), metadata={op_name="jit(_threefry_split)/jit(main)/add" source_file="/fs04/fc37/adam/projects/psilocybin-prl-analyses/src/prl_hgf/fitting/hierarchical.py" source_line=1011}
  slice.39 = u32[2]{0} slice(iota.33), slice={[2:4]}, metadata={op_name="jit(_threefry_split)/jit(main)/slice[start_indices=(np.int64(2),) limit_indices=(np.int64(4),) strides=None]" source_file="/fs04/fc37/adam/projects/psilocybin-prl-analyses/src/prl_hgf/fitting/hierarchical.py" source_line=1011}
  slice.36 = u32[1]{0} slice(Arg_0.1), slice={[1:2]}, metadata={op_name="jit(_threefry_split)/jit(main)/slice[start_indices=(1,) limit_indices=(2,) strides=(1,)]" source_file="/fs04/fc37/adam/projects/psilocybin-prl-analyses/src/prl_hgf/fitting/hierarchical.py" source_line=1011}
  reshape.37 = u32[] reshape(slice.36), metadata={op_name="jit(_threefry_split)/jit(main)/squeeze[dimensions=(0,)]" source_file="/fs04/fc37/adam/projects/psilocybin-prl-analyses/src/prl_hgf/fitting/hierarchical.py" source_line=1011}
  broadcast.44 = u32[2]{0} broadcast(reshape.37), dimensions={}, metadata={op_name="jit(_threefry_split)/jit(main)/add" source_file="/fs04/fc37/adam/projects/psilocybin-prl-analyses/src/prl_hgf/fitting/hierarchical.py" source_line=1011}
  add.45 = u32[2]{0} add(slice.39, broadcast.44), metadata={op_name="jit(_threefry_split)/jit(main)/add" source_file="/fs04/fc37/adam/projects/psilocybin-prl-analyses/src/prl_hgf/fitting/hierarchical.py" source_line=1011}
  add.46 = u32[2]{0} add(add.43, add.45), metadata={op_name="jit(_threefry_split)/jit(main)/add" source_file="/fs04/fc37/adam/projects/psilocybin-prl-analyses/src/prl_hgf/fitting/hierarchical.py" source_line=1011}
  constant.30 = u32[] constant(13)
  broadcast.31 = u32[2]{0} broadcast(constant.30), dimensions={}
  shift-left.47 = u32[2]{0} shift-left(add.45, broadcast.31), metadata={op_name="jit(_threefry_split)/jit(main)/shift_left" source_file="/fs04/fc37/adam/projects/psilocybin-prl-analyses/src/prl_hgf/fitting/hierarchical.py" source_line=1011}
  constant.28 = u32[] constant(19)
  broadcast.29 = u32[2]{0} broadcast(constant.28), dimensions={}
  shift-right-logical.48 = u32[2]{0} shift-right-logical(add.45, broadcast.29), metadata={op_name="jit(_threefry_split)/jit(main)/shift_right_logical" source_file="/fs04/fc37/adam/projects/psilocybin-prl-analyses/src/prl_hgf/fitting/hierarchical.py" source_line=1011}
  or.49 = u32[2]{0} or(shift-left.47, shift-right-logical.48), metadata={op_name="jit(_threefry_split)/jit(main)/or" source_file="/fs04/fc37/adam/projects/psilocybin-prl-analyses/src/prl_hgf/fitting/hierarchical.py" source_line=1011}
  xor.50 = u32[2]{0} xor(add.46, or.49), metadata={op_name="jit(_threefry_split)/jit(main)/xor" source_file="/fs04/fc37/adam/projects/psilocybin-prl-analyses/src/prl_hgf/fitting/hierarchical.py" source_line=1011}
  add.51 = u32[2]{0} add(add.46, xor.50), metadata={op_name="jit(_threefry_split)/jit(main)/add" source_file="/fs04/fc37/adam/projects/psilocybin-prl-analyses/src/prl_hgf/fitting/hierarchical.py" source_line=1011}
  constant.26 = u32[] constant(15)
  broadcast.27 = u32[2]{0} broadcast(constant.26), dimensions={}
  shift-left.52 = u32[2]{0} shift-left(xor.50, broadcast.27), metadata={op_name="jit(_threefry_split)/jit(main)/shift_left" source_file="/fs04/fc37/adam/projects/psilocybin-prl-analyses/src/prl_hgf/fitting/hierarchical.py" source_line=1011}
  constant.24 = u32[] constant(17)
  broadcast.25 = u32[2]{0} broadcast(constant.24), dimensions={}
  shift-right-logical.53 = u32[2]{0} shift-right-logical(xor.50, broadcast.25), metadata={op_name="jit(_threefry_split)/jit(main)/shift_right_logical" source_file="/fs04/fc37/adam/projects/psilocybin-prl-analyses/src/prl_hgf/fitting/hierarchical.py" source_line=1011}
  or.54 = u32[2]{0} or(shift-left.52, shift-right-logical.53), metadata={op_name="jit(_threefry_split)/jit(main)/or" source_file="/fs04/fc37/adam/projects/psilocybin-prl-analyses/src/prl_hgf/fitting/hierarchical.py" source_line=1011}
  xor.55 = u32[2]{0} xor(add.51, or.54), metadata={op_name="jit(_threefry_split)/jit(main)/xor" source_file="/fs04/fc37/adam/projects/psilocybin-prl-analyses/src/prl_hgf/fitting/hierarchical.py" source_line=1011}
  add.56 = u32[2]{0} add(add.51, xor.55), metadata={op_name="jit(_threefry_split)/jit(main)/add" source_file="/fs04/fc37/adam/projects/psilocybin-prl-analyses/src/prl_hgf/fitting/hierarchical.py" source_line=1011}
  constant.22 = u32[] constant(26)
  broadcast.23 = u32[2]{0} broadcast(constant.22), dimensions={}
  shift-left.57 = u32[2]{0} shift-left(xor.55, broadcast.23), metadata={op_name="jit(_threefry_split)/jit(main)/shift_left" source_file="/fs04/fc37/adam/projects/psilocybin-prl-analyses/src/prl_hgf/fitting/hierarchical.py" source_line=1011}
  constant.20 = u32[] constant(6)
  broadcast.21 = u32[2]{0} broadcast(constant.20), dimensions={}
  shift-right-logical.58 = u32[2]{0} shift-right-logical(xor.55, broadcast.21), metadata={op_name="jit(_threefry_split)/jit(main)/shift_right_logical" source_file="/fs04/fc37/adam/projects/psilocybin-prl-analyses/src/prl_hgf/fitting/hierarchical.py" source_line=1011}
  or.59 = u32[2]{0} or(shift-left.57, shift-right-logical.58), metadata={op_name="jit(_threefry_split)/jit(main)/or" source_file="/fs04/fc37/adam/projects/psilocybin-prl-analyses/src/prl_hgf/fitting/hierarchical.py" source_line=1011}
  xor.60 = u32[2]{0} xor(add.56, or.59), metadata={op_name="jit(_threefry_split)/jit(main)/xor" source_file="/fs04/fc37/adam/projects/psilocybin-prl-analyses/src/prl_hgf/fitting/hierarchical.py" source_line=1011}
  add.61 = u32[2]{0} add(add.56, xor.60), metadata={op_name="jit(_threefry_split)/jit(main)/add" source_file="/fs04/fc37/adam/projects/psilocybin-prl-analyses/src/prl_hgf/fitting/hierarchical.py" source_line=1011}
  broadcast.66 = u32[2]{0} broadcast(reshape.37), dimensions={}, metadata={op_name="jit(_threefry_split)/jit(main)/add" source_file="/fs04/fc37/adam/projects/psilocybin-prl-analyses/src/prl_hgf/fitting/hierarchical.py" source_line=1011}
  add.67 = u32[2]{0} add(add.61, broadcast.66), metadata={op_name="jit(_threefry_split)/jit(main)/add" source_file="/fs04/fc37/adam/projects/psilocybin-prl-analyses/src/prl_hgf/fitting/hierarchical.py" source_line=1011}
  shift-left.62 = u32[2]{0} shift-left(xor.60, broadcast.21), metadata={op_name="jit(_threefry_split)/jit(main)/shift_left" source_file="/fs04/fc37/adam/projects/psilocybin-prl-analyses/src/prl_hgf/fitting/hierarchical.py" source_line=1011}
  shift-right-logical.63 = u32[2]{0} shift-right-logical(xor.60, broadcast.23), metadata={op_name="jit(_threefry_split)/jit(main)/shift_right_logical" source_file="/fs04/fc37/adam/projects/psilocybin-prl-analyses/src/prl_hgf/fitting/hierarchical.py" source_line=1011}
  or.64 = u32[2]{0} or(shift-left.62, shift-right-logical.63), metadata={op_name="jit(_threefry_split)/jit(main)/or" source_file="/fs04/fc37/adam/projects/psilocybin-prl-analyses/src/prl_hgf/fitting/hierarchical.py" source_line=1011}
  xor.65 = u32[2]{0} xor(add.61, or.64), metadata={op_name="jit(_threefry_split)/jit(main)/xor" source_file="/fs04/fc37/adam/projects/psilocybin-prl-analyses/src/prl_hgf/fitting/hierarchical.py" source_line=1011}
  xor.40 = u32[] xor(reshape.35, reshape.37), metadata={op_name="jit(_threefry_split)/jit(main)/xor" source_file="/fs04/fc37/adam/projects/psilocybin-prl-analyses/src/prl_hgf/fitting/hierarchical.py" source_line=1011}
  constant.32 = u32[] constant(466688986)
  xor.41 = u32[] xor(xor.40, constant.32), metadata={op_name="jit(_threefry_split)/jit(main)/xor" source_file="/fs04/fc37/adam/projects/psilocybin-prl-analyses/src/prl_hgf/fitting/hierarchical.py" source_line=1011}
  broadcast.68 = u32[2]{0} broadcast(xor.41), dimensions={}, metadata={op_name="jit(_threefry_split)/jit(main)/add" source_file="/fs04/fc37/adam/projects/psilocybin-prl-analyses/src/prl_hgf/fitting/hierarchical.py" source_line=1011}
  add.69 = u32[2]{0} add(xor.65, broadcast.68), metadata={op_name="jit(_threefry_split)/jit(main)/add" source_file="/fs04/fc37/adam/projects/psilocybin-prl-analyses/src/prl_hgf/fitting/hierarchical.py" source_line=1011}
  constant.18 = u32[] constant(1)
  broadcast.19 = u32[2]{0} broadcast(constant.18), dimensions={}
  add.70 = u32[2]{0} add(add.69, broadcast.19), metadata={op_name="jit(_threefry_split)/jit(main)/add" source_file="/fs04/fc37/adam/projects/psilocybin-prl-analyses/src/prl_hgf/fitting/hierarchical.py" source_line=1011}
  add.71 = u32[2]{0} add(add.67, add.70), metadata={op_name="jit(_threefry_split)/jit(main)/add" source_file="/fs04/fc37/adam/projects/psilocybin-prl-analyses/src/prl_hgf/fitting/hierarchical.py" source_line=1011}
  shift-left.72 = u32[2]{0} shift-left(add.70, broadcast.25), metadata={op_name="jit(_threefry_split)/jit(main)/shift_left" source_file="/fs04/fc37/adam/projects/psilocybin-prl-analyses/src/prl_hgf/fitting/hierarchical.py" source_line=1011}
  shift-right-logical.73 = u32[2]{0} shift-right-logical(add.70, broadcast.27), metadata={op_name="jit(_threefry_split)/jit(main)/shift_right_logical" source_file="/fs04/fc37/adam/projects/psilocybin-prl-analyses/src/prl_hgf/fitting/hierarchical.py" source_line=1011}
  or.74 = u32[2]{0} or(shift-left.72, shift-right-logical.73), metadata={op_name="jit(_threefry_split)/jit(main)/or" source_file="/fs04/fc37/adam/projects/psilocybin-prl-analyses/src/prl_hgf/fitting/hierarchical.py" source_line=1011}
  xor.75 = u32[2]{0} xor(add.71, or.74), metadata={op_name="jit(_threefry_split)/jit(main)/xor" source_file="/fs04/fc37/adam/projects/psilocybin-prl-analyses/src/prl_hgf/fitting/hierarchical.py" source_line=1011}
  add.76 = u32[2]{0} add(add.71, xor.75), metadata={op_name="jit(_threefry_split)/jit(main)/add" source_file="/fs04/fc37/adam/projects/psilocybin-prl-analyses/src/prl_hgf/fitting/hierarchical.py" source_line=1011}
  constant.16 = u32[] constant(29)
  broadcast.17 = u32[2]{0} broadcast(constant.16), dimensions={}
  shift-left.77 = u32[2]{0} shift-left(xor.75, broadcast.17), metadata={op_name="jit(_threefry_split)/jit(main)/shift_left" source_file="/fs04/fc37/adam/projects/psilocybin-prl-analyses/src/prl_hgf/fitting/hierarchical.py" source_line=1011}
  constant.14 = u32[] constant(3)
  broadcast.15 = u32[2]{0} broadcast(constant.14), dimensions={}
  shift-right-logical.78 = u32[2]{0} shift-right-logical(xor.75, broadcast.15), metadata={op_name="jit(_threefry_split)/jit(main)/shift_right_logical" source_file="/fs04/fc37/adam/projects/psilocybin-prl-analyses/src/prl_hgf/fitting/hierarchical.py" source_line=1011}
  or.79 = u32[2]{0} or(shift-left.77, shift-right-logical.78), metadata={op_name="jit(_threefry_split)/jit(main)/or" source_file="/fs04/fc37/adam/projects/psilocybin-prl-analyses/src/prl_hgf/fitting/hierarchical.py" source_line=1011}
  xor.80 = u32[2]{0} xor(add.76, or.79), metadata={op_name="jit(_threefry_split)/jit(main)/xor" source_file="/fs04/fc37/adam/projects/psilocybin-prl-analyses/src/prl_hgf/fitting/hierarchical.py" source_line=1011}
  add.81 = u32[2]{0} add(add.76, xor.80), metadata={op_name="jit(_threefry_split)/jit(main)/add" source_file="/fs04/fc37/adam/projects/psilocybin-prl-analyses/src/prl_hgf/fitting/hierarchical.py" source_line=1011}
  constant.12 = u32[] constant(16)
  broadcast.13 = u32[2]{0} broadcast(constant.12), dimensions={}
  shift-left.82 = u32[2]{0} shift-left(xor.80, broadcast.13), metadata={op_name="jit(_threefry_split)/jit(main)/shift_left" source_file="/fs04/fc37/adam/projects/psilocybin-prl-analyses/src/prl_hgf/fitting/hierarchical.py" source_line=1011}
  shift-right-logical.83 = u32[2]{0} shift-right-logical(xor.80, broadcast.13), metadata={op_name="jit(_threefry_split)/jit(main)/shift_right_logical" source_file="/fs04/fc37/adam/projects/psilocybin-prl-analyses/src/prl_hgf/fitting/hierarchical.py" source_line=1011}
  or.84 = u32[2]{0} or(shift-left.82, shift-right-logical.83), metadata={op_name="jit(_threefry_split)/jit(main)/or" source_file="/fs04/fc37/adam/projects/psilocybin-prl-analyses/src/prl_hgf/fitting/hierarchical.py" source_line=1011}
  xor.85 = u32[2]{0} xor(add.81, or.84), metadata={op_name="jit(_threefry_split)/jit(main)/xor" source_file="/fs04/fc37/adam/projects/psilocybin-prl-analyses/src/prl_hgf/fitting/hierarchical.py" source_line=1011}
  add.86 = u32[2]{0} add(add.81, xor.85), metadata={op_name="jit(_threefry_split)/jit(main)/add" source_file="/fs04/fc37/adam/projects/psilocybin-prl-analyses/src/prl_hgf/fitting/hierarchical.py" source_line=1011}
  broadcast.91 = u32[2]{0} broadcast(xor.41), dimensions={}, metadata={op_name="jit(_threefry_split)/jit(main)/add" source_file="/fs04/fc37/adam/projects/psilocybin-prl-analyses/src/prl_hgf/fitting/hierarchical.py" source_line=1011}
  add.92 = u32[2]{0} add(add.86, broadcast.91), metadata={op_name="jit(_threefry_split)/jit(main)/add" source_file="/fs04/fc37/adam/projects/psilocybin-prl-analyses/src/prl_hgf/fitting/hierarchical.py" source_line=1011}
  constant.10 = u32[] constant(24)
  broadcast.11 = u32[2]{0} broadcast(constant.10), dimensions={}
  shift-left.87 = u32[2]{0} shift-left(xor.85, broadcast.11), metadata={op_name="jit(_threefry_split)/jit(main)/shift_left" source_file="/fs04/fc37/adam/projects/psilocybin-prl-analyses/src/prl_hgf/fitting/hierarchical.py" source_line=1011}
  constant.8 = u32[] constant(8)
  broadcast.9 = u32[2]{0} broadcast(constant.8), dimensions={}
  shift-right-logical.88 = u32[2]{0} shift-right-logical(xor.85, broadcast.9), metadata={op_name="jit(_threefry_split)/jit(main)/shift_right_logical" source_file="/fs04/fc37/adam/projects/psilocybin-prl-analyses/src/prl_hgf/fitting/hierarchical.py" source_line=1011}
  or.89 = u32[2]{0} or(shift-left.87, shift-right-logical.88), metadata={op_name="jit(_threefry_split)/jit(main)/or" source_file="/fs04/fc37/adam/projects/psilocybin-prl-analyses/src/prl_hgf/fitting/hierarchical.py" source_line=1011}
  xor.90 = u32[2]{0} xor(add.86, or.89), metadata={op_name="jit(_threefry_split)/jit(main)/xor" source_file="/fs04/fc37/adam/projects/psilocybin-prl-analyses/src/prl_hgf/fitting/hierarchical.py" source_line=1011}
  broadcast.93 = u32[2]{0} broadcast(reshape.35), dimensions={}, metadata={op_name="jit(_threefry_split)/jit(main)/add" source_file="/fs04/fc37/adam/projects/psilocybin-prl-analyses/src/prl_hgf/fitting/hierarchical.py" source_line=1011}
  add.94 = u32[2]{0} add(xor.90, broadcast.93), metadata={op_name="jit(_threefry_split)/jit(main)/add" source_file="/fs04/fc37/adam/projects/psilocybin-prl-analyses/src/prl_hgf/fitting/hierarchical.py" source_line=1011}
  constant.6 = u32[] constant(2)
  broadcast.7 = u32[2]{0} broadcast(constant.6), dimensions={}
  add.95 = u32[2]{0} add(add.94, broadcast.7), metadata={op_name="jit(_threefry_split)/jit(main)/add" source_file="/fs04/fc37/adam/projects/psilocybin-prl-analyses/src/prl_hgf/fitting/hierarchical.py" source_line=1011}
  add.96 = u32[2]{0} add(add.92, add.95), metadata={op_name="jit(_threefry_split)/jit(main)/add" source_file="/fs04/fc37/adam/projects/psilocybin-prl-analyses/src/prl_hgf/fitting/hierarchical.py" source_line=1011}
  shift-left.97 = u32[2]{0} shift-left(add.95, broadcast.31), metadata={op_name="jit(_threefry_split)/jit(main)/shift_left" source_file="/fs04/fc37/adam/projects/psilocybin-prl-analyses/src/prl_hgf/fitting/hierarchical.py" source_line=1011}
  shift-right-logical.98 = u32[2]{0} shift-right-logical(add.95, broadcast.29), metadata={op_name="jit(_threefry_split)/jit(main)/shift_right_logical" source_file="/fs04/fc37/adam/projects/psilocybin-prl-analyses/src/prl_hgf/fitting/hierarchical.py" source_line=1011}
  or.99 = u32[2]{0} or(shift-left.97, shift-right-logical.98), metadata={op_name="jit(_threefry_split)/jit(main)/or" source_file="/fs04/fc37/adam/projects/psilocybin-prl-analyses/src/prl_hgf/fitting/hierarchical.py" source_line=1011}
  xor.100 = u32[2]{0} xor(add.96, or.99), metadata={op_name="jit(_threefry_split)/jit(main)/xor" source_file="/fs04/fc37/adam/projects/psilocybin-prl-analyses/src/prl_hgf/fitting/hierarchical.py" source_line=1011}
  add.101 = u32[2]{0} add(add.96, xor.100), metadata={op_name="jit(_threefry_split)/jit(main)/add" source_file="/fs04/fc37/adam/projects/psilocybin-prl-analyses/src/prl_hgf/fitting/hierarchical.py" source_line=1011}
  shift-left.102 = u32[2]{0} shift-left(xor.100, broadcast.27), metadata={op_name="jit(_threefry_split)/jit(main)/shift_left" source_file="/fs04/fc37/adam/projects/psilocybin-prl-analyses/src/prl_hgf/fitting/hierarchical.py" source_line=1011}
  shift-right-logical.103 = u32[2]{0} shift-right-logical(xor.100, broadcast.25), metadata={op_name="jit(_threefry_split)/jit(main)/shift_right_logical" source_file="/fs04/fc37/adam/projects/psilocybin-prl-analyses/src/prl_hgf/fitting/hierarchical.py" source_line=1011}
  or.104 = u32[2]{0} or(shift-left.102, shift-right-logical.103), metadata={op_name="jit(_threefry_split)/jit(main)/or" source_file="/fs04/fc37/adam/projects/psilocybin-prl-analyses/src/prl_hgf/fitting/hierarchical.py" source_line=1011}
  xor.105 = u32[2]{0} xor(add.101, or.104), metadata={op_name="jit(_threefry_split)/jit(main)/xor" source_file="/fs04/fc37/adam/projects/psilocybin-prl-analyses/src/prl_hgf/fitting/hierarchical.py" source_line=1011}
  add.106 = u32[2]{0} add(add.101, xor.105), metadata={op_name="jit(_threefry_split)/jit(main)/add" source_file="/fs04/fc37/adam/projects/psilocybin-prl-analyses/src/prl_hgf/fitting/hierarchical.py" source_line=1011}
  shift-left.107 = u32[2]{0} shift-left(xor.105, broadcast.23), metadata={op_name="jit(_threefry_split)/jit(main)/shift_left" source_file="/fs04/fc37/adam/projects/psilocybin-prl-analyses/src/prl_hgf/fitting/hierarchical.py" source_line=1011}
  shift-right-logical.108 = u32[2]{0} shift-right-logical(xor.105, broadcast.21), metadata={op_name="jit(_threefry_split)/jit(main)/shift_right_logical" source_file="/fs04/fc37/adam/projects/psilocybin-prl-analyses/src/prl_hgf/fitting/hierarchical.py" source_line=1011}
  or.109 = u32[2]{0} or(shift-left.107, shift-right-logical.108), metadata={op_name="jit(_threefry_split)/jit(main)/or" source_file="/fs04/fc37/adam/projects/psilocybin-prl-analyses/src/prl_hgf/fitting/hierarchical.py" source_line=1011}
  xor.110 = u32[2]{0} xor(add.106, or.109), metadata={op_name="jit(_threefry_split)/jit(main)/xor" source_file="/fs04/fc37/adam/projects/psilocybin-prl-analyses/src/prl_hgf/fitting/hierarchical.py" source_line=1011}
  add.111 = u32[2]{0} add(add.106, xor.110), metadata={op_name="jit(_threefry_split)/jit(main)/add" source_file="/fs04/fc37/adam/projects/psilocybin-prl-analyses/src/prl_hgf/fitting/hierarchical.py" source_line=1011}
  broadcast.116 = u32[2]{0} broadcast(reshape.35), dimensions={}, metadata={op_name="jit(_threefry_split)/jit(main)/add" source_file="/fs04/fc37/adam/projects/psilocybin-prl-analyses/src/prl_hgf/fitting/hierarchical.py" source_line=1011}
  add.117 = u32[2]{0} add(add.111, broadcast.116), metadata={op_name="jit(_threefry_split)/jit(main)/add" source_file="/fs04/fc37/adam/projects/psilocybin-prl-analyses/src/prl_hgf/fitting/hierarchical.py" source_line=1011}
  shift-left.112 = u32[2]{0} shift-left(xor.110, broadcast.21), metadata={op_name="jit(_threefry_split)/jit(main)/shift_left" source_file="/fs04/fc37/adam/projects/psilocybin-prl-analyses/src/prl_hgf/fitting/hierarchical.py" source_line=1011}
  shift-right-logical.113 = u32[2]{0} shift-right-logical(xor.110, broadcast.23), metadata={op_name="jit(_threefry_split)/jit(main)/shift_right_logical" source_file="/fs04/fc37/adam/projects/psilocybin-prl-analyses/src/prl_hgf/fitting/hierarchical.py" source_line=1011}
  or.114 = u32[2]{0} or(shift-left.112, shift-right-logical.113), metadata={op_name="jit(_threefry_split)/jit(main)/or" source_file="/fs04/fc37/adam/projects/psilocybin-prl-analyses/src/prl_hgf/fitting/hierarchical.py" source_line=1011}
  xor.115 = u32[2]{0} xor(add.111, or.114), metadata={op_name="jit(_threefry_split)/jit(main)/xor" source_file="/fs04/fc37/adam/projects/psilocybin-prl-analyses/src/prl_hgf/fitting/hierarchical.py" source_line=1011}
  broadcast.118 = u32[2]{0} broadcast(reshape.37), dimensions={}, metadata={op_name="jit(_threefry_split)/jit(main)/add" source_file="/fs04/fc37/adam/projects/psilocybin-prl-analyses/src/prl_hgf/fitting/hierarchical.py" source_line=1011}
  add.119 = u32[2]{0} add(xor.115, broadcast.118), metadata={op_name="jit(_threefry_split)/jit(main)/add" source_file="/fs04/fc37/adam/projects/psilocybin-prl-analyses/src/prl_hgf/fitting/hierarchical.py" source_line=1011}
  add.120 = u32[2]{0} add(add.119, broadcast.15), metadata={op_name="jit(_threefry_split)/jit(main)/add" source_file="/fs04/fc37/adam/projects/psilocybin-prl-analyses/src/prl_hgf/fitting/hierarchical.py" source_line=1011}
  add.121 = u32[2]{0} add(add.117, add.120), metadata={op_name="jit(_threefry_split)/jit(main)/add" source_file="/fs04/fc37/adam/projects/psilocybin-prl-analyses/src/prl_hgf/fitting/hierarchical.py" source_line=1011}
  shift-left.122 = u32[2]{0} shift-left(add.120, broadcast.25), metadata={op_name="jit(_threefry_split)/jit(main)/shift_left" source_file="/fs04/fc37/adam/projects/psilocybin-prl-analyses/src/prl_hgf/fitting/hierarchical.py" source_line=1011}
  shift-right-logical.123 = u32[2]{0} shift-right-logical(add.120, broadcast.27), metadata={op_name="jit(_threefry_split)/jit(main)/shift_right_logical" source_file="/fs04/fc37/adam/projects/psilocybin-prl-analyses/src/prl_hgf/fitting/hierarchical.py" source_line=1011}
  or.124 = u32[2]{0} or(shift-left.122, shift-right-logical.123), metadata={op_name="jit(_threefry_split)/jit(main)/or" source_file="/fs04/fc37/adam/projects/psilocybin-prl-analyses/src/prl_hgf/fitting/hierarchical.py" source_line=1011}
  xor.125 = u32[2]{0} xor(add.121, or.124), metadata={op_name="jit(_threefry_split)/jit(main)/xor" source_file="/fs04/fc37/adam/projects/psilocybin-prl-analyses/src/prl_hgf/fitting/hierarchical.py" source_line=1011}
  add.126 = u32[2]{0} add(add.121, xor.125), metadata={op_name="jit(_threefry_split)/jit(main)/add" source_file="/fs04/fc37/adam/projects/psilocybin-prl-analyses/src/prl_hgf/fitting/hierarchical.py" source_line=1011}
  shift-left.127 = u32[2]{0} shift-left(xor.125, broadcast.17), metadata={op_name="jit(_threefry_split)/jit(main)/shift_left" source_file="/fs04/fc37/adam/projects/psilocybin-prl-analyses/src/prl_hgf/fitting/hierarchical.py" source_line=1011}
  shift-right-logical.128 = u32[2]{0} shift-right-logical(xor.125, broadcast.15), metadata={op_name="jit(_threefry_split)/jit(main)/shift_right_logical" source_file="/fs04/fc37/adam/projects/psilocybin-prl-analyses/src/prl_hgf/fitting/hierarchical.py" source_line=1011}
  or.129 = u32[2]{0} or(shift-left.127, shift-right-logical.128), metadata={op_name="jit(_threefry_split)/jit(main)/or" source_file="/fs04/fc37/adam/projects/psilocybin-prl-analyses/src/prl_hgf/fitting/hierarchical.py" source_line=1011}
  xor.130 = u32[2]{0} xor(add.126, or.129), metadata={op_name="jit(_threefry_split)/jit(main)/xor" source_file="/fs04/fc37/adam/projects/psilocybin-prl-analyses/src/prl_hgf/fitting/hierarchical.py" source_line=1011}
  add.131 = u32[2]{0} add(add.126, xor.130), metadata={op_name="jit(_threefry_split)/jit(main)/add" source_file="/fs04/fc37/adam/projects/psilocybin-prl-analyses/src/prl_hgf/fitting/hierarchical.py" source_line=1011}
  shift-left.132 = u32[2]{0} shift-left(xor.130, broadcast.13), metadata={op_name="jit(_threefry_split)/jit(main)/shift_left" source_file="/fs04/fc37/adam/projects/psilocybin-prl-analyses/src/prl_hgf/fitting/hierarchical.py" source_line=1011}
  shift-right-logical.133 = u32[2]{0} shift-right-logical(xor.130, broadcast.13), metadata={op_name="jit(_threefry_split)/jit(main)/shift_right_logical" source_file="/fs04/fc37/adam/projects/psilocybin-prl-analyses/src/prl_hgf/fitting/hierarchical.py" source_line=1011}
  or.134 = u32[2]{0} or(shift-left.132, shift-right-logical.133), metadata={op_name="jit(_threefry_split)/jit(main)/or" source_file="/fs04/fc37/adam/projects/psilocybin-prl-analyses/src/prl_hgf/fitting/hierarchical.py" source_line=1011}
  xor.135 = u32[2]{0} xor(add.131, or.134), metadata={op_name="jit(_threefry_split)/jit(main)/xor" source_file="/fs04/fc37/adam/projects/psilocybin-prl-analyses/src/prl_hgf/fitting/hierarchical.py" source_line=1011}
  add.136 = u32[2]{0} add(add.131, xor.135), metadata={op_name="jit(_threefry_split)/jit(main)/add" source_file="/fs04/fc37/adam/projects/psilocybin-prl-analyses/src/prl_hgf/fitting/hierarchical.py" source_line=1011}
  broadcast.141 = u32[2]{0} broadcast(reshape.37), dimensions={}, metadata={op_name="jit(_threefry_split)/jit(main)/add" source_file="/fs04/fc37/adam/projects/psilocybin-prl-analyses/src/prl_hgf/fitting/hierarchical.py" source_line=1011}
  add.142 = u32[2]{0} add(add.136, broadcast.141), metadata={op_name="jit(_threefry_split)/jit(main)/add" source_file="/fs04/fc37/adam/projects/psilocybin-prl-analyses/src/prl_hgf/fitting/hierarchical.py" source_line=1011}
  shift-left.137 = u32[2]{0} shift-left(xor.135, broadcast.11), metadata={op_name="jit(_threefry_split)/jit(main)/shift_left" source_file="/fs04/fc37/adam/projects/psilocybin-prl-analyses/src/prl_hgf/fitting/hierarchical.py" source_line=1011}
  shift-right-logical.138 = u32[2]{0} shift-right-logical(xor.135, broadcast.9), metadata={op_name="jit(_threefry_split)/jit(main)/shift_right_logical" source_file="/fs04/fc37/adam/projects/psilocybin-prl-analyses/src/prl_hgf/fitting/hierarchical.py" source_line=1011}
  or.139 = u32[2]{0} or(shift-left.137, shift-right-logical.138), metadata={op_name="jit(_threefry_split)/jit(main)/or" source_file="/fs04/fc37/adam/projects/psilocybin-prl-analyses/src/prl_hgf/fitting/hierarchical.py" source_line=1011}
  xor.140 = u32[2]{0} xor(add.136, or.139), metadata={op_name="jit(_threefry_split)/jit(main)/xor" source_file="/fs04/fc37/adam/projects/psilocybin-prl-analyses/src/prl_hgf/fitting/hierarchical.py" source_line=1011}
  broadcast.143 = u32[2]{0} broadcast(xor.41), dimensions={}, metadata={op_name="jit(_threefry_split)/jit(main)/add" source_file="/fs04/fc37/adam/projects/psilocybin-prl-analyses/src/prl_hgf/fitting/hierarchical.py" source_line=1011}
  add.144 = u32[2]{0} add(xor.140, broadcast.143), metadata={op_name="jit(_threefry_split)/jit(main)/add" source_file="/fs04/fc37/adam/projects/psilocybin-prl-analyses/src/prl_hgf/fitting/hierarchical.py" source_line=1011}
  constant.4 = u32[] constant(4)
  broadcast.5 = u32[2]{0} broadcast(constant.4), dimensions={}
  add.145 = u32[2]{0} add(add.144, broadcast.5), metadata={op_name="jit(_threefry_split)/jit(main)/add" source_file="/fs04/fc37/adam/projects/psilocybin-prl-analyses/src/prl_hgf/fitting/hierarchical.py" source_line=1011}
  add.146 = u32[2]{0} add(add.142, add.145), metadata={op_name="jit(_threefry_split)/jit(main)/add" source_file="/fs04/fc37/adam/projects/psilocybin-prl-analyses/src/prl_hgf/fitting/hierarchical.py" source_line=1011}
  shift-left.147 = u32[2]{0} shift-left(add.145, broadcast.31), metadata={op_name="jit(_threefry_split)/jit(main)/shift_left" source_file="/fs04/fc37/adam/projects/psilocybin-prl-analyses/src/prl_hgf/fitting/hierarchical.py" source_line=1011}
  shift-right-logical.148 = u32[2]{0} shift-right-logical(add.145, broadcast.29), metadata={op_name="jit(_threefry_split)/jit(main)/shift_right_logical" source_file="/fs04/fc37/adam/projects/psilocybin-prl-analyses/src/prl_hgf/fitting/hierarchical.py" source_line=1011}
  or.149 = u32[2]{0} or(shift-left.147, shift-right-logical.148), metadata={op_name="jit(_threefry_split)/jit(main)/or" source_file="/fs04/fc37/adam/projects/psilocybin-prl-analyses/src/prl_hgf/fitting/hierarchical.py" source_line=1011}
  xor.150 = u32[2]{0} xor(add.146, or.149), metadata={op_name="jit(_threefry_split)/jit(main)/xor" source_file="/fs04/fc37/adam/projects/psilocybin-prl-analyses/src/prl_hgf/fitting/hierarchical.py" source_line=1011}
  add.151 = u32[2]{0} add(add.146, xor.150), metadata={op_name="jit(_threefry_split)/jit(main)/add" source_file="/fs04/fc37/adam/projects/psilocybin-prl-analyses/src/prl_hgf/fitting/hierarchical.py" source_line=1011}
  shift-left.152 = u32[2]{0} shift-left(xor.150, broadcast.27), metadata={op_name="jit(_threefry_split)/jit(main)/shift_left" source_file="/fs04/fc37/adam/projects/psilocybin-prl-analyses/src/prl_hgf/fitting/hierarchical.py" source_line=1011}
  shift-right-logical.153 = u32[2]{0} shift-right-logical(xor.150, broadcast.25), metadata={op_name="jit(_threefry_split)/jit(main)/shift_right_logical" source_file="/fs04/fc37/adam/projects/psilocybin-prl-analyses/src/prl_hgf/fitting/hierarchical.py" source_line=1011}
  or.154 = u32[2]{0} or(shift-left.152, shift-right-logical.153), metadata={op_name="jit(_threefry_split)/jit(main)/or" source_file="/fs04/fc37/adam/projects/psilocybin-prl-analyses/src/prl_hgf/fitting/hierarchical.py" source_line=1011}
  xor.155 = u32[2]{0} xor(add.151, or.154), metadata={op_name="jit(_threefry_split)/jit(main)/xor" source_file="/fs04/fc37/adam/projects/psilocybin-prl-analyses/src/prl_hgf/fitting/hierarchical.py" source_line=1011}
  add.156 = u32[2]{0} add(add.151, xor.155), metadata={op_name="jit(_threefry_split)/jit(main)/add" source_file="/fs04/fc37/adam/projects/psilocybin-prl-analyses/src/prl_hgf/fitting/hierarchical.py" source_line=1011}
  shift-left.157 = u32[2]{0} shift-left(xor.155, broadcast.23), metadata={op_name="jit(_threefry_split)/jit(main)/shift_left" source_file="/fs04/fc37/adam/projects/psilocybin-prl-analyses/src/prl_hgf/fitting/hierarchical.py" source_line=1011}
  shift-right-logical.158 = u32[2]{0} shift-right-logical(xor.155, broadcast.21), metadata={op_name="jit(_threefry_split)/jit(main)/shift_right_logical" source_file="/fs04/fc37/adam/projects/psilocybin-prl-analyses/src/prl_hgf/fitting/hierarchical.py" source_line=1011}
  or.159 = u32[2]{0} or(shift-left.157, shift-right-logical.158), metadata={op_name="jit(_threefry_split)/jit(main)/or" source_file="/fs04/fc37/adam/projects/psilocybin-prl-analyses/src/prl_hgf/fitting/hierarchical.py" source_line=1011}
  xor.160 = u32[2]{0} xor(add.156, or.159), metadata={op_name="jit(_threefry_split)/jit(main)/xor" source_file="/fs04/fc37/adam/projects/psilocybin-prl-analyses/src/prl_hgf/fitting/hierarchical.py" source_line=1011}
  add.161 = u32[2]{0} add(add.156, xor.160), metadata={op_name="jit(_threefry_split)/jit(main)/add" source_file="/fs04/fc37/adam/projects/psilocybin-prl-analyses/src/prl_hgf/fitting/hierarchical.py" source_line=1011}
  broadcast.166 = u32[2]{0} broadcast(xor.41), dimensions={}, metadata={op_name="jit(_threefry_split)/jit(main)/add" source_file="/fs04/fc37/adam/projects/psilocybin-prl-analyses/src/prl_hgf/fitting/hierarchical.py" source_line=1011}
  add.167 = u32[2]{0} add(add.161, broadcast.166), metadata={op_name="jit(_threefry_split)/jit(main)/add" source_file="/fs04/fc37/adam/projects/psilocybin-prl-analyses/src/prl_hgf/fitting/hierarchical.py" source_line=1011}
  shift-left.162 = u32[2]{0} shift-left(xor.160, broadcast.21), metadata={op_name="jit(_threefry_split)/jit(main)/shift_left" source_file="/fs04/fc37/adam/projects/psilocybin-prl-analyses/src/prl_hgf/fitting/hierarchical.py" source_line=1011}
  shift-right-logical.163 = u32[2]{0} shift-right-logical(xor.160, broadcast.23), metadata={op_name="jit(_threefry_split)/jit(main)/shift_right_logical" source_file="/fs04/fc37/adam/projects/psilocybin-prl-analyses/src/prl_hgf/fitting/hierarchical.py" source_line=1011}
  or.164 = u32[2]{0} or(shift-left.162, shift-right-logical.163), metadata={op_name="jit(_threefry_split)/jit(main)/or" source_file="/fs04/fc37/adam/projects/psilocybin-prl-analyses/src/prl_hgf/fitting/hierarchical.py" source_line=1011}
  xor.165 = u32[2]{0} xor(add.161, or.164), metadata={op_name="jit(_threefry_split)/jit(main)/xor" source_file="/fs04/fc37/adam/projects/psilocybin-prl-analyses/src/prl_hgf/fitting/hierarchical.py" source_line=1011}
  broadcast.168 = u32[2]{0} broadcast(reshape.35), dimensions={}, metadata={op_name="jit(_threefry_split)/jit(main)/add" source_file="/fs04/fc37/adam/projects/psilocybin-prl-analyses/src/prl_hgf/fitting/hierarchical.py" source_line=1011}
  add.169 = u32[2]{0} add(xor.165, broadcast.168), metadata={op_name="jit(_threefry_split)/jit(main)/add" source_file="/fs04/fc37/adam/projects/psilocybin-prl-analyses/src/prl_hgf/fitting/hierarchical.py" source_line=1011}
  constant.2 = u32[] constant(5)
  broadcast.3 = u32[2]{0} broadcast(constant.2), dimensions={}
  add.170 = u32[2]{0} add(add.169, broadcast.3), metadata={op_name="jit(_threefry_split)/jit(main)/add" source_file="/fs04/fc37/adam/projects/psilocybin-prl-analyses/src/prl_hgf/fitting/hierarchical.py" source_line=1011}
  concatenate.171 = u32[4]{0} concatenate(add.167, add.170), dimensions={0}, metadata={op_name="jit(_threefry_split)/jit(main)/concatenate[dimension=0]" source_file="/fs04/fc37/adam/projects/psilocybin-prl-analyses/src/prl_hgf/fitting/hierarchical.py" source_line=1011}
  ROOT reshape.172 = u32[2,2]{1,0} reshape(concatenate.171), metadata={op_name="jit(_threefry_split)/jit(main)/reshape[new_sizes=(2, 2) dimensions=None]" source_file="/fs04/fc37/adam/projects/psilocybin-prl-analyses/src/prl_hgf/fitting/hierarchical.py" source_line=1011}
} // main.173

