HloModule jit_scan, is_scheduled=true, entry_computation_layout={(f64[48]{0}, f64[48]{0}, f64[48]{0}, f64[48]{0}, f64[48]{0}, /*index=5*/f64[48]{0}, f64[48]{0}, s32[48]{0}, f64[48]{0}, f64[48]{0}, /*index=10*/f64[48,1]{1,0}, f64[48]{0}, f64[48]{0}, f64[48]{0}, f64[48]{0}, /*index=15*/s64[48]{0}, f64[48]{0}, f64[48]{0}, f64[48]{0}, f64[48]{0}, /*index=20*/f64[48]{0}, f64[48]{0}, f64[48]{0}, f64[48,1]{1,0}, f64[48,1]{1,0}, /*index=25*/f64[48]{0}, f64[48]{0}, f64[48]{0}, f64[48]{0}, s64[48]{0}, /*index=30*/f64[48]{0}, f64[48]{0}, f64[48]{0}, f64[48]{0}, f64[48]{0}, /*index=35*/f64[48]{0}, f64[48]{0}, f64[48,1]{1,0}, f64[192,48,1]{2,1,0}, s32[192]{0}, /*index=40*/f64[192]{0})->(f64[48]{0}, f64[48]{0}, f64[48]{0}, f64[48]{0}, s32[48]{0}, /*index=5*/f64[48]{0}, f64[48]{0}, f64[48,1]{1,0}, f64[48]{0}, f64[48]{0}, /*index=10*/f64[48]{0}, f64[48]{0}, s64[48]{0}, f64[48]{0}, f64[48]{0}, /*index=15*/f64[48]{0}, f64[48]{0}, f64[48]{0}, f64[48]{0}, f64[48]{0}, /*index=20*/f64[48,1]{1,0}, f64[48,1]{1,0}, f64[48]{0}, f64[48]{0}, f64[48]{0}, /*index=25*/f64[48]{0}, s64[48]{0}, f64[48]{0}, f64[48]{0}, f64[48]{0}, /*index=30*/f64[48]{0}, f64[48]{0}, f64[48]{0}, f64[48]{0}, f64[48,1]{1,0}, /*index=35*/f64[192,48]{1,0}, f64[192,48]{1,0}, f64[192,48]{1,0}, f64[192,48]{1,0}, pred[192,48]{1,0}, /*index=40*/f64[192,48]{1,0}, f64[192,48]{1,0}, f64[192,48]{1,0}, f64[192,48]{1,0}, f64[192,48]{1,0}, /*index=45*/f64[192,48]{1,0}, f64[192,48]{1,0}, f64[192,48]{1,0}, pred[192,48]{1,0}, f64[192,48]{1,0}, /*index=50*/f64[192,48]{1,0}, f64[192,48]{1,0}, f64[192,48]{1,0}, f64[192,48]{1,0}, f64[192,48]{1,0}, /*index=55*/f64[192,48]{1,0}, f64[192]{0}, f64[192,48]{1,0}, f64[192,48]{1,0}, f64[192,48]{1,0}, /*index=60*/s32[192]{0}, f64[192,48]{1,0}, f64[192]{0}, f64[192,48]{1,0}, f64[192,48]{1,0}, /*index=65*/f64[192,48]{1,0}, pred[192,48]{1,0}, f64[192,48]{1,0}, f64[192,48]{1,0}, f64[192,48]{1,0}, /*index=70*/f64[192,48]{1,0}, f64[192,48]{1,0}, f64[192,48]{1,0}, f64[192]{0}, f64[192,48]{1,0}, /*index=75*/f64[192,48]{1,0}, f64[192,48]{1,0}, f64[192,48]{1,0}, f64[192,48]{1,0}, f64[192,48]{1,0}, /*index=80*/f64[192,48]{1,0}, f64[192,48]{1,0}, f64[192,48]{1,0}, f64[192,48]{1,0}, f64[192,48]{1,0}, /*index=85*/s32[192,48]{1,0}, pred[192,48]{1,0}, pred[192,48,1]{2,1,0}, f64[192,48]{1,0}, f64[192,48]{1,0}, /*index=90*/f64[192,48]{1,0}, f64[192,48]{1,0}, pred[192,48]{1,0}, pred[192,48,1]{2,1,0}, f64[192,48]{1,0}, /*index=95*/f64[192,48]{1,0}, f64[192,48]{1,0}, f64[192,48]{1,0}, f64[192,48]{1,0}, f64[192,48]{1,0}, /*index=100*/f64[192,48]{1,0}, f64[192,48]{1,0}, f64[192,48]{1,0}, f64[192,48]{1,0}, pred[192,48]{1,0}, /*index=105*/pred[192,48]{1,0}, pred[192,48,1]{2,1,0})}, allow_spmd_sharding_propagation_to_parameters={true,true,true,true,true,true,true,true,true,true,true,true,true,true,true,true,true,true,true,true,true,true,true,true,true,true,true,true,true,true,true,true,true,true,true,true,true,true,true,true,true}, allow_spmd_sharding_propagation_to_output={true,true,true,true,true,true,true,true,true,true,true,true,true,true,true,true,true,true,true,true,true,true,true,true,true,true,true,true,true,true,true,true,true,true,true,true,true,true,true,true,true,true,true,true,true,true,true,true,true,true,true,true,true,true,true,true,true,true,true,true,true,true,true,true,true,true,true,true,true,true,true,true,true,true,true,true,true,true,true,true,true,true,true,true,true,true,true,true,true,true,true,true,true,true,true,true,true,true,true,true,true,true,true,true,true,true,true}, frontend_attributes={fingerprint_before_lhs="65812f96ffea46f207d8137aea0f0095"}

fused_divide_exponential {
  constant_17_2 = f64[] constant(1)
  broadcast.445.1 = f64[48]{0} broadcast(constant_17_2), dimensions={}
  param_1.750 = f64[48]{0} parameter(1)
  divide.385.7 = f64[48]{0} divide(broadcast.445.1, param_1.750), metadata={op_name="jit(scan)/jit(main)/while/body/jit(beliefs_propagation)/jit(continuous_node_posterior_update)/jit(posterior_update_precision_continuous_node)/cond/branch_0_fun/jit(precision_update_missing_values)/div" source_file="/fs04/fc37/adam/projects/psilocybin-prl-analyses/src/prl_hgf/fitting/hierarchical_patrl.py" source_line=362}
  param_0.492 = f64[] parameter(0)
  broadcast.446.7 = f64[48]{0} broadcast(param_0.492), dimensions={}, metadata={op_name="jit(scan)/jit(main)/while/body/jit(beliefs_propagation)/jit(continuous_node_posterior_update)/jit(posterior_update_precision_continuous_node)/cond/branch_0_fun/jit(precision_update_missing_values)/mul" source_file="/fs04/fc37/adam/projects/psilocybin-prl-analyses/src/prl_hgf/fitting/hierarchical_patrl.py" source_line=362}
  param_2.652 = f64[48]{0} parameter(2)
  param_4.536 = f64[48,1]{1,0} parameter(4)
  bitcast.1630.5.clone.1 = f64[48]{0} bitcast(param_4.536)
  param_3.618 = f64[48]{0} parameter(3)
  multiply.841.5.clone.1 = f64[48]{0} multiply(bitcast.1630.5.clone.1, param_3.618), metadata={op_name="jit(scan)/jit(main)/while/body/jit(beliefs_propagation)/jit(continuous_node_posterior_update)/jit(posterior_update_precision_continuous_node)/cond/branch_0_fun/jit(precision_update_missing_values)/mul" source_file="/fs04/fc37/adam/projects/psilocybin-prl-analyses/src/prl_hgf/fitting/hierarchical_patrl.py" source_line=362}
  add.335.3.clone.1 = f64[48]{0} add(param_2.652, multiply.841.5.clone.1), metadata={op_name="jit(scan)/jit(main)/while/body/jit(beliefs_propagation)/jit(continuous_node_posterior_update)/jit(posterior_update_precision_continuous_node)/cond/branch_0_fun/jit(precision_update_missing_values)/add" source_file="/fs04/fc37/adam/projects/psilocybin-prl-analyses/src/prl_hgf/fitting/hierarchical_patrl.py" source_line=362}
  exponential.58.1.clone.1 = f64[48]{0} exponential(add.335.3.clone.1), metadata={op_name="jit(scan)/jit(main)/while/body/jit(beliefs_propagation)/jit(continuous_node_posterior_update)/jit(posterior_update_precision_continuous_node)/cond/branch_0_fun/jit(precision_update_missing_values)/exp" source_file="/fs04/fc37/adam/projects/psilocybin-prl-analyses/src/prl_hgf/fitting/hierarchical_patrl.py" source_line=362}
  multiply.842.7 = f64[48]{0} multiply(broadcast.446.7, exponential.58.1.clone.1), metadata={op_name="jit(scan)/jit(main)/while/body/jit(beliefs_propagation)/jit(continuous_node_posterior_update)/jit(posterior_update_precision_continuous_node)/cond/branch_0_fun/jit(precision_update_missing_values)/mul" source_file="/fs04/fc37/adam/projects/psilocybin-prl-analyses/src/prl_hgf/fitting/hierarchical_patrl.py" source_line=362}
  add.336.5 = f64[48]{0} add(divide.385.7, multiply.842.7), metadata={op_name="jit(scan)/jit(main)/while/body/jit(beliefs_propagation)/jit(continuous_node_posterior_update)/jit(posterior_update_precision_continuous_node)/cond/branch_0_fun/jit(precision_update_missing_values)/add" source_file="/fs04/fc37/adam/projects/psilocybin-prl-analyses/src/prl_hgf/fitting/hierarchical_patrl.py" source_line=362}
  divide.387.1 = f64[48]{0} divide(broadcast.445.1, add.336.5), metadata={op_name="jit(scan)/jit(main)/while/body/jit(beliefs_propagation)/jit(continuous_node_posterior_update)/jit(posterior_update_precision_continuous_node)/cond/branch_0_fun/jit(precision_update_missing_values)/div" source_file="/fs04/fc37/adam/projects/psilocybin-prl-analyses/src/prl_hgf/fitting/hierarchical_patrl.py" source_line=362}
  multiply.843.1.clone.1 = f64[48]{0} multiply(param_1.750, param_1.750), metadata={op_name="jit(scan)/jit(main)/while/body/jit(beliefs_propagation)/jit(continuous_node_posterior_update)/jit(posterior_update_precision_continuous_node)/cond/branch_0_fun/jit(precision_update_missing_values)/mul" source_file="/fs04/fc37/adam/projects/psilocybin-prl-analyses/src/prl_hgf/fitting/hierarchical_patrl.py" source_line=362}
  divide.388.1.clone.1 = f64[48]{0} divide(broadcast.445.1, multiply.843.1.clone.1), metadata={op_name="jit(scan)/jit(main)/while/body/jit(beliefs_propagation)/jit(continuous_node_posterior_update)/jit(posterior_update_precision_continuous_node)/cond/branch_0_fun/jit(precision_update_missing_values)/div" source_file="/fs04/fc37/adam/projects/psilocybin-prl-analyses/src/prl_hgf/fitting/hierarchical_patrl.py" source_line=362}
  multiply.844.1.clone.1 = f64[48]{0} multiply(add.336.5, add.336.5), metadata={op_name="jit(scan)/jit(main)/while/body/jit(beliefs_propagation)/jit(continuous_node_posterior_update)/jit(posterior_update_precision_continuous_node)/cond/branch_0_fun/jit(precision_update_missing_values)/mul" source_file="/fs04/fc37/adam/projects/psilocybin-prl-analyses/src/prl_hgf/fitting/hierarchical_patrl.py" source_line=362}
  divide.389.1.clone.1 = f64[48]{0} divide(broadcast.445.1, multiply.844.1.clone.1), metadata={op_name="jit(scan)/jit(main)/while/body/jit(beliefs_propagation)/jit(continuous_node_posterior_update)/jit(posterior_update_precision_continuous_node)/cond/branch_0_fun/jit(precision_update_missing_values)/div" source_file="/fs04/fc37/adam/projects/psilocybin-prl-analyses/src/prl_hgf/fitting/hierarchical_patrl.py" source_line=362}
  ROOT tuple.141 = (f64[48]{0}, f64[48]{0}, f64[48]{0}, f64[48]{0}) tuple(divide.387.1, divide.388.1.clone.1, divide.389.1.clone.1, exponential.58.1.clone.1)
} // fused_divide_exponential

fused_broadcast {
  constant_288_1 = pred[] constant(false)
  ROOT broadcast.447.1 = pred[48]{0} broadcast(constant_288_1), dimensions={}
}

wrapped_copy_computation.4 {
  param_0.600 = f64[48]{0} parameter(0)
  ROOT copy.570 = f64[48]{0} copy(param_0.600)
}

region_2.281 {
  arg_tuple.282.0 = (f64[], f64[48]{0}, f64[48]{0}, f64[48,1]{1,0}, f64[48]{0}) parameter(0)
  get-tuple-element.5167 = f64[] get-tuple-element(arg_tuple.282.0), index=0
  get-tuple-element.286.0 = f64[48,1]{1,0} get-tuple-element(arg_tuple.282.0), index=3
  bitcast.1630.0 = f64[48]{0} bitcast(get-tuple-element.286.0)
  get-tuple-element.287.0 = f64[48]{0} get-tuple-element(arg_tuple.282.0), index=4
  get-tuple-element.285.0 = f64[48]{0} get-tuple-element(arg_tuple.282.0), index=2
  get-tuple-element.284.0 = f64[48]{0} get-tuple-element(arg_tuple.282.0), index=1
  loop_broadcast_fusion = pred[48]{0} fusion(), kind=kLoop, calls=fused_broadcast
  wrapped_copy.4 = f64[48]{0} fusion(bitcast.1630.0), kind=kLoop, calls=wrapped_copy_computation.4
  loop_divide_exponential_fusion = (f64[48]{0}, f64[48]{0}, f64[48]{0}, f64[48]{0}) fusion(get-tuple-element.5167, get-tuple-element.284.0, get-tuple-element.285.0, get-tuple-element.287.0, get-tuple-element.286.0), kind=kLoop, calls=fused_divide_exponential, metadata={op_name="jit(scan)/jit(main)/while/body/jit(beliefs_propagation)/jit(continuous_node_posterior_update)/jit(posterior_update_precision_continuous_node)/cond/branch_0_fun/jit(precision_update_missing_values)/div" source_file="/fs04/fc37/adam/projects/psilocybin-prl-analyses/src/prl_hgf/fitting/hierarchical_patrl.py" source_line=362}
  get-tuple-element.5169 = f64[48]{0} get-tuple-element(loop_divide_exponential_fusion), index=3, metadata={op_name="jit(scan)/jit(main)/while/body/jit(beliefs_propagation)/jit(continuous_node_posterior_update)/jit(posterior_update_precision_continuous_node)/cond/branch_0_fun/jit(precision_update_missing_values)/div" source_file="/fs04/fc37/adam/projects/psilocybin-prl-analyses/src/prl_hgf/fitting/hierarchical_patrl.py" source_line=362}
  get-tuple-element.5170 = f64[48]{0} get-tuple-element(loop_divide_exponential_fusion), index=2, metadata={op_name="jit(scan)/jit(main)/while/body/jit(beliefs_propagation)/jit(continuous_node_posterior_update)/jit(posterior_update_precision_continuous_node)/cond/branch_0_fun/jit(precision_update_missing_values)/div" source_file="/fs04/fc37/adam/projects/psilocybin-prl-analyses/src/prl_hgf/fitting/hierarchical_patrl.py" source_line=362}
  get-tuple-element.5166 = f64[48]{0} get-tuple-element(loop_divide_exponential_fusion), index=1, metadata={op_name="jit(scan)/jit(main)/while/body/jit(beliefs_propagation)/jit(continuous_node_posterior_update)/jit(posterior_update_precision_continuous_node)/cond/branch_0_fun/jit(precision_update_missing_values)/div" source_file="/fs04/fc37/adam/projects/psilocybin-prl-analyses/src/prl_hgf/fitting/hierarchical_patrl.py" source_line=362}
  get-tuple-element.5165 = f64[48]{0} get-tuple-element(loop_divide_exponential_fusion), index=0, metadata={op_name="jit(scan)/jit(main)/while/body/jit(beliefs_propagation)/jit(continuous_node_posterior_update)/jit(posterior_update_precision_continuous_node)/cond/branch_0_fun/jit(precision_update_missing_values)/div" source_file="/fs04/fc37/adam/projects/psilocybin-prl-analyses/src/prl_hgf/fitting/hierarchical_patrl.py" source_line=362}
  ROOT tuple.178 = (f64[48]{0}, f64[48]{0}, f64[], f64[48]{0}, f64[48]{0}, /*index=5*/f64[48]{0}, pred[48]{0}) tuple(get-tuple-element.5165, get-tuple-element.5166, get-tuple-element.5167, wrapped_copy.4, get-tuple-element.5169, /*index=5*/get-tuple-element.5170, loop_broadcast_fusion)
} // region_2.281

wrapped_convert_computation {
  param_0.601 = s32[] parameter(0)
  ROOT convert.83.1 = f64[] convert(param_0.601), metadata={op_name="jit(scan)/jit(main)/while/body/jit(beliefs_propagation)/jit(continuous_node_posterior_update)/jit(posterior_update_precision_continuous_node)/cond/branch_1_fun/jit(precision_update)/convert_element_type[new_dtype=float64 weak_type=False sharding=None]" source_file="/fs04/fc37/adam/projects/psilocybin-prl-analyses/src/prl_hgf/fitting/hierarchical_patrl.py" source_line=362}
}

fused_broadcast.1 {
  constant_335_1 = f64[] constant(0)
  ROOT broadcast.451.1 = f64[48]{0} broadcast(constant_335_1), dimensions={}
}

wrapped_copy_computation.5 {
  param_0.602 = f64[48]{0} parameter(0)
  ROOT copy.571 = f64[48]{0} copy(param_0.602)
}

wrapped_copy_computation.6 {
  param_0.603 = f64[48]{0} parameter(0)
  ROOT copy.572 = f64[48]{0} copy(param_0.603)
}

fused_compare_multiply_select {
  param_0.493 = f64[48]{0} parameter(0)
  param_3.619 = f64[48,1]{1,0} parameter(3)
  multiply.845.5.clone.1 = f64[48,1]{1,0} multiply(param_3.619, param_3.619), metadata={op_name="jit(scan)/jit(main)/while/body/jit(beliefs_propagation)/jit(continuous_node_posterior_update)/jit(posterior_update_precision_continuous_node)/cond/branch_1_fun/jit(precision_update)/integer_pow[y=2]" source_file="/fs04/fc37/adam/projects/psilocybin-prl-analyses/src/prl_hgf/fitting/hierarchical_patrl.py" source_line=362}
  bitcast.1663.7.clone.1 = f64[48]{0} bitcast(multiply.845.5.clone.1)
  param_2.653 = f64[48]{0} parameter(2)
  multiply.846.7.clone.1 = f64[48]{0} multiply(bitcast.1663.7.clone.1, param_2.653), metadata={op_name="jit(scan)/jit(main)/while/body/jit(beliefs_propagation)/jit(continuous_node_posterior_update)/jit(posterior_update_precision_continuous_node)/cond/branch_1_fun/jit(precision_update)/mul" source_file="/fs04/fc37/adam/projects/psilocybin-prl-analyses/src/prl_hgf/fitting/hierarchical_patrl.py" source_line=362}
  param_1.751 = f64[] parameter(1)
  broadcast.448.7.clone.1 = f64[48]{0} broadcast(param_1.751), dimensions={}, metadata={op_name="jit(scan)/jit(main)/while/body/jit(beliefs_propagation)/jit(continuous_node_posterior_update)/jit(posterior_update_precision_continuous_node)/cond/branch_1_fun/jit(precision_update)/mul" source_file="/fs04/fc37/adam/projects/psilocybin-prl-analyses/src/prl_hgf/fitting/hierarchical_patrl.py" source_line=362}
  multiply.847.7.clone.1 = f64[48]{0} multiply(multiply.846.7.clone.1, broadcast.448.7.clone.1), metadata={op_name="jit(scan)/jit(main)/while/body/jit(beliefs_propagation)/jit(continuous_node_posterior_update)/jit(posterior_update_precision_continuous_node)/cond/branch_1_fun/jit(precision_update)/mul" source_file="/fs04/fc37/adam/projects/psilocybin-prl-analyses/src/prl_hgf/fitting/hierarchical_patrl.py" source_line=362}
  add.337.5.clone.1 = f64[48]{0} add(param_0.493, multiply.847.7.clone.1), metadata={op_name="jit(scan)/jit(main)/while/body/jit(beliefs_propagation)/jit(continuous_node_posterior_update)/jit(posterior_update_precision_continuous_node)/cond/branch_1_fun/jit(precision_update)/add" source_file="/fs04/fc37/adam/projects/psilocybin-prl-analyses/src/prl_hgf/fitting/hierarchical_patrl.py" source_line=362}
  constant_22_1_clone_1 = f64[] constant(1e-128)
  broadcast.449.1.clone.1 = f64[48]{0} broadcast(constant_22_1_clone_1), dimensions={}
  compare.262.1.clone.1 = pred[48]{0} compare(add.337.5.clone.1, broadcast.449.1.clone.1), direction=GT, metadata={op_name="jit(scan)/jit(main)/while/body/jit(beliefs_propagation)/jit(continuous_node_posterior_update)/jit(posterior_update_precision_continuous_node)/cond/branch_1_fun/jit(precision_update)/gt" source_file="/fs04/fc37/adam/projects/psilocybin-prl-analyses/src/prl_hgf/fitting/hierarchical_patrl.py" source_line=362}
  constant_23_1 = f64[] constant(nan)
  broadcast.450.1 = f64[48]{0} broadcast(constant_23_1), dimensions={}, metadata={op_name="jit(scan)/jit(main)/while/body/jit(beliefs_propagation)/jit(continuous_node_posterior_update)/jit(posterior_update_precision_continuous_node)/cond/branch_1_fun/jit(precision_update)/jit(_where)/broadcast_in_dim[shape=(48,) broadcast_dimensions=()]" source_file="/fs04/fc37/adam/projects/psilocybin-prl-analyses/src/prl_hgf/env/pat_rl_simulator.py" source_line=92}
  select.508.1 = f64[48]{0} select(compare.262.1.clone.1, add.337.5.clone.1, broadcast.450.1), metadata={op_name="jit(scan)/jit(main)/while/body/jit(beliefs_propagation)/jit(continuous_node_posterior_update)/jit(posterior_update_precision_continuous_node)/cond/branch_1_fun/jit(precision_update)/jit(_where)/select_n" source_file="/fs04/fc37/adam/projects/psilocybin-prl-analyses/src/prl_hgf/env/pat_rl_simulator.py" source_line=92}
  ROOT tuple.143 = (f64[48]{0}, pred[48]{0}, f64[48,1]{1,0}) tuple(select.508.1, compare.262.1.clone.1, multiply.845.5.clone.1)
} // fused_compare_multiply_select

command_buffer.8 {
  p.314 = s32[] parameter(0)
  p.315 = (f64[48]{0}, s32[], f64[48]{0}, f64[48,1]{1,0}) parameter(1)
  wrapped_convert = f64[] fusion(p.314), kind=kLoop, calls=wrapped_convert_computation, metadata={op_name="jit(scan)/jit(main)/while/body/jit(beliefs_propagation)/jit(continuous_node_posterior_update)/jit(posterior_update_precision_continuous_node)/cond/branch_1_fun/jit(precision_update)/convert_element_type[new_dtype=float64 weak_type=False sharding=None]" source_file="/fs04/fc37/adam/projects/psilocybin-prl-analyses/src/prl_hgf/fitting/hierarchical_patrl.py" source_line=362}
  get-tuple-element.334.0 = f64[48,1]{1,0} get-tuple-element(p.315), index=3, metadata={op_name="jit(scan)/jit(main)/while/body/jit(beliefs_propagation)/jit(continuous_node_posterior_update)/jit(posterior_update_precision_continuous_node)/cond/branch_1_fun/jit(precision_update)/squeeze[dimensions=(1,)]" source_file="/fs04/fc37/adam/projects/psilocybin-prl-analyses/src/prl_hgf/fitting/hierarchical_patrl.py" source_line=362}
  get-tuple-element.333.0 = f64[48]{0} get-tuple-element(p.315), index=2
  get-tuple-element.331.0 = f64[48]{0} get-tuple-element(p.315), index=0
  loop_broadcast_fusion.1 = f64[48]{0} fusion(), kind=kLoop, calls=fused_broadcast.1
  wrapped_copy.5 = f64[48]{0} fusion(loop_broadcast_fusion.1), kind=kLoop, calls=wrapped_copy_computation.5
  wrapped_copy.6 = f64[48]{0} fusion(loop_broadcast_fusion.1), kind=kLoop, calls=wrapped_copy_computation.6
  loop_compare_multiply_select_fusion = (f64[48]{0}, pred[48]{0}, f64[48,1]{1,0}) fusion(get-tuple-element.333.0, wrapped_convert, get-tuple-element.331.0, get-tuple-element.334.0), kind=kLoop, calls=fused_compare_multiply_select, metadata={op_name="jit(scan)/jit(main)/while/body/jit(beliefs_propagation)/jit(continuous_node_posterior_update)/jit(posterior_update_precision_continuous_node)/cond/branch_1_fun/jit(precision_update)/jit(_where)/select_n" source_file="/fs04/fc37/adam/projects/psilocybin-prl-analyses/src/prl_hgf/env/pat_rl_simulator.py" source_line=92}
  ROOT tuple.204 = (f64[], f64[48]{0}, f64[48]{0}, f64[48]{0}, (f64[48]{0}, pred[48]{0}, f64[48,1]{1,0})) tuple(wrapped_convert, loop_broadcast_fusion.1, wrapped_copy.5, wrapped_copy.6, loop_compare_multiply_select_fusion)
} // command_buffer.8

region_3.329 {
  arg_tuple.330.0 = (f64[48]{0}, s32[], f64[48]{0}, f64[48,1]{1,0}) parameter(0)
  get-tuple-element.332.0 = s32[] get-tuple-element(arg_tuple.330.0), index=1
  call.4 = (f64[], f64[48]{0}, f64[48]{0}, f64[48]{0}, (f64[48]{0}, pred[48]{0}, f64[48,1]{1,0})) call(get-tuple-element.332.0, arg_tuple.330.0), to_apply=command_buffer.8
  get-tuple-element.6086 = f64[] get-tuple-element(call.4), index=0
  get-tuple-element.6087 = f64[48]{0} get-tuple-element(call.4), index=1
  get-tuple-element.6088 = f64[48]{0} get-tuple-element(call.4), index=2
  get-tuple-element.6089 = f64[48]{0} get-tuple-element(call.4), index=3
  get-tuple-element.6090 = (f64[48]{0}, pred[48]{0}, f64[48,1]{1,0}) get-tuple-element(call.4), index=4
  get-tuple-element.5123 = f64[48,1]{1,0} get-tuple-element(get-tuple-element.6090), index=2, metadata={op_name="jit(scan)/jit(main)/while/body/jit(beliefs_propagation)/jit(continuous_node_posterior_update)/jit(posterior_update_precision_continuous_node)/cond/branch_1_fun/jit(precision_update)/jit(_where)/select_n" source_file="/fs04/fc37/adam/projects/psilocybin-prl-analyses/src/prl_hgf/env/pat_rl_simulator.py" source_line=92}
  bitcast.1663.0 = f64[48]{0} bitcast(get-tuple-element.5123)
  get-tuple-element.5178 = pred[48]{0} get-tuple-element(get-tuple-element.6090), index=1, metadata={op_name="jit(scan)/jit(main)/while/body/jit(beliefs_propagation)/jit(continuous_node_posterior_update)/jit(posterior_update_precision_continuous_node)/cond/branch_1_fun/jit(precision_update)/jit(_where)/select_n" source_file="/fs04/fc37/adam/projects/psilocybin-prl-analyses/src/prl_hgf/env/pat_rl_simulator.py" source_line=92}
  get-tuple-element.5172 = f64[48]{0} get-tuple-element(get-tuple-element.6090), index=0, metadata={op_name="jit(scan)/jit(main)/while/body/jit(beliefs_propagation)/jit(continuous_node_posterior_update)/jit(posterior_update_precision_continuous_node)/cond/branch_1_fun/jit(precision_update)/jit(_where)/select_n" source_file="/fs04/fc37/adam/projects/psilocybin-prl-analyses/src/prl_hgf/env/pat_rl_simulator.py" source_line=92}
  ROOT tuple.179 = (f64[48]{0}, f64[48]{0}, f64[], f64[48]{0}, f64[48]{0}, /*index=5*/f64[48]{0}, pred[48]{0}) tuple(get-tuple-element.5172, get-tuple-element.6087, get-tuple-element.6086, bitcast.1663.0, get-tuple-element.6088, /*index=5*/get-tuple-element.6089, get-tuple-element.5178)
} // region_3.329

fused_dynamic_slice {
  param_0.302 = f64[192]{0} parameter(0)
  param_1.423 = s64[] parameter(1)
  constant_357_62 = s64[] constant(0)
  compare.263.7 = pred[] compare(param_1.423, constant_357_62), direction=LT, metadata={op_name="jit(scan)/jit(main)/while/body/lt" source_file="/fs04/fc37/adam/projects/psilocybin-prl-analyses/src/prl_hgf/fitting/hierarchical_patrl.py" source_line=378}
  constant_356_4 = s64[] constant(192)
  add.339.7 = s64[] add(param_1.423, constant_356_4), metadata={op_name="jit(scan)/jit(main)/while/body/add" source_file="/fs04/fc37/adam/projects/psilocybin-prl-analyses/src/prl_hgf/fitting/hierarchical_patrl.py" source_line=378}
  select.509.7 = s64[] select(compare.263.7, add.339.7, param_1.423), metadata={op_name="jit(scan)/jit(main)/while/body/select_n" source_file="/fs04/fc37/adam/projects/psilocybin-prl-analyses/src/prl_hgf/fitting/hierarchical_patrl.py" source_line=378}
  ROOT dynamic-slice.39.25 = f64[1]{0} dynamic-slice(param_0.302, select.509.7), dynamic_slice_sizes={1}, metadata={op_name="jit(scan)/jit(main)/while/body/dynamic_slice[slice_sizes=(1,)]" source_file="/fs04/fc37/adam/projects/psilocybin-prl-analyses/src/prl_hgf/fitting/hierarchical_patrl.py" source_line=378}
} // fused_dynamic_slice

fused_convert_dynamic_slice {
  param_0.304 = s32[192]{0} parameter(0)
  param_1.427 = s64[] parameter(1)
  constant_357_63 = s64[] constant(0)
  compare.263.9 = pred[] compare(param_1.427, constant_357_63), direction=LT, metadata={op_name="jit(scan)/jit(main)/while/body/lt" source_file="/fs04/fc37/adam/projects/psilocybin-prl-analyses/src/prl_hgf/fitting/hierarchical_patrl.py" source_line=378}
  constant_356_5 = s64[] constant(192)
  add.339.9 = s64[] add(param_1.427, constant_356_5), metadata={op_name="jit(scan)/jit(main)/while/body/add" source_file="/fs04/fc37/adam/projects/psilocybin-prl-analyses/src/prl_hgf/fitting/hierarchical_patrl.py" source_line=378}
  select.509.9 = s64[] select(compare.263.9, add.339.9, param_1.427), metadata={op_name="jit(scan)/jit(main)/while/body/select_n" source_file="/fs04/fc37/adam/projects/psilocybin-prl-analyses/src/prl_hgf/fitting/hierarchical_patrl.py" source_line=378}
  dynamic-slice.40.15 = s32[1]{0} dynamic-slice(param_0.304, select.509.9), dynamic_slice_sizes={1}, metadata={op_name="jit(scan)/jit(main)/while/body/dynamic_slice[slice_sizes=(1,)]" source_file="/fs04/fc37/adam/projects/psilocybin-prl-analyses/src/prl_hgf/fitting/hierarchical_patrl.py" source_line=378}
  constant_360_2_clone_1 = s32[1]{0} constant({0})
  compare.264.1.clone.1 = pred[1]{0} compare(dynamic-slice.40.15, constant_360_2_clone_1), direction=NE, metadata={op_name="jit(scan)/jit(main)/while/body/jit(beliefs_propagation)/jit(continuous_node_posterior_update)/jit(posterior_update_precision_continuous_node)/convert_element_type[new_dtype=bool weak_type=False sharding=None]" source_file="/fs04/fc37/adam/projects/psilocybin-prl-analyses/src/prl_hgf/fitting/hierarchical_patrl.py" source_line=362}
  convert.84.2.clone.1 = s32[1]{0} convert(compare.264.1.clone.1), metadata={op_name="jit(scan)/jit(main)/while/body/jit(beliefs_propagation)/jit(continuous_node_posterior_update)/jit(posterior_update_precision_continuous_node)/convert_element_type[new_dtype=int32 weak_type=False sharding=None]" source_file="/fs04/fc37/adam/projects/psilocybin-prl-analyses/src/prl_hgf/fitting/hierarchical_patrl.py" source_line=362}
  ROOT tuple.172 = (s32[1]{0}, s32[1]{0}) tuple(dynamic-slice.40.15, convert.84.2.clone.1)
} // fused_convert_dynamic_slice

wrapped_copy_computation.3 {
  param_0.599 = f64[48]{0} parameter(0)
  ROOT copy.569 = f64[48]{0} copy(param_0.599)
}

fused_dynamic_update_slice.59 {
  param_0.242 = s32[192]{0} parameter(0)
  param_1.735 = s32[192]{0} parameter(1)
  param_2.623 = s64[] parameter(2)
  constant_357_65 = s64[] constant(0)
  compare.263.63 = pred[] compare(param_2.623, constant_357_65), direction=LT, metadata={op_name="jit(scan)/jit(main)/while/body/lt" source_file="/fs04/fc37/adam/projects/psilocybin-prl-analyses/src/prl_hgf/fitting/hierarchical_patrl.py" source_line=378}
  constant_356_32 = s64[] constant(192)
  add.339.63 = s64[] add(param_2.623, constant_356_32), metadata={op_name="jit(scan)/jit(main)/while/body/add" source_file="/fs04/fc37/adam/projects/psilocybin-prl-analyses/src/prl_hgf/fitting/hierarchical_patrl.py" source_line=378}
  select.509.63 = s64[] select(compare.263.63, add.339.63, param_2.623), metadata={op_name="jit(scan)/jit(main)/while/body/select_n" source_file="/fs04/fc37/adam/projects/psilocybin-prl-analyses/src/prl_hgf/fitting/hierarchical_patrl.py" source_line=378}
  dynamic-slice.40.1 = s32[1]{0} dynamic-slice(param_1.735, select.509.63), dynamic_slice_sizes={1}, metadata={op_name="jit(scan)/jit(main)/while/body/dynamic_slice[slice_sizes=(1,)]" source_file="/fs04/fc37/adam/projects/psilocybin-prl-analyses/src/prl_hgf/fitting/hierarchical_patrl.py" source_line=378}
  constant_360_1 = s32[1]{0} constant({0})
  compare.264.2 = pred[1]{0} compare(dynamic-slice.40.1, constant_360_1), direction=NE, metadata={op_name="jit(scan)/jit(main)/while/body/jit(beliefs_propagation)/jit(continuous_node_posterior_update)/jit(posterior_update_precision_continuous_node)/convert_element_type[new_dtype=bool weak_type=False sharding=None]" source_file="/fs04/fc37/adam/projects/psilocybin-prl-analyses/src/prl_hgf/fitting/hierarchical_patrl.py" source_line=362}
  convert.84.1 = s32[1]{0} convert(compare.264.2), metadata={op_name="jit(scan)/jit(main)/while/body/jit(beliefs_propagation)/jit(continuous_node_posterior_update)/jit(posterior_update_precision_continuous_node)/convert_element_type[new_dtype=int32 weak_type=False sharding=None]" source_file="/fs04/fc37/adam/projects/psilocybin-prl-analyses/src/prl_hgf/fitting/hierarchical_patrl.py" source_line=362}
  ROOT dynamic-update-slice.881.1 = s32[192]{0} dynamic-update-slice(param_0.242, convert.84.1, select.509.63), metadata={op_name="jit(scan)/jit(main)/while/body/dynamic_update_slice" source_file="/fs04/fc37/adam/projects/psilocybin-prl-analyses/src/prl_hgf/fitting/hierarchical_patrl.py" source_line=378}
} // fused_dynamic_update_slice.59

fused_dynamic_update_slice.38 {
  param_0.82 = f64[192]{0} parameter(0)
  param_1.472 = s32[192]{0} parameter(1)
  param_2.342 = s64[] parameter(2)
  constant_357_64 = s64[] constant(0)
  compare.263.55 = pred[] compare(param_2.342, constant_357_64), direction=LT, metadata={op_name="jit(scan)/jit(main)/while/body/lt" source_file="/fs04/fc37/adam/projects/psilocybin-prl-analyses/src/prl_hgf/fitting/hierarchical_patrl.py" source_line=378}
  constant_356_28 = s64[] constant(192)
  add.339.55 = s64[] add(param_2.342, constant_356_28), metadata={op_name="jit(scan)/jit(main)/while/body/add" source_file="/fs04/fc37/adam/projects/psilocybin-prl-analyses/src/prl_hgf/fitting/hierarchical_patrl.py" source_line=378}
  select.509.55 = s64[] select(compare.263.55, add.339.55, param_2.342), metadata={op_name="jit(scan)/jit(main)/while/body/select_n" source_file="/fs04/fc37/adam/projects/psilocybin-prl-analyses/src/prl_hgf/fitting/hierarchical_patrl.py" source_line=378}
  dynamic-slice.40.4 = s32[1]{0} dynamic-slice(param_1.472, select.509.55), dynamic_slice_sizes={1}, metadata={op_name="jit(scan)/jit(main)/while/body/dynamic_slice[slice_sizes=(1,)]" source_file="/fs04/fc37/adam/projects/psilocybin-prl-analyses/src/prl_hgf/fitting/hierarchical_patrl.py" source_line=378}
  bitcast.1762.6 = s32[] bitcast(dynamic-slice.40.4)
  convert.85.3 = f64[] convert(bitcast.1762.6), metadata={op_name="jit(scan)/jit(main)/while/body/jit(beliefs_propagation)/jit(binary_state_node_prediction_error)/convert_element_type[new_dtype=float64 weak_type=False sharding=None]" source_file="/fs04/fc37/adam/projects/psilocybin-prl-analyses/src/prl_hgf/fitting/hierarchical_patrl.py" source_line=362}
  bitcast.2344.1 = f64[1]{0} bitcast(convert.85.3)
  ROOT dynamic-update-slice.878.1 = f64[192]{0} dynamic-update-slice(param_0.82, bitcast.2344.1, select.509.55), metadata={op_name="jit(scan)/jit(main)/while/body/dynamic_update_slice" source_file="/fs04/fc37/adam/projects/psilocybin-prl-analyses/src/prl_hgf/fitting/hierarchical_patrl.py" source_line=378}
} // fused_dynamic_update_slice.38

fused_divide_exponential_multiply {
  constant_358_5 = f64[] constant(1)
  broadcast.453.4 = f64[48]{0} broadcast(constant_358_5), dimensions={}
  param_6.295 = f64[48]{0} parameter(6)
  divide.391.1.clone.1 = f64[48]{0} divide(broadcast.453.4, param_6.295), metadata={op_name="jit(scan)/jit(main)/while/body/jit(beliefs_propagation)/jit(continuous_node_prediction)/jit(predict_precision)/div" source_file="/fs04/fc37/adam/projects/psilocybin-prl-analyses/src/prl_hgf/fitting/hierarchical_patrl.py" source_line=362}
  param_1.752 = f64[192]{0} parameter(1)
  param_2.656 = s64[] parameter(2)
  constant_357_74 = s64[] constant(0)
  compare.263.145 = pred[] compare(param_2.656, constant_357_74), direction=LT, metadata={op_name="jit(scan)/jit(main)/while/body/lt" source_file="/fs04/fc37/adam/projects/psilocybin-prl-analyses/src/prl_hgf/fitting/hierarchical_patrl.py" source_line=378}
  constant_356_73 = s64[] constant(192)
  add.339.145 = s64[] add(param_2.656, constant_356_73), metadata={op_name="jit(scan)/jit(main)/while/body/add" source_file="/fs04/fc37/adam/projects/psilocybin-prl-analyses/src/prl_hgf/fitting/hierarchical_patrl.py" source_line=378}
  select.509.145 = s64[] select(compare.263.145, add.339.145, param_2.656), metadata={op_name="jit(scan)/jit(main)/while/body/select_n" source_file="/fs04/fc37/adam/projects/psilocybin-prl-analyses/src/prl_hgf/fitting/hierarchical_patrl.py" source_line=378}
  dynamic-slice.39.22 = f64[1]{0} dynamic-slice(param_1.752, select.509.145), dynamic_slice_sizes={1}, metadata={op_name="jit(scan)/jit(main)/while/body/dynamic_slice[slice_sizes=(1,)]" source_file="/fs04/fc37/adam/projects/psilocybin-prl-analyses/src/prl_hgf/fitting/hierarchical_patrl.py" source_line=378}
  bitcast.1707.34 = f64[] bitcast(dynamic-slice.39.22)
  broadcast.452.31 = f64[48]{0} broadcast(bitcast.1707.34), dimensions={}, metadata={op_name="jit(scan)/jit(main)/while/body/jit(beliefs_propagation)/jit(continuous_node_prediction)/jit(predict_mean)/mul" source_file="/fs04/fc37/adam/projects/psilocybin-prl-analyses/src/prl_hgf/fitting/hierarchical_patrl.py" source_line=362}
  param_3.622 = f64[48]{0} parameter(3)
  param_5.411 = f64[48,1]{1,0} parameter(5)
  bitcast.1776.5.clone.1 = f64[48]{0} bitcast(param_5.411)
  param_4.545 = f64[48]{0} parameter(4)
  multiply.852.5.clone.1 = f64[48]{0} multiply(bitcast.1776.5.clone.1, param_4.545), metadata={op_name="jit(scan)/jit(main)/while/body/jit(beliefs_propagation)/jit(continuous_node_prediction)/jit(predict_precision)/mul" source_file="/fs04/fc37/adam/projects/psilocybin-prl-analyses/src/prl_hgf/fitting/hierarchical_patrl.py" source_line=362}
  add.342.3.clone.1 = f64[48]{0} add(param_3.622, multiply.852.5.clone.1), metadata={op_name="jit(scan)/jit(main)/while/body/jit(beliefs_propagation)/jit(continuous_node_prediction)/jit(predict_precision)/add" source_file="/fs04/fc37/adam/projects/psilocybin-prl-analyses/src/prl_hgf/fitting/hierarchical_patrl.py" source_line=362}
  exponential.60.1.clone.1 = f64[48]{0} exponential(add.342.3.clone.1), metadata={op_name="jit(scan)/jit(main)/while/body/jit(beliefs_propagation)/jit(continuous_node_prediction)/jit(predict_precision)/exp" source_file="/fs04/fc37/adam/projects/psilocybin-prl-analyses/src/prl_hgf/fitting/hierarchical_patrl.py" source_line=362}
  multiply.853.13 = f64[48]{0} multiply(broadcast.452.31, exponential.60.1.clone.1), metadata={op_name="jit(scan)/jit(main)/while/body/jit(beliefs_propagation)/jit(continuous_node_prediction)/jit(predict_precision)/mul" source_file="/fs04/fc37/adam/projects/psilocybin-prl-analyses/src/prl_hgf/fitting/hierarchical_patrl.py" source_line=362}
  constant_359_13 = f64[] constant(1e-128)
  broadcast.454.clone.33 = f64[48]{0} broadcast(constant_359_13), dimensions={}
  compare.265.13 = pred[48]{0} compare(multiply.853.13, broadcast.454.clone.33), direction=GT, metadata={op_name="jit(scan)/jit(main)/while/body/jit(beliefs_propagation)/jit(continuous_node_prediction)/jit(predict_precision)/gt" source_file="/fs04/fc37/adam/projects/psilocybin-prl-analyses/src/prl_hgf/fitting/hierarchical_patrl.py" source_line=362}
  param_0.494 = f64[48]{0} parameter(0)
  select.510.7 = f64[48]{0} select(compare.265.13, multiply.853.13, param_0.494), metadata={op_name="jit(scan)/jit(main)/while/body/jit(beliefs_propagation)/jit(continuous_node_prediction)/jit(predict_precision)/jit(_where)/select_n" source_file="/fs04/fc37/adam/projects/psilocybin-prl-analyses/src/prl_hgf/env/pat_rl_simulator.py" source_line=92}
  add.343.5 = f64[48]{0} add(divide.391.1.clone.1, select.510.7), metadata={op_name="jit(scan)/jit(main)/while/body/jit(beliefs_propagation)/jit(continuous_node_prediction)/jit(predict_precision)/add" source_file="/fs04/fc37/adam/projects/psilocybin-prl-analyses/src/prl_hgf/fitting/hierarchical_patrl.py" source_line=362}
  divide.392.1 = f64[48]{0} divide(broadcast.453.4, add.343.5), metadata={op_name="jit(scan)/jit(main)/while/body/jit(beliefs_propagation)/jit(continuous_node_prediction)/jit(predict_precision)/div" source_file="/fs04/fc37/adam/projects/psilocybin-prl-analyses/src/prl_hgf/fitting/hierarchical_patrl.py" source_line=362}
  param_8.160 = f64[48]{0} parameter(8)
  param_9.115 = f64[48]{0} parameter(9)
  multiply.848.7.clone.1.clone.1 = f64[48]{0} multiply(param_8.160, param_9.115), metadata={op_name="jit(scan)/jit(main)/while/body/jit(beliefs_propagation)/jit(continuous_node_prediction)/jit(predict_mean)/mul" source_file="/fs04/fc37/adam/projects/psilocybin-prl-analyses/src/prl_hgf/fitting/hierarchical_patrl.py" source_line=362}
  param_7.221 = f64[48]{0} parameter(7)
  multiply.849.9.clone.1.clone.1 = f64[48]{0} multiply(broadcast.452.31, param_7.221), metadata={op_name="jit(scan)/jit(main)/while/body/jit(beliefs_propagation)/jit(continuous_node_prediction)/jit(predict_mean)/mul" source_file="/fs04/fc37/adam/projects/psilocybin-prl-analyses/src/prl_hgf/fitting/hierarchical_patrl.py" source_line=362}
  add.340.7.clone.1.clone.1 = f64[48]{0} add(multiply.848.7.clone.1.clone.1, multiply.849.9.clone.1.clone.1), metadata={op_name="jit(scan)/jit(main)/while/body/jit(beliefs_propagation)/jit(continuous_node_prediction)/jit(predict_mean)/add" source_file="/fs04/fc37/adam/projects/psilocybin-prl-analyses/src/prl_hgf/fitting/hierarchical_patrl.py" source_line=362}
  negate.18.5.clone.1.clone.1 = f64[48]{0} negate(add.340.7.clone.1.clone.1), metadata={op_name="jit(scan)/jit(main)/while/body/jit(beliefs_propagation)/jit(binary_state_node_prediction)/neg" source_file="/fs04/fc37/adam/projects/psilocybin-prl-analyses/src/prl_hgf/fitting/hierarchical_patrl.py" source_line=362}
  exponential.59.5.clone.1.clone.1 = f64[48]{0} exponential(negate.18.5.clone.1.clone.1), metadata={op_name="jit(scan)/jit(main)/while/body/jit(beliefs_propagation)/jit(binary_state_node_prediction)/exp" source_file="/fs04/fc37/adam/projects/psilocybin-prl-analyses/src/prl_hgf/fitting/hierarchical_patrl.py" source_line=362}
  add.341.3.clone.1.clone.1 = f64[48]{0} add(exponential.59.5.clone.1.clone.1, broadcast.453.4), metadata={op_name="jit(scan)/jit(main)/while/body/jit(beliefs_propagation)/jit(binary_state_node_prediction)/add" source_file="/fs04/fc37/adam/projects/psilocybin-prl-analyses/src/prl_hgf/fitting/hierarchical_patrl.py" source_line=362}
  divide.390.1.clone.1.clone.1 = f64[48]{0} divide(broadcast.453.4, add.341.3.clone.1.clone.1), metadata={op_name="jit(scan)/jit(main)/while/body/jit(beliefs_propagation)/jit(binary_state_node_prediction)/div" source_file="/fs04/fc37/adam/projects/psilocybin-prl-analyses/src/prl_hgf/fitting/hierarchical_patrl.py" source_line=362}
  subtract.76.5.clone.1 = f64[48]{0} subtract(broadcast.453.4, divide.390.1.clone.1.clone.1), metadata={op_name="jit(scan)/jit(main)/while/body/jit(beliefs_propagation)/jit(binary_state_node_prediction)/sub" source_file="/fs04/fc37/adam/projects/psilocybin-prl-analyses/src/prl_hgf/fitting/hierarchical_patrl.py" source_line=362}
  multiply.850.1.clone.1 = f64[48]{0} multiply(divide.390.1.clone.1.clone.1, subtract.76.5.clone.1), metadata={op_name="jit(scan)/jit(main)/while/body/jit(beliefs_propagation)/jit(binary_state_node_prediction)/mul" source_file="/fs04/fc37/adam/projects/psilocybin-prl-analyses/src/prl_hgf/fitting/hierarchical_patrl.py" source_line=362}
  ROOT tuple.174 = (f64[48]{0}, f64[48]{0}, f64[48]{0}, f64[48]{0}, f64[48]{0}) tuple(divide.392.1, exponential.60.1.clone.1, divide.391.1.clone.1, multiply.850.1.clone.1, divide.390.1.clone.1.clone.1)
} // fused_divide_exponential_multiply

command_buffer.4 {
  p.94 = f64[192]{0} parameter(0)
  p.95 = s64[] parameter(1)
  p.96 = (s64[], f64[48]{0}, f64[48]{0}, f64[48]{0}, f64[48]{0}, /*index=5*/s32[48]{0}, f64[48]{0}, f64[48]{0}, f64[48]{0}, f64[48]{0}, /*index=10*/f64[48]{0}, f64[48]{0}, s64[48]{0}, f64[48]{0}, f64[48]{0}, /*index=15*/f64[48]{0}, f64[48]{0}, f64[48]{0}, f64[48]{0}, f64[48]{0}, /*index=20*/f64[48,1]{1,0}, f64[48,1]{1,0}, f64[48]{0}, f64[48]{0}, f64[48]{0}, /*index=25*/f64[48]{0}, f64[48]{0}, f64[48]{0}, f64[48]{0}, f64[48]{0}, /*index=30*/f64[48]{0}, f64[48,1]{1,0}, f64[192,48]{1,0}, f64[192,48]{1,0}, f64[192,48]{1,0}, /*index=35*/f64[192,48]{1,0}, pred[192,48]{1,0}, f64[192,48]{1,0}, f64[192,48]{1,0}, f64[192,48]{1,0}, /*index=40*/f64[192,48]{1,0}, f64[192,48]{1,0}, f64[192,48]{1,0}, f64[192,48]{1,0}, pred[192,48]{1,0}, /*index=45*/f64[192,48]{1,0}, f64[192,48]{1,0}, f64[192,48]{1,0}, f64[192,48]{1,0}, f64[192,48]{1,0}, /*index=50*/f64[192,48]{1,0}, f64[192]{0}, f64[192,48]{1,0}, f64[192,48]{1,0}, s32[192]{0}, /*index=55*/f64[192,48]{1,0}, f64[192]{0}, f64[192,48]{1,0}, f64[192,48]{1,0}, f64[192,48]{1,0}, /*index=60*/pred[192,48]{1,0}, f64[192,48]{1,0}, f64[192,48]{1,0}, f64[192,48]{1,0}, f64[192,48]{1,0}, /*index=65*/f64[192,48]{1,0}, f64[192,48]{1,0}, f64[192,48]{1,0}, f64[192,48]{1,0}, f64[192,48]{1,0}, /*index=70*/f64[192,48]{1,0}, f64[192,48]{1,0}, f64[192,48]{1,0}, f64[192,48]{1,0}, f64[192,48]{1,0}, /*index=75*/f64[192,48]{1,0}, f64[192,48]{1,0}, s32[192,48]{1,0}, pred[192,48]{1,0}, pred[192,48,1]{2,1,0}, /*index=80*/f64[192,48]{1,0}, f64[192,48]{1,0}, pred[192,48]{1,0}, pred[192,48,1]{2,1,0}, f64[192,48]{1,0}, /*index=85*/f64[192,48]{1,0}, f64[192,48]{1,0}, f64[192,48]{1,0}, f64[192,48]{1,0}, pred[192,48]{1,0}, /*index=90*/pred[192,48]{1,0}, pred[192,48,1]{2,1,0}, f64[192,48,1]{2,1,0}, s32[192]{0}, f64[192]{0}, /*index=95*/f64[48]{0}, f64[48]{0}, f64[48]{0}) parameter(2)
  loop_dynamic_slice_fusion = f64[1]{0} fusion(p.94, p.95), kind=kLoop, calls=fused_dynamic_slice, metadata={op_name="jit(scan)/jit(main)/while/body/dynamic_slice[slice_sizes=(1,)]" source_file="/fs04/fc37/adam/projects/psilocybin-prl-analyses/src/prl_hgf/fitting/hierarchical_patrl.py" source_line=378}
  bitcast.1707.0 = f64[] bitcast(loop_dynamic_slice_fusion)
  get-tuple-element.5471 = f64[48]{0} get-tuple-element(p.96), index=96
  get-tuple-element.5406 = f64[48,1]{1,0} get-tuple-element(p.96), index=31
  get-tuple-element.5387 = s64[48]{0} get-tuple-element(p.96), index=12
  get-tuple-element.5468 = s32[192]{0} get-tuple-element(p.96), index=93
  get-tuple-element.5383 = f64[48]{0} get-tuple-element(p.96), index=8
  get-tuple-element.5395 = f64[48,1]{1,0} get-tuple-element(p.96), index=20
  get-tuple-element.5393 = f64[48]{0} get-tuple-element(p.96), index=18
  get-tuple-element.5290 = f64[48]{0} get-tuple-element(p.96), index=13
  get-tuple-element.5396 = f64[48,1]{1,0} get-tuple-element(p.96), index=21
  get-tuple-element.5467 = f64[192,48,1]{2,1,0} get-tuple-element(p.96), index=92
  get-tuple-element.5470 = f64[48]{0} get-tuple-element(p.96), index=95
  get-tuple-element.5394 = f64[48]{0} get-tuple-element(p.96), index=19
  get-tuple-element.5397 = f64[48]{0} get-tuple-element(p.96), index=22
  get-tuple-element.5302 = f64[48]{0} get-tuple-element(p.96), index=25
  get-tuple-element.5303 = f64[48]{0} get-tuple-element(p.96), index=26
  get-tuple-element.5404 = f64[48]{0} get-tuple-element(p.96), index=29
  get-tuple-element.5405 = f64[48]{0} get-tuple-element(p.96), index=30
  get-tuple-element.5472 = f64[48]{0} get-tuple-element(p.96), index=97
  get-tuple-element.5278 = f64[48]{0} get-tuple-element(p.96), index=1
  get-tuple-element.5279 = f64[48]{0} get-tuple-element(p.96), index=2
  get-tuple-element.5280 = f64[48]{0} get-tuple-element(p.96), index=3
  get-tuple-element.5281 = f64[48]{0} get-tuple-element(p.96), index=4
  get-tuple-element.5282 = s32[48]{0} get-tuple-element(p.96), index=5
  get-tuple-element.5283 = f64[48]{0} get-tuple-element(p.96), index=6
  get-tuple-element.5284 = f64[48]{0} get-tuple-element(p.96), index=7
  get-tuple-element.5286 = f64[48]{0} get-tuple-element(p.96), index=9
  get-tuple-element.5287 = f64[48]{0} get-tuple-element(p.96), index=10
  get-tuple-element.5288 = f64[48]{0} get-tuple-element(p.96), index=11
  get-tuple-element.5291 = f64[48]{0} get-tuple-element(p.96), index=14
  get-tuple-element.5292 = f64[48]{0} get-tuple-element(p.96), index=15
  get-tuple-element.5293 = f64[48]{0} get-tuple-element(p.96), index=16
  get-tuple-element.5294 = f64[48]{0} get-tuple-element(p.96), index=17
  get-tuple-element.5300 = f64[48]{0} get-tuple-element(p.96), index=23
  get-tuple-element.5301 = f64[48]{0} get-tuple-element(p.96), index=24
  get-tuple-element.5304 = f64[48]{0} get-tuple-element(p.96), index=27
  get-tuple-element.5305 = f64[48]{0} get-tuple-element(p.96), index=28
  get-tuple-element.5309 = f64[192,48]{1,0} get-tuple-element(p.96), index=32
  get-tuple-element.5310 = f64[192,48]{1,0} get-tuple-element(p.96), index=33
  get-tuple-element.5311 = f64[192,48]{1,0} get-tuple-element(p.96), index=34
  get-tuple-element.5312 = f64[192,48]{1,0} get-tuple-element(p.96), index=35
  get-tuple-element.5313 = pred[192,48]{1,0} get-tuple-element(p.96), index=36
  get-tuple-element.5314 = f64[192,48]{1,0} get-tuple-element(p.96), index=37
  get-tuple-element.5315 = f64[192,48]{1,0} get-tuple-element(p.96), index=38
  get-tuple-element.5316 = f64[192,48]{1,0} get-tuple-element(p.96), index=39
  get-tuple-element.5317 = f64[192,48]{1,0} get-tuple-element(p.96), index=40
  get-tuple-element.5318 = f64[192,48]{1,0} get-tuple-element(p.96), index=41
  get-tuple-element.5319 = f64[192,48]{1,0} get-tuple-element(p.96), index=42
  get-tuple-element.5320 = f64[192,48]{1,0} get-tuple-element(p.96), index=43
  get-tuple-element.5321 = pred[192,48]{1,0} get-tuple-element(p.96), index=44
  get-tuple-element.5322 = f64[192,48]{1,0} get-tuple-element(p.96), index=45
  get-tuple-element.5323 = f64[192,48]{1,0} get-tuple-element(p.96), index=46
  get-tuple-element.5324 = f64[192,48]{1,0} get-tuple-element(p.96), index=47
  get-tuple-element.5325 = f64[192,48]{1,0} get-tuple-element(p.96), index=48
  get-tuple-element.5326 = f64[192,48]{1,0} get-tuple-element(p.96), index=49
  get-tuple-element.5327 = f64[192,48]{1,0} get-tuple-element(p.96), index=50
  get-tuple-element.5328 = f64[192]{0} get-tuple-element(p.96), index=51
  get-tuple-element.5329 = f64[192,48]{1,0} get-tuple-element(p.96), index=52
  get-tuple-element.5330 = f64[192,48]{1,0} get-tuple-element(p.96), index=53
  get-tuple-element.5331 = s32[192]{0} get-tuple-element(p.96), index=54
  get-tuple-element.5332 = f64[192,48]{1,0} get-tuple-element(p.96), index=55
  get-tuple-element.5333 = f64[192]{0} get-tuple-element(p.96), index=56
  get-tuple-element.5334 = f64[192,48]{1,0} get-tuple-element(p.96), index=57
  get-tuple-element.5335 = f64[192,48]{1,0} get-tuple-element(p.96), index=58
  get-tuple-element.5336 = f64[192,48]{1,0} get-tuple-element(p.96), index=59
  get-tuple-element.5337 = pred[192,48]{1,0} get-tuple-element(p.96), index=60
  get-tuple-element.5338 = f64[192,48]{1,0} get-tuple-element(p.96), index=61
  get-tuple-element.5339 = f64[192,48]{1,0} get-tuple-element(p.96), index=62
  get-tuple-element.5340 = f64[192,48]{1,0} get-tuple-element(p.96), index=63
  get-tuple-element.5341 = f64[192,48]{1,0} get-tuple-element(p.96), index=64
  get-tuple-element.5342 = f64[192,48]{1,0} get-tuple-element(p.96), index=65
  get-tuple-element.5343 = f64[192,48]{1,0} get-tuple-element(p.96), index=66
  get-tuple-element.5344 = f64[192,48]{1,0} get-tuple-element(p.96), index=67
  get-tuple-element.5345 = f64[192,48]{1,0} get-tuple-element(p.96), index=68
  get-tuple-element.5346 = f64[192,48]{1,0} get-tuple-element(p.96), index=69
  get-tuple-element.5347 = f64[192,48]{1,0} get-tuple-element(p.96), index=70
  get-tuple-element.5348 = f64[192,48]{1,0} get-tuple-element(p.96), index=71
  get-tuple-element.5349 = f64[192,48]{1,0} get-tuple-element(p.96), index=72
  get-tuple-element.5350 = f64[192,48]{1,0} get-tuple-element(p.96), index=73
  get-tuple-element.5351 = f64[192,48]{1,0} get-tuple-element(p.96), index=74
  get-tuple-element.5352 = f64[192,48]{1,0} get-tuple-element(p.96), index=75
  get-tuple-element.5353 = f64[192,48]{1,0} get-tuple-element(p.96), index=76
  get-tuple-element.5354 = s32[192,48]{1,0} get-tuple-element(p.96), index=77
  get-tuple-element.5355 = pred[192,48]{1,0} get-tuple-element(p.96), index=78
  get-tuple-element.5356 = pred[192,48,1]{2,1,0} get-tuple-element(p.96), index=79
  get-tuple-element.5357 = f64[192,48]{1,0} get-tuple-element(p.96), index=80
  get-tuple-element.5358 = f64[192,48]{1,0} get-tuple-element(p.96), index=81
  get-tuple-element.5359 = pred[192,48]{1,0} get-tuple-element(p.96), index=82
  get-tuple-element.5360 = pred[192,48,1]{2,1,0} get-tuple-element(p.96), index=83
  get-tuple-element.5361 = f64[192,48]{1,0} get-tuple-element(p.96), index=84
  get-tuple-element.5362 = f64[192,48]{1,0} get-tuple-element(p.96), index=85
  get-tuple-element.5363 = f64[192,48]{1,0} get-tuple-element(p.96), index=86
  get-tuple-element.5364 = f64[192,48]{1,0} get-tuple-element(p.96), index=87
  get-tuple-element.5365 = f64[192,48]{1,0} get-tuple-element(p.96), index=88
  get-tuple-element.5366 = pred[192,48]{1,0} get-tuple-element(p.96), index=89
  get-tuple-element.5367 = pred[192,48]{1,0} get-tuple-element(p.96), index=90
  get-tuple-element.5368 = pred[192,48,1]{2,1,0} get-tuple-element(p.96), index=91
  loop_convert_dynamic_slice_fusion = (s32[1]{0}, s32[1]{0}) fusion(get-tuple-element.5468, p.95), kind=kLoop, calls=fused_convert_dynamic_slice, metadata={op_name="jit(scan)/jit(main)/while/body/dynamic_slice[slice_sizes=(1,)]" source_file="/fs04/fc37/adam/projects/psilocybin-prl-analyses/src/prl_hgf/fitting/hierarchical_patrl.py" source_line=378}
  get-tuple-element.5156 = s32[1]{0} get-tuple-element(loop_convert_dynamic_slice_fusion), index=1, metadata={op_name="jit(scan)/jit(main)/while/body/dynamic_slice[slice_sizes=(1,)]" source_file="/fs04/fc37/adam/projects/psilocybin-prl-analyses/src/prl_hgf/fitting/hierarchical_patrl.py" source_line=378}
  bitcast.1744.0 = s32[] bitcast(get-tuple-element.5156)
  get-tuple-element.5155 = s32[1]{0} get-tuple-element(loop_convert_dynamic_slice_fusion), index=0, metadata={op_name="jit(scan)/jit(main)/while/body/dynamic_slice[slice_sizes=(1,)]" source_file="/fs04/fc37/adam/projects/psilocybin-prl-analyses/src/prl_hgf/fitting/hierarchical_patrl.py" source_line=378}
  bitcast.1762.0 = s32[] bitcast(get-tuple-element.5155)
  tuple.136.0 = (f64[], f64[48]{0}, f64[48]{0}, f64[48,1]{1,0}, f64[48]{0}) tuple(bitcast.1707.0, get-tuple-element.5290, get-tuple-element.5394, get-tuple-element.5396, get-tuple-element.5302), metadata={op_name="jit(scan)/jit(main)/while/body/jit(beliefs_propagation)/jit(continuous_node_posterior_update)/jit(posterior_update_precision_continuous_node)/cond" source_file="/fs04/fc37/adam/projects/psilocybin-prl-analyses/src/prl_hgf/fitting/hierarchical_patrl.py" source_line=362}
  wrapped_copy.3 = f64[48]{0} fusion(get-tuple-element.5288), kind=kLoop, calls=wrapped_copy_computation.3
  loop_dynamic_update_slice_fusion.59 = s32[192]{0} fusion(get-tuple-element.5331, get-tuple-element.5468, p.95), kind=kLoop, calls=fused_dynamic_update_slice.59, metadata={op_name="jit(scan)/jit(main)/while/body/dynamic_update_slice" source_file="/fs04/fc37/adam/projects/psilocybin-prl-analyses/src/prl_hgf/fitting/hierarchical_patrl.py" source_line=378}
  loop_dynamic_update_slice_fusion.38 = f64[192]{0} fusion(get-tuple-element.5328, get-tuple-element.5468, p.95), kind=kLoop, calls=fused_dynamic_update_slice.38, metadata={op_name="jit(scan)/jit(main)/while/body/dynamic_update_slice" source_file="/fs04/fc37/adam/projects/psilocybin-prl-analyses/src/prl_hgf/fitting/hierarchical_patrl.py" source_line=378}
  loop_divide_exponential_multiply_fusion = (f64[48]{0}, f64[48]{0}, f64[48]{0}, f64[48]{0}, f64[48]{0}) fusion(get-tuple-element.5471, p.94, p.95, get-tuple-element.5394, get-tuple-element.5302, /*index=5*/get-tuple-element.5396, get-tuple-element.5290, get-tuple-element.5393, get-tuple-element.5383, wrapped_copy.3), kind=kLoop, calls=fused_divide_exponential_multiply, metadata={op_name="jit(scan)/jit(main)/while/body/jit(beliefs_propagation)/jit(continuous_node_prediction)/jit(predict_precision)/div" source_file="/fs04/fc37/adam/projects/psilocybin-prl-analyses/src/prl_hgf/fitting/hierarchical_patrl.py" source_line=362}
  ROOT tuple.200 = (f64[48]{0}, f64[48,1]{1,0}, s64[48]{0}, s32[192]{0}, f64[48]{0}, /*index=5*/f64[48,1]{1,0}, f64[48]{0}, f64[48]{0}, f64[48,1]{1,0}, f64[192,48,1]{2,1,0}, /*index=10*/f64[48]{0}, f64[48]{0}, f64[48]{0}, f64[48]{0}, f64[48]{0}, /*index=15*/f64[48]{0}, f64[48]{0}, f64[48]{0}, f64[48]{0}, f64[48]{0}, /*index=20*/f64[48]{0}, f64[48]{0}, s32[48]{0}, f64[48]{0}, f64[48]{0}, /*index=25*/f64[48]{0}, f64[48]{0}, f64[48]{0}, f64[48]{0}, f64[48]{0}, /*index=30*/f64[48]{0}, f64[48]{0}, f64[48]{0}, f64[48]{0}, f64[48]{0}, /*index=35*/f64[192,48]{1,0}, f64[192,48]{1,0}, f64[192,48]{1,0}, f64[192,48]{1,0}, pred[192,48]{1,0}, /*index=40*/f64[192,48]{1,0}, f64[192,48]{1,0}, f64[192,48]{1,0}, f64[192,48]{1,0}, f64[192,48]{1,0}, /*index=45*/f64[192,48]{1,0}, f64[192,48]{1,0}, pred[192,48]{1,0}, f64[192,48]{1,0}, f64[192,48]{1,0}, /*index=50*/f64[192,48]{1,0}, f64[192,48]{1,0}, f64[192,48]{1,0}, f64[192,48]{1,0}, f64[192,48]{1,0}, /*index=55*/f64[192,48]{1,0}, f64[192,48]{1,0}, f64[192]{0}, f64[192,48]{1,0}, f64[192,48]{1,0}, /*index=60*/f64[192,48]{1,0}, pred[192,48]{1,0}, f64[192,48]{1,0}, f64[192,48]{1,0}, f64[192,48]{1,0}, /*index=65*/f64[192,48]{1,0}, f64[192,48]{1,0}, f64[192,48]{1,0}, f64[192,48]{1,0}, f64[192,48]{1,0}, /*index=70*/f64[192,48]{1,0}, f64[192,48]{1,0}, f64[192,48]{1,0}, f64[192,48]{1,0}, f64[192,48]{1,0}, /*index=75*/f64[192,48]{1,0}, f64[192,48]{1,0}, f64[192,48]{1,0}, s32[192,48]{1,0}, pred[192,48]{1,0}, /*index=80*/pred[192,48,1]{2,1,0}, f64[192,48]{1,0}, f64[192,48]{1,0}, pred[192,48]{1,0}, pred[192,48,1]{2,1,0}, /*index=85*/f64[192,48]{1,0}, f64[192,48]{1,0}, f64[192,48]{1,0}, f64[192,48]{1,0}, f64[192,48]{1,0}, /*index=90*/pred[192,48]{1,0}, pred[192,48]{1,0}, pred[192,48,1]{2,1,0}, s32[], s32[], /*index=95*/(f64[], f64[48]{0}, f64[48]{0}, f64[48,1]{1,0}, f64[48]{0}), f64[48]{0}, s32[192]{0}, f64[192]{0}, (f64[48]{0}, f64[48]{0}, f64[48]{0}, f64[48]{0}, f64[48]{0})) tuple(get-tuple-element.5471, get-tuple-element.5406, get-tuple-element.5387, get-tuple-element.5468, get-tuple-element.5383, /*index=5*/get-tuple-element.5395, get-tuple-element.5393, get-tuple-element.5290, get-tuple-element.5396, get-tuple-element.5467, /*index=10*/get-tuple-element.5470, get-tuple-element.5394, get-tuple-element.5397, get-tuple-element.5302, get-tuple-element.5303, /*index=15*/get-tuple-element.5404, get-tuple-element.5405, get-tuple-element.5472, get-tuple-element.5278, get-tuple-element.5279, /*index=20*/get-tuple-element.5280, get-tuple-element.5281, get-tuple-element.5282, get-tuple-element.5283, get-tuple-element.5284, /*index=25*/get-tuple-element.5286, get-tuple-element.5287, get-tuple-element.5291, get-tuple-element.5292, get-tuple-element.5293, /*index=30*/get-tuple-element.5294, get-tuple-element.5300, get-tuple-element.5301, get-tuple-element.5304, get-tuple-element.5305, /*index=35*/get-tuple-element.5309, get-tuple-element.5310, get-tuple-element.5311, get-tuple-element.5312, get-tuple-element.5313, /*index=40*/get-tuple-element.5314, get-tuple-element.5315, get-tuple-element.5316, get-tuple-element.5317, get-tuple-element.5318, /*index=45*/get-tuple-element.5319, get-tuple-element.5320, get-tuple-element.5321, get-tuple-element.5322, get-tuple-element.5323, /*index=50*/get-tuple-element.5324, get-tuple-element.5325, get-tuple-element.5326, get-tuple-element.5327, get-tuple-element.5329, /*index=55*/get-tuple-element.5330, get-tuple-element.5332, get-tuple-element.5333, get-tuple-element.5334, get-tuple-element.5335, /*index=60*/get-tuple-element.5336, get-tuple-element.5337, get-tuple-element.5338, get-tuple-element.5339, get-tuple-element.5340, /*index=65*/get-tuple-element.5341, get-tuple-element.5342, get-tuple-element.5343, get-tuple-element.5344, get-tuple-element.5345, /*index=70*/get-tuple-element.5346, get-tuple-element.5347, get-tuple-element.5348, get-tuple-element.5349, get-tuple-element.5350, /*index=75*/get-tuple-element.5351, get-tuple-element.5352, get-tuple-element.5353, get-tuple-element.5354, get-tuple-element.5355, /*index=80*/get-tuple-element.5356, get-tuple-element.5357, get-tuple-element.5358, get-tuple-element.5359, get-tuple-element.5360, /*index=85*/get-tuple-element.5361, get-tuple-element.5362, get-tuple-element.5363, get-tuple-element.5364, get-tuple-element.5365, /*index=90*/get-tuple-element.5366, get-tuple-element.5367, get-tuple-element.5368, bitcast.1744.0, bitcast.1762.0, /*index=95*/tuple.136.0, wrapped_copy.3, loop_dynamic_update_slice_fusion.59, loop_dynamic_update_slice_fusion.38, loop_divide_exponential_multiply_fusion)
} // command_buffer.4

fused_dynamic_update_slice.34 {
  param_0.78 = f64[192]{0} parameter(0)
  param_1.484 = f64[] parameter(1)
  bitcast.2397.1 = f64[1]{0} bitcast(param_1.484)
  param_2.355 = s64[] parameter(2)
  constant_357_66 = s64[] constant(0)
  compare.263.67 = pred[] compare(param_2.355, constant_357_66), direction=LT, metadata={op_name="jit(scan)/jit(main)/while/body/lt" source_file="/fs04/fc37/adam/projects/psilocybin-prl-analyses/src/prl_hgf/fitting/hierarchical_patrl.py" source_line=378}
  constant_356_34 = s64[] constant(192)
  add.339.67 = s64[] add(param_2.355, constant_356_34), metadata={op_name="jit(scan)/jit(main)/while/body/add" source_file="/fs04/fc37/adam/projects/psilocybin-prl-analyses/src/prl_hgf/fitting/hierarchical_patrl.py" source_line=378}
  select.509.67 = s64[] select(compare.263.67, add.339.67, param_2.355), metadata={op_name="jit(scan)/jit(main)/while/body/select_n" source_file="/fs04/fc37/adam/projects/psilocybin-prl-analyses/src/prl_hgf/fitting/hierarchical_patrl.py" source_line=378}
  ROOT dynamic-update-slice.883.1 = f64[192]{0} dynamic-update-slice(param_0.78, bitcast.2397.1, select.509.67), metadata={op_name="jit(scan)/jit(main)/while/body/dynamic_update_slice" source_file="/fs04/fc37/adam/projects/psilocybin-prl-analyses/src/prl_hgf/fitting/hierarchical_patrl.py" source_line=378}
} // fused_dynamic_update_slice.34

fused_dynamic_update_slice.30 {
  param_0.74 = pred[192,48]{1,0} parameter(0)
  param_1.715 = pred[48]{0} parameter(1)
  bitcast.2439.1 = pred[1,48]{1,0} bitcast(param_1.715)
  param_2.595 = s64[] parameter(2)
  constant_357_56 = s64[] constant(0)
  compare.263.75 = pred[] compare(param_2.595, constant_357_56), direction=LT, metadata={op_name="jit(scan)/jit(main)/while/body/lt" source_file="/fs04/fc37/adam/projects/psilocybin-prl-analyses/src/prl_hgf/fitting/hierarchical_patrl.py" source_line=378}
  constant_356_38 = s64[] constant(192)
  add.339.75 = s64[] add(param_2.595, constant_356_38), metadata={op_name="jit(scan)/jit(main)/while/body/add" source_file="/fs04/fc37/adam/projects/psilocybin-prl-analyses/src/prl_hgf/fitting/hierarchical_patrl.py" source_line=378}
  select.509.75 = s64[] select(compare.263.75, add.339.75, param_2.595), metadata={op_name="jit(scan)/jit(main)/while/body/select_n" source_file="/fs04/fc37/adam/projects/psilocybin-prl-analyses/src/prl_hgf/fitting/hierarchical_patrl.py" source_line=378}
  ROOT dynamic-update-slice.887.1 = pred[192,48]{1,0} dynamic-update-slice(param_0.74, bitcast.2439.1, select.509.75, constant_357_56), metadata={op_name="jit(scan)/jit(main)/while/body/dynamic_update_slice" source_file="/fs04/fc37/adam/projects/psilocybin-prl-analyses/src/prl_hgf/fitting/hierarchical_patrl.py" source_line=378}
} // fused_dynamic_update_slice.30

fused_dynamic_update_slice.45 {
  param_0.89 = pred[192,48]{1,0} parameter(0)
  param_2.618 = f64[192]{0} parameter(2)
  param_3.593 = s64[] parameter(3)
  constant_357_38 = s64[] constant(0)
  compare.263.39 = pred[] compare(param_3.593, constant_357_38), direction=LT, metadata={op_name="jit(scan)/jit(main)/while/body/lt" source_file="/fs04/fc37/adam/projects/psilocybin-prl-analyses/src/prl_hgf/fitting/hierarchical_patrl.py" source_line=378}
  constant_356_20 = s64[] constant(192)
  add.339.39 = s64[] add(param_3.593, constant_356_20), metadata={op_name="jit(scan)/jit(main)/while/body/add" source_file="/fs04/fc37/adam/projects/psilocybin-prl-analyses/src/prl_hgf/fitting/hierarchical_patrl.py" source_line=378}
  select.509.39 = s64[] select(compare.263.39, add.339.39, param_3.593), metadata={op_name="jit(scan)/jit(main)/while/body/select_n" source_file="/fs04/fc37/adam/projects/psilocybin-prl-analyses/src/prl_hgf/fitting/hierarchical_patrl.py" source_line=378}
  dynamic-slice.39.10 = f64[1]{0} dynamic-slice(param_2.618, select.509.39), dynamic_slice_sizes={1}, metadata={op_name="jit(scan)/jit(main)/while/body/dynamic_slice[slice_sizes=(1,)]" source_file="/fs04/fc37/adam/projects/psilocybin-prl-analyses/src/prl_hgf/fitting/hierarchical_patrl.py" source_line=378}
  bitcast.1707.22 = f64[] bitcast(dynamic-slice.39.10)
  broadcast.452.19 = f64[48]{0} broadcast(bitcast.1707.22), dimensions={}, metadata={op_name="jit(scan)/jit(main)/while/body/jit(beliefs_propagation)/jit(continuous_node_prediction)/jit(predict_mean)/mul" source_file="/fs04/fc37/adam/projects/psilocybin-prl-analyses/src/prl_hgf/fitting/hierarchical_patrl.py" source_line=362}
  param_1.733 = f64[48]{0} parameter(1)
  multiply.853.5 = f64[48]{0} multiply(broadcast.452.19, param_1.733), metadata={op_name="jit(scan)/jit(main)/while/body/jit(beliefs_propagation)/jit(continuous_node_prediction)/jit(predict_precision)/mul" source_file="/fs04/fc37/adam/projects/psilocybin-prl-analyses/src/prl_hgf/fitting/hierarchical_patrl.py" source_line=362}
  constant_359_5 = f64[] constant(1e-128)
  broadcast.454.clone.11 = f64[48]{0} broadcast(constant_359_5), dimensions={}
  compare.265.3 = pred[48]{0} compare(multiply.853.5, broadcast.454.clone.11), direction=GT, metadata={op_name="jit(scan)/jit(main)/while/body/jit(beliefs_propagation)/jit(continuous_node_prediction)/jit(predict_precision)/gt" source_file="/fs04/fc37/adam/projects/psilocybin-prl-analyses/src/prl_hgf/fitting/hierarchical_patrl.py" source_line=362}
  bitcast.2263.1 = pred[1,48]{1,0} bitcast(compare.265.3)
  ROOT dynamic-update-slice.871.1 = pred[192,48]{1,0} dynamic-update-slice(param_0.89, bitcast.2263.1, select.509.39, constant_357_38), metadata={op_name="jit(scan)/jit(main)/while/body/dynamic_update_slice" source_file="/fs04/fc37/adam/projects/psilocybin-prl-analyses/src/prl_hgf/fitting/hierarchical_patrl.py" source_line=378}
} // fused_dynamic_update_slice.45

fused_dynamic_update_slice.8 {
  param_0.52 = pred[192,48,1]{2,1,0} parameter(0)
  param_1.740 = s64[48]{0} parameter(1)
  constant_357_60 = s64[] constant(0)
  broadcast.460.11 = s64[48]{0} broadcast(constant_357_60), dimensions={}
  compare.268.11 = pred[48]{0} compare(param_1.740, broadcast.460.11), direction=NE, metadata={op_name="jit(scan)/jit(main)/while/body/jit(beliefs_propagation)/jit(continuous_node_posterior_update_ehgf)/jit(posterior_update_precision_continuous_node)/convert_element_type[new_dtype=bool weak_type=False sharding=None]" source_file="/fs04/fc37/adam/projects/psilocybin-prl-analyses/src/prl_hgf/fitting/hierarchical_patrl.py" source_line=362}
  convert.87.8 = s32[48]{0} convert(compare.268.11), metadata={op_name="jit(scan)/jit(main)/while/body/jit(beliefs_propagation)/jit(continuous_node_posterior_update_ehgf)/jit(posterior_update_precision_continuous_node)/convert_element_type[new_dtype=int32 weak_type=False sharding=None]" source_file="/fs04/fc37/adam/projects/psilocybin-prl-analyses/src/prl_hgf/fitting/hierarchical_patrl.py" source_line=362}
  constant_362_3 = s32[] constant(1)
  broadcast.461.clone.7 = s32[48]{0} broadcast(constant_362_3), dimensions={}
  compare.272.3 = pred[48]{0} compare(convert.87.8, broadcast.461.clone.7), direction=EQ, metadata={op_name="jit(scan)/jit(main)/while/body/jit(beliefs_propagation)/jit(continuous_node_posterior_update_ehgf)/jit(posterior_update_precision_continuous_node)/eq" source_file="/fs04/fc37/adam/projects/psilocybin-prl-analyses/src/prl_hgf/fitting/hierarchical_patrl.py" source_line=362}
  bitcast.2714.1 = pred[1,48,1]{2,1,0} bitcast(compare.272.3)
  param_2.630 = s64[] parameter(2)
  compare.263.3 = pred[] compare(param_2.630, constant_357_60), direction=LT, metadata={op_name="jit(scan)/jit(main)/while/body/lt" source_file="/fs04/fc37/adam/projects/psilocybin-prl-analyses/src/prl_hgf/fitting/hierarchical_patrl.py" source_line=378}
  constant_356_2 = s64[] constant(192)
  add.339.3 = s64[] add(param_2.630, constant_356_2), metadata={op_name="jit(scan)/jit(main)/while/body/add" source_file="/fs04/fc37/adam/projects/psilocybin-prl-analyses/src/prl_hgf/fitting/hierarchical_patrl.py" source_line=378}
  select.509.3 = s64[] select(compare.263.3, add.339.3, param_2.630), metadata={op_name="jit(scan)/jit(main)/while/body/select_n" source_file="/fs04/fc37/adam/projects/psilocybin-prl-analyses/src/prl_hgf/fitting/hierarchical_patrl.py" source_line=378}
  ROOT dynamic-update-slice.910.1 = pred[192,48,1]{2,1,0} dynamic-update-slice(param_0.52, bitcast.2714.1, select.509.3, constant_357_60, constant_357_60), metadata={op_name="jit(scan)/jit(main)/while/body/dynamic_update_slice" source_file="/fs04/fc37/adam/projects/psilocybin-prl-analyses/src/prl_hgf/fitting/hierarchical_patrl.py" source_line=378}
} // fused_dynamic_update_slice.8

fused_dynamic_update_slice.9 {
  param_0.53 = pred[192,48]{1,0} parameter(0)
  param_1.739 = s64[48]{0} parameter(1)
  constant_357_5 = s64[] constant(0)
  broadcast.460.9 = s64[48]{0} broadcast(constant_357_5), dimensions={}
  compare.268.9 = pred[48]{0} compare(param_1.739, broadcast.460.9), direction=NE, metadata={op_name="jit(scan)/jit(main)/while/body/jit(beliefs_propagation)/jit(continuous_node_posterior_update_ehgf)/jit(posterior_update_precision_continuous_node)/convert_element_type[new_dtype=bool weak_type=False sharding=None]" source_file="/fs04/fc37/adam/projects/psilocybin-prl-analyses/src/prl_hgf/fitting/hierarchical_patrl.py" source_line=362}
  convert.87.10 = s32[48]{0} convert(compare.268.9), metadata={op_name="jit(scan)/jit(main)/while/body/jit(beliefs_propagation)/jit(continuous_node_posterior_update_ehgf)/jit(posterior_update_precision_continuous_node)/convert_element_type[new_dtype=int32 weak_type=False sharding=None]" source_file="/fs04/fc37/adam/projects/psilocybin-prl-analyses/src/prl_hgf/fitting/hierarchical_patrl.py" source_line=362}
  constant_362_1 = s32[] constant(1)
  broadcast.461.clone.9 = s32[48]{0} broadcast(constant_362_1), dimensions={}
  compare.272.5 = pred[48]{0} compare(convert.87.10, broadcast.461.clone.9), direction=EQ, metadata={op_name="jit(scan)/jit(main)/while/body/jit(beliefs_propagation)/jit(continuous_node_posterior_update_ehgf)/jit(posterior_update_precision_continuous_node)/eq" source_file="/fs04/fc37/adam/projects/psilocybin-prl-analyses/src/prl_hgf/fitting/hierarchical_patrl.py" source_line=362}
  bitcast.2703.1 = pred[1,48]{1,0} bitcast(compare.272.5)
  param_2.628 = s64[] parameter(2)
  compare.263.127 = pred[] compare(param_2.628, constant_357_5), direction=LT, metadata={op_name="jit(scan)/jit(main)/while/body/lt" source_file="/fs04/fc37/adam/projects/psilocybin-prl-analyses/src/prl_hgf/fitting/hierarchical_patrl.py" source_line=378}
  constant_356_64 = s64[] constant(192)
  add.339.127 = s64[] add(param_2.628, constant_356_64), metadata={op_name="jit(scan)/jit(main)/while/body/add" source_file="/fs04/fc37/adam/projects/psilocybin-prl-analyses/src/prl_hgf/fitting/hierarchical_patrl.py" source_line=378}
  select.509.127 = s64[] select(compare.263.127, add.339.127, param_2.628), metadata={op_name="jit(scan)/jit(main)/while/body/select_n" source_file="/fs04/fc37/adam/projects/psilocybin-prl-analyses/src/prl_hgf/fitting/hierarchical_patrl.py" source_line=378}
  ROOT dynamic-update-slice.909.1 = pred[192,48]{1,0} dynamic-update-slice(param_0.53, bitcast.2703.1, select.509.127, constant_357_5), metadata={op_name="jit(scan)/jit(main)/while/body/dynamic_update_slice" source_file="/fs04/fc37/adam/projects/psilocybin-prl-analyses/src/prl_hgf/fitting/hierarchical_patrl.py" source_line=378}
} // fused_dynamic_update_slice.9

fused_dynamic_update_slice.11 {
  param_0.55 = pred[192,48,1]{2,1,0} parameter(0)
  param_1.744 = s64[48]{0} parameter(1)
  constant_357_27 = s64[] constant(0)
  broadcast.460.13 = s64[48]{0} broadcast(constant_357_27), dimensions={}
  compare.268.13 = pred[48]{0} compare(param_1.744, broadcast.460.13), direction=NE, metadata={op_name="jit(scan)/jit(main)/while/body/jit(beliefs_propagation)/jit(continuous_node_posterior_update_ehgf)/jit(posterior_update_precision_continuous_node)/convert_element_type[new_dtype=bool weak_type=False sharding=None]" source_file="/fs04/fc37/adam/projects/psilocybin-prl-analyses/src/prl_hgf/fitting/hierarchical_patrl.py" source_line=362}
  convert.87.12 = s32[48]{0} convert(compare.268.13), metadata={op_name="jit(scan)/jit(main)/while/body/jit(beliefs_propagation)/jit(continuous_node_posterior_update_ehgf)/jit(posterior_update_precision_continuous_node)/convert_element_type[new_dtype=int32 weak_type=False sharding=None]" source_file="/fs04/fc37/adam/projects/psilocybin-prl-analyses/src/prl_hgf/fitting/hierarchical_patrl.py" source_line=362}
  constant_364_2 = s32[] constant(0)
  broadcast.463.3 = s32[48]{0} broadcast(constant_364_2), dimensions={}
  compare.271.3 = pred[48]{0} compare(convert.87.12, broadcast.463.3), direction=EQ, metadata={op_name="jit(scan)/jit(main)/while/body/jit(beliefs_propagation)/jit(continuous_node_posterior_update_ehgf)/jit(posterior_update_precision_continuous_node)/eq" source_file="/fs04/fc37/adam/projects/psilocybin-prl-analyses/src/prl_hgf/fitting/hierarchical_patrl.py" source_line=362}
  bitcast.2662.1 = pred[1,48,1]{2,1,0} bitcast(compare.271.3)
  param_2.634 = s64[] parameter(2)
  compare.263.117 = pred[] compare(param_2.634, constant_357_27), direction=LT, metadata={op_name="jit(scan)/jit(main)/while/body/lt" source_file="/fs04/fc37/adam/projects/psilocybin-prl-analyses/src/prl_hgf/fitting/hierarchical_patrl.py" source_line=378}
  constant_356_59 = s64[] constant(192)
  add.339.117 = s64[] add(param_2.634, constant_356_59), metadata={op_name="jit(scan)/jit(main)/while/body/add" source_file="/fs04/fc37/adam/projects/psilocybin-prl-analyses/src/prl_hgf/fitting/hierarchical_patrl.py" source_line=378}
  select.509.117 = s64[] select(compare.263.117, add.339.117, param_2.634), metadata={op_name="jit(scan)/jit(main)/while/body/select_n" source_file="/fs04/fc37/adam/projects/psilocybin-prl-analyses/src/prl_hgf/fitting/hierarchical_patrl.py" source_line=378}
  ROOT dynamic-update-slice.906.1 = pred[192,48,1]{2,1,0} dynamic-update-slice(param_0.55, bitcast.2662.1, select.509.117, constant_357_27, constant_357_27), metadata={op_name="jit(scan)/jit(main)/while/body/dynamic_update_slice" source_file="/fs04/fc37/adam/projects/psilocybin-prl-analyses/src/prl_hgf/fitting/hierarchical_patrl.py" source_line=378}
} // fused_dynamic_update_slice.11

fused_dynamic_update_slice.12 {
  param_0.56 = pred[192,48]{1,0} parameter(0)
  param_1.743 = s64[48]{0} parameter(1)
  constant_357_39 = s64[] constant(0)
  broadcast.460.5 = s64[48]{0} broadcast(constant_357_39), dimensions={}
  compare.268.5 = pred[48]{0} compare(param_1.743, broadcast.460.5), direction=NE, metadata={op_name="jit(scan)/jit(main)/while/body/jit(beliefs_propagation)/jit(continuous_node_posterior_update_ehgf)/jit(posterior_update_precision_continuous_node)/convert_element_type[new_dtype=bool weak_type=False sharding=None]" source_file="/fs04/fc37/adam/projects/psilocybin-prl-analyses/src/prl_hgf/fitting/hierarchical_patrl.py" source_line=362}
  convert.87.14 = s32[48]{0} convert(compare.268.5), metadata={op_name="jit(scan)/jit(main)/while/body/jit(beliefs_propagation)/jit(continuous_node_posterior_update_ehgf)/jit(posterior_update_precision_continuous_node)/convert_element_type[new_dtype=int32 weak_type=False sharding=None]" source_file="/fs04/fc37/adam/projects/psilocybin-prl-analyses/src/prl_hgf/fitting/hierarchical_patrl.py" source_line=362}
  constant_364_1 = s32[] constant(0)
  broadcast.463.5 = s32[48]{0} broadcast(constant_364_1), dimensions={}
  compare.271.5 = pred[48]{0} compare(convert.87.14, broadcast.463.5), direction=EQ, metadata={op_name="jit(scan)/jit(main)/while/body/jit(beliefs_propagation)/jit(continuous_node_posterior_update_ehgf)/jit(posterior_update_precision_continuous_node)/eq" source_file="/fs04/fc37/adam/projects/psilocybin-prl-analyses/src/prl_hgf/fitting/hierarchical_patrl.py" source_line=362}
  bitcast.2651.1 = pred[1,48]{1,0} bitcast(compare.271.5)
  param_2.633 = s64[] parameter(2)
  compare.263.115 = pred[] compare(param_2.633, constant_357_39), direction=LT, metadata={op_name="jit(scan)/jit(main)/while/body/lt" source_file="/fs04/fc37/adam/projects/psilocybin-prl-analyses/src/prl_hgf/fitting/hierarchical_patrl.py" source_line=378}
  constant_356_58 = s64[] constant(192)
  add.339.115 = s64[] add(param_2.633, constant_356_58), metadata={op_name="jit(scan)/jit(main)/while/body/add" source_file="/fs04/fc37/adam/projects/psilocybin-prl-analyses/src/prl_hgf/fitting/hierarchical_patrl.py" source_line=378}
  select.509.115 = s64[] select(compare.263.115, add.339.115, param_2.633), metadata={op_name="jit(scan)/jit(main)/while/body/select_n" source_file="/fs04/fc37/adam/projects/psilocybin-prl-analyses/src/prl_hgf/fitting/hierarchical_patrl.py" source_line=378}
  ROOT dynamic-update-slice.905.1 = pred[192,48]{1,0} dynamic-update-slice(param_0.56, bitcast.2651.1, select.509.115, constant_357_39), metadata={op_name="jit(scan)/jit(main)/while/body/dynamic_update_slice" source_file="/fs04/fc37/adam/projects/psilocybin-prl-analyses/src/prl_hgf/fitting/hierarchical_patrl.py" source_line=378}
} // fused_dynamic_update_slice.12

fused_dynamic_update_slice.13 {
  param_0.57 = s32[192,48]{1,0} parameter(0)
  param_1.713 = s64[48]{0} parameter(1)
  constant_357_54 = s64[] constant(0)
  broadcast.460.3 = s64[48]{0} broadcast(constant_357_54), dimensions={}
  compare.268.3 = pred[48]{0} compare(param_1.713, broadcast.460.3), direction=NE, metadata={op_name="jit(scan)/jit(main)/while/body/jit(beliefs_propagation)/jit(continuous_node_posterior_update_ehgf)/jit(posterior_update_precision_continuous_node)/convert_element_type[new_dtype=bool weak_type=False sharding=None]" source_file="/fs04/fc37/adam/projects/psilocybin-prl-analyses/src/prl_hgf/fitting/hierarchical_patrl.py" source_line=362}
  convert.87.4 = s32[48]{0} convert(compare.268.3), metadata={op_name="jit(scan)/jit(main)/while/body/jit(beliefs_propagation)/jit(continuous_node_posterior_update_ehgf)/jit(posterior_update_precision_continuous_node)/convert_element_type[new_dtype=int32 weak_type=False sharding=None]" source_file="/fs04/fc37/adam/projects/psilocybin-prl-analyses/src/prl_hgf/fitting/hierarchical_patrl.py" source_line=362}
  bitcast.2637.1 = s32[1,48]{1,0} bitcast(convert.87.4)
  param_2.593 = s64[] parameter(2)
  compare.263.113 = pred[] compare(param_2.593, constant_357_54), direction=LT, metadata={op_name="jit(scan)/jit(main)/while/body/lt" source_file="/fs04/fc37/adam/projects/psilocybin-prl-analyses/src/prl_hgf/fitting/hierarchical_patrl.py" source_line=378}
  constant_356_57 = s64[] constant(192)
  add.339.113 = s64[] add(param_2.593, constant_356_57), metadata={op_name="jit(scan)/jit(main)/while/body/add" source_file="/fs04/fc37/adam/projects/psilocybin-prl-analyses/src/prl_hgf/fitting/hierarchical_patrl.py" source_line=378}
  select.509.113 = s64[] select(compare.263.113, add.339.113, param_2.593), metadata={op_name="jit(scan)/jit(main)/while/body/select_n" source_file="/fs04/fc37/adam/projects/psilocybin-prl-analyses/src/prl_hgf/fitting/hierarchical_patrl.py" source_line=378}
  ROOT dynamic-update-slice.904.1 = s32[192,48]{1,0} dynamic-update-slice(param_0.57, bitcast.2637.1, select.509.113, constant_357_54), metadata={op_name="jit(scan)/jit(main)/while/body/dynamic_update_slice" source_file="/fs04/fc37/adam/projects/psilocybin-prl-analyses/src/prl_hgf/fitting/hierarchical_patrl.py" source_line=378}
} // fused_dynamic_update_slice.13

fused_dynamic_update_slice.35 {
  param_0.79 = f64[192,48]{1,0} parameter(0)
  param_1.664 = f64[48]{0} parameter(1)
  bitcast.2386.1 = f64[1,48]{1,0} bitcast(param_1.664)
  param_2.544 = s64[] parameter(2)
  constant_357_4 = s64[] constant(0)
  compare.263.65 = pred[] compare(param_2.544, constant_357_4), direction=LT, metadata={op_name="jit(scan)/jit(main)/while/body/lt" source_file="/fs04/fc37/adam/projects/psilocybin-prl-analyses/src/prl_hgf/fitting/hierarchical_patrl.py" source_line=378}
  constant_356_33 = s64[] constant(192)
  add.339.65 = s64[] add(param_2.544, constant_356_33), metadata={op_name="jit(scan)/jit(main)/while/body/add" source_file="/fs04/fc37/adam/projects/psilocybin-prl-analyses/src/prl_hgf/fitting/hierarchical_patrl.py" source_line=378}
  select.509.65 = s64[] select(compare.263.65, add.339.65, param_2.544), metadata={op_name="jit(scan)/jit(main)/while/body/select_n" source_file="/fs04/fc37/adam/projects/psilocybin-prl-analyses/src/prl_hgf/fitting/hierarchical_patrl.py" source_line=378}
  ROOT dynamic-update-slice.882.1 = f64[192,48]{1,0} dynamic-update-slice(param_0.79, bitcast.2386.1, select.509.65, constant_357_4), metadata={op_name="jit(scan)/jit(main)/while/body/dynamic_update_slice" source_file="/fs04/fc37/adam/projects/psilocybin-prl-analyses/src/prl_hgf/fitting/hierarchical_patrl.py" source_line=378}
} // fused_dynamic_update_slice.35

fused_dynamic_update_slice.33 {
  param_0.77 = f64[192,48]{1,0} parameter(0)
  param_1.685 = f64[48]{0} parameter(1)
  bitcast.2406.1 = f64[1,48]{1,0} bitcast(param_1.685)
  param_2.565 = s64[] parameter(2)
  constant_357_26 = s64[] constant(0)
  compare.263.69 = pred[] compare(param_2.565, constant_357_26), direction=LT, metadata={op_name="jit(scan)/jit(main)/while/body/lt" source_file="/fs04/fc37/adam/projects/psilocybin-prl-analyses/src/prl_hgf/fitting/hierarchical_patrl.py" source_line=378}
  constant_356_35 = s64[] constant(192)
  add.339.69 = s64[] add(param_2.565, constant_356_35), metadata={op_name="jit(scan)/jit(main)/while/body/add" source_file="/fs04/fc37/adam/projects/psilocybin-prl-analyses/src/prl_hgf/fitting/hierarchical_patrl.py" source_line=378}
  select.509.69 = s64[] select(compare.263.69, add.339.69, param_2.565), metadata={op_name="jit(scan)/jit(main)/while/body/select_n" source_file="/fs04/fc37/adam/projects/psilocybin-prl-analyses/src/prl_hgf/fitting/hierarchical_patrl.py" source_line=378}
  ROOT dynamic-update-slice.884.1 = f64[192,48]{1,0} dynamic-update-slice(param_0.77, bitcast.2406.1, select.509.69, constant_357_26), metadata={op_name="jit(scan)/jit(main)/while/body/dynamic_update_slice" source_file="/fs04/fc37/adam/projects/psilocybin-prl-analyses/src/prl_hgf/fitting/hierarchical_patrl.py" source_line=378}
} // fused_dynamic_update_slice.33

fused_dynamic_update_slice.32 {
  param_0.76 = f64[192,48]{1,0} parameter(0)
  param_1.704 = f64[48]{0} parameter(1)
  bitcast.2417.1 = f64[1,48]{1,0} bitcast(param_1.704)
  param_2.584 = s64[] parameter(2)
  constant_357_45 = s64[] constant(0)
  compare.263.71 = pred[] compare(param_2.584, constant_357_45), direction=LT, metadata={op_name="jit(scan)/jit(main)/while/body/lt" source_file="/fs04/fc37/adam/projects/psilocybin-prl-analyses/src/prl_hgf/fitting/hierarchical_patrl.py" source_line=378}
  constant_356_36 = s64[] constant(192)
  add.339.71 = s64[] add(param_2.584, constant_356_36), metadata={op_name="jit(scan)/jit(main)/while/body/add" source_file="/fs04/fc37/adam/projects/psilocybin-prl-analyses/src/prl_hgf/fitting/hierarchical_patrl.py" source_line=378}
  select.509.71 = s64[] select(compare.263.71, add.339.71, param_2.584), metadata={op_name="jit(scan)/jit(main)/while/body/select_n" source_file="/fs04/fc37/adam/projects/psilocybin-prl-analyses/src/prl_hgf/fitting/hierarchical_patrl.py" source_line=378}
  ROOT dynamic-update-slice.885.1 = f64[192,48]{1,0} dynamic-update-slice(param_0.76, bitcast.2417.1, select.509.71, constant_357_45), metadata={op_name="jit(scan)/jit(main)/while/body/dynamic_update_slice" source_file="/fs04/fc37/adam/projects/psilocybin-prl-analyses/src/prl_hgf/fitting/hierarchical_patrl.py" source_line=378}
} // fused_dynamic_update_slice.32

fused_dynamic_update_slice.31 {
  param_0.75 = f64[192,48]{1,0} parameter(0)
  param_1.700 = f64[48]{0} parameter(1)
  bitcast.2428.1 = f64[1,48]{1,0} bitcast(param_1.700)
  param_2.580 = s64[] parameter(2)
  constant_357_41 = s64[] constant(0)
  compare.263.73 = pred[] compare(param_2.580, constant_357_41), direction=LT, metadata={op_name="jit(scan)/jit(main)/while/body/lt" source_file="/fs04/fc37/adam/projects/psilocybin-prl-analyses/src/prl_hgf/fitting/hierarchical_patrl.py" source_line=378}
  constant_356_37 = s64[] constant(192)
  add.339.73 = s64[] add(param_2.580, constant_356_37), metadata={op_name="jit(scan)/jit(main)/while/body/add" source_file="/fs04/fc37/adam/projects/psilocybin-prl-analyses/src/prl_hgf/fitting/hierarchical_patrl.py" source_line=378}
  select.509.73 = s64[] select(compare.263.73, add.339.73, param_2.580), metadata={op_name="jit(scan)/jit(main)/while/body/select_n" source_file="/fs04/fc37/adam/projects/psilocybin-prl-analyses/src/prl_hgf/fitting/hierarchical_patrl.py" source_line=378}
  ROOT dynamic-update-slice.886.1 = f64[192,48]{1,0} dynamic-update-slice(param_0.75, bitcast.2428.1, select.509.73, constant_357_41), metadata={op_name="jit(scan)/jit(main)/while/body/dynamic_update_slice" source_file="/fs04/fc37/adam/projects/psilocybin-prl-analyses/src/prl_hgf/fitting/hierarchical_patrl.py" source_line=378}
} // fused_dynamic_update_slice.31

fused_dynamic_update_slice.26 {
  param_0.70 = f64[192,48]{1,0} parameter(0)
  constant_358_17 = f64[] constant(1)
  broadcast.453.16 = f64[48]{0} broadcast(constant_358_17), dimensions={}
  param_1.731 = f64[48]{0} parameter(1)
  multiply.883.1 = f64[48]{0} multiply(param_1.731, param_1.731), metadata={op_name="jit(scan)/jit(main)/while/body/jit(beliefs_propagation)/jit(continuous_node_posterior_update)/jit(posterior_update_mean_continuous_node)/mul" source_file="/fs04/fc37/adam/projects/psilocybin-prl-analyses/src/prl_hgf/fitting/hierarchical_patrl.py" source_line=362}
  divide.405.1 = f64[48]{0} divide(broadcast.453.16, multiply.883.1), metadata={op_name="jit(scan)/jit(main)/while/body/jit(beliefs_propagation)/jit(continuous_node_posterior_update)/jit(posterior_update_mean_continuous_node)/div" source_file="/fs04/fc37/adam/projects/psilocybin-prl-analyses/src/prl_hgf/fitting/hierarchical_patrl.py" source_line=362}
  bitcast.2487.1 = f64[1,48]{1,0} bitcast(divide.405.1)
  param_2.614 = s64[] parameter(2)
  constant_357_15 = s64[] constant(0)
  compare.263.83 = pred[] compare(param_2.614, constant_357_15), direction=LT, metadata={op_name="jit(scan)/jit(main)/while/body/lt" source_file="/fs04/fc37/adam/projects/psilocybin-prl-analyses/src/prl_hgf/fitting/hierarchical_patrl.py" source_line=378}
  constant_356_42 = s64[] constant(192)
  add.339.83 = s64[] add(param_2.614, constant_356_42), metadata={op_name="jit(scan)/jit(main)/while/body/add" source_file="/fs04/fc37/adam/projects/psilocybin-prl-analyses/src/prl_hgf/fitting/hierarchical_patrl.py" source_line=378}
  select.509.83 = s64[] select(compare.263.83, add.339.83, param_2.614), metadata={op_name="jit(scan)/jit(main)/while/body/select_n" source_file="/fs04/fc37/adam/projects/psilocybin-prl-analyses/src/prl_hgf/fitting/hierarchical_patrl.py" source_line=378}
  ROOT dynamic-update-slice.891.1 = f64[192,48]{1,0} dynamic-update-slice(param_0.70, bitcast.2487.1, select.509.83, constant_357_15), metadata={op_name="jit(scan)/jit(main)/while/body/dynamic_update_slice" source_file="/fs04/fc37/adam/projects/psilocybin-prl-analyses/src/prl_hgf/fitting/hierarchical_patrl.py" source_line=378}
} // fused_dynamic_update_slice.26

fused_dynamic_update_slice.24 {
  param_0.68 = f64[192,48]{1,0} parameter(0)
  param_4.488 = f64[48,1]{1,0} parameter(4)
  bitcast.1716.7 = f64[48]{0} bitcast(param_4.488)
  param_3.560 = f64[48]{0} parameter(3)
  multiply.851.7 = f64[48]{0} multiply(bitcast.1716.7, param_3.560), metadata={op_name="jit(scan)/jit(main)/while/body/jit(beliefs_propagation)/jit(continuous_node_posterior_update)/jit(posterior_update_mean_continuous_node)/mul" source_file="/fs04/fc37/adam/projects/psilocybin-prl-analyses/src/prl_hgf/fitting/hierarchical_patrl.py" source_line=362}
  param_2.570 = f64[48]{0} parameter(2)
  divide.393.3 = f64[48]{0} divide(multiply.851.7, param_2.570), metadata={op_name="jit(scan)/jit(main)/while/body/jit(beliefs_propagation)/jit(continuous_node_posterior_update)/jit(posterior_update_mean_continuous_node)/div" source_file="/fs04/fc37/adam/projects/psilocybin-prl-analyses/src/prl_hgf/fitting/hierarchical_patrl.py" source_line=362}
  bitcast.2509.1 = f64[1,48]{1,0} bitcast(divide.393.3)
  param_1.690 = s64[] parameter(1)
  constant_357_31 = s64[] constant(0)
  compare.263.87 = pred[] compare(param_1.690, constant_357_31), direction=LT, metadata={op_name="jit(scan)/jit(main)/while/body/lt" source_file="/fs04/fc37/adam/projects/psilocybin-prl-analyses/src/prl_hgf/fitting/hierarchical_patrl.py" source_line=378}
  constant_356_44 = s64[] constant(192)
  add.339.87 = s64[] add(param_1.690, constant_356_44), metadata={op_name="jit(scan)/jit(main)/while/body/add" source_file="/fs04/fc37/adam/projects/psilocybin-prl-analyses/src/prl_hgf/fitting/hierarchical_patrl.py" source_line=378}
  select.509.87 = s64[] select(compare.263.87, add.339.87, param_1.690), metadata={op_name="jit(scan)/jit(main)/while/body/select_n" source_file="/fs04/fc37/adam/projects/psilocybin-prl-analyses/src/prl_hgf/fitting/hierarchical_patrl.py" source_line=378}
  ROOT dynamic-update-slice.893.1 = f64[192,48]{1,0} dynamic-update-slice(param_0.68, bitcast.2509.1, select.509.87, constant_357_31), metadata={op_name="jit(scan)/jit(main)/while/body/dynamic_update_slice" source_file="/fs04/fc37/adam/projects/psilocybin-prl-analyses/src/prl_hgf/fitting/hierarchical_patrl.py" source_line=378}
} // fused_dynamic_update_slice.24

fused_dynamic_update_slice.28 {
  param_0.72 = f64[192,48]{1,0} parameter(0)
  param_1.712 = f64[48]{0} parameter(1)
  bitcast.2461.1 = f64[1,48]{1,0} bitcast(param_1.712)
  param_2.592 = s64[] parameter(2)
  constant_357_53 = s64[] constant(0)
  compare.263.79 = pred[] compare(param_2.592, constant_357_53), direction=LT, metadata={op_name="jit(scan)/jit(main)/while/body/lt" source_file="/fs04/fc37/adam/projects/psilocybin-prl-analyses/src/prl_hgf/fitting/hierarchical_patrl.py" source_line=378}
  constant_356_40 = s64[] constant(192)
  add.339.79 = s64[] add(param_2.592, constant_356_40), metadata={op_name="jit(scan)/jit(main)/while/body/add" source_file="/fs04/fc37/adam/projects/psilocybin-prl-analyses/src/prl_hgf/fitting/hierarchical_patrl.py" source_line=378}
  select.509.79 = s64[] select(compare.263.79, add.339.79, param_2.592), metadata={op_name="jit(scan)/jit(main)/while/body/select_n" source_file="/fs04/fc37/adam/projects/psilocybin-prl-analyses/src/prl_hgf/fitting/hierarchical_patrl.py" source_line=378}
  ROOT dynamic-update-slice.889.1 = f64[192,48]{1,0} dynamic-update-slice(param_0.72, bitcast.2461.1, select.509.79, constant_357_53), metadata={op_name="jit(scan)/jit(main)/while/body/dynamic_update_slice" source_file="/fs04/fc37/adam/projects/psilocybin-prl-analyses/src/prl_hgf/fitting/hierarchical_patrl.py" source_line=378}
} // fused_dynamic_update_slice.28

fused_dynamic_update_slice.42 {
  param_0.86 = f64[192,48]{1,0} parameter(0)
  constant_358_15 = f64[] constant(1)
  broadcast.453.14 = f64[48]{0} broadcast(constant_358_15), dimensions={}
  param_1.729 = f64[48]{0} parameter(1)
  param_4.513 = f64[192]{0} parameter(4)
  param_5.384 = s64[] parameter(5)
  constant_357_46 = s64[] constant(0)
  compare.263.47 = pred[] compare(param_5.384, constant_357_46), direction=LT, metadata={op_name="jit(scan)/jit(main)/while/body/lt" source_file="/fs04/fc37/adam/projects/psilocybin-prl-analyses/src/prl_hgf/fitting/hierarchical_patrl.py" source_line=378}
  constant_356_24 = s64[] constant(192)
  add.339.47 = s64[] add(param_5.384, constant_356_24), metadata={op_name="jit(scan)/jit(main)/while/body/add" source_file="/fs04/fc37/adam/projects/psilocybin-prl-analyses/src/prl_hgf/fitting/hierarchical_patrl.py" source_line=378}
  select.509.47 = s64[] select(compare.263.47, add.339.47, param_5.384), metadata={op_name="jit(scan)/jit(main)/while/body/select_n" source_file="/fs04/fc37/adam/projects/psilocybin-prl-analyses/src/prl_hgf/fitting/hierarchical_patrl.py" source_line=378}
  dynamic-slice.39.24 = f64[1]{0} dynamic-slice(param_4.513, select.509.47), dynamic_slice_sizes={1}, metadata={op_name="jit(scan)/jit(main)/while/body/dynamic_slice[slice_sizes=(1,)]" source_file="/fs04/fc37/adam/projects/psilocybin-prl-analyses/src/prl_hgf/fitting/hierarchical_patrl.py" source_line=378}
  bitcast.1707.36 = f64[] bitcast(dynamic-slice.39.24)
  broadcast.452.33 = f64[48]{0} broadcast(bitcast.1707.36), dimensions={}, metadata={op_name="jit(scan)/jit(main)/while/body/jit(beliefs_propagation)/jit(continuous_node_prediction)/jit(predict_mean)/mul" source_file="/fs04/fc37/adam/projects/psilocybin-prl-analyses/src/prl_hgf/fitting/hierarchical_patrl.py" source_line=362}
  param_3.590 = f64[48]{0} parameter(3)
  multiply.853.15 = f64[48]{0} multiply(broadcast.452.33, param_3.590), metadata={op_name="jit(scan)/jit(main)/while/body/jit(beliefs_propagation)/jit(continuous_node_prediction)/jit(predict_precision)/mul" source_file="/fs04/fc37/adam/projects/psilocybin-prl-analyses/src/prl_hgf/fitting/hierarchical_patrl.py" source_line=362}
  constant_359_2 = f64[] constant(1e-128)
  broadcast.454.clone.35 = f64[48]{0} broadcast(constant_359_2), dimensions={}
  compare.265.15 = pred[48]{0} compare(multiply.853.15, broadcast.454.clone.35), direction=GT, metadata={op_name="jit(scan)/jit(main)/while/body/jit(beliefs_propagation)/jit(continuous_node_prediction)/jit(predict_precision)/gt" source_file="/fs04/fc37/adam/projects/psilocybin-prl-analyses/src/prl_hgf/fitting/hierarchical_patrl.py" source_line=362}
  param_2.612 = f64[48]{0} parameter(2)
  select.510.9 = f64[48]{0} select(compare.265.15, multiply.853.15, param_2.612), metadata={op_name="jit(scan)/jit(main)/while/body/jit(beliefs_propagation)/jit(continuous_node_prediction)/jit(predict_precision)/jit(_where)/select_n" source_file="/fs04/fc37/adam/projects/psilocybin-prl-analyses/src/prl_hgf/env/pat_rl_simulator.py" source_line=92}
  add.343.7 = f64[48]{0} add(param_1.729, select.510.9), metadata={op_name="jit(scan)/jit(main)/while/body/jit(beliefs_propagation)/jit(continuous_node_prediction)/jit(predict_precision)/add" source_file="/fs04/fc37/adam/projects/psilocybin-prl-analyses/src/prl_hgf/fitting/hierarchical_patrl.py" source_line=362}
  multiply.881.1 = f64[48]{0} multiply(add.343.7, add.343.7), metadata={op_name="jit(scan)/jit(main)/while/body/jit(beliefs_propagation)/jit(continuous_node_prediction)/jit(predict_precision)/mul" source_file="/fs04/fc37/adam/projects/psilocybin-prl-analyses/src/prl_hgf/fitting/hierarchical_patrl.py" source_line=362}
  divide.403.1 = f64[48]{0} divide(broadcast.453.14, multiply.881.1), metadata={op_name="jit(scan)/jit(main)/while/body/jit(beliefs_propagation)/jit(continuous_node_prediction)/jit(predict_precision)/div" source_file="/fs04/fc37/adam/projects/psilocybin-prl-analyses/src/prl_hgf/fitting/hierarchical_patrl.py" source_line=362}
  bitcast.2300.1 = f64[1,48]{1,0} bitcast(divide.403.1)
  ROOT dynamic-update-slice.874.1 = f64[192,48]{1,0} dynamic-update-slice(param_0.86, bitcast.2300.1, select.509.47, constant_357_46), metadata={op_name="jit(scan)/jit(main)/while/body/dynamic_update_slice" source_file="/fs04/fc37/adam/projects/psilocybin-prl-analyses/src/prl_hgf/fitting/hierarchical_patrl.py" source_line=378}
} // fused_dynamic_update_slice.42

fused_dynamic_update_slice.40 {
  param_0.84 = f64[192,48]{1,0} parameter(0)
  constant_358_18 = f64[] constant(1)
  broadcast.453.26 = f64[48]{0} broadcast(constant_358_18), dimensions={}
  param_1.709 = f64[48]{0} parameter(1)
  subtract.76.3 = f64[48]{0} subtract(broadcast.453.26, param_1.709), metadata={op_name="jit(scan)/jit(main)/while/body/jit(beliefs_propagation)/jit(binary_state_node_prediction)/sub" source_file="/fs04/fc37/adam/projects/psilocybin-prl-analyses/src/prl_hgf/fitting/hierarchical_patrl.py" source_line=362}
  bitcast.2322.1 = f64[1,48]{1,0} bitcast(subtract.76.3)
  param_2.615 = s64[] parameter(2)
  constant_357_50 = s64[] constant(0)
  compare.263.51 = pred[] compare(param_2.615, constant_357_50), direction=LT, metadata={op_name="jit(scan)/jit(main)/while/body/lt" source_file="/fs04/fc37/adam/projects/psilocybin-prl-analyses/src/prl_hgf/fitting/hierarchical_patrl.py" source_line=378}
  constant_356_26 = s64[] constant(192)
  add.339.51 = s64[] add(param_2.615, constant_356_26), metadata={op_name="jit(scan)/jit(main)/while/body/add" source_file="/fs04/fc37/adam/projects/psilocybin-prl-analyses/src/prl_hgf/fitting/hierarchical_patrl.py" source_line=378}
  select.509.51 = s64[] select(compare.263.51, add.339.51, param_2.615), metadata={op_name="jit(scan)/jit(main)/while/body/select_n" source_file="/fs04/fc37/adam/projects/psilocybin-prl-analyses/src/prl_hgf/fitting/hierarchical_patrl.py" source_line=378}
  ROOT dynamic-update-slice.876.1 = f64[192,48]{1,0} dynamic-update-slice(param_0.84, bitcast.2322.1, select.509.51, constant_357_50), metadata={op_name="jit(scan)/jit(main)/while/body/dynamic_update_slice" source_file="/fs04/fc37/adam/projects/psilocybin-prl-analyses/src/prl_hgf/fitting/hierarchical_patrl.py" source_line=378}
} // fused_dynamic_update_slice.40

fused_dynamic_update_slice.25 {
  param_0.69 = f64[192,48]{1,0} parameter(0)
  param_5.364 = f64[192,48,1]{2,1,0} parameter(5)
  param_2.562 = s64[] parameter(2)
  constant_357_23 = s64[] constant(0)
  compare.263.205 = pred[] compare(param_2.562, constant_357_23), direction=LT, metadata={op_name="jit(scan)/jit(main)/while/body/lt" source_file="/fs04/fc37/adam/projects/psilocybin-prl-analyses/src/prl_hgf/fitting/hierarchical_patrl.py" source_line=378}
  constant_356_43 = s64[] constant(192)
  add.339.205 = s64[] add(param_2.562, constant_356_43), metadata={op_name="jit(scan)/jit(main)/while/body/add" source_file="/fs04/fc37/adam/projects/psilocybin-prl-analyses/src/prl_hgf/fitting/hierarchical_patrl.py" source_line=378}
  select.509.205 = s64[] select(compare.263.205, add.339.205, param_2.562), metadata={op_name="jit(scan)/jit(main)/while/body/select_n" source_file="/fs04/fc37/adam/projects/psilocybin-prl-analyses/src/prl_hgf/fitting/hierarchical_patrl.py" source_line=378}
  dynamic-slice.41.14 = f64[1,48,1]{2,1,0} dynamic-slice(param_5.364, select.509.205, constant_357_23, constant_357_23), dynamic_slice_sizes={1,48,1}, metadata={op_name="jit(scan)/jit(main)/while/body/dynamic_slice[slice_sizes=(1, 48, 1)]" source_file="/fs04/fc37/adam/projects/psilocybin-prl-analyses/src/prl_hgf/fitting/hierarchical_patrl.py" source_line=378}
  bitcast.1804.14 = f64[48]{0} bitcast(dynamic-slice.41.14)
  param_4.484 = f64[48]{0} parameter(4)
  subtract.77.13 = f64[48]{0} subtract(bitcast.1804.14, param_4.484), metadata={op_name="jit(scan)/jit(main)/while/body/jit(beliefs_propagation)/jit(binary_state_node_prediction_error)/sub" source_file="/fs04/fc37/adam/projects/psilocybin-prl-analyses/src/prl_hgf/fitting/hierarchical_patrl.py" source_line=362}
  param_1.682 = s32[192]{0} parameter(1)
  dynamic-slice.40.21 = s32[1]{0} dynamic-slice(param_1.682, select.509.205), dynamic_slice_sizes={1}, metadata={op_name="jit(scan)/jit(main)/while/body/dynamic_slice[slice_sizes=(1,)]" source_file="/fs04/fc37/adam/projects/psilocybin-prl-analyses/src/prl_hgf/fitting/hierarchical_patrl.py" source_line=378}
  bitcast.1762.24 = s32[] bitcast(dynamic-slice.40.21)
  convert.85.21 = f64[] convert(bitcast.1762.24), metadata={op_name="jit(scan)/jit(main)/while/body/jit(beliefs_propagation)/jit(binary_state_node_prediction_error)/convert_element_type[new_dtype=float64 weak_type=False sharding=None]" source_file="/fs04/fc37/adam/projects/psilocybin-prl-analyses/src/prl_hgf/fitting/hierarchical_patrl.py" source_line=362}
  broadcast.455.16 = f64[48]{0} broadcast(convert.85.21), dimensions={}, metadata={op_name="jit(scan)/jit(main)/while/body/jit(beliefs_propagation)/jit(binary_state_node_prediction_error)/mul" source_file="/fs04/fc37/adam/projects/psilocybin-prl-analyses/src/prl_hgf/fitting/hierarchical_patrl.py" source_line=362}
  multiply.854.11 = f64[48]{0} multiply(subtract.77.13, broadcast.455.16), metadata={op_name="jit(scan)/jit(main)/while/body/jit(beliefs_propagation)/jit(binary_state_node_prediction_error)/mul" source_file="/fs04/fc37/adam/projects/psilocybin-prl-analyses/src/prl_hgf/fitting/hierarchical_patrl.py" source_line=362}
  param_3.553 = f64[48]{0} parameter(3)
  divide.394.7 = f64[48]{0} divide(multiply.854.11, param_3.553), metadata={op_name="jit(scan)/jit(main)/while/body/jit(beliefs_propagation)/jit(binary_state_node_prediction_error)/div" source_file="/fs04/fc37/adam/projects/psilocybin-prl-analyses/src/prl_hgf/fitting/hierarchical_patrl.py" source_line=362}
  multiply.855.3 = f64[48]{0} multiply(divide.394.7, broadcast.455.16), metadata={op_name="jit(scan)/jit(main)/while/body/jit(beliefs_propagation)/jit(continuous_node_posterior_update)/jit(posterior_update_mean_continuous_node)/mul" source_file="/fs04/fc37/adam/projects/psilocybin-prl-analyses/src/prl_hgf/fitting/hierarchical_patrl.py" source_line=362}
  bitcast.2498.1 = f64[1,48]{1,0} bitcast(multiply.855.3)
  ROOT dynamic-update-slice.892.1 = f64[192,48]{1,0} dynamic-update-slice(param_0.69, bitcast.2498.1, select.509.205, constant_357_23), metadata={op_name="jit(scan)/jit(main)/while/body/dynamic_update_slice" source_file="/fs04/fc37/adam/projects/psilocybin-prl-analyses/src/prl_hgf/fitting/hierarchical_patrl.py" source_line=378}
} // fused_dynamic_update_slice.25

fused_dynamic_update_slice.37 {
  param_0.81 = f64[192,48]{1,0} parameter(0)
  param_3.572 = f64[192,48,1]{2,1,0} parameter(3)
  param_4.497 = s64[] parameter(4)
  constant_357_57 = s64[] constant(0)
  compare.263.59 = pred[] compare(param_4.497, constant_357_57), direction=LT, metadata={op_name="jit(scan)/jit(main)/while/body/lt" source_file="/fs04/fc37/adam/projects/psilocybin-prl-analyses/src/prl_hgf/fitting/hierarchical_patrl.py" source_line=378}
  constant_356_30 = s64[] constant(192)
  add.339.59 = s64[] add(param_4.497, constant_356_30), metadata={op_name="jit(scan)/jit(main)/while/body/add" source_file="/fs04/fc37/adam/projects/psilocybin-prl-analyses/src/prl_hgf/fitting/hierarchical_patrl.py" source_line=378}
  select.509.59 = s64[] select(compare.263.59, add.339.59, param_4.497), metadata={op_name="jit(scan)/jit(main)/while/body/select_n" source_file="/fs04/fc37/adam/projects/psilocybin-prl-analyses/src/prl_hgf/fitting/hierarchical_patrl.py" source_line=378}
  dynamic-slice.41.6 = f64[1,48,1]{2,1,0} dynamic-slice(param_3.572, select.509.59, constant_357_57, constant_357_57), dynamic_slice_sizes={1,48,1}, metadata={op_name="jit(scan)/jit(main)/while/body/dynamic_slice[slice_sizes=(1, 48, 1)]" source_file="/fs04/fc37/adam/projects/psilocybin-prl-analyses/src/prl_hgf/fitting/hierarchical_patrl.py" source_line=378}
  bitcast.1804.6 = f64[48]{0} bitcast(dynamic-slice.41.6)
  param_2.596 = f64[48]{0} parameter(2)
  subtract.77.5 = f64[48]{0} subtract(bitcast.1804.6, param_2.596), metadata={op_name="jit(scan)/jit(main)/while/body/jit(beliefs_propagation)/jit(binary_state_node_prediction_error)/sub" source_file="/fs04/fc37/adam/projects/psilocybin-prl-analyses/src/prl_hgf/fitting/hierarchical_patrl.py" source_line=362}
  param_1.716 = s32[192]{0} parameter(1)
  dynamic-slice.40.12 = s32[1]{0} dynamic-slice(param_1.716, select.509.59), dynamic_slice_sizes={1}, metadata={op_name="jit(scan)/jit(main)/while/body/dynamic_slice[slice_sizes=(1,)]" source_file="/fs04/fc37/adam/projects/psilocybin-prl-analyses/src/prl_hgf/fitting/hierarchical_patrl.py" source_line=378}
  bitcast.1762.16 = s32[] bitcast(dynamic-slice.40.12)
  convert.85.13 = f64[] convert(bitcast.1762.16), metadata={op_name="jit(scan)/jit(main)/while/body/jit(beliefs_propagation)/jit(binary_state_node_prediction_error)/convert_element_type[new_dtype=float64 weak_type=False sharding=None]" source_file="/fs04/fc37/adam/projects/psilocybin-prl-analyses/src/prl_hgf/fitting/hierarchical_patrl.py" source_line=362}
  broadcast.455.8 = f64[48]{0} broadcast(convert.85.13), dimensions={}, metadata={op_name="jit(scan)/jit(main)/while/body/jit(beliefs_propagation)/jit(binary_state_node_prediction_error)/mul" source_file="/fs04/fc37/adam/projects/psilocybin-prl-analyses/src/prl_hgf/fitting/hierarchical_patrl.py" source_line=362}
  multiply.854.3 = f64[48]{0} multiply(subtract.77.5, broadcast.455.8), metadata={op_name="jit(scan)/jit(main)/while/body/jit(beliefs_propagation)/jit(binary_state_node_prediction_error)/mul" source_file="/fs04/fc37/adam/projects/psilocybin-prl-analyses/src/prl_hgf/fitting/hierarchical_patrl.py" source_line=362}
  bitcast.2353.1 = f64[1,48]{1,0} bitcast(multiply.854.3)
  ROOT dynamic-update-slice.879.1 = f64[192,48]{1,0} dynamic-update-slice(param_0.81, bitcast.2353.1, select.509.59, constant_357_57), metadata={op_name="jit(scan)/jit(main)/while/body/dynamic_update_slice" source_file="/fs04/fc37/adam/projects/psilocybin-prl-analyses/src/prl_hgf/fitting/hierarchical_patrl.py" source_line=378}
} // fused_dynamic_update_slice.37

fused_dynamic_update_slice.39 {
  param_0.83 = f64[192,48]{1,0} parameter(0)
  param_1.711 = f64[48]{0} parameter(1)
  bitcast.2333.1 = f64[1,48]{1,0} bitcast(param_1.711)
  param_2.591 = s64[] parameter(2)
  constant_357_52 = s64[] constant(0)
  compare.263.53 = pred[] compare(param_2.591, constant_357_52), direction=LT, metadata={op_name="jit(scan)/jit(main)/while/body/lt" source_file="/fs04/fc37/adam/projects/psilocybin-prl-analyses/src/prl_hgf/fitting/hierarchical_patrl.py" source_line=378}
  constant_356_27 = s64[] constant(192)
  add.339.53 = s64[] add(param_2.591, constant_356_27), metadata={op_name="jit(scan)/jit(main)/while/body/add" source_file="/fs04/fc37/adam/projects/psilocybin-prl-analyses/src/prl_hgf/fitting/hierarchical_patrl.py" source_line=378}
  select.509.53 = s64[] select(compare.263.53, add.339.53, param_2.591), metadata={op_name="jit(scan)/jit(main)/while/body/select_n" source_file="/fs04/fc37/adam/projects/psilocybin-prl-analyses/src/prl_hgf/fitting/hierarchical_patrl.py" source_line=378}
  ROOT dynamic-update-slice.877.1 = f64[192,48]{1,0} dynamic-update-slice(param_0.83, bitcast.2333.1, select.509.53, constant_357_52), metadata={op_name="jit(scan)/jit(main)/while/body/dynamic_update_slice" source_file="/fs04/fc37/adam/projects/psilocybin-prl-analyses/src/prl_hgf/fitting/hierarchical_patrl.py" source_line=378}
} // fused_dynamic_update_slice.39

fused_dynamic_update_slice.41 {
  param_0.85 = f64[192,48]{1,0} parameter(0)
  param_1.707 = f64[48]{0} parameter(1)
  bitcast.2311.1 = f64[1,48]{1,0} bitcast(param_1.707)
  param_2.587 = s64[] parameter(2)
  constant_357_48 = s64[] constant(0)
  compare.263.49 = pred[] compare(param_2.587, constant_357_48), direction=LT, metadata={op_name="jit(scan)/jit(main)/while/body/lt" source_file="/fs04/fc37/adam/projects/psilocybin-prl-analyses/src/prl_hgf/fitting/hierarchical_patrl.py" source_line=378}
  constant_356_25 = s64[] constant(192)
  add.339.49 = s64[] add(param_2.587, constant_356_25), metadata={op_name="jit(scan)/jit(main)/while/body/add" source_file="/fs04/fc37/adam/projects/psilocybin-prl-analyses/src/prl_hgf/fitting/hierarchical_patrl.py" source_line=378}
  select.509.49 = s64[] select(compare.263.49, add.339.49, param_2.587), metadata={op_name="jit(scan)/jit(main)/while/body/select_n" source_file="/fs04/fc37/adam/projects/psilocybin-prl-analyses/src/prl_hgf/fitting/hierarchical_patrl.py" source_line=378}
  ROOT dynamic-update-slice.875.1 = f64[192,48]{1,0} dynamic-update-slice(param_0.85, bitcast.2311.1, select.509.49, constant_357_48), metadata={op_name="jit(scan)/jit(main)/while/body/dynamic_update_slice" source_file="/fs04/fc37/adam/projects/psilocybin-prl-analyses/src/prl_hgf/fitting/hierarchical_patrl.py" source_line=378}
} // fused_dynamic_update_slice.41

fused_dynamic_update_slice.36 {
  param_0.80 = f64[192,48]{1,0} parameter(0)
  constant_358_16 = f64[] constant(1)
  broadcast.453.15 = f64[48]{0} broadcast(constant_358_16), dimensions={}
  param_1.730 = f64[48]{0} parameter(1)
  multiply.882.1 = f64[48]{0} multiply(param_1.730, param_1.730), metadata={op_name="jit(scan)/jit(main)/while/body/jit(beliefs_propagation)/jit(binary_state_node_prediction_error)/mul" source_file="/fs04/fc37/adam/projects/psilocybin-prl-analyses/src/prl_hgf/fitting/hierarchical_patrl.py" source_line=362}
  divide.404.1 = f64[48]{0} divide(broadcast.453.15, multiply.882.1), metadata={op_name="jit(scan)/jit(main)/while/body/jit(beliefs_propagation)/jit(binary_state_node_prediction_error)/div" source_file="/fs04/fc37/adam/projects/psilocybin-prl-analyses/src/prl_hgf/fitting/hierarchical_patrl.py" source_line=362}
  bitcast.2368.1 = f64[1,48]{1,0} bitcast(divide.404.1)
  param_2.613 = s64[] parameter(2)
  constant_357_59 = s64[] constant(0)
  compare.263.61 = pred[] compare(param_2.613, constant_357_59), direction=LT, metadata={op_name="jit(scan)/jit(main)/while/body/lt" source_file="/fs04/fc37/adam/projects/psilocybin-prl-analyses/src/prl_hgf/fitting/hierarchical_patrl.py" source_line=378}
  constant_356_31 = s64[] constant(192)
  add.339.61 = s64[] add(param_2.613, constant_356_31), metadata={op_name="jit(scan)/jit(main)/while/body/add" source_file="/fs04/fc37/adam/projects/psilocybin-prl-analyses/src/prl_hgf/fitting/hierarchical_patrl.py" source_line=378}
  select.509.61 = s64[] select(compare.263.61, add.339.61, param_2.613), metadata={op_name="jit(scan)/jit(main)/while/body/select_n" source_file="/fs04/fc37/adam/projects/psilocybin-prl-analyses/src/prl_hgf/fitting/hierarchical_patrl.py" source_line=378}
  ROOT dynamic-update-slice.880.1 = f64[192,48]{1,0} dynamic-update-slice(param_0.80, bitcast.2368.1, select.509.61, constant_357_59), metadata={op_name="jit(scan)/jit(main)/while/body/dynamic_update_slice" source_file="/fs04/fc37/adam/projects/psilocybin-prl-analyses/src/prl_hgf/fitting/hierarchical_patrl.py" source_line=378}
} // fused_dynamic_update_slice.36

fused_dynamic_update_slice.27 {
  param_0.71 = f64[192,48]{1,0} parameter(0)
  param_2.550 = f64[48,1]{1,0} parameter(2)
  bitcast.1716.3 = f64[48]{0} bitcast(param_2.550)
  param_1.670 = f64[48]{0} parameter(1)
  multiply.851.3 = f64[48]{0} multiply(bitcast.1716.3, param_1.670), metadata={op_name="jit(scan)/jit(main)/while/body/jit(beliefs_propagation)/jit(continuous_node_posterior_update)/jit(posterior_update_mean_continuous_node)/mul" source_file="/fs04/fc37/adam/projects/psilocybin-prl-analyses/src/prl_hgf/fitting/hierarchical_patrl.py" source_line=362}
  bitcast.2472.1 = f64[1,48]{1,0} bitcast(multiply.851.3)
  param_3.547 = s64[] parameter(3)
  constant_357_11 = s64[] constant(0)
  compare.263.81 = pred[] compare(param_3.547, constant_357_11), direction=LT, metadata={op_name="jit(scan)/jit(main)/while/body/lt" source_file="/fs04/fc37/adam/projects/psilocybin-prl-analyses/src/prl_hgf/fitting/hierarchical_patrl.py" source_line=378}
  constant_356_41 = s64[] constant(192)
  add.339.81 = s64[] add(param_3.547, constant_356_41), metadata={op_name="jit(scan)/jit(main)/while/body/add" source_file="/fs04/fc37/adam/projects/psilocybin-prl-analyses/src/prl_hgf/fitting/hierarchical_patrl.py" source_line=378}
  select.509.81 = s64[] select(compare.263.81, add.339.81, param_3.547), metadata={op_name="jit(scan)/jit(main)/while/body/select_n" source_file="/fs04/fc37/adam/projects/psilocybin-prl-analyses/src/prl_hgf/fitting/hierarchical_patrl.py" source_line=378}
  ROOT dynamic-update-slice.890.1 = f64[192,48]{1,0} dynamic-update-slice(param_0.71, bitcast.2472.1, select.509.81, constant_357_11), metadata={op_name="jit(scan)/jit(main)/while/body/dynamic_update_slice" source_file="/fs04/fc37/adam/projects/psilocybin-prl-analyses/src/prl_hgf/fitting/hierarchical_patrl.py" source_line=378}
} // fused_dynamic_update_slice.27

fused_dynamic_update_slice.3 {
  param_0.47 = f64[192,48]{1,0} parameter(0)
  param_1.741 = f64[48,1]{1,0} parameter(1)
  bitcast.2010.13 = f64[48]{0} bitcast(param_1.741)
  multiply.872.9 = f64[48]{0} multiply(bitcast.2010.13, bitcast.2010.13), metadata={op_name="jit(scan)/jit(main)/while/body/jit(beliefs_propagation)/jit(continuous_node_posterior_update_ehgf)/jit(posterior_update_precision_continuous_node)/jit(precision_update)/integer_pow[y=2]" source_file="/fs04/fc37/adam/projects/psilocybin-prl-analyses/src/prl_hgf/fitting/hierarchical_patrl.py" source_line=362}
  constant_363_1 = f64[] constant(0.5)
  broadcast.462.clone.15 = f64[48]{0} broadcast(constant_363_1), dimensions={}
  multiply.873.7 = f64[48]{0} multiply(multiply.872.9, broadcast.462.clone.15), metadata={op_name="jit(scan)/jit(main)/while/body/jit(beliefs_propagation)/jit(continuous_node_posterior_update_ehgf)/jit(posterior_update_precision_continuous_node)/jit(precision_update)/mul" source_file="/fs04/fc37/adam/projects/psilocybin-prl-analyses/src/prl_hgf/fitting/hierarchical_patrl.py" source_line=362}
  param_6.282 = f64[192]{0} parameter(6)
  param_2.631 = s64[] parameter(2)
  constant_357_25 = s64[] constant(0)
  compare.263.189 = pred[] compare(param_2.631, constant_357_25), direction=LT, metadata={op_name="jit(scan)/jit(main)/while/body/lt" source_file="/fs04/fc37/adam/projects/psilocybin-prl-analyses/src/prl_hgf/fitting/hierarchical_patrl.py" source_line=378}
  constant_356_29 = s64[] constant(192)
  add.339.189 = s64[] add(param_2.631, constant_356_29), metadata={op_name="jit(scan)/jit(main)/while/body/add" source_file="/fs04/fc37/adam/projects/psilocybin-prl-analyses/src/prl_hgf/fitting/hierarchical_patrl.py" source_line=378}
  select.509.189 = s64[] select(compare.263.189, add.339.189, param_2.631), metadata={op_name="jit(scan)/jit(main)/while/body/select_n" source_file="/fs04/fc37/adam/projects/psilocybin-prl-analyses/src/prl_hgf/fitting/hierarchical_patrl.py" source_line=378}
  dynamic-slice.39.63 = f64[1]{0} dynamic-slice(param_6.282, select.509.189), dynamic_slice_sizes={1}, metadata={op_name="jit(scan)/jit(main)/while/body/dynamic_slice[slice_sizes=(1,)]" source_file="/fs04/fc37/adam/projects/psilocybin-prl-analyses/src/prl_hgf/fitting/hierarchical_patrl.py" source_line=378}
  bitcast.1707.74 = f64[] bitcast(dynamic-slice.39.63)
  broadcast.452.71 = f64[48]{0} broadcast(bitcast.1707.74), dimensions={}, metadata={op_name="jit(scan)/jit(main)/while/body/jit(beliefs_propagation)/jit(continuous_node_prediction)/jit(predict_mean)/mul" source_file="/fs04/fc37/adam/projects/psilocybin-prl-analyses/src/prl_hgf/fitting/hierarchical_patrl.py" source_line=362}
  param_5.395 = f64[48]{0} parameter(5)
  multiply.853.25 = f64[48]{0} multiply(broadcast.452.71, param_5.395), metadata={op_name="jit(scan)/jit(main)/while/body/jit(beliefs_propagation)/jit(continuous_node_prediction)/jit(predict_precision)/mul" source_file="/fs04/fc37/adam/projects/psilocybin-prl-analyses/src/prl_hgf/fitting/hierarchical_patrl.py" source_line=362}
  constant_359_17 = f64[] constant(1e-128)
  broadcast.454.clone.45 = f64[48]{0} broadcast(constant_359_17), dimensions={}
  compare.265.25 = pred[48]{0} compare(multiply.853.25, broadcast.454.clone.45), direction=GT, metadata={op_name="jit(scan)/jit(main)/while/body/jit(beliefs_propagation)/jit(continuous_node_prediction)/jit(predict_precision)/gt" source_file="/fs04/fc37/adam/projects/psilocybin-prl-analyses/src/prl_hgf/fitting/hierarchical_patrl.py" source_line=362}
  param_4.525 = f64[48]{0} parameter(4)
  select.510.19 = f64[48]{0} select(compare.265.25, multiply.853.25, param_4.525), metadata={op_name="jit(scan)/jit(main)/while/body/jit(beliefs_propagation)/jit(continuous_node_prediction)/jit(predict_precision)/jit(_where)/select_n" source_file="/fs04/fc37/adam/projects/psilocybin-prl-analyses/src/prl_hgf/env/pat_rl_simulator.py" source_line=92}
  param_3.603 = f64[48]{0} parameter(3)
  multiply.857.11 = f64[48]{0} multiply(select.510.19, param_3.603), metadata={op_name="jit(scan)/jit(main)/while/body/jit(beliefs_propagation)/jit(continuous_node_prediction)/jit(predict_precision)/mul" source_file="/fs04/fc37/adam/projects/psilocybin-prl-analyses/src/prl_hgf/fitting/hierarchical_patrl.py" source_line=362}
  multiply.874.1 = f64[48]{0} multiply(multiply.873.7, multiply.857.11), metadata={op_name="jit(scan)/jit(main)/while/body/jit(beliefs_propagation)/jit(continuous_node_posterior_update_ehgf)/jit(posterior_update_precision_continuous_node)/jit(precision_update)/mul" source_file="/fs04/fc37/adam/projects/psilocybin-prl-analyses/src/prl_hgf/fitting/hierarchical_patrl.py" source_line=362}
  bitcast.2777.1 = f64[1,48]{1,0} bitcast(multiply.874.1)
  ROOT dynamic-update-slice.915.1 = f64[192,48]{1,0} dynamic-update-slice(param_0.47, bitcast.2777.1, select.509.189, constant_357_25), metadata={op_name="jit(scan)/jit(main)/while/body/dynamic_update_slice" source_file="/fs04/fc37/adam/projects/psilocybin-prl-analyses/src/prl_hgf/fitting/hierarchical_patrl.py" source_line=378}
} // fused_dynamic_update_slice.3

fused_dynamic_update_slice.21 {
  param_0.65 = f64[192,48]{1,0} parameter(0)
  param_5.390 = f64[192]{0} parameter(5)
  param_1.666 = s64[] parameter(1)
  constant_357_6 = s64[] constant(0)
  compare.263.187 = pred[] compare(param_1.666, constant_357_6), direction=LT, metadata={op_name="jit(scan)/jit(main)/while/body/lt" source_file="/fs04/fc37/adam/projects/psilocybin-prl-analyses/src/prl_hgf/fitting/hierarchical_patrl.py" source_line=378}
  constant_356_49 = s64[] constant(192)
  add.339.187 = s64[] add(param_1.666, constant_356_49), metadata={op_name="jit(scan)/jit(main)/while/body/add" source_file="/fs04/fc37/adam/projects/psilocybin-prl-analyses/src/prl_hgf/fitting/hierarchical_patrl.py" source_line=378}
  select.509.187 = s64[] select(compare.263.187, add.339.187, param_1.666), metadata={op_name="jit(scan)/jit(main)/while/body/select_n" source_file="/fs04/fc37/adam/projects/psilocybin-prl-analyses/src/prl_hgf/fitting/hierarchical_patrl.py" source_line=378}
  dynamic-slice.39.61 = f64[1]{0} dynamic-slice(param_5.390, select.509.187), dynamic_slice_sizes={1}, metadata={op_name="jit(scan)/jit(main)/while/body/dynamic_slice[slice_sizes=(1,)]" source_file="/fs04/fc37/adam/projects/psilocybin-prl-analyses/src/prl_hgf/fitting/hierarchical_patrl.py" source_line=378}
  bitcast.1707.72 = f64[] bitcast(dynamic-slice.39.61)
  broadcast.452.69 = f64[48]{0} broadcast(bitcast.1707.72), dimensions={}, metadata={op_name="jit(scan)/jit(main)/while/body/jit(beliefs_propagation)/jit(continuous_node_prediction)/jit(predict_mean)/mul" source_file="/fs04/fc37/adam/projects/psilocybin-prl-analyses/src/prl_hgf/fitting/hierarchical_patrl.py" source_line=362}
  param_4.521 = f64[48]{0} parameter(4)
  multiply.853.23 = f64[48]{0} multiply(broadcast.452.69, param_4.521), metadata={op_name="jit(scan)/jit(main)/while/body/jit(beliefs_propagation)/jit(continuous_node_prediction)/jit(predict_precision)/mul" source_file="/fs04/fc37/adam/projects/psilocybin-prl-analyses/src/prl_hgf/fitting/hierarchical_patrl.py" source_line=362}
  constant_359_16 = f64[] constant(1e-128)
  broadcast.454.clone.43 = f64[48]{0} broadcast(constant_359_16), dimensions={}
  compare.265.23 = pred[48]{0} compare(multiply.853.23, broadcast.454.clone.43), direction=GT, metadata={op_name="jit(scan)/jit(main)/while/body/jit(beliefs_propagation)/jit(continuous_node_prediction)/jit(predict_precision)/gt" source_file="/fs04/fc37/adam/projects/psilocybin-prl-analyses/src/prl_hgf/fitting/hierarchical_patrl.py" source_line=362}
  param_3.543 = f64[48]{0} parameter(3)
  select.510.17 = f64[48]{0} select(compare.265.23, multiply.853.23, param_3.543), metadata={op_name="jit(scan)/jit(main)/while/body/jit(beliefs_propagation)/jit(continuous_node_prediction)/jit(predict_precision)/jit(_where)/select_n" source_file="/fs04/fc37/adam/projects/psilocybin-prl-analyses/src/prl_hgf/env/pat_rl_simulator.py" source_line=92}
  param_2.546 = f64[48]{0} parameter(2)
  multiply.857.9 = f64[48]{0} multiply(select.510.17, param_2.546), metadata={op_name="jit(scan)/jit(main)/while/body/jit(beliefs_propagation)/jit(continuous_node_prediction)/jit(predict_precision)/mul" source_file="/fs04/fc37/adam/projects/psilocybin-prl-analyses/src/prl_hgf/fitting/hierarchical_patrl.py" source_line=362}
  bitcast.2545.1 = f64[1,48]{1,0} bitcast(multiply.857.9)
  ROOT dynamic-update-slice.896.1 = f64[192,48]{1,0} dynamic-update-slice(param_0.65, bitcast.2545.1, select.509.187, constant_357_6), metadata={op_name="jit(scan)/jit(main)/while/body/dynamic_update_slice" source_file="/fs04/fc37/adam/projects/psilocybin-prl-analyses/src/prl_hgf/fitting/hierarchical_patrl.py" source_line=378}
} // fused_dynamic_update_slice.21

fused_dynamic_update_slice.44 {
  param_0.88 = f64[192,48]{1,0} parameter(0)
  param_1.699 = f64[48]{0} parameter(1)
  bitcast.2274.1 = f64[1,48]{1,0} bitcast(param_1.699)
  param_2.579 = s64[] parameter(2)
  constant_357_40 = s64[] constant(0)
  compare.263.41 = pred[] compare(param_2.579, constant_357_40), direction=LT, metadata={op_name="jit(scan)/jit(main)/while/body/lt" source_file="/fs04/fc37/adam/projects/psilocybin-prl-analyses/src/prl_hgf/fitting/hierarchical_patrl.py" source_line=378}
  constant_356_21 = s64[] constant(192)
  add.339.41 = s64[] add(param_2.579, constant_356_21), metadata={op_name="jit(scan)/jit(main)/while/body/add" source_file="/fs04/fc37/adam/projects/psilocybin-prl-analyses/src/prl_hgf/fitting/hierarchical_patrl.py" source_line=378}
  select.509.41 = s64[] select(compare.263.41, add.339.41, param_2.579), metadata={op_name="jit(scan)/jit(main)/while/body/select_n" source_file="/fs04/fc37/adam/projects/psilocybin-prl-analyses/src/prl_hgf/fitting/hierarchical_patrl.py" source_line=378}
  ROOT dynamic-update-slice.872.1 = f64[192,48]{1,0} dynamic-update-slice(param_0.88, bitcast.2274.1, select.509.41, constant_357_40), metadata={op_name="jit(scan)/jit(main)/while/body/dynamic_update_slice" source_file="/fs04/fc37/adam/projects/psilocybin-prl-analyses/src/prl_hgf/fitting/hierarchical_patrl.py" source_line=378}
} // fused_dynamic_update_slice.44

fused_dynamic_update_slice.18 {
  param_0.62 = f64[192,48]{1,0} parameter(0)
  param_2.586 = f64[48,1]{1,0} parameter(2)
  bitcast.2010.21 = f64[48]{0} bitcast(param_2.586)
  param_6.278 = f64[192]{0} parameter(6)
  param_1.706 = s64[] parameter(1)
  constant_357_47 = s64[] constant(0)
  compare.263.195 = pred[] compare(param_1.706, constant_357_47), direction=LT, metadata={op_name="jit(scan)/jit(main)/while/body/lt" source_file="/fs04/fc37/adam/projects/psilocybin-prl-analyses/src/prl_hgf/fitting/hierarchical_patrl.py" source_line=378}
  constant_356_52 = s64[] constant(192)
  add.339.195 = s64[] add(param_1.706, constant_356_52), metadata={op_name="jit(scan)/jit(main)/while/body/add" source_file="/fs04/fc37/adam/projects/psilocybin-prl-analyses/src/prl_hgf/fitting/hierarchical_patrl.py" source_line=378}
  select.509.195 = s64[] select(compare.263.195, add.339.195, param_1.706), metadata={op_name="jit(scan)/jit(main)/while/body/select_n" source_file="/fs04/fc37/adam/projects/psilocybin-prl-analyses/src/prl_hgf/fitting/hierarchical_patrl.py" source_line=378}
  dynamic-slice.39.69 = f64[1]{0} dynamic-slice(param_6.278, select.509.195), dynamic_slice_sizes={1}, metadata={op_name="jit(scan)/jit(main)/while/body/dynamic_slice[slice_sizes=(1,)]" source_file="/fs04/fc37/adam/projects/psilocybin-prl-analyses/src/prl_hgf/fitting/hierarchical_patrl.py" source_line=378}
  bitcast.1707.80 = f64[] bitcast(dynamic-slice.39.69)
  broadcast.452.77 = f64[48]{0} broadcast(bitcast.1707.80), dimensions={}, metadata={op_name="jit(scan)/jit(main)/while/body/jit(beliefs_propagation)/jit(continuous_node_prediction)/jit(predict_mean)/mul" source_file="/fs04/fc37/adam/projects/psilocybin-prl-analyses/src/prl_hgf/fitting/hierarchical_patrl.py" source_line=362}
  param_5.391 = f64[48]{0} parameter(5)
  multiply.853.31 = f64[48]{0} multiply(broadcast.452.77, param_5.391), metadata={op_name="jit(scan)/jit(main)/while/body/jit(beliefs_propagation)/jit(continuous_node_prediction)/jit(predict_precision)/mul" source_file="/fs04/fc37/adam/projects/psilocybin-prl-analyses/src/prl_hgf/fitting/hierarchical_patrl.py" source_line=362}
  constant_359_20 = f64[] constant(1e-128)
  broadcast.454.clone.51 = f64[48]{0} broadcast(constant_359_20), dimensions={}
  compare.265.31 = pred[48]{0} compare(multiply.853.31, broadcast.454.clone.51), direction=GT, metadata={op_name="jit(scan)/jit(main)/while/body/jit(beliefs_propagation)/jit(continuous_node_prediction)/jit(predict_precision)/gt" source_file="/fs04/fc37/adam/projects/psilocybin-prl-analyses/src/prl_hgf/fitting/hierarchical_patrl.py" source_line=362}
  param_4.494 = f64[48]{0} parameter(4)
  select.510.25 = f64[48]{0} select(compare.265.31, multiply.853.31, param_4.494), metadata={op_name="jit(scan)/jit(main)/while/body/jit(beliefs_propagation)/jit(continuous_node_prediction)/jit(predict_precision)/jit(_where)/select_n" source_file="/fs04/fc37/adam/projects/psilocybin-prl-analyses/src/prl_hgf/env/pat_rl_simulator.py" source_line=92}
  param_3.568 = f64[48]{0} parameter(3)
  multiply.857.17 = f64[48]{0} multiply(select.510.25, param_3.568), metadata={op_name="jit(scan)/jit(main)/while/body/jit(beliefs_propagation)/jit(continuous_node_prediction)/jit(predict_precision)/mul" source_file="/fs04/fc37/adam/projects/psilocybin-prl-analyses/src/prl_hgf/fitting/hierarchical_patrl.py" source_line=362}
  multiply.864.9 = f64[48]{0} multiply(bitcast.2010.21, multiply.857.17), metadata={op_name="jit(scan)/jit(main)/while/body/jit(beliefs_propagation)/jit(continuous_node_posterior_update_ehgf)/jit(posterior_update_mean_continuous_node)/mul" source_file="/fs04/fc37/adam/projects/psilocybin-prl-analyses/src/prl_hgf/fitting/hierarchical_patrl.py" source_line=362}
  bitcast.2578.1 = f64[1,48]{1,0} bitcast(multiply.864.9)
  ROOT dynamic-update-slice.899.1 = f64[192,48]{1,0} dynamic-update-slice(param_0.62, bitcast.2578.1, select.509.195, constant_357_47), metadata={op_name="jit(scan)/jit(main)/while/body/dynamic_update_slice" source_file="/fs04/fc37/adam/projects/psilocybin-prl-analyses/src/prl_hgf/fitting/hierarchical_patrl.py" source_line=378}
} // fused_dynamic_update_slice.18

fused_dynamic_update_slice.6 {
  param_0.50 = f64[192,48]{1,0} parameter(0)
  param_2.576 = f64[48,1]{1,0} parameter(2)
  bitcast.2010.23 = f64[48]{0} bitcast(param_2.576)
  param_6.271 = f64[192]{0} parameter(6)
  param_1.696 = s64[] parameter(1)
  constant_357_37 = s64[] constant(0)
  compare.263.197 = pred[] compare(param_1.696, constant_357_37), direction=LT, metadata={op_name="jit(scan)/jit(main)/while/body/lt" source_file="/fs04/fc37/adam/projects/psilocybin-prl-analyses/src/prl_hgf/fitting/hierarchical_patrl.py" source_line=378}
  constant_356_3 = s64[] constant(192)
  add.339.197 = s64[] add(param_1.696, constant_356_3), metadata={op_name="jit(scan)/jit(main)/while/body/add" source_file="/fs04/fc37/adam/projects/psilocybin-prl-analyses/src/prl_hgf/fitting/hierarchical_patrl.py" source_line=378}
  select.509.197 = s64[] select(compare.263.197, add.339.197, param_1.696), metadata={op_name="jit(scan)/jit(main)/while/body/select_n" source_file="/fs04/fc37/adam/projects/psilocybin-prl-analyses/src/prl_hgf/fitting/hierarchical_patrl.py" source_line=378}
  dynamic-slice.39.71 = f64[1]{0} dynamic-slice(param_6.271, select.509.197), dynamic_slice_sizes={1}, metadata={op_name="jit(scan)/jit(main)/while/body/dynamic_slice[slice_sizes=(1,)]" source_file="/fs04/fc37/adam/projects/psilocybin-prl-analyses/src/prl_hgf/fitting/hierarchical_patrl.py" source_line=378}
  bitcast.1707.82 = f64[] bitcast(dynamic-slice.39.71)
  broadcast.452.79 = f64[48]{0} broadcast(bitcast.1707.82), dimensions={}, metadata={op_name="jit(scan)/jit(main)/while/body/jit(beliefs_propagation)/jit(continuous_node_prediction)/jit(predict_mean)/mul" source_file="/fs04/fc37/adam/projects/psilocybin-prl-analyses/src/prl_hgf/fitting/hierarchical_patrl.py" source_line=362}
  param_5.386 = f64[48]{0} parameter(5)
  multiply.853.33 = f64[48]{0} multiply(broadcast.452.79, param_5.386), metadata={op_name="jit(scan)/jit(main)/while/body/jit(beliefs_propagation)/jit(continuous_node_prediction)/jit(predict_precision)/mul" source_file="/fs04/fc37/adam/projects/psilocybin-prl-analyses/src/prl_hgf/fitting/hierarchical_patrl.py" source_line=362}
  constant_359_7 = f64[] constant(1e-128)
  broadcast.454.clone.53 = f64[48]{0} broadcast(constant_359_7), dimensions={}
  compare.265.33 = pred[48]{0} compare(multiply.853.33, broadcast.454.clone.53), direction=GT, metadata={op_name="jit(scan)/jit(main)/while/body/jit(beliefs_propagation)/jit(continuous_node_prediction)/jit(predict_precision)/gt" source_file="/fs04/fc37/adam/projects/psilocybin-prl-analyses/src/prl_hgf/fitting/hierarchical_patrl.py" source_line=362}
  param_4.490 = f64[48]{0} parameter(4)
  select.510.27 = f64[48]{0} select(compare.265.33, multiply.853.33, param_4.490), metadata={op_name="jit(scan)/jit(main)/while/body/jit(beliefs_propagation)/jit(continuous_node_prediction)/jit(predict_precision)/jit(_where)/select_n" source_file="/fs04/fc37/adam/projects/psilocybin-prl-analyses/src/prl_hgf/env/pat_rl_simulator.py" source_line=92}
  param_3.563 = f64[48]{0} parameter(3)
  multiply.857.19 = f64[48]{0} multiply(select.510.27, param_3.563), metadata={op_name="jit(scan)/jit(main)/while/body/jit(beliefs_propagation)/jit(continuous_node_prediction)/jit(predict_precision)/mul" source_file="/fs04/fc37/adam/projects/psilocybin-prl-analyses/src/prl_hgf/fitting/hierarchical_patrl.py" source_line=362}
  multiply.864.11 = f64[48]{0} multiply(bitcast.2010.23, multiply.857.19), metadata={op_name="jit(scan)/jit(main)/while/body/jit(beliefs_propagation)/jit(continuous_node_posterior_update_ehgf)/jit(posterior_update_mean_continuous_node)/mul" source_file="/fs04/fc37/adam/projects/psilocybin-prl-analyses/src/prl_hgf/fitting/hierarchical_patrl.py" source_line=362}
  multiply.869.1 = f64[48]{0} multiply(multiply.864.11, multiply.864.11), metadata={op_name="jit(scan)/jit(main)/while/body/jit(beliefs_propagation)/jit(continuous_node_posterior_update_ehgf)/jit(posterior_update_precision_continuous_node)/jit(precision_update)/integer_pow[y=2]" source_file="/fs04/fc37/adam/projects/psilocybin-prl-analyses/src/prl_hgf/fitting/hierarchical_patrl.py" source_line=362}
  bitcast.2739.1 = f64[1,48]{1,0} bitcast(multiply.869.1)
  ROOT dynamic-update-slice.912.1 = f64[192,48]{1,0} dynamic-update-slice(param_0.50, bitcast.2739.1, select.509.197, constant_357_37), metadata={op_name="jit(scan)/jit(main)/while/body/dynamic_update_slice" source_file="/fs04/fc37/adam/projects/psilocybin-prl-analyses/src/prl_hgf/fitting/hierarchical_patrl.py" source_line=378}
} // fused_dynamic_update_slice.6

fused_dynamic_update_slice.7 {
  param_0.51 = f64[192,48]{1,0} parameter(0)
  param_2.626 = f64[48,1]{1,0} parameter(2)
  bitcast.2010.19 = f64[48]{0} bitcast(param_2.626)
  param_6.280 = f64[192]{0} parameter(6)
  param_1.738 = s64[] parameter(1)
  constant_357_49 = s64[] constant(0)
  compare.263.193 = pred[] compare(param_1.738, constant_357_49), direction=LT, metadata={op_name="jit(scan)/jit(main)/while/body/lt" source_file="/fs04/fc37/adam/projects/psilocybin-prl-analyses/src/prl_hgf/fitting/hierarchical_patrl.py" source_line=378}
  constant_356_23 = s64[] constant(192)
  add.339.193 = s64[] add(param_1.738, constant_356_23), metadata={op_name="jit(scan)/jit(main)/while/body/add" source_file="/fs04/fc37/adam/projects/psilocybin-prl-analyses/src/prl_hgf/fitting/hierarchical_patrl.py" source_line=378}
  select.509.193 = s64[] select(compare.263.193, add.339.193, param_1.738), metadata={op_name="jit(scan)/jit(main)/while/body/select_n" source_file="/fs04/fc37/adam/projects/psilocybin-prl-analyses/src/prl_hgf/fitting/hierarchical_patrl.py" source_line=378}
  dynamic-slice.39.67 = f64[1]{0} dynamic-slice(param_6.280, select.509.193), dynamic_slice_sizes={1}, metadata={op_name="jit(scan)/jit(main)/while/body/dynamic_slice[slice_sizes=(1,)]" source_file="/fs04/fc37/adam/projects/psilocybin-prl-analyses/src/prl_hgf/fitting/hierarchical_patrl.py" source_line=378}
  bitcast.1707.78 = f64[] bitcast(dynamic-slice.39.67)
  broadcast.452.75 = f64[48]{0} broadcast(bitcast.1707.78), dimensions={}, metadata={op_name="jit(scan)/jit(main)/while/body/jit(beliefs_propagation)/jit(continuous_node_prediction)/jit(predict_mean)/mul" source_file="/fs04/fc37/adam/projects/psilocybin-prl-analyses/src/prl_hgf/fitting/hierarchical_patrl.py" source_line=362}
  param_5.393 = f64[48]{0} parameter(5)
  multiply.853.29 = f64[48]{0} multiply(broadcast.452.75, param_5.393), metadata={op_name="jit(scan)/jit(main)/while/body/jit(beliefs_propagation)/jit(continuous_node_prediction)/jit(predict_precision)/mul" source_file="/fs04/fc37/adam/projects/psilocybin-prl-analyses/src/prl_hgf/fitting/hierarchical_patrl.py" source_line=362}
  constant_359_19 = f64[] constant(1e-128)
  broadcast.454.clone.49 = f64[48]{0} broadcast(constant_359_19), dimensions={}
  compare.265.29 = pred[48]{0} compare(multiply.853.29, broadcast.454.clone.49), direction=GT, metadata={op_name="jit(scan)/jit(main)/while/body/jit(beliefs_propagation)/jit(continuous_node_prediction)/jit(predict_precision)/gt" source_file="/fs04/fc37/adam/projects/psilocybin-prl-analyses/src/prl_hgf/fitting/hierarchical_patrl.py" source_line=362}
  param_4.523 = f64[48]{0} parameter(4)
  select.510.23 = f64[48]{0} select(compare.265.29, multiply.853.29, param_4.523), metadata={op_name="jit(scan)/jit(main)/while/body/jit(beliefs_propagation)/jit(continuous_node_prediction)/jit(predict_precision)/jit(_where)/select_n" source_file="/fs04/fc37/adam/projects/psilocybin-prl-analyses/src/prl_hgf/env/pat_rl_simulator.py" source_line=92}
  param_3.601 = f64[48]{0} parameter(3)
  multiply.857.15 = f64[48]{0} multiply(select.510.23, param_3.601), metadata={op_name="jit(scan)/jit(main)/while/body/jit(beliefs_propagation)/jit(continuous_node_prediction)/jit(predict_precision)/mul" source_file="/fs04/fc37/adam/projects/psilocybin-prl-analyses/src/prl_hgf/fitting/hierarchical_patrl.py" source_line=362}
  multiply.864.7 = f64[48]{0} multiply(bitcast.2010.19, multiply.857.15), metadata={op_name="jit(scan)/jit(main)/while/body/jit(beliefs_propagation)/jit(continuous_node_posterior_update_ehgf)/jit(posterior_update_mean_continuous_node)/mul" source_file="/fs04/fc37/adam/projects/psilocybin-prl-analyses/src/prl_hgf/fitting/hierarchical_patrl.py" source_line=362}
  constant_361_4 = f64[] constant(2)
  broadcast.459.clone.9 = f64[48]{0} broadcast(constant_361_4), dimensions={}
  multiply.887.3 = f64[48]{0} multiply(multiply.864.7, broadcast.459.clone.9), metadata={op_name="jit(scan)/jit(main)/while/body/jit(beliefs_propagation)/jit(continuous_node_posterior_update_ehgf)/jit(posterior_update_precision_continuous_node)/jit(precision_update)/mul" source_file="/fs04/fc37/adam/projects/psilocybin-prl-analyses/src/prl_hgf/fitting/hierarchical_patrl.py" source_line=362}
  bitcast.2728.1 = f64[1,48]{1,0} bitcast(multiply.887.3)
  ROOT dynamic-update-slice.911.1 = f64[192,48]{1,0} dynamic-update-slice(param_0.51, bitcast.2728.1, select.509.193, constant_357_49), metadata={op_name="jit(scan)/jit(main)/while/body/dynamic_update_slice" source_file="/fs04/fc37/adam/projects/psilocybin-prl-analyses/src/prl_hgf/fitting/hierarchical_patrl.py" source_line=378}
} // fused_dynamic_update_slice.7

fused_dynamic_update_slice.43 {
  param_0.87 = f64[192,48]{1,0} parameter(0)
  param_3.594 = f64[192]{0} parameter(3)
  param_4.516 = s64[] parameter(4)
  constant_357_42 = s64[] constant(0)
  compare.263.43 = pred[] compare(param_4.516, constant_357_42), direction=LT, metadata={op_name="jit(scan)/jit(main)/while/body/lt" source_file="/fs04/fc37/adam/projects/psilocybin-prl-analyses/src/prl_hgf/fitting/hierarchical_patrl.py" source_line=378}
  constant_356_22 = s64[] constant(192)
  add.339.43 = s64[] add(param_4.516, constant_356_22), metadata={op_name="jit(scan)/jit(main)/while/body/add" source_file="/fs04/fc37/adam/projects/psilocybin-prl-analyses/src/prl_hgf/fitting/hierarchical_patrl.py" source_line=378}
  select.509.43 = s64[] select(compare.263.43, add.339.43, param_4.516), metadata={op_name="jit(scan)/jit(main)/while/body/select_n" source_file="/fs04/fc37/adam/projects/psilocybin-prl-analyses/src/prl_hgf/fitting/hierarchical_patrl.py" source_line=378}
  dynamic-slice.39.8 = f64[1]{0} dynamic-slice(param_3.594, select.509.43), dynamic_slice_sizes={1}, metadata={op_name="jit(scan)/jit(main)/while/body/dynamic_slice[slice_sizes=(1,)]" source_file="/fs04/fc37/adam/projects/psilocybin-prl-analyses/src/prl_hgf/fitting/hierarchical_patrl.py" source_line=378}
  bitcast.1707.20 = f64[] bitcast(dynamic-slice.39.8)
  broadcast.452.17 = f64[48]{0} broadcast(bitcast.1707.20), dimensions={}, metadata={op_name="jit(scan)/jit(main)/while/body/jit(beliefs_propagation)/jit(continuous_node_prediction)/jit(predict_mean)/mul" source_file="/fs04/fc37/adam/projects/psilocybin-prl-analyses/src/prl_hgf/fitting/hierarchical_patrl.py" source_line=362}
  param_2.619 = f64[48]{0} parameter(2)
  multiply.853.3 = f64[48]{0} multiply(broadcast.452.17, param_2.619), metadata={op_name="jit(scan)/jit(main)/while/body/jit(beliefs_propagation)/jit(continuous_node_prediction)/jit(predict_precision)/mul" source_file="/fs04/fc37/adam/projects/psilocybin-prl-analyses/src/prl_hgf/fitting/hierarchical_patrl.py" source_line=362}
  constant_359_6 = f64[] constant(1e-128)
  broadcast.454.clone.13 = f64[48]{0} broadcast(constant_359_6), dimensions={}
  compare.265.5 = pred[48]{0} compare(multiply.853.3, broadcast.454.clone.13), direction=GT, metadata={op_name="jit(scan)/jit(main)/while/body/jit(beliefs_propagation)/jit(continuous_node_prediction)/jit(predict_precision)/gt" source_file="/fs04/fc37/adam/projects/psilocybin-prl-analyses/src/prl_hgf/fitting/hierarchical_patrl.py" source_line=362}
  param_1.701 = f64[48]{0} parameter(1)
  select.510.3 = f64[48]{0} select(compare.265.5, multiply.853.3, param_1.701), metadata={op_name="jit(scan)/jit(main)/while/body/jit(beliefs_propagation)/jit(continuous_node_prediction)/jit(predict_precision)/jit(_where)/select_n" source_file="/fs04/fc37/adam/projects/psilocybin-prl-analyses/src/prl_hgf/env/pat_rl_simulator.py" source_line=92}
  bitcast.2285.1 = f64[1,48]{1,0} bitcast(select.510.3)
  ROOT dynamic-update-slice.873.1 = f64[192,48]{1,0} dynamic-update-slice(param_0.87, bitcast.2285.1, select.509.43, constant_357_42), metadata={op_name="jit(scan)/jit(main)/while/body/dynamic_update_slice" source_file="/fs04/fc37/adam/projects/psilocybin-prl-analyses/src/prl_hgf/fitting/hierarchical_patrl.py" source_line=378}
} // fused_dynamic_update_slice.43

fused_dynamic_update_slice.46 {
  param_0.90 = f64[192,48]{1,0} parameter(0)
  param_1.695 = f64[48]{0} parameter(1)
  bitcast.2252.1 = f64[1,48]{1,0} bitcast(param_1.695)
  param_2.575 = s64[] parameter(2)
  constant_357_36 = s64[] constant(0)
  compare.263.37 = pred[] compare(param_2.575, constant_357_36), direction=LT, metadata={op_name="jit(scan)/jit(main)/while/body/lt" source_file="/fs04/fc37/adam/projects/psilocybin-prl-analyses/src/prl_hgf/fitting/hierarchical_patrl.py" source_line=378}
  constant_356_19 = s64[] constant(192)
  add.339.37 = s64[] add(param_2.575, constant_356_19), metadata={op_name="jit(scan)/jit(main)/while/body/add" source_file="/fs04/fc37/adam/projects/psilocybin-prl-analyses/src/prl_hgf/fitting/hierarchical_patrl.py" source_line=378}
  select.509.37 = s64[] select(compare.263.37, add.339.37, param_2.575), metadata={op_name="jit(scan)/jit(main)/while/body/select_n" source_file="/fs04/fc37/adam/projects/psilocybin-prl-analyses/src/prl_hgf/fitting/hierarchical_patrl.py" source_line=378}
  ROOT dynamic-update-slice.870.1 = f64[192,48]{1,0} dynamic-update-slice(param_0.90, bitcast.2252.1, select.509.37, constant_357_36), metadata={op_name="jit(scan)/jit(main)/while/body/dynamic_update_slice" source_file="/fs04/fc37/adam/projects/psilocybin-prl-analyses/src/prl_hgf/fitting/hierarchical_patrl.py" source_line=378}
} // fused_dynamic_update_slice.46

fused_dynamic_update_slice.4 {
  param_0.48 = f64[192,48]{1,0} parameter(0)
  param_1.742 = f64[48,1]{1,0} parameter(1)
  bitcast.2010.9 = f64[48]{0} bitcast(param_1.742)
  multiply.872.5 = f64[48]{0} multiply(bitcast.2010.9, bitcast.2010.9), metadata={op_name="jit(scan)/jit(main)/while/body/jit(beliefs_propagation)/jit(continuous_node_posterior_update_ehgf)/jit(posterior_update_precision_continuous_node)/jit(precision_update)/integer_pow[y=2]" source_file="/fs04/fc37/adam/projects/psilocybin-prl-analyses/src/prl_hgf/fitting/hierarchical_patrl.py" source_line=362}
  constant_363_3 = f64[] constant(0.5)
  broadcast.462.clone.11 = f64[48]{0} broadcast(constant_363_3), dimensions={}
  multiply.873.3 = f64[48]{0} multiply(multiply.872.5, broadcast.462.clone.11), metadata={op_name="jit(scan)/jit(main)/while/body/jit(beliefs_propagation)/jit(continuous_node_posterior_update_ehgf)/jit(posterior_update_precision_continuous_node)/jit(precision_update)/mul" source_file="/fs04/fc37/adam/projects/psilocybin-prl-analyses/src/prl_hgf/fitting/hierarchical_patrl.py" source_line=362}
  bitcast.2766.1 = f64[1,48]{1,0} bitcast(multiply.873.3)
  param_2.632 = s64[] parameter(2)
  constant_357_29 = s64[] constant(0)
  compare.263.89 = pred[] compare(param_2.632, constant_357_29), direction=LT, metadata={op_name="jit(scan)/jit(main)/while/body/lt" source_file="/fs04/fc37/adam/projects/psilocybin-prl-analyses/src/prl_hgf/fitting/hierarchical_patrl.py" source_line=378}
  constant_356_45 = s64[] constant(192)
  add.339.89 = s64[] add(param_2.632, constant_356_45), metadata={op_name="jit(scan)/jit(main)/while/body/add" source_file="/fs04/fc37/adam/projects/psilocybin-prl-analyses/src/prl_hgf/fitting/hierarchical_patrl.py" source_line=378}
  select.509.89 = s64[] select(compare.263.89, add.339.89, param_2.632), metadata={op_name="jit(scan)/jit(main)/while/body/select_n" source_file="/fs04/fc37/adam/projects/psilocybin-prl-analyses/src/prl_hgf/fitting/hierarchical_patrl.py" source_line=378}
  ROOT dynamic-update-slice.914.1 = f64[192,48]{1,0} dynamic-update-slice(param_0.48, bitcast.2766.1, select.509.89, constant_357_29), metadata={op_name="jit(scan)/jit(main)/while/body/dynamic_update_slice" source_file="/fs04/fc37/adam/projects/psilocybin-prl-analyses/src/prl_hgf/fitting/hierarchical_patrl.py" source_line=378}
} // fused_dynamic_update_slice.4

fused_dynamic_update_slice.5 {
  param_0.49 = f64[192,48]{1,0} parameter(0)
  param_1.692 = f64[48,1]{1,0} parameter(1)
  bitcast.2010.5 = f64[48]{0} bitcast(param_1.692)
  constant_361_1 = f64[] constant(2)
  broadcast.459.clone.7 = f64[48]{0} broadcast(constant_361_1), dimensions={}
  multiply.888.3 = f64[48]{0} multiply(bitcast.2010.5, broadcast.459.clone.7), metadata={op_name="jit(scan)/jit(main)/while/body/jit(beliefs_propagation)/jit(continuous_node_posterior_update_ehgf)/jit(posterior_update_precision_continuous_node)/jit(precision_update)/mul" source_file="/fs04/fc37/adam/projects/psilocybin-prl-analyses/src/prl_hgf/fitting/hierarchical_patrl.py" source_line=362}
  bitcast.2755.1 = f64[1,48]{1,0} bitcast(multiply.888.3)
  param_2.624 = s64[] parameter(2)
  constant_357_33 = s64[] constant(0)
  compare.263.91 = pred[] compare(param_2.624, constant_357_33), direction=LT, metadata={op_name="jit(scan)/jit(main)/while/body/lt" source_file="/fs04/fc37/adam/projects/psilocybin-prl-analyses/src/prl_hgf/fitting/hierarchical_patrl.py" source_line=378}
  constant_356_46 = s64[] constant(192)
  add.339.91 = s64[] add(param_2.624, constant_356_46), metadata={op_name="jit(scan)/jit(main)/while/body/add" source_file="/fs04/fc37/adam/projects/psilocybin-prl-analyses/src/prl_hgf/fitting/hierarchical_patrl.py" source_line=378}
  select.509.91 = s64[] select(compare.263.91, add.339.91, param_2.624), metadata={op_name="jit(scan)/jit(main)/while/body/select_n" source_file="/fs04/fc37/adam/projects/psilocybin-prl-analyses/src/prl_hgf/fitting/hierarchical_patrl.py" source_line=378}
  ROOT dynamic-update-slice.913.1 = f64[192,48]{1,0} dynamic-update-slice(param_0.49, bitcast.2755.1, select.509.91, constant_357_33), metadata={op_name="jit(scan)/jit(main)/while/body/dynamic_update_slice" source_file="/fs04/fc37/adam/projects/psilocybin-prl-analyses/src/prl_hgf/fitting/hierarchical_patrl.py" source_line=378}
} // fused_dynamic_update_slice.5

fused_dynamic_update_slice.58 {
  param_0.134 = f64[192,48]{1,0} parameter(0)
  param_1.703 = f64[192]{0} parameter(1)
  param_2.583 = s64[] parameter(2)
  constant_357_44 = s64[] constant(0)
  compare.263.121 = pred[] compare(param_2.583, constant_357_44), direction=LT, metadata={op_name="jit(scan)/jit(main)/while/body/lt" source_file="/fs04/fc37/adam/projects/psilocybin-prl-analyses/src/prl_hgf/fitting/hierarchical_patrl.py" source_line=378}
  constant_356_61 = s64[] constant(192)
  add.339.121 = s64[] add(param_2.583, constant_356_61), metadata={op_name="jit(scan)/jit(main)/while/body/add" source_file="/fs04/fc37/adam/projects/psilocybin-prl-analyses/src/prl_hgf/fitting/hierarchical_patrl.py" source_line=378}
  select.509.121 = s64[] select(compare.263.121, add.339.121, param_2.583), metadata={op_name="jit(scan)/jit(main)/while/body/select_n" source_file="/fs04/fc37/adam/projects/psilocybin-prl-analyses/src/prl_hgf/fitting/hierarchical_patrl.py" source_line=378}
  dynamic-slice.39.2 = f64[1]{0} dynamic-slice(param_1.703, select.509.121), dynamic_slice_sizes={1}, metadata={op_name="jit(scan)/jit(main)/while/body/dynamic_slice[slice_sizes=(1,)]" source_file="/fs04/fc37/adam/projects/psilocybin-prl-analyses/src/prl_hgf/fitting/hierarchical_patrl.py" source_line=378}
  bitcast.1707.4 = f64[] bitcast(dynamic-slice.39.2)
  broadcast.464.3 = f64[1,48]{1,0} broadcast(bitcast.1707.4), dimensions={}, metadata={op_name="jit(scan)/jit(main)/while/body/broadcast_in_dim[shape=(1, 48) broadcast_dimensions=(1,)]" source_file="/fs04/fc37/adam/projects/psilocybin-prl-analyses/src/prl_hgf/fitting/hierarchical_patrl.py" source_line=378}
  ROOT dynamic-update-slice.907.1 = f64[192,48]{1,0} dynamic-update-slice(param_0.134, broadcast.464.3, select.509.121, constant_357_44), metadata={op_name="jit(scan)/jit(main)/while/body/dynamic_update_slice" source_file="/fs04/fc37/adam/projects/psilocybin-prl-analyses/src/prl_hgf/fitting/hierarchical_patrl.py" source_line=378}
} // fused_dynamic_update_slice.58

fused_dynamic_update_slice.14 {
  param_0.58 = f64[192,48]{1,0} parameter(0)
  param_1.680 = s64[48]{0} parameter(1)
  convert.86.3 = f64[48]{0} convert(param_1.680), metadata={op_name="jit(scan)/jit(main)/while/body/jit(beliefs_propagation)/jit(continuous_node_posterior_update_ehgf)/jit(posterior_update_mean_continuous_node)/convert_element_type[new_dtype=float64 weak_type=False sharding=None]" source_file="/fs04/fc37/adam/projects/psilocybin-prl-analyses/src/prl_hgf/fitting/hierarchical_patrl.py" source_line=362}
  bitcast.2626.1 = f64[1,48]{1,0} bitcast(convert.86.3)
  param_2.560 = s64[] parameter(2)
  constant_357_21 = s64[] constant(0)
  compare.263.111 = pred[] compare(param_2.560, constant_357_21), direction=LT, metadata={op_name="jit(scan)/jit(main)/while/body/lt" source_file="/fs04/fc37/adam/projects/psilocybin-prl-analyses/src/prl_hgf/fitting/hierarchical_patrl.py" source_line=378}
  constant_356_56 = s64[] constant(192)
  add.339.111 = s64[] add(param_2.560, constant_356_56), metadata={op_name="jit(scan)/jit(main)/while/body/add" source_file="/fs04/fc37/adam/projects/psilocybin-prl-analyses/src/prl_hgf/fitting/hierarchical_patrl.py" source_line=378}
  select.509.111 = s64[] select(compare.263.111, add.339.111, param_2.560), metadata={op_name="jit(scan)/jit(main)/while/body/select_n" source_file="/fs04/fc37/adam/projects/psilocybin-prl-analyses/src/prl_hgf/fitting/hierarchical_patrl.py" source_line=378}
  ROOT dynamic-update-slice.903.1 = f64[192,48]{1,0} dynamic-update-slice(param_0.58, bitcast.2626.1, select.509.111, constant_357_21), metadata={op_name="jit(scan)/jit(main)/while/body/dynamic_update_slice" source_file="/fs04/fc37/adam/projects/psilocybin-prl-analyses/src/prl_hgf/fitting/hierarchical_patrl.py" source_line=378}
} // fused_dynamic_update_slice.14

fused_dynamic_update_slice.20 {
  param_0.64 = f64[192,48]{1,0} parameter(0)
  param_1.702 = f64[48,1]{1,0} parameter(1)
  bitcast.2556.1 = f64[1,48]{1,0} bitcast(param_1.702)
  param_2.582 = s64[] parameter(2)
  constant_357_43 = s64[] constant(0)
  compare.263.99 = pred[] compare(param_2.582, constant_357_43), direction=LT, metadata={op_name="jit(scan)/jit(main)/while/body/lt" source_file="/fs04/fc37/adam/projects/psilocybin-prl-analyses/src/prl_hgf/fitting/hierarchical_patrl.py" source_line=378}
  constant_356_50 = s64[] constant(192)
  add.339.99 = s64[] add(param_2.582, constant_356_50), metadata={op_name="jit(scan)/jit(main)/while/body/add" source_file="/fs04/fc37/adam/projects/psilocybin-prl-analyses/src/prl_hgf/fitting/hierarchical_patrl.py" source_line=378}
  select.509.99 = s64[] select(compare.263.99, add.339.99, param_2.582), metadata={op_name="jit(scan)/jit(main)/while/body/select_n" source_file="/fs04/fc37/adam/projects/psilocybin-prl-analyses/src/prl_hgf/fitting/hierarchical_patrl.py" source_line=378}
  ROOT dynamic-update-slice.897.1 = f64[192,48]{1,0} dynamic-update-slice(param_0.64, bitcast.2556.1, select.509.99, constant_357_43), metadata={op_name="jit(scan)/jit(main)/while/body/dynamic_update_slice" source_file="/fs04/fc37/adam/projects/psilocybin-prl-analyses/src/prl_hgf/fitting/hierarchical_patrl.py" source_line=378}
} // fused_dynamic_update_slice.20

fused_dynamic_update_slice.29 {
  param_0.73 = f64[192,48]{1,0} parameter(0)
  param_1.714 = f64[48,1]{1,0} parameter(1)
  bitcast.2450.1 = f64[1,48]{1,0} bitcast(param_1.714)
  param_2.594 = s64[] parameter(2)
  constant_357_55 = s64[] constant(0)
  compare.263.77 = pred[] compare(param_2.594, constant_357_55), direction=LT, metadata={op_name="jit(scan)/jit(main)/while/body/lt" source_file="/fs04/fc37/adam/projects/psilocybin-prl-analyses/src/prl_hgf/fitting/hierarchical_patrl.py" source_line=378}
  constant_356_39 = s64[] constant(192)
  add.339.77 = s64[] add(param_2.594, constant_356_39), metadata={op_name="jit(scan)/jit(main)/while/body/add" source_file="/fs04/fc37/adam/projects/psilocybin-prl-analyses/src/prl_hgf/fitting/hierarchical_patrl.py" source_line=378}
  select.509.77 = s64[] select(compare.263.77, add.339.77, param_2.594), metadata={op_name="jit(scan)/jit(main)/while/body/select_n" source_file="/fs04/fc37/adam/projects/psilocybin-prl-analyses/src/prl_hgf/fitting/hierarchical_patrl.py" source_line=378}
  ROOT dynamic-update-slice.888.1 = f64[192,48]{1,0} dynamic-update-slice(param_0.73, bitcast.2450.1, select.509.77, constant_357_55), metadata={op_name="jit(scan)/jit(main)/while/body/dynamic_update_slice" source_file="/fs04/fc37/adam/projects/psilocybin-prl-analyses/src/prl_hgf/fitting/hierarchical_patrl.py" source_line=378}
} // fused_dynamic_update_slice.29

fused_dynamic_update_slice.47 {
  param_0.91 = f64[192,48]{1,0} parameter(0)
  param_1.693 = f64[48,1]{1,0} parameter(1)
  bitcast.2241.1 = f64[1,48]{1,0} bitcast(param_1.693)
  param_2.573 = s64[] parameter(2)
  constant_357_34 = s64[] constant(0)
  compare.263.35 = pred[] compare(param_2.573, constant_357_34), direction=LT, metadata={op_name="jit(scan)/jit(main)/while/body/lt" source_file="/fs04/fc37/adam/projects/psilocybin-prl-analyses/src/prl_hgf/fitting/hierarchical_patrl.py" source_line=378}
  constant_356_18 = s64[] constant(192)
  add.339.35 = s64[] add(param_2.573, constant_356_18), metadata={op_name="jit(scan)/jit(main)/while/body/add" source_file="/fs04/fc37/adam/projects/psilocybin-prl-analyses/src/prl_hgf/fitting/hierarchical_patrl.py" source_line=378}
  select.509.35 = s64[] select(compare.263.35, add.339.35, param_2.573), metadata={op_name="jit(scan)/jit(main)/while/body/select_n" source_file="/fs04/fc37/adam/projects/psilocybin-prl-analyses/src/prl_hgf/fitting/hierarchical_patrl.py" source_line=378}
  ROOT dynamic-update-slice.869.1 = f64[192,48]{1,0} dynamic-update-slice(param_0.91, bitcast.2241.1, select.509.35, constant_357_34), metadata={op_name="jit(scan)/jit(main)/while/body/dynamic_update_slice" source_file="/fs04/fc37/adam/projects/psilocybin-prl-analyses/src/prl_hgf/fitting/hierarchical_patrl.py" source_line=378}
} // fused_dynamic_update_slice.47

fused_dynamic_update_slice.48 {
  param_0.92 = f64[192,48]{1,0} parameter(0)
  param_1.691 = f64[48]{0} parameter(1)
  bitcast.2230.1 = f64[1,48]{1,0} bitcast(param_1.691)
  param_2.571 = s64[] parameter(2)
  constant_357_32 = s64[] constant(0)
  compare.263.33 = pred[] compare(param_2.571, constant_357_32), direction=LT, metadata={op_name="jit(scan)/jit(main)/while/body/lt" source_file="/fs04/fc37/adam/projects/psilocybin-prl-analyses/src/prl_hgf/fitting/hierarchical_patrl.py" source_line=378}
  constant_356_17 = s64[] constant(192)
  add.339.33 = s64[] add(param_2.571, constant_356_17), metadata={op_name="jit(scan)/jit(main)/while/body/add" source_file="/fs04/fc37/adam/projects/psilocybin-prl-analyses/src/prl_hgf/fitting/hierarchical_patrl.py" source_line=378}
  select.509.33 = s64[] select(compare.263.33, add.339.33, param_2.571), metadata={op_name="jit(scan)/jit(main)/while/body/select_n" source_file="/fs04/fc37/adam/projects/psilocybin-prl-analyses/src/prl_hgf/fitting/hierarchical_patrl.py" source_line=378}
  ROOT dynamic-update-slice.868.1 = f64[192,48]{1,0} dynamic-update-slice(param_0.92, bitcast.2230.1, select.509.33, constant_357_32), metadata={op_name="jit(scan)/jit(main)/while/body/dynamic_update_slice" source_file="/fs04/fc37/adam/projects/psilocybin-prl-analyses/src/prl_hgf/fitting/hierarchical_patrl.py" source_line=378}
} // fused_dynamic_update_slice.48

fused_dynamic_update_slice.49 {
  param_0.93 = f64[192,48]{1,0} parameter(0)
  constant_358_14 = f64[] constant(1)
…
  get-tuple-element.5736 = pred[192,48,1]{2,1,0} get-tuple-element(call), index=23
  get-tuple-element.5737 = pred[192,48,1]{2,1,0} get-tuple-element(call), index=24
  get-tuple-element.5738 = pred[192,48,1]{2,1,0} get-tuple-element(call), index=25
  get-tuple-element.5739 = pred[192,48]{1,0} get-tuple-element(call), index=26
  get-tuple-element.5740 = pred[192,48]{1,0} get-tuple-element(call), index=27
  get-tuple-element.5741 = pred[192,48]{1,0} get-tuple-element(call), index=28
  get-tuple-element.5742 = pred[192,48]{1,0} get-tuple-element(call), index=29
  get-tuple-element.5743 = pred[192,48]{1,0} get-tuple-element(call), index=30
  get-tuple-element.5744 = pred[192,48]{1,0} get-tuple-element(call), index=31
  get-tuple-element.5745 = s32[192]{0} get-tuple-element(call), index=32
  get-tuple-element.5746 = s32[192,48]{1,0} get-tuple-element(call), index=33
  get-tuple-element.5747 = f64[192]{0} get-tuple-element(call), index=34
  get-tuple-element.5748 = f64[192,48]{1,0} get-tuple-element(call), index=35
  get-tuple-element.5749 = f64[192]{0} get-tuple-element(call), index=36
  get-tuple-element.5750 = (f64[192,48]{1,0}, f64[192,48]{1,0}, f64[192,48]{1,0}, f64[192,48]{1,0}, f64[192,48]{1,0}, /*index=5*/f64[192,48]{1,0}, f64[192,48]{1,0}, f64[192,48]{1,0}, f64[192,48]{1,0}, f64[192,48]{1,0}, /*index=10*/f64[192,48]{1,0}, f64[192,48]{1,0}, f64[192,48]{1,0}, f64[192,48]{1,0}, f64[192,48]{1,0}, /*index=15*/f64[192,48]{1,0}, f64[192,48]{1,0}, f64[192,48]{1,0}, f64[192,48]{1,0}, f64[192,48]{1,0}, /*index=20*/f64[192,48]{1,0}, f64[192,48]{1,0}, f64[192,48]{1,0}, f64[192,48]{1,0}, f64[192,48]{1,0}, /*index=25*/f64[192,48]{1,0}, f64[192,48]{1,0}, f64[192,48]{1,0}, f64[192,48]{1,0}, f64[192,48]{1,0}, /*index=30*/f64[192,48]{1,0}, f64[192,48]{1,0}, f64[192,48]{1,0}, f64[192,48]{1,0}, f64[192,48]{1,0}, /*index=35*/f64[192,48]{1,0}, f64[192,48]{1,0}, f64[192,48]{1,0}, f64[192,48]{1,0}, f64[192,48]{1,0}, /*index=40*/f64[192,48]{1,0}, f64[192,48]{1,0}, f64[192,48]{1,0}, f64[192,48]{1,0}, f64[192,48]{1,0}) get-tuple-element(call), index=37
  get-tuple-element.5676 = f64[192,48]{1,0} get-tuple-element(get-tuple-element.5750), index=44
  bitcast.3251 = f64[192,48]{1,0} bitcast(get-tuple-element.5676)
  get-tuple-element.5675 = f64[192,48]{1,0} get-tuple-element(get-tuple-element.5750), index=43
  bitcast.3250 = f64[192,48]{1,0} bitcast(get-tuple-element.5675)
  get-tuple-element.5674 = f64[192,48]{1,0} get-tuple-element(get-tuple-element.5750), index=42
  bitcast.3249 = f64[192,48]{1,0} bitcast(get-tuple-element.5674)
  get-tuple-element.5673 = f64[192,48]{1,0} get-tuple-element(get-tuple-element.5750), index=41
  bitcast.3248 = f64[192,48]{1,0} bitcast(get-tuple-element.5673)
  get-tuple-element.5672 = f64[192,48]{1,0} get-tuple-element(get-tuple-element.5750), index=40
  bitcast.3247 = f64[192,48]{1,0} bitcast(get-tuple-element.5672)
  get-tuple-element.5671 = f64[192,48]{1,0} get-tuple-element(get-tuple-element.5750), index=39
  bitcast.3246 = f64[192,48]{1,0} bitcast(get-tuple-element.5671)
  get-tuple-element.5670 = f64[192,48]{1,0} get-tuple-element(get-tuple-element.5750), index=38
  bitcast.3245 = f64[192,48]{1,0} bitcast(get-tuple-element.5670)
  get-tuple-element.5669 = f64[192,48]{1,0} get-tuple-element(get-tuple-element.5750), index=37
  bitcast.3244 = f64[192,48]{1,0} bitcast(get-tuple-element.5669)
  get-tuple-element.5668 = f64[192,48]{1,0} get-tuple-element(get-tuple-element.5750), index=36
  bitcast.3243 = f64[192,48]{1,0} bitcast(get-tuple-element.5668)
  get-tuple-element.5667 = f64[192,48]{1,0} get-tuple-element(get-tuple-element.5750), index=35
  bitcast.3242 = f64[192,48]{1,0} bitcast(get-tuple-element.5667)
  get-tuple-element.5666 = f64[192,48]{1,0} get-tuple-element(get-tuple-element.5750), index=34
  bitcast.3241 = f64[192,48]{1,0} bitcast(get-tuple-element.5666)
  get-tuple-element.5665 = f64[192,48]{1,0} get-tuple-element(get-tuple-element.5750), index=33
  bitcast.3240 = f64[192,48]{1,0} bitcast(get-tuple-element.5665)
  get-tuple-element.5664 = f64[192,48]{1,0} get-tuple-element(get-tuple-element.5750), index=32
  bitcast.3239 = f64[192,48]{1,0} bitcast(get-tuple-element.5664)
  get-tuple-element.5663 = f64[192,48]{1,0} get-tuple-element(get-tuple-element.5750), index=31
  bitcast.3238 = f64[192,48]{1,0} bitcast(get-tuple-element.5663)
  get-tuple-element.5662 = f64[192,48]{1,0} get-tuple-element(get-tuple-element.5750), index=30
  bitcast.3237 = f64[192,48]{1,0} bitcast(get-tuple-element.5662)
  get-tuple-element.5661 = f64[192,48]{1,0} get-tuple-element(get-tuple-element.5750), index=29
  bitcast.3236 = f64[192,48]{1,0} bitcast(get-tuple-element.5661)
  get-tuple-element.5660 = f64[192,48]{1,0} get-tuple-element(get-tuple-element.5750), index=28
  bitcast.3235 = f64[192,48]{1,0} bitcast(get-tuple-element.5660)
  get-tuple-element.5659 = f64[192,48]{1,0} get-tuple-element(get-tuple-element.5750), index=27
  bitcast.3234 = f64[192,48]{1,0} bitcast(get-tuple-element.5659)
  get-tuple-element.5658 = f64[192,48]{1,0} get-tuple-element(get-tuple-element.5750), index=26
  bitcast.3233 = f64[192,48]{1,0} bitcast(get-tuple-element.5658)
  get-tuple-element.5657 = f64[192,48]{1,0} get-tuple-element(get-tuple-element.5750), index=25
  bitcast.3232 = f64[192,48]{1,0} bitcast(get-tuple-element.5657)
  get-tuple-element.5656 = f64[192,48]{1,0} get-tuple-element(get-tuple-element.5750), index=24
  bitcast.3231 = f64[192,48]{1,0} bitcast(get-tuple-element.5656)
  get-tuple-element.5655 = f64[192,48]{1,0} get-tuple-element(get-tuple-element.5750), index=23
  bitcast.3230 = f64[192,48]{1,0} bitcast(get-tuple-element.5655)
  get-tuple-element.5654 = f64[192,48]{1,0} get-tuple-element(get-tuple-element.5750), index=22
  bitcast.3229 = f64[192,48]{1,0} bitcast(get-tuple-element.5654)
  get-tuple-element.5653 = f64[192,48]{1,0} get-tuple-element(get-tuple-element.5750), index=21
  bitcast.3228 = f64[192,48]{1,0} bitcast(get-tuple-element.5653)
  get-tuple-element.5652 = f64[192,48]{1,0} get-tuple-element(get-tuple-element.5750), index=20
  bitcast.3227 = f64[192,48]{1,0} bitcast(get-tuple-element.5652)
  get-tuple-element.5651 = f64[192,48]{1,0} get-tuple-element(get-tuple-element.5750), index=19
  bitcast.3226 = f64[192,48]{1,0} bitcast(get-tuple-element.5651)
  get-tuple-element.5650 = f64[192,48]{1,0} get-tuple-element(get-tuple-element.5750), index=18
  bitcast.3225 = f64[192,48]{1,0} bitcast(get-tuple-element.5650)
  get-tuple-element.5649 = f64[192,48]{1,0} get-tuple-element(get-tuple-element.5750), index=17
  bitcast.3224 = f64[192,48]{1,0} bitcast(get-tuple-element.5649)
  get-tuple-element.5648 = f64[192,48]{1,0} get-tuple-element(get-tuple-element.5750), index=16
  bitcast.3223 = f64[192,48]{1,0} bitcast(get-tuple-element.5648)
  get-tuple-element.5647 = f64[192,48]{1,0} get-tuple-element(get-tuple-element.5750), index=15
  bitcast.3222 = f64[192,48]{1,0} bitcast(get-tuple-element.5647)
  get-tuple-element.5646 = f64[192,48]{1,0} get-tuple-element(get-tuple-element.5750), index=14
  bitcast.3221 = f64[192,48]{1,0} bitcast(get-tuple-element.5646)
  get-tuple-element.5645 = f64[192,48]{1,0} get-tuple-element(get-tuple-element.5750), index=13
  bitcast.3220 = f64[192,48]{1,0} bitcast(get-tuple-element.5645)
  get-tuple-element.5644 = f64[192,48]{1,0} get-tuple-element(get-tuple-element.5750), index=12
  bitcast.3219 = f64[192,48]{1,0} bitcast(get-tuple-element.5644)
  get-tuple-element.5643 = f64[192,48]{1,0} get-tuple-element(get-tuple-element.5750), index=11
  bitcast.3218 = f64[192,48]{1,0} bitcast(get-tuple-element.5643)
  get-tuple-element.5642 = f64[192,48]{1,0} get-tuple-element(get-tuple-element.5750), index=10
  bitcast.3217 = f64[192,48]{1,0} bitcast(get-tuple-element.5642)
  get-tuple-element.5641 = f64[192,48]{1,0} get-tuple-element(get-tuple-element.5750), index=9
  bitcast.3216 = f64[192,48]{1,0} bitcast(get-tuple-element.5641)
  get-tuple-element.5640 = f64[192,48]{1,0} get-tuple-element(get-tuple-element.5750), index=8
  bitcast.3215 = f64[192,48]{1,0} bitcast(get-tuple-element.5640)
  get-tuple-element.5639 = f64[192,48]{1,0} get-tuple-element(get-tuple-element.5750), index=7
  bitcast.3214 = f64[192,48]{1,0} bitcast(get-tuple-element.5639)
  get-tuple-element.5638 = f64[192,48]{1,0} get-tuple-element(get-tuple-element.5750), index=6
  bitcast.3213 = f64[192,48]{1,0} bitcast(get-tuple-element.5638)
  get-tuple-element.5637 = f64[192,48]{1,0} get-tuple-element(get-tuple-element.5750), index=5
  bitcast.3212 = f64[192,48]{1,0} bitcast(get-tuple-element.5637)
  get-tuple-element.5636 = f64[192,48]{1,0} get-tuple-element(get-tuple-element.5750), index=4
  bitcast.3211 = f64[192,48]{1,0} bitcast(get-tuple-element.5636)
  get-tuple-element.5635 = f64[192,48]{1,0} get-tuple-element(get-tuple-element.5750), index=3
  bitcast.3210 = f64[192,48]{1,0} bitcast(get-tuple-element.5635)
  get-tuple-element.5634 = f64[192,48]{1,0} get-tuple-element(get-tuple-element.5750), index=2
  bitcast.3209 = f64[192,48]{1,0} bitcast(get-tuple-element.5634)
  get-tuple-element.5633 = f64[192,48]{1,0} get-tuple-element(get-tuple-element.5750), index=1
  get-tuple-element.5632 = f64[192,48]{1,0} get-tuple-element(get-tuple-element.5750), index=0
  bitcast.3207 = f64[192,48]{1,0} bitcast(get-tuple-element.5632)
  bitcast.3208 = f64[192,48]{1,0} bitcast(get-tuple-element.5633)
  tuple.180 = (s64[], f64[48]{0}, f64[48]{0}, f64[48]{0}, f64[48]{0}, /*index=5*/s32[48]{0}, f64[48]{0}, f64[48]{0}, f64[48]{0}, f64[48]{0}, /*index=10*/f64[48]{0}, f64[48]{0}, s64[48]{0}, f64[48]{0}, f64[48]{0}, /*index=15*/f64[48]{0}, f64[48]{0}, f64[48]{0}, f64[48]{0}, f64[48]{0}, /*index=20*/f64[48,1]{1,0}, f64[48,1]{1,0}, f64[48]{0}, f64[48]{0}, f64[48]{0}, /*index=25*/f64[48]{0}, f64[48]{0}, f64[48]{0}, f64[48]{0}, f64[48]{0}, /*index=30*/f64[48]{0}, f64[48,1]{1,0}, f64[192,48]{1,0}, f64[192,48]{1,0}, f64[192,48]{1,0}, /*index=35*/f64[192,48]{1,0}, pred[192,48]{1,0}, f64[192,48]{1,0}, f64[192,48]{1,0}, f64[192,48]{1,0}, /*index=40*/f64[192,48]{1,0}, f64[192,48]{1,0}, f64[192,48]{1,0}, f64[192,48]{1,0}, pred[192,48]{1,0}, /*index=45*/f64[192,48]{1,0}, f64[192,48]{1,0}, f64[192,48]{1,0}, f64[192,48]{1,0}, f64[192,48]{1,0}, /*index=50*/f64[192,48]{1,0}, f64[192]{0}, f64[192,48]{1,0}, f64[192,48]{1,0}, s32[192]{0}, /*index=55*/f64[192,48]{1,0}, f64[192]{0}, f64[192,48]{1,0}, f64[192,48]{1,0}, f64[192,48]{1,0}, /*index=60*/pred[192,48]{1,0}, f64[192,48]{1,0}, f64[192,48]{1,0}, f64[192,48]{1,0}, f64[192,48]{1,0}, /*index=65*/f64[192,48]{1,0}, f64[192,48]{1,0}, f64[192,48]{1,0}, f64[192,48]{1,0}, f64[192,48]{1,0}, /*index=70*/f64[192,48]{1,0}, f64[192,48]{1,0}, f64[192,48]{1,0}, f64[192,48]{1,0}, f64[192,48]{1,0}, /*index=75*/f64[192,48]{1,0}, f64[192,48]{1,0}, s32[192,48]{1,0}, pred[192,48]{1,0}, pred[192,48,1]{2,1,0}, /*index=80*/f64[192,48]{1,0}, f64[192,48]{1,0}, pred[192,48]{1,0}, pred[192,48,1]{2,1,0}, f64[192,48]{1,0}, /*index=85*/f64[192,48]{1,0}, f64[192,48]{1,0}, f64[192,48]{1,0}, f64[192,48]{1,0}, pred[192,48]{1,0}, /*index=90*/pred[192,48]{1,0}, pred[192,48,1]{2,1,0}, f64[192,48,1]{2,1,0}, s32[192]{0}, f64[192]{0}, /*index=95*/f64[48]{0}, f64[48]{0}, f64[48]{0}) tuple(get-tuple-element.5713, get-tuple-element.5734, get-tuple-element.5733, get-tuple-element.5732, get-tuple-element.5731, /*index=5*/get-tuple-element.5714, get-tuple-element.5730, get-tuple-element.5729, Arg_11.12.0, get-tuple-element.5728, /*index=10*/get-tuple-element.5727, get-tuple-element.5726, Arg_15.16.0, get-tuple-element.5725, get-tuple-element.5724, /*index=15*/get-tuple-element.5723, get-tuple-element.5722, get-tuple-element.5721, Arg_21.22.0, Arg_22.23.0, /*index=20*/Arg_23.24.0, Arg_24.25.0, Arg_25.26.0, get-tuple-element.5720, get-tuple-element.5719, /*index=25*/get-tuple-element.5718, get-tuple-element.5717, get-tuple-element.5716, get-tuple-element.5715, Arg_35.36.0, /*index=30*/Arg_36.37.0, Arg_37.38.0, get-tuple-element.5748, bitcast.3207, bitcast.3208, /*index=35*/bitcast.3209, get-tuple-element.5735, bitcast.3210, bitcast.3211, bitcast.3212, /*index=40*/bitcast.3213, bitcast.3214, bitcast.3215, bitcast.3216, get-tuple-element.5743, /*index=45*/bitcast.3217, bitcast.3218, bitcast.3219, bitcast.3220, bitcast.3221, /*index=50*/bitcast.3222, get-tuple-element.5747, bitcast.3223, bitcast.3224, get-tuple-element.5745, /*index=55*/bitcast.3225, get-tuple-element.5749, bitcast.3226, bitcast.3227, bitcast.3228, /*index=60*/get-tuple-element.5744, bitcast.3229, bitcast.3230, bitcast.3231, bitcast.3232, /*index=65*/bitcast.3233, bitcast.3234, bitcast.3235, bitcast.3236, bitcast.3237, /*index=70*/bitcast.3238, bitcast.3239, bitcast.3240, bitcast.3241, bitcast.3242, /*index=75*/bitcast.3243, bitcast.3244, get-tuple-element.5746, get-tuple-element.5742, get-tuple-element.5736, /*index=80*/bitcast.3245, bitcast.3246, get-tuple-element.5741, get-tuple-element.5737, bitcast.3247, /*index=85*/bitcast.3248, bitcast.3249, bitcast.3250, bitcast.3251, get-tuple-element.5739, /*index=90*/get-tuple-element.5740, get-tuple-element.5738, Arg_38.39.0, Arg_39.40.0, Arg_40.41.0, /*index=95*/Arg_0.1.0, Arg_1.2.0, Arg_2.3.0)
  while.11.0 = (s64[], f64[48]{0}, f64[48]{0}, f64[48]{0}, f64[48]{0}, /*index=5*/s32[48]{0}, f64[48]{0}, f64[48]{0}, f64[48]{0}, f64[48]{0}, /*index=10*/f64[48]{0}, f64[48]{0}, s64[48]{0}, f64[48]{0}, f64[48]{0}, /*index=15*/f64[48]{0}, f64[48]{0}, f64[48]{0}, f64[48]{0}, f64[48]{0}, /*index=20*/f64[48,1]{1,0}, f64[48,1]{1,0}, f64[48]{0}, f64[48]{0}, f64[48]{0}, /*index=25*/f64[48]{0}, f64[48]{0}, f64[48]{0}, f64[48]{0}, f64[48]{0}, /*index=30*/f64[48]{0}, f64[48,1]{1,0}, f64[192,48]{1,0}, f64[192,48]{1,0}, f64[192,48]{1,0}, /*index=35*/f64[192,48]{1,0}, pred[192,48]{1,0}, f64[192,48]{1,0}, f64[192,48]{1,0}, f64[192,48]{1,0}, /*index=40*/f64[192,48]{1,0}, f64[192,48]{1,0}, f64[192,48]{1,0}, f64[192,48]{1,0}, pred[192,48]{1,0}, /*index=45*/f64[192,48]{1,0}, f64[192,48]{1,0}, f64[192,48]{1,0}, f64[192,48]{1,0}, f64[192,48]{1,0}, /*index=50*/f64[192,48]{1,0}, f64[192]{0}, f64[192,48]{1,0}, f64[192,48]{1,0}, s32[192]{0}, /*index=55*/f64[192,48]{1,0}, f64[192]{0}, f64[192,48]{1,0}, f64[192,48]{1,0}, f64[192,48]{1,0}, /*index=60*/pred[192,48]{1,0}, f64[192,48]{1,0}, f64[192,48]{1,0}, f64[192,48]{1,0}, f64[192,48]{1,0}, /*index=65*/f64[192,48]{1,0}, f64[192,48]{1,0}, f64[192,48]{1,0}, f64[192,48]{1,0}, f64[192,48]{1,0}, /*index=70*/f64[192,48]{1,0}, f64[192,48]{1,0}, f64[192,48]{1,0}, f64[192,48]{1,0}, f64[192,48]{1,0}, /*index=75*/f64[192,48]{1,0}, f64[192,48]{1,0}, s32[192,48]{1,0}, pred[192,48]{1,0}, pred[192,48,1]{2,1,0}, /*index=80*/f64[192,48]{1,0}, f64[192,48]{1,0}, pred[192,48]{1,0}, pred[192,48,1]{2,1,0}, f64[192,48]{1,0}, /*index=85*/f64[192,48]{1,0}, f64[192,48]{1,0}, f64[192,48]{1,0}, f64[192,48]{1,0}, pred[192,48]{1,0}, /*index=90*/pred[192,48]{1,0}, pred[192,48,1]{2,1,0}, f64[192,48,1]{2,1,0}, s32[192]{0}, f64[192]{0}, /*index=95*/f64[48]{0}, f64[48]{0}, f64[48]{0}) while(tuple.180), condition=region_5.1726.clone.clone.clone.clone.clone.clone.clone.clone.clone.clone.clone.clone, body=region_0.1122.clone.clone.clone.clone.clone.clone.clone.clone.clone.clone.clone.clone, metadata={op_name="jit(scan)/jit(main)/while[cond_nconsts=0 body_nconsts=6]" source_file="/fs04/fc37/adam/projects/psilocybin-prl-analyses/src/prl_hgf/fitting/hierarchical_patrl.py" source_line=378}, backend_config={"known_trip_count":{"n":"192"}}
  get-tuple-element.5570 = f64[192,48]{1,0} get-tuple-element(while.11.0), index=84, metadata={op_name="jit(scan)/jit(main)/while[cond_nconsts=0 body_nconsts=6]" source_file="/fs04/fc37/adam/projects/psilocybin-prl-analyses/src/prl_hgf/fitting/hierarchical_patrl.py" source_line=378}
  get-tuple-element.5576 = f64[192,48]{1,0} get-tuple-element(while.11.0), index=76, metadata={op_name="jit(scan)/jit(main)/while[cond_nconsts=0 body_nconsts=6]" source_file="/fs04/fc37/adam/projects/psilocybin-prl-analyses/src/prl_hgf/fitting/hierarchical_patrl.py" source_line=378}
  get-tuple-element.5571 = f64[192,48]{1,0} get-tuple-element(while.11.0), index=71, metadata={op_name="jit(scan)/jit(main)/while[cond_nconsts=0 body_nconsts=6]" source_file="/fs04/fc37/adam/projects/psilocybin-prl-analyses/src/prl_hgf/fitting/hierarchical_patrl.py" source_line=378}
  get-tuple-element.5568 = f64[192,48]{1,0} get-tuple-element(while.11.0), index=70, metadata={op_name="jit(scan)/jit(main)/while[cond_nconsts=0 body_nconsts=6]" source_file="/fs04/fc37/adam/projects/psilocybin-prl-analyses/src/prl_hgf/fitting/hierarchical_patrl.py" source_line=378}
  get-tuple-element.5567 = f64[192,48]{1,0} get-tuple-element(while.11.0), index=69, metadata={op_name="jit(scan)/jit(main)/while[cond_nconsts=0 body_nconsts=6]" source_file="/fs04/fc37/adam/projects/psilocybin-prl-analyses/src/prl_hgf/fitting/hierarchical_patrl.py" source_line=378}
  get-tuple-element.5547 = f64[192,48]{1,0} get-tuple-element(while.11.0), index=64, metadata={op_name="jit(scan)/jit(main)/while[cond_nconsts=0 body_nconsts=6]" source_file="/fs04/fc37/adam/projects/psilocybin-prl-analyses/src/prl_hgf/fitting/hierarchical_patrl.py" source_line=378}
  get-tuple-element.5546 = f64[192]{0} get-tuple-element(while.11.0), index=51, metadata={op_name="jit(scan)/jit(main)/while[cond_nconsts=0 body_nconsts=6]" source_file="/fs04/fc37/adam/projects/psilocybin-prl-analyses/src/prl_hgf/fitting/hierarchical_patrl.py" source_line=378}
  get-tuple-element.5530 = f64[192,48]{1,0} get-tuple-element(while.11.0), index=48, metadata={op_name="jit(scan)/jit(main)/while[cond_nconsts=0 body_nconsts=6]" source_file="/fs04/fc37/adam/projects/psilocybin-prl-analyses/src/prl_hgf/fitting/hierarchical_patrl.py" source_line=378}
  get-tuple-element.5524 = f64[192,48]{1,0} get-tuple-element(while.11.0), index=40, metadata={op_name="jit(scan)/jit(main)/while[cond_nconsts=0 body_nconsts=6]" source_file="/fs04/fc37/adam/projects/psilocybin-prl-analyses/src/prl_hgf/fitting/hierarchical_patrl.py" source_line=378}
  get-tuple-element.5563 = f64[192,48]{1,0} get-tuple-element(while.11.0), index=35, metadata={op_name="jit(scan)/jit(main)/while[cond_nconsts=0 body_nconsts=6]" source_file="/fs04/fc37/adam/projects/psilocybin-prl-analyses/src/prl_hgf/fitting/hierarchical_patrl.py" source_line=378}
  get-tuple-element.5561 = f64[192,48]{1,0} get-tuple-element(while.11.0), index=33, metadata={op_name="jit(scan)/jit(main)/while[cond_nconsts=0 body_nconsts=6]" source_file="/fs04/fc37/adam/projects/psilocybin-prl-analyses/src/prl_hgf/fitting/hierarchical_patrl.py" source_line=378}
  get-tuple-element.5577 = pred[192,48]{1,0} get-tuple-element(while.11.0), index=89, metadata={op_name="jit(scan)/jit(main)/while[cond_nconsts=0 body_nconsts=6]" source_file="/fs04/fc37/adam/projects/psilocybin-prl-analyses/src/prl_hgf/fitting/hierarchical_patrl.py" source_line=378}
  get-tuple-element.5575 = f64[192,48]{1,0} get-tuple-element(while.11.0), index=88, metadata={op_name="jit(scan)/jit(main)/while[cond_nconsts=0 body_nconsts=6]" source_file="/fs04/fc37/adam/projects/psilocybin-prl-analyses/src/prl_hgf/fitting/hierarchical_patrl.py" source_line=378}
  get-tuple-element.5574 = f64[192,48]{1,0} get-tuple-element(while.11.0), index=87, metadata={op_name="jit(scan)/jit(main)/while[cond_nconsts=0 body_nconsts=6]" source_file="/fs04/fc37/adam/projects/psilocybin-prl-analyses/src/prl_hgf/fitting/hierarchical_patrl.py" source_line=378}
  get-tuple-element.5573 = f64[192,48]{1,0} get-tuple-element(while.11.0), index=86, metadata={op_name="jit(scan)/jit(main)/while[cond_nconsts=0 body_nconsts=6]" source_file="/fs04/fc37/adam/projects/psilocybin-prl-analyses/src/prl_hgf/fitting/hierarchical_patrl.py" source_line=378}
  get-tuple-element.5572 = f64[192,48]{1,0} get-tuple-element(while.11.0), index=85, metadata={op_name="jit(scan)/jit(main)/while[cond_nconsts=0 body_nconsts=6]" source_file="/fs04/fc37/adam/projects/psilocybin-prl-analyses/src/prl_hgf/fitting/hierarchical_patrl.py" source_line=378}
  get-tuple-element.5578 = pred[192,48]{1,0} get-tuple-element(while.11.0), index=90, metadata={op_name="jit(scan)/jit(main)/while[cond_nconsts=0 body_nconsts=6]" source_file="/fs04/fc37/adam/projects/psilocybin-prl-analyses/src/prl_hgf/fitting/hierarchical_patrl.py" source_line=378}
  get-tuple-element.5566 = pred[192,48,1]{2,1,0} get-tuple-element(while.11.0), index=83, metadata={op_name="jit(scan)/jit(main)/while[cond_nconsts=0 body_nconsts=6]" source_file="/fs04/fc37/adam/projects/psilocybin-prl-analyses/src/prl_hgf/fitting/hierarchical_patrl.py" source_line=378}
  get-tuple-element.5565 = pred[192,48]{1,0} get-tuple-element(while.11.0), index=82, metadata={op_name="jit(scan)/jit(main)/while[cond_nconsts=0 body_nconsts=6]" source_file="/fs04/fc37/adam/projects/psilocybin-prl-analyses/src/prl_hgf/fitting/hierarchical_patrl.py" source_line=378}
  get-tuple-element.5564 = f64[192,48]{1,0} get-tuple-element(while.11.0), index=81, metadata={op_name="jit(scan)/jit(main)/while[cond_nconsts=0 body_nconsts=6]" source_file="/fs04/fc37/adam/projects/psilocybin-prl-analyses/src/prl_hgf/fitting/hierarchical_patrl.py" source_line=378}
  get-tuple-element.5562 = f64[192,48]{1,0} get-tuple-element(while.11.0), index=80, metadata={op_name="jit(scan)/jit(main)/while[cond_nconsts=0 body_nconsts=6]" source_file="/fs04/fc37/adam/projects/psilocybin-prl-analyses/src/prl_hgf/fitting/hierarchical_patrl.py" source_line=378}
  get-tuple-element.5560 = pred[192,48,1]{2,1,0} get-tuple-element(while.11.0), index=79, metadata={op_name="jit(scan)/jit(main)/while[cond_nconsts=0 body_nconsts=6]" source_file="/fs04/fc37/adam/projects/psilocybin-prl-analyses/src/prl_hgf/fitting/hierarchical_patrl.py" source_line=378}
  get-tuple-element.5559 = pred[192,48]{1,0} get-tuple-element(while.11.0), index=78, metadata={op_name="jit(scan)/jit(main)/while[cond_nconsts=0 body_nconsts=6]" source_file="/fs04/fc37/adam/projects/psilocybin-prl-analyses/src/prl_hgf/fitting/hierarchical_patrl.py" source_line=378}
  get-tuple-element.5558 = s32[192,48]{1,0} get-tuple-element(while.11.0), index=77, metadata={op_name="jit(scan)/jit(main)/while[cond_nconsts=0 body_nconsts=6]" source_file="/fs04/fc37/adam/projects/psilocybin-prl-analyses/src/prl_hgf/fitting/hierarchical_patrl.py" source_line=378}
  get-tuple-element.5556 = f64[192,48]{1,0} get-tuple-element(while.11.0), index=75, metadata={op_name="jit(scan)/jit(main)/while[cond_nconsts=0 body_nconsts=6]" source_file="/fs04/fc37/adam/projects/psilocybin-prl-analyses/src/prl_hgf/fitting/hierarchical_patrl.py" source_line=378}
  get-tuple-element.5555 = f64[192,48]{1,0} get-tuple-element(while.11.0), index=74, metadata={op_name="jit(scan)/jit(main)/while[cond_nconsts=0 body_nconsts=6]" source_file="/fs04/fc37/adam/projects/psilocybin-prl-analyses/src/prl_hgf/fitting/hierarchical_patrl.py" source_line=378}
  get-tuple-element.5554 = f64[192,48]{1,0} get-tuple-element(while.11.0), index=73, metadata={op_name="jit(scan)/jit(main)/while[cond_nconsts=0 body_nconsts=6]" source_file="/fs04/fc37/adam/projects/psilocybin-prl-analyses/src/prl_hgf/fitting/hierarchical_patrl.py" source_line=378}
  get-tuple-element.5553 = f64[192,48]{1,0} get-tuple-element(while.11.0), index=72, metadata={op_name="jit(scan)/jit(main)/while[cond_nconsts=0 body_nconsts=6]" source_file="/fs04/fc37/adam/projects/psilocybin-prl-analyses/src/prl_hgf/fitting/hierarchical_patrl.py" source_line=378}
  get-tuple-element.5549 = f64[192,48]{1,0} get-tuple-element(while.11.0), index=68, metadata={op_name="jit(scan)/jit(main)/while[cond_nconsts=0 body_nconsts=6]" source_file="/fs04/fc37/adam/projects/psilocybin-prl-analyses/src/prl_hgf/fitting/hierarchical_patrl.py" source_line=378}
  get-tuple-element.5548 = f64[192,48]{1,0} get-tuple-element(while.11.0), index=67, metadata={op_name="jit(scan)/jit(main)/while[cond_nconsts=0 body_nconsts=6]" source_file="/fs04/fc37/adam/projects/psilocybin-prl-analyses/src/prl_hgf/fitting/hierarchical_patrl.py" source_line=378}
  get-tuple-element.5545 = f64[192,48]{1,0} get-tuple-element(while.11.0), index=66, metadata={op_name="jit(scan)/jit(main)/while[cond_nconsts=0 body_nconsts=6]" source_file="/fs04/fc37/adam/projects/psilocybin-prl-analyses/src/prl_hgf/fitting/hierarchical_patrl.py" source_line=378}
  get-tuple-element.5544 = f64[192,48]{1,0} get-tuple-element(while.11.0), index=65, metadata={op_name="jit(scan)/jit(main)/while[cond_nconsts=0 body_nconsts=6]" source_file="/fs04/fc37/adam/projects/psilocybin-prl-analyses/src/prl_hgf/fitting/hierarchical_patrl.py" source_line=378}
  get-tuple-element.5542 = f64[192,48]{1,0} get-tuple-element(while.11.0), index=63, metadata={op_name="jit(scan)/jit(main)/while[cond_nconsts=0 body_nconsts=6]" source_file="/fs04/fc37/adam/projects/psilocybin-prl-analyses/src/prl_hgf/fitting/hierarchical_patrl.py" source_line=378}
  get-tuple-element.5541 = f64[192,48]{1,0} get-tuple-element(while.11.0), index=62, metadata={op_name="jit(scan)/jit(main)/while[cond_nconsts=0 body_nconsts=6]" source_file="/fs04/fc37/adam/projects/psilocybin-prl-analyses/src/prl_hgf/fitting/hierarchical_patrl.py" source_line=378}
  get-tuple-element.5540 = f64[192,48]{1,0} get-tuple-element(while.11.0), index=61, metadata={op_name="jit(scan)/jit(main)/while[cond_nconsts=0 body_nconsts=6]" source_file="/fs04/fc37/adam/projects/psilocybin-prl-analyses/src/prl_hgf/fitting/hierarchical_patrl.py" source_line=378}
  get-tuple-element.5539 = pred[192,48]{1,0} get-tuple-element(while.11.0), index=60, metadata={op_name="jit(scan)/jit(main)/while[cond_nconsts=0 body_nconsts=6]" source_file="/fs04/fc37/adam/projects/psilocybin-prl-analyses/src/prl_hgf/fitting/hierarchical_patrl.py" source_line=378}
  get-tuple-element.5538 = f64[192,48]{1,0} get-tuple-element(while.11.0), index=59, metadata={op_name="jit(scan)/jit(main)/while[cond_nconsts=0 body_nconsts=6]" source_file="/fs04/fc37/adam/projects/psilocybin-prl-analyses/src/prl_hgf/fitting/hierarchical_patrl.py" source_line=378}
  get-tuple-element.5537 = f64[192,48]{1,0} get-tuple-element(while.11.0), index=58, metadata={op_name="jit(scan)/jit(main)/while[cond_nconsts=0 body_nconsts=6]" source_file="/fs04/fc37/adam/projects/psilocybin-prl-analyses/src/prl_hgf/fitting/hierarchical_patrl.py" source_line=378}
  get-tuple-element.5536 = f64[192,48]{1,0} get-tuple-element(while.11.0), index=57, metadata={op_name="jit(scan)/jit(main)/while[cond_nconsts=0 body_nconsts=6]" source_file="/fs04/fc37/adam/projects/psilocybin-prl-analyses/src/prl_hgf/fitting/hierarchical_patrl.py" source_line=378}
  get-tuple-element.5535 = f64[192]{0} get-tuple-element(while.11.0), index=56, metadata={op_name="jit(scan)/jit(main)/while[cond_nconsts=0 body_nconsts=6]" source_file="/fs04/fc37/adam/projects/psilocybin-prl-analyses/src/prl_hgf/fitting/hierarchical_patrl.py" source_line=378}
  get-tuple-element.5534 = f64[192,48]{1,0} get-tuple-element(while.11.0), index=55, metadata={op_name="jit(scan)/jit(main)/while[cond_nconsts=0 body_nconsts=6]" source_file="/fs04/fc37/adam/projects/psilocybin-prl-analyses/src/prl_hgf/fitting/hierarchical_patrl.py" source_line=378}
  get-tuple-element.5533 = s32[192]{0} get-tuple-element(while.11.0), index=54, metadata={op_name="jit(scan)/jit(main)/while[cond_nconsts=0 body_nconsts=6]" source_file="/fs04/fc37/adam/projects/psilocybin-prl-analyses/src/prl_hgf/fitting/hierarchical_patrl.py" source_line=378}
  get-tuple-element.5532 = f64[192,48]{1,0} get-tuple-element(while.11.0), index=53, metadata={op_name="jit(scan)/jit(main)/while[cond_nconsts=0 body_nconsts=6]" source_file="/fs04/fc37/adam/projects/psilocybin-prl-analyses/src/prl_hgf/fitting/hierarchical_patrl.py" source_line=378}
  get-tuple-element.5531 = f64[192,48]{1,0} get-tuple-element(while.11.0), index=52, metadata={op_name="jit(scan)/jit(main)/while[cond_nconsts=0 body_nconsts=6]" source_file="/fs04/fc37/adam/projects/psilocybin-prl-analyses/src/prl_hgf/fitting/hierarchical_patrl.py" source_line=378}
  get-tuple-element.5528 = f64[192,48]{1,0} get-tuple-element(while.11.0), index=50, metadata={op_name="jit(scan)/jit(main)/while[cond_nconsts=0 body_nconsts=6]" source_file="/fs04/fc37/adam/projects/psilocybin-prl-analyses/src/prl_hgf/fitting/hierarchical_patrl.py" source_line=378}
  get-tuple-element.5527 = f64[192,48]{1,0} get-tuple-element(while.11.0), index=49, metadata={op_name="jit(scan)/jit(main)/while[cond_nconsts=0 body_nconsts=6]" source_file="/fs04/fc37/adam/projects/psilocybin-prl-analyses/src/prl_hgf/fitting/hierarchical_patrl.py" source_line=378}
  get-tuple-element.5525 = f64[192,48]{1,0} get-tuple-element(while.11.0), index=47, metadata={op_name="jit(scan)/jit(main)/while[cond_nconsts=0 body_nconsts=6]" source_file="/fs04/fc37/adam/projects/psilocybin-prl-analyses/src/prl_hgf/fitting/hierarchical_patrl.py" source_line=378}
  get-tuple-element.5523 = f64[192,48]{1,0} get-tuple-element(while.11.0), index=46, metadata={op_name="jit(scan)/jit(main)/while[cond_nconsts=0 body_nconsts=6]" source_file="/fs04/fc37/adam/projects/psilocybin-prl-analyses/src/prl_hgf/fitting/hierarchical_patrl.py" source_line=378}
  get-tuple-element.5522 = f64[192,48]{1,0} get-tuple-element(while.11.0), index=45, metadata={op_name="jit(scan)/jit(main)/while[cond_nconsts=0 body_nconsts=6]" source_file="/fs04/fc37/adam/projects/psilocybin-prl-analyses/src/prl_hgf/fitting/hierarchical_patrl.py" source_line=378}
  get-tuple-element.5521 = pred[192,48]{1,0} get-tuple-element(while.11.0), index=44, metadata={op_name="jit(scan)/jit(main)/while[cond_nconsts=0 body_nconsts=6]" source_file="/fs04/fc37/adam/projects/psilocybin-prl-analyses/src/prl_hgf/fitting/hierarchical_patrl.py" source_line=378}
  get-tuple-element.5520 = f64[192,48]{1,0} get-tuple-element(while.11.0), index=43, metadata={op_name="jit(scan)/jit(main)/while[cond_nconsts=0 body_nconsts=6]" source_file="/fs04/fc37/adam/projects/psilocybin-prl-analyses/src/prl_hgf/fitting/hierarchical_patrl.py" source_line=378}
  get-tuple-element.5519 = f64[192,48]{1,0} get-tuple-element(while.11.0), index=42, metadata={op_name="jit(scan)/jit(main)/while[cond_nconsts=0 body_nconsts=6]" source_file="/fs04/fc37/adam/projects/psilocybin-prl-analyses/src/prl_hgf/fitting/hierarchical_patrl.py" source_line=378}
  get-tuple-element.5518 = f64[192,48]{1,0} get-tuple-element(while.11.0), index=41, metadata={op_name="jit(scan)/jit(main)/while[cond_nconsts=0 body_nconsts=6]" source_file="/fs04/fc37/adam/projects/psilocybin-prl-analyses/src/prl_hgf/fitting/hierarchical_patrl.py" source_line=378}
  get-tuple-element.5516 = f64[192,48]{1,0} get-tuple-element(while.11.0), index=39, metadata={op_name="jit(scan)/jit(main)/while[cond_nconsts=0 body_nconsts=6]" source_file="/fs04/fc37/adam/projects/psilocybin-prl-analyses/src/prl_hgf/fitting/hierarchical_patrl.py" source_line=378}
  get-tuple-element.5514 = f64[192,48]{1,0} get-tuple-element(while.11.0), index=38, metadata={op_name="jit(scan)/jit(main)/while[cond_nconsts=0 body_nconsts=6]" source_file="/fs04/fc37/adam/projects/psilocybin-prl-analyses/src/prl_hgf/fitting/hierarchical_patrl.py" source_line=378}
  get-tuple-element.5513 = f64[192,48]{1,0} get-tuple-element(while.11.0), index=37, metadata={op_name="jit(scan)/jit(main)/while[cond_nconsts=0 body_nconsts=6]" source_file="/fs04/fc37/adam/projects/psilocybin-prl-analyses/src/prl_hgf/fitting/hierarchical_patrl.py" source_line=378}
  get-tuple-element.5512 = pred[192,48]{1,0} get-tuple-element(while.11.0), index=36, metadata={op_name="jit(scan)/jit(main)/while[cond_nconsts=0 body_nconsts=6]" source_file="/fs04/fc37/adam/projects/psilocybin-prl-analyses/src/prl_hgf/fitting/hierarchical_patrl.py" source_line=378}
  get-tuple-element.5510 = f64[192,48]{1,0} get-tuple-element(while.11.0), index=34, metadata={op_name="jit(scan)/jit(main)/while[cond_nconsts=0 body_nconsts=6]" source_file="/fs04/fc37/adam/projects/psilocybin-prl-analyses/src/prl_hgf/fitting/hierarchical_patrl.py" source_line=378}
  get-tuple-element.5508 = f64[192,48]{1,0} get-tuple-element(while.11.0), index=32, metadata={op_name="jit(scan)/jit(main)/while[cond_nconsts=0 body_nconsts=6]" source_file="/fs04/fc37/adam/projects/psilocybin-prl-analyses/src/prl_hgf/fitting/hierarchical_patrl.py" source_line=378}
  get-tuple-element.5507 = f64[48,1]{1,0} get-tuple-element(while.11.0), index=31, metadata={op_name="jit(scan)/jit(main)/while[cond_nconsts=0 body_nconsts=6]" source_file="/fs04/fc37/adam/projects/psilocybin-prl-analyses/src/prl_hgf/fitting/hierarchical_patrl.py" source_line=378}
  get-tuple-element.5506 = f64[48]{0} get-tuple-element(while.11.0), index=30, metadata={op_name="jit(scan)/jit(main)/while[cond_nconsts=0 body_nconsts=6]" source_file="/fs04/fc37/adam/projects/psilocybin-prl-analyses/src/prl_hgf/fitting/hierarchical_patrl.py" source_line=378}
  get-tuple-element.5505 = f64[48]{0} get-tuple-element(while.11.0), index=29, metadata={op_name="jit(scan)/jit(main)/while[cond_nconsts=0 body_nconsts=6]" source_file="/fs04/fc37/adam/projects/psilocybin-prl-analyses/src/prl_hgf/fitting/hierarchical_patrl.py" source_line=378}
  get-tuple-element.5502 = f64[48]{0} get-tuple-element(while.11.0), index=28, metadata={op_name="jit(scan)/jit(main)/while[cond_nconsts=0 body_nconsts=6]" source_file="/fs04/fc37/adam/projects/psilocybin-prl-analyses/src/prl_hgf/fitting/hierarchical_patrl.py" source_line=378}
  get-tuple-element.5501 = f64[48]{0} get-tuple-element(while.11.0), index=27, metadata={op_name="jit(scan)/jit(main)/while[cond_nconsts=0 body_nconsts=6]" source_file="/fs04/fc37/adam/projects/psilocybin-prl-analyses/src/prl_hgf/fitting/hierarchical_patrl.py" source_line=378}
  get-tuple-element.5500 = f64[48]{0} get-tuple-element(while.11.0), index=26, metadata={op_name="jit(scan)/jit(main)/while[cond_nconsts=0 body_nconsts=6]" source_file="/fs04/fc37/adam/projects/psilocybin-prl-analyses/src/prl_hgf/fitting/hierarchical_patrl.py" source_line=378}
  get-tuple-element.5498 = f64[48]{0} get-tuple-element(while.11.0), index=25, metadata={op_name="jit(scan)/jit(main)/while[cond_nconsts=0 body_nconsts=6]" source_file="/fs04/fc37/adam/projects/psilocybin-prl-analyses/src/prl_hgf/fitting/hierarchical_patrl.py" source_line=378}
  get-tuple-element.5497 = f64[48]{0} get-tuple-element(while.11.0), index=24, metadata={op_name="jit(scan)/jit(main)/while[cond_nconsts=0 body_nconsts=6]" source_file="/fs04/fc37/adam/projects/psilocybin-prl-analyses/src/prl_hgf/fitting/hierarchical_patrl.py" source_line=378}
  get-tuple-element.5496 = f64[48]{0} get-tuple-element(while.11.0), index=23, metadata={op_name="jit(scan)/jit(main)/while[cond_nconsts=0 body_nconsts=6]" source_file="/fs04/fc37/adam/projects/psilocybin-prl-analyses/src/prl_hgf/fitting/hierarchical_patrl.py" source_line=378}
  get-tuple-element.5495 = f64[48]{0} get-tuple-element(while.11.0), index=22, metadata={op_name="jit(scan)/jit(main)/while[cond_nconsts=0 body_nconsts=6]" source_file="/fs04/fc37/adam/projects/psilocybin-prl-analyses/src/prl_hgf/fitting/hierarchical_patrl.py" source_line=378}
  get-tuple-element.5494 = f64[48,1]{1,0} get-tuple-element(while.11.0), index=21, metadata={op_name="jit(scan)/jit(main)/while[cond_nconsts=0 body_nconsts=6]" source_file="/fs04/fc37/adam/projects/psilocybin-prl-analyses/src/prl_hgf/fitting/hierarchical_patrl.py" source_line=378}
  get-tuple-element.5493 = f64[48,1]{1,0} get-tuple-element(while.11.0), index=20, metadata={op_name="jit(scan)/jit(main)/while[cond_nconsts=0 body_nconsts=6]" source_file="/fs04/fc37/adam/projects/psilocybin-prl-analyses/src/prl_hgf/fitting/hierarchical_patrl.py" source_line=378}
  get-tuple-element.5492 = f64[48]{0} get-tuple-element(while.11.0), index=19, metadata={op_name="jit(scan)/jit(main)/while[cond_nconsts=0 body_nconsts=6]" source_file="/fs04/fc37/adam/projects/psilocybin-prl-analyses/src/prl_hgf/fitting/hierarchical_patrl.py" source_line=378}
  get-tuple-element.5491 = f64[48]{0} get-tuple-element(while.11.0), index=18, metadata={op_name="jit(scan)/jit(main)/while[cond_nconsts=0 body_nconsts=6]" source_file="/fs04/fc37/adam/projects/psilocybin-prl-analyses/src/prl_hgf/fitting/hierarchical_patrl.py" source_line=378}
  get-tuple-element.5490 = f64[48]{0} get-tuple-element(while.11.0), index=17, metadata={op_name="jit(scan)/jit(main)/while[cond_nconsts=0 body_nconsts=6]" source_file="/fs04/fc37/adam/projects/psilocybin-prl-analyses/src/prl_hgf/fitting/hierarchical_patrl.py" source_line=378}
  get-tuple-element.5489 = f64[48]{0} get-tuple-element(while.11.0), index=16, metadata={op_name="jit(scan)/jit(main)/while[cond_nconsts=0 body_nconsts=6]" source_file="/fs04/fc37/adam/projects/psilocybin-prl-analyses/src/prl_hgf/fitting/hierarchical_patrl.py" source_line=378}
  get-tuple-element.5488 = f64[48]{0} get-tuple-element(while.11.0), index=15, metadata={op_name="jit(scan)/jit(main)/while[cond_nconsts=0 body_nconsts=6]" source_file="/fs04/fc37/adam/projects/psilocybin-prl-analyses/src/prl_hgf/fitting/hierarchical_patrl.py" source_line=378}
  get-tuple-element.5487 = f64[48]{0} get-tuple-element(while.11.0), index=14, metadata={op_name="jit(scan)/jit(main)/while[cond_nconsts=0 body_nconsts=6]" source_file="/fs04/fc37/adam/projects/psilocybin-prl-analyses/src/prl_hgf/fitting/hierarchical_patrl.py" source_line=378}
  get-tuple-element.5486 = f64[48]{0} get-tuple-element(while.11.0), index=13, metadata={op_name="jit(scan)/jit(main)/while[cond_nconsts=0 body_nconsts=6]" source_file="/fs04/fc37/adam/projects/psilocybin-prl-analyses/src/prl_hgf/fitting/hierarchical_patrl.py" source_line=378}
  get-tuple-element.5485 = s64[48]{0} get-tuple-element(while.11.0), index=12, metadata={op_name="jit(scan)/jit(main)/while[cond_nconsts=0 body_nconsts=6]" source_file="/fs04/fc37/adam/projects/psilocybin-prl-analyses/src/prl_hgf/fitting/hierarchical_patrl.py" source_line=378}
  get-tuple-element.5484 = f64[48]{0} get-tuple-element(while.11.0), index=11, metadata={op_name="jit(scan)/jit(main)/while[cond_nconsts=0 body_nconsts=6]" source_file="/fs04/fc37/adam/projects/psilocybin-prl-analyses/src/prl_hgf/fitting/hierarchical_patrl.py" source_line=378}
  get-tuple-element.5483 = f64[48]{0} get-tuple-element(while.11.0), index=10, metadata={op_name="jit(scan)/jit(main)/while[cond_nconsts=0 body_nconsts=6]" source_file="/fs04/fc37/adam/projects/psilocybin-prl-analyses/src/prl_hgf/fitting/hierarchical_patrl.py" source_line=378}
  get-tuple-element.5482 = f64[48]{0} get-tuple-element(while.11.0), index=9, metadata={op_name="jit(scan)/jit(main)/while[cond_nconsts=0 body_nconsts=6]" source_file="/fs04/fc37/adam/projects/psilocybin-prl-analyses/src/prl_hgf/fitting/hierarchical_patrl.py" source_line=378}
  get-tuple-element.5481 = f64[48]{0} get-tuple-element(while.11.0), index=8, metadata={op_name="jit(scan)/jit(main)/while[cond_nconsts=0 body_nconsts=6]" source_file="/fs04/fc37/adam/projects/psilocybin-prl-analyses/src/prl_hgf/fitting/hierarchical_patrl.py" source_line=378}
  get-tuple-element.5479 = f64[48]{0} get-tuple-element(while.11.0), index=7, metadata={op_name="jit(scan)/jit(main)/while[cond_nconsts=0 body_nconsts=6]" source_file="/fs04/fc37/adam/projects/psilocybin-prl-analyses/src/prl_hgf/fitting/hierarchical_patrl.py" source_line=378}
  get-tuple-element.5478 = f64[48]{0} get-tuple-element(while.11.0), index=6, metadata={op_name="jit(scan)/jit(main)/while[cond_nconsts=0 body_nconsts=6]" source_file="/fs04/fc37/adam/projects/psilocybin-prl-analyses/src/prl_hgf/fitting/hierarchical_patrl.py" source_line=378}
  get-tuple-element.5477 = s32[48]{0} get-tuple-element(while.11.0), index=5, metadata={op_name="jit(scan)/jit(main)/while[cond_nconsts=0 body_nconsts=6]" source_file="/fs04/fc37/adam/projects/psilocybin-prl-analyses/src/prl_hgf/fitting/hierarchical_patrl.py" source_line=378}
  get-tuple-element.5476 = f64[48]{0} get-tuple-element(while.11.0), index=4, metadata={op_name="jit(scan)/jit(main)/while[cond_nconsts=0 body_nconsts=6]" source_file="/fs04/fc37/adam/projects/psilocybin-prl-analyses/src/prl_hgf/fitting/hierarchical_patrl.py" source_line=378}
  get-tuple-element.5475 = f64[48]{0} get-tuple-element(while.11.0), index=3, metadata={op_name="jit(scan)/jit(main)/while[cond_nconsts=0 body_nconsts=6]" source_file="/fs04/fc37/adam/projects/psilocybin-prl-analyses/src/prl_hgf/fitting/hierarchical_patrl.py" source_line=378}
  get-tuple-element.5474 = f64[48]{0} get-tuple-element(while.11.0), index=2, metadata={op_name="jit(scan)/jit(main)/while[cond_nconsts=0 body_nconsts=6]" source_file="/fs04/fc37/adam/projects/psilocybin-prl-analyses/src/prl_hgf/fitting/hierarchical_patrl.py" source_line=378}
  get-tuple-element.5473 = f64[48]{0} get-tuple-element(while.11.0), index=1, metadata={op_name="jit(scan)/jit(main)/while[cond_nconsts=0 body_nconsts=6]" source_file="/fs04/fc37/adam/projects/psilocybin-prl-analyses/src/prl_hgf/fitting/hierarchical_patrl.py" source_line=378}
  get-tuple-element.5579 = pred[192,48,1]{2,1,0} get-tuple-element(while.11.0), index=91, metadata={op_name="jit(scan)/jit(main)/while[cond_nconsts=0 body_nconsts=6]" source_file="/fs04/fc37/adam/projects/psilocybin-prl-analyses/src/prl_hgf/fitting/hierarchical_patrl.py" source_line=378}
  call.1 = (s64[48]{0}, s64[48]{0}, f64[48,1]{1,0}, f64[48,1]{1,0}, f64[48]{0}, /*index=5*/f64[48]{0}, f64[48]{0}, f64[48]{0}, f64[48]{0}, f64[48]{0}, /*index=10*/f64[48]{0}, f64[48]{0}, f64[192]{0}, f64[48,1]{1,0}, f64[48,1]{1,0}, /*index=15*/(f64[192,48]{1,0}, f64[192,48]{1,0}, f64[192,48]{1,0}, f64[192,48]{1,0}, f64[192,48]{1,0}, /*index=5*/f64[192,48]{1,0}, f64[192,48]{1,0}, f64[192,48]{1,0}, f64[192,48]{1,0}, f64[192,48]{1,0}, /*index=10*/f64[192,48]{1,0})) call(get-tuple-element.5485, Arg_29.30.0, get-tuple-element.5493, get-tuple-element.5494, get-tuple-element.5481, /*index=5*/get-tuple-element.5491, get-tuple-element.5492, get-tuple-element.5495, Arg_33.34.0, Arg_34.35.0, /*index=10*/get-tuple-element.5505, get-tuple-element.5506, Arg_10.11.0, get-tuple-element.5507, get-tuple-element.5546, /*index=15*/get-tuple-element.5561, get-tuple-element.5524, get-tuple-element.5530, get-tuple-element.5547, get-tuple-element.5563, /*index=20*/get-tuple-element.5567, get-tuple-element.5568, get-tuple-element.5570, get-tuple-element.5571, get-tuple-element.5576), to_apply=command_buffer.2
  get-tuple-element.5766 = s64[48]{0} get-tuple-element(call.1), index=0
  get-tuple-element.5767 = s64[48]{0} get-tuple-element(call.1), index=1
  get-tuple-element.5768 = f64[48,1]{1,0} get-tuple-element(call.1), index=2
  get-tuple-element.5769 = f64[48,1]{1,0} get-tuple-element(call.1), index=3
  get-tuple-element.5770 = f64[48]{0} get-tuple-element(call.1), index=4
  get-tuple-element.5771 = f64[48]{0} get-tuple-element(call.1), index=5
  get-tuple-element.5772 = f64[48]{0} get-tuple-element(call.1), index=6
  get-tuple-element.5773 = f64[48]{0} get-tuple-element(call.1), index=7
  get-tuple-element.5774 = f64[48]{0} get-tuple-element(call.1), index=8
  get-tuple-element.5775 = f64[48]{0} get-tuple-element(call.1), index=9
  get-tuple-element.5776 = f64[48]{0} get-tuple-element(call.1), index=10
  get-tuple-element.5777 = f64[48]{0} get-tuple-element(call.1), index=11
  get-tuple-element.5778 = f64[192]{0} get-tuple-element(call.1), index=12
  get-tuple-element.5779 = f64[48,1]{1,0} get-tuple-element(call.1), index=13
  get-tuple-element.5780 = f64[48,1]{1,0} get-tuple-element(call.1), index=14
  get-tuple-element.5781 = (f64[192,48]{1,0}, f64[192,48]{1,0}, f64[192,48]{1,0}, f64[192,48]{1,0}, f64[192,48]{1,0}, /*index=5*/f64[192,48]{1,0}, f64[192,48]{1,0}, f64[192,48]{1,0}, f64[192,48]{1,0}, f64[192,48]{1,0}, /*index=10*/f64[192,48]{1,0}) get-tuple-element(call.1), index=15
  get-tuple-element.5602 = f64[192,48]{1,0} get-tuple-element(get-tuple-element.5781), index=10
  bitcast.3198 = f64[192,48]{1,0} bitcast(get-tuple-element.5602)
  get-tuple-element.5601 = f64[192,48]{1,0} get-tuple-element(get-tuple-element.5781), index=9
  bitcast.3197 = f64[192,48]{1,0} bitcast(get-tuple-element.5601)
  get-tuple-element.5600 = f64[192,48]{1,0} get-tuple-element(get-tuple-element.5781), index=8
  bitcast.3196 = f64[192,48]{1,0} bitcast(get-tuple-element.5600)
  get-tuple-element.5599 = f64[192,48]{1,0} get-tuple-element(get-tuple-element.5781), index=7
  bitcast.3195 = f64[192,48]{1,0} bitcast(get-tuple-element.5599)
  get-tuple-element.5598 = f64[192,48]{1,0} get-tuple-element(get-tuple-element.5781), index=6
  bitcast.3194 = f64[192,48]{1,0} bitcast(get-tuple-element.5598)
  get-tuple-element.5597 = f64[192,48]{1,0} get-tuple-element(get-tuple-element.5781), index=5
  bitcast.3193 = f64[192,48]{1,0} bitcast(get-tuple-element.5597)
  get-tuple-element.5596 = f64[192,48]{1,0} get-tuple-element(get-tuple-element.5781), index=4
  bitcast.3192 = f64[192,48]{1,0} bitcast(get-tuple-element.5596)
  get-tuple-element.5595 = f64[192,48]{1,0} get-tuple-element(get-tuple-element.5781), index=3
  bitcast.3191 = f64[192,48]{1,0} bitcast(get-tuple-element.5595)
  get-tuple-element.5594 = f64[192,48]{1,0} get-tuple-element(get-tuple-element.5781), index=2
  bitcast.3190 = f64[192,48]{1,0} bitcast(get-tuple-element.5594)
  get-tuple-element.5593 = f64[192,48]{1,0} get-tuple-element(get-tuple-element.5781), index=1
  get-tuple-element.5592 = f64[192,48]{1,0} get-tuple-element(get-tuple-element.5781), index=0
  bitcast.3188 = f64[192,48]{1,0} bitcast(get-tuple-element.5592)
  bitcast.3189 = f64[192,48]{1,0} bitcast(get-tuple-element.5593)
  ROOT tuple.184 = (f64[48]{0}, f64[48]{0}, f64[48]{0}, f64[48]{0}, s32[48]{0}, /*index=5*/f64[48]{0}, f64[48]{0}, f64[48,1]{1,0}, f64[48]{0}, f64[48]{0}, /*index=10*/f64[48]{0}, f64[48]{0}, s64[48]{0}, f64[48]{0}, f64[48]{0}, /*index=15*/f64[48]{0}, f64[48]{0}, f64[48]{0}, f64[48]{0}, f64[48]{0}, /*index=20*/f64[48,1]{1,0}, f64[48,1]{1,0}, f64[48]{0}, f64[48]{0}, f64[48]{0}, /*index=25*/f64[48]{0}, s64[48]{0}, f64[48]{0}, f64[48]{0}, f64[48]{0}, /*index=30*/f64[48]{0}, f64[48]{0}, f64[48]{0}, f64[48]{0}, f64[48,1]{1,0}, /*index=35*/f64[192,48]{1,0}, f64[192,48]{1,0}, f64[192,48]{1,0}, f64[192,48]{1,0}, pred[192,48]{1,0}, /*index=40*/f64[192,48]{1,0}, f64[192,48]{1,0}, f64[192,48]{1,0}, f64[192,48]{1,0}, f64[192,48]{1,0}, /*index=45*/f64[192,48]{1,0}, f64[192,48]{1,0}, f64[192,48]{1,0}, pred[192,48]{1,0}, f64[192,48]{1,0}, /*index=50*/f64[192,48]{1,0}, f64[192,48]{1,0}, f64[192,48]{1,0}, f64[192,48]{1,0}, f64[192,48]{1,0}, /*index=55*/f64[192,48]{1,0}, f64[192]{0}, f64[192,48]{1,0}, f64[192,48]{1,0}, f64[192,48]{1,0}, /*index=60*/s32[192]{0}, f64[192,48]{1,0}, f64[192]{0}, f64[192,48]{1,0}, f64[192,48]{1,0}, /*index=65*/f64[192,48]{1,0}, pred[192,48]{1,0}, f64[192,48]{1,0}, f64[192,48]{1,0}, f64[192,48]{1,0}, /*index=70*/f64[192,48]{1,0}, f64[192,48]{1,0}, f64[192,48]{1,0}, f64[192]{0}, f64[192,48]{1,0}, /*index=75*/f64[192,48]{1,0}, f64[192,48]{1,0}, f64[192,48]{1,0}, f64[192,48]{1,0}, f64[192,48]{1,0}, /*index=80*/f64[192,48]{1,0}, f64[192,48]{1,0}, f64[192,48]{1,0}, f64[192,48]{1,0}, f64[192,48]{1,0}, /*index=85*/s32[192,48]{1,0}, pred[192,48]{1,0}, pred[192,48,1]{2,1,0}, f64[192,48]{1,0}, f64[192,48]{1,0}, /*index=90*/f64[192,48]{1,0}, f64[192,48]{1,0}, pred[192,48]{1,0}, pred[192,48,1]{2,1,0}, f64[192,48]{1,0}, /*index=95*/f64[192,48]{1,0}, f64[192,48]{1,0}, f64[192,48]{1,0}, f64[192,48]{1,0}, f64[192,48]{1,0}, /*index=100*/f64[192,48]{1,0}, f64[192,48]{1,0}, f64[192,48]{1,0}, f64[192,48]{1,0}, pred[192,48]{1,0}, /*index=105*/pred[192,48]{1,0}, pred[192,48,1]{2,1,0}) tuple(get-tuple-element.5473, get-tuple-element.5474, get-tuple-element.5475, get-tuple-element.5476, get-tuple-element.5477, /*index=5*/get-tuple-element.5478, get-tuple-element.5479, get-tuple-element.5779, get-tuple-element.5772, get-tuple-element.5482, /*index=10*/get-tuple-element.5483, get-tuple-element.5484, get-tuple-element.5767, get-tuple-element.5486, get-tuple-element.5487, /*index=15*/get-tuple-element.5488, get-tuple-element.5489, get-tuple-element.5490, get-tuple-element.5771, get-tuple-element.5770, /*index=20*/get-tuple-element.5768, get-tuple-element.5769, get-tuple-element.5777, get-tuple-element.5496, get-tuple-element.5497, /*index=25*/get-tuple-element.5498, get-tuple-element.5766, get-tuple-element.5500, get-tuple-element.5501, get-tuple-element.5502, /*index=30*/get-tuple-element.5776, get-tuple-element.5775, get-tuple-element.5774, get-tuple-element.5773, get-tuple-element.5780, /*index=35*/get-tuple-element.5508, get-tuple-element.5561, get-tuple-element.5510, get-tuple-element.5563, get-tuple-element.5512, /*index=40*/get-tuple-element.5513, get-tuple-element.5514, bitcast.3188, get-tuple-element.5516, get-tuple-element.5524, /*index=45*/get-tuple-element.5518, get-tuple-element.5519, get-tuple-element.5520, get-tuple-element.5521, get-tuple-element.5522, /*index=50*/get-tuple-element.5523, bitcast.3189, get-tuple-element.5525, get-tuple-element.5530, get-tuple-element.5527, /*index=55*/get-tuple-element.5528, get-tuple-element.5546, bitcast.3190, get-tuple-element.5531, get-tuple-element.5532, /*index=60*/get-tuple-element.5533, get-tuple-element.5534, get-tuple-element.5535, get-tuple-element.5536, get-tuple-element.5537, /*index=65*/get-tuple-element.5538, get-tuple-element.5539, get-tuple-element.5540, get-tuple-element.5541, get-tuple-element.5542, /*index=70*/get-tuple-element.5547, get-tuple-element.5544, get-tuple-element.5545, get-tuple-element.5778, bitcast.3191, /*index=75*/get-tuple-element.5548, get-tuple-element.5549, get-tuple-element.5567, get-tuple-element.5568, get-tuple-element.5571, /*index=80*/get-tuple-element.5553, get-tuple-element.5554, get-tuple-element.5555, get-tuple-element.5556, get-tuple-element.5576, /*index=85*/get-tuple-element.5558, get-tuple-element.5559, get-tuple-element.5560, bitcast.3192, get-tuple-element.5562, /*index=90*/bitcast.3193, get-tuple-element.5564, get-tuple-element.5565, get-tuple-element.5566, bitcast.3194, /*index=95*/bitcast.3195, get-tuple-element.5570, bitcast.3196, bitcast.3197, get-tuple-element.5572, /*index=100*/get-tuple-element.5573, get-tuple-element.5574, get-tuple-element.5575, bitcast.3198, get-tuple-element.5577, /*index=105*/get-tuple-element.5578, get-tuple-element.5579)
} // main.1960

