HloModule jit_scan, entry_computation_layout={(f64[48]{0}, f64[48]{0}, f64[48]{0}, f64[48]{0}, f64[48]{0}, /*index=5*/f64[48]{0}, f64[48]{0}, f64[48]{0}, f64[48]{0}, f64[48]{0}, /*index=10*/f64[48]{0}, f64[48]{0}, f64[48]{0}, f64[48]{0}, f64[48]{0}, /*index=15*/f64[48]{0}, f64[48]{0}, f64[48]{0}, f64[48]{0}, f64[48]{0}, /*index=20*/f64[48,1]{1,0}, f64[192,48]{1,0}, f64[192,48]{1,0}, f64[192,48]{1,0}, f64[192]{0}, /*index=25*/f64[192,48]{1,0}, pred[192,48]{1,0}, f64[192,48]{1,0}, f64[192,48]{1,0}, f64[192,48]{1,0}, /*index=30*/f64[192,48]{1,0}, f64[192,48]{1,0}, f64[192,48]{1,0}, f64[192,48]{1,0}, f64[192,48]{1,0}, /*index=35*/pred[192,48]{1,0}, f64[192,48]{1,0}, f64[192,48]{1,0}, f64[192,48]{1,0}, f64[192,48]{1,0}, /*index=40*/f64[192,48]{1,0}, f64[192,48]{1,0}, f64[192,48]{1,0}, f64[192]{0}, f64[192,48]{1,0}, /*index=45*/f64[192,48]{1,0}, f64[192,48]{1,0}, s32[192]{0}, f64[192,48]{1,0}, f64[192]{0}, /*index=50*/f64[192,48]{1,0}, f64[192,48]{1,0}, f64[192,48]{1,0}, pred[192,48]{1,0}, f64[192,48]{1,0}, /*index=55*/f64[192,48]{1,0}, f64[192,48]{1,0}, f64[192,48]{1,0}, f64[192,48]{1,0}, f64[192,48]{1,0}, /*index=60*/f64[192]{0}, f64[192,48]{1,0}, f64[192,48]{1,0}, f64[192,48]{1,0}, f64[192,48]{1,0}, /*index=65*/f64[192,48]{1,0}, f64[192,48]{1,0}, f64[192,48]{1,0}, f64[192,48]{1,0}, f64[192,48]{1,0}, /*index=70*/f64[192,48]{1,0}, f64[192,48]{1,0}, s32[192,48]{1,0}, pred[192,48]{1,0}, f64[192,48]{1,0}, /*index=75*/f64[192,48]{1,0}, f64[192,48]{1,0}, f64[192,48]{1,0}, pred[192,48]{1,0}, pred[192,48,1]{2,1,0}, /*index=80*/f64[192,48]{1,0}, f64[192,48]{1,0}, f64[192,48]{1,0}, f64[192,48]{1,0}, f64[192,48]{1,0}, /*index=85*/f64[192,48]{1,0}, f64[192,48]{1,0}, f64[192,48]{1,0}, f64[192,48]{1,0}, f64[192,48]{1,0}, /*index=90*/pred[192,48]{1,0}, pred[192,48]{1,0}, pred[192,48,1]{2,1,0})->(f64[48]{0}, f64[48]{0}, f64[48]{0}, f64[48]{0}, f64[48]{0}, /*index=5*/f64[48]{0}, f64[48]{0}, f64[48]{0}, f64[48]{0}, f64[48]{0}, /*index=10*/f64[48]{0}, f64[48]{0}, f64[48]{0}, f64[48]{0}, f64[48]{0}, /*index=15*/f64[48]{0}, f64[48]{0}, f64[48]{0}, f64[48]{0}, f64[48]{0}, /*index=20*/f64[48,1]{1,0})}, allow_spmd_sharding_propagation_to_parameters={true,true,true,true,true,true,true,true,true,true,true,true,true,true,true,true,true,true,true,true,true,true,true,true,true,true,true,true,true,true,true,true,true,true,true,true,true,true,true,true,true,true,true,true,true,true,true,true,true,true,true,true,true,true,true,true,true,true,true,true,true,true,true,true,true,true,true,true,true,true,true,true,true,true,true,true,true,true,true,true,true,true,true,true,true,true,true,true,true,true,true,true,true}, allow_spmd_sharding_propagation_to_output={true,true,true,true,true,true,true,true,true,true,true,true,true,true,true,true,true,true,true,true,true}

_where.96 {
  Arg_0.97 = pred[48,1]{1,0} parameter(0), metadata={op_name="jit(scan)/jit(main)/while/body/pjit[in_shardings=(UnspecifiedValue, UnspecifiedValue) out_shardings=(UnspecifiedValue, UnspecifiedValue) in_layouts=(None, None) out_layouts=(None, None) resource_env=None donated_invars=(False, False) name=_where keep_unused=False inline=False]"}
  Arg_1.98 = f64[48,1]{1,0} parameter(1), metadata={op_name="jit(scan)/jit(main)/while/body/pjit[in_shardings=(UnspecifiedValue, UnspecifiedValue) out_shardings=(UnspecifiedValue, UnspecifiedValue) in_layouts=(None, None) out_layouts=(None, None) resource_env=None donated_invars=(False, False) name=_where keep_unused=False inline=False]"}
  constant.99 = f64[] constant(0)
  broadcast.100 = f64[48,1]{1,0} broadcast(constant.99), dimensions={}, metadata={op_name="jit(scan)/jit(main)/while/body/jit(_where)/broadcast_in_dim[shape=(48, 1) broadcast_dimensions=()]" source_file="/fs04/fc37/adam/projects/psilocybin-prl-analyses/src/prl_hgf/fitting/hierarchical_patrl.py" source_line=370}
  select.102 = f64[48,1]{1,0} select(Arg_0.97, Arg_1.98, broadcast.100), metadata={op_name="jit(scan)/jit(main)/while/body/jit(_where)/select_n" source_file="/fs04/fc37/adam/projects/psilocybin-prl-analyses/src/prl_hgf/fitting/hierarchical_patrl.py" source_line=370}
  select.101 = f64[48,1]{1,0} select(Arg_0.97, broadcast.100, Arg_1.98), metadata={op_name="jit(scan)/jit(main)/while/body/jit(_where)/select_n" source_file="/fs04/fc37/adam/projects/psilocybin-prl-analyses/src/prl_hgf/fitting/hierarchical_patrl.py" source_line=370}
  ROOT tuple.103 = (f64[48,1]{1,0}, f64[48,1]{1,0}) tuple(select.102, select.101)
} // _where.96

_where_0.104 {
  Arg_0.105 = pred[48]{0} parameter(0), metadata={op_name="jit(scan)/jit(main)/while/body/pjit[in_shardings=(UnspecifiedValue, UnspecifiedValue) out_shardings=(UnspecifiedValue, UnspecifiedValue) in_layouts=(None, None) out_layouts=(None, None) resource_env=None donated_invars=(False, False) name=_where keep_unused=False inline=False]"}
  Arg_1.106 = f64[48]{0} parameter(1), metadata={op_name="jit(scan)/jit(main)/while/body/pjit[in_shardings=(UnspecifiedValue, UnspecifiedValue) out_shardings=(UnspecifiedValue, UnspecifiedValue) in_layouts=(None, None) out_layouts=(None, None) resource_env=None donated_invars=(False, False) name=_where keep_unused=False inline=False]"}
  constant.107 = f64[] constant(0)
  broadcast.108 = f64[48]{0} broadcast(constant.107), dimensions={}, metadata={op_name="jit(scan)/jit(main)/while/body/jit(_where)/broadcast_in_dim[shape=(48,) broadcast_dimensions=()]" source_file="/fs04/fc37/adam/projects/psilocybin-prl-analyses/src/prl_hgf/fitting/hierarchical_patrl.py" source_line=370}
  select.110 = f64[48]{0} select(Arg_0.105, Arg_1.106, broadcast.108), metadata={op_name="jit(scan)/jit(main)/while/body/jit(_where)/select_n" source_file="/fs04/fc37/adam/projects/psilocybin-prl-analyses/src/prl_hgf/fitting/hierarchical_patrl.py" source_line=370}
  select.109 = f64[48]{0} select(Arg_0.105, broadcast.108, Arg_1.106), metadata={op_name="jit(scan)/jit(main)/while/body/jit(_where)/select_n" source_file="/fs04/fc37/adam/projects/psilocybin-prl-analyses/src/prl_hgf/fitting/hierarchical_patrl.py" source_line=370}
  ROOT tuple.111 = (f64[48]{0}, f64[48]{0}) tuple(select.110, select.109)
} // _where_0.104

_where_1.112 {
  Arg_0.113 = pred[48]{0} parameter(0), metadata={op_name="jit(scan)/jit(main)/while/body/pjit[in_shardings=(UnspecifiedValue, UnspecifiedValue) out_shardings=(UnspecifiedValue, UnspecifiedValue) in_layouts=(None, None) out_layouts=(None, None) resource_env=None donated_invars=(False, False) name=_where keep_unused=False inline=False]"}
  Arg_1.114 = f64[48]{0} parameter(1), metadata={op_name="jit(scan)/jit(main)/while/body/pjit[in_shardings=(UnspecifiedValue, UnspecifiedValue) out_shardings=(UnspecifiedValue, UnspecifiedValue) in_layouts=(None, None) out_layouts=(None, None) resource_env=None donated_invars=(False, False) name=_where keep_unused=False inline=False]"}
  constant.115 = f64[] constant(0)
  broadcast.116 = f64[48]{0} broadcast(constant.115), dimensions={}, metadata={op_name="jit(scan)/jit(main)/while/body/jit(_where)/broadcast_in_dim[shape=(48,) broadcast_dimensions=()]" source_file="/fs04/fc37/adam/projects/psilocybin-prl-analyses/src/prl_hgf/env/pat_rl_simulator.py" source_line=92}
  select.118 = f64[48]{0} select(Arg_0.113, Arg_1.114, broadcast.116), metadata={op_name="jit(scan)/jit(main)/while/body/jit(_where)/select_n" source_file="/fs04/fc37/adam/projects/psilocybin-prl-analyses/src/prl_hgf/env/pat_rl_simulator.py" source_line=92}
  select.117 = f64[48]{0} select(Arg_0.113, broadcast.116, Arg_1.114), metadata={op_name="jit(scan)/jit(main)/while/body/jit(_where)/select_n" source_file="/fs04/fc37/adam/projects/psilocybin-prl-analyses/src/prl_hgf/env/pat_rl_simulator.py" source_line=92}
  ROOT tuple.119 = (f64[48]{0}, f64[48]{0}) tuple(select.118, select.117)
} // _where_1.112

_where_0.120 {
  Arg_0.121 = pred[48]{0} parameter(0), metadata={op_name="jit(scan)/jit(main)/while/body/pjit[in_shardings=(UnspecifiedValue, UnspecifiedValue) out_shardings=(UnspecifiedValue, UnspecifiedValue) in_layouts=(None, None) out_layouts=(None, None) resource_env=None donated_invars=(False, False) name=_where keep_unused=False inline=False]"}
  Arg_1.122 = f64[48]{0} parameter(1), metadata={op_name="jit(scan)/jit(main)/while/body/pjit[in_shardings=(UnspecifiedValue, UnspecifiedValue) out_shardings=(UnspecifiedValue, UnspecifiedValue) in_layouts=(None, None) out_layouts=(None, None) resource_env=None donated_invars=(False, False) name=_where keep_unused=False inline=False]"}
  constant.123 = f64[] constant(0)
  broadcast.124 = f64[48]{0} broadcast(constant.123), dimensions={}, metadata={op_name="jit(scan)/jit(main)/while/body/jit(_where)/broadcast_in_dim[shape=(48,) broadcast_dimensions=()]" source_file="/fs04/fc37/adam/projects/psilocybin-prl-analyses/src/prl_hgf/fitting/hierarchical_patrl.py" source_line=370}
  select.126 = f64[48]{0} select(Arg_0.121, Arg_1.122, broadcast.124), metadata={op_name="jit(scan)/jit(main)/while/body/jit(_where)/select_n" source_file="/fs04/fc37/adam/projects/psilocybin-prl-analyses/src/prl_hgf/fitting/hierarchical_patrl.py" source_line=370}
  select.125 = f64[48]{0} select(Arg_0.121, broadcast.124, Arg_1.122), metadata={op_name="jit(scan)/jit(main)/while/body/jit(_where)/select_n" source_file="/fs04/fc37/adam/projects/psilocybin-prl-analyses/src/prl_hgf/fitting/hierarchical_patrl.py" source_line=370}
  ROOT tuple.127 = (f64[48]{0}, f64[48]{0}) tuple(select.126, select.125)
} // _where_0.120

_where_1.128 {
  Arg_0.129 = pred[48]{0} parameter(0), metadata={op_name="jit(scan)/jit(main)/while/body/pjit[in_shardings=(UnspecifiedValue, UnspecifiedValue) out_shardings=(UnspecifiedValue, UnspecifiedValue) in_layouts=(None, None) out_layouts=(None, None) resource_env=None donated_invars=(False, False) name=_where keep_unused=False inline=False]"}
  Arg_1.130 = f64[48]{0} parameter(1), metadata={op_name="jit(scan)/jit(main)/while/body/pjit[in_shardings=(UnspecifiedValue, UnspecifiedValue) out_shardings=(UnspecifiedValue, UnspecifiedValue) in_layouts=(None, None) out_layouts=(None, None) resource_env=None donated_invars=(False, False) name=_where keep_unused=False inline=False]"}
  constant.131 = f64[] constant(0)
  broadcast.132 = f64[48]{0} broadcast(constant.131), dimensions={}, metadata={op_name="jit(scan)/jit(main)/while/body/jit(_where)/broadcast_in_dim[shape=(48,) broadcast_dimensions=()]" source_file="/fs04/fc37/adam/projects/psilocybin-prl-analyses/src/prl_hgf/env/pat_rl_simulator.py" source_line=92}
  select.134 = f64[48]{0} select(Arg_0.129, Arg_1.130, broadcast.132), metadata={op_name="jit(scan)/jit(main)/while/body/jit(_where)/select_n" source_file="/fs04/fc37/adam/projects/psilocybin-prl-analyses/src/prl_hgf/env/pat_rl_simulator.py" source_line=92}
  select.133 = f64[48]{0} select(Arg_0.129, broadcast.132, Arg_1.130), metadata={op_name="jit(scan)/jit(main)/while/body/jit(_where)/select_n" source_file="/fs04/fc37/adam/projects/psilocybin-prl-analyses/src/prl_hgf/env/pat_rl_simulator.py" source_line=92}
  ROOT tuple.135 = (f64[48]{0}, f64[48]{0}) tuple(select.134, select.133)
} // _where_1.128

_where_1.136 {
  Arg_0.137 = pred[48]{0} parameter(0), metadata={op_name="jit(scan)/jit(main)/while/body/pjit[in_shardings=(UnspecifiedValue, UnspecifiedValue) out_shardings=(UnspecifiedValue, UnspecifiedValue) in_layouts=(None, None) out_layouts=(None, None) resource_env=None donated_invars=(False, False) name=_where keep_unused=False inline=False]"}
  Arg_1.138 = f64[48]{0} parameter(1), metadata={op_name="jit(scan)/jit(main)/while/body/pjit[in_shardings=(UnspecifiedValue, UnspecifiedValue) out_shardings=(UnspecifiedValue, UnspecifiedValue) in_layouts=(None, None) out_layouts=(None, None) resource_env=None donated_invars=(False, False) name=_where keep_unused=False inline=False]"}
  constant.139 = f64[] constant(0)
  broadcast.140 = f64[48]{0} broadcast(constant.139), dimensions={}, metadata={op_name="jit(scan)/jit(main)/while/body/jit(_where)/broadcast_in_dim[shape=(48,) broadcast_dimensions=()]" source_file="/fs04/fc37/adam/projects/psilocybin-prl-analyses/src/prl_hgf/env/pat_rl_simulator.py" source_line=92}
  select.142 = f64[48]{0} select(Arg_0.137, Arg_1.138, broadcast.140), metadata={op_name="jit(scan)/jit(main)/while/body/jit(_where)/select_n" source_file="/fs04/fc37/adam/projects/psilocybin-prl-analyses/src/prl_hgf/env/pat_rl_simulator.py" source_line=92}
  select.141 = f64[48]{0} select(Arg_0.137, broadcast.140, Arg_1.138), metadata={op_name="jit(scan)/jit(main)/while/body/jit(_where)/select_n" source_file="/fs04/fc37/adam/projects/psilocybin-prl-analyses/src/prl_hgf/env/pat_rl_simulator.py" source_line=92}
  ROOT tuple.143 = (f64[48]{0}, f64[48]{0}) tuple(select.142, select.141)
} // _where_1.136

_where_1.144 {
  Arg_0.145 = pred[48]{0} parameter(0), metadata={op_name="jit(scan)/jit(main)/while/body/pjit[in_shardings=(UnspecifiedValue, UnspecifiedValue) out_shardings=(UnspecifiedValue, UnspecifiedValue) in_layouts=(None, None) out_layouts=(None, None) resource_env=None donated_invars=(False, False) name=_where keep_unused=False inline=False]"}
  Arg_1.146 = f64[48]{0} parameter(1), metadata={op_name="jit(scan)/jit(main)/while/body/pjit[in_shardings=(UnspecifiedValue, UnspecifiedValue) out_shardings=(UnspecifiedValue, UnspecifiedValue) in_layouts=(None, None) out_layouts=(None, None) resource_env=None donated_invars=(False, False) name=_where keep_unused=False inline=False]"}
  constant.147 = f64[] constant(0)
  broadcast.148 = f64[48]{0} broadcast(constant.147), dimensions={}, metadata={op_name="jit(scan)/jit(main)/while/body/jit(_where)/broadcast_in_dim[shape=(48,) broadcast_dimensions=()]" source_file="/fs04/fc37/adam/projects/psilocybin-prl-analyses/src/prl_hgf/env/pat_rl_simulator.py" source_line=92}
  select.150 = f64[48]{0} select(Arg_0.145, Arg_1.146, broadcast.148), metadata={op_name="jit(scan)/jit(main)/while/body/jit(_where)/select_n" source_file="/fs04/fc37/adam/projects/psilocybin-prl-analyses/src/prl_hgf/env/pat_rl_simulator.py" source_line=92}
  select.149 = f64[48]{0} select(Arg_0.145, broadcast.148, Arg_1.146), metadata={op_name="jit(scan)/jit(main)/while/body/jit(_where)/select_n" source_file="/fs04/fc37/adam/projects/psilocybin-prl-analyses/src/prl_hgf/env/pat_rl_simulator.py" source_line=92}
  ROOT tuple.151 = (f64[48]{0}, f64[48]{0}) tuple(select.150, select.149)
} // _where_1.144

_where_1.152 {
  Arg_0.153 = pred[48]{0} parameter(0), metadata={op_name="jit(scan)/jit(main)/while/body/pjit[in_shardings=(UnspecifiedValue, UnspecifiedValue) out_shardings=(UnspecifiedValue, UnspecifiedValue) in_layouts=(None, None) out_layouts=(None, None) resource_env=None donated_invars=(False, False) name=_where keep_unused=False inline=False]"}
  Arg_1.154 = f64[48]{0} parameter(1), metadata={op_name="jit(scan)/jit(main)/while/body/pjit[in_shardings=(UnspecifiedValue, UnspecifiedValue) out_shardings=(UnspecifiedValue, UnspecifiedValue) in_layouts=(None, None) out_layouts=(None, None) resource_env=None donated_invars=(False, False) name=_where keep_unused=False inline=False]"}
  constant.155 = f64[] constant(0)
  broadcast.156 = f64[48]{0} broadcast(constant.155), dimensions={}, metadata={op_name="jit(scan)/jit(main)/while/body/jit(_where)/broadcast_in_dim[shape=(48,) broadcast_dimensions=()]" source_file="/fs04/fc37/adam/projects/psilocybin-prl-analyses/src/prl_hgf/env/pat_rl_simulator.py" source_line=92}
  select.158 = f64[48]{0} select(Arg_0.153, Arg_1.154, broadcast.156), metadata={op_name="jit(scan)/jit(main)/while/body/jit(_where)/select_n" source_file="/fs04/fc37/adam/projects/psilocybin-prl-analyses/src/prl_hgf/env/pat_rl_simulator.py" source_line=92}
  select.157 = f64[48]{0} select(Arg_0.153, broadcast.156, Arg_1.154), metadata={op_name="jit(scan)/jit(main)/while/body/jit(_where)/select_n" source_file="/fs04/fc37/adam/projects/psilocybin-prl-analyses/src/prl_hgf/env/pat_rl_simulator.py" source_line=92}
  ROOT tuple.159 = (f64[48]{0}, f64[48]{0}) tuple(select.158, select.157)
} // _where_1.152

_where_0.160 {
  Arg_0.161 = pred[48]{0} parameter(0), metadata={op_name="jit(scan)/jit(main)/while/body/pjit[in_shardings=(UnspecifiedValue, UnspecifiedValue) out_shardings=(UnspecifiedValue, UnspecifiedValue) in_layouts=(None, None) out_layouts=(None, None) resource_env=None donated_invars=(False, False) name=_where keep_unused=False inline=False]"}
  Arg_1.162 = f64[48]{0} parameter(1), metadata={op_name="jit(scan)/jit(main)/while/body/pjit[in_shardings=(UnspecifiedValue, UnspecifiedValue) out_shardings=(UnspecifiedValue, UnspecifiedValue) in_layouts=(None, None) out_layouts=(None, None) resource_env=None donated_invars=(False, False) name=_where keep_unused=False inline=False]"}
  constant.163 = f64[] constant(0)
  broadcast.164 = f64[48]{0} broadcast(constant.163), dimensions={}, metadata={op_name="jit(scan)/jit(main)/while/body/jit(_where)/broadcast_in_dim[shape=(48,) broadcast_dimensions=()]" source_file="/fs04/fc37/adam/projects/psilocybin-prl-analyses/src/prl_hgf/fitting/hierarchical_patrl.py" source_line=370}
  select.166 = f64[48]{0} select(Arg_0.161, Arg_1.162, broadcast.164), metadata={op_name="jit(scan)/jit(main)/while/body/jit(_where)/select_n" source_file="/fs04/fc37/adam/projects/psilocybin-prl-analyses/src/prl_hgf/fitting/hierarchical_patrl.py" source_line=370}
  select.165 = f64[48]{0} select(Arg_0.161, broadcast.164, Arg_1.162), metadata={op_name="jit(scan)/jit(main)/while/body/jit(_where)/select_n" source_file="/fs04/fc37/adam/projects/psilocybin-prl-analyses/src/prl_hgf/fitting/hierarchical_patrl.py" source_line=370}
  ROOT tuple.167 = (f64[48]{0}, f64[48]{0}) tuple(select.166, select.165)
} // _where_0.160

_where_1.168 {
  Arg_0.169 = pred[48]{0} parameter(0), metadata={op_name="jit(scan)/jit(main)/while/body/pjit[in_shardings=(UnspecifiedValue, UnspecifiedValue) out_shardings=(UnspecifiedValue, UnspecifiedValue) in_layouts=(None, None) out_layouts=(None, None) resource_env=None donated_invars=(False, False) name=_where keep_unused=False inline=False]"}
  Arg_1.170 = f64[48]{0} parameter(1), metadata={op_name="jit(scan)/jit(main)/while/body/pjit[in_shardings=(UnspecifiedValue, UnspecifiedValue) out_shardings=(UnspecifiedValue, UnspecifiedValue) in_layouts=(None, None) out_layouts=(None, None) resource_env=None donated_invars=(False, False) name=_where keep_unused=False inline=False]"}
  constant.171 = f64[] constant(0)
  broadcast.172 = f64[48]{0} broadcast(constant.171), dimensions={}, metadata={op_name="jit(scan)/jit(main)/while/body/jit(_where)/broadcast_in_dim[shape=(48,) broadcast_dimensions=()]" source_file="/fs04/fc37/adam/projects/psilocybin-prl-analyses/src/prl_hgf/env/pat_rl_simulator.py" source_line=92}
  select.174 = f64[48]{0} select(Arg_0.169, Arg_1.170, broadcast.172), metadata={op_name="jit(scan)/jit(main)/while/body/jit(_where)/select_n" source_file="/fs04/fc37/adam/projects/psilocybin-prl-analyses/src/prl_hgf/env/pat_rl_simulator.py" source_line=92}
  select.173 = f64[48]{0} select(Arg_0.169, broadcast.172, Arg_1.170), metadata={op_name="jit(scan)/jit(main)/while/body/jit(_where)/select_n" source_file="/fs04/fc37/adam/projects/psilocybin-prl-analyses/src/prl_hgf/env/pat_rl_simulator.py" source_line=92}
  ROOT tuple.175 = (f64[48]{0}, f64[48]{0}) tuple(select.174, select.173)
} // _where_1.168

_where_1.176 {
  Arg_0.177 = pred[48]{0} parameter(0), metadata={op_name="jit(scan)/jit(main)/while/body/pjit[in_shardings=(UnspecifiedValue, UnspecifiedValue) out_shardings=(UnspecifiedValue, UnspecifiedValue) in_layouts=(None, None) out_layouts=(None, None) resource_env=None donated_invars=(False, False) name=_where keep_unused=False inline=False]"}
  Arg_1.178 = f64[48]{0} parameter(1), metadata={op_name="jit(scan)/jit(main)/while/body/pjit[in_shardings=(UnspecifiedValue, UnspecifiedValue) out_shardings=(UnspecifiedValue, UnspecifiedValue) in_layouts=(None, None) out_layouts=(None, None) resource_env=None donated_invars=(False, False) name=_where keep_unused=False inline=False]"}
  constant.179 = f64[] constant(0)
  broadcast.180 = f64[48]{0} broadcast(constant.179), dimensions={}, metadata={op_name="jit(scan)/jit(main)/while/body/jit(_where)/broadcast_in_dim[shape=(48,) broadcast_dimensions=()]" source_file="/fs04/fc37/adam/projects/psilocybin-prl-analyses/src/prl_hgf/env/pat_rl_simulator.py" source_line=92}
  select.182 = f64[48]{0} select(Arg_0.177, Arg_1.178, broadcast.180), metadata={op_name="jit(scan)/jit(main)/while/body/jit(_where)/select_n" source_file="/fs04/fc37/adam/projects/psilocybin-prl-analyses/src/prl_hgf/env/pat_rl_simulator.py" source_line=92}
  select.181 = f64[48]{0} select(Arg_0.177, broadcast.180, Arg_1.178), metadata={op_name="jit(scan)/jit(main)/while/body/jit(_where)/select_n" source_file="/fs04/fc37/adam/projects/psilocybin-prl-analyses/src/prl_hgf/env/pat_rl_simulator.py" source_line=92}
  ROOT tuple.183 = (f64[48]{0}, f64[48]{0}) tuple(select.182, select.181)
} // _where_1.176

_where_1.184 {
  Arg_0.185 = pred[48]{0} parameter(0), metadata={op_name="jit(scan)/jit(main)/while/body/pjit[in_shardings=(UnspecifiedValue, UnspecifiedValue) out_shardings=(UnspecifiedValue, UnspecifiedValue) in_layouts=(None, None) out_layouts=(None, None) resource_env=None donated_invars=(False, False) name=_where keep_unused=False inline=False]"}
  Arg_1.186 = f64[48]{0} parameter(1), metadata={op_name="jit(scan)/jit(main)/while/body/pjit[in_shardings=(UnspecifiedValue, UnspecifiedValue) out_shardings=(UnspecifiedValue, UnspecifiedValue) in_layouts=(None, None) out_layouts=(None, None) resource_env=None donated_invars=(False, False) name=_where keep_unused=False inline=False]"}
  constant.187 = f64[] constant(0)
  broadcast.188 = f64[48]{0} broadcast(constant.187), dimensions={}, metadata={op_name="jit(scan)/jit(main)/while/body/jit(_where)/broadcast_in_dim[shape=(48,) broadcast_dimensions=()]" source_file="/fs04/fc37/adam/projects/psilocybin-prl-analyses/src/prl_hgf/env/pat_rl_simulator.py" source_line=92}
  select.190 = f64[48]{0} select(Arg_0.185, Arg_1.186, broadcast.188), metadata={op_name="jit(scan)/jit(main)/while/body/jit(_where)/select_n" source_file="/fs04/fc37/adam/projects/psilocybin-prl-analyses/src/prl_hgf/env/pat_rl_simulator.py" source_line=92}
  select.189 = f64[48]{0} select(Arg_0.185, broadcast.188, Arg_1.186), metadata={op_name="jit(scan)/jit(main)/while/body/jit(_where)/select_n" source_file="/fs04/fc37/adam/projects/psilocybin-prl-analyses/src/prl_hgf/env/pat_rl_simulator.py" source_line=92}
  ROOT tuple.191 = (f64[48]{0}, f64[48]{0}) tuple(select.190, select.189)
} // _where_1.184

_where_0.192 {
  Arg_0.193 = pred[48]{0} parameter(0), metadata={op_name="jit(scan)/jit(main)/while/body/pjit[in_shardings=(UnspecifiedValue, UnspecifiedValue) out_shardings=(UnspecifiedValue, UnspecifiedValue) in_layouts=(None, None) out_layouts=(None, None) resource_env=None donated_invars=(False, False) name=_where keep_unused=False inline=False]"}
  Arg_1.194 = f64[48]{0} parameter(1), metadata={op_name="jit(scan)/jit(main)/while/body/pjit[in_shardings=(UnspecifiedValue, UnspecifiedValue) out_shardings=(UnspecifiedValue, UnspecifiedValue) in_layouts=(None, None) out_layouts=(None, None) resource_env=None donated_invars=(False, False) name=_where keep_unused=False inline=False]"}
  constant.195 = f64[] constant(0)
  broadcast.196 = f64[48]{0} broadcast(constant.195), dimensions={}, metadata={op_name="jit(scan)/jit(main)/while/body/jit(_where)/broadcast_in_dim[shape=(48,) broadcast_dimensions=()]" source_file="/fs04/fc37/adam/projects/psilocybin-prl-analyses/src/prl_hgf/fitting/hierarchical_patrl.py" source_line=370}
  select.198 = f64[48]{0} select(Arg_0.193, Arg_1.194, broadcast.196), metadata={op_name="jit(scan)/jit(main)/while/body/jit(_where)/select_n" source_file="/fs04/fc37/adam/projects/psilocybin-prl-analyses/src/prl_hgf/fitting/hierarchical_patrl.py" source_line=370}
  select.197 = f64[48]{0} select(Arg_0.193, broadcast.196, Arg_1.194), metadata={op_name="jit(scan)/jit(main)/while/body/jit(_where)/select_n" source_file="/fs04/fc37/adam/projects/psilocybin-prl-analyses/src/prl_hgf/fitting/hierarchical_patrl.py" source_line=370}
  ROOT tuple.199 = (f64[48]{0}, f64[48]{0}) tuple(select.198, select.197)
} // _where_0.192

_where_1.200 {
  Arg_0.201 = pred[48]{0} parameter(0), metadata={op_name="jit(scan)/jit(main)/while/body/pjit[in_shardings=(UnspecifiedValue, UnspecifiedValue) out_shardings=(UnspecifiedValue, UnspecifiedValue) in_layouts=(None, None) out_layouts=(None, None) resource_env=None donated_invars=(False, False) name=_where keep_unused=False inline=False]"}
  Arg_1.202 = f64[48]{0} parameter(1), metadata={op_name="jit(scan)/jit(main)/while/body/pjit[in_shardings=(UnspecifiedValue, UnspecifiedValue) out_shardings=(UnspecifiedValue, UnspecifiedValue) in_layouts=(None, None) out_layouts=(None, None) resource_env=None donated_invars=(False, False) name=_where keep_unused=False inline=False]"}
  constant.203 = f64[] constant(0)
  broadcast.204 = f64[48]{0} broadcast(constant.203), dimensions={}, metadata={op_name="jit(scan)/jit(main)/while/body/jit(_where)/broadcast_in_dim[shape=(48,) broadcast_dimensions=()]" source_file="/fs04/fc37/adam/projects/psilocybin-prl-analyses/src/prl_hgf/env/pat_rl_simulator.py" source_line=92}
  select.206 = f64[48]{0} select(Arg_0.201, Arg_1.202, broadcast.204), metadata={op_name="jit(scan)/jit(main)/while/body/jit(_where)/select_n" source_file="/fs04/fc37/adam/projects/psilocybin-prl-analyses/src/prl_hgf/env/pat_rl_simulator.py" source_line=92}
  select.205 = f64[48]{0} select(Arg_0.201, broadcast.204, Arg_1.202), metadata={op_name="jit(scan)/jit(main)/while/body/jit(_where)/select_n" source_file="/fs04/fc37/adam/projects/psilocybin-prl-analyses/src/prl_hgf/env/pat_rl_simulator.py" source_line=92}
  ROOT tuple.207 = (f64[48]{0}, f64[48]{0}) tuple(select.206, select.205)
} // _where_1.200

_where_1.208 {
  Arg_0.209 = pred[48]{0} parameter(0), metadata={op_name="jit(scan)/jit(main)/while/body/pjit[in_shardings=(UnspecifiedValue, UnspecifiedValue) out_shardings=(UnspecifiedValue, UnspecifiedValue) in_layouts=(None, None) out_layouts=(None, None) resource_env=None donated_invars=(False, False) name=_where keep_unused=False inline=False]"}
  Arg_1.210 = f64[48]{0} parameter(1), metadata={op_name="jit(scan)/jit(main)/while/body/pjit[in_shardings=(UnspecifiedValue, UnspecifiedValue) out_shardings=(UnspecifiedValue, UnspecifiedValue) in_layouts=(None, None) out_layouts=(None, None) resource_env=None donated_invars=(False, False) name=_where keep_unused=False inline=False]"}
  constant.211 = f64[] constant(0)
  broadcast.212 = f64[48]{0} broadcast(constant.211), dimensions={}, metadata={op_name="jit(scan)/jit(main)/while/body/jit(_where)/broadcast_in_dim[shape=(48,) broadcast_dimensions=()]" source_file="/fs04/fc37/adam/projects/psilocybin-prl-analyses/src/prl_hgf/env/pat_rl_simulator.py" source_line=92}
  select.214 = f64[48]{0} select(Arg_0.209, Arg_1.210, broadcast.212), metadata={op_name="jit(scan)/jit(main)/while/body/jit(_where)/select_n" source_file="/fs04/fc37/adam/projects/psilocybin-prl-analyses/src/prl_hgf/env/pat_rl_simulator.py" source_line=92}
  select.213 = f64[48]{0} select(Arg_0.209, broadcast.212, Arg_1.210), metadata={op_name="jit(scan)/jit(main)/while/body/jit(_where)/select_n" source_file="/fs04/fc37/adam/projects/psilocybin-prl-analyses/src/prl_hgf/env/pat_rl_simulator.py" source_line=92}
  ROOT tuple.215 = (f64[48]{0}, f64[48]{0}) tuple(select.214, select.213)
} // _where_1.208

_where_1.216 {
  Arg_0.217 = pred[48]{0} parameter(0), metadata={op_name="jit(scan)/jit(main)/while/body/pjit[in_shardings=(UnspecifiedValue, UnspecifiedValue) out_shardings=(UnspecifiedValue, UnspecifiedValue) in_layouts=(None, None) out_layouts=(None, None) resource_env=None donated_invars=(False, False) name=_where keep_unused=False inline=False]"}
  Arg_1.218 = f64[48]{0} parameter(1), metadata={op_name="jit(scan)/jit(main)/while/body/pjit[in_shardings=(UnspecifiedValue, UnspecifiedValue) out_shardings=(UnspecifiedValue, UnspecifiedValue) in_layouts=(None, None) out_layouts=(None, None) resource_env=None donated_invars=(False, False) name=_where keep_unused=False inline=False]"}
  constant.219 = f64[] constant(0)
  broadcast.220 = f64[48]{0} broadcast(constant.219), dimensions={}, metadata={op_name="jit(scan)/jit(main)/while/body/jit(_where)/broadcast_in_dim[shape=(48,) broadcast_dimensions=()]" source_file="/fs04/fc37/adam/projects/psilocybin-prl-analyses/src/prl_hgf/env/pat_rl_simulator.py" source_line=92}
  select.222 = f64[48]{0} select(Arg_0.217, Arg_1.218, broadcast.220), metadata={op_name="jit(scan)/jit(main)/while/body/jit(_where)/select_n" source_file="/fs04/fc37/adam/projects/psilocybin-prl-analyses/src/prl_hgf/env/pat_rl_simulator.py" source_line=92}
  select.221 = f64[48]{0} select(Arg_0.217, broadcast.220, Arg_1.218), metadata={op_name="jit(scan)/jit(main)/while/body/jit(_where)/select_n" source_file="/fs04/fc37/adam/projects/psilocybin-prl-analyses/src/prl_hgf/env/pat_rl_simulator.py" source_line=92}
  ROOT tuple.223 = (f64[48]{0}, f64[48]{0}) tuple(select.222, select.221)
} // _where_1.216

_where_1.224 {
  Arg_0.225 = pred[48]{0} parameter(0), metadata={op_name="jit(scan)/jit(main)/while/body/pjit[in_shardings=(UnspecifiedValue, UnspecifiedValue) out_shardings=(UnspecifiedValue, UnspecifiedValue) in_layouts=(None, None) out_layouts=(None, None) resource_env=None donated_invars=(False, False) name=_where keep_unused=False inline=False]"}
  Arg_1.226 = f64[48]{0} parameter(1), metadata={op_name="jit(scan)/jit(main)/while/body/pjit[in_shardings=(UnspecifiedValue, UnspecifiedValue) out_shardings=(UnspecifiedValue, UnspecifiedValue) in_layouts=(None, None) out_layouts=(None, None) resource_env=None donated_invars=(False, False) name=_where keep_unused=False inline=False]"}
  constant.227 = f64[] constant(0)
  broadcast.228 = f64[48]{0} broadcast(constant.227), dimensions={}, metadata={op_name="jit(scan)/jit(main)/while/body/jit(_where)/broadcast_in_dim[shape=(48,) broadcast_dimensions=()]" source_file="/fs04/fc37/adam/projects/psilocybin-prl-analyses/src/prl_hgf/env/pat_rl_simulator.py" source_line=92}
  select.230 = f64[48]{0} select(Arg_0.225, Arg_1.226, broadcast.228), metadata={op_name="jit(scan)/jit(main)/while/body/jit(_where)/select_n" source_file="/fs04/fc37/adam/projects/psilocybin-prl-analyses/src/prl_hgf/env/pat_rl_simulator.py" source_line=92}
  select.229 = f64[48]{0} select(Arg_0.225, broadcast.228, Arg_1.226), metadata={op_name="jit(scan)/jit(main)/while/body/jit(_where)/select_n" source_file="/fs04/fc37/adam/projects/psilocybin-prl-analyses/src/prl_hgf/env/pat_rl_simulator.py" source_line=92}
  ROOT tuple.231 = (f64[48]{0}, f64[48]{0}) tuple(select.230, select.229)
} // _where_1.224

_where_1.232 {
  Arg_0.233 = pred[48]{0} parameter(0), metadata={op_name="jit(scan)/jit(main)/while/body/pjit[in_shardings=(UnspecifiedValue, UnspecifiedValue) out_shardings=(UnspecifiedValue, UnspecifiedValue) in_layouts=(None, None) out_layouts=(None, None) resource_env=None donated_invars=(False, False) name=_where keep_unused=False inline=False]"}
  Arg_1.234 = f64[48]{0} parameter(1), metadata={op_name="jit(scan)/jit(main)/while/body/pjit[in_shardings=(UnspecifiedValue, UnspecifiedValue) out_shardings=(UnspecifiedValue, UnspecifiedValue) in_layouts=(None, None) out_layouts=(None, None) resource_env=None donated_invars=(False, False) name=_where keep_unused=False inline=False]"}
  constant.235 = f64[] constant(0)
  broadcast.236 = f64[48]{0} broadcast(constant.235), dimensions={}, metadata={op_name="jit(scan)/jit(main)/while/body/jit(_where)/broadcast_in_dim[shape=(48,) broadcast_dimensions=()]" source_file="/fs04/fc37/adam/projects/psilocybin-prl-analyses/src/prl_hgf/env/pat_rl_simulator.py" source_line=92}
  select.238 = f64[48]{0} select(Arg_0.233, Arg_1.234, broadcast.236), metadata={op_name="jit(scan)/jit(main)/while/body/jit(_where)/select_n" source_file="/fs04/fc37/adam/projects/psilocybin-prl-analyses/src/prl_hgf/env/pat_rl_simulator.py" source_line=92}
  select.237 = f64[48]{0} select(Arg_0.233, broadcast.236, Arg_1.234), metadata={op_name="jit(scan)/jit(main)/while/body/jit(_where)/select_n" source_file="/fs04/fc37/adam/projects/psilocybin-prl-analyses/src/prl_hgf/env/pat_rl_simulator.py" source_line=92}
  ROOT tuple.239 = (f64[48]{0}, f64[48]{0}) tuple(select.238, select.237)
} // _where_1.232

_where_1.240 {
  Arg_0.241 = pred[48]{0} parameter(0), metadata={op_name="jit(scan)/jit(main)/while/body/pjit[in_shardings=(UnspecifiedValue, UnspecifiedValue) out_shardings=(UnspecifiedValue, UnspecifiedValue) in_layouts=(None, None) out_layouts=(None, None) resource_env=None donated_invars=(False, False) name=_where keep_unused=False inline=False]"}
  Arg_1.242 = f64[48]{0} parameter(1), metadata={op_name="jit(scan)/jit(main)/while/body/pjit[in_shardings=(UnspecifiedValue, UnspecifiedValue) out_shardings=(UnspecifiedValue, UnspecifiedValue) in_layouts=(None, None) out_layouts=(None, None) resource_env=None donated_invars=(False, False) name=_where keep_unused=False inline=False]"}
  constant.243 = f64[] constant(0)
  broadcast.244 = f64[48]{0} broadcast(constant.243), dimensions={}, metadata={op_name="jit(scan)/jit(main)/while/body/jit(_where)/broadcast_in_dim[shape=(48,) broadcast_dimensions=()]" source_file="/fs04/fc37/adam/projects/psilocybin-prl-analyses/src/prl_hgf/env/pat_rl_simulator.py" source_line=92}
  select.246 = f64[48]{0} select(Arg_0.241, Arg_1.242, broadcast.244), metadata={op_name="jit(scan)/jit(main)/while/body/jit(_where)/select_n" source_file="/fs04/fc37/adam/projects/psilocybin-prl-analyses/src/prl_hgf/env/pat_rl_simulator.py" source_line=92}
  select.245 = f64[48]{0} select(Arg_0.241, broadcast.244, Arg_1.242), metadata={op_name="jit(scan)/jit(main)/while/body/jit(_where)/select_n" source_file="/fs04/fc37/adam/projects/psilocybin-prl-analyses/src/prl_hgf/env/pat_rl_simulator.py" source_line=92}
  ROOT tuple.247 = (f64[48]{0}, f64[48]{0}) tuple(select.246, select.245)
} // _where_1.240

_where_1.248 {
  Arg_0.249 = pred[48]{0} parameter(0), metadata={op_name="jit(scan)/jit(main)/while/body/pjit[in_shardings=(UnspecifiedValue, UnspecifiedValue) out_shardings=(UnspecifiedValue, UnspecifiedValue) in_layouts=(None, None) out_layouts=(None, None) resource_env=None donated_invars=(False, False) name=_where keep_unused=False inline=False]"}
  Arg_1.250 = f64[48]{0} parameter(1), metadata={op_name="jit(scan)/jit(main)/while/body/pjit[in_shardings=(UnspecifiedValue, UnspecifiedValue) out_shardings=(UnspecifiedValue, UnspecifiedValue) in_layouts=(None, None) out_layouts=(None, None) resource_env=None donated_invars=(False, False) name=_where keep_unused=False inline=False]"}
  constant.251 = f64[] constant(0)
  broadcast.252 = f64[48]{0} broadcast(constant.251), dimensions={}, metadata={op_name="jit(scan)/jit(main)/while/body/jit(_where)/broadcast_in_dim[shape=(48,) broadcast_dimensions=()]" source_file="/fs04/fc37/adam/projects/psilocybin-prl-analyses/src/prl_hgf/env/pat_rl_simulator.py" source_line=92}
  select.254 = f64[48]{0} select(Arg_0.249, Arg_1.250, broadcast.252), metadata={op_name="jit(scan)/jit(main)/while/body/jit(_where)/select_n" source_file="/fs04/fc37/adam/projects/psilocybin-prl-analyses/src/prl_hgf/env/pat_rl_simulator.py" source_line=92}
  select.253 = f64[48]{0} select(Arg_0.249, broadcast.252, Arg_1.250), metadata={op_name="jit(scan)/jit(main)/while/body/jit(_where)/select_n" source_file="/fs04/fc37/adam/projects/psilocybin-prl-analyses/src/prl_hgf/env/pat_rl_simulator.py" source_line=92}
  ROOT tuple.255 = (f64[48]{0}, f64[48]{0}) tuple(select.254, select.253)
} // _where_1.248

_where_1.256 {
  Arg_0.257 = pred[48]{0} parameter(0), metadata={op_name="jit(scan)/jit(main)/while/body/pjit[in_shardings=(UnspecifiedValue, UnspecifiedValue) out_shardings=(UnspecifiedValue, UnspecifiedValue) in_layouts=(None, None) out_layouts=(None, None) resource_env=None donated_invars=(False, False) name=_where keep_unused=False inline=False]"}
  Arg_1.258 = f64[48]{0} parameter(1), metadata={op_name="jit(scan)/jit(main)/while/body/pjit[in_shardings=(UnspecifiedValue, UnspecifiedValue) out_shardings=(UnspecifiedValue, UnspecifiedValue) in_layouts=(None, None) out_layouts=(None, None) resource_env=None donated_invars=(False, False) name=_where keep_unused=False inline=False]"}
  constant.259 = f64[] constant(0)
  broadcast.260 = f64[48]{0} broadcast(constant.259), dimensions={}, metadata={op_name="jit(scan)/jit(main)/while/body/jit(_where)/broadcast_in_dim[shape=(48,) broadcast_dimensions=()]" source_file="/fs04/fc37/adam/projects/psilocybin-prl-analyses/src/prl_hgf/env/pat_rl_simulator.py" source_line=92}
  select.262 = f64[48]{0} select(Arg_0.257, Arg_1.258, broadcast.260), metadata={op_name="jit(scan)/jit(main)/while/body/jit(_where)/select_n" source_file="/fs04/fc37/adam/projects/psilocybin-prl-analyses/src/prl_hgf/env/pat_rl_simulator.py" source_line=92}
  select.261 = f64[48]{0} select(Arg_0.257, broadcast.260, Arg_1.258), metadata={op_name="jit(scan)/jit(main)/while/body/jit(_where)/select_n" source_file="/fs04/fc37/adam/projects/psilocybin-prl-analyses/src/prl_hgf/env/pat_rl_simulator.py" source_line=92}
  ROOT tuple.263 = (f64[48]{0}, f64[48]{0}) tuple(select.262, select.261)
} // _where_1.256

_where_2.264 {
  Arg_0.265 = pred[48]{0} parameter(0), metadata={op_name="jit(scan)/jit(main)/while/body/jit(beliefs_propagation)/jit(continuous_node_posterior_update_ehgf)/jit(posterior_update_precision_continuous_node)/jit(precision_update)/pjit[in_shardings=(UnspecifiedValue, UnspecifiedValue) out_shardings=(UnspecifiedValue,) in_layouts=(None, None) out_layouts=(None,) resource_env=None donated_invars=(False, False) name=_where keep_unused=False inline=False]"}
  Arg_1.266 = f64[48]{0} parameter(1), metadata={op_name="jit(scan)/jit(main)/while/body/jit(beliefs_propagation)/jit(continuous_node_posterior_update_ehgf)/jit(posterior_update_precision_continuous_node)/jit(precision_update)/pjit[in_shardings=(UnspecifiedValue, UnspecifiedValue) out_shardings=(UnspecifiedValue,) in_layouts=(None, None) out_layouts=(None,) resource_env=None donated_invars=(False, False) name=_where keep_unused=False inline=False]"}
  constant.267 = f64[] constant(0)
  broadcast.268 = f64[48]{0} broadcast(constant.267), dimensions={}, metadata={op_name="jit(scan)/jit(main)/while/body/jit(beliefs_propagation)/jit(continuous_node_posterior_update_ehgf)/jit(posterior_update_precision_continuous_node)/jit(precision_update)/jit(_where)/broadcast_in_dim[shape=(48,) broadcast_dimensions=()]" source_file="/fs04/fc37/adam/projects/psilocybin-prl-analyses/src/prl_hgf/env/pat_rl_simulator.py" source_line=92}
  ROOT select.269 = f64[48]{0} select(Arg_0.265, Arg_1.266, broadcast.268), metadata={op_name="jit(scan)/jit(main)/while/body/jit(beliefs_propagation)/jit(continuous_node_posterior_update_ehgf)/jit(posterior_update_precision_continuous_node)/jit(precision_update)/jit(_where)/select_n" source_file="/fs04/fc37/adam/projects/psilocybin-prl-analyses/src/prl_hgf/env/pat_rl_simulator.py" source_line=92}
}

precision_update.270 {
  Arg_7.278 = f64[48]{0} parameter(7), metadata={op_name="jit(scan)/jit(main)/while/body/jit(beliefs_propagation)/jit(continuous_node_posterior_update_ehgf)/jit(posterior_update_precision_continuous_node)/pjit[in_shardings=(UnspecifiedValue, UnspecifiedValue, UnspecifiedValue, UnspecifiedValue, UnspecifiedValue, UnspecifiedValue, UnspecifiedValue, UnspecifiedValue, UnspecifiedValue, UnspecifiedValue, UnspecifiedValue, UnspecifiedValue) out_shardings=(UnspecifiedValue, UnspecifiedValue, UnspecifiedValue, UnspecifiedValue) in_layouts=(None, None, None, None, None, None, None, None, None, None, None, None) out_layouts=(None, None, None, None) resource_env=None donated_invars=(False, False, False, False, False, False, False, False, False, False, False, False) name=precision_update keep_unused=False inline=False]"}
  Arg_10.281 = pred[48]{0} parameter(10), metadata={op_name="jit(scan)/jit(main)/while/body/jit(beliefs_propagation)/jit(continuous_node_posterior_update_ehgf)/jit(posterior_update_precision_continuous_node)/pjit[in_shardings=(UnspecifiedValue, UnspecifiedValue, UnspecifiedValue, UnspecifiedValue, UnspecifiedValue, UnspecifiedValue, UnspecifiedValue, UnspecifiedValue, UnspecifiedValue, UnspecifiedValue, UnspecifiedValue, UnspecifiedValue) out_shardings=(UnspecifiedValue, UnspecifiedValue, UnspecifiedValue, UnspecifiedValue) in_layouts=(None, None, None, None, None, None, None, None, None, None, None, None) out_layouts=(None, None, None, None) resource_env=None donated_invars=(False, False, False, False, False, False, False, False, False, False, False, False) name=precision_update keep_unused=False inline=False]"}
  Arg_11.282 = f64[48]{0} parameter(11), metadata={op_name="jit(scan)/jit(main)/while/body/jit(beliefs_propagation)/jit(continuous_node_posterior_update_ehgf)/jit(posterior_update_precision_continuous_node)/pjit[in_shardings=(UnspecifiedValue, UnspecifiedValue, UnspecifiedValue, UnspecifiedValue, UnspecifiedValue, UnspecifiedValue, UnspecifiedValue, UnspecifiedValue, UnspecifiedValue, UnspecifiedValue, UnspecifiedValue, UnspecifiedValue) out_shardings=(UnspecifiedValue, UnspecifiedValue, UnspecifiedValue, UnspecifiedValue) in_layouts=(None, None, None, None, None, None, None, None, None, None, None, None) out_layouts=(None, None, None, None) resource_env=None donated_invars=(False, False, False, False, False, False, False, False, False, False, False, False) name=precision_update keep_unused=False inline=False]"}
  call.285 = f64[48]{0} call(Arg_10.281, Arg_11.282), to_apply=_where_2.264
  Arg_9.280 = f64[48]{0} parameter(9), metadata={op_name="jit(scan)/jit(main)/while/body/jit(beliefs_propagation)/jit(continuous_node_posterior_update_ehgf)/jit(posterior_update_precision_continuous_node)/pjit[in_shardings=(UnspecifiedValue, UnspecifiedValue, UnspecifiedValue, UnspecifiedValue, UnspecifiedValue, UnspecifiedValue, UnspecifiedValue, UnspecifiedValue, UnspecifiedValue, UnspecifiedValue, UnspecifiedValue, UnspecifiedValue) out_shardings=(UnspecifiedValue, UnspecifiedValue, UnspecifiedValue, UnspecifiedValue) in_layouts=(None, None, None, None, None, None, None, None, None, None, None, None) out_layouts=(None, None, None, None) resource_env=None donated_invars=(False, False, False, False, False, False, False, False, False, False, False, False) name=precision_update keep_unused=False inline=False]"}
  multiply.286 = f64[48]{0} multiply(call.285, Arg_9.280), metadata={op_name="jit(scan)/jit(main)/while/body/jit(beliefs_propagation)/jit(continuous_node_posterior_update_ehgf)/jit(posterior_update_precision_continuous_node)/jit(precision_update)/mul" source_file="/fs04/fc37/adam/projects/psilocybin-prl-analyses/src/prl_hgf/fitting/hierarchical_patrl.py" source_line=362}
  negate.287 = f64[48]{0} negate(multiply.286), metadata={op_name="jit(scan)/jit(main)/while/body/jit(beliefs_propagation)/jit(continuous_node_posterior_update_ehgf)/jit(posterior_update_precision_continuous_node)/jit(precision_update)/neg" source_file="/fs04/fc37/adam/projects/psilocybin-prl-analyses/src/prl_hgf/fitting/hierarchical_patrl.py" source_line=362}
  Arg_4.275 = f64[48]{0} parameter(4), metadata={op_name="jit(scan)/jit(main)/while/body/jit(beliefs_propagation)/jit(continuous_node_posterior_update_ehgf)/jit(posterior_update_precision_continuous_node)/pjit[in_shardings=(UnspecifiedValue, UnspecifiedValue, UnspecifiedValue, UnspecifiedValue, UnspecifiedValue, UnspecifiedValue, UnspecifiedValue, UnspecifiedValue, UnspecifiedValue, UnspecifiedValue, UnspecifiedValue, UnspecifiedValue) out_shardings=(UnspecifiedValue, UnspecifiedValue, UnspecifiedValue, UnspecifiedValue) in_layouts=(None, None, None, None, None, None, None, None, None, None, None, None) out_layouts=(None, None, None, None) resource_env=None donated_invars=(False, False, False, False, False, False, False, False, False, False, False, False) name=precision_update keep_unused=False inline=False]"}
  multiply.289 = f64[48]{0} multiply(negate.287, Arg_4.275), metadata={op_name="jit(scan)/jit(main)/while/body/jit(beliefs_propagation)/jit(continuous_node_posterior_update_ehgf)/jit(posterior_update_precision_continuous_node)/jit(precision_update)/mul" source_file="/fs04/fc37/adam/projects/psilocybin-prl-analyses/src/prl_hgf/fitting/hierarchical_patrl.py" source_line=362}
  multiply.290 = f64[48]{0} multiply(Arg_7.278, multiply.289), metadata={op_name="jit(scan)/jit(main)/while/body/jit(beliefs_propagation)/jit(continuous_node_posterior_update_ehgf)/jit(posterior_update_precision_continuous_node)/jit(precision_update)/mul" source_file="/fs04/fc37/adam/projects/psilocybin-prl-analyses/src/prl_hgf/fitting/hierarchical_patrl.py" source_line=362}
  Arg_1.272 = f64[48]{0} parameter(1), metadata={op_name="jit(scan)/jit(main)/while/body/jit(beliefs_propagation)/jit(continuous_node_posterior_update_ehgf)/jit(posterior_update_precision_continuous_node)/pjit[in_shardings=(UnspecifiedValue, UnspecifiedValue, UnspecifiedValue, UnspecifiedValue, UnspecifiedValue, UnspecifiedValue, UnspecifiedValue, UnspecifiedValue, UnspecifiedValue, UnspecifiedValue, UnspecifiedValue, UnspecifiedValue) out_shardings=(UnspecifiedValue, UnspecifiedValue, UnspecifiedValue, UnspecifiedValue) in_layouts=(None, None, None, None, None, None, None, None, None, None, None, None) out_layouts=(None, None, None, None) resource_env=None donated_invars=(False, False, False, False, False, False, False, False, False, False, False, False) name=precision_update keep_unused=False inline=False]"}
  multiply.296 = f64[48]{0} multiply(multiply.286, Arg_4.275), metadata={op_name="jit(scan)/jit(main)/while/body/jit(beliefs_propagation)/jit(continuous_node_posterior_update_ehgf)/jit(posterior_update_precision_continuous_node)/jit(precision_update)/mul" source_file="/fs04/fc37/adam/projects/psilocybin-prl-analyses/src/prl_hgf/fitting/hierarchical_patrl.py" source_line=362}
  Arg_3.274 = f64[48]{0} parameter(3), metadata={op_name="jit(scan)/jit(main)/while/body/jit(beliefs_propagation)/jit(continuous_node_posterior_update_ehgf)/jit(posterior_update_precision_continuous_node)/pjit[in_shardings=(UnspecifiedValue, UnspecifiedValue, UnspecifiedValue, UnspecifiedValue, UnspecifiedValue, UnspecifiedValue, UnspecifiedValue, UnspecifiedValue, UnspecifiedValue, UnspecifiedValue, UnspecifiedValue, UnspecifiedValue) out_shardings=(UnspecifiedValue, UnspecifiedValue, UnspecifiedValue, UnspecifiedValue) in_layouts=(None, None, None, None, None, None, None, None, None, None, None, None) out_layouts=(None, None, None, None) resource_env=None donated_invars=(False, False, False, False, False, False, False, False, False, False, False, False) name=precision_update keep_unused=False inline=False]"}
  multiply.297 = f64[48]{0} multiply(multiply.296, Arg_3.274), metadata={op_name="jit(scan)/jit(main)/while/body/jit(beliefs_propagation)/jit(continuous_node_posterior_update_ehgf)/jit(posterior_update_precision_continuous_node)/jit(precision_update)/mul" source_file="/fs04/fc37/adam/projects/psilocybin-prl-analyses/src/prl_hgf/fitting/hierarchical_patrl.py" source_line=362}
  multiply.298 = f64[48]{0} multiply(Arg_1.272, multiply.297), metadata={op_name="jit(scan)/jit(main)/while/body/jit(beliefs_propagation)/jit(continuous_node_posterior_update_ehgf)/jit(posterior_update_precision_continuous_node)/jit(precision_update)/mul" source_file="/fs04/fc37/adam/projects/psilocybin-prl-analyses/src/prl_hgf/fitting/hierarchical_patrl.py" source_line=362}
  add.299 = f64[48]{0} add(multiply.290, multiply.298), metadata={op_name="jit(scan)/jit(main)/while/body/jit(beliefs_propagation)/jit(continuous_node_posterior_update_ehgf)/jit(posterior_update_precision_continuous_node)/jit(precision_update)/add_any" source_file="/fs04/fc37/adam/projects/psilocybin-prl-analyses/src/prl_hgf/fitting/hierarchical_patrl.py" source_line=362}
  constant.283 = f64[] constant(0.5)
  broadcast.284 = f64[48]{0} broadcast(constant.283), dimensions={}
  multiply.302 = f64[48]{0} multiply(multiply.286, broadcast.284), metadata={op_name="jit(scan)/jit(main)/while/body/jit(beliefs_propagation)/jit(continuous_node_posterior_update_ehgf)/jit(posterior_update_precision_continuous_node)/jit(precision_update)/mul" source_file="/fs04/fc37/adam/projects/psilocybin-prl-analyses/src/prl_hgf/fitting/hierarchical_patrl.py" source_line=362}
  Arg_2.273 = f64[48]{0} parameter(2), metadata={op_name="jit(scan)/jit(main)/while/body/jit(beliefs_propagation)/jit(continuous_node_posterior_update_ehgf)/jit(posterior_update_precision_continuous_node)/pjit[in_shardings=(UnspecifiedValue, UnspecifiedValue, UnspecifiedValue, UnspecifiedValue, UnspecifiedValue, UnspecifiedValue, UnspecifiedValue, UnspecifiedValue, UnspecifiedValue, UnspecifiedValue, UnspecifiedValue, UnspecifiedValue) out_shardings=(UnspecifiedValue, UnspecifiedValue, UnspecifiedValue, UnspecifiedValue) in_layouts=(None, None, None, None, None, None, None, None, None, None, None, None) out_layouts=(None, None, None, None) resource_env=None donated_invars=(False, False, False, False, False, False, False, False, False, False, False, False) name=precision_update keep_unused=False inline=False]"}
  multiply.303 = f64[48]{0} multiply(multiply.302, Arg_2.273), metadata={op_name="jit(scan)/jit(main)/while/body/jit(beliefs_propagation)/jit(continuous_node_posterior_update_ehgf)/jit(posterior_update_precision_continuous_node)/jit(precision_update)/mul" source_file="/fs04/fc37/adam/projects/psilocybin-prl-analyses/src/prl_hgf/fitting/hierarchical_patrl.py" source_line=362}
  multiply.304 = f64[48]{0} multiply(Arg_1.272, multiply.303), metadata={op_name="jit(scan)/jit(main)/while/body/jit(beliefs_propagation)/jit(continuous_node_posterior_update_ehgf)/jit(posterior_update_precision_continuous_node)/jit(precision_update)/mul" source_file="/fs04/fc37/adam/projects/psilocybin-prl-analyses/src/prl_hgf/fitting/hierarchical_patrl.py" source_line=362}
  add.305 = f64[48]{0} add(add.299, multiply.304), metadata={op_name="jit(scan)/jit(main)/while/body/jit(beliefs_propagation)/jit(continuous_node_posterior_update_ehgf)/jit(posterior_update_precision_continuous_node)/jit(precision_update)/add_any" source_file="/fs04/fc37/adam/projects/psilocybin-prl-analyses/src/prl_hgf/fitting/hierarchical_patrl.py" source_line=362}
  Arg_8.279 = f64[48]{0} parameter(8), metadata={op_name="jit(scan)/jit(main)/while/body/jit(beliefs_propagation)/jit(continuous_node_posterior_update_ehgf)/jit(posterior_update_precision_continuous_node)/pjit[in_shardings=(UnspecifiedValue, UnspecifiedValue, UnspecifiedValue, UnspecifiedValue, UnspecifiedValue, UnspecifiedValue, UnspecifiedValue, UnspecifiedValue, UnspecifiedValue, UnspecifiedValue, UnspecifiedValue, UnspecifiedValue) out_shardings=(UnspecifiedValue, UnspecifiedValue, UnspecifiedValue, UnspecifiedValue) in_layouts=(None, None, None, None, None, None, None, None, None, None, None, None) out_layouts=(None, None, None, None) resource_env=None donated_invars=(False, False, False, False, False, False, False, False, False, False, False, False) name=precision_update keep_unused=False inline=False]"}
  multiply.288 = f64[48]{0} multiply(Arg_8.279, negate.287), metadata={op_name="jit(scan)/jit(main)/while/body/jit(beliefs_propagation)/jit(continuous_node_posterior_update_ehgf)/jit(posterior_update_precision_continuous_node)/jit(precision_update)/mul" source_file="/fs04/fc37/adam/projects/psilocybin-prl-analyses/src/prl_hgf/fitting/hierarchical_patrl.py" source_line=362}
  Arg_5.276 = f64[48]{0} parameter(5), metadata={op_name="jit(scan)/jit(main)/while/body/jit(beliefs_propagation)/jit(continuous_node_posterior_update_ehgf)/jit(posterior_update_precision_continuous_node)/pjit[in_shardings=(UnspecifiedValue, UnspecifiedValue, UnspecifiedValue, UnspecifiedValue, UnspecifiedValue, UnspecifiedValue, UnspecifiedValue, UnspecifiedValue, UnspecifiedValue, UnspecifiedValue, UnspecifiedValue, UnspecifiedValue) out_shardings=(UnspecifiedValue, UnspecifiedValue, UnspecifiedValue, UnspecifiedValue) in_layouts=(None, None, None, None, None, None, None, None, None, None, None, None) out_layouts=(None, None, None, None) resource_env=None donated_invars=(False, False, False, False, False, False, False, False, False, False, False, False) name=precision_update keep_unused=False inline=False]"}
  multiply.294 = f64[48]{0} multiply(Arg_5.276, multiply.286), metadata={op_name="jit(scan)/jit(main)/while/body/jit(beliefs_propagation)/jit(continuous_node_posterior_update_ehgf)/jit(posterior_update_precision_continuous_node)/jit(precision_update)/mul" source_file="/fs04/fc37/adam/projects/psilocybin-prl-analyses/src/prl_hgf/fitting/hierarchical_patrl.py" source_line=362}
  add.295 = f64[48]{0} add(multiply.288, multiply.294), metadata={op_name="jit(scan)/jit(main)/while/body/jit(beliefs_propagation)/jit(continuous_node_posterior_update_ehgf)/jit(posterior_update_precision_continuous_node)/jit(precision_update)/add_any" source_file="/fs04/fc37/adam/projects/psilocybin-prl-analyses/src/prl_hgf/fitting/hierarchical_patrl.py" source_line=362}
  Arg_0.271 = f64[48]{0} parameter(0), metadata={op_name="jit(scan)/jit(main)/while/body/jit(beliefs_propagation)/jit(continuous_node_posterior_update_ehgf)/jit(posterior_update_precision_continuous_node)/pjit[in_shardings=(UnspecifiedValue, UnspecifiedValue, UnspecifiedValue, UnspecifiedValue, UnspecifiedValue, UnspecifiedValue, UnspecifiedValue, UnspecifiedValue, UnspecifiedValue, UnspecifiedValue, UnspecifiedValue, UnspecifiedValue) out_shardings=(UnspecifiedValue, UnspecifiedValue, UnspecifiedValue, UnspecifiedValue) in_layouts=(None, None, None, None, None, None, None, None, None, None, None, None) out_layouts=(None, None, None, None) resource_env=None donated_invars=(False, False, False, False, False, False, False, False, False, False, False, False) name=precision_update keep_unused=False inline=False]"}
  multiply.291 = f64[48]{0} multiply(multiply.289, Arg_0.271), metadata={op_name="jit(scan)/jit(main)/while/body/jit(beliefs_propagation)/jit(continuous_node_posterior_update_ehgf)/jit(posterior_update_precision_continuous_node)/jit(precision_update)/mul" source_file="/fs04/fc37/adam/projects/psilocybin-prl-analyses/src/prl_hgf/fitting/hierarchical_patrl.py" source_line=362}
  multiply.292 = f64[48]{0} multiply(multiply.291, broadcast.284), metadata={op_name="jit(scan)/jit(main)/while/body/jit(beliefs_propagation)/jit(continuous_node_posterior_update_ehgf)/jit(posterior_update_precision_continuous_node)/jit(precision_update)/mul" source_file="/fs04/fc37/adam/projects/psilocybin-prl-analyses/src/prl_hgf/fitting/hierarchical_patrl.py" source_line=362}
  Arg_6.277 = f64[48]{0} parameter(6), metadata={op_name="jit(scan)/jit(main)/while/body/jit(beliefs_propagation)/jit(continuous_node_posterior_update_ehgf)/jit(posterior_update_precision_continuous_node)/pjit[in_shardings=(UnspecifiedValue, UnspecifiedValue, UnspecifiedValue, UnspecifiedValue, UnspecifiedValue, UnspecifiedValue, UnspecifiedValue, UnspecifiedValue, UnspecifiedValue, UnspecifiedValue, UnspecifiedValue, UnspecifiedValue) out_shardings=(UnspecifiedValue, UnspecifiedValue, UnspecifiedValue, UnspecifiedValue) in_layouts=(None, None, None, None, None, None, None, None, None, None, None, None) out_layouts=(None, None, None, None) resource_env=None donated_invars=(False, False, False, False, False, False, False, False, False, False, False, False) name=precision_update keep_unused=False inline=False]"}
  multiply.293 = f64[48]{0} multiply(multiply.292, Arg_6.277), metadata={op_name="jit(scan)/jit(main)/while/body/jit(beliefs_propagation)/jit(continuous_node_posterior_update_ehgf)/jit(posterior_update_precision_continuous_node)/jit(precision_update)/mul" source_file="/fs04/fc37/adam/projects/psilocybin-prl-analyses/src/prl_hgf/fitting/hierarchical_patrl.py" source_line=362}
  multiply.300 = f64[48]{0} multiply(multiply.297, Arg_0.271), metadata={op_name="jit(scan)/jit(main)/while/body/jit(beliefs_propagation)/jit(continuous_node_posterior_update_ehgf)/jit(posterior_update_precision_continuous_node)/jit(precision_update)/mul" source_file="/fs04/fc37/adam/projects/psilocybin-prl-analyses/src/prl_hgf/fitting/hierarchical_patrl.py" source_line=362}
  add.301 = f64[48]{0} add(multiply.293, multiply.300), metadata={op_name="jit(scan)/jit(main)/while/body/jit(beliefs_propagation)/jit(continuous_node_posterior_update_ehgf)/jit(posterior_update_precision_continuous_node)/jit(precision_update)/add_any" source_file="/fs04/fc37/adam/projects/psilocybin-prl-analyses/src/prl_hgf/fitting/hierarchical_patrl.py" source_line=362}
  multiply.306 = f64[48]{0} multiply(multiply.303, Arg_0.271), metadata={op_name="jit(scan)/jit(main)/while/body/jit(beliefs_propagation)/jit(continuous_node_posterior_update_ehgf)/jit(posterior_update_precision_continuous_node)/jit(precision_update)/mul" source_file="/fs04/fc37/adam/projects/psilocybin-prl-analyses/src/prl_hgf/fitting/hierarchical_patrl.py" source_line=362}
  add.307 = f64[48]{0} add(add.301, multiply.306), metadata={op_name="jit(scan)/jit(main)/while/body/jit(beliefs_propagation)/jit(continuous_node_posterior_update_ehgf)/jit(posterior_update_precision_continuous_node)/jit(precision_update)/add_any" source_file="/fs04/fc37/adam/projects/psilocybin-prl-analyses/src/prl_hgf/fitting/hierarchical_patrl.py" source_line=362}
  reshape.308 = f64[48,1]{1,0} reshape(add.307), metadata={op_name="jit(scan)/jit(main)/while/body/jit(beliefs_propagation)/jit(continuous_node_posterior_update_ehgf)/jit(posterior_update_precision_continuous_node)/jit(precision_update)/broadcast_in_dim[shape=(48, 1) broadcast_dimensions=(0,)]" source_file="/fs04/fc37/adam/projects/psilocybin-prl-analyses/src/prl_hgf/fitting/hierarchical_patrl.py" source_line=362}
  ROOT tuple.309 = (f64[48]{0}, f64[48]{0}, f64[48]{0}, f64[48,1]{1,0}) tuple(add.305, add.295, call.285, reshape.308)
} // precision_update.270

precision_update_missing_values.310 {
  Arg_4.315 = f64[48]{0} parameter(4), metadata={op_name="jit(scan)/jit(main)/while/body/jit(beliefs_propagation)/jit(continuous_node_posterior_update_ehgf)/jit(posterior_update_precision_continuous_node)/pjit[in_shardings=(UnspecifiedValue, UnspecifiedValue, UnspecifiedValue, UnspecifiedValue, UnspecifiedValue) out_shardings=(UnspecifiedValue, UnspecifiedValue) in_layouts=(None, None, None, None, None) out_layouts=(None, None) resource_env=None donated_invars=(False, False, False, False, False) name=precision_update_missing_values keep_unused=False inline=False]"}
  Arg_3.314 = f64[48]{0} parameter(3), metadata={op_name="jit(scan)/jit(main)/while/body/jit(beliefs_propagation)/jit(continuous_node_posterior_update_ehgf)/jit(posterior_update_precision_continuous_node)/pjit[in_shardings=(UnspecifiedValue, UnspecifiedValue, UnspecifiedValue, UnspecifiedValue, UnspecifiedValue) out_shardings=(UnspecifiedValue, UnspecifiedValue) in_layouts=(None, None, None, None, None) out_layouts=(None, None) resource_env=None donated_invars=(False, False, False, False, False) name=precision_update_missing_values keep_unused=False inline=False]"}
  multiply.316 = f64[48]{0} multiply(Arg_4.315, Arg_3.314), metadata={op_name="jit(scan)/jit(main)/while/body/jit(beliefs_propagation)/jit(continuous_node_posterior_update_ehgf)/jit(posterior_update_precision_continuous_node)/jit(precision_update_missing_values)/mul" source_file="/fs04/fc37/adam/projects/psilocybin-prl-analyses/src/prl_hgf/fitting/hierarchical_patrl.py" source_line=362}
  negate.317 = f64[48]{0} negate(multiply.316), metadata={op_name="jit(scan)/jit(main)/while/body/jit(beliefs_propagation)/jit(continuous_node_posterior_update_ehgf)/jit(posterior_update_precision_continuous_node)/jit(precision_update_missing_values)/neg" source_file="/fs04/fc37/adam/projects/psilocybin-prl-analyses/src/prl_hgf/fitting/hierarchical_patrl.py" source_line=362}
  Arg_0.311 = f64[48]{0} parameter(0), metadata={op_name="jit(scan)/jit(main)/while/body/jit(beliefs_propagation)/jit(continuous_node_posterior_update_ehgf)/jit(posterior_update_precision_continuous_node)/pjit[in_shardings=(UnspecifiedValue, UnspecifiedValue, UnspecifiedValue, UnspecifiedValue, UnspecifiedValue) out_shardings=(UnspecifiedValue, UnspecifiedValue) in_layouts=(None, None, None, None, None) out_layouts=(None, None) resource_env=None donated_invars=(False, False, False, False, False) name=precision_update_missing_values keep_unused=False inline=False]"}
  multiply.320 = f64[48]{0} multiply(negate.317, Arg_0.311), metadata={op_name="jit(scan)/jit(main)/while/body/jit(beliefs_propagation)/jit(continuous_node_posterior_update_ehgf)/jit(posterior_update_precision_continuous_node)/jit(precision_update_missing_values)/mul" source_file="/fs04/fc37/adam/projects/psilocybin-prl-analyses/src/prl_hgf/fitting/hierarchical_patrl.py" source_line=362}
  negate.321 = f64[48]{0} negate(multiply.320), metadata={op_name="jit(scan)/jit(main)/while/body/jit(beliefs_propagation)/jit(continuous_node_posterior_update_ehgf)/jit(posterior_update_precision_continuous_node)/jit(precision_update_missing_values)/neg" source_file="/fs04/fc37/adam/projects/psilocybin-prl-analyses/src/prl_hgf/fitting/hierarchical_patrl.py" source_line=362}
  Arg_1.312 = f64[48]{0} parameter(1), metadata={op_name="jit(scan)/jit(main)/while/body/jit(beliefs_propagation)/jit(continuous_node_posterior_update_ehgf)/jit(posterior_update_precision_continuous_node)/pjit[in_shardings=(UnspecifiedValue, UnspecifiedValue, UnspecifiedValue, UnspecifiedValue, UnspecifiedValue) out_shardings=(UnspecifiedValue, UnspecifiedValue) in_layouts=(None, None, None, None, None) out_layouts=(None, None) resource_env=None donated_invars=(False, False, False, False, False) name=precision_update_missing_values keep_unused=False inline=False]"}
  multiply.318 = f64[48]{0} multiply(Arg_1.312, negate.317), metadata={op_name="jit(scan)/jit(main)/while/body/jit(beliefs_propagation)/jit(continuous_node_posterior_update_ehgf)/jit(posterior_update_precision_continuous_node)/jit(precision_update_missing_values)/mul" source_file="/fs04/fc37/adam/projects/psilocybin-prl-analyses/src/prl_hgf/fitting/hierarchical_patrl.py" source_line=362}
  Arg_2.313 = f64[48]{0} parameter(2), metadata={op_name="jit(scan)/jit(main)/while/body/jit(beliefs_propagation)/jit(continuous_node_posterior_update_ehgf)/jit(posterior_update_precision_continuous_node)/pjit[in_shardings=(UnspecifiedValue, UnspecifiedValue, UnspecifiedValue, UnspecifiedValue, UnspecifiedValue) out_shardings=(UnspecifiedValue, UnspecifiedValue) in_layouts=(None, None, None, None, None) out_layouts=(None, None) resource_env=None donated_invars=(False, False, False, False, False) name=precision_update_missing_values keep_unused=False inline=False]"}
  multiply.319 = f64[48]{0} multiply(multiply.318, Arg_2.313), metadata={op_name="jit(scan)/jit(main)/while/body/jit(beliefs_propagation)/jit(continuous_node_posterior_update_ehgf)/jit(posterior_update_precision_continuous_node)/jit(precision_update_missing_values)/mul" source_file="/fs04/fc37/adam/projects/psilocybin-prl-analyses/src/prl_hgf/fitting/hierarchical_patrl.py" source_line=362}
  ROOT tuple.322 = (f64[48]{0}, f64[48]{0}) tuple(negate.321, multiply.319)
} // precision_update_missing_values.310

posterior_update_precision_continuous_node.323 {
  Arg_6.330 = pred[48]{0} parameter(6), metadata={op_name="jit(scan)/jit(main)/while/body/jit(beliefs_propagation)/jit(continuous_node_posterior_update_ehgf)/pjit[in_shardings=(UnspecifiedValue, UnspecifiedValue, UnspecifiedValue, UnspecifiedValue, UnspecifiedValue, UnspecifiedValue, UnspecifiedValue, UnspecifiedValue, UnspecifiedValue, UnspecifiedValue, UnspecifiedValue, UnspecifiedValue, UnspecifiedValue, UnspecifiedValue, UnspecifiedValue, UnspecifiedValue, UnspecifiedValue, UnspecifiedValue, UnspecifiedValue, UnspecifiedValue) out_shardings=(UnspecifiedValue, UnspecifiedValue, UnspecifiedValue, UnspecifiedValue, UnspecifiedValue, UnspecifiedValue) in_layouts=(None, None, None, None, None, None, None, None, None, None, None, None, None, None, None, None, None, None, None, None) out_layouts=(None, None, None, None, None, None) resource_env=None donated_invars=(False, False, False, False, False, False, False, False, False, False, False, False, False, False, False, False, False, False, False, False) name=posterior_update_precision_continuous_node keep_unused=False inline=False]"}
  Arg_8.332 = f64[48]{0} parameter(8), metadata={op_name="jit(scan)/jit(main)/while/body/jit(beliefs_propagation)/jit(continuous_node_posterior_update_ehgf)/pjit[in_shardings=(UnspecifiedValue, UnspecifiedValue, UnspecifiedValue, UnspecifiedValue, UnspecifiedValue, UnspecifiedValue, UnspecifiedValue, UnspecifiedValue, UnspecifiedValue, UnspecifiedValue, UnspecifiedValue, UnspecifiedValue, UnspecifiedValue, UnspecifiedValue, UnspecifiedValue, UnspecifiedValue, UnspecifiedValue, UnspecifiedValue, UnspecifiedValue, UnspecifiedValue) out_shardings=(UnspecifiedValue, UnspecifiedValue, UnspecifiedValue, UnspecifiedValue, UnspecifiedValue, UnspecifiedValue) in_layouts=(None, None, None, None, None, None, None, None, None, None, None, None, None, None, None, None, None, None, None, None) out_layouts=(None, None, None, None, None, None) resource_env=None donated_invars=(False, False, False, False, False, False, False, False, False, False, False, False, False, False, False, False, False, False, False, False) name=posterior_update_precision_continuous_node keep_unused=False inline=False]"}
  Arg_9.333 = f64[48]{0} parameter(9), metadata={op_name="jit(scan)/jit(main)/while/body/jit(beliefs_propagation)/jit(continuous_node_posterior_update_ehgf)/pjit[in_shardings=(UnspecifiedValue, UnspecifiedValue, UnspecifiedValue, UnspecifiedValue, UnspecifiedValue, UnspecifiedValue, UnspecifiedValue, UnspecifiedValue, UnspecifiedValue, UnspecifiedValue, UnspecifiedValue, UnspecifiedValue, UnspecifiedValue, UnspecifiedValue, UnspecifiedValue, UnspecifiedValue, UnspecifiedValue, UnspecifiedValue, UnspecifiedValue, UnspecifiedValue) out_shardings=(UnspecifiedValue, UnspecifiedValue, UnspecifiedValue, UnspecifiedValue, UnspecifiedValue, UnspecifiedValue) in_layouts=(None, None, None, None, None, None, None, None, None, None, None, None, None, None, None, None, None, None, None, None) out_layouts=(None, None, None, None, None, None) resource_env=None donated_invars=(False, False, False, False, False, False, False, False, False, False, False, False, False, False, False, False, False, False, False, False) name=posterior_update_precision_continuous_node keep_unused=False inline=False]"}
  Arg_10.334 = f64[48]{0} parameter(10), metadata={op_name="jit(scan)/jit(main)/while/body/jit(beliefs_propagation)/jit(continuous_node_posterior_update_ehgf)/pjit[in_shardings=(UnspecifiedValue, UnspecifiedValue, UnspecifiedValue, UnspecifiedValue, UnspecifiedValue, UnspecifiedValue, UnspecifiedValue, UnspecifiedValue, UnspecifiedValue, UnspecifiedValue, UnspecifiedValue, UnspecifiedValue, UnspecifiedValue, UnspecifiedValue, UnspecifiedValue, UnspecifiedValue, UnspecifiedValue, UnspecifiedValue, UnspecifiedValue, UnspecifiedValue) out_shardings=(UnspecifiedValue, UnspecifiedValue, UnspecifiedValue, UnspecifiedValue, UnspecifiedValue, UnspecifiedValue) in_layouts=(None, None, None, None, None, None, None, None, None, None, None, None, None, None, None, None, None, None, None, None) out_layouts=(None, None, None, None, None, None) resource_env=None donated_invars=(False, False, False, False, False, False, False, False, False, False, False, False, False, False, False, False, False, False, False, False) name=posterior_update_precision_continuous_node keep_unused=False inline=False]"}
  Arg_11.335 = f64[48]{0} parameter(11), metadata={op_name="jit(scan)/jit(main)/while/body/jit(beliefs_propagation)/jit(continuous_node_posterior_update_ehgf)/pjit[in_shardings=(UnspecifiedValue, UnspecifiedValue, UnspecifiedValue, UnspecifiedValue, UnspecifiedValue, UnspecifiedValue, UnspecifiedValue, UnspecifiedValue, UnspecifiedValue, UnspecifiedValue, UnspecifiedValue, UnspecifiedValue, UnspecifiedValue, UnspecifiedValue, UnspecifiedValue, UnspecifiedValue, UnspecifiedValue, UnspecifiedValue, UnspecifiedValue, UnspecifiedValue) out_shardings=(UnspecifiedValue, UnspecifiedValue, UnspecifiedValue, UnspecifiedValue, UnspecifiedValue, UnspecifiedValue) in_layouts=(None, None, None, None, None, None, None, None, None, None, None, None, None, None, None, None, None, None, None, None) out_layouts=(None, None, None, None, None, None) resource_env=None donated_invars=(False, False, False, False, False, False, False, False, False, False, False, False, False, False, False, False, False, False, False, False) name=posterior_update_precision_continuous_node keep_unused=False inline=False]"}
  Arg_12.336 = f64[48]{0} parameter(12), metadata={op_name="jit(scan)/jit(main)/while/body/jit(beliefs_propagation)/jit(continuous_node_posterior_update_ehgf)/pjit[in_shardings=(UnspecifiedValue, UnspecifiedValue, UnspecifiedValue, UnspecifiedValue, UnspecifiedValue, UnspecifiedValue, UnspecifiedValue, UnspecifiedValue, UnspecifiedValue, UnspecifiedValue, UnspecifiedValue, UnspecifiedValue, UnspecifiedValue, UnspecifiedValue, UnspecifiedValue, UnspecifiedValue, UnspecifiedValue, UnspecifiedValue, UnspecifiedValue, UnspecifiedValue) out_shardings=(UnspecifiedValue, UnspecifiedValue, UnspecifiedValue, UnspecifiedValue, UnspecifiedValue, UnspecifiedValue) in_layouts=(None, None, None, None, None, None, None, None, None, None, None, None, None, None, None, None, None, None, None, None) out_layouts=(None, None, None, None, None, None) resource_env=None donated_invars=(False, False, False, False, False, False, False, False, False, False, False, False, False, False, False, False, False, False, False, False) name=posterior_update_precision_continuous_node keep_unused=False inline=False]"}
  Arg_13.337 = f64[48]{0} parameter(13), metadata={op_name="jit(scan)/jit(main)/while/body/jit(beliefs_propagation)/jit(continuous_node_posterior_update_ehgf)/pjit[in_shardings=(UnspecifiedValue, UnspecifiedValue, UnspecifiedValue, UnspecifiedValue, UnspecifiedValue, UnspecifiedValue, UnspecifiedValue, UnspecifiedValue, UnspecifiedValue, UnspecifiedValue, UnspecifiedValue, UnspecifiedValue, UnspecifiedValue, UnspecifiedValue, UnspecifiedValue, UnspecifiedValue, UnspecifiedValue, UnspecifiedValue, UnspecifiedValue, UnspecifiedValue) out_shardings=(UnspecifiedValue, UnspecifiedValue, UnspecifiedValue, UnspecifiedValue, UnspecifiedValue, UnspecifiedValue) in_layouts=(None, None, None, None, None, None, None, None, None, None, None, None, None, None, None, None, None, None, None, None) out_layouts=(None, None, None, None, None, None) resource_env=None donated_invars=(False, False, False, False, False, False, False, False, False, False, False, False, False, False, False, False, False, False, False, False) name=posterior_update_precision_continuous_node keep_unused=False inline=False]"}
  Arg_14.338 = f64[48]{0} parameter(14), metadata={op_name="jit(scan)/jit(main)/while/body/jit(beliefs_propagation)/jit(continuous_node_posterior_update_ehgf)/pjit[in_shardings=(UnspecifiedValue, UnspecifiedValue, UnspecifiedValue, UnspecifiedValue, UnspecifiedValue, UnspecifiedValue, UnspecifiedValue, UnspecifiedValue, UnspecifiedValue, UnspecifiedValue, UnspecifiedValue, UnspecifiedValue, UnspecifiedValue, UnspecifiedValue, UnspecifiedValue, UnspecifiedValue, UnspecifiedValue, UnspecifiedValue, UnspecifiedValue, UnspecifiedValue) out_shardings=(UnspecifiedValue, UnspecifiedValue, UnspecifiedValue, UnspecifiedValue, UnspecifiedValue, UnspecifiedValue) in_layouts=(None, None, None, None, None, None, None, None, None, None, None, None, None, None, None, None, None, None, None, None) out_layouts=(None, None, None, None, None, None) resource_env=None donated_invars=(False, False, False, False, False, False, False, False, False, False, False, False, False, False, False, False, False, False, False, False) name=posterior_update_precision_continuous_node keep_unused=False inline=False]"}
  Arg_15.339 = f64[48]{0} parameter(15), metadata={op_name="jit(scan)/jit(main)/while/body/jit(beliefs_propagation)/jit(continuous_node_posterior_update_ehgf)/pjit[in_shardings=(UnspecifiedValue, UnspecifiedValue, UnspecifiedValue, UnspecifiedValue, UnspecifiedValue, UnspecifiedValue, UnspecifiedValue, UnspecifiedValue, UnspecifiedValue, UnspecifiedValue, UnspecifiedValue, UnspecifiedValue, UnspecifiedValue, UnspecifiedValue, UnspecifiedValue, UnspecifiedValue, UnspecifiedValue, UnspecifiedValue, UnspecifiedValue, UnspecifiedValue) out_shardings=(UnspecifiedValue, UnspecifiedValue, UnspecifiedValue, UnspecifiedValue, UnspecifiedValue, UnspecifiedValue) in_layouts=(None, None, None, None, None, None, None, None, None, None, None, None, None, None, None, None, None, None, None, None) out_layouts=(None, None, None, None, None, None) resource_env=None donated_invars=(False, False, False, False, False, False, False, False, False, False, False, False, False, False, False, False, False, False, False, False) name=posterior_update_precision_continuous_node keep_unused=False inline=False]"}
  Arg_16.340 = f64[48]{0} parameter(16), metadata={op_name="jit(scan)/jit(main)/while/body/jit(beliefs_propagation)/jit(continuous_node_posterior_update_ehgf)/pjit[in_shardings=(UnspecifiedValue, UnspecifiedValue, UnspecifiedValue, UnspecifiedValue, UnspecifiedValue, UnspecifiedValue, UnspecifiedValue, UnspecifiedValue, UnspecifiedValue, UnspecifiedValue, UnspecifiedValue, UnspecifiedValue, UnspecifiedValue, UnspecifiedValue, UnspecifiedValue, UnspecifiedValue, UnspecifiedValue, UnspecifiedValue, UnspecifiedValue, UnspecifiedValue) out_shardings=(UnspecifiedValue, UnspecifiedValue, UnspecifiedValue, UnspecifiedValue, UnspecifiedValue, UnspecifiedValue) in_layouts=(None, None, None, None, None, None, None, None, None, None, None, None, None, None, None, None, None, None, None, None) out_layouts=(None, None, None, None, None, None) resource_env=None donated_invars=(False, False, False, False, False, False, False, False, False, False, False, False, False, False, False, False, False, False, False, False) name=posterior_update_precision_continuous_node keep_unused=False inline=False]"}
  Arg_17.341 = f64[48]{0} parameter(17), metadata={op_name="jit(scan)/jit(main)/while/body/jit(beliefs_propagation)/jit(continuous_node_posterior_update_ehgf)/pjit[in_shardings=(UnspecifiedValue, UnspecifiedValue, UnspecifiedValue, UnspecifiedValue, UnspecifiedValue, UnspecifiedValue, UnspecifiedValue, UnspecifiedValue, UnspecifiedValue, UnspecifiedValue, UnspecifiedValue, UnspecifiedValue, UnspecifiedValue, UnspecifiedValue, UnspecifiedValue, UnspecifiedValue, UnspecifiedValue, UnspecifiedValue, UnspecifiedValue, UnspecifiedValue) out_shardings=(UnspecifiedValue, UnspecifiedValue, UnspecifiedValue, UnspecifiedValue, UnspecifiedValue, UnspecifiedValue) in_layouts=(None, None, None, None, None, None, None, None, None, None, None, None, None, None, None, None, None, None, None, None) out_layouts=(None, None, None, None, None, None) resource_env=None donated_invars=(False, False, False, False, False, False, False, False, False, False, False, False, False, False, False, False, False, False, False, False) name=posterior_update_precision_continuous_node keep_unused=False inline=False]"}
  Arg_18.342 = pred[48]{0} parameter(18), metadata={op_name="jit(scan)/jit(main)/while/body/jit(beliefs_propagation)/jit(continuous_node_posterior_update_ehgf)/pjit[in_shardings=(UnspecifiedValue, UnspecifiedValue, UnspecifiedValue, UnspecifiedValue, UnspecifiedValue, UnspecifiedValue, UnspecifiedValue, UnspecifiedValue, UnspecifiedValue, UnspecifiedValue, UnspecifiedValue, UnspecifiedValue, UnspecifiedValue, UnspecifiedValue, UnspecifiedValue, UnspecifiedValue, UnspecifiedValue, UnspecifiedValue, UnspecifiedValue, UnspecifiedValue) out_shardings=(UnspecifiedValue, UnspecifiedValue, UnspecifiedValue, UnspecifiedValue, UnspecifiedValue, UnspecifiedValue) in_layouts=(None, None, None, None, None, None, None, None, None, None, None, None, None, None, None, None, None, None, None, None) out_layouts=(None, None, None, None, None, None) resource_env=None donated_invars=(False, False, False, False, False, False, False, False, False, False, False, False, False, False, False, False, False, False, False, False) name=posterior_update_precision_continuous_node keep_unused=False inline=False]"}
  Arg_0.324 = s32[48]{0} parameter(0), metadata={op_name="jit(scan)/jit(main)/while/body/jit(beliefs_propagation)/jit(continuous_node_posterior_update_ehgf)/pjit[in_shardings=(UnspecifiedValue, UnspecifiedValue, UnspecifiedValue, UnspecifiedValue, UnspecifiedValue, UnspecifiedValue, UnspecifiedValue, UnspecifiedValue, UnspecifiedValue, UnspecifiedValue, UnspecifiedValue, UnspecifiedValue, UnspecifiedValue, UnspecifiedValue, UnspecifiedValue, UnspecifiedValue, UnspecifiedValue, UnspecifiedValue, UnspecifiedValue, UnspecifiedValue) out_shardings=(UnspecifiedValue, UnspecifiedValue, UnspecifiedValue, UnspecifiedValue, UnspecifiedValue, UnspecifiedValue) in_layouts=(None, None, None, None, None, None, None, None, None, None, None, None, None, None, None, None, None, None, None, None) out_layouts=(None, None, None, None, None, None) resource_env=None donated_invars=(False, False, False, False, False, False, False, False, False, False, False, False, False, False, False, False, False, False, False, False) name=posterior_update_precision_continuous_node keep_unused=False inline=False]"}
  constant.346 = s32[] constant(1)
  broadcast.347 = s32[48]{0} broadcast(constant.346), dimensions={}
  compare.354 = pred[48]{0} compare(Arg_0.324, broadcast.347), direction=EQ, metadata={op_name="jit(scan)/jit(main)/while/body/jit(beliefs_propagation)/jit(continuous_node_posterior_update_ehgf)/jit(posterior_update_precision_continuous_node)/eq" source_file="/fs04/fc37/adam/projects/psilocybin-prl-analyses/src/prl_hgf/fitting/hierarchical_patrl.py" source_line=362}
  Arg_19.343 = f64[48]{0} parameter(19), metadata={op_name="jit(scan)/jit(main)/while/body/jit(beliefs_propagation)/jit(continuous_node_posterior_update_ehgf)/pjit[in_shardings=(UnspecifiedValue, UnspecifiedValue, UnspecifiedValue, UnspecifiedValue, UnspecifiedValue, UnspecifiedValue, UnspecifiedValue, UnspecifiedValue, UnspecifiedValue, UnspecifiedValue, UnspecifiedValue, UnspecifiedValue, UnspecifiedValue, UnspecifiedValue, UnspecifiedValue, UnspecifiedValue, UnspecifiedValue, UnspecifiedValue, UnspecifiedValue, UnspecifiedValue) out_shardings=(UnspecifiedValue, UnspecifiedValue, UnspecifiedValue, UnspecifiedValue, UnspecifiedValue, UnspecifiedValue) in_layouts=(None, None, None, None, None, None, None, None, None, None, None, None, None, None, None, None, None, None, None, None) out_layouts=(None, None, None, None, None, None) resource_env=None donated_invars=(False, False, False, False, False, False, False, False, False, False, False, False, False, False, False, False, False, False, False, False) name=posterior_update_precision_continuous_node keep_unused=False inline=False]"}
  constant.348 = f64[] constant(0)
  broadcast.349 = f64[48]{0} broadcast(constant.348), dimensions={}
  select.355 = f64[48]{0} select(compare.354, Arg_19.343, broadcast.349), metadata={op_name="jit(scan)/jit(main)/while/body/jit(beliefs_propagation)/jit(continuous_node_posterior_update_ehgf)/jit(posterior_update_precision_continuous_node)/select_n" source_file="/fs04/fc37/adam/projects/psilocybin-prl-analyses/src/prl_hgf/fitting/hierarchical_patrl.py" source_line=362}
  call.356 = (f64[48]{0}, f64[48]{0}, f64[48]{0}, f64[48,1]{1,0}) call(Arg_8.332, Arg_9.333, Arg_10.334, Arg_11.335, Arg_12.336, /*index=5*/Arg_13.337, Arg_14.338, Arg_15.339, Arg_16.340, Arg_17.341, /*index=10*/Arg_18.342, select.355), to_apply=precision_update.270
  get-tuple-element.357 = f64[48]{0} get-tuple-element(call.356), index=0
  select.364 = f64[48]{0} select(Arg_6.330, get-tuple-element.357, broadcast.349), metadata={op_name="jit(scan)/jit(main)/while/body/jit(beliefs_propagation)/jit(continuous_node_posterior_update_ehgf)/jit(posterior_update_precision_continuous_node)/select_n" source_file="/fs04/fc37/adam/projects/psilocybin-prl-analyses/src/prl_hgf/fitting/hierarchical_patrl.py" source_line=362}
  get-tuple-element.358 = f64[48]{0} get-tuple-element(call.356), index=1
  select.363 = f64[48]{0} select(Arg_6.330, get-tuple-element.358, broadcast.349), metadata={op_name="jit(scan)/jit(main)/while/body/jit(beliefs_propagation)/jit(continuous_node_posterior_update_ehgf)/jit(posterior_update_precision_continuous_node)/select_n" source_file="/fs04/fc37/adam/projects/psilocybin-prl-analyses/src/prl_hgf/fitting/hierarchical_patrl.py" source_line=362}
  get-tuple-element.359 = f64[48]{0} get-tuple-element(call.356), index=2
  select.362 = f64[48]{0} select(Arg_6.330, get-tuple-element.359, broadcast.349), metadata={op_name="jit(scan)/jit(main)/while/body/jit(beliefs_propagation)/jit(continuous_node_posterior_update_ehgf)/jit(posterior_update_precision_continuous_node)/select_n" source_file="/fs04/fc37/adam/projects/psilocybin-prl-analyses/src/prl_hgf/fitting/hierarchical_patrl.py" source_line=362}
  Arg_1.325 = pred[48]{0} parameter(1), metadata={op_name="jit(scan)/jit(main)/while/body/jit(beliefs_propagation)/jit(continuous_node_posterior_update_ehgf)/pjit[in_shardings=(UnspecifiedValue, UnspecifiedValue, UnspecifiedValue, UnspecifiedValue, UnspecifiedValue, UnspecifiedValue, UnspecifiedValue, UnspecifiedValue, UnspecifiedValue, UnspecifiedValue, UnspecifiedValue, UnspecifiedValue, UnspecifiedValue, UnspecifiedValue, UnspecifiedValue, UnspecifiedValue, UnspecifiedValue, UnspecifiedValue, UnspecifiedValue, UnspecifiedValue) out_shardings=(UnspecifiedValue, UnspecifiedValue, UnspecifiedValue, UnspecifiedValue, UnspecifiedValue, UnspecifiedValue) in_layouts=(None, None, None, None, None, None, None, None, None, None, None, None, None, None, None, None, None, None, None, None) out_layouts=(None, None, None, None, None, None) resource_env=None donated_invars=(False, False, False, False, False, False, False, False, False, False, False, False, False, False, False, False, False, False, False, False) name=posterior_update_precision_continuous_node keep_unused=False inline=False]"}
  Arg_2.326 = f64[48]{0} parameter(2), metadata={op_name="jit(scan)/jit(main)/while/body/jit(beliefs_propagation)/jit(continuous_node_posterior_update_ehgf)/pjit[in_shardings=(UnspecifiedValue, UnspecifiedValue, UnspecifiedValue, UnspecifiedValue, UnspecifiedValue, UnspecifiedValue, UnspecifiedValue, UnspecifiedValue, UnspecifiedValue, UnspecifiedValue, UnspecifiedValue, UnspecifiedValue, UnspecifiedValue, UnspecifiedValue, UnspecifiedValue, UnspecifiedValue, UnspecifiedValue, UnspecifiedValue, UnspecifiedValue, UnspecifiedValue) out_shardings=(UnspecifiedValue, UnspecifiedValue, UnspecifiedValue, UnspecifiedValue, UnspecifiedValue, UnspecifiedValue) in_layouts=(None, None, None, None, None, None, None, None, None, None, None, None, None, None, None, None, None, None, None, None) out_layouts=(None, None, None, None, None, None) resource_env=None donated_invars=(False, False, False, False, False, False, False, False, False, False, False, False, False, False, False, False, False, False, False, False) name=posterior_update_precision_continuous_node keep_unused=False inline=False]"}
  Arg_3.327 = f64[48]{0} parameter(3), metadata={op_name="jit(scan)/jit(main)/while/body/jit(beliefs_propagation)/jit(continuous_node_posterior_update_ehgf)/pjit[in_shardings=(UnspecifiedValue, UnspecifiedValue, UnspecifiedValue, UnspecifiedValue, UnspecifiedValue, UnspecifiedValue, UnspecifiedValue, UnspecifiedValue, UnspecifiedValue, UnspecifiedValue, UnspecifiedValue, UnspecifiedValue, UnspecifiedValue, UnspecifiedValue, UnspecifiedValue, UnspecifiedValue, UnspecifiedValue, UnspecifiedValue, UnspecifiedValue, UnspecifiedValue) out_shardings=(UnspecifiedValue, UnspecifiedValue, UnspecifiedValue, UnspecifiedValue, UnspecifiedValue, UnspecifiedValue) in_layouts=(None, None, None, None, None, None, None, None, None, None, None, None, None, None, None, None, None, None, None, None) out_layouts=(None, None, None, None, None, None) resource_env=None donated_invars=(False, False, False, False, False, False, False, False, False, False, False, False, False, False, False, False, False, False, False, False) name=posterior_update_precision_continuous_node keep_unused=False inline=False]"}
  Arg_4.328 = f64[48]{0} parameter(4), metadata={op_name="jit(scan)/jit(main)/while/body/jit(beliefs_propagation)/jit(continuous_node_posterior_update_ehgf)/pjit[in_shardings=(UnspecifiedValue, UnspecifiedValue, UnspecifiedValue, UnspecifiedValue, UnspecifiedValue, UnspecifiedValue, UnspecifiedValue, UnspecifiedValue, UnspecifiedValue, UnspecifiedValue, UnspecifiedValue, UnspecifiedValue, UnspecifiedValue, UnspecifiedValue, UnspecifiedValue, UnspecifiedValue, UnspecifiedValue, UnspecifiedValue, UnspecifiedValue, UnspecifiedValue) out_shardings=(UnspecifiedValue, UnspecifiedValue, UnspecifiedValue, UnspecifiedValue, UnspecifiedValue, UnspecifiedValue) in_layouts=(None, None, None, None, None, None, None, None, None, None, None, None, None, None, None, None, None, None, None, None) out_layouts=(None, None, None, None, None, None) resource_env=None donated_invars=(False, False, False, False, False, False, False, False, False, False, False, False, False, False, False, False, False, False, False, False) name=posterior_update_precision_continuous_node keep_unused=False inline=False]"}
  Arg_5.329 = f64[48]{0} parameter(5), metadata={op_name="jit(scan)/jit(main)/while/body/jit(beliefs_propagation)/jit(continuous_node_posterior_update_ehgf)/pjit[in_shardings=(UnspecifiedValue, UnspecifiedValue, UnspecifiedValue, UnspecifiedValue, UnspecifiedValue, UnspecifiedValue, UnspecifiedValue, UnspecifiedValue, UnspecifiedValue, UnspecifiedValue, UnspecifiedValue, UnspecifiedValue, UnspecifiedValue, UnspecifiedValue, UnspecifiedValue, UnspecifiedValue, UnspecifiedValue, UnspecifiedValue, UnspecifiedValue, UnspecifiedValue) out_shardings=(UnspecifiedValue, UnspecifiedValue, UnspecifiedValue, UnspecifiedValue, UnspecifiedValue, UnspecifiedValue) in_layouts=(None, None, None, None, None, None, None, None, None, None, None, None, None, None, None, None, None, None, None, None) out_layouts=(None, None, None, None, None, None) resource_env=None donated_invars=(False, False, False, False, False, False, False, False, False, False, False, False, False, False, False, False, False, False, False, False) name=posterior_update_precision_continuous_node keep_unused=False inline=False]"}
  constant.350 = s32[] constant(0)
  broadcast.351 = s32[48]{0} broadcast(constant.350), dimensions={}, metadata={op_name="jit(scan)/jit(main)/while/body/jit(beliefs_propagation)/jit(continuous_node_posterior_update_ehgf)/jit(posterior_update_precision_continuous_node)/eq" source_file="/fs04/fc37/adam/projects/psilocybin-prl-analyses/src/prl_hgf/fitting/hierarchical_patrl.py" source_line=362}
  compare.352 = pred[48]{0} compare(Arg_0.324, broadcast.351), direction=EQ, metadata={op_name="jit(scan)/jit(main)/while/body/jit(beliefs_propagation)/jit(continuous_node_posterior_update_ehgf)/jit(posterior_update_precision_continuous_node)/eq" source_file="/fs04/fc37/adam/projects/psilocybin-prl-analyses/src/prl_hgf/fitting/hierarchical_patrl.py" source_line=362}
  select.353 = f64[48]{0} select(compare.352, Arg_19.343, broadcast.349), metadata={op_name="jit(scan)/jit(main)/while/body/jit(beliefs_propagation)/jit(continuous_node_posterior_update_ehgf)/jit(posterior_update_precision_continuous_node)/select_n" source_file="/fs04/fc37/adam/projects/psilocybin-prl-analyses/src/prl_hgf/fitting/hierarchical_patrl.py" source_line=362}
  call.365 = (f64[48]{0}, f64[48]{0}) call(Arg_2.326, Arg_3.327, Arg_4.328, Arg_5.329, select.353), to_apply=precision_update_missing_values.310
  get-tuple-element.366 = f64[48]{0} get-tuple-element(call.365), index=0
  select.369 = f64[48]{0} select(Arg_1.325, get-tuple-element.366, broadcast.349), metadata={op_name="jit(scan)/jit(main)/while/body/jit(beliefs_propagation)/jit(continuous_node_posterior_update_ehgf)/jit(posterior_update_precision_continuous_node)/select_n" source_file="/fs04/fc37/adam/projects/psilocybin-prl-analyses/src/prl_hgf/fitting/hierarchical_patrl.py" source_line=362}
  get-tuple-element.367 = f64[48]{0} get-tuple-element(call.365), index=1
  select.368 = f64[48]{0} select(Arg_1.325, get-tuple-element.367, broadcast.349), metadata={op_name="jit(scan)/jit(main)/while/body/jit(beliefs_propagation)/jit(continuous_node_posterior_update_ehgf)/jit(posterior_update_precision_continuous_node)/select_n" source_file="/fs04/fc37/adam/projects/psilocybin-prl-analyses/src/prl_hgf/fitting/hierarchical_patrl.py" source_line=362}
  Arg_7.331 = pred[48,1]{1,0} parameter(7), metadata={op_name="jit(scan)/jit(main)/while/body/jit(beliefs_propagation)/jit(continuous_node_posterior_update_ehgf)/pjit[in_shardings=(UnspecifiedValue, UnspecifiedValue, UnspecifiedValue, UnspecifiedValue, UnspecifiedValue, UnspecifiedValue, UnspecifiedValue, UnspecifiedValue, UnspecifiedValue, UnspecifiedValue, UnspecifiedValue, UnspecifiedValue, UnspecifiedValue, UnspecifiedValue, UnspecifiedValue, UnspecifiedValue, UnspecifiedValue, UnspecifiedValue, UnspecifiedValue, UnspecifiedValue) out_shardings=(UnspecifiedValue, UnspecifiedValue, UnspecifiedValue, UnspecifiedValue, UnspecifiedValue, UnspecifiedValue) in_layouts=(None, None, None, None, None, None, None, None, None, None, None, None, None, None, None, None, None, None, None, None) out_layouts=(None, None, None, None, None, None) resource_env=None donated_invars=(False, False, False, False, False, False, False, False, False, False, False, False, False, False, False, False, False, False, False, False) name=posterior_update_precision_continuous_node keep_unused=False inline=False]"}
  get-tuple-element.360 = f64[48,1]{1,0} get-tuple-element(call.356), index=3
  constant.344 = f64[] constant(0)
  broadcast.345 = f64[48,1]{1,0} broadcast(constant.344), dimensions={}
  select.361 = f64[48,1]{1,0} select(Arg_7.331, get-tuple-element.360, broadcast.345), metadata={op_name="jit(scan)/jit(main)/while/body/jit(beliefs_propagation)/jit(continuous_node_posterior_update_ehgf)/jit(posterior_update_precision_continuous_node)/select_n" source_file="/fs04/fc37/adam/projects/psilocybin-prl-analyses/src/prl_hgf/fitting/hierarchical_patrl.py" source_line=362}
  ROOT tuple.370 = (f64[48]{0}, f64[48]{0}, f64[48]{0}, f64[48]{0}, f64[48]{0}, /*index=5*/f64[48,1]{1,0}) tuple(select.364, select.363, select.362, select.369, select.368, /*index=5*/select.361)
} // posterior_update_precision_continuous_node.323

posterior_update_mean_continuous_node.371 {
  Arg_1.373 = f64[48]{0} parameter(1), metadata={op_name="jit(scan)/jit(main)/while/body/jit(beliefs_propagation)/jit(continuous_node_posterior_update_ehgf)/pjit[in_shardings=(UnspecifiedValue, UnspecifiedValue, UnspecifiedValue, UnspecifiedValue, UnspecifiedValue, UnspecifiedValue, UnspecifiedValue, UnspecifiedValue, UnspecifiedValue) out_shardings=(UnspecifiedValue, UnspecifiedValue, UnspecifiedValue, UnspecifiedValue) in_layouts=(None, None, None, None, None, None, None, None, None) out_layouts=(None, None, None, None) resource_env=None donated_invars=(False, False, False, False, False, False, False, False, False) name=posterior_update_mean_continuous_node keep_unused=False inline=False]"}
  Arg_8.380 = f64[48]{0} parameter(8), metadata={op_name="jit(scan)/jit(main)/while/body/jit(beliefs_propagation)/jit(continuous_node_posterior_update_ehgf)/pjit[in_shardings=(UnspecifiedValue, UnspecifiedValue, UnspecifiedValue, UnspecifiedValue, UnspecifiedValue, UnspecifiedValue, UnspecifiedValue, UnspecifiedValue, UnspecifiedValue) out_shardings=(UnspecifiedValue, UnspecifiedValue, UnspecifiedValue, UnspecifiedValue) in_layouts=(None, None, None, None, None, None, None, None, None) out_layouts=(None, None, None, None) resource_env=None donated_invars=(False, False, False, False, False, False, False, False, False) name=posterior_update_mean_continuous_node keep_unused=False inline=False]"}
  Arg_7.379 = f64[48]{0} parameter(7), metadata={op_name="jit(scan)/jit(main)/while/body/jit(beliefs_propagation)/jit(continuous_node_posterior_update_ehgf)/pjit[in_shardings=(UnspecifiedValue, UnspecifiedValue, UnspecifiedValue, UnspecifiedValue, UnspecifiedValue, UnspecifiedValue, UnspecifiedValue, UnspecifiedValue, UnspecifiedValue) out_shardings=(UnspecifiedValue, UnspecifiedValue, UnspecifiedValue, UnspecifiedValue) in_layouts=(None, None, None, None, None, None, None, None, None) out_layouts=(None, None, None, None) resource_env=None donated_invars=(False, False, False, False, False, False, False, False, False) name=posterior_update_mean_continuous_node keep_unused=False inline=False]"}
  multiply.383 = f64[48]{0} multiply(Arg_8.380, Arg_7.379), metadata={op_name="jit(scan)/jit(main)/while/body/jit(beliefs_propagation)/jit(continuous_node_posterior_update_ehgf)/jit(posterior_update_mean_continuous_node)/mul" source_file="/fs04/fc37/adam/projects/psilocybin-prl-analyses/src/prl_hgf/fitting/hierarchical_patrl.py" source_line=362}
  Arg_4.376 = f64[48]{0} parameter(4), metadata={op_name="jit(scan)/jit(main)/while/body/jit(beliefs_propagation)/jit(continuous_node_posterior_update_ehgf)/pjit[in_shardings=(UnspecifiedValue, UnspecifiedValue, UnspecifiedValue, UnspecifiedValue, UnspecifiedValue, UnspecifiedValue, UnspecifiedValue, UnspecifiedValue, UnspecifiedValue) out_shardings=(UnspecifiedValue, UnspecifiedValue, UnspecifiedValue, UnspecifiedValue) in_layouts=(None, None, None, None, None, None, None, None, None) out_layouts=(None, None, None, None) resource_env=None donated_invars=(False, False, False, False, False, False, False, False, False) name=posterior_update_mean_continuous_node keep_unused=False inline=False]"}
  multiply.388 = f64[48]{0} multiply(multiply.383, Arg_4.376), metadata={op_name="jit(scan)/jit(main)/while/body/jit(beliefs_propagation)/jit(continuous_node_posterior_update_ehgf)/jit(posterior_update_mean_continuous_node)/mul" source_file="/fs04/fc37/adam/projects/psilocybin-prl-analyses/src/prl_hgf/fitting/hierarchical_patrl.py" source_line=362}
  Arg_2.374 = f64[48]{0} parameter(2), metadata={op_name="jit(scan)/jit(main)/while/body/jit(beliefs_propagation)/jit(continuous_node_posterior_update_ehgf)/pjit[in_shardings=(UnspecifiedValue, UnspecifiedValue, UnspecifiedValue, UnspecifiedValue, UnspecifiedValue, UnspecifiedValue, UnspecifiedValue, UnspecifiedValue, UnspecifiedValue) out_shardings=(UnspecifiedValue, UnspecifiedValue, UnspecifiedValue, UnspecifiedValue) in_layouts=(None, None, None, None, None, None, None, None, None) out_layouts=(None, None, None, None) resource_env=None donated_invars=(False, False, False, False, False, False, False, False, False) name=posterior_update_mean_continuous_node keep_unused=False inline=False]"}
  multiply.390 = f64[48]{0} multiply(multiply.388, Arg_2.374), metadata={op_name="jit(scan)/jit(main)/while/body/jit(beliefs_propagation)/jit(continuous_node_posterior_update_ehgf)/jit(posterior_update_mean_continuous_node)/mul" source_file="/fs04/fc37/adam/projects/psilocybin-prl-analyses/src/prl_hgf/fitting/hierarchical_patrl.py" source_line=362}
  multiply.391 = f64[48]{0} multiply(Arg_1.373, multiply.390), metadata={op_name="jit(scan)/jit(main)/while/body/jit(beliefs_propagation)/jit(continuous_node_posterior_update_ehgf)/jit(posterior_update_mean_continuous_node)/mul" source_file="/fs04/fc37/adam/projects/psilocybin-prl-analyses/src/prl_hgf/fitting/hierarchical_patrl.py" source_line=362}
  Arg_3.375 = f64[48]{0} parameter(3), metadata={op_name="jit(scan)/jit(main)/while/body/jit(beliefs_propagation)/jit(continuous_node_posterior_update_ehgf)/pjit[in_shardings=(UnspecifiedValue, UnspecifiedValue, UnspecifiedValue, UnspecifiedValue, UnspecifiedValue, UnspecifiedValue, UnspecifiedValue, UnspecifiedValue, UnspecifiedValue) out_shardings=(UnspecifiedValue, UnspecifiedValue, UnspecifiedValue, UnspecifiedValue) in_layouts=(None, None, None, None, None, None, None, None, None) out_layouts=(None, None, None, None) resource_env=None donated_invars=(False, False, False, False, False, False, False, False, False) name=posterior_update_mean_continuous_node keep_unused=False inline=False]"}
  multiply.389 = f64[48]{0} multiply(Arg_3.375, multiply.388), metadata={op_name="jit(scan)/jit(main)/while/body/jit(beliefs_propagation)/jit(continuous_node_posterior_update_ehgf)/jit(posterior_update_mean_continuous_node)/mul" source_file="/fs04/fc37/adam/projects/psilocybin-prl-analyses/src/prl_hgf/fitting/hierarchical_patrl.py" source_line=362}
  Arg_0.372 = f64[48]{0} parameter(0), metadata={op_name="jit(scan)/jit(main)/while/body/jit(beliefs_propagation)/jit(continuous_node_posterior_update_ehgf)/pjit[in_shardings=(UnspecifiedValue, UnspecifiedValue, UnspecifiedValue, UnspecifiedValue, UnspecifiedValue, UnspecifiedValue, UnspecifiedValue, UnspecifiedValue, UnspecifiedValue) out_shardings=(UnspecifiedValue, UnspecifiedValue, UnspecifiedValue, UnspecifiedValue) in_layouts=(None, None, None, None, None, None, None, None, None) out_layouts=(None, None, None, None) resource_env=None donated_invars=(False, False, False, False, False, False, False, False, False) name=posterior_update_mean_continuous_node keep_unused=False inline=False]"}
  multiply.392 = f64[48]{0} multiply(multiply.390, Arg_0.372), metadata={op_name="jit(scan)/jit(main)/while/body/jit(beliefs_propagation)/jit(continuous_node_posterior_update_ehgf)/jit(posterior_update_mean_continuous_node)/mul" source_file="/fs04/fc37/adam/projects/psilocybin-prl-analyses/src/prl_hgf/fitting/hierarchical_patrl.py" source_line=362}
  reshape.393 = f64[48,1]{1,0} reshape(multiply.392), metadata={op_name="jit(scan)/jit(main)/while/body/jit(beliefs_propagation)/jit(continuous_node_posterior_update_ehgf)/jit(posterior_update_mean_continuous_node)/broadcast_in_dim[shape=(48, 1) broadcast_dimensions=(0,)]" source_file="/fs04/fc37/adam/projects/psilocybin-prl-analyses/src/prl_hgf/fitting/hierarchical_patrl.py" source_line=362}
  Arg_5.377 = f64[48]{0} parameter(5), metadata={op_name="jit(scan)/jit(main)/while/body/jit(beliefs_propagation)/jit(continuous_node_posterior_update_ehgf)/pjit[in_shardings=(UnspecifiedValue, UnspecifiedValue, UnspecifiedValue, UnspecifiedValue, UnspecifiedValue, UnspecifiedValue, UnspecifiedValue, UnspecifiedValue, UnspecifiedValue) out_shardings=(UnspecifiedValue, UnspecifiedValue, UnspecifiedValue, UnspecifiedValue) in_layouts=(None, None, None, None, None, None, None, None, None) out_layouts=(None, None, None, None) resource_env=None donated_invars=(False, False, False, False, False, False, False, False, False) name=posterior_update_mean_continuous_node keep_unused=False inline=False]"}
  multiply.384 = f64[48]{0} multiply(Arg_5.377, multiply.383), metadata={op_name="jit(scan)/jit(main)/while/body/jit(beliefs_propagation)/jit(continuous_node_posterior_update_ehgf)/jit(posterior_update_mean_continuous_node)/mul" source_file="/fs04/fc37/adam/projects/psilocybin-prl-analyses/src/prl_hgf/fitting/hierarchical_patrl.py" source_line=362}
  Arg_6.378 = f64[48]{0} parameter(6), metadata={op_name="jit(scan)/jit(main)/while/body/jit(beliefs_propagation)/jit(continuous_node_posterior_update_ehgf)/pjit[in_shardings=(UnspecifiedValue, UnspecifiedValue, UnspecifiedValue, UnspecifiedValue, UnspecifiedValue, UnspecifiedValue, UnspecifiedValue, UnspecifiedValue, UnspecifiedValue) out_shardings=(UnspecifiedValue, UnspecifiedValue, UnspecifiedValue, UnspecifiedValue) in_layouts=(None, None, None, None, None, None, None, None, None) out_layouts=(None, None, None, None) resource_env=None donated_invars=(False, False, False, False, False, False, False, False, False) name=posterior_update_mean_continuous_node keep_unused=False inline=False]"}
  multiply.385 = f64[48]{0} multiply(multiply.384, Arg_6.378), metadata={op_name="jit(scan)/jit(main)/while/body/jit(beliefs_propagation)/jit(continuous_node_posterior_update_ehgf)/jit(posterior_update_mean_continuous_node)/mul" source_file="/fs04/fc37/adam/projects/psilocybin-prl-analyses/src/prl_hgf/fitting/hierarchical_patrl.py" source_line=362}
  negate.386 = f64[48]{0} negate(multiply.385), metadata={op_name="jit(scan)/jit(main)/while/body/jit(beliefs_propagation)/jit(continuous_node_posterior_update_ehgf)/jit(posterior_update_mean_continuous_node)/neg" source_file="/fs04/fc37/adam/projects/psilocybin-prl-analyses/src/prl_hgf/fitting/hierarchical_patrl.py" source_line=362}
  constant.381 = f64[] constant(2)
  broadcast.382 = f64[48]{0} broadcast(constant.381), dimensions={}
  multiply.387 = f64[48]{0} multiply(negate.386, broadcast.382), metadata={op_name="jit(scan)/jit(main)/while/body/jit(beliefs_propagation)/jit(continuous_node_posterior_update_ehgf)/jit(posterior_update_mean_continuous_node)/mul" source_file="/fs04/fc37/adam/projects/psilocybin-prl-analyses/src/prl_hgf/fitting/hierarchical_patrl.py" source_line=362}
  ROOT tuple.394 = (f64[48]{0}, f64[48]{0}, f64[48,1]{1,0}, f64[48]{0}) tuple(multiply.391, multiply.389, reshape.393, multiply.387)
} // posterior_update_mean_continuous_node.371

continuous_node_posterior_update_ehgf.395 {
  Arg_8.404 = s32[48]{0} parameter(8), metadata={op_name="jit(scan)/jit(main)/while/body/jit(beliefs_propagation)/pjit[in_shardings=(UnspecifiedValue, UnspecifiedValue, UnspecifiedValue, UnspecifiedValue, UnspecifiedValue, UnspecifiedValue, UnspecifiedValue, UnspecifiedValue, UnspecifiedValue, UnspecifiedValue, UnspecifiedValue, UnspecifiedValue, UnspecifiedValue, UnspecifiedValue, UnspecifiedValue, UnspecifiedValue, UnspecifiedValue, UnspecifiedValue, UnspecifiedValue, UnspecifiedValue, UnspecifiedValue, UnspecifiedValue, UnspecifiedValue, UnspecifiedValue, UnspecifiedValue, UnspecifiedValue, UnspecifiedValue, UnspecifiedValue, UnspecifiedValue) out_shardings=(UnspecifiedValue, UnspecifiedValue, UnspecifiedValue, UnspecifiedValue, UnspecifiedValue, UnspecifiedValue) in_layouts=(None, None, None, None, None, None, None, None, None, None, None, None, None, None, None, None, None, None, None, None, None, None, None, None, None, None, None, None, None) out_layouts=(None, None, None, None, None, None) resource_env=None donated_invars=(False, False, False, False, False, False, False, False, False, False, False, False, False, False, False, False, False, False, False, False, False, False, False, False, False, False, False, False, False) name=continuous_node_posterior_update_ehgf keep_unused=False inline=False]"}
  Arg_9.405 = pred[48]{0} parameter(9), metadata={op_name="jit(scan)/jit(main)/while/body/jit(beliefs_propagation)/pjit[in_shardings=(UnspecifiedValue, UnspecifiedValue, UnspecifiedValue, UnspecifiedValue, UnspecifiedValue, UnspecifiedValue, UnspecifiedValue, UnspecifiedValue, UnspecifiedValue, UnspecifiedValue, UnspecifiedValue, UnspecifiedValue, UnspecifiedValue, UnspecifiedValue, UnspecifiedValue, UnspecifiedValue, UnspecifiedValue, UnspecifiedValue, UnspecifiedValue, UnspecifiedValue, UnspecifiedValue, UnspecifiedValue, UnspecifiedValue, UnspecifiedValue, UnspecifiedValue, UnspecifiedValue, UnspecifiedValue, UnspecifiedValue, UnspecifiedValue) out_shardings=(UnspecifiedValue, UnspecifiedValue, UnspecifiedValue, UnspecifiedValue, UnspecifiedValue, UnspecifiedValue) in_layouts=(None, None, None, None, None, None, None, None, None, None, None, None, None, None, None, None, None, None, None, None, None, None, None, None, None, None, None, None, None) out_layouts=(None, None, None, None, None, None) resource_env=None donated_invars=(False, False, False, False, False, False, False, False, False, False, False, False, False, False, False, False, False, False, False, False, False, False, False, False, False, False, False, False, False) name=continuous_node_posterior_update_ehgf keep_unused=False inline=False]"}
  Arg_10.406 = f64[48]{0} parameter(10), metadata={op_name="jit(scan)/jit(main)/while/body/jit(beliefs_propagation)/pjit[in_shardings=(UnspecifiedValue, UnspecifiedValue, UnspecifiedValue, UnspecifiedValue, UnspecifiedValue, UnspecifiedValue, UnspecifiedValue, UnspecifiedValue, UnspecifiedValue, UnspecifiedValue, UnspecifiedValue, UnspecifiedValue, UnspecifiedValue, UnspecifiedValue, UnspecifiedValue, UnspecifiedValue, UnspecifiedValue, UnspecifiedValue, UnspecifiedValue, UnspecifiedValue, UnspecifiedValue, UnspecifiedValue, UnspecifiedValue, UnspecifiedValue, UnspecifiedValue, UnspecifiedValue, UnspecifiedValue, UnspecifiedValue, UnspecifiedValue) out_shardings=(UnspecifiedValue, UnspecifiedValue, UnspecifiedValue, UnspecifiedValue, UnspecifiedValue, UnspecifiedValue) in_layouts=(None, None, None, None, None, None, None, None, None, None, None, None, None, None, None, None, None, None, None, None, None, None, None, None, None, None, None, None, None) out_layouts=(None, None, None, None, None, None) resource_env=None donated_invars=(False, False, False, False, False, False, False, False, False, False, False, False, False, False, False, False, False, False, False, False, False, False, False, False, False, False, False, False, False) name=continuous_node_posterior_update_ehgf keep_unused=False inline=False]"}
  Arg_11.407 = f64[48]{0} parameter(11), metadata={op_name="jit(scan)/jit(main)/while/body/jit(beliefs_propagation)/pjit[in_shardings=(UnspecifiedValue, UnspecifiedValue, UnspecifiedValue, UnspecifiedValue, UnspecifiedValue, UnspecifiedValue, UnspecifiedValue, UnspecifiedValue, UnspecifiedValue, UnspecifiedValue, UnspecifiedValue, UnspecifiedValue, UnspecifiedValue, UnspecifiedValue, UnspecifiedValue, UnspecifiedValue, UnspecifiedValue, UnspecifiedValue, UnspecifiedValue, UnspecifiedValue, UnspecifiedValue, UnspecifiedValue, UnspecifiedValue, UnspecifiedValue, UnspecifiedValue, UnspecifiedValue, UnspecifiedValue, UnspecifiedValue, UnspecifiedValue) out_shardings=(UnspecifiedValue, UnspecifiedValue, UnspecifiedValue, UnspecifiedValue, UnspecifiedValue, UnspecifiedValue) in_layouts=(None, None, None, None, None, None, None, None, None, None, None, None, None, None, None, None, None, None, None, None, None, None, None, None, None, None, None, None, None) out_layouts=(None, None, None, None, None, None) resource_env=None donated_invars=(False, False, False, False, False, False, False, False, False, False, False, False, False, False, False, False, False, False, False, False, False, False, False, False, False, False, False, False, False) name=continuous_node_posterior_update_ehgf keep_unused=False inline=False]"}
  Arg_12.408 = f64[48]{0} parameter(12), metadata={op_name="jit(scan)/jit(main)/while/body/jit(beliefs_propagation)/pjit[in_shardings=(UnspecifiedValue, UnspecifiedValue, UnspecifiedValue, UnspecifiedValue, UnspecifiedValue, UnspecifiedValue, UnspecifiedValue, UnspecifiedValue, UnspecifiedValue, UnspecifiedValue, UnspecifiedValue, UnspecifiedValue, UnspecifiedValue, UnspecifiedValue, UnspecifiedValue, UnspecifiedValue, UnspecifiedValue, UnspecifiedValue, UnspecifiedValue, UnspecifiedValue, UnspecifiedValue, UnspecifiedValue, UnspecifiedValue, UnspecifiedValue, UnspecifiedValue, UnspecifiedValue, UnspecifiedValue, UnspecifiedValue, UnspecifiedValue) out_shardings=(UnspecifiedValue, UnspecifiedValue, UnspecifiedValue, UnspecifiedValue, UnspecifiedValue, UnspecifiedValue) in_layouts=(None, None, None, None, None, None, None, None, None, None, None, None, None, None, None, None, None, None, None, None, None, None, None, None, None, None, None, None, None) out_layouts=(None, None, None, None, None, None) resource_env=None donated_invars=(False, False, False, False, False, False, False, False, False, False, False, False, False, False, False, False, False, False, False, False, False, False, False, False, False, False, False, False, False) name=continuous_node_posterior_update_ehgf keep_unused=False inline=False]"}
  Arg_13.409 = f64[48]{0} parameter(13), metadata={op_name="jit(scan)/jit(main)/while/body/jit(beliefs_propagation)/pjit[in_shardings=(UnspecifiedValue, UnspecifiedValue, UnspecifiedValue, UnspecifiedValue, UnspecifiedValue, UnspecifiedValue, UnspecifiedValue, UnspecifiedValue, UnspecifiedValue, UnspecifiedValue, UnspecifiedValue, UnspecifiedValue, UnspecifiedValue, UnspecifiedValue, UnspecifiedValue, UnspecifiedValue, UnspecifiedValue, UnspecifiedValue, UnspecifiedValue, UnspecifiedValue, UnspecifiedValue, UnspecifiedValue, UnspecifiedValue, UnspecifiedValue, UnspecifiedValue, UnspecifiedValue, UnspecifiedValue, UnspecifiedValue, UnspecifiedValue) out_shardings=(UnspecifiedValue, UnspecifiedValue, UnspecifiedValue, UnspecifiedValue, UnspecifiedValue, UnspecifiedValue) in_layouts=(None, None, None, None, None, None, None, None, None, None, None, None, None, None, None, None, None, None, None, None, None, None, None, None, None, None, None, None, None) out_layouts=(None, None, None, None, None, None) resource_env=None donated_invars=(False, False, False, False, False, False, False, False, False, False, False, False, False, False, False, False, False, False, False, False, False, False, False, False, False, False, False, False, False) name=continuous_node_posterior_update_ehgf keep_unused=False inline=False]"}
  Arg_14.410 = pred[48]{0} parameter(14), metadata={op_name="jit(scan)/jit(main)/while/body/jit(beliefs_propagation)/pjit[in_shardings=(UnspecifiedValue, UnspecifiedValue, UnspecifiedValue, UnspecifiedValue, UnspecifiedValue, UnspecifiedValue, UnspecifiedValue, UnspecifiedValue, UnspecifiedValue, UnspecifiedValue, UnspecifiedValue, UnspecifiedValue, UnspecifiedValue, UnspecifiedValue, UnspecifiedValue, UnspecifiedValue, UnspecifiedValue, UnspecifiedValue, UnspecifiedValue, UnspecifiedValue, UnspecifiedValue, UnspecifiedValue, UnspecifiedValue, UnspecifiedValue, UnspecifiedValue, UnspecifiedValue, UnspecifiedValue, UnspecifiedValue, UnspecifiedValue) out_shardings=(UnspecifiedValue, UnspecifiedValue, UnspecifiedValue, UnspecifiedValue, UnspecifiedValue, UnspecifiedValue) in_layouts=(None, None, None, None, None, None, None, None, None, None, None, None, None, None, None, None, None, None, None, None, None, None, None, None, None, None, None, None, None) out_layouts=(None, None, None, None, None, None) resource_env=None donated_invars=(False, False, False, False, False, False, False, False, False, False, False, False, False, False, False, False, False, False, False, False, False, False, False, False, False, False, False, False, False) name=continuous_node_posterior_update_ehgf keep_unused=False inline=False]"}
  Arg_15.411 = pred[48,1]{1,0} parameter(15), metadata={op_name="jit(scan)/jit(main)/while/body/jit(beliefs_propagation)/pjit[in_shardings=(UnspecifiedValue, UnspecifiedValue, UnspecifiedValue, UnspecifiedValue, UnspecifiedValue, UnspecifiedValue, UnspecifiedValue, UnspecifiedValue, UnspecifiedValue, UnspecifiedValue, UnspecifiedValue, UnspecifiedValue, UnspecifiedValue, UnspecifiedValue, UnspecifiedValue, UnspecifiedValue, UnspecifiedValue, UnspecifiedValue, UnspecifiedValue, UnspecifiedValue, UnspecifiedValue, UnspecifiedValue, UnspecifiedValue, UnspecifiedValue, UnspecifiedValue, UnspecifiedValue, UnspecifiedValue, UnspecifiedValue, UnspecifiedValue) out_shardings=(UnspecifiedValue, UnspecifiedValue, UnspecifiedValue, UnspecifiedValue, UnspecifiedValue, UnspecifiedValue) in_layouts=(None, None, None, None, None, None, None, None, None, None, None, None, None, None, None, None, None, None, None, None, None, None, None, None, None, None, None, None, None) out_layouts=(None, None, None, None, None, None) resource_env=None donated_invars=(False, False, False, False, False, False, False, False, False, False, False, False, False, False, False, False, False, False, False, False, False, False, False, False, False, False, False, False, False) name=continuous_node_posterior_update_ehgf keep_unused=False inline=False]"}
  Arg_16.412 = f64[48]{0} parameter(16), metadata={op_name="jit(scan)/jit(main)/while/body/jit(beliefs_propagation)/pjit[in_shardings=(UnspecifiedValue, UnspecifiedValue, UnspecifiedValue, UnspecifiedValue, UnspecifiedValue, UnspecifiedValue, UnspecifiedValue, UnspecifiedValue, UnspecifiedValue, UnspecifiedValue, UnspecifiedValue, UnspecifiedValue, UnspecifiedValue, UnspecifiedValue, UnspecifiedValue, UnspecifiedValue, UnspecifiedValue, UnspecifiedValue, UnspecifiedValue, UnspecifiedValue, UnspecifiedValue, UnspecifiedValue, UnspecifiedValue, UnspecifiedValue, UnspecifiedValue, UnspecifiedValue, UnspecifiedValue, UnspecifiedValue, UnspecifiedValue) out_shardings=(UnspecifiedValue, UnspecifiedValue, UnspecifiedValue, UnspecifiedValue, UnspecifiedValue, UnspecifiedValue) in_layouts=(None, None, None, None, None, None, None, None, None, None, None, None, None, None, None, None, None, None, None, None, None, None, None, None, None, None, None, None, None) out_layouts=(None, None, None, None, None, None) resource_env=None donated_invars=(False, False, False, False, False, False, False, False, False, False, False, False, False, False, False, False, False, False, False, False, False, False, False, False, False, False, False, False, False) name=continuous_node_posterior_update_ehgf keep_unused=False inline=False]"}
  Arg_17.413 = f64[48]{0} parameter(17), metadata={op_name="jit(scan)/jit(main)/while/body/jit(beliefs_propagation)/pjit[in_shardings=(UnspecifiedValue, UnspecifiedValue, UnspecifiedValue, UnspecifiedValue, UnspecifiedValue, UnspecifiedValue, UnspecifiedValue, UnspecifiedValue, UnspecifiedValue, UnspecifiedValue, UnspecifiedValue, UnspecifiedValue, UnspecifiedValue, UnspecifiedValue, UnspecifiedValue, UnspecifiedValue, UnspecifiedValue, UnspecifiedValue, UnspecifiedValue, UnspecifiedValue, UnspecifiedValue, UnspecifiedValue, UnspecifiedValue, UnspecifiedValue, UnspecifiedValue, UnspecifiedValue, UnspecifiedValue, UnspecifiedValue, UnspecifiedValue) out_shardings=(UnspecifiedValue, UnspecifiedValue, UnspecifiedValue, UnspecifiedValue, UnspecifiedValue, UnspecifiedValue) in_layouts=(None, None, None, None, None, None, None, None, None, None, None, None, None, None, None, None, None, None, None, None, None, None, None, None, None, None, None, None, None) out_layouts=(None, None, None, None, None, None) resource_env=None donated_invars=(False, False, False, False, False, False, False, False, False, False, False, False, False, False, False, False, False, False, False, False, False, False, False, False, False, False, False, False, False) name=continuous_node_posterior_update_ehgf keep_unused=False inline=False]"}
  Arg_18.414 = f64[48]{0} parameter(18), metadata={op_name="jit(scan)/jit(main)/while/body/jit(beliefs_propagation)/pjit[in_shardings=(UnspecifiedValue, UnspecifiedValue, UnspecifiedValue, UnspecifiedValue, UnspecifiedValue, UnspecifiedValue, UnspecifiedValue, UnspecifiedValue, UnspecifiedValue, UnspecifiedValue, UnspecifiedValue, UnspecifiedValue, UnspecifiedValue, UnspecifiedValue, UnspecifiedValue, UnspecifiedValue, UnspecifiedValue, UnspecifiedValue, UnspecifiedValue, UnspecifiedValue, UnspecifiedValue, UnspecifiedValue, UnspecifiedValue, UnspecifiedValue, UnspecifiedValue, UnspecifiedValue, UnspecifiedValue, UnspecifiedValue, UnspecifiedValue) out_shardings=(UnspecifiedValue, UnspecifiedValue, UnspecifiedValue, UnspecifiedValue, UnspecifiedValue, UnspecifiedValue) in_layouts=(None, None, None, None, None, None, None, None, None, None, None, None, None, None, None, None, None, None, None, None, None, None, None, None, None, None, None, None, None) out_layouts=(None, None, None, None, None, None) resource_env=None donated_invars=(False, False, False, False, False, False, False, False, False, False, False, False, False, False, False, False, False, False, False, False, False, False, False, False, False, False, False, False, False) name=continuous_node_posterior_update_ehgf keep_unused=False inline=False]"}
  Arg_19.415 = f64[48]{0} parameter(19), metadata={op_name="jit(scan)/jit(main)/while/body/jit(beliefs_propagation)/pjit[in_shardings=(UnspecifiedValue, UnspecifiedValue, UnspecifiedValue, UnspecifiedValue, UnspecifiedValue, UnspecifiedValue, UnspecifiedValue, UnspecifiedValue, UnspecifiedValue, UnspecifiedValue, UnspecifiedValue, UnspecifiedValue, UnspecifiedValue, UnspecifiedValue, UnspecifiedValue, UnspecifiedValue, UnspecifiedValue, UnspecifiedValue, UnspecifiedValue, UnspecifiedValue, UnspecifiedValue, UnspecifiedValue, UnspecifiedValue, UnspecifiedValue, UnspecifiedValue, UnspecifiedValue, UnspecifiedValue, UnspecifiedValue, UnspecifiedValue) out_shardings=(UnspecifiedValue, UnspecifiedValue, UnspecifiedValue, UnspecifiedValue, UnspecifiedValue, UnspecifiedValue) in_layouts=(None, None, None, None, None, None, None, None, None, None, None, None, None, None, None, None, None, None, None, None, None, None, None, None, None, None, None, None, None) out_layouts=(None, None, None, None, None, None) resource_env=None donated_invars=(False, False, False, False, False, False, False, False, False, False, False, False, False, False, False, False, False, False, False, False, False, False, False, False, False, False, False, False, False) name=continuous_node_posterior_update_ehgf keep_unused=False inline=False]"}
  Arg_20.416 = f64[48]{0} parameter(20), metadata={op_name="jit(scan)/jit(main)/while/body/jit(beliefs_propagation)/pjit[in_shardings=(UnspecifiedValue, UnspecifiedValue, UnspecifiedValue, UnspecifiedValue, UnspecifiedValue, UnspecifiedValue, UnspecifiedValue, UnspecifiedValue, UnspecifiedValue, UnspecifiedValue, UnspecifiedValue, UnspecifiedValue, UnspecifiedValue, UnspecifiedValue, UnspecifiedValue, UnspecifiedValue, UnspecifiedValue, UnspecifiedValue, UnspecifiedValue, UnspecifiedValue, UnspecifiedValue, UnspecifiedValue, UnspecifiedValue, UnspecifiedValue, UnspecifiedValue, UnspecifiedValue, UnspecifiedValue, UnspecifiedValue, UnspecifiedValue) out_shardings=(UnspecifiedValue, UnspecifiedValue, UnspecifiedValue, UnspecifiedValue, UnspecifiedValue, UnspecifiedValue) in_layouts=(None, None, None, None, None, None, None, None, None, None, None, None, None, None, None, None, None, None, None, None, None, None, None, None, None, None, None, None, None) out_layouts=(None, None, None, None, None, None) resource_env=None donated_invars=(False, False, False, False, False, False, False, False, False, False, False, False, False, False, False, False, False, False, False, False, False, False, False, False, False, False, False, False, False) name=continuous_node_posterior_update_ehgf keep_unused=False inline=False]"}
  Arg_21.417 = f64[48]{0} parameter(21), metadata={op_name="jit(scan)/jit(main)/while/body/jit(beliefs_propagation)/pjit[in_shardings=(UnspecifiedValue, UnspecifiedValue, UnspecifiedValue, UnspecifiedValue, UnspecifiedValue, UnspecifiedValue, UnspecifiedValue, UnspecifiedValue, UnspecifiedValue, UnspecifiedValue, UnspecifiedValue, UnspecifiedValue, UnspecifiedValue, UnspecifiedValue, UnspecifiedValue, UnspecifiedValue, UnspecifiedValue, UnspecifiedValue, UnspecifiedValue, UnspecifiedValue, UnspecifiedValue, UnspecifiedValue, UnspecifiedValue, UnspecifiedValue, UnspecifiedValue, UnspecifiedValue, UnspecifiedValue, UnspecifiedValue, UnspecifiedValue) out_shardings=(UnspecifiedValue, UnspecifiedValue, UnspecifiedValue, UnspecifiedValue, UnspecifiedValue, UnspecifiedValue) in_layouts=(None, None, None, None, None, None, None, None, None, None, None, None, None, None, None, None, None, None, None, None, None, None, None, None, None, None, None, None, None) out_layouts=(None, None, None, None, None, None) resource_env=None donated_invars=(False, False, False, False, False, False, False, False, False, False, False, False, False, False, False, False, False, False, False, False, False, False, False, False, False, False, False, False, False) name=continuous_node_posterior_update_ehgf keep_unused=False inline=False]"}
  Arg_22.418 = f64[48]{0} parameter(22), metadata={op_name="jit(scan)/jit(main)/while/body/jit(beliefs_propagation)/pjit[in_shardings=(UnspecifiedValue, UnspecifiedValue, UnspecifiedValue, UnspecifiedValue, UnspecifiedValue, UnspecifiedValue, UnspecifiedValue, UnspecifiedValue, UnspecifiedValue, UnspecifiedValue, UnspecifiedValue, UnspecifiedValue, UnspecifiedValue, UnspecifiedValue, UnspecifiedValue, UnspecifiedValue, UnspecifiedValue, UnspecifiedValue, UnspecifiedValue, UnspecifiedValue, UnspecifiedValue, UnspecifiedValue, UnspecifiedValue, UnspecifiedValue, UnspecifiedValue, UnspecifiedValue, UnspecifiedValue, UnspecifiedValue, UnspecifiedValue) out_shardings=(UnspecifiedValue, UnspecifiedValue, UnspecifiedValue, UnspecifiedValue, UnspecifiedValue, UnspecifiedValue) in_layouts=(None, None, None, None, None, None, None, None, None, None, None, None, None, None, None, None, None, None, None, None, None, None, None, None, None, None, None, None, None) out_layouts=(None, None, None, None, None, None) resource_env=None donated_invars=(False, False, False, False, False, False, False, False, False, False, False, False, False, False, False, False, False, False, False, False, False, False, False, False, False, False, False, False, False) name=continuous_node_posterior_update_ehgf keep_unused=False inline=False]"}
  Arg_23.419 = f64[48]{0} parameter(23), metadata={op_name="jit(scan)/jit(main)/while/body/jit(beliefs_propagation)/pjit[in_shardings=(UnspecifiedValue, UnspecifiedValue, UnspecifiedValue, UnspecifiedValue, UnspecifiedValue, UnspecifiedValue, UnspecifiedValue, UnspecifiedValue, UnspecifiedValue, UnspecifiedValue, UnspecifiedValue, UnspecifiedValue, UnspecifiedValue, UnspecifiedValue, UnspecifiedValue, UnspecifiedValue, UnspecifiedValue, UnspecifiedValue, UnspecifiedValue, UnspecifiedValue, UnspecifiedValue, UnspecifiedValue, UnspecifiedValue, UnspecifiedValue, UnspecifiedValue, UnspecifiedValue, UnspecifiedValue, UnspecifiedValue, UnspecifiedValue) out_shardings=(UnspecifiedValue, UnspecifiedValue, UnspecifiedValue, UnspecifiedValue, UnspecifiedValue, UnspecifiedValue) in_layouts=(None, None, None, None, None, None, None, None, None, None, None, None, None, None, None, None, None, None, None, None, None, None, None, None, None, None, None, None, None) out_layouts=(None, None, None, None, None, None) resource_env=None donated_invars=(False, False, False, False, False, False, False, False, False, False, False, False, False, False, False, False, False, False, False, False, False, False, False, False, False, False, False, False, False) name=continuous_node_posterior_update_ehgf keep_unused=False inline=False]"}
  Arg_24.420 = f64[48]{0} parameter(24), metadata={op_name="jit(scan)/jit(main)/while/body/jit(beliefs_propagation)/pjit[in_shardings=(UnspecifiedValue, UnspecifiedValue, UnspecifiedValue, UnspecifiedValue, UnspecifiedValue, UnspecifiedValue, UnspecifiedValue, UnspecifiedValue, UnspecifiedValue, UnspecifiedValue, UnspecifiedValue, UnspecifiedValue, UnspecifiedValue, UnspecifiedValue, UnspecifiedValue, UnspecifiedValue, UnspecifiedValue, UnspecifiedValue, UnspecifiedValue, UnspecifiedValue, UnspecifiedValue, UnspecifiedValue, UnspecifiedValue, UnspecifiedValue, UnspecifiedValue, UnspecifiedValue, UnspecifiedValue, UnspecifiedValue, UnspecifiedValue) out_shardings=(UnspecifiedValue, UnspecifiedValue, UnspecifiedValue, UnspecifiedValue, UnspecifiedValue, UnspecifiedValue) in_layouts=(None, None, None, None, None, None, None, None, None, None, None, None, None, None, None, None, None, None, None, None, None, None, None, None, None, None, None, None, None) out_layouts=(None, None, None, None, None, None) resource_env=None donated_invars=(False, False, False, False, False, False, False, False, False, False, False, False, False, False, False, False, False, False, False, False, False, False, False, False, False, False, False, False, False) name=continuous_node_posterior_update_ehgf keep_unused=False inline=False]"}
  Arg_25.421 = f64[48]{0} parameter(25), metadata={op_name="jit(scan)/jit(main)/while/body/jit(beliefs_propagation)/pjit[in_shardings=(UnspecifiedValue, UnspecifiedValue, UnspecifiedValue, UnspecifiedValue, UnspecifiedValue, UnspecifiedValue, UnspecifiedValue, UnspecifiedValue, UnspecifiedValue, UnspecifiedValue, UnspecifiedValue, UnspecifiedValue, UnspecifiedValue, UnspecifiedValue, UnspecifiedValue, UnspecifiedValue, UnspecifiedValue, UnspecifiedValue, UnspecifiedValue, UnspecifiedValue, UnspecifiedValue, UnspecifiedValue, UnspecifiedValue, UnspecifiedValue, UnspecifiedValue, UnspecifiedValue, UnspecifiedValue, UnspecifiedValue, UnspecifiedValue) out_shardings=(UnspecifiedValue, UnspecifiedValue, UnspecifiedValue, UnspecifiedValue, UnspecifiedValue, UnspecifiedValue) in_layouts=(None, None, None, None, None, None, None, None, None, None, None, None, None, None, None, None, None, None, None, None, None, None, None, None, None, None, None, None, None) out_layouts=(None, None, None, None, None, None) resource_env=None donated_invars=(False, False, False, False, False, False, False, False, False, False, False, False, False, False, False, False, False, False, False, False, False, False, False, False, False, False, False, False, False) name=continuous_node_posterior_update_ehgf keep_unused=False inline=False]"}
  Arg_26.422 = pred[48]{0} parameter(26), metadata={op_name="jit(scan)/jit(main)/while/body/jit(beliefs_propagation)/pjit[in_shardings=(UnspecifiedValue, UnspecifiedValue, UnspecifiedValue, UnspecifiedValue, UnspecifiedValue, UnspecifiedValue, UnspecifiedValue, UnspecifiedValue, UnspecifiedValue, UnspecifiedValue, UnspecifiedValue, UnspecifiedValue, UnspecifiedValue, UnspecifiedValue, UnspecifiedValue, UnspecifiedValue, UnspecifiedValue, UnspecifiedValue, UnspecifiedValue, UnspecifiedValue, UnspecifiedValue, UnspecifiedValue, UnspecifiedValue, UnspecifiedValue, UnspecifiedValue, UnspecifiedValue, UnspecifiedValue, UnspecifiedValue, UnspecifiedValue) out_shardings=(UnspecifiedValue, UnspecifiedValue, UnspecifiedValue, UnspecifiedValue, UnspecifiedValue, UnspecifiedValue) in_layouts=(None, None, None, None, None, None, None, None, None, None, None, None, None, None, None, None, None, None, None, None, None, None, None, None, None, None, None, None, None) out_layouts=(None, None, None, None, None, None) resource_env=None donated_invars=(False, False, False, False, False, False, False, False, False, False, False, False, False, False, False, False, False, False, False, False, False, False, False, False, False, False, False, False, False) name=continuous_node_posterior_update_ehgf keep_unused=False inline=False]"}
  Arg_28.424 = f64[48]{0} parameter(28), metadata={op_name="jit(scan)/jit(main)/while/body/jit(beliefs_propagation)/pjit[in_shardings=(UnspecifiedValue, UnspecifiedValue, UnspecifiedValue, UnspecifiedValue, UnspecifiedValue, UnspecifiedValue, UnspecifiedValue, UnspecifiedValue, UnspecifiedValue, UnspecifiedValue, UnspecifiedValue, UnspecifiedValue, UnspecifiedValue, UnspecifiedValue, UnspecifiedValue, UnspecifiedValue, UnspecifiedValue, UnspecifiedValue, UnspecifiedValue, UnspecifiedValue, UnspecifiedValue, UnspecifiedValue, UnspecifiedValue, UnspecifiedValue, UnspecifiedValue, UnspecifiedValue, UnspecifiedValue, UnspecifiedValue, UnspecifiedValue) out_shardings=(UnspecifiedValue, UnspecifiedValue, UnspecifiedValue, UnspecifiedValue, UnspecifiedValue, UnspecifiedValue) in_layouts=(None, None, None, None, None, None, None, None, None, None, None, None, None, None, None, None, None, None, None, None, None, None, None, None, None, None, None, None, None) out_layouts=(None, None, None, None, None, None) resource_env=None donated_invars=(False, False, False, False, False, False, False, False, False, False, False, False, False, False, False, False, False, False, False, False, False, False, False, False, False, False, False, False, False) name=continuous_node_posterior_update_ehgf keep_unused=False inline=False]"}
  call.425 = (f64[48]{0}, f64[48]{0}, f64[48]{0}, f64[48]{0}, f64[48]{0}, /*index=5*/f64[48,1]{1,0}) call(Arg_8.404, Arg_9.405, Arg_10.406, Arg_11.407, Arg_12.408, /*index=5*/Arg_13.409, Arg_14.410, Arg_15.411, Arg_16.412, Arg_17.413, /*index=10*/Arg_18.414, Arg_19.415, Arg_20.416, Arg_21.417, Arg_22.418, /*index=15*/Arg_23.419, Arg_24.420, Arg_25.421, Arg_26.422, Arg_28.424), to_apply=posterior_update_precision_continuous_node.323
  get-tuple-element.426 = f64[48]{0} get-tuple-element(call.425), index=0
  Arg_0.396 = f64[48]{0} parameter(0), metadata={op_name="jit(scan)/jit(main)/while/body/jit(beliefs_propagation)/pjit[in_shardings=(UnspecifiedValue, UnspecifiedValue, UnspecifiedValue, UnspecifiedValue, UnspecifiedValue, UnspecifiedValue, UnspecifiedValue, UnspecifiedValue, UnspecifiedValue, UnspecifiedValue, UnspecifiedValue, UnspecifiedValue, UnspecifiedValue, UnspecifiedValue, UnspecifiedValue, UnspecifiedValue, UnspecifiedValue, UnspecifiedValue, UnspecifiedValue, UnspecifiedValue, UnspecifiedValue, UnspecifiedValue, UnspecifiedValue, UnspecifiedValue, UnspecifiedValue, UnspecifiedValue, UnspecifiedValue, UnspecifiedValue, UnspecifiedValue) out_shardings=(UnspecifiedValue, UnspecifiedValue, UnspecifiedValue, UnspecifiedValue, UnspecifiedValue, UnspecifiedValue) in_layouts=(None, None, None, None, None, None, None, None, None, None, None, None, None, None, None, None, None, None, None, None, None, None, None, None, None, None, None, None, None) out_layouts=(None, None, None, None, None, None) resource_env=None donated_invars=(False, False, False, False, False, False, False, False, False, False, False, False, False, False, False, False, False, False, False, False, False, False, False, False, False, False, False, False, False) name=continuous_node_posterior_update_ehgf keep_unused=False inline=False]"}
  Arg_1.397 = f64[48]{0} parameter(1), metadata={op_name="jit(scan)/jit(main)/while/body/jit(beliefs_propagation)/pjit[in_shardings=(UnspecifiedValue, UnspecifiedValue, UnspecifiedValue, UnspecifiedValue, UnspecifiedValue, UnspecifiedValue, UnspecifiedValue, UnspecifiedValue, UnspecifiedValue, UnspecifiedValue, UnspecifiedValue, UnspecifiedValue, UnspecifiedValue, UnspecifiedValue, UnspecifiedValue, UnspecifiedValue, UnspecifiedValue, UnspecifiedValue, UnspecifiedValue, UnspecifiedValue, UnspecifiedValue, UnspecifiedValue, UnspecifiedValue, UnspecifiedValue, UnspecifiedValue, UnspecifiedValue, UnspecifiedValue, UnspecifiedValue, UnspecifiedValue) out_shardings=(UnspecifiedValue, UnspecifiedValue, UnspecifiedValue, UnspecifiedValue, UnspecifiedValue, UnspecifiedValue) in_layouts=(None, None, None, None, None, None, None, None, None, None, None, None, None, None, None, None, None, None, None, None, None, None, None, None, None, None, None, None, None) out_layouts=(None, None, None, None, None, None) resource_env=None donated_invars=(False, False, False, False, False, False, False, False, False, False, False, False, False, False, False, False, False, False, False, False, False, False, False, False, False, False, False, False, False) name=continuous_node_posterior_update_ehgf keep_unused=False inline=False]"}
  Arg_2.398 = f64[48]{0} parameter(2), metadata={op_name="jit(scan)/jit(main)/while/body/jit(beliefs_propagation)/pjit[in_shardings=(UnspecifiedValue, UnspecifiedValue, UnspecifiedValue, UnspecifiedValue, UnspecifiedValue, UnspecifiedValue, UnspecifiedValue, UnspecifiedValue, UnspecifiedValue, UnspecifiedValue, UnspecifiedValue, UnspecifiedValue, UnspecifiedValue, UnspecifiedValue, UnspecifiedValue, UnspecifiedValue, UnspecifiedValue, UnspecifiedValue, UnspecifiedValue, UnspecifiedValue, UnspecifiedValue, UnspecifiedValue, UnspecifiedValue, UnspecifiedValue, UnspecifiedValue, UnspecifiedValue, UnspecifiedValue, UnspecifiedValue, UnspecifiedValue) out_shardings=(UnspecifiedValue, UnspecifiedValue, UnspecifiedValue, UnspecifiedValue, UnspecifiedValue, UnspecifiedValue) in_layouts=(None, None, None, None, None, None, None, None, None, None, None, None, None, None, None, None, None, None, None, None, None, None, None, None, None, None, None, None, None) out_layouts=(None, None, None, None, None, None) resource_env=None donated_invars=(False, False, False, False, False, False, False, False, False, False, False, False, False, False, False, False, False, False, False, False, False, False, False, False, False, False, False, False, False) name=continuous_node_posterior_update_ehgf keep_unused=False inline=False]"}
  Arg_3.399 = f64[48]{0} parameter(3), metadata={op_name="jit(scan)/jit(main)/while/body/jit(beliefs_propagation)/pjit[in_shardings=(UnspecifiedValue, UnspecifiedValue, UnspecifiedValue, UnspecifiedValue, UnspecifiedValue, UnspecifiedValue, UnspecifiedValue, UnspecifiedValue, UnspecifiedValue, UnspecifiedValue, UnspecifiedValue, UnspecifiedValue, UnspecifiedValue, UnspecifiedValue, UnspecifiedValue, UnspecifiedValue, UnspecifiedValue, UnspecifiedValue, UnspecifiedValue, UnspecifiedValue, UnspecifiedValue, UnspecifiedValue, UnspecifiedValue, UnspecifiedValue, UnspecifiedValue, UnspecifiedValue, UnspecifiedValue, UnspecifiedValue, UnspecifiedValue) out_shardings=(UnspecifiedValue, UnspecifiedValue, UnspecifiedValue, UnspecifiedValue, UnspecifiedValue, UnspecifiedValue) in_layouts=(None, None, None, None, None, None, None, None, None, None, None, None, None, None, None, None, None, None, None, None, None, None, None, None, None, None, None, None, None) out_layouts=(None, None, None, None, None, None) resource_env=None donated_invars=(False, False, False, False, False, False, False, False, False, False, False, False, False, False, False, False, False, False, False, False, False, False, False, False, False, False, False, False, False) name=continuous_node_posterior_update_ehgf keep_unused=False inline=False]"}
  Arg_4.400 = f64[48]{0} parameter(4), metadata={op_name="jit(scan)/jit(main)/while/body/jit(beliefs_propagation)/pjit[in_shardings=(UnspecifiedValue, UnspecifiedValue, UnspecifiedValue, UnspecifiedValue, UnspecifiedValue, UnspecifiedValue, UnspecifiedValue, UnspecifiedValue, UnspecifiedValue, UnspecifiedValue, UnspecifiedValue, UnspecifiedValue, UnspecifiedValue, UnspecifiedValue, UnspecifiedValue, UnspecifiedValue, UnspecifiedValue, UnspecifiedValue, UnspecifiedValue, UnspecifiedValue, UnspecifiedValue, UnspecifiedValue, UnspecifiedValue, UnspecifiedValue, UnspecifiedValue, UnspecifiedValue, UnspecifiedValue, UnspecifiedValue, UnspecifiedValue) out_shardings=(UnspecifiedValue, UnspecifiedValue, UnspecifiedValue, UnspecifiedValue, UnspecifiedValue, UnspecifiedValue) in_layouts=(None, None, None, None, None, None, None, None, None, None, None, None, None, None, None, None, None, None, None, None, None, None, None, None, None, None, None, None, None) out_layouts=(None, None, None, None, None, None) resource_env=None donated_invars=(False, False, False, False, False, False, False, False, False, False, False, False, False, False, False, False, False, False, False, False, False, False, False, False, False, False, False, False, False) name=continuous_node_posterior_update_ehgf keep_unused=False inline=False]"}
  Arg_5.401 = f64[48]{0} parameter(5), metadata={op_name="jit(scan)/jit(main)/while/body/jit(beliefs_propagation)/pjit[in_shardings=(UnspecifiedValue, UnspecifiedValue, UnspecifiedValue, UnspecifiedValue, UnspecifiedValue, UnspecifiedValue, UnspecifiedValue, UnspecifiedValue, UnspecifiedValue, UnspecifiedValue, UnspecifiedValue, UnspecifiedValue, UnspecifiedValue, UnspecifiedValue, UnspecifiedValue, UnspecifiedValue, UnspecifiedValue, UnspecifiedValue, UnspecifiedValue, UnspecifiedValue, UnspecifiedValue, UnspecifiedValue, UnspecifiedValue, UnspecifiedValue, UnspecifiedValue, UnspecifiedValue, UnspecifiedValue, UnspecifiedValue, UnspecifiedValue) out_shardings=(UnspecifiedValue, UnspecifiedValue, UnspecifiedValue, UnspecifiedValue, UnspecifiedValue, UnspecifiedValue) in_layouts=(None, None, None, None, None, None, None, None, None, None, None, None, None, None, None, None, None, None, None, None, None, None, None, None, None, None, None, None, None) out_layouts=(None, None, None, None, None, None) resource_env=None donated_invars=(False, False, False, False, False, False, False, False, False, False, False, False, False, False, False, False, False, False, False, False, False, False, False, False, False, False, False, False, False) name=continuous_node_posterior_update_ehgf keep_unused=False inline=False]"}
  Arg_6.402 = f64[48]{0} parameter(6), metadata={op_name="jit(scan)/jit(main)/while/body/jit(beliefs_propagation)/pjit[in_shardings=(UnspecifiedValue, UnspecifiedValue, UnspecifiedValue, UnspecifiedValue, UnspecifiedValue, UnspecifiedValue, UnspecifiedValue, UnspecifiedValue, UnspecifiedValue, UnspecifiedValue, UnspecifiedValue, UnspecifiedValue, UnspecifiedValue, UnspecifiedValue, UnspecifiedValue, UnspecifiedValue, UnspecifiedValue, UnspecifiedValue, UnspecifiedValue, UnspecifiedValue, UnspecifiedValue, UnspecifiedValue, UnspecifiedValue, UnspecifiedValue, UnspecifiedValue, UnspecifiedValue, UnspecifiedValue, UnspecifiedValue, UnspecifiedValue) out_shardings=(UnspecifiedValue, UnspecifiedValue, UnspecifiedValue, UnspecifiedValue, UnspecifiedValue, UnspecifiedValue) in_layouts=(None, None, None, None, None, None, None, None, None, None, None, None, None, None, None, None, None, None, None, None, None, None, None, None, None, None, None, None, None) out_layouts=(None, None, None, None, None, None) resource_env=None donated_invars=(False, False, False, False, False, False, False, False, False, False, False, False, False, False, False, False, False, False, False, False, False, False, False, False, False, False, False, False, False) name=continuous_node_posterior_update_ehgf keep_unused=False inline=False]"}
  Arg_7.403 = f64[48]{0} parameter(7), metadata={op_name="jit(scan)/jit(main)/while/body/jit(beliefs_propagation)/pjit[in_shardings=(UnspecifiedValue, UnspecifiedValue, UnspecifiedValue, UnspecifiedValue, UnspecifiedValue, UnspecifiedValue, UnspecifiedValue, UnspecifiedValue, UnspecifiedValue, UnspecifiedValue, UnspecifiedValue, UnspecifiedValue, UnspecifiedValue, UnspecifiedValue, UnspecifiedValue, UnspecifiedValue, UnspecifiedValue, UnspecifiedValue, UnspecifiedValue, UnspecifiedValue, UnspecifiedValue, UnspecifiedValue, UnspecifiedValue, UnspecifiedValue, UnspecifiedValue, UnspecifiedValue, UnspecifiedValue, UnspecifiedValue, UnspecifiedValue) out_shardings=(UnspecifiedValue, UnspecifiedValue, UnspecifiedValue, UnspecifiedValue, UnspecifiedValue, UnspecifiedValue) in_layouts=(None, None, None, None, None, None, None, None, None, None, None, None, None, None, None, None, None, None, None, None, None, None, None, None, None, None, None, None, None) out_layouts=(None, None, None, None, None, None) resource_env=None donated_invars=(False, False, False, False, False, False, False, False, False, False, False, False, False, False, False, False, False, False, False, False, False, False, False, False, False, False, False, False, False) name=continuous_node_posterior_update_ehgf keep_unused=False inline=False]"}
  Arg_27.423 = f64[48]{0} parameter(27), metadata={op_name="jit(scan)/jit(main)/while/body/jit(beliefs_propagation)/pjit[in_shardings=(UnspecifiedValue, UnspecifiedValue, UnspecifiedValue, UnspecifiedValue, UnspecifiedValue, UnspecifiedValue, UnspecifiedValue, UnspecifiedValue, UnspecifiedValue, UnspecifiedValue, UnspecifiedValue, UnspecifiedValue, UnspecifiedValue, UnspecifiedValue, UnspecifiedValue, UnspecifiedValue, UnspecifiedValue, UnspecifiedValue, UnspecifiedValue, UnspecifiedValue, UnspecifiedValue, UnspecifiedValue, UnspecifiedValue, UnspecifiedValue, UnspecifiedValue, UnspecifiedValue, UnspecifiedValue, UnspecifiedValue, UnspecifiedValue) out_shardings=(UnspecifiedValue, UnspecifiedValue, UnspecifiedValue, UnspecifiedValue, UnspecifiedValue, UnspecifiedValue) in_layouts=(None, None, None, None, None, None, None, None, None, None, None, None, None, None, None, None, None, None, None, None, None, None, None, None, None, None, None, None, None) out_layouts=(None, None, None, None, None, None) resource_env=None donated_invars=(False, False, False, False, False, False, False, False, False, False, False, False, False, False, False, False, False, False, False, False, False, False, False, False, False, False, False, False, False) name=continuous_node_posterior_update_ehgf keep_unused=False inline=False]"}
  call.432 = (f64[48]{0}, f64[48]{0}, f64[48,1]{1,0}, f64[48]{0}) call(Arg_0.396, Arg_1.397, Arg_2.398, Arg_3.399, Arg_4.400, /*index=5*/Arg_5.401, Arg_6.402, Arg_7.403, Arg_27.423), to_apply=posterior_update_mean_continuous_node.371
  get-tuple-element.433 = f64[48]{0} get-tuple-element(call.432), index=0
  add.437 = f64[48]{0} add(get-tuple-element.426, get-tuple-element.433), metadata={op_name="jit(scan)/jit(main)/while/body/jit(beliefs_propagation)/jit(continuous_node_posterior_update_ehgf)/add_any" source_file="/fs04/fc37/adam/projects/psilocybin-prl-analyses/src/prl_hgf/fitting/hierarchical_patrl.py" source_line=362}
  get-tuple-element.427 = f64[48]{0} get-tuple-element(call.425), index=1
  get-tuple-element.434 = f64[48]{0} get-tuple-element(call.432), index=1
  add.438 = f64[48]{0} add(get-tuple-element.427, get-tuple-element.434), metadata={op_name="jit(scan)/jit(main)/while/body/jit(beliefs_propagation)/jit(continuous_node_posterior_update_ehgf)/add_any" source_file="/fs04/fc37/adam/projects/psilocybin-prl-analyses/src/prl_hgf/fitting/hierarchical_patrl.py" source_line=362}
  get-tuple-element.428 = f64[48]{0} get-tuple-element(call.425), index=2
  get-tuple-element.436 = f64[48]{0} get-tuple-element(call.432), index=3
  add.440 = f64[48]{0} add(get-tuple-element.428, get-tuple-element.436), metadata={op_name="jit(scan)/jit(main)/while/body/jit(beliefs_propagation)/jit(continuous_node_posterior_update_ehgf)/add_any" source_file="/fs04/fc37/adam/projects/psilocybin-prl-analyses/src/prl_hgf/fitting/hierarchical_patrl.py" source_line=362}
  get-tuple-element.429 = f64[48]{0} get-tuple-element(call.425), index=3
  get-tuple-element.430 = f64[48]{0} get-tuple-element(call.425), index=4
  get-tuple-element.431 = f64[48,1]{1,0} get-tuple-element(call.425), index=5
  get-tuple-element.435 = f64[48,1]{1,0} get-tuple-element(call.432), index=2
  add.439 = f64[48,1]{1,0} add(get-tuple-element.431, get-tuple-element.435), metadata={op_name="jit(scan)/jit(main)/while/body/jit(beliefs_propagation)/jit(continuous_node_posterior_update_ehgf)/add_any" source_file="/fs04/fc37/adam/projects/psilocybin-prl-analyses/src/prl_hgf/fitting/hierarchical_patrl.py" source_line=362}
  ROOT tuple.441 = (f64[48]{0}, f64[48]{0}, f64[48]{0}, f64[48]{0}, f64[48]{0}, /*index=5*/f64[48,1]{1,0}) tuple(add.437, add.438, add.440, get-tuple-element.429, get-tuple-element.430, /*index=5*/add.439)
} // continuous_node_posterior_update_ehgf.395

continuous_node_volatility_prediction_error.442 {
  Arg_5.448 = f64[48]{0} parameter(5), metadata={op_name="jit(scan)/jit(main)/while/body/jit(beliefs_propagation)/jit(continuous_node_prediction_error)/pjit[in_shardings=(UnspecifiedValue, UnspecifiedValue, UnspecifiedValue, UnspecifiedValue, UnspecifiedValue, UnspecifiedValue) out_shardings=(UnspecifiedValue, UnspecifiedValue, UnspecifiedValue) in_layouts=(None, None, None, None, None, None) out_layouts=(None, None, None) resource_env=None donated_invars=(False, False, False, False, False, False) name=continuous_node_volatility_prediction_error keep_unused=False inline=False]"}
  constant.449 = f64[] constant(1)
  broadcast.450 = f64[48]{0} broadcast(constant.449), dimensions={}, metadata={op_name="jit(scan)/jit(main)/while/body/jit(beliefs_propagation)/jit(continuous_node_prediction_error)/jit(continuous_node_volatility_prediction_error)/div" source_file="/fs04/fc37/adam/projects/psilocybin-prl-analyses/src/prl_hgf/fitting/hierarchical_patrl.py" source_line=362}
  divide.451 = f64[48]{0} divide(Arg_5.448, broadcast.450), metadata={op_name="jit(scan)/jit(main)/while/body/jit(beliefs_propagation)/jit(continuous_node_prediction_error)/jit(continuous_node_volatility_prediction_error)/div" source_file="/fs04/fc37/adam/projects/psilocybin-prl-analyses/src/prl_hgf/fitting/hierarchical_patrl.py" source_line=362}
  Arg_3.446 = f64[48]{0} parameter(3), metadata={op_name="jit(scan)/jit(main)/while/body/jit(beliefs_propagation)/jit(continuous_node_prediction_error)/pjit[in_shardings=(UnspecifiedValue, UnspecifiedValue, UnspecifiedValue, UnspecifiedValue, UnspecifiedValue, UnspecifiedValue) out_shardings=(UnspecifiedValue, UnspecifiedValue, UnspecifiedValue) in_layouts=(None, None, None, None, None, None) out_layouts=(None, None, None) resource_env=None donated_invars=(False, False, False, False, False, False) name=continuous_node_volatility_prediction_error keep_unused=False inline=False]"}
  multiply.454 = f64[48]{0} multiply(divide.451, Arg_3.446), metadata={op_name="jit(scan)/jit(main)/while/body/jit(beliefs_propagation)/jit(continuous_node_prediction_error)/jit(continuous_node_volatility_prediction_error)/mul" source_file="/fs04/fc37/adam/projects/psilocybin-prl-analyses/src/prl_hgf/fitting/hierarchical_patrl.py" source_line=362}
  Arg_0.443 = f64[48]{0} parameter(0), metadata={op_name="jit(scan)/jit(main)/while/body/jit(beliefs_propagation)/jit(continuous_node_prediction_error)/pjit[in_shardings=(UnspecifiedValue, UnspecifiedValue, UnspecifiedValue, UnspecifiedValue, UnspecifiedValue, UnspecifiedValue) out_shardings=(UnspecifiedValue, UnspecifiedValue, UnspecifiedValue) in_layouts=(None, None, None, None, None, None) out_layouts=(None, None, None) resource_env=None donated_invars=(False, False, False, False, False, False) name=continuous_node_volatility_prediction_error keep_unused=False inline=False]"}
  divide.458 = f64[48]{0} divide(divide.451, Arg_0.443), metadata={op_name="jit(scan)/jit(main)/while/body/jit(beliefs_propagation)/jit(continuous_node_prediction_error)/jit(continuous_node_volatility_prediction_error)/div" source_file="/fs04/fc37/adam/projects/psilocybin-prl-analyses/src/prl_hgf/fitting/hierarchical_patrl.py" source_line=362}
  add.459 = f64[48]{0} add(multiply.454, divide.458), metadata={op_name="jit(scan)/jit(main)/while/body/jit(beliefs_propagation)/jit(continuous_node_prediction_error)/jit(continuous_node_volatility_prediction_error)/add_any" source_file="/fs04/fc37/adam/projects/psilocybin-prl-analyses/src/prl_hgf/fitting/hierarchical_patrl.py" source_line=362}
  Arg_2.445 = f64[48]{0} parameter(2), metadata={op_name="jit(scan)/jit(main)/while/body/jit(beliefs_propagation)/jit(continuous_node_prediction_error)/pjit[in_shardings=(UnspecifiedValue, UnspecifiedValue, UnspecifiedValue, UnspecifiedValue, UnspecifiedValue, UnspecifiedValue) out_shardings=(UnspecifiedValue, UnspecifiedValue, UnspecifiedValue) in_layouts=(None, None, None, None, None, None) out_layouts=(None, None, None) resource_env=None donated_invars=(False, False, False, False, False, False) name=continuous_node_volatility_prediction_error keep_unused=False inline=False]"}
  multiply.455 = f64[48]{0} multiply(divide.451, Arg_2.445), metadata={op_name="jit(scan)/jit(main)/while/body/jit(beliefs_propagation)/jit(continuous_node_prediction_error)/jit(continuous_node_volatility_prediction_error)/mul" source_file="/fs04/fc37/adam/projects/psilocybin-prl-analyses/src/prl_hgf/fitting/hierarchical_patrl.py" source_line=362}
  Arg_1.444 = f64[48]{0} parameter(1), metadata={op_name="jit(scan)/jit(main)/while/body/jit(beliefs_propagation)/jit(continuous_node_prediction_error)/pjit[in_shardings=(UnspecifiedValue, UnspecifiedValue, UnspecifiedValue, UnspecifiedValue, UnspecifiedValue, UnspecifiedValue) out_shardings=(UnspecifiedValue, UnspecifiedValue, UnspecifiedValue) in_layouts=(None, None, None, None, None, None) out_layouts=(None, None, None) resource_env=None donated_invars=(False, False, False, False, False, False) name=continuous_node_volatility_prediction_error keep_unused=False inline=False]"}
  multiply.456 = f64[48]{0} multiply(multiply.455, Arg_1.444), metadata={op_name="jit(scan)/jit(main)/while/body/jit(beliefs_propagation)/jit(continuous_node_prediction_error)/jit(continuous_node_volatility_prediction_error)/mul" source_file="/fs04/fc37/adam/projects/psilocybin-prl-analyses/src/prl_hgf/fitting/hierarchical_patrl.py" source_line=362}
  negate.457 = f64[48]{0} negate(multiply.456), metadata={op_name="jit(scan)/jit(main)/while/body/jit(beliefs_propagation)/jit(continuous_node_prediction_error)/jit(continuous_node_volatility_prediction_error)/neg" source_file="/fs04/fc37/adam/projects/psilocybin-prl-analyses/src/prl_hgf/fitting/hierarchical_patrl.py" source_line=362}
  multiply.452 = f64[48]{0} multiply(Arg_1.444, divide.451), metadata={op_name="jit(scan)/jit(main)/while/body/jit(beliefs_propagation)/jit(continuous_node_prediction_error)/jit(continuous_node_volatility_prediction_error)/mul" source_file="/fs04/fc37/adam/projects/psilocybin-prl-analyses/src/prl_hgf/fitting/hierarchical_patrl.py" source_line=362}
  Arg_4.447 = f64[48]{0} parameter(4), metadata={op_name="jit(scan)/jit(main)/while/body/jit(beliefs_propagation)/jit(continuous_node_prediction_error)/pjit[in_shardings=(UnspecifiedValue, UnspecifiedValue, UnspecifiedValue, UnspecifiedValue, UnspecifiedValue, UnspecifiedValue) out_shardings=(UnspecifiedValue, UnspecifiedValue, UnspecifiedValue) in_layouts=(None, None, None, None, None, None) out_layouts=(None, None, None) resource_env=None donated_invars=(False, False, False, False, False, False) name=continuous_node_volatility_prediction_error keep_unused=False inline=False]"}
…
  arg_tuple.1620 = (s64[], f64[48]{0}, f64[48]{0}, f64[48]{0}, f64[48]{0}, /*index=5*/f64[48]{0}, f64[48]{0}, f64[48]{0}, f64[48]{0}, f64[48]{0}, /*index=10*/f64[48]{0}, f64[48]{0}, f64[48]{0}, f64[48]{0}, f64[48]{0}, /*index=15*/f64[48]{0}, f64[48]{0}, f64[48]{0}, f64[48]{0}, f64[48]{0}, /*index=20*/f64[48]{0}, f64[48,1]{1,0}, f64[192,48]{1,0}, f64[192,48]{1,0}, f64[192,48]{1,0}, /*index=25*/f64[192]{0}, f64[192,48]{1,0}, pred[192,48]{1,0}, f64[192,48]{1,0}, f64[192,48]{1,0}, /*index=30*/f64[192,48]{1,0}, f64[192,48]{1,0}, f64[192,48]{1,0}, f64[192,48]{1,0}, f64[192,48]{1,0}, /*index=35*/f64[192,48]{1,0}, pred[192,48]{1,0}, f64[192,48]{1,0}, f64[192,48]{1,0}, f64[192,48]{1,0}, /*index=40*/f64[192,48]{1,0}, f64[192,48]{1,0}, f64[192,48]{1,0}, f64[192,48]{1,0}, f64[192]{0}, /*index=45*/f64[192,48]{1,0}, f64[192,48]{1,0}, f64[192,48]{1,0}, s32[192]{0}, f64[192,48]{1,0}, /*index=50*/f64[192]{0}, f64[192,48]{1,0}, f64[192,48]{1,0}, f64[192,48]{1,0}, pred[192,48]{1,0}, /*index=55*/f64[192,48]{1,0}, f64[192,48]{1,0}, f64[192,48]{1,0}, f64[192,48]{1,0}, f64[192,48]{1,0}, /*index=60*/f64[192,48]{1,0}, f64[192]{0}, f64[192,48]{1,0}, f64[192,48]{1,0}, f64[192,48]{1,0}, /*index=65*/f64[192,48]{1,0}, f64[192,48]{1,0}, f64[192,48]{1,0}, f64[192,48]{1,0}, f64[192,48]{1,0}, /*index=70*/f64[192,48]{1,0}, f64[192,48]{1,0}, f64[192,48]{1,0}, s32[192,48]{1,0}, pred[192,48]{1,0}, /*index=75*/f64[192,48]{1,0}, f64[192,48]{1,0}, f64[192,48]{1,0}, f64[192,48]{1,0}, pred[192,48]{1,0}, /*index=80*/pred[192,48,1]{2,1,0}, f64[192,48]{1,0}, f64[192,48]{1,0}, f64[192,48]{1,0}, f64[192,48]{1,0}, /*index=85*/f64[192,48]{1,0}, f64[192,48]{1,0}, f64[192,48]{1,0}, f64[192,48]{1,0}, f64[192,48]{1,0}, /*index=90*/f64[192,48]{1,0}, pred[192,48]{1,0}, pred[192,48]{1,0}, pred[192,48,1]{2,1,0}) parameter(0)
  get-tuple-element.1622 = f64[48]{0} get-tuple-element(arg_tuple.1620), index=1
  get-tuple-element.1623 = f64[48]{0} get-tuple-element(arg_tuple.1620), index=2
  get-tuple-element.1624 = f64[48]{0} get-tuple-element(arg_tuple.1620), index=3
  get-tuple-element.1625 = f64[48]{0} get-tuple-element(arg_tuple.1620), index=4
  get-tuple-element.1626 = f64[48]{0} get-tuple-element(arg_tuple.1620), index=5
  get-tuple-element.1627 = f64[48]{0} get-tuple-element(arg_tuple.1620), index=6
  get-tuple-element.1628 = f64[48]{0} get-tuple-element(arg_tuple.1620), index=7
  get-tuple-element.1629 = f64[48]{0} get-tuple-element(arg_tuple.1620), index=8
  get-tuple-element.1630 = f64[48]{0} get-tuple-element(arg_tuple.1620), index=9
  get-tuple-element.1631 = f64[48]{0} get-tuple-element(arg_tuple.1620), index=10
  get-tuple-element.1632 = f64[48]{0} get-tuple-element(arg_tuple.1620), index=11
  get-tuple-element.1633 = f64[48]{0} get-tuple-element(arg_tuple.1620), index=12
  get-tuple-element.1634 = f64[48]{0} get-tuple-element(arg_tuple.1620), index=13
  get-tuple-element.1635 = f64[48]{0} get-tuple-element(arg_tuple.1620), index=14
  get-tuple-element.1636 = f64[48]{0} get-tuple-element(arg_tuple.1620), index=15
  get-tuple-element.1637 = f64[48]{0} get-tuple-element(arg_tuple.1620), index=16
  get-tuple-element.1638 = f64[48]{0} get-tuple-element(arg_tuple.1620), index=17
  get-tuple-element.1639 = f64[48]{0} get-tuple-element(arg_tuple.1620), index=18
  get-tuple-element.1640 = f64[48]{0} get-tuple-element(arg_tuple.1620), index=19
  get-tuple-element.1641 = f64[48]{0} get-tuple-element(arg_tuple.1620), index=20
  get-tuple-element.1642 = f64[48,1]{1,0} get-tuple-element(arg_tuple.1620), index=21
  get-tuple-element.1643 = f64[192,48]{1,0} get-tuple-element(arg_tuple.1620), index=22
  get-tuple-element.1644 = f64[192,48]{1,0} get-tuple-element(arg_tuple.1620), index=23
  get-tuple-element.1645 = f64[192,48]{1,0} get-tuple-element(arg_tuple.1620), index=24
  get-tuple-element.1646 = f64[192]{0} get-tuple-element(arg_tuple.1620), index=25
  get-tuple-element.1647 = f64[192,48]{1,0} get-tuple-element(arg_tuple.1620), index=26
  get-tuple-element.1648 = pred[192,48]{1,0} get-tuple-element(arg_tuple.1620), index=27
  get-tuple-element.1649 = f64[192,48]{1,0} get-tuple-element(arg_tuple.1620), index=28
  get-tuple-element.1650 = f64[192,48]{1,0} get-tuple-element(arg_tuple.1620), index=29
  get-tuple-element.1651 = f64[192,48]{1,0} get-tuple-element(arg_tuple.1620), index=30
  get-tuple-element.1652 = f64[192,48]{1,0} get-tuple-element(arg_tuple.1620), index=31
  get-tuple-element.1653 = f64[192,48]{1,0} get-tuple-element(arg_tuple.1620), index=32
  get-tuple-element.1654 = f64[192,48]{1,0} get-tuple-element(arg_tuple.1620), index=33
  get-tuple-element.1655 = f64[192,48]{1,0} get-tuple-element(arg_tuple.1620), index=34
  get-tuple-element.1656 = f64[192,48]{1,0} get-tuple-element(arg_tuple.1620), index=35
  get-tuple-element.1657 = pred[192,48]{1,0} get-tuple-element(arg_tuple.1620), index=36
  get-tuple-element.1658 = f64[192,48]{1,0} get-tuple-element(arg_tuple.1620), index=37
  get-tuple-element.1659 = f64[192,48]{1,0} get-tuple-element(arg_tuple.1620), index=38
  get-tuple-element.1660 = f64[192,48]{1,0} get-tuple-element(arg_tuple.1620), index=39
  get-tuple-element.1661 = f64[192,48]{1,0} get-tuple-element(arg_tuple.1620), index=40
  get-tuple-element.1662 = f64[192,48]{1,0} get-tuple-element(arg_tuple.1620), index=41
  get-tuple-element.1663 = f64[192,48]{1,0} get-tuple-element(arg_tuple.1620), index=42
  get-tuple-element.1664 = f64[192,48]{1,0} get-tuple-element(arg_tuple.1620), index=43
  get-tuple-element.1665 = f64[192]{0} get-tuple-element(arg_tuple.1620), index=44
  get-tuple-element.1666 = f64[192,48]{1,0} get-tuple-element(arg_tuple.1620), index=45
  get-tuple-element.1667 = f64[192,48]{1,0} get-tuple-element(arg_tuple.1620), index=46
  get-tuple-element.1668 = f64[192,48]{1,0} get-tuple-element(arg_tuple.1620), index=47
  get-tuple-element.1669 = s32[192]{0} get-tuple-element(arg_tuple.1620), index=48
  get-tuple-element.1670 = f64[192,48]{1,0} get-tuple-element(arg_tuple.1620), index=49
  get-tuple-element.1671 = f64[192]{0} get-tuple-element(arg_tuple.1620), index=50
  get-tuple-element.1672 = f64[192,48]{1,0} get-tuple-element(arg_tuple.1620), index=51
  get-tuple-element.1673 = f64[192,48]{1,0} get-tuple-element(arg_tuple.1620), index=52
  get-tuple-element.1674 = f64[192,48]{1,0} get-tuple-element(arg_tuple.1620), index=53
  get-tuple-element.1675 = pred[192,48]{1,0} get-tuple-element(arg_tuple.1620), index=54
  get-tuple-element.1676 = f64[192,48]{1,0} get-tuple-element(arg_tuple.1620), index=55
  get-tuple-element.1677 = f64[192,48]{1,0} get-tuple-element(arg_tuple.1620), index=56
  get-tuple-element.1678 = f64[192,48]{1,0} get-tuple-element(arg_tuple.1620), index=57
  get-tuple-element.1679 = f64[192,48]{1,0} get-tuple-element(arg_tuple.1620), index=58
  get-tuple-element.1680 = f64[192,48]{1,0} get-tuple-element(arg_tuple.1620), index=59
  get-tuple-element.1681 = f64[192,48]{1,0} get-tuple-element(arg_tuple.1620), index=60
  get-tuple-element.1682 = f64[192]{0} get-tuple-element(arg_tuple.1620), index=61
  get-tuple-element.1683 = f64[192,48]{1,0} get-tuple-element(arg_tuple.1620), index=62
  get-tuple-element.1684 = f64[192,48]{1,0} get-tuple-element(arg_tuple.1620), index=63
  get-tuple-element.1685 = f64[192,48]{1,0} get-tuple-element(arg_tuple.1620), index=64
  get-tuple-element.1686 = f64[192,48]{1,0} get-tuple-element(arg_tuple.1620), index=65
  get-tuple-element.1687 = f64[192,48]{1,0} get-tuple-element(arg_tuple.1620), index=66
  get-tuple-element.1688 = f64[192,48]{1,0} get-tuple-element(arg_tuple.1620), index=67
  get-tuple-element.1689 = f64[192,48]{1,0} get-tuple-element(arg_tuple.1620), index=68
  get-tuple-element.1690 = f64[192,48]{1,0} get-tuple-element(arg_tuple.1620), index=69
  get-tuple-element.1691 = f64[192,48]{1,0} get-tuple-element(arg_tuple.1620), index=70
  get-tuple-element.1692 = f64[192,48]{1,0} get-tuple-element(arg_tuple.1620), index=71
  get-tuple-element.1693 = f64[192,48]{1,0} get-tuple-element(arg_tuple.1620), index=72
  get-tuple-element.1694 = s32[192,48]{1,0} get-tuple-element(arg_tuple.1620), index=73
  get-tuple-element.1695 = pred[192,48]{1,0} get-tuple-element(arg_tuple.1620), index=74
  get-tuple-element.1696 = f64[192,48]{1,0} get-tuple-element(arg_tuple.1620), index=75
  get-tuple-element.1697 = f64[192,48]{1,0} get-tuple-element(arg_tuple.1620), index=76
  get-tuple-element.1698 = f64[192,48]{1,0} get-tuple-element(arg_tuple.1620), index=77
  get-tuple-element.1699 = f64[192,48]{1,0} get-tuple-element(arg_tuple.1620), index=78
  get-tuple-element.1700 = pred[192,48]{1,0} get-tuple-element(arg_tuple.1620), index=79
  get-tuple-element.1701 = pred[192,48,1]{2,1,0} get-tuple-element(arg_tuple.1620), index=80
  get-tuple-element.1702 = f64[192,48]{1,0} get-tuple-element(arg_tuple.1620), index=81
  get-tuple-element.1703 = f64[192,48]{1,0} get-tuple-element(arg_tuple.1620), index=82
  get-tuple-element.1704 = f64[192,48]{1,0} get-tuple-element(arg_tuple.1620), index=83
  get-tuple-element.1705 = f64[192,48]{1,0} get-tuple-element(arg_tuple.1620), index=84
  get-tuple-element.1706 = f64[192,48]{1,0} get-tuple-element(arg_tuple.1620), index=85
  get-tuple-element.1707 = f64[192,48]{1,0} get-tuple-element(arg_tuple.1620), index=86
  get-tuple-element.1708 = f64[192,48]{1,0} get-tuple-element(arg_tuple.1620), index=87
  get-tuple-element.1709 = f64[192,48]{1,0} get-tuple-element(arg_tuple.1620), index=88
  get-tuple-element.1710 = f64[192,48]{1,0} get-tuple-element(arg_tuple.1620), index=89
  get-tuple-element.1711 = f64[192,48]{1,0} get-tuple-element(arg_tuple.1620), index=90
  get-tuple-element.1712 = pred[192,48]{1,0} get-tuple-element(arg_tuple.1620), index=91
  get-tuple-element.1713 = pred[192,48]{1,0} get-tuple-element(arg_tuple.1620), index=92
  get-tuple-element.1714 = pred[192,48,1]{2,1,0} get-tuple-element(arg_tuple.1620), index=93
  get-tuple-element.1621 = s64[] get-tuple-element(arg_tuple.1620), index=0
  constant.1715 = s64[] constant(192)
  ROOT compare.1716 = pred[] compare(get-tuple-element.1621, constant.1715), direction=LT, metadata={op_name="jit(scan)/jit(main)/while/cond/lt" source_file="/fs04/fc37/adam/projects/psilocybin-prl-analyses/src/prl_hgf/fitting/hierarchical_patrl.py" source_line=378}
} // region_3.1619

ENTRY main.1813 {
  constant.94 = s64[] constant(0)
  Arg_0.1 = f64[48]{0} parameter(0), metadata={op_name="args[45]"}
  Arg_1.2 = f64[48]{0} parameter(1), metadata={op_name="args[46]"}
  Arg_2.3 = f64[48]{0} parameter(2), metadata={op_name="args[47]"}
  Arg_3.4 = f64[48]{0} parameter(3), metadata={op_name="args[48]"}
  Arg_4.5 = f64[48]{0} parameter(4), metadata={op_name="args[49]"}
  Arg_5.6 = f64[48]{0} parameter(5), metadata={op_name="args[50]"}
  Arg_6.7 = f64[48]{0} parameter(6), metadata={op_name="args[51]"}
  Arg_7.8 = f64[48]{0} parameter(7), metadata={op_name="args[52]"}
  Arg_8.9 = f64[48]{0} parameter(8), metadata={op_name="args[53]"}
  Arg_9.10 = f64[48]{0} parameter(9), metadata={op_name="args[54]"}
  Arg_10.11 = f64[48]{0} parameter(10), metadata={op_name="args[55]"}
  Arg_11.12 = f64[48]{0} parameter(11), metadata={op_name="args[56]"}
  Arg_12.13 = f64[48]{0} parameter(12), metadata={op_name="args[57]"}
  Arg_13.14 = f64[48]{0} parameter(13), metadata={op_name="args[58]"}
  Arg_14.15 = f64[48]{0} parameter(14), metadata={op_name="args[59]"}
  Arg_15.16 = f64[48]{0} parameter(15), metadata={op_name="args[60]"}
  Arg_16.17 = f64[48]{0} parameter(16), metadata={op_name="args[61]"}
  Arg_17.18 = f64[48]{0} parameter(17), metadata={op_name="args[62]"}
  Arg_18.19 = f64[48]{0} parameter(18), metadata={op_name="args[63]"}
  Arg_19.20 = f64[48]{0} parameter(19), metadata={op_name="args[64]"}
  Arg_20.21 = f64[48,1]{1,0} parameter(20), metadata={op_name="args[65]"}
  Arg_21.22 = f64[192,48]{1,0} parameter(21), metadata={op_name="args[66]"}
  Arg_22.23 = f64[192,48]{1,0} parameter(22), metadata={op_name="args[67]"}
  Arg_23.24 = f64[192,48]{1,0} parameter(23), metadata={op_name="args[68]"}
  Arg_24.25 = f64[192]{0} parameter(24), metadata={op_name="args[69]"}
  Arg_25.26 = f64[192,48]{1,0} parameter(25), metadata={op_name="args[70]"}
  Arg_26.27 = pred[192,48]{1,0} parameter(26), metadata={op_name="args[71]"}
  Arg_27.28 = f64[192,48]{1,0} parameter(27), metadata={op_name="args[72]"}
  Arg_28.29 = f64[192,48]{1,0} parameter(28), metadata={op_name="args[73]"}
  Arg_29.30 = f64[192,48]{1,0} parameter(29), metadata={op_name="args[74]"}
  Arg_30.31 = f64[192,48]{1,0} parameter(30), metadata={op_name="args[75]"}
  Arg_31.32 = f64[192,48]{1,0} parameter(31), metadata={op_name="args[76]"}
  Arg_32.33 = f64[192,48]{1,0} parameter(32), metadata={op_name="args[77]"}
  Arg_33.34 = f64[192,48]{1,0} parameter(33), metadata={op_name="args[78]"}
  Arg_34.35 = f64[192,48]{1,0} parameter(34), metadata={op_name="args[79]"}
  Arg_35.36 = pred[192,48]{1,0} parameter(35), metadata={op_name="args[80]"}
  Arg_36.37 = f64[192,48]{1,0} parameter(36), metadata={op_name="args[81]"}
  Arg_37.38 = f64[192,48]{1,0} parameter(37), metadata={op_name="args[82]"}
  Arg_38.39 = f64[192,48]{1,0} parameter(38), metadata={op_name="args[83]"}
  Arg_39.40 = f64[192,48]{1,0} parameter(39), metadata={op_name="args[84]"}
  Arg_40.41 = f64[192,48]{1,0} parameter(40), metadata={op_name="args[85]"}
  Arg_41.42 = f64[192,48]{1,0} parameter(41), metadata={op_name="args[86]"}
  Arg_42.43 = f64[192,48]{1,0} parameter(42), metadata={op_name="args[87]"}
  Arg_43.44 = f64[192]{0} parameter(43), metadata={op_name="args[88]"}
  Arg_44.45 = f64[192,48]{1,0} parameter(44), metadata={op_name="args[89]"}
  Arg_45.46 = f64[192,48]{1,0} parameter(45), metadata={op_name="args[90]"}
  Arg_46.47 = f64[192,48]{1,0} parameter(46), metadata={op_name="args[91]"}
  Arg_47.48 = s32[192]{0} parameter(47), metadata={op_name="args[92]"}
  Arg_48.49 = f64[192,48]{1,0} parameter(48), metadata={op_name="args[93]"}
  Arg_49.50 = f64[192]{0} parameter(49), metadata={op_name="args[94]"}
  Arg_50.51 = f64[192,48]{1,0} parameter(50), metadata={op_name="args[95]"}
  Arg_51.52 = f64[192,48]{1,0} parameter(51), metadata={op_name="args[96]"}
  Arg_52.53 = f64[192,48]{1,0} parameter(52), metadata={op_name="args[97]"}
  Arg_53.54 = pred[192,48]{1,0} parameter(53), metadata={op_name="args[98]"}
  Arg_54.55 = f64[192,48]{1,0} parameter(54), metadata={op_name="args[99]"}
  Arg_55.56 = f64[192,48]{1,0} parameter(55), metadata={op_name="args[100]"}
  Arg_56.57 = f64[192,48]{1,0} parameter(56), metadata={op_name="args[101]"}
  Arg_57.58 = f64[192,48]{1,0} parameter(57), metadata={op_name="args[102]"}
  Arg_58.59 = f64[192,48]{1,0} parameter(58), metadata={op_name="args[103]"}
  Arg_59.60 = f64[192,48]{1,0} parameter(59), metadata={op_name="args[104]"}
  Arg_60.61 = f64[192]{0} parameter(60), metadata={op_name="args[105]"}
  Arg_61.62 = f64[192,48]{1,0} parameter(61), metadata={op_name="args[106]"}
  Arg_62.63 = f64[192,48]{1,0} parameter(62), metadata={op_name="args[107]"}
  Arg_63.64 = f64[192,48]{1,0} parameter(63), metadata={op_name="args[108]"}
  Arg_64.65 = f64[192,48]{1,0} parameter(64), metadata={op_name="args[109]"}
  Arg_65.66 = f64[192,48]{1,0} parameter(65), metadata={op_name="args[110]"}
  Arg_66.67 = f64[192,48]{1,0} parameter(66), metadata={op_name="args[111]"}
  Arg_67.68 = f64[192,48]{1,0} parameter(67), metadata={op_name="args[112]"}
  Arg_68.69 = f64[192,48]{1,0} parameter(68), metadata={op_name="args[113]"}
  Arg_69.70 = f64[192,48]{1,0} parameter(69), metadata={op_name="args[114]"}
  Arg_70.71 = f64[192,48]{1,0} parameter(70), metadata={op_name="args[115]"}
  Arg_71.72 = f64[192,48]{1,0} parameter(71), metadata={op_name="args[116]"}
  Arg_72.73 = s32[192,48]{1,0} parameter(72), metadata={op_name="args[117]"}
  Arg_73.74 = pred[192,48]{1,0} parameter(73), metadata={op_name="args[118]"}
  Arg_74.75 = f64[192,48]{1,0} parameter(74), metadata={op_name="args[120]"}
  Arg_75.76 = f64[192,48]{1,0} parameter(75), metadata={op_name="args[121]"}
  Arg_76.77 = f64[192,48]{1,0} parameter(76), metadata={op_name="args[122]"}
  Arg_77.78 = f64[192,48]{1,0} parameter(77), metadata={op_name="args[123]"}
  Arg_78.79 = pred[192,48]{1,0} parameter(78), metadata={op_name="args[124]"}
  Arg_79.80 = pred[192,48,1]{2,1,0} parameter(79), metadata={op_name="args[125]"}
  Arg_80.81 = f64[192,48]{1,0} parameter(80), metadata={op_name="args[126]"}
  Arg_81.82 = f64[192,48]{1,0} parameter(81), metadata={op_name="args[127]"}
  Arg_82.83 = f64[192,48]{1,0} parameter(82), metadata={op_name="args[128]"}
  Arg_83.84 = f64[192,48]{1,0} parameter(83), metadata={op_name="args[129]"}
  Arg_84.85 = f64[192,48]{1,0} parameter(84), metadata={op_name="args[130]"}
  Arg_85.86 = f64[192,48]{1,0} parameter(85), metadata={op_name="args[131]"}
  Arg_86.87 = f64[192,48]{1,0} parameter(86), metadata={op_name="args[132]"}
  Arg_87.88 = f64[192,48]{1,0} parameter(87), metadata={op_name="args[133]"}
  Arg_88.89 = f64[192,48]{1,0} parameter(88), metadata={op_name="args[134]"}
  Arg_89.90 = f64[192,48]{1,0} parameter(89), metadata={op_name="args[135]"}
  Arg_90.91 = pred[192,48]{1,0} parameter(90), metadata={op_name="args[136]"}
  Arg_91.92 = pred[192,48]{1,0} parameter(91), metadata={op_name="args[137]"}
  Arg_92.93 = pred[192,48,1]{2,1,0} parameter(92), metadata={op_name="args[138]"}
  tuple.95 = (s64[], f64[48]{0}, f64[48]{0}, f64[48]{0}, f64[48]{0}, /*index=5*/f64[48]{0}, f64[48]{0}, f64[48]{0}, f64[48]{0}, f64[48]{0}, /*index=10*/f64[48]{0}, f64[48]{0}, f64[48]{0}, f64[48]{0}, f64[48]{0}, /*index=15*/f64[48]{0}, f64[48]{0}, f64[48]{0}, f64[48]{0}, f64[48]{0}, /*index=20*/f64[48]{0}, f64[48,1]{1,0}, f64[192,48]{1,0}, f64[192,48]{1,0}, f64[192,48]{1,0}, /*index=25*/f64[192]{0}, f64[192,48]{1,0}, pred[192,48]{1,0}, f64[192,48]{1,0}, f64[192,48]{1,0}, /*index=30*/f64[192,48]{1,0}, f64[192,48]{1,0}, f64[192,48]{1,0}, f64[192,48]{1,0}, f64[192,48]{1,0}, /*index=35*/f64[192,48]{1,0}, pred[192,48]{1,0}, f64[192,48]{1,0}, f64[192,48]{1,0}, f64[192,48]{1,0}, /*index=40*/f64[192,48]{1,0}, f64[192,48]{1,0}, f64[192,48]{1,0}, f64[192,48]{1,0}, f64[192]{0}, /*index=45*/f64[192,48]{1,0}, f64[192,48]{1,0}, f64[192,48]{1,0}, s32[192]{0}, f64[192,48]{1,0}, /*index=50*/f64[192]{0}, f64[192,48]{1,0}, f64[192,48]{1,0}, f64[192,48]{1,0}, pred[192,48]{1,0}, /*index=55*/f64[192,48]{1,0}, f64[192,48]{1,0}, f64[192,48]{1,0}, f64[192,48]{1,0}, f64[192,48]{1,0}, /*index=60*/f64[192,48]{1,0}, f64[192]{0}, f64[192,48]{1,0}, f64[192,48]{1,0}, f64[192,48]{1,0}, /*index=65*/f64[192,48]{1,0}, f64[192,48]{1,0}, f64[192,48]{1,0}, f64[192,48]{1,0}, f64[192,48]{1,0}, /*index=70*/f64[192,48]{1,0}, f64[192,48]{1,0}, f64[192,48]{1,0}, s32[192,48]{1,0}, pred[192,48]{1,0}, /*index=75*/f64[192,48]{1,0}, f64[192,48]{1,0}, f64[192,48]{1,0}, f64[192,48]{1,0}, pred[192,48]{1,0}, /*index=80*/pred[192,48,1]{2,1,0}, f64[192,48]{1,0}, f64[192,48]{1,0}, f64[192,48]{1,0}, f64[192,48]{1,0}, /*index=85*/f64[192,48]{1,0}, f64[192,48]{1,0}, f64[192,48]{1,0}, f64[192,48]{1,0}, f64[192,48]{1,0}, /*index=90*/f64[192,48]{1,0}, pred[192,48]{1,0}, pred[192,48]{1,0}, pred[192,48,1]{2,1,0}) tuple(constant.94, Arg_0.1, Arg_1.2, Arg_2.3, Arg_3.4, /*index=5*/Arg_4.5, Arg_5.6, Arg_6.7, Arg_7.8, Arg_8.9, /*index=10*/Arg_9.10, Arg_10.11, Arg_11.12, Arg_12.13, Arg_13.14, /*index=15*/Arg_14.15, Arg_15.16, Arg_16.17, Arg_17.18, Arg_18.19, /*index=20*/Arg_19.20, Arg_20.21, Arg_21.22, Arg_22.23, Arg_23.24, /*index=25*/Arg_24.25, Arg_25.26, Arg_26.27, Arg_27.28, Arg_28.29, /*index=30*/Arg_29.30, Arg_30.31, Arg_31.32, Arg_32.33, Arg_33.34, /*index=35*/Arg_34.35, Arg_35.36, Arg_36.37, Arg_37.38, Arg_38.39, /*index=40*/Arg_39.40, Arg_40.41, Arg_41.42, Arg_42.43, Arg_43.44, /*index=45*/Arg_44.45, Arg_45.46, Arg_46.47, Arg_47.48, Arg_48.49, /*index=50*/Arg_49.50, Arg_50.51, Arg_51.52, Arg_52.53, Arg_53.54, /*index=55*/Arg_54.55, Arg_55.56, Arg_56.57, Arg_57.58, Arg_58.59, /*index=60*/Arg_59.60, Arg_60.61, Arg_61.62, Arg_62.63, Arg_63.64, /*index=65*/Arg_64.65, Arg_65.66, Arg_66.67, Arg_67.68, Arg_68.69, /*index=70*/Arg_69.70, Arg_70.71, Arg_71.72, Arg_72.73, Arg_73.74, /*index=75*/Arg_74.75, Arg_75.76, Arg_76.77, Arg_77.78, Arg_78.79, /*index=80*/Arg_79.80, Arg_80.81, Arg_81.82, Arg_82.83, Arg_83.84, /*index=85*/Arg_84.85, Arg_85.86, Arg_86.87, Arg_87.88, Arg_88.89, /*index=90*/Arg_89.90, Arg_90.91, Arg_91.92, Arg_92.93), metadata={op_name="jit(scan)/jit(main)/while[cond_nconsts=0 body_nconsts=72]" source_file="/fs04/fc37/adam/projects/psilocybin-prl-analyses/src/prl_hgf/fitting/hierarchical_patrl.py" source_line=378}
  while.1717 = (s64[], f64[48]{0}, f64[48]{0}, f64[48]{0}, f64[48]{0}, /*index=5*/f64[48]{0}, f64[48]{0}, f64[48]{0}, f64[48]{0}, f64[48]{0}, /*index=10*/f64[48]{0}, f64[48]{0}, f64[48]{0}, f64[48]{0}, f64[48]{0}, /*index=15*/f64[48]{0}, f64[48]{0}, f64[48]{0}, f64[48]{0}, f64[48]{0}, /*index=20*/f64[48]{0}, f64[48,1]{1,0}, f64[192,48]{1,0}, f64[192,48]{1,0}, f64[192,48]{1,0}, /*index=25*/f64[192]{0}, f64[192,48]{1,0}, pred[192,48]{1,0}, f64[192,48]{1,0}, f64[192,48]{1,0}, /*index=30*/f64[192,48]{1,0}, f64[192,48]{1,0}, f64[192,48]{1,0}, f64[192,48]{1,0}, f64[192,48]{1,0}, /*index=35*/f64[192,48]{1,0}, pred[192,48]{1,0}, f64[192,48]{1,0}, f64[192,48]{1,0}, f64[192,48]{1,0}, /*index=40*/f64[192,48]{1,0}, f64[192,48]{1,0}, f64[192,48]{1,0}, f64[192,48]{1,0}, f64[192]{0}, /*index=45*/f64[192,48]{1,0}, f64[192,48]{1,0}, f64[192,48]{1,0}, s32[192]{0}, f64[192,48]{1,0}, /*index=50*/f64[192]{0}, f64[192,48]{1,0}, f64[192,48]{1,0}, f64[192,48]{1,0}, pred[192,48]{1,0}, /*index=55*/f64[192,48]{1,0}, f64[192,48]{1,0}, f64[192,48]{1,0}, f64[192,48]{1,0}, f64[192,48]{1,0}, /*index=60*/f64[192,48]{1,0}, f64[192]{0}, f64[192,48]{1,0}, f64[192,48]{1,0}, f64[192,48]{1,0}, /*index=65*/f64[192,48]{1,0}, f64[192,48]{1,0}, f64[192,48]{1,0}, f64[192,48]{1,0}, f64[192,48]{1,0}, /*index=70*/f64[192,48]{1,0}, f64[192,48]{1,0}, f64[192,48]{1,0}, s32[192,48]{1,0}, pred[192,48]{1,0}, /*index=75*/f64[192,48]{1,0}, f64[192,48]{1,0}, f64[192,48]{1,0}, f64[192,48]{1,0}, pred[192,48]{1,0}, /*index=80*/pred[192,48,1]{2,1,0}, f64[192,48]{1,0}, f64[192,48]{1,0}, f64[192,48]{1,0}, f64[192,48]{1,0}, /*index=85*/f64[192,48]{1,0}, f64[192,48]{1,0}, f64[192,48]{1,0}, f64[192,48]{1,0}, f64[192,48]{1,0}, /*index=90*/f64[192,48]{1,0}, pred[192,48]{1,0}, pred[192,48]{1,0}, pred[192,48,1]{2,1,0}) while(tuple.95), condition=region_3.1619, body=region_0.1134, metadata={op_name="jit(scan)/jit(main)/while[cond_nconsts=0 body_nconsts=72]" source_file="/fs04/fc37/adam/projects/psilocybin-prl-analyses/src/prl_hgf/fitting/hierarchical_patrl.py" source_line=378}
  get-tuple-element.1718 = s64[] get-tuple-element(while.1717), index=0, metadata={op_name="jit(scan)/jit(main)/while[cond_nconsts=0 body_nconsts=72]" source_file="/fs04/fc37/adam/projects/psilocybin-prl-analyses/src/prl_hgf/fitting/hierarchical_patrl.py" source_line=378}
  get-tuple-element.1740 = f64[192,48]{1,0} get-tuple-element(while.1717), index=22, metadata={op_name="jit(scan)/jit(main)/while[cond_nconsts=0 body_nconsts=72]" source_file="/fs04/fc37/adam/projects/psilocybin-prl-analyses/src/prl_hgf/fitting/hierarchical_patrl.py" source_line=378}
  get-tuple-element.1741 = f64[192,48]{1,0} get-tuple-element(while.1717), index=23, metadata={op_name="jit(scan)/jit(main)/while[cond_nconsts=0 body_nconsts=72]" source_file="/fs04/fc37/adam/projects/psilocybin-prl-analyses/src/prl_hgf/fitting/hierarchical_patrl.py" source_line=378}
  get-tuple-element.1742 = f64[192,48]{1,0} get-tuple-element(while.1717), index=24, metadata={op_name="jit(scan)/jit(main)/while[cond_nconsts=0 body_nconsts=72]" source_file="/fs04/fc37/adam/projects/psilocybin-prl-analyses/src/prl_hgf/fitting/hierarchical_patrl.py" source_line=378}
  get-tuple-element.1743 = f64[192]{0} get-tuple-element(while.1717), index=25, metadata={op_name="jit(scan)/jit(main)/while[cond_nconsts=0 body_nconsts=72]" source_file="/fs04/fc37/adam/projects/psilocybin-prl-analyses/src/prl_hgf/fitting/hierarchical_patrl.py" source_line=378}
  get-tuple-element.1744 = f64[192,48]{1,0} get-tuple-element(while.1717), index=26, metadata={op_name="jit(scan)/jit(main)/while[cond_nconsts=0 body_nconsts=72]" source_file="/fs04/fc37/adam/projects/psilocybin-prl-analyses/src/prl_hgf/fitting/hierarchical_patrl.py" source_line=378}
  get-tuple-element.1745 = pred[192,48]{1,0} get-tuple-element(while.1717), index=27, metadata={op_name="jit(scan)/jit(main)/while[cond_nconsts=0 body_nconsts=72]" source_file="/fs04/fc37/adam/projects/psilocybin-prl-analyses/src/prl_hgf/fitting/hierarchical_patrl.py" source_line=378}
  get-tuple-element.1746 = f64[192,48]{1,0} get-tuple-element(while.1717), index=28, metadata={op_name="jit(scan)/jit(main)/while[cond_nconsts=0 body_nconsts=72]" source_file="/fs04/fc37/adam/projects/psilocybin-prl-analyses/src/prl_hgf/fitting/hierarchical_patrl.py" source_line=378}
  get-tuple-element.1747 = f64[192,48]{1,0} get-tuple-element(while.1717), index=29, metadata={op_name="jit(scan)/jit(main)/while[cond_nconsts=0 body_nconsts=72]" source_file="/fs04/fc37/adam/projects/psilocybin-prl-analyses/src/prl_hgf/fitting/hierarchical_patrl.py" source_line=378}
  get-tuple-element.1748 = f64[192,48]{1,0} get-tuple-element(while.1717), index=30, metadata={op_name="jit(scan)/jit(main)/while[cond_nconsts=0 body_nconsts=72]" source_file="/fs04/fc37/adam/projects/psilocybin-prl-analyses/src/prl_hgf/fitting/hierarchical_patrl.py" source_line=378}
  get-tuple-element.1749 = f64[192,48]{1,0} get-tuple-element(while.1717), index=31, metadata={op_name="jit(scan)/jit(main)/while[cond_nconsts=0 body_nconsts=72]" source_file="/fs04/fc37/adam/projects/psilocybin-prl-analyses/src/prl_hgf/fitting/hierarchical_patrl.py" source_line=378}
  get-tuple-element.1750 = f64[192,48]{1,0} get-tuple-element(while.1717), index=32, metadata={op_name="jit(scan)/jit(main)/while[cond_nconsts=0 body_nconsts=72]" source_file="/fs04/fc37/adam/projects/psilocybin-prl-analyses/src/prl_hgf/fitting/hierarchical_patrl.py" source_line=378}
  get-tuple-element.1751 = f64[192,48]{1,0} get-tuple-element(while.1717), index=33, metadata={op_name="jit(scan)/jit(main)/while[cond_nconsts=0 body_nconsts=72]" source_file="/fs04/fc37/adam/projects/psilocybin-prl-analyses/src/prl_hgf/fitting/hierarchical_patrl.py" source_line=378}
  get-tuple-element.1752 = f64[192,48]{1,0} get-tuple-element(while.1717), index=34, metadata={op_name="jit(scan)/jit(main)/while[cond_nconsts=0 body_nconsts=72]" source_file="/fs04/fc37/adam/projects/psilocybin-prl-analyses/src/prl_hgf/fitting/hierarchical_patrl.py" source_line=378}
  get-tuple-element.1753 = f64[192,48]{1,0} get-tuple-element(while.1717), index=35, metadata={op_name="jit(scan)/jit(main)/while[cond_nconsts=0 body_nconsts=72]" source_file="/fs04/fc37/adam/projects/psilocybin-prl-analyses/src/prl_hgf/fitting/hierarchical_patrl.py" source_line=378}
  get-tuple-element.1754 = pred[192,48]{1,0} get-tuple-element(while.1717), index=36, metadata={op_name="jit(scan)/jit(main)/while[cond_nconsts=0 body_nconsts=72]" source_file="/fs04/fc37/adam/projects/psilocybin-prl-analyses/src/prl_hgf/fitting/hierarchical_patrl.py" source_line=378}
  get-tuple-element.1755 = f64[192,48]{1,0} get-tuple-element(while.1717), index=37, metadata={op_name="jit(scan)/jit(main)/while[cond_nconsts=0 body_nconsts=72]" source_file="/fs04/fc37/adam/projects/psilocybin-prl-analyses/src/prl_hgf/fitting/hierarchical_patrl.py" source_line=378}
  get-tuple-element.1756 = f64[192,48]{1,0} get-tuple-element(while.1717), index=38, metadata={op_name="jit(scan)/jit(main)/while[cond_nconsts=0 body_nconsts=72]" source_file="/fs04/fc37/adam/projects/psilocybin-prl-analyses/src/prl_hgf/fitting/hierarchical_patrl.py" source_line=378}
  get-tuple-element.1757 = f64[192,48]{1,0} get-tuple-element(while.1717), index=39, metadata={op_name="jit(scan)/jit(main)/while[cond_nconsts=0 body_nconsts=72]" source_file="/fs04/fc37/adam/projects/psilocybin-prl-analyses/src/prl_hgf/fitting/hierarchical_patrl.py" source_line=378}
  get-tuple-element.1758 = f64[192,48]{1,0} get-tuple-element(while.1717), index=40, metadata={op_name="jit(scan)/jit(main)/while[cond_nconsts=0 body_nconsts=72]" source_file="/fs04/fc37/adam/projects/psilocybin-prl-analyses/src/prl_hgf/fitting/hierarchical_patrl.py" source_line=378}
  get-tuple-element.1759 = f64[192,48]{1,0} get-tuple-element(while.1717), index=41, metadata={op_name="jit(scan)/jit(main)/while[cond_nconsts=0 body_nconsts=72]" source_file="/fs04/fc37/adam/projects/psilocybin-prl-analyses/src/prl_hgf/fitting/hierarchical_patrl.py" source_line=378}
  get-tuple-element.1760 = f64[192,48]{1,0} get-tuple-element(while.1717), index=42, metadata={op_name="jit(scan)/jit(main)/while[cond_nconsts=0 body_nconsts=72]" source_file="/fs04/fc37/adam/projects/psilocybin-prl-analyses/src/prl_hgf/fitting/hierarchical_patrl.py" source_line=378}
  get-tuple-element.1761 = f64[192,48]{1,0} get-tuple-element(while.1717), index=43, metadata={op_name="jit(scan)/jit(main)/while[cond_nconsts=0 body_nconsts=72]" source_file="/fs04/fc37/adam/projects/psilocybin-prl-analyses/src/prl_hgf/fitting/hierarchical_patrl.py" source_line=378}
  get-tuple-element.1762 = f64[192]{0} get-tuple-element(while.1717), index=44, metadata={op_name="jit(scan)/jit(main)/while[cond_nconsts=0 body_nconsts=72]" source_file="/fs04/fc37/adam/projects/psilocybin-prl-analyses/src/prl_hgf/fitting/hierarchical_patrl.py" source_line=378}
  get-tuple-element.1763 = f64[192,48]{1,0} get-tuple-element(while.1717), index=45, metadata={op_name="jit(scan)/jit(main)/while[cond_nconsts=0 body_nconsts=72]" source_file="/fs04/fc37/adam/projects/psilocybin-prl-analyses/src/prl_hgf/fitting/hierarchical_patrl.py" source_line=378}
  get-tuple-element.1764 = f64[192,48]{1,0} get-tuple-element(while.1717), index=46, metadata={op_name="jit(scan)/jit(main)/while[cond_nconsts=0 body_nconsts=72]" source_file="/fs04/fc37/adam/projects/psilocybin-prl-analyses/src/prl_hgf/fitting/hierarchical_patrl.py" source_line=378}
  get-tuple-element.1765 = f64[192,48]{1,0} get-tuple-element(while.1717), index=47, metadata={op_name="jit(scan)/jit(main)/while[cond_nconsts=0 body_nconsts=72]" source_file="/fs04/fc37/adam/projects/psilocybin-prl-analyses/src/prl_hgf/fitting/hierarchical_patrl.py" source_line=378}
  get-tuple-element.1766 = s32[192]{0} get-tuple-element(while.1717), index=48, metadata={op_name="jit(scan)/jit(main)/while[cond_nconsts=0 body_nconsts=72]" source_file="/fs04/fc37/adam/projects/psilocybin-prl-analyses/src/prl_hgf/fitting/hierarchical_patrl.py" source_line=378}
  get-tuple-element.1767 = f64[192,48]{1,0} get-tuple-element(while.1717), index=49, metadata={op_name="jit(scan)/jit(main)/while[cond_nconsts=0 body_nconsts=72]" source_file="/fs04/fc37/adam/projects/psilocybin-prl-analyses/src/prl_hgf/fitting/hierarchical_patrl.py" source_line=378}
  get-tuple-element.1768 = f64[192]{0} get-tuple-element(while.1717), index=50, metadata={op_name="jit(scan)/jit(main)/while[cond_nconsts=0 body_nconsts=72]" source_file="/fs04/fc37/adam/projects/psilocybin-prl-analyses/src/prl_hgf/fitting/hierarchical_patrl.py" source_line=378}
  get-tuple-element.1769 = f64[192,48]{1,0} get-tuple-element(while.1717), index=51, metadata={op_name="jit(scan)/jit(main)/while[cond_nconsts=0 body_nconsts=72]" source_file="/fs04/fc37/adam/projects/psilocybin-prl-analyses/src/prl_hgf/fitting/hierarchical_patrl.py" source_line=378}
  get-tuple-element.1770 = f64[192,48]{1,0} get-tuple-element(while.1717), index=52, metadata={op_name="jit(scan)/jit(main)/while[cond_nconsts=0 body_nconsts=72]" source_file="/fs04/fc37/adam/projects/psilocybin-prl-analyses/src/prl_hgf/fitting/hierarchical_patrl.py" source_line=378}
  get-tuple-element.1771 = f64[192,48]{1,0} get-tuple-element(while.1717), index=53, metadata={op_name="jit(scan)/jit(main)/while[cond_nconsts=0 body_nconsts=72]" source_file="/fs04/fc37/adam/projects/psilocybin-prl-analyses/src/prl_hgf/fitting/hierarchical_patrl.py" source_line=378}
  get-tuple-element.1772 = pred[192,48]{1,0} get-tuple-element(while.1717), index=54, metadata={op_name="jit(scan)/jit(main)/while[cond_nconsts=0 body_nconsts=72]" source_file="/fs04/fc37/adam/projects/psilocybin-prl-analyses/src/prl_hgf/fitting/hierarchical_patrl.py" source_line=378}
  get-tuple-element.1773 = f64[192,48]{1,0} get-tuple-element(while.1717), index=55, metadata={op_name="jit(scan)/jit(main)/while[cond_nconsts=0 body_nconsts=72]" source_file="/fs04/fc37/adam/projects/psilocybin-prl-analyses/src/prl_hgf/fitting/hierarchical_patrl.py" source_line=378}
  get-tuple-element.1774 = f64[192,48]{1,0} get-tuple-element(while.1717), index=56, metadata={op_name="jit(scan)/jit(main)/while[cond_nconsts=0 body_nconsts=72]" source_file="/fs04/fc37/adam/projects/psilocybin-prl-analyses/src/prl_hgf/fitting/hierarchical_patrl.py" source_line=378}
  get-tuple-element.1775 = f64[192,48]{1,0} get-tuple-element(while.1717), index=57, metadata={op_name="jit(scan)/jit(main)/while[cond_nconsts=0 body_nconsts=72]" source_file="/fs04/fc37/adam/projects/psilocybin-prl-analyses/src/prl_hgf/fitting/hierarchical_patrl.py" source_line=378}
  get-tuple-element.1776 = f64[192,48]{1,0} get-tuple-element(while.1717), index=58, metadata={op_name="jit(scan)/jit(main)/while[cond_nconsts=0 body_nconsts=72]" source_file="/fs04/fc37/adam/projects/psilocybin-prl-analyses/src/prl_hgf/fitting/hierarchical_patrl.py" source_line=378}
  get-tuple-element.1777 = f64[192,48]{1,0} get-tuple-element(while.1717), index=59, metadata={op_name="jit(scan)/jit(main)/while[cond_nconsts=0 body_nconsts=72]" source_file="/fs04/fc37/adam/projects/psilocybin-prl-analyses/src/prl_hgf/fitting/hierarchical_patrl.py" source_line=378}
  get-tuple-element.1778 = f64[192,48]{1,0} get-tuple-element(while.1717), index=60, metadata={op_name="jit(scan)/jit(main)/while[cond_nconsts=0 body_nconsts=72]" source_file="/fs04/fc37/adam/projects/psilocybin-prl-analyses/src/prl_hgf/fitting/hierarchical_patrl.py" source_line=378}
  get-tuple-element.1779 = f64[192]{0} get-tuple-element(while.1717), index=61, metadata={op_name="jit(scan)/jit(main)/while[cond_nconsts=0 body_nconsts=72]" source_file="/fs04/fc37/adam/projects/psilocybin-prl-analyses/src/prl_hgf/fitting/hierarchical_patrl.py" source_line=378}
  get-tuple-element.1780 = f64[192,48]{1,0} get-tuple-element(while.1717), index=62, metadata={op_name="jit(scan)/jit(main)/while[cond_nconsts=0 body_nconsts=72]" source_file="/fs04/fc37/adam/projects/psilocybin-prl-analyses/src/prl_hgf/fitting/hierarchical_patrl.py" source_line=378}
  get-tuple-element.1781 = f64[192,48]{1,0} get-tuple-element(while.1717), index=63, metadata={op_name="jit(scan)/jit(main)/while[cond_nconsts=0 body_nconsts=72]" source_file="/fs04/fc37/adam/projects/psilocybin-prl-analyses/src/prl_hgf/fitting/hierarchical_patrl.py" source_line=378}
  get-tuple-element.1782 = f64[192,48]{1,0} get-tuple-element(while.1717), index=64, metadata={op_name="jit(scan)/jit(main)/while[cond_nconsts=0 body_nconsts=72]" source_file="/fs04/fc37/adam/projects/psilocybin-prl-analyses/src/prl_hgf/fitting/hierarchical_patrl.py" source_line=378}
  get-tuple-element.1783 = f64[192,48]{1,0} get-tuple-element(while.1717), index=65, metadata={op_name="jit(scan)/jit(main)/while[cond_nconsts=0 body_nconsts=72]" source_file="/fs04/fc37/adam/projects/psilocybin-prl-analyses/src/prl_hgf/fitting/hierarchical_patrl.py" source_line=378}
  get-tuple-element.1784 = f64[192,48]{1,0} get-tuple-element(while.1717), index=66, metadata={op_name="jit(scan)/jit(main)/while[cond_nconsts=0 body_nconsts=72]" source_file="/fs04/fc37/adam/projects/psilocybin-prl-analyses/src/prl_hgf/fitting/hierarchical_patrl.py" source_line=378}
  get-tuple-element.1785 = f64[192,48]{1,0} get-tuple-element(while.1717), index=67, metadata={op_name="jit(scan)/jit(main)/while[cond_nconsts=0 body_nconsts=72]" source_file="/fs04/fc37/adam/projects/psilocybin-prl-analyses/src/prl_hgf/fitting/hierarchical_patrl.py" source_line=378}
  get-tuple-element.1786 = f64[192,48]{1,0} get-tuple-element(while.1717), index=68, metadata={op_name="jit(scan)/jit(main)/while[cond_nconsts=0 body_nconsts=72]" source_file="/fs04/fc37/adam/projects/psilocybin-prl-analyses/src/prl_hgf/fitting/hierarchical_patrl.py" source_line=378}
  get-tuple-element.1787 = f64[192,48]{1,0} get-tuple-element(while.1717), index=69, metadata={op_name="jit(scan)/jit(main)/while[cond_nconsts=0 body_nconsts=72]" source_file="/fs04/fc37/adam/projects/psilocybin-prl-analyses/src/prl_hgf/fitting/hierarchical_patrl.py" source_line=378}
  get-tuple-element.1788 = f64[192,48]{1,0} get-tuple-element(while.1717), index=70, metadata={op_name="jit(scan)/jit(main)/while[cond_nconsts=0 body_nconsts=72]" source_file="/fs04/fc37/adam/projects/psilocybin-prl-analyses/src/prl_hgf/fitting/hierarchical_patrl.py" source_line=378}
  get-tuple-element.1789 = f64[192,48]{1,0} get-tuple-element(while.1717), index=71, metadata={op_name="jit(scan)/jit(main)/while[cond_nconsts=0 body_nconsts=72]" source_file="/fs04/fc37/adam/projects/psilocybin-prl-analyses/src/prl_hgf/fitting/hierarchical_patrl.py" source_line=378}
  get-tuple-element.1790 = f64[192,48]{1,0} get-tuple-element(while.1717), index=72, metadata={op_name="jit(scan)/jit(main)/while[cond_nconsts=0 body_nconsts=72]" source_file="/fs04/fc37/adam/projects/psilocybin-prl-analyses/src/prl_hgf/fitting/hierarchical_patrl.py" source_line=378}
  get-tuple-element.1791 = s32[192,48]{1,0} get-tuple-element(while.1717), index=73, metadata={op_name="jit(scan)/jit(main)/while[cond_nconsts=0 body_nconsts=72]" source_file="/fs04/fc37/adam/projects/psilocybin-prl-analyses/src/prl_hgf/fitting/hierarchical_patrl.py" source_line=378}
  get-tuple-element.1792 = pred[192,48]{1,0} get-tuple-element(while.1717), index=74, metadata={op_name="jit(scan)/jit(main)/while[cond_nconsts=0 body_nconsts=72]" source_file="/fs04/fc37/adam/projects/psilocybin-prl-analyses/src/prl_hgf/fitting/hierarchical_patrl.py" source_line=378}
  get-tuple-element.1793 = f64[192,48]{1,0} get-tuple-element(while.1717), index=75, metadata={op_name="jit(scan)/jit(main)/while[cond_nconsts=0 body_nconsts=72]" source_file="/fs04/fc37/adam/projects/psilocybin-prl-analyses/src/prl_hgf/fitting/hierarchical_patrl.py" source_line=378}
  get-tuple-element.1794 = f64[192,48]{1,0} get-tuple-element(while.1717), index=76, metadata={op_name="jit(scan)/jit(main)/while[cond_nconsts=0 body_nconsts=72]" source_file="/fs04/fc37/adam/projects/psilocybin-prl-analyses/src/prl_hgf/fitting/hierarchical_patrl.py" source_line=378}
  get-tuple-element.1795 = f64[192,48]{1,0} get-tuple-element(while.1717), index=77, metadata={op_name="jit(scan)/jit(main)/while[cond_nconsts=0 body_nconsts=72]" source_file="/fs04/fc37/adam/projects/psilocybin-prl-analyses/src/prl_hgf/fitting/hierarchical_patrl.py" source_line=378}
  get-tuple-element.1796 = f64[192,48]{1,0} get-tuple-element(while.1717), index=78, metadata={op_name="jit(scan)/jit(main)/while[cond_nconsts=0 body_nconsts=72]" source_file="/fs04/fc37/adam/projects/psilocybin-prl-analyses/src/prl_hgf/fitting/hierarchical_patrl.py" source_line=378}
  get-tuple-element.1797 = pred[192,48]{1,0} get-tuple-element(while.1717), index=79, metadata={op_name="jit(scan)/jit(main)/while[cond_nconsts=0 body_nconsts=72]" source_file="/fs04/fc37/adam/projects/psilocybin-prl-analyses/src/prl_hgf/fitting/hierarchical_patrl.py" source_line=378}
  get-tuple-element.1798 = pred[192,48,1]{2,1,0} get-tuple-element(while.1717), index=80, metadata={op_name="jit(scan)/jit(main)/while[cond_nconsts=0 body_nconsts=72]" source_file="/fs04/fc37/adam/projects/psilocybin-prl-analyses/src/prl_hgf/fitting/hierarchical_patrl.py" source_line=378}
  get-tuple-element.1799 = f64[192,48]{1,0} get-tuple-element(while.1717), index=81, metadata={op_name="jit(scan)/jit(main)/while[cond_nconsts=0 body_nconsts=72]" source_file="/fs04/fc37/adam/projects/psilocybin-prl-analyses/src/prl_hgf/fitting/hierarchical_patrl.py" source_line=378}
  get-tuple-element.1800 = f64[192,48]{1,0} get-tuple-element(while.1717), index=82, metadata={op_name="jit(scan)/jit(main)/while[cond_nconsts=0 body_nconsts=72]" source_file="/fs04/fc37/adam/projects/psilocybin-prl-analyses/src/prl_hgf/fitting/hierarchical_patrl.py" source_line=378}
  get-tuple-element.1801 = f64[192,48]{1,0} get-tuple-element(while.1717), index=83, metadata={op_name="jit(scan)/jit(main)/while[cond_nconsts=0 body_nconsts=72]" source_file="/fs04/fc37/adam/projects/psilocybin-prl-analyses/src/prl_hgf/fitting/hierarchical_patrl.py" source_line=378}
  get-tuple-element.1802 = f64[192,48]{1,0} get-tuple-element(while.1717), index=84, metadata={op_name="jit(scan)/jit(main)/while[cond_nconsts=0 body_nconsts=72]" source_file="/fs04/fc37/adam/projects/psilocybin-prl-analyses/src/prl_hgf/fitting/hierarchical_patrl.py" source_line=378}
  get-tuple-element.1803 = f64[192,48]{1,0} get-tuple-element(while.1717), index=85, metadata={op_name="jit(scan)/jit(main)/while[cond_nconsts=0 body_nconsts=72]" source_file="/fs04/fc37/adam/projects/psilocybin-prl-analyses/src/prl_hgf/fitting/hierarchical_patrl.py" source_line=378}
  get-tuple-element.1804 = f64[192,48]{1,0} get-tuple-element(while.1717), index=86, metadata={op_name="jit(scan)/jit(main)/while[cond_nconsts=0 body_nconsts=72]" source_file="/fs04/fc37/adam/projects/psilocybin-prl-analyses/src/prl_hgf/fitting/hierarchical_patrl.py" source_line=378}
  get-tuple-element.1805 = f64[192,48]{1,0} get-tuple-element(while.1717), index=87, metadata={op_name="jit(scan)/jit(main)/while[cond_nconsts=0 body_nconsts=72]" source_file="/fs04/fc37/adam/projects/psilocybin-prl-analyses/src/prl_hgf/fitting/hierarchical_patrl.py" source_line=378}
  get-tuple-element.1806 = f64[192,48]{1,0} get-tuple-element(while.1717), index=88, metadata={op_name="jit(scan)/jit(main)/while[cond_nconsts=0 body_nconsts=72]" source_file="/fs04/fc37/adam/projects/psilocybin-prl-analyses/src/prl_hgf/fitting/hierarchical_patrl.py" source_line=378}
  get-tuple-element.1807 = f64[192,48]{1,0} get-tuple-element(while.1717), index=89, metadata={op_name="jit(scan)/jit(main)/while[cond_nconsts=0 body_nconsts=72]" source_file="/fs04/fc37/adam/projects/psilocybin-prl-analyses/src/prl_hgf/fitting/hierarchical_patrl.py" source_line=378}
  get-tuple-element.1808 = f64[192,48]{1,0} get-tuple-element(while.1717), index=90, metadata={op_name="jit(scan)/jit(main)/while[cond_nconsts=0 body_nconsts=72]" source_file="/fs04/fc37/adam/projects/psilocybin-prl-analyses/src/prl_hgf/fitting/hierarchical_patrl.py" source_line=378}
  get-tuple-element.1809 = pred[192,48]{1,0} get-tuple-element(while.1717), index=91, metadata={op_name="jit(scan)/jit(main)/while[cond_nconsts=0 body_nconsts=72]" source_file="/fs04/fc37/adam/projects/psilocybin-prl-analyses/src/prl_hgf/fitting/hierarchical_patrl.py" source_line=378}
  get-tuple-element.1810 = pred[192,48]{1,0} get-tuple-element(while.1717), index=92, metadata={op_name="jit(scan)/jit(main)/while[cond_nconsts=0 body_nconsts=72]" source_file="/fs04/fc37/adam/projects/psilocybin-prl-analyses/src/prl_hgf/fitting/hierarchical_patrl.py" source_line=378}
  get-tuple-element.1811 = pred[192,48,1]{2,1,0} get-tuple-element(while.1717), index=93, metadata={op_name="jit(scan)/jit(main)/while[cond_nconsts=0 body_nconsts=72]" source_file="/fs04/fc37/adam/projects/psilocybin-prl-analyses/src/prl_hgf/fitting/hierarchical_patrl.py" source_line=378}
  get-tuple-element.1719 = f64[48]{0} get-tuple-element(while.1717), index=1, metadata={op_name="jit(scan)/jit(main)/while[cond_nconsts=0 body_nconsts=72]" source_file="/fs04/fc37/adam/projects/psilocybin-prl-analyses/src/prl_hgf/fitting/hierarchical_patrl.py" source_line=378}
  get-tuple-element.1720 = f64[48]{0} get-tuple-element(while.1717), index=2, metadata={op_name="jit(scan)/jit(main)/while[cond_nconsts=0 body_nconsts=72]" source_file="/fs04/fc37/adam/projects/psilocybin-prl-analyses/src/prl_hgf/fitting/hierarchical_patrl.py" source_line=378}
  get-tuple-element.1721 = f64[48]{0} get-tuple-element(while.1717), index=3, metadata={op_name="jit(scan)/jit(main)/while[cond_nconsts=0 body_nconsts=72]" source_file="/fs04/fc37/adam/projects/psilocybin-prl-analyses/src/prl_hgf/fitting/hierarchical_patrl.py" source_line=378}
  get-tuple-element.1722 = f64[48]{0} get-tuple-element(while.1717), index=4, metadata={op_name="jit(scan)/jit(main)/while[cond_nconsts=0 body_nconsts=72]" source_file="/fs04/fc37/adam/projects/psilocybin-prl-analyses/src/prl_hgf/fitting/hierarchical_patrl.py" source_line=378}
  get-tuple-element.1723 = f64[48]{0} get-tuple-element(while.1717), index=5, metadata={op_name="jit(scan)/jit(main)/while[cond_nconsts=0 body_nconsts=72]" source_file="/fs04/fc37/adam/projects/psilocybin-prl-analyses/src/prl_hgf/fitting/hierarchical_patrl.py" source_line=378}
  get-tuple-element.1724 = f64[48]{0} get-tuple-element(while.1717), index=6, metadata={op_name="jit(scan)/jit(main)/while[cond_nconsts=0 body_nconsts=72]" source_file="/fs04/fc37/adam/projects/psilocybin-prl-analyses/src/prl_hgf/fitting/hierarchical_patrl.py" source_line=378}
  get-tuple-element.1725 = f64[48]{0} get-tuple-element(while.1717), index=7, metadata={op_name="jit(scan)/jit(main)/while[cond_nconsts=0 body_nconsts=72]" source_file="/fs04/fc37/adam/projects/psilocybin-prl-analyses/src/prl_hgf/fitting/hierarchical_patrl.py" source_line=378}
  get-tuple-element.1726 = f64[48]{0} get-tuple-element(while.1717), index=8, metadata={op_name="jit(scan)/jit(main)/while[cond_nconsts=0 body_nconsts=72]" source_file="/fs04/fc37/adam/projects/psilocybin-prl-analyses/src/prl_hgf/fitting/hierarchical_patrl.py" source_line=378}
  get-tuple-element.1727 = f64[48]{0} get-tuple-element(while.1717), index=9, metadata={op_name="jit(scan)/jit(main)/while[cond_nconsts=0 body_nconsts=72]" source_file="/fs04/fc37/adam/projects/psilocybin-prl-analyses/src/prl_hgf/fitting/hierarchical_patrl.py" source_line=378}
  get-tuple-element.1728 = f64[48]{0} get-tuple-element(while.1717), index=10, metadata={op_name="jit(scan)/jit(main)/while[cond_nconsts=0 body_nconsts=72]" source_file="/fs04/fc37/adam/projects/psilocybin-prl-analyses/src/prl_hgf/fitting/hierarchical_patrl.py" source_line=378}
  get-tuple-element.1729 = f64[48]{0} get-tuple-element(while.1717), index=11, metadata={op_name="jit(scan)/jit(main)/while[cond_nconsts=0 body_nconsts=72]" source_file="/fs04/fc37/adam/projects/psilocybin-prl-analyses/src/prl_hgf/fitting/hierarchical_patrl.py" source_line=378}
  get-tuple-element.1730 = f64[48]{0} get-tuple-element(while.1717), index=12, metadata={op_name="jit(scan)/jit(main)/while[cond_nconsts=0 body_nconsts=72]" source_file="/fs04/fc37/adam/projects/psilocybin-prl-analyses/src/prl_hgf/fitting/hierarchical_patrl.py" source_line=378}
  get-tuple-element.1731 = f64[48]{0} get-tuple-element(while.1717), index=13, metadata={op_name="jit(scan)/jit(main)/while[cond_nconsts=0 body_nconsts=72]" source_file="/fs04/fc37/adam/projects/psilocybin-prl-analyses/src/prl_hgf/fitting/hierarchical_patrl.py" source_line=378}
  get-tuple-element.1732 = f64[48]{0} get-tuple-element(while.1717), index=14, metadata={op_name="jit(scan)/jit(main)/while[cond_nconsts=0 body_nconsts=72]" source_file="/fs04/fc37/adam/projects/psilocybin-prl-analyses/src/prl_hgf/fitting/hierarchical_patrl.py" source_line=378}
  get-tuple-element.1733 = f64[48]{0} get-tuple-element(while.1717), index=15, metadata={op_name="jit(scan)/jit(main)/while[cond_nconsts=0 body_nconsts=72]" source_file="/fs04/fc37/adam/projects/psilocybin-prl-analyses/src/prl_hgf/fitting/hierarchical_patrl.py" source_line=378}
  get-tuple-element.1734 = f64[48]{0} get-tuple-element(while.1717), index=16, metadata={op_name="jit(scan)/jit(main)/while[cond_nconsts=0 body_nconsts=72]" source_file="/fs04/fc37/adam/projects/psilocybin-prl-analyses/src/prl_hgf/fitting/hierarchical_patrl.py" source_line=378}
  get-tuple-element.1735 = f64[48]{0} get-tuple-element(while.1717), index=17, metadata={op_name="jit(scan)/jit(main)/while[cond_nconsts=0 body_nconsts=72]" source_file="/fs04/fc37/adam/projects/psilocybin-prl-analyses/src/prl_hgf/fitting/hierarchical_patrl.py" source_line=378}
  get-tuple-element.1736 = f64[48]{0} get-tuple-element(while.1717), index=18, metadata={op_name="jit(scan)/jit(main)/while[cond_nconsts=0 body_nconsts=72]" source_file="/fs04/fc37/adam/projects/psilocybin-prl-analyses/src/prl_hgf/fitting/hierarchical_patrl.py" source_line=378}
  get-tuple-element.1737 = f64[48]{0} get-tuple-element(while.1717), index=19, metadata={op_name="jit(scan)/jit(main)/while[cond_nconsts=0 body_nconsts=72]" source_file="/fs04/fc37/adam/projects/psilocybin-prl-analyses/src/prl_hgf/fitting/hierarchical_patrl.py" source_line=378}
  get-tuple-element.1738 = f64[48]{0} get-tuple-element(while.1717), index=20, metadata={op_name="jit(scan)/jit(main)/while[cond_nconsts=0 body_nconsts=72]" source_file="/fs04/fc37/adam/projects/psilocybin-prl-analyses/src/prl_hgf/fitting/hierarchical_patrl.py" source_line=378}
  get-tuple-element.1739 = f64[48,1]{1,0} get-tuple-element(while.1717), index=21, metadata={op_name="jit(scan)/jit(main)/while[cond_nconsts=0 body_nconsts=72]" source_file="/fs04/fc37/adam/projects/psilocybin-prl-analyses/src/prl_hgf/fitting/hierarchical_patrl.py" source_line=378}
  ROOT tuple.1812 = (f64[48]{0}, f64[48]{0}, f64[48]{0}, f64[48]{0}, f64[48]{0}, /*index=5*/f64[48]{0}, f64[48]{0}, f64[48]{0}, f64[48]{0}, f64[48]{0}, /*index=10*/f64[48]{0}, f64[48]{0}, f64[48]{0}, f64[48]{0}, f64[48]{0}, /*index=15*/f64[48]{0}, f64[48]{0}, f64[48]{0}, f64[48]{0}, f64[48]{0}, /*index=20*/f64[48,1]{1,0}) tuple(get-tuple-element.1719, get-tuple-element.1720, get-tuple-element.1721, get-tuple-element.1722, get-tuple-element.1723, /*index=5*/get-tuple-element.1724, get-tuple-element.1725, get-tuple-element.1726, get-tuple-element.1727, get-tuple-element.1728, /*index=10*/get-tuple-element.1729, get-tuple-element.1730, get-tuple-element.1731, get-tuple-element.1732, get-tuple-element.1733, /*index=15*/get-tuple-element.1734, get-tuple-element.1735, get-tuple-element.1736, get-tuple-element.1737, get-tuple-element.1738, /*index=20*/get-tuple-element.1739)
} // main.1813

