HloModule jit_multiply, entry_computation_layout={(f64[20]{0}, f64[20,192]{1,0}, f64[120,20]{1,0}, f64[120,20,192]{2,1,0})->(f64[20,192]{1,0}, f64[20,1]{1,0}, f64[120,20,192]{2,1,0}, f64[120,20,1]{2,1,0})}, allow_spmd_sharding_propagation_to_parameters={true,true,true,true}, allow_spmd_sharding_propagation_to_output={true,true,true,true}

ENTRY main.26 {
  Arg_0.1 = f64[20]{0} parameter(0)
  reshape.5 = f64[20,1]{1,0} reshape(Arg_0.1), metadata={op_name="jit(multiply)/jit(main)/broadcast_in_dim[shape=(20, 1) broadcast_dimensions=(0,)]" source_file="/fs04/fc37/adam/projects/psilocybin-prl-analyses/src/prl_hgf/models/response_patrl.py" source_line=154}
  broadcast.7 = f64[20,1]{1,0} broadcast(reshape.5), dimensions={0,1}, metadata={op_name="jit(multiply)/jit(main)/mul" source_file="/fs04/fc37/adam/projects/psilocybin-prl-analyses/src/prl_hgf/models/response_patrl.py" source_line=154}
  reshape.8 = f64[20]{0} reshape(broadcast.7), metadata={op_name="jit(multiply)/jit(main)/mul" source_file="/fs04/fc37/adam/projects/psilocybin-prl-analyses/src/prl_hgf/models/response_patrl.py" source_line=154}
  broadcast.9 = f64[20,192]{1,0} broadcast(reshape.8), dimensions={0}, metadata={op_name="jit(multiply)/jit(main)/mul" source_file="/fs04/fc37/adam/projects/psilocybin-prl-analyses/src/prl_hgf/models/response_patrl.py" source_line=154}
  Arg_1.2 = f64[20,192]{1,0} parameter(1)
  multiply.10 = f64[20,192]{1,0} multiply(broadcast.9, Arg_1.2), metadata={op_name="jit(multiply)/jit(main)/mul" source_file="/fs04/fc37/adam/projects/psilocybin-prl-analyses/src/prl_hgf/models/response_patrl.py" source_line=154}
  Arg_2.3 = f64[120,20]{1,0} parameter(2)
  reshape.6 = f64[120,20,1]{2,1,0} reshape(Arg_2.3), metadata={op_name="jit(multiply)/jit(main)/broadcast_in_dim[shape=(120, 20, 1) broadcast_dimensions=(0, np.int64(1))]" source_file="/fs04/fc37/adam/projects/psilocybin-prl-analyses/src/prl_hgf/models/response_patrl.py" source_line=154}
  broadcast.12 = f64[120,20,1]{2,1,0} broadcast(reshape.6), dimensions={0,1,2}, metadata={op_name="jit(multiply)/jit(main)/mul" source_file="/fs04/fc37/adam/projects/psilocybin-prl-analyses/src/prl_hgf/models/response_patrl.py" source_line=154}
  reshape.13 = f64[120,20]{1,0} reshape(broadcast.12), metadata={op_name="jit(multiply)/jit(main)/mul" source_file="/fs04/fc37/adam/projects/psilocybin-prl-analyses/src/prl_hgf/models/response_patrl.py" source_line=154}
  broadcast.14 = f64[120,20,192]{2,1,0} broadcast(reshape.13), dimensions={0,1}, metadata={op_name="jit(multiply)/jit(main)/mul" source_file="/fs04/fc37/adam/projects/psilocybin-prl-analyses/src/prl_hgf/models/response_patrl.py" source_line=154}
  reshape.11 = f64[1,20,192]{2,1,0} reshape(Arg_1.2), metadata={op_name="jit(multiply)/jit(main)/broadcast_in_dim[shape=(1, 20, 192) broadcast_dimensions=(np.int64(1), np.int64(2))]" source_file="/fs04/fc37/adam/projects/psilocybin-prl-analyses/src/prl_hgf/models/response_patrl.py" source_line=154}
  broadcast.15 = f64[1,20,192]{2,1,0} broadcast(reshape.11), dimensions={0,1,2}, metadata={op_name="jit(multiply)/jit(main)/mul" source_file="/fs04/fc37/adam/projects/psilocybin-prl-analyses/src/prl_hgf/models/response_patrl.py" source_line=154}
  reshape.16 = f64[20,192]{1,0} reshape(broadcast.15), metadata={op_name="jit(multiply)/jit(main)/mul" source_file="/fs04/fc37/adam/projects/psilocybin-prl-analyses/src/prl_hgf/models/response_patrl.py" source_line=154}
  broadcast.17 = f64[120,20,192]{2,1,0} broadcast(reshape.16), dimensions={1,2}, metadata={op_name="jit(multiply)/jit(main)/mul" source_file="/fs04/fc37/adam/projects/psilocybin-prl-analyses/src/prl_hgf/models/response_patrl.py" source_line=154}
  multiply.18 = f64[120,20,192]{2,1,0} multiply(broadcast.14, broadcast.17), metadata={op_name="jit(multiply)/jit(main)/mul" source_file="/fs04/fc37/adam/projects/psilocybin-prl-analyses/src/prl_hgf/models/response_patrl.py" source_line=154}
  reshape.19 = f64[1,20,1]{2,1,0} reshape(Arg_0.1), metadata={op_name="jit(multiply)/jit(main)/broadcast_in_dim[shape=(1, 20, 1) broadcast_dimensions=(np.int64(1), np.int64(2))]" source_file="/fs04/fc37/adam/projects/psilocybin-prl-analyses/src/prl_hgf/models/response_patrl.py" source_line=154}
  broadcast.20 = f64[1,20,1]{2,1,0} broadcast(reshape.19), dimensions={0,1,2}, metadata={op_name="jit(multiply)/jit(main)/mul" source_file="/fs04/fc37/adam/projects/psilocybin-prl-analyses/src/prl_hgf/models/response_patrl.py" source_line=154}
  reshape.21 = f64[20]{0} reshape(broadcast.20), metadata={op_name="jit(multiply)/jit(main)/mul" source_file="/fs04/fc37/adam/projects/psilocybin-prl-analyses/src/prl_hgf/models/response_patrl.py" source_line=154}
  broadcast.22 = f64[120,20,192]{2,1,0} broadcast(reshape.21), dimensions={1}, metadata={op_name="jit(multiply)/jit(main)/mul" source_file="/fs04/fc37/adam/projects/psilocybin-prl-analyses/src/prl_hgf/models/response_patrl.py" source_line=154}
  Arg_3.4 = f64[120,20,192]{2,1,0} parameter(3)
  multiply.23 = f64[120,20,192]{2,1,0} multiply(broadcast.22, Arg_3.4), metadata={op_name="jit(multiply)/jit(main)/mul" source_file="/fs04/fc37/adam/projects/psilocybin-prl-analyses/src/prl_hgf/models/response_patrl.py" source_line=154}
  add.24 = f64[120,20,192]{2,1,0} add(multiply.18, multiply.23), metadata={op_name="jit(multiply)/jit(main)/add_any" source_file="/fs04/fc37/adam/projects/psilocybin-prl-analyses/src/prl_hgf/models/response_patrl.py" source_line=154}
  ROOT tuple.25 = (f64[20,192]{1,0}, f64[20,1]{1,0}, f64[120,20,192]{2,1,0}, f64[120,20,1]{2,1,0}) tuple(multiply.10, reshape.5, add.24, reshape.6)
} // main.26

