HloModule jit_scan, entry_computation_layout={(f64[20]{0}, f64[20]{0}, f64[20]{0}, f64[20]{0}, f64[20]{0}, /*index=5*/f64[20]{0}, f64[20]{0}, s32[20]{0}, f64[20]{0}, f64[20]{0}, /*index=10*/f64[20,1]{1,0}, f64[20]{0}, f64[20]{0}, f64[20]{0}, f64[20]{0}, /*index=15*/s64[20]{0}, f64[20]{0}, f64[20]{0}, f64[20]{0}, f64[20]{0}, /*index=20*/f64[20]{0}, f64[20]{0}, f64[20]{0}, f64[20,1]{1,0}, f64[20,1]{1,0}, /*index=25*/f64[20]{0}, f64[20]{0}, f64[20]{0}, f64[20]{0}, s64[20]{0}, /*index=30*/f64[20]{0}, f64[20]{0}, f64[20]{0}, f64[20]{0}, f64[20]{0}, /*index=35*/f64[20]{0}, f64[20]{0}, f64[20,1]{1,0}, f64[120,20]{1,0}, f64[120,20]{1,0}, /*index=40*/f64[120,20]{1,0}, f64[120,20]{1,0}, f64[120,20]{1,0}, f64[120,20]{1,0}, f64[120,20]{1,0}, /*index=45*/f64[120,20]{1,0}, f64[120,20]{1,0}, f64[120,20]{1,0}, f64[120,20]{1,0}, f64[120,20]{1,0}, /*index=50*/f64[120,20]{1,0}, f64[120,20]{1,0}, f64[120,20]{1,0}, f64[120,20]{1,0}, f64[120,20]{1,0}, /*index=55*/f64[120,20]{1,0}, f64[120,20]{1,0}, f64[120,20]{1,0}, f64[120,20,1]{2,1,0}, f64[192,20,1]{2,1,0}, /*index=60*/s32[192]{0}, f64[192]{0})->(f64[20]{0}, f64[20]{0}, f64[20]{0}, f64[20]{0}, s32[20]{0}, /*index=5*/f64[20]{0}, f64[20]{0}, f64[20,1]{1,0}, f64[20]{0}, f64[20]{0}, /*index=10*/f64[20]{0}, f64[20]{0}, s64[20]{0}, f64[20]{0}, f64[20]{0}, /*index=15*/f64[20]{0}, f64[20]{0}, f64[20]{0}, f64[20]{0}, f64[20]{0}, /*index=20*/f64[20,1]{1,0}, f64[20,1]{1,0}, f64[20]{0}, f64[20]{0}, f64[20]{0}, /*index=25*/f64[20]{0}, s64[20]{0}, f64[20]{0}, f64[20]{0}, f64[20]{0}, /*index=30*/f64[20]{0}, f64[20]{0}, f64[20]{0}, f64[20]{0}, f64[20,1]{1,0}, /*index=35*/f64[120,20]{1,0}, f64[120,20]{1,0}, f64[120,20]{1,0}, f64[120,20]{1,0}, f64[120,20]{1,0}, /*index=40*/f64[120,20]{1,0}, f64[120,20]{1,0}, f64[120,20]{1,0}, f64[120,20]{1,0}, f64[120,20]{1,0}, /*index=45*/f64[120,20]{1,0}, f64[120,20]{1,0}, f64[120,20]{1,0}, f64[120,20]{1,0}, f64[120,20]{1,0}, /*index=50*/f64[120,20]{1,0}, f64[120,20]{1,0}, f64[120,20]{1,0}, f64[120,20]{1,0}, f64[120,20]{1,0}, /*index=55*/f64[120,20,1]{2,1,0}, f64[192,20]{1,0}, f64[192,20]{1,0}, f64[192,20]{1,0}, f64[192,20]{1,0}, /*index=60*/pred[192,20]{1,0}, f64[192,20]{1,0}, f64[192,20]{1,0}, f64[192,20]{1,0}, f64[192,20]{1,0}, /*index=65*/f64[192,20]{1,0}, f64[192,20]{1,0}, f64[192,20]{1,0}, f64[192,20]{1,0}, pred[192,20]{1,0}, /*index=70*/f64[192,20]{1,0}, f64[192,20]{1,0}, f64[192,20]{1,0}, f64[192,20]{1,0}, f64[192,20]{1,0}, /*index=75*/f64[192,20]{1,0}, f64[192,20]{1,0}, f64[192]{0}, f64[192,20]{1,0}, f64[192,20]{1,0}, /*index=80*/f64[192,20]{1,0}, s32[192]{0}, f64[192,20]{1,0}, f64[192]{0}, f64[192,20]{1,0}, /*index=85*/f64[192,20]{1,0}, f64[192,20]{1,0}, pred[192,20]{1,0}, f64[192,20]{1,0}, f64[192,20]{1,0}, /*index=90*/f64[192,20]{1,0}, f64[192,20]{1,0}, f64[192,20]{1,0}, f64[192,20]{1,0}, f64[192]{0}, /*index=95*/f64[192,20]{1,0}, f64[192,20]{1,0}, f64[192,20]{1,0}, f64[192,20]{1,0}, f64[192,20]{1,0}, /*index=100*/f64[192,20]{1,0}, f64[192,20]{1,0}, f64[192,20]{1,0}, f64[192,20]{1,0}, f64[192,20]{1,0}, /*index=105*/f64[192,20]{1,0}, s32[192,20]{1,0}, pred[192,20]{1,0}, pred[192,20,1]{2,1,0}, f64[192,20]{1,0}, /*index=110*/f64[192,20]{1,0}, f64[192,20]{1,0}, f64[192,20]{1,0}, pred[192,20]{1,0}, pred[192,20,1]{2,1,0}, /*index=115*/f64[192,20]{1,0}, f64[192,20]{1,0}, f64[192,20]{1,0}, f64[192,20]{1,0}, f64[192,20]{1,0}, /*index=120*/f64[192,20]{1,0}, f64[192,20]{1,0}, f64[192,20]{1,0}, f64[192,20]{1,0}, f64[192,20]{1,0}, /*index=125*/pred[192,20]{1,0}, pred[192,20]{1,0}, pred[192,20,1]{2,1,0}, f64[192,120,20]{2,1,0}, f64[192,120,20]{2,1,0}, /*index=130*/f64[192,120,20]{2,1,0}, f64[192,120,20]{2,1,0}, f64[192,120,20]{2,1,0}, f64[192,120,20]{2,1,0}, f64[192,120,20]{2,1,0}, /*index=135*/f64[192,120,20]{2,1,0}, f64[192,120,20]{2,1,0}, f64[192,120,20]{2,1,0}, f64[192,120,20]{2,1,0}, f64[192,120,20]{2,1,0}, /*index=140*/f64[192,120,20]{2,1,0}, f64[192,120,20]{2,1,0}, f64[192,120,20]{2,1,0}, f64[192,120,20]{2,1,0}, f64[192,120,20]{2,1,0}, /*index=145*/f64[192,120,20]{2,1,0}, f64[192,120,20]{2,1,0}, f64[192,120,20]{2,1,0}, f64[192,120,20]{2,1,0}, f64[192,120,20]{2,1,0}, /*index=150*/f64[192,120,20]{2,1,0}, f64[192,120,20]{2,1,0}, f64[192,120,20]{2,1,0}, f64[192,120,20]{2,1,0}, f64[192,120,20]{2,1,0}, /*index=155*/f64[192,120,20]{2,1,0}, f64[192,120,20]{2,1,0}, f64[192,120,20]{2,1,0}, f64[192,120,20]{2,1,0}, f64[192,120,20]{2,1,0}, /*index=160*/f64[192,120,20]{2,1,0}, f64[192,120,20]{2,1,0}, f64[192,120,20]{2,1,0}, f64[192,120,20]{2,1,0}, f64[192,120,20]{2,1,0}, /*index=165*/f64[192,120,20]{2,1,0}, f64[192,120,20]{2,1,0}, f64[192,120,20]{2,1,0}, f64[192,120,20]{2,1,0}, f64[192,120,20]{2,1,0}, /*index=170*/f64[192,120,20]{2,1,0}, f64[192,120,20]{2,1,0}, f64[192,120,20]{2,1,0}, f64[192,120,20]{2,1,0}, f64[192,120,20]{2,1,0}, /*index=175*/f64[192,120,20]{2,1,0}, f64[192,120,20]{2,1,0})}, allow_spmd_sharding_propagation_to_parameters={true,true,true,true,true,true,true,true,true,true,true,true,true,true,true,true,true,true,true,true,true,true,true,true,true,true,true,true,true,true,true,true,true,true,true,true,true,true,true,true,true,true,true,true,true,true,true,true,true,true,true,true,true,true,true,true,true,true,true,true,true,true}, allow_spmd_sharding_propagation_to_output={true,true,true,true,true,true,true,true,true,true,true,true,true,true,true,true,true,true,true,true,true,true,true,true,true,true,true,true,true,true,true,true,true,true,true,true,true,true,true,true,true,true,true,true,true,true,true,true,true,true,true,true,true,true,true,true,true,true,true,true,true,true,true,true,true,true,true,true,true,true,true,true,true,true,true,true,true,true,true,true,true,true,true,true,true,true,true,true,true,true,true,true,true,true,true,true,true,true,true,true,true,true,true,true,true,true,true,true,true,true,true,true,true,true,true,true,true,true,true,true,true,true,true,true,true,true,true,true,true,true,true,true,true,true,true,true,true,true,true,true,true,true,true,true,true,true,true,true,true,true,true,true,true,true,true,true,true,true,true,true,true,true,true,true,true,true,true,true,true,true,true,true,true,true,true,true,true}

integer_pow.79 {
  constant.81 = f64[] constant(1)
  broadcast.82 = f64[20]{0} broadcast(constant.81), dimensions={}
  Arg_0.80 = f64[20]{0} parameter(0), metadata={op_name="jit(scan)/jit(main)/while/body/jit(beliefs_propagation)/jit(continuous_node_prediction)/integer_pow[y=-2]"}
  multiply.83 = f64[20]{0} multiply(Arg_0.80, Arg_0.80), metadata={op_name="jit(scan)/jit(main)/while/body/jit(beliefs_propagation)/jit(continuous_node_prediction)/mul" source_file="/fs04/fc37/adam/projects/psilocybin-prl-analyses/src/prl_hgf/fitting/hierarchical_patrl.py" source_line=362}
  ROOT divide.84 = f64[20]{0} divide(broadcast.82, multiply.83), metadata={op_name="jit(scan)/jit(main)/while/body/jit(beliefs_propagation)/jit(continuous_node_prediction)/div" source_file="/fs04/fc37/adam/projects/psilocybin-prl-analyses/src/prl_hgf/fitting/hierarchical_patrl.py" source_line=362}
}

predict_mean.85 {
  Arg_1.87 = f64[20]{0} parameter(1), metadata={op_name="jit(scan)/jit(main)/while/body/jit(beliefs_propagation)/jit(continuous_node_prediction)/pjit[in_shardings=(UnspecifiedValue, UnspecifiedValue, UnspecifiedValue, UnspecifiedValue, UnspecifiedValue) out_shardings=(UnspecifiedValue, UnspecifiedValue, UnspecifiedValue) in_layouts=(None, None, None, None, None) out_layouts=(None, None, None) resource_env=None donated_invars=(False, False, False, False, False) name=predict_mean keep_unused=False inline=False]"}
  Arg_2.88 = f64[20]{0} parameter(2), metadata={op_name="jit(scan)/jit(main)/while/body/jit(beliefs_propagation)/jit(continuous_node_prediction)/pjit[in_shardings=(UnspecifiedValue, UnspecifiedValue, UnspecifiedValue, UnspecifiedValue, UnspecifiedValue) out_shardings=(UnspecifiedValue, UnspecifiedValue, UnspecifiedValue) in_layouts=(None, None, None, None, None) out_layouts=(None, None, None) resource_env=None donated_invars=(False, False, False, False, False) name=predict_mean keep_unused=False inline=False]"}
  multiply.91 = f64[20]{0} multiply(Arg_1.87, Arg_2.88), metadata={op_name="jit(scan)/jit(main)/while/body/jit(beliefs_propagation)/jit(continuous_node_prediction)/jit(predict_mean)/mul" source_file="/fs04/fc37/adam/projects/psilocybin-prl-analyses/src/prl_hgf/fitting/hierarchical_patrl.py" source_line=362}
  Arg_0.86 = f64[] parameter(0), metadata={op_name="jit(scan)/jit(main)/while/body/jit(beliefs_propagation)/jit(continuous_node_prediction)/pjit[in_shardings=(UnspecifiedValue, UnspecifiedValue, UnspecifiedValue, UnspecifiedValue, UnspecifiedValue) out_shardings=(UnspecifiedValue, UnspecifiedValue, UnspecifiedValue) in_layouts=(None, None, None, None, None) out_layouts=(None, None, None) resource_env=None donated_invars=(False, False, False, False, False) name=predict_mean keep_unused=False inline=False]"}
  broadcast.97 = f64[20]{0} broadcast(Arg_0.86), dimensions={}, metadata={op_name="jit(scan)/jit(main)/while/body/jit(beliefs_propagation)/jit(continuous_node_prediction)/jit(predict_mean)/mul" source_file="/fs04/fc37/adam/projects/psilocybin-prl-analyses/src/prl_hgf/fitting/hierarchical_patrl.py" source_line=362}
  Arg_3.89 = f64[20]{0} parameter(3), metadata={op_name="jit(scan)/jit(main)/while/body/jit(beliefs_propagation)/jit(continuous_node_prediction)/pjit[in_shardings=(UnspecifiedValue, UnspecifiedValue, UnspecifiedValue, UnspecifiedValue, UnspecifiedValue) out_shardings=(UnspecifiedValue, UnspecifiedValue, UnspecifiedValue) in_layouts=(None, None, None, None, None) out_layouts=(None, None, None) resource_env=None donated_invars=(False, False, False, False, False) name=predict_mean keep_unused=False inline=False]"}
  multiply.98 = f64[20]{0} multiply(broadcast.97, Arg_3.89), metadata={op_name="jit(scan)/jit(main)/while/body/jit(beliefs_propagation)/jit(continuous_node_prediction)/jit(predict_mean)/mul" source_file="/fs04/fc37/adam/projects/psilocybin-prl-analyses/src/prl_hgf/fitting/hierarchical_patrl.py" source_line=362}
  add.99 = f64[20]{0} add(multiply.91, multiply.98), metadata={op_name="jit(scan)/jit(main)/while/body/jit(beliefs_propagation)/jit(continuous_node_prediction)/jit(predict_mean)/add" source_file="/fs04/fc37/adam/projects/psilocybin-prl-analyses/src/prl_hgf/fitting/hierarchical_patrl.py" source_line=362}
  reshape.92 = f64[1,20]{1,0} reshape(Arg_1.87), metadata={op_name="jit(scan)/jit(main)/while/body/jit(beliefs_propagation)/jit(continuous_node_prediction)/jit(predict_mean)/broadcast_in_dim[shape=(1, 20) broadcast_dimensions=(np.int64(1),)]" source_file="/fs04/fc37/adam/projects/psilocybin-prl-analyses/src/prl_hgf/fitting/hierarchical_patrl.py" source_line=362}
  broadcast.93 = f64[1,20]{1,0} broadcast(reshape.92), dimensions={0,1}, metadata={op_name="jit(scan)/jit(main)/while/body/jit(beliefs_propagation)/jit(continuous_node_prediction)/jit(predict_mean)/mul" source_file="/fs04/fc37/adam/projects/psilocybin-prl-analyses/src/prl_hgf/fitting/hierarchical_patrl.py" source_line=362}
  reshape.94 = f64[20]{0} reshape(broadcast.93), metadata={op_name="jit(scan)/jit(main)/while/body/jit(beliefs_propagation)/jit(continuous_node_prediction)/jit(predict_mean)/mul" source_file="/fs04/fc37/adam/projects/psilocybin-prl-analyses/src/prl_hgf/fitting/hierarchical_patrl.py" source_line=362}
  broadcast.95 = f64[120,20]{1,0} broadcast(reshape.94), dimensions={1}, metadata={op_name="jit(scan)/jit(main)/while/body/jit(beliefs_propagation)/jit(continuous_node_prediction)/jit(predict_mean)/mul" source_file="/fs04/fc37/adam/projects/psilocybin-prl-analyses/src/prl_hgf/fitting/hierarchical_patrl.py" source_line=362}
  Arg_4.90 = f64[120,20]{1,0} parameter(4), metadata={op_name="jit(scan)/jit(main)/while/body/jit(beliefs_propagation)/jit(continuous_node_prediction)/pjit[in_shardings=(UnspecifiedValue, UnspecifiedValue, UnspecifiedValue, UnspecifiedValue, UnspecifiedValue) out_shardings=(UnspecifiedValue, UnspecifiedValue, UnspecifiedValue) in_layouts=(None, None, None, None, None) out_layouts=(None, None, None) resource_env=None donated_invars=(False, False, False, False, False) name=predict_mean keep_unused=False inline=False]"}
  multiply.96 = f64[120,20]{1,0} multiply(broadcast.95, Arg_4.90), metadata={op_name="jit(scan)/jit(main)/while/body/jit(beliefs_propagation)/jit(continuous_node_prediction)/jit(predict_mean)/mul" source_file="/fs04/fc37/adam/projects/psilocybin-prl-analyses/src/prl_hgf/fitting/hierarchical_patrl.py" source_line=362}
  ROOT tuple.100 = (f64[20]{0}, f64[20]{0}, f64[120,20]{1,0}) tuple(add.99, Arg_1.87, multiply.96)
} // predict_mean.85

integer_pow_0.101 {
  constant.103 = f64[] constant(1)
  broadcast.104 = f64[20]{0} broadcast(constant.103), dimensions={}
  Arg_0.102 = f64[20]{0} parameter(0), metadata={op_name="jit(scan)/jit(main)/while/body/jit(beliefs_propagation)/jit(continuous_node_prediction)/jit(predict_precision)/integer_pow[y=-2]"}
  multiply.105 = f64[20]{0} multiply(Arg_0.102, Arg_0.102), metadata={op_name="jit(scan)/jit(main)/while/body/jit(beliefs_propagation)/jit(continuous_node_prediction)/jit(predict_precision)/mul" source_file="/fs04/fc37/adam/projects/psilocybin-prl-analyses/src/prl_hgf/fitting/hierarchical_patrl.py" source_line=362}
  ROOT divide.106 = f64[20]{0} divide(broadcast.104, multiply.105), metadata={op_name="jit(scan)/jit(main)/while/body/jit(beliefs_propagation)/jit(continuous_node_prediction)/jit(predict_precision)/div" source_file="/fs04/fc37/adam/projects/psilocybin-prl-analyses/src/prl_hgf/fitting/hierarchical_patrl.py" source_line=362}
}

_where.107 {
  Arg_0.108 = pred[20]{0} parameter(0), metadata={op_name="jit(scan)/jit(main)/while/body/jit(beliefs_propagation)/jit(continuous_node_prediction)/jit(predict_precision)/pjit[in_shardings=(UnspecifiedValue, UnspecifiedValue, UnspecifiedValue, UnspecifiedValue) out_shardings=(UnspecifiedValue, UnspecifiedValue) in_layouts=(None, None, None, None) out_layouts=(None, None) resource_env=None donated_invars=(False, False, False, False) name=_where keep_unused=False inline=False]"}
  Arg_1.109 = f64[20]{0} parameter(1), metadata={op_name="jit(scan)/jit(main)/while/body/jit(beliefs_propagation)/jit(continuous_node_prediction)/jit(predict_precision)/pjit[in_shardings=(UnspecifiedValue, UnspecifiedValue, UnspecifiedValue, UnspecifiedValue) out_shardings=(UnspecifiedValue, UnspecifiedValue) in_layouts=(None, None, None, None) out_layouts=(None, None) resource_env=None donated_invars=(False, False, False, False) name=_where keep_unused=False inline=False]"}
  Arg_2.110 = f64[20]{0} parameter(2), metadata={op_name="jit(scan)/jit(main)/while/body/jit(beliefs_propagation)/jit(continuous_node_prediction)/jit(predict_precision)/pjit[in_shardings=(UnspecifiedValue, UnspecifiedValue, UnspecifiedValue, UnspecifiedValue) out_shardings=(UnspecifiedValue, UnspecifiedValue) in_layouts=(None, None, None, None) out_layouts=(None, None) resource_env=None donated_invars=(False, False, False, False) name=_where keep_unused=False inline=False]"}
  select.114 = f64[20]{0} select(Arg_0.108, Arg_1.109, Arg_2.110), metadata={op_name="jit(scan)/jit(main)/while/body/jit(beliefs_propagation)/jit(continuous_node_prediction)/jit(predict_precision)/jit(_where)/select_n" source_file="/fs04/fc37/adam/projects/psilocybin-prl-analyses/src/prl_hgf/env/pat_rl_simulator.py" source_line=92}
  broadcast.115 = pred[120,20]{1,0} broadcast(Arg_0.108), dimensions={1}, metadata={op_name="jit(scan)/jit(main)/while/body/jit(beliefs_propagation)/jit(continuous_node_prediction)/jit(predict_precision)/jit(_where)/broadcast_in_dim[shape=(120, 20) broadcast_dimensions=(np.int64(1),)]" source_file="/fs04/fc37/adam/projects/psilocybin-prl-analyses/src/prl_hgf/env/pat_rl_simulator.py" source_line=92}
  Arg_3.111 = f64[120,20]{1,0} parameter(3), metadata={op_name="jit(scan)/jit(main)/while/body/jit(beliefs_propagation)/jit(continuous_node_prediction)/jit(predict_precision)/pjit[in_shardings=(UnspecifiedValue, UnspecifiedValue, UnspecifiedValue, UnspecifiedValue) out_shardings=(UnspecifiedValue, UnspecifiedValue) in_layouts=(None, None, None, None) out_layouts=(None, None) resource_env=None donated_invars=(False, False, False, False) name=_where keep_unused=False inline=False]"}
  constant.112 = f64[] constant(0)
  broadcast.113 = f64[120,20]{1,0} broadcast(constant.112), dimensions={}
  select.116 = f64[120,20]{1,0} select(broadcast.115, Arg_3.111, broadcast.113), metadata={op_name="jit(scan)/jit(main)/while/body/jit(beliefs_propagation)/jit(continuous_node_prediction)/jit(predict_precision)/jit(_where)/select_n" source_file="/fs04/fc37/adam/projects/psilocybin-prl-analyses/src/prl_hgf/env/pat_rl_simulator.py" source_line=92}
  ROOT tuple.117 = (f64[20]{0}, f64[120,20]{1,0}) tuple(select.114, select.116)
} // _where.107

integer_pow_1.118 {
  constant.120 = f64[] constant(1)
  broadcast.121 = f64[20]{0} broadcast(constant.120), dimensions={}
  Arg_0.119 = f64[20]{0} parameter(0), metadata={op_name="jit(scan)/jit(main)/while/body/jit(beliefs_propagation)/jit(continuous_node_prediction)/jit(predict_precision)/integer_pow[y=-2]"}
  multiply.122 = f64[20]{0} multiply(Arg_0.119, Arg_0.119), metadata={op_name="jit(scan)/jit(main)/while/body/jit(beliefs_propagation)/jit(continuous_node_prediction)/jit(predict_precision)/mul" source_file="/fs04/fc37/adam/projects/psilocybin-prl-analyses/src/prl_hgf/fitting/hierarchical_patrl.py" source_line=362}
  ROOT divide.123 = f64[20]{0} divide(broadcast.121, multiply.122), metadata={op_name="jit(scan)/jit(main)/while/body/jit(beliefs_propagation)/jit(continuous_node_prediction)/jit(predict_precision)/div" source_file="/fs04/fc37/adam/projects/psilocybin-prl-analyses/src/prl_hgf/fitting/hierarchical_patrl.py" source_line=362}
}

integer_pow_2.124 {
  constant.126 = f64[] constant(1)
  broadcast.127 = f64[20]{0} broadcast(constant.126), dimensions={}
  Arg_0.125 = f64[20]{0} parameter(0), metadata={op_name="jit(scan)/jit(main)/while/body/jit(beliefs_propagation)/jit(continuous_node_prediction)/jit(predict_precision)/integer_pow[y=-2]"}
  multiply.128 = f64[20]{0} multiply(Arg_0.125, Arg_0.125), metadata={op_name="jit(scan)/jit(main)/while/body/jit(beliefs_propagation)/jit(continuous_node_prediction)/jit(predict_precision)/mul" source_file="/fs04/fc37/adam/projects/psilocybin-prl-analyses/src/prl_hgf/fitting/hierarchical_patrl.py" source_line=362}
  ROOT divide.129 = f64[20]{0} divide(broadcast.127, multiply.128), metadata={op_name="jit(scan)/jit(main)/while/body/jit(beliefs_propagation)/jit(continuous_node_prediction)/jit(predict_precision)/div" source_file="/fs04/fc37/adam/projects/psilocybin-prl-analyses/src/prl_hgf/fitting/hierarchical_patrl.py" source_line=362}
}

integer_pow_3.130 {
  constant.132 = f64[] constant(1)
  broadcast.133 = f64[20]{0} broadcast(constant.132), dimensions={}
  Arg_0.131 = f64[20]{0} parameter(0), metadata={op_name="jit(scan)/jit(main)/while/body/jit(beliefs_propagation)/jit(continuous_node_prediction)/jit(predict_precision)/integer_pow[y=-3]"}
  multiply.134 = f64[20]{0} multiply(Arg_0.131, Arg_0.131), metadata={op_name="jit(scan)/jit(main)/while/body/jit(beliefs_propagation)/jit(continuous_node_prediction)/jit(predict_precision)/mul" source_file="/fs04/fc37/adam/projects/psilocybin-prl-analyses/src/prl_hgf/fitting/hierarchical_patrl.py" source_line=362}
  multiply.135 = f64[20]{0} multiply(Arg_0.131, multiply.134), metadata={op_name="jit(scan)/jit(main)/while/body/jit(beliefs_propagation)/jit(continuous_node_prediction)/jit(predict_precision)/mul" source_file="/fs04/fc37/adam/projects/psilocybin-prl-analyses/src/prl_hgf/fitting/hierarchical_patrl.py" source_line=362}
  ROOT divide.136 = f64[20]{0} divide(broadcast.133, multiply.135), metadata={op_name="jit(scan)/jit(main)/while/body/jit(beliefs_propagation)/jit(continuous_node_prediction)/jit(predict_precision)/div" source_file="/fs04/fc37/adam/projects/psilocybin-prl-analyses/src/prl_hgf/fitting/hierarchical_patrl.py" source_line=362}
} // integer_pow_3.130

integer_pow_4.137 {
  constant.139 = f64[] constant(1)
  broadcast.140 = f64[20]{0} broadcast(constant.139), dimensions={}
  Arg_0.138 = f64[20]{0} parameter(0), metadata={op_name="jit(scan)/jit(main)/while/body/jit(beliefs_propagation)/jit(continuous_node_prediction)/jit(predict_precision)/integer_pow[y=-2]"}
  multiply.141 = f64[20]{0} multiply(Arg_0.138, Arg_0.138), metadata={op_name="jit(scan)/jit(main)/while/body/jit(beliefs_propagation)/jit(continuous_node_prediction)/jit(predict_precision)/mul" source_file="/fs04/fc37/adam/projects/psilocybin-prl-analyses/src/prl_hgf/fitting/hierarchical_patrl.py" source_line=362}
  ROOT divide.142 = f64[20]{0} divide(broadcast.140, multiply.141), metadata={op_name="jit(scan)/jit(main)/while/body/jit(beliefs_propagation)/jit(continuous_node_prediction)/jit(predict_precision)/div" source_file="/fs04/fc37/adam/projects/psilocybin-prl-analyses/src/prl_hgf/fitting/hierarchical_patrl.py" source_line=362}
}

integer_pow_5.143 {
  constant.145 = f64[] constant(1)
  broadcast.146 = f64[20]{0} broadcast(constant.145), dimensions={}
  Arg_0.144 = f64[20]{0} parameter(0), metadata={op_name="jit(scan)/jit(main)/while/body/jit(beliefs_propagation)/jit(continuous_node_prediction)/jit(predict_precision)/integer_pow[y=-3]"}
  multiply.147 = f64[20]{0} multiply(Arg_0.144, Arg_0.144), metadata={op_name="jit(scan)/jit(main)/while/body/jit(beliefs_propagation)/jit(continuous_node_prediction)/jit(predict_precision)/mul" source_file="/fs04/fc37/adam/projects/psilocybin-prl-analyses/src/prl_hgf/fitting/hierarchical_patrl.py" source_line=362}
  multiply.148 = f64[20]{0} multiply(Arg_0.144, multiply.147), metadata={op_name="jit(scan)/jit(main)/while/body/jit(beliefs_propagation)/jit(continuous_node_prediction)/jit(predict_precision)/mul" source_file="/fs04/fc37/adam/projects/psilocybin-prl-analyses/src/prl_hgf/fitting/hierarchical_patrl.py" source_line=362}
  ROOT divide.149 = f64[20]{0} divide(broadcast.146, multiply.148), metadata={op_name="jit(scan)/jit(main)/while/body/jit(beliefs_propagation)/jit(continuous_node_prediction)/jit(predict_precision)/div" source_file="/fs04/fc37/adam/projects/psilocybin-prl-analyses/src/prl_hgf/fitting/hierarchical_patrl.py" source_line=362}
} // integer_pow_5.143

predict_precision.150 {
  constant.161 = f64[] constant(1)
  broadcast.162 = f64[20]{0} broadcast(constant.161), dimensions={}
  Arg_1.152 = f64[20]{0} parameter(1), metadata={op_name="jit(scan)/jit(main)/while/body/jit(beliefs_propagation)/jit(continuous_node_prediction)/pjit[in_shardings=(UnspecifiedValue, UnspecifiedValue, UnspecifiedValue, UnspecifiedValue, UnspecifiedValue, UnspecifiedValue) out_shardings=(UnspecifiedValue, UnspecifiedValue, UnspecifiedValue, UnspecifiedValue, UnspecifiedValue, UnspecifiedValue, UnspecifiedValue, UnspecifiedValue, UnspecifiedValue, UnspecifiedValue, UnspecifiedValue, UnspecifiedValue, UnspecifiedValue) in_layouts=(None, None, None, None, None, None) out_layouts=(None, None, None, None, None, None, None, None, None, None, None, None, None) resource_env=None donated_invars=(False, False, False, False, False, False) name=predict_precision keep_unused=False inline=False]"}
  divide.163 = f64[20]{0} divide(broadcast.162, Arg_1.152), metadata={op_name="jit(scan)/jit(main)/while/body/jit(beliefs_propagation)/jit(continuous_node_prediction)/jit(predict_precision)/div" source_file="/fs04/fc37/adam/projects/psilocybin-prl-analyses/src/prl_hgf/fitting/hierarchical_patrl.py" source_line=362}
  Arg_0.151 = f64[] parameter(0), metadata={op_name="jit(scan)/jit(main)/while/body/jit(beliefs_propagation)/jit(continuous_node_prediction)/pjit[in_shardings=(UnspecifiedValue, UnspecifiedValue, UnspecifiedValue, UnspecifiedValue, UnspecifiedValue, UnspecifiedValue) out_shardings=(UnspecifiedValue, UnspecifiedValue, UnspecifiedValue, UnspecifiedValue, UnspecifiedValue, UnspecifiedValue, UnspecifiedValue, UnspecifiedValue, UnspecifiedValue, UnspecifiedValue, UnspecifiedValue, UnspecifiedValue, UnspecifiedValue) in_layouts=(None, None, None, None, None, None) out_layouts=(None, None, None, None, None, None, None, None, None, None, None, None, None) resource_env=None donated_invars=(False, False, False, False, False, False) name=predict_precision keep_unused=False inline=False]"}
  broadcast.177 = f64[20]{0} broadcast(Arg_0.151), dimensions={}, metadata={op_name="jit(scan)/jit(main)/while/body/jit(beliefs_propagation)/jit(continuous_node_prediction)/jit(predict_precision)/mul" source_file="/fs04/fc37/adam/projects/psilocybin-prl-analyses/src/prl_hgf/fitting/hierarchical_patrl.py" source_line=362}
  Arg_2.153 = f64[20]{0} parameter(2), metadata={op_name="jit(scan)/jit(main)/while/body/jit(beliefs_propagation)/jit(continuous_node_prediction)/pjit[in_shardings=(UnspecifiedValue, UnspecifiedValue, UnspecifiedValue, UnspecifiedValue, UnspecifiedValue, UnspecifiedValue) out_shardings=(UnspecifiedValue, UnspecifiedValue, UnspecifiedValue, UnspecifiedValue, UnspecifiedValue, UnspecifiedValue, UnspecifiedValue, UnspecifiedValue, UnspecifiedValue, UnspecifiedValue, UnspecifiedValue, UnspecifiedValue, UnspecifiedValue) in_layouts=(None, None, None, None, None, None) out_layouts=(None, None, None, None, None, None, None, None, None, None, None, None, None) resource_env=None donated_invars=(False, False, False, False, False, False) name=predict_precision keep_unused=False inline=False]"}
  exponential.171 = f64[20]{0} exponential(Arg_2.153), metadata={op_name="jit(scan)/jit(main)/while/body/jit(beliefs_propagation)/jit(continuous_node_prediction)/jit(predict_precision)/exp" source_file="/fs04/fc37/adam/projects/psilocybin-prl-analyses/src/prl_hgf/fitting/hierarchical_patrl.py" source_line=362}
  multiply.178 = f64[20]{0} multiply(broadcast.177, exponential.171), metadata={op_name="jit(scan)/jit(main)/while/body/jit(beliefs_propagation)/jit(continuous_node_prediction)/jit(predict_precision)/mul" source_file="/fs04/fc37/adam/projects/psilocybin-prl-analyses/src/prl_hgf/fitting/hierarchical_patrl.py" source_line=362}
  constant.159 = f64[] constant(1e-128)
  broadcast.160 = f64[20]{0} broadcast(constant.159), dimensions={}
  compare.181 = pred[20]{0} compare(multiply.178, broadcast.160), direction=GT, metadata={op_name="jit(scan)/jit(main)/while/body/jit(beliefs_propagation)/jit(continuous_node_prediction)/jit(predict_precision)/gt" source_file="/fs04/fc37/adam/projects/psilocybin-prl-analyses/src/prl_hgf/fitting/hierarchical_patrl.py" source_line=362}
  Arg_3.154 = f64[20]{0} parameter(3), metadata={op_name="jit(scan)/jit(main)/while/body/jit(beliefs_propagation)/jit(continuous_node_prediction)/pjit[in_shardings=(UnspecifiedValue, UnspecifiedValue, UnspecifiedValue, UnspecifiedValue, UnspecifiedValue, UnspecifiedValue) out_shardings=(UnspecifiedValue, UnspecifiedValue, UnspecifiedValue, UnspecifiedValue, UnspecifiedValue, UnspecifiedValue, UnspecifiedValue, UnspecifiedValue, UnspecifiedValue, UnspecifiedValue, UnspecifiedValue, UnspecifiedValue, UnspecifiedValue) in_layouts=(None, None, None, None, None, None) out_layouts=(None, None, None, None, None, None, None, None, None, None, None, None, None) resource_env=None donated_invars=(False, False, False, False, False, False) name=predict_precision keep_unused=False inline=False]"}
  broadcast.179 = f64[120,20]{1,0} broadcast(Arg_0.151), dimensions={}, metadata={op_name="jit(scan)/jit(main)/while/body/jit(beliefs_propagation)/jit(continuous_node_prediction)/jit(predict_precision)/mul" source_file="/fs04/fc37/adam/projects/psilocybin-prl-analyses/src/prl_hgf/fitting/hierarchical_patrl.py" source_line=362}
  Arg_5.156 = f64[120,20]{1,0} parameter(5), metadata={op_name="jit(scan)/jit(main)/while/body/jit(beliefs_propagation)/jit(continuous_node_prediction)/pjit[in_shardings=(UnspecifiedValue, UnspecifiedValue, UnspecifiedValue, UnspecifiedValue, UnspecifiedValue, UnspecifiedValue) out_shardings=(UnspecifiedValue, UnspecifiedValue, UnspecifiedValue, UnspecifiedValue, UnspecifiedValue, UnspecifiedValue, UnspecifiedValue, UnspecifiedValue, UnspecifiedValue, UnspecifiedValue, UnspecifiedValue, UnspecifiedValue, UnspecifiedValue) in_layouts=(None, None, None, None, None, None) out_layouts=(None, None, None, None, None, None, None, None, None, None, None, None, None) resource_env=None donated_invars=(False, False, False, False, False, False) name=predict_precision keep_unused=False inline=False]"}
  reshape.172 = f64[1,20]{1,0} reshape(exponential.171), metadata={op_name="jit(scan)/jit(main)/while/body/jit(beliefs_propagation)/jit(continuous_node_prediction)/jit(predict_precision)/broadcast_in_dim[shape=(1, 20) broadcast_dimensions=(np.int64(1),)]" source_file="/fs04/fc37/adam/projects/psilocybin-prl-analyses/src/prl_hgf/fitting/hierarchical_patrl.py" source_line=362}
  broadcast.173 = f64[1,20]{1,0} broadcast(reshape.172), dimensions={0,1}, metadata={op_name="jit(scan)/jit(main)/while/body/jit(beliefs_propagation)/jit(continuous_node_prediction)/jit(predict_precision)/mul" source_file="/fs04/fc37/adam/projects/psilocybin-prl-analyses/src/prl_hgf/fitting/hierarchical_patrl.py" source_line=362}
  reshape.174 = f64[20]{0} reshape(broadcast.173), metadata={op_name="jit(scan)/jit(main)/while/body/jit(beliefs_propagation)/jit(continuous_node_prediction)/jit(predict_precision)/mul" source_file="/fs04/fc37/adam/projects/psilocybin-prl-analyses/src/prl_hgf/fitting/hierarchical_patrl.py" source_line=362}
  broadcast.175 = f64[120,20]{1,0} broadcast(reshape.174), dimensions={1}, metadata={op_name="jit(scan)/jit(main)/while/body/jit(beliefs_propagation)/jit(continuous_node_prediction)/jit(predict_precision)/mul" source_file="/fs04/fc37/adam/projects/psilocybin-prl-analyses/src/prl_hgf/fitting/hierarchical_patrl.py" source_line=362}
  multiply.176 = f64[120,20]{1,0} multiply(Arg_5.156, broadcast.175), metadata={op_name="jit(scan)/jit(main)/while/body/jit(beliefs_propagation)/jit(continuous_node_prediction)/jit(predict_precision)/mul" source_file="/fs04/fc37/adam/projects/psilocybin-prl-analyses/src/prl_hgf/fitting/hierarchical_patrl.py" source_line=362}
  multiply.180 = f64[120,20]{1,0} multiply(broadcast.179, multiply.176), metadata={op_name="jit(scan)/jit(main)/while/body/jit(beliefs_propagation)/jit(continuous_node_prediction)/jit(predict_precision)/mul" source_file="/fs04/fc37/adam/projects/psilocybin-prl-analyses/src/prl_hgf/fitting/hierarchical_patrl.py" source_line=362}
  call.182 = (f64[20]{0}, f64[120,20]{1,0}) call(compare.181, multiply.178, Arg_3.154, multiply.180), to_apply=_where.107
  get-tuple-element.183 = f64[20]{0} get-tuple-element(call.182), index=0
  add.185 = f64[20]{0} add(divide.163, get-tuple-element.183), metadata={op_name="jit(scan)/jit(main)/while/body/jit(beliefs_propagation)/jit(continuous_node_prediction)/jit(predict_precision)/add" source_file="/fs04/fc37/adam/projects/psilocybin-prl-analyses/src/prl_hgf/fitting/hierarchical_patrl.py" source_line=362}
  divide.187 = f64[20]{0} divide(broadcast.162, add.185), metadata={op_name="jit(scan)/jit(main)/while/body/jit(beliefs_propagation)/jit(continuous_node_prediction)/jit(predict_precision)/div" source_file="/fs04/fc37/adam/projects/psilocybin-prl-analyses/src/prl_hgf/fitting/hierarchical_patrl.py" source_line=362}
  multiply.195 = f64[20]{0} multiply(get-tuple-element.183, divide.187), metadata={op_name="jit(scan)/jit(main)/while/body/jit(beliefs_propagation)/jit(continuous_node_prediction)/jit(predict_precision)/mul" source_file="/fs04/fc37/adam/projects/psilocybin-prl-analyses/src/prl_hgf/fitting/hierarchical_patrl.py" source_line=362}
  call.207 = f64[20]{0} call(Arg_1.152), to_apply=integer_pow_2.124
  call.215 = f64[20]{0} call(add.185), to_apply=integer_pow_4.137
  Arg_4.155 = f64[120,20]{1,0} parameter(4), metadata={op_name="jit(scan)/jit(main)/while/body/jit(beliefs_propagation)/jit(continuous_node_prediction)/pjit[in_shardings=(UnspecifiedValue, UnspecifiedValue, UnspecifiedValue, UnspecifiedValue, UnspecifiedValue, UnspecifiedValue) out_shardings=(UnspecifiedValue, UnspecifiedValue, UnspecifiedValue, UnspecifiedValue, UnspecifiedValue, UnspecifiedValue, UnspecifiedValue, UnspecifiedValue, UnspecifiedValue, UnspecifiedValue, UnspecifiedValue, UnspecifiedValue, UnspecifiedValue) in_layouts=(None, None, None, None, None, None) out_layouts=(None, None, None, None, None, None, None, None, None, None, None, None, None) resource_env=None donated_invars=(False, False, False, False, False, False) name=predict_precision keep_unused=False inline=False]"}
  negate.164 = f64[120,20]{1,0} negate(Arg_4.155), metadata={op_name="jit(scan)/jit(main)/while/body/jit(beliefs_propagation)/jit(continuous_node_prediction)/jit(predict_precision)/neg" source_file="/fs04/fc37/adam/projects/psilocybin-prl-analyses/src/prl_hgf/fitting/hierarchical_patrl.py" source_line=362}
  call.165 = f64[20]{0} call(Arg_1.152), to_apply=integer_pow_0.101
  reshape.166 = f64[1,20]{1,0} reshape(call.165), metadata={op_name="jit(scan)/jit(main)/while/body/jit(beliefs_propagation)/jit(continuous_node_prediction)/jit(predict_precision)/broadcast_in_dim[shape=(1, 20) broadcast_dimensions=(np.int64(1),)]" source_file="/fs04/fc37/adam/projects/psilocybin-prl-analyses/src/prl_hgf/fitting/hierarchical_patrl.py" source_line=362}
  broadcast.167 = f64[1,20]{1,0} broadcast(reshape.166), dimensions={0,1}, metadata={op_name="jit(scan)/jit(main)/while/body/jit(beliefs_propagation)/jit(continuous_node_prediction)/jit(predict_precision)/mul" source_file="/fs04/fc37/adam/projects/psilocybin-prl-analyses/src/prl_hgf/fitting/hierarchical_patrl.py" source_line=362}
  reshape.168 = f64[20]{0} reshape(broadcast.167), metadata={op_name="jit(scan)/jit(main)/while/body/jit(beliefs_propagation)/jit(continuous_node_prediction)/jit(predict_precision)/mul" source_file="/fs04/fc37/adam/projects/psilocybin-prl-analyses/src/prl_hgf/fitting/hierarchical_patrl.py" source_line=362}
  broadcast.169 = f64[120,20]{1,0} broadcast(reshape.168), dimensions={1}, metadata={op_name="jit(scan)/jit(main)/while/body/jit(beliefs_propagation)/jit(continuous_node_prediction)/jit(predict_precision)/mul" source_file="/fs04/fc37/adam/projects/psilocybin-prl-analyses/src/prl_hgf/fitting/hierarchical_patrl.py" source_line=362}
  multiply.170 = f64[120,20]{1,0} multiply(negate.164, broadcast.169), metadata={op_name="jit(scan)/jit(main)/while/body/jit(beliefs_propagation)/jit(continuous_node_prediction)/jit(predict_precision)/mul" source_file="/fs04/fc37/adam/projects/psilocybin-prl-analyses/src/prl_hgf/fitting/hierarchical_patrl.py" source_line=362}
  get-tuple-element.184 = f64[120,20]{1,0} get-tuple-element(call.182), index=1
  add.186 = f64[120,20]{1,0} add(multiply.170, get-tuple-element.184), metadata={op_name="jit(scan)/jit(main)/while/body/jit(beliefs_propagation)/jit(continuous_node_prediction)/jit(predict_precision)/add" source_file="/fs04/fc37/adam/projects/psilocybin-prl-analyses/src/prl_hgf/fitting/hierarchical_patrl.py" source_line=362}
  negate.188 = f64[120,20]{1,0} negate(add.186), metadata={op_name="jit(scan)/jit(main)/while/body/jit(beliefs_propagation)/jit(continuous_node_prediction)/jit(predict_precision)/neg" source_file="/fs04/fc37/adam/projects/psilocybin-prl-analyses/src/prl_hgf/fitting/hierarchical_patrl.py" source_line=362}
  call.189 = f64[20]{0} call(add.185), to_apply=integer_pow_1.118
  reshape.190 = f64[1,20]{1,0} reshape(call.189), metadata={op_name="jit(scan)/jit(main)/while/body/jit(beliefs_propagation)/jit(continuous_node_prediction)/jit(predict_precision)/broadcast_in_dim[shape=(1, 20) broadcast_dimensions=(np.int64(1),)]" source_file="/fs04/fc37/adam/projects/psilocybin-prl-analyses/src/prl_hgf/fitting/hierarchical_patrl.py" source_line=362}
  broadcast.191 = f64[1,20]{1,0} broadcast(reshape.190), dimensions={0,1}, metadata={op_name="jit(scan)/jit(main)/while/body/jit(beliefs_propagation)/jit(continuous_node_prediction)/jit(predict_precision)/mul" source_file="/fs04/fc37/adam/projects/psilocybin-prl-analyses/src/prl_hgf/fitting/hierarchical_patrl.py" source_line=362}
  reshape.192 = f64[20]{0} reshape(broadcast.191), metadata={op_name="jit(scan)/jit(main)/while/body/jit(beliefs_propagation)/jit(continuous_node_prediction)/jit(predict_precision)/mul" source_file="/fs04/fc37/adam/projects/psilocybin-prl-analyses/src/prl_hgf/fitting/hierarchical_patrl.py" source_line=362}
  broadcast.193 = f64[120,20]{1,0} broadcast(reshape.192), dimensions={1}, metadata={op_name="jit(scan)/jit(main)/while/body/jit(beliefs_propagation)/jit(continuous_node_prediction)/jit(predict_precision)/mul" source_file="/fs04/fc37/adam/projects/psilocybin-prl-analyses/src/prl_hgf/fitting/hierarchical_patrl.py" source_line=362}
  multiply.194 = f64[120,20]{1,0} multiply(negate.188, broadcast.193), metadata={op_name="jit(scan)/jit(main)/while/body/jit(beliefs_propagation)/jit(continuous_node_prediction)/jit(predict_precision)/mul" source_file="/fs04/fc37/adam/projects/psilocybin-prl-analyses/src/prl_hgf/fitting/hierarchical_patrl.py" source_line=362}
  reshape.196 = f64[1,20]{1,0} reshape(divide.187), metadata={op_name="jit(scan)/jit(main)/while/body/jit(beliefs_propagation)/jit(continuous_node_prediction)/jit(predict_precision)/broadcast_in_dim[shape=(1, 20) broadcast_dimensions=(np.int64(1),)]" source_file="/fs04/fc37/adam/projects/psilocybin-prl-analyses/src/prl_hgf/fitting/hierarchical_patrl.py" source_line=362}
  broadcast.197 = f64[1,20]{1,0} broadcast(reshape.196), dimensions={0,1}, metadata={op_name="jit(scan)/jit(main)/while/body/jit(beliefs_propagation)/jit(continuous_node_prediction)/jit(predict_precision)/mul" source_file="/fs04/fc37/adam/projects/psilocybin-prl-analyses/src/prl_hgf/fitting/hierarchical_patrl.py" source_line=362}
  reshape.198 = f64[20]{0} reshape(broadcast.197), metadata={op_name="jit(scan)/jit(main)/while/body/jit(beliefs_propagation)/jit(continuous_node_prediction)/jit(predict_precision)/mul" source_file="/fs04/fc37/adam/projects/psilocybin-prl-analyses/src/prl_hgf/fitting/hierarchical_patrl.py" source_line=362}
  broadcast.199 = f64[120,20]{1,0} broadcast(reshape.198), dimensions={1}, metadata={op_name="jit(scan)/jit(main)/while/body/jit(beliefs_propagation)/jit(continuous_node_prediction)/jit(predict_precision)/mul" source_file="/fs04/fc37/adam/projects/psilocybin-prl-analyses/src/prl_hgf/fitting/hierarchical_patrl.py" source_line=362}
  multiply.200 = f64[120,20]{1,0} multiply(get-tuple-element.184, broadcast.199), metadata={op_name="jit(scan)/jit(main)/while/body/jit(beliefs_propagation)/jit(continuous_node_prediction)/jit(predict_precision)/mul" source_file="/fs04/fc37/adam/projects/psilocybin-prl-analyses/src/prl_hgf/fitting/hierarchical_patrl.py" source_line=362}
  reshape.201 = f64[1,20]{1,0} reshape(get-tuple-element.183), metadata={op_name="jit(scan)/jit(main)/while/body/jit(beliefs_propagation)/jit(continuous_node_prediction)/jit(predict_precision)/broadcast_in_dim[shape=(1, 20) broadcast_dimensions=(np.int64(1),)]" source_file="/fs04/fc37/adam/projects/psilocybin-prl-analyses/src/prl_hgf/fitting/hierarchical_patrl.py" source_line=362}
  broadcast.202 = f64[1,20]{1,0} broadcast(reshape.201), dimensions={0,1}, metadata={op_name="jit(scan)/jit(main)/while/body/jit(beliefs_propagation)/jit(continuous_node_prediction)/jit(predict_precision)/mul" source_file="/fs04/fc37/adam/projects/psilocybin-prl-analyses/src/prl_hgf/fitting/hierarchical_patrl.py" source_line=362}
  reshape.203 = f64[20]{0} reshape(broadcast.202), metadata={op_name="jit(scan)/jit(main)/while/body/jit(beliefs_propagation)/jit(continuous_node_prediction)/jit(predict_precision)/mul" source_file="/fs04/fc37/adam/projects/psilocybin-prl-analyses/src/prl_hgf/fitting/hierarchical_patrl.py" source_line=362}
  broadcast.204 = f64[120,20]{1,0} broadcast(reshape.203), dimensions={1}, metadata={op_name="jit(scan)/jit(main)/while/body/jit(beliefs_propagation)/jit(continuous_node_prediction)/jit(predict_precision)/mul" source_file="/fs04/fc37/adam/projects/psilocybin-prl-analyses/src/prl_hgf/fitting/hierarchical_patrl.py" source_line=362}
  multiply.205 = f64[120,20]{1,0} multiply(broadcast.204, multiply.194), metadata={op_name="jit(scan)/jit(main)/while/body/jit(beliefs_propagation)/jit(continuous_node_prediction)/jit(predict_precision)/mul" source_file="/fs04/fc37/adam/projects/psilocybin-prl-analyses/src/prl_hgf/fitting/hierarchical_patrl.py" source_line=362}
  add.206 = f64[120,20]{1,0} add(multiply.200, multiply.205), metadata={op_name="jit(scan)/jit(main)/while/body/jit(beliefs_propagation)/jit(continuous_node_prediction)/jit(predict_precision)/add_any" source_file="/fs04/fc37/adam/projects/psilocybin-prl-analyses/src/prl_hgf/fitting/hierarchical_patrl.py" source_line=362}
  call.208 = f64[20]{0} call(Arg_1.152), to_apply=integer_pow_3.130
  constant.157 = f64[] constant(-2)
  broadcast.158 = f64[20]{0} broadcast(constant.157), dimensions={}
  multiply.209 = f64[20]{0} multiply(call.208, broadcast.158), metadata={op_name="jit(scan)/jit(main)/while/body/jit(beliefs_propagation)/jit(continuous_node_prediction)/jit(predict_precision)/mul" source_file="/fs04/fc37/adam/projects/psilocybin-prl-analyses/src/prl_hgf/fitting/hierarchical_patrl.py" source_line=362}
  reshape.210 = f64[1,20]{1,0} reshape(multiply.209), metadata={op_name="jit(scan)/jit(main)/while/body/jit(beliefs_propagation)/jit(continuous_node_prediction)/jit(predict_precision)/broadcast_in_dim[shape=(1, 20) broadcast_dimensions=(np.int64(1),)]" source_file="/fs04/fc37/adam/projects/psilocybin-prl-analyses/src/prl_hgf/fitting/hierarchical_patrl.py" source_line=362}
  broadcast.211 = f64[1,20]{1,0} broadcast(reshape.210), dimensions={0,1}, metadata={op_name="jit(scan)/jit(main)/while/body/jit(beliefs_propagation)/jit(continuous_node_prediction)/jit(predict_precision)/mul" source_file="/fs04/fc37/adam/projects/psilocybin-prl-analyses/src/prl_hgf/fitting/hierarchical_patrl.py" source_line=362}
  reshape.212 = f64[20]{0} reshape(broadcast.211), metadata={op_name="jit(scan)/jit(main)/while/body/jit(beliefs_propagation)/jit(continuous_node_prediction)/jit(predict_precision)/mul" source_file="/fs04/fc37/adam/projects/psilocybin-prl-analyses/src/prl_hgf/fitting/hierarchical_patrl.py" source_line=362}
  broadcast.213 = f64[120,20]{1,0} broadcast(reshape.212), dimensions={1}, metadata={op_name="jit(scan)/jit(main)/while/body/jit(beliefs_propagation)/jit(continuous_node_prediction)/jit(predict_precision)/mul" source_file="/fs04/fc37/adam/projects/psilocybin-prl-analyses/src/prl_hgf/fitting/hierarchical_patrl.py" source_line=362}
  multiply.214 = f64[120,20]{1,0} multiply(Arg_4.155, broadcast.213), metadata={op_name="jit(scan)/jit(main)/while/body/jit(beliefs_propagation)/jit(continuous_node_prediction)/jit(predict_precision)/mul" source_file="/fs04/fc37/adam/projects/psilocybin-prl-analyses/src/prl_hgf/fitting/hierarchical_patrl.py" source_line=362}
  call.216 = f64[20]{0} call(add.185), to_apply=integer_pow_5.143
  multiply.217 = f64[20]{0} multiply(call.216, broadcast.158), metadata={op_name="jit(scan)/jit(main)/while/body/jit(beliefs_propagation)/jit(continuous_node_prediction)/jit(predict_precision)/mul" source_file="/fs04/fc37/adam/projects/psilocybin-prl-analyses/src/prl_hgf/fitting/hierarchical_patrl.py" source_line=362}
  reshape.218 = f64[1,20]{1,0} reshape(multiply.217), metadata={op_name="jit(scan)/jit(main)/while/body/jit(beliefs_propagation)/jit(continuous_node_prediction)/jit(predict_precision)/broadcast_in_dim[shape=(1, 20) broadcast_dimensions=(np.int64(1),)]" source_file="/fs04/fc37/adam/projects/psilocybin-prl-analyses/src/prl_hgf/fitting/hierarchical_patrl.py" source_line=362}
  broadcast.219 = f64[1,20]{1,0} broadcast(reshape.218), dimensions={0,1}, metadata={op_name="jit(scan)/jit(main)/while/body/jit(beliefs_propagation)/jit(continuous_node_prediction)/jit(predict_precision)/mul" source_file="/fs04/fc37/adam/projects/psilocybin-prl-analyses/src/prl_hgf/fitting/hierarchical_patrl.py" source_line=362}
  reshape.220 = f64[20]{0} reshape(broadcast.219), metadata={op_name="jit(scan)/jit(main)/while/body/jit(beliefs_propagation)/jit(continuous_node_prediction)/jit(predict_precision)/mul" source_file="/fs04/fc37/adam/projects/psilocybin-prl-analyses/src/prl_hgf/fitting/hierarchical_patrl.py" source_line=362}
  broadcast.221 = f64[120,20]{1,0} broadcast(reshape.220), dimensions={1}, metadata={op_name="jit(scan)/jit(main)/while/body/jit(beliefs_propagation)/jit(continuous_node_prediction)/jit(predict_precision)/mul" source_file="/fs04/fc37/adam/projects/psilocybin-prl-analyses/src/prl_hgf/fitting/hierarchical_patrl.py" source_line=362}
  multiply.222 = f64[120,20]{1,0} multiply(add.186, broadcast.221), metadata={op_name="jit(scan)/jit(main)/while/body/jit(beliefs_propagation)/jit(continuous_node_prediction)/jit(predict_precision)/mul" source_file="/fs04/fc37/adam/projects/psilocybin-prl-analyses/src/prl_hgf/fitting/hierarchical_patrl.py" source_line=362}
  ROOT tuple.223 = (f64[20]{0}, f64[20]{0}, f64[20]{0}, pred[20]{0}, f64[20]{0}, /*index=5*/f64[20]{0}, f64[20]{0}, f64[120,20]{1,0}, f64[120,20]{1,0}, f64[120,20]{1,0}, /*index=10*/f64[120,20]{1,0}, f64[120,20]{1,0}, f64[120,20]{1,0}) tuple(divide.187, multiply.195, exponential.171, compare.181, get-tuple-element.183, /*index=5*/call.207, call.215, multiply.194, add.206, multiply.176, /*index=10*/get-tuple-element.184, multiply.214, multiply.222)
} // predict_precision.150

integer_pow_6.224 {
  constant.226 = f64[] constant(1)
  broadcast.227 = f64[20]{0} broadcast(constant.226), dimensions={}
  Arg_0.225 = f64[20]{0} parameter(0), metadata={op_name="jit(scan)/jit(main)/while/body/jit(beliefs_propagation)/jit(continuous_node_prediction)/integer_pow[y=-2]"}
  multiply.228 = f64[20]{0} multiply(Arg_0.225, Arg_0.225), metadata={op_name="jit(scan)/jit(main)/while/body/jit(beliefs_propagation)/jit(continuous_node_prediction)/mul" source_file="/fs04/fc37/adam/projects/psilocybin-prl-analyses/src/prl_hgf/fitting/hierarchical_patrl.py" source_line=362}
  ROOT divide.229 = f64[20]{0} divide(broadcast.227, multiply.228), metadata={op_name="jit(scan)/jit(main)/while/body/jit(beliefs_propagation)/jit(continuous_node_prediction)/div" source_file="/fs04/fc37/adam/projects/psilocybin-prl-analyses/src/prl_hgf/fitting/hierarchical_patrl.py" source_line=362}
}

integer_pow_7.230 {
  constant.232 = f64[] constant(1)
  broadcast.233 = f64[20]{0} broadcast(constant.232), dimensions={}
  Arg_0.231 = f64[20]{0} parameter(0), metadata={op_name="jit(scan)/jit(main)/while/body/jit(beliefs_propagation)/jit(continuous_node_prediction)/integer_pow[y=-3]"}
  multiply.234 = f64[20]{0} multiply(Arg_0.231, Arg_0.231), metadata={op_name="jit(scan)/jit(main)/while/body/jit(beliefs_propagation)/jit(continuous_node_prediction)/mul" source_file="/fs04/fc37/adam/projects/psilocybin-prl-analyses/src/prl_hgf/fitting/hierarchical_patrl.py" source_line=362}
  multiply.235 = f64[20]{0} multiply(Arg_0.231, multiply.234), metadata={op_name="jit(scan)/jit(main)/while/body/jit(beliefs_propagation)/jit(continuous_node_prediction)/mul" source_file="/fs04/fc37/adam/projects/psilocybin-prl-analyses/src/prl_hgf/fitting/hierarchical_patrl.py" source_line=362}
  ROOT divide.236 = f64[20]{0} divide(broadcast.233, multiply.235), metadata={op_name="jit(scan)/jit(main)/while/body/jit(beliefs_propagation)/jit(continuous_node_prediction)/div" source_file="/fs04/fc37/adam/projects/psilocybin-prl-analyses/src/prl_hgf/fitting/hierarchical_patrl.py" source_line=362}
} // integer_pow_7.230

continuous_node_prediction.237 {
  Arg_0.238 = f64[] parameter(0), metadata={op_name="jit(scan)/jit(main)/while/body/jit(beliefs_propagation)/pjit[in_shardings=(UnspecifiedValue, UnspecifiedValue, UnspecifiedValue, UnspecifiedValue, UnspecifiedValue, UnspecifiedValue, UnspecifiedValue, UnspecifiedValue, UnspecifiedValue, UnspecifiedValue) out_shardings=(UnspecifiedValue, UnspecifiedValue, UnspecifiedValue, UnspecifiedValue, UnspecifiedValue, UnspecifiedValue, UnspecifiedValue, UnspecifiedValue, UnspecifiedValue, UnspecifiedValue, UnspecifiedValue, UnspecifiedValue, UnspecifiedValue, UnspecifiedValue, UnspecifiedValue, UnspecifiedValue, UnspecifiedValue, UnspecifiedValue, UnspecifiedValue, UnspecifiedValue) in_layouts=(None, None, None, None, None, None, None, None, None, None) out_layouts=(None, None, None, None, None, None, None, None, None, None, None, None, None, None, None, None, None, None, None, None) resource_env=None donated_invars=(False, False, False, False, False, False, False, False, False, False) name=continuous_node_prediction keep_unused=False inline=False]"}
  Arg_1.239 = f64[20]{0} parameter(1), metadata={op_name="jit(scan)/jit(main)/while/body/jit(beliefs_propagation)/pjit[in_shardings=(UnspecifiedValue, UnspecifiedValue, UnspecifiedValue, UnspecifiedValue, UnspecifiedValue, UnspecifiedValue, UnspecifiedValue, UnspecifiedValue, UnspecifiedValue, UnspecifiedValue) out_shardings=(UnspecifiedValue, UnspecifiedValue, UnspecifiedValue, UnspecifiedValue, UnspecifiedValue, UnspecifiedValue, UnspecifiedValue, UnspecifiedValue, UnspecifiedValue, UnspecifiedValue, UnspecifiedValue, UnspecifiedValue, UnspecifiedValue, UnspecifiedValue, UnspecifiedValue, UnspecifiedValue, UnspecifiedValue, UnspecifiedValue, UnspecifiedValue, UnspecifiedValue) in_layouts=(None, None, None, None, None, None, None, None, None, None) out_layouts=(None, None, None, None, None, None, None, None, None, None, None, None, None, None, None, None, None, None, None, None) resource_env=None donated_invars=(False, False, False, False, False, False, False, False, False, False) name=continuous_node_prediction keep_unused=False inline=False]"}
  Arg_2.240 = f64[20]{0} parameter(2), metadata={op_name="jit(scan)/jit(main)/while/body/jit(beliefs_propagation)/pjit[in_shardings=(UnspecifiedValue, UnspecifiedValue, UnspecifiedValue, UnspecifiedValue, UnspecifiedValue, UnspecifiedValue, UnspecifiedValue, UnspecifiedValue, UnspecifiedValue, UnspecifiedValue) out_shardings=(UnspecifiedValue, UnspecifiedValue, UnspecifiedValue, UnspecifiedValue, UnspecifiedValue, UnspecifiedValue, UnspecifiedValue, UnspecifiedValue, UnspecifiedValue, UnspecifiedValue, UnspecifiedValue, UnspecifiedValue, UnspecifiedValue, UnspecifiedValue, UnspecifiedValue, UnspecifiedValue, UnspecifiedValue, UnspecifiedValue, UnspecifiedValue, UnspecifiedValue) in_layouts=(None, None, None, None, None, None, None, None, None, None) out_layouts=(None, None, None, None, None, None, None, None, None, None, None, None, None, None, None, None, None, None, None, None) resource_env=None donated_invars=(False, False, False, False, False, False, False, False, False, False) name=continuous_node_prediction keep_unused=False inline=False]"}
  Arg_4.242 = f64[20]{0} parameter(4), metadata={op_name="jit(scan)/jit(main)/while/body/jit(beliefs_propagation)/pjit[in_shardings=(UnspecifiedValue, UnspecifiedValue, UnspecifiedValue, UnspecifiedValue, UnspecifiedValue, UnspecifiedValue, UnspecifiedValue, UnspecifiedValue, UnspecifiedValue, UnspecifiedValue) out_shardings=(UnspecifiedValue, UnspecifiedValue, UnspecifiedValue, UnspecifiedValue, UnspecifiedValue, UnspecifiedValue, UnspecifiedValue, UnspecifiedValue, UnspecifiedValue, UnspecifiedValue, UnspecifiedValue, UnspecifiedValue, UnspecifiedValue, UnspecifiedValue, UnspecifiedValue, UnspecifiedValue, UnspecifiedValue, UnspecifiedValue, UnspecifiedValue, UnspecifiedValue) in_layouts=(None, None, None, None, None, None, None, None, None, None) out_layouts=(None, None, None, None, None, None, None, None, None, None, None, None, None, None, None, None, None, None, None, None) resource_env=None donated_invars=(False, False, False, False, False, False, False, False, False, False) name=continuous_node_prediction keep_unused=False inline=False]"}
  Arg_7.245 = f64[120,20]{1,0} parameter(7), metadata={op_name="jit(scan)/jit(main)/while/body/jit(beliefs_propagation)/pjit[in_shardings=(UnspecifiedValue, UnspecifiedValue, UnspecifiedValue, UnspecifiedValue, UnspecifiedValue, UnspecifiedValue, UnspecifiedValue, UnspecifiedValue, UnspecifiedValue, UnspecifiedValue) out_shardings=(UnspecifiedValue, UnspecifiedValue, UnspecifiedValue, UnspecifiedValue, UnspecifiedValue, UnspecifiedValue, UnspecifiedValue, UnspecifiedValue, UnspecifiedValue, UnspecifiedValue, UnspecifiedValue, UnspecifiedValue, UnspecifiedValue, UnspecifiedValue, UnspecifiedValue, UnspecifiedValue, UnspecifiedValue, UnspecifiedValue, UnspecifiedValue, UnspecifiedValue) in_layouts=(None, None, None, None, None, None, None, None, None, None) out_layouts=(None, None, None, None, None, None, None, None, None, None, None, None, None, None, None, None, None, None, None, None) resource_env=None donated_invars=(False, False, False, False, False, False, False, False, False, False) name=continuous_node_prediction keep_unused=False inline=False]"}
  call.260 = (f64[20]{0}, f64[20]{0}, f64[120,20]{1,0}) call(Arg_0.238, Arg_1.239, Arg_2.240, Arg_4.242, Arg_7.245), to_apply=predict_mean.85
  get-tuple-element.261 = f64[20]{0} get-tuple-element(call.260), index=0
  Arg_3.241 = f64[20]{0} parameter(3), metadata={op_name="jit(scan)/jit(main)/while/body/jit(beliefs_propagation)/pjit[in_shardings=(UnspecifiedValue, UnspecifiedValue, UnspecifiedValue, UnspecifiedValue, UnspecifiedValue, UnspecifiedValue, UnspecifiedValue, UnspecifiedValue, UnspecifiedValue, UnspecifiedValue) out_shardings=(UnspecifiedValue, UnspecifiedValue, UnspecifiedValue, UnspecifiedValue, UnspecifiedValue, UnspecifiedValue, UnspecifiedValue, UnspecifiedValue, UnspecifiedValue, UnspecifiedValue, UnspecifiedValue, UnspecifiedValue, UnspecifiedValue, UnspecifiedValue, UnspecifiedValue, UnspecifiedValue, UnspecifiedValue, UnspecifiedValue, UnspecifiedValue, UnspecifiedValue) in_layouts=(None, None, None, None, None, None, None, None, None, None) out_layouts=(None, None, None, None, None, None, None, None, None, None, None, None, None, None, None, None, None, None, None, None) resource_env=None donated_invars=(False, False, False, False, False, False, False, False, False, False) name=continuous_node_prediction keep_unused=False inline=False]"}
  Arg_5.243 = f64[20]{0} parameter(5), metadata={op_name="jit(scan)/jit(main)/while/body/jit(beliefs_propagation)/pjit[in_shardings=(UnspecifiedValue, UnspecifiedValue, UnspecifiedValue, UnspecifiedValue, UnspecifiedValue, UnspecifiedValue, UnspecifiedValue, UnspecifiedValue, UnspecifiedValue, UnspecifiedValue) out_shardings=(UnspecifiedValue, UnspecifiedValue, UnspecifiedValue, UnspecifiedValue, UnspecifiedValue, UnspecifiedValue, UnspecifiedValue, UnspecifiedValue, UnspecifiedValue, UnspecifiedValue, UnspecifiedValue, UnspecifiedValue, UnspecifiedValue, UnspecifiedValue, UnspecifiedValue, UnspecifiedValue, UnspecifiedValue, UnspecifiedValue, UnspecifiedValue, UnspecifiedValue) in_layouts=(None, None, None, None, None, None, None, None, None, None) out_layouts=(None, None, None, None, None, None, None, None, None, None, None, None, None, None, None, None, None, None, None, None) resource_env=None donated_invars=(False, False, False, False, False, False, False, False, False, False) name=continuous_node_prediction keep_unused=False inline=False]"}
  Arg_6.244 = f64[20]{0} parameter(6), metadata={op_name="jit(scan)/jit(main)/while/body/jit(beliefs_propagation)/pjit[in_shardings=(UnspecifiedValue, UnspecifiedValue, UnspecifiedValue, UnspecifiedValue, UnspecifiedValue, UnspecifiedValue, UnspecifiedValue, UnspecifiedValue, UnspecifiedValue, UnspecifiedValue) out_shardings=(UnspecifiedValue, UnspecifiedValue, UnspecifiedValue, UnspecifiedValue, UnspecifiedValue, UnspecifiedValue, UnspecifiedValue, UnspecifiedValue, UnspecifiedValue, UnspecifiedValue, UnspecifiedValue, UnspecifiedValue, UnspecifiedValue, UnspecifiedValue, UnspecifiedValue, UnspecifiedValue, UnspecifiedValue, UnspecifiedValue, UnspecifiedValue, UnspecifiedValue) in_layouts=(None, None, None, None, None, None, None, None, None, None) out_layouts=(None, None, None, None, None, None, None, None, None, None, None, None, None, None, None, None, None, None, None, None) resource_env=None donated_invars=(False, False, False, False, False, False, False, False, False, False) name=continuous_node_prediction keep_unused=False inline=False]"}
  Arg_8.246 = f64[120,20]{1,0} parameter(8), metadata={op_name="jit(scan)/jit(main)/while/body/jit(beliefs_propagation)/pjit[in_shardings=(UnspecifiedValue, UnspecifiedValue, UnspecifiedValue, UnspecifiedValue, UnspecifiedValue, UnspecifiedValue, UnspecifiedValue, UnspecifiedValue, UnspecifiedValue, UnspecifiedValue) out_shardings=(UnspecifiedValue, UnspecifiedValue, UnspecifiedValue, UnspecifiedValue, UnspecifiedValue, UnspecifiedValue, UnspecifiedValue, UnspecifiedValue, UnspecifiedValue, UnspecifiedValue, UnspecifiedValue, UnspecifiedValue, UnspecifiedValue, UnspecifiedValue, UnspecifiedValue, UnspecifiedValue, UnspecifiedValue, UnspecifiedValue, UnspecifiedValue, UnspecifiedValue) in_layouts=(None, None, None, None, None, None, None, None, None, None) out_layouts=(None, None, None, None, None, None, None, None, None, None, None, None, None, None, None, None, None, None, None, None) resource_env=None donated_invars=(False, False, False, False, False, False, False, False, False, False) name=continuous_node_prediction keep_unused=False inline=False]"}
  Arg_9.247 = f64[120,20]{1,0} parameter(9), metadata={op_name="jit(scan)/jit(main)/while/body/jit(beliefs_propagation)/pjit[in_shardings=(UnspecifiedValue, UnspecifiedValue, UnspecifiedValue, UnspecifiedValue, UnspecifiedValue, UnspecifiedValue, UnspecifiedValue, UnspecifiedValue, UnspecifiedValue, UnspecifiedValue) out_shardings=(UnspecifiedValue, UnspecifiedValue, UnspecifiedValue, UnspecifiedValue, UnspecifiedValue, UnspecifiedValue, UnspecifiedValue, UnspecifiedValue, UnspecifiedValue, UnspecifiedValue, UnspecifiedValue, UnspecifiedValue, UnspecifiedValue, UnspecifiedValue, UnspecifiedValue, UnspecifiedValue, UnspecifiedValue, UnspecifiedValue, UnspecifiedValue, UnspecifiedValue) in_layouts=(None, None, None, None, None, None, None, None, None, None) out_layouts=(None, None, None, None, None, None, None, None, None, None, None, None, None, None, None, None, None, None, None, None) resource_env=None donated_invars=(False, False, False, False, False, False, False, False, False, False) name=continuous_node_prediction keep_unused=False inline=False]"}
  call.264 = (f64[20]{0}, f64[20]{0}, f64[20]{0}, pred[20]{0}, f64[20]{0}, /*index=5*/f64[20]{0}, f64[20]{0}, f64[120,20]{1,0}, f64[120,20]{1,0}, f64[120,20]{1,0}, /*index=10*/f64[120,20]{1,0}, f64[120,20]{1,0}, f64[120,20]{1,0}) call(Arg_0.238, Arg_3.241, Arg_5.243, Arg_6.244, Arg_8.246, /*index=5*/Arg_9.247), to_apply=predict_precision.150
  get-tuple-element.265 = f64[20]{0} get-tuple-element(call.264), index=0
  constant.250 = f64[] constant(1)
  broadcast.251 = f64[20]{0} broadcast(constant.250), dimensions={}
  divide.252 = f64[20]{0} divide(broadcast.251, Arg_3.241), metadata={op_name="jit(scan)/jit(main)/while/body/jit(beliefs_propagation)/jit(continuous_node_prediction)/div" source_file="/fs04/fc37/adam/projects/psilocybin-prl-analyses/src/prl_hgf/fitting/hierarchical_patrl.py" source_line=362}
  get-tuple-element.266 = f64[20]{0} get-tuple-element(call.264), index=1
  call.278 = f64[20]{0} call(Arg_3.241), to_apply=integer_pow_6.224
  get-tuple-element.262 = f64[20]{0} get-tuple-element(call.260), index=1
  get-tuple-element.267 = f64[20]{0} get-tuple-element(call.264), index=2
  get-tuple-element.268 = pred[20]{0} get-tuple-element(call.264), index=3
  get-tuple-element.269 = f64[20]{0} get-tuple-element(call.264), index=4
  get-tuple-element.270 = f64[20]{0} get-tuple-element(call.264), index=5
  get-tuple-element.271 = f64[20]{0} get-tuple-element(call.264), index=6
  get-tuple-element.263 = f64[120,20]{1,0} get-tuple-element(call.260), index=2
  get-tuple-element.272 = f64[120,20]{1,0} get-tuple-element(call.264), index=7
  negate.253 = f64[120,20]{1,0} negate(Arg_8.246), metadata={op_name="jit(scan)/jit(main)/while/body/jit(beliefs_propagation)/jit(continuous_node_prediction)/neg" source_file="/fs04/fc37/adam/projects/psilocybin-prl-analyses/src/prl_hgf/fitting/hierarchical_patrl.py" source_line=362}
  call.254 = f64[20]{0} call(Arg_3.241), to_apply=integer_pow.79
  reshape.255 = f64[1,20]{1,0} reshape(call.254), metadata={op_name="jit(scan)/jit(main)/while/body/jit(beliefs_propagation)/jit(continuous_node_prediction)/broadcast_in_dim[shape=(1, 20) broadcast_dimensions=(np.int64(1),)]" source_file="/fs04/fc37/adam/projects/psilocybin-prl-analyses/src/prl_hgf/fitting/hierarchical_patrl.py" source_line=362}
  broadcast.256 = f64[1,20]{1,0} broadcast(reshape.255), dimensions={0,1}, metadata={op_name="jit(scan)/jit(main)/while/body/jit(beliefs_propagation)/jit(continuous_node_prediction)/mul" source_file="/fs04/fc37/adam/projects/psilocybin-prl-analyses/src/prl_hgf/fitting/hierarchical_patrl.py" source_line=362}
  reshape.257 = f64[20]{0} reshape(broadcast.256), metadata={op_name="jit(scan)/jit(main)/while/body/jit(beliefs_propagation)/jit(continuous_node_prediction)/mul" source_file="/fs04/fc37/adam/projects/psilocybin-prl-analyses/src/prl_hgf/fitting/hierarchical_patrl.py" source_line=362}
  broadcast.258 = f64[120,20]{1,0} broadcast(reshape.257), dimensions={1}, metadata={op_name="jit(scan)/jit(main)/while/body/jit(beliefs_propagation)/jit(continuous_node_prediction)/mul" source_file="/fs04/fc37/adam/projects/psilocybin-prl-analyses/src/prl_hgf/fitting/hierarchical_patrl.py" source_line=362}
  multiply.259 = f64[120,20]{1,0} multiply(negate.253, broadcast.258), metadata={op_name="jit(scan)/jit(main)/while/body/jit(beliefs_propagation)/jit(continuous_node_prediction)/mul" source_file="/fs04/fc37/adam/projects/psilocybin-prl-analyses/src/prl_hgf/fitting/hierarchical_patrl.py" source_line=362}
  get-tuple-element.273 = f64[120,20]{1,0} get-tuple-element(call.264), index=8
  call.279 = f64[20]{0} call(Arg_3.241), to_apply=integer_pow_7.230
  constant.248 = f64[] constant(-2)
  broadcast.249 = f64[20]{0} broadcast(constant.248), dimensions={}
  multiply.280 = f64[20]{0} multiply(call.279, broadcast.249), metadata={op_name="jit(scan)/jit(main)/while/body/jit(beliefs_propagation)/jit(continuous_node_prediction)/mul" source_file="/fs04/fc37/adam/projects/psilocybin-prl-analyses/src/prl_hgf/fitting/hierarchical_patrl.py" source_line=362}
  reshape.281 = f64[1,20]{1,0} reshape(multiply.280), metadata={op_name="jit(scan)/jit(main)/while/body/jit(beliefs_propagation)/jit(continuous_node_prediction)/broadcast_in_dim[shape=(1, 20) broadcast_dimensions=(np.int64(1),)]" source_file="/fs04/fc37/adam/projects/psilocybin-prl-analyses/src/prl_hgf/fitting/hierarchical_patrl.py" source_line=362}
  broadcast.282 = f64[1,20]{1,0} broadcast(reshape.281), dimensions={0,1}, metadata={op_name="jit(scan)/jit(main)/while/body/jit(beliefs_propagation)/jit(continuous_node_prediction)/mul" source_file="/fs04/fc37/adam/projects/psilocybin-prl-analyses/src/prl_hgf/fitting/hierarchical_patrl.py" source_line=362}
  reshape.283 = f64[20]{0} reshape(broadcast.282), metadata={op_name="jit(scan)/jit(main)/while/body/jit(beliefs_propagation)/jit(continuous_node_prediction)/mul" source_file="/fs04/fc37/adam/projects/psilocybin-prl-analyses/src/prl_hgf/fitting/hierarchical_patrl.py" source_line=362}
  broadcast.284 = f64[120,20]{1,0} broadcast(reshape.283), dimensions={1}, metadata={op_name="jit(scan)/jit(main)/while/body/jit(beliefs_propagation)/jit(continuous_node_prediction)/mul" source_file="/fs04/fc37/adam/projects/psilocybin-prl-analyses/src/prl_hgf/fitting/hierarchical_patrl.py" source_line=362}
  multiply.285 = f64[120,20]{1,0} multiply(Arg_8.246, broadcast.284), metadata={op_name="jit(scan)/jit(main)/while/body/jit(beliefs_propagation)/jit(continuous_node_prediction)/mul" source_file="/fs04/fc37/adam/projects/psilocybin-prl-analyses/src/prl_hgf/fitting/hierarchical_patrl.py" source_line=362}
  get-tuple-element.274 = f64[120,20]{1,0} get-tuple-element(call.264), index=9
  get-tuple-element.275 = f64[120,20]{1,0} get-tuple-element(call.264), index=10
  get-tuple-element.276 = f64[120,20]{1,0} get-tuple-element(call.264), index=11
  get-tuple-element.277 = f64[120,20]{1,0} get-tuple-element(call.264), index=12
  ROOT tuple.286 = (f64[20]{0}, f64[20]{0}, f64[20]{0}, f64[20]{0}, f64[20]{0}, /*index=5*/f64[20]{0}, f64[20]{0}, pred[20]{0}, f64[20]{0}, f64[20]{0}, /*index=10*/f64[20]{0}, f64[120,20]{1,0}, f64[120,20]{1,0}, f64[120,20]{1,0}, f64[120,20]{1,0}, /*index=15*/f64[120,20]{1,0}, f64[120,20]{1,0}, f64[120,20]{1,0}, f64[120,20]{1,0}, f64[120,20]{1,0}) tuple(get-tuple-element.261, get-tuple-element.265, divide.252, get-tuple-element.266, call.278, /*index=5*/get-tuple-element.262, get-tuple-element.267, get-tuple-element.268, get-tuple-element.269, get-tuple-element.270, /*index=10*/get-tuple-element.271, get-tuple-element.263, get-tuple-element.272, multiply.259, get-tuple-element.273, /*index=15*/multiply.285, get-tuple-element.274, get-tuple-element.275, get-tuple-element.276, get-tuple-element.277)
} // continuous_node_prediction.237

integer_pow_9.287 {
  constant.289 = f64[] constant(1)
  broadcast.290 = f64[20]{0} broadcast(constant.289), dimensions={}
  Arg_0.288 = f64[20]{0} parameter(0), metadata={op_name="jit(scan)/jit(main)/while/body/jit(beliefs_propagation)/jit(continuous_node_prediction)/integer_pow[y=-2]"}
  multiply.291 = f64[20]{0} multiply(Arg_0.288, Arg_0.288), metadata={op_name="jit(scan)/jit(main)/while/body/jit(beliefs_propagation)/jit(continuous_node_prediction)/mul" source_file="/fs04/fc37/adam/projects/psilocybin-prl-analyses/src/prl_hgf/fitting/hierarchical_patrl.py" source_line=362}
  ROOT divide.292 = f64[20]{0} divide(broadcast.290, multiply.291), metadata={op_name="jit(scan)/jit(main)/while/body/jit(beliefs_propagation)/jit(continuous_node_prediction)/div" source_file="/fs04/fc37/adam/projects/psilocybin-prl-analyses/src/prl_hgf/fitting/hierarchical_patrl.py" source_line=362}
}

predict_mean_10.293 {
  Arg_1.295 = f64[20]{0} parameter(1), metadata={op_name="jit(scan)/jit(main)/while/body/jit(beliefs_propagation)/jit(continuous_node_prediction)/pjit[in_shardings=(UnspecifiedValue, UnspecifiedValue, UnspecifiedValue, UnspecifiedValue, UnspecifiedValue) out_shardings=(UnspecifiedValue, UnspecifiedValue) in_layouts=(None, None, None, None, None) out_layouts=(None, None) resource_env=None donated_invars=(False, False, False, False, False) name=predict_mean keep_unused=False inline=False]"}
  Arg_2.296 = f64[20]{0} parameter(2), metadata={op_name="jit(scan)/jit(main)/while/body/jit(beliefs_propagation)/jit(continuous_node_prediction)/pjit[in_shardings=(UnspecifiedValue, UnspecifiedValue, UnspecifiedValue, UnspecifiedValue, UnspecifiedValue) out_shardings=(UnspecifiedValue, UnspecifiedValue) in_layouts=(None, None, None, None, None) out_layouts=(None, None) resource_env=None donated_invars=(False, False, False, False, False) name=predict_mean keep_unused=False inline=False]"}
  multiply.299 = f64[20]{0} multiply(Arg_1.295, Arg_2.296), metadata={op_name="jit(scan)/jit(main)/while/body/jit(beliefs_propagation)/jit(continuous_node_prediction)/jit(predict_mean)/mul" source_file="/fs04/fc37/adam/projects/psilocybin-prl-analyses/src/prl_hgf/fitting/hierarchical_patrl.py" source_line=362}
  Arg_0.294 = f64[] parameter(0), metadata={op_name="jit(scan)/jit(main)/while/body/jit(beliefs_propagation)/jit(continuous_node_prediction)/pjit[in_shardings=(UnspecifiedValue, UnspecifiedValue, UnspecifiedValue, UnspecifiedValue, UnspecifiedValue) out_shardings=(UnspecifiedValue, UnspecifiedValue) in_layouts=(None, None, None, None, None) out_layouts=(None, None) resource_env=None donated_invars=(False, False, False, False, False) name=predict_mean keep_unused=False inline=False]"}
  broadcast.305 = f64[20]{0} broadcast(Arg_0.294), dimensions={}, metadata={op_name="jit(scan)/jit(main)/while/body/jit(beliefs_propagation)/jit(continuous_node_prediction)/jit(predict_mean)/mul" source_file="/fs04/fc37/adam/projects/psilocybin-prl-analyses/src/prl_hgf/fitting/hierarchical_patrl.py" source_line=362}
  Arg_3.297 = f64[20]{0} parameter(3), metadata={op_name="jit(scan)/jit(main)/while/body/jit(beliefs_propagation)/jit(continuous_node_prediction)/pjit[in_shardings=(UnspecifiedValue, UnspecifiedValue, UnspecifiedValue, UnspecifiedValue, UnspecifiedValue) out_shardings=(UnspecifiedValue, UnspecifiedValue) in_layouts=(None, None, None, None, None) out_layouts=(None, None) resource_env=None donated_invars=(False, False, False, False, False) name=predict_mean keep_unused=False inline=False]"}
  multiply.306 = f64[20]{0} multiply(broadcast.305, Arg_3.297), metadata={op_name="jit(scan)/jit(main)/while/body/jit(beliefs_propagation)/jit(continuous_node_prediction)/jit(predict_mean)/mul" source_file="/fs04/fc37/adam/projects/psilocybin-prl-analyses/src/prl_hgf/fitting/hierarchical_patrl.py" source_line=362}
  add.307 = f64[20]{0} add(multiply.299, multiply.306), metadata={op_name="jit(scan)/jit(main)/while/body/jit(beliefs_propagation)/jit(continuous_node_prediction)/jit(predict_mean)/add" source_file="/fs04/fc37/adam/projects/psilocybin-prl-analyses/src/prl_hgf/fitting/hierarchical_patrl.py" source_line=362}
  reshape.300 = f64[1,20]{1,0} reshape(Arg_1.295), metadata={op_name="jit(scan)/jit(main)/while/body/jit(beliefs_propagation)/jit(continuous_node_prediction)/jit(predict_mean)/broadcast_in_dim[shape=(1, 20) broadcast_dimensions=(np.int64(1),)]" source_file="/fs04/fc37/adam/projects/psilocybin-prl-analyses/src/prl_hgf/fitting/hierarchical_patrl.py" source_line=362}
  broadcast.301 = f64[1,20]{1,0} broadcast(reshape.300), dimensions={0,1}, metadata={op_name="jit(scan)/jit(main)/while/body/jit(beliefs_propagation)/jit(continuous_node_prediction)/jit(predict_mean)/mul" source_file="/fs04/fc37/adam/projects/psilocybin-prl-analyses/src/prl_hgf/fitting/hierarchical_patrl.py" source_line=362}
  reshape.302 = f64[20]{0} reshape(broadcast.301), metadata={op_name="jit(scan)/jit(main)/while/body/jit(beliefs_propagation)/jit(continuous_node_prediction)/jit(predict_mean)/mul" source_file="/fs04/fc37/adam/projects/psilocybin-prl-analyses/src/prl_hgf/fitting/hierarchical_patrl.py" source_line=362}
  broadcast.303 = f64[120,20]{1,0} broadcast(reshape.302), dimensions={1}, metadata={op_name="jit(scan)/jit(main)/while/body/jit(beliefs_propagation)/jit(continuous_node_prediction)/jit(predict_mean)/mul" source_file="/fs04/fc37/adam/projects/psilocybin-prl-analyses/src/prl_hgf/fitting/hierarchical_patrl.py" source_line=362}
  Arg_4.298 = f64[120,20]{1,0} parameter(4), metadata={op_name="jit(scan)/jit(main)/while/body/jit(beliefs_propagation)/jit(continuous_node_prediction)/pjit[in_shardings=(UnspecifiedValue, UnspecifiedValue, UnspecifiedValue, UnspecifiedValue, UnspecifiedValue) out_shardings=(UnspecifiedValue, UnspecifiedValue) in_layouts=(None, None, None, None, None) out_layouts=(None, None) resource_env=None donated_invars=(False, False, False, False, False) name=predict_mean keep_unused=False inline=False]"}
  multiply.304 = f64[120,20]{1,0} multiply(broadcast.303, Arg_4.298), metadata={op_name="jit(scan)/jit(main)/while/body/jit(beliefs_propagation)/jit(continuous_node_prediction)/jit(predict_mean)/mul" source_file="/fs04/fc37/adam/projects/psilocybin-prl-analyses/src/prl_hgf/fitting/hierarchical_patrl.py" source_line=362}
  ROOT tuple.308 = (f64[20]{0}, f64[120,20]{1,0}) tuple(add.307, multiply.304)
} // predict_mean_10.293

integer_pow_12.309 {
  constant.311 = f64[] constant(1)
  broadcast.312 = f64[20]{0} broadcast(constant.311), dimensions={}
  Arg_0.310 = f64[20]{0} parameter(0), metadata={op_name="jit(scan)/jit(main)/while/body/jit(beliefs_propagation)/jit(continuous_node_prediction)/jit(predict_precision)/integer_pow[y=-2]"}
  multiply.313 = f64[20]{0} multiply(Arg_0.310, Arg_0.310), metadata={op_name="jit(scan)/jit(main)/while/body/jit(beliefs_propagation)/jit(continuous_node_prediction)/jit(predict_precision)/mul" source_file="/fs04/fc37/adam/projects/psilocybin-prl-analyses/src/prl_hgf/fitting/hierarchical_patrl.py" source_line=362}
  ROOT divide.314 = f64[20]{0} divide(broadcast.312, multiply.313), metadata={op_name="jit(scan)/jit(main)/while/body/jit(beliefs_propagation)/jit(continuous_node_prediction)/jit(predict_precision)/div" source_file="/fs04/fc37/adam/projects/psilocybin-prl-analyses/src/prl_hgf/fitting/hierarchical_patrl.py" source_line=362}
}

_where.315 {
  Arg_0.316 = pred[20]{0} parameter(0), metadata={op_name="jit(scan)/jit(main)/while/body/jit(beliefs_propagation)/jit(continuous_node_prediction)/jit(predict_precision)/pjit[in_shardings=(UnspecifiedValue, UnspecifiedValue, UnspecifiedValue, UnspecifiedValue) out_shardings=(UnspecifiedValue, UnspecifiedValue) in_layouts=(None, None, None, None) out_layouts=(None, None) resource_env=None donated_invars=(False, False, False, False) name=_where keep_unused=False inline=False]"}
  Arg_1.317 = f64[20]{0} parameter(1), metadata={op_name="jit(scan)/jit(main)/while/body/jit(beliefs_propagation)/jit(continuous_node_prediction)/jit(predict_precision)/pjit[in_shardings=(UnspecifiedValue, UnspecifiedValue, UnspecifiedValue, UnspecifiedValue) out_shardings=(UnspecifiedValue, UnspecifiedValue) in_layouts=(None, None, None, None) out_layouts=(None, None) resource_env=None donated_invars=(False, False, False, False) name=_where keep_unused=False inline=False]"}
  Arg_2.318 = f64[20]{0} parameter(2), metadata={op_name="jit(scan)/jit(main)/while/body/jit(beliefs_propagation)/jit(continuous_node_prediction)/jit(predict_precision)/pjit[in_shardings=(UnspecifiedValue, UnspecifiedValue, UnspecifiedValue, UnspecifiedValue) out_shardings=(UnspecifiedValue, UnspecifiedValue) in_layouts=(None, None, None, None) out_layouts=(None, None) resource_env=None donated_invars=(False, False, False, False) name=_where keep_unused=False inline=False]"}
  select.322 = f64[20]{0} select(Arg_0.316, Arg_1.317, Arg_2.318), metadata={op_name="jit(scan)/jit(main)/while/body/jit(beliefs_propagation)/jit(continuous_node_prediction)/jit(predict_precision)/jit(_where)/select_n" source_file="/fs04/fc37/adam/projects/psilocybin-prl-analyses/src/prl_hgf/env/pat_rl_simulator.py" source_line=92}
  broadcast.323 = pred[120,20]{1,0} broadcast(Arg_0.316), dimensions={1}, metadata={op_name="jit(scan)/jit(main)/while/body/jit(beliefs_propagation)/jit(continuous_node_prediction)/jit(predict_precision)/jit(_where)/broadcast_in_dim[shape=(120, 20) broadcast_dimensions=(np.int64(1),)]" source_file="/fs04/fc37/adam/projects/psilocybin-prl-analyses/src/prl_hgf/env/pat_rl_simulator.py" source_line=92}
  Arg_3.319 = f64[120,20]{1,0} parameter(3), metadata={op_name="jit(scan)/jit(main)/while/body/jit(beliefs_propagation)/jit(continuous_node_prediction)/jit(predict_precision)/pjit[in_shardings=(UnspecifiedValue, UnspecifiedValue, UnspecifiedValue, UnspecifiedValue) out_shardings=(UnspecifiedValue, UnspecifiedValue) in_layouts=(None, None, None, None) out_layouts=(None, None) resource_env=None donated_invars=(False, False, False, False) name=_where keep_unused=False inline=False]"}
  constant.320 = f64[] constant(0)
  broadcast.321 = f64[120,20]{1,0} broadcast(constant.320), dimensions={}
  select.324 = f64[120,20]{1,0} select(broadcast.323, Arg_3.319, broadcast.321), metadata={op_name="jit(scan)/jit(main)/while/body/jit(beliefs_propagation)/jit(continuous_node_prediction)/jit(predict_precision)/jit(_where)/select_n" source_file="/fs04/fc37/adam/projects/psilocybin-prl-analyses/src/prl_hgf/env/pat_rl_simulator.py" source_line=92}
  ROOT tuple.325 = (f64[20]{0}, f64[120,20]{1,0}) tuple(select.322, select.324)
} // _where.315

integer_pow_13.326 {
  constant.328 = f64[] constant(1)
  broadcast.329 = f64[20]{0} broadcast(constant.328), dimensions={}
  Arg_0.327 = f64[20]{0} parameter(0), metadata={op_name="jit(scan)/jit(main)/while/body/jit(beliefs_propagation)/jit(continuous_node_prediction)/jit(predict_precision)/integer_pow[y=-2]"}
  multiply.330 = f64[20]{0} multiply(Arg_0.327, Arg_0.327), metadata={op_name="jit(scan)/jit(main)/while/body/jit(beliefs_propagation)/jit(continuous_node_prediction)/jit(predict_precision)/mul" source_file="/fs04/fc37/adam/projects/psilocybin-prl-analyses/src/prl_hgf/fitting/hierarchical_patrl.py" source_line=362}
  ROOT divide.331 = f64[20]{0} divide(broadcast.329, multiply.330), metadata={op_name="jit(scan)/jit(main)/while/body/jit(beliefs_propagation)/jit(continuous_node_prediction)/jit(predict_precision)/div" source_file="/fs04/fc37/adam/projects/psilocybin-prl-analyses/src/prl_hgf/fitting/hierarchical_patrl.py" source_line=362}
}

integer_pow_14.332 {
  constant.334 = f64[] constant(1)
  broadcast.335 = f64[20]{0} broadcast(constant.334), dimensions={}
  Arg_0.333 = f64[20]{0} parameter(0), metadata={op_name="jit(scan)/jit(main)/while/body/jit(beliefs_propagation)/jit(continuous_node_prediction)/jit(predict_precision)/integer_pow[y=-2]"}
  multiply.336 = f64[20]{0} multiply(Arg_0.333, Arg_0.333), metadata={op_name="jit(scan)/jit(main)/while/body/jit(beliefs_propagation)/jit(continuous_node_prediction)/jit(predict_precision)/mul" source_file="/fs04/fc37/adam/projects/psilocybin-prl-analyses/src/prl_hgf/fitting/hierarchical_patrl.py" source_line=362}
  ROOT divide.337 = f64[20]{0} divide(broadcast.335, multiply.336), metadata={op_name="jit(scan)/jit(main)/while/body/jit(beliefs_propagation)/jit(continuous_node_prediction)/jit(predict_precision)/div" source_file="/fs04/fc37/adam/projects/psilocybin-prl-analyses/src/prl_hgf/fitting/hierarchical_patrl.py" source_line=362}
}

integer_pow_15.338 {
  constant.340 = f64[] constant(1)
  broadcast.341 = f64[20]{0} broadcast(constant.340), dimensions={}
  Arg_0.339 = f64[20]{0} parameter(0), metadata={op_name="jit(scan)/jit(main)/while/body/jit(beliefs_propagation)/jit(continuous_node_prediction)/jit(predict_precision)/integer_pow[y=-3]"}
  multiply.342 = f64[20]{0} multiply(Arg_0.339, Arg_0.339), metadata={op_name="jit(scan)/jit(main)/while/body/jit(beliefs_propagation)/jit(continuous_node_prediction)/jit(predict_precision)/mul" source_file="/fs04/fc37/adam/projects/psilocybin-prl-analyses/src/prl_hgf/fitting/hierarchical_patrl.py" source_line=362}
  multiply.343 = f64[20]{0} multiply(Arg_0.339, multiply.342), metadata={op_name="jit(scan)/jit(main)/while/body/jit(beliefs_propagation)/jit(continuous_node_prediction)/jit(predict_precision)/mul" source_file="/fs04/fc37/adam/projects/psilocybin-prl-analyses/src/prl_hgf/fitting/hierarchical_patrl.py" source_line=362}
  ROOT divide.344 = f64[20]{0} divide(broadcast.341, multiply.343), metadata={op_name="jit(scan)/jit(main)/while/body/jit(beliefs_propagation)/jit(continuous_node_prediction)/jit(predict_precision)/div" source_file="/fs04/fc37/adam/projects/psilocybin-prl-analyses/src/prl_hgf/fitting/hierarchical_patrl.py" source_line=362}
} // integer_pow_15.338

integer_pow_16.345 {
  constant.347 = f64[] constant(1)
  broadcast.348 = f64[20]{0} broadcast(constant.347), dimensions={}
  Arg_0.346 = f64[20]{0} parameter(0), metadata={op_name="jit(scan)/jit(main)/while/body/jit(beliefs_propagation)/jit(continuous_node_prediction)/jit(predict_precision)/integer_pow[y=-2]"}
  multiply.349 = f64[20]{0} multiply(Arg_0.346, Arg_0.346), metadata={op_name="jit(scan)/jit(main)/while/body/jit(beliefs_propagation)/jit(continuous_node_prediction)/jit(predict_precision)/mul" source_file="/fs04/fc37/adam/projects/psilocybin-prl-analyses/src/prl_hgf/fitting/hierarchical_patrl.py" source_line=362}
  ROOT divide.350 = f64[20]{0} divide(broadcast.348, multiply.349), metadata={op_name="jit(scan)/jit(main)/while/body/jit(beliefs_propagation)/jit(continuous_node_prediction)/jit(predict_precision)/div" source_file="/fs04/fc37/adam/projects/psilocybin-prl-analyses/src/prl_hgf/fitting/hierarchical_patrl.py" source_line=362}
}

integer_pow_17.351 {
  constant.353 = f64[] constant(1)
  broadcast.354 = f64[20]{0} broadcast(constant.353), dimensions={}
  Arg_0.352 = f64[20]{0} parameter(0), metadata={op_name="jit(scan)/jit(main)/while/body/jit(beliefs_propagation)/jit(continuous_node_prediction)/jit(predict_precision)/integer_pow[y=-3]"}
  multiply.355 = f64[20]{0} multiply(Arg_0.352, Arg_0.352), metadata={op_name="jit(scan)/jit(main)/while/body/jit(beliefs_propagation)/jit(continuous_node_prediction)/jit(predict_precision)/mul" source_file="/fs04/fc37/adam/projects/psilocybin-prl-analyses/src/prl_hgf/fitting/hierarchical_patrl.py" source_line=362}
  multiply.356 = f64[20]{0} multiply(Arg_0.352, multiply.355), metadata={op_name="jit(scan)/jit(main)/while/body/jit(beliefs_propagation)/jit(continuous_node_prediction)/jit(predict_precision)/mul" source_file="/fs04/fc37/adam/projects/psilocybin-prl-analyses/src/prl_hgf/fitting/hierarchical_patrl.py" source_line=362}
  ROOT divide.357 = f64[20]{0} divide(broadcast.354, multiply.356), metadata={op_name="jit(scan)/jit(main)/while/body/jit(beliefs_propagation)/jit(continuous_node_prediction)/jit(predict_precision)/div" source_file="/fs04/fc37/adam/projects/psilocybin-prl-analyses/src/prl_hgf/fitting/hierarchical_patrl.py" source_line=362}
} // integer_pow_17.351

predict_precision_11.358 {
  constant.372 = f64[] constant(1)
  broadcast.373 = f64[20]{0} broadcast(constant.372), dimensions={}
  Arg_1.360 = f64[20]{0} parameter(1), metadata={op_name="jit(scan)/jit(main)/while/body/jit(beliefs_propagation)/jit(continuous_node_prediction)/pjit[in_shardings=(UnspecifiedValue, UnspecifiedValue, UnspecifiedValue, UnspecifiedValue, UnspecifiedValue, UnspecifiedValue, UnspecifiedValue, UnspecifiedValue, UnspecifiedValue) out_shardings=(UnspecifiedValue, UnspecifiedValue, UnspecifiedValue, UnspecifiedValue, UnspecifiedValue, UnspecifiedValue, UnspecifiedValue, UnspecifiedValue, UnspecifiedValue, UnspecifiedValue, UnspecifiedValue, UnspecifiedValue, UnspecifiedValue, UnspecifiedValue) in_layouts=(None, None, None, None, None, None, None, None, None) out_layouts=(None, None, None, None, None, None, None, None, None, None, None, None, None, None) resource_env=None donated_invars=(False, False, False, False, False, False, False, False, False) name=predict_precision keep_unused=False inline=False]"}
  divide.374 = f64[20]{0} divide(broadcast.373, Arg_1.360), metadata={op_name="jit(scan)/jit(main)/while/body/jit(beliefs_propagation)/jit(continuous_node_prediction)/jit(predict_precision)/div" source_file="/fs04/fc37/adam/projects/psilocybin-prl-analyses/src/prl_hgf/fitting/hierarchical_patrl.py" source_line=362}
  Arg_0.359 = f64[] parameter(0), metadata={op_name="jit(scan)/jit(main)/while/body/jit(beliefs_propagation)/jit(continuous_node_prediction)/pjit[in_shardings=(UnspecifiedValue, UnspecifiedValue, UnspecifiedValue, UnspecifiedValue, UnspecifiedValue, UnspecifiedValue, UnspecifiedValue, UnspecifiedValue, UnspecifiedValue) out_shardings=(UnspecifiedValue, UnspecifiedValue, UnspecifiedValue, UnspecifiedValue, UnspecifiedValue, UnspecifiedValue, UnspecifiedValue, UnspecifiedValue, UnspecifiedValue, UnspecifiedValue, UnspecifiedValue, UnspecifiedValue, UnspecifiedValue, UnspecifiedValue) in_layouts=(None, None, None, None, None, None, None, None, None) out_layouts=(None, None, None, None, None, None, None, None, None, None, None, None, None, None) resource_env=None donated_invars=(False, False, False, False, False, False, False, False, False) name=predict_precision keep_unused=False inline=False]"}
  broadcast.397 = f64[20]{0} broadcast(Arg_0.359), dimensions={}, metadata={op_name="jit(scan)/jit(main)/while/body/jit(beliefs_propagation)/jit(continuous_node_prediction)/jit(predict_precision)/mul" source_file="/fs04/fc37/adam/projects/psilocybin-prl-analyses/src/prl_hgf/fitting/hierarchical_patrl.py" source_line=362}
  Arg_2.361 = f64[20]{0} parameter(2), metadata={op_name="jit(scan)/jit(main)/while/body/jit(beliefs_propagation)/jit(continuous_node_prediction)/pjit[in_shardings=(UnspecifiedValue, UnspecifiedValue, UnspecifiedValue, UnspecifiedValue, UnspecifiedValue, UnspecifiedValue, UnspecifiedValue, UnspecifiedValue, UnspecifiedValue) out_shardings=(UnspecifiedValue, UnspecifiedValue, UnspecifiedValue, UnspecifiedValue, UnspecifiedValue, UnspecifiedValue, UnspecifiedValue, UnspecifiedValue, UnspecifiedValue, UnspecifiedValue, UnspecifiedValue, UnspecifiedValue, UnspecifiedValue, UnspecifiedValue) in_layouts=(None, None, None, None, None, None, None, None, None) out_layouts=(None, None, None, None, None, None, None, None, None, None, None, None, None, None) resource_env=None donated_invars=(False, False, False, False, False, False, False, False, False) name=predict_precision keep_unused=False inline=False]"}
  Arg_3.362 = f64[20,1]{1,0} parameter(3), metadata={op_name="jit(scan)/jit(main)/while/body/jit(beliefs_propagation)/jit(continuous_node_prediction)/pjit[in_shardings=(UnspecifiedValue, UnspecifiedValue, UnspecifiedValue, UnspecifiedValue, UnspecifiedValue, UnspecifiedValue, UnspecifiedValue, UnspecifiedValue, UnspecifiedValue) out_shardings=(UnspecifiedValue, UnspecifiedValue, UnspecifiedValue, UnspecifiedValue, UnspecifiedValue, UnspecifiedValue, UnspecifiedValue, UnspecifiedValue, UnspecifiedValue, UnspecifiedValue, UnspecifiedValue, UnspecifiedValue, UnspecifiedValue, UnspecifiedValue) in_layouts=(None, None, None, None, None, None, None, None, None) out_layouts=(None, None, None, None, None, None, None, None, None, None, None, None, None, None) resource_env=None donated_invars=(False, False, False, False, False, False, False, False, False) name=predict_precision keep_unused=False inline=False]"}
  reshape.382 = f64[20]{0} reshape(Arg_3.362), metadata={op_name="jit(scan)/jit(main)/while/body/jit(beliefs_propagation)/jit(continuous_node_prediction)/jit(predict_precision)/squeeze[dimensions=(1,)]" source_file="/fs04/fc37/adam/projects/psilocybin-prl-analyses/src/prl_hgf/fitting/hierarchical_patrl.py" source_line=362}
  Arg_4.363 = f64[20]{0} parameter(4), metadata={op_name="jit(scan)/jit(main)/while/body/jit(beliefs_propagation)/jit(continuous_node_prediction)/pjit[in_shardings=(UnspecifiedValue, UnspecifiedValue, UnspecifiedValue, UnspecifiedValue, UnspecifiedValue, UnspecifiedValue, UnspecifiedValue, UnspecifiedValue, UnspecifiedValue) out_shardings=(UnspecifiedValue, UnspecifiedValue, UnspecifiedValue, UnspecifiedValue, UnspecifiedValue, UnspecifiedValue, UnspecifiedValue, UnspecifiedValue, UnspecifiedValue, UnspecifiedValue, UnspecifiedValue, UnspecifiedValue, UnspecifiedValue, UnspecifiedValue) in_layouts=(None, None, None, None, None, None, None, None, None) out_layouts=(None, None, None, None, None, None, None, None, None, None, None, None, None, None) resource_env=None donated_invars=(False, False, False, False, False, False, False, False, False) name=predict_precision keep_unused=False inline=False]"}
  multiply.383 = f64[20]{0} multiply(reshape.382, Arg_4.363), metadata={op_name="jit(scan)/jit(main)/while/body/jit(beliefs_propagation)/jit(continuous_node_prediction)/jit(predict_precision)/mul" source_file="/fs04/fc37/adam/projects/psilocybin-prl-analyses/src/prl_hgf/fitting/hierarchical_patrl.py" source_line=362}
  add.389 = f64[20]{0} add(Arg_2.361, multiply.383), metadata={op_name="jit(scan)/jit(main)/while/body/jit(beliefs_propagation)/jit(continuous_node_prediction)/jit(predict_precision)/add" source_file="/fs04/fc37/adam/projects/psilocybin-prl-analyses/src/prl_hgf/fitting/hierarchical_patrl.py" source_line=362}
  exponential.391 = f64[20]{0} exponential(add.389), metadata={op_name="jit(scan)/jit(main)/while/body/jit(beliefs_propagation)/jit(continuous_node_prediction)/jit(predict_precision)/exp" source_file="/fs04/fc37/adam/projects/psilocybin-prl-analyses/src/prl_hgf/fitting/hierarchical_patrl.py" source_line=362}
  multiply.398 = f64[20]{0} multiply(broadcast.397, exponential.391), metadata={op_name="jit(scan)/jit(main)/while/body/jit(beliefs_propagation)/jit(continuous_node_prediction)/jit(predict_precision)/mul" source_file="/fs04/fc37/adam/projects/psilocybin-prl-analyses/src/prl_hgf/fitting/hierarchical_patrl.py" source_line=362}
  constant.370 = f64[] constant(1e-128)
  broadcast.371 = f64[20]{0} broadcast(constant.370), dimensions={}
  compare.401 = pred[20]{0} compare(multiply.398, broadcast.371), direction=GT, metadata={op_name="jit(scan)/jit(main)/while/body/jit(beliefs_propagation)/jit(continuous_node_prediction)/jit(predict_precision)/gt" source_file="/fs04/fc37/adam/projects/psilocybin-prl-analyses/src/prl_hgf/fitting/hierarchical_patrl.py" source_line=362}
  Arg_5.364 = f64[20]{0} parameter(5), metadata={op_name="jit(scan)/jit(main)/while/body/jit(beliefs_propagation)/jit(continuous_node_prediction)/pjit[in_shardings=(UnspecifiedValue, UnspecifiedValue, UnspecifiedValue, UnspecifiedValue, UnspecifiedValue, UnspecifiedValue, UnspecifiedValue, UnspecifiedValue, UnspecifiedValue) out_shardings=(UnspecifiedValue, UnspecifiedValue, UnspecifiedValue, UnspecifiedValue, UnspecifiedValue, UnspecifiedValue, UnspecifiedValue, UnspecifiedValue, UnspecifiedValue, UnspecifiedValue, UnspecifiedValue, UnspecifiedValue, UnspecifiedValue, UnspecifiedValue) in_layouts=(None, None, None, None, None, None, None, None, None) out_layouts=(None, None, None, None, None, None, None, None, None, None, None, None, None, None) resource_env=None donated_invars=(False, False, False, False, False, False, False, False, False) name=predict_precision keep_unused=False inline=False]"}
  broadcast.399 = f64[120,20]{1,0} broadcast(Arg_0.359), dimensions={}, metadata={op_name="jit(scan)/jit(main)/while/body/jit(beliefs_propagation)/jit(continuous_node_prediction)/jit(predict_precision)/mul" source_file="/fs04/fc37/adam/projects/psilocybin-prl-analyses/src/prl_hgf/fitting/hierarchical_patrl.py" source_line=362}
  Arg_7.366 = f64[120,20]{1,0} parameter(7), metadata={op_name="jit(scan)/jit(main)/while/body/jit(beliefs_propagation)/jit(continuous_node_prediction)/pjit[in_shardings=(UnspecifiedValue, UnspecifiedValue, UnspecifiedValue, UnspecifiedValue, UnspecifiedValue, UnspecifiedValue, UnspecifiedValue, UnspecifiedValue, UnspecifiedValue) out_shardings=(UnspecifiedValue, UnspecifiedValue, UnspecifiedValue, UnspecifiedValue, UnspecifiedValue, UnspecifiedValue, UnspecifiedValue, UnspecifiedValue, UnspecifiedValue, UnspecifiedValue, UnspecifiedValue, UnspecifiedValue, UnspecifiedValue, UnspecifiedValue) in_layouts=(None, None, None, None, None, None, None, None, None) out_layouts=(None, None, None, None, None, None, None, None, None, None, None, None, None, None) resource_env=None donated_invars=(False, False, False, False, False, False, False, False, False) name=predict_precision keep_unused=False inline=False]"}
  reshape.384 = f64[1,20]{1,0} reshape(Arg_3.362), metadata={op_name="jit(scan)/jit(main)/while/body/jit(beliefs_propagation)/jit(continuous_node_prediction)/jit(predict_precision)/broadcast_in_dim[shape=(1, 20) broadcast_dimensions=(np.int64(1),)]" source_file="/fs04/fc37/adam/projects/psilocybin-prl-analyses/src/prl_hgf/fitting/hierarchical_patrl.py" source_line=362}
  broadcast.385 = f64[1,20]{1,0} broadcast(reshape.384), dimensions={0,1}, metadata={op_name="jit(scan)/jit(main)/while/body/jit(beliefs_propagation)/jit(continuous_node_prediction)/jit(predict_precision)/mul" source_file="/fs04/fc37/adam/projects/psilocybin-prl-analyses/src/prl_hgf/fitting/hierarchical_patrl.py" source_line=362}
  reshape.386 = f64[20]{0} reshape(broadcast.385), metadata={op_name="jit(scan)/jit(main)/while/body/jit(beliefs_propagation)/jit(continuous_node_prediction)/jit(predict_precision)/mul" source_file="/fs04/fc37/adam/projects/psilocybin-prl-analyses/src/prl_hgf/fitting/hierarchical_patrl.py" source_line=362}
  broadcast.387 = f64[120,20]{1,0} broadcast(reshape.386), dimensions={1}, metadata={op_name="jit(scan)/jit(main)/while/body/jit(beliefs_propagation)/jit(continuous_node_prediction)/jit(predict_precision)/mul" source_file="/fs04/fc37/adam/projects/psilocybin-prl-analyses/src/prl_hgf/fitting/hierarchical_patrl.py" source_line=362}
  Arg_8.367 = f64[120,20]{1,0} parameter(8), metadata={op_name="jit(scan)/jit(main)/while/body/jit(beliefs_propagation)/jit(continuous_node_prediction)/pjit[in_shardings=(UnspecifiedValue, UnspecifiedValue, UnspecifiedValue, UnspecifiedValue, UnspecifiedValue, UnspecifiedValue, UnspecifiedValue, UnspecifiedValue, UnspecifiedValue) out_shardings=(UnspecifiedValue, UnspecifiedValue, UnspecifiedValue, UnspecifiedValue, UnspecifiedValue, UnspecifiedValue, UnspecifiedValue, UnspecifiedValue, UnspecifiedValue, UnspecifiedValue, UnspecifiedValue, UnspecifiedValue, UnspecifiedValue, UnspecifiedValue) in_layouts=(None, None, None, None, None, None, None, None, None) out_layouts=(None, None, None, None, None, None, None, None, None, None, None, None, None, None) resource_env=None donated_invars=(False, False, False, False, False, False, False, False, False) name=predict_precision keep_unused=False inline=False]"}
  multiply.388 = f64[120,20]{1,0} multiply(broadcast.387, Arg_8.367), metadata={op_name="jit(scan)/jit(main)/while/body/jit(beliefs_propagation)/jit(continuous_node_prediction)/jit(predict_precision)/mul" source_file="/fs04/fc37/adam/projects/psilocybin-prl-analyses/src/prl_hgf/fitting/hierarchical_patrl.py" source_line=362}
  add.390 = f64[120,20]{1,0} add(Arg_7.366, multiply.388), metadata={op_name="jit(scan)/jit(main)/while/body/jit(beliefs_propagation)/jit(continuous_node_prediction)/jit(predict_precision)/add" source_file="/fs04/fc37/adam/projects/psilocybin-prl-analyses/src/prl_hgf/fitting/hierarchical_patrl.py" source_line=362}
  reshape.392 = f64[1,20]{1,0} reshape(exponential.391), metadata={op_name="jit(scan)/jit(main)/while/body/jit(beliefs_propagation)/jit(continuous_node_prediction)/jit(predict_precision)/broadcast_in_dim[shape=(1, 20) broadcast_dimensions=(np.int64(1),)]" source_file="/fs04/fc37/adam/projects/psilocybin-prl-analyses/src/prl_hgf/fitting/hierarchical_patrl.py" source_line=362}
  broadcast.393 = f64[1,20]{1,0} broadcast(reshape.392), dimensions={0,1}, metadata={op_name="jit(scan)/jit(main)/while/body/jit(beliefs_propagation)/jit(continuous_node_prediction)/jit(predict_precision)/mul" source_file="/fs04/fc37/adam/projects/psilocybin-prl-analyses/src/prl_hgf/fitting/hierarchical_patrl.py" source_line=362}
  reshape.394 = f64[20]{0} reshape(broadcast.393), metadata={op_name="jit(scan)/jit(main)/while/body/jit(beliefs_propagation)/jit(continuous_node_prediction)/jit(predict_precision)/mul" source_file="/fs04/fc37/adam/projects/psilocybin-prl-analyses/src/prl_hgf/fitting/hierarchical_patrl.py" source_line=362}
  broadcast.395 = f64[120,20]{1,0} broadcast(reshape.394), dimensions={1}, metadata={op_name="jit(scan)/jit(main)/while/body/jit(beliefs_propagation)/jit(continuous_node_prediction)/jit(predict_precision)/mul" source_file="/fs04/fc37/adam/projects/psilocybin-prl-analyses/src/prl_hgf/fitting/hierarchical_patrl.py" source_line=362}
  multiply.396 = f64[120,20]{1,0} multiply(add.390, broadcast.395), metadata={op_name="jit(scan)/jit(main)/while/body/jit(beliefs_propagation)/jit(continuous_node_prediction)/jit(predict_precision)/mul" source_file="/fs04/fc37/adam/projects/psilocybin-prl-analyses/src/prl_hgf/fitting/hierarchical_patrl.py" source_line=362}
  multiply.400 = f64[120,20]{1,0} multiply(broadcast.399, multiply.396), metadata={op_name="jit(scan)/jit(main)/while/body/jit(beliefs_propagation)/jit(continuous_node_prediction)/jit(predict_precision)/mul" source_file="/fs04/fc37/adam/projects/psilocybin-prl-analyses/src/prl_hgf/fitting/hierarchical_patrl.py" source_line=362}
  call.402 = (f64[20]{0}, f64[120,20]{1,0}) call(compare.401, multiply.398, Arg_5.364, multiply.400), to_apply=_where.315
  get-tuple-element.403 = f64[20]{0} get-tuple-element(call.402), index=0
  add.405 = f64[20]{0} add(divide.374, get-tuple-element.403), metadata={op_name="jit(scan)/jit(main)/while/body/jit(beliefs_propagation)/jit(continuous_node_prediction)/jit(predict_precision)/add" source_file="/fs04/fc37/adam/projects/psilocybin-prl-analyses/src/prl_hgf/fitting/hierarchical_patrl.py" source_line=362}
  divide.407 = f64[20]{0} divide(broadcast.373, add.405), metadata={op_name="jit(scan)/jit(main)/while/body/jit(beliefs_propagation)/jit(continuous_node_prediction)/jit(predict_precision)/div" source_file="/fs04/fc37/adam/projects/psilocybin-prl-analyses/src/prl_hgf/fitting/hierarchical_patrl.py" source_line=362}
  multiply.415 = f64[20]{0} multiply(get-tuple-element.403, divide.407), metadata={op_name="jit(scan)/jit(main)/while/body/jit(beliefs_propagation)/jit(continuous_node_prediction)/jit(predict_precision)/mul" source_file="/fs04/fc37/adam/projects/psilocybin-prl-analyses/src/prl_hgf/fitting/hierarchical_patrl.py" source_line=362}
  call.427 = f64[20]{0} call(Arg_1.360), to_apply=integer_pow_14.332
  call.435 = f64[20]{0} call(add.405), to_apply=integer_pow_16.345
  Arg_6.365 = f64[120,20]{1,0} parameter(6), metadata={op_name="jit(scan)/jit(main)/while/body/jit(beliefs_propagation)/jit(continuous_node_prediction)/pjit[in_shardings=(UnspecifiedValue, UnspecifiedValue, UnspecifiedValue, UnspecifiedValue, UnspecifiedValue, UnspecifiedValue, UnspecifiedValue, UnspecifiedValue, UnspecifiedValue) out_shardings=(UnspecifiedValue, UnspecifiedValue, UnspecifiedValue, UnspecifiedValue, UnspecifiedValue, UnspecifiedValue, UnspecifiedValue, UnspecifiedValue, UnspecifiedValue, UnspecifiedValue, UnspecifiedValue, UnspecifiedValue, UnspecifiedValue, UnspecifiedValue) in_layouts=(None, None, None, None, None, None, None, None, None) out_layouts=(None, None, None, None, None, None, None, None, None, None, None, None, None, None) resource_env=None donated_invars=(False, False, False, False, False, False, False, False, False) name=predict_precision keep_unused=False inline=False]"}
  negate.375 = f64[120,20]{1,0} negate(Arg_6.365), metadata={op_name="jit(scan)/jit(main)/while/body/jit(beliefs_propagation)/jit(continuous_node_prediction)/jit(predict_precision)/neg" source_file="/fs04/fc37/adam/projects/psilocybin-prl-analyses/src/prl_hgf/fitting/hierarchical_patrl.py" source_line=362}
  call.376 = f64[20]{0} call(Arg_1.360), to_apply=integer_pow_12.309
  reshape.377 = f64[1,20]{1,0} reshape(call.376), metadata={op_name="jit(scan)/jit(main)/while/body/jit(beliefs_propagation)/jit(continuous_node_prediction)/jit(predict_precision)/broadcast_in_dim[shape=(1, 20) broadcast_dimensions=(np.int64(1),)]" source_file="/fs04/fc37/adam/projects/psilocybin-prl-analyses/src/prl_hgf/fitting/hierarchical_patrl.py" source_line=362}
  broadcast.378 = f64[1,20]{1,0} broadcast(reshape.377), dimensions={0,1}, metadata={op_name="jit(scan)/jit(main)/while/body/jit(beliefs_propagation)/jit(continuous_node_prediction)/jit(predict_precision)/mul" source_file="/fs04/fc37/adam/projects/psilocybin-prl-analyses/src/prl_hgf/fitting/hierarchical_patrl.py" source_line=362}
  reshape.379 = f64[20]{0} reshape(broadcast.378), metadata={op_name="jit(scan)/jit(main)/while/body/jit(beliefs_propagation)/jit(continuous_node_prediction)/jit(predict_precision)/mul" source_file="/fs04/fc37/adam/projects/psilocybin-prl-analyses/src/prl_hgf/fitting/hierarchical_patrl.py" source_line=362}
  broadcast.380 = f64[120,20]{1,0} broadcast(reshape.379), dimensions={1}, metadata={op_name="jit(scan)/jit(main)/while/body/jit(beliefs_propagation)/jit(continuous_node_prediction)/jit(predict_precision)/mul" source_file="/fs04/fc37/adam/projects/psilocybin-prl-analyses/src/prl_hgf/fitting/hierarchical_patrl.py" source_line=362}
  multiply.381 = f64[120,20]{1,0} multiply(negate.375, broadcast.380), metadata={op_name="jit(scan)/jit(main)/while/body/jit(beliefs_propagation)/jit(continuous_node_prediction)/jit(predict_precision)/mul" source_file="/fs04/fc37/adam/projects/psilocybin-prl-analyses/src/prl_hgf/fitting/hierarchical_patrl.py" source_line=362}
  get-tuple-element.404 = f64[120,20]{1,0} get-tuple-element(call.402), index=1
  add.406 = f64[120,20]{1,0} add(multiply.381, get-tuple-element.404), metadata={op_name="jit(scan)/jit(main)/while/body/jit(beliefs_propagation)/jit(continuous_node_prediction)/jit(predict_precision)/add" source_file="/fs04/fc37/adam/projects/psilocybin-prl-analyses/src/prl_hgf/fitting/hierarchical_patrl.py" source_line=362}
  negate.408 = f64[120,20]{1,0} negate(add.406), metadata={op_name="jit(scan)/jit(main)/while/body/jit(beliefs_propagation)/jit(continuous_node_prediction)/jit(predict_precision)/neg" source_file="/fs04/fc37/adam/projects/psilocybin-prl-analyses/src/prl_hgf/fitting/hierarchical_patrl.py" source_line=362}
  call.409 = f64[20]{0} call(add.405), to_apply=integer_pow_13.326
  reshape.410 = f64[1,20]{1,0} reshape(call.409), metadata={op_name="jit(scan)/jit(main)/while/body/jit(beliefs_propagation)/jit(continuous_node_prediction)/jit(predict_precision)/broadcast_in_dim[shape=(1, 20) broadcast_dimensions=(np.int64(1),)]" source_file="/fs04/fc37/adam/projects/psilocybin-prl-analyses/src/prl_hgf/fitting/hierarchical_patrl.py" source_line=362}
  broadcast.411 = f64[1,20]{1,0} broadcast(reshape.410), dimensions={0,1}, metadata={op_name="jit(scan)/jit(main)/while/body/jit(beliefs_propagation)/jit(continuous_node_prediction)/jit(predict_precision)/mul" source_file="/fs04/fc37/adam/projects/psilocybin-prl-analyses/src/prl_hgf/fitting/hierarchical_patrl.py" source_line=362}
  reshape.412 = f64[20]{0} reshape(broadcast.411), metadata={op_name="jit(scan)/jit(main)/while/body/jit(beliefs_propagation)/jit(continuous_node_prediction)/jit(predict_precision)/mul" source_file="/fs04/fc37/adam/projects/psilocybin-prl-analyses/src/prl_hgf/fitting/hierarchical_patrl.py" source_line=362}
  broadcast.413 = f64[120,20]{1,0} broadcast(reshape.412), dimensions={1}, metadata={op_name="jit(scan)/jit(main)/while/body/jit(beliefs_propagation)/jit(continuous_node_prediction)/jit(predict_precision)/mul" source_file="/fs04/fc37/adam/projects/psilocybin-prl-analyses/src/prl_hgf/fitting/hierarchical_patrl.py" source_line=362}
  multiply.414 = f64[120,20]{1,0} multiply(negate.408, broadcast.413), metadata={op_name="jit(scan)/jit(main)/while/body/jit(beliefs_propagation)/jit(continuous_node_prediction)/jit(predict_precision)/mul" source_file="/fs04/fc37/adam/projects/psilocybin-prl-analyses/src/prl_hgf/fitting/hierarchical_patrl.py" source_line=362}
  reshape.416 = f64[1,20]{1,0} reshape(divide.407), metadata={op_name="jit(scan)/jit(main)/while/body/jit(beliefs_propagation)/jit(continuous_node_prediction)/jit(predict_precision)/broadcast_in_dim[shape=(1, 20) broadcast_dimensions=(np.int64(1),)]" source_file="/fs04/fc37/adam/projects/psilocybin-prl-analyses/src/prl_hgf/fitting/hierarchical_patrl.py" source_line=362}
  broadcast.417 = f64[1,20]{1,0} broadcast(reshape.416), dimensions={0,1}, metadata={op_name="jit(scan)/jit(main)/while/body/jit(beliefs_propagation)/jit(continuous_node_prediction)/jit(predict_precision)/mul" source_file="/fs04/fc37/adam/projects/psilocybin-prl-analyses/src/prl_hgf/fitting/hierarchical_patrl.py" source_line=362}
  reshape.418 = f64[20]{0} reshape(broadcast.417), metadata={op_name="jit(scan)/jit(main)/while/body/jit(beliefs_propagation)/jit(continuous_node_prediction)/jit(predict_precision)/mul" source_file="/fs04/fc37/adam/projects/psilocybin-prl-analyses/src/prl_hgf/fitting/hierarchical_patrl.py" source_line=362}
  broadcast.419 = f64[120,20]{1,0} broadcast(reshape.418), dimensions={1}, metadata={op_name="jit(scan)/jit(main)/while/body/jit(beliefs_propagation)/jit(continuous_node_prediction)/jit(predict_precision)/mul" source_file="/fs04/fc37/adam/projects/psilocybin-prl-analyses/src/prl_hgf/fitting/hierarchical_patrl.py" source_line=362}
  multiply.420 = f64[120,20]{1,0} multiply(get-tuple-element.404, broadcast.419), metadata={op_name="jit(scan)/jit(main)/while/body/jit(beliefs_propagation)/jit(continuous_node_prediction)/jit(predict_precision)/mul" source_file="/fs04/fc37/adam/projects/psilocybin-prl-analyses/src/prl_hgf/fitting/hierarchical_patrl.py" source_line=362}
  reshape.421 = f64[1,20]{1,0} reshape(get-tuple-element.403), metadata={op_name="jit(scan)/jit(main)/while/body/jit(beliefs_propagation)/jit(continuous_node_prediction)/jit(predict_precision)/broadcast_in_dim[shape=(1, 20) broadcast_dimensions=(np.int64(1),)]" source_file="/fs04/fc37/adam/projects/psilocybin-prl-analyses/src/prl_hgf/fitting/hierarchical_patrl.py" source_line=362}
  broadcast.422 = f64[1,20]{1,0} broadcast(reshape.421), dimensions={0,1}, metadata={op_name="jit(scan)/jit(main)/while/body/jit(beliefs_propagation)/jit(continuous_node_prediction)/jit(predict_precision)/mul" source_file="/fs04/fc37/adam/projects/psilocybin-prl-analyses/src/prl_hgf/fitting/hierarchical_patrl.py" source_line=362}
  reshape.423 = f64[20]{0} reshape(broadcast.422), metadata={op_name="jit(scan)/jit(main)/while/body/jit(beliefs_propagation)/jit(continuous_node_prediction)/jit(predict_precision)/mul" source_file="/fs04/fc37/adam/projects/psilocybin-prl-analyses/src/prl_hgf/fitting/hierarchical_patrl.py" source_line=362}
  broadcast.424 = f64[120,20]{1,0} broadcast(reshape.423), dimensions={1}, metadata={op_name="jit(scan)/jit(main)/while/body/jit(beliefs_propagation)/jit(continuous_node_prediction)/jit(predict_precision)/mul" source_file="/fs04/fc37/adam/projects/psilocybin-prl-analyses/src/prl_hgf/fitting/hierarchical_patrl.py" source_line=362}
  multiply.425 = f64[120,20]{1,0} multiply(broadcast.424, multiply.414), metadata={op_name="jit(scan)/jit(main)/while/body/jit(beliefs_propagation)/jit(continuous_node_prediction)/jit(predict_precision)/mul" source_file="/fs04/fc37/adam/projects/psilocybin-prl-analyses/src/prl_hgf/fitting/hierarchical_patrl.py" source_line=362}
  add.426 = f64[120,20]{1,0} add(multiply.420, multiply.425), metadata={op_name="jit(scan)/jit(main)/while/body/jit(beliefs_propagation)/jit(continuous_node_prediction)/jit(predict_precision)/add_any" source_file="/fs04/fc37/adam/projects/psilocybin-prl-analyses/src/prl_hgf/fitting/hierarchical_patrl.py" source_line=362}
  call.428 = f64[20]{0} call(Arg_1.360), to_apply=integer_pow_15.338
  constant.368 = f64[] constant(-2)
  broadcast.369 = f64[20]{0} broadcast(constant.368), dimensions={}
  multiply.429 = f64[20]{0} multiply(call.428, broadcast.369), metadata={op_name="jit(scan)/jit(main)/while/body/jit(beliefs_propagation)/jit(continuous_node_prediction)/jit(predict_precision)/mul" source_file="/fs04/fc37/adam/projects/psilocybin-prl-analyses/src/prl_hgf/fitting/hierarchical_patrl.py" source_line=362}
  reshape.430 = f64[1,20]{1,0} reshape(multiply.429), metadata={op_name="jit(scan)/jit(main)/while/body/jit(beliefs_propagation)/jit(continuous_node_prediction)/jit(predict_precision)/broadcast_in_dim[shape=(1, 20) broadcast_dimensions=(np.int64(1),)]" source_file="/fs04/fc37/adam/projects/psilocybin-prl-analyses/src/prl_hgf/fitting/hierarchical_patrl.py" source_line=362}
  broadcast.431 = f64[1,20]{1,0} broadcast(reshape.430), dimensions={0,1}, metadata={op_name="jit(scan)/jit(main)/while/body/jit(beliefs_propagation)/jit(continuous_node_prediction)/jit(predict_precision)/mul" source_file="/fs04/fc37/adam/projects/psilocybin-prl-analyses/src/prl_hgf/fitting/hierarchical_patrl.py" source_line=362}
  reshape.432 = f64[20]{0} reshape(broadcast.431), metadata={op_name="jit(scan)/jit(main)/while/body/jit(beliefs_propagation)/jit(continuous_node_prediction)/jit(predict_precision)/mul" source_file="/fs04/fc37/adam/projects/psilocybin-prl-analyses/src/prl_hgf/fitting/hierarchical_patrl.py" source_line=362}
  broadcast.433 = f64[120,20]{1,0} broadcast(reshape.432), dimensions={1}, metadata={op_name="jit(scan)/jit(main)/while/body/jit(beliefs_propagation)/jit(continuous_node_prediction)/jit(predict_precision)/mul" source_file="/fs04/fc37/adam/projects/psilocybin-prl-analyses/src/prl_hgf/fitting/hierarchical_patrl.py" source_line=362}
  multiply.434 = f64[120,20]{1,0} multiply(Arg_6.365, broadcast.433), metadata={op_name="jit(scan)/jit(main)/while/body/jit(beliefs_propagation)/jit(continuous_node_prediction)/jit(predict_precision)/mul" source_file="/fs04/fc37/adam/projects/psilocybin-prl-analyses/src/prl_hgf/fitting/hierarchical_patrl.py" source_line=362}
  call.436 = f64[20]{0} call(add.405), to_apply=integer_pow_17.351
  multiply.437 = f64[20]{0} multiply(call.436, broadcast.369), metadata={op_name="jit(scan)/jit(main)/while/body/jit(beliefs_propagation)/jit(continuous_node_prediction)/jit(predict_precision)/mul" source_file="/fs04/fc37/adam/projects/psilocybin-prl-analyses/src/prl_hgf/fitting/hierarchical_patrl.py" source_line=362}
  reshape.438 = f64[1,20]{1,0} reshape(multiply.437), metadata={op_name="jit(scan)/jit(main)/while/body/jit(beliefs_propagation)/jit(continuous_node_prediction)/jit(predict_precision)/broadcast_in_dim[shape=(1, 20) broadcast_dimensions=(np.int64(1),)]" source_file="/fs04/fc37/adam/projects/psilocybin-prl-analyses/src/prl_hgf/fitting/hierarchical_patrl.py" source_line=362}
  broadcast.439 = f64[1,20]{1,0} broadcast(reshape.438), dimensions={0,1}, metadata={op_name="jit(scan)/jit(main)/while/body/jit(beliefs_propagation)/jit(continuous_node_prediction)/jit(predict_precision)/mul" source_file="/fs04/fc37/adam/projects/psilocybin-prl-analyses/src/prl_hgf/fitting/hierarchical_patrl.py" source_line=362}
  reshape.440 = f64[20]{0} reshape(broadcast.439), metadata={op_name="jit(scan)/jit(main)/while/body/jit(beliefs_propagation)/jit(continuous_node_prediction)/jit(predict_precision)/mul" source_file="/fs04/fc37/adam/projects/psilocybin-prl-analyses/src/prl_hgf/fitting/hierarchical_patrl.py" source_line=362}
  broadcast.441 = f64[120,20]{1,0} broadcast(reshape.440), dimensions={1}, metadata={op_name="jit(scan)/jit(main)/while/body/jit(beliefs_propagation)/jit(continuous_node_prediction)/jit(predict_precision)/mul" source_file="/fs04/fc37/adam/projects/psilocybin-prl-analyses/src/prl_hgf/fitting/hierarchical_patrl.py" source_line=362}
  multiply.442 = f64[120,20]{1,0} multiply(add.406, broadcast.441), metadata={op_name="jit(scan)/jit(main)/while/body/jit(beliefs_propagation)/jit(continuous_node_prediction)/jit(predict_precision)/mul" source_file="/fs04/fc37/adam/projects/psilocybin-prl-analyses/src/prl_hgf/fitting/hierarchical_patrl.py" source_line=362}
  ROOT tuple.443 = (f64[20]{0}, f64[20]{0}, f64[20]{0}, f64[20]{0}, pred[20]{0}, /*index=5*/f64[20]{0}, f64[20]{0}, f64[20]{0}, f64[120,20]{1,0}, f64[120,20]{1,0}, /*index=10*/f64[120,20]{1,0}, f64[120,20]{1,0}, f64[120,20]{1,0}, f64[120,20]{1,0}) tuple(divide.407, multiply.415, reshape.382, exponential.391, compare.401, /*index=5*/get-tuple-element.403, call.427, call.435, multiply.414, add.426, /*index=10*/multiply.396, get-tuple-element.404, multiply.434, multiply.442)
} // predict_precision_11.358

integer_pow_18.444 {
  constant.446 = f64[] constant(1)
  broadcast.447 = f64[20]{0} broadcast(constant.446), dimensions={}
  Arg_0.445 = f64[20]{0} parameter(0), metadata={op_name="jit(scan)/jit(main)/while/body/jit(beliefs_propagation)/jit(continuous_node_prediction)/integer_pow[y=-2]"}
  multiply.448 = f64[20]{0} multiply(Arg_0.445, Arg_0.445), metadata={op_name="jit(scan)/jit(main)/while/body/jit(beliefs_propagation)/jit(continuous_node_prediction)/mul" source_file="/fs04/fc37/adam/projects/psilocybin-prl-analyses/src/prl_hgf/fitting/hierarchical_patrl.py" source_line=362}
  ROOT divide.449 = f64[20]{0} divide(broadcast.447, multiply.448), metadata={op_name="jit(scan)/jit(main)/while/body/jit(beliefs_propagation)/jit(continuous_node_prediction)/div" source_file="/fs04/fc37/adam/projects/psilocybin-prl-analyses/src/prl_hgf/fitting/hierarchical_patrl.py" source_line=362}
}

integer_pow_19.450 {
  constant.452 = f64[] constant(1)
  broadcast.453 = f64[20]{0} broadcast(constant.452), dimensions={}
  Arg_0.451 = f64[20]{0} parameter(0), metadata={op_name="jit(scan)/jit(main)/while/body/jit(beliefs_propagation)/jit(continuous_node_prediction)/integer_pow[y=-3]"}
  multiply.454 = f64[20]{0} multiply(Arg_0.451, Arg_0.451), metadata={op_name="jit(scan)/jit(main)/while/body/jit(beliefs_propagation)/jit(continuous_node_prediction)/mul" source_file="/fs04/fc37/adam/projects/psilocybin-prl-analyses/src/prl_hgf/fitting/hierarchical_patrl.py" source_line=362}
  multiply.455 = f64[20]{0} multiply(Arg_0.451, multiply.454), metadata={op_name="jit(scan)/jit(main)/while/body/jit(beliefs_propagation)/jit(continuous_node_prediction)/mul" source_file="/fs04/fc37/adam/projects/psilocybin-prl-analyses/src/prl_hgf/fitting/hierarchical_patrl.py" source_line=362}
  ROOT divide.456 = f64[20]{0} divide(broadcast.453, multiply.455), metadata={op_name="jit(scan)/jit(main)/while/body/jit(beliefs_propagation)/jit(continuous_node_prediction)/div" source_file="/fs04/fc37/adam/projects/psilocybin-prl-analyses/src/prl_hgf/fitting/hierarchical_patrl.py" source_line=362}
} // integer_pow_19.450

continuous_node_prediction_8.457 {
  Arg_0.458 = f64[] parameter(0), metadata={op_name="jit(scan)/jit(main)/while/body/jit(beliefs_propagation)/pjit[in_shardings=(UnspecifiedValue, UnspecifiedValue, UnspecifiedValue, UnspecifiedValue, UnspecifiedValue, UnspecifiedValue, UnspecifiedValue, UnspecifiedValue, UnspecifiedValue, UnspecifiedValue, UnspecifiedValue, UnspecifiedValue, UnspecifiedValue) out_shardings=(UnspecifiedValue, UnspecifiedValue, UnspecifiedValue, UnspecifiedValue, UnspecifiedValue, UnspecifiedValue, UnspecifiedValue, UnspecifiedValue, UnspecifiedValue, UnspecifiedValue, UnspecifiedValue, UnspecifiedValue, UnspecifiedValue, UnspecifiedValue, UnspecifiedValue, UnspecifiedValue, UnspecifiedValue, UnspecifiedValue, UnspecifiedValue, UnspecifiedValue) in_layouts=(None, None, None, None, None, None, None, None, None, None, None, None, None) out_layouts=(None, None, None, None, None, None, None, None, None, None, None, None, None, None, None, None, None, None, None, None) resource_env=None donated_invars=(False, False, False, False, False, False, False, False, False, False, False, False, False) name=continuous_node_prediction keep_unused=False inline=False]"}
  Arg_1.459 = f64[20]{0} parameter(1), metadata={op_name="jit(scan)/jit(main)/while/body/jit(beliefs_propagation)/pjit[in_shardings=(UnspecifiedValue, UnspecifiedValue, UnspecifiedValue, UnspecifiedValue, UnspecifiedValue, UnspecifiedValue, UnspecifiedValue, UnspecifiedValue, UnspecifiedValue, UnspecifiedValue, UnspecifiedValue, UnspecifiedValue, UnspecifiedValue) out_shardings=(UnspecifiedValue, UnspecifiedValue, UnspecifiedValue, UnspecifiedValue, UnspecifiedValue, UnspecifiedValue, UnspecifiedValue, UnspecifiedValue, UnspecifiedValue, UnspecifiedValue, UnspecifiedValue, UnspecifiedValue, UnspecifiedValue, UnspecifiedValue, UnspecifiedValue, UnspecifiedValue, UnspecifiedValue, UnspecifiedValue, UnspecifiedValue, UnspecifiedValue) in_layouts=(None, None, None, None, None, None, None, None, None, None, None, None, None) out_layouts=(None, None, None, None, None, None, None, None, None, None, None, None, None, None, None, None, None, None, None, None) resource_env=None donated_invars=(False, False, False, False, False, False, False, False, False, False, False, False, False) name=continuous_node_prediction keep_unused=False inline=False]"}
  Arg_2.460 = f64[20]{0} parameter(2), metadata={op_name="jit(scan)/jit(main)/while/body/jit(beliefs_propagation)/pjit[in_shardings=(UnspecifiedValue, UnspecifiedValue, UnspecifiedValue, UnspecifiedValue, UnspecifiedValue, UnspecifiedValue, UnspecifiedValue, UnspecifiedValue, UnspecifiedValue, UnspecifiedValue, UnspecifiedValue, UnspecifiedValue, UnspecifiedValue) out_shardings=(UnspecifiedValue, UnspecifiedValue, UnspecifiedValue, UnspecifiedValue, UnspecifiedValue, UnspecifiedValue, UnspecifiedValue, UnspecifiedValue, UnspecifiedValue, UnspecifiedValue, UnspecifiedValue, UnspecifiedValue, UnspecifiedValue, UnspecifiedValue, UnspecifiedValue, UnspecifiedValue, UnspecifiedValue, UnspecifiedValue, UnspecifiedValue, UnspecifiedValue) in_layouts=(None, None, None, None, None, None, None, None, None, None, None, None, None) out_layouts=(None, None, None, None, None, None, None, None, None, None, None, None, None, None, None, None, None, None, None, None) resource_env=None donated_invars=(False, False, False, False, False, False, False, False, False, False, False, False, False) name=continuous_node_prediction keep_unused=False inline=False]"}
  Arg_4.462 = f64[20]{0} parameter(4), metadata={op_name="jit(scan)/jit(main)/while/body/jit(beliefs_propagation)/pjit[in_shardings=(UnspecifiedValue, UnspecifiedValue, UnspecifiedValue, UnspecifiedValue, UnspecifiedValue, UnspecifiedValue, UnspecifiedValue, UnspecifiedValue, UnspecifiedValue, UnspecifiedValue, UnspecifiedValue, UnspecifiedValue, UnspecifiedValue) out_shardings=(UnspecifiedValue, UnspecifiedValue, UnspecifiedValue, UnspecifiedValue, UnspecifiedValue, UnspecifiedValue, UnspecifiedValue, UnspecifiedValue, UnspecifiedValue, UnspecifiedValue, UnspecifiedValue, UnspecifiedValue, UnspecifiedValue, UnspecifiedValue, UnspecifiedValue, UnspecifiedValue, UnspecifiedValue, UnspecifiedValue, UnspecifiedValue, UnspecifiedValue) in_layouts=(None, None, None, None, None, None, None, None, None, None, None, None, None) out_layouts=(None, None, None, None, None, None, None, None, None, None, None, None, None, None, None, None, None, None, None, None) resource_env=None donated_invars=(False, False, False, False, False, False, False, False, False, False, False, False, False) name=continuous_node_prediction keep_unused=False inline=False]"}
  Arg_9.467 = f64[120,20]{1,0} parameter(9), metadata={op_name="jit(scan)/jit(main)/while/body/jit(beliefs_propagation)/pjit[in_shardings=(UnspecifiedValue, UnspecifiedValue, UnspecifiedValue, UnspecifiedValue, UnspecifiedValue, UnspecifiedValue, UnspecifiedValue, UnspecifiedValue, UnspecifiedValue, UnspecifiedValue, UnspecifiedValue, UnspecifiedValue, UnspecifiedValue) out_shardings=(UnspecifiedValue, UnspecifiedValue, UnspecifiedValue, UnspecifiedValue, UnspecifiedValue, UnspecifiedValue, UnspecifiedValue, UnspecifiedValue, UnspecifiedValue, UnspecifiedValue, UnspecifiedValue, UnspecifiedValue, UnspecifiedValue, UnspecifiedValue, UnspecifiedValue, UnspecifiedValue, UnspecifiedValue, UnspecifiedValue, UnspecifiedValue, UnspecifiedValue) in_layouts=(None, None, None, None, None, None, None, None, None, None, None, None, None) out_layouts=(None, None, None, None, None, None, None, None, None, None, None, None, None, None, None, None, None, None, None, None) resource_env=None donated_invars=(False, False, False, False, False, False, False, False, False, False, False, False, False) name=continuous_node_prediction keep_unused=False inline=False]"}
  call.483 = (f64[20]{0}, f64[120,20]{1,0}) call(Arg_0.458, Arg_1.459, Arg_2.460, Arg_4.462, Arg_9.467), to_apply=predict_mean_10.293
  get-tuple-element.484 = f64[20]{0} get-tuple-element(call.483), index=0
  Arg_3.461 = f64[20]{0} parameter(3), metadata={op_name="jit(scan)/jit(main)/while/body/jit(beliefs_propagation)/pjit[in_shardings=(UnspecifiedValue, UnspecifiedValue, UnspecifiedValue, UnspecifiedValue, UnspecifiedValue, UnspecifiedValue, UnspecifiedValue, UnspecifiedValue, UnspecifiedValue, UnspecifiedValue, UnspecifiedValue, UnspecifiedValue, UnspecifiedValue) out_shardings=(UnspecifiedValue, UnspecifiedValue, UnspecifiedValue, UnspecifiedValue, UnspecifiedValue, UnspecifiedValue, UnspecifiedValue, UnspecifiedValue, UnspecifiedValue, UnspecifiedValue, UnspecifiedValue, UnspecifiedValue, UnspecifiedValue, UnspecifiedValue, UnspecifiedValue, UnspecifiedValue, UnspecifiedValue, UnspecifiedValue, UnspecifiedValue, UnspecifiedValue) in_layouts=(None, None, None, None, None, None, None, None, None, None, None, None, None) out_layouts=(None, None, None, None, None, None, None, None, None, None, None, None, None, None, None, None, None, None, None, None) resource_env=None donated_invars=(False, False, False, False, False, False, False, False, False, False, False, False, False) name=continuous_node_prediction keep_unused=False inline=False]"}
  Arg_5.463 = f64[20]{0} parameter(5), metadata={op_name="jit(scan)/jit(main)/while/body/jit(beliefs_propagation)/pjit[in_shardings=(UnspecifiedValue, UnspecifiedValue, UnspecifiedValue, UnspecifiedValue, UnspecifiedValue, UnspecifiedValue, UnspecifiedValue, UnspecifiedValue, UnspecifiedValue, UnspecifiedValue, UnspecifiedValue, UnspecifiedValue, UnspecifiedValue) out_shardings=(UnspecifiedValue, UnspecifiedValue, UnspecifiedValue, UnspecifiedValue, UnspecifiedValue, UnspecifiedValue, UnspecifiedValue, UnspecifiedValue, UnspecifiedValue, UnspecifiedValue, UnspecifiedValue, UnspecifiedValue, UnspecifiedValue, UnspecifiedValue, UnspecifiedValue, UnspecifiedValue, UnspecifiedValue, UnspecifiedValue, UnspecifiedValue, UnspecifiedValue) in_layouts=(None, None, None, None, None, None, None, None, None, None, None, None, None) out_layouts=(None, None, None, None, None, None, None, None, None, None, None, None, None, None, None, None, None, None, None, None) resource_env=None donated_invars=(False, False, False, False, False, False, False, False, False, False, False, False, False) name=continuous_node_prediction keep_unused=False inline=False]"}
  Arg_6.464 = f64[20,1]{1,0} parameter(6), metadata={op_name="jit(scan)/jit(main)/while/body/jit(beliefs_propagation)/pjit[in_shardings=(UnspecifiedValue, UnspecifiedValue, UnspecifiedValue, UnspecifiedValue, UnspecifiedValue, UnspecifiedValue, UnspecifiedValue, UnspecifiedValue, UnspecifiedValue, UnspecifiedValue, UnspecifiedValue, UnspecifiedValue, UnspecifiedValue) out_shardings=(UnspecifiedValue, UnspecifiedValue, UnspecifiedValue, UnspecifiedValue, UnspecifiedValue, UnspecifiedValue, UnspecifiedValue, UnspecifiedValue, UnspecifiedValue, UnspecifiedValue, UnspecifiedValue, UnspecifiedValue, UnspecifiedValue, UnspecifiedValue, UnspecifiedValue, UnspecifiedValue, UnspecifiedValue, UnspecifiedValue, UnspecifiedValue, UnspecifiedValue) in_layouts=(None, None, None, None, None, None, None, None, None, None, None, None, None) out_layouts=(None, None, None, None, None, None, None, None, None, None, None, None, None, None, None, None, None, None, None, None) resource_env=None donated_invars=(False, False, False, False, False, False, False, False, False, False, False, False, False) name=continuous_node_prediction keep_unused=False inline=False]"}
  Arg_7.465 = f64[20]{0} parameter(7), metadata={op_name="jit(scan)/jit(main)/while/body/jit(beliefs_propagation)/pjit[in_shardings=(UnspecifiedValue, UnspecifiedValue, UnspecifiedValue, UnspecifiedValue, UnspecifiedValue, UnspecifiedValue, UnspecifiedValue, UnspecifiedValue, UnspecifiedValue, UnspecifiedValue, UnspecifiedValue, UnspecifiedValue, UnspecifiedValue) out_shardings=(UnspecifiedValue, UnspecifiedValue, UnspecifiedValue, UnspecifiedValue, UnspecifiedValue, UnspecifiedValue, UnspecifiedValue, UnspecifiedValue, UnspecifiedValue, UnspecifiedValue, UnspecifiedValue, UnspecifiedValue, UnspecifiedValue, UnspecifiedValue, UnspecifiedValue, UnspecifiedValue, UnspecifiedValue, UnspecifiedValue, UnspecifiedValue, UnspecifiedValue) in_layouts=(None, None, None, None, None, None, None, None, None, None, None, None, None) out_layouts=(None, None, None, None, None, None, None, None, None, None, None, None, None, None, None, None, None, None, None, None) resource_env=None donated_invars=(False, False, False, False, False, False, False, False, False, False, False, False, False) name=continuous_node_prediction keep_unused=False inline=False]"}
  Arg_8.466 = f64[20]{0} parameter(8), metadata={op_name="jit(scan)/jit(main)/while/body/jit(beliefs_propagation)/pjit[in_shardings=(UnspecifiedValue, UnspecifiedValue, UnspecifiedValue, UnspecifiedValue, UnspecifiedValue, UnspecifiedValue, UnspecifiedValue, UnspecifiedValue, UnspecifiedValue, UnspecifiedValue, UnspecifiedValue, UnspecifiedValue, UnspecifiedValue) out_shardings=(UnspecifiedValue, UnspecifiedValue, UnspecifiedValue, UnspecifiedValue, UnspecifiedValue, UnspecifiedValue, UnspecifiedValue, UnspecifiedValue, UnspecifiedValue, UnspecifiedValue, UnspecifiedValue, UnspecifiedValue, UnspecifiedValue, UnspecifiedValue, UnspecifiedValue, UnspecifiedValue, UnspecifiedValue, UnspecifiedValue, UnspecifiedValue, UnspecifiedValue) in_layouts=(None, None, None, None, None, None, None, None, None, None, None, None, None) out_layouts=(None, None, None, None, None, None, None, None, None, None, None, None, None, None, None, None, None, None, None, None) resource_env=None donated_invars=(False, False, False, False, False, False, False, False, False, False, False, False, False) name=continuous_node_prediction keep_unused=False inline=False]"}
  Arg_10.468 = f64[120,20]{1,0} parameter(10), metadata={op_name="jit(scan)/jit(main)/while/body/jit(beliefs_propagation)/pjit[in_shardings=(UnspecifiedValue, UnspecifiedValue, UnspecifiedValue, UnspecifiedValue, UnspecifiedValue, UnspecifiedValue, UnspecifiedValue, UnspecifiedValue, UnspecifiedValue, UnspecifiedValue, UnspecifiedValue, UnspecifiedValue, UnspecifiedValue) out_shardings=(UnspecifiedValue, UnspecifiedValue, UnspecifiedValue, UnspecifiedValue, UnspecifiedValue, UnspecifiedValue, UnspecifiedValue, UnspecifiedValue, UnspecifiedValue, UnspecifiedValue, UnspecifiedValue, UnspecifiedValue, UnspecifiedValue, UnspecifiedValue, UnspecifiedValue, UnspecifiedValue, UnspecifiedValue, UnspecifiedValue, UnspecifiedValue, UnspecifiedValue) in_layouts=(None, None, None, None, None, None, None, None, None, None, None, None, None) out_layouts=(None, None, None, None, None, None, None, None, None, None, None, None, None, None, None, None, None, None, None, None) resource_env=None donated_invars=(False, False, False, False, False, False, False, False, False, False, False, False, False) name=continuous_node_prediction keep_unused=False inline=False]"}
  Arg_11.469 = f64[120,20]{1,0} parameter(11), metadata={op_name="jit(scan)/jit(main)/while/body/jit(beliefs_propagation)/pjit[in_shardings=(UnspecifiedValue, UnspecifiedValue, UnspecifiedValue, UnspecifiedValue, UnspecifiedValue, UnspecifiedValue, UnspecifiedValue, UnspecifiedValue, UnspecifiedValue, UnspecifiedValue, UnspecifiedValue, UnspecifiedValue, UnspecifiedValue) out_shardings=(UnspecifiedValue, UnspecifiedValue, UnspecifiedValue, UnspecifiedValue, UnspecifiedValue, UnspecifiedValue, UnspecifiedValue, UnspecifiedValue, UnspecifiedValue, UnspecifiedValue, UnspecifiedValue, UnspecifiedValue, UnspecifiedValue, UnspecifiedValue, UnspecifiedValue, UnspecifiedValue, UnspecifiedValue, UnspecifiedValue, UnspecifiedValue, UnspecifiedValue) in_layouts=(None, None, None, None, None, None, None, None, None, None, None, None, None) out_layouts=(None, None, None, None, None, None, None, None, None, None, None, None, None, None, None, None, None, None, None, None) resource_env=None donated_invars=(False, False, False, False, False, False, False, False, False, False, False, False, False) name=continuous_node_prediction keep_unused=False inline=False]"}
  Arg_12.470 = f64[120,20]{1,0} parameter(12), metadata={op_name="jit(scan)/jit(main)/while/body/jit(beliefs_propagation)/pjit[in_shardings=(UnspecifiedValue, UnspecifiedValue, UnspecifiedValue, UnspecifiedValue, UnspecifiedValue, UnspecifiedValue, UnspecifiedValue, UnspecifiedValue, UnspecifiedValue, UnspecifiedValue, UnspecifiedValue, UnspecifiedValue, UnspecifiedValue) out_shardings=(UnspecifiedValue, UnspecifiedValue, UnspecifiedValue, UnspecifiedValue, UnspecifiedValue, UnspecifiedValue, UnspecifiedValue, UnspecifiedValue, UnspecifiedValue, UnspecifiedValue, UnspecifiedValue, UnspecifiedValue, UnspecifiedValue, UnspecifiedValue, UnspecifiedValue, UnspecifiedValue, UnspecifiedValue, UnspecifiedValue, UnspecifiedValue, UnspecifiedValue) in_layouts=(None, None, None, None, None, None, None, None, None, None, None, None, None) out_layouts=(None, None, None, None, None, None, None, None, None, None, None, None, None, None, None, None, None, None, None, None) resource_env=None donated_invars=(False, False, False, False, False, False, False, False, False, False, False, False, False) name=continuous_node_prediction keep_unused=False inline=False]"}
  call.486 = (f64[20]{0}, f64[20]{0}, f64[20]{0}, f64[20]{0}, pred[20]{0}, /*index=5*/f64[20]{0}, f64[20]{0}, f64[20]{0}, f64[120,20]{1,0}, f64[120,20]{1,0}, /*index=10*/f64[120,20]{1,0}, f64[120,20]{1,0}, f64[120,20]{1,0}, f64[120,20]{1,0}) call(Arg_0.458, Arg_3.461, Arg_5.463, Arg_6.464, Arg_7.465, /*index=5*/Arg_8.466, Arg_10.468, Arg_11.469, Arg_12.470), to_apply=predict_precision_11.358
  get-tuple-element.487 = f64[20]{0} get-tuple-element(call.486), index=0
  constant.473 = f64[] constant(1)
  broadcast.474 = f64[20]{0} broadcast(constant.473), dimensions={}
  divide.475 = f64[20]{0} divide(broadcast.474, Arg_3.461), metadata={op_name="jit(scan)/jit(main)/while/body/jit(beliefs_propagation)/jit(continuous_node_prediction)/div" source_file="/fs04/fc37/adam/projects/psilocybin-prl-analyses/src/prl_hgf/fitting/hierarchical_patrl.py" source_line=362}
  get-tuple-element.488 = f64[20]{0} get-tuple-element(call.486), index=1
  call.501 = f64[20]{0} call(Arg_3.461), to_apply=integer_pow_18.444
  get-tuple-element.489 = f64[20]{0} get-tuple-element(call.486), index=2
  get-tuple-element.490 = f64[20]{0} get-tuple-element(call.486), index=3
  get-tuple-element.491 = pred[20]{0} get-tuple-element(call.486), index=4
  get-tuple-element.492 = f64[20]{0} get-tuple-element(call.486), index=5
  get-tuple-element.493 = f64[20]{0} get-tuple-element(call.486), index=6
  get-tuple-element.494 = f64[20]{0} get-tuple-element(call.486), index=7
  get-tuple-element.485 = f64[120,20]{1,0} get-tuple-element(call.483), index=1
  get-tuple-element.495 = f64[120,20]{1,0} get-tuple-element(call.486), index=8
  negate.476 = f64[120,20]{1,0} negate(Arg_10.468), metadata={op_name="jit(scan)/jit(main)/while/body/jit(beliefs_propagation)/jit(continuous_node_prediction)/neg" source_file="/fs04/fc37/adam/projects/psilocybin-prl-analyses/src/prl_hgf/fitting/hierarchical_patrl.py" source_line=362}
  call.477 = f64[20]{0} call(Arg_3.461), to_apply=integer_pow_9.287
  reshape.478 = f64[1,20]{1,0} reshape(call.477), metadata={op_name="jit(scan)/jit(main)/while/body/jit(beliefs_propagation)/jit(continuous_node_prediction)/broadcast_in_dim[shape=(1, 20) broadcast_dimensions=(np.int64(1),)]" source_file="/fs04/fc37/adam/projects/psilocybin-prl-analyses/src/prl_hgf/fitting/hierarchical_patrl.py" source_line=362}
  broadcast.479 = f64[1,20]{1,0} broadcast(reshape.478), dimensions={0,1}, metadata={op_name="jit(scan)/jit(main)/while/body/jit(beliefs_propagation)/jit(continuous_node_prediction)/mul" source_file="/fs04/fc37/adam/projects/psilocybin-prl-analyses/src/prl_hgf/fitting/hierarchical_patrl.py" source_line=362}
  reshape.480 = f64[20]{0} reshape(broadcast.479), metadata={op_name="jit(scan)/jit(main)/while/body/jit(beliefs_propagation)/jit(continuous_node_prediction)/mul" source_file="/fs04/fc37/adam/projects/psilocybin-prl-analyses/src/prl_hgf/fitting/hierarchical_patrl.py" source_line=362}
  broadcast.481 = f64[120,20]{1,0} broadcast(reshape.480), dimensions={1}, metadata={op_name="jit(scan)/jit(main)/while/body/jit(beliefs_propagation)/jit(continuous_node_prediction)/mul" source_file="/fs04/fc37/adam/projects/psilocybin-prl-analyses/src/prl_hgf/fitting/hierarchical_patrl.py" source_line=362}
  multiply.482 = f64[120,20]{1,0} multiply(negate.476, broadcast.481), metadata={op_name="jit(scan)/jit(main)/while/body/jit(beliefs_propagation)/jit(continuous_node_prediction)/mul" source_file="/fs04/fc37/adam/projects/psilocybin-prl-analyses/src/prl_hgf/fitting/hierarchical_patrl.py" source_line=362}
  get-tuple-element.496 = f64[120,20]{1,0} get-tuple-element(call.486), index=9
  call.502 = f64[20]{0} call(Arg_3.461), to_apply=integer_pow_19.450
  constant.471 = f64[] constant(-2)
  broadcast.472 = f64[20]{0} broadcast(constant.471), dimensions={}
  multiply.503 = f64[20]{0} multiply(call.502, broadcast.472), metadata={op_name="jit(scan)/jit(main)/while/body/jit(beliefs_propagation)/jit(continuous_node_prediction)/mul" source_file="/fs04/fc37/adam/projects/psilocybin-prl-analyses/src/prl_hgf/fitting/hierarchical_patrl.py" source_line=362}
  reshape.504 = f64[1,20]{1,0} reshape(multiply.503), metadata={op_name="jit(scan)/jit(main)/while/body/jit(beliefs_propagation)/jit(continuous_node_prediction)/broadcast_in_dim[shape=(1, 20) broadcast_dimensions=(np.int64(1),)]" source_file="/fs04/fc37/adam/projects/psilocybin-prl-analyses/src/prl_hgf/fitting/hierarchical_patrl.py" source_line=362}
  broadcast.505 = f64[1,20]{1,0} broadcast(reshape.504), dimensions={0,1}, metadata={op_name="jit(scan)/jit(main)/while/body/jit(beliefs_propagation)/jit(continuous_node_prediction)/mul" source_file="/fs04/fc37/adam/projects/psilocybin-prl-analyses/src/prl_hgf/fitting/hierarchical_patrl.py" source_line=362}
  reshape.506 = f64[20]{0} reshape(broadcast.505), metadata={op_name="jit(scan)/jit(main)/while/body/jit(beliefs_propagation)/jit(continuous_node_prediction)/mul" source_file="/fs04/fc37/adam/projects/psilocybin-prl-analyses/src/prl_hgf/fitting/hierarchical_patrl.py" source_line=362}
  broadcast.507 = f64[120,20]{1,0} broadcast(reshape.506), dimensions={1}, metadata={op_name="jit(scan)/jit(main)/while/body/jit(beliefs_propagation)/jit(continuous_node_prediction)/mul" source_file="/fs04/fc37/adam/projects/psilocybin-prl-analyses/src/prl_hgf/fitting/hierarchical_patrl.py" source_line=362}
  multiply.508 = f64[120,20]{1,0} multiply(Arg_10.468, broadcast.507), metadata={op_name="jit(scan)/jit(main)/while/body/jit(beliefs_propagation)/jit(continuous_node_prediction)/mul" source_file="/fs04/fc37/adam/projects/psilocybin-prl-analyses/src/prl_hgf/fitting/hierarchical_patrl.py" source_line=362}
  get-tuple-element.497 = f64[120,20]{1,0} get-tuple-element(call.486), index=10
  get-tuple-element.498 = f64[120,20]{1,0} get-tuple-element(call.486), index=11
  get-tuple-element.499 = f64[120,20]{1,0} get-tuple-element(call.486), index=12
  get-tuple-element.500 = f64[120,20]{1,0} get-tuple-element(call.486), index=13
  ROOT tuple.509 = (f64[20]{0}, f64[20]{0}, f64[20]{0}, f64[20]{0}, f64[20]{0}, /*index=5*/f64[20]{0}, f64[20]{0}, pred[20]{0}, f64[20]{0}, f64[20]{0}, /*index=10*/f64[20]{0}, f64[120,20]{1,0}, f64[120,20]{1,0}, f64[120,20]{1,0}, f64[120,20]{1,0}, /*index=15*/f64[120,20]{1,0}, f64[120,20]{1,0}, f64[120,20]{1,0}, f64[120,20]{1,0}, f64[120,20]{1,0}) tuple(get-tuple-element.484, get-tuple-element.487, divide.475, get-tuple-element.488, call.501, /*index=5*/get-tuple-element.489, get-tuple-element.490, get-tuple-element.491, get-tuple-element.492, get-tuple-element.493, /*index=10*/get-tuple-element.494, get-tuple-element.485, get-tuple-element.495, multiply.482, get-tuple-element.496, /*index=15*/multiply.508, get-tuple-element.497, get-tuple-element.498, get-tuple-element.499, get-tuple-element.500)
} // continuous_node_prediction_8.457

binary_state_node_prediction.510 {
  constant.513 = f64[] constant(1)
  broadcast.514 = f64[20]{0} broadcast(constant.513), dimensions={}
  Arg_0.511 = f64[20]{0} parameter(0), metadata={op_name="jit(scan)/jit(main)/while/body/jit(beliefs_propagation)/pjit[in_shardings=(UnspecifiedValue, UnspecifiedValue) out_shardings=(UnspecifiedValue, UnspecifiedValue, UnspecifiedValue, UnspecifiedValue, UnspecifiedValue, UnspecifiedValue, UnspecifiedValue, UnspecifiedValue) in_layouts=(None, None) out_layouts=(None, None, None, None, None, None, None, None) resource_env=None donated_invars=(False, False) name=binary_state_node_prediction keep_unused=False inline=False]"}
  negate.515 = f64[20]{0} negate(Arg_0.511), metadata={op_name="jit(scan)/jit(main)/while/body/jit(beliefs_propagation)/jit(binary_state_node_prediction)/neg" source_file="/fs04/fc37/adam/projects/psilocybin-prl-analyses/src/prl_hgf/fitting/hierarchical_patrl.py" source_line=362}
  exponential.516 = f64[20]{0} exponential(negate.515), metadata={op_name="jit(scan)/jit(main)/while/body/jit(beliefs_propagation)/jit(binary_state_node_prediction)/exp" source_file="/fs04/fc37/adam/projects/psilocybin-prl-analyses/src/prl_hgf/fitting/hierarchical_patrl.py" source_line=362}
  add.517 = f64[20]{0} add(exponential.516, broadcast.514), metadata={op_name="jit(scan)/jit(main)/while/body/jit(beliefs_propagation)/jit(binary_state_node_prediction)/add" source_file="/fs04/fc37/adam/projects/psilocybin-prl-analyses/src/prl_hgf/fitting/hierarchical_patrl.py" source_line=362}
  divide.518 = f64[20]{0} divide(broadcast.514, add.517), metadata={op_name="jit(scan)/jit(main)/while/body/jit(beliefs_propagation)/jit(binary_state_node_prediction)/div" source_file="/fs04/fc37/adam/projects/psilocybin-prl-analyses/src/prl_hgf/fitting/hierarchical_patrl.py" source_line=362}
  subtract.526 = f64[20]{0} subtract(broadcast.514, divide.518), metadata={op_name="jit(scan)/jit(main)/while/body/jit(beliefs_propagation)/jit(binary_state_node_prediction)/sub" source_file="/fs04/fc37/adam/projects/psilocybin-prl-analyses/src/prl_hgf/fitting/hierarchical_patrl.py" source_line=362}
  multiply.528 = f64[20]{0} multiply(divide.518, subtract.526), metadata={op_name="jit(scan)/jit(main)/while/body/jit(beliefs_propagation)/jit(binary_state_node_prediction)/mul" source_file="/fs04/fc37/adam/projects/psilocybin-prl-analyses/src/prl_hgf/fitting/hierarchical_patrl.py" source_line=362}
  subtract.540 = f64[20]{0} subtract(broadcast.514, divide.518), metadata={op_name="jit(scan)/jit(main)/while/body/jit(beliefs_propagation)/jit(binary_state_node_prediction)/sub" source_file="/fs04/fc37/adam/projects/psilocybin-prl-analyses/src/prl_hgf/fitting/hierarchical_patrl.py" source_line=362}
  multiply.542 = f64[20]{0} multiply(divide.518, subtract.540), metadata={op_name="jit(scan)/jit(main)/while/body/jit(beliefs_propagation)/jit(binary_state_node_prediction)/mul" source_file="/fs04/fc37/adam/projects/psilocybin-prl-analyses/src/prl_hgf/fitting/hierarchical_patrl.py" source_line=362}
  Arg_1.512 = f64[120,20]{1,0} parameter(1), metadata={op_name="jit(scan)/jit(main)/while/body/jit(beliefs_propagation)/pjit[in_shardings=(UnspecifiedValue, UnspecifiedValue) out_shardings=(UnspecifiedValue, UnspecifiedValue, UnspecifiedValue, UnspecifiedValue, UnspecifiedValue, UnspecifiedValue, UnspecifiedValue, UnspecifiedValue) in_layouts=(None, None) out_layouts=(None, None, None, None, None, None, None, None) resource_env=None donated_invars=(False, False) name=binary_state_node_prediction keep_unused=False inline=False]"}
  subtract.519 = f64[20]{0} subtract(broadcast.514, divide.518), metadata={op_name="jit(scan)/jit(main)/while/body/jit(beliefs_propagation)/jit(binary_state_node_prediction)/sub" source_file="/fs04/fc37/adam/projects/psilocybin-prl-analyses/src/prl_hgf/fitting/hierarchical_patrl.py" source_line=362}
  multiply.520 = f64[20]{0} multiply(divide.518, subtract.519), metadata={op_name="jit(scan)/jit(main)/while/body/jit(beliefs_propagation)/jit(binary_state_node_prediction)/mul" source_file="/fs04/fc37/adam/projects/psilocybin-prl-analyses/src/prl_hgf/fitting/hierarchical_patrl.py" source_line=362}
  reshape.521 = f64[1,20]{1,0} reshape(multiply.520), metadata={op_name="jit(scan)/jit(main)/while/body/jit(beliefs_propagation)/jit(binary_state_node_prediction)/broadcast_in_dim[shape=(1, 20) broadcast_dimensions=(np.int64(1),)]" source_file="/fs04/fc37/adam/projects/psilocybin-prl-analyses/src/prl_hgf/fitting/hierarchical_patrl.py" source_line=362}
  broadcast.522 = f64[1,20]{1,0} broadcast(reshape.521), dimensions={0,1}, metadata={op_name="jit(scan)/jit(main)/while/body/jit(beliefs_propagation)/jit(binary_state_node_prediction)/mul" source_file="/fs04/fc37/adam/projects/psilocybin-prl-analyses/src/prl_hgf/fitting/hierarchical_patrl.py" source_line=362}
  reshape.523 = f64[20]{0} reshape(broadcast.522), metadata={op_name="jit(scan)/jit(main)/while/body/jit(beliefs_propagation)/jit(binary_state_node_prediction)/mul" source_file="/fs04/fc37/adam/projects/psilocybin-prl-analyses/src/prl_hgf/fitting/hierarchical_patrl.py" source_line=362}
  broadcast.524 = f64[120,20]{1,0} broadcast(reshape.523), dimensions={1}, metadata={op_name="jit(scan)/jit(main)/while/body/jit(beliefs_propagation)/jit(binary_state_node_prediction)/mul" source_file="/fs04/fc37/adam/projects/psilocybin-prl-analyses/src/prl_hgf/fitting/hierarchical_patrl.py" source_line=362}
  multiply.525 = f64[120,20]{1,0} multiply(Arg_1.512, broadcast.524), metadata={op_name="jit(scan)/jit(main)/while/body/jit(beliefs_propagation)/jit(binary_state_node_prediction)/mul" source_file="/fs04/fc37/adam/projects/psilocybin-prl-analyses/src/prl_hgf/fitting/hierarchical_patrl.py" source_line=362}
  reshape.529 = f64[1,20]{1,0} reshape(subtract.526), metadata={op_name="jit(scan)/jit(main)/while/body/jit(beliefs_propagation)/jit(binary_state_node_prediction)/broadcast_in_dim[shape=(1, 20) broadcast_dimensions=(np.int64(1),)]" source_file="/fs04/fc37/adam/projects/psilocybin-prl-analyses/src/prl_hgf/fitting/hierarchical_patrl.py" source_line=362}
  broadcast.530 = f64[1,20]{1,0} broadcast(reshape.529), dimensions={0,1}, metadata={op_name="jit(scan)/jit(main)/while/body/jit(beliefs_propagation)/jit(binary_state_node_prediction)/mul" source_file="/fs04/fc37/adam/projects/psilocybin-prl-analyses/src/prl_hgf/fitting/hierarchical_patrl.py" source_line=362}
  reshape.531 = f64[20]{0} reshape(broadcast.530), metadata={op_name="jit(scan)/jit(main)/while/body/jit(beliefs_propagation)/jit(binary_state_node_prediction)/mul" source_file="/fs04/fc37/adam/projects/psilocybin-prl-analyses/src/prl_hgf/fitting/hierarchical_patrl.py" source_line=362}
  broadcast.532 = f64[120,20]{1,0} broadcast(reshape.531), dimensions={1}, metadata={op_name="jit(scan)/jit(main)/while/body/jit(beliefs_propagation)/jit(binary_state_node_prediction)/mul" source_file="/fs04/fc37/adam/projects/psilocybin-prl-analyses/src/prl_hgf/fitting/hierarchical_patrl.py" source_line=362}
  multiply.533 = f64[120,20]{1,0} multiply(multiply.525, broadcast.532), metadata={op_name="jit(scan)/jit(main)/while/body/jit(beliefs_propagation)/jit(binary_state_node_prediction)/mul" source_file="/fs04/fc37/adam/projects/psilocybin-prl-analyses/src/prl_hgf/fitting/hierarchical_patrl.py" source_line=362}
  reshape.534 = f64[1,20]{1,0} reshape(divide.518), metadata={op_name="jit(scan)/jit(main)/while/body/jit(beliefs_propagation)/jit(binary_state_node_prediction)/broadcast_in_dim[shape=(1, 20) broadcast_dimensions=(np.int64(1),)]" source_file="/fs04/fc37/adam/projects/psilocybin-prl-analyses/src/prl_hgf/fitting/hierarchical_patrl.py" source_line=362}
  broadcast.535 = f64[1,20]{1,0} broadcast(reshape.534), dimensions={0,1}, metadata={op_name="jit(scan)/jit(main)/while/body/jit(beliefs_propagation)/jit(binary_state_node_prediction)/mul" source_file="/fs04/fc37/adam/projects/psilocybin-prl-analyses/src/prl_hgf/fitting/hierarchical_patrl.py" source_line=362}
  reshape.536 = f64[20]{0} reshape(broadcast.535), metadata={op_name="jit(scan)/jit(main)/while/body/jit(beliefs_propagation)/jit(binary_state_node_prediction)/mul" source_file="/fs04/fc37/adam/projects/psilocybin-prl-analyses/src/prl_hgf/fitting/hierarchical_patrl.py" source_line=362}
  broadcast.537 = f64[120,20]{1,0} broadcast(reshape.536), dimensions={1}, metadata={op_name="jit(scan)/jit(main)/while/body/jit(beliefs_propagation)/jit(binary_state_node_prediction)/mul" source_file="/fs04/fc37/adam/projects/psilocybin-prl-analyses/src/prl_hgf/fitting/hierarchical_patrl.py" source_line=362}
  negate.527 = f64[120,20]{1,0} negate(multiply.525), metadata={op_name="jit(scan)/jit(main)/while/body/jit(beliefs_propagation)/jit(binary_state_node_prediction)/neg" source_file="/fs04/fc37/adam/projects/psilocybin-prl-analyses/src/prl_hgf/fitting/hierarchical_patrl.py" source_line=362}
  multiply.538 = f64[120,20]{1,0} multiply(broadcast.537, negate.527), metadata={op_name="jit(scan)/jit(main)/while/body/jit(beliefs_propagation)/jit(binary_state_node_prediction)/mul" source_file="/fs04/fc37/adam/projects/psilocybin-prl-analyses/src/prl_hgf/fitting/hierarchical_patrl.py" source_line=362}
  add.539 = f64[120,20]{1,0} add(multiply.533, multiply.538), metadata={op_name="jit(scan)/jit(main)/while/body/jit(beliefs_propagation)/jit(binary_state_node_prediction)/add_any" source_file="/fs04/fc37/adam/projects/psilocybin-prl-analyses/src/prl_hgf/fitting/hierarchical_patrl.py" source_line=362}
  reshape.543 = f64[1,20]{1,0} reshape(subtract.540), metadata={op_name="jit(scan)/jit(main)/while/body/jit(beliefs_propagation)/jit(binary_state_node_prediction)/broadcast_in_dim[shape=(1, 20) broadcast_dimensions=(np.int64(1),)]" source_file="/fs04/fc37/adam/projects/psilocybin-prl-analyses/src/prl_hgf/fitting/hierarchical_patrl.py" source_line=362}
  broadcast.544 = f64[1,20]{1,0} broadcast(reshape.543), dimensions={0,1}, metadata={op_name="jit(scan)/jit(main)/while/body/jit(beliefs_propagation)/jit(binary_state_node_prediction)/mul" source_file="/fs04/fc37/adam/projects/psilocybin-prl-analyses/src/prl_hgf/fitting/hierarchical_patrl.py" source_line=362}
  reshape.545 = f64[20]{0} reshape(broadcast.544), metadata={op_name="jit(scan)/jit(main)/while/body/jit(beliefs_propagation)/jit(binary_state_node_prediction)/mul" source_file="/fs04/fc37/adam/projects/psilocybin-prl-analyses/src/prl_hgf/fitting/hierarchical_patrl.py" source_line=362}
  broadcast.546 = f64[120,20]{1,0} broadcast(reshape.545), dimensions={1}, metadata={op_name="jit(scan)/jit(main)/while/body/jit(beliefs_propagation)/jit(binary_state_node_prediction)/mul" source_file="/fs04/fc37/adam/projects/psilocybin-prl-analyses/src/prl_hgf/fitting/hierarchical_patrl.py" source_line=362}
  multiply.547 = f64[120,20]{1,0} multiply(multiply.525, broadcast.546), metadata={op_name="jit(scan)/jit(main)/while/body/jit(beliefs_propagation)/jit(binary_state_node_prediction)/mul" source_file="/fs04/fc37/adam/projects/psilocybin-prl-analyses/src/prl_hgf/fitting/hierarchical_patrl.py" source_line=362}
  reshape.548 = f64[1,20]{1,0} reshape(divide.518), metadata={op_name="jit(scan)/jit(main)/while/body/jit(beliefs_propagation)/jit(binary_state_node_prediction)/broadcast_in_dim[shape=(1, 20) broadcast_dimensions=(np.int64(1),)]" source_file="/fs04/fc37/adam/projects/psilocybin-prl-analyses/src/prl_hgf/fitting/hierarchical_patrl.py" source_line=362}
  broadcast.549 = f64[1,20]{1,0} broadcast(reshape.548), dimensions={0,1}, metadata={op_name="jit(scan)/jit(main)/while/body/jit(beliefs_propagation)/jit(binary_state_node_prediction)/mul" source_file="/fs04/fc37/adam/projects/psilocybin-prl-analyses/src/prl_hgf/fitting/hierarchical_patrl.py" source_line=362}
  reshape.550 = f64[20]{0} reshape(broadcast.549), metadata={op_name="jit(scan)/jit(main)/while/body/jit(beliefs_propagation)/jit(binary_state_node_prediction)/mul" source_file="/fs04/fc37/adam/projects/psilocybin-prl-analyses/src/prl_hgf/fitting/hierarchical_patrl.py" source_line=362}
  broadcast.551 = f64[120,20]{1,0} broadcast(reshape.550), dimensions={1}, metadata={op_name="jit(scan)/jit(main)/while/body/jit(beliefs_propagation)/jit(binary_state_node_prediction)/mul" source_file="/fs04/fc37/adam/projects/psilocybin-prl-analyses/src/prl_hgf/fitting/hierarchical_patrl.py" source_line=362}
  negate.541 = f64[120,20]{1,0} negate(multiply.525), metadata={op_name="jit(scan)/jit(main)/while/body/jit(beliefs_propagation)/jit(binary_state_node_prediction)/neg" source_file="/fs04/fc37/adam/projects/psilocybin-prl-analyses/src/prl_hgf/fitting/hierarchical_patrl.py" source_line=362}
  multiply.552 = f64[120,20]{1,0} multiply(broadcast.551, negate.541), metadata={op_name="jit(scan)/jit(main)/while/body/jit(beliefs_propagation)/jit(binary_state_node_prediction)/mul" source_file="/fs04/fc37/adam/projects/psilocybin-prl-analyses/src/prl_hgf/fitting/hierarchical_patrl.py" source_line=362}
  add.553 = f64[120,20]{1,0} add(multiply.547, multiply.552), metadata={op_name="jit(scan)/jit(main)/while/body/jit(beliefs_propagation)/jit(binary_state_node_prediction)/add_any" source_file="/fs04/fc37/adam/projects/psilocybin-prl-analyses/src/prl_hgf/fitting/hierarchical_patrl.py" source_line=362}
  ROOT tuple.554 = (f64[20]{0}, f64[20]{0}, f64[20]{0}, f64[20]{0}, f64[120,20]{1,0}, /*index=5*/f64[120,20]{1,0}, f64[120,20]{1,0}, f64[120,20]{1,0}) tuple(divide.518, multiply.528, multiply.542, subtract.526, multiply.525, /*index=5*/add.539, add.553, negate.527)
} // binary_state_node_prediction.510

integer_pow_20.555 {
  constant.557 = f64[] constant(1)
  broadcast.558 = f64[20]{0} broadcast(constant.557), dimensions={}
  Arg_0.556 = f64[20]{0} parameter(0), metadata={op_name="jit(scan)/jit(main)/while/body/jit(beliefs_propagation)/jit(binary_state_node_prediction_error)/integer_pow[y=-2]"}
  multiply.559 = f64[20]{0} multiply(Arg_0.556, Arg_0.556), metadata={op_name="jit(scan)/jit(main)/while/body/jit(beliefs_propagation)/jit(binary_state_node_prediction_error)/mul" source_file="/fs04/fc37/adam/projects/psilocybin-prl-analyses/src/prl_hgf/fitting/hierarchical_patrl.py" source_line=362}
  ROOT divide.560 = f64[20]{0} divide(broadcast.558, multiply.559), metadata={op_name="jit(scan)/jit(main)/while/body/jit(beliefs_propagation)/jit(binary_state_node_prediction_error)/div" source_file="/fs04/fc37/adam/projects/psilocybin-prl-analyses/src/prl_hgf/fitting/hierarchical_patrl.py" source_line=362}
}

integer_pow_21.561 {
  constant.563 = f64[] constant(1)
  broadcast.564 = f64[20]{0} broadcast(constant.563), dimensions={}
  Arg_0.562 = f64[20]{0} parameter(0), metadata={op_name="jit(scan)/jit(main)/while/body/jit(beliefs_propagation)/jit(binary_state_node_prediction_error)/integer_pow[y=-2]"}
  multiply.565 = f64[20]{0} multiply(Arg_0.562, Arg_0.562), metadata={op_name="jit(scan)/jit(main)/while/body/jit(beliefs_propagation)/jit(binary_state_node_prediction_error)/mul" source_file="/fs04/fc37/adam/projects/psilocybin-prl-analyses/src/prl_hgf/fitting/hierarchical_patrl.py" source_line=362}
…
  get-tuple-element.3640 = f64[20]{0} get-tuple-element(while.3607), index=32, metadata={op_name="jit(scan)/jit(main)/while[cond_nconsts=0 body_nconsts=6]" source_file="/fs04/fc37/adam/projects/psilocybin-prl-analyses/src/prl_hgf/fitting/hierarchical_patrl.py" source_line=378}
  get-tuple-element.3641 = f64[20]{0} get-tuple-element(while.3607), index=33, metadata={op_name="jit(scan)/jit(main)/while[cond_nconsts=0 body_nconsts=6]" source_file="/fs04/fc37/adam/projects/psilocybin-prl-analyses/src/prl_hgf/fitting/hierarchical_patrl.py" source_line=378}
  get-tuple-element.3642 = f64[20]{0} get-tuple-element(while.3607), index=34, metadata={op_name="jit(scan)/jit(main)/while[cond_nconsts=0 body_nconsts=6]" source_file="/fs04/fc37/adam/projects/psilocybin-prl-analyses/src/prl_hgf/fitting/hierarchical_patrl.py" source_line=378}
  get-tuple-element.3643 = f64[20,1]{1,0} get-tuple-element(while.3607), index=35, metadata={op_name="jit(scan)/jit(main)/while[cond_nconsts=0 body_nconsts=6]" source_file="/fs04/fc37/adam/projects/psilocybin-prl-analyses/src/prl_hgf/fitting/hierarchical_patrl.py" source_line=378}
  get-tuple-element.3644 = f64[120,20]{1,0} get-tuple-element(while.3607), index=36, metadata={op_name="jit(scan)/jit(main)/while[cond_nconsts=0 body_nconsts=6]" source_file="/fs04/fc37/adam/projects/psilocybin-prl-analyses/src/prl_hgf/fitting/hierarchical_patrl.py" source_line=378}
  get-tuple-element.3645 = f64[120,20]{1,0} get-tuple-element(while.3607), index=37, metadata={op_name="jit(scan)/jit(main)/while[cond_nconsts=0 body_nconsts=6]" source_file="/fs04/fc37/adam/projects/psilocybin-prl-analyses/src/prl_hgf/fitting/hierarchical_patrl.py" source_line=378}
  get-tuple-element.3646 = f64[120,20]{1,0} get-tuple-element(while.3607), index=38, metadata={op_name="jit(scan)/jit(main)/while[cond_nconsts=0 body_nconsts=6]" source_file="/fs04/fc37/adam/projects/psilocybin-prl-analyses/src/prl_hgf/fitting/hierarchical_patrl.py" source_line=378}
  get-tuple-element.3647 = f64[120,20]{1,0} get-tuple-element(while.3607), index=39, metadata={op_name="jit(scan)/jit(main)/while[cond_nconsts=0 body_nconsts=6]" source_file="/fs04/fc37/adam/projects/psilocybin-prl-analyses/src/prl_hgf/fitting/hierarchical_patrl.py" source_line=378}
  get-tuple-element.3648 = f64[120,20]{1,0} get-tuple-element(while.3607), index=40, metadata={op_name="jit(scan)/jit(main)/while[cond_nconsts=0 body_nconsts=6]" source_file="/fs04/fc37/adam/projects/psilocybin-prl-analyses/src/prl_hgf/fitting/hierarchical_patrl.py" source_line=378}
  get-tuple-element.3649 = f64[120,20]{1,0} get-tuple-element(while.3607), index=41, metadata={op_name="jit(scan)/jit(main)/while[cond_nconsts=0 body_nconsts=6]" source_file="/fs04/fc37/adam/projects/psilocybin-prl-analyses/src/prl_hgf/fitting/hierarchical_patrl.py" source_line=378}
  get-tuple-element.3650 = f64[120,20]{1,0} get-tuple-element(while.3607), index=42, metadata={op_name="jit(scan)/jit(main)/while[cond_nconsts=0 body_nconsts=6]" source_file="/fs04/fc37/adam/projects/psilocybin-prl-analyses/src/prl_hgf/fitting/hierarchical_patrl.py" source_line=378}
  get-tuple-element.3651 = f64[120,20]{1,0} get-tuple-element(while.3607), index=43, metadata={op_name="jit(scan)/jit(main)/while[cond_nconsts=0 body_nconsts=6]" source_file="/fs04/fc37/adam/projects/psilocybin-prl-analyses/src/prl_hgf/fitting/hierarchical_patrl.py" source_line=378}
  get-tuple-element.3652 = f64[120,20]{1,0} get-tuple-element(while.3607), index=44, metadata={op_name="jit(scan)/jit(main)/while[cond_nconsts=0 body_nconsts=6]" source_file="/fs04/fc37/adam/projects/psilocybin-prl-analyses/src/prl_hgf/fitting/hierarchical_patrl.py" source_line=378}
  get-tuple-element.3653 = f64[120,20]{1,0} get-tuple-element(while.3607), index=45, metadata={op_name="jit(scan)/jit(main)/while[cond_nconsts=0 body_nconsts=6]" source_file="/fs04/fc37/adam/projects/psilocybin-prl-analyses/src/prl_hgf/fitting/hierarchical_patrl.py" source_line=378}
  get-tuple-element.3654 = f64[120,20]{1,0} get-tuple-element(while.3607), index=46, metadata={op_name="jit(scan)/jit(main)/while[cond_nconsts=0 body_nconsts=6]" source_file="/fs04/fc37/adam/projects/psilocybin-prl-analyses/src/prl_hgf/fitting/hierarchical_patrl.py" source_line=378}
  get-tuple-element.3655 = f64[120,20]{1,0} get-tuple-element(while.3607), index=47, metadata={op_name="jit(scan)/jit(main)/while[cond_nconsts=0 body_nconsts=6]" source_file="/fs04/fc37/adam/projects/psilocybin-prl-analyses/src/prl_hgf/fitting/hierarchical_patrl.py" source_line=378}
  get-tuple-element.3656 = f64[120,20]{1,0} get-tuple-element(while.3607), index=48, metadata={op_name="jit(scan)/jit(main)/while[cond_nconsts=0 body_nconsts=6]" source_file="/fs04/fc37/adam/projects/psilocybin-prl-analyses/src/prl_hgf/fitting/hierarchical_patrl.py" source_line=378}
  get-tuple-element.3657 = f64[120,20]{1,0} get-tuple-element(while.3607), index=49, metadata={op_name="jit(scan)/jit(main)/while[cond_nconsts=0 body_nconsts=6]" source_file="/fs04/fc37/adam/projects/psilocybin-prl-analyses/src/prl_hgf/fitting/hierarchical_patrl.py" source_line=378}
  get-tuple-element.3658 = f64[120,20]{1,0} get-tuple-element(while.3607), index=50, metadata={op_name="jit(scan)/jit(main)/while[cond_nconsts=0 body_nconsts=6]" source_file="/fs04/fc37/adam/projects/psilocybin-prl-analyses/src/prl_hgf/fitting/hierarchical_patrl.py" source_line=378}
  get-tuple-element.3659 = f64[120,20]{1,0} get-tuple-element(while.3607), index=51, metadata={op_name="jit(scan)/jit(main)/while[cond_nconsts=0 body_nconsts=6]" source_file="/fs04/fc37/adam/projects/psilocybin-prl-analyses/src/prl_hgf/fitting/hierarchical_patrl.py" source_line=378}
  get-tuple-element.3660 = f64[120,20]{1,0} get-tuple-element(while.3607), index=52, metadata={op_name="jit(scan)/jit(main)/while[cond_nconsts=0 body_nconsts=6]" source_file="/fs04/fc37/adam/projects/psilocybin-prl-analyses/src/prl_hgf/fitting/hierarchical_patrl.py" source_line=378}
  get-tuple-element.3661 = f64[120,20]{1,0} get-tuple-element(while.3607), index=53, metadata={op_name="jit(scan)/jit(main)/while[cond_nconsts=0 body_nconsts=6]" source_file="/fs04/fc37/adam/projects/psilocybin-prl-analyses/src/prl_hgf/fitting/hierarchical_patrl.py" source_line=378}
  get-tuple-element.3662 = f64[120,20]{1,0} get-tuple-element(while.3607), index=54, metadata={op_name="jit(scan)/jit(main)/while[cond_nconsts=0 body_nconsts=6]" source_file="/fs04/fc37/adam/projects/psilocybin-prl-analyses/src/prl_hgf/fitting/hierarchical_patrl.py" source_line=378}
  get-tuple-element.3663 = f64[120,20]{1,0} get-tuple-element(while.3607), index=55, metadata={op_name="jit(scan)/jit(main)/while[cond_nconsts=0 body_nconsts=6]" source_file="/fs04/fc37/adam/projects/psilocybin-prl-analyses/src/prl_hgf/fitting/hierarchical_patrl.py" source_line=378}
  get-tuple-element.3664 = f64[120,20,1]{2,1,0} get-tuple-element(while.3607), index=56, metadata={op_name="jit(scan)/jit(main)/while[cond_nconsts=0 body_nconsts=6]" source_file="/fs04/fc37/adam/projects/psilocybin-prl-analyses/src/prl_hgf/fitting/hierarchical_patrl.py" source_line=378}
  get-tuple-element.3665 = f64[192,20]{1,0} get-tuple-element(while.3607), index=57, metadata={op_name="jit(scan)/jit(main)/while[cond_nconsts=0 body_nconsts=6]" source_file="/fs04/fc37/adam/projects/psilocybin-prl-analyses/src/prl_hgf/fitting/hierarchical_patrl.py" source_line=378}
  get-tuple-element.3666 = f64[192,20]{1,0} get-tuple-element(while.3607), index=58, metadata={op_name="jit(scan)/jit(main)/while[cond_nconsts=0 body_nconsts=6]" source_file="/fs04/fc37/adam/projects/psilocybin-prl-analyses/src/prl_hgf/fitting/hierarchical_patrl.py" source_line=378}
  get-tuple-element.3667 = f64[192,20]{1,0} get-tuple-element(while.3607), index=59, metadata={op_name="jit(scan)/jit(main)/while[cond_nconsts=0 body_nconsts=6]" source_file="/fs04/fc37/adam/projects/psilocybin-prl-analyses/src/prl_hgf/fitting/hierarchical_patrl.py" source_line=378}
  get-tuple-element.3668 = f64[192,20]{1,0} get-tuple-element(while.3607), index=60, metadata={op_name="jit(scan)/jit(main)/while[cond_nconsts=0 body_nconsts=6]" source_file="/fs04/fc37/adam/projects/psilocybin-prl-analyses/src/prl_hgf/fitting/hierarchical_patrl.py" source_line=378}
  get-tuple-element.3669 = pred[192,20]{1,0} get-tuple-element(while.3607), index=61, metadata={op_name="jit(scan)/jit(main)/while[cond_nconsts=0 body_nconsts=6]" source_file="/fs04/fc37/adam/projects/psilocybin-prl-analyses/src/prl_hgf/fitting/hierarchical_patrl.py" source_line=378}
  get-tuple-element.3670 = f64[192,20]{1,0} get-tuple-element(while.3607), index=62, metadata={op_name="jit(scan)/jit(main)/while[cond_nconsts=0 body_nconsts=6]" source_file="/fs04/fc37/adam/projects/psilocybin-prl-analyses/src/prl_hgf/fitting/hierarchical_patrl.py" source_line=378}
  get-tuple-element.3671 = f64[192,20]{1,0} get-tuple-element(while.3607), index=63, metadata={op_name="jit(scan)/jit(main)/while[cond_nconsts=0 body_nconsts=6]" source_file="/fs04/fc37/adam/projects/psilocybin-prl-analyses/src/prl_hgf/fitting/hierarchical_patrl.py" source_line=378}
  get-tuple-element.3672 = f64[192,20]{1,0} get-tuple-element(while.3607), index=64, metadata={op_name="jit(scan)/jit(main)/while[cond_nconsts=0 body_nconsts=6]" source_file="/fs04/fc37/adam/projects/psilocybin-prl-analyses/src/prl_hgf/fitting/hierarchical_patrl.py" source_line=378}
  get-tuple-element.3673 = f64[192,20]{1,0} get-tuple-element(while.3607), index=65, metadata={op_name="jit(scan)/jit(main)/while[cond_nconsts=0 body_nconsts=6]" source_file="/fs04/fc37/adam/projects/psilocybin-prl-analyses/src/prl_hgf/fitting/hierarchical_patrl.py" source_line=378}
  get-tuple-element.3674 = f64[192,20]{1,0} get-tuple-element(while.3607), index=66, metadata={op_name="jit(scan)/jit(main)/while[cond_nconsts=0 body_nconsts=6]" source_file="/fs04/fc37/adam/projects/psilocybin-prl-analyses/src/prl_hgf/fitting/hierarchical_patrl.py" source_line=378}
  get-tuple-element.3675 = f64[192,20]{1,0} get-tuple-element(while.3607), index=67, metadata={op_name="jit(scan)/jit(main)/while[cond_nconsts=0 body_nconsts=6]" source_file="/fs04/fc37/adam/projects/psilocybin-prl-analyses/src/prl_hgf/fitting/hierarchical_patrl.py" source_line=378}
  get-tuple-element.3676 = f64[192,20]{1,0} get-tuple-element(while.3607), index=68, metadata={op_name="jit(scan)/jit(main)/while[cond_nconsts=0 body_nconsts=6]" source_file="/fs04/fc37/adam/projects/psilocybin-prl-analyses/src/prl_hgf/fitting/hierarchical_patrl.py" source_line=378}
  get-tuple-element.3677 = f64[192,20]{1,0} get-tuple-element(while.3607), index=69, metadata={op_name="jit(scan)/jit(main)/while[cond_nconsts=0 body_nconsts=6]" source_file="/fs04/fc37/adam/projects/psilocybin-prl-analyses/src/prl_hgf/fitting/hierarchical_patrl.py" source_line=378}
  get-tuple-element.3678 = pred[192,20]{1,0} get-tuple-element(while.3607), index=70, metadata={op_name="jit(scan)/jit(main)/while[cond_nconsts=0 body_nconsts=6]" source_file="/fs04/fc37/adam/projects/psilocybin-prl-analyses/src/prl_hgf/fitting/hierarchical_patrl.py" source_line=378}
  get-tuple-element.3679 = f64[192,20]{1,0} get-tuple-element(while.3607), index=71, metadata={op_name="jit(scan)/jit(main)/while[cond_nconsts=0 body_nconsts=6]" source_file="/fs04/fc37/adam/projects/psilocybin-prl-analyses/src/prl_hgf/fitting/hierarchical_patrl.py" source_line=378}
  get-tuple-element.3680 = f64[192,20]{1,0} get-tuple-element(while.3607), index=72, metadata={op_name="jit(scan)/jit(main)/while[cond_nconsts=0 body_nconsts=6]" source_file="/fs04/fc37/adam/projects/psilocybin-prl-analyses/src/prl_hgf/fitting/hierarchical_patrl.py" source_line=378}
  get-tuple-element.3681 = f64[192,20]{1,0} get-tuple-element(while.3607), index=73, metadata={op_name="jit(scan)/jit(main)/while[cond_nconsts=0 body_nconsts=6]" source_file="/fs04/fc37/adam/projects/psilocybin-prl-analyses/src/prl_hgf/fitting/hierarchical_patrl.py" source_line=378}
  get-tuple-element.3682 = f64[192,20]{1,0} get-tuple-element(while.3607), index=74, metadata={op_name="jit(scan)/jit(main)/while[cond_nconsts=0 body_nconsts=6]" source_file="/fs04/fc37/adam/projects/psilocybin-prl-analyses/src/prl_hgf/fitting/hierarchical_patrl.py" source_line=378}
  get-tuple-element.3683 = f64[192,20]{1,0} get-tuple-element(while.3607), index=75, metadata={op_name="jit(scan)/jit(main)/while[cond_nconsts=0 body_nconsts=6]" source_file="/fs04/fc37/adam/projects/psilocybin-prl-analyses/src/prl_hgf/fitting/hierarchical_patrl.py" source_line=378}
  get-tuple-element.3684 = f64[192,20]{1,0} get-tuple-element(while.3607), index=76, metadata={op_name="jit(scan)/jit(main)/while[cond_nconsts=0 body_nconsts=6]" source_file="/fs04/fc37/adam/projects/psilocybin-prl-analyses/src/prl_hgf/fitting/hierarchical_patrl.py" source_line=378}
  get-tuple-element.3685 = f64[192,20]{1,0} get-tuple-element(while.3607), index=77, metadata={op_name="jit(scan)/jit(main)/while[cond_nconsts=0 body_nconsts=6]" source_file="/fs04/fc37/adam/projects/psilocybin-prl-analyses/src/prl_hgf/fitting/hierarchical_patrl.py" source_line=378}
  get-tuple-element.3686 = f64[192]{0} get-tuple-element(while.3607), index=78, metadata={op_name="jit(scan)/jit(main)/while[cond_nconsts=0 body_nconsts=6]" source_file="/fs04/fc37/adam/projects/psilocybin-prl-analyses/src/prl_hgf/fitting/hierarchical_patrl.py" source_line=378}
  get-tuple-element.3687 = f64[192,20]{1,0} get-tuple-element(while.3607), index=79, metadata={op_name="jit(scan)/jit(main)/while[cond_nconsts=0 body_nconsts=6]" source_file="/fs04/fc37/adam/projects/psilocybin-prl-analyses/src/prl_hgf/fitting/hierarchical_patrl.py" source_line=378}
  get-tuple-element.3688 = f64[192,20]{1,0} get-tuple-element(while.3607), index=80, metadata={op_name="jit(scan)/jit(main)/while[cond_nconsts=0 body_nconsts=6]" source_file="/fs04/fc37/adam/projects/psilocybin-prl-analyses/src/prl_hgf/fitting/hierarchical_patrl.py" source_line=378}
  get-tuple-element.3689 = f64[192,20]{1,0} get-tuple-element(while.3607), index=81, metadata={op_name="jit(scan)/jit(main)/while[cond_nconsts=0 body_nconsts=6]" source_file="/fs04/fc37/adam/projects/psilocybin-prl-analyses/src/prl_hgf/fitting/hierarchical_patrl.py" source_line=378}
  get-tuple-element.3690 = s32[192]{0} get-tuple-element(while.3607), index=82, metadata={op_name="jit(scan)/jit(main)/while[cond_nconsts=0 body_nconsts=6]" source_file="/fs04/fc37/adam/projects/psilocybin-prl-analyses/src/prl_hgf/fitting/hierarchical_patrl.py" source_line=378}
  get-tuple-element.3691 = f64[192,20]{1,0} get-tuple-element(while.3607), index=83, metadata={op_name="jit(scan)/jit(main)/while[cond_nconsts=0 body_nconsts=6]" source_file="/fs04/fc37/adam/projects/psilocybin-prl-analyses/src/prl_hgf/fitting/hierarchical_patrl.py" source_line=378}
  get-tuple-element.3692 = f64[192]{0} get-tuple-element(while.3607), index=84, metadata={op_name="jit(scan)/jit(main)/while[cond_nconsts=0 body_nconsts=6]" source_file="/fs04/fc37/adam/projects/psilocybin-prl-analyses/src/prl_hgf/fitting/hierarchical_patrl.py" source_line=378}
  get-tuple-element.3693 = f64[192,20]{1,0} get-tuple-element(while.3607), index=85, metadata={op_name="jit(scan)/jit(main)/while[cond_nconsts=0 body_nconsts=6]" source_file="/fs04/fc37/adam/projects/psilocybin-prl-analyses/src/prl_hgf/fitting/hierarchical_patrl.py" source_line=378}
  get-tuple-element.3694 = f64[192,20]{1,0} get-tuple-element(while.3607), index=86, metadata={op_name="jit(scan)/jit(main)/while[cond_nconsts=0 body_nconsts=6]" source_file="/fs04/fc37/adam/projects/psilocybin-prl-analyses/src/prl_hgf/fitting/hierarchical_patrl.py" source_line=378}
  get-tuple-element.3695 = f64[192,20]{1,0} get-tuple-element(while.3607), index=87, metadata={op_name="jit(scan)/jit(main)/while[cond_nconsts=0 body_nconsts=6]" source_file="/fs04/fc37/adam/projects/psilocybin-prl-analyses/src/prl_hgf/fitting/hierarchical_patrl.py" source_line=378}
  get-tuple-element.3696 = pred[192,20]{1,0} get-tuple-element(while.3607), index=88, metadata={op_name="jit(scan)/jit(main)/while[cond_nconsts=0 body_nconsts=6]" source_file="/fs04/fc37/adam/projects/psilocybin-prl-analyses/src/prl_hgf/fitting/hierarchical_patrl.py" source_line=378}
  get-tuple-element.3697 = f64[192,20]{1,0} get-tuple-element(while.3607), index=89, metadata={op_name="jit(scan)/jit(main)/while[cond_nconsts=0 body_nconsts=6]" source_file="/fs04/fc37/adam/projects/psilocybin-prl-analyses/src/prl_hgf/fitting/hierarchical_patrl.py" source_line=378}
  get-tuple-element.3698 = f64[192,20]{1,0} get-tuple-element(while.3607), index=90, metadata={op_name="jit(scan)/jit(main)/while[cond_nconsts=0 body_nconsts=6]" source_file="/fs04/fc37/adam/projects/psilocybin-prl-analyses/src/prl_hgf/fitting/hierarchical_patrl.py" source_line=378}
  get-tuple-element.3699 = f64[192,20]{1,0} get-tuple-element(while.3607), index=91, metadata={op_name="jit(scan)/jit(main)/while[cond_nconsts=0 body_nconsts=6]" source_file="/fs04/fc37/adam/projects/psilocybin-prl-analyses/src/prl_hgf/fitting/hierarchical_patrl.py" source_line=378}
  get-tuple-element.3700 = f64[192,20]{1,0} get-tuple-element(while.3607), index=92, metadata={op_name="jit(scan)/jit(main)/while[cond_nconsts=0 body_nconsts=6]" source_file="/fs04/fc37/adam/projects/psilocybin-prl-analyses/src/prl_hgf/fitting/hierarchical_patrl.py" source_line=378}
  get-tuple-element.3701 = f64[192,20]{1,0} get-tuple-element(while.3607), index=93, metadata={op_name="jit(scan)/jit(main)/while[cond_nconsts=0 body_nconsts=6]" source_file="/fs04/fc37/adam/projects/psilocybin-prl-analyses/src/prl_hgf/fitting/hierarchical_patrl.py" source_line=378}
  get-tuple-element.3702 = f64[192,20]{1,0} get-tuple-element(while.3607), index=94, metadata={op_name="jit(scan)/jit(main)/while[cond_nconsts=0 body_nconsts=6]" source_file="/fs04/fc37/adam/projects/psilocybin-prl-analyses/src/prl_hgf/fitting/hierarchical_patrl.py" source_line=378}
  get-tuple-element.3703 = f64[192]{0} get-tuple-element(while.3607), index=95, metadata={op_name="jit(scan)/jit(main)/while[cond_nconsts=0 body_nconsts=6]" source_file="/fs04/fc37/adam/projects/psilocybin-prl-analyses/src/prl_hgf/fitting/hierarchical_patrl.py" source_line=378}
  get-tuple-element.3704 = f64[192,20]{1,0} get-tuple-element(while.3607), index=96, metadata={op_name="jit(scan)/jit(main)/while[cond_nconsts=0 body_nconsts=6]" source_file="/fs04/fc37/adam/projects/psilocybin-prl-analyses/src/prl_hgf/fitting/hierarchical_patrl.py" source_line=378}
  get-tuple-element.3705 = f64[192,20]{1,0} get-tuple-element(while.3607), index=97, metadata={op_name="jit(scan)/jit(main)/while[cond_nconsts=0 body_nconsts=6]" source_file="/fs04/fc37/adam/projects/psilocybin-prl-analyses/src/prl_hgf/fitting/hierarchical_patrl.py" source_line=378}
  get-tuple-element.3706 = f64[192,20]{1,0} get-tuple-element(while.3607), index=98, metadata={op_name="jit(scan)/jit(main)/while[cond_nconsts=0 body_nconsts=6]" source_file="/fs04/fc37/adam/projects/psilocybin-prl-analyses/src/prl_hgf/fitting/hierarchical_patrl.py" source_line=378}
  get-tuple-element.3707 = f64[192,20]{1,0} get-tuple-element(while.3607), index=99, metadata={op_name="jit(scan)/jit(main)/while[cond_nconsts=0 body_nconsts=6]" source_file="/fs04/fc37/adam/projects/psilocybin-prl-analyses/src/prl_hgf/fitting/hierarchical_patrl.py" source_line=378}
  get-tuple-element.3708 = f64[192,20]{1,0} get-tuple-element(while.3607), index=100, metadata={op_name="jit(scan)/jit(main)/while[cond_nconsts=0 body_nconsts=6]" source_file="/fs04/fc37/adam/projects/psilocybin-prl-analyses/src/prl_hgf/fitting/hierarchical_patrl.py" source_line=378}
  get-tuple-element.3709 = f64[192,20]{1,0} get-tuple-element(while.3607), index=101, metadata={op_name="jit(scan)/jit(main)/while[cond_nconsts=0 body_nconsts=6]" source_file="/fs04/fc37/adam/projects/psilocybin-prl-analyses/src/prl_hgf/fitting/hierarchical_patrl.py" source_line=378}
  get-tuple-element.3710 = f64[192,20]{1,0} get-tuple-element(while.3607), index=102, metadata={op_name="jit(scan)/jit(main)/while[cond_nconsts=0 body_nconsts=6]" source_file="/fs04/fc37/adam/projects/psilocybin-prl-analyses/src/prl_hgf/fitting/hierarchical_patrl.py" source_line=378}
  get-tuple-element.3711 = f64[192,20]{1,0} get-tuple-element(while.3607), index=103, metadata={op_name="jit(scan)/jit(main)/while[cond_nconsts=0 body_nconsts=6]" source_file="/fs04/fc37/adam/projects/psilocybin-prl-analyses/src/prl_hgf/fitting/hierarchical_patrl.py" source_line=378}
  get-tuple-element.3712 = f64[192,20]{1,0} get-tuple-element(while.3607), index=104, metadata={op_name="jit(scan)/jit(main)/while[cond_nconsts=0 body_nconsts=6]" source_file="/fs04/fc37/adam/projects/psilocybin-prl-analyses/src/prl_hgf/fitting/hierarchical_patrl.py" source_line=378}
  get-tuple-element.3713 = f64[192,20]{1,0} get-tuple-element(while.3607), index=105, metadata={op_name="jit(scan)/jit(main)/while[cond_nconsts=0 body_nconsts=6]" source_file="/fs04/fc37/adam/projects/psilocybin-prl-analyses/src/prl_hgf/fitting/hierarchical_patrl.py" source_line=378}
  get-tuple-element.3714 = f64[192,20]{1,0} get-tuple-element(while.3607), index=106, metadata={op_name="jit(scan)/jit(main)/while[cond_nconsts=0 body_nconsts=6]" source_file="/fs04/fc37/adam/projects/psilocybin-prl-analyses/src/prl_hgf/fitting/hierarchical_patrl.py" source_line=378}
  get-tuple-element.3715 = s32[192,20]{1,0} get-tuple-element(while.3607), index=107, metadata={op_name="jit(scan)/jit(main)/while[cond_nconsts=0 body_nconsts=6]" source_file="/fs04/fc37/adam/projects/psilocybin-prl-analyses/src/prl_hgf/fitting/hierarchical_patrl.py" source_line=378}
  get-tuple-element.3716 = pred[192,20]{1,0} get-tuple-element(while.3607), index=108, metadata={op_name="jit(scan)/jit(main)/while[cond_nconsts=0 body_nconsts=6]" source_file="/fs04/fc37/adam/projects/psilocybin-prl-analyses/src/prl_hgf/fitting/hierarchical_patrl.py" source_line=378}
  get-tuple-element.3717 = pred[192,20,1]{2,1,0} get-tuple-element(while.3607), index=109, metadata={op_name="jit(scan)/jit(main)/while[cond_nconsts=0 body_nconsts=6]" source_file="/fs04/fc37/adam/projects/psilocybin-prl-analyses/src/prl_hgf/fitting/hierarchical_patrl.py" source_line=378}
  get-tuple-element.3718 = f64[192,20]{1,0} get-tuple-element(while.3607), index=110, metadata={op_name="jit(scan)/jit(main)/while[cond_nconsts=0 body_nconsts=6]" source_file="/fs04/fc37/adam/projects/psilocybin-prl-analyses/src/prl_hgf/fitting/hierarchical_patrl.py" source_line=378}
  get-tuple-element.3719 = f64[192,20]{1,0} get-tuple-element(while.3607), index=111, metadata={op_name="jit(scan)/jit(main)/while[cond_nconsts=0 body_nconsts=6]" source_file="/fs04/fc37/adam/projects/psilocybin-prl-analyses/src/prl_hgf/fitting/hierarchical_patrl.py" source_line=378}
  get-tuple-element.3720 = f64[192,20]{1,0} get-tuple-element(while.3607), index=112, metadata={op_name="jit(scan)/jit(main)/while[cond_nconsts=0 body_nconsts=6]" source_file="/fs04/fc37/adam/projects/psilocybin-prl-analyses/src/prl_hgf/fitting/hierarchical_patrl.py" source_line=378}
  get-tuple-element.3721 = f64[192,20]{1,0} get-tuple-element(while.3607), index=113, metadata={op_name="jit(scan)/jit(main)/while[cond_nconsts=0 body_nconsts=6]" source_file="/fs04/fc37/adam/projects/psilocybin-prl-analyses/src/prl_hgf/fitting/hierarchical_patrl.py" source_line=378}
  get-tuple-element.3722 = pred[192,20]{1,0} get-tuple-element(while.3607), index=114, metadata={op_name="jit(scan)/jit(main)/while[cond_nconsts=0 body_nconsts=6]" source_file="/fs04/fc37/adam/projects/psilocybin-prl-analyses/src/prl_hgf/fitting/hierarchical_patrl.py" source_line=378}
  get-tuple-element.3723 = pred[192,20,1]{2,1,0} get-tuple-element(while.3607), index=115, metadata={op_name="jit(scan)/jit(main)/while[cond_nconsts=0 body_nconsts=6]" source_file="/fs04/fc37/adam/projects/psilocybin-prl-analyses/src/prl_hgf/fitting/hierarchical_patrl.py" source_line=378}
  get-tuple-element.3724 = f64[192,20]{1,0} get-tuple-element(while.3607), index=116, metadata={op_name="jit(scan)/jit(main)/while[cond_nconsts=0 body_nconsts=6]" source_file="/fs04/fc37/adam/projects/psilocybin-prl-analyses/src/prl_hgf/fitting/hierarchical_patrl.py" source_line=378}
  get-tuple-element.3725 = f64[192,20]{1,0} get-tuple-element(while.3607), index=117, metadata={op_name="jit(scan)/jit(main)/while[cond_nconsts=0 body_nconsts=6]" source_file="/fs04/fc37/adam/projects/psilocybin-prl-analyses/src/prl_hgf/fitting/hierarchical_patrl.py" source_line=378}
  get-tuple-element.3726 = f64[192,20]{1,0} get-tuple-element(while.3607), index=118, metadata={op_name="jit(scan)/jit(main)/while[cond_nconsts=0 body_nconsts=6]" source_file="/fs04/fc37/adam/projects/psilocybin-prl-analyses/src/prl_hgf/fitting/hierarchical_patrl.py" source_line=378}
  get-tuple-element.3727 = f64[192,20]{1,0} get-tuple-element(while.3607), index=119, metadata={op_name="jit(scan)/jit(main)/while[cond_nconsts=0 body_nconsts=6]" source_file="/fs04/fc37/adam/projects/psilocybin-prl-analyses/src/prl_hgf/fitting/hierarchical_patrl.py" source_line=378}
  get-tuple-element.3728 = f64[192,20]{1,0} get-tuple-element(while.3607), index=120, metadata={op_name="jit(scan)/jit(main)/while[cond_nconsts=0 body_nconsts=6]" source_file="/fs04/fc37/adam/projects/psilocybin-prl-analyses/src/prl_hgf/fitting/hierarchical_patrl.py" source_line=378}
  get-tuple-element.3729 = f64[192,20]{1,0} get-tuple-element(while.3607), index=121, metadata={op_name="jit(scan)/jit(main)/while[cond_nconsts=0 body_nconsts=6]" source_file="/fs04/fc37/adam/projects/psilocybin-prl-analyses/src/prl_hgf/fitting/hierarchical_patrl.py" source_line=378}
  get-tuple-element.3730 = f64[192,20]{1,0} get-tuple-element(while.3607), index=122, metadata={op_name="jit(scan)/jit(main)/while[cond_nconsts=0 body_nconsts=6]" source_file="/fs04/fc37/adam/projects/psilocybin-prl-analyses/src/prl_hgf/fitting/hierarchical_patrl.py" source_line=378}
  get-tuple-element.3731 = f64[192,20]{1,0} get-tuple-element(while.3607), index=123, metadata={op_name="jit(scan)/jit(main)/while[cond_nconsts=0 body_nconsts=6]" source_file="/fs04/fc37/adam/projects/psilocybin-prl-analyses/src/prl_hgf/fitting/hierarchical_patrl.py" source_line=378}
  get-tuple-element.3732 = f64[192,20]{1,0} get-tuple-element(while.3607), index=124, metadata={op_name="jit(scan)/jit(main)/while[cond_nconsts=0 body_nconsts=6]" source_file="/fs04/fc37/adam/projects/psilocybin-prl-analyses/src/prl_hgf/fitting/hierarchical_patrl.py" source_line=378}
  get-tuple-element.3733 = f64[192,20]{1,0} get-tuple-element(while.3607), index=125, metadata={op_name="jit(scan)/jit(main)/while[cond_nconsts=0 body_nconsts=6]" source_file="/fs04/fc37/adam/projects/psilocybin-prl-analyses/src/prl_hgf/fitting/hierarchical_patrl.py" source_line=378}
  get-tuple-element.3734 = pred[192,20]{1,0} get-tuple-element(while.3607), index=126, metadata={op_name="jit(scan)/jit(main)/while[cond_nconsts=0 body_nconsts=6]" source_file="/fs04/fc37/adam/projects/psilocybin-prl-analyses/src/prl_hgf/fitting/hierarchical_patrl.py" source_line=378}
  get-tuple-element.3735 = pred[192,20]{1,0} get-tuple-element(while.3607), index=127, metadata={op_name="jit(scan)/jit(main)/while[cond_nconsts=0 body_nconsts=6]" source_file="/fs04/fc37/adam/projects/psilocybin-prl-analyses/src/prl_hgf/fitting/hierarchical_patrl.py" source_line=378}
  get-tuple-element.3736 = pred[192,20,1]{2,1,0} get-tuple-element(while.3607), index=128, metadata={op_name="jit(scan)/jit(main)/while[cond_nconsts=0 body_nconsts=6]" source_file="/fs04/fc37/adam/projects/psilocybin-prl-analyses/src/prl_hgf/fitting/hierarchical_patrl.py" source_line=378}
  get-tuple-element.3737 = f64[192,120,20]{2,1,0} get-tuple-element(while.3607), index=129, metadata={op_name="jit(scan)/jit(main)/while[cond_nconsts=0 body_nconsts=6]" source_file="/fs04/fc37/adam/projects/psilocybin-prl-analyses/src/prl_hgf/fitting/hierarchical_patrl.py" source_line=378}
  get-tuple-element.3738 = f64[192,120,20]{2,1,0} get-tuple-element(while.3607), index=130, metadata={op_name="jit(scan)/jit(main)/while[cond_nconsts=0 body_nconsts=6]" source_file="/fs04/fc37/adam/projects/psilocybin-prl-analyses/src/prl_hgf/fitting/hierarchical_patrl.py" source_line=378}
  get-tuple-element.3739 = f64[192,120,20]{2,1,0} get-tuple-element(while.3607), index=131, metadata={op_name="jit(scan)/jit(main)/while[cond_nconsts=0 body_nconsts=6]" source_file="/fs04/fc37/adam/projects/psilocybin-prl-analyses/src/prl_hgf/fitting/hierarchical_patrl.py" source_line=378}
  get-tuple-element.3740 = f64[192,120,20]{2,1,0} get-tuple-element(while.3607), index=132, metadata={op_name="jit(scan)/jit(main)/while[cond_nconsts=0 body_nconsts=6]" source_file="/fs04/fc37/adam/projects/psilocybin-prl-analyses/src/prl_hgf/fitting/hierarchical_patrl.py" source_line=378}
  get-tuple-element.3741 = f64[192,120,20]{2,1,0} get-tuple-element(while.3607), index=133, metadata={op_name="jit(scan)/jit(main)/while[cond_nconsts=0 body_nconsts=6]" source_file="/fs04/fc37/adam/projects/psilocybin-prl-analyses/src/prl_hgf/fitting/hierarchical_patrl.py" source_line=378}
  get-tuple-element.3742 = f64[192,120,20]{2,1,0} get-tuple-element(while.3607), index=134, metadata={op_name="jit(scan)/jit(main)/while[cond_nconsts=0 body_nconsts=6]" source_file="/fs04/fc37/adam/projects/psilocybin-prl-analyses/src/prl_hgf/fitting/hierarchical_patrl.py" source_line=378}
  get-tuple-element.3743 = f64[192,120,20]{2,1,0} get-tuple-element(while.3607), index=135, metadata={op_name="jit(scan)/jit(main)/while[cond_nconsts=0 body_nconsts=6]" source_file="/fs04/fc37/adam/projects/psilocybin-prl-analyses/src/prl_hgf/fitting/hierarchical_patrl.py" source_line=378}
  get-tuple-element.3744 = f64[192,120,20]{2,1,0} get-tuple-element(while.3607), index=136, metadata={op_name="jit(scan)/jit(main)/while[cond_nconsts=0 body_nconsts=6]" source_file="/fs04/fc37/adam/projects/psilocybin-prl-analyses/src/prl_hgf/fitting/hierarchical_patrl.py" source_line=378}
  get-tuple-element.3745 = f64[192,120,20]{2,1,0} get-tuple-element(while.3607), index=137, metadata={op_name="jit(scan)/jit(main)/while[cond_nconsts=0 body_nconsts=6]" source_file="/fs04/fc37/adam/projects/psilocybin-prl-analyses/src/prl_hgf/fitting/hierarchical_patrl.py" source_line=378}
  get-tuple-element.3746 = f64[192,120,20]{2,1,0} get-tuple-element(while.3607), index=138, metadata={op_name="jit(scan)/jit(main)/while[cond_nconsts=0 body_nconsts=6]" source_file="/fs04/fc37/adam/projects/psilocybin-prl-analyses/src/prl_hgf/fitting/hierarchical_patrl.py" source_line=378}
  get-tuple-element.3747 = f64[192,120,20]{2,1,0} get-tuple-element(while.3607), index=139, metadata={op_name="jit(scan)/jit(main)/while[cond_nconsts=0 body_nconsts=6]" source_file="/fs04/fc37/adam/projects/psilocybin-prl-analyses/src/prl_hgf/fitting/hierarchical_patrl.py" source_line=378}
  get-tuple-element.3748 = f64[192,120,20]{2,1,0} get-tuple-element(while.3607), index=140, metadata={op_name="jit(scan)/jit(main)/while[cond_nconsts=0 body_nconsts=6]" source_file="/fs04/fc37/adam/projects/psilocybin-prl-analyses/src/prl_hgf/fitting/hierarchical_patrl.py" source_line=378}
  get-tuple-element.3749 = f64[192,120,20]{2,1,0} get-tuple-element(while.3607), index=141, metadata={op_name="jit(scan)/jit(main)/while[cond_nconsts=0 body_nconsts=6]" source_file="/fs04/fc37/adam/projects/psilocybin-prl-analyses/src/prl_hgf/fitting/hierarchical_patrl.py" source_line=378}
  get-tuple-element.3750 = f64[192,120,20]{2,1,0} get-tuple-element(while.3607), index=142, metadata={op_name="jit(scan)/jit(main)/while[cond_nconsts=0 body_nconsts=6]" source_file="/fs04/fc37/adam/projects/psilocybin-prl-analyses/src/prl_hgf/fitting/hierarchical_patrl.py" source_line=378}
  get-tuple-element.3751 = f64[192,120,20]{2,1,0} get-tuple-element(while.3607), index=143, metadata={op_name="jit(scan)/jit(main)/while[cond_nconsts=0 body_nconsts=6]" source_file="/fs04/fc37/adam/projects/psilocybin-prl-analyses/src/prl_hgf/fitting/hierarchical_patrl.py" source_line=378}
  get-tuple-element.3752 = f64[192,120,20]{2,1,0} get-tuple-element(while.3607), index=144, metadata={op_name="jit(scan)/jit(main)/while[cond_nconsts=0 body_nconsts=6]" source_file="/fs04/fc37/adam/projects/psilocybin-prl-analyses/src/prl_hgf/fitting/hierarchical_patrl.py" source_line=378}
  get-tuple-element.3753 = f64[192,120,20]{2,1,0} get-tuple-element(while.3607), index=145, metadata={op_name="jit(scan)/jit(main)/while[cond_nconsts=0 body_nconsts=6]" source_file="/fs04/fc37/adam/projects/psilocybin-prl-analyses/src/prl_hgf/fitting/hierarchical_patrl.py" source_line=378}
  get-tuple-element.3754 = f64[192,120,20]{2,1,0} get-tuple-element(while.3607), index=146, metadata={op_name="jit(scan)/jit(main)/while[cond_nconsts=0 body_nconsts=6]" source_file="/fs04/fc37/adam/projects/psilocybin-prl-analyses/src/prl_hgf/fitting/hierarchical_patrl.py" source_line=378}
  get-tuple-element.3755 = f64[192,120,20]{2,1,0} get-tuple-element(while.3607), index=147, metadata={op_name="jit(scan)/jit(main)/while[cond_nconsts=0 body_nconsts=6]" source_file="/fs04/fc37/adam/projects/psilocybin-prl-analyses/src/prl_hgf/fitting/hierarchical_patrl.py" source_line=378}
  get-tuple-element.3756 = f64[192,120,20]{2,1,0} get-tuple-element(while.3607), index=148, metadata={op_name="jit(scan)/jit(main)/while[cond_nconsts=0 body_nconsts=6]" source_file="/fs04/fc37/adam/projects/psilocybin-prl-analyses/src/prl_hgf/fitting/hierarchical_patrl.py" source_line=378}
  get-tuple-element.3757 = f64[192,120,20]{2,1,0} get-tuple-element(while.3607), index=149, metadata={op_name="jit(scan)/jit(main)/while[cond_nconsts=0 body_nconsts=6]" source_file="/fs04/fc37/adam/projects/psilocybin-prl-analyses/src/prl_hgf/fitting/hierarchical_patrl.py" source_line=378}
  get-tuple-element.3758 = f64[192,120,20]{2,1,0} get-tuple-element(while.3607), index=150, metadata={op_name="jit(scan)/jit(main)/while[cond_nconsts=0 body_nconsts=6]" source_file="/fs04/fc37/adam/projects/psilocybin-prl-analyses/src/prl_hgf/fitting/hierarchical_patrl.py" source_line=378}
  get-tuple-element.3759 = f64[192,120,20]{2,1,0} get-tuple-element(while.3607), index=151, metadata={op_name="jit(scan)/jit(main)/while[cond_nconsts=0 body_nconsts=6]" source_file="/fs04/fc37/adam/projects/psilocybin-prl-analyses/src/prl_hgf/fitting/hierarchical_patrl.py" source_line=378}
  get-tuple-element.3760 = f64[192,120,20]{2,1,0} get-tuple-element(while.3607), index=152, metadata={op_name="jit(scan)/jit(main)/while[cond_nconsts=0 body_nconsts=6]" source_file="/fs04/fc37/adam/projects/psilocybin-prl-analyses/src/prl_hgf/fitting/hierarchical_patrl.py" source_line=378}
  get-tuple-element.3761 = f64[192,120,20]{2,1,0} get-tuple-element(while.3607), index=153, metadata={op_name="jit(scan)/jit(main)/while[cond_nconsts=0 body_nconsts=6]" source_file="/fs04/fc37/adam/projects/psilocybin-prl-analyses/src/prl_hgf/fitting/hierarchical_patrl.py" source_line=378}
  get-tuple-element.3762 = f64[192,120,20]{2,1,0} get-tuple-element(while.3607), index=154, metadata={op_name="jit(scan)/jit(main)/while[cond_nconsts=0 body_nconsts=6]" source_file="/fs04/fc37/adam/projects/psilocybin-prl-analyses/src/prl_hgf/fitting/hierarchical_patrl.py" source_line=378}
  get-tuple-element.3763 = f64[192,120,20]{2,1,0} get-tuple-element(while.3607), index=155, metadata={op_name="jit(scan)/jit(main)/while[cond_nconsts=0 body_nconsts=6]" source_file="/fs04/fc37/adam/projects/psilocybin-prl-analyses/src/prl_hgf/fitting/hierarchical_patrl.py" source_line=378}
  get-tuple-element.3764 = f64[192,120,20]{2,1,0} get-tuple-element(while.3607), index=156, metadata={op_name="jit(scan)/jit(main)/while[cond_nconsts=0 body_nconsts=6]" source_file="/fs04/fc37/adam/projects/psilocybin-prl-analyses/src/prl_hgf/fitting/hierarchical_patrl.py" source_line=378}
  get-tuple-element.3765 = f64[192,120,20]{2,1,0} get-tuple-element(while.3607), index=157, metadata={op_name="jit(scan)/jit(main)/while[cond_nconsts=0 body_nconsts=6]" source_file="/fs04/fc37/adam/projects/psilocybin-prl-analyses/src/prl_hgf/fitting/hierarchical_patrl.py" source_line=378}
  get-tuple-element.3766 = f64[192,120,20]{2,1,0} get-tuple-element(while.3607), index=158, metadata={op_name="jit(scan)/jit(main)/while[cond_nconsts=0 body_nconsts=6]" source_file="/fs04/fc37/adam/projects/psilocybin-prl-analyses/src/prl_hgf/fitting/hierarchical_patrl.py" source_line=378}
  get-tuple-element.3767 = f64[192,120,20]{2,1,0} get-tuple-element(while.3607), index=159, metadata={op_name="jit(scan)/jit(main)/while[cond_nconsts=0 body_nconsts=6]" source_file="/fs04/fc37/adam/projects/psilocybin-prl-analyses/src/prl_hgf/fitting/hierarchical_patrl.py" source_line=378}
  get-tuple-element.3768 = f64[192,120,20]{2,1,0} get-tuple-element(while.3607), index=160, metadata={op_name="jit(scan)/jit(main)/while[cond_nconsts=0 body_nconsts=6]" source_file="/fs04/fc37/adam/projects/psilocybin-prl-analyses/src/prl_hgf/fitting/hierarchical_patrl.py" source_line=378}
  get-tuple-element.3769 = f64[192,120,20]{2,1,0} get-tuple-element(while.3607), index=161, metadata={op_name="jit(scan)/jit(main)/while[cond_nconsts=0 body_nconsts=6]" source_file="/fs04/fc37/adam/projects/psilocybin-prl-analyses/src/prl_hgf/fitting/hierarchical_patrl.py" source_line=378}
  get-tuple-element.3770 = f64[192,120,20]{2,1,0} get-tuple-element(while.3607), index=162, metadata={op_name="jit(scan)/jit(main)/while[cond_nconsts=0 body_nconsts=6]" source_file="/fs04/fc37/adam/projects/psilocybin-prl-analyses/src/prl_hgf/fitting/hierarchical_patrl.py" source_line=378}
  get-tuple-element.3771 = f64[192,120,20]{2,1,0} get-tuple-element(while.3607), index=163, metadata={op_name="jit(scan)/jit(main)/while[cond_nconsts=0 body_nconsts=6]" source_file="/fs04/fc37/adam/projects/psilocybin-prl-analyses/src/prl_hgf/fitting/hierarchical_patrl.py" source_line=378}
  get-tuple-element.3772 = f64[192,120,20]{2,1,0} get-tuple-element(while.3607), index=164, metadata={op_name="jit(scan)/jit(main)/while[cond_nconsts=0 body_nconsts=6]" source_file="/fs04/fc37/adam/projects/psilocybin-prl-analyses/src/prl_hgf/fitting/hierarchical_patrl.py" source_line=378}
  get-tuple-element.3773 = f64[192,120,20]{2,1,0} get-tuple-element(while.3607), index=165, metadata={op_name="jit(scan)/jit(main)/while[cond_nconsts=0 body_nconsts=6]" source_file="/fs04/fc37/adam/projects/psilocybin-prl-analyses/src/prl_hgf/fitting/hierarchical_patrl.py" source_line=378}
  get-tuple-element.3774 = f64[192,120,20]{2,1,0} get-tuple-element(while.3607), index=166, metadata={op_name="jit(scan)/jit(main)/while[cond_nconsts=0 body_nconsts=6]" source_file="/fs04/fc37/adam/projects/psilocybin-prl-analyses/src/prl_hgf/fitting/hierarchical_patrl.py" source_line=378}
  get-tuple-element.3775 = f64[192,120,20]{2,1,0} get-tuple-element(while.3607), index=167, metadata={op_name="jit(scan)/jit(main)/while[cond_nconsts=0 body_nconsts=6]" source_file="/fs04/fc37/adam/projects/psilocybin-prl-analyses/src/prl_hgf/fitting/hierarchical_patrl.py" source_line=378}
  get-tuple-element.3776 = f64[192,120,20]{2,1,0} get-tuple-element(while.3607), index=168, metadata={op_name="jit(scan)/jit(main)/while[cond_nconsts=0 body_nconsts=6]" source_file="/fs04/fc37/adam/projects/psilocybin-prl-analyses/src/prl_hgf/fitting/hierarchical_patrl.py" source_line=378}
  get-tuple-element.3777 = f64[192,120,20]{2,1,0} get-tuple-element(while.3607), index=169, metadata={op_name="jit(scan)/jit(main)/while[cond_nconsts=0 body_nconsts=6]" source_file="/fs04/fc37/adam/projects/psilocybin-prl-analyses/src/prl_hgf/fitting/hierarchical_patrl.py" source_line=378}
  get-tuple-element.3778 = f64[192,120,20]{2,1,0} get-tuple-element(while.3607), index=170, metadata={op_name="jit(scan)/jit(main)/while[cond_nconsts=0 body_nconsts=6]" source_file="/fs04/fc37/adam/projects/psilocybin-prl-analyses/src/prl_hgf/fitting/hierarchical_patrl.py" source_line=378}
  get-tuple-element.3779 = f64[192,120,20]{2,1,0} get-tuple-element(while.3607), index=171, metadata={op_name="jit(scan)/jit(main)/while[cond_nconsts=0 body_nconsts=6]" source_file="/fs04/fc37/adam/projects/psilocybin-prl-analyses/src/prl_hgf/fitting/hierarchical_patrl.py" source_line=378}
  get-tuple-element.3780 = f64[192,120,20]{2,1,0} get-tuple-element(while.3607), index=172, metadata={op_name="jit(scan)/jit(main)/while[cond_nconsts=0 body_nconsts=6]" source_file="/fs04/fc37/adam/projects/psilocybin-prl-analyses/src/prl_hgf/fitting/hierarchical_patrl.py" source_line=378}
  get-tuple-element.3781 = f64[192,120,20]{2,1,0} get-tuple-element(while.3607), index=173, metadata={op_name="jit(scan)/jit(main)/while[cond_nconsts=0 body_nconsts=6]" source_file="/fs04/fc37/adam/projects/psilocybin-prl-analyses/src/prl_hgf/fitting/hierarchical_patrl.py" source_line=378}
  get-tuple-element.3782 = f64[192,120,20]{2,1,0} get-tuple-element(while.3607), index=174, metadata={op_name="jit(scan)/jit(main)/while[cond_nconsts=0 body_nconsts=6]" source_file="/fs04/fc37/adam/projects/psilocybin-prl-analyses/src/prl_hgf/fitting/hierarchical_patrl.py" source_line=378}
  get-tuple-element.3783 = f64[192,120,20]{2,1,0} get-tuple-element(while.3607), index=175, metadata={op_name="jit(scan)/jit(main)/while[cond_nconsts=0 body_nconsts=6]" source_file="/fs04/fc37/adam/projects/psilocybin-prl-analyses/src/prl_hgf/fitting/hierarchical_patrl.py" source_line=378}
  get-tuple-element.3784 = f64[192,120,20]{2,1,0} get-tuple-element(while.3607), index=176, metadata={op_name="jit(scan)/jit(main)/while[cond_nconsts=0 body_nconsts=6]" source_file="/fs04/fc37/adam/projects/psilocybin-prl-analyses/src/prl_hgf/fitting/hierarchical_patrl.py" source_line=378}
  get-tuple-element.3785 = f64[192,120,20]{2,1,0} get-tuple-element(while.3607), index=177, metadata={op_name="jit(scan)/jit(main)/while[cond_nconsts=0 body_nconsts=6]" source_file="/fs04/fc37/adam/projects/psilocybin-prl-analyses/src/prl_hgf/fitting/hierarchical_patrl.py" source_line=378}
  ROOT tuple.3792 = (f64[20]{0}, f64[20]{0}, f64[20]{0}, f64[20]{0}, s32[20]{0}, /*index=5*/f64[20]{0}, f64[20]{0}, f64[20,1]{1,0}, f64[20]{0}, f64[20]{0}, /*index=10*/f64[20]{0}, f64[20]{0}, s64[20]{0}, f64[20]{0}, f64[20]{0}, /*index=15*/f64[20]{0}, f64[20]{0}, f64[20]{0}, f64[20]{0}, f64[20]{0}, /*index=20*/f64[20,1]{1,0}, f64[20,1]{1,0}, f64[20]{0}, f64[20]{0}, f64[20]{0}, /*index=25*/f64[20]{0}, s64[20]{0}, f64[20]{0}, f64[20]{0}, f64[20]{0}, /*index=30*/f64[20]{0}, f64[20]{0}, f64[20]{0}, f64[20]{0}, f64[20,1]{1,0}, /*index=35*/f64[120,20]{1,0}, f64[120,20]{1,0}, f64[120,20]{1,0}, f64[120,20]{1,0}, f64[120,20]{1,0}, /*index=40*/f64[120,20]{1,0}, f64[120,20]{1,0}, f64[120,20]{1,0}, f64[120,20]{1,0}, f64[120,20]{1,0}, /*index=45*/f64[120,20]{1,0}, f64[120,20]{1,0}, f64[120,20]{1,0}, f64[120,20]{1,0}, f64[120,20]{1,0}, /*index=50*/f64[120,20]{1,0}, f64[120,20]{1,0}, f64[120,20]{1,0}, f64[120,20]{1,0}, f64[120,20]{1,0}, /*index=55*/f64[120,20,1]{2,1,0}, f64[192,20]{1,0}, f64[192,20]{1,0}, f64[192,20]{1,0}, f64[192,20]{1,0}, /*index=60*/pred[192,20]{1,0}, f64[192,20]{1,0}, f64[192,20]{1,0}, f64[192,20]{1,0}, f64[192,20]{1,0}, /*index=65*/f64[192,20]{1,0}, f64[192,20]{1,0}, f64[192,20]{1,0}, f64[192,20]{1,0}, pred[192,20]{1,0}, /*index=70*/f64[192,20]{1,0}, f64[192,20]{1,0}, f64[192,20]{1,0}, f64[192,20]{1,0}, f64[192,20]{1,0}, /*index=75*/f64[192,20]{1,0}, f64[192,20]{1,0}, f64[192]{0}, f64[192,20]{1,0}, f64[192,20]{1,0}, /*index=80*/f64[192,20]{1,0}, s32[192]{0}, f64[192,20]{1,0}, f64[192]{0}, f64[192,20]{1,0}, /*index=85*/f64[192,20]{1,0}, f64[192,20]{1,0}, pred[192,20]{1,0}, f64[192,20]{1,0}, f64[192,20]{1,0}, /*index=90*/f64[192,20]{1,0}, f64[192,20]{1,0}, f64[192,20]{1,0}, f64[192,20]{1,0}, f64[192]{0}, /*index=95*/f64[192,20]{1,0}, f64[192,20]{1,0}, f64[192,20]{1,0}, f64[192,20]{1,0}, f64[192,20]{1,0}, /*index=100*/f64[192,20]{1,0}, f64[192,20]{1,0}, f64[192,20]{1,0}, f64[192,20]{1,0}, f64[192,20]{1,0}, /*index=105*/f64[192,20]{1,0}, s32[192,20]{1,0}, pred[192,20]{1,0}, pred[192,20,1]{2,1,0}, f64[192,20]{1,0}, /*index=110*/f64[192,20]{1,0}, f64[192,20]{1,0}, f64[192,20]{1,0}, pred[192,20]{1,0}, pred[192,20,1]{2,1,0}, /*index=115*/f64[192,20]{1,0}, f64[192,20]{1,0}, f64[192,20]{1,0}, f64[192,20]{1,0}, f64[192,20]{1,0}, /*index=120*/f64[192,20]{1,0}, f64[192,20]{1,0}, f64[192,20]{1,0}, f64[192,20]{1,0}, f64[192,20]{1,0}, /*index=125*/pred[192,20]{1,0}, pred[192,20]{1,0}, pred[192,20,1]{2,1,0}, f64[192,120,20]{2,1,0}, f64[192,120,20]{2,1,0}, /*index=130*/f64[192,120,20]{2,1,0}, f64[192,120,20]{2,1,0}, f64[192,120,20]{2,1,0}, f64[192,120,20]{2,1,0}, f64[192,120,20]{2,1,0}, /*index=135*/f64[192,120,20]{2,1,0}, f64[192,120,20]{2,1,0}, f64[192,120,20]{2,1,0}, f64[192,120,20]{2,1,0}, f64[192,120,20]{2,1,0}, /*index=140*/f64[192,120,20]{2,1,0}, f64[192,120,20]{2,1,0}, f64[192,120,20]{2,1,0}, f64[192,120,20]{2,1,0}, f64[192,120,20]{2,1,0}, /*index=145*/f64[192,120,20]{2,1,0}, f64[192,120,20]{2,1,0}, f64[192,120,20]{2,1,0}, f64[192,120,20]{2,1,0}, f64[192,120,20]{2,1,0}, /*index=150*/f64[192,120,20]{2,1,0}, f64[192,120,20]{2,1,0}, f64[192,120,20]{2,1,0}, f64[192,120,20]{2,1,0}, f64[192,120,20]{2,1,0}, /*index=155*/f64[192,120,20]{2,1,0}, f64[192,120,20]{2,1,0}, f64[192,120,20]{2,1,0}, f64[192,120,20]{2,1,0}, f64[192,120,20]{2,1,0}, /*index=160*/f64[192,120,20]{2,1,0}, f64[192,120,20]{2,1,0}, f64[192,120,20]{2,1,0}, f64[192,120,20]{2,1,0}, f64[192,120,20]{2,1,0}, /*index=165*/f64[192,120,20]{2,1,0}, f64[192,120,20]{2,1,0}, f64[192,120,20]{2,1,0}, f64[192,120,20]{2,1,0}, f64[192,120,20]{2,1,0}, /*index=170*/f64[192,120,20]{2,1,0}, f64[192,120,20]{2,1,0}, f64[192,120,20]{2,1,0}, f64[192,120,20]{2,1,0}, f64[192,120,20]{2,1,0}, /*index=175*/f64[192,120,20]{2,1,0}, f64[192,120,20]{2,1,0}) tuple(get-tuple-element.3609, get-tuple-element.3610, get-tuple-element.3611, get-tuple-element.3612, get-tuple-element.3613, /*index=5*/get-tuple-element.3614, get-tuple-element.3615, get-tuple-element.3616, get-tuple-element.3617, get-tuple-element.3618, /*index=10*/get-tuple-element.3619, get-tuple-element.3620, get-tuple-element.3621, get-tuple-element.3622, get-tuple-element.3623, /*index=15*/get-tuple-element.3624, get-tuple-element.3625, get-tuple-element.3626, get-tuple-element.3627, get-tuple-element.3628, /*index=20*/get-tuple-element.3629, get-tuple-element.3630, get-tuple-element.3631, get-tuple-element.3632, get-tuple-element.3633, /*index=25*/get-tuple-element.3634, get-tuple-element.3635, get-tuple-element.3636, get-tuple-element.3637, get-tuple-element.3638, /*index=30*/get-tuple-element.3639, get-tuple-element.3640, get-tuple-element.3641, get-tuple-element.3642, get-tuple-element.3643, /*index=35*/get-tuple-element.3644, get-tuple-element.3645, get-tuple-element.3646, get-tuple-element.3647, get-tuple-element.3648, /*index=40*/get-tuple-element.3649, get-tuple-element.3650, get-tuple-element.3651, get-tuple-element.3652, get-tuple-element.3653, /*index=45*/get-tuple-element.3654, get-tuple-element.3655, get-tuple-element.3656, get-tuple-element.3657, get-tuple-element.3658, /*index=50*/get-tuple-element.3659, get-tuple-element.3660, get-tuple-element.3661, get-tuple-element.3662, get-tuple-element.3663, /*index=55*/get-tuple-element.3664, get-tuple-element.3665, get-tuple-element.3666, get-tuple-element.3667, get-tuple-element.3668, /*index=60*/get-tuple-element.3669, get-tuple-element.3670, get-tuple-element.3671, get-tuple-element.3672, get-tuple-element.3673, /*index=65*/get-tuple-element.3674, get-tuple-element.3675, get-tuple-element.3676, get-tuple-element.3677, get-tuple-element.3678, /*index=70*/get-tuple-element.3679, get-tuple-element.3680, get-tuple-element.3681, get-tuple-element.3682, get-tuple-element.3683, /*index=75*/get-tuple-element.3684, get-tuple-element.3685, get-tuple-element.3686, get-tuple-element.3687, get-tuple-element.3688, /*index=80*/get-tuple-element.3689, get-tuple-element.3690, get-tuple-element.3691, get-tuple-element.3692, get-tuple-element.3693, /*index=85*/get-tuple-element.3694, get-tuple-element.3695, get-tuple-element.3696, get-tuple-element.3697, get-tuple-element.3698, /*index=90*/get-tuple-element.3699, get-tuple-element.3700, get-tuple-element.3701, get-tuple-element.3702, get-tuple-element.3703, /*index=95*/get-tuple-element.3704, get-tuple-element.3705, get-tuple-element.3706, get-tuple-element.3707, get-tuple-element.3708, /*index=100*/get-tuple-element.3709, get-tuple-element.3710, get-tuple-element.3711, get-tuple-element.3712, get-tuple-element.3713, /*index=105*/get-tuple-element.3714, get-tuple-element.3715, get-tuple-element.3716, get-tuple-element.3717, get-tuple-element.3718, /*index=110*/get-tuple-element.3719, get-tuple-element.3720, get-tuple-element.3721, get-tuple-element.3722, get-tuple-element.3723, /*index=115*/get-tuple-element.3724, get-tuple-element.3725, get-tuple-element.3726, get-tuple-element.3727, get-tuple-element.3728, /*index=120*/get-tuple-element.3729, get-tuple-element.3730, get-tuple-element.3731, get-tuple-element.3732, get-tuple-element.3733, /*index=125*/get-tuple-element.3734, get-tuple-element.3735, get-tuple-element.3736, get-tuple-element.3737, get-tuple-element.3738, /*index=130*/get-tuple-element.3739, get-tuple-element.3740, get-tuple-element.3741, get-tuple-element.3742, get-tuple-element.3743, /*index=135*/get-tuple-element.3744, get-tuple-element.3745, get-tuple-element.3746, get-tuple-element.3747, get-tuple-element.3748, /*index=140*/get-tuple-element.3749, get-tuple-element.3750, get-tuple-element.3751, get-tuple-element.3752, get-tuple-element.3753, /*index=145*/get-tuple-element.3754, get-tuple-element.3755, get-tuple-element.3756, get-tuple-element.3757, get-tuple-element.3758, /*index=150*/get-tuple-element.3759, get-tuple-element.3760, get-tuple-element.3761, get-tuple-element.3762, get-tuple-element.3763, /*index=155*/get-tuple-element.3764, get-tuple-element.3765, get-tuple-element.3766, get-tuple-element.3767, get-tuple-element.3768, /*index=160*/get-tuple-element.3769, get-tuple-element.3770, get-tuple-element.3771, get-tuple-element.3772, get-tuple-element.3773, /*index=165*/get-tuple-element.3774, get-tuple-element.3775, get-tuple-element.3776, get-tuple-element.3777, get-tuple-element.3778, /*index=170*/get-tuple-element.3779, get-tuple-element.3780, get-tuple-element.3781, get-tuple-element.3782, get-tuple-element.3783, /*index=175*/get-tuple-element.3784, get-tuple-element.3785)
} // main.3793

