HloModule jit_scan, is_scheduled=true, entry_computation_layout={(f64[20]{0}, f64[20]{0}, f64[20]{0}, f64[20]{0}, f64[20]{0}, /*index=5*/f64[20]{0}, f64[20]{0}, f64[20]{0}, f64[20]{0}, f64[20]{0}, /*index=10*/f64[20]{0}, f64[20]{0}, f64[20]{0}, f64[20]{0}, f64[20]{0}, /*index=15*/f64[20]{0}, f64[20]{0}, f64[20]{0}, f64[20]{0}, f64[20]{0}, /*index=20*/f64[20,1]{1,0}, f64[192,20]{1,0}, f64[192,20]{1,0}, f64[192,20]{1,0}, f64[192]{0}, /*index=25*/f64[192,20]{1,0}, pred[192,20]{1,0}, f64[192,20]{1,0}, f64[192,20]{1,0}, f64[192,20]{1,0}, /*index=30*/f64[192,20]{1,0}, f64[192,20]{1,0}, f64[192,20]{1,0}, f64[192,20]{1,0}, f64[192,20]{1,0}, /*index=35*/pred[192,20]{1,0}, f64[192,20]{1,0}, f64[192,20]{1,0}, f64[192,20]{1,0}, f64[192,20]{1,0}, /*index=40*/f64[192,20]{1,0}, f64[192,20]{1,0}, f64[192,20]{1,0}, f64[192]{0}, f64[192,20]{1,0}, /*index=45*/f64[192,20]{1,0}, f64[192,20]{1,0}, s32[192]{0}, f64[192,20]{1,0}, f64[192]{0}, /*index=50*/f64[192,20]{1,0}, f64[192,20]{1,0}, f64[192,20]{1,0}, pred[192,20]{1,0}, f64[192,20]{1,0}, /*index=55*/f64[192,20]{1,0}, f64[192,20]{1,0}, f64[192,20]{1,0}, f64[192,20]{1,0}, f64[192,20]{1,0}, /*index=60*/f64[192]{0}, f64[192,20]{1,0}, f64[192,20]{1,0}, f64[192,20]{1,0}, f64[192,20]{1,0}, /*index=65*/f64[192,20]{1,0}, f64[192,20]{1,0}, f64[192,20]{1,0}, f64[192,20]{1,0}, f64[192,20]{1,0}, /*index=70*/f64[192,20]{1,0}, f64[192,20]{1,0}, s32[192,20]{1,0}, pred[192,20]{1,0}, f64[192,20]{1,0}, /*index=75*/f64[192,20]{1,0}, f64[192,20]{1,0}, f64[192,20]{1,0}, pred[192,20]{1,0}, pred[192,20,1]{2,1,0}, /*index=80*/f64[192,20]{1,0}, f64[192,20]{1,0}, f64[192,20]{1,0}, f64[192,20]{1,0}, f64[192,20]{1,0}, /*index=85*/f64[192,20]{1,0}, f64[192,20]{1,0}, f64[192,20]{1,0}, f64[192,20]{1,0}, f64[192,20]{1,0}, /*index=90*/pred[192,20]{1,0}, pred[192,20]{1,0}, pred[192,20,1]{2,1,0})->(f64[20]{0}, f64[20]{0}, f64[20]{0}, f64[20]{0}, f64[20]{0}, /*index=5*/f64[20]{0}, f64[20]{0}, f64[20]{0}, f64[20]{0}, f64[20]{0}, /*index=10*/f64[20]{0}, f64[20]{0}, f64[20]{0}, f64[20]{0}, f64[20]{0}, /*index=15*/f64[20]{0}, f64[20]{0}, f64[20]{0}, f64[20]{0}, f64[20]{0}, /*index=20*/f64[20,1]{1,0})}, allow_spmd_sharding_propagation_to_parameters={true,true,true,true,true,true,true,true,true,true,true,true,true,true,true,true,true,true,true,true,true,true,true,true,true,true,true,true,true,true,true,true,true,true,true,true,true,true,true,true,true,true,true,true,true,true,true,true,true,true,true,true,true,true,true,true,true,true,true,true,true,true,true,true,true,true,true,true,true,true,true,true,true,true,true,true,true,true,true,true,true,true,true,true,true,true,true,true,true,true,true,true,true}, allow_spmd_sharding_propagation_to_output={true,true,true,true,true,true,true,true,true,true,true,true,true,true,true,true,true,true,true,true,true}, frontend_attributes={fingerprint_before_lhs="def4842bf471f8cbf7952e143159f2a5"}

fused_broadcast.1 {
  constant_90_2 = f64[] constant(0)
  ROOT broadcast.137.1 = f64[20]{0} broadcast(constant_90_2), dimensions={}
}

wrapped_copy_computation.2 {
  param_0.724 = f64[20]{0} parameter(0)
  ROOT copy.144 = f64[20]{0} copy(param_0.724)
}

wrapped_copy_computation.3 {
  param_0.725 = f64[20]{0} parameter(0)
  ROOT copy.145 = f64[20]{0} copy(param_0.725)
}

fused_broadcast {
  constant_90_1 = f64[] constant(0)
  ROOT broadcast.139.1 = f64[20,1]{1,0} broadcast(constant_90_1), dimensions={}
}

fused_multiply_negate {
  param_0.701 = f64[20]{0} parameter(0)
  param_4.456 = f64[] parameter(4)
  broadcast.138.1.clone.1 = f64[20]{0} broadcast(param_4.456), dimensions={}, metadata={op_name="jit(scan)/jit(main)/while/body/jit(beliefs_propagation)/jit(continuous_node_posterior_update)/jit(posterior_update_precision_continuous_node)/cond/branch_0_fun/jit(precision_update_missing_values)/mul" source_file="/fs04/fc37/adam/projects/psilocybin-prl-analyses/src/prl_hgf/fitting/hierarchical_patrl.py" source_line=362}
  param_2.771 = f64[20]{0} parameter(2)
  param_3.566 = f64[20]{0} parameter(3)
  multiply.368.2.clone.1 = f64[20]{0} multiply(param_2.771, param_3.566), metadata={op_name="jit(scan)/jit(main)/while/body/jit(beliefs_propagation)/jit(continuous_node_posterior_update)/jit(posterior_update_precision_continuous_node)/cond/branch_0_fun/jit(precision_update_missing_values)/mul" source_file="/fs04/fc37/adam/projects/psilocybin-prl-analyses/src/prl_hgf/fitting/hierarchical_patrl.py" source_line=362}
  negate.85.1.clone.1 = f64[20]{0} negate(multiply.368.2.clone.1), metadata={op_name="jit(scan)/jit(main)/while/body/jit(beliefs_propagation)/jit(continuous_node_posterior_update)/jit(posterior_update_precision_continuous_node)/cond/branch_0_fun/jit(precision_update_missing_values)/neg" source_file="/fs04/fc37/adam/projects/psilocybin-prl-analyses/src/prl_hgf/fitting/hierarchical_patrl.py" source_line=362}
  multiply.370.1.clone.1 = f64[20]{0} multiply(broadcast.138.1.clone.1, negate.85.1.clone.1), metadata={op_name="jit(scan)/jit(main)/while/body/jit(beliefs_propagation)/jit(continuous_node_posterior_update)/jit(posterior_update_precision_continuous_node)/cond/branch_0_fun/jit(precision_update_missing_values)/mul" source_file="/fs04/fc37/adam/projects/psilocybin-prl-analyses/src/prl_hgf/fitting/hierarchical_patrl.py" source_line=362}
  param_1.922 = f64[20]{0} parameter(1)
  multiply.371.1.clone.1 = f64[20]{0} multiply(multiply.370.1.clone.1, param_1.922), metadata={op_name="jit(scan)/jit(main)/while/body/jit(beliefs_propagation)/jit(continuous_node_posterior_update)/jit(posterior_update_precision_continuous_node)/cond/branch_0_fun/jit(precision_update_missing_values)/mul" source_file="/fs04/fc37/adam/projects/psilocybin-prl-analyses/src/prl_hgf/fitting/hierarchical_patrl.py" source_line=362}
  multiply.372.1 = f64[20]{0} multiply(param_0.701, multiply.371.1.clone.1), metadata={op_name="jit(scan)/jit(main)/while/body/jit(beliefs_propagation)/jit(continuous_node_posterior_update)/jit(posterior_update_precision_continuous_node)/cond/branch_0_fun/jit(precision_update_missing_values)/mul" source_file="/fs04/fc37/adam/projects/psilocybin-prl-analyses/src/prl_hgf/fitting/hierarchical_patrl.py" source_line=362}
  param_5.369 = f64[20]{0} parameter(5)
  multiply.369.1.clone.1 = f64[20]{0} multiply(negate.85.1.clone.1, param_5.369), metadata={op_name="jit(scan)/jit(main)/while/body/jit(beliefs_propagation)/jit(continuous_node_posterior_update)/jit(posterior_update_precision_continuous_node)/cond/branch_0_fun/jit(precision_update_missing_values)/mul" source_file="/fs04/fc37/adam/projects/psilocybin-prl-analyses/src/prl_hgf/fitting/hierarchical_patrl.py" source_line=362}
  negate.86.1.clone.1 = f64[20]{0} negate(multiply.369.1.clone.1), metadata={op_name="jit(scan)/jit(main)/while/body/jit(beliefs_propagation)/jit(continuous_node_posterior_update)/jit(posterior_update_precision_continuous_node)/cond/branch_0_fun/jit(precision_update_missing_values)/neg" source_file="/fs04/fc37/adam/projects/psilocybin-prl-analyses/src/prl_hgf/fitting/hierarchical_patrl.py" source_line=362}
  ROOT tuple.120 = (f64[20]{0}, f64[20]{0}, f64[20]{0}) tuple(multiply.372.1, multiply.371.1.clone.1, negate.86.1.clone.1)
} // fused_multiply_negate

command_buffer.4 {
  p.54 = f64[20]{0} parameter(0)
  p.55 = f64[20]{0} parameter(1)
  p.56 = f64[20]{0} parameter(2)
  p.57 = f64[20]{0} parameter(3)
  p.58 = f64[] parameter(4)
  p.59 = f64[20]{0} parameter(5)
  loop_broadcast_fusion.1 = f64[20]{0} fusion(), kind=kLoop, calls=fused_broadcast.1
  wrapped_copy.2 = f64[20]{0} fusion(loop_broadcast_fusion.1), kind=kLoop, calls=wrapped_copy_computation.2
  wrapped_copy.3 = f64[20]{0} fusion(loop_broadcast_fusion.1), kind=kLoop, calls=wrapped_copy_computation.3
  loop_broadcast_fusion = f64[20,1]{1,0} fusion(), kind=kLoop, calls=fused_broadcast
  loop_multiply_negate_fusion = (f64[20]{0}, f64[20]{0}, f64[20]{0}) fusion(p.54, p.55, p.56, p.57, p.58, /*index=5*/p.59), kind=kLoop, calls=fused_multiply_negate, metadata={op_name="jit(scan)/jit(main)/while/body/jit(beliefs_propagation)/jit(continuous_node_posterior_update)/jit(posterior_update_precision_continuous_node)/cond/branch_0_fun/jit(precision_update_missing_values)/mul" source_file="/fs04/fc37/adam/projects/psilocybin-prl-analyses/src/prl_hgf/fitting/hierarchical_patrl.py" source_line=362}
  ROOT tuple.157 = (f64[20]{0}, f64[20]{0}, f64[20]{0}, f64[20,1]{1,0}, (f64[20]{0}, f64[20]{0}, f64[20]{0})) tuple(loop_broadcast_fusion.1, wrapped_copy.2, wrapped_copy.3, loop_broadcast_fusion, loop_multiply_negate_fusion)
} // command_buffer.4

region_1.514.clone {
  arg_tuple.0.0 = (f64[20]{0}, f64[], f64[20]{0}, f64[20]{0}, f64[20]{0}, /*index=5*/f64[20]{0}) parameter(0)
  get-tuple-element.372.0 = f64[] get-tuple-element(arg_tuple.0.0), index=1
  get-tuple-element.376.0 = f64[20]{0} get-tuple-element(arg_tuple.0.0), index=5
  get-tuple-element.375.0 = f64[20]{0} get-tuple-element(arg_tuple.0.0), index=4
  get-tuple-element.374.0 = f64[20]{0} get-tuple-element(arg_tuple.0.0), index=3
  get-tuple-element.373.0 = f64[20]{0} get-tuple-element(arg_tuple.0.0), index=2
  get-tuple-element.371.0 = f64[20]{0} get-tuple-element(arg_tuple.0.0), index=0
  call.2 = (f64[20]{0}, f64[20]{0}, f64[20]{0}, f64[20,1]{1,0}, (f64[20]{0}, f64[20]{0}, f64[20]{0})) call(get-tuple-element.373.0, get-tuple-element.374.0, get-tuple-element.376.0, get-tuple-element.375.0, get-tuple-element.372.0, /*index=5*/get-tuple-element.371.0), to_apply=command_buffer.4
  get-tuple-element.968 = f64[20]{0} get-tuple-element(call.2), index=0
  get-tuple-element.969 = f64[20]{0} get-tuple-element(call.2), index=1
  get-tuple-element.970 = f64[20]{0} get-tuple-element(call.2), index=2
  get-tuple-element.971 = f64[20,1]{1,0} get-tuple-element(call.2), index=3
  get-tuple-element.972 = (f64[20]{0}, f64[20]{0}, f64[20]{0}) get-tuple-element(call.2), index=4
  get-tuple-element.437 = f64[20]{0} get-tuple-element(get-tuple-element.972), index=2, metadata={op_name="jit(scan)/jit(main)/while/body/jit(beliefs_propagation)/jit(continuous_node_posterior_update)/jit(posterior_update_precision_continuous_node)/cond/branch_0_fun/jit(precision_update_missing_values)/mul" source_file="/fs04/fc37/adam/projects/psilocybin-prl-analyses/src/prl_hgf/fitting/hierarchical_patrl.py" source_line=362}
  get-tuple-element.438 = f64[20]{0} get-tuple-element(get-tuple-element.972), index=1, metadata={op_name="jit(scan)/jit(main)/while/body/jit(beliefs_propagation)/jit(continuous_node_posterior_update)/jit(posterior_update_precision_continuous_node)/cond/branch_0_fun/jit(precision_update_missing_values)/mul" source_file="/fs04/fc37/adam/projects/psilocybin-prl-analyses/src/prl_hgf/fitting/hierarchical_patrl.py" source_line=362}
  get-tuple-element.439 = f64[20]{0} get-tuple-element(get-tuple-element.972), index=0, metadata={op_name="jit(scan)/jit(main)/while/body/jit(beliefs_propagation)/jit(continuous_node_posterior_update)/jit(posterior_update_precision_continuous_node)/cond/branch_0_fun/jit(precision_update_missing_values)/mul" source_file="/fs04/fc37/adam/projects/psilocybin-prl-analyses/src/prl_hgf/fitting/hierarchical_patrl.py" source_line=362}
  ROOT tuple.146 = (f64[20]{0}, f64[20]{0}, f64[20]{0}, f64[20]{0}, f64[20]{0}, /*index=5*/f64[20]{0}, f64[20,1]{1,0}) tuple(get-tuple-element.968, get-tuple-element.969, get-tuple-element.970, get-tuple-element.437, get-tuple-element.438, /*index=5*/get-tuple-element.439, get-tuple-element.971)
} // region_1.514.clone

fused_broadcast.2 {
  constant_92_1 = f64[] constant(0)
  ROOT broadcast.143.1 = f64[20,1]{1,0} broadcast(constant_92_1), dimensions={}
}

fused_broadcast_multiply_select {
  param_0.7 = f64[20]{0} parameter(0)
  param_2.772 = pred[20]{0} parameter(2)
  param_3.567 = f64[20]{0} parameter(3)
  constant_92_2_clone_1 = f64[] constant(0)
  broadcast.141.clone.5.clone.1 = f64[20]{0} broadcast(constant_92_2_clone_1), dimensions={}
  select.220.1 = f64[20]{0} select(param_2.772, param_3.567, broadcast.141.clone.5.clone.1), metadata={op_name="jit(scan)/jit(main)/while/body/jit(beliefs_propagation)/jit(continuous_node_posterior_update_ehgf)/jit(posterior_update_precision_continuous_node)/jit(precision_update)/jit(_where)/select_n" source_file="/fs04/fc37/adam/projects/psilocybin-prl-analyses/src/prl_hgf/env/pat_rl_simulator.py" source_line=92}
  param_1.923 = f64[] parameter(1)
  broadcast.142.1 = f64[20]{0} broadcast(param_1.923), dimensions={}, metadata={op_name="jit(scan)/jit(main)/while/body/jit(beliefs_propagation)/jit(continuous_node_posterior_update)/jit(posterior_update_precision_continuous_node)/cond/branch_1_fun/jit(precision_update)/mul" source_file="/fs04/fc37/adam/projects/psilocybin-prl-analyses/src/prl_hgf/fitting/hierarchical_patrl.py" source_line=362}
  multiply.373.1 = f64[20]{0} multiply(select.220.1, broadcast.142.1), metadata={op_name="jit(scan)/jit(main)/while/body/jit(beliefs_propagation)/jit(continuous_node_posterior_update)/jit(posterior_update_precision_continuous_node)/cond/branch_1_fun/jit(precision_update)/mul" source_file="/fs04/fc37/adam/projects/psilocybin-prl-analyses/src/prl_hgf/fitting/hierarchical_patrl.py" source_line=362}
  multiply.374.1 = f64[20]{0} multiply(param_0.7, multiply.373.1), metadata={op_name="jit(scan)/jit(main)/while/body/jit(beliefs_propagation)/jit(continuous_node_posterior_update)/jit(posterior_update_precision_continuous_node)/cond/branch_1_fun/jit(precision_update)/mul" source_file="/fs04/fc37/adam/projects/psilocybin-prl-analyses/src/prl_hgf/fitting/hierarchical_patrl.py" source_line=362}
  ROOT tuple.122 = (f64[20]{0}, f64[20]{0}, f64[20]{0}) tuple(multiply.374.1, select.220.1, broadcast.141.clone.5.clone.1)
} // fused_broadcast_multiply_select

wrapped_copy_computation.5 {
  param_0.727 = f64[20]{0} parameter(0)
  ROOT copy.147 = f64[20]{0} copy(param_0.727)
}

wrapped_copy_computation.4 {
  param_0.726 = f64[20]{0} parameter(0)
  ROOT copy.146 = f64[20]{0} copy(param_0.726)
}

wrapped_copy_computation.6 {
  param_0.728 = f64[20]{0} parameter(0)
  ROOT copy.148 = f64[20]{0} copy(param_0.728)
}

command_buffer.2 {
  p.46 = f64[20]{0} parameter(0)
  p.47 = f64[] parameter(1)
  p.48 = pred[20]{0} parameter(2)
  p.49 = f64[20]{0} parameter(3)
  loop_broadcast_fusion.2 = f64[20,1]{1,0} fusion(), kind=kLoop, calls=fused_broadcast.2
  loop_broadcast_multiply_select_fusion = (f64[20]{0}, f64[20]{0}, f64[20]{0}) fusion(p.46, p.47, p.48, p.49), kind=kLoop, calls=fused_broadcast_multiply_select, metadata={op_name="jit(scan)/jit(main)/while/body/jit(beliefs_propagation)/jit(continuous_node_posterior_update)/jit(posterior_update_precision_continuous_node)/cond/branch_1_fun/jit(precision_update)/mul" source_file="/fs04/fc37/adam/projects/psilocybin-prl-analyses/src/prl_hgf/fitting/hierarchical_patrl.py" source_line=362}
  get-tuple-element.446 = f64[20]{0} get-tuple-element(loop_broadcast_multiply_select_fusion), index=2, metadata={op_name="jit(scan)/jit(main)/while/body/jit(beliefs_propagation)/jit(continuous_node_posterior_update)/jit(posterior_update_precision_continuous_node)/cond/branch_1_fun/jit(precision_update)/mul" source_file="/fs04/fc37/adam/projects/psilocybin-prl-analyses/src/prl_hgf/fitting/hierarchical_patrl.py" source_line=362}
  get-tuple-element.443 = f64[20]{0} get-tuple-element(loop_broadcast_multiply_select_fusion), index=1, metadata={op_name="jit(scan)/jit(main)/while/body/jit(beliefs_propagation)/jit(continuous_node_posterior_update)/jit(posterior_update_precision_continuous_node)/cond/branch_1_fun/jit(precision_update)/mul" source_file="/fs04/fc37/adam/projects/psilocybin-prl-analyses/src/prl_hgf/fitting/hierarchical_patrl.py" source_line=362}
  get-tuple-element.442 = f64[20]{0} get-tuple-element(loop_broadcast_multiply_select_fusion), index=0, metadata={op_name="jit(scan)/jit(main)/while/body/jit(beliefs_propagation)/jit(continuous_node_posterior_update)/jit(posterior_update_precision_continuous_node)/cond/branch_1_fun/jit(precision_update)/mul" source_file="/fs04/fc37/adam/projects/psilocybin-prl-analyses/src/prl_hgf/fitting/hierarchical_patrl.py" source_line=362}
  wrapped_copy.5 = f64[20]{0} fusion(get-tuple-element.446), kind=kLoop, calls=wrapped_copy_computation.5
  wrapped_copy.4 = f64[20]{0} fusion(get-tuple-element.446), kind=kLoop, calls=wrapped_copy_computation.4
  wrapped_copy.6 = f64[20]{0} fusion(get-tuple-element.446), kind=kLoop, calls=wrapped_copy_computation.6
  ROOT tuple.155 = (f64[20,1]{1,0}, f64[20]{0}, f64[20]{0}, f64[20]{0}, f64[20]{0}, /*index=5*/f64[20]{0}, f64[20]{0}) tuple(loop_broadcast_fusion.2, get-tuple-element.446, get-tuple-element.443, get-tuple-element.442, wrapped_copy.5, /*index=5*/wrapped_copy.4, wrapped_copy.6)
} // command_buffer.2

region_2.547.clone {
  arg_tuple.1.0 = (f64[20]{0}, f64[], pred[20]{0}, f64[20]{0}) parameter(0)
  get-tuple-element.385.0 = f64[] get-tuple-element(arg_tuple.1.0), index=1
  get-tuple-element.387.0 = f64[20]{0} get-tuple-element(arg_tuple.1.0), index=3
  get-tuple-element.386.0 = pred[20]{0} get-tuple-element(arg_tuple.1.0), index=2
  get-tuple-element.384.0 = f64[20]{0} get-tuple-element(arg_tuple.1.0), index=0
  call.1 = (f64[20,1]{1,0}, f64[20]{0}, f64[20]{0}, f64[20]{0}, f64[20]{0}, /*index=5*/f64[20]{0}, f64[20]{0}) call(get-tuple-element.384.0, get-tuple-element.385.0, get-tuple-element.386.0, get-tuple-element.387.0), to_apply=command_buffer.2
  get-tuple-element.961 = f64[20,1]{1,0} get-tuple-element(call.1), index=0
  get-tuple-element.962 = f64[20]{0} get-tuple-element(call.1), index=1
  get-tuple-element.963 = f64[20]{0} get-tuple-element(call.1), index=2
  get-tuple-element.964 = f64[20]{0} get-tuple-element(call.1), index=3
  get-tuple-element.965 = f64[20]{0} get-tuple-element(call.1), index=4
  get-tuple-element.966 = f64[20]{0} get-tuple-element(call.1), index=5
  get-tuple-element.967 = f64[20]{0} get-tuple-element(call.1), index=6
  ROOT tuple.147 = (f64[20]{0}, f64[20]{0}, f64[20]{0}, f64[20]{0}, f64[20]{0}, /*index=5*/f64[20]{0}, f64[20,1]{1,0}) tuple(get-tuple-element.962, get-tuple-element.964, get-tuple-element.963, get-tuple-element.966, get-tuple-element.965, /*index=5*/get-tuple-element.967, get-tuple-element.961)
} // region_2.547.clone

fused_add_select {
  param_1.903 = pred[192,20]{1,0} parameter(1)
  constant_96_28 = s64[] constant(191)
  param_2.767 = s64[] parameter(2)
  subtract.4.55 = s64[] subtract(constant_96_28, param_2.767), metadata={op_name="jit(scan)/jit(main)/while/body/sub" source_file="/fs04/fc37/adam/projects/psilocybin-prl-analyses/src/prl_hgf/fitting/hierarchical_patrl.py" source_line=378}
  constant_1230_26 = s64[] constant(0)
  compare.14.55 = pred[] compare(subtract.4.55, constant_1230_26), direction=LT, metadata={op_name="jit(scan)/jit(main)/while/body/lt" source_file="/fs04/fc37/adam/projects/psilocybin-prl-analyses/src/prl_hgf/fitting/hierarchical_patrl.py" source_line=378}
  constant_97_28 = s64[] constant(383)
  subtract.5.55 = s64[] subtract(constant_97_28, param_2.767), metadata={op_name="jit(scan)/jit(main)/while/body/add" source_file="/fs04/fc37/adam/projects/psilocybin-prl-analyses/src/prl_hgf/fitting/hierarchical_patrl.py" source_line=378}
  select.223.55 = s64[] select(compare.14.55, subtract.5.55, subtract.4.55), metadata={op_name="jit(scan)/jit(main)/while/body/select_n" source_file="/fs04/fc37/adam/projects/psilocybin-prl-analyses/src/prl_hgf/fitting/hierarchical_patrl.py" source_line=378}
  dynamic-slice.72.6 = pred[1,20]{1,0} dynamic-slice(param_1.903, select.223.55, constant_1230_26), dynamic_slice_sizes={1,20}, metadata={op_name="jit(scan)/jit(main)/while/body/dynamic_slice[slice_sizes=(1, 20)]" source_file="/fs04/fc37/adam/projects/psilocybin-prl-analyses/src/prl_hgf/fitting/hierarchical_patrl.py" source_line=378}
  bitcast.1874.5 = pred[20]{0} bitcast(dynamic-slice.72.6)
  constant_58_7 = f64[] constant(0)
  broadcast.144.clone.54 = f64[20]{0} broadcast(constant_58_7), dimensions={}
  param_0.581 = f64[20]{0} parameter(0)
  select.228.1 = f64[20]{0} select(bitcast.1874.5, broadcast.144.clone.54, param_0.581), metadata={op_name="jit(scan)/jit(main)/while/body/jit(_where)/select_n" source_file="/fs04/fc37/adam/projects/psilocybin-prl-analyses/src/prl_hgf/env/pat_rl_simulator.py" source_line=92}
  param_37.111 = f64[20]{0} parameter(37)
  param_38.116 = f64[192,20]{1,0} parameter(38)
  dynamic-slice.73.5.clone.1 = f64[1,20]{1,0} dynamic-slice(param_38.116, select.223.55, constant_1230_26), dynamic_slice_sizes={1,20}, metadata={op_name="jit(scan)/jit(main)/while/body/dynamic_slice[slice_sizes=(1, 20)]" source_file="/fs04/fc37/adam/projects/psilocybin-prl-analyses/src/prl_hgf/fitting/hierarchical_patrl.py" source_line=378}
  bitcast.1941.5.clone.1 = f64[20]{0} bitcast(dynamic-slice.73.5.clone.1)
  add.240.5.clone.1 = f64[20]{0} add(param_37.111, bitcast.1941.5.clone.1), metadata={op_name="jit(scan)/jit(main)/while/body/add_any" source_file="/fs04/fc37/adam/projects/psilocybin-prl-analyses/src/prl_hgf/fitting/hierarchical_patrl.py" source_line=378}
  select.232.3.clone.1 = f64[20]{0} select(bitcast.1874.5, broadcast.144.clone.54, add.240.5.clone.1), metadata={op_name="jit(scan)/jit(main)/while/body/jit(_where)/select_n" source_file="/fs04/fc37/adam/projects/psilocybin-prl-analyses/src/prl_hgf/env/pat_rl_simulator.py" source_line=92}
  param_3.571 = f64[20]{0} parameter(3)
  param_36.113 = f64[192,20]{1,0} parameter(36)
  dynamic-slice.96.1.clone.1 = f64[1,20]{1,0} dynamic-slice(param_36.113, select.223.55, constant_1230_26), dynamic_slice_sizes={1,20}, metadata={op_name="jit(scan)/jit(main)/while/body/dynamic_slice[slice_sizes=(1, 20)]" source_file="/fs04/fc37/adam/projects/psilocybin-prl-analyses/src/prl_hgf/fitting/hierarchical_patrl.py" source_line=378}
  bitcast.2245.5.clone.1 = f64[20]{0} bitcast(dynamic-slice.96.1.clone.1)
  select.244.13.clone.1 = f64[20]{0} select(bitcast.1874.5, param_0.581, broadcast.144.clone.54), metadata={op_name="jit(scan)/jit(main)/while/body/jit(_where)/select_n" source_file="/fs04/fc37/adam/projects/psilocybin-prl-analyses/src/prl_hgf/env/pat_rl_simulator.py" source_line=92}
  param_35.115 = f64[20]{0} parameter(35)
  select.243.5.clone.1 = f64[20]{0} select(bitcast.1874.5, param_35.115, broadcast.144.clone.54), metadata={op_name="jit(scan)/jit(main)/while/body/jit(_where)/select_n" source_file="/fs04/fc37/adam/projects/psilocybin-prl-analyses/src/prl_hgf/env/pat_rl_simulator.py" source_line=92}
  param_34.145 = f64[192,20]{1,0} parameter(34)
  dynamic-slice.90.5.clone.1 = f64[1,20]{1,0} dynamic-slice(param_34.145, select.223.55, constant_1230_26), dynamic_slice_sizes={1,20}, metadata={op_name="jit(scan)/jit(main)/while/body/dynamic_slice[slice_sizes=(1, 20)]" source_file="/fs04/fc37/adam/projects/psilocybin-prl-analyses/src/prl_hgf/fitting/hierarchical_patrl.py" source_line=378}
  bitcast.2147.19.clone.1 = f64[20]{0} bitcast(dynamic-slice.90.5.clone.1)
  param_33.134 = f64[20]{0} parameter(33)
  select.234.5.clone.1 = f64[20]{0} select(bitcast.1874.5, param_33.134, broadcast.144.clone.54), metadata={op_name="jit(scan)/jit(main)/while/body/jit(_where)/select_n" source_file="/fs04/fc37/adam/projects/psilocybin-prl-analyses/src/prl_hgf/env/pat_rl_simulator.py" source_line=92}
  param_32.154 = pred[192,20]{1,0} parameter(32)
  dynamic-slice.80.9.clone.1 = pred[1,20]{1,0} dynamic-slice(param_32.154, select.223.55, constant_1230_26), dynamic_slice_sizes={1,20}, metadata={op_name="jit(scan)/jit(main)/while/body/dynamic_slice[slice_sizes=(1, 20)]" source_file="/fs04/fc37/adam/projects/psilocybin-prl-analyses/src/prl_hgf/fitting/hierarchical_patrl.py" source_line=378}
  bitcast.2020.23.clone.1 = pred[20]{0} bitcast(dynamic-slice.80.9.clone.1)
  param_31.172 = f64[192,20]{1,0} parameter(31)
  dynamic-slice.81.3.clone.1 = f64[1,20]{1,0} dynamic-slice(param_31.172, select.223.55, constant_1230_26), dynamic_slice_sizes={1,20}, metadata={op_name="jit(scan)/jit(main)/while/body/dynamic_slice[slice_sizes=(1, 20)]" source_file="/fs04/fc37/adam/projects/psilocybin-prl-analyses/src/prl_hgf/fitting/hierarchical_patrl.py" source_line=378}
  bitcast.2029.7.clone.1 = f64[20]{0} bitcast(dynamic-slice.81.3.clone.1)
  param_30.177 = pred[192,20]{1,0} parameter(30)
  dynamic-slice.82.15.clone.1 = pred[1,20]{1,0} dynamic-slice(param_30.177, select.223.55, constant_1230_26), dynamic_slice_sizes={1,20}, metadata={op_name="jit(scan)/jit(main)/while/body/dynamic_slice[slice_sizes=(1, 20)]" source_file="/fs04/fc37/adam/projects/psilocybin-prl-analyses/src/prl_hgf/fitting/hierarchical_patrl.py" source_line=378}
  bitcast.2038.15.clone.1 = pred[20]{0} bitcast(dynamic-slice.82.15.clone.1)
  param_29.192 = s32[192,20]{1,0} parameter(29)
  dynamic-slice.83.22.clone.1 = s32[1,20]{1,0} dynamic-slice(param_29.192, select.223.55, constant_1230_26), dynamic_slice_sizes={1,20}, metadata={op_name="jit(scan)/jit(main)/while/body/dynamic_slice[slice_sizes=(1, 20)]" source_file="/fs04/fc37/adam/projects/psilocybin-prl-analyses/src/prl_hgf/fitting/hierarchical_patrl.py" source_line=378}
  constant_68_6_clone_1 = s32[] constant(1)
  broadcast.145.17.clone.1 = s32[1,20]{1,0} broadcast(constant_68_6_clone_1), dimensions={}
  compare.15.17.clone.1 = pred[1,20]{1,0} compare(dynamic-slice.83.22.clone.1, broadcast.145.17.clone.1), direction=EQ, metadata={op_name="jit(scan)/jit(main)/while/body/jit(beliefs_propagation)/jit(continuous_node_posterior_update_ehgf)/jit(posterior_update_precision_continuous_node)/eq" source_file="/fs04/fc37/adam/projects/psilocybin-prl-analyses/src/prl_hgf/fitting/hierarchical_patrl.py" source_line=362}
  bitcast.2050.17.clone.1 = pred[20]{0} bitcast(compare.15.17.clone.1)
  param_28.205 = f64[20]{0} parameter(28)
  select.235.29.clone.1 = f64[20]{0} select(bitcast.1874.5, param_28.205, broadcast.144.clone.54), metadata={op_name="jit(scan)/jit(main)/while/body/jit(_where)/select_n" source_file="/fs04/fc37/adam/projects/psilocybin-prl-analyses/src/prl_hgf/env/pat_rl_simulator.py" source_line=92}
  select.236.17.clone.1 = f64[20]{0} select(bitcast.2050.17.clone.1, select.235.29.clone.1, broadcast.144.clone.54), metadata={op_name="jit(scan)/jit(main)/while/body/jit(beliefs_propagation)/jit(continuous_node_posterior_update_ehgf)/jit(posterior_update_precision_continuous_node)/select_n" source_file="/fs04/fc37/adam/projects/psilocybin-prl-analyses/src/prl_hgf/fitting/hierarchical_patrl.py" source_line=362}
  select.239.15.clone.1 = f64[20]{0} select(bitcast.2038.15.clone.1, select.236.17.clone.1, broadcast.144.clone.54), metadata={op_name="jit(scan)/jit(main)/while/body/jit(beliefs_propagation)/jit(continuous_node_posterior_update_ehgf)/jit(posterior_update_precision_continuous_node)/jit(precision_update)/jit(_where)/select_n" source_file="/fs04/fc37/adam/projects/psilocybin-prl-analyses/src/prl_hgf/env/pat_rl_simulator.py" source_line=92}
  param_27.193 = f64[192,20]{1,0} parameter(27)
  dynamic-slice.84.9.clone.1 = f64[1,20]{1,0} dynamic-slice(param_27.193, select.223.55, constant_1230_26), dynamic_slice_sizes={1,20}, metadata={op_name="jit(scan)/jit(main)/while/body/dynamic_slice[slice_sizes=(1, 20)]" source_file="/fs04/fc37/adam/projects/psilocybin-prl-analyses/src/prl_hgf/fitting/hierarchical_patrl.py" source_line=378}
  bitcast.2070.9.clone.1 = f64[20]{0} bitcast(dynamic-slice.84.9.clone.1)
  multiply.375.9.clone.1 = f64[20]{0} multiply(select.239.15.clone.1, bitcast.2070.9.clone.1), metadata={op_name="jit(scan)/jit(main)/while/body/jit(beliefs_propagation)/jit(continuous_node_posterior_update_ehgf)/jit(posterior_update_precision_continuous_node)/jit(precision_update)/mul" source_file="/fs04/fc37/adam/projects/psilocybin-prl-analyses/src/prl_hgf/fitting/hierarchical_patrl.py" source_line=362}
  negate.87.8.clone.1 = f64[20]{0} negate(multiply.375.9.clone.1), metadata={op_name="jit(scan)/jit(main)/while/body/jit(beliefs_propagation)/jit(continuous_node_posterior_update_ehgf)/jit(posterior_update_precision_continuous_node)/jit(precision_update)/neg" source_file="/fs04/fc37/adam/projects/psilocybin-prl-analyses/src/prl_hgf/fitting/hierarchical_patrl.py" source_line=362}
  multiply.376.7.clone.1 = f64[20]{0} multiply(bitcast.2029.7.clone.1, negate.87.8.clone.1), metadata={op_name="jit(scan)/jit(main)/while/body/jit(beliefs_propagation)/jit(continuous_node_posterior_update_ehgf)/jit(posterior_update_precision_continuous_node)/jit(precision_update)/mul" source_file="/fs04/fc37/adam/projects/psilocybin-prl-analyses/src/prl_hgf/fitting/hierarchical_patrl.py" source_line=362}
  param_26.176 = f64[192,20]{1,0} parameter(26)
  dynamic-slice.85.3.clone.1 = f64[1,20]{1,0} dynamic-slice(param_26.176, select.223.55, constant_1230_26), dynamic_slice_sizes={1,20}, metadata={op_name="jit(scan)/jit(main)/while/body/dynamic_slice[slice_sizes=(1, 20)]" source_file="/fs04/fc37/adam/projects/psilocybin-prl-analyses/src/prl_hgf/fitting/hierarchical_patrl.py" source_line=378}
  bitcast.2082.5.clone.1 = f64[20]{0} bitcast(dynamic-slice.85.3.clone.1)
  multiply.377.5.clone.1 = f64[20]{0} multiply(bitcast.2082.5.clone.1, multiply.375.9.clone.1), metadata={op_name="jit(scan)/jit(main)/while/body/jit(beliefs_propagation)/jit(continuous_node_posterior_update_ehgf)/jit(posterior_update_precision_continuous_node)/jit(precision_update)/mul" source_file="/fs04/fc37/adam/projects/psilocybin-prl-analyses/src/prl_hgf/fitting/hierarchical_patrl.py" source_line=362}
  add.241.5.clone.1 = f64[20]{0} add(multiply.376.7.clone.1, multiply.377.5.clone.1), metadata={op_name="jit(scan)/jit(main)/while/body/jit(beliefs_propagation)/jit(continuous_node_posterior_update_ehgf)/jit(posterior_update_precision_continuous_node)/jit(precision_update)/add_any" source_file="/fs04/fc37/adam/projects/psilocybin-prl-analyses/src/prl_hgf/fitting/hierarchical_patrl.py" source_line=362}
  select.240.7.clone.1 = f64[20]{0} select(bitcast.2020.23.clone.1, add.241.5.clone.1, broadcast.144.clone.54), metadata={op_name="jit(scan)/jit(main)/while/body/jit(beliefs_propagation)/jit(continuous_node_posterior_update_ehgf)/jit(posterior_update_precision_continuous_node)/select_n" source_file="/fs04/fc37/adam/projects/psilocybin-prl-analyses/src/prl_hgf/fitting/hierarchical_patrl.py" source_line=362}
  param_25.178 = f64[192,20]{1,0} parameter(25)
  dynamic-slice.86.3.clone.1 = f64[1,20]{1,0} dynamic-slice(param_25.178, select.223.55, constant_1230_26), dynamic_slice_sizes={1,20}, metadata={op_name="jit(scan)/jit(main)/while/body/dynamic_slice[slice_sizes=(1, 20)]" source_file="/fs04/fc37/adam/projects/psilocybin-prl-analyses/src/prl_hgf/fitting/hierarchical_patrl.py" source_line=378}
  bitcast.2096.5.clone.1 = f64[20]{0} bitcast(dynamic-slice.86.3.clone.1)
  param_24.182 = f64[20]{0} parameter(24)
  select.241.19.clone.1 = f64[20]{0} select(bitcast.1874.5, param_24.182, broadcast.144.clone.54), metadata={op_name="jit(scan)/jit(main)/while/body/jit(_where)/select_n" source_file="/fs04/fc37/adam/projects/psilocybin-prl-analyses/src/prl_hgf/env/pat_rl_simulator.py" source_line=92}
  param_23.183 = f64[192,20]{1,0} parameter(23)
  dynamic-slice.87.15.clone.1 = f64[1,20]{1,0} dynamic-slice(param_23.183, select.223.55, constant_1230_26), dynamic_slice_sizes={1,20}, metadata={op_name="jit(scan)/jit(main)/while/body/dynamic_slice[slice_sizes=(1, 20)]" source_file="/fs04/fc37/adam/projects/psilocybin-prl-analyses/src/prl_hgf/fitting/hierarchical_patrl.py" source_line=378}
  bitcast.2114.15.clone.1 = f64[20]{0} bitcast(dynamic-slice.87.15.clone.1)
  multiply.378.15.clone.1 = f64[20]{0} multiply(select.241.19.clone.1, bitcast.2114.15.clone.1), metadata={op_name="jit(scan)/jit(main)/while/body/jit(beliefs_propagation)/jit(continuous_node_posterior_update_ehgf)/jit(posterior_update_mean_continuous_node)/mul" source_file="/fs04/fc37/adam/projects/psilocybin-prl-analyses/src/prl_hgf/fitting/hierarchical_patrl.py" source_line=362}
  param_22.188 = f64[192,20]{1,0} parameter(22)
  dynamic-slice.88.11.clone.1 = f64[1,20]{1,0} dynamic-slice(param_22.188, select.223.55, constant_1230_26), dynamic_slice_sizes={1,20}, metadata={op_name="jit(scan)/jit(main)/while/body/dynamic_slice[slice_sizes=(1, 20)]" source_file="/fs04/fc37/adam/projects/psilocybin-prl-analyses/src/prl_hgf/fitting/hierarchical_patrl.py" source_line=378}
  bitcast.2124.11.clone.1 = f64[20]{0} bitcast(dynamic-slice.88.11.clone.1)
  multiply.379.11.clone.1 = f64[20]{0} multiply(multiply.378.15.clone.1, bitcast.2124.11.clone.1), metadata={op_name="jit(scan)/jit(main)/while/body/jit(beliefs_propagation)/jit(continuous_node_posterior_update_ehgf)/jit(posterior_update_mean_continuous_node)/mul" source_file="/fs04/fc37/adam/projects/psilocybin-prl-analyses/src/prl_hgf/fitting/hierarchical_patrl.py" source_line=362}
  multiply.380.5.clone.1 = f64[20]{0} multiply(bitcast.2096.5.clone.1, multiply.379.11.clone.1), metadata={op_name="jit(scan)/jit(main)/while/body/jit(beliefs_propagation)/jit(continuous_node_posterior_update_ehgf)/jit(posterior_update_mean_continuous_node)/mul" source_file="/fs04/fc37/adam/projects/psilocybin-prl-analyses/src/prl_hgf/fitting/hierarchical_patrl.py" source_line=362}
  add.242.5.clone.1 = f64[20]{0} add(select.240.7.clone.1, multiply.380.5.clone.1), metadata={op_name="jit(scan)/jit(main)/while/body/jit(beliefs_propagation)/jit(continuous_node_posterior_update_ehgf)/add_any" source_file="/fs04/fc37/adam/projects/psilocybin-prl-analyses/src/prl_hgf/fitting/hierarchical_patrl.py" source_line=362}
  add.243.3.clone.1 = f64[20]{0} add(select.234.5.clone.1, add.242.5.clone.1), metadata={op_name="jit(scan)/jit(main)/while/body/jit(beliefs_propagation)/add_any" source_file="/fs04/fc37/adam/projects/psilocybin-prl-analyses/src/prl_hgf/fitting/hierarchical_patrl.py" source_line=362}
  multiply.386.7.clone.1 = f64[20]{0} multiply(bitcast.2147.19.clone.1, add.243.3.clone.1), metadata={op_name="jit(scan)/jit(main)/while/body/jit(beliefs_propagation)/jit(continuous_node_prediction_error)/jit(continuous_node_volatility_prediction_error)/mul" source_file="/fs04/fc37/adam/projects/psilocybin-prl-analyses/src/prl_hgf/fitting/hierarchical_patrl.py" source_line=362}
  param_21.186 = f64[192,20]{1,0} parameter(21)
  dynamic-slice.91.3.clone.1 = f64[1,20]{1,0} dynamic-slice(param_21.186, select.223.55, constant_1230_26), dynamic_slice_sizes={1,20}, metadata={op_name="jit(scan)/jit(main)/while/body/dynamic_slice[slice_sizes=(1, 20)]" source_file="/fs04/fc37/adam/projects/psilocybin-prl-analyses/src/prl_hgf/fitting/hierarchical_patrl.py" source_line=378}
  bitcast.2184.5.clone.1 = f64[20]{0} bitcast(dynamic-slice.91.3.clone.1)
  multiply.393.5.clone.1 = f64[20]{0} multiply(multiply.386.7.clone.1, bitcast.2184.5.clone.1), metadata={op_name="jit(scan)/jit(main)/while/body/jit(beliefs_propagation)/jit(continuous_node_prediction_error)/jit(continuous_node_volatility_prediction_error)/mul" source_file="/fs04/fc37/adam/projects/psilocybin-prl-analyses/src/prl_hgf/fitting/hierarchical_patrl.py" source_line=362}
  add.245.3.clone.1 = f64[20]{0} add(select.243.5.clone.1, multiply.393.5.clone.1), metadata={op_name="jit(scan)/jit(main)/while/body/jit(beliefs_propagation)/jit(continuous_node_prediction_error)/add_any" source_file="/fs04/fc37/adam/projects/psilocybin-prl-analyses/src/prl_hgf/fitting/hierarchical_patrl.py" source_line=362}
  negate.90.1.clone.1 = f64[20]{0} negate(add.245.3.clone.1), metadata={op_name="jit(scan)/jit(main)/while/body/jit(beliefs_propagation)/jit(continuous_node_prediction_error)/jit(continuous_node_value_prediction_error)/neg" source_file="/fs04/fc37/adam/projects/psilocybin-prl-analyses/src/prl_hgf/fitting/hierarchical_patrl.py" source_line=362}
  add.248.11.clone.1 = f64[20]{0} add(select.244.13.clone.1, negate.90.1.clone.1), metadata={op_name="jit(scan)/jit(main)/while/body/jit(beliefs_propagation)/add_any" source_file="/fs04/fc37/adam/projects/psilocybin-prl-analyses/src/prl_hgf/fitting/hierarchical_patrl.py" source_line=362}
  select.242.5.clone.1 = f64[20]{0} select(bitcast.1874.5, add.240.5.clone.1, broadcast.144.clone.54), metadata={op_name="jit(scan)/jit(main)/while/body/jit(_where)/select_n" source_file="/fs04/fc37/adam/projects/psilocybin-prl-analyses/src/prl_hgf/env/pat_rl_simulator.py" source_line=92}
  add.246.3.clone.1 = f64[20]{0} add(select.242.5.clone.1, add.245.3.clone.1), metadata={op_name="jit(scan)/jit(main)/while/body/jit(beliefs_propagation)/add_any" source_file="/fs04/fc37/adam/projects/psilocybin-prl-analyses/src/prl_hgf/fitting/hierarchical_patrl.py" source_line=362}
  add.249.7.clone.1 = f64[20]{0} add(add.246.3.clone.1, param_3.571), metadata={op_name="jit(scan)/jit(main)/while/body/jit(beliefs_propagation)/jit(continuous_node_posterior_update)/add_any" source_file="/fs04/fc37/adam/projects/psilocybin-prl-analyses/src/prl_hgf/fitting/hierarchical_patrl.py" source_line=362}
  add.250.9.clone.1 = f64[20]{0} add(add.248.11.clone.1, add.249.7.clone.1), metadata={op_name="jit(scan)/jit(main)/while/body/jit(beliefs_propagation)/add_any" source_file="/fs04/fc37/adam/projects/psilocybin-prl-analyses/src/prl_hgf/fitting/hierarchical_patrl.py" source_line=362}
  param_20.169 = f64[20]{0} parameter(20)
  select.247.19.clone.1 = f64[20]{0} select(bitcast.1874.5, param_20.169, broadcast.144.clone.54), metadata={op_name="jit(scan)/jit(main)/while/body/jit(_where)/select_n" source_file="/fs04/fc37/adam/projects/psilocybin-prl-analyses/src/prl_hgf/env/pat_rl_simulator.py" source_line=92}
  add.251.17.clone.1 = f64[20]{0} add(select.247.19.clone.1, param_3.571), metadata={op_name="jit(scan)/jit(main)/while/body/jit(beliefs_propagation)/add_any" source_file="/fs04/fc37/adam/projects/psilocybin-prl-analyses/src/prl_hgf/fitting/hierarchical_patrl.py" source_line=362}
  param_19.171 = f64[20]{0} parameter(19)
  select.248.11.clone.1 = f64[20]{0} select(bitcast.1874.5, param_19.171, broadcast.144.clone.54), metadata={op_name="jit(scan)/jit(main)/while/body/jit(_where)/select_n" source_file="/fs04/fc37/adam/projects/psilocybin-prl-analyses/src/prl_hgf/env/pat_rl_simulator.py" source_line=92}
  param_18.176 = f64[192,20]{1,0} parameter(18)
  dynamic-slice.97.6.clone.1 = f64[1,20]{1,0} dynamic-slice(param_18.176, select.223.55, constant_1230_26), dynamic_slice_sizes={1,20}, metadata={op_name="jit(scan)/jit(main)/while/body/dynamic_slice[slice_sizes=(1, 20)]" source_file="/fs04/fc37/adam/projects/psilocybin-prl-analyses/src/prl_hgf/fitting/hierarchical_patrl.py" source_line=378}
  bitcast.2294.15.clone.1 = f64[20]{0} bitcast(dynamic-slice.97.6.clone.1)
  multiply.397.15.clone.1 = f64[20]{0} multiply(bitcast.2294.15.clone.1, add.246.3.clone.1), metadata={op_name="jit(scan)/jit(main)/while/body/jit(beliefs_propagation)/jit(continuous_node_posterior_update)/jit(posterior_update_mean_continuous_node)/mul" source_file="/fs04/fc37/adam/projects/psilocybin-prl-analyses/src/prl_hgf/fitting/hierarchical_patrl.py" source_line=362}
  param_17.167 = f64[192]{0} parameter(17)
  dynamic-slice.98.1.clone.1 = f64[1]{0} dynamic-slice(param_17.167, select.223.55), dynamic_slice_sizes={1}, metadata={op_name="jit(scan)/jit(main)/while/body/dynamic_slice[slice_sizes=(1,)]" source_file="/fs04/fc37/adam/projects/psilocybin-prl-analyses/src/prl_hgf/fitting/hierarchical_patrl.py" source_line=378}
  bitcast.2304.11.clone.1 = f64[] bitcast(dynamic-slice.98.1.clone.1)
  broadcast.146.11.clone.1 = f64[20]{0} broadcast(bitcast.2304.11.clone.1), dimensions={}, metadata={op_name="jit(scan)/jit(main)/while/body/jit(beliefs_propagation)/jit(continuous_node_posterior_update)/jit(posterior_update_mean_continuous_node)/mul" source_file="/fs04/fc37/adam/projects/psilocybin-prl-analyses/src/prl_hgf/fitting/hierarchical_patrl.py" source_line=362}
  multiply.398.13.clone.1 = f64[20]{0} multiply(multiply.397.15.clone.1, broadcast.146.11.clone.1), metadata={op_name="jit(scan)/jit(main)/while/body/jit(beliefs_propagation)/jit(continuous_node_posterior_update)/jit(posterior_update_mean_continuous_node)/mul" source_file="/fs04/fc37/adam/projects/psilocybin-prl-analyses/src/prl_hgf/fitting/hierarchical_patrl.py" source_line=362}
  add.252.11.clone.1 = f64[20]{0} add(multiply.398.13.clone.1, param_3.571), metadata={op_name="jit(scan)/jit(main)/while/body/jit(beliefs_propagation)/jit(continuous_node_posterior_update)/add_any" source_file="/fs04/fc37/adam/projects/psilocybin-prl-analyses/src/prl_hgf/fitting/hierarchical_patrl.py" source_line=362}
  add.253.9.clone.1 = f64[20]{0} add(select.248.11.clone.1, add.252.11.clone.1), metadata={op_name="jit(scan)/jit(main)/while/body/jit(beliefs_propagation)/add_any" source_file="/fs04/fc37/adam/projects/psilocybin-prl-analyses/src/prl_hgf/fitting/hierarchical_patrl.py" source_line=362}
  param_16.188 = f64[192,20]{1,0} parameter(16)
  dynamic-slice.99.5.clone.1 = f64[1,20]{1,0} dynamic-slice(param_16.188, select.223.55, constant_1230_26), dynamic_slice_sizes={1,20}, metadata={op_name="jit(scan)/jit(main)/while/body/dynamic_slice[slice_sizes=(1, 20)]" source_file="/fs04/fc37/adam/projects/psilocybin-prl-analyses/src/prl_hgf/fitting/hierarchical_patrl.py" source_line=378}
  bitcast.2319.7.clone.1 = f64[20]{0} bitcast(dynamic-slice.99.5.clone.1)
  divide.18.7.clone.1 = f64[20]{0} divide(add.253.9.clone.1, bitcast.2319.7.clone.1), metadata={op_name="jit(scan)/jit(main)/while/body/jit(beliefs_propagation)/jit(binary_state_node_prediction_error)/div" source_file="/fs04/fc37/adam/projects/psilocybin-prl-analyses/src/prl_hgf/fitting/hierarchical_patrl.py" source_line=362}
  param_15.197 = f64[192]{0} parameter(15)
  dynamic-slice.100.1.clone.1 = f64[1]{0} dynamic-slice(param_15.197, select.223.55), dynamic_slice_sizes={1}, metadata={op_name="jit(scan)/jit(main)/while/body/dynamic_slice[slice_sizes=(1,)]" source_file="/fs04/fc37/adam/projects/psilocybin-prl-analyses/src/prl_hgf/fitting/hierarchical_patrl.py" source_line=378}
  bitcast.2327.7.clone.1 = f64[] bitcast(dynamic-slice.100.1.clone.1)
  broadcast.147.7.clone.1 = f64[20]{0} broadcast(bitcast.2327.7.clone.1), dimensions={}, metadata={op_name="jit(scan)/jit(main)/while/body/jit(beliefs_propagation)/jit(binary_state_node_prediction_error)/mul" source_file="/fs04/fc37/adam/projects/psilocybin-prl-analyses/src/prl_hgf/fitting/hierarchical_patrl.py" source_line=362}
  multiply.399.5.clone.1 = f64[20]{0} multiply(divide.18.7.clone.1, broadcast.147.7.clone.1), metadata={op_name="jit(scan)/jit(main)/while/body/jit(beliefs_propagation)/jit(binary_state_node_prediction_error)/mul" source_file="/fs04/fc37/adam/projects/psilocybin-prl-analyses/src/prl_hgf/fitting/hierarchical_patrl.py" source_line=362}
  negate.91.3.clone.1 = f64[20]{0} negate(multiply.399.5.clone.1), metadata={op_name="jit(scan)/jit(main)/while/body/jit(beliefs_propagation)/jit(binary_state_node_prediction_error)/neg" source_file="/fs04/fc37/adam/projects/psilocybin-prl-analyses/src/prl_hgf/fitting/hierarchical_patrl.py" source_line=362}
  add.254.15.clone.1 = f64[20]{0} add(add.251.17.clone.1, negate.91.3.clone.1), metadata={op_name="jit(scan)/jit(main)/while/body/jit(beliefs_propagation)/add_any" source_file="/fs04/fc37/adam/projects/psilocybin-prl-analyses/src/prl_hgf/fitting/hierarchical_patrl.py" source_line=362}
  param_14.185 = f64[192,20]{1,0} parameter(14)
  dynamic-slice.101.1.clone.1 = f64[1,20]{1,0} dynamic-slice(param_14.185, select.223.55, constant_1230_26), dynamic_slice_sizes={1,20}, metadata={op_name="jit(scan)/jit(main)/while/body/dynamic_slice[slice_sizes=(1, 20)]" source_file="/fs04/fc37/adam/projects/psilocybin-prl-analyses/src/prl_hgf/fitting/hierarchical_patrl.py" source_line=378}
  bitcast.2340.5.clone.1 = f64[20]{0} bitcast(dynamic-slice.101.1.clone.1)
  param_13.181 = f64[20]{0} parameter(13)
  select.249.5.clone.1 = f64[20]{0} select(bitcast.1874.5, param_13.181, broadcast.144.clone.54), metadata={op_name="jit(scan)/jit(main)/while/body/jit(_where)/select_n" source_file="/fs04/fc37/adam/projects/psilocybin-prl-analyses/src/prl_hgf/env/pat_rl_simulator.py" source_line=92}
  param_12.192 = f64[20]{0} parameter(12)
  select.250.5.clone.1 = f64[20]{0} select(bitcast.1874.5, param_12.192, broadcast.144.clone.54), metadata={op_name="jit(scan)/jit(main)/while/body/jit(_where)/select_n" source_file="/fs04/fc37/adam/projects/psilocybin-prl-analyses/src/prl_hgf/env/pat_rl_simulator.py" source_line=92}
  add.255.3.clone.1 = f64[20]{0} add(select.249.5.clone.1, select.250.5.clone.1), metadata={op_name="jit(scan)/jit(main)/while/body/jit(beliefs_propagation)/add_any" source_file="/fs04/fc37/adam/projects/psilocybin-prl-analyses/src/prl_hgf/fitting/hierarchical_patrl.py" source_line=362}
  param_11.224 = f64[192,20]{1,0} parameter(11)
  dynamic-slice.102.3.clone.1 = f64[1,20]{1,0} dynamic-slice(param_11.224, select.223.55, constant_1230_26), dynamic_slice_sizes={1,20}, metadata={op_name="jit(scan)/jit(main)/while/body/dynamic_slice[slice_sizes=(1, 20)]" source_file="/fs04/fc37/adam/projects/psilocybin-prl-analyses/src/prl_hgf/fitting/hierarchical_patrl.py" source_line=378}
  bitcast.2368.11.clone.1 = f64[20]{0} bitcast(dynamic-slice.102.3.clone.1)
  param_10.241 = f64[192,20]{1,0} parameter(10)
  dynamic-slice.92.3.clone.1 = f64[1,20]{1,0} dynamic-slice(param_10.241, select.223.55, constant_1230_26), dynamic_slice_sizes={1,20}, metadata={op_name="jit(scan)/jit(main)/while/body/dynamic_slice[slice_sizes=(1, 20)]" source_file="/fs04/fc37/adam/projects/psilocybin-prl-analyses/src/prl_hgf/fitting/hierarchical_patrl.py" source_line=378}
  bitcast.2196.3.clone.1 = f64[20]{0} bitcast(dynamic-slice.92.3.clone.1)
  multiply.394.3.clone.1 = f64[20]{0} multiply(add.246.3.clone.1, bitcast.2196.3.clone.1), metadata={op_name="jit(scan)/jit(main)/while/body/jit(beliefs_propagation)/jit(continuous_node_posterior_update)/jit(posterior_update_mean_continuous_node)/mul" source_file="/fs04/fc37/adam/projects/psilocybin-prl-analyses/src/prl_hgf/fitting/hierarchical_patrl.py" source_line=362}
  param_9.246 = f64[192,20]{1,0} parameter(9)
  dynamic-slice.103.2.clone.1 = f64[1,20]{1,0} dynamic-slice(param_9.246, select.223.55, constant_1230_26), dynamic_slice_sizes={1,20}, metadata={op_name="jit(scan)/jit(main)/while/body/dynamic_slice[slice_sizes=(1, 20)]" source_file="/fs04/fc37/adam/projects/psilocybin-prl-analyses/src/prl_hgf/fitting/hierarchical_patrl.py" source_line=378}
  bitcast.2379.24.clone.1 = f64[20]{0} bitcast(dynamic-slice.103.2.clone.1)
  divide.19.13.clone.1 = f64[20]{0} divide(multiply.394.3.clone.1, bitcast.2379.24.clone.1), metadata={op_name="jit(scan)/jit(main)/while/body/jit(beliefs_propagation)/jit(continuous_node_posterior_update)/jit(posterior_update_mean_continuous_node)/div" source_file="/fs04/fc37/adam/projects/psilocybin-prl-analyses/src/prl_hgf/fitting/hierarchical_patrl.py" source_line=362}
  multiply.400.11.clone.1 = f64[20]{0} multiply(bitcast.2368.11.clone.1, divide.19.13.clone.1), metadata={op_name="jit(scan)/jit(main)/while/body/jit(beliefs_propagation)/jit(continuous_node_posterior_update)/jit(posterior_update_mean_continuous_node)/mul" source_file="/fs04/fc37/adam/projects/psilocybin-prl-analyses/src/prl_hgf/fitting/hierarchical_patrl.py" source_line=362}
  param_8.268 = f64[20]{0} parameter(8)
  add.256.9.clone.1 = f64[20]{0} add(multiply.400.11.clone.1, param_8.268), metadata={op_name="jit(scan)/jit(main)/while/body/jit(beliefs_propagation)/jit(continuous_node_posterior_update)/add_any" source_file="/fs04/fc37/adam/projects/psilocybin-prl-analyses/src/prl_hgf/fitting/hierarchical_patrl.py" source_line=362}
  add.257.7.clone.1 = f64[20]{0} add(add.255.3.clone.1, add.256.9.clone.1), metadata={op_name="jit(scan)/jit(main)/while/body/jit(beliefs_propagation)/add_any" source_file="/fs04/fc37/adam/projects/psilocybin-prl-analyses/src/prl_hgf/fitting/hierarchical_patrl.py" source_line=362}
  add.258.5.clone.1 = f64[20]{0} add(add.257.7.clone.1, param_3.571), metadata={op_name="jit(scan)/jit(main)/while/body/jit(beliefs_propagation)/add_any" source_file="/fs04/fc37/adam/projects/psilocybin-prl-analyses/src/prl_hgf/fitting/hierarchical_patrl.py" source_line=362}
  param_7.312 = f64[192,20]{1,0} parameter(7)
  dynamic-slice.104.1.clone.1 = f64[1,20]{1,0} dynamic-slice(param_7.312, select.223.55, constant_1230_26), dynamic_slice_sizes={1,20}, metadata={op_name="jit(scan)/jit(main)/while/body/dynamic_slice[slice_sizes=(1, 20)]" source_file="/fs04/fc37/adam/projects/psilocybin-prl-analyses/src/prl_hgf/fitting/hierarchical_patrl.py" source_line=378}
  bitcast.2399.7.clone.1 = f64[20]{0} bitcast(dynamic-slice.104.1.clone.1)
  multiply.401.7.clone.1 = f64[20]{0} multiply(add.253.9.clone.1, bitcast.2399.7.clone.1), metadata={op_name="jit(scan)/jit(main)/while/body/jit(beliefs_propagation)/jit(binary_state_node_prediction_error)/mul" source_file="/fs04/fc37/adam/projects/psilocybin-prl-analyses/src/prl_hgf/fitting/hierarchical_patrl.py" source_line=362}
  param_6.356 = f64[192,20]{1,0} parameter(6)
  dynamic-slice.105.1.clone.1 = f64[1,20]{1,0} dynamic-slice(param_6.356, select.223.55, constant_1230_26), dynamic_slice_sizes={1,20}, metadata={op_name="jit(scan)/jit(main)/while/body/dynamic_slice[slice_sizes=(1, 20)]" source_file="/fs04/fc37/adam/projects/psilocybin-prl-analyses/src/prl_hgf/fitting/hierarchical_patrl.py" source_line=378}
  bitcast.2409.5.clone.1 = f64[20]{0} bitcast(dynamic-slice.105.1.clone.1)
  multiply.402.5.clone.1 = f64[20]{0} multiply(multiply.401.7.clone.1, bitcast.2409.5.clone.1), metadata={op_name="jit(scan)/jit(main)/while/body/jit(beliefs_propagation)/jit(binary_state_node_prediction_error)/mul" source_file="/fs04/fc37/adam/projects/psilocybin-prl-analyses/src/prl_hgf/fitting/hierarchical_patrl.py" source_line=362}
  negate.92.3.clone.1 = f64[20]{0} negate(multiply.402.5.clone.1), metadata={op_name="jit(scan)/jit(main)/while/body/jit(beliefs_propagation)/jit(binary_state_node_prediction_error)/neg" source_file="/fs04/fc37/adam/projects/psilocybin-prl-analyses/src/prl_hgf/fitting/hierarchical_patrl.py" source_line=362}
  add.259.3.clone.1 = f64[20]{0} add(add.258.5.clone.1, negate.92.3.clone.1), metadata={op_name="jit(scan)/jit(main)/while/body/jit(beliefs_propagation)/add_any" source_file="/fs04/fc37/adam/projects/psilocybin-prl-analyses/src/prl_hgf/fitting/hierarchical_patrl.py" source_line=362}
  multiply.403.5.clone.1 = f64[20]{0} multiply(bitcast.2340.5.clone.1, add.259.3.clone.1), metadata={op_name="jit(scan)/jit(main)/while/body/jit(beliefs_propagation)/jit(binary_state_node_prediction)/mul" source_file="/fs04/fc37/adam/projects/psilocybin-prl-analyses/src/prl_hgf/fitting/hierarchical_patrl.py" source_line=362}
  negate.93.3.clone.1 = f64[20]{0} negate(multiply.403.5.clone.1), metadata={op_name="jit(scan)/jit(main)/while/body/jit(beliefs_propagation)/jit(binary_state_node_prediction)/neg" source_file="/fs04/fc37/adam/projects/psilocybin-prl-analyses/src/prl_hgf/fitting/hierarchical_patrl.py" source_line=362}
  add.260.13.clone.1 = f64[20]{0} add(add.254.15.clone.1, negate.93.3.clone.1), metadata={op_name="jit(scan)/jit(main)/while/body/jit(beliefs_propagation)/jit(binary_state_node_prediction)/add_any" source_file="/fs04/fc37/adam/projects/psilocybin-prl-analyses/src/prl_hgf/fitting/hierarchical_patrl.py" source_line=362}
  param_5.385 = f64[192,20]{1,0} parameter(5)
  dynamic-slice.106.1.clone.1 = f64[1,20]{1,0} dynamic-slice(param_5.385, select.223.55, constant_1230_26), dynamic_slice_sizes={1,20}, metadata={op_name="jit(scan)/jit(main)/while/body/dynamic_slice[slice_sizes=(1, 20)]" source_file="/fs04/fc37/adam/projects/psilocybin-prl-analyses/src/prl_hgf/fitting/hierarchical_patrl.py" source_line=378}
  bitcast.2426.3.clone.1 = f64[20]{0} bitcast(dynamic-slice.106.1.clone.1)
  multiply.404.3.clone.1 = f64[20]{0} multiply(add.259.3.clone.1, bitcast.2426.3.clone.1), metadata={op_name="jit(scan)/jit(main)/while/body/jit(beliefs_propagation)/jit(binary_state_node_prediction)/mul" source_file="/fs04/fc37/adam/projects/psilocybin-prl-analyses/src/prl_hgf/fitting/hierarchical_patrl.py" source_line=362}
  add.261.11.clone.1 = f64[20]{0} add(add.260.13.clone.1, multiply.404.3.clone.1), metadata={op_name="jit(scan)/jit(main)/while/body/jit(beliefs_propagation)/jit(binary_state_node_prediction)/add_any" source_file="/fs04/fc37/adam/projects/psilocybin-prl-analyses/src/prl_hgf/fitting/hierarchical_patrl.py" source_line=362}
  param_4.466 = f64[192,20]{1,0} parameter(4)
  dynamic-slice.107.1.clone.1 = f64[1,20]{1,0} dynamic-slice(param_4.466, select.223.55, constant_1230_26), dynamic_slice_sizes={1,20}, metadata={op_name="jit(scan)/jit(main)/while/body/dynamic_slice[slice_sizes=(1, 20)]" source_file="/fs04/fc37/adam/projects/psilocybin-prl-analyses/src/prl_hgf/fitting/hierarchical_patrl.py" source_line=378}
  bitcast.2437.9.clone.1 = f64[20]{0} bitcast(dynamic-slice.107.1.clone.1)
  multiply.405.9.clone.1 = f64[20]{0} multiply(add.261.11.clone.1, bitcast.2437.9.clone.1), metadata={op_name="jit(scan)/jit(main)/while/body/jit(beliefs_propagation)/jit(binary_state_node_prediction)/mul" source_file="/fs04/fc37/adam/projects/psilocybin-prl-analyses/src/prl_hgf/fitting/hierarchical_patrl.py" source_line=362}
  add.262.7.clone.1 = f64[20]{0} add(add.250.9.clone.1, multiply.405.9.clone.1), metadata={op_name="jit(scan)/jit(main)/while/body/jit(beliefs_propagation)/add_any" source_file="/fs04/fc37/adam/projects/psilocybin-prl-analyses/src/prl_hgf/fitting/hierarchical_patrl.py" source_line=362}
  multiply.406.5.clone.1 = f64[20]{0} multiply(bitcast.2245.5.clone.1, add.262.7.clone.1), metadata={op_name="jit(scan)/jit(main)/while/body/jit(beliefs_propagation)/jit(continuous_node_prediction)/jit(predict_mean)/mul" source_file="/fs04/fc37/adam/projects/psilocybin-prl-analyses/src/prl_hgf/fitting/hierarchical_patrl.py" source_line=362}
  add.263.3.clone.1 = f64[20]{0} add(param_3.571, multiply.406.5.clone.1), metadata={op_name="jit(scan)/jit(main)/while/body/jit(beliefs_propagation)/add_any" source_file="/fs04/fc37/adam/projects/psilocybin-prl-analyses/src/prl_hgf/fitting/hierarchical_patrl.py" source_line=362}
  add.264.1.clone.1 = f64[20]{0} add(select.232.3.clone.1, add.263.3.clone.1), metadata={op_name="jit(scan)/jit(main)/while/body/add_any" source_file="/fs04/fc37/adam/projects/psilocybin-prl-analyses/src/prl_hgf/fitting/hierarchical_patrl.py" source_line=362}
  select.227.1.clone.1 = f64[20]{0} select(bitcast.1874.5, broadcast.144.clone.54, param_19.171), metadata={op_name="jit(scan)/jit(main)/while/body/jit(_where)/select_n" source_file="/fs04/fc37/adam/projects/psilocybin-prl-analyses/src/prl_hgf/env/pat_rl_simulator.py" source_line=92}
  select.226.1.clone.1 = f64[20]{0} select(bitcast.1874.5, broadcast.144.clone.54, param_12.192), metadata={op_name="jit(scan)/jit(main)/while/body/jit(_where)/select_n" source_file="/fs04/fc37/adam/projects/psilocybin-prl-analyses/src/prl_hgf/env/pat_rl_simulator.py" source_line=92}
  select.225.1.clone.1 = f64[20]{0} select(bitcast.1874.5, broadcast.144.clone.54, param_13.181), metadata={op_name="jit(scan)/jit(main)/while/body/jit(_where)/select_n" source_file="/fs04/fc37/adam/projects/psilocybin-prl-analyses/src/prl_hgf/env/pat_rl_simulator.py" source_line=92}
  ROOT tuple.144 = (f64[20]{0}, f64[20]{0}, f64[20]{0}, f64[20]{0}, f64[20]{0}) tuple(select.228.1, add.264.1.clone.1, select.227.1.clone.1, select.226.1.clone.1, select.225.1.clone.1)
} // fused_add_select

fused_add_select.1 {
  param_9.227 = pred[192,20]{1,0} parameter(9)
  constant_96_14 = s64[] constant(191)
  param_20.134 = s64[] parameter(20)
  subtract.4.27 = s64[] subtract(constant_96_14, param_20.134), metadata={op_name="jit(scan)/jit(main)/while/body/sub" source_file="/fs04/fc37/adam/projects/psilocybin-prl-analyses/src/prl_hgf/fitting/hierarchical_patrl.py" source_line=378}
  constant_1230_8 = s64[] constant(0)
  compare.14.27 = pred[] compare(subtract.4.27, constant_1230_8), direction=LT, metadata={op_name="jit(scan)/jit(main)/while/body/lt" source_file="/fs04/fc37/adam/projects/psilocybin-prl-analyses/src/prl_hgf/fitting/hierarchical_patrl.py" source_line=378}
  constant_97_14 = s64[] constant(383)
  subtract.5.27 = s64[] subtract(constant_97_14, param_20.134), metadata={op_name="jit(scan)/jit(main)/while/body/add" source_file="/fs04/fc37/adam/projects/psilocybin-prl-analyses/src/prl_hgf/fitting/hierarchical_patrl.py" source_line=378}
  select.223.27 = s64[] select(compare.14.27, subtract.5.27, subtract.4.27), metadata={op_name="jit(scan)/jit(main)/while/body/select_n" source_file="/fs04/fc37/adam/projects/psilocybin-prl-analyses/src/prl_hgf/fitting/hierarchical_patrl.py" source_line=378}
  dynamic-slice.72.8 = pred[1,20]{1,0} dynamic-slice(param_9.227, select.223.27, constant_1230_8), dynamic_slice_sizes={1,20}, metadata={op_name="jit(scan)/jit(main)/while/body/dynamic_slice[slice_sizes=(1, 20)]" source_file="/fs04/fc37/adam/projects/psilocybin-prl-analyses/src/prl_hgf/fitting/hierarchical_patrl.py" source_line=378}
  bitcast.1874.76 = pred[20]{0} bitcast(dynamic-slice.72.8)
  constant_58_13 = f64[] constant(0)
  broadcast.144.clone.60 = f64[20]{0} broadcast(constant_58_13), dimensions={}
  param_0.584 = f64[20]{0} parameter(0)
  select.272.3 = f64[20]{0} select(bitcast.1874.76, broadcast.144.clone.60, param_0.584), metadata={op_name="jit(scan)/jit(main)/while/body/jit(_where)/select_n" source_file="/fs04/fc37/adam/projects/psilocybin-prl-analyses/src/prl_hgf/env/pat_rl_simulator.py" source_line=92}
  param_7.288 = pred[192,20]{1,0} parameter(7)
  dynamic-slice.125.2 = pred[1,20]{1,0} dynamic-slice(param_7.288, select.223.27, constant_1230_8), dynamic_slice_sizes={1,20}, metadata={op_name="jit(scan)/jit(main)/while/body/dynamic_slice[slice_sizes=(1, 20)]" source_file="/fs04/fc37/adam/projects/psilocybin-prl-analyses/src/prl_hgf/fitting/hierarchical_patrl.py" source_line=378}
  bitcast.2852.14 = pred[20]{0} bitcast(dynamic-slice.125.2)
  param_8.248 = s32[192,20]{1,0} parameter(8)
  dynamic-slice.83.6 = s32[1,20]{1,0} dynamic-slice(param_8.248, select.223.27, constant_1230_8), dynamic_slice_sizes={1,20}, metadata={op_name="jit(scan)/jit(main)/while/body/dynamic_slice[slice_sizes=(1, 20)]" source_file="/fs04/fc37/adam/projects/psilocybin-prl-analyses/src/prl_hgf/fitting/hierarchical_patrl.py" source_line=378}
  constant_73_2 = s32[] constant(0)
  broadcast.151.3 = s32[1,20]{1,0} broadcast(constant_73_2), dimensions={}
  compare.16.3 = pred[1,20]{1,0} compare(dynamic-slice.83.6, broadcast.151.3), direction=EQ, metadata={op_name="jit(scan)/jit(main)/while/body/jit(beliefs_propagation)/jit(continuous_node_posterior_update_ehgf)/jit(posterior_update_precision_continuous_node)/eq" source_file="/fs04/fc37/adam/projects/psilocybin-prl-analyses/src/prl_hgf/fitting/hierarchical_patrl.py" source_line=362}
  bitcast.2859.9 = pred[20]{0} bitcast(compare.16.3)
  select.235.15 = f64[20]{0} select(bitcast.1874.76, param_0.584, broadcast.144.clone.60), metadata={op_name="jit(scan)/jit(main)/while/body/jit(_where)/select_n" source_file="/fs04/fc37/adam/projects/psilocybin-prl-analyses/src/prl_hgf/env/pat_rl_simulator.py" source_line=92}
  select.273.9 = f64[20]{0} select(bitcast.2859.9, select.235.15, broadcast.144.clone.60), metadata={op_name="jit(scan)/jit(main)/while/body/jit(beliefs_propagation)/jit(continuous_node_posterior_update_ehgf)/jit(posterior_update_precision_continuous_node)/select_n" source_file="/fs04/fc37/adam/projects/psilocybin-prl-analyses/src/prl_hgf/fitting/hierarchical_patrl.py" source_line=362}
  param_6.332 = f64[192,20]{1,0} parameter(6)
  dynamic-slice.126.1 = f64[1,20]{1,0} dynamic-slice(param_6.332, select.223.27, constant_1230_8), dynamic_slice_sizes={1,20}, metadata={op_name="jit(scan)/jit(main)/while/body/dynamic_slice[slice_sizes=(1, 20)]" source_file="/fs04/fc37/adam/projects/psilocybin-prl-analyses/src/prl_hgf/fitting/hierarchical_patrl.py" source_line=378}
  bitcast.2873.7 = f64[20]{0} bitcast(dynamic-slice.126.1)
  multiply.427.7 = f64[20]{0} multiply(select.273.9, bitcast.2873.7), metadata={op_name="jit(scan)/jit(main)/while/body/jit(beliefs_propagation)/jit(continuous_node_posterior_update_ehgf)/jit(posterior_update_precision_continuous_node)/jit(precision_update_missing_values)/mul" source_file="/fs04/fc37/adam/projects/psilocybin-prl-analyses/src/prl_hgf/fitting/hierarchical_patrl.py" source_line=362}
  negate.97.5 = f64[20]{0} negate(multiply.427.7), metadata={op_name="jit(scan)/jit(main)/while/body/jit(beliefs_propagation)/jit(continuous_node_posterior_update_ehgf)/jit(posterior_update_precision_continuous_node)/jit(precision_update_missing_values)/neg" source_file="/fs04/fc37/adam/projects/psilocybin-prl-analyses/src/prl_hgf/fitting/hierarchical_patrl.py" source_line=362}
  param_5.360 = f64[192,20]{1,0} parameter(5)
  dynamic-slice.127.1 = f64[1,20]{1,0} dynamic-slice(param_5.360, select.223.27, constant_1230_8), dynamic_slice_sizes={1,20}, metadata={op_name="jit(scan)/jit(main)/while/body/dynamic_slice[slice_sizes=(1, 20)]" source_file="/fs04/fc37/adam/projects/psilocybin-prl-analyses/src/prl_hgf/fitting/hierarchical_patrl.py" source_line=378}
  bitcast.2884.5 = f64[20]{0} bitcast(dynamic-slice.127.1)
  multiply.428.5 = f64[20]{0} multiply(negate.97.5, bitcast.2884.5), metadata={op_name="jit(scan)/jit(main)/while/body/jit(beliefs_propagation)/jit(continuous_node_posterior_update_ehgf)/jit(posterior_update_precision_continuous_node)/jit(precision_update_missing_values)/mul" source_file="/fs04/fc37/adam/projects/psilocybin-prl-analyses/src/prl_hgf/fitting/hierarchical_patrl.py" source_line=362}
  negate.98.3 = f64[20]{0} negate(multiply.428.5), metadata={op_name="jit(scan)/jit(main)/while/body/jit(beliefs_propagation)/jit(continuous_node_posterior_update_ehgf)/jit(posterior_update_precision_continuous_node)/jit(precision_update_missing_values)/neg" source_file="/fs04/fc37/adam/projects/psilocybin-prl-analyses/src/prl_hgf/fitting/hierarchical_patrl.py" source_line=362}
  select.274.7 = f64[20]{0} select(bitcast.2852.14, negate.98.3, broadcast.144.clone.60), metadata={op_name="jit(scan)/jit(main)/while/body/jit(beliefs_propagation)/jit(continuous_node_posterior_update_ehgf)/jit(posterior_update_precision_continuous_node)/select_n" source_file="/fs04/fc37/adam/projects/psilocybin-prl-analyses/src/prl_hgf/fitting/hierarchical_patrl.py" source_line=362}
  param_1.807 = f64[20]{0} parameter(1)
  add.289.5 = f64[20]{0} add(select.274.7, param_1.807), metadata={op_name="jit(scan)/jit(main)/while/body/jit(beliefs_propagation)/add_any" source_file="/fs04/fc37/adam/projects/psilocybin-prl-analyses/src/prl_hgf/fitting/hierarchical_patrl.py" source_line=362}
  param_19.133 = f64[20]{0} parameter(19)
  select.275.15 = f64[20]{0} select(bitcast.1874.76, param_19.133, broadcast.144.clone.60), metadata={op_name="jit(scan)/jit(main)/while/body/jit(_where)/select_n" source_file="/fs04/fc37/adam/projects/psilocybin-prl-analyses/src/prl_hgf/env/pat_rl_simulator.py" source_line=92}
  param_18.140 = pred[192,20]{1,0} parameter(18)
  dynamic-slice.80.7 = pred[1,20]{1,0} dynamic-slice(param_18.140, select.223.27, constant_1230_8), dynamic_slice_sizes={1,20}, metadata={op_name="jit(scan)/jit(main)/while/body/dynamic_slice[slice_sizes=(1, 20)]" source_file="/fs04/fc37/adam/projects/psilocybin-prl-analyses/src/prl_hgf/fitting/hierarchical_patrl.py" source_line=378}
  bitcast.2020.21 = pred[20]{0} bitcast(dynamic-slice.80.7)
  param_17.136 = pred[192,20]{1,0} parameter(17)
  dynamic-slice.82.13 = pred[1,20]{1,0} dynamic-slice(param_17.136, select.223.27, constant_1230_8), dynamic_slice_sizes={1,20}, metadata={op_name="jit(scan)/jit(main)/while/body/dynamic_slice[slice_sizes=(1, 20)]" source_file="/fs04/fc37/adam/projects/psilocybin-prl-analyses/src/prl_hgf/fitting/hierarchical_patrl.py" source_line=378}
  bitcast.2038.13 = pred[20]{0} bitcast(dynamic-slice.82.13)
  constant_68_2 = s32[] constant(1)
  broadcast.145.15 = s32[1,20]{1,0} broadcast(constant_68_2), dimensions={}
  compare.15.15 = pred[1,20]{1,0} compare(dynamic-slice.83.6, broadcast.145.15), direction=EQ, metadata={op_name="jit(scan)/jit(main)/while/body/jit(beliefs_propagation)/jit(continuous_node_posterior_update_ehgf)/jit(posterior_update_precision_continuous_node)/eq" source_file="/fs04/fc37/adam/projects/psilocybin-prl-analyses/src/prl_hgf/fitting/hierarchical_patrl.py" source_line=362}
  bitcast.2050.15 = pred[20]{0} bitcast(compare.15.15)
  select.236.15 = f64[20]{0} select(bitcast.2050.15, select.235.15, broadcast.144.clone.60), metadata={op_name="jit(scan)/jit(main)/while/body/jit(beliefs_propagation)/jit(continuous_node_posterior_update_ehgf)/jit(posterior_update_precision_continuous_node)/select_n" source_file="/fs04/fc37/adam/projects/psilocybin-prl-analyses/src/prl_hgf/fitting/hierarchical_patrl.py" source_line=362}
  select.239.13 = f64[20]{0} select(bitcast.2038.13, select.236.15, broadcast.144.clone.60), metadata={op_name="jit(scan)/jit(main)/while/body/jit(beliefs_propagation)/jit(continuous_node_posterior_update_ehgf)/jit(posterior_update_precision_continuous_node)/jit(precision_update)/jit(_where)/select_n" source_file="/fs04/fc37/adam/projects/psilocybin-prl-analyses/src/prl_hgf/env/pat_rl_simulator.py" source_line=92}
  select.276.11 = f64[20]{0} select(bitcast.2020.21, select.239.13, broadcast.144.clone.60), metadata={op_name="jit(scan)/jit(main)/while/body/jit(beliefs_propagation)/jit(continuous_node_posterior_update_ehgf)/jit(posterior_update_precision_continuous_node)/select_n" source_file="/fs04/fc37/adam/projects/psilocybin-prl-analyses/src/prl_hgf/fitting/hierarchical_patrl.py" source_line=362}
  param_16.155 = f64[192,20]{1,0} parameter(16)
  dynamic-slice.128.5 = f64[1,20]{1,0} dynamic-slice(param_16.155, select.223.27, constant_1230_8), dynamic_slice_sizes={1,20}, metadata={op_name="jit(scan)/jit(main)/while/body/dynamic_slice[slice_sizes=(1, 20)]" source_file="/fs04/fc37/adam/projects/psilocybin-prl-analyses/src/prl_hgf/fitting/hierarchical_patrl.py" source_line=378}
  bitcast.2917.15 = f64[20]{0} bitcast(dynamic-slice.128.5)
  param_15.169 = f64[20]{0} parameter(15)
  select.241.17 = f64[20]{0} select(bitcast.1874.76, param_15.169, broadcast.144.clone.60), metadata={op_name="jit(scan)/jit(main)/while/body/jit(_where)/select_n" source_file="/fs04/fc37/adam/projects/psilocybin-prl-analyses/src/prl_hgf/env/pat_rl_simulator.py" source_line=92}
  param_14.155 = f64[192,20]{1,0} parameter(14)
  dynamic-slice.87.13 = f64[1,20]{1,0} dynamic-slice(param_14.155, select.223.27, constant_1230_8), dynamic_slice_sizes={1,20}, metadata={op_name="jit(scan)/jit(main)/while/body/dynamic_slice[slice_sizes=(1, 20)]" source_file="/fs04/fc37/adam/projects/psilocybin-prl-analyses/src/prl_hgf/fitting/hierarchical_patrl.py" source_line=378}
  bitcast.2114.13 = f64[20]{0} bitcast(dynamic-slice.87.13)
  multiply.378.13 = f64[20]{0} multiply(select.241.17, bitcast.2114.13), metadata={op_name="jit(scan)/jit(main)/while/body/jit(beliefs_propagation)/jit(continuous_node_posterior_update_ehgf)/jit(posterior_update_mean_continuous_node)/mul" source_file="/fs04/fc37/adam/projects/psilocybin-prl-analyses/src/prl_hgf/fitting/hierarchical_patrl.py" source_line=362}
  multiply.429.15 = f64[20]{0} multiply(bitcast.2917.15, multiply.378.13), metadata={op_name="jit(scan)/jit(main)/while/body/jit(beliefs_propagation)/jit(continuous_node_posterior_update_ehgf)/jit(posterior_update_mean_continuous_node)/mul" source_file="/fs04/fc37/adam/projects/psilocybin-prl-analyses/src/prl_hgf/fitting/hierarchical_patrl.py" source_line=362}
  param_13.155 = f64[192,20]{1,0} parameter(13)
  dynamic-slice.129.5 = f64[1,20]{1,0} dynamic-slice(param_13.155, select.223.27, constant_1230_8), dynamic_slice_sizes={1,20}, metadata={op_name="jit(scan)/jit(main)/while/body/dynamic_slice[slice_sizes=(1, 20)]" source_file="/fs04/fc37/adam/projects/psilocybin-prl-analyses/src/prl_hgf/fitting/hierarchical_patrl.py" source_line=378}
  bitcast.2929.13 = f64[20]{0} bitcast(dynamic-slice.129.5)
  multiply.430.13 = f64[20]{0} multiply(multiply.429.15, bitcast.2929.13), metadata={op_name="jit(scan)/jit(main)/while/body/jit(beliefs_propagation)/jit(continuous_node_posterior_update_ehgf)/jit(posterior_update_mean_continuous_node)/mul" source_file="/fs04/fc37/adam/projects/psilocybin-prl-analyses/src/prl_hgf/fitting/hierarchical_patrl.py" source_line=362}
  negate.99.11 = f64[20]{0} negate(multiply.430.13), metadata={op_name="jit(scan)/jit(main)/while/body/jit(beliefs_propagation)/jit(continuous_node_posterior_update_ehgf)/jit(posterior_update_mean_continuous_node)/neg" source_file="/fs04/fc37/adam/projects/psilocybin-prl-analyses/src/prl_hgf/fitting/hierarchical_patrl.py" source_line=362}
  constant_76_1 = f64[] constant(2)
  broadcast.152.5 = f64[20]{0} broadcast(constant_76_1), dimensions={}
  multiply.431.9 = f64[20]{0} multiply(negate.99.11, broadcast.152.5), metadata={op_name="jit(scan)/jit(main)/while/body/jit(beliefs_propagation)/jit(continuous_node_posterior_update_ehgf)/jit(posterior_update_mean_continuous_node)/mul" source_file="/fs04/fc37/adam/projects/psilocybin-prl-analyses/src/prl_hgf/fitting/hierarchical_patrl.py" source_line=362}
  add.290.9 = f64[20]{0} add(select.276.11, multiply.431.9), metadata={op_name="jit(scan)/jit(main)/while/body/jit(beliefs_propagation)/jit(continuous_node_posterior_update_ehgf)/add_any" source_file="/fs04/fc37/adam/projects/psilocybin-prl-analyses/src/prl_hgf/fitting/hierarchical_patrl.py" source_line=362}
  add.291.13 = f64[20]{0} add(select.275.15, add.290.9), metadata={op_name="jit(scan)/jit(main)/while/body/jit(beliefs_propagation)/add_any" source_file="/fs04/fc37/adam/projects/psilocybin-prl-analyses/src/prl_hgf/fitting/hierarchical_patrl.py" source_line=362}
  add.292.11 = f64[20]{0} add(add.291.13, param_1.807), metadata={op_name="jit(scan)/jit(main)/while/body/jit(beliefs_propagation)/add_any" source_file="/fs04/fc37/adam/projects/psilocybin-prl-analyses/src/prl_hgf/fitting/hierarchical_patrl.py" source_line=362}
  param_12.168 = f64[192,20]{1,0} parameter(12)
  dynamic-slice.130.5 = f64[1,20]{1,0} dynamic-slice(param_12.168, select.223.27, constant_1230_8), dynamic_slice_sizes={1,20}, metadata={op_name="jit(scan)/jit(main)/while/body/dynamic_slice[slice_sizes=(1, 20)]" source_file="/fs04/fc37/adam/projects/psilocybin-prl-analyses/src/prl_hgf/fitting/hierarchical_patrl.py" source_line=378}
  bitcast.2948.9 = f64[20]{0} bitcast(dynamic-slice.130.5)
  param_11.203 = f64[20]{0} parameter(11)
  select.277.17 = f64[20]{0} select(bitcast.1874.76, param_11.203, broadcast.144.clone.60), metadata={op_name="jit(scan)/jit(main)/while/body/jit(_where)/select_n" source_file="/fs04/fc37/adam/projects/psilocybin-prl-analyses/src/prl_hgf/env/pat_rl_simulator.py" source_line=92}
  add.293.15 = f64[20]{0} add(select.277.17, param_1.807), metadata={op_name="jit(scan)/jit(main)/while/body/jit(beliefs_propagation)/add_any" source_file="/fs04/fc37/adam/projects/psilocybin-prl-analyses/src/prl_hgf/fitting/hierarchical_patrl.py" source_line=362}
  multiply.432.9 = f64[20]{0} multiply(bitcast.2948.9, add.293.15), metadata={op_name="jit(scan)/jit(main)/while/body/jit(beliefs_propagation)/jit(continuous_node_prediction)/jit(predict_precision)/mul" source_file="/fs04/fc37/adam/projects/psilocybin-prl-analyses/src/prl_hgf/fitting/hierarchical_patrl.py" source_line=362}
  add.294.9 = f64[20]{0} add(add.292.11, multiply.432.9), metadata={op_name="jit(scan)/jit(main)/while/body/jit(beliefs_propagation)/jit(continuous_node_prediction)/jit(predict_precision)/add_any" source_file="/fs04/fc37/adam/projects/psilocybin-prl-analyses/src/prl_hgf/fitting/hierarchical_patrl.py" source_line=362}
  param_10.222 = f64[192,20]{1,0} parameter(10)
  dynamic-slice.131.5 = f64[1,20]{1,0} dynamic-slice(param_10.222, select.223.27, constant_1230_8), dynamic_slice_sizes={1,20}, metadata={op_name="jit(scan)/jit(main)/while/body/dynamic_slice[slice_sizes=(1, 20)]" source_file="/fs04/fc37/adam/projects/psilocybin-prl-analyses/src/prl_hgf/fitting/hierarchical_patrl.py" source_line=378}
  bitcast.2971.7 = f64[20]{0} bitcast(dynamic-slice.131.5)
  multiply.433.7 = f64[20]{0} multiply(add.294.9, bitcast.2971.7), metadata={op_name="jit(scan)/jit(main)/while/body/jit(beliefs_propagation)/jit(continuous_node_prediction)/jit(predict_precision)/mul" source_file="/fs04/fc37/adam/projects/psilocybin-prl-analyses/src/prl_hgf/fitting/hierarchical_patrl.py" source_line=362}
  negate.100.5 = f64[20]{0} negate(multiply.433.7), metadata={op_name="jit(scan)/jit(main)/while/body/jit(beliefs_propagation)/jit(continuous_node_prediction)/jit(predict_precision)/neg" source_file="/fs04/fc37/adam/projects/psilocybin-prl-analyses/src/prl_hgf/fitting/hierarchical_patrl.py" source_line=362}
  param_4.445 = f64[192,20]{1,0} parameter(4)
  dynamic-slice.132.1 = f64[1,20]{1,0} dynamic-slice(param_4.445, select.223.27, constant_1230_8), dynamic_slice_sizes={1,20}, metadata={op_name="jit(scan)/jit(main)/while/body/dynamic_slice[slice_sizes=(1, 20)]" source_file="/fs04/fc37/adam/projects/psilocybin-prl-analyses/src/prl_hgf/fitting/hierarchical_patrl.py" source_line=378}
  bitcast.2982.7 = f64[20]{0} bitcast(dynamic-slice.132.1)
  multiply.434.7 = f64[20]{0} multiply(negate.100.5, bitcast.2982.7), metadata={op_name="jit(scan)/jit(main)/while/body/jit(beliefs_propagation)/jit(continuous_node_prediction)/jit(predict_precision)/mul" source_file="/fs04/fc37/adam/projects/psilocybin-prl-analyses/src/prl_hgf/fitting/hierarchical_patrl.py" source_line=362}
  negate.101.5 = f64[20]{0} negate(multiply.434.7), metadata={op_name="jit(scan)/jit(main)/while/body/jit(beliefs_propagation)/jit(continuous_node_prediction)/jit(predict_precision)/neg" source_file="/fs04/fc37/adam/projects/psilocybin-prl-analyses/src/prl_hgf/fitting/hierarchical_patrl.py" source_line=362}
  param_2.663 = f64[20]{0} parameter(2)
  select.278.9 = f64[20]{0} select(bitcast.1874.76, param_2.663, broadcast.144.clone.60), metadata={op_name="jit(scan)/jit(main)/while/body/jit(_where)/select_n" source_file="/fs04/fc37/adam/projects/psilocybin-prl-analyses/src/prl_hgf/fitting/hierarchical_patrl.py" source_line=370}
  add.296.7 = f64[20]{0} add(select.278.9, param_1.807), metadata={op_name="jit(scan)/jit(main)/while/body/jit(beliefs_propagation)/add_any" source_file="/fs04/fc37/adam/projects/psilocybin-prl-analyses/src/prl_hgf/fitting/hierarchical_patrl.py" source_line=362}
  param_3.553 = f64[192,20]{1,0} parameter(3)
  dynamic-slice.133.1 = f64[1,20]{1,0} dynamic-slice(param_3.553, select.223.27, constant_1230_8), dynamic_slice_sizes={1,20}, metadata={op_name="jit(scan)/jit(main)/while/body/dynamic_slice[slice_sizes=(1, 20)]" source_file="/fs04/fc37/adam/projects/psilocybin-prl-analyses/src/prl_hgf/fitting/hierarchical_patrl.py" source_line=378}
  bitcast.3005.5 = f64[20]{0} bitcast(dynamic-slice.133.1)
  multiply.435.5 = f64[20]{0} multiply(add.296.7, bitcast.3005.5), metadata={op_name="jit(scan)/jit(main)/while/body/jit(beliefs_propagation)/jit(continuous_node_prediction)/mul" source_file="/fs04/fc37/adam/projects/psilocybin-prl-analyses/src/prl_hgf/fitting/hierarchical_patrl.py" source_line=362}
  negate.102.3 = f64[20]{0} negate(multiply.435.5), metadata={op_name="jit(scan)/jit(main)/while/body/jit(beliefs_propagation)/jit(continuous_node_prediction)/neg" source_file="/fs04/fc37/adam/projects/psilocybin-prl-analyses/src/prl_hgf/fitting/hierarchical_patrl.py" source_line=362}
  add.297.3 = f64[20]{0} add(negate.101.5, negate.102.3), metadata={op_name="jit(scan)/jit(main)/while/body/jit(beliefs_propagation)/jit(continuous_node_prediction)/add_any" source_file="/fs04/fc37/adam/projects/psilocybin-prl-analyses/src/prl_hgf/fitting/hierarchical_patrl.py" source_line=362}
  add.298.3 = f64[20]{0} add(add.289.5, add.297.3), metadata={op_name="jit(scan)/jit(main)/while/body/jit(beliefs_propagation)/add_any" source_file="/fs04/fc37/adam/projects/psilocybin-prl-analyses/src/prl_hgf/fitting/hierarchical_patrl.py" source_line=362}
  add.300.1 = f64[20]{0} add(select.272.3, add.298.3), metadata={op_name="jit(scan)/jit(main)/while/body/add_any" source_file="/fs04/fc37/adam/projects/psilocybin-prl-analyses/src/prl_hgf/fitting/hierarchical_patrl.py" source_line=362}
  param_27.153 = f64[20]{0} parameter(27)
  select.281.5.clone.1 = f64[20]{0} select(bitcast.1874.76, param_27.153, broadcast.144.clone.60), metadata={op_name="jit(scan)/jit(main)/while/body/jit(_where)/select_n" source_file="/fs04/fc37/adam/projects/psilocybin-prl-analyses/src/prl_hgf/fitting/hierarchical_patrl.py" source_line=370}
  select.282.5.clone.1 = f64[20]{0} select(bitcast.1874.76, broadcast.144.clone.60, param_27.153), metadata={op_name="jit(scan)/jit(main)/while/body/jit(_where)/select_n" source_file="/fs04/fc37/adam/projects/psilocybin-prl-analyses/src/prl_hgf/fitting/hierarchical_patrl.py" source_line=370}
  add.302.3.clone.1 = f64[20]{0} add(select.281.5.clone.1, select.282.5.clone.1), metadata={op_name="jit(scan)/jit(main)/while/body/add_any" source_file="/fs04/fc37/adam/projects/psilocybin-prl-analyses/src/prl_hgf/fitting/hierarchical_patrl.py" source_line=370}
  param_26.137 = f64[192,20]{1,0} parameter(26)
  dynamic-slice.134.1.clone.1 = f64[1,20]{1,0} dynamic-slice(param_26.137, select.223.27, constant_1230_8), dynamic_slice_sizes={1,20}, metadata={op_name="jit(scan)/jit(main)/while/body/dynamic_slice[slice_sizes=(1, 20)]" source_file="/fs04/fc37/adam/projects/psilocybin-prl-analyses/src/prl_hgf/fitting/hierarchical_patrl.py" source_line=378}
  bitcast.3060.5.clone.1 = f64[20]{0} bitcast(dynamic-slice.134.1.clone.1)
  multiply.436.5.clone.1 = f64[20]{0} multiply(bitcast.3060.5.clone.1, negate.97.5), metadata={op_name="jit(scan)/jit(main)/while/body/jit(beliefs_propagation)/jit(continuous_node_posterior_update_ehgf)/jit(posterior_update_precision_continuous_node)/jit(precision_update_missing_values)/mul" source_file="/fs04/fc37/adam/projects/psilocybin-prl-analyses/src/prl_hgf/fitting/hierarchical_patrl.py" source_line=362}
  param_25.143 = f64[192,20]{1,0} parameter(25)
  dynamic-slice.135.1.clone.1 = f64[1,20]{1,0} dynamic-slice(param_25.143, select.223.27, constant_1230_8), dynamic_slice_sizes={1,20}, metadata={op_name="jit(scan)/jit(main)/while/body/dynamic_slice[slice_sizes=(1, 20)]" source_file="/fs04/fc37/adam/projects/psilocybin-prl-analyses/src/prl_hgf/fitting/hierarchical_patrl.py" source_line=378}
  bitcast.3072.3.clone.1 = f64[20]{0} bitcast(dynamic-slice.135.1.clone.1)
  multiply.437.3.clone.1 = f64[20]{0} multiply(multiply.436.5.clone.1, bitcast.3072.3.clone.1), metadata={op_name="jit(scan)/jit(main)/while/body/jit(beliefs_propagation)/jit(continuous_node_posterior_update_ehgf)/jit(posterior_update_precision_continuous_node)/jit(precision_update_missing_values)/mul" source_file="/fs04/fc37/adam/projects/psilocybin-prl-analyses/src/prl_hgf/fitting/hierarchical_patrl.py" source_line=362}
  select.283.7.clone.1 = f64[20]{0} select(bitcast.2852.14, multiply.437.3.clone.1, broadcast.144.clone.60), metadata={op_name="jit(scan)/jit(main)/while/body/jit(beliefs_propagation)/jit(continuous_node_posterior_update_ehgf)/jit(posterior_update_precision_continuous_node)/select_n" source_file="/fs04/fc37/adam/projects/psilocybin-prl-analyses/src/prl_hgf/fitting/hierarchical_patrl.py" source_line=362}
  add.303.5.clone.1 = f64[20]{0} add(select.283.7.clone.1, param_1.807), metadata={op_name="jit(scan)/jit(main)/while/body/jit(beliefs_propagation)/add_any" source_file="/fs04/fc37/adam/projects/psilocybin-prl-analyses/src/prl_hgf/fitting/hierarchical_patrl.py" source_line=362}
  param_24.145 = f64[192]{0} parameter(24)
  dynamic-slice.120.2.clone.1 = f64[1]{0} dynamic-slice(param_24.145, select.223.27), dynamic_slice_sizes={1}, metadata={op_name="jit(scan)/jit(main)/while/body/dynamic_slice[slice_sizes=(1,)]" source_file="/fs04/fc37/adam/projects/psilocybin-prl-analyses/src/prl_hgf/fitting/hierarchical_patrl.py" source_line=378}
  bitcast.2729.11.clone.1 = f64[] bitcast(dynamic-slice.120.2.clone.1)
  broadcast.150.11.clone.1 = f64[20]{0} broadcast(bitcast.2729.11.clone.1), dimensions={}, metadata={op_name="jit(scan)/jit(main)/while/body/jit(beliefs_propagation)/jit(continuous_node_prediction)/jit(predict_precision)/mul" source_file="/fs04/fc37/adam/projects/psilocybin-prl-analyses/src/prl_hgf/fitting/hierarchical_patrl.py" source_line=362}
  param_23.150 = pred[192,20]{1,0} parameter(23)
  dynamic-slice.136.1.clone.1 = pred[1,20]{1,0} dynamic-slice(param_23.150, select.223.27, constant_1230_8), dynamic_slice_sizes={1,20}, metadata={op_name="jit(scan)/jit(main)/while/body/dynamic_slice[slice_sizes=(1, 20)]" source_file="/fs04/fc37/adam/projects/psilocybin-prl-analyses/src/prl_hgf/fitting/hierarchical_patrl.py" source_line=378}
  bitcast.3090.5.clone.1 = pred[20]{0} bitcast(dynamic-slice.136.1.clone.1)
  param_22.155 = f64[192,20]{1,0} parameter(22)
  dynamic-slice.137.1.clone.1 = f64[1,20]{1,0} dynamic-slice(param_22.155, select.223.27, constant_1230_8), dynamic_slice_sizes={1,20}, metadata={op_name="jit(scan)/jit(main)/while/body/dynamic_slice[slice_sizes=(1, 20)]" source_file="/fs04/fc37/adam/projects/psilocybin-prl-analyses/src/prl_hgf/fitting/hierarchical_patrl.py" source_line=378}
  bitcast.3103.5.clone.1 = f64[20]{0} bitcast(dynamic-slice.137.1.clone.1)
  multiply.438.5.clone.1 = f64[20]{0} multiply(add.293.15, bitcast.3103.5.clone.1), metadata={op_name="jit(scan)/jit(main)/while/body/jit(beliefs_propagation)/jit(continuous_node_prediction)/jit(predict_precision)/mul" source_file="/fs04/fc37/adam/projects/psilocybin-prl-analyses/src/prl_hgf/fitting/hierarchical_patrl.py" source_line=362}
  add.304.3.clone.1 = f64[20]{0} add(negate.100.5, multiply.438.5.clone.1), metadata={op_name="jit(scan)/jit(main)/while/body/jit(beliefs_propagation)/jit(continuous_node_prediction)/jit(predict_precision)/add_any" source_file="/fs04/fc37/adam/projects/psilocybin-prl-analyses/src/prl_hgf/fitting/hierarchical_patrl.py" source_line=362}
  select.284.5.clone.1 = f64[20]{0} select(bitcast.3090.5.clone.1, add.304.3.clone.1, broadcast.144.clone.60), metadata={op_name="jit(scan)/jit(main)/while/body/jit(beliefs_propagation)/jit(continuous_node_posterior_update_ehgf)/jit(posterior_update_precision_continuous_node)/jit(precision_update)/jit(_where)/select_n" source_file="/fs04/fc37/adam/projects/psilocybin-prl-analyses/src/prl_hgf/env/pat_rl_simulator.py" source_line=92}
  multiply.439.5.clone.1 = f64[20]{0} multiply(broadcast.150.11.clone.1, select.284.5.clone.1), metadata={op_name="jit(scan)/jit(main)/while/body/jit(beliefs_propagation)/jit(continuous_node_prediction)/jit(predict_precision)/mul" source_file="/fs04/fc37/adam/projects/psilocybin-prl-analyses/src/prl_hgf/fitting/hierarchical_patrl.py" source_line=362}
  param_21.150 = f64[192,20]{1,0} parameter(21)
  dynamic-slice.138.1.clone.1 = f64[1,20]{1,0} dynamic-slice(param_21.150, select.223.27, constant_1230_8), dynamic_slice_sizes={1,20}, metadata={op_name="jit(scan)/jit(main)/while/body/dynamic_slice[slice_sizes=(1, 20)]" source_file="/fs04/fc37/adam/projects/psilocybin-prl-analyses/src/prl_hgf/fitting/hierarchical_patrl.py" source_line=378}
  bitcast.3118.3.clone.1 = f64[20]{0} bitcast(dynamic-slice.138.1.clone.1)
  multiply.440.3.clone.1 = f64[20]{0} multiply(multiply.439.5.clone.1, bitcast.3118.3.clone.1), metadata={op_name="jit(scan)/jit(main)/while/body/jit(beliefs_propagation)/jit(continuous_node_prediction)/jit(predict_precision)/mul" source_file="/fs04/fc37/adam/projects/psilocybin-prl-analyses/src/prl_hgf/fitting/hierarchical_patrl.py" source_line=362}
  add.306.3.clone.1 = f64[20]{0} add(add.303.5.clone.1, multiply.440.3.clone.1), metadata={op_name="jit(scan)/jit(main)/while/body/jit(beliefs_propagation)/add_any" source_file="/fs04/fc37/adam/projects/psilocybin-prl-analyses/src/prl_hgf/fitting/hierarchical_patrl.py" source_line=362}
  add.308.1.clone.1 = f64[20]{0} add(add.302.3.clone.1, add.306.3.clone.1), metadata={op_name="jit(scan)/jit(main)/while/body/add_any" source_file="/fs04/fc37/adam/projects/psilocybin-prl-analyses/src/prl_hgf/fitting/hierarchical_patrl.py" source_line=362}
  select.280.1.clone.1 = f64[20]{0} select(bitcast.1874.76, broadcast.144.clone.60, param_11.203), metadata={op_name="jit(scan)/jit(main)/while/body/jit(_where)/select_n" source_file="/fs04/fc37/adam/projects/psilocybin-prl-analyses/src/prl_hgf/env/pat_rl_simulator.py" source_line=92}
  select.279.1.clone.1 = f64[20]{0} select(bitcast.1874.76, broadcast.144.clone.60, param_2.663), metadata={op_name="jit(scan)/jit(main)/while/body/jit(_where)/select_n" source_file="/fs04/fc37/adam/projects/psilocybin-prl-analyses/src/prl_hgf/fitting/hierarchical_patrl.py" source_line=370}
  select.268.1.clone.1 = f64[20]{0} select(bitcast.1874.76, broadcast.144.clone.60, param_19.133), metadata={op_name="jit(scan)/jit(main)/while/body/jit(_where)/select_n" source_file="/fs04/fc37/adam/projects/psilocybin-prl-analyses/src/prl_hgf/env/pat_rl_simulator.py" source_line=92}
  select.270.3.clone.1.clone.1 = f64[20]{0} select(bitcast.1874.76, broadcast.144.clone.60, param_15.169), metadata={op_name="jit(scan)/jit(main)/while/body/jit(_where)/select_n" source_file="/fs04/fc37/adam/projects/psilocybin-prl-analyses/src/prl_hgf/env/pat_rl_simulator.py" source_line=92}
  param_30.164 = f64[20]{0} parameter(30)
  param_54.26 = f64[192,20]{1,0} parameter(54)
  dynamic-slice.123.1.clone.1.clone.1 = f64[1,20]{1,0} dynamic-slice(param_54.26, select.223.27, constant_1230_8), dynamic_slice_sizes={1,20}, metadata={op_name="jit(scan)/jit(main)/while/body/dynamic_slice[slice_sizes=(1, 20)]" source_file="/fs04/fc37/adam/projects/psilocybin-prl-analyses/src/prl_hgf/fitting/hierarchical_patrl.py" source_line=378}
  bitcast.2803.7.clone.1.clone.1 = f64[20]{0} bitcast(dynamic-slice.123.1.clone.1.clone.1)
  param_53.24 = pred[192,20]{1,0} parameter(53)
  dynamic-slice.121.3.clone.1.clone.1 = pred[1,20]{1,0} dynamic-slice(param_53.24, select.223.27, constant_1230_8), dynamic_slice_sizes={1,20}, metadata={op_name="jit(scan)/jit(main)/while/body/dynamic_slice[slice_sizes=(1, 20)]" source_file="/fs04/fc37/adam/projects/psilocybin-prl-analyses/src/prl_hgf/fitting/hierarchical_patrl.py" source_line=378}
  bitcast.2739.5.clone.1.clone.1 = pred[20]{0} bitcast(dynamic-slice.121.3.clone.1.clone.1)
  param_52.22 = f64[20]{0} parameter(52)
  select.252.9.clone.1.clone.1 = f64[20]{0} select(bitcast.1874.76, param_52.22, broadcast.144.clone.60), metadata={op_name="jit(scan)/jit(main)/while/body/jit(_where)/select_n" source_file="/fs04/fc37/adam/projects/psilocybin-prl-analyses/src/prl_hgf/env/pat_rl_simulator.py" source_line=92}
  param_51.19 = f64[20]{0} parameter(51)
  select.234.15.clone.1.clone.1 = f64[20]{0} select(bitcast.1874.76, param_51.19, broadcast.144.clone.60), metadata={op_name="jit(scan)/jit(main)/while/body/jit(_where)/select_n" source_file="/fs04/fc37/adam/projects/psilocybin-prl-analyses/src/prl_hgf/env/pat_rl_simulator.py" source_line=92}
  param_50.19 = f64[192,20]{1,0} parameter(50)
  dynamic-slice.81.13.clone.1.clone.1 = f64[1,20]{1,0} dynamic-slice(param_50.19, select.223.27, constant_1230_8), dynamic_slice_sizes={1,20}, metadata={op_name="jit(scan)/jit(main)/while/body/dynamic_slice[slice_sizes=(1, 20)]" source_file="/fs04/fc37/adam/projects/psilocybin-prl-analyses/src/prl_hgf/fitting/hierarchical_patrl.py" source_line=378}
  bitcast.2029.17.clone.1.clone.1 = f64[20]{0} bitcast(dynamic-slice.81.13.clone.1.clone.1)
  param_49.23 = f64[192,20]{1,0} parameter(49)
  dynamic-slice.84.31.clone.1.clone.1 = f64[1,20]{1,0} dynamic-slice(param_49.23, select.223.27, constant_1230_8), dynamic_slice_sizes={1,20}, metadata={op_name="jit(scan)/jit(main)/while/body/dynamic_slice[slice_sizes=(1, 20)]" source_file="/fs04/fc37/adam/projects/psilocybin-prl-analyses/src/prl_hgf/fitting/hierarchical_patrl.py" source_line=378}
  bitcast.2070.31.clone.1.clone.1 = f64[20]{0} bitcast(dynamic-slice.84.31.clone.1.clone.1)
  multiply.375.31.clone.1.clone.1 = f64[20]{0} multiply(select.239.13, bitcast.2070.31.clone.1.clone.1), metadata={op_name="jit(scan)/jit(main)/while/body/jit(beliefs_propagation)/jit(continuous_node_posterior_update_ehgf)/jit(posterior_update_precision_continuous_node)/jit(precision_update)/mul" source_file="/fs04/fc37/adam/projects/psilocybin-prl-analyses/src/prl_hgf/fitting/hierarchical_patrl.py" source_line=362}
  negate.87.30.clone.1.clone.1 = f64[20]{0} negate(multiply.375.31.clone.1.clone.1), metadata={op_name="jit(scan)/jit(main)/while/body/jit(beliefs_propagation)/jit(continuous_node_posterior_update_ehgf)/jit(posterior_update_precision_continuous_node)/jit(precision_update)/neg" source_file="/fs04/fc37/adam/projects/psilocybin-prl-analyses/src/prl_hgf/fitting/hierarchical_patrl.py" source_line=362}
  multiply.376.17.clone.1.clone.1 = f64[20]{0} multiply(bitcast.2029.17.clone.1.clone.1, negate.87.30.clone.1.clone.1), metadata={op_name="jit(scan)/jit(main)/while/body/jit(beliefs_propagation)/jit(continuous_node_posterior_update_ehgf)/jit(posterior_update_precision_continuous_node)/jit(precision_update)/mul" source_file="/fs04/fc37/adam/projects/psilocybin-prl-analyses/src/prl_hgf/fitting/hierarchical_patrl.py" source_line=362}
  param_48.23 = f64[192,20]{1,0} parameter(48)
  dynamic-slice.85.13.clone.1.clone.1 = f64[1,20]{1,0} dynamic-slice(param_48.23, select.223.27, constant_1230_8), dynamic_slice_sizes={1,20}, metadata={op_name="jit(scan)/jit(main)/while/body/dynamic_slice[slice_sizes=(1, 20)]" source_file="/fs04/fc37/adam/projects/psilocybin-prl-analyses/src/prl_hgf/fitting/hierarchical_patrl.py" source_line=378}
  bitcast.2082.15.clone.1.clone.1 = f64[20]{0} bitcast(dynamic-slice.85.13.clone.1.clone.1)
  multiply.377.15.clone.1.clone.1 = f64[20]{0} multiply(bitcast.2082.15.clone.1.clone.1, multiply.375.31.clone.1.clone.1), metadata={op_name="jit(scan)/jit(main)/while/body/jit(beliefs_propagation)/jit(continuous_node_posterior_update_ehgf)/jit(posterior_update_precision_continuous_node)/jit(precision_update)/mul" source_file="/fs04/fc37/adam/projects/psilocybin-prl-analyses/src/prl_hgf/fitting/hierarchical_patrl.py" source_line=362}
  add.241.15.clone.1.clone.1 = f64[20]{0} add(multiply.376.17.clone.1.clone.1, multiply.377.15.clone.1.clone.1), metadata={op_name="jit(scan)/jit(main)/while/body/jit(beliefs_propagation)/jit(continuous_node_posterior_update_ehgf)/jit(posterior_update_precision_continuous_node)/jit(precision_update)/add_any" source_file="/fs04/fc37/adam/projects/psilocybin-prl-analyses/src/prl_hgf/fitting/hierarchical_patrl.py" source_line=362}
  select.240.17.clone.1.clone.1 = f64[20]{0} select(bitcast.2020.21, add.241.15.clone.1.clone.1, broadcast.144.clone.60), metadata={op_name="jit(scan)/jit(main)/while/body/jit(beliefs_propagation)/jit(continuous_node_posterior_update_ehgf)/jit(posterior_update_precision_continuous_node)/select_n" source_file="/fs04/fc37/adam/projects/psilocybin-prl-analyses/src/prl_hgf/fitting/hierarchical_patrl.py" source_line=362}
  param_47.28 = f64[192,20]{1,0} parameter(47)
  dynamic-slice.86.13.clone.1.clone.1 = f64[1,20]{1,0} dynamic-slice(param_47.28, select.223.27, constant_1230_8), dynamic_slice_sizes={1,20}, metadata={op_name="jit(scan)/jit(main)/while/body/dynamic_slice[slice_sizes=(1, 20)]" source_file="/fs04/fc37/adam/projects/psilocybin-prl-analyses/src/prl_hgf/fitting/hierarchical_patrl.py" source_line=378}
  bitcast.2096.15.clone.1.clone.1 = f64[20]{0} bitcast(dynamic-slice.86.13.clone.1.clone.1)
  param_46.31 = f64[192,20]{1,0} parameter(46)
  dynamic-slice.88.33.clone.1.clone.1 = f64[1,20]{1,0} dynamic-slice(param_46.31, select.223.27, constant_1230_8), dynamic_slice_sizes={1,20}, metadata={op_name="jit(scan)/jit(main)/while/body/dynamic_slice[slice_sizes=(1, 20)]" source_file="/fs04/fc37/adam/projects/psilocybin-prl-analyses/src/prl_hgf/fitting/hierarchical_patrl.py" source_line=378}
  bitcast.2124.33.clone.1.clone.1 = f64[20]{0} bitcast(dynamic-slice.88.33.clone.1.clone.1)
  multiply.379.33.clone.1.clone.1 = f64[20]{0} multiply(multiply.378.13, bitcast.2124.33.clone.1.clone.1), metadata={op_name="jit(scan)/jit(main)/while/body/jit(beliefs_propagation)/jit(continuous_node_posterior_update_ehgf)/jit(posterior_update_mean_continuous_node)/mul" source_file="/fs04/fc37/adam/projects/psilocybin-prl-analyses/src/prl_hgf/fitting/hierarchical_patrl.py" source_line=362}
  multiply.380.15.clone.1.clone.1 = f64[20]{0} multiply(bitcast.2096.15.clone.1.clone.1, multiply.379.33.clone.1.clone.1), metadata={op_name="jit(scan)/jit(main)/while/body/jit(beliefs_propagation)/jit(continuous_node_posterior_update_ehgf)/jit(posterior_update_mean_continuous_node)/mul" source_file="/fs04/fc37/adam/projects/psilocybin-prl-analyses/src/prl_hgf/fitting/hierarchical_patrl.py" source_line=362}
  add.242.15.clone.1.clone.1 = f64[20]{0} add(select.240.17.clone.1.clone.1, multiply.380.15.clone.1.clone.1), metadata={op_name="jit(scan)/jit(main)/while/body/jit(beliefs_propagation)/jit(continuous_node_posterior_update_ehgf)/add_any" source_file="/fs04/fc37/adam/projects/psilocybin-prl-analyses/src/prl_hgf/fitting/hierarchical_patrl.py" source_line=362}
  add.243.13.clone.1.clone.1 = f64[20]{0} add(select.234.15.clone.1.clone.1, add.242.15.clone.1.clone.1), metadata={op_name="jit(scan)/jit(main)/while/body/jit(beliefs_propagation)/add_any" source_file="/fs04/fc37/adam/projects/psilocybin-prl-analyses/src/prl_hgf/fitting/hierarchical_patrl.py" source_line=362}
  param_45.43 = f64[192,20]{1,0} parameter(45)
  dynamic-slice.108.7.clone.1.clone.1 = f64[1,20]{1,0} dynamic-slice(param_45.43, select.223.27, constant_1230_8), dynamic_slice_sizes={1,20}, metadata={op_name="jit(scan)/jit(main)/while/body/dynamic_slice[slice_sizes=(1, 20)]" source_file="/fs04/fc37/adam/projects/psilocybin-prl-analyses/src/prl_hgf/fitting/hierarchical_patrl.py" source_line=378}
  bitcast.2473.9.clone.1.clone.1 = f64[20]{0} bitcast(dynamic-slice.108.7.clone.1.clone.1)
  multiply.407.9.clone.1.clone.1 = f64[20]{0} multiply(add.243.13.clone.1.clone.1, bitcast.2473.9.clone.1.clone.1), metadata={op_name="jit(scan)/jit(main)/while/body/jit(beliefs_propagation)/jit(continuous_node_prediction_error)/jit(continuous_node_volatility_prediction_error)/mul" source_file="/fs04/fc37/adam/projects/psilocybin-prl-analyses/src/prl_hgf/fitting/hierarchical_patrl.py" source_line=362}
  param_44.56 = f64[192,20]{1,0} parameter(44)
  dynamic-slice.103.8.clone.1.clone.1 = f64[1,20]{1,0} dynamic-slice(param_44.56, select.223.27, constant_1230_8), dynamic_slice_sizes={1,20}, metadata={op_name="jit(scan)/jit(main)/while/body/dynamic_slice[slice_sizes=(1, 20)]" source_file="/fs04/fc37/adam/projects/psilocybin-prl-analyses/src/prl_hgf/fitting/hierarchical_patrl.py" source_line=378}
  bitcast.2379.30.clone.1.clone.1 = f64[20]{0} bitcast(dynamic-slice.103.8.clone.1.clone.1)
  divide.20.17.clone.1.clone.1 = f64[20]{0} divide(add.243.13.clone.1.clone.1, bitcast.2379.30.clone.1.clone.1), metadata={op_name="jit(scan)/jit(main)/while/body/jit(beliefs_propagation)/jit(continuous_node_prediction_error)/jit(continuous_node_volatility_prediction_error)/div" source_file="/fs04/fc37/adam/projects/psilocybin-prl-analyses/src/prl_hgf/fitting/hierarchical_patrl.py" source_line=362}
  add.265.15.clone.1.clone.1 = f64[20]{0} add(multiply.407.9.clone.1.clone.1, divide.20.17.clone.1.clone.1), metadata={op_name="jit(scan)/jit(main)/while/body/jit(beliefs_propagation)/jit(continuous_node_prediction_error)/jit(continuous_node_volatility_prediction_error)/add_any" source_file="/fs04/fc37/adam/projects/psilocybin-prl-analyses/src/prl_hgf/fitting/hierarchical_patrl.py" source_line=362}
  add.266.13.clone.1.clone.1 = f64[20]{0} add(select.252.9.clone.1.clone.1, add.265.15.clone.1.clone.1), metadata={op_name="jit(scan)/jit(main)/while/body/jit(beliefs_propagation)/add_any" source_file="/fs04/fc37/adam/projects/psilocybin-prl-analyses/src/prl_hgf/fitting/hierarchical_patrl.py" source_line=362}
  param_43.70 = f64[20]{0} parameter(43)
  add.267.11.clone.1.clone.1 = f64[20]{0} add(add.266.13.clone.1.clone.1, param_43.70), metadata={op_name="jit(scan)/jit(main)/while/body/jit(beliefs_propagation)/add_any" source_file="/fs04/fc37/adam/projects/psilocybin-prl-analyses/src/prl_hgf/fitting/hierarchical_patrl.py" source_line=362}
  param_42.93 = f64[192,20]{1,0} parameter(42)
  dynamic-slice.109.7.clone.1.clone.1 = f64[1,20]{1,0} dynamic-slice(param_42.93, select.223.27, constant_1230_8), dynamic_slice_sizes={1,20}, metadata={op_name="jit(scan)/jit(main)/while/body/dynamic_slice[slice_sizes=(1, 20)]" source_file="/fs04/fc37/adam/projects/psilocybin-prl-analyses/src/prl_hgf/fitting/hierarchical_patrl.py" source_line=378}
  bitcast.2495.9.clone.1.clone.1 = f64[20]{0} bitcast(dynamic-slice.109.7.clone.1.clone.1)
  param_41.118 = f64[20]{0} parameter(41)
  select.255.17.clone.1.clone.1 = f64[20]{0} select(bitcast.1874.76, param_41.118, broadcast.144.clone.60), metadata={op_name="jit(scan)/jit(main)/while/body/jit(_where)/select_n" source_file="/fs04/fc37/adam/projects/psilocybin-prl-analyses/src/prl_hgf/env/pat_rl_simulator.py" source_line=92}
  param_40.100 = f64[192,20]{1,0} parameter(40)
  dynamic-slice.110.13.clone.1.clone.1 = f64[1,20]{1,0} dynamic-slice(param_40.100, select.223.27, constant_1230_8), dynamic_slice_sizes={1,20}, metadata={op_name="jit(scan)/jit(main)/while/body/dynamic_slice[slice_sizes=(1, 20)]" source_file="/fs04/fc37/adam/projects/psilocybin-prl-analyses/src/prl_hgf/fitting/hierarchical_patrl.py" source_line=378}
  bitcast.2517.19.clone.1.clone.1 = f64[20]{0} bitcast(dynamic-slice.110.13.clone.1.clone.1)
  param_39.97 = f64[192,20]{1,0} parameter(39)
  dynamic-slice.111.34.clone.1.clone.1 = f64[1,20]{1,0} dynamic-slice(param_39.97, select.223.27, constant_1230_8), dynamic_slice_sizes={1,20}, metadata={op_name="jit(scan)/jit(main)/while/body/dynamic_slice[slice_sizes=(1, 20)]" source_file="/fs04/fc37/adam/projects/psilocybin-prl-analyses/src/prl_hgf/fitting/hierarchical_patrl.py" source_line=378}
  bitcast.2528.36.clone.1.clone.1 = f64[20]{0} bitcast(dynamic-slice.111.34.clone.1.clone.1)
  multiply.408.17.clone.1.clone.1 = f64[20]{0} multiply(negate.87.30.clone.1.clone.1, bitcast.2528.36.clone.1.clone.1), metadata={op_name="jit(scan)/jit(main)/while/body/jit(beliefs_propagation)/jit(continuous_node_posterior_update_ehgf)/jit(posterior_update_precision_continuous_node)/jit(precision_update)/mul" source_file="/fs04/fc37/adam/projects/psilocybin-prl-analyses/src/prl_hgf/fitting/hierarchical_patrl.py" source_line=362}
  multiply.409.19.clone.1.clone.1 = f64[20]{0} multiply(bitcast.2517.19.clone.1.clone.1, multiply.408.17.clone.1.clone.1), metadata={op_name="jit(scan)/jit(main)/while/body/jit(beliefs_propagation)/jit(continuous_node_posterior_update_ehgf)/jit(posterior_update_precision_continuous_node)/jit(precision_update)/mul" source_file="/fs04/fc37/adam/projects/psilocybin-prl-analyses/src/prl_hgf/fitting/hierarchical_patrl.py" source_line=362}
  param_38.100 = f64[192,20]{1,0} parameter(38)
  dynamic-slice.112.13.clone.1.clone.1 = f64[1,20]{1,0} dynamic-slice(param_38.100, select.223.27, constant_1230_8), dynamic_slice_sizes={1,20}, metadata={op_name="jit(scan)/jit(main)/while/body/dynamic_slice[slice_sizes=(1, 20)]" source_file="/fs04/fc37/adam/projects/psilocybin-prl-analyses/src/prl_hgf/fitting/hierarchical_patrl.py" source_line=378}
  bitcast.2539.30.clone.1.clone.1 = f64[20]{0} bitcast(dynamic-slice.112.13.clone.1.clone.1)
  multiply.410.19.clone.1.clone.1 = f64[20]{0} multiply(multiply.375.31.clone.1.clone.1, bitcast.2528.36.clone.1.clone.1), metadata={op_name="jit(scan)/jit(main)/while/body/jit(beliefs_propagation)/jit(continuous_node_posterior_update_ehgf)/jit(posterior_update_precision_continuous_node)/jit(precision_update)/mul" source_file="/fs04/fc37/adam/projects/psilocybin-prl-analyses/src/prl_hgf/fitting/hierarchical_patrl.py" source_line=362}
  param_37.92 = f64[192,20]{1,0} parameter(37)
  dynamic-slice.113.17.clone.1.clone.1 = f64[1,20]{1,0} dynamic-slice(param_37.92, select.223.27, constant_1230_8), dynamic_slice_sizes={1,20}, metadata={op_name="jit(scan)/jit(main)/while/body/dynamic_slice[slice_sizes=(1, 20)]" source_file="/fs04/fc37/adam/projects/psilocybin-prl-analyses/src/prl_hgf/fitting/hierarchical_patrl.py" source_line=378}
  bitcast.2555.17.clone.1.clone.1 = f64[20]{0} bitcast(dynamic-slice.113.17.clone.1.clone.1)
  multiply.411.17.clone.1.clone.1 = f64[20]{0} multiply(multiply.410.19.clone.1.clone.1, bitcast.2555.17.clone.1.clone.1), metadata={op_name="jit(scan)/jit(main)/while/body/jit(beliefs_propagation)/jit(continuous_node_posterior_update_ehgf)/jit(posterior_update_precision_continuous_node)/jit(precision_update)/mul" source_file="/fs04/fc37/adam/projects/psilocybin-prl-analyses/src/prl_hgf/fitting/hierarchical_patrl.py" source_line=362}
  multiply.412.15.clone.1.clone.1 = f64[20]{0} multiply(bitcast.2539.30.clone.1.clone.1, multiply.411.17.clone.1.clone.1), metadata={op_name="jit(scan)/jit(main)/while/body/jit(beliefs_propagation)/jit(continuous_node_posterior_update_ehgf)/jit(posterior_update_precision_continuous_node)/jit(precision_update)/mul" source_file="/fs04/fc37/adam/projects/psilocybin-prl-analyses/src/prl_hgf/fitting/hierarchical_patrl.py" source_line=362}
  add.268.17.clone.1.clone.1 = f64[20]{0} add(multiply.409.19.clone.1.clone.1, multiply.412.15.clone.1.clone.1), metadata={op_name="jit(scan)/jit(main)/while/body/jit(beliefs_propagation)/jit(continuous_node_posterior_update_ehgf)/jit(posterior_update_precision_continuous_node)/jit(precision_update)/add_any" source_file="/fs04/fc37/adam/projects/psilocybin-prl-analyses/src/prl_hgf/fitting/hierarchical_patrl.py" source_line=362}
  constant_72_2_clone_1_clone_1 = f64[] constant(0.5)
  broadcast.149.clone.21.clone.1.clone.1 = f64[20]{0} broadcast(constant_72_2_clone_1_clone_1), dimensions={}
  multiply.413.19.clone.1.clone.1 = f64[20]{0} multiply(multiply.375.31.clone.1.clone.1, broadcast.149.clone.21.clone.1.clone.1), metadata={op_name="jit(scan)/jit(main)/while/body/jit(beliefs_propagation)/jit(continuous_node_posterior_update_ehgf)/jit(posterior_update_precision_continuous_node)/jit(precision_update)/mul" source_file="/fs04/fc37/adam/projects/psilocybin-prl-analyses/src/prl_hgf/fitting/hierarchical_patrl.py" source_line=362}
  param_36.95 = f64[192,20]{1,0} parameter(36)
  dynamic-slice.114.17.clone.1.clone.1 = f64[1,20]{1,0} dynamic-slice(param_36.95, select.223.27, constant_1230_8), dynamic_slice_sizes={1,20}, metadata={op_name="jit(scan)/jit(main)/while/body/dynamic_slice[slice_sizes=(1, 20)]" source_file="/fs04/fc37/adam/projects/psilocybin-prl-analyses/src/prl_hgf/fitting/hierarchical_patrl.py" source_line=378}
  bitcast.2576.17.clone.1.clone.1 = f64[20]{0} bitcast(dynamic-slice.114.17.clone.1.clone.1)
  multiply.414.17.clone.1.clone.1 = f64[20]{0} multiply(multiply.413.19.clone.1.clone.1, bitcast.2576.17.clone.1.clone.1), metadata={op_name="jit(scan)/jit(main)/while/body/jit(beliefs_propagation)/jit(continuous_node_posterior_update_ehgf)/jit(posterior_update_precision_continuous_node)/jit(precision_update)/mul" source_file="/fs04/fc37/adam/projects/psilocybin-prl-analyses/src/prl_hgf/fitting/hierarchical_patrl.py" source_line=362}
  multiply.415.15.clone.1.clone.1 = f64[20]{0} multiply(bitcast.2539.30.clone.1.clone.1, multiply.414.17.clone.1.clone.1), metadata={op_name="jit(scan)/jit(main)/while/body/jit(beliefs_propagation)/jit(continuous_node_posterior_update_ehgf)/jit(posterior_update_precision_continuous_node)/jit(precision_update)/mul" source_file="/fs04/fc37/adam/projects/psilocybin-prl-analyses/src/prl_hgf/fitting/hierarchical_patrl.py" source_line=362}
  add.269.15.clone.1.clone.1 = f64[20]{0} add(add.268.17.clone.1.clone.1, multiply.415.15.clone.1.clone.1), metadata={op_name="jit(scan)/jit(main)/while/body/jit(beliefs_propagation)/jit(continuous_node_posterior_update_ehgf)/jit(posterior_update_precision_continuous_node)/jit(precision_update)/add_any" source_file="/fs04/fc37/adam/projects/psilocybin-prl-analyses/src/prl_hgf/fitting/hierarchical_patrl.py" source_line=362}
  select.256.17.clone.1.clone.1 = f64[20]{0} select(bitcast.2020.21, add.269.15.clone.1.clone.1, broadcast.144.clone.60), metadata={op_name="jit(scan)/jit(main)/while/body/jit(beliefs_propagation)/jit(continuous_node_posterior_update_ehgf)/jit(posterior_update_precision_continuous_node)/select_n" source_file="/fs04/fc37/adam/projects/psilocybin-prl-analyses/src/prl_hgf/fitting/hierarchical_patrl.py" source_line=362}
  param_35.99 = f64[192,20]{1,0} parameter(35)
  dynamic-slice.115.13.clone.1.clone.1 = f64[1,20]{1,0} dynamic-slice(param_35.99, select.223.27, constant_1230_8), dynamic_slice_sizes={1,20}, metadata={op_name="jit(scan)/jit(main)/while/body/dynamic_slice[slice_sizes=(1, 20)]" source_file="/fs04/fc37/adam/projects/psilocybin-prl-analyses/src/prl_hgf/fitting/hierarchical_patrl.py" source_line=378}
  bitcast.2591.15.clone.1.clone.1 = f64[20]{0} bitcast(dynamic-slice.115.13.clone.1.clone.1)
  param_34.130 = f64[192,20]{1,0} parameter(34)
  dynamic-slice.116.17.clone.1.clone.1 = f64[1,20]{1,0} dynamic-slice(param_34.130, select.223.27, constant_1230_8), dynamic_slice_sizes={1,20}, metadata={op_name="jit(scan)/jit(main)/while/body/dynamic_slice[slice_sizes=(1, 20)]" source_file="/fs04/fc37/adam/projects/psilocybin-prl-analyses/src/prl_hgf/fitting/hierarchical_patrl.py" source_line=378}
  bitcast.2602.17.clone.1.clone.1 = f64[20]{0} bitcast(dynamic-slice.116.17.clone.1.clone.1)
  multiply.416.17.clone.1.clone.1 = f64[20]{0} multiply(multiply.379.33.clone.1.clone.1, bitcast.2602.17.clone.1.clone.1), metadata={op_name="jit(scan)/jit(main)/while/body/jit(beliefs_propagation)/jit(continuous_node_posterior_update_ehgf)/jit(posterior_update_mean_continuous_node)/mul" source_file="/fs04/fc37/adam/projects/psilocybin-prl-analyses/src/prl_hgf/fitting/hierarchical_patrl.py" source_line=362}
  multiply.417.15.clone.1.clone.1 = f64[20]{0} multiply(bitcast.2591.15.clone.1.clone.1, multiply.416.17.clone.1.clone.1), metadata={op_name="jit(scan)/jit(main)/while/body/jit(beliefs_propagation)/jit(continuous_node_posterior_update_ehgf)/jit(posterior_update_mean_continuous_node)/mul" source_file="/fs04/fc37/adam/projects/psilocybin-prl-analyses/src/prl_hgf/fitting/hierarchical_patrl.py" source_line=362}
  add.270.15.clone.1.clone.1 = f64[20]{0} add(select.256.17.clone.1.clone.1, multiply.417.15.clone.1.clone.1), metadata={op_name="jit(scan)/jit(main)/while/body/jit(beliefs_propagation)/jit(continuous_node_posterior_update_ehgf)/add_any" source_file="/fs04/fc37/adam/projects/psilocybin-prl-analyses/src/prl_hgf/fitting/hierarchical_patrl.py" source_line=362}
  add.271.15.clone.1.clone.1 = f64[20]{0} add(select.255.17.clone.1.clone.1, add.270.15.clone.1.clone.1), metadata={op_name="jit(scan)/jit(main)/while/body/jit(beliefs_propagation)/add_any" source_file="/fs04/fc37/adam/projects/psilocybin-prl-analyses/src/prl_hgf/fitting/hierarchical_patrl.py" source_line=362}
  add.272.13.clone.1.clone.1 = f64[20]{0} add(add.271.15.clone.1.clone.1, param_1.807), metadata={op_name="jit(scan)/jit(main)/while/body/jit(beliefs_propagation)/add_any" source_file="/fs04/fc37/adam/projects/psilocybin-prl-analyses/src/prl_hgf/fitting/hierarchical_patrl.py" source_line=362}
  multiply.418.9.clone.1.clone.1 = f64[20]{0} multiply(bitcast.2495.9.clone.1.clone.1, add.272.13.clone.1.clone.1), metadata={op_name="jit(scan)/jit(main)/while/body/jit(beliefs_propagation)/jit(continuous_node_prediction)/jit(predict_precision)/mul" source_file="/fs04/fc37/adam/projects/psilocybin-prl-analyses/src/prl_hgf/fitting/hierarchical_patrl.py" source_line=362}
  add.273.9.clone.1.clone.1 = f64[20]{0} add(add.267.11.clone.1.clone.1, multiply.418.9.clone.1.clone.1), metadata={op_name="jit(scan)/jit(main)/while/body/jit(beliefs_propagation)/jit(continuous_node_prediction)/jit(predict_precision)/add_any" source_file="/fs04/fc37/adam/projects/psilocybin-prl-analyses/src/prl_hgf/fitting/hierarchical_patrl.py" source_line=362}
  param_33.120 = f64[192,20]{1,0} parameter(33)
  dynamic-slice.117.7.clone.1.clone.1 = f64[1,20]{1,0} dynamic-slice(param_33.120, select.223.27, constant_1230_8), dynamic_slice_sizes={1,20}, metadata={op_name="jit(scan)/jit(main)/while/body/dynamic_slice[slice_sizes=(1, 20)]" source_file="/fs04/fc37/adam/projects/psilocybin-prl-analyses/src/prl_hgf/fitting/hierarchical_patrl.py" source_line=378}
  bitcast.2620.7.clone.1.clone.1 = f64[20]{0} bitcast(dynamic-slice.117.7.clone.1.clone.1)
  multiply.419.7.clone.1.clone.1 = f64[20]{0} multiply(add.273.9.clone.1.clone.1, bitcast.2620.7.clone.1.clone.1), metadata={op_name="jit(scan)/jit(main)/while/body/jit(beliefs_propagation)/jit(continuous_node_prediction)/jit(predict_precision)/mul" source_file="/fs04/fc37/adam/projects/psilocybin-prl-analyses/src/prl_hgf/fitting/hierarchical_patrl.py" source_line=362}
  negate.94.4.clone.1.clone.1 = f64[20]{0} negate(multiply.419.7.clone.1.clone.1), metadata={op_name="jit(scan)/jit(main)/while/body/jit(beliefs_propagation)/jit(continuous_node_prediction)/jit(predict_precision)/neg" source_file="/fs04/fc37/adam/projects/psilocybin-prl-analyses/src/prl_hgf/fitting/hierarchical_patrl.py" source_line=362}
  param_32.141 = f64[192,20]{1,0} parameter(32)
  dynamic-slice.90.9.clone.1.clone.1 = f64[1,20]{1,0} dynamic-slice(param_32.141, select.223.27, constant_1230_8), dynamic_slice_sizes={1,20}, metadata={op_name="jit(scan)/jit(main)/while/body/dynamic_slice[slice_sizes=(1, 20)]" source_file="/fs04/fc37/adam/projects/psilocybin-prl-analyses/src/prl_hgf/fitting/hierarchical_patrl.py" source_line=378}
  bitcast.2147.23.clone.1.clone.1 = f64[20]{0} bitcast(dynamic-slice.90.9.clone.1.clone.1)
  multiply.422.9.clone.1.clone.1 = f64[20]{0} multiply(add.272.13.clone.1.clone.1, bitcast.2147.23.clone.1.clone.1), metadata={op_name="jit(scan)/jit(main)/while/body/jit(beliefs_propagation)/jit(continuous_node_prediction)/jit(predict_precision)/mul" source_file="/fs04/fc37/adam/projects/psilocybin-prl-analyses/src/prl_hgf/fitting/hierarchical_patrl.py" source_line=362}
  add.281.7.clone.1.clone.1 = f64[20]{0} add(negate.94.4.clone.1.clone.1, multiply.422.9.clone.1.clone.1), metadata={op_name="jit(scan)/jit(main)/while/body/jit(beliefs_propagation)/jit(continuous_node_prediction)/jit(predict_precision)/add_any" source_file="/fs04/fc37/adam/projects/psilocybin-prl-analyses/src/prl_hgf/fitting/hierarchical_patrl.py" source_line=362}
  select.266.5.clone.1.clone.1 = f64[20]{0} select(bitcast.2739.5.clone.1.clone.1, add.281.7.clone.1.clone.1, broadcast.144.clone.60), metadata={op_name="jit(scan)/jit(main)/while/body/jit(beliefs_propagation)/jit(continuous_node_posterior_update_ehgf)/jit(posterior_update_precision_continuous_node)/jit(precision_update)/jit(_where)/select_n" source_file="/fs04/fc37/adam/projects/psilocybin-prl-analyses/src/prl_hgf/env/pat_rl_simulator.py" source_line=92}
  multiply.423.5.clone.1.clone.1 = f64[20]{0} multiply(broadcast.150.11.clone.1, select.266.5.clone.1.clone.1), metadata={op_name="jit(scan)/jit(main)/while/body/jit(beliefs_propagation)/jit(continuous_node_prediction)/jit(predict_precision)/mul" source_file="/fs04/fc37/adam/projects/psilocybin-prl-analyses/src/prl_hgf/fitting/hierarchical_patrl.py" source_line=362}
  param_31.158 = f64[192,20]{1,0} parameter(31)
  dynamic-slice.122.3.clone.1.clone.1 = f64[1,20]{1,0} dynamic-slice(param_31.158, select.223.27, constant_1230_8), dynamic_slice_sizes={1,20}, metadata={op_name="jit(scan)/jit(main)/while/body/dynamic_slice[slice_sizes=(1, 20)]" source_file="/fs04/fc37/adam/projects/psilocybin-prl-analyses/src/prl_hgf/fitting/hierarchical_patrl.py" source_line=378}
  bitcast.2762.3.clone.1.clone.1 = f64[20]{0} bitcast(dynamic-slice.122.3.clone.1.clone.1)
  multiply.424.3.clone.1.clone.1 = f64[20]{0} multiply(multiply.423.5.clone.1.clone.1, bitcast.2762.3.clone.1.clone.1), metadata={op_name="jit(scan)/jit(main)/while/body/jit(beliefs_propagation)/jit(continuous_node_prediction)/jit(predict_precision)/mul" source_file="/fs04/fc37/adam/projects/psilocybin-prl-analyses/src/prl_hgf/fitting/hierarchical_patrl.py" source_line=362}
  multiply.425.7.clone.1.clone.1 = f64[20]{0} multiply(bitcast.2803.7.clone.1.clone.1, multiply.424.3.clone.1.clone.1), metadata={op_name="jit(scan)/jit(main)/while/body/jit(beliefs_propagation)/jit(continuous_node_prediction)/jit(predict_precision)/mul" source_file="/fs04/fc37/adam/projects/psilocybin-prl-analyses/src/prl_hgf/fitting/hierarchical_patrl.py" source_line=362}
  add.284.5.clone.1.clone.1 = f64[20]{0} add(param_30.164, multiply.425.7.clone.1.clone.1), metadata={op_name="jit(scan)/jit(main)/while/body/jit(beliefs_propagation)/add_any" source_file="/fs04/fc37/adam/projects/psilocybin-prl-analyses/src/prl_hgf/fitting/hierarchical_patrl.py" source_line=362}
  param_29.178 = f64[192,20]{1,0} parameter(29)
  dynamic-slice.124.1.clone.1.clone.1 = f64[1,20]{1,0} dynamic-slice(param_29.178, select.223.27, constant_1230_8), dynamic_slice_sizes={1,20}, metadata={op_name="jit(scan)/jit(main)/while/body/dynamic_slice[slice_sizes=(1, 20)]" source_file="/fs04/fc37/adam/projects/psilocybin-prl-analyses/src/prl_hgf/fitting/hierarchical_patrl.py" source_line=378}
  bitcast.2816.3.clone.1.clone.1 = f64[20]{0} bitcast(dynamic-slice.124.1.clone.1.clone.1)
  param_28.182 = f64[20]{0} parameter(28)
  select.271.9.clone.1.clone.1 = f64[20]{0} select(bitcast.1874.76, param_28.182, broadcast.144.clone.60), metadata={op_name="jit(scan)/jit(main)/while/body/jit(_where)/select_n" source_file="/fs04/fc37/adam/projects/psilocybin-prl-analyses/src/prl_hgf/env/pat_rl_simulator.py" source_line=92}
  add.285.7.clone.1.clone.1 = f64[20]{0} add(select.271.9.clone.1.clone.1, select.241.17), metadata={op_name="jit(scan)/jit(main)/while/body/jit(beliefs_propagation)/add_any" source_file="/fs04/fc37/adam/projects/psilocybin-prl-analyses/src/prl_hgf/fitting/hierarchical_patrl.py" source_line=362}
  add.286.5.clone.1.clone.1 = f64[20]{0} add(add.285.7.clone.1.clone.1, param_1.807), metadata={op_name="jit(scan)/jit(main)/while/body/jit(beliefs_propagation)/add_any" source_file="/fs04/fc37/adam/projects/psilocybin-prl-analyses/src/prl_hgf/fitting/hierarchical_patrl.py" source_line=362}
  multiply.426.3.clone.1.clone.1 = f64[20]{0} multiply(bitcast.2816.3.clone.1.clone.1, add.286.5.clone.1.clone.1), metadata={op_name="jit(scan)/jit(main)/while/body/jit(beliefs_propagation)/jit(continuous_node_prediction)/jit(predict_mean)/mul" source_file="/fs04/fc37/adam/projects/psilocybin-prl-analyses/src/prl_hgf/fitting/hierarchical_patrl.py" source_line=362}
  add.287.3.clone.1.clone.1 = f64[20]{0} add(add.284.5.clone.1.clone.1, multiply.426.3.clone.1.clone.1), metadata={op_name="jit(scan)/jit(main)/while/body/jit(beliefs_propagation)/add_any" source_file="/fs04/fc37/adam/projects/psilocybin-prl-analyses/src/prl_hgf/fitting/hierarchical_patrl.py" source_line=362}
  add.288.1.clone.1.clone.1 = f64[20]{0} add(select.270.3.clone.1.clone.1, add.287.3.clone.1.clone.1), metadata={op_name="jit(scan)/jit(main)/while/body/add_any" source_file="/fs04/fc37/adam/projects/psilocybin-prl-analyses/src/prl_hgf/fitting/hierarchical_patrl.py" source_line=362}
  select.267.1.clone.1 = f64[20]{0} select(bitcast.1874.76, broadcast.144.clone.60, param_28.182), metadata={op_name="jit(scan)/jit(main)/while/body/jit(_where)/select_n" source_file="/fs04/fc37/adam/projects/psilocybin-prl-analyses/src/prl_hgf/env/pat_rl_simulator.py" source_line=92}
  param_56.35 = f64[20]{0} parameter(56)
  select.264.5.clone.1 = f64[20]{0} select(bitcast.1874.76, param_56.35, broadcast.144.clone.60), metadata={op_name="jit(scan)/jit(main)/while/body/jit(_where)/select_n" source_file="/fs04/fc37/adam/projects/psilocybin-prl-analyses/src/prl_hgf/fitting/hierarchical_patrl.py" source_line=370}
  select.265.5.clone.1 = f64[20]{0} select(bitcast.1874.76, broadcast.144.clone.60, param_56.35), metadata={op_name="jit(scan)/jit(main)/while/body/jit(_where)/select_n" source_file="/fs04/fc37/adam/projects/psilocybin-prl-analyses/src/prl_hgf/fitting/hierarchical_patrl.py" source_line=370}
  add.280.3.clone.1 = f64[20]{0} add(select.264.5.clone.1, select.265.5.clone.1), metadata={op_name="jit(scan)/jit(main)/while/body/add_any" source_file="/fs04/fc37/adam/projects/psilocybin-prl-analyses/src/prl_hgf/fitting/hierarchical_patrl.py" source_line=370}
  param_55.35 = f64[20]{0} parameter(55)
  add.282.1.clone.1 = f64[20]{0} add(param_55.35, multiply.424.3.clone.1.clone.1), metadata={op_name="jit(scan)/jit(main)/while/body/jit(beliefs_propagation)/add_any" source_file="/fs04/fc37/adam/projects/psilocybin-prl-analyses/src/prl_hgf/fitting/hierarchical_patrl.py" source_line=362}
  add.283.1.clone.1 = f64[20]{0} add(add.280.3.clone.1, add.282.1.clone.1), metadata={op_name="jit(scan)/jit(main)/while/body/add_any" source_file="/fs04/fc37/adam/projects/psilocybin-prl-analyses/src/prl_hgf/fitting/hierarchical_patrl.py" source_line=362}
  param_61.30 = f64[20]{0} parameter(61)
  select.251.3.clone.1 = f64[20]{0} select(bitcast.1874.76, broadcast.144.clone.60, param_61.30), metadata={op_name="jit(scan)/jit(main)/while/body/jit(_where)/select_n" source_file="/fs04/fc37/adam/projects/psilocybin-prl-analyses/src/prl_hgf/env/pat_rl_simulator.py" source_line=92}
  param_57.27 = f64[20]{0} parameter(57)
  param_60.37 = f64[192,20]{1,0} parameter(60)
  dynamic-slice.118.1.clone.1 = f64[1,20]{1,0} dynamic-slice(param_60.37, select.223.27, constant_1230_8), dynamic_slice_sizes={1,20}, metadata={op_name="jit(scan)/jit(main)/while/body/dynamic_slice[slice_sizes=(1, 20)]" source_file="/fs04/fc37/adam/projects/psilocybin-prl-analyses/src/prl_hgf/fitting/hierarchical_patrl.py" source_line=378}
  bitcast.2631.9.clone.1 = f64[20]{0} bitcast(dynamic-slice.118.1.clone.1)
  multiply.420.9.clone.1 = f64[20]{0} multiply(negate.94.4.clone.1.clone.1, bitcast.2631.9.clone.1), metadata={op_name="jit(scan)/jit(main)/while/body/jit(beliefs_propagation)/jit(continuous_node_prediction)/jit(predict_precision)/mul" source_file="/fs04/fc37/adam/projects/psilocybin-prl-analyses/src/prl_hgf/fitting/hierarchical_patrl.py" source_line=362}
  negate.95.7.clone.1 = f64[20]{0} negate(multiply.420.9.clone.1), metadata={op_name="jit(scan)/jit(main)/while/body/jit(beliefs_propagation)/jit(continuous_node_prediction)/jit(predict_precision)/neg" source_file="/fs04/fc37/adam/projects/psilocybin-prl-analyses/src/prl_hgf/fitting/hierarchical_patrl.py" source_line=362}
  param_59.29 = f64[20]{0} parameter(59)
  select.257.9.clone.1 = f64[20]{0} select(bitcast.1874.76, param_59.29, broadcast.144.clone.60), metadata={op_name="jit(scan)/jit(main)/while/body/jit(_where)/select_n" source_file="/fs04/fc37/adam/projects/psilocybin-prl-analyses/src/prl_hgf/fitting/hierarchical_patrl.py" source_line=370}
  add.274.7.clone.1 = f64[20]{0} add(select.257.9.clone.1, param_1.807), metadata={op_name="jit(scan)/jit(main)/while/body/jit(beliefs_propagation)/add_any" source_file="/fs04/fc37/adam/projects/psilocybin-prl-analyses/src/prl_hgf/fitting/hierarchical_patrl.py" source_line=362}
  param_58.31 = f64[192,20]{1,0} parameter(58)
  dynamic-slice.119.1.clone.1 = f64[1,20]{1,0} dynamic-slice(param_58.31, select.223.27, constant_1230_8), dynamic_slice_sizes={1,20}, metadata={op_name="jit(scan)/jit(main)/while/body/dynamic_slice[slice_sizes=(1, 20)]" source_file="/fs04/fc37/adam/projects/psilocybin-prl-analyses/src/prl_hgf/fitting/hierarchical_patrl.py" source_line=378}
  bitcast.2654.5.clone.1 = f64[20]{0} bitcast(dynamic-slice.119.1.clone.1)
  multiply.421.5.clone.1 = f64[20]{0} multiply(add.274.7.clone.1, bitcast.2654.5.clone.1), metadata={op_name="jit(scan)/jit(main)/while/body/jit(beliefs_propagation)/jit(continuous_node_prediction)/mul" source_file="/fs04/fc37/adam/projects/psilocybin-prl-analyses/src/prl_hgf/fitting/hierarchical_patrl.py" source_line=362}
  negate.96.3.clone.1 = f64[20]{0} negate(multiply.421.5.clone.1), metadata={op_name="jit(scan)/jit(main)/while/body/jit(beliefs_propagation)/jit(continuous_node_prediction)/neg" source_file="/fs04/fc37/adam/projects/psilocybin-prl-analyses/src/prl_hgf/fitting/hierarchical_patrl.py" source_line=362}
  add.275.5.clone.1 = f64[20]{0} add(negate.95.7.clone.1, negate.96.3.clone.1), metadata={op_name="jit(scan)/jit(main)/while/body/jit(beliefs_propagation)/jit(continuous_node_prediction)/add_any" source_file="/fs04/fc37/adam/projects/psilocybin-prl-analyses/src/prl_hgf/fitting/hierarchical_patrl.py" source_line=362}
  add.276.3.clone.1 = f64[20]{0} add(param_57.27, add.275.5.clone.1), metadata={op_name="jit(scan)/jit(main)/while/body/jit(beliefs_propagation)/add_any" source_file="/fs04/fc37/adam/projects/psilocybin-prl-analyses/src/prl_hgf/fitting/hierarchical_patrl.py" source_line=362}
  add.277.1.clone.1 = f64[20]{0} add(select.251.3.clone.1, add.276.3.clone.1), metadata={op_name="jit(scan)/jit(main)/while/body/add_any" source_file="/fs04/fc37/adam/projects/psilocybin-prl-analyses/src/prl_hgf/fitting/hierarchical_patrl.py" source_line=362}
  select.259.1.clone.1 = f64[20]{0} select(bitcast.1874.76, broadcast.144.clone.60, param_41.118), metadata={op_name="jit(scan)/jit(main)/while/body/jit(_where)/select_n" source_file="/fs04/fc37/adam/projects/psilocybin-prl-analyses/src/prl_hgf/env/pat_rl_simulator.py" source_line=92}
  param_68.48 = pred[192,20,1]{2,1,0} parameter(68)
  dynamic-slice.139.1.clone.1 = pred[1,20,1]{2,1,0} dynamic-slice(param_68.48, select.223.27, constant_1230_8, constant_1230_8), dynamic_slice_sizes={1,20,1}, metadata={op_name="jit(scan)/jit(main)/while/body/dynamic_slice[slice_sizes=(1, 20, 1)]" source_file="/fs04/fc37/adam/projects/psilocybin-prl-analyses/src/prl_hgf/fitting/hierarchical_patrl.py" source_line=378}
  bitcast.3130.10.clone.1 = pred[20,1]{1,0} bitcast(dynamic-slice.139.1.clone.1)
  param_67.33 = f64[20,1]{1,0} parameter(67)
  broadcast.153.clone.3.clone.1 = f64[20,1]{1,0} broadcast(constant_58_13), dimensions={}
  select.285.5.clone.1 = f64[20,1]{1,0} select(bitcast.3130.10.clone.1, param_67.33, broadcast.153.clone.3.clone.1), metadata={op_name="jit(scan)/jit(main)/while/body/jit(_where)/select_n" source_file="/fs04/fc37/adam/projects/psilocybin-prl-analyses/src/prl_hgf/fitting/hierarchical_patrl.py" source_line=370}
  select.286.5.clone.1 = f64[20,1]{1,0} select(bitcast.3130.10.clone.1, broadcast.153.clone.3.clone.1, param_67.33), metadata={op_name="jit(scan)/jit(main)/while/body/jit(_where)/select_n" source_file="/fs04/fc37/adam/projects/psilocybin-prl-analyses/src/prl_hgf/fitting/hierarchical_patrl.py" source_line=370}
  add.309.3.clone.1 = f64[20,1]{1,0} add(select.285.5.clone.1, select.286.5.clone.1), metadata={op_name="jit(scan)/jit(main)/while/body/add_any" source_file="/fs04/fc37/adam/projects/psilocybin-prl-analyses/src/prl_hgf/fitting/hierarchical_patrl.py" source_line=370}
  param_66.28 = pred[192,20,1]{2,1,0} parameter(66)
  dynamic-slice.140.1.clone.1 = pred[1,20,1]{2,1,0} dynamic-slice(param_66.28, select.223.27, constant_1230_8, constant_1230_8), dynamic_slice_sizes={1,20,1}, metadata={op_name="jit(scan)/jit(main)/while/body/dynamic_slice[slice_sizes=(1, 20, 1)]" source_file="/fs04/fc37/adam/projects/psilocybin-prl-analyses/src/prl_hgf/fitting/hierarchical_patrl.py" source_line=378}
  bitcast.3155.7.clone.1 = pred[20,1]{1,0} bitcast(dynamic-slice.140.1.clone.1)
  param_65.27 = f64[192,20]{1,0} parameter(65)
  dynamic-slice.141.1.clone.1 = f64[1,20]{1,0} dynamic-slice(param_65.27, select.223.27, constant_1230_8), dynamic_slice_sizes={1,20}, metadata={op_name="jit(scan)/jit(main)/while/body/dynamic_slice[slice_sizes=(1, 20)]" source_file="/fs04/fc37/adam/projects/psilocybin-prl-analyses/src/prl_hgf/fitting/hierarchical_patrl.py" source_line=378}
  bitcast.3166.35.clone.1 = f64[20]{0} bitcast(dynamic-slice.141.1.clone.1)
  multiply.441.13.clone.1 = f64[20]{0} multiply(multiply.408.17.clone.1.clone.1, bitcast.3166.35.clone.1), metadata={op_name="jit(scan)/jit(main)/while/body/jit(beliefs_propagation)/jit(continuous_node_posterior_update_ehgf)/jit(posterior_update_precision_continuous_node)/jit(precision_update)/mul" source_file="/fs04/fc37/adam/projects/psilocybin-prl-analyses/src/prl_hgf/fitting/hierarchical_patrl.py" source_line=362}
  multiply.442.11.clone.1 = f64[20]{0} multiply(multiply.441.13.clone.1, broadcast.149.clone.21.clone.1.clone.1), metadata={op_name="jit(scan)/jit(main)/while/body/jit(beliefs_propagation)/jit(continuous_node_posterior_update_ehgf)/jit(posterior_update_precision_continuous_node)/jit(precision_update)/mul" source_file="/fs04/fc37/adam/projects/psilocybin-prl-analyses/src/prl_hgf/fitting/hierarchical_patrl.py" source_line=362}
  param_64.32 = f64[192,20]{1,0} parameter(64)
  dynamic-slice.142.1.clone.1 = f64[1,20]{1,0} dynamic-slice(param_64.32, select.223.27, constant_1230_8), dynamic_slice_sizes={1,20}, metadata={op_name="jit(scan)/jit(main)/while/body/dynamic_slice[slice_sizes=(1, 20)]" source_file="/fs04/fc37/adam/projects/psilocybin-prl-analyses/src/prl_hgf/fitting/hierarchical_patrl.py" source_line=378}
  bitcast.3179.9.clone.1 = f64[20]{0} bitcast(dynamic-slice.142.1.clone.1)
  multiply.443.9.clone.1 = f64[20]{0} multiply(multiply.442.11.clone.1, bitcast.3179.9.clone.1), metadata={op_name="jit(scan)/jit(main)/while/body/jit(beliefs_propagation)/jit(continuous_node_posterior_update_ehgf)/jit(posterior_update_precision_continuous_node)/jit(precision_update)/mul" source_file="/fs04/fc37/adam/projects/psilocybin-prl-analyses/src/prl_hgf/fitting/hierarchical_patrl.py" source_line=362}
  multiply.444.11.clone.1 = f64[20]{0} multiply(multiply.411.17.clone.1.clone.1, bitcast.3166.35.clone.1), metadata={op_name="jit(scan)/jit(main)/while/body/jit(beliefs_propagation)/jit(continuous_node_posterior_update_ehgf)/jit(posterior_update_precision_continuous_node)/jit(precision_update)/mul" source_file="/fs04/fc37/adam/projects/psilocybin-prl-analyses/src/prl_hgf/fitting/hierarchical_patrl.py" source_line=362}
  add.310.9.clone.1 = f64[20]{0} add(multiply.443.9.clone.1, multiply.444.11.clone.1), metadata={op_name="jit(scan)/jit(main)/while/body/jit(beliefs_propagation)/jit(continuous_node_posterior_update_ehgf)/jit(posterior_update_precision_continuous_node)/jit(precision_update)/add_any" source_file="/fs04/fc37/adam/projects/psilocybin-prl-analyses/src/prl_hgf/fitting/hierarchical_patrl.py" source_line=362}
  multiply.445.11.clone.1 = f64[20]{0} multiply(multiply.414.17.clone.1.clone.1, bitcast.3166.35.clone.1), metadata={op_name="jit(scan)/jit(main)/while/body/jit(beliefs_propagation)/jit(continuous_node_posterior_update_ehgf)/jit(posterior_update_precision_continuous_node)/jit(precision_update)/mul" source_file="/fs04/fc37/adam/projects/psilocybin-prl-analyses/src/prl_hgf/fitting/hierarchical_patrl.py" source_line=362}
  add.311.9.clone.1 = f64[20]{0} add(add.310.9.clone.1, multiply.445.11.clone.1), metadata={op_name="jit(scan)/jit(main)/while/body/jit(beliefs_propagation)/jit(continuous_node_posterior_update_ehgf)/jit(posterior_update_precision_continuous_node)/jit(precision_update)/add_any" source_file="/fs04/fc37/adam/projects/psilocybin-prl-analyses/src/prl_hgf/fitting/hierarchical_patrl.py" source_line=362}
  bitcast.3198.7.clone.1 = f64[20,1]{1,0} bitcast(add.311.9.clone.1)
  select.287.7.clone.1 = f64[20,1]{1,0} select(bitcast.3155.7.clone.1, bitcast.3198.7.clone.1, broadcast.153.clone.3.clone.1), metadata={op_name="jit(scan)/jit(main)/while/body/jit(beliefs_propagation)/jit(continuous_node_posterior_update_ehgf)/jit(posterior_update_precision_continuous_node)/select_n" source_file="/fs04/fc37/adam/projects/psilocybin-prl-analyses/src/prl_hgf/fitting/hierarchical_patrl.py" source_line=362}
  param_63.37 = f64[192,20]{1,0} parameter(63)
  dynamic-slice.143.1.clone.1 = f64[1,20]{1,0} dynamic-slice(param_63.37, select.223.27, constant_1230_8), dynamic_slice_sizes={1,20}, metadata={op_name="jit(scan)/jit(main)/while/body/dynamic_slice[slice_sizes=(1, 20)]" source_file="/fs04/fc37/adam/projects/psilocybin-prl-analyses/src/prl_hgf/fitting/hierarchical_patrl.py" source_line=378}
  bitcast.3212.7.clone.1 = f64[20]{0} bitcast(dynamic-slice.143.1.clone.1)
  multiply.446.7.clone.1 = f64[20]{0} multiply(multiply.416.17.clone.1.clone.1, bitcast.3212.7.clone.1), metadata={op_name="jit(scan)/jit(main)/while/body/jit(beliefs_propagation)/jit(continuous_node_posterior_update_ehgf)/jit(posterior_update_mean_continuous_node)/mul" source_file="/fs04/fc37/adam/projects/psilocybin-prl-analyses/src/prl_hgf/fitting/hierarchical_patrl.py" source_line=362}
  bitcast.3215.5.clone.1 = f64[20,1]{1,0} bitcast(multiply.446.7.clone.1)
  add.312.5.clone.1 = f64[20,1]{1,0} add(select.287.7.clone.1, bitcast.3215.5.clone.1), metadata={op_name="jit(scan)/jit(main)/while/body/jit(beliefs_propagation)/jit(continuous_node_posterior_update_ehgf)/add_any" source_file="/fs04/fc37/adam/projects/psilocybin-prl-analyses/src/prl_hgf/fitting/hierarchical_patrl.py" source_line=362}
  param_62.37 = f64[20,1]{1,0} parameter(62)
  add.313.3.clone.1 = f64[20,1]{1,0} add(add.312.5.clone.1, param_62.37), metadata={op_name="jit(scan)/jit(main)/while/body/jit(beliefs_propagation)/add_any" source_file="/fs04/fc37/adam/projects/psilocybin-prl-analyses/src/prl_hgf/fitting/hierarchical_patrl.py" source_line=362}
  add.314.1.clone.1 = f64[20,1]{1,0} add(add.309.3.clone.1, add.313.3.clone.1), metadata={op_name="jit(scan)/jit(main)/while/body/add_any" source_file="/fs04/fc37/adam/projects/psilocybin-prl-analyses/src/prl_hgf/fitting/hierarchical_patrl.py" source_line=362}
  select.258.1.clone.1 = f64[20]{0} select(bitcast.1874.76, broadcast.144.clone.60, param_59.29), metadata={op_name="jit(scan)/jit(main)/while/body/jit(_where)/select_n" source_file="/fs04/fc37/adam/projects/psilocybin-prl-analyses/src/prl_hgf/fitting/hierarchical_patrl.py" source_line=370}
  param_69.58 = f64[20]{0} parameter(69)
  select.260.3.clone.1 = f64[20]{0} select(bitcast.1874.76, broadcast.144.clone.60, param_69.58), metadata={op_name="jit(scan)/jit(main)/while/body/jit(_where)/select_n" source_file="/fs04/fc37/adam/projects/psilocybin-prl-analyses/src/prl_hgf/env/pat_rl_simulator.py" source_line=92}
  add.278.1.clone.1 = f64[20]{0} add(select.260.3.clone.1, param_1.807), metadata={op_name="jit(scan)/jit(main)/while/body/add_any" source_file="/fs04/fc37/adam/projects/psilocybin-prl-analyses/src/prl_hgf/fitting/hierarchical_patrl.py" source_line=362}
  select.263.3.clone.1 = f64[20]{0} select(bitcast.1874.76, broadcast.144.clone.60, param_51.19), metadata={op_name="jit(scan)/jit(main)/while/body/jit(_where)/select_n" source_file="/fs04/fc37/adam/projects/psilocybin-prl-analyses/src/prl_hgf/env/pat_rl_simulator.py" source_line=92}
  add.279.1.clone.1 = f64[20]{0} add(select.263.3.clone.1, param_1.807), metadata={op_name="jit(scan)/jit(main)/while/body/add_any" source_file="/fs04/fc37/adam/projects/psilocybin-prl-analyses/src/prl_hgf/fitting/hierarchical_patrl.py" source_line=362}
  select.231.1.clone.1 = f64[20]{0} select(bitcast.1874.76, broadcast.144.clone.60, param_52.22), metadata={op_name="jit(scan)/jit(main)/while/body/jit(_where)/select_n" source_file="/fs04/fc37/adam/projects/psilocybin-prl-analyses/src/prl_hgf/env/pat_rl_simulator.py" source_line=92}
  param_70.69 = f64[20]{0} parameter(70)
  select.224.1.clone.1 = f64[20]{0} select(bitcast.1874.76, broadcast.144.clone.60, param_70.69), metadata={op_name="jit(scan)/jit(main)/while/body/jit(_where)/select_n" source_file="/fs04/fc37/adam/projects/psilocybin-prl-analyses/src/prl_hgf/env/pat_rl_simulator.py" source_line=92}
  ROOT tuple.145 = (f64[20]{0}, f64[20]{0}, f64[20]{0}, f64[20]{0}, f64[20]{0}, /*index=5*/f64[20]{0}, f64[20]{0}, f64[20]{0}, f64[20]{0}, f64[20]{0}, /*index=10*/f64[20,1]{1,0}, f64[20]{0}, f64[20]{0}, f64[20]{0}, f64[20]{0}, /*index=15*/f64[20]{0}) tuple(add.300.1, add.308.1.clone.1, select.280.1.clone.1, select.279.1.clone.1, select.268.1.clone.1, /*index=5*/add.288.1.clone.1.clone.1, select.267.1.clone.1, add.283.1.clone.1, add.277.1.clone.1, select.259.1.clone.1, /*index=10*/add.314.1.clone.1, select.258.1.clone.1, add.278.1.clone.1, add.279.1.clone.1, select.231.1.clone.1, /*index=15*/select.224.1.clone.1)
} // fused_add_select.1

fused_add.1 {
  param_0.699 = s64[] parameter(0)
  constant_1231_1 = s64[] constant(1)
  ROOT add.239.1 = s64[] add(param_0.699, constant_1231_1), metadata={op_name="jit(scan)/jit(main)/while/body/add" source_file="/fs04/fc37/adam/projects/psilocybin-prl-analyses/src/prl_hgf/fitting/hierarchical_patrl.py" source_line=378}
}

fused_dynamic_slice {
  param_0.663 = s32[192]{0} parameter(0)
  constant_96_6 = s64[] constant(191)
  param_1.912 = s64[] parameter(1)
  subtract.4.11 = s64[] subtract(constant_96_6, param_1.912), metadata={op_name="jit(scan)/jit(main)/while/body/sub" source_file="/fs04/fc37/adam/projects/psilocybin-prl-analyses/src/prl_hgf/fitting/hierarchical_patrl.py" source_line=378}
  constant_1230_14 = s64[] constant(0)
  compare.14.11 = pred[] compare(subtract.4.11, constant_1230_14), direction=LT, metadata={op_name="jit(scan)/jit(main)/while/body/lt" source_file="/fs04/fc37/adam/projects/psilocybin-prl-analyses/src/prl_hgf/fitting/hierarchical_patrl.py" source_line=378}
  constant_97_6 = s64[] constant(383)
  subtract.5.11 = s64[] subtract(constant_97_6, param_1.912), metadata={op_name="jit(scan)/jit(main)/while/body/add" source_file="/fs04/fc37/adam/projects/psilocybin-prl-analyses/src/prl_hgf/fitting/hierarchical_patrl.py" source_line=378}
  select.223.11 = s64[] select(compare.14.11, subtract.5.11, subtract.4.11), metadata={op_name="jit(scan)/jit(main)/while/body/select_n" source_file="/fs04/fc37/adam/projects/psilocybin-prl-analyses/src/prl_hgf/fitting/hierarchical_patrl.py" source_line=378}
  ROOT dynamic-slice.74.1 = s32[1]{0} dynamic-slice(param_0.663, select.223.11), dynamic_slice_sizes={1}, metadata={op_name="jit(scan)/jit(main)/while/body/dynamic_slice[slice_sizes=(1,)]" source_file="/fs04/fc37/adam/projects/psilocybin-prl-analyses/src/prl_hgf/fitting/hierarchical_patrl.py" source_line=378}
} // fused_dynamic_slice

fused_dynamic_slice.2 {
  param_0.667 = f64[192]{0} parameter(0)
  constant_96_8 = s64[] constant(191)
  param_1.914 = s64[] parameter(1)
  subtract.4.15 = s64[] subtract(constant_96_8, param_1.914), metadata={op_name="jit(scan)/jit(main)/while/body/sub" source_file="/fs04/fc37/adam/projects/psilocybin-prl-analyses/src/prl_hgf/fitting/hierarchical_patrl.py" source_line=378}
  constant_1230_2 = s64[] constant(0)
  compare.14.15 = pred[] compare(subtract.4.15, constant_1230_2), direction=LT, metadata={op_name="jit(scan)/jit(main)/while/body/lt" source_file="/fs04/fc37/adam/projects/psilocybin-prl-analyses/src/prl_hgf/fitting/hierarchical_patrl.py" source_line=378}
  constant_97_8 = s64[] constant(383)
  subtract.5.15 = s64[] subtract(constant_97_8, param_1.914), metadata={op_name="jit(scan)/jit(main)/while/body/add" source_file="/fs04/fc37/adam/projects/psilocybin-prl-analyses/src/prl_hgf/fitting/hierarchical_patrl.py" source_line=378}
  select.223.15 = s64[] select(compare.14.15, subtract.5.15, subtract.4.15), metadata={op_name="jit(scan)/jit(main)/while/body/select_n" source_file="/fs04/fc37/adam/projects/psilocybin-prl-analyses/src/prl_hgf/fitting/hierarchical_patrl.py" source_line=378}
  ROOT dynamic-slice.76.1 = f64[1]{0} dynamic-slice(param_0.667, select.223.15), dynamic_slice_sizes={1}, metadata={op_name="jit(scan)/jit(main)/while/body/dynamic_slice[slice_sizes=(1,)]" source_file="/fs04/fc37/adam/projects/psilocybin-prl-analyses/src/prl_hgf/fitting/hierarchical_patrl.py" source_line=378}
} // fused_dynamic_slice.2

fused_dynamic_slice.6 {
  param_0.676 = pred[192,20]{1,0} parameter(0)
  constant_96_13 = s64[] constant(191)
  param_1.918 = s64[] parameter(1)
  subtract.4.25 = s64[] subtract(constant_96_13, param_1.918), metadata={op_name="jit(scan)/jit(main)/while/body/sub" source_file="/fs04/fc37/adam/projects/psilocybin-prl-analyses/src/prl_hgf/fitting/hierarchical_patrl.py" source_line=378}
  constant_1230_4 = s64[] constant(0)
  compare.14.25 = pred[] compare(subtract.4.25, constant_1230_4), direction=LT, metadata={op_name="jit(scan)/jit(main)/while/body/lt" source_file="/fs04/fc37/adam/projects/psilocybin-prl-analyses/src/prl_hgf/fitting/hierarchical_patrl.py" source_line=378}
  constant_97_13 = s64[] constant(383)
  subtract.5.25 = s64[] subtract(constant_97_13, param_1.918), metadata={op_name="jit(scan)/jit(main)/while/body/add" source_file="/fs04/fc37/adam/projects/psilocybin-prl-analyses/src/prl_hgf/fitting/hierarchical_patrl.py" source_line=378}
  select.223.25 = s64[] select(compare.14.25, subtract.5.25, subtract.4.25), metadata={op_name="jit(scan)/jit(main)/while/body/select_n" source_file="/fs04/fc37/adam/projects/psilocybin-prl-analyses/src/prl_hgf/fitting/hierarchical_patrl.py" source_line=378}
  ROOT dynamic-slice.95.1 = pred[1,20]{1,0} dynamic-slice(param_0.676, select.223.25, constant_1230_4), dynamic_slice_sizes={1,20}, metadata={op_name="jit(scan)/jit(main)/while/body/dynamic_slice[slice_sizes=(1, 20)]" source_file="/fs04/fc37/adam/projects/psilocybin-prl-analyses/src/prl_hgf/fitting/hierarchical_patrl.py" source_line=378}
} // fused_dynamic_slice.6

fused_add {
  param_10.215 = pred[192,20]{1,0} parameter(10)
  constant_96_21 = s64[] constant(191)
  param_23.142 = s64[] parameter(23)
  subtract.4.41 = s64[] subtract(constant_96_21, param_23.142), metadata={op_name="jit(scan)/jit(main)/while/body/sub" source_file="/fs04/fc37/adam/projects/psilocybin-prl-analyses/src/prl_hgf/fitting/hierarchical_patrl.py" source_line=378}
  constant_1230_19 = s64[] constant(0)
  compare.14.41 = pred[] compare(subtract.4.41, constant_1230_19), direction=LT, metadata={op_name="jit(scan)/jit(main)/while/body/lt" source_file="/fs04/fc37/adam/projects/psilocybin-prl-analyses/src/prl_hgf/fitting/hierarchical_patrl.py" source_line=378}
  constant_97_21 = s64[] constant(383)
  subtract.5.41 = s64[] subtract(constant_97_21, param_23.142), metadata={op_name="jit(scan)/jit(main)/while/body/add" source_file="/fs04/fc37/adam/projects/psilocybin-prl-analyses/src/prl_hgf/fitting/hierarchical_patrl.py" source_line=378}
  select.223.41 = s64[] select(compare.14.41, subtract.5.41, subtract.4.41), metadata={op_name="jit(scan)/jit(main)/while/body/select_n" source_file="/fs04/fc37/adam/projects/psilocybin-prl-analyses/src/prl_hgf/fitting/hierarchical_patrl.py" source_line=378}
  dynamic-slice.72.9 = pred[1,20]{1,0} dynamic-slice(param_10.215, select.223.41, constant_1230_19), dynamic_slice_sizes={1,20}, metadata={op_name="jit(scan)/jit(main)/while/body/dynamic_slice[slice_sizes=(1, 20)]" source_file="/fs04/fc37/adam/projects/psilocybin-prl-analyses/src/prl_hgf/fitting/hierarchical_patrl.py" source_line=378}
  bitcast.1874.150 = pred[20]{0} bitcast(dynamic-slice.72.9)
  param_0.401 = f64[20]{0} parameter(0)
  constant_58_10 = f64[] constant(0)
  broadcast.144.clone.57 = f64[20]{0} broadcast(constant_58_10), dimensions={}
  select.233.5 = f64[20]{0} select(bitcast.1874.150, param_0.401, broadcast.144.clone.57), metadata={op_name="jit(scan)/jit(main)/while/body/jit(_where)/select_n" source_file="/fs04/fc37/adam/projects/psilocybin-prl-analyses/src/prl_hgf/env/pat_rl_simulator.py" source_line=92}
  param_22.139 = f64[20]{0} parameter(22)
  select.234.7 = f64[20]{0} select(bitcast.1874.150, param_22.139, broadcast.144.clone.57), metadata={op_name="jit(scan)/jit(main)/while/body/jit(_where)/select_n" source_file="/fs04/fc37/adam/projects/psilocybin-prl-analyses/src/prl_hgf/env/pat_rl_simulator.py" source_line=92}
  param_21.137 = pred[192,20]{1,0} parameter(21)
  dynamic-slice.80.11 = pred[1,20]{1,0} dynamic-slice(param_21.137, select.223.41, constant_1230_19), dynamic_slice_sizes={1,20}, metadata={op_name="jit(scan)/jit(main)/while/body/dynamic_slice[slice_sizes=(1, 20)]" source_file="/fs04/fc37/adam/projects/psilocybin-prl-analyses/src/prl_hgf/fitting/hierarchical_patrl.py" source_line=378}
  bitcast.2020.25 = pred[20]{0} bitcast(dynamic-slice.80.11)
  param_20.122 = f64[192,20]{1,0} parameter(20)
  dynamic-slice.81.5 = f64[1,20]{1,0} dynamic-slice(param_20.122, select.223.41, constant_1230_19), dynamic_slice_sizes={1,20}, metadata={op_name="jit(scan)/jit(main)/while/body/dynamic_slice[slice_sizes=(1, 20)]" source_file="/fs04/fc37/adam/projects/psilocybin-prl-analyses/src/prl_hgf/fitting/hierarchical_patrl.py" source_line=378}
  bitcast.2029.9 = f64[20]{0} bitcast(dynamic-slice.81.5)
  param_19.126 = pred[192,20]{1,0} parameter(19)
  dynamic-slice.82.17 = pred[1,20]{1,0} dynamic-slice(param_19.126, select.223.41, constant_1230_19), dynamic_slice_sizes={1,20}, metadata={op_name="jit(scan)/jit(main)/while/body/dynamic_slice[slice_sizes=(1, 20)]" source_file="/fs04/fc37/adam/projects/psilocybin-prl-analyses/src/prl_hgf/fitting/hierarchical_patrl.py" source_line=378}
  bitcast.2038.17 = pred[20]{0} bitcast(dynamic-slice.82.17)
  param_18.133 = s32[192,20]{1,0} parameter(18)
  dynamic-slice.83.24 = s32[1,20]{1,0} dynamic-slice(param_18.133, select.223.41, constant_1230_19), dynamic_slice_sizes={1,20}, metadata={op_name="jit(scan)/jit(main)/while/body/dynamic_slice[slice_sizes=(1, 20)]" source_file="/fs04/fc37/adam/projects/psilocybin-prl-analyses/src/prl_hgf/fitting/hierarchical_patrl.py" source_line=378}
  constant_68_7 = s32[] constant(1)
  broadcast.145.19 = s32[1,20]{1,0} broadcast(constant_68_7), dimensions={}
  compare.15.19 = pred[1,20]{1,0} compare(dynamic-slice.83.24, broadcast.145.19), direction=EQ, metadata={op_name="jit(scan)/jit(main)/while/body/jit(beliefs_propagation)/jit(continuous_node_posterior_update_ehgf)/jit(posterior_update_precision_continuous_node)/eq" source_file="/fs04/fc37/adam/projects/psilocybin-prl-analyses/src/prl_hgf/fitting/hierarchical_patrl.py" source_line=362}
  bitcast.2050.19 = pred[20]{0} bitcast(compare.15.19)
  param_17.123 = f64[20]{0} parameter(17)
  select.235.31 = f64[20]{0} select(bitcast.1874.150, param_17.123, broadcast.144.clone.57), metadata={op_name="jit(scan)/jit(main)/while/body/jit(_where)/select_n" source_file="/fs04/fc37/adam/projects/psilocybin-prl-analyses/src/prl_hgf/env/pat_rl_simulator.py" source_line=92}
  select.236.19 = f64[20]{0} select(bitcast.2050.19, select.235.31, broadcast.144.clone.57), metadata={op_name="jit(scan)/jit(main)/while/body/jit(beliefs_propagation)/jit(continuous_node_posterior_update_ehgf)/jit(posterior_update_precision_continuous_node)/select_n" source_file="/fs04/fc37/adam/projects/psilocybin-prl-analyses/src/prl_hgf/fitting/hierarchical_patrl.py" source_line=362}
  select.239.17 = f64[20]{0} select(bitcast.2038.17, select.236.19, broadcast.144.clone.57), metadata={op_name="jit(scan)/jit(main)/while/body/jit(beliefs_propagation)/jit(continuous_node_posterior_update_ehgf)/jit(posterior_update_precision_continuous_node)/jit(precision_update)/jit(_where)/select_n" source_file="/fs04/fc37/adam/projects/psilocybin-prl-analyses/src/prl_hgf/env/pat_rl_simulator.py" source_line=92}
  param_16.143 = f64[192,20]{1,0} parameter(16)
  dynamic-slice.84.11 = f64[1,20]{1,0} dynamic-slice(param_16.143, select.223.41, constant_1230_19), dynamic_slice_sizes={1,20}, metadata={op_name="jit(scan)/jit(main)/while/body/dynamic_slice[slice_sizes=(1, 20)]" source_file="/fs04/fc37/adam/projects/psilocybin-prl-analyses/src/prl_hgf/fitting/hierarchical_patrl.py" source_line=378}
  bitcast.2070.11 = f64[20]{0} bitcast(dynamic-slice.84.11)
  multiply.375.11 = f64[20]{0} multiply(select.239.17, bitcast.2070.11), metadata={op_name="jit(scan)/jit(main)/while/body/jit(beliefs_propagation)/jit(continuous_node_posterior_update_ehgf)/jit(posterior_update_precision_continuous_node)/jit(precision_update)/mul" source_file="/fs04/fc37/adam/projects/psilocybin-prl-analyses/src/prl_hgf/fitting/hierarchical_patrl.py" source_line=362}
  negate.87.10 = f64[20]{0} negate(multiply.375.11), metadata={op_name="jit(scan)/jit(main)/while/body/jit(beliefs_propagation)/jit(continuous_node_posterior_update_ehgf)/jit(posterior_update_precision_continuous_node)/jit(precision_update)/neg" source_file="/fs04/fc37/adam/projects/psilocybin-prl-analyses/src/prl_hgf/fitting/hierarchical_patrl.py" source_line=362}
  multiply.376.9 = f64[20]{0} multiply(bitcast.2029.9, negate.87.10), metadata={op_name="jit(scan)/jit(main)/while/body/jit(beliefs_propagation)/jit(continuous_node_posterior_update_ehgf)/jit(posterior_update_precision_continuous_node)/jit(precision_update)/mul" source_file="/fs04/fc37/adam/projects/psilocybin-prl-analyses/src/prl_hgf/fitting/hierarchical_patrl.py" source_line=362}
  param_15.158 = f64[192,20]{1,0} parameter(15)
  dynamic-slice.85.5 = f64[1,20]{1,0} dynamic-slice(param_15.158, select.223.41, constant_1230_19), dynamic_slice_sizes={1,20}, metadata={op_name="jit(scan)/jit(main)/while/body/dynamic_slice[slice_sizes=(1, 20)]" source_file="/fs04/fc37/adam/projects/psilocybin-prl-analyses/src/prl_hgf/fitting/hierarchical_patrl.py" source_line=378}
  bitcast.2082.7 = f64[20]{0} bitcast(dynamic-slice.85.5)
  multiply.377.7 = f64[20]{0} multiply(bitcast.2082.7, multiply.375.11), metadata={op_name="jit(scan)/jit(main)/while/body/jit(beliefs_propagation)/jit(continuous_node_posterior_update_ehgf)/jit(posterior_update_precision_continuous_node)/jit(precision_update)/mul" source_file="/fs04/fc37/adam/projects/psilocybin-prl-analyses/src/prl_hgf/fitting/hierarchical_patrl.py" source_line=362}
  add.241.7 = f64[20]{0} add(multiply.376.9, multiply.377.7), metadata={op_name="jit(scan)/jit(main)/while/body/jit(beliefs_propagation)/jit(continuous_node_posterior_update_ehgf)/jit(posterior_update_precision_continuous_node)/jit(precision_update)/add_any" source_file="/fs04/fc37/adam/projects/psilocybin-prl-analyses/src/prl_hgf/fitting/hierarchical_patrl.py" source_line=362}
  select.240.9 = f64[20]{0} select(bitcast.2020.25, add.241.7, broadcast.144.clone.57), metadata={op_name="jit(scan)/jit(main)/while/body/jit(beliefs_propagation)/jit(continuous_node_posterior_update_ehgf)/jit(posterior_update_precision_continuous_node)/select_n" source_file="/fs04/fc37/adam/projects/psilocybin-prl-analyses/src/prl_hgf/fitting/hierarchical_patrl.py" source_line=362}
  param_14.145 = f64[192,20]{1,0} parameter(14)
  dynamic-slice.86.5 = f64[1,20]{1,0} dynamic-slice(param_14.145, select.223.41, constant_1230_19), dynamic_slice_sizes={1,20}, metadata={op_name="jit(scan)/jit(main)/while/body/dynamic_slice[slice_sizes=(1, 20)]" source_file="/fs04/fc37/adam/projects/psilocybin-prl-analyses/src/prl_hgf/fitting/hierarchical_patrl.py" source_line=378}
  bitcast.2096.7 = f64[20]{0} bitcast(dynamic-slice.86.5)
  param_13.146 = f64[20]{0} parameter(13)
  select.241.21 = f64[20]{0} select(bitcast.1874.150, param_13.146, broadcast.144.clone.57), metadata={op_name="jit(scan)/jit(main)/while/body/jit(_where)/select_n" source_file="/fs04/fc37/adam/projects/psilocybin-prl-analyses/src/prl_hgf/env/pat_rl_simulator.py" source_line=92}
  param_12.160 = f64[192,20]{1,0} parameter(12)
  dynamic-slice.87.17 = f64[1,20]{1,0} dynamic-slice(param_12.160, select.223.41, constant_1230_19), dynamic_slice_sizes={1,20}, metadata={op_name="jit(scan)/jit(main)/while/body/dynamic_slice[slice_sizes=(1, 20)]" source_file="/fs04/fc37/adam/projects/psilocybin-prl-analyses/src/prl_hgf/fitting/hierarchical_patrl.py" source_line=378}
  bitcast.2114.17 = f64[20]{0} bitcast(dynamic-slice.87.17)
  multiply.378.17 = f64[20]{0} multiply(select.241.21, bitcast.2114.17), metadata={op_name="jit(scan)/jit(main)/while/body/jit(beliefs_propagation)/jit(continuous_node_posterior_update_ehgf)/jit(posterior_update_mean_continuous_node)/mul" source_file="/fs04/fc37/adam/projects/psilocybin-prl-analyses/src/prl_hgf/fitting/hierarchical_patrl.py" source_line=362}
  param_11.195 = f64[192,20]{1,0} parameter(11)
  dynamic-slice.88.13 = f64[1,20]{1,0} dynamic-slice(param_11.195, select.223.41, constant_1230_19), dynamic_slice_sizes={1,20}, metadata={op_name="jit(scan)/jit(main)/while/body/dynamic_slice[slice_sizes=(1, 20)]" source_file="/fs04/fc37/adam/projects/psilocybin-prl-analyses/src/prl_hgf/fitting/hierarchical_patrl.py" source_line=378}
  bitcast.2124.13 = f64[20]{0} bitcast(dynamic-slice.88.13)
  multiply.379.13 = f64[20]{0} multiply(multiply.378.17, bitcast.2124.13), metadata={op_name="jit(scan)/jit(main)/while/body/jit(beliefs_propagation)/jit(continuous_node_posterior_update_ehgf)/jit(posterior_update_mean_continuous_node)/mul" source_file="/fs04/fc37/adam/projects/psilocybin-prl-analyses/src/prl_hgf/fitting/hierarchical_patrl.py" source_line=362}
  multiply.380.7 = f64[20]{0} multiply(bitcast.2096.7, multiply.379.13), metadata={op_name="jit(scan)/jit(main)/while/body/jit(beliefs_propagation)/jit(continuous_node_posterior_update_ehgf)/jit(posterior_update_mean_continuous_node)/mul" source_file="/fs04/fc37/adam/projects/psilocybin-prl-analyses/src/prl_hgf/fitting/hierarchical_patrl.py" source_line=362}
  add.242.7 = f64[20]{0} add(select.240.9, multiply.380.7), metadata={op_name="jit(scan)/jit(main)/while/body/jit(beliefs_propagation)/jit(continuous_node_posterior_update_ehgf)/add_any" source_file="/fs04/fc37/adam/projects/psilocybin-prl-analyses/src/prl_hgf/fitting/hierarchical_patrl.py" source_line=362}
  add.243.5 = f64[20]{0} add(select.234.7, add.242.7), metadata={op_name="jit(scan)/jit(main)/while/body/jit(beliefs_propagation)/add_any" source_file="/fs04/fc37/adam/projects/psilocybin-prl-analyses/src/prl_hgf/fitting/hierarchical_patrl.py" source_line=362}
  param_3.551 = f64[192,20]{1,0} parameter(3)
  dynamic-slice.89.1 = f64[1,20]{1,0} dynamic-slice(param_3.551, select.223.41, constant_1230_19), dynamic_slice_sizes={1,20}, metadata={op_name="jit(scan)/jit(main)/while/body/dynamic_slice[slice_sizes=(1, 20)]" source_file="/fs04/fc37/adam/projects/psilocybin-prl-analyses/src/prl_hgf/fitting/hierarchical_patrl.py" source_line=378}
  bitcast.2137.7 = f64[20]{0} bitcast(dynamic-slice.89.1)
…
  call = (s32[], f64[192,20]{1,0}, f64[192]{0}, f64[], f64[192,20]{1,0}, /*index=5*/f64[192,20]{1,0}, f64[192,20]{1,0}, pred[192,20]{1,0}, f64[192,20]{1,0}, f64[192,20]{1,0}, /*index=10*/f64[192,20]{1,0}, f64[192,20]{1,0}, f64[192]{0}, f64[192,20]{1,0}, f64[192,20]{1,0}, /*index=15*/f64[192,20]{1,0}, f64[192,20]{1,0}, f64[192,20]{1,0}, f64[192,20]{1,0}, f64[192,20]{1,0}, /*index=20*/pred[192,20]{1,0}, f64[192,20]{1,0}, f64[192,20]{1,0}, f64[192,20]{1,0}, f64[192,20]{1,0}, /*index=25*/pred[192,20,1]{2,1,0}, f64[192,20]{1,0}, f64[192,20]{1,0}, f64[192,20]{1,0}, f64[192,20]{1,0}, /*index=30*/f64[192,20]{1,0}, f64[192,20]{1,0}, f64[192,20]{1,0}, pred[192,20,1]{2,1,0}, f64[20]{0}, /*index=35*/f64[20]{0}, f64[20]{0}, f64[20]{0}, f64[20]{0}, f64[20]{0}, /*index=40*/f64[20]{0}, f64[20]{0}, f64[20]{0}, f64[20]{0}, f64[20]{0}, /*index=45*/f64[20]{0}, f64[20]{0}, f64[20,1]{1,0}, f64[20]{0}, f64[20]{0}, /*index=50*/f64[20]{0}, f64[20]{0}, (f64[20]{0}, f64[], pred[20]{0}, f64[20]{0}), f64[1,20]{1,0}) call(get-tuple-element.750, get-tuple-element.560, arg_tuple.1135.0, get-tuple-element.568, get-tuple-element.761, /*index=5*/get-tuple-element.739, get-tuple-element.567, get-tuple-element.724, get-tuple-element.766, get-tuple-element.571, /*index=10*/get-tuple-element.796, get-tuple-element.771, get-tuple-element.774, get-tuple-element.597, get-tuple-element.770, /*index=15*/get-tuple-element.790, get-tuple-element.794, get-tuple-element.598, get-tuple-element.775, get-tuple-element.795, /*index=20*/get-tuple-element.793, get-tuple-element.783, get-tuple-element.572), to_apply=command_buffer
  get-tuple-element.864 = s32[] get-tuple-element(call), index=0
  get-tuple-element.865 = f64[192,20]{1,0} get-tuple-element(call), index=1
  get-tuple-element.866 = f64[192]{0} get-tuple-element(call), index=2
  get-tuple-element.867 = f64[] get-tuple-element(call), index=3
  get-tuple-element.868 = f64[192,20]{1,0} get-tuple-element(call), index=4
  get-tuple-element.869 = f64[192,20]{1,0} get-tuple-element(call), index=5
  get-tuple-element.870 = f64[192,20]{1,0} get-tuple-element(call), index=6
  get-tuple-element.871 = pred[192,20]{1,0} get-tuple-element(call), index=7
  get-tuple-element.872 = f64[192,20]{1,0} get-tuple-element(call), index=8
  get-tuple-element.879 = f64[192,20]{1,0} get-tuple-element(call), index=9
  get-tuple-element.880 = f64[192,20]{1,0} get-tuple-element(call), index=10
  get-tuple-element.881 = f64[192,20]{1,0} get-tuple-element(call), index=11
  get-tuple-element.882 = f64[192]{0} get-tuple-element(call), index=12
  get-tuple-element.883 = f64[192,20]{1,0} get-tuple-element(call), index=13
  get-tuple-element.888 = f64[192,20]{1,0} get-tuple-element(call), index=14
  get-tuple-element.889 = f64[192,20]{1,0} get-tuple-element(call), index=15
  get-tuple-element.890 = f64[192,20]{1,0} get-tuple-element(call), index=16
  get-tuple-element.891 = f64[192,20]{1,0} get-tuple-element(call), index=17
  get-tuple-element.892 = f64[192,20]{1,0} get-tuple-element(call), index=18
  get-tuple-element.914 = f64[192,20]{1,0} get-tuple-element(call), index=19
  get-tuple-element.915 = pred[192,20]{1,0} get-tuple-element(call), index=20
  get-tuple-element.916 = f64[192,20]{1,0} get-tuple-element(call), index=21
  get-tuple-element.917 = f64[192,20]{1,0} get-tuple-element(call), index=22
  get-tuple-element.918 = f64[192,20]{1,0} get-tuple-element(call), index=23
  get-tuple-element.919 = f64[192,20]{1,0} get-tuple-element(call), index=24
  get-tuple-element.920 = pred[192,20,1]{2,1,0} get-tuple-element(call), index=25
  get-tuple-element.921 = f64[192,20]{1,0} get-tuple-element(call), index=26
  get-tuple-element.922 = f64[192,20]{1,0} get-tuple-element(call), index=27
  get-tuple-element.923 = f64[192,20]{1,0} get-tuple-element(call), index=28
  get-tuple-element.924 = f64[192,20]{1,0} get-tuple-element(call), index=29
  get-tuple-element.925 = f64[192,20]{1,0} get-tuple-element(call), index=30
  get-tuple-element.926 = f64[192,20]{1,0} get-tuple-element(call), index=31
  get-tuple-element.927 = f64[192,20]{1,0} get-tuple-element(call), index=32
  get-tuple-element.928 = pred[192,20,1]{2,1,0} get-tuple-element(call), index=33
  get-tuple-element.929 = f64[20]{0} get-tuple-element(call), index=34
  get-tuple-element.932 = f64[20]{0} get-tuple-element(call), index=35
  get-tuple-element.933 = f64[20]{0} get-tuple-element(call), index=36
  get-tuple-element.934 = f64[20]{0} get-tuple-element(call), index=37
  get-tuple-element.935 = f64[20]{0} get-tuple-element(call), index=38
  get-tuple-element.936 = f64[20]{0} get-tuple-element(call), index=39
  get-tuple-element.941 = f64[20]{0} get-tuple-element(call), index=40
  get-tuple-element.942 = f64[20]{0} get-tuple-element(call), index=41
  get-tuple-element.943 = f64[20]{0} get-tuple-element(call), index=42
  get-tuple-element.944 = f64[20]{0} get-tuple-element(call), index=43
  get-tuple-element.945 = f64[20]{0} get-tuple-element(call), index=44
  get-tuple-element.949 = f64[20]{0} get-tuple-element(call), index=45
  get-tuple-element.950 = f64[20]{0} get-tuple-element(call), index=46
  get-tuple-element.951 = f64[20,1]{1,0} get-tuple-element(call), index=47
  get-tuple-element.952 = f64[20]{0} get-tuple-element(call), index=48
  get-tuple-element.953 = f64[20]{0} get-tuple-element(call), index=49
  get-tuple-element.954 = f64[20]{0} get-tuple-element(call), index=50
  get-tuple-element.955 = f64[20]{0} get-tuple-element(call), index=51
  get-tuple-element.956 = (f64[20]{0}, f64[], pred[20]{0}, f64[20]{0}) get-tuple-element(call), index=52
  get-tuple-element.957 = f64[1,20]{1,0} get-tuple-element(call), index=53
  bitcast.1960.0 = f64[20]{0} bitcast(get-tuple-element.957)
  tuple.91.0 = (f64[20]{0}, f64[], f64[20]{0}, f64[20]{0}, f64[20]{0}, /*index=5*/f64[20]{0}) tuple(bitcast.1960.0, get-tuple-element.867, get-tuple-element.955, get-tuple-element.954, get-tuple-element.953, /*index=5*/get-tuple-element.952), metadata={op_name="jit(scan)/jit(main)/while/body/jit(beliefs_propagation)/jit(continuous_node_posterior_update)/jit(posterior_update_precision_continuous_node)/cond" source_file="/fs04/fc37/adam/projects/psilocybin-prl-analyses/src/prl_hgf/fitting/hierarchical_patrl.py" source_line=362}
  conditional.3.0 = (f64[20]{0}, f64[20]{0}, f64[20]{0}, f64[20]{0}, f64[20]{0}, /*index=5*/f64[20]{0}, f64[20,1]{1,0}) conditional(get-tuple-element.864, tuple.91.0, get-tuple-element.956), branch_computations={region_1.514.clone, region_2.547.clone}, metadata={op_name="jit(scan)/jit(main)/while/body/jit(beliefs_propagation)/jit(continuous_node_posterior_update)/jit(posterior_update_precision_continuous_node)/cond" source_file="/fs04/fc37/adam/projects/psilocybin-prl-analyses/src/prl_hgf/fitting/hierarchical_patrl.py" source_line=362}
  get-tuple-element.285.0 = f64[20]{0} get-tuple-element(conditional.3.0), index=0, metadata={op_name="jit(scan)/jit(main)/while/body/jit(beliefs_propagation)/jit(continuous_node_posterior_update)/jit(posterior_update_precision_continuous_node)/cond" source_file="/fs04/fc37/adam/projects/psilocybin-prl-analyses/src/prl_hgf/fitting/hierarchical_patrl.py" source_line=362}
  get-tuple-element.301.0 = f64[20]{0} get-tuple-element(conditional.3.0), index=2, metadata={op_name="jit(scan)/jit(main)/while/body/jit(beliefs_propagation)/jit(continuous_node_posterior_update)/jit(posterior_update_precision_continuous_node)/cond" source_file="/fs04/fc37/adam/projects/psilocybin-prl-analyses/src/prl_hgf/fitting/hierarchical_patrl.py" source_line=362}
  get-tuple-element.338.0 = f64[20,1]{1,0} get-tuple-element(conditional.3.0), index=6, metadata={op_name="jit(scan)/jit(main)/while/body/jit(beliefs_propagation)/jit(continuous_node_posterior_update)/jit(posterior_update_precision_continuous_node)/cond" source_file="/fs04/fc37/adam/projects/psilocybin-prl-analyses/src/prl_hgf/fitting/hierarchical_patrl.py" source_line=362}
  get-tuple-element.315.0 = f64[20]{0} get-tuple-element(conditional.3.0), index=4, metadata={op_name="jit(scan)/jit(main)/while/body/jit(beliefs_propagation)/jit(continuous_node_posterior_update)/jit(posterior_update_precision_continuous_node)/cond" source_file="/fs04/fc37/adam/projects/psilocybin-prl-analyses/src/prl_hgf/fitting/hierarchical_patrl.py" source_line=362}
  get-tuple-element.317.0 = f64[20]{0} get-tuple-element(conditional.3.0), index=5, metadata={op_name="jit(scan)/jit(main)/while/body/jit(beliefs_propagation)/jit(continuous_node_posterior_update)/jit(posterior_update_precision_continuous_node)/cond" source_file="/fs04/fc37/adam/projects/psilocybin-prl-analyses/src/prl_hgf/fitting/hierarchical_patrl.py" source_line=362}
  get-tuple-element.264.0 = f64[20]{0} get-tuple-element(conditional.3.0), index=1, metadata={op_name="jit(scan)/jit(main)/while/body/jit(beliefs_propagation)/jit(continuous_node_posterior_update)/jit(posterior_update_precision_continuous_node)/cond" source_file="/fs04/fc37/adam/projects/psilocybin-prl-analyses/src/prl_hgf/fitting/hierarchical_patrl.py" source_line=362}
  get-tuple-element.311.0 = f64[20]{0} get-tuple-element(conditional.3.0), index=3, metadata={op_name="jit(scan)/jit(main)/while/body/jit(beliefs_propagation)/jit(continuous_node_posterior_update)/jit(posterior_update_precision_continuous_node)/cond" source_file="/fs04/fc37/adam/projects/psilocybin-prl-analyses/src/prl_hgf/fitting/hierarchical_patrl.py" source_line=362}
  loop_add_select_fusion = (f64[20]{0}, f64[20]{0}, f64[20]{0}, f64[20]{0}, f64[20]{0}) fusion(get-tuple-element.934, get-tuple-element.796, get-tuple-element.560, get-tuple-element.285.0, get-tuple-element.743, /*index=5*/get-tuple-element.744, get-tuple-element.748, get-tuple-element.749, get-tuple-element.264.0, get-tuple-element.758, /*index=10*/get-tuple-element.761, get-tuple-element.872, get-tuple-element.932, get-tuple-element.929, get-tuple-element.745, /*index=15*/get-tuple-element.746, get-tuple-element.747, get-tuple-element.882, get-tuple-element.881, get-tuple-element.933, /*index=20*/get-tuple-element.561, get-tuple-element.766, get-tuple-element.771, get-tuple-element.774, get-tuple-element.597, /*index=25*/get-tuple-element.770, get-tuple-element.790, get-tuple-element.794, get-tuple-element.598, get-tuple-element.775, /*index=30*/get-tuple-element.795, get-tuple-element.793, get-tuple-element.783, get-tuple-element.572, get-tuple-element.739, /*index=35*/get-tuple-element.571, get-tuple-element.735, get-tuple-element.567, get-tuple-element.724), kind=kLoop, calls=fused_add_select, control-predecessors={call}, metadata={op_name="jit(scan)/jit(main)/while/body/jit(_where)/select_n" source_file="/fs04/fc37/adam/projects/psilocybin-prl-analyses/src/prl_hgf/env/pat_rl_simulator.py" source_line=92}
  get-tuple-element.701 = f64[20]{0} get-tuple-element(loop_add_select_fusion), index=4, metadata={op_name="jit(scan)/jit(main)/while/body/jit(_where)/select_n" source_file="/fs04/fc37/adam/projects/psilocybin-prl-analyses/src/prl_hgf/env/pat_rl_simulator.py" source_line=92}
  get-tuple-element.702 = f64[20]{0} get-tuple-element(loop_add_select_fusion), index=3, metadata={op_name="jit(scan)/jit(main)/while/body/jit(_where)/select_n" source_file="/fs04/fc37/adam/projects/psilocybin-prl-analyses/src/prl_hgf/env/pat_rl_simulator.py" source_line=92}
  get-tuple-element.703 = f64[20]{0} get-tuple-element(loop_add_select_fusion), index=2, metadata={op_name="jit(scan)/jit(main)/while/body/jit(_where)/select_n" source_file="/fs04/fc37/adam/projects/psilocybin-prl-analyses/src/prl_hgf/env/pat_rl_simulator.py" source_line=92}
  get-tuple-element.706 = f64[20]{0} get-tuple-element(loop_add_select_fusion), index=1, metadata={op_name="jit(scan)/jit(main)/while/body/jit(_where)/select_n" source_file="/fs04/fc37/adam/projects/psilocybin-prl-analyses/src/prl_hgf/env/pat_rl_simulator.py" source_line=92}
  get-tuple-element.704 = f64[20]{0} get-tuple-element(loop_add_select_fusion), index=0, metadata={op_name="jit(scan)/jit(main)/while/body/jit(_where)/select_n" source_file="/fs04/fc37/adam/projects/psilocybin-prl-analyses/src/prl_hgf/env/pat_rl_simulator.py" source_line=92}
  loop_add_select_fusion.1 = (f64[20]{0}, f64[20]{0}, f64[20]{0}, f64[20]{0}, f64[20]{0}, /*index=5*/f64[20]{0}, f64[20]{0}, f64[20]{0}, f64[20]{0}, f64[20]{0}, /*index=10*/f64[20,1]{1,0}, f64[20]{0}, f64[20]{0}, f64[20]{0}, f64[20]{0}, /*index=15*/f64[20]{0}) fusion(get-tuple-element.598, get-tuple-element.285.0, get-tuple-element.945, get-tuple-element.725, get-tuple-element.732, /*index=5*/get-tuple-element.916, get-tuple-element.919, get-tuple-element.915, get-tuple-element.775, get-tuple-element.796, /*index=10*/get-tuple-element.733, get-tuple-element.949, get-tuple-element.731, get-tuple-element.914, get-tuple-element.774, /*index=15*/get-tuple-element.597, get-tuple-element.892, get-tuple-element.795, get-tuple-element.783, get-tuple-element.944, /*index=20*/get-tuple-element.560, get-tuple-element.728, get-tuple-element.730, get-tuple-element.729, get-tuple-element.727, /*index=25*/get-tuple-element.918, get-tuple-element.917, get-tuple-element.950, get-tuple-element.943, get-tuple-element.726, /*index=30*/get-tuple-element.317.0, get-tuple-element.737, get-tuple-element.739, get-tuple-element.742, get-tuple-element.891, /*index=35*/get-tuple-element.890, get-tuple-element.923, get-tuple-element.924, get-tuple-element.922, get-tuple-element.925, /*index=40*/get-tuple-element.927, get-tuple-element.941, get-tuple-element.740, get-tuple-element.301.0, get-tuple-element.758, /*index=45*/get-tuple-element.888, get-tuple-element.771, get-tuple-element.770, get-tuple-element.790, get-tuple-element.794, /*index=50*/get-tuple-element.793, get-tuple-element.572, get-tuple-element.935, get-tuple-element.738, get-tuple-element.736, /*index=55*/get-tuple-element.315.0, get-tuple-element.942, get-tuple-element.311.0, get-tuple-element.734, get-tuple-element.936, /*index=60*/get-tuple-element.741, get-tuple-element.568, get-tuple-element.338.0, get-tuple-element.889, get-tuple-element.926, /*index=65*/get-tuple-element.921, get-tuple-element.920, get-tuple-element.951, get-tuple-element.928, get-tuple-element.571, /*index=70*/get-tuple-element.561), kind=kLoop, calls=fused_add_select.1, control-predecessors={loop_add_select_fusion, call}, metadata={op_name="jit(scan)/jit(main)/while/body/add_any" source_file="/fs04/fc37/adam/projects/psilocybin-prl-analyses/src/prl_hgf/fitting/hierarchical_patrl.py" source_line=362}
  loop_add_fusion.1 = s64[] fusion(get-tuple-element.560), kind=kLoop, calls=fused_add.1, control-predecessors={loop_add_select_fusion, loop_add_select_fusion.1, call}, metadata={op_name="jit(scan)/jit(main)/while/body/add" source_file="/fs04/fc37/adam/projects/psilocybin-prl-analyses/src/prl_hgf/fitting/hierarchical_patrl.py" source_line=378}
  get-tuple-element.700 = f64[20]{0} get-tuple-element(loop_add_select_fusion.1), index=15, metadata={op_name="jit(scan)/jit(main)/while/body/add_any" source_file="/fs04/fc37/adam/projects/psilocybin-prl-analyses/src/prl_hgf/fitting/hierarchical_patrl.py" source_line=362}
  get-tuple-element.705 = f64[20]{0} get-tuple-element(loop_add_select_fusion.1), index=14, metadata={op_name="jit(scan)/jit(main)/while/body/add_any" source_file="/fs04/fc37/adam/projects/psilocybin-prl-analyses/src/prl_hgf/fitting/hierarchical_patrl.py" source_line=362}
  get-tuple-element.711 = f64[20]{0} get-tuple-element(loop_add_select_fusion.1), index=13, metadata={op_name="jit(scan)/jit(main)/while/body/add_any" source_file="/fs04/fc37/adam/projects/psilocybin-prl-analyses/src/prl_hgf/fitting/hierarchical_patrl.py" source_line=362}
  get-tuple-element.710 = f64[20]{0} get-tuple-element(loop_add_select_fusion.1), index=12, metadata={op_name="jit(scan)/jit(main)/while/body/add_any" source_file="/fs04/fc37/adam/projects/psilocybin-prl-analyses/src/prl_hgf/fitting/hierarchical_patrl.py" source_line=362}
  get-tuple-element.708 = f64[20]{0} get-tuple-element(loop_add_select_fusion.1), index=11, metadata={op_name="jit(scan)/jit(main)/while/body/add_any" source_file="/fs04/fc37/adam/projects/psilocybin-prl-analyses/src/prl_hgf/fitting/hierarchical_patrl.py" source_line=362}
  get-tuple-element.723 = f64[20,1]{1,0} get-tuple-element(loop_add_select_fusion.1), index=10, metadata={op_name="jit(scan)/jit(main)/while/body/add_any" source_file="/fs04/fc37/adam/projects/psilocybin-prl-analyses/src/prl_hgf/fitting/hierarchical_patrl.py" source_line=362}
  get-tuple-element.709 = f64[20]{0} get-tuple-element(loop_add_select_fusion.1), index=9, metadata={op_name="jit(scan)/jit(main)/while/body/add_any" source_file="/fs04/fc37/adam/projects/psilocybin-prl-analyses/src/prl_hgf/fitting/hierarchical_patrl.py" source_line=362}
  get-tuple-element.707 = f64[20]{0} get-tuple-element(loop_add_select_fusion.1), index=8, metadata={op_name="jit(scan)/jit(main)/while/body/add_any" source_file="/fs04/fc37/adam/projects/psilocybin-prl-analyses/src/prl_hgf/fitting/hierarchical_patrl.py" source_line=362}
  get-tuple-element.712 = f64[20]{0} get-tuple-element(loop_add_select_fusion.1), index=7, metadata={op_name="jit(scan)/jit(main)/while/body/add_any" source_file="/fs04/fc37/adam/projects/psilocybin-prl-analyses/src/prl_hgf/fitting/hierarchical_patrl.py" source_line=362}
  get-tuple-element.713 = f64[20]{0} get-tuple-element(loop_add_select_fusion.1), index=6, metadata={op_name="jit(scan)/jit(main)/while/body/add_any" source_file="/fs04/fc37/adam/projects/psilocybin-prl-analyses/src/prl_hgf/fitting/hierarchical_patrl.py" source_line=362}
  get-tuple-element.715 = f64[20]{0} get-tuple-element(loop_add_select_fusion.1), index=5, metadata={op_name="jit(scan)/jit(main)/while/body/add_any" source_file="/fs04/fc37/adam/projects/psilocybin-prl-analyses/src/prl_hgf/fitting/hierarchical_patrl.py" source_line=362}
  get-tuple-element.714 = f64[20]{0} get-tuple-element(loop_add_select_fusion.1), index=4, metadata={op_name="jit(scan)/jit(main)/while/body/add_any" source_file="/fs04/fc37/adam/projects/psilocybin-prl-analyses/src/prl_hgf/fitting/hierarchical_patrl.py" source_line=362}
  get-tuple-element.717 = f64[20]{0} get-tuple-element(loop_add_select_fusion.1), index=3, metadata={op_name="jit(scan)/jit(main)/while/body/add_any" source_file="/fs04/fc37/adam/projects/psilocybin-prl-analyses/src/prl_hgf/fitting/hierarchical_patrl.py" source_line=362}
  get-tuple-element.718 = f64[20]{0} get-tuple-element(loop_add_select_fusion.1), index=2, metadata={op_name="jit(scan)/jit(main)/while/body/add_any" source_file="/fs04/fc37/adam/projects/psilocybin-prl-analyses/src/prl_hgf/fitting/hierarchical_patrl.py" source_line=362}
  get-tuple-element.719 = f64[20]{0} get-tuple-element(loop_add_select_fusion.1), index=1, metadata={op_name="jit(scan)/jit(main)/while/body/add_any" source_file="/fs04/fc37/adam/projects/psilocybin-prl-analyses/src/prl_hgf/fitting/hierarchical_patrl.py" source_line=362}
  get-tuple-element.716 = f64[20]{0} get-tuple-element(loop_add_select_fusion.1), index=0, metadata={op_name="jit(scan)/jit(main)/while/body/add_any" source_file="/fs04/fc37/adam/projects/psilocybin-prl-analyses/src/prl_hgf/fitting/hierarchical_patrl.py" source_line=362}
  ROOT tuple.150 = (s64[], f64[20]{0}, f64[20]{0}, f64[20]{0}, f64[20]{0}, /*index=5*/f64[20]{0}, f64[20]{0}, f64[20]{0}, f64[20]{0}, f64[20]{0}, /*index=10*/f64[20]{0}, f64[20]{0}, f64[20]{0}, f64[20]{0}, f64[20]{0}, /*index=15*/f64[20]{0}, f64[20]{0}, f64[20]{0}, f64[20]{0}, f64[20]{0}, /*index=20*/f64[20]{0}, f64[20,1]{1,0}, f64[192,20]{1,0}, f64[192,20]{1,0}, f64[192,20]{1,0}, /*index=25*/f64[192]{0}, f64[192,20]{1,0}, pred[192,20]{1,0}, f64[192,20]{1,0}, f64[192,20]{1,0}, /*index=30*/f64[192,20]{1,0}, f64[192,20]{1,0}, f64[192,20]{1,0}, f64[192,20]{1,0}, f64[192,20]{1,0}, /*index=35*/f64[192,20]{1,0}, pred[192,20]{1,0}, f64[192,20]{1,0}, f64[192,20]{1,0}, f64[192,20]{1,0}, /*index=40*/f64[192,20]{1,0}, f64[192,20]{1,0}, f64[192,20]{1,0}, f64[192,20]{1,0}, f64[192]{0}, /*index=45*/f64[192,20]{1,0}, f64[192,20]{1,0}, f64[192,20]{1,0}, s32[192]{0}, f64[192,20]{1,0}, /*index=50*/f64[192]{0}, f64[192,20]{1,0}, f64[192,20]{1,0}, f64[192,20]{1,0}, pred[192,20]{1,0}, /*index=55*/f64[192,20]{1,0}, f64[192,20]{1,0}, f64[192,20]{1,0}, f64[192,20]{1,0}, f64[192,20]{1,0}, /*index=60*/f64[192,20]{1,0}, f64[192]{0}, f64[192,20]{1,0}, f64[192,20]{1,0}, f64[192,20]{1,0}, /*index=65*/f64[192,20]{1,0}, f64[192,20]{1,0}, f64[192,20]{1,0}, f64[192,20]{1,0}, f64[192,20]{1,0}, /*index=70*/f64[192,20]{1,0}, f64[192,20]{1,0}, f64[192,20]{1,0}, s32[192,20]{1,0}, pred[192,20]{1,0}, /*index=75*/f64[192,20]{1,0}, f64[192,20]{1,0}, f64[192,20]{1,0}, f64[192,20]{1,0}, pred[192,20]{1,0}, /*index=80*/pred[192,20,1]{2,1,0}, f64[192,20]{1,0}, f64[192,20]{1,0}, f64[192,20]{1,0}, f64[192,20]{1,0}, /*index=85*/f64[192,20]{1,0}, f64[192,20]{1,0}, f64[192,20]{1,0}, f64[192,20]{1,0}, f64[192,20]{1,0}, /*index=90*/f64[192,20]{1,0}, pred[192,20]{1,0}, pred[192,20]{1,0}, pred[192,20,1]{2,1,0}) tuple(loop_add_fusion.1, get-tuple-element.700, get-tuple-element.701, get-tuple-element.702, get-tuple-element.703, /*index=5*/get-tuple-element.704, get-tuple-element.705, get-tuple-element.706, get-tuple-element.707, get-tuple-element.708, /*index=10*/get-tuple-element.709, get-tuple-element.710, get-tuple-element.711, get-tuple-element.712, get-tuple-element.713, /*index=15*/get-tuple-element.714, get-tuple-element.715, get-tuple-element.716, get-tuple-element.717, get-tuple-element.718, /*index=20*/get-tuple-element.719, get-tuple-element.723, get-tuple-element.724, get-tuple-element.725, get-tuple-element.726, /*index=25*/get-tuple-element.727, get-tuple-element.728, get-tuple-element.729, get-tuple-element.730, get-tuple-element.731, /*index=30*/get-tuple-element.732, get-tuple-element.733, get-tuple-element.734, get-tuple-element.735, get-tuple-element.736, /*index=35*/get-tuple-element.737, get-tuple-element.738, get-tuple-element.739, get-tuple-element.740, get-tuple-element.741, /*index=40*/get-tuple-element.742, get-tuple-element.743, get-tuple-element.744, get-tuple-element.745, get-tuple-element.746, /*index=45*/get-tuple-element.747, get-tuple-element.748, get-tuple-element.749, get-tuple-element.750, get-tuple-element.865, /*index=50*/get-tuple-element.866, get-tuple-element.868, get-tuple-element.869, get-tuple-element.870, get-tuple-element.871, /*index=55*/get-tuple-element.872, get-tuple-element.758, get-tuple-element.879, get-tuple-element.880, get-tuple-element.761, /*index=60*/get-tuple-element.881, get-tuple-element.882, get-tuple-element.883, get-tuple-element.888, get-tuple-element.766, /*index=65*/get-tuple-element.889, get-tuple-element.890, get-tuple-element.891, get-tuple-element.770, get-tuple-element.771, /*index=70*/get-tuple-element.892, get-tuple-element.914, get-tuple-element.774, get-tuple-element.775, get-tuple-element.915, /*index=75*/get-tuple-element.916, get-tuple-element.917, get-tuple-element.918, get-tuple-element.919, get-tuple-element.783, /*index=80*/get-tuple-element.920, get-tuple-element.921, get-tuple-element.922, get-tuple-element.923, get-tuple-element.924, /*index=85*/get-tuple-element.925, get-tuple-element.790, get-tuple-element.926, get-tuple-element.927, get-tuple-element.793, /*index=90*/get-tuple-element.794, get-tuple-element.795, get-tuple-element.796, get-tuple-element.928)
} // region_0.1134

fused_compare {
  param_0.700 = s64[] parameter(0)
  constant_1715_1 = s64[] constant(192)
  ROOT compare.17.1 = pred[] compare(param_0.700, constant_1715_1), direction=LT, metadata={op_name="jit(scan)/jit(main)/while/cond/lt" source_file="/fs04/fc37/adam/projects/psilocybin-prl-analyses/src/prl_hgf/fitting/hierarchical_patrl.py" source_line=378}
}

region_3.1619 {
  arg_tuple.1620.0 = (s64[], f64[20]{0}, f64[20]{0}, f64[20]{0}, f64[20]{0}, /*index=5*/f64[20]{0}, f64[20]{0}, f64[20]{0}, f64[20]{0}, f64[20]{0}, /*index=10*/f64[20]{0}, f64[20]{0}, f64[20]{0}, f64[20]{0}, f64[20]{0}, /*index=15*/f64[20]{0}, f64[20]{0}, f64[20]{0}, f64[20]{0}, f64[20]{0}, /*index=20*/f64[20]{0}, f64[20,1]{1,0}, f64[192,20]{1,0}, f64[192,20]{1,0}, f64[192,20]{1,0}, /*index=25*/f64[192]{0}, f64[192,20]{1,0}, pred[192,20]{1,0}, f64[192,20]{1,0}, f64[192,20]{1,0}, /*index=30*/f64[192,20]{1,0}, f64[192,20]{1,0}, f64[192,20]{1,0}, f64[192,20]{1,0}, f64[192,20]{1,0}, /*index=35*/f64[192,20]{1,0}, pred[192,20]{1,0}, f64[192,20]{1,0}, f64[192,20]{1,0}, f64[192,20]{1,0}, /*index=40*/f64[192,20]{1,0}, f64[192,20]{1,0}, f64[192,20]{1,0}, f64[192,20]{1,0}, f64[192]{0}, /*index=45*/f64[192,20]{1,0}, f64[192,20]{1,0}, f64[192,20]{1,0}, s32[192]{0}, f64[192,20]{1,0}, /*index=50*/f64[192]{0}, f64[192,20]{1,0}, f64[192,20]{1,0}, f64[192,20]{1,0}, pred[192,20]{1,0}, /*index=55*/f64[192,20]{1,0}, f64[192,20]{1,0}, f64[192,20]{1,0}, f64[192,20]{1,0}, f64[192,20]{1,0}, /*index=60*/f64[192,20]{1,0}, f64[192]{0}, f64[192,20]{1,0}, f64[192,20]{1,0}, f64[192,20]{1,0}, /*index=65*/f64[192,20]{1,0}, f64[192,20]{1,0}, f64[192,20]{1,0}, f64[192,20]{1,0}, f64[192,20]{1,0}, /*index=70*/f64[192,20]{1,0}, f64[192,20]{1,0}, f64[192,20]{1,0}, s32[192,20]{1,0}, pred[192,20]{1,0}, /*index=75*/f64[192,20]{1,0}, f64[192,20]{1,0}, f64[192,20]{1,0}, f64[192,20]{1,0}, pred[192,20]{1,0}, /*index=80*/pred[192,20,1]{2,1,0}, f64[192,20]{1,0}, f64[192,20]{1,0}, f64[192,20]{1,0}, f64[192,20]{1,0}, /*index=85*/f64[192,20]{1,0}, f64[192,20]{1,0}, f64[192,20]{1,0}, f64[192,20]{1,0}, f64[192,20]{1,0}, /*index=90*/f64[192,20]{1,0}, pred[192,20]{1,0}, pred[192,20]{1,0}, pred[192,20,1]{2,1,0}) parameter(0)
  get-tuple-element.1621.0 = s64[] get-tuple-element(arg_tuple.1620.0), index=0
  ROOT loop_compare_fusion = pred[] fusion(get-tuple-element.1621.0), kind=kLoop, calls=fused_compare, metadata={op_name="jit(scan)/jit(main)/while/cond/lt" source_file="/fs04/fc37/adam/projects/psilocybin-prl-analyses/src/prl_hgf/fitting/hierarchical_patrl.py" source_line=378}
}

copy_horizontally_fused_computation {
  param_0_0 = f64[20]{0} parameter(0)
  copy.122 = f64[20]{0} copy(param_0_0)
  param_1_0 = f64[20]{0} parameter(1)
  copy.123 = f64[20]{0} copy(param_1_0)
  param_2_0 = f64[20]{0} parameter(2)
  copy.124 = f64[20]{0} copy(param_2_0)
  param_3_0 = f64[20]{0} parameter(3)
  copy.125 = f64[20]{0} copy(param_3_0)
  param_4_0 = f64[20]{0} parameter(4)
  copy.126 = f64[20]{0} copy(param_4_0)
  param_5_0 = f64[20]{0} parameter(5)
  copy.127 = f64[20]{0} copy(param_5_0)
  param_6_0 = f64[20]{0} parameter(6)
  copy.128 = f64[20]{0} copy(param_6_0)
  param_7_0 = f64[20]{0} parameter(7)
  copy.129 = f64[20]{0} copy(param_7_0)
  param_8_0 = f64[20]{0} parameter(8)
  copy.130 = f64[20]{0} copy(param_8_0)
  param_9_0 = f64[20]{0} parameter(9)
  copy.131 = f64[20]{0} copy(param_9_0)
  param_10_0 = f64[20]{0} parameter(10)
  copy.132 = f64[20]{0} copy(param_10_0)
  param_11_0 = f64[20]{0} parameter(11)
  copy.133 = f64[20]{0} copy(param_11_0)
  param_12_0 = f64[20]{0} parameter(12)
  copy.134 = f64[20]{0} copy(param_12_0)
  param_13_0 = f64[20]{0} parameter(13)
  copy.135 = f64[20]{0} copy(param_13_0)
  param_14_0 = f64[20]{0} parameter(14)
  copy.136 = f64[20]{0} copy(param_14_0)
  param_15_0 = f64[20]{0} parameter(15)
  copy.137 = f64[20]{0} copy(param_15_0)
  param_16_0 = f64[20]{0} parameter(16)
  copy.138 = f64[20]{0} copy(param_16_0)
  param_17_0 = f64[20]{0} parameter(17)
  copy.139 = f64[20]{0} copy(param_17_0)
  param_18_0 = f64[20]{0} parameter(18)
  copy.140 = f64[20]{0} copy(param_18_0)
  param_19_0 = f64[20]{0} parameter(19)
  copy.141 = f64[20]{0} copy(param_19_0)
  ROOT tuple.152 = (f64[20]{0}, f64[20]{0}, f64[20]{0}, f64[20]{0}, f64[20]{0}, /*index=5*/f64[20]{0}, f64[20]{0}, f64[20]{0}, f64[20]{0}, f64[20]{0}, /*index=10*/f64[20]{0}, f64[20]{0}, f64[20]{0}, f64[20]{0}, f64[20]{0}, /*index=15*/f64[20]{0}, f64[20]{0}, f64[20]{0}, f64[20]{0}, f64[20]{0}) tuple(copy.122, copy.123, copy.124, copy.125, copy.126, /*index=5*/copy.127, copy.128, copy.129, copy.130, copy.131, /*index=10*/copy.132, copy.133, copy.134, copy.135, copy.136, /*index=15*/copy.137, copy.138, copy.139, copy.140, copy.141)
} // copy_horizontally_fused_computation

wrapped_copy_computation {
  param_0.722 = s64[] parameter(0)
  ROOT copy.142 = s64[] copy(param_0.722)
}

wrapped_copy_computation.1 {
  param_0.723 = f64[20,1]{1,0} parameter(0)
  ROOT copy.143 = f64[20,1]{1,0} copy(param_0.723)
}

ENTRY main.1813 {
  constant_94_0 = s64[] constant(0)
  Arg_92.93.0 = pred[192,20,1]{2,1,0} parameter(92), metadata={op_name="args[138]"}
  Arg_91.92.0 = pred[192,20]{1,0} parameter(91), metadata={op_name="args[137]"}
  Arg_90.91.0 = pred[192,20]{1,0} parameter(90), metadata={op_name="args[136]"}
  Arg_89.90.0 = f64[192,20]{1,0} parameter(89), metadata={op_name="args[135]"}
  Arg_88.89.0 = f64[192,20]{1,0} parameter(88), metadata={op_name="args[134]"}
  Arg_87.88.0 = f64[192,20]{1,0} parameter(87), metadata={op_name="args[133]"}
  Arg_86.87.0 = f64[192,20]{1,0} parameter(86), metadata={op_name="args[132]"}
  Arg_85.86.0 = f64[192,20]{1,0} parameter(85), metadata={op_name="args[131]"}
  Arg_84.85.0 = f64[192,20]{1,0} parameter(84), metadata={op_name="args[130]"}
  Arg_83.84.0 = f64[192,20]{1,0} parameter(83), metadata={op_name="args[129]"}
  Arg_82.83.0 = f64[192,20]{1,0} parameter(82), metadata={op_name="args[128]"}
  Arg_81.82.0 = f64[192,20]{1,0} parameter(81), metadata={op_name="args[127]"}
  Arg_80.81.0 = f64[192,20]{1,0} parameter(80), metadata={op_name="args[126]"}
  Arg_79.80.0 = pred[192,20,1]{2,1,0} parameter(79), metadata={op_name="args[125]"}
  Arg_78.79.0 = pred[192,20]{1,0} parameter(78), metadata={op_name="args[124]"}
  Arg_77.78.0 = f64[192,20]{1,0} parameter(77), metadata={op_name="args[123]"}
  Arg_76.77.0 = f64[192,20]{1,0} parameter(76), metadata={op_name="args[122]"}
  Arg_75.76.0 = f64[192,20]{1,0} parameter(75), metadata={op_name="args[121]"}
  Arg_74.75.0 = f64[192,20]{1,0} parameter(74), metadata={op_name="args[120]"}
  Arg_73.74.0 = pred[192,20]{1,0} parameter(73), metadata={op_name="args[118]"}
  Arg_72.73.0 = s32[192,20]{1,0} parameter(72), metadata={op_name="args[117]"}
  Arg_71.72.0 = f64[192,20]{1,0} parameter(71), metadata={op_name="args[116]"}
  Arg_70.71.0 = f64[192,20]{1,0} parameter(70), metadata={op_name="args[115]"}
  Arg_69.70.0 = f64[192,20]{1,0} parameter(69), metadata={op_name="args[114]"}
  Arg_68.69.0 = f64[192,20]{1,0} parameter(68), metadata={op_name="args[113]"}
  Arg_67.68.0 = f64[192,20]{1,0} parameter(67), metadata={op_name="args[112]"}
  Arg_66.67.0 = f64[192,20]{1,0} parameter(66), metadata={op_name="args[111]"}
  Arg_65.66.0 = f64[192,20]{1,0} parameter(65), metadata={op_name="args[110]"}
  Arg_64.65.0 = f64[192,20]{1,0} parameter(64), metadata={op_name="args[109]"}
  Arg_63.64.0 = f64[192,20]{1,0} parameter(63), metadata={op_name="args[108]"}
  Arg_62.63.0 = f64[192,20]{1,0} parameter(62), metadata={op_name="args[107]"}
  Arg_61.62.0 = f64[192,20]{1,0} parameter(61), metadata={op_name="args[106]"}
  Arg_60.61.0 = f64[192]{0} parameter(60), metadata={op_name="args[105]"}
  Arg_59.60.0 = f64[192,20]{1,0} parameter(59), metadata={op_name="args[104]"}
  Arg_58.59.0 = f64[192,20]{1,0} parameter(58), metadata={op_name="args[103]"}
  Arg_57.58.0 = f64[192,20]{1,0} parameter(57), metadata={op_name="args[102]"}
  Arg_56.57.0 = f64[192,20]{1,0} parameter(56), metadata={op_name="args[101]"}
  Arg_55.56.0 = f64[192,20]{1,0} parameter(55), metadata={op_name="args[100]"}
  Arg_54.55.0 = f64[192,20]{1,0} parameter(54), metadata={op_name="args[99]"}
  Arg_53.54.0 = pred[192,20]{1,0} parameter(53), metadata={op_name="args[98]"}
  Arg_52.53.0 = f64[192,20]{1,0} parameter(52), metadata={op_name="args[97]"}
  Arg_51.52.0 = f64[192,20]{1,0} parameter(51), metadata={op_name="args[96]"}
  Arg_50.51.0 = f64[192,20]{1,0} parameter(50), metadata={op_name="args[95]"}
  Arg_49.50.0 = f64[192]{0} parameter(49), metadata={op_name="args[94]"}
  Arg_48.49.0 = f64[192,20]{1,0} parameter(48), metadata={op_name="args[93]"}
  Arg_47.48.0 = s32[192]{0} parameter(47), metadata={op_name="args[92]"}
  Arg_46.47.0 = f64[192,20]{1,0} parameter(46), metadata={op_name="args[91]"}
  Arg_45.46.0 = f64[192,20]{1,0} parameter(45), metadata={op_name="args[90]"}
  Arg_44.45.0 = f64[192,20]{1,0} parameter(44), metadata={op_name="args[89]"}
  Arg_43.44.0 = f64[192]{0} parameter(43), metadata={op_name="args[88]"}
  Arg_42.43.0 = f64[192,20]{1,0} parameter(42), metadata={op_name="args[87]"}
  Arg_41.42.0 = f64[192,20]{1,0} parameter(41), metadata={op_name="args[86]"}
  Arg_40.41.0 = f64[192,20]{1,0} parameter(40), metadata={op_name="args[85]"}
  Arg_39.40.0 = f64[192,20]{1,0} parameter(39), metadata={op_name="args[84]"}
  Arg_38.39.0 = f64[192,20]{1,0} parameter(38), metadata={op_name="args[83]"}
  Arg_37.38.0 = f64[192,20]{1,0} parameter(37), metadata={op_name="args[82]"}
  Arg_36.37.0 = f64[192,20]{1,0} parameter(36), metadata={op_name="args[81]"}
  Arg_35.36.0 = pred[192,20]{1,0} parameter(35), metadata={op_name="args[80]"}
  Arg_34.35.0 = f64[192,20]{1,0} parameter(34), metadata={op_name="args[79]"}
  Arg_33.34.0 = f64[192,20]{1,0} parameter(33), metadata={op_name="args[78]"}
  Arg_32.33.0 = f64[192,20]{1,0} parameter(32), metadata={op_name="args[77]"}
  Arg_31.32.0 = f64[192,20]{1,0} parameter(31), metadata={op_name="args[76]"}
  Arg_30.31.0 = f64[192,20]{1,0} parameter(30), metadata={op_name="args[75]"}
  Arg_29.30.0 = f64[192,20]{1,0} parameter(29), metadata={op_name="args[74]"}
  Arg_28.29.0 = f64[192,20]{1,0} parameter(28), metadata={op_name="args[73]"}
  Arg_27.28.0 = f64[192,20]{1,0} parameter(27), metadata={op_name="args[72]"}
  Arg_26.27.0 = pred[192,20]{1,0} parameter(26), metadata={op_name="args[71]"}
  Arg_25.26.0 = f64[192,20]{1,0} parameter(25), metadata={op_name="args[70]"}
  Arg_24.25.0 = f64[192]{0} parameter(24), metadata={op_name="args[69]"}
  Arg_23.24.0 = f64[192,20]{1,0} parameter(23), metadata={op_name="args[68]"}
  Arg_22.23.0 = f64[192,20]{1,0} parameter(22), metadata={op_name="args[67]"}
  Arg_21.22.0 = f64[192,20]{1,0} parameter(21), metadata={op_name="args[66]"}
  Arg_20.21.0 = f64[20,1]{1,0} parameter(20), metadata={op_name="args[65]"}
  Arg_19.20.0 = f64[20]{0} parameter(19), metadata={op_name="args[64]"}
  Arg_18.19.0 = f64[20]{0} parameter(18), metadata={op_name="args[63]"}
  Arg_17.18.0 = f64[20]{0} parameter(17), metadata={op_name="args[62]"}
  Arg_16.17.0 = f64[20]{0} parameter(16), metadata={op_name="args[61]"}
  Arg_15.16.0 = f64[20]{0} parameter(15), metadata={op_name="args[60]"}
  Arg_14.15.0 = f64[20]{0} parameter(14), metadata={op_name="args[59]"}
  Arg_13.14.0 = f64[20]{0} parameter(13), metadata={op_name="args[58]"}
  Arg_12.13.0 = f64[20]{0} parameter(12), metadata={op_name="args[57]"}
  Arg_11.12.0 = f64[20]{0} parameter(11), metadata={op_name="args[56]"}
  Arg_10.11.0 = f64[20]{0} parameter(10), metadata={op_name="args[55]"}
  Arg_9.10.0 = f64[20]{0} parameter(9), metadata={op_name="args[54]"}
  Arg_8.9.0 = f64[20]{0} parameter(8), metadata={op_name="args[53]"}
  Arg_7.8.0 = f64[20]{0} parameter(7), metadata={op_name="args[52]"}
  Arg_6.7.0 = f64[20]{0} parameter(6), metadata={op_name="args[51]"}
  Arg_5.6.0 = f64[20]{0} parameter(5), metadata={op_name="args[50]"}
  Arg_4.5.0 = f64[20]{0} parameter(4), metadata={op_name="args[49]"}
  Arg_3.4.0 = f64[20]{0} parameter(3), metadata={op_name="args[48]"}
  Arg_2.3.0 = f64[20]{0} parameter(2), metadata={op_name="args[47]"}
  Arg_1.2.0 = f64[20]{0} parameter(1), metadata={op_name="args[46]"}
  Arg_0.1.0 = f64[20]{0} parameter(0), metadata={op_name="args[45]"}
  wrapped_copy = s64[] fusion(constant_94_0), kind=kLoop, calls=wrapped_copy_computation
  wrapped_copy.1 = f64[20,1]{1,0} fusion(Arg_20.21.0), kind=kLoop, calls=wrapped_copy_computation.1
  copy_fusion = (f64[20]{0}, f64[20]{0}, f64[20]{0}, f64[20]{0}, f64[20]{0}, /*index=5*/f64[20]{0}, f64[20]{0}, f64[20]{0}, f64[20]{0}, f64[20]{0}, /*index=10*/f64[20]{0}, f64[20]{0}, f64[20]{0}, f64[20]{0}, f64[20]{0}, /*index=15*/f64[20]{0}, f64[20]{0}, f64[20]{0}, f64[20]{0}, f64[20]{0}) fusion(Arg_0.1.0, Arg_1.2.0, Arg_2.3.0, Arg_3.4.0, Arg_4.5.0, /*index=5*/Arg_5.6.0, Arg_6.7.0, Arg_7.8.0, Arg_8.9.0, Arg_9.10.0, /*index=10*/Arg_10.11.0, Arg_11.12.0, Arg_12.13.0, Arg_13.14.0, Arg_14.15.0, /*index=15*/Arg_15.16.0, Arg_16.17.0, Arg_17.18.0, Arg_18.19.0, Arg_19.20.0), kind=kLoop, calls=copy_horizontally_fused_computation
  get-tuple-element.817 = f64[20]{0} get-tuple-element(copy_fusion), index=19
  get-tuple-element.816 = f64[20]{0} get-tuple-element(copy_fusion), index=18
  get-tuple-element.815 = f64[20]{0} get-tuple-element(copy_fusion), index=17
  get-tuple-element.814 = f64[20]{0} get-tuple-element(copy_fusion), index=16
  get-tuple-element.813 = f64[20]{0} get-tuple-element(copy_fusion), index=15
  get-tuple-element.812 = f64[20]{0} get-tuple-element(copy_fusion), index=14
  get-tuple-element.811 = f64[20]{0} get-tuple-element(copy_fusion), index=13
  get-tuple-element.810 = f64[20]{0} get-tuple-element(copy_fusion), index=12
  get-tuple-element.809 = f64[20]{0} get-tuple-element(copy_fusion), index=11
  get-tuple-element.808 = f64[20]{0} get-tuple-element(copy_fusion), index=10
  get-tuple-element.807 = f64[20]{0} get-tuple-element(copy_fusion), index=9
  get-tuple-element.806 = f64[20]{0} get-tuple-element(copy_fusion), index=8
  get-tuple-element.805 = f64[20]{0} get-tuple-element(copy_fusion), index=7
  get-tuple-element.804 = f64[20]{0} get-tuple-element(copy_fusion), index=6
  get-tuple-element.803 = f64[20]{0} get-tuple-element(copy_fusion), index=5
  get-tuple-element.802 = f64[20]{0} get-tuple-element(copy_fusion), index=4
  get-tuple-element.801 = f64[20]{0} get-tuple-element(copy_fusion), index=3
  get-tuple-element.800 = f64[20]{0} get-tuple-element(copy_fusion), index=2
  get-tuple-element.799 = f64[20]{0} get-tuple-element(copy_fusion), index=1
  get-tuple-element.798 = f64[20]{0} get-tuple-element(copy_fusion), index=0
  tuple.148 = (s64[], f64[20]{0}, f64[20]{0}, f64[20]{0}, f64[20]{0}, /*index=5*/f64[20]{0}, f64[20]{0}, f64[20]{0}, f64[20]{0}, f64[20]{0}, /*index=10*/f64[20]{0}, f64[20]{0}, f64[20]{0}, f64[20]{0}, f64[20]{0}, /*index=15*/f64[20]{0}, f64[20]{0}, f64[20]{0}, f64[20]{0}, f64[20]{0}, /*index=20*/f64[20]{0}, f64[20,1]{1,0}, f64[192,20]{1,0}, f64[192,20]{1,0}, f64[192,20]{1,0}, /*index=25*/f64[192]{0}, f64[192,20]{1,0}, pred[192,20]{1,0}, f64[192,20]{1,0}, f64[192,20]{1,0}, /*index=30*/f64[192,20]{1,0}, f64[192,20]{1,0}, f64[192,20]{1,0}, f64[192,20]{1,0}, f64[192,20]{1,0}, /*index=35*/f64[192,20]{1,0}, pred[192,20]{1,0}, f64[192,20]{1,0}, f64[192,20]{1,0}, f64[192,20]{1,0}, /*index=40*/f64[192,20]{1,0}, f64[192,20]{1,0}, f64[192,20]{1,0}, f64[192,20]{1,0}, f64[192]{0}, /*index=45*/f64[192,20]{1,0}, f64[192,20]{1,0}, f64[192,20]{1,0}, s32[192]{0}, f64[192,20]{1,0}, /*index=50*/f64[192]{0}, f64[192,20]{1,0}, f64[192,20]{1,0}, f64[192,20]{1,0}, pred[192,20]{1,0}, /*index=55*/f64[192,20]{1,0}, f64[192,20]{1,0}, f64[192,20]{1,0}, f64[192,20]{1,0}, f64[192,20]{1,0}, /*index=60*/f64[192,20]{1,0}, f64[192]{0}, f64[192,20]{1,0}, f64[192,20]{1,0}, f64[192,20]{1,0}, /*index=65*/f64[192,20]{1,0}, f64[192,20]{1,0}, f64[192,20]{1,0}, f64[192,20]{1,0}, f64[192,20]{1,0}, /*index=70*/f64[192,20]{1,0}, f64[192,20]{1,0}, f64[192,20]{1,0}, s32[192,20]{1,0}, pred[192,20]{1,0}, /*index=75*/f64[192,20]{1,0}, f64[192,20]{1,0}, f64[192,20]{1,0}, f64[192,20]{1,0}, pred[192,20]{1,0}, /*index=80*/pred[192,20,1]{2,1,0}, f64[192,20]{1,0}, f64[192,20]{1,0}, f64[192,20]{1,0}, f64[192,20]{1,0}, /*index=85*/f64[192,20]{1,0}, f64[192,20]{1,0}, f64[192,20]{1,0}, f64[192,20]{1,0}, f64[192,20]{1,0}, /*index=90*/f64[192,20]{1,0}, pred[192,20]{1,0}, pred[192,20]{1,0}, pred[192,20,1]{2,1,0}) tuple(wrapped_copy, get-tuple-element.798, get-tuple-element.799, get-tuple-element.800, get-tuple-element.801, /*index=5*/get-tuple-element.802, get-tuple-element.803, get-tuple-element.804, get-tuple-element.805, get-tuple-element.806, /*index=10*/get-tuple-element.807, get-tuple-element.808, get-tuple-element.809, get-tuple-element.810, get-tuple-element.811, /*index=15*/get-tuple-element.812, get-tuple-element.813, get-tuple-element.814, get-tuple-element.815, get-tuple-element.816, /*index=20*/get-tuple-element.817, wrapped_copy.1, Arg_21.22.0, Arg_22.23.0, Arg_23.24.0, /*index=25*/Arg_24.25.0, Arg_25.26.0, Arg_26.27.0, Arg_27.28.0, Arg_28.29.0, /*index=30*/Arg_29.30.0, Arg_30.31.0, Arg_31.32.0, Arg_32.33.0, Arg_33.34.0, /*index=35*/Arg_34.35.0, Arg_35.36.0, Arg_36.37.0, Arg_37.38.0, Arg_38.39.0, /*index=40*/Arg_39.40.0, Arg_40.41.0, Arg_41.42.0, Arg_42.43.0, Arg_43.44.0, /*index=45*/Arg_44.45.0, Arg_45.46.0, Arg_46.47.0, Arg_47.48.0, Arg_48.49.0, /*index=50*/Arg_49.50.0, Arg_50.51.0, Arg_51.52.0, Arg_52.53.0, Arg_53.54.0, /*index=55*/Arg_54.55.0, Arg_55.56.0, Arg_56.57.0, Arg_57.58.0, Arg_58.59.0, /*index=60*/Arg_59.60.0, Arg_60.61.0, Arg_61.62.0, Arg_62.63.0, Arg_63.64.0, /*index=65*/Arg_64.65.0, Arg_65.66.0, Arg_66.67.0, Arg_67.68.0, Arg_68.69.0, /*index=70*/Arg_69.70.0, Arg_70.71.0, Arg_71.72.0, Arg_72.73.0, Arg_73.74.0, /*index=75*/Arg_74.75.0, Arg_75.76.0, Arg_76.77.0, Arg_77.78.0, Arg_78.79.0, /*index=80*/Arg_79.80.0, Arg_80.81.0, Arg_81.82.0, Arg_82.83.0, Arg_83.84.0, /*index=85*/Arg_84.85.0, Arg_85.86.0, Arg_86.87.0, Arg_87.88.0, Arg_88.89.0, /*index=90*/Arg_89.90.0, Arg_90.91.0, Arg_91.92.0, Arg_92.93.0)
  while.1717.0 = (s64[], f64[20]{0}, f64[20]{0}, f64[20]{0}, f64[20]{0}, /*index=5*/f64[20]{0}, f64[20]{0}, f64[20]{0}, f64[20]{0}, f64[20]{0}, /*index=10*/f64[20]{0}, f64[20]{0}, f64[20]{0}, f64[20]{0}, f64[20]{0}, /*index=15*/f64[20]{0}, f64[20]{0}, f64[20]{0}, f64[20]{0}, f64[20]{0}, /*index=20*/f64[20]{0}, f64[20,1]{1,0}, f64[192,20]{1,0}, f64[192,20]{1,0}, f64[192,20]{1,0}, /*index=25*/f64[192]{0}, f64[192,20]{1,0}, pred[192,20]{1,0}, f64[192,20]{1,0}, f64[192,20]{1,0}, /*index=30*/f64[192,20]{1,0}, f64[192,20]{1,0}, f64[192,20]{1,0}, f64[192,20]{1,0}, f64[192,20]{1,0}, /*index=35*/f64[192,20]{1,0}, pred[192,20]{1,0}, f64[192,20]{1,0}, f64[192,20]{1,0}, f64[192,20]{1,0}, /*index=40*/f64[192,20]{1,0}, f64[192,20]{1,0}, f64[192,20]{1,0}, f64[192,20]{1,0}, f64[192]{0}, /*index=45*/f64[192,20]{1,0}, f64[192,20]{1,0}, f64[192,20]{1,0}, s32[192]{0}, f64[192,20]{1,0}, /*index=50*/f64[192]{0}, f64[192,20]{1,0}, f64[192,20]{1,0}, f64[192,20]{1,0}, pred[192,20]{1,0}, /*index=55*/f64[192,20]{1,0}, f64[192,20]{1,0}, f64[192,20]{1,0}, f64[192,20]{1,0}, f64[192,20]{1,0}, /*index=60*/f64[192,20]{1,0}, f64[192]{0}, f64[192,20]{1,0}, f64[192,20]{1,0}, f64[192,20]{1,0}, /*index=65*/f64[192,20]{1,0}, f64[192,20]{1,0}, f64[192,20]{1,0}, f64[192,20]{1,0}, f64[192,20]{1,0}, /*index=70*/f64[192,20]{1,0}, f64[192,20]{1,0}, f64[192,20]{1,0}, s32[192,20]{1,0}, pred[192,20]{1,0}, /*index=75*/f64[192,20]{1,0}, f64[192,20]{1,0}, f64[192,20]{1,0}, f64[192,20]{1,0}, pred[192,20]{1,0}, /*index=80*/pred[192,20,1]{2,1,0}, f64[192,20]{1,0}, f64[192,20]{1,0}, f64[192,20]{1,0}, f64[192,20]{1,0}, /*index=85*/f64[192,20]{1,0}, f64[192,20]{1,0}, f64[192,20]{1,0}, f64[192,20]{1,0}, f64[192,20]{1,0}, /*index=90*/f64[192,20]{1,0}, pred[192,20]{1,0}, pred[192,20]{1,0}, pred[192,20,1]{2,1,0}) while(tuple.148), condition=region_3.1619, body=region_0.1134, metadata={op_name="jit(scan)/jit(main)/while[cond_nconsts=0 body_nconsts=72]" source_file="/fs04/fc37/adam/projects/psilocybin-prl-analyses/src/prl_hgf/fitting/hierarchical_patrl.py" source_line=378}, backend_config={"known_trip_count":{"n":"192"}}
  get-tuple-element.1719.0 = f64[20]{0} get-tuple-element(while.1717.0), index=1, metadata={op_name="jit(scan)/jit(main)/while[cond_nconsts=0 body_nconsts=72]" source_file="/fs04/fc37/adam/projects/psilocybin-prl-analyses/src/prl_hgf/fitting/hierarchical_patrl.py" source_line=378}
  get-tuple-element.1720.0 = f64[20]{0} get-tuple-element(while.1717.0), index=2, metadata={op_name="jit(scan)/jit(main)/while[cond_nconsts=0 body_nconsts=72]" source_file="/fs04/fc37/adam/projects/psilocybin-prl-analyses/src/prl_hgf/fitting/hierarchical_patrl.py" source_line=378}
  get-tuple-element.1721.0 = f64[20]{0} get-tuple-element(while.1717.0), index=3, metadata={op_name="jit(scan)/jit(main)/while[cond_nconsts=0 body_nconsts=72]" source_file="/fs04/fc37/adam/projects/psilocybin-prl-analyses/src/prl_hgf/fitting/hierarchical_patrl.py" source_line=378}
  get-tuple-element.1722.0 = f64[20]{0} get-tuple-element(while.1717.0), index=4, metadata={op_name="jit(scan)/jit(main)/while[cond_nconsts=0 body_nconsts=72]" source_file="/fs04/fc37/adam/projects/psilocybin-prl-analyses/src/prl_hgf/fitting/hierarchical_patrl.py" source_line=378}
  get-tuple-element.1723.0 = f64[20]{0} get-tuple-element(while.1717.0), index=5, metadata={op_name="jit(scan)/jit(main)/while[cond_nconsts=0 body_nconsts=72]" source_file="/fs04/fc37/adam/projects/psilocybin-prl-analyses/src/prl_hgf/fitting/hierarchical_patrl.py" source_line=378}
  get-tuple-element.1724.0 = f64[20]{0} get-tuple-element(while.1717.0), index=6, metadata={op_name="jit(scan)/jit(main)/while[cond_nconsts=0 body_nconsts=72]" source_file="/fs04/fc37/adam/projects/psilocybin-prl-analyses/src/prl_hgf/fitting/hierarchical_patrl.py" source_line=378}
  get-tuple-element.1725.0 = f64[20]{0} get-tuple-element(while.1717.0), index=7, metadata={op_name="jit(scan)/jit(main)/while[cond_nconsts=0 body_nconsts=72]" source_file="/fs04/fc37/adam/projects/psilocybin-prl-analyses/src/prl_hgf/fitting/hierarchical_patrl.py" source_line=378}
  get-tuple-element.1726.0 = f64[20]{0} get-tuple-element(while.1717.0), index=8, metadata={op_name="jit(scan)/jit(main)/while[cond_nconsts=0 body_nconsts=72]" source_file="/fs04/fc37/adam/projects/psilocybin-prl-analyses/src/prl_hgf/fitting/hierarchical_patrl.py" source_line=378}
  get-tuple-element.1727.0 = f64[20]{0} get-tuple-element(while.1717.0), index=9, metadata={op_name="jit(scan)/jit(main)/while[cond_nconsts=0 body_nconsts=72]" source_file="/fs04/fc37/adam/projects/psilocybin-prl-analyses/src/prl_hgf/fitting/hierarchical_patrl.py" source_line=378}
  get-tuple-element.1728.0 = f64[20]{0} get-tuple-element(while.1717.0), index=10, metadata={op_name="jit(scan)/jit(main)/while[cond_nconsts=0 body_nconsts=72]" source_file="/fs04/fc37/adam/projects/psilocybin-prl-analyses/src/prl_hgf/fitting/hierarchical_patrl.py" source_line=378}
  get-tuple-element.1729.0 = f64[20]{0} get-tuple-element(while.1717.0), index=11, metadata={op_name="jit(scan)/jit(main)/while[cond_nconsts=0 body_nconsts=72]" source_file="/fs04/fc37/adam/projects/psilocybin-prl-analyses/src/prl_hgf/fitting/hierarchical_patrl.py" source_line=378}
  get-tuple-element.1730.0 = f64[20]{0} get-tuple-element(while.1717.0), index=12, metadata={op_name="jit(scan)/jit(main)/while[cond_nconsts=0 body_nconsts=72]" source_file="/fs04/fc37/adam/projects/psilocybin-prl-analyses/src/prl_hgf/fitting/hierarchical_patrl.py" source_line=378}
  get-tuple-element.1731.0 = f64[20]{0} get-tuple-element(while.1717.0), index=13, metadata={op_name="jit(scan)/jit(main)/while[cond_nconsts=0 body_nconsts=72]" source_file="/fs04/fc37/adam/projects/psilocybin-prl-analyses/src/prl_hgf/fitting/hierarchical_patrl.py" source_line=378}
  get-tuple-element.1732.0 = f64[20]{0} get-tuple-element(while.1717.0), index=14, metadata={op_name="jit(scan)/jit(main)/while[cond_nconsts=0 body_nconsts=72]" source_file="/fs04/fc37/adam/projects/psilocybin-prl-analyses/src/prl_hgf/fitting/hierarchical_patrl.py" source_line=378}
  get-tuple-element.1733.0 = f64[20]{0} get-tuple-element(while.1717.0), index=15, metadata={op_name="jit(scan)/jit(main)/while[cond_nconsts=0 body_nconsts=72]" source_file="/fs04/fc37/adam/projects/psilocybin-prl-analyses/src/prl_hgf/fitting/hierarchical_patrl.py" source_line=378}
  get-tuple-element.1734.0 = f64[20]{0} get-tuple-element(while.1717.0), index=16, metadata={op_name="jit(scan)/jit(main)/while[cond_nconsts=0 body_nconsts=72]" source_file="/fs04/fc37/adam/projects/psilocybin-prl-analyses/src/prl_hgf/fitting/hierarchical_patrl.py" source_line=378}
  get-tuple-element.1735.0 = f64[20]{0} get-tuple-element(while.1717.0), index=17, metadata={op_name="jit(scan)/jit(main)/while[cond_nconsts=0 body_nconsts=72]" source_file="/fs04/fc37/adam/projects/psilocybin-prl-analyses/src/prl_hgf/fitting/hierarchical_patrl.py" source_line=378}
  get-tuple-element.1736.0 = f64[20]{0} get-tuple-element(while.1717.0), index=18, metadata={op_name="jit(scan)/jit(main)/while[cond_nconsts=0 body_nconsts=72]" source_file="/fs04/fc37/adam/projects/psilocybin-prl-analyses/src/prl_hgf/fitting/hierarchical_patrl.py" source_line=378}
  get-tuple-element.1737.0 = f64[20]{0} get-tuple-element(while.1717.0), index=19, metadata={op_name="jit(scan)/jit(main)/while[cond_nconsts=0 body_nconsts=72]" source_file="/fs04/fc37/adam/projects/psilocybin-prl-analyses/src/prl_hgf/fitting/hierarchical_patrl.py" source_line=378}
  get-tuple-element.1738.0 = f64[20]{0} get-tuple-element(while.1717.0), index=20, metadata={op_name="jit(scan)/jit(main)/while[cond_nconsts=0 body_nconsts=72]" source_file="/fs04/fc37/adam/projects/psilocybin-prl-analyses/src/prl_hgf/fitting/hierarchical_patrl.py" source_line=378}
  get-tuple-element.1739.0 = f64[20,1]{1,0} get-tuple-element(while.1717.0), index=21, metadata={op_name="jit(scan)/jit(main)/while[cond_nconsts=0 body_nconsts=72]" source_file="/fs04/fc37/adam/projects/psilocybin-prl-analyses/src/prl_hgf/fitting/hierarchical_patrl.py" source_line=378}
  ROOT tuple.1812.0 = (f64[20]{0}, f64[20]{0}, f64[20]{0}, f64[20]{0}, f64[20]{0}, /*index=5*/f64[20]{0}, f64[20]{0}, f64[20]{0}, f64[20]{0}, f64[20]{0}, /*index=10*/f64[20]{0}, f64[20]{0}, f64[20]{0}, f64[20]{0}, f64[20]{0}, /*index=15*/f64[20]{0}, f64[20]{0}, f64[20]{0}, f64[20]{0}, f64[20]{0}, /*index=20*/f64[20,1]{1,0}) tuple(get-tuple-element.1719.0, get-tuple-element.1720.0, get-tuple-element.1721.0, get-tuple-element.1722.0, get-tuple-element.1723.0, /*index=5*/get-tuple-element.1724.0, get-tuple-element.1725.0, get-tuple-element.1726.0, get-tuple-element.1727.0, get-tuple-element.1728.0, /*index=10*/get-tuple-element.1729.0, get-tuple-element.1730.0, get-tuple-element.1731.0, get-tuple-element.1732.0, get-tuple-element.1733.0, /*index=15*/get-tuple-element.1734.0, get-tuple-element.1735.0, get-tuple-element.1736.0, get-tuple-element.1737.0, get-tuple-element.1738.0, /*index=20*/get-tuple-element.1739.0)
} // main.1813

