HloModule jit_scan, entry_computation_layout={(f64[20]{0}, f64[20]{0}, f64[20]{0}, f64[20]{0}, f64[20]{0}, /*index=5*/f64[20]{0}, f64[20]{0}, s32[20]{0}, f64[20]{0}, f64[20]{0}, /*index=10*/f64[20,1]{1,0}, f64[20]{0}, f64[20]{0}, f64[20]{0}, f64[20]{0}, /*index=15*/s64[20]{0}, f64[20]{0}, f64[20]{0}, f64[20]{0}, f64[20]{0}, /*index=20*/f64[20]{0}, f64[20]{0}, f64[20]{0}, f64[20,1]{1,0}, f64[20,1]{1,0}, /*index=25*/f64[20]{0}, f64[20]{0}, f64[20]{0}, f64[20]{0}, s64[20]{0}, /*index=30*/f64[20]{0}, f64[20]{0}, f64[20]{0}, f64[20]{0}, f64[20]{0}, /*index=35*/f64[20]{0}, f64[20]{0}, f64[20,1]{1,0}, f64[192,20,1]{2,1,0}, s32[192]{0}, /*index=40*/f64[192]{0})->(f64[20]{0}, f64[20]{0}, f64[20]{0}, f64[20]{0}, s32[20]{0}, /*index=5*/f64[20]{0}, f64[20]{0}, f64[20,1]{1,0}, f64[20]{0}, f64[20]{0}, /*index=10*/f64[20]{0}, f64[20]{0}, s64[20]{0}, f64[20]{0}, f64[20]{0}, /*index=15*/f64[20]{0}, f64[20]{0}, f64[20]{0}, f64[20]{0}, f64[20]{0}, /*index=20*/f64[20,1]{1,0}, f64[20,1]{1,0}, f64[20]{0}, f64[20]{0}, f64[20]{0}, /*index=25*/f64[20]{0}, s64[20]{0}, f64[20]{0}, f64[20]{0}, f64[20]{0}, /*index=30*/f64[20]{0}, f64[20]{0}, f64[20]{0}, f64[20]{0}, f64[20,1]{1,0}, /*index=35*/f64[192,20]{1,0}, f64[192,20]{1,0}, f64[192,20]{1,0}, f64[192,20]{1,0}, pred[192,20]{1,0}, /*index=40*/f64[192,20]{1,0}, f64[192,20]{1,0}, f64[192,20]{1,0}, f64[192,20]{1,0}, f64[192,20]{1,0}, /*index=45*/f64[192,20]{1,0}, f64[192,20]{1,0}, f64[192,20]{1,0}, pred[192,20]{1,0}, f64[192,20]{1,0}, /*index=50*/f64[192,20]{1,0}, f64[192,20]{1,0}, f64[192,20]{1,0}, f64[192,20]{1,0}, f64[192,20]{1,0}, /*index=55*/f64[192,20]{1,0}, f64[192]{0}, f64[192,20]{1,0}, f64[192,20]{1,0}, f64[192,20]{1,0}, /*index=60*/s32[192]{0}, f64[192,20]{1,0}, f64[192]{0}, f64[192,20]{1,0}, f64[192,20]{1,0}, /*index=65*/f64[192,20]{1,0}, pred[192,20]{1,0}, f64[192,20]{1,0}, f64[192,20]{1,0}, f64[192,20]{1,0}, /*index=70*/f64[192,20]{1,0}, f64[192,20]{1,0}, f64[192,20]{1,0}, f64[192]{0}, f64[192,20]{1,0}, /*index=75*/f64[192,20]{1,0}, f64[192,20]{1,0}, f64[192,20]{1,0}, f64[192,20]{1,0}, f64[192,20]{1,0}, /*index=80*/f64[192,20]{1,0}, f64[192,20]{1,0}, f64[192,20]{1,0}, f64[192,20]{1,0}, f64[192,20]{1,0}, /*index=85*/s32[192,20]{1,0}, pred[192,20]{1,0}, pred[192,20,1]{2,1,0}, f64[192,20]{1,0}, f64[192,20]{1,0}, /*index=90*/f64[192,20]{1,0}, f64[192,20]{1,0}, pred[192,20]{1,0}, pred[192,20,1]{2,1,0}, f64[192,20]{1,0}, /*index=95*/f64[192,20]{1,0}, f64[192,20]{1,0}, f64[192,20]{1,0}, f64[192,20]{1,0}, f64[192,20]{1,0}, /*index=100*/f64[192,20]{1,0}, f64[192,20]{1,0}, f64[192,20]{1,0}, f64[192,20]{1,0}, pred[192,20]{1,0}, /*index=105*/pred[192,20]{1,0}, pred[192,20,1]{2,1,0})}, allow_spmd_sharding_propagation_to_parameters={true,true,true,true,true,true,true,true,true,true,true,true,true,true,true,true,true,true,true,true,true,true,true,true,true,true,true,true,true,true,true,true,true,true,true,true,true,true,true,true,true}, allow_spmd_sharding_propagation_to_output={true,true,true,true,true,true,true,true,true,true,true,true,true,true,true,true,true,true,true,true,true,true,true,true,true,true,true,true,true,true,true,true,true,true,true,true,true,true,true,true,true,true,true,true,true,true,true,true,true,true,true,true,true,true,true,true,true,true,true,true,true,true,true,true,true,true,true,true,true,true,true,true,true,true,true,true,true,true,true,true,true,true,true,true,true,true,true,true,true,true,true,true,true,true,true,true,true,true,true,true,true,true,true,true,true,true,true}

predict_mean.56 {
  Arg_1.58 = f64[20]{0} parameter(1), metadata={op_name="jit(scan)/jit(main)/while/body/jit(beliefs_propagation)/jit(continuous_node_prediction)/pjit[in_shardings=(UnspecifiedValue, UnspecifiedValue, UnspecifiedValue, UnspecifiedValue) out_shardings=(UnspecifiedValue,) in_layouts=(None, None, None, None) out_layouts=(None,) resource_env=None donated_invars=(False, False, False, False) name=predict_mean keep_unused=False inline=False]"}
  Arg_2.59 = f64[20]{0} parameter(2), metadata={op_name="jit(scan)/jit(main)/while/body/jit(beliefs_propagation)/jit(continuous_node_prediction)/pjit[in_shardings=(UnspecifiedValue, UnspecifiedValue, UnspecifiedValue, UnspecifiedValue) out_shardings=(UnspecifiedValue,) in_layouts=(None, None, None, None) out_layouts=(None,) resource_env=None donated_invars=(False, False, False, False) name=predict_mean keep_unused=False inline=False]"}
  multiply.61 = f64[20]{0} multiply(Arg_1.58, Arg_2.59), metadata={op_name="jit(scan)/jit(main)/while/body/jit(beliefs_propagation)/jit(continuous_node_prediction)/jit(predict_mean)/mul" source_file="/fs04/fc37/adam/projects/psilocybin-prl-analyses/src/prl_hgf/fitting/hierarchical_patrl.py" source_line=362}
  Arg_0.57 = f64[] parameter(0), metadata={op_name="jit(scan)/jit(main)/while/body/jit(beliefs_propagation)/jit(continuous_node_prediction)/pjit[in_shardings=(UnspecifiedValue, UnspecifiedValue, UnspecifiedValue, UnspecifiedValue) out_shardings=(UnspecifiedValue,) in_layouts=(None, None, None, None) out_layouts=(None,) resource_env=None donated_invars=(False, False, False, False) name=predict_mean keep_unused=False inline=False]"}
  broadcast.62 = f64[20]{0} broadcast(Arg_0.57), dimensions={}, metadata={op_name="jit(scan)/jit(main)/while/body/jit(beliefs_propagation)/jit(continuous_node_prediction)/jit(predict_mean)/mul" source_file="/fs04/fc37/adam/projects/psilocybin-prl-analyses/src/prl_hgf/fitting/hierarchical_patrl.py" source_line=362}
  Arg_3.60 = f64[20]{0} parameter(3), metadata={op_name="jit(scan)/jit(main)/while/body/jit(beliefs_propagation)/jit(continuous_node_prediction)/pjit[in_shardings=(UnspecifiedValue, UnspecifiedValue, UnspecifiedValue, UnspecifiedValue) out_shardings=(UnspecifiedValue,) in_layouts=(None, None, None, None) out_layouts=(None,) resource_env=None donated_invars=(False, False, False, False) name=predict_mean keep_unused=False inline=False]"}
  multiply.63 = f64[20]{0} multiply(broadcast.62, Arg_3.60), metadata={op_name="jit(scan)/jit(main)/while/body/jit(beliefs_propagation)/jit(continuous_node_prediction)/jit(predict_mean)/mul" source_file="/fs04/fc37/adam/projects/psilocybin-prl-analyses/src/prl_hgf/fitting/hierarchical_patrl.py" source_line=362}
  ROOT add.64 = f64[20]{0} add(multiply.61, multiply.63), metadata={op_name="jit(scan)/jit(main)/while/body/jit(beliefs_propagation)/jit(continuous_node_prediction)/jit(predict_mean)/add" source_file="/fs04/fc37/adam/projects/psilocybin-prl-analyses/src/prl_hgf/fitting/hierarchical_patrl.py" source_line=362}
} // predict_mean.56

_where.65 {
  Arg_0.66 = pred[20]{0} parameter(0), metadata={op_name="jit(scan)/jit(main)/while/body/jit(beliefs_propagation)/jit(continuous_node_prediction)/jit(predict_precision)/pjit[in_shardings=(UnspecifiedValue, UnspecifiedValue, UnspecifiedValue) out_shardings=(UnspecifiedValue,) in_layouts=(None, None, None) out_layouts=(None,) resource_env=None donated_invars=(False, False, False) name=_where keep_unused=False inline=False]"}
  Arg_1.67 = f64[20]{0} parameter(1), metadata={op_name="jit(scan)/jit(main)/while/body/jit(beliefs_propagation)/jit(continuous_node_prediction)/jit(predict_precision)/pjit[in_shardings=(UnspecifiedValue, UnspecifiedValue, UnspecifiedValue) out_shardings=(UnspecifiedValue,) in_layouts=(None, None, None) out_layouts=(None,) resource_env=None donated_invars=(False, False, False) name=_where keep_unused=False inline=False]"}
  Arg_2.68 = f64[20]{0} parameter(2), metadata={op_name="jit(scan)/jit(main)/while/body/jit(beliefs_propagation)/jit(continuous_node_prediction)/jit(predict_precision)/pjit[in_shardings=(UnspecifiedValue, UnspecifiedValue, UnspecifiedValue) out_shardings=(UnspecifiedValue,) in_layouts=(None, None, None) out_layouts=(None,) resource_env=None donated_invars=(False, False, False) name=_where keep_unused=False inline=False]"}
  ROOT select.69 = f64[20]{0} select(Arg_0.66, Arg_1.67, Arg_2.68), metadata={op_name="jit(scan)/jit(main)/while/body/jit(beliefs_propagation)/jit(continuous_node_prediction)/jit(predict_precision)/jit(_where)/select_n" source_file="/fs04/fc37/adam/projects/psilocybin-prl-analyses/src/prl_hgf/env/pat_rl_simulator.py" source_line=92}
}

integer_pow.70 {
  constant.72 = f64[] constant(1)
  broadcast.73 = f64[20]{0} broadcast(constant.72), dimensions={}
  Arg_0.71 = f64[20]{0} parameter(0), metadata={op_name="jit(scan)/jit(main)/while/body/jit(beliefs_propagation)/jit(continuous_node_prediction)/jit(predict_precision)/integer_pow[y=-2]"}
  multiply.74 = f64[20]{0} multiply(Arg_0.71, Arg_0.71), metadata={op_name="jit(scan)/jit(main)/while/body/jit(beliefs_propagation)/jit(continuous_node_prediction)/jit(predict_precision)/mul" source_file="/fs04/fc37/adam/projects/psilocybin-prl-analyses/src/prl_hgf/fitting/hierarchical_patrl.py" source_line=362}
  ROOT divide.75 = f64[20]{0} divide(broadcast.73, multiply.74), metadata={op_name="jit(scan)/jit(main)/while/body/jit(beliefs_propagation)/jit(continuous_node_prediction)/jit(predict_precision)/div" source_file="/fs04/fc37/adam/projects/psilocybin-prl-analyses/src/prl_hgf/fitting/hierarchical_patrl.py" source_line=362}
}

integer_pow_0.76 {
  constant.78 = f64[] constant(1)
  broadcast.79 = f64[20]{0} broadcast(constant.78), dimensions={}
  Arg_0.77 = f64[20]{0} parameter(0), metadata={op_name="jit(scan)/jit(main)/while/body/jit(beliefs_propagation)/jit(continuous_node_prediction)/jit(predict_precision)/integer_pow[y=-2]"}
  multiply.80 = f64[20]{0} multiply(Arg_0.77, Arg_0.77), metadata={op_name="jit(scan)/jit(main)/while/body/jit(beliefs_propagation)/jit(continuous_node_prediction)/jit(predict_precision)/mul" source_file="/fs04/fc37/adam/projects/psilocybin-prl-analyses/src/prl_hgf/fitting/hierarchical_patrl.py" source_line=362}
  ROOT divide.81 = f64[20]{0} divide(broadcast.79, multiply.80), metadata={op_name="jit(scan)/jit(main)/while/body/jit(beliefs_propagation)/jit(continuous_node_prediction)/jit(predict_precision)/div" source_file="/fs04/fc37/adam/projects/psilocybin-prl-analyses/src/prl_hgf/fitting/hierarchical_patrl.py" source_line=362}
}

predict_precision.82 {
  constant.89 = f64[] constant(1)
  broadcast.90 = f64[20]{0} broadcast(constant.89), dimensions={}
  Arg_1.84 = f64[20]{0} parameter(1), metadata={op_name="jit(scan)/jit(main)/while/body/jit(beliefs_propagation)/jit(continuous_node_prediction)/pjit[in_shardings=(UnspecifiedValue, UnspecifiedValue, UnspecifiedValue, UnspecifiedValue) out_shardings=(UnspecifiedValue, UnspecifiedValue, UnspecifiedValue, UnspecifiedValue, UnspecifiedValue, UnspecifiedValue, UnspecifiedValue) in_layouts=(None, None, None, None) out_layouts=(None, None, None, None, None, None, None) resource_env=None donated_invars=(False, False, False, False) name=predict_precision keep_unused=False inline=False]"}
  divide.91 = f64[20]{0} divide(broadcast.90, Arg_1.84), metadata={op_name="jit(scan)/jit(main)/while/body/jit(beliefs_propagation)/jit(continuous_node_prediction)/jit(predict_precision)/div" source_file="/fs04/fc37/adam/projects/psilocybin-prl-analyses/src/prl_hgf/fitting/hierarchical_patrl.py" source_line=362}
  Arg_0.83 = f64[] parameter(0), metadata={op_name="jit(scan)/jit(main)/while/body/jit(beliefs_propagation)/jit(continuous_node_prediction)/pjit[in_shardings=(UnspecifiedValue, UnspecifiedValue, UnspecifiedValue, UnspecifiedValue) out_shardings=(UnspecifiedValue, UnspecifiedValue, UnspecifiedValue, UnspecifiedValue, UnspecifiedValue, UnspecifiedValue, UnspecifiedValue) in_layouts=(None, None, None, None) out_layouts=(None, None, None, None, None, None, None) resource_env=None donated_invars=(False, False, False, False) name=predict_precision keep_unused=False inline=False]"}
  broadcast.93 = f64[20]{0} broadcast(Arg_0.83), dimensions={}, metadata={op_name="jit(scan)/jit(main)/while/body/jit(beliefs_propagation)/jit(continuous_node_prediction)/jit(predict_precision)/mul" source_file="/fs04/fc37/adam/projects/psilocybin-prl-analyses/src/prl_hgf/fitting/hierarchical_patrl.py" source_line=362}
  Arg_2.85 = f64[20]{0} parameter(2), metadata={op_name="jit(scan)/jit(main)/while/body/jit(beliefs_propagation)/jit(continuous_node_prediction)/pjit[in_shardings=(UnspecifiedValue, UnspecifiedValue, UnspecifiedValue, UnspecifiedValue) out_shardings=(UnspecifiedValue, UnspecifiedValue, UnspecifiedValue, UnspecifiedValue, UnspecifiedValue, UnspecifiedValue, UnspecifiedValue) in_layouts=(None, None, None, None) out_layouts=(None, None, None, None, None, None, None) resource_env=None donated_invars=(False, False, False, False) name=predict_precision keep_unused=False inline=False]"}
  exponential.92 = f64[20]{0} exponential(Arg_2.85), metadata={op_name="jit(scan)/jit(main)/while/body/jit(beliefs_propagation)/jit(continuous_node_prediction)/jit(predict_precision)/exp" source_file="/fs04/fc37/adam/projects/psilocybin-prl-analyses/src/prl_hgf/fitting/hierarchical_patrl.py" source_line=362}
  multiply.94 = f64[20]{0} multiply(broadcast.93, exponential.92), metadata={op_name="jit(scan)/jit(main)/while/body/jit(beliefs_propagation)/jit(continuous_node_prediction)/jit(predict_precision)/mul" source_file="/fs04/fc37/adam/projects/psilocybin-prl-analyses/src/prl_hgf/fitting/hierarchical_patrl.py" source_line=362}
  constant.87 = f64[] constant(1e-128)
  broadcast.88 = f64[20]{0} broadcast(constant.87), dimensions={}
  compare.95 = pred[20]{0} compare(multiply.94, broadcast.88), direction=GT, metadata={op_name="jit(scan)/jit(main)/while/body/jit(beliefs_propagation)/jit(continuous_node_prediction)/jit(predict_precision)/gt" source_file="/fs04/fc37/adam/projects/psilocybin-prl-analyses/src/prl_hgf/fitting/hierarchical_patrl.py" source_line=362}
  Arg_3.86 = f64[20]{0} parameter(3), metadata={op_name="jit(scan)/jit(main)/while/body/jit(beliefs_propagation)/jit(continuous_node_prediction)/pjit[in_shardings=(UnspecifiedValue, UnspecifiedValue, UnspecifiedValue, UnspecifiedValue) out_shardings=(UnspecifiedValue, UnspecifiedValue, UnspecifiedValue, UnspecifiedValue, UnspecifiedValue, UnspecifiedValue, UnspecifiedValue) in_layouts=(None, None, None, None) out_layouts=(None, None, None, None, None, None, None) resource_env=None donated_invars=(False, False, False, False) name=predict_precision keep_unused=False inline=False]"}
  call.96 = f64[20]{0} call(compare.95, multiply.94, Arg_3.86), to_apply=_where.65
  add.97 = f64[20]{0} add(divide.91, call.96), metadata={op_name="jit(scan)/jit(main)/while/body/jit(beliefs_propagation)/jit(continuous_node_prediction)/jit(predict_precision)/add" source_file="/fs04/fc37/adam/projects/psilocybin-prl-analyses/src/prl_hgf/fitting/hierarchical_patrl.py" source_line=362}
  divide.98 = f64[20]{0} divide(broadcast.90, add.97), metadata={op_name="jit(scan)/jit(main)/while/body/jit(beliefs_propagation)/jit(continuous_node_prediction)/jit(predict_precision)/div" source_file="/fs04/fc37/adam/projects/psilocybin-prl-analyses/src/prl_hgf/fitting/hierarchical_patrl.py" source_line=362}
  multiply.99 = f64[20]{0} multiply(call.96, divide.98), metadata={op_name="jit(scan)/jit(main)/while/body/jit(beliefs_propagation)/jit(continuous_node_prediction)/jit(predict_precision)/mul" source_file="/fs04/fc37/adam/projects/psilocybin-prl-analyses/src/prl_hgf/fitting/hierarchical_patrl.py" source_line=362}
  call.100 = f64[20]{0} call(Arg_1.84), to_apply=integer_pow.70
  call.101 = f64[20]{0} call(add.97), to_apply=integer_pow_0.76
  ROOT tuple.102 = (f64[20]{0}, f64[20]{0}, f64[20]{0}, pred[20]{0}, f64[20]{0}, /*index=5*/f64[20]{0}, f64[20]{0}) tuple(divide.98, multiply.99, exponential.92, compare.95, call.96, /*index=5*/call.100, call.101)
} // predict_precision.82

integer_pow_1.103 {
  constant.105 = f64[] constant(1)
  broadcast.106 = f64[20]{0} broadcast(constant.105), dimensions={}
  Arg_0.104 = f64[20]{0} parameter(0), metadata={op_name="jit(scan)/jit(main)/while/body/jit(beliefs_propagation)/jit(continuous_node_prediction)/integer_pow[y=-2]"}
  multiply.107 = f64[20]{0} multiply(Arg_0.104, Arg_0.104), metadata={op_name="jit(scan)/jit(main)/while/body/jit(beliefs_propagation)/jit(continuous_node_prediction)/mul" source_file="/fs04/fc37/adam/projects/psilocybin-prl-analyses/src/prl_hgf/fitting/hierarchical_patrl.py" source_line=362}
  ROOT divide.108 = f64[20]{0} divide(broadcast.106, multiply.107), metadata={op_name="jit(scan)/jit(main)/while/body/jit(beliefs_propagation)/jit(continuous_node_prediction)/div" source_file="/fs04/fc37/adam/projects/psilocybin-prl-analyses/src/prl_hgf/fitting/hierarchical_patrl.py" source_line=362}
}

continuous_node_prediction.109 {
  Arg_0.110 = f64[] parameter(0), metadata={op_name="jit(scan)/jit(main)/while/body/jit(beliefs_propagation)/pjit[in_shardings=(UnspecifiedValue, UnspecifiedValue, UnspecifiedValue, UnspecifiedValue, UnspecifiedValue, UnspecifiedValue, UnspecifiedValue) out_shardings=(UnspecifiedValue, UnspecifiedValue, UnspecifiedValue, UnspecifiedValue, UnspecifiedValue, UnspecifiedValue, UnspecifiedValue, UnspecifiedValue, UnspecifiedValue, UnspecifiedValue) in_layouts=(None, None, None, None, None, None, None) out_layouts=(None, None, None, None, None, None, None, None, None, None) resource_env=None donated_invars=(False, False, False, False, False, False, False) name=continuous_node_prediction keep_unused=False inline=False]"}
  Arg_1.111 = f64[20]{0} parameter(1), metadata={op_name="jit(scan)/jit(main)/while/body/jit(beliefs_propagation)/pjit[in_shardings=(UnspecifiedValue, UnspecifiedValue, UnspecifiedValue, UnspecifiedValue, UnspecifiedValue, UnspecifiedValue, UnspecifiedValue) out_shardings=(UnspecifiedValue, UnspecifiedValue, UnspecifiedValue, UnspecifiedValue, UnspecifiedValue, UnspecifiedValue, UnspecifiedValue, UnspecifiedValue, UnspecifiedValue, UnspecifiedValue) in_layouts=(None, None, None, None, None, None, None) out_layouts=(None, None, None, None, None, None, None, None, None, None) resource_env=None donated_invars=(False, False, False, False, False, False, False) name=continuous_node_prediction keep_unused=False inline=False]"}
  Arg_2.112 = f64[20]{0} parameter(2), metadata={op_name="jit(scan)/jit(main)/while/body/jit(beliefs_propagation)/pjit[in_shardings=(UnspecifiedValue, UnspecifiedValue, UnspecifiedValue, UnspecifiedValue, UnspecifiedValue, UnspecifiedValue, UnspecifiedValue) out_shardings=(UnspecifiedValue, UnspecifiedValue, UnspecifiedValue, UnspecifiedValue, UnspecifiedValue, UnspecifiedValue, UnspecifiedValue, UnspecifiedValue, UnspecifiedValue, UnspecifiedValue) in_layouts=(None, None, None, None, None, None, None) out_layouts=(None, None, None, None, None, None, None, None, None, None) resource_env=None donated_invars=(False, False, False, False, False, False, False) name=continuous_node_prediction keep_unused=False inline=False]"}
  Arg_4.114 = f64[20]{0} parameter(4), metadata={op_name="jit(scan)/jit(main)/while/body/jit(beliefs_propagation)/pjit[in_shardings=(UnspecifiedValue, UnspecifiedValue, UnspecifiedValue, UnspecifiedValue, UnspecifiedValue, UnspecifiedValue, UnspecifiedValue) out_shardings=(UnspecifiedValue, UnspecifiedValue, UnspecifiedValue, UnspecifiedValue, UnspecifiedValue, UnspecifiedValue, UnspecifiedValue, UnspecifiedValue, UnspecifiedValue, UnspecifiedValue) in_layouts=(None, None, None, None, None, None, None) out_layouts=(None, None, None, None, None, None, None, None, None, None) resource_env=None donated_invars=(False, False, False, False, False, False, False) name=continuous_node_prediction keep_unused=False inline=False]"}
  call.120 = f64[20]{0} call(Arg_0.110, Arg_1.111, Arg_2.112, Arg_4.114), to_apply=predict_mean.56
  Arg_3.113 = f64[20]{0} parameter(3), metadata={op_name="jit(scan)/jit(main)/while/body/jit(beliefs_propagation)/pjit[in_shardings=(UnspecifiedValue, UnspecifiedValue, UnspecifiedValue, UnspecifiedValue, UnspecifiedValue, UnspecifiedValue, UnspecifiedValue) out_shardings=(UnspecifiedValue, UnspecifiedValue, UnspecifiedValue, UnspecifiedValue, UnspecifiedValue, UnspecifiedValue, UnspecifiedValue, UnspecifiedValue, UnspecifiedValue, UnspecifiedValue) in_layouts=(None, None, None, None, None, None, None) out_layouts=(None, None, None, None, None, None, None, None, None, None) resource_env=None donated_invars=(False, False, False, False, False, False, False) name=continuous_node_prediction keep_unused=False inline=False]"}
  Arg_5.115 = f64[20]{0} parameter(5), metadata={op_name="jit(scan)/jit(main)/while/body/jit(beliefs_propagation)/pjit[in_shardings=(UnspecifiedValue, UnspecifiedValue, UnspecifiedValue, UnspecifiedValue, UnspecifiedValue, UnspecifiedValue, UnspecifiedValue) out_shardings=(UnspecifiedValue, UnspecifiedValue, UnspecifiedValue, UnspecifiedValue, UnspecifiedValue, UnspecifiedValue, UnspecifiedValue, UnspecifiedValue, UnspecifiedValue, UnspecifiedValue) in_layouts=(None, None, None, None, None, None, None) out_layouts=(None, None, None, None, None, None, None, None, None, None) resource_env=None donated_invars=(False, False, False, False, False, False, False) name=continuous_node_prediction keep_unused=False inline=False]"}
  Arg_6.116 = f64[20]{0} parameter(6), metadata={op_name="jit(scan)/jit(main)/while/body/jit(beliefs_propagation)/pjit[in_shardings=(UnspecifiedValue, UnspecifiedValue, UnspecifiedValue, UnspecifiedValue, UnspecifiedValue, UnspecifiedValue, UnspecifiedValue) out_shardings=(UnspecifiedValue, UnspecifiedValue, UnspecifiedValue, UnspecifiedValue, UnspecifiedValue, UnspecifiedValue, UnspecifiedValue, UnspecifiedValue, UnspecifiedValue, UnspecifiedValue) in_layouts=(None, None, None, None, None, None, None) out_layouts=(None, None, None, None, None, None, None, None, None, None) resource_env=None donated_invars=(False, False, False, False, False, False, False) name=continuous_node_prediction keep_unused=False inline=False]"}
  call.121 = (f64[20]{0}, f64[20]{0}, f64[20]{0}, pred[20]{0}, f64[20]{0}, /*index=5*/f64[20]{0}, f64[20]{0}) call(Arg_0.110, Arg_3.113, Arg_5.115, Arg_6.116), to_apply=predict_precision.82
  get-tuple-element.122 = f64[20]{0} get-tuple-element(call.121), index=0
  constant.117 = f64[] constant(1)
  broadcast.118 = f64[20]{0} broadcast(constant.117), dimensions={}
  divide.119 = f64[20]{0} divide(broadcast.118, Arg_3.113), metadata={op_name="jit(scan)/jit(main)/while/body/jit(beliefs_propagation)/jit(continuous_node_prediction)/div" source_file="/fs04/fc37/adam/projects/psilocybin-prl-analyses/src/prl_hgf/fitting/hierarchical_patrl.py" source_line=362}
  get-tuple-element.123 = f64[20]{0} get-tuple-element(call.121), index=1
  call.129 = f64[20]{0} call(Arg_3.113), to_apply=integer_pow_1.103
  get-tuple-element.124 = f64[20]{0} get-tuple-element(call.121), index=2
  get-tuple-element.125 = pred[20]{0} get-tuple-element(call.121), index=3
  get-tuple-element.126 = f64[20]{0} get-tuple-element(call.121), index=4
  get-tuple-element.127 = f64[20]{0} get-tuple-element(call.121), index=5
  get-tuple-element.128 = f64[20]{0} get-tuple-element(call.121), index=6
  ROOT tuple.130 = (f64[20]{0}, f64[20]{0}, f64[20]{0}, f64[20]{0}, f64[20]{0}, /*index=5*/f64[20]{0}, pred[20]{0}, f64[20]{0}, f64[20]{0}, f64[20]{0}) tuple(call.120, get-tuple-element.122, divide.119, get-tuple-element.123, call.129, /*index=5*/get-tuple-element.124, get-tuple-element.125, get-tuple-element.126, get-tuple-element.127, get-tuple-element.128)
} // continuous_node_prediction.109

predict_mean_3.131 {
  Arg_1.133 = f64[20]{0} parameter(1), metadata={op_name="jit(scan)/jit(main)/while/body/jit(beliefs_propagation)/jit(continuous_node_prediction)/pjit[in_shardings=(UnspecifiedValue, UnspecifiedValue, UnspecifiedValue, UnspecifiedValue) out_shardings=(UnspecifiedValue,) in_layouts=(None, None, None, None) out_layouts=(None,) resource_env=None donated_invars=(False, False, False, False) name=predict_mean keep_unused=False inline=False]"}
  Arg_2.134 = f64[20]{0} parameter(2), metadata={op_name="jit(scan)/jit(main)/while/body/jit(beliefs_propagation)/jit(continuous_node_prediction)/pjit[in_shardings=(UnspecifiedValue, UnspecifiedValue, UnspecifiedValue, UnspecifiedValue) out_shardings=(UnspecifiedValue,) in_layouts=(None, None, None, None) out_layouts=(None,) resource_env=None donated_invars=(False, False, False, False) name=predict_mean keep_unused=False inline=False]"}
  multiply.136 = f64[20]{0} multiply(Arg_1.133, Arg_2.134), metadata={op_name="jit(scan)/jit(main)/while/body/jit(beliefs_propagation)/jit(continuous_node_prediction)/jit(predict_mean)/mul" source_file="/fs04/fc37/adam/projects/psilocybin-prl-analyses/src/prl_hgf/fitting/hierarchical_patrl.py" source_line=362}
  Arg_0.132 = f64[] parameter(0), metadata={op_name="jit(scan)/jit(main)/while/body/jit(beliefs_propagation)/jit(continuous_node_prediction)/pjit[in_shardings=(UnspecifiedValue, UnspecifiedValue, UnspecifiedValue, UnspecifiedValue) out_shardings=(UnspecifiedValue,) in_layouts=(None, None, None, None) out_layouts=(None,) resource_env=None donated_invars=(False, False, False, False) name=predict_mean keep_unused=False inline=False]"}
  broadcast.137 = f64[20]{0} broadcast(Arg_0.132), dimensions={}, metadata={op_name="jit(scan)/jit(main)/while/body/jit(beliefs_propagation)/jit(continuous_node_prediction)/jit(predict_mean)/mul" source_file="/fs04/fc37/adam/projects/psilocybin-prl-analyses/src/prl_hgf/fitting/hierarchical_patrl.py" source_line=362}
  Arg_3.135 = f64[20]{0} parameter(3), metadata={op_name="jit(scan)/jit(main)/while/body/jit(beliefs_propagation)/jit(continuous_node_prediction)/pjit[in_shardings=(UnspecifiedValue, UnspecifiedValue, UnspecifiedValue, UnspecifiedValue) out_shardings=(UnspecifiedValue,) in_layouts=(None, None, None, None) out_layouts=(None,) resource_env=None donated_invars=(False, False, False, False) name=predict_mean keep_unused=False inline=False]"}
  multiply.138 = f64[20]{0} multiply(broadcast.137, Arg_3.135), metadata={op_name="jit(scan)/jit(main)/while/body/jit(beliefs_propagation)/jit(continuous_node_prediction)/jit(predict_mean)/mul" source_file="/fs04/fc37/adam/projects/psilocybin-prl-analyses/src/prl_hgf/fitting/hierarchical_patrl.py" source_line=362}
  ROOT add.139 = f64[20]{0} add(multiply.136, multiply.138), metadata={op_name="jit(scan)/jit(main)/while/body/jit(beliefs_propagation)/jit(continuous_node_prediction)/jit(predict_mean)/add" source_file="/fs04/fc37/adam/projects/psilocybin-prl-analyses/src/prl_hgf/fitting/hierarchical_patrl.py" source_line=362}
} // predict_mean_3.131

_where.140 {
  Arg_0.141 = pred[20]{0} parameter(0), metadata={op_name="jit(scan)/jit(main)/while/body/jit(beliefs_propagation)/jit(continuous_node_prediction)/jit(predict_precision)/pjit[in_shardings=(UnspecifiedValue, UnspecifiedValue, UnspecifiedValue) out_shardings=(UnspecifiedValue,) in_layouts=(None, None, None) out_layouts=(None,) resource_env=None donated_invars=(False, False, False) name=_where keep_unused=False inline=False]"}
  Arg_1.142 = f64[20]{0} parameter(1), metadata={op_name="jit(scan)/jit(main)/while/body/jit(beliefs_propagation)/jit(continuous_node_prediction)/jit(predict_precision)/pjit[in_shardings=(UnspecifiedValue, UnspecifiedValue, UnspecifiedValue) out_shardings=(UnspecifiedValue,) in_layouts=(None, None, None) out_layouts=(None,) resource_env=None donated_invars=(False, False, False) name=_where keep_unused=False inline=False]"}
  Arg_2.143 = f64[20]{0} parameter(2), metadata={op_name="jit(scan)/jit(main)/while/body/jit(beliefs_propagation)/jit(continuous_node_prediction)/jit(predict_precision)/pjit[in_shardings=(UnspecifiedValue, UnspecifiedValue, UnspecifiedValue) out_shardings=(UnspecifiedValue,) in_layouts=(None, None, None) out_layouts=(None,) resource_env=None donated_invars=(False, False, False) name=_where keep_unused=False inline=False]"}
  ROOT select.144 = f64[20]{0} select(Arg_0.141, Arg_1.142, Arg_2.143), metadata={op_name="jit(scan)/jit(main)/while/body/jit(beliefs_propagation)/jit(continuous_node_prediction)/jit(predict_precision)/jit(_where)/select_n" source_file="/fs04/fc37/adam/projects/psilocybin-prl-analyses/src/prl_hgf/env/pat_rl_simulator.py" source_line=92}
}

integer_pow_5.145 {
  constant.147 = f64[] constant(1)
  broadcast.148 = f64[20]{0} broadcast(constant.147), dimensions={}
  Arg_0.146 = f64[20]{0} parameter(0), metadata={op_name="jit(scan)/jit(main)/while/body/jit(beliefs_propagation)/jit(continuous_node_prediction)/jit(predict_precision)/integer_pow[y=-2]"}
  multiply.149 = f64[20]{0} multiply(Arg_0.146, Arg_0.146), metadata={op_name="jit(scan)/jit(main)/while/body/jit(beliefs_propagation)/jit(continuous_node_prediction)/jit(predict_precision)/mul" source_file="/fs04/fc37/adam/projects/psilocybin-prl-analyses/src/prl_hgf/fitting/hierarchical_patrl.py" source_line=362}
  ROOT divide.150 = f64[20]{0} divide(broadcast.148, multiply.149), metadata={op_name="jit(scan)/jit(main)/while/body/jit(beliefs_propagation)/jit(continuous_node_prediction)/jit(predict_precision)/div" source_file="/fs04/fc37/adam/projects/psilocybin-prl-analyses/src/prl_hgf/fitting/hierarchical_patrl.py" source_line=362}
}

integer_pow_6.151 {
  constant.153 = f64[] constant(1)
  broadcast.154 = f64[20]{0} broadcast(constant.153), dimensions={}
  Arg_0.152 = f64[20]{0} parameter(0), metadata={op_name="jit(scan)/jit(main)/while/body/jit(beliefs_propagation)/jit(continuous_node_prediction)/jit(predict_precision)/integer_pow[y=-2]"}
  multiply.155 = f64[20]{0} multiply(Arg_0.152, Arg_0.152), metadata={op_name="jit(scan)/jit(main)/while/body/jit(beliefs_propagation)/jit(continuous_node_prediction)/jit(predict_precision)/mul" source_file="/fs04/fc37/adam/projects/psilocybin-prl-analyses/src/prl_hgf/fitting/hierarchical_patrl.py" source_line=362}
  ROOT divide.156 = f64[20]{0} divide(broadcast.154, multiply.155), metadata={op_name="jit(scan)/jit(main)/while/body/jit(beliefs_propagation)/jit(continuous_node_prediction)/jit(predict_precision)/div" source_file="/fs04/fc37/adam/projects/psilocybin-prl-analyses/src/prl_hgf/fitting/hierarchical_patrl.py" source_line=362}
}

predict_precision_4.157 {
  constant.166 = f64[] constant(1)
  broadcast.167 = f64[20]{0} broadcast(constant.166), dimensions={}
  Arg_1.159 = f64[20]{0} parameter(1), metadata={op_name="jit(scan)/jit(main)/while/body/jit(beliefs_propagation)/jit(continuous_node_prediction)/pjit[in_shardings=(UnspecifiedValue, UnspecifiedValue, UnspecifiedValue, UnspecifiedValue, UnspecifiedValue, UnspecifiedValue) out_shardings=(UnspecifiedValue, UnspecifiedValue, UnspecifiedValue, UnspecifiedValue, UnspecifiedValue, UnspecifiedValue, UnspecifiedValue, UnspecifiedValue) in_layouts=(None, None, None, None, None, None) out_layouts=(None, None, None, None, None, None, None, None) resource_env=None donated_invars=(False, False, False, False, False, False) name=predict_precision keep_unused=False inline=False]"}
  divide.168 = f64[20]{0} divide(broadcast.167, Arg_1.159), metadata={op_name="jit(scan)/jit(main)/while/body/jit(beliefs_propagation)/jit(continuous_node_prediction)/jit(predict_precision)/div" source_file="/fs04/fc37/adam/projects/psilocybin-prl-analyses/src/prl_hgf/fitting/hierarchical_patrl.py" source_line=362}
  Arg_0.158 = f64[] parameter(0), metadata={op_name="jit(scan)/jit(main)/while/body/jit(beliefs_propagation)/jit(continuous_node_prediction)/pjit[in_shardings=(UnspecifiedValue, UnspecifiedValue, UnspecifiedValue, UnspecifiedValue, UnspecifiedValue, UnspecifiedValue) out_shardings=(UnspecifiedValue, UnspecifiedValue, UnspecifiedValue, UnspecifiedValue, UnspecifiedValue, UnspecifiedValue, UnspecifiedValue, UnspecifiedValue) in_layouts=(None, None, None, None, None, None) out_layouts=(None, None, None, None, None, None, None, None) resource_env=None donated_invars=(False, False, False, False, False, False) name=predict_precision keep_unused=False inline=False]"}
  broadcast.173 = f64[20]{0} broadcast(Arg_0.158), dimensions={}, metadata={op_name="jit(scan)/jit(main)/while/body/jit(beliefs_propagation)/jit(continuous_node_prediction)/jit(predict_precision)/mul" source_file="/fs04/fc37/adam/projects/psilocybin-prl-analyses/src/prl_hgf/fitting/hierarchical_patrl.py" source_line=362}
  Arg_2.160 = f64[20]{0} parameter(2), metadata={op_name="jit(scan)/jit(main)/while/body/jit(beliefs_propagation)/jit(continuous_node_prediction)/pjit[in_shardings=(UnspecifiedValue, UnspecifiedValue, UnspecifiedValue, UnspecifiedValue, UnspecifiedValue, UnspecifiedValue) out_shardings=(UnspecifiedValue, UnspecifiedValue, UnspecifiedValue, UnspecifiedValue, UnspecifiedValue, UnspecifiedValue, UnspecifiedValue, UnspecifiedValue) in_layouts=(None, None, None, None, None, None) out_layouts=(None, None, None, None, None, None, None, None) resource_env=None donated_invars=(False, False, False, False, False, False) name=predict_precision keep_unused=False inline=False]"}
  Arg_3.161 = f64[20,1]{1,0} parameter(3), metadata={op_name="jit(scan)/jit(main)/while/body/jit(beliefs_propagation)/jit(continuous_node_prediction)/pjit[in_shardings=(UnspecifiedValue, UnspecifiedValue, UnspecifiedValue, UnspecifiedValue, UnspecifiedValue, UnspecifiedValue) out_shardings=(UnspecifiedValue, UnspecifiedValue, UnspecifiedValue, UnspecifiedValue, UnspecifiedValue, UnspecifiedValue, UnspecifiedValue, UnspecifiedValue) in_layouts=(None, None, None, None, None, None) out_layouts=(None, None, None, None, None, None, None, None) resource_env=None donated_invars=(False, False, False, False, False, False) name=predict_precision keep_unused=False inline=False]"}
  reshape.169 = f64[20]{0} reshape(Arg_3.161), metadata={op_name="jit(scan)/jit(main)/while/body/jit(beliefs_propagation)/jit(continuous_node_prediction)/jit(predict_precision)/squeeze[dimensions=(1,)]" source_file="/fs04/fc37/adam/projects/psilocybin-prl-analyses/src/prl_hgf/fitting/hierarchical_patrl.py" source_line=362}
  Arg_4.162 = f64[20]{0} parameter(4), metadata={op_name="jit(scan)/jit(main)/while/body/jit(beliefs_propagation)/jit(continuous_node_prediction)/pjit[in_shardings=(UnspecifiedValue, UnspecifiedValue, UnspecifiedValue, UnspecifiedValue, UnspecifiedValue, UnspecifiedValue) out_shardings=(UnspecifiedValue, UnspecifiedValue, UnspecifiedValue, UnspecifiedValue, UnspecifiedValue, UnspecifiedValue, UnspecifiedValue, UnspecifiedValue) in_layouts=(None, None, None, None, None, None) out_layouts=(None, None, None, None, None, None, None, None) resource_env=None donated_invars=(False, False, False, False, False, False) name=predict_precision keep_unused=False inline=False]"}
  multiply.170 = f64[20]{0} multiply(reshape.169, Arg_4.162), metadata={op_name="jit(scan)/jit(main)/while/body/jit(beliefs_propagation)/jit(continuous_node_prediction)/jit(predict_precision)/mul" source_file="/fs04/fc37/adam/projects/psilocybin-prl-analyses/src/prl_hgf/fitting/hierarchical_patrl.py" source_line=362}
  add.171 = f64[20]{0} add(Arg_2.160, multiply.170), metadata={op_name="jit(scan)/jit(main)/while/body/jit(beliefs_propagation)/jit(continuous_node_prediction)/jit(predict_precision)/add" source_file="/fs04/fc37/adam/projects/psilocybin-prl-analyses/src/prl_hgf/fitting/hierarchical_patrl.py" source_line=362}
  exponential.172 = f64[20]{0} exponential(add.171), metadata={op_name="jit(scan)/jit(main)/while/body/jit(beliefs_propagation)/jit(continuous_node_prediction)/jit(predict_precision)/exp" source_file="/fs04/fc37/adam/projects/psilocybin-prl-analyses/src/prl_hgf/fitting/hierarchical_patrl.py" source_line=362}
  multiply.174 = f64[20]{0} multiply(broadcast.173, exponential.172), metadata={op_name="jit(scan)/jit(main)/while/body/jit(beliefs_propagation)/jit(continuous_node_prediction)/jit(predict_precision)/mul" source_file="/fs04/fc37/adam/projects/psilocybin-prl-analyses/src/prl_hgf/fitting/hierarchical_patrl.py" source_line=362}
  constant.164 = f64[] constant(1e-128)
  broadcast.165 = f64[20]{0} broadcast(constant.164), dimensions={}
  compare.175 = pred[20]{0} compare(multiply.174, broadcast.165), direction=GT, metadata={op_name="jit(scan)/jit(main)/while/body/jit(beliefs_propagation)/jit(continuous_node_prediction)/jit(predict_precision)/gt" source_file="/fs04/fc37/adam/projects/psilocybin-prl-analyses/src/prl_hgf/fitting/hierarchical_patrl.py" source_line=362}
  Arg_5.163 = f64[20]{0} parameter(5), metadata={op_name="jit(scan)/jit(main)/while/body/jit(beliefs_propagation)/jit(continuous_node_prediction)/pjit[in_shardings=(UnspecifiedValue, UnspecifiedValue, UnspecifiedValue, UnspecifiedValue, UnspecifiedValue, UnspecifiedValue) out_shardings=(UnspecifiedValue, UnspecifiedValue, UnspecifiedValue, UnspecifiedValue, UnspecifiedValue, UnspecifiedValue, UnspecifiedValue, UnspecifiedValue) in_layouts=(None, None, None, None, None, None) out_layouts=(None, None, None, None, None, None, None, None) resource_env=None donated_invars=(False, False, False, False, False, False) name=predict_precision keep_unused=False inline=False]"}
  call.176 = f64[20]{0} call(compare.175, multiply.174, Arg_5.163), to_apply=_where.140
  add.177 = f64[20]{0} add(divide.168, call.176), metadata={op_name="jit(scan)/jit(main)/while/body/jit(beliefs_propagation)/jit(continuous_node_prediction)/jit(predict_precision)/add" source_file="/fs04/fc37/adam/projects/psilocybin-prl-analyses/src/prl_hgf/fitting/hierarchical_patrl.py" source_line=362}
  divide.178 = f64[20]{0} divide(broadcast.167, add.177), metadata={op_name="jit(scan)/jit(main)/while/body/jit(beliefs_propagation)/jit(continuous_node_prediction)/jit(predict_precision)/div" source_file="/fs04/fc37/adam/projects/psilocybin-prl-analyses/src/prl_hgf/fitting/hierarchical_patrl.py" source_line=362}
  multiply.179 = f64[20]{0} multiply(call.176, divide.178), metadata={op_name="jit(scan)/jit(main)/while/body/jit(beliefs_propagation)/jit(continuous_node_prediction)/jit(predict_precision)/mul" source_file="/fs04/fc37/adam/projects/psilocybin-prl-analyses/src/prl_hgf/fitting/hierarchical_patrl.py" source_line=362}
  call.180 = f64[20]{0} call(Arg_1.159), to_apply=integer_pow_5.145
  call.181 = f64[20]{0} call(add.177), to_apply=integer_pow_6.151
  ROOT tuple.182 = (f64[20]{0}, f64[20]{0}, f64[20]{0}, f64[20]{0}, pred[20]{0}, /*index=5*/f64[20]{0}, f64[20]{0}, f64[20]{0}) tuple(divide.178, multiply.179, reshape.169, exponential.172, compare.175, /*index=5*/call.176, call.180, call.181)
} // predict_precision_4.157

integer_pow_7.183 {
  constant.185 = f64[] constant(1)
  broadcast.186 = f64[20]{0} broadcast(constant.185), dimensions={}
  Arg_0.184 = f64[20]{0} parameter(0), metadata={op_name="jit(scan)/jit(main)/while/body/jit(beliefs_propagation)/jit(continuous_node_prediction)/integer_pow[y=-2]"}
  multiply.187 = f64[20]{0} multiply(Arg_0.184, Arg_0.184), metadata={op_name="jit(scan)/jit(main)/while/body/jit(beliefs_propagation)/jit(continuous_node_prediction)/mul" source_file="/fs04/fc37/adam/projects/psilocybin-prl-analyses/src/prl_hgf/fitting/hierarchical_patrl.py" source_line=362}
  ROOT divide.188 = f64[20]{0} divide(broadcast.186, multiply.187), metadata={op_name="jit(scan)/jit(main)/while/body/jit(beliefs_propagation)/jit(continuous_node_prediction)/div" source_file="/fs04/fc37/adam/projects/psilocybin-prl-analyses/src/prl_hgf/fitting/hierarchical_patrl.py" source_line=362}
}

continuous_node_prediction_2.189 {
  Arg_0.190 = f64[] parameter(0), metadata={op_name="jit(scan)/jit(main)/while/body/jit(beliefs_propagation)/pjit[in_shardings=(UnspecifiedValue, UnspecifiedValue, UnspecifiedValue, UnspecifiedValue, UnspecifiedValue, UnspecifiedValue, UnspecifiedValue, UnspecifiedValue, UnspecifiedValue) out_shardings=(UnspecifiedValue, UnspecifiedValue, UnspecifiedValue, UnspecifiedValue, UnspecifiedValue, UnspecifiedValue, UnspecifiedValue, UnspecifiedValue, UnspecifiedValue, UnspecifiedValue, UnspecifiedValue) in_layouts=(None, None, None, None, None, None, None, None, None) out_layouts=(None, None, None, None, None, None, None, None, None, None, None) resource_env=None donated_invars=(False, False, False, False, False, False, False, False, False) name=continuous_node_prediction keep_unused=False inline=False]"}
  Arg_1.191 = f64[20]{0} parameter(1), metadata={op_name="jit(scan)/jit(main)/while/body/jit(beliefs_propagation)/pjit[in_shardings=(UnspecifiedValue, UnspecifiedValue, UnspecifiedValue, UnspecifiedValue, UnspecifiedValue, UnspecifiedValue, UnspecifiedValue, UnspecifiedValue, UnspecifiedValue) out_shardings=(UnspecifiedValue, UnspecifiedValue, UnspecifiedValue, UnspecifiedValue, UnspecifiedValue, UnspecifiedValue, UnspecifiedValue, UnspecifiedValue, UnspecifiedValue, UnspecifiedValue, UnspecifiedValue) in_layouts=(None, None, None, None, None, None, None, None, None) out_layouts=(None, None, None, None, None, None, None, None, None, None, None) resource_env=None donated_invars=(False, False, False, False, False, False, False, False, False) name=continuous_node_prediction keep_unused=False inline=False]"}
  Arg_2.192 = f64[20]{0} parameter(2), metadata={op_name="jit(scan)/jit(main)/while/body/jit(beliefs_propagation)/pjit[in_shardings=(UnspecifiedValue, UnspecifiedValue, UnspecifiedValue, UnspecifiedValue, UnspecifiedValue, UnspecifiedValue, UnspecifiedValue, UnspecifiedValue, UnspecifiedValue) out_shardings=(UnspecifiedValue, UnspecifiedValue, UnspecifiedValue, UnspecifiedValue, UnspecifiedValue, UnspecifiedValue, UnspecifiedValue, UnspecifiedValue, UnspecifiedValue, UnspecifiedValue, UnspecifiedValue) in_layouts=(None, None, None, None, None, None, None, None, None) out_layouts=(None, None, None, None, None, None, None, None, None, None, None) resource_env=None donated_invars=(False, False, False, False, False, False, False, False, False) name=continuous_node_prediction keep_unused=False inline=False]"}
  Arg_4.194 = f64[20]{0} parameter(4), metadata={op_name="jit(scan)/jit(main)/while/body/jit(beliefs_propagation)/pjit[in_shardings=(UnspecifiedValue, UnspecifiedValue, UnspecifiedValue, UnspecifiedValue, UnspecifiedValue, UnspecifiedValue, UnspecifiedValue, UnspecifiedValue, UnspecifiedValue) out_shardings=(UnspecifiedValue, UnspecifiedValue, UnspecifiedValue, UnspecifiedValue, UnspecifiedValue, UnspecifiedValue, UnspecifiedValue, UnspecifiedValue, UnspecifiedValue, UnspecifiedValue, UnspecifiedValue) in_layouts=(None, None, None, None, None, None, None, None, None) out_layouts=(None, None, None, None, None, None, None, None, None, None, None) resource_env=None donated_invars=(False, False, False, False, False, False, False, False, False) name=continuous_node_prediction keep_unused=False inline=False]"}
  call.202 = f64[20]{0} call(Arg_0.190, Arg_1.191, Arg_2.192, Arg_4.194), to_apply=predict_mean_3.131
  Arg_3.193 = f64[20]{0} parameter(3), metadata={op_name="jit(scan)/jit(main)/while/body/jit(beliefs_propagation)/pjit[in_shardings=(UnspecifiedValue, UnspecifiedValue, UnspecifiedValue, UnspecifiedValue, UnspecifiedValue, UnspecifiedValue, UnspecifiedValue, UnspecifiedValue, UnspecifiedValue) out_shardings=(UnspecifiedValue, UnspecifiedValue, UnspecifiedValue, UnspecifiedValue, UnspecifiedValue, UnspecifiedValue, UnspecifiedValue, UnspecifiedValue, UnspecifiedValue, UnspecifiedValue, UnspecifiedValue) in_layouts=(None, None, None, None, None, None, None, None, None) out_layouts=(None, None, None, None, None, None, None, None, None, None, None) resource_env=None donated_invars=(False, False, False, False, False, False, False, False, False) name=continuous_node_prediction keep_unused=False inline=False]"}
  Arg_5.195 = f64[20]{0} parameter(5), metadata={op_name="jit(scan)/jit(main)/while/body/jit(beliefs_propagation)/pjit[in_shardings=(UnspecifiedValue, UnspecifiedValue, UnspecifiedValue, UnspecifiedValue, UnspecifiedValue, UnspecifiedValue, UnspecifiedValue, UnspecifiedValue, UnspecifiedValue) out_shardings=(UnspecifiedValue, UnspecifiedValue, UnspecifiedValue, UnspecifiedValue, UnspecifiedValue, UnspecifiedValue, UnspecifiedValue, UnspecifiedValue, UnspecifiedValue, UnspecifiedValue, UnspecifiedValue) in_layouts=(None, None, None, None, None, None, None, None, None) out_layouts=(None, None, None, None, None, None, None, None, None, None, None) resource_env=None donated_invars=(False, False, False, False, False, False, False, False, False) name=continuous_node_prediction keep_unused=False inline=False]"}
  Arg_6.196 = f64[20,1]{1,0} parameter(6), metadata={op_name="jit(scan)/jit(main)/while/body/jit(beliefs_propagation)/pjit[in_shardings=(UnspecifiedValue, UnspecifiedValue, UnspecifiedValue, UnspecifiedValue, UnspecifiedValue, UnspecifiedValue, UnspecifiedValue, UnspecifiedValue, UnspecifiedValue) out_shardings=(UnspecifiedValue, UnspecifiedValue, UnspecifiedValue, UnspecifiedValue, UnspecifiedValue, UnspecifiedValue, UnspecifiedValue, UnspecifiedValue, UnspecifiedValue, UnspecifiedValue, UnspecifiedValue) in_layouts=(None, None, None, None, None, None, None, None, None) out_layouts=(None, None, None, None, None, None, None, None, None, None, None) resource_env=None donated_invars=(False, False, False, False, False, False, False, False, False) name=continuous_node_prediction keep_unused=False inline=False]"}
  Arg_7.197 = f64[20]{0} parameter(7), metadata={op_name="jit(scan)/jit(main)/while/body/jit(beliefs_propagation)/pjit[in_shardings=(UnspecifiedValue, UnspecifiedValue, UnspecifiedValue, UnspecifiedValue, UnspecifiedValue, UnspecifiedValue, UnspecifiedValue, UnspecifiedValue, UnspecifiedValue) out_shardings=(UnspecifiedValue, UnspecifiedValue, UnspecifiedValue, UnspecifiedValue, UnspecifiedValue, UnspecifiedValue, UnspecifiedValue, UnspecifiedValue, UnspecifiedValue, UnspecifiedValue, UnspecifiedValue) in_layouts=(None, None, None, None, None, None, None, None, None) out_layouts=(None, None, None, None, None, None, None, None, None, None, None) resource_env=None donated_invars=(False, False, False, False, False, False, False, False, False) name=continuous_node_prediction keep_unused=False inline=False]"}
  Arg_8.198 = f64[20]{0} parameter(8), metadata={op_name="jit(scan)/jit(main)/while/body/jit(beliefs_propagation)/pjit[in_shardings=(UnspecifiedValue, UnspecifiedValue, UnspecifiedValue, UnspecifiedValue, UnspecifiedValue, UnspecifiedValue, UnspecifiedValue, UnspecifiedValue, UnspecifiedValue) out_shardings=(UnspecifiedValue, UnspecifiedValue, UnspecifiedValue, UnspecifiedValue, UnspecifiedValue, UnspecifiedValue, UnspecifiedValue, UnspecifiedValue, UnspecifiedValue, UnspecifiedValue, UnspecifiedValue) in_layouts=(None, None, None, None, None, None, None, None, None) out_layouts=(None, None, None, None, None, None, None, None, None, None, None) resource_env=None donated_invars=(False, False, False, False, False, False, False, False, False) name=continuous_node_prediction keep_unused=False inline=False]"}
  call.203 = (f64[20]{0}, f64[20]{0}, f64[20]{0}, f64[20]{0}, pred[20]{0}, /*index=5*/f64[20]{0}, f64[20]{0}, f64[20]{0}) call(Arg_0.190, Arg_3.193, Arg_5.195, Arg_6.196, Arg_7.197, /*index=5*/Arg_8.198), to_apply=predict_precision_4.157
  get-tuple-element.204 = f64[20]{0} get-tuple-element(call.203), index=0
  constant.199 = f64[] constant(1)
  broadcast.200 = f64[20]{0} broadcast(constant.199), dimensions={}
  divide.201 = f64[20]{0} divide(broadcast.200, Arg_3.193), metadata={op_name="jit(scan)/jit(main)/while/body/jit(beliefs_propagation)/jit(continuous_node_prediction)/div" source_file="/fs04/fc37/adam/projects/psilocybin-prl-analyses/src/prl_hgf/fitting/hierarchical_patrl.py" source_line=362}
  get-tuple-element.205 = f64[20]{0} get-tuple-element(call.203), index=1
  call.212 = f64[20]{0} call(Arg_3.193), to_apply=integer_pow_7.183
  get-tuple-element.206 = f64[20]{0} get-tuple-element(call.203), index=2
  get-tuple-element.207 = f64[20]{0} get-tuple-element(call.203), index=3
  get-tuple-element.208 = pred[20]{0} get-tuple-element(call.203), index=4
  get-tuple-element.209 = f64[20]{0} get-tuple-element(call.203), index=5
  get-tuple-element.210 = f64[20]{0} get-tuple-element(call.203), index=6
  get-tuple-element.211 = f64[20]{0} get-tuple-element(call.203), index=7
  ROOT tuple.213 = (f64[20]{0}, f64[20]{0}, f64[20]{0}, f64[20]{0}, f64[20]{0}, /*index=5*/f64[20]{0}, f64[20]{0}, pred[20]{0}, f64[20]{0}, f64[20]{0}, /*index=10*/f64[20]{0}) tuple(call.202, get-tuple-element.204, divide.201, get-tuple-element.205, call.212, /*index=5*/get-tuple-element.206, get-tuple-element.207, get-tuple-element.208, get-tuple-element.209, get-tuple-element.210, /*index=10*/get-tuple-element.211)
} // continuous_node_prediction_2.189

binary_state_node_prediction.214 {
  constant.216 = f64[] constant(1)
  broadcast.217 = f64[20]{0} broadcast(constant.216), dimensions={}
  Arg_0.215 = f64[20]{0} parameter(0), metadata={op_name="jit(scan)/jit(main)/while/body/jit(beliefs_propagation)/pjit[in_shardings=(UnspecifiedValue,) out_shardings=(UnspecifiedValue, UnspecifiedValue, UnspecifiedValue, UnspecifiedValue) in_layouts=(None,) out_layouts=(None, None, None, None) resource_env=None donated_invars=(False,) name=binary_state_node_prediction keep_unused=False inline=False]"}
  negate.218 = f64[20]{0} negate(Arg_0.215), metadata={op_name="jit(scan)/jit(main)/while/body/jit(beliefs_propagation)/jit(binary_state_node_prediction)/neg" source_file="/fs04/fc37/adam/projects/psilocybin-prl-analyses/src/prl_hgf/fitting/hierarchical_patrl.py" source_line=362}
  exponential.219 = f64[20]{0} exponential(negate.218), metadata={op_name="jit(scan)/jit(main)/while/body/jit(beliefs_propagation)/jit(binary_state_node_prediction)/exp" source_file="/fs04/fc37/adam/projects/psilocybin-prl-analyses/src/prl_hgf/fitting/hierarchical_patrl.py" source_line=362}
  add.220 = f64[20]{0} add(exponential.219, broadcast.217), metadata={op_name="jit(scan)/jit(main)/while/body/jit(beliefs_propagation)/jit(binary_state_node_prediction)/add" source_file="/fs04/fc37/adam/projects/psilocybin-prl-analyses/src/prl_hgf/fitting/hierarchical_patrl.py" source_line=362}
  divide.221 = f64[20]{0} divide(broadcast.217, add.220), metadata={op_name="jit(scan)/jit(main)/while/body/jit(beliefs_propagation)/jit(binary_state_node_prediction)/div" source_file="/fs04/fc37/adam/projects/psilocybin-prl-analyses/src/prl_hgf/fitting/hierarchical_patrl.py" source_line=362}
  subtract.222 = f64[20]{0} subtract(broadcast.217, divide.221), metadata={op_name="jit(scan)/jit(main)/while/body/jit(beliefs_propagation)/jit(binary_state_node_prediction)/sub" source_file="/fs04/fc37/adam/projects/psilocybin-prl-analyses/src/prl_hgf/fitting/hierarchical_patrl.py" source_line=362}
  multiply.223 = f64[20]{0} multiply(divide.221, subtract.222), metadata={op_name="jit(scan)/jit(main)/while/body/jit(beliefs_propagation)/jit(binary_state_node_prediction)/mul" source_file="/fs04/fc37/adam/projects/psilocybin-prl-analyses/src/prl_hgf/fitting/hierarchical_patrl.py" source_line=362}
  subtract.224 = f64[20]{0} subtract(broadcast.217, divide.221), metadata={op_name="jit(scan)/jit(main)/while/body/jit(beliefs_propagation)/jit(binary_state_node_prediction)/sub" source_file="/fs04/fc37/adam/projects/psilocybin-prl-analyses/src/prl_hgf/fitting/hierarchical_patrl.py" source_line=362}
  multiply.225 = f64[20]{0} multiply(divide.221, subtract.224), metadata={op_name="jit(scan)/jit(main)/while/body/jit(beliefs_propagation)/jit(binary_state_node_prediction)/mul" source_file="/fs04/fc37/adam/projects/psilocybin-prl-analyses/src/prl_hgf/fitting/hierarchical_patrl.py" source_line=362}
  ROOT tuple.226 = (f64[20]{0}, f64[20]{0}, f64[20]{0}, f64[20]{0}) tuple(divide.221, multiply.223, multiply.225, subtract.222)
} // binary_state_node_prediction.214

integer_pow_8.227 {
  constant.229 = f64[] constant(1)
  broadcast.230 = f64[20]{0} broadcast(constant.229), dimensions={}
  Arg_0.228 = f64[20]{0} parameter(0), metadata={op_name="jit(scan)/jit(main)/while/body/jit(beliefs_propagation)/jit(binary_state_node_prediction_error)/integer_pow[y=-2]"}
  multiply.231 = f64[20]{0} multiply(Arg_0.228, Arg_0.228), metadata={op_name="jit(scan)/jit(main)/while/body/jit(beliefs_propagation)/jit(binary_state_node_prediction_error)/mul" source_file="/fs04/fc37/adam/projects/psilocybin-prl-analyses/src/prl_hgf/fitting/hierarchical_patrl.py" source_line=362}
  ROOT divide.232 = f64[20]{0} divide(broadcast.230, multiply.231), metadata={op_name="jit(scan)/jit(main)/while/body/jit(beliefs_propagation)/jit(binary_state_node_prediction_error)/div" source_file="/fs04/fc37/adam/projects/psilocybin-prl-analyses/src/prl_hgf/fitting/hierarchical_patrl.py" source_line=362}
}

binary_state_node_prediction_error.233 {
  Arg_2.236 = f64[20]{0} parameter(2), metadata={op_name="jit(scan)/jit(main)/while/body/jit(beliefs_propagation)/pjit[in_shardings=(UnspecifiedValue, UnspecifiedValue, UnspecifiedValue, UnspecifiedValue) out_shardings=(UnspecifiedValue, UnspecifiedValue, UnspecifiedValue, UnspecifiedValue) in_layouts=(None, None, None, None) out_layouts=(None, None, None, None) resource_env=None donated_invars=(False, False, False, False) name=binary_state_node_prediction_error keep_unused=False inline=False]"}
  Arg_0.234 = f64[20]{0} parameter(0), metadata={op_name="jit(scan)/jit(main)/while/body/jit(beliefs_propagation)/pjit[in_shardings=(UnspecifiedValue, UnspecifiedValue, UnspecifiedValue, UnspecifiedValue) out_shardings=(UnspecifiedValue, UnspecifiedValue, UnspecifiedValue, UnspecifiedValue) in_layouts=(None, None, None, None) out_layouts=(None, None, None, None) resource_env=None donated_invars=(False, False, False, False) name=binary_state_node_prediction_error keep_unused=False inline=False]"}
  subtract.238 = f64[20]{0} subtract(Arg_2.236, Arg_0.234), metadata={op_name="jit(scan)/jit(main)/while/body/jit(beliefs_propagation)/jit(binary_state_node_prediction_error)/sub" source_file="/fs04/fc37/adam/projects/psilocybin-prl-analyses/src/prl_hgf/fitting/hierarchical_patrl.py" source_line=362}
  Arg_3.237 = s32[] parameter(3), metadata={op_name="jit(scan)/jit(main)/while/body/jit(beliefs_propagation)/pjit[in_shardings=(UnspecifiedValue, UnspecifiedValue, UnspecifiedValue, UnspecifiedValue) out_shardings=(UnspecifiedValue, UnspecifiedValue, UnspecifiedValue, UnspecifiedValue) in_layouts=(None, None, None, None) out_layouts=(None, None, None, None) resource_env=None donated_invars=(False, False, False, False) name=binary_state_node_prediction_error keep_unused=False inline=False]"}
  convert.239 = f64[] convert(Arg_3.237), metadata={op_name="jit(scan)/jit(main)/while/body/jit(beliefs_propagation)/jit(binary_state_node_prediction_error)/convert_element_type[new_dtype=float64 weak_type=False sharding=None]" source_file="/fs04/fc37/adam/projects/psilocybin-prl-analyses/src/prl_hgf/fitting/hierarchical_patrl.py" source_line=362}
  broadcast.240 = f64[20]{0} broadcast(convert.239), dimensions={}, metadata={op_name="jit(scan)/jit(main)/while/body/jit(beliefs_propagation)/jit(binary_state_node_prediction_error)/mul" source_file="/fs04/fc37/adam/projects/psilocybin-prl-analyses/src/prl_hgf/fitting/hierarchical_patrl.py" source_line=362}
  multiply.241 = f64[20]{0} multiply(subtract.238, broadcast.240), metadata={op_name="jit(scan)/jit(main)/while/body/jit(beliefs_propagation)/jit(binary_state_node_prediction_error)/mul" source_file="/fs04/fc37/adam/projects/psilocybin-prl-analyses/src/prl_hgf/fitting/hierarchical_patrl.py" source_line=362}
  Arg_1.235 = f64[20]{0} parameter(1), metadata={op_name="jit(scan)/jit(main)/while/body/jit(beliefs_propagation)/pjit[in_shardings=(UnspecifiedValue, UnspecifiedValue, UnspecifiedValue, UnspecifiedValue) out_shardings=(UnspecifiedValue, UnspecifiedValue, UnspecifiedValue, UnspecifiedValue) in_layouts=(None, None, None, None) out_layouts=(None, None, None, None) resource_env=None donated_invars=(False, False, False, False) name=binary_state_node_prediction_error keep_unused=False inline=False]"}
  divide.242 = f64[20]{0} divide(multiply.241, Arg_1.235), metadata={op_name="jit(scan)/jit(main)/while/body/jit(beliefs_propagation)/jit(binary_state_node_prediction_error)/div" source_file="/fs04/fc37/adam/projects/psilocybin-prl-analyses/src/prl_hgf/fitting/hierarchical_patrl.py" source_line=362}
  call.243 = f64[20]{0} call(Arg_1.235), to_apply=integer_pow_8.227
  ROOT tuple.244 = (f64[20]{0}, f64[], f64[20]{0}, f64[20]{0}) tuple(divide.242, convert.239, multiply.241, call.243)
} // binary_state_node_prediction_error.233

region_1.245 {
  Arg_0.246 = pred[] parameter(0), metadata={op_name="jit(scan)/jit(main)/while/body/jit(beliefs_propagation)/jit(continuous_node_posterior_update)/jit(posterior_update_precision_continuous_node)/reduce_or[axes=(0,)]"}
  Arg_1.247 = pred[] parameter(1), metadata={op_name="jit(scan)/jit(main)/while/body/jit(beliefs_propagation)/jit(continuous_node_posterior_update)/jit(posterior_update_precision_continuous_node)/reduce_or[axes=(0,)]"}
  ROOT or.248 = pred[] or(Arg_0.246, Arg_1.247), metadata={op_name="jit(scan)/jit(main)/while/body/jit(beliefs_propagation)/jit(continuous_node_posterior_update)/jit(posterior_update_precision_continuous_node)/reduce_or[axes=(0,)]" source_file="/fs04/fc37/adam/projects/psilocybin-prl-analyses/src/prl_hgf/fitting/hierarchical_patrl.py" source_line=362}
}

integer_pow_9.249 {
  constant.251 = f64[] constant(1)
  broadcast.252 = f64[20]{0} broadcast(constant.251), dimensions={}
  Arg_0.250 = f64[20]{0} parameter(0), metadata={op_name="jit(scan)/jit(main)/while/body/jit(beliefs_propagation)/jit(continuous_node_posterior_update)/jit(posterior_update_precision_continuous_node)/cond/branch_0_fun/jit(precision_update_missing_values)/integer_pow[y=-2]"}
  multiply.253 = f64[20]{0} multiply(Arg_0.250, Arg_0.250), metadata={op_name="jit(scan)/jit(main)/while/body/jit(beliefs_propagation)/jit(continuous_node_posterior_update)/jit(posterior_update_precision_continuous_node)/cond/branch_0_fun/jit(precision_update_missing_values)/mul" source_file="/fs04/fc37/adam/projects/psilocybin-prl-analyses/src/prl_hgf/fitting/hierarchical_patrl.py" source_line=362}
  ROOT divide.254 = f64[20]{0} divide(broadcast.252, multiply.253), metadata={op_name="jit(scan)/jit(main)/while/body/jit(beliefs_propagation)/jit(continuous_node_posterior_update)/jit(posterior_update_precision_continuous_node)/cond/branch_0_fun/jit(precision_update_missing_values)/div" source_file="/fs04/fc37/adam/projects/psilocybin-prl-analyses/src/prl_hgf/fitting/hierarchical_patrl.py" source_line=362}
}

integer_pow_10.255 {
  constant.257 = f64[] constant(1)
  broadcast.258 = f64[20]{0} broadcast(constant.257), dimensions={}
  Arg_0.256 = f64[20]{0} parameter(0), metadata={op_name="jit(scan)/jit(main)/while/body/jit(beliefs_propagation)/jit(continuous_node_posterior_update)/jit(posterior_update_precision_continuous_node)/cond/branch_0_fun/jit(precision_update_missing_values)/integer_pow[y=-2]"}
  multiply.259 = f64[20]{0} multiply(Arg_0.256, Arg_0.256), metadata={op_name="jit(scan)/jit(main)/while/body/jit(beliefs_propagation)/jit(continuous_node_posterior_update)/jit(posterior_update_precision_continuous_node)/cond/branch_0_fun/jit(precision_update_missing_values)/mul" source_file="/fs04/fc37/adam/projects/psilocybin-prl-analyses/src/prl_hgf/fitting/hierarchical_patrl.py" source_line=362}
  ROOT divide.260 = f64[20]{0} divide(broadcast.258, multiply.259), metadata={op_name="jit(scan)/jit(main)/while/body/jit(beliefs_propagation)/jit(continuous_node_posterior_update)/jit(posterior_update_precision_continuous_node)/cond/branch_0_fun/jit(precision_update_missing_values)/div" source_file="/fs04/fc37/adam/projects/psilocybin-prl-analyses/src/prl_hgf/fitting/hierarchical_patrl.py" source_line=362}
}

precision_update_missing_values.261 {
  constant.267 = f64[] constant(1)
  broadcast.268 = f64[20]{0} broadcast(constant.267), dimensions={}
  Arg_1.263 = f64[20]{0} parameter(1), metadata={op_name="jit(scan)/jit(main)/while/body/jit(beliefs_propagation)/jit(continuous_node_posterior_update)/jit(posterior_update_precision_continuous_node)/cond/branch_0_fun/pjit[in_shardings=(UnspecifiedValue, UnspecifiedValue, UnspecifiedValue, UnspecifiedValue, UnspecifiedValue) out_shardings=(UnspecifiedValue, UnspecifiedValue, UnspecifiedValue, UnspecifiedValue, UnspecifiedValue) in_layouts=(None, None, None, None, None) out_layouts=(None, None, None, None, None) resource_env=None donated_invars=(False, False, False, False, False) name=precision_update_missing_values keep_unused=False inline=False]"}
  divide.275 = f64[20]{0} divide(broadcast.268, Arg_1.263), metadata={op_name="jit(scan)/jit(main)/while/body/jit(beliefs_propagation)/jit(continuous_node_posterior_update)/jit(posterior_update_precision_continuous_node)/cond/branch_0_fun/jit(precision_update_missing_values)/div" source_file="/fs04/fc37/adam/projects/psilocybin-prl-analyses/src/prl_hgf/fitting/hierarchical_patrl.py" source_line=362}
  Arg_0.262 = f64[] parameter(0), metadata={op_name="jit(scan)/jit(main)/while/body/jit(beliefs_propagation)/jit(continuous_node_posterior_update)/jit(posterior_update_precision_continuous_node)/cond/branch_0_fun/pjit[in_shardings=(UnspecifiedValue, UnspecifiedValue, UnspecifiedValue, UnspecifiedValue, UnspecifiedValue) out_shardings=(UnspecifiedValue, UnspecifiedValue, UnspecifiedValue, UnspecifiedValue, UnspecifiedValue) in_layouts=(None, None, None, None, None) out_layouts=(None, None, None, None, None) resource_env=None donated_invars=(False, False, False, False, False) name=precision_update_missing_values keep_unused=False inline=False]"}
  broadcast.273 = f64[20]{0} broadcast(Arg_0.262), dimensions={}, metadata={op_name="jit(scan)/jit(main)/while/body/jit(beliefs_propagation)/jit(continuous_node_posterior_update)/jit(posterior_update_precision_continuous_node)/cond/branch_0_fun/jit(precision_update_missing_values)/mul" source_file="/fs04/fc37/adam/projects/psilocybin-prl-analyses/src/prl_hgf/fitting/hierarchical_patrl.py" source_line=362}
  Arg_2.264 = f64[20]{0} parameter(2), metadata={op_name="jit(scan)/jit(main)/while/body/jit(beliefs_propagation)/jit(continuous_node_posterior_update)/jit(posterior_update_precision_continuous_node)/cond/branch_0_fun/pjit[in_shardings=(UnspecifiedValue, UnspecifiedValue, UnspecifiedValue, UnspecifiedValue, UnspecifiedValue) out_shardings=(UnspecifiedValue, UnspecifiedValue, UnspecifiedValue, UnspecifiedValue, UnspecifiedValue) in_layouts=(None, None, None, None, None) out_layouts=(None, None, None, None, None) resource_env=None donated_invars=(False, False, False, False, False) name=precision_update_missing_values keep_unused=False inline=False]"}
  Arg_3.265 = f64[20,1]{1,0} parameter(3), metadata={op_name="jit(scan)/jit(main)/while/body/jit(beliefs_propagation)/jit(continuous_node_posterior_update)/jit(posterior_update_precision_continuous_node)/cond/branch_0_fun/pjit[in_shardings=(UnspecifiedValue, UnspecifiedValue, UnspecifiedValue, UnspecifiedValue, UnspecifiedValue) out_shardings=(UnspecifiedValue, UnspecifiedValue, UnspecifiedValue, UnspecifiedValue, UnspecifiedValue) in_layouts=(None, None, None, None, None) out_layouts=(None, None, None, None, None) resource_env=None donated_invars=(False, False, False, False, False) name=precision_update_missing_values keep_unused=False inline=False]"}
  reshape.269 = f64[20]{0} reshape(Arg_3.265), metadata={op_name="jit(scan)/jit(main)/while/body/jit(beliefs_propagation)/jit(continuous_node_posterior_update)/jit(posterior_update_precision_continuous_node)/cond/branch_0_fun/jit(precision_update_missing_values)/squeeze[dimensions=(1,)]" source_file="/fs04/fc37/adam/projects/psilocybin-prl-analyses/src/prl_hgf/fitting/hierarchical_patrl.py" source_line=362}
  Arg_4.266 = f64[20]{0} parameter(4), metadata={op_name="jit(scan)/jit(main)/while/body/jit(beliefs_propagation)/jit(continuous_node_posterior_update)/jit(posterior_update_precision_continuous_node)/cond/branch_0_fun/pjit[in_shardings=(UnspecifiedValue, UnspecifiedValue, UnspecifiedValue, UnspecifiedValue, UnspecifiedValue) out_shardings=(UnspecifiedValue, UnspecifiedValue, UnspecifiedValue, UnspecifiedValue, UnspecifiedValue) in_layouts=(None, None, None, None, None) out_layouts=(None, None, None, None, None) resource_env=None donated_invars=(False, False, False, False, False) name=precision_update_missing_values keep_unused=False inline=False]"}
  multiply.270 = f64[20]{0} multiply(reshape.269, Arg_4.266), metadata={op_name="jit(scan)/jit(main)/while/body/jit(beliefs_propagation)/jit(continuous_node_posterior_update)/jit(posterior_update_precision_continuous_node)/cond/branch_0_fun/jit(precision_update_missing_values)/mul" source_file="/fs04/fc37/adam/projects/psilocybin-prl-analyses/src/prl_hgf/fitting/hierarchical_patrl.py" source_line=362}
  add.271 = f64[20]{0} add(Arg_2.264, multiply.270), metadata={op_name="jit(scan)/jit(main)/while/body/jit(beliefs_propagation)/jit(continuous_node_posterior_update)/jit(posterior_update_precision_continuous_node)/cond/branch_0_fun/jit(precision_update_missing_values)/add" source_file="/fs04/fc37/adam/projects/psilocybin-prl-analyses/src/prl_hgf/fitting/hierarchical_patrl.py" source_line=362}
  exponential.272 = f64[20]{0} exponential(add.271), metadata={op_name="jit(scan)/jit(main)/while/body/jit(beliefs_propagation)/jit(continuous_node_posterior_update)/jit(posterior_update_precision_continuous_node)/cond/branch_0_fun/jit(precision_update_missing_values)/exp" source_file="/fs04/fc37/adam/projects/psilocybin-prl-analyses/src/prl_hgf/fitting/hierarchical_patrl.py" source_line=362}
  multiply.274 = f64[20]{0} multiply(broadcast.273, exponential.272), metadata={op_name="jit(scan)/jit(main)/while/body/jit(beliefs_propagation)/jit(continuous_node_posterior_update)/jit(posterior_update_precision_continuous_node)/cond/branch_0_fun/jit(precision_update_missing_values)/mul" source_file="/fs04/fc37/adam/projects/psilocybin-prl-analyses/src/prl_hgf/fitting/hierarchical_patrl.py" source_line=362}
  add.277 = f64[20]{0} add(divide.275, multiply.274), metadata={op_name="jit(scan)/jit(main)/while/body/jit(beliefs_propagation)/jit(continuous_node_posterior_update)/jit(posterior_update_precision_continuous_node)/cond/branch_0_fun/jit(precision_update_missing_values)/add" source_file="/fs04/fc37/adam/projects/psilocybin-prl-analyses/src/prl_hgf/fitting/hierarchical_patrl.py" source_line=362}
  divide.278 = f64[20]{0} divide(broadcast.268, add.277), metadata={op_name="jit(scan)/jit(main)/while/body/jit(beliefs_propagation)/jit(continuous_node_posterior_update)/jit(posterior_update_precision_continuous_node)/cond/branch_0_fun/jit(precision_update_missing_values)/div" source_file="/fs04/fc37/adam/projects/psilocybin-prl-analyses/src/prl_hgf/fitting/hierarchical_patrl.py" source_line=362}
  call.276 = f64[20]{0} call(Arg_1.263), to_apply=integer_pow_9.249
  call.279 = f64[20]{0} call(add.277), to_apply=integer_pow_10.255
  ROOT tuple.280 = (f64[20]{0}, f64[20]{0}, f64[20]{0}, f64[20]{0}, f64[20]{0}) tuple(divide.278, call.276, reshape.269, exponential.272, call.279)
} // precision_update_missing_values.261

region_2.281 {
  arg_tuple.282 = (f64[], f64[20]{0}, f64[20]{0}, f64[20,1]{1,0}, f64[20]{0}) parameter(0)
  get-tuple-element.283 = f64[] get-tuple-element(arg_tuple.282), index=0
  get-tuple-element.284 = f64[20]{0} get-tuple-element(arg_tuple.282), index=1
  get-tuple-element.285 = f64[20]{0} get-tuple-element(arg_tuple.282), index=2
  get-tuple-element.286 = f64[20,1]{1,0} get-tuple-element(arg_tuple.282), index=3
  get-tuple-element.287 = f64[20]{0} get-tuple-element(arg_tuple.282), index=4
  call.290 = (f64[20]{0}, f64[20]{0}, f64[20]{0}, f64[20]{0}, f64[20]{0}) call(get-tuple-element.283, get-tuple-element.284, get-tuple-element.285, get-tuple-element.286, get-tuple-element.287), to_apply=precision_update_missing_values.261
  get-tuple-element.291 = f64[20]{0} get-tuple-element(call.290), index=0
  get-tuple-element.292 = f64[20]{0} get-tuple-element(call.290), index=1
  get-tuple-element.293 = f64[20]{0} get-tuple-element(call.290), index=2
  get-tuple-element.294 = f64[20]{0} get-tuple-element(call.290), index=3
  get-tuple-element.295 = f64[20]{0} get-tuple-element(call.290), index=4
  constant.288 = pred[] constant(false)
  broadcast.289 = pred[20]{0} broadcast(constant.288), dimensions={}
  ROOT tuple.296 = (f64[20]{0}, f64[20]{0}, f64[], f64[20]{0}, f64[20]{0}, /*index=5*/f64[20]{0}, pred[20]{0}) tuple(get-tuple-element.291, get-tuple-element.292, get-tuple-element.283, get-tuple-element.293, get-tuple-element.294, /*index=5*/get-tuple-element.295, broadcast.289)
} // region_2.281

_where_11.297 {
  Arg_0.298 = pred[20]{0} parameter(0), metadata={op_name="jit(scan)/jit(main)/while/body/jit(beliefs_propagation)/jit(continuous_node_posterior_update)/jit(posterior_update_precision_continuous_node)/cond/branch_1_fun/jit(precision_update)/pjit[in_shardings=(UnspecifiedValue, UnspecifiedValue, UnspecifiedValue) out_shardings=(UnspecifiedValue, UnspecifiedValue) in_layouts=(None, None, None) out_layouts=(None, None) resource_env=None donated_invars=(False, False, False) name=_where keep_unused=False inline=False]"}
  Arg_1.299 = f64[20]{0} parameter(1), metadata={op_name="jit(scan)/jit(main)/while/body/jit(beliefs_propagation)/jit(continuous_node_posterior_update)/jit(posterior_update_precision_continuous_node)/cond/branch_1_fun/jit(precision_update)/pjit[in_shardings=(UnspecifiedValue, UnspecifiedValue, UnspecifiedValue) out_shardings=(UnspecifiedValue, UnspecifiedValue) in_layouts=(None, None, None) out_layouts=(None, None) resource_env=None donated_invars=(False, False, False) name=_where keep_unused=False inline=False]"}
  Arg_2.300 = f64[] parameter(2), metadata={op_name="jit(scan)/jit(main)/while/body/jit(beliefs_propagation)/jit(continuous_node_posterior_update)/jit(posterior_update_precision_continuous_node)/cond/branch_1_fun/jit(precision_update)/pjit[in_shardings=(UnspecifiedValue, UnspecifiedValue, UnspecifiedValue) out_shardings=(UnspecifiedValue, UnspecifiedValue) in_layouts=(None, None, None) out_layouts=(None, None) resource_env=None donated_invars=(False, False, False) name=_where keep_unused=False inline=False]"}
  broadcast.303 = f64[20]{0} broadcast(Arg_2.300), dimensions={}, metadata={op_name="jit(scan)/jit(main)/while/body/jit(beliefs_propagation)/jit(continuous_node_posterior_update)/jit(posterior_update_precision_continuous_node)/cond/branch_1_fun/jit(precision_update)/jit(_where)/broadcast_in_dim[shape=(20,) broadcast_dimensions=()]" source_file="/fs04/fc37/adam/projects/psilocybin-prl-analyses/src/prl_hgf/env/pat_rl_simulator.py" source_line=92}
  select.304 = f64[20]{0} select(Arg_0.298, Arg_1.299, broadcast.303), metadata={op_name="jit(scan)/jit(main)/while/body/jit(beliefs_propagation)/jit(continuous_node_posterior_update)/jit(posterior_update_precision_continuous_node)/cond/branch_1_fun/jit(precision_update)/jit(_where)/select_n" source_file="/fs04/fc37/adam/projects/psilocybin-prl-analyses/src/prl_hgf/env/pat_rl_simulator.py" source_line=92}
  constant.301 = f64[] constant(0)
  broadcast.302 = f64[20]{0} broadcast(constant.301), dimensions={}
  ROOT tuple.305 = (f64[20]{0}, f64[20]{0}) tuple(select.304, broadcast.302)
} // _where_11.297

precision_update.306 {
  Arg_2.309 = f64[20]{0} parameter(2), metadata={op_name="jit(scan)/jit(main)/while/body/jit(beliefs_propagation)/jit(continuous_node_posterior_update)/jit(posterior_update_precision_continuous_node)/cond/branch_1_fun/pjit[in_shardings=(UnspecifiedValue, UnspecifiedValue, UnspecifiedValue, UnspecifiedValue) out_shardings=(UnspecifiedValue, UnspecifiedValue, UnspecifiedValue, UnspecifiedValue, UnspecifiedValue) in_layouts=(None, None, None, None) out_layouts=(None, None, None, None, None) resource_env=None donated_invars=(False, False, False, False) name=precision_update keep_unused=False inline=False]"}
  Arg_3.310 = f64[20,1]{1,0} parameter(3), metadata={op_name="jit(scan)/jit(main)/while/body/jit(beliefs_propagation)/jit(continuous_node_posterior_update)/jit(posterior_update_precision_continuous_node)/cond/branch_1_fun/pjit[in_shardings=(UnspecifiedValue, UnspecifiedValue, UnspecifiedValue, UnspecifiedValue) out_shardings=(UnspecifiedValue, UnspecifiedValue, UnspecifiedValue, UnspecifiedValue, UnspecifiedValue) in_layouts=(None, None, None, None) out_layouts=(None, None, None, None, None) resource_env=None donated_invars=(False, False, False, False) name=precision_update keep_unused=False inline=False]"}
  reshape.316 = f64[20]{0} reshape(Arg_3.310), metadata={op_name="jit(scan)/jit(main)/while/body/jit(beliefs_propagation)/jit(continuous_node_posterior_update)/jit(posterior_update_precision_continuous_node)/cond/branch_1_fun/jit(precision_update)/squeeze[dimensions=(1,)]" source_file="/fs04/fc37/adam/projects/psilocybin-prl-analyses/src/prl_hgf/fitting/hierarchical_patrl.py" source_line=362}
  multiply.317 = f64[20]{0} multiply(reshape.316, reshape.316), metadata={op_name="jit(scan)/jit(main)/while/body/jit(beliefs_propagation)/jit(continuous_node_posterior_update)/jit(posterior_update_precision_continuous_node)/cond/branch_1_fun/jit(precision_update)/integer_pow[y=2]" source_file="/fs04/fc37/adam/projects/psilocybin-prl-analyses/src/prl_hgf/fitting/hierarchical_patrl.py" source_line=362}
  Arg_0.307 = f64[20]{0} parameter(0), metadata={op_name="jit(scan)/jit(main)/while/body/jit(beliefs_propagation)/jit(continuous_node_posterior_update)/jit(posterior_update_precision_continuous_node)/cond/branch_1_fun/pjit[in_shardings=(UnspecifiedValue, UnspecifiedValue, UnspecifiedValue, UnspecifiedValue) out_shardings=(UnspecifiedValue, UnspecifiedValue, UnspecifiedValue, UnspecifiedValue, UnspecifiedValue) in_layouts=(None, None, None, None) out_layouts=(None, None, None, None, None) resource_env=None donated_invars=(False, False, False, False) name=precision_update keep_unused=False inline=False]"}
  multiply.318 = f64[20]{0} multiply(multiply.317, Arg_0.307), metadata={op_name="jit(scan)/jit(main)/while/body/jit(beliefs_propagation)/jit(continuous_node_posterior_update)/jit(posterior_update_precision_continuous_node)/cond/branch_1_fun/jit(precision_update)/mul" source_file="/fs04/fc37/adam/projects/psilocybin-prl-analyses/src/prl_hgf/fitting/hierarchical_patrl.py" source_line=362}
  constant.313 = f64[] constant(0)
  broadcast.314 = f64[20]{0} broadcast(constant.313), dimensions={}
  subtract.319 = f64[20]{0} subtract(multiply.318, broadcast.314), metadata={op_name="jit(scan)/jit(main)/while/body/jit(beliefs_propagation)/jit(continuous_node_posterior_update)/jit(posterior_update_precision_continuous_node)/cond/branch_1_fun/jit(precision_update)/sub" source_file="/fs04/fc37/adam/projects/psilocybin-prl-analyses/src/prl_hgf/fitting/hierarchical_patrl.py" source_line=362}
  Arg_1.308 = s32[] parameter(1), metadata={op_name="jit(scan)/jit(main)/while/body/jit(beliefs_propagation)/jit(continuous_node_posterior_update)/jit(posterior_update_precision_continuous_node)/cond/branch_1_fun/pjit[in_shardings=(UnspecifiedValue, UnspecifiedValue, UnspecifiedValue, UnspecifiedValue) out_shardings=(UnspecifiedValue, UnspecifiedValue, UnspecifiedValue, UnspecifiedValue, UnspecifiedValue) in_layouts=(None, None, None, None) out_layouts=(None, None, None, None, None) resource_env=None donated_invars=(False, False, False, False) name=precision_update keep_unused=False inline=False]"}
  convert.320 = f64[] convert(Arg_1.308), metadata={op_name="jit(scan)/jit(main)/while/body/jit(beliefs_propagation)/jit(continuous_node_posterior_update)/jit(posterior_update_precision_continuous_node)/cond/branch_1_fun/jit(precision_update)/convert_element_type[new_dtype=float64 weak_type=False sharding=None]" source_file="/fs04/fc37/adam/projects/psilocybin-prl-analyses/src/prl_hgf/fitting/hierarchical_patrl.py" source_line=362}
  broadcast.321 = f64[20]{0} broadcast(convert.320), dimensions={}, metadata={op_name="jit(scan)/jit(main)/while/body/jit(beliefs_propagation)/jit(continuous_node_posterior_update)/jit(posterior_update_precision_continuous_node)/cond/branch_1_fun/jit(precision_update)/mul" source_file="/fs04/fc37/adam/projects/psilocybin-prl-analyses/src/prl_hgf/fitting/hierarchical_patrl.py" source_line=362}
  multiply.322 = f64[20]{0} multiply(subtract.319, broadcast.321), metadata={op_name="jit(scan)/jit(main)/while/body/jit(beliefs_propagation)/jit(continuous_node_posterior_update)/jit(posterior_update_precision_continuous_node)/cond/branch_1_fun/jit(precision_update)/mul" source_file="/fs04/fc37/adam/projects/psilocybin-prl-analyses/src/prl_hgf/fitting/hierarchical_patrl.py" source_line=362}
  add.323 = f64[20]{0} add(Arg_2.309, multiply.322), metadata={op_name="jit(scan)/jit(main)/while/body/jit(beliefs_propagation)/jit(continuous_node_posterior_update)/jit(posterior_update_precision_continuous_node)/cond/branch_1_fun/jit(precision_update)/add" source_file="/fs04/fc37/adam/projects/psilocybin-prl-analyses/src/prl_hgf/fitting/hierarchical_patrl.py" source_line=362}
  constant.311 = f64[] constant(1e-128)
  broadcast.312 = f64[20]{0} broadcast(constant.311), dimensions={}
  compare.324 = pred[20]{0} compare(add.323, broadcast.312), direction=GT, metadata={op_name="jit(scan)/jit(main)/while/body/jit(beliefs_propagation)/jit(continuous_node_posterior_update)/jit(posterior_update_precision_continuous_node)/cond/branch_1_fun/jit(precision_update)/gt" source_file="/fs04/fc37/adam/projects/psilocybin-prl-analyses/src/prl_hgf/fitting/hierarchical_patrl.py" source_line=362}
  constant.315 = f64[] constant(nan)
  call.325 = (f64[20]{0}, f64[20]{0}) call(compare.324, add.323, constant.315), to_apply=_where_11.297
  get-tuple-element.326 = f64[20]{0} get-tuple-element(call.325), index=0
  get-tuple-element.327 = f64[20]{0} get-tuple-element(call.325), index=1
  ROOT tuple.328 = (f64[20]{0}, f64[20]{0}, f64[], pred[20]{0}, f64[20]{0}) tuple(get-tuple-element.326, multiply.317, convert.320, compare.324, get-tuple-element.327)
} // precision_update.306

region_3.329 {
  arg_tuple.330 = (f64[20]{0}, s32[], f64[20]{0}, f64[20,1]{1,0}) parameter(0)
  get-tuple-element.331 = f64[20]{0} get-tuple-element(arg_tuple.330), index=0
  get-tuple-element.332 = s32[] get-tuple-element(arg_tuple.330), index=1
  get-tuple-element.333 = f64[20]{0} get-tuple-element(arg_tuple.330), index=2
  get-tuple-element.334 = f64[20,1]{1,0} get-tuple-element(arg_tuple.330), index=3
  call.337 = (f64[20]{0}, f64[20]{0}, f64[], pred[20]{0}, f64[20]{0}) call(get-tuple-element.331, get-tuple-element.332, get-tuple-element.333, get-tuple-element.334), to_apply=precision_update.306
  get-tuple-element.338 = f64[20]{0} get-tuple-element(call.337), index=0
  constant.335 = f64[] constant(0)
  broadcast.336 = f64[20]{0} broadcast(constant.335), dimensions={}
  get-tuple-element.340 = f64[] get-tuple-element(call.337), index=2
  get-tuple-element.339 = f64[20]{0} get-tuple-element(call.337), index=1
  get-tuple-element.342 = f64[20]{0} get-tuple-element(call.337), index=4
  get-tuple-element.341 = pred[20]{0} get-tuple-element(call.337), index=3
  ROOT tuple.343 = (f64[20]{0}, f64[20]{0}, f64[], f64[20]{0}, f64[20]{0}, /*index=5*/f64[20]{0}, pred[20]{0}) tuple(get-tuple-element.338, broadcast.336, get-tuple-element.340, get-tuple-element.339, get-tuple-element.342, /*index=5*/broadcast.336, get-tuple-element.341)
} // region_3.329

posterior_update_precision_continuous_node.344 {
  Arg_2.347 = s32[] parameter(2), metadata={op_name="jit(scan)/jit(main)/while/body/jit(beliefs_propagation)/jit(continuous_node_posterior_update)/pjit[in_shardings=(UnspecifiedValue, UnspecifiedValue, UnspecifiedValue, UnspecifiedValue, UnspecifiedValue, UnspecifiedValue, UnspecifiedValue, UnspecifiedValue, UnspecifiedValue) out_shardings=(UnspecifiedValue, UnspecifiedValue, UnspecifiedValue, UnspecifiedValue, UnspecifiedValue, UnspecifiedValue, UnspecifiedValue, UnspecifiedValue) in_layouts=(None, None, None, None, None, None, None, None, None) out_layouts=(None, None, None, None, None, None, None, None) resource_env=None donated_invars=(False, False, False, False, False, False, False, False, False) name=posterior_update_precision_continuous_node keep_unused=False inline=False]"}
  reshape.356 = s32[1]{0} reshape(Arg_2.347), metadata={op_name="jit(scan)/jit(main)/while/body/jit(beliefs_propagation)/jit(continuous_node_posterior_update)/jit(posterior_update_precision_continuous_node)/broadcast_in_dim[shape=(1,) broadcast_dimensions=()]" source_file="/fs04/fc37/adam/projects/psilocybin-prl-analyses/src/prl_hgf/fitting/hierarchical_patrl.py" source_line=362}
  constant.354 = s32[1]{0} constant({0})
  compare.357 = pred[1]{0} compare(reshape.356, constant.354), direction=NE, metadata={op_name="jit(scan)/jit(main)/while/body/jit(beliefs_propagation)/jit(continuous_node_posterior_update)/jit(posterior_update_precision_continuous_node)/convert_element_type[new_dtype=bool weak_type=False sharding=None]" source_file="/fs04/fc37/adam/projects/psilocybin-prl-analyses/src/prl_hgf/fitting/hierarchical_patrl.py" source_line=362}
  constant.355 = pred[] constant(false)
  reduce.358 = pred[] reduce(compare.357, constant.355), dimensions={0}, to_apply=region_1.245, metadata={op_name="jit(scan)/jit(main)/while/body/jit(beliefs_propagation)/jit(continuous_node_posterior_update)/jit(posterior_update_precision_continuous_node)/reduce_or[axes=(0,)]" source_file="/fs04/fc37/adam/projects/psilocybin-prl-analyses/src/prl_hgf/fitting/hierarchical_patrl.py" source_line=362}
  convert.359 = s32[] convert(reduce.358), metadata={op_name="jit(scan)/jit(main)/while/body/jit(beliefs_propagation)/jit(continuous_node_posterior_update)/jit(posterior_update_precision_continuous_node)/convert_element_type[new_dtype=int32 weak_type=False sharding=None]" source_file="/fs04/fc37/adam/projects/psilocybin-prl-analyses/src/prl_hgf/fitting/hierarchical_patrl.py" source_line=362}
  Arg_0.345 = f64[] parameter(0), metadata={op_name="jit(scan)/jit(main)/while/body/jit(beliefs_propagation)/jit(continuous_node_posterior_update)/pjit[in_shardings=(UnspecifiedValue, UnspecifiedValue, UnspecifiedValue, UnspecifiedValue, UnspecifiedValue, UnspecifiedValue, UnspecifiedValue, UnspecifiedValue, UnspecifiedValue) out_shardings=(UnspecifiedValue, UnspecifiedValue, UnspecifiedValue, UnspecifiedValue, UnspecifiedValue, UnspecifiedValue, UnspecifiedValue, UnspecifiedValue) in_layouts=(None, None, None, None, None, None, None, None, None) out_layouts=(None, None, None, None, None, None, None, None) resource_env=None donated_invars=(False, False, False, False, False, False, False, False, False) name=posterior_update_precision_continuous_node keep_unused=False inline=False]"}
  Arg_4.349 = f64[20]{0} parameter(4), metadata={op_name="jit(scan)/jit(main)/while/body/jit(beliefs_propagation)/jit(continuous_node_posterior_update)/pjit[in_shardings=(UnspecifiedValue, UnspecifiedValue, UnspecifiedValue, UnspecifiedValue, UnspecifiedValue, UnspecifiedValue, UnspecifiedValue, UnspecifiedValue, UnspecifiedValue) out_shardings=(UnspecifiedValue, UnspecifiedValue, UnspecifiedValue, UnspecifiedValue, UnspecifiedValue, UnspecifiedValue, UnspecifiedValue, UnspecifiedValue) in_layouts=(None, None, None, None, None, None, None, None, None) out_layouts=(None, None, None, None, None, None, None, None) resource_env=None donated_invars=(False, False, False, False, False, False, False, False, False) name=posterior_update_precision_continuous_node keep_unused=False inline=False]"}
  Arg_5.350 = f64[20]{0} parameter(5), metadata={op_name="jit(scan)/jit(main)/while/body/jit(beliefs_propagation)/jit(continuous_node_posterior_update)/pjit[in_shardings=(UnspecifiedValue, UnspecifiedValue, UnspecifiedValue, UnspecifiedValue, UnspecifiedValue, UnspecifiedValue, UnspecifiedValue, UnspecifiedValue, UnspecifiedValue) out_shardings=(UnspecifiedValue, UnspecifiedValue, UnspecifiedValue, UnspecifiedValue, UnspecifiedValue, UnspecifiedValue, UnspecifiedValue, UnspecifiedValue) in_layouts=(None, None, None, None, None, None, None, None, None) out_layouts=(None, None, None, None, None, None, None, None) resource_env=None donated_invars=(False, False, False, False, False, False, False, False, False) name=posterior_update_precision_continuous_node keep_unused=False inline=False]"}
  Arg_7.352 = f64[20,1]{1,0} parameter(7), metadata={op_name="jit(scan)/jit(main)/while/body/jit(beliefs_propagation)/jit(continuous_node_posterior_update)/pjit[in_shardings=(UnspecifiedValue, UnspecifiedValue, UnspecifiedValue, UnspecifiedValue, UnspecifiedValue, UnspecifiedValue, UnspecifiedValue, UnspecifiedValue, UnspecifiedValue) out_shardings=(UnspecifiedValue, UnspecifiedValue, UnspecifiedValue, UnspecifiedValue, UnspecifiedValue, UnspecifiedValue, UnspecifiedValue, UnspecifiedValue) in_layouts=(None, None, None, None, None, None, None, None, None) out_layouts=(None, None, None, None, None, None, None, None) resource_env=None donated_invars=(False, False, False, False, False, False, False, False, False) name=posterior_update_precision_continuous_node keep_unused=False inline=False]"}
  Arg_8.353 = f64[20]{0} parameter(8), metadata={op_name="jit(scan)/jit(main)/while/body/jit(beliefs_propagation)/jit(continuous_node_posterior_update)/pjit[in_shardings=(UnspecifiedValue, UnspecifiedValue, UnspecifiedValue, UnspecifiedValue, UnspecifiedValue, UnspecifiedValue, UnspecifiedValue, UnspecifiedValue, UnspecifiedValue) out_shardings=(UnspecifiedValue, UnspecifiedValue, UnspecifiedValue, UnspecifiedValue, UnspecifiedValue, UnspecifiedValue, UnspecifiedValue, UnspecifiedValue) in_layouts=(None, None, None, None, None, None, None, None, None) out_layouts=(None, None, None, None, None, None, None, None) resource_env=None donated_invars=(False, False, False, False, False, False, False, False, False) name=posterior_update_precision_continuous_node keep_unused=False inline=False]"}
  tuple.360 = (f64[], f64[20]{0}, f64[20]{0}, f64[20,1]{1,0}, f64[20]{0}) tuple(Arg_0.345, Arg_4.349, Arg_5.350, Arg_7.352, Arg_8.353), metadata={op_name="jit(scan)/jit(main)/while/body/jit(beliefs_propagation)/jit(continuous_node_posterior_update)/jit(posterior_update_precision_continuous_node)/cond" source_file="/fs04/fc37/adam/projects/psilocybin-prl-analyses/src/prl_hgf/fitting/hierarchical_patrl.py" source_line=362}
  Arg_1.346 = f64[20]{0} parameter(1), metadata={op_name="jit(scan)/jit(main)/while/body/jit(beliefs_propagation)/jit(continuous_node_posterior_update)/pjit[in_shardings=(UnspecifiedValue, UnspecifiedValue, UnspecifiedValue, UnspecifiedValue, UnspecifiedValue, UnspecifiedValue, UnspecifiedValue, UnspecifiedValue, UnspecifiedValue) out_shardings=(UnspecifiedValue, UnspecifiedValue, UnspecifiedValue, UnspecifiedValue, UnspecifiedValue, UnspecifiedValue, UnspecifiedValue, UnspecifiedValue) in_layouts=(None, None, None, None, None, None, None, None, None) out_layouts=(None, None, None, None, None, None, None, None) resource_env=None donated_invars=(False, False, False, False, False, False, False, False, False) name=posterior_update_precision_continuous_node keep_unused=False inline=False]"}
  Arg_3.348 = f64[20]{0} parameter(3), metadata={op_name="jit(scan)/jit(main)/while/body/jit(beliefs_propagation)/jit(continuous_node_posterior_update)/pjit[in_shardings=(UnspecifiedValue, UnspecifiedValue, UnspecifiedValue, UnspecifiedValue, UnspecifiedValue, UnspecifiedValue, UnspecifiedValue, UnspecifiedValue, UnspecifiedValue) out_shardings=(UnspecifiedValue, UnspecifiedValue, UnspecifiedValue, UnspecifiedValue, UnspecifiedValue, UnspecifiedValue, UnspecifiedValue, UnspecifiedValue) in_layouts=(None, None, None, None, None, None, None, None, None) out_layouts=(None, None, None, None, None, None, None, None) resource_env=None donated_invars=(False, False, False, False, False, False, False, False, False) name=posterior_update_precision_continuous_node keep_unused=False inline=False]"}
  Arg_6.351 = f64[20,1]{1,0} parameter(6), metadata={op_name="jit(scan)/jit(main)/while/body/jit(beliefs_propagation)/jit(continuous_node_posterior_update)/pjit[in_shardings=(UnspecifiedValue, UnspecifiedValue, UnspecifiedValue, UnspecifiedValue, UnspecifiedValue, UnspecifiedValue, UnspecifiedValue, UnspecifiedValue, UnspecifiedValue) out_shardings=(UnspecifiedValue, UnspecifiedValue, UnspecifiedValue, UnspecifiedValue, UnspecifiedValue, UnspecifiedValue, UnspecifiedValue, UnspecifiedValue) in_layouts=(None, None, None, None, None, None, None, None, None) out_layouts=(None, None, None, None, None, None, None, None) resource_env=None donated_invars=(False, False, False, False, False, False, False, False, False) name=posterior_update_precision_continuous_node keep_unused=False inline=False]"}
  tuple.361 = (f64[20]{0}, s32[], f64[20]{0}, f64[20,1]{1,0}) tuple(Arg_1.346, Arg_2.347, Arg_3.348, Arg_6.351), metadata={op_name="jit(scan)/jit(main)/while/body/jit(beliefs_propagation)/jit(continuous_node_posterior_update)/jit(posterior_update_precision_continuous_node)/cond" source_file="/fs04/fc37/adam/projects/psilocybin-prl-analyses/src/prl_hgf/fitting/hierarchical_patrl.py" source_line=362}
  conditional.362 = (f64[20]{0}, f64[20]{0}, f64[], f64[20]{0}, f64[20]{0}, /*index=5*/f64[20]{0}, pred[20]{0}) conditional(convert.359, tuple.360, tuple.361), branch_computations={region_2.281, region_3.329}, metadata={op_name="jit(scan)/jit(main)/while/body/jit(beliefs_propagation)/jit(continuous_node_posterior_update)/jit(posterior_update_precision_continuous_node)/cond" source_file="/fs04/fc37/adam/projects/psilocybin-prl-analyses/src/prl_hgf/fitting/hierarchical_patrl.py" source_line=362}
  get-tuple-element.363 = f64[20]{0} get-tuple-element(conditional.362), index=0, metadata={op_name="jit(scan)/jit(main)/while/body/jit(beliefs_propagation)/jit(continuous_node_posterior_update)/jit(posterior_update_precision_continuous_node)/cond" source_file="/fs04/fc37/adam/projects/psilocybin-prl-analyses/src/prl_hgf/fitting/hierarchical_patrl.py" source_line=362}
  get-tuple-element.364 = f64[20]{0} get-tuple-element(conditional.362), index=1, metadata={op_name="jit(scan)/jit(main)/while/body/jit(beliefs_propagation)/jit(continuous_node_posterior_update)/jit(posterior_update_precision_continuous_node)/cond" source_file="/fs04/fc37/adam/projects/psilocybin-prl-analyses/src/prl_hgf/fitting/hierarchical_patrl.py" source_line=362}
  get-tuple-element.365 = f64[] get-tuple-element(conditional.362), index=2, metadata={op_name="jit(scan)/jit(main)/while/body/jit(beliefs_propagation)/jit(continuous_node_posterior_update)/jit(posterior_update_precision_continuous_node)/cond" source_file="/fs04/fc37/adam/projects/psilocybin-prl-analyses/src/prl_hgf/fitting/hierarchical_patrl.py" source_line=362}
  get-tuple-element.366 = f64[20]{0} get-tuple-element(conditional.362), index=3, metadata={op_name="jit(scan)/jit(main)/while/body/jit(beliefs_propagation)/jit(continuous_node_posterior_update)/jit(posterior_update_precision_continuous_node)/cond" source_file="/fs04/fc37/adam/projects/psilocybin-prl-analyses/src/prl_hgf/fitting/hierarchical_patrl.py" source_line=362}
  get-tuple-element.367 = f64[20]{0} get-tuple-element(conditional.362), index=4, metadata={op_name="jit(scan)/jit(main)/while/body/jit(beliefs_propagation)/jit(continuous_node_posterior_update)/jit(posterior_update_precision_continuous_node)/cond" source_file="/fs04/fc37/adam/projects/psilocybin-prl-analyses/src/prl_hgf/fitting/hierarchical_patrl.py" source_line=362}
  get-tuple-element.368 = f64[20]{0} get-tuple-element(conditional.362), index=5, metadata={op_name="jit(scan)/jit(main)/while/body/jit(beliefs_propagation)/jit(continuous_node_posterior_update)/jit(posterior_update_precision_continuous_node)/cond" source_file="/fs04/fc37/adam/projects/psilocybin-prl-analyses/src/prl_hgf/fitting/hierarchical_patrl.py" source_line=362}
  get-tuple-element.369 = pred[20]{0} get-tuple-element(conditional.362), index=6, metadata={op_name="jit(scan)/jit(main)/while/body/jit(beliefs_propagation)/jit(continuous_node_posterior_update)/jit(posterior_update_precision_continuous_node)/cond" source_file="/fs04/fc37/adam/projects/psilocybin-prl-analyses/src/prl_hgf/fitting/hierarchical_patrl.py" source_line=362}
  ROOT tuple.370 = (f64[20]{0}, s32[], f64[20]{0}, f64[], f64[20]{0}, /*index=5*/f64[20]{0}, f64[20]{0}, pred[20]{0}) tuple(get-tuple-element.363, convert.359, get-tuple-element.364, get-tuple-element.365, get-tuple-element.366, /*index=5*/get-tuple-element.367, get-tuple-element.368, get-tuple-element.369)
} // posterior_update_precision_continuous_node.344

integer_pow_12.371 {
  constant.373 = f64[] constant(1)
  broadcast.374 = f64[20]{0} broadcast(constant.373), dimensions={}
  Arg_0.372 = f64[20]{0} parameter(0), metadata={op_name="jit(scan)/jit(main)/while/body/jit(beliefs_propagation)/jit(continuous_node_posterior_update)/jit(posterior_update_mean_continuous_node)/integer_pow[y=-2]"}
  multiply.375 = f64[20]{0} multiply(Arg_0.372, Arg_0.372), metadata={op_name="jit(scan)/jit(main)/while/body/jit(beliefs_propagation)/jit(continuous_node_posterior_update)/jit(posterior_update_mean_continuous_node)/mul" source_file="/fs04/fc37/adam/projects/psilocybin-prl-analyses/src/prl_hgf/fitting/hierarchical_patrl.py" source_line=362}
  ROOT divide.376 = f64[20]{0} divide(broadcast.374, multiply.375), metadata={op_name="jit(scan)/jit(main)/while/body/jit(beliefs_propagation)/jit(continuous_node_posterior_update)/jit(posterior_update_mean_continuous_node)/div" source_file="/fs04/fc37/adam/projects/psilocybin-prl-analyses/src/prl_hgf/fitting/hierarchical_patrl.py" source_line=362}
}

posterior_update_mean_continuous_node.377 {
  Arg_3.381 = f64[20]{0} parameter(3), metadata={op_name="jit(scan)/jit(main)/while/body/jit(beliefs_propagation)/jit(continuous_node_posterior_update)/pjit[in_shardings=(UnspecifiedValue, UnspecifiedValue, UnspecifiedValue, UnspecifiedValue, UnspecifiedValue, UnspecifiedValue) out_shardings=(UnspecifiedValue, UnspecifiedValue, UnspecifiedValue, UnspecifiedValue, UnspecifiedValue, UnspecifiedValue, UnspecifiedValue) in_layouts=(None, None, None, None, None, None) out_layouts=(None, None, None, None, None, None, None) resource_env=None donated_invars=(False, False, False, False, False, False) name=posterior_update_mean_continuous_node keep_unused=False inline=False]"}
  Arg_4.382 = f64[20,1]{1,0} parameter(4), metadata={op_name="jit(scan)/jit(main)/while/body/jit(beliefs_propagation)/jit(continuous_node_posterior_update)/pjit[in_shardings=(UnspecifiedValue, UnspecifiedValue, UnspecifiedValue, UnspecifiedValue, UnspecifiedValue, UnspecifiedValue) out_shardings=(UnspecifiedValue, UnspecifiedValue, UnspecifiedValue, UnspecifiedValue, UnspecifiedValue, UnspecifiedValue, UnspecifiedValue) in_layouts=(None, None, None, None, None, None) out_layouts=(None, None, None, None, None, None, None) resource_env=None donated_invars=(False, False, False, False, False, False) name=posterior_update_mean_continuous_node keep_unused=False inline=False]"}
  reshape.384 = f64[20]{0} reshape(Arg_4.382), metadata={op_name="jit(scan)/jit(main)/while/body/jit(beliefs_propagation)/jit(continuous_node_posterior_update)/jit(posterior_update_mean_continuous_node)/squeeze[dimensions=(1,)]" source_file="/fs04/fc37/adam/projects/psilocybin-prl-analyses/src/prl_hgf/fitting/hierarchical_patrl.py" source_line=362}
  Arg_0.378 = f64[20]{0} parameter(0), metadata={op_name="jit(scan)/jit(main)/while/body/jit(beliefs_propagation)/jit(continuous_node_posterior_update)/pjit[in_shardings=(UnspecifiedValue, UnspecifiedValue, UnspecifiedValue, UnspecifiedValue, UnspecifiedValue, UnspecifiedValue) out_shardings=(UnspecifiedValue, UnspecifiedValue, UnspecifiedValue, UnspecifiedValue, UnspecifiedValue, UnspecifiedValue, UnspecifiedValue) in_layouts=(None, None, None, None, None, None) out_layouts=(None, None, None, None, None, None, None) resource_env=None donated_invars=(False, False, False, False, False, False) name=posterior_update_mean_continuous_node keep_unused=False inline=False]"}
  multiply.385 = f64[20]{0} multiply(reshape.384, Arg_0.378), metadata={op_name="jit(scan)/jit(main)/while/body/jit(beliefs_propagation)/jit(continuous_node_posterior_update)/jit(posterior_update_mean_continuous_node)/mul" source_file="/fs04/fc37/adam/projects/psilocybin-prl-analyses/src/prl_hgf/fitting/hierarchical_patrl.py" source_line=362}
  Arg_5.383 = f64[20]{0} parameter(5), metadata={op_name="jit(scan)/jit(main)/while/body/jit(beliefs_propagation)/jit(continuous_node_posterior_update)/pjit[in_shardings=(UnspecifiedValue, UnspecifiedValue, UnspecifiedValue, UnspecifiedValue, UnspecifiedValue, UnspecifiedValue) out_shardings=(UnspecifiedValue, UnspecifiedValue, UnspecifiedValue, UnspecifiedValue, UnspecifiedValue, UnspecifiedValue, UnspecifiedValue) in_layouts=(None, None, None, None, None, None) out_layouts=(None, None, None, None, None, None, None) resource_env=None donated_invars=(False, False, False, False, False, False) name=posterior_update_mean_continuous_node keep_unused=False inline=False]"}
  divide.386 = f64[20]{0} divide(multiply.385, Arg_5.383), metadata={op_name="jit(scan)/jit(main)/while/body/jit(beliefs_propagation)/jit(continuous_node_posterior_update)/jit(posterior_update_mean_continuous_node)/div" source_file="/fs04/fc37/adam/projects/psilocybin-prl-analyses/src/prl_hgf/fitting/hierarchical_patrl.py" source_line=362}
  Arg_2.380 = f64[20]{0} parameter(2), metadata={op_name="jit(scan)/jit(main)/while/body/jit(beliefs_propagation)/jit(continuous_node_posterior_update)/pjit[in_shardings=(UnspecifiedValue, UnspecifiedValue, UnspecifiedValue, UnspecifiedValue, UnspecifiedValue, UnspecifiedValue) out_shardings=(UnspecifiedValue, UnspecifiedValue, UnspecifiedValue, UnspecifiedValue, UnspecifiedValue, UnspecifiedValue, UnspecifiedValue) in_layouts=(None, None, None, None, None, None) out_layouts=(None, None, None, None, None, None, None) resource_env=None donated_invars=(False, False, False, False, False, False) name=posterior_update_mean_continuous_node keep_unused=False inline=False]"}
  Arg_1.379 = s32[] parameter(1), metadata={op_name="jit(scan)/jit(main)/while/body/jit(beliefs_propagation)/jit(continuous_node_posterior_update)/pjit[in_shardings=(UnspecifiedValue, UnspecifiedValue, UnspecifiedValue, UnspecifiedValue, UnspecifiedValue, UnspecifiedValue) out_shardings=(UnspecifiedValue, UnspecifiedValue, UnspecifiedValue, UnspecifiedValue, UnspecifiedValue, UnspecifiedValue, UnspecifiedValue) in_layouts=(None, None, None, None, None, None) out_layouts=(None, None, None, None, None, None, None) resource_env=None donated_invars=(False, False, False, False, False, False) name=posterior_update_mean_continuous_node keep_unused=False inline=False]"}
  convert.387 = f64[] convert(Arg_1.379), metadata={op_name="jit(scan)/jit(main)/while/body/jit(beliefs_propagation)/jit(continuous_node_posterior_update)/jit(posterior_update_mean_continuous_node)/convert_element_type[new_dtype=float64 weak_type=False sharding=None]" source_file="/fs04/fc37/adam/projects/psilocybin-prl-analyses/src/prl_hgf/fitting/hierarchical_patrl.py" source_line=362}
  broadcast.388 = f64[20]{0} broadcast(convert.387), dimensions={}, metadata={op_name="jit(scan)/jit(main)/while/body/jit(beliefs_propagation)/jit(continuous_node_posterior_update)/jit(posterior_update_mean_continuous_node)/mul" source_file="/fs04/fc37/adam/projects/psilocybin-prl-analyses/src/prl_hgf/fitting/hierarchical_patrl.py" source_line=362}
  multiply.389 = f64[20]{0} multiply(Arg_2.380, broadcast.388), metadata={op_name="jit(scan)/jit(main)/while/body/jit(beliefs_propagation)/jit(continuous_node_posterior_update)/jit(posterior_update_mean_continuous_node)/mul" source_file="/fs04/fc37/adam/projects/psilocybin-prl-analyses/src/prl_hgf/fitting/hierarchical_patrl.py" source_line=362}
  multiply.390 = f64[20]{0} multiply(divide.386, multiply.389), metadata={op_name="jit(scan)/jit(main)/while/body/jit(beliefs_propagation)/jit(continuous_node_posterior_update)/jit(posterior_update_mean_continuous_node)/mul" source_file="/fs04/fc37/adam/projects/psilocybin-prl-analyses/src/prl_hgf/fitting/hierarchical_patrl.py" source_line=362}
  add.391 = f64[20]{0} add(Arg_3.381, multiply.390), metadata={op_name="jit(scan)/jit(main)/while/body/jit(beliefs_propagation)/jit(continuous_node_posterior_update)/jit(posterior_update_mean_continuous_node)/add" source_file="/fs04/fc37/adam/projects/psilocybin-prl-analyses/src/prl_hgf/fitting/hierarchical_patrl.py" source_line=362}
  call.392 = f64[20]{0} call(Arg_5.383), to_apply=integer_pow_12.371
  ROOT tuple.393 = (f64[20]{0}, f64[20]{0}, f64[20]{0}, f64[20]{0}, f64[20]{0}, /*index=5*/f64[20]{0}, f64[]) tuple(add.391, reshape.384, multiply.385, call.392, multiply.389, /*index=5*/divide.386, convert.387)
} // posterior_update_mean_continuous_node.377

continuous_node_posterior_update.394 {
  Arg_1.396 = f64[20]{0} parameter(1), metadata={op_name="jit(scan)/jit(main)/while/body/jit(beliefs_propagation)/pjit[in_shardings=(UnspecifiedValue, UnspecifiedValue, UnspecifiedValue, UnspecifiedValue, UnspecifiedValue, UnspecifiedValue, UnspecifiedValue, UnspecifiedValue, UnspecifiedValue, UnspecifiedValue, UnspecifiedValue) out_shardings=(UnspecifiedValue, UnspecifiedValue, UnspecifiedValue, UnspecifiedValue, UnspecifiedValue, UnspecifiedValue, UnspecifiedValue, UnspecifiedValue, UnspecifiedValue, UnspecifiedValue, UnspecifiedValue, UnspecifiedValue, UnspecifiedValue, UnspecifiedValue, UnspecifiedValue) in_layouts=(None, None, None, None, None, None, None, None, None, None, None) out_layouts=(None, None, None, None, None, None, None, None, None, None, None, None, None, None, None) resource_env=None donated_invars=(False, False, False, False, False, False, False, False, False, False, False) name=continuous_node_posterior_update keep_unused=False inline=False]"}
  Arg_2.397 = s32[] parameter(2), metadata={op_name="jit(scan)/jit(main)/while/body/jit(beliefs_propagation)/pjit[in_shardings=(UnspecifiedValue, UnspecifiedValue, UnspecifiedValue, UnspecifiedValue, UnspecifiedValue, UnspecifiedValue, UnspecifiedValue, UnspecifiedValue, UnspecifiedValue, UnspecifiedValue, UnspecifiedValue) out_shardings=(UnspecifiedValue, UnspecifiedValue, UnspecifiedValue, UnspecifiedValue, UnspecifiedValue, UnspecifiedValue, UnspecifiedValue, UnspecifiedValue, UnspecifiedValue, UnspecifiedValue, UnspecifiedValue, UnspecifiedValue, UnspecifiedValue, UnspecifiedValue, UnspecifiedValue) in_layouts=(None, None, None, None, None, None, None, None, None, None, None) out_layouts=(None, None, None, None, None, None, None, None, None, None, None, None, None, None, None) resource_env=None donated_invars=(False, False, False, False, False, False, False, False, False, False, False) name=continuous_node_posterior_update keep_unused=False inline=False]"}
  Arg_3.398 = f64[20]{0} parameter(3), metadata={op_name="jit(scan)/jit(main)/while/body/jit(beliefs_propagation)/pjit[in_shardings=(UnspecifiedValue, UnspecifiedValue, UnspecifiedValue, UnspecifiedValue, UnspecifiedValue, UnspecifiedValue, UnspecifiedValue, UnspecifiedValue, UnspecifiedValue, UnspecifiedValue, UnspecifiedValue) out_shardings=(UnspecifiedValue, UnspecifiedValue, UnspecifiedValue, UnspecifiedValue, UnspecifiedValue, UnspecifiedValue, UnspecifiedValue, UnspecifiedValue, UnspecifiedValue, UnspecifiedValue, UnspecifiedValue, UnspecifiedValue, UnspecifiedValue, UnspecifiedValue, UnspecifiedValue) in_layouts=(None, None, None, None, None, None, None, None, None, None, None) out_layouts=(None, None, None, None, None, None, None, None, None, None, None, None, None, None, None) resource_env=None donated_invars=(False, False, False, False, False, False, False, False, False, False, False) name=continuous_node_posterior_update keep_unused=False inline=False]"}
  Arg_4.399 = f64[20]{0} parameter(4), metadata={op_name="jit(scan)/jit(main)/while/body/jit(beliefs_propagation)/pjit[in_shardings=(UnspecifiedValue, UnspecifiedValue, UnspecifiedValue, UnspecifiedValue, UnspecifiedValue, UnspecifiedValue, UnspecifiedValue, UnspecifiedValue, UnspecifiedValue, UnspecifiedValue, UnspecifiedValue) out_shardings=(UnspecifiedValue, UnspecifiedValue, UnspecifiedValue, UnspecifiedValue, UnspecifiedValue, UnspecifiedValue, UnspecifiedValue, UnspecifiedValue, UnspecifiedValue, UnspecifiedValue, UnspecifiedValue, UnspecifiedValue, UnspecifiedValue, UnspecifiedValue, UnspecifiedValue) in_layouts=(None, None, None, None, None, None, None, None, None, None, None) out_layouts=(None, None, None, None, None, None, None, None, None, None, None, None, None, None, None) resource_env=None donated_invars=(False, False, False, False, False, False, False, False, False, False, False) name=continuous_node_posterior_update keep_unused=False inline=False]"}
  Arg_8.403 = f64[20,1]{1,0} parameter(8), metadata={op_name="jit(scan)/jit(main)/while/body/jit(beliefs_propagation)/pjit[in_shardings=(UnspecifiedValue, UnspecifiedValue, UnspecifiedValue, UnspecifiedValue, UnspecifiedValue, UnspecifiedValue, UnspecifiedValue, UnspecifiedValue, UnspecifiedValue, UnspecifiedValue, UnspecifiedValue) out_shardings=(UnspecifiedValue, UnspecifiedValue, UnspecifiedValue, UnspecifiedValue, UnspecifiedValue, UnspecifiedValue, UnspecifiedValue, UnspecifiedValue, UnspecifiedValue, UnspecifiedValue, UnspecifiedValue, UnspecifiedValue, UnspecifiedValue, UnspecifiedValue, UnspecifiedValue) in_layouts=(None, None, None, None, None, None, None, None, None, None, None) out_layouts=(None, None, None, None, None, None, None, None, None, None, None, None, None, None, None) resource_env=None donated_invars=(False, False, False, False, False, False, False, False, False, False, False) name=continuous_node_posterior_update keep_unused=False inline=False]"}
  Arg_0.395 = f64[] parameter(0), metadata={op_name="jit(scan)/jit(main)/while/body/jit(beliefs_propagation)/pjit[in_shardings=(UnspecifiedValue, UnspecifiedValue, UnspecifiedValue, UnspecifiedValue, UnspecifiedValue, UnspecifiedValue, UnspecifiedValue, UnspecifiedValue, UnspecifiedValue, UnspecifiedValue, UnspecifiedValue) out_shardings=(UnspecifiedValue, UnspecifiedValue, UnspecifiedValue, UnspecifiedValue, UnspecifiedValue, UnspecifiedValue, UnspecifiedValue, UnspecifiedValue, UnspecifiedValue, UnspecifiedValue, UnspecifiedValue, UnspecifiedValue, UnspecifiedValue, UnspecifiedValue, UnspecifiedValue) in_layouts=(None, None, None, None, None, None, None, None, None, None, None) out_layouts=(None, None, None, None, None, None, None, None, None, None, None, None, None, None, None) resource_env=None donated_invars=(False, False, False, False, False, False, False, False, False, False, False) name=continuous_node_posterior_update keep_unused=False inline=False]"}
  Arg_5.400 = f64[20]{0} parameter(5), metadata={op_name="jit(scan)/jit(main)/while/body/jit(beliefs_propagation)/pjit[in_shardings=(UnspecifiedValue, UnspecifiedValue, UnspecifiedValue, UnspecifiedValue, UnspecifiedValue, UnspecifiedValue, UnspecifiedValue, UnspecifiedValue, UnspecifiedValue, UnspecifiedValue, UnspecifiedValue) out_shardings=(UnspecifiedValue, UnspecifiedValue, UnspecifiedValue, UnspecifiedValue, UnspecifiedValue, UnspecifiedValue, UnspecifiedValue, UnspecifiedValue, UnspecifiedValue, UnspecifiedValue, UnspecifiedValue, UnspecifiedValue, UnspecifiedValue, UnspecifiedValue, UnspecifiedValue) in_layouts=(None, None, None, None, None, None, None, None, None, None, None) out_layouts=(None, None, None, None, None, None, None, None, None, None, None, None, None, None, None) resource_env=None donated_invars=(False, False, False, False, False, False, False, False, False, False, False) name=continuous_node_posterior_update keep_unused=False inline=False]"}
  Arg_6.401 = f64[20]{0} parameter(6), metadata={op_name="jit(scan)/jit(main)/while/body/jit(beliefs_propagation)/pjit[in_shardings=(UnspecifiedValue, UnspecifiedValue, UnspecifiedValue, UnspecifiedValue, UnspecifiedValue, UnspecifiedValue, UnspecifiedValue, UnspecifiedValue, UnspecifiedValue, UnspecifiedValue, UnspecifiedValue) out_shardings=(UnspecifiedValue, UnspecifiedValue, UnspecifiedValue, UnspecifiedValue, UnspecifiedValue, UnspecifiedValue, UnspecifiedValue, UnspecifiedValue, UnspecifiedValue, UnspecifiedValue, UnspecifiedValue, UnspecifiedValue, UnspecifiedValue, UnspecifiedValue, UnspecifiedValue) in_layouts=(None, None, None, None, None, None, None, None, None, None, None) out_layouts=(None, None, None, None, None, None, None, None, None, None, None, None, None, None, None) resource_env=None donated_invars=(False, False, False, False, False, False, False, False, False, False, False) name=continuous_node_posterior_update keep_unused=False inline=False]"}
  Arg_7.402 = f64[20]{0} parameter(7), metadata={op_name="jit(scan)/jit(main)/while/body/jit(beliefs_propagation)/pjit[in_shardings=(UnspecifiedValue, UnspecifiedValue, UnspecifiedValue, UnspecifiedValue, UnspecifiedValue, UnspecifiedValue, UnspecifiedValue, UnspecifiedValue, UnspecifiedValue, UnspecifiedValue, UnspecifiedValue) out_shardings=(UnspecifiedValue, UnspecifiedValue, UnspecifiedValue, UnspecifiedValue, UnspecifiedValue, UnspecifiedValue, UnspecifiedValue, UnspecifiedValue, UnspecifiedValue, UnspecifiedValue, UnspecifiedValue, UnspecifiedValue, UnspecifiedValue, UnspecifiedValue, UnspecifiedValue) in_layouts=(None, None, None, None, None, None, None, None, None, None, None) out_layouts=(None, None, None, None, None, None, None, None, None, None, None, None, None, None, None) resource_env=None donated_invars=(False, False, False, False, False, False, False, False, False, False, False) name=continuous_node_posterior_update keep_unused=False inline=False]"}
  Arg_9.404 = f64[20,1]{1,0} parameter(9), metadata={op_name="jit(scan)/jit(main)/while/body/jit(beliefs_propagation)/pjit[in_shardings=(UnspecifiedValue, UnspecifiedValue, UnspecifiedValue, UnspecifiedValue, UnspecifiedValue, UnspecifiedValue, UnspecifiedValue, UnspecifiedValue, UnspecifiedValue, UnspecifiedValue, UnspecifiedValue) out_shardings=(UnspecifiedValue, UnspecifiedValue, UnspecifiedValue, UnspecifiedValue, UnspecifiedValue, UnspecifiedValue, UnspecifiedValue, UnspecifiedValue, UnspecifiedValue, UnspecifiedValue, UnspecifiedValue, UnspecifiedValue, UnspecifiedValue, UnspecifiedValue, UnspecifiedValue) in_layouts=(None, None, None, None, None, None, None, None, None, None, None) out_layouts=(None, None, None, None, None, None, None, None, None, None, None, None, None, None, None) resource_env=None donated_invars=(False, False, False, False, False, False, False, False, False, False, False) name=continuous_node_posterior_update keep_unused=False inline=False]"}
  Arg_10.405 = f64[20]{0} parameter(10), metadata={op_name="jit(scan)/jit(main)/while/body/jit(beliefs_propagation)/pjit[in_shardings=(UnspecifiedValue, UnspecifiedValue, UnspecifiedValue, UnspecifiedValue, UnspecifiedValue, UnspecifiedValue, UnspecifiedValue, UnspecifiedValue, UnspecifiedValue, UnspecifiedValue, UnspecifiedValue) out_shardings=(UnspecifiedValue, UnspecifiedValue, UnspecifiedValue, UnspecifiedValue, UnspecifiedValue, UnspecifiedValue, UnspecifiedValue, UnspecifiedValue, UnspecifiedValue, UnspecifiedValue, UnspecifiedValue, UnspecifiedValue, UnspecifiedValue, UnspecifiedValue, UnspecifiedValue) in_layouts=(None, None, None, None, None, None, None, None, None, None, None) out_layouts=(None, None, None, None, None, None, None, None, None, None, None, None, None, None, None) resource_env=None donated_invars=(False, False, False, False, False, False, False, False, False, False, False) name=continuous_node_posterior_update keep_unused=False inline=False]"}
  call.406 = (f64[20]{0}, s32[], f64[20]{0}, f64[], f64[20]{0}, /*index=5*/f64[20]{0}, f64[20]{0}, pred[20]{0}) call(Arg_0.395, Arg_1.396, Arg_2.397, Arg_5.400, Arg_6.401, /*index=5*/Arg_7.402, Arg_8.403, Arg_9.404, Arg_10.405), to_apply=posterior_update_precision_continuous_node.344
  get-tuple-element.407 = f64[20]{0} get-tuple-element(call.406), index=0
  call.415 = (f64[20]{0}, f64[20]{0}, f64[20]{0}, f64[20]{0}, f64[20]{0}, /*index=5*/f64[20]{0}, f64[]) call(Arg_1.396, Arg_2.397, Arg_3.398, Arg_4.399, Arg_8.403, /*index=5*/get-tuple-element.407), to_apply=posterior_update_mean_continuous_node.377
  get-tuple-element.416 = f64[20]{0} get-tuple-element(call.415), index=0
  get-tuple-element.408 = s32[] get-tuple-element(call.406), index=1
  get-tuple-element.409 = f64[20]{0} get-tuple-element(call.406), index=2
  get-tuple-element.410 = f64[] get-tuple-element(call.406), index=3
  get-tuple-element.411 = f64[20]{0} get-tuple-element(call.406), index=4
  get-tuple-element.412 = f64[20]{0} get-tuple-element(call.406), index=5
  get-tuple-element.413 = f64[20]{0} get-tuple-element(call.406), index=6
  get-tuple-element.414 = pred[20]{0} get-tuple-element(call.406), index=7
  get-tuple-element.417 = f64[20]{0} get-tuple-element(call.415), index=1
  get-tuple-element.418 = f64[20]{0} get-tuple-element(call.415), index=2
  get-tuple-element.419 = f64[20]{0} get-tuple-element(call.415), index=3
  get-tuple-element.420 = f64[20]{0} get-tuple-element(call.415), index=4
  get-tuple-element.421 = f64[20]{0} get-tuple-element(call.415), index=5
  get-tuple-element.422 = f64[] get-tuple-element(call.415), index=6
  ROOT tuple.423 = (f64[20]{0}, f64[20]{0}, s32[], f64[20]{0}, f64[], /*index=5*/f64[20]{0}, f64[20]{0}, f64[20]{0}, pred[20]{0}, f64[20]{0}, /*index=10*/f64[20]{0}, f64[20]{0}, f64[20]{0}, f64[20]{0}, f64[]) tuple(get-tuple-element.416, get-tuple-element.407, get-tuple-element.408, get-tuple-element.409, get-tuple-element.410, /*index=5*/get-tuple-element.411, get-tuple-element.412, get-tuple-element.413, get-tuple-element.414, get-tuple-element.417, /*index=10*/get-tuple-element.418, get-tuple-element.419, get-tuple-element.420, get-tuple-element.421, get-tuple-element.422)
} // continuous_node_posterior_update.394

continuous_node_value_prediction_error.424 {
  Arg_1.426 = f64[20]{0} parameter(1), metadata={op_name="jit(scan)/jit(main)/while/body/jit(beliefs_propagation)/jit(continuous_node_prediction_error)/pjit[in_shardings=(UnspecifiedValue, UnspecifiedValue) out_shardings=(UnspecifiedValue,) in_layouts=(None, None) out_layouts=(None,) resource_env=None donated_invars=(False, False) name=continuous_node_value_prediction_error keep_unused=False inline=False]"}
  Arg_0.425 = f64[20]{0} parameter(0), metadata={op_name="jit(scan)/jit(main)/while/body/jit(beliefs_propagation)/jit(continuous_node_prediction_error)/pjit[in_shardings=(UnspecifiedValue, UnspecifiedValue) out_shardings=(UnspecifiedValue,) in_layouts=(None, None) out_layouts=(None,) resource_env=None donated_invars=(False, False) name=continuous_node_value_prediction_error keep_unused=False inline=False]"}
  ROOT subtract.427 = f64[20]{0} subtract(Arg_1.426, Arg_0.425), metadata={op_name="jit(scan)/jit(main)/while/body/jit(beliefs_propagation)/jit(continuous_node_prediction_error)/jit(continuous_node_value_prediction_error)/sub" source_file="/fs04/fc37/adam/projects/psilocybin-prl-analyses/src/prl_hgf/fitting/hierarchical_patrl.py" source_line=362}
}

integer_pow_13.428 {
  constant.430 = f64[] constant(1)
  broadcast.431 = f64[20]{0} broadcast(constant.430), dimensions={}
  Arg_0.429 = f64[20]{0} parameter(0), metadata={op_name="jit(scan)/jit(main)/while/body/jit(beliefs_propagation)/jit(continuous_node_prediction_error)/jit(continuous_node_volatility_prediction_error)/integer_pow[y=-2]"}
  multiply.432 = f64[20]{0} multiply(Arg_0.429, Arg_0.429), metadata={op_name="jit(scan)/jit(main)/while/body/jit(beliefs_propagation)/jit(continuous_node_prediction_error)/jit(continuous_node_volatility_prediction_error)/mul" source_file="/fs04/fc37/adam/projects/psilocybin-prl-analyses/src/prl_hgf/fitting/hierarchical_patrl.py" source_line=362}
  ROOT divide.433 = f64[20]{0} divide(broadcast.431, multiply.432), metadata={op_name="jit(scan)/jit(main)/while/body/jit(beliefs_propagation)/jit(continuous_node_prediction_error)/jit(continuous_node_volatility_prediction_error)/div" source_file="/fs04/fc37/adam/projects/psilocybin-prl-analyses/src/prl_hgf/fitting/hierarchical_patrl.py" source_line=362}
}

integer_pow_14.434 {
  ROOT Arg_0.435 = f64[20]{0} parameter(0), metadata={op_name="jit(scan)/jit(main)/while/body/jit(beliefs_propagation)/jit(continuous_node_prediction_error)/jit(continuous_node_volatility_prediction_error)/integer_pow[y=1]"}
}

continuous_node_volatility_prediction_error.436 {
  Arg_0.437 = f64[20]{0} parameter(0), metadata={op_name="jit(scan)/jit(main)/while/body/jit(beliefs_propagation)/jit(continuous_node_prediction_error)/pjit[in_shardings=(UnspecifiedValue, UnspecifiedValue, UnspecifiedValue) out_shardings=(UnspecifiedValue, UnspecifiedValue, UnspecifiedValue, UnspecifiedValue) in_layouts=(None, None, None) out_layouts=(None, None, None, None) resource_env=None donated_invars=(False, False, False) name=continuous_node_volatility_prediction_error keep_unused=False inline=False]"}
  Arg_1.438 = f64[20]{0} parameter(1), metadata={op_name="jit(scan)/jit(main)/while/body/jit(beliefs_propagation)/jit(continuous_node_prediction_error)/pjit[in_shardings=(UnspecifiedValue, UnspecifiedValue, UnspecifiedValue) out_shardings=(UnspecifiedValue, UnspecifiedValue, UnspecifiedValue, UnspecifiedValue) in_layouts=(None, None, None) out_layouts=(None, None, None, None) resource_env=None donated_invars=(False, False, False) name=continuous_node_volatility_prediction_error keep_unused=False inline=False]"}
  divide.444 = f64[20]{0} divide(Arg_0.437, Arg_1.438), metadata={op_name="jit(scan)/jit(main)/while/body/jit(beliefs_propagation)/jit(continuous_node_prediction_error)/jit(continuous_node_volatility_prediction_error)/div" source_file="/fs04/fc37/adam/projects/psilocybin-prl-analyses/src/prl_hgf/fitting/hierarchical_patrl.py" source_line=362}
  Arg_2.439 = f64[20]{0} parameter(2), metadata={op_name="jit(scan)/jit(main)/while/body/jit(beliefs_propagation)/jit(continuous_node_prediction_error)/pjit[in_shardings=(UnspecifiedValue, UnspecifiedValue, UnspecifiedValue) out_shardings=(UnspecifiedValue, UnspecifiedValue, UnspecifiedValue, UnspecifiedValue) in_layouts=(None, None, None) out_layouts=(None, None, None, None) resource_env=None donated_invars=(False, False, False) name=continuous_node_volatility_prediction_error keep_unused=False inline=False]"}
  multiply.445 = f64[20]{0} multiply(Arg_2.439, Arg_2.439), metadata={op_name="jit(scan)/jit(main)/while/body/jit(beliefs_propagation)/jit(continuous_node_prediction_error)/jit(continuous_node_volatility_prediction_error)/integer_pow[y=2]" source_file="/fs04/fc37/adam/projects/psilocybin-prl-analyses/src/prl_hgf/fitting/hierarchical_patrl.py" source_line=362}
  multiply.446 = f64[20]{0} multiply(Arg_0.437, multiply.445), metadata={op_name="jit(scan)/jit(main)/while/body/jit(beliefs_propagation)/jit(continuous_node_prediction_error)/jit(continuous_node_volatility_prediction_error)/mul" source_file="/fs04/fc37/adam/projects/psilocybin-prl-analyses/src/prl_hgf/fitting/hierarchical_patrl.py" source_line=362}
  add.447 = f64[20]{0} add(divide.444, multiply.446), metadata={op_name="jit(scan)/jit(main)/while/body/jit(beliefs_propagation)/jit(continuous_node_prediction_error)/jit(continuous_node_volatility_prediction_error)/add" source_file="/fs04/fc37/adam/projects/psilocybin-prl-analyses/src/prl_hgf/fitting/hierarchical_patrl.py" source_line=362}
  constant.442 = f64[] constant(1)
  broadcast.443 = f64[20]{0} broadcast(constant.442), dimensions={}
  subtract.448 = f64[20]{0} subtract(add.447, broadcast.443), metadata={op_name="jit(scan)/jit(main)/while/body/jit(beliefs_propagation)/jit(continuous_node_prediction_error)/jit(continuous_node_volatility_prediction_error)/sub" source_file="/fs04/fc37/adam/projects/psilocybin-prl-analyses/src/prl_hgf/fitting/hierarchical_patrl.py" source_line=362}
  divide.449 = f64[20]{0} divide(subtract.448, broadcast.443), metadata={op_name="jit(scan)/jit(main)/while/body/jit(beliefs_propagation)/jit(continuous_node_prediction_error)/jit(continuous_node_volatility_prediction_error)/div" source_file="/fs04/fc37/adam/projects/psilocybin-prl-analyses/src/prl_hgf/fitting/hierarchical_patrl.py" source_line=362}
  call.450 = f64[20]{0} call(Arg_1.438), to_apply=integer_pow_13.428
  call.451 = f64[20]{0} call(Arg_2.439), to_apply=integer_pow_14.434
  constant.440 = f64[] constant(2)
  broadcast.441 = f64[20]{0} broadcast(constant.440), dimensions={}
  multiply.452 = f64[20]{0} multiply(call.451, broadcast.441), metadata={op_name="jit(scan)/jit(main)/while/body/jit(beliefs_propagation)/jit(continuous_node_prediction_error)/jit(continuous_node_volatility_prediction_error)/mul" source_file="/fs04/fc37/adam/projects/psilocybin-prl-analyses/src/prl_hgf/fitting/hierarchical_patrl.py" source_line=362}
  ROOT tuple.453 = (f64[20]{0}, f64[20]{0}, f64[20]{0}, f64[20]{0}) tuple(divide.449, call.450, multiply.445, multiply.452)
} // continuous_node_volatility_prediction_error.436

continuous_node_prediction_error.454 {
  Arg_0.455 = f64[20]{0} parameter(0), metadata={op_name="jit(scan)/jit(main)/while/body/jit(beliefs_propagation)/pjit[in_shardings=(UnspecifiedValue, UnspecifiedValue, UnspecifiedValue, UnspecifiedValue) out_shardings=(UnspecifiedValue, UnspecifiedValue, UnspecifiedValue, UnspecifiedValue, UnspecifiedValue) in_layouts=(None, None, None, None) out_layouts=(None, None, None, None, None) resource_env=None donated_invars=(False, False, False, False) name=continuous_node_prediction_error keep_unused=False inline=False]"}
  Arg_2.457 = f64[20]{0} parameter(2), metadata={op_name="jit(scan)/jit(main)/while/body/jit(beliefs_propagation)/pjit[in_shardings=(UnspecifiedValue, UnspecifiedValue, UnspecifiedValue, UnspecifiedValue) out_shardings=(UnspecifiedValue, UnspecifiedValue, UnspecifiedValue, UnspecifiedValue, UnspecifiedValue) in_layouts=(None, None, None, None) out_layouts=(None, None, None, None, None) resource_env=None donated_invars=(False, False, False, False) name=continuous_node_prediction_error keep_unused=False inline=False]"}
  call.459 = f64[20]{0} call(Arg_0.455, Arg_2.457), to_apply=continuous_node_value_prediction_error.424
  Arg_1.456 = f64[20]{0} parameter(1), metadata={op_name="jit(scan)/jit(main)/while/body/jit(beliefs_propagation)/pjit[in_shardings=(UnspecifiedValue, UnspecifiedValue, UnspecifiedValue, UnspecifiedValue) out_shardings=(UnspecifiedValue, UnspecifiedValue, UnspecifiedValue, UnspecifiedValue, UnspecifiedValue) in_layouts=(None, None, None, None) out_layouts=(None, None, None, None, None) resource_env=None donated_invars=(False, False, False, False) name=continuous_node_prediction_error keep_unused=False inline=False]"}
  Arg_3.458 = f64[20]{0} parameter(3), metadata={op_name="jit(scan)/jit(main)/while/body/jit(beliefs_propagation)/pjit[in_shardings=(UnspecifiedValue, UnspecifiedValue, UnspecifiedValue, UnspecifiedValue) out_shardings=(UnspecifiedValue, UnspecifiedValue, UnspecifiedValue, UnspecifiedValue, UnspecifiedValue) in_layouts=(None, None, None, None) out_layouts=(None, None, None, None, None) resource_env=None donated_invars=(False, False, False, False) name=continuous_node_prediction_error keep_unused=False inline=False]"}
  call.460 = (f64[20]{0}, f64[20]{0}, f64[20]{0}, f64[20]{0}) call(Arg_1.456, Arg_3.458, call.459), to_apply=continuous_node_volatility_prediction_error.436
  get-tuple-element.461 = f64[20]{0} get-tuple-element(call.460), index=0
  get-tuple-element.462 = f64[20]{0} get-tuple-element(call.460), index=1
  get-tuple-element.463 = f64[20]{0} get-tuple-element(call.460), index=2
  get-tuple-element.464 = f64[20]{0} get-tuple-element(call.460), index=3
  ROOT tuple.465 = (f64[20]{0}, f64[20]{0}, f64[20]{0}, f64[20]{0}, f64[20]{0}) tuple(call.459, get-tuple-element.461, get-tuple-element.462, get-tuple-element.463, get-tuple-element.464)
} // continuous_node_prediction_error.454

integer_pow_16.466 {
  constant.468 = f64[] constant(1)
  broadcast.469 = f64[20]{0} broadcast(constant.468), dimensions={}
  Arg_0.467 = f64[20]{0} parameter(0), metadata={op_name="jit(scan)/jit(main)/while/body/jit(beliefs_propagation)/jit(continuous_node_posterior_update_ehgf)/jit(posterior_update_mean_continuous_node)/integer_pow[y=-2]"}
  multiply.470 = f64[20]{0} multiply(Arg_0.467, Arg_0.467), metadata={op_name="jit(scan)/jit(main)/while/body/jit(beliefs_propagation)/jit(continuous_node_posterior_update_ehgf)/jit(posterior_update_mean_continuous_node)/mul" source_file="/fs04/fc37/adam/projects/psilocybin-prl-analyses/src/prl_hgf/fitting/hierarchical_patrl.py" source_line=362}
  ROOT divide.471 = f64[20]{0} divide(broadcast.469, multiply.470), metadata={op_name="jit(scan)/jit(main)/while/body/jit(beliefs_propagation)/jit(continuous_node_posterior_update_ehgf)/jit(posterior_update_mean_continuous_node)/div" source_file="/fs04/fc37/adam/projects/psilocybin-prl-analyses/src/prl_hgf/fitting/hierarchical_patrl.py" source_line=362}
}

posterior_update_mean_continuous_node_15.472 {
  Arg_3.476 = f64[20]{0} parameter(3), metadata={op_name="jit(scan)/jit(main)/while/body/jit(beliefs_propagation)/jit(continuous_node_posterior_update_ehgf)/pjit[in_shardings=(UnspecifiedValue, UnspecifiedValue, UnspecifiedValue, UnspecifiedValue, UnspecifiedValue, UnspecifiedValue) out_shardings=(UnspecifiedValue, UnspecifiedValue, UnspecifiedValue, UnspecifiedValue, UnspecifiedValue, UnspecifiedValue, UnspecifiedValue) in_layouts=(None, None, None, None, None, None) out_layouts=(None, None, None, None, None, None, None) resource_env=None donated_invars=(False, False, False, False, False, False) name=posterior_update_mean_continuous_node keep_unused=False inline=False]"}
  Arg_4.477 = f64[20,1]{1,0} parameter(4), metadata={op_name="jit(scan)/jit(main)/while/body/jit(beliefs_propagation)/jit(continuous_node_posterior_update_ehgf)/pjit[in_shardings=(UnspecifiedValue, UnspecifiedValue, UnspecifiedValue, UnspecifiedValue, UnspecifiedValue, UnspecifiedValue) out_shardings=(UnspecifiedValue, UnspecifiedValue, UnspecifiedValue, UnspecifiedValue, UnspecifiedValue, UnspecifiedValue, UnspecifiedValue) in_layouts=(None, None, None, None, None, None) out_layouts=(None, None, None, None, None, None, None) resource_env=None donated_invars=(False, False, False, False, False, False) name=posterior_update_mean_continuous_node keep_unused=False inline=False]"}
  reshape.483 = f64[20]{0} reshape(Arg_4.477), metadata={op_name="jit(scan)/jit(main)/while/body/jit(beliefs_propagation)/jit(continuous_node_posterior_update_ehgf)/jit(posterior_update_mean_continuous_node)/squeeze[dimensions=(1,)]" source_file="/fs04/fc37/adam/projects/psilocybin-prl-analyses/src/prl_hgf/fitting/hierarchical_patrl.py" source_line=362}
  Arg_1.474 = f64[20]{0} parameter(1), metadata={op_name="jit(scan)/jit(main)/while/body/jit(beliefs_propagation)/jit(continuous_node_posterior_update_ehgf)/pjit[in_shardings=(UnspecifiedValue, UnspecifiedValue, UnspecifiedValue, UnspecifiedValue, UnspecifiedValue, UnspecifiedValue) out_shardings=(UnspecifiedValue, UnspecifiedValue, UnspecifiedValue, UnspecifiedValue, UnspecifiedValue, UnspecifiedValue, UnspecifiedValue) in_layouts=(None, None, None, None, None, None) out_layouts=(None, None, None, None, None, None, None) resource_env=None donated_invars=(False, False, False, False, False, False) name=posterior_update_mean_continuous_node keep_unused=False inline=False]"}
  multiply.484 = f64[20]{0} multiply(reshape.483, Arg_1.474), metadata={op_name="jit(scan)/jit(main)/while/body/jit(beliefs_propagation)/jit(continuous_node_posterior_update_ehgf)/jit(posterior_update_mean_continuous_node)/mul" source_file="/fs04/fc37/adam/projects/psilocybin-prl-analyses/src/prl_hgf/fitting/hierarchical_patrl.py" source_line=362}
  Arg_2.475 = f64[20]{0} parameter(2), metadata={op_name="jit(scan)/jit(main)/while/body/jit(beliefs_propagation)/jit(continuous_node_posterior_update_ehgf)/pjit[in_shardings=(UnspecifiedValue, UnspecifiedValue, UnspecifiedValue, UnspecifiedValue, UnspecifiedValue, UnspecifiedValue) out_shardings=(UnspecifiedValue, UnspecifiedValue, UnspecifiedValue, UnspecifiedValue, UnspecifiedValue, UnspecifiedValue, UnspecifiedValue) in_layouts=(None, None, None, None, None, None) out_layouts=(None, None, None, None, None, None, None) resource_env=None donated_invars=(False, False, False, False, False, False) name=posterior_update_mean_continuous_node keep_unused=False inline=False]"}
  multiply.485 = f64[20]{0} multiply(multiply.484, Arg_2.475), metadata={op_name="jit(scan)/jit(main)/while/body/jit(beliefs_propagation)/jit(continuous_node_posterior_update_ehgf)/jit(posterior_update_mean_continuous_node)/mul" source_file="/fs04/fc37/adam/projects/psilocybin-prl-analyses/src/prl_hgf/fitting/hierarchical_patrl.py" source_line=362}
  constant.479 = f64[] constant(1)
  broadcast.480 = f64[20]{0} broadcast(constant.479), dimensions={}
  Arg_5.478 = f64[20]{0} parameter(5), metadata={op_name="jit(scan)/jit(main)/while/body/jit(beliefs_propagation)/jit(continuous_node_posterior_update_ehgf)/pjit[in_shardings=(UnspecifiedValue, UnspecifiedValue, UnspecifiedValue, UnspecifiedValue, UnspecifiedValue, UnspecifiedValue) out_shardings=(UnspecifiedValue, UnspecifiedValue, UnspecifiedValue, UnspecifiedValue, UnspecifiedValue, UnspecifiedValue, UnspecifiedValue) in_layouts=(None, None, None, None, None, None) out_layouts=(None, None, None, None, None, None, None) resource_env=None donated_invars=(False, False, False, False, False, False) name=posterior_update_mean_continuous_node keep_unused=False inline=False]"}
  constant.481 = f64[] constant(2)
  broadcast.482 = f64[20]{0} broadcast(constant.481), dimensions={}
  multiply.486 = f64[20]{0} multiply(Arg_5.478, broadcast.482), metadata={op_name="jit(scan)/jit(main)/while/body/jit(beliefs_propagation)/jit(continuous_node_posterior_update_ehgf)/jit(posterior_update_mean_continuous_node)/mul" source_file="/fs04/fc37/adam/projects/psilocybin-prl-analyses/src/prl_hgf/fitting/hierarchical_patrl.py" source_line=362}
  divide.487 = f64[20]{0} divide(broadcast.480, multiply.486), metadata={op_name="jit(scan)/jit(main)/while/body/jit(beliefs_propagation)/jit(continuous_node_posterior_update_ehgf)/jit(posterior_update_mean_continuous_node)/div" source_file="/fs04/fc37/adam/projects/psilocybin-prl-analyses/src/prl_hgf/fitting/hierarchical_patrl.py" source_line=362}
  multiply.488 = f64[20]{0} multiply(multiply.485, divide.487), metadata={op_name="jit(scan)/jit(main)/while/body/jit(beliefs_propagation)/jit(continuous_node_posterior_update_ehgf)/jit(posterior_update_mean_continuous_node)/mul" source_file="/fs04/fc37/adam/projects/psilocybin-prl-analyses/src/prl_hgf/fitting/hierarchical_patrl.py" source_line=362}
  Arg_0.473 = s64[20]{0} parameter(0), metadata={op_name="jit(scan)/jit(main)/while/body/jit(beliefs_propagation)/jit(continuous_node_posterior_update_ehgf)/pjit[in_shardings=(UnspecifiedValue, UnspecifiedValue, UnspecifiedValue, UnspecifiedValue, UnspecifiedValue, UnspecifiedValue) out_shardings=(UnspecifiedValue, UnspecifiedValue, UnspecifiedValue, UnspecifiedValue, UnspecifiedValue, UnspecifiedValue, UnspecifiedValue) in_layouts=(None, None, None, None, None, None) out_layouts=(None, None, None, None, None, None, None) resource_env=None donated_invars=(False, False, False, False, False, False) name=posterior_update_mean_continuous_node keep_unused=False inline=False]"}
  convert.489 = f64[20]{0} convert(Arg_0.473), metadata={op_name="jit(scan)/jit(main)/while/body/jit(beliefs_propagation)/jit(continuous_node_posterior_update_ehgf)/jit(posterior_update_mean_continuous_node)/convert_element_type[new_dtype=float64 weak_type=False sharding=None]" source_file="/fs04/fc37/adam/projects/psilocybin-prl-analyses/src/prl_hgf/fitting/hierarchical_patrl.py" source_line=362}
  multiply.490 = f64[20]{0} multiply(multiply.488, convert.489), metadata={op_name="jit(scan)/jit(main)/while/body/jit(beliefs_propagation)/jit(continuous_node_posterior_update_ehgf)/jit(posterior_update_mean_continuous_node)/mul" source_file="/fs04/fc37/adam/projects/psilocybin-prl-analyses/src/prl_hgf/fitting/hierarchical_patrl.py" source_line=362}
  add.491 = f64[20]{0} add(Arg_3.476, multiply.490), metadata={op_name="jit(scan)/jit(main)/while/body/jit(beliefs_propagation)/jit(continuous_node_posterior_update_ehgf)/jit(posterior_update_mean_continuous_node)/add" source_file="/fs04/fc37/adam/projects/psilocybin-prl-analyses/src/prl_hgf/fitting/hierarchical_patrl.py" source_line=362}
  call.492 = f64[20]{0} call(multiply.486), to_apply=integer_pow_16.466
  ROOT tuple.493 = (f64[20]{0}, f64[20]{0}, f64[20]{0}, f64[20]{0}, f64[20]{0}, /*index=5*/f64[20]{0}, f64[20]{0}) tuple(add.491, reshape.483, multiply.484, divide.487, multiply.485, /*index=5*/call.492, convert.489)
} // posterior_update_mean_continuous_node_15.472

region_4.494 {
  Arg_0.495 = pred[] parameter(0), metadata={op_name="jit(scan)/jit(main)/while/body/jit(beliefs_propagation)/jit(continuous_node_posterior_update_ehgf)/jit(posterior_update_precision_continuous_node)/reduce_or[axes=(np.int64(1),)]"}
  Arg_1.496 = pred[] parameter(1), metadata={op_name="jit(scan)/jit(main)/while/body/jit(beliefs_propagation)/jit(continuous_node_posterior_update_ehgf)/jit(posterior_update_precision_continuous_node)/reduce_or[axes=(np.int64(1),)]"}
  ROOT or.497 = pred[] or(Arg_0.495, Arg_1.496), metadata={op_name="jit(scan)/jit(main)/while/body/jit(beliefs_propagation)/jit(continuous_node_posterior_update_ehgf)/jit(posterior_update_precision_continuous_node)/reduce_or[axes=(np.int64(1),)]" source_file="/fs04/fc37/adam/projects/psilocybin-prl-analyses/src/prl_hgf/fitting/hierarchical_patrl.py" source_line=362}
}

integer_pow_19.498 {
  constant.500 = f64[] constant(1)
  broadcast.501 = f64[20]{0} broadcast(constant.500), dimensions={}
  Arg_0.499 = f64[20]{0} parameter(0), metadata={op_name="jit(scan)/jit(main)/while/body/jit(beliefs_propagation)/jit(continuous_node_posterior_update_ehgf)/jit(posterior_update_precision_continuous_node)/jit(precision_update_missing_values)/integer_pow[y=-2]"}
  multiply.502 = f64[20]{0} multiply(Arg_0.499, Arg_0.499), metadata={op_name="jit(scan)/jit(main)/while/body/jit(beliefs_propagation)/jit(continuous_node_posterior_update_ehgf)/jit(posterior_update_precision_continuous_node)/jit(precision_update_missing_values)/mul" source_file="/fs04/fc37/adam/projects/psilocybin-prl-analyses/src/prl_hgf/fitting/hierarchical_patrl.py" source_line=362}
  ROOT divide.503 = f64[20]{0} divide(broadcast.501, multiply.502), metadata={op_name="jit(scan)/jit(main)/while/body/jit(beliefs_propagation)/jit(continuous_node_posterior_update_ehgf)/jit(posterior_update_precision_continuous_node)/jit(precision_update_missing_values)/div" source_file="/fs04/fc37/adam/projects/psilocybin-prl-analyses/src/prl_hgf/fitting/hierarchical_patrl.py" source_line=362}
}

integer_pow_20.504 {
  constant.506 = f64[] constant(1)
  broadcast.507 = f64[20]{0} broadcast(constant.506), dimensions={}
  Arg_0.505 = f64[20]{0} parameter(0), metadata={op_name="jit(scan)/jit(main)/while/body/jit(beliefs_propagation)/jit(continuous_node_posterior_update_ehgf)/jit(posterior_update_precision_continuous_node)/jit(precision_update_missing_values)/integer_pow[y=-2]"}
  multiply.508 = f64[20]{0} multiply(Arg_0.505, Arg_0.505), metadata={op_name="jit(scan)/jit(main)/while/body/jit(beliefs_propagation)/jit(continuous_node_posterior_update_ehgf)/jit(posterior_update_precision_continuous_node)/jit(precision_update_missing_values)/mul" source_file="/fs04/fc37/adam/projects/psilocybin-prl-analyses/src/prl_hgf/fitting/hierarchical_patrl.py" source_line=362}
  ROOT divide.509 = f64[20]{0} divide(broadcast.507, multiply.508), metadata={op_name="jit(scan)/jit(main)/while/body/jit(beliefs_propagation)/jit(continuous_node_posterior_update_ehgf)/jit(posterior_update_precision_continuous_node)/jit(precision_update_missing_values)/div" source_file="/fs04/fc37/adam/projects/psilocybin-prl-analyses/src/prl_hgf/fitting/hierarchical_patrl.py" source_line=362}
}

precision_update_missing_values_18.510 {
  constant.514 = f64[] constant(1)
  broadcast.515 = f64[20]{0} broadcast(constant.514), dimensions={}
  Arg_1.512 = f64[20]{0} parameter(1), metadata={op_name="jit(scan)/jit(main)/while/body/jit(beliefs_propagation)/jit(continuous_node_posterior_update_ehgf)/jit(posterior_update_precision_continuous_node)/pjit[in_shardings=(UnspecifiedValue, UnspecifiedValue, UnspecifiedValue) out_shardings=(UnspecifiedValue, UnspecifiedValue, UnspecifiedValue, UnspecifiedValue) in_layouts=(None, None, None) out_layouts=(None, None, None, None) resource_env=None donated_invars=(False, False, False) name=precision_update_missing_values keep_unused=False inline=False]"}
  divide.516 = f64[20]{0} divide(broadcast.515, Arg_1.512), metadata={op_name="jit(scan)/jit(main)/while/body/jit(beliefs_propagation)/jit(continuous_node_posterior_update_ehgf)/jit(posterior_update_precision_continuous_node)/jit(precision_update_missing_values)/div" source_file="/fs04/fc37/adam/projects/psilocybin-prl-analyses/src/prl_hgf/fitting/hierarchical_patrl.py" source_line=362}
  Arg_0.511 = f64[20]{0} parameter(0), metadata={op_name="jit(scan)/jit(main)/while/body/jit(beliefs_propagation)/jit(continuous_node_posterior_update_ehgf)/jit(posterior_update_precision_continuous_node)/pjit[in_shardings=(UnspecifiedValue, UnspecifiedValue, UnspecifiedValue) out_shardings=(UnspecifiedValue, UnspecifiedValue, UnspecifiedValue, UnspecifiedValue) in_layouts=(None, None, None) out_layouts=(None, None, None, None) resource_env=None donated_invars=(False, False, False) name=precision_update_missing_values keep_unused=False inline=False]"}
  Arg_2.513 = f64[20]{0} parameter(2), metadata={op_name="jit(scan)/jit(main)/while/body/jit(beliefs_propagation)/jit(continuous_node_posterior_update_ehgf)/jit(posterior_update_precision_continuous_node)/pjit[in_shardings=(UnspecifiedValue, UnspecifiedValue, UnspecifiedValue) out_shardings=(UnspecifiedValue, UnspecifiedValue, UnspecifiedValue, UnspecifiedValue) in_layouts=(None, None, None) out_layouts=(None, None, None, None) resource_env=None donated_invars=(False, False, False) name=precision_update_missing_values keep_unused=False inline=False]"}
  exponential.517 = f64[20]{0} exponential(Arg_2.513), metadata={op_name="jit(scan)/jit(main)/while/body/jit(beliefs_propagation)/jit(continuous_node_posterior_update_ehgf)/jit(posterior_update_precision_continuous_node)/jit(precision_update_missing_values)/exp" source_file="/fs04/fc37/adam/projects/psilocybin-prl-analyses/src/prl_hgf/fitting/hierarchical_patrl.py" source_line=362}
  multiply.518 = f64[20]{0} multiply(Arg_0.511, exponential.517), metadata={op_name="jit(scan)/jit(main)/while/body/jit(beliefs_propagation)/jit(continuous_node_posterior_update_ehgf)/jit(posterior_update_precision_continuous_node)/jit(precision_update_missing_values)/mul" source_file="/fs04/fc37/adam/projects/psilocybin-prl-analyses/src/prl_hgf/fitting/hierarchical_patrl.py" source_line=362}
  add.519 = f64[20]{0} add(divide.516, multiply.518), metadata={op_name="jit(scan)/jit(main)/while/body/jit(beliefs_propagation)/jit(continuous_node_posterior_update_ehgf)/jit(posterior_update_precision_continuous_node)/jit(precision_update_missing_values)/add" source_file="/fs04/fc37/adam/projects/psilocybin-prl-analyses/src/prl_hgf/fitting/hierarchical_patrl.py" source_line=362}
  divide.520 = f64[20]{0} divide(broadcast.515, add.519), metadata={op_name="jit(scan)/jit(main)/while/body/jit(beliefs_propagation)/jit(continuous_node_posterior_update_ehgf)/jit(posterior_update_precision_continuous_node)/jit(precision_update_missing_values)/div" source_file="/fs04/fc37/adam/projects/psilocybin-prl-analyses/src/prl_hgf/fitting/hierarchical_patrl.py" source_line=362}
  call.521 = f64[20]{0} call(Arg_1.512), to_apply=integer_pow_19.498
  call.522 = f64[20]{0} call(add.519), to_apply=integer_pow_20.504
  ROOT tuple.523 = (f64[20]{0}, f64[20]{0}, f64[20]{0}, f64[20]{0}) tuple(divide.520, call.521, exponential.517, call.522)
} // precision_update_missing_values_18.510

_where.524 {
  Arg_0.525 = pred[20]{0} parameter(0), metadata={op_name="jit(scan)/jit(main)/while/body/jit(beliefs_propagation)/jit(continuous_node_prediction)/jit(predict_precision)/pjit[in_shardings=(UnspecifiedValue, UnspecifiedValue, UnspecifiedValue) out_shardings=(UnspecifiedValue,) in_layouts=(None, None, None) out_layouts=(None,) resource_env=None donated_invars=(False, False, False) name=_where keep_unused=False inline=False]"}
  Arg_1.526 = f64[20]{0} parameter(1), metadata={op_name="jit(scan)/jit(main)/while/body/jit(beliefs_propagation)/jit(continuous_node_prediction)/jit(predict_precision)/pjit[in_shardings=(UnspecifiedValue, UnspecifiedValue, UnspecifiedValue) out_shardings=(UnspecifiedValue,) in_layouts=(None, None, None) out_layouts=(None,) resource_env=None donated_invars=(False, False, False) name=_where keep_unused=False inline=False]"}
  Arg_2.527 = f64[20]{0} parameter(2), metadata={op_name="jit(scan)/jit(main)/while/body/jit(beliefs_propagation)/jit(continuous_node_prediction)/jit(predict_precision)/pjit[in_shardings=(UnspecifiedValue, UnspecifiedValue, UnspecifiedValue) out_shardings=(UnspecifiedValue,) in_layouts=(None, None, None) out_layouts=(None,) resource_env=None donated_invars=(False, False, False) name=_where keep_unused=False inline=False]"}
  ROOT select.528 = f64[20]{0} select(Arg_0.525, Arg_1.526, Arg_2.527), metadata={op_name="jit(scan)/jit(main)/while/body/jit(beliefs_propagation)/jit(continuous_node_prediction)/jit(predict_precision)/jit(_where)/select_n" source_file="/fs04/fc37/adam/projects/psilocybin-prl-analyses/src/prl_hgf/env/pat_rl_simulator.py" source_line=92}
}

integer_pow_22.529 {
  ROOT Arg_0.530 = f64[20]{0} parameter(0), metadata={op_name="jit(scan)/jit(main)/while/body/jit(beliefs_propagation)/jit(continuous_node_posterior_update_ehgf)/jit(posterior_update_precision_continuous_node)/jit(precision_update)/integer_pow[y=1]"}
}

integer_pow_23.531 {
  ROOT Arg_0.532 = f64[20]{0} parameter(0), metadata={op_name="jit(scan)/jit(main)/while/body/jit(beliefs_propagation)/jit(continuous_node_posterior_update_ehgf)/jit(posterior_update_precision_continuous_node)/jit(precision_update)/integer_pow[y=1]"}
}

integer_pow_24.533 {
  ROOT Arg_0.534 = f64[20]{0} parameter(0), metadata={op_name="jit(scan)/jit(main)/while/body/jit(beliefs_propagation)/jit(continuous_node_posterior_update_ehgf)/jit(posterior_update_precision_continuous_node)/jit(precision_update)/integer_pow[y=1]"}
}

precision_update_21.535 {
  Arg_3.539 = f64[20]{0} parameter(3), metadata={op_name="jit(scan)/jit(main)/while/body/jit(beliefs_propagation)/jit(continuous_node_posterior_update_ehgf)/jit(posterior_update_precision_continuous_node)/pjit[in_shardings=(UnspecifiedValue, UnspecifiedValue, UnspecifiedValue, UnspecifiedValue, UnspecifiedValue, UnspecifiedValue) out_shardings=(UnspecifiedValue, UnspecifiedValue, UnspecifiedValue, UnspecifiedValue, UnspecifiedValue, UnspecifiedValue, UnspecifiedValue, UnspecifiedValue, UnspecifiedValue, UnspecifiedValue) in_layouts=(None, None, None, None, None, None) out_layouts=(None, None, None, None, None, None, None, None, None, None) resource_env=None donated_invars=(False, False, False, False, False, False) name=precision_update keep_unused=False inline=False]"}
  Arg_4.540 = f64[20,1]{1,0} parameter(4), metadata={op_name="jit(scan)/jit(main)/while/body/jit(beliefs_propagation)/jit(continuous_node_posterior_update_ehgf)/jit(posterior_update_precision_continuous_node)/pjit[in_shardings=(UnspecifiedValue, UnspecifiedValue, UnspecifiedValue, UnspecifiedValue, UnspecifiedValue, UnspecifiedValue) out_shardings=(UnspecifiedValue, UnspecifiedValue, UnspecifiedValue, UnspecifiedValue, UnspecifiedValue, UnspecifiedValue, UnspecifiedValue, UnspecifiedValue, UnspecifiedValue, UnspecifiedValue) in_layouts=(None, None, None, None, None, None) out_layouts=(None, None, None, None, None, None, None, None, None, None) resource_env=None donated_invars=(False, False, False, False, False, False) name=precision_update keep_unused=False inline=False]"}
  reshape.548 = f64[20]{0} reshape(Arg_4.540), metadata={op_name="jit(scan)/jit(main)/while/body/jit(beliefs_propagation)/jit(continuous_node_posterior_update_ehgf)/jit(posterior_update_precision_continuous_node)/jit(precision_update)/squeeze[dimensions=(1,)]" source_file="/fs04/fc37/adam/projects/psilocybin-prl-analyses/src/prl_hgf/fitting/hierarchical_patrl.py" source_line=362}
  Arg_1.537 = f64[20]{0} parameter(1), metadata={op_name="jit(scan)/jit(main)/while/body/jit(beliefs_propagation)/jit(continuous_node_posterior_update_ehgf)/jit(posterior_update_precision_continuous_node)/pjit[in_shardings=(UnspecifiedValue, UnspecifiedValue, UnspecifiedValue, UnspecifiedValue, UnspecifiedValue, UnspecifiedValue) out_shardings=(UnspecifiedValue, UnspecifiedValue, UnspecifiedValue, UnspecifiedValue, UnspecifiedValue, UnspecifiedValue, UnspecifiedValue, UnspecifiedValue, UnspecifiedValue, UnspecifiedValue) in_layouts=(None, None, None, None, None, None) out_layouts=(None, None, None, None, None, None, None, None, None, None) resource_env=None donated_invars=(False, False, False, False, False, False) name=precision_update keep_unused=False inline=False]"}
  multiply.549 = f64[20]{0} multiply(reshape.548, Arg_1.537), metadata={op_name="jit(scan)/jit(main)/while/body/jit(beliefs_propagation)/jit(continuous_node_posterior_update_ehgf)/jit(posterior_update_precision_continuous_node)/jit(precision_update)/mul" source_file="/fs04/fc37/adam/projects/psilocybin-prl-analyses/src/prl_hgf/fitting/hierarchical_patrl.py" source_line=362}
  multiply.550 = f64[20]{0} multiply(multiply.549, multiply.549), metadata={op_name="jit(scan)/jit(main)/while/body/jit(beliefs_propagation)/jit(continuous_node_posterior_update_ehgf)/jit(posterior_update_precision_continuous_node)/jit(precision_update)/integer_pow[y=2]" source_file="/fs04/fc37/adam/projects/psilocybin-prl-analyses/src/prl_hgf/fitting/hierarchical_patrl.py" source_line=362}
  constant.546 = f64[] constant(0.5)
  broadcast.547 = f64[20]{0} broadcast(constant.546), dimensions={}
  multiply.551 = f64[20]{0} multiply(multiply.550, broadcast.547), metadata={op_name="jit(scan)/jit(main)/while/body/jit(beliefs_propagation)/jit(continuous_node_posterior_update_ehgf)/jit(posterior_update_precision_continuous_node)/jit(precision_update)/mul" source_file="/fs04/fc37/adam/projects/psilocybin-prl-analyses/src/prl_hgf/fitting/hierarchical_patrl.py" source_line=362}
  multiply.552 = f64[20]{0} multiply(reshape.548, Arg_1.537), metadata={op_name="jit(scan)/jit(main)/while/body/jit(beliefs_propagation)/jit(continuous_node_posterior_update_ehgf)/jit(posterior_update_precision_continuous_node)/jit(precision_update)/mul" source_file="/fs04/fc37/adam/projects/psilocybin-prl-analyses/src/prl_hgf/fitting/hierarchical_patrl.py" source_line=362}
  multiply.553 = f64[20]{0} multiply(multiply.552, multiply.552), metadata={op_name="jit(scan)/jit(main)/while/body/jit(beliefs_propagation)/jit(continuous_node_posterior_update_ehgf)/jit(posterior_update_precision_continuous_node)/jit(precision_update)/integer_pow[y=2]" source_file="/fs04/fc37/adam/projects/psilocybin-prl-analyses/src/prl_hgf/fitting/hierarchical_patrl.py" source_line=362}
  Arg_2.538 = f64[20]{0} parameter(2), metadata={op_name="jit(scan)/jit(main)/while/body/jit(beliefs_propagation)/jit(continuous_node_posterior_update_ehgf)/jit(posterior_update_precision_continuous_node)/pjit[in_shardings=(UnspecifiedValue, UnspecifiedValue, UnspecifiedValue, UnspecifiedValue, UnspecifiedValue, UnspecifiedValue) out_shardings=(UnspecifiedValue, UnspecifiedValue, UnspecifiedValue, UnspecifiedValue, UnspecifiedValue, UnspecifiedValue, UnspecifiedValue, UnspecifiedValue, UnspecifiedValue, UnspecifiedValue) in_layouts=(None, None, None, None, None, None) out_layouts=(None, None, None, None, None, None, None, None, None, None) resource_env=None donated_invars=(False, False, False, False, False, False) name=precision_update keep_unused=False inline=False]"}
  multiply.554 = f64[20]{0} multiply(multiply.553, Arg_2.538), metadata={op_name="jit(scan)/jit(main)/while/body/jit(beliefs_propagation)/jit(continuous_node_posterior_update_ehgf)/jit(posterior_update_precision_continuous_node)/jit(precision_update)/mul" source_file="/fs04/fc37/adam/projects/psilocybin-prl-analyses/src/prl_hgf/fitting/hierarchical_patrl.py" source_line=362}
  add.555 = f64[20]{0} add(multiply.551, multiply.554), metadata={op_name="jit(scan)/jit(main)/while/body/jit(beliefs_propagation)/jit(continuous_node_posterior_update_ehgf)/jit(posterior_update_precision_continuous_node)/jit(precision_update)/add" source_file="/fs04/fc37/adam/projects/psilocybin-prl-analyses/src/prl_hgf/fitting/hierarchical_patrl.py" source_line=362}
  multiply.556 = f64[20]{0} multiply(reshape.548, reshape.548), metadata={op_name="jit(scan)/jit(main)/while/body/jit(beliefs_propagation)/jit(continuous_node_posterior_update_ehgf)/jit(posterior_update_precision_continuous_node)/jit(precision_update)/integer_pow[y=2]" source_file="/fs04/fc37/adam/projects/psilocybin-prl-analyses/src/prl_hgf/fitting/hierarchical_patrl.py" source_line=362}
  multiply.557 = f64[20]{0} multiply(multiply.556, broadcast.547), metadata={op_name="jit(scan)/jit(main)/while/body/jit(beliefs_propagation)/jit(continuous_node_posterior_update_ehgf)/jit(posterior_update_precision_continuous_node)/jit(precision_update)/mul" source_file="/fs04/fc37/adam/projects/psilocybin-prl-analyses/src/prl_hgf/fitting/hierarchical_patrl.py" source_line=362}
  multiply.558 = f64[20]{0} multiply(multiply.557, Arg_1.537), metadata={op_name="jit(scan)/jit(main)/while/body/jit(beliefs_propagation)/jit(continuous_node_posterior_update_ehgf)/jit(posterior_update_precision_continuous_node)/jit(precision_update)/mul" source_file="/fs04/fc37/adam/projects/psilocybin-prl-analyses/src/prl_hgf/fitting/hierarchical_patrl.py" source_line=362}
…
  get-tuple-element.1816 = pred[192,20,1]{2,1,0} get-tuple-element(arg_tuple.1727), index=88
  get-tuple-element.1817 = f64[192,20]{1,0} get-tuple-element(arg_tuple.1727), index=89
  get-tuple-element.1818 = f64[192,20]{1,0} get-tuple-element(arg_tuple.1727), index=90
  get-tuple-element.1819 = f64[192,20]{1,0} get-tuple-element(arg_tuple.1727), index=91
  get-tuple-element.1820 = f64[192,20]{1,0} get-tuple-element(arg_tuple.1727), index=92
  get-tuple-element.1821 = pred[192,20]{1,0} get-tuple-element(arg_tuple.1727), index=93
  get-tuple-element.1822 = pred[192,20,1]{2,1,0} get-tuple-element(arg_tuple.1727), index=94
  get-tuple-element.1823 = f64[192,20]{1,0} get-tuple-element(arg_tuple.1727), index=95
  get-tuple-element.1824 = f64[192,20]{1,0} get-tuple-element(arg_tuple.1727), index=96
  get-tuple-element.1825 = f64[192,20]{1,0} get-tuple-element(arg_tuple.1727), index=97
  get-tuple-element.1826 = f64[192,20]{1,0} get-tuple-element(arg_tuple.1727), index=98
  get-tuple-element.1827 = f64[192,20]{1,0} get-tuple-element(arg_tuple.1727), index=99
  get-tuple-element.1828 = f64[192,20]{1,0} get-tuple-element(arg_tuple.1727), index=100
  get-tuple-element.1829 = f64[192,20]{1,0} get-tuple-element(arg_tuple.1727), index=101
  get-tuple-element.1830 = f64[192,20]{1,0} get-tuple-element(arg_tuple.1727), index=102
  get-tuple-element.1831 = f64[192,20]{1,0} get-tuple-element(arg_tuple.1727), index=103
  get-tuple-element.1832 = f64[192,20]{1,0} get-tuple-element(arg_tuple.1727), index=104
  get-tuple-element.1833 = pred[192,20]{1,0} get-tuple-element(arg_tuple.1727), index=105
  get-tuple-element.1834 = pred[192,20]{1,0} get-tuple-element(arg_tuple.1727), index=106
  get-tuple-element.1835 = pred[192,20,1]{2,1,0} get-tuple-element(arg_tuple.1727), index=107
  get-tuple-element.1836 = f64[192,20,1]{2,1,0} get-tuple-element(arg_tuple.1727), index=108
  get-tuple-element.1837 = s32[192]{0} get-tuple-element(arg_tuple.1727), index=109
  get-tuple-element.1838 = f64[192]{0} get-tuple-element(arg_tuple.1727), index=110
  get-tuple-element.1839 = f64[20]{0} get-tuple-element(arg_tuple.1727), index=111
  get-tuple-element.1840 = f64[20]{0} get-tuple-element(arg_tuple.1727), index=112
  get-tuple-element.1841 = f64[20]{0} get-tuple-element(arg_tuple.1727), index=113
  get-tuple-element.1728 = s64[] get-tuple-element(arg_tuple.1727), index=0
  constant.1842 = s64[] constant(192)
  ROOT compare.1843 = pred[] compare(get-tuple-element.1728, constant.1842), direction=LT, metadata={op_name="jit(scan)/jit(main)/while/cond/lt" source_file="/fs04/fc37/adam/projects/psilocybin-prl-analyses/src/prl_hgf/fitting/hierarchical_patrl.py" source_line=378}
} // region_5.1726

ENTRY main.1960 {
  constant.42 = s64[] constant(0)
  Arg_3.4 = f64[20]{0} parameter(3), metadata={op_name="args[3]"}
  Arg_4.5 = f64[20]{0} parameter(4), metadata={op_name="args[4]"}
  Arg_5.6 = f64[20]{0} parameter(5), metadata={op_name="args[5]"}
  Arg_6.7 = f64[20]{0} parameter(6), metadata={op_name="args[6]"}
  Arg_7.8 = s32[20]{0} parameter(7), metadata={op_name="args[7]"}
  Arg_8.9 = f64[20]{0} parameter(8), metadata={op_name="args[8]"}
  Arg_9.10 = f64[20]{0} parameter(9), metadata={op_name="args[9]"}
  Arg_10.11 = f64[20,1]{1,0} parameter(10), metadata={op_name="args[10]"}
  Arg_11.12 = f64[20]{0} parameter(11), metadata={op_name="args[11]"}
  Arg_12.13 = f64[20]{0} parameter(12), metadata={op_name="args[12]"}
  Arg_13.14 = f64[20]{0} parameter(13), metadata={op_name="args[13]"}
  Arg_14.15 = f64[20]{0} parameter(14), metadata={op_name="args[14]"}
  Arg_15.16 = s64[20]{0} parameter(15), metadata={op_name="args[15]"}
  Arg_16.17 = f64[20]{0} parameter(16), metadata={op_name="args[16]"}
  Arg_17.18 = f64[20]{0} parameter(17), metadata={op_name="args[17]"}
  Arg_18.19 = f64[20]{0} parameter(18), metadata={op_name="args[18]"}
  Arg_19.20 = f64[20]{0} parameter(19), metadata={op_name="args[19]"}
  Arg_20.21 = f64[20]{0} parameter(20), metadata={op_name="args[20]"}
  Arg_21.22 = f64[20]{0} parameter(21), metadata={op_name="args[21]"}
  Arg_22.23 = f64[20]{0} parameter(22), metadata={op_name="args[22]"}
  Arg_23.24 = f64[20,1]{1,0} parameter(23), metadata={op_name="args[23]"}
  Arg_24.25 = f64[20,1]{1,0} parameter(24), metadata={op_name="args[24]"}
  Arg_25.26 = f64[20]{0} parameter(25), metadata={op_name="args[25]"}
  Arg_26.27 = f64[20]{0} parameter(26), metadata={op_name="args[26]"}
  Arg_27.28 = f64[20]{0} parameter(27), metadata={op_name="args[27]"}
  Arg_28.29 = f64[20]{0} parameter(28), metadata={op_name="args[28]"}
  Arg_29.30 = s64[20]{0} parameter(29), metadata={op_name="args[29]"}
  Arg_30.31 = f64[20]{0} parameter(30), metadata={op_name="args[30]"}
  Arg_31.32 = f64[20]{0} parameter(31), metadata={op_name="args[31]"}
  Arg_32.33 = f64[20]{0} parameter(32), metadata={op_name="args[32]"}
  Arg_33.34 = f64[20]{0} parameter(33), metadata={op_name="args[33]"}
  Arg_34.35 = f64[20]{0} parameter(34), metadata={op_name="args[34]"}
  Arg_35.36 = f64[20]{0} parameter(35), metadata={op_name="args[35]"}
  Arg_36.37 = f64[20]{0} parameter(36), metadata={op_name="args[36]"}
  Arg_37.38 = f64[20,1]{1,0} parameter(37), metadata={op_name="args[37]"}
  constant.43 = f64[] constant(0)
  broadcast.44 = f64[192,20]{1,0} broadcast(constant.43), dimensions={}
  constant.45 = pred[] constant(false)
  broadcast.46 = pred[192,20]{1,0} broadcast(constant.45), dimensions={}
  constant.47 = f64[] constant(0)
  broadcast.48 = f64[192]{0} broadcast(constant.47), dimensions={}
  constant.49 = s32[] constant(0)
  broadcast.50 = s32[192]{0} broadcast(constant.49), dimensions={}, metadata={op_name="jit(scan)/jit(main)/broadcast_in_dim[shape=(192,) broadcast_dimensions=()]" source_file="/fs04/fc37/adam/projects/psilocybin-prl-analyses/src/prl_hgf/fitting/hierarchical_patrl.py" source_line=378}
  constant.51 = s32[] constant(0)
  broadcast.52 = s32[192,20]{1,0} broadcast(constant.51), dimensions={}, metadata={op_name="jit(scan)/jit(main)/broadcast_in_dim[shape=(192, 20) broadcast_dimensions=()]" source_file="/fs04/fc37/adam/projects/psilocybin-prl-analyses/src/prl_hgf/fitting/hierarchical_patrl.py" source_line=378}
  constant.53 = pred[] constant(false)
  broadcast.54 = pred[192,20,1]{2,1,0} broadcast(constant.53), dimensions={}
  Arg_38.39 = f64[192,20,1]{2,1,0} parameter(38), metadata={op_name="args[38]"}
  Arg_39.40 = s32[192]{0} parameter(39), metadata={op_name="args[39]"}
  Arg_40.41 = f64[192]{0} parameter(40), metadata={op_name="args[40]"}
  Arg_0.1 = f64[20]{0} parameter(0), metadata={op_name="args[0]"}
  Arg_1.2 = f64[20]{0} parameter(1), metadata={op_name="args[1]"}
  Arg_2.3 = f64[20]{0} parameter(2), metadata={op_name="args[2]"}
  tuple.55 = (s64[], f64[20]{0}, f64[20]{0}, f64[20]{0}, f64[20]{0}, /*index=5*/s32[20]{0}, f64[20]{0}, f64[20]{0}, f64[20,1]{1,0}, f64[20]{0}, /*index=10*/f64[20]{0}, f64[20]{0}, f64[20]{0}, s64[20]{0}, f64[20]{0}, /*index=15*/f64[20]{0}, f64[20]{0}, f64[20]{0}, f64[20]{0}, f64[20]{0}, /*index=20*/f64[20]{0}, f64[20,1]{1,0}, f64[20,1]{1,0}, f64[20]{0}, f64[20]{0}, /*index=25*/f64[20]{0}, f64[20]{0}, s64[20]{0}, f64[20]{0}, f64[20]{0}, /*index=30*/f64[20]{0}, f64[20]{0}, f64[20]{0}, f64[20]{0}, f64[20]{0}, /*index=35*/f64[20,1]{1,0}, f64[192,20]{1,0}, f64[192,20]{1,0}, f64[192,20]{1,0}, f64[192,20]{1,0}, /*index=40*/pred[192,20]{1,0}, f64[192,20]{1,0}, f64[192,20]{1,0}, f64[192,20]{1,0}, f64[192,20]{1,0}, /*index=45*/f64[192,20]{1,0}, f64[192,20]{1,0}, f64[192,20]{1,0}, f64[192,20]{1,0}, pred[192,20]{1,0}, /*index=50*/f64[192,20]{1,0}, f64[192,20]{1,0}, f64[192,20]{1,0}, f64[192,20]{1,0}, f64[192,20]{1,0}, /*index=55*/f64[192,20]{1,0}, f64[192,20]{1,0}, f64[192]{0}, f64[192,20]{1,0}, f64[192,20]{1,0}, /*index=60*/f64[192,20]{1,0}, s32[192]{0}, f64[192,20]{1,0}, f64[192]{0}, f64[192,20]{1,0}, /*index=65*/f64[192,20]{1,0}, f64[192,20]{1,0}, pred[192,20]{1,0}, f64[192,20]{1,0}, f64[192,20]{1,0}, /*index=70*/f64[192,20]{1,0}, f64[192,20]{1,0}, f64[192,20]{1,0}, f64[192,20]{1,0}, f64[192]{0}, /*index=75*/f64[192,20]{1,0}, f64[192,20]{1,0}, f64[192,20]{1,0}, f64[192,20]{1,0}, f64[192,20]{1,0}, /*index=80*/f64[192,20]{1,0}, f64[192,20]{1,0}, f64[192,20]{1,0}, f64[192,20]{1,0}, f64[192,20]{1,0}, /*index=85*/f64[192,20]{1,0}, s32[192,20]{1,0}, pred[192,20]{1,0}, pred[192,20,1]{2,1,0}, f64[192,20]{1,0}, /*index=90*/f64[192,20]{1,0}, f64[192,20]{1,0}, f64[192,20]{1,0}, pred[192,20]{1,0}, pred[192,20,1]{2,1,0}, /*index=95*/f64[192,20]{1,0}, f64[192,20]{1,0}, f64[192,20]{1,0}, f64[192,20]{1,0}, f64[192,20]{1,0}, /*index=100*/f64[192,20]{1,0}, f64[192,20]{1,0}, f64[192,20]{1,0}, f64[192,20]{1,0}, f64[192,20]{1,0}, /*index=105*/pred[192,20]{1,0}, pred[192,20]{1,0}, pred[192,20,1]{2,1,0}, f64[192,20,1]{2,1,0}, s32[192]{0}, /*index=110*/f64[192]{0}, f64[20]{0}, f64[20]{0}, f64[20]{0}) tuple(constant.42, Arg_3.4, Arg_4.5, Arg_5.6, Arg_6.7, /*index=5*/Arg_7.8, Arg_8.9, Arg_9.10, Arg_10.11, Arg_11.12, /*index=10*/Arg_12.13, Arg_13.14, Arg_14.15, Arg_15.16, Arg_16.17, /*index=15*/Arg_17.18, Arg_18.19, Arg_19.20, Arg_20.21, Arg_21.22, /*index=20*/Arg_22.23, Arg_23.24, Arg_24.25, Arg_25.26, Arg_26.27, /*index=25*/Arg_27.28, Arg_28.29, Arg_29.30, Arg_30.31, Arg_31.32, /*index=30*/Arg_32.33, Arg_33.34, Arg_34.35, Arg_35.36, Arg_36.37, /*index=35*/Arg_37.38, broadcast.44, broadcast.44, broadcast.44, broadcast.44, /*index=40*/broadcast.46, broadcast.44, broadcast.44, broadcast.44, broadcast.44, /*index=45*/broadcast.44, broadcast.44, broadcast.44, broadcast.44, broadcast.46, /*index=50*/broadcast.44, broadcast.44, broadcast.44, broadcast.44, broadcast.44, /*index=55*/broadcast.44, broadcast.44, broadcast.48, broadcast.44, broadcast.44, /*index=60*/broadcast.44, broadcast.50, broadcast.44, broadcast.48, broadcast.44, /*index=65*/broadcast.44, broadcast.44, broadcast.46, broadcast.44, broadcast.44, /*index=70*/broadcast.44, broadcast.44, broadcast.44, broadcast.44, broadcast.48, /*index=75*/broadcast.44, broadcast.44, broadcast.44, broadcast.44, broadcast.44, /*index=80*/broadcast.44, broadcast.44, broadcast.44, broadcast.44, broadcast.44, /*index=85*/broadcast.44, broadcast.52, broadcast.46, broadcast.54, broadcast.44, /*index=90*/broadcast.44, broadcast.44, broadcast.44, broadcast.46, broadcast.54, /*index=95*/broadcast.44, broadcast.44, broadcast.44, broadcast.44, broadcast.44, /*index=100*/broadcast.44, broadcast.44, broadcast.44, broadcast.44, broadcast.44, /*index=105*/broadcast.46, broadcast.46, broadcast.54, Arg_38.39, Arg_39.40, /*index=110*/Arg_40.41, Arg_0.1, Arg_1.2, Arg_2.3), metadata={op_name="jit(scan)/jit(main)/while[cond_nconsts=0 body_nconsts=6]" source_file="/fs04/fc37/adam/projects/psilocybin-prl-analyses/src/prl_hgf/fitting/hierarchical_patrl.py" source_line=378}
  while.1844 = (s64[], f64[20]{0}, f64[20]{0}, f64[20]{0}, f64[20]{0}, /*index=5*/s32[20]{0}, f64[20]{0}, f64[20]{0}, f64[20,1]{1,0}, f64[20]{0}, /*index=10*/f64[20]{0}, f64[20]{0}, f64[20]{0}, s64[20]{0}, f64[20]{0}, /*index=15*/f64[20]{0}, f64[20]{0}, f64[20]{0}, f64[20]{0}, f64[20]{0}, /*index=20*/f64[20]{0}, f64[20,1]{1,0}, f64[20,1]{1,0}, f64[20]{0}, f64[20]{0}, /*index=25*/f64[20]{0}, f64[20]{0}, s64[20]{0}, f64[20]{0}, f64[20]{0}, /*index=30*/f64[20]{0}, f64[20]{0}, f64[20]{0}, f64[20]{0}, f64[20]{0}, /*index=35*/f64[20,1]{1,0}, f64[192,20]{1,0}, f64[192,20]{1,0}, f64[192,20]{1,0}, f64[192,20]{1,0}, /*index=40*/pred[192,20]{1,0}, f64[192,20]{1,0}, f64[192,20]{1,0}, f64[192,20]{1,0}, f64[192,20]{1,0}, /*index=45*/f64[192,20]{1,0}, f64[192,20]{1,0}, f64[192,20]{1,0}, f64[192,20]{1,0}, pred[192,20]{1,0}, /*index=50*/f64[192,20]{1,0}, f64[192,20]{1,0}, f64[192,20]{1,0}, f64[192,20]{1,0}, f64[192,20]{1,0}, /*index=55*/f64[192,20]{1,0}, f64[192,20]{1,0}, f64[192]{0}, f64[192,20]{1,0}, f64[192,20]{1,0}, /*index=60*/f64[192,20]{1,0}, s32[192]{0}, f64[192,20]{1,0}, f64[192]{0}, f64[192,20]{1,0}, /*index=65*/f64[192,20]{1,0}, f64[192,20]{1,0}, pred[192,20]{1,0}, f64[192,20]{1,0}, f64[192,20]{1,0}, /*index=70*/f64[192,20]{1,0}, f64[192,20]{1,0}, f64[192,20]{1,0}, f64[192,20]{1,0}, f64[192]{0}, /*index=75*/f64[192,20]{1,0}, f64[192,20]{1,0}, f64[192,20]{1,0}, f64[192,20]{1,0}, f64[192,20]{1,0}, /*index=80*/f64[192,20]{1,0}, f64[192,20]{1,0}, f64[192,20]{1,0}, f64[192,20]{1,0}, f64[192,20]{1,0}, /*index=85*/f64[192,20]{1,0}, s32[192,20]{1,0}, pred[192,20]{1,0}, pred[192,20,1]{2,1,0}, f64[192,20]{1,0}, /*index=90*/f64[192,20]{1,0}, f64[192,20]{1,0}, f64[192,20]{1,0}, pred[192,20]{1,0}, pred[192,20,1]{2,1,0}, /*index=95*/f64[192,20]{1,0}, f64[192,20]{1,0}, f64[192,20]{1,0}, f64[192,20]{1,0}, f64[192,20]{1,0}, /*index=100*/f64[192,20]{1,0}, f64[192,20]{1,0}, f64[192,20]{1,0}, f64[192,20]{1,0}, f64[192,20]{1,0}, /*index=105*/pred[192,20]{1,0}, pred[192,20]{1,0}, pred[192,20,1]{2,1,0}, f64[192,20,1]{2,1,0}, s32[192]{0}, /*index=110*/f64[192]{0}, f64[20]{0}, f64[20]{0}, f64[20]{0}) while(tuple.55), condition=region_5.1726, body=region_0.1122, metadata={op_name="jit(scan)/jit(main)/while[cond_nconsts=0 body_nconsts=6]" source_file="/fs04/fc37/adam/projects/psilocybin-prl-analyses/src/prl_hgf/fitting/hierarchical_patrl.py" source_line=378}
  get-tuple-element.1845 = s64[] get-tuple-element(while.1844), index=0, metadata={op_name="jit(scan)/jit(main)/while[cond_nconsts=0 body_nconsts=6]" source_file="/fs04/fc37/adam/projects/psilocybin-prl-analyses/src/prl_hgf/fitting/hierarchical_patrl.py" source_line=378}
  get-tuple-element.1953 = f64[192,20,1]{2,1,0} get-tuple-element(while.1844), index=108, metadata={op_name="jit(scan)/jit(main)/while[cond_nconsts=0 body_nconsts=6]" source_file="/fs04/fc37/adam/projects/psilocybin-prl-analyses/src/prl_hgf/fitting/hierarchical_patrl.py" source_line=378}
  get-tuple-element.1954 = s32[192]{0} get-tuple-element(while.1844), index=109, metadata={op_name="jit(scan)/jit(main)/while[cond_nconsts=0 body_nconsts=6]" source_file="/fs04/fc37/adam/projects/psilocybin-prl-analyses/src/prl_hgf/fitting/hierarchical_patrl.py" source_line=378}
  get-tuple-element.1955 = f64[192]{0} get-tuple-element(while.1844), index=110, metadata={op_name="jit(scan)/jit(main)/while[cond_nconsts=0 body_nconsts=6]" source_file="/fs04/fc37/adam/projects/psilocybin-prl-analyses/src/prl_hgf/fitting/hierarchical_patrl.py" source_line=378}
  get-tuple-element.1956 = f64[20]{0} get-tuple-element(while.1844), index=111, metadata={op_name="jit(scan)/jit(main)/while[cond_nconsts=0 body_nconsts=6]" source_file="/fs04/fc37/adam/projects/psilocybin-prl-analyses/src/prl_hgf/fitting/hierarchical_patrl.py" source_line=378}
  get-tuple-element.1957 = f64[20]{0} get-tuple-element(while.1844), index=112, metadata={op_name="jit(scan)/jit(main)/while[cond_nconsts=0 body_nconsts=6]" source_file="/fs04/fc37/adam/projects/psilocybin-prl-analyses/src/prl_hgf/fitting/hierarchical_patrl.py" source_line=378}
  get-tuple-element.1958 = f64[20]{0} get-tuple-element(while.1844), index=113, metadata={op_name="jit(scan)/jit(main)/while[cond_nconsts=0 body_nconsts=6]" source_file="/fs04/fc37/adam/projects/psilocybin-prl-analyses/src/prl_hgf/fitting/hierarchical_patrl.py" source_line=378}
  get-tuple-element.1846 = f64[20]{0} get-tuple-element(while.1844), index=1, metadata={op_name="jit(scan)/jit(main)/while[cond_nconsts=0 body_nconsts=6]" source_file="/fs04/fc37/adam/projects/psilocybin-prl-analyses/src/prl_hgf/fitting/hierarchical_patrl.py" source_line=378}
  get-tuple-element.1847 = f64[20]{0} get-tuple-element(while.1844), index=2, metadata={op_name="jit(scan)/jit(main)/while[cond_nconsts=0 body_nconsts=6]" source_file="/fs04/fc37/adam/projects/psilocybin-prl-analyses/src/prl_hgf/fitting/hierarchical_patrl.py" source_line=378}
  get-tuple-element.1848 = f64[20]{0} get-tuple-element(while.1844), index=3, metadata={op_name="jit(scan)/jit(main)/while[cond_nconsts=0 body_nconsts=6]" source_file="/fs04/fc37/adam/projects/psilocybin-prl-analyses/src/prl_hgf/fitting/hierarchical_patrl.py" source_line=378}
  get-tuple-element.1849 = f64[20]{0} get-tuple-element(while.1844), index=4, metadata={op_name="jit(scan)/jit(main)/while[cond_nconsts=0 body_nconsts=6]" source_file="/fs04/fc37/adam/projects/psilocybin-prl-analyses/src/prl_hgf/fitting/hierarchical_patrl.py" source_line=378}
  get-tuple-element.1850 = s32[20]{0} get-tuple-element(while.1844), index=5, metadata={op_name="jit(scan)/jit(main)/while[cond_nconsts=0 body_nconsts=6]" source_file="/fs04/fc37/adam/projects/psilocybin-prl-analyses/src/prl_hgf/fitting/hierarchical_patrl.py" source_line=378}
  get-tuple-element.1851 = f64[20]{0} get-tuple-element(while.1844), index=6, metadata={op_name="jit(scan)/jit(main)/while[cond_nconsts=0 body_nconsts=6]" source_file="/fs04/fc37/adam/projects/psilocybin-prl-analyses/src/prl_hgf/fitting/hierarchical_patrl.py" source_line=378}
  get-tuple-element.1852 = f64[20]{0} get-tuple-element(while.1844), index=7, metadata={op_name="jit(scan)/jit(main)/while[cond_nconsts=0 body_nconsts=6]" source_file="/fs04/fc37/adam/projects/psilocybin-prl-analyses/src/prl_hgf/fitting/hierarchical_patrl.py" source_line=378}
  get-tuple-element.1853 = f64[20,1]{1,0} get-tuple-element(while.1844), index=8, metadata={op_name="jit(scan)/jit(main)/while[cond_nconsts=0 body_nconsts=6]" source_file="/fs04/fc37/adam/projects/psilocybin-prl-analyses/src/prl_hgf/fitting/hierarchical_patrl.py" source_line=378}
  get-tuple-element.1854 = f64[20]{0} get-tuple-element(while.1844), index=9, metadata={op_name="jit(scan)/jit(main)/while[cond_nconsts=0 body_nconsts=6]" source_file="/fs04/fc37/adam/projects/psilocybin-prl-analyses/src/prl_hgf/fitting/hierarchical_patrl.py" source_line=378}
  get-tuple-element.1855 = f64[20]{0} get-tuple-element(while.1844), index=10, metadata={op_name="jit(scan)/jit(main)/while[cond_nconsts=0 body_nconsts=6]" source_file="/fs04/fc37/adam/projects/psilocybin-prl-analyses/src/prl_hgf/fitting/hierarchical_patrl.py" source_line=378}
  get-tuple-element.1856 = f64[20]{0} get-tuple-element(while.1844), index=11, metadata={op_name="jit(scan)/jit(main)/while[cond_nconsts=0 body_nconsts=6]" source_file="/fs04/fc37/adam/projects/psilocybin-prl-analyses/src/prl_hgf/fitting/hierarchical_patrl.py" source_line=378}
  get-tuple-element.1857 = f64[20]{0} get-tuple-element(while.1844), index=12, metadata={op_name="jit(scan)/jit(main)/while[cond_nconsts=0 body_nconsts=6]" source_file="/fs04/fc37/adam/projects/psilocybin-prl-analyses/src/prl_hgf/fitting/hierarchical_patrl.py" source_line=378}
  get-tuple-element.1858 = s64[20]{0} get-tuple-element(while.1844), index=13, metadata={op_name="jit(scan)/jit(main)/while[cond_nconsts=0 body_nconsts=6]" source_file="/fs04/fc37/adam/projects/psilocybin-prl-analyses/src/prl_hgf/fitting/hierarchical_patrl.py" source_line=378}
  get-tuple-element.1859 = f64[20]{0} get-tuple-element(while.1844), index=14, metadata={op_name="jit(scan)/jit(main)/while[cond_nconsts=0 body_nconsts=6]" source_file="/fs04/fc37/adam/projects/psilocybin-prl-analyses/src/prl_hgf/fitting/hierarchical_patrl.py" source_line=378}
  get-tuple-element.1860 = f64[20]{0} get-tuple-element(while.1844), index=15, metadata={op_name="jit(scan)/jit(main)/while[cond_nconsts=0 body_nconsts=6]" source_file="/fs04/fc37/adam/projects/psilocybin-prl-analyses/src/prl_hgf/fitting/hierarchical_patrl.py" source_line=378}
  get-tuple-element.1861 = f64[20]{0} get-tuple-element(while.1844), index=16, metadata={op_name="jit(scan)/jit(main)/while[cond_nconsts=0 body_nconsts=6]" source_file="/fs04/fc37/adam/projects/psilocybin-prl-analyses/src/prl_hgf/fitting/hierarchical_patrl.py" source_line=378}
  get-tuple-element.1862 = f64[20]{0} get-tuple-element(while.1844), index=17, metadata={op_name="jit(scan)/jit(main)/while[cond_nconsts=0 body_nconsts=6]" source_file="/fs04/fc37/adam/projects/psilocybin-prl-analyses/src/prl_hgf/fitting/hierarchical_patrl.py" source_line=378}
  get-tuple-element.1863 = f64[20]{0} get-tuple-element(while.1844), index=18, metadata={op_name="jit(scan)/jit(main)/while[cond_nconsts=0 body_nconsts=6]" source_file="/fs04/fc37/adam/projects/psilocybin-prl-analyses/src/prl_hgf/fitting/hierarchical_patrl.py" source_line=378}
  get-tuple-element.1864 = f64[20]{0} get-tuple-element(while.1844), index=19, metadata={op_name="jit(scan)/jit(main)/while[cond_nconsts=0 body_nconsts=6]" source_file="/fs04/fc37/adam/projects/psilocybin-prl-analyses/src/prl_hgf/fitting/hierarchical_patrl.py" source_line=378}
  get-tuple-element.1865 = f64[20]{0} get-tuple-element(while.1844), index=20, metadata={op_name="jit(scan)/jit(main)/while[cond_nconsts=0 body_nconsts=6]" source_file="/fs04/fc37/adam/projects/psilocybin-prl-analyses/src/prl_hgf/fitting/hierarchical_patrl.py" source_line=378}
  get-tuple-element.1866 = f64[20,1]{1,0} get-tuple-element(while.1844), index=21, metadata={op_name="jit(scan)/jit(main)/while[cond_nconsts=0 body_nconsts=6]" source_file="/fs04/fc37/adam/projects/psilocybin-prl-analyses/src/prl_hgf/fitting/hierarchical_patrl.py" source_line=378}
  get-tuple-element.1867 = f64[20,1]{1,0} get-tuple-element(while.1844), index=22, metadata={op_name="jit(scan)/jit(main)/while[cond_nconsts=0 body_nconsts=6]" source_file="/fs04/fc37/adam/projects/psilocybin-prl-analyses/src/prl_hgf/fitting/hierarchical_patrl.py" source_line=378}
  get-tuple-element.1868 = f64[20]{0} get-tuple-element(while.1844), index=23, metadata={op_name="jit(scan)/jit(main)/while[cond_nconsts=0 body_nconsts=6]" source_file="/fs04/fc37/adam/projects/psilocybin-prl-analyses/src/prl_hgf/fitting/hierarchical_patrl.py" source_line=378}
  get-tuple-element.1869 = f64[20]{0} get-tuple-element(while.1844), index=24, metadata={op_name="jit(scan)/jit(main)/while[cond_nconsts=0 body_nconsts=6]" source_file="/fs04/fc37/adam/projects/psilocybin-prl-analyses/src/prl_hgf/fitting/hierarchical_patrl.py" source_line=378}
  get-tuple-element.1870 = f64[20]{0} get-tuple-element(while.1844), index=25, metadata={op_name="jit(scan)/jit(main)/while[cond_nconsts=0 body_nconsts=6]" source_file="/fs04/fc37/adam/projects/psilocybin-prl-analyses/src/prl_hgf/fitting/hierarchical_patrl.py" source_line=378}
  get-tuple-element.1871 = f64[20]{0} get-tuple-element(while.1844), index=26, metadata={op_name="jit(scan)/jit(main)/while[cond_nconsts=0 body_nconsts=6]" source_file="/fs04/fc37/adam/projects/psilocybin-prl-analyses/src/prl_hgf/fitting/hierarchical_patrl.py" source_line=378}
  get-tuple-element.1872 = s64[20]{0} get-tuple-element(while.1844), index=27, metadata={op_name="jit(scan)/jit(main)/while[cond_nconsts=0 body_nconsts=6]" source_file="/fs04/fc37/adam/projects/psilocybin-prl-analyses/src/prl_hgf/fitting/hierarchical_patrl.py" source_line=378}
  get-tuple-element.1873 = f64[20]{0} get-tuple-element(while.1844), index=28, metadata={op_name="jit(scan)/jit(main)/while[cond_nconsts=0 body_nconsts=6]" source_file="/fs04/fc37/adam/projects/psilocybin-prl-analyses/src/prl_hgf/fitting/hierarchical_patrl.py" source_line=378}
  get-tuple-element.1874 = f64[20]{0} get-tuple-element(while.1844), index=29, metadata={op_name="jit(scan)/jit(main)/while[cond_nconsts=0 body_nconsts=6]" source_file="/fs04/fc37/adam/projects/psilocybin-prl-analyses/src/prl_hgf/fitting/hierarchical_patrl.py" source_line=378}
  get-tuple-element.1875 = f64[20]{0} get-tuple-element(while.1844), index=30, metadata={op_name="jit(scan)/jit(main)/while[cond_nconsts=0 body_nconsts=6]" source_file="/fs04/fc37/adam/projects/psilocybin-prl-analyses/src/prl_hgf/fitting/hierarchical_patrl.py" source_line=378}
  get-tuple-element.1876 = f64[20]{0} get-tuple-element(while.1844), index=31, metadata={op_name="jit(scan)/jit(main)/while[cond_nconsts=0 body_nconsts=6]" source_file="/fs04/fc37/adam/projects/psilocybin-prl-analyses/src/prl_hgf/fitting/hierarchical_patrl.py" source_line=378}
  get-tuple-element.1877 = f64[20]{0} get-tuple-element(while.1844), index=32, metadata={op_name="jit(scan)/jit(main)/while[cond_nconsts=0 body_nconsts=6]" source_file="/fs04/fc37/adam/projects/psilocybin-prl-analyses/src/prl_hgf/fitting/hierarchical_patrl.py" source_line=378}
  get-tuple-element.1878 = f64[20]{0} get-tuple-element(while.1844), index=33, metadata={op_name="jit(scan)/jit(main)/while[cond_nconsts=0 body_nconsts=6]" source_file="/fs04/fc37/adam/projects/psilocybin-prl-analyses/src/prl_hgf/fitting/hierarchical_patrl.py" source_line=378}
  get-tuple-element.1879 = f64[20]{0} get-tuple-element(while.1844), index=34, metadata={op_name="jit(scan)/jit(main)/while[cond_nconsts=0 body_nconsts=6]" source_file="/fs04/fc37/adam/projects/psilocybin-prl-analyses/src/prl_hgf/fitting/hierarchical_patrl.py" source_line=378}
  get-tuple-element.1880 = f64[20,1]{1,0} get-tuple-element(while.1844), index=35, metadata={op_name="jit(scan)/jit(main)/while[cond_nconsts=0 body_nconsts=6]" source_file="/fs04/fc37/adam/projects/psilocybin-prl-analyses/src/prl_hgf/fitting/hierarchical_patrl.py" source_line=378}
  get-tuple-element.1881 = f64[192,20]{1,0} get-tuple-element(while.1844), index=36, metadata={op_name="jit(scan)/jit(main)/while[cond_nconsts=0 body_nconsts=6]" source_file="/fs04/fc37/adam/projects/psilocybin-prl-analyses/src/prl_hgf/fitting/hierarchical_patrl.py" source_line=378}
  get-tuple-element.1882 = f64[192,20]{1,0} get-tuple-element(while.1844), index=37, metadata={op_name="jit(scan)/jit(main)/while[cond_nconsts=0 body_nconsts=6]" source_file="/fs04/fc37/adam/projects/psilocybin-prl-analyses/src/prl_hgf/fitting/hierarchical_patrl.py" source_line=378}
  get-tuple-element.1883 = f64[192,20]{1,0} get-tuple-element(while.1844), index=38, metadata={op_name="jit(scan)/jit(main)/while[cond_nconsts=0 body_nconsts=6]" source_file="/fs04/fc37/adam/projects/psilocybin-prl-analyses/src/prl_hgf/fitting/hierarchical_patrl.py" source_line=378}
  get-tuple-element.1884 = f64[192,20]{1,0} get-tuple-element(while.1844), index=39, metadata={op_name="jit(scan)/jit(main)/while[cond_nconsts=0 body_nconsts=6]" source_file="/fs04/fc37/adam/projects/psilocybin-prl-analyses/src/prl_hgf/fitting/hierarchical_patrl.py" source_line=378}
  get-tuple-element.1885 = pred[192,20]{1,0} get-tuple-element(while.1844), index=40, metadata={op_name="jit(scan)/jit(main)/while[cond_nconsts=0 body_nconsts=6]" source_file="/fs04/fc37/adam/projects/psilocybin-prl-analyses/src/prl_hgf/fitting/hierarchical_patrl.py" source_line=378}
  get-tuple-element.1886 = f64[192,20]{1,0} get-tuple-element(while.1844), index=41, metadata={op_name="jit(scan)/jit(main)/while[cond_nconsts=0 body_nconsts=6]" source_file="/fs04/fc37/adam/projects/psilocybin-prl-analyses/src/prl_hgf/fitting/hierarchical_patrl.py" source_line=378}
  get-tuple-element.1887 = f64[192,20]{1,0} get-tuple-element(while.1844), index=42, metadata={op_name="jit(scan)/jit(main)/while[cond_nconsts=0 body_nconsts=6]" source_file="/fs04/fc37/adam/projects/psilocybin-prl-analyses/src/prl_hgf/fitting/hierarchical_patrl.py" source_line=378}
  get-tuple-element.1888 = f64[192,20]{1,0} get-tuple-element(while.1844), index=43, metadata={op_name="jit(scan)/jit(main)/while[cond_nconsts=0 body_nconsts=6]" source_file="/fs04/fc37/adam/projects/psilocybin-prl-analyses/src/prl_hgf/fitting/hierarchical_patrl.py" source_line=378}
  get-tuple-element.1889 = f64[192,20]{1,0} get-tuple-element(while.1844), index=44, metadata={op_name="jit(scan)/jit(main)/while[cond_nconsts=0 body_nconsts=6]" source_file="/fs04/fc37/adam/projects/psilocybin-prl-analyses/src/prl_hgf/fitting/hierarchical_patrl.py" source_line=378}
  get-tuple-element.1890 = f64[192,20]{1,0} get-tuple-element(while.1844), index=45, metadata={op_name="jit(scan)/jit(main)/while[cond_nconsts=0 body_nconsts=6]" source_file="/fs04/fc37/adam/projects/psilocybin-prl-analyses/src/prl_hgf/fitting/hierarchical_patrl.py" source_line=378}
  get-tuple-element.1891 = f64[192,20]{1,0} get-tuple-element(while.1844), index=46, metadata={op_name="jit(scan)/jit(main)/while[cond_nconsts=0 body_nconsts=6]" source_file="/fs04/fc37/adam/projects/psilocybin-prl-analyses/src/prl_hgf/fitting/hierarchical_patrl.py" source_line=378}
  get-tuple-element.1892 = f64[192,20]{1,0} get-tuple-element(while.1844), index=47, metadata={op_name="jit(scan)/jit(main)/while[cond_nconsts=0 body_nconsts=6]" source_file="/fs04/fc37/adam/projects/psilocybin-prl-analyses/src/prl_hgf/fitting/hierarchical_patrl.py" source_line=378}
  get-tuple-element.1893 = f64[192,20]{1,0} get-tuple-element(while.1844), index=48, metadata={op_name="jit(scan)/jit(main)/while[cond_nconsts=0 body_nconsts=6]" source_file="/fs04/fc37/adam/projects/psilocybin-prl-analyses/src/prl_hgf/fitting/hierarchical_patrl.py" source_line=378}
  get-tuple-element.1894 = pred[192,20]{1,0} get-tuple-element(while.1844), index=49, metadata={op_name="jit(scan)/jit(main)/while[cond_nconsts=0 body_nconsts=6]" source_file="/fs04/fc37/adam/projects/psilocybin-prl-analyses/src/prl_hgf/fitting/hierarchical_patrl.py" source_line=378}
  get-tuple-element.1895 = f64[192,20]{1,0} get-tuple-element(while.1844), index=50, metadata={op_name="jit(scan)/jit(main)/while[cond_nconsts=0 body_nconsts=6]" source_file="/fs04/fc37/adam/projects/psilocybin-prl-analyses/src/prl_hgf/fitting/hierarchical_patrl.py" source_line=378}
  get-tuple-element.1896 = f64[192,20]{1,0} get-tuple-element(while.1844), index=51, metadata={op_name="jit(scan)/jit(main)/while[cond_nconsts=0 body_nconsts=6]" source_file="/fs04/fc37/adam/projects/psilocybin-prl-analyses/src/prl_hgf/fitting/hierarchical_patrl.py" source_line=378}
  get-tuple-element.1897 = f64[192,20]{1,0} get-tuple-element(while.1844), index=52, metadata={op_name="jit(scan)/jit(main)/while[cond_nconsts=0 body_nconsts=6]" source_file="/fs04/fc37/adam/projects/psilocybin-prl-analyses/src/prl_hgf/fitting/hierarchical_patrl.py" source_line=378}
  get-tuple-element.1898 = f64[192,20]{1,0} get-tuple-element(while.1844), index=53, metadata={op_name="jit(scan)/jit(main)/while[cond_nconsts=0 body_nconsts=6]" source_file="/fs04/fc37/adam/projects/psilocybin-prl-analyses/src/prl_hgf/fitting/hierarchical_patrl.py" source_line=378}
  get-tuple-element.1899 = f64[192,20]{1,0} get-tuple-element(while.1844), index=54, metadata={op_name="jit(scan)/jit(main)/while[cond_nconsts=0 body_nconsts=6]" source_file="/fs04/fc37/adam/projects/psilocybin-prl-analyses/src/prl_hgf/fitting/hierarchical_patrl.py" source_line=378}
  get-tuple-element.1900 = f64[192,20]{1,0} get-tuple-element(while.1844), index=55, metadata={op_name="jit(scan)/jit(main)/while[cond_nconsts=0 body_nconsts=6]" source_file="/fs04/fc37/adam/projects/psilocybin-prl-analyses/src/prl_hgf/fitting/hierarchical_patrl.py" source_line=378}
  get-tuple-element.1901 = f64[192,20]{1,0} get-tuple-element(while.1844), index=56, metadata={op_name="jit(scan)/jit(main)/while[cond_nconsts=0 body_nconsts=6]" source_file="/fs04/fc37/adam/projects/psilocybin-prl-analyses/src/prl_hgf/fitting/hierarchical_patrl.py" source_line=378}
  get-tuple-element.1902 = f64[192]{0} get-tuple-element(while.1844), index=57, metadata={op_name="jit(scan)/jit(main)/while[cond_nconsts=0 body_nconsts=6]" source_file="/fs04/fc37/adam/projects/psilocybin-prl-analyses/src/prl_hgf/fitting/hierarchical_patrl.py" source_line=378}
  get-tuple-element.1903 = f64[192,20]{1,0} get-tuple-element(while.1844), index=58, metadata={op_name="jit(scan)/jit(main)/while[cond_nconsts=0 body_nconsts=6]" source_file="/fs04/fc37/adam/projects/psilocybin-prl-analyses/src/prl_hgf/fitting/hierarchical_patrl.py" source_line=378}
  get-tuple-element.1904 = f64[192,20]{1,0} get-tuple-element(while.1844), index=59, metadata={op_name="jit(scan)/jit(main)/while[cond_nconsts=0 body_nconsts=6]" source_file="/fs04/fc37/adam/projects/psilocybin-prl-analyses/src/prl_hgf/fitting/hierarchical_patrl.py" source_line=378}
  get-tuple-element.1905 = f64[192,20]{1,0} get-tuple-element(while.1844), index=60, metadata={op_name="jit(scan)/jit(main)/while[cond_nconsts=0 body_nconsts=6]" source_file="/fs04/fc37/adam/projects/psilocybin-prl-analyses/src/prl_hgf/fitting/hierarchical_patrl.py" source_line=378}
  get-tuple-element.1906 = s32[192]{0} get-tuple-element(while.1844), index=61, metadata={op_name="jit(scan)/jit(main)/while[cond_nconsts=0 body_nconsts=6]" source_file="/fs04/fc37/adam/projects/psilocybin-prl-analyses/src/prl_hgf/fitting/hierarchical_patrl.py" source_line=378}
  get-tuple-element.1907 = f64[192,20]{1,0} get-tuple-element(while.1844), index=62, metadata={op_name="jit(scan)/jit(main)/while[cond_nconsts=0 body_nconsts=6]" source_file="/fs04/fc37/adam/projects/psilocybin-prl-analyses/src/prl_hgf/fitting/hierarchical_patrl.py" source_line=378}
  get-tuple-element.1908 = f64[192]{0} get-tuple-element(while.1844), index=63, metadata={op_name="jit(scan)/jit(main)/while[cond_nconsts=0 body_nconsts=6]" source_file="/fs04/fc37/adam/projects/psilocybin-prl-analyses/src/prl_hgf/fitting/hierarchical_patrl.py" source_line=378}
  get-tuple-element.1909 = f64[192,20]{1,0} get-tuple-element(while.1844), index=64, metadata={op_name="jit(scan)/jit(main)/while[cond_nconsts=0 body_nconsts=6]" source_file="/fs04/fc37/adam/projects/psilocybin-prl-analyses/src/prl_hgf/fitting/hierarchical_patrl.py" source_line=378}
  get-tuple-element.1910 = f64[192,20]{1,0} get-tuple-element(while.1844), index=65, metadata={op_name="jit(scan)/jit(main)/while[cond_nconsts=0 body_nconsts=6]" source_file="/fs04/fc37/adam/projects/psilocybin-prl-analyses/src/prl_hgf/fitting/hierarchical_patrl.py" source_line=378}
  get-tuple-element.1911 = f64[192,20]{1,0} get-tuple-element(while.1844), index=66, metadata={op_name="jit(scan)/jit(main)/while[cond_nconsts=0 body_nconsts=6]" source_file="/fs04/fc37/adam/projects/psilocybin-prl-analyses/src/prl_hgf/fitting/hierarchical_patrl.py" source_line=378}
  get-tuple-element.1912 = pred[192,20]{1,0} get-tuple-element(while.1844), index=67, metadata={op_name="jit(scan)/jit(main)/while[cond_nconsts=0 body_nconsts=6]" source_file="/fs04/fc37/adam/projects/psilocybin-prl-analyses/src/prl_hgf/fitting/hierarchical_patrl.py" source_line=378}
  get-tuple-element.1913 = f64[192,20]{1,0} get-tuple-element(while.1844), index=68, metadata={op_name="jit(scan)/jit(main)/while[cond_nconsts=0 body_nconsts=6]" source_file="/fs04/fc37/adam/projects/psilocybin-prl-analyses/src/prl_hgf/fitting/hierarchical_patrl.py" source_line=378}
  get-tuple-element.1914 = f64[192,20]{1,0} get-tuple-element(while.1844), index=69, metadata={op_name="jit(scan)/jit(main)/while[cond_nconsts=0 body_nconsts=6]" source_file="/fs04/fc37/adam/projects/psilocybin-prl-analyses/src/prl_hgf/fitting/hierarchical_patrl.py" source_line=378}
  get-tuple-element.1915 = f64[192,20]{1,0} get-tuple-element(while.1844), index=70, metadata={op_name="jit(scan)/jit(main)/while[cond_nconsts=0 body_nconsts=6]" source_file="/fs04/fc37/adam/projects/psilocybin-prl-analyses/src/prl_hgf/fitting/hierarchical_patrl.py" source_line=378}
  get-tuple-element.1916 = f64[192,20]{1,0} get-tuple-element(while.1844), index=71, metadata={op_name="jit(scan)/jit(main)/while[cond_nconsts=0 body_nconsts=6]" source_file="/fs04/fc37/adam/projects/psilocybin-prl-analyses/src/prl_hgf/fitting/hierarchical_patrl.py" source_line=378}
  get-tuple-element.1917 = f64[192,20]{1,0} get-tuple-element(while.1844), index=72, metadata={op_name="jit(scan)/jit(main)/while[cond_nconsts=0 body_nconsts=6]" source_file="/fs04/fc37/adam/projects/psilocybin-prl-analyses/src/prl_hgf/fitting/hierarchical_patrl.py" source_line=378}
  get-tuple-element.1918 = f64[192,20]{1,0} get-tuple-element(while.1844), index=73, metadata={op_name="jit(scan)/jit(main)/while[cond_nconsts=0 body_nconsts=6]" source_file="/fs04/fc37/adam/projects/psilocybin-prl-analyses/src/prl_hgf/fitting/hierarchical_patrl.py" source_line=378}
  get-tuple-element.1919 = f64[192]{0} get-tuple-element(while.1844), index=74, metadata={op_name="jit(scan)/jit(main)/while[cond_nconsts=0 body_nconsts=6]" source_file="/fs04/fc37/adam/projects/psilocybin-prl-analyses/src/prl_hgf/fitting/hierarchical_patrl.py" source_line=378}
  get-tuple-element.1920 = f64[192,20]{1,0} get-tuple-element(while.1844), index=75, metadata={op_name="jit(scan)/jit(main)/while[cond_nconsts=0 body_nconsts=6]" source_file="/fs04/fc37/adam/projects/psilocybin-prl-analyses/src/prl_hgf/fitting/hierarchical_patrl.py" source_line=378}
  get-tuple-element.1921 = f64[192,20]{1,0} get-tuple-element(while.1844), index=76, metadata={op_name="jit(scan)/jit(main)/while[cond_nconsts=0 body_nconsts=6]" source_file="/fs04/fc37/adam/projects/psilocybin-prl-analyses/src/prl_hgf/fitting/hierarchical_patrl.py" source_line=378}
  get-tuple-element.1922 = f64[192,20]{1,0} get-tuple-element(while.1844), index=77, metadata={op_name="jit(scan)/jit(main)/while[cond_nconsts=0 body_nconsts=6]" source_file="/fs04/fc37/adam/projects/psilocybin-prl-analyses/src/prl_hgf/fitting/hierarchical_patrl.py" source_line=378}
  get-tuple-element.1923 = f64[192,20]{1,0} get-tuple-element(while.1844), index=78, metadata={op_name="jit(scan)/jit(main)/while[cond_nconsts=0 body_nconsts=6]" source_file="/fs04/fc37/adam/projects/psilocybin-prl-analyses/src/prl_hgf/fitting/hierarchical_patrl.py" source_line=378}
  get-tuple-element.1924 = f64[192,20]{1,0} get-tuple-element(while.1844), index=79, metadata={op_name="jit(scan)/jit(main)/while[cond_nconsts=0 body_nconsts=6]" source_file="/fs04/fc37/adam/projects/psilocybin-prl-analyses/src/prl_hgf/fitting/hierarchical_patrl.py" source_line=378}
  get-tuple-element.1925 = f64[192,20]{1,0} get-tuple-element(while.1844), index=80, metadata={op_name="jit(scan)/jit(main)/while[cond_nconsts=0 body_nconsts=6]" source_file="/fs04/fc37/adam/projects/psilocybin-prl-analyses/src/prl_hgf/fitting/hierarchical_patrl.py" source_line=378}
  get-tuple-element.1926 = f64[192,20]{1,0} get-tuple-element(while.1844), index=81, metadata={op_name="jit(scan)/jit(main)/while[cond_nconsts=0 body_nconsts=6]" source_file="/fs04/fc37/adam/projects/psilocybin-prl-analyses/src/prl_hgf/fitting/hierarchical_patrl.py" source_line=378}
  get-tuple-element.1927 = f64[192,20]{1,0} get-tuple-element(while.1844), index=82, metadata={op_name="jit(scan)/jit(main)/while[cond_nconsts=0 body_nconsts=6]" source_file="/fs04/fc37/adam/projects/psilocybin-prl-analyses/src/prl_hgf/fitting/hierarchical_patrl.py" source_line=378}
  get-tuple-element.1928 = f64[192,20]{1,0} get-tuple-element(while.1844), index=83, metadata={op_name="jit(scan)/jit(main)/while[cond_nconsts=0 body_nconsts=6]" source_file="/fs04/fc37/adam/projects/psilocybin-prl-analyses/src/prl_hgf/fitting/hierarchical_patrl.py" source_line=378}
  get-tuple-element.1929 = f64[192,20]{1,0} get-tuple-element(while.1844), index=84, metadata={op_name="jit(scan)/jit(main)/while[cond_nconsts=0 body_nconsts=6]" source_file="/fs04/fc37/adam/projects/psilocybin-prl-analyses/src/prl_hgf/fitting/hierarchical_patrl.py" source_line=378}
  get-tuple-element.1930 = f64[192,20]{1,0} get-tuple-element(while.1844), index=85, metadata={op_name="jit(scan)/jit(main)/while[cond_nconsts=0 body_nconsts=6]" source_file="/fs04/fc37/adam/projects/psilocybin-prl-analyses/src/prl_hgf/fitting/hierarchical_patrl.py" source_line=378}
  get-tuple-element.1931 = s32[192,20]{1,0} get-tuple-element(while.1844), index=86, metadata={op_name="jit(scan)/jit(main)/while[cond_nconsts=0 body_nconsts=6]" source_file="/fs04/fc37/adam/projects/psilocybin-prl-analyses/src/prl_hgf/fitting/hierarchical_patrl.py" source_line=378}
  get-tuple-element.1932 = pred[192,20]{1,0} get-tuple-element(while.1844), index=87, metadata={op_name="jit(scan)/jit(main)/while[cond_nconsts=0 body_nconsts=6]" source_file="/fs04/fc37/adam/projects/psilocybin-prl-analyses/src/prl_hgf/fitting/hierarchical_patrl.py" source_line=378}
  get-tuple-element.1933 = pred[192,20,1]{2,1,0} get-tuple-element(while.1844), index=88, metadata={op_name="jit(scan)/jit(main)/while[cond_nconsts=0 body_nconsts=6]" source_file="/fs04/fc37/adam/projects/psilocybin-prl-analyses/src/prl_hgf/fitting/hierarchical_patrl.py" source_line=378}
  get-tuple-element.1934 = f64[192,20]{1,0} get-tuple-element(while.1844), index=89, metadata={op_name="jit(scan)/jit(main)/while[cond_nconsts=0 body_nconsts=6]" source_file="/fs04/fc37/adam/projects/psilocybin-prl-analyses/src/prl_hgf/fitting/hierarchical_patrl.py" source_line=378}
  get-tuple-element.1935 = f64[192,20]{1,0} get-tuple-element(while.1844), index=90, metadata={op_name="jit(scan)/jit(main)/while[cond_nconsts=0 body_nconsts=6]" source_file="/fs04/fc37/adam/projects/psilocybin-prl-analyses/src/prl_hgf/fitting/hierarchical_patrl.py" source_line=378}
  get-tuple-element.1936 = f64[192,20]{1,0} get-tuple-element(while.1844), index=91, metadata={op_name="jit(scan)/jit(main)/while[cond_nconsts=0 body_nconsts=6]" source_file="/fs04/fc37/adam/projects/psilocybin-prl-analyses/src/prl_hgf/fitting/hierarchical_patrl.py" source_line=378}
  get-tuple-element.1937 = f64[192,20]{1,0} get-tuple-element(while.1844), index=92, metadata={op_name="jit(scan)/jit(main)/while[cond_nconsts=0 body_nconsts=6]" source_file="/fs04/fc37/adam/projects/psilocybin-prl-analyses/src/prl_hgf/fitting/hierarchical_patrl.py" source_line=378}
  get-tuple-element.1938 = pred[192,20]{1,0} get-tuple-element(while.1844), index=93, metadata={op_name="jit(scan)/jit(main)/while[cond_nconsts=0 body_nconsts=6]" source_file="/fs04/fc37/adam/projects/psilocybin-prl-analyses/src/prl_hgf/fitting/hierarchical_patrl.py" source_line=378}
  get-tuple-element.1939 = pred[192,20,1]{2,1,0} get-tuple-element(while.1844), index=94, metadata={op_name="jit(scan)/jit(main)/while[cond_nconsts=0 body_nconsts=6]" source_file="/fs04/fc37/adam/projects/psilocybin-prl-analyses/src/prl_hgf/fitting/hierarchical_patrl.py" source_line=378}
  get-tuple-element.1940 = f64[192,20]{1,0} get-tuple-element(while.1844), index=95, metadata={op_name="jit(scan)/jit(main)/while[cond_nconsts=0 body_nconsts=6]" source_file="/fs04/fc37/adam/projects/psilocybin-prl-analyses/src/prl_hgf/fitting/hierarchical_patrl.py" source_line=378}
  get-tuple-element.1941 = f64[192,20]{1,0} get-tuple-element(while.1844), index=96, metadata={op_name="jit(scan)/jit(main)/while[cond_nconsts=0 body_nconsts=6]" source_file="/fs04/fc37/adam/projects/psilocybin-prl-analyses/src/prl_hgf/fitting/hierarchical_patrl.py" source_line=378}
  get-tuple-element.1942 = f64[192,20]{1,0} get-tuple-element(while.1844), index=97, metadata={op_name="jit(scan)/jit(main)/while[cond_nconsts=0 body_nconsts=6]" source_file="/fs04/fc37/adam/projects/psilocybin-prl-analyses/src/prl_hgf/fitting/hierarchical_patrl.py" source_line=378}
  get-tuple-element.1943 = f64[192,20]{1,0} get-tuple-element(while.1844), index=98, metadata={op_name="jit(scan)/jit(main)/while[cond_nconsts=0 body_nconsts=6]" source_file="/fs04/fc37/adam/projects/psilocybin-prl-analyses/src/prl_hgf/fitting/hierarchical_patrl.py" source_line=378}
  get-tuple-element.1944 = f64[192,20]{1,0} get-tuple-element(while.1844), index=99, metadata={op_name="jit(scan)/jit(main)/while[cond_nconsts=0 body_nconsts=6]" source_file="/fs04/fc37/adam/projects/psilocybin-prl-analyses/src/prl_hgf/fitting/hierarchical_patrl.py" source_line=378}
  get-tuple-element.1945 = f64[192,20]{1,0} get-tuple-element(while.1844), index=100, metadata={op_name="jit(scan)/jit(main)/while[cond_nconsts=0 body_nconsts=6]" source_file="/fs04/fc37/adam/projects/psilocybin-prl-analyses/src/prl_hgf/fitting/hierarchical_patrl.py" source_line=378}
  get-tuple-element.1946 = f64[192,20]{1,0} get-tuple-element(while.1844), index=101, metadata={op_name="jit(scan)/jit(main)/while[cond_nconsts=0 body_nconsts=6]" source_file="/fs04/fc37/adam/projects/psilocybin-prl-analyses/src/prl_hgf/fitting/hierarchical_patrl.py" source_line=378}
  get-tuple-element.1947 = f64[192,20]{1,0} get-tuple-element(while.1844), index=102, metadata={op_name="jit(scan)/jit(main)/while[cond_nconsts=0 body_nconsts=6]" source_file="/fs04/fc37/adam/projects/psilocybin-prl-analyses/src/prl_hgf/fitting/hierarchical_patrl.py" source_line=378}
  get-tuple-element.1948 = f64[192,20]{1,0} get-tuple-element(while.1844), index=103, metadata={op_name="jit(scan)/jit(main)/while[cond_nconsts=0 body_nconsts=6]" source_file="/fs04/fc37/adam/projects/psilocybin-prl-analyses/src/prl_hgf/fitting/hierarchical_patrl.py" source_line=378}
  get-tuple-element.1949 = f64[192,20]{1,0} get-tuple-element(while.1844), index=104, metadata={op_name="jit(scan)/jit(main)/while[cond_nconsts=0 body_nconsts=6]" source_file="/fs04/fc37/adam/projects/psilocybin-prl-analyses/src/prl_hgf/fitting/hierarchical_patrl.py" source_line=378}
  get-tuple-element.1950 = pred[192,20]{1,0} get-tuple-element(while.1844), index=105, metadata={op_name="jit(scan)/jit(main)/while[cond_nconsts=0 body_nconsts=6]" source_file="/fs04/fc37/adam/projects/psilocybin-prl-analyses/src/prl_hgf/fitting/hierarchical_patrl.py" source_line=378}
  get-tuple-element.1951 = pred[192,20]{1,0} get-tuple-element(while.1844), index=106, metadata={op_name="jit(scan)/jit(main)/while[cond_nconsts=0 body_nconsts=6]" source_file="/fs04/fc37/adam/projects/psilocybin-prl-analyses/src/prl_hgf/fitting/hierarchical_patrl.py" source_line=378}
  get-tuple-element.1952 = pred[192,20,1]{2,1,0} get-tuple-element(while.1844), index=107, metadata={op_name="jit(scan)/jit(main)/while[cond_nconsts=0 body_nconsts=6]" source_file="/fs04/fc37/adam/projects/psilocybin-prl-analyses/src/prl_hgf/fitting/hierarchical_patrl.py" source_line=378}
  ROOT tuple.1959 = (f64[20]{0}, f64[20]{0}, f64[20]{0}, f64[20]{0}, s32[20]{0}, /*index=5*/f64[20]{0}, f64[20]{0}, f64[20,1]{1,0}, f64[20]{0}, f64[20]{0}, /*index=10*/f64[20]{0}, f64[20]{0}, s64[20]{0}, f64[20]{0}, f64[20]{0}, /*index=15*/f64[20]{0}, f64[20]{0}, f64[20]{0}, f64[20]{0}, f64[20]{0}, /*index=20*/f64[20,1]{1,0}, f64[20,1]{1,0}, f64[20]{0}, f64[20]{0}, f64[20]{0}, /*index=25*/f64[20]{0}, s64[20]{0}, f64[20]{0}, f64[20]{0}, f64[20]{0}, /*index=30*/f64[20]{0}, f64[20]{0}, f64[20]{0}, f64[20]{0}, f64[20,1]{1,0}, /*index=35*/f64[192,20]{1,0}, f64[192,20]{1,0}, f64[192,20]{1,0}, f64[192,20]{1,0}, pred[192,20]{1,0}, /*index=40*/f64[192,20]{1,0}, f64[192,20]{1,0}, f64[192,20]{1,0}, f64[192,20]{1,0}, f64[192,20]{1,0}, /*index=45*/f64[192,20]{1,0}, f64[192,20]{1,0}, f64[192,20]{1,0}, pred[192,20]{1,0}, f64[192,20]{1,0}, /*index=50*/f64[192,20]{1,0}, f64[192,20]{1,0}, f64[192,20]{1,0}, f64[192,20]{1,0}, f64[192,20]{1,0}, /*index=55*/f64[192,20]{1,0}, f64[192]{0}, f64[192,20]{1,0}, f64[192,20]{1,0}, f64[192,20]{1,0}, /*index=60*/s32[192]{0}, f64[192,20]{1,0}, f64[192]{0}, f64[192,20]{1,0}, f64[192,20]{1,0}, /*index=65*/f64[192,20]{1,0}, pred[192,20]{1,0}, f64[192,20]{1,0}, f64[192,20]{1,0}, f64[192,20]{1,0}, /*index=70*/f64[192,20]{1,0}, f64[192,20]{1,0}, f64[192,20]{1,0}, f64[192]{0}, f64[192,20]{1,0}, /*index=75*/f64[192,20]{1,0}, f64[192,20]{1,0}, f64[192,20]{1,0}, f64[192,20]{1,0}, f64[192,20]{1,0}, /*index=80*/f64[192,20]{1,0}, f64[192,20]{1,0}, f64[192,20]{1,0}, f64[192,20]{1,0}, f64[192,20]{1,0}, /*index=85*/s32[192,20]{1,0}, pred[192,20]{1,0}, pred[192,20,1]{2,1,0}, f64[192,20]{1,0}, f64[192,20]{1,0}, /*index=90*/f64[192,20]{1,0}, f64[192,20]{1,0}, pred[192,20]{1,0}, pred[192,20,1]{2,1,0}, f64[192,20]{1,0}, /*index=95*/f64[192,20]{1,0}, f64[192,20]{1,0}, f64[192,20]{1,0}, f64[192,20]{1,0}, f64[192,20]{1,0}, /*index=100*/f64[192,20]{1,0}, f64[192,20]{1,0}, f64[192,20]{1,0}, f64[192,20]{1,0}, pred[192,20]{1,0}, /*index=105*/pred[192,20]{1,0}, pred[192,20,1]{2,1,0}) tuple(get-tuple-element.1846, get-tuple-element.1847, get-tuple-element.1848, get-tuple-element.1849, get-tuple-element.1850, /*index=5*/get-tuple-element.1851, get-tuple-element.1852, get-tuple-element.1853, get-tuple-element.1854, get-tuple-element.1855, /*index=10*/get-tuple-element.1856, get-tuple-element.1857, get-tuple-element.1858, get-tuple-element.1859, get-tuple-element.1860, /*index=15*/get-tuple-element.1861, get-tuple-element.1862, get-tuple-element.1863, get-tuple-element.1864, get-tuple-element.1865, /*index=20*/get-tuple-element.1866, get-tuple-element.1867, get-tuple-element.1868, get-tuple-element.1869, get-tuple-element.1870, /*index=25*/get-tuple-element.1871, get-tuple-element.1872, get-tuple-element.1873, get-tuple-element.1874, get-tuple-element.1875, /*index=30*/get-tuple-element.1876, get-tuple-element.1877, get-tuple-element.1878, get-tuple-element.1879, get-tuple-element.1880, /*index=35*/get-tuple-element.1881, get-tuple-element.1882, get-tuple-element.1883, get-tuple-element.1884, get-tuple-element.1885, /*index=40*/get-tuple-element.1886, get-tuple-element.1887, get-tuple-element.1888, get-tuple-element.1889, get-tuple-element.1890, /*index=45*/get-tuple-element.1891, get-tuple-element.1892, get-tuple-element.1893, get-tuple-element.1894, get-tuple-element.1895, /*index=50*/get-tuple-element.1896, get-tuple-element.1897, get-tuple-element.1898, get-tuple-element.1899, get-tuple-element.1900, /*index=55*/get-tuple-element.1901, get-tuple-element.1902, get-tuple-element.1903, get-tuple-element.1904, get-tuple-element.1905, /*index=60*/get-tuple-element.1906, get-tuple-element.1907, get-tuple-element.1908, get-tuple-element.1909, get-tuple-element.1910, /*index=65*/get-tuple-element.1911, get-tuple-element.1912, get-tuple-element.1913, get-tuple-element.1914, get-tuple-element.1915, /*index=70*/get-tuple-element.1916, get-tuple-element.1917, get-tuple-element.1918, get-tuple-element.1919, get-tuple-element.1920, /*index=75*/get-tuple-element.1921, get-tuple-element.1922, get-tuple-element.1923, get-tuple-element.1924, get-tuple-element.1925, /*index=80*/get-tuple-element.1926, get-tuple-element.1927, get-tuple-element.1928, get-tuple-element.1929, get-tuple-element.1930, /*index=85*/get-tuple-element.1931, get-tuple-element.1932, get-tuple-element.1933, get-tuple-element.1934, get-tuple-element.1935, /*index=90*/get-tuple-element.1936, get-tuple-element.1937, get-tuple-element.1938, get-tuple-element.1939, get-tuple-element.1940, /*index=95*/get-tuple-element.1941, get-tuple-element.1942, get-tuple-element.1943, get-tuple-element.1944, get-tuple-element.1945, /*index=100*/get-tuple-element.1946, get-tuple-element.1947, get-tuple-element.1948, get-tuple-element.1949, get-tuple-element.1950, /*index=105*/get-tuple-element.1951, get-tuple-element.1952)
} // main.1960

