HloModule jit_while, is_scheduled=true, entry_computation_layout={(s64[], f64[20]{0}, f64[20]{0}, f64[20]{0}, f64[20]{0}, /*index=5*/f64[20]{0}, f64[20]{0}, s64[], f64[], f64[20]{0}, /*index=10*/f64[20]{0}, f64[20]{0}, f64[20]{0}, f64[20]{0}, f64[20]{0}, /*index=15*/f64[], f64[], f64[10,20]{1,0}, f64[10,20]{1,0}, f64[10,20]{1,0}, /*index=20*/f64[10,20]{1,0}, f64[10,20]{1,0}, f64[10,20]{1,0}, f64[10,20]{1,0}, f64[10,20]{1,0}, /*index=25*/f64[10,20]{1,0}, f64[10,20]{1,0}, f64[10,20]{1,0}, f64[10,20]{1,0}, f64[10]{0}, /*index=30*/f64[], pred[], s32[], s32[], s32[])->(s64[], f64[20]{0}, f64[20]{0}, f64[20]{0}, f64[20]{0}, /*index=5*/f64[20]{0}, f64[20]{0}, s64[], f64[], f64[20]{0}, /*index=10*/f64[20]{0}, f64[20]{0}, f64[20]{0}, f64[20]{0}, f64[20]{0}, /*index=15*/f64[], f64[], f64[10,20]{1,0}, f64[10,20]{1,0}, f64[10,20]{1,0}, /*index=20*/f64[10,20]{1,0}, f64[10,20]{1,0}, f64[10,20]{1,0}, f64[10,20]{1,0}, f64[10,20]{1,0}, /*index=25*/f64[10,20]{1,0}, f64[10,20]{1,0}, f64[10,20]{1,0}, f64[10,20]{1,0}, f64[10]{0}, /*index=30*/f64[], pred[], s32[], s32[], s32[])}, allow_spmd_sharding_propagation_to_parameters={true,true,true,true,true,true,true,true,true,true,true,true,true,true,true,true,true,true,true,true,true,true,true,true,true,true,true,true,true,true,true,true,true,true,true}, allow_spmd_sharding_propagation_to_output={true,true,true,true,true,true,true,true,true,true,true,true,true,true,true,true,true,true,true,true,true,true,true,true,true,true,true,true,true,true,true,true,true,true,true}, frontend_attributes={fingerprint_before_lhs="900ee1c87f7c55fbc066fd3605951db5"}

scalar_add_computation {
  scalar_rhs = f64[] parameter(1)
  scalar_lhs = f64[] parameter(0)
  ROOT add.9442 = f64[] add(scalar_lhs, scalar_rhs)
}

fused_reduce {
  param_1.114 = f64[10,20]{1,0} parameter(1)
  param_2.111 = s64[10]{0} parameter(2)
  constant_3324_7 = s64[] constant(9)
  param_3.126 = s64[] parameter(3)
  subtract.813.13 = s64[] subtract(constant_3324_7, param_3.126), metadata={op_name="jit(while)/jit(main)/while/body/jit(update)/while/body/sub" source_file="/fs04/fc37/adam/projects/psilocybin-prl-analyses/src/prl_hgf/fitting/fit_vb_laplace_patrl.py" source_line=332}
  constant_226_11 = s64[] constant(0)
  compare.2626.13 = pred[] compare(subtract.813.13, constant_226_11), direction=LT, metadata={op_name="jit(while)/jit(main)/while/body/jit(update)/while/body/lt" source_file="/fs04/fc37/adam/projects/psilocybin-prl-analyses/src/prl_hgf/fitting/fit_vb_laplace_patrl.py" source_line=332}
  constant_3456_7 = s64[] constant(19)
  subtract.814.13 = s64[] subtract(constant_3456_7, param_3.126), metadata={op_name="jit(while)/jit(main)/while/body/jit(update)/while/body/add" source_file="/fs04/fc37/adam/projects/psilocybin-prl-analyses/src/prl_hgf/fitting/fit_vb_laplace_patrl.py" source_line=332}
  select.8893.13 = s64[] select(compare.2626.13, subtract.814.13, subtract.813.13), metadata={op_name="jit(while)/jit(main)/while/body/jit(update)/while/body/select_n" source_file="/fs04/fc37/adam/projects/psilocybin-prl-analyses/src/prl_hgf/fitting/fit_vb_laplace_patrl.py" source_line=332}
  dynamic-slice.5236.29 = s64[1]{0} dynamic-slice(param_2.111, select.8893.13), dynamic_slice_sizes={1}, metadata={op_name="jit(while)/jit(main)/while/body/jit(update)/while/body/dynamic_slice[slice_sizes=(1,)]" source_file="/fs04/fc37/adam/projects/psilocybin-prl-analyses/src/prl_hgf/fitting/fit_vb_laplace_patrl.py" source_line=332}
  bitcast.14930.91 = s64[] bitcast(dynamic-slice.5236.29)
  compare.2627.31 = pred[] compare(bitcast.14930.91, constant_226_11), direction=LT, metadata={op_name="jit(while)/jit(main)/while/body/jit(update)/while/body/lt" source_file="/fs04/fc37/adam/projects/psilocybin-prl-analyses/src/prl_hgf/fitting/fit_vb_laplace_patrl.py" source_line=332}
  constant_228_5 = s64[] constant(10)
  add.9444.31 = s64[] add(bitcast.14930.91, constant_228_5), metadata={op_name="jit(while)/jit(main)/while/body/jit(update)/while/body/add" source_file="/fs04/fc37/adam/projects/psilocybin-prl-analyses/src/prl_hgf/fitting/fit_vb_laplace_patrl.py" source_line=332}
  select.8894.29 = s64[] select(compare.2627.31, add.9444.31, bitcast.14930.91), metadata={op_name="jit(while)/jit(main)/while/body/jit(update)/while/body/select_n" source_file="/fs04/fc37/adam/projects/psilocybin-prl-analyses/src/prl_hgf/fitting/fit_vb_laplace_patrl.py" source_line=332}
  dynamic-slice.5238.3 = f64[1,20]{1,0} dynamic-slice(param_1.114, select.8894.29, constant_226_11), dynamic_slice_sizes={1,20}, metadata={op_name="jit(while)/jit(main)/while/body/jit(update)/while/body/dynamic_slice[slice_sizes=(1, 20)]" source_file="/fs04/fc37/adam/projects/psilocybin-prl-analyses/src/prl_hgf/fitting/fit_vb_laplace_patrl.py" source_line=332}
  bitcast.14950.3 = f64[20]{0} bitcast(dynamic-slice.5238.3)
  param_0.80 = f64[20]{0} parameter(0)
  multiply.11253.3 = f64[20]{0} multiply(bitcast.14950.3, param_0.80)
  constant_1586_3 = f64[] constant(0)
  reduce.104.1 = f64[] reduce(multiply.11253.3, constant_1586_3), dimensions={0}, to_apply=scalar_add_computation, metadata={op_name="jit(while)/jit(main)/while/body/jit(update)/while/body/dot_general[dimension_numbers=(((0,), (0,)), ((), ())) precision=(Precision.HIGHEST, Precision.HIGHEST) preferred_element_type=float64]" source_file="/fs04/fc37/adam/projects/psilocybin-prl-analyses/src/prl_hgf/fitting/fit_vb_laplace_patrl.py" source_line=332}
  param_5.4038 = f64[10,20]{1,0} parameter(5)
  dynamic-slice.5239.3.clone.1 = f64[1,20]{1,0} dynamic-slice(param_5.4038, select.8894.29, constant_226_11), dynamic_slice_sizes={1,20}, metadata={op_name="jit(while)/jit(main)/while/body/jit(update)/while/body/dynamic_slice[slice_sizes=(1, 20)]" source_file="/fs04/fc37/adam/projects/psilocybin-prl-analyses/src/prl_hgf/fitting/fit_vb_laplace_patrl.py" source_line=332}
  bitcast.14965.3.clone.1 = f64[20]{0} bitcast(dynamic-slice.5239.3.clone.1)
  param_4.4925 = f64[20]{0} parameter(4)
  multiply.11254.3.clone.1 = f64[20]{0} multiply(bitcast.14965.3.clone.1, param_4.4925)
  reduce.105.1.clone.1 = f64[] reduce(multiply.11254.3.clone.1, constant_1586_3), dimensions={0}, to_apply=scalar_add_computation, metadata={op_name="jit(while)/jit(main)/while/body/jit(update)/while/body/dot_general[dimension_numbers=(((0,), (0,)), ((), ())) precision=(Precision.HIGHEST, Precision.HIGHEST) preferred_element_type=float64]" source_file="/fs04/fc37/adam/projects/psilocybin-prl-analyses/src/prl_hgf/fitting/fit_vb_laplace_patrl.py" source_line=332}
  param_7.2491 = f64[10,20]{1,0} parameter(7)
  dynamic-slice.5240.3.clone.1 = f64[1,20]{1,0} dynamic-slice(param_7.2491, select.8894.29, constant_226_11), dynamic_slice_sizes={1,20}, metadata={op_name="jit(while)/jit(main)/while/body/jit(update)/while/body/dynamic_slice[slice_sizes=(1, 20)]" source_file="/fs04/fc37/adam/projects/psilocybin-prl-analyses/src/prl_hgf/fitting/fit_vb_laplace_patrl.py" source_line=332}
  bitcast.14982.3.clone.1 = f64[20]{0} bitcast(dynamic-slice.5240.3.clone.1)
  param_6.3225 = f64[20]{0} parameter(6)
  multiply.11255.3.clone.1 = f64[20]{0} multiply(bitcast.14982.3.clone.1, param_6.3225)
  reduce.106.1.clone.1 = f64[] reduce(multiply.11255.3.clone.1, constant_1586_3), dimensions={0}, to_apply=scalar_add_computation, metadata={op_name="jit(while)/jit(main)/while/body/jit(update)/while/body/dot_general[dimension_numbers=(((0,), (0,)), ((), ())) precision=(Precision.HIGHEST, Precision.HIGHEST) preferred_element_type=float64]" source_file="/fs04/fc37/adam/projects/psilocybin-prl-analyses/src/prl_hgf/fitting/fit_vb_laplace_patrl.py" source_line=332}
  param_9.1651 = f64[10,20]{1,0} parameter(9)
  dynamic-slice.5241.3.clone.1 = f64[1,20]{1,0} dynamic-slice(param_9.1651, select.8894.29, constant_226_11), dynamic_slice_sizes={1,20}, metadata={op_name="jit(while)/jit(main)/while/body/jit(update)/while/body/dynamic_slice[slice_sizes=(1, 20)]" source_file="/fs04/fc37/adam/projects/psilocybin-prl-analyses/src/prl_hgf/fitting/fit_vb_laplace_patrl.py" source_line=332}
  bitcast.14999.3.clone.1 = f64[20]{0} bitcast(dynamic-slice.5241.3.clone.1)
  param_8.1903 = f64[20]{0} parameter(8)
  multiply.11256.3.clone.1 = f64[20]{0} multiply(bitcast.14999.3.clone.1, param_8.1903)
  reduce.107.1.clone.1 = f64[] reduce(multiply.11256.3.clone.1, constant_1586_3), dimensions={0}, to_apply=scalar_add_computation, metadata={op_name="jit(while)/jit(main)/while/body/jit(update)/while/body/dot_general[dimension_numbers=(((0,), (0,)), ((), ())) precision=(Precision.HIGHEST, Precision.HIGHEST) preferred_element_type=float64]" source_file="/fs04/fc37/adam/projects/psilocybin-prl-analyses/src/prl_hgf/fitting/fit_vb_laplace_patrl.py" source_line=332}
  param_11.1124 = f64[10,20]{1,0} parameter(11)
  dynamic-slice.5242.3.clone.1 = f64[1,20]{1,0} dynamic-slice(param_11.1124, select.8894.29, constant_226_11), dynamic_slice_sizes={1,20}, metadata={op_name="jit(while)/jit(main)/while/body/jit(update)/while/body/dynamic_slice[slice_sizes=(1, 20)]" source_file="/fs04/fc37/adam/projects/psilocybin-prl-analyses/src/prl_hgf/fitting/fit_vb_laplace_patrl.py" source_line=332}
  bitcast.15016.3.clone.1 = f64[20]{0} bitcast(dynamic-slice.5242.3.clone.1)
  param_10.1319 = f64[20]{0} parameter(10)
  multiply.11257.3.clone.1 = f64[20]{0} multiply(bitcast.15016.3.clone.1, param_10.1319)
  reduce.108.1.clone.1 = f64[] reduce(multiply.11257.3.clone.1, constant_1586_3), dimensions={0}, to_apply=scalar_add_computation, metadata={op_name="jit(while)/jit(main)/while/body/jit(update)/while/body/dot_general[dimension_numbers=(((0,), (0,)), ((), ())) precision=(Precision.HIGHEST, Precision.HIGHEST) preferred_element_type=float64]" source_file="/fs04/fc37/adam/projects/psilocybin-prl-analyses/src/prl_hgf/fitting/fit_vb_laplace_patrl.py" source_line=332}
  ROOT tuple.2179 = (f64[], f64[], f64[], f64[], f64[]) tuple(reduce.104.1, reduce.105.1.clone.1, reduce.106.1.clone.1, reduce.107.1.clone.1, reduce.108.1.clone.1)
} // fused_reduce

fused_multiply {
  param_5.3 = f64[10]{0} parameter(5)
  param_6.132 = s64[10]{0} parameter(6)
  constant_3324_6 = s64[] constant(9)
  param_9.19 = s64[] parameter(9)
  subtract.813.11 = s64[] subtract(constant_3324_6, param_9.19), metadata={op_name="jit(while)/jit(main)/while/body/jit(update)/while/body/sub" source_file="/fs04/fc37/adam/projects/psilocybin-prl-analyses/src/prl_hgf/fitting/fit_vb_laplace_patrl.py" source_line=332}
  constant_226_3 = s64[] constant(0)
  compare.2626.11 = pred[] compare(subtract.813.11, constant_226_3), direction=LT, metadata={op_name="jit(while)/jit(main)/while/body/jit(update)/while/body/lt" source_file="/fs04/fc37/adam/projects/psilocybin-prl-analyses/src/prl_hgf/fitting/fit_vb_laplace_patrl.py" source_line=332}
  constant_3456_6 = s64[] constant(19)
  subtract.814.11 = s64[] subtract(constant_3456_6, param_9.19), metadata={op_name="jit(while)/jit(main)/while/body/jit(update)/while/body/add" source_file="/fs04/fc37/adam/projects/psilocybin-prl-analyses/src/prl_hgf/fitting/fit_vb_laplace_patrl.py" source_line=332}
  select.8893.11 = s64[] select(compare.2626.11, subtract.814.11, subtract.813.11), metadata={op_name="jit(while)/jit(main)/while/body/jit(update)/while/body/select_n" source_file="/fs04/fc37/adam/projects/psilocybin-prl-analyses/src/prl_hgf/fitting/fit_vb_laplace_patrl.py" source_line=332}
  dynamic-slice.5236.7 = s64[1]{0} dynamic-slice(param_6.132, select.8893.11), dynamic_slice_sizes={1}, metadata={op_name="jit(while)/jit(main)/while/body/jit(update)/while/body/dynamic_slice[slice_sizes=(1,)]" source_file="/fs04/fc37/adam/projects/psilocybin-prl-analyses/src/prl_hgf/fitting/fit_vb_laplace_patrl.py" source_line=332}
  bitcast.14930.25 = s64[] bitcast(dynamic-slice.5236.7)
  compare.2627.9 = pred[] compare(bitcast.14930.25, constant_226_3), direction=LT, metadata={op_name="jit(while)/jit(main)/while/body/jit(update)/while/body/lt" source_file="/fs04/fc37/adam/projects/psilocybin-prl-analyses/src/prl_hgf/fitting/fit_vb_laplace_patrl.py" source_line=332}
  constant_228_4 = s64[] constant(10)
  add.9444.9 = s64[] add(bitcast.14930.25, constant_228_4), metadata={op_name="jit(while)/jit(main)/while/body/jit(update)/while/body/add" source_file="/fs04/fc37/adam/projects/psilocybin-prl-analyses/src/prl_hgf/fitting/fit_vb_laplace_patrl.py" source_line=332}
  select.8894.7 = s64[] select(compare.2627.9, add.9444.9, bitcast.14930.25), metadata={op_name="jit(while)/jit(main)/while/body/jit(update)/while/body/select_n" source_file="/fs04/fc37/adam/projects/psilocybin-prl-analyses/src/prl_hgf/fitting/fit_vb_laplace_patrl.py" source_line=332}
  dynamic-slice.5237.1 = f64[1]{0} dynamic-slice(param_5.3, select.8894.7), dynamic_slice_sizes={1}, metadata={op_name="jit(while)/jit(main)/while/body/jit(update)/while/body/dynamic_slice[slice_sizes=(1,)]" source_file="/fs04/fc37/adam/projects/psilocybin-prl-analyses/src/prl_hgf/fitting/fit_vb_laplace_patrl.py" source_line=332}
  bitcast.14941.1 = f64[] bitcast(dynamic-slice.5237.1)
  param_3.28 = f64[] parameter(3)
  param_4.22 = f64[] parameter(4)
  add.9445.1 = f64[] add(param_3.28, param_4.22), metadata={op_name="jit(while)/jit(main)/while/body/jit(update)/while/body/add" source_file="/fs04/fc37/adam/projects/psilocybin-prl-analyses/src/prl_hgf/fitting/fit_vb_laplace_patrl.py" source_line=332}
  param_2.41 = f64[] parameter(2)
  add.9446.1 = f64[] add(add.9445.1, param_2.41), metadata={op_name="jit(while)/jit(main)/while/body/jit(update)/while/body/add" source_file="/fs04/fc37/adam/projects/psilocybin-prl-analyses/src/prl_hgf/fitting/fit_vb_laplace_patrl.py" source_line=332}
  param_1.63 = f64[] parameter(1)
  add.9447.1 = f64[] add(add.9446.1, param_1.63), metadata={op_name="jit(while)/jit(main)/while/body/jit(update)/while/body/add" source_file="/fs04/fc37/adam/projects/psilocybin-prl-analyses/src/prl_hgf/fitting/fit_vb_laplace_patrl.py" source_line=332}
  param_0.35 = f64[] parameter(0)
  add.9448.1 = f64[] add(add.9447.1, param_0.35), metadata={op_name="jit(while)/jit(main)/while/body/jit(update)/while/body/add" source_file="/fs04/fc37/adam/projects/psilocybin-prl-analyses/src/prl_hgf/fitting/fit_vb_laplace_patrl.py" source_line=332}
  param_8.51 = f64[10,20]{1,0} parameter(8)
  dynamic-slice.5243.3 = f64[1,20]{1,0} dynamic-slice(param_8.51, select.8894.7, constant_226_3), dynamic_slice_sizes={1,20}, metadata={op_name="jit(while)/jit(main)/while/body/jit(update)/while/body/dynamic_slice[slice_sizes=(1, 20)]" source_file="/fs04/fc37/adam/projects/psilocybin-prl-analyses/src/prl_hgf/fitting/fit_vb_laplace_patrl.py" source_line=332}
  bitcast.15033.3 = f64[20]{0} bitcast(dynamic-slice.5243.3)
  param_7.71 = f64[20]{0} parameter(7)
  multiply.11258.3 = f64[20]{0} multiply(bitcast.15033.3, param_7.71)
  constant_1586_2 = f64[] constant(0)
  reduce.109.1 = f64[] reduce(multiply.11258.3, constant_1586_2), dimensions={0}, to_apply=scalar_add_computation, metadata={op_name="jit(while)/jit(main)/while/body/jit(update)/while/body/dot_general[dimension_numbers=(((0,), (0,)), ((), ())) precision=(Precision.HIGHEST, Precision.HIGHEST) preferred_element_type=float64]" source_file="/fs04/fc37/adam/projects/psilocybin-prl-analyses/src/prl_hgf/fitting/fit_vb_laplace_patrl.py" source_line=332}
  add.9449.1 = f64[] add(add.9448.1, reduce.109.1), metadata={op_name="jit(while)/jit(main)/while/body/jit(update)/while/body/add" source_file="/fs04/fc37/adam/projects/psilocybin-prl-analyses/src/prl_hgf/fitting/fit_vb_laplace_patrl.py" source_line=332}
  ROOT multiply.11259.1 = f64[] multiply(bitcast.14941.1, add.9449.1), metadata={op_name="jit(while)/jit(main)/while/body/jit(update)/while/body/mul" source_file="/fs04/fc37/adam/projects/psilocybin-prl-analyses/src/prl_hgf/fitting/fit_vb_laplace_patrl.py" source_line=332}
} // fused_multiply

fused_dynamic_update_slice {
  param_0 = f64[10]{0} parameter(0)
  param_1.100 = f64[] parameter(1)
  bitcast.15136.1 = f64[1]{0} bitcast(param_1.100)
  constant_3324_3 = s64[] constant(9)
  param_2.115 = s64[] parameter(2)
  subtract.813.5 = s64[] subtract(constant_3324_3, param_2.115), metadata={op_name="jit(while)/jit(main)/while/body/jit(update)/while/body/sub" source_file="/fs04/fc37/adam/projects/psilocybin-prl-analyses/src/prl_hgf/fitting/fit_vb_laplace_patrl.py" source_line=332}
  constant_226_2 = s64[] constant(0)
  compare.2626.5 = pred[] compare(subtract.813.5, constant_226_2), direction=LT, metadata={op_name="jit(while)/jit(main)/while/body/jit(update)/while/body/lt" source_file="/fs04/fc37/adam/projects/psilocybin-prl-analyses/src/prl_hgf/fitting/fit_vb_laplace_patrl.py" source_line=332}
  constant_3456_3 = s64[] constant(19)
  subtract.814.5 = s64[] subtract(constant_3456_3, param_2.115), metadata={op_name="jit(while)/jit(main)/while/body/jit(update)/while/body/add" source_file="/fs04/fc37/adam/projects/psilocybin-prl-analyses/src/prl_hgf/fitting/fit_vb_laplace_patrl.py" source_line=332}
  select.8893.5 = s64[] select(compare.2626.5, subtract.814.5, subtract.813.5), metadata={op_name="jit(while)/jit(main)/while/body/jit(update)/while/body/select_n" source_file="/fs04/fc37/adam/projects/psilocybin-prl-analyses/src/prl_hgf/fitting/fit_vb_laplace_patrl.py" source_line=332}
  ROOT dynamic-update-slice.5521.1 = f64[10]{0} dynamic-update-slice(param_0, bitcast.15136.1, select.8893.5), metadata={op_name="jit(while)/jit(main)/while/body/jit(update)/while/body/dynamic_update_slice" source_file="/fs04/fc37/adam/projects/psilocybin-prl-analyses/src/prl_hgf/fitting/fit_vb_laplace_patrl.py" source_line=332}
} // fused_dynamic_update_slice

fused_add {
  param_0.3 = f64[20]{0} parameter(0)
  param_2.104 = f64[] parameter(2)
  negate.1711.5 = f64[] negate(param_2.104), metadata={op_name="jit(while)/jit(main)/while/body/jit(update)/while/body/neg" source_file="/fs04/fc37/adam/projects/psilocybin-prl-analyses/src/prl_hgf/fitting/fit_vb_laplace_patrl.py" source_line=332}
  broadcast.4916.4 = f64[1,20]{1,0} broadcast(negate.1711.5), dimensions={}, metadata={op_name="jit(while)/jit(main)/while/body/jit(update)/while/body/mul" source_file="/fs04/fc37/adam/projects/psilocybin-prl-analyses/src/prl_hgf/fitting/fit_vb_laplace_patrl.py" source_line=332}
  param_1.42 = f64[10,20]{1,0} parameter(1)
  param_3.110 = s64[10]{0} parameter(3)
  constant_3324_2 = s64[] constant(9)
  param_4.124 = s64[] parameter(4)
  subtract.813.3 = s64[] subtract(constant_3324_2, param_4.124), metadata={op_name="jit(while)/jit(main)/while/body/jit(update)/while/body/sub" source_file="/fs04/fc37/adam/projects/psilocybin-prl-analyses/src/prl_hgf/fitting/fit_vb_laplace_patrl.py" source_line=332}
  constant_226_4 = s64[] constant(0)
  compare.2626.3 = pred[] compare(subtract.813.3, constant_226_4), direction=LT, metadata={op_name="jit(while)/jit(main)/while/body/jit(update)/while/body/lt" source_file="/fs04/fc37/adam/projects/psilocybin-prl-analyses/src/prl_hgf/fitting/fit_vb_laplace_patrl.py" source_line=332}
  constant_3456_2 = s64[] constant(19)
  subtract.814.3 = s64[] subtract(constant_3456_2, param_4.124), metadata={op_name="jit(while)/jit(main)/while/body/jit(update)/while/body/add" source_file="/fs04/fc37/adam/projects/psilocybin-prl-analyses/src/prl_hgf/fitting/fit_vb_laplace_patrl.py" source_line=332}
  select.8893.3 = s64[] select(compare.2626.3, subtract.814.3, subtract.813.3), metadata={op_name="jit(while)/jit(main)/while/body/jit(update)/while/body/select_n" source_file="/fs04/fc37/adam/projects/psilocybin-prl-analyses/src/prl_hgf/fitting/fit_vb_laplace_patrl.py" source_line=332}
  dynamic-slice.5236.27 = s64[1]{0} dynamic-slice(param_3.110, select.8893.3), dynamic_slice_sizes={1}, metadata={op_name="jit(while)/jit(main)/while/body/jit(update)/while/body/dynamic_slice[slice_sizes=(1,)]" source_file="/fs04/fc37/adam/projects/psilocybin-prl-analyses/src/prl_hgf/fitting/fit_vb_laplace_patrl.py" source_line=332}
  bitcast.14930.85 = s64[] bitcast(dynamic-slice.5236.27)
  compare.2627.29 = pred[] compare(bitcast.14930.85, constant_226_4), direction=LT, metadata={op_name="jit(while)/jit(main)/while/body/jit(update)/while/body/lt" source_file="/fs04/fc37/adam/projects/psilocybin-prl-analyses/src/prl_hgf/fitting/fit_vb_laplace_patrl.py" source_line=332}
  constant_228_1 = s64[] constant(10)
  add.9444.29 = s64[] add(bitcast.14930.85, constant_228_1), metadata={op_name="jit(while)/jit(main)/while/body/jit(update)/while/body/add" source_file="/fs04/fc37/adam/projects/psilocybin-prl-analyses/src/prl_hgf/fitting/fit_vb_laplace_patrl.py" source_line=332}
  select.8894.27 = s64[] select(compare.2627.29, add.9444.29, bitcast.14930.85), metadata={op_name="jit(while)/jit(main)/while/body/jit(update)/while/body/select_n" source_file="/fs04/fc37/adam/projects/psilocybin-prl-analyses/src/prl_hgf/fitting/fit_vb_laplace_patrl.py" source_line=332}
  dynamic-slice.5247.1 = f64[1,20]{1,0} dynamic-slice(param_1.42, select.8894.27, constant_226_4), dynamic_slice_sizes={1,20}, metadata={op_name="jit(while)/jit(main)/while/body/jit(update)/while/body/dynamic_slice[slice_sizes=(1, 20)]" source_file="/fs04/fc37/adam/projects/psilocybin-prl-analyses/src/prl_hgf/fitting/fit_vb_laplace_patrl.py" source_line=332}
  multiply.11263.1 = f64[1,20]{1,0} multiply(broadcast.4916.4, dynamic-slice.5247.1), metadata={op_name="jit(while)/jit(main)/while/body/jit(update)/while/body/mul" source_file="/fs04/fc37/adam/projects/psilocybin-prl-analyses/src/prl_hgf/fitting/fit_vb_laplace_patrl.py" source_line=332}
  bitcast.15099.1 = f64[20]{0} bitcast(multiply.11263.1)
  add.9453.1 = f64[20]{0} add(param_0.3, bitcast.15099.1), metadata={op_name="jit(while)/jit(main)/while/body/jit(update)/while/body/add" source_file="/fs04/fc37/adam/projects/psilocybin-prl-analyses/src/prl_hgf/fitting/fit_vb_laplace_patrl.py" source_line=332}
  param_5.4034 = f64[20]{0} parameter(5)
  param_6.3218 = f64[10,20]{1,0} parameter(6)
  dynamic-slice.5248.1.clone.1 = f64[1,20]{1,0} dynamic-slice(param_6.3218, select.8894.27, constant_226_4), dynamic_slice_sizes={1,20}, metadata={op_name="jit(while)/jit(main)/while/body/jit(update)/while/body/dynamic_slice[slice_sizes=(1, 20)]" source_file="/fs04/fc37/adam/projects/psilocybin-prl-analyses/src/prl_hgf/fitting/fit_vb_laplace_patrl.py" source_line=332}
  multiply.11264.1.clone.1 = f64[1,20]{1,0} multiply(broadcast.4916.4, dynamic-slice.5248.1.clone.1), metadata={op_name="jit(while)/jit(main)/while/body/jit(update)/while/body/mul" source_file="/fs04/fc37/adam/projects/psilocybin-prl-analyses/src/prl_hgf/fitting/fit_vb_laplace_patrl.py" source_line=332}
  bitcast.15114.1.clone.1 = f64[20]{0} bitcast(multiply.11264.1.clone.1)
  add.9454.1.clone.1 = f64[20]{0} add(param_5.4034, bitcast.15114.1.clone.1), metadata={op_name="jit(while)/jit(main)/while/body/jit(update)/while/body/add" source_file="/fs04/fc37/adam/projects/psilocybin-prl-analyses/src/prl_hgf/fitting/fit_vb_laplace_patrl.py" source_line=332}
  param_7.2480 = f64[20]{0} parameter(7)
  param_8.1892 = f64[10,20]{1,0} parameter(8)
  dynamic-slice.5249.1.clone.1 = f64[1,20]{1,0} dynamic-slice(param_8.1892, select.8894.27, constant_226_4), dynamic_slice_sizes={1,20}, metadata={op_name="jit(while)/jit(main)/while/body/jit(update)/while/body/dynamic_slice[slice_sizes=(1, 20)]" source_file="/fs04/fc37/adam/projects/psilocybin-prl-analyses/src/prl_hgf/fitting/fit_vb_laplace_patrl.py" source_line=332}
  multiply.11265.1.clone.1 = f64[1,20]{1,0} multiply(broadcast.4916.4, dynamic-slice.5249.1.clone.1), metadata={op_name="jit(while)/jit(main)/while/body/jit(update)/while/body/mul" source_file="/fs04/fc37/adam/projects/psilocybin-prl-analyses/src/prl_hgf/fitting/fit_vb_laplace_patrl.py" source_line=332}
  bitcast.15129.1.clone.1 = f64[20]{0} bitcast(multiply.11265.1.clone.1)
  add.9455.1.clone.1 = f64[20]{0} add(param_7.2480, bitcast.15129.1.clone.1), metadata={op_name="jit(while)/jit(main)/while/body/jit(update)/while/body/add" source_file="/fs04/fc37/adam/projects/psilocybin-prl-analyses/src/prl_hgf/fitting/fit_vb_laplace_patrl.py" source_line=332}
  param_9.1636 = f64[20]{0} parameter(9)
  param_10.1308 = f64[10,20]{1,0} parameter(10)
  dynamic-slice.5246.1.clone.1 = f64[1,20]{1,0} dynamic-slice(param_10.1308, select.8894.27, constant_226_4), dynamic_slice_sizes={1,20}, metadata={op_name="jit(while)/jit(main)/while/body/jit(update)/while/body/dynamic_slice[slice_sizes=(1, 20)]" source_file="/fs04/fc37/adam/projects/psilocybin-prl-analyses/src/prl_hgf/fitting/fit_vb_laplace_patrl.py" source_line=332}
  multiply.11262.1.clone.1 = f64[1,20]{1,0} multiply(broadcast.4916.4, dynamic-slice.5246.1.clone.1), metadata={op_name="jit(while)/jit(main)/while/body/jit(update)/while/body/mul" source_file="/fs04/fc37/adam/projects/psilocybin-prl-analyses/src/prl_hgf/fitting/fit_vb_laplace_patrl.py" source_line=332}
  bitcast.15084.1.clone.1 = f64[20]{0} bitcast(multiply.11262.1.clone.1)
  add.9452.1.clone.1 = f64[20]{0} add(param_9.1636, bitcast.15084.1.clone.1), metadata={op_name="jit(while)/jit(main)/while/body/jit(update)/while/body/add" source_file="/fs04/fc37/adam/projects/psilocybin-prl-analyses/src/prl_hgf/fitting/fit_vb_laplace_patrl.py" source_line=332}
  param_11.1109 = f64[20]{0} parameter(11)
  param_12.920 = f64[10,20]{1,0} parameter(12)
  dynamic-slice.5244.1.clone.1 = f64[1,20]{1,0} dynamic-slice(param_12.920, select.8894.27, constant_226_4), dynamic_slice_sizes={1,20}, metadata={op_name="jit(while)/jit(main)/while/body/jit(update)/while/body/dynamic_slice[slice_sizes=(1, 20)]" source_file="/fs04/fc37/adam/projects/psilocybin-prl-analyses/src/prl_hgf/fitting/fit_vb_laplace_patrl.py" source_line=332}
  multiply.11260.1.clone.1 = f64[1,20]{1,0} multiply(broadcast.4916.4, dynamic-slice.5244.1.clone.1), metadata={op_name="jit(while)/jit(main)/while/body/jit(update)/while/body/mul" source_file="/fs04/fc37/adam/projects/psilocybin-prl-analyses/src/prl_hgf/fitting/fit_vb_laplace_patrl.py" source_line=332}
  bitcast.15054.1.clone.1 = f64[20]{0} bitcast(multiply.11260.1.clone.1)
  add.9450.1.clone.1 = f64[20]{0} add(param_11.1109, bitcast.15054.1.clone.1), metadata={op_name="jit(while)/jit(main)/while/body/jit(update)/while/body/add" source_file="/fs04/fc37/adam/projects/psilocybin-prl-analyses/src/prl_hgf/fitting/fit_vb_laplace_patrl.py" source_line=332}
  param_13.865 = f64[20]{0} parameter(13)
  param_14.846 = f64[10,20]{1,0} parameter(14)
  dynamic-slice.5245.1.clone.1 = f64[1,20]{1,0} dynamic-slice(param_14.846, select.8894.27, constant_226_4), dynamic_slice_sizes={1,20}, metadata={op_name="jit(while)/jit(main)/while/body/jit(update)/while/body/dynamic_slice[slice_sizes=(1, 20)]" source_file="/fs04/fc37/adam/projects/psilocybin-prl-analyses/src/prl_hgf/fitting/fit_vb_laplace_patrl.py" source_line=332}
  multiply.11261.1.clone.1 = f64[1,20]{1,0} multiply(broadcast.4916.4, dynamic-slice.5245.1.clone.1), metadata={op_name="jit(while)/jit(main)/while/body/jit(update)/while/body/mul" source_file="/fs04/fc37/adam/projects/psilocybin-prl-analyses/src/prl_hgf/fitting/fit_vb_laplace_patrl.py" source_line=332}
  bitcast.15069.1.clone.1 = f64[20]{0} bitcast(multiply.11261.1.clone.1)
  add.9451.1.clone.1 = f64[20]{0} add(param_13.865, bitcast.15069.1.clone.1), metadata={op_name="jit(while)/jit(main)/while/body/jit(update)/while/body/add" source_file="/fs04/fc37/adam/projects/psilocybin-prl-analyses/src/prl_hgf/fitting/fit_vb_laplace_patrl.py" source_line=332}
  ROOT tuple.2175 = (f64[20]{0}, f64[20]{0}, f64[20]{0}, f64[20]{0}, f64[20]{0}, /*index=5*/f64[20]{0}) tuple(add.9453.1, add.9454.1.clone.1, add.9455.1.clone.1, add.9452.1.clone.1, add.9450.1.clone.1, /*index=5*/add.9451.1.clone.1)
} // fused_add

fused_add.1 {
  param_0.78 = s64[] parameter(0)
  constant_227_1 = s64[] constant(1)
  ROOT add.9443.1 = s64[] add(param_0.78, constant_227_1), metadata={op_name="jit(while)/jit(main)/while/body/jit(update)/while/body/add" source_file="/fs04/fc37/adam/projects/psilocybin-prl-analyses/src/prl_hgf/fitting/fit_vb_laplace_patrl.py" source_line=332}
}

command_buffer.66 {
  p.1144 = f64[20]{0} parameter(0)
  p.1145 = f64[10,20]{1,0} parameter(1)
  p.1146 = s64[10]{0} parameter(2)
  p.1147 = s64[] parameter(3)
  p.1148 = f64[20]{0} parameter(4)
  p.1149 = f64[10,20]{1,0} parameter(5)
  p.1150 = f64[20]{0} parameter(6)
  p.1151 = f64[10,20]{1,0} parameter(7)
  p.1152 = f64[20]{0} parameter(8)
  p.1153 = f64[10,20]{1,0} parameter(9)
  p.1154 = f64[20]{0} parameter(10)
  p.1155 = f64[10,20]{1,0} parameter(11)
  p.1156 = f64[10]{0} parameter(12)
  p.1157 = f64[20]{0} parameter(13)
  p.1158 = f64[10,20]{1,0} parameter(14)
  p.1159 = f64[10]{0} parameter(15)
  p.1160 = f64[10,20]{1,0} parameter(16)
  p.1161 = f64[10,20]{1,0} parameter(17)
  p.1162 = f64[10,20]{1,0} parameter(18)
  p.1163 = f64[10,20]{1,0} parameter(19)
  p.1164 = f64[10,20]{1,0} parameter(20)
  p.1165 = f64[10,20]{1,0} parameter(21)
  loop_reduce_fusion = (f64[], f64[], f64[], f64[], f64[]) fusion(p.1144, p.1145, p.1146, p.1147, p.1148, /*index=5*/p.1149, p.1150, p.1151, p.1152, p.1153, /*index=10*/p.1154, p.1155), kind=kLoop, calls=fused_reduce, metadata={op_name="jit(while)/jit(main)/while/body/jit(update)/while/body/dot_general[dimension_numbers=(((0,), (0,)), ((), ())) precision=(Precision.HIGHEST, Precision.HIGHEST) preferred_element_type=float64]" source_file="/fs04/fc37/adam/projects/psilocybin-prl-analyses/src/prl_hgf/fitting/fit_vb_laplace_patrl.py" source_line=332}
  get-tuple-element.59119 = f64[] get-tuple-element(loop_reduce_fusion), index=4, metadata={op_name="jit(while)/jit(main)/while/body/jit(update)/while/body/dot_general[dimension_numbers=(((0,), (0,)), ((), ())) precision=(Precision.HIGHEST, Precision.HIGHEST) preferred_element_type=float64]" source_file="/fs04/fc37/adam/projects/psilocybin-prl-analyses/src/prl_hgf/fitting/fit_vb_laplace_patrl.py" source_line=332}
  get-tuple-element.59118 = f64[] get-tuple-element(loop_reduce_fusion), index=3, metadata={op_name="jit(while)/jit(main)/while/body/jit(update)/while/body/dot_general[dimension_numbers=(((0,), (0,)), ((), ())) precision=(Precision.HIGHEST, Precision.HIGHEST) preferred_element_type=float64]" source_file="/fs04/fc37/adam/projects/psilocybin-prl-analyses/src/prl_hgf/fitting/fit_vb_laplace_patrl.py" source_line=332}
  get-tuple-element.59117 = f64[] get-tuple-element(loop_reduce_fusion), index=2, metadata={op_name="jit(while)/jit(main)/while/body/jit(update)/while/body/dot_general[dimension_numbers=(((0,), (0,)), ((), ())) precision=(Precision.HIGHEST, Precision.HIGHEST) preferred_element_type=float64]" source_file="/fs04/fc37/adam/projects/psilocybin-prl-analyses/src/prl_hgf/fitting/fit_vb_laplace_patrl.py" source_line=332}
  get-tuple-element.59116 = f64[] get-tuple-element(loop_reduce_fusion), index=1, metadata={op_name="jit(while)/jit(main)/while/body/jit(update)/while/body/dot_general[dimension_numbers=(((0,), (0,)), ((), ())) precision=(Precision.HIGHEST, Precision.HIGHEST) preferred_element_type=float64]" source_file="/fs04/fc37/adam/projects/psilocybin-prl-analyses/src/prl_hgf/fitting/fit_vb_laplace_patrl.py" source_line=332}
  get-tuple-element.59115 = f64[] get-tuple-element(loop_reduce_fusion), index=0, metadata={op_name="jit(while)/jit(main)/while/body/jit(update)/while/body/dot_general[dimension_numbers=(((0,), (0,)), ((), ())) precision=(Precision.HIGHEST, Precision.HIGHEST) preferred_element_type=float64]" source_file="/fs04/fc37/adam/projects/psilocybin-prl-analyses/src/prl_hgf/fitting/fit_vb_laplace_patrl.py" source_line=332}
  loop_multiply_fusion = f64[] fusion(get-tuple-element.59119, get-tuple-element.59118, get-tuple-element.59117, get-tuple-element.59115, get-tuple-element.59116, /*index=5*/p.1156, p.1146, p.1157, p.1158, p.1147), kind=kLoop, calls=fused_multiply, metadata={op_name="jit(while)/jit(main)/while/body/jit(update)/while/body/mul" source_file="/fs04/fc37/adam/projects/psilocybin-prl-analyses/src/prl_hgf/fitting/fit_vb_laplace_patrl.py" source_line=332}
  loop_dynamic_update_slice_fusion = f64[10]{0} fusion(p.1159, loop_multiply_fusion, p.1147), kind=kLoop, calls=fused_dynamic_update_slice, metadata={op_name="jit(while)/jit(main)/while/body/jit(update)/while/body/dynamic_update_slice" source_file="/fs04/fc37/adam/projects/psilocybin-prl-analyses/src/prl_hgf/fitting/fit_vb_laplace_patrl.py" source_line=332}
  loop_add_fusion = (f64[20]{0}, f64[20]{0}, f64[20]{0}, f64[20]{0}, f64[20]{0}, /*index=5*/f64[20]{0}) fusion(p.1152, p.1160, loop_multiply_fusion, p.1146, p.1147, /*index=5*/p.1154, p.1161, p.1157, p.1162, p.1150, /*index=10*/p.1163, p.1144, p.1164, p.1148, p.1165), kind=kLoop, calls=fused_add, control-predecessors={loop_reduce_fusion, loop_multiply_fusion}, metadata={op_name="jit(while)/jit(main)/while/body/jit(update)/while/body/add" source_file="/fs04/fc37/adam/projects/psilocybin-prl-analyses/src/prl_hgf/fitting/fit_vb_laplace_patrl.py" source_line=332}
  loop_add_fusion.1 = s64[] fusion(p.1147), kind=kLoop, calls=fused_add.1, control-predecessors={loop_reduce_fusion, loop_multiply_fusion, loop_dynamic_update_slice_fusion, loop_add_fusion}, metadata={op_name="jit(while)/jit(main)/while/body/jit(update)/while/body/add" source_file="/fs04/fc37/adam/projects/psilocybin-prl-analyses/src/prl_hgf/fitting/fit_vb_laplace_patrl.py" source_line=332 deduplicated_name="loop_add_fusion.1"}
  ROOT tuple.2582 = (f64[10]{0}, (f64[20]{0}, f64[20]{0}, f64[20]{0}, f64[20]{0}, f64[20]{0}, /*index=5*/f64[20]{0}), s64[]) tuple(loop_dynamic_update_slice_fusion, loop_add_fusion, loop_add_fusion.1)
} // command_buffer.66

region_1.202 {
  arg_tuple.203.0 = (s64[], f64[20]{0}, f64[20]{0}, f64[20]{0}, f64[20]{0}, /*index=5*/f64[20]{0}, f64[20]{0}, f64[10]{0}, s64[10]{0}, f64[10,20]{1,0}, /*index=10*/f64[10,20]{1,0}, f64[10,20]{1,0}, f64[10,20]{1,0}, f64[10,20]{1,0}, f64[10,20]{1,0}, /*index=15*/f64[10,20]{1,0}, f64[10,20]{1,0}, f64[10,20]{1,0}, f64[10,20]{1,0}, f64[10,20]{1,0}, /*index=20*/f64[10,20]{1,0}, f64[10]{0}) parameter(0)
  get-tuple-element.60874 = s64[] get-tuple-element(arg_tuple.203.0), index=0
  get-tuple-element.60904 = s64[10]{0} get-tuple-element(arg_tuple.203.0), index=8
  get-tuple-element.60875 = f64[20]{0} get-tuple-element(arg_tuple.203.0), index=1
  get-tuple-element.60876 = f64[20]{0} get-tuple-element(arg_tuple.203.0), index=2
  get-tuple-element.60877 = f64[20]{0} get-tuple-element(arg_tuple.203.0), index=3
  get-tuple-element.60878 = f64[20]{0} get-tuple-element(arg_tuple.203.0), index=4
  get-tuple-element.60879 = f64[20]{0} get-tuple-element(arg_tuple.203.0), index=5
  get-tuple-element.60880 = f64[20]{0} get-tuple-element(arg_tuple.203.0), index=6
  get-tuple-element.60905 = f64[10,20]{1,0} get-tuple-element(arg_tuple.203.0), index=9
  get-tuple-element.60906 = f64[10,20]{1,0} get-tuple-element(arg_tuple.203.0), index=10
  get-tuple-element.60907 = f64[10,20]{1,0} get-tuple-element(arg_tuple.203.0), index=11
  get-tuple-element.60908 = f64[10,20]{1,0} get-tuple-element(arg_tuple.203.0), index=12
  get-tuple-element.60909 = f64[10,20]{1,0} get-tuple-element(arg_tuple.203.0), index=13
  get-tuple-element.60910 = f64[10,20]{1,0} get-tuple-element(arg_tuple.203.0), index=14
  get-tuple-element.60911 = f64[10,20]{1,0} get-tuple-element(arg_tuple.203.0), index=15
  get-tuple-element.60912 = f64[10,20]{1,0} get-tuple-element(arg_tuple.203.0), index=16
  get-tuple-element.60913 = f64[10,20]{1,0} get-tuple-element(arg_tuple.203.0), index=17
  get-tuple-element.60914 = f64[10,20]{1,0} get-tuple-element(arg_tuple.203.0), index=18
  get-tuple-element.60915 = f64[10,20]{1,0} get-tuple-element(arg_tuple.203.0), index=19
  get-tuple-element.60916 = f64[10,20]{1,0} get-tuple-element(arg_tuple.203.0), index=20
  get-tuple-element.60917 = f64[10]{0} get-tuple-element(arg_tuple.203.0), index=21
  get-tuple-element.60881 = f64[10]{0} get-tuple-element(arg_tuple.203.0), index=7
  call.51 = (f64[10]{0}, (f64[20]{0}, f64[20]{0}, f64[20]{0}, f64[20]{0}, f64[20]{0}, /*index=5*/f64[20]{0}), s64[]) call(get-tuple-element.60875, get-tuple-element.60905, get-tuple-element.60904, get-tuple-element.60874, get-tuple-element.60876, /*index=5*/get-tuple-element.60906, get-tuple-element.60877, get-tuple-element.60907, get-tuple-element.60878, get-tuple-element.60908, /*index=10*/get-tuple-element.60879, get-tuple-element.60909, get-tuple-element.60917, get-tuple-element.60880, get-tuple-element.60910, /*index=15*/get-tuple-element.60881, get-tuple-element.60914, get-tuple-element.60915, get-tuple-element.60916, get-tuple-element.60913, /*index=20*/get-tuple-element.60911, get-tuple-element.60912), to_apply=command_buffer.66
  get-tuple-element.63870 = f64[10]{0} get-tuple-element(call.51), index=0
  get-tuple-element.63871 = (f64[20]{0}, f64[20]{0}, f64[20]{0}, f64[20]{0}, f64[20]{0}, /*index=5*/f64[20]{0}) get-tuple-element(call.51), index=1
  get-tuple-element.63872 = s64[] get-tuple-element(call.51), index=2
  get-tuple-element.60898 = f64[20]{0} get-tuple-element(get-tuple-element.63871), index=5, metadata={op_name="jit(while)/jit(main)/while/body/jit(update)/while/body/add" source_file="/fs04/fc37/adam/projects/psilocybin-prl-analyses/src/prl_hgf/fitting/fit_vb_laplace_patrl.py" source_line=332}
  get-tuple-element.60897 = f64[20]{0} get-tuple-element(get-tuple-element.63871), index=4, metadata={op_name="jit(while)/jit(main)/while/body/jit(update)/while/body/add" source_file="/fs04/fc37/adam/projects/psilocybin-prl-analyses/src/prl_hgf/fitting/fit_vb_laplace_patrl.py" source_line=332}
  get-tuple-element.60899 = f64[20]{0} get-tuple-element(get-tuple-element.63871), index=3, metadata={op_name="jit(while)/jit(main)/while/body/jit(update)/while/body/add" source_file="/fs04/fc37/adam/projects/psilocybin-prl-analyses/src/prl_hgf/fitting/fit_vb_laplace_patrl.py" source_line=332}
  get-tuple-element.60902 = f64[20]{0} get-tuple-element(get-tuple-element.63871), index=2, metadata={op_name="jit(while)/jit(main)/while/body/jit(update)/while/body/add" source_file="/fs04/fc37/adam/projects/psilocybin-prl-analyses/src/prl_hgf/fitting/fit_vb_laplace_patrl.py" source_line=332}
  get-tuple-element.60901 = f64[20]{0} get-tuple-element(get-tuple-element.63871), index=1, metadata={op_name="jit(while)/jit(main)/while/body/jit(update)/while/body/add" source_file="/fs04/fc37/adam/projects/psilocybin-prl-analyses/src/prl_hgf/fitting/fit_vb_laplace_patrl.py" source_line=332}
  get-tuple-element.60900 = f64[20]{0} get-tuple-element(get-tuple-element.63871), index=0, metadata={op_name="jit(while)/jit(main)/while/body/jit(update)/while/body/add" source_file="/fs04/fc37/adam/projects/psilocybin-prl-analyses/src/prl_hgf/fitting/fit_vb_laplace_patrl.py" source_line=332}
  ROOT tuple.2486 = (s64[], f64[20]{0}, f64[20]{0}, f64[20]{0}, f64[20]{0}, /*index=5*/f64[20]{0}, f64[20]{0}, f64[10]{0}, s64[10]{0}, f64[10,20]{1,0}, /*index=10*/f64[10,20]{1,0}, f64[10,20]{1,0}, f64[10,20]{1,0}, f64[10,20]{1,0}, f64[10,20]{1,0}, /*index=15*/f64[10,20]{1,0}, f64[10,20]{1,0}, f64[10,20]{1,0}, f64[10,20]{1,0}, f64[10,20]{1,0}, /*index=20*/f64[10,20]{1,0}, f64[10]{0}) tuple(get-tuple-element.63872, get-tuple-element.60897, get-tuple-element.60898, get-tuple-element.60899, get-tuple-element.60900, /*index=5*/get-tuple-element.60901, get-tuple-element.60902, get-tuple-element.63870, get-tuple-element.60904, get-tuple-element.60905, /*index=10*/get-tuple-element.60906, get-tuple-element.60907, get-tuple-element.60908, get-tuple-element.60909, get-tuple-element.60910, /*index=15*/get-tuple-element.60911, get-tuple-element.60912, get-tuple-element.60913, get-tuple-element.60914, get-tuple-element.60915, /*index=20*/get-tuple-element.60916, get-tuple-element.60917)
} // region_1.202

fused_compare {
  param_0.84 = s64[] parameter(0)
  constant_275_1 = s64[] constant(10)
  ROOT compare.2628.1 = pred[] compare(param_0.84, constant_275_1), direction=LT, metadata={op_name="jit(while)/jit(main)/while/body/jit(update)/while/cond/lt" source_file="/fs04/fc37/adam/projects/psilocybin-prl-analyses/src/prl_hgf/fitting/fit_vb_laplace_patrl.py" source_line=332}
}

region_2.251 {
  arg_tuple.252.0 = (s64[], f64[20]{0}, f64[20]{0}, f64[20]{0}, f64[20]{0}, /*index=5*/f64[20]{0}, f64[20]{0}, f64[10]{0}, s64[10]{0}, f64[10,20]{1,0}, /*index=10*/f64[10,20]{1,0}, f64[10,20]{1,0}, f64[10,20]{1,0}, f64[10,20]{1,0}, f64[10,20]{1,0}, /*index=15*/f64[10,20]{1,0}, f64[10,20]{1,0}, f64[10,20]{1,0}, f64[10,20]{1,0}, f64[10,20]{1,0}, /*index=20*/f64[10,20]{1,0}, f64[10]{0}) parameter(0)
  get-tuple-element.253.0 = s64[] get-tuple-element(arg_tuple.252.0), index=0
  ROOT loop_compare_fusion = pred[] fusion(get-tuple-element.253.0), kind=kLoop, calls=fused_compare, metadata={op_name="jit(while)/jit(main)/while/body/jit(update)/while/cond/lt" source_file="/fs04/fc37/adam/projects/psilocybin-prl-analyses/src/prl_hgf/fitting/fit_vb_laplace_patrl.py" source_line=332 deduplicated_name="loop_compare_fusion"}
}

fused_add.2 {
  param_0.88 = f64[20]{0} parameter(0)
  param_2.201 = f64[] parameter(2)
  broadcast.4917.3 = f64[1,20]{1,0} broadcast(param_2.201), dimensions={}, metadata={op_name="jit(while)/jit(main)/while/body/jit(update)/while/body/mul" source_file="/fs04/fc37/adam/projects/psilocybin-prl-analyses/src/prl_hgf/fitting/fit_vb_laplace_patrl.py" source_line=332}
  param_1.160 = f64[10,20]{1,0} parameter(1)
  param_3.200 = s64[10]{0} parameter(3)
  param_4.204 = s64[] parameter(4)
  constant_1932_8 = s64[] constant(0)
  compare.2629.29 = pred[] compare(param_4.204, constant_1932_8), direction=LT, metadata={op_name="jit(while)/jit(main)/while/body/jit(update)/while/body/lt" source_file="/fs04/fc37/adam/projects/psilocybin-prl-analyses/src/prl_hgf/fitting/fit_vb_laplace_patrl.py" source_line=332}
  constant_1931_1 = s64[] constant(10)
  add.9457.29 = s64[] add(param_4.204, constant_1931_1), metadata={op_name="jit(while)/jit(main)/while/body/jit(update)/while/body/add" source_file="/fs04/fc37/adam/projects/psilocybin-prl-analyses/src/prl_hgf/fitting/fit_vb_laplace_patrl.py" source_line=332}
  select.8895.29 = s64[] select(compare.2629.29, add.9457.29, param_4.204), metadata={op_name="jit(while)/jit(main)/while/body/jit(update)/while/body/select_n" source_file="/fs04/fc37/adam/projects/psilocybin-prl-analyses/src/prl_hgf/fitting/fit_vb_laplace_patrl.py" source_line=332}
  dynamic-slice.5251.25 = s64[1]{0} dynamic-slice(param_3.200, select.8895.29), dynamic_slice_sizes={1}, metadata={op_name="jit(while)/jit(main)/while/body/jit(update)/while/body/dynamic_slice[slice_sizes=(1,)]" source_file="/fs04/fc37/adam/projects/psilocybin-prl-analyses/src/prl_hgf/fitting/fit_vb_laplace_patrl.py" source_line=332}
  bitcast.15182.79 = s64[] bitcast(dynamic-slice.5251.25)
  compare.2630.27 = pred[] compare(bitcast.15182.79, constant_1932_8), direction=LT, metadata={op_name="jit(while)/jit(main)/while/body/jit(update)/while/body/lt" source_file="/fs04/fc37/adam/projects/psilocybin-prl-analyses/src/prl_hgf/fitting/fit_vb_laplace_patrl.py" source_line=332}
  add.9458.27 = s64[] add(bitcast.15182.79, constant_1931_1), metadata={op_name="jit(while)/jit(main)/while/body/jit(update)/while/body/add" source_file="/fs04/fc37/adam/projects/psilocybin-prl-analyses/src/prl_hgf/fitting/fit_vb_laplace_patrl.py" source_line=332}
  select.8896.25 = s64[] select(compare.2630.27, add.9458.27, bitcast.15182.79), metadata={op_name="jit(while)/jit(main)/while/body/jit(update)/while/body/select_n" source_file="/fs04/fc37/adam/projects/psilocybin-prl-analyses/src/prl_hgf/fitting/fit_vb_laplace_patrl.py" source_line=332}
  dynamic-slice.5261.1 = f64[1,20]{1,0} dynamic-slice(param_1.160, select.8896.25, constant_1932_8), dynamic_slice_sizes={1,20}, metadata={op_name="jit(while)/jit(main)/while/body/jit(update)/while/body/dynamic_slice[slice_sizes=(1, 20)]" source_file="/fs04/fc37/adam/projects/psilocybin-prl-analyses/src/prl_hgf/fitting/fit_vb_laplace_patrl.py" source_line=332}
  multiply.11275.1 = f64[1,20]{1,0} multiply(broadcast.4917.3, dynamic-slice.5261.1), metadata={op_name="jit(while)/jit(main)/while/body/jit(update)/while/body/mul" source_file="/fs04/fc37/adam/projects/psilocybin-prl-analyses/src/prl_hgf/fitting/fit_vb_laplace_patrl.py" source_line=332}
  bitcast.15339.1 = f64[20]{0} bitcast(multiply.11275.1)
  add.9466.1 = f64[20]{0} add(param_0.88, bitcast.15339.1), metadata={op_name="jit(while)/jit(main)/while/body/jit(update)/while/body/add" source_file="/fs04/fc37/adam/projects/psilocybin-prl-analyses/src/prl_hgf/fitting/fit_vb_laplace_patrl.py" source_line=332}
  param_5.4039 = f64[20]{0} parameter(5)
  param_6.3229 = f64[10,20]{1,0} parameter(6)
  dynamic-slice.5263.1.clone.1 = f64[1,20]{1,0} dynamic-slice(param_6.3229, select.8896.25, constant_1932_8), dynamic_slice_sizes={1,20}, metadata={op_name="jit(while)/jit(main)/while/body/jit(update)/while/body/dynamic_slice[slice_sizes=(1, 20)]" source_file="/fs04/fc37/adam/projects/psilocybin-prl-analyses/src/prl_hgf/fitting/fit_vb_laplace_patrl.py" source_line=332}
  multiply.11277.1.clone.1 = f64[1,20]{1,0} multiply(broadcast.4917.3, dynamic-slice.5263.1.clone.1), metadata={op_name="jit(while)/jit(main)/while/body/jit(update)/while/body/mul" source_file="/fs04/fc37/adam/projects/psilocybin-prl-analyses/src/prl_hgf/fitting/fit_vb_laplace_patrl.py" source_line=332}
  bitcast.15369.1.clone.1 = f64[20]{0} bitcast(multiply.11277.1.clone.1)
  add.9468.1.clone.1 = f64[20]{0} add(param_5.4039, bitcast.15369.1.clone.1), metadata={op_name="jit(while)/jit(main)/while/body/jit(update)/while/body/add" source_file="/fs04/fc37/adam/projects/psilocybin-prl-analyses/src/prl_hgf/fitting/fit_vb_laplace_patrl.py" source_line=332}
  param_7.2494 = f64[20]{0} parameter(7)
  param_8.1909 = f64[10,20]{1,0} parameter(8)
  dynamic-slice.5264.1.clone.1 = f64[1,20]{1,0} dynamic-slice(param_8.1909, select.8896.25, constant_1932_8), dynamic_slice_sizes={1,20}, metadata={op_name="jit(while)/jit(main)/while/body/jit(update)/while/body/dynamic_slice[slice_sizes=(1, 20)]" source_file="/fs04/fc37/adam/projects/psilocybin-prl-analyses/src/prl_hgf/fitting/fit_vb_laplace_patrl.py" source_line=332}
  multiply.11278.1.clone.1 = f64[1,20]{1,0} multiply(broadcast.4917.3, dynamic-slice.5264.1.clone.1), metadata={op_name="jit(while)/jit(main)/while/body/jit(update)/while/body/mul" source_file="/fs04/fc37/adam/projects/psilocybin-prl-analyses/src/prl_hgf/fitting/fit_vb_laplace_patrl.py" source_line=332}
  bitcast.15384.1.clone.1 = f64[20]{0} bitcast(multiply.11278.1.clone.1)
  add.9469.1.clone.1 = f64[20]{0} add(param_7.2494, bitcast.15384.1.clone.1), metadata={op_name="jit(while)/jit(main)/while/body/jit(update)/while/body/add" source_file="/fs04/fc37/adam/projects/psilocybin-prl-analyses/src/prl_hgf/fitting/fit_vb_laplace_patrl.py" source_line=332}
  param_9.1659 = f64[20]{0} parameter(9)
  param_10.1331 = f64[10,20]{1,0} parameter(10)
  dynamic-slice.5262.1.clone.1 = f64[1,20]{1,0} dynamic-slice(param_10.1331, select.8896.25, constant_1932_8), dynamic_slice_sizes={1,20}, metadata={op_name="jit(while)/jit(main)/while/body/jit(update)/while/body/dynamic_slice[slice_sizes=(1, 20)]" source_file="/fs04/fc37/adam/projects/psilocybin-prl-analyses/src/prl_hgf/fitting/fit_vb_laplace_patrl.py" source_line=332}
  multiply.11276.1.clone.1 = f64[1,20]{1,0} multiply(broadcast.4917.3, dynamic-slice.5262.1.clone.1), metadata={op_name="jit(while)/jit(main)/while/body/jit(update)/while/body/mul" source_file="/fs04/fc37/adam/projects/psilocybin-prl-analyses/src/prl_hgf/fitting/fit_vb_laplace_patrl.py" source_line=332}
  bitcast.15354.1.clone.1 = f64[20]{0} bitcast(multiply.11276.1.clone.1)
  add.9467.1.clone.1 = f64[20]{0} add(param_9.1659, bitcast.15354.1.clone.1), metadata={op_name="jit(while)/jit(main)/while/body/jit(update)/while/body/add" source_file="/fs04/fc37/adam/projects/psilocybin-prl-analyses/src/prl_hgf/fitting/fit_vb_laplace_patrl.py" source_line=332}
  param_11.1135 = f64[20]{0} parameter(11)
  param_12.940 = f64[10,20]{1,0} parameter(12)
  dynamic-slice.5259.1.clone.1 = f64[1,20]{1,0} dynamic-slice(param_12.940, select.8896.25, constant_1932_8), dynamic_slice_sizes={1,20}, metadata={op_name="jit(while)/jit(main)/while/body/jit(update)/while/body/dynamic_slice[slice_sizes=(1, 20)]" source_file="/fs04/fc37/adam/projects/psilocybin-prl-analyses/src/prl_hgf/fitting/fit_vb_laplace_patrl.py" source_line=332}
  multiply.11273.1.clone.1 = f64[1,20]{1,0} multiply(broadcast.4917.3, dynamic-slice.5259.1.clone.1), metadata={op_name="jit(while)/jit(main)/while/body/jit(update)/while/body/mul" source_file="/fs04/fc37/adam/projects/psilocybin-prl-analyses/src/prl_hgf/fitting/fit_vb_laplace_patrl.py" source_line=332}
  bitcast.15309.1.clone.1 = f64[20]{0} bitcast(multiply.11273.1.clone.1)
  add.9464.1.clone.1 = f64[20]{0} add(param_11.1135, bitcast.15309.1.clone.1), metadata={op_name="jit(while)/jit(main)/while/body/jit(update)/while/body/add" source_file="/fs04/fc37/adam/projects/psilocybin-prl-analyses/src/prl_hgf/fitting/fit_vb_laplace_patrl.py" source_line=332}
  param_13.887 = f64[20]{0} parameter(13)
  param_14.862 = f64[10,20]{1,0} parameter(14)
  dynamic-slice.5260.1.clone.1 = f64[1,20]{1,0} dynamic-slice(param_14.862, select.8896.25, constant_1932_8), dynamic_slice_sizes={1,20}, metadata={op_name="jit(while)/jit(main)/while/body/jit(update)/while/body/dynamic_slice[slice_sizes=(1, 20)]" source_file="/fs04/fc37/adam/projects/psilocybin-prl-analyses/src/prl_hgf/fitting/fit_vb_laplace_patrl.py" source_line=332}
  multiply.11274.1.clone.1 = f64[1,20]{1,0} multiply(broadcast.4917.3, dynamic-slice.5260.1.clone.1), metadata={op_name="jit(while)/jit(main)/while/body/jit(update)/while/body/mul" source_file="/fs04/fc37/adam/projects/psilocybin-prl-analyses/src/prl_hgf/fitting/fit_vb_laplace_patrl.py" source_line=332}
  bitcast.15324.1.clone.1 = f64[20]{0} bitcast(multiply.11274.1.clone.1)
  add.9465.1.clone.1 = f64[20]{0} add(param_13.887, bitcast.15324.1.clone.1), metadata={op_name="jit(while)/jit(main)/while/body/jit(update)/while/body/add" source_file="/fs04/fc37/adam/projects/psilocybin-prl-analyses/src/prl_hgf/fitting/fit_vb_laplace_patrl.py" source_line=332}
  ROOT tuple.2184 = (f64[20]{0}, f64[20]{0}, f64[20]{0}, f64[20]{0}, f64[20]{0}, /*index=5*/f64[20]{0}) tuple(add.9466.1, add.9468.1.clone.1, add.9469.1.clone.1, add.9467.1.clone.1, add.9464.1.clone.1, /*index=5*/add.9465.1.clone.1)
} // fused_add.2

fused_subtract {
  param_6.154 = f64[10]{0} parameter(6)
  param_7.110 = s64[] parameter(7)
  constant_1932_2 = s64[] constant(0)
  compare.2629.3 = pred[] compare(param_7.110, constant_1932_2), direction=LT, metadata={op_name="jit(while)/jit(main)/while/body/jit(update)/while/body/lt" source_file="/fs04/fc37/adam/projects/psilocybin-prl-analyses/src/prl_hgf/fitting/fit_vb_laplace_patrl.py" source_line=332}
  constant_1931_2 = s64[] constant(10)
  add.9457.3 = s64[] add(param_7.110, constant_1931_2), metadata={op_name="jit(while)/jit(main)/while/body/jit(update)/while/body/add" source_file="/fs04/fc37/adam/projects/psilocybin-prl-analyses/src/prl_hgf/fitting/fit_vb_laplace_patrl.py" source_line=332}
  select.8895.3 = s64[] select(compare.2629.3, add.9457.3, param_7.110), metadata={op_name="jit(while)/jit(main)/while/body/jit(update)/while/body/select_n" source_file="/fs04/fc37/adam/projects/psilocybin-prl-analyses/src/prl_hgf/fitting/fit_vb_laplace_patrl.py" source_line=332}
  dynamic-slice.5250.1 = f64[1]{0} dynamic-slice(param_6.154, select.8895.3), dynamic_slice_sizes={1}, metadata={op_name="jit(while)/jit(main)/while/body/jit(update)/while/body/dynamic_slice[slice_sizes=(1,)]" source_file="/fs04/fc37/adam/projects/psilocybin-prl-analyses/src/prl_hgf/fitting/fit_vb_laplace_patrl.py" source_line=332}
  bitcast.15173.1 = f64[] bitcast(dynamic-slice.5250.1)
  param_5.125 = f64[10]{0} parameter(5)
  param_10.19 = s64[10]{0} parameter(10)
  dynamic-slice.5251.7 = s64[1]{0} dynamic-slice(param_10.19, select.8895.3), dynamic_slice_sizes={1}, metadata={op_name="jit(while)/jit(main)/while/body/jit(update)/while/body/dynamic_slice[slice_sizes=(1,)]" source_file="/fs04/fc37/adam/projects/psilocybin-prl-analyses/src/prl_hgf/fitting/fit_vb_laplace_patrl.py" source_line=332}
  bitcast.15182.25 = s64[] bitcast(dynamic-slice.5251.7)
  compare.2630.9 = pred[] compare(bitcast.15182.25, constant_1932_2), direction=LT, metadata={op_name="jit(while)/jit(main)/while/body/jit(update)/while/body/lt" source_file="/fs04/fc37/adam/projects/psilocybin-prl-analyses/src/prl_hgf/fitting/fit_vb_laplace_patrl.py" source_line=332}
  add.9458.9 = s64[] add(bitcast.15182.25, constant_1931_2), metadata={op_name="jit(while)/jit(main)/while/body/jit(update)/while/body/add" source_file="/fs04/fc37/adam/projects/psilocybin-prl-analyses/src/prl_hgf/fitting/fit_vb_laplace_patrl.py" source_line=332}
  select.8896.7 = s64[] select(compare.2630.9, add.9458.9, bitcast.15182.25), metadata={op_name="jit(while)/jit(main)/while/body/jit(update)/while/body/select_n" source_file="/fs04/fc37/adam/projects/psilocybin-prl-analyses/src/prl_hgf/fitting/fit_vb_laplace_patrl.py" source_line=332}
  dynamic-slice.5252.1 = f64[1]{0} dynamic-slice(param_5.125, select.8896.7), dynamic_slice_sizes={1}, metadata={op_name="jit(while)/jit(main)/while/body/jit(update)/while/body/dynamic_slice[slice_sizes=(1,)]" source_file="/fs04/fc37/adam/projects/psilocybin-prl-analyses/src/prl_hgf/fitting/fit_vb_laplace_patrl.py" source_line=332}
  bitcast.15196.3 = f64[] bitcast(dynamic-slice.5252.1)
  param_3.157 = f64[] parameter(3)
  param_4.146 = f64[] parameter(4)
  add.9459.1 = f64[] add(param_3.157, param_4.146), metadata={op_name="jit(while)/jit(main)/while/body/jit(update)/while/body/add" source_file="/fs04/fc37/adam/projects/psilocybin-prl-analyses/src/prl_hgf/fitting/fit_vb_laplace_patrl.py" source_line=332}
  param_2.156 = f64[] parameter(2)
  add.9460.1 = f64[] add(add.9459.1, param_2.156), metadata={op_name="jit(while)/jit(main)/while/body/jit(update)/while/body/add" source_file="/fs04/fc37/adam/projects/psilocybin-prl-analyses/src/prl_hgf/fitting/fit_vb_laplace_patrl.py" source_line=332}
  param_1.184 = f64[] parameter(1)
  add.9461.1 = f64[] add(add.9460.1, param_1.184), metadata={op_name="jit(while)/jit(main)/while/body/jit(update)/while/body/add" source_file="/fs04/fc37/adam/projects/psilocybin-prl-analyses/src/prl_hgf/fitting/fit_vb_laplace_patrl.py" source_line=332}
  param_0.121 = f64[] parameter(0)
  add.9462.1 = f64[] add(add.9461.1, param_0.121), metadata={op_name="jit(while)/jit(main)/while/body/jit(update)/while/body/add" source_file="/fs04/fc37/adam/projects/psilocybin-prl-analyses/src/prl_hgf/fitting/fit_vb_laplace_patrl.py" source_line=332}
  param_9.27 = f64[10,20]{1,0} parameter(9)
  dynamic-slice.5258.3 = f64[1,20]{1,0} dynamic-slice(param_9.27, select.8896.7, constant_1932_2), dynamic_slice_sizes={1,20}, metadata={op_name="jit(while)/jit(main)/while/body/jit(update)/while/body/dynamic_slice[slice_sizes=(1, 20)]" source_file="/fs04/fc37/adam/projects/psilocybin-prl-analyses/src/prl_hgf/fitting/fit_vb_laplace_patrl.py" source_line=332}
  bitcast.15288.3 = f64[20]{0} bitcast(dynamic-slice.5258.3)
  param_8.69 = f64[20]{0} parameter(8)
  multiply.11271.3 = f64[20]{0} multiply(bitcast.15288.3, param_8.69)
  constant_1935_2 = f64[] constant(0)
  reduce.176.1 = f64[] reduce(multiply.11271.3, constant_1935_2), dimensions={0}, to_apply=scalar_add_computation, metadata={op_name="jit(while)/jit(main)/while/body/jit(update)/while/body/dot_general[dimension_numbers=(((0,), (0,)), ((), ())) precision=(Precision.HIGHEST, Precision.HIGHEST) preferred_element_type=float64]" source_file="/fs04/fc37/adam/projects/psilocybin-prl-analyses/src/prl_hgf/fitting/fit_vb_laplace_patrl.py" source_line=332}
  add.9463.1 = f64[] add(add.9462.1, reduce.176.1), metadata={op_name="jit(while)/jit(main)/while/body/jit(update)/while/body/add" source_file="/fs04/fc37/adam/projects/psilocybin-prl-analyses/src/prl_hgf/fitting/fit_vb_laplace_patrl.py" source_line=332}
  multiply.11272.3 = f64[] multiply(bitcast.15196.3, add.9463.1), metadata={op_name="jit(while)/jit(main)/while/body/jit(update)/while/body/mul" source_file="/fs04/fc37/adam/projects/psilocybin-prl-analyses/src/prl_hgf/fitting/fit_vb_laplace_patrl.py" source_line=332}
  ROOT subtract.815.1 = f64[] subtract(bitcast.15173.1, multiply.11272.3), metadata={op_name="jit(while)/jit(main)/while/body/jit(update)/while/body/sub" source_file="/fs04/fc37/adam/projects/psilocybin-prl-analyses/src/prl_hgf/fitting/fit_vb_laplace_patrl.py" source_line=332}
} // fused_subtract

fused_reduce.1 {
  param_1.222 = f64[10,20]{1,0} parameter(1)
  param_2.205 = s64[10]{0} parameter(2)
  param_3.206 = s64[] parameter(3)
  constant_1932_11 = s64[] constant(0)
  compare.2629.13 = pred[] compare(param_3.206, constant_1932_11), direction=LT, metadata={op_name="jit(while)/jit(main)/while/body/jit(update)/while/body/lt" source_file="/fs04/fc37/adam/projects/psilocybin-prl-analyses/src/prl_hgf/fitting/fit_vb_laplace_patrl.py" source_line=332}
  constant_1931_5 = s64[] constant(10)
  add.9457.13 = s64[] add(param_3.206, constant_1931_5), metadata={op_name="jit(while)/jit(main)/while/body/jit(update)/while/body/add" source_file="/fs04/fc37/adam/projects/psilocybin-prl-analyses/src/prl_hgf/fitting/fit_vb_laplace_patrl.py" source_line=332}
  select.8895.13 = s64[] select(compare.2629.13, add.9457.13, param_3.206), metadata={op_name="jit(while)/jit(main)/while/body/jit(update)/while/body/select_n" source_file="/fs04/fc37/adam/projects/psilocybin-prl-analyses/src/prl_hgf/fitting/fit_vb_laplace_patrl.py" source_line=332}
  dynamic-slice.5251.9 = s64[1]{0} dynamic-slice(param_2.205, select.8895.13), dynamic_slice_sizes={1}, metadata={op_name="jit(while)/jit(main)/while/body/jit(update)/while/body/dynamic_slice[slice_sizes=(1,)]" source_file="/fs04/fc37/adam/projects/psilocybin-prl-analyses/src/prl_hgf/fitting/fit_vb_laplace_patrl.py" source_line=332}
  bitcast.15182.31 = s64[] bitcast(dynamic-slice.5251.9)
  compare.2630.11 = pred[] compare(bitcast.15182.31, constant_1932_11), direction=LT, metadata={op_name="jit(while)/jit(main)/while/body/jit(update)/while/body/lt" source_file="/fs04/fc37/adam/projects/psilocybin-prl-analyses/src/prl_hgf/fitting/fit_vb_laplace_patrl.py" source_line=332}
  add.9458.11 = s64[] add(bitcast.15182.31, constant_1931_5), metadata={op_name="jit(while)/jit(main)/while/body/jit(update)/while/body/add" source_file="/fs04/fc37/adam/projects/psilocybin-prl-analyses/src/prl_hgf/fitting/fit_vb_laplace_patrl.py" source_line=332}
  select.8896.9 = s64[] select(compare.2630.11, add.9458.11, bitcast.15182.31), metadata={op_name="jit(while)/jit(main)/while/body/jit(update)/while/body/select_n" source_file="/fs04/fc37/adam/projects/psilocybin-prl-analyses/src/prl_hgf/fitting/fit_vb_laplace_patrl.py" source_line=332}
  dynamic-slice.5253.3 = f64[1,20]{1,0} dynamic-slice(param_1.222, select.8896.9, constant_1932_11), dynamic_slice_sizes={1,20}, metadata={op_name="jit(while)/jit(main)/while/body/jit(update)/while/body/dynamic_slice[slice_sizes=(1, 20)]" source_file="/fs04/fc37/adam/projects/psilocybin-prl-analyses/src/prl_hgf/fitting/fit_vb_laplace_patrl.py" source_line=332}
  bitcast.15205.3 = f64[20]{0} bitcast(dynamic-slice.5253.3)
  param_0.154 = f64[20]{0} parameter(0)
  multiply.11266.3 = f64[20]{0} multiply(bitcast.15205.3, param_0.154)
  constant_1935_3 = f64[] constant(0)
  reduce.171.1 = f64[] reduce(multiply.11266.3, constant_1935_3), dimensions={0}, to_apply=scalar_add_computation, metadata={op_name="jit(while)/jit(main)/while/body/jit(update)/while/body/dot_general[dimension_numbers=(((0,), (0,)), ((), ())) precision=(Precision.HIGHEST, Precision.HIGHEST) preferred_element_type=float64]" source_file="/fs04/fc37/adam/projects/psilocybin-prl-analyses/src/prl_hgf/fitting/fit_vb_laplace_patrl.py" source_line=332}
  param_5.4043 = f64[10,20]{1,0} parameter(5)
  dynamic-slice.5254.3.clone.1 = f64[1,20]{1,0} dynamic-slice(param_5.4043, select.8896.9, constant_1932_11), dynamic_slice_sizes={1,20}, metadata={op_name="jit(while)/jit(main)/while/body/jit(update)/while/body/dynamic_slice[slice_sizes=(1, 20)]" source_file="/fs04/fc37/adam/projects/psilocybin-prl-analyses/src/prl_hgf/fitting/fit_vb_laplace_patrl.py" source_line=332}
  bitcast.15220.3.clone.1 = f64[20]{0} bitcast(dynamic-slice.5254.3.clone.1)
  param_4.4928 = f64[20]{0} parameter(4)
  multiply.11267.3.clone.1 = f64[20]{0} multiply(bitcast.15220.3.clone.1, param_4.4928)
  reduce.172.1.clone.1 = f64[] reduce(multiply.11267.3.clone.1, constant_1935_3), dimensions={0}, to_apply=scalar_add_computation, metadata={op_name="jit(while)/jit(main)/while/body/jit(update)/while/body/dot_general[dimension_numbers=(((0,), (0,)), ((), ())) precision=(Precision.HIGHEST, Precision.HIGHEST) preferred_element_type=float64]" source_file="/fs04/fc37/adam/projects/psilocybin-prl-analyses/src/prl_hgf/fitting/fit_vb_laplace_patrl.py" source_line=332}
  param_7.2503 = f64[10,20]{1,0} parameter(7)
  dynamic-slice.5255.3.clone.1 = f64[1,20]{1,0} dynamic-slice(param_7.2503, select.8896.9, constant_1932_11), dynamic_slice_sizes={1,20}, metadata={op_name="jit(while)/jit(main)/while/body/jit(update)/while/body/dynamic_slice[slice_sizes=(1, 20)]" source_file="/fs04/fc37/adam/projects/psilocybin-prl-analyses/src/prl_hgf/fitting/fit_vb_laplace_patrl.py" source_line=332}
  bitcast.15237.3.clone.1 = f64[20]{0} bitcast(dynamic-slice.5255.3.clone.1)
  param_6.3234 = f64[20]{0} parameter(6)
  multiply.11268.3.clone.1 = f64[20]{0} multiply(bitcast.15237.3.clone.1, param_6.3234)
  reduce.173.1.clone.1 = f64[] reduce(multiply.11268.3.clone.1, constant_1935_3), dimensions={0}, to_apply=scalar_add_computation, metadata={op_name="jit(while)/jit(main)/while/body/jit(update)/while/body/dot_general[dimension_numbers=(((0,), (0,)), ((), ())) precision=(Precision.HIGHEST, Precision.HIGHEST) preferred_element_type=float64]" source_file="/fs04/fc37/adam/projects/psilocybin-prl-analyses/src/prl_hgf/fitting/fit_vb_laplace_patrl.py" source_line=332}
  param_9.1671 = f64[10,20]{1,0} parameter(9)
  dynamic-slice.5256.3.clone.1 = f64[1,20]{1,0} dynamic-slice(param_9.1671, select.8896.9, constant_1932_11), dynamic_slice_sizes={1,20}, metadata={op_name="jit(while)/jit(main)/while/body/jit(update)/while/body/dynamic_slice[slice_sizes=(1, 20)]" source_file="/fs04/fc37/adam/projects/psilocybin-prl-analyses/src/prl_hgf/fitting/fit_vb_laplace_patrl.py" source_line=332}
  bitcast.15254.3.clone.1 = f64[20]{0} bitcast(dynamic-slice.5256.3.clone.1)
  param_8.1920 = f64[20]{0} parameter(8)
  multiply.11269.3.clone.1 = f64[20]{0} multiply(bitcast.15254.3.clone.1, param_8.1920)
  reduce.174.1.clone.1 = f64[] reduce(multiply.11269.3.clone.1, constant_1935_3), dimensions={0}, to_apply=scalar_add_computation, metadata={op_name="jit(while)/jit(main)/while/body/jit(update)/while/body/dot_general[dimension_numbers=(((0,), (0,)), ((), ())) precision=(Precision.HIGHEST, Precision.HIGHEST) preferred_element_type=float64]" source_file="/fs04/fc37/adam/projects/psilocybin-prl-analyses/src/prl_hgf/fitting/fit_vb_laplace_patrl.py" source_line=332}
  param_11.1147 = f64[10,20]{1,0} parameter(11)
  dynamic-slice.5257.3.clone.1 = f64[1,20]{1,0} dynamic-slice(param_11.1147, select.8896.9, constant_1932_11), dynamic_slice_sizes={1,20}, metadata={op_name="jit(while)/jit(main)/while/body/jit(update)/while/body/dynamic_slice[slice_sizes=(1, 20)]" source_file="/fs04/fc37/adam/projects/psilocybin-prl-analyses/src/prl_hgf/fitting/fit_vb_laplace_patrl.py" source_line=332}
  bitcast.15271.3.clone.1 = f64[20]{0} bitcast(dynamic-slice.5257.3.clone.1)
  param_10.1342 = f64[20]{0} parameter(10)
  multiply.11270.3.clone.1 = f64[20]{0} multiply(bitcast.15271.3.clone.1, param_10.1342)
  reduce.175.1.clone.1 = f64[] reduce(multiply.11270.3.clone.1, constant_1935_3), dimensions={0}, to_apply=scalar_add_computation, metadata={op_name="jit(while)/jit(main)/while/body/jit(update)/while/body/dot_general[dimension_numbers=(((0,), (0,)), ((), ())) precision=(Precision.HIGHEST, Precision.HIGHEST) preferred_element_type=float64]" source_file="/fs04/fc37/adam/projects/psilocybin-prl-analyses/src/prl_hgf/fitting/fit_vb_laplace_patrl.py" source_line=332}
  ROOT tuple.2188 = (f64[], f64[], f64[], f64[], f64[]) tuple(reduce.171.1, reduce.172.1.clone.1, reduce.173.1.clone.1, reduce.174.1.clone.1, reduce.175.1.clone.1)
} // fused_reduce.1

fused_add.3 {
  param_0.152 = s64[] parameter(0)
  constant_1930_1 = s64[] constant(1)
  ROOT add.9456.1 = s64[] add(param_0.152, constant_1930_1), metadata={op_name="jit(while)/jit(main)/while/body/jit(update)/while/body/add" source_file="/fs04/fc37/adam/projects/psilocybin-prl-analyses/src/prl_hgf/fitting/fit_vb_laplace_patrl.py" source_line=332}
}

region_3.398.clone {
  arg_tuple.13.0 = (s64[], f64[20]{0}, f64[20]{0}, f64[20]{0}, f64[20]{0}, /*index=5*/f64[20]{0}, f64[20]{0}, s64[10]{0}, f64[10]{0}, f64[10,20]{1,0}, /*index=10*/f64[10,20]{1,0}, f64[10,20]{1,0}, f64[10,20]{1,0}, f64[10,20]{1,0}, f64[10,20]{1,0}, /*index=15*/f64[10,20]{1,0}, f64[10,20]{1,0}, f64[10,20]{1,0}, f64[10,20]{1,0}, f64[10,20]{1,0}, /*index=20*/f64[10,20]{1,0}, f64[10]{0}) parameter(0)
  get-tuple-element.60940 = s64[] get-tuple-element(arg_tuple.13.0), index=0
  get-tuple-element.60969 = s64[10]{0} get-tuple-element(arg_tuple.13.0), index=7
  get-tuple-element.60941 = f64[20]{0} get-tuple-element(arg_tuple.13.0), index=1
  get-tuple-element.60942 = f64[20]{0} get-tuple-element(arg_tuple.13.0), index=2
  get-tuple-element.60943 = f64[20]{0} get-tuple-element(arg_tuple.13.0), index=3
  get-tuple-element.60944 = f64[20]{0} get-tuple-element(arg_tuple.13.0), index=4
  get-tuple-element.60945 = f64[20]{0} get-tuple-element(arg_tuple.13.0), index=5
  get-tuple-element.60946 = f64[20]{0} get-tuple-element(arg_tuple.13.0), index=6
  get-tuple-element.60970 = f64[10]{0} get-tuple-element(arg_tuple.13.0), index=8
  get-tuple-element.60971 = f64[10,20]{1,0} get-tuple-element(arg_tuple.13.0), index=9
  get-tuple-element.60972 = f64[10,20]{1,0} get-tuple-element(arg_tuple.13.0), index=10
  get-tuple-element.60973 = f64[10,20]{1,0} get-tuple-element(arg_tuple.13.0), index=11
  get-tuple-element.60974 = f64[10,20]{1,0} get-tuple-element(arg_tuple.13.0), index=12
  get-tuple-element.60975 = f64[10,20]{1,0} get-tuple-element(arg_tuple.13.0), index=13
  get-tuple-element.60976 = f64[10,20]{1,0} get-tuple-element(arg_tuple.13.0), index=14
  get-tuple-element.60977 = f64[10,20]{1,0} get-tuple-element(arg_tuple.13.0), index=15
  get-tuple-element.60978 = f64[10,20]{1,0} get-tuple-element(arg_tuple.13.0), index=16
  get-tuple-element.60979 = f64[10,20]{1,0} get-tuple-element(arg_tuple.13.0), index=17
  get-tuple-element.60980 = f64[10,20]{1,0} get-tuple-element(arg_tuple.13.0), index=18
  get-tuple-element.60981 = f64[10,20]{1,0} get-tuple-element(arg_tuple.13.0), index=19
  get-tuple-element.60982 = f64[10,20]{1,0} get-tuple-element(arg_tuple.13.0), index=20
  get-tuple-element.60983 = f64[10]{0} get-tuple-element(arg_tuple.13.0), index=21
  loop_reduce_fusion.1 = (f64[], f64[], f64[], f64[], f64[]) fusion(get-tuple-element.60941, get-tuple-element.60977, get-tuple-element.60969, get-tuple-element.60940, get-tuple-element.60942, /*index=5*/get-tuple-element.60978, get-tuple-element.60943, get-tuple-element.60979, get-tuple-element.60944, get-tuple-element.60980, /*index=10*/get-tuple-element.60945, get-tuple-element.60981), kind=kLoop, calls=fused_reduce.1, metadata={op_name="jit(while)/jit(main)/while/body/jit(update)/while/body/dot_general[dimension_numbers=(((0,), (0,)), ((), ())) precision=(Precision.HIGHEST, Precision.HIGHEST) preferred_element_type=float64]" source_file="/fs04/fc37/adam/projects/psilocybin-prl-analyses/src/prl_hgf/fitting/fit_vb_laplace_patrl.py" source_line=332}
  get-tuple-element.59130 = f64[] get-tuple-element(loop_reduce_fusion.1), index=4, metadata={op_name="jit(while)/jit(main)/while/body/jit(update)/while/body/dot_general[dimension_numbers=(((0,), (0,)), ((), ())) precision=(Precision.HIGHEST, Precision.HIGHEST) preferred_element_type=float64]" source_file="/fs04/fc37/adam/projects/psilocybin-prl-analyses/src/prl_hgf/fitting/fit_vb_laplace_patrl.py" source_line=332}
  get-tuple-element.59129 = f64[] get-tuple-element(loop_reduce_fusion.1), index=3, metadata={op_name="jit(while)/jit(main)/while/body/jit(update)/while/body/dot_general[dimension_numbers=(((0,), (0,)), ((), ())) precision=(Precision.HIGHEST, Precision.HIGHEST) preferred_element_type=float64]" source_file="/fs04/fc37/adam/projects/psilocybin-prl-analyses/src/prl_hgf/fitting/fit_vb_laplace_patrl.py" source_line=332}
  get-tuple-element.59128 = f64[] get-tuple-element(loop_reduce_fusion.1), index=2, metadata={op_name="jit(while)/jit(main)/while/body/jit(update)/while/body/dot_general[dimension_numbers=(((0,), (0,)), ((), ())) precision=(Precision.HIGHEST, Precision.HIGHEST) preferred_element_type=float64]" source_file="/fs04/fc37/adam/projects/psilocybin-prl-analyses/src/prl_hgf/fitting/fit_vb_laplace_patrl.py" source_line=332}
  get-tuple-element.59127 = f64[] get-tuple-element(loop_reduce_fusion.1), index=1, metadata={op_name="jit(while)/jit(main)/while/body/jit(update)/while/body/dot_general[dimension_numbers=(((0,), (0,)), ((), ())) precision=(Precision.HIGHEST, Precision.HIGHEST) preferred_element_type=float64]" source_file="/fs04/fc37/adam/projects/psilocybin-prl-analyses/src/prl_hgf/fitting/fit_vb_laplace_patrl.py" source_line=332}
  get-tuple-element.59126 = f64[] get-tuple-element(loop_reduce_fusion.1), index=0, metadata={op_name="jit(while)/jit(main)/while/body/jit(update)/while/body/dot_general[dimension_numbers=(((0,), (0,)), ((), ())) precision=(Precision.HIGHEST, Precision.HIGHEST) preferred_element_type=float64]" source_file="/fs04/fc37/adam/projects/psilocybin-prl-analyses/src/prl_hgf/fitting/fit_vb_laplace_patrl.py" source_line=332}
  loop_subtract_fusion = f64[] fusion(get-tuple-element.59130, get-tuple-element.59129, get-tuple-element.59128, get-tuple-element.59126, get-tuple-element.59127, /*index=5*/get-tuple-element.60983, get-tuple-element.60970, get-tuple-element.60940, get-tuple-element.60946, get-tuple-element.60982, /*index=10*/get-tuple-element.60969), kind=kLoop, calls=fused_subtract, metadata={op_name="jit(while)/jit(main)/while/body/jit(update)/while/body/sub" source_file="/fs04/fc37/adam/projects/psilocybin-prl-analyses/src/prl_hgf/fitting/fit_vb_laplace_patrl.py" source_line=332}
  loop_add_fusion.2 = (f64[20]{0}, f64[20]{0}, f64[20]{0}, f64[20]{0}, f64[20]{0}, /*index=5*/f64[20]{0}) fusion(get-tuple-element.60943, get-tuple-element.60973, loop_subtract_fusion, get-tuple-element.60969, get-tuple-element.60940, /*index=5*/get-tuple-element.60945, get-tuple-element.60975, get-tuple-element.60946, get-tuple-element.60976, get-tuple-element.60944, /*index=10*/get-tuple-element.60974, get-tuple-element.60941, get-tuple-element.60971, get-tuple-element.60942, get-tuple-element.60972), kind=kLoop, calls=fused_add.2, control-predecessors={loop_reduce_fusion.1, loop_subtract_fusion}, metadata={op_name="jit(while)/jit(main)/while/body/jit(update)/while/body/add" source_file="/fs04/fc37/adam/projects/psilocybin-prl-analyses/src/prl_hgf/fitting/fit_vb_laplace_patrl.py" source_line=332}
  loop_add_fusion.3 = s64[] fusion(get-tuple-element.60940), kind=kLoop, calls=fused_add.3, control-predecessors={loop_add_fusion.2, loop_subtract_fusion, loop_reduce_fusion.1}, metadata={op_name="jit(while)/jit(main)/while/body/jit(update)/while/body/add" source_file="/fs04/fc37/adam/projects/psilocybin-prl-analyses/src/prl_hgf/fitting/fit_vb_laplace_patrl.py" source_line=332 deduplicated_name="loop_add_fusion.1"}
  get-tuple-element.60964 = f64[20]{0} get-tuple-element(loop_add_fusion.2), index=5, metadata={op_name="jit(while)/jit(main)/while/body/jit(update)/while/body/add" source_file="/fs04/fc37/adam/projects/psilocybin-prl-analyses/src/prl_hgf/fitting/fit_vb_laplace_patrl.py" source_line=332}
  get-tuple-element.60963 = f64[20]{0} get-tuple-element(loop_add_fusion.2), index=4, metadata={op_name="jit(while)/jit(main)/while/body/jit(update)/while/body/add" source_file="/fs04/fc37/adam/projects/psilocybin-prl-analyses/src/prl_hgf/fitting/fit_vb_laplace_patrl.py" source_line=332}
  get-tuple-element.60966 = f64[20]{0} get-tuple-element(loop_add_fusion.2), index=3, metadata={op_name="jit(while)/jit(main)/while/body/jit(update)/while/body/add" source_file="/fs04/fc37/adam/projects/psilocybin-prl-analyses/src/prl_hgf/fitting/fit_vb_laplace_patrl.py" source_line=332}
  get-tuple-element.60968 = f64[20]{0} get-tuple-element(loop_add_fusion.2), index=2, metadata={op_name="jit(while)/jit(main)/while/body/jit(update)/while/body/add" source_file="/fs04/fc37/adam/projects/psilocybin-prl-analyses/src/prl_hgf/fitting/fit_vb_laplace_patrl.py" source_line=332}
  get-tuple-element.60967 = f64[20]{0} get-tuple-element(loop_add_fusion.2), index=1, metadata={op_name="jit(while)/jit(main)/while/body/jit(update)/while/body/add" source_file="/fs04/fc37/adam/projects/psilocybin-prl-analyses/src/prl_hgf/fitting/fit_vb_laplace_patrl.py" source_line=332}
  get-tuple-element.60965 = f64[20]{0} get-tuple-element(loop_add_fusion.2), index=0, metadata={op_name="jit(while)/jit(main)/while/body/jit(update)/while/body/add" source_file="/fs04/fc37/adam/projects/psilocybin-prl-analyses/src/prl_hgf/fitting/fit_vb_laplace_patrl.py" source_line=332}
  ROOT tuple.2492 = (s64[], f64[20]{0}, f64[20]{0}, f64[20]{0}, f64[20]{0}, /*index=5*/f64[20]{0}, f64[20]{0}, s64[10]{0}, f64[10]{0}, f64[10,20]{1,0}, /*index=10*/f64[10,20]{1,0}, f64[10,20]{1,0}, f64[10,20]{1,0}, f64[10,20]{1,0}, f64[10,20]{1,0}, /*index=15*/f64[10,20]{1,0}, f64[10,20]{1,0}, f64[10,20]{1,0}, f64[10,20]{1,0}, f64[10,20]{1,0}, /*index=20*/f64[10,20]{1,0}, f64[10]{0}) tuple(loop_add_fusion.3, get-tuple-element.60963, get-tuple-element.60964, get-tuple-element.60965, get-tuple-element.60966, /*index=5*/get-tuple-element.60967, get-tuple-element.60968, get-tuple-element.60969, get-tuple-element.60970, get-tuple-element.60971, /*index=10*/get-tuple-element.60972, get-tuple-element.60973, get-tuple-element.60974, get-tuple-element.60975, get-tuple-element.60976, /*index=15*/get-tuple-element.60977, get-tuple-element.60978, get-tuple-element.60979, get-tuple-element.60980, get-tuple-element.60981, /*index=20*/get-tuple-element.60982, get-tuple-element.60983)
} // region_3.398.clone

fused_compare.1 {
  param_0.158 = s64[] parameter(0)
  constant_1929_1 = s64[] constant(10)
  ROOT compare.2631.1 = pred[] compare(param_0.158, constant_1929_1), direction=LT, metadata={op_name="jit(while)/jit(main)/while/body/jit(update)/while/cond/lt" source_file="/fs04/fc37/adam/projects/psilocybin-prl-analyses/src/prl_hgf/fitting/fit_vb_laplace_patrl.py" source_line=332}
}

region_4.451.clone {
  arg_tuple.12.0 = (s64[], f64[20]{0}, f64[20]{0}, f64[20]{0}, f64[20]{0}, /*index=5*/f64[20]{0}, f64[20]{0}, s64[10]{0}, f64[10]{0}, f64[10,20]{1,0}, /*index=10*/f64[10,20]{1,0}, f64[10,20]{1,0}, f64[10,20]{1,0}, f64[10,20]{1,0}, f64[10,20]{1,0}, /*index=15*/f64[10,20]{1,0}, f64[10,20]{1,0}, f64[10,20]{1,0}, f64[10,20]{1,0}, f64[10,20]{1,0}, /*index=20*/f64[10,20]{1,0}, f64[10]{0}) parameter(0)
  get-tuple-element.9103.0 = s64[] get-tuple-element(arg_tuple.12.0), index=0
  ROOT loop_compare_fusion.1 = pred[] fusion(get-tuple-element.9103.0), kind=kLoop, calls=fused_compare.1, metadata={op_name="jit(while)/jit(main)/while/body/jit(update)/while/cond/lt" source_file="/fs04/fc37/adam/projects/psilocybin-prl-analyses/src/prl_hgf/fitting/fit_vb_laplace_patrl.py" source_line=332 deduplicated_name="loop_compare_fusion"}
}

fused_broadcast.1 {
  constant_5188_2 = f64[] constant(0)
  ROOT broadcast.4918.1 = f64[20]{0} broadcast(constant_5188_2), dimensions={}
}

wrapped_copy_computation.189 {
  param_0.6408 = f64[20]{0} parameter(0)
  ROOT copy.1890 = f64[20]{0} copy(param_0.6408)
}

wrapped_copy_computation.190 {
  param_0.6409 = f64[20]{0} parameter(0)
  ROOT copy.1891 = f64[20]{0} copy(param_0.6409)
}

fused_broadcast {
  constant_5188_1 = f64[] constant(0)
  ROOT broadcast.4920.1 = f64[20,1]{1,0} broadcast(constant_5188_1), dimensions={}
}

fused_multiply_negate {
  param_0.6165 = f64[20]{0} parameter(0)
  param_4.4930 = f64[] parameter(4)
  broadcast.4919.1.clone.1 = f64[20]{0} broadcast(param_4.4930), dimensions={}, metadata={op_name="jit(while)/jit(main)/while/body/jit(update)/cond/branch_0_fun/transpose(jvp(vmap(while)))/body/jit(beliefs_propagation)/jit(continuous_node_posterior_update)/jit(posterior_update_precision_continuous_node)/cond/branch_0_fun/jit(precision_update_missing_values)/mul" source_file="/fs04/fc37/adam/projects/psilocybin-prl-analyses/src/prl_hgf/fitting/hierarchical_patrl.py" source_line=362}
  param_2.7106 = f64[20]{0} parameter(2)
  param_3.5802 = f64[20]{0} parameter(3)
  multiply.11279.2.clone.1 = f64[20]{0} multiply(param_2.7106, param_3.5802), metadata={op_name="jit(while)/jit(main)/while/body/jit(update)/cond/branch_0_fun/transpose(jvp(vmap(while)))/body/jit(beliefs_propagation)/jit(continuous_node_posterior_update)/jit(posterior_update_precision_continuous_node)/cond/branch_0_fun/jit(precision_update_missing_values)/mul" source_file="/fs04/fc37/adam/projects/psilocybin-prl-analyses/src/prl_hgf/fitting/hierarchical_patrl.py" source_line=362}
  negate.1712.1.clone.1 = f64[20]{0} negate(multiply.11279.2.clone.1), metadata={op_name="jit(while)/jit(main)/while/body/jit(update)/cond/branch_0_fun/transpose(jvp(vmap(while)))/body/jit(beliefs_propagation)/jit(continuous_node_posterior_update)/jit(posterior_update_precision_continuous_node)/cond/branch_0_fun/jit(precision_update_missing_values)/neg" source_file="/fs04/fc37/adam/projects/psilocybin-prl-analyses/src/prl_hgf/fitting/hierarchical_patrl.py" source_line=362}
  multiply.11281.1.clone.1 = f64[20]{0} multiply(broadcast.4919.1.clone.1, negate.1712.1.clone.1), metadata={op_name="jit(while)/jit(main)/while/body/jit(update)/cond/branch_0_fun/transpose(jvp(vmap(while)))/body/jit(beliefs_propagation)/jit(continuous_node_posterior_update)/jit(posterior_update_precision_continuous_node)/cond/branch_0_fun/jit(precision_update_missing_values)/mul" source_file="/fs04/fc37/adam/projects/psilocybin-prl-analyses/src/prl_hgf/fitting/hierarchical_patrl.py" source_line=362}
  param_1.8515 = f64[20]{0} parameter(1)
  multiply.11282.1.clone.1 = f64[20]{0} multiply(multiply.11281.1.clone.1, param_1.8515), metadata={op_name="jit(while)/jit(main)/while/body/jit(update)/cond/branch_0_fun/transpose(jvp(vmap(while)))/body/jit(beliefs_propagation)/jit(continuous_node_posterior_update)/jit(posterior_update_precision_continuous_node)/cond/branch_0_fun/jit(precision_update_missing_values)/mul" source_file="/fs04/fc37/adam/projects/psilocybin-prl-analyses/src/prl_hgf/fitting/hierarchical_patrl.py" source_line=362}
  multiply.11283.1 = f64[20]{0} multiply(param_0.6165, multiply.11282.1.clone.1), metadata={op_name="jit(while)/jit(main)/while/body/jit(update)/cond/branch_0_fun/transpose(jvp(vmap(while)))/body/jit(beliefs_propagation)/jit(continuous_node_posterior_update)/jit(posterior_update_precision_continuous_node)/cond/branch_0_fun/jit(precision_update_missing_values)/mul" source_file="/fs04/fc37/adam/projects/psilocybin-prl-analyses/src/prl_hgf/fitting/hierarchical_patrl.py" source_line=362}
  param_5.4046 = f64[20]{0} parameter(5)
  multiply.11280.1.clone.1 = f64[20]{0} multiply(negate.1712.1.clone.1, param_5.4046), metadata={op_name="jit(while)/jit(main)/while/body/jit(update)/cond/branch_0_fun/transpose(jvp(vmap(while)))/body/jit(beliefs_propagation)/jit(continuous_node_posterior_update)/jit(posterior_update_precision_continuous_node)/cond/branch_0_fun/jit(precision_update_missing_values)/mul" source_file="/fs04/fc37/adam/projects/psilocybin-prl-analyses/src/prl_hgf/fitting/hierarchical_patrl.py" source_line=362}
  negate.1713.1.clone.1 = f64[20]{0} negate(multiply.11280.1.clone.1), metadata={op_name="jit(while)/jit(main)/while/body/jit(update)/cond/branch_0_fun/transpose(jvp(vmap(while)))/body/jit(beliefs_propagation)/jit(continuous_node_posterior_update)/jit(posterior_update_precision_continuous_node)/cond/branch_0_fun/jit(precision_update_missing_values)/neg" source_file="/fs04/fc37/adam/projects/psilocybin-prl-analyses/src/prl_hgf/fitting/hierarchical_patrl.py" source_line=362}
  ROOT tuple.2190 = (f64[20]{0}, f64[20]{0}, f64[20]{0}) tuple(multiply.11283.1, multiply.11282.1.clone.1, negate.1713.1.clone.1)
} // fused_multiply_negate

command_buffer.64 {
  p.1132 = f64[20]{0} parameter(0)
  p.1133 = f64[20]{0} parameter(1)
  p.1134 = f64[20]{0} parameter(2)
  p.1135 = f64[20]{0} parameter(3)
  p.1136 = f64[] parameter(4)
  p.1137 = f64[20]{0} parameter(5)
  loop_broadcast_fusion.1 = f64[20]{0} fusion(), kind=kLoop, calls=fused_broadcast.1
  wrapped_copy.189 = f64[20]{0} fusion(loop_broadcast_fusion.1), kind=kLoop, calls=wrapped_copy_computation.189
  wrapped_copy.190 = f64[20]{0} fusion(loop_broadcast_fusion.1), kind=kLoop, calls=wrapped_copy_computation.190
  loop_broadcast_fusion = f64[20,1]{1,0} fusion(), kind=kLoop, calls=fused_broadcast
  loop_multiply_negate_fusion = (f64[20]{0}, f64[20]{0}, f64[20]{0}) fusion(p.1132, p.1133, p.1134, p.1135, p.1136, /*index=5*/p.1137), kind=kLoop, calls=fused_multiply_negate, metadata={op_name="jit(while)/jit(main)/while/body/jit(update)/cond/branch_0_fun/transpose(jvp(vmap(while)))/body/jit(beliefs_propagation)/jit(continuous_node_posterior_update)/jit(posterior_update_precision_continuous_node)/cond/branch_0_fun/jit(precision_update_missing_values)/mul" source_file="/fs04/fc37/adam/projects/psilocybin-prl-analyses/src/prl_hgf/fitting/hierarchical_patrl.py" source_line=362 deduplicated_name="loop_multiply_negate_fusion"}
  ROOT tuple.2580 = (f64[20]{0}, f64[20]{0}, f64[20]{0}, f64[20,1]{1,0}, (f64[20]{0}, f64[20]{0}, f64[20]{0})) tuple(loop_broadcast_fusion.1, wrapped_copy.189, wrapped_copy.190, loop_broadcast_fusion, loop_multiply_negate_fusion)
} // command_buffer.64

region_40.10763.clone.clone.1 {
  arg_tuple.328.0 = (f64[20]{0}, f64[], f64[20]{0}, f64[20]{0}, f64[20]{0}, /*index=5*/f64[20]{0}) parameter(0)
  get-tuple-element.59080.0 = f64[] get-tuple-element(arg_tuple.328.0), index=1
  get-tuple-element.59084.0 = f64[20]{0} get-tuple-element(arg_tuple.328.0), index=5
  get-tuple-element.59083.0 = f64[20]{0} get-tuple-element(arg_tuple.328.0), index=4
  get-tuple-element.59082.0 = f64[20]{0} get-tuple-element(arg_tuple.328.0), index=3
  get-tuple-element.59081.0 = f64[20]{0} get-tuple-element(arg_tuple.328.0), index=2
  get-tuple-element.59079.0 = f64[20]{0} get-tuple-element(arg_tuple.328.0), index=0
  call.50 = (f64[20]{0}, f64[20]{0}, f64[20]{0}, f64[20,1]{1,0}, (f64[20]{0}, f64[20]{0}, f64[20]{0})) call(get-tuple-element.59081.0, get-tuple-element.59082.0, get-tuple-element.59084.0, get-tuple-element.59083.0, get-tuple-element.59080.0, /*index=5*/get-tuple-element.59079.0), to_apply=command_buffer.64
  get-tuple-element.63860 = f64[20]{0} get-tuple-element(call.50), index=0
  get-tuple-element.63861 = f64[20]{0} get-tuple-element(call.50), index=1
  get-tuple-element.63862 = f64[20]{0} get-tuple-element(call.50), index=2
  get-tuple-element.63863 = f64[20,1]{1,0} get-tuple-element(call.50), index=3
  get-tuple-element.63864 = (f64[20]{0}, f64[20]{0}, f64[20]{0}) get-tuple-element(call.50), index=4
  get-tuple-element.59422 = f64[20]{0} get-tuple-element(get-tuple-element.63864), index=2, metadata={op_name="jit(while)/jit(main)/while/body/jit(update)/cond/branch_0_fun/transpose(jvp(vmap(while)))/body/jit(beliefs_propagation)/jit(continuous_node_posterior_update)/jit(posterior_update_precision_continuous_node)/cond/branch_0_fun/jit(precision_update_missing_values)/mul" source_file="/fs04/fc37/adam/projects/psilocybin-prl-analyses/src/prl_hgf/fitting/hierarchical_patrl.py" source_line=362}
  get-tuple-element.59423 = f64[20]{0} get-tuple-element(get-tuple-element.63864), index=1, metadata={op_name="jit(while)/jit(main)/while/body/jit(update)/cond/branch_0_fun/transpose(jvp(vmap(while)))/body/jit(beliefs_propagation)/jit(continuous_node_posterior_update)/jit(posterior_update_precision_continuous_node)/cond/branch_0_fun/jit(precision_update_missing_values)/mul" source_file="/fs04/fc37/adam/projects/psilocybin-prl-analyses/src/prl_hgf/fitting/hierarchical_patrl.py" source_line=362}
  get-tuple-element.59424 = f64[20]{0} get-tuple-element(get-tuple-element.63864), index=0, metadata={op_name="jit(while)/jit(main)/while/body/jit(update)/cond/branch_0_fun/transpose(jvp(vmap(while)))/body/jit(beliefs_propagation)/jit(continuous_node_posterior_update)/jit(posterior_update_precision_continuous_node)/cond/branch_0_fun/jit(precision_update_missing_values)/mul" source_file="/fs04/fc37/adam/projects/psilocybin-prl-analyses/src/prl_hgf/fitting/hierarchical_patrl.py" source_line=362}
  ROOT tuple.2427 = (f64[20]{0}, f64[20]{0}, f64[20]{0}, f64[20]{0}, f64[20]{0}, /*index=5*/f64[20]{0}, f64[20,1]{1,0}) tuple(get-tuple-element.63860, get-tuple-element.63861, get-tuple-element.63862, get-tuple-element.59422, get-tuple-element.59423, /*index=5*/get-tuple-element.59424, get-tuple-element.63863)
} // region_40.10763.clone.clone.1

fused_broadcast.2 {
  constant_5191_1 = f64[] constant(0)
  ROOT broadcast.4923.1 = f64[20,1]{1,0} broadcast(constant_5191_1), dimensions={}
}

fused_broadcast_multiply_select {
  param_0.166 = f64[20]{0} parameter(0)
  param_2.7107 = pred[20]{0} parameter(2)
  param_3.5803 = f64[20]{0} parameter(3)
  constant_5191_2_clone_1 = f64[] constant(0)
  broadcast.4921.clone.5.clone.1 = f64[20]{0} broadcast(constant_5191_2_clone_1), dimensions={}
  select.8897.1 = f64[20]{0} select(param_2.7107, param_3.5803, broadcast.4921.clone.5.clone.1), metadata={op_name="jit(while)/jit(main)/while/body/jit(update)/cond/branch_0_fun/transpose(jvp(vmap(while)))/body/jit(beliefs_propagation)/jit(continuous_node_posterior_update_ehgf)/jit(posterior_update_precision_continuous_node)/jit(precision_update)/jit(_where)/select_n" source_file="/fs04/fc37/adam/projects/psilocybin-prl-analyses/src/prl_hgf/env/pat_rl_simulator.py" source_line=92}
  param_1.8516 = f64[] parameter(1)
  broadcast.4922.1 = f64[20]{0} broadcast(param_1.8516), dimensions={}, metadata={op_name="jit(while)/jit(main)/while/body/jit(update)/cond/branch_0_fun/transpose(jvp(vmap(while)))/body/jit(beliefs_propagation)/jit(continuous_node_posterior_update)/jit(posterior_update_precision_continuous_node)/cond/branch_1_fun/jit(precision_update)/mul" source_file="/fs04/fc37/adam/projects/psilocybin-prl-analyses/src/prl_hgf/fitting/hierarchical_patrl.py" source_line=362}
  multiply.11284.1 = f64[20]{0} multiply(select.8897.1, broadcast.4922.1), metadata={op_name="jit(while)/jit(main)/while/body/jit(update)/cond/branch_0_fun/transpose(jvp(vmap(while)))/body/jit(beliefs_propagation)/jit(continuous_node_posterior_update)/jit(posterior_update_precision_continuous_node)/cond/branch_1_fun/jit(precision_update)/mul" source_file="/fs04/fc37/adam/projects/psilocybin-prl-analyses/src/prl_hgf/fitting/hierarchical_patrl.py" source_line=362}
  multiply.11285.1 = f64[20]{0} multiply(param_0.166, multiply.11284.1), metadata={op_name="jit(while)/jit(main)/while/body/jit(update)/cond/branch_0_fun/transpose(jvp(vmap(while)))/body/jit(beliefs_propagation)/jit(continuous_node_posterior_update)/jit(posterior_update_precision_continuous_node)/cond/branch_1_fun/jit(precision_update)/mul" source_file="/fs04/fc37/adam/projects/psilocybin-prl-analyses/src/prl_hgf/fitting/hierarchical_patrl.py" source_line=362}
  ROOT tuple.2192 = (f64[20]{0}, f64[20]{0}, f64[20]{0}) tuple(multiply.11285.1, select.8897.1, broadcast.4921.clone.5.clone.1)
} // fused_broadcast_multiply_select

wrapped_copy_computation.192 {
  param_0.6411 = f64[20]{0} parameter(0)
  ROOT copy.1893 = f64[20]{0} copy(param_0.6411)
}

wrapped_copy_computation.191 {
  param_0.6410 = f64[20]{0} parameter(0)
  ROOT copy.1892 = f64[20]{0} copy(param_0.6410)
}

wrapped_copy_computation.193 {
  param_0.6412 = f64[20]{0} parameter(0)
  ROOT copy.1894 = f64[20]{0} copy(param_0.6412)
}

command_buffer.62 {
  p.1124 = f64[20]{0} parameter(0)
  p.1125 = f64[] parameter(1)
  p.1126 = pred[20]{0} parameter(2)
  p.1127 = f64[20]{0} parameter(3)
  loop_broadcast_fusion.2 = f64[20,1]{1,0} fusion(), kind=kLoop, calls=fused_broadcast.2
  loop_broadcast_multiply_select_fusion = (f64[20]{0}, f64[20]{0}, f64[20]{0}) fusion(p.1124, p.1125, p.1126, p.1127), kind=kLoop, calls=fused_broadcast_multiply_select, metadata={op_name="jit(while)/jit(main)/while/body/jit(update)/cond/branch_0_fun/transpose(jvp(vmap(while)))/body/jit(beliefs_propagation)/jit(continuous_node_posterior_update)/jit(posterior_update_precision_continuous_node)/cond/branch_1_fun/jit(precision_update)/mul" source_file="/fs04/fc37/adam/projects/psilocybin-prl-analyses/src/prl_hgf/fitting/hierarchical_patrl.py" source_line=362 deduplicated_name="loop_broadcast_multiply_select_fusion"}
  get-tuple-element.59431 = f64[20]{0} get-tuple-element(loop_broadcast_multiply_select_fusion), index=2, metadata={op_name="jit(while)/jit(main)/while/body/jit(update)/cond/branch_0_fun/transpose(jvp(vmap(while)))/body/jit(beliefs_propagation)/jit(continuous_node_posterior_update)/jit(posterior_update_precision_continuous_node)/cond/branch_1_fun/jit(precision_update)/mul" source_file="/fs04/fc37/adam/projects/psilocybin-prl-analyses/src/prl_hgf/fitting/hierarchical_patrl.py" source_line=362}
  get-tuple-element.59428 = f64[20]{0} get-tuple-element(loop_broadcast_multiply_select_fusion), index=1, metadata={op_name="jit(while)/jit(main)/while/body/jit(update)/cond/branch_0_fun/transpose(jvp(vmap(while)))/body/jit(beliefs_propagation)/jit(continuous_node_posterior_update)/jit(posterior_update_precision_continuous_node)/cond/branch_1_fun/jit(precision_update)/mul" source_file="/fs04/fc37/adam/projects/psilocybin-prl-analyses/src/prl_hgf/fitting/hierarchical_patrl.py" source_line=362}
  get-tuple-element.59427 = f64[20]{0} get-tuple-element(loop_broadcast_multiply_select_fusion), index=0, metadata={op_name="jit(while)/jit(main)/while/body/jit(update)/cond/branch_0_fun/transpose(jvp(vmap(while)))/body/jit(beliefs_propagation)/jit(continuous_node_posterior_update)/jit(posterior_update_precision_continuous_node)/cond/branch_1_fun/jit(precision_update)/mul" source_file="/fs04/fc37/adam/projects/psilocybin-prl-analyses/src/prl_hgf/fitting/hierarchical_patrl.py" source_line=362}
  wrapped_copy.192 = f64[20]{0} fusion(get-tuple-element.59431), kind=kLoop, calls=wrapped_copy_computation.192
  wrapped_copy.191 = f64[20]{0} fusion(get-tuple-element.59431), kind=kLoop, calls=wrapped_copy_computation.191
  wrapped_copy.193 = f64[20]{0} fusion(get-tuple-element.59431), kind=kLoop, calls=wrapped_copy_computation.193
  ROOT tuple.2578 = (f64[20,1]{1,0}, f64[20]{0}, f64[20]{0}, f64[20]{0}, f64[20]{0}, /*index=5*/f64[20]{0}, f64[20]{0}) tuple(loop_broadcast_fusion.2, get-tuple-element.59431, get-tuple-element.59428, get-tuple-element.59427, wrapped_copy.192, /*index=5*/wrapped_copy.191, wrapped_copy.193)
} // command_buffer.62

region_41.10798.clone.clone.clone.1 {
  arg_tuple.331.0 = (f64[20]{0}, f64[], pred[20]{0}, f64[20]{0}) parameter(0)
  get-tuple-element.59096.0 = f64[] get-tuple-element(arg_tuple.331.0), index=1
  get-tuple-element.59098.0 = f64[20]{0} get-tuple-element(arg_tuple.331.0), index=3
  get-tuple-element.59097.0 = pred[20]{0} get-tuple-element(arg_tuple.331.0), index=2
  get-tuple-element.59095.0 = f64[20]{0} get-tuple-element(arg_tuple.331.0), index=0
  call.49 = (f64[20,1]{1,0}, f64[20]{0}, f64[20]{0}, f64[20]{0}, f64[20]{0}, /*index=5*/f64[20]{0}, f64[20]{0}) call(get-tuple-element.59095.0, get-tuple-element.59096.0, get-tuple-element.59097.0, get-tuple-element.59098.0), to_apply=command_buffer.62
  get-tuple-element.63853 = f64[20,1]{1,0} get-tuple-element(call.49), index=0
  get-tuple-element.63854 = f64[20]{0} get-tuple-element(call.49), index=1
  get-tuple-element.63855 = f64[20]{0} get-tuple-element(call.49), index=2
  get-tuple-element.63856 = f64[20]{0} get-tuple-element(call.49), index=3
  get-tuple-element.63857 = f64[20]{0} get-tuple-element(call.49), index=4
  get-tuple-element.63858 = f64[20]{0} get-tuple-element(call.49), index=5
  get-tuple-element.63859 = f64[20]{0} get-tuple-element(call.49), index=6
  ROOT tuple.2428 = (f64[20]{0}, f64[20]{0}, f64[20]{0}, f64[20]{0}, f64[20]{0}, /*index=5*/f64[20]{0}, f64[20,1]{1,0}) tuple(get-tuple-element.63854, get-tuple-element.63856, get-tuple-element.63855, get-tuple-element.63858, get-tuple-element.63857, /*index=5*/get-tuple-element.63859, get-tuple-element.63853)
} // region_41.10798.clone.clone.clone.1

fused_add_select {
  param_1.1118 = pred[192,20]{1,0} parameter(1)
  constant_5067_18 = s64[] constant(191)
  param_2.951 = s64[] parameter(2)
  subtract.816.35 = s64[] subtract(constant_5067_18, param_2.951), metadata={op_name="jit(while)/jit(main)/while/body/jit(update)/while/body/cond/branch_0_fun/transpose(jvp(vmap(while)))/body/sub" source_file="/fs04/fc37/adam/projects/psilocybin-prl-analyses/src/prl_hgf/fitting/hierarchical_patrl.py" source_line=378}
  constant_5060_9 = s64[] constant(0)
  compare.2632.35 = pred[] compare(subtract.816.35, constant_5060_9), direction=LT, metadata={op_name="jit(while)/jit(main)/while/body/jit(update)/while/body/cond/branch_0_fun/transpose(jvp(vmap(while)))/body/lt" source_file="/fs04/fc37/adam/projects/psilocybin-prl-analyses/src/prl_hgf/fitting/hierarchical_patrl.py" source_line=378}
  constant_5068_18 = s64[] constant(383)
  subtract.817.35 = s64[] subtract(constant_5068_18, param_2.951), metadata={op_name="jit(while)/jit(main)/while/body/jit(update)/while/body/cond/branch_0_fun/transpose(jvp(vmap(while)))/body/add" source_file="/fs04/fc37/adam/projects/psilocybin-prl-analyses/src/prl_hgf/fitting/hierarchical_patrl.py" source_line=378}
  select.8898.35 = s64[] select(compare.2632.35, subtract.817.35, subtract.816.35), metadata={op_name="jit(while)/jit(main)/while/body/jit(update)/while/body/cond/branch_0_fun/transpose(jvp(vmap(while)))/body/select_n" source_file="/fs04/fc37/adam/projects/psilocybin-prl-analyses/src/prl_hgf/fitting/hierarchical_patrl.py" source_line=378}
  dynamic-slice.5265.17 = pred[1,20]{1,0} dynamic-slice(param_1.1118, select.8898.35, constant_5060_9), dynamic_slice_sizes={1,20}, metadata={op_name="jit(while)/jit(main)/while/body/jit(update)/while/body/cond/branch_0_fun/transpose(jvp(vmap(while)))/body/dynamic_slice[slice_sizes=(1, 20)]" source_file="/fs04/fc37/adam/projects/psilocybin-prl-analyses/src/prl_hgf/fitting/hierarchical_patrl.py" source_line=378}
  bitcast.15457.29 = pred[20]{0} bitcast(dynamic-slice.5265.17)
  constant_5062_12 = f64[] constant(0)
  broadcast.4924.clone.59 = f64[20]{0} broadcast(constant_5062_12), dimensions={}
  param_0.725 = f64[20]{0} parameter(0)
  select.8932.1 = f64[20]{0} select(bitcast.15457.29, broadcast.4924.clone.59, param_0.725), metadata={op_name="jit(while)/jit(main)/while/body/jit(update)/cond/branch_0_fun/transpose(jvp(vmap(while)))/body/jit(_where)/select_n" source_file="/fs04/fc37/adam/projects/psilocybin-prl-analyses/src/prl_hgf/env/pat_rl_simulator.py" source_line=92}
  param_19.615 = f64[20]{0} parameter(19)
  select.8934.3.clone.1 = f64[20]{0} select(bitcast.15457.29, broadcast.4924.clone.59, param_19.615), metadata={op_name="jit(while)/jit(main)/while/body/jit(update)/cond/branch_0_fun/transpose(jvp(vmap(while)))/body/jit(_where)/select_n" source_file="/fs04/fc37/adam/projects/psilocybin-prl-analyses/src/prl_hgf/fitting/hierarchical_patrl.py" source_line=370}
  param_5.4056 = f64[20]{0} parameter(5)
  param_31.290 = f64[192,20]{1,0} parameter(31)
  dynamic-slice.5289.1.clone.1 = f64[1,20]{1,0} dynamic-slice(param_31.290, select.8898.35, constant_5060_9), dynamic_slice_sizes={1,20}, metadata={op_name="jit(while)/jit(main)/while/body/jit(update)/while/body/cond/branch_0_fun/transpose(jvp(vmap(while)))/body/dynamic_slice[slice_sizes=(1, 20)]" source_file="/fs04/fc37/adam/projects/psilocybin-prl-analyses/src/prl_hgf/fitting/hierarchical_patrl.py" source_line=378}
  bitcast.15912.16.clone.1 = f64[20]{0} bitcast(dynamic-slice.5289.1.clone.1)
  param_30.310 = pred[192,20]{1,0} parameter(30)
  dynamic-slice.5302.3.clone.1 = pred[1,20]{1,0} dynamic-slice(param_30.310, select.8898.35, constant_5060_9), dynamic_slice_sizes={1,20}, metadata={op_name="jit(while)/jit(main)/while/body/jit(update)/while/body/cond/branch_0_fun/transpose(jvp(vmap(while)))/body/dynamic_slice[slice_sizes=(1, 20)]" source_file="/fs04/fc37/adam/projects/psilocybin-prl-analyses/src/prl_hgf/fitting/hierarchical_patrl.py" source_line=378}
  bitcast.16246.5.clone.1 = pred[20]{0} bitcast(dynamic-slice.5302.3.clone.1)
  param_29.381 = f64[20]{0} parameter(29)
  select.8921.9.clone.1 = f64[20]{0} select(bitcast.15457.29, param_29.381, broadcast.4924.clone.59), metadata={op_name="jit(while)/jit(main)/while/body/jit(update)/cond/branch_0_fun/transpose(jvp(vmap(while)))/body/jit(_where)/select_n" source_file="/fs04/fc37/adam/projects/psilocybin-prl-analyses/src/prl_hgf/env/pat_rl_simulator.py" source_line=92}
  param_28.438 = f64[20]{0} parameter(28)
  select.8907.15.clone.1 = f64[20]{0} select(bitcast.15457.29, param_28.438, broadcast.4924.clone.59), metadata={op_name="jit(while)/jit(main)/while/body/jit(update)/cond/branch_0_fun/transpose(jvp(vmap(while)))/body/jit(_where)/select_n" source_file="/fs04/fc37/adam/projects/psilocybin-prl-analyses/src/prl_hgf/env/pat_rl_simulator.py" source_line=92}
  param_27.544 = pred[192,20]{1,0} parameter(27)
  dynamic-slice.5271.31.clone.1 = pred[1,20]{1,0} dynamic-slice(param_27.544, select.8898.35, constant_5060_9), dynamic_slice_sizes={1,20}, metadata={op_name="jit(while)/jit(main)/while/body/jit(update)/while/body/cond/branch_0_fun/transpose(jvp(vmap(while)))/body/dynamic_slice[slice_sizes=(1, 20)]" source_file="/fs04/fc37/adam/projects/psilocybin-prl-analyses/src/prl_hgf/fitting/hierarchical_patrl.py" source_line=378}
  bitcast.15585.45.clone.1 = pred[20]{0} bitcast(dynamic-slice.5271.31.clone.1)
  param_26.584 = f64[192,20]{1,0} parameter(26)
  dynamic-slice.5272.13.clone.1 = f64[1,20]{1,0} dynamic-slice(param_26.584, select.8898.35, constant_5060_9), dynamic_slice_sizes={1,20}, metadata={op_name="jit(while)/jit(main)/while/body/jit(update)/while/body/cond/branch_0_fun/transpose(jvp(vmap(while)))/body/dynamic_slice[slice_sizes=(1, 20)]" source_file="/fs04/fc37/adam/projects/psilocybin-prl-analyses/src/prl_hgf/fitting/hierarchical_patrl.py" source_line=378}
  bitcast.15594.17.clone.1 = f64[20]{0} bitcast(dynamic-slice.5272.13.clone.1)
  param_25.730 = pred[192,20]{1,0} parameter(25)
  dynamic-slice.5273.37.clone.1 = pred[1,20]{1,0} dynamic-slice(param_25.730, select.8898.35, constant_5060_9), dynamic_slice_sizes={1,20}, metadata={op_name="jit(while)/jit(main)/while/body/jit(update)/while/body/cond/branch_0_fun/transpose(jvp(vmap(while)))/body/dynamic_slice[slice_sizes=(1, 20)]" source_file="/fs04/fc37/adam/projects/psilocybin-prl-analyses/src/prl_hgf/fitting/hierarchical_patrl.py" source_line=378}
  bitcast.15603.37.clone.1 = pred[20]{0} bitcast(dynamic-slice.5273.37.clone.1)
  param_24.661 = s32[192,20]{1,0} parameter(24)
  dynamic-slice.5274.44.clone.1 = s32[1,20]{1,0} dynamic-slice(param_24.661, select.8898.35, constant_5060_9), dynamic_slice_sizes={1,20}, metadata={op_name="jit(while)/jit(main)/while/body/jit(update)/while/body/cond/branch_0_fun/transpose(jvp(vmap(while)))/body/dynamic_slice[slice_sizes=(1, 20)]" source_file="/fs04/fc37/adam/projects/psilocybin-prl-analyses/src/prl_hgf/fitting/hierarchical_patrl.py" source_line=378}
  constant_5063_1_clone_1 = s32[] constant(1)
  broadcast.4925.39.clone.1 = s32[1,20]{1,0} broadcast(constant_5063_1_clone_1), dimensions={}
  compare.2633.39.clone.1 = pred[1,20]{1,0} compare(dynamic-slice.5274.44.clone.1, broadcast.4925.39.clone.1), direction=EQ, metadata={op_name="jit(while)/jit(main)/while/body/jit(update)/cond/branch_0_fun/transpose(jvp(vmap(while)))/body/jit(beliefs_propagation)/jit(continuous_node_posterior_update_ehgf)/jit(posterior_update_precision_continuous_node)/eq" source_file="/fs04/fc37/adam/projects/psilocybin-prl-analyses/src/prl_hgf/fitting/hierarchical_patrl.py" source_line=362}
  bitcast.15615.39.clone.1 = pred[20]{0} bitcast(compare.2633.39.clone.1)
  param_23.653 = f64[20]{0} parameter(23)
  select.8908.51.clone.1 = f64[20]{0} select(bitcast.15457.29, param_23.653, broadcast.4924.clone.59), metadata={op_name="jit(while)/jit(main)/while/body/jit(update)/cond/branch_0_fun/transpose(jvp(vmap(while)))/body/jit(_where)/select_n" source_file="/fs04/fc37/adam/projects/psilocybin-prl-analyses/src/prl_hgf/env/pat_rl_simulator.py" source_line=92}
  select.8909.39.clone.1 = f64[20]{0} select(bitcast.15615.39.clone.1, select.8908.51.clone.1, broadcast.4924.clone.59), metadata={op_name="jit(while)/jit(main)/while/body/jit(update)/cond/branch_0_fun/transpose(jvp(vmap(while)))/body/jit(beliefs_propagation)/jit(continuous_node_posterior_update_ehgf)/jit(posterior_update_precision_continuous_node)/select_n" source_file="/fs04/fc37/adam/projects/psilocybin-prl-analyses/src/prl_hgf/fitting/hierarchical_patrl.py" source_line=362}
  select.8910.37.clone.1 = f64[20]{0} select(bitcast.15603.37.clone.1, select.8909.39.clone.1, broadcast.4924.clone.59), metadata={op_name="jit(while)/jit(main)/while/body/jit(update)/cond/branch_0_fun/transpose(jvp(vmap(while)))/body/jit(beliefs_propagation)/jit(continuous_node_posterior_update_ehgf)/jit(posterior_update_precision_continuous_node)/jit(precision_update)/jit(_where)/select_n" source_file="/fs04/fc37/adam/projects/psilocybin-prl-analyses/src/prl_hgf/env/pat_rl_simulator.py" source_line=92}
  param_22.589 = f64[192,20]{1,0} parameter(22)
  dynamic-slice.5275.68.clone.1 = f64[1,20]{1,0} dynamic-slice(param_22.589, select.8898.35, constant_5060_9), dynamic_slice_sizes={1,20}, metadata={op_name="jit(while)/jit(main)/while/body/jit(update)/while/body/cond/branch_0_fun/transpose(jvp(vmap(while)))/body/dynamic_slice[slice_sizes=(1, 20)]" source_file="/fs04/fc37/adam/projects/psilocybin-prl-analyses/src/prl_hgf/fitting/hierarchical_patrl.py" source_line=378}
  bitcast.15635.68.clone.1 = f64[20]{0} bitcast(dynamic-slice.5275.68.clone.1)
  multiply.11286.31.clone.1 = f64[20]{0} multiply(select.8910.37.clone.1, bitcast.15635.68.clone.1), metadata={op_name="jit(while)/jit(main)/while/body/jit(update)/cond/branch_0_fun/transpose(jvp(vmap(while)))/body/jit(beliefs_propagation)/jit(continuous_node_posterior_update_ehgf)/jit(posterior_update_precision_continuous_node)/jit(precision_update)/mul" source_file="/fs04/fc37/adam/projects/psilocybin-prl-analyses/src/prl_hgf/fitting/hierarchical_patrl.py" source_line=362}
  negate.1714.30.clone.1 = f64[20]{0} negate(multiply.11286.31.clone.1), metadata={op_name="jit(while)/jit(main)/while/body/jit(update)/cond/branch_0_fun/transpose(jvp(vmap(while)))/body/jit(beliefs_propagation)/jit(continuous_node_posterior_update_ehgf)/jit(posterior_update_precision_continuous_node)/jit(precision_update)/neg" source_file="/fs04/fc37/adam/projects/psilocybin-prl-analyses/src/prl_hgf/fitting/hierarchical_patrl.py" source_line=362}
  multiply.11287.17.clone.1 = f64[20]{0} multiply(bitcast.15594.17.clone.1, negate.1714.30.clone.1), metadata={op_name="jit(while)/jit(main)/while/body/jit(update)/cond/branch_0_fun/transpose(jvp(vmap(while)))/body/jit(beliefs_propagation)/jit(continuous_node_posterior_update_ehgf)/jit(posterior_update_precision_continuous_node)/jit(precision_update)/mul" source_file="/fs04/fc37/adam/projects/psilocybin-prl-analyses/src/prl_hgf/fitting/hierarchical_patrl.py" source_line=362}
  param_21.616 = f64[192,20]{1,0} parameter(21)
  dynamic-slice.5276.13.clone.1 = f64[1,20]{1,0} dynamic-slice(param_21.616, select.8898.35, constant_5060_9), dynamic_slice_sizes={1,20}, metadata={op_name="jit(while)/jit(main)/while/body/jit(update)/while/body/cond/branch_0_fun/transpose(jvp(vmap(while)))/body/dynamic_slice[slice_sizes=(1, 20)]" source_file="/fs04/fc37/adam/projects/psilocybin-prl-analyses/src/prl_hgf/fitting/hierarchical_patrl.py" source_line=378}
  bitcast.15647.15.clone.1 = f64[20]{0} bitcast(dynamic-slice.5276.13.clone.1)
  multiply.11288.15.clone.1 = f64[20]{0} multiply(bitcast.15647.15.clone.1, multiply.11286.31.clone.1), metadata={op_name="jit(while)/jit(main)/while/body/jit(update)/cond/branch_0_fun/transpose(jvp(vmap(while)))/body/jit(beliefs_propagation)/jit(continuous_node_posterior_update_ehgf)/jit(posterior_update_precision_continuous_node)/jit(precision_update)/mul" source_file="/fs04/fc37/adam/projects/psilocybin-prl-analyses/src/prl_hgf/fitting/hierarchical_patrl.py" source_line=362}
  add.9473.15.clone.1 = f64[20]{0} add(multiply.11287.17.clone.1, multiply.11288.15.clone.1), metadata={op_name="jit(while)/jit(main)/while/body/jit(update)/cond/branch_0_fun/transpose(jvp(vmap(while)))/body/jit(beliefs_propagation)/jit(continuous_node_posterior_update_ehgf)/jit(posterior_update_precision_continuous_node)/jit(precision_update)/add_any" source_file="/fs04/fc37/adam/projects/psilocybin-prl-analyses/src/prl_hgf/fitting/hierarchical_patrl.py" source_line=362}
  select.8911.17.clone.1 = f64[20]{0} select(bitcast.15585.45.clone.1, add.9473.15.clone.1, broadcast.4924.clone.59), metadata={op_name="jit(while)/jit(main)/while/body/jit(update)/cond/branch_0_fun/transpose(jvp(vmap(while)))/body/jit(beliefs_propagation)/jit(continuous_node_posterior_update_ehgf)/jit(posterior_update_precision_continuous_node)/select_n" source_file="/fs04/fc37/adam/projects/psilocybin-prl-analyses/src/prl_hgf/fitting/hierarchical_patrl.py" source_line=362}
  param_20.602 = f64[192,20]{1,0} parameter(20)
  dynamic-slice.5277.13.clone.1 = f64[1,20]{1,0} dynamic-slice(param_20.602, select.8898.35, constant_5060_9), dynamic_slice_sizes={1,20}, metadata={op_name="jit(while)/jit(main)/while/body/jit(update)/while/body/cond/branch_0_fun/transpose(jvp(vmap(while)))/body/dynamic_slice[slice_sizes=(1, 20)]" source_file="/fs04/fc37/adam/projects/psilocybin-prl-analyses/src/prl_hgf/fitting/hierarchical_patrl.py" source_line=378}
  bitcast.15661.15.clone.1 = f64[20]{0} bitcast(dynamic-slice.5277.13.clone.1)
  select.8912.41.clone.1 = f64[20]{0} select(bitcast.15457.29, param_19.615, broadcast.4924.clone.59), metadata={op_name="jit(while)/jit(main)/while/body/jit(update)/cond/branch_0_fun/transpose(jvp(vmap(while)))/body/jit(_where)/select_n" source_file="/fs04/fc37/adam/projects/psilocybin-prl-analyses/src/prl_hgf/fitting/hierarchical_patrl.py" source_line=370}
  multiply.11289.37.clone.1 = f64[20]{0} multiply(select.8912.41.clone.1, bitcast.15635.68.clone.1), metadata={op_name="jit(while)/jit(main)/while/body/jit(update)/cond/branch_0_fun/transpose(jvp(vmap(while)))/body/jit(beliefs_propagation)/jit(continuous_node_posterior_update_ehgf)/jit(posterior_update_mean_continuous_node)/mul" source_file="/fs04/fc37/adam/projects/psilocybin-prl-analyses/src/prl_hgf/fitting/hierarchical_patrl.py" source_line=362}
  param_18.679 = f64[192,20]{1,0} parameter(18)
  dynamic-slice.5278.33.clone.1 = f64[1,20]{1,0} dynamic-slice(param_18.679, select.8898.35, constant_5060_9), dynamic_slice_sizes={1,20}, metadata={op_name="jit(while)/jit(main)/while/body/jit(update)/while/body/cond/branch_0_fun/transpose(jvp(vmap(while)))/body/dynamic_slice[slice_sizes=(1, 20)]" source_file="/fs04/fc37/adam/projects/psilocybin-prl-analyses/src/prl_hgf/fitting/hierarchical_patrl.py" source_line=378}
  bitcast.15684.33.clone.1 = f64[20]{0} bitcast(dynamic-slice.5278.33.clone.1)
  multiply.11290.33.clone.1 = f64[20]{0} multiply(multiply.11289.37.clone.1, bitcast.15684.33.clone.1), metadata={op_name="jit(while)/jit(main)/while/body/jit(update)/cond/branch_0_fun/transpose(jvp(vmap(while)))/body/jit(beliefs_propagation)/jit(continuous_node_posterior_update_ehgf)/jit(posterior_update_mean_continuous_node)/mul" source_file="/fs04/fc37/adam/projects/psilocybin-prl-analyses/src/prl_hgf/fitting/hierarchical_patrl.py" source_line=362}
  multiply.11291.15.clone.1 = f64[20]{0} multiply(bitcast.15661.15.clone.1, multiply.11290.33.clone.1), metadata={op_name="jit(while)/jit(main)/while/body/jit(update)/cond/branch_0_fun/transpose(jvp(vmap(while)))/body/jit(beliefs_propagation)/jit(continuous_node_posterior_update_ehgf)/jit(posterior_update_mean_continuous_node)/mul" source_file="/fs04/fc37/adam/projects/psilocybin-prl-analyses/src/prl_hgf/fitting/hierarchical_patrl.py" source_line=362}
  add.9474.15.clone.1 = f64[20]{0} add(select.8911.17.clone.1, multiply.11291.15.clone.1), metadata={op_name="jit(while)/jit(main)/while/body/jit(update)/cond/branch_0_fun/transpose(jvp(vmap(while)))/body/jit(beliefs_propagation)/jit(continuous_node_posterior_update_ehgf)/add_any" source_file="/fs04/fc37/adam/projects/psilocybin-prl-analyses/src/prl_hgf/fitting/hierarchical_patrl.py" source_line=362}
  add.9475.13.clone.1 = f64[20]{0} add(select.8907.15.clone.1, add.9474.15.clone.1), metadata={op_name="jit(while)/jit(main)/while/body/jit(update)/cond/branch_0_fun/transpose(jvp(vmap(while)))/body/jit(beliefs_propagation)/add_any" source_file="/fs04/fc37/adam/projects/psilocybin-prl-analyses/src/prl_hgf/fitting/hierarchical_patrl.py" source_line=362}
  param_17.696 = f64[192,20]{1,0} parameter(17)
  dynamic-slice.5294.7.clone.1 = f64[1,20]{1,0} dynamic-slice(param_17.696, select.8898.35, constant_5060_9), dynamic_slice_sizes={1,20}, metadata={op_name="jit(while)/jit(main)/while/body/jit(update)/while/body/cond/branch_0_fun/transpose(jvp(vmap(while)))/body/dynamic_slice[slice_sizes=(1, 20)]" source_file="/fs04/fc37/adam/projects/psilocybin-prl-analyses/src/prl_hgf/fitting/hierarchical_patrl.py" source_line=378}
  bitcast.16008.9.clone.1 = f64[20]{0} bitcast(dynamic-slice.5294.7.clone.1)
  multiply.11309.9.clone.1 = f64[20]{0} multiply(add.9475.13.clone.1, bitcast.16008.9.clone.1), metadata={op_name="jit(while)/jit(main)/while/body/jit(update)/cond/branch_0_fun/transpose(jvp(vmap(while)))/body/jit(beliefs_propagation)/jit(continuous_node_prediction_error)/jit(continuous_node_volatility_prediction_error)/mul" source_file="/fs04/fc37/adam/projects/psilocybin-prl-analyses/src/prl_hgf/fitting/hierarchical_patrl.py" source_line=362}
  param_16.701 = f64[192,20]{1,0} parameter(16)
  dynamic-slice.5290.8.clone.1 = f64[1,20]{1,0} dynamic-slice(param_16.701, select.8898.35, constant_5060_9), dynamic_slice_sizes={1,20}, metadata={op_name="jit(while)/jit(main)/while/body/jit(update)/while/body/cond/branch_0_fun/transpose(jvp(vmap(while)))/body/dynamic_slice[slice_sizes=(1, 20)]" source_file="/fs04/fc37/adam/projects/psilocybin-prl-analyses/src/prl_hgf/fitting/hierarchical_patrl.py" source_line=378}
  bitcast.15923.30.clone.1 = f64[20]{0} bitcast(dynamic-slice.5290.8.clone.1)
  divide.2463.17.clone.1 = f64[20]{0} divide(add.9475.13.clone.1, bitcast.15923.30.clone.1), metadata={op_name="jit(while)/jit(main)/while/body/jit(update)/cond/branch_0_fun/transpose(jvp(vmap(while)))/body/jit(beliefs_propagation)/jit(continuous_node_prediction_error)/jit(continuous_node_volatility_prediction_error)/div" source_file="/fs04/fc37/adam/projects/psilocybin-prl-analyses/src/prl_hgf/fitting/hierarchical_patrl.py" source_line=362}
  add.9499.15.clone.1 = f64[20]{0} add(multiply.11309.9.clone.1, divide.2463.17.clone.1), metadata={op_name="jit(while)/jit(main)/while/body/jit(update)/cond/branch_0_fun/transpose(jvp(vmap(while)))/body/jit(beliefs_propagation)/jit(continuous_node_prediction_error)/jit(continuous_node_volatility_prediction_error)/add_any" source_file="/fs04/fc37/adam/projects/psilocybin-prl-analyses/src/prl_hgf/fitting/hierarchical_patrl.py" source_line=362}
  add.9500.13.clone.1 = f64[20]{0} add(select.8921.9.clone.1, add.9499.15.clone.1), metadata={op_name="jit(while)/jit(main)/while/body/jit(update)/cond/branch_0_fun/transpose(jvp(vmap(while)))/body/jit(beliefs_propagation)/add_any" source_file="/fs04/fc37/adam/projects/psilocybin-prl-analyses/src/prl_hgf/fitting/hierarchical_patrl.py" source_line=362}
  param_15.862 = f64[20]{0} parameter(15)
  add.9501.11.clone.1 = f64[20]{0} add(add.9500.13.clone.1, param_15.862), metadata={op_name="jit(while)/jit(main)/while/body/jit(update)/cond/branch_0_fun/transpose(jvp(vmap(while)))/body/jit(beliefs_propagation)/add_any" source_file="/fs04/fc37/adam/projects/psilocybin-prl-analyses/src/prl_hgf/fitting/hierarchical_patrl.py" source_line=362}
  param_14.880 = f64[192,20]{1,0} parameter(14)
  dynamic-slice.5295.7.clone.1 = f64[1,20]{1,0} dynamic-slice(param_14.880, select.8898.35, constant_5060_9), dynamic_slice_sizes={1,20}, metadata={op_name="jit(while)/jit(main)/while/body/jit(update)/while/body/cond/branch_0_fun/transpose(jvp(vmap(while)))/body/dynamic_slice[slice_sizes=(1, 20)]" source_file="/fs04/fc37/adam/projects/psilocybin-prl-analyses/src/prl_hgf/fitting/hierarchical_patrl.py" source_line=378}
  bitcast.16030.9.clone.1 = f64[20]{0} bitcast(dynamic-slice.5295.7.clone.1)
  param_13.906 = f64[20]{0} parameter(13)
  select.8922.17.clone.1 = f64[20]{0} select(bitcast.15457.29, param_13.906, broadcast.4924.clone.59), metadata={op_name="jit(while)/jit(main)/while/body/jit(update)/cond/branch_0_fun/transpose(jvp(vmap(while)))/body/jit(_where)/select_n" source_file="/fs04/fc37/adam/projects/psilocybin-prl-analyses/src/prl_hgf/env/pat_rl_simulator.py" source_line=92}
  param_12.957 = f64[192,20]{1,0} parameter(12)
  dynamic-slice.5296.13.clone.1 = f64[1,20]{1,0} dynamic-slice(param_12.957, select.8898.35, constant_5060_9), dynamic_slice_sizes={1,20}, metadata={op_name="jit(while)/jit(main)/while/body/jit(update)/while/body/cond/branch_0_fun/transpose(jvp(vmap(while)))/body/dynamic_slice[slice_sizes=(1, 20)]" source_file="/fs04/fc37/adam/projects/psilocybin-prl-analyses/src/prl_hgf/fitting/hierarchical_patrl.py" source_line=378}
  bitcast.16052.19.clone.1 = f64[20]{0} bitcast(dynamic-slice.5296.13.clone.1)
  param_11.1156 = f64[192,20]{1,0} parameter(11)
  dynamic-slice.5297.51.clone.1 = f64[1,20]{1,0} dynamic-slice(param_11.1156, select.8898.35, constant_5060_9), dynamic_slice_sizes={1,20}, metadata={op_name="jit(while)/jit(main)/while/body/jit(update)/while/body/cond/branch_0_fun/transpose(jvp(vmap(while)))/body/dynamic_slice[slice_sizes=(1, 20)]" source_file="/fs04/fc37/adam/projects/psilocybin-prl-analyses/src/prl_hgf/fitting/hierarchical_patrl.py" source_line=378}
  bitcast.16063.53.clone.1 = f64[20]{0} bitcast(dynamic-slice.5297.51.clone.1)
  multiply.11310.17.clone.1 = f64[20]{0} multiply(negate.1714.30.clone.1, bitcast.16063.53.clone.1), metadata={op_name="jit(while)/jit(main)/while/body/jit(update)/cond/branch_0_fun/transpose(jvp(vmap(while)))/body/jit(beliefs_propagation)/jit(continuous_node_posterior_update_ehgf)/jit(posterior_update_precision_continuous_node)/jit(precision_update)/mul" source_file="/fs04/fc37/adam/projects/psilocybin-prl-analyses/src/prl_hgf/fitting/hierarchical_patrl.py" source_line=362}
  multiply.11311.19.clone.1 = f64[20]{0} multiply(bitcast.16052.19.clone.1, multiply.11310.17.clone.1), metadata={op_name="jit(while)/jit(main)/while/body/jit(update)/cond/branch_0_fun/transpose(jvp(vmap(while)))/body/jit(beliefs_propagation)/jit(continuous_node_posterior_update_ehgf)/jit(posterior_update_precision_continuous_node)/jit(precision_update)/mul" source_file="/fs04/fc37/adam/projects/psilocybin-prl-analyses/src/prl_hgf/fitting/hierarchical_patrl.py" source_line=362}
  param_10.1350 = f64[192,20]{1,0} parameter(10)
  dynamic-slice.5298.13.clone.1 = f64[1,20]{1,0} dynamic-slice(param_10.1350, select.8898.35, constant_5060_9), dynamic_slice_sizes={1,20}, metadata={op_name="jit(while)/jit(main)/while/body/jit(update)/while/body/cond/branch_0_fun/transpose(jvp(vmap(while)))/body/dynamic_slice[slice_sizes=(1, 20)]" source_file="/fs04/fc37/adam/projects/psilocybin-prl-analyses/src/prl_hgf/fitting/hierarchical_patrl.py" source_line=378}
  bitcast.16074.45.clone.1 = f64[20]{0} bitcast(dynamic-slice.5298.13.clone.1)
  multiply.11312.19.clone.1 = f64[20]{0} multiply(multiply.11286.31.clone.1, bitcast.16063.53.clone.1), metadata={op_name="jit(while)/jit(main)/while/body/jit(update)/cond/branch_0_fun/transpose(jvp(vmap(while)))/body/jit(beliefs_propagation)/jit(continuous_node_posterior_update_ehgf)/jit(posterior_update_precision_continuous_node)/jit(precision_update)/mul" source_file="/fs04/fc37/adam/projects/psilocybin-prl-analyses/src/prl_hgf/fitting/hierarchical_patrl.py" source_line=362}
  param_9.1681 = f64[192,20]{1,0} parameter(9)
  dynamic-slice.5299.34.clone.1 = f64[1,20]{1,0} dynamic-slice(param_9.1681, select.8898.35, constant_5060_9), dynamic_slice_sizes={1,20}, metadata={op_name="jit(while)/jit(main)/while/body/jit(update)/while/body/cond/branch_0_fun/transpose(jvp(vmap(while)))/body/dynamic_slice[slice_sizes=(1, 20)]" source_file="/fs04/fc37/adam/projects/psilocybin-prl-analyses/src/prl_hgf/fitting/hierarchical_patrl.py" source_line=378}
  bitcast.16090.34.clone.1 = f64[20]{0} bitcast(dynamic-slice.5299.34.clone.1)
  multiply.11313.17.clone.1 = f64[20]{0} multiply(multiply.11312.19.clone.1, bitcast.16090.34.clone.1), metadata={op_name="jit(while)/jit(main)/while/body/jit(update)/cond/branch_0_fun/transpose(jvp(vmap(while)))/body/jit(beliefs_propagation)/jit(continuous_node_posterior_update_ehgf)/jit(posterior_update_precision_continuous_node)/jit(precision_update)/mul" source_file="/fs04/fc37/adam/projects/psilocybin-prl-analyses/src/prl_hgf/fitting/hierarchical_patrl.py" source_line=362}
  multiply.11314.15.clone.1 = f64[20]{0} multiply(bitcast.16074.45.clone.1, multiply.11313.17.clone.1), metadata={op_name="jit(while)/jit(main)/while/body/jit(update)/cond/branch_0_fun/transpose(jvp(vmap(while)))/body/jit(beliefs_propagation)/jit(continuous_node_posterior_update_ehgf)/jit(posterior_update_precision_continuous_node)/jit(precision_update)/mul" source_file="/fs04/fc37/adam/projects/psilocybin-prl-analyses/src/prl_hgf/fitting/hierarchical_patrl.py" source_line=362}
  add.9502.17.clone.1 = f64[20]{0} add(multiply.11311.19.clone.1, multiply.11314.15.clone.1), metadata={op_name="jit(while)/jit(main)/while/body/jit(update)/cond/branch_0_fun/transpose(jvp(vmap(while)))/body/jit(beliefs_propagation)/jit(continuous_node_posterior_update_ehgf)/jit(posterior_update_precision_continuous_node)/jit(precision_update)/add_any" source_file="/fs04/fc37/adam/projects/psilocybin-prl-analyses/src/prl_hgf/fitting/hierarchical_patrl.py" source_line=362}
  constant_5064_2_clone_1 = f64[] constant(0.5)
  broadcast.4927.clone.21.clone.1 = f64[20]{0} broadcast(constant_5064_2_clone_1), dimensions={}
  multiply.11315.19.clone.1 = f64[20]{0} multiply(multiply.11286.31.clone.1, broadcast.4927.clone.21.clone.1), metadata={op_name="jit(while)/jit(main)/while/body/jit(update)/cond/branch_0_fun/transpose(jvp(vmap(while)))/body/jit(beliefs_propagation)/jit(continuous_node_posterior_update_ehgf)/jit(posterior_update_precision_continuous_node)/jit(precision_update)/mul" source_file="/fs04/fc37/adam/projects/psilocybin-prl-analyses/src/prl_hgf/fitting/hierarchical_patrl.py" source_line=362}
  multiply.11316.17.clone.1 = f64[20]{0} multiply(multiply.11315.19.clone.1, bitcast.16090.34.clone.1), metadata={op_name="jit(while)/jit(main)/while/body/jit(update)/cond/branch_0_fun/transpose(jvp(vmap(while)))/body/jit(beliefs_propagation)/jit(continuous_node_posterior_update_ehgf)/jit(posterior_update_precision_continuous_node)/jit(precision_update)/mul" source_file="/fs04/fc37/adam/projects/psilocybin-prl-analyses/src/prl_hgf/fitting/hierarchical_patrl.py" source_line=362}
  multiply.11317.15.clone.1 = f64[20]{0} multiply(bitcast.16074.45.clone.1, multiply.11316.17.clone.1), metadata={op_name="jit(while)/jit(main)/while/body/jit(update)/cond/branch_0_fun/transpose(jvp(vmap(while)))/body/jit(beliefs_propagation)/jit(continuous_node_posterior_update_ehgf)/jit(posterior_update_precision_continuous_node)/jit(precision_update)/mul" source_file="/fs04/fc37/adam/projects/psilocybin-prl-analyses/src/prl_hgf/fitting/hierarchical_patrl.py" source_line=362}
  add.9503.15.clone.1 = f64[20]{0} add(add.9502.17.clone.1, multiply.11317.15.clone.1), metadata={op_name="jit(while)/jit(main)/while/body/jit(update)/cond/branch_0_fun/transpose(jvp(vmap(while)))/body/jit(beliefs_propagation)/jit(continuous_node_posterior_update_ehgf)/jit(posterior_update_precision_continuous_node)/jit(precision_update)/add_any" source_file="/fs04/fc37/adam/projects/psilocybin-prl-analyses/src/prl_hgf/fitting/hierarchical_patrl.py" source_line=362}
  select.8923.17.clone.1 = f64[20]{0} select(bitcast.15585.45.clone.1, add.9503.15.clone.1, broadcast.4924.clone.59), metadata={op_name="jit(while)/jit(main)/while/body/jit(update)/cond/branch_0_fun/transpose(jvp(vmap(while)))/body/jit(beliefs_propagation)/jit(continuous_node_posterior_update_ehgf)/jit(posterior_update_precision_continuous_node)/select_n" source_file="/fs04/fc37/adam/projects/psilocybin-prl-analyses/src/prl_hgf/fitting/hierarchical_patrl.py" source_line=362}
  multiply.11318.17.clone.1 = f64[20]{0} multiply(multiply.11290.33.clone.1, bitcast.16063.53.clone.1), metadata={op_name="jit(while)/jit(main)/while/body/jit(update)/cond/branch_0_fun/transpose(jvp(vmap(while)))/body/jit(beliefs_propagation)/jit(continuous_node_posterior_update_ehgf)/jit(posterior_update_mean_continuous_node)/mul" source_file="/fs04/fc37/adam/projects/psilocybin-prl-analyses/src/prl_hgf/fitting/hierarchical_patrl.py" source_line=362}
  multiply.11319.15.clone.1 = f64[20]{0} multiply(bitcast.16074.45.clone.1, multiply.11318.17.clone.1), metadata={op_name="jit(while)/jit(main)/while/body/jit(update)/cond/branch_0_fun/transpose(jvp(vmap(while)))/body/jit(beliefs_propagation)/jit(continuous_node_posterior_update_ehgf)/jit(posterior_update_mean_continuous_node)/mul" source_file="/fs04/fc37/adam/projects/psilocybin-prl-analyses/src/prl_hgf/fitting/hierarchical_patrl.py" source_line=362}
  add.9504.15.clone.1 = f64[20]{0} add(select.8923.17.clone.1, multiply.11319.15.clone.1), metadata={op_name="jit(while)/jit(main)/while/body/jit(update)/cond/branch_0_fun/transpose(jvp(vmap(while)))/body/jit(beliefs_propagation)/jit(continuous_node_posterior_update_ehgf)/add_any" source_file="/fs04/fc37/adam/projects/psilocybin-prl-analyses/src/prl_hgf/fitting/hierarchical_patrl.py" source_line=362}
  add.9505.15.clone.1 = f64[20]{0} add(select.8922.17.clone.1, add.9504.15.clone.1), metadata={op_name="jit(while)/jit(main)/while/body/jit(update)/cond/branch_0_fun/transpose(jvp(vmap(while)))/body/jit(beliefs_propagation)/add_any" source_file="/fs04/fc37/adam/projects/psilocybin-prl-analyses/src/prl_hgf/fitting/hierarchical_patrl.py" source_line=362}
  param_3.5805 = f64[20]{0} parameter(3)
  add.9506.13.clone.1 = f64[20]{0} add(add.9505.15.clone.1, param_3.5805), metadata={op_name="jit(while)/jit(main)/while/body/jit(update)/cond/branch_0_fun/transpose(jvp(vmap(while)))/body/jit(beliefs_propagation)/add_any" source_file="/fs04/fc37/adam/projects/psilocybin-prl-analyses/src/prl_hgf/fitting/hierarchical_patrl.py" source_line=362}
  multiply.11320.9.clone.1 = f64[20]{0} multiply(bitcast.16030.9.clone.1, add.9506.13.clone.1), metadata={op_name="jit(while)/jit(main)/while/body/jit(update)/cond/branch_0_fun/transpose(jvp(vmap(while)))/body/jit(beliefs_propagation)/jit(continuous_node_prediction)/jit(predict_precision)/mul" source_file="/fs04/fc37/adam/projects/psilocybin-prl-analyses/src/prl_hgf/fitting/hierarchical_patrl.py" source_line=362}
  add.9507.9.clone.1 = f64[20]{0} add(add.9501.11.clone.1, multiply.11320.9.clone.1), metadata={op_name="jit(while)/jit(main)/while/body/jit(update)/cond/branch_0_fun/transpose(jvp(vmap(while)))/body/jit(beliefs_propagation)/jit(continuous_node_prediction)/jit(predict_precision)/add_any" source_file="/fs04/fc37/adam/projects/psilocybin-prl-analyses/src/prl_hgf/fitting/hierarchical_patrl.py" source_line=362}
  param_8.1930 = f64[192,20]{1,0} parameter(8)
  dynamic-slice.5300.7.clone.1 = f64[1,20]{1,0} dynamic-slice(param_8.1930, select.8898.35, constant_5060_9), dynamic_slice_sizes={1,20}, metadata={op_name="jit(while)/jit(main)/while/body/jit(update)/while/body/cond/branch_0_fun/transpose(jvp(vmap(while)))/body/dynamic_slice[slice_sizes=(1, 20)]" source_file="/fs04/fc37/adam/projects/psilocybin-prl-analyses/src/prl_hgf/fitting/hierarchical_patrl.py" source_line=378}
  bitcast.16140.7.clone.1 = f64[20]{0} bitcast(dynamic-slice.5300.7.clone.1)
  multiply.11321.7.clone.1 = f64[20]{0} multiply(add.9507.9.clone.1, bitcast.16140.7.clone.1), metadata={op_name="jit(while)/jit(main)/while/body/jit(update)/cond/branch_0_fun/transpose(jvp(vmap(while)))/body/jit(beliefs_propagation)/jit(continuous_node_prediction)/jit(predict_precision)/mul" source_file="/fs04/fc37/adam/projects/psilocybin-prl-analyses/src/prl_hgf/fitting/hierarchical_patrl.py" source_line=362}
  negate.1721.4.clone.1 = f64[20]{0} negate(multiply.11321.7.clone.1), metadata={op_name="jit(while)/jit(main)/while/body/jit(update)/cond/branch_0_fun/transpose(jvp(vmap(while)))/body/jit(beliefs_propagation)/jit(continuous_node_prediction)/jit(predict_precision)/neg" source_file="/fs04/fc37/adam/projects/psilocybin-prl-analyses/src/prl_hgf/fitting/hierarchical_patrl.py" source_line=362}
  param_7.2514 = f64[192,20]{1,0} parameter(7)
  dynamic-slice.5280.9.clone.1 = f64[1,20]{1,0} dynamic-slice(param_7.2514, select.8898.35, constant_5060_9), dynamic_slice_sizes={1,20}, metadata={op_name="jit(while)/jit(main)/while/body/jit(update)/while/body/cond/branch_0_fun/transpose(jvp(vmap(while)))/body/dynamic_slice[slice_sizes=(1, 20)]" source_file="/fs04/fc37/adam/projects/psilocybin-prl-analyses/src/prl_hgf/fitting/hierarchical_patrl.py" source_line=378}
  bitcast.15707.23.clone.1 = f64[20]{0} bitcast(dynamic-slice.5280.9.clone.1)
  multiply.11324.9.clone.1 = f64[20]{0} multiply(add.9506.13.clone.1, bitcast.15707.23.clone.1), metadata={op_name="jit(while)/jit(main)/while/body/jit(update)/cond/branch_0_fun/transpose(jvp(vmap(while)))/body/jit(beliefs_propagation)/jit(continuous_node_prediction)/jit(predict_precision)/mul" source_file="/fs04/fc37/adam/projects/psilocybin-prl-analyses/src/prl_hgf/fitting/hierarchical_patrl.py" source_line=362}
  add.9515.7.clone.1 = f64[20]{0} add(negate.1721.4.clone.1, multiply.11324.9.clone.1), metadata={op_name="jit(while)/jit(main)/while/body/jit(update)/cond/branch_0_fun/transpose(jvp(vmap(while)))/body/jit(beliefs_propagation)/jit(continuous_node_prediction)/jit(predict_precision)/add_any" source_file="/fs04/fc37/adam/projects/psilocybin-prl-analyses/src/prl_hgf/fitting/hierarchical_patrl.py" source_line=362}
  select.8931.5.clone.1 = f64[20]{0} select(bitcast.16246.5.clone.1, add.9515.7.clone.1, broadcast.4924.clone.59), metadata={op_name="jit(while)/jit(main)/while/body/jit(update)/cond/branch_0_fun/transpose(jvp(vmap(while)))/body/jit(beliefs_propagation)/jit(continuous_node_posterior_update_ehgf)/jit(posterior_update_precision_continuous_node)/jit(precision_update)/jit(_where)/select_n" source_file="/fs04/fc37/adam/projects/psilocybin-prl-analyses/src/prl_hgf/env/pat_rl_simulator.py" source_line=92}
  param_6.3247 = f64[192,20]{1,0} parameter(6)
  dynamic-slice.5303.3.clone.1 = f64[1,20]{1,0} dynamic-slice(param_6.3247, select.8898.35, constant_5060_9), dynamic_slice_sizes={1,20}, metadata={op_name="jit(while)/jit(main)/while/body/jit(update)/while/body/cond/branch_0_fun/transpose(jvp(vmap(while)))/body/dynamic_slice[slice_sizes=(1, 20)]" source_file="/fs04/fc37/adam/projects/psilocybin-prl-analyses/src/prl_hgf/fitting/hierarchical_patrl.py" source_line=378}
  bitcast.16268.3.clone.1 = f64[20]{0} bitcast(dynamic-slice.5303.3.clone.1)
  multiply.11325.3.clone.1 = f64[20]{0} multiply(select.8931.5.clone.1, bitcast.16268.3.clone.1), metadata={op_name="jit(while)/jit(main)/while/body/jit(update)/cond/branch_0_fun/transpose(jvp(vmap(while)))/body/jit(beliefs_propagation)/jit(continuous_node_prediction)/jit(predict_precision)/mul" source_file="/fs04/fc37/adam/projects/psilocybin-prl-analyses/src/prl_hgf/fitting/hierarchical_patrl.py" source_line=362}
  multiply.11326.5.clone.1 = f64[20]{0} multiply(bitcast.15912.16.clone.1, multiply.11325.3.clone.1), metadata={op_name="jit(while)/jit(main)/while/body/jit(update)/cond/branch_0_fun/transpose(jvp(vmap(while)))/body/jit(beliefs_propagation)/jit(continuous_node_prediction)/jit(predict_precision)/mul" source_file="/fs04/fc37/adam/projects/psilocybin-prl-analyses/src/prl_hgf/fitting/hierarchical_patrl.py" source_line=362}
  add.9518.3.clone.1 = f64[20]{0} add(param_5.4056, multiply.11326.5.clone.1), metadata={op_name="jit(while)/jit(main)/while/body/jit(update)/cond/branch_0_fun/transpose(jvp(vmap(while)))/body/jit(beliefs_propagation)/add_any" source_file="/fs04/fc37/adam/projects/psilocybin-prl-analyses/src/prl_hgf/fitting/hierarchical_patrl.py" source_line=362}
  param_4.4937 = f64[192,20]{1,0} parameter(4)
  dynamic-slice.5285.1.clone.1 = f64[1,20]{1,0} dynamic-slice(param_4.4937, select.8898.35, constant_5060_9), dynamic_slice_sizes={1,20}, metadata={op_name="jit(while)/jit(main)/while/body/jit(update)/while/body/cond/branch_0_fun/transpose(jvp(vmap(while)))/body/dynamic_slice[slice_sizes=(1, 20)]" source_file="/fs04/fc37/adam/projects/psilocybin-prl-analyses/src/prl_hgf/fitting/hierarchical_patrl.py" source_line=378}
  bitcast.15800.10.clone.1 = f64[20]{0} bitcast(dynamic-slice.5285.1.clone.1)
  select.8935.11.clone.1 = f64[20]{0} select(bitcast.15457.29, param_0.725, broadcast.4924.clone.59), metadata={op_name="jit(while)/jit(main)/while/body/jit(update)/cond/branch_0_fun/transpose(jvp(vmap(while)))/body/jit(_where)/select_n" source_file="/fs04/fc37/adam/projects/psilocybin-prl-analyses/src/prl_hgf/env/pat_rl_simulator.py" source_line=92}
  add.9519.9.clone.1 = f64[20]{0} add(select.8935.11.clone.1, select.8912.41.clone.1), metadata={op_name="jit(while)/jit(main)/while/body/jit(update)/cond/branch_0_fun/transpose(jvp(vmap(while)))/body/jit(beliefs_propagation)/add_any" source_file="/fs04/fc37/adam/projects/psilocybin-prl-analyses/src/prl_hgf/fitting/hierarchical_patrl.py" source_line=362}
  add.9520.7.clone.1 = f64[20]{0} add(add.9519.9.clone.1, param_3.5805), metadata={op_name="jit(while)/jit(main)/while/body/jit(update)/cond/branch_0_fun/transpose(jvp(vmap(while)))/body/jit(beliefs_propagation)/add_any" source_file="/fs04/fc37/adam/projects/psilocybin-prl-analyses/src/prl_hgf/fitting/hierarchical_patrl.py" source_line=362}
  multiply.11327.5.clone.1 = f64[20]{0} multiply(bitcast.15800.10.clone.1, add.9520.7.clone.1), metadata={op_name="jit(while)/jit(main)/while/body/jit(update)/cond/branch_0_fun/transpose(jvp(vmap(while)))/body/jit(beliefs_propagation)/jit(continuous_node_prediction)/jit(predict_mean)/mul" source_file="/fs04/fc37/adam/projects/psilocybin-prl-analyses/src/prl_hgf/fitting/hierarchical_patrl.py" source_line=362}
  add.9521.3.clone.1 = f64[20]{0} add(add.9518.3.clone.1, multiply.11327.5.clone.1), metadata={op_name="jit(while)/jit(main)/while/body/jit(update)/cond/branch_0_fun/transpose(jvp(vmap(while)))/body/jit(beliefs_propagation)/add_any" source_file="/fs04/fc37/adam/projects/psilocybin-prl-analyses/src/prl_hgf/fitting/hierarchical_patrl.py" source_line=362}
  add.9522.1.clone.1 = f64[20]{0} add(select.8934.3.clone.1, add.9521.3.clone.1), metadata={op_name="jit(while)/jit(main)/while/body/jit(update)/while/body/cond/branch_0_fun/transpose(jvp(vmap(while)))/body/add_any" source_file="/fs04/fc37/adam/projects/psilocybin-prl-analyses/src/prl_hgf/fitting/hierarchical_patrl.py" source_line=362}
  param_33.304 = f64[20]{0} parameter(33)
  select.8929.5.clone.1 = f64[20]{0} select(bitcast.15457.29, param_33.304, broadcast.4924.clone.59), metadata={op_name="jit(while)/jit(main)/while/body/jit(update)/cond/branch_0_fun/transpose(jvp(vmap(while)))/body/jit(_where)/select_n" source_file="/fs04/fc37/adam/projects/psilocybin-prl-analyses/src/prl_hgf/fitting/hierarchical_patrl.py" source_line=370}
  select.8930.5.clone.1 = f64[20]{0} select(bitcast.15457.29, broadcast.4924.clone.59, param_33.304), metadata={op_name="jit(while)/jit(main)/while/body/jit(update)/cond/branch_0_fun/transpose(jvp(vmap(while)))/body/jit(_where)/select_n" source_file="/fs04/fc37/adam/projects/psilocybin-prl-analyses/src/prl_hgf/fitting/hierarchical_patrl.py" source_line=370}
  add.9514.3.clone.1 = f64[20]{0} add(select.8929.5.clone.1, select.8930.5.clone.1), metadata={op_name="jit(while)/jit(main)/while/body/jit(update)/while/body/cond/branch_0_fun/transpose(jvp(vmap(while)))/body/add_any" source_file="/fs04/fc37/adam/projects/psilocybin-prl-analyses/src/prl_hgf/fitting/hierarchical_patrl.py" source_line=370}
  param_32.310 = f64[20]{0} parameter(32)
  add.9516.1.clone.1 = f64[20]{0} add(param_32.310, multiply.11325.3.clone.1), metadata={op_name="jit(while)/jit(main)/while/body/jit(update)/cond/branch_0_fun/transpose(jvp(vmap(while)))/body/jit(beliefs_propagation)/add_any" source_file="/fs04/fc37/adam/projects/psilocybin-prl-analyses/src/prl_hgf/fitting/hierarchical_patrl.py" source_line=362}
  add.9517.1.clone.1 = f64[20]{0} add(add.9514.3.clone.1, add.9516.1.clone.1), metadata={op_name="jit(while)/jit(main)/while/body/jit(update)/while/body/cond/branch_0_fun/transpose(jvp(vmap(while)))/body/add_any" source_file="/fs04/fc37/adam/projects/psilocybin-prl-analyses/src/prl_hgf/fitting/hierarchical_patrl.py" source_line=362}
  param_37.324 = f64[20]{0} parameter(37)
  select.8920.3.clone.1 = f64[20]{0} select(bitcast.15457.29, broadcast.4924.clone.59, param_37.324), metadata={op_name="jit(while)/jit(main)/while/body/jit(update)/cond/branch_0_fun/transpose(jvp(vmap(while)))/body/jit(_where)/select_n" source_file="/fs04/fc37/adam/projects/psilocybin-prl-analyses/src/prl_hgf/env/pat_rl_simulator.py" source_line=92}
  param_34.291 = f64[20]{0} parameter(34)
  param_36.358 = f64[192,20]{1,0} parameter(36)
  dynamic-slice.5301.1.clone.1 = f64[1,20]{1,0} dynamic-slice(param_36.358, select.8898.35, constant_5060_9), dynamic_slice_sizes={1,20}, metadata={op_name="jit(while)/jit(main)/while/body/jit(update)/while/body/cond/branch_0_fun/transpose(jvp(vmap(while)))/body/dynamic_slice[slice_sizes=(1, 20)]" source_file="/fs04/fc37/adam/projects/psilocybin-prl-analyses/src/prl_hgf/fitting/hierarchical_patrl.py" source_line=378}
  bitcast.16151.14.clone.1 = f64[20]{0} bitcast(dynamic-slice.5301.1.clone.1)
  multiply.11322.5.clone.1 = f64[20]{0} multiply(negate.1721.4.clone.1, bitcast.16151.14.clone.1), metadata={op_name="jit(while)/jit(main)/while/body/jit(update)/cond/branch_0_fun/transpose(jvp(vmap(while)))/body/jit(beliefs_propagation)/jit(continuous_node_prediction)/jit(predict_precision)/mul" source_file="/fs04/fc37/adam/projects/psilocybin-prl-analyses/src/prl_hgf/fitting/hierarchical_patrl.py" source_line=362}
  negate.1722.3.clone.1 = f64[20]{0} negate(multiply.11322.5.clone.1), metadata={op_name="jit(while)/jit(main)/while/body/jit(update)/cond/branch_0_fun/transpose(jvp(vmap(while)))/body/jit(beliefs_propagation)/jit(continuous_node_prediction)/jit(predict_precision)/neg" source_file="/fs04/fc37/adam/projects/psilocybin-prl-analyses/src/prl_hgf/fitting/hierarchical_patrl.py" source_line=362}
  param_35.331 = f64[20]{0} parameter(35)
  select.8924.13.clone.1 = f64[20]{0} select(bitcast.15457.29, param_35.331, broadcast.4924.clone.59), metadata={op_name="jit(while)/jit(main)/while/body/jit(update)/cond/branch_0_fun/transpose(jvp(vmap(while)))/body/jit(_where)/select_n" source_file="/fs04/fc37/adam/projects/psilocybin-prl-analyses/src/prl_hgf/fitting/hierarchical_patrl.py" source_line=370}
  add.9508.11.clone.1 = f64[20]{0} add(select.8924.13.clone.1, param_3.5805), metadata={op_name="jit(while)/jit(main)/while/body/jit(update)/cond/branch_0_fun/transpose(jvp(vmap(while)))/body/jit(beliefs_propagation)/add_any" source_file="/fs04/fc37/adam/projects/psilocybin-prl-analyses/src/prl_hgf/fitting/hierarchical_patrl.py" source_line=362}
  multiply.11323.9.clone.1 = f64[20]{0} multiply(add.9508.11.clone.1, bitcast.16151.14.clone.1), metadata={op_name="jit(while)/jit(main)/while/body/jit(update)/cond/branch_0_fun/transpose(jvp(vmap(while)))/body/jit(beliefs_propagation)/jit(continuous_node_prediction)/mul" source_file="/fs04/fc37/adam/projects/psilocybin-prl-analyses/src/prl_hgf/fitting/hierarchical_patrl.py" source_line=362}
  negate.1723.7.clone.1 = f64[20]{0} negate(multiply.11323.9.clone.1), metadata={op_name="jit(while)/jit(main)/while/body/jit(update)/cond/branch_0_fun/transpose(jvp(vmap(while)))/body/jit(beliefs_propagation)/jit(continuous_node_prediction)/neg" source_file="/fs04/fc37/adam/projects/psilocybin-prl-analyses/src/prl_hgf/fitting/hierarchical_patrl.py" source_line=362}
  add.9509.5.clone.1 = f64[20]{0} add(negate.1722.3.clone.1, negate.1723.7.clone.1), metadata={op_name="jit(while)/jit(main)/while/body/jit(update)/cond/branch_0_fun/transpose(jvp(vmap(while)))/body/jit(beliefs_propagation)/jit(continuous_node_prediction)/add_any" source_file="/fs04/fc37/adam/projects/psilocybin-prl-analyses/src/prl_hgf/fitting/hierarchical_patrl.py" source_line=362}
  add.9510.3.clone.1 = f64[20]{0} add(param_34.291, add.9509.5.clone.1), metadata={op_name="jit(while)/jit(main)/while/body/jit(update)/cond/branch_0_fun/transpose(jvp(vmap(while)))/body/jit(beliefs_propagation)/add_any" source_file="/fs04/fc37/adam/projects/psilocybin-prl-analyses/src/prl_hgf/fitting/hierarchical_patrl.py" source_line=362}
  add.9511.1.clone.1 = f64[20]{0} add(select.8920.3.clone.1, add.9510.3.clone.1), metadata={op_name="jit(while)/jit(main)/while/body/jit(update)/while/body/cond/branch_0_fun/transpose(jvp(vmap(while)))/body/add_any" source_file="/fs04/fc37/adam/projects/psilocybin-prl-analyses/src/prl_hgf/fitting/hierarchical_patrl.py" source_line=362}
  select.8926.1.clone.1 = f64[20]{0} select(bitcast.15457.29, broadcast.4924.clone.59, param_13.906), metadata={op_name="jit(while)/jit(main)/while/body/jit(update)/cond/branch_0_fun/transpose(jvp(vmap(while)))/body/jit(_where)/select_n" source_file="/fs04/fc37/adam/projects/psilocybin-prl-analyses/src/prl_hgf/env/pat_rl_simulator.py" source_line=92}
  param_43.58 = pred[192,20,1]{2,1,0} parameter(43)
  dynamic-slice.5315.1.clone.1 = pred[1,20,1]{2,1,0} dynamic-slice(param_43.58, select.8898.35, constant_5060_9, constant_5060_9), dynamic_slice_sizes={1,20,1}, metadata={op_name="jit(while)/jit(main)/while/body/jit(update)/while/body/cond/branch_0_fun/transpose(jvp(vmap(while)))/body/dynamic_slice[slice_sizes=(1, 20, 1)]" source_file="/fs04/fc37/adam/projects/psilocybin-prl-analyses/src/prl_hgf/fitting/hierarchical_patrl.py" source_line=378}
  bitcast.16608.10.clone.1 = pred[20,1]{1,0} bitcast(dynamic-slice.5315.1.clone.1)
  param_42.72 = f64[20,1]{1,0} parameter(42)
  broadcast.4930.clone.3.clone.1 = f64[20,1]{1,0} broadcast(constant_5062_12), dimensions={}
  select.8949.5.clone.1 = f64[20,1]{1,0} select(bitcast.16608.10.clone.1, param_42.72, broadcast.4930.clone.3.clone.1), metadata={op_name="jit(while)/jit(main)/while/body/jit(update)/cond/branch_0_fun/transpose(jvp(vmap(while)))/body/jit(_where)/select_n" source_file="/fs04/fc37/adam/projects/psilocybin-prl-analyses/src/prl_hgf/fitting/hierarchical_patrl.py" source_line=370}
  select.8950.5.clone.1 = f64[20,1]{1,0} select(bitcast.16608.10.clone.1, broadcast.4930.clone.3.clone.1, param_42.72), metadata={op_name="jit(while)/jit(main)/while/body/jit(update)/cond/branch_0_fun/transpose(jvp(vmap(while)))/body/jit(_where)/select_n" source_file="/fs04/fc37/adam/projects/psilocybin-prl-analyses/src/prl_hgf/fitting/hierarchical_patrl.py" source_line=370}
  add.9538.3.clone.1 = f64[20,1]{1,0} add(select.8949.5.clone.1, select.8950.5.clone.1), metadata={op_name="jit(while)/jit(main)/while/body/jit(update)/while/body/cond/branch_0_fun/transpose(jvp(vmap(while)))/body/add_any" source_file="/fs04/fc37/adam/projects/psilocybin-prl-analyses/src/prl_hgf/fitting/hierarchical_patrl.py" source_line=370}
  param_41.89 = pred[192,20,1]{2,1,0} parameter(41)
  dynamic-slice.5316.1.clone.1 = pred[1,20,1]{2,1,0} dynamic-slice(param_41.89, select.8898.35, constant_5060_9, constant_5060_9), dynamic_slice_sizes={1,20,1}, metadata={op_name="jit(while)/jit(main)/while/body/jit(update)/while/body/cond/branch_0_fun/transpose(jvp(vmap(while)))/body/dynamic_slice[slice_sizes=(1, 20, 1)]" source_file="/fs04/fc37/adam/projects/psilocybin-prl-analyses/src/prl_hgf/fitting/hierarchical_patrl.py" source_line=378}
  bitcast.16633.7.clone.1 = pred[20,1]{1,0} bitcast(dynamic-slice.5316.1.clone.1)
  param_40.163 = f64[192,20]{1,0} parameter(40)
  dynamic-slice.5317.1.clone.1 = f64[1,20]{1,0} dynamic-slice(param_40.163, select.8898.35, constant_5060_9), dynamic_slice_sizes={1,20}, metadata={op_name="jit(while)/jit(main)/while/body/jit(update)/while/body/cond/branch_0_fun/transpose(jvp(vmap(while)))/body/dynamic_slice[slice_sizes=(1, 20)]" source_file="/fs04/fc37/adam/projects/psilocybin-prl-analyses/src/prl_hgf/fitting/hierarchical_patrl.py" source_line=378}
  bitcast.16644.42.clone.1 = f64[20]{0} bitcast(dynamic-slice.5317.1.clone.1)
  multiply.11341.13.clone.1 = f64[20]{0} multiply(multiply.11310.17.clone.1, bitcast.16644.42.clone.1), metadata={op_name="jit(while)/jit(main)/while/body/jit(update)/cond/branch_0_fun/transpose(jvp(vmap(while)))/body/jit(beliefs_propagation)/jit(continuous_node_posterior_update_ehgf)/jit(posterior_update_precision_continuous_node)/jit(precision_update)/mul" source_file="/fs04/fc37/adam/projects/psilocybin-prl-analyses/src/prl_hgf/fitting/hierarchical_patrl.py" source_line=362}
  multiply.11342.11.clone.1 = f64[20]{0} multiply(multiply.11341.13.clone.1, broadcast.4927.clone.21.clone.1), metadata={op_name="jit(while)/jit(main)/while/body/jit(update)/cond/branch_0_fun/transpose(jvp(vmap(while)))/body/jit(beliefs_propagation)/jit(continuous_node_posterior_update_ehgf)/jit(posterior_update_precision_continuous_node)/jit(precision_update)/mul" source_file="/fs04/fc37/adam/projects/psilocybin-prl-analyses/src/prl_hgf/fitting/hierarchical_patrl.py" source_line=362}
  param_39.278 = f64[192,20]{1,0} parameter(39)
  dynamic-slice.5318.1.clone.1 = f64[1,20]{1,0} dynamic-slice(param_39.278, select.8898.35, constant_5060_9), dynamic_slice_sizes={1,20}, metadata={op_name="jit(while)/jit(main)/while/body/jit(update)/while/body/cond/branch_0_fun/transpose(jvp(vmap(while)))/body/dynamic_slice[slice_sizes=(1, 20)]" source_file="/fs04/fc37/adam/projects/psilocybin-prl-analyses/src/prl_hgf/fitting/hierarchical_patrl.py" source_line=378}
  bitcast.16657.9.clone.1 = f64[20]{0} bitcast(dynamic-slice.5318.1.clone.1)
  multiply.11343.9.clone.1 = f64[20]{0} multiply(multiply.11342.11.clone.1, bitcast.16657.9.clone.1), metadata={op_name="jit(while)/jit(main)/while/body/jit(update)/cond/branch_0_fun/transpose(jvp(vmap(while)))/body/jit(beliefs_propagation)/jit(continuous_node_posterior_update_ehgf)/jit(posterior_update_precision_continuous_node)/jit(precision_update)/mul" source_file="/fs04/fc37/adam/projects/psilocybin-prl-analyses/src/prl_hgf/fitting/hierarchical_patrl.py" source_line=362}
  multiply.11344.11.clone.1 = f64[20]{0} multiply(multiply.11313.17.clone.1, bitcast.16644.42.clone.1), metadata={op_name="jit(while)/jit(main)/while/body/jit(update)/cond/branch_0_fun/transpose(jvp(vmap(while)))/body/jit(beliefs_propagation)/jit(continuous_node_posterior_update_ehgf)/jit(posterior_update_precision_continuous_node)/jit(precision_update)/mul" source_file="/fs04/fc37/adam/projects/psilocybin-prl-analyses/src/prl_hgf/fitting/hierarchical_patrl.py" source_line=362}
  add.9539.9.clone.1 = f64[20]{0} add(multiply.11343.9.clone.1, multiply.11344.11.clone.1), metadata={op_name="jit(while)/jit(main)/while/body/jit(update)/cond/branch_0_fun/transpose(jvp(vmap(while)))/body/jit(beliefs_propagation)/jit(continuous_node_posterior_update_ehgf)/jit(posterior_update_precision_continuous_node)/jit(precision_update)/add_any" source_file="/fs04/fc37/adam/projects/psilocybin-prl-analyses/src/prl_hgf/fitting/hierarchical_patrl.py" source_line=362}
  multiply.11345.11.clone.1 = f64[20]{0} multiply(multiply.11316.17.clone.1, bitcast.16644.42.clone.1), metadata={op_name="jit(while)/jit(main)/while/body/jit(update)/cond/branch_0_fun/transpose(jvp(vmap(while)))/body/jit(beliefs_propagation)/jit(continuous_node_posterior_update_ehgf)/jit(posterior_update_precision_continuous_node)/jit(precision_update)/mul" source_file="/fs04/fc37/adam/projects/psilocybin-prl-analyses/src/prl_hgf/fitting/hierarchical_patrl.py" source_line=362}
  add.9540.9.clone.1 = f64[20]{0} add(add.9539.9.clone.1, multiply.11345.11.clone.1), metadata={op_name="jit(while)/jit(main)/while/body/jit(update)/cond/branch_0_fun/transpose(jvp(vmap(while)))/body/jit(beliefs_propagation)/jit(continuous_node_posterior_update_ehgf)/jit(posterior_update_precision_continuous_node)/jit(precision_update)/add_any" source_file="/fs04/fc37/adam/projects/psilocybin-prl-analyses/src/prl_hgf/fitting/hierarchical_patrl.py" source_line=362}
  bitcast.16676.7.clone.1 = f64[20,1]{1,0} bitcast(add.9540.9.clone.1)
  select.8951.7.clone.1 = f64[20,1]{1,0} select(bitcast.16633.7.clone.1, bitcast.16676.7.clone.1, broadcast.4930.clone.3.clone.1), metadata={op_name="jit(while)/jit(main)/while/body/jit(update)/cond/branch_0_fun/transpose(jvp(vmap(while)))/body/jit(beliefs_propagation)/jit(continuous_node_posterior_update_ehgf)/jit(posterior_update_precision_continuous_node)/select_n" source_file="/fs04/fc37/adam/projects/psilocybin-prl-analyses/src/prl_hgf/fitting/hierarchical_patrl.py" source_line=362}
  multiply.11346.7.clone.1 = f64[20]{0} multiply(multiply.11318.17.clone.1, bitcast.16644.42.clone.1), metadata={op_name="jit(while)/jit(main)/while/body/jit(update)/cond/branch_0_fun/transpose(jvp(vmap(while)))/body/jit(beliefs_propagation)/jit(continuous_node_posterior_update_ehgf)/jit(posterior_update_mean_continuous_node)/mul" source_file="/fs04/fc37/adam/projects/psilocybin-prl-analyses/src/prl_hgf/fitting/hierarchical_patrl.py" source_line=362}
  bitcast.16688.5.clone.1 = f64[20,1]{1,0} bitcast(multiply.11346.7.clone.1)
  add.9541.5.clone.1 = f64[20,1]{1,0} add(select.8951.7.clone.1, bitcast.16688.5.clone.1), metadata={op_name="jit(while)/jit(main)/while/body/jit(update)/cond/branch_0_fun/transpose(jvp(vmap(while)))/body/jit(beliefs_propagation)/jit(continuous_node_posterior_update_ehgf)/add_any" source_file="/fs04/fc37/adam/projects/psilocybin-prl-analyses/src/prl_hgf/fitting/hierarchical_patrl.py" source_line=362}
  param_38.288 = f64[20,1]{1,0} parameter(38)
  add.9542.3.clone.1 = f64[20,1]{1,0} add(add.9541.5.clone.1, param_38.288), metadata={op_name="jit(while)/jit(main)/while/body/jit(update)/cond/branch_0_fun/transpose(jvp(vmap(while)))/body/jit(beliefs_propagation)/add_any" source_file="/fs04/fc37/adam/projects/psilocybin-prl-analyses/src/prl_hgf/fitting/hierarchical_patrl.py" source_line=362}
  add.9543.1.clone.1 = f64[20,1]{1,0} add(add.9538.3.clone.1, add.9542.3.clone.1), metadata={op_name="jit(while)/jit(main)/while/body/jit(update)/while/body/cond/branch_0_fun/transpose(jvp(vmap(while)))/body/add_any" source_file="/fs04/fc37/adam/projects/psilocybin-prl-analyses/src/prl_hgf/fitting/hierarchical_patrl.py" source_line=362}
  select.8925.1.clone.1 = f64[20]{0} select(bitcast.15457.29, broadcast.4924.clone.59, param_35.331), metadata={op_name="jit(while)/jit(main)/while/body/jit(update)/cond/branch_0_fun/transpose(jvp(vmap(while)))/body/jit(_where)/select_n" source_file="/fs04/fc37/adam/projects/psilocybin-prl-analyses/src/prl_hgf/fitting/hierarchical_patrl.py" source_line=370}
  param_60.21 = f64[20]{0} parameter(60)
  param_61.16 = f64[192,20]{1,0} parameter(61)
  dynamic-slice.5266.5.clone.1 = f64[1,20]{1,0} dynamic-slice(param_61.16, select.8898.35, constant_5060_9), dynamic_slice_sizes={1,20}, metadata={op_name="jit(while)/jit(main)/while/body/jit(update)/while/body/cond/branch_0_fun/transpose(jvp(vmap(while)))/body/dynamic_slice[slice_sizes=(1, 20)]" source_file="/fs04/fc37/adam/projects/psilocybin-prl-analyses/src/prl_hgf/fitting/hierarchical_patrl.py" source_line=378}
  bitcast.15524.5.clone.1 = f64[20]{0} bitcast(dynamic-slice.5266.5.clone.1)
  add.9471.5.clone.1 = f64[20]{0} add(param_60.21, bitcast.15524.5.clone.1), metadata={op_name="jit(while)/jit(main)/while/body/jit(update)/while/body/cond/branch_0_fun/transpose(jvp(vmap(while)))/body/add_any" source_file="/fs04/fc37/adam/projects/psilocybin-prl-analyses/src/prl_hgf/fitting/hierarchical_patrl.py" source_line=378}
  select.8905.3.clone.1 = f64[20]{0} select(bitcast.15457.29, broadcast.4924.clone.59, add.9471.5.clone.1), metadata={op_name="jit(while)/jit(main)/while/body/jit(update)/cond/branch_0_fun/transpose(jvp(vmap(while)))/body/jit(_where)/select_n" source_file="/fs04/fc37/adam/projects/psilocybin-prl-analyses/src/prl_hgf/env/pat_rl_simulator.py" source_line=92}
  param_59.17 = f64[20]{0} parameter(59)
  select.8915.13.clone.1 = f64[20]{0} select(bitcast.15457.29, param_59.17, broadcast.4924.clone.59), metadata={op_name="jit(while)/jit(main)/while/body/jit(update)/cond/branch_0_fun/transpose(jvp(vmap(while)))/body/jit(_where)/select_n" source_file="/fs04/fc37/adam/projects/psilocybin-prl-analyses/src/prl_hgf/env/pat_rl_simulator.py" source_line=92}
  param_58.15 = f64[20]{0} parameter(58)
  select.8914.5.clone.1 = f64[20]{0} select(bitcast.15457.29, param_58.15, broadcast.4924.clone.59), metadata={op_name="jit(while)/jit(main)/while/body/jit(update)/cond/branch_0_fun/transpose(jvp(vmap(while)))/body/jit(_where)/select_n" source_file="/fs04/fc37/adam/projects/psilocybin-prl-analyses/src/prl_hgf/env/pat_rl_simulator.py" source_line=92}
  multiply.11294.7.clone.1 = f64[20]{0} multiply(bitcast.15707.23.clone.1, add.9475.13.clone.1), metadata={op_name="jit(while)/jit(main)/while/body/jit(update)/cond/branch_0_fun/transpose(jvp(vmap(while)))/body/jit(beliefs_propagation)/jit(continuous_node_prediction_error)/jit(continuous_node_volatility_prediction_error)/mul" source_file="/fs04/fc37/adam/projects/psilocybin-prl-analyses/src/prl_hgf/fitting/hierarchical_p…
  get-tuple-element.61926 = f64[192,20]{1,0} get-tuple-element(call.21), index=10
  get-tuple-element.61927 = f64[192,20]{1,0} get-tuple-element(call.21), index=11
  get-tuple-element.61928 = f64[192,20]{1,0} get-tuple-element(call.21), index=12
  get-tuple-element.61929 = f64[192,20]{1,0} get-tuple-element(call.21), index=13
  get-tuple-element.61930 = f64[192,20]{1,0} get-tuple-element(call.21), index=14
  get-tuple-element.61931 = pred[192,20]{1,0} get-tuple-element(call.21), index=15
  get-tuple-element.61932 = f64[192,20]{1,0} get-tuple-element(call.21), index=16
  get-tuple-element.61933 = f64[192,20]{1,0} get-tuple-element(call.21), index=17
  get-tuple-element.61934 = f64[192,20]{1,0} get-tuple-element(call.21), index=18
  get-tuple-element.61935 = f64[192,20]{1,0} get-tuple-element(call.21), index=19
  get-tuple-element.61936 = f64[192,20]{1,0} get-tuple-element(call.21), index=20
  get-tuple-element.61937 = f64[192,20]{1,0} get-tuple-element(call.21), index=21
  get-tuple-element.61938 = f64[192]{0} get-tuple-element(call.21), index=22
  get-tuple-element.61939 = f64[192,20]{1,0} get-tuple-element(call.21), index=23
  get-tuple-element.61940 = f64[192,20]{1,0} get-tuple-element(call.21), index=24
  get-tuple-element.61941 = s32[192]{0} get-tuple-element(call.21), index=25
  get-tuple-element.61942 = f64[192,20]{1,0} get-tuple-element(call.21), index=26
  get-tuple-element.61943 = f64[192,20]{1,0} get-tuple-element(call.21), index=27
  get-tuple-element.61944 = pred[192,20]{1,0} get-tuple-element(call.21), index=28
  get-tuple-element.61945 = f64[192,20]{1,0} get-tuple-element(call.21), index=29
  get-tuple-element.61946 = f64[192,20]{1,0} get-tuple-element(call.21), index=30
  get-tuple-element.61947 = f64[192,20]{1,0} get-tuple-element(call.21), index=31
  get-tuple-element.61948 = f64[192,20]{1,0} get-tuple-element(call.21), index=32
  get-tuple-element.61949 = f64[192,20]{1,0} get-tuple-element(call.21), index=33
  get-tuple-element.61950 = f64[192,20]{1,0} get-tuple-element(call.21), index=34
  get-tuple-element.61951 = f64[192,20]{1,0} get-tuple-element(call.21), index=35
  get-tuple-element.61952 = f64[192,20]{1,0} get-tuple-element(call.21), index=36
  get-tuple-element.61953 = f64[192,20]{1,0} get-tuple-element(call.21), index=37
  get-tuple-element.61954 = f64[192,20]{1,0} get-tuple-element(call.21), index=38
  get-tuple-element.61955 = f64[192,20]{1,0} get-tuple-element(call.21), index=39
  get-tuple-element.61956 = f64[192,20]{1,0} get-tuple-element(call.21), index=40
  get-tuple-element.61957 = f64[192,20]{1,0} get-tuple-element(call.21), index=41
  get-tuple-element.61958 = f64[192,20]{1,0} get-tuple-element(call.21), index=42
  get-tuple-element.61959 = f64[192,20]{1,0} get-tuple-element(call.21), index=43
  get-tuple-element.61960 = s32[192,20]{1,0} get-tuple-element(call.21), index=44
  get-tuple-element.61961 = pred[192,20]{1,0} get-tuple-element(call.21), index=45
  get-tuple-element.61962 = f64[192,20]{1,0} get-tuple-element(call.21), index=46
  get-tuple-element.61963 = f64[192,20]{1,0} get-tuple-element(call.21), index=47
  get-tuple-element.61964 = pred[192,20]{1,0} get-tuple-element(call.21), index=48
  get-tuple-element.61965 = pred[192,20,1]{2,1,0} get-tuple-element(call.21), index=49
  get-tuple-element.61966 = f64[192,20]{1,0} get-tuple-element(call.21), index=50
  get-tuple-element.61967 = f64[192,20]{1,0} get-tuple-element(call.21), index=51
  get-tuple-element.61968 = f64[192,20]{1,0} get-tuple-element(call.21), index=52
  get-tuple-element.61969 = f64[192,20]{1,0} get-tuple-element(call.21), index=53
  get-tuple-element.61970 = f64[192,20]{1,0} get-tuple-element(call.21), index=54
  get-tuple-element.61971 = pred[192,20]{1,0} get-tuple-element(call.21), index=55
  get-tuple-element.61972 = pred[192,20]{1,0} get-tuple-element(call.21), index=56
  get-tuple-element.61973 = pred[192,20,1]{2,1,0} get-tuple-element(call.21), index=57
  get-tuple-element.61974 = f64[20]{0} get-tuple-element(call.21), index=58
  get-tuple-element.61975 = f64[20]{0} get-tuple-element(call.21), index=59
  get-tuple-element.61976 = f64[20]{0} get-tuple-element(call.21), index=60
  get-tuple-element.61977 = f64[20]{0} get-tuple-element(call.21), index=61
  get-tuple-element.61978 = f64[20]{0} get-tuple-element(call.21), index=62
  get-tuple-element.61979 = f64[20]{0} get-tuple-element(call.21), index=63
  get-tuple-element.61980 = f64[20]{0} get-tuple-element(call.21), index=64
  get-tuple-element.61981 = f64[20]{0} get-tuple-element(call.21), index=65
  get-tuple-element.61982 = f64[20]{0} get-tuple-element(call.21), index=66
  get-tuple-element.61983 = f64[20]{0} get-tuple-element(call.21), index=67
  get-tuple-element.61984 = f64[20]{0} get-tuple-element(call.21), index=68
  get-tuple-element.61985 = f64[20]{0} get-tuple-element(call.21), index=69
  get-tuple-element.61986 = f64[20]{0} get-tuple-element(call.21), index=70
  get-tuple-element.61987 = f64[20]{0} get-tuple-element(call.21), index=71
  get-tuple-element.61988 = f64[20]{0} get-tuple-element(call.21), index=72
  get-tuple-element.61989 = f64[20]{0} get-tuple-element(call.21), index=73
  get-tuple-element.61990 = f64[20]{0} get-tuple-element(call.21), index=74
  get-tuple-element.61991 = f64[20]{0} get-tuple-element(call.21), index=75
  get-tuple-element.61992 = f64[20]{0} get-tuple-element(call.21), index=76
  get-tuple-element.61993 = s64[] get-tuple-element(call.21), index=77
  get-tuple-element.61994 = f64[20,1]{1,0} get-tuple-element(call.21), index=78
  tuple.2500 = (s64[], f64[20]{0}, f64[20]{0}, f64[20]{0}, f64[20]{0}, /*index=5*/f64[20]{0}, f64[20]{0}, f64[20]{0}, f64[20]{0}, f64[20]{0}, /*index=10*/f64[20]{0}, f64[20]{0}, f64[20]{0}, f64[20]{0}, f64[20]{0}, /*index=15*/f64[20]{0}, f64[20]{0}, f64[20]{0}, f64[20]{0}, f64[20]{0}, /*index=20*/f64[20]{0}, f64[20,1]{1,0}, f64[192,20]{1,0}, f64[192,20]{1,0}, f64[192,20]{1,0}, /*index=25*/f64[192,20]{1,0}, pred[192,20]{1,0}, f64[192,20]{1,0}, f64[192,20]{1,0}, f64[192,20]{1,0}, /*index=30*/f64[192,20]{1,0}, f64[192,20]{1,0}, f64[192,20]{1,0}, pred[192,20]{1,0}, f64[192,20]{1,0}, /*index=35*/f64[192,20]{1,0}, f64[192,20]{1,0}, f64[192,20]{1,0}, f64[192,20]{1,0}, f64[192,20]{1,0}, /*index=40*/f64[192]{0}, f64[192,20]{1,0}, f64[192,20]{1,0}, s32[192]{0}, f64[192,20]{1,0}, /*index=45*/f64[192,20]{1,0}, pred[192,20]{1,0}, f64[192,20]{1,0}, f64[192,20]{1,0}, f64[192,20]{1,0}, /*index=50*/f64[192,20]{1,0}, f64[192,20]{1,0}, f64[192,20]{1,0}, f64[192,20]{1,0}, f64[192,20]{1,0}, /*index=55*/f64[192,20]{1,0}, f64[192,20]{1,0}, f64[192,20]{1,0}, f64[192,20]{1,0}, f64[192,20]{1,0}, /*index=60*/f64[192,20]{1,0}, f64[192,20]{1,0}, s32[192,20]{1,0}, pred[192,20]{1,0}, f64[192,20]{1,0}, /*index=65*/f64[192,20]{1,0}, pred[192,20]{1,0}, pred[192,20,1]{2,1,0}, f64[192,20]{1,0}, f64[192,20]{1,0}, /*index=70*/f64[192,20]{1,0}, f64[192,20]{1,0}, f64[192,20]{1,0}, pred[192,20]{1,0}, pred[192,20]{1,0}, /*index=75*/pred[192,20,1]{2,1,0}) tuple(get-tuple-element.61993, get-tuple-element.61837, get-tuple-element.61974, get-tuple-element.61975, get-tuple-element.61976, /*index=5*/get-tuple-element.61977, get-tuple-element.61978, get-tuple-element.61979, get-tuple-element.61980, get-tuple-element.61981, /*index=10*/get-tuple-element.61982, get-tuple-element.61983, get-tuple-element.61984, get-tuple-element.61985, get-tuple-element.61986, /*index=15*/get-tuple-element.61987, get-tuple-element.61988, get-tuple-element.61989, get-tuple-element.61990, get-tuple-element.61991, /*index=20*/get-tuple-element.61992, get-tuple-element.61994, get-tuple-element.61920, get-tuple-element.61921, get-tuple-element.61922, /*index=25*/get-tuple-element.61923, get-tuple-element.61924, get-tuple-element.61925, get-tuple-element.61926, get-tuple-element.61927, /*index=30*/get-tuple-element.61928, get-tuple-element.61929, get-tuple-element.61930, get-tuple-element.61931, get-tuple-element.61932, /*index=35*/get-tuple-element.61933, get-tuple-element.61934, get-tuple-element.61935, get-tuple-element.61936, get-tuple-element.61937, /*index=40*/get-tuple-element.61938, get-tuple-element.61939, get-tuple-element.61940, get-tuple-element.61941, get-tuple-element.61942, /*index=45*/get-tuple-element.61943, get-tuple-element.61944, get-tuple-element.61945, get-tuple-element.61946, get-tuple-element.61947, /*index=50*/get-tuple-element.61948, get-tuple-element.61949, get-tuple-element.61950, get-tuple-element.61951, get-tuple-element.61952, /*index=55*/get-tuple-element.61953, get-tuple-element.61954, get-tuple-element.61955, get-tuple-element.61956, get-tuple-element.61957, /*index=60*/get-tuple-element.61958, get-tuple-element.61959, get-tuple-element.61960, get-tuple-element.61961, get-tuple-element.61962, /*index=65*/get-tuple-element.61963, get-tuple-element.61964, get-tuple-element.61965, get-tuple-element.61966, get-tuple-element.61967, /*index=70*/get-tuple-element.61968, get-tuple-element.61969, get-tuple-element.61970, get-tuple-element.61971, get-tuple-element.61972, /*index=75*/get-tuple-element.61973)
  while.178.0 = (s64[], f64[20]{0}, f64[20]{0}, f64[20]{0}, f64[20]{0}, /*index=5*/f64[20]{0}, f64[20]{0}, f64[20]{0}, f64[20]{0}, f64[20]{0}, /*index=10*/f64[20]{0}, f64[20]{0}, f64[20]{0}, f64[20]{0}, f64[20]{0}, /*index=15*/f64[20]{0}, f64[20]{0}, f64[20]{0}, f64[20]{0}, f64[20]{0}, /*index=20*/f64[20]{0}, f64[20,1]{1,0}, f64[192,20]{1,0}, f64[192,20]{1,0}, f64[192,20]{1,0}, /*index=25*/f64[192,20]{1,0}, pred[192,20]{1,0}, f64[192,20]{1,0}, f64[192,20]{1,0}, f64[192,20]{1,0}, /*index=30*/f64[192,20]{1,0}, f64[192,20]{1,0}, f64[192,20]{1,0}, pred[192,20]{1,0}, f64[192,20]{1,0}, /*index=35*/f64[192,20]{1,0}, f64[192,20]{1,0}, f64[192,20]{1,0}, f64[192,20]{1,0}, f64[192,20]{1,0}, /*index=40*/f64[192]{0}, f64[192,20]{1,0}, f64[192,20]{1,0}, s32[192]{0}, f64[192,20]{1,0}, /*index=45*/f64[192,20]{1,0}, pred[192,20]{1,0}, f64[192,20]{1,0}, f64[192,20]{1,0}, f64[192,20]{1,0}, /*index=50*/f64[192,20]{1,0}, f64[192,20]{1,0}, f64[192,20]{1,0}, f64[192,20]{1,0}, f64[192,20]{1,0}, /*index=55*/f64[192,20]{1,0}, f64[192,20]{1,0}, f64[192,20]{1,0}, f64[192,20]{1,0}, f64[192,20]{1,0}, /*index=60*/f64[192,20]{1,0}, f64[192,20]{1,0}, s32[192,20]{1,0}, pred[192,20]{1,0}, f64[192,20]{1,0}, /*index=65*/f64[192,20]{1,0}, pred[192,20]{1,0}, pred[192,20,1]{2,1,0}, f64[192,20]{1,0}, f64[192,20]{1,0}, /*index=70*/f64[192,20]{1,0}, f64[192,20]{1,0}, f64[192,20]{1,0}, pred[192,20]{1,0}, pred[192,20]{1,0}, /*index=75*/pred[192,20,1]{2,1,0}) while(tuple.2500), condition=region_62.12021.clone.clone.clone.clone.clone.clone.clone.clone.clone.clone.clone.clone.clone.clone.clone.clone.clone.clone.clone, body=region_39.6431.clone.clone.clone.clone.clone.clone.clone.clone.clone.clone.clone.clone.clone.clone.clone.clone.clone.clone, metadata={op_name="jit(while)/jit(main)/while/body/jit(update)/cond/branch_0_fun/while[cond_nconsts=0 body_nconsts=118]" source_file="/fs04/fc37/adam/projects/psilocybin-prl-analyses/src/prl_hgf/fitting/hierarchical_patrl.py" source_line=378}, backend_config={"known_trip_count":{"n":"192"}}
  get-tuple-element.11846.0 = f64[20,1]{1,0} get-tuple-element(while.178.0), index=21, metadata={op_name="jit(while)/jit(main)/while/body/jit(update)/cond/branch_0_fun/while[cond_nconsts=0 body_nconsts=118]" source_file="/fs04/fc37/adam/projects/psilocybin-prl-analyses/src/prl_hgf/fitting/hierarchical_patrl.py" source_line=378}
  call.22 = (f64[], f64[], f64[], pred[], f64[20]{0}, /*index=5*/f64[20]{0}, f64[20]{0}, f64[20]{0}, f64[20]{0}, f64[20]{0}, /*index=10*/f64[20]{0}, f64[20]{0}, f64[20]{0}, f64[20]{0}, f64[20]{0}, /*index=15*/f64[20]{0}, f64[], f64[], f64[], f64[], /*index=20*/f64[], f64[], f64[], f64[], f64[], /*index=25*/f64[], f64[], pred[], f64[], s32[], /*index=30*/s32[], s64[], pred[]) call(get-tuple-element.61785, get-tuple-element.61786, get-tuple-element.61781, get-tuple-element.11846.0, while.178.0, /*index=5*/get-tuple-element.61449, get-tuple-element.61783, get-tuple-element.61791, get-tuple-element.61793, get-tuple-element.61919, /*index=10*/get-tuple-element.61448, get-tuple-element.61916, get-tuple-element.61446, get-tuple-element.61917, get-tuple-element.61788, /*index=15*/get-tuple-element.61790, get-tuple-element.61747, get-tuple-element.61739, get-tuple-element.61737, get-tuple-element.61741, /*index=20*/get-tuple-element.61743, get-tuple-element.61745, get-tuple-element.61918, arg_tuple.22.0, get-tuple-element.61782, /*index=25*/get-tuple-element.61792, get-tuple-element.61789, constant_2497_0, constant_2458_0, constant_2480_0), to_apply=command_buffer.10
  get-tuple-element.62019 = f64[] get-tuple-element(call.22), index=0
  get-tuple-element.62020 = f64[] get-tuple-element(call.22), index=1
  get-tuple-element.62021 = f64[] get-tuple-element(call.22), index=2
  get-tuple-element.62022 = pred[] get-tuple-element(call.22), index=3
  get-tuple-element.62023 = f64[20]{0} get-tuple-element(call.22), index=4
  get-tuple-element.62024 = f64[20]{0} get-tuple-element(call.22), index=5
  get-tuple-element.62025 = f64[20]{0} get-tuple-element(call.22), index=6
  get-tuple-element.62026 = f64[20]{0} get-tuple-element(call.22), index=7
  get-tuple-element.62027 = f64[20]{0} get-tuple-element(call.22), index=8
  get-tuple-element.62028 = f64[20]{0} get-tuple-element(call.22), index=9
  get-tuple-element.62029 = f64[20]{0} get-tuple-element(call.22), index=10
  get-tuple-element.62030 = f64[20]{0} get-tuple-element(call.22), index=11
  get-tuple-element.62031 = f64[20]{0} get-tuple-element(call.22), index=12
  get-tuple-element.62032 = f64[20]{0} get-tuple-element(call.22), index=13
  get-tuple-element.62033 = f64[20]{0} get-tuple-element(call.22), index=14
  get-tuple-element.62034 = f64[20]{0} get-tuple-element(call.22), index=15
  get-tuple-element.62035 = f64[] get-tuple-element(call.22), index=16
  get-tuple-element.62036 = f64[] get-tuple-element(call.22), index=17
  get-tuple-element.62037 = f64[] get-tuple-element(call.22), index=18
  get-tuple-element.62038 = f64[] get-tuple-element(call.22), index=19
  get-tuple-element.62039 = f64[] get-tuple-element(call.22), index=20
  get-tuple-element.62040 = f64[] get-tuple-element(call.22), index=21
  get-tuple-element.62041 = f64[] get-tuple-element(call.22), index=22
  get-tuple-element.62042 = f64[] get-tuple-element(call.22), index=23
  get-tuple-element.62043 = f64[] get-tuple-element(call.22), index=24
  get-tuple-element.62044 = f64[] get-tuple-element(call.22), index=25
  get-tuple-element.62045 = f64[] get-tuple-element(call.22), index=26
  get-tuple-element.62046 = pred[] get-tuple-element(call.22), index=27
  get-tuple-element.62047 = f64[] get-tuple-element(call.22), index=28
  get-tuple-element.62048 = s32[] get-tuple-element(call.22), index=29
  get-tuple-element.62049 = s32[] get-tuple-element(call.22), index=30
  get-tuple-element.62050 = s64[] get-tuple-element(call.22), index=31
  get-tuple-element.62051 = pred[] get-tuple-element(call.22), index=32
  tuple.2505 = (s64[], f64[], s64[], f64[20]{0}, f64[20]{0}, /*index=5*/f64[20]{0}, f64[20]{0}, f64[20]{0}, f64[20]{0}, f64[], /*index=10*/f64[20]{0}, f64[20]{0}, f64[20]{0}, f64[20]{0}, f64[20]{0}, /*index=15*/f64[20]{0}, s32[], s32[], pred[], pred[], /*index=20*/pred[], f64[], f64[], f64[], f64[], /*index=25*/f64[], f64[], f64[], f64[], f64[], /*index=30*/f64[], f64[], f64[], f64[20]{0}, f64[20]{0}, /*index=35*/f64[20]{0}, f64[20]{0}, f64[20]{0}, f64[20]{0}, f64[], /*index=40*/f64[]) tuple(get-tuple-element.61749, get-tuple-element.61781, get-tuple-element.62050, get-tuple-element.62023, get-tuple-element.62025, /*index=5*/get-tuple-element.62027, get-tuple-element.62029, get-tuple-element.62031, get-tuple-element.62033, get-tuple-element.62045, /*index=10*/get-tuple-element.62024, get-tuple-element.62026, get-tuple-element.62028, get-tuple-element.62030, get-tuple-element.62032, /*index=15*/get-tuple-element.62034, get-tuple-element.62048, get-tuple-element.62049, get-tuple-element.62022, get-tuple-element.62051, /*index=20*/get-tuple-element.62046, get-tuple-element.62047, get-tuple-element.62035, get-tuple-element.62019, get-tuple-element.62040, /*index=25*/get-tuple-element.62037, get-tuple-element.62042, get-tuple-element.62036, get-tuple-element.62039, get-tuple-element.62044, /*index=30*/get-tuple-element.62041, get-tuple-element.62038, get-tuple-element.62043, get-tuple-element.61446, get-tuple-element.61785, /*index=35*/get-tuple-element.61448, get-tuple-element.61449, get-tuple-element.61791, get-tuple-element.61788, get-tuple-element.62021, /*index=40*/get-tuple-element.62020)
  while.38.0 = (s64[], f64[], s64[], f64[20]{0}, f64[20]{0}, /*index=5*/f64[20]{0}, f64[20]{0}, f64[20]{0}, f64[20]{0}, f64[], /*index=10*/f64[20]{0}, f64[20]{0}, f64[20]{0}, f64[20]{0}, f64[20]{0}, /*index=15*/f64[20]{0}, s32[], s32[], pred[], pred[], /*index=20*/pred[], f64[], f64[], f64[], f64[], /*index=25*/f64[], f64[], f64[], f64[], f64[], /*index=30*/f64[], f64[], f64[], f64[20]{0}, f64[20]{0}, /*index=35*/f64[20]{0}, f64[20]{0}, f64[20]{0}, f64[20]{0}, f64[], /*index=40*/f64[]) while(tuple.2505), condition=region_103.24495.clone, body=region_44.24385.clone, control-predecessors={call.18, call.20, call.21, call.22}, metadata={op_name="jit(while)/jit(main)/while/body/jit(update)/while[cond_nconsts=0 body_nconsts=8]" source_file="/fs04/fc37/adam/projects/psilocybin-prl-analyses/src/prl_hgf/fitting/fit_vb_laplace_patrl.py" source_line=332}
  get-tuple-element.61610 = f64[20]{0} get-tuple-element(while.38.0), index=4, metadata={op_name="jit(while)/jit(main)/while/body/jit(update)/while[cond_nconsts=0 body_nconsts=8]" source_file="/fs04/fc37/adam/projects/psilocybin-prl-analyses/src/prl_hgf/fitting/fit_vb_laplace_patrl.py" source_line=332}
  call.23 = (f64[10,20]{1,0}, f64[20]{0}, f64[10,20]{1,0}, f64[20]{0}, f64[10,20]{1,0}, /*index=5*/f64[20]{0}, f64[10,20]{1,0}, f64[20]{0}, f64[10,20]{1,0}, f64[20]{0}, /*index=10*/f64[10,20]{1,0}, f64[20]{0}, f64[10,20]{1,0}, f64[20]{0}, f64[10,20]{1,0}, /*index=15*/f64[20]{0}, f64[10,20]{1,0}, f64[20]{0}, f64[10,20]{1,0}, f64[20]{0}, /*index=20*/f64[10,20]{1,0}, f64[20]{0}, f64[10,20]{1,0}, f64[], f64[10]{0}, /*index=25*/f64[], f64[], s32[], s32[], s32[], /*index=30*/f64[], pred[], s64[]) call(constant_2598_0, get-tuple-element.61615, get-tuple-element.61607, get-tuple-element.61752, get-tuple-element.61610, /*index=5*/get-tuple-element.61786, while.38.0, get-tuple-element.61758, get-tuple-element.61739, get-tuple-element.61753, /*index=10*/get-tuple-element.61916, get-tuple-element.61759, get-tuple-element.61741, get-tuple-element.61754, get-tuple-element.61782, /*index=15*/get-tuple-element.61760, get-tuple-element.61743, get-tuple-element.61755, get-tuple-element.61792, get-tuple-element.61761, /*index=20*/get-tuple-element.61745, get-tuple-element.61756, get-tuple-element.61789, get-tuple-element.61762, get-tuple-element.61747, /*index=25*/get-tuple-element.61757, get-tuple-element.61737, get-tuple-element.61751, get-tuple-element.61917, get-tuple-element.61763, /*index=30*/arg_tuple.22.0), to_apply=command_buffer.12, control-predecessors={while.34.0, while.35.0, call.19, call.18}
  get-tuple-element.62089 = f64[10,20]{1,0} get-tuple-element(call.23), index=0
  get-tuple-element.62090 = f64[20]{0} get-tuple-element(call.23), index=1
  get-tuple-element.62091 = f64[10,20]{1,0} get-tuple-element(call.23), index=2
  get-tuple-element.62092 = f64[20]{0} get-tuple-element(call.23), index=3
  get-tuple-element.62093 = f64[10,20]{1,0} get-tuple-element(call.23), index=4
  get-tuple-element.62094 = f64[20]{0} get-tuple-element(call.23), index=5
  get-tuple-element.62095 = f64[10,20]{1,0} get-tuple-element(call.23), index=6
  get-tuple-element.62096 = f64[20]{0} get-tuple-element(call.23), index=7
  get-tuple-element.62097 = f64[10,20]{1,0} get-tuple-element(call.23), index=8
  get-tuple-element.62098 = f64[20]{0} get-tuple-element(call.23), index=9
  get-tuple-element.62099 = f64[10,20]{1,0} get-tuple-element(call.23), index=10
  get-tuple-element.62100 = f64[20]{0} get-tuple-element(call.23), index=11
  get-tuple-element.62101 = f64[10,20]{1,0} get-tuple-element(call.23), index=12
  get-tuple-element.62102 = f64[20]{0} get-tuple-element(call.23), index=13
  get-tuple-element.62103 = f64[10,20]{1,0} get-tuple-element(call.23), index=14
  get-tuple-element.62104 = f64[20]{0} get-tuple-element(call.23), index=15
  get-tuple-element.62105 = f64[10,20]{1,0} get-tuple-element(call.23), index=16
  get-tuple-element.62106 = f64[20]{0} get-tuple-element(call.23), index=17
  get-tuple-element.62107 = f64[10,20]{1,0} get-tuple-element(call.23), index=18
  get-tuple-element.62108 = f64[20]{0} get-tuple-element(call.23), index=19
  get-tuple-element.62109 = f64[10,20]{1,0} get-tuple-element(call.23), index=20
  get-tuple-element.62110 = f64[20]{0} get-tuple-element(call.23), index=21
  get-tuple-element.62111 = f64[10,20]{1,0} get-tuple-element(call.23), index=22
  get-tuple-element.62112 = f64[] get-tuple-element(call.23), index=23
  get-tuple-element.62113 = f64[10]{0} get-tuple-element(call.23), index=24
  get-tuple-element.62114 = f64[] get-tuple-element(call.23), index=25
  get-tuple-element.62115 = f64[] get-tuple-element(call.23), index=26
  get-tuple-element.62116 = s32[] get-tuple-element(call.23), index=27
  get-tuple-element.62117 = s32[] get-tuple-element(call.23), index=28
  get-tuple-element.62118 = s32[] get-tuple-element(call.23), index=29
  get-tuple-element.62119 = f64[] get-tuple-element(call.23), index=30
  get-tuple-element.62120 = pred[] get-tuple-element(call.23), index=31
  get-tuple-element.62121 = s64[] get-tuple-element(call.23), index=32
  get-tuple-element.61608 = s64[] get-tuple-element(arg_tuple.22.0), index=0
  ROOT tuple.2510 = (s64[], f64[20]{0}, f64[20]{0}, f64[20]{0}, f64[20]{0}, /*index=5*/f64[20]{0}, f64[20]{0}, s64[], f64[], f64[20]{0}, /*index=10*/f64[20]{0}, f64[20]{0}, f64[20]{0}, f64[20]{0}, f64[20]{0}, /*index=15*/f64[], f64[], f64[10,20]{1,0}, f64[10,20]{1,0}, f64[10,20]{1,0}, /*index=20*/f64[10,20]{1,0}, f64[10,20]{1,0}, f64[10,20]{1,0}, f64[10,20]{1,0}, f64[10,20]{1,0}, /*index=25*/f64[10,20]{1,0}, f64[10,20]{1,0}, f64[10,20]{1,0}, f64[10,20]{1,0}, f64[10]{0}, /*index=30*/f64[], pred[], s32[], s32[], s32[], /*index=35*/s64[]) tuple(get-tuple-element.61608, get-tuple-element.62110, get-tuple-element.61610, get-tuple-element.62092, get-tuple-element.62096, /*index=5*/get-tuple-element.62100, get-tuple-element.62104, get-tuple-element.61615, get-tuple-element.62115, get-tuple-element.62108, /*index=10*/get-tuple-element.62090, get-tuple-element.62094, get-tuple-element.62098, get-tuple-element.62102, get-tuple-element.62106, /*index=15*/get-tuple-element.62119, get-tuple-element.62114, get-tuple-element.62111, get-tuple-element.62089, get-tuple-element.62093, /*index=20*/get-tuple-element.62097, get-tuple-element.62101, get-tuple-element.62105, get-tuple-element.62109, get-tuple-element.62091, /*index=25*/get-tuple-element.62095, get-tuple-element.62099, get-tuple-element.62103, get-tuple-element.62107, get-tuple-element.62113, /*index=30*/get-tuple-element.62112, get-tuple-element.62120, get-tuple-element.62117, get-tuple-element.62118, get-tuple-element.62116, /*index=35*/get-tuple-element.62121)
} // region_0.26059.clone.clone

fused_and.1 {
  param_2.7103 = f64[] parameter(2)
  constant_2457_1 = f64[] constant(1e-05)
  compare.2763.1 = pred[] compare(param_2.7103, constant_2457_1), direction=GT, metadata={op_name="jit(while)/jit(main)/while/cond/gt" source_file="/fs04/fc37/adam/projects/psilocybin-prl-analyses/src/prl_hgf/fitting/fit_vb_laplace_patrl.py" source_line=332}
  param_0.6164 = s64[] parameter(0)
  param_1.8512 = s64[] parameter(1)
  add.10087.1 = s64[] add(param_0.6164, param_1.8512)
  constant_2456_1 = s64[] constant(198)
  compare.2764.1 = pred[] compare(add.10087.1, constant_2456_1), direction=LE, metadata={op_name="jit(while)/jit(main)/while/cond/le" source_file="/fs04/fc37/adam/projects/psilocybin-prl-analyses/src/prl_hgf/fitting/fit_vb_laplace_patrl.py" source_line=332}
  ROOT and.245.1 = pred[] and(compare.2763.1, compare.2764.1), metadata={op_name="jit(while)/jit(main)/while/cond/and" source_file="/fs04/fc37/adam/projects/psilocybin-prl-analyses/src/prl_hgf/fitting/fit_vb_laplace_patrl.py" source_line=332}
} // fused_and.1

region_123.26134.clone {
  arg_tuple.21.0 = (s64[], f64[20]{0}, f64[20]{0}, f64[20]{0}, f64[20]{0}, /*index=5*/f64[20]{0}, f64[20]{0}, s64[], f64[], f64[20]{0}, /*index=10*/f64[20]{0}, f64[20]{0}, f64[20]{0}, f64[20]{0}, f64[20]{0}, /*index=15*/f64[], f64[], f64[10,20]{1,0}, f64[10,20]{1,0}, f64[10,20]{1,0}, /*index=20*/f64[10,20]{1,0}, f64[10,20]{1,0}, f64[10,20]{1,0}, f64[10,20]{1,0}, f64[10,20]{1,0}, /*index=25*/f64[10,20]{1,0}, f64[10,20]{1,0}, f64[10,20]{1,0}, f64[10,20]{1,0}, f64[10]{0}, /*index=30*/f64[], pred[], s32[], s32[], s32[], /*index=35*/s64[]) parameter(0)
  get-tuple-element.11690.0 = f64[] get-tuple-element(arg_tuple.21.0), index=16
  get-tuple-element.11727.0 = s64[] get-tuple-element(arg_tuple.21.0), index=0
  get-tuple-element.11726.0 = s64[] get-tuple-element(arg_tuple.21.0), index=35
  ROOT loop_and_fusion.1 = pred[] fusion(get-tuple-element.11727.0, get-tuple-element.11726.0, get-tuple-element.11690.0), kind=kLoop, calls=fused_and.1, metadata={op_name="jit(while)/jit(main)/while/cond/and" source_file="/fs04/fc37/adam/projects/psilocybin-prl-analyses/src/prl_hgf/fitting/fit_vb_laplace_patrl.py" source_line=332}
}

fused_add.41 {
  param_0_0 = s64[] parameter(0)
  param_0_1 = s64[] parameter(1)
  add.10088.2 = s64[] add(param_0_0, param_0_1)
  param_1_0 = s64[] parameter(2)
  add.10089.2 = s64[] add(param_1_0, param_0_1)
  ROOT tuple.2426 = (s64[], s64[]) tuple(add.10088.2, add.10089.2)
} // fused_add.41

wrapped_copy_computation.2 {
  param_0.6220 = s64[] parameter(0)
  ROOT copy.1703 = s64[] copy(param_0.6220)
}

wrapped_copy_computation.1 {
  param_0.6219 = pred[] parameter(0)
  ROOT copy.1702 = pred[] copy(param_0.6219)
}

copy_horizontally_fused_computation {
  param_0_0.1 = s32[] parameter(0)
  copy.1642 = s32[] copy(param_0_0.1)
  param_1_0.1 = s32[] parameter(1)
  copy.1643 = s32[] copy(param_1_0.1)
  param_2_0 = s32[] parameter(2)
  copy.1644 = s32[] copy(param_2_0)
  ROOT tuple.2511 = (s32[], s32[], s32[]) tuple(copy.1642, copy.1643, copy.1644)
} // copy_horizontally_fused_computation

copy_horizontally_fused_computation.1 {
  param_0_0.2 = f64[] parameter(0)
  copy.1649 = f64[] copy(param_0_0.2)
  param_1_0.2 = f64[] parameter(1)
  copy.1650 = f64[] copy(param_1_0.2)
  param_2_0.1 = f64[] parameter(2)
  copy.1651 = f64[] copy(param_2_0.1)
  param_3_0 = f64[] parameter(3)
  copy.1652 = f64[] copy(param_3_0)
  ROOT tuple.2512 = (f64[], f64[], f64[], f64[]) tuple(copy.1649, copy.1650, copy.1651, copy.1652)
} // copy_horizontally_fused_computation.1

wrapped_copy_computation {
  param_0.6218 = f64[10]{0} parameter(0)
  ROOT copy.1701 = f64[10]{0} copy(param_0.6218)
}

copy_horizontally_fused_computation.2 {
  param_0_0.3 = f64[20]{0} parameter(0)
  copy.1665 = f64[20]{0} copy(param_0_0.3)
  param_1_0.3 = f64[20]{0} parameter(1)
  copy.1666 = f64[20]{0} copy(param_1_0.3)
  param_2_0.2 = f64[20]{0} parameter(2)
  copy.1667 = f64[20]{0} copy(param_2_0.2)
  param_3_0.1 = f64[20]{0} parameter(3)
  copy.1668 = f64[20]{0} copy(param_3_0.1)
  param_4_0 = f64[20]{0} parameter(4)
  copy.1669 = f64[20]{0} copy(param_4_0)
  param_5_0 = f64[20]{0} parameter(5)
  copy.1670 = f64[20]{0} copy(param_5_0)
  param_6_0 = f64[20]{0} parameter(6)
  copy.1671 = f64[20]{0} copy(param_6_0)
  param_7_0 = f64[20]{0} parameter(7)
  copy.1672 = f64[20]{0} copy(param_7_0)
  param_8_0 = f64[20]{0} parameter(8)
  copy.1673 = f64[20]{0} copy(param_8_0)
  param_9_0 = f64[20]{0} parameter(9)
  copy.1674 = f64[20]{0} copy(param_9_0)
  param_10_0 = f64[20]{0} parameter(10)
  copy.1675 = f64[20]{0} copy(param_10_0)
  param_11_0 = f64[20]{0} parameter(11)
  copy.1676 = f64[20]{0} copy(param_11_0)
  ROOT tuple.2513 = (f64[20]{0}, f64[20]{0}, f64[20]{0}, f64[20]{0}, f64[20]{0}, /*index=5*/f64[20]{0}, f64[20]{0}, f64[20]{0}, f64[20]{0}, f64[20]{0}, /*index=10*/f64[20]{0}, f64[20]{0}) tuple(copy.1665, copy.1666, copy.1667, copy.1668, copy.1669, /*index=5*/copy.1670, copy.1671, copy.1672, copy.1673, copy.1674, /*index=10*/copy.1675, copy.1676)
} // copy_horizontally_fused_computation.2

copy_horizontally_fused_computation.3 {
  param_0_0.4 = f64[10,20]{1,0} parameter(0)
  copy.1689 = f64[10,20]{1,0} copy(param_0_0.4)
  param_1_0.4 = f64[10,20]{1,0} parameter(1)
  copy.1690 = f64[10,20]{1,0} copy(param_1_0.4)
  param_2_0.3 = f64[10,20]{1,0} parameter(2)
  copy.1691 = f64[10,20]{1,0} copy(param_2_0.3)
  param_3_0.2 = f64[10,20]{1,0} parameter(3)
  copy.1692 = f64[10,20]{1,0} copy(param_3_0.2)
  param_4_0.1 = f64[10,20]{1,0} parameter(4)
  copy.1693 = f64[10,20]{1,0} copy(param_4_0.1)
  param_5_0.1 = f64[10,20]{1,0} parameter(5)
  copy.1694 = f64[10,20]{1,0} copy(param_5_0.1)
  param_6_0.1 = f64[10,20]{1,0} parameter(6)
  copy.1695 = f64[10,20]{1,0} copy(param_6_0.1)
  param_7_0.1 = f64[10,20]{1,0} parameter(7)
  copy.1696 = f64[10,20]{1,0} copy(param_7_0.1)
  param_8_0.1 = f64[10,20]{1,0} parameter(8)
  copy.1697 = f64[10,20]{1,0} copy(param_8_0.1)
  param_9_0.1 = f64[10,20]{1,0} parameter(9)
  copy.1698 = f64[10,20]{1,0} copy(param_9_0.1)
  param_10_0.1 = f64[10,20]{1,0} parameter(10)
  copy.1699 = f64[10,20]{1,0} copy(param_10_0.1)
  param_11_0.1 = f64[10,20]{1,0} parameter(11)
  copy.1700 = f64[10,20]{1,0} copy(param_11_0.1)
  ROOT tuple.2514 = (f64[10,20]{1,0}, f64[10,20]{1,0}, f64[10,20]{1,0}, f64[10,20]{1,0}, f64[10,20]{1,0}, /*index=5*/f64[10,20]{1,0}, f64[10,20]{1,0}, f64[10,20]{1,0}, f64[10,20]{1,0}, f64[10,20]{1,0}, /*index=10*/f64[10,20]{1,0}, f64[10,20]{1,0}) tuple(copy.1689, copy.1690, copy.1691, copy.1692, copy.1693, /*index=5*/copy.1694, copy.1695, copy.1696, copy.1697, copy.1698, /*index=10*/copy.1699, copy.1700)
} // copy_horizontally_fused_computation.3

command_buffer {
  p = s64[] parameter(0)
  p.1 = pred[] parameter(1)
  p.2 = s32[] parameter(2)
  p.3 = s32[] parameter(3)
  p.4 = s32[] parameter(4)
  p.5 = f64[] parameter(5)
  p.6 = f64[] parameter(6)
  p.7 = f64[] parameter(7)
  p.8 = f64[] parameter(8)
  p.9 = f64[10]{0} parameter(9)
  p.10 = f64[20]{0} parameter(10)
  p.11 = f64[20]{0} parameter(11)
  p.12 = f64[20]{0} parameter(12)
  p.13 = f64[20]{0} parameter(13)
  p.14 = f64[20]{0} parameter(14)
  p.15 = f64[20]{0} parameter(15)
  p.16 = f64[20]{0} parameter(16)
  p.17 = f64[20]{0} parameter(17)
  p.18 = f64[20]{0} parameter(18)
  p.19 = f64[20]{0} parameter(19)
  p.20 = f64[20]{0} parameter(20)
  p.21 = f64[20]{0} parameter(21)
  p.22 = f64[10,20]{1,0} parameter(22)
  p.23 = f64[10,20]{1,0} parameter(23)
  p.24 = f64[10,20]{1,0} parameter(24)
  p.25 = f64[10,20]{1,0} parameter(25)
  p.26 = f64[10,20]{1,0} parameter(26)
  p.27 = f64[10,20]{1,0} parameter(27)
  p.28 = f64[10,20]{1,0} parameter(28)
  p.29 = f64[10,20]{1,0} parameter(29)
  p.30 = f64[10,20]{1,0} parameter(30)
  p.31 = f64[10,20]{1,0} parameter(31)
  p.32 = f64[10,20]{1,0} parameter(32)
  p.33 = f64[10,20]{1,0} parameter(33)
  wrapped_copy.2 = s64[] fusion(p), kind=kLoop, calls=wrapped_copy_computation.2
  wrapped_copy.1 = pred[] fusion(p.1), kind=kLoop, calls=wrapped_copy_computation.1
  copy_fusion = (s32[], s32[], s32[]) fusion(p.2, p.3, p.4), kind=kLoop, calls=copy_horizontally_fused_computation
  get-tuple-element.61646 = s32[] get-tuple-element(copy_fusion), index=2
  bitcast.29774 = s32[] bitcast(get-tuple-element.61646)
  get-tuple-element.61645 = s32[] get-tuple-element(copy_fusion), index=1
  bitcast.29773 = s32[] bitcast(get-tuple-element.61645)
  get-tuple-element.61644 = s32[] get-tuple-element(copy_fusion), index=0
  bitcast.29772 = s32[] bitcast(get-tuple-element.61644)
  copy_fusion.1 = (f64[], f64[], f64[], f64[]) fusion(p.5, p.6, p.7, p.8), kind=kLoop, calls=copy_horizontally_fused_computation.1
  get-tuple-element.61650 = f64[] get-tuple-element(copy_fusion.1), index=3
  bitcast.29778 = f64[] bitcast(get-tuple-element.61650)
  get-tuple-element.61649 = f64[] get-tuple-element(copy_fusion.1), index=2
  bitcast.29777 = f64[] bitcast(get-tuple-element.61649)
  get-tuple-element.61648 = f64[] get-tuple-element(copy_fusion.1), index=1
  bitcast.29776 = f64[] bitcast(get-tuple-element.61648)
  get-tuple-element.61647 = f64[] get-tuple-element(copy_fusion.1), index=0
  bitcast.29775 = f64[] bitcast(get-tuple-element.61647)
  wrapped_copy = f64[10]{0} fusion(p.9), kind=kLoop, calls=wrapped_copy_computation
  copy_fusion.2 = (f64[20]{0}, f64[20]{0}, f64[20]{0}, f64[20]{0}, f64[20]{0}, /*index=5*/f64[20]{0}, f64[20]{0}, f64[20]{0}, f64[20]{0}, f64[20]{0}, /*index=10*/f64[20]{0}, f64[20]{0}) fusion(p.10, p.11, p.12, p.13, p.14, /*index=5*/p.15, p.16, p.17, p.18, p.19, /*index=10*/p.20, p.21), kind=kLoop, calls=copy_horizontally_fused_computation.2
  get-tuple-element.61662 = f64[20]{0} get-tuple-element(copy_fusion.2), index=11
  get-tuple-element.61661 = f64[20]{0} get-tuple-element(copy_fusion.2), index=10
  get-tuple-element.61660 = f64[20]{0} get-tuple-element(copy_fusion.2), index=9
  get-tuple-element.61659 = f64[20]{0} get-tuple-element(copy_fusion.2), index=8
  get-tuple-element.61658 = f64[20]{0} get-tuple-element(copy_fusion.2), index=7
  get-tuple-element.61657 = f64[20]{0} get-tuple-element(copy_fusion.2), index=6
  get-tuple-element.61656 = f64[20]{0} get-tuple-element(copy_fusion.2), index=5
  get-tuple-element.61655 = f64[20]{0} get-tuple-element(copy_fusion.2), index=4
  get-tuple-element.61654 = f64[20]{0} get-tuple-element(copy_fusion.2), index=3
  get-tuple-element.61653 = f64[20]{0} get-tuple-element(copy_fusion.2), index=2
  get-tuple-element.61652 = f64[20]{0} get-tuple-element(copy_fusion.2), index=1
  get-tuple-element.61651 = f64[20]{0} get-tuple-element(copy_fusion.2), index=0
  copy_fusion.3 = (f64[10,20]{1,0}, f64[10,20]{1,0}, f64[10,20]{1,0}, f64[10,20]{1,0}, f64[10,20]{1,0}, /*index=5*/f64[10,20]{1,0}, f64[10,20]{1,0}, f64[10,20]{1,0}, f64[10,20]{1,0}, f64[10,20]{1,0}, /*index=10*/f64[10,20]{1,0}, f64[10,20]{1,0}) fusion(p.22, p.23, p.24, p.25, p.26, /*index=5*/p.27, p.28, p.29, p.30, p.31, /*index=10*/p.32, p.33), kind=kLoop, calls=copy_horizontally_fused_computation.3
  ROOT tuple.2515 = (s64[], pred[], s32[], s32[], s32[], /*index=5*/f64[], f64[], f64[], f64[], f64[10]{0}, /*index=10*/f64[20]{0}, f64[20]{0}, f64[20]{0}, f64[20]{0}, f64[20]{0}, /*index=15*/f64[20]{0}, f64[20]{0}, f64[20]{0}, f64[20]{0}, f64[20]{0}, /*index=20*/f64[20]{0}, f64[20]{0}, (f64[10,20]{1,0}, f64[10,20]{1,0}, f64[10,20]{1,0}, f64[10,20]{1,0}, f64[10,20]{1,0}, /*index=5*/f64[10,20]{1,0}, f64[10,20]{1,0}, f64[10,20]{1,0}, f64[10,20]{1,0}, f64[10,20]{1,0}, /*index=10*/f64[10,20]{1,0}, f64[10,20]{1,0})) tuple(wrapped_copy.2, wrapped_copy.1, bitcast.29774, bitcast.29773, bitcast.29772, /*index=5*/bitcast.29778, bitcast.29777, bitcast.29776, bitcast.29775, wrapped_copy, /*index=10*/get-tuple-element.61662, get-tuple-element.61661, get-tuple-element.61660, get-tuple-element.61659, get-tuple-element.61658, /*index=15*/get-tuple-element.61657, get-tuple-element.61656, get-tuple-element.61655, get-tuple-element.61654, get-tuple-element.61653, /*index=20*/get-tuple-element.61652, get-tuple-element.61651, copy_fusion.3)
} // command_buffer

ENTRY main.26213 {
  constant_2738_0 = s64[] constant(0)
  Arg_34.35.0 = s32[] parameter(34), metadata={op_name="args[34]"}
  Arg_33.34.0 = s32[] parameter(33), metadata={op_name="args[33]"}
  Arg_32.33.0 = s32[] parameter(32), metadata={op_name="args[32]"}
  Arg_31.32.0 = pred[] parameter(31), metadata={op_name="args[31]"}
  Arg_30.31.0 = f64[] parameter(30), metadata={op_name="args[30]"}
  Arg_16.17.0 = f64[] parameter(16), metadata={op_name="args[16]"}
  Arg_15.16.0 = f64[] parameter(15), metadata={op_name="args[15]"}
  Arg_8.9.0 = f64[] parameter(8), metadata={op_name="args[8]"}
  Arg_7.8.0 = s64[] parameter(7), metadata={op_name="args[7]"}
  Arg_0.1.0 = s64[] parameter(0), metadata={op_name="args[0]"}
  Arg_29.30.0 = f64[10]{0} parameter(29), metadata={op_name="args[29]"}
  Arg_28.29.0 = f64[10,20]{1,0} parameter(28), metadata={op_name="args[28]"}
  Arg_27.28.0 = f64[10,20]{1,0} parameter(27), metadata={op_name="args[27]"}
  Arg_26.27.0 = f64[10,20]{1,0} parameter(26), metadata={op_name="args[26]"}
  Arg_25.26.0 = f64[10,20]{1,0} parameter(25), metadata={op_name="args[25]"}
  Arg_24.25.0 = f64[10,20]{1,0} parameter(24), metadata={op_name="args[24]"}
  Arg_23.24.0 = f64[10,20]{1,0} parameter(23), metadata={op_name="args[23]"}
  Arg_22.23.0 = f64[10,20]{1,0} parameter(22), metadata={op_name="args[22]"}
  Arg_21.22.0 = f64[10,20]{1,0} parameter(21), metadata={op_name="args[21]"}
  Arg_20.21.0 = f64[10,20]{1,0} parameter(20), metadata={op_name="args[20]"}
  Arg_19.20.0 = f64[10,20]{1,0} parameter(19), metadata={op_name="args[19]"}
  Arg_18.19.0 = f64[10,20]{1,0} parameter(18), metadata={op_name="args[18]"}
  Arg_17.18.0 = f64[10,20]{1,0} parameter(17), metadata={op_name="args[17]"}
  Arg_14.15.0 = f64[20]{0} parameter(14), metadata={op_name="args[14]"}
  Arg_13.14.0 = f64[20]{0} parameter(13), metadata={op_name="args[13]"}
  Arg_12.13.0 = f64[20]{0} parameter(12), metadata={op_name="args[12]"}
  Arg_11.12.0 = f64[20]{0} parameter(11), metadata={op_name="args[11]"}
  Arg_10.11.0 = f64[20]{0} parameter(10), metadata={op_name="args[10]"}
  Arg_9.10.0 = f64[20]{0} parameter(9), metadata={op_name="args[9]"}
  Arg_6.7.0 = f64[20]{0} parameter(6), metadata={op_name="args[6]"}
  Arg_5.6.0 = f64[20]{0} parameter(5), metadata={op_name="args[5]"}
  Arg_4.5.0 = f64[20]{0} parameter(4), metadata={op_name="args[4]"}
  Arg_3.4.0 = f64[20]{0} parameter(3), metadata={op_name="args[3]"}
  Arg_2.3.0 = f64[20]{0} parameter(2), metadata={op_name="args[2]"}
  Arg_1.2.0 = f64[20]{0} parameter(1), metadata={op_name="args[1]"}
  call.17 = (s64[], pred[], s32[], s32[], s32[], /*index=5*/f64[], f64[], f64[], f64[], f64[10]{0}, /*index=10*/f64[20]{0}, f64[20]{0}, f64[20]{0}, f64[20]{0}, f64[20]{0}, /*index=15*/f64[20]{0}, f64[20]{0}, f64[20]{0}, f64[20]{0}, f64[20]{0}, /*index=20*/f64[20]{0}, f64[20]{0}, (f64[10,20]{1,0}, f64[10,20]{1,0}, f64[10,20]{1,0}, f64[10,20]{1,0}, f64[10,20]{1,0}, /*index=5*/f64[10,20]{1,0}, f64[10,20]{1,0}, f64[10,20]{1,0}, f64[10,20]{1,0}, f64[10,20]{1,0}, /*index=10*/f64[10,20]{1,0}, f64[10,20]{1,0})) call(constant_2738_0, Arg_31.32.0, Arg_32.33.0, Arg_33.34.0, Arg_34.35.0, /*index=5*/Arg_8.9.0, Arg_15.16.0, Arg_16.17.0, Arg_30.31.0, Arg_29.30.0, /*index=10*/Arg_1.2.0, Arg_2.3.0, Arg_3.4.0, Arg_4.5.0, Arg_5.6.0, /*index=15*/Arg_6.7.0, Arg_9.10.0, Arg_10.11.0, Arg_11.12.0, Arg_12.13.0, /*index=20*/Arg_13.14.0, Arg_14.15.0, Arg_17.18.0, Arg_18.19.0, Arg_19.20.0, /*index=25*/Arg_20.21.0, Arg_21.22.0, Arg_22.23.0, Arg_23.24.0, Arg_24.25.0, /*index=30*/Arg_25.26.0, Arg_26.27.0, Arg_27.28.0, Arg_28.29.0), to_apply=command_buffer
  get-tuple-element.61694 = s64[] get-tuple-element(call.17), index=0
  get-tuple-element.61695 = pred[] get-tuple-element(call.17), index=1
  get-tuple-element.61696 = s32[] get-tuple-element(call.17), index=2
  get-tuple-element.61697 = s32[] get-tuple-element(call.17), index=3
  get-tuple-element.61698 = s32[] get-tuple-element(call.17), index=4
  get-tuple-element.61699 = f64[] get-tuple-element(call.17), index=5
  get-tuple-element.61700 = f64[] get-tuple-element(call.17), index=6
  get-tuple-element.61701 = f64[] get-tuple-element(call.17), index=7
  get-tuple-element.61702 = f64[] get-tuple-element(call.17), index=8
  get-tuple-element.61703 = f64[10]{0} get-tuple-element(call.17), index=9
  get-tuple-element.61704 = f64[20]{0} get-tuple-element(call.17), index=10
  get-tuple-element.61705 = f64[20]{0} get-tuple-element(call.17), index=11
  get-tuple-element.61706 = f64[20]{0} get-tuple-element(call.17), index=12
  get-tuple-element.61707 = f64[20]{0} get-tuple-element(call.17), index=13
  get-tuple-element.61708 = f64[20]{0} get-tuple-element(call.17), index=14
  get-tuple-element.61709 = f64[20]{0} get-tuple-element(call.17), index=15
  get-tuple-element.61710 = f64[20]{0} get-tuple-element(call.17), index=16
  get-tuple-element.61711 = f64[20]{0} get-tuple-element(call.17), index=17
  get-tuple-element.61712 = f64[20]{0} get-tuple-element(call.17), index=18
  get-tuple-element.61713 = f64[20]{0} get-tuple-element(call.17), index=19
  get-tuple-element.61714 = f64[20]{0} get-tuple-element(call.17), index=20
  get-tuple-element.61715 = f64[20]{0} get-tuple-element(call.17), index=21
  get-tuple-element.61716 = (f64[10,20]{1,0}, f64[10,20]{1,0}, f64[10,20]{1,0}, f64[10,20]{1,0}, f64[10,20]{1,0}, /*index=5*/f64[10,20]{1,0}, f64[10,20]{1,0}, f64[10,20]{1,0}, f64[10,20]{1,0}, f64[10,20]{1,0}, /*index=10*/f64[10,20]{1,0}, f64[10,20]{1,0}) get-tuple-element(call.17), index=22
  get-tuple-element.61674 = f64[10,20]{1,0} get-tuple-element(get-tuple-element.61716), index=11
  bitcast.29790 = f64[10,20]{1,0} bitcast(get-tuple-element.61674)
  get-tuple-element.61673 = f64[10,20]{1,0} get-tuple-element(get-tuple-element.61716), index=10
  bitcast.29789 = f64[10,20]{1,0} bitcast(get-tuple-element.61673)
  get-tuple-element.61672 = f64[10,20]{1,0} get-tuple-element(get-tuple-element.61716), index=9
  bitcast.29788 = f64[10,20]{1,0} bitcast(get-tuple-element.61672)
  get-tuple-element.61671 = f64[10,20]{1,0} get-tuple-element(get-tuple-element.61716), index=8
  bitcast.29787 = f64[10,20]{1,0} bitcast(get-tuple-element.61671)
  get-tuple-element.61670 = f64[10,20]{1,0} get-tuple-element(get-tuple-element.61716), index=7
  bitcast.29786 = f64[10,20]{1,0} bitcast(get-tuple-element.61670)
  get-tuple-element.61669 = f64[10,20]{1,0} get-tuple-element(get-tuple-element.61716), index=6
  bitcast.29785 = f64[10,20]{1,0} bitcast(get-tuple-element.61669)
  get-tuple-element.61668 = f64[10,20]{1,0} get-tuple-element(get-tuple-element.61716), index=5
  bitcast.29784 = f64[10,20]{1,0} bitcast(get-tuple-element.61668)
  get-tuple-element.61667 = f64[10,20]{1,0} get-tuple-element(get-tuple-element.61716), index=4
  bitcast.29783 = f64[10,20]{1,0} bitcast(get-tuple-element.61667)
  get-tuple-element.61666 = f64[10,20]{1,0} get-tuple-element(get-tuple-element.61716), index=3
  bitcast.29782 = f64[10,20]{1,0} bitcast(get-tuple-element.61666)
  get-tuple-element.61665 = f64[10,20]{1,0} get-tuple-element(get-tuple-element.61716), index=2
  bitcast.29781 = f64[10,20]{1,0} bitcast(get-tuple-element.61665)
  get-tuple-element.61664 = f64[10,20]{1,0} get-tuple-element(get-tuple-element.61716), index=1
  get-tuple-element.61663 = f64[10,20]{1,0} get-tuple-element(get-tuple-element.61716), index=0
  bitcast.29779 = f64[10,20]{1,0} bitcast(get-tuple-element.61663)
  bitcast.29780 = f64[10,20]{1,0} bitcast(get-tuple-element.61664)
  tuple.2508 = (s64[], f64[20]{0}, f64[20]{0}, f64[20]{0}, f64[20]{0}, /*index=5*/f64[20]{0}, f64[20]{0}, s64[], f64[], f64[20]{0}, /*index=10*/f64[20]{0}, f64[20]{0}, f64[20]{0}, f64[20]{0}, f64[20]{0}, /*index=15*/f64[], f64[], f64[10,20]{1,0}, f64[10,20]{1,0}, f64[10,20]{1,0}, /*index=20*/f64[10,20]{1,0}, f64[10,20]{1,0}, f64[10,20]{1,0}, f64[10,20]{1,0}, f64[10,20]{1,0}, /*index=25*/f64[10,20]{1,0}, f64[10,20]{1,0}, f64[10,20]{1,0}, f64[10,20]{1,0}, f64[10]{0}, /*index=30*/f64[], pred[], s32[], s32[], s32[], /*index=35*/s64[]) tuple(Arg_0.1.0, get-tuple-element.61715, get-tuple-element.61714, get-tuple-element.61713, get-tuple-element.61712, /*index=5*/get-tuple-element.61711, get-tuple-element.61710, Arg_7.8.0, get-tuple-element.61702, get-tuple-element.61709, /*index=10*/get-tuple-element.61708, get-tuple-element.61707, get-tuple-element.61706, get-tuple-element.61705, get-tuple-element.61704, /*index=15*/get-tuple-element.61701, get-tuple-element.61700, bitcast.29779, bitcast.29780, bitcast.29781, /*index=20*/bitcast.29782, bitcast.29783, bitcast.29784, bitcast.29785, bitcast.29786, /*index=25*/bitcast.29787, bitcast.29788, bitcast.29789, bitcast.29790, get-tuple-element.61703, /*index=30*/get-tuple-element.61699, get-tuple-element.61695, get-tuple-element.61698, get-tuple-element.61697, get-tuple-element.61696, /*index=35*/get-tuple-element.61694)
  while.39.0 = (s64[], f64[20]{0}, f64[20]{0}, f64[20]{0}, f64[20]{0}, /*index=5*/f64[20]{0}, f64[20]{0}, s64[], f64[], f64[20]{0}, /*index=10*/f64[20]{0}, f64[20]{0}, f64[20]{0}, f64[20]{0}, f64[20]{0}, /*index=15*/f64[], f64[], f64[10,20]{1,0}, f64[10,20]{1,0}, f64[10,20]{1,0}, /*index=20*/f64[10,20]{1,0}, f64[10,20]{1,0}, f64[10,20]{1,0}, f64[10,20]{1,0}, f64[10,20]{1,0}, /*index=25*/f64[10,20]{1,0}, f64[10,20]{1,0}, f64[10,20]{1,0}, f64[10,20]{1,0}, f64[10]{0}, /*index=30*/f64[], pred[], s32[], s32[], s32[], /*index=35*/s64[]) while(tuple.2508), condition=region_123.26134.clone, body=region_0.26059.clone.clone, metadata={op_name="jit(while)/jit(main)/while[cond_nconsts=0 body_nconsts=0]" source_file="/fs04/fc37/adam/projects/psilocybin-prl-analyses/src/prl_hgf/fitting/fit_vb_laplace_patrl.py" source_line=332}
  get-tuple-element.13292.0 = s32[] get-tuple-element(while.39.0), index=33
  get-tuple-element.13291.0 = s32[] get-tuple-element(while.39.0), index=32
  get-tuple-element.13290.0 = pred[] get-tuple-element(while.39.0), index=31
  get-tuple-element.13289.0 = f64[] get-tuple-element(while.39.0), index=30
  get-tuple-element.13275.0 = f64[] get-tuple-element(while.39.0), index=16
  get-tuple-element.13274.0 = f64[] get-tuple-element(while.39.0), index=15
  get-tuple-element.13267.0 = f64[] get-tuple-element(while.39.0), index=8
  get-tuple-element.13293.0 = s32[] get-tuple-element(while.39.0), index=34
  get-tuple-element.13265.0 = s64[] get-tuple-element(while.39.0), index=7
  get-tuple-element.13258.0 = s64[] get-tuple-element(while.39.0), index=35
  get-tuple-element.13257.0 = s64[] get-tuple-element(while.39.0), index=0
  get-tuple-element.13288.0 = f64[10]{0} get-tuple-element(while.39.0), index=29
  get-tuple-element.13287.0 = f64[10,20]{1,0} get-tuple-element(while.39.0), index=28
  get-tuple-element.13286.0 = f64[10,20]{1,0} get-tuple-element(while.39.0), index=27
  get-tuple-element.13285.0 = f64[10,20]{1,0} get-tuple-element(while.39.0), index=26
  get-tuple-element.13284.0 = f64[10,20]{1,0} get-tuple-element(while.39.0), index=25
  get-tuple-element.13283.0 = f64[10,20]{1,0} get-tuple-element(while.39.0), index=24
  get-tuple-element.13282.0 = f64[10,20]{1,0} get-tuple-element(while.39.0), index=23
  get-tuple-element.13281.0 = f64[10,20]{1,0} get-tuple-element(while.39.0), index=22
  get-tuple-element.13280.0 = f64[10,20]{1,0} get-tuple-element(while.39.0), index=21
  get-tuple-element.13279.0 = f64[10,20]{1,0} get-tuple-element(while.39.0), index=20
  get-tuple-element.13278.0 = f64[10,20]{1,0} get-tuple-element(while.39.0), index=19
  get-tuple-element.13277.0 = f64[10,20]{1,0} get-tuple-element(while.39.0), index=18
  get-tuple-element.13276.0 = f64[10,20]{1,0} get-tuple-element(while.39.0), index=17
  get-tuple-element.13273.0 = f64[20]{0} get-tuple-element(while.39.0), index=14
  get-tuple-element.13272.0 = f64[20]{0} get-tuple-element(while.39.0), index=13
  get-tuple-element.13271.0 = f64[20]{0} get-tuple-element(while.39.0), index=12
  get-tuple-element.13270.0 = f64[20]{0} get-tuple-element(while.39.0), index=11
  get-tuple-element.13269.0 = f64[20]{0} get-tuple-element(while.39.0), index=10
  get-tuple-element.13268.0 = f64[20]{0} get-tuple-element(while.39.0), index=9
  get-tuple-element.13264.0 = f64[20]{0} get-tuple-element(while.39.0), index=6
  get-tuple-element.13263.0 = f64[20]{0} get-tuple-element(while.39.0), index=5
  get-tuple-element.13262.0 = f64[20]{0} get-tuple-element(while.39.0), index=4
  get-tuple-element.13261.0 = f64[20]{0} get-tuple-element(while.39.0), index=3
  get-tuple-element.13260.0 = f64[20]{0} get-tuple-element(while.39.0), index=2
  get-tuple-element.13259.0 = f64[20]{0} get-tuple-element(while.39.0), index=1
  loop_add_fusion.41 = (s64[], s64[]) fusion(get-tuple-element.13257.0, get-tuple-element.13258.0, get-tuple-element.13265.0), kind=kLoop, calls=fused_add.41
  get-tuple-element.59418 = s64[] get-tuple-element(loop_add_fusion.41), index=1
  get-tuple-element.59417 = s64[] get-tuple-element(loop_add_fusion.41), index=0
  ROOT tuple.1543.0 = (s64[], f64[20]{0}, f64[20]{0}, f64[20]{0}, f64[20]{0}, /*index=5*/f64[20]{0}, f64[20]{0}, s64[], f64[], f64[20]{0}, /*index=10*/f64[20]{0}, f64[20]{0}, f64[20]{0}, f64[20]{0}, f64[20]{0}, /*index=15*/f64[], f64[], f64[10,20]{1,0}, f64[10,20]{1,0}, f64[10,20]{1,0}, /*index=20*/f64[10,20]{1,0}, f64[10,20]{1,0}, f64[10,20]{1,0}, f64[10,20]{1,0}, f64[10,20]{1,0}, /*index=25*/f64[10,20]{1,0}, f64[10,20]{1,0}, f64[10,20]{1,0}, f64[10,20]{1,0}, f64[10]{0}, /*index=30*/f64[], pred[], s32[], s32[], s32[]) tuple(get-tuple-element.59417, get-tuple-element.13259.0, get-tuple-element.13260.0, get-tuple-element.13261.0, get-tuple-element.13262.0, /*index=5*/get-tuple-element.13263.0, get-tuple-element.13264.0, get-tuple-element.59418, get-tuple-element.13267.0, get-tuple-element.13268.0, /*index=10*/get-tuple-element.13269.0, get-tuple-element.13270.0, get-tuple-element.13271.0, get-tuple-element.13272.0, get-tuple-element.13273.0, /*index=15*/get-tuple-element.13274.0, get-tuple-element.13275.0, get-tuple-element.13276.0, get-tuple-element.13277.0, get-tuple-element.13278.0, /*index=20*/get-tuple-element.13279.0, get-tuple-element.13280.0, get-tuple-element.13281.0, get-tuple-element.13282.0, get-tuple-element.13283.0, /*index=25*/get-tuple-element.13284.0, get-tuple-element.13285.0, get-tuple-element.13286.0, get-tuple-element.13287.0, get-tuple-element.13288.0, /*index=30*/get-tuple-element.13289.0, get-tuple-element.13290.0, get-tuple-element.13291.0, get-tuple-element.13292.0, get-tuple-element.13293.0), metadata={op_name="jit(while)/jit(main)/while[cond_nconsts=0 body_nconsts=0]" source_file="/fs04/fc37/adam/projects/psilocybin-prl-analyses/src/prl_hgf/fitting/fit_vb_laplace_patrl.py" source_line=332}
} // main.26213

