HloModule jit_scan, is_scheduled=true, entry_computation_layout={(f64[20]{0}, f64[20]{0}, f64[20]{0}, f64[20]{0}, f64[20]{0}, /*index=5*/f64[20]{0}, f64[1,20]{1,0}, f64[1,20]{1,0}, f64[20]{0}, f64[20]{0}, /*index=10*/f64[20]{0}, f64[20]{0}, f64[1,20]{1,0}, f64[20]{0}, f64[20]{0}, /*index=15*/f64[1,20]{1,0}, f64[1,20]{1,0}, f64[20]{0}, f64[20]{0}, f64[1,20]{1,0}, /*index=20*/f64[1,20,1]{2,1,0}, f64[120,1,20]{2,1,0}, f64[120,1,20]{2,1,0}, f64[120,1,20]{2,1,0}, f64[120,1,20]{2,1,0}, /*index=25*/f64[120,1,20]{2,1,0}, f64[120,1,20]{2,1,0}, f64[120,1,20,1]{3,2,1,0}, f64[192,1,20]{2,1,0}, f64[192,20]{1,0}, /*index=30*/f64[192,20]{1,0}, f64[192]{0}, f64[192,20]{1,0}, pred[192,20]{1,0}, f64[192,20]{1,0}, /*index=35*/f64[192,20]{1,0}, f64[192,20]{1,0}, f64[192,20]{1,0}, f64[192,20]{1,0}, f64[192,20]{1,0}, /*index=40*/f64[192,20]{1,0}, f64[192,20]{1,0}, pred[192,20]{1,0}, f64[192,20]{1,0}, f64[192,20]{1,0}, /*index=45*/f64[192,20]{1,0}, f64[192,20]{1,0}, f64[192,20]{1,0}, f64[192,20]{1,0}, f64[192,20]{1,0}, /*index=50*/f64[192]{0}, f64[192,20]{1,0}, f64[192,20]{1,0}, f64[192,20]{1,0}, s32[192]{0}, /*index=55*/f64[192,20]{1,0}, f64[192]{0}, f64[192,20]{1,0}, f64[192,20]{1,0}, f64[192,20]{1,0}, /*index=60*/pred[192,20]{1,0}, f64[192,20]{1,0}, f64[192,20]{1,0}, f64[192,20]{1,0}, f64[192,20]{1,0}, /*index=65*/f64[192,20]{1,0}, f64[192,20]{1,0}, f64[192]{0}, f64[192,20]{1,0}, f64[192,20]{1,0}, /*index=70*/f64[192,20]{1,0}, f64[192,20]{1,0}, f64[192,20]{1,0}, f64[192,20]{1,0}, f64[192,20]{1,0}, /*index=75*/f64[192,20]{1,0}, f64[192,20]{1,0}, f64[192,20]{1,0}, f64[192,20]{1,0}, s32[192,20]{1,0}, /*index=80*/pred[192,20]{1,0}, f64[192,20]{1,0}, f64[192,20]{1,0}, f64[192,20]{1,0}, f64[192,20]{1,0}, /*index=85*/pred[192,20]{1,0}, pred[192,20,1]{2,1,0}, f64[192,20]{1,0}, f64[192,20]{1,0}, f64[192,20]{1,0}, /*index=90*/f64[192,20]{1,0}, f64[192,20]{1,0}, f64[192,20]{1,0}, f64[192,20]{1,0}, f64[192,20]{1,0}, /*index=95*/f64[192,20]{1,0}, f64[192,20]{1,0}, pred[192,20]{1,0}, pred[192,20]{1,0}, pred[192,20,1]{2,1,0}, /*index=100*/f64[192,120,1,20]{3,2,1,0}, f64[192,120,20]{2,1,0}, f64[192,120,20]{2,1,0}, f64[192,120,20]{2,1,0}, f64[192,120,20]{2,1,0}, /*index=105*/f64[192,120,20]{2,1,0}, f64[192,120,20]{2,1,0}, f64[192,120,20]{2,1,0}, f64[192,120,20]{2,1,0}, f64[192,120,20]{2,1,0}, /*index=110*/f64[192,120,20]{2,1,0}, f64[192,120,20]{2,1,0}, f64[192,120,20]{2,1,0}, f64[192,120,20]{2,1,0}, f64[192,120,20]{2,1,0}, /*index=115*/f64[192,120,20]{2,1,0}, f64[192,120,20]{2,1,0}, f64[192,120,20]{2,1,0}, f64[192,120,20]{2,1,0}, f64[192,120,20]{2,1,0}, /*index=120*/f64[192,120,20]{2,1,0}, f64[192,120,20]{2,1,0}, f64[192,120,20]{2,1,0}, f64[192,120,20]{2,1,0}, f64[192,120,20]{2,1,0}, /*index=125*/f64[192,120,20]{2,1,0}, f64[192,120,20]{2,1,0}, f64[192,120,20]{2,1,0}, f64[192,120,20]{2,1,0}, f64[192,120,20]{2,1,0}, /*index=130*/f64[192,120,20]{2,1,0}, f64[192,120,20]{2,1,0}, f64[192,120,20]{2,1,0}, f64[192,120,20]{2,1,0}, f64[192,120,20]{2,1,0}, /*index=135*/f64[192,120,20]{2,1,0}, f64[192,120,20]{2,1,0}, f64[192,120,20]{2,1,0}, f64[192,120,20]{2,1,0}, f64[192,120,20]{2,1,0}, /*index=140*/f64[192,120,20]{2,1,0}, f64[192,120,20]{2,1,0}, f64[192,120,20]{2,1,0}, f64[192,120,20]{2,1,0}, f64[192,120,20]{2,1,0}, /*index=145*/f64[192,120,20]{2,1,0}, f64[192,120,20]{2,1,0}, f64[192,120,20]{2,1,0}, f64[192,120,20]{2,1,0})->(f64[20]{0}, f64[20]{0}, f64[20]{0}, f64[20]{0}, f64[20]{0}, /*index=5*/f64[20]{0}, f64[1,20]{1,0}, f64[1,20]{1,0}, f64[20]{0}, f64[20]{0}, /*index=10*/f64[20]{0}, f64[20]{0}, f64[1,20]{1,0}, f64[20]{0}, f64[20]{0}, /*index=15*/f64[1,20]{1,0}, f64[1,20]{1,0}, f64[20]{0}, f64[20]{0}, f64[1,20]{1,0}, /*index=20*/f64[1,20,1]{2,1,0}, f64[120,1,20]{2,1,0}, f64[120,1,20]{2,1,0}, f64[120,1,20]{2,1,0}, f64[120,1,20]{2,1,0}, /*index=25*/f64[120,1,20]{2,1,0}, f64[120,1,20]{2,1,0}, f64[120,1,20,1]{3,2,1,0})}, allow_spmd_sharding_propagation_to_parameters={true,true,true,true,true,true,true,true,true,true,true,true,true,true,true,true,true,true,true,true,true,true,true,true,true,true,true,true,true,true,true,true,true,true,true,true,true,true,true,true,true,true,true,true,true,true,true,true,true,true,true,true,true,true,true,true,true,true,true,true,true,true,true,true,true,true,true,true,true,true,true,true,true,true,true,true,true,true,true,true,true,true,true,true,true,true,true,true,true,true,true,true,true,true,true,true,true,true,true,true,true,true,true,true,true,true,true,true,true,true,true,true,true,true,true,true,true,true,true,true,true,true,true,true,true,true,true,true,true,true,true,true,true,true,true,true,true,true,true,true,true,true,true,true,true,true,true,true,true}, allow_spmd_sharding_propagation_to_output={true,true,true,true,true,true,true,true,true,true,true,true,true,true,true,true,true,true,true,true,true,true,true,true,true,true,true,true}, frontend_attributes={fingerprint_before_lhs="9dc4a865bdd858f57e617b37fe327ed8"}

fused_broadcast {
  constant_160_1 = f64[] constant(0)
  ROOT broadcast.1984.1 = f64[1,20]{1,0} broadcast(constant_160_1), dimensions={}
}

wrapped_copy_computation.14 {
  param_0.1699 = f64[1,20]{1,0} parameter(0)
  ROOT copy.219 = f64[1,20]{1,0} copy(param_0.1699)
}

fused_broadcast.2 {
  constant_160_3 = f64[] constant(0)
  ROOT broadcast.1986.1 = f64[20,1]{1,0} broadcast(constant_160_3), dimensions={}
}

fused_broadcast.1 {
  constant_160_2 = f64[] constant(0)
  ROOT broadcast.1983.1 = f64[20]{0} broadcast(constant_160_2), dimensions={}
}

fused_multiply_negate {
  param_0.1661 = f64[20]{0} parameter(0)
  bitcast.4116.1 = f64[1,20]{1,0} bitcast(param_0.1661)
  param_4.794 = f64[] parameter(4)
  broadcast.1985.5.clone.1 = f64[1,20]{1,0} broadcast(param_4.794), dimensions={}, metadata={op_name="jit(scan)/jit(main)/while/body/jit(beliefs_propagation)/jit(continuous_node_posterior_update)/jit(posterior_update_precision_continuous_node)/cond/branch_0_fun/jit(precision_update_missing_values)/mul" source_file="/fs04/fc37/adam/projects/psilocybin-prl-analyses/src/prl_hgf/fitting/hierarchical_patrl.py" source_line=362}
  param_2.1389 = f64[1,20]{1,0} parameter(2)
  param_3.1071 = f64[20]{0} parameter(3)
  bitcast.4093.5.clone.1 = f64[1,20]{1,0} bitcast(param_3.1071)
  multiply.1148.5.clone.1 = f64[1,20]{1,0} multiply(param_2.1389, bitcast.4093.5.clone.1), metadata={op_name="jit(scan)/jit(main)/while/body/jit(beliefs_propagation)/jit(continuous_node_posterior_update)/jit(posterior_update_precision_continuous_node)/cond/branch_0_fun/jit(precision_update_missing_values)/mul" source_file="/fs04/fc37/adam/projects/psilocybin-prl-analyses/src/prl_hgf/fitting/hierarchical_patrl.py" source_line=362}
  negate.187.3.clone.1 = f64[1,20]{1,0} negate(multiply.1148.5.clone.1), metadata={op_name="jit(scan)/jit(main)/while/body/jit(beliefs_propagation)/jit(continuous_node_posterior_update)/jit(posterior_update_precision_continuous_node)/cond/branch_0_fun/jit(precision_update_missing_values)/neg" source_file="/fs04/fc37/adam/projects/psilocybin-prl-analyses/src/prl_hgf/fitting/hierarchical_patrl.py" source_line=362}
  multiply.1150.5.clone.1 = f64[1,20]{1,0} multiply(broadcast.1985.5.clone.1, negate.187.3.clone.1), metadata={op_name="jit(scan)/jit(main)/while/body/jit(beliefs_propagation)/jit(continuous_node_posterior_update)/jit(posterior_update_precision_continuous_node)/cond/branch_0_fun/jit(precision_update_missing_values)/mul" source_file="/fs04/fc37/adam/projects/psilocybin-prl-analyses/src/prl_hgf/fitting/hierarchical_patrl.py" source_line=362}
  param_1.1749 = f64[20]{0} parameter(1)
  bitcast.4111.1.clone.1 = f64[1,20]{1,0} bitcast(param_1.1749)
  multiply.1151.1.clone.1 = f64[1,20]{1,0} multiply(multiply.1150.5.clone.1, bitcast.4111.1.clone.1), metadata={op_name="jit(scan)/jit(main)/while/body/jit(beliefs_propagation)/jit(continuous_node_posterior_update)/jit(posterior_update_precision_continuous_node)/cond/branch_0_fun/jit(precision_update_missing_values)/mul" source_file="/fs04/fc37/adam/projects/psilocybin-prl-analyses/src/prl_hgf/fitting/hierarchical_patrl.py" source_line=362}
  multiply.1152.1 = f64[1,20]{1,0} multiply(bitcast.4116.1, multiply.1151.1.clone.1), metadata={op_name="jit(scan)/jit(main)/while/body/jit(beliefs_propagation)/jit(continuous_node_posterior_update)/jit(posterior_update_precision_continuous_node)/cond/branch_0_fun/jit(precision_update_missing_values)/mul" source_file="/fs04/fc37/adam/projects/psilocybin-prl-analyses/src/prl_hgf/fitting/hierarchical_patrl.py" source_line=362}
  param_5.670 = f64[20]{0} parameter(5)
  bitcast.4099.3.clone.1 = f64[1,20]{1,0} bitcast(param_5.670)
  multiply.1149.3.clone.1 = f64[1,20]{1,0} multiply(negate.187.3.clone.1, bitcast.4099.3.clone.1), metadata={op_name="jit(scan)/jit(main)/while/body/jit(beliefs_propagation)/jit(continuous_node_posterior_update)/jit(posterior_update_precision_continuous_node)/cond/branch_0_fun/jit(precision_update_missing_values)/mul" source_file="/fs04/fc37/adam/projects/psilocybin-prl-analyses/src/prl_hgf/fitting/hierarchical_patrl.py" source_line=362}
  negate.188.1.clone.1 = f64[1,20]{1,0} negate(multiply.1149.3.clone.1), metadata={op_name="jit(scan)/jit(main)/while/body/jit(beliefs_propagation)/jit(continuous_node_posterior_update)/jit(posterior_update_precision_continuous_node)/cond/branch_0_fun/jit(precision_update_missing_values)/neg" source_file="/fs04/fc37/adam/projects/psilocybin-prl-analyses/src/prl_hgf/fitting/hierarchical_patrl.py" source_line=362}
  ROOT tuple.155 = (f64[1,20]{1,0}, f64[1,20]{1,0}, f64[1,20]{1,0}) tuple(multiply.1152.1, multiply.1151.1.clone.1, negate.188.1.clone.1)
} // fused_multiply_negate

fused_broadcast.3 {
  constant_160_4 = f64[] constant(0)
  ROOT broadcast.1987.1 = f64[120,1,20]{2,1,0} broadcast(constant_160_4), dimensions={}
}

wrapped_copy_computation.15 {
  param_0.1700 = f64[120,1,20]{2,1,0} parameter(0)
  ROOT copy.220 = f64[120,1,20]{2,1,0} copy(param_0.1700)
}

fused_add_multiply_negate {
  param_1.51 = f64[] parameter(1)
  broadcast.1992.1 = f64[1,120,20]{2,1,0} broadcast(param_1.51), dimensions={}, metadata={op_name="jit(scan)/jit(main)/while/body/jit(beliefs_propagation)/jit(continuous_node_posterior_update)/jit(posterior_update_precision_continuous_node)/cond/branch_0_fun/jit(precision_update_missing_values)/mul" source_file="/fs04/fc37/adam/projects/psilocybin-prl-analyses/src/prl_hgf/fitting/hierarchical_patrl.py" source_line=362}
  param_6.10 = f64[120,1,20]{2,0,1} parameter(6)
  bitcast.4129.5 = f64[1,120,20]{2,1,0} bitcast(param_6.10)
  param_5.12 = f64[20]{0} parameter(5)
  broadcast.1988.5 = f64[1,120,20]{2,1,0} broadcast(param_5.12), dimensions={2}, metadata={op_name="jit(scan)/jit(main)/while/body/jit(beliefs_propagation)/jit(continuous_node_posterior_update)/jit(posterior_update_precision_continuous_node)/cond/branch_0_fun/jit(precision_update_missing_values)/mul" source_file="/fs04/fc37/adam/projects/psilocybin-prl-analyses/src/prl_hgf/fitting/hierarchical_patrl.py" source_line=362}
  multiply.1153.5 = f64[1,120,20]{2,1,0} multiply(bitcast.4129.5, broadcast.1988.5), metadata={op_name="jit(scan)/jit(main)/while/body/jit(beliefs_propagation)/jit(continuous_node_posterior_update)/jit(posterior_update_precision_continuous_node)/cond/branch_0_fun/jit(precision_update_missing_values)/mul" source_file="/fs04/fc37/adam/projects/psilocybin-prl-analyses/src/prl_hgf/fitting/hierarchical_patrl.py" source_line=362}
  param_4.16 = f64[1,20]{1,0} parameter(4)
  bitcast.4137.5 = f64[20]{0} bitcast(param_4.16)
  broadcast.1989.5 = f64[120,20]{1,0} broadcast(bitcast.4137.5), dimensions={1}, metadata={op_name="jit(scan)/jit(main)/while/body/jit(beliefs_propagation)/jit(continuous_node_posterior_update)/jit(posterior_update_precision_continuous_node)/cond/branch_0_fun/jit(precision_update_missing_values)/mul" source_file="/fs04/fc37/adam/projects/psilocybin-prl-analyses/src/prl_hgf/fitting/hierarchical_patrl.py" source_line=362}
  param_3.25 = f64[120,20]{1,0} parameter(3)
  multiply.1154.5 = f64[120,20]{1,0} multiply(broadcast.1989.5, param_3.25), metadata={op_name="jit(scan)/jit(main)/while/body/jit(beliefs_propagation)/jit(continuous_node_posterior_update)/jit(posterior_update_precision_continuous_node)/cond/branch_0_fun/jit(precision_update_missing_values)/mul" source_file="/fs04/fc37/adam/projects/psilocybin-prl-analyses/src/prl_hgf/fitting/hierarchical_patrl.py" source_line=362}
  bitcast.4143.5 = f64[1,120,20]{2,1,0} bitcast(multiply.1154.5)
  add.676.5 = f64[1,120,20]{2,1,0} add(multiply.1153.5, bitcast.4143.5), metadata={op_name="jit(scan)/jit(main)/while/body/jit(beliefs_propagation)/jit(continuous_node_posterior_update)/jit(posterior_update_precision_continuous_node)/cond/branch_0_fun/jit(precision_update_missing_values)/add_any" source_file="/fs04/fc37/adam/projects/psilocybin-prl-analyses/src/prl_hgf/fitting/hierarchical_patrl.py" source_line=362}
  negate.189.3 = f64[1,120,20]{2,1,0} negate(add.676.5), metadata={op_name="jit(scan)/jit(main)/while/body/jit(beliefs_propagation)/jit(continuous_node_posterior_update)/jit(posterior_update_precision_continuous_node)/cond/branch_0_fun/jit(precision_update_missing_values)/neg" source_file="/fs04/fc37/adam/projects/psilocybin-prl-analyses/src/prl_hgf/fitting/hierarchical_patrl.py" source_line=362}
  multiply.1157.1 = f64[1,120,20]{2,1,0} multiply(broadcast.1992.1, negate.189.3), metadata={op_name="jit(scan)/jit(main)/while/body/jit(beliefs_propagation)/jit(continuous_node_posterior_update)/jit(posterior_update_precision_continuous_node)/cond/branch_0_fun/jit(precision_update_missing_values)/mul" source_file="/fs04/fc37/adam/projects/psilocybin-prl-analyses/src/prl_hgf/fitting/hierarchical_patrl.py" source_line=362}
  param_2.20 = f64[20]{0} parameter(2)
  broadcast.1993.1 = f64[1,120,20]{2,1,0} broadcast(param_2.20), dimensions={2}, metadata={op_name="jit(scan)/jit(main)/while/body/jit(beliefs_propagation)/jit(continuous_node_posterior_update)/jit(posterior_update_precision_continuous_node)/cond/branch_0_fun/jit(precision_update_missing_values)/mul" source_file="/fs04/fc37/adam/projects/psilocybin-prl-analyses/src/prl_hgf/fitting/hierarchical_patrl.py" source_line=362}
  multiply.1158.1 = f64[1,120,20]{2,1,0} multiply(multiply.1157.1, broadcast.1993.1), metadata={op_name="jit(scan)/jit(main)/while/body/jit(beliefs_propagation)/jit(continuous_node_posterior_update)/jit(posterior_update_precision_continuous_node)/cond/branch_0_fun/jit(precision_update_missing_values)/mul" source_file="/fs04/fc37/adam/projects/psilocybin-prl-analyses/src/prl_hgf/fitting/hierarchical_patrl.py" source_line=362}
  broadcast.1985.3 = f64[1,20]{1,0} broadcast(param_1.51), dimensions={}, metadata={op_name="jit(scan)/jit(main)/while/body/jit(beliefs_propagation)/jit(continuous_node_posterior_update)/jit(posterior_update_precision_continuous_node)/cond/branch_0_fun/jit(precision_update_missing_values)/mul" source_file="/fs04/fc37/adam/projects/psilocybin-prl-analyses/src/prl_hgf/fitting/hierarchical_patrl.py" source_line=362}
  bitcast.4093.11 = f64[1,20]{1,0} bitcast(param_5.12)
  multiply.1148.11 = f64[1,20]{1,0} multiply(param_4.16, bitcast.4093.11), metadata={op_name="jit(scan)/jit(main)/while/body/jit(beliefs_propagation)/jit(continuous_node_posterior_update)/jit(posterior_update_precision_continuous_node)/cond/branch_0_fun/jit(precision_update_missing_values)/mul" source_file="/fs04/fc37/adam/projects/psilocybin-prl-analyses/src/prl_hgf/fitting/hierarchical_patrl.py" source_line=362}
  negate.187.9 = f64[1,20]{1,0} negate(multiply.1148.11), metadata={op_name="jit(scan)/jit(main)/while/body/jit(beliefs_propagation)/jit(continuous_node_posterior_update)/jit(posterior_update_precision_continuous_node)/cond/branch_0_fun/jit(precision_update_missing_values)/neg" source_file="/fs04/fc37/adam/projects/psilocybin-prl-analyses/src/prl_hgf/fitting/hierarchical_patrl.py" source_line=362}
  multiply.1150.3 = f64[1,20]{1,0} multiply(broadcast.1985.3, negate.187.9), metadata={op_name="jit(scan)/jit(main)/while/body/jit(beliefs_propagation)/jit(continuous_node_posterior_update)/jit(posterior_update_precision_continuous_node)/cond/branch_0_fun/jit(precision_update_missing_values)/mul" source_file="/fs04/fc37/adam/projects/psilocybin-prl-analyses/src/prl_hgf/fitting/hierarchical_patrl.py" source_line=362}
  bitcast.4177.3 = f64[20]{0} bitcast(multiply.1150.3)
  broadcast.1994.3 = f64[120,20]{1,0} broadcast(bitcast.4177.3), dimensions={1}, metadata={op_name="jit(scan)/jit(main)/while/body/jit(beliefs_propagation)/jit(continuous_node_posterior_update)/jit(posterior_update_precision_continuous_node)/cond/branch_0_fun/jit(precision_update_missing_values)/mul" source_file="/fs04/fc37/adam/projects/psilocybin-prl-analyses/src/prl_hgf/fitting/hierarchical_patrl.py" source_line=362}
  param_0.35 = f64[120,20]{1,0} parameter(0)
  multiply.1159.1 = f64[120,20]{1,0} multiply(broadcast.1994.3, param_0.35), metadata={op_name="jit(scan)/jit(main)/while/body/jit(beliefs_propagation)/jit(continuous_node_posterior_update)/jit(posterior_update_precision_continuous_node)/cond/branch_0_fun/jit(precision_update_missing_values)/mul" source_file="/fs04/fc37/adam/projects/psilocybin-prl-analyses/src/prl_hgf/fitting/hierarchical_patrl.py" source_line=362}
  bitcast.4183.1 = f64[1,120,20]{2,1,0} bitcast(multiply.1159.1)
  add.678.1 = f64[1,120,20]{2,1,0} add(multiply.1158.1, bitcast.4183.1), metadata={op_name="jit(scan)/jit(main)/while/body/jit(beliefs_propagation)/jit(continuous_node_posterior_update)/jit(posterior_update_precision_continuous_node)/cond/branch_0_fun/jit(precision_update_missing_values)/add_any" source_file="/fs04/fc37/adam/projects/psilocybin-prl-analyses/src/prl_hgf/fitting/hierarchical_patrl.py" source_line=362}
  param_7.541 = f64[20]{0} parameter(7)
  broadcast.1995.1.clone.1 = f64[1,120,20]{2,1,0} broadcast(param_7.541), dimensions={2}, metadata={op_name="jit(scan)/jit(main)/while/body/jit(beliefs_propagation)/jit(continuous_node_posterior_update)/jit(posterior_update_precision_continuous_node)/cond/branch_0_fun/jit(precision_update_missing_values)/mul" source_file="/fs04/fc37/adam/projects/psilocybin-prl-analyses/src/prl_hgf/fitting/hierarchical_patrl.py" source_line=362}
  multiply.1160.1.clone.1 = f64[1,120,20]{2,1,0} multiply(broadcast.1995.1.clone.1, add.678.1), metadata={op_name="jit(scan)/jit(main)/while/body/jit(beliefs_propagation)/jit(continuous_node_posterior_update)/jit(posterior_update_precision_continuous_node)/cond/branch_0_fun/jit(precision_update_missing_values)/mul" source_file="/fs04/fc37/adam/projects/psilocybin-prl-analyses/src/prl_hgf/fitting/hierarchical_patrl.py" source_line=362}
  param_9.477 = f64[20]{0} parameter(9)
  broadcast.1990.1.clone.1 = f64[1,120,20]{2,1,0} broadcast(param_9.477), dimensions={2}, metadata={op_name="jit(scan)/jit(main)/while/body/jit(beliefs_propagation)/jit(continuous_node_posterior_update)/jit(posterior_update_precision_continuous_node)/cond/branch_0_fun/jit(precision_update_missing_values)/mul" source_file="/fs04/fc37/adam/projects/psilocybin-prl-analyses/src/prl_hgf/fitting/hierarchical_patrl.py" source_line=362}
  multiply.1155.3.clone.1 = f64[1,120,20]{2,1,0} multiply(negate.189.3, broadcast.1990.1.clone.1), metadata={op_name="jit(scan)/jit(main)/while/body/jit(beliefs_propagation)/jit(continuous_node_posterior_update)/jit(posterior_update_precision_continuous_node)/cond/branch_0_fun/jit(precision_update_missing_values)/mul" source_file="/fs04/fc37/adam/projects/psilocybin-prl-analyses/src/prl_hgf/fitting/hierarchical_patrl.py" source_line=362}
  bitcast.4153.3.clone.1 = f64[20]{0} bitcast(negate.187.9)
  broadcast.1991.3.clone.1 = f64[120,20]{1,0} broadcast(bitcast.4153.3.clone.1), dimensions={1}, metadata={op_name="jit(scan)/jit(main)/while/body/jit(beliefs_propagation)/jit(continuous_node_posterior_update)/jit(posterior_update_precision_continuous_node)/cond/branch_0_fun/jit(precision_update_missing_values)/mul" source_file="/fs04/fc37/adam/projects/psilocybin-prl-analyses/src/prl_hgf/fitting/hierarchical_patrl.py" source_line=362}
  param_8.518 = f64[120,20]{1,0} parameter(8)
  multiply.1156.3.clone.1 = f64[120,20]{1,0} multiply(broadcast.1991.3.clone.1, param_8.518), metadata={op_name="jit(scan)/jit(main)/while/body/jit(beliefs_propagation)/jit(continuous_node_posterior_update)/jit(posterior_update_precision_continuous_node)/cond/branch_0_fun/jit(precision_update_missing_values)/mul" source_file="/fs04/fc37/adam/projects/psilocybin-prl-analyses/src/prl_hgf/fitting/hierarchical_patrl.py" source_line=362}
  bitcast.4159.3.clone.1 = f64[1,120,20]{2,1,0} bitcast(multiply.1156.3.clone.1)
  add.677.3.clone.1 = f64[1,120,20]{2,1,0} add(multiply.1155.3.clone.1, bitcast.4159.3.clone.1), metadata={op_name="jit(scan)/jit(main)/while/body/jit(beliefs_propagation)/jit(continuous_node_posterior_update)/jit(posterior_update_precision_continuous_node)/cond/branch_0_fun/jit(precision_update_missing_values)/add_any" source_file="/fs04/fc37/adam/projects/psilocybin-prl-analyses/src/prl_hgf/fitting/hierarchical_patrl.py" source_line=362}
  negate.190.1.clone.1 = f64[1,120,20]{2,1,0} negate(add.677.3.clone.1), metadata={op_name="jit(scan)/jit(main)/while/body/jit(beliefs_propagation)/jit(continuous_node_posterior_update)/jit(posterior_update_precision_continuous_node)/cond/branch_0_fun/jit(precision_update_missing_values)/neg" source_file="/fs04/fc37/adam/projects/psilocybin-prl-analyses/src/prl_hgf/fitting/hierarchical_patrl.py" source_line=362}
  ROOT tuple.153 = (f64[1,120,20]{2,1,0}, f64[1,120,20]{2,1,0}, f64[1,120,20]{2,1,0}) tuple(add.678.1, multiply.1160.1.clone.1, negate.190.1.clone.1)
} // fused_add_multiply_negate

command_buffer.6 {
  p.74 = f64[20]{0} parameter(0)
  p.75 = f64[20]{0} parameter(1)
  p.76 = f64[1,20]{1,0} parameter(2)
  p.77 = f64[20]{0} parameter(3)
  p.78 = f64[] parameter(4)
  p.79 = f64[20]{0} parameter(5)
  p.80 = f64[120,20]{1,0} parameter(6)
  p.81 = f64[120,20]{1,0} parameter(7)
  p.82 = f64[120,1,20]{2,0,1} parameter(8)
  p.83 = f64[120,20]{1,0} parameter(9)
  loop_broadcast_fusion = f64[1,20]{1,0} fusion(), kind=kLoop, calls=fused_broadcast
  wrapped_copy.14 = f64[1,20]{1,0} fusion(loop_broadcast_fusion), kind=kLoop, calls=wrapped_copy_computation.14
  loop_broadcast_fusion.2 = f64[20,1]{1,0} fusion(), kind=kLoop, calls=fused_broadcast.2
  loop_broadcast_fusion.1 = f64[20]{0} fusion(), kind=kLoop, calls=fused_broadcast.1
  loop_multiply_negate_fusion = (f64[1,20]{1,0}, f64[1,20]{1,0}, f64[1,20]{1,0}) fusion(p.74, p.75, p.76, p.77, p.78, /*index=5*/p.79), kind=kLoop, calls=fused_multiply_negate, metadata={op_name="jit(scan)/jit(main)/while/body/jit(beliefs_propagation)/jit(continuous_node_posterior_update)/jit(posterior_update_precision_continuous_node)/cond/branch_0_fun/jit(precision_update_missing_values)/mul" source_file="/fs04/fc37/adam/projects/psilocybin-prl-analyses/src/prl_hgf/fitting/hierarchical_patrl.py" source_line=362}
  get-tuple-element.913 = f64[1,20]{1,0} get-tuple-element(loop_multiply_negate_fusion), index=2, metadata={op_name="jit(scan)/jit(main)/while/body/jit(beliefs_propagation)/jit(continuous_node_posterior_update)/jit(posterior_update_precision_continuous_node)/cond/branch_0_fun/jit(precision_update_missing_values)/mul" source_file="/fs04/fc37/adam/projects/psilocybin-prl-analyses/src/prl_hgf/fitting/hierarchical_patrl.py" source_line=362}
  get-tuple-element.914 = f64[1,20]{1,0} get-tuple-element(loop_multiply_negate_fusion), index=1, metadata={op_name="jit(scan)/jit(main)/while/body/jit(beliefs_propagation)/jit(continuous_node_posterior_update)/jit(posterior_update_precision_continuous_node)/cond/branch_0_fun/jit(precision_update_missing_values)/mul" source_file="/fs04/fc37/adam/projects/psilocybin-prl-analyses/src/prl_hgf/fitting/hierarchical_patrl.py" source_line=362}
  get-tuple-element.915 = f64[1,20]{1,0} get-tuple-element(loop_multiply_negate_fusion), index=0, metadata={op_name="jit(scan)/jit(main)/while/body/jit(beliefs_propagation)/jit(continuous_node_posterior_update)/jit(posterior_update_precision_continuous_node)/cond/branch_0_fun/jit(precision_update_missing_values)/mul" source_file="/fs04/fc37/adam/projects/psilocybin-prl-analyses/src/prl_hgf/fitting/hierarchical_patrl.py" source_line=362}
  loop_broadcast_fusion.3 = f64[120,1,20]{2,1,0} fusion(), kind=kLoop, calls=fused_broadcast.3
  wrapped_copy.15 = f64[120,1,20]{2,1,0} fusion(loop_broadcast_fusion.3), kind=kLoop, calls=wrapped_copy_computation.15
  loop_add_multiply_negate_fusion = (f64[1,120,20]{2,1,0}, f64[1,120,20]{2,1,0}, f64[1,120,20]{2,1,0}) fusion(p.80, p.78, p.75, p.81, p.76, /*index=5*/p.77, p.82, p.74, p.83, p.79), kind=kLoop, calls=fused_add_multiply_negate, metadata={op_name="jit(scan)/jit(main)/while/body/jit(beliefs_propagation)/jit(continuous_node_posterior_update)/jit(posterior_update_precision_continuous_node)/cond/branch_0_fun/jit(precision_update_missing_values)/add_any" source_file="/fs04/fc37/adam/projects/psilocybin-prl-analyses/src/prl_hgf/fitting/hierarchical_patrl.py" source_line=362}
  ROOT tuple.226 = (f64[1,20]{1,0}, f64[1,20]{1,0}, f64[20,1]{1,0}, f64[20]{0}, f64[1,20]{1,0}, /*index=5*/f64[1,20]{1,0}, f64[1,20]{1,0}, f64[120,1,20]{2,1,0}, f64[120,1,20]{2,1,0}, (f64[1,120,20]{2,1,0}, f64[1,120,20]{2,1,0}, f64[1,120,20]{2,1,0})) tuple(loop_broadcast_fusion, wrapped_copy.14, loop_broadcast_fusion.2, loop_broadcast_fusion.1, get-tuple-element.913, /*index=5*/get-tuple-element.914, get-tuple-element.915, loop_broadcast_fusion.3, wrapped_copy.15, loop_add_multiply_negate_fusion)
} // command_buffer.6

region_1.1344.clone {
  arg_tuple.0.0 = (f64[20]{0}, f64[], f64[20]{0}, f64[20]{0}, f64[20]{0}, /*index=5*/f64[1,20]{1,0}, f64[120,20]{1,0}, f64[120,20]{1,0}, f64[120,20]{1,0}, f64[120,1,20]{2,0,1}) parameter(0)
  get-tuple-element.613.0 = f64[] get-tuple-element(arg_tuple.0.0), index=1
  get-tuple-element.617.0 = f64[1,20]{1,0} get-tuple-element(arg_tuple.0.0), index=5
  get-tuple-element.616.0 = f64[20]{0} get-tuple-element(arg_tuple.0.0), index=4
  get-tuple-element.615.0 = f64[20]{0} get-tuple-element(arg_tuple.0.0), index=3
  get-tuple-element.614.0 = f64[20]{0} get-tuple-element(arg_tuple.0.0), index=2
  get-tuple-element.612.0 = f64[20]{0} get-tuple-element(arg_tuple.0.0), index=0
  get-tuple-element.621.0 = f64[120,1,20]{2,0,1} get-tuple-element(arg_tuple.0.0), index=9
  get-tuple-element.620.0 = f64[120,20]{1,0} get-tuple-element(arg_tuple.0.0), index=8, metadata={op_name="jit(scan)/jit(main)/while/body/jit(beliefs_propagation)/jit(continuous_node_posterior_update)/jit(posterior_update_precision_continuous_node)/cond/branch_0_fun/jit(precision_update_missing_values)/broadcast_in_dim[shape=(120, 1, 20) broadcast_dimensions=(0, np.int64(2))]" source_file="/fs04/fc37/adam/projects/psilocybin-prl-analyses/src/prl_hgf/fitting/hierarchical_patrl.py" source_line=362}
  get-tuple-element.619.0 = f64[120,20]{1,0} get-tuple-element(arg_tuple.0.0), index=7, metadata={op_name="jit(scan)/jit(main)/while/body/jit(beliefs_propagation)/jit(continuous_node_posterior_update)/jit(posterior_update_precision_continuous_node)/cond/branch_0_fun/jit(precision_update_missing_values)/broadcast_in_dim[shape=(120, 1, 20) broadcast_dimensions=(0, np.int64(2))]" source_file="/fs04/fc37/adam/projects/psilocybin-prl-analyses/src/prl_hgf/fitting/hierarchical_patrl.py" source_line=362}
  get-tuple-element.618.0 = f64[120,20]{1,0} get-tuple-element(arg_tuple.0.0), index=6, metadata={op_name="jit(scan)/jit(main)/while/body/jit(beliefs_propagation)/jit(continuous_node_posterior_update)/jit(posterior_update_precision_continuous_node)/cond/branch_0_fun/jit(precision_update_missing_values)/broadcast_in_dim[shape=(120, 1, 20) broadcast_dimensions=(0, np.int64(2))]" source_file="/fs04/fc37/adam/projects/psilocybin-prl-analyses/src/prl_hgf/fitting/hierarchical_patrl.py" source_line=362}
  call.3 = (f64[1,20]{1,0}, f64[1,20]{1,0}, f64[20,1]{1,0}, f64[20]{0}, f64[1,20]{1,0}, /*index=5*/f64[1,20]{1,0}, f64[1,20]{1,0}, f64[120,1,20]{2,1,0}, f64[120,1,20]{2,1,0}, (f64[1,120,20]{2,1,0}, f64[1,120,20]{2,1,0}, f64[1,120,20]{2,1,0})) call(get-tuple-element.614.0, get-tuple-element.615.0, get-tuple-element.617.0, get-tuple-element.616.0, get-tuple-element.613.0, /*index=5*/get-tuple-element.612.0, get-tuple-element.619.0, get-tuple-element.620.0, get-tuple-element.621.0, get-tuple-element.618.0), to_apply=command_buffer.6
  get-tuple-element.1923 = f64[1,20]{1,0} get-tuple-element(call.3), index=0
  get-tuple-element.1924 = f64[1,20]{1,0} get-tuple-element(call.3), index=1
  get-tuple-element.1925 = f64[20,1]{1,0} get-tuple-element(call.3), index=2
  get-tuple-element.1926 = f64[20]{0} get-tuple-element(call.3), index=3
  get-tuple-element.1927 = f64[1,20]{1,0} get-tuple-element(call.3), index=4
  get-tuple-element.1928 = f64[1,20]{1,0} get-tuple-element(call.3), index=5
  get-tuple-element.1929 = f64[1,20]{1,0} get-tuple-element(call.3), index=6
  get-tuple-element.1930 = f64[120,1,20]{2,1,0} get-tuple-element(call.3), index=7
  get-tuple-element.1931 = f64[120,1,20]{2,1,0} get-tuple-element(call.3), index=8
  get-tuple-element.1932 = (f64[1,120,20]{2,1,0}, f64[1,120,20]{2,1,0}, f64[1,120,20]{2,1,0}) get-tuple-element(call.3), index=9
  get-tuple-element.855 = f64[1,120,20]{2,1,0} get-tuple-element(get-tuple-element.1932), index=2, metadata={op_name="jit(scan)/jit(main)/while/body/jit(beliefs_propagation)/jit(continuous_node_posterior_update)/jit(posterior_update_precision_continuous_node)/cond/branch_0_fun/jit(precision_update_missing_values)/add_any" source_file="/fs04/fc37/adam/projects/psilocybin-prl-analyses/src/prl_hgf/fitting/hierarchical_patrl.py" source_line=362}
  bitcast.4164.0 = f64[120,1,20]{2,0,1} bitcast(get-tuple-element.855)
  get-tuple-element.854 = f64[1,120,20]{2,1,0} get-tuple-element(get-tuple-element.1932), index=1, metadata={op_name="jit(scan)/jit(main)/while/body/jit(beliefs_propagation)/jit(continuous_node_posterior_update)/jit(posterior_update_precision_continuous_node)/cond/branch_0_fun/jit(precision_update_missing_values)/add_any" source_file="/fs04/fc37/adam/projects/psilocybin-prl-analyses/src/prl_hgf/fitting/hierarchical_patrl.py" source_line=362}
  get-tuple-element.853 = f64[1,120,20]{2,1,0} get-tuple-element(get-tuple-element.1932), index=0, metadata={op_name="jit(scan)/jit(main)/while/body/jit(beliefs_propagation)/jit(continuous_node_posterior_update)/jit(posterior_update_precision_continuous_node)/cond/branch_0_fun/jit(precision_update_missing_values)/add_any" source_file="/fs04/fc37/adam/projects/psilocybin-prl-analyses/src/prl_hgf/fitting/hierarchical_patrl.py" source_line=362}
  bitcast.4187.0 = f64[120,1,20]{2,0,1} bitcast(get-tuple-element.853)
  bitcast.4195.0 = f64[120,1,20]{2,0,1} bitcast(get-tuple-element.854)
  ROOT tuple.202 = (f64[20]{0}, f64[1,20]{1,0}, f64[1,20]{1,0}, f64[1,20]{1,0}, f64[1,20]{1,0}, /*index=5*/f64[1,20]{1,0}, f64[20,1]{1,0}, f64[120,1,20]{2,1,0}, f64[120,1,20]{2,1,0}, f64[120,1,20]{2,0,1}, /*index=10*/f64[120,1,20]{2,0,1}, f64[120,1,20]{2,0,1}) tuple(get-tuple-element.1926, get-tuple-element.1923, get-tuple-element.1924, get-tuple-element.1927, get-tuple-element.1928, /*index=5*/get-tuple-element.1929, get-tuple-element.1925, get-tuple-element.1930, get-tuple-element.1931, bitcast.4164.0, /*index=10*/bitcast.4187.0, bitcast.4195.0)
} // region_1.1344.clone

fused_broadcast.5 {
  constant_164_3 = f64[] constant(0)
  ROOT broadcast.1999.1 = f64[20,1]{1,0} broadcast(constant_164_3), dimensions={}
}

fused_broadcast.4 {
  constant_164_2 = f64[] constant(0)
  ROOT broadcast.1996.1 = f64[20]{0} broadcast(constant_164_2), dimensions={}
}

fused_broadcast_multiply_select {
  param_0.69 = f64[20]{0} parameter(0)
  bitcast.4200.1 = f64[1,20]{1,0} bitcast(param_0.69)
  param_3.1078 = pred[20]{0} parameter(3)
  bitcast.4204.1.clone.1 = pred[1,20]{1,0} bitcast(param_3.1078)
  param_2.1393 = f64[1,20]{1,0} parameter(2)
  constant_164_1_clone_1 = f64[] constant(0)
  broadcast.1997.clone.2.1.clone.1 = f64[1,20]{1,0} broadcast(constant_164_1_clone_1), dimensions={}
  select.342.1.clone.1 = f64[1,20]{1,0} select(bitcast.4204.1.clone.1, param_2.1393, broadcast.1997.clone.2.1.clone.1), metadata={op_name="jit(scan)/jit(main)/while/body/jit(beliefs_propagation)/jit(continuous_node_posterior_update)/jit(posterior_update_precision_continuous_node)/cond/branch_1_fun/jit(precision_update)/jit(_where)/select_n" source_file="/fs04/fc37/adam/projects/psilocybin-prl-analyses/src/prl_hgf/env/pat_rl_simulator.py" source_line=92}
  param_1.1750 = f64[] parameter(1)
  broadcast.1998.1 = f64[1,20]{1,0} broadcast(param_1.1750), dimensions={}, metadata={op_name="jit(scan)/jit(main)/while/body/jit(beliefs_propagation)/jit(continuous_node_posterior_update)/jit(posterior_update_precision_continuous_node)/cond/branch_1_fun/jit(precision_update)/mul" source_file="/fs04/fc37/adam/projects/psilocybin-prl-analyses/src/prl_hgf/fitting/hierarchical_patrl.py" source_line=362}
  multiply.1161.1 = f64[1,20]{1,0} multiply(select.342.1.clone.1, broadcast.1998.1), metadata={op_name="jit(scan)/jit(main)/while/body/jit(beliefs_propagation)/jit(continuous_node_posterior_update)/jit(posterior_update_precision_continuous_node)/cond/branch_1_fun/jit(precision_update)/mul" source_file="/fs04/fc37/adam/projects/psilocybin-prl-analyses/src/prl_hgf/fitting/hierarchical_patrl.py" source_line=362}
  multiply.1162.1 = f64[1,20]{1,0} multiply(bitcast.4200.1, multiply.1161.1), metadata={op_name="jit(scan)/jit(main)/while/body/jit(beliefs_propagation)/jit(continuous_node_posterior_update)/jit(posterior_update_precision_continuous_node)/cond/branch_1_fun/jit(precision_update)/mul" source_file="/fs04/fc37/adam/projects/psilocybin-prl-analyses/src/prl_hgf/fitting/hierarchical_patrl.py" source_line=362}
  ROOT tuple.158 = (f64[1,20]{1,0}, f64[1,20]{1,0}, f64[1,20]{1,0}) tuple(multiply.1162.1, select.342.1.clone.1, broadcast.1997.clone.2.1.clone.1)
} // fused_broadcast_multiply_select

wrapped_copy_computation.16 {
  param_0.1701 = f64[1,20]{1,0} parameter(0)
  ROOT copy.221 = f64[1,20]{1,0} copy(param_0.1701)
}

wrapped_copy_computation.17 {
  param_0.1702 = f64[1,20]{1,0} parameter(0)
  ROOT copy.222 = f64[1,20]{1,0} copy(param_0.1702)
}

fused_broadcast.6 {
  constant_164_5 = f64[] constant(0)
  ROOT broadcast.2163.1 = f64[120,1,20]{2,0,1} broadcast(constant_164_5), dimensions={}
}

wrapped_copy_computation.18 {
  param_0.1703 = f64[120,1,20]{2,0,1} parameter(0)
  ROOT copy.223 = f64[120,1,20]{2,0,1} copy(param_0.1703)
}

wrapped_copy_computation.19 {
  param_0.1704 = f64[120,1,20]{2,0,1} parameter(0)
  ROOT copy.224 = f64[120,1,20]{2,0,1} copy(param_0.1704)
}

fused_multiply_select {
  param_1.78 = pred[20]{0} parameter(1)
  broadcast.2001.1 = pred[1,120,20]{2,1,0} broadcast(param_1.78), dimensions={2}, metadata={op_name="jit(scan)/jit(main)/while/body/jit(beliefs_propagation)/jit(continuous_node_posterior_update)/jit(posterior_update_precision_continuous_node)/cond/branch_1_fun/jit(precision_update)/jit(_where)/broadcast_in_dim[shape=(120, 1, 20) broadcast_dimensions=(np.int64(1), np.int64(2))]" source_file="/fs04/fc37/adam/projects/psilocybin-prl-analyses/src/prl_hgf/env/pat_rl_simulator.py" source_line=92}
  param_0.68 = f64[120,1,20]{2,0,1} parameter(0)
  bitcast.4228.1 = f64[1,120,20]{2,1,0} bitcast(param_0.68)
  constant_164_4 = f64[] constant(0)
  broadcast.2002.1 = f64[1,120,20]{2,1,0} broadcast(constant_164_4), dimensions={}
  select.343.1 = f64[1,120,20]{2,1,0} select(broadcast.2001.1, bitcast.4228.1, broadcast.2002.1), metadata={op_name="jit(scan)/jit(main)/while/body/jit(beliefs_propagation)/jit(continuous_node_posterior_update)/jit(posterior_update_precision_continuous_node)/cond/branch_1_fun/jit(precision_update)/jit(_where)/select_n" source_file="/fs04/fc37/adam/projects/psilocybin-prl-analyses/src/prl_hgf/env/pat_rl_simulator.py" source_line=92}
  param_3.1075 = f64[20]{0} parameter(3)
  broadcast.2000.1.clone.1 = f64[1,120,20]{2,1,0} broadcast(param_3.1075), dimensions={2}, metadata={op_name="jit(scan)/jit(main)/while/body/jit(beliefs_propagation)/jit(continuous_node_posterior_update)/jit(posterior_update_precision_continuous_node)/cond/branch_1_fun/jit(precision_update)/mul" source_file="/fs04/fc37/adam/projects/psilocybin-prl-analyses/src/prl_hgf/fitting/hierarchical_patrl.py" source_line=362}
  param_2.1391 = f64[] parameter(2)
  broadcast.2003.1.clone.1 = f64[1,120,20]{2,1,0} broadcast(param_2.1391), dimensions={}, metadata={op_name="jit(scan)/jit(main)/while/body/jit(beliefs_propagation)/jit(continuous_node_posterior_update)/jit(posterior_update_precision_continuous_node)/cond/branch_1_fun/jit(precision_update)/mul" source_file="/fs04/fc37/adam/projects/psilocybin-prl-analyses/src/prl_hgf/fitting/hierarchical_patrl.py" source_line=362}
  multiply.1163.1.clone.1 = f64[1,120,20]{2,1,0} multiply(select.343.1, broadcast.2003.1.clone.1), metadata={op_name="jit(scan)/jit(main)/while/body/jit(beliefs_propagation)/jit(continuous_node_posterior_update)/jit(posterior_update_precision_continuous_node)/cond/branch_1_fun/jit(precision_update)/mul" source_file="/fs04/fc37/adam/projects/psilocybin-prl-analyses/src/prl_hgf/fitting/hierarchical_patrl.py" source_line=362}
  multiply.1164.1.clone.1 = f64[1,120,20]{2,1,0} multiply(broadcast.2000.1.clone.1, multiply.1163.1.clone.1), metadata={op_name="jit(scan)/jit(main)/while/body/jit(beliefs_propagation)/jit(continuous_node_posterior_update)/jit(posterior_update_precision_continuous_node)/cond/branch_1_fun/jit(precision_update)/mul" source_file="/fs04/fc37/adam/projects/psilocybin-prl-analyses/src/prl_hgf/fitting/hierarchical_patrl.py" source_line=362}
  ROOT tuple.156 = (f64[1,120,20]{2,1,0}, f64[1,120,20]{2,1,0}) tuple(select.343.1, multiply.1164.1.clone.1)
} // fused_multiply_select

command_buffer.4 {
  p.64 = f64[20]{0} parameter(0)
  p.65 = f64[] parameter(1)
  p.66 = f64[1,20]{1,0} parameter(2)
  p.67 = pred[20]{0} parameter(3)
  p.68 = f64[120,1,20]{2,0,1} parameter(4)
  loop_broadcast_fusion.5 = f64[20,1]{1,0} fusion(), kind=kLoop, calls=fused_broadcast.5
  loop_broadcast_fusion.4 = f64[20]{0} fusion(), kind=kLoop, calls=fused_broadcast.4
  loop_broadcast_multiply_select_fusion = (f64[1,20]{1,0}, f64[1,20]{1,0}, f64[1,20]{1,0}) fusion(p.64, p.65, p.66, p.67), kind=kLoop, calls=fused_broadcast_multiply_select, metadata={op_name="jit(scan)/jit(main)/while/body/jit(beliefs_propagation)/jit(continuous_node_posterior_update)/jit(posterior_update_precision_continuous_node)/cond/branch_1_fun/jit(precision_update)/mul" source_file="/fs04/fc37/adam/projects/psilocybin-prl-analyses/src/prl_hgf/fitting/hierarchical_patrl.py" source_line=362}
  get-tuple-element.927 = f64[1,20]{1,0} get-tuple-element(loop_broadcast_multiply_select_fusion), index=2, metadata={op_name="jit(scan)/jit(main)/while/body/jit(beliefs_propagation)/jit(continuous_node_posterior_update)/jit(posterior_update_precision_continuous_node)/cond/branch_1_fun/jit(precision_update)/mul" source_file="/fs04/fc37/adam/projects/psilocybin-prl-analyses/src/prl_hgf/fitting/hierarchical_patrl.py" source_line=362}
  get-tuple-element.924 = f64[1,20]{1,0} get-tuple-element(loop_broadcast_multiply_select_fusion), index=1, metadata={op_name="jit(scan)/jit(main)/while/body/jit(beliefs_propagation)/jit(continuous_node_posterior_update)/jit(posterior_update_precision_continuous_node)/cond/branch_1_fun/jit(precision_update)/mul" source_file="/fs04/fc37/adam/projects/psilocybin-prl-analyses/src/prl_hgf/fitting/hierarchical_patrl.py" source_line=362}
  get-tuple-element.923 = f64[1,20]{1,0} get-tuple-element(loop_broadcast_multiply_select_fusion), index=0, metadata={op_name="jit(scan)/jit(main)/while/body/jit(beliefs_propagation)/jit(continuous_node_posterior_update)/jit(posterior_update_precision_continuous_node)/cond/branch_1_fun/jit(precision_update)/mul" source_file="/fs04/fc37/adam/projects/psilocybin-prl-analyses/src/prl_hgf/fitting/hierarchical_patrl.py" source_line=362}
  wrapped_copy.16 = f64[1,20]{1,0} fusion(get-tuple-element.927), kind=kLoop, calls=wrapped_copy_computation.16
  wrapped_copy.17 = f64[1,20]{1,0} fusion(get-tuple-element.927), kind=kLoop, calls=wrapped_copy_computation.17
  loop_broadcast_fusion.6 = f64[120,1,20]{2,0,1} fusion(), kind=kLoop, calls=fused_broadcast.6
  wrapped_copy.18 = f64[120,1,20]{2,0,1} fusion(loop_broadcast_fusion.6), kind=kLoop, calls=wrapped_copy_computation.18
  wrapped_copy.19 = f64[120,1,20]{2,0,1} fusion(loop_broadcast_fusion.6), kind=kLoop, calls=wrapped_copy_computation.19
  loop_multiply_select_fusion = (f64[1,120,20]{2,1,0}, f64[1,120,20]{2,1,0}) fusion(p.68, p.67, p.65, p.64), kind=kLoop, calls=fused_multiply_select, metadata={op_name="jit(scan)/jit(main)/while/body/jit(beliefs_propagation)/jit(continuous_node_posterior_update)/jit(posterior_update_precision_continuous_node)/cond/branch_1_fun/jit(precision_update)/jit(_where)/select_n" source_file="/fs04/fc37/adam/projects/psilocybin-prl-analyses/src/prl_hgf/env/pat_rl_simulator.py" source_line=92}
  ROOT tuple.224 = (f64[20,1]{1,0}, f64[20]{0}, f64[1,20]{1,0}, f64[1,20]{1,0}, f64[1,20]{1,0}, /*index=5*/f64[1,20]{1,0}, f64[1,20]{1,0}, f64[120,1,20]{2,0,1}, f64[120,1,20]{2,0,1}, f64[120,1,20]{2,0,1}, /*index=10*/(f64[1,120,20]{2,1,0}, f64[1,120,20]{2,1,0})) tuple(loop_broadcast_fusion.5, loop_broadcast_fusion.4, get-tuple-element.927, get-tuple-element.924, get-tuple-element.923, /*index=5*/wrapped_copy.16, wrapped_copy.17, loop_broadcast_fusion.6, wrapped_copy.18, wrapped_copy.19, /*index=10*/loop_multiply_select_fusion)
} // command_buffer.4

region_2.1406.clone {
  arg_tuple.1.0 = (f64[20]{0}, f64[], pred[20]{0}, f64[1,20]{1,0}, f64[120,1,20]{2,0,1}) parameter(0)
  get-tuple-element.635.0 = f64[] get-tuple-element(arg_tuple.1.0), index=1
  get-tuple-element.636.0 = pred[20]{0} get-tuple-element(arg_tuple.1.0), index=2
  get-tuple-element.634.0 = f64[20]{0} get-tuple-element(arg_tuple.1.0), index=0
  get-tuple-element.638.0 = f64[120,1,20]{2,0,1} get-tuple-element(arg_tuple.1.0), index=4
  get-tuple-element.637.0 = f64[1,20]{1,0} get-tuple-element(arg_tuple.1.0), index=3
  call.2 = (f64[20,1]{1,0}, f64[20]{0}, f64[1,20]{1,0}, f64[1,20]{1,0}, f64[1,20]{1,0}, /*index=5*/f64[1,20]{1,0}, f64[1,20]{1,0}, f64[120,1,20]{2,0,1}, f64[120,1,20]{2,0,1}, f64[120,1,20]{2,0,1}, /*index=10*/(f64[1,120,20]{2,1,0}, f64[1,120,20]{2,1,0})) call(get-tuple-element.634.0, get-tuple-element.635.0, get-tuple-element.637.0, get-tuple-element.636.0, get-tuple-element.638.0), to_apply=command_buffer.4
  get-tuple-element.1909 = f64[20,1]{1,0} get-tuple-element(call.2), index=0
  get-tuple-element.1910 = f64[20]{0} get-tuple-element(call.2), index=1
  get-tuple-element.1911 = f64[1,20]{1,0} get-tuple-element(call.2), index=2
  get-tuple-element.1912 = f64[1,20]{1,0} get-tuple-element(call.2), index=3
  get-tuple-element.1913 = f64[1,20]{1,0} get-tuple-element(call.2), index=4
  get-tuple-element.1914 = f64[1,20]{1,0} get-tuple-element(call.2), index=5
  get-tuple-element.1915 = f64[1,20]{1,0} get-tuple-element(call.2), index=6
  get-tuple-element.1916 = f64[120,1,20]{2,0,1} get-tuple-element(call.2), index=7
  get-tuple-element.1917 = f64[120,1,20]{2,0,1} get-tuple-element(call.2), index=8
  get-tuple-element.1918 = f64[120,1,20]{2,0,1} get-tuple-element(call.2), index=9
  get-tuple-element.1919 = (f64[1,120,20]{2,1,0}, f64[1,120,20]{2,1,0}) get-tuple-element(call.2), index=10
  get-tuple-element.860 = f64[1,120,20]{2,1,0} get-tuple-element(get-tuple-element.1919), index=1, metadata={op_name="jit(scan)/jit(main)/while/body/jit(beliefs_propagation)/jit(continuous_node_posterior_update)/jit(posterior_update_precision_continuous_node)/cond/branch_1_fun/jit(precision_update)/jit(_where)/select_n" source_file="/fs04/fc37/adam/projects/psilocybin-prl-analyses/src/prl_hgf/env/pat_rl_simulator.py" source_line=92}
  get-tuple-element.859 = f64[1,120,20]{2,1,0} get-tuple-element(get-tuple-element.1919), index=0, metadata={op_name="jit(scan)/jit(main)/while/body/jit(beliefs_propagation)/jit(continuous_node_posterior_update)/jit(posterior_update_precision_continuous_node)/cond/branch_1_fun/jit(precision_update)/jit(_where)/select_n" source_file="/fs04/fc37/adam/projects/psilocybin-prl-analyses/src/prl_hgf/env/pat_rl_simulator.py" source_line=92}
  bitcast.4244.0 = f64[120,1,20]{2,1,0} bitcast(get-tuple-element.859)
  bitcast.4240.0 = f64[120,1,20]{2,1,0} bitcast(get-tuple-element.860)
  ROOT tuple.203 = (f64[20]{0}, f64[1,20]{1,0}, f64[1,20]{1,0}, f64[1,20]{1,0}, f64[1,20]{1,0}, /*index=5*/f64[1,20]{1,0}, f64[20,1]{1,0}, f64[120,1,20]{2,1,0}, f64[120,1,20]{2,1,0}, f64[120,1,20]{2,0,1}, /*index=10*/f64[120,1,20]{2,0,1}, f64[120,1,20]{2,0,1}) tuple(get-tuple-element.1910, get-tuple-element.1913, get-tuple-element.1912, get-tuple-element.1911, get-tuple-element.1914, /*index=5*/get-tuple-element.1915, get-tuple-element.1909, bitcast.4240.0, bitcast.4244.0, get-tuple-element.1916, /*index=10*/get-tuple-element.1917, get-tuple-element.1918)
} // region_2.1406.clone

fused_add {
  param_10.420 = pred[192,20]{1,0} parameter(10)
  param_2.1358 = s64[] parameter(2)
  constant_2715_14 = s64[] constant(0)
  dynamic-slice.121.7 = pred[1,20]{1,0} dynamic-slice(param_10.420, param_2.1358, constant_2715_14), dynamic_slice_sizes={1,20}, metadata={op_name="jit(scan)/jit(main)/while/body/dynamic_slice[slice_sizes=(1, 20)]" source_file="/fs04/fc37/adam/projects/psilocybin-prl-analyses/src/prl_hgf/fitting/hierarchical_patrl.py" source_line=378}
  bitcast.4272.59 = pred[20]{0} bitcast(dynamic-slice.121.7)
  broadcast.2012.21 = pred[1,120,20]{2,1,0} broadcast(bitcast.4272.59), dimensions={2}, metadata={op_name="jit(scan)/jit(main)/while/body/jit(_where)/broadcast_in_dim[shape=(120, 1, 20) broadcast_dimensions=(np.int64(1), np.int64(2))]" source_file="/fs04/fc37/adam/projects/psilocybin-prl-analyses/src/prl_hgf/env/pat_rl_simulator.py" source_line=92}
  constant_107_6 = f64[] constant(0)
  broadcast.2013.15 = f64[1,120,20]{2,1,0} broadcast(constant_107_6), dimensions={}
  param_0.1206 = f64[120,1,20]{2,0,1} parameter(0)
  bitcast.4660.10 = f64[1,120,20]{2,1,0} bitcast(param_0.1206)
  select.424.3 = f64[1,120,20]{2,1,0} select(broadcast.2012.21, broadcast.2013.15, bitcast.4660.10), metadata={op_name="jit(scan)/jit(main)/while/body/jit(_where)/select_n" source_file="/fs04/fc37/adam/projects/psilocybin-prl-analyses/src/prl_hgf/env/pat_rl_simulator.py" source_line=92}
  param_7.523 = pred[192,20]{1,0} parameter(7)
  dynamic-slice.188.4 = pred[1,20]{1,0} dynamic-slice(param_7.523, param_2.1358, constant_2715_14), dynamic_slice_sizes={1,20}, metadata={op_name="jit(scan)/jit(main)/while/body/dynamic_slice[slice_sizes=(1, 20)]" source_file="/fs04/fc37/adam/projects/psilocybin-prl-analyses/src/prl_hgf/fitting/hierarchical_patrl.py" source_line=378}
  bitcast.6523.11 = pred[20]{0} bitcast(dynamic-slice.188.4)
  broadcast.2118.11 = pred[1,120,20]{2,1,0} broadcast(bitcast.6523.11), dimensions={2}, metadata={op_name="jit(scan)/jit(main)/while/body/jit(beliefs_propagation)/jit(continuous_node_posterior_update_ehgf)/jit(posterior_update_precision_continuous_node)/broadcast_in_dim[shape=(120, 1, 20) broadcast_dimensions=(np.int64(1), np.int64(2))]" source_file="/fs04/fc37/adam/projects/psilocybin-prl-analyses/src/prl_hgf/fitting/hierarchical_patrl.py" source_line=362}
  param_15.343 = s32[192,20]{1,0} parameter(15)
  dynamic-slice.132.24 = s32[1,20]{1,0} dynamic-slice(param_15.343, param_2.1358, constant_2715_14), dynamic_slice_sizes={1,20}, metadata={op_name="jit(scan)/jit(main)/while/body/dynamic_slice[slice_sizes=(1, 20)]" source_file="/fs04/fc37/adam/projects/psilocybin-prl-analyses/src/prl_hgf/fitting/hierarchical_patrl.py" source_line=378}
  constant_128_2 = s32[] constant(0)
  broadcast.2050.17 = s32[1,20]{1,0} broadcast(constant_128_2), dimensions={}
  compare.16.17 = pred[1,20]{1,0} compare(dynamic-slice.132.24, broadcast.2050.17), direction=EQ, metadata={op_name="jit(scan)/jit(main)/while/body/jit(beliefs_propagation)/jit(continuous_node_posterior_update_ehgf)/jit(posterior_update_precision_continuous_node)/eq" source_file="/fs04/fc37/adam/projects/psilocybin-prl-analyses/src/prl_hgf/fitting/hierarchical_patrl.py" source_line=362}
  bitcast.6528.7 = pred[20]{0} bitcast(compare.16.17)
  broadcast.2119.7 = pred[1,120,20]{2,1,0} broadcast(bitcast.6528.7), dimensions={2}, metadata={op_name="jit(scan)/jit(main)/while/body/jit(beliefs_propagation)/jit(continuous_node_posterior_update_ehgf)/jit(posterior_update_precision_continuous_node)/broadcast_in_dim[shape=(120, 1, 20) broadcast_dimensions=(np.int64(1), np.int64(2))]" source_file="/fs04/fc37/adam/projects/psilocybin-prl-analyses/src/prl_hgf/fitting/hierarchical_patrl.py" source_line=362}
  select.368.17 = f64[1,120,20]{2,1,0} select(broadcast.2012.21, bitcast.4660.10, broadcast.2013.15), metadata={op_name="jit(scan)/jit(main)/while/body/jit(_where)/select_n" source_file="/fs04/fc37/adam/projects/psilocybin-prl-analyses/src/prl_hgf/env/pat_rl_simulator.py" source_line=92}
  select.425.11 = f64[1,120,20]{2,1,0} select(broadcast.2119.7, select.368.17, broadcast.2013.15), metadata={op_name="jit(scan)/jit(main)/while/body/jit(beliefs_propagation)/jit(continuous_node_posterior_update_ehgf)/jit(posterior_update_precision_continuous_node)/select_n" source_file="/fs04/fc37/adam/projects/psilocybin-prl-analyses/src/prl_hgf/fitting/hierarchical_patrl.py" source_line=362}
  param_16.336 = f64[192,20]{1,0} parameter(16)
  dynamic-slice.189.6 = f64[1,20]{1,0} dynamic-slice(param_16.336, param_2.1358, constant_2715_14), dynamic_slice_sizes={1,20}, metadata={op_name="jit(scan)/jit(main)/while/body/dynamic_slice[slice_sizes=(1, 20)]" source_file="/fs04/fc37/adam/projects/psilocybin-prl-analyses/src/prl_hgf/fitting/hierarchical_patrl.py" source_line=378}
  bitcast.6539.7 = f64[20]{0} bitcast(dynamic-slice.189.6)
  broadcast.2121.7 = f64[1,120,20]{2,1,0} broadcast(bitcast.6539.7), dimensions={2}, metadata={op_name="jit(scan)/jit(main)/while/body/jit(beliefs_propagation)/jit(continuous_node_posterior_update_ehgf)/jit(posterior_update_precision_continuous_node)/jit(precision_update_missing_values)/mul" source_file="/fs04/fc37/adam/projects/psilocybin-prl-analyses/src/prl_hgf/fitting/hierarchical_patrl.py" source_line=362}
  multiply.1343.9 = f64[1,120,20]{2,1,0} multiply(select.425.11, broadcast.2121.7), metadata={op_name="jit(scan)/jit(main)/while/body/jit(beliefs_propagation)/jit(continuous_node_posterior_update_ehgf)/jit(posterior_update_precision_continuous_node)/jit(precision_update_missing_values)/mul" source_file="/fs04/fc37/adam/projects/psilocybin-prl-analyses/src/prl_hgf/fitting/hierarchical_patrl.py" source_line=362}
  param_14.352 = f64[1,20]{1,0} parameter(14)
  broadcast.2010.clone.105 = f64[1,20]{1,0} broadcast(constant_107_6), dimensions={}
  select.358.14 = f64[1,20]{1,0} select(dynamic-slice.121.7, param_14.352, broadcast.2010.clone.105), metadata={op_name="jit(scan)/jit(main)/while/body/jit(_where)/select_n" source_file="/fs04/fc37/adam/projects/psilocybin-prl-analyses/src/prl_hgf/env/pat_rl_simulator.py" source_line=92}
  select.402.9 = f64[1,20]{1,0} select(compare.16.17, select.358.14, broadcast.2010.clone.105), metadata={op_name="jit(scan)/jit(main)/while/body/jit(beliefs_propagation)/jit(continuous_node_posterior_update_ehgf)/jit(posterior_update_precision_continuous_node)/select_n" source_file="/fs04/fc37/adam/projects/psilocybin-prl-analyses/src/prl_hgf/fitting/hierarchical_patrl.py" source_line=362}
  bitcast.6545.9 = f64[20]{0} bitcast(select.402.9)
  broadcast.2122.9 = f64[1,120,20]{2,1,0} broadcast(bitcast.6545.9), dimensions={2}, metadata={op_name="jit(scan)/jit(main)/while/body/jit(beliefs_propagation)/jit(continuous_node_posterior_update_ehgf)/jit(posterior_update_precision_continuous_node)/jit(precision_update_missing_values)/mul" source_file="/fs04/fc37/adam/projects/psilocybin-prl-analyses/src/prl_hgf/fitting/hierarchical_patrl.py" source_line=362}
  param_13.364 = f64[192,120,20]{2,1,0} parameter(13)
  dynamic-slice.228.5 = f64[1,120,20]{2,1,0} dynamic-slice(param_13.364, param_2.1358, constant_2715_14, constant_2715_14), dynamic_slice_sizes={1,120,20}, metadata={op_name="jit(scan)/jit(main)/while/body/dynamic_slice[slice_sizes=(1, 120, 20)]" source_file="/fs04/fc37/adam/projects/psilocybin-prl-analyses/src/prl_hgf/fitting/hierarchical_patrl.py" source_line=378}
  multiply.1344.7 = f64[1,120,20]{2,1,0} multiply(broadcast.2122.9, dynamic-slice.228.5), metadata={op_name="jit(scan)/jit(main)/while/body/jit(beliefs_propagation)/jit(continuous_node_posterior_update_ehgf)/jit(posterior_update_precision_continuous_node)/jit(precision_update_missing_values)/mul" source_file="/fs04/fc37/adam/projects/psilocybin-prl-analyses/src/prl_hgf/fitting/hierarchical_patrl.py" source_line=362}
  add.816.7 = f64[1,120,20]{2,1,0} add(multiply.1343.9, multiply.1344.7), metadata={op_name="jit(scan)/jit(main)/while/body/jit(beliefs_propagation)/jit(continuous_node_posterior_update_ehgf)/jit(posterior_update_precision_continuous_node)/jit(precision_update_missing_values)/add_any" source_file="/fs04/fc37/adam/projects/psilocybin-prl-analyses/src/prl_hgf/fitting/hierarchical_patrl.py" source_line=362}
  negate.219.5 = f64[1,120,20]{2,1,0} negate(add.816.7), metadata={op_name="jit(scan)/jit(main)/while/body/jit(beliefs_propagation)/jit(continuous_node_posterior_update_ehgf)/jit(posterior_update_precision_continuous_node)/jit(precision_update_missing_values)/neg" source_file="/fs04/fc37/adam/projects/psilocybin-prl-analyses/src/prl_hgf/fitting/hierarchical_patrl.py" source_line=362}
  param_6.578 = f64[192,20]{1,0} parameter(6)
  dynamic-slice.190.1 = f64[1,20]{1,0} dynamic-slice(param_6.578, param_2.1358, constant_2715_14), dynamic_slice_sizes={1,20}, metadata={op_name="jit(scan)/jit(main)/while/body/dynamic_slice[slice_sizes=(1, 20)]" source_file="/fs04/fc37/adam/projects/psilocybin-prl-analyses/src/prl_hgf/fitting/hierarchical_patrl.py" source_line=378}
  bitcast.6560.11 = f64[20]{0} bitcast(dynamic-slice.190.1)
  broadcast.2123.11 = f64[1,120,20]{2,1,0} broadcast(bitcast.6560.11), dimensions={2}, metadata={op_name="jit(scan)/jit(main)/while/body/jit(beliefs_propagation)/jit(continuous_node_posterior_update_ehgf)/jit(posterior_update_precision_continuous_node)/jit(precision_update_missing_values)/mul" source_file="/fs04/fc37/adam/projects/psilocybin-prl-analyses/src/prl_hgf/fitting/hierarchical_patrl.py" source_line=362}
  multiply.1345.9 = f64[1,120,20]{2,1,0} multiply(negate.219.5, broadcast.2123.11), metadata={op_name="jit(scan)/jit(main)/while/body/jit(beliefs_propagation)/jit(continuous_node_posterior_update_ehgf)/jit(posterior_update_precision_continuous_node)/jit(precision_update_missing_values)/mul" source_file="/fs04/fc37/adam/projects/psilocybin-prl-analyses/src/prl_hgf/fitting/hierarchical_patrl.py" source_line=362}
  multiply.1247.3 = f64[1,20]{1,0} multiply(select.402.9, dynamic-slice.189.6), metadata={op_name="jit(scan)/jit(main)/while/body/jit(beliefs_propagation)/jit(continuous_node_posterior_update_ehgf)/jit(posterior_update_precision_continuous_node)/jit(precision_update_missing_values)/mul" source_file="/fs04/fc37/adam/projects/psilocybin-prl-analyses/src/prl_hgf/fitting/hierarchical_patrl.py" source_line=362}
  negate.204.3 = f64[1,20]{1,0} negate(multiply.1247.3), metadata={op_name="jit(scan)/jit(main)/while/body/jit(beliefs_propagation)/jit(continuous_node_posterior_update_ehgf)/jit(posterior_update_precision_continuous_node)/jit(precision_update_missing_values)/neg" source_file="/fs04/fc37/adam/projects/psilocybin-prl-analyses/src/prl_hgf/fitting/hierarchical_patrl.py" source_line=362}
  bitcast.6566.7 = f64[20]{0} bitcast(negate.204.3)
  broadcast.2124.7 = f64[1,120,20]{2,1,0} broadcast(bitcast.6566.7), dimensions={2}, metadata={op_name="jit(scan)/jit(main)/while/body/jit(beliefs_propagation)/jit(continuous_node_posterior_update_ehgf)/jit(posterior_update_precision_continuous_node)/jit(precision_update_missing_values)/mul" source_file="/fs04/fc37/adam/projects/psilocybin-prl-analyses/src/prl_hgf/fitting/hierarchical_patrl.py" source_line=362}
  param_4.771 = f64[192,120,20]{2,1,0} parameter(4)
  dynamic-slice.229.1 = f64[1,120,20]{2,1,0} dynamic-slice(param_4.771, param_2.1358, constant_2715_14, constant_2715_14), dynamic_slice_sizes={1,120,20}, metadata={op_name="jit(scan)/jit(main)/while/body/dynamic_slice[slice_sizes=(1, 120, 20)]" source_file="/fs04/fc37/adam/projects/psilocybin-prl-analyses/src/prl_hgf/fitting/hierarchical_patrl.py" source_line=378}
  multiply.1346.5 = f64[1,120,20]{2,1,0} multiply(broadcast.2124.7, dynamic-slice.229.1), metadata={op_name="jit(scan)/jit(main)/while/body/jit(beliefs_propagation)/jit(continuous_node_posterior_update_ehgf)/jit(posterior_update_precision_continuous_node)/jit(precision_update_missing_values)/mul" source_file="/fs04/fc37/adam/projects/psilocybin-prl-analyses/src/prl_hgf/fitting/hierarchical_patrl.py" source_line=362}
  add.817.7 = f64[1,120,20]{2,1,0} add(multiply.1345.9, multiply.1346.5), metadata={op_name="jit(scan)/jit(main)/while/body/jit(beliefs_propagation)/jit(continuous_node_posterior_update_ehgf)/jit(posterior_update_precision_continuous_node)/jit(precision_update_missing_values)/add_any" source_file="/fs04/fc37/adam/projects/psilocybin-prl-analyses/src/prl_hgf/fitting/hierarchical_patrl.py" source_line=362}
  negate.220.5 = f64[1,120,20]{2,1,0} negate(add.817.7), metadata={op_name="jit(scan)/jit(main)/while/body/jit(beliefs_propagation)/jit(continuous_node_posterior_update_ehgf)/jit(posterior_update_precision_continuous_node)/jit(precision_update_missing_values)/neg" source_file="/fs04/fc37/adam/projects/psilocybin-prl-analyses/src/prl_hgf/fitting/hierarchical_patrl.py" source_line=362}
  select.426.5 = f64[1,120,20]{2,1,0} select(broadcast.2118.11, negate.220.5, broadcast.2013.15), metadata={op_name="jit(scan)/jit(main)/while/body/jit(beliefs_propagation)/jit(continuous_node_posterior_update_ehgf)/jit(posterior_update_precision_continuous_node)/select_n" source_file="/fs04/fc37/adam/projects/psilocybin-prl-analyses/src/prl_hgf/fitting/hierarchical_patrl.py" source_line=362}
  param_27.163 = pred[192,20]{1,0} parameter(27)
  dynamic-slice.129.14 = pred[1,20]{1,0} dynamic-slice(param_27.163, param_2.1358, constant_2715_14), dynamic_slice_sizes={1,20}, metadata={op_name="jit(scan)/jit(main)/while/body/dynamic_slice[slice_sizes=(1, 20)]" source_file="/fs04/fc37/adam/projects/psilocybin-prl-analyses/src/prl_hgf/fitting/hierarchical_patrl.py" source_line=378}
  bitcast.4624.29 = pred[20]{0} bitcast(dynamic-slice.129.14)
  broadcast.2014.29 = pred[1,120,20]{2,1,0} broadcast(bitcast.4624.29), dimensions={2}, metadata={op_name="jit(scan)/jit(main)/while/body/jit(beliefs_propagation)/jit(continuous_node_posterior_update_ehgf)/jit(posterior_update_precision_continuous_node)/broadcast_in_dim[shape=(120, 1, 20) broadcast_dimensions=(np.int64(1), np.int64(2))]" source_file="/fs04/fc37/adam/projects/psilocybin-prl-analyses/src/prl_hgf/fitting/hierarchical_patrl.py" source_line=362}
  param_26.176 = pred[192,20]{1,0} parameter(26)
  dynamic-slice.131.25 = pred[1,20]{1,0} dynamic-slice(param_26.176, param_2.1358, constant_2715_14), dynamic_slice_sizes={1,20}, metadata={op_name="jit(scan)/jit(main)/while/body/dynamic_slice[slice_sizes=(1, 20)]" source_file="/fs04/fc37/adam/projects/psilocybin-prl-analyses/src/prl_hgf/fitting/hierarchical_patrl.py" source_line=378}
  bitcast.4647.25 = pred[20]{0} bitcast(dynamic-slice.131.25)
  broadcast.2017.25 = pred[1,120,20]{2,1,0} broadcast(bitcast.4647.25), dimensions={2}, metadata={op_name="jit(scan)/jit(main)/while/body/jit(beliefs_propagation)/jit(continuous_node_posterior_update_ehgf)/jit(posterior_update_precision_continuous_node)/jit(precision_update)/jit(_where)/broadcast_in_dim[shape=(120, 1, 20) broadcast_dimensions=(np.int64(1), np.int64(2))]" source_file="/fs04/fc37/adam/projects/psilocybin-prl-analyses/src/prl_hgf/env/pat_rl_simulator.py" source_line=92}
  constant_119_4 = s32[] constant(1)
  broadcast.2011.29 = s32[1,20]{1,0} broadcast(constant_119_4), dimensions={}
  compare.15.29 = pred[1,20]{1,0} compare(dynamic-slice.132.24, broadcast.2011.29), direction=EQ, metadata={op_name="jit(scan)/jit(main)/while/body/jit(beliefs_propagation)/jit(continuous_node_posterior_update_ehgf)/jit(posterior_update_precision_continuous_node)/eq" source_file="/fs04/fc37/adam/projects/psilocybin-prl-analyses/src/prl_hgf/fitting/hierarchical_patrl.py" source_line=362}
  bitcast.4652.25 = pred[20]{0} bitcast(compare.15.29)
  broadcast.2018.25 = pred[1,120,20]{2,1,0} broadcast(bitcast.4652.25), dimensions={2}, metadata={op_name="jit(scan)/jit(main)/while/body/jit(beliefs_propagation)/jit(continuous_node_posterior_update_ehgf)/jit(posterior_update_precision_continuous_node)/broadcast_in_dim[shape=(120, 1, 20) broadcast_dimensions=(np.int64(1), np.int64(2))]" source_file="/fs04/fc37/adam/projects/psilocybin-prl-analyses/src/prl_hgf/fitting/hierarchical_patrl.py" source_line=362}
  select.369.25 = f64[1,120,20]{2,1,0} select(broadcast.2018.25, select.368.17, broadcast.2013.15), metadata={op_name="jit(scan)/jit(main)/while/body/jit(beliefs_propagation)/jit(continuous_node_posterior_update_ehgf)/jit(posterior_update_precision_continuous_node)/select_n" source_file="/fs04/fc37/adam/projects/psilocybin-prl-analyses/src/prl_hgf/fitting/hierarchical_patrl.py" source_line=362}
  select.370.23 = f64[1,120,20]{2,1,0} select(broadcast.2017.25, select.369.25, broadcast.2013.15), metadata={op_name="jit(scan)/jit(main)/while/body/jit(beliefs_propagation)/jit(continuous_node_posterior_update_ehgf)/jit(posterior_update_precision_continuous_node)/jit(precision_update)/jit(_where)/select_n" source_file="/fs04/fc37/adam/projects/psilocybin-prl-analyses/src/prl_hgf/env/pat_rl_simulator.py" source_line=92}
  select.427.15 = f64[1,120,20]{2,1,0} select(broadcast.2014.29, select.370.23, broadcast.2013.15), metadata={op_name="jit(scan)/jit(main)/while/body/jit(beliefs_propagation)/jit(continuous_node_posterior_update_ehgf)/jit(posterior_update_precision_continuous_node)/select_n" source_file="/fs04/fc37/adam/projects/psilocybin-prl-analyses/src/prl_hgf/fitting/hierarchical_patrl.py" source_line=362}
  param_25.192 = f64[192,120,20]{2,1,0} parameter(25)
  dynamic-slice.230.5 = f64[1,120,20]{2,1,0} dynamic-slice(param_25.192, param_2.1358, constant_2715_14, constant_2715_14), dynamic_slice_sizes={1,120,20}, metadata={op_name="jit(scan)/jit(main)/while/body/dynamic_slice[slice_sizes=(1, 120, 20)]" source_file="/fs04/fc37/adam/projects/psilocybin-prl-analyses/src/prl_hgf/fitting/hierarchical_patrl.py" source_line=378}
  param_28.162 = f64[1,20]{1,0} parameter(28)
  select.362.13 = f64[1,20]{1,0} select(dynamic-slice.121.7, param_28.162, broadcast.2010.clone.105), metadata={op_name="jit(scan)/jit(main)/while/body/jit(_where)/select_n" source_file="/fs04/fc37/adam/projects/psilocybin-prl-analyses/src/prl_hgf/fitting/hierarchical_patrl.py" source_line=370}
  param_23.179 = f64[192,20]{1,0} parameter(23)
  dynamic-slice.136.28 = f64[1,20]{1,0} dynamic-slice(param_23.179, param_2.1358, constant_2715_14), dynamic_slice_sizes={1,20}, metadata={op_name="jit(scan)/jit(main)/while/body/dynamic_slice[slice_sizes=(1, 20)]" source_file="/fs04/fc37/adam/projects/psilocybin-prl-analyses/src/prl_hgf/fitting/hierarchical_patrl.py" source_line=378}
  multiply.1169.9 = f64[1,20]{1,0} multiply(select.362.13, dynamic-slice.136.28), metadata={op_name="jit(scan)/jit(main)/while/body/jit(beliefs_propagation)/jit(continuous_node_posterior_update_ehgf)/jit(posterior_update_mean_continuous_node)/mul" source_file="/fs04/fc37/adam/projects/psilocybin-prl-analyses/src/prl_hgf/fitting/hierarchical_patrl.py" source_line=362}
  bitcast.4744.21 = f64[20]{0} bitcast(multiply.1169.9)
  broadcast.2030.21 = f64[1,120,20]{2,1,0} broadcast(bitcast.4744.21), dimensions={2}, metadata={op_name="jit(scan)/jit(main)/while/body/jit(beliefs_propagation)/jit(continuous_node_posterior_update_ehgf)/jit(posterior_update_mean_continuous_node)/mul" source_file="/fs04/fc37/adam/projects/psilocybin-prl-analyses/src/prl_hgf/fitting/hierarchical_patrl.py" source_line=362}
  multiply.1347.7 = f64[1,120,20]{2,1,0} multiply(dynamic-slice.230.5, broadcast.2030.21), metadata={op_name="jit(scan)/jit(main)/while/body/jit(beliefs_propagation)/jit(continuous_node_posterior_update_ehgf)/jit(posterior_update_mean_continuous_node)/mul" source_file="/fs04/fc37/adam/projects/psilocybin-prl-analyses/src/prl_hgf/fitting/hierarchical_patrl.py" source_line=362}
  param_21.215 = f64[192,20]{1,0} parameter(21)
  dynamic-slice.191.14 = f64[1,20]{1,0} dynamic-slice(param_21.215, param_2.1358, constant_2715_14), dynamic_slice_sizes={1,20}, metadata={op_name="jit(scan)/jit(main)/while/body/dynamic_slice[slice_sizes=(1, 20)]" source_file="/fs04/fc37/adam/projects/psilocybin-prl-analyses/src/prl_hgf/fitting/hierarchical_patrl.py" source_line=378}
  bitcast.6601.7 = f64[20]{0} bitcast(dynamic-slice.191.14)
  broadcast.2127.7 = f64[1,120,20]{2,1,0} broadcast(bitcast.6601.7), dimensions={2}, metadata={op_name="jit(scan)/jit(main)/while/body/jit(beliefs_propagation)/jit(continuous_node_posterior_update_ehgf)/jit(posterior_update_mean_continuous_node)/mul" source_file="/fs04/fc37/adam/projects/psilocybin-prl-analyses/src/prl_hgf/fitting/hierarchical_patrl.py" source_line=362}
  param_24.180 = f64[120,1,20]{2,0,1} parameter(24)
  bitcast.4724.42 = f64[1,120,20]{2,1,0} bitcast(param_24.180)
  select.374.39 = f64[1,120,20]{2,1,0} select(broadcast.2012.21, bitcast.4724.42, broadcast.2013.15), metadata={op_name="jit(scan)/jit(main)/while/body/jit(_where)/select_n" source_file="/fs04/fc37/adam/projects/psilocybin-prl-analyses/src/prl_hgf/fitting/hierarchical_patrl.py" source_line=370}
  bitcast.4732.17 = f64[20]{0} bitcast(dynamic-slice.136.28)
  broadcast.2028.17 = f64[1,120,20]{2,1,0} broadcast(bitcast.4732.17), dimensions={2}, metadata={op_name="jit(scan)/jit(main)/while/body/jit(beliefs_propagation)/jit(continuous_node_posterior_update_ehgf)/jit(posterior_update_mean_continuous_node)/mul" source_file="/fs04/fc37/adam/projects/psilocybin-prl-analyses/src/prl_hgf/fitting/hierarchical_patrl.py" source_line=362}
  multiply.1185.33 = f64[1,120,20]{2,1,0} multiply(select.374.39, broadcast.2028.17), metadata={op_name="jit(scan)/jit(main)/while/body/jit(beliefs_propagation)/jit(continuous_node_posterior_update_ehgf)/jit(posterior_update_mean_continuous_node)/mul" source_file="/fs04/fc37/adam/projects/psilocybin-prl-analyses/src/prl_hgf/fitting/hierarchical_patrl.py" source_line=362}
  multiply.1348.15 = f64[1,120,20]{2,1,0} multiply(broadcast.2127.7, multiply.1185.33), metadata={op_name="jit(scan)/jit(main)/while/body/jit(beliefs_propagation)/jit(continuous_node_posterior_update_ehgf)/jit(posterior_update_mean_continuous_node)/mul" source_file="/fs04/fc37/adam/projects/psilocybin-prl-analyses/src/prl_hgf/fitting/hierarchical_patrl.py" source_line=362}
  add.818.13 = f64[1,120,20]{2,1,0} add(multiply.1347.7, multiply.1348.15), metadata={op_name="jit(scan)/jit(main)/while/body/jit(beliefs_propagation)/jit(continuous_node_posterior_update_ehgf)/jit(posterior_update_mean_continuous_node)/add_any" source_file="/fs04/fc37/adam/projects/psilocybin-prl-analyses/src/prl_hgf/fitting/hierarchical_patrl.py" source_line=362}
  param_22.224 = f64[192,20]{1,0} parameter(22)
  dynamic-slice.192.6 = f64[1,20]{1,0} dynamic-slice(param_22.224, param_2.1358, constant_2715_14), dynamic_slice_sizes={1,20}, metadata={op_name="jit(scan)/jit(main)/while/body/dynamic_slice[slice_sizes=(1, 20)]" source_file="/fs04/fc37/adam/projects/psilocybin-prl-analyses/src/prl_hgf/fitting/hierarchical_patrl.py" source_line=378}
  bitcast.6610.7 = f64[20]{0} bitcast(dynamic-slice.192.6)
  broadcast.2128.7 = f64[1,120,20]{2,1,0} broadcast(bitcast.6610.7), dimensions={2}, metadata={op_name="jit(scan)/jit(main)/while/body/jit(beliefs_propagation)/jit(continuous_node_posterior_update_ehgf)/jit(posterior_update_mean_continuous_node)/mul" source_file="/fs04/fc37/adam/projects/psilocybin-prl-analyses/src/prl_hgf/fitting/hierarchical_patrl.py" source_line=362}
  multiply.1349.11 = f64[1,120,20]{2,1,0} multiply(add.818.13, broadcast.2128.7), metadata={op_name="jit(scan)/jit(main)/while/body/jit(beliefs_propagation)/jit(continuous_node_posterior_update_ehgf)/jit(posterior_update_mean_continuous_node)/mul" source_file="/fs04/fc37/adam/projects/psilocybin-prl-analyses/src/prl_hgf/fitting/hierarchical_patrl.py" source_line=362}
  multiply.1249.9 = f64[1,20]{1,0} multiply(dynamic-slice.191.14, multiply.1169.9), metadata={op_name="jit(scan)/jit(main)/while/body/jit(beliefs_propagation)/jit(continuous_node_posterior_update_ehgf)/jit(posterior_update_mean_continuous_node)/mul" source_file="/fs04/fc37/adam/projects/psilocybin-prl-analyses/src/prl_hgf/fitting/hierarchical_patrl.py" source_line=362}
  bitcast.6616.7 = f64[20]{0} bitcast(multiply.1249.9)
  broadcast.2129.7 = f64[1,120,20]{2,1,0} broadcast(bitcast.6616.7), dimensions={2}, metadata={op_name="jit(scan)/jit(main)/while/body/jit(beliefs_propagation)/jit(continuous_node_posterior_update_ehgf)/jit(posterior_update_mean_continuous_node)/mul" source_file="/fs04/fc37/adam/projects/psilocybin-prl-analyses/src/prl_hgf/fitting/hierarchical_patrl.py" source_line=362}
  param_20.221 = f64[192,120,20]{2,1,0} parameter(20)
  dynamic-slice.231.5 = f64[1,120,20]{2,1,0} dynamic-slice(param_20.221, param_2.1358, constant_2715_14, constant_2715_14), dynamic_slice_sizes={1,120,20}, metadata={op_name="jit(scan)/jit(main)/while/body/dynamic_slice[slice_sizes=(1, 120, 20)]" source_file="/fs04/fc37/adam/projects/psilocybin-prl-analyses/src/prl_hgf/fitting/hierarchical_patrl.py" source_line=378}
  multiply.1350.9 = f64[1,120,20]{2,1,0} multiply(broadcast.2129.7, dynamic-slice.231.5), metadata={op_name="jit(scan)/jit(main)/while/body/jit(beliefs_propagation)/jit(continuous_node_posterior_update_ehgf)/jit(posterior_update_mean_continuous_node)/mul" source_file="/fs04/fc37/adam/projects/psilocybin-prl-analyses/src/prl_hgf/fitting/hierarchical_patrl.py" source_line=362}
  add.819.9 = f64[1,120,20]{2,1,0} add(multiply.1349.11, multiply.1350.9), metadata={op_name="jit(scan)/jit(main)/while/body/jit(beliefs_propagation)/jit(continuous_node_posterior_update_ehgf)/jit(posterior_update_mean_continuous_node)/add_any" source_file="/fs04/fc37/adam/projects/psilocybin-prl-analyses/src/prl_hgf/fitting/hierarchical_patrl.py" source_line=362}
  negate.221.7 = f64[1,120,20]{2,1,0} negate(add.819.9), metadata={op_name="jit(scan)/jit(main)/while/body/jit(beliefs_propagation)/jit(continuous_node_posterior_update_ehgf)/jit(posterior_update_mean_continuous_node)/neg" source_file="/fs04/fc37/adam/projects/psilocybin-prl-analyses/src/prl_hgf/fitting/hierarchical_patrl.py" source_line=362}
  constant_133_1 = f64[] constant(2)
  broadcast.2130.5 = f64[1,120,20]{2,1,0} broadcast(constant_133_1), dimensions={}
  multiply.1351.7 = f64[1,120,20]{2,1,0} multiply(negate.221.7, broadcast.2130.5), metadata={op_name="jit(scan)/jit(main)/while/body/jit(beliefs_propagation)/jit(continuous_node_posterior_update_ehgf)/jit(posterior_update_mean_continuous_node)/mul" source_file="/fs04/fc37/adam/projects/psilocybin-prl-analyses/src/prl_hgf/fitting/hierarchical_patrl.py" source_line=362}
  add.820.13 = f64[1,120,20]{2,1,0} add(select.427.15, multiply.1351.7), metadata={op_name="jit(scan)/jit(main)/while/body/jit(beliefs_propagation)/jit(continuous_node_posterior_update_ehgf)/add_any" source_file="/fs04/fc37/adam/projects/psilocybin-prl-analyses/src/prl_hgf/fitting/hierarchical_patrl.py" source_line=362}
  param_19.263 = f64[192,120,20]{2,1,0} parameter(19)
  dynamic-slice.232.5 = f64[1,120,20]{2,1,0} dynamic-slice(param_19.263, param_2.1358, constant_2715_14, constant_2715_14), dynamic_slice_sizes={1,120,20}, metadata={op_name="jit(scan)/jit(main)/while/body/dynamic_slice[slice_sizes=(1, 120, 20)]" source_file="/fs04/fc37/adam/projects/psilocybin-prl-analyses/src/prl_hgf/fitting/hierarchical_patrl.py" source_line=378}
  param_18.270 = f64[20]{0} parameter(18)
  broadcast.2009.clone.88 = f64[20]{0} broadcast(constant_107_6), dimensions={}
  select.406.19 = f64[20]{0} select(bitcast.4272.59, param_18.270, broadcast.2009.clone.88), metadata={op_name="jit(scan)/jit(main)/while/body/jit(_where)/select_n" source_file="/fs04/fc37/adam/projects/psilocybin-prl-analyses/src/prl_hgf/env/pat_rl_simulator.py" source_line=92}
  param_11.406 = f64[20]{0} parameter(11)
  add.752.17 = f64[20]{0} add(select.406.19, param_11.406), metadata={op_name="jit(scan)/jit(main)/while/body/jit(beliefs_propagation)/add_any" source_file="/fs04/fc37/adam/projects/psilocybin-prl-analyses/src/prl_hgf/fitting/hierarchical_patrl.py" source_line=362}
  broadcast.2131.14 = f64[1,120,20]{2,1,0} broadcast(add.752.17), dimensions={2}, metadata={op_name="jit(scan)/jit(main)/while/body/jit(beliefs_propagation)/jit(continuous_node_prediction)/jit(predict_precision)/mul" source_file="/fs04/fc37/adam/projects/psilocybin-prl-analyses/src/prl_hgf/fitting/hierarchical_patrl.py" source_line=362}
  multiply.1352.7 = f64[1,120,20]{2,1,0} multiply(dynamic-slice.232.5, broadcast.2131.14), metadata={op_name="jit(scan)/jit(main)/while/body/jit(beliefs_propagation)/jit(continuous_node_prediction)/jit(predict_precision)/mul" source_file="/fs04/fc37/adam/projects/psilocybin-prl-analyses/src/prl_hgf/fitting/hierarchical_patrl.py" source_line=362}
  add.821.11 = f64[1,120,20]{2,1,0} add(add.820.13, multiply.1352.7), metadata={op_name="jit(scan)/jit(main)/while/body/jit(beliefs_propagation)/jit(continuous_node_prediction)/jit(predict_precision)/add_any" source_file="/fs04/fc37/adam/projects/psilocybin-prl-analyses/src/prl_hgf/fitting/hierarchical_patrl.py" source_line=362}
  param_9.442 = f64[192,20]{1,0} parameter(9)
  dynamic-slice.194.16 = f64[1,20]{1,0} dynamic-slice(param_9.442, param_2.1358, constant_2715_14), dynamic_slice_sizes={1,20}, metadata={op_name="jit(scan)/jit(main)/while/body/dynamic_slice[slice_sizes=(1, 20)]" source_file="/fs04/fc37/adam/projects/psilocybin-prl-analyses/src/prl_hgf/fitting/hierarchical_patrl.py" source_line=378}
  bitcast.6648.7 = f64[20]{0} bitcast(dynamic-slice.194.16)
  broadcast.2132.7 = f64[1,120,20]{2,1,0} broadcast(bitcast.6648.7), dimensions={2}, metadata={op_name="jit(scan)/jit(main)/while/body/jit(beliefs_propagation)/jit(continuous_node_prediction)/jit(predict_precision)/mul" source_file="/fs04/fc37/adam/projects/psilocybin-prl-analyses/src/prl_hgf/fitting/hierarchical_patrl.py" source_line=362}
  multiply.1353.9 = f64[1,120,20]{2,1,0} multiply(add.821.11, broadcast.2132.7), metadata={op_name="jit(scan)/jit(main)/while/body/jit(beliefs_propagation)/jit(continuous_node_prediction)/jit(predict_precision)/mul" source_file="/fs04/fc37/adam/projects/psilocybin-prl-analyses/src/prl_hgf/fitting/hierarchical_patrl.py" source_line=362}
  param_8.493 = f64[1,20]{1,0} parameter(8)
  bitcast.6654.9 = f64[20]{0} bitcast(param_8.493)
  broadcast.2133.9 = f64[1,120,20]{2,1,0} broadcast(bitcast.6654.9), dimensions={2}, metadata={op_name="jit(scan)/jit(main)/while/body/jit(beliefs_propagation)/jit(continuous_node_prediction)/jit(predict_precision)/mul" source_file="/fs04/fc37/adam/projects/psilocybin-prl-analyses/src/prl_hgf/fitting/hierarchical_patrl.py" source_line=362}
  param_17.313 = f64[192,120,20]{2,1,0} parameter(17)
  dynamic-slice.233.5 = f64[1,120,20]{2,1,0} dynamic-slice(param_17.313, param_2.1358, constant_2715_14, constant_2715_14), dynamic_slice_sizes={1,120,20}, metadata={op_name="jit(scan)/jit(main)/while/body/dynamic_slice[slice_sizes=(1, 120, 20)]" source_file="/fs04/fc37/adam/projects/psilocybin-prl-analyses/src/prl_hgf/fitting/hierarchical_patrl.py" source_line=378}
  multiply.1354.7 = f64[1,120,20]{2,1,0} multiply(broadcast.2133.9, dynamic-slice.233.5), metadata={op_name="jit(scan)/jit(main)/while/body/jit(beliefs_propagation)/jit(continuous_node_prediction)/jit(predict_precision)/mul" source_file="/fs04/fc37/adam/projects/psilocybin-prl-analyses/src/prl_hgf/fitting/hierarchical_patrl.py" source_line=362}
  add.822.7 = f64[1,120,20]{2,1,0} add(multiply.1353.9, multiply.1354.7), metadata={op_name="jit(scan)/jit(main)/while/body/jit(beliefs_propagation)/jit(continuous_node_prediction)/jit(predict_precision)/add_any" source_file="/fs04/fc37/adam/projects/psilocybin-prl-analyses/src/prl_hgf/fitting/hierarchical_patrl.py" source_line=362}
  negate.222.5 = f64[1,120,20]{2,1,0} negate(add.822.7), metadata={op_name="jit(scan)/jit(main)/while/body/jit(beliefs_propagation)/jit(continuous_node_prediction)/jit(predict_precision)/neg" source_file="/fs04/fc37/adam/projects/psilocybin-prl-analyses/src/prl_hgf/fitting/hierarchical_patrl.py" source_line=362}
  param_5.648 = f64[192,20]{1,0} parameter(5)
  dynamic-slice.195.1 = f64[1,20]{1,0} dynamic-slice(param_5.648, param_2.1358, constant_2715_14), dynamic_slice_sizes={1,20}, metadata={op_name="jit(scan)/jit(main)/while/body/dynamic_slice[slice_sizes=(1, 20)]" source_file="/fs04/fc37/adam/projects/psilocybin-prl-analyses/src/prl_hgf/fitting/hierarchical_patrl.py" source_line=378}
  bitcast.6669.11 = f64[20]{0} bitcast(dynamic-slice.195.1)
  broadcast.2134.11 = f64[1,120,20]{2,1,0} broadcast(bitcast.6669.11), dimensions={2}, metadata={op_name="jit(scan)/jit(main)/while/body/jit(beliefs_propagation)/jit(continuous_node_prediction)/jit(predict_precision)/mul" source_file="/fs04/fc37/adam/projects/psilocybin-prl-analyses/src/prl_hgf/fitting/hierarchical_patrl.py" source_line=362}
  multiply.1355.9 = f64[1,120,20]{2,1,0} multiply(negate.222.5, broadcast.2134.11), metadata={op_name="jit(scan)/jit(main)/while/body/jit(beliefs_propagation)/jit(continuous_node_prediction)/jit(predict_precision)/mul" source_file="/fs04/fc37/adam/projects/psilocybin-prl-analyses/src/prl_hgf/fitting/hierarchical_patrl.py" source_line=362}
  multiply.1253.3 = f64[1,20]{1,0} multiply(param_8.493, dynamic-slice.194.16), metadata={op_name="jit(scan)/jit(main)/while/body/jit(beliefs_propagation)/jit(continuous_node_prediction)/jit(predict_precision)/mul" source_file="/fs04/fc37/adam/projects/psilocybin-prl-analyses/src/prl_hgf/fitting/hierarchical_patrl.py" source_line=362}
  negate.207.3 = f64[1,20]{1,0} negate(multiply.1253.3), metadata={op_name="jit(scan)/jit(main)/while/body/jit(beliefs_propagation)/jit(continuous_node_prediction)/jit(predict_precision)/neg" source_file="/fs04/fc37/adam/projects/psilocybin-prl-analyses/src/prl_hgf/fitting/hierarchical_patrl.py" source_line=362}
  bitcast.6675.7 = f64[20]{0} bitcast(negate.207.3)
  broadcast.2135.7 = f64[1,120,20]{2,1,0} broadcast(bitcast.6675.7), dimensions={2}, metadata={op_name="jit(scan)/jit(main)/while/body/jit(beliefs_propagation)/jit(continuous_node_prediction)/jit(predict_precision)/mul" source_file="/fs04/fc37/adam/projects/psilocybin-prl-analyses/src/prl_hgf/fitting/hierarchical_patrl.py" source_line=362}
  param_3.1047 = f64[192,120,20]{2,1,0} parameter(3)
  dynamic-slice.234.1 = f64[1,120,20]{2,1,0} dynamic-slice(param_3.1047, param_2.1358, constant_2715_14, constant_2715_14), dynamic_slice_sizes={1,120,20}, metadata={op_name="jit(scan)/jit(main)/while/body/dynamic_slice[slice_sizes=(1, 120, 20)]" source_file="/fs04/fc37/adam/projects/psilocybin-prl-analyses/src/prl_hgf/fitting/hierarchical_patrl.py" source_line=378}
  multiply.1356.5 = f64[1,120,20]{2,1,0} multiply(broadcast.2135.7, dynamic-slice.234.1), metadata={op_name="jit(scan)/jit(main)/while/body/jit(beliefs_propagation)/jit(continuous_node_prediction)/jit(predict_precision)/mul" source_file="/fs04/fc37/adam/projects/psilocybin-prl-analyses/src/prl_hgf/fitting/hierarchical_patrl.py" source_line=362}
  add.823.7 = f64[1,120,20]{2,1,0} add(multiply.1355.9, multiply.1356.5), metadata={op_name="jit(scan)/jit(main)/while/body/jit(beliefs_propagation)/jit(continuous_node_prediction)/jit(predict_precision)/add_any" source_file="/fs04/fc37/adam/projects/psilocybin-prl-analyses/src/prl_hgf/fitting/hierarchical_patrl.py" source_line=362}
  negate.223.5 = f64[1,120,20]{2,1,0} negate(add.823.7), metadata={op_name="jit(scan)/jit(main)/while/body/jit(beliefs_propagation)/jit(continuous_node_prediction)/jit(predict_precision)/neg" source_file="/fs04/fc37/adam/projects/psilocybin-prl-analyses/src/prl_hgf/fitting/hierarchical_patrl.py" source_line=362}
  param_12.389 = f64[20]{0} parameter(12)
  select.407.5 = f64[20]{0} select(bitcast.4272.59, param_12.389, broadcast.2009.clone.88), metadata={op_name="jit(scan)/jit(main)/while/body/jit(_where)/select_n" source_file="/fs04/fc37/adam/projects/psilocybin-prl-analyses/src/prl_hgf/fitting/hierarchical_patrl.py" source_line=370}
  add.754.3 = f64[20]{0} add(select.407.5, param_11.406), metadata={op_name="jit(scan)/jit(main)/while/body/jit(beliefs_propagation)/add_any" source_file="/fs04/fc37/adam/projects/psilocybin-prl-analyses/src/prl_hgf/fitting/hierarchical_patrl.py" source_line=362}
  broadcast.2136.5 = f64[1,120,20]{2,1,0} broadcast(add.754.3), dimensions={2}, metadata={op_name="jit(scan)/jit(main)/while/body/jit(beliefs_propagation)/jit(continuous_node_prediction)/mul" source_file="/fs04/fc37/adam/projects/psilocybin-prl-analyses/src/prl_hgf/fitting/hierarchical_patrl.py" source_line=362}
  param_1.1725 = f64[192,120,20]{2,1,0} parameter(1)
  dynamic-slice.235.7 = f64[1,120,20]{2,1,0} dynamic-slice(param_1.1725, param_2.1358, constant_2715_14, constant_2715_14), dynamic_slice_sizes={1,120,20}, metadata={op_name="jit(scan)/jit(main)/while/body/dynamic_slice[slice_sizes=(1, 120, 20)]" source_file="/fs04/fc37/adam/projects/psilocybin-prl-analyses/src/prl_hgf/fitting/hierarchical_patrl.py" source_line=378}
  multiply.1357.7 = f64[1,120,20]{2,1,0} multiply(broadcast.2136.5, dynamic-slice.235.7), metadata={op_name="jit(scan)/jit(main)/while/body/jit(beliefs_propagation)/jit(continuous_node_prediction)/mul" source_file="/fs04/fc37/adam/projects/psilocybin-prl-analyses/src/prl_hgf/fitting/hierarchical_patrl.py" source_line=362}
  negate.224.5 = f64[1,120,20]{2,1,0} negate(multiply.1357.7), metadata={op_name="jit(scan)/jit(main)/while/body/jit(beliefs_propagation)/jit(continuous_node_prediction)/neg" source_file="/fs04/fc37/adam/projects/psilocybin-prl-analyses/src/prl_hgf/fitting/hierarchical_patrl.py" source_line=362}
  add.824.3 = f64[1,120,20]{2,1,0} add(negate.223.5, negate.224.5), metadata={op_name="jit(scan)/jit(main)/while/body/jit(beliefs_propagation)/jit(continuous_node_prediction)/add_any" source_file="/fs04/fc37/adam/projects/psilocybin-prl-analyses/src/prl_hgf/fitting/hierarchical_patrl.py" source_line=362}
  add.825.3 = f64[1,120,20]{2,1,0} add(select.426.5, add.824.3), metadata={op_name="jit(scan)/jit(main)/while/body/jit(beliefs_propagation)/add_any" source_file="/fs04/fc37/adam/projects/psilocybin-prl-analyses/src/prl_hgf/fitting/hierarchical_patrl.py" source_line=362}
  add.826.1 = f64[1,120,20]{2,1,0} add(select.424.3, add.825.3), metadata={op_name="jit(scan)/jit(main)/while/body/add_any" source_file="/fs04/fc37/adam/projects/psilocybin-prl-analyses/src/prl_hgf/fitting/hierarchical_patrl.py" source_line=362}
  param_38.115 = f64[120,1,20]{2,0,1} parameter(38)
  bitcast.6710.8.clone.1 = f64[1,120,20]{2,1,0} bitcast(param_38.115)
  select.428.3.clone.1 = f64[1,120,20]{2,1,0} select(broadcast.2012.21, bitcast.6710.8.clone.1, broadcast.2013.15), metadata={op_name="jit(scan)/jit(main)/while/body/jit(_where)/select_n" source_file="/fs04/fc37/adam/projects/psilocybin-prl-analyses/src/prl_hgf/fitting/hierarchical_patrl.py" source_line=370}
  select.429.5.clone.1 = f64[1,120,20]{2,1,0} select(broadcast.2012.21, broadcast.2013.15, bitcast.6710.8.clone.1), metadata={op_name="jit(scan)/jit(main)/while/body/jit(_where)/select_n" source_file="/fs04/fc37/adam/projects/psilocybin-prl-analyses/src/prl_hgf/fitting/hierarchical_patrl.py" source_line=370}
  add.827.3.clone.1 = f64[1,120,20]{2,1,0} add(select.428.3.clone.1, select.429.5.clone.1), metadata={op_name="jit(scan)/jit(main)/while/body/add_any" source_file="/fs04/fc37/adam/projects/psilocybin-prl-analyses/src/prl_hgf/fitting/hierarchical_patrl.py" source_line=370}
  param_37.130 = f64[192,20]{1,0} parameter(37)
  dynamic-slice.197.1.clone.1 = f64[1,20]{1,0} dynamic-slice(param_37.130, param_2.1358, constant_2715_14), dynamic_slice_sizes={1,20}, metadata={op_name="jit(scan)/jit(main)/while/body/dynamic_slice[slice_sizes=(1, 20)]" source_file="/fs04/fc37/adam/projects/psilocybin-prl-analyses/src/prl_hgf/fitting/hierarchical_patrl.py" source_line=378}
  bitcast.6733.11.clone.1 = f64[20]{0} bitcast(dynamic-slice.197.1.clone.1)
  broadcast.2142.11.clone.1 = f64[1,120,20]{2,1,0} broadcast(bitcast.6733.11.clone.1), dimensions={2}, metadata={op_name="jit(scan)/jit(main)/while/body/jit(beliefs_propagation)/jit(continuous_node_posterior_update_ehgf)/jit(posterior_update_precision_continuous_node)/jit(precision_update_missing_values)/mul" source_file="/fs04/fc37/adam/projects/psilocybin-prl-analyses/src/prl_hgf/fitting/hierarchical_patrl.py" source_line=362}
  multiply.1358.9.clone.1 = f64[1,120,20]{2,1,0} multiply(broadcast.2142.11.clone.1, negate.219.5), metadata={op_name="jit(scan)/jit(main)/while/body/jit(beliefs_propagation)/jit(continuous_node_posterior_update_ehgf)/jit(posterior_update_precision_continuous_node)/jit(precision_update_missing_values)/mul" source_file="/fs04/fc37/adam/projects/psilocybin-prl-analyses/src/prl_hgf/fitting/hierarchical_patrl.py" source_line=362}
  param_36.160 = f64[192,20]{1,0} parameter(36)
  dynamic-slice.198.1.clone.1 = f64[1,20]{1,0} dynamic-slice(param_36.160, param_2.1358, constant_2715_14), dynamic_slice_sizes={1,20}, metadata={op_name="jit(scan)/jit(main)/while/body/dynamic_slice[slice_sizes=(1, 20)]" source_file="/fs04/fc37/adam/projects/psilocybin-prl-analyses/src/prl_hgf/fitting/hierarchical_patrl.py" source_line=378}
  bitcast.6741.3.clone.1 = f64[20]{0} bitcast(dynamic-slice.198.1.clone.1)
  broadcast.2143.3.clone.1 = f64[1,120,20]{2,1,0} broadcast(bitcast.6741.3.clone.1), dimensions={2}, metadata={op_name="jit(scan)/jit(main)/while/body/jit(beliefs_propagation)/jit(continuous_node_posterior_update_ehgf)/jit(posterior_update_precision_continuous_node)/jit(precision_update_missing_values)/mul" source_file="/fs04/fc37/adam/projects/psilocybin-prl-analyses/src/prl_hgf/fitting/hierarchical_patrl.py" source_line=362}
  multiply.1359.7.clone.1 = f64[1,120,20]{2,1,0} multiply(multiply.1358.9.clone.1, broadcast.2143.3.clone.1), metadata={op_name="jit(scan)/jit(main)/while/body/jit(beliefs_propagation)/jit(continuous_node_posterior_update_ehgf)/jit(posterior_update_precision_continuous_node)/jit(precision_update_missing_values)/mul" source_file="/fs04/fc37/adam/projects/psilocybin-prl-analyses/src/prl_hgf/fitting/hierarchical_patrl.py" source_line=362}
  multiply.1256.3.clone.1 = f64[1,20]{1,0} multiply(dynamic-slice.197.1.clone.1, negate.204.3), metadata={op_name="jit(scan)/jit(main)/while/body/jit(beliefs_propagation)/jit(continuous_node_posterior_update_ehgf)/jit(posterior_update_precision_continuous_node)/jit(precision_update_missing_values)/mul" source_file="/fs04/fc37/adam/projects/psilocybin-prl-analyses/src/prl_hgf/fitting/hierarchical_patrl.py" source_line=362}
  bitcast.6747.3.clone.1 = f64[20]{0} bitcast(multiply.1256.3.clone.1)
  broadcast.2144.3.clone.1 = f64[1,120,20]{2,1,0} broadcast(bitcast.6747.3.clone.1), dimensions={2}, metadata={op_name="jit(scan)/jit(main)/while/body/jit(beliefs_propagation)/jit(continuous_node_posterior_update_ehgf)/jit(posterior_update_precision_continuous_node)/jit(precision_update_missing_values)/mul" source_file="/fs04/fc37/adam/projects/psilocybin-prl-analyses/src/prl_hgf/fitting/hierarchical_patrl.py" source_line=362}
  param_35.145 = f64[192,120,20]{2,1,0} parameter(35)
  dynamic-slice.236.1.clone.1 = f64[1,120,20]{2,1,0} dynamic-slice(param_35.145, param_2.1358, constant_2715_14, constant_2715_14), dynamic_slice_sizes={1,120,20}, metadata={op_name="jit(scan)/jit(main)/while/body/dynamic_slice[slice_sizes=(1, 120, 20)]" source_file="/fs04/fc37/adam/projects/psilocybin-prl-analyses/src/prl_hgf/fitting/hierarchical_patrl.py" source_line=378}
  multiply.1360.5.clone.1 = f64[1,120,20]{2,1,0} multiply(broadcast.2144.3.clone.1, dynamic-slice.236.1.clone.1), metadata={op_name="jit(scan)/jit(main)/while/body/jit(beliefs_propagation)/jit(continuous_node_posterior_update_ehgf)/jit(posterior_update_precision_continuous_node)/jit(precision_update_missing_values)/mul" source_file="/fs04/fc37/adam/projects/psilocybin-prl-analyses/src/prl_hgf/fitting/hierarchical_patrl.py" source_line=362}
  add.828.5.clone.1 = f64[1,120,20]{2,1,0} add(multiply.1359.7.clone.1, multiply.1360.5.clone.1), metadata={op_name="jit(scan)/jit(main)/while/body/jit(beliefs_propagation)/jit(continuous_node_posterior_update_ehgf)/jit(posterior_update_precision_continuous_node)/jit(precision_update_missing_values)/add_any" source_file="/fs04/fc37/adam/projects/psilocybin-prl-analyses/src/prl_hgf/fitting/hierarchical_patrl.py" source_line=362}
  select.430.5.clone.1 = f64[1,120,20]{2,1,0} select(broadcast.2118.11, add.828.5.clone.1, broadcast.2013.15), metadata={op_name="jit(scan)/jit(main)/while/body/jit(beliefs_propagation)/jit(continuous_node_posterior_update_ehgf)/jit(posterior_update_precision_continuous_node)/select_n" source_file="/fs04/fc37/adam/projects/psilocybin-prl-analyses/src/prl_hgf/fitting/hierarchical_patrl.py" source_line=362}
  param_34.164 = f64[192]{0} parameter(34)
  dynamic-slice.183.1.clone.1 = f64[1]{0} dynamic-slice(param_34.164, param_2.1358), dynamic_slice_sizes={1}, metadata={op_name="jit(scan)/jit(main)/while/body/dynamic_slice[slice_sizes=(1,)]" source_file="/fs04/fc37/adam/projects/psilocybin-prl-analyses/src/prl_hgf/fitting/hierarchical_patrl.py" source_line=378}
  bitcast.5397.18.clone.1 = f64[] bitcast(dynamic-slice.183.1.clone.1)
  broadcast.2106.17.clone.1 = f64[1,120,20]{2,1,0} broadcast(bitcast.5397.18.clone.1), dimensions={}, metadata={op_name="jit(scan)/jit(main)/while/body/jit(beliefs_propagation)/jit(continuous_node_prediction)/jit(predict_precision)/mul" source_file="/fs04/fc37/adam/projects/psilocybin-prl-analyses/src/prl_hgf/fitting/hierarchical_patrl.py" source_line=362}
  param_33.180 = pred[192,20]{1,0} parameter(33)
  dynamic-slice.199.1.clone.1 = pred[1,20]{1,0} dynamic-slice(param_33.180, param_2.1358, constant_2715_14), dynamic_slice_sizes={1,20}, metadata={op_name="jit(scan)/jit(main)/while/body/dynamic_slice[slice_sizes=(1, 20)]" source_file="/fs04/fc37/adam/projects/psilocybin-prl-analyses/src/prl_hgf/fitting/hierarchical_patrl.py" source_line=378}
  bitcast.6768.3.clone.1 = pred[20]{0} bitcast(dynamic-slice.199.1.clone.1)
  broadcast.2147.3.clone.1 = pred[1,120,20]{2,1,0} broadcast(bitcast.6768.3.clone.1), dimensions={2}, metadata={op_name="jit(scan)/jit(main)/while/body/jit(beliefs_propagation)/jit(continuous_node_posterior_update_ehgf)/jit(posterior_update_precision_continuous_node)/jit(precision_update)/jit(_where)/broadcast_in_dim[shape=(120, 1, 20) broadcast_dimensions=(np.int64(1), np.int64(2))]" source_file="/fs04/fc37/adam/projects/psilocybin-prl-analyses/src/prl_hgf/env/pat_rl_simulator.py" source_line=92}
  param_32.161 = f64[192,120,20]{2,1,0} parameter(32)
  dynamic-slice.237.1.clone.1 = f64[1,120,20]{2,1,0} dynamic-slice(param_32.161, param_2.1358, constant_2715_14, constant_2715_14), dynamic_slice_sizes={1,120,20}, metadata={op_name="jit(scan)/jit(main)/while/body/dynamic_slice[slice_sizes=(1, 120, 20)]" source_file="/fs04/fc37/adam/projects/psilocybin-prl-analyses/src/prl_hgf/fitting/hierarchical_patrl.py" source_line=378}
  multiply.1361.7.clone.1 = f64[1,120,20]{2,1,0} multiply(broadcast.2131.14, dynamic-slice.237.1.clone.1), metadata={op_name="jit(scan)/jit(main)/while/body/jit(beliefs_propagation)/jit(continuous_node_prediction)/jit(predict_precision)/mul" source_file="/fs04/fc37/adam/projects/psilocybin-prl-analyses/src/prl_hgf/fitting/hierarchical_patrl.py" source_line=362}
  add.829.5.clone.1 = f64[1,120,20]{2,1,0} add(negate.222.5, multiply.1361.7.clone.1), metadata={op_name="jit(scan)/jit(main)/while/body/jit(beliefs_propagation)/jit(continuous_node_prediction)/jit(predict_precision)/add_any" source_file="/fs04/fc37/adam/projects/psilocybin-prl-analyses/src/prl_hgf/fitting/hierarchical_patrl.py" source_line=362}
  select.431.9.clone.1 = f64[1,120,20]{2,1,0} select(broadcast.2147.3.clone.1, add.829.5.clone.1, broadcast.2013.15), metadata={op_name="jit(scan)/jit(main)/while/body/jit(beliefs_propagation)/jit(continuous_node_posterior_update_ehgf)/jit(posterior_update_precision_continuous_node)/jit(precision_update)/jit(_where)/select_n" source_file="/fs04/fc37/adam/projects/psilocybin-prl-analyses/src/prl_hgf/env/pat_rl_simulator.py" source_line=92}
  multiply.1362.9.clone.1 = f64[1,120,20]{2,1,0} multiply(broadcast.2106.17.clone.1, select.431.9.clone.1), metadata={op_name="jit(scan)/jit(main)/while/body/jit(beliefs_propagation)/jit(continuous_node_prediction)/jit(predict_precision)/mul" source_file="/fs04/fc37/adam/projects/psilocybin-prl-analyses/src/prl_hgf/fitting/hierarchical_patrl.py" source_line=362}
  param_31.158 = f64[192,20]{1,0} parameter(31)
  dynamic-slice.201.1.clone.1 = f64[1,20]{1,0} dynamic-slice(param_31.158, param_2.1358, constant_2715_14), dynamic_slice_sizes={1,20}, metadata={op_name="jit(scan)/jit(main)/while/body/dynamic_slice[slice_sizes=(1, 20)]" source_file="/fs04/fc37/adam/projects/psilocybin-prl-analyses/src/prl_hgf/fitting/hierarchical_patrl.py" source_line=378}
  bitcast.6791.3.clone.1 = f64[20]{0} bitcast(dynamic-slice.201.1.clone.1)
  broadcast.2149.3.clone.1 = f64[1,120,20]{2,1,0} broadcast(bitcast.6791.3.clone.1), dimensions={2}, metadata={op_name="jit(scan)/jit(main)/while/body/jit(beliefs_propagation)/jit(continuous_node_prediction)/jit(predict_precision)/mul" source_file="/fs04/fc37/adam/projects/psilocybin-prl-analyses/src/prl_hgf/fitting/hierarchical_patrl.py" source_line=362}
  multiply.1363.7.clone.1 = f64[1,120,20]{2,1,0} multiply(multiply.1362.9.clone.1, broadcast.2149.3.clone.1), metadata={op_name="jit(scan)/jit(main)/while/body/jit(beliefs_propagation)/jit(continuous_node_prediction)/jit(predict_precision)/mul" source_file="/fs04/fc37/adam/projects/psilocybin-prl-analyses/src/prl_hgf/fitting/hierarchical_patrl.py" source_line=362}
  broadcast.2049.13.clone.1 = f64[1,20]{1,0} broadcast(bitcast.5397.18.clone.1), dimensions={}, metadata={op_name="jit(scan)/jit(main)/while/body/jit(beliefs_propagation)/jit(continuous_node_prediction)/jit(predict_precision)/mul" source_file="/fs04/fc37/adam/projects/psilocybin-prl-analyses/src/prl_hgf/fitting/hierarchical_patrl.py" source_line=362}
  param_30.146 = f64[192,20]{1,0} parameter(30)
  dynamic-slice.200.3.clone.1 = f64[1,20]{1,0} dynamic-slice(param_30.146, param_2.1358, constant_2715_14), dynamic_slice_sizes={1,20}, metadata={op_name="jit(scan)/jit(main)/while/body/dynamic_slice[slice_sizes=(1, 20)]" source_file="/fs04/fc37/adam/projects/psilocybin-prl-analyses/src/prl_hgf/fitting/hierarchical_patrl.py" source_line=378}
  bitcast.5743.9.clone.1 = f64[20]{0} bitcast(dynamic-slice.200.3.clone.1)
  multiply.1258.9.clone.1 = f64[20]{0} multiply(add.752.17, bitcast.5743.9.clone.1), metadata={op_name="jit(scan)/jit(main)/while/body/jit(beliefs_propagation)/jit(continuous_node_prediction)/jit(predict_precision)/mul" source_file="/fs04/fc37/adam/projects/psilocybin-prl-analyses/src/prl_hgf/fitting/hierarchical_patrl.py" source_line=362}
  bitcast.5746.7.clone.1 = f64[1,20]{1,0} bitcast(multiply.1258.9.clone.1)
  add.760.7.clone.1 = f64[1,20]{1,0} add(negate.207.3, bitcast.5746.7.clone.1), metadata={op_name="jit(scan)/jit(main)/while/body/jit(beliefs_propagation)/jit(continuous_node_prediction)/jit(predict_precision)/add_any" source_file="/fs04/fc37/adam/projects/psilocybin-prl-analyses/src/prl_hgf/fitting/hierarchical_patrl.py" source_line=362}
  select.413.5.clone.1 = f64[1,20]{1,0} select(dynamic-slice.199.1.clone.1, add.760.7.clone.1, broadcast.2010.clone.105), metadata={op_name="jit(scan)/jit(main)/while/body/jit(beliefs_propagation)/jit(continuous_node_posterior_update_ehgf)/jit(posterior_update_precision_continuous_node)/jit(precision_update)/jit(_where)/select_n" source_file="/fs04/fc37/adam/projects/psilocybin-prl-analyses/src/prl_hgf/env/pat_rl_simulator.py" source_line=92}
  multiply.1260.3.clone.1 = f64[1,20]{1,0} multiply(broadcast.2049.13.clone.1, select.413.5.clone.1), metadata={op_name="jit(scan)/jit(main)/while/body/jit(beliefs_propagation)/jit(continuous_node_prediction)/jit(predict_precision)/mul" source_file="/fs04/fc37/adam/projects/psilocybin-prl-analyses/src/prl_hgf/fitting/hierarchical_patrl.py" source_line=362}
  bitcast.6797.9.clone.1 = f64[20]{0} bitcast(multiply.1260.3.clone.1)
  broadcast.2150.9.clone.1 = f64[1,120,20]{2,1,0} broadcast(bitcast.6797.9.clone.1), dimensions={2}, metadata={op_name="jit(scan)/jit(main)/while/body/jit(beliefs_propagation)/jit(continuous_node_prediction)/jit(predict_precision)/mul" source_file="/fs04/fc37/adam/projects/psilocybin-prl-analyses/src/prl_hgf/fitting/hierarchical_patrl.py" source_line=362}
  param_29.156 = f64[192,120,20]{2,1,0} parameter(29)
  dynamic-slice.238.1.clone.1 = f64[1,120,20]{2,1,0} dynamic-slice(param_29.156, param_2.1358, constant_2715_14, constant_2715_14), dynamic_slice_sizes={1,120,20}, metadata={op_name="jit(scan)/jit(main)/while/body/dynamic_slice[slice_sizes=(1, 120, 20)]" source_file="/fs04/fc37/adam/projects/psilocybin-prl-analyses/src/prl_hgf/fitting/hierarchical_patrl.py" source_line=378}
  multiply.1364.7.clone.1 = f64[1,120,20]{2,1,0} multiply(broadcast.2150.9.clone.1, dynamic-slice.238.1.clone.1), metadata={op_name="jit(scan)/jit(main)/while/body/jit(beliefs_propagation)/jit(continuous_node_prediction)/jit(predict_precision)/mul" source_file="/fs04/fc37/adam/projects/psilocybin-prl-analyses/src/prl_hgf/fitting/hierarchical_patrl.py" source_line=362}
  add.830.5.clone.1 = f64[1,120,20]{2,1,0} add(multiply.1363.7.clone.1, multiply.1364.7.clone.1), metadata={op_name="jit(scan)/jit(main)/while/body/jit(beliefs_propagation)/jit(continuous_node_prediction)/jit(predict_precision)/add_any" source_file="/fs04/fc37/adam/projects/psilocybin-prl-analyses/src/prl_hgf/fitting/hierarchical_patrl.py" source_line=362}
  add.831.3.clone.1 = f64[1,120,20]{2,1,0} add(select.430.5.clone.1, add.830.5.clone.1), metadata={op_name="jit(scan)/jit(main)/while/body/jit(beliefs_propagation)/add_any" source_file="/fs04/fc37/adam/projects/psilocybin-prl-analyses/src/prl_hgf/fitting/hierarchical_patrl.py" source_line=362}
  add.832.1.clone.1 = f64[1,120,20]{2,1,0} add(add.827.3.clone.1, add.831.3.clone.1), metadata={op_name="jit(scan)/jit(main)/while/body/add_any" source_file="/fs04/fc37/adam/projects/psilocybin-prl-analyses/src/prl_hgf/fitting/hierarchical_patrl.py" source_line=362}
  param_84.16 = f64[120,1,20]{2,0,1} parameter(84)
  bitcast.4806.7.clone.1 = f64[1,120,20]{2,1,0} bitcast(param_84.16)
  param_83.24 = f64[192,120,1,20]{3,1,2,0} parameter(83)
  bitcast.4810.5.clone.1 = f64[192,1,120,20]{3,2,1,0} bitcast(param_83.24)
  dynamic-slice.153.5.clone.1 = f64[1,1,120,20]{3,2,1,0} dynamic-slice(bitcast.4810.5.clone.1, param_2.1358, constant_2715_14, constant_2715_14, constant_2715_14), dynamic_slice_sizes={1,1,120,20}, metadata={op_name="jit(scan)/jit(main)/while/body/dynamic_slice[slice_sizes=(1, 120, 1, 20)]" source_file="/fs04/fc37/adam/projects/psilocybin-prl-analyses/src/prl_hgf/fitting/hierarchical_patrl.py" source_line=378}
  bitcast.4817.7.clone.1 = f64[1,120,20]{2,1,0} bitcast(dynamic-slice.153.5.clone.1)
  add.699.7.clone.1 = f64[1,120,20]{2,1,0} add(bitcast.4806.7.clone.1, bitcast.4817.7.clone.1), metadata={op_name="jit(scan)/jit(main)/while/body/add_any" source_file="/fs04/fc37/adam/projects/psilocybin-prl-analyses/src/prl_hgf/fitting/hierarchical_patrl.py" source_line=378}
  select.417.3.clone.1 = f64[1,120,20]{2,1,0} select(broadcast.2012.21, broadcast.2013.15, add.699.7.clone.1), metadata={op_name="jit(scan)/jit(main)/while/body/jit(_where)/select_n" source_file="/fs04/fc37/adam/projects/psilocybin-prl-analyses/src/prl_hgf/env/pat_rl_simulator.py" source_line=92}
  param_82.29 = f64[192,20]{1,0} parameter(82)
  dynamic-slice.159.1.clone.1 = f64[1,20]{1,0} dynamic-slice(param_82.29, param_2.1358, constant_2715_14), dynamic_slice_sizes={1,20}, metadata={op_name="jit(scan)/jit(main)/while/body/dynamic_slice[slice_sizes=(1, 20)]" source_file="/fs04/fc37/adam/projects/psilocybin-prl-analyses/src/prl_hgf/fitting/hierarchical_patrl.py" source_line=378}
  bitcast.5859.3.clone.1 = f64[20]{0} bitcast(dynamic-slice.159.1.clone.1)
  broadcast.2055.3.clone.1 = f64[1,120,20]{2,1,0} broadcast(bitcast.5859.3.clone.1), dimensions={2}, metadata={op_name="jit(scan)/jit(main)/while/body/jit(beliefs_propagation)/jit(continuous_node_prediction)/jit(predict_mean)/mul" source_file="/fs04/fc37/adam/projects/psilocybin-prl-analyses/src/prl_hgf/fitting/hierarchical_patrl.py" source_line=362}
  param_81.37 = f64[192,120,20]{2,1,0} parameter(81)
  dynamic-slice.152.5.clone.1 = f64[1,120,20]{2,1,0} dynamic-slice(param_81.37, param_2.1358, constant_2715_14, constant_2715_14), dynamic_slice_sizes={1,120,20}, metadata={op_name="jit(scan)/jit(main)/while/body/dynamic_slice[slice_sizes=(1, 120, 20)]" source_file="/fs04/fc37/adam/projects/psilocybin-prl-analyses/src/prl_hgf/fitting/hierarchical_patrl.py" source_line=378}
  param_68.96 = f64[1,20]{1,0} parameter(68)
  bitcast.4767.19.clone.1 = f64[20]{0} bitcast(param_68.96)
  broadcast.2032.19.clone.1 = f64[1,120,20]{2,1,0} broadcast(bitcast.4767.19.clone.1), dimensions={2}, metadata={op_name="jit(scan)/jit(main)/while/body/jit(beliefs_propagation)/jit(continuous_node_prediction_error)/jit(continuous_node_volatility_prediction_error)/mul" source_file="/fs04/fc37/adam/projects/psilocybin-prl-analyses/src/prl_hgf/fitting/hierarchical_patrl.py" source_line=362}
  multiply.1195.3.clone.1 = f64[1,120,20]{2,1,0} multiply(dynamic-slice.152.5.clone.1, broadcast.2032.19.clone.1), metadata={op_name="jit(scan)/jit(main)/while/body/jit(beliefs_propagation)/jit(continuous_node_prediction_error)/jit(continuous_node_volatility_prediction_error)/mul" source_file="/fs04/fc37/adam/projects/psilocybin-prl-analyses/src/prl_hgf/fitting/hierarchical_patrl.py" source_line=362}
  param_80.38 = f64[192,20]{1,0} parameter(80)
  dynamic-slice.139.6.clone.1 = f64[1,20]{1,0} dynamic-slice(param_80.38, param_2.1358, constant_2715_14), dynamic_slice_sizes={1,20}, metadata={op_name="jit(scan)/jit(main)/while/body/dynamic_slice[slice_sizes=(1, 20)]" source_file="/fs04/fc37/adam/projects/psilocybin-prl-analyses/src/prl_hgf/fitting/hierarchical_patrl.py" source_line=378}
  bitcast.4781.35.clone.1 = f64[20]{0} bitcast(dynamic-slice.139.6.clone.1)
  broadcast.2033.35.clone.1 = f64[1,120,20]{2,1,0} broadcast(bitcast.4781.35.clone.1), dimensions={2}, metadata={op_name="jit(scan)/jit(main)/while/body/jit(beliefs_propagation)/jit(continuous_node_prediction_error)/jit(continuous_node_volatility_prediction_error)/mul" source_file="/fs04/fc37/adam/projects/psilocybin-prl-analyses/src/prl_hgf/fitting/hierarchical_patrl.py" source_line=362}
  param_79.38 = f64[192,120,20]{2,1,0} parameter(79)
  dynamic-slice.147.3.clone.1 = f64[1,120,20]{2,1,0} dynamic-slice(param_79.38, param_2.1358, constant_2715_14, constant_2715_14), dynamic_slice_sizes={1,120,20}, metadata={op_name="jit(scan)/jit(main)/while/body/dynamic_slice[slice_sizes=(1, 120, 20)]" source_file="/fs04/fc37/adam/projects/psilocybin-prl-analyses/src/prl_hgf/fitting/hierarchical_patrl.py" source_line=378}
  param_75.38 = f64[1,20]{1,0} parameter(75)
  negate.191.22.clone.1 = f64[1,20]{1,0} negate(param_75.38), metadata={op_name="jit(scan)/jit(main)/while/body/jit(beliefs_propagation)/jit(continuous_node_posterior_update_ehgf)/jit(posterior_update_precision_continuous_node)/jit(precision_update)/neg" source_file="/fs04/fc37/adam/projects/psilocybin-prl-analyses/src/prl_hgf/fitting/hierarchical_patrl.py" source_line=362}
  bitcast.4636.21.clone.1 = f64[20]{0} bitcast(negate.191.22.clone.1)
  broadcast.2015.21.clone.1 = f64[1,120,20]{2,1,0} broadcast(bitcast.4636.21.clone.1), dimensions={2}, metadata={op_name="jit(scan)/jit(main)/while/body/jit(beliefs_propagation)/jit(continuous_node_posterior_update_ehgf)/jit(posterior_update_precision_continuous_node)/jit(precision_update)/mul" source_file="/fs04/fc37/adam/projects/psilocybin-prl-analyses/src/prl_hgf/fitting/hierarchical_patrl.py" source_line=362}
  multiply.1179.9.clone.1 = f64[1,120,20]{2,1,0} multiply(dynamic-slice.147.3.clone.1, broadcast.2015.21.clone.1), metadata={op_name="jit(scan)/jit(main)/while/body/jit(beliefs_propagation)/jit(continuous_node_posterior_update_ehgf)/jit(posterior_update_precision_continuous_node)/jit(precision_update)/mul" source_file="/fs04/fc37/adam/projects/psilocybin-prl-analyses/src/prl_hgf/fitting/hierarchical_patrl.py" source_line=362}
  param_78.45 = f64[192,20]{1,0} parameter(78)
  dynamic-slice.130.4.clone.1 = f64[1,20]{1,0} dynamic-slice(param_78.45, param_2.1358, constant_2715_14), dynamic_slice_sizes={1,20}, metadata={op_name="jit(scan)/jit(main)/while/body/dynamic_slice[slice_sizes=(1, 20)]" source_file="/fs04/fc37/adam/projects/psilocybin-prl-analyses/src/prl_hgf/fitting/hierarchical_patrl.py" source_line=378}
  bitcast.4642.5.clone.1 = f64[20]{0} bitcast(dynamic-slice.130.4.clone.1)
  broadcast.2016.5.clone.1 = f64[1,120,20]{2,1,0} broadcast(bitcast.4642.5.clone.1), dimensions={2}, metadata={op_name="jit(scan)/jit(main)/while/body/jit(beliefs_propagation)/jit(continuous_node_posterior_update_ehgf)/jit(posterior_update_precision_continuous_node)/jit(precision_update)/mul" source_file="/fs04/fc37/adam/projects/psilocybin-prl-analyses/src/prl_hgf/fitting/hierarchical_patrl.py" source_line=362}
  param_77.44 = f64[192,20]{1,0} parameter(77)
  dynamic-slice.133.25.clone.1 = f64[1,20]{1,0} dynamic-slice(param_77.44, param_2.1358, constant_2715_14), dynamic_slice_sizes={1,20}, metadata={op_name="jit(scan)/jit(main)/while/body/dynamic_slice[slice_sizes=(1, 20)]" source_file="/fs04/fc37/adam/projects/psilocybin-prl-analyses/src/prl_hgf/fitting/hierarchical_patrl.py" source_line=378}
  bitcast.4670.43.clone.1 = f64[20]{0} bitcast(dynamic-slice.133.25.clone.1)
  broadcast.2021.43.clone.1 = f64[1,120,20]{2,1,0} broadcast(bitcast.4670.43.clone.1), dimensions={2}, metadata={op_name="jit(scan)/jit(main)/while/body/jit(beliefs_propagation)/jit(continuous_node_posterior_update_ehgf)/jit(posterior_update_precision_continuous_node)/jit(precision_update)/mul" source_file="/fs04/fc37/adam/projects/psilocybin-prl-analyses/src/prl_hgf/fitting/hierarchical_patrl.py" source_line=362}
  multiply.1180.41.clone.1 = f64[1,120,20]{2,1,0} multiply(select.370.23, broadcast.2021.43.clone.1), metadata={op_name="jit(scan)/jit(main)/while/body/jit(beliefs_propagation)/jit(continuous_node_posterior_update_ehgf)/jit(posterior_update_precision_continuous_node)/jit(precision_update)/mul" source_file="/fs04/fc37/adam/projects/psilocybin-prl-analyses/src/prl_hgf/fitting/hierarchical_patrl.py" source_line=362}
  negate.194.13.clone.1 = f64[1,120,20]{2,1,0} negate(multiply.1180.41.clone.1), metadata={op_name="jit(scan)/jit(main)/while/body/jit(beliefs_propagation)/jit(continuous_node_posterior_update_ehgf)/jit(posterior_update_precision_continuous_node)/jit(precision_update)/neg" source_file="/fs04/fc37/adam/projects/psilocybin-prl-analyses/src/prl_hgf/fitting/hierarchical_patrl.py" source_line=362}
  multiply.1181.5.clone.1 = f64[1,120,20]{2,1,0} multiply(broadcast.2016.5.clone.1, negate.194.13.clone.1), metadata={op_name="jit(scan)/jit(main)/while/body/jit(beliefs_propagation)/jit(continuous_node_posterior_update_ehgf)/jit(posterior_update_precision_continuous_node)/jit(precision_update)/mul" source_file="/fs04/fc37/adam/projects/psilocybin-prl-analyses/src/prl_hgf/fitting/hierarchical_patrl.py" source_line=362}
  add.689.7.clone.1 = f64[1,120,20]{2,1,0} add(multiply.1179.9.clone.1, multiply.1181.5.clone.1), metadata={op_name="jit(scan)/jit(main)/while/body/jit(beliefs_propagation)/jit(continuous_node_posterior_update_ehgf)/jit(posterior_update_precision_continuous_node)/jit(precision_update)/add_any" source_file="/fs04/fc37/adam/projects/psilocybin-prl-analyses/src/prl_hgf/fitting/hierarchical_patrl.py" source_line=362}
  param_76.36 = f64[192,120,20]{2,1,0} parameter(76)
  dynamic-slice.148.3.clone.1 = f64[1,120,20]{2,1,0} dynamic-slice(param_76.36, param_2.1358, constant_2715_14, constant_2715_14), dynamic_slice_sizes={1,120,20}, metadata={op_name="jit(scan)/jit(main)/while/body/dynamic_slice[slice_sizes=(1, 120, 20)]" source_file="/fs04/fc37/adam/projects/psilocybin-prl-analyses/src/prl_hgf/fitting/hierarchical_patrl.py" source_line=378}
  bitcast.4686.19.clone.1 = f64[20]{0} bitcast(param_75.38)
  broadcast.2022.19.clone.1 = f64[1,120,20]{2,1,0} broadcast(bitcast.4686.19.clone.1), dimensions={2}, metadata={op_name="jit(scan)/jit(main)/while/body/jit(beliefs_propagation)/jit(continuous_node_posterior_update_ehgf)/jit(posterior_update_precision_continuous_node)/jit(precision_update)/mul" source_file="/fs04/fc37/adam/projects/psilocybin-prl-analyses/src/prl_hgf/fitting/hierarchical_patrl.py" source_line=362}
  multiply.1182.7.clone.1 = f64[1,120,20]{2,1,0} multiply(dynamic-slice.148.3.clone.1, broadcast.2022.19.clone.1), metadata={op_name="jit(scan)/jit(main)/while/body/jit(beliefs_propagation)/jit(continuous_node_posterior_update_ehgf)/jit(posterior_update_precision_continuous_node)/jit(precision_update)/mul" source_file="/fs04/fc37/adam/projects/psilocybin-prl-analyses/src/prl_hgf/fitting/hierarchical_patrl.py" source_line=362}
  param_74.54 = f64[192,20]{1,0} parameter(74)
  dynamic-slice.134.4.clone.1 = f64[1,20]{1,0} dynamic-slice(param_74.54, param_2.1358, constant_2715_14), dynamic_slice_sizes={1,20}, metadata={op_name="jit(scan)/jit(main)/while/body/dynamic_slice[slice_sizes=(1, 20)]" source_file="/fs04/fc37/adam/projects/psilocybin-prl-analyses/src/prl_hgf/fitting/hierarchical_patrl.py" source_line=378}
  bitcast.4692.5.clone.1 = f64[20]{0} bitcast(dynamic-slice.134.4.clone.1)
  broadcast.2023.5.clone.1 = f64[1,120,20]{2,1,0} broadcast(bitcast.4692.5.clone.1), dimensions={2}, metadata={op_name="jit(scan)/jit(main)/while/body/jit(beliefs_propagation)/jit(continuous_node_posterior_update_ehgf)/jit(posterior_update_precision_continuous_node)/jit(precision_update)/mul" source_file="/fs04/fc37/adam/projects/psilocybin-prl-analyses/src/prl_hgf/fitting/hierarchical_patrl.py" source_line=362}
  multiply.1183.7.clone.1 = f64[1,120,20]{2,1,0} multiply(broadcast.2023.5.clone.1, multiply.1180.41.clone.1), metadata={op_name="jit(scan)/jit(main)/while/body/jit(beliefs_propagation)/jit(continuous_node_posterior_update_ehgf)/jit(posterior_update_precision_continuous_node)/jit(precision_update)/mul" source_file="/fs04/fc37/adam/projects/psilocybin-prl-analyses/src/prl_hgf/fitting/hierarchical_patrl.py" source_line=362}
  add.690.5.clone.1 = f64[1,120,20]{2,1,0} add(multiply.1182.7.clone.1, multiply.1183.7.clone.1), metadata={op_name="jit(scan)/jit(main)/while/body/jit(beliefs_propagation)/jit(continuous_node_posterior_update_ehgf)/jit(posterior_update_precision_continuous_node)/jit(precision_update)/add_any" source_file="/fs04/fc37/adam/projects/psilocybin-prl-analyses/src/prl_hgf/fitting/hierarchical_patrl.py" source_line=362}
  add.691.5.clone.1 = f64[1,120,20]{2,1,0} add(add.689.7.clone.1, add.690.5.clone.1), metadata={op_name="jit(scan)/jit(main)/while/body/jit(beliefs_propagation)/jit(continuous_node_posterior_update_ehgf)/jit(posterior_update_precision_continuous_node)/jit(precision_update)/add_any" source_file="/fs04/fc37/adam/projects/psilocybin-prl-analyses/src/prl_hgf/fitting/hierarchical_patrl.py" source_line=362}
  select.371.5.clone.1 = f64[1,120,20]{2,1,0} select(broadcast.2014.29, add.691.5.clone.1, broadcast.2013.15), metadata={op_name="jit(scan)/jit(main)/while/body/jit(beliefs_propagation)/jit(continuous_node_posterior_update_ehgf)/jit(posterior_update_precision_continuous_node)/select_n" source_file="/fs04/fc37/adam/projects/psilocybin-prl-analyses/src/prl_hgf/fitting/hierarchical_patrl.py" source_line=362}
  param_73.78 = f64[192,120,20]{2,1,0} parameter(73)
  dynamic-slice.149.3.clone.1 = f64[1,120,20]{2,1,0} dynamic-slice(param_73.78, param_2.1358, constant_2715_14, constant_2715_14), dynamic_slice_sizes={1,120,20}, metadata={op_name="jit(scan)/jit(main)/while/body/dynamic_slice[slice_sizes=(1, 120, 20)]" source_file="/fs04/fc37/adam/projects/psilocybin-prl-analyses/src/prl_hgf/fitting/hierarchical_patrl.py" source_line=378}
  param_72.109 = f64[192,20]{1,0} parameter(72)
  dynamic-slice.137.27.clone.1 = f64[1,20]{1,0} dynamic-slice(param_72.109, param_2.1358, constant_2715_14), dynamic_slice_sizes={1,20}, metadata={op_name="jit(scan)/jit(main)/while/body/dynamic_slice[slice_sizes=(1, 20)]" source_file="/fs04/fc37/adam/projects/psilocybin-prl-analyses/src/prl_hgf/fitting/hierarchical_patrl.py" source_line=378}
  multiply.1170.17.clone.1 = f64[1,20]{1,0} multiply(multiply.1169.9, dynamic-slice.137.27.clone.1), metadata={op_name="jit(scan)/jit(main)/while/body/jit(beliefs_propagation)/jit(continuous_node_posterior_update_ehgf)/jit(posterior_update_mean_continuous_node)/mul" source_file="/fs04/fc37/adam/projects/psilocybin-prl-analyses/src/prl_hgf/fitting/hierarchical_patrl.py" source_line=362}
  bitcast.4710.29.clone.1 = f64[20]{0} bitcast(multiply.1170.17.clone.1)
  broadcast.2024.29.clone.1 = f64[1,120,20]{2,1,0} broadcast(bitcast.4710.29.clone.1), dimensions={2}, metadata={op_name="jit(scan)/jit(main)/while/body/jit(beliefs_propagation)/jit(continuous_node_posterior_update_ehgf)/jit(posterior_update_mean_continuous_node)/mul" source_file="/fs04/fc37/adam/projects/psilocybin-prl-analyses/src/prl_hgf/fitting/hierarchical_patrl.py" source_line=362}
  multiply.1184.7.clone.1 = f64[1,120,20]{2,1,0} multiply(dynamic-slice.149.3.clone.1, broadcast.2024.29.clone.1), metadata={op_name="jit(scan)/jit(main)/while/body/jit(beliefs_propagation)/jit(continuous_node_posterior_update_ehgf)/jit(posterior_update_mean_continuous_node)/mul" source_file="/fs04/fc37/adam/projects/psilocybin-prl-analyses/src/prl_hgf/fitting/hierarchical_patrl.py" source_line=362}
  param_71.90 = f64[192,20]{1,0} parameter(71)
  dynamic-slice.135.4.clone.1 = f64[1,20]{1,0} dynamic-slice(param_71.90, param_2.1358, constant_2715_14), dynamic_slice_sizes={1,20}, metadata={op_name="jit(scan)/jit(main)/while/body/dynamic_slice[slice_sizes=(1, 20)]" source_file="/fs04/fc37/adam/projects/psilocybin-prl-analyses/src/prl_hgf/fitting/hierarchical_patrl.py" source_line=378}
  bitcast.4716.5.clone.1 = f64[20]{0} bitcast(dynamic-slice.135.4.clone.1)
  broadcast.2025.5.clone.1 = f64[1,120,20]{2,1,0} broadcast(bitcast.4716.5.clone.1), dimensions={2}, metadata={op_name="jit(scan)/jit(main)/while/body/jit(beliefs_propagation)/jit(continuous_node_posterior_update_ehgf)/jit(posterior_update_mean_continuous_node)/mul" source_file="/fs04/fc37/adam/projects/psilocybin-prl-analyses/src/prl_hgf/fitting/hierarchical_patrl.py" source_line=362}
  bitcast.4738.13.clone.1 = f64[20]{0} bitcast(dynamic-slice.137.27.clone.1)
  broadcast.2029.13.clone.1 = f64[1,120,20]{2,1,0} broadcast(bitcast.4738.13.clone.1), dimensions={2}, metadata={op_name="jit(scan)/jit(main)/while/body/jit(beliefs_propagation)/jit(continuous_node_posterior_update_ehgf)/jit(posterior_update_mean_continuous_node)/mul" source_file="/fs04/fc37/adam/projects/psilocybin-prl-analyses/src/prl_hgf/fitting/hierarchical_patrl.py" source_line=362}
  multiply.1187.17.clone.1 = f64[1,120,20]{2,1,0} multiply(multiply.1185.33, broadcast.2029.13.clone.1), metadata={op_name="jit(scan)/jit(main)/while/body/jit(beliefs_propagation)/jit(continuous_node_posterior_update_ehgf)/jit(posterior_update_mean_continuous_node)/mul" source_file="/fs04/fc37/adam/projects/psilocybin-prl-analyses/src/prl_hgf/fitting/hierarchical_patrl.py" source_line=362}
  param_70.89 = f64[192,120,20]{2,1,0} parameter(70)
  dynamic-slice.150.13.clone.1 = f64[1,120,20]{2,1,0} dynamic-slice(param_70.89, param_2.1358, constant_2715_14, constant_2715_14), dynamic_slice_sizes={1,120,20}, metadata={op_name="jit(scan)/jit(main)/while/body/dynamic_slice[slice_sizes=(1, 120, 20)]" source_file="/fs04/fc37/adam/projects/psilocybin-prl-analyses/src/prl_hgf/fitting/hierarchical_patrl.py" source_line=378}
  multiply.1188.13.clone.1 = f64[1,120,20]{2,1,0} multiply(broadcast.2030.21, dynamic-slice.150.13.clone.1), metadata={op_name="jit(scan)/jit(main)/while/body/jit(beliefs_propagation)/jit(continuous_node_posterior_update_ehgf)/jit(posterior_update_mean_continuous_node)/mul" source_file="/fs04/fc37/adam/projects/psilocybin-prl-analyses/src/prl_hgf/fitting/hierarchical_patrl.py" source_line=362}
  add.692.15.clone.1 = f64[1,120,20]{2,1,0} add(multiply.1187.17.clone.1, multiply.1188.13.clone.1), metadata={op_name="jit(scan)/jit(main)/while/body/jit(beliefs_propagation)/jit(continuous_node_posterior_update_ehgf)/jit(posterior_update_mean_continuous_node)/add_any" source_file="/fs04/fc37/adam/projects/psilocybin-prl-analyses/src/prl_hgf/fitting/hierarchical_patrl.py" source_line=362}
  multiply.1189.5.clone.1 = f64[1,120,20]{2,1,0} multiply(broadcast.2025.5.clone.1, add.692.15.clone.1), metadata={op_name="jit(scan)/jit(main)/while/body/jit(beliefs_propagation)/jit(continuous_node_posterior_update_ehgf)/jit(posterior_update_mean_continuous_node)/mul" source_file="/fs04/fc37/adam/projects/psilocybin-prl-analyses/src/prl_hgf/fitting/hierarchical_patrl.py" source_line=362}
  add.693.5.clone.1 = f64[1,120,20]{2,1,0} add(multiply.1184.7.clone.1, multiply.1189.5.clone.1), metadata={op_name="jit(scan)/jit(main)/while/body/jit(beliefs_propagation)/jit(continuous_node_posterior_update_ehgf)/jit(posterior_update_mean_continuous_node)/add_any" source_file="/fs04/fc37/adam/projects/psilocybin-prl-analyses/src/prl_hgf/fitting/hierarchical_patrl.py" source_line=362}
  add.695.3.clone.1 = f64[1,120,20]{2,1,0} add(select.371.5.clone.1, add.693.5.clone.1), metadata={op_name="jit(scan)/jit(main)/while/body/jit(beliefs_propagation)/jit(continuous_node_posterior_update_ehgf)/add_any" source_file="/fs04/fc37/adam/projects/psilocybin-prl-analyses/src/prl_hgf/fitting/hierarchical_patrl.py" source_line=362}
  multiply.1197.25.clone.1 = f64[1,120,20]{2,1,0} multiply(broadcast.2033.35.clone.1, add.695.3.clone.1), metadata={op_name="jit(scan)/jit(main)/while/body/jit(beliefs_propagation)/jit(continuous_node_prediction_error)/jit(continuous_node_volatility_prediction_error)/mul" source_file="/fs04/fc37/adam/projects/psilocybin-prl-analyses/src/prl_hgf/fitting/hierarchical_patrl.py" source_line=362}
  add.700.23.clone.1 = f64[1,120,20]{2,1,0} add(multiply.1195.3.clone.1, multiply.1197.25.clone.1), metadata={op_name="jit(scan)/jit(main)/while/body/jit(beliefs_propagation)/jit(continuous_node_prediction_error)/jit(continuous_node_volatility_prediction_error)/add_any" source_file="/fs04/fc37/adam/projects/psilocybin-prl-analyses/src/prl_hgf/fitting/hierarchical_patrl.py" source_line=362}
  param_69.89 = f64[192,20]{1,0} parameter(69)
  dynamic-slice.140.3.clone.1 = f64[1,20]{1,0} dynamic-slice(param_69.89, param_2.1358, constant_2715_14), dynamic_slice_sizes={1,20}, metadata={op_name="jit(scan)/jit(main)/while/body/dynamic_slice[slice_sizes=(1, 20)]" source_file="/fs04/fc37/adam/projects/psilocybin-prl-analyses/src/prl_hgf/fitting/hierarchical_patrl.py" source_line=378}
  bitcast.4838.3.clone.1 = f64[20]{0} bitcast(dynamic-slice.140.3.clone.1)
  broadcast.2038.3.clone.1 = f64[1,120,20]{2,1,0} broadcast(bitcast.4838.3.clone.1), dimensions={2}, metadata={op_name="jit(scan)/jit(main)/while/body/jit(beliefs_propagation)/jit(continuous_node_prediction_error)/jit(continuous_node_volatility_prediction_error)/mul" source_file="/fs04/fc37/adam/projects/psilocybin-prl-analyses/src/prl_hgf/fitting/hierarchical_patrl.py" source_line=362}
  multiply.1198.21.clone.1 = f64[1,120,20]{2,1,0} multiply(add.700.23.clone.1, broadcast.2038.3.clone.1), metadata={op_name="jit(scan)/jit(main)/while/body/jit(beliefs_propagation)/jit(continuous_node_prediction_error)/jit(continuous_node_volatility_prediction_error)/mul" source_file="/fs04/fc37/adam/projects/psilocybin-prl-analyses/src/prl_hgf/fitting/hierarchical_patrl.py" source_line=362}
  multiply.1174.7.clone.1 = f64[1,20]{1,0} multiply(dynamic-slice.139.6.clone.1, param_68.96), metadata={op_name="jit(scan)/jit(main)/while/body/jit(beliefs_propagation)/jit(continuous_node_prediction_error)/jit(continuous_node_volatility_prediction_error)/mul" source_file="/fs04/fc37/adam/projects/psilocybin-prl-analyses/src/prl_hgf/fitting/hierarchical_patrl.py" source_line=362}
  bitcast.4844.5.clone.1 = f64[20]{0} bitcast(multiply.1174.7.clone.1)
  broadcast.2039.5.clone.1 = f64[1,120,20]{2,1,0} broadcast(bitcast.4844.5.clone.1), dimensions={2}, metadata={op_name="jit(scan)/jit(main)/while/body/jit(beliefs_propagation)/jit(continuous_node_prediction_error)/jit(continuous_node_volatility_prediction_error)/mul" source_file="/fs04/fc37/adam/projects/psilocybin-prl-analyses/src/prl_hgf/fitting/hierarchical_patrl.py" source_line=362}
  param_67.92 = f64[192,120,20]{2,1,0} parameter(67)
  dynamic-slice.154.3.clone.1 = f64[1,120,20]{2,1,0} dynamic-slice(param_67.92, param_2.1358, constant_2715_14, constant_2715_14), dynamic_slice_sizes={1,120,20}, metadata={op_name="jit(scan)/jit(main)/while/body/dynamic_slice[slice_sizes=(1, 120, 20)]" source_file="/fs04/fc37/adam/projects/psilocybin-prl-analyses/src/prl_hgf/fitting/hierarchical_patrl.py" source_line=378}
  multiply.1200.3.clone.1 = f64[1,120,20]{2,1,0} multiply(broadcast.2039.5.clone.1, dynamic-slice.154.3.clone.1), metadata={op_name="jit(scan)/jit(main)/while/body/jit(beliefs_propagation)/jit(continuous_node_prediction_error)/jit(continuous_node_volatility_prediction_error)/mul" source_file="/fs04/fc37/adam/projects/psilocybin-prl-analyses/src/prl_hgf/fitting/hierarchical_patrl.py" source_line=362}
  add.701.19.clone.1 = f64[1,120,20]{2,1,0} add(multiply.1198.21.clone.1, multiply.1200.3.clone.1), metadata={op_name="jit(scan)/jit(main)/while/body/jit(beliefs_propagation)/jit(continuous_node_prediction_error)/jit(continuous_node_volatility_prediction_error)/add_any" source_file="/fs04/fc37/adam/projects/psilocybin-prl-analyses/src/prl_hgf/fitting/hierarchical_patrl.py" source_line=362}
  negate.210.3.clone.1 = f64[1,120,20]{2,1,0} negate(add.701.19.clone.1), metadata={op_name="jit(scan)/jit(main)/while/body/jit(beliefs_propagation)/jit(continuous_node_prediction_error)/jit(continuous_node_value_prediction_error)/neg" source_file="/fs04/fc37/adam/projects/psilocybin-prl-analyses/src/prl_hgf/fitting/hierarchical_patrl.py" source_line=362}
  select.375.5.clone.1 = f64[1,120,20]{2,1,0} select(broadcast.2012.21, add.699.7.clone.1, broadcast.2013.15), metadata={op_name="jit(scan)/jit(main)/while/body/jit(_where)/select_n" source_file="/fs04/fc37/adam/projects/psilocybin-prl-analyses/src/prl_hgf/env/pat_rl_simulator.py" source_line=92}
  add.702.13.clone.1 = f64[1,120,20]{2,1,0} add(select.375.5.clone.1, add.701.19.clone.1), metadata={op_name="jit(scan)/jit(main)/while/body/jit(beliefs_propagation)/add_any" source_file="/fs04/fc37/adam/projects/psilocybin-prl-analyses/src/prl_hgf/fitting/hierarchical_patrl.py" source_line=362}
  add.769.7.clone.1 = f64[1,120,20]{2,1,0} add(negate.210.3.clone.1, add.702.13.clone.1), metadata={op_name="jit(scan)/jit(main)/while/body/jit(beliefs_propagation)/add_any" source_file="/fs04/fc37/adam/projects/psilocybin-prl-analyses/src/prl_hgf/fitting/hierarchical_patrl.py" source_line=362}
  param_66.92 = f64[192,120,20]{2,1,0} parameter(66)
  dynamic-slice.207.1.clone.1 = f64[1,120,20]{2,1,0} dynamic-slice(param_66.92, param_2.1358, constant_2715_14, constant_2715_14), dynamic_slice_sizes={1,120,20}, metadata={op_name="jit(scan)/jit(main)/while/body/dynamic_slice[slice_sizes=(1, 120, 20)]" source_file="/fs04/fc37/adam/projects/psilocybin-prl-analyses/src/prl_hgf/fitting/hierarchical_patrl.py" source_line=378}
  param_64.92 = f64[1,20]{1,0} parameter(64)
  param_65.83 = f64[192,1,20]{2,1,0} parameter(65)
  dynamic-slice.122.15.clone.1 = f64[1,1,20]{2,1,0} dynamic-slice(param_65.83, param_2.1358, constant_2715_14, constant_2715_14), dynamic_slice_sizes={1,1,20}, metadata={op_name="jit(scan)/jit(main)/while/body/dynamic_slice[slice_sizes=(1, 1, 20)]" source_file="/fs04/fc37/adam/projects/psilocybin-prl-analyses/src/prl_hgf/fitting/hierarchical_patrl.py" source_line=378}
  bitcast.4338.15.clone.1 = f64[1,20]{1,0} bitcast(dynamic-slice.122.15.clone.1)
  add.681.15.clone.1 = f64[1,20]{1,0} add(param_64.92, bitcast.4338.15.clone.1), metadata={op_name="jit(scan)/jit(main)/while/body/add_any" source_file="/fs04/fc37/adam/projects/psilocybin-prl-analyses/src/prl_hgf/fitting/hierarchical_patrl.py" source_line=378}
  select.363.13.clone.1 = f64[1,20]{1,0} select(dynamic-slice.121.7, add.681.15.clone.1, broadcast.2010.clone.105), metadata={op_name="jit(scan)/jit(main)/while/body/jit(_where)/select_n" source_file="/fs04/fc37/adam/projects/psilocybin-prl-analyses/src/prl_hgf/env/pat_rl_simulator.py" source_line=92}
  param_63.90 = f64[20]{0} parameter(63)
  select.366.17.clone.1 = f64[20]{0} select(bitcast.4272.59, param_63.90, broadcast.2009.clone.88), metadata={op_name="jit(scan)/jit(main)/while/body/jit(_where)/select_n" source_file="/fs04/fc37/adam/projects/psilocybin-prl-analyses/src/prl_hgf/env/pat_rl_simulator.py" source_line=92}
  bitcast.4539.15.clone.1 = f64[1,20]{1,0} bitcast(select.366.17.clone.1)
  multiply.1175.15.clone.1 = f64[1,20]{1,0} multiply(multiply.1174.7.clone.1, dynamic-slice.140.3.clone.1), metadata={op_name="jit(scan)/jit(main)/while/body/jit(beliefs_propagation)/jit(continuous_node_prediction_error)/jit(continuous_node_volatility_prediction_error)/mul" source_file="/fs04/fc37/adam/projects/psilocybin-prl-analyses/src/prl_hgf/fitting/hierarchical_patrl.py" source_line=362}
  add.686.15.clone.1 = f64[1,20]{1,0} add(bitcast.4539.15.clone.1, multiply.1175.15.clone.1), metadata={op_name="jit(scan)/jit(main)/while/body/jit(beliefs_propagation)/jit(continuous_node_prediction_error)/add_any" source_file="/fs04/fc37/adam/projects/psilocybin-prl-analyses/src/prl_hgf/fitting/hierarchical_patrl.py" source_line=362}
  add.687.11.clone.1 = f64[1,20]{1,0} add(select.363.13.clone.1, add.686.15.clone.1), metadata={op_name="jit(scan)/jit(main)/while/body/jit(beliefs_propagation)/add_any" source_file="/fs04/fc37/adam/projects/psilocybin-prl-analyses/src/prl_hgf/fitting/hierarchical_patrl.py" source_line=362}
  bitcast.4865.13.clone.1 = f64[20]{0} bitcast(add.687.11.clone.1)
  broadcast.2041.13.clone.1 = f64[1,120,20]{2,1,0} broadcast(bitcast.4865.13.clone.1), dimensions={2}, metadata={op_name="jit(scan)/jit(main)/while/body/jit(beliefs_propagation)/jit(continuous_node_posterior_update)/jit(posterior_update_mean_continuous_node)/mul" source_file="/fs04/fc37/adam/projects/psilocybin-prl-analyses/src/prl_hgf/fitting/hierarchical_patrl.py" source_line=362}
  multiply.1270.7.clone.1 = f64[1,120,20]{2,1,0} multiply(dynamic-slice.207.1.clone.1, broadcast.2041.13.clone.1), metadata={op_name="jit(scan)/jit(main)/while/body/jit(beliefs_propagation)/jit(continuous_node_posterior_update)/jit(posterior_update_mean_continuous_node)/mul" source_file="/fs04/fc37/adam/projects/psilocybin-prl-analyses/src/prl_hgf/fitting/hierarchical_patrl.py" source_line=362}
  param_62.95 = f64[192,20]{1,0} parameter(62)
  dynamic-slice.160.1.clone.1 = f64[1,20]{1,0} dynamic-slice(param_62.95, param_2.1358, constant_2715_14), dynamic_slice_sizes={1,20}, metadata={op_name="jit(scan)/jit(main)/while/body/dynamic_slice[slice_sizes=(1, 20)]" source_file="/fs04/fc37/adam/projects/psilocybin-prl-analyses/src/prl_hgf/fitting/hierarchical_patrl.py" source_line=378}
  bitcast.5880.3.clone.1 = f64[20]{0} bitcast(dynamic-slice.160.1.clone.1)
  broadcast.2056.3.clone.1 = f64[1,120,20]{2,1,0} broadcast(bitcast.5880.3.clone.1), dimensions={2}, metadata={op_name="jit(scan)/jit(main)/while/body/jit(beliefs_propagation)/jit(continuous_node_posterior_update)/jit(posterior_update_mean_continuous_node)/mul" source_file="/fs04/fc37/adam/projects/psilocybin-prl-analyses/src/prl_hgf/fitting/hierarchical_patrl.py" source_line=362}
  multiply.1271.3.clone.1 = f64[1,120,20]{2,1,0} multiply(broadcast.2056.3.clone.1, add.702.13.clone.1), metadata={op_name="jit(scan)/jit(main)/while/body/jit(beliefs_propagation)/jit(continuous_node_posterior_update)/jit(posterior_update_mean_continuous_node)/mul" source_file="/fs04/fc37/adam/projects/psilocybin-prl-analyses/src/prl_hgf/fitting/hierarchical_patrl.py" source_line=362}
  add.770.5.clone.1 = f64[1,120,20]{2,1,0} add(multiply.1270.7.clone.1, multiply.1271.3.clone.1), metadata={op_name="jit(scan)/jit(main)/while/body/jit(beliefs_propagation)/jit(continuous_node_posterior_update)/jit(posterior_update_mean_continuous_node)/add_any" source_file="/fs04/fc37/adam/projects/psilocybin-prl-analyses/src/prl_hgf/fitting/hierarchical_patrl.py" source_line=362}
  param_61.87 = f64[192]{0} parameter(61)
  dynamic-slice.161.1.clone.1 = f64[1]{0} dynamic-slice(param_61.87, param_2.1358), dynamic_slice_sizes={1}, metadata={op_name="jit(scan)/jit(main)/while/body/dynamic_slice[slice_sizes=(1,)]" source_file="/fs04/fc37/adam/projects/psilocybin-prl-analyses/src/prl_hgf/fitting/hierarchical_patrl.py" source_line=378}
  bitcast.5012.4.clone.1 = f64[] bitcast(dynamic-slice.161.1.clone.1)
  broadcast.2057.3.clone.1 = f64[1,120,20]{2,1,0} broadcast(bitcast.5012.4.clone.1), dimensions={}, metadata={op_name="jit(scan)/jit(main)/while/body/jit(beliefs_propagation)/jit(continuous_node_posterior_update)/jit(posterior_update_mean_continuous_node)/mul" source_file="/fs04/fc37/adam/projects/psilocybin-prl-analyses/src/prl_hgf/fitting/hierarchical_patrl.py" source_line=362}
  multiply.1272.3.clone.1 = f64[1,120,20]{2,1,0} multiply(add.770.5.clone.1, broadcast.2057.3.clone.1), metadata={op_name="jit(scan)/jit(main)/while/body/jit(beliefs_propagation)/jit(continuous_node_posterior_update)/jit(posterior_update_mean_continuous_node)/mul" source_file="/fs04/fc37/adam/projects/psilocybin-prl-analyses/src/prl_hgf/fitting/hierarchical_patrl.py" source_line=362}
  param_60.87 = f64[192,20]{1,0} parameter(60)
  dynamic-slice.162.3.clone.1 = f64[1,20]{1,0} dynamic-slice(param_60.87, param_2.1358, constant_2715_14), dynamic_slice_sizes={1,20}, metadata={op_name="jit(scan)/jit(main)/while/body/dynamic_slice[slice_sizes=(1, 20)]" source_file="/fs04/fc37/adam/projects/psilocybin-prl-analyses/src/prl_hgf/fitting/hierarchical_patrl.py" source_line=378}
  bitcast.5895.11.clone.1 = f64[20]{0} bitcast(dynamic-slice.162.3.clone.1)
  broadcast.2058.11.clone.1 = f64[1,120,20]{2,1,0} broadcast(bitcast.5895.11.clone.1), dimensions={2}, metadata={op_name="jit(scan)/jit(main)/while/body/jit(beliefs_propagation)/jit(binary_state_node_prediction_error)/div" source_file="/fs04/fc37/adam/projects/psilocybin-prl-analyses/src/prl_hgf/fitting/hierarchical_patrl.py" source_line=362}
  divide.55.9.clone.1 = f64[1,120,20]{2,1,0} divide(multiply.1272.3.clone.1, broadcast.2058.11.clone.1), metadata={op_name="jit(scan)/jit(main)/while/body/jit(beliefs_propagation)/jit(binary_state_node_prediction_error)/div" source_file="/fs04/fc37/adam/projects/psilocybin-prl-analyses/src/prl_hgf/fitting/hierarchical_patrl.py" source_line=362}
  param_59.79 = f64[192,120,20]{2,1,0} parameter(59)
  dynamic-slice.208.1.clone.1 = f64[1,120,20]{2,1,0} dynamic-slice(param_59.79, param_2.1358, constant_2715_14, constant_2715_14), dynamic_slice_sizes={1,120,20}, metadata={op_name="jit(scan)/jit(main)/while/body/dynamic_slice[slice_sizes=(1, 120, 20)]" source_file="/fs04/fc37/adam/projects/psilocybin-prl-analyses/src/prl_hgf/fitting/hierarchical_patrl.py" source_line=378}
  negate.211.3.clone.1 = f64[1,120,20]{2,1,0} negate(dynamic-slice.208.1.clone.1), metadata={op_name="jit(scan)/jit(main)/while/body/jit(beliefs_propagation)/jit(binary_state_node_prediction_error)/neg" source_file="/fs04/fc37/adam/projects/psilocybin-prl-analyses/src/prl_hgf/fitting/hierarchical_patrl.py" source_line=362}
  param_58.91 = f64[20]{0} parameter(58)
  select.378.9.clone.1 = f64[20]{0} select(bitcast.4272.59, param_58.91, broadcast.2009.clone.88), metadata={op_name="jit(scan)/jit(main)/while/body/jit(_where)/select_n" source_file="/fs04/fc37/adam/projects/psilocybin-prl-analyses/src/prl_hgf/env/pat_rl_simulator.py" source_line=92}
  bitcast.4995.7.clone.1 = f64[1,20]{1,0} bitcast(select.378.9.clone.1)
  multiply.1210.7.clone.1 = f64[1,20]{1,0} multiply(dynamic-slice.160.1.clone.1, add.687.11.clone.1), metadata={op_name="jit(scan)/jit(main)/while/body/jit(beliefs_propagation)/jit(continuous_node_posterior_update)/jit(posterior_update_mean_continuous_node)/mul" source_file="/fs04/fc37/adam/projects/psilocybin-prl-analyses/src/prl_hgf/fitting/hierarchical_patrl.py" source_line=362}
  broadcast.2046.11.clone.1 = f64[1,20]{1,0} broadcast(bitcast.5012.4.clone.1), dimensions={}, metadata={op_name="jit(scan)/jit(main)/while/body/jit(beliefs_propagation)/jit(continuous_node_posterior_update)/jit(posterior_update_mean_continuous_node)/mul" source_file="/fs04/fc37/adam/projects/psilocybin-prl-analyses/src/prl_hgf/fitting/hierarchical_patrl.py" source_line=362}
  multiply.1211.9.clone.1 = f64[1,20]{1,0} multiply(multiply.1210.7.clone.1, broadcast.2046.11.clone.1), metadata={op_name="jit(scan)/jit(main)/while/body/jit(beliefs_propagation)/jit(continuous_node_posterior_update)/jit(posterior_update_mean_continuous_node)/mul" source_file="/fs04/fc37/adam/projects/psilocybin-prl-analyses/src/prl_hgf/fitting/hierarchical_patrl.py" source_line=362}
  bitcast.5091.47.clone.1 = f64[1,20]{1,0} bitcast(param_11.406)
  add.711.9.clone.1 = f64[1,20]{1,0} add(multiply.1211.9.clone.1, bitcast.5091.47.clone.1), metadata={op_name="jit(scan)/jit(main)/while/body/jit(beliefs_propagation)/jit(continuous_node_posterior_update)/add_any" source_file="/fs04/fc37/adam/projects/psilocybin-prl-analyses/src/prl_hgf/fitting/hierarchical_patrl.py" source_line=362}
  add.712.7.clone.1 = f64[1,20]{1,0} add(bitcast.4995.7.clone.1, add.711.9.clone.1), metadata={op_name="jit(scan)/jit(main)/while/body/jit(beliefs_propagation)/add_any" source_file="/fs04/fc37/adam/projects/psilocybin-prl-analyses/src/prl_hgf/fitting/hierarchical_patrl.py" source_line=362}
  bitcast.5909.17.clone.1 = f64[20]{0} bitcast(add.712.7.clone.1)
  broadcast.2059.17.clone.1 = f64[1,120,20]{2,1,0} broadcast(bitcast.5909.17.clone.1), dimensions={2}, metadata={op_name="jit(scan)/jit(main)/while/body/jit(beliefs_propagation)/jit(binary_state_node_prediction_error)/mul" source_file="/fs04/fc37/adam/projects/psilocybin-prl-analyses/src/prl_hgf/fitting/hierarchical_patrl.py" source_line=362}
  multiply.1274.3.clone.1 = f64[1,120,20]{2,1,0} multiply(negate.211.3.clone.1, broadcast.2059.17.clone.1), metadata={op_name="jit(scan)/jit(main)/while/body/jit(beliefs_propagation)/jit(binary_state_node_prediction_error)/mul" source_file="/fs04/fc37/adam/projects/psilocybin-prl-analyses/src/prl_hgf/fitting/hierarchical_patrl.py" source_line=362}
  constant_137_2_clone_1 = f64[] constant(1)
  broadcast.2060.clone.5.clone.1 = f64[1,20]{1,0} broadcast(constant_137_2_clone_1), dimensions={}
  multiply.1275.5.clone.1 = f64[1,20]{1,0} multiply(dynamic-slice.162.3.clone.1, dynamic-slice.162.3.clone.1), metadata={op_name="jit(scan)/jit(main)/while/body/jit(beliefs_propagation)/jit(binary_state_node_prediction_error)/mul" source_file="/fs04/fc37/adam/projects/psilocybin-prl-analyses/src/prl_hgf/fitting/hierarchical_patrl.py" source_line=362}
  divide.56.3.clone.1 = f64[1,20]{1,0} divide(broadcast.2060.clone.5.clone.1, multiply.1275.5.clone.1), metadata={op_name="jit(scan)/jit(main)/while/body/jit(beliefs_propagation)/jit(binary_state_node_prediction_error)/div" source_file="/fs04/fc37/adam/projects/psilocybin-prl-analyses/src/prl_hgf/fitting/hierarchical_patrl.py" source_line=362}
  bitcast.5919.3.clone.1 = f64[20]{0} bitcast(divide.56.3.clone.1)
  broadcast.2061.3.clone.1 = f64[1,120,20]{2,1,0} broadcast(bitcast.5919.3.clone.1), dimensions={2}, metadata={op_name="jit(scan)/jit(main)/while/body/jit(beliefs_propagation)/jit(binary_state_node_prediction_error)/mul" source_file="/fs04/fc37/adam/projects/psilocybin-prl-analyses/src/prl_hgf/fitting/hierarchical_patrl.py" source_line=362}
  multiply.1276.5.clone.1 = f64[1,120,20]{2,1,0} multiply(multiply.1274.3.clone.1, broadcast.2061.3.clone.1), metadata={op_name="jit(scan)/jit(main)/while/body/jit(beliefs_propagation)/jit(binary_state_node_prediction_error)/mul" source_file="/fs04/fc37/adam/projects/psilocybin-prl-analyses/src/prl_hgf/fitting/hierarchical_patrl.py" source_line=362}
  add.771.7.clone.1 = f64[1,120,20]{2,1,0} add(divide.55.9.clone.1, multiply.1276.5.clone.1), metadata={op_name="jit(scan)/jit(main)/while/body/jit(beliefs_propagation)/jit(binary_state_node_prediction_error)/add_any" source_file="/fs04/fc37/adam/projects/psilocybin-prl-analyses/src/prl_hgf/fitting/hierarchical_patrl.py" source_line=362}
  param_57.73 = f64[192]{0} parameter(57)
  dynamic-slice.163.1.clone.1 = f64[1]{0} dynamic-slice(param_57.73, param_2.1358), dynamic_slice_sizes={1}, metadata={op_name="jit(scan)/jit(main)/while/body/dynamic_slice[slice_sizes=(1,)]" source_file="/fs04/fc37/adam/projects/psilocybin-prl-analyses/src/prl_hgf/fitting/hierarchical_patrl.py" source_line=378}
  bitcast.5035.4.clone.1 = f64[] bitcast(dynamic-slice.163.1.clone.1)
  broadcast.2062.3.clone.1 = f64[1,120,20]{2,1,0} broadcast(bitcast.5035.4.clone.1), dimensions={}, metadata={op_name="jit(scan)/jit(main)/while/body/jit(beliefs_propagation)/jit(binary_state_node_prediction_error)/mul" source_file="/fs04/fc37/adam/projects/psilocybin-prl-analyses/src/prl_hgf/fitting/hierarchical_patrl.py" source_line=362}
  multiply.1277.5.clone.1 = f64[1,120,20]{2,1,0} multiply(add.771.7.clone.1, broadcast.2062.3.clone.1), metadata={op_name="jit(scan)/jit(main)/while/body/jit(beliefs_propagation)/jit(binary_state_node_prediction_error)/mul" source_file="/fs04/fc37/adam/projects/psilocybin-prl-analyses/src/prl_hgf/fitting/hierarchical_patrl.py" source_line=362}
  negate.212.3.clone.1 = f64[1,120,20]{2,1,0} negate(multiply.1277.5.clone.1), metadata={op_name="jit(scan)/jit(main)/while/body/jit(beliefs_propagation)/jit(binary_state_node_prediction_error)/neg" source_file="/fs04/fc37/adam/projects/psilocybin-prl-analyses/src/prl_hgf/fitting/hierarchical_patrl.py" source_line=362}
  param_56.76 = f64[192,120,20]{2,1,0} parameter(56)
  dynamic-slice.209.1.clone.1 = f64[1,120,20]{2,1,0} dynamic-slice(param_56.76, param_2.1358, constant_2715_14, constant_2715_14), dynamic_slice_sizes={1,120,20}, metadata={op_name="jit(scan)/jit(main)/while/body/dynamic_slice[slice_sizes=(1, 120, 20)]" source_file="/fs04/fc37/adam/projects/psilocybin-prl-analyses/src/prl_hgf/fitting/hierarchical_patrl.py" source_line=378}
  param_40.173 = f64[1,20]{1,0} parameter(40)
  bitcast.5940.21.clone.1 = f64[20]{0} bitcast(param_40.173)
  broadcast.2063.21.clone.1 = f64[1,120,20]{2,1,0} broadcast(bitcast.5940.21.clone.1), dimensions={2}, metadata={op_name="jit(scan)/jit(main)/while/body/jit(beliefs_propagation)/jit(binary_state_node_prediction)/mul" source_file="/fs04/fc37/adam/projects/psilocybin-prl-analyses/src/prl_hgf/fitting/hierarchical_patrl.py" source_line=362}
  multiply.1278.7.clone.1 = f64[1,120,20]{2,1,0} multiply(dynamic-slice.209.1.clone.1, broadcast.2063.21.clone.1), metadata={op_name="jit(scan)/jit(main)/while/body/jit(beliefs_propagation)/jit(binary_state_node_prediction)/mul" source_file="/fs04/fc37/adam/projects/psilocybin-prl-analyses/src/prl_hgf/fitting/hierarchical_patrl.py" source_line=362}
  param_55.71 = f64[192,20]{1,0} parameter(55)
  dynamic-slice.164.1.clone.1 = f64[1,20]{1,0} dynamic-slice(param_55.71, param_2.1358, constant_2715_14), dynamic_slice_sizes={1,20}, metadata={op_name="jit(scan)/jit(main)/while/body/dynamic_slice[slice_sizes=(1, 20)]" source_file="/fs04/fc37/adam/projects/psilocybin-prl-analyses/src/prl_hgf/fitting/hierarchical_patrl.py" source_line=378}
  bitcast.5946.3.clone.1 = f64[20]{0} bitcast(dynamic-slice.164.1.clone.1)
  broadcast.2064.3.clone.1 = f64[1,120,20]{2,1,0} broadcast(bitcast.5946.3.clone.1), dimensions={2}, metadata={op_name="jit(scan)/jit(main)/while/body/jit(beliefs_propagation)/jit(binary_state_node_prediction)/mul" source_file="/fs04/fc37/adam/projects/psilocybin-prl-analyses/src/prl_hgf/fitting/hierarchical_patrl.py" source_line=362}
  param_54.76 = f64[192,20]{1,0} parameter(54)
  dynamic-slice.165.4.clone.1 = f64[1,20]{1,0} dynamic-slice(param_54.76, param_2.1358, constant_2715_14), dynamic_slice_sizes={1,20}, metadata={op_name="jit(scan)/jit(main)/while/body/dynamic_slice[slice_sizes=(1, 20)]" source_file="/fs04/fc37/adam/projects/psilocybin-prl-analyses/src/prl_hgf/fitting/hierarchical_patrl.py" source_line=378}
  bitcast.5951.5.clone.1 = f64[20]{0} bitcast(dynamic-slice.165.4.clone.1)
  broadcast.2065.5.clone.1 = f64[1,120,20]{2,1,0} broadcast(bitcast.5951.5.clone.1), dimensions={2}, metadata={op_name="jit(scan)/jit(main)/while/body/jit(beliefs_propagation)/jit(continuous_node_posterior_update)/jit(posterior_update_mean_continuous_node)/mul" source_file="/fs04/fc37/adam/projects/psilocybin-prl-analyses/src/prl_hgf/fitting/hierarchical_patrl.py" source_line=362}
  param_53.84 = f64[192,20]{1,0} parameter(53)
  dynamic-slice.141.3.clone.1 = f64[1,20]{1,0} dynamic-slice(param_53.84, param_2.1358, constant_2715_14), dynamic_slice_sizes={1,20}, metadata={op_name="jit(scan)/jit(main)/while/body/dynamic_slice[slice_sizes=(1, 20)]" source_file="/fs04/fc37/adam/projects/psilocybin-prl-analyses/src/prl_hgf/fitting/hierarchical_patrl.py" source_line=378}
  bitcast.4859.9.clone.1 = f64[20]{0} bitcast(dynamic-slice.141.3.clone.1)
  broadcast.2040.9.clone.1 = f64[1,120,20]{2,1,0} broadcast(bitcast.4859.9.clone.1), dimensions={2}, metadata={op_name="jit(scan)/jit(main)/while/body/jit(beliefs_propagation)/jit(continuous_node_posterior_update)/jit(posterior_update_mean_continuous_node)/mul" source_file="/fs04/fc37/adam/projects/psilocybin-prl-analyses/src/prl_hgf/fitting/hierarchical_patrl.py" source_line=362}
  multiply.1202.9.clone.1 = f64[1,120,20]{2,1,0} multiply(add.702.13.clone.1, broadcast.2040.9.clone.1), metadata={op_name="jit(scan)/jit(main)/while/body/jit(beliefs_propagation)/jit(continuous_node_posterior_update)/jit(posterior_update_mean_continuous_node)/mul" source_file="/fs04/fc37/adam/projects/psilocybin-prl-analyses/src/prl_hgf/fitting/hierarchical_patrl.py" source_line=362}
  param_52.91 = f64[192,120,20]{2,1,0} parameter(52)
  dynamic-slice.155.7.clone.1 = f64[1,120,20]{2,1,0} dynamic-slice(param_52.91, param_2.1358, constant_2715_14, constant_2715_14), dynamic_slice_sizes={1,120,20}, metadata={op_name="jit(scan)/jit(main)/while/body/dynamic_slice[slice_sizes=(1, 120, 20)]" source_file="/fs04/fc37/adam/projects/psilocybin-prl-analyses/src/prl_hgf/fitting/hierarchical_patrl.py" source_line=378}
  multiply.1203.9.clone.1 = f64[1,120,20]{2,1,0} multiply(broadcast.2041.13.clone.1, dynamic-slice.155.7.clone.1), metadata={op_name="jit(scan)/jit(main)/while/body/jit(beliefs_propagation)/jit(continuous_node_posterior_update)/jit(posterior_update_mean_continuous_node)/mul" source_file="/fs04/fc37/adam/projects/psilocybin-prl-analyses/src/prl_hgf/fitting/hierarchical_patrl.py" source_line=362}
  add.703.7.clone.1 = f64[1,120,20]{2,1,0} add(multiply.1202.9.clone.1, multiply.1203.9.clone.1), metadata={op_name="jit(scan)/jit(main)/while/body/jit(beliefs_propagation)/jit(continuous_node_posterior_update)/jit(posterior_update_mean_continuous_node)/add_any" source_file="/fs04/fc37/adam/projects/psilocybin-prl-analyses/src/prl_hgf/fitting/hierarchical_patrl.py" source_line=362}
  param_51.107 = f64[192,20]{1,0} parameter(51)
  dynamic-slice.166.25.clone.1 = f64[1,20]{1,0} dynamic-slice(param_51.107, param_2.1358, constant_2715_14), dynamic_slice_sizes={1,20}, metadata={op_name="jit(scan)/jit(main)/while/body/dynamic_slice[slice_sizes=(1, 20)]" source_file="/fs04/fc37/adam/projects/psilocybin-prl-analyses/src/prl_hgf/fitting/hierarchical_patrl.py" source_line=378}
  bitcast.5958.17.clone.1 = f64[20]{0} bitcast(dynamic-slice.166.25.clone.1)
  broadcast.2066.17.clone.1 = f64[1,120,20]{2,1,0} broadcast(bitcast.5958.17.clone.1), dimensions={2}, metadata={op_name="jit(scan)/jit(main)/while/body/jit(beliefs_propagation)/jit(continuous_node_posterior_update)/jit(posterior_update_mean_continuous_node)/div" source_file="/fs04/fc37/adam/projects/psilocybin-prl-analyses/src/prl_hgf/fitting/hierarchical_patrl.py" source_line=362}
  divide.57.7.clone.1 = f64[1,120,20]{2,1,0} divide(add.703.7.clone.1, broadcast.2066.17.clone.1), metadata={op_name="jit(scan)/jit(main)/while/body/jit(beliefs_propagation)/jit(continuous_node_posterior_update)/jit(posterior_update_mean_continuous_node)/div" source_file="/fs04/fc37/adam/projects/psilocybin-prl-analyses/src/prl_hgf/fitting/hierarchical_patrl.py" source_line=362}
  param_50.114 = f64[192,120,20]{2,1,0} parameter(50)
  dynamic-slice.210.4.clone.1 = f64[1,120,20]{2,1,0} dynamic-slice(param_50.114, param_2.1358, constant_2715_14, constant_2715_14), dynamic_slice_sizes={1,120,20}, metadata={op_name="jit(scan)/jit(main)/while/body/dynamic_slice[slice_sizes=(1, 120, 20)]" source_file="/fs04/fc37/adam/projects/psilocybin-prl-analyses/src/prl_hgf/fitting/hierarchical_patrl.py" source_line=378}
  negate.213.8.clone.1 = f64[1,120,20]{2,1,0} negate(dynamic-slice.210.4.clone.1), metadata={op_name="jit(scan)/jit(main)/while/body/jit(beliefs_propagation)/jit(continuous_node_posterior_update)/jit(posterior_update_mean_continuous_node)/neg" source_file="/fs04/fc37/adam/projects/psilocybin-prl-analyses/src/prl_hgf/fitting/hierarchical_patrl.py" source_line=362}
  multiply.1176.9.clone.1 = f64[1,20]{1,0} multiply(add.687.11.clone.1, dynamic-slice.141.3.clone.1), metadata={op_name="jit(scan)/jit(main)/while/body/jit(beliefs_propagation)/jit(continuous_node_posterior_update)/jit(posterior_update_mean_continuous_node)/mul" source_file="/fs04/fc37/adam/projects/psilocybin-prl-analyses/src/prl_hgf/fitting/hierarchical_patrl.py" source_line=362}
  bitcast.4885.19.clone.1 = f64[20]{0} bitcast(multiply.1176.9.clone.1)
  broadcast.2043.19.clone.1 = f64[1,120,20]{2,1,0} broadcast(bitcast.4885.19.clone.1), dimensions={2}, metadata={op_name="jit(scan)/jit(main)/while/body/jit(beliefs_propagation)/jit(continuous_node_posterior_update)/jit(posterior_update_mean_continuous_node)/mul" source_file="/fs04/fc37/adam/projects/psilocybin-prl-analyses/src/prl_hgf/fitting/hierarchical_patrl.py" source_line=362}
  multiply.1279.5.clone.1 = f64[1,120,20]{2,1,0} multiply(negate.213.8.clone.1, broadcast.2043.19.clone.1), metadata={op_name="jit(scan)/jit(main)/while/body/jit(beliefs_propagation)/jit(continuous_node_posterior_update)/jit(posterior_update_mean_continuous_node)/mul" source_file="/fs04/fc37/adam/projects/psilocybin-prl-analyses/src/prl_hgf/fitting/hierarchical_patrl.py" source_line=362}
  multiply.1280.5.clone.1 = f64[1,20]{1,0} multiply(dynamic-slice.166.25.clone.1, dynamic-slice.166.25.clone.1), metadata={op_name="jit(scan)/jit(main)/while/body/jit(beliefs_propagation)/jit(continuous_node_posterior_update)/jit(posterior_update_mean_continuous_node)/mul" source_file="/fs04/fc37/adam/projects/psilocybin-prl-analyses/src/prl_hgf/fitting/hierarchical_patrl.py" source_line=362}
  divide.58.3.clone.1 = f64[1,20]{1,0} divide(broadcast.2060.clone.5.clone.1, multiply.1280.5.clone.1), metadata={op_name="jit(scan)/jit(main)/while/body/jit(beliefs_propagation)/jit(continuous_node_posterior_update)/jit(posterior_update_mean_continuous_node)/div" source_file="/fs04/fc37/adam/projects/psilocybin-prl-analyses/src/prl_hgf/fitting/hierarchical_patrl.py" source_line=362}
  bitcast.5979.11.clone.1 = f64[20]{0} bitcast(divide.58.3.clone.1)
  broadcast.2067.11.clone.1 = f64[1,120,20]{2,1,0} broadcast(bitcast.5979.11.clone.1), dimensions={2}, metadata={op_name="jit(scan)/jit(main)/while/body/jit(beliefs_propagation)/jit(continuous_node_posterior_update)/jit(posterior_update_mean_continuous_node)/mul" source_file="/fs04/fc37/adam/projects/psilocybin-prl-analyses/src/prl_hgf/fitting/hierarchical_patrl.py" source_line=362}
  multiply.1281.5.clone.1 = f64[1,120,20]{2,1,0} multiply(multiply.1279.5.clone.1, broadcast.2067.11.clone.1), metadata={op_name="jit(scan)/jit(main)/while/body/jit(beliefs_propagation)/jit(continuous_node_posterior_update)/jit(posterior_update_mean_continuous_node)/mul" source_file="/fs04/fc37/adam/projects/psilocybin-prl-analyses/src/prl_hgf/fitting/hierarchical_patrl.py" source_line=362}
  add.772.5.clone.1 = f64[1,120,20]{2,1,0} add(divide.57.7.clone.1, multiply.1281.5.clone.1), metadata={op_name="jit(scan)/jit(main)/while/body/jit(beliefs_propagation)/jit(continuous_node_posterior_update)/jit(posterior_update_mean_continuous_node)/add_any" source_file="/fs04/fc37/adam/projects/psilocybin-prl-analyses/src/prl_hgf/fitting/hierarchical_patrl.py" source_line=362}
  multiply.1282.3.clone.1 = f64[1,120,20]{2,1,0} multiply(broadcast.2065.5.clone.1, add.772.5.clone.1), metadata={op_name="jit(scan)/jit(main)/while/body/jit(beliefs_propagation)/jit(continuous_node_posterior_update)/jit(posterior_update_mean_continuous_node)/mul" source_file="/fs04/fc37/adam/projects/psilocybin-prl-analyses/src/prl_hgf/fitting/hierarchical_patrl.py" source_line=362}
  param_49.110 = f64[120,1,20]{2,1,0} parameter(49)
  bitcast.5987.11.clone.1 = f64[1,120,20]{2,1,0} bitcast(param_49.110)
…
20,1,20]{2,0,1}, f64[120,1,20]{2,0,1}, /*index=25*/f64[120,1,20]{2,0,1}, f64[120,1,20]{2,0,1}, f64[120,1,20]{2,0,1}, f64[120,1,20,1]{2,0,3,1}, f64[192,1,20]{2,1,0}, /*index=30*/f64[192,20]{1,0}, f64[192,20]{1,0}, f64[192]{0}, f64[192,20]{1,0}, pred[192,20]{1,0}, /*index=35*/f64[192,20]{1,0}, f64[192,20]{1,0}, f64[192,20]{1,0}, f64[192,20]{1,0}, f64[192,20]{1,0}, /*index=40*/f64[192,20]{1,0}, f64[192,20]{1,0}, f64[192,20]{1,0}, pred[192,20]{1,0}, f64[192,20]{1,0}, /*index=45*/f64[192,20]{1,0}, f64[192,20]{1,0}, f64[192,20]{1,0}, f64[192,20]{1,0}, f64[192,20]{1,0}, /*index=50*/f64[192,20]{1,0}, f64[192]{0}, f64[192,20]{1,0}, f64[192,20]{1,0}, f64[192,20]{1,0}, /*index=55*/s32[192]{0}, f64[192,20]{1,0}, f64[192]{0}, f64[192,20]{1,0}, f64[192,20]{1,0}, /*index=60*/f64[192,20]{1,0}, pred[192,20]{1,0}, f64[192,20]{1,0}, f64[192,20]{1,0}, f64[192,20]{1,0}, /*index=65*/f64[192,20]{1,0}, f64[192,20]{1,0}, f64[192,20]{1,0}, f64[192]{0}, f64[192,20]{1,0}, /*index=70*/f64[192,20]{1,0}, f64[192,20]{1,0}, f64[192,20]{1,0}, f64[192,20]{1,0}, f64[192,20]{1,0}, /*index=75*/f64[192,20]{1,0}, f64[192,20]{1,0}, f64[192,20]{1,0}, f64[192,20]{1,0}, f64[192,20]{1,0}, /*index=80*/s32[192,20]{1,0}, pred[192,20]{1,0}, f64[192,20]{1,0}, f64[192,20]{1,0}, f64[192,20]{1,0}, /*index=85*/f64[192,20]{1,0}, pred[192,20]{1,0}, pred[192,20,1]{2,1,0}, f64[192,20]{1,0}, f64[192,20]{1,0}, /*index=90*/f64[192,20]{1,0}, f64[192,20]{1,0}, f64[192,20]{1,0}, f64[192,20]{1,0}, f64[192,20]{1,0}, /*index=95*/f64[192,20]{1,0}, f64[192,20]{1,0}, f64[192,20]{1,0}, pred[192,20]{1,0}, pred[192,20]{1,0}, /*index=100*/pred[192,20,1]{2,1,0}, f64[192,120,1,20]{3,1,2,0}, f64[192,120,20]{2,1,0}, f64[192,120,20]{2,1,0}, f64[192,120,20]{2,1,0}, /*index=105*/f64[192,120,20]{2,1,0}, f64[192,120,20]{2,1,0}, f64[192,120,20]{2,1,0}, f64[192,120,20]{2,1,0}, f64[192,120,20]{2,1,0}, /*index=110*/f64[192,120,20]{2,1,0}, f64[192,120,20]{2,1,0}, f64[192,120,20]{2,1,0}, f64[192,120,20]{2,1,0}, f64[192,120,20]{2,1,0}, /*index=115*/f64[192,120,20]{2,1,0}, f64[192,120,20]{2,1,0}, f64[192,120,20]{2,1,0}, f64[192,120,20]{2,1,0}, f64[192,120,20]{2,1,0}, /*index=120*/f64[192,120,20]{2,1,0}, f64[192,120,20]{2,1,0}, f64[192,120,20]{2,1,0}, f64[192,120,20]{2,1,0}, f64[192,120,20]{2,1,0}, /*index=125*/f64[192,120,20]{2,1,0}, f64[192,120,20]{2,1,0}, f64[192,120,20]{2,1,0}, f64[192,120,20]{2,1,0}, f64[192,120,20]{2,1,0}, /*index=130*/f64[192,120,20]{2,1,0}, f64[192,120,20]{2,1,0}, f64[192,120,20]{2,1,0}, f64[192,120,20]{2,1,0}, f64[192,120,20]{2,1,0}, /*index=135*/f64[192,120,20]{2,1,0}, f64[192,120,20]{2,1,0}, f64[192,120,20]{2,1,0}, f64[192,120,20]{2,1,0}, f64[192,120,20]{2,1,0}, /*index=140*/f64[192,120,20]{2,1,0}, f64[192,120,20]{2,1,0}, f64[192,120,20]{2,1,0}, f64[192,120,20]{2,1,0}, f64[192,120,20]{2,1,0}, /*index=145*/f64[192,120,20]{2,1,0}, f64[192,120,20]{2,1,0}, f64[192,120,20]{2,1,0}, f64[192,120,20]{2,1,0}, f64[192,120,20]{2,1,0}) parameter(0)
  get-tuple-element.3358.0 = s64[] get-tuple-element(arg_tuple.3357.0), index=0
  ROOT loop_compare_fusion = pred[] fusion(get-tuple-element.3358.0), kind=kLoop, calls=fused_compare, metadata={op_name="jit(scan)/jit(main)/while/cond/lt" source_file="/fs04/fc37/adam/projects/psilocybin-prl-analyses/src/prl_hgf/fitting/hierarchical_patrl.py" source_line=378}
}

wrapped_copy_computation {
  param_0.1683 = s64[] parameter(0)
  ROOT copy.205 = s64[] copy(param_0.1683)
}

copy_horizontally_fused_computation.1 {
  param_0_0.1 = f64[1,20]{1,0} parameter(0)
  copy.173 = f64[1,20]{1,0} copy(param_0_0.1)
  param_1_0.1 = f64[1,20]{1,0} parameter(1)
  copy.174 = f64[1,20]{1,0} copy(param_1_0.1)
  ROOT tuple.208 = (f64[1,20]{1,0}, f64[1,20]{1,0}) tuple(copy.173, copy.174)
}

copy_horizontally_fused_computation.4 {
  param_0_0.4 = f64[1,20]{1,0} parameter(0)
  copy.189 = f64[1,20]{1,0} copy(param_0_0.4)
  param_1_0.4 = f64[1,20]{1,0} parameter(1)
  copy.190 = f64[1,20]{1,0} copy(param_1_0.4)
  ROOT tuple.211 = (f64[1,20]{1,0}, f64[1,20]{1,0}) tuple(copy.189, copy.190)
}

copy_horizontally_fused_computation.6 {
  param_0_0.6 = f64[1,20]{1,0} parameter(0)
  copy.198 = f64[1,20]{1,0} copy(param_0_0.6)
  reshape.2992 = f64[20]{0} reshape(copy.198)
  param_1_0.6 = f64[1,20]{1,0} parameter(1)
  copy.199 = f64[1,20]{1,0} copy(param_1_0.6)
  reshape.2993 = f64[20]{0} reshape(copy.199)
  param_2_0.2 = f64[1,20,1]{2,1,0} parameter(2)
  copy.200 = f64[1,20,1]{2,1,0} copy(param_2_0.2)
  reshape.2995 = f64[20]{0} reshape(copy.200)
  concatenate = f64[60]{0} concatenate(reshape.2992, reshape.2993, reshape.2995), dimensions={0}
  slice = f64[20]{0} slice(concatenate), slice={[0:20]}
  slice.1 = f64[20]{0} slice(concatenate), slice={[20:40]}
  slice.2 = f64[20]{0} slice(concatenate), slice={[40:60]}
  ROOT tuple.213 = (f64[20]{0}, f64[20]{0}, f64[20]{0}) tuple(slice, slice.1, slice.2)
} // copy_horizontally_fused_computation.6

copy_horizontally_fused_computation.2 {
  param_0_0.2 = f64[20]{0} parameter(0)
  copy.179 = f64[20]{0} copy(param_0_0.2)
  param_1_0.2 = f64[20]{0} parameter(1)
  copy.180 = f64[20]{0} copy(param_1_0.2)
  param_2_0.1 = f64[20]{0} parameter(2)
  copy.181 = f64[20]{0} copy(param_2_0.1)
  param_3_0.1 = f64[20]{0} parameter(3)
  copy.182 = f64[20]{0} copy(param_3_0.1)
  ROOT tuple.209 = (f64[20]{0}, f64[20]{0}, f64[20]{0}, f64[20]{0}) tuple(copy.179, copy.180, copy.181, copy.182)
} // copy_horizontally_fused_computation.2

copy_horizontally_fused_computation.7 {
  param_0_0.7 = f64[20]{0} parameter(0)
  copy.201 = f64[20]{0} copy(param_0_0.7)
  param_1_0.7 = f64[20]{0} parameter(2)
  copy.203 = f64[20]{0} copy(param_1_0.7)
  concatenate.1 = f64[40]{0} concatenate(copy.201, copy.203), dimensions={0}
  slice.3 = f64[20]{0} slice(concatenate.1), slice={[0:20]}
  param_0_1 = f64[20]{0} parameter(1)
  copy.202 = f64[20]{0} copy(param_0_1)
  param_1_1 = f64[20]{0} parameter(3)
  copy.204 = f64[20]{0} copy(param_1_1)
  concatenate.2 = f64[40]{0} concatenate(copy.202, copy.204), dimensions={0}
  slice.5 = f64[20]{0} slice(concatenate.2), slice={[0:20]}
  slice.4 = f64[20]{0} slice(concatenate.1), slice={[20:40]}
  slice.6 = f64[20]{0} slice(concatenate.2), slice={[20:40]}
  ROOT tuple.214 = (f64[20]{0}, f64[20]{0}, f64[20]{0}, f64[20]{0}) tuple(slice.3, slice.5, slice.4, slice.6)
} // copy_horizontally_fused_computation.7

copy_horizontally_fused_computation {
  param_0_0 = f64[20]{0} parameter(0)
  copy.165 = f64[20]{0} copy(param_0_0)
  param_1_0 = f64[20]{0} parameter(1)
  copy.166 = f64[20]{0} copy(param_1_0)
  param_2_0 = f64[20]{0} parameter(2)
  copy.167 = f64[20]{0} copy(param_2_0)
  param_3_0 = f64[20]{0} parameter(3)
  copy.168 = f64[20]{0} copy(param_3_0)
  param_4_0 = f64[20]{0} parameter(4)
  copy.169 = f64[20]{0} copy(param_4_0)
  param_5_0 = f64[20]{0} parameter(5)
  copy.170 = f64[20]{0} copy(param_5_0)
  ROOT tuple.207 = (f64[20]{0}, f64[20]{0}, f64[20]{0}, f64[20]{0}, f64[20]{0}, /*index=5*/f64[20]{0}) tuple(copy.165, copy.166, copy.167, copy.168, copy.169, /*index=5*/copy.170)
} // copy_horizontally_fused_computation

wrapped_copy_computation.1 {
  param_0.1684 = f64[120,1,20]{2,1,0} parameter(0)
  ROOT copy.206 = f64[120,1,20]{2,1,0} copy(param_0.1684)
}

wrapped_copy_computation.2 {
  param_0.1685 = f64[120,1,20]{2,1,0} parameter(0)
  ROOT copy.207 = f64[120,1,20]{2,1,0} copy(param_0.1685)
}

wrapped_copy_computation.3 {
  param_0.1686 = f64[120,1,20]{2,1,0} parameter(0)
  ROOT copy.208 = f64[120,1,20]{2,1,0} copy(param_0.1686)
}

wrapped_copy_computation.4 {
  param_0.1687 = f64[120,1,20]{2,1,0} parameter(0)
  ROOT copy.209 = f64[120,1,20]{2,1,0} copy(param_0.1687)
}

wrapped_copy_computation.5 {
  param_0.1688 = f64[120,1,20]{2,1,0} parameter(0)
  ROOT copy.210 = f64[120,1,20]{2,1,0} copy(param_0.1688)
}

wrapped_copy_computation.6 {
  param_0.1689 = f64[120,1,20]{2,1,0} parameter(0)
  ROOT copy.211 = f64[120,1,20]{2,1,0} copy(param_0.1689)
}

wrapped_copy_computation.7 {
  param_0.1690 = f64[120,1,20,1]{3,2,1,0} parameter(0)
  ROOT copy.212 = f64[120,1,20,1]{3,2,1,0} copy(param_0.1690)
}

command_buffer {
  p = s64[] parameter(0)
  p.1 = f64[192,120,1,20]{3,2,1,0} parameter(1)
  p.2 = f64[1,20]{1,0} parameter(2)
  p.3 = f64[1,20]{1,0} parameter(3)
  p.4 = f64[1,20]{1,0} parameter(4)
  p.5 = f64[1,20]{1,0} parameter(5)
  p.6 = f64[1,20]{1,0} parameter(6)
  p.7 = f64[1,20]{1,0} parameter(7)
  p.8 = f64[1,20,1]{2,1,0} parameter(8)
  p.9 = f64[20]{0} parameter(9)
  p.10 = f64[20]{0} parameter(10)
  p.11 = f64[20]{0} parameter(11)
  p.12 = f64[20]{0} parameter(12)
  p.13 = f64[20]{0} parameter(13)
  p.14 = f64[20]{0} parameter(14)
  p.15 = f64[20]{0} parameter(15)
  p.16 = f64[20]{0} parameter(16)
  p.17 = f64[20]{0} parameter(17)
  p.18 = f64[20]{0} parameter(18)
  p.19 = f64[20]{0} parameter(19)
  p.20 = f64[20]{0} parameter(20)
  p.21 = f64[20]{0} parameter(21)
  p.22 = f64[20]{0} parameter(22)
  p.23 = f64[120,1,20]{2,1,0} parameter(23)
  p.24 = f64[120,1,20]{2,1,0} parameter(24)
  p.25 = f64[120,1,20]{2,1,0} parameter(25)
  p.26 = f64[120,1,20]{2,1,0} parameter(26)
  p.27 = f64[120,1,20]{2,1,0} parameter(27)
  p.28 = f64[120,1,20]{2,1,0} parameter(28)
  p.29 = f64[120,1,20,1]{3,2,1,0} parameter(29)
  wrapped_copy = s64[] fusion(p), kind=kLoop, calls=wrapped_copy_computation
  bitcast.7162.0 = f64[192,120,1,20]{3,1,2,0} bitcast(p.1)
  copy_fusion.1 = (f64[1,20]{1,0}, f64[1,20]{1,0}) fusion(p.2, p.3), kind=kLoop, calls=copy_horizontally_fused_computation.1
  get-tuple-element.1472 = f64[1,20]{1,0} get-tuple-element(copy_fusion.1), index=1
  get-tuple-element.1471 = f64[1,20]{1,0} get-tuple-element(copy_fusion.1), index=0
  bitcast.7664 = f64[1,20]{1,0} bitcast(get-tuple-element.1471)
  bitcast.7665 = f64[1,20]{1,0} bitcast(get-tuple-element.1472)
  copy_fusion.4 = (f64[1,20]{1,0}, f64[1,20]{1,0}) fusion(p.4, p.5), kind=kLoop, calls=copy_horizontally_fused_computation.4
  get-tuple-element.1480 = f64[1,20]{1,0} get-tuple-element(copy_fusion.4), index=1
  get-tuple-element.1479 = f64[1,20]{1,0} get-tuple-element(copy_fusion.4), index=0
  bitcast.7666 = f64[1,20]{1,0} bitcast(get-tuple-element.1479)
  bitcast.7667 = f64[1,20]{1,0} bitcast(get-tuple-element.1480)
  copy_fusion.6 = (f64[20]{0}, f64[20]{0}, f64[20]{0}) fusion(p.6, p.7, p.8), kind=kInput, calls=copy_horizontally_fused_computation.6
  get-tuple-element.1485 = f64[20]{0} get-tuple-element(copy_fusion.6), index=2
  bitcast.7670 = f64[1,20,1]{2,1,0} bitcast(get-tuple-element.1485)
  get-tuple-element.1484 = f64[20]{0} get-tuple-element(copy_fusion.6), index=1
  get-tuple-element.1483 = f64[20]{0} get-tuple-element(copy_fusion.6), index=0
  bitcast.7668 = f64[1,20]{1,0} bitcast(get-tuple-element.1483)
  bitcast.7669 = f64[1,20]{1,0} bitcast(get-tuple-element.1484)
  copy_fusion.2 = (f64[20]{0}, f64[20]{0}, f64[20]{0}, f64[20]{0}) fusion(p.9, p.10, p.11, p.12), kind=kLoop, calls=copy_horizontally_fused_computation.2
  get-tuple-element.1476 = f64[20]{0} get-tuple-element(copy_fusion.2), index=3
  get-tuple-element.1475 = f64[20]{0} get-tuple-element(copy_fusion.2), index=2
  get-tuple-element.1474 = f64[20]{0} get-tuple-element(copy_fusion.2), index=1
  get-tuple-element.1473 = f64[20]{0} get-tuple-element(copy_fusion.2), index=0
  copy_fusion.7 = (f64[20]{0}, f64[20]{0}, f64[20]{0}, f64[20]{0}) fusion(p.13, p.14, p.15, p.16), kind=kInput, calls=copy_horizontally_fused_computation.7
  get-tuple-element.1489 = f64[20]{0} get-tuple-element(copy_fusion.7), index=3
  get-tuple-element.1488 = f64[20]{0} get-tuple-element(copy_fusion.7), index=2
  get-tuple-element.1487 = f64[20]{0} get-tuple-element(copy_fusion.7), index=1
  get-tuple-element.1486 = f64[20]{0} get-tuple-element(copy_fusion.7), index=0
  tuple.215 = (f64[20]{0}, f64[20]{0}) tuple(get-tuple-element.1486, get-tuple-element.1487)
  get-tuple-element.1478 = f64[20]{0} get-tuple-element(tuple.215), index=1
  get-tuple-element.1477 = f64[20]{0} get-tuple-element(tuple.215), index=0
  tuple.216 = (f64[20]{0}, f64[20]{0}) tuple(get-tuple-element.1488, get-tuple-element.1489)
  get-tuple-element.1482 = f64[20]{0} get-tuple-element(tuple.216), index=1
  get-tuple-element.1481 = f64[20]{0} get-tuple-element(tuple.216), index=0
  copy_fusion = (f64[20]{0}, f64[20]{0}, f64[20]{0}, f64[20]{0}, f64[20]{0}, /*index=5*/f64[20]{0}) fusion(p.17, p.18, p.19, p.20, p.21, /*index=5*/p.22), kind=kLoop, calls=copy_horizontally_fused_computation
  get-tuple-element.1470 = f64[20]{0} get-tuple-element(copy_fusion), index=5
  get-tuple-element.1469 = f64[20]{0} get-tuple-element(copy_fusion), index=4
  get-tuple-element.1442 = f64[20]{0} get-tuple-element(copy_fusion), index=3
  get-tuple-element.1441 = f64[20]{0} get-tuple-element(copy_fusion), index=2
  get-tuple-element.1440 = f64[20]{0} get-tuple-element(copy_fusion), index=1
  get-tuple-element.1439 = f64[20]{0} get-tuple-element(copy_fusion), index=0
  wrapped_copy.1 = f64[120,1,20]{2,1,0} fusion(p.23), kind=kLoop, calls=wrapped_copy_computation.1
  bitcast.6990.0 = f64[120,1,20]{2,0,1} bitcast(wrapped_copy.1)
  wrapped_copy.2 = f64[120,1,20]{2,1,0} fusion(p.24), kind=kLoop, calls=wrapped_copy_computation.2
  bitcast.6994.0 = f64[120,1,20]{2,0,1} bitcast(wrapped_copy.2)
  wrapped_copy.3 = f64[120,1,20]{2,1,0} fusion(p.25), kind=kLoop, calls=wrapped_copy_computation.3
  bitcast.6998.0 = f64[120,1,20]{2,0,1} bitcast(wrapped_copy.3)
  wrapped_copy.4 = f64[120,1,20]{2,1,0} fusion(p.26), kind=kLoop, calls=wrapped_copy_computation.4
  bitcast.7002.0 = f64[120,1,20]{2,0,1} bitcast(wrapped_copy.4)
  wrapped_copy.5 = f64[120,1,20]{2,1,0} fusion(p.27), kind=kLoop, calls=wrapped_copy_computation.5
  bitcast.7006.0 = f64[120,1,20]{2,0,1} bitcast(wrapped_copy.5)
  wrapped_copy.6 = f64[120,1,20]{2,1,0} fusion(p.28), kind=kLoop, calls=wrapped_copy_computation.6
  bitcast.7010.0 = f64[120,1,20]{2,0,1} bitcast(wrapped_copy.6)
  wrapped_copy.7 = f64[120,1,20,1]{3,2,1,0} fusion(p.29), kind=kLoop, calls=wrapped_copy_computation.7
  ROOT tuple.217 = (s64[], f64[192,120,1,20]{3,1,2,0}, f64[1,20]{1,0}, f64[1,20]{1,0}, f64[1,20]{1,0}, /*index=5*/f64[1,20]{1,0}, f64[1,20,1]{2,1,0}, f64[1,20]{1,0}, f64[1,20]{1,0}, f64[20]{0}, /*index=10*/f64[20]{0}, f64[20]{0}, f64[20]{0}, f64[20]{0}, f64[20]{0}, /*index=15*/f64[20]{0}, f64[20]{0}, f64[20]{0}, f64[20]{0}, f64[20]{0}, /*index=20*/f64[20]{0}, f64[20]{0}, f64[20]{0}, f64[120,1,20]{2,0,1}, f64[120,1,20]{2,0,1}, /*index=25*/f64[120,1,20]{2,0,1}, f64[120,1,20]{2,0,1}, f64[120,1,20]{2,0,1}, f64[120,1,20]{2,0,1}, f64[120,1,20,1]{3,2,1,0}) tuple(wrapped_copy, bitcast.7162.0, bitcast.7664, bitcast.7665, bitcast.7666, /*index=5*/bitcast.7667, bitcast.7670, bitcast.7668, bitcast.7669, get-tuple-element.1476, /*index=10*/get-tuple-element.1475, get-tuple-element.1474, get-tuple-element.1473, get-tuple-element.1478, get-tuple-element.1477, /*index=15*/get-tuple-element.1482, get-tuple-element.1481, get-tuple-element.1470, get-tuple-element.1469, get-tuple-element.1442, /*index=20*/get-tuple-element.1441, get-tuple-element.1440, get-tuple-element.1439, bitcast.6990.0, bitcast.6994.0, /*index=25*/bitcast.6998.0, bitcast.7002.0, bitcast.7006.0, bitcast.7010.0, wrapped_copy.7)
} // command_buffer

ENTRY main.3662 {
  constant_150_0 = s64[] constant(0)
  Arg_148.149.0 = f64[192,120,20]{2,1,0} parameter(148), metadata={op_name="args[194]"}
  Arg_147.148.0 = f64[192,120,20]{2,1,0} parameter(147), metadata={op_name="args[193]"}
  Arg_146.147.0 = f64[192,120,20]{2,1,0} parameter(146), metadata={op_name="args[192]"}
  Arg_145.146.0 = f64[192,120,20]{2,1,0} parameter(145), metadata={op_name="args[191]"}
  Arg_144.145.0 = f64[192,120,20]{2,1,0} parameter(144), metadata={op_name="args[190]"}
  Arg_143.144.0 = f64[192,120,20]{2,1,0} parameter(143), metadata={op_name="args[189]"}
  Arg_142.143.0 = f64[192,120,20]{2,1,0} parameter(142), metadata={op_name="args[188]"}
  Arg_141.142.0 = f64[192,120,20]{2,1,0} parameter(141), metadata={op_name="args[187]"}
  Arg_140.141.0 = f64[192,120,20]{2,1,0} parameter(140), metadata={op_name="args[186]"}
  Arg_139.140.0 = f64[192,120,20]{2,1,0} parameter(139), metadata={op_name="args[185]"}
  Arg_138.139.0 = f64[192,120,20]{2,1,0} parameter(138), metadata={op_name="args[184]"}
  Arg_137.138.0 = f64[192,120,20]{2,1,0} parameter(137), metadata={op_name="args[183]"}
  Arg_136.137.0 = f64[192,120,20]{2,1,0} parameter(136), metadata={op_name="args[182]"}
  Arg_135.136.0 = f64[192,120,20]{2,1,0} parameter(135), metadata={op_name="args[181]"}
  Arg_134.135.0 = f64[192,120,20]{2,1,0} parameter(134), metadata={op_name="args[180]"}
  Arg_133.134.0 = f64[192,120,20]{2,1,0} parameter(133), metadata={op_name="args[179]"}
  Arg_132.133.0 = f64[192,120,20]{2,1,0} parameter(132), metadata={op_name="args[178]"}
  Arg_131.132.0 = f64[192,120,20]{2,1,0} parameter(131), metadata={op_name="args[177]"}
  Arg_130.131.0 = f64[192,120,20]{2,1,0} parameter(130), metadata={op_name="args[176]"}
  Arg_129.130.0 = f64[192,120,20]{2,1,0} parameter(129), metadata={op_name="args[175]"}
  Arg_128.129.0 = f64[192,120,20]{2,1,0} parameter(128), metadata={op_name="args[174]"}
  Arg_127.128.0 = f64[192,120,20]{2,1,0} parameter(127), metadata={op_name="args[173]"}
  Arg_126.127.0 = f64[192,120,20]{2,1,0} parameter(126), metadata={op_name="args[172]"}
  Arg_125.126.0 = f64[192,120,20]{2,1,0} parameter(125), metadata={op_name="args[171]"}
  Arg_124.125.0 = f64[192,120,20]{2,1,0} parameter(124), metadata={op_name="args[170]"}
  Arg_123.124.0 = f64[192,120,20]{2,1,0} parameter(123), metadata={op_name="args[169]"}
  Arg_122.123.0 = f64[192,120,20]{2,1,0} parameter(122), metadata={op_name="args[168]"}
  Arg_121.122.0 = f64[192,120,20]{2,1,0} parameter(121), metadata={op_name="args[167]"}
  Arg_120.121.0 = f64[192,120,20]{2,1,0} parameter(120), metadata={op_name="args[166]"}
  Arg_119.120.0 = f64[192,120,20]{2,1,0} parameter(119), metadata={op_name="args[165]"}
  Arg_118.119.0 = f64[192,120,20]{2,1,0} parameter(118), metadata={op_name="args[164]"}
  Arg_117.118.0 = f64[192,120,20]{2,1,0} parameter(117), metadata={op_name="args[163]"}
  Arg_116.117.0 = f64[192,120,20]{2,1,0} parameter(116), metadata={op_name="args[162]"}
  Arg_115.116.0 = f64[192,120,20]{2,1,0} parameter(115), metadata={op_name="args[161]"}
  Arg_114.115.0 = f64[192,120,20]{2,1,0} parameter(114), metadata={op_name="args[160]"}
  Arg_113.114.0 = f64[192,120,20]{2,1,0} parameter(113), metadata={op_name="args[159]"}
  Arg_112.113.0 = f64[192,120,20]{2,1,0} parameter(112), metadata={op_name="args[158]"}
  Arg_111.112.0 = f64[192,120,20]{2,1,0} parameter(111), metadata={op_name="args[157]"}
  Arg_110.111.0 = f64[192,120,20]{2,1,0} parameter(110), metadata={op_name="args[156]"}
  Arg_109.110.0 = f64[192,120,20]{2,1,0} parameter(109), metadata={op_name="args[155]"}
  Arg_108.109.0 = f64[192,120,20]{2,1,0} parameter(108), metadata={op_name="args[154]"}
  Arg_107.108.0 = f64[192,120,20]{2,1,0} parameter(107), metadata={op_name="args[153]"}
  Arg_106.107.0 = f64[192,120,20]{2,1,0} parameter(106), metadata={op_name="args[152]"}
  Arg_105.106.0 = f64[192,120,20]{2,1,0} parameter(105), metadata={op_name="args[151]"}
  Arg_104.105.0 = f64[192,120,20]{2,1,0} parameter(104), metadata={op_name="args[150]"}
  Arg_103.104.0 = f64[192,120,20]{2,1,0} parameter(103), metadata={op_name="args[149]"}
  Arg_102.103.0 = f64[192,120,20]{2,1,0} parameter(102), metadata={op_name="args[148]"}
  Arg_101.102.0 = f64[192,120,20]{2,1,0} parameter(101), metadata={op_name="args[147]"}
  Arg_100.101.0 = f64[192,120,1,20]{3,2,1,0} parameter(100), metadata={op_name="args[146]"}
  Arg_99.100.0 = pred[192,20,1]{2,1,0} parameter(99), metadata={op_name="args[145]"}
  Arg_98.99.0 = pred[192,20]{1,0} parameter(98), metadata={op_name="args[144]"}
  Arg_97.98.0 = pred[192,20]{1,0} parameter(97), metadata={op_name="args[143]"}
  Arg_96.97.0 = f64[192,20]{1,0} parameter(96), metadata={op_name="args[142]"}
  Arg_95.96.0 = f64[192,20]{1,0} parameter(95), metadata={op_name="args[141]"}
  Arg_94.95.0 = f64[192,20]{1,0} parameter(94), metadata={op_name="args[140]"}
  Arg_93.94.0 = f64[192,20]{1,0} parameter(93), metadata={op_name="args[139]"}
  Arg_92.93.0 = f64[192,20]{1,0} parameter(92), metadata={op_name="args[138]"}
  Arg_91.92.0 = f64[192,20]{1,0} parameter(91), metadata={op_name="args[137]"}
  Arg_90.91.0 = f64[192,20]{1,0} parameter(90), metadata={op_name="args[136]"}
  Arg_89.90.0 = f64[192,20]{1,0} parameter(89), metadata={op_name="args[135]"}
  Arg_88.89.0 = f64[192,20]{1,0} parameter(88), metadata={op_name="args[134]"}
  Arg_87.88.0 = f64[192,20]{1,0} parameter(87), metadata={op_name="args[133]"}
  Arg_86.87.0 = pred[192,20,1]{2,1,0} parameter(86), metadata={op_name="args[132]"}
  Arg_85.86.0 = pred[192,20]{1,0} parameter(85), metadata={op_name="args[131]"}
  Arg_84.85.0 = f64[192,20]{1,0} parameter(84), metadata={op_name="args[130]"}
  Arg_83.84.0 = f64[192,20]{1,0} parameter(83), metadata={op_name="args[129]"}
  Arg_82.83.0 = f64[192,20]{1,0} parameter(82), metadata={op_name="args[128]"}
  Arg_81.82.0 = f64[192,20]{1,0} parameter(81), metadata={op_name="args[127]"}
  Arg_80.81.0 = pred[192,20]{1,0} parameter(80), metadata={op_name="args[125]"}
  Arg_79.80.0 = s32[192,20]{1,0} parameter(79), metadata={op_name="args[124]"}
  Arg_78.79.0 = f64[192,20]{1,0} parameter(78), metadata={op_name="args[123]"}
  Arg_77.78.0 = f64[192,20]{1,0} parameter(77), metadata={op_name="args[122]"}
  Arg_76.77.0 = f64[192,20]{1,0} parameter(76), metadata={op_name="args[121]"}
  Arg_75.76.0 = f64[192,20]{1,0} parameter(75), metadata={op_name="args[120]"}
  Arg_74.75.0 = f64[192,20]{1,0} parameter(74), metadata={op_name="args[119]"}
  Arg_73.74.0 = f64[192,20]{1,0} parameter(73), metadata={op_name="args[118]"}
  Arg_72.73.0 = f64[192,20]{1,0} parameter(72), metadata={op_name="args[117]"}
  Arg_71.72.0 = f64[192,20]{1,0} parameter(71), metadata={op_name="args[116]"}
  Arg_70.71.0 = f64[192,20]{1,0} parameter(70), metadata={op_name="args[115]"}
  Arg_69.70.0 = f64[192,20]{1,0} parameter(69), metadata={op_name="args[114]"}
  Arg_68.69.0 = f64[192,20]{1,0} parameter(68), metadata={op_name="args[113]"}
  Arg_67.68.0 = f64[192]{0} parameter(67), metadata={op_name="args[112]"}
  Arg_66.67.0 = f64[192,20]{1,0} parameter(66), metadata={op_name="args[111]"}
  Arg_65.66.0 = f64[192,20]{1,0} parameter(65), metadata={op_name="args[110]"}
  Arg_64.65.0 = f64[192,20]{1,0} parameter(64), metadata={op_name="args[109]"}
  Arg_63.64.0 = f64[192,20]{1,0} parameter(63), metadata={op_name="args[108]"}
  Arg_62.63.0 = f64[192,20]{1,0} parameter(62), metadata={op_name="args[107]"}
  Arg_61.62.0 = f64[192,20]{1,0} parameter(61), metadata={op_name="args[106]"}
  Arg_60.61.0 = pred[192,20]{1,0} parameter(60), metadata={op_name="args[105]"}
  Arg_59.60.0 = f64[192,20]{1,0} parameter(59), metadata={op_name="args[104]"}
  Arg_58.59.0 = f64[192,20]{1,0} parameter(58), metadata={op_name="args[103]"}
  Arg_57.58.0 = f64[192,20]{1,0} parameter(57), metadata={op_name="args[102]"}
  Arg_56.57.0 = f64[192]{0} parameter(56), metadata={op_name="args[101]"}
  Arg_55.56.0 = f64[192,20]{1,0} parameter(55), metadata={op_name="args[100]"}
  Arg_54.55.0 = s32[192]{0} parameter(54), metadata={op_name="args[99]"}
  Arg_53.54.0 = f64[192,20]{1,0} parameter(53), metadata={op_name="args[98]"}
  Arg_52.53.0 = f64[192,20]{1,0} parameter(52), metadata={op_name="args[97]"}
  Arg_51.52.0 = f64[192,20]{1,0} parameter(51), metadata={op_name="args[96]"}
  Arg_50.51.0 = f64[192]{0} parameter(50), metadata={op_name="args[95]"}
  Arg_49.50.0 = f64[192,20]{1,0} parameter(49), metadata={op_name="args[94]"}
  Arg_48.49.0 = f64[192,20]{1,0} parameter(48), metadata={op_name="args[93]"}
  Arg_47.48.0 = f64[192,20]{1,0} parameter(47), metadata={op_name="args[92]"}
  Arg_46.47.0 = f64[192,20]{1,0} parameter(46), metadata={op_name="args[91]"}
  Arg_45.46.0 = f64[192,20]{1,0} parameter(45), metadata={op_name="args[90]"}
  Arg_44.45.0 = f64[192,20]{1,0} parameter(44), metadata={op_name="args[89]"}
  Arg_43.44.0 = f64[192,20]{1,0} parameter(43), metadata={op_name="args[88]"}
  Arg_42.43.0 = pred[192,20]{1,0} parameter(42), metadata={op_name="args[87]"}
  Arg_41.42.0 = f64[192,20]{1,0} parameter(41), metadata={op_name="args[86]"}
  Arg_40.41.0 = f64[192,20]{1,0} parameter(40), metadata={op_name="args[85]"}
  Arg_39.40.0 = f64[192,20]{1,0} parameter(39), metadata={op_name="args[84]"}
  Arg_38.39.0 = f64[192,20]{1,0} parameter(38), metadata={op_name="args[83]"}
  Arg_37.38.0 = f64[192,20]{1,0} parameter(37), metadata={op_name="args[82]"}
  Arg_36.37.0 = f64[192,20]{1,0} parameter(36), metadata={op_name="args[81]"}
  Arg_35.36.0 = f64[192,20]{1,0} parameter(35), metadata={op_name="args[80]"}
  Arg_34.35.0 = f64[192,20]{1,0} parameter(34), metadata={op_name="args[79]"}
  Arg_33.34.0 = pred[192,20]{1,0} parameter(33), metadata={op_name="args[78]"}
  Arg_32.33.0 = f64[192,20]{1,0} parameter(32), metadata={op_name="args[77]"}
  Arg_31.32.0 = f64[192]{0} parameter(31), metadata={op_name="args[76]"}
  Arg_30.31.0 = f64[192,20]{1,0} parameter(30), metadata={op_name="args[75]"}
  Arg_29.30.0 = f64[192,20]{1,0} parameter(29), metadata={op_name="args[74]"}
  Arg_28.29.0 = f64[192,1,20]{2,1,0} parameter(28), metadata={op_name="args[73]"}
  Arg_27.28.0 = f64[120,1,20,1]{3,2,1,0} parameter(27), metadata={op_name="args[72]"}
  Arg_26.27.0 = f64[120,1,20]{2,1,0} parameter(26), metadata={op_name="args[71]"}
  Arg_25.26.0 = f64[120,1,20]{2,1,0} parameter(25), metadata={op_name="args[70]"}
  Arg_24.25.0 = f64[120,1,20]{2,1,0} parameter(24), metadata={op_name="args[69]"}
  Arg_23.24.0 = f64[120,1,20]{2,1,0} parameter(23), metadata={op_name="args[68]"}
  Arg_22.23.0 = f64[120,1,20]{2,1,0} parameter(22), metadata={op_name="args[67]"}
  Arg_21.22.0 = f64[120,1,20]{2,1,0} parameter(21), metadata={op_name="args[66]"}
  Arg_20.21.0 = f64[1,20,1]{2,1,0} parameter(20), metadata={op_name="args[65]"}
  Arg_19.20.0 = f64[1,20]{1,0} parameter(19), metadata={op_name="args[64]"}
  Arg_18.19.0 = f64[20]{0} parameter(18), metadata={op_name="args[63]"}
  Arg_17.18.0 = f64[20]{0} parameter(17), metadata={op_name="args[62]"}
  Arg_16.17.0 = f64[1,20]{1,0} parameter(16), metadata={op_name="args[61]"}
  Arg_15.16.0 = f64[1,20]{1,0} parameter(15), metadata={op_name="args[60]"}
  Arg_14.15.0 = f64[20]{0} parameter(14), metadata={op_name="args[59]"}
  Arg_13.14.0 = f64[20]{0} parameter(13), metadata={op_name="args[58]"}
  Arg_12.13.0 = f64[1,20]{1,0} parameter(12), metadata={op_name="args[57]"}
  Arg_11.12.0 = f64[20]{0} parameter(11), metadata={op_name="args[56]"}
  Arg_10.11.0 = f64[20]{0} parameter(10), metadata={op_name="args[55]"}
  Arg_9.10.0 = f64[20]{0} parameter(9), metadata={op_name="args[54]"}
  Arg_8.9.0 = f64[20]{0} parameter(8), metadata={op_name="args[53]"}
  Arg_7.8.0 = f64[1,20]{1,0} parameter(7), metadata={op_name="args[52]"}
  Arg_6.7.0 = f64[1,20]{1,0} parameter(6), metadata={op_name="args[51]"}
  Arg_5.6.0 = f64[20]{0} parameter(5), metadata={op_name="args[50]"}
  Arg_4.5.0 = f64[20]{0} parameter(4), metadata={op_name="args[49]"}
  Arg_3.4.0 = f64[20]{0} parameter(3), metadata={op_name="args[48]"}
  Arg_2.3.0 = f64[20]{0} parameter(2), metadata={op_name="args[47]"}
  Arg_1.2.0 = f64[20]{0} parameter(1), metadata={op_name="args[46]"}
  Arg_0.1.0 = f64[20]{0} parameter(0), metadata={op_name="args[45]"}
  call = (s64[], f64[192,120,1,20]{3,1,2,0}, f64[1,20]{1,0}, f64[1,20]{1,0}, f64[1,20]{1,0}, /*index=5*/f64[1,20]{1,0}, f64[1,20,1]{2,1,0}, f64[1,20]{1,0}, f64[1,20]{1,0}, f64[20]{0}, /*index=10*/f64[20]{0}, f64[20]{0}, f64[20]{0}, f64[20]{0}, f64[20]{0}, /*index=15*/f64[20]{0}, f64[20]{0}, f64[20]{0}, f64[20]{0}, f64[20]{0}, /*index=20*/f64[20]{0}, f64[20]{0}, f64[20]{0}, f64[120,1,20]{2,0,1}, f64[120,1,20]{2,0,1}, /*index=25*/f64[120,1,20]{2,0,1}, f64[120,1,20]{2,0,1}, f64[120,1,20]{2,0,1}, f64[120,1,20]{2,0,1}, f64[120,1,20,1]{3,2,1,0}) call(constant_150_0, Arg_100.101.0, Arg_6.7.0, Arg_7.8.0, Arg_15.16.0, /*index=5*/Arg_16.17.0, Arg_12.13.0, Arg_19.20.0, Arg_20.21.0, Arg_8.9.0, /*index=10*/Arg_9.10.0, Arg_10.11.0, Arg_11.12.0, Arg_13.14.0, Arg_14.15.0, /*index=15*/Arg_17.18.0, Arg_18.19.0, Arg_0.1.0, Arg_1.2.0, Arg_2.3.0, /*index=20*/Arg_3.4.0, Arg_4.5.0, Arg_5.6.0, Arg_21.22.0, Arg_22.23.0, /*index=25*/Arg_23.24.0, Arg_24.25.0, Arg_25.26.0, Arg_26.27.0, Arg_27.28.0), to_apply=command_buffer
  get-tuple-element.1547 = s64[] get-tuple-element(call), index=0
  get-tuple-element.1548 = f64[192,120,1,20]{3,1,2,0} get-tuple-element(call), index=1
  get-tuple-element.1549 = f64[1,20]{1,0} get-tuple-element(call), index=2
  get-tuple-element.1550 = f64[1,20]{1,0} get-tuple-element(call), index=3
  get-tuple-element.1551 = f64[1,20]{1,0} get-tuple-element(call), index=4
  get-tuple-element.1552 = f64[1,20]{1,0} get-tuple-element(call), index=5
  get-tuple-element.1553 = f64[1,20,1]{2,1,0} get-tuple-element(call), index=6
  get-tuple-element.1554 = f64[1,20]{1,0} get-tuple-element(call), index=7
  get-tuple-element.1555 = f64[1,20]{1,0} get-tuple-element(call), index=8
  get-tuple-element.1556 = f64[20]{0} get-tuple-element(call), index=9
  get-tuple-element.1557 = f64[20]{0} get-tuple-element(call), index=10
  get-tuple-element.1558 = f64[20]{0} get-tuple-element(call), index=11
  get-tuple-element.1559 = f64[20]{0} get-tuple-element(call), index=12
  get-tuple-element.1560 = f64[20]{0} get-tuple-element(call), index=13
  get-tuple-element.1561 = f64[20]{0} get-tuple-element(call), index=14
  get-tuple-element.1562 = f64[20]{0} get-tuple-element(call), index=15
  get-tuple-element.1563 = f64[20]{0} get-tuple-element(call), index=16
  get-tuple-element.1564 = f64[20]{0} get-tuple-element(call), index=17
  get-tuple-element.1565 = f64[20]{0} get-tuple-element(call), index=18
  get-tuple-element.1566 = f64[20]{0} get-tuple-element(call), index=19
  get-tuple-element.1567 = f64[20]{0} get-tuple-element(call), index=20
  get-tuple-element.1568 = f64[20]{0} get-tuple-element(call), index=21
  get-tuple-element.1569 = f64[20]{0} get-tuple-element(call), index=22
  get-tuple-element.1570 = f64[120,1,20]{2,0,1} get-tuple-element(call), index=23
  get-tuple-element.1571 = f64[120,1,20]{2,0,1} get-tuple-element(call), index=24
  get-tuple-element.1572 = f64[120,1,20]{2,0,1} get-tuple-element(call), index=25
  get-tuple-element.1573 = f64[120,1,20]{2,0,1} get-tuple-element(call), index=26
  get-tuple-element.1574 = f64[120,1,20]{2,0,1} get-tuple-element(call), index=27
  get-tuple-element.1575 = f64[120,1,20]{2,0,1} get-tuple-element(call), index=28
  get-tuple-element.1576 = f64[120,1,20,1]{3,2,1,0} get-tuple-element(call), index=29
  bitcast.7014.0 = f64[120,1,20,1]{2,0,3,1} bitcast(get-tuple-element.1576)
  tuple.204 = (s64[], f64[20]{0}, f64[20]{0}, f64[20]{0}, f64[20]{0}, /*index=5*/f64[20]{0}, f64[20]{0}, f64[1,20]{1,0}, f64[1,20]{1,0}, f64[20]{0}, /*index=10*/f64[20]{0}, f64[20]{0}, f64[20]{0}, f64[1,20]{1,0}, f64[20]{0}, /*index=15*/f64[20]{0}, f64[1,20]{1,0}, f64[1,20]{1,0}, f64[20]{0}, f64[20]{0}, /*index=20*/f64[1,20]{1,0}, f64[1,20,1]{2,1,0}, f64[120,1,20]{2,0,1}, f64[120,1,20]{2,0,1}, f64[120,1,20]{2,0,1}, /*index=25*/f64[120,1,20]{2,0,1}, f64[120,1,20]{2,0,1}, f64[120,1,20]{2,0,1}, f64[120,1,20,1]{2,0,3,1}, f64[192,1,20]{2,1,0}, /*index=30*/f64[192,20]{1,0}, f64[192,20]{1,0}, f64[192]{0}, f64[192,20]{1,0}, pred[192,20]{1,0}, /*index=35*/f64[192,20]{1,0}, f64[192,20]{1,0}, f64[192,20]{1,0}, f64[192,20]{1,0}, f64[192,20]{1,0}, /*index=40*/f64[192,20]{1,0}, f64[192,20]{1,0}, f64[192,20]{1,0}, pred[192,20]{1,0}, f64[192,20]{1,0}, /*index=45*/f64[192,20]{1,0}, f64[192,20]{1,0}, f64[192,20]{1,0}, f64[192,20]{1,0}, f64[192,20]{1,0}, /*index=50*/f64[192,20]{1,0}, f64[192]{0}, f64[192,20]{1,0}, f64[192,20]{1,0}, f64[192,20]{1,0}, /*index=55*/s32[192]{0}, f64[192,20]{1,0}, f64[192]{0}, f64[192,20]{1,0}, f64[192,20]{1,0}, /*index=60*/f64[192,20]{1,0}, pred[192,20]{1,0}, f64[192,20]{1,0}, f64[192,20]{1,0}, f64[192,20]{1,0}, /*index=65*/f64[192,20]{1,0}, f64[192,20]{1,0}, f64[192,20]{1,0}, f64[192]{0}, f64[192,20]{1,0}, /*index=70*/f64[192,20]{1,0}, f64[192,20]{1,0}, f64[192,20]{1,0}, f64[192,20]{1,0}, f64[192,20]{1,0}, /*index=75*/f64[192,20]{1,0}, f64[192,20]{1,0}, f64[192,20]{1,0}, f64[192,20]{1,0}, f64[192,20]{1,0}, /*index=80*/s32[192,20]{1,0}, pred[192,20]{1,0}, f64[192,20]{1,0}, f64[192,20]{1,0}, f64[192,20]{1,0}, /*index=85*/f64[192,20]{1,0}, pred[192,20]{1,0}, pred[192,20,1]{2,1,0}, f64[192,20]{1,0}, f64[192,20]{1,0}, /*index=90*/f64[192,20]{1,0}, f64[192,20]{1,0}, f64[192,20]{1,0}, f64[192,20]{1,0}, f64[192,20]{1,0}, /*index=95*/f64[192,20]{1,0}, f64[192,20]{1,0}, f64[192,20]{1,0}, pred[192,20]{1,0}, pred[192,20]{1,0}, /*index=100*/pred[192,20,1]{2,1,0}, f64[192,120,1,20]{3,1,2,0}, f64[192,120,20]{2,1,0}, f64[192,120,20]{2,1,0}, f64[192,120,20]{2,1,0}, /*index=105*/f64[192,120,20]{2,1,0}, f64[192,120,20]{2,1,0}, f64[192,120,20]{2,1,0}, f64[192,120,20]{2,1,0}, f64[192,120,20]{2,1,0}, /*index=110*/f64[192,120,20]{2,1,0}, f64[192,120,20]{2,1,0}, f64[192,120,20]{2,1,0}, f64[192,120,20]{2,1,0}, f64[192,120,20]{2,1,0}, /*index=115*/f64[192,120,20]{2,1,0}, f64[192,120,20]{2,1,0}, f64[192,120,20]{2,1,0}, f64[192,120,20]{2,1,0}, f64[192,120,20]{2,1,0}, /*index=120*/f64[192,120,20]{2,1,0}, f64[192,120,20]{2,1,0}, f64[192,120,20]{2,1,0}, f64[192,120,20]{2,1,0}, f64[192,120,20]{2,1,0}, /*index=125*/f64[192,120,20]{2,1,0}, f64[192,120,20]{2,1,0}, f64[192,120,20]{2,1,0}, f64[192,120,20]{2,1,0}, f64[192,120,20]{2,1,0}, /*index=130*/f64[192,120,20]{2,1,0}, f64[192,120,20]{2,1,0}, f64[192,120,20]{2,1,0}, f64[192,120,20]{2,1,0}, f64[192,120,20]{2,1,0}, /*index=135*/f64[192,120,20]{2,1,0}, f64[192,120,20]{2,1,0}, f64[192,120,20]{2,1,0}, f64[192,120,20]{2,1,0}, f64[192,120,20]{2,1,0}, /*index=140*/f64[192,120,20]{2,1,0}, f64[192,120,20]{2,1,0}, f64[192,120,20]{2,1,0}, f64[192,120,20]{2,1,0}, f64[192,120,20]{2,1,0}, /*index=145*/f64[192,120,20]{2,1,0}, f64[192,120,20]{2,1,0}, f64[192,120,20]{2,1,0}, f64[192,120,20]{2,1,0}, f64[192,120,20]{2,1,0}) tuple(get-tuple-element.1547, get-tuple-element.1569, get-tuple-element.1568, get-tuple-element.1567, get-tuple-element.1566, /*index=5*/get-tuple-element.1565, get-tuple-element.1564, get-tuple-element.1549, get-tuple-element.1550, get-tuple-element.1559, /*index=10*/get-tuple-element.1558, get-tuple-element.1557, get-tuple-element.1556, get-tuple-element.1554, get-tuple-element.1561, /*index=15*/get-tuple-element.1560, get-tuple-element.1551, get-tuple-element.1552, get-tuple-element.1563, get-tuple-element.1562, /*index=20*/get-tuple-element.1555, get-tuple-element.1553, get-tuple-element.1570, get-tuple-element.1571, get-tuple-element.1572, /*index=25*/get-tuple-element.1573, get-tuple-element.1574, get-tuple-element.1575, bitcast.7014.0, Arg_28.29.0, /*index=30*/Arg_29.30.0, Arg_30.31.0, Arg_31.32.0, Arg_32.33.0, Arg_33.34.0, /*index=35*/Arg_34.35.0, Arg_35.36.0, Arg_36.37.0, Arg_37.38.0, Arg_38.39.0, /*index=40*/Arg_39.40.0, Arg_40.41.0, Arg_41.42.0, Arg_42.43.0, Arg_43.44.0, /*index=45*/Arg_44.45.0, Arg_45.46.0, Arg_46.47.0, Arg_47.48.0, Arg_48.49.0, /*index=50*/Arg_49.50.0, Arg_50.51.0, Arg_51.52.0, Arg_52.53.0, Arg_53.54.0, /*index=55*/Arg_54.55.0, Arg_55.56.0, Arg_56.57.0, Arg_57.58.0, Arg_58.59.0, /*index=60*/Arg_59.60.0, Arg_60.61.0, Arg_61.62.0, Arg_62.63.0, Arg_63.64.0, /*index=65*/Arg_64.65.0, Arg_65.66.0, Arg_66.67.0, Arg_67.68.0, Arg_68.69.0, /*index=70*/Arg_69.70.0, Arg_70.71.0, Arg_71.72.0, Arg_72.73.0, Arg_73.74.0, /*index=75*/Arg_74.75.0, Arg_75.76.0, Arg_76.77.0, Arg_77.78.0, Arg_78.79.0, /*index=80*/Arg_79.80.0, Arg_80.81.0, Arg_81.82.0, Arg_82.83.0, Arg_83.84.0, /*index=85*/Arg_84.85.0, Arg_85.86.0, Arg_86.87.0, Arg_87.88.0, Arg_88.89.0, /*index=90*/Arg_89.90.0, Arg_90.91.0, Arg_91.92.0, Arg_92.93.0, Arg_93.94.0, /*index=95*/Arg_94.95.0, Arg_95.96.0, Arg_96.97.0, Arg_97.98.0, Arg_98.99.0, /*index=100*/Arg_99.100.0, get-tuple-element.1548, Arg_101.102.0, Arg_102.103.0, Arg_103.104.0, /*index=105*/Arg_104.105.0, Arg_105.106.0, Arg_106.107.0, Arg_107.108.0, Arg_108.109.0, /*index=110*/Arg_109.110.0, Arg_110.111.0, Arg_111.112.0, Arg_112.113.0, Arg_113.114.0, /*index=115*/Arg_114.115.0, Arg_115.116.0, Arg_116.117.0, Arg_117.118.0, Arg_118.119.0, /*index=120*/Arg_119.120.0, Arg_120.121.0, Arg_121.122.0, Arg_122.123.0, Arg_123.124.0, /*index=125*/Arg_124.125.0, Arg_125.126.0, Arg_126.127.0, Arg_127.128.0, Arg_128.129.0, /*index=130*/Arg_129.130.0, Arg_130.131.0, Arg_131.132.0, Arg_132.133.0, Arg_133.134.0, /*index=135*/Arg_134.135.0, Arg_135.136.0, Arg_136.137.0, Arg_137.138.0, Arg_138.139.0, /*index=140*/Arg_139.140.0, Arg_140.141.0, Arg_141.142.0, Arg_142.143.0, Arg_143.144.0, /*index=145*/Arg_144.145.0, Arg_145.146.0, Arg_146.147.0, Arg_147.148.0, Arg_148.149.0)
  while.3510.0 = (s64[], f64[20]{0}, f64[20]{0}, f64[20]{0}, f64[20]{0}, /*index=5*/f64[20]{0}, f64[20]{0}, f64[1,20]{1,0}, f64[1,20]{1,0}, f64[20]{0}, /*index=10*/f64[20]{0}, f64[20]{0}, f64[20]{0}, f64[1,20]{1,0}, f64[20]{0}, /*index=15*/f64[20]{0}, f64[1,20]{1,0}, f64[1,20]{1,0}, f64[20]{0}, f64[20]{0}, /*index=20*/f64[1,20]{1,0}, f64[1,20,1]{2,1,0}, f64[120,1,20]{2,0,1}, f64[120,1,20]{2,0,1}, f64[120,1,20]{2,0,1}, /*index=25*/f64[120,1,20]{2,0,1}, f64[120,1,20]{2,0,1}, f64[120,1,20]{2,0,1}, f64[120,1,20,1]{2,0,3,1}, f64[192,1,20]{2,1,0}, /*index=30*/f64[192,20]{1,0}, f64[192,20]{1,0}, f64[192]{0}, f64[192,20]{1,0}, pred[192,20]{1,0}, /*index=35*/f64[192,20]{1,0}, f64[192,20]{1,0}, f64[192,20]{1,0}, f64[192,20]{1,0}, f64[192,20]{1,0}, /*index=40*/f64[192,20]{1,0}, f64[192,20]{1,0}, f64[192,20]{1,0}, pred[192,20]{1,0}, f64[192,20]{1,0}, /*index=45*/f64[192,20]{1,0}, f64[192,20]{1,0}, f64[192,20]{1,0}, f64[192,20]{1,0}, f64[192,20]{1,0}, /*index=50*/f64[192,20]{1,0}, f64[192]{0}, f64[192,20]{1,0}, f64[192,20]{1,0}, f64[192,20]{1,0}, /*index=55*/s32[192]{0}, f64[192,20]{1,0}, f64[192]{0}, f64[192,20]{1,0}, f64[192,20]{1,0}, /*index=60*/f64[192,20]{1,0}, pred[192,20]{1,0}, f64[192,20]{1,0}, f64[192,20]{1,0}, f64[192,20]{1,0}, /*index=65*/f64[192,20]{1,0}, f64[192,20]{1,0}, f64[192,20]{1,0}, f64[192]{0}, f64[192,20]{1,0}, /*index=70*/f64[192,20]{1,0}, f64[192,20]{1,0}, f64[192,20]{1,0}, f64[192,20]{1,0}, f64[192,20]{1,0}, /*index=75*/f64[192,20]{1,0}, f64[192,20]{1,0}, f64[192,20]{1,0}, f64[192,20]{1,0}, f64[192,20]{1,0}, /*index=80*/s32[192,20]{1,0}, pred[192,20]{1,0}, f64[192,20]{1,0}, f64[192,20]{1,0}, f64[192,20]{1,0}, /*index=85*/f64[192,20]{1,0}, pred[192,20]{1,0}, pred[192,20,1]{2,1,0}, f64[192,20]{1,0}, f64[192,20]{1,0}, /*index=90*/f64[192,20]{1,0}, f64[192,20]{1,0}, f64[192,20]{1,0}, f64[192,20]{1,0}, f64[192,20]{1,0}, /*index=95*/f64[192,20]{1,0}, f64[192,20]{1,0}, f64[192,20]{1,0}, pred[192,20]{1,0}, pred[192,20]{1,0}, /*index=100*/pred[192,20,1]{2,1,0}, f64[192,120,1,20]{3,1,2,0}, f64[192,120,20]{2,1,0}, f64[192,120,20]{2,1,0}, f64[192,120,20]{2,1,0}, /*index=105*/f64[192,120,20]{2,1,0}, f64[192,120,20]{2,1,0}, f64[192,120,20]{2,1,0}, f64[192,120,20]{2,1,0}, f64[192,120,20]{2,1,0}, /*index=110*/f64[192,120,20]{2,1,0}, f64[192,120,20]{2,1,0}, f64[192,120,20]{2,1,0}, f64[192,120,20]{2,1,0}, f64[192,120,20]{2,1,0}, /*index=115*/f64[192,120,20]{2,1,0}, f64[192,120,20]{2,1,0}, f64[192,120,20]{2,1,0}, f64[192,120,20]{2,1,0}, f64[192,120,20]{2,1,0}, /*index=120*/f64[192,120,20]{2,1,0}, f64[192,120,20]{2,1,0}, f64[192,120,20]{2,1,0}, f64[192,120,20]{2,1,0}, f64[192,120,20]{2,1,0}, /*index=125*/f64[192,120,20]{2,1,0}, f64[192,120,20]{2,1,0}, f64[192,120,20]{2,1,0}, f64[192,120,20]{2,1,0}, f64[192,120,20]{2,1,0}, /*index=130*/f64[192,120,20]{2,1,0}, f64[192,120,20]{2,1,0}, f64[192,120,20]{2,1,0}, f64[192,120,20]{2,1,0}, f64[192,120,20]{2,1,0}, /*index=135*/f64[192,120,20]{2,1,0}, f64[192,120,20]{2,1,0}, f64[192,120,20]{2,1,0}, f64[192,120,20]{2,1,0}, f64[192,120,20]{2,1,0}, /*index=140*/f64[192,120,20]{2,1,0}, f64[192,120,20]{2,1,0}, f64[192,120,20]{2,1,0}, f64[192,120,20]{2,1,0}, f64[192,120,20]{2,1,0}, /*index=145*/f64[192,120,20]{2,1,0}, f64[192,120,20]{2,1,0}, f64[192,120,20]{2,1,0}, f64[192,120,20]{2,1,0}, f64[192,120,20]{2,1,0}) while(tuple.204), condition=region_3.3356, body=region_0.2563, metadata={op_name="jit(scan)/jit(main)/while[cond_nconsts=0 body_nconsts=121]" source_file="/fs04/fc37/adam/projects/psilocybin-prl-analyses/src/prl_hgf/fitting/hierarchical_patrl.py" source_line=378}, backend_config={"known_trip_count":{"n":"192"}}
  get-tuple-element.825.0 = f64[20]{0} get-tuple-element(while.3510.0), index=1, metadata={op_name="jit(scan)/jit(main)/while[cond_nconsts=0 body_nconsts=121]" source_file="/fs04/fc37/adam/projects/psilocybin-prl-analyses/src/prl_hgf/fitting/hierarchical_patrl.py" source_line=378}
  get-tuple-element.826.0 = f64[20]{0} get-tuple-element(while.3510.0), index=2, metadata={op_name="jit(scan)/jit(main)/while[cond_nconsts=0 body_nconsts=121]" source_file="/fs04/fc37/adam/projects/psilocybin-prl-analyses/src/prl_hgf/fitting/hierarchical_patrl.py" source_line=378}
  get-tuple-element.827.0 = f64[20]{0} get-tuple-element(while.3510.0), index=3, metadata={op_name="jit(scan)/jit(main)/while[cond_nconsts=0 body_nconsts=121]" source_file="/fs04/fc37/adam/projects/psilocybin-prl-analyses/src/prl_hgf/fitting/hierarchical_patrl.py" source_line=378}
  get-tuple-element.828.0 = f64[20]{0} get-tuple-element(while.3510.0), index=4, metadata={op_name="jit(scan)/jit(main)/while[cond_nconsts=0 body_nconsts=121]" source_file="/fs04/fc37/adam/projects/psilocybin-prl-analyses/src/prl_hgf/fitting/hierarchical_patrl.py" source_line=378}
  get-tuple-element.829.0 = f64[20]{0} get-tuple-element(while.3510.0), index=5, metadata={op_name="jit(scan)/jit(main)/while[cond_nconsts=0 body_nconsts=121]" source_file="/fs04/fc37/adam/projects/psilocybin-prl-analyses/src/prl_hgf/fitting/hierarchical_patrl.py" source_line=378}
  get-tuple-element.830.0 = f64[20]{0} get-tuple-element(while.3510.0), index=6, metadata={op_name="jit(scan)/jit(main)/while[cond_nconsts=0 body_nconsts=121]" source_file="/fs04/fc37/adam/projects/psilocybin-prl-analyses/src/prl_hgf/fitting/hierarchical_patrl.py" source_line=378}
  get-tuple-element.831.0 = f64[1,20]{1,0} get-tuple-element(while.3510.0), index=7, metadata={op_name="jit(scan)/jit(main)/while[cond_nconsts=0 body_nconsts=121]" source_file="/fs04/fc37/adam/projects/psilocybin-prl-analyses/src/prl_hgf/fitting/hierarchical_patrl.py" source_line=378}
  get-tuple-element.832.0 = f64[1,20]{1,0} get-tuple-element(while.3510.0), index=8, metadata={op_name="jit(scan)/jit(main)/while[cond_nconsts=0 body_nconsts=121]" source_file="/fs04/fc37/adam/projects/psilocybin-prl-analyses/src/prl_hgf/fitting/hierarchical_patrl.py" source_line=378}
  get-tuple-element.833.0 = f64[20]{0} get-tuple-element(while.3510.0), index=9, metadata={op_name="jit(scan)/jit(main)/while[cond_nconsts=0 body_nconsts=121]" source_file="/fs04/fc37/adam/projects/psilocybin-prl-analyses/src/prl_hgf/fitting/hierarchical_patrl.py" source_line=378}
  get-tuple-element.834.0 = f64[20]{0} get-tuple-element(while.3510.0), index=10, metadata={op_name="jit(scan)/jit(main)/while[cond_nconsts=0 body_nconsts=121]" source_file="/fs04/fc37/adam/projects/psilocybin-prl-analyses/src/prl_hgf/fitting/hierarchical_patrl.py" source_line=378}
  get-tuple-element.835.0 = f64[20]{0} get-tuple-element(while.3510.0), index=11, metadata={op_name="jit(scan)/jit(main)/while[cond_nconsts=0 body_nconsts=121]" source_file="/fs04/fc37/adam/projects/psilocybin-prl-analyses/src/prl_hgf/fitting/hierarchical_patrl.py" source_line=378}
  get-tuple-element.836.0 = f64[20]{0} get-tuple-element(while.3510.0), index=12, metadata={op_name="jit(scan)/jit(main)/while[cond_nconsts=0 body_nconsts=121]" source_file="/fs04/fc37/adam/projects/psilocybin-prl-analyses/src/prl_hgf/fitting/hierarchical_patrl.py" source_line=378}
  get-tuple-element.837.0 = f64[1,20]{1,0} get-tuple-element(while.3510.0), index=13, metadata={op_name="jit(scan)/jit(main)/while[cond_nconsts=0 body_nconsts=121]" source_file="/fs04/fc37/adam/projects/psilocybin-prl-analyses/src/prl_hgf/fitting/hierarchical_patrl.py" source_line=378}
  get-tuple-element.838.0 = f64[20]{0} get-tuple-element(while.3510.0), index=14, metadata={op_name="jit(scan)/jit(main)/while[cond_nconsts=0 body_nconsts=121]" source_file="/fs04/fc37/adam/projects/psilocybin-prl-analyses/src/prl_hgf/fitting/hierarchical_patrl.py" source_line=378}
  get-tuple-element.839.0 = f64[20]{0} get-tuple-element(while.3510.0), index=15, metadata={op_name="jit(scan)/jit(main)/while[cond_nconsts=0 body_nconsts=121]" source_file="/fs04/fc37/adam/projects/psilocybin-prl-analyses/src/prl_hgf/fitting/hierarchical_patrl.py" source_line=378}
  get-tuple-element.840.0 = f64[1,20]{1,0} get-tuple-element(while.3510.0), index=16, metadata={op_name="jit(scan)/jit(main)/while[cond_nconsts=0 body_nconsts=121]" source_file="/fs04/fc37/adam/projects/psilocybin-prl-analyses/src/prl_hgf/fitting/hierarchical_patrl.py" source_line=378}
  get-tuple-element.841.0 = f64[1,20]{1,0} get-tuple-element(while.3510.0), index=17, metadata={op_name="jit(scan)/jit(main)/while[cond_nconsts=0 body_nconsts=121]" source_file="/fs04/fc37/adam/projects/psilocybin-prl-analyses/src/prl_hgf/fitting/hierarchical_patrl.py" source_line=378}
  get-tuple-element.842.0 = f64[20]{0} get-tuple-element(while.3510.0), index=18, metadata={op_name="jit(scan)/jit(main)/while[cond_nconsts=0 body_nconsts=121]" source_file="/fs04/fc37/adam/projects/psilocybin-prl-analyses/src/prl_hgf/fitting/hierarchical_patrl.py" source_line=378}
  get-tuple-element.843.0 = f64[20]{0} get-tuple-element(while.3510.0), index=19, metadata={op_name="jit(scan)/jit(main)/while[cond_nconsts=0 body_nconsts=121]" source_file="/fs04/fc37/adam/projects/psilocybin-prl-analyses/src/prl_hgf/fitting/hierarchical_patrl.py" source_line=378}
  get-tuple-element.844.0 = f64[1,20]{1,0} get-tuple-element(while.3510.0), index=20, metadata={op_name="jit(scan)/jit(main)/while[cond_nconsts=0 body_nconsts=121]" source_file="/fs04/fc37/adam/projects/psilocybin-prl-analyses/src/prl_hgf/fitting/hierarchical_patrl.py" source_line=378}
  get-tuple-element.845.0 = f64[1,20,1]{2,1,0} get-tuple-element(while.3510.0), index=21, metadata={op_name="jit(scan)/jit(main)/while[cond_nconsts=0 body_nconsts=121]" source_file="/fs04/fc37/adam/projects/psilocybin-prl-analyses/src/prl_hgf/fitting/hierarchical_patrl.py" source_line=378}
  get-tuple-element.846.0 = f64[120,1,20]{2,0,1} get-tuple-element(while.3510.0), index=22, metadata={op_name="jit(scan)/jit(main)/while[cond_nconsts=0 body_nconsts=121]" source_file="/fs04/fc37/adam/projects/psilocybin-prl-analyses/src/prl_hgf/fitting/hierarchical_patrl.py" source_line=378}
  bitcast.7304.0 = f64[120,1,20]{2,1,0} bitcast(get-tuple-element.846.0)
  get-tuple-element.847.0 = f64[120,1,20]{2,0,1} get-tuple-element(while.3510.0), index=23, metadata={op_name="jit(scan)/jit(main)/while[cond_nconsts=0 body_nconsts=121]" source_file="/fs04/fc37/adam/projects/psilocybin-prl-analyses/src/prl_hgf/fitting/hierarchical_patrl.py" source_line=378}
  bitcast.7308.0 = f64[120,1,20]{2,1,0} bitcast(get-tuple-element.847.0)
  get-tuple-element.848.0 = f64[120,1,20]{2,0,1} get-tuple-element(while.3510.0), index=24, metadata={op_name="jit(scan)/jit(main)/while[cond_nconsts=0 body_nconsts=121]" source_file="/fs04/fc37/adam/projects/psilocybin-prl-analyses/src/prl_hgf/fitting/hierarchical_patrl.py" source_line=378}
  bitcast.7312.0 = f64[120,1,20]{2,1,0} bitcast(get-tuple-element.848.0)
  get-tuple-element.849.0 = f64[120,1,20]{2,0,1} get-tuple-element(while.3510.0), index=25, metadata={op_name="jit(scan)/jit(main)/while[cond_nconsts=0 body_nconsts=121]" source_file="/fs04/fc37/adam/projects/psilocybin-prl-analyses/src/prl_hgf/fitting/hierarchical_patrl.py" source_line=378}
  bitcast.7316.0 = f64[120,1,20]{2,1,0} bitcast(get-tuple-element.849.0)
  get-tuple-element.850.0 = f64[120,1,20]{2,0,1} get-tuple-element(while.3510.0), index=26, metadata={op_name="jit(scan)/jit(main)/while[cond_nconsts=0 body_nconsts=121]" source_file="/fs04/fc37/adam/projects/psilocybin-prl-analyses/src/prl_hgf/fitting/hierarchical_patrl.py" source_line=378}
  bitcast.7320.0 = f64[120,1,20]{2,1,0} bitcast(get-tuple-element.850.0)
  get-tuple-element.851.0 = f64[120,1,20]{2,0,1} get-tuple-element(while.3510.0), index=27, metadata={op_name="jit(scan)/jit(main)/while[cond_nconsts=0 body_nconsts=121]" source_file="/fs04/fc37/adam/projects/psilocybin-prl-analyses/src/prl_hgf/fitting/hierarchical_patrl.py" source_line=378}
  get-tuple-element.852.0 = f64[120,1,20,1]{2,0,3,1} get-tuple-element(while.3510.0), index=28, metadata={op_name="jit(scan)/jit(main)/while[cond_nconsts=0 body_nconsts=121]" source_file="/fs04/fc37/adam/projects/psilocybin-prl-analyses/src/prl_hgf/fitting/hierarchical_patrl.py" source_line=378}
  bitcast.7328.0 = f64[120,1,20,1]{3,2,1,0} bitcast(get-tuple-element.852.0)
  bitcast.7324.0 = f64[120,1,20]{2,1,0} bitcast(get-tuple-element.851.0)
  ROOT tuple.150.0 = (f64[20]{0}, f64[20]{0}, f64[20]{0}, f64[20]{0}, f64[20]{0}, /*index=5*/f64[20]{0}, f64[1,20]{1,0}, f64[1,20]{1,0}, f64[20]{0}, f64[20]{0}, /*index=10*/f64[20]{0}, f64[20]{0}, f64[1,20]{1,0}, f64[20]{0}, f64[20]{0}, /*index=15*/f64[1,20]{1,0}, f64[1,20]{1,0}, f64[20]{0}, f64[20]{0}, f64[1,20]{1,0}, /*index=20*/f64[1,20,1]{2,1,0}, f64[120,1,20]{2,1,0}, f64[120,1,20]{2,1,0}, f64[120,1,20]{2,1,0}, f64[120,1,20]{2,1,0}, /*index=25*/f64[120,1,20]{2,1,0}, f64[120,1,20]{2,1,0}, f64[120,1,20,1]{3,2,1,0}) tuple(get-tuple-element.825.0, get-tuple-element.826.0, get-tuple-element.827.0, get-tuple-element.828.0, get-tuple-element.829.0, /*index=5*/get-tuple-element.830.0, get-tuple-element.831.0, get-tuple-element.832.0, get-tuple-element.833.0, get-tuple-element.834.0, /*index=10*/get-tuple-element.835.0, get-tuple-element.836.0, get-tuple-element.837.0, get-tuple-element.838.0, get-tuple-element.839.0, /*index=15*/get-tuple-element.840.0, get-tuple-element.841.0, get-tuple-element.842.0, get-tuple-element.843.0, get-tuple-element.844.0, /*index=20*/get-tuple-element.845.0, bitcast.7304.0, bitcast.7308.0, bitcast.7312.0, bitcast.7316.0, /*index=25*/bitcast.7320.0, bitcast.7324.0, bitcast.7328.0)
} // main.3662

