HloModule jit_scan, is_scheduled=true, entry_computation_layout={(f64[20]{0}, f64[20]{0}, f64[20]{0}, f64[20]{0}, f64[20]{0}, /*index=5*/f64[20]{0}, f64[20]{0}, s32[20]{0}, f64[20]{0}, f64[20]{0}, /*index=10*/f64[20,1]{1,0}, f64[20]{0}, f64[20]{0}, f64[20]{0}, f64[20]{0}, /*index=15*/s64[20]{0}, f64[20]{0}, f64[20]{0}, f64[20]{0}, f64[20]{0}, /*index=20*/f64[20]{0}, f64[20]{0}, f64[20]{0}, f64[20,1]{1,0}, f64[20,1]{1,0}, /*index=25*/f64[20]{0}, f64[20]{0}, f64[20]{0}, f64[20]{0}, s64[20]{0}, /*index=30*/f64[20]{0}, f64[20]{0}, f64[20]{0}, f64[20]{0}, f64[20]{0}, /*index=35*/f64[20]{0}, f64[20]{0}, f64[20,1]{1,0}, f64[120,20]{1,0}, f64[120,20]{1,0}, /*index=40*/f64[120,20]{1,0}, f64[120,20]{1,0}, f64[120,20]{1,0}, f64[120,20]{1,0}, f64[120,20]{1,0}, /*index=45*/f64[120,20]{1,0}, f64[120,20]{1,0}, f64[120,20]{1,0}, f64[120,20]{1,0}, f64[120,20]{1,0}, /*index=50*/f64[120,20]{1,0}, f64[120,20]{1,0}, f64[120,20]{1,0}, f64[120,20]{1,0}, f64[120,20]{1,0}, /*index=55*/f64[120,20]{1,0}, f64[120,20]{1,0}, f64[120,20]{1,0}, f64[120,20,1]{2,1,0}, f64[192,20,1]{2,1,0}, /*index=60*/s32[192]{0}, f64[192]{0})->(f64[20]{0}, f64[20]{0}, f64[20]{0}, f64[20]{0}, s32[20]{0}, /*index=5*/f64[20]{0}, f64[20]{0}, f64[20,1]{1,0}, f64[20]{0}, f64[20]{0}, /*index=10*/f64[20]{0}, f64[20]{0}, s64[20]{0}, f64[20]{0}, f64[20]{0}, /*index=15*/f64[20]{0}, f64[20]{0}, f64[20]{0}, f64[20]{0}, f64[20]{0}, /*index=20*/f64[20,1]{1,0}, f64[20,1]{1,0}, f64[20]{0}, f64[20]{0}, f64[20]{0}, /*index=25*/f64[20]{0}, s64[20]{0}, f64[20]{0}, f64[20]{0}, f64[20]{0}, /*index=30*/f64[20]{0}, f64[20]{0}, f64[20]{0}, f64[20]{0}, f64[20,1]{1,0}, /*index=35*/f64[120,20]{1,0}, f64[120,20]{1,0}, f64[120,20]{1,0}, f64[120,20]{1,0}, f64[120,20]{1,0}, /*index=40*/f64[120,20]{1,0}, f64[120,20]{1,0}, f64[120,20]{1,0}, f64[120,20]{1,0}, f64[120,20]{1,0}, /*index=45*/f64[120,20]{1,0}, f64[120,20]{1,0}, f64[120,20]{1,0}, f64[120,20]{1,0}, f64[120,20]{1,0}, /*index=50*/f64[120,20]{1,0}, f64[120,20]{1,0}, f64[120,20]{1,0}, f64[120,20]{1,0}, f64[120,20]{1,0}, /*index=55*/f64[120,20,1]{2,1,0}, f64[192,20]{1,0}, f64[192,20]{1,0}, f64[192,20]{1,0}, f64[192,20]{1,0}, /*index=60*/pred[192,20]{1,0}, f64[192,20]{1,0}, f64[192,20]{1,0}, f64[192,20]{1,0}, f64[192,20]{1,0}, /*index=65*/f64[192,20]{1,0}, f64[192,20]{1,0}, f64[192,20]{1,0}, f64[192,20]{1,0}, pred[192,20]{1,0}, /*index=70*/f64[192,20]{1,0}, f64[192,20]{1,0}, f64[192,20]{1,0}, f64[192,20]{1,0}, f64[192,20]{1,0}, /*index=75*/f64[192,20]{1,0}, f64[192,20]{1,0}, f64[192]{0}, f64[192,20]{1,0}, f64[192,20]{1,0}, /*index=80*/f64[192,20]{1,0}, s32[192]{0}, f64[192,20]{1,0}, f64[192]{0}, f64[192,20]{1,0}, /*index=85*/f64[192,20]{1,0}, f64[192,20]{1,0}, pred[192,20]{1,0}, f64[192,20]{1,0}, f64[192,20]{1,0}, /*index=90*/f64[192,20]{1,0}, f64[192,20]{1,0}, f64[192,20]{1,0}, f64[192,20]{1,0}, f64[192]{0}, /*index=95*/f64[192,20]{1,0}, f64[192,20]{1,0}, f64[192,20]{1,0}, f64[192,20]{1,0}, f64[192,20]{1,0}, /*index=100*/f64[192,20]{1,0}, f64[192,20]{1,0}, f64[192,20]{1,0}, f64[192,20]{1,0}, f64[192,20]{1,0}, /*index=105*/f64[192,20]{1,0}, s32[192,20]{1,0}, pred[192,20]{1,0}, pred[192,20,1]{2,1,0}, f64[192,20]{1,0}, /*index=110*/f64[192,20]{1,0}, f64[192,20]{1,0}, f64[192,20]{1,0}, pred[192,20]{1,0}, pred[192,20,1]{2,1,0}, /*index=115*/f64[192,20]{1,0}, f64[192,20]{1,0}, f64[192,20]{1,0}, f64[192,20]{1,0}, f64[192,20]{1,0}, /*index=120*/f64[192,20]{1,0}, f64[192,20]{1,0}, f64[192,20]{1,0}, f64[192,20]{1,0}, f64[192,20]{1,0}, /*index=125*/pred[192,20]{1,0}, pred[192,20]{1,0}, pred[192,20,1]{2,1,0}, f64[192,120,20]{2,1,0}, f64[192,120,20]{2,1,0}, /*index=130*/f64[192,120,20]{2,1,0}, f64[192,120,20]{2,1,0}, f64[192,120,20]{2,1,0}, f64[192,120,20]{2,1,0}, f64[192,120,20]{2,1,0}, /*index=135*/f64[192,120,20]{2,1,0}, f64[192,120,20]{2,1,0}, f64[192,120,20]{2,1,0}, f64[192,120,20]{2,1,0}, f64[192,120,20]{2,1,0}, /*index=140*/f64[192,120,20]{2,1,0}, f64[192,120,20]{2,1,0}, f64[192,120,20]{2,1,0}, f64[192,120,20]{2,1,0}, f64[192,120,20]{2,1,0}, /*index=145*/f64[192,120,20]{2,1,0}, f64[192,120,20]{2,1,0}, f64[192,120,20]{2,1,0}, f64[192,120,20]{2,1,0}, f64[192,120,20]{2,1,0}, /*index=150*/f64[192,120,20]{2,1,0}, f64[192,120,20]{2,1,0}, f64[192,120,20]{2,1,0}, f64[192,120,20]{2,1,0}, f64[192,120,20]{2,1,0}, /*index=155*/f64[192,120,20]{2,1,0}, f64[192,120,20]{2,1,0}, f64[192,120,20]{2,1,0}, f64[192,120,20]{2,1,0}, f64[192,120,20]{2,1,0}, /*index=160*/f64[192,120,20]{2,1,0}, f64[192,120,20]{2,1,0}, f64[192,120,20]{2,1,0}, f64[192,120,20]{2,1,0}, f64[192,120,20]{2,1,0}, /*index=165*/f64[192,120,20]{2,1,0}, f64[192,120,20]{2,1,0}, f64[192,120,20]{2,1,0}, f64[192,120,20]{2,1,0}, f64[192,120,20]{2,1,0}, /*index=170*/f64[192,120,20]{2,1,0}, f64[192,120,20]{2,1,0}, f64[192,120,20]{2,1,0}, f64[192,120,20]{2,1,0}, f64[192,120,20]{2,1,0}, /*index=175*/f64[192,120,20]{2,1,0}, f64[192,120,20]{2,1,0})}, allow_spmd_sharding_propagation_to_parameters={true,true,true,true,true,true,true,true,true,true,true,true,true,true,true,true,true,true,true,true,true,true,true,true,true,true,true,true,true,true,true,true,true,true,true,true,true,true,true,true,true,true,true,true,true,true,true,true,true,true,true,true,true,true,true,true,true,true,true,true,true,true}, allow_spmd_sharding_propagation_to_output={true,true,true,true,true,true,true,true,true,true,true,true,true,true,true,true,true,true,true,true,true,true,true,true,true,true,true,true,true,true,true,true,true,true,true,true,true,true,true,true,true,true,true,true,true,true,true,true,true,true,true,true,true,true,true,true,true,true,true,true,true,true,true,true,true,true,true,true,true,true,true,true,true,true,true,true,true,true,true,true,true,true,true,true,true,true,true,true,true,true,true,true,true,true,true,true,true,true,true,true,true,true,true,true,true,true,true,true,true,true,true,true,true,true,true,true,true,true,true,true,true,true,true,true,true,true,true,true,true,true,true,true,true,true,true,true,true,true,true,true,true,true,true,true,true,true,true,true,true,true,true,true,true,true,true,true,true,true,true,true,true,true,true,true,true,true,true,true,true,true,true,true,true,true,true,true,true}, frontend_attributes={fingerprint_before_lhs="ff61d2a53849d56da197a685e10dbc45"}

fused_add_divide_exponential {
  constant_49_5 = f64[] constant(1)
  broadcast.3193.4 = f64[20]{0} broadcast(constant_49_5), dimensions={}
  param_1.1633 = f64[20]{0} parameter(1)
  divide.850.1.clone.1 = f64[20]{0} divide(broadcast.3193.4, param_1.1633), metadata={op_name="jit(scan)/jit(main)/while/body/jit(beliefs_propagation)/jit(continuous_node_posterior_update)/jit(posterior_update_precision_continuous_node)/cond/branch_0_fun/jit(precision_update_missing_values)/div" source_file="/fs04/fc37/adam/projects/psilocybin-prl-analyses/src/prl_hgf/fitting/hierarchical_patrl.py" source_line=362}
  param_0.1173 = f64[] parameter(0)
  broadcast.3194.1.clone.1 = f64[20]{0} broadcast(param_0.1173), dimensions={}, metadata={op_name="jit(scan)/jit(main)/while/body/jit(beliefs_propagation)/jit(continuous_node_posterior_update)/jit(posterior_update_precision_continuous_node)/cond/branch_0_fun/jit(precision_update_missing_values)/mul" source_file="/fs04/fc37/adam/projects/psilocybin-prl-analyses/src/prl_hgf/fitting/hierarchical_patrl.py" source_line=362}
  param_2.1394 = f64[20]{0} parameter(2)
  param_4.988 = f64[20,1]{1,0} parameter(4)
  bitcast.3806.12.clone.1 = f64[20]{0} bitcast(param_4.988)
  param_3.1214 = f64[20]{0} parameter(3)
  multiply.3478.5.clone.1 = f64[20]{0} multiply(bitcast.3806.12.clone.1, param_3.1214), metadata={op_name="jit(scan)/jit(main)/while/body/jit(beliefs_propagation)/jit(continuous_node_posterior_update)/jit(posterior_update_precision_continuous_node)/cond/branch_0_fun/jit(precision_update_missing_values)/mul" source_file="/fs04/fc37/adam/projects/psilocybin-prl-analyses/src/prl_hgf/fitting/hierarchical_patrl.py" source_line=362}
  add.1023.3.clone.1 = f64[20]{0} add(param_2.1394, multiply.3478.5.clone.1), metadata={op_name="jit(scan)/jit(main)/while/body/jit(beliefs_propagation)/jit(continuous_node_posterior_update)/jit(posterior_update_precision_continuous_node)/cond/branch_0_fun/jit(precision_update_missing_values)/add" source_file="/fs04/fc37/adam/projects/psilocybin-prl-analyses/src/prl_hgf/fitting/hierarchical_patrl.py" source_line=362}
  exponential.73.1.clone.1 = f64[20]{0} exponential(add.1023.3.clone.1), metadata={op_name="jit(scan)/jit(main)/while/body/jit(beliefs_propagation)/jit(continuous_node_posterior_update)/jit(posterior_update_precision_continuous_node)/cond/branch_0_fun/jit(precision_update_missing_values)/exp" source_file="/fs04/fc37/adam/projects/psilocybin-prl-analyses/src/prl_hgf/fitting/hierarchical_patrl.py" source_line=362}
  multiply.3479.1.clone.1 = f64[20]{0} multiply(broadcast.3194.1.clone.1, exponential.73.1.clone.1), metadata={op_name="jit(scan)/jit(main)/while/body/jit(beliefs_propagation)/jit(continuous_node_posterior_update)/jit(posterior_update_precision_continuous_node)/cond/branch_0_fun/jit(precision_update_missing_values)/mul" source_file="/fs04/fc37/adam/projects/psilocybin-prl-analyses/src/prl_hgf/fitting/hierarchical_patrl.py" source_line=362}
  add.1024.1.clone.1 = f64[20]{0} add(divide.850.1.clone.1, multiply.3479.1.clone.1), metadata={op_name="jit(scan)/jit(main)/while/body/jit(beliefs_propagation)/jit(continuous_node_posterior_update)/jit(posterior_update_precision_continuous_node)/cond/branch_0_fun/jit(precision_update_missing_values)/add" source_file="/fs04/fc37/adam/projects/psilocybin-prl-analyses/src/prl_hgf/fitting/hierarchical_patrl.py" source_line=362}
  multiply.3481.2 = f64[20]{0} multiply(add.1024.1.clone.1, add.1024.1.clone.1), metadata={op_name="jit(scan)/jit(main)/while/body/jit(beliefs_propagation)/jit(continuous_node_posterior_update)/jit(posterior_update_precision_continuous_node)/cond/branch_0_fun/jit(precision_update_missing_values)/mul" source_file="/fs04/fc37/adam/projects/psilocybin-prl-analyses/src/prl_hgf/fitting/hierarchical_patrl.py" source_line=362}
  divide.853.1 = f64[20]{0} divide(broadcast.3193.4, multiply.3481.2), metadata={op_name="jit(scan)/jit(main)/while/body/jit(beliefs_propagation)/jit(continuous_node_posterior_update)/jit(posterior_update_precision_continuous_node)/cond/branch_0_fun/jit(precision_update_missing_values)/div" source_file="/fs04/fc37/adam/projects/psilocybin-prl-analyses/src/prl_hgf/fitting/hierarchical_patrl.py" source_line=362}
  divide.851.1.clone.1 = f64[20]{0} divide(broadcast.3193.4, add.1024.1.clone.1), metadata={op_name="jit(scan)/jit(main)/while/body/jit(beliefs_propagation)/jit(continuous_node_posterior_update)/jit(posterior_update_precision_continuous_node)/cond/branch_0_fun/jit(precision_update_missing_values)/div" source_file="/fs04/fc37/adam/projects/psilocybin-prl-analyses/src/prl_hgf/fitting/hierarchical_patrl.py" source_line=362}
  multiply.3480.2.clone.1 = f64[20]{0} multiply(param_1.1633, param_1.1633), metadata={op_name="jit(scan)/jit(main)/while/body/jit(beliefs_propagation)/jit(continuous_node_posterior_update)/jit(posterior_update_precision_continuous_node)/cond/branch_0_fun/jit(precision_update_missing_values)/mul" source_file="/fs04/fc37/adam/projects/psilocybin-prl-analyses/src/prl_hgf/fitting/hierarchical_patrl.py" source_line=362}
  divide.852.1.clone.1 = f64[20]{0} divide(broadcast.3193.4, multiply.3480.2.clone.1), metadata={op_name="jit(scan)/jit(main)/while/body/jit(beliefs_propagation)/jit(continuous_node_posterior_update)/jit(posterior_update_precision_continuous_node)/cond/branch_0_fun/jit(precision_update_missing_values)/div" source_file="/fs04/fc37/adam/projects/psilocybin-prl-analyses/src/prl_hgf/fitting/hierarchical_patrl.py" source_line=362}
  ROOT tuple.241 = (f64[20]{0}, f64[20]{0}, f64[20]{0}, f64[20]{0}, f64[20]{0}) tuple(divide.853.1, divide.851.1.clone.1, add.1024.1.clone.1, exponential.73.1.clone.1, divide.852.1.clone.1)
} // fused_add_divide_exponential

fused_multiply {
  param_3.1209 = f64[120,20]{1,0} parameter(3)
  negate.271.5 = f64[120,20]{1,0} negate(param_3.1209), metadata={op_name="jit(scan)/jit(main)/while/body/jit(beliefs_propagation)/jit(continuous_node_posterior_update)/jit(posterior_update_precision_continuous_node)/cond/branch_0_fun/jit(precision_update_missing_values)/neg" source_file="/fs04/fc37/adam/projects/psilocybin-prl-analyses/src/prl_hgf/fitting/hierarchical_patrl.py" source_line=362}
  param_2.1388 = f64[20]{0} parameter(2)
  broadcast.3196.7 = f64[120,20]{1,0} broadcast(param_2.1388), dimensions={1}, metadata={op_name="jit(scan)/jit(main)/while/body/jit(beliefs_propagation)/jit(continuous_node_posterior_update)/jit(posterior_update_precision_continuous_node)/cond/branch_0_fun/jit(precision_update_missing_values)/mul" source_file="/fs04/fc37/adam/projects/psilocybin-prl-analyses/src/prl_hgf/fitting/hierarchical_patrl.py" source_line=362}
  multiply.3482.7 = f64[120,20]{1,0} multiply(negate.271.5, broadcast.3196.7), metadata={op_name="jit(scan)/jit(main)/while/body/jit(beliefs_propagation)/jit(continuous_node_posterior_update)/jit(posterior_update_precision_continuous_node)/cond/branch_0_fun/jit(precision_update_missing_values)/mul" source_file="/fs04/fc37/adam/projects/psilocybin-prl-analyses/src/prl_hgf/fitting/hierarchical_patrl.py" source_line=362}
  param_1.1626 = f64[] parameter(1)
  broadcast.3197.5 = f64[120,20]{1,0} broadcast(param_1.1626), dimensions={}, metadata={op_name="jit(scan)/jit(main)/while/body/jit(beliefs_propagation)/jit(continuous_node_posterior_update)/jit(posterior_update_precision_continuous_node)/cond/branch_0_fun/jit(precision_update_missing_values)/mul" source_file="/fs04/fc37/adam/projects/psilocybin-prl-analyses/src/prl_hgf/fitting/hierarchical_patrl.py" source_line=362}
  param_7.496 = f64[120,20]{1,0} parameter(7)
  param_9.305 = f64[20,1]{1,0} parameter(9)
  bitcast.3806.8.clone.1 = f64[20]{0} bitcast(param_9.305)
  broadcast.3198.7.clone.1 = f64[120,20]{1,0} broadcast(bitcast.3806.8.clone.1), dimensions={1}, metadata={op_name="jit(scan)/jit(main)/while/body/jit(beliefs_propagation)/jit(continuous_node_posterior_update)/jit(posterior_update_precision_continuous_node)/cond/branch_0_fun/jit(precision_update_missing_values)/mul" source_file="/fs04/fc37/adam/projects/psilocybin-prl-analyses/src/prl_hgf/fitting/hierarchical_patrl.py" source_line=362}
  param_8.367 = f64[120,20]{1,0} parameter(8)
  multiply.3483.5.clone.1 = f64[120,20]{1,0} multiply(broadcast.3198.7.clone.1, param_8.367), metadata={op_name="jit(scan)/jit(main)/while/body/jit(beliefs_propagation)/jit(continuous_node_posterior_update)/jit(posterior_update_precision_continuous_node)/cond/branch_0_fun/jit(precision_update_missing_values)/mul" source_file="/fs04/fc37/adam/projects/psilocybin-prl-analyses/src/prl_hgf/fitting/hierarchical_patrl.py" source_line=362}
  add.1025.3.clone.1 = f64[120,20]{1,0} add(param_7.496, multiply.3483.5.clone.1), metadata={op_name="jit(scan)/jit(main)/while/body/jit(beliefs_propagation)/jit(continuous_node_posterior_update)/jit(posterior_update_precision_continuous_node)/cond/branch_0_fun/jit(precision_update_missing_values)/add" source_file="/fs04/fc37/adam/projects/psilocybin-prl-analyses/src/prl_hgf/fitting/hierarchical_patrl.py" source_line=362}
  param_6.649 = f64[20]{0} parameter(6)
  broadcast.3199.1.clone.1 = f64[120,20]{1,0} broadcast(param_6.649), dimensions={1}, metadata={op_name="jit(scan)/jit(main)/while/body/jit(beliefs_propagation)/jit(continuous_node_posterior_update)/jit(posterior_update_precision_continuous_node)/cond/branch_0_fun/jit(precision_update_missing_values)/mul" source_file="/fs04/fc37/adam/projects/psilocybin-prl-analyses/src/prl_hgf/fitting/hierarchical_patrl.py" source_line=362}
  multiply.3484.1.clone.1 = f64[120,20]{1,0} multiply(add.1025.3.clone.1, broadcast.3199.1.clone.1), metadata={op_name="jit(scan)/jit(main)/while/body/jit(beliefs_propagation)/jit(continuous_node_posterior_update)/jit(posterior_update_precision_continuous_node)/cond/branch_0_fun/jit(precision_update_missing_values)/mul" source_file="/fs04/fc37/adam/projects/psilocybin-prl-analyses/src/prl_hgf/fitting/hierarchical_patrl.py" source_line=362}
  multiply.3485.5 = f64[120,20]{1,0} multiply(broadcast.3197.5, multiply.3484.1.clone.1), metadata={op_name="jit(scan)/jit(main)/while/body/jit(beliefs_propagation)/jit(continuous_node_posterior_update)/jit(posterior_update_precision_continuous_node)/cond/branch_0_fun/jit(precision_update_missing_values)/mul" source_file="/fs04/fc37/adam/projects/psilocybin-prl-analyses/src/prl_hgf/fitting/hierarchical_patrl.py" source_line=362}
  add.1026.5 = f64[120,20]{1,0} add(multiply.3482.7, multiply.3485.5), metadata={op_name="jit(scan)/jit(main)/while/body/jit(beliefs_propagation)/jit(continuous_node_posterior_update)/jit(posterior_update_precision_continuous_node)/cond/branch_0_fun/jit(precision_update_missing_values)/add" source_file="/fs04/fc37/adam/projects/psilocybin-prl-analyses/src/prl_hgf/fitting/hierarchical_patrl.py" source_line=362}
  negate.272.1 = f64[120,20]{1,0} negate(add.1026.5), metadata={op_name="jit(scan)/jit(main)/while/body/jit(beliefs_propagation)/jit(continuous_node_posterior_update)/jit(posterior_update_precision_continuous_node)/cond/branch_0_fun/jit(precision_update_missing_values)/neg" source_file="/fs04/fc37/adam/projects/psilocybin-prl-analyses/src/prl_hgf/fitting/hierarchical_patrl.py" source_line=362}
  param_0.20 = f64[20]{0} parameter(0)
  broadcast.3200.1 = f64[120,20]{1,0} broadcast(param_0.20), dimensions={1}, metadata={op_name="jit(scan)/jit(main)/while/body/jit(beliefs_propagation)/jit(continuous_node_posterior_update)/jit(posterior_update_precision_continuous_node)/cond/branch_0_fun/jit(precision_update_missing_values)/mul" source_file="/fs04/fc37/adam/projects/psilocybin-prl-analyses/src/prl_hgf/fitting/hierarchical_patrl.py" source_line=362}
  multiply.3486.1 = f64[120,20]{1,0} multiply(negate.272.1, broadcast.3200.1), metadata={op_name="jit(scan)/jit(main)/while/body/jit(beliefs_propagation)/jit(continuous_node_posterior_update)/jit(posterior_update_precision_continuous_node)/cond/branch_0_fun/jit(precision_update_missing_values)/mul" source_file="/fs04/fc37/adam/projects/psilocybin-prl-analyses/src/prl_hgf/fitting/hierarchical_patrl.py" source_line=362}
  constant_49_6_clone_1 = f64[] constant(1)
  broadcast.3193.10.clone.1 = f64[20]{0} broadcast(constant_49_6_clone_1), dimensions={}
  param_4.986 = f64[20]{0} parameter(4)
  multiply.3480.6.clone.1 = f64[20]{0} multiply(param_4.986, param_4.986), metadata={op_name="jit(scan)/jit(main)/while/body/jit(beliefs_propagation)/jit(continuous_node_posterior_update)/jit(posterior_update_precision_continuous_node)/cond/branch_0_fun/jit(precision_update_missing_values)/mul" source_file="/fs04/fc37/adam/projects/psilocybin-prl-analyses/src/prl_hgf/fitting/hierarchical_patrl.py" source_line=362}
  multiply.3487.5.clone.1 = f64[20]{0} multiply(param_4.986, multiply.3480.6.clone.1), metadata={op_name="jit(scan)/jit(main)/while/body/jit(beliefs_propagation)/jit(continuous_node_posterior_update)/jit(posterior_update_precision_continuous_node)/cond/branch_0_fun/jit(precision_update_missing_values)/mul" source_file="/fs04/fc37/adam/projects/psilocybin-prl-analyses/src/prl_hgf/fitting/hierarchical_patrl.py" source_line=362}
  divide.854.3.clone.1 = f64[20]{0} divide(broadcast.3193.10.clone.1, multiply.3487.5.clone.1), metadata={op_name="jit(scan)/jit(main)/while/body/jit(beliefs_propagation)/jit(continuous_node_posterior_update)/jit(posterior_update_precision_continuous_node)/cond/branch_0_fun/jit(precision_update_missing_values)/div" source_file="/fs04/fc37/adam/projects/psilocybin-prl-analyses/src/prl_hgf/fitting/hierarchical_patrl.py" source_line=362}
  constant_55_2_clone_1 = f64[] constant(-2)
  broadcast.3201.clone.7.clone.1 = f64[20]{0} broadcast(constant_55_2_clone_1), dimensions={}
  multiply.3488.3.clone.1 = f64[20]{0} multiply(divide.854.3.clone.1, broadcast.3201.clone.7.clone.1), metadata={op_name="jit(scan)/jit(main)/while/body/jit(beliefs_propagation)/jit(continuous_node_posterior_update)/jit(posterior_update_precision_continuous_node)/cond/branch_0_fun/jit(precision_update_missing_values)/mul" source_file="/fs04/fc37/adam/projects/psilocybin-prl-analyses/src/prl_hgf/fitting/hierarchical_patrl.py" source_line=362}
  broadcast.3202.1.clone.1 = f64[120,20]{1,0} broadcast(multiply.3488.3.clone.1), dimensions={1}, metadata={op_name="jit(scan)/jit(main)/while/body/jit(beliefs_propagation)/jit(continuous_node_posterior_update)/jit(posterior_update_precision_continuous_node)/cond/branch_0_fun/jit(precision_update_missing_values)/mul" source_file="/fs04/fc37/adam/projects/psilocybin-prl-analyses/src/prl_hgf/fitting/hierarchical_patrl.py" source_line=362}
  multiply.3489.1.clone.1 = f64[120,20]{1,0} multiply(param_3.1209, broadcast.3202.1.clone.1), metadata={op_name="jit(scan)/jit(main)/while/body/jit(beliefs_propagation)/jit(continuous_node_posterior_update)/jit(posterior_update_precision_continuous_node)/cond/branch_0_fun/jit(precision_update_missing_values)/mul" source_file="/fs04/fc37/adam/projects/psilocybin-prl-analyses/src/prl_hgf/fitting/hierarchical_patrl.py" source_line=362}
  param_5.874 = f64[20]{0} parameter(5)
  multiply.3481.6.clone.1 = f64[20]{0} multiply(param_5.874, param_5.874), metadata={op_name="jit(scan)/jit(main)/while/body/jit(beliefs_propagation)/jit(continuous_node_posterior_update)/jit(posterior_update_precision_continuous_node)/cond/branch_0_fun/jit(precision_update_missing_values)/mul" source_file="/fs04/fc37/adam/projects/psilocybin-prl-analyses/src/prl_hgf/fitting/hierarchical_patrl.py" source_line=362}
  multiply.3490.5.clone.1 = f64[20]{0} multiply(param_5.874, multiply.3481.6.clone.1), metadata={op_name="jit(scan)/jit(main)/while/body/jit(beliefs_propagation)/jit(continuous_node_posterior_update)/jit(posterior_update_precision_continuous_node)/cond/branch_0_fun/jit(precision_update_missing_values)/mul" source_file="/fs04/fc37/adam/projects/psilocybin-prl-analyses/src/prl_hgf/fitting/hierarchical_patrl.py" source_line=362}
  divide.855.3.clone.1 = f64[20]{0} divide(broadcast.3193.10.clone.1, multiply.3490.5.clone.1), metadata={op_name="jit(scan)/jit(main)/while/body/jit(beliefs_propagation)/jit(continuous_node_posterior_update)/jit(posterior_update_precision_continuous_node)/cond/branch_0_fun/jit(precision_update_missing_values)/div" source_file="/fs04/fc37/adam/projects/psilocybin-prl-analyses/src/prl_hgf/fitting/hierarchical_patrl.py" source_line=362}
  multiply.3491.3.clone.1 = f64[20]{0} multiply(divide.855.3.clone.1, broadcast.3201.clone.7.clone.1), metadata={op_name="jit(scan)/jit(main)/while/body/jit(beliefs_propagation)/jit(continuous_node_posterior_update)/jit(posterior_update_precision_continuous_node)/cond/branch_0_fun/jit(precision_update_missing_values)/mul" source_file="/fs04/fc37/adam/projects/psilocybin-prl-analyses/src/prl_hgf/fitting/hierarchical_patrl.py" source_line=362}
  broadcast.3203.1.clone.1 = f64[120,20]{1,0} broadcast(multiply.3491.3.clone.1), dimensions={1}, metadata={op_name="jit(scan)/jit(main)/while/body/jit(beliefs_propagation)/jit(continuous_node_posterior_update)/jit(posterior_update_precision_continuous_node)/cond/branch_0_fun/jit(precision_update_missing_values)/mul" source_file="/fs04/fc37/adam/projects/psilocybin-prl-analyses/src/prl_hgf/fitting/hierarchical_patrl.py" source_line=362}
  multiply.3492.1.clone.1 = f64[120,20]{1,0} multiply(add.1026.5, broadcast.3203.1.clone.1), metadata={op_name="jit(scan)/jit(main)/while/body/jit(beliefs_propagation)/jit(continuous_node_posterior_update)/jit(posterior_update_precision_continuous_node)/cond/branch_0_fun/jit(precision_update_missing_values)/mul" source_file="/fs04/fc37/adam/projects/psilocybin-prl-analyses/src/prl_hgf/fitting/hierarchical_patrl.py" source_line=362}
  ROOT tuple.237 = (f64[120,20]{1,0}, f64[120,20]{1,0}, f64[120,20]{1,0}, f64[120,20]{1,0}) tuple(multiply.3486.1, multiply.3489.1.clone.1, multiply.3492.1.clone.1, multiply.3484.1.clone.1)
} // fused_multiply

wrapped_copy_computation.7 {
  param_0.1312 = f64[20]{0} parameter(0)
  ROOT copy.934 = f64[20]{0} copy(param_0.1312)
}

wrapped_copy_computation.6 {
  param_0.1311 = f64[] parameter(0)
  ROOT copy.933 = f64[] copy(param_0.1311)
}

fused_broadcast {
  constant_737_1 = pred[] constant(false)
  ROOT broadcast.3195.1 = pred[20]{0} broadcast(constant_737_1), dimensions={}
}

command_buffer.10 {
  p.502 = f64[] parameter(0)
  p.503 = f64[20]{0} parameter(1)
  p.504 = f64[20]{0} parameter(2)
  p.505 = f64[20]{0} parameter(3)
  p.506 = f64[20,1]{1,0} parameter(4)
  p.507 = (f64[], f64[20]{0}, f64[20]{0}, f64[20,1]{1,0}, f64[20]{0}, /*index=5*/f64[120,20]{1,0}, f64[120,20]{1,0}, f64[120,20]{1,0}) parameter(5)
  loop_add_divide_exponential_fusion = (f64[20]{0}, f64[20]{0}, f64[20]{0}, f64[20]{0}, f64[20]{0}) fusion(p.502, p.503, p.504, p.505, p.506), kind=kLoop, calls=fused_add_divide_exponential, metadata={op_name="jit(scan)/jit(main)/while/body/jit(beliefs_propagation)/jit(continuous_node_posterior_update)/jit(posterior_update_precision_continuous_node)/cond/branch_0_fun/jit(precision_update_missing_values)/div" source_file="/fs04/fc37/adam/projects/psilocybin-prl-analyses/src/prl_hgf/fitting/hierarchical_patrl.py" source_line=362}
  get-tuple-element.11670 = f64[20]{0} get-tuple-element(loop_add_divide_exponential_fusion), index=4, metadata={op_name="jit(scan)/jit(main)/while/body/jit(beliefs_propagation)/jit(continuous_node_posterior_update)/jit(posterior_update_precision_continuous_node)/cond/branch_0_fun/jit(precision_update_missing_values)/div" source_file="/fs04/fc37/adam/projects/psilocybin-prl-analyses/src/prl_hgf/fitting/hierarchical_patrl.py" source_line=362}
  get-tuple-element.11673 = f64[20]{0} get-tuple-element(loop_add_divide_exponential_fusion), index=3, metadata={op_name="jit(scan)/jit(main)/while/body/jit(beliefs_propagation)/jit(continuous_node_posterior_update)/jit(posterior_update_precision_continuous_node)/cond/branch_0_fun/jit(precision_update_missing_values)/div" source_file="/fs04/fc37/adam/projects/psilocybin-prl-analyses/src/prl_hgf/fitting/hierarchical_patrl.py" source_line=362}
  get-tuple-element.11674 = f64[20]{0} get-tuple-element(loop_add_divide_exponential_fusion), index=0, metadata={op_name="jit(scan)/jit(main)/while/body/jit(beliefs_propagation)/jit(continuous_node_posterior_update)/jit(posterior_update_precision_continuous_node)/cond/branch_0_fun/jit(precision_update_missing_values)/div" source_file="/fs04/fc37/adam/projects/psilocybin-prl-analyses/src/prl_hgf/fitting/hierarchical_patrl.py" source_line=362}
  get-tuple-element.11592 = f64[20]{0} get-tuple-element(loop_add_divide_exponential_fusion), index=2, metadata={op_name="jit(scan)/jit(main)/while/body/jit(beliefs_propagation)/jit(continuous_node_posterior_update)/jit(posterior_update_precision_continuous_node)/cond/branch_0_fun/jit(precision_update_missing_values)/div" source_file="/fs04/fc37/adam/projects/psilocybin-prl-analyses/src/prl_hgf/fitting/hierarchical_patrl.py" source_line=362}
  get-tuple-element.734.0 = f64[120,20]{1,0} get-tuple-element(p.507), index=5
  get-tuple-element.735.0 = f64[120,20]{1,0} get-tuple-element(p.507), index=6
  get-tuple-element.736.0 = f64[120,20]{1,0} get-tuple-element(p.507), index=7
  loop_multiply_fusion = (f64[120,20]{1,0}, f64[120,20]{1,0}, f64[120,20]{1,0}, f64[120,20]{1,0}) fusion(get-tuple-element.11674, p.502, get-tuple-element.11670, get-tuple-element.734.0, p.503, /*index=5*/get-tuple-element.11592, get-tuple-element.11673, get-tuple-element.735.0, get-tuple-element.736.0, p.506), kind=kLoop, calls=fused_multiply, metadata={op_name="jit(scan)/jit(main)/while/body/jit(beliefs_propagation)/jit(continuous_node_posterior_update)/jit(posterior_update_precision_continuous_node)/cond/branch_0_fun/jit(precision_update_missing_values)/mul" source_file="/fs04/fc37/adam/projects/psilocybin-prl-analyses/src/prl_hgf/fitting/hierarchical_patrl.py" source_line=362}
  get-tuple-element.11676 = f64[120,20]{1,0} get-tuple-element(loop_multiply_fusion), index=0, metadata={op_name="jit(scan)/jit(main)/while/body/jit(beliefs_propagation)/jit(continuous_node_posterior_update)/jit(posterior_update_precision_continuous_node)/cond/branch_0_fun/jit(precision_update_missing_values)/mul" source_file="/fs04/fc37/adam/projects/psilocybin-prl-analyses/src/prl_hgf/fitting/hierarchical_patrl.py" source_line=362}
  get-tuple-element.11677 = f64[120,20]{1,0} get-tuple-element(loop_multiply_fusion), index=1, metadata={op_name="jit(scan)/jit(main)/while/body/jit(beliefs_propagation)/jit(continuous_node_posterior_update)/jit(posterior_update_precision_continuous_node)/cond/branch_0_fun/jit(precision_update_missing_values)/mul" source_file="/fs04/fc37/adam/projects/psilocybin-prl-analyses/src/prl_hgf/fitting/hierarchical_patrl.py" source_line=362}
  get-tuple-element.11678 = f64[120,20]{1,0} get-tuple-element(loop_multiply_fusion), index=3, metadata={op_name="jit(scan)/jit(main)/while/body/jit(beliefs_propagation)/jit(continuous_node_posterior_update)/jit(posterior_update_precision_continuous_node)/cond/branch_0_fun/jit(precision_update_missing_values)/mul" source_file="/fs04/fc37/adam/projects/psilocybin-prl-analyses/src/prl_hgf/fitting/hierarchical_patrl.py" source_line=362}
  get-tuple-element.11679 = f64[120,20]{1,0} get-tuple-element(loop_multiply_fusion), index=2, metadata={op_name="jit(scan)/jit(main)/while/body/jit(beliefs_propagation)/jit(continuous_node_posterior_update)/jit(posterior_update_precision_continuous_node)/cond/branch_0_fun/jit(precision_update_missing_values)/mul" source_file="/fs04/fc37/adam/projects/psilocybin-prl-analyses/src/prl_hgf/fitting/hierarchical_patrl.py" source_line=362}
  get-tuple-element.11669 = f64[20]{0} get-tuple-element(loop_add_divide_exponential_fusion), index=1, metadata={op_name="jit(scan)/jit(main)/while/body/jit(beliefs_propagation)/jit(continuous_node_posterior_update)/jit(posterior_update_precision_continuous_node)/cond/branch_0_fun/jit(precision_update_missing_values)/div" source_file="/fs04/fc37/adam/projects/psilocybin-prl-analyses/src/prl_hgf/fitting/hierarchical_patrl.py" source_line=362}
  bitcast.3806.0 = f64[20]{0} bitcast(p.506)
  wrapped_copy.7 = f64[20]{0} fusion(bitcast.3806.0), kind=kLoop, calls=wrapped_copy_computation.7
  wrapped_copy.6 = f64[] fusion(p.502), kind=kLoop, calls=wrapped_copy_computation.6
  loop_broadcast_fusion = pred[20]{0} fusion(), kind=kLoop, calls=fused_broadcast
  ROOT tuple.340 = (f64[20]{0}, f64[20]{0}, f64[20]{0}, f64[120,20]{1,0}, f64[120,20]{1,0}, /*index=5*/f64[120,20]{1,0}, f64[120,20]{1,0}, f64[20]{0}, f64[20]{0}, f64[], /*index=10*/pred[20]{0}) tuple(get-tuple-element.11670, get-tuple-element.11673, get-tuple-element.11674, get-tuple-element.11676, get-tuple-element.11677, /*index=5*/get-tuple-element.11678, get-tuple-element.11679, get-tuple-element.11669, wrapped_copy.7, wrapped_copy.6, /*index=10*/loop_broadcast_fusion)
} // command_buffer.10

region_2.727 {
  arg_tuple.728.0 = (f64[], f64[20]{0}, f64[20]{0}, f64[20,1]{1,0}, f64[20]{0}, /*index=5*/f64[120,20]{1,0}, f64[120,20]{1,0}, f64[120,20]{1,0}) parameter(0)
  get-tuple-element.11671 = f64[] get-tuple-element(arg_tuple.728.0), index=0
  get-tuple-element.732.0 = f64[20,1]{1,0} get-tuple-element(arg_tuple.728.0), index=3
  get-tuple-element.730.0 = f64[20]{0} get-tuple-element(arg_tuple.728.0), index=1
  get-tuple-element.731.0 = f64[20]{0} get-tuple-element(arg_tuple.728.0), index=2
  get-tuple-element.733.0 = f64[20]{0} get-tuple-element(arg_tuple.728.0), index=4
  call.5 = (f64[20]{0}, f64[20]{0}, f64[20]{0}, f64[120,20]{1,0}, f64[120,20]{1,0}, /*index=5*/f64[120,20]{1,0}, f64[120,20]{1,0}, f64[20]{0}, f64[20]{0}, f64[], /*index=10*/pred[20]{0}) call(get-tuple-element.11671, get-tuple-element.730.0, get-tuple-element.731.0, get-tuple-element.733.0, get-tuple-element.732.0, /*index=5*/arg_tuple.728.0), to_apply=command_buffer.10
  get-tuple-element.13281 = f64[20]{0} get-tuple-element(call.5), index=0
  get-tuple-element.13282 = f64[20]{0} get-tuple-element(call.5), index=1
  get-tuple-element.13283 = f64[20]{0} get-tuple-element(call.5), index=2
  get-tuple-element.13284 = f64[120,20]{1,0} get-tuple-element(call.5), index=3
  get-tuple-element.13285 = f64[120,20]{1,0} get-tuple-element(call.5), index=4
  get-tuple-element.13286 = f64[120,20]{1,0} get-tuple-element(call.5), index=5
  get-tuple-element.13287 = f64[120,20]{1,0} get-tuple-element(call.5), index=6
  get-tuple-element.13288 = f64[20]{0} get-tuple-element(call.5), index=7
  get-tuple-element.13289 = f64[20]{0} get-tuple-element(call.5), index=8
  get-tuple-element.13290 = f64[] get-tuple-element(call.5), index=9
  get-tuple-element.13291 = pred[20]{0} get-tuple-element(call.5), index=10
  ROOT tuple.307 = (f64[20]{0}, f64[20]{0}, f64[], f64[20]{0}, f64[20]{0}, /*index=5*/f64[20]{0}, pred[20]{0}, f64[120,20]{1,0}, f64[120,20]{1,0}, f64[120,20]{1,0}, /*index=10*/f64[120,20]{1,0}) tuple(get-tuple-element.13288, get-tuple-element.13281, get-tuple-element.13290, get-tuple-element.13289, get-tuple-element.13282, /*index=5*/get-tuple-element.13283, get-tuple-element.13291, get-tuple-element.13284, get-tuple-element.13285, get-tuple-element.13286, /*index=10*/get-tuple-element.13287)
} // region_2.727

wrapped_convert_computation {
  param_0.1313 = s32[] parameter(0)
  ROOT convert.103.1 = f64[] convert(param_0.1313), metadata={op_name="jit(scan)/jit(main)/while/body/jit(beliefs_propagation)/jit(continuous_node_posterior_update)/jit(posterior_update_precision_continuous_node)/cond/branch_1_fun/jit(precision_update)/convert_element_type[new_dtype=float64 weak_type=False sharding=None]" source_file="/fs04/fc37/adam/projects/psilocybin-prl-analyses/src/prl_hgf/fitting/hierarchical_patrl.py" source_line=362}
}

fused_broadcast.1 {
  constant_806_2 = f64[] constant(0)
  ROOT broadcast.3207.1 = f64[20]{0} broadcast(constant_806_2), dimensions={}
}

wrapped_copy_computation.8 {
  param_0.1314 = f64[20]{0} parameter(0)
  ROOT copy.935 = f64[20]{0} copy(param_0.1314)
}

wrapped_copy_computation.9 {
  param_0.1315 = f64[20]{0} parameter(0)
  ROOT copy.936 = f64[20]{0} copy(param_0.1315)
}

fused_compare_multiply_select {
  param_0.1175 = f64[20]{0} parameter(0)
  param_3.1216 = f64[20,1]{1,0} parameter(3)
  multiply.3493.6.clone.1 = f64[20,1]{1,0} multiply(param_3.1216, param_3.1216), metadata={op_name="jit(scan)/jit(main)/while/body/jit(beliefs_propagation)/jit(continuous_node_posterior_update)/jit(posterior_update_precision_continuous_node)/cond/branch_1_fun/jit(precision_update)/integer_pow[y=2]" source_file="/fs04/fc37/adam/projects/psilocybin-prl-analyses/src/prl_hgf/fitting/hierarchical_patrl.py" source_line=362}
  bitcast.3901.18.clone.1 = f64[20]{0} bitcast(multiply.3493.6.clone.1)
  param_2.1396 = f64[20]{0} parameter(2)
  multiply.3494.9.clone.1 = f64[20]{0} multiply(bitcast.3901.18.clone.1, param_2.1396), metadata={op_name="jit(scan)/jit(main)/while/body/jit(beliefs_propagation)/jit(continuous_node_posterior_update)/jit(posterior_update_precision_continuous_node)/cond/branch_1_fun/jit(precision_update)/mul" source_file="/fs04/fc37/adam/projects/psilocybin-prl-analyses/src/prl_hgf/fitting/hierarchical_patrl.py" source_line=362}
  param_1.1635 = f64[] parameter(1)
  broadcast.3204.5.clone.1 = f64[20]{0} broadcast(param_1.1635), dimensions={}, metadata={op_name="jit(scan)/jit(main)/while/body/jit(beliefs_propagation)/jit(continuous_node_posterior_update)/jit(posterior_update_precision_continuous_node)/cond/branch_1_fun/jit(precision_update)/mul" source_file="/fs04/fc37/adam/projects/psilocybin-prl-analyses/src/prl_hgf/fitting/hierarchical_patrl.py" source_line=362}
  multiply.3495.7.clone.1 = f64[20]{0} multiply(multiply.3494.9.clone.1, broadcast.3204.5.clone.1), metadata={op_name="jit(scan)/jit(main)/while/body/jit(beliefs_propagation)/jit(continuous_node_posterior_update)/jit(posterior_update_precision_continuous_node)/cond/branch_1_fun/jit(precision_update)/mul" source_file="/fs04/fc37/adam/projects/psilocybin-prl-analyses/src/prl_hgf/fitting/hierarchical_patrl.py" source_line=362}
  add.1027.5.clone.1 = f64[20]{0} add(param_0.1175, multiply.3495.7.clone.1), metadata={op_name="jit(scan)/jit(main)/while/body/jit(beliefs_propagation)/jit(continuous_node_posterior_update)/jit(posterior_update_precision_continuous_node)/cond/branch_1_fun/jit(precision_update)/add" source_file="/fs04/fc37/adam/projects/psilocybin-prl-analyses/src/prl_hgf/fitting/hierarchical_patrl.py" source_line=362}
  constant_60_1_clone_1 = f64[] constant(1e-128)
  broadcast.3205.1.clone.1 = f64[20]{0} broadcast(constant_60_1_clone_1), dimensions={}
  compare.372.1.clone.1 = pred[20]{0} compare(add.1027.5.clone.1, broadcast.3205.1.clone.1), direction=GT, metadata={op_name="jit(scan)/jit(main)/while/body/jit(beliefs_propagation)/jit(continuous_node_posterior_update)/jit(posterior_update_precision_continuous_node)/cond/branch_1_fun/jit(precision_update)/gt" source_file="/fs04/fc37/adam/projects/psilocybin-prl-analyses/src/prl_hgf/fitting/hierarchical_patrl.py" source_line=362}
  constant_61_1 = f64[] constant(nan)
  broadcast.3206.1 = f64[20]{0} broadcast(constant_61_1), dimensions={}, metadata={op_name="jit(scan)/jit(main)/while/body/jit(beliefs_propagation)/jit(continuous_node_posterior_update)/jit(posterior_update_precision_continuous_node)/cond/branch_1_fun/jit(precision_update)/jit(_where)/broadcast_in_dim[shape=(20,) broadcast_dimensions=()]" source_file="/fs04/fc37/adam/projects/psilocybin-prl-analyses/src/prl_hgf/env/pat_rl_simulator.py" source_line=92}
  select.1283.1 = f64[20]{0} select(compare.372.1.clone.1, add.1027.5.clone.1, broadcast.3206.1), metadata={op_name="jit(scan)/jit(main)/while/body/jit(beliefs_propagation)/jit(continuous_node_posterior_update)/jit(posterior_update_precision_continuous_node)/cond/branch_1_fun/jit(precision_update)/jit(_where)/select_n" source_file="/fs04/fc37/adam/projects/psilocybin-prl-analyses/src/prl_hgf/env/pat_rl_simulator.py" source_line=92}
  ROOT tuple.244 = (f64[20]{0}, pred[20]{0}, f64[20,1]{1,0}) tuple(select.1283.1, compare.372.1.clone.1, multiply.3493.6.clone.1)
} // fused_compare_multiply_select

fused_broadcast_select {
  param_3.1215 = pred[20]{0} parameter(3)
  broadcast.3208.1 = pred[120,20]{1,0} broadcast(param_3.1215), dimensions={1}, metadata={op_name="jit(scan)/jit(main)/while/body/jit(beliefs_propagation)/jit(continuous_node_posterior_update)/jit(posterior_update_precision_continuous_node)/cond/branch_1_fun/jit(precision_update)/jit(_where)/broadcast_in_dim[shape=(120, 20) broadcast_dimensions=(np.int64(1),)]" source_file="/fs04/fc37/adam/projects/psilocybin-prl-analyses/src/prl_hgf/env/pat_rl_simulator.py" source_line=92}
  param_0.1174 = f64[120,20]{1,0} parameter(0)
  param_4.989 = f64[20,1]{1,0} parameter(4)
  multiply.3493.2 = f64[20,1]{1,0} multiply(param_4.989, param_4.989), metadata={op_name="jit(scan)/jit(main)/while/body/jit(beliefs_propagation)/jit(continuous_node_posterior_update)/jit(posterior_update_precision_continuous_node)/cond/branch_1_fun/jit(precision_update)/integer_pow[y=2]" source_file="/fs04/fc37/adam/projects/psilocybin-prl-analyses/src/prl_hgf/fitting/hierarchical_patrl.py" source_line=362}
  bitcast.3901.10 = f64[20]{0} bitcast(multiply.3493.2)
  broadcast.3209.9 = f64[120,20]{1,0} broadcast(bitcast.3901.10), dimensions={1}, metadata={op_name="jit(scan)/jit(main)/while/body/jit(beliefs_propagation)/jit(continuous_node_posterior_update)/jit(posterior_update_precision_continuous_node)/cond/branch_1_fun/jit(precision_update)/mul" source_file="/fs04/fc37/adam/projects/psilocybin-prl-analyses/src/prl_hgf/fitting/hierarchical_patrl.py" source_line=362}
  param_1.1634 = f64[120,20]{1,0} parameter(1)
  multiply.3496.7 = f64[120,20]{1,0} multiply(broadcast.3209.9, param_1.1634), metadata={op_name="jit(scan)/jit(main)/while/body/jit(beliefs_propagation)/jit(continuous_node_posterior_update)/jit(posterior_update_precision_continuous_node)/cond/branch_1_fun/jit(precision_update)/mul" source_file="/fs04/fc37/adam/projects/psilocybin-prl-analyses/src/prl_hgf/fitting/hierarchical_patrl.py" source_line=362}
  param_2.1395 = f64[] parameter(2)
  broadcast.3210.1 = f64[120,20]{1,0} broadcast(param_2.1395), dimensions={}, metadata={op_name="jit(scan)/jit(main)/while/body/jit(beliefs_propagation)/jit(continuous_node_posterior_update)/jit(posterior_update_precision_continuous_node)/cond/branch_1_fun/jit(precision_update)/mul" source_file="/fs04/fc37/adam/projects/psilocybin-prl-analyses/src/prl_hgf/fitting/hierarchical_patrl.py" source_line=362}
  multiply.3497.5 = f64[120,20]{1,0} multiply(multiply.3496.7, broadcast.3210.1), metadata={op_name="jit(scan)/jit(main)/while/body/jit(beliefs_propagation)/jit(continuous_node_posterior_update)/jit(posterior_update_precision_continuous_node)/cond/branch_1_fun/jit(precision_update)/mul" source_file="/fs04/fc37/adam/projects/psilocybin-prl-analyses/src/prl_hgf/fitting/hierarchical_patrl.py" source_line=362}
  add.1028.3 = f64[120,20]{1,0} add(param_0.1174, multiply.3497.5), metadata={op_name="jit(scan)/jit(main)/while/body/jit(beliefs_propagation)/jit(continuous_node_posterior_update)/jit(posterior_update_precision_continuous_node)/cond/branch_1_fun/jit(precision_update)/add" source_file="/fs04/fc37/adam/projects/psilocybin-prl-analyses/src/prl_hgf/fitting/hierarchical_patrl.py" source_line=362}
  constant_806_1_clone_1 = f64[] constant(0)
  broadcast.3211.clone.2.1.clone.1 = f64[120,20]{1,0} broadcast(constant_806_1_clone_1), dimensions={}
  select.1284.1 = f64[120,20]{1,0} select(broadcast.3208.1, add.1028.3, broadcast.3211.clone.2.1.clone.1), metadata={op_name="jit(scan)/jit(main)/while/body/jit(beliefs_propagation)/jit(continuous_node_posterior_update)/jit(posterior_update_precision_continuous_node)/cond/branch_1_fun/jit(precision_update)/jit(_where)/select_n" source_file="/fs04/fc37/adam/projects/psilocybin-prl-analyses/src/prl_hgf/env/pat_rl_simulator.py" source_line=92}
  ROOT tuple.242 = (f64[120,20]{1,0}, f64[120,20]{1,0}) tuple(select.1284.1, broadcast.3211.clone.2.1.clone.1)
} // fused_broadcast_select

wrapped_copy_computation.10 {
  param_0.1316 = f64[120,20]{1,0} parameter(0)
  ROOT copy.937 = f64[120,20]{1,0} copy(param_0.1316)
}

wrapped_copy_computation.11 {
  param_0.1317 = f64[120,20]{1,0} parameter(0)
  ROOT copy.938 = f64[120,20]{1,0} copy(param_0.1317)
}

command_buffer.8 {
  p.498 = s32[] parameter(0)
  p.499 = (f64[20]{0}, s32[], f64[20]{0}, f64[20,1]{1,0}, f64[120,20]{1,0}, /*index=5*/f64[120,20]{1,0}) parameter(1)
  wrapped_convert = f64[] fusion(p.498), kind=kLoop, calls=wrapped_convert_computation, metadata={op_name="jit(scan)/jit(main)/while/body/jit(beliefs_propagation)/jit(continuous_node_posterior_update)/jit(posterior_update_precision_continuous_node)/cond/branch_1_fun/jit(precision_update)/convert_element_type[new_dtype=float64 weak_type=False sharding=None]" source_file="/fs04/fc37/adam/projects/psilocybin-prl-analyses/src/prl_hgf/fitting/hierarchical_patrl.py" source_line=362}
  get-tuple-element.803.0 = f64[20,1]{1,0} get-tuple-element(p.499), index=3, metadata={op_name="jit(scan)/jit(main)/while/body/jit(beliefs_propagation)/jit(continuous_node_posterior_update)/jit(posterior_update_precision_continuous_node)/cond/branch_1_fun/jit(precision_update)/squeeze[dimensions=(1,)]" source_file="/fs04/fc37/adam/projects/psilocybin-prl-analyses/src/prl_hgf/fitting/hierarchical_patrl.py" source_line=362}
  get-tuple-element.805.0 = f64[120,20]{1,0} get-tuple-element(p.499), index=5
  get-tuple-element.804.0 = f64[120,20]{1,0} get-tuple-element(p.499), index=4
  get-tuple-element.802.0 = f64[20]{0} get-tuple-element(p.499), index=2
  get-tuple-element.800.0 = f64[20]{0} get-tuple-element(p.499), index=0
  loop_broadcast_fusion.1 = f64[20]{0} fusion(), kind=kLoop, calls=fused_broadcast.1
  wrapped_copy.8 = f64[20]{0} fusion(loop_broadcast_fusion.1), kind=kLoop, calls=wrapped_copy_computation.8
  wrapped_copy.9 = f64[20]{0} fusion(loop_broadcast_fusion.1), kind=kLoop, calls=wrapped_copy_computation.9
  loop_compare_multiply_select_fusion = (f64[20]{0}, pred[20]{0}, f64[20,1]{1,0}) fusion(get-tuple-element.802.0, wrapped_convert, get-tuple-element.800.0, get-tuple-element.803.0), kind=kLoop, calls=fused_compare_multiply_select, metadata={op_name="jit(scan)/jit(main)/while/body/jit(beliefs_propagation)/jit(continuous_node_posterior_update)/jit(posterior_update_precision_continuous_node)/cond/branch_1_fun/jit(precision_update)/jit(_where)/select_n" source_file="/fs04/fc37/adam/projects/psilocybin-prl-analyses/src/prl_hgf/env/pat_rl_simulator.py" source_line=92}
  get-tuple-element.11686 = pred[20]{0} get-tuple-element(loop_compare_multiply_select_fusion), index=1, metadata={op_name="jit(scan)/jit(main)/while/body/jit(beliefs_propagation)/jit(continuous_node_posterior_update)/jit(posterior_update_precision_continuous_node)/cond/branch_1_fun/jit(precision_update)/jit(_where)/select_n" source_file="/fs04/fc37/adam/projects/psilocybin-prl-analyses/src/prl_hgf/env/pat_rl_simulator.py" source_line=92}
  get-tuple-element.11599 = f64[20,1]{1,0} get-tuple-element(loop_compare_multiply_select_fusion), index=2, metadata={op_name="jit(scan)/jit(main)/while/body/jit(beliefs_propagation)/jit(continuous_node_posterior_update)/jit(posterior_update_precision_continuous_node)/cond/branch_1_fun/jit(precision_update)/jit(_where)/select_n" source_file="/fs04/fc37/adam/projects/psilocybin-prl-analyses/src/prl_hgf/env/pat_rl_simulator.py" source_line=92}
  get-tuple-element.11680 = f64[20]{0} get-tuple-element(loop_compare_multiply_select_fusion), index=0, metadata={op_name="jit(scan)/jit(main)/while/body/jit(beliefs_propagation)/jit(continuous_node_posterior_update)/jit(posterior_update_precision_continuous_node)/cond/branch_1_fun/jit(precision_update)/jit(_where)/select_n" source_file="/fs04/fc37/adam/projects/psilocybin-prl-analyses/src/prl_hgf/env/pat_rl_simulator.py" source_line=92}
  bitcast.3901.0 = f64[20]{0} bitcast(get-tuple-element.11599)
  loop_broadcast_select_fusion = (f64[120,20]{1,0}, f64[120,20]{1,0}) fusion(get-tuple-element.805.0, get-tuple-element.804.0, wrapped_convert, get-tuple-element.11686, get-tuple-element.803.0), kind=kLoop, calls=fused_broadcast_select, metadata={op_name="jit(scan)/jit(main)/while/body/jit(beliefs_propagation)/jit(continuous_node_posterior_update)/jit(posterior_update_precision_continuous_node)/cond/branch_1_fun/jit(precision_update)/jit(_where)/select_n" source_file="/fs04/fc37/adam/projects/psilocybin-prl-analyses/src/prl_hgf/env/pat_rl_simulator.py" source_line=92}
  get-tuple-element.11690 = f64[120,20]{1,0} get-tuple-element(loop_broadcast_select_fusion), index=1, metadata={op_name="jit(scan)/jit(main)/while/body/jit(beliefs_propagation)/jit(continuous_node_posterior_update)/jit(posterior_update_precision_continuous_node)/cond/branch_1_fun/jit(precision_update)/jit(_where)/select_n" source_file="/fs04/fc37/adam/projects/psilocybin-prl-analyses/src/prl_hgf/env/pat_rl_simulator.py" source_line=92}
  get-tuple-element.11687 = f64[120,20]{1,0} get-tuple-element(loop_broadcast_select_fusion), index=0, metadata={op_name="jit(scan)/jit(main)/while/body/jit(beliefs_propagation)/jit(continuous_node_posterior_update)/jit(posterior_update_precision_continuous_node)/cond/branch_1_fun/jit(precision_update)/jit(_where)/select_n" source_file="/fs04/fc37/adam/projects/psilocybin-prl-analyses/src/prl_hgf/env/pat_rl_simulator.py" source_line=92}
  wrapped_copy.10 = f64[120,20]{1,0} fusion(get-tuple-element.11690), kind=kLoop, calls=wrapped_copy_computation.10
  wrapped_copy.11 = f64[120,20]{1,0} fusion(get-tuple-element.11690), kind=kLoop, calls=wrapped_copy_computation.11
  ROOT tuple.338 = (f64[], f64[20]{0}, f64[20]{0}, f64[20]{0}, pred[20]{0}, /*index=5*/f64[20]{0}, f64[20]{0}, f64[120,20]{1,0}, f64[120,20]{1,0}, f64[120,20]{1,0}, /*index=10*/f64[120,20]{1,0}) tuple(wrapped_convert, loop_broadcast_fusion.1, wrapped_copy.8, wrapped_copy.9, get-tuple-element.11686, /*index=5*/get-tuple-element.11680, bitcast.3901.0, get-tuple-element.11690, get-tuple-element.11687, wrapped_copy.10, /*index=10*/wrapped_copy.11)
} // command_buffer.8

region_3.798 {
  arg_tuple.799.0 = (f64[20]{0}, s32[], f64[20]{0}, f64[20,1]{1,0}, f64[120,20]{1,0}, /*index=5*/f64[120,20]{1,0}) parameter(0)
  get-tuple-element.801.0 = s32[] get-tuple-element(arg_tuple.799.0), index=1
  call.4 = (f64[], f64[20]{0}, f64[20]{0}, f64[20]{0}, pred[20]{0}, /*index=5*/f64[20]{0}, f64[20]{0}, f64[120,20]{1,0}, f64[120,20]{1,0}, f64[120,20]{1,0}, /*index=10*/f64[120,20]{1,0}) call(get-tuple-element.801.0, arg_tuple.799.0), to_apply=command_buffer.8
  get-tuple-element.13261 = f64[] get-tuple-element(call.4), index=0
  get-tuple-element.13262 = f64[20]{0} get-tuple-element(call.4), index=1
  get-tuple-element.13263 = f64[20]{0} get-tuple-element(call.4), index=2
  get-tuple-element.13264 = f64[20]{0} get-tuple-element(call.4), index=3
  get-tuple-element.13265 = pred[20]{0} get-tuple-element(call.4), index=4
  get-tuple-element.13266 = f64[20]{0} get-tuple-element(call.4), index=5
  get-tuple-element.13267 = f64[20]{0} get-tuple-element(call.4), index=6
  get-tuple-element.13268 = f64[120,20]{1,0} get-tuple-element(call.4), index=7
  get-tuple-element.13269 = f64[120,20]{1,0} get-tuple-element(call.4), index=8
  get-tuple-element.13270 = f64[120,20]{1,0} get-tuple-element(call.4), index=9
  get-tuple-element.13271 = f64[120,20]{1,0} get-tuple-element(call.4), index=10
  ROOT tuple.309 = (f64[20]{0}, f64[20]{0}, f64[], f64[20]{0}, f64[20]{0}, /*index=5*/f64[20]{0}, pred[20]{0}, f64[120,20]{1,0}, f64[120,20]{1,0}, f64[120,20]{1,0}, /*index=10*/f64[120,20]{1,0}) tuple(get-tuple-element.13266, get-tuple-element.13262, get-tuple-element.13261, get-tuple-element.13267, get-tuple-element.13263, /*index=5*/get-tuple-element.13264, get-tuple-element.13265, get-tuple-element.13269, get-tuple-element.13268, get-tuple-element.13270, /*index=10*/get-tuple-element.13271)
} // region_3.798

fused_dynamic_slice {
  param_0.856 = f64[192]{0} parameter(0)
  param_1.1095 = s64[] parameter(1)
  constant_770_107 = s64[] constant(0)
  compare.373.7 = pred[] compare(param_1.1095, constant_770_107), direction=LT, metadata={op_name="jit(scan)/jit(main)/while/body/lt" source_file="/fs04/fc37/adam/projects/psilocybin-prl-analyses/src/prl_hgf/fitting/hierarchical_patrl.py" source_line=378}
  constant_769_4 = s64[] constant(192)
  add.1030.7 = s64[] add(param_1.1095, constant_769_4), metadata={op_name="jit(scan)/jit(main)/while/body/add" source_file="/fs04/fc37/adam/projects/psilocybin-prl-analyses/src/prl_hgf/fitting/hierarchical_patrl.py" source_line=378}
  select.1285.7 = s64[] select(compare.373.7, add.1030.7, param_1.1095), metadata={op_name="jit(scan)/jit(main)/while/body/select_n" source_file="/fs04/fc37/adam/projects/psilocybin-prl-analyses/src/prl_hgf/fitting/hierarchical_patrl.py" source_line=378}
  ROOT dynamic-slice.54.1 = f64[1]{0} dynamic-slice(param_0.856, select.1285.7), dynamic_slice_sizes={1}, metadata={op_name="jit(scan)/jit(main)/while/body/dynamic_slice[slice_sizes=(1,)]" source_file="/fs04/fc37/adam/projects/psilocybin-prl-analyses/src/prl_hgf/fitting/hierarchical_patrl.py" source_line=378}
} // fused_dynamic_slice

fused_convert_dynamic_slice {
  param_0.858 = s32[192]{0} parameter(0)
  param_1.1099 = s64[] parameter(1)
  constant_770_108 = s64[] constant(0)
  compare.373.9 = pred[] compare(param_1.1099, constant_770_108), direction=LT, metadata={op_name="jit(scan)/jit(main)/while/body/lt" source_file="/fs04/fc37/adam/projects/psilocybin-prl-analyses/src/prl_hgf/fitting/hierarchical_patrl.py" source_line=378}
  constant_769_5 = s64[] constant(192)
  add.1030.9 = s64[] add(param_1.1099, constant_769_5), metadata={op_name="jit(scan)/jit(main)/while/body/add" source_file="/fs04/fc37/adam/projects/psilocybin-prl-analyses/src/prl_hgf/fitting/hierarchical_patrl.py" source_line=378}
  select.1285.9 = s64[] select(compare.373.9, add.1030.9, param_1.1099), metadata={op_name="jit(scan)/jit(main)/while/body/select_n" source_file="/fs04/fc37/adam/projects/psilocybin-prl-analyses/src/prl_hgf/fitting/hierarchical_patrl.py" source_line=378}
  dynamic-slice.55.1 = s32[1]{0} dynamic-slice(param_0.858, select.1285.9), dynamic_slice_sizes={1}, metadata={op_name="jit(scan)/jit(main)/while/body/dynamic_slice[slice_sizes=(1,)]" source_file="/fs04/fc37/adam/projects/psilocybin-prl-analyses/src/prl_hgf/fitting/hierarchical_patrl.py" source_line=378}
  constant_778_1_clone_1 = s32[1]{0} constant({0})
  compare.374.1.clone.1 = pred[1]{0} compare(dynamic-slice.55.1, constant_778_1_clone_1), direction=NE, metadata={op_name="jit(scan)/jit(main)/while/body/jit(beliefs_propagation)/jit(continuous_node_posterior_update)/jit(posterior_update_precision_continuous_node)/convert_element_type[new_dtype=bool weak_type=False sharding=None]" source_file="/fs04/fc37/adam/projects/psilocybin-prl-analyses/src/prl_hgf/fitting/hierarchical_patrl.py" source_line=362}
  convert.104.1.clone.1 = s32[1]{0} convert(compare.374.1.clone.1), metadata={op_name="jit(scan)/jit(main)/while/body/jit(beliefs_propagation)/jit(continuous_node_posterior_update)/jit(posterior_update_precision_continuous_node)/convert_element_type[new_dtype=int32 weak_type=False sharding=None]" source_file="/fs04/fc37/adam/projects/psilocybin-prl-analyses/src/prl_hgf/fitting/hierarchical_patrl.py" source_line=362}
  ROOT tuple.303 = (s32[1]{0}, s32[1]{0}) tuple(dynamic-slice.55.1, convert.104.1.clone.1)
} // fused_convert_dynamic_slice

wrapped_copy_computation.4 {
  param_0.1309 = f64[20]{0} parameter(0)
  ROOT copy.931 = f64[20]{0} copy(param_0.1309)
}

wrapped_copy_computation.5 {
  param_0.1310 = f64[20]{0} parameter(0)
  ROOT copy.932 = f64[20]{0} copy(param_0.1310)
}

fused_divide_multiply {
  constant_772_27 = f64[] constant(1)
  broadcast.3213.1.clone.1 = f64[20]{0} broadcast(constant_772_27), dimensions={}
  param_2.1403 = f64[20]{0} parameter(2)
  param_3.1224 = f64[20]{0} parameter(3)
  multiply.3498.7.clone.1 = f64[20]{0} multiply(param_2.1403, param_3.1224), metadata={op_name="jit(scan)/jit(main)/while/body/jit(beliefs_propagation)/jit(continuous_node_prediction)/jit(predict_mean)/mul" source_file="/fs04/fc37/adam/projects/psilocybin-prl-analyses/src/prl_hgf/fitting/hierarchical_patrl.py" source_line=362}
  param_1.1644 = f64[1]{0} parameter(1)
  bitcast.3967.135.clone.1 = f64[] bitcast(param_1.1644)
  broadcast.3212.65.clone.1 = f64[20]{0} broadcast(bitcast.3967.135.clone.1), dimensions={}, metadata={op_name="jit(scan)/jit(main)/while/body/jit(beliefs_propagation)/jit(continuous_node_prediction)/jit(predict_mean)/mul" source_file="/fs04/fc37/adam/projects/psilocybin-prl-analyses/src/prl_hgf/fitting/hierarchical_patrl.py" source_line=362}
  param_0.1179 = f64[20]{0} parameter(0)
  multiply.3499.9.clone.1 = f64[20]{0} multiply(broadcast.3212.65.clone.1, param_0.1179), metadata={op_name="jit(scan)/jit(main)/while/body/jit(beliefs_propagation)/jit(continuous_node_prediction)/jit(predict_mean)/mul" source_file="/fs04/fc37/adam/projects/psilocybin-prl-analyses/src/prl_hgf/fitting/hierarchical_patrl.py" source_line=362}
  add.1031.7.clone.1 = f64[20]{0} add(multiply.3498.7.clone.1, multiply.3499.9.clone.1), metadata={op_name="jit(scan)/jit(main)/while/body/jit(beliefs_propagation)/jit(continuous_node_prediction)/jit(predict_mean)/add" source_file="/fs04/fc37/adam/projects/psilocybin-prl-analyses/src/prl_hgf/fitting/hierarchical_patrl.py" source_line=362}
  negate.273.3.clone.1 = f64[20]{0} negate(add.1031.7.clone.1), metadata={op_name="jit(scan)/jit(main)/while/body/jit(beliefs_propagation)/jit(binary_state_node_prediction)/neg" source_file="/fs04/fc37/adam/projects/psilocybin-prl-analyses/src/prl_hgf/fitting/hierarchical_patrl.py" source_line=362}
  exponential.74.3.clone.1 = f64[20]{0} exponential(negate.273.3.clone.1), metadata={op_name="jit(scan)/jit(main)/while/body/jit(beliefs_propagation)/jit(binary_state_node_prediction)/exp" source_file="/fs04/fc37/adam/projects/psilocybin-prl-analyses/src/prl_hgf/fitting/hierarchical_patrl.py" source_line=362}
  add.1032.1.clone.1 = f64[20]{0} add(exponential.74.3.clone.1, broadcast.3213.1.clone.1), metadata={op_name="jit(scan)/jit(main)/while/body/jit(beliefs_propagation)/jit(binary_state_node_prediction)/add" source_file="/fs04/fc37/adam/projects/psilocybin-prl-analyses/src/prl_hgf/fitting/hierarchical_patrl.py" source_line=362}
  divide.856.1.clone.1 = f64[20]{0} divide(broadcast.3213.1.clone.1, add.1032.1.clone.1), metadata={op_name="jit(scan)/jit(main)/while/body/jit(beliefs_propagation)/jit(binary_state_node_prediction)/div" source_file="/fs04/fc37/adam/projects/psilocybin-prl-analyses/src/prl_hgf/fitting/hierarchical_patrl.py" source_line=362}
  subtract.145.5 = f64[20]{0} subtract(broadcast.3213.1.clone.1, divide.856.1.clone.1), metadata={op_name="jit(scan)/jit(main)/while/body/jit(beliefs_propagation)/jit(binary_state_node_prediction)/sub" source_file="/fs04/fc37/adam/projects/psilocybin-prl-analyses/src/prl_hgf/fitting/hierarchical_patrl.py" source_line=362}
  multiply.3500.1 = f64[20]{0} multiply(divide.856.1.clone.1, subtract.145.5), metadata={op_name="jit(scan)/jit(main)/while/body/jit(beliefs_propagation)/jit(binary_state_node_prediction)/mul" source_file="/fs04/fc37/adam/projects/psilocybin-prl-analyses/src/prl_hgf/fitting/hierarchical_patrl.py" source_line=362}
  ROOT tuple.301 = (f64[20]{0}, f64[20]{0}) tuple(multiply.3500.1, divide.856.1.clone.1)
} // fused_divide_multiply

fused_divide {
  constant_772_5 = f64[] constant(1)
  broadcast.3213.4 = f64[20]{0} broadcast(constant_772_5), dimensions={}
  param_5.884 = f64[20]{0} parameter(5)
  divide.857.1.clone.1 = f64[20]{0} divide(broadcast.3213.4, param_5.884), metadata={op_name="jit(scan)/jit(main)/while/body/jit(beliefs_propagation)/jit(continuous_node_prediction)/jit(predict_precision)/div" source_file="/fs04/fc37/adam/projects/psilocybin-prl-analyses/src/prl_hgf/fitting/hierarchical_patrl.py" source_line=362}
  param_1.1637 = f64[1]{0} parameter(1)
  bitcast.3967.165 = f64[] bitcast(param_1.1637)
  broadcast.3212.95 = f64[20]{0} broadcast(bitcast.3967.165), dimensions={}, metadata={op_name="jit(scan)/jit(main)/while/body/jit(beliefs_propagation)/jit(continuous_node_prediction)/jit(predict_mean)/mul" source_file="/fs04/fc37/adam/projects/psilocybin-prl-analyses/src/prl_hgf/fitting/hierarchical_patrl.py" source_line=362}
  param_2.1398 = f64[20]{0} parameter(2)
  param_4.997 = f64[20,1]{1,0} parameter(4)
  bitcast.4042.38 = f64[20]{0} bitcast(param_4.997)
  param_3.1219 = f64[20]{0} parameter(3)
  multiply.3502.27 = f64[20]{0} multiply(bitcast.4042.38, param_3.1219), metadata={op_name="jit(scan)/jit(main)/while/body/jit(beliefs_propagation)/jit(continuous_node_prediction)/jit(predict_precision)/mul" source_file="/fs04/fc37/adam/projects/psilocybin-prl-analyses/src/prl_hgf/fitting/hierarchical_patrl.py" source_line=362}
  add.1033.25 = f64[20]{0} add(param_2.1398, multiply.3502.27), metadata={op_name="jit(scan)/jit(main)/while/body/jit(beliefs_propagation)/jit(continuous_node_prediction)/jit(predict_precision)/add" source_file="/fs04/fc37/adam/projects/psilocybin-prl-analyses/src/prl_hgf/fitting/hierarchical_patrl.py" source_line=362}
  exponential.75.23 = f64[20]{0} exponential(add.1033.25), metadata={op_name="jit(scan)/jit(main)/while/body/jit(beliefs_propagation)/jit(continuous_node_prediction)/jit(predict_precision)/exp" source_file="/fs04/fc37/adam/projects/psilocybin-prl-analyses/src/prl_hgf/fitting/hierarchical_patrl.py" source_line=362}
  multiply.3503.37 = f64[20]{0} multiply(broadcast.3212.95, exponential.75.23), metadata={op_name="jit(scan)/jit(main)/while/body/jit(beliefs_propagation)/jit(continuous_node_prediction)/jit(predict_precision)/mul" source_file="/fs04/fc37/adam/projects/psilocybin-prl-analyses/src/prl_hgf/fitting/hierarchical_patrl.py" source_line=362}
  constant_774_2 = f64[] constant(1e-128)
  broadcast.3214.clone.23 = f64[20]{0} broadcast(constant_774_2), dimensions={}
  compare.375.19 = pred[20]{0} compare(multiply.3503.37, broadcast.3214.clone.23), direction=GT, metadata={op_name="jit(scan)/jit(main)/while/body/jit(beliefs_propagation)/jit(continuous_node_prediction)/jit(predict_precision)/gt" source_file="/fs04/fc37/adam/projects/psilocybin-prl-analyses/src/prl_hgf/fitting/hierarchical_patrl.py" source_line=362}
  param_0.1177 = f64[20]{0} parameter(0)
  select.1286.13 = f64[20]{0} select(compare.375.19, multiply.3503.37, param_0.1177), metadata={op_name="jit(scan)/jit(main)/while/body/jit(beliefs_propagation)/jit(continuous_node_prediction)/jit(predict_precision)/jit(_where)/select_n" source_file="/fs04/fc37/adam/projects/psilocybin-prl-analyses/src/prl_hgf/env/pat_rl_simulator.py" source_line=92}
  add.1034.2 = f64[20]{0} add(divide.857.1.clone.1, select.1286.13), metadata={op_name="jit(scan)/jit(main)/while/body/jit(beliefs_propagation)/jit(continuous_node_prediction)/jit(predict_precision)/add" source_file="/fs04/fc37/adam/projects/psilocybin-prl-analyses/src/prl_hgf/fitting/hierarchical_patrl.py" source_line=362}
  divide.858.1 = f64[20]{0} divide(broadcast.3213.4, add.1034.2), metadata={op_name="jit(scan)/jit(main)/while/body/jit(beliefs_propagation)/jit(continuous_node_prediction)/jit(predict_precision)/div" source_file="/fs04/fc37/adam/projects/psilocybin-prl-analyses/src/prl_hgf/fitting/hierarchical_patrl.py" source_line=362}
  multiply.3508.2.clone.1 = f64[20]{0} multiply(param_5.884, param_5.884), metadata={op_name="jit(scan)/jit(main)/while/body/jit(beliefs_propagation)/jit(continuous_node_prediction)/jit(predict_precision)/mul" source_file="/fs04/fc37/adam/projects/psilocybin-prl-analyses/src/prl_hgf/fitting/hierarchical_patrl.py" source_line=362}
  divide.860.1.clone.1 = f64[20]{0} divide(broadcast.3213.4, multiply.3508.2.clone.1), metadata={op_name="jit(scan)/jit(main)/while/body/jit(beliefs_propagation)/jit(continuous_node_prediction)/jit(predict_precision)/div" source_file="/fs04/fc37/adam/projects/psilocybin-prl-analyses/src/prl_hgf/fitting/hierarchical_patrl.py" source_line=362}
  ROOT tuple.302 = (f64[20]{0}, f64[20]{0}, f64[20]{0}) tuple(divide.858.1, divide.857.1.clone.1, divide.860.1.clone.1)
} // fused_divide

fused_dynamic_update_slice.103 {
  param_0.775 = s32[192]{0} parameter(0)
  param_2.1372 = s32[192]{0} parameter(2)
  param_1.1616 = s64[] parameter(1)
  constant_770_110 = s64[] constant(0)
  compare.373.239 = pred[] compare(param_1.1616, constant_770_110), direction=LT, metadata={op_name="jit(scan)/jit(main)/while/body/lt" source_file="/fs04/fc37/adam/projects/psilocybin-prl-analyses/src/prl_hgf/fitting/hierarchical_patrl.py" source_line=378}
  constant_769_32 = s64[] constant(192)
  add.1030.239 = s64[] add(param_1.1616, constant_769_32), metadata={op_name="jit(scan)/jit(main)/while/body/add" source_file="/fs04/fc37/adam/projects/psilocybin-prl-analyses/src/prl_hgf/fitting/hierarchical_patrl.py" source_line=378}
  select.1285.239 = s64[] select(compare.373.239, add.1030.239, param_1.1616), metadata={op_name="jit(scan)/jit(main)/while/body/select_n" source_file="/fs04/fc37/adam/projects/psilocybin-prl-analyses/src/prl_hgf/fitting/hierarchical_patrl.py" source_line=378}
  dynamic-slice.55.21 = s32[1]{0} dynamic-slice(param_2.1372, select.1285.239), dynamic_slice_sizes={1}, metadata={op_name="jit(scan)/jit(main)/while/body/dynamic_slice[slice_sizes=(1,)]" source_file="/fs04/fc37/adam/projects/psilocybin-prl-analyses/src/prl_hgf/fitting/hierarchical_patrl.py" source_line=378}
  constant_778_2 = s32[1]{0} constant({0})
  compare.374.3 = pred[1]{0} compare(dynamic-slice.55.21, constant_778_2), direction=NE, metadata={op_name="jit(scan)/jit(main)/while/body/jit(beliefs_propagation)/jit(continuous_node_posterior_update)/jit(posterior_update_precision_continuous_node)/convert_element_type[new_dtype=bool weak_type=False sharding=None]" source_file="/fs04/fc37/adam/projects/psilocybin-prl-analyses/src/prl_hgf/fitting/hierarchical_patrl.py" source_line=362}
  convert.104.3 = s32[1]{0} convert(compare.374.3), metadata={op_name="jit(scan)/jit(main)/while/body/jit(beliefs_propagation)/jit(continuous_node_posterior_update)/jit(posterior_update_precision_continuous_node)/convert_element_type[new_dtype=int32 weak_type=False sharding=None]" source_file="/fs04/fc37/adam/projects/psilocybin-prl-analyses/src/prl_hgf/fitting/hierarchical_patrl.py" source_line=362}
  ROOT dynamic-update-slice.2048.1 = s32[192]{0} dynamic-update-slice(param_0.775, convert.104.3, select.1285.239), metadata={op_name="jit(scan)/jit(main)/while/body/dynamic_update_slice" source_file="/fs04/fc37/adam/projects/psilocybin-prl-analyses/src/prl_hgf/fitting/hierarchical_patrl.py" source_line=378}
} // fused_dynamic_update_slice.103

fused_dynamic_update_slice.78 {
  param_0.165 = f64[192]{0} parameter(0)
  param_2.1349 = s32[192]{0} parameter(2)
  param_1.1488 = s64[] parameter(1)
  constant_770_109 = s64[] constant(0)
  compare.373.231 = pred[] compare(param_1.1488, constant_770_109), direction=LT, metadata={op_name="jit(scan)/jit(main)/while/body/lt" source_file="/fs04/fc37/adam/projects/psilocybin-prl-analyses/src/prl_hgf/fitting/hierarchical_patrl.py" source_line=378}
  constant_769_28 = s64[] constant(192)
  add.1030.231 = s64[] add(param_1.1488, constant_769_28), metadata={op_name="jit(scan)/jit(main)/while/body/add" source_file="/fs04/fc37/adam/projects/psilocybin-prl-analyses/src/prl_hgf/fitting/hierarchical_patrl.py" source_line=378}
  select.1285.231 = s64[] select(compare.373.231, add.1030.231, param_1.1488), metadata={op_name="jit(scan)/jit(main)/while/body/select_n" source_file="/fs04/fc37/adam/projects/psilocybin-prl-analyses/src/prl_hgf/fitting/hierarchical_patrl.py" source_line=378}
  dynamic-slice.55.13 = s32[1]{0} dynamic-slice(param_2.1349, select.1285.231), dynamic_slice_sizes={1}, metadata={op_name="jit(scan)/jit(main)/while/body/dynamic_slice[slice_sizes=(1,)]" source_file="/fs04/fc37/adam/projects/psilocybin-prl-analyses/src/prl_hgf/fitting/hierarchical_patrl.py" source_line=378}
  bitcast.4028.8 = s32[] bitcast(dynamic-slice.55.13)
  convert.105.7 = f64[] convert(bitcast.4028.8), metadata={op_name="jit(scan)/jit(main)/while/body/jit(beliefs_propagation)/jit(binary_state_node_prediction_error)/convert_element_type[new_dtype=float64 weak_type=False sharding=None]" source_file="/fs04/fc37/adam/projects/psilocybin-prl-analyses/src/prl_hgf/fitting/hierarchical_patrl.py" source_line=362}
  bitcast.5163.1 = f64[1]{0} bitcast(convert.105.7)
  ROOT dynamic-update-slice.2045.1 = f64[192]{0} dynamic-update-slice(param_0.165, bitcast.5163.1, select.1285.231), metadata={op_name="jit(scan)/jit(main)/while/body/dynamic_update_slice" source_file="/fs04/fc37/adam/projects/psilocybin-prl-analyses/src/prl_hgf/fitting/hierarchical_patrl.py" source_line=378}
} // fused_dynamic_update_slice.78

fused_dynamic_update_slice.85 {
  param_0.172 = pred[192,20]{1,0} parameter(0)
  param_2.1357 = f64[1]{0} parameter(2)
  bitcast.3967.153 = f64[] bitcast(param_2.1357)
  broadcast.3212.83 = f64[20]{0} broadcast(bitcast.3967.153), dimensions={}, metadata={op_name="jit(scan)/jit(main)/while/body/jit(beliefs_propagation)/jit(continuous_node_prediction)/jit(predict_mean)/mul" source_file="/fs04/fc37/adam/projects/psilocybin-prl-analyses/src/prl_hgf/fitting/hierarchical_patrl.py" source_line=362}
  param_3.1170 = f64[20]{0} parameter(3)
  param_5.834 = f64[20,1]{1,0} parameter(5)
  bitcast.4042.20 = f64[20]{0} bitcast(param_5.834)
  param_4.948 = f64[20]{0} parameter(4)
  multiply.3502.9 = f64[20]{0} multiply(bitcast.4042.20, param_4.948), metadata={op_name="jit(scan)/jit(main)/while/body/jit(beliefs_propagation)/jit(continuous_node_prediction)/jit(predict_precision)/mul" source_file="/fs04/fc37/adam/projects/psilocybin-prl-analyses/src/prl_hgf/fitting/hierarchical_patrl.py" source_line=362}
  add.1033.7 = f64[20]{0} add(param_3.1170, multiply.3502.9), metadata={op_name="jit(scan)/jit(main)/while/body/jit(beliefs_propagation)/jit(continuous_node_prediction)/jit(predict_precision)/add" source_file="/fs04/fc37/adam/projects/psilocybin-prl-analyses/src/prl_hgf/fitting/hierarchical_patrl.py" source_line=362}
  exponential.75.5 = f64[20]{0} exponential(add.1033.7), metadata={op_name="jit(scan)/jit(main)/while/body/jit(beliefs_propagation)/jit(continuous_node_prediction)/jit(predict_precision)/exp" source_file="/fs04/fc37/adam/projects/psilocybin-prl-analyses/src/prl_hgf/fitting/hierarchical_patrl.py" source_line=362}
  multiply.3503.25 = f64[20]{0} multiply(broadcast.3212.83, exponential.75.5), metadata={op_name="jit(scan)/jit(main)/while/body/jit(beliefs_propagation)/jit(continuous_node_prediction)/jit(predict_precision)/mul" source_file="/fs04/fc37/adam/projects/psilocybin-prl-analyses/src/prl_hgf/fitting/hierarchical_patrl.py" source_line=362}
  constant_774_6 = f64[] constant(1e-128)
  broadcast.3214.clone.11 = f64[20]{0} broadcast(constant_774_6), dimensions={}
  compare.375.7 = pred[20]{0} compare(multiply.3503.25, broadcast.3214.clone.11), direction=GT, metadata={op_name="jit(scan)/jit(main)/while/body/jit(beliefs_propagation)/jit(continuous_node_prediction)/jit(predict_precision)/gt" source_file="/fs04/fc37/adam/projects/psilocybin-prl-analyses/src/prl_hgf/fitting/hierarchical_patrl.py" source_line=362}
  bitcast.5086.1 = pred[1,20]{1,0} bitcast(compare.375.7)
  param_1.1541 = s64[] parameter(1)
  constant_770_38 = s64[] constant(0)
  compare.373.39 = pred[] compare(param_1.1541, constant_770_38), direction=LT, metadata={op_name="jit(scan)/jit(main)/while/body/lt" source_file="/fs04/fc37/adam/projects/psilocybin-prl-analyses/src/prl_hgf/fitting/hierarchical_patrl.py" source_line=378}
  constant_769_20 = s64[] constant(192)
  add.1030.39 = s64[] add(param_1.1541, constant_769_20), metadata={op_name="jit(scan)/jit(main)/while/body/add" source_file="/fs04/fc37/adam/projects/psilocybin-prl-analyses/src/prl_hgf/fitting/hierarchical_patrl.py" source_line=378}
  select.1285.39 = s64[] select(compare.373.39, add.1030.39, param_1.1541), metadata={op_name="jit(scan)/jit(main)/while/body/select_n" source_file="/fs04/fc37/adam/projects/psilocybin-prl-analyses/src/prl_hgf/fitting/hierarchical_patrl.py" source_line=378}
  ROOT dynamic-update-slice.2038.1 = pred[192,20]{1,0} dynamic-update-slice(param_0.172, bitcast.5086.1, select.1285.39, constant_770_38), metadata={op_name="jit(scan)/jit(main)/while/body/dynamic_update_slice" source_file="/fs04/fc37/adam/projects/psilocybin-prl-analyses/src/prl_hgf/fitting/hierarchical_patrl.py" source_line=378}
} // fused_dynamic_update_slice.85

fused_dynamic_update_slice.93 {
  param_0.180 = pred[192,20]{1,0} parameter(0)
  param_3.1172 = f64[1]{0} parameter(3)
  bitcast.3967.193 = f64[] bitcast(param_3.1172)
  broadcast.3212.119 = f64[20]{0} broadcast(bitcast.3967.193), dimensions={}, metadata={op_name="jit(scan)/jit(main)/while/body/jit(beliefs_propagation)/jit(continuous_node_prediction)/jit(predict_mean)/mul" source_file="/fs04/fc37/adam/projects/psilocybin-prl-analyses/src/prl_hgf/fitting/hierarchical_patrl.py" source_line=362}
  param_2.1358 = f64[20]{0} parameter(2)
  exponential.76.68 = f64[20]{0} exponential(param_2.1358), metadata={op_name="jit(scan)/jit(main)/while/body/jit(beliefs_propagation)/jit(continuous_node_prediction)/jit(predict_precision)/exp" source_file="/fs04/fc37/adam/projects/psilocybin-prl-analyses/src/prl_hgf/fitting/hierarchical_patrl.py" source_line=362}
  multiply.3524.37 = f64[20]{0} multiply(broadcast.3212.119, exponential.76.68), metadata={op_name="jit(scan)/jit(main)/while/body/jit(beliefs_propagation)/jit(continuous_node_prediction)/jit(predict_precision)/mul" source_file="/fs04/fc37/adam/projects/psilocybin-prl-analyses/src/prl_hgf/fitting/hierarchical_patrl.py" source_line=362}
  constant_774_16 = f64[] constant(1e-128)
  broadcast.3214.clone.37 = f64[20]{0} broadcast(constant_774_16), dimensions={}
  compare.377.7 = pred[20]{0} compare(multiply.3524.37, broadcast.3214.clone.37), direction=GT, metadata={op_name="jit(scan)/jit(main)/while/body/jit(beliefs_propagation)/jit(continuous_node_prediction)/jit(predict_precision)/gt" source_file="/fs04/fc37/adam/projects/psilocybin-prl-analyses/src/prl_hgf/fitting/hierarchical_patrl.py" source_line=362}
  bitcast.4998.1 = pred[1,20]{1,0} bitcast(compare.377.7)
  param_1.1523 = s64[] parameter(1)
  constant_770_20 = s64[] constant(0)
  compare.373.21 = pred[] compare(param_1.1523, constant_770_20), direction=LT, metadata={op_name="jit(scan)/jit(main)/while/body/lt" source_file="/fs04/fc37/adam/projects/psilocybin-prl-analyses/src/prl_hgf/fitting/hierarchical_patrl.py" source_line=378}
  constant_769_11 = s64[] constant(192)
  add.1030.21 = s64[] add(param_1.1523, constant_769_11), metadata={op_name="jit(scan)/jit(main)/while/body/add" source_file="/fs04/fc37/adam/projects/psilocybin-prl-analyses/src/prl_hgf/fitting/hierarchical_patrl.py" source_line=378}
  select.1285.21 = s64[] select(compare.373.21, add.1030.21, param_1.1523), metadata={op_name="jit(scan)/jit(main)/while/body/select_n" source_file="/fs04/fc37/adam/projects/psilocybin-prl-analyses/src/prl_hgf/fitting/hierarchical_patrl.py" source_line=378}
  ROOT dynamic-update-slice.2030.1 = pred[192,20]{1,0} dynamic-update-slice(param_0.180, bitcast.4998.1, select.1285.21, constant_770_20), metadata={op_name="jit(scan)/jit(main)/while/body/dynamic_update_slice" source_file="/fs04/fc37/adam/projects/psilocybin-prl-analyses/src/prl_hgf/fitting/hierarchical_patrl.py" source_line=378}
} // fused_dynamic_update_slice.93

wrapped_copy_computation.3 {
  param_0.1308 = f64[120,20]{1,0} parameter(0)
  ROOT copy.930 = f64[120,20]{1,0} copy(param_0.1308)
}

fused_add {
  param_3.1167 = f64[20]{0} parameter(3)
  broadcast.3215.19 = f64[120,20]{1,0} broadcast(param_3.1167), dimensions={1}, metadata={op_name="jit(scan)/jit(main)/while/body/jit(beliefs_propagation)/jit(continuous_node_prediction)/jit(predict_mean)/mul" source_file="/fs04/fc37/adam/projects/psilocybin-prl-analyses/src/prl_hgf/fitting/hierarchical_patrl.py" source_line=362}
  param_2.1355 = f64[120,20]{1,0} parameter(2)
  multiply.3504.19 = f64[120,20]{1,0} multiply(broadcast.3215.19, param_2.1355), metadata={op_name="jit(scan)/jit(main)/while/body/jit(beliefs_propagation)/jit(continuous_node_prediction)/jit(predict_mean)/mul" source_file="/fs04/fc37/adam/projects/psilocybin-prl-analyses/src/prl_hgf/fitting/hierarchical_patrl.py" source_line=362}
  param_0.1061 = f64[20]{0} parameter(0)
  broadcast.3216.22 = f64[120,20]{1,0} broadcast(param_0.1061), dimensions={1}, metadata={op_name="jit(scan)/jit(main)/while/body/jit(beliefs_propagation)/jit(binary_state_node_prediction)/mul" source_file="/fs04/fc37/adam/projects/psilocybin-prl-analyses/src/prl_hgf/fitting/hierarchical_patrl.py" source_line=362}
  multiply.3505.19 = f64[120,20]{1,0} multiply(multiply.3504.19, broadcast.3216.22), metadata={op_name="jit(scan)/jit(main)/while/body/jit(beliefs_propagation)/jit(binary_state_node_prediction)/mul" source_file="/fs04/fc37/adam/projects/psilocybin-prl-analyses/src/prl_hgf/fitting/hierarchical_patrl.py" source_line=362}
  constant_772_26 = f64[] constant(1)
  broadcast.3213.27 = f64[20]{0} broadcast(constant_772_26), dimensions={}
  param_1.1409 = f64[20]{0} parameter(1)
  subtract.145.3 = f64[20]{0} subtract(broadcast.3213.27, param_1.1409), metadata={op_name="jit(scan)/jit(main)/while/body/jit(beliefs_propagation)/jit(binary_state_node_prediction)/sub" source_file="/fs04/fc37/adam/projects/psilocybin-prl-analyses/src/prl_hgf/fitting/hierarchical_patrl.py" source_line=362}
  broadcast.3217.1 = f64[120,20]{1,0} broadcast(subtract.145.3), dimensions={1}, metadata={op_name="jit(scan)/jit(main)/while/body/jit(beliefs_propagation)/jit(binary_state_node_prediction)/mul" source_file="/fs04/fc37/adam/projects/psilocybin-prl-analyses/src/prl_hgf/fitting/hierarchical_patrl.py" source_line=362}
  multiply.3506.3 = f64[120,20]{1,0} multiply(multiply.3505.19, broadcast.3217.1), metadata={op_name="jit(scan)/jit(main)/while/body/jit(beliefs_propagation)/jit(binary_state_node_prediction)/mul" source_file="/fs04/fc37/adam/projects/psilocybin-prl-analyses/src/prl_hgf/fitting/hierarchical_patrl.py" source_line=362}
  broadcast.3218.1 = f64[120,20]{1,0} broadcast(param_1.1409), dimensions={1}, metadata={op_name="jit(scan)/jit(main)/while/body/jit(beliefs_propagation)/jit(binary_state_node_prediction)/mul" source_file="/fs04/fc37/adam/projects/psilocybin-prl-analyses/src/prl_hgf/fitting/hierarchical_patrl.py" source_line=362}
  negate.274.9 = f64[120,20]{1,0} negate(multiply.3505.19), metadata={op_name="jit(scan)/jit(main)/while/body/jit(beliefs_propagation)/jit(binary_state_node_prediction)/neg" source_file="/fs04/fc37/adam/projects/psilocybin-prl-analyses/src/prl_hgf/fitting/hierarchical_patrl.py" source_line=362}
  multiply.3507.3 = f64[120,20]{1,0} multiply(broadcast.3218.1, negate.274.9), metadata={op_name="jit(scan)/jit(main)/while/body/jit(beliefs_propagation)/jit(binary_state_node_prediction)/mul" source_file="/fs04/fc37/adam/projects/psilocybin-prl-analyses/src/prl_hgf/fitting/hierarchical_patrl.py" source_line=362}
  ROOT add.1035.1 = f64[120,20]{1,0} add(multiply.3506.3, multiply.3507.3), metadata={op_name="jit(scan)/jit(main)/while/body/jit(beliefs_propagation)/jit(binary_state_node_prediction)/add_any" source_file="/fs04/fc37/adam/projects/psilocybin-prl-analyses/src/prl_hgf/fitting/hierarchical_patrl.py" source_line=362}
} // fused_add

fused_multiply.1 {
  param_1.1475 = f64[120,20]{1,0} parameter(1)
  negate.275.6 = f64[120,20]{1,0} negate(param_1.1475), metadata={op_name="jit(scan)/jit(main)/while/body/jit(beliefs_propagation)/jit(continuous_node_prediction)/jit(predict_precision)/neg" source_file="/fs04/fc37/adam/projects/psilocybin-prl-analyses/src/prl_hgf/fitting/hierarchical_patrl.py" source_line=362}
  param_0.1126 = f64[20]{0} parameter(0)
  broadcast.3219.9 = f64[120,20]{1,0} broadcast(param_0.1126), dimensions={1}, metadata={op_name="jit(scan)/jit(main)/while/body/jit(beliefs_propagation)/jit(continuous_node_prediction)/jit(predict_precision)/mul" source_file="/fs04/fc37/adam/projects/psilocybin-prl-analyses/src/prl_hgf/fitting/hierarchical_patrl.py" source_line=362}
  multiply.3509.9 = f64[120,20]{1,0} multiply(negate.275.6, broadcast.3219.9), metadata={op_name="jit(scan)/jit(main)/while/body/jit(beliefs_propagation)/jit(continuous_node_prediction)/jit(predict_precision)/mul" source_file="/fs04/fc37/adam/projects/psilocybin-prl-analyses/src/prl_hgf/fitting/hierarchical_patrl.py" source_line=362}
  param_5.853 = f64[1]{0} parameter(5)
  bitcast.3967.223 = f64[] bitcast(param_5.853)
  broadcast.3212.145 = f64[20]{0} broadcast(bitcast.3967.223), dimensions={}, metadata={op_name="jit(scan)/jit(main)/while/body/jit(beliefs_propagation)/jit(continuous_node_prediction)/jit(predict_mean)/mul" source_file="/fs04/fc37/adam/projects/psilocybin-prl-analyses/src/prl_hgf/fitting/hierarchical_patrl.py" source_line=362}
  param_6.621 = f64[20]{0} parameter(6)
  param_4.969 = f64[20,1]{1,0} parameter(4)
  bitcast.4042.48 = f64[20]{0} bitcast(param_4.969)
  param_7.469 = f64[20]{0} parameter(7)
  multiply.3502.33 = f64[20]{0} multiply(bitcast.4042.48, param_7.469), metadata={op_name="jit(scan)/jit(main)/while/body/jit(beliefs_propagation)/jit(continuous_node_prediction)/jit(predict_precision)/mul" source_file="/fs04/fc37/adam/projects/psilocybin-prl-analyses/src/prl_hgf/fitting/hierarchical_patrl.py" source_line=362}
  add.1033.31 = f64[20]{0} add(param_6.621, multiply.3502.33), metadata={op_name="jit(scan)/jit(main)/while/body/jit(beliefs_propagation)/jit(continuous_node_prediction)/jit(predict_precision)/add" source_file="/fs04/fc37/adam/projects/psilocybin-prl-analyses/src/prl_hgf/fitting/hierarchical_patrl.py" source_line=362}
  exponential.75.29 = f64[20]{0} exponential(add.1033.31), metadata={op_name="jit(scan)/jit(main)/while/body/jit(beliefs_propagation)/jit(continuous_node_prediction)/jit(predict_precision)/exp" source_file="/fs04/fc37/adam/projects/psilocybin-prl-analyses/src/prl_hgf/fitting/hierarchical_patrl.py" source_line=362}
  multiply.3503.45 = f64[20]{0} multiply(broadcast.3212.145, exponential.75.29), metadata={op_name="jit(scan)/jit(main)/while/body/jit(beliefs_propagation)/jit(continuous_node_prediction)/jit(predict_precision)/mul" source_file="/fs04/fc37/adam/projects/psilocybin-prl-analyses/src/prl_hgf/fitting/hierarchical_patrl.py" source_line=362}
  constant_774_26 = f64[] constant(1e-128)
  broadcast.3214.clone.63 = f64[20]{0} broadcast(constant_774_26), dimensions={}
  compare.375.25 = pred[20]{0} compare(multiply.3503.45, broadcast.3214.clone.63), direction=GT, metadata={op_name="jit(scan)/jit(main)/while/body/jit(beliefs_propagation)/jit(continuous_node_prediction)/jit(predict_precision)/gt" source_file="/fs04/fc37/adam/projects/psilocybin-prl-analyses/src/prl_hgf/fitting/hierarchical_patrl.py" source_line=362}
  broadcast.3220.5 = pred[120,20]{1,0} broadcast(compare.375.25), dimensions={1}, metadata={op_name="jit(scan)/jit(main)/while/body/jit(beliefs_propagation)/jit(continuous_node_prediction)/jit(predict_precision)/jit(_where)/broadcast_in_dim[shape=(120, 20) broadcast_dimensions=(np.int64(1),)]" source_file="/fs04/fc37/adam/projects/psilocybin-prl-analyses/src/prl_hgf/env/pat_rl_simulator.py" source_line=92}
  broadcast.3221.75 = f64[120,20]{1,0} broadcast(bitcast.3967.223), dimensions={}, metadata={op_name="jit(scan)/jit(main)/while/body/jit(beliefs_propagation)/jit(continuous_node_prediction)/jit(predict_precision)/mul" source_file="/fs04/fc37/adam/projects/psilocybin-prl-analyses/src/prl_hgf/fitting/hierarchical_patrl.py" source_line=362}
  param_2.1370 = f64[120,20]{1,0} parameter(2)
  broadcast.3222.15 = f64[120,20]{1,0} broadcast(bitcast.4042.48), dimensions={1}, metadata={op_name="jit(scan)/jit(main)/while/body/jit(beliefs_propagation)/jit(continuous_node_prediction)/jit(predict_precision)/mul" source_file="/fs04/fc37/adam/projects/psilocybin-prl-analyses/src/prl_hgf/fitting/hierarchical_patrl.py" source_line=362}
  param_3.1187 = f64[120,20]{1,0} parameter(3)
  multiply.3510.13 = f64[120,20]{1,0} multiply(broadcast.3222.15, param_3.1187), metadata={op_name="jit(scan)/jit(main)/while/body/jit(beliefs_propagation)/jit(continuous_node_prediction)/jit(predict_precision)/mul" source_file="/fs04/fc37/adam/projects/psilocybin-prl-analyses/src/prl_hgf/fitting/hierarchical_patrl.py" source_line=362}
  add.1036.11 = f64[120,20]{1,0} add(param_2.1370, multiply.3510.13), metadata={op_name="jit(scan)/jit(main)/while/body/jit(beliefs_propagation)/jit(continuous_node_prediction)/jit(predict_precision)/add" source_file="/fs04/fc37/adam/projects/psilocybin-prl-analyses/src/prl_hgf/fitting/hierarchical_patrl.py" source_line=362}
  broadcast.3223.9 = f64[120,20]{1,0} broadcast(exponential.75.29), dimensions={1}, metadata={op_name="jit(scan)/jit(main)/while/body/jit(beliefs_propagation)/jit(continuous_node_prediction)/jit(predict_precision)/mul" source_file="/fs04/fc37/adam/projects/psilocybin-prl-analyses/src/prl_hgf/fitting/hierarchical_patrl.py" source_line=362}
  multiply.3511.9 = f64[120,20]{1,0} multiply(add.1036.11, broadcast.3223.9), metadata={op_name="jit(scan)/jit(main)/while/body/jit(beliefs_propagation)/jit(continuous_node_prediction)/jit(predict_precision)/mul" source_file="/fs04/fc37/adam/projects/psilocybin-prl-analyses/src/prl_hgf/fitting/hierarchical_patrl.py" source_line=362}
  multiply.3512.7 = f64[120,20]{1,0} multiply(broadcast.3221.75, multiply.3511.9), metadata={op_name="jit(scan)/jit(main)/while/body/jit(beliefs_propagation)/jit(continuous_node_prediction)/jit(predict_precision)/mul" source_file="/fs04/fc37/adam/projects/psilocybin-prl-analyses/src/prl_hgf/fitting/hierarchical_patrl.py" source_line=362}
  constant_776_23 = f64[] constant(0)
  broadcast.3224.clone.82 = f64[120,20]{1,0} broadcast(constant_776_23), dimensions={}
  select.1287.5 = f64[120,20]{1,0} select(broadcast.3220.5, multiply.3512.7, broadcast.3224.clone.82), metadata={op_name="jit(scan)/jit(main)/while/body/jit(beliefs_propagation)/jit(continuous_node_prediction)/jit(predict_precision)/jit(_where)/select_n" source_file="/fs04/fc37/adam/projects/psilocybin-prl-analyses/src/prl_hgf/env/pat_rl_simulator.py" source_line=92}
  add.1037.5 = f64[120,20]{1,0} add(multiply.3509.9, select.1287.5), metadata={op_name="jit(scan)/jit(main)/while/body/jit(beliefs_propagation)/jit(continuous_node_prediction)/jit(predict_precision)/add" source_file="/fs04/fc37/adam/projects/psilocybin-prl-analyses/src/prl_hgf/fitting/hierarchical_patrl.py" source_line=362}
  negate.276.1 = f64[120,20]{1,0} negate(add.1037.5), metadata={op_name="jit(scan)/jit(main)/while/body/jit(beliefs_propagation)/jit(continuous_node_prediction)/jit(predict_precision)/neg" source_file="/fs04/fc37/adam/projects/psilocybin-prl-analyses/src/prl_hgf/fitting/hierarchical_patrl.py" source_line=362}
  constant_772_8 = f64[] constant(1)
  broadcast.3213.53 = f64[20]{0} broadcast(constant_772_8), dimensions={}
  param_8.344 = f64[20]{0} parameter(8)
  param_9.294 = f64[20]{0} parameter(9)
  select.1286.21 = f64[20]{0} select(compare.375.25, multiply.3503.45, param_9.294), metadata={op_name="jit(scan)/jit(main)/while/body/jit(beliefs_propagation)/jit(continuous_node_prediction)/jit(predict_precision)/jit(_where)/select_n" source_file="/fs04/fc37/adam/projects/psilocybin-prl-analyses/src/prl_hgf/env/pat_rl_simulator.py" source_line=92}
  add.1034.10 = f64[20]{0} add(param_8.344, select.1286.21), metadata={op_name="jit(scan)/jit(main)/while/body/jit(beliefs_propagation)/jit(continuous_node_prediction)/jit(predict_precision)/add" source_file="/fs04/fc37/adam/projects/psilocybin-prl-analyses/src/prl_hgf/fitting/hierarchical_patrl.py" source_line=362}
  multiply.3513.10 = f64[20]{0} multiply(add.1034.10, add.1034.10), metadata={op_name="jit(scan)/jit(main)/while/body/jit(beliefs_propagation)/jit(continuous_node_prediction)/jit(predict_precision)/mul" source_file="/fs04/fc37/adam/projects/psilocybin-prl-analyses/src/prl_hgf/fitting/hierarchical_patrl.py" source_line=362}
  divide.861.5 = f64[20]{0} divide(broadcast.3213.53, multiply.3513.10), metadata={op_name="jit(scan)/jit(main)/while/body/jit(beliefs_propagation)/jit(continuous_node_prediction)/jit(predict_precision)/div" source_file="/fs04/fc37/adam/projects/psilocybin-prl-analyses/src/prl_hgf/fitting/hierarchical_patrl.py" source_line=362}
  broadcast.3225.1 = f64[120,20]{1,0} broadcast(divide.861.5), dimensions={1}, metadata={op_name="jit(scan)/jit(main)/while/body/jit(beliefs_propagation)/jit(continuous_node_prediction)/jit(predict_precision)/mul" source_file="/fs04/fc37/adam/projects/psilocybin-prl-analyses/src/prl_hgf/fitting/hierarchical_patrl.py" source_line=362}
  ROOT multiply.3514.1 = f64[120,20]{1,0} multiply(negate.276.1, broadcast.3225.1), metadata={op_name="jit(scan)/jit(main)/while/body/jit(beliefs_propagation)/jit(continuous_node_prediction)/jit(predict_precision)/mul" source_file="/fs04/fc37/adam/projects/psilocybin-prl-analyses/src/prl_hgf/fitting/hierarchical_patrl.py" source_line=362}
} // fused_multiply.1

fused_dynamic_update_slice.84 {
  param_0.171 = f64[192,20]{1,0} parameter(0)
  param_1.1543 = f64[20]{0} parameter(1)
  bitcast.5097.1 = f64[1,20]{1,0} bitcast(param_1.1543)
  param_2.1284 = s64[] parameter(2)
  constant_770_40 = s64[] constant(0)
  compare.373.41 = pred[] compare(param_2.1284, constant_770_40), direction=LT, metadata={op_name="jit(scan)/jit(main)/while/body/lt" source_file="/fs04/fc37/adam/projects/psilocybin-prl-analyses/src/prl_hgf/fitting/hierarchical_patrl.py" source_line=378}
  constant_769_21 = s64[] constant(192)
  add.1030.41 = s64[] add(param_2.1284, constant_769_21), metadata={op_name="jit(scan)/jit(main)/while/body/add" source_file="/fs04/fc37/adam/projects/psilocybin-prl-analyses/src/prl_hgf/fitting/hierarchical_patrl.py" source_line=378}
  select.1285.41 = s64[] select(compare.373.41, add.1030.41, param_2.1284), metadata={op_name="jit(scan)/jit(main)/while/body/select_n" source_file="/fs04/fc37/adam/projects/psilocybin-prl-analyses/src/prl_hgf/fitting/hierarchical_patrl.py" source_line=378}
  ROOT dynamic-update-slice.2039.1 = f64[192,20]{1,0} dynamic-update-slice(param_0.171, bitcast.5097.1, select.1285.41, constant_770_40), metadata={op_name="jit(scan)/jit(main)/while/body/dynamic_update_slice" source_file="/fs04/fc37/adam/projects/psilocybin-prl-analyses/src/prl_hgf/fitting/hierarchical_patrl.py" source_line=378}
} // fused_dynamic_update_slice.84

fused_dynamic_update_slice.82 {
  param_0.169 = f64[192,20]{1,0} parameter(0)
  constant_772_29 = f64[] constant(1)
  broadcast.3213.51 = f64[20]{0} broadcast(constant_772_29), dimensions={}
  param_2.1290 = f64[20]{0} parameter(2)
  param_4.918 = f64[1]{0} parameter(4)
  bitcast.3967.235 = f64[] bitcast(param_4.918)
  broadcast.3212.153 = f64[20]{0} broadcast(bitcast.3967.235), dimensions={}, metadata={op_name="jit(scan)/jit(main)/while/body/jit(beliefs_propagation)/jit(continuous_node_prediction)/jit(predict_mean)/mul" source_file="/fs04/fc37/adam/projects/psilocybin-prl-analyses/src/prl_hgf/fitting/hierarchical_patrl.py" source_line=362}
  param_5.838 = f64[20]{0} parameter(5)
  param_7.454 = f64[20,1]{1,0} parameter(7)
  bitcast.4042.58 = f64[20]{0} bitcast(param_7.454)
  param_6.608 = f64[20]{0} parameter(6)
  multiply.3502.39 = f64[20]{0} multiply(bitcast.4042.58, param_6.608), metadata={op_name="jit(scan)/jit(main)/while/body/jit(beliefs_propagation)/jit(continuous_node_prediction)/jit(predict_precision)/mul" source_file="/fs04/fc37/adam/projects/psilocybin-prl-analyses/src/prl_hgf/fitting/hierarchical_patrl.py" source_line=362}
  add.1033.37 = f64[20]{0} add(param_5.838, multiply.3502.39), metadata={op_name="jit(scan)/jit(main)/while/body/jit(beliefs_propagation)/jit(continuous_node_prediction)/jit(predict_precision)/add" source_file="/fs04/fc37/adam/projects/psilocybin-prl-analyses/src/prl_hgf/fitting/hierarchical_patrl.py" source_line=362}
  exponential.75.35 = f64[20]{0} exponential(add.1033.37), metadata={op_name="jit(scan)/jit(main)/while/body/jit(beliefs_propagation)/jit(continuous_node_prediction)/jit(predict_precision)/exp" source_file="/fs04/fc37/adam/projects/psilocybin-prl-analyses/src/prl_hgf/fitting/hierarchical_patrl.py" source_line=362}
  multiply.3503.53 = f64[20]{0} multiply(broadcast.3212.153, exponential.75.35), metadata={op_name="jit(scan)/jit(main)/while/body/jit(beliefs_propagation)/jit(continuous_node_prediction)/jit(predict_precision)/mul" source_file="/fs04/fc37/adam/projects/psilocybin-prl-analyses/src/prl_hgf/fitting/hierarchical_patrl.py" source_line=362}
  constant_774_11 = f64[] constant(1e-128)
  broadcast.3214.clone.69 = f64[20]{0} broadcast(constant_774_11), dimensions={}
  compare.375.31 = pred[20]{0} compare(multiply.3503.53, broadcast.3214.clone.69), direction=GT, metadata={op_name="jit(scan)/jit(main)/while/body/jit(beliefs_propagation)/jit(continuous_node_prediction)/jit(predict_precision)/gt" source_file="/fs04/fc37/adam/projects/psilocybin-prl-analyses/src/prl_hgf/fitting/hierarchical_patrl.py" source_line=362}
  param_3.1125 = f64[20]{0} parameter(3)
  select.1286.19 = f64[20]{0} select(compare.375.31, multiply.3503.53, param_3.1125), metadata={op_name="jit(scan)/jit(main)/while/body/jit(beliefs_propagation)/jit(continuous_node_prediction)/jit(predict_precision)/jit(_where)/select_n" source_file="/fs04/fc37/adam/projects/psilocybin-prl-analyses/src/prl_hgf/env/pat_rl_simulator.py" source_line=92}
  add.1034.8 = f64[20]{0} add(param_2.1290, select.1286.19), metadata={op_name="jit(scan)/jit(main)/while/body/jit(beliefs_propagation)/jit(continuous_node_prediction)/jit(predict_precision)/add" source_file="/fs04/fc37/adam/projects/psilocybin-prl-analyses/src/prl_hgf/fitting/hierarchical_patrl.py" source_line=362}
  multiply.3513.8 = f64[20]{0} multiply(add.1034.8, add.1034.8), metadata={op_name="jit(scan)/jit(main)/while/body/jit(beliefs_propagation)/jit(continuous_node_prediction)/jit(predict_precision)/mul" source_file="/fs04/fc37/adam/projects/psilocybin-prl-analyses/src/prl_hgf/fitting/hierarchical_patrl.py" source_line=362}
  divide.861.3 = f64[20]{0} divide(broadcast.3213.51, multiply.3513.8), metadata={op_name="jit(scan)/jit(main)/while/body/jit(beliefs_propagation)/jit(continuous_node_prediction)/jit(predict_precision)/div" source_file="/fs04/fc37/adam/projects/psilocybin-prl-analyses/src/prl_hgf/fitting/hierarchical_patrl.py" source_line=362}
  bitcast.5119.1 = f64[1,20]{1,0} bitcast(divide.861.3)
  param_1.1549 = s64[] parameter(1)
  constant_770_46 = s64[] constant(0)
  compare.373.47 = pred[] compare(param_1.1549, constant_770_46), direction=LT, metadata={op_name="jit(scan)/jit(main)/while/body/lt" source_file="/fs04/fc37/adam/projects/psilocybin-prl-analyses/src/prl_hgf/fitting/hierarchical_patrl.py" source_line=378}
  constant_769_24 = s64[] constant(192)
  add.1030.47 = s64[] add(param_1.1549, constant_769_24), metadata={op_name="jit(scan)/jit(main)/while/body/add" source_file="/fs04/fc37/adam/projects/psilocybin-prl-analyses/src/prl_hgf/fitting/hierarchical_patrl.py" source_line=378}
  select.1285.47 = s64[] select(compare.373.47, add.1030.47, param_1.1549), metadata={op_name="jit(scan)/jit(main)/while/body/select_n" source_file="/fs04/fc37/adam/projects/psilocybin-prl-analyses/src/prl_hgf/fitting/hierarchical_patrl.py" source_line=378}
  ROOT dynamic-update-slice.2041.1 = f64[192,20]{1,0} dynamic-update-slice(param_0.169, bitcast.5119.1, select.1285.47, constant_770_46), metadata={op_name="jit(scan)/jit(main)/while/body/dynamic_update_slice" source_file="/fs04/fc37/adam/projects/psilocybin-prl-analyses/src/prl_hgf/fitting/hierarchical_patrl.py" source_line=378}
} // fused_dynamic_update_slice.82

fused_dynamic_update_slice.89 {
  param_0.176 = f64[192,20]{1,0} parameter(0)
  param_1.1533 = f64[20]{0} parameter(1)
  bitcast.5042.1 = f64[1,20]{1,0} bitcast(param_1.1533)
  param_2.1274 = s64[] parameter(2)
  constant_770_30 = s64[] constant(0)
  compare.373.31 = pred[] compare(param_2.1274, constant_770_30), direction=LT, metadata={op_name="jit(scan)/jit(main)/while/body/lt" source_file="/fs04/fc37/adam/projects/psilocybin-prl-analyses/src/prl_hgf/fitting/hierarchical_patrl.py" source_line=378}
  constant_769_16 = s64[] constant(192)
  add.1030.31 = s64[] add(param_2.1274, constant_769_16), metadata={op_name="jit(scan)/jit(main)/while/body/add" source_file="/fs04/fc37/adam/projects/psilocybin-prl-analyses/src/prl_hgf/fitting/hierarchical_patrl.py" source_line=378}
  select.1285.31 = s64[] select(compare.373.31, add.1030.31, param_2.1274), metadata={op_name="jit(scan)/jit(main)/while/body/select_n" source_file="/fs04/fc37/adam/projects/psilocybin-prl-analyses/src/prl_hgf/fitting/hierarchical_patrl.py" source_line=378}
  ROOT dynamic-update-slice.2034.1 = f64[192,20]{1,0} dynamic-update-slice(param_0.176, bitcast.5042.1, select.1285.31, constant_770_30), metadata={op_name="jit(scan)/jit(main)/while/body/dynamic_update_slice" source_file="/fs04/fc37/adam/projects/psilocybin-prl-analyses/src/prl_hgf/fitting/hierarchical_patrl.py" source_line=378}
} // fused_dynamic_update_slice.89

fused_dynamic_update_slice.79 {
  param_0.166 = f64[192,20]{1,0} parameter(0)
  param_1.1555 = f64[20]{0} parameter(1)
  bitcast.5152.1 = f64[1,20]{1,0} bitcast(param_1.1555)
  param_2.1296 = s64[] parameter(2)
  constant_770_52 = s64[] constant(0)
  compare.373.53 = pred[] compare(param_2.1296, constant_770_52), direction=LT, metadata={op_name="jit(scan)/jit(main)/while/body/lt" source_file="/fs04/fc37/adam/projects/psilocybin-prl-analyses/src/prl_hgf/fitting/hierarchical_patrl.py" source_line=378}
  constant_769_27 = s64[] constant(192)
  add.1030.53 = s64[] add(param_2.1296, constant_769_27), metadata={op_name="jit(scan)/jit(main)/while/body/add" source_file="/fs04/fc37/adam/projects/psilocybin-prl-analyses/src/prl_hgf/fitting/hierarchical_patrl.py" source_line=378}
  select.1285.53 = s64[] select(compare.373.53, add.1030.53, param_2.1296), metadata={op_name="jit(scan)/jit(main)/while/body/select_n" source_file="/fs04/fc37/adam/projects/psilocybin-prl-analyses/src/prl_hgf/fitting/hierarchical_patrl.py" source_line=378}
  ROOT dynamic-update-slice.2044.1 = f64[192,20]{1,0} dynamic-update-slice(param_0.166, bitcast.5152.1, select.1285.53, constant_770_52), metadata={op_name="jit(scan)/jit(main)/while/body/dynamic_update_slice" source_file="/fs04/fc37/adam/projects/psilocybin-prl-analyses/src/prl_hgf/fitting/hierarchical_patrl.py" source_line=378}
} // fused_dynamic_update_slice.79

fused_dynamic_update_slice.77 {
  param_0.164 = f64[192,20]{1,0} parameter(0)
  param_2.1301 = f64[192,20,1]{2,1,0} parameter(2)
  param_3.1134 = s64[] parameter(3)
  constant_770_57 = s64[] constant(0)
  compare.373.59 = pred[] compare(param_3.1134, constant_770_57), direction=LT, metadata={op_name="jit(scan)/jit(main)/while/body/lt" source_file="/fs04/fc37/adam/projects/psilocybin-prl-analyses/src/prl_hgf/fitting/hierarchical_patrl.py" source_line=378}
  constant_769_30 = s64[] constant(192)
  add.1030.59 = s64[] add(param_3.1134, constant_769_30), metadata={op_name="jit(scan)/jit(main)/while/body/add" source_file="/fs04/fc37/adam/projects/psilocybin-prl-analyses/src/prl_hgf/fitting/hierarchical_patrl.py" source_line=378}
  select.1285.59 = s64[] select(compare.373.59, add.1030.59, param_3.1134), metadata={op_name="jit(scan)/jit(main)/while/body/select_n" source_file="/fs04/fc37/adam/projects/psilocybin-prl-analyses/src/prl_hgf/fitting/hierarchical_patrl.py" source_line=378}
  dynamic-slice.56.8 = f64[1,20,1]{2,1,0} dynamic-slice(param_2.1301, select.1285.59, constant_770_57, constant_770_57), dynamic_slice_sizes={1,20,1}, metadata={op_name="jit(scan)/jit(main)/while/body/dynamic_slice[slice_sizes=(1, 20, 1)]" source_file="/fs04/fc37/adam/projects/psilocybin-prl-analyses/src/prl_hgf/fitting/hierarchical_patrl.py" source_line=378}
  bitcast.4140.10 = f64[20]{0} bitcast(dynamic-slice.56.8)
  param_1.1560 = f64[20]{0} parameter(1)
  subtract.146.9 = f64[20]{0} subtract(bitcast.4140.10, param_1.1560), metadata={op_name="jit(scan)/jit(main)/while/body/jit(beliefs_propagation)/jit(binary_state_node_prediction_error)/sub" source_file="/fs04/fc37/adam/projects/psilocybin-prl-analyses/src/prl_hgf/fitting/hierarchical_patrl.py" source_line=362}
  param_4.923 = s32[192]{0} parameter(4)
  dynamic-slice.55.11 = s32[1]{0} dynamic-slice(param_4.923, select.1285.59), dynamic_slice_sizes={1}, metadata={op_name="jit(scan)/jit(main)/while/body/dynamic_slice[slice_sizes=(1,)]" source_file="/fs04/fc37/adam/projects/psilocybin-prl-analyses/src/prl_hgf/fitting/hierarchical_patrl.py" source_line=378}
  bitcast.4028.28 = s32[] bitcast(dynamic-slice.55.11)
  convert.105.25 = f64[] convert(bitcast.4028.28), metadata={op_name="jit(scan)/jit(main)/while/body/jit(beliefs_propagation)/jit(binary_state_node_prediction_error)/convert_element_type[new_dtype=float64 weak_type=False sharding=None]" source_file="/fs04/fc37/adam/projects/psilocybin-prl-analyses/src/prl_hgf/fitting/hierarchical_patrl.py" source_line=362}
  broadcast.3226.11 = f64[20]{0} broadcast(convert.105.25), dimensions={}, metadata={op_name="jit(scan)/jit(main)/while/body/jit(beliefs_propagation)/jit(binary_state_node_prediction_error)/mul" source_file="/fs04/fc37/adam/projects/psilocybin-prl-analyses/src/prl_hgf/fitting/hierarchical_patrl.py" source_line=362}
  multiply.3515.7 = f64[20]{0} multiply(subtract.146.9, broadcast.3226.11), metadata={op_name="jit(scan)/jit(main)/while/body/jit(beliefs_propagation)/jit(binary_state_node_prediction_error)/mul" source_file="/fs04/fc37/adam/projects/psilocybin-prl-analyses/src/prl_hgf/fitting/hierarchical_patrl.py" source_line=362}
  bitcast.5172.1 = f64[1,20]{1,0} bitcast(multiply.3515.7)
  ROOT dynamic-update-slice.2046.1 = f64[192,20]{1,0} dynamic-update-slice(param_0.164, bitcast.5172.1, select.1285.59, constant_770_57), metadata={op_name="jit(scan)/jit(main)/while/body/dynamic_update_slice" source_file="/fs04/fc37/adam/projects/psilocybin-prl-analyses/src/prl_hgf/fitting/hierarchical_patrl.py" source_line=378}
} // fused_dynamic_update_slice.77

fused_dynamic_update_slice.80 {
  param_0.167 = f64[192,20]{1,0} parameter(0)
  constant_772_4 = f64[] constant(1)
  broadcast.3213.31 = f64[20]{0} broadcast(constant_772_4), dimensions={}
  param_1.1553 = f64[20]{0} parameter(1)
  subtract.145.7 = f64[20]{0} subtract(broadcast.3213.31, param_1.1553), metadata={op_name="jit(scan)/jit(main)/while/body/jit(beliefs_propagation)/jit(binary_state_node_prediction)/sub" source_file="/fs04/fc37/adam/projects/psilocybin-prl-analyses/src/prl_hgf/fitting/hierarchical_patrl.py" source_line=362}
  bitcast.5141.1 = f64[1,20]{1,0} bitcast(subtract.145.7)
  param_2.1351 = s64[] parameter(2)
  constant_770_50 = s64[] constant(0)
  compare.373.51 = pred[] compare(param_2.1351, constant_770_50), direction=LT, metadata={op_name="jit(scan)/jit(main)/while/body/lt" source_file="/fs04/fc37/adam/projects/psilocybin-prl-analyses/src/prl_hgf/fitting/hierarchical_patrl.py" source_line=378}
  constant_769_26 = s64[] constant(192)
  add.1030.51 = s64[] add(param_2.1351, constant_769_26), metadata={op_name="jit(scan)/jit(main)/while/body/add" source_file="/fs04/fc37/adam/projects/psilocybin-prl-analyses/src/prl_hgf/fitting/hierarchical_patrl.py" source_line=378}
  select.1285.51 = s64[] select(compare.373.51, add.1030.51, param_2.1351), metadata={op_name="jit(scan)/jit(main)/while/body/select_n" source_file="/fs04/fc37/adam/projects/psilocybin-prl-analyses/src/prl_hgf/fitting/hierarchical_patrl.py" source_line=378}
  ROOT dynamic-update-slice.2043.1 = f64[192,20]{1,0} dynamic-update-slice(param_0.167, bitcast.5141.1, select.1285.51, constant_770_50), metadata={op_name="jit(scan)/jit(main)/while/body/dynamic_update_slice" source_file="/fs04/fc37/adam/projects/psilocybin-prl-analyses/src/prl_hgf/fitting/hierarchical_patrl.py" source_line=378}
} // fused_dynamic_update_slice.80

fused_dynamic_update_slice.81 {
  param_0.168 = f64[192,20]{1,0} parameter(0)
  param_1.1551 = f64[20]{0} parameter(1)
  bitcast.5130.1 = f64[1,20]{1,0} bitcast(param_1.1551)
  param_2.1292 = s64[] parameter(2)
  constant_770_48 = s64[] constant(0)
  compare.373.49 = pred[] compare(param_2.1292, constant_770_48), direction=LT, metadata={op_name="jit(scan)/jit(main)/while/body/lt" source_file="/fs04/fc37/adam/projects/psilocybin-prl-analyses/src/prl_hgf/fitting/hierarchical_patrl.py" source_line=378}
  constant_769_25 = s64[] constant(192)
  add.1030.49 = s64[] add(param_2.1292, constant_769_25), metadata={op_name="jit(scan)/jit(main)/while/body/add" source_file="/fs04/fc37/adam/projects/psilocybin-prl-analyses/src/prl_hgf/fitting/hierarchical_patrl.py" source_line=378}
  select.1285.49 = s64[] select(compare.373.49, add.1030.49, param_2.1292), metadata={op_name="jit(scan)/jit(main)/while/body/select_n" source_file="/fs04/fc37/adam/projects/psilocybin-prl-analyses/src/prl_hgf/fitting/hierarchical_patrl.py" source_line=378}
  ROOT dynamic-update-slice.2042.1 = f64[192,20]{1,0} dynamic-update-slice(param_0.168, bitcast.5130.1, select.1285.49, constant_770_48), metadata={op_name="jit(scan)/jit(main)/while/body/dynamic_update_slice" source_file="/fs04/fc37/adam/projects/psilocybin-prl-analyses/src/prl_hgf/fitting/hierarchical_patrl.py" source_line=378}
} // fused_dynamic_update_slice.81

fused_dynamic_update_slice.76 {
  param_0.163 = f64[192,20]{1,0} parameter(0)
  constant_772_32 = f64[] constant(1)
  broadcast.3213.61 = f64[20]{0} broadcast(constant_772_32), dimensions={}
  param_2.1303 = f64[20]{0} parameter(2)
  multiply.3541.8 = f64[20]{0} multiply(param_2.1303, param_2.1303), metadata={op_name="jit(scan)/jit(main)/while/body/jit(beliefs_propagation)/jit(binary_state_node_prediction_error)/mul" source_file="/fs04/fc37/adam/projects/psilocybin-prl-analyses/src/prl_hgf/fitting/hierarchical_patrl.py" source_line=362}
  divide.871.3 = f64[20]{0} divide(broadcast.3213.61, multiply.3541.8), metadata={op_name="jit(scan)/jit(main)/while/body/jit(beliefs_propagation)/jit(binary_state_node_prediction_error)/div" source_file="/fs04/fc37/adam/projects/psilocybin-prl-analyses/src/prl_hgf/fitting/hierarchical_patrl.py" source_line=362}
  bitcast.5183.1 = f64[1,20]{1,0} bitcast(divide.871.3)
  param_1.1562 = s64[] parameter(1)
  constant_770_59 = s64[] constant(0)
  compare.373.61 = pred[] compare(param_1.1562, constant_770_59), direction=LT, metadata={op_name="jit(scan)/jit(main)/while/body/lt" source_file="/fs04/fc37/adam/projects/psilocybin-prl-analyses/src/prl_hgf/fitting/hierarchical_patrl.py" source_line=378}
  constant_769_31 = s64[] constant(192)
  add.1030.61 = s64[] add(param_1.1562, constant_769_31), metadata={op_name="jit(scan)/jit(main)/while/body/add" source_file="/fs04/fc37/adam/projects/psilocybin-prl-analyses/src/prl_hgf/fitting/hierarchical_patrl.py" source_line=378}
  select.1285.61 = s64[] select(compare.373.61, add.1030.61, param_1.1562), metadata={op_name="jit(scan)/jit(main)/while/body/select_n" source_file="/fs04/fc37/adam/projects/psilocybin-prl-analyses/src/prl_hgf/fitting/hierarchical_patrl.py" source_line=378}
  ROOT dynamic-update-slice.2047.1 = f64[192,20]{1,0} dynamic-update-slice(param_0.163, bitcast.5183.1, select.1285.61, constant_770_59), metadata={op_name="jit(scan)/jit(main)/while/body/dynamic_update_slice" source_file="/fs04/fc37/adam/projects/psilocybin-prl-analyses/src/prl_hgf/fitting/hierarchical_patrl.py" source_line=378}
} // fused_dynamic_update_slice.76

fused_dynamic_update_slice.67 {
  param_0.154 = f64[192,20]{1,0} parameter(0)
  param_2.1321 = f64[20,1]{1,0} parameter(2)
  bitcast.3976.14 = f64[20]{0} bitcast(param_2.1321)
  param_1.1580 = f64[20]{0} parameter(1)
  multiply.3501.7 = f64[20]{0} multiply(bitcast.3976.14, param_1.1580), metadata={op_name="jit(scan)/jit(main)/while/body/jit(beliefs_propagation)/jit(continuous_node_posterior_update)/jit(posterior_update_mean_continuous_node)/mul" source_file="/fs04/fc37/adam/projects/psilocybin-prl-analyses/src/prl_hgf/fitting/hierarchical_patrl.py" source_line=362}
  bitcast.5287.1 = f64[1,20]{1,0} bitcast(multiply.3501.7)
  param_3.1143 = s64[] parameter(3)
  constant_770_77 = s64[] constant(0)
  compare.373.81 = pred[] compare(param_3.1143, constant_770_77), direction=LT, metadata={op_name="jit(scan)/jit(main)/while/body/lt" source_file="/fs04/fc37/adam/projects/psilocybin-prl-analyses/src/prl_hgf/fitting/hierarchical_patrl.py" source_line=378}
  constant_769_41 = s64[] constant(192)
  add.1030.81 = s64[] add(param_3.1143, constant_769_41), metadata={op_name="jit(scan)/jit(main)/while/body/add" source_file="/fs04/fc37/adam/projects/psilocybin-prl-analyses/src/prl_hgf/fitting/hierarchical_patrl.py" source_line=378}
  select.1285.81 = s64[] select(compare.373.81, add.1030.81, param_3.1143), metadata={op_name="jit(scan)/jit(main)/while/body/select_n" source_file="/fs04/fc37/adam/projects/psilocybin-prl-analyses/src/prl_hgf/fitting/hierarchical_patrl.py" source_line=378}
  ROOT dynamic-update-slice.2057.1 = f64[192,20]{1,0} dynamic-update-slice(param_0.154, bitcast.5287.1, select.1285.81, constant_770_77), metadata={op_name="jit(scan)/jit(main)/while/body/dynamic_update_slice" source_file="/fs04/fc37/adam/projects/psilocybin-prl-analyses/src/prl_hgf/fitting/hierarchical_patrl.py" source_line=378}
} // fused_dynamic_update_slice.67

fused_dynamic_update_slice.83 {
  param_0.170 = f64[192,20]{1,0} parameter(0)
  param_3.1121 = f64[1]{0} parameter(3)
  bitcast.3967.161 = f64[] bitcast(param_3.1121)
  broadcast.3212.91 = f64[20]{0} broadcast(bitcast.3967.161), dimensions={}, metadata={op_name="jit(scan)/jit(main)/while/body/jit(beliefs_propagation)/jit(continuous_node_prediction)/jit(predict_mean)/mul" source_file="/fs04/fc37/adam/projects/psilocybin-prl-analyses/src/prl_hgf/fitting/hierarchical_patrl.py" source_line=362}
  param_4.951 = f64[20]{0} parameter(4)
  param_6.607 = f64[20,1]{1,0} parameter(6)
  bitcast.4042.34 = f64[20]{0} bitcast(param_6.607)
  param_5.837 = f64[20]{0} parameter(5)
  multiply.3502.23 = f64[20]{0} multiply(bitcast.4042.34, param_5.837), metadata={op_name="jit(scan)/jit(main)/while/body/jit(beliefs_propagation)/jit(continuous_node_prediction)/jit(predict_precision)/mul" source_file="/fs04/fc37/adam/projects/psilocybin-prl-analyses/src/prl_hgf/fitting/hierarchical_patrl.py" source_line=362}
  add.1033.21 = f64[20]{0} add(param_4.951, multiply.3502.23), metadata={op_name="jit(scan)/jit(main)/while/body/jit(beliefs_propagation)/jit(continuous_node_prediction)/jit(predict_precision)/add" source_file="/fs04/fc37/adam/projects/psilocybin-prl-analyses/src/prl_hgf/fitting/hierarchical_patrl.py" source_line=362}
  exponential.75.19 = f64[20]{0} exponential(add.1033.21), metadata={op_name="jit(scan)/jit(main)/while/body/jit(beliefs_propagation)/jit(continuous_node_prediction)/jit(predict_precision)/exp" source_file="/fs04/fc37/adam/projects/psilocybin-prl-analyses/src/prl_hgf/fitting/hierarchical_patrl.py" source_line=362}
  multiply.3503.33 = f64[20]{0} multiply(broadcast.3212.91, exponential.75.19), metadata={op_name="jit(scan)/jit(main)/while/body/jit(beliefs_propagation)/jit(continuous_node_prediction)/jit(predict_precision)/mul" source_file="/fs04/fc37/adam/projects/psilocybin-prl-analyses/src/prl_hgf/fitting/hierarchical_patrl.py" source_line=362}
  constant_774_10 = f64[] constant(1e-128)
  broadcast.3214.clone.19 = f64[20]{0} broadcast(constant_774_10), dimensions={}
  compare.375.15 = pred[20]{0} compare(multiply.3503.33, broadcast.3214.clone.19), direction=GT, metadata={op_name="jit(scan)/jit(main)/while/body/jit(beliefs_propagation)/jit(continuous_node_prediction)/jit(predict_precision)/gt" source_file="/fs04/fc37/adam/projects/psilocybin-prl-analyses/src/prl_hgf/fitting/hierarchical_patrl.py" source_line=362}
  param_2.1286 = f64[20]{0} parameter(2)
  select.1286.9 = f64[20]{0} select(compare.375.15, multiply.3503.33, param_2.1286), metadata={op_name="jit(scan)/jit(main)/while/body/jit(beliefs_propagation)/jit(continuous_node_prediction)/jit(predict_precision)/jit(_where)/select_n" source_file="/fs04/fc37/adam/projects/psilocybin-prl-analyses/src/prl_hgf/env/pat_rl_simulator.py" source_line=92}
  bitcast.5108.1 = f64[1,20]{1,0} bitcast(select.1286.9)
  param_1.1545 = s64[] parameter(1)
  constant_770_42 = s64[] constant(0)
  compare.373.43 = pred[] compare(param_1.1545, constant_770_42), direction=LT, metadata={op_name="jit(scan)/jit(main)/while/body/lt" source_file="/fs04/fc37/adam/projects/psilocybin-prl-analyses/src/prl_hgf/fitting/hierarchical_patrl.py" source_line=378}
  constant_769_22 = s64[] constant(192)
  add.1030.43 = s64[] add(param_1.1545, constant_769_22), metadata={op_name="jit(scan)/jit(main)/while/body/add" source_file="/fs04/fc37/adam/projects/psilocybin-prl-analyses/src/prl_hgf/fitting/hierarchical_patrl.py" source_line=378}
  select.1285.43 = s64[] select(compare.373.43, add.1030.43, param_1.1545), metadata={op_name="jit(scan)/jit(main)/while/body/select_n" source_file="/fs04/fc37/adam/projects/psilocybin-prl-analyses/src/prl_hgf/fitting/hierarchical_patrl.py" source_line=378}
  ROOT dynamic-update-slice.2040.1 = f64[192,20]{1,0} dynamic-update-slice(param_0.170, bitcast.5108.1, select.1285.43, constant_770_42), metadata={op_name="jit(scan)/jit(main)/while/body/dynamic_update_slice" source_file="/fs04/fc37/adam/projects/psilocybin-prl-analyses/src/prl_hgf/fitting/hierarchical_patrl.py" source_line=378}
} // fused_dynamic_update_slice.83

fused_dynamic_update_slice.86 {
  param_0.173 = f64[192,20]{1,0} parameter(0)
  param_2.1280 = f64[20]{0} parameter(2)
  param_4.911 = f64[20,1]{1,0} parameter(4)
  bitcast.4042.22 = f64[20]{0} bitcast(param_4.911)
  param_3.1116 = f64[20]{0} parameter(3)
  multiply.3502.11 = f64[20]{0} multiply(bitcast.4042.22, param_3.1116), metadata={op_name="jit(scan)/jit(main)/while/body/jit(beliefs_propagation)/jit(continuous_node_prediction)/jit(predict_precision)/mul" source_file="/fs04/fc37/adam/projects/psilocybin-prl-analyses/src/prl_hgf/fitting/hierarchical_patrl.py" source_line=362}
  add.1033.9 = f64[20]{0} add(param_2.1280, multiply.3502.11), metadata={op_name="jit(scan)/jit(main)/while/body/jit(beliefs_propagation)/jit(continuous_node_prediction)/jit(predict_precision)/add" source_file="/fs04/fc37/adam/projects/psilocybin-prl-analyses/src/prl_hgf/fitting/hierarchical_patrl.py" source_line=362}
  exponential.75.7 = f64[20]{0} exponential(add.1033.9), metadata={op_name="jit(scan)/jit(main)/while/body/jit(beliefs_propagation)/jit(continuous_node_prediction)/jit(predict_precision)/exp" source_file="/fs04/fc37/adam/projects/psilocybin-prl-analyses/src/prl_hgf/fitting/hierarchical_patrl.py" source_line=362}
  bitcast.5075.1 = f64[1,20]{1,0} bitcast(exponential.75.7)
  param_1.1539 = s64[] parameter(1)
  constant_770_36 = s64[] constant(0)
  compare.373.37 = pred[] compare(param_1.1539, constant_770_36), direction=LT, metadata={op_name="jit(scan)/jit(main)/while/body/lt" source_file="/fs04/fc37/adam/projects/psilocybin-prl-analyses/src/prl_hgf/fitting/hierarchical_patrl.py" source_line=378}
  constant_769_19 = s64[] constant(192)
  add.1030.37 = s64[] add(param_1.1539, constant_769_19), metadata={op_name="jit(scan)/jit(main)/while/body/add" source_file="/fs04/fc37/adam/projects/psilocybin-prl-analyses/src/prl_hgf/fitting/hierarchical_patrl.py" source_line=378}
  select.1285.37 = s64[] select(compare.373.37, add.1030.37, param_1.1539), metadata={op_name="jit(scan)/jit(main)/while/body/select_n" source_file="/fs04/fc37/adam/projects/psilocybin-prl-analyses/src/prl_hgf/fitting/hierarchical_patrl.py" source_line=378}
  ROOT dynamic-update-slice.2037.1 = f64[192,20]{1,0} dynamic-update-slice(param_0.173, bitcast.5075.1, select.1285.37, constant_770_36), metadata={op_name="jit(scan)/jit(main)/while/body/dynamic_update_slice" source_file="/fs04/fc37/adam/projects/psilocybin-prl-analyses/src/prl_hgf/fitting/hierarchical_patrl.py" source_line=378}
} // fused_dynamic_update_slice.86

fused_dynamic_update_slice.44 {
  param_0.131 = f64[192,20]{1,0} parameter(0)
  param_1.1623 = f64[20,1]{1,0} parameter(1)
  bitcast.4346.22 = f64[20]{0} bitcast(param_1.1623)
  multiply.3533.9 = f64[20]{0} multiply(bitcast.4346.22, bitcast.4346.22), metadata={op_name="jit(scan)/jit(main)/while/body/jit(beliefs_propagation)/jit(continuous_node_posterior_update_ehgf)/jit(posterior_update_precision_continuous_node)/jit(precision_update)/integer_pow[y=2]" source_file="/fs04/fc37/adam/projects/psilocybin-prl-analyses/src/prl_hgf/fitting/hierarchical_patrl.py" source_line=362}
  constant_782_5 = f64[] constant(0.5)
  broadcast.3233.clone.17 = f64[20]{0} broadcast(constant_782_5), dimensions={}
  multiply.3534.7 = f64[20]{0} multiply(multiply.3533.9, broadcast.3233.clone.17), metadata={op_name="jit(scan)/jit(main)/while/body/jit(beliefs_propagation)/jit(continuous_node_posterior_update_ehgf)/jit(posterior_update_precision_continuous_node)/jit(precision_update)/mul" source_file="/fs04/fc37/adam/projects/psilocybin-prl-analyses/src/prl_hgf/fitting/hierarchical_patrl.py" source_line=362}
  bitcast.5552.1 = f64[1,20]{1,0} bitcast(multiply.3534.7)
  param_2.1385 = s64[] parameter(2)
  constant_770_61 = s64[] constant(0)
  compare.373.145 = pred[] compare(param_2.1385, constant_770_61), direction=LT, metadata={op_name="jit(scan)/jit(main)/while/body/lt" source_file="/fs04/fc37/adam/projects/psilocybin-prl-analyses/src/prl_hgf/fitting/hierarchical_patrl.py" source_line=378}
  constant_769_73 = s64[] constant(192)
  add.1030.145 = s64[] add(param_2.1385, constant_769_73), metadata={op_name="jit(scan)/jit(main)/while/body/add" source_file="/fs04/fc37/adam/projects/psilocybin-prl-analyses/src/prl_hgf/fitting/hierarchical_patrl.py" source_line=378}
  select.1285.145 = s64[] select(compare.373.145, add.1030.145, param_2.1385), metadata={op_name="jit(scan)/jit(main)/while/body/select_n" source_file="/fs04/fc37/adam/projects/psilocybin-prl-analyses/src/prl_hgf/fitting/hierarchical_patrl.py" source_line=378}
  ROOT dynamic-update-slice.2081.1 = f64[192,20]{1,0} dynamic-update-slice(param_0.131, bitcast.5552.1, select.1285.145, constant_770_61), metadata={op_name="jit(scan)/jit(main)/while/body/dynamic_update_slice" source_file="/fs04/fc37/adam/projects/psilocybin-prl-analyses/src/prl_hgf/fitting/hierarchical_patrl.py" source_line=378}
} // fused_dynamic_update_slice.44

fused_dynamic_update_slice.45 {
  param_0.132 = f64[192,20]{1,0} parameter(0)
  param_1.1621 = f64[20,1]{1,0} parameter(1)
  bitcast.4346.28 = f64[20]{0} bitcast(param_1.1621)
  constant_779_12 = f64[] constant(2)
  broadcast.3230.clone.21 = f64[20]{0} broadcast(constant_779_12), dimensions={}
  multiply.3587.3 = f64[20]{0} multiply(bitcast.4346.28, broadcast.3230.clone.21), metadata={op_name="jit(scan)/jit(main)/while/body/jit(beliefs_propagation)/jit(continuous_node_posterior_update_ehgf)/jit(posterior_update_precision_continuous_node)/jit(precision_update)/mul" source_file="/fs04/fc37/adam/projects/psilocybin-prl-analyses/src/prl_hgf/fitting/hierarchical_patrl.py" source_line=362}
  bitcast.5541.1 = f64[1,20]{1,0} bitcast(multiply.3587.3)
  param_2.1377 = s64[] parameter(2)
  constant_770_54 = s64[] constant(0)
  compare.373.143 = pred[] compare(param_2.1377, constant_770_54), direction=LT, metadata={op_name="jit(scan)/jit(main)/while/body/lt" source_file="/fs04/fc37/adam/projects/psilocybin-prl-analyses/src/prl_hgf/fitting/hierarchical_patrl.py" source_line=378}
  constant_769_72 = s64[] constant(192)
  add.1030.143 = s64[] add(param_2.1377, constant_769_72), metadata={op_name="jit(scan)/jit(main)/while/body/add" source_file="/fs04/fc37/adam/projects/psilocybin-prl-analyses/src/prl_hgf/fitting/hierarchical_patrl.py" source_line=378}
  select.1285.143 = s64[] select(compare.373.143, add.1030.143, param_2.1377), metadata={op_name="jit(scan)/jit(main)/while/body/select_n" source_file="/fs04/fc37/adam/projects/psilocybin-prl-analyses/src/prl_hgf/fitting/hierarchical_patrl.py" source_line=378}
  ROOT dynamic-update-slice.2080.1 = f64[192,20]{1,0} dynamic-update-slice(param_0.132, bitcast.5541.1, select.1285.143, constant_770_54), metadata={op_name="jit(scan)/jit(main)/while/body/dynamic_update_slice" source_file="/fs04/fc37/adam/projects/psilocybin-prl-analyses/src/prl_hgf/fitting/hierarchical_patrl.py" source_line=378}
} // fused_dynamic_update_slice.45

fused_dynamic_update_slice.102 {
  param_0.634 = f64[192,20]{1,0} parameter(0)
  param_1.1534 = f64[1]{0} parameter(1)
  bitcast.3967.71 = f64[] bitcast(param_1.1534)
  broadcast.3280.3 = f64[1,20]{1,0} broadcast(bitcast.3967.71), dimensions={}, metadata={op_name="jit(scan)/jit(main)/while/body/jit(beliefs_propagation)/jit(continuous_node_posterior_update_ehgf)/jit(posterior_update_precision_continuous_node)/jit(precision_update_missing_values)/broadcast_in_dim[shape=(1, 20) broadcast_dimensions=(np.int64(1),)]" source_file="/fs04/fc37/adam/projects/psilocybin-prl-analyses/src/prl_hgf/fitting/hierarchical_patrl.py" source_line=362}
  param_2.1275 = s64[] parameter(2)
  constant_770_31 = s64[] constant(0)
  compare.373.121 = pred[] compare(param_2.1275, constant_770_31), direction=LT, metadata={op_name="jit(scan)/jit(main)/while/body/lt" source_file="/fs04/fc37/adam/projects/psilocybin-prl-analyses/src/prl_hgf/fitting/hierarchical_patrl.py" source_line=378}
  constant_769_61 = s64[] constant(192)
  add.1030.121 = s64[] add(param_2.1275, constant_769_61), metadata={op_name="jit(scan)/jit(main)/while/body/add" source_file="/fs04/fc37/adam/projects/psilocybin-prl-analyses/src/prl_hgf/fitting/hierarchical_patrl.py" source_line=378}
  select.1285.121 = s64[] select(compare.373.121, add.1030.121, param_2.1275), metadata={op_name="jit(scan)/jit(main)/while/body/select_n" source_file="/fs04/fc37/adam/projects/psilocybin-prl-analyses/src/prl_hgf/fitting/hierarchical_patrl.py" source_line=378}
  ROOT dynamic-update-slice.2074.1 = f64[192,20]{1,0} dynamic-update-slice(param_0.634, broadcast.3280.3, select.1285.121, constant_770_31), metadata={op_name="jit(scan)/jit(main)/while/body/dynamic_update_slice" source_file="/fs04/fc37/adam/projects/psilocybin-prl-analyses/src/prl_hgf/fitting/hierarchical_patrl.py" source_line=378}
} // fused_dynamic_update_slice.102

fused_dynamic_update_slice.54 {
  param_0.141 = f64[192,20]{1,0} parameter(0)
  param_1.1508 = s64[20]{0} parameter(1)
  convert.106.4 = f64[20]{0} convert(param_1.1508), metadata={op_name="jit(scan)/jit(main)/while/body/jit(beliefs_propagation)/jit(continuous_node_posterior_update_ehgf)/jit(posterior_update_mean_continuous_node)/convert_element_type[new_dtype=float64 weak_type=False sharding=None]" source_file="/fs04/fc37/adam/projects/psilocybin-prl-analyses/src/prl_hgf/fitting/hierarchical_patrl.py" source_line=362}
  bitcast.5430.1 = f64[1,20]{1,0} bitcast(convert.106.4)
  param_2.1249 = s64[] parameter(2)
  constant_770_4 = s64[] constant(0)
  compare.373.111 = pred[] compare(param_2.1249, constant_770_4), direction=LT, metadata={op_name="jit(scan)/jit(main)/while/body/lt" source_file="/fs04/fc37/adam/projects/psilocybin-prl-analyses/src/prl_hgf/fitting/hierarchical_patrl.py" source_line=378}
  constant_769_56 = s64[] constant(192)
  add.1030.111 = s64[] add(param_2.1249, constant_769_56), metadata={op_name="jit(scan)/jit(main)/while/body/add" source_file="/fs04/fc37/adam/projects/psilocybin-prl-analyses/src/prl_hgf/fitting/hierarchical_patrl.py" source_line=378}
  select.1285.111 = s64[] select(compare.373.111, add.1030.111, param_2.1249), metadata={op_name="jit(scan)/jit(main)/while/body/select_n" source_file="/fs04/fc37/adam/projects/psilocybin-prl-analyses/src/prl_hgf/fitting/hierarchical_patrl.py" source_line=378}
  ROOT dynamic-update-slice.2070.1 = f64[192,20]{1,0} dynamic-update-slice(param_0.141, bitcast.5430.1, select.1285.111, constant_770_4), metadata={op_name="jit(scan)/jit(main)/while/body/dynamic_update_slice" source_file="/fs04/fc37/adam/projects/psilocybin-prl-analyses/src/prl_hgf/fitting/hierarchical_patrl.py" source_line=378}
} // fused_dynamic_update_slice.54

fused_dynamic_update_slice.60 {
  param_0.147 = f64[192,20]{1,0} parameter(0)
  param_1.1597 = f64[20,1]{1,0} parameter(1)
  bitcast.5364.1 = f64[1,20]{1,0} bitcast(param_1.1597)
  param_2.1338 = s64[] parameter(2)
  constant_770_94 = s64[] constant(0)
  compare.373.99 = pred[] compare(param_2.1338, constant_770_94), direction=LT, metadata={op_name="jit(scan)/jit(main)/while/body/lt" source_file="/fs04/fc37/adam/projects/psilocybin-prl-analyses/src/prl_hgf/fitting/hierarchical_patrl.py" source_line=378}
  constant_769_50 = s64[] constant(192)
  add.1030.99 = s64[] add(param_2.1338, constant_769_50), metadata={op_name="jit(scan)/jit(main)/while/body/add" source_file="/fs04/fc37/adam/projects/psilocybin-prl-analyses/src/prl_hgf/fitting/hierarchical_patrl.py" source_line=378}
  select.1285.99 = s64[] select(compare.373.99, add.1030.99, param_2.1338), metadata={op_name="jit(scan)/jit(main)/while/body/select_n" source_file="/fs04/fc37/adam/projects/psilocybin-prl-analyses/src/prl_hgf/fitting/hierarchical_patrl.py" source_line=378}
  ROOT dynamic-update-slice.2064.1 = f64[192,20]{1,0} dynamic-update-slice(param_0.147, bitcast.5364.1, select.1285.99, constant_770_94), metadata={op_name="jit(scan)/jit(main)/while/body/dynamic_update_slice" source_file="/fs04/fc37/adam/projects/psilocybin-prl-analyses/src/prl_hgf/fitting/hierarchical_patrl.py" source_line=378}
} // fused_dynamic_update_slice.60

fused_dynamic_update_slice.69 {
  param_0.156 = f64[192,20]{1,0} parameter(0)
  param_1.1576 = f64[20,1]{1,0} parameter(1)
  bitcast.5265.1 = f64[1,20]{1,0} bitcast(param_1.1576)
  param_2.1317 = s64[] parameter(2)
  constant_770_73 = s64[] constant(0)
  compare.373.77 = pred[] compare(param_2.1317, constant_770_73), direction=LT, metadata={op_name="jit(scan)/jit(main)/while/body/lt" source_file="/fs04/fc37/adam/projects/psilocybin-prl-analyses/src/prl_hgf/fitting/hierarchical_patrl.py" source_line=378}
  constant_769_39 = s64[] constant(192)
  add.1030.77 = s64[] add(param_2.1317, constant_769_39), metadata={op_name="jit(scan)/jit(main)/while/body/add" source_file="/fs04/fc37/adam/projects/psilocybin-prl-analyses/src/prl_hgf/fitting/hierarchical_patrl.py" source_line=378}
  select.1285.77 = s64[] select(compare.373.77, add.1030.77, param_2.1317), metadata={op_name="jit(scan)/jit(main)/while/body/select_n" source_file="/fs04/fc37/adam/projects/psilocybin-prl-analyses/src/prl_hgf/fitting/hierarchical_patrl.py" source_line=378}
  ROOT dynamic-update-slice.2055.1 = f64[192,20]{1,0} dynamic-update-slice(param_0.156, bitcast.5265.1, select.1285.77, constant_770_73), metadata={op_name="jit(scan)/jit(main)/while/body/dynamic_update_slice" source_file="/fs04/fc37/adam/projects/psilocybin-prl-analyses/src/prl_hgf/fitting/hierarchical_patrl.py" source_line=378}
} // fused_dynamic_update_slice.69

fused_dynamic_update_slice.87 {
  param_0.174 = f64[192,20]{1,0} parameter(0)
  param_1.1537 = f64[20,1]{1,0} parameter(1)
  bitcast.5064.1 = f64[1,20]{1,0} bitcast(param_1.1537)
  param_2.1278 = s64[] parameter(2)
  constant_770_34 = s64[] constant(0)
  compare.373.35 = pred[] compare(param_2.1278, constant_770_34), direction=LT, metadata={op_name="jit(scan)/jit(main)/while/body/lt" source_file="/fs04/fc37/adam/projects/psilocybin-prl-analyses/src/prl_hgf/fitting/hierarchical_patrl.py" source_line=378}
  constant_769_18 = s64[] constant(192)
  add.1030.35 = s64[] add(param_2.1278, constant_769_18), metadata={op_name="jit(scan)/jit(main)/while/body/add" source_file="/fs04/fc37/adam/projects/psilocybin-prl-analyses/src/prl_hgf/fitting/hierarchical_patrl.py" source_line=378}
  select.1285.35 = s64[] select(compare.373.35, add.1030.35, param_2.1278), metadata={op_name="jit(scan)/jit(main)/while/body/select_n" source_file="/fs04/fc37/adam/projects/psilocybin-prl-analyses/src/prl_hgf/fitting/hierarchical_patrl.py" source_line=378}
  ROOT dynamic-update-slice.2036.1 = f64[192,20]{1,0} dynamic-update-slice(param_0.174, bitcast.5064.1, select.1285.35, constant_770_34), metadata={op_name="jit(scan)/jit(main)/while/body/dynamic_update_slice" source_file="/fs04/fc37/adam/projects/psilocybin-prl-analyses/src/prl_hgf/fitting/hierarchical_patrl.py" source_line=378}
} // fused_dynamic_update_slice.87

fused_dynamic_update_slice.88 {
  param_0.175 = f64[192,20]{1,0} parameter(0)
  param_1.1535 = f64[20]{0} parameter(1)
  bitcast.5053.1 = f64[1,20]{1,0} bitcast(param_1.1535)
  param_2.1276 = s64[] parameter(2)
  constant_770_32 = s64[] constant(0)
  compare.373.33 = pred[] compare(param_2.1276, constant_770_32), direction=LT, metadata={op_name="jit(scan)/jit(main)/while/body/lt" source_file="/fs04/fc37/adam/projects/psilocybin-prl-analyses/src/prl_hgf/fitting/hierarchical_patrl.py" source_line=378}
  constant_769_17 = s64[] constant(192)
  add.1030.33 = s64[] add(param_2.1276, constant_769_17), metadata={op_name="jit(scan)/jit(main)/while/body/add" source_file="/fs04/fc37/adam/projects/psilocybin-prl-analyses/src/prl_hgf/fitting/hierarchical_patrl.py" source_line=378}
  select.1285.33 = s64[] select(compare.373.33, add.1030.33, param_2.1276), metadata={op_name="jit(scan)/jit(main)/while/body/select_n" source_file="/fs04/fc37/adam/projects/psilocybin-prl-analyses/src/prl_hgf/fitting/hierarchical_patrl.py" source_line=378}
  ROOT dynamic-update-slice.2035.1 = f64[192,20]{1,0} dynamic-update-slice(param_0.175, bitcast.5053.1, select.1285.33, constant_770_32), metadata={op_name="jit(scan)/jit(main)/while/body/dynamic_update_slice" source_file="/fs04/fc37/adam/projects/psilocybin-prl-analyses/src/prl_hgf/fitting/hierarchical_patrl.py" source_line=378}
} // fused_dynamic_update_slice.88

fused_dynamic_update_slice.91 {
  param_0.178 = f64[192,20]{1,0} parameter(0)
  param_4.906 = f64[1]{0} parameter(4)
  bitcast.3967.213 = f64[] bitcast(param_4.906)
  broadcast.3212.139 = f64[20]{0} broadcast(bitcast.3967.213), dimensions={}, metadata={op_name="jit(scan)/jit(main)/while/body/jit(beliefs_propagation)/jit(continuous_node_prediction)/jit(predict_mean)/mul" source_file="/fs04/fc37/adam/projects/psilocybin-prl-analyses/src/prl_hgf/fitting/hierarchical_patrl.py" source_line=362}
  param_3.1111 = f64[20]{0} parameter(3)
  exponential.76.88 = f64[20]{0} exponential(param_3.1111), metadata={op_name="jit(scan)/jit(main)/while/body/jit(beliefs_propagation)/jit(continuous_node_prediction)/jit(predict_precision)/exp" source_file="/fs04/fc37/adam/projects/psilocybin-prl-analyses/src/prl_hgf/fitting/hierarchical_patrl.py" source_line=362}
  multiply.3524.57 = f64[20]{0} multiply(broadcast.3212.139, exponential.76.88), metadata={op_name="jit(scan)/jit(main)/while/body/jit(beliefs_propagation)/jit(continuous_node_prediction)/jit(predict_precision)/mul" source_file="/fs04/fc37/adam/projects/psilocybin-prl-analyses/src/prl_hgf/fitting/hierarchical_patrl.py" source_line=362}
  constant_774_25 = f64[] constant(1e-128)
  broadcast.3214.clone.57 = f64[20]{0} broadcast(constant_774_25), dimensions={}
  compare.377.27 = pred[20]{0} compare(multiply.3524.57, broadcast.3214.clone.57), direction=GT, metadata={op_name="jit(scan)/jit(main)/while/body/jit(beliefs_propagation)/jit(continuous_node_prediction)/jit(predict_precision)/gt" source_file="/fs04/fc37/adam/projects/psilocybin-prl-analyses/src/prl_hgf/fitting/hierarchical_patrl.py" source_line=362}
  param_2.1268 = f64[20]{0} parameter(2)
  select.1304.9 = f64[20]{0} select(compare.377.27, multiply.3524.57, param_2.1268), metadata={op_name="jit(scan)/jit(main)/while/body/jit(beliefs_propagation)/jit(continuous_node_prediction)/jit(predict_precision)/jit(_where)/select_n" source_file="/fs04/fc37/adam/projects/psilocybin-prl-analyses/src/prl_hgf/env/pat_rl_simulator.py" source_line=92}
  bitcast.5020.1 = f64[1,20]{1,0} bitcast(select.1304.9)
  param_1.1527 = s64[] parameter(1)
  constant_770_24 = s64[] constant(0)
  compare.373.25 = pred[] compare(param_1.1527, constant_770_24), direction=LT, metadata={op_name="jit(scan)/jit(main)/while/body/lt" source_file="/fs04/fc37/adam/projects/psilocybin-prl-analyses/src/prl_hgf/fitting/hierarchical_patrl.py" source_line=378}
  constant_769_13 = s64[] constant(192)
  add.1030.25 = s64[] add(param_1.1527, constant_769_13), metadata={op_name="jit(scan)/jit(main)/while/body/add" source_file="/fs04/fc37/adam/projects/psilocybin-prl-analyses/src/prl_hgf/fitting/hierarchical_patrl.py" source_line=378}
  select.1285.25 = s64[] select(compare.373.25, add.1030.25, param_1.1527), metadata={op_name="jit(scan)/jit(main)/while/body/select_n" source_file="/fs04/fc37/adam/projects/psilocybin-prl-analyses/src/prl_hgf/fitting/hierarchical_patrl.py" source_line=378}
  ROOT dynamic-update-slice.2032.1 = f64[192,20]{1,0} dynamic-update-slice(param_0.178, bitcast.5020.1, select.1285.25, constant_770_24), metadata={op_name="jit(scan)/jit(main)/while/body/dynamic_update_slice" source_file="/fs04/fc37/adam/projects/psilocybin-prl-analyses/src/prl_hgf/fitting/hierarchical_patrl.py" source_line=378}
} // fused_dynamic_update_slice.91

fused_dynamic_update_slice.94 {
  param_0.181 = f64[192,20]{1,0} parameter(0)
  param_1.1521 = f64[20]{0} parameter(1)
  exponential.76.3 = f64[20]{0} exponential(param_1.1521), metadata={op_name="jit(scan)/jit(main)/while/body/jit(beliefs_propagation)/jit(continuous_node_prediction)/jit(predict_precision)/exp" source_file="/fs04/fc37/adam/projects/psilocybin-prl-analyses/src/prl_hgf/fitting/hierarchical_patrl.py" source_line=362}
  bitcast.4987.1 = f64[1,20]{1,0} bitcast(exponential.76.3)
  param_2.1262 = s64[] parameter(2)
  constant_770_18 = s64[] constant(0)
  compare.373.19 = pred[] compare(param_2.1262, constant_770_18), direction=LT, metadata={op_name="jit(scan)/jit(main)/while/body/lt" source_file="/fs04/fc37/adam/projects/psilocybin-prl-analyses/src/prl_hgf/fitting/hierarchical_patrl.py" source_line=378}
  constant_769_10 = s64[] constant(192)
  add.1030.19 = s64[] add(param_2.1262, constant_769_10), metadata={op_name="jit(scan)/jit(main)/while/body/add" source_file="/fs04/fc37/adam/projects/psilocybin-prl-analyses/src/prl_hgf/fitting/hierarchical_patrl.py" source_line=378}
  select.1285.19 = s64[] select(compare.373.19, add.1030.19, param_2.1262), metadata={op_name="jit(scan)/jit(main)/while/body/select_n" source_file="/fs04/fc37/adam/projects/psilocybin-prl-analyses/src/prl_hgf/fitting/hierarchical_patrl.py" source_line=378}
  ROOT dynamic-update-slice.2029.1 = f64[192,20]{1,0} dynamic-update-slice(param_0.181, bitcast.4987.1, select.1285.19, constant_770_18), metadata={op_name="jit(scan)/jit(main)/while/body/dynamic_update_slice" source_file="/fs04/fc37/adam/projects/psilocybin-prl-analyses/src/prl_hgf/fitting/hierarchical_patrl.py" source_line=378}
} // fused_dynamic_update_slice.94

fused_dynamic_update_slice.95 {
  param_0.182 = f64[192,20]{1,0} parameter(0)
  param_1.1519 = f64[20]{0} parameter(1)
  bitcast.4976.1 = f64[1,20]{1,0} bitcast(param_1.1519)
  param_2.1260 = s64[] parameter(2)
  constant_770_16 = s64[] constant(0)
  compare.373.17 = pred[] compare(param_2.1260, constant_770_16), direction=LT, metadata={op_name="jit(scan)/jit(main)/while/body/lt" source_file="/fs04/fc37/adam/projects/psilocybin-prl-analyses/src/prl_hgf/fitting/hierarchical_patrl.py" source_line=378}
  constant_769_9 = s64[] constant(192)
  add.1030.17 = s64[] add(param_2.1260, constant_769_9), metadata={op_name="jit(scan)/jit(main)/while/body/add" source_file="/fs04/fc37/adam/projects/psilocybin-prl-analyses/src/prl_hgf/fitting/hierarchical_patrl.py" source_line=378}
  select.1285.17 = s64[] select(compare.373.17, add.1030.17, param_2.1260), metadata={op_name="jit(scan)/jit(main)/while/body/select_n" source_file="/fs04/fc37/adam/projects/psilocybin-prl-analyses/src/prl_hgf/fitting/hierarchical_patrl.py" source_line=378}
  ROOT dynamic-update-slice.2028.1 = f64[192,20]{1,0} dynamic-update-slice(param_0.182, bitcast.4976.1, select.1285.17, constant_770_16), metadata={op_name="jit(scan)/jit(main)/while/body/dynamic_update_slice" source_file="/fs04/fc37/adam/projects/psilocybin-prl-analyses/src/prl_hgf/fitting/hierarchical_patrl.py" source_line=378}
} // fused_dynamic_update_slice.95

command_buffer.4 {
  p.148 = f64[192]{0} parameter(0)
  p.149 = s64[] parameter(1)
  p.150 = (s64[], f64[20]{0}, f64[20]{0}, f64[20]{0}, f64[20]{0}, /*index=5*/s32[20]{0}, f64[20]{0}, f64[20]{0}, f64[20]{0}, f64[20]{0}, /*index=10*/f64[20]{0}, f64[20]{0}, s64[20]{0}, f64[20]{0}, f64[20]{0}, /*index=15*/f64[20]{0}, f64[20]{0}, f64[20]{0}, f64[20]{0}, f64[20]{0}, /*index=20*/f64[20,1]{1,0}, f64[20,1]{1,0}, f64[20]{0}, f64[20]{0}, f64[20]{0}, /*index=25*/f64[20]{0}, f64[20]{0}, f64[20]{0}, f64[20]{0}, f64[20]{0}, /*index=30*/f64[20]{0}, f64[20,1]{1,0}, f64[120,20]{1,0}, f64[120,20]{1,0}, f64[120,20]{1,0}, /*index=35*/f64[120,20]{1,0}, f64[120,20]{1,0}, f64[120,20]{1,0}, f64[120,20]{1,0}, f64[120,20]{1,0}, /*index=40*/f64[120,20]{1,0}, f64[120,20]{1,0}, f64[120,20]{1,0}, f64[120,20]{1,0}, f64[120,20]{1,0}, /*index=45*/f64[120,20]{1,0}, f64[120,20]{1,0}, f64[120,20]{1,0}, f64[120,20]{1,0}, f64[120,20]{1,0}, /*index=50*/f64[120,20]{1,0}, f64[120,20]{1,0}, f64[120,20,1]{1,0,2}, f64[192,20]{1,0}, f64[192,20]{1,0}, /*index=55*/f64[192,20]{1,0}, f64[192,20]{1,0}, pred[192,20]{1,0}, f64[192,20]{1,0}, f64[192,20]{1,0}, /*index=60*/f64[192,20]{1,0}, f64[192,20]{1,0}, f64[192,20]{1,0}, f64[192,20]{1,0}, f64[192,20]{1,0}, /*index=65*/pred[192,20]{1,0}, f64[192,20]{1,0}, f64[192,20]{1,0}, f64[192,20]{1,0}, f64[192,20]{1,0}, /*index=70*/f64[192,20]{1,0}, f64[192,20]{1,0}, f64[192]{0}, f64[192,20]{1,0}, f64[192,20]{1,0}, /*index=75*/s32[192]{0}, f64[192,20]{1,0}, f64[192]{0}, f64[192,20]{1,0}, f64[192,20]{1,0}, /*index=80*/f64[192,20]{1,0}, pred[192,20]{1,0}, f64[192,20]{1,0}, f64[192,20]{1,0}, f64[192,20]{1,0}, /*index=85*/f64[192,20]{1,0}, f64[192,20]{1,0}, f64[192,20]{1,0}, f64[192,20]{1,0}, f64[192,20]{1,0}, /*index=90*/f64[192,20]{1,0}, f64[192,20]{1,0}, f64[192,20]{1,0}, f64[192,20]{1,0}, f64[192,20]{1,0}, /*index=95*/f64[192,20]{1,0}, f64[192,20]{1,0}, f64[192,20]{1,0}, s32[192,20]{1,0}, pred[192,20]{1,0}, /*index=100*/pred[192,20,1]{2,1,0}, f64[192,20]{1,0}, f64[192,20]{1,0}, pred[192,20]{1,0}, pred[192,20,1]{2,1,0}, /*index=105*/f64[192,20]{1,0}, f64[192,20]{1,0}, f64[192,20]{1,0}, f64[192,20]{1,0}, f64[192,20]{1,0}, /*index=110*/pred[192,20]{1,0}, pred[192,20]{1,0}, pred[192,20,1]{2,1,0}, f64[192,120,20]{2,1,0}, f64[192,120,20]{2,1,0}, /*index=115*/f64[192,120,20]{2,1,0}, f64[192,120,20]{2,1,0}, f64[192,120,20]{2,1,0}, f64[192,120,20]{2,1,0}, f64[192,120,20]{2,1,0}, /*index=120*/f64[192,120,20]{2,1,0}, f64[192,120,20]{2,1,0}, f64[192,120,20]{2,1,0}, f64[192,120,20]{2,1,0}, f64[192,120,20]{2,1,0}, /*index=125*/f64[192,120,20]{2,1,0}, f64[192,120,20]{2,1,0}, f64[192,120,20]{2,1,0}, f64[192,120,20]{2,1,0}, f64[192,120,20]{2,1,0}, /*index=130*/f64[192,120,20]{2,1,0}, f64[192,120,20]{2,1,0}, f64[192,120,20]{2,1,0}, f64[192,120,20]{2,1,0}, f64[192,120,20]{2,1,0}, /*index=135*/f64[192,120,20]{2,1,0}, f64[192,120,20]{2,1,0}, f64[192,120,20]{2,1,0}, f64[192,120,20]{2,1,0}, f64[192,120,20]{2,1,0}, /*index=140*/f64[192,120,20]{2,1,0}, f64[192,120,20]{2,1,0}, f64[192,120,20]{2,1,0}, f64[192,120,20]{2,1,0}, f64[192,120,20]{2,1,0}, /*index=145*/f64[192,120,20]{2,1,0}, f64[192,120,20]{2,1,0}, f64[192,120,20]{2,1,0}, f64[192,120,20]{2,1,0}, f64[192,120,20]{2,1,0}, /*index=150*/f64[192,120,20]{2,1,0}, f64[192,120,20]{2,1,0}, f64[192,120,20]{2,1,0}, f64[192,120,20]{2,1,0}, f64[192,120,20]{2,1,0}, /*index=155*/f64[192,120,20]{2,1,0}, f64[192,120,20]{2,1,0}, f64[192,20,1]{2,1,0}, s32[192]{0}, f64[192]{0}, /*index=160*/f64[20]{0}, f64[20]{0}, f64[20]{0}) parameter(2)
  p.151 = s32[192]{0} parameter(3)
  p.152 = f64[20]{0} parameter(4)
  p.153 = f64[20]{0} parameter(5)
  p.154 = f64[20,1]{1,0} parameter(6)
  p.155 = f64[120,20]{1,0} parameter(7)
  p.156 = f64[120,20]{1,0} parameter(8)
  p.157 = f64[120,20]{1,0} parameter(9)
  p.158 = f64[20]{0} parameter(10)
  p.159 = f64[20]{0} parameter(11)
  p.160 = f64[20]{0} parameter(12)
  p.161 = f64[20]{0} parameter(13)
  p.162 = f64[20,1]{1,0} parameter(14)
  p.163 = f64[192,20,1]{2,1,0} parameter(15)
  p.164 = f64[20,1]{1,0} parameter(16)
  p.165 = s64[20]{0} parameter(17)
  p.166 = f64[20]{0} parameter(18)
  p.167 = f64[20]{0} parameter(19)
  loop_dynamic_slice_fusion = f64[1]{0} fusion(p.148, p.149), kind=kLoop, calls=fused_dynamic_slice, metadata={op_name="jit(scan)/jit(main)/while/body/dynamic_slice[slice_sizes=(1,)]" source_file="/fs04/fc37/adam/projects/psilocybin-prl-analyses/src/prl_hgf/fitting/hierarchical_patrl.py" source_line=378}
  bitcast.3967.0 = f64[] bitcast(loop_dynamic_slice_fusion)
  get-tuple-element.12179 = f64[20]{0} get-tuple-element(p.150), index=162
  get-tuple-element.11855 = f64[20]{0} get-tuple-element(p.150), index=1
  get-tuple-element.11856 = f64[20]{0} get-tuple-element(p.150), index=2
  get-tuple-element.11857 = f64[20]{0} get-tuple-element(p.150), index=3
  get-tuple-element.11858 = f64[20]{0} get-tuple-element(p.150), index=4
  get-tuple-element.11859 = s32[20]{0} get-tuple-element(p.150), index=5
  get-tuple-element.11860 = f64[20]{0} get-tuple-element(p.150), index=6
  get-tuple-element.11861 = f64[20]{0} get-tuple-element(p.150), index=7
  get-tuple-element.11863 = f64[20]{0} get-tuple-element(p.150), index=9
  get-tuple-element.11864 = f64[20]{0} get-tuple-element(p.150), index=10
  get-tuple-element.11865 = f64[20]{0} get-tuple-element(p.150), index=11
  get-tuple-element.11868 = f64[20]{0} get-tuple-element(p.150), index=14
  get-tuple-element.11869 = f64[20]{0} get-tuple-element(p.150), index=15
  get-tuple-element.11870 = f64[20]{0} get-tuple-element(p.150), index=16
  get-tuple-element.11871 = f64[20]{0} get-tuple-element(p.150), index=17
  get-tuple-element.11877 = f64[20]{0} get-tuple-element(p.150), index=23
  get-tuple-element.11878 = f64[20]{0} get-tuple-element(p.150), index=24
  get-tuple-element.11879 = f64[20]{0} get-tuple-element(p.150), index=25
  get-tuple-element.11880 = f64[20]{0} get-tuple-element(p.150), index=26
  get-tuple-element.11881 = f64[20]{0} get-tuple-element(p.150), index=27
  get-tuple-element.11882 = f64[20]{0} get-tuple-element(p.150), index=28
  get-tuple-element.11886 = f64[120,20]{1,0} get-tuple-element(p.150), index=32
  get-tuple-element.11887 = f64[120,20]{1,0} get-tuple-element(p.150), index=33
  get-tuple-element.11888 = f64[120,20]{1,0} get-tuple-element(p.150), index=34
  get-tuple-element.11889 = f64[120,20]{1,0} get-tuple-element(p.150), index=35
  get-tuple-element.11890 = f64[120,20]{1,0} get-tuple-element(p.150), index=36
  get-tuple-element.11891 = f64[120,20]{1,0} get-tuple-element(p.150), index=37
  get-tuple-element.11892 = f64[120,20]{1,0} get-tuple-element(p.150), index=38
  get-tuple-element.11894 = f64[120,20]{1,0} get-tuple-element(p.150), index=40
  get-tuple-element.11895 = f64[120,20]{1,0} get-tuple-element(p.150), index=41
  get-tuple-element.11896 = f64[120,20]{1,0} get-tuple-element(p.150), index=42
  get-tuple-element.11897 = f64[120,20]{1,0} get-tuple-element(p.150), index=43
  get-tuple-element.11899 = f64[120,20]{1,0} get-tuple-element(p.150), index=45
  get-tuple-element.11900 = f64[120,20]{1,0} get-tuple-element(p.150), index=46
  get-tuple-element.11903 = f64[120,20]{1,0} get-tuple-element(p.150), index=49
  get-tuple-element.11904 = f64[120,20]{1,0} get-tuple-element(p.150), index=50
  get-tuple-element.11907 = f64[192,20]{1,0} get-tuple-element(p.150), index=53
  get-tuple-element.11908 = f64[192,20]{1,0} get-tuple-element(p.150), index=54
  get-tuple-element.11909 = f64[192,20]{1,0} get-tuple-element(p.150), index=55
  get-tuple-element.11910 = f64[192,20]{1,0} get-tuple-element(p.150), index=56
  get-tuple-element.11911 = pred[192,20]{1,0} get-tuple-element(p.150), index=57
  get-tuple-element.11912 = f64[192,20]{1,0} get-tuple-element(p.150), index=58
  get-tuple-element.11913 = f64[192,20]{1,0} get-tuple-element(p.150), index=59
  get-tuple-element.11914 = f64[192,20]{1,0} get-tuple-element(p.150), index=60
  get-tuple-element.11915 = f64[192,20]{1,0} get-tuple-element(p.150), index=61
  get-tuple-element.11916 = f64[192,20]{1,0} get-tuple-element(p.150), index=62
  get-tuple-element.11917 = f64[192,20]{1,0} get-tuple-element(p.150), index=63
  get-tuple-element.11918 = f64[192,20]{1,0} get-tuple-element(p.150), index=64
  get-tuple-element.11919 = pred[192,20]{1,0} get-tuple-element(p.150), index=65
  get-tuple-element.11920 = f64[192,20]{1,0} get-tuple-element(p.150), index=66
  get-tuple-element.11921 = f64[192,20]{1,0} get-tuple-element(p.150), index=67
  get-tuple-element.11922 = f64[192,20]{1,0} get-tuple-element(p.150), index=68
  get-tuple-element.11923 = f64[192,20]{1,0} get-tuple-element(p.150), index=69
  get-tuple-element.11924 = f64[192,20]{1,0} get-tuple-element(p.150), index=70
  get-tuple-element.11925 = f64[192,20]{1,0} get-tuple-element(p.150), index=71
  get-tuple-element.11926 = f64[192]{0} get-tuple-element(p.150), index=72
  get-tuple-element.11927 = f64[192,20]{1,0} get-tuple-element(p.150), index=73
  get-tuple-element.11928 = f64[192,20]{1,0} get-tuple-element(p.150), index=74
  get-tuple-element.11929 = s32[192]{0} get-tuple-element(p.150), index=75
  get-tuple-element.11930 = f64[192,20]{1,0} get-tuple-element(p.150), index=76
  get-tuple-element.11931 = f64[192]{0} get-tuple-element(p.150), index=77
  get-tuple-element.11932 = f64[192,20]{1,0} get-tuple-element(p.150), index=78
  get-tuple-element.11933 = f64[192,20]{1,0} get-tuple-element(p.150), index=79
  get-tuple-element.11934 = f64[192,20]{1,0} get-tuple-element(p.150), index=80
  get-tuple-element.11935 = pred[192,20]{1,0} get-tuple-element(p.150), index=81
  get-tuple-element.11936 = f64[192,20]{1,0} get-tuple-element(p.150), index=82
  get-tuple-element.11937 = f64[192,20]{1,0} get-tuple-element(p.150), index=83
  get-tuple-element.11938 = f64[192,20]{1,0} get-tuple-element(p.150), index=84
  get-tuple-element.11939 = f64[192,20]{1,0} get-tuple-element(p.150), index=85
  get-tuple-element.11940 = f64[192,20]{1,0} get-tuple-element(p.150), index=86
  get-tuple-element.11941 = f64[192,20]{1,0} get-tuple-element(p.150), index=87
  get-tuple-element.11942 = f64[192,20]{1,0} get-tuple-element(p.150), index=88
  get-tuple-element.11943 = f64[192,20]{1,0} get-tuple-element(p.150), index=89
  get-tuple-element.11944 = f64[192,20]{1,0} get-tuple-element(p.150), index=90
  get-tuple-element.11945 = f64[192,20]{1,0} get-tuple-element(p.150), index=91
  get-tuple-element.11946 = f64[192,20]{1,0} get-tuple-element(p.150), index=92
  get-tuple-element.11947 = f64[192,20]{1,0} get-tuple-element(p.150), index=93
  get-tuple-element.11948 = f64[192,20]{1,0} get-tuple-element(p.150), index=94
  get-tuple-element.11949 = f64[192,20]{1,0} get-tuple-element(p.150), index=95
  get-tuple-element.11950 = f64[192,20]{1,0} get-tuple-element(p.150), index=96
  get-tuple-element.11951 = f64[192,20]{1,0} get-tuple-element(p.150), index=97
  get-tuple-element.11952 = s32[192,20]{1,0} get-tuple-element(p.150), index=98
  get-tuple-element.11953 = pred[192,20]{1,0} get-tuple-element(p.150), index=99
  get-tuple-element.11954 = pred[192,20,1]{2,1,0} get-tuple-element(p.150), index=100
  get-tuple-element.11955 = f64[192,20]{1,0} get-tuple-element(p.150), index=101
  get-tuple-element.11956 = f64[192,20]{1,0} get-tuple-element(p.150), index=102
  get-tuple-element.11957 = pred[192,20]{1,0} get-tuple-element(p.150), index=103
  get-tuple-element.11958 = pred[192,20,1]{2,1,0} get-tuple-element(p.150), index=104
  get-tuple-element.11959 = f64[192,20]{1,0} get-tuple-element(p.150), index=105
  get-tuple-element.11960 = f64[192,20]{1,0} get-tuple-element(p.150), index=106
  get-tuple-element.11961 = f64[192,20]{1,0} get-tuple-element(p.150), index=107
  get-tuple-element.11962 = f64[192,20]{1,0} get-tuple-element(p.150), index=108
  get-tuple-element.11963 = f64[192,20]{1,0} get-tuple-element(p.150), index=109
  get-tuple-element.11964 = pred[192,20]{1,0} get-tuple-element(p.150), index=110
  get-tuple-element.11965 = pred[192,20]{1,0} get-tuple-element(p.150), index=111
  get-tuple-element.11966 = pred[192,20,1]{2,1,0} get-tuple-element(p.150), index=112
  get-tuple-element.11967 = f64[192,120,20]{2,1,0} get-tuple-element(p.150), index=113
  get-tuple-element.11968 = f64[192,120,20]{2,1,0} get-tuple-element(p.150), index=114
  get-tuple-element.11969 = f64[192,120,20]{2,1,0} get-tuple-element(p.150), index=115
  get-tuple-element.11970 = f64[192,120,20]{2,1,0} get-tuple-element(p.150), index=116
  get-tuple-element.11971 = f64[192,120,20]{2,1,0} get-tuple-element(p.150), index=117
  get-tuple-element.11972 = f64[192,120,20]{2,1,0} get-tuple-element(p.150), index=118
  get-tuple-element.11973 = f64[192,120,20]{2,1,0} get-tuple-element(p.150), index=119
  get-tuple-element.11974 = f64[192,120,20]{2,1,0} get-tuple-element(p.150), index=120
  get-tuple-element.11975 = f64[192,120,20]{2,1,0} get-tuple-element(p.150), index=121
  get-tuple-element.11976 = f64[192,120,20]{2,1,0} get-tuple-element(p.150), index=122
  get-tuple-element.11977 = f64[192,120,20]{2,1,0} get-tuple-element(p.150), index=123
  get-tuple-element.11978 = f64[192,120,20]{2,1,0} get-tuple-element(p.150), index=124
  get-tuple-element.11979 = f64[192,120,20]{2,1,0} get-tuple-element(p.150), index=125
  get-tuple-element.11980 = f64[192,120,20]{2,1,0} get-tuple-element(p.150), index=126
  get-tuple-element.11981 = f64[192,120,20]{2,1,0} get-tuple-element(p.150), index=127
  get-tuple-element.11982 = f64[192,120,20]{2,1,0} get-tuple-element(p.150), index=128
  get-tuple-element.11983 = f64[192,120,20]{2,1,0} get-tuple-element(p.150), index=129
  get-tuple-element.11984 = f64[192,120,20]{2,1,0} get-tuple-element(p.150), index=130
  get-tuple-element.11985 = f64[192,120,20]{2,1,0} get-tuple-element(p.150), index=131
  get-tuple-element.11986 = f64[192,120,20]{2,1,0} get-tuple-element(p.150), index=132
  get-tuple-element.11987 = f64[192,120,20]{2,1,0} get-tuple-element(p.150), index=133
  get-tuple-element.11988 = f64[192,120,20]{2,1,0} get-tuple-element(p.150), index=134
  get-tuple-element.11989 = f64[192,120,20]{2,1,0} get-tuple-element(p.150), index=135
  get-tuple-element.11990 = f64[192,120,20]{2,1,0} get-tuple-element(p.150), index=136
  get-tuple-element.11991 = f64[192,120,20]{2,1,0} get-tuple-element(p.150), index=137
  get-tuple-element.11992 = f64[192,120,20]{2,1,0} get-tuple-element(p.150), index=138
  get-tuple-element.11993 = f64[192,120,20]{2,1,0} get-tuple-element(p.150), index=139
  get-tuple-element.11994 = f64[192,120,20]{2,1,0} get-tuple-element(p.150), index=140
  get-tuple-element.11995 = f64[192,120,20]{2,1,0} get-tuple-element(p.150), index=141
  get-tuple-element.11996 = f64[192,120,20]{2,1,0} get-tuple-element(p.150), index=142
  get-tuple-element.11997 = f64[192,120,20]{2,1,0} get-tuple-element(p.150), index=143
  get-tuple-element.11998 = f64[192,120,20]{2,1,0} get-tuple-element(p.150), index=144
  get-tuple-element.11999 = f64[192,120,20]{2,1,0} get-tuple-element(p.150), index=145
  get-tuple-element.12000 = f64[192,120,20]{2,1,0} get-tuple-element(p.150), index=146
  get-tuple-element.12001 = f64[192,120,20]{2,1,0} get-tuple-element(p.150), index=147
  get-tuple-element.12002 = f64[192,120,20]{2,1,0} get-tuple-element(p.150), index=148
  get-tuple-element.12003 = f64[192,120,20]{2,1,0} get-tuple-element(p.150), index=149
  get-tuple-element.12004 = f64[192,120,20]{2,1,0} get-tuple-element(p.150), index=150
  get-tuple-element.12005 = f64[192,120,20]{2,1,0} get-tuple-element(p.150), index=151
  get-tuple-element.12006 = f64[192,120,20]{2,1,0} get-tuple-element(p.150), index=152
…
  get-tuple-element.12341 = f64[192,120,20]{2,1,0} get-tuple-element(while.16.0), index=142, metadata={op_name="jit(scan)/jit(main)/while[cond_nconsts=0 body_nconsts=6]" source_file="/fs04/fc37/adam/projects/psilocybin-prl-analyses/src/prl_hgf/fitting/hierarchical_patrl.py" source_line=378}
  get-tuple-element.12340 = f64[192,120,20]{2,1,0} get-tuple-element(while.16.0), index=141, metadata={op_name="jit(scan)/jit(main)/while[cond_nconsts=0 body_nconsts=6]" source_file="/fs04/fc37/adam/projects/psilocybin-prl-analyses/src/prl_hgf/fitting/hierarchical_patrl.py" source_line=378}
  get-tuple-element.12339 = f64[192,120,20]{2,1,0} get-tuple-element(while.16.0), index=140, metadata={op_name="jit(scan)/jit(main)/while[cond_nconsts=0 body_nconsts=6]" source_file="/fs04/fc37/adam/projects/psilocybin-prl-analyses/src/prl_hgf/fitting/hierarchical_patrl.py" source_line=378}
  get-tuple-element.12338 = f64[192,120,20]{2,1,0} get-tuple-element(while.16.0), index=139, metadata={op_name="jit(scan)/jit(main)/while[cond_nconsts=0 body_nconsts=6]" source_file="/fs04/fc37/adam/projects/psilocybin-prl-analyses/src/prl_hgf/fitting/hierarchical_patrl.py" source_line=378}
  get-tuple-element.12337 = f64[192,120,20]{2,1,0} get-tuple-element(while.16.0), index=138, metadata={op_name="jit(scan)/jit(main)/while[cond_nconsts=0 body_nconsts=6]" source_file="/fs04/fc37/adam/projects/psilocybin-prl-analyses/src/prl_hgf/fitting/hierarchical_patrl.py" source_line=378}
  get-tuple-element.12336 = f64[192,120,20]{2,1,0} get-tuple-element(while.16.0), index=137, metadata={op_name="jit(scan)/jit(main)/while[cond_nconsts=0 body_nconsts=6]" source_file="/fs04/fc37/adam/projects/psilocybin-prl-analyses/src/prl_hgf/fitting/hierarchical_patrl.py" source_line=378}
  get-tuple-element.12334 = f64[192,120,20]{2,1,0} get-tuple-element(while.16.0), index=136, metadata={op_name="jit(scan)/jit(main)/while[cond_nconsts=0 body_nconsts=6]" source_file="/fs04/fc37/adam/projects/psilocybin-prl-analyses/src/prl_hgf/fitting/hierarchical_patrl.py" source_line=378}
  get-tuple-element.12333 = f64[192,120,20]{2,1,0} get-tuple-element(while.16.0), index=135, metadata={op_name="jit(scan)/jit(main)/while[cond_nconsts=0 body_nconsts=6]" source_file="/fs04/fc37/adam/projects/psilocybin-prl-analyses/src/prl_hgf/fitting/hierarchical_patrl.py" source_line=378}
  get-tuple-element.12331 = f64[192,120,20]{2,1,0} get-tuple-element(while.16.0), index=133, metadata={op_name="jit(scan)/jit(main)/while[cond_nconsts=0 body_nconsts=6]" source_file="/fs04/fc37/adam/projects/psilocybin-prl-analyses/src/prl_hgf/fitting/hierarchical_patrl.py" source_line=378}
  get-tuple-element.12330 = f64[192,120,20]{2,1,0} get-tuple-element(while.16.0), index=132, metadata={op_name="jit(scan)/jit(main)/while[cond_nconsts=0 body_nconsts=6]" source_file="/fs04/fc37/adam/projects/psilocybin-prl-analyses/src/prl_hgf/fitting/hierarchical_patrl.py" source_line=378}
  get-tuple-element.12329 = f64[192,120,20]{2,1,0} get-tuple-element(while.16.0), index=131, metadata={op_name="jit(scan)/jit(main)/while[cond_nconsts=0 body_nconsts=6]" source_file="/fs04/fc37/adam/projects/psilocybin-prl-analyses/src/prl_hgf/fitting/hierarchical_patrl.py" source_line=378}
  get-tuple-element.12328 = f64[192,120,20]{2,1,0} get-tuple-element(while.16.0), index=130, metadata={op_name="jit(scan)/jit(main)/while[cond_nconsts=0 body_nconsts=6]" source_file="/fs04/fc37/adam/projects/psilocybin-prl-analyses/src/prl_hgf/fitting/hierarchical_patrl.py" source_line=378}
  get-tuple-element.12327 = f64[192,120,20]{2,1,0} get-tuple-element(while.16.0), index=129, metadata={op_name="jit(scan)/jit(main)/while[cond_nconsts=0 body_nconsts=6]" source_file="/fs04/fc37/adam/projects/psilocybin-prl-analyses/src/prl_hgf/fitting/hierarchical_patrl.py" source_line=378}
  get-tuple-element.12326 = f64[192,120,20]{2,1,0} get-tuple-element(while.16.0), index=128, metadata={op_name="jit(scan)/jit(main)/while[cond_nconsts=0 body_nconsts=6]" source_file="/fs04/fc37/adam/projects/psilocybin-prl-analyses/src/prl_hgf/fitting/hierarchical_patrl.py" source_line=378}
  get-tuple-element.12325 = f64[192,120,20]{2,1,0} get-tuple-element(while.16.0), index=127, metadata={op_name="jit(scan)/jit(main)/while[cond_nconsts=0 body_nconsts=6]" source_file="/fs04/fc37/adam/projects/psilocybin-prl-analyses/src/prl_hgf/fitting/hierarchical_patrl.py" source_line=378}
  get-tuple-element.12323 = f64[192,120,20]{2,1,0} get-tuple-element(while.16.0), index=126, metadata={op_name="jit(scan)/jit(main)/while[cond_nconsts=0 body_nconsts=6]" source_file="/fs04/fc37/adam/projects/psilocybin-prl-analyses/src/prl_hgf/fitting/hierarchical_patrl.py" source_line=378}
  get-tuple-element.12322 = f64[192,120,20]{2,1,0} get-tuple-element(while.16.0), index=125, metadata={op_name="jit(scan)/jit(main)/while[cond_nconsts=0 body_nconsts=6]" source_file="/fs04/fc37/adam/projects/psilocybin-prl-analyses/src/prl_hgf/fitting/hierarchical_patrl.py" source_line=378}
  get-tuple-element.12320 = f64[192,120,20]{2,1,0} get-tuple-element(while.16.0), index=123, metadata={op_name="jit(scan)/jit(main)/while[cond_nconsts=0 body_nconsts=6]" source_file="/fs04/fc37/adam/projects/psilocybin-prl-analyses/src/prl_hgf/fitting/hierarchical_patrl.py" source_line=378}
  get-tuple-element.12318 = f64[192,120,20]{2,1,0} get-tuple-element(while.16.0), index=122, metadata={op_name="jit(scan)/jit(main)/while[cond_nconsts=0 body_nconsts=6]" source_file="/fs04/fc37/adam/projects/psilocybin-prl-analyses/src/prl_hgf/fitting/hierarchical_patrl.py" source_line=378}
  get-tuple-element.12317 = f64[192,120,20]{2,1,0} get-tuple-element(while.16.0), index=121, metadata={op_name="jit(scan)/jit(main)/while[cond_nconsts=0 body_nconsts=6]" source_file="/fs04/fc37/adam/projects/psilocybin-prl-analyses/src/prl_hgf/fitting/hierarchical_patrl.py" source_line=378}
  get-tuple-element.12316 = f64[192,120,20]{2,1,0} get-tuple-element(while.16.0), index=120, metadata={op_name="jit(scan)/jit(main)/while[cond_nconsts=0 body_nconsts=6]" source_file="/fs04/fc37/adam/projects/psilocybin-prl-analyses/src/prl_hgf/fitting/hierarchical_patrl.py" source_line=378}
  get-tuple-element.12314 = f64[192,120,20]{2,1,0} get-tuple-element(while.16.0), index=118, metadata={op_name="jit(scan)/jit(main)/while[cond_nconsts=0 body_nconsts=6]" source_file="/fs04/fc37/adam/projects/psilocybin-prl-analyses/src/prl_hgf/fitting/hierarchical_patrl.py" source_line=378}
  get-tuple-element.12312 = f64[192,120,20]{2,1,0} get-tuple-element(while.16.0), index=117, metadata={op_name="jit(scan)/jit(main)/while[cond_nconsts=0 body_nconsts=6]" source_file="/fs04/fc37/adam/projects/psilocybin-prl-analyses/src/prl_hgf/fitting/hierarchical_patrl.py" source_line=378}
  get-tuple-element.12311 = f64[192,120,20]{2,1,0} get-tuple-element(while.16.0), index=116, metadata={op_name="jit(scan)/jit(main)/while[cond_nconsts=0 body_nconsts=6]" source_file="/fs04/fc37/adam/projects/psilocybin-prl-analyses/src/prl_hgf/fitting/hierarchical_patrl.py" source_line=378}
  get-tuple-element.12310 = f64[192,120,20]{2,1,0} get-tuple-element(while.16.0), index=115, metadata={op_name="jit(scan)/jit(main)/while[cond_nconsts=0 body_nconsts=6]" source_file="/fs04/fc37/adam/projects/psilocybin-prl-analyses/src/prl_hgf/fitting/hierarchical_patrl.py" source_line=378}
  get-tuple-element.12308 = f64[192,120,20]{2,1,0} get-tuple-element(while.16.0), index=113, metadata={op_name="jit(scan)/jit(main)/while[cond_nconsts=0 body_nconsts=6]" source_file="/fs04/fc37/adam/projects/psilocybin-prl-analyses/src/prl_hgf/fitting/hierarchical_patrl.py" source_line=378}
  get-tuple-element.12307 = pred[192,20,1]{2,1,0} get-tuple-element(while.16.0), index=112, metadata={op_name="jit(scan)/jit(main)/while[cond_nconsts=0 body_nconsts=6]" source_file="/fs04/fc37/adam/projects/psilocybin-prl-analyses/src/prl_hgf/fitting/hierarchical_patrl.py" source_line=378}
  get-tuple-element.12306 = pred[192,20]{1,0} get-tuple-element(while.16.0), index=111, metadata={op_name="jit(scan)/jit(main)/while[cond_nconsts=0 body_nconsts=6]" source_file="/fs04/fc37/adam/projects/psilocybin-prl-analyses/src/prl_hgf/fitting/hierarchical_patrl.py" source_line=378}
  get-tuple-element.12305 = pred[192,20]{1,0} get-tuple-element(while.16.0), index=110, metadata={op_name="jit(scan)/jit(main)/while[cond_nconsts=0 body_nconsts=6]" source_file="/fs04/fc37/adam/projects/psilocybin-prl-analyses/src/prl_hgf/fitting/hierarchical_patrl.py" source_line=378}
  get-tuple-element.12303 = f64[192,20]{1,0} get-tuple-element(while.16.0), index=109, metadata={op_name="jit(scan)/jit(main)/while[cond_nconsts=0 body_nconsts=6]" source_file="/fs04/fc37/adam/projects/psilocybin-prl-analyses/src/prl_hgf/fitting/hierarchical_patrl.py" source_line=378}
  get-tuple-element.12302 = f64[192,20]{1,0} get-tuple-element(while.16.0), index=108, metadata={op_name="jit(scan)/jit(main)/while[cond_nconsts=0 body_nconsts=6]" source_file="/fs04/fc37/adam/projects/psilocybin-prl-analyses/src/prl_hgf/fitting/hierarchical_patrl.py" source_line=378}
  get-tuple-element.12301 = f64[192,20]{1,0} get-tuple-element(while.16.0), index=107, metadata={op_name="jit(scan)/jit(main)/while[cond_nconsts=0 body_nconsts=6]" source_file="/fs04/fc37/adam/projects/psilocybin-prl-analyses/src/prl_hgf/fitting/hierarchical_patrl.py" source_line=378}
  get-tuple-element.12300 = f64[192,20]{1,0} get-tuple-element(while.16.0), index=106, metadata={op_name="jit(scan)/jit(main)/while[cond_nconsts=0 body_nconsts=6]" source_file="/fs04/fc37/adam/projects/psilocybin-prl-analyses/src/prl_hgf/fitting/hierarchical_patrl.py" source_line=378}
  get-tuple-element.12294 = pred[192,20,1]{2,1,0} get-tuple-element(while.16.0), index=104, metadata={op_name="jit(scan)/jit(main)/while[cond_nconsts=0 body_nconsts=6]" source_file="/fs04/fc37/adam/projects/psilocybin-prl-analyses/src/prl_hgf/fitting/hierarchical_patrl.py" source_line=378}
  get-tuple-element.12293 = pred[192,20]{1,0} get-tuple-element(while.16.0), index=103, metadata={op_name="jit(scan)/jit(main)/while[cond_nconsts=0 body_nconsts=6]" source_file="/fs04/fc37/adam/projects/psilocybin-prl-analyses/src/prl_hgf/fitting/hierarchical_patrl.py" source_line=378}
  get-tuple-element.12292 = f64[192,20]{1,0} get-tuple-element(while.16.0), index=102, metadata={op_name="jit(scan)/jit(main)/while[cond_nconsts=0 body_nconsts=6]" source_file="/fs04/fc37/adam/projects/psilocybin-prl-analyses/src/prl_hgf/fitting/hierarchical_patrl.py" source_line=378}
  get-tuple-element.12290 = f64[192,20]{1,0} get-tuple-element(while.16.0), index=101, metadata={op_name="jit(scan)/jit(main)/while[cond_nconsts=0 body_nconsts=6]" source_file="/fs04/fc37/adam/projects/psilocybin-prl-analyses/src/prl_hgf/fitting/hierarchical_patrl.py" source_line=378}
  get-tuple-element.12288 = pred[192,20,1]{2,1,0} get-tuple-element(while.16.0), index=100, metadata={op_name="jit(scan)/jit(main)/while[cond_nconsts=0 body_nconsts=6]" source_file="/fs04/fc37/adam/projects/psilocybin-prl-analyses/src/prl_hgf/fitting/hierarchical_patrl.py" source_line=378}
  get-tuple-element.12287 = pred[192,20]{1,0} get-tuple-element(while.16.0), index=99, metadata={op_name="jit(scan)/jit(main)/while[cond_nconsts=0 body_nconsts=6]" source_file="/fs04/fc37/adam/projects/psilocybin-prl-analyses/src/prl_hgf/fitting/hierarchical_patrl.py" source_line=378}
  get-tuple-element.12286 = s32[192,20]{1,0} get-tuple-element(while.16.0), index=98, metadata={op_name="jit(scan)/jit(main)/while[cond_nconsts=0 body_nconsts=6]" source_file="/fs04/fc37/adam/projects/psilocybin-prl-analyses/src/prl_hgf/fitting/hierarchical_patrl.py" source_line=378}
  get-tuple-element.12284 = f64[192,20]{1,0} get-tuple-element(while.16.0), index=96, metadata={op_name="jit(scan)/jit(main)/while[cond_nconsts=0 body_nconsts=6]" source_file="/fs04/fc37/adam/projects/psilocybin-prl-analyses/src/prl_hgf/fitting/hierarchical_patrl.py" source_line=378}
  get-tuple-element.12283 = f64[192,20]{1,0} get-tuple-element(while.16.0), index=95, metadata={op_name="jit(scan)/jit(main)/while[cond_nconsts=0 body_nconsts=6]" source_file="/fs04/fc37/adam/projects/psilocybin-prl-analyses/src/prl_hgf/fitting/hierarchical_patrl.py" source_line=378}
  get-tuple-element.12282 = f64[192,20]{1,0} get-tuple-element(while.16.0), index=94, metadata={op_name="jit(scan)/jit(main)/while[cond_nconsts=0 body_nconsts=6]" source_file="/fs04/fc37/adam/projects/psilocybin-prl-analyses/src/prl_hgf/fitting/hierarchical_patrl.py" source_line=378}
  get-tuple-element.12281 = f64[192,20]{1,0} get-tuple-element(while.16.0), index=93, metadata={op_name="jit(scan)/jit(main)/while[cond_nconsts=0 body_nconsts=6]" source_file="/fs04/fc37/adam/projects/psilocybin-prl-analyses/src/prl_hgf/fitting/hierarchical_patrl.py" source_line=378}
  get-tuple-element.12277 = f64[192,20]{1,0} get-tuple-element(while.16.0), index=89, metadata={op_name="jit(scan)/jit(main)/while[cond_nconsts=0 body_nconsts=6]" source_file="/fs04/fc37/adam/projects/psilocybin-prl-analyses/src/prl_hgf/fitting/hierarchical_patrl.py" source_line=378}
  get-tuple-element.12276 = f64[192,20]{1,0} get-tuple-element(while.16.0), index=88, metadata={op_name="jit(scan)/jit(main)/while[cond_nconsts=0 body_nconsts=6]" source_file="/fs04/fc37/adam/projects/psilocybin-prl-analyses/src/prl_hgf/fitting/hierarchical_patrl.py" source_line=378}
  get-tuple-element.12273 = f64[192,20]{1,0} get-tuple-element(while.16.0), index=87, metadata={op_name="jit(scan)/jit(main)/while[cond_nconsts=0 body_nconsts=6]" source_file="/fs04/fc37/adam/projects/psilocybin-prl-analyses/src/prl_hgf/fitting/hierarchical_patrl.py" source_line=378}
  get-tuple-element.12272 = f64[192,20]{1,0} get-tuple-element(while.16.0), index=86, metadata={op_name="jit(scan)/jit(main)/while[cond_nconsts=0 body_nconsts=6]" source_file="/fs04/fc37/adam/projects/psilocybin-prl-analyses/src/prl_hgf/fitting/hierarchical_patrl.py" source_line=378}
  get-tuple-element.12270 = f64[192,20]{1,0} get-tuple-element(while.16.0), index=84, metadata={op_name="jit(scan)/jit(main)/while[cond_nconsts=0 body_nconsts=6]" source_file="/fs04/fc37/adam/projects/psilocybin-prl-analyses/src/prl_hgf/fitting/hierarchical_patrl.py" source_line=378}
  get-tuple-element.12269 = f64[192,20]{1,0} get-tuple-element(while.16.0), index=83, metadata={op_name="jit(scan)/jit(main)/while[cond_nconsts=0 body_nconsts=6]" source_file="/fs04/fc37/adam/projects/psilocybin-prl-analyses/src/prl_hgf/fitting/hierarchical_patrl.py" source_line=378}
  get-tuple-element.12268 = f64[192,20]{1,0} get-tuple-element(while.16.0), index=82, metadata={op_name="jit(scan)/jit(main)/while[cond_nconsts=0 body_nconsts=6]" source_file="/fs04/fc37/adam/projects/psilocybin-prl-analyses/src/prl_hgf/fitting/hierarchical_patrl.py" source_line=378}
  get-tuple-element.12267 = pred[192,20]{1,0} get-tuple-element(while.16.0), index=81, metadata={op_name="jit(scan)/jit(main)/while[cond_nconsts=0 body_nconsts=6]" source_file="/fs04/fc37/adam/projects/psilocybin-prl-analyses/src/prl_hgf/fitting/hierarchical_patrl.py" source_line=378}
  get-tuple-element.12266 = f64[192,20]{1,0} get-tuple-element(while.16.0), index=80, metadata={op_name="jit(scan)/jit(main)/while[cond_nconsts=0 body_nconsts=6]" source_file="/fs04/fc37/adam/projects/psilocybin-prl-analyses/src/prl_hgf/fitting/hierarchical_patrl.py" source_line=378}
  get-tuple-element.12265 = f64[192,20]{1,0} get-tuple-element(while.16.0), index=79, metadata={op_name="jit(scan)/jit(main)/while[cond_nconsts=0 body_nconsts=6]" source_file="/fs04/fc37/adam/projects/psilocybin-prl-analyses/src/prl_hgf/fitting/hierarchical_patrl.py" source_line=378}
  get-tuple-element.12264 = f64[192,20]{1,0} get-tuple-element(while.16.0), index=78, metadata={op_name="jit(scan)/jit(main)/while[cond_nconsts=0 body_nconsts=6]" source_file="/fs04/fc37/adam/projects/psilocybin-prl-analyses/src/prl_hgf/fitting/hierarchical_patrl.py" source_line=378}
  get-tuple-element.12263 = f64[192]{0} get-tuple-element(while.16.0), index=77, metadata={op_name="jit(scan)/jit(main)/while[cond_nconsts=0 body_nconsts=6]" source_file="/fs04/fc37/adam/projects/psilocybin-prl-analyses/src/prl_hgf/fitting/hierarchical_patrl.py" source_line=378}
  get-tuple-element.12262 = f64[192,20]{1,0} get-tuple-element(while.16.0), index=76, metadata={op_name="jit(scan)/jit(main)/while[cond_nconsts=0 body_nconsts=6]" source_file="/fs04/fc37/adam/projects/psilocybin-prl-analyses/src/prl_hgf/fitting/hierarchical_patrl.py" source_line=378}
  get-tuple-element.12261 = s32[192]{0} get-tuple-element(while.16.0), index=75, metadata={op_name="jit(scan)/jit(main)/while[cond_nconsts=0 body_nconsts=6]" source_file="/fs04/fc37/adam/projects/psilocybin-prl-analyses/src/prl_hgf/fitting/hierarchical_patrl.py" source_line=378}
  get-tuple-element.12260 = f64[192,20]{1,0} get-tuple-element(while.16.0), index=74, metadata={op_name="jit(scan)/jit(main)/while[cond_nconsts=0 body_nconsts=6]" source_file="/fs04/fc37/adam/projects/psilocybin-prl-analyses/src/prl_hgf/fitting/hierarchical_patrl.py" source_line=378}
  get-tuple-element.12259 = f64[192,20]{1,0} get-tuple-element(while.16.0), index=73, metadata={op_name="jit(scan)/jit(main)/while[cond_nconsts=0 body_nconsts=6]" source_file="/fs04/fc37/adam/projects/psilocybin-prl-analyses/src/prl_hgf/fitting/hierarchical_patrl.py" source_line=378}
  get-tuple-element.12256 = f64[192,20]{1,0} get-tuple-element(while.16.0), index=71, metadata={op_name="jit(scan)/jit(main)/while[cond_nconsts=0 body_nconsts=6]" source_file="/fs04/fc37/adam/projects/psilocybin-prl-analyses/src/prl_hgf/fitting/hierarchical_patrl.py" source_line=378}
  get-tuple-element.12255 = f64[192,20]{1,0} get-tuple-element(while.16.0), index=70, metadata={op_name="jit(scan)/jit(main)/while[cond_nconsts=0 body_nconsts=6]" source_file="/fs04/fc37/adam/projects/psilocybin-prl-analyses/src/prl_hgf/fitting/hierarchical_patrl.py" source_line=378}
  get-tuple-element.12253 = f64[192,20]{1,0} get-tuple-element(while.16.0), index=68, metadata={op_name="jit(scan)/jit(main)/while[cond_nconsts=0 body_nconsts=6]" source_file="/fs04/fc37/adam/projects/psilocybin-prl-analyses/src/prl_hgf/fitting/hierarchical_patrl.py" source_line=378}
  get-tuple-element.12251 = f64[192,20]{1,0} get-tuple-element(while.16.0), index=67, metadata={op_name="jit(scan)/jit(main)/while[cond_nconsts=0 body_nconsts=6]" source_file="/fs04/fc37/adam/projects/psilocybin-prl-analyses/src/prl_hgf/fitting/hierarchical_patrl.py" source_line=378}
  get-tuple-element.12250 = f64[192,20]{1,0} get-tuple-element(while.16.0), index=66, metadata={op_name="jit(scan)/jit(main)/while[cond_nconsts=0 body_nconsts=6]" source_file="/fs04/fc37/adam/projects/psilocybin-prl-analyses/src/prl_hgf/fitting/hierarchical_patrl.py" source_line=378}
  get-tuple-element.12249 = pred[192,20]{1,0} get-tuple-element(while.16.0), index=65, metadata={op_name="jit(scan)/jit(main)/while[cond_nconsts=0 body_nconsts=6]" source_file="/fs04/fc37/adam/projects/psilocybin-prl-analyses/src/prl_hgf/fitting/hierarchical_patrl.py" source_line=378}
  get-tuple-element.12248 = f64[192,20]{1,0} get-tuple-element(while.16.0), index=64, metadata={op_name="jit(scan)/jit(main)/while[cond_nconsts=0 body_nconsts=6]" source_file="/fs04/fc37/adam/projects/psilocybin-prl-analyses/src/prl_hgf/fitting/hierarchical_patrl.py" source_line=378}
  get-tuple-element.12247 = f64[192,20]{1,0} get-tuple-element(while.16.0), index=63, metadata={op_name="jit(scan)/jit(main)/while[cond_nconsts=0 body_nconsts=6]" source_file="/fs04/fc37/adam/projects/psilocybin-prl-analyses/src/prl_hgf/fitting/hierarchical_patrl.py" source_line=378}
  get-tuple-element.12246 = f64[192,20]{1,0} get-tuple-element(while.16.0), index=62, metadata={op_name="jit(scan)/jit(main)/while[cond_nconsts=0 body_nconsts=6]" source_file="/fs04/fc37/adam/projects/psilocybin-prl-analyses/src/prl_hgf/fitting/hierarchical_patrl.py" source_line=378}
  get-tuple-element.12244 = f64[192,20]{1,0} get-tuple-element(while.16.0), index=60, metadata={op_name="jit(scan)/jit(main)/while[cond_nconsts=0 body_nconsts=6]" source_file="/fs04/fc37/adam/projects/psilocybin-prl-analyses/src/prl_hgf/fitting/hierarchical_patrl.py" source_line=378}
  get-tuple-element.12242 = f64[192,20]{1,0} get-tuple-element(while.16.0), index=59, metadata={op_name="jit(scan)/jit(main)/while[cond_nconsts=0 body_nconsts=6]" source_file="/fs04/fc37/adam/projects/psilocybin-prl-analyses/src/prl_hgf/fitting/hierarchical_patrl.py" source_line=378}
  get-tuple-element.12241 = f64[192,20]{1,0} get-tuple-element(while.16.0), index=58, metadata={op_name="jit(scan)/jit(main)/while[cond_nconsts=0 body_nconsts=6]" source_file="/fs04/fc37/adam/projects/psilocybin-prl-analyses/src/prl_hgf/fitting/hierarchical_patrl.py" source_line=378}
  get-tuple-element.12240 = pred[192,20]{1,0} get-tuple-element(while.16.0), index=57, metadata={op_name="jit(scan)/jit(main)/while[cond_nconsts=0 body_nconsts=6]" source_file="/fs04/fc37/adam/projects/psilocybin-prl-analyses/src/prl_hgf/fitting/hierarchical_patrl.py" source_line=378}
  get-tuple-element.12238 = f64[192,20]{1,0} get-tuple-element(while.16.0), index=55, metadata={op_name="jit(scan)/jit(main)/while[cond_nconsts=0 body_nconsts=6]" source_file="/fs04/fc37/adam/projects/psilocybin-prl-analyses/src/prl_hgf/fitting/hierarchical_patrl.py" source_line=378}
  get-tuple-element.12236 = f64[192,20]{1,0} get-tuple-element(while.16.0), index=53, metadata={op_name="jit(scan)/jit(main)/while[cond_nconsts=0 body_nconsts=6]" source_file="/fs04/fc37/adam/projects/psilocybin-prl-analyses/src/prl_hgf/fitting/hierarchical_patrl.py" source_line=378}
  get-tuple-element.11464.0 = f64[120,20,1]{1,0,2} get-tuple-element(while.16.0), index=52, metadata={op_name="jit(scan)/jit(main)/while[cond_nconsts=0 body_nconsts=6]" source_file="/fs04/fc37/adam/projects/psilocybin-prl-analyses/src/prl_hgf/fitting/hierarchical_patrl.py" source_line=378}
  bitcast.6456.0 = f64[120,20,1]{2,1,0} bitcast(get-tuple-element.11464.0)
  get-tuple-element.12234 = f64[120,20]{1,0} get-tuple-element(while.16.0), index=51, metadata={op_name="jit(scan)/jit(main)/while[cond_nconsts=0 body_nconsts=6]" source_file="/fs04/fc37/adam/projects/psilocybin-prl-analyses/src/prl_hgf/fitting/hierarchical_patrl.py" source_line=378}
  get-tuple-element.12233 = f64[120,20]{1,0} get-tuple-element(while.16.0), index=50, metadata={op_name="jit(scan)/jit(main)/while[cond_nconsts=0 body_nconsts=6]" source_file="/fs04/fc37/adam/projects/psilocybin-prl-analyses/src/prl_hgf/fitting/hierarchical_patrl.py" source_line=378}
  get-tuple-element.12232 = f64[120,20]{1,0} get-tuple-element(while.16.0), index=49, metadata={op_name="jit(scan)/jit(main)/while[cond_nconsts=0 body_nconsts=6]" source_file="/fs04/fc37/adam/projects/psilocybin-prl-analyses/src/prl_hgf/fitting/hierarchical_patrl.py" source_line=378}
  get-tuple-element.12231 = f64[120,20]{1,0} get-tuple-element(while.16.0), index=48, metadata={op_name="jit(scan)/jit(main)/while[cond_nconsts=0 body_nconsts=6]" source_file="/fs04/fc37/adam/projects/psilocybin-prl-analyses/src/prl_hgf/fitting/hierarchical_patrl.py" source_line=378}
  get-tuple-element.12230 = f64[120,20]{1,0} get-tuple-element(while.16.0), index=47, metadata={op_name="jit(scan)/jit(main)/while[cond_nconsts=0 body_nconsts=6]" source_file="/fs04/fc37/adam/projects/psilocybin-prl-analyses/src/prl_hgf/fitting/hierarchical_patrl.py" source_line=378}
  get-tuple-element.12229 = f64[120,20]{1,0} get-tuple-element(while.16.0), index=46, metadata={op_name="jit(scan)/jit(main)/while[cond_nconsts=0 body_nconsts=6]" source_file="/fs04/fc37/adam/projects/psilocybin-prl-analyses/src/prl_hgf/fitting/hierarchical_patrl.py" source_line=378}
  get-tuple-element.12228 = f64[120,20]{1,0} get-tuple-element(while.16.0), index=45, metadata={op_name="jit(scan)/jit(main)/while[cond_nconsts=0 body_nconsts=6]" source_file="/fs04/fc37/adam/projects/psilocybin-prl-analyses/src/prl_hgf/fitting/hierarchical_patrl.py" source_line=378}
  get-tuple-element.12227 = f64[120,20]{1,0} get-tuple-element(while.16.0), index=44, metadata={op_name="jit(scan)/jit(main)/while[cond_nconsts=0 body_nconsts=6]" source_file="/fs04/fc37/adam/projects/psilocybin-prl-analyses/src/prl_hgf/fitting/hierarchical_patrl.py" source_line=378}
  get-tuple-element.12226 = f64[120,20]{1,0} get-tuple-element(while.16.0), index=43, metadata={op_name="jit(scan)/jit(main)/while[cond_nconsts=0 body_nconsts=6]" source_file="/fs04/fc37/adam/projects/psilocybin-prl-analyses/src/prl_hgf/fitting/hierarchical_patrl.py" source_line=378}
  get-tuple-element.12225 = f64[120,20]{1,0} get-tuple-element(while.16.0), index=42, metadata={op_name="jit(scan)/jit(main)/while[cond_nconsts=0 body_nconsts=6]" source_file="/fs04/fc37/adam/projects/psilocybin-prl-analyses/src/prl_hgf/fitting/hierarchical_patrl.py" source_line=378}
  get-tuple-element.12224 = f64[120,20]{1,0} get-tuple-element(while.16.0), index=41, metadata={op_name="jit(scan)/jit(main)/while[cond_nconsts=0 body_nconsts=6]" source_file="/fs04/fc37/adam/projects/psilocybin-prl-analyses/src/prl_hgf/fitting/hierarchical_patrl.py" source_line=378}
  get-tuple-element.12223 = f64[120,20]{1,0} get-tuple-element(while.16.0), index=40, metadata={op_name="jit(scan)/jit(main)/while[cond_nconsts=0 body_nconsts=6]" source_file="/fs04/fc37/adam/projects/psilocybin-prl-analyses/src/prl_hgf/fitting/hierarchical_patrl.py" source_line=378}
  get-tuple-element.12222 = f64[120,20]{1,0} get-tuple-element(while.16.0), index=39, metadata={op_name="jit(scan)/jit(main)/while[cond_nconsts=0 body_nconsts=6]" source_file="/fs04/fc37/adam/projects/psilocybin-prl-analyses/src/prl_hgf/fitting/hierarchical_patrl.py" source_line=378}
  get-tuple-element.12221 = f64[120,20]{1,0} get-tuple-element(while.16.0), index=38, metadata={op_name="jit(scan)/jit(main)/while[cond_nconsts=0 body_nconsts=6]" source_file="/fs04/fc37/adam/projects/psilocybin-prl-analyses/src/prl_hgf/fitting/hierarchical_patrl.py" source_line=378}
  get-tuple-element.12220 = f64[120,20]{1,0} get-tuple-element(while.16.0), index=37, metadata={op_name="jit(scan)/jit(main)/while[cond_nconsts=0 body_nconsts=6]" source_file="/fs04/fc37/adam/projects/psilocybin-prl-analyses/src/prl_hgf/fitting/hierarchical_patrl.py" source_line=378}
  get-tuple-element.12219 = f64[120,20]{1,0} get-tuple-element(while.16.0), index=36, metadata={op_name="jit(scan)/jit(main)/while[cond_nconsts=0 body_nconsts=6]" source_file="/fs04/fc37/adam/projects/psilocybin-prl-analyses/src/prl_hgf/fitting/hierarchical_patrl.py" source_line=378}
  get-tuple-element.12218 = f64[120,20]{1,0} get-tuple-element(while.16.0), index=35, metadata={op_name="jit(scan)/jit(main)/while[cond_nconsts=0 body_nconsts=6]" source_file="/fs04/fc37/adam/projects/psilocybin-prl-analyses/src/prl_hgf/fitting/hierarchical_patrl.py" source_line=378}
  get-tuple-element.12217 = f64[120,20]{1,0} get-tuple-element(while.16.0), index=34, metadata={op_name="jit(scan)/jit(main)/while[cond_nconsts=0 body_nconsts=6]" source_file="/fs04/fc37/adam/projects/psilocybin-prl-analyses/src/prl_hgf/fitting/hierarchical_patrl.py" source_line=378}
  get-tuple-element.12216 = f64[120,20]{1,0} get-tuple-element(while.16.0), index=33, metadata={op_name="jit(scan)/jit(main)/while[cond_nconsts=0 body_nconsts=6]" source_file="/fs04/fc37/adam/projects/psilocybin-prl-analyses/src/prl_hgf/fitting/hierarchical_patrl.py" source_line=378}
  get-tuple-element.12215 = f64[120,20]{1,0} get-tuple-element(while.16.0), index=32, metadata={op_name="jit(scan)/jit(main)/while[cond_nconsts=0 body_nconsts=6]" source_file="/fs04/fc37/adam/projects/psilocybin-prl-analyses/src/prl_hgf/fitting/hierarchical_patrl.py" source_line=378}
  get-tuple-element.12214 = f64[20,1]{1,0} get-tuple-element(while.16.0), index=31, metadata={op_name="jit(scan)/jit(main)/while[cond_nconsts=0 body_nconsts=6]" source_file="/fs04/fc37/adam/projects/psilocybin-prl-analyses/src/prl_hgf/fitting/hierarchical_patrl.py" source_line=378}
  get-tuple-element.12213 = f64[20]{0} get-tuple-element(while.16.0), index=30, metadata={op_name="jit(scan)/jit(main)/while[cond_nconsts=0 body_nconsts=6]" source_file="/fs04/fc37/adam/projects/psilocybin-prl-analyses/src/prl_hgf/fitting/hierarchical_patrl.py" source_line=378}
  get-tuple-element.12212 = f64[20]{0} get-tuple-element(while.16.0), index=29, metadata={op_name="jit(scan)/jit(main)/while[cond_nconsts=0 body_nconsts=6]" source_file="/fs04/fc37/adam/projects/psilocybin-prl-analyses/src/prl_hgf/fitting/hierarchical_patrl.py" source_line=378}
  get-tuple-element.12209 = f64[20]{0} get-tuple-element(while.16.0), index=28, metadata={op_name="jit(scan)/jit(main)/while[cond_nconsts=0 body_nconsts=6]" source_file="/fs04/fc37/adam/projects/psilocybin-prl-analyses/src/prl_hgf/fitting/hierarchical_patrl.py" source_line=378}
  get-tuple-element.12208 = f64[20]{0} get-tuple-element(while.16.0), index=27, metadata={op_name="jit(scan)/jit(main)/while[cond_nconsts=0 body_nconsts=6]" source_file="/fs04/fc37/adam/projects/psilocybin-prl-analyses/src/prl_hgf/fitting/hierarchical_patrl.py" source_line=378}
  get-tuple-element.12207 = f64[20]{0} get-tuple-element(while.16.0), index=26, metadata={op_name="jit(scan)/jit(main)/while[cond_nconsts=0 body_nconsts=6]" source_file="/fs04/fc37/adam/projects/psilocybin-prl-analyses/src/prl_hgf/fitting/hierarchical_patrl.py" source_line=378}
  get-tuple-element.12205 = f64[20]{0} get-tuple-element(while.16.0), index=25, metadata={op_name="jit(scan)/jit(main)/while[cond_nconsts=0 body_nconsts=6]" source_file="/fs04/fc37/adam/projects/psilocybin-prl-analyses/src/prl_hgf/fitting/hierarchical_patrl.py" source_line=378}
  get-tuple-element.12204 = f64[20]{0} get-tuple-element(while.16.0), index=24, metadata={op_name="jit(scan)/jit(main)/while[cond_nconsts=0 body_nconsts=6]" source_file="/fs04/fc37/adam/projects/psilocybin-prl-analyses/src/prl_hgf/fitting/hierarchical_patrl.py" source_line=378}
  get-tuple-element.12203 = f64[20]{0} get-tuple-element(while.16.0), index=23, metadata={op_name="jit(scan)/jit(main)/while[cond_nconsts=0 body_nconsts=6]" source_file="/fs04/fc37/adam/projects/psilocybin-prl-analyses/src/prl_hgf/fitting/hierarchical_patrl.py" source_line=378}
  get-tuple-element.12202 = f64[20]{0} get-tuple-element(while.16.0), index=22, metadata={op_name="jit(scan)/jit(main)/while[cond_nconsts=0 body_nconsts=6]" source_file="/fs04/fc37/adam/projects/psilocybin-prl-analyses/src/prl_hgf/fitting/hierarchical_patrl.py" source_line=378}
  get-tuple-element.12201 = f64[20,1]{1,0} get-tuple-element(while.16.0), index=21, metadata={op_name="jit(scan)/jit(main)/while[cond_nconsts=0 body_nconsts=6]" source_file="/fs04/fc37/adam/projects/psilocybin-prl-analyses/src/prl_hgf/fitting/hierarchical_patrl.py" source_line=378}
  get-tuple-element.12200 = f64[20,1]{1,0} get-tuple-element(while.16.0), index=20, metadata={op_name="jit(scan)/jit(main)/while[cond_nconsts=0 body_nconsts=6]" source_file="/fs04/fc37/adam/projects/psilocybin-prl-analyses/src/prl_hgf/fitting/hierarchical_patrl.py" source_line=378}
  get-tuple-element.12199 = f64[20]{0} get-tuple-element(while.16.0), index=19, metadata={op_name="jit(scan)/jit(main)/while[cond_nconsts=0 body_nconsts=6]" source_file="/fs04/fc37/adam/projects/psilocybin-prl-analyses/src/prl_hgf/fitting/hierarchical_patrl.py" source_line=378}
  get-tuple-element.12198 = f64[20]{0} get-tuple-element(while.16.0), index=18, metadata={op_name="jit(scan)/jit(main)/while[cond_nconsts=0 body_nconsts=6]" source_file="/fs04/fc37/adam/projects/psilocybin-prl-analyses/src/prl_hgf/fitting/hierarchical_patrl.py" source_line=378}
  get-tuple-element.12197 = f64[20]{0} get-tuple-element(while.16.0), index=17, metadata={op_name="jit(scan)/jit(main)/while[cond_nconsts=0 body_nconsts=6]" source_file="/fs04/fc37/adam/projects/psilocybin-prl-analyses/src/prl_hgf/fitting/hierarchical_patrl.py" source_line=378}
  get-tuple-element.12196 = f64[20]{0} get-tuple-element(while.16.0), index=16, metadata={op_name="jit(scan)/jit(main)/while[cond_nconsts=0 body_nconsts=6]" source_file="/fs04/fc37/adam/projects/psilocybin-prl-analyses/src/prl_hgf/fitting/hierarchical_patrl.py" source_line=378}
  get-tuple-element.12195 = f64[20]{0} get-tuple-element(while.16.0), index=15, metadata={op_name="jit(scan)/jit(main)/while[cond_nconsts=0 body_nconsts=6]" source_file="/fs04/fc37/adam/projects/psilocybin-prl-analyses/src/prl_hgf/fitting/hierarchical_patrl.py" source_line=378}
  get-tuple-element.12194 = f64[20]{0} get-tuple-element(while.16.0), index=14, metadata={op_name="jit(scan)/jit(main)/while[cond_nconsts=0 body_nconsts=6]" source_file="/fs04/fc37/adam/projects/psilocybin-prl-analyses/src/prl_hgf/fitting/hierarchical_patrl.py" source_line=378}
  get-tuple-element.12193 = f64[20]{0} get-tuple-element(while.16.0), index=13, metadata={op_name="jit(scan)/jit(main)/while[cond_nconsts=0 body_nconsts=6]" source_file="/fs04/fc37/adam/projects/psilocybin-prl-analyses/src/prl_hgf/fitting/hierarchical_patrl.py" source_line=378}
  get-tuple-element.12192 = s64[20]{0} get-tuple-element(while.16.0), index=12, metadata={op_name="jit(scan)/jit(main)/while[cond_nconsts=0 body_nconsts=6]" source_file="/fs04/fc37/adam/projects/psilocybin-prl-analyses/src/prl_hgf/fitting/hierarchical_patrl.py" source_line=378}
  get-tuple-element.12191 = f64[20]{0} get-tuple-element(while.16.0), index=11, metadata={op_name="jit(scan)/jit(main)/while[cond_nconsts=0 body_nconsts=6]" source_file="/fs04/fc37/adam/projects/psilocybin-prl-analyses/src/prl_hgf/fitting/hierarchical_patrl.py" source_line=378}
  get-tuple-element.12190 = f64[20]{0} get-tuple-element(while.16.0), index=10, metadata={op_name="jit(scan)/jit(main)/while[cond_nconsts=0 body_nconsts=6]" source_file="/fs04/fc37/adam/projects/psilocybin-prl-analyses/src/prl_hgf/fitting/hierarchical_patrl.py" source_line=378}
  get-tuple-element.12189 = f64[20]{0} get-tuple-element(while.16.0), index=9, metadata={op_name="jit(scan)/jit(main)/while[cond_nconsts=0 body_nconsts=6]" source_file="/fs04/fc37/adam/projects/psilocybin-prl-analyses/src/prl_hgf/fitting/hierarchical_patrl.py" source_line=378}
  get-tuple-element.12188 = f64[20]{0} get-tuple-element(while.16.0), index=8, metadata={op_name="jit(scan)/jit(main)/while[cond_nconsts=0 body_nconsts=6]" source_file="/fs04/fc37/adam/projects/psilocybin-prl-analyses/src/prl_hgf/fitting/hierarchical_patrl.py" source_line=378}
  get-tuple-element.12186 = f64[20]{0} get-tuple-element(while.16.0), index=7, metadata={op_name="jit(scan)/jit(main)/while[cond_nconsts=0 body_nconsts=6]" source_file="/fs04/fc37/adam/projects/psilocybin-prl-analyses/src/prl_hgf/fitting/hierarchical_patrl.py" source_line=378}
  get-tuple-element.12185 = f64[20]{0} get-tuple-element(while.16.0), index=6, metadata={op_name="jit(scan)/jit(main)/while[cond_nconsts=0 body_nconsts=6]" source_file="/fs04/fc37/adam/projects/psilocybin-prl-analyses/src/prl_hgf/fitting/hierarchical_patrl.py" source_line=378}
  get-tuple-element.12184 = s32[20]{0} get-tuple-element(while.16.0), index=5, metadata={op_name="jit(scan)/jit(main)/while[cond_nconsts=0 body_nconsts=6]" source_file="/fs04/fc37/adam/projects/psilocybin-prl-analyses/src/prl_hgf/fitting/hierarchical_patrl.py" source_line=378}
  get-tuple-element.12183 = f64[20]{0} get-tuple-element(while.16.0), index=4, metadata={op_name="jit(scan)/jit(main)/while[cond_nconsts=0 body_nconsts=6]" source_file="/fs04/fc37/adam/projects/psilocybin-prl-analyses/src/prl_hgf/fitting/hierarchical_patrl.py" source_line=378}
  get-tuple-element.12182 = f64[20]{0} get-tuple-element(while.16.0), index=3, metadata={op_name="jit(scan)/jit(main)/while[cond_nconsts=0 body_nconsts=6]" source_file="/fs04/fc37/adam/projects/psilocybin-prl-analyses/src/prl_hgf/fitting/hierarchical_patrl.py" source_line=378}
  get-tuple-element.12181 = f64[20]{0} get-tuple-element(while.16.0), index=2, metadata={op_name="jit(scan)/jit(main)/while[cond_nconsts=0 body_nconsts=6]" source_file="/fs04/fc37/adam/projects/psilocybin-prl-analyses/src/prl_hgf/fitting/hierarchical_patrl.py" source_line=378}
  get-tuple-element.12180 = f64[20]{0} get-tuple-element(while.16.0), index=1, metadata={op_name="jit(scan)/jit(main)/while[cond_nconsts=0 body_nconsts=6]" source_file="/fs04/fc37/adam/projects/psilocybin-prl-analyses/src/prl_hgf/fitting/hierarchical_patrl.py" source_line=378}
  get-tuple-element.12356 = f64[192,120,20]{2,1,0} get-tuple-element(while.16.0), index=156, metadata={op_name="jit(scan)/jit(main)/while[cond_nconsts=0 body_nconsts=6]" source_file="/fs04/fc37/adam/projects/psilocybin-prl-analyses/src/prl_hgf/fitting/hierarchical_patrl.py" source_line=378}
  call.1 = (s64[20]{0}, s64[20]{0}, f64[20,1]{1,0}, f64[20,1]{1,0}, f64[20]{0}, /*index=5*/f64[20]{0}, f64[20]{0}, f64[20]{0}, f64[20]{0}, f64[20]{0}, /*index=10*/f64[20]{0}, f64[20]{0}, f64[120,20,1]{2,1,0}, f64[192]{0}, f64[20,1]{1,0}, /*index=15*/f64[20,1]{1,0}, f64[120,20]{1,0}, f64[120,20]{1,0}, f64[192,20]{1,0}, f64[192,20]{1,0}, /*index=20*/f64[192,20]{1,0}, f64[192,20]{1,0}, f64[192,20]{1,0}, f64[192,20]{1,0}, f64[192,20]{1,0}, /*index=25*/f64[192,20]{1,0}, f64[192,20]{1,0}, f64[192,20]{1,0}, f64[192,20]{1,0}, (f64[192,120,20]{2,1,0}, f64[192,120,20]{2,1,0}, f64[192,120,20]{2,1,0}, f64[192,120,20]{2,1,0}, f64[192,120,20]{2,1,0})) call(get-tuple-element.12192, Arg_29.30.0, get-tuple-element.12200, get-tuple-element.12201, get-tuple-element.12188, /*index=5*/get-tuple-element.12198, get-tuple-element.12199, get-tuple-element.12202, Arg_33.34.0, Arg_34.35.0, /*index=10*/get-tuple-element.12212, get-tuple-element.12213, Arg_10.11.0, get-tuple-element.12214, get-tuple-element.12274, /*index=15*/bitcast.6456.0, get-tuple-element.12227, get-tuple-element.12234, get-tuple-element.12289, get-tuple-element.12252, /*index=20*/get-tuple-element.12258, get-tuple-element.12275, get-tuple-element.12291, get-tuple-element.12295, get-tuple-element.12296, /*index=25*/get-tuple-element.12298, get-tuple-element.12299, get-tuple-element.12304, get-tuple-element.12313, get-tuple-element.12319, /*index=30*/get-tuple-element.12324, get-tuple-element.12335, get-tuple-element.12351), to_apply=command_buffer.2
  get-tuple-element.12754 = s64[20]{0} get-tuple-element(call.1), index=0
  get-tuple-element.12755 = s64[20]{0} get-tuple-element(call.1), index=1
  get-tuple-element.12756 = f64[20,1]{1,0} get-tuple-element(call.1), index=2
  get-tuple-element.12757 = f64[20,1]{1,0} get-tuple-element(call.1), index=3
  get-tuple-element.12758 = f64[20]{0} get-tuple-element(call.1), index=4
  get-tuple-element.12759 = f64[20]{0} get-tuple-element(call.1), index=5
  get-tuple-element.12760 = f64[20]{0} get-tuple-element(call.1), index=6
  get-tuple-element.12761 = f64[20]{0} get-tuple-element(call.1), index=7
  get-tuple-element.12762 = f64[20]{0} get-tuple-element(call.1), index=8
  get-tuple-element.12763 = f64[20]{0} get-tuple-element(call.1), index=9
  get-tuple-element.12764 = f64[20]{0} get-tuple-element(call.1), index=10
  get-tuple-element.12765 = f64[20]{0} get-tuple-element(call.1), index=11
  get-tuple-element.12766 = f64[120,20,1]{2,1,0} get-tuple-element(call.1), index=12
  get-tuple-element.12767 = f64[192]{0} get-tuple-element(call.1), index=13
  get-tuple-element.12768 = f64[20,1]{1,0} get-tuple-element(call.1), index=14
  get-tuple-element.12769 = f64[20,1]{1,0} get-tuple-element(call.1), index=15
  get-tuple-element.12770 = f64[120,20]{1,0} get-tuple-element(call.1), index=16
  get-tuple-element.12771 = f64[120,20]{1,0} get-tuple-element(call.1), index=17
  get-tuple-element.12772 = f64[192,20]{1,0} get-tuple-element(call.1), index=18
  get-tuple-element.12773 = f64[192,20]{1,0} get-tuple-element(call.1), index=19
  get-tuple-element.12774 = f64[192,20]{1,0} get-tuple-element(call.1), index=20
  get-tuple-element.12775 = f64[192,20]{1,0} get-tuple-element(call.1), index=21
  get-tuple-element.12776 = f64[192,20]{1,0} get-tuple-element(call.1), index=22
  get-tuple-element.12777 = f64[192,20]{1,0} get-tuple-element(call.1), index=23
  get-tuple-element.12778 = f64[192,20]{1,0} get-tuple-element(call.1), index=24
  get-tuple-element.12779 = f64[192,20]{1,0} get-tuple-element(call.1), index=25
  get-tuple-element.12780 = f64[192,20]{1,0} get-tuple-element(call.1), index=26
  get-tuple-element.12781 = f64[192,20]{1,0} get-tuple-element(call.1), index=27
  get-tuple-element.12782 = f64[192,20]{1,0} get-tuple-element(call.1), index=28
  get-tuple-element.12783 = (f64[192,120,20]{2,1,0}, f64[192,120,20]{2,1,0}, f64[192,120,20]{2,1,0}, f64[192,120,20]{2,1,0}, f64[192,120,20]{2,1,0}) get-tuple-element(call.1), index=29
  get-tuple-element.12430 = f64[192,120,20]{2,1,0} get-tuple-element(get-tuple-element.12783), index=4
  bitcast.6829 = f64[192,120,20]{2,1,0} bitcast(get-tuple-element.12430)
  get-tuple-element.12429 = f64[192,120,20]{2,1,0} get-tuple-element(get-tuple-element.12783), index=3
  bitcast.6828 = f64[192,120,20]{2,1,0} bitcast(get-tuple-element.12429)
  get-tuple-element.12428 = f64[192,120,20]{2,1,0} get-tuple-element(get-tuple-element.12783), index=2
  bitcast.6827 = f64[192,120,20]{2,1,0} bitcast(get-tuple-element.12428)
  get-tuple-element.12427 = f64[192,120,20]{2,1,0} get-tuple-element(get-tuple-element.12783), index=1
  get-tuple-element.12426 = f64[192,120,20]{2,1,0} get-tuple-element(get-tuple-element.12783), index=0
  bitcast.6825 = f64[192,120,20]{2,1,0} bitcast(get-tuple-element.12426)
  bitcast.6826 = f64[192,120,20]{2,1,0} bitcast(get-tuple-element.12427)
  ROOT tuple.313 = (f64[20]{0}, f64[20]{0}, f64[20]{0}, f64[20]{0}, s32[20]{0}, /*index=5*/f64[20]{0}, f64[20]{0}, f64[20,1]{1,0}, f64[20]{0}, f64[20]{0}, /*index=10*/f64[20]{0}, f64[20]{0}, s64[20]{0}, f64[20]{0}, f64[20]{0}, /*index=15*/f64[20]{0}, f64[20]{0}, f64[20]{0}, f64[20]{0}, f64[20]{0}, /*index=20*/f64[20,1]{1,0}, f64[20,1]{1,0}, f64[20]{0}, f64[20]{0}, f64[20]{0}, /*index=25*/f64[20]{0}, s64[20]{0}, f64[20]{0}, f64[20]{0}, f64[20]{0}, /*index=30*/f64[20]{0}, f64[20]{0}, f64[20]{0}, f64[20]{0}, f64[20,1]{1,0}, /*index=35*/f64[120,20]{1,0}, f64[120,20]{1,0}, f64[120,20]{1,0}, f64[120,20]{1,0}, f64[120,20]{1,0}, /*index=40*/f64[120,20]{1,0}, f64[120,20]{1,0}, f64[120,20]{1,0}, f64[120,20]{1,0}, f64[120,20]{1,0}, /*index=45*/f64[120,20]{1,0}, f64[120,20]{1,0}, f64[120,20]{1,0}, f64[120,20]{1,0}, f64[120,20]{1,0}, /*index=50*/f64[120,20]{1,0}, f64[120,20]{1,0}, f64[120,20]{1,0}, f64[120,20]{1,0}, f64[120,20]{1,0}, /*index=55*/f64[120,20,1]{2,1,0}, f64[192,20]{1,0}, f64[192,20]{1,0}, f64[192,20]{1,0}, f64[192,20]{1,0}, /*index=60*/pred[192,20]{1,0}, f64[192,20]{1,0}, f64[192,20]{1,0}, f64[192,20]{1,0}, f64[192,20]{1,0}, /*index=65*/f64[192,20]{1,0}, f64[192,20]{1,0}, f64[192,20]{1,0}, f64[192,20]{1,0}, pred[192,20]{1,0}, /*index=70*/f64[192,20]{1,0}, f64[192,20]{1,0}, f64[192,20]{1,0}, f64[192,20]{1,0}, f64[192,20]{1,0}, /*index=75*/f64[192,20]{1,0}, f64[192,20]{1,0}, f64[192]{0}, f64[192,20]{1,0}, f64[192,20]{1,0}, /*index=80*/f64[192,20]{1,0}, s32[192]{0}, f64[192,20]{1,0}, f64[192]{0}, f64[192,20]{1,0}, /*index=85*/f64[192,20]{1,0}, f64[192,20]{1,0}, pred[192,20]{1,0}, f64[192,20]{1,0}, f64[192,20]{1,0}, /*index=90*/f64[192,20]{1,0}, f64[192,20]{1,0}, f64[192,20]{1,0}, f64[192,20]{1,0}, f64[192]{0}, /*index=95*/f64[192,20]{1,0}, f64[192,20]{1,0}, f64[192,20]{1,0}, f64[192,20]{1,0}, f64[192,20]{1,0}, /*index=100*/f64[192,20]{1,0}, f64[192,20]{1,0}, f64[192,20]{1,0}, f64[192,20]{1,0}, f64[192,20]{1,0}, /*index=105*/f64[192,20]{1,0}, s32[192,20]{1,0}, pred[192,20]{1,0}, pred[192,20,1]{2,1,0}, f64[192,20]{1,0}, /*index=110*/f64[192,20]{1,0}, f64[192,20]{1,0}, f64[192,20]{1,0}, pred[192,20]{1,0}, pred[192,20,1]{2,1,0}, /*index=115*/f64[192,20]{1,0}, f64[192,20]{1,0}, f64[192,20]{1,0}, f64[192,20]{1,0}, f64[192,20]{1,0}, /*index=120*/f64[192,20]{1,0}, f64[192,20]{1,0}, f64[192,20]{1,0}, f64[192,20]{1,0}, f64[192,20]{1,0}, /*index=125*/pred[192,20]{1,0}, pred[192,20]{1,0}, pred[192,20,1]{2,1,0}, f64[192,120,20]{2,1,0}, f64[192,120,20]{2,1,0}, /*index=130*/f64[192,120,20]{2,1,0}, f64[192,120,20]{2,1,0}, f64[192,120,20]{2,1,0}, f64[192,120,20]{2,1,0}, f64[192,120,20]{2,1,0}, /*index=135*/f64[192,120,20]{2,1,0}, f64[192,120,20]{2,1,0}, f64[192,120,20]{2,1,0}, f64[192,120,20]{2,1,0}, f64[192,120,20]{2,1,0}, /*index=140*/f64[192,120,20]{2,1,0}, f64[192,120,20]{2,1,0}, f64[192,120,20]{2,1,0}, f64[192,120,20]{2,1,0}, f64[192,120,20]{2,1,0}, /*index=145*/f64[192,120,20]{2,1,0}, f64[192,120,20]{2,1,0}, f64[192,120,20]{2,1,0}, f64[192,120,20]{2,1,0}, f64[192,120,20]{2,1,0}, /*index=150*/f64[192,120,20]{2,1,0}, f64[192,120,20]{2,1,0}, f64[192,120,20]{2,1,0}, f64[192,120,20]{2,1,0}, f64[192,120,20]{2,1,0}, /*index=155*/f64[192,120,20]{2,1,0}, f64[192,120,20]{2,1,0}, f64[192,120,20]{2,1,0}, f64[192,120,20]{2,1,0}, f64[192,120,20]{2,1,0}, /*index=160*/f64[192,120,20]{2,1,0}, f64[192,120,20]{2,1,0}, f64[192,120,20]{2,1,0}, f64[192,120,20]{2,1,0}, f64[192,120,20]{2,1,0}, /*index=165*/f64[192,120,20]{2,1,0}, f64[192,120,20]{2,1,0}, f64[192,120,20]{2,1,0}, f64[192,120,20]{2,1,0}, f64[192,120,20]{2,1,0}, /*index=170*/f64[192,120,20]{2,1,0}, f64[192,120,20]{2,1,0}, f64[192,120,20]{2,1,0}, f64[192,120,20]{2,1,0}, f64[192,120,20]{2,1,0}, /*index=175*/f64[192,120,20]{2,1,0}, f64[192,120,20]{2,1,0}) tuple(get-tuple-element.12180, get-tuple-element.12181, get-tuple-element.12182, get-tuple-element.12183, get-tuple-element.12184, /*index=5*/get-tuple-element.12185, get-tuple-element.12186, get-tuple-element.12768, get-tuple-element.12760, get-tuple-element.12189, /*index=10*/get-tuple-element.12190, get-tuple-element.12191, get-tuple-element.12755, get-tuple-element.12193, get-tuple-element.12194, /*index=15*/get-tuple-element.12195, get-tuple-element.12196, get-tuple-element.12197, get-tuple-element.12759, get-tuple-element.12758, /*index=20*/get-tuple-element.12756, get-tuple-element.12757, get-tuple-element.12765, get-tuple-element.12203, get-tuple-element.12204, /*index=25*/get-tuple-element.12205, get-tuple-element.12754, get-tuple-element.12207, get-tuple-element.12208, get-tuple-element.12209, /*index=30*/get-tuple-element.12764, get-tuple-element.12763, get-tuple-element.12762, get-tuple-element.12761, get-tuple-element.12769, /*index=35*/get-tuple-element.12215, get-tuple-element.12216, get-tuple-element.12217, get-tuple-element.12218, get-tuple-element.12219, /*index=40*/get-tuple-element.12220, get-tuple-element.12221, get-tuple-element.12222, get-tuple-element.12223, get-tuple-element.12224, /*index=45*/get-tuple-element.12225, get-tuple-element.12226, get-tuple-element.12770, get-tuple-element.12228, get-tuple-element.12229, /*index=50*/get-tuple-element.12230, get-tuple-element.12231, get-tuple-element.12232, get-tuple-element.12233, get-tuple-element.12771, /*index=55*/get-tuple-element.12766, get-tuple-element.12236, get-tuple-element.12289, get-tuple-element.12238, get-tuple-element.12291, /*index=60*/get-tuple-element.12240, get-tuple-element.12241, get-tuple-element.12242, get-tuple-element.12781, get-tuple-element.12244, /*index=65*/get-tuple-element.12252, get-tuple-element.12246, get-tuple-element.12247, get-tuple-element.12248, get-tuple-element.12249, /*index=70*/get-tuple-element.12250, get-tuple-element.12251, get-tuple-element.12782, get-tuple-element.12253, get-tuple-element.12258, /*index=75*/get-tuple-element.12255, get-tuple-element.12256, get-tuple-element.12274, get-tuple-element.12780, get-tuple-element.12259, /*index=80*/get-tuple-element.12260, get-tuple-element.12261, get-tuple-element.12262, get-tuple-element.12263, get-tuple-element.12264, /*index=85*/get-tuple-element.12265, get-tuple-element.12266, get-tuple-element.12267, get-tuple-element.12268, get-tuple-element.12269, /*index=90*/get-tuple-element.12270, get-tuple-element.12275, get-tuple-element.12272, get-tuple-element.12273, get-tuple-element.12767, /*index=95*/get-tuple-element.12779, get-tuple-element.12276, get-tuple-element.12277, get-tuple-element.12295, get-tuple-element.12296, /*index=100*/get-tuple-element.12299, get-tuple-element.12281, get-tuple-element.12282, get-tuple-element.12283, get-tuple-element.12284, /*index=105*/get-tuple-element.12304, get-tuple-element.12286, get-tuple-element.12287, get-tuple-element.12288, get-tuple-element.12778, /*index=110*/get-tuple-element.12290, get-tuple-element.12777, get-tuple-element.12292, get-tuple-element.12293, get-tuple-element.12294, /*index=115*/get-tuple-element.12776, get-tuple-element.12775, get-tuple-element.12298, get-tuple-element.12774, get-tuple-element.12773, /*index=120*/get-tuple-element.12300, get-tuple-element.12301, get-tuple-element.12302, get-tuple-element.12303, get-tuple-element.12772, /*index=125*/get-tuple-element.12305, get-tuple-element.12306, get-tuple-element.12307, get-tuple-element.12308, get-tuple-element.12313, /*index=130*/get-tuple-element.12310, get-tuple-element.12311, get-tuple-element.12312, bitcast.6825, get-tuple-element.12314, /*index=135*/get-tuple-element.12319, get-tuple-element.12316, get-tuple-element.12317, get-tuple-element.12318, bitcast.6826, /*index=140*/get-tuple-element.12320, get-tuple-element.12324, get-tuple-element.12322, get-tuple-element.12323, bitcast.6827, /*index=145*/get-tuple-element.12325, get-tuple-element.12326, get-tuple-element.12327, get-tuple-element.12328, get-tuple-element.12329, /*index=150*/get-tuple-element.12330, get-tuple-element.12331, get-tuple-element.12335, get-tuple-element.12333, get-tuple-element.12334, /*index=155*/bitcast.6828, get-tuple-element.12336, get-tuple-element.12337, get-tuple-element.12338, get-tuple-element.12339, /*index=160*/get-tuple-element.12340, get-tuple-element.12341, get-tuple-element.12342, get-tuple-element.12343, get-tuple-element.12344, /*index=165*/get-tuple-element.12345, get-tuple-element.12346, get-tuple-element.12347, get-tuple-element.12348, get-tuple-element.12349, /*index=170*/get-tuple-element.12351, bitcast.6829, get-tuple-element.12352, get-tuple-element.12353, get-tuple-element.12354, /*index=175*/get-tuple-element.12355, get-tuple-element.12356)
} // main.3793

