HloModule jit_scan, is_scheduled=true, entry_computation_layout={(f64[4]{0}, f64[4]{0}, f64[4]{0}, f64[4]{0}, f64[4]{0}, /*index=5*/f64[4]{0}, f64[4]{0}, s32[4]{0}, f64[4]{0}, f64[4]{0}, /*index=10*/f64[4,1]{1,0}, f64[4]{0}, f64[4]{0}, f64[4]{0}, f64[4]{0}, /*index=15*/s64[4]{0}, f64[4]{0}, f64[4]{0}, f64[4]{0}, f64[4]{0}, /*index=20*/f64[4]{0}, f64[4]{0}, f64[4]{0}, f64[4,1]{1,0}, f64[4,1]{1,0}, /*index=25*/f64[4]{0}, f64[4]{0}, f64[4]{0}, f64[4]{0}, s64[4]{0}, /*index=30*/f64[4]{0}, f64[4]{0}, f64[4]{0}, f64[4]{0}, f64[4]{0}, /*index=35*/f64[4]{0}, f64[4]{0}, f64[4,1]{1,0}, f64[24,4]{1,0}, f64[24,4]{1,0}, /*index=40*/f64[24,4]{1,0}, f64[24,4]{1,0}, f64[24,4]{1,0}, f64[24,4]{1,0}, f64[24,4]{1,0}, /*index=45*/f64[24,4]{1,0}, f64[24,4]{1,0}, f64[24,4]{1,0}, f64[24,4]{1,0}, f64[24,4]{1,0}, /*index=50*/f64[24,4]{1,0}, f64[24,4]{1,0}, f64[24,4]{1,0}, f64[24,4]{1,0}, f64[24,4]{1,0}, /*index=55*/f64[24,4]{1,0}, f64[24,4]{1,0}, f64[24,4]{1,0}, f64[24,4,1]{2,1,0}, f64[192,4,1]{2,1,0}, /*index=60*/s32[192]{0}, f64[192]{0})->(f64[4]{0}, f64[4]{0}, f64[4]{0}, f64[4]{0}, s32[4]{0}, /*index=5*/f64[4]{0}, f64[4]{0}, f64[4,1]{1,0}, f64[4]{0}, f64[4]{0}, /*index=10*/f64[4]{0}, f64[4]{0}, s64[4]{0}, f64[4]{0}, f64[4]{0}, /*index=15*/f64[4]{0}, f64[4]{0}, f64[4]{0}, f64[4]{0}, f64[4]{0}, /*index=20*/f64[4,1]{1,0}, f64[4,1]{1,0}, f64[4]{0}, f64[4]{0}, f64[4]{0}, /*index=25*/f64[4]{0}, s64[4]{0}, f64[4]{0}, f64[4]{0}, f64[4]{0}, /*index=30*/f64[4]{0}, f64[4]{0}, f64[4]{0}, f64[4]{0}, f64[4,1]{1,0}, /*index=35*/f64[24,4]{1,0}, f64[24,4]{1,0}, f64[24,4]{1,0}, f64[24,4]{1,0}, f64[24,4]{1,0}, /*index=40*/f64[24,4]{1,0}, f64[24,4]{1,0}, f64[24,4]{1,0}, f64[24,4]{1,0}, f64[24,4]{1,0}, /*index=45*/f64[24,4]{1,0}, f64[24,4]{1,0}, f64[24,4]{1,0}, f64[24,4]{1,0}, f64[24,4]{1,0}, /*index=50*/f64[24,4]{1,0}, f64[24,4]{1,0}, f64[24,4]{1,0}, f64[24,4]{1,0}, f64[24,4]{1,0}, /*index=55*/f64[24,4,1]{2,1,0}, f64[192,4]{1,0}, f64[192,4]{1,0}, f64[192,4]{1,0}, f64[192,4]{1,0}, /*index=60*/pred[192,4]{1,0}, f64[192,4]{1,0}, f64[192,4]{1,0}, f64[192,4]{1,0}, f64[192,4]{1,0}, /*index=65*/f64[192,4]{1,0}, f64[192,4]{1,0}, f64[192,4]{1,0}, f64[192,4]{1,0}, pred[192,4]{1,0}, /*index=70*/f64[192,4]{1,0}, f64[192,4]{1,0}, f64[192,4]{1,0}, f64[192,4]{1,0}, f64[192,4]{1,0}, /*index=75*/f64[192,4]{1,0}, f64[192,4]{1,0}, f64[192]{0}, f64[192,4]{1,0}, f64[192,4]{1,0}, /*index=80*/f64[192,4]{1,0}, s32[192]{0}, f64[192,4]{1,0}, f64[192]{0}, f64[192,4]{1,0}, /*index=85*/f64[192,4]{1,0}, f64[192,4]{1,0}, pred[192,4]{1,0}, f64[192,4]{1,0}, f64[192,4]{1,0}, /*index=90*/f64[192,4]{1,0}, f64[192,4]{1,0}, f64[192,4]{1,0}, f64[192,4]{1,0}, f64[192]{0}, /*index=95*/f64[192,4]{1,0}, f64[192,4]{1,0}, f64[192,4]{1,0}, f64[192,4]{1,0}, f64[192,4]{1,0}, /*index=100*/f64[192,4]{1,0}, f64[192,4]{1,0}, f64[192,4]{1,0}, f64[192,4]{1,0}, f64[192,4]{1,0}, /*index=105*/f64[192,4]{1,0}, s32[192,4]{1,0}, pred[192,4]{1,0}, pred[192,4,1]{2,1,0}, f64[192,4]{1,0}, /*index=110*/f64[192,4]{1,0}, f64[192,4]{1,0}, f64[192,4]{1,0}, pred[192,4]{1,0}, pred[192,4,1]{2,1,0}, /*index=115*/f64[192,4]{1,0}, f64[192,4]{1,0}, f64[192,4]{1,0}, f64[192,4]{1,0}, f64[192,4]{1,0}, /*index=120*/f64[192,4]{1,0}, f64[192,4]{1,0}, f64[192,4]{1,0}, f64[192,4]{1,0}, f64[192,4]{1,0}, /*index=125*/pred[192,4]{1,0}, pred[192,4]{1,0}, pred[192,4,1]{2,1,0}, f64[192,24,4]{2,1,0}, f64[192,24,4]{2,1,0}, /*index=130*/f64[192,24,4]{2,1,0}, f64[192,24,4]{2,1,0}, f64[192,24,4]{2,1,0}, f64[192,24,4]{2,1,0}, f64[192,24,4]{2,1,0}, /*index=135*/f64[192,24,4]{2,1,0}, f64[192,24,4]{2,1,0}, f64[192,24,4]{2,1,0}, f64[192,24,4]{2,1,0}, f64[192,24,4]{2,1,0}, /*index=140*/f64[192,24,4]{2,1,0}, f64[192,24,4]{2,1,0}, f64[192,24,4]{2,1,0}, f64[192,24,4]{2,1,0}, f64[192,24,4]{2,1,0}, /*index=145*/f64[192,24,4]{2,1,0}, f64[192,24,4]{2,1,0}, f64[192,24,4]{2,1,0}, f64[192,24,4]{2,1,0}, f64[192,24,4]{2,1,0}, /*index=150*/f64[192,24,4]{2,1,0}, f64[192,24,4]{2,1,0}, f64[192,24,4]{2,1,0}, f64[192,24,4]{2,1,0}, f64[192,24,4]{2,1,0}, /*index=155*/f64[192,24,4]{2,1,0}, f64[192,24,4]{2,1,0}, f64[192,24,4]{2,1,0}, f64[192,24,4]{2,1,0}, f64[192,24,4]{2,1,0}, /*index=160*/f64[192,24,4]{2,1,0}, f64[192,24,4]{2,1,0}, f64[192,24,4]{2,1,0}, f64[192,24,4]{2,1,0}, f64[192,24,4]{2,1,0}, /*index=165*/f64[192,24,4]{2,1,0}, f64[192,24,4]{2,1,0}, f64[192,24,4]{2,1,0}, f64[192,24,4]{2,1,0}, f64[192,24,4]{2,1,0}, /*index=170*/f64[192,24,4]{2,1,0}, f64[192,24,4]{2,1,0}, f64[192,24,4]{2,1,0}, f64[192,24,4]{2,1,0}, f64[192,24,4]{2,1,0}, /*index=175*/f64[192,24,4]{2,1,0}, f64[192,24,4]{2,1,0})}, allow_spmd_sharding_propagation_to_parameters={true,true,true,true,true,true,true,true,true,true,true,true,true,true,true,true,true,true,true,true,true,true,true,true,true,true,true,true,true,true,true,true,true,true,true,true,true,true,true,true,true,true,true,true,true,true,true,true,true,true,true,true,true,true,true,true,true,true,true,true,true,true}, allow_spmd_sharding_propagation_to_output={true,true,true,true,true,true,true,true,true,true,true,true,true,true,true,true,true,true,true,true,true,true,true,true,true,true,true,true,true,true,true,true,true,true,true,true,true,true,true,true,true,true,true,true,true,true,true,true,true,true,true,true,true,true,true,true,true,true,true,true,true,true,true,true,true,true,true,true,true,true,true,true,true,true,true,true,true,true,true,true,true,true,true,true,true,true,true,true,true,true,true,true,true,true,true,true,true,true,true,true,true,true,true,true,true,true,true,true,true,true,true,true,true,true,true,true,true,true,true,true,true,true,true,true,true,true,true,true,true,true,true,true,true,true,true,true,true,true,true,true,true,true,true,true,true,true,true,true,true,true,true,true,true,true,true,true,true,true,true,true,true,true,true,true,true,true,true,true,true,true,true,true,true,true,true,true,true}, frontend_attributes={fingerprint_before_lhs="9300ee4431df9620e659dda6b988a380"}

fused_multiply {
  param_3.1188 = f64[24,4]{1,0} parameter(3)
  negate.271.5 = f64[24,4]{1,0} negate(param_3.1188), metadata={op_name="jit(scan)/jit(main)/while/body/jit(beliefs_propagation)/jit(continuous_node_posterior_update)/jit(posterior_update_precision_continuous_node)/cond/branch_0_fun/jit(precision_update_missing_values)/neg" source_file="/fs04/fc37/adam/projects/psilocybin-prl-analyses/src/prl_hgf/fitting/hierarchical_patrl.py" source_line=362}
  param_2.1381 = f64[4]{0} parameter(2)
  broadcast.3196.7 = f64[24,4]{1,0} broadcast(param_2.1381), dimensions={1}, metadata={op_name="jit(scan)/jit(main)/while/body/jit(beliefs_propagation)/jit(continuous_node_posterior_update)/jit(posterior_update_precision_continuous_node)/cond/branch_0_fun/jit(precision_update_missing_values)/mul" source_file="/fs04/fc37/adam/projects/psilocybin-prl-analyses/src/prl_hgf/fitting/hierarchical_patrl.py" source_line=362}
  multiply.3482.7 = f64[24,4]{1,0} multiply(negate.271.5, broadcast.3196.7), metadata={op_name="jit(scan)/jit(main)/while/body/jit(beliefs_propagation)/jit(continuous_node_posterior_update)/jit(posterior_update_precision_continuous_node)/cond/branch_0_fun/jit(precision_update_missing_values)/mul" source_file="/fs04/fc37/adam/projects/psilocybin-prl-analyses/src/prl_hgf/fitting/hierarchical_patrl.py" source_line=362}
  param_1.1571 = f64[] parameter(1)
  broadcast.3197.5 = f64[24,4]{1,0} broadcast(param_1.1571), dimensions={}, metadata={op_name="jit(scan)/jit(main)/while/body/jit(beliefs_propagation)/jit(continuous_node_posterior_update)/jit(posterior_update_precision_continuous_node)/cond/branch_0_fun/jit(precision_update_missing_values)/mul" source_file="/fs04/fc37/adam/projects/psilocybin-prl-analyses/src/prl_hgf/fitting/hierarchical_patrl.py" source_line=362}
  param_6.617 = f64[24,4]{1,0} parameter(6)
  param_8.440 = f64[4,1]{1,0} parameter(8)
  bitcast.3806.8.clone.1 = f64[4]{0} bitcast(param_8.440)
  broadcast.3198.3.clone.1 = f64[24,4]{1,0} broadcast(bitcast.3806.8.clone.1), dimensions={1}, metadata={op_name="jit(scan)/jit(main)/while/body/jit(beliefs_propagation)/jit(continuous_node_posterior_update)/jit(posterior_update_precision_continuous_node)/cond/branch_0_fun/jit(precision_update_missing_values)/mul" source_file="/fs04/fc37/adam/projects/psilocybin-prl-analyses/src/prl_hgf/fitting/hierarchical_patrl.py" source_line=362}
  param_7.519 = f64[24,4]{1,0} parameter(7)
  multiply.3483.1.clone.1 = f64[24,4]{1,0} multiply(broadcast.3198.3.clone.1, param_7.519), metadata={op_name="jit(scan)/jit(main)/while/body/jit(beliefs_propagation)/jit(continuous_node_posterior_update)/jit(posterior_update_precision_continuous_node)/cond/branch_0_fun/jit(precision_update_missing_values)/mul" source_file="/fs04/fc37/adam/projects/psilocybin-prl-analyses/src/prl_hgf/fitting/hierarchical_patrl.py" source_line=362}
  add.1025.1.clone.1 = f64[24,4]{1,0} add(param_6.617, multiply.3483.1.clone.1), metadata={op_name="jit(scan)/jit(main)/while/body/jit(beliefs_propagation)/jit(continuous_node_posterior_update)/jit(posterior_update_precision_continuous_node)/cond/branch_0_fun/jit(precision_update_missing_values)/add" source_file="/fs04/fc37/adam/projects/psilocybin-prl-analyses/src/prl_hgf/fitting/hierarchical_patrl.py" source_line=362}
  param_5.872 = f64[4]{0} parameter(5)
  broadcast.3199.1.clone.1 = f64[24,4]{1,0} broadcast(param_5.872), dimensions={1}, metadata={op_name="jit(scan)/jit(main)/while/body/jit(beliefs_propagation)/jit(continuous_node_posterior_update)/jit(posterior_update_precision_continuous_node)/cond/branch_0_fun/jit(precision_update_missing_values)/mul" source_file="/fs04/fc37/adam/projects/psilocybin-prl-analyses/src/prl_hgf/fitting/hierarchical_patrl.py" source_line=362}
  multiply.3484.1.clone.1 = f64[24,4]{1,0} multiply(add.1025.1.clone.1, broadcast.3199.1.clone.1), metadata={op_name="jit(scan)/jit(main)/while/body/jit(beliefs_propagation)/jit(continuous_node_posterior_update)/jit(posterior_update_precision_continuous_node)/cond/branch_0_fun/jit(precision_update_missing_values)/mul" source_file="/fs04/fc37/adam/projects/psilocybin-prl-analyses/src/prl_hgf/fitting/hierarchical_patrl.py" source_line=362}
  multiply.3485.5 = f64[24,4]{1,0} multiply(broadcast.3197.5, multiply.3484.1.clone.1), metadata={op_name="jit(scan)/jit(main)/while/body/jit(beliefs_propagation)/jit(continuous_node_posterior_update)/jit(posterior_update_precision_continuous_node)/cond/branch_0_fun/jit(precision_update_missing_values)/mul" source_file="/fs04/fc37/adam/projects/psilocybin-prl-analyses/src/prl_hgf/fitting/hierarchical_patrl.py" source_line=362}
  add.1026.5 = f64[24,4]{1,0} add(multiply.3482.7, multiply.3485.5), metadata={op_name="jit(scan)/jit(main)/while/body/jit(beliefs_propagation)/jit(continuous_node_posterior_update)/jit(posterior_update_precision_continuous_node)/cond/branch_0_fun/jit(precision_update_missing_values)/add" source_file="/fs04/fc37/adam/projects/psilocybin-prl-analyses/src/prl_hgf/fitting/hierarchical_patrl.py" source_line=362}
  negate.272.1 = f64[24,4]{1,0} negate(add.1026.5), metadata={op_name="jit(scan)/jit(main)/while/body/jit(beliefs_propagation)/jit(continuous_node_posterior_update)/jit(posterior_update_precision_continuous_node)/cond/branch_0_fun/jit(precision_update_missing_values)/neg" source_file="/fs04/fc37/adam/projects/psilocybin-prl-analyses/src/prl_hgf/fitting/hierarchical_patrl.py" source_line=362}
  param_0.14 = f64[4]{0} parameter(0)
  broadcast.3200.1 = f64[24,4]{1,0} broadcast(param_0.14), dimensions={1}, metadata={op_name="jit(scan)/jit(main)/while/body/jit(beliefs_propagation)/jit(continuous_node_posterior_update)/jit(posterior_update_precision_continuous_node)/cond/branch_0_fun/jit(precision_update_missing_values)/mul" source_file="/fs04/fc37/adam/projects/psilocybin-prl-analyses/src/prl_hgf/fitting/hierarchical_patrl.py" source_line=362}
  multiply.3486.1 = f64[24,4]{1,0} multiply(negate.272.1, broadcast.3200.1), metadata={op_name="jit(scan)/jit(main)/while/body/jit(beliefs_propagation)/jit(continuous_node_posterior_update)/jit(posterior_update_precision_continuous_node)/cond/branch_0_fun/jit(precision_update_missing_values)/mul" source_file="/fs04/fc37/adam/projects/psilocybin-prl-analyses/src/prl_hgf/fitting/hierarchical_patrl.py" source_line=362}
  constant_49_3_clone_1 = f64[] constant(1)
  broadcast.3193.5.clone.1 = f64[4]{0} broadcast(constant_49_3_clone_1), dimensions={}
  param_4.987 = f64[4]{0} parameter(4)
  multiply.3480.1.clone.1 = f64[4]{0} multiply(param_4.987, param_4.987), metadata={op_name="jit(scan)/jit(main)/while/body/jit(beliefs_propagation)/jit(continuous_node_posterior_update)/jit(posterior_update_precision_continuous_node)/cond/branch_0_fun/jit(precision_update_missing_values)/mul" source_file="/fs04/fc37/adam/projects/psilocybin-prl-analyses/src/prl_hgf/fitting/hierarchical_patrl.py" source_line=362}
  multiply.3487.1.clone.1 = f64[4]{0} multiply(param_4.987, multiply.3480.1.clone.1), metadata={op_name="jit(scan)/jit(main)/while/body/jit(beliefs_propagation)/jit(continuous_node_posterior_update)/jit(posterior_update_precision_continuous_node)/cond/branch_0_fun/jit(precision_update_missing_values)/mul" source_file="/fs04/fc37/adam/projects/psilocybin-prl-analyses/src/prl_hgf/fitting/hierarchical_patrl.py" source_line=362}
  divide.854.1.clone.1 = f64[4]{0} divide(broadcast.3193.5.clone.1, multiply.3487.1.clone.1), metadata={op_name="jit(scan)/jit(main)/while/body/jit(beliefs_propagation)/jit(continuous_node_posterior_update)/jit(posterior_update_precision_continuous_node)/cond/branch_0_fun/jit(precision_update_missing_values)/div" source_file="/fs04/fc37/adam/projects/psilocybin-prl-analyses/src/prl_hgf/fitting/hierarchical_patrl.py" source_line=362}
  constant_55_2_clone_1 = f64[] constant(-2)
  broadcast.3201.clone.7.clone.1 = f64[4]{0} broadcast(constant_55_2_clone_1), dimensions={}
  multiply.3488.3.clone.1 = f64[4]{0} multiply(divide.854.1.clone.1, broadcast.3201.clone.7.clone.1), metadata={op_name="jit(scan)/jit(main)/while/body/jit(beliefs_propagation)/jit(continuous_node_posterior_update)/jit(posterior_update_precision_continuous_node)/cond/branch_0_fun/jit(precision_update_missing_values)/mul" source_file="/fs04/fc37/adam/projects/psilocybin-prl-analyses/src/prl_hgf/fitting/hierarchical_patrl.py" source_line=362}
  broadcast.3202.1.clone.1 = f64[24,4]{1,0} broadcast(multiply.3488.3.clone.1), dimensions={1}, metadata={op_name="jit(scan)/jit(main)/while/body/jit(beliefs_propagation)/jit(continuous_node_posterior_update)/jit(posterior_update_precision_continuous_node)/cond/branch_0_fun/jit(precision_update_missing_values)/mul" source_file="/fs04/fc37/adam/projects/psilocybin-prl-analyses/src/prl_hgf/fitting/hierarchical_patrl.py" source_line=362}
  multiply.3489.1.clone.1 = f64[24,4]{1,0} multiply(param_3.1188, broadcast.3202.1.clone.1), metadata={op_name="jit(scan)/jit(main)/while/body/jit(beliefs_propagation)/jit(continuous_node_posterior_update)/jit(posterior_update_precision_continuous_node)/cond/branch_0_fun/jit(precision_update_missing_values)/mul" source_file="/fs04/fc37/adam/projects/psilocybin-prl-analyses/src/prl_hgf/fitting/hierarchical_patrl.py" source_line=362}
  divide.850.9.clone.1 = f64[4]{0} divide(broadcast.3193.5.clone.1, param_4.987), metadata={op_name="jit(scan)/jit(main)/while/body/jit(beliefs_propagation)/jit(continuous_node_posterior_update)/jit(posterior_update_precision_continuous_node)/cond/branch_0_fun/jit(precision_update_missing_values)/div" source_file="/fs04/fc37/adam/projects/psilocybin-prl-analyses/src/prl_hgf/fitting/hierarchical_patrl.py" source_line=362}
  broadcast.3194.7.clone.1 = f64[4]{0} broadcast(param_1.1571), dimensions={}, metadata={op_name="jit(scan)/jit(main)/while/body/jit(beliefs_propagation)/jit(continuous_node_posterior_update)/jit(posterior_update_precision_continuous_node)/cond/branch_0_fun/jit(precision_update_missing_values)/mul" source_file="/fs04/fc37/adam/projects/psilocybin-prl-analyses/src/prl_hgf/fitting/hierarchical_patrl.py" source_line=362}
  multiply.3479.7.clone.1 = f64[4]{0} multiply(broadcast.3194.7.clone.1, param_5.872), metadata={op_name="jit(scan)/jit(main)/while/body/jit(beliefs_propagation)/jit(continuous_node_posterior_update)/jit(posterior_update_precision_continuous_node)/cond/branch_0_fun/jit(precision_update_missing_values)/mul" source_file="/fs04/fc37/adam/projects/psilocybin-prl-analyses/src/prl_hgf/fitting/hierarchical_patrl.py" source_line=362}
  add.1024.7.clone.1 = f64[4]{0} add(divide.850.9.clone.1, multiply.3479.7.clone.1), metadata={op_name="jit(scan)/jit(main)/while/body/jit(beliefs_propagation)/jit(continuous_node_posterior_update)/jit(posterior_update_precision_continuous_node)/cond/branch_0_fun/jit(precision_update_missing_values)/add" source_file="/fs04/fc37/adam/projects/psilocybin-prl-analyses/src/prl_hgf/fitting/hierarchical_patrl.py" source_line=362}
  multiply.3481.1.clone.1 = f64[4]{0} multiply(add.1024.7.clone.1, add.1024.7.clone.1), metadata={op_name="jit(scan)/jit(main)/while/body/jit(beliefs_propagation)/jit(continuous_node_posterior_update)/jit(posterior_update_precision_continuous_node)/cond/branch_0_fun/jit(precision_update_missing_values)/mul" source_file="/fs04/fc37/adam/projects/psilocybin-prl-analyses/src/prl_hgf/fitting/hierarchical_patrl.py" source_line=362}
  multiply.3490.1.clone.1 = f64[4]{0} multiply(add.1024.7.clone.1, multiply.3481.1.clone.1), metadata={op_name="jit(scan)/jit(main)/while/body/jit(beliefs_propagation)/jit(continuous_node_posterior_update)/jit(posterior_update_precision_continuous_node)/cond/branch_0_fun/jit(precision_update_missing_values)/mul" source_file="/fs04/fc37/adam/projects/psilocybin-prl-analyses/src/prl_hgf/fitting/hierarchical_patrl.py" source_line=362}
  divide.855.1.clone.1 = f64[4]{0} divide(broadcast.3193.5.clone.1, multiply.3490.1.clone.1), metadata={op_name="jit(scan)/jit(main)/while/body/jit(beliefs_propagation)/jit(continuous_node_posterior_update)/jit(posterior_update_precision_continuous_node)/cond/branch_0_fun/jit(precision_update_missing_values)/div" source_file="/fs04/fc37/adam/projects/psilocybin-prl-analyses/src/prl_hgf/fitting/hierarchical_patrl.py" source_line=362}
  multiply.3491.3.clone.1 = f64[4]{0} multiply(divide.855.1.clone.1, broadcast.3201.clone.7.clone.1), metadata={op_name="jit(scan)/jit(main)/while/body/jit(beliefs_propagation)/jit(continuous_node_posterior_update)/jit(posterior_update_precision_continuous_node)/cond/branch_0_fun/jit(precision_update_missing_values)/mul" source_file="/fs04/fc37/adam/projects/psilocybin-prl-analyses/src/prl_hgf/fitting/hierarchical_patrl.py" source_line=362}
  broadcast.3203.1.clone.1 = f64[24,4]{1,0} broadcast(multiply.3491.3.clone.1), dimensions={1}, metadata={op_name="jit(scan)/jit(main)/while/body/jit(beliefs_propagation)/jit(continuous_node_posterior_update)/jit(posterior_update_precision_continuous_node)/cond/branch_0_fun/jit(precision_update_missing_values)/mul" source_file="/fs04/fc37/adam/projects/psilocybin-prl-analyses/src/prl_hgf/fitting/hierarchical_patrl.py" source_line=362}
  multiply.3492.1.clone.1 = f64[24,4]{1,0} multiply(add.1026.5, broadcast.3203.1.clone.1), metadata={op_name="jit(scan)/jit(main)/while/body/jit(beliefs_propagation)/jit(continuous_node_posterior_update)/jit(posterior_update_precision_continuous_node)/cond/branch_0_fun/jit(precision_update_missing_values)/mul" source_file="/fs04/fc37/adam/projects/psilocybin-prl-analyses/src/prl_hgf/fitting/hierarchical_patrl.py" source_line=362}
  ROOT tuple.237 = (f64[24,4]{1,0}, f64[24,4]{1,0}, f64[24,4]{1,0}, f64[24,4]{1,0}) tuple(multiply.3486.1, multiply.3489.1.clone.1, multiply.3492.1.clone.1, multiply.3484.1.clone.1)
} // fused_multiply

fused_divide_exponential {
  constant_49_2 = f64[] constant(1)
  broadcast.3193.1 = f64[4]{0} broadcast(constant_49_2), dimensions={}
  param_1.1572 = f64[4]{0} parameter(1)
  divide.850.7 = f64[4]{0} divide(broadcast.3193.1, param_1.1572), metadata={op_name="jit(scan)/jit(main)/while/body/jit(beliefs_propagation)/jit(continuous_node_posterior_update)/jit(posterior_update_precision_continuous_node)/cond/branch_0_fun/jit(precision_update_missing_values)/div" source_file="/fs04/fc37/adam/projects/psilocybin-prl-analyses/src/prl_hgf/fitting/hierarchical_patrl.py" source_line=362}
  param_0.1062 = f64[] parameter(0)
  broadcast.3194.5 = f64[4]{0} broadcast(param_0.1062), dimensions={}, metadata={op_name="jit(scan)/jit(main)/while/body/jit(beliefs_propagation)/jit(continuous_node_posterior_update)/jit(posterior_update_precision_continuous_node)/cond/branch_0_fun/jit(precision_update_missing_values)/mul" source_file="/fs04/fc37/adam/projects/psilocybin-prl-analyses/src/prl_hgf/fitting/hierarchical_patrl.py" source_line=362}
  param_2.1383 = f64[4]{0} parameter(2)
  param_4.993 = f64[4,1]{1,0} parameter(4)
  bitcast.3806.6.clone.1 = f64[4]{0} bitcast(param_4.993)
  param_3.1195 = f64[4]{0} parameter(3)
  multiply.3478.5.clone.1 = f64[4]{0} multiply(bitcast.3806.6.clone.1, param_3.1195), metadata={op_name="jit(scan)/jit(main)/while/body/jit(beliefs_propagation)/jit(continuous_node_posterior_update)/jit(posterior_update_precision_continuous_node)/cond/branch_0_fun/jit(precision_update_missing_values)/mul" source_file="/fs04/fc37/adam/projects/psilocybin-prl-analyses/src/prl_hgf/fitting/hierarchical_patrl.py" source_line=362}
  add.1023.3.clone.1 = f64[4]{0} add(param_2.1383, multiply.3478.5.clone.1), metadata={op_name="jit(scan)/jit(main)/while/body/jit(beliefs_propagation)/jit(continuous_node_posterior_update)/jit(posterior_update_precision_continuous_node)/cond/branch_0_fun/jit(precision_update_missing_values)/add" source_file="/fs04/fc37/adam/projects/psilocybin-prl-analyses/src/prl_hgf/fitting/hierarchical_patrl.py" source_line=362}
  exponential.73.1.clone.1 = f64[4]{0} exponential(add.1023.3.clone.1), metadata={op_name="jit(scan)/jit(main)/while/body/jit(beliefs_propagation)/jit(continuous_node_posterior_update)/jit(posterior_update_precision_continuous_node)/cond/branch_0_fun/jit(precision_update_missing_values)/exp" source_file="/fs04/fc37/adam/projects/psilocybin-prl-analyses/src/prl_hgf/fitting/hierarchical_patrl.py" source_line=362}
  multiply.3479.5 = f64[4]{0} multiply(broadcast.3194.5, exponential.73.1.clone.1), metadata={op_name="jit(scan)/jit(main)/while/body/jit(beliefs_propagation)/jit(continuous_node_posterior_update)/jit(posterior_update_precision_continuous_node)/cond/branch_0_fun/jit(precision_update_missing_values)/mul" source_file="/fs04/fc37/adam/projects/psilocybin-prl-analyses/src/prl_hgf/fitting/hierarchical_patrl.py" source_line=362}
  add.1024.5 = f64[4]{0} add(divide.850.7, multiply.3479.5), metadata={op_name="jit(scan)/jit(main)/while/body/jit(beliefs_propagation)/jit(continuous_node_posterior_update)/jit(posterior_update_precision_continuous_node)/cond/branch_0_fun/jit(precision_update_missing_values)/add" source_file="/fs04/fc37/adam/projects/psilocybin-prl-analyses/src/prl_hgf/fitting/hierarchical_patrl.py" source_line=362}
  divide.851.1 = f64[4]{0} divide(broadcast.3193.1, add.1024.5), metadata={op_name="jit(scan)/jit(main)/while/body/jit(beliefs_propagation)/jit(continuous_node_posterior_update)/jit(posterior_update_precision_continuous_node)/cond/branch_0_fun/jit(precision_update_missing_values)/div" source_file="/fs04/fc37/adam/projects/psilocybin-prl-analyses/src/prl_hgf/fitting/hierarchical_patrl.py" source_line=362}
  multiply.3480.2.clone.1 = f64[4]{0} multiply(param_1.1572, param_1.1572), metadata={op_name="jit(scan)/jit(main)/while/body/jit(beliefs_propagation)/jit(continuous_node_posterior_update)/jit(posterior_update_precision_continuous_node)/cond/branch_0_fun/jit(precision_update_missing_values)/mul" source_file="/fs04/fc37/adam/projects/psilocybin-prl-analyses/src/prl_hgf/fitting/hierarchical_patrl.py" source_line=362}
  divide.852.1.clone.1 = f64[4]{0} divide(broadcast.3193.1, multiply.3480.2.clone.1), metadata={op_name="jit(scan)/jit(main)/while/body/jit(beliefs_propagation)/jit(continuous_node_posterior_update)/jit(posterior_update_precision_continuous_node)/cond/branch_0_fun/jit(precision_update_missing_values)/div" source_file="/fs04/fc37/adam/projects/psilocybin-prl-analyses/src/prl_hgf/fitting/hierarchical_patrl.py" source_line=362}
  multiply.3481.2.clone.1 = f64[4]{0} multiply(add.1024.5, add.1024.5), metadata={op_name="jit(scan)/jit(main)/while/body/jit(beliefs_propagation)/jit(continuous_node_posterior_update)/jit(posterior_update_precision_continuous_node)/cond/branch_0_fun/jit(precision_update_missing_values)/mul" source_file="/fs04/fc37/adam/projects/psilocybin-prl-analyses/src/prl_hgf/fitting/hierarchical_patrl.py" source_line=362}
  divide.853.1.clone.1 = f64[4]{0} divide(broadcast.3193.1, multiply.3481.2.clone.1), metadata={op_name="jit(scan)/jit(main)/while/body/jit(beliefs_propagation)/jit(continuous_node_posterior_update)/jit(posterior_update_precision_continuous_node)/cond/branch_0_fun/jit(precision_update_missing_values)/div" source_file="/fs04/fc37/adam/projects/psilocybin-prl-analyses/src/prl_hgf/fitting/hierarchical_patrl.py" source_line=362}
  ROOT tuple.240 = (f64[4]{0}, f64[4]{0}, f64[4]{0}, f64[4]{0}) tuple(divide.851.1, divide.852.1.clone.1, divide.853.1.clone.1, exponential.73.1.clone.1)
} // fused_divide_exponential

fused_broadcast {
  constant_737_1 = pred[] constant(false)
  ROOT broadcast.3195.1 = pred[4]{0} broadcast(constant_737_1), dimensions={}
}

wrapped_copy_computation.6 {
  param_0.1243 = f64[4]{0} parameter(0)
  ROOT copy.976 = f64[4]{0} copy(param_0.1243)
}

region_2.727 {
  arg_tuple.728.0 = (f64[], f64[4]{0}, f64[4]{0}, f64[4,1]{1,0}, f64[4]{0}, /*index=5*/f64[24,4]{1,0}, f64[24,4]{1,0}, f64[24,4]{1,0}) parameter(0)
  get-tuple-element.11673 = f64[] get-tuple-element(arg_tuple.728.0), index=0
  get-tuple-element.732.0 = f64[4,1]{1,0} get-tuple-element(arg_tuple.728.0), index=3
  get-tuple-element.730.0 = f64[4]{0} get-tuple-element(arg_tuple.728.0), index=1
  bitcast.3806.0 = f64[4]{0} bitcast(get-tuple-element.732.0)
  get-tuple-element.736.0 = f64[24,4]{1,0} get-tuple-element(arg_tuple.728.0), index=7
  get-tuple-element.735.0 = f64[24,4]{1,0} get-tuple-element(arg_tuple.728.0), index=6
  get-tuple-element.734.0 = f64[24,4]{1,0} get-tuple-element(arg_tuple.728.0), index=5
  get-tuple-element.733.0 = f64[4]{0} get-tuple-element(arg_tuple.728.0), index=4
  get-tuple-element.731.0 = f64[4]{0} get-tuple-element(arg_tuple.728.0), index=2
  loop_broadcast_fusion = pred[4]{0} fusion(), kind=kLoop, calls=fused_broadcast
  wrapped_copy.6 = f64[4]{0} fusion(bitcast.3806.0), kind=kLoop, calls=wrapped_copy_computation.6
  loop_divide_exponential_fusion = (f64[4]{0}, f64[4]{0}, f64[4]{0}, f64[4]{0}) fusion(get-tuple-element.11673, get-tuple-element.730.0, get-tuple-element.731.0, get-tuple-element.733.0, get-tuple-element.732.0), kind=kLoop, calls=fused_divide_exponential, metadata={op_name="jit(scan)/jit(main)/while/body/jit(beliefs_propagation)/jit(continuous_node_posterior_update)/jit(posterior_update_precision_continuous_node)/cond/branch_0_fun/jit(precision_update_missing_values)/div" source_file="/fs04/fc37/adam/projects/psilocybin-prl-analyses/src/prl_hgf/fitting/hierarchical_patrl.py" source_line=362}
  get-tuple-element.11675 = f64[4]{0} get-tuple-element(loop_divide_exponential_fusion), index=3, metadata={op_name="jit(scan)/jit(main)/while/body/jit(beliefs_propagation)/jit(continuous_node_posterior_update)/jit(posterior_update_precision_continuous_node)/cond/branch_0_fun/jit(precision_update_missing_values)/div" source_file="/fs04/fc37/adam/projects/psilocybin-prl-analyses/src/prl_hgf/fitting/hierarchical_patrl.py" source_line=362}
  get-tuple-element.11676 = f64[4]{0} get-tuple-element(loop_divide_exponential_fusion), index=2, metadata={op_name="jit(scan)/jit(main)/while/body/jit(beliefs_propagation)/jit(continuous_node_posterior_update)/jit(posterior_update_precision_continuous_node)/cond/branch_0_fun/jit(precision_update_missing_values)/div" source_file="/fs04/fc37/adam/projects/psilocybin-prl-analyses/src/prl_hgf/fitting/hierarchical_patrl.py" source_line=362}
  get-tuple-element.11672 = f64[4]{0} get-tuple-element(loop_divide_exponential_fusion), index=1, metadata={op_name="jit(scan)/jit(main)/while/body/jit(beliefs_propagation)/jit(continuous_node_posterior_update)/jit(posterior_update_precision_continuous_node)/cond/branch_0_fun/jit(precision_update_missing_values)/div" source_file="/fs04/fc37/adam/projects/psilocybin-prl-analyses/src/prl_hgf/fitting/hierarchical_patrl.py" source_line=362}
  get-tuple-element.11671 = f64[4]{0} get-tuple-element(loop_divide_exponential_fusion), index=0, metadata={op_name="jit(scan)/jit(main)/while/body/jit(beliefs_propagation)/jit(continuous_node_posterior_update)/jit(posterior_update_precision_continuous_node)/cond/branch_0_fun/jit(precision_update_missing_values)/div" source_file="/fs04/fc37/adam/projects/psilocybin-prl-analyses/src/prl_hgf/fitting/hierarchical_patrl.py" source_line=362}
  loop_multiply_fusion = (f64[24,4]{1,0}, f64[24,4]{1,0}, f64[24,4]{1,0}, f64[24,4]{1,0}) fusion(get-tuple-element.11676, get-tuple-element.11673, get-tuple-element.11672, get-tuple-element.734.0, get-tuple-element.730.0, /*index=5*/get-tuple-element.11675, get-tuple-element.735.0, get-tuple-element.736.0, get-tuple-element.732.0), kind=kLoop, calls=fused_multiply, metadata={op_name="jit(scan)/jit(main)/while/body/jit(beliefs_propagation)/jit(continuous_node_posterior_update)/jit(posterior_update_precision_continuous_node)/cond/branch_0_fun/jit(precision_update_missing_values)/mul" source_file="/fs04/fc37/adam/projects/psilocybin-prl-analyses/src/prl_hgf/fitting/hierarchical_patrl.py" source_line=362}
  get-tuple-element.11680 = f64[24,4]{1,0} get-tuple-element(loop_multiply_fusion), index=3, metadata={op_name="jit(scan)/jit(main)/while/body/jit(beliefs_propagation)/jit(continuous_node_posterior_update)/jit(posterior_update_precision_continuous_node)/cond/branch_0_fun/jit(precision_update_missing_values)/mul" source_file="/fs04/fc37/adam/projects/psilocybin-prl-analyses/src/prl_hgf/fitting/hierarchical_patrl.py" source_line=362}
  get-tuple-element.11681 = f64[24,4]{1,0} get-tuple-element(loop_multiply_fusion), index=2, metadata={op_name="jit(scan)/jit(main)/while/body/jit(beliefs_propagation)/jit(continuous_node_posterior_update)/jit(posterior_update_precision_continuous_node)/cond/branch_0_fun/jit(precision_update_missing_values)/mul" source_file="/fs04/fc37/adam/projects/psilocybin-prl-analyses/src/prl_hgf/fitting/hierarchical_patrl.py" source_line=362}
  get-tuple-element.11679 = f64[24,4]{1,0} get-tuple-element(loop_multiply_fusion), index=1, metadata={op_name="jit(scan)/jit(main)/while/body/jit(beliefs_propagation)/jit(continuous_node_posterior_update)/jit(posterior_update_precision_continuous_node)/cond/branch_0_fun/jit(precision_update_missing_values)/mul" source_file="/fs04/fc37/adam/projects/psilocybin-prl-analyses/src/prl_hgf/fitting/hierarchical_patrl.py" source_line=362}
  get-tuple-element.11678 = f64[24,4]{1,0} get-tuple-element(loop_multiply_fusion), index=0, metadata={op_name="jit(scan)/jit(main)/while/body/jit(beliefs_propagation)/jit(continuous_node_posterior_update)/jit(posterior_update_precision_continuous_node)/cond/branch_0_fun/jit(precision_update_missing_values)/mul" source_file="/fs04/fc37/adam/projects/psilocybin-prl-analyses/src/prl_hgf/fitting/hierarchical_patrl.py" source_line=362}
  ROOT tuple.309 = (f64[4]{0}, f64[4]{0}, f64[], f64[4]{0}, f64[4]{0}, /*index=5*/f64[4]{0}, pred[4]{0}, f64[24,4]{1,0}, f64[24,4]{1,0}, f64[24,4]{1,0}, /*index=10*/f64[24,4]{1,0}) tuple(get-tuple-element.11671, get-tuple-element.11672, get-tuple-element.11673, wrapped_copy.6, get-tuple-element.11675, /*index=5*/get-tuple-element.11676, loop_broadcast_fusion, get-tuple-element.11678, get-tuple-element.11679, get-tuple-element.11680, /*index=10*/get-tuple-element.11681)
} // region_2.727

wrapped_convert_computation {
  param_0.1244 = s32[] parameter(0)
  ROOT convert.103.1 = f64[] convert(param_0.1244), metadata={op_name="jit(scan)/jit(main)/while/body/jit(beliefs_propagation)/jit(continuous_node_posterior_update)/jit(posterior_update_precision_continuous_node)/cond/branch_1_fun/jit(precision_update)/convert_element_type[new_dtype=float64 weak_type=False sharding=None]" source_file="/fs04/fc37/adam/projects/psilocybin-prl-analyses/src/prl_hgf/fitting/hierarchical_patrl.py" source_line=362}
}

fused_broadcast.1 {
  constant_806_2 = f64[] constant(0)
  ROOT broadcast.3207.1 = f64[4]{0} broadcast(constant_806_2), dimensions={}
}

wrapped_copy_computation.7 {
  param_0.1245 = f64[4]{0} parameter(0)
  ROOT copy.977 = f64[4]{0} copy(param_0.1245)
}

wrapped_copy_computation.8 {
  param_0.1246 = f64[4]{0} parameter(0)
  ROOT copy.978 = f64[4]{0} copy(param_0.1246)
}

fused_compare_multiply_select {
  param_0.1064 = f64[4]{0} parameter(0)
  param_3.1197 = f64[4,1]{1,0} parameter(3)
  multiply.3493.6.clone.1 = f64[4,1]{1,0} multiply(param_3.1197, param_3.1197), metadata={op_name="jit(scan)/jit(main)/while/body/jit(beliefs_propagation)/jit(continuous_node_posterior_update)/jit(posterior_update_precision_continuous_node)/cond/branch_1_fun/jit(precision_update)/integer_pow[y=2]" source_file="/fs04/fc37/adam/projects/psilocybin-prl-analyses/src/prl_hgf/fitting/hierarchical_patrl.py" source_line=362}
  bitcast.3901.10.clone.1 = f64[4]{0} bitcast(multiply.3493.6.clone.1)
  param_2.1385 = f64[4]{0} parameter(2)
  multiply.3494.9.clone.1 = f64[4]{0} multiply(bitcast.3901.10.clone.1, param_2.1385), metadata={op_name="jit(scan)/jit(main)/while/body/jit(beliefs_propagation)/jit(continuous_node_posterior_update)/jit(posterior_update_precision_continuous_node)/cond/branch_1_fun/jit(precision_update)/mul" source_file="/fs04/fc37/adam/projects/psilocybin-prl-analyses/src/prl_hgf/fitting/hierarchical_patrl.py" source_line=362}
  param_1.1574 = f64[] parameter(1)
  broadcast.3204.7.clone.1 = f64[4]{0} broadcast(param_1.1574), dimensions={}, metadata={op_name="jit(scan)/jit(main)/while/body/jit(beliefs_propagation)/jit(continuous_node_posterior_update)/jit(posterior_update_precision_continuous_node)/cond/branch_1_fun/jit(precision_update)/mul" source_file="/fs04/fc37/adam/projects/psilocybin-prl-analyses/src/prl_hgf/fitting/hierarchical_patrl.py" source_line=362}
  multiply.3495.7.clone.1 = f64[4]{0} multiply(multiply.3494.9.clone.1, broadcast.3204.7.clone.1), metadata={op_name="jit(scan)/jit(main)/while/body/jit(beliefs_propagation)/jit(continuous_node_posterior_update)/jit(posterior_update_precision_continuous_node)/cond/branch_1_fun/jit(precision_update)/mul" source_file="/fs04/fc37/adam/projects/psilocybin-prl-analyses/src/prl_hgf/fitting/hierarchical_patrl.py" source_line=362}
  add.1027.5.clone.1 = f64[4]{0} add(param_0.1064, multiply.3495.7.clone.1), metadata={op_name="jit(scan)/jit(main)/while/body/jit(beliefs_propagation)/jit(continuous_node_posterior_update)/jit(posterior_update_precision_continuous_node)/cond/branch_1_fun/jit(precision_update)/add" source_file="/fs04/fc37/adam/projects/psilocybin-prl-analyses/src/prl_hgf/fitting/hierarchical_patrl.py" source_line=362}
  constant_60_1_clone_1 = f64[] constant(1e-128)
  broadcast.3205.1.clone.1 = f64[4]{0} broadcast(constant_60_1_clone_1), dimensions={}
  compare.372.1.clone.1 = pred[4]{0} compare(add.1027.5.clone.1, broadcast.3205.1.clone.1), direction=GT, metadata={op_name="jit(scan)/jit(main)/while/body/jit(beliefs_propagation)/jit(continuous_node_posterior_update)/jit(posterior_update_precision_continuous_node)/cond/branch_1_fun/jit(precision_update)/gt" source_file="/fs04/fc37/adam/projects/psilocybin-prl-analyses/src/prl_hgf/fitting/hierarchical_patrl.py" source_line=362}
  constant_61_1 = f64[] constant(nan)
  broadcast.3206.1 = f64[4]{0} broadcast(constant_61_1), dimensions={}, metadata={op_name="jit(scan)/jit(main)/while/body/jit(beliefs_propagation)/jit(continuous_node_posterior_update)/jit(posterior_update_precision_continuous_node)/cond/branch_1_fun/jit(precision_update)/jit(_where)/broadcast_in_dim[shape=(4,) broadcast_dimensions=()]" source_file="/fs04/fc37/adam/projects/psilocybin-prl-analyses/src/prl_hgf/env/pat_rl_simulator.py" source_line=92}
  select.1283.1 = f64[4]{0} select(compare.372.1.clone.1, add.1027.5.clone.1, broadcast.3206.1), metadata={op_name="jit(scan)/jit(main)/while/body/jit(beliefs_propagation)/jit(continuous_node_posterior_update)/jit(posterior_update_precision_continuous_node)/cond/branch_1_fun/jit(precision_update)/jit(_where)/select_n" source_file="/fs04/fc37/adam/projects/psilocybin-prl-analyses/src/prl_hgf/env/pat_rl_simulator.py" source_line=92}
  ROOT tuple.243 = (f64[4]{0}, pred[4]{0}, f64[4,1]{1,0}) tuple(select.1283.1, compare.372.1.clone.1, multiply.3493.6.clone.1)
} // fused_compare_multiply_select

fused_broadcast_select {
  param_0.1063 = pred[4]{0} parameter(0)
  broadcast.3208.1 = pred[24,4]{1,0} broadcast(param_0.1063), dimensions={1}, metadata={op_name="jit(scan)/jit(main)/while/body/jit(beliefs_propagation)/jit(continuous_node_posterior_update)/jit(posterior_update_precision_continuous_node)/cond/branch_1_fun/jit(precision_update)/jit(_where)/broadcast_in_dim[shape=(24, 4) broadcast_dimensions=(np.int64(1),)]" source_file="/fs04/fc37/adam/projects/psilocybin-prl-analyses/src/prl_hgf/env/pat_rl_simulator.py" source_line=92}
  param_1.1573 = f64[24,4]{1,0} parameter(1)
  param_4.994 = f64[4,1]{1,0} parameter(4)
  multiply.3493.8 = f64[4,1]{1,0} multiply(param_4.994, param_4.994), metadata={op_name="jit(scan)/jit(main)/while/body/jit(beliefs_propagation)/jit(continuous_node_posterior_update)/jit(posterior_update_precision_continuous_node)/cond/branch_1_fun/jit(precision_update)/integer_pow[y=2]" source_file="/fs04/fc37/adam/projects/psilocybin-prl-analyses/src/prl_hgf/fitting/hierarchical_patrl.py" source_line=362}
  bitcast.3901.12 = f64[4]{0} bitcast(multiply.3493.8)
  broadcast.3209.3 = f64[24,4]{1,0} broadcast(bitcast.3901.12), dimensions={1}, metadata={op_name="jit(scan)/jit(main)/while/body/jit(beliefs_propagation)/jit(continuous_node_posterior_update)/jit(posterior_update_precision_continuous_node)/cond/branch_1_fun/jit(precision_update)/mul" source_file="/fs04/fc37/adam/projects/psilocybin-prl-analyses/src/prl_hgf/fitting/hierarchical_patrl.py" source_line=362}
  param_2.1384 = f64[24,4]{1,0} parameter(2)
  multiply.3496.1 = f64[24,4]{1,0} multiply(broadcast.3209.3, param_2.1384), metadata={op_name="jit(scan)/jit(main)/while/body/jit(beliefs_propagation)/jit(continuous_node_posterior_update)/jit(posterior_update_precision_continuous_node)/cond/branch_1_fun/jit(precision_update)/mul" source_file="/fs04/fc37/adam/projects/psilocybin-prl-analyses/src/prl_hgf/fitting/hierarchical_patrl.py" source_line=362}
  param_3.1196 = f64[] parameter(3)
  broadcast.3210.1 = f64[24,4]{1,0} broadcast(param_3.1196), dimensions={}, metadata={op_name="jit(scan)/jit(main)/while/body/jit(beliefs_propagation)/jit(continuous_node_posterior_update)/jit(posterior_update_precision_continuous_node)/cond/branch_1_fun/jit(precision_update)/mul" source_file="/fs04/fc37/adam/projects/psilocybin-prl-analyses/src/prl_hgf/fitting/hierarchical_patrl.py" source_line=362}
  multiply.3497.1 = f64[24,4]{1,0} multiply(multiply.3496.1, broadcast.3210.1), metadata={op_name="jit(scan)/jit(main)/while/body/jit(beliefs_propagation)/jit(continuous_node_posterior_update)/jit(posterior_update_precision_continuous_node)/cond/branch_1_fun/jit(precision_update)/mul" source_file="/fs04/fc37/adam/projects/psilocybin-prl-analyses/src/prl_hgf/fitting/hierarchical_patrl.py" source_line=362}
  add.1028.1 = f64[24,4]{1,0} add(param_1.1573, multiply.3497.1), metadata={op_name="jit(scan)/jit(main)/while/body/jit(beliefs_propagation)/jit(continuous_node_posterior_update)/jit(posterior_update_precision_continuous_node)/cond/branch_1_fun/jit(precision_update)/add" source_file="/fs04/fc37/adam/projects/psilocybin-prl-analyses/src/prl_hgf/fitting/hierarchical_patrl.py" source_line=362}
  constant_806_1_clone_1 = f64[] constant(0)
  broadcast.3211.clone.2.1.clone.1 = f64[24,4]{1,0} broadcast(constant_806_1_clone_1), dimensions={}
  select.1284.1 = f64[24,4]{1,0} select(broadcast.3208.1, add.1028.1, broadcast.3211.clone.2.1.clone.1), metadata={op_name="jit(scan)/jit(main)/while/body/jit(beliefs_propagation)/jit(continuous_node_posterior_update)/jit(posterior_update_precision_continuous_node)/cond/branch_1_fun/jit(precision_update)/jit(_where)/select_n" source_file="/fs04/fc37/adam/projects/psilocybin-prl-analyses/src/prl_hgf/env/pat_rl_simulator.py" source_line=92}
  ROOT tuple.241 = (f64[24,4]{1,0}, f64[24,4]{1,0}) tuple(select.1284.1, broadcast.3211.clone.2.1.clone.1)
} // fused_broadcast_select

wrapped_copy_computation.9 {
  param_0.1247 = f64[24,4]{1,0} parameter(0)
  ROOT copy.979 = f64[24,4]{1,0} copy(param_0.1247)
}

wrapped_copy_computation.10 {
  param_0.1248 = f64[24,4]{1,0} parameter(0)
  ROOT copy.980 = f64[24,4]{1,0} copy(param_0.1248)
}

command_buffer.8 {
  p.500 = s32[] parameter(0)
  p.501 = (f64[4]{0}, s32[], f64[4]{0}, f64[4,1]{1,0}, f64[24,4]{1,0}, /*index=5*/f64[24,4]{1,0}) parameter(1)
  wrapped_convert = f64[] fusion(p.500), kind=kLoop, calls=wrapped_convert_computation, metadata={op_name="jit(scan)/jit(main)/while/body/jit(beliefs_propagation)/jit(continuous_node_posterior_update)/jit(posterior_update_precision_continuous_node)/cond/branch_1_fun/jit(precision_update)/convert_element_type[new_dtype=float64 weak_type=False sharding=None]" source_file="/fs04/fc37/adam/projects/psilocybin-prl-analyses/src/prl_hgf/fitting/hierarchical_patrl.py" source_line=362}
  get-tuple-element.803.0 = f64[4,1]{1,0} get-tuple-element(p.501), index=3, metadata={op_name="jit(scan)/jit(main)/while/body/jit(beliefs_propagation)/jit(continuous_node_posterior_update)/jit(posterior_update_precision_continuous_node)/cond/branch_1_fun/jit(precision_update)/squeeze[dimensions=(1,)]" source_file="/fs04/fc37/adam/projects/psilocybin-prl-analyses/src/prl_hgf/fitting/hierarchical_patrl.py" source_line=362}
  get-tuple-element.805.0 = f64[24,4]{1,0} get-tuple-element(p.501), index=5
  get-tuple-element.804.0 = f64[24,4]{1,0} get-tuple-element(p.501), index=4
  get-tuple-element.802.0 = f64[4]{0} get-tuple-element(p.501), index=2
  get-tuple-element.800.0 = f64[4]{0} get-tuple-element(p.501), index=0
  loop_broadcast_fusion.1 = f64[4]{0} fusion(), kind=kLoop, calls=fused_broadcast.1
  wrapped_copy.7 = f64[4]{0} fusion(loop_broadcast_fusion.1), kind=kLoop, calls=wrapped_copy_computation.7
  wrapped_copy.8 = f64[4]{0} fusion(loop_broadcast_fusion.1), kind=kLoop, calls=wrapped_copy_computation.8
  loop_compare_multiply_select_fusion = (f64[4]{0}, pred[4]{0}, f64[4,1]{1,0}) fusion(get-tuple-element.802.0, wrapped_convert, get-tuple-element.800.0, get-tuple-element.803.0), kind=kLoop, calls=fused_compare_multiply_select, metadata={op_name="jit(scan)/jit(main)/while/body/jit(beliefs_propagation)/jit(continuous_node_posterior_update)/jit(posterior_update_precision_continuous_node)/cond/branch_1_fun/jit(precision_update)/jit(_where)/select_n" source_file="/fs04/fc37/adam/projects/psilocybin-prl-analyses/src/prl_hgf/env/pat_rl_simulator.py" source_line=92}
  get-tuple-element.11688 = pred[4]{0} get-tuple-element(loop_compare_multiply_select_fusion), index=1, metadata={op_name="jit(scan)/jit(main)/while/body/jit(beliefs_propagation)/jit(continuous_node_posterior_update)/jit(posterior_update_precision_continuous_node)/cond/branch_1_fun/jit(precision_update)/jit(_where)/select_n" source_file="/fs04/fc37/adam/projects/psilocybin-prl-analyses/src/prl_hgf/env/pat_rl_simulator.py" source_line=92}
  get-tuple-element.11598 = f64[4,1]{1,0} get-tuple-element(loop_compare_multiply_select_fusion), index=2, metadata={op_name="jit(scan)/jit(main)/while/body/jit(beliefs_propagation)/jit(continuous_node_posterior_update)/jit(posterior_update_precision_continuous_node)/cond/branch_1_fun/jit(precision_update)/jit(_where)/select_n" source_file="/fs04/fc37/adam/projects/psilocybin-prl-analyses/src/prl_hgf/env/pat_rl_simulator.py" source_line=92}
  get-tuple-element.11682 = f64[4]{0} get-tuple-element(loop_compare_multiply_select_fusion), index=0, metadata={op_name="jit(scan)/jit(main)/while/body/jit(beliefs_propagation)/jit(continuous_node_posterior_update)/jit(posterior_update_precision_continuous_node)/cond/branch_1_fun/jit(precision_update)/jit(_where)/select_n" source_file="/fs04/fc37/adam/projects/psilocybin-prl-analyses/src/prl_hgf/env/pat_rl_simulator.py" source_line=92}
  bitcast.3901.0 = f64[4]{0} bitcast(get-tuple-element.11598)
  loop_broadcast_select_fusion = (f64[24,4]{1,0}, f64[24,4]{1,0}) fusion(get-tuple-element.11688, get-tuple-element.805.0, get-tuple-element.804.0, wrapped_convert, get-tuple-element.803.0), kind=kLoop, calls=fused_broadcast_select, metadata={op_name="jit(scan)/jit(main)/while/body/jit(beliefs_propagation)/jit(continuous_node_posterior_update)/jit(posterior_update_precision_continuous_node)/cond/branch_1_fun/jit(precision_update)/jit(_where)/select_n" source_file="/fs04/fc37/adam/projects/psilocybin-prl-analyses/src/prl_hgf/env/pat_rl_simulator.py" source_line=92}
  get-tuple-element.11692 = f64[24,4]{1,0} get-tuple-element(loop_broadcast_select_fusion), index=1, metadata={op_name="jit(scan)/jit(main)/while/body/jit(beliefs_propagation)/jit(continuous_node_posterior_update)/jit(posterior_update_precision_continuous_node)/cond/branch_1_fun/jit(precision_update)/jit(_where)/select_n" source_file="/fs04/fc37/adam/projects/psilocybin-prl-analyses/src/prl_hgf/env/pat_rl_simulator.py" source_line=92}
  get-tuple-element.11689 = f64[24,4]{1,0} get-tuple-element(loop_broadcast_select_fusion), index=0, metadata={op_name="jit(scan)/jit(main)/while/body/jit(beliefs_propagation)/jit(continuous_node_posterior_update)/jit(posterior_update_precision_continuous_node)/cond/branch_1_fun/jit(precision_update)/jit(_where)/select_n" source_file="/fs04/fc37/adam/projects/psilocybin-prl-analyses/src/prl_hgf/env/pat_rl_simulator.py" source_line=92}
  wrapped_copy.9 = f64[24,4]{1,0} fusion(get-tuple-element.11692), kind=kLoop, calls=wrapped_copy_computation.9
  wrapped_copy.10 = f64[24,4]{1,0} fusion(get-tuple-element.11692), kind=kLoop, calls=wrapped_copy_computation.10
  ROOT tuple.339 = (f64[], f64[4]{0}, f64[4]{0}, f64[4]{0}, pred[4]{0}, /*index=5*/f64[4]{0}, f64[4]{0}, f64[24,4]{1,0}, f64[24,4]{1,0}, f64[24,4]{1,0}, /*index=10*/f64[24,4]{1,0}) tuple(wrapped_convert, loop_broadcast_fusion.1, wrapped_copy.7, wrapped_copy.8, get-tuple-element.11688, /*index=5*/get-tuple-element.11682, bitcast.3901.0, get-tuple-element.11692, get-tuple-element.11689, wrapped_copy.9, /*index=10*/wrapped_copy.10)
} // command_buffer.8

region_3.798 {
  arg_tuple.799.0 = (f64[4]{0}, s32[], f64[4]{0}, f64[4,1]{1,0}, f64[24,4]{1,0}, /*index=5*/f64[24,4]{1,0}) parameter(0)
  get-tuple-element.801.0 = s32[] get-tuple-element(arg_tuple.799.0), index=1
  call.4 = (f64[], f64[4]{0}, f64[4]{0}, f64[4]{0}, pred[4]{0}, /*index=5*/f64[4]{0}, f64[4]{0}, f64[24,4]{1,0}, f64[24,4]{1,0}, f64[24,4]{1,0}, /*index=10*/f64[24,4]{1,0}) call(get-tuple-element.801.0, arg_tuple.799.0), to_apply=command_buffer.8
  get-tuple-element.13324 = f64[] get-tuple-element(call.4), index=0
  get-tuple-element.13325 = f64[4]{0} get-tuple-element(call.4), index=1
  get-tuple-element.13326 = f64[4]{0} get-tuple-element(call.4), index=2
  get-tuple-element.13327 = f64[4]{0} get-tuple-element(call.4), index=3
  get-tuple-element.13328 = pred[4]{0} get-tuple-element(call.4), index=4
  get-tuple-element.13329 = f64[4]{0} get-tuple-element(call.4), index=5
  get-tuple-element.13330 = f64[4]{0} get-tuple-element(call.4), index=6
  get-tuple-element.13331 = f64[24,4]{1,0} get-tuple-element(call.4), index=7
  get-tuple-element.13332 = f64[24,4]{1,0} get-tuple-element(call.4), index=8
  get-tuple-element.13333 = f64[24,4]{1,0} get-tuple-element(call.4), index=9
  get-tuple-element.13334 = f64[24,4]{1,0} get-tuple-element(call.4), index=10
  ROOT tuple.310 = (f64[4]{0}, f64[4]{0}, f64[], f64[4]{0}, f64[4]{0}, /*index=5*/f64[4]{0}, pred[4]{0}, f64[24,4]{1,0}, f64[24,4]{1,0}, f64[24,4]{1,0}, /*index=10*/f64[24,4]{1,0}) tuple(get-tuple-element.13329, get-tuple-element.13325, get-tuple-element.13324, get-tuple-element.13330, get-tuple-element.13326, /*index=5*/get-tuple-element.13327, get-tuple-element.13328, get-tuple-element.13332, get-tuple-element.13331, get-tuple-element.13333, /*index=10*/get-tuple-element.13334)
} // region_3.798

fused_dynamic_slice {
  param_0.778 = f64[192]{0} parameter(0)
  param_1.1068 = s64[] parameter(1)
  constant_770_109 = s64[] constant(0)
  compare.373.7 = pred[] compare(param_1.1068, constant_770_109), direction=LT, metadata={op_name="jit(scan)/jit(main)/while/body/lt" source_file="/fs04/fc37/adam/projects/psilocybin-prl-analyses/src/prl_hgf/fitting/hierarchical_patrl.py" source_line=378}
  constant_769_4 = s64[] constant(192)
  add.1030.7 = s64[] add(param_1.1068, constant_769_4), metadata={op_name="jit(scan)/jit(main)/while/body/add" source_file="/fs04/fc37/adam/projects/psilocybin-prl-analyses/src/prl_hgf/fitting/hierarchical_patrl.py" source_line=378}
  select.1285.7 = s64[] select(compare.373.7, add.1030.7, param_1.1068), metadata={op_name="jit(scan)/jit(main)/while/body/select_n" source_file="/fs04/fc37/adam/projects/psilocybin-prl-analyses/src/prl_hgf/fitting/hierarchical_patrl.py" source_line=378}
  ROOT dynamic-slice.54.12 = f64[1]{0} dynamic-slice(param_0.778, select.1285.7), dynamic_slice_sizes={1}, metadata={op_name="jit(scan)/jit(main)/while/body/dynamic_slice[slice_sizes=(1,)]" source_file="/fs04/fc37/adam/projects/psilocybin-prl-analyses/src/prl_hgf/fitting/hierarchical_patrl.py" source_line=378}
} // fused_dynamic_slice

wrapped_copy_computation.3 {
  param_0.1240 = f64[4]{0} parameter(0)
  ROOT copy.973 = f64[4]{0} copy(param_0.1240)
}

wrapped_copy_computation.4 {
  param_0.1241 = f64[4]{0} parameter(0)
  ROOT copy.974 = f64[4]{0} copy(param_0.1241)
}

fused_convert_dynamic_slice {
  param_0.780 = s32[192]{0} parameter(0)
  param_1.1072 = s64[] parameter(1)
  constant_770_110 = s64[] constant(0)
  compare.373.9 = pred[] compare(param_1.1072, constant_770_110), direction=LT, metadata={op_name="jit(scan)/jit(main)/while/body/lt" source_file="/fs04/fc37/adam/projects/psilocybin-prl-analyses/src/prl_hgf/fitting/hierarchical_patrl.py" source_line=378}
  constant_769_5 = s64[] constant(192)
  add.1030.9 = s64[] add(param_1.1072, constant_769_5), metadata={op_name="jit(scan)/jit(main)/while/body/add" source_file="/fs04/fc37/adam/projects/psilocybin-prl-analyses/src/prl_hgf/fitting/hierarchical_patrl.py" source_line=378}
  select.1285.9 = s64[] select(compare.373.9, add.1030.9, param_1.1072), metadata={op_name="jit(scan)/jit(main)/while/body/select_n" source_file="/fs04/fc37/adam/projects/psilocybin-prl-analyses/src/prl_hgf/fitting/hierarchical_patrl.py" source_line=378}
  dynamic-slice.55.6 = s32[1]{0} dynamic-slice(param_0.780, select.1285.9), dynamic_slice_sizes={1}, metadata={op_name="jit(scan)/jit(main)/while/body/dynamic_slice[slice_sizes=(1,)]" source_file="/fs04/fc37/adam/projects/psilocybin-prl-analyses/src/prl_hgf/fitting/hierarchical_patrl.py" source_line=378}
  constant_778_1_clone_1 = s32[1]{0} constant({0})
  compare.374.1.clone.1 = pred[1]{0} compare(dynamic-slice.55.6, constant_778_1_clone_1), direction=NE, metadata={op_name="jit(scan)/jit(main)/while/body/jit(beliefs_propagation)/jit(continuous_node_posterior_update)/jit(posterior_update_precision_continuous_node)/convert_element_type[new_dtype=bool weak_type=False sharding=None]" source_file="/fs04/fc37/adam/projects/psilocybin-prl-analyses/src/prl_hgf/fitting/hierarchical_patrl.py" source_line=362}
  convert.104.1.clone.1 = s32[1]{0} convert(compare.374.1.clone.1), metadata={op_name="jit(scan)/jit(main)/while/body/jit(beliefs_propagation)/jit(continuous_node_posterior_update)/jit(posterior_update_precision_continuous_node)/convert_element_type[new_dtype=int32 weak_type=False sharding=None]" source_file="/fs04/fc37/adam/projects/psilocybin-prl-analyses/src/prl_hgf/fitting/hierarchical_patrl.py" source_line=362}
  bitcast.4028.1.clone.1 = s32[] bitcast(dynamic-slice.55.6)
  convert.105.1.clone.1 = f64[] convert(bitcast.4028.1.clone.1), metadata={op_name="jit(scan)/jit(main)/while/body/jit(beliefs_propagation)/jit(binary_state_node_prediction_error)/convert_element_type[new_dtype=float64 weak_type=False sharding=None]" source_file="/fs04/fc37/adam/projects/psilocybin-prl-analyses/src/prl_hgf/fitting/hierarchical_patrl.py" source_line=362}
  ROOT tuple.304 = (s32[1]{0}, s32[1]{0}, f64[]) tuple(dynamic-slice.55.6, convert.104.1.clone.1, convert.105.1.clone.1)
} // fused_convert_dynamic_slice

fused_divide_multiply_select {
  constant_772_5 = f64[] constant(1)
  broadcast.3213.4 = f64[4]{0} broadcast(constant_772_5), dimensions={}
  param_6.625 = f64[4]{0} parameter(6)
  divide.857.1.clone.1 = f64[4]{0} divide(broadcast.3213.4, param_6.625), metadata={op_name="jit(scan)/jit(main)/while/body/jit(beliefs_propagation)/jit(continuous_node_prediction)/jit(predict_precision)/div" source_file="/fs04/fc37/adam/projects/psilocybin-prl-analyses/src/prl_hgf/fitting/hierarchical_patrl.py" source_line=362}
  param_4.1007 = f64[192]{0} parameter(4)
  param_5.887 = s64[] parameter(5)
  constant_770_123_clone_1 = s64[] constant(0)
  compare.373.285.clone.1 = pred[] compare(param_5.887, constant_770_123_clone_1), direction=LT, metadata={op_name="jit(scan)/jit(main)/while/body/lt" source_file="/fs04/fc37/adam/projects/psilocybin-prl-analyses/src/prl_hgf/fitting/hierarchical_patrl.py" source_line=378}
  constant_769_119_clone_1 = s64[] constant(192)
  add.1030.285.clone.1 = s64[] add(param_5.887, constant_769_119_clone_1), metadata={op_name="jit(scan)/jit(main)/while/body/add" source_file="/fs04/fc37/adam/projects/psilocybin-prl-analyses/src/prl_hgf/fitting/hierarchical_patrl.py" source_line=378}
  select.1285.285.clone.1 = s64[] select(compare.373.285.clone.1, add.1030.285.clone.1, param_5.887), metadata={op_name="jit(scan)/jit(main)/while/body/select_n" source_file="/fs04/fc37/adam/projects/psilocybin-prl-analyses/src/prl_hgf/fitting/hierarchical_patrl.py" source_line=378}
  dynamic-slice.54.54.clone.1 = f64[1]{0} dynamic-slice(param_4.1007, select.1285.285.clone.1), dynamic_slice_sizes={1}, metadata={op_name="jit(scan)/jit(main)/while/body/dynamic_slice[slice_sizes=(1,)]" source_file="/fs04/fc37/adam/projects/psilocybin-prl-analyses/src/prl_hgf/fitting/hierarchical_patrl.py" source_line=378}
  bitcast.3967.75.clone.1 = f64[] bitcast(dynamic-slice.54.54.clone.1)
  broadcast.3212.71.clone.1 = f64[4]{0} broadcast(bitcast.3967.75.clone.1), dimensions={}, metadata={op_name="jit(scan)/jit(main)/while/body/jit(beliefs_propagation)/jit(continuous_node_prediction)/jit(predict_mean)/mul" source_file="/fs04/fc37/adam/projects/psilocybin-prl-analyses/src/prl_hgf/fitting/hierarchical_patrl.py" source_line=362}
  param_1.1579 = f64[4]{0} parameter(1)
  param_3.1208 = f64[4,1]{1,0} parameter(3)
  bitcast.4042.40.clone.1 = f64[4]{0} bitcast(param_3.1208)
  param_2.1392 = f64[4]{0} parameter(2)
  multiply.3502.27.clone.1 = f64[4]{0} multiply(bitcast.4042.40.clone.1, param_2.1392), metadata={op_name="jit(scan)/jit(main)/while/body/jit(beliefs_propagation)/jit(continuous_node_prediction)/jit(predict_precision)/mul" source_file="/fs04/fc37/adam/projects/psilocybin-prl-analyses/src/prl_hgf/fitting/hierarchical_patrl.py" source_line=362}
  add.1033.25.clone.1 = f64[4]{0} add(param_1.1579, multiply.3502.27.clone.1), metadata={op_name="jit(scan)/jit(main)/while/body/jit(beliefs_propagation)/jit(continuous_node_prediction)/jit(predict_precision)/add" source_file="/fs04/fc37/adam/projects/psilocybin-prl-analyses/src/prl_hgf/fitting/hierarchical_patrl.py" source_line=362}
  exponential.75.23.clone.1 = f64[4]{0} exponential(add.1033.25.clone.1), metadata={op_name="jit(scan)/jit(main)/while/body/jit(beliefs_propagation)/jit(continuous_node_prediction)/jit(predict_precision)/exp" source_file="/fs04/fc37/adam/projects/psilocybin-prl-analyses/src/prl_hgf/fitting/hierarchical_patrl.py" source_line=362}
  multiply.3503.9.clone.1 = f64[4]{0} multiply(broadcast.3212.71.clone.1, exponential.75.23.clone.1), metadata={op_name="jit(scan)/jit(main)/while/body/jit(beliefs_propagation)/jit(continuous_node_prediction)/jit(predict_precision)/mul" source_file="/fs04/fc37/adam/projects/psilocybin-prl-analyses/src/prl_hgf/fitting/hierarchical_patrl.py" source_line=362}
  constant_774_7_clone_1 = f64[] constant(1e-128)
  broadcast.3214.clone.15.clone.1 = f64[4]{0} broadcast(constant_774_7_clone_1), dimensions={}
  compare.375.5.clone.1 = pred[4]{0} compare(multiply.3503.9.clone.1, broadcast.3214.clone.15.clone.1), direction=GT, metadata={op_name="jit(scan)/jit(main)/while/body/jit(beliefs_propagation)/jit(continuous_node_prediction)/jit(predict_precision)/gt" source_file="/fs04/fc37/adam/projects/psilocybin-prl-analyses/src/prl_hgf/fitting/hierarchical_patrl.py" source_line=362}
  param_0.1066 = f64[4]{0} parameter(0)
  select.1286.1.clone.1 = f64[4]{0} select(compare.375.5.clone.1, multiply.3503.9.clone.1, param_0.1066), metadata={op_name="jit(scan)/jit(main)/while/body/jit(beliefs_propagation)/jit(continuous_node_prediction)/jit(predict_precision)/jit(_where)/select_n" source_file="/fs04/fc37/adam/projects/psilocybin-prl-analyses/src/prl_hgf/env/pat_rl_simulator.py" source_line=92}
  add.1034.2 = f64[4]{0} add(divide.857.1.clone.1, select.1286.1.clone.1), metadata={op_name="jit(scan)/jit(main)/while/body/jit(beliefs_propagation)/jit(continuous_node_prediction)/jit(predict_precision)/add" source_file="/fs04/fc37/adam/projects/psilocybin-prl-analyses/src/prl_hgf/fitting/hierarchical_patrl.py" source_line=362}
  divide.858.1 = f64[4]{0} divide(broadcast.3213.4, add.1034.2), metadata={op_name="jit(scan)/jit(main)/while/body/jit(beliefs_propagation)/jit(continuous_node_prediction)/jit(predict_precision)/div" source_file="/fs04/fc37/adam/projects/psilocybin-prl-analyses/src/prl_hgf/fitting/hierarchical_patrl.py" source_line=362}
  multiply.3508.2.clone.1 = f64[4]{0} multiply(param_6.625, param_6.625), metadata={op_name="jit(scan)/jit(main)/while/body/jit(beliefs_propagation)/jit(continuous_node_prediction)/jit(predict_precision)/mul" source_file="/fs04/fc37/adam/projects/psilocybin-prl-analyses/src/prl_hgf/fitting/hierarchical_patrl.py" source_line=362}
  divide.860.1.clone.1 = f64[4]{0} divide(broadcast.3213.4, multiply.3508.2.clone.1), metadata={op_name="jit(scan)/jit(main)/while/body/jit(beliefs_propagation)/jit(continuous_node_prediction)/jit(predict_precision)/div" source_file="/fs04/fc37/adam/projects/psilocybin-prl-analyses/src/prl_hgf/fitting/hierarchical_patrl.py" source_line=362}
  param_8.457 = f64[4]{0} parameter(8)
  param_9.387 = f64[4]{0} parameter(9)
  multiply.3498.7.clone.1.clone.1 = f64[4]{0} multiply(param_8.457, param_9.387), metadata={op_name="jit(scan)/jit(main)/while/body/jit(beliefs_propagation)/jit(continuous_node_prediction)/jit(predict_mean)/mul" source_file="/fs04/fc37/adam/projects/psilocybin-prl-analyses/src/prl_hgf/fitting/hierarchical_patrl.py" source_line=362}
  param_7.532 = f64[4]{0} parameter(7)
  multiply.3499.9.clone.1.clone.1 = f64[4]{0} multiply(broadcast.3212.71.clone.1, param_7.532), metadata={op_name="jit(scan)/jit(main)/while/body/jit(beliefs_propagation)/jit(continuous_node_prediction)/jit(predict_mean)/mul" source_file="/fs04/fc37/adam/projects/psilocybin-prl-analyses/src/prl_hgf/fitting/hierarchical_patrl.py" source_line=362}
  add.1031.7.clone.1.clone.1 = f64[4]{0} add(multiply.3498.7.clone.1.clone.1, multiply.3499.9.clone.1.clone.1), metadata={op_name="jit(scan)/jit(main)/while/body/jit(beliefs_propagation)/jit(continuous_node_prediction)/jit(predict_mean)/add" source_file="/fs04/fc37/adam/projects/psilocybin-prl-analyses/src/prl_hgf/fitting/hierarchical_patrl.py" source_line=362}
  negate.273.1.clone.1.clone.1 = f64[4]{0} negate(add.1031.7.clone.1.clone.1), metadata={op_name="jit(scan)/jit(main)/while/body/jit(beliefs_propagation)/jit(binary_state_node_prediction)/neg" source_file="/fs04/fc37/adam/projects/psilocybin-prl-analyses/src/prl_hgf/fitting/hierarchical_patrl.py" source_line=362}
  exponential.74.1.clone.1.clone.1 = f64[4]{0} exponential(negate.273.1.clone.1.clone.1), metadata={op_name="jit(scan)/jit(main)/while/body/jit(beliefs_propagation)/jit(binary_state_node_prediction)/exp" source_file="/fs04/fc37/adam/projects/psilocybin-prl-analyses/src/prl_hgf/fitting/hierarchical_patrl.py" source_line=362}
  add.1032.1.clone.1.clone.1 = f64[4]{0} add(exponential.74.1.clone.1.clone.1, broadcast.3213.4), metadata={op_name="jit(scan)/jit(main)/while/body/jit(beliefs_propagation)/jit(binary_state_node_prediction)/add" source_file="/fs04/fc37/adam/projects/psilocybin-prl-analyses/src/prl_hgf/fitting/hierarchical_patrl.py" source_line=362}
  divide.856.1.clone.1.clone.1 = f64[4]{0} divide(broadcast.3213.4, add.1032.1.clone.1.clone.1), metadata={op_name="jit(scan)/jit(main)/while/body/jit(beliefs_propagation)/jit(binary_state_node_prediction)/div" source_file="/fs04/fc37/adam/projects/psilocybin-prl-analyses/src/prl_hgf/fitting/hierarchical_patrl.py" source_line=362}
  subtract.145.5.clone.1 = f64[4]{0} subtract(broadcast.3213.4, divide.856.1.clone.1.clone.1), metadata={op_name="jit(scan)/jit(main)/while/body/jit(beliefs_propagation)/jit(binary_state_node_prediction)/sub" source_file="/fs04/fc37/adam/projects/psilocybin-prl-analyses/src/prl_hgf/fitting/hierarchical_patrl.py" source_line=362}
  multiply.3500.1.clone.1 = f64[4]{0} multiply(divide.856.1.clone.1.clone.1, subtract.145.5.clone.1), metadata={op_name="jit(scan)/jit(main)/while/body/jit(beliefs_propagation)/jit(binary_state_node_prediction)/mul" source_file="/fs04/fc37/adam/projects/psilocybin-prl-analyses/src/prl_hgf/fitting/hierarchical_patrl.py" source_line=362}
  ROOT tuple.302 = (f64[4]{0}, f64[4]{0}, f64[4]{0}, f64[4]{0}, f64[4]{0}, /*index=5*/f64[4]{0}) tuple(divide.858.1, select.1286.1.clone.1, divide.857.1.clone.1, divide.860.1.clone.1, multiply.3500.1.clone.1, /*index=5*/divide.856.1.clone.1.clone.1)
} // fused_divide_multiply_select

wrapped_copy_computation.5 {
  param_0.1242 = f64[24,4]{1,0} parameter(0)
  ROOT copy.975 = f64[24,4]{1,0} copy(param_0.1242)
}

fused_add {
  param_3.1141 = f64[4]{0} parameter(3)
  broadcast.3215.19 = f64[24,4]{1,0} broadcast(param_3.1141), dimensions={1}, metadata={op_name="jit(scan)/jit(main)/while/body/jit(beliefs_propagation)/jit(continuous_node_prediction)/jit(predict_mean)/mul" source_file="/fs04/fc37/adam/projects/psilocybin-prl-analyses/src/prl_hgf/fitting/hierarchical_patrl.py" source_line=362}
  param_2.1344 = f64[24,4]{1,0} parameter(2)
  multiply.3504.19 = f64[24,4]{1,0} multiply(broadcast.3215.19, param_2.1344), metadata={op_name="jit(scan)/jit(main)/while/body/jit(beliefs_propagation)/jit(continuous_node_prediction)/jit(predict_mean)/mul" source_file="/fs04/fc37/adam/projects/psilocybin-prl-analyses/src/prl_hgf/fitting/hierarchical_patrl.py" source_line=362}
  param_1.1552 = f64[4]{0} parameter(1)
  broadcast.3216.6 = f64[24,4]{1,0} broadcast(param_1.1552), dimensions={1}, metadata={op_name="jit(scan)/jit(main)/while/body/jit(beliefs_propagation)/jit(binary_state_node_prediction)/mul" source_file="/fs04/fc37/adam/projects/psilocybin-prl-analyses/src/prl_hgf/fitting/hierarchical_patrl.py" source_line=362}
  multiply.3505.5 = f64[24,4]{1,0} multiply(multiply.3504.19, broadcast.3216.6), metadata={op_name="jit(scan)/jit(main)/while/body/jit(beliefs_propagation)/jit(binary_state_node_prediction)/mul" source_file="/fs04/fc37/adam/projects/psilocybin-prl-analyses/src/prl_hgf/fitting/hierarchical_patrl.py" source_line=362}
  constant_772_26 = f64[] constant(1)
  broadcast.3213.31 = f64[4]{0} broadcast(constant_772_26), dimensions={}
  param_0.456 = f64[4]{0} parameter(0)
  subtract.145.3 = f64[4]{0} subtract(broadcast.3213.31, param_0.456), metadata={op_name="jit(scan)/jit(main)/while/body/jit(beliefs_propagation)/jit(binary_state_node_prediction)/sub" source_file="/fs04/fc37/adam/projects/psilocybin-prl-analyses/src/prl_hgf/fitting/hierarchical_patrl.py" source_line=362}
  broadcast.3217.1 = f64[24,4]{1,0} broadcast(subtract.145.3), dimensions={1}, metadata={op_name="jit(scan)/jit(main)/while/body/jit(beliefs_propagation)/jit(binary_state_node_prediction)/mul" source_file="/fs04/fc37/adam/projects/psilocybin-prl-analyses/src/prl_hgf/fitting/hierarchical_patrl.py" source_line=362}
  multiply.3506.1 = f64[24,4]{1,0} multiply(multiply.3505.5, broadcast.3217.1), metadata={op_name="jit(scan)/jit(main)/while/body/jit(beliefs_propagation)/jit(binary_state_node_prediction)/mul" source_file="/fs04/fc37/adam/projects/psilocybin-prl-analyses/src/prl_hgf/fitting/hierarchical_patrl.py" source_line=362}
  broadcast.3218.3 = f64[24,4]{1,0} broadcast(param_0.456), dimensions={1}, metadata={op_name="jit(scan)/jit(main)/while/body/jit(beliefs_propagation)/jit(binary_state_node_prediction)/mul" source_file="/fs04/fc37/adam/projects/psilocybin-prl-analyses/src/prl_hgf/fitting/hierarchical_patrl.py" source_line=362}
  negate.274.2 = f64[24,4]{1,0} negate(multiply.3505.5), metadata={op_name="jit(scan)/jit(main)/while/body/jit(beliefs_propagation)/jit(binary_state_node_prediction)/neg" source_file="/fs04/fc37/adam/projects/psilocybin-prl-analyses/src/prl_hgf/fitting/hierarchical_patrl.py" source_line=362}
  multiply.3507.3 = f64[24,4]{1,0} multiply(broadcast.3218.3, negate.274.2), metadata={op_name="jit(scan)/jit(main)/while/body/jit(beliefs_propagation)/jit(binary_state_node_prediction)/mul" source_file="/fs04/fc37/adam/projects/psilocybin-prl-analyses/src/prl_hgf/fitting/hierarchical_patrl.py" source_line=362}
  ROOT add.1035.1 = f64[24,4]{1,0} add(multiply.3506.1, multiply.3507.3), metadata={op_name="jit(scan)/jit(main)/while/body/jit(beliefs_propagation)/jit(binary_state_node_prediction)/add_any" source_file="/fs04/fc37/adam/projects/psilocybin-prl-analyses/src/prl_hgf/fitting/hierarchical_patrl.py" source_line=362}
} // fused_add

fused_multiply.1 {
  param_1.1340 = f64[24,4]{1,0} parameter(1)
  negate.275.6 = f64[24,4]{1,0} negate(param_1.1340), metadata={op_name="jit(scan)/jit(main)/while/body/jit(beliefs_propagation)/jit(continuous_node_prediction)/jit(predict_precision)/neg" source_file="/fs04/fc37/adam/projects/psilocybin-prl-analyses/src/prl_hgf/fitting/hierarchical_patrl.py" source_line=362}
  param_0.940 = f64[4]{0} parameter(0)
  broadcast.3219.9 = f64[24,4]{1,0} broadcast(param_0.940), dimensions={1}, metadata={op_name="jit(scan)/jit(main)/while/body/jit(beliefs_propagation)/jit(continuous_node_prediction)/jit(predict_precision)/mul" source_file="/fs04/fc37/adam/projects/psilocybin-prl-analyses/src/prl_hgf/fitting/hierarchical_patrl.py" source_line=362}
  multiply.3509.9 = f64[24,4]{1,0} multiply(negate.275.6, broadcast.3219.9), metadata={op_name="jit(scan)/jit(main)/while/body/jit(beliefs_propagation)/jit(continuous_node_prediction)/jit(predict_precision)/mul" source_file="/fs04/fc37/adam/projects/psilocybin-prl-analyses/src/prl_hgf/fitting/hierarchical_patrl.py" source_line=362}
  param_9.357 = f64[192]{0} parameter(9)
  param_10.304 = s64[] parameter(10)
  constant_770_122 = s64[] constant(0)
  compare.373.291 = pred[] compare(param_10.304, constant_770_122), direction=LT, metadata={op_name="jit(scan)/jit(main)/while/body/lt" source_file="/fs04/fc37/adam/projects/psilocybin-prl-analyses/src/prl_hgf/fitting/hierarchical_patrl.py" source_line=378}
  constant_769_118 = s64[] constant(192)
  add.1030.291 = s64[] add(param_10.304, constant_769_118), metadata={op_name="jit(scan)/jit(main)/while/body/add" source_file="/fs04/fc37/adam/projects/psilocybin-prl-analyses/src/prl_hgf/fitting/hierarchical_patrl.py" source_line=378}
  select.1285.291 = s64[] select(compare.373.291, add.1030.291, param_10.304), metadata={op_name="jit(scan)/jit(main)/while/body/select_n" source_file="/fs04/fc37/adam/projects/psilocybin-prl-analyses/src/prl_hgf/fitting/hierarchical_patrl.py" source_line=378}
  dynamic-slice.54.60 = f64[1]{0} dynamic-slice(param_9.357, select.1285.291), dynamic_slice_sizes={1}, metadata={op_name="jit(scan)/jit(main)/while/body/dynamic_slice[slice_sizes=(1,)]" source_file="/fs04/fc37/adam/projects/psilocybin-prl-analyses/src/prl_hgf/fitting/hierarchical_patrl.py" source_line=378}
  bitcast.3967.81 = f64[] bitcast(dynamic-slice.54.60)
  broadcast.3212.77 = f64[4]{0} broadcast(bitcast.3967.81), dimensions={}, metadata={op_name="jit(scan)/jit(main)/while/body/jit(beliefs_propagation)/jit(continuous_node_prediction)/jit(predict_mean)/mul" source_file="/fs04/fc37/adam/projects/psilocybin-prl-analyses/src/prl_hgf/fitting/hierarchical_patrl.py" source_line=362}
  param_4.955 = f64[4]{0} parameter(4)
  param_6.581 = f64[4,1]{1,0} parameter(6)
  bitcast.4042.46 = f64[4]{0} bitcast(param_6.581)
  param_5.840 = f64[4]{0} parameter(5)
  multiply.3502.33 = f64[4]{0} multiply(bitcast.4042.46, param_5.840), metadata={op_name="jit(scan)/jit(main)/while/body/jit(beliefs_propagation)/jit(continuous_node_prediction)/jit(predict_precision)/mul" source_file="/fs04/fc37/adam/projects/psilocybin-prl-analyses/src/prl_hgf/fitting/hierarchical_patrl.py" source_line=362}
  add.1033.31 = f64[4]{0} add(param_4.955, multiply.3502.33), metadata={op_name="jit(scan)/jit(main)/while/body/jit(beliefs_propagation)/jit(continuous_node_prediction)/jit(predict_precision)/add" source_file="/fs04/fc37/adam/projects/psilocybin-prl-analyses/src/prl_hgf/fitting/hierarchical_patrl.py" source_line=362}
  exponential.75.29 = f64[4]{0} exponential(add.1033.31), metadata={op_name="jit(scan)/jit(main)/while/body/jit(beliefs_propagation)/jit(continuous_node_prediction)/jit(predict_precision)/exp" source_file="/fs04/fc37/adam/projects/psilocybin-prl-analyses/src/prl_hgf/fitting/hierarchical_patrl.py" source_line=362}
  multiply.3503.15 = f64[4]{0} multiply(broadcast.3212.77, exponential.75.29), metadata={op_name="jit(scan)/jit(main)/while/body/jit(beliefs_propagation)/jit(continuous_node_prediction)/jit(predict_precision)/mul" source_file="/fs04/fc37/adam/projects/psilocybin-prl-analyses/src/prl_hgf/fitting/hierarchical_patrl.py" source_line=362}
  constant_774_10 = f64[] constant(1e-128)
  broadcast.3214.clone.21 = f64[4]{0} broadcast(constant_774_10), dimensions={}
  compare.375.11 = pred[4]{0} compare(multiply.3503.15, broadcast.3214.clone.21), direction=GT, metadata={op_name="jit(scan)/jit(main)/while/body/jit(beliefs_propagation)/jit(continuous_node_prediction)/jit(predict_precision)/gt" source_file="/fs04/fc37/adam/projects/psilocybin-prl-analyses/src/prl_hgf/fitting/hierarchical_patrl.py" source_line=362}
  broadcast.3220.5 = pred[24,4]{1,0} broadcast(compare.375.11), dimensions={1}, metadata={op_name="jit(scan)/jit(main)/while/body/jit(beliefs_propagation)/jit(continuous_node_prediction)/jit(predict_precision)/jit(_where)/broadcast_in_dim[shape=(24, 4) broadcast_dimensions=(np.int64(1),)]" source_file="/fs04/fc37/adam/projects/psilocybin-prl-analyses/src/prl_hgf/env/pat_rl_simulator.py" source_line=92}
  broadcast.3221.13 = f64[24,4]{1,0} broadcast(bitcast.3967.81), dimensions={}, metadata={op_name="jit(scan)/jit(main)/while/body/jit(beliefs_propagation)/jit(continuous_node_prediction)/jit(predict_precision)/mul" source_file="/fs04/fc37/adam/projects/psilocybin-prl-analyses/src/prl_hgf/fitting/hierarchical_patrl.py" source_line=362}
  param_7.477 = f64[24,4]{1,0} parameter(7)
  broadcast.3222.11 = f64[24,4]{1,0} broadcast(bitcast.4042.46), dimensions={1}, metadata={op_name="jit(scan)/jit(main)/while/body/jit(beliefs_propagation)/jit(continuous_node_prediction)/jit(predict_precision)/mul" source_file="/fs04/fc37/adam/projects/psilocybin-prl-analyses/src/prl_hgf/fitting/hierarchical_patrl.py" source_line=362}
  param_8.402 = f64[24,4]{1,0} parameter(8)
  multiply.3510.9 = f64[24,4]{1,0} multiply(broadcast.3222.11, param_8.402), metadata={op_name="jit(scan)/jit(main)/while/body/jit(beliefs_propagation)/jit(continuous_node_prediction)/jit(predict_precision)/mul" source_file="/fs04/fc37/adam/projects/psilocybin-prl-analyses/src/prl_hgf/fitting/hierarchical_patrl.py" source_line=362}
  add.1036.9 = f64[24,4]{1,0} add(param_7.477, multiply.3510.9), metadata={op_name="jit(scan)/jit(main)/while/body/jit(beliefs_propagation)/jit(continuous_node_prediction)/jit(predict_precision)/add" source_file="/fs04/fc37/adam/projects/psilocybin-prl-analyses/src/prl_hgf/fitting/hierarchical_patrl.py" source_line=362}
  broadcast.3223.9 = f64[24,4]{1,0} broadcast(exponential.75.29), dimensions={1}, metadata={op_name="jit(scan)/jit(main)/while/body/jit(beliefs_propagation)/jit(continuous_node_prediction)/jit(predict_precision)/mul" source_file="/fs04/fc37/adam/projects/psilocybin-prl-analyses/src/prl_hgf/fitting/hierarchical_patrl.py" source_line=362}
  multiply.3511.9 = f64[24,4]{1,0} multiply(add.1036.9, broadcast.3223.9), metadata={op_name="jit(scan)/jit(main)/while/body/jit(beliefs_propagation)/jit(continuous_node_prediction)/jit(predict_precision)/mul" source_file="/fs04/fc37/adam/projects/psilocybin-prl-analyses/src/prl_hgf/fitting/hierarchical_patrl.py" source_line=362}
  multiply.3512.5 = f64[24,4]{1,0} multiply(broadcast.3221.13, multiply.3511.9), metadata={op_name="jit(scan)/jit(main)/while/body/jit(beliefs_propagation)/jit(continuous_node_prediction)/jit(predict_precision)/mul" source_file="/fs04/fc37/adam/projects/psilocybin-prl-analyses/src/prl_hgf/fitting/hierarchical_patrl.py" source_line=362}
  constant_776_16 = f64[] constant(0)
  broadcast.3224.clone.50 = f64[24,4]{1,0} broadcast(constant_776_16), dimensions={}
  select.1287.5 = f64[24,4]{1,0} select(broadcast.3220.5, multiply.3512.5, broadcast.3224.clone.50), metadata={op_name="jit(scan)/jit(main)/while/body/jit(beliefs_propagation)/jit(continuous_node_prediction)/jit(predict_precision)/jit(_where)/select_n" source_file="/fs04/fc37/adam/projects/psilocybin-prl-analyses/src/prl_hgf/env/pat_rl_simulator.py" source_line=92}
  add.1037.5 = f64[24,4]{1,0} add(multiply.3509.9, select.1287.5), metadata={op_name="jit(scan)/jit(main)/while/body/jit(beliefs_propagation)/jit(continuous_node_prediction)/jit(predict_precision)/add" source_file="/fs04/fc37/adam/projects/psilocybin-prl-analyses/src/prl_hgf/fitting/hierarchical_patrl.py" source_line=362}
  negate.276.1 = f64[24,4]{1,0} negate(add.1037.5), metadata={op_name="jit(scan)/jit(main)/while/body/jit(beliefs_propagation)/jit(continuous_node_prediction)/jit(predict_precision)/neg" source_file="/fs04/fc37/adam/projects/psilocybin-prl-analyses/src/prl_hgf/fitting/hierarchical_patrl.py" source_line=362}
  constant_772_8 = f64[] constant(1)
  broadcast.3213.53 = f64[4]{0} broadcast(constant_772_8), dimensions={}
  param_2.1353 = f64[4]{0} parameter(2)
  param_3.1154 = f64[4]{0} parameter(3)
  add.1034.10 = f64[4]{0} add(param_2.1353, param_3.1154), metadata={op_name="jit(scan)/jit(main)/while/body/jit(beliefs_propagation)/jit(continuous_node_prediction)/jit(predict_precision)/add" source_file="/fs04/fc37/adam/projects/psilocybin-prl-analyses/src/prl_hgf/fitting/hierarchical_patrl.py" source_line=362}
  multiply.3513.8 = f64[4]{0} multiply(add.1034.10, add.1034.10), metadata={op_name="jit(scan)/jit(main)/while/body/jit(beliefs_propagation)/jit(continuous_node_prediction)/jit(predict_precision)/mul" source_file="/fs04/fc37/adam/projects/psilocybin-prl-analyses/src/prl_hgf/fitting/hierarchical_patrl.py" source_line=362}
  divide.861.5 = f64[4]{0} divide(broadcast.3213.53, multiply.3513.8), metadata={op_name="jit(scan)/jit(main)/while/body/jit(beliefs_propagation)/jit(continuous_node_prediction)/jit(predict_precision)/div" source_file="/fs04/fc37/adam/projects/psilocybin-prl-analyses/src/prl_hgf/fitting/hierarchical_patrl.py" source_line=362}
  broadcast.3225.1 = f64[24,4]{1,0} broadcast(divide.861.5), dimensions={1}, metadata={op_name="jit(scan)/jit(main)/while/body/jit(beliefs_propagation)/jit(continuous_node_prediction)/jit(predict_precision)/mul" source_file="/fs04/fc37/adam/projects/psilocybin-prl-analyses/src/prl_hgf/fitting/hierarchical_patrl.py" source_line=362}
  ROOT multiply.3514.1 = f64[24,4]{1,0} multiply(negate.276.1, broadcast.3225.1), metadata={op_name="jit(scan)/jit(main)/while/body/jit(beliefs_propagation)/jit(continuous_node_prediction)/jit(predict_precision)/mul" source_file="/fs04/fc37/adam/projects/psilocybin-prl-analyses/src/prl_hgf/fitting/hierarchical_patrl.py" source_line=362}
} // fused_multiply.1

fused_dynamic_update_slice.85 {
  param_0.159 = pred[192,4]{1,0} parameter(0)
  param_5.828 = f64[192]{0} parameter(5)
  param_1.1480 = s64[] parameter(1)
  constant_770_38 = s64[] constant(0)
  compare.373.287 = pred[] compare(param_1.1480, constant_770_38), direction=LT, metadata={op_name="jit(scan)/jit(main)/while/body/lt" source_file="/fs04/fc37/adam/projects/psilocybin-prl-analyses/src/prl_hgf/fitting/hierarchical_patrl.py" source_line=378}
  constant_769_20 = s64[] constant(192)
  add.1030.287 = s64[] add(param_1.1480, constant_769_20), metadata={op_name="jit(scan)/jit(main)/while/body/add" source_file="/fs04/fc37/adam/projects/psilocybin-prl-analyses/src/prl_hgf/fitting/hierarchical_patrl.py" source_line=378}
  select.1285.287 = s64[] select(compare.373.287, add.1030.287, param_1.1480), metadata={op_name="jit(scan)/jit(main)/while/body/select_n" source_file="/fs04/fc37/adam/projects/psilocybin-prl-analyses/src/prl_hgf/fitting/hierarchical_patrl.py" source_line=378}
  dynamic-slice.54.56 = f64[1]{0} dynamic-slice(param_5.828, select.1285.287), dynamic_slice_sizes={1}, metadata={op_name="jit(scan)/jit(main)/while/body/dynamic_slice[slice_sizes=(1,)]" source_file="/fs04/fc37/adam/projects/psilocybin-prl-analyses/src/prl_hgf/fitting/hierarchical_patrl.py" source_line=378}
  bitcast.3967.77 = f64[] bitcast(dynamic-slice.54.56)
  broadcast.3212.73 = f64[4]{0} broadcast(bitcast.3967.77), dimensions={}, metadata={op_name="jit(scan)/jit(main)/while/body/jit(beliefs_propagation)/jit(continuous_node_prediction)/jit(predict_mean)/mul" source_file="/fs04/fc37/adam/projects/psilocybin-prl-analyses/src/prl_hgf/fitting/hierarchical_patrl.py" source_line=362}
  param_2.1346 = f64[4]{0} parameter(2)
  param_4.943 = f64[4,1]{1,0} parameter(4)
  bitcast.4042.42 = f64[4]{0} bitcast(param_4.943)
  param_3.1143 = f64[4]{0} parameter(3)
  multiply.3502.29 = f64[4]{0} multiply(bitcast.4042.42, param_3.1143), metadata={op_name="jit(scan)/jit(main)/while/body/jit(beliefs_propagation)/jit(continuous_node_prediction)/jit(predict_precision)/mul" source_file="/fs04/fc37/adam/projects/psilocybin-prl-analyses/src/prl_hgf/fitting/hierarchical_patrl.py" source_line=362}
  add.1033.27 = f64[4]{0} add(param_2.1346, multiply.3502.29), metadata={op_name="jit(scan)/jit(main)/while/body/jit(beliefs_propagation)/jit(continuous_node_prediction)/jit(predict_precision)/add" source_file="/fs04/fc37/adam/projects/psilocybin-prl-analyses/src/prl_hgf/fitting/hierarchical_patrl.py" source_line=362}
  exponential.75.25 = f64[4]{0} exponential(add.1033.27), metadata={op_name="jit(scan)/jit(main)/while/body/jit(beliefs_propagation)/jit(continuous_node_prediction)/jit(predict_precision)/exp" source_file="/fs04/fc37/adam/projects/psilocybin-prl-analyses/src/prl_hgf/fitting/hierarchical_patrl.py" source_line=362}
  multiply.3503.11 = f64[4]{0} multiply(broadcast.3212.73, exponential.75.25), metadata={op_name="jit(scan)/jit(main)/while/body/jit(beliefs_propagation)/jit(continuous_node_prediction)/jit(predict_precision)/mul" source_file="/fs04/fc37/adam/projects/psilocybin-prl-analyses/src/prl_hgf/fitting/hierarchical_patrl.py" source_line=362}
  constant_774_8 = f64[] constant(1e-128)
  broadcast.3214.clone.17 = f64[4]{0} broadcast(constant_774_8), dimensions={}
  compare.375.7 = pred[4]{0} compare(multiply.3503.11, broadcast.3214.clone.17), direction=GT, metadata={op_name="jit(scan)/jit(main)/while/body/jit(beliefs_propagation)/jit(continuous_node_prediction)/jit(predict_precision)/gt" source_file="/fs04/fc37/adam/projects/psilocybin-prl-analyses/src/prl_hgf/fitting/hierarchical_patrl.py" source_line=362}
  bitcast.5086.1 = pred[1,4]{1,0} bitcast(compare.375.7)
  ROOT dynamic-update-slice.2038.1 = pred[192,4]{1,0} dynamic-update-slice(param_0.159, bitcast.5086.1, select.1285.287, constant_770_38), metadata={op_name="jit(scan)/jit(main)/while/body/dynamic_update_slice" source_file="/fs04/fc37/adam/projects/psilocybin-prl-analyses/src/prl_hgf/fitting/hierarchical_patrl.py" source_line=378}
} // fused_dynamic_update_slice.85

fused_dynamic_update_slice.48 {
  param_0.122 = pred[192,4,1]{2,1,0} parameter(0)
  param_2.1371 = s64[4]{0} parameter(2)
  constant_770_39 = s64[] constant(0)
  broadcast.3231.37 = s64[4]{0} broadcast(constant_770_39), dimensions={}
  compare.378.37 = pred[4]{0} compare(param_2.1371, broadcast.3231.37), direction=NE, metadata={op_name="jit(scan)/jit(main)/while/body/jit(beliefs_propagation)/jit(continuous_node_posterior_update_ehgf)/jit(posterior_update_precision_continuous_node)/convert_element_type[new_dtype=bool weak_type=False sharding=None]" source_file="/fs04/fc37/adam/projects/psilocybin-prl-analyses/src/prl_hgf/fitting/hierarchical_patrl.py" source_line=362}
  convert.107.37 = s32[4]{0} convert(compare.378.37), metadata={op_name="jit(scan)/jit(main)/while/body/jit(beliefs_propagation)/jit(continuous_node_posterior_update_ehgf)/jit(posterior_update_precision_continuous_node)/convert_element_type[new_dtype=int32 weak_type=False sharding=None]" source_file="/fs04/fc37/adam/projects/psilocybin-prl-analyses/src/prl_hgf/fitting/hierarchical_patrl.py" source_line=362}
  constant_780_6 = s32[] constant(1)
  broadcast.3232.clone.13 = s32[4]{0} broadcast(constant_780_6), dimensions={}
  compare.382.7 = pred[4]{0} compare(convert.107.37, broadcast.3232.clone.13), direction=EQ, metadata={op_name="jit(scan)/jit(main)/while/body/jit(beliefs_propagation)/jit(continuous_node_posterior_update_ehgf)/jit(posterior_update_precision_continuous_node)/eq" source_file="/fs04/fc37/adam/projects/psilocybin-prl-analyses/src/prl_hgf/fitting/hierarchical_patrl.py" source_line=362}
  bitcast.5508.1 = pred[1,4,1]{2,1,0} bitcast(compare.382.7)
  param_1.1481 = s64[] parameter(1)
  compare.373.129 = pred[] compare(param_1.1481, constant_770_39), direction=LT, metadata={op_name="jit(scan)/jit(main)/while/body/lt" source_file="/fs04/fc37/adam/projects/psilocybin-prl-analyses/src/prl_hgf/fitting/hierarchical_patrl.py" source_line=378}
  constant_769_65 = s64[] constant(192)
  add.1030.129 = s64[] add(param_1.1481, constant_769_65), metadata={op_name="jit(scan)/jit(main)/while/body/add" source_file="/fs04/fc37/adam/projects/psilocybin-prl-analyses/src/prl_hgf/fitting/hierarchical_patrl.py" source_line=378}
  select.1285.129 = s64[] select(compare.373.129, add.1030.129, param_1.1481), metadata={op_name="jit(scan)/jit(main)/while/body/select_n" source_file="/fs04/fc37/adam/projects/psilocybin-prl-analyses/src/prl_hgf/fitting/hierarchical_patrl.py" source_line=378}
  ROOT dynamic-update-slice.2077.1 = pred[192,4,1]{2,1,0} dynamic-update-slice(param_0.122, bitcast.5508.1, select.1285.129, constant_770_39, constant_770_39), metadata={op_name="jit(scan)/jit(main)/while/body/dynamic_update_slice" source_file="/fs04/fc37/adam/projects/psilocybin-prl-analyses/src/prl_hgf/fitting/hierarchical_patrl.py" source_line=378}
} // fused_dynamic_update_slice.48

fused_dynamic_update_slice.49 {
  param_0.123 = pred[192,4]{1,0} parameter(0)
  param_2.1372 = s64[4]{0} parameter(2)
  constant_770_55 = s64[] constant(0)
  broadcast.3231.39 = s64[4]{0} broadcast(constant_770_55), dimensions={}
  compare.378.39 = pred[4]{0} compare(param_2.1372, broadcast.3231.39), direction=NE, metadata={op_name="jit(scan)/jit(main)/while/body/jit(beliefs_propagation)/jit(continuous_node_posterior_update_ehgf)/jit(posterior_update_precision_continuous_node)/convert_element_type[new_dtype=bool weak_type=False sharding=None]" source_file="/fs04/fc37/adam/projects/psilocybin-prl-analyses/src/prl_hgf/fitting/hierarchical_patrl.py" source_line=362}
  convert.107.39 = s32[4]{0} convert(compare.378.39), metadata={op_name="jit(scan)/jit(main)/while/body/jit(beliefs_propagation)/jit(continuous_node_posterior_update_ehgf)/jit(posterior_update_precision_continuous_node)/convert_element_type[new_dtype=int32 weak_type=False sharding=None]" source_file="/fs04/fc37/adam/projects/psilocybin-prl-analyses/src/prl_hgf/fitting/hierarchical_patrl.py" source_line=362}
  constant_780_7 = s32[] constant(1)
  broadcast.3232.clone.15 = s32[4]{0} broadcast(constant_780_7), dimensions={}
  compare.382.9 = pred[4]{0} compare(convert.107.39, broadcast.3232.clone.15), direction=EQ, metadata={op_name="jit(scan)/jit(main)/while/body/jit(beliefs_propagation)/jit(continuous_node_posterior_update_ehgf)/jit(posterior_update_precision_continuous_node)/eq" source_file="/fs04/fc37/adam/projects/psilocybin-prl-analyses/src/prl_hgf/fitting/hierarchical_patrl.py" source_line=362}
  bitcast.5497.1 = pred[1,4]{1,0} bitcast(compare.382.9)
  param_1.1497 = s64[] parameter(1)
  compare.373.127 = pred[] compare(param_1.1497, constant_770_55), direction=LT, metadata={op_name="jit(scan)/jit(main)/while/body/lt" source_file="/fs04/fc37/adam/projects/psilocybin-prl-analyses/src/prl_hgf/fitting/hierarchical_patrl.py" source_line=378}
  constant_769_64 = s64[] constant(192)
  add.1030.127 = s64[] add(param_1.1497, constant_769_64), metadata={op_name="jit(scan)/jit(main)/while/body/add" source_file="/fs04/fc37/adam/projects/psilocybin-prl-analyses/src/prl_hgf/fitting/hierarchical_patrl.py" source_line=378}
  select.1285.127 = s64[] select(compare.373.127, add.1030.127, param_1.1497), metadata={op_name="jit(scan)/jit(main)/while/body/select_n" source_file="/fs04/fc37/adam/projects/psilocybin-prl-analyses/src/prl_hgf/fitting/hierarchical_patrl.py" source_line=378}
  ROOT dynamic-update-slice.2076.1 = pred[192,4]{1,0} dynamic-update-slice(param_0.123, bitcast.5497.1, select.1285.127, constant_770_55), metadata={op_name="jit(scan)/jit(main)/while/body/dynamic_update_slice" source_file="/fs04/fc37/adam/projects/psilocybin-prl-analyses/src/prl_hgf/fitting/hierarchical_patrl.py" source_line=378}
} // fused_dynamic_update_slice.49

fused_dynamic_update_slice.51 {
  param_0.125 = pred[192,4,1]{2,1,0} parameter(0)
  param_1.1565 = s64[4]{0} parameter(1)
  constant_770_89 = s64[] constant(0)
  broadcast.3231.13 = s64[4]{0} broadcast(constant_770_89), dimensions={}
  compare.378.13 = pred[4]{0} compare(param_1.1565, broadcast.3231.13), direction=NE, metadata={op_name="jit(scan)/jit(main)/while/body/jit(beliefs_propagation)/jit(continuous_node_posterior_update_ehgf)/jit(posterior_update_precision_continuous_node)/convert_element_type[new_dtype=bool weak_type=False sharding=None]" source_file="/fs04/fc37/adam/projects/psilocybin-prl-analyses/src/prl_hgf/fitting/hierarchical_patrl.py" source_line=362}
  convert.107.13 = s32[4]{0} convert(compare.378.13), metadata={op_name="jit(scan)/jit(main)/while/body/jit(beliefs_propagation)/jit(continuous_node_posterior_update_ehgf)/jit(posterior_update_precision_continuous_node)/convert_element_type[new_dtype=int32 weak_type=False sharding=None]" source_file="/fs04/fc37/adam/projects/psilocybin-prl-analyses/src/prl_hgf/fitting/hierarchical_patrl.py" source_line=362}
  constant_781_2 = s32[] constant(0)
  broadcast.3263.3 = s32[4]{0} broadcast(constant_781_2), dimensions={}
  compare.381.3 = pred[4]{0} compare(convert.107.13, broadcast.3263.3), direction=EQ, metadata={op_name="jit(scan)/jit(main)/while/body/jit(beliefs_propagation)/jit(continuous_node_posterior_update_ehgf)/jit(posterior_update_precision_continuous_node)/eq" source_file="/fs04/fc37/adam/projects/psilocybin-prl-analyses/src/prl_hgf/fitting/hierarchical_patrl.py" source_line=362}
  bitcast.5463.1 = pred[1,4,1]{2,1,0} bitcast(compare.381.3)
  param_2.1373 = s64[] parameter(2)
  compare.373.117 = pred[] compare(param_2.1373, constant_770_89), direction=LT, metadata={op_name="jit(scan)/jit(main)/while/body/lt" source_file="/fs04/fc37/adam/projects/psilocybin-prl-analyses/src/prl_hgf/fitting/hierarchical_patrl.py" source_line=378}
  constant_769_59 = s64[] constant(192)
  add.1030.117 = s64[] add(param_2.1373, constant_769_59), metadata={op_name="jit(scan)/jit(main)/while/body/add" source_file="/fs04/fc37/adam/projects/psilocybin-prl-analyses/src/prl_hgf/fitting/hierarchical_patrl.py" source_line=378}
  select.1285.117 = s64[] select(compare.373.117, add.1030.117, param_2.1373), metadata={op_name="jit(scan)/jit(main)/while/body/select_n" source_file="/fs04/fc37/adam/projects/psilocybin-prl-analyses/src/prl_hgf/fitting/hierarchical_patrl.py" source_line=378}
  ROOT dynamic-update-slice.2073.1 = pred[192,4,1]{2,1,0} dynamic-update-slice(param_0.125, bitcast.5463.1, select.1285.117, constant_770_89, constant_770_89), metadata={op_name="jit(scan)/jit(main)/while/body/dynamic_update_slice" source_file="/fs04/fc37/adam/projects/psilocybin-prl-analyses/src/prl_hgf/fitting/hierarchical_patrl.py" source_line=378}
} // fused_dynamic_update_slice.51

fused_dynamic_update_slice.52 {
  param_0.126 = pred[192,4]{1,0} parameter(0)
  param_1.1566 = s64[4]{0} parameter(1)
  constant_770_10 = s64[] constant(0)
  broadcast.3231.17 = s64[4]{0} broadcast(constant_770_10), dimensions={}
  compare.378.17 = pred[4]{0} compare(param_1.1566, broadcast.3231.17), direction=NE, metadata={op_name="jit(scan)/jit(main)/while/body/jit(beliefs_propagation)/jit(continuous_node_posterior_update_ehgf)/jit(posterior_update_precision_continuous_node)/convert_element_type[new_dtype=bool weak_type=False sharding=None]" source_file="/fs04/fc37/adam/projects/psilocybin-prl-analyses/src/prl_hgf/fitting/hierarchical_patrl.py" source_line=362}
  convert.107.17 = s32[4]{0} convert(compare.378.17), metadata={op_name="jit(scan)/jit(main)/while/body/jit(beliefs_propagation)/jit(continuous_node_posterior_update_ehgf)/jit(posterior_update_precision_continuous_node)/convert_element_type[new_dtype=int32 weak_type=False sharding=None]" source_file="/fs04/fc37/adam/projects/psilocybin-prl-analyses/src/prl_hgf/fitting/hierarchical_patrl.py" source_line=362}
  constant_781_4 = s32[] constant(0)
  broadcast.3263.7 = s32[4]{0} broadcast(constant_781_4), dimensions={}
  compare.381.7 = pred[4]{0} compare(convert.107.17, broadcast.3263.7), direction=EQ, metadata={op_name="jit(scan)/jit(main)/while/body/jit(beliefs_propagation)/jit(continuous_node_posterior_update_ehgf)/jit(posterior_update_precision_continuous_node)/eq" source_file="/fs04/fc37/adam/projects/psilocybin-prl-analyses/src/prl_hgf/fitting/hierarchical_patrl.py" source_line=362}
  bitcast.5452.1 = pred[1,4]{1,0} bitcast(compare.381.7)
  param_2.1374 = s64[] parameter(2)
  compare.373.115 = pred[] compare(param_2.1374, constant_770_10), direction=LT, metadata={op_name="jit(scan)/jit(main)/while/body/lt" source_file="/fs04/fc37/adam/projects/psilocybin-prl-analyses/src/prl_hgf/fitting/hierarchical_patrl.py" source_line=378}
  constant_769_58 = s64[] constant(192)
  add.1030.115 = s64[] add(param_2.1374, constant_769_58), metadata={op_name="jit(scan)/jit(main)/while/body/add" source_file="/fs04/fc37/adam/projects/psilocybin-prl-analyses/src/prl_hgf/fitting/hierarchical_patrl.py" source_line=378}
  select.1285.115 = s64[] select(compare.373.115, add.1030.115, param_2.1374), metadata={op_name="jit(scan)/jit(main)/while/body/select_n" source_file="/fs04/fc37/adam/projects/psilocybin-prl-analyses/src/prl_hgf/fitting/hierarchical_patrl.py" source_line=378}
  ROOT dynamic-update-slice.2072.1 = pred[192,4]{1,0} dynamic-update-slice(param_0.126, bitcast.5452.1, select.1285.115, constant_770_10), metadata={op_name="jit(scan)/jit(main)/while/body/dynamic_update_slice" source_file="/fs04/fc37/adam/projects/psilocybin-prl-analyses/src/prl_hgf/fitting/hierarchical_patrl.py" source_line=378}
} // fused_dynamic_update_slice.52

fused_dynamic_update_slice.101 {
  param_0.640 = s32[192]{0} parameter(0)
  param_1.1558 = s32[192]{0} parameter(1)
  param_2.1360 = s64[] parameter(2)
  constant_770_112 = s64[] constant(0)
  compare.373.63 = pred[] compare(param_2.1360, constant_770_112), direction=LT, metadata={op_name="jit(scan)/jit(main)/while/body/lt" source_file="/fs04/fc37/adam/projects/psilocybin-prl-analyses/src/prl_hgf/fitting/hierarchical_patrl.py" source_line=378}
  constant_769_32 = s64[] constant(192)
  add.1030.63 = s64[] add(param_2.1360, constant_769_32), metadata={op_name="jit(scan)/jit(main)/while/body/add" source_file="/fs04/fc37/adam/projects/psilocybin-prl-analyses/src/prl_hgf/fitting/hierarchical_patrl.py" source_line=378}
  select.1285.63 = s64[] select(compare.373.63, add.1030.63, param_2.1360), metadata={op_name="jit(scan)/jit(main)/while/body/select_n" source_file="/fs04/fc37/adam/projects/psilocybin-prl-analyses/src/prl_hgf/fitting/hierarchical_patrl.py" source_line=378}
  dynamic-slice.55.5 = s32[1]{0} dynamic-slice(param_1.1558, select.1285.63), dynamic_slice_sizes={1}, metadata={op_name="jit(scan)/jit(main)/while/body/dynamic_slice[slice_sizes=(1,)]" source_file="/fs04/fc37/adam/projects/psilocybin-prl-analyses/src/prl_hgf/fitting/hierarchical_patrl.py" source_line=378}
  constant_778_2 = s32[1]{0} constant({0})
  compare.374.3 = pred[1]{0} compare(dynamic-slice.55.5, constant_778_2), direction=NE, metadata={op_name="jit(scan)/jit(main)/while/body/jit(beliefs_propagation)/jit(continuous_node_posterior_update)/jit(posterior_update_precision_continuous_node)/convert_element_type[new_dtype=bool weak_type=False sharding=None]" source_file="/fs04/fc37/adam/projects/psilocybin-prl-analyses/src/prl_hgf/fitting/hierarchical_patrl.py" source_line=362}
  convert.104.3 = s32[1]{0} convert(compare.374.3), metadata={op_name="jit(scan)/jit(main)/while/body/jit(beliefs_propagation)/jit(continuous_node_posterior_update)/jit(posterior_update_precision_continuous_node)/convert_element_type[new_dtype=int32 weak_type=False sharding=None]" source_file="/fs04/fc37/adam/projects/psilocybin-prl-analyses/src/prl_hgf/fitting/hierarchical_patrl.py" source_line=362}
  ROOT dynamic-update-slice.2048.1 = s32[192]{0} dynamic-update-slice(param_0.640, convert.104.3, select.1285.63), metadata={op_name="jit(scan)/jit(main)/while/body/dynamic_update_slice" source_file="/fs04/fc37/adam/projects/psilocybin-prl-analyses/src/prl_hgf/fitting/hierarchical_patrl.py" source_line=378}
} // fused_dynamic_update_slice.101

fused_dynamic_update_slice.93 {
  param_0.167 = pred[192,4]{1,0} parameter(0)
  param_3.1144 = f64[192]{0} parameter(3)
  param_1.1462 = s64[] parameter(1)
  constant_770_20 = s64[] constant(0)
  compare.373.349 = pred[] compare(param_1.1462, constant_770_20), direction=LT, metadata={op_name="jit(scan)/jit(main)/while/body/lt" source_file="/fs04/fc37/adam/projects/psilocybin-prl-analyses/src/prl_hgf/fitting/hierarchical_patrl.py" source_line=378}
  constant_769_11 = s64[] constant(192)
  add.1030.349 = s64[] add(param_1.1462, constant_769_11), metadata={op_name="jit(scan)/jit(main)/while/body/add" source_file="/fs04/fc37/adam/projects/psilocybin-prl-analyses/src/prl_hgf/fitting/hierarchical_patrl.py" source_line=378}
  select.1285.349 = s64[] select(compare.373.349, add.1030.349, param_1.1462), metadata={op_name="jit(scan)/jit(main)/while/body/select_n" source_file="/fs04/fc37/adam/projects/psilocybin-prl-analyses/src/prl_hgf/fitting/hierarchical_patrl.py" source_line=378}
  dynamic-slice.54.100 = f64[1]{0} dynamic-slice(param_3.1144, select.1285.349), dynamic_slice_sizes={1}, metadata={op_name="jit(scan)/jit(main)/while/body/dynamic_slice[slice_sizes=(1,)]" source_file="/fs04/fc37/adam/projects/psilocybin-prl-analyses/src/prl_hgf/fitting/hierarchical_patrl.py" source_line=378}
  bitcast.3967.121 = f64[] bitcast(dynamic-slice.54.100)
  broadcast.3212.89 = f64[4]{0} broadcast(bitcast.3967.121), dimensions={}, metadata={op_name="jit(scan)/jit(main)/while/body/jit(beliefs_propagation)/jit(continuous_node_prediction)/jit(predict_mean)/mul" source_file="/fs04/fc37/adam/projects/psilocybin-prl-analyses/src/prl_hgf/fitting/hierarchical_patrl.py" source_line=362}
  param_2.1347 = f64[4]{0} parameter(2)
  exponential.76.67 = f64[4]{0} exponential(param_2.1347), metadata={op_name="jit(scan)/jit(main)/while/body/jit(beliefs_propagation)/jit(continuous_node_prediction)/jit(predict_precision)/exp" source_file="/fs04/fc37/adam/projects/psilocybin-prl-analyses/src/prl_hgf/fitting/hierarchical_patrl.py" source_line=362}
  multiply.3524.35 = f64[4]{0} multiply(broadcast.3212.89, exponential.76.67), metadata={op_name="jit(scan)/jit(main)/while/body/jit(beliefs_propagation)/jit(continuous_node_prediction)/jit(predict_precision)/mul" source_file="/fs04/fc37/adam/projects/psilocybin-prl-analyses/src/prl_hgf/fitting/hierarchical_patrl.py" source_line=362}
  constant_774_13 = f64[] constant(1e-128)
  broadcast.3214.clone.29 = f64[4]{0} broadcast(constant_774_13), dimensions={}
  compare.377.7 = pred[4]{0} compare(multiply.3524.35, broadcast.3214.clone.29), direction=GT, metadata={op_name="jit(scan)/jit(main)/while/body/jit(beliefs_propagation)/jit(continuous_node_prediction)/jit(predict_precision)/gt" source_file="/fs04/fc37/adam/projects/psilocybin-prl-analyses/src/prl_hgf/fitting/hierarchical_patrl.py" source_line=362}
  bitcast.4998.1 = pred[1,4]{1,0} bitcast(compare.377.7)
  ROOT dynamic-update-slice.2030.1 = pred[192,4]{1,0} dynamic-update-slice(param_0.167, bitcast.4998.1, select.1285.349, constant_770_20), metadata={op_name="jit(scan)/jit(main)/while/body/dynamic_update_slice" source_file="/fs04/fc37/adam/projects/psilocybin-prl-analyses/src/prl_hgf/fitting/hierarchical_patrl.py" source_line=378}
} // fused_dynamic_update_slice.93

fused_dynamic_update_slice.78 {
  param_0.152 = f64[192]{0} parameter(0)
  param_1.1117 = f64[] parameter(1)
  bitcast.5163.1 = f64[1]{0} bitcast(param_1.1117)
  param_2.854 = s64[] parameter(2)
  constant_770_111 = s64[] constant(0)
  compare.373.55 = pred[] compare(param_2.854, constant_770_111), direction=LT, metadata={op_name="jit(scan)/jit(main)/while/body/lt" source_file="/fs04/fc37/adam/projects/psilocybin-prl-analyses/src/prl_hgf/fitting/hierarchical_patrl.py" source_line=378}
  constant_769_28 = s64[] constant(192)
  add.1030.55 = s64[] add(param_2.854, constant_769_28), metadata={op_name="jit(scan)/jit(main)/while/body/add" source_file="/fs04/fc37/adam/projects/psilocybin-prl-analyses/src/prl_hgf/fitting/hierarchical_patrl.py" source_line=378}
  select.1285.55 = s64[] select(compare.373.55, add.1030.55, param_2.854), metadata={op_name="jit(scan)/jit(main)/while/body/select_n" source_file="/fs04/fc37/adam/projects/psilocybin-prl-analyses/src/prl_hgf/fitting/hierarchical_patrl.py" source_line=378}
  ROOT dynamic-update-slice.2045.1 = f64[192]{0} dynamic-update-slice(param_0.152, bitcast.5163.1, select.1285.55), metadata={op_name="jit(scan)/jit(main)/while/body/dynamic_update_slice" source_file="/fs04/fc37/adam/projects/psilocybin-prl-analyses/src/prl_hgf/fitting/hierarchical_patrl.py" source_line=378}
} // fused_dynamic_update_slice.78

fused_dynamic_update_slice.53 {
  param_0.127 = s32[192,4]{1,0} parameter(0)
  param_1.1449 = s64[4]{0} parameter(1)
  constant_770_6 = s64[] constant(0)
  broadcast.3231.9 = s64[4]{0} broadcast(constant_770_6), dimensions={}
  compare.378.9 = pred[4]{0} compare(param_1.1449, broadcast.3231.9), direction=NE, metadata={op_name="jit(scan)/jit(main)/while/body/jit(beliefs_propagation)/jit(continuous_node_posterior_update_ehgf)/jit(posterior_update_precision_continuous_node)/convert_element_type[new_dtype=bool weak_type=False sharding=None]" source_file="/fs04/fc37/adam/projects/psilocybin-prl-analyses/src/prl_hgf/fitting/hierarchical_patrl.py" source_line=362}
  convert.107.9 = s32[4]{0} convert(compare.378.9), metadata={op_name="jit(scan)/jit(main)/while/body/jit(beliefs_propagation)/jit(continuous_node_posterior_update_ehgf)/jit(posterior_update_precision_continuous_node)/convert_element_type[new_dtype=int32 weak_type=False sharding=None]" source_file="/fs04/fc37/adam/projects/psilocybin-prl-analyses/src/prl_hgf/fitting/hierarchical_patrl.py" source_line=362}
  bitcast.5441.1 = s32[1,4]{1,0} bitcast(convert.107.9)
  param_2.1240 = s64[] parameter(2)
  compare.373.113 = pred[] compare(param_2.1240, constant_770_6), direction=LT, metadata={op_name="jit(scan)/jit(main)/while/body/lt" source_file="/fs04/fc37/adam/projects/psilocybin-prl-analyses/src/prl_hgf/fitting/hierarchical_patrl.py" source_line=378}
  constant_769_57 = s64[] constant(192)
  add.1030.113 = s64[] add(param_2.1240, constant_769_57), metadata={op_name="jit(scan)/jit(main)/while/body/add" source_file="/fs04/fc37/adam/projects/psilocybin-prl-analyses/src/prl_hgf/fitting/hierarchical_patrl.py" source_line=378}
  select.1285.113 = s64[] select(compare.373.113, add.1030.113, param_2.1240), metadata={op_name="jit(scan)/jit(main)/while/body/select_n" source_file="/fs04/fc37/adam/projects/psilocybin-prl-analyses/src/prl_hgf/fitting/hierarchical_patrl.py" source_line=378}
  ROOT dynamic-update-slice.2071.1 = s32[192,4]{1,0} dynamic-update-slice(param_0.127, bitcast.5441.1, select.1285.113, constant_770_6), metadata={op_name="jit(scan)/jit(main)/while/body/dynamic_update_slice" source_file="/fs04/fc37/adam/projects/psilocybin-prl-analyses/src/prl_hgf/fitting/hierarchical_patrl.py" source_line=378}
} // fused_dynamic_update_slice.53

command_buffer.4 {
  p.148 = f64[192]{0} parameter(0)
  p.149 = s64[] parameter(1)
  p.150 = (s64[], f64[4]{0}, f64[4]{0}, f64[4]{0}, f64[4]{0}, /*index=5*/s32[4]{0}, f64[4]{0}, f64[4]{0}, f64[4]{0}, f64[4]{0}, /*index=10*/f64[4]{0}, f64[4]{0}, s64[4]{0}, f64[4]{0}, f64[4]{0}, /*index=15*/f64[4]{0}, f64[4]{0}, f64[4]{0}, f64[4]{0}, f64[4]{0}, /*index=20*/f64[4,1]{1,0}, f64[4,1]{1,0}, f64[4]{0}, f64[4]{0}, f64[4]{0}, /*index=25*/f64[4]{0}, f64[4]{0}, f64[4]{0}, f64[4]{0}, f64[4]{0}, /*index=30*/f64[4]{0}, f64[4,1]{1,0}, f64[24,4]{1,0}, f64[24,4]{1,0}, f64[24,4]{1,0}, /*index=35*/f64[24,4]{1,0}, f64[24,4]{1,0}, f64[24,4]{1,0}, f64[24,4]{1,0}, f64[24,4]{1,0}, /*index=40*/f64[24,4]{1,0}, f64[24,4]{1,0}, f64[24,4]{1,0}, f64[24,4]{1,0}, f64[24,4]{1,0}, /*index=45*/f64[24,4]{1,0}, f64[24,4]{1,0}, f64[24,4]{1,0}, f64[24,4]{1,0}, f64[24,4]{1,0}, /*index=50*/f64[24,4]{1,0}, f64[24,4]{1,0}, f64[24,4,1]{1,0,2}, f64[192,4]{1,0}, f64[192,4]{1,0}, /*index=55*/f64[192,4]{1,0}, f64[192,4]{1,0}, pred[192,4]{1,0}, f64[192,4]{1,0}, f64[192,4]{1,0}, /*index=60*/f64[192,4]{1,0}, f64[192,4]{1,0}, f64[192,4]{1,0}, f64[192,4]{1,0}, f64[192,4]{1,0}, /*index=65*/pred[192,4]{1,0}, f64[192,4]{1,0}, f64[192,4]{1,0}, f64[192,4]{1,0}, f64[192,4]{1,0}, /*index=70*/f64[192,4]{1,0}, f64[192,4]{1,0}, f64[192]{0}, f64[192,4]{1,0}, f64[192,4]{1,0}, /*index=75*/s32[192]{0}, f64[192,4]{1,0}, f64[192]{0}, f64[192,4]{1,0}, f64[192,4]{1,0}, /*index=80*/f64[192,4]{1,0}, pred[192,4]{1,0}, f64[192,4]{1,0}, f64[192,4]{1,0}, f64[192,4]{1,0}, /*index=85*/f64[192,4]{1,0}, f64[192,4]{1,0}, f64[192,4]{1,0}, f64[192,4]{1,0}, f64[192,4]{1,0}, /*index=90*/f64[192,4]{1,0}, f64[192,4]{1,0}, f64[192,4]{1,0}, f64[192,4]{1,0}, f64[192,4]{1,0}, /*index=95*/f64[192,4]{1,0}, f64[192,4]{1,0}, f64[192,4]{1,0}, s32[192,4]{1,0}, pred[192,4]{1,0}, /*index=100*/pred[192,4,1]{2,1,0}, f64[192,4]{1,0}, f64[192,4]{1,0}, pred[192,4]{1,0}, pred[192,4,1]{2,1,0}, /*index=105*/f64[192,4]{1,0}, f64[192,4]{1,0}, f64[192,4]{1,0}, f64[192,4]{1,0}, f64[192,4]{1,0}, /*index=110*/pred[192,4]{1,0}, pred[192,4]{1,0}, pred[192,4,1]{2,1,0}, f64[192,24,4]{2,1,0}, f64[192,24,4]{2,1,0}, /*index=115*/f64[192,24,4]{2,1,0}, f64[192,24,4]{2,1,0}, f64[192,24,4]{2,1,0}, f64[192,24,4]{2,1,0}, f64[192,24,4]{2,1,0}, /*index=120*/f64[192,24,4]{2,1,0}, f64[192,24,4]{2,1,0}, f64[192,24,4]{2,1,0}, f64[192,24,4]{2,1,0}, f64[192,24,4]{2,1,0}, /*index=125*/f64[192,24,4]{2,1,0}, f64[192,24,4]{2,1,0}, f64[192,24,4]{2,1,0}, f64[192,24,4]{2,1,0}, f64[192,24,4]{2,1,0}, /*index=130*/f64[192,24,4]{2,1,0}, f64[192,24,4]{2,1,0}, f64[192,24,4]{2,1,0}, f64[192,24,4]{2,1,0}, f64[192,24,4]{2,1,0}, /*index=135*/f64[192,24,4]{2,1,0}, f64[192,24,4]{2,1,0}, f64[192,24,4]{2,1,0}, f64[192,24,4]{2,1,0}, f64[192,24,4]{2,1,0}, /*index=140*/f64[192,24,4]{2,1,0}, f64[192,24,4]{2,1,0}, f64[192,24,4]{2,1,0}, f64[192,24,4]{2,1,0}, f64[192,24,4]{2,1,0}, /*index=145*/f64[192,24,4]{2,1,0}, f64[192,24,4]{2,1,0}, f64[192,24,4]{2,1,0}, f64[192,24,4]{2,1,0}, f64[192,24,4]{2,1,0}, /*index=150*/f64[192,24,4]{2,1,0}, f64[192,24,4]{2,1,0}, f64[192,24,4]{2,1,0}, f64[192,24,4]{2,1,0}, f64[192,24,4]{2,1,0}, /*index=155*/f64[192,24,4]{2,1,0}, f64[192,24,4]{2,1,0}, f64[192,4,1]{2,1,0}, s32[192]{0}, f64[192]{0}, /*index=160*/f64[4]{0}, f64[4]{0}, f64[4]{0}) parameter(2)
  loop_dynamic_slice_fusion = f64[1]{0} fusion(p.148, p.149), kind=kLoop, calls=fused_dynamic_slice, metadata={op_name="jit(scan)/jit(main)/while/body/dynamic_slice[slice_sizes=(1,)]" source_file="/fs04/fc37/adam/projects/psilocybin-prl-analyses/src/prl_hgf/fitting/hierarchical_patrl.py" source_line=378}
  bitcast.3967.0 = f64[] bitcast(loop_dynamic_slice_fusion)
  get-tuple-element.12031 = s64[4]{0} get-tuple-element(p.150), index=12
  get-tuple-element.12050 = f64[4,1]{1,0} get-tuple-element(p.150), index=31
  get-tuple-element.12049 = f64[4]{0} get-tuple-element(p.150), index=30
  get-tuple-element.12027 = f64[4]{0} get-tuple-element(p.150), index=8
  get-tuple-element.12040 = f64[4,1]{1,0} get-tuple-element(p.150), index=21
  get-tuple-element.12071 = f64[24,4,1]{1,0,2} get-tuple-element(p.150), index=52
  get-tuple-element.12038 = f64[4]{0} get-tuple-element(p.150), index=19
  get-tuple-element.12070 = f64[24,4]{1,0} get-tuple-element(p.150), index=51
  get-tuple-element.11904 = f64[24,4]{1,0} get-tuple-element(p.150), index=48
  get-tuple-element.12037 = f64[4]{0} get-tuple-element(p.150), index=18
  get-tuple-element.12039 = f64[4,1]{1,0} get-tuple-element(p.150), index=20
  get-tuple-element.12063 = f64[24,4]{1,0} get-tuple-element(p.150), index=44
  get-tuple-element.12176 = f64[192,4,1]{2,1,0} get-tuple-element(p.150), index=157
  get-tuple-element.11903 = f64[24,4]{1,0} get-tuple-element(p.150), index=47
  get-tuple-element.11895 = f64[24,4]{1,0} get-tuple-element(p.150), index=39
  get-tuple-element.12179 = f64[4]{0} get-tuple-element(p.150), index=160
  get-tuple-element.11869 = f64[4]{0} get-tuple-element(p.150), index=13
  get-tuple-element.12041 = f64[4]{0} get-tuple-element(p.150), index=22
  get-tuple-element.12177 = s32[192]{0} get-tuple-element(p.150), index=158
  get-tuple-element.11882 = f64[4]{0} get-tuple-element(p.150), index=26
  get-tuple-element.12048 = f64[4]{0} get-tuple-element(p.150), index=29
  get-tuple-element.12180 = f64[4]{0} get-tuple-element(p.150), index=161
  get-tuple-element.12181 = f64[4]{0} get-tuple-element(p.150), index=162
  get-tuple-element.11857 = f64[4]{0} get-tuple-element(p.150), index=1
  get-tuple-element.11858 = f64[4]{0} get-tuple-element(p.150), index=2
  get-tuple-element.11859 = f64[4]{0} get-tuple-element(p.150), index=3
  get-tuple-element.11860 = f64[4]{0} get-tuple-element(p.150), index=4
  get-tuple-element.11861 = s32[4]{0} get-tuple-element(p.150), index=5
  get-tuple-element.11862 = f64[4]{0} get-tuple-element(p.150), index=6
  get-tuple-element.11863 = f64[4]{0} get-tuple-element(p.150), index=7
  get-tuple-element.11865 = f64[4]{0} get-tuple-element(p.150), index=9
  get-tuple-element.11866 = f64[4]{0} get-tuple-element(p.150), index=10
  get-tuple-element.11867 = f64[4]{0} get-tuple-element(p.150), index=11
  get-tuple-element.11870 = f64[4]{0} get-tuple-element(p.150), index=14
  get-tuple-element.11871 = f64[4]{0} get-tuple-element(p.150), index=15
  get-tuple-element.11872 = f64[4]{0} get-tuple-element(p.150), index=16
  get-tuple-element.11873 = f64[4]{0} get-tuple-element(p.150), index=17
  get-tuple-element.11879 = f64[4]{0} get-tuple-element(p.150), index=23
  get-tuple-element.11880 = f64[4]{0} get-tuple-element(p.150), index=24
  get-tuple-element.11881 = f64[4]{0} get-tuple-element(p.150), index=25
  get-tuple-element.11883 = f64[4]{0} get-tuple-element(p.150), index=27
  get-tuple-element.11884 = f64[4]{0} get-tuple-element(p.150), index=28
  get-tuple-element.11888 = f64[24,4]{1,0} get-tuple-element(p.150), index=32
  get-tuple-element.11889 = f64[24,4]{1,0} get-tuple-element(p.150), index=33
  get-tuple-element.11890 = f64[24,4]{1,0} get-tuple-element(p.150), index=34
  get-tuple-element.11891 = f64[24,4]{1,0} get-tuple-element(p.150), index=35
  get-tuple-element.11892 = f64[24,4]{1,0} get-tuple-element(p.150), index=36
  get-tuple-element.11893 = f64[24,4]{1,0} get-tuple-element(p.150), index=37
  get-tuple-element.11894 = f64[24,4]{1,0} get-tuple-element(p.150), index=38
  get-tuple-element.11896 = f64[24,4]{1,0} get-tuple-element(p.150), index=40
  get-tuple-element.11897 = f64[24,4]{1,0} get-tuple-element(p.150), index=41
  get-tuple-element.11898 = f64[24,4]{1,0} get-tuple-element(p.150), index=42
  get-tuple-element.11899 = f64[24,4]{1,0} get-tuple-element(p.150), index=43
  get-tuple-element.11901 = f64[24,4]{1,0} get-tuple-element(p.150), index=45
  get-tuple-element.11902 = f64[24,4]{1,0} get-tuple-element(p.150), index=46
  get-tuple-element.11905 = f64[24,4]{1,0} get-tuple-element(p.150), index=49
  get-tuple-element.11906 = f64[24,4]{1,0} get-tuple-element(p.150), index=50
  get-tuple-element.11909 = f64[192,4]{1,0} get-tuple-element(p.150), index=53
  get-tuple-element.11910 = f64[192,4]{1,0} get-tuple-element(p.150), index=54
  get-tuple-element.11911 = f64[192,4]{1,0} get-tuple-element(p.150), index=55
  get-tuple-element.11912 = f64[192,4]{1,0} get-tuple-element(p.150), index=56
  get-tuple-element.11913 = pred[192,4]{1,0} get-tuple-element(p.150), index=57
  get-tuple-element.11914 = f64[192,4]{1,0} get-tuple-element(p.150), index=58
  get-tuple-element.11915 = f64[192,4]{1,0} get-tuple-element(p.150), index=59
  get-tuple-element.11916 = f64[192,4]{1,0} get-tuple-element(p.150), index=60
  get-tuple-element.11917 = f64[192,4]{1,0} get-tuple-element(p.150), index=61
  get-tuple-element.11918 = f64[192,4]{1,0} get-tuple-element(p.150), index=62
  get-tuple-element.11919 = f64[192,4]{1,0} get-tuple-element(p.150), index=63
  get-tuple-element.11920 = f64[192,4]{1,0} get-tuple-element(p.150), index=64
  get-tuple-element.11921 = pred[192,4]{1,0} get-tuple-element(p.150), index=65
  get-tuple-element.11922 = f64[192,4]{1,0} get-tuple-element(p.150), index=66
  get-tuple-element.11923 = f64[192,4]{1,0} get-tuple-element(p.150), index=67
  get-tuple-element.11924 = f64[192,4]{1,0} get-tuple-element(p.150), index=68
  get-tuple-element.11925 = f64[192,4]{1,0} get-tuple-element(p.150), index=69
  get-tuple-element.11926 = f64[192,4]{1,0} get-tuple-element(p.150), index=70
  get-tuple-element.11927 = f64[192,4]{1,0} get-tuple-element(p.150), index=71
  get-tuple-element.11928 = f64[192]{0} get-tuple-element(p.150), index=72
  get-tuple-element.11929 = f64[192,4]{1,0} get-tuple-element(p.150), index=73
  get-tuple-element.11930 = f64[192,4]{1,0} get-tuple-element(p.150), index=74
  get-tuple-element.11931 = s32[192]{0} get-tuple-element(p.150), index=75
  get-tuple-element.11932 = f64[192,4]{1,0} get-tuple-element(p.150), index=76
  get-tuple-element.11933 = f64[192]{0} get-tuple-element(p.150), index=77
  get-tuple-element.11934 = f64[192,4]{1,0} get-tuple-element(p.150), index=78
  get-tuple-element.11935 = f64[192,4]{1,0} get-tuple-element(p.150), index=79
  get-tuple-element.11936 = f64[192,4]{1,0} get-tuple-element(p.150), index=80
  get-tuple-element.11937 = pred[192,4]{1,0} get-tuple-element(p.150), index=81
  get-tuple-element.11938 = f64[192,4]{1,0} get-tuple-element(p.150), index=82
  get-tuple-element.11939 = f64[192,4]{1,0} get-tuple-element(p.150), index=83
  get-tuple-element.11940 = f64[192,4]{1,0} get-tuple-element(p.150), index=84
  get-tuple-element.11941 = f64[192,4]{1,0} get-tuple-element(p.150), index=85
  get-tuple-element.11942 = f64[192,4]{1,0} get-tuple-element(p.150), index=86
  get-tuple-element.11943 = f64[192,4]{1,0} get-tuple-element(p.150), index=87
  get-tuple-element.11944 = f64[192,4]{1,0} get-tuple-element(p.150), index=88
  get-tuple-element.11945 = f64[192,4]{1,0} get-tuple-element(p.150), index=89
  get-tuple-element.11946 = f64[192,4]{1,0} get-tuple-element(p.150), index=90
  get-tuple-element.11947 = f64[192,4]{1,0} get-tuple-element(p.150), index=91
  get-tuple-element.11948 = f64[192,4]{1,0} get-tuple-element(p.150), index=92
  get-tuple-element.11949 = f64[192,4]{1,0} get-tuple-element(p.150), index=93
  get-tuple-element.11950 = f64[192,4]{1,0} get-tuple-element(p.150), index=94
  get-tuple-element.11951 = f64[192,4]{1,0} get-tuple-element(p.150), index=95
  get-tuple-element.11952 = f64[192,4]{1,0} get-tuple-element(p.150), index=96
  get-tuple-element.11953 = f64[192,4]{1,0} get-tuple-element(p.150), index=97
  get-tuple-element.11954 = s32[192,4]{1,0} get-tuple-element(p.150), index=98
  get-tuple-element.11955 = pred[192,4]{1,0} get-tuple-element(p.150), index=99
  get-tuple-element.11956 = pred[192,4,1]{2,1,0} get-tuple-element(p.150), index=100
  get-tuple-element.11957 = f64[192,4]{1,0} get-tuple-element(p.150), index=101
  get-tuple-element.11958 = f64[192,4]{1,0} get-tuple-element(p.150), index=102
  get-tuple-element.11959 = pred[192,4]{1,0} get-tuple-element(p.150), index=103
  get-tuple-element.11960 = pred[192,4,1]{2,1,0} get-tuple-element(p.150), index=104
  get-tuple-element.11961 = f64[192,4]{1,0} get-tuple-element(p.150), index=105
  get-tuple-element.11962 = f64[192,4]{1,0} get-tuple-element(p.150), index=106
  get-tuple-element.11963 = f64[192,4]{1,0} get-tuple-element(p.150), index=107
  get-tuple-element.11964 = f64[192,4]{1,0} get-tuple-element(p.150), index=108
  get-tuple-element.11965 = f64[192,4]{1,0} get-tuple-element(p.150), index=109
  get-tuple-element.11966 = pred[192,4]{1,0} get-tuple-element(p.150), index=110
  get-tuple-element.11967 = pred[192,4]{1,0} get-tuple-element(p.150), index=111
  get-tuple-element.11968 = pred[192,4,1]{2,1,0} get-tuple-element(p.150), index=112
  get-tuple-element.11969 = f64[192,24,4]{2,1,0} get-tuple-element(p.150), index=113
  get-tuple-element.11970 = f64[192,24,4]{2,1,0} get-tuple-element(p.150), index=114
  get-tuple-element.11971 = f64[192,24,4]{2,1,0} get-tuple-element(p.150), index=115
  get-tuple-element.11972 = f64[192,24,4]{2,1,0} get-tuple-element(p.150), index=116
  get-tuple-element.11973 = f64[192,24,4]{2,1,0} get-tuple-element(p.150), index=117
  get-tuple-element.11974 = f64[192,24,4]{2,1,0} get-tuple-element(p.150), index=118
  get-tuple-element.11975 = f64[192,24,4]{2,1,0} get-tuple-element(p.150), index=119
  get-tuple-element.11976 = f64[192,24,4]{2,1,0} get-tuple-element(p.150), index=120
  get-tuple-element.11977 = f64[192,24,4]{2,1,0} get-tuple-element(p.150), index=121
  get-tuple-element.11978 = f64[192,24,4]{2,1,0} get-tuple-element(p.150), index=122
  get-tuple-element.11979 = f64[192,24,4]{2,1,0} get-tuple-element(p.150), index=123
  get-tuple-element.11980 = f64[192,24,4]{2,1,0} get-tuple-element(p.150), index=124
  get-tuple-element.11981 = f64[192,24,4]{2,1,0} get-tuple-element(p.150), index=125
  get-tuple-element.11982 = f64[192,24,4]{2,1,0} get-tuple-element(p.150), index=126
  get-tuple-element.11983 = f64[192,24,4]{2,1,0} get-tuple-element(p.150), index=127
  get-tuple-element.11984 = f64[192,24,4]{2,1,0} get-tuple-element(p.150), index=128
  get-tuple-element.11985 = f64[192,24,4]{2,1,0} get-tuple-element(p.150), index=129
  get-tuple-element.11986 = f64[192,24,4]{2,1,0} get-tuple-element(p.150), index=130
  get-tuple-element.11987 = f64[192,24,4]{2,1,0} get-tuple-element(p.150), index=131
  get-tuple-element.11988 = f64[192,24,4]{2,1,0} get-tuple-element(p.150), index=132
  get-tuple-element.11989 = f64[192,24,4]{2,1,0} get-tuple-element(p.150), index=133
  get-tuple-element.11990 = f64[192,24,4]{2,1,0} get-tuple-element(p.150), index=134
  get-tuple-element.11991 = f64[192,24,4]{2,1,0} get-tuple-element(p.150), index=135
  get-tuple-element.11992 = f64[192,24,4]{2,1,0} get-tuple-element(p.150), index=136
  get-tuple-element.11993 = f64[192,24,4]{2,1,0} get-tuple-element(p.150), index=137
  get-tuple-element.11994 = f64[192,24,4]{2,1,0} get-tuple-element(p.150), index=138
  get-tuple-element.11995 = f64[192,24,4]{2,1,0} get-tuple-element(p.150), index=139
  get-tuple-element.11996 = f64[192,24,4]{2,1,0} get-tuple-element(p.150), index=140
  get-tuple-element.11997 = f64[192,24,4]{2,1,0} get-tuple-element(p.150), index=141
  get-tuple-element.11998 = f64[192,24,4]{2,1,0} get-tuple-element(p.150), index=142
  get-tuple-element.11999 = f64[192,24,4]{2,1,0} get-tuple-element(p.150), index=143
  get-tuple-element.12000 = f64[192,24,4]{2,1,0} get-tuple-element(p.150), index=144
  get-tuple-element.12001 = f64[192,24,4]{2,1,0} get-tuple-element(p.150), index=145
  get-tuple-element.12002 = f64[192,24,4]{2,1,0} get-tuple-element(p.150), index=146
  get-tuple-element.12003 = f64[192,24,4]{2,1,0} get-tuple-element(p.150), index=147
  get-tuple-element.12004 = f64[192,24,4]{2,1,0} get-tuple-element(p.150), index=148
  get-tuple-element.12005 = f64[192,24,4]{2,1,0} get-tuple-element(p.150), index=149
  get-tuple-element.12006 = f64[192,24,4]{2,1,0} get-tuple-element(p.150), index=150
  get-tuple-element.12007 = f64[192,24,4]{2,1,0} get-tuple-element(p.150), index=151
  get-tuple-element.12008 = f64[192,24,4]{2,1,0} get-tuple-element(p.150), index=152
  get-tuple-element.12009 = f64[192,24,4]{2,1,0} get-tuple-element(p.150), index=153
  get-tuple-element.12010 = f64[192,24,4]{2,1,0} get-tuple-element(p.150), index=154
  get-tuple-element.12011 = f64[192,24,4]{2,1,0} get-tuple-element(p.150), index=155
  get-tuple-element.12012 = f64[192,24,4]{2,1,0} get-tuple-element(p.150), index=156
  wrapped_copy.3 = f64[4]{0} fusion(get-tuple-element.11881), kind=kLoop, calls=wrapped_copy_computation.3
  wrapped_copy.4 = f64[4]{0} fusion(get-tuple-element.11867), kind=kLoop, calls=wrapped_copy_computation.4
  loop_convert_dynamic_slice_fusion = (s32[1]{0}, s32[1]{0}, f64[]) fusion(get-tuple-element.12177, p.149), kind=kLoop, calls=fused_convert_dynamic_slice, metadata={op_name="jit(scan)/jit(main)/while/body/dynamic_slice[slice_sizes=(1,)]" source_file="/fs04/fc37/adam/projects/psilocybin-prl-analyses/src/prl_hgf/fitting/hierarchical_patrl.py" source_line=378}
  get-tuple-element.11663 = f64[] get-tuple-element(loop_convert_dynamic_slice_fusion), index=2, metadata={op_name="jit(scan)/jit(main)/while/body/dynamic_slice[slice_sizes=(1,)]" source_file="/fs04/fc37/adam/projects/psilocybin-prl-analyses/src/prl_hgf/fitting/hierarchical_patrl.py" source_line=378}
  get-tuple-element.11662 = s32[1]{0} get-tuple-element(loop_convert_dynamic_slice_fusion), index=1, metadata={op_name="jit(scan)/jit(main)/while/body/dynamic_slice[slice_sizes=(1,)]" source_file="/fs04/fc37/adam/projects/psilocybin-prl-analyses/src/prl_hgf/fitting/hierarchical_patrl.py" source_line=378}
  bitcast.4004.0 = s32[] bitcast(get-tuple-element.11662)
  get-tuple-element.11661 = s32[1]{0} get-tuple-element(loop_convert_dynamic_slice_fusion), index=0, metadata={op_name="jit(scan)/jit(main)/while/body/dynamic_slice[slice_sizes=(1,)]" source_file="/fs04/fc37/adam/projects/psilocybin-prl-analyses/src/prl_hgf/fitting/hierarchical_patrl.py" source_line=378}
  bitcast.4028.0 = s32[] bitcast(get-tuple-element.11661)
  tuple.230.0 = (f64[], f64[4]{0}, f64[4]{0}, f64[4,1]{1,0}, f64[4]{0}, /*index=5*/f64[24,4]{1,0}, f64[24,4]{1,0}, f64[24,4]{1,0}) tuple(bitcast.3967.0, get-tuple-element.11869, get-tuple-element.12038, get-tuple-element.12040, wrapped_copy.3, /*index=5*/get-tuple-element.11895, get-tuple-element.12063, get-tuple-element.11903), metadata={op_name="jit(scan)/jit(main)/while/body/jit(beliefs_propagation)/jit(continuous_node_posterior_update)/jit(posterior_update_precision_continuous_node)/cond" source_file="/fs04/fc37/adam/projects/psilocybin-prl-analyses/src/prl_hgf/fitting/hierarchical_patrl.py" source_line=362}
  loop_divide_multiply_select_fusion = (f64[4]{0}, f64[4]{0}, f64[4]{0}, f64[4]{0}, f64[4]{0}, /*index=5*/f64[4]{0}) fusion(get-tuple-element.12180, get-tuple-element.12038, wrapped_copy.3, get-tuple-element.12040, p.148, /*index=5*/p.149, get-tuple-element.11869, get-tuple-element.12037, get-tuple-element.12027, wrapped_copy.4), kind=kLoop, calls=fused_divide_multiply_select, metadata={op_name="jit(scan)/jit(main)/while/body/jit(beliefs_propagation)/jit(continuous_node_prediction)/jit(predict_precision)/div" source_file="/fs04/fc37/adam/projects/psilocybin-prl-analyses/src/prl_hgf/fitting/hierarchical_patrl.py" source_line=362}
  get-tuple-element.11653 = f64[4]{0} get-tuple-element(loop_divide_multiply_select_fusion), index=1, metadata={op_name="jit(scan)/jit(main)/while/body/jit(beliefs_propagation)/jit(continuous_node_prediction)/jit(predict_precision)/div" source_file="/fs04/fc37/adam/projects/psilocybin-prl-analyses/src/prl_hgf/fitting/hierarchical_patrl.py" source_line=362}
  get-tuple-element.11652 = f64[4]{0} get-tuple-element(loop_divide_multiply_select_fusion), index=0, metadata={op_name="jit(scan)/jit(main)/while/body/jit(beliefs_propagation)/jit(continuous_node_prediction)/jit(predict_precision)/div" source_file="/fs04/fc37/adam/projects/psilocybin-prl-analyses/src/prl_hgf/fitting/hierarchical_patrl.py" source_line=362}
  get-tuple-element.11659 = f64[4]{0} get-tuple-element(loop_divide_multiply_select_fusion), index=4, metadata={op_name="jit(scan)/jit(main)/while/body/jit(beliefs_propagation)/jit(continuous_node_prediction)/jit(predict_precision)/div" source_file="/fs04/fc37/adam/projects/psilocybin-prl-analyses/src/prl_hgf/fitting/hierarchical_patrl.py" source_line=362}
  get-tuple-element.11660 = f64[4]{0} get-tuple-element(loop_divide_multiply_select_fusion), index=5, metadata={op_name="jit(scan)/jit(main)/while/body/jit(beliefs_propagation)/jit(continuous_node_prediction)/jit(predict_precision)/div" source_file="/fs04/fc37/adam/projects/psilocybin-prl-analyses/src/prl_hgf/fitting/hierarchical_patrl.py" source_line=362}
  get-tuple-element.11658 = f64[4]{0} get-tuple-element(loop_divide_multiply_select_fusion), index=3, metadata={op_name="jit(scan)/jit(main)/while/body/jit(beliefs_propagation)/jit(continuous_node_prediction)/jit(predict_precision)/div" source_file="/fs04/fc37/adam/projects/psilocybin-prl-analyses/src/prl_hgf/fitting/hierarchical_patrl.py" source_line=362}
  get-tuple-element.11654 = f64[4]{0} get-tuple-element(loop_divide_multiply_select_fusion), index=2, metadata={op_name="jit(scan)/jit(main)/while/body/jit(beliefs_propagation)/jit(continuous_node_prediction)/jit(predict_precision)/div" source_file="/fs04/fc37/adam/projects/psilocybin-prl-analyses/src/prl_hgf/fitting/hierarchical_patrl.py" source_line=362}
  wrapped_copy.5 = f64[24,4]{1,0} fusion(get-tuple-element.11894), kind=kLoop, calls=wrapped_copy_computation.5
  loop_add_fusion = f64[24,4]{1,0} fusion(get-tuple-element.11660, get-tuple-element.11659, wrapped_copy.5, get-tuple-element.12027), kind=kLoop, calls=fused_add, metadata={op_name="jit(scan)/jit(main)/while/body/jit(beliefs_propagation)/jit(binary_state_node_prediction)/add_any" source_file="/fs04/fc37/adam/projects/psilocybin-prl-analyses/src/prl_hgf/fitting/hierarchical_patrl.py" source_line=362}
  loop_multiply_fusion.1 = f64[24,4]{1,0} fusion(get-tuple-element.11658, get-tuple-element.11895, get-tuple-element.11654, get-tuple-element.11653, get-tuple-element.12038, /*index=5*/wrapped_copy.3, get-tuple-element.12040, get-tuple-element.12063, get-tuple-element.11903, p.148, /*index=10*/p.149), kind=kLoop, calls=fused_multiply.1, metadata={op_name="jit(scan)/jit(main)/while/body/jit(beliefs_propagation)/jit(continuous_node_prediction)/jit(predict_precision)/mul" source_file="/fs04/fc37/adam/projects/psilocybin-prl-analyses/src/prl_hgf/fitting/hierarchical_patrl.py" source_line=362}
  tuple.231.0 = (f64[4]{0}, s32[], f64[4]{0}, f64[4,1]{1,0}, f64[24,4]{1,0}, /*index=5*/f64[24,4]{1,0}) tuple(get-tuple-element.11659, bitcast.4028.0, get-tuple-element.11652, get-tuple-element.12039, loop_add_fusion, /*index=5*/loop_multiply_fusion.1), metadata={op_name="jit(scan)/jit(main)/while/body/jit(beliefs_propagation)/jit(continuous_node_posterior_update)/jit(posterior_update_precision_continuous_node)/cond" source_file="/fs04/fc37/adam/projects/psilocybin-prl-analyses/src/prl_hgf/fitting/hierarchical_patrl.py" source_line=362}
  loop_dynamic_update_slice_fusion.85 = pred[192,4]{1,0} fusion(get-tuple-element.11921, p.149, get-tuple-element.12038, wrapped_copy.3, get-tuple-element.12040, /*index=5*/p.148), kind=kLoop, calls=fused_dynamic_update_slice.85, metadata={op_name="jit(scan)/jit(main)/while/body/dynamic_update_slice" source_file="/fs04/fc37/adam/projects/psilocybin-prl-analyses/src/prl_hgf/fitting/hierarchical_patrl.py" source_line=378}
  loop_dynamic_update_slice_fusion.48 = pred[192,4,1]{2,1,0} fusion(get-tuple-element.11960, p.149, get-tuple-element.12031), kind=kLoop, calls=fused_dynamic_update_slice.48, metadata={op_name="jit(scan)/jit(main)/while/body/dynamic_update_slice" source_file="/fs04/fc37/adam/projects/psilocybin-prl-analyses/src/prl_hgf/fitting/hierarchical_patrl.py" source_line=378}
  loop_dynamic_update_slice_fusion.49 = pred[192,4]{1,0} fusion(get-tuple-element.11959, p.149, get-tuple-element.12031), kind=kLoop, calls=fused_dynamic_update_slice.49, metadata={op_name="jit(scan)/jit(main)/while/body/dynamic_update_slice" source_file="/fs04/fc37/adam/projects/psilocybin-prl-analyses/src/prl_hgf/fitting/hierarchical_patrl.py" source_line=378}
  loop_dynamic_update_slice_fusion.51 = pred[192,4,1]{2,1,0} fusion(get-tuple-element.11956, get-tuple-element.12031, p.149), kind=kLoop, calls=fused_dynamic_update_slice.51, metadata={op_name="jit(scan)/jit(main)/while/body/dynamic_update_slice" source_file="/fs04/fc37/adam/projects/psilocybin-prl-analyses/src/prl_hgf/fitting/hierarchical_patrl.py" source_line=378}
  loop_dynamic_update_slice_fusion.52 = pred[192,4]{1,0} fusion(get-tuple-element.11955, get-tuple-element.12031, p.149), kind=kLoop, calls=fused_dynamic_update_slice.52, metadata={op_name="jit(scan)/jit(main)/while/body/dynamic_update_slice" source_file="/fs04/fc37/adam/projects/psilocybin-prl-analyses/src/prl_hgf/fitting/hierarchical_patrl.py" source_line=378}
  loop_dynamic_update_slice_fusion.101 = s32[192]{0} fusion(get-tuple-element.11931, get-tuple-element.12177, p.149), kind=kLoop, calls=fused_dynamic_update_slice.101, metadata={op_name="jit(scan)/jit(main)/while/body/dynamic_update_slice" source_file="/fs04/fc37/adam/projects/psilocybin-prl-analyses/src/prl_hgf/fitting/hierarchical_patrl.py" source_line=378}
  loop_dynamic_update_slice_fusion.93 = pred[192,4]{1,0} fusion(get-tuple-element.11913, p.149, get-tuple-element.12049, p.148), kind=kLoop, calls=fused_dynamic_update_slice.93, metadata={op_name="jit(scan)/jit(main)/while/body/dynamic_update_slice" source_file="/fs04/fc37/adam/projects/psilocybin-prl-analyses/src/prl_hgf/fitting/hierarchical_patrl.py" source_line=378}
  loop_dynamic_update_slice_fusion.78 = f64[192]{0} fusion(get-tuple-element.11928, get-tuple-element.11663, p.149), kind=kLoop, calls=fused_dynamic_update_slice.78, metadata={op_name="jit(scan)/jit(main)/while/body/dynamic_update_slice" source_file="/fs04/fc37/adam/projects/psilocybin-prl-analyses/src/prl_hgf/fitting/hierarchical_patrl.py" source_line=378 deduplicated_name="loop_dynamic_update_slice_fusion.74"}
  loop_dynamic_update_slice_fusion.53 = s32[192,4]{1,0} fusion(get-tuple-element.11954, get-tuple-element.12031, p.149), kind=kLoop, calls=fused_dynamic_update_slice.53, metadata={op_name="jit(scan)/jit(main)/while/body/dynamic_update_slice" source_file="/fs04/fc37/adam/projects/psilocybin-prl-analyses/src/prl_hgf/fitting/hierarchical_patrl.py" source_line=378}
  ROOT tuple.335 = (s64[4]{0}, f64[4,1]{1,0}, f64[4]{0}, f64[4]{0}, f64[4,1]{1,0}, /*index=5*/f64[24,4,1]{1,0,2}, f64[4]{0}, f64[24,4]{1,0}, f64[24,4]{1,0}, f64[4]{0}, /*index=10*/f64[4,1]{1,0}, f64[24,4]{1,0}, f64[192,4,1]{2,1,0}, f64[24,4]{1,0}, f64[24,4]{1,0}, /*index=15*/f64[4]{0}, f64[4]{0}, f64[4]{0}, s32[192]{0}, f64[4]{0}, /*index=20*/f64[4]{0}, f64[4]{0}, f64[4]{0}, f64[4]{0}, f64[4]{0}, /*index=25*/f64[4]{0}, f64[4]{0}, s32[4]{0}, f64[4]{0}, f64[4]{0}, /*index=30*/f64[4]{0}, f64[4]{0}, f64[4]{0}, f64[4]{0}, f64[4]{0}, /*index=35*/f64[4]{0}, f64[4]{0}, f64[4]{0}, f64[4]{0}, f64[4]{0}, /*index=40*/f64[24,4]{1,0}, f64[24,4]{1,0}, f64[24,4]{1,0}, f64[24,4]{1,0}, f64[24,4]{1,0}, /*index=45*/f64[24,4]{1,0}, f64[24,4]{1,0}, f64[24,4]{1,0}, f64[24,4]{1,0}, f64[24,4]{1,0}, /*index=50*/f64[24,4]{1,0}, f64[24,4]{1,0}, f64[24,4]{1,0}, f64[24,4]{1,0}, f64[192,4]{1,0}, /*index=55*/f64[192,4]{1,0}, f64[192,4]{1,0}, f64[192,4]{1,0}, f64[192,4]{1,0}, f64[192,4]{1,0}, /*index=60*/f64[192,4]{1,0}, f64[192,4]{1,0}, f64[192,4]{1,0}, f64[192,4]{1,0}, f64[192,4]{1,0}, /*index=65*/f64[192,4]{1,0}, f64[192,4]{1,0}, f64[192,4]{1,0}, f64[192,4]{1,0}, f64[192,4]{1,0}, /*index=70*/f64[192,4]{1,0}, f64[192,4]{1,0}, f64[192,4]{1,0}, f64[192,4]{1,0}, f64[192]{0}, /*index=75*/f64[192,4]{1,0}, f64[192,4]{1,0}, f64[192,4]{1,0}, pred[192,4]{1,0}, f64[192,4]{1,0}, /*index=80*/f64[192,4]{1,0}, f64[192,4]{1,0}, f64[192,4]{1,0}, f64[192,4]{1,0}, f64[192,4]{1,0}, /*index=85*/f64[192,4]{1,0}, f64[192,4]{1,0}, f64[192,4]{1,0}, f64[192,4]{1,0}, f64[192,4]{1,0}, /*index=90*/f64[192,4]{1,0}, f64[192,4]{1,0}, f64[192,4]{1,0}, f64[192,4]{1,0}, f64[192,4]{1,0}, /*index=95*/f64[192,4]{1,0}, f64[192,4]{1,0}, f64[192,4]{1,0}, f64[192,4]{1,0}, f64[192,4]{1,0}, /*index=100*/f64[192,4]{1,0}, f64[192,4]{1,0}, pred[192,4]{1,0}, pred[192,4]{1,0}, pred[192,4,1]{2,1,0}, /*index=105*/f64[192,24,4]{2,1,0}, f64[192,24,4]{2,1,0}, f64[192,24,4]{2,1,0}, f64[192,24,4]{2,1,0}, f64[192,24,4]{2,1,0}, /*index=110*/f64[192,24,4]{2,1,0}, f64[192,24,4]{2,1,0}, f64[192,24,4]{2,1,0}, f64[192,24,4]{2,1,0}, f64[192,24,4]{2,1,0}, /*index=115*/f64[192,24,4]{2,1,0}, f64[192,24,4]{2,1,0}, f64[192,24,4]{2,1,0}, f64[192,24,4]{2,1,0}, f64[192,24,4]{2,1,0}, /*index=120*/f64[192,24,4]{2,1,0}, f64[192,24,4]{2,1,0}, f64[192,24,4]{2,1,0}, f64[192,24,4]{2,1,0}, f64[192,24,4]{2,1,0}, /*index=125*/f64[192,24,4]{2,1,0}, f64[192,24,4]{2,1,0}, f64[192,24,4]{2,1,0}, f64[192,24,4]{2,1,0}, f64[192,24,4]{2,1,0}, /*index=130*/f64[192,24,4]{2,1,0}, f64[192,24,4]{2,1,0}, f64[192,24,4]{2,1,0}, f64[192,24,4]{2,1,0}, f64[192,24,4]{2,1,0}, /*index=135*/f64[192,24,4]{2,1,0}, f64[192,24,4]{2,1,0}, f64[192,24,4]{2,1,0}, f64[192,24,4]{2,1,0}, f64[192,24,4]{2,1,0}, /*index=140*/f64[192,24,4]{2,1,0}, f64[192,24,4]{2,1,0}, f64[192,24,4]{2,1,0}, f64[192,24,4]{2,1,0}, f64[192,24,4]{2,1,0}, /*index=145*/f64[192,24,4]{2,1,0}, f64[192,24,4]{2,1,0}, f64[192,24,4]{2,1,0}, f64[192,24,4]{2,1,0}, f64[4]{0}, /*index=150*/f64[4]{0}, f64[], s32[], (f64[], f64[4]{0}, f64[4]{0}, f64[4,1]{1,0}, f64[4]{0}, /*index=5*/f64[24,4]{1,0}, f64[24,4]{1,0}, f64[24,4]{1,0}), f64[4]{0}, /*index=155*/f64[4]{0}, f64[4]{0}, f64[4]{0}, f64[4]{0}, f64[4]{0}, /*index=160*/f64[24,4]{1,0}, f64[24,4]{1,0}, f64[24,4]{1,0}, (f64[4]{0}, s32[], f64[4]{0}, f64[4,1]{1,0}, f64[24,4]{1,0}, /*index=5*/f64[24,4]{1,0}), pred[192,4]{1,0}, /*index=165*/pred[192,4,1]{2,1,0}, pred[192,4]{1,0}, pred[192,4,1]{2,1,0}, pred[192,4]{1,0}, s32[192]{0}, /*index=170*/pred[192,4]{1,0}, f64[192]{0}, s32[192,4]{1,0}) tuple(get-tuple-element.12031, get-tuple-element.12050, get-tuple-element.12049, get-tuple-element.12027, get-tuple-element.12040, /*index=5*/get-tuple-element.12071, get-tuple-element.12038, get-tuple-element.12070, get-tuple-element.11904, get-tuple-element.12037, /*index=10*/get-tuple-element.12039, get-tuple-element.12063, get-tuple-element.12176, get-tuple-element.11903, get-tuple-element.11895, /*index=15*/get-tuple-element.12179, get-tuple-element.11869, get-tuple-element.12041, get-tuple-element.12177, get-tuple-element.11882, /*index=20*/get-tuple-element.12048, get-tuple-element.12180, get-tuple-element.12181, get-tuple-element.11857, get-tuple-element.11858, /*index=25*/get-tuple-element.11859, get-tuple-element.11860, get-tuple-element.11861, get-tuple-element.11862, get-tuple-element.11863, /*index=30*/get-tuple-element.11865, get-tuple-element.11866, get-tuple-element.11870, get-tuple-element.11871, get-tuple-element.11872, /*index=35*/get-tuple-element.11873, get-tuple-element.11879, get-tuple-element.11880, get-tuple-element.11883, get-tuple-element.11884, /*index=40*/get-tuple-element.11888, get-tuple-element.11889, get-tuple-element.11890, get-tuple-element.11891, get-tuple-element.11892, /*index=45*/get-tuple-element.11893, get-tuple-element.11896, get-tuple-element.11897, get-tuple-element.11898, get-tuple-element.11899, /*index=50*/get-tuple-element.11901, get-tuple-element.11902, get-tuple-element.11905, get-tuple-element.11906, get-tuple-element.11909, /*index=55*/get-tuple-element.11910, get-tuple-element.11911, get-tuple-element.11912, get-tuple-element.11914, get-tuple-element.11915, /*index=60*/get-tuple-element.11916, get-tuple-element.11917, get-tuple-element.11918, get-tuple-element.11919, get-tuple-element.11920, /*index=65*/get-tuple-element.11922, get-tuple-element.11923, get-tuple-element.11924, get-tuple-element.11925, get-tuple-element.11926, /*index=70*/get-tuple-element.11927, get-tuple-element.11929, get-tuple-element.11930, get-tuple-element.11932, get-tuple-element.11933, /*index=75*/get-tuple-element.11934, get-tuple-element.11935, get-tuple-element.11936, get-tuple-element.11937, get-tuple-element.11938, /*index=80*/get-tuple-element.11939, get-tuple-element.11940, get-tuple-element.11941, get-tuple-element.11942, get-tuple-element.11943, /*index=85*/get-tuple-element.11944, get-tuple-element.11945, get-tuple-element.11946, get-tuple-element.11947, get-tuple-element.11948, /*index=90*/get-tuple-element.11949, get-tuple-element.11950, get-tuple-element.11951, get-tuple-element.11952, get-tuple-element.11953, /*index=95*/get-tuple-element.11957, get-tuple-element.11958, get-tuple-element.11961, get-tuple-element.11962, get-tuple-element.11963, /*index=100*/get-tuple-element.11964, get-tuple-element.11965, get-tuple-element.11966, get-tuple-element.11967, get-tuple-element.11968, /*index=105*/get-tuple-element.11969, get-tuple-element.11970, get-tuple-element.11971, get-tuple-element.11972, get-tuple-element.11973, /*index=110*/get-tuple-element.11974, get-tuple-element.11975, get-tuple-element.11976, get-tuple-element.11977, get-tuple-element.11978, /*index=115*/get-tuple-element.11979, get-tuple-element.11980, get-tuple-element.11981, get-tuple-element.11982, get-tuple-element.11983, /*index=120*/get-tuple-element.11984, get-tuple-element.11985, get-tuple-element.11986, get-tuple-element.11987, get-tuple-element.11988, /*index=125*/get-tuple-element.11989, get-tuple-element.11990, get-tuple-element.11991, get-tuple-element.11992, get-tuple-element.11993, /*index=130*/get-tuple-element.11994, get-tuple-element.11995, get-tuple-element.11996, get-tuple-element.11997, get-tuple-element.11998, /*index=135*/get-tuple-element.11999, get-tuple-element.12000, get-tuple-element.12001, get-tuple-element.12002, get-tuple-element.12003, /*index=140*/get-tuple-element.12004, get-tuple-element.12005, get-tuple-element.12006, get-tuple-element.12007, get-tuple-element.12008, /*index=145*/get-tuple-element.12009, get-tuple-element.12010, get-tuple-element.12011, get-tuple-element.12012, wrapped_copy.3, /*index=150*/wrapped_copy.4, get-tuple-element.11663, bitcast.4004.0, tuple.230.0, get-tuple-element.11653, /*index=155*/get-tuple-element.11652, get-tuple-element.11659, get-tuple-element.11660, get-tuple-element.11658, get-tuple-element.11654, /*index=160*/wrapped_copy.5, loop_add_fusion, loop_multiply_fusion.1, tuple.231.0, loop_dynamic_update_slice_fusion.85, /*index=165*/loop_dynamic_update_slice_fusion.48, loop_dynamic_update_slice_fusion.49, loop_dynamic_update_slice_fusion.51, loop_dynamic_update_slice_fusion.52, loop_dynamic_update_slice_fusion.101, /*index=170*/loop_dynamic_update_slice_fusion.93, loop_dynamic_update_slice_fusion.78, loop_dynamic_update_slice_fusion.53)
} // command_buffer.4

fused_dynamic_update_slice.70 {
  param_0.144 = pred[192,4]{1,0} parameter(0)
  param_1.1513 = pred[4]{0} parameter(1)
  bitcast.5254.1 = pred[1,4]{1,0} bitcast(param_1.1513)
  param_2.1304 = s64[] parameter(2)
  constant_770_71 = s64[] constant(0)
  compare.373.75 = pred[] compare(param_2.1304, constant_770_71), direction=LT, metadata={op_name="jit(scan)/jit(main)/while/body/lt" source_file="/fs04/fc37/adam/projects/psilocybin-prl-analyses/src/prl_hgf/fitting/hierarchical_patrl.py" source_line=378}
  constant_769_38 = s64[] constant(192)
  add.1030.75 = s64[] add(param_2.1304, constant_769_38), metadata={op_name="jit(scan)/jit(main)/while/body/add" source_file="/fs04/fc37/adam/projects/psilocybin-prl-analyses/src/prl_hgf/fitting/hierarchical_patrl.py" source_line=378}
  select.1285.75 = s64[] select(compare.373.75, add.1030.75, param_2.1304), metadata={op_name="jit(scan)/jit(main)/while/body/select_n" source_file="/fs04/fc37/adam/projects/psilocybin-prl-analyses/src/prl_hgf/fitting/hierarchical_patrl.py" source_line=378}
  ROOT dynamic-update-slice.2054.1 = pred[192,4]{1,0} dynamic-update-slice(param_0.144, bitcast.5254.1, select.1285.75, constant_770_71), metadata={op_name="jit(scan)/jit(main)/while/body/dynamic_update_slice" source_file="/fs04/fc37/adam/projects/psilocybin-prl-analyses/src/prl_hgf/fitting/hierarchical_patrl.py" source_line=378}
} // fused_dynamic_update_slice.70

fused_dynamic_update_slice.74 {
  param_0.148 = f64[192]{0} parameter(0)
  param_1.1129 = f64[] parameter(1)
  bitcast.5212.1 = f64[1]{0} bitcast(param_1.1129)
  param_2.867 = s64[] parameter(2)
  constant_770_113 = s64[] constant(0)
  compare.373.67 = pred[] compare(param_2.867, constant_770_113), direction=LT, metadata={op_name="jit(scan)/jit(main)/while/body/lt" source_file="/fs04/fc37/adam/projects/psilocybin-prl-analyses/src/prl_hgf/fitting/hierarchical_patrl.py" source_line=378}
  constant_769_34 = s64[] constant(192)
  add.1030.67 = s64[] add(param_2.867, constant_769_34), metadata={op_name="jit(scan)/jit(main)/while/body/add" source_file="/fs04/fc37/adam/projects/psilocybin-prl-analyses/src/prl_hgf/fitting/hierarchical_patrl.py" source_line=378}
  select.1285.67 = s64[] select(compare.373.67, add.1030.67, param_2.867), metadata={op_name="jit(scan)/jit(main)/while/body/select_n" source_file="/fs04/fc37/adam/projects/psilocybin-prl-analyses/src/prl_hgf/fitting/hierarchical_patrl.py" source_line=378}
  ROOT dynamic-update-slice.2050.1 = f64[192]{0} dynamic-update-slice(param_0.148, bitcast.5212.1, select.1285.67), metadata={op_name="jit(scan)/jit(main)/while/body/dynamic_update_slice" source_file="/fs04/fc37/adam/projects/psilocybin-prl-analyses/src/prl_hgf/fitting/hierarchical_patrl.py" source_line=378}
} // fused_dynamic_update_slice.74

fused_dynamic_update_slice.75 {
  param_0.149 = f64[192,4]{1,0} parameter(0)
  param_1.1504 = f64[4]{0} parameter(1)
  bitcast.5201.1 = f64[1,4]{1,0} bitcast(param_1.1504)
  param_2.1295 = s64[] parameter(2)
  constant_770_62 = s64[] constant(0)
  compare.373.65 = pred[] compare(param_2.1295, constant_770_62), direction=LT, metadata={op_name="jit(scan)/jit(main)/while/body/lt" source_file="/fs04/fc37/adam/projects/psilocybin-prl-analyses/src/prl_hgf/fitting/hierarchical_patrl.py" source_line=378}
  constant_769_33 = s64[] constant(192)
  add.1030.65 = s64[] add(param_2.1295, constant_769_33), metadata={op_name="jit(scan)/jit(main)/while/body/add" source_file="/fs04/fc37/adam/projects/psilocybin-prl-analyses/src/prl_hgf/fitting/hierarchical_patrl.py" source_line=378}
  select.1285.65 = s64[] select(compare.373.65, add.1030.65, param_2.1295), metadata={op_name="jit(scan)/jit(main)/while/body/select_n" source_file="/fs04/fc37/adam/projects/psilocybin-prl-analyses/src/prl_hgf/fitting/hierarchical_patrl.py" source_line=378}
  ROOT dynamic-update-slice.2049.1 = f64[192,4]{1,0} dynamic-update-slice(param_0.149, bitcast.5201.1, select.1285.65, constant_770_62), metadata={op_name="jit(scan)/jit(main)/while/body/dynamic_update_slice" source_file="/fs04/fc37/adam/projects/psilocybin-prl-analyses/src/prl_hgf/fitting/hierarchical_patrl.py" source_line=378}
} // fused_dynamic_update_slice.75

fused_dynamic_update_slice.73 {
  param_0.147 = f64[192,4]{1,0} parameter(0)
  param_1.1507 = f64[4]{0} parameter(1)
  bitcast.5221.1 = f64[1,4]{1,0} bitcast(param_1.1507)
  param_2.1298 = s64[] parameter(2)
  constant_770_65 = s64[] constant(0)
  compare.373.69 = pred[] compare(param_2.1298, constant_770_65), direction=LT, metadata={op_name="jit(scan)/jit(main)/while/body/lt" source_file="/fs04/fc37/adam/projects/psilocybin-prl-analyses/src/prl_hgf/fitting/hierarchical_patrl.py" source_line=378}
  constant_769_35 = s64[] constant(192)
  add.1030.69 = s64[] add(param_2.1298, constant_769_35), metadata={op_name="jit(scan)/jit(main)/while/body/add" source_file="/fs04/fc37/adam/projects/psilocybin-prl-analyses/src/prl_hgf/fitting/hierarchical_patrl.py" source_line=378}
  select.1285.69 = s64[] select(compare.373.69, add.1030.69, param_2.1298), metadata={op_name="jit(scan)/jit(main)/while/body/select_n" source_file="/fs04/fc37/adam/projects/psilocybin-prl-analyses/src/prl_hgf/fitting/hierarchical_patrl.py" source_line=378}
  ROOT dynamic-update-slice.2051.1 = f64[192,4]{1,0} dynamic-update-slice(param_0.147, bitcast.5221.1, select.1285.69, constant_770_65), metadata={op_name="jit(scan)/jit(main)/while/body/dynamic_update_slice" source_file="/fs04/fc37/adam/projects/psilocybin-prl-analyses/src/prl_hgf/fitting/hierarchical_patrl.py" source_line=378}
} // fused_dynamic_update_slice.73

fused_dynamic_update_slice.72 {
  param_0.146 = f64[192,4]{1,0} parameter(0)
  param_1.1509 = f64[4]{0} parameter(1)
  bitcast.5232.1 = f64[1,4]{1,0} bitcast(param_1.1509)
  param_2.1300 = s64[] parameter(2)
  constant_770_67 = s64[] constant(0)
  compare.373.71 = pred[] compare(param_2.1300, constant_770_67), direction=LT, metadata={op_name="jit(scan)/jit(main)/while/body/lt" source_file="/fs04/fc37/adam/projects/psilocybin-prl-analyses/src/prl_hgf/fitting/hierarchical_patrl.py" source_line=378}
  constant_769_36 = s64[] constant(192)
  add.1030.71 = s64[] add(param_2.1300, constant_769_36), metadata={op_name="jit(scan)/jit(main)/while/body/add" source_file="/fs04/fc37/adam/projects/psilocybin-prl-analyses/src/prl_hgf/fitting/hierarchical_patrl.py" source_line=378}
  select.1285.71 = s64[] select(compare.373.71, add.1030.71, param_2.1300), metadata={op_name="jit(scan)/jit(main)/while/body/select_n" source_file="/fs04/fc37/adam/projects/psilocybin-prl-analyses/src/prl_hgf/fitting/hierarchical_patrl.py" source_line=378}
  ROOT dynamic-update-slice.2052.1 = f64[192,4]{1,0} dynamic-update-slice(param_0.146, bitcast.5232.1, select.1285.71, constant_770_67), metadata={op_name="jit(scan)/jit(main)/while/body/dynamic_update_slice" source_file="/fs04/fc37/adam/projects/psilocybin-prl-analyses/src/prl_hgf/fitting/hierarchical_patrl.py" source_line=378}
} // fused_dynamic_update_slice.72

fused_dynamic_update_slice.71 {
  param_0.145 = f64[192,4]{1,0} parameter(0)
  param_1.1511 = f64[4]{0} parameter(1)
  bitcast.5243.1 = f64[1,4]{1,0} bitcast(param_1.1511)
  param_2.1302 = s64[] parameter(2)
  constant_770_69 = s64[] constant(0)
  compare.373.73 = pred[] compare(param_2.1302, constant_770_69), direction=LT, metadata={op_name="jit(scan)/jit(main)/while/body/lt" source_file="/fs04/fc37/adam/projects/psilocybin-prl-analyses/src/prl_hgf/fitting/hierarchical_patrl.py" source_line=378}
  constant_769_37 = s64[] constant(192)
  add.1030.73 = s64[] add(param_2.1302, constant_769_37), metadata={op_name="jit(scan)/jit(main)/while/body/add" source_file="/fs04/fc37/adam/projects/psilocybin-prl-analyses/src/prl_hgf/fitting/hierarchical_patrl.py" source_line=378}
  select.1285.73 = s64[] select(compare.373.73, add.1030.73, param_2.1302), metadata={op_name="jit(scan)/jit(main)/while/body/select_n" source_file="/fs04/fc37/adam/projects/psilocybin-prl-analyses/src/prl_hgf/fitting/hierarchical_patrl.py" source_line=378}
  ROOT dynamic-update-slice.2053.1 = f64[192,4]{1,0} dynamic-update-slice(param_0.145, bitcast.5243.1, select.1285.73, constant_770_69), metadata={op_name="jit(scan)/jit(main)/while/body/dynamic_update_slice" source_file="/fs04/fc37/adam/projects/psilocybin-prl-analyses/src/prl_hgf/fitting/hierarchical_patrl.py" source_line=378}
} // fused_dynamic_update_slice.71

fused_dynamic_update_slice.68 {
  param_0.142 = f64[192,4]{1,0} parameter(0)
  param_1.1517 = f64[4]{0} parameter(1)
  bitcast.5276.1 = f64[1,4]{1,0} bitcast(param_1.1517)
  param_2.1308 = s64[] parameter(2)
  constant_770_75 = s64[] constant(0)
  compare.373.79 = pred[] compare(param_2.1308, constant_770_75), direction=LT, metadata={op_name="jit(scan)/jit(main)/while/body/lt" source_file="/fs04/fc37/adam/projects/psilocybin-prl-analyses/src/prl_hgf/fitting/hierarchical_patrl.py" source_line=378}
  constant_769_40 = s64[] constant(192)
  add.1030.79 = s64[] add(param_2.1308, constant_769_40), metadata={op_name="jit(scan)/jit(main)/while/body/add" source_file="/fs04/fc37/adam/projects/psilocybin-prl-analyses/src/prl_hgf/fitting/hierarchical_patrl.py" source_line=378}
  select.1285.79 = s64[] select(compare.373.79, add.1030.79, param_2.1308), metadata={op_name="jit(scan)/jit(main)/while/body/select_n" source_file="/fs04/fc37/adam/projects/psilocybin-prl-analyses/src/prl_hgf/fitting/hierarchical_patrl.py" source_line=378}
  ROOT dynamic-update-slice.2056.1 = f64[192,4]{1,0} dynamic-update-slice(param_0.142, bitcast.5276.1, select.1285.79, constant_770_75), metadata={op_name="jit(scan)/jit(main)/while/body/dynamic_update_slice" source_file="/fs04/fc37/adam/projects/psilocybin-prl-analyses/src/prl_hgf/fitting/hierarchical_patrl.py" source_line=378}
} // fused_dynamic_update_slice.68

fused_dynamic_update_slice.82 {
  param_0.156 = f64[192,4]{1,0} parameter(0)
  constant_772_28 = f64[] constant(1)
  broadcast.3213.51 = f64[4]{0} broadcast(constant_772_28), dimensions={}
  param_2.1279 = f64[4]{0} parameter(2)
  param_3.1100 = f64[4]{0} parameter(3)
  add.1034.8 = f64[4]{0} add(param_2.1279, param_3.1100), metadata={op_name="jit(scan)/jit(main)/while/body/jit(beliefs_propagation)/jit(continuous_node_prediction)/jit(predict_precision)/add" source_file="/fs04/fc37/adam/projects/psilocybin-prl-analyses/src/prl_hgf/fitting/hierarchical_patrl.py" source_line=362}
  multiply.3513.6 = f64[4]{0} multiply(add.1034.8, add.1034.8), metadata={op_name="jit(scan)/jit(main)/while/body/jit(beliefs_propagation)/jit(continuous_node_prediction)/jit(predict_precision)/mul" source_file="/fs04/fc37/adam/projects/psilocybin-prl-analyses/src/prl_hgf/fitting/hierarchical_patrl.py" source_line=362}
  divide.861.3 = f64[4]{0} divide(broadcast.3213.51, multiply.3513.6), metadata={op_name="jit(scan)/jit(main)/while/body/jit(beliefs_propagation)/jit(continuous_node_prediction)/jit(predict_precision)/div" source_file="/fs04/fc37/adam/projects/psilocybin-prl-analyses/src/prl_hgf/fitting/hierarchical_patrl.py" source_line=362}
  bitcast.5119.1 = f64[1,4]{1,0} bitcast(divide.861.3)
  param_1.1488 = s64[] parameter(1)
  constant_770_46 = s64[] constant(0)
  compare.373.47 = pred[] compare(param_1.1488, constant_770_46), direction=LT, metadata={op_name="jit(scan)/jit(main)/while/body/lt" source_file="/fs04/fc37/adam/projects/psilocybin-prl-analyses/src/prl_hgf/fitting/hierarchical_patrl.py" source_line=378}
  constant_769_24 = s64[] constant(192)
  add.1030.47 = s64[] add(param_1.1488, constant_769_24), metadata={op_name="jit(scan)/jit(main)/while/body/add" source_file="/fs04/fc37/adam/projects/psilocybin-prl-analyses/src/prl_hgf/fitting/hierarchical_patrl.py" source_line=378}
  select.1285.47 = s64[] select(compare.373.47, add.1030.47, param_1.1488), metadata={op_name="jit(scan)/jit(main)/while/body/select_n" source_file="/fs04/fc37/adam/projects/psilocybin-prl-analyses/src/prl_hgf/fitting/hierarchical_patrl.py" source_line=378}
  ROOT dynamic-update-slice.2041.1 = f64[192,4]{1,0} dynamic-update-slice(param_0.156, bitcast.5119.1, select.1285.47, constant_770_46), metadata={op_name="jit(scan)/jit(main)/while/body/dynamic_update_slice" source_file="/fs04/fc37/adam/projects/psilocybin-prl-analyses/src/prl_hgf/fitting/hierarchical_patrl.py" source_line=378}
} // fused_dynamic_update_slice.82

fused_dynamic_update_slice.89 {
  param_0.163 = f64[192,4]{1,0} parameter(0)
  param_1.1472 = f64[4]{0} parameter(1)
  bitcast.5042.1 = f64[1,4]{1,0} bitcast(param_1.1472)
  param_2.1263 = s64[] parameter(2)
  constant_770_30 = s64[] constant(0)
  compare.373.31 = pred[] compare(param_2.1263, constant_770_30), direction=LT, metadata={op_name="jit(scan)/jit(main)/while/body/lt" source_file="/fs04/fc37/adam/projects/psilocybin-prl-analyses/src/prl_hgf/fitting/hierarchical_patrl.py" source_line=378}
  constant_769_16 = s64[] constant(192)
  add.1030.31 = s64[] add(param_2.1263, constant_769_16), metadata={op_name="jit(scan)/jit(main)/while/body/add" source_file="/fs04/fc37/adam/projects/psilocybin-prl-analyses/src/prl_hgf/fitting/hierarchical_patrl.py" source_line=378}
  select.1285.31 = s64[] select(compare.373.31, add.1030.31, param_2.1263), metadata={op_name="jit(scan)/jit(main)/while/body/select_n" source_file="/fs04/fc37/adam/projects/psilocybin-prl-analyses/src/prl_hgf/fitting/hierarchical_patrl.py" source_line=378}
  ROOT dynamic-update-slice.2034.1 = f64[192,4]{1,0} dynamic-update-slice(param_0.163, bitcast.5042.1, select.1285.31, constant_770_30), metadata={op_name="jit(scan)/jit(main)/while/body/dynamic_update_slice" source_file="/fs04/fc37/adam/projects/psilocybin-prl-analyses/src/prl_hgf/fitting/hierarchical_patrl.py" source_line=378}
…
  get-tuple-element.12345 = f64[192,24,4]{2,1,0} get-tuple-element(while.16.0), index=144, metadata={op_name="jit(scan)/jit(main)/while[cond_nconsts=0 body_nconsts=6]" source_file="/fs04/fc37/adam/projects/psilocybin-prl-analyses/src/prl_hgf/fitting/hierarchical_patrl.py" source_line=378}
  get-tuple-element.12344 = f64[192,24,4]{2,1,0} get-tuple-element(while.16.0), index=143, metadata={op_name="jit(scan)/jit(main)/while[cond_nconsts=0 body_nconsts=6]" source_file="/fs04/fc37/adam/projects/psilocybin-prl-analyses/src/prl_hgf/fitting/hierarchical_patrl.py" source_line=378}
  get-tuple-element.12343 = f64[192,24,4]{2,1,0} get-tuple-element(while.16.0), index=142, metadata={op_name="jit(scan)/jit(main)/while[cond_nconsts=0 body_nconsts=6]" source_file="/fs04/fc37/adam/projects/psilocybin-prl-analyses/src/prl_hgf/fitting/hierarchical_patrl.py" source_line=378}
  get-tuple-element.12342 = f64[192,24,4]{2,1,0} get-tuple-element(while.16.0), index=141, metadata={op_name="jit(scan)/jit(main)/while[cond_nconsts=0 body_nconsts=6]" source_file="/fs04/fc37/adam/projects/psilocybin-prl-analyses/src/prl_hgf/fitting/hierarchical_patrl.py" source_line=378}
  get-tuple-element.12341 = f64[192,24,4]{2,1,0} get-tuple-element(while.16.0), index=140, metadata={op_name="jit(scan)/jit(main)/while[cond_nconsts=0 body_nconsts=6]" source_file="/fs04/fc37/adam/projects/psilocybin-prl-analyses/src/prl_hgf/fitting/hierarchical_patrl.py" source_line=378}
  get-tuple-element.12340 = f64[192,24,4]{2,1,0} get-tuple-element(while.16.0), index=139, metadata={op_name="jit(scan)/jit(main)/while[cond_nconsts=0 body_nconsts=6]" source_file="/fs04/fc37/adam/projects/psilocybin-prl-analyses/src/prl_hgf/fitting/hierarchical_patrl.py" source_line=378}
  get-tuple-element.12339 = f64[192,24,4]{2,1,0} get-tuple-element(while.16.0), index=138, metadata={op_name="jit(scan)/jit(main)/while[cond_nconsts=0 body_nconsts=6]" source_file="/fs04/fc37/adam/projects/psilocybin-prl-analyses/src/prl_hgf/fitting/hierarchical_patrl.py" source_line=378}
  get-tuple-element.12338 = f64[192,24,4]{2,1,0} get-tuple-element(while.16.0), index=137, metadata={op_name="jit(scan)/jit(main)/while[cond_nconsts=0 body_nconsts=6]" source_file="/fs04/fc37/adam/projects/psilocybin-prl-analyses/src/prl_hgf/fitting/hierarchical_patrl.py" source_line=378}
  get-tuple-element.12336 = f64[192,24,4]{2,1,0} get-tuple-element(while.16.0), index=136, metadata={op_name="jit(scan)/jit(main)/while[cond_nconsts=0 body_nconsts=6]" source_file="/fs04/fc37/adam/projects/psilocybin-prl-analyses/src/prl_hgf/fitting/hierarchical_patrl.py" source_line=378}
  get-tuple-element.12335 = f64[192,24,4]{2,1,0} get-tuple-element(while.16.0), index=135, metadata={op_name="jit(scan)/jit(main)/while[cond_nconsts=0 body_nconsts=6]" source_file="/fs04/fc37/adam/projects/psilocybin-prl-analyses/src/prl_hgf/fitting/hierarchical_patrl.py" source_line=378}
  get-tuple-element.12333 = f64[192,24,4]{2,1,0} get-tuple-element(while.16.0), index=133, metadata={op_name="jit(scan)/jit(main)/while[cond_nconsts=0 body_nconsts=6]" source_file="/fs04/fc37/adam/projects/psilocybin-prl-analyses/src/prl_hgf/fitting/hierarchical_patrl.py" source_line=378}
  get-tuple-element.12332 = f64[192,24,4]{2,1,0} get-tuple-element(while.16.0), index=132, metadata={op_name="jit(scan)/jit(main)/while[cond_nconsts=0 body_nconsts=6]" source_file="/fs04/fc37/adam/projects/psilocybin-prl-analyses/src/prl_hgf/fitting/hierarchical_patrl.py" source_line=378}
  get-tuple-element.12331 = f64[192,24,4]{2,1,0} get-tuple-element(while.16.0), index=131, metadata={op_name="jit(scan)/jit(main)/while[cond_nconsts=0 body_nconsts=6]" source_file="/fs04/fc37/adam/projects/psilocybin-prl-analyses/src/prl_hgf/fitting/hierarchical_patrl.py" source_line=378}
  get-tuple-element.12330 = f64[192,24,4]{2,1,0} get-tuple-element(while.16.0), index=130, metadata={op_name="jit(scan)/jit(main)/while[cond_nconsts=0 body_nconsts=6]" source_file="/fs04/fc37/adam/projects/psilocybin-prl-analyses/src/prl_hgf/fitting/hierarchical_patrl.py" source_line=378}
  get-tuple-element.12329 = f64[192,24,4]{2,1,0} get-tuple-element(while.16.0), index=129, metadata={op_name="jit(scan)/jit(main)/while[cond_nconsts=0 body_nconsts=6]" source_file="/fs04/fc37/adam/projects/psilocybin-prl-analyses/src/prl_hgf/fitting/hierarchical_patrl.py" source_line=378}
  get-tuple-element.12328 = f64[192,24,4]{2,1,0} get-tuple-element(while.16.0), index=128, metadata={op_name="jit(scan)/jit(main)/while[cond_nconsts=0 body_nconsts=6]" source_file="/fs04/fc37/adam/projects/psilocybin-prl-analyses/src/prl_hgf/fitting/hierarchical_patrl.py" source_line=378}
  get-tuple-element.12327 = f64[192,24,4]{2,1,0} get-tuple-element(while.16.0), index=127, metadata={op_name="jit(scan)/jit(main)/while[cond_nconsts=0 body_nconsts=6]" source_file="/fs04/fc37/adam/projects/psilocybin-prl-analyses/src/prl_hgf/fitting/hierarchical_patrl.py" source_line=378}
  get-tuple-element.12325 = f64[192,24,4]{2,1,0} get-tuple-element(while.16.0), index=126, metadata={op_name="jit(scan)/jit(main)/while[cond_nconsts=0 body_nconsts=6]" source_file="/fs04/fc37/adam/projects/psilocybin-prl-analyses/src/prl_hgf/fitting/hierarchical_patrl.py" source_line=378}
  get-tuple-element.12324 = f64[192,24,4]{2,1,0} get-tuple-element(while.16.0), index=125, metadata={op_name="jit(scan)/jit(main)/while[cond_nconsts=0 body_nconsts=6]" source_file="/fs04/fc37/adam/projects/psilocybin-prl-analyses/src/prl_hgf/fitting/hierarchical_patrl.py" source_line=378}
  get-tuple-element.12322 = f64[192,24,4]{2,1,0} get-tuple-element(while.16.0), index=123, metadata={op_name="jit(scan)/jit(main)/while[cond_nconsts=0 body_nconsts=6]" source_file="/fs04/fc37/adam/projects/psilocybin-prl-analyses/src/prl_hgf/fitting/hierarchical_patrl.py" source_line=378}
  get-tuple-element.12320 = f64[192,24,4]{2,1,0} get-tuple-element(while.16.0), index=122, metadata={op_name="jit(scan)/jit(main)/while[cond_nconsts=0 body_nconsts=6]" source_file="/fs04/fc37/adam/projects/psilocybin-prl-analyses/src/prl_hgf/fitting/hierarchical_patrl.py" source_line=378}
  get-tuple-element.12319 = f64[192,24,4]{2,1,0} get-tuple-element(while.16.0), index=121, metadata={op_name="jit(scan)/jit(main)/while[cond_nconsts=0 body_nconsts=6]" source_file="/fs04/fc37/adam/projects/psilocybin-prl-analyses/src/prl_hgf/fitting/hierarchical_patrl.py" source_line=378}
  get-tuple-element.12318 = f64[192,24,4]{2,1,0} get-tuple-element(while.16.0), index=120, metadata={op_name="jit(scan)/jit(main)/while[cond_nconsts=0 body_nconsts=6]" source_file="/fs04/fc37/adam/projects/psilocybin-prl-analyses/src/prl_hgf/fitting/hierarchical_patrl.py" source_line=378}
  get-tuple-element.12316 = f64[192,24,4]{2,1,0} get-tuple-element(while.16.0), index=118, metadata={op_name="jit(scan)/jit(main)/while[cond_nconsts=0 body_nconsts=6]" source_file="/fs04/fc37/adam/projects/psilocybin-prl-analyses/src/prl_hgf/fitting/hierarchical_patrl.py" source_line=378}
  get-tuple-element.12314 = f64[192,24,4]{2,1,0} get-tuple-element(while.16.0), index=117, metadata={op_name="jit(scan)/jit(main)/while[cond_nconsts=0 body_nconsts=6]" source_file="/fs04/fc37/adam/projects/psilocybin-prl-analyses/src/prl_hgf/fitting/hierarchical_patrl.py" source_line=378}
  get-tuple-element.12313 = f64[192,24,4]{2,1,0} get-tuple-element(while.16.0), index=116, metadata={op_name="jit(scan)/jit(main)/while[cond_nconsts=0 body_nconsts=6]" source_file="/fs04/fc37/adam/projects/psilocybin-prl-analyses/src/prl_hgf/fitting/hierarchical_patrl.py" source_line=378}
  get-tuple-element.12312 = f64[192,24,4]{2,1,0} get-tuple-element(while.16.0), index=115, metadata={op_name="jit(scan)/jit(main)/while[cond_nconsts=0 body_nconsts=6]" source_file="/fs04/fc37/adam/projects/psilocybin-prl-analyses/src/prl_hgf/fitting/hierarchical_patrl.py" source_line=378}
  get-tuple-element.12310 = f64[192,24,4]{2,1,0} get-tuple-element(while.16.0), index=113, metadata={op_name="jit(scan)/jit(main)/while[cond_nconsts=0 body_nconsts=6]" source_file="/fs04/fc37/adam/projects/psilocybin-prl-analyses/src/prl_hgf/fitting/hierarchical_patrl.py" source_line=378}
  get-tuple-element.12309 = pred[192,4,1]{2,1,0} get-tuple-element(while.16.0), index=112, metadata={op_name="jit(scan)/jit(main)/while[cond_nconsts=0 body_nconsts=6]" source_file="/fs04/fc37/adam/projects/psilocybin-prl-analyses/src/prl_hgf/fitting/hierarchical_patrl.py" source_line=378}
  get-tuple-element.12308 = pred[192,4]{1,0} get-tuple-element(while.16.0), index=111, metadata={op_name="jit(scan)/jit(main)/while[cond_nconsts=0 body_nconsts=6]" source_file="/fs04/fc37/adam/projects/psilocybin-prl-analyses/src/prl_hgf/fitting/hierarchical_patrl.py" source_line=378}
  get-tuple-element.12307 = pred[192,4]{1,0} get-tuple-element(while.16.0), index=110, metadata={op_name="jit(scan)/jit(main)/while[cond_nconsts=0 body_nconsts=6]" source_file="/fs04/fc37/adam/projects/psilocybin-prl-analyses/src/prl_hgf/fitting/hierarchical_patrl.py" source_line=378}
  get-tuple-element.12305 = f64[192,4]{1,0} get-tuple-element(while.16.0), index=109, metadata={op_name="jit(scan)/jit(main)/while[cond_nconsts=0 body_nconsts=6]" source_file="/fs04/fc37/adam/projects/psilocybin-prl-analyses/src/prl_hgf/fitting/hierarchical_patrl.py" source_line=378}
  get-tuple-element.12304 = f64[192,4]{1,0} get-tuple-element(while.16.0), index=108, metadata={op_name="jit(scan)/jit(main)/while[cond_nconsts=0 body_nconsts=6]" source_file="/fs04/fc37/adam/projects/psilocybin-prl-analyses/src/prl_hgf/fitting/hierarchical_patrl.py" source_line=378}
  get-tuple-element.12303 = f64[192,4]{1,0} get-tuple-element(while.16.0), index=107, metadata={op_name="jit(scan)/jit(main)/while[cond_nconsts=0 body_nconsts=6]" source_file="/fs04/fc37/adam/projects/psilocybin-prl-analyses/src/prl_hgf/fitting/hierarchical_patrl.py" source_line=378}
  get-tuple-element.12302 = f64[192,4]{1,0} get-tuple-element(while.16.0), index=106, metadata={op_name="jit(scan)/jit(main)/while[cond_nconsts=0 body_nconsts=6]" source_file="/fs04/fc37/adam/projects/psilocybin-prl-analyses/src/prl_hgf/fitting/hierarchical_patrl.py" source_line=378}
  get-tuple-element.12296 = pred[192,4,1]{2,1,0} get-tuple-element(while.16.0), index=104, metadata={op_name="jit(scan)/jit(main)/while[cond_nconsts=0 body_nconsts=6]" source_file="/fs04/fc37/adam/projects/psilocybin-prl-analyses/src/prl_hgf/fitting/hierarchical_patrl.py" source_line=378}
  get-tuple-element.12295 = pred[192,4]{1,0} get-tuple-element(while.16.0), index=103, metadata={op_name="jit(scan)/jit(main)/while[cond_nconsts=0 body_nconsts=6]" source_file="/fs04/fc37/adam/projects/psilocybin-prl-analyses/src/prl_hgf/fitting/hierarchical_patrl.py" source_line=378}
  get-tuple-element.12294 = f64[192,4]{1,0} get-tuple-element(while.16.0), index=102, metadata={op_name="jit(scan)/jit(main)/while[cond_nconsts=0 body_nconsts=6]" source_file="/fs04/fc37/adam/projects/psilocybin-prl-analyses/src/prl_hgf/fitting/hierarchical_patrl.py" source_line=378}
  get-tuple-element.12292 = f64[192,4]{1,0} get-tuple-element(while.16.0), index=101, metadata={op_name="jit(scan)/jit(main)/while[cond_nconsts=0 body_nconsts=6]" source_file="/fs04/fc37/adam/projects/psilocybin-prl-analyses/src/prl_hgf/fitting/hierarchical_patrl.py" source_line=378}
  get-tuple-element.12290 = pred[192,4,1]{2,1,0} get-tuple-element(while.16.0), index=100, metadata={op_name="jit(scan)/jit(main)/while[cond_nconsts=0 body_nconsts=6]" source_file="/fs04/fc37/adam/projects/psilocybin-prl-analyses/src/prl_hgf/fitting/hierarchical_patrl.py" source_line=378}
  get-tuple-element.12289 = pred[192,4]{1,0} get-tuple-element(while.16.0), index=99, metadata={op_name="jit(scan)/jit(main)/while[cond_nconsts=0 body_nconsts=6]" source_file="/fs04/fc37/adam/projects/psilocybin-prl-analyses/src/prl_hgf/fitting/hierarchical_patrl.py" source_line=378}
  get-tuple-element.12288 = s32[192,4]{1,0} get-tuple-element(while.16.0), index=98, metadata={op_name="jit(scan)/jit(main)/while[cond_nconsts=0 body_nconsts=6]" source_file="/fs04/fc37/adam/projects/psilocybin-prl-analyses/src/prl_hgf/fitting/hierarchical_patrl.py" source_line=378}
  get-tuple-element.12286 = f64[192,4]{1,0} get-tuple-element(while.16.0), index=96, metadata={op_name="jit(scan)/jit(main)/while[cond_nconsts=0 body_nconsts=6]" source_file="/fs04/fc37/adam/projects/psilocybin-prl-analyses/src/prl_hgf/fitting/hierarchical_patrl.py" source_line=378}
  get-tuple-element.12285 = f64[192,4]{1,0} get-tuple-element(while.16.0), index=95, metadata={op_name="jit(scan)/jit(main)/while[cond_nconsts=0 body_nconsts=6]" source_file="/fs04/fc37/adam/projects/psilocybin-prl-analyses/src/prl_hgf/fitting/hierarchical_patrl.py" source_line=378}
  get-tuple-element.12284 = f64[192,4]{1,0} get-tuple-element(while.16.0), index=94, metadata={op_name="jit(scan)/jit(main)/while[cond_nconsts=0 body_nconsts=6]" source_file="/fs04/fc37/adam/projects/psilocybin-prl-analyses/src/prl_hgf/fitting/hierarchical_patrl.py" source_line=378}
  get-tuple-element.12283 = f64[192,4]{1,0} get-tuple-element(while.16.0), index=93, metadata={op_name="jit(scan)/jit(main)/while[cond_nconsts=0 body_nconsts=6]" source_file="/fs04/fc37/adam/projects/psilocybin-prl-analyses/src/prl_hgf/fitting/hierarchical_patrl.py" source_line=378}
  get-tuple-element.12279 = f64[192,4]{1,0} get-tuple-element(while.16.0), index=89, metadata={op_name="jit(scan)/jit(main)/while[cond_nconsts=0 body_nconsts=6]" source_file="/fs04/fc37/adam/projects/psilocybin-prl-analyses/src/prl_hgf/fitting/hierarchical_patrl.py" source_line=378}
  get-tuple-element.12278 = f64[192,4]{1,0} get-tuple-element(while.16.0), index=88, metadata={op_name="jit(scan)/jit(main)/while[cond_nconsts=0 body_nconsts=6]" source_file="/fs04/fc37/adam/projects/psilocybin-prl-analyses/src/prl_hgf/fitting/hierarchical_patrl.py" source_line=378}
  get-tuple-element.12275 = f64[192,4]{1,0} get-tuple-element(while.16.0), index=87, metadata={op_name="jit(scan)/jit(main)/while[cond_nconsts=0 body_nconsts=6]" source_file="/fs04/fc37/adam/projects/psilocybin-prl-analyses/src/prl_hgf/fitting/hierarchical_patrl.py" source_line=378}
  get-tuple-element.12274 = f64[192,4]{1,0} get-tuple-element(while.16.0), index=86, metadata={op_name="jit(scan)/jit(main)/while[cond_nconsts=0 body_nconsts=6]" source_file="/fs04/fc37/adam/projects/psilocybin-prl-analyses/src/prl_hgf/fitting/hierarchical_patrl.py" source_line=378}
  get-tuple-element.12272 = f64[192,4]{1,0} get-tuple-element(while.16.0), index=84, metadata={op_name="jit(scan)/jit(main)/while[cond_nconsts=0 body_nconsts=6]" source_file="/fs04/fc37/adam/projects/psilocybin-prl-analyses/src/prl_hgf/fitting/hierarchical_patrl.py" source_line=378}
  get-tuple-element.12271 = f64[192,4]{1,0} get-tuple-element(while.16.0), index=83, metadata={op_name="jit(scan)/jit(main)/while[cond_nconsts=0 body_nconsts=6]" source_file="/fs04/fc37/adam/projects/psilocybin-prl-analyses/src/prl_hgf/fitting/hierarchical_patrl.py" source_line=378}
  get-tuple-element.12270 = f64[192,4]{1,0} get-tuple-element(while.16.0), index=82, metadata={op_name="jit(scan)/jit(main)/while[cond_nconsts=0 body_nconsts=6]" source_file="/fs04/fc37/adam/projects/psilocybin-prl-analyses/src/prl_hgf/fitting/hierarchical_patrl.py" source_line=378}
  get-tuple-element.12269 = pred[192,4]{1,0} get-tuple-element(while.16.0), index=81, metadata={op_name="jit(scan)/jit(main)/while[cond_nconsts=0 body_nconsts=6]" source_file="/fs04/fc37/adam/projects/psilocybin-prl-analyses/src/prl_hgf/fitting/hierarchical_patrl.py" source_line=378}
  get-tuple-element.12268 = f64[192,4]{1,0} get-tuple-element(while.16.0), index=80, metadata={op_name="jit(scan)/jit(main)/while[cond_nconsts=0 body_nconsts=6]" source_file="/fs04/fc37/adam/projects/psilocybin-prl-analyses/src/prl_hgf/fitting/hierarchical_patrl.py" source_line=378}
  get-tuple-element.12267 = f64[192,4]{1,0} get-tuple-element(while.16.0), index=79, metadata={op_name="jit(scan)/jit(main)/while[cond_nconsts=0 body_nconsts=6]" source_file="/fs04/fc37/adam/projects/psilocybin-prl-analyses/src/prl_hgf/fitting/hierarchical_patrl.py" source_line=378}
  get-tuple-element.12266 = f64[192,4]{1,0} get-tuple-element(while.16.0), index=78, metadata={op_name="jit(scan)/jit(main)/while[cond_nconsts=0 body_nconsts=6]" source_file="/fs04/fc37/adam/projects/psilocybin-prl-analyses/src/prl_hgf/fitting/hierarchical_patrl.py" source_line=378}
  get-tuple-element.12265 = f64[192]{0} get-tuple-element(while.16.0), index=77, metadata={op_name="jit(scan)/jit(main)/while[cond_nconsts=0 body_nconsts=6]" source_file="/fs04/fc37/adam/projects/psilocybin-prl-analyses/src/prl_hgf/fitting/hierarchical_patrl.py" source_line=378}
  get-tuple-element.12264 = f64[192,4]{1,0} get-tuple-element(while.16.0), index=76, metadata={op_name="jit(scan)/jit(main)/while[cond_nconsts=0 body_nconsts=6]" source_file="/fs04/fc37/adam/projects/psilocybin-prl-analyses/src/prl_hgf/fitting/hierarchical_patrl.py" source_line=378}
  get-tuple-element.12263 = s32[192]{0} get-tuple-element(while.16.0), index=75, metadata={op_name="jit(scan)/jit(main)/while[cond_nconsts=0 body_nconsts=6]" source_file="/fs04/fc37/adam/projects/psilocybin-prl-analyses/src/prl_hgf/fitting/hierarchical_patrl.py" source_line=378}
  get-tuple-element.12262 = f64[192,4]{1,0} get-tuple-element(while.16.0), index=74, metadata={op_name="jit(scan)/jit(main)/while[cond_nconsts=0 body_nconsts=6]" source_file="/fs04/fc37/adam/projects/psilocybin-prl-analyses/src/prl_hgf/fitting/hierarchical_patrl.py" source_line=378}
  get-tuple-element.12261 = f64[192,4]{1,0} get-tuple-element(while.16.0), index=73, metadata={op_name="jit(scan)/jit(main)/while[cond_nconsts=0 body_nconsts=6]" source_file="/fs04/fc37/adam/projects/psilocybin-prl-analyses/src/prl_hgf/fitting/hierarchical_patrl.py" source_line=378}
  get-tuple-element.12258 = f64[192,4]{1,0} get-tuple-element(while.16.0), index=71, metadata={op_name="jit(scan)/jit(main)/while[cond_nconsts=0 body_nconsts=6]" source_file="/fs04/fc37/adam/projects/psilocybin-prl-analyses/src/prl_hgf/fitting/hierarchical_patrl.py" source_line=378}
  get-tuple-element.12257 = f64[192,4]{1,0} get-tuple-element(while.16.0), index=70, metadata={op_name="jit(scan)/jit(main)/while[cond_nconsts=0 body_nconsts=6]" source_file="/fs04/fc37/adam/projects/psilocybin-prl-analyses/src/prl_hgf/fitting/hierarchical_patrl.py" source_line=378}
  get-tuple-element.12255 = f64[192,4]{1,0} get-tuple-element(while.16.0), index=68, metadata={op_name="jit(scan)/jit(main)/while[cond_nconsts=0 body_nconsts=6]" source_file="/fs04/fc37/adam/projects/psilocybin-prl-analyses/src/prl_hgf/fitting/hierarchical_patrl.py" source_line=378}
  get-tuple-element.12253 = f64[192,4]{1,0} get-tuple-element(while.16.0), index=67, metadata={op_name="jit(scan)/jit(main)/while[cond_nconsts=0 body_nconsts=6]" source_file="/fs04/fc37/adam/projects/psilocybin-prl-analyses/src/prl_hgf/fitting/hierarchical_patrl.py" source_line=378}
  get-tuple-element.12252 = f64[192,4]{1,0} get-tuple-element(while.16.0), index=66, metadata={op_name="jit(scan)/jit(main)/while[cond_nconsts=0 body_nconsts=6]" source_file="/fs04/fc37/adam/projects/psilocybin-prl-analyses/src/prl_hgf/fitting/hierarchical_patrl.py" source_line=378}
  get-tuple-element.12251 = pred[192,4]{1,0} get-tuple-element(while.16.0), index=65, metadata={op_name="jit(scan)/jit(main)/while[cond_nconsts=0 body_nconsts=6]" source_file="/fs04/fc37/adam/projects/psilocybin-prl-analyses/src/prl_hgf/fitting/hierarchical_patrl.py" source_line=378}
  get-tuple-element.12250 = f64[192,4]{1,0} get-tuple-element(while.16.0), index=64, metadata={op_name="jit(scan)/jit(main)/while[cond_nconsts=0 body_nconsts=6]" source_file="/fs04/fc37/adam/projects/psilocybin-prl-analyses/src/prl_hgf/fitting/hierarchical_patrl.py" source_line=378}
  get-tuple-element.12249 = f64[192,4]{1,0} get-tuple-element(while.16.0), index=63, metadata={op_name="jit(scan)/jit(main)/while[cond_nconsts=0 body_nconsts=6]" source_file="/fs04/fc37/adam/projects/psilocybin-prl-analyses/src/prl_hgf/fitting/hierarchical_patrl.py" source_line=378}
  get-tuple-element.12248 = f64[192,4]{1,0} get-tuple-element(while.16.0), index=62, metadata={op_name="jit(scan)/jit(main)/while[cond_nconsts=0 body_nconsts=6]" source_file="/fs04/fc37/adam/projects/psilocybin-prl-analyses/src/prl_hgf/fitting/hierarchical_patrl.py" source_line=378}
  get-tuple-element.12246 = f64[192,4]{1,0} get-tuple-element(while.16.0), index=60, metadata={op_name="jit(scan)/jit(main)/while[cond_nconsts=0 body_nconsts=6]" source_file="/fs04/fc37/adam/projects/psilocybin-prl-analyses/src/prl_hgf/fitting/hierarchical_patrl.py" source_line=378}
  get-tuple-element.12244 = f64[192,4]{1,0} get-tuple-element(while.16.0), index=59, metadata={op_name="jit(scan)/jit(main)/while[cond_nconsts=0 body_nconsts=6]" source_file="/fs04/fc37/adam/projects/psilocybin-prl-analyses/src/prl_hgf/fitting/hierarchical_patrl.py" source_line=378}
  get-tuple-element.12243 = f64[192,4]{1,0} get-tuple-element(while.16.0), index=58, metadata={op_name="jit(scan)/jit(main)/while[cond_nconsts=0 body_nconsts=6]" source_file="/fs04/fc37/adam/projects/psilocybin-prl-analyses/src/prl_hgf/fitting/hierarchical_patrl.py" source_line=378}
  get-tuple-element.12242 = pred[192,4]{1,0} get-tuple-element(while.16.0), index=57, metadata={op_name="jit(scan)/jit(main)/while[cond_nconsts=0 body_nconsts=6]" source_file="/fs04/fc37/adam/projects/psilocybin-prl-analyses/src/prl_hgf/fitting/hierarchical_patrl.py" source_line=378}
  get-tuple-element.12240 = f64[192,4]{1,0} get-tuple-element(while.16.0), index=55, metadata={op_name="jit(scan)/jit(main)/while[cond_nconsts=0 body_nconsts=6]" source_file="/fs04/fc37/adam/projects/psilocybin-prl-analyses/src/prl_hgf/fitting/hierarchical_patrl.py" source_line=378}
  get-tuple-element.12238 = f64[192,4]{1,0} get-tuple-element(while.16.0), index=53, metadata={op_name="jit(scan)/jit(main)/while[cond_nconsts=0 body_nconsts=6]" source_file="/fs04/fc37/adam/projects/psilocybin-prl-analyses/src/prl_hgf/fitting/hierarchical_patrl.py" source_line=378}
  get-tuple-element.11464.0 = f64[24,4,1]{1,0,2} get-tuple-element(while.16.0), index=52, metadata={op_name="jit(scan)/jit(main)/while[cond_nconsts=0 body_nconsts=6]" source_file="/fs04/fc37/adam/projects/psilocybin-prl-analyses/src/prl_hgf/fitting/hierarchical_patrl.py" source_line=378}
  bitcast.6456.0 = f64[24,4,1]{2,1,0} bitcast(get-tuple-element.11464.0)
  get-tuple-element.12236 = f64[24,4]{1,0} get-tuple-element(while.16.0), index=51, metadata={op_name="jit(scan)/jit(main)/while[cond_nconsts=0 body_nconsts=6]" source_file="/fs04/fc37/adam/projects/psilocybin-prl-analyses/src/prl_hgf/fitting/hierarchical_patrl.py" source_line=378}
  get-tuple-element.12235 = f64[24,4]{1,0} get-tuple-element(while.16.0), index=50, metadata={op_name="jit(scan)/jit(main)/while[cond_nconsts=0 body_nconsts=6]" source_file="/fs04/fc37/adam/projects/psilocybin-prl-analyses/src/prl_hgf/fitting/hierarchical_patrl.py" source_line=378}
  get-tuple-element.12234 = f64[24,4]{1,0} get-tuple-element(while.16.0), index=49, metadata={op_name="jit(scan)/jit(main)/while[cond_nconsts=0 body_nconsts=6]" source_file="/fs04/fc37/adam/projects/psilocybin-prl-analyses/src/prl_hgf/fitting/hierarchical_patrl.py" source_line=378}
  get-tuple-element.12233 = f64[24,4]{1,0} get-tuple-element(while.16.0), index=48, metadata={op_name="jit(scan)/jit(main)/while[cond_nconsts=0 body_nconsts=6]" source_file="/fs04/fc37/adam/projects/psilocybin-prl-analyses/src/prl_hgf/fitting/hierarchical_patrl.py" source_line=378}
  get-tuple-element.12232 = f64[24,4]{1,0} get-tuple-element(while.16.0), index=47, metadata={op_name="jit(scan)/jit(main)/while[cond_nconsts=0 body_nconsts=6]" source_file="/fs04/fc37/adam/projects/psilocybin-prl-analyses/src/prl_hgf/fitting/hierarchical_patrl.py" source_line=378}
  get-tuple-element.12231 = f64[24,4]{1,0} get-tuple-element(while.16.0), index=46, metadata={op_name="jit(scan)/jit(main)/while[cond_nconsts=0 body_nconsts=6]" source_file="/fs04/fc37/adam/projects/psilocybin-prl-analyses/src/prl_hgf/fitting/hierarchical_patrl.py" source_line=378}
  get-tuple-element.12230 = f64[24,4]{1,0} get-tuple-element(while.16.0), index=45, metadata={op_name="jit(scan)/jit(main)/while[cond_nconsts=0 body_nconsts=6]" source_file="/fs04/fc37/adam/projects/psilocybin-prl-analyses/src/prl_hgf/fitting/hierarchical_patrl.py" source_line=378}
  get-tuple-element.12229 = f64[24,4]{1,0} get-tuple-element(while.16.0), index=44, metadata={op_name="jit(scan)/jit(main)/while[cond_nconsts=0 body_nconsts=6]" source_file="/fs04/fc37/adam/projects/psilocybin-prl-analyses/src/prl_hgf/fitting/hierarchical_patrl.py" source_line=378}
  get-tuple-element.12228 = f64[24,4]{1,0} get-tuple-element(while.16.0), index=43, metadata={op_name="jit(scan)/jit(main)/while[cond_nconsts=0 body_nconsts=6]" source_file="/fs04/fc37/adam/projects/psilocybin-prl-analyses/src/prl_hgf/fitting/hierarchical_patrl.py" source_line=378}
  get-tuple-element.12227 = f64[24,4]{1,0} get-tuple-element(while.16.0), index=42, metadata={op_name="jit(scan)/jit(main)/while[cond_nconsts=0 body_nconsts=6]" source_file="/fs04/fc37/adam/projects/psilocybin-prl-analyses/src/prl_hgf/fitting/hierarchical_patrl.py" source_line=378}
  get-tuple-element.12226 = f64[24,4]{1,0} get-tuple-element(while.16.0), index=41, metadata={op_name="jit(scan)/jit(main)/while[cond_nconsts=0 body_nconsts=6]" source_file="/fs04/fc37/adam/projects/psilocybin-prl-analyses/src/prl_hgf/fitting/hierarchical_patrl.py" source_line=378}
  get-tuple-element.12225 = f64[24,4]{1,0} get-tuple-element(while.16.0), index=40, metadata={op_name="jit(scan)/jit(main)/while[cond_nconsts=0 body_nconsts=6]" source_file="/fs04/fc37/adam/projects/psilocybin-prl-analyses/src/prl_hgf/fitting/hierarchical_patrl.py" source_line=378}
  get-tuple-element.12224 = f64[24,4]{1,0} get-tuple-element(while.16.0), index=39, metadata={op_name="jit(scan)/jit(main)/while[cond_nconsts=0 body_nconsts=6]" source_file="/fs04/fc37/adam/projects/psilocybin-prl-analyses/src/prl_hgf/fitting/hierarchical_patrl.py" source_line=378}
  get-tuple-element.12223 = f64[24,4]{1,0} get-tuple-element(while.16.0), index=38, metadata={op_name="jit(scan)/jit(main)/while[cond_nconsts=0 body_nconsts=6]" source_file="/fs04/fc37/adam/projects/psilocybin-prl-analyses/src/prl_hgf/fitting/hierarchical_patrl.py" source_line=378}
  get-tuple-element.12222 = f64[24,4]{1,0} get-tuple-element(while.16.0), index=37, metadata={op_name="jit(scan)/jit(main)/while[cond_nconsts=0 body_nconsts=6]" source_file="/fs04/fc37/adam/projects/psilocybin-prl-analyses/src/prl_hgf/fitting/hierarchical_patrl.py" source_line=378}
  get-tuple-element.12221 = f64[24,4]{1,0} get-tuple-element(while.16.0), index=36, metadata={op_name="jit(scan)/jit(main)/while[cond_nconsts=0 body_nconsts=6]" source_file="/fs04/fc37/adam/projects/psilocybin-prl-analyses/src/prl_hgf/fitting/hierarchical_patrl.py" source_line=378}
  get-tuple-element.12220 = f64[24,4]{1,0} get-tuple-element(while.16.0), index=35, metadata={op_name="jit(scan)/jit(main)/while[cond_nconsts=0 body_nconsts=6]" source_file="/fs04/fc37/adam/projects/psilocybin-prl-analyses/src/prl_hgf/fitting/hierarchical_patrl.py" source_line=378}
  get-tuple-element.12219 = f64[24,4]{1,0} get-tuple-element(while.16.0), index=34, metadata={op_name="jit(scan)/jit(main)/while[cond_nconsts=0 body_nconsts=6]" source_file="/fs04/fc37/adam/projects/psilocybin-prl-analyses/src/prl_hgf/fitting/hierarchical_patrl.py" source_line=378}
  get-tuple-element.12218 = f64[24,4]{1,0} get-tuple-element(while.16.0), index=33, metadata={op_name="jit(scan)/jit(main)/while[cond_nconsts=0 body_nconsts=6]" source_file="/fs04/fc37/adam/projects/psilocybin-prl-analyses/src/prl_hgf/fitting/hierarchical_patrl.py" source_line=378}
  get-tuple-element.12217 = f64[24,4]{1,0} get-tuple-element(while.16.0), index=32, metadata={op_name="jit(scan)/jit(main)/while[cond_nconsts=0 body_nconsts=6]" source_file="/fs04/fc37/adam/projects/psilocybin-prl-analyses/src/prl_hgf/fitting/hierarchical_patrl.py" source_line=378}
  get-tuple-element.12216 = f64[4,1]{1,0} get-tuple-element(while.16.0), index=31, metadata={op_name="jit(scan)/jit(main)/while[cond_nconsts=0 body_nconsts=6]" source_file="/fs04/fc37/adam/projects/psilocybin-prl-analyses/src/prl_hgf/fitting/hierarchical_patrl.py" source_line=378}
  get-tuple-element.12215 = f64[4]{0} get-tuple-element(while.16.0), index=30, metadata={op_name="jit(scan)/jit(main)/while[cond_nconsts=0 body_nconsts=6]" source_file="/fs04/fc37/adam/projects/psilocybin-prl-analyses/src/prl_hgf/fitting/hierarchical_patrl.py" source_line=378}
  get-tuple-element.12214 = f64[4]{0} get-tuple-element(while.16.0), index=29, metadata={op_name="jit(scan)/jit(main)/while[cond_nconsts=0 body_nconsts=6]" source_file="/fs04/fc37/adam/projects/psilocybin-prl-analyses/src/prl_hgf/fitting/hierarchical_patrl.py" source_line=378}
  get-tuple-element.12211 = f64[4]{0} get-tuple-element(while.16.0), index=28, metadata={op_name="jit(scan)/jit(main)/while[cond_nconsts=0 body_nconsts=6]" source_file="/fs04/fc37/adam/projects/psilocybin-prl-analyses/src/prl_hgf/fitting/hierarchical_patrl.py" source_line=378}
  get-tuple-element.12210 = f64[4]{0} get-tuple-element(while.16.0), index=27, metadata={op_name="jit(scan)/jit(main)/while[cond_nconsts=0 body_nconsts=6]" source_file="/fs04/fc37/adam/projects/psilocybin-prl-analyses/src/prl_hgf/fitting/hierarchical_patrl.py" source_line=378}
  get-tuple-element.12209 = f64[4]{0} get-tuple-element(while.16.0), index=26, metadata={op_name="jit(scan)/jit(main)/while[cond_nconsts=0 body_nconsts=6]" source_file="/fs04/fc37/adam/projects/psilocybin-prl-analyses/src/prl_hgf/fitting/hierarchical_patrl.py" source_line=378}
  get-tuple-element.12207 = f64[4]{0} get-tuple-element(while.16.0), index=25, metadata={op_name="jit(scan)/jit(main)/while[cond_nconsts=0 body_nconsts=6]" source_file="/fs04/fc37/adam/projects/psilocybin-prl-analyses/src/prl_hgf/fitting/hierarchical_patrl.py" source_line=378}
  get-tuple-element.12206 = f64[4]{0} get-tuple-element(while.16.0), index=24, metadata={op_name="jit(scan)/jit(main)/while[cond_nconsts=0 body_nconsts=6]" source_file="/fs04/fc37/adam/projects/psilocybin-prl-analyses/src/prl_hgf/fitting/hierarchical_patrl.py" source_line=378}
  get-tuple-element.12205 = f64[4]{0} get-tuple-element(while.16.0), index=23, metadata={op_name="jit(scan)/jit(main)/while[cond_nconsts=0 body_nconsts=6]" source_file="/fs04/fc37/adam/projects/psilocybin-prl-analyses/src/prl_hgf/fitting/hierarchical_patrl.py" source_line=378}
  get-tuple-element.12204 = f64[4]{0} get-tuple-element(while.16.0), index=22, metadata={op_name="jit(scan)/jit(main)/while[cond_nconsts=0 body_nconsts=6]" source_file="/fs04/fc37/adam/projects/psilocybin-prl-analyses/src/prl_hgf/fitting/hierarchical_patrl.py" source_line=378}
  get-tuple-element.12203 = f64[4,1]{1,0} get-tuple-element(while.16.0), index=21, metadata={op_name="jit(scan)/jit(main)/while[cond_nconsts=0 body_nconsts=6]" source_file="/fs04/fc37/adam/projects/psilocybin-prl-analyses/src/prl_hgf/fitting/hierarchical_patrl.py" source_line=378}
  get-tuple-element.12202 = f64[4,1]{1,0} get-tuple-element(while.16.0), index=20, metadata={op_name="jit(scan)/jit(main)/while[cond_nconsts=0 body_nconsts=6]" source_file="/fs04/fc37/adam/projects/psilocybin-prl-analyses/src/prl_hgf/fitting/hierarchical_patrl.py" source_line=378}
  get-tuple-element.12201 = f64[4]{0} get-tuple-element(while.16.0), index=19, metadata={op_name="jit(scan)/jit(main)/while[cond_nconsts=0 body_nconsts=6]" source_file="/fs04/fc37/adam/projects/psilocybin-prl-analyses/src/prl_hgf/fitting/hierarchical_patrl.py" source_line=378}
  get-tuple-element.12200 = f64[4]{0} get-tuple-element(while.16.0), index=18, metadata={op_name="jit(scan)/jit(main)/while[cond_nconsts=0 body_nconsts=6]" source_file="/fs04/fc37/adam/projects/psilocybin-prl-analyses/src/prl_hgf/fitting/hierarchical_patrl.py" source_line=378}
  get-tuple-element.12199 = f64[4]{0} get-tuple-element(while.16.0), index=17, metadata={op_name="jit(scan)/jit(main)/while[cond_nconsts=0 body_nconsts=6]" source_file="/fs04/fc37/adam/projects/psilocybin-prl-analyses/src/prl_hgf/fitting/hierarchical_patrl.py" source_line=378}
  get-tuple-element.12198 = f64[4]{0} get-tuple-element(while.16.0), index=16, metadata={op_name="jit(scan)/jit(main)/while[cond_nconsts=0 body_nconsts=6]" source_file="/fs04/fc37/adam/projects/psilocybin-prl-analyses/src/prl_hgf/fitting/hierarchical_patrl.py" source_line=378}
  get-tuple-element.12197 = f64[4]{0} get-tuple-element(while.16.0), index=15, metadata={op_name="jit(scan)/jit(main)/while[cond_nconsts=0 body_nconsts=6]" source_file="/fs04/fc37/adam/projects/psilocybin-prl-analyses/src/prl_hgf/fitting/hierarchical_patrl.py" source_line=378}
  get-tuple-element.12196 = f64[4]{0} get-tuple-element(while.16.0), index=14, metadata={op_name="jit(scan)/jit(main)/while[cond_nconsts=0 body_nconsts=6]" source_file="/fs04/fc37/adam/projects/psilocybin-prl-analyses/src/prl_hgf/fitting/hierarchical_patrl.py" source_line=378}
  get-tuple-element.12195 = f64[4]{0} get-tuple-element(while.16.0), index=13, metadata={op_name="jit(scan)/jit(main)/while[cond_nconsts=0 body_nconsts=6]" source_file="/fs04/fc37/adam/projects/psilocybin-prl-analyses/src/prl_hgf/fitting/hierarchical_patrl.py" source_line=378}
  get-tuple-element.12194 = s64[4]{0} get-tuple-element(while.16.0), index=12, metadata={op_name="jit(scan)/jit(main)/while[cond_nconsts=0 body_nconsts=6]" source_file="/fs04/fc37/adam/projects/psilocybin-prl-analyses/src/prl_hgf/fitting/hierarchical_patrl.py" source_line=378}
  get-tuple-element.12193 = f64[4]{0} get-tuple-element(while.16.0), index=11, metadata={op_name="jit(scan)/jit(main)/while[cond_nconsts=0 body_nconsts=6]" source_file="/fs04/fc37/adam/projects/psilocybin-prl-analyses/src/prl_hgf/fitting/hierarchical_patrl.py" source_line=378}
  get-tuple-element.12192 = f64[4]{0} get-tuple-element(while.16.0), index=10, metadata={op_name="jit(scan)/jit(main)/while[cond_nconsts=0 body_nconsts=6]" source_file="/fs04/fc37/adam/projects/psilocybin-prl-analyses/src/prl_hgf/fitting/hierarchical_patrl.py" source_line=378}
  get-tuple-element.12191 = f64[4]{0} get-tuple-element(while.16.0), index=9, metadata={op_name="jit(scan)/jit(main)/while[cond_nconsts=0 body_nconsts=6]" source_file="/fs04/fc37/adam/projects/psilocybin-prl-analyses/src/prl_hgf/fitting/hierarchical_patrl.py" source_line=378}
  get-tuple-element.12190 = f64[4]{0} get-tuple-element(while.16.0), index=8, metadata={op_name="jit(scan)/jit(main)/while[cond_nconsts=0 body_nconsts=6]" source_file="/fs04/fc37/adam/projects/psilocybin-prl-analyses/src/prl_hgf/fitting/hierarchical_patrl.py" source_line=378}
  get-tuple-element.12188 = f64[4]{0} get-tuple-element(while.16.0), index=7, metadata={op_name="jit(scan)/jit(main)/while[cond_nconsts=0 body_nconsts=6]" source_file="/fs04/fc37/adam/projects/psilocybin-prl-analyses/src/prl_hgf/fitting/hierarchical_patrl.py" source_line=378}
  get-tuple-element.12187 = f64[4]{0} get-tuple-element(while.16.0), index=6, metadata={op_name="jit(scan)/jit(main)/while[cond_nconsts=0 body_nconsts=6]" source_file="/fs04/fc37/adam/projects/psilocybin-prl-analyses/src/prl_hgf/fitting/hierarchical_patrl.py" source_line=378}
  get-tuple-element.12186 = s32[4]{0} get-tuple-element(while.16.0), index=5, metadata={op_name="jit(scan)/jit(main)/while[cond_nconsts=0 body_nconsts=6]" source_file="/fs04/fc37/adam/projects/psilocybin-prl-analyses/src/prl_hgf/fitting/hierarchical_patrl.py" source_line=378}
  get-tuple-element.12185 = f64[4]{0} get-tuple-element(while.16.0), index=4, metadata={op_name="jit(scan)/jit(main)/while[cond_nconsts=0 body_nconsts=6]" source_file="/fs04/fc37/adam/projects/psilocybin-prl-analyses/src/prl_hgf/fitting/hierarchical_patrl.py" source_line=378}
  get-tuple-element.12184 = f64[4]{0} get-tuple-element(while.16.0), index=3, metadata={op_name="jit(scan)/jit(main)/while[cond_nconsts=0 body_nconsts=6]" source_file="/fs04/fc37/adam/projects/psilocybin-prl-analyses/src/prl_hgf/fitting/hierarchical_patrl.py" source_line=378}
  get-tuple-element.12183 = f64[4]{0} get-tuple-element(while.16.0), index=2, metadata={op_name="jit(scan)/jit(main)/while[cond_nconsts=0 body_nconsts=6]" source_file="/fs04/fc37/adam/projects/psilocybin-prl-analyses/src/prl_hgf/fitting/hierarchical_patrl.py" source_line=378}
  get-tuple-element.12182 = f64[4]{0} get-tuple-element(while.16.0), index=1, metadata={op_name="jit(scan)/jit(main)/while[cond_nconsts=0 body_nconsts=6]" source_file="/fs04/fc37/adam/projects/psilocybin-prl-analyses/src/prl_hgf/fitting/hierarchical_patrl.py" source_line=378}
  get-tuple-element.12358 = f64[192,24,4]{2,1,0} get-tuple-element(while.16.0), index=156, metadata={op_name="jit(scan)/jit(main)/while[cond_nconsts=0 body_nconsts=6]" source_file="/fs04/fc37/adam/projects/psilocybin-prl-analyses/src/prl_hgf/fitting/hierarchical_patrl.py" source_line=378}
  call.1 = (s64[4]{0}, s64[4]{0}, f64[4,1]{1,0}, f64[4,1]{1,0}, f64[4]{0}, /*index=5*/f64[4]{0}, f64[4]{0}, f64[4]{0}, f64[4]{0}, f64[4]{0}, /*index=10*/f64[4]{0}, f64[4]{0}, f64[24,4]{1,0}, f64[24,4]{1,0}, f64[192]{0}, /*index=15*/f64[24,4,1]{2,1,0}, f64[4,1]{1,0}, f64[4,1]{1,0}, f64[192,4]{1,0}, f64[192,4]{1,0}, /*index=20*/f64[192,4]{1,0}, f64[192,4]{1,0}, f64[192,4]{1,0}, f64[192,4]{1,0}, f64[192,4]{1,0}, /*index=25*/f64[192,4]{1,0}, f64[192,4]{1,0}, f64[192,4]{1,0}, f64[192,4]{1,0}, (f64[192,24,4]{2,1,0}, f64[192,24,4]{2,1,0}, f64[192,24,4]{2,1,0}, f64[192,24,4]{2,1,0}, f64[192,24,4]{2,1,0})) call(get-tuple-element.12194, Arg_29.30.0, get-tuple-element.12202, get-tuple-element.12203, get-tuple-element.12190, /*index=5*/get-tuple-element.12200, get-tuple-element.12201, get-tuple-element.12204, Arg_33.34.0, Arg_34.35.0, /*index=10*/get-tuple-element.12214, get-tuple-element.12215, get-tuple-element.12229, get-tuple-element.12236, Arg_10.11.0, /*index=15*/get-tuple-element.12216, bitcast.6456.0, get-tuple-element.12276, get-tuple-element.12291, get-tuple-element.12254, /*index=20*/get-tuple-element.12260, get-tuple-element.12277, get-tuple-element.12293, get-tuple-element.12297, get-tuple-element.12298, /*index=25*/get-tuple-element.12300, get-tuple-element.12301, get-tuple-element.12306, get-tuple-element.12315, get-tuple-element.12321, /*index=30*/get-tuple-element.12326, get-tuple-element.12337, get-tuple-element.12353), to_apply=command_buffer.2
  get-tuple-element.12757 = s64[4]{0} get-tuple-element(call.1), index=0
  get-tuple-element.12758 = s64[4]{0} get-tuple-element(call.1), index=1
  get-tuple-element.12759 = f64[4,1]{1,0} get-tuple-element(call.1), index=2
  get-tuple-element.12760 = f64[4,1]{1,0} get-tuple-element(call.1), index=3
  get-tuple-element.12761 = f64[4]{0} get-tuple-element(call.1), index=4
  get-tuple-element.12762 = f64[4]{0} get-tuple-element(call.1), index=5
  get-tuple-element.12763 = f64[4]{0} get-tuple-element(call.1), index=6
  get-tuple-element.12764 = f64[4]{0} get-tuple-element(call.1), index=7
  get-tuple-element.12765 = f64[4]{0} get-tuple-element(call.1), index=8
  get-tuple-element.12766 = f64[4]{0} get-tuple-element(call.1), index=9
  get-tuple-element.12767 = f64[4]{0} get-tuple-element(call.1), index=10
  get-tuple-element.12768 = f64[4]{0} get-tuple-element(call.1), index=11
  get-tuple-element.12769 = f64[24,4]{1,0} get-tuple-element(call.1), index=12
  get-tuple-element.12770 = f64[24,4]{1,0} get-tuple-element(call.1), index=13
  get-tuple-element.12771 = f64[192]{0} get-tuple-element(call.1), index=14
  get-tuple-element.12772 = f64[24,4,1]{2,1,0} get-tuple-element(call.1), index=15
  get-tuple-element.12773 = f64[4,1]{1,0} get-tuple-element(call.1), index=16
  get-tuple-element.12774 = f64[4,1]{1,0} get-tuple-element(call.1), index=17
  get-tuple-element.12775 = f64[192,4]{1,0} get-tuple-element(call.1), index=18
  get-tuple-element.12776 = f64[192,4]{1,0} get-tuple-element(call.1), index=19
  get-tuple-element.12777 = f64[192,4]{1,0} get-tuple-element(call.1), index=20
  get-tuple-element.12778 = f64[192,4]{1,0} get-tuple-element(call.1), index=21
  get-tuple-element.12779 = f64[192,4]{1,0} get-tuple-element(call.1), index=22
  get-tuple-element.12780 = f64[192,4]{1,0} get-tuple-element(call.1), index=23
  get-tuple-element.12781 = f64[192,4]{1,0} get-tuple-element(call.1), index=24
  get-tuple-element.12782 = f64[192,4]{1,0} get-tuple-element(call.1), index=25
  get-tuple-element.12783 = f64[192,4]{1,0} get-tuple-element(call.1), index=26
  get-tuple-element.12784 = f64[192,4]{1,0} get-tuple-element(call.1), index=27
  get-tuple-element.12785 = f64[192,4]{1,0} get-tuple-element(call.1), index=28
  get-tuple-element.12786 = (f64[192,24,4]{2,1,0}, f64[192,24,4]{2,1,0}, f64[192,24,4]{2,1,0}, f64[192,24,4]{2,1,0}, f64[192,24,4]{2,1,0}) get-tuple-element(call.1), index=29
  get-tuple-element.12388 = f64[192,24,4]{2,1,0} get-tuple-element(get-tuple-element.12786), index=4
  bitcast.6830 = f64[192,24,4]{2,1,0} bitcast(get-tuple-element.12388)
  get-tuple-element.12387 = f64[192,24,4]{2,1,0} get-tuple-element(get-tuple-element.12786), index=3
  bitcast.6829 = f64[192,24,4]{2,1,0} bitcast(get-tuple-element.12387)
  get-tuple-element.12386 = f64[192,24,4]{2,1,0} get-tuple-element(get-tuple-element.12786), index=2
  bitcast.6828 = f64[192,24,4]{2,1,0} bitcast(get-tuple-element.12386)
  get-tuple-element.12385 = f64[192,24,4]{2,1,0} get-tuple-element(get-tuple-element.12786), index=1
  get-tuple-element.12384 = f64[192,24,4]{2,1,0} get-tuple-element(get-tuple-element.12786), index=0
  bitcast.6826 = f64[192,24,4]{2,1,0} bitcast(get-tuple-element.12384)
  bitcast.6827 = f64[192,24,4]{2,1,0} bitcast(get-tuple-element.12385)
  ROOT tuple.314 = (f64[4]{0}, f64[4]{0}, f64[4]{0}, f64[4]{0}, s32[4]{0}, /*index=5*/f64[4]{0}, f64[4]{0}, f64[4,1]{1,0}, f64[4]{0}, f64[4]{0}, /*index=10*/f64[4]{0}, f64[4]{0}, s64[4]{0}, f64[4]{0}, f64[4]{0}, /*index=15*/f64[4]{0}, f64[4]{0}, f64[4]{0}, f64[4]{0}, f64[4]{0}, /*index=20*/f64[4,1]{1,0}, f64[4,1]{1,0}, f64[4]{0}, f64[4]{0}, f64[4]{0}, /*index=25*/f64[4]{0}, s64[4]{0}, f64[4]{0}, f64[4]{0}, f64[4]{0}, /*index=30*/f64[4]{0}, f64[4]{0}, f64[4]{0}, f64[4]{0}, f64[4,1]{1,0}, /*index=35*/f64[24,4]{1,0}, f64[24,4]{1,0}, f64[24,4]{1,0}, f64[24,4]{1,0}, f64[24,4]{1,0}, /*index=40*/f64[24,4]{1,0}, f64[24,4]{1,0}, f64[24,4]{1,0}, f64[24,4]{1,0}, f64[24,4]{1,0}, /*index=45*/f64[24,4]{1,0}, f64[24,4]{1,0}, f64[24,4]{1,0}, f64[24,4]{1,0}, f64[24,4]{1,0}, /*index=50*/f64[24,4]{1,0}, f64[24,4]{1,0}, f64[24,4]{1,0}, f64[24,4]{1,0}, f64[24,4]{1,0}, /*index=55*/f64[24,4,1]{2,1,0}, f64[192,4]{1,0}, f64[192,4]{1,0}, f64[192,4]{1,0}, f64[192,4]{1,0}, /*index=60*/pred[192,4]{1,0}, f64[192,4]{1,0}, f64[192,4]{1,0}, f64[192,4]{1,0}, f64[192,4]{1,0}, /*index=65*/f64[192,4]{1,0}, f64[192,4]{1,0}, f64[192,4]{1,0}, f64[192,4]{1,0}, pred[192,4]{1,0}, /*index=70*/f64[192,4]{1,0}, f64[192,4]{1,0}, f64[192,4]{1,0}, f64[192,4]{1,0}, f64[192,4]{1,0}, /*index=75*/f64[192,4]{1,0}, f64[192,4]{1,0}, f64[192]{0}, f64[192,4]{1,0}, f64[192,4]{1,0}, /*index=80*/f64[192,4]{1,0}, s32[192]{0}, f64[192,4]{1,0}, f64[192]{0}, f64[192,4]{1,0}, /*index=85*/f64[192,4]{1,0}, f64[192,4]{1,0}, pred[192,4]{1,0}, f64[192,4]{1,0}, f64[192,4]{1,0}, /*index=90*/f64[192,4]{1,0}, f64[192,4]{1,0}, f64[192,4]{1,0}, f64[192,4]{1,0}, f64[192]{0}, /*index=95*/f64[192,4]{1,0}, f64[192,4]{1,0}, f64[192,4]{1,0}, f64[192,4]{1,0}, f64[192,4]{1,0}, /*index=100*/f64[192,4]{1,0}, f64[192,4]{1,0}, f64[192,4]{1,0}, f64[192,4]{1,0}, f64[192,4]{1,0}, /*index=105*/f64[192,4]{1,0}, s32[192,4]{1,0}, pred[192,4]{1,0}, pred[192,4,1]{2,1,0}, f64[192,4]{1,0}, /*index=110*/f64[192,4]{1,0}, f64[192,4]{1,0}, f64[192,4]{1,0}, pred[192,4]{1,0}, pred[192,4,1]{2,1,0}, /*index=115*/f64[192,4]{1,0}, f64[192,4]{1,0}, f64[192,4]{1,0}, f64[192,4]{1,0}, f64[192,4]{1,0}, /*index=120*/f64[192,4]{1,0}, f64[192,4]{1,0}, f64[192,4]{1,0}, f64[192,4]{1,0}, f64[192,4]{1,0}, /*index=125*/pred[192,4]{1,0}, pred[192,4]{1,0}, pred[192,4,1]{2,1,0}, f64[192,24,4]{2,1,0}, f64[192,24,4]{2,1,0}, /*index=130*/f64[192,24,4]{2,1,0}, f64[192,24,4]{2,1,0}, f64[192,24,4]{2,1,0}, f64[192,24,4]{2,1,0}, f64[192,24,4]{2,1,0}, /*index=135*/f64[192,24,4]{2,1,0}, f64[192,24,4]{2,1,0}, f64[192,24,4]{2,1,0}, f64[192,24,4]{2,1,0}, f64[192,24,4]{2,1,0}, /*index=140*/f64[192,24,4]{2,1,0}, f64[192,24,4]{2,1,0}, f64[192,24,4]{2,1,0}, f64[192,24,4]{2,1,0}, f64[192,24,4]{2,1,0}, /*index=145*/f64[192,24,4]{2,1,0}, f64[192,24,4]{2,1,0}, f64[192,24,4]{2,1,0}, f64[192,24,4]{2,1,0}, f64[192,24,4]{2,1,0}, /*index=150*/f64[192,24,4]{2,1,0}, f64[192,24,4]{2,1,0}, f64[192,24,4]{2,1,0}, f64[192,24,4]{2,1,0}, f64[192,24,4]{2,1,0}, /*index=155*/f64[192,24,4]{2,1,0}, f64[192,24,4]{2,1,0}, f64[192,24,4]{2,1,0}, f64[192,24,4]{2,1,0}, f64[192,24,4]{2,1,0}, /*index=160*/f64[192,24,4]{2,1,0}, f64[192,24,4]{2,1,0}, f64[192,24,4]{2,1,0}, f64[192,24,4]{2,1,0}, f64[192,24,4]{2,1,0}, /*index=165*/f64[192,24,4]{2,1,0}, f64[192,24,4]{2,1,0}, f64[192,24,4]{2,1,0}, f64[192,24,4]{2,1,0}, f64[192,24,4]{2,1,0}, /*index=170*/f64[192,24,4]{2,1,0}, f64[192,24,4]{2,1,0}, f64[192,24,4]{2,1,0}, f64[192,24,4]{2,1,0}, f64[192,24,4]{2,1,0}, /*index=175*/f64[192,24,4]{2,1,0}, f64[192,24,4]{2,1,0}) tuple(get-tuple-element.12182, get-tuple-element.12183, get-tuple-element.12184, get-tuple-element.12185, get-tuple-element.12186, /*index=5*/get-tuple-element.12187, get-tuple-element.12188, get-tuple-element.12773, get-tuple-element.12763, get-tuple-element.12191, /*index=10*/get-tuple-element.12192, get-tuple-element.12193, get-tuple-element.12758, get-tuple-element.12195, get-tuple-element.12196, /*index=15*/get-tuple-element.12197, get-tuple-element.12198, get-tuple-element.12199, get-tuple-element.12762, get-tuple-element.12761, /*index=20*/get-tuple-element.12759, get-tuple-element.12760, get-tuple-element.12768, get-tuple-element.12205, get-tuple-element.12206, /*index=25*/get-tuple-element.12207, get-tuple-element.12757, get-tuple-element.12209, get-tuple-element.12210, get-tuple-element.12211, /*index=30*/get-tuple-element.12767, get-tuple-element.12766, get-tuple-element.12765, get-tuple-element.12764, get-tuple-element.12774, /*index=35*/get-tuple-element.12217, get-tuple-element.12218, get-tuple-element.12219, get-tuple-element.12220, get-tuple-element.12221, /*index=40*/get-tuple-element.12222, get-tuple-element.12223, get-tuple-element.12224, get-tuple-element.12225, get-tuple-element.12226, /*index=45*/get-tuple-element.12227, get-tuple-element.12228, get-tuple-element.12769, get-tuple-element.12230, get-tuple-element.12231, /*index=50*/get-tuple-element.12232, get-tuple-element.12233, get-tuple-element.12234, get-tuple-element.12235, get-tuple-element.12770, /*index=55*/get-tuple-element.12772, get-tuple-element.12238, get-tuple-element.12291, get-tuple-element.12240, get-tuple-element.12293, /*index=60*/get-tuple-element.12242, get-tuple-element.12243, get-tuple-element.12244, get-tuple-element.12784, get-tuple-element.12246, /*index=65*/get-tuple-element.12254, get-tuple-element.12248, get-tuple-element.12249, get-tuple-element.12250, get-tuple-element.12251, /*index=70*/get-tuple-element.12252, get-tuple-element.12253, get-tuple-element.12785, get-tuple-element.12255, get-tuple-element.12260, /*index=75*/get-tuple-element.12257, get-tuple-element.12258, get-tuple-element.12276, get-tuple-element.12783, get-tuple-element.12261, /*index=80*/get-tuple-element.12262, get-tuple-element.12263, get-tuple-element.12264, get-tuple-element.12265, get-tuple-element.12266, /*index=85*/get-tuple-element.12267, get-tuple-element.12268, get-tuple-element.12269, get-tuple-element.12270, get-tuple-element.12271, /*index=90*/get-tuple-element.12272, get-tuple-element.12277, get-tuple-element.12274, get-tuple-element.12275, get-tuple-element.12771, /*index=95*/get-tuple-element.12782, get-tuple-element.12278, get-tuple-element.12279, get-tuple-element.12297, get-tuple-element.12298, /*index=100*/get-tuple-element.12301, get-tuple-element.12283, get-tuple-element.12284, get-tuple-element.12285, get-tuple-element.12286, /*index=105*/get-tuple-element.12306, get-tuple-element.12288, get-tuple-element.12289, get-tuple-element.12290, get-tuple-element.12781, /*index=110*/get-tuple-element.12292, get-tuple-element.12780, get-tuple-element.12294, get-tuple-element.12295, get-tuple-element.12296, /*index=115*/get-tuple-element.12779, get-tuple-element.12778, get-tuple-element.12300, get-tuple-element.12777, get-tuple-element.12776, /*index=120*/get-tuple-element.12302, get-tuple-element.12303, get-tuple-element.12304, get-tuple-element.12305, get-tuple-element.12775, /*index=125*/get-tuple-element.12307, get-tuple-element.12308, get-tuple-element.12309, get-tuple-element.12310, get-tuple-element.12315, /*index=130*/get-tuple-element.12312, get-tuple-element.12313, get-tuple-element.12314, bitcast.6826, get-tuple-element.12316, /*index=135*/get-tuple-element.12321, get-tuple-element.12318, get-tuple-element.12319, get-tuple-element.12320, bitcast.6827, /*index=140*/get-tuple-element.12322, get-tuple-element.12326, get-tuple-element.12324, get-tuple-element.12325, bitcast.6828, /*index=145*/get-tuple-element.12327, get-tuple-element.12328, get-tuple-element.12329, get-tuple-element.12330, get-tuple-element.12331, /*index=150*/get-tuple-element.12332, get-tuple-element.12333, get-tuple-element.12337, get-tuple-element.12335, get-tuple-element.12336, /*index=155*/bitcast.6829, get-tuple-element.12338, get-tuple-element.12339, get-tuple-element.12340, get-tuple-element.12341, /*index=160*/get-tuple-element.12342, get-tuple-element.12343, get-tuple-element.12344, get-tuple-element.12345, get-tuple-element.12346, /*index=165*/get-tuple-element.12347, get-tuple-element.12348, get-tuple-element.12349, get-tuple-element.12350, get-tuple-element.12351, /*index=170*/get-tuple-element.12353, bitcast.6830, get-tuple-element.12354, get-tuple-element.12355, get-tuple-element.12356, /*index=175*/get-tuple-element.12357, get-tuple-element.12358)
} // main.3793

