HloModule jit_while, is_scheduled=true, entry_computation_layout={(s64[], f64[4]{0}, f64[4]{0}, f64[4]{0}, f64[4]{0}, /*index=5*/f64[4]{0}, f64[4]{0}, s64[], f64[], f64[4]{0}, /*index=10*/f64[4]{0}, f64[4]{0}, f64[4]{0}, f64[4]{0}, f64[4]{0}, /*index=15*/f64[], f64[], f64[10,4]{1,0}, f64[10,4]{1,0}, f64[10,4]{1,0}, /*index=20*/f64[10,4]{1,0}, f64[10,4]{1,0}, f64[10,4]{1,0}, f64[10,4]{1,0}, f64[10,4]{1,0}, /*index=25*/f64[10,4]{1,0}, f64[10,4]{1,0}, f64[10,4]{1,0}, f64[10,4]{1,0}, f64[10]{0}, /*index=30*/f64[], pred[], s32[], s32[], s32[])->(s64[], f64[4]{0}, f64[4]{0}, f64[4]{0}, f64[4]{0}, /*index=5*/f64[4]{0}, f64[4]{0}, s64[], f64[], f64[4]{0}, /*index=10*/f64[4]{0}, f64[4]{0}, f64[4]{0}, f64[4]{0}, f64[4]{0}, /*index=15*/f64[], f64[], f64[10,4]{1,0}, f64[10,4]{1,0}, f64[10,4]{1,0}, /*index=20*/f64[10,4]{1,0}, f64[10,4]{1,0}, f64[10,4]{1,0}, f64[10,4]{1,0}, f64[10,4]{1,0}, /*index=25*/f64[10,4]{1,0}, f64[10,4]{1,0}, f64[10,4]{1,0}, f64[10,4]{1,0}, f64[10]{0}, /*index=30*/f64[], pred[], s32[], s32[], s32[])}, allow_spmd_sharding_propagation_to_parameters={true,true,true,true,true,true,true,true,true,true,true,true,true,true,true,true,true,true,true,true,true,true,true,true,true,true,true,true,true,true,true,true,true,true,true}, allow_spmd_sharding_propagation_to_output={true,true,true,true,true,true,true,true,true,true,true,true,true,true,true,true,true,true,true,true,true,true,true,true,true,true,true,true,true,true,true,true,true,true,true}, frontend_attributes={fingerprint_before_lhs="dd8babe71dd68be6a40b47ab700e682a"}

fused_dynamic_update_slice {
  param_0 = f64[10]{0} parameter(0)
  param_8.97 = f64[10]{0} parameter(8)
  param_9.76 = s64[10]{0} parameter(9)
  constant_3324_3 = s64[] constant(9)
  param_1.124 = s64[] parameter(1)
  subtract.813.31 = s64[] subtract(constant_3324_3, param_1.124), metadata={op_name="jit(while)/jit(main)/while/body/jit(update)/while/body/sub" source_file="/fs04/fc37/adam/projects/psilocybin-prl-analyses/src/prl_hgf/fitting/fit_vb_laplace_patrl.py" source_line=332}
  constant_226_2 = s64[] constant(0)
  compare.2626.31 = pred[] compare(subtract.813.31, constant_226_2), direction=LT, metadata={op_name="jit(while)/jit(main)/while/body/jit(update)/while/body/lt" source_file="/fs04/fc37/adam/projects/psilocybin-prl-analyses/src/prl_hgf/fitting/fit_vb_laplace_patrl.py" source_line=332}
  constant_3456_3 = s64[] constant(19)
  subtract.814.31 = s64[] subtract(constant_3456_3, param_1.124), metadata={op_name="jit(while)/jit(main)/while/body/jit(update)/while/body/add" source_file="/fs04/fc37/adam/projects/psilocybin-prl-analyses/src/prl_hgf/fitting/fit_vb_laplace_patrl.py" source_line=332}
  select.8893.31 = s64[] select(compare.2626.31, subtract.814.31, subtract.813.31), metadata={op_name="jit(while)/jit(main)/while/body/jit(update)/while/body/select_n" source_file="/fs04/fc37/adam/projects/psilocybin-prl-analyses/src/prl_hgf/fitting/fit_vb_laplace_patrl.py" source_line=332}
  dynamic-slice.5236.29 = s64[1]{0} dynamic-slice(param_9.76, select.8893.31), dynamic_slice_sizes={1}, metadata={op_name="jit(while)/jit(main)/while/body/jit(update)/while/body/dynamic_slice[slice_sizes=(1,)]" source_file="/fs04/fc37/adam/projects/psilocybin-prl-analyses/src/prl_hgf/fitting/fit_vb_laplace_patrl.py" source_line=332}
  bitcast.14930.91 = s64[] bitcast(dynamic-slice.5236.29)
  compare.2627.31 = pred[] compare(bitcast.14930.91, constant_226_2), direction=LT, metadata={op_name="jit(while)/jit(main)/while/body/jit(update)/while/body/lt" source_file="/fs04/fc37/adam/projects/psilocybin-prl-analyses/src/prl_hgf/fitting/fit_vb_laplace_patrl.py" source_line=332}
  constant_228_4 = s64[] constant(10)
  add.9444.31 = s64[] add(bitcast.14930.91, constant_228_4), metadata={op_name="jit(while)/jit(main)/while/body/jit(update)/while/body/add" source_file="/fs04/fc37/adam/projects/psilocybin-prl-analyses/src/prl_hgf/fitting/fit_vb_laplace_patrl.py" source_line=332}
  select.8894.29 = s64[] select(compare.2627.31, add.9444.31, bitcast.14930.91), metadata={op_name="jit(while)/jit(main)/while/body/jit(update)/while/body/select_n" source_file="/fs04/fc37/adam/projects/psilocybin-prl-analyses/src/prl_hgf/fitting/fit_vb_laplace_patrl.py" source_line=332}
  dynamic-slice.5237.3 = f64[1]{0} dynamic-slice(param_8.97, select.8894.29), dynamic_slice_sizes={1}, metadata={op_name="jit(while)/jit(main)/while/body/jit(update)/while/body/dynamic_slice[slice_sizes=(1,)]" source_file="/fs04/fc37/adam/projects/psilocybin-prl-analyses/src/prl_hgf/fitting/fit_vb_laplace_patrl.py" source_line=332}
  bitcast.14941.3 = f64[] bitcast(dynamic-slice.5237.3)
  param_6.161 = f64[] parameter(6)
  param_7.109 = f64[] parameter(7)
  add.9445.3 = f64[] add(param_6.161, param_7.109), metadata={op_name="jit(while)/jit(main)/while/body/jit(update)/while/body/add" source_file="/fs04/fc37/adam/projects/psilocybin-prl-analyses/src/prl_hgf/fitting/fit_vb_laplace_patrl.py" source_line=332}
  param_5.109 = f64[] parameter(5)
  add.9446.3 = f64[] add(add.9445.3, param_5.109), metadata={op_name="jit(while)/jit(main)/while/body/jit(update)/while/body/add" source_file="/fs04/fc37/adam/projects/psilocybin-prl-analyses/src/prl_hgf/fitting/fit_vb_laplace_patrl.py" source_line=332}
  param_4.116 = f64[] parameter(4)
  add.9447.3 = f64[] add(add.9446.3, param_4.116), metadata={op_name="jit(while)/jit(main)/while/body/jit(update)/while/body/add" source_file="/fs04/fc37/adam/projects/psilocybin-prl-analyses/src/prl_hgf/fitting/fit_vb_laplace_patrl.py" source_line=332}
  param_3.119 = f64[] parameter(3)
  add.9448.3 = f64[] add(add.9447.3, param_3.119), metadata={op_name="jit(while)/jit(main)/while/body/jit(update)/while/body/add" source_file="/fs04/fc37/adam/projects/psilocybin-prl-analyses/src/prl_hgf/fitting/fit_vb_laplace_patrl.py" source_line=332}
  param_2.115 = f64[] parameter(2)
  add.9449.3 = f64[] add(add.9448.3, param_2.115), metadata={op_name="jit(while)/jit(main)/while/body/jit(update)/while/body/add" source_file="/fs04/fc37/adam/projects/psilocybin-prl-analyses/src/prl_hgf/fitting/fit_vb_laplace_patrl.py" source_line=332}
  multiply.11259.3 = f64[] multiply(bitcast.14941.3, add.9449.3), metadata={op_name="jit(while)/jit(main)/while/body/jit(update)/while/body/mul" source_file="/fs04/fc37/adam/projects/psilocybin-prl-analyses/src/prl_hgf/fitting/fit_vb_laplace_patrl.py" source_line=332}
  bitcast.15136.1 = f64[1]{0} bitcast(multiply.11259.3)
  ROOT dynamic-update-slice.5521.1 = f64[10]{0} dynamic-update-slice(param_0, bitcast.15136.1, select.8893.31), metadata={op_name="jit(while)/jit(main)/while/body/jit(update)/while/body/dynamic_update_slice" source_file="/fs04/fc37/adam/projects/psilocybin-prl-analyses/src/prl_hgf/fitting/fit_vb_laplace_patrl.py" source_line=332}
} // fused_dynamic_update_slice

fused_add {
  param_0.3 = f64[4]{0} parameter(0)
  param_10.61 = f64[10]{0} parameter(10)
  param_2.103 = s64[10]{0} parameter(2)
  constant_3324_2 = s64[] constant(9)
  param_3.118 = s64[] parameter(3)
  subtract.813.43 = s64[] subtract(constant_3324_2, param_3.118), metadata={op_name="jit(while)/jit(main)/while/body/jit(update)/while/body/sub" source_file="/fs04/fc37/adam/projects/psilocybin-prl-analyses/src/prl_hgf/fitting/fit_vb_laplace_patrl.py" source_line=332}
  constant_226_4 = s64[] constant(0)
  compare.2626.43 = pred[] compare(subtract.813.43, constant_226_4), direction=LT, metadata={op_name="jit(while)/jit(main)/while/body/jit(update)/while/body/lt" source_file="/fs04/fc37/adam/projects/psilocybin-prl-analyses/src/prl_hgf/fitting/fit_vb_laplace_patrl.py" source_line=332}
  constant_3456_2 = s64[] constant(19)
  subtract.814.43 = s64[] subtract(constant_3456_2, param_3.118), metadata={op_name="jit(while)/jit(main)/while/body/jit(update)/while/body/add" source_file="/fs04/fc37/adam/projects/psilocybin-prl-analyses/src/prl_hgf/fitting/fit_vb_laplace_patrl.py" source_line=332}
  select.8893.43 = s64[] select(compare.2626.43, subtract.814.43, subtract.813.43), metadata={op_name="jit(while)/jit(main)/while/body/jit(update)/while/body/select_n" source_file="/fs04/fc37/adam/projects/psilocybin-prl-analyses/src/prl_hgf/fitting/fit_vb_laplace_patrl.py" source_line=332}
  dynamic-slice.5236.41 = s64[1]{0} dynamic-slice(param_2.103, select.8893.43), dynamic_slice_sizes={1}, metadata={op_name="jit(while)/jit(main)/while/body/jit(update)/while/body/dynamic_slice[slice_sizes=(1,)]" source_file="/fs04/fc37/adam/projects/psilocybin-prl-analyses/src/prl_hgf/fitting/fit_vb_laplace_patrl.py" source_line=332}
  bitcast.14930.127 = s64[] bitcast(dynamic-slice.5236.41)
  compare.2627.43 = pred[] compare(bitcast.14930.127, constant_226_4), direction=LT, metadata={op_name="jit(while)/jit(main)/while/body/jit(update)/while/body/lt" source_file="/fs04/fc37/adam/projects/psilocybin-prl-analyses/src/prl_hgf/fitting/fit_vb_laplace_patrl.py" source_line=332}
  constant_228_1 = s64[] constant(10)
  add.9444.43 = s64[] add(bitcast.14930.127, constant_228_1), metadata={op_name="jit(while)/jit(main)/while/body/jit(update)/while/body/add" source_file="/fs04/fc37/adam/projects/psilocybin-prl-analyses/src/prl_hgf/fitting/fit_vb_laplace_patrl.py" source_line=332}
  select.8894.41 = s64[] select(compare.2627.43, add.9444.43, bitcast.14930.127), metadata={op_name="jit(while)/jit(main)/while/body/jit(update)/while/body/select_n" source_file="/fs04/fc37/adam/projects/psilocybin-prl-analyses/src/prl_hgf/fitting/fit_vb_laplace_patrl.py" source_line=332}
  dynamic-slice.5237.15 = f64[1]{0} dynamic-slice(param_10.61, select.8894.41), dynamic_slice_sizes={1}, metadata={op_name="jit(while)/jit(main)/while/body/jit(update)/while/body/dynamic_slice[slice_sizes=(1,)]" source_file="/fs04/fc37/adam/projects/psilocybin-prl-analyses/src/prl_hgf/fitting/fit_vb_laplace_patrl.py" source_line=332}
  bitcast.14941.15 = f64[] bitcast(dynamic-slice.5237.15)
  param_8.96 = f64[] parameter(8)
  param_9.75 = f64[] parameter(9)
  add.9445.15 = f64[] add(param_8.96, param_9.75), metadata={op_name="jit(while)/jit(main)/while/body/jit(update)/while/body/add" source_file="/fs04/fc37/adam/projects/psilocybin-prl-analyses/src/prl_hgf/fitting/fit_vb_laplace_patrl.py" source_line=332}
  param_7.108 = f64[] parameter(7)
  add.9446.15 = f64[] add(add.9445.15, param_7.108), metadata={op_name="jit(while)/jit(main)/while/body/jit(update)/while/body/add" source_file="/fs04/fc37/adam/projects/psilocybin-prl-analyses/src/prl_hgf/fitting/fit_vb_laplace_patrl.py" source_line=332}
  param_6.160 = f64[] parameter(6)
  add.9447.15 = f64[] add(add.9446.15, param_6.160), metadata={op_name="jit(while)/jit(main)/while/body/jit(update)/while/body/add" source_file="/fs04/fc37/adam/projects/psilocybin-prl-analyses/src/prl_hgf/fitting/fit_vb_laplace_patrl.py" source_line=332}
  param_5.108 = f64[] parameter(5)
  add.9448.15 = f64[] add(add.9447.15, param_5.108), metadata={op_name="jit(while)/jit(main)/while/body/jit(update)/while/body/add" source_file="/fs04/fc37/adam/projects/psilocybin-prl-analyses/src/prl_hgf/fitting/fit_vb_laplace_patrl.py" source_line=332}
  param_4.115 = f64[] parameter(4)
  add.9449.15 = f64[] add(add.9448.15, param_4.115), metadata={op_name="jit(while)/jit(main)/while/body/jit(update)/while/body/add" source_file="/fs04/fc37/adam/projects/psilocybin-prl-analyses/src/prl_hgf/fitting/fit_vb_laplace_patrl.py" source_line=332}
  multiply.11259.15 = f64[] multiply(bitcast.14941.15, add.9449.15), metadata={op_name="jit(while)/jit(main)/while/body/jit(update)/while/body/mul" source_file="/fs04/fc37/adam/projects/psilocybin-prl-analyses/src/prl_hgf/fitting/fit_vb_laplace_patrl.py" source_line=332}
  negate.1711.5 = f64[] negate(multiply.11259.15), metadata={op_name="jit(while)/jit(main)/while/body/jit(update)/while/body/neg" source_file="/fs04/fc37/adam/projects/psilocybin-prl-analyses/src/prl_hgf/fitting/fit_vb_laplace_patrl.py" source_line=332}
  broadcast.4916.4 = f64[1,4]{1,0} broadcast(negate.1711.5), dimensions={}, metadata={op_name="jit(while)/jit(main)/while/body/jit(update)/while/body/mul" source_file="/fs04/fc37/adam/projects/psilocybin-prl-analyses/src/prl_hgf/fitting/fit_vb_laplace_patrl.py" source_line=332}
  param_1.70 = f64[10,4]{1,0} parameter(1)
  dynamic-slice.5247.1 = f64[1,4]{1,0} dynamic-slice(param_1.70, select.8894.41, constant_226_4), dynamic_slice_sizes={1,4}, metadata={op_name="jit(while)/jit(main)/while/body/jit(update)/while/body/dynamic_slice[slice_sizes=(1, 4)]" source_file="/fs04/fc37/adam/projects/psilocybin-prl-analyses/src/prl_hgf/fitting/fit_vb_laplace_patrl.py" source_line=332}
  multiply.11263.1 = f64[1,4]{1,0} multiply(broadcast.4916.4, dynamic-slice.5247.1), metadata={op_name="jit(while)/jit(main)/while/body/jit(update)/while/body/mul" source_file="/fs04/fc37/adam/projects/psilocybin-prl-analyses/src/prl_hgf/fitting/fit_vb_laplace_patrl.py" source_line=332}
  bitcast.15099.1 = f64[4]{0} bitcast(multiply.11263.1)
  add.9453.1 = f64[4]{0} add(param_0.3, bitcast.15099.1), metadata={op_name="jit(while)/jit(main)/while/body/jit(update)/while/body/add" source_file="/fs04/fc37/adam/projects/psilocybin-prl-analyses/src/prl_hgf/fitting/fit_vb_laplace_patrl.py" source_line=332}
  param_11.1245 = f64[4]{0} parameter(11)
  param_12.975 = f64[10,4]{1,0} parameter(12)
  dynamic-slice.5248.1.clone.1 = f64[1,4]{1,0} dynamic-slice(param_12.975, select.8894.41, constant_226_4), dynamic_slice_sizes={1,4}, metadata={op_name="jit(while)/jit(main)/while/body/jit(update)/while/body/dynamic_slice[slice_sizes=(1, 4)]" source_file="/fs04/fc37/adam/projects/psilocybin-prl-analyses/src/prl_hgf/fitting/fit_vb_laplace_patrl.py" source_line=332}
  multiply.11264.1.clone.1 = f64[1,4]{1,0} multiply(broadcast.4916.4, dynamic-slice.5248.1.clone.1), metadata={op_name="jit(while)/jit(main)/while/body/jit(update)/while/body/mul" source_file="/fs04/fc37/adam/projects/psilocybin-prl-analyses/src/prl_hgf/fitting/fit_vb_laplace_patrl.py" source_line=332}
  bitcast.15114.1.clone.1 = f64[4]{0} bitcast(multiply.11264.1.clone.1)
  add.9454.1.clone.1 = f64[4]{0} add(param_11.1245, bitcast.15114.1.clone.1), metadata={op_name="jit(while)/jit(main)/while/body/jit(update)/while/body/add" source_file="/fs04/fc37/adam/projects/psilocybin-prl-analyses/src/prl_hgf/fitting/fit_vb_laplace_patrl.py" source_line=332}
  param_13.926 = f64[4]{0} parameter(13)
  param_14.832 = f64[10,4]{1,0} parameter(14)
  dynamic-slice.5249.1.clone.1 = f64[1,4]{1,0} dynamic-slice(param_14.832, select.8894.41, constant_226_4), dynamic_slice_sizes={1,4}, metadata={op_name="jit(while)/jit(main)/while/body/jit(update)/while/body/dynamic_slice[slice_sizes=(1, 4)]" source_file="/fs04/fc37/adam/projects/psilocybin-prl-analyses/src/prl_hgf/fitting/fit_vb_laplace_patrl.py" source_line=332}
  multiply.11265.1.clone.1 = f64[1,4]{1,0} multiply(broadcast.4916.4, dynamic-slice.5249.1.clone.1), metadata={op_name="jit(while)/jit(main)/while/body/jit(update)/while/body/mul" source_file="/fs04/fc37/adam/projects/psilocybin-prl-analyses/src/prl_hgf/fitting/fit_vb_laplace_patrl.py" source_line=332}
  bitcast.15129.1.clone.1 = f64[4]{0} bitcast(multiply.11265.1.clone.1)
  add.9455.1.clone.1 = f64[4]{0} add(param_13.926, bitcast.15129.1.clone.1), metadata={op_name="jit(while)/jit(main)/while/body/jit(update)/while/body/add" source_file="/fs04/fc37/adam/projects/psilocybin-prl-analyses/src/prl_hgf/fitting/fit_vb_laplace_patrl.py" source_line=332}
  param_15.798 = f64[4]{0} parameter(15)
  param_16.722 = f64[10,4]{1,0} parameter(16)
  dynamic-slice.5245.1.clone.1 = f64[1,4]{1,0} dynamic-slice(param_16.722, select.8894.41, constant_226_4), dynamic_slice_sizes={1,4}, metadata={op_name="jit(while)/jit(main)/while/body/jit(update)/while/body/dynamic_slice[slice_sizes=(1, 4)]" source_file="/fs04/fc37/adam/projects/psilocybin-prl-analyses/src/prl_hgf/fitting/fit_vb_laplace_patrl.py" source_line=332}
  multiply.11261.1.clone.1 = f64[1,4]{1,0} multiply(broadcast.4916.4, dynamic-slice.5245.1.clone.1), metadata={op_name="jit(while)/jit(main)/while/body/jit(update)/while/body/mul" source_file="/fs04/fc37/adam/projects/psilocybin-prl-analyses/src/prl_hgf/fitting/fit_vb_laplace_patrl.py" source_line=332}
  bitcast.15069.1.clone.1 = f64[4]{0} bitcast(multiply.11261.1.clone.1)
  add.9451.1.clone.1 = f64[4]{0} add(param_15.798, bitcast.15069.1.clone.1), metadata={op_name="jit(while)/jit(main)/while/body/jit(update)/while/body/add" source_file="/fs04/fc37/adam/projects/psilocybin-prl-analyses/src/prl_hgf/fitting/fit_vb_laplace_patrl.py" source_line=332}
  param_17.645 = f64[4]{0} parameter(17)
  param_18.567 = f64[10,4]{1,0} parameter(18)
  dynamic-slice.5244.1.clone.1 = f64[1,4]{1,0} dynamic-slice(param_18.567, select.8894.41, constant_226_4), dynamic_slice_sizes={1,4}, metadata={op_name="jit(while)/jit(main)/while/body/jit(update)/while/body/dynamic_slice[slice_sizes=(1, 4)]" source_file="/fs04/fc37/adam/projects/psilocybin-prl-analyses/src/prl_hgf/fitting/fit_vb_laplace_patrl.py" source_line=332}
  multiply.11260.1.clone.1 = f64[1,4]{1,0} multiply(broadcast.4916.4, dynamic-slice.5244.1.clone.1), metadata={op_name="jit(while)/jit(main)/while/body/jit(update)/while/body/mul" source_file="/fs04/fc37/adam/projects/psilocybin-prl-analyses/src/prl_hgf/fitting/fit_vb_laplace_patrl.py" source_line=332}
  bitcast.15054.1.clone.1 = f64[4]{0} bitcast(multiply.11260.1.clone.1)
  add.9450.1.clone.1 = f64[4]{0} add(param_17.645, bitcast.15054.1.clone.1), metadata={op_name="jit(while)/jit(main)/while/body/jit(update)/while/body/add" source_file="/fs04/fc37/adam/projects/psilocybin-prl-analyses/src/prl_hgf/fitting/fit_vb_laplace_patrl.py" source_line=332}
  param_19.511 = f64[4]{0} parameter(19)
  param_20.489 = f64[10,4]{1,0} parameter(20)
  dynamic-slice.5246.1.clone.1 = f64[1,4]{1,0} dynamic-slice(param_20.489, select.8894.41, constant_226_4), dynamic_slice_sizes={1,4}, metadata={op_name="jit(while)/jit(main)/while/body/jit(update)/while/body/dynamic_slice[slice_sizes=(1, 4)]" source_file="/fs04/fc37/adam/projects/psilocybin-prl-analyses/src/prl_hgf/fitting/fit_vb_laplace_patrl.py" source_line=332}
  multiply.11262.1.clone.1 = f64[1,4]{1,0} multiply(broadcast.4916.4, dynamic-slice.5246.1.clone.1), metadata={op_name="jit(while)/jit(main)/while/body/jit(update)/while/body/mul" source_file="/fs04/fc37/adam/projects/psilocybin-prl-analyses/src/prl_hgf/fitting/fit_vb_laplace_patrl.py" source_line=332}
  bitcast.15084.1.clone.1 = f64[4]{0} bitcast(multiply.11262.1.clone.1)
  add.9452.1.clone.1 = f64[4]{0} add(param_19.511, bitcast.15084.1.clone.1), metadata={op_name="jit(while)/jit(main)/while/body/jit(update)/while/body/add" source_file="/fs04/fc37/adam/projects/psilocybin-prl-analyses/src/prl_hgf/fitting/fit_vb_laplace_patrl.py" source_line=332}
  ROOT tuple.2175 = (f64[4]{0}, f64[4]{0}, f64[4]{0}, f64[4]{0}, f64[4]{0}, /*index=5*/f64[4]{0}) tuple(add.9453.1, add.9454.1.clone.1, add.9455.1.clone.1, add.9451.1.clone.1, add.9450.1.clone.1, /*index=5*/add.9452.1.clone.1)
} // fused_add

scalar_add_computation {
  scalar_rhs = f64[] parameter(1)
  scalar_lhs = f64[] parameter(0)
  ROOT add.9442 = f64[] add(scalar_lhs, scalar_rhs)
}

fused_reduce {
  param_1.118 = f64[10,4]{1,0} parameter(1)
  param_2.109 = s64[10]{0} parameter(2)
  constant_3324_11 = s64[] constant(9)
  param_3.127 = s64[] parameter(3)
  subtract.813.21 = s64[] subtract(constant_3324_11, param_3.127), metadata={op_name="jit(while)/jit(main)/while/body/jit(update)/while/body/sub" source_file="/fs04/fc37/adam/projects/psilocybin-prl-analyses/src/prl_hgf/fitting/fit_vb_laplace_patrl.py" source_line=332}
  constant_226_9 = s64[] constant(0)
  compare.2626.21 = pred[] compare(subtract.813.21, constant_226_9), direction=LT, metadata={op_name="jit(while)/jit(main)/while/body/jit(update)/while/body/lt" source_file="/fs04/fc37/adam/projects/psilocybin-prl-analyses/src/prl_hgf/fitting/fit_vb_laplace_patrl.py" source_line=332}
  constant_3456_11 = s64[] constant(19)
  subtract.814.21 = s64[] subtract(constant_3456_11, param_3.127), metadata={op_name="jit(while)/jit(main)/while/body/jit(update)/while/body/add" source_file="/fs04/fc37/adam/projects/psilocybin-prl-analyses/src/prl_hgf/fitting/fit_vb_laplace_patrl.py" source_line=332}
  select.8893.21 = s64[] select(compare.2626.21, subtract.814.21, subtract.813.21), metadata={op_name="jit(while)/jit(main)/while/body/jit(update)/while/body/select_n" source_file="/fs04/fc37/adam/projects/psilocybin-prl-analyses/src/prl_hgf/fitting/fit_vb_laplace_patrl.py" source_line=332}
  dynamic-slice.5236.17 = s64[1]{0} dynamic-slice(param_2.109, select.8893.21), dynamic_slice_sizes={1}, metadata={op_name="jit(while)/jit(main)/while/body/jit(update)/while/body/dynamic_slice[slice_sizes=(1,)]" source_file="/fs04/fc37/adam/projects/psilocybin-prl-analyses/src/prl_hgf/fitting/fit_vb_laplace_patrl.py" source_line=332}
  bitcast.14930.55 = s64[] bitcast(dynamic-slice.5236.17)
  compare.2627.19 = pred[] compare(bitcast.14930.55, constant_226_9), direction=LT, metadata={op_name="jit(while)/jit(main)/while/body/jit(update)/while/body/lt" source_file="/fs04/fc37/adam/projects/psilocybin-prl-analyses/src/prl_hgf/fitting/fit_vb_laplace_patrl.py" source_line=332}
  constant_228_9 = s64[] constant(10)
  add.9444.19 = s64[] add(bitcast.14930.55, constant_228_9), metadata={op_name="jit(while)/jit(main)/while/body/jit(update)/while/body/add" source_file="/fs04/fc37/adam/projects/psilocybin-prl-analyses/src/prl_hgf/fitting/fit_vb_laplace_patrl.py" source_line=332}
  select.8894.17 = s64[] select(compare.2627.19, add.9444.19, bitcast.14930.55), metadata={op_name="jit(while)/jit(main)/while/body/jit(update)/while/body/select_n" source_file="/fs04/fc37/adam/projects/psilocybin-prl-analyses/src/prl_hgf/fitting/fit_vb_laplace_patrl.py" source_line=332}
  dynamic-slice.5242.1 = f64[1,4]{1,0} dynamic-slice(param_1.118, select.8894.17, constant_226_9), dynamic_slice_sizes={1,4}, metadata={op_name="jit(while)/jit(main)/while/body/jit(update)/while/body/dynamic_slice[slice_sizes=(1, 4)]" source_file="/fs04/fc37/adam/projects/psilocybin-prl-analyses/src/prl_hgf/fitting/fit_vb_laplace_patrl.py" source_line=332}
  bitcast.15016.3 = f64[4]{0} bitcast(dynamic-slice.5242.1)
  param_0.88 = f64[4]{0} parameter(0)
  multiply.11257.3 = f64[4]{0} multiply(bitcast.15016.3, param_0.88)
  constant_1586_1 = f64[] constant(0)
  reduce.108.1 = f64[] reduce(multiply.11257.3, constant_1586_1), dimensions={0}, to_apply=scalar_add_computation, metadata={op_name="jit(while)/jit(main)/while/body/jit(update)/while/body/dot_general[dimension_numbers=(((0,), (0,)), ((), ())) precision=(Precision.HIGHEST, Precision.HIGHEST) preferred_element_type=float64]" source_file="/fs04/fc37/adam/projects/psilocybin-prl-analyses/src/prl_hgf/fitting/fit_vb_laplace_patrl.py" source_line=332}
  param_5.3810 = f64[10,4]{1,0} parameter(5)
  dynamic-slice.5243.1.clone.1 = f64[1,4]{1,0} dynamic-slice(param_5.3810, select.8894.17, constant_226_9), dynamic_slice_sizes={1,4}, metadata={op_name="jit(while)/jit(main)/while/body/jit(update)/while/body/dynamic_slice[slice_sizes=(1, 4)]" source_file="/fs04/fc37/adam/projects/psilocybin-prl-analyses/src/prl_hgf/fitting/fit_vb_laplace_patrl.py" source_line=332}
  bitcast.15033.3.clone.1 = f64[4]{0} bitcast(dynamic-slice.5243.1.clone.1)
  param_4.4758 = f64[4]{0} parameter(4)
  multiply.11258.3.clone.1 = f64[4]{0} multiply(bitcast.15033.3.clone.1, param_4.4758)
  reduce.109.1.clone.1 = f64[] reduce(multiply.11258.3.clone.1, constant_1586_1), dimensions={0}, to_apply=scalar_add_computation, metadata={op_name="jit(while)/jit(main)/while/body/jit(update)/while/body/dot_general[dimension_numbers=(((0,), (0,)), ((), ())) precision=(Precision.HIGHEST, Precision.HIGHEST) preferred_element_type=float64]" source_file="/fs04/fc37/adam/projects/psilocybin-prl-analyses/src/prl_hgf/fitting/fit_vb_laplace_patrl.py" source_line=332}
  param_7.2465 = f64[10,4]{1,0} parameter(7)
  dynamic-slice.5238.1.clone.1 = f64[1,4]{1,0} dynamic-slice(param_7.2465, select.8894.17, constant_226_9), dynamic_slice_sizes={1,4}, metadata={op_name="jit(while)/jit(main)/while/body/jit(update)/while/body/dynamic_slice[slice_sizes=(1, 4)]" source_file="/fs04/fc37/adam/projects/psilocybin-prl-analyses/src/prl_hgf/fitting/fit_vb_laplace_patrl.py" source_line=332}
  bitcast.14950.3.clone.1 = f64[4]{0} bitcast(dynamic-slice.5238.1.clone.1)
  param_6.3161 = f64[4]{0} parameter(6)
  multiply.11253.3.clone.1 = f64[4]{0} multiply(bitcast.14950.3.clone.1, param_6.3161)
  reduce.104.1.clone.1 = f64[] reduce(multiply.11253.3.clone.1, constant_1586_1), dimensions={0}, to_apply=scalar_add_computation, metadata={op_name="jit(while)/jit(main)/while/body/jit(update)/while/body/dot_general[dimension_numbers=(((0,), (0,)), ((), ())) precision=(Precision.HIGHEST, Precision.HIGHEST) preferred_element_type=float64]" source_file="/fs04/fc37/adam/projects/psilocybin-prl-analyses/src/prl_hgf/fitting/fit_vb_laplace_patrl.py" source_line=332}
  param_9.1690 = f64[10,4]{1,0} parameter(9)
  dynamic-slice.5239.1.clone.1 = f64[1,4]{1,0} dynamic-slice(param_9.1690, select.8894.17, constant_226_9), dynamic_slice_sizes={1,4}, metadata={op_name="jit(while)/jit(main)/while/body/jit(update)/while/body/dynamic_slice[slice_sizes=(1, 4)]" source_file="/fs04/fc37/adam/projects/psilocybin-prl-analyses/src/prl_hgf/fitting/fit_vb_laplace_patrl.py" source_line=332}
  bitcast.14965.3.clone.1 = f64[4]{0} bitcast(dynamic-slice.5239.1.clone.1)
  param_8.1973 = f64[4]{0} parameter(8)
  multiply.11254.3.clone.1 = f64[4]{0} multiply(bitcast.14965.3.clone.1, param_8.1973)
  reduce.105.1.clone.1 = f64[] reduce(multiply.11254.3.clone.1, constant_1586_1), dimensions={0}, to_apply=scalar_add_computation, metadata={op_name="jit(while)/jit(main)/while/body/jit(update)/while/body/dot_general[dimension_numbers=(((0,), (0,)), ((), ())) precision=(Precision.HIGHEST, Precision.HIGHEST) preferred_element_type=float64]" source_file="/fs04/fc37/adam/projects/psilocybin-prl-analyses/src/prl_hgf/fitting/fit_vb_laplace_patrl.py" source_line=332}
  param_11.1260 = f64[10,4]{1,0} parameter(11)
  dynamic-slice.5240.1.clone.1 = f64[1,4]{1,0} dynamic-slice(param_11.1260, select.8894.17, constant_226_9), dynamic_slice_sizes={1,4}, metadata={op_name="jit(while)/jit(main)/while/body/jit(update)/while/body/dynamic_slice[slice_sizes=(1, 4)]" source_file="/fs04/fc37/adam/projects/psilocybin-prl-analyses/src/prl_hgf/fitting/fit_vb_laplace_patrl.py" source_line=332}
  bitcast.14982.3.clone.1 = f64[4]{0} bitcast(dynamic-slice.5240.1.clone.1)
  param_10.1470 = f64[4]{0} parameter(10)
  multiply.11255.3.clone.1 = f64[4]{0} multiply(bitcast.14982.3.clone.1, param_10.1470)
  reduce.106.1.clone.1 = f64[] reduce(multiply.11255.3.clone.1, constant_1586_1), dimensions={0}, to_apply=scalar_add_computation, metadata={op_name="jit(while)/jit(main)/while/body/jit(update)/while/body/dot_general[dimension_numbers=(((0,), (0,)), ((), ())) precision=(Precision.HIGHEST, Precision.HIGHEST) preferred_element_type=float64]" source_file="/fs04/fc37/adam/projects/psilocybin-prl-analyses/src/prl_hgf/fitting/fit_vb_laplace_patrl.py" source_line=332}
  param_13.941 = f64[10,4]{1,0} parameter(13)
  dynamic-slice.5241.1.clone.1 = f64[1,4]{1,0} dynamic-slice(param_13.941, select.8894.17, constant_226_9), dynamic_slice_sizes={1,4}, metadata={op_name="jit(while)/jit(main)/while/body/jit(update)/while/body/dynamic_slice[slice_sizes=(1, 4)]" source_file="/fs04/fc37/adam/projects/psilocybin-prl-analyses/src/prl_hgf/fitting/fit_vb_laplace_patrl.py" source_line=332}
  bitcast.14999.3.clone.1 = f64[4]{0} bitcast(dynamic-slice.5241.1.clone.1)
  param_12.986 = f64[4]{0} parameter(12)
  multiply.11256.3.clone.1 = f64[4]{0} multiply(bitcast.14999.3.clone.1, param_12.986)
  reduce.107.1.clone.1 = f64[] reduce(multiply.11256.3.clone.1, constant_1586_1), dimensions={0}, to_apply=scalar_add_computation, metadata={op_name="jit(while)/jit(main)/while/body/jit(update)/while/body/dot_general[dimension_numbers=(((0,), (0,)), ((), ())) precision=(Precision.HIGHEST, Precision.HIGHEST) preferred_element_type=float64]" source_file="/fs04/fc37/adam/projects/psilocybin-prl-analyses/src/prl_hgf/fitting/fit_vb_laplace_patrl.py" source_line=332}
  ROOT tuple.2180 = (f64[], f64[], f64[], f64[], f64[], /*index=5*/f64[]) tuple(reduce.108.1, reduce.109.1.clone.1, reduce.104.1.clone.1, reduce.105.1.clone.1, reduce.106.1.clone.1, /*index=5*/reduce.107.1.clone.1)
} // fused_reduce

fused_add.1 {
  param_0.87 = s64[] parameter(0)
  constant_227_1 = s64[] constant(1)
  ROOT add.9443.1 = s64[] add(param_0.87, constant_227_1), metadata={op_name="jit(while)/jit(main)/while/body/jit(update)/while/body/add" source_file="/fs04/fc37/adam/projects/psilocybin-prl-analyses/src/prl_hgf/fitting/fit_vb_laplace_patrl.py" source_line=332}
}

region_1.202 {
  arg_tuple.203.0 = (s64[], f64[4]{0}, f64[4]{0}, f64[4]{0}, f64[4]{0}, /*index=5*/f64[4]{0}, f64[4]{0}, f64[10]{0}, s64[10]{0}, f64[10,4]{1,0}, /*index=10*/f64[10,4]{1,0}, f64[10,4]{1,0}, f64[10,4]{1,0}, f64[10,4]{1,0}, f64[10,4]{1,0}, /*index=15*/f64[10,4]{1,0}, f64[10,4]{1,0}, f64[10,4]{1,0}, f64[10,4]{1,0}, f64[10,4]{1,0}, /*index=20*/f64[10,4]{1,0}, f64[10]{0}) parameter(0)
  get-tuple-element.60965 = s64[] get-tuple-element(arg_tuple.203.0), index=0
  get-tuple-element.60995 = s64[10]{0} get-tuple-element(arg_tuple.203.0), index=8
  get-tuple-element.61008 = f64[10]{0} get-tuple-element(arg_tuple.203.0), index=21
  get-tuple-element.60966 = f64[4]{0} get-tuple-element(arg_tuple.203.0), index=1
  get-tuple-element.60967 = f64[4]{0} get-tuple-element(arg_tuple.203.0), index=2
  get-tuple-element.60968 = f64[4]{0} get-tuple-element(arg_tuple.203.0), index=3
  get-tuple-element.60969 = f64[4]{0} get-tuple-element(arg_tuple.203.0), index=4
  get-tuple-element.60970 = f64[4]{0} get-tuple-element(arg_tuple.203.0), index=5
  get-tuple-element.60971 = f64[4]{0} get-tuple-element(arg_tuple.203.0), index=6
  get-tuple-element.60996 = f64[10,4]{1,0} get-tuple-element(arg_tuple.203.0), index=9
  get-tuple-element.60997 = f64[10,4]{1,0} get-tuple-element(arg_tuple.203.0), index=10
  get-tuple-element.60998 = f64[10,4]{1,0} get-tuple-element(arg_tuple.203.0), index=11
  get-tuple-element.60999 = f64[10,4]{1,0} get-tuple-element(arg_tuple.203.0), index=12
  get-tuple-element.61000 = f64[10,4]{1,0} get-tuple-element(arg_tuple.203.0), index=13
  get-tuple-element.61001 = f64[10,4]{1,0} get-tuple-element(arg_tuple.203.0), index=14
  get-tuple-element.61002 = f64[10,4]{1,0} get-tuple-element(arg_tuple.203.0), index=15
  get-tuple-element.61003 = f64[10,4]{1,0} get-tuple-element(arg_tuple.203.0), index=16
  get-tuple-element.61004 = f64[10,4]{1,0} get-tuple-element(arg_tuple.203.0), index=17
  get-tuple-element.61005 = f64[10,4]{1,0} get-tuple-element(arg_tuple.203.0), index=18
  get-tuple-element.61006 = f64[10,4]{1,0} get-tuple-element(arg_tuple.203.0), index=19
  get-tuple-element.61007 = f64[10,4]{1,0} get-tuple-element(arg_tuple.203.0), index=20
  get-tuple-element.60972 = f64[10]{0} get-tuple-element(arg_tuple.203.0), index=7
  input_reduce_fusion = (f64[], f64[], f64[], f64[], f64[], /*index=5*/f64[]) fusion(get-tuple-element.60970, get-tuple-element.61000, get-tuple-element.60995, get-tuple-element.60965, get-tuple-element.60971, /*index=5*/get-tuple-element.61001, get-tuple-element.60966, get-tuple-element.60996, get-tuple-element.60967, get-tuple-element.60997, /*index=10*/get-tuple-element.60968, get-tuple-element.60998, get-tuple-element.60969, get-tuple-element.60999), kind=kInput, calls=fused_reduce, metadata={op_name="jit(while)/jit(main)/while/body/jit(update)/while/body/dot_general[dimension_numbers=(((0,), (0,)), ((), ())) precision=(Precision.HIGHEST, Precision.HIGHEST) preferred_element_type=float64]" source_file="/fs04/fc37/adam/projects/psilocybin-prl-analyses/src/prl_hgf/fitting/fit_vb_laplace_patrl.py" source_line=332}
  get-tuple-element.59120 = f64[] get-tuple-element(input_reduce_fusion), index=5, metadata={op_name="jit(while)/jit(main)/while/body/jit(update)/while/body/dot_general[dimension_numbers=(((0,), (0,)), ((), ())) precision=(Precision.HIGHEST, Precision.HIGHEST) preferred_element_type=float64]" source_file="/fs04/fc37/adam/projects/psilocybin-prl-analyses/src/prl_hgf/fitting/fit_vb_laplace_patrl.py" source_line=332}
  get-tuple-element.59119 = f64[] get-tuple-element(input_reduce_fusion), index=4, metadata={op_name="jit(while)/jit(main)/while/body/jit(update)/while/body/dot_general[dimension_numbers=(((0,), (0,)), ((), ())) precision=(Precision.HIGHEST, Precision.HIGHEST) preferred_element_type=float64]" source_file="/fs04/fc37/adam/projects/psilocybin-prl-analyses/src/prl_hgf/fitting/fit_vb_laplace_patrl.py" source_line=332}
  get-tuple-element.59118 = f64[] get-tuple-element(input_reduce_fusion), index=3, metadata={op_name="jit(while)/jit(main)/while/body/jit(update)/while/body/dot_general[dimension_numbers=(((0,), (0,)), ((), ())) precision=(Precision.HIGHEST, Precision.HIGHEST) preferred_element_type=float64]" source_file="/fs04/fc37/adam/projects/psilocybin-prl-analyses/src/prl_hgf/fitting/fit_vb_laplace_patrl.py" source_line=332}
  get-tuple-element.59117 = f64[] get-tuple-element(input_reduce_fusion), index=2, metadata={op_name="jit(while)/jit(main)/while/body/jit(update)/while/body/dot_general[dimension_numbers=(((0,), (0,)), ((), ())) precision=(Precision.HIGHEST, Precision.HIGHEST) preferred_element_type=float64]" source_file="/fs04/fc37/adam/projects/psilocybin-prl-analyses/src/prl_hgf/fitting/fit_vb_laplace_patrl.py" source_line=332}
  get-tuple-element.59116 = f64[] get-tuple-element(input_reduce_fusion), index=1, metadata={op_name="jit(while)/jit(main)/while/body/jit(update)/while/body/dot_general[dimension_numbers=(((0,), (0,)), ((), ())) precision=(Precision.HIGHEST, Precision.HIGHEST) preferred_element_type=float64]" source_file="/fs04/fc37/adam/projects/psilocybin-prl-analyses/src/prl_hgf/fitting/fit_vb_laplace_patrl.py" source_line=332}
  get-tuple-element.59115 = f64[] get-tuple-element(input_reduce_fusion), index=0, metadata={op_name="jit(while)/jit(main)/while/body/jit(update)/while/body/dot_general[dimension_numbers=(((0,), (0,)), ((), ())) precision=(Precision.HIGHEST, Precision.HIGHEST) preferred_element_type=float64]" source_file="/fs04/fc37/adam/projects/psilocybin-prl-analyses/src/prl_hgf/fitting/fit_vb_laplace_patrl.py" source_line=332}
  loop_dynamic_update_slice_fusion = f64[10]{0} fusion(get-tuple-element.60972, get-tuple-element.60965, get-tuple-element.59116, get-tuple-element.59115, get-tuple-element.59120, /*index=5*/get-tuple-element.59119, get-tuple-element.59117, get-tuple-element.59118, get-tuple-element.61008, get-tuple-element.60995), kind=kLoop, calls=fused_dynamic_update_slice, metadata={op_name="jit(while)/jit(main)/while/body/jit(update)/while/body/dynamic_update_slice" source_file="/fs04/fc37/adam/projects/psilocybin-prl-analyses/src/prl_hgf/fitting/fit_vb_laplace_patrl.py" source_line=332}
  loop_add_fusion = (f64[4]{0}, f64[4]{0}, f64[4]{0}, f64[4]{0}, f64[4]{0}, /*index=5*/f64[4]{0}) fusion(get-tuple-element.60969, get-tuple-element.61005, get-tuple-element.60995, get-tuple-element.60965, get-tuple-element.59116, /*index=5*/get-tuple-element.59115, get-tuple-element.59120, get-tuple-element.59119, get-tuple-element.59117, get-tuple-element.59118, /*index=10*/get-tuple-element.61008, get-tuple-element.60970, get-tuple-element.61006, get-tuple-element.60971, get-tuple-element.61007, /*index=15*/get-tuple-element.60967, get-tuple-element.61003, get-tuple-element.60966, get-tuple-element.61002, get-tuple-element.60968, /*index=20*/get-tuple-element.61004), kind=kLoop, calls=fused_add, control-predecessors={input_reduce_fusion}, metadata={op_name="jit(while)/jit(main)/while/body/jit(update)/while/body/add" source_file="/fs04/fc37/adam/projects/psilocybin-prl-analyses/src/prl_hgf/fitting/fit_vb_laplace_patrl.py" source_line=332}
  loop_add_fusion.1 = s64[] fusion(get-tuple-element.60965), kind=kLoop, calls=fused_add.1, control-predecessors={input_reduce_fusion, loop_add_fusion, loop_dynamic_update_slice_fusion}, metadata={op_name="jit(while)/jit(main)/while/body/jit(update)/while/body/add" source_file="/fs04/fc37/adam/projects/psilocybin-prl-analyses/src/prl_hgf/fitting/fit_vb_laplace_patrl.py" source_line=332 deduplicated_name="loop_add_fusion.1"}
  get-tuple-element.60990 = f64[4]{0} get-tuple-element(loop_add_fusion), index=5, metadata={op_name="jit(while)/jit(main)/while/body/jit(update)/while/body/add" source_file="/fs04/fc37/adam/projects/psilocybin-prl-analyses/src/prl_hgf/fitting/fit_vb_laplace_patrl.py" source_line=332}
  get-tuple-element.60988 = f64[4]{0} get-tuple-element(loop_add_fusion), index=4, metadata={op_name="jit(while)/jit(main)/while/body/jit(update)/while/body/add" source_file="/fs04/fc37/adam/projects/psilocybin-prl-analyses/src/prl_hgf/fitting/fit_vb_laplace_patrl.py" source_line=332}
  get-tuple-element.60989 = f64[4]{0} get-tuple-element(loop_add_fusion), index=3, metadata={op_name="jit(while)/jit(main)/while/body/jit(update)/while/body/add" source_file="/fs04/fc37/adam/projects/psilocybin-prl-analyses/src/prl_hgf/fitting/fit_vb_laplace_patrl.py" source_line=332}
  get-tuple-element.60993 = f64[4]{0} get-tuple-element(loop_add_fusion), index=2, metadata={op_name="jit(while)/jit(main)/while/body/jit(update)/while/body/add" source_file="/fs04/fc37/adam/projects/psilocybin-prl-analyses/src/prl_hgf/fitting/fit_vb_laplace_patrl.py" source_line=332}
  get-tuple-element.60992 = f64[4]{0} get-tuple-element(loop_add_fusion), index=1, metadata={op_name="jit(while)/jit(main)/while/body/jit(update)/while/body/add" source_file="/fs04/fc37/adam/projects/psilocybin-prl-analyses/src/prl_hgf/fitting/fit_vb_laplace_patrl.py" source_line=332}
  get-tuple-element.60991 = f64[4]{0} get-tuple-element(loop_add_fusion), index=0, metadata={op_name="jit(while)/jit(main)/while/body/jit(update)/while/body/add" source_file="/fs04/fc37/adam/projects/psilocybin-prl-analyses/src/prl_hgf/fitting/fit_vb_laplace_patrl.py" source_line=332}
  ROOT tuple.2563 = (s64[], f64[4]{0}, f64[4]{0}, f64[4]{0}, f64[4]{0}, /*index=5*/f64[4]{0}, f64[4]{0}, f64[10]{0}, s64[10]{0}, f64[10,4]{1,0}, /*index=10*/f64[10,4]{1,0}, f64[10,4]{1,0}, f64[10,4]{1,0}, f64[10,4]{1,0}, f64[10,4]{1,0}, /*index=15*/f64[10,4]{1,0}, f64[10,4]{1,0}, f64[10,4]{1,0}, f64[10,4]{1,0}, f64[10,4]{1,0}, /*index=20*/f64[10,4]{1,0}, f64[10]{0}) tuple(loop_add_fusion.1, get-tuple-element.60988, get-tuple-element.60989, get-tuple-element.60990, get-tuple-element.60991, /*index=5*/get-tuple-element.60992, get-tuple-element.60993, loop_dynamic_update_slice_fusion, get-tuple-element.60995, get-tuple-element.60996, /*index=10*/get-tuple-element.60997, get-tuple-element.60998, get-tuple-element.60999, get-tuple-element.61000, get-tuple-element.61001, /*index=15*/get-tuple-element.61002, get-tuple-element.61003, get-tuple-element.61004, get-tuple-element.61005, get-tuple-element.61006, /*index=20*/get-tuple-element.61007, get-tuple-element.61008)
} // region_1.202

fused_compare {
  param_0.94 = s64[] parameter(0)
  constant_275_1 = s64[] constant(10)
  ROOT compare.2628.1 = pred[] compare(param_0.94, constant_275_1), direction=LT, metadata={op_name="jit(while)/jit(main)/while/body/jit(update)/while/cond/lt" source_file="/fs04/fc37/adam/projects/psilocybin-prl-analyses/src/prl_hgf/fitting/fit_vb_laplace_patrl.py" source_line=332}
}

region_2.251 {
  arg_tuple.252.0 = (s64[], f64[4]{0}, f64[4]{0}, f64[4]{0}, f64[4]{0}, /*index=5*/f64[4]{0}, f64[4]{0}, f64[10]{0}, s64[10]{0}, f64[10,4]{1,0}, /*index=10*/f64[10,4]{1,0}, f64[10,4]{1,0}, f64[10,4]{1,0}, f64[10,4]{1,0}, f64[10,4]{1,0}, /*index=15*/f64[10,4]{1,0}, f64[10,4]{1,0}, f64[10,4]{1,0}, f64[10,4]{1,0}, f64[10,4]{1,0}, /*index=20*/f64[10,4]{1,0}, f64[10]{0}) parameter(0)
  get-tuple-element.253.0 = s64[] get-tuple-element(arg_tuple.252.0), index=0
  ROOT loop_compare_fusion = pred[] fusion(get-tuple-element.253.0), kind=kLoop, calls=fused_compare, metadata={op_name="jit(while)/jit(main)/while/body/jit(update)/while/cond/lt" source_file="/fs04/fc37/adam/projects/psilocybin-prl-analyses/src/prl_hgf/fitting/fit_vb_laplace_patrl.py" source_line=332 deduplicated_name="loop_compare_fusion"}
}

fused_add.2 {
  param_0.95 = f64[4]{0} parameter(0)
  param_11.109 = f64[10]{0} parameter(11)
  param_3.205 = s64[] parameter(3)
  constant_1932_7 = s64[] constant(0)
  compare.2629.55 = pred[] compare(param_3.205, constant_1932_7), direction=LT, metadata={op_name="jit(while)/jit(main)/while/body/jit(update)/while/body/lt" source_file="/fs04/fc37/adam/projects/psilocybin-prl-analyses/src/prl_hgf/fitting/fit_vb_laplace_patrl.py" source_line=332}
  constant_1931_4 = s64[] constant(10)
  add.9457.55 = s64[] add(param_3.205, constant_1931_4), metadata={op_name="jit(while)/jit(main)/while/body/jit(update)/while/body/add" source_file="/fs04/fc37/adam/projects/psilocybin-prl-analyses/src/prl_hgf/fitting/fit_vb_laplace_patrl.py" source_line=332}
  select.8895.55 = s64[] select(compare.2629.55, add.9457.55, param_3.205), metadata={op_name="jit(while)/jit(main)/while/body/jit(update)/while/body/select_n" source_file="/fs04/fc37/adam/projects/psilocybin-prl-analyses/src/prl_hgf/fitting/fit_vb_laplace_patrl.py" source_line=332}
  dynamic-slice.5250.13 = f64[1]{0} dynamic-slice(param_11.109, select.8895.55), dynamic_slice_sizes={1}, metadata={op_name="jit(while)/jit(main)/while/body/jit(update)/while/body/dynamic_slice[slice_sizes=(1,)]" source_file="/fs04/fc37/adam/projects/psilocybin-prl-analyses/src/prl_hgf/fitting/fit_vb_laplace_patrl.py" source_line=332}
  bitcast.15173.15 = f64[] bitcast(dynamic-slice.5250.13)
  param_10.115 = f64[10]{0} parameter(10)
  param_2.196 = s64[10]{0} parameter(2)
  dynamic-slice.5251.39 = s64[1]{0} dynamic-slice(param_2.196, select.8895.55), dynamic_slice_sizes={1}, metadata={op_name="jit(while)/jit(main)/while/body/jit(update)/while/body/dynamic_slice[slice_sizes=(1,)]" source_file="/fs04/fc37/adam/projects/psilocybin-prl-analyses/src/prl_hgf/fitting/fit_vb_laplace_patrl.py" source_line=332}
  bitcast.15182.121 = s64[] bitcast(dynamic-slice.5251.39)
  compare.2630.41 = pred[] compare(bitcast.15182.121, constant_1932_7), direction=LT, metadata={op_name="jit(while)/jit(main)/while/body/jit(update)/while/body/lt" source_file="/fs04/fc37/adam/projects/psilocybin-prl-analyses/src/prl_hgf/fitting/fit_vb_laplace_patrl.py" source_line=332}
  add.9458.41 = s64[] add(bitcast.15182.121, constant_1931_4), metadata={op_name="jit(while)/jit(main)/while/body/jit(update)/while/body/add" source_file="/fs04/fc37/adam/projects/psilocybin-prl-analyses/src/prl_hgf/fitting/fit_vb_laplace_patrl.py" source_line=332}
  select.8896.39 = s64[] select(compare.2630.41, add.9458.41, bitcast.15182.121), metadata={op_name="jit(while)/jit(main)/while/body/jit(update)/while/body/select_n" source_file="/fs04/fc37/adam/projects/psilocybin-prl-analyses/src/prl_hgf/fitting/fit_vb_laplace_patrl.py" source_line=332}
  dynamic-slice.5252.13 = f64[1]{0} dynamic-slice(param_10.115, select.8896.39), dynamic_slice_sizes={1}, metadata={op_name="jit(while)/jit(main)/while/body/jit(update)/while/body/dynamic_slice[slice_sizes=(1,)]" source_file="/fs04/fc37/adam/projects/psilocybin-prl-analyses/src/prl_hgf/fitting/fit_vb_laplace_patrl.py" source_line=332}
  bitcast.15196.15 = f64[] bitcast(dynamic-slice.5252.13)
  param_8.162 = f64[] parameter(8)
  param_9.130 = f64[] parameter(9)
  add.9459.15 = f64[] add(param_8.162, param_9.130), metadata={op_name="jit(while)/jit(main)/while/body/jit(update)/while/body/add" source_file="/fs04/fc37/adam/projects/psilocybin-prl-analyses/src/prl_hgf/fitting/fit_vb_laplace_patrl.py" source_line=332}
  param_7.193 = f64[] parameter(7)
  add.9460.15 = f64[] add(add.9459.15, param_7.193), metadata={op_name="jit(while)/jit(main)/while/body/jit(update)/while/body/add" source_file="/fs04/fc37/adam/projects/psilocybin-prl-analyses/src/prl_hgf/fitting/fit_vb_laplace_patrl.py" source_line=332}
  param_6.300 = f64[] parameter(6)
  add.9461.15 = f64[] add(add.9460.15, param_6.300), metadata={op_name="jit(while)/jit(main)/while/body/jit(update)/while/body/add" source_file="/fs04/fc37/adam/projects/psilocybin-prl-analyses/src/prl_hgf/fitting/fit_vb_laplace_patrl.py" source_line=332}
  param_5.197 = f64[] parameter(5)
  add.9462.15 = f64[] add(add.9461.15, param_5.197), metadata={op_name="jit(while)/jit(main)/while/body/jit(update)/while/body/add" source_file="/fs04/fc37/adam/projects/psilocybin-prl-analyses/src/prl_hgf/fitting/fit_vb_laplace_patrl.py" source_line=332}
  param_4.209 = f64[] parameter(4)
  add.9463.15 = f64[] add(add.9462.15, param_4.209), metadata={op_name="jit(while)/jit(main)/while/body/jit(update)/while/body/add" source_file="/fs04/fc37/adam/projects/psilocybin-prl-analyses/src/prl_hgf/fitting/fit_vb_laplace_patrl.py" source_line=332}
  multiply.11272.15 = f64[] multiply(bitcast.15196.15, add.9463.15), metadata={op_name="jit(while)/jit(main)/while/body/jit(update)/while/body/mul" source_file="/fs04/fc37/adam/projects/psilocybin-prl-analyses/src/prl_hgf/fitting/fit_vb_laplace_patrl.py" source_line=332}
  subtract.815.15 = f64[] subtract(bitcast.15173.15, multiply.11272.15), metadata={op_name="jit(while)/jit(main)/while/body/jit(update)/while/body/sub" source_file="/fs04/fc37/adam/projects/psilocybin-prl-analyses/src/prl_hgf/fitting/fit_vb_laplace_patrl.py" source_line=332}
  broadcast.4917.13 = f64[1,4]{1,0} broadcast(subtract.815.15), dimensions={}, metadata={op_name="jit(while)/jit(main)/while/body/jit(update)/while/body/mul" source_file="/fs04/fc37/adam/projects/psilocybin-prl-analyses/src/prl_hgf/fitting/fit_vb_laplace_patrl.py" source_line=332}
  param_1.236 = f64[10,4]{1,0} parameter(1)
  dynamic-slice.5264.1 = f64[1,4]{1,0} dynamic-slice(param_1.236, select.8896.39, constant_1932_7), dynamic_slice_sizes={1,4}, metadata={op_name="jit(while)/jit(main)/while/body/jit(update)/while/body/dynamic_slice[slice_sizes=(1, 4)]" source_file="/fs04/fc37/adam/projects/psilocybin-prl-analyses/src/prl_hgf/fitting/fit_vb_laplace_patrl.py" source_line=332}
  multiply.11278.1 = f64[1,4]{1,0} multiply(broadcast.4917.13, dynamic-slice.5264.1), metadata={op_name="jit(while)/jit(main)/while/body/jit(update)/while/body/mul" source_file="/fs04/fc37/adam/projects/psilocybin-prl-analyses/src/prl_hgf/fitting/fit_vb_laplace_patrl.py" source_line=332}
  bitcast.15384.1 = f64[4]{0} bitcast(multiply.11278.1)
  add.9469.1 = f64[4]{0} add(param_0.95, bitcast.15384.1), metadata={op_name="jit(while)/jit(main)/while/body/jit(update)/while/body/add" source_file="/fs04/fc37/adam/projects/psilocybin-prl-analyses/src/prl_hgf/fitting/fit_vb_laplace_patrl.py" source_line=332}
  param_12.987 = f64[4]{0} parameter(12)
  param_13.945 = f64[10,4]{1,0} parameter(13)
  dynamic-slice.5260.1.clone.1 = f64[1,4]{1,0} dynamic-slice(param_13.945, select.8896.39, constant_1932_7), dynamic_slice_sizes={1,4}, metadata={op_name="jit(while)/jit(main)/while/body/jit(update)/while/body/dynamic_slice[slice_sizes=(1, 4)]" source_file="/fs04/fc37/adam/projects/psilocybin-prl-analyses/src/prl_hgf/fitting/fit_vb_laplace_patrl.py" source_line=332}
  multiply.11274.1.clone.1 = f64[1,4]{1,0} multiply(broadcast.4917.13, dynamic-slice.5260.1.clone.1), metadata={op_name="jit(while)/jit(main)/while/body/jit(update)/while/body/mul" source_file="/fs04/fc37/adam/projects/psilocybin-prl-analyses/src/prl_hgf/fitting/fit_vb_laplace_patrl.py" source_line=332}
  bitcast.15324.1.clone.1 = f64[4]{0} bitcast(multiply.11274.1.clone.1)
  add.9465.1.clone.1 = f64[4]{0} add(param_12.987, bitcast.15324.1.clone.1), metadata={op_name="jit(while)/jit(main)/while/body/jit(update)/while/body/add" source_file="/fs04/fc37/adam/projects/psilocybin-prl-analyses/src/prl_hgf/fitting/fit_vb_laplace_patrl.py" source_line=332}
  param_14.845 = f64[4]{0} parameter(14)
  param_15.818 = f64[10,4]{1,0} parameter(15)
  dynamic-slice.5259.1.clone.1 = f64[1,4]{1,0} dynamic-slice(param_15.818, select.8896.39, constant_1932_7), dynamic_slice_sizes={1,4}, metadata={op_name="jit(while)/jit(main)/while/body/jit(update)/while/body/dynamic_slice[slice_sizes=(1, 4)]" source_file="/fs04/fc37/adam/projects/psilocybin-prl-analyses/src/prl_hgf/fitting/fit_vb_laplace_patrl.py" source_line=332}
  multiply.11273.1.clone.1 = f64[1,4]{1,0} multiply(broadcast.4917.13, dynamic-slice.5259.1.clone.1), metadata={op_name="jit(while)/jit(main)/while/body/jit(update)/while/body/mul" source_file="/fs04/fc37/adam/projects/psilocybin-prl-analyses/src/prl_hgf/fitting/fit_vb_laplace_patrl.py" source_line=332}
  bitcast.15309.1.clone.1 = f64[4]{0} bitcast(multiply.11273.1.clone.1)
  add.9464.1.clone.1 = f64[4]{0} add(param_14.845, bitcast.15309.1.clone.1), metadata={op_name="jit(while)/jit(main)/while/body/jit(update)/while/body/add" source_file="/fs04/fc37/adam/projects/psilocybin-prl-analyses/src/prl_hgf/fitting/fit_vb_laplace_patrl.py" source_line=332}
  param_16.739 = f64[4]{0} parameter(16)
  param_17.668 = f64[10,4]{1,0} parameter(17)
  dynamic-slice.5261.1.clone.1 = f64[1,4]{1,0} dynamic-slice(param_17.668, select.8896.39, constant_1932_7), dynamic_slice_sizes={1,4}, metadata={op_name="jit(while)/jit(main)/while/body/jit(update)/while/body/dynamic_slice[slice_sizes=(1, 4)]" source_file="/fs04/fc37/adam/projects/psilocybin-prl-analyses/src/prl_hgf/fitting/fit_vb_laplace_patrl.py" source_line=332}
  multiply.11275.1.clone.1 = f64[1,4]{1,0} multiply(broadcast.4917.13, dynamic-slice.5261.1.clone.1), metadata={op_name="jit(while)/jit(main)/while/body/jit(update)/while/body/mul" source_file="/fs04/fc37/adam/projects/psilocybin-prl-analyses/src/prl_hgf/fitting/fit_vb_laplace_patrl.py" source_line=332}
  bitcast.15339.1.clone.1 = f64[4]{0} bitcast(multiply.11275.1.clone.1)
  add.9466.1.clone.1 = f64[4]{0} add(param_16.739, bitcast.15339.1.clone.1), metadata={op_name="jit(while)/jit(main)/while/body/jit(update)/while/body/add" source_file="/fs04/fc37/adam/projects/psilocybin-prl-analyses/src/prl_hgf/fitting/fit_vb_laplace_patrl.py" source_line=332}
  param_18.587 = f64[4]{0} parameter(18)
  param_19.530 = f64[10,4]{1,0} parameter(19)
  dynamic-slice.5262.1.clone.1 = f64[1,4]{1,0} dynamic-slice(param_19.530, select.8896.39, constant_1932_7), dynamic_slice_sizes={1,4}, metadata={op_name="jit(while)/jit(main)/while/body/jit(update)/while/body/dynamic_slice[slice_sizes=(1, 4)]" source_file="/fs04/fc37/adam/projects/psilocybin-prl-analyses/src/prl_hgf/fitting/fit_vb_laplace_patrl.py" source_line=332}
  multiply.11276.1.clone.1 = f64[1,4]{1,0} multiply(broadcast.4917.13, dynamic-slice.5262.1.clone.1), metadata={op_name="jit(while)/jit(main)/while/body/jit(update)/while/body/mul" source_file="/fs04/fc37/adam/projects/psilocybin-prl-analyses/src/prl_hgf/fitting/fit_vb_laplace_patrl.py" source_line=332}
  bitcast.15354.1.clone.1 = f64[4]{0} bitcast(multiply.11276.1.clone.1)
  add.9467.1.clone.1 = f64[4]{0} add(param_18.587, bitcast.15354.1.clone.1), metadata={op_name="jit(while)/jit(main)/while/body/jit(update)/while/body/add" source_file="/fs04/fc37/adam/projects/psilocybin-prl-analyses/src/prl_hgf/fitting/fit_vb_laplace_patrl.py" source_line=332}
  param_20.509 = f64[4]{0} parameter(20)
  param_21.489 = f64[10,4]{1,0} parameter(21)
  dynamic-slice.5263.1.clone.1 = f64[1,4]{1,0} dynamic-slice(param_21.489, select.8896.39, constant_1932_7), dynamic_slice_sizes={1,4}, metadata={op_name="jit(while)/jit(main)/while/body/jit(update)/while/body/dynamic_slice[slice_sizes=(1, 4)]" source_file="/fs04/fc37/adam/projects/psilocybin-prl-analyses/src/prl_hgf/fitting/fit_vb_laplace_patrl.py" source_line=332}
  multiply.11277.1.clone.1 = f64[1,4]{1,0} multiply(broadcast.4917.13, dynamic-slice.5263.1.clone.1), metadata={op_name="jit(while)/jit(main)/while/body/jit(update)/while/body/mul" source_file="/fs04/fc37/adam/projects/psilocybin-prl-analyses/src/prl_hgf/fitting/fit_vb_laplace_patrl.py" source_line=332}
  bitcast.15369.1.clone.1 = f64[4]{0} bitcast(multiply.11277.1.clone.1)
  add.9468.1.clone.1 = f64[4]{0} add(param_20.509, bitcast.15369.1.clone.1), metadata={op_name="jit(while)/jit(main)/while/body/jit(update)/while/body/add" source_file="/fs04/fc37/adam/projects/psilocybin-prl-analyses/src/prl_hgf/fitting/fit_vb_laplace_patrl.py" source_line=332}
  ROOT tuple.2185 = (f64[4]{0}, f64[4]{0}, f64[4]{0}, f64[4]{0}, f64[4]{0}, /*index=5*/f64[4]{0}) tuple(add.9469.1, add.9465.1.clone.1, add.9464.1.clone.1, add.9466.1.clone.1, add.9467.1.clone.1, /*index=5*/add.9468.1.clone.1)
} // fused_add.2

fused_reduce.1 {
  param_1.238 = f64[10,4]{1,0} parameter(1)
  param_2.199 = s64[10]{0} parameter(2)
  param_3.211 = s64[] parameter(3)
  constant_1932_9 = s64[] constant(0)
  compare.2629.21 = pred[] compare(param_3.211, constant_1932_9), direction=LT, metadata={op_name="jit(while)/jit(main)/while/body/jit(update)/while/body/lt" source_file="/fs04/fc37/adam/projects/psilocybin-prl-analyses/src/prl_hgf/fitting/fit_vb_laplace_patrl.py" source_line=332}
  constant_1931_9 = s64[] constant(10)
  add.9457.21 = s64[] add(param_3.211, constant_1931_9), metadata={op_name="jit(while)/jit(main)/while/body/jit(update)/while/body/add" source_file="/fs04/fc37/adam/projects/psilocybin-prl-analyses/src/prl_hgf/fitting/fit_vb_laplace_patrl.py" source_line=332}
  select.8895.21 = s64[] select(compare.2629.21, add.9457.21, param_3.211), metadata={op_name="jit(while)/jit(main)/while/body/jit(update)/while/body/select_n" source_file="/fs04/fc37/adam/projects/psilocybin-prl-analyses/src/prl_hgf/fitting/fit_vb_laplace_patrl.py" source_line=332}
  dynamic-slice.5251.17 = s64[1]{0} dynamic-slice(param_2.199, select.8895.21), dynamic_slice_sizes={1}, metadata={op_name="jit(while)/jit(main)/while/body/jit(update)/while/body/dynamic_slice[slice_sizes=(1,)]" source_file="/fs04/fc37/adam/projects/psilocybin-prl-analyses/src/prl_hgf/fitting/fit_vb_laplace_patrl.py" source_line=332}
  bitcast.15182.55 = s64[] bitcast(dynamic-slice.5251.17)
  compare.2630.19 = pred[] compare(bitcast.15182.55, constant_1932_9), direction=LT, metadata={op_name="jit(while)/jit(main)/while/body/jit(update)/while/body/lt" source_file="/fs04/fc37/adam/projects/psilocybin-prl-analyses/src/prl_hgf/fitting/fit_vb_laplace_patrl.py" source_line=332}
  add.9458.19 = s64[] add(bitcast.15182.55, constant_1931_9), metadata={op_name="jit(while)/jit(main)/while/body/jit(update)/while/body/add" source_file="/fs04/fc37/adam/projects/psilocybin-prl-analyses/src/prl_hgf/fitting/fit_vb_laplace_patrl.py" source_line=332}
  select.8896.17 = s64[] select(compare.2630.19, add.9458.19, bitcast.15182.55), metadata={op_name="jit(while)/jit(main)/while/body/jit(update)/while/body/select_n" source_file="/fs04/fc37/adam/projects/psilocybin-prl-analyses/src/prl_hgf/fitting/fit_vb_laplace_patrl.py" source_line=332}
  dynamic-slice.5257.1 = f64[1,4]{1,0} dynamic-slice(param_1.238, select.8896.17, constant_1932_9), dynamic_slice_sizes={1,4}, metadata={op_name="jit(while)/jit(main)/while/body/jit(update)/while/body/dynamic_slice[slice_sizes=(1, 4)]" source_file="/fs04/fc37/adam/projects/psilocybin-prl-analyses/src/prl_hgf/fitting/fit_vb_laplace_patrl.py" source_line=332}
  bitcast.15271.3 = f64[4]{0} bitcast(dynamic-slice.5257.1)
  param_0.178 = f64[4]{0} parameter(0)
  multiply.11270.3 = f64[4]{0} multiply(bitcast.15271.3, param_0.178)
  constant_1935_1 = f64[] constant(0)
  reduce.175.1 = f64[] reduce(multiply.11270.3, constant_1935_1), dimensions={0}, to_apply=scalar_add_computation, metadata={op_name="jit(while)/jit(main)/while/body/jit(update)/while/body/dot_general[dimension_numbers=(((0,), (0,)), ((), ())) precision=(Precision.HIGHEST, Precision.HIGHEST) preferred_element_type=float64]" source_file="/fs04/fc37/adam/projects/psilocybin-prl-analyses/src/prl_hgf/fitting/fit_vb_laplace_patrl.py" source_line=332}
  param_5.3814 = f64[10,4]{1,0} parameter(5)
  dynamic-slice.5256.1.clone.1 = f64[1,4]{1,0} dynamic-slice(param_5.3814, select.8896.17, constant_1932_9), dynamic_slice_sizes={1,4}, metadata={op_name="jit(while)/jit(main)/while/body/jit(update)/while/body/dynamic_slice[slice_sizes=(1, 4)]" source_file="/fs04/fc37/adam/projects/psilocybin-prl-analyses/src/prl_hgf/fitting/fit_vb_laplace_patrl.py" source_line=332}
  bitcast.15254.3.clone.1 = f64[4]{0} bitcast(dynamic-slice.5256.1.clone.1)
  param_4.4761 = f64[4]{0} parameter(4)
  multiply.11269.3.clone.1 = f64[4]{0} multiply(bitcast.15254.3.clone.1, param_4.4761)
  reduce.174.1.clone.1 = f64[] reduce(multiply.11269.3.clone.1, constant_1935_1), dimensions={0}, to_apply=scalar_add_computation, metadata={op_name="jit(while)/jit(main)/while/body/jit(update)/while/body/dot_general[dimension_numbers=(((0,), (0,)), ((), ())) precision=(Precision.HIGHEST, Precision.HIGHEST) preferred_element_type=float64]" source_file="/fs04/fc37/adam/projects/psilocybin-prl-analyses/src/prl_hgf/fitting/fit_vb_laplace_patrl.py" source_line=332}
  param_7.2474 = f64[10,4]{1,0} parameter(7)
  dynamic-slice.5258.1.clone.1 = f64[1,4]{1,0} dynamic-slice(param_7.2474, select.8896.17, constant_1932_9), dynamic_slice_sizes={1,4}, metadata={op_name="jit(while)/jit(main)/while/body/jit(update)/while/body/dynamic_slice[slice_sizes=(1, 4)]" source_file="/fs04/fc37/adam/projects/psilocybin-prl-analyses/src/prl_hgf/fitting/fit_vb_laplace_patrl.py" source_line=332}
  bitcast.15288.3.clone.1 = f64[4]{0} bitcast(dynamic-slice.5258.1.clone.1)
  param_6.3166 = f64[4]{0} parameter(6)
  multiply.11271.3.clone.1 = f64[4]{0} multiply(bitcast.15288.3.clone.1, param_6.3166)
  reduce.176.1.clone.1 = f64[] reduce(multiply.11271.3.clone.1, constant_1935_1), dimensions={0}, to_apply=scalar_add_computation, metadata={op_name="jit(while)/jit(main)/while/body/jit(update)/while/body/dot_general[dimension_numbers=(((0,), (0,)), ((), ())) precision=(Precision.HIGHEST, Precision.HIGHEST) preferred_element_type=float64]" source_file="/fs04/fc37/adam/projects/psilocybin-prl-analyses/src/prl_hgf/fitting/fit_vb_laplace_patrl.py" source_line=332}
  param_9.1702 = f64[10,4]{1,0} parameter(9)
  dynamic-slice.5253.1.clone.1 = f64[1,4]{1,0} dynamic-slice(param_9.1702, select.8896.17, constant_1932_9), dynamic_slice_sizes={1,4}, metadata={op_name="jit(while)/jit(main)/while/body/jit(update)/while/body/dynamic_slice[slice_sizes=(1, 4)]" source_file="/fs04/fc37/adam/projects/psilocybin-prl-analyses/src/prl_hgf/fitting/fit_vb_laplace_patrl.py" source_line=332}
  bitcast.15205.3.clone.1 = f64[4]{0} bitcast(dynamic-slice.5253.1.clone.1)
  param_8.1984 = f64[4]{0} parameter(8)
  multiply.11266.3.clone.1 = f64[4]{0} multiply(bitcast.15205.3.clone.1, param_8.1984)
  reduce.171.1.clone.1 = f64[] reduce(multiply.11266.3.clone.1, constant_1935_1), dimensions={0}, to_apply=scalar_add_computation, metadata={op_name="jit(while)/jit(main)/while/body/jit(update)/while/body/dot_general[dimension_numbers=(((0,), (0,)), ((), ())) precision=(Precision.HIGHEST, Precision.HIGHEST) preferred_element_type=float64]" source_file="/fs04/fc37/adam/projects/psilocybin-prl-analyses/src/prl_hgf/fitting/fit_vb_laplace_patrl.py" source_line=332}
  param_11.1272 = f64[10,4]{1,0} parameter(11)
  dynamic-slice.5254.1.clone.1 = f64[1,4]{1,0} dynamic-slice(param_11.1272, select.8896.17, constant_1932_9), dynamic_slice_sizes={1,4}, metadata={op_name="jit(while)/jit(main)/while/body/jit(update)/while/body/dynamic_slice[slice_sizes=(1, 4)]" source_file="/fs04/fc37/adam/projects/psilocybin-prl-analyses/src/prl_hgf/fitting/fit_vb_laplace_patrl.py" source_line=332}
  bitcast.15220.3.clone.1 = f64[4]{0} bitcast(dynamic-slice.5254.1.clone.1)
  param_10.1481 = f64[4]{0} parameter(10)
  multiply.11267.3.clone.1 = f64[4]{0} multiply(bitcast.15220.3.clone.1, param_10.1481)
  reduce.172.1.clone.1 = f64[] reduce(multiply.11267.3.clone.1, constant_1935_1), dimensions={0}, to_apply=scalar_add_computation, metadata={op_name="jit(while)/jit(main)/while/body/jit(update)/while/body/dot_general[dimension_numbers=(((0,), (0,)), ((), ())) precision=(Precision.HIGHEST, Precision.HIGHEST) preferred_element_type=float64]" source_file="/fs04/fc37/adam/projects/psilocybin-prl-analyses/src/prl_hgf/fitting/fit_vb_laplace_patrl.py" source_line=332}
  param_13.957 = f64[10,4]{1,0} parameter(13)
  dynamic-slice.5255.1.clone.1 = f64[1,4]{1,0} dynamic-slice(param_13.957, select.8896.17, constant_1932_9), dynamic_slice_sizes={1,4}, metadata={op_name="jit(while)/jit(main)/while/body/jit(update)/while/body/dynamic_slice[slice_sizes=(1, 4)]" source_file="/fs04/fc37/adam/projects/psilocybin-prl-analyses/src/prl_hgf/fitting/fit_vb_laplace_patrl.py" source_line=332}
  bitcast.15237.3.clone.1 = f64[4]{0} bitcast(dynamic-slice.5255.1.clone.1)
  param_12.998 = f64[4]{0} parameter(12)
  multiply.11268.3.clone.1 = f64[4]{0} multiply(bitcast.15237.3.clone.1, param_12.998)
  reduce.173.1.clone.1 = f64[] reduce(multiply.11268.3.clone.1, constant_1935_1), dimensions={0}, to_apply=scalar_add_computation, metadata={op_name="jit(while)/jit(main)/while/body/jit(update)/while/body/dot_general[dimension_numbers=(((0,), (0,)), ((), ())) precision=(Precision.HIGHEST, Precision.HIGHEST) preferred_element_type=float64]" source_file="/fs04/fc37/adam/projects/psilocybin-prl-analyses/src/prl_hgf/fitting/fit_vb_laplace_patrl.py" source_line=332}
  ROOT tuple.2190 = (f64[], f64[], f64[], f64[], f64[], /*index=5*/f64[]) tuple(reduce.175.1, reduce.174.1.clone.1, reduce.176.1.clone.1, reduce.171.1.clone.1, reduce.172.1.clone.1, /*index=5*/reduce.173.1.clone.1)
} // fused_reduce.1

fused_add.3 {
  param_0.177 = s64[] parameter(0)
  constant_1930_1 = s64[] constant(1)
  ROOT add.9456.1 = s64[] add(param_0.177, constant_1930_1), metadata={op_name="jit(while)/jit(main)/while/body/jit(update)/while/body/add" source_file="/fs04/fc37/adam/projects/psilocybin-prl-analyses/src/prl_hgf/fitting/fit_vb_laplace_patrl.py" source_line=332}
}

region_3.398.clone {
  arg_tuple.13.0 = (s64[], f64[4]{0}, f64[4]{0}, f64[4]{0}, f64[4]{0}, /*index=5*/f64[4]{0}, f64[4]{0}, s64[10]{0}, f64[10]{0}, f64[10,4]{1,0}, /*index=10*/f64[10,4]{1,0}, f64[10,4]{1,0}, f64[10,4]{1,0}, f64[10,4]{1,0}, f64[10,4]{1,0}, /*index=15*/f64[10,4]{1,0}, f64[10,4]{1,0}, f64[10,4]{1,0}, f64[10,4]{1,0}, f64[10,4]{1,0}, /*index=20*/f64[10,4]{1,0}, f64[10]{0}) parameter(0)
  get-tuple-element.61031 = s64[] get-tuple-element(arg_tuple.13.0), index=0
  get-tuple-element.61060 = s64[10]{0} get-tuple-element(arg_tuple.13.0), index=7
  get-tuple-element.61032 = f64[4]{0} get-tuple-element(arg_tuple.13.0), index=1
  get-tuple-element.61033 = f64[4]{0} get-tuple-element(arg_tuple.13.0), index=2
  get-tuple-element.61034 = f64[4]{0} get-tuple-element(arg_tuple.13.0), index=3
  get-tuple-element.61035 = f64[4]{0} get-tuple-element(arg_tuple.13.0), index=4
  get-tuple-element.61036 = f64[4]{0} get-tuple-element(arg_tuple.13.0), index=5
  get-tuple-element.61037 = f64[4]{0} get-tuple-element(arg_tuple.13.0), index=6
  get-tuple-element.61061 = f64[10]{0} get-tuple-element(arg_tuple.13.0), index=8
  get-tuple-element.61062 = f64[10,4]{1,0} get-tuple-element(arg_tuple.13.0), index=9
  get-tuple-element.61063 = f64[10,4]{1,0} get-tuple-element(arg_tuple.13.0), index=10
  get-tuple-element.61064 = f64[10,4]{1,0} get-tuple-element(arg_tuple.13.0), index=11
  get-tuple-element.61065 = f64[10,4]{1,0} get-tuple-element(arg_tuple.13.0), index=12
  get-tuple-element.61066 = f64[10,4]{1,0} get-tuple-element(arg_tuple.13.0), index=13
  get-tuple-element.61067 = f64[10,4]{1,0} get-tuple-element(arg_tuple.13.0), index=14
  get-tuple-element.61068 = f64[10,4]{1,0} get-tuple-element(arg_tuple.13.0), index=15
  get-tuple-element.61069 = f64[10,4]{1,0} get-tuple-element(arg_tuple.13.0), index=16
  get-tuple-element.61070 = f64[10,4]{1,0} get-tuple-element(arg_tuple.13.0), index=17
  get-tuple-element.61071 = f64[10,4]{1,0} get-tuple-element(arg_tuple.13.0), index=18
  get-tuple-element.61072 = f64[10,4]{1,0} get-tuple-element(arg_tuple.13.0), index=19
  get-tuple-element.61073 = f64[10,4]{1,0} get-tuple-element(arg_tuple.13.0), index=20
  get-tuple-element.61074 = f64[10]{0} get-tuple-element(arg_tuple.13.0), index=21
  input_reduce_fusion.1 = (f64[], f64[], f64[], f64[], f64[], /*index=5*/f64[]) fusion(get-tuple-element.61036, get-tuple-element.61072, get-tuple-element.61060, get-tuple-element.61031, get-tuple-element.61035, /*index=5*/get-tuple-element.61071, get-tuple-element.61037, get-tuple-element.61073, get-tuple-element.61032, get-tuple-element.61068, /*index=10*/get-tuple-element.61033, get-tuple-element.61069, get-tuple-element.61034, get-tuple-element.61070), kind=kInput, calls=fused_reduce.1, metadata={op_name="jit(while)/jit(main)/while/body/jit(update)/while/body/dot_general[dimension_numbers=(((0,), (0,)), ((), ())) precision=(Precision.HIGHEST, Precision.HIGHEST) preferred_element_type=float64]" source_file="/fs04/fc37/adam/projects/psilocybin-prl-analyses/src/prl_hgf/fitting/fit_vb_laplace_patrl.py" source_line=332}
  get-tuple-element.59132 = f64[] get-tuple-element(input_reduce_fusion.1), index=5, metadata={op_name="jit(while)/jit(main)/while/body/jit(update)/while/body/dot_general[dimension_numbers=(((0,), (0,)), ((), ())) precision=(Precision.HIGHEST, Precision.HIGHEST) preferred_element_type=float64]" source_file="/fs04/fc37/adam/projects/psilocybin-prl-analyses/src/prl_hgf/fitting/fit_vb_laplace_patrl.py" source_line=332}
  get-tuple-element.59131 = f64[] get-tuple-element(input_reduce_fusion.1), index=4, metadata={op_name="jit(while)/jit(main)/while/body/jit(update)/while/body/dot_general[dimension_numbers=(((0,), (0,)), ((), ())) precision=(Precision.HIGHEST, Precision.HIGHEST) preferred_element_type=float64]" source_file="/fs04/fc37/adam/projects/psilocybin-prl-analyses/src/prl_hgf/fitting/fit_vb_laplace_patrl.py" source_line=332}
  get-tuple-element.59130 = f64[] get-tuple-element(input_reduce_fusion.1), index=3, metadata={op_name="jit(while)/jit(main)/while/body/jit(update)/while/body/dot_general[dimension_numbers=(((0,), (0,)), ((), ())) precision=(Precision.HIGHEST, Precision.HIGHEST) preferred_element_type=float64]" source_file="/fs04/fc37/adam/projects/psilocybin-prl-analyses/src/prl_hgf/fitting/fit_vb_laplace_patrl.py" source_line=332}
  get-tuple-element.59129 = f64[] get-tuple-element(input_reduce_fusion.1), index=2, metadata={op_name="jit(while)/jit(main)/while/body/jit(update)/while/body/dot_general[dimension_numbers=(((0,), (0,)), ((), ())) precision=(Precision.HIGHEST, Precision.HIGHEST) preferred_element_type=float64]" source_file="/fs04/fc37/adam/projects/psilocybin-prl-analyses/src/prl_hgf/fitting/fit_vb_laplace_patrl.py" source_line=332}
  get-tuple-element.59128 = f64[] get-tuple-element(input_reduce_fusion.1), index=1, metadata={op_name="jit(while)/jit(main)/while/body/jit(update)/while/body/dot_general[dimension_numbers=(((0,), (0,)), ((), ())) precision=(Precision.HIGHEST, Precision.HIGHEST) preferred_element_type=float64]" source_file="/fs04/fc37/adam/projects/psilocybin-prl-analyses/src/prl_hgf/fitting/fit_vb_laplace_patrl.py" source_line=332}
  get-tuple-element.59127 = f64[] get-tuple-element(input_reduce_fusion.1), index=0, metadata={op_name="jit(while)/jit(main)/while/body/jit(update)/while/body/dot_general[dimension_numbers=(((0,), (0,)), ((), ())) precision=(Precision.HIGHEST, Precision.HIGHEST) preferred_element_type=float64]" source_file="/fs04/fc37/adam/projects/psilocybin-prl-analyses/src/prl_hgf/fitting/fit_vb_laplace_patrl.py" source_line=332}
  loop_add_fusion.2 = (f64[4]{0}, f64[4]{0}, f64[4]{0}, f64[4]{0}, f64[4]{0}, /*index=5*/f64[4]{0}) fusion(get-tuple-element.61037, get-tuple-element.61067, get-tuple-element.61060, get-tuple-element.61031, get-tuple-element.59129, /*index=5*/get-tuple-element.59127, get-tuple-element.59128, get-tuple-element.59132, get-tuple-element.59130, get-tuple-element.59131, /*index=10*/get-tuple-element.61074, get-tuple-element.61061, get-tuple-element.61033, get-tuple-element.61063, get-tuple-element.61032, /*index=15*/get-tuple-element.61062, get-tuple-element.61034, get-tuple-element.61064, get-tuple-element.61035, get-tuple-element.61065, /*index=20*/get-tuple-element.61036, get-tuple-element.61066), kind=kLoop, calls=fused_add.2, control-predecessors={input_reduce_fusion.1}, metadata={op_name="jit(while)/jit(main)/while/body/jit(update)/while/body/add" source_file="/fs04/fc37/adam/projects/psilocybin-prl-analyses/src/prl_hgf/fitting/fit_vb_laplace_patrl.py" source_line=332}
  loop_add_fusion.3 = s64[] fusion(get-tuple-element.61031), kind=kLoop, calls=fused_add.3, control-predecessors={input_reduce_fusion.1, loop_add_fusion.2}, metadata={op_name="jit(while)/jit(main)/while/body/jit(update)/while/body/add" source_file="/fs04/fc37/adam/projects/psilocybin-prl-analyses/src/prl_hgf/fitting/fit_vb_laplace_patrl.py" source_line=332 deduplicated_name="loop_add_fusion.1"}
  get-tuple-element.61058 = f64[4]{0} get-tuple-element(loop_add_fusion.2), index=5, metadata={op_name="jit(while)/jit(main)/while/body/jit(update)/while/body/add" source_file="/fs04/fc37/adam/projects/psilocybin-prl-analyses/src/prl_hgf/fitting/fit_vb_laplace_patrl.py" source_line=332}
  get-tuple-element.61057 = f64[4]{0} get-tuple-element(loop_add_fusion.2), index=4, metadata={op_name="jit(while)/jit(main)/while/body/jit(update)/while/body/add" source_file="/fs04/fc37/adam/projects/psilocybin-prl-analyses/src/prl_hgf/fitting/fit_vb_laplace_patrl.py" source_line=332}
  get-tuple-element.61056 = f64[4]{0} get-tuple-element(loop_add_fusion.2), index=3, metadata={op_name="jit(while)/jit(main)/while/body/jit(update)/while/body/add" source_file="/fs04/fc37/adam/projects/psilocybin-prl-analyses/src/prl_hgf/fitting/fit_vb_laplace_patrl.py" source_line=332}
  get-tuple-element.61054 = f64[4]{0} get-tuple-element(loop_add_fusion.2), index=2, metadata={op_name="jit(while)/jit(main)/while/body/jit(update)/while/body/add" source_file="/fs04/fc37/adam/projects/psilocybin-prl-analyses/src/prl_hgf/fitting/fit_vb_laplace_patrl.py" source_line=332}
  get-tuple-element.61055 = f64[4]{0} get-tuple-element(loop_add_fusion.2), index=1, metadata={op_name="jit(while)/jit(main)/while/body/jit(update)/while/body/add" source_file="/fs04/fc37/adam/projects/psilocybin-prl-analyses/src/prl_hgf/fitting/fit_vb_laplace_patrl.py" source_line=332}
  get-tuple-element.61059 = f64[4]{0} get-tuple-element(loop_add_fusion.2), index=0, metadata={op_name="jit(while)/jit(main)/while/body/jit(update)/while/body/add" source_file="/fs04/fc37/adam/projects/psilocybin-prl-analyses/src/prl_hgf/fitting/fit_vb_laplace_patrl.py" source_line=332}
  ROOT tuple.2566 = (s64[], f64[4]{0}, f64[4]{0}, f64[4]{0}, f64[4]{0}, /*index=5*/f64[4]{0}, f64[4]{0}, s64[10]{0}, f64[10]{0}, f64[10,4]{1,0}, /*index=10*/f64[10,4]{1,0}, f64[10,4]{1,0}, f64[10,4]{1,0}, f64[10,4]{1,0}, f64[10,4]{1,0}, /*index=15*/f64[10,4]{1,0}, f64[10,4]{1,0}, f64[10,4]{1,0}, f64[10,4]{1,0}, f64[10,4]{1,0}, /*index=20*/f64[10,4]{1,0}, f64[10]{0}) tuple(loop_add_fusion.3, get-tuple-element.61054, get-tuple-element.61055, get-tuple-element.61056, get-tuple-element.61057, /*index=5*/get-tuple-element.61058, get-tuple-element.61059, get-tuple-element.61060, get-tuple-element.61061, get-tuple-element.61062, /*index=10*/get-tuple-element.61063, get-tuple-element.61064, get-tuple-element.61065, get-tuple-element.61066, get-tuple-element.61067, /*index=15*/get-tuple-element.61068, get-tuple-element.61069, get-tuple-element.61070, get-tuple-element.61071, get-tuple-element.61072, /*index=20*/get-tuple-element.61073, get-tuple-element.61074)
} // region_3.398.clone

fused_compare.1 {
  param_0.184 = s64[] parameter(0)
  constant_1929_1 = s64[] constant(10)
  ROOT compare.2631.1 = pred[] compare(param_0.184, constant_1929_1), direction=LT, metadata={op_name="jit(while)/jit(main)/while/body/jit(update)/while/cond/lt" source_file="/fs04/fc37/adam/projects/psilocybin-prl-analyses/src/prl_hgf/fitting/fit_vb_laplace_patrl.py" source_line=332}
}

region_4.451.clone {
  arg_tuple.12.0 = (s64[], f64[4]{0}, f64[4]{0}, f64[4]{0}, f64[4]{0}, /*index=5*/f64[4]{0}, f64[4]{0}, s64[10]{0}, f64[10]{0}, f64[10,4]{1,0}, /*index=10*/f64[10,4]{1,0}, f64[10,4]{1,0}, f64[10,4]{1,0}, f64[10,4]{1,0}, f64[10,4]{1,0}, /*index=15*/f64[10,4]{1,0}, f64[10,4]{1,0}, f64[10,4]{1,0}, f64[10,4]{1,0}, f64[10,4]{1,0}, /*index=20*/f64[10,4]{1,0}, f64[10]{0}) parameter(0)
  get-tuple-element.9103.0 = s64[] get-tuple-element(arg_tuple.12.0), index=0
  ROOT loop_compare_fusion.1 = pred[] fusion(get-tuple-element.9103.0), kind=kLoop, calls=fused_compare.1, metadata={op_name="jit(while)/jit(main)/while/body/jit(update)/while/cond/lt" source_file="/fs04/fc37/adam/projects/psilocybin-prl-analyses/src/prl_hgf/fitting/fit_vb_laplace_patrl.py" source_line=332 deduplicated_name="loop_compare_fusion"}
}

fused_broadcast.1 {
  constant_5188_2 = f64[] constant(0)
  ROOT broadcast.4918.1 = f64[4]{0} broadcast(constant_5188_2), dimensions={}
}

wrapped_copy_computation.188 {
  param_0.6105 = f64[4]{0} parameter(0)
  ROOT copy.1889 = f64[4]{0} copy(param_0.6105)
}

wrapped_copy_computation.189 {
  param_0.6106 = f64[4]{0} parameter(0)
  ROOT copy.1890 = f64[4]{0} copy(param_0.6106)
}

fused_broadcast {
  constant_5188_1 = f64[] constant(0)
  ROOT broadcast.4920.1 = f64[4,1]{1,0} broadcast(constant_5188_1), dimensions={}
}

fused_multiply_negate {
  param_0.5871 = f64[4]{0} parameter(0)
  param_4.4763 = f64[] parameter(4)
  broadcast.4919.1.clone.1 = f64[4]{0} broadcast(param_4.4763), dimensions={}, metadata={op_name="jit(while)/jit(main)/while/body/jit(update)/cond/branch_0_fun/transpose(jvp(vmap(while)))/body/jit(beliefs_propagation)/jit(continuous_node_posterior_update)/jit(posterior_update_precision_continuous_node)/cond/branch_0_fun/jit(precision_update_missing_values)/mul" source_file="/fs04/fc37/adam/projects/psilocybin-prl-analyses/src/prl_hgf/fitting/hierarchical_patrl.py" source_line=362}
  param_2.6826 = f64[4]{0} parameter(2)
  param_3.5574 = f64[4]{0} parameter(3)
  multiply.11279.3.clone.1 = f64[4]{0} multiply(param_2.6826, param_3.5574), metadata={op_name="jit(while)/jit(main)/while/body/jit(update)/cond/branch_0_fun/transpose(jvp(vmap(while)))/body/jit(beliefs_propagation)/jit(continuous_node_posterior_update)/jit(posterior_update_precision_continuous_node)/cond/branch_0_fun/jit(precision_update_missing_values)/mul" source_file="/fs04/fc37/adam/projects/psilocybin-prl-analyses/src/prl_hgf/fitting/hierarchical_patrl.py" source_line=362}
  negate.1712.3.clone.1 = f64[4]{0} negate(multiply.11279.3.clone.1), metadata={op_name="jit(while)/jit(main)/while/body/jit(update)/cond/branch_0_fun/transpose(jvp(vmap(while)))/body/jit(beliefs_propagation)/jit(continuous_node_posterior_update)/jit(posterior_update_precision_continuous_node)/cond/branch_0_fun/jit(precision_update_missing_values)/neg" source_file="/fs04/fc37/adam/projects/psilocybin-prl-analyses/src/prl_hgf/fitting/hierarchical_patrl.py" source_line=362}
  multiply.11281.1.clone.1 = f64[4]{0} multiply(broadcast.4919.1.clone.1, negate.1712.3.clone.1), metadata={op_name="jit(while)/jit(main)/while/body/jit(update)/cond/branch_0_fun/transpose(jvp(vmap(while)))/body/jit(beliefs_propagation)/jit(continuous_node_posterior_update)/jit(posterior_update_precision_continuous_node)/cond/branch_0_fun/jit(precision_update_missing_values)/mul" source_file="/fs04/fc37/adam/projects/psilocybin-prl-analyses/src/prl_hgf/fitting/hierarchical_patrl.py" source_line=362}
  param_1.8194 = f64[4]{0} parameter(1)
  multiply.11282.1.clone.1 = f64[4]{0} multiply(multiply.11281.1.clone.1, param_1.8194), metadata={op_name="jit(while)/jit(main)/while/body/jit(update)/cond/branch_0_fun/transpose(jvp(vmap(while)))/body/jit(beliefs_propagation)/jit(continuous_node_posterior_update)/jit(posterior_update_precision_continuous_node)/cond/branch_0_fun/jit(precision_update_missing_values)/mul" source_file="/fs04/fc37/adam/projects/psilocybin-prl-analyses/src/prl_hgf/fitting/hierarchical_patrl.py" source_line=362}
  multiply.11283.1 = f64[4]{0} multiply(param_0.5871, multiply.11282.1.clone.1), metadata={op_name="jit(while)/jit(main)/while/body/jit(update)/cond/branch_0_fun/transpose(jvp(vmap(while)))/body/jit(beliefs_propagation)/jit(continuous_node_posterior_update)/jit(posterior_update_precision_continuous_node)/cond/branch_0_fun/jit(precision_update_missing_values)/mul" source_file="/fs04/fc37/adam/projects/psilocybin-prl-analyses/src/prl_hgf/fitting/hierarchical_patrl.py" source_line=362}
  param_5.3817 = f64[4]{0} parameter(5)
  multiply.11280.1.clone.1 = f64[4]{0} multiply(negate.1712.3.clone.1, param_5.3817), metadata={op_name="jit(while)/jit(main)/while/body/jit(update)/cond/branch_0_fun/transpose(jvp(vmap(while)))/body/jit(beliefs_propagation)/jit(continuous_node_posterior_update)/jit(posterior_update_precision_continuous_node)/cond/branch_0_fun/jit(precision_update_missing_values)/mul" source_file="/fs04/fc37/adam/projects/psilocybin-prl-analyses/src/prl_hgf/fitting/hierarchical_patrl.py" source_line=362}
  negate.1713.1.clone.1 = f64[4]{0} negate(multiply.11280.1.clone.1), metadata={op_name="jit(while)/jit(main)/while/body/jit(update)/cond/branch_0_fun/transpose(jvp(vmap(while)))/body/jit(beliefs_propagation)/jit(continuous_node_posterior_update)/jit(posterior_update_precision_continuous_node)/cond/branch_0_fun/jit(precision_update_missing_values)/neg" source_file="/fs04/fc37/adam/projects/psilocybin-prl-analyses/src/prl_hgf/fitting/hierarchical_patrl.py" source_line=362}
  ROOT tuple.2192 = (f64[4]{0}, f64[4]{0}, f64[4]{0}) tuple(multiply.11283.1, multiply.11282.1.clone.1, negate.1713.1.clone.1)
} // fused_multiply_negate

command_buffer.62 {
  p.1118 = f64[4]{0} parameter(0)
  p.1119 = f64[4]{0} parameter(1)
  p.1120 = f64[4]{0} parameter(2)
  p.1121 = f64[4]{0} parameter(3)
  p.1122 = f64[] parameter(4)
  p.1123 = f64[4]{0} parameter(5)
  loop_broadcast_fusion.1 = f64[4]{0} fusion(), kind=kLoop, calls=fused_broadcast.1
  wrapped_copy.188 = f64[4]{0} fusion(loop_broadcast_fusion.1), kind=kLoop, calls=wrapped_copy_computation.188
  wrapped_copy.189 = f64[4]{0} fusion(loop_broadcast_fusion.1), kind=kLoop, calls=wrapped_copy_computation.189
  loop_broadcast_fusion = f64[4,1]{1,0} fusion(), kind=kLoop, calls=fused_broadcast
  loop_multiply_negate_fusion = (f64[4]{0}, f64[4]{0}, f64[4]{0}) fusion(p.1118, p.1119, p.1120, p.1121, p.1122, /*index=5*/p.1123), kind=kLoop, calls=fused_multiply_negate, metadata={op_name="jit(while)/jit(main)/while/body/jit(update)/cond/branch_0_fun/transpose(jvp(vmap(while)))/body/jit(beliefs_propagation)/jit(continuous_node_posterior_update)/jit(posterior_update_precision_continuous_node)/cond/branch_0_fun/jit(precision_update_missing_values)/mul" source_file="/fs04/fc37/adam/projects/psilocybin-prl-analyses/src/prl_hgf/fitting/hierarchical_patrl.py" source_line=362 deduplicated_name="loop_multiply_negate_fusion"}
  ROOT tuple.2646 = (f64[4]{0}, f64[4]{0}, f64[4]{0}, f64[4,1]{1,0}, (f64[4]{0}, f64[4]{0}, f64[4]{0})) tuple(loop_broadcast_fusion.1, wrapped_copy.188, wrapped_copy.189, loop_broadcast_fusion, loop_multiply_negate_fusion)
} // command_buffer.62

region_40.10763.clone.clone.1 {
  arg_tuple.328.0 = (f64[4]{0}, f64[], f64[4]{0}, f64[4]{0}, f64[4]{0}, /*index=5*/f64[4]{0}) parameter(0)
  get-tuple-element.59080.0 = f64[] get-tuple-element(arg_tuple.328.0), index=1
  get-tuple-element.59084.0 = f64[4]{0} get-tuple-element(arg_tuple.328.0), index=5
  get-tuple-element.59083.0 = f64[4]{0} get-tuple-element(arg_tuple.328.0), index=4
  get-tuple-element.59082.0 = f64[4]{0} get-tuple-element(arg_tuple.328.0), index=3
  get-tuple-element.59081.0 = f64[4]{0} get-tuple-element(arg_tuple.328.0), index=2
  get-tuple-element.59079.0 = f64[4]{0} get-tuple-element(arg_tuple.328.0), index=0
  call.49 = (f64[4]{0}, f64[4]{0}, f64[4]{0}, f64[4,1]{1,0}, (f64[4]{0}, f64[4]{0}, f64[4]{0})) call(get-tuple-element.59081.0, get-tuple-element.59082.0, get-tuple-element.59084.0, get-tuple-element.59083.0, get-tuple-element.59080.0, /*index=5*/get-tuple-element.59079.0), to_apply=command_buffer.62
  get-tuple-element.63974 = f64[4]{0} get-tuple-element(call.49), index=0
  get-tuple-element.63975 = f64[4]{0} get-tuple-element(call.49), index=1
  get-tuple-element.63976 = f64[4]{0} get-tuple-element(call.49), index=2
  get-tuple-element.63977 = f64[4,1]{1,0} get-tuple-element(call.49), index=3
  get-tuple-element.63978 = (f64[4]{0}, f64[4]{0}, f64[4]{0}) get-tuple-element(call.49), index=4
  get-tuple-element.59513 = f64[4]{0} get-tuple-element(get-tuple-element.63978), index=2, metadata={op_name="jit(while)/jit(main)/while/body/jit(update)/cond/branch_0_fun/transpose(jvp(vmap(while)))/body/jit(beliefs_propagation)/jit(continuous_node_posterior_update)/jit(posterior_update_precision_continuous_node)/cond/branch_0_fun/jit(precision_update_missing_values)/mul" source_file="/fs04/fc37/adam/projects/psilocybin-prl-analyses/src/prl_hgf/fitting/hierarchical_patrl.py" source_line=362}
  get-tuple-element.59514 = f64[4]{0} get-tuple-element(get-tuple-element.63978), index=1, metadata={op_name="jit(while)/jit(main)/while/body/jit(update)/cond/branch_0_fun/transpose(jvp(vmap(while)))/body/jit(beliefs_propagation)/jit(continuous_node_posterior_update)/jit(posterior_update_precision_continuous_node)/cond/branch_0_fun/jit(precision_update_missing_values)/mul" source_file="/fs04/fc37/adam/projects/psilocybin-prl-analyses/src/prl_hgf/fitting/hierarchical_patrl.py" source_line=362}
  get-tuple-element.59515 = f64[4]{0} get-tuple-element(get-tuple-element.63978), index=0, metadata={op_name="jit(while)/jit(main)/while/body/jit(update)/cond/branch_0_fun/transpose(jvp(vmap(while)))/body/jit(beliefs_propagation)/jit(continuous_node_posterior_update)/jit(posterior_update_precision_continuous_node)/cond/branch_0_fun/jit(precision_update_missing_values)/mul" source_file="/fs04/fc37/adam/projects/psilocybin-prl-analyses/src/prl_hgf/fitting/hierarchical_patrl.py" source_line=362}
  ROOT tuple.2530 = (f64[4]{0}, f64[4]{0}, f64[4]{0}, f64[4]{0}, f64[4]{0}, /*index=5*/f64[4]{0}, f64[4,1]{1,0}) tuple(get-tuple-element.63974, get-tuple-element.63975, get-tuple-element.63976, get-tuple-element.59513, get-tuple-element.59514, /*index=5*/get-tuple-element.59515, get-tuple-element.63977)
} // region_40.10763.clone.clone.1

fused_broadcast.2 {
  constant_5191_1 = f64[] constant(0)
  ROOT broadcast.4923.1 = f64[4,1]{1,0} broadcast(constant_5191_1), dimensions={}
}

fused_broadcast_multiply_select {
  param_0.196 = f64[4]{0} parameter(0)
  param_2.6827 = pred[4]{0} parameter(2)
  param_3.5575 = f64[4]{0} parameter(3)
  constant_5191_2_clone_1 = f64[] constant(0)
  broadcast.4921.clone.5.clone.1 = f64[4]{0} broadcast(constant_5191_2_clone_1), dimensions={}
  select.8897.1 = f64[4]{0} select(param_2.6827, param_3.5575, broadcast.4921.clone.5.clone.1), metadata={op_name="jit(while)/jit(main)/while/body/jit(update)/cond/branch_0_fun/transpose(jvp(vmap(while)))/body/jit(beliefs_propagation)/jit(continuous_node_posterior_update_ehgf)/jit(posterior_update_precision_continuous_node)/jit(precision_update)/jit(_where)/select_n" source_file="/fs04/fc37/adam/projects/psilocybin-prl-analyses/src/prl_hgf/env/pat_rl_simulator.py" source_line=92}
  param_1.8195 = f64[] parameter(1)
  broadcast.4922.1 = f64[4]{0} broadcast(param_1.8195), dimensions={}, metadata={op_name="jit(while)/jit(main)/while/body/jit(update)/cond/branch_0_fun/transpose(jvp(vmap(while)))/body/jit(beliefs_propagation)/jit(continuous_node_posterior_update)/jit(posterior_update_precision_continuous_node)/cond/branch_1_fun/jit(precision_update)/mul" source_file="/fs04/fc37/adam/projects/psilocybin-prl-analyses/src/prl_hgf/fitting/hierarchical_patrl.py" source_line=362}
  multiply.11284.1 = f64[4]{0} multiply(select.8897.1, broadcast.4922.1), metadata={op_name="jit(while)/jit(main)/while/body/jit(update)/cond/branch_0_fun/transpose(jvp(vmap(while)))/body/jit(beliefs_propagation)/jit(continuous_node_posterior_update)/jit(posterior_update_precision_continuous_node)/cond/branch_1_fun/jit(precision_update)/mul" source_file="/fs04/fc37/adam/projects/psilocybin-prl-analyses/src/prl_hgf/fitting/hierarchical_patrl.py" source_line=362}
  multiply.11285.1 = f64[4]{0} multiply(param_0.196, multiply.11284.1), metadata={op_name="jit(while)/jit(main)/while/body/jit(update)/cond/branch_0_fun/transpose(jvp(vmap(while)))/body/jit(beliefs_propagation)/jit(continuous_node_posterior_update)/jit(posterior_update_precision_continuous_node)/cond/branch_1_fun/jit(precision_update)/mul" source_file="/fs04/fc37/adam/projects/psilocybin-prl-analyses/src/prl_hgf/fitting/hierarchical_patrl.py" source_line=362}
  ROOT tuple.2194 = (f64[4]{0}, f64[4]{0}, f64[4]{0}) tuple(multiply.11285.1, select.8897.1, broadcast.4921.clone.5.clone.1)
} // fused_broadcast_multiply_select

wrapped_copy_computation.191 {
  param_0.6108 = f64[4]{0} parameter(0)
  ROOT copy.1892 = f64[4]{0} copy(param_0.6108)
}

wrapped_copy_computation.190 {
  param_0.6107 = f64[4]{0} parameter(0)
  ROOT copy.1891 = f64[4]{0} copy(param_0.6107)
}

wrapped_copy_computation.192 {
  param_0.6109 = f64[4]{0} parameter(0)
  ROOT copy.1893 = f64[4]{0} copy(param_0.6109)
}

command_buffer.60 {
  p.1110 = f64[4]{0} parameter(0)
  p.1111 = f64[] parameter(1)
  p.1112 = pred[4]{0} parameter(2)
  p.1113 = f64[4]{0} parameter(3)
  loop_broadcast_fusion.2 = f64[4,1]{1,0} fusion(), kind=kLoop, calls=fused_broadcast.2
  loop_broadcast_multiply_select_fusion = (f64[4]{0}, f64[4]{0}, f64[4]{0}) fusion(p.1110, p.1111, p.1112, p.1113), kind=kLoop, calls=fused_broadcast_multiply_select, metadata={op_name="jit(while)/jit(main)/while/body/jit(update)/cond/branch_0_fun/transpose(jvp(vmap(while)))/body/jit(beliefs_propagation)/jit(continuous_node_posterior_update)/jit(posterior_update_precision_continuous_node)/cond/branch_1_fun/jit(precision_update)/mul" source_file="/fs04/fc37/adam/projects/psilocybin-prl-analyses/src/prl_hgf/fitting/hierarchical_patrl.py" source_line=362 deduplicated_name="loop_broadcast_multiply_select_fusion"}
  get-tuple-element.59522 = f64[4]{0} get-tuple-element(loop_broadcast_multiply_select_fusion), index=2, metadata={op_name="jit(while)/jit(main)/while/body/jit(update)/cond/branch_0_fun/transpose(jvp(vmap(while)))/body/jit(beliefs_propagation)/jit(continuous_node_posterior_update)/jit(posterior_update_precision_continuous_node)/cond/branch_1_fun/jit(precision_update)/mul" source_file="/fs04/fc37/adam/projects/psilocybin-prl-analyses/src/prl_hgf/fitting/hierarchical_patrl.py" source_line=362}
  get-tuple-element.59519 = f64[4]{0} get-tuple-element(loop_broadcast_multiply_select_fusion), index=1, metadata={op_name="jit(while)/jit(main)/while/body/jit(update)/cond/branch_0_fun/transpose(jvp(vmap(while)))/body/jit(beliefs_propagation)/jit(continuous_node_posterior_update)/jit(posterior_update_precision_continuous_node)/cond/branch_1_fun/jit(precision_update)/mul" source_file="/fs04/fc37/adam/projects/psilocybin-prl-analyses/src/prl_hgf/fitting/hierarchical_patrl.py" source_line=362}
  get-tuple-element.59518 = f64[4]{0} get-tuple-element(loop_broadcast_multiply_select_fusion), index=0, metadata={op_name="jit(while)/jit(main)/while/body/jit(update)/cond/branch_0_fun/transpose(jvp(vmap(while)))/body/jit(beliefs_propagation)/jit(continuous_node_posterior_update)/jit(posterior_update_precision_continuous_node)/cond/branch_1_fun/jit(precision_update)/mul" source_file="/fs04/fc37/adam/projects/psilocybin-prl-analyses/src/prl_hgf/fitting/hierarchical_patrl.py" source_line=362}
  wrapped_copy.191 = f64[4]{0} fusion(get-tuple-element.59522), kind=kLoop, calls=wrapped_copy_computation.191
  wrapped_copy.190 = f64[4]{0} fusion(get-tuple-element.59522), kind=kLoop, calls=wrapped_copy_computation.190
  wrapped_copy.192 = f64[4]{0} fusion(get-tuple-element.59522), kind=kLoop, calls=wrapped_copy_computation.192
  ROOT tuple.2644 = (f64[4,1]{1,0}, f64[4]{0}, f64[4]{0}, f64[4]{0}, f64[4]{0}, /*index=5*/f64[4]{0}, f64[4]{0}) tuple(loop_broadcast_fusion.2, get-tuple-element.59522, get-tuple-element.59519, get-tuple-element.59518, wrapped_copy.191, /*index=5*/wrapped_copy.190, wrapped_copy.192)
} // command_buffer.60

region_41.10798.clone.clone.clone.1 {
  arg_tuple.331.0 = (f64[4]{0}, f64[], pred[4]{0}, f64[4]{0}) parameter(0)
  get-tuple-element.59096.0 = f64[] get-tuple-element(arg_tuple.331.0), index=1
  get-tuple-element.59098.0 = f64[4]{0} get-tuple-element(arg_tuple.331.0), index=3
  get-tuple-element.59097.0 = pred[4]{0} get-tuple-element(arg_tuple.331.0), index=2
  get-tuple-element.59095.0 = f64[4]{0} get-tuple-element(arg_tuple.331.0), index=0
  call.47 = (f64[4,1]{1,0}, f64[4]{0}, f64[4]{0}, f64[4]{0}, f64[4]{0}, /*index=5*/f64[4]{0}, f64[4]{0}) call(get-tuple-element.59095.0, get-tuple-element.59096.0, get-tuple-element.59097.0, get-tuple-element.59098.0), to_apply=command_buffer.60
  get-tuple-element.63967 = f64[4,1]{1,0} get-tuple-element(call.47), index=0
  get-tuple-element.63968 = f64[4]{0} get-tuple-element(call.47), index=1
  get-tuple-element.63969 = f64[4]{0} get-tuple-element(call.47), index=2
  get-tuple-element.63970 = f64[4]{0} get-tuple-element(call.47), index=3
  get-tuple-element.63971 = f64[4]{0} get-tuple-element(call.47), index=4
  get-tuple-element.63972 = f64[4]{0} get-tuple-element(call.47), index=5
  get-tuple-element.63973 = f64[4]{0} get-tuple-element(call.47), index=6
  ROOT tuple.2531 = (f64[4]{0}, f64[4]{0}, f64[4]{0}, f64[4]{0}, f64[4]{0}, /*index=5*/f64[4]{0}, f64[4,1]{1,0}) tuple(get-tuple-element.63968, get-tuple-element.63970, get-tuple-element.63969, get-tuple-element.63972, get-tuple-element.63971, /*index=5*/get-tuple-element.63973, get-tuple-element.63967)
} // region_41.10798.clone.clone.clone.1

fused_add_select {
  param_1.1140 = pred[192,4]{1,0} parameter(1)
  constant_5067_1 = s64[] constant(191)
  param_2.930 = s64[] parameter(2)
  subtract.816.57 = s64[] subtract(constant_5067_1, param_2.930), metadata={op_name="jit(while)/jit(main)/while/body/jit(update)/while/body/cond/branch_0_fun/transpose(jvp(vmap(while)))/body/sub" source_file="/fs04/fc37/adam/projects/psilocybin-prl-analyses/src/prl_hgf/fitting/hierarchical_patrl.py" source_line=378}
  constant_5060_27 = s64[] constant(0)
  compare.2632.57 = pred[] compare(subtract.816.57, constant_5060_27), direction=LT, metadata={op_name="jit(while)/jit(main)/while/body/jit(update)/while/body/cond/branch_0_fun/transpose(jvp(vmap(while)))/body/lt" source_file="/fs04/fc37/adam/projects/psilocybin-prl-analyses/src/prl_hgf/fitting/hierarchical_patrl.py" source_line=378}
  constant_5068_1 = s64[] constant(383)
  subtract.817.57 = s64[] subtract(constant_5068_1, param_2.930), metadata={op_name="jit(while)/jit(main)/while/body/jit(update)/while/body/cond/branch_0_fun/transpose(jvp(vmap(while)))/body/add" source_file="/fs04/fc37/adam/projects/psilocybin-prl-analyses/src/prl_hgf/fitting/hierarchical_patrl.py" source_line=378}
  select.8898.57 = s64[] select(compare.2632.57, subtract.817.57, subtract.816.57), metadata={op_name="jit(while)/jit(main)/while/body/jit(update)/while/body/cond/branch_0_fun/transpose(jvp(vmap(while)))/body/select_n" source_file="/fs04/fc37/adam/projects/psilocybin-prl-analyses/src/prl_hgf/fitting/hierarchical_patrl.py" source_line=378}
  dynamic-slice.5265.13 = pred[1,4]{1,0} dynamic-slice(param_1.1140, select.8898.57, constant_5060_27), dynamic_slice_sizes={1,4}, metadata={op_name="jit(while)/jit(main)/while/body/jit(update)/while/body/cond/branch_0_fun/transpose(jvp(vmap(while)))/body/dynamic_slice[slice_sizes=(1, 4)]" source_file="/fs04/fc37/adam/projects/psilocybin-prl-analyses/src/prl_hgf/fitting/hierarchical_patrl.py" source_line=378}
  bitcast.15457.29 = pred[4]{0} bitcast(dynamic-slice.5265.13)
  constant_5062_21 = f64[] constant(0)
  broadcast.4924.clone.83 = f64[4]{0} broadcast(constant_5062_21), dimensions={}
  param_0.726 = f64[4]{0} parameter(0)
  select.8932.1 = f64[4]{0} select(bitcast.15457.29, broadcast.4924.clone.83, param_0.726), metadata={op_name="jit(while)/jit(main)/while/body/jit(update)/cond/branch_0_fun/transpose(jvp(vmap(while)))/body/jit(_where)/select_n" source_file="/fs04/fc37/adam/projects/psilocybin-prl-analyses/src/prl_hgf/env/pat_rl_simulator.py" source_line=92}
  param_9.1718 = f64[4]{0} parameter(9)
  select.8934.3.clone.1 = f64[4]{0} select(bitcast.15457.29, broadcast.4924.clone.83, param_9.1718), metadata={op_name="jit(while)/jit(main)/while/body/jit(update)/cond/branch_0_fun/transpose(jvp(vmap(while)))/body/jit(_where)/select_n" source_file="/fs04/fc37/adam/projects/psilocybin-prl-analyses/src/prl_hgf/fitting/hierarchical_patrl.py" source_line=370}
  param_5.3827 = f64[4]{0} parameter(5)
  param_21.517 = f64[192,4]{1,0} parameter(21)
  dynamic-slice.5289.1.clone.1 = f64[1,4]{1,0} dynamic-slice(param_21.517, select.8898.57, constant_5060_27), dynamic_slice_sizes={1,4}, metadata={op_name="jit(while)/jit(main)/while/body/jit(update)/while/body/cond/branch_0_fun/transpose(jvp(vmap(while)))/body/dynamic_slice[slice_sizes=(1, 4)]" source_file="/fs04/fc37/adam/projects/psilocybin-prl-analyses/src/prl_hgf/fitting/hierarchical_patrl.py" source_line=378}
  bitcast.15912.6.clone.1 = f64[4]{0} bitcast(dynamic-slice.5289.1.clone.1)
  param_20.535 = pred[192,4]{1,0} parameter(20)
  dynamic-slice.5302.3.clone.1 = pred[1,4]{1,0} dynamic-slice(param_20.535, select.8898.57, constant_5060_27), dynamic_slice_sizes={1,4}, metadata={op_name="jit(while)/jit(main)/while/body/jit(update)/while/body/cond/branch_0_fun/transpose(jvp(vmap(while)))/body/dynamic_slice[slice_sizes=(1, 4)]" source_file="/fs04/fc37/adam/projects/psilocybin-prl-analyses/src/prl_hgf/fitting/hierarchical_patrl.py" source_line=378}
  bitcast.16246.5.clone.1 = pred[4]{0} bitcast(dynamic-slice.5302.3.clone.1)
  param_37.83 = f64[4]{0} parameter(37)
  select.8921.11.clone.1 = f64[4]{0} select(bitcast.15457.29, param_37.83, broadcast.4924.clone.83), metadata={op_name="jit(while)/jit(main)/while/body/jit(update)/cond/branch_0_fun/transpose(jvp(vmap(while)))/body/jit(_where)/select_n" source_file="/fs04/fc37/adam/projects/psilocybin-prl-analyses/src/prl_hgf/env/pat_rl_simulator.py" source_line=92}
  param_36.86 = f64[4]{0} parameter(36)
  select.8907.9.clone.1 = f64[4]{0} select(bitcast.15457.29, param_36.86, broadcast.4924.clone.83), metadata={op_name="jit(while)/jit(main)/while/body/jit(update)/cond/branch_0_fun/transpose(jvp(vmap(while)))/body/jit(_where)/select_n" source_file="/fs04/fc37/adam/projects/psilocybin-prl-analyses/src/prl_hgf/env/pat_rl_simulator.py" source_line=92}
  param_18.603 = pred[192,4]{1,0} parameter(18)
  dynamic-slice.5271.13.clone.1 = pred[1,4]{1,0} dynamic-slice(param_18.603, select.8898.57, constant_5060_27), dynamic_slice_sizes={1,4}, metadata={op_name="jit(while)/jit(main)/while/body/jit(update)/while/body/cond/branch_0_fun/transpose(jvp(vmap(while)))/body/dynamic_slice[slice_sizes=(1, 4)]" source_file="/fs04/fc37/adam/projects/psilocybin-prl-analyses/src/prl_hgf/fitting/hierarchical_patrl.py" source_line=378}
  bitcast.15585.33.clone.1 = pred[4]{0} bitcast(dynamic-slice.5271.13.clone.1)
  param_35.82 = f64[192,4]{1,0} parameter(35)
  dynamic-slice.5272.11.clone.1 = f64[1,4]{1,0} dynamic-slice(param_35.82, select.8898.57, constant_5060_27), dynamic_slice_sizes={1,4}, metadata={op_name="jit(while)/jit(main)/while/body/jit(update)/while/body/cond/branch_0_fun/transpose(jvp(vmap(while)))/body/dynamic_slice[slice_sizes=(1, 4)]" source_file="/fs04/fc37/adam/projects/psilocybin-prl-analyses/src/prl_hgf/fitting/hierarchical_patrl.py" source_line=378}
  bitcast.15594.13.clone.1 = f64[4]{0} bitcast(dynamic-slice.5272.11.clone.1)
  param_16.758 = pred[192,4]{1,0} parameter(16)
  dynamic-slice.5273.19.clone.1 = pred[1,4]{1,0} dynamic-slice(param_16.758, select.8898.57, constant_5060_27), dynamic_slice_sizes={1,4}, metadata={op_name="jit(while)/jit(main)/while/body/jit(update)/while/body/cond/branch_0_fun/transpose(jvp(vmap(while)))/body/dynamic_slice[slice_sizes=(1, 4)]" source_file="/fs04/fc37/adam/projects/psilocybin-prl-analyses/src/prl_hgf/fitting/hierarchical_patrl.py" source_line=378}
  bitcast.15603.19.clone.1 = pred[4]{0} bitcast(dynamic-slice.5273.19.clone.1)
  param_15.837 = s32[192,4]{1,0} parameter(15)
  dynamic-slice.5274.24.clone.1 = s32[1,4]{1,0} dynamic-slice(param_15.837, select.8898.57, constant_5060_27), dynamic_slice_sizes={1,4}, metadata={op_name="jit(while)/jit(main)/while/body/jit(update)/while/body/cond/branch_0_fun/transpose(jvp(vmap(while)))/body/dynamic_slice[slice_sizes=(1, 4)]" source_file="/fs04/fc37/adam/projects/psilocybin-prl-analyses/src/prl_hgf/fitting/hierarchical_patrl.py" source_line=378}
  constant_5063_3_clone_1 = s32[] constant(1)
  broadcast.4925.19.clone.1 = s32[1,4]{1,0} broadcast(constant_5063_3_clone_1), dimensions={}
  compare.2633.19.clone.1 = pred[1,4]{1,0} compare(dynamic-slice.5274.24.clone.1, broadcast.4925.19.clone.1), direction=EQ, metadata={op_name="jit(while)/jit(main)/while/body/jit(update)/cond/branch_0_fun/transpose(jvp(vmap(while)))/body/jit(beliefs_propagation)/jit(continuous_node_posterior_update_ehgf)/jit(posterior_update_precision_continuous_node)/eq" source_file="/fs04/fc37/adam/projects/psilocybin-prl-analyses/src/prl_hgf/fitting/hierarchical_patrl.py" source_line=362}
  bitcast.15615.21.clone.1 = pred[4]{0} bitcast(compare.2633.19.clone.1)
  param_14.866 = f64[4]{0} parameter(14)
  select.8908.27.clone.1 = f64[4]{0} select(bitcast.15457.29, param_14.866, broadcast.4924.clone.83), metadata={op_name="jit(while)/jit(main)/while/body/jit(update)/cond/branch_0_fun/transpose(jvp(vmap(while)))/body/jit(_where)/select_n" source_file="/fs04/fc37/adam/projects/psilocybin-prl-analyses/src/prl_hgf/env/pat_rl_simulator.py" source_line=92}
  select.8909.21.clone.1 = f64[4]{0} select(bitcast.15615.21.clone.1, select.8908.27.clone.1, broadcast.4924.clone.83), metadata={op_name="jit(while)/jit(main)/while/body/jit(update)/cond/branch_0_fun/transpose(jvp(vmap(while)))/body/jit(beliefs_propagation)/jit(continuous_node_posterior_update_ehgf)/jit(posterior_update_precision_continuous_node)/select_n" source_file="/fs04/fc37/adam/projects/psilocybin-prl-analyses/src/prl_hgf/fitting/hierarchical_patrl.py" source_line=362}
  select.8910.19.clone.1 = f64[4]{0} select(bitcast.15603.19.clone.1, select.8909.21.clone.1, broadcast.4924.clone.83), metadata={op_name="jit(while)/jit(main)/while/body/jit(update)/cond/branch_0_fun/transpose(jvp(vmap(while)))/body/jit(beliefs_propagation)/jit(continuous_node_posterior_update_ehgf)/jit(posterior_update_precision_continuous_node)/jit(precision_update)/jit(_where)/select_n" source_file="/fs04/fc37/adam/projects/psilocybin-prl-analyses/src/prl_hgf/env/pat_rl_simulator.py" source_line=92}
  param_13.969 = f64[192,4]{1,0} parameter(13)
  dynamic-slice.5275.34.clone.1 = f64[1,4]{1,0} dynamic-slice(param_13.969, select.8898.57, constant_5060_27), dynamic_slice_sizes={1,4}, metadata={op_name="jit(while)/jit(main)/while/body/jit(update)/while/body/cond/branch_0_fun/transpose(jvp(vmap(while)))/body/dynamic_slice[slice_sizes=(1, 4)]" source_file="/fs04/fc37/adam/projects/psilocybin-prl-analyses/src/prl_hgf/fitting/hierarchical_patrl.py" source_line=378}
  bitcast.15635.34.clone.1 = f64[4]{0} bitcast(dynamic-slice.5275.34.clone.1)
  multiply.11286.13.clone.1 = f64[4]{0} multiply(select.8910.19.clone.1, bitcast.15635.34.clone.1), metadata={op_name="jit(while)/jit(main)/while/body/jit(update)/cond/branch_0_fun/transpose(jvp(vmap(while)))/body/jit(beliefs_propagation)/jit(continuous_node_posterior_update_ehgf)/jit(posterior_update_precision_continuous_node)/jit(precision_update)/mul" source_file="/fs04/fc37/adam/projects/psilocybin-prl-analyses/src/prl_hgf/fitting/hierarchical_patrl.py" source_line=362}
  negate.1714.9.clone.1 = f64[4]{0} negate(multiply.11286.13.clone.1), metadata={op_name="jit(while)/jit(main)/while/body/jit(update)/cond/branch_0_fun/transpose(jvp(vmap(while)))/body/jit(beliefs_propagation)/jit(continuous_node_posterior_update_ehgf)/jit(posterior_update_precision_continuous_node)/jit(precision_update)/neg" source_file="/fs04/fc37/adam/projects/psilocybin-prl-analyses/src/prl_hgf/fitting/hierarchical_patrl.py" source_line=362}
  multiply.11287.13.clone.1 = f64[4]{0} multiply(bitcast.15594.13.clone.1, negate.1714.9.clone.1), metadata={op_name="jit(while)/jit(main)/while/body/jit(update)/cond/branch_0_fun/transpose(jvp(vmap(while)))/body/jit(beliefs_propagation)/jit(continuous_node_posterior_update_ehgf)/jit(posterior_update_precision_continuous_node)/jit(precision_update)/mul" source_file="/fs04/fc37/adam/projects/psilocybin-prl-analyses/src/prl_hgf/fitting/hierarchical_patrl.py" source_line=362}
  param_34.91 = f64[192,4]{1,0} parameter(34)
  dynamic-slice.5276.7.clone.1 = f64[1,4]{1,0} dynamic-slice(param_34.91, select.8898.57, constant_5060_27), dynamic_slice_sizes={1,4}, metadata={op_name="jit(while)/jit(main)/while/body/jit(update)/while/body/cond/branch_0_fun/transpose(jvp(vmap(while)))/body/dynamic_slice[slice_sizes=(1, 4)]" source_file="/fs04/fc37/adam/projects/psilocybin-prl-analyses/src/prl_hgf/fitting/hierarchical_patrl.py" source_line=378}
  bitcast.15647.9.clone.1 = f64[4]{0} bitcast(dynamic-slice.5276.7.clone.1)
  multiply.11288.9.clone.1 = f64[4]{0} multiply(bitcast.15647.9.clone.1, multiply.11286.13.clone.1), metadata={op_name="jit(while)/jit(main)/while/body/jit(update)/cond/branch_0_fun/transpose(jvp(vmap(while)))/body/jit(beliefs_propagation)/jit(continuous_node_posterior_update_ehgf)/jit(posterior_update_precision_continuous_node)/jit(precision_update)/mul" source_file="/fs04/fc37/adam/projects/psilocybin-prl-analyses/src/prl_hgf/fitting/hierarchical_patrl.py" source_line=362}
  add.9473.11.clone.1 = f64[4]{0} add(multiply.11287.13.clone.1, multiply.11288.9.clone.1), metadata={op_name="jit(while)/jit(main)/while/body/jit(update)/cond/branch_0_fun/transpose(jvp(vmap(while)))/body/jit(beliefs_propagation)/jit(continuous_node_posterior_update_ehgf)/jit(posterior_update_precision_continuous_node)/jit(precision_update)/add_any" source_file="/fs04/fc37/adam/projects/psilocybin-prl-analyses/src/prl_hgf/fitting/hierarchical_patrl.py" source_line=362}
  select.8911.11.clone.1 = f64[4]{0} select(bitcast.15585.33.clone.1, add.9473.11.clone.1, broadcast.4924.clone.83), metadata={op_name="jit(while)/jit(main)/while/body/jit(update)/cond/branch_0_fun/transpose(jvp(vmap(while)))/body/jit(beliefs_propagation)/jit(continuous_node_posterior_update_ehgf)/jit(posterior_update_precision_continuous_node)/select_n" source_file="/fs04/fc37/adam/projects/psilocybin-prl-analyses/src/prl_hgf/fitting/hierarchical_patrl.py" source_line=362}
  param_33.117 = f64[192,4]{1,0} parameter(33)
  dynamic-slice.5277.7.clone.1 = f64[1,4]{1,0} dynamic-slice(param_33.117, select.8898.57, constant_5060_27), dynamic_slice_sizes={1,4}, metadata={op_name="jit(while)/jit(main)/while/body/jit(update)/while/body/cond/branch_0_fun/transpose(jvp(vmap(while)))/body/dynamic_slice[slice_sizes=(1, 4)]" source_file="/fs04/fc37/adam/projects/psilocybin-prl-analyses/src/prl_hgf/fitting/hierarchical_patrl.py" source_line=378}
  bitcast.15661.9.clone.1 = f64[4]{0} bitcast(dynamic-slice.5277.7.clone.1)
  select.8912.23.clone.1 = f64[4]{0} select(bitcast.15457.29, param_9.1718, broadcast.4924.clone.83), metadata={op_name="jit(while)/jit(main)/while/body/jit(update)/cond/branch_0_fun/transpose(jvp(vmap(while)))/body/jit(_where)/select_n" source_file="/fs04/fc37/adam/projects/psilocybin-prl-analyses/src/prl_hgf/fitting/hierarchical_patrl.py" source_line=370}
  multiply.11289.21.clone.1 = f64[4]{0} multiply(select.8912.23.clone.1, bitcast.15635.34.clone.1), metadata={op_name="jit(while)/jit(main)/while/body/jit(update)/cond/branch_0_fun/transpose(jvp(vmap(while)))/body/jit(beliefs_propagation)/jit(continuous_node_posterior_update_ehgf)/jit(posterior_update_mean_continuous_node)/mul" source_file="/fs04/fc37/adam/projects/psilocybin-prl-analyses/src/prl_hgf/fitting/hierarchical_patrl.py" source_line=362}
  param_8.2001 = f64[192,4]{1,0} parameter(8)
  dynamic-slice.5278.13.clone.1 = f64[1,4]{1,0} dynamic-slice(param_8.2001, select.8898.57, constant_5060_27), dynamic_slice_sizes={1,4}, metadata={op_name="jit(while)/jit(main)/while/body/jit(update)/while/body/cond/branch_0_fun/transpose(jvp(vmap(while)))/body/dynamic_slice[slice_sizes=(1, 4)]" source_file="/fs04/fc37/adam/projects/psilocybin-prl-analyses/src/prl_hgf/fitting/hierarchical_patrl.py" source_line=378}
  bitcast.15684.13.clone.1 = f64[4]{0} bitcast(dynamic-slice.5278.13.clone.1)
  multiply.11290.13.clone.1 = f64[4]{0} multiply(multiply.11289.21.clone.1, bitcast.15684.13.clone.1), metadata={op_name="jit(while)/jit(main)/while/body/jit(update)/cond/branch_0_fun/transpose(jvp(vmap(while)))/body/jit(beliefs_propagation)/jit(continuous_node_posterior_update_ehgf)/jit(posterior_update_mean_continuous_node)/mul" source_file="/fs04/fc37/adam/projects/psilocybin-prl-analyses/src/prl_hgf/fitting/hierarchical_patrl.py" source_line=362}
  multiply.11291.9.clone.1 = f64[4]{0} multiply(bitcast.15661.9.clone.1, multiply.11290.13.clone.1), metadata={op_name="jit(while)/jit(main)/while/body/jit(update)/cond/branch_0_fun/transpose(jvp(vmap(while)))/body/jit(beliefs_propagation)/jit(continuous_node_posterior_update_ehgf)/jit(posterior_update_mean_continuous_node)/mul" source_file="/fs04/fc37/adam/projects/psilocybin-prl-analyses/src/prl_hgf/fitting/hierarchical_patrl.py" source_line=362}
  add.9474.9.clone.1 = f64[4]{0} add(select.8911.11.clone.1, multiply.11291.9.clone.1), metadata={op_name="jit(while)/jit(main)/while/body/jit(update)/cond/branch_0_fun/transpose(jvp(vmap(while)))/body/jit(beliefs_propagation)/jit(continuous_node_posterior_update_ehgf)/add_any" source_file="/fs04/fc37/adam/projects/psilocybin-prl-analyses/src/prl_hgf/fitting/hierarchical_patrl.py" source_line=362}
  add.9475.7.clone.1 = f64[4]{0} add(select.8907.9.clone.1, add.9474.9.clone.1), metadata={op_name="jit(while)/jit(main)/while/body/jit(update)/cond/branch_0_fun/transpose(jvp(vmap(while)))/body/jit(beliefs_propagation)/add_any" source_file="/fs04/fc37/adam/projects/psilocybin-prl-analyses/src/prl_hgf/fitting/hierarchical_patrl.py" source_line=362}
  param_32.150 = f64[192,4]{1,0} parameter(32)
  dynamic-slice.5294.11.clone.1 = f64[1,4]{1,0} dynamic-slice(param_32.150, select.8898.57, constant_5060_27), dynamic_slice_sizes={1,4}, metadata={op_name="jit(while)/jit(main)/while/body/jit(update)/while/body/cond/branch_0_fun/transpose(jvp(vmap(while)))/body/dynamic_slice[slice_sizes=(1, 4)]" source_file="/fs04/fc37/adam/projects/psilocybin-prl-analyses/src/prl_hgf/fitting/hierarchical_patrl.py" source_line=378}
  bitcast.16008.13.clone.1 = f64[4]{0} bitcast(dynamic-slice.5294.11.clone.1)
  multiply.11309.13.clone.1 = f64[4]{0} multiply(add.9475.7.clone.1, bitcast.16008.13.clone.1), metadata={op_name="jit(while)/jit(main)/while/body/jit(update)/cond/branch_0_fun/transpose(jvp(vmap(while)))/body/jit(beliefs_propagation)/jit(continuous_node_prediction_error)/jit(continuous_node_volatility_prediction_error)/mul" source_file="/fs04/fc37/adam/projects/psilocybin-prl-analyses/src/prl_hgf/fitting/hierarchical_patrl.py" source_line=362}
  param_31.134 = f64[192,4]{1,0} parameter(31)
  dynamic-slice.5290.8.clone.1 = f64[1,4]{1,0} dynamic-slice(param_31.134, select.8898.57, constant_5060_27), dynamic_slice_sizes={1,4}, metadata={op_name="jit(while)/jit(main)/while/body/jit(update)/while/body/cond/branch_0_fun/transpose(jvp(vmap(while)))/body/dynamic_slice[slice_sizes=(1, 4)]" source_file="/fs04/fc37/adam/projects/psilocybin-prl-analyses/src/prl_hgf/fitting/hierarchical_patrl.py" source_line=378}
  bitcast.15923.8.clone.1 = f64[4]{0} bitcast(dynamic-slice.5290.8.clone.1)
  divide.2463.5.clone.1 = f64[4]{0} divide(add.9475.7.clone.1, bitcast.15923.8.clone.1), metadata={op_name="jit(while)/jit(main)/while/body/jit(update)/cond/branch_0_fun/transpose(jvp(vmap(while)))/body/jit(beliefs_propagation)/jit(continuous_node_prediction_error)/jit(continuous_node_volatility_prediction_error)/div" source_file="/fs04/fc37/adam/projects/psilocybin-prl-analyses/src/prl_hgf/fitting/hierarchical_patrl.py" source_line=362}
  add.9499.11.clone.1 = f64[4]{0} add(multiply.11309.13.clone.1, divide.2463.5.clone.1), metadata={op_name="jit(while)/jit(main)/while/body/jit(update)/cond/branch_0_fun/transpose(jvp(vmap(while)))/body/jit(beliefs_propagation)/jit(continuous_node_prediction_error)/jit(continuous_node_volatility_prediction_error)/add_any" source_file="/fs04/fc37/adam/projects/psilocybin-prl-analyses/src/prl_hgf/fitting/hierarchical_patrl.py" source_line=362}
  add.9500.9.clone.1 = f64[4]{0} add(select.8921.11.clone.1, add.9499.11.clone.1), metadata={op_name="jit(while)/jit(main)/while/body/jit(update)/cond/branch_0_fun/transpose(jvp(vmap(while)))/body/jit(beliefs_propagation)/add_any" source_file="/fs04/fc37/adam/projects/psilocybin-prl-analyses/src/prl_hgf/fitting/hierarchical_patrl.py" source_line=362}
  param_30.145 = f64[4]{0} parameter(30)
  add.9501.7.clone.1 = f64[4]{0} add(add.9500.9.clone.1, param_30.145), metadata={op_name="jit(while)/jit(main)/while/body/jit(update)/cond/branch_0_fun/transpose(jvp(vmap(while)))/body/jit(beliefs_propagation)/add_any" source_file="/fs04/fc37/adam/projects/psilocybin-prl-analyses/src/prl_hgf/fitting/hierarchical_patrl.py" source_line=362}
  param_29.179 = f64[192,4]{1,0} parameter(29)
  dynamic-slice.5295.3.clone.1 = f64[1,4]{1,0} dynamic-slice(param_29.179, select.8898.57, constant_5060_27), dynamic_slice_sizes={1,4}, metadata={op_name="jit(while)/jit(main)/while/body/jit(update)/while/body/cond/branch_0_fun/transpose(jvp(vmap(while)))/body/dynamic_slice[slice_sizes=(1, 4)]" source_file="/fs04/fc37/adam/projects/psilocybin-prl-analyses/src/prl_hgf/fitting/hierarchical_patrl.py" source_line=378}
  bitcast.16030.3.clone.1 = f64[4]{0} bitcast(dynamic-slice.5295.3.clone.1)
  param_19.550 = f64[4]{0} parameter(19)
  select.8922.9.clone.1 = f64[4]{0} select(bitcast.15457.29, param_19.550, broadcast.4924.clone.83), metadata={op_name="jit(while)/jit(main)/while/body/jit(update)/cond/branch_0_fun/transpose(jvp(vmap(while)))/body/jit(_where)/select_n" source_file="/fs04/fc37/adam/projects/psilocybin-prl-analyses/src/prl_hgf/env/pat_rl_simulator.py" source_line=92}
  param_17.689 = f64[192,4]{1,0} parameter(17)
  dynamic-slice.5296.13.clone.1 = f64[1,4]{1,0} dynamic-slice(param_17.689, select.8898.57, constant_5060_27), dynamic_slice_sizes={1,4}, metadata={op_name="jit(while)/jit(main)/while/body/jit(update)/while/body/cond/branch_0_fun/transpose(jvp(vmap(while)))/body/dynamic_slice[slice_sizes=(1, 4)]" source_file="/fs04/fc37/adam/projects/psilocybin-prl-analyses/src/prl_hgf/fitting/hierarchical_patrl.py" source_line=378}
  bitcast.16052.15.clone.1 = f64[4]{0} bitcast(dynamic-slice.5296.13.clone.1)
  param_12.1008 = f64[192,4]{1,0} parameter(12)
  dynamic-slice.5297.27.clone.1 = f64[1,4]{1,0} dynamic-slice(param_12.1008, select.8898.57, constant_5060_27), dynamic_slice_sizes={1,4}, metadata={op_name="jit(while)/jit(main)/while/body/jit(update)/while/body/cond/branch_0_fun/transpose(jvp(vmap(while)))/body/dynamic_slice[slice_sizes=(1, 4)]" source_file="/fs04/fc37/adam/projects/psilocybin-prl-analyses/src/prl_hgf/fitting/hierarchical_patrl.py" source_line=378}
  bitcast.16063.29.clone.1 = f64[4]{0} bitcast(dynamic-slice.5297.27.clone.1)
  multiply.11310.9.clone.1 = f64[4]{0} multiply(negate.1714.9.clone.1, bitcast.16063.29.clone.1), metadata={op_name="jit(while)/jit(main)/while/body/jit(update)/cond/branch_0_fun/transpose(jvp(vmap(while)))/body/jit(beliefs_propagation)/jit(continuous_node_posterior_update_ehgf)/jit(posterior_update_precision_continuous_node)/jit(precision_update)/mul" source_file="/fs04/fc37/adam/projects/psilocybin-prl-analyses/src/prl_hgf/fitting/hierarchical_patrl.py" source_line=362}
  multiply.11311.15.clone.1 = f64[4]{0} multiply(bitcast.16052.15.clone.1, multiply.11310.9.clone.1), metadata={op_name="jit(while)/jit(main)/while/body/jit(update)/cond/branch_0_fun/transpose(jvp(vmap(while)))/body/jit(beliefs_propagation)/jit(continuous_node_posterior_update_ehgf)/jit(posterior_update_precision_continuous_node)/jit(precision_update)/mul" source_file="/fs04/fc37/adam/projects/psilocybin-prl-analyses/src/prl_hgf/fitting/hierarchical_patrl.py" source_line=362}
  param_11.1284 = f64[192,4]{1,0} parameter(11)
  dynamic-slice.5298.19.clone.1 = f64[1,4]{1,0} dynamic-slice(param_11.1284, select.8898.57, constant_5060_27), dynamic_slice_sizes={1,4}, metadata={op_name="jit(while)/jit(main)/while/body/jit(update)/while/body/cond/branch_0_fun/transpose(jvp(vmap(while)))/body/dynamic_slice[slice_sizes=(1, 4)]" source_file="/fs04/fc37/adam/projects/psilocybin-prl-analyses/src/prl_hgf/fitting/hierarchical_patrl.py" source_line=378}
  bitcast.16074.21.clone.1 = f64[4]{0} bitcast(dynamic-slice.5298.19.clone.1)
  multiply.11312.11.clone.1 = f64[4]{0} multiply(multiply.11286.13.clone.1, bitcast.16063.29.clone.1), metadata={op_name="jit(while)/jit(main)/while/body/jit(update)/cond/branch_0_fun/transpose(jvp(vmap(while)))/body/jit(beliefs_propagation)/jit(continuous_node_posterior_update_ehgf)/jit(posterior_update_precision_continuous_node)/jit(precision_update)/mul" source_file="/fs04/fc37/adam/projects/psilocybin-prl-analyses/src/prl_hgf/fitting/hierarchical_patrl.py" source_line=362}
  param_10.1492 = f64[192,4]{1,0} parameter(10)
  dynamic-slice.5299.18.clone.1 = f64[1,4]{1,0} dynamic-slice(param_10.1492, select.8898.57, constant_5060_27), dynamic_slice_sizes={1,4}, metadata={op_name="jit(while)/jit(main)/while/body/jit(update)/while/body/cond/branch_0_fun/transpose(jvp(vmap(while)))/body/dynamic_slice[slice_sizes=(1, 4)]" source_file="/fs04/fc37/adam/projects/psilocybin-prl-analyses/src/prl_hgf/fitting/hierarchical_patrl.py" source_line=378}
  bitcast.16090.18.clone.1 = f64[4]{0} bitcast(dynamic-slice.5299.18.clone.1)
  multiply.11313.9.clone.1 = f64[4]{0} multiply(multiply.11312.11.clone.1, bitcast.16090.18.clone.1), metadata={op_name="jit(while)/jit(main)/while/body/jit(update)/cond/branch_0_fun/transpose(jvp(vmap(while)))/body/jit(beliefs_propagation)/jit(continuous_node_posterior_update_ehgf)/jit(posterior_update_precision_continuous_node)/jit(precision_update)/mul" source_file="/fs04/fc37/adam/projects/psilocybin-prl-analyses/src/prl_hgf/fitting/hierarchical_patrl.py" source_line=362}
  multiply.11314.7.clone.1 = f64[4]{0} multiply(bitcast.16074.21.clone.1, multiply.11313.9.clone.1), metadata={op_name="jit(while)/jit(main)/while/body/jit(update)/cond/branch_0_fun/transpose(jvp(vmap(while)))/body/jit(beliefs_propagation)/jit(continuous_node_posterior_update_ehgf)/jit(posterior_update_precision_continuous_node)/jit(precision_update)/mul" source_file="/fs04/fc37/adam/projects/psilocybin-prl-analyses/src/prl_hgf/fitting/hierarchical_patrl.py" source_line=362}
  add.9502.13.clone.1 = f64[4]{0} add(multiply.11311.15.clone.1, multiply.11314.7.clone.1), metadata={op_name="jit(while)/jit(main)/while/body/jit(update)/cond/branch_0_fun/transpose(jvp(vmap(while)))/body/jit(beliefs_propagation)/jit(continuous_node_posterior_update_ehgf)/jit(posterior_update_precision_continuous_node)/jit(precision_update)/add_any" source_file="/fs04/fc37/adam/projects/psilocybin-prl-analyses/src/prl_hgf/fitting/hierarchical_patrl.py" source_line=362}
  constant_5064_2_clone_1 = f64[] constant(0.5)
  broadcast.4927.clone.25.clone.1 = f64[4]{0} broadcast(constant_5064_2_clone_1), dimensions={}
  multiply.11315.11.clone.1 = f64[4]{0} multiply(multiply.11286.13.clone.1, broadcast.4927.clone.25.clone.1), metadata={op_name="jit(while)/jit(main)/while/body/jit(update)/cond/branch_0_fun/transpose(jvp(vmap(while)))/body/jit(beliefs_propagation)/jit(continuous_node_posterior_update_ehgf)/jit(posterior_update_precision_continuous_node)/jit(precision_update)/mul" source_file="/fs04/fc37/adam/projects/psilocybin-prl-analyses/src/prl_hgf/fitting/hierarchical_patrl.py" source_line=362}
  multiply.11316.9.clone.1 = f64[4]{0} multiply(multiply.11315.11.clone.1, bitcast.16090.18.clone.1), metadata={op_name="jit(while)/jit(main)/while/body/jit(update)/cond/branch_0_fun/transpose(jvp(vmap(while)))/body/jit(beliefs_propagation)/jit(continuous_node_posterior_update_ehgf)/jit(posterior_update_precision_continuous_node)/jit(precision_update)/mul" source_file="/fs04/fc37/adam/projects/psilocybin-prl-analyses/src/prl_hgf/fitting/hierarchical_patrl.py" source_line=362}
  multiply.11317.7.clone.1 = f64[4]{0} multiply(bitcast.16074.21.clone.1, multiply.11316.9.clone.1), metadata={op_name="jit(while)/jit(main)/while/body/jit(update)/cond/branch_0_fun/transpose(jvp(vmap(while)))/body/jit(beliefs_propagation)/jit(continuous_node_posterior_update_ehgf)/jit(posterior_update_precision_continuous_node)/jit(precision_update)/mul" source_file="/fs04/fc37/adam/projects/psilocybin-prl-analyses/src/prl_hgf/fitting/hierarchical_patrl.py" source_line=362}
  add.9503.11.clone.1 = f64[4]{0} add(add.9502.13.clone.1, multiply.11317.7.clone.1), metadata={op_name="jit(while)/jit(main)/while/body/jit(update)/cond/branch_0_fun/transpose(jvp(vmap(while)))/body/jit(beliefs_propagation)/jit(continuous_node_posterior_update_ehgf)/jit(posterior_update_precision_continuous_node)/jit(precision_update)/add_any" source_file="/fs04/fc37/adam/projects/psilocybin-prl-analyses/src/prl_hgf/fitting/hierarchical_patrl.py" source_line=362}
  select.8923.11.clone.1 = f64[4]{0} select(bitcast.15585.33.clone.1, add.9503.11.clone.1, broadcast.4924.clone.83), metadata={op_name="jit(while)/jit(main)/while/body/jit(update)/cond/branch_0_fun/transpose(jvp(vmap(while)))/body/jit(beliefs_propagation)/jit(continuous_node_posterior_update_ehgf)/jit(posterior_update_precision_continuous_node)/select_n" source_file="/fs04/fc37/adam/projects/psilocybin-prl-analyses/src/prl_hgf/fitting/hierarchical_patrl.py" source_line=362}
  multiply.11318.9.clone.1 = f64[4]{0} multiply(multiply.11290.13.clone.1, bitcast.16063.29.clone.1), metadata={op_name="jit(while)/jit(main)/while/body/jit(update)/cond/branch_0_fun/transpose(jvp(vmap(while)))/body/jit(beliefs_propagation)/jit(continuous_node_posterior_update_ehgf)/jit(posterior_update_mean_continuous_node)/mul" source_file="/fs04/fc37/adam/projects/psilocybin-prl-analyses/src/prl_hgf/fitting/hierarchical_patrl.py" source_line=362}
  multiply.11319.7.clone.1 = f64[4]{0} multiply(bitcast.16074.21.clone.1, multiply.11318.9.clone.1), metadata={op_name="jit(while)/jit(main)/while/body/jit(update)/cond/branch_0_fun/transpose(jvp(vmap(while)))/body/jit(beliefs_propagation)/jit(continuous_node_posterior_update_ehgf)/jit(posterior_update_mean_continuous_node)/mul" source_file="/fs04/fc37/adam/projects/psilocybin-prl-analyses/src/prl_hgf/fitting/hierarchical_patrl.py" source_line=362}
  add.9504.9.clone.1 = f64[4]{0} add(select.8923.11.clone.1, multiply.11319.7.clone.1), metadata={op_name="jit(while)/jit(main)/while/body/jit(update)/cond/branch_0_fun/transpose(jvp(vmap(while)))/body/jit(beliefs_propagation)/jit(continuous_node_posterior_update_ehgf)/add_any" source_file="/fs04/fc37/adam/projects/psilocybin-prl-analyses/src/prl_hgf/fitting/hierarchical_patrl.py" source_line=362}
  add.9505.7.clone.1 = f64[4]{0} add(select.8922.9.clone.1, add.9504.9.clone.1), metadata={op_name="jit(while)/jit(main)/while/body/jit(update)/cond/branch_0_fun/transpose(jvp(vmap(while)))/body/jit(beliefs_propagation)/add_any" source_file="/fs04/fc37/adam/projects/psilocybin-prl-analyses/src/prl_hgf/fitting/hierarchical_patrl.py" source_line=362}
  param_3.5577 = f64[4]{0} parameter(3)
  add.9506.5.clone.1 = f64[4]{0} add(add.9505.7.clone.1, param_3.5577), metadata={op_name="jit(while)/jit(main)/while/body/jit(update)/cond/branch_0_fun/transpose(jvp(vmap(while)))/body/jit(beliefs_propagation)/add_any" source_file="/fs04/fc37/adam/projects/psilocybin-prl-analyses/src/prl_hgf/fitting/hierarchical_patrl.py" source_line=362}
  multiply.11320.3.clone.1 = f64[4]{0} multiply(bitcast.16030.3.clone.1, add.9506.5.clone.1), metadata={op_name="jit(while)/jit(main)/while/body/jit(update)/cond/branch_0_fun/transpose(jvp(vmap(while)))/body/jit(beliefs_propagation)/jit(continuous_node_prediction)/jit(predict_precision)/mul" source_file="/fs04/fc37/adam/projects/psilocybin-prl-analyses/src/prl_hgf/fitting/hierarchical_patrl.py" source_line=362}
  add.9507.5.clone.1 = f64[4]{0} add(add.9501.7.clone.1, multiply.11320.3.clone.1), metadata={op_name="jit(while)/jit(main)/while/body/jit(update)/cond/branch_0_fun/transpose(jvp(vmap(while)))/body/jit(beliefs_propagation)/jit(continuous_node_prediction)/jit(predict_precision)/add_any" source_file="/fs04/fc37/adam/projects/psilocybin-prl-analyses/src/prl_hgf/fitting/hierarchical_patrl.py" source_line=362}
  param_28.230 = f64[192,4]{1,0} parameter(28)
  dynamic-slice.5300.3.clone.1 = f64[1,4]{1,0} dynamic-slice(param_28.230, select.8898.57, constant_5060_27), dynamic_slice_sizes={1,4}, metadata={op_name="jit(while)/jit(main)/while/body/jit(update)/while/body/cond/branch_0_fun/transpose(jvp(vmap(while)))/body/dynamic_slice[slice_sizes=(1, 4)]" source_file="/fs04/fc37/adam/projects/psilocybin-prl-analyses/src/prl_hgf/fitting/hierarchical_patrl.py" source_line=378}
  bitcast.16140.3.clone.1 = f64[4]{0} bitcast(dynamic-slice.5300.3.clone.1)
  multiply.11321.3.clone.1 = f64[4]{0} multiply(add.9507.5.clone.1, bitcast.16140.3.clone.1), metadata={op_name="jit(while)/jit(main)/while/body/jit(update)/cond/branch_0_fun/transpose(jvp(vmap(while)))/body/jit(beliefs_propagation)/jit(continuous_node_prediction)/jit(predict_precision)/mul" source_file="/fs04/fc37/adam/projects/psilocybin-prl-analyses/src/prl_hgf/fitting/hierarchical_patrl.py" source_line=362}
  negate.1721.1.clone.1 = f64[4]{0} negate(multiply.11321.3.clone.1), metadata={op_name="jit(while)/jit(main)/while/body/jit(update)/cond/branch_0_fun/transpose(jvp(vmap(while)))/body/jit(beliefs_propagation)/jit(continuous_node_prediction)/jit(predict_precision)/neg" source_file="/fs04/fc37/adam/projects/psilocybin-prl-analyses/src/prl_hgf/fitting/hierarchical_patrl.py" source_line=362}
  param_7.2486 = f64[192,4]{1,0} parameter(7)
  dynamic-slice.5280.13.clone.1 = f64[1,4]{1,0} dynamic-slice(param_7.2486, select.8898.57, constant_5060_27), dynamic_slice_sizes={1,4}, metadata={op_name="jit(while)/jit(main)/while/body/jit(update)/while/body/cond/branch_0_fun/transpose(jvp(vmap(while)))/body/dynamic_slice[slice_sizes=(1, 4)]" source_file="/fs04/fc37/adam/projects/psilocybin-prl-analyses/src/prl_hgf/fitting/hierarchical_patrl.py" source_line=378}
  bitcast.15707.21.clone.1 = f64[4]{0} bitcast(dynamic-slice.5280.13.clone.1)
  multiply.11324.9.clone.1 = f64[4]{0} multiply(add.9506.5.clone.1, bitcast.15707.21.clone.1), metadata={op_name="jit(while)/jit(main)/while/body/jit(update)/cond/branch_0_fun/transpose(jvp(vmap(while)))/body/jit(beliefs_propagation)/jit(continuous_node_prediction)/jit(predict_precision)/mul" source_file="/fs04/fc37/adam/projects/psilocybin-prl-analyses/src/prl_hgf/fitting/hierarchical_patrl.py" source_line=362}
  add.9515.7.clone.1 = f64[4]{0} add(negate.1721.1.clone.1, multiply.11324.9.clone.1), metadata={op_name="jit(while)/jit(main)/while/body/jit(update)/cond/branch_0_fun/transpose(jvp(vmap(while)))/body/jit(beliefs_propagation)/jit(continuous_node_prediction)/jit(predict_precision)/add_any" source_file="/fs04/fc37/adam/projects/psilocybin-prl-analyses/src/prl_hgf/fitting/hierarchical_patrl.py" source_line=362}
  select.8931.5.clone.1 = f64[4]{0} select(bitcast.16246.5.clone.1, add.9515.7.clone.1, broadcast.4924.clone.83), metadata={op_name="jit(while)/jit(main)/while/body/jit(update)/cond/branch_0_fun/transpose(jvp(vmap(while)))/body/jit(beliefs_propagation)/jit(continuous_node_posterior_update_ehgf)/jit(posterior_update_precision_continuous_node)/jit(precision_update)/jit(_where)/select_n" source_file="/fs04/fc37/adam/projects/psilocybin-prl-analyses/src/prl_hgf/env/pat_rl_simulator.py" source_line=92}
  param_6.3179 = f64[192,4]{1,0} parameter(6)
  dynamic-slice.5303.3.clone.1 = f64[1,4]{1,0} dynamic-slice(param_6.3179, select.8898.57, constant_5060_27), dynamic_slice_sizes={1,4}, metadata={op_name="jit(while)/jit(main)/while/body/jit(update)/while/body/cond/branch_0_fun/transpose(jvp(vmap(while)))/body/dynamic_slice[slice_sizes=(1, 4)]" source_file="/fs04/fc37/adam/projects/psilocybin-prl-analyses/src/prl_hgf/fitting/hierarchical_patrl.py" source_line=378}
  bitcast.16268.3.clone.1 = f64[4]{0} bitcast(dynamic-slice.5303.3.clone.1)
  multiply.11325.3.clone.1 = f64[4]{0} multiply(select.8931.5.clone.1, bitcast.16268.3.clone.1), metadata={op_name="jit(while)/jit(main)/while/body/jit(update)/cond/branch_0_fun/transpose(jvp(vmap(while)))/body/jit(beliefs_propagation)/jit(continuous_node_prediction)/jit(predict_precision)/mul" source_file="/fs04/fc37/adam/projects/psilocybin-prl-analyses/src/prl_hgf/fitting/hierarchical_patrl.py" source_line=362}
  multiply.11326.5.clone.1 = f64[4]{0} multiply(bitcast.15912.6.clone.1, multiply.11325.3.clone.1), metadata={op_name="jit(while)/jit(main)/while/body/jit(update)/cond/branch_0_fun/transpose(jvp(vmap(while)))/body/jit(beliefs_propagation)/jit(continuous_node_prediction)/jit(predict_precision)/mul" source_file="/fs04/fc37/adam/projects/psilocybin-prl-analyses/src/prl_hgf/fitting/hierarchical_patrl.py" source_line=362}
  add.9518.3.clone.1 = f64[4]{0} add(param_5.3827, multiply.11326.5.clone.1), metadata={op_name="jit(while)/jit(main)/while/body/jit(update)/cond/branch_0_fun/transpose(jvp(vmap(while)))/body/jit(beliefs_propagation)/add_any" source_file="/fs04/fc37/adam/projects/psilocybin-prl-analyses/src/prl_hgf/fitting/hierarchical_patrl.py" source_line=362}
  param_4.4770 = f64[192,4]{1,0} parameter(4)
  dynamic-slice.5285.6.clone.1 = f64[1,4]{1,0} dynamic-slice(param_4.4770, select.8898.57, constant_5060_27), dynamic_slice_sizes={1,4}, metadata={op_name="jit(while)/jit(main)/while/body/jit(update)/while/body/cond/branch_0_fun/transpose(jvp(vmap(while)))/body/dynamic_slice[slice_sizes=(1, 4)]" source_file="/fs04/fc37/adam/projects/psilocybin-prl-analyses/src/prl_hgf/fitting/hierarchical_patrl.py" source_line=378}
  bitcast.15800.10.clone.1 = f64[4]{0} bitcast(dynamic-slice.5285.6.clone.1)
  select.8935.5.clone.1 = f64[4]{0} select(bitcast.15457.29, param_0.726, broadcast.4924.clone.83), metadata={op_name="jit(while)/jit(main)/while/body/jit(update)/cond/branch_0_fun/transpose(jvp(vmap(while)))/body/jit(_where)/select_n" source_file="/fs04/fc37/adam/projects/psilocybin-prl-analyses/src/prl_hgf/env/pat_rl_simulator.py" source_line=92}
  add.9519.3.clone.1 = f64[4]{0} add(select.8935.5.clone.1, select.8912.23.clone.1), metadata={op_name="jit(while)/jit(main)/while/body/jit(update)/cond/branch_0_fun/transpose(jvp(vmap(while)))/body/jit(beliefs_propagation)/add_any" source_file="/fs04/fc37/adam/projects/psilocybin-prl-analyses/src/prl_hgf/fitting/hierarchical_patrl.py" source_line=362}
  add.9520.1.clone.1 = f64[4]{0} add(add.9519.3.clone.1, param_3.5577), metadata={op_name="jit(while)/jit(main)/while/body/jit(update)/cond/branch_0_fun/transpose(jvp(vmap(while)))/body/jit(beliefs_propagation)/add_any" source_file="/fs04/fc37/adam/projects/psilocybin-prl-analyses/src/prl_hgf/fitting/hierarchical_patrl.py" source_line=362}
  multiply.11327.5.clone.1 = f64[4]{0} multiply(bitcast.15800.10.clone.1, add.9520.1.clone.1), metadata={op_name="jit(while)/jit(main)/while/body/jit(update)/cond/branch_0_fun/transpose(jvp(vmap(while)))/body/jit(beliefs_propagation)/jit(continuous_node_prediction)/jit(predict_mean)/mul" source_file="/fs04/fc37/adam/projects/psilocybin-prl-analyses/src/prl_hgf/fitting/hierarchical_patrl.py" source_line=362}
  add.9521.3.clone.1 = f64[4]{0} add(add.9518.3.clone.1, multiply.11327.5.clone.1), metadata={op_name="jit(while)/jit(main)/while/body/jit(update)/cond/branch_0_fun/transpose(jvp(vmap(while)))/body/jit(beliefs_propagation)/add_any" source_file="/fs04/fc37/adam/projects/psilocybin-prl-analyses/src/prl_hgf/fitting/hierarchical_patrl.py" source_line=362}
  add.9522.1.clone.1 = f64[4]{0} add(select.8934.3.clone.1, add.9521.3.clone.1), metadata={op_name="jit(while)/jit(main)/while/body/jit(update)/while/body/cond/branch_0_fun/transpose(jvp(vmap(while)))/body/add_any" source_file="/fs04/fc37/adam/projects/psilocybin-prl-analyses/src/prl_hgf/fitting/hierarchical_patrl.py" source_line=362}
  param_23.540 = f64[4]{0} parameter(23)
  select.8929.5.clone.1 = f64[4]{0} select(bitcast.15457.29, param_23.540, broadcast.4924.clone.83), metadata={op_name="jit(while)/jit(main)/while/body/jit(update)/cond/branch_0_fun/transpose(jvp(vmap(while)))/body/jit(_where)/select_n" source_file="/fs04/fc37/adam/projects/psilocybin-prl-analyses/src/prl_hgf/fitting/hierarchical_patrl.py" source_line=370}
  select.8930.5.clone.1 = f64[4]{0} select(bitcast.15457.29, broadcast.4924.clone.83, param_23.540), metadata={op_name="jit(while)/jit(main)/while/body/jit(update)/cond/branch_0_fun/transpose(jvp(vmap(while)))/body/jit(_where)/select_n" source_file="/fs04/fc37/adam/projects/psilocybin-prl-analyses/src/prl_hgf/fitting/hierarchical_patrl.py" source_line=370}
  add.9514.3.clone.1 = f64[4]{0} add(select.8929.5.clone.1, select.8930.5.clone.1), metadata={op_name="jit(while)/jit(main)/while/body/jit(update)/while/body/cond/branch_0_fun/transpose(jvp(vmap(while)))/body/add_any" source_file="/fs04/fc37/adam/projects/psilocybin-prl-analyses/src/prl_hgf/fitting/hierarchical_patrl.py" source_line=370}
  param_22.546 = f64[4]{0} parameter(22)
  add.9516.1.clone.1 = f64[4]{0} add(param_22.546, multiply.11325.3.clone.1), metadata={op_name="jit(while)/jit(main)/while/body/jit(update)/cond/branch_0_fun/transpose(jvp(vmap(while)))/body/jit(beliefs_propagation)/add_any" source_file="/fs04/fc37/adam/projects/psilocybin-prl-analyses/src/prl_hgf/fitting/hierarchical_patrl.py" source_line=362}
  add.9517.1.clone.1 = f64[4]{0} add(add.9514.3.clone.1, add.9516.1.clone.1), metadata={op_name="jit(while)/jit(main)/while/body/jit(update)/while/body/cond/branch_0_fun/transpose(jvp(vmap(while)))/body/add_any" source_file="/fs04/fc37/adam/projects/psilocybin-prl-analyses/src/prl_hgf/fitting/hierarchical_patrl.py" source_line=362}
  param_24.598 = f64[4]{0} parameter(24)
  select.8925.1.clone.1.clone.1 = f64[4]{0} select(bitcast.15457.29, broadcast.4924.clone.83, param_24.598), metadata={op_name="jit(while)/jit(main)/while/body/jit(update)/cond/branch_0_fun/transpose(jvp(vmap(while)))/body/jit(_where)/select_n" source_file="/fs04/fc37/adam/projects/psilocybin-prl-analyses/src/prl_hgf/fitting/hierarchical_patrl.py" source_line=370}
  param_27.322 = f64[4]{0} parameter(27)
  select.8920.3.clone.1 = f64[4]{0} select(bitcast.15457.29, broadcast.4924.clone.83, param_27.322), metadata={op_name="jit(while)/jit(main)/while/body/jit(update)/cond/branch_0_fun/transpose(jvp(vmap(while)))/body/jit(_where)/select_n" source_file="/fs04/fc37/adam/projects/psilocybin-prl-analyses/src/prl_hgf/env/pat_rl_simulator.py" source_line=92}
  param_25.593 = f64[4]{0} parameter(25)
  param_26.427 = f64[192,4]{1,0} parameter(26)
  dynamic-slice.5301.12.clone.1 = f64[1,4]{1,0} dynamic-slice(param_26.427, select.8898.57, constant_5060_27), dynamic_slice_sizes={1,4}, metadata={op_name="jit(while)/jit(main)/while/body/jit(update)/while/body/cond/branch_0_fun/transpose(jvp(vmap(while)))/body/dynamic_slice[slice_sizes=(1, 4)]" source_file="/fs04/fc37/adam/projects/psilocybin-prl-analyses/src/prl_hgf/fitting/hierarchical_patrl.py" source_line=378}
  bitcast.16151.18.clone.1 = f64[4]{0} bitcast(dynamic-slice.5301.12.clone.1)
  multiply.11322.9.clone.1 = f64[4]{0} multiply(negate.1721.1.clone.1, bitcast.16151.18.clone.1), metadata={op_name="jit(while)/jit(main)/while/body/jit(update)/cond/branch_0_fun/transpose(jvp(vmap(while)))/body/jit(beliefs_propagation)/jit(continuous_node_prediction)/jit(predict_precision)/mul" source_file="/fs04/fc37/adam/projects/psilocybin-prl-analyses/src/prl_hgf/fitting/hierarchical_patrl.py" source_line=362}
  negate.1722.7.clone.1 = f64[4]{0} negate(multiply.11322.9.clone.1), metadata={op_name="jit(while)/jit(main)/while/body/jit(update)/cond/branch_0_fun/transpose(jvp(vmap(while)))/body/jit(beliefs_propagation)/jit(continuous_node_prediction)/jit(predict_precision)/neg" source_file="/fs04/fc37/adam/projects/psilocybin-prl-analyses/src/prl_hgf/fitting/hierarchical_patrl.py" source_line=362}
  select.8924.5.clone.1 = f64[4]{0} select(bitcast.15457.29, param_24.598, broadcast.4924.clone.83), metadata={op_name="jit(while)/jit(main)/while/body/jit(update)/cond/branch_0_fun/transpose(jvp(vmap(while)))/body/jit(_where)/select_n" source_file="/fs04/fc37/adam/projects/psilocybin-prl-analyses/src/prl_hgf/fitting/hierarchical_patrl.py" source_line=370}
  add.9508.3.clone.1 = f64[4]{0} add(select.8924.5.clone.1, param_3.5577), metadata={op_name="jit(while)/jit(main)/while/body/jit(update)/cond/branch_0_fun/transpose(jvp(vmap(while)))/body/jit(beliefs_propagation)/add_any" source_file="/fs04/fc37/adam/projects/psilocybin-prl-analyses/src/prl_hgf/fitting/hierarchical_patrl.py" source_line=362}
  multiply.11323.9.clone.1 = f64[4]{0} multiply(add.9508.3.clone.1, bitcast.16151.18.clone.1), metadata={op_name="jit(while)/jit(main)/while/body/jit(update)/cond/branch_0_fun/transpose(jvp(vmap(while)))/body/jit(beliefs_propagation)/jit(continuous_node_prediction)/mul" source_file="/fs04/fc37/adam/projects/psilocybin-prl-analyses/src/prl_hgf/fitting/hierarchical_patrl.py" source_line=362}
  negate.1723.7.clone.1 = f64[4]{0} negate(multiply.11323.9.clone.1), metadata={op_name="jit(while)/jit(main)/while/body/jit(update)/cond/branch_0_fun/transpose(jvp(vmap(while)))/body/jit(beliefs_propagation)/jit(continuous_node_prediction)/neg" source_file="/fs04/fc37/adam/projects/psilocybin-prl-analyses/src/prl_hgf/fitting/hierarchical_patrl.py" source_line=362}
  add.9509.5.clone.1 = f64[4]{0} add(negate.1722.7.clone.1, negate.1723.7.clone.1), metadata={op_name="jit(while)/jit(main)/while/body/jit(update)/cond/branch_0_fun/transpose(jvp(vmap(while)))/body/jit(beliefs_propagation)/jit(continuous_node_prediction)/add_any" source_file="/fs04/fc37/adam/projects/psilocybin-prl-analyses/src/prl_hgf/fitting/hierarchical_patrl.py" source_line=362}
  add.9510.3.clone.1 = f64[4]{0} add(param_25.593, add.9509.5.clone.1), metadata={op_name="jit(while)/jit(main)/while/body/jit(update)/cond/branch_0_fun/transpose(jvp(vmap(while)))/body/jit(beliefs_propagation)/add_any" source_file="/fs04/fc37/adam/projects/psilocybin-prl-analyses/src/prl_hgf/fitting/hierarchical_patrl.py" source_line=362}
  add.9511.1.clone.1 = f64[4]{0} add(select.8920.3.clone.1, add.9510.3.clone.1), metadata={op_name="jit(while)/jit(main)/while/body/jit(update)/while/body/cond/branch_0_fun/transpose(jvp(vmap(while)))/body/add_any" source_file="/fs04/fc37/adam/projects/psilocybin-prl-analyses/src/prl_hgf/fitting/hierarchical_patrl.py" source_line=362}
  select.8926.1.clone.1 = f64[4]{0} select(bitcast.15457.29, broadcast.4924.clone.83, param_19.550), metadata={op_name="jit(while)/jit(main)/while/body/jit(update)/cond/branch_0_fun/transpose(jvp(vmap(while)))/body/jit(_where)/select_n" source_file="/fs04/fc37/adam/projects/psilocybin-prl-analyses/src/prl_hgf/env/pat_rl_simulator.py" source_line=92}
  param_43.24 = pred[192,4,1]{2,1,0} parameter(43)
  dynamic-slice.5315.1.clone.1 = pred[1,4,1]{2,1,0} dynamic-slice(param_43.24, select.8898.57, constant_5060_27, constant_5060_27), dynamic_slice_sizes={1,4,1}, metadata={op_name="jit(while)/jit(main)/while/body/jit(update)/while/body/cond/branch_0_fun/transpose(jvp(vmap(while)))/body/dynamic_slice[slice_sizes=(1, 4, 1)]" source_file="/fs04/fc37/adam/projects/psilocybin-prl-analyses/src/prl_hgf/fitting/hierarchical_patrl.py" source_line=378}
  bitcast.16608.10.clone.1 = pred[4,1]{1,0} bitcast(dynamic-slice.5315.1.clone.1)
  param_42.33 = f64[4,1]{1,0} parameter(42)
  broadcast.4930.clone.4.clone.1 = f64[4,1]{1,0} broadcast(constant_5062_21), dimensions={}
  select.8949.5.clone.1 = f64[4,1]{1,0} select(bitcast.16608.10.clone.1, param_42.33, broadcast.4930.clone.4.clone.1), metadata={op_name="jit(while)/jit(main)/while/body/jit(update)/cond/branch_0_fun/transpose(jvp(vmap(while)))/body/jit(_where)/select_n" source_file="/fs04/fc37/adam/projects/psilocybin-prl-analyses/src/prl_hgf/fitting/hierarchical_patrl.py" source_line=370}
  select.8950.5.clone.1 = f64[4,1]{1,0} select(bitcast.16608.10.clone.1, broadcast.4930.clone.4.clone.1, param_42.33), metadata={op_name="jit(while)/jit(main)/while/body/jit(update)/cond/branch_0_fun/transpose(jvp(vmap(while)))/body/jit(_where)/select_n" source_file="/fs04/fc37/adam/projects/psilocybin-prl-analyses/src/prl_hgf/fitting/hierarchical_patrl.py" source_line=370}
  add.9538.3.clone.1 = f64[4,1]{1,0} add(select.8949.5.clone.1, select.8950.5.clone.1), metadata={op_name="jit(while)/jit(main)/while/body/jit(update)/while/body/cond/branch_0_fun/transpose(jvp(vmap(while)))/body/add_any" source_file="/fs04/fc37/adam/projects/psilocybin-prl-analyses/src/prl_hgf/fitting/hierarchical_patrl.py" source_line=370}
  param_41.34 = pred[192,4,1]{2,1,0} parameter(41)
  dynamic-slice.5316.1.clone.1 = pred[1,4,1]{2,1,0} dynamic-slice(param_41.34, select.8898.57, constant_5060_27, constant_5060_27), dynamic_slice_sizes={1,4,1}, metadata={op_name="jit(while)/jit(main)/while/body/jit(update)/while/body/cond/branch_0_fun/transpose(jvp(vmap(while)))/body/dynamic_slice[slice_sizes=(1, 4, 1)]" source_file="/fs04/fc37/adam/projects/psilocybin-prl-analyses/src/prl_hgf/fitting/hierarchical_patrl.py" source_line=378}
  bitcast.16633.7.clone.1 = pred[4,1]{1,0} bitcast(dynamic-slice.5316.1.clone.1)
  param_40.58 = f64[192,4]{1,0} parameter(40)
  dynamic-slice.5317.12.clone.1 = f64[1,4]{1,0} dynamic-slice(param_40.58, select.8898.57, constant_5060_27), dynamic_slice_sizes={1,4}, metadata={op_name="jit(while)/jit(main)/while/body/jit(update)/while/body/cond/branch_0_fun/transpose(jvp(vmap(while)))/body/dynamic_slice[slice_sizes=(1, 4)]" source_file="/fs04/fc37/adam/projects/psilocybin-prl-analyses/src/prl_hgf/fitting/hierarchical_patrl.py" source_line=378}
  bitcast.16644.42.clone.1 = f64[4]{0} bitcast(dynamic-slice.5317.12.clone.1)
  multiply.11341.15.clone.1 = f64[4]{0} multiply(multiply.11310.9.clone.1, bitcast.16644.42.clone.1), metadata={op_name="jit(while)/jit(main)/while/body/jit(update)/cond/branch_0_fun/transpose(jvp(vmap(while)))/body/jit(beliefs_propagation)/jit(continuous_node_posterior_update_ehgf)/jit(posterior_update_precision_continuous_node)/jit(precision_update)/mul" source_file="/fs04/fc37/adam/projects/psilocybin-prl-analyses/src/prl_hgf/fitting/hierarchical_patrl.py" source_line=362}
  multiply.11342.13.clone.1 = f64[4]{0} multiply(multiply.11341.15.clone.1, broadcast.4927.clone.25.clone.1), metadata={op_name="jit(while)/jit(main)/while/body/jit(update)/cond/branch_0_fun/transpose(jvp(vmap(while)))/body/jit(beliefs_propagation)/jit(continuous_node_posterior_update_ehgf)/jit(posterior_update_precision_continuous_node)/jit(precision_update)/mul" source_file="/fs04/fc37/adam/projects/psilocybin-prl-analyses/src/prl_hgf/fitting/hierarchical_patrl.py" source_line=362}
  param_39.110 = f64[192,4]{1,0} parameter(39)
  dynamic-slice.5318.11.clone.1 = f64[1,4]{1,0} dynamic-slice(param_39.110, select.8898.57, constant_5060_27), dynamic_slice_sizes={1,4}, metadata={op_name="jit(while)/jit(main)/while/body/jit(update)/while/body/cond/branch_0_fun/transpose(jvp(vmap(while)))/body/dynamic_slice[slice_sizes=(1, 4)]" source_file="/fs04/fc37/adam/projects/psilocybin-prl-analyses/src/prl_hgf/fitting/hierarchical_patrl.py" source_line=378}
  bitcast.16657.11.clone.1 = f64[4]{0} bitcast(dynamic-slice.5318.11.clone.1)
  multiply.11343.11.clone.1 = f64[4]{0} multiply(multiply.11342.13.clone.1, bitcast.16657.11.clone.1), metadata={op_name="jit(while)/jit(main)/while/body/jit(update)/cond/branch_0_fun/transpose(jvp(vmap(while)))/body/jit(beliefs_propagation)/jit(continuous_node_posterior_update_ehgf)/jit(posterior_update_precision_continuous_node)/jit(precision_update)/mul" source_file="/fs04/fc37/adam/projects/psilocybin-prl-analyses/src/prl_hgf/fitting/hierarchical_patrl.py" source_line=362}
  multiply.11344.11.clone.1 = f64[4]{0} multiply(multiply.11313.9.clone.1, bitcast.16644.42.clone.1), metadata={op_name="jit(while)/jit(main)/while/body/jit(update)/cond/branch_0_fun/transpose(jvp(vmap(while)))/body/jit(beliefs_propagation)/jit(continuous_node_posterior_update_ehgf)/jit(posterior_update_precision_continuous_node)/jit(precision_update)/mul" source_file="/fs04/fc37/adam/projects/psilocybin-prl-analyses/src/prl_hgf/fitting/hierarchical_patrl.py" source_line=362}
  add.9539.9.clone.1 = f64[4]{0} add(multiply.11343.11.clone.1, multiply.11344.11.clone.1), metadata={op_name="jit(while)/jit(main)/while/body/jit(update)/cond/branch_0_fun/transpose(jvp(vmap(while)))/body/jit(beliefs_propagation)/jit(continuous_node_posterior_update_ehgf)/jit(posterior_update_precision_continuous_node)/jit(precision_update)/add_any" source_file="/fs04/fc37/adam/projects/psilocybin-prl-analyses/src/prl_hgf/fitting/hierarchical_patrl.py" source_line=362}
  multiply.11345.9.clone.1 = f64[4]{0} multiply(multiply.11316.9.clone.1, bitcast.16644.42.clone.1), metadata={op_name="jit(while)/jit(main)/while/body/jit(update)/cond/branch_0_fun/transpose(jvp(vmap(while)))/body/jit(beliefs_propagation)/jit(continuous_node_posterior_update_ehgf)/jit(posterior_update_precision_continuous_node)/jit(precision_update)/mul" source_file="/fs04/fc37/adam/projects/psilocybin-prl-analyses/src/prl_hgf/fitting/hierarchical_patrl.py" source_line=362}
  add.9540.7.clone.1 = f64[4]{0} add(add.9539.9.clone.1, multiply.11345.9.clone.1), metadata={op_name="jit(while)/jit(main)/while/body/jit(update)/cond/branch_0_fun/transpose(jvp(vmap(while)))/body/jit(beliefs_propagation)/jit(continuous_node_posterior_update_ehgf)/jit(posterior_update_precision_continuous_node)/jit(precision_update)/add_any" source_file="/fs04/fc37/adam/projects/psilocybin-prl-analyses/src/prl_hgf/fitting/hierarchical_patrl.py" source_line=362}
  bitcast.16676.7.clone.1 = f64[4,1]{1,0} bitcast(add.9540.7.clone.1)
  select.8951.7.clone.1 = f64[4,1]{1,0} select(bitcast.16633.7.clone.1, bitcast.16676.7.clone.1, broadcast.4930.clone.4.clone.1), metadata={op_name="jit(while)/jit(main)/while/body/jit(update)/cond/branch_0_fun/transpose(jvp(vmap(while)))/body/jit(beliefs_propagation)/jit(continuous_node_posterior_update_ehgf)/jit(posterior_update_precision_continuous_node)/select_n" source_file="/fs04/fc37/adam/projects/psilocybin-prl-analyses/src/prl_hgf/fitting/hierarchical_patrl.py" source_line=362}
  multiply.11346.7.clone.1 = f64[4]{0} multiply(multiply.11318.9.clone.1, bitcast.16644.42.clone.1), metadata={op_name="jit(while)/jit(main)/while/body/jit(update)/cond/branch_0_fun/transpose(jvp(vmap(while)))/body/jit(beliefs_propagation)/jit(continuous_node_posterior_update_ehgf)/jit(posterior_update_mean_continuous_node)/mul" source_file="/fs04/fc37/adam/projects/psilocybin-prl-analyses/src/prl_hgf/fitting/hierarchical_patrl.py" source_line=362}
  bitcast.16688.5.clone.1 = f64[4,1]{1,0} bitcast(multiply.11346.7.clone.1)
  add.9541.5.clone.1 = f64[4,1]{1,0} add(select.8951.7.clone.1, bitcast.16688.5.clone.1), metadata={op_name="jit(while)/jit(main)/while/body/jit(update)/cond/branch_0_fun/transpose(jvp(vmap(while)))/body/jit(beliefs_propagation)/jit(continuous_node_posterior_update_ehgf)/add_any" source_file="/fs04/fc37/adam/projects/psilocybin-prl-analyses/src/prl_hgf/fitting/hierarchical_patrl.py" source_line=362}
  param_38.110 = f64[4,1]{1,0} parameter(38)
  add.9542.3.clone.1 = f64[4,1]{1,0} add(add.9541.5.clone.1, param_38.110), metadata={op_name="jit(while)/jit(main)/while/body/jit(update)/cond/branch_0_fun/transpose(jvp(vmap(while)))/body/jit(beliefs_propagation)/add_any" source_file="/fs04/fc37/adam/projects/psilocybin-prl-analyses/src/prl_hgf/fitting/hierarchical_patrl.py" source_line=362}
  add.9543.1.clone.1 = f64[4,1]{1,0} add(add.9538.3.clone.1, add.9542.3.clone.1), metadata={op_name="jit(while)/jit(main)/while/body/jit(update)/while/body/cond/branch_0_fun/transpose(jvp(vmap(while)))/body/add_any" source_file="/fs04/fc37/adam/projects/psilocybin-prl-analyses/src/prl_hgf/fitting/hierarchical_patrl.py" source_line=362}
  param_60.21 = f64[4]{0} parameter(60)
  param_61.16 = f64[192,4]{1,0} parameter(61)
  dynamic-slice.5266.5.clone.1 = f64[1,4]{1,0} dynamic-slice(param_61.16, select.8898.57, constant_5060_27), dynamic_slice_sizes={1,4}, metadata={op_name="jit(while)/jit(main)/while/body/jit(update)/while/body/cond/branch_0_fun/transpose(jvp(vmap(while)))/body/dynamic_slice[slice_sizes=(1, 4)]" source_file="/fs04/fc37/adam/projects/psilocybin-prl-analyses/src/prl_hgf/fitting/hierarchical_patrl.py" source_line=378}
  bitcast.15524.5.clone.1 = f64[4]{0} bitcast(dynamic-slice.5266.5.clone.1)
  add.9471.5.clone.1 = f64[4]{0} add(param_60.21, bitcast.15524.5.clone.1), metadata={op_name="jit(while)/jit(main)/while/body/jit(update)/while/body/cond/branch_0_fun/transpose(jvp(vmap(while)))/body/add_any" source_file="/fs04/fc37/adam/projects/psilocybin-prl-analyses/src/prl_hgf/fitting/hierarchical_patrl.py" source_line=378}
  select.8905.3.clone.1 = f64[4]{0} select(bitcast.15457.29, broadcast.4924.clone.83, add.9471.5.clone.1), metadata={op_name="jit(while)/jit(main)/while/body/jit(update)/cond/branch_0_fun/transpose(jvp(vmap(while)))/body/jit(_where)/select_n" source_file="/fs04/fc37/adam/projects/psilocybin-prl-analyses/src/prl_hgf/env/pat_rl_simulator.py" source_line=92}
  param_59.17 = f64[4]{0} parameter(59)
  select.8915.5.clone.1 = f64[4]{0} select(bitcast.15457.29, param_59.17, broadcast.4924.clone.83), metadata={op_name="jit(while)/jit(main)/while/body/jit(update)/cond/branch_0_fun/transpose(jvp(vmap(while)))/body/jit(_where)/select_n" source_file="/fs04/fc37/adam/projects/psilocybin-prl-analyses/src/prl_hgf/env/pat_rl_simulator.py" source_line=92}
  param_58.15 = f64[4]{0} parameter(58)
  select.8914.5.clone.1 = f64[4]{0} select(bitcast.15457.29, param_58.15, broadcast.4924.clone.83), metadata={op_name="jit(while)/jit(main)/while/body/jit(update)/cond/branch_0_fun/transpose(jvp(vmap(while)))/body/jit(_where)/select_n" source_file="/fs04/fc37/adam/projects/psilocybin-prl-analyses/src/prl_hgf/env/pat_rl_simulator.py" source_line=92}
  multiply.11294.7.clone.1 = f64[4]{0} multiply(bitcast.15707.21.clone.1, add.9475.7.clone.1), metadata={op_name="jit(while)/jit(main)/while/body/jit(update)/cond/branch_0_fun/transpose(jvp(vmap(while)))/body/jit(beliefs_propagation)/jit(continuous_node_prediction_error)/jit(continuous_node_volatility_prediction_error)/mul" source_file="/fs04/fc37/adam/projects/psilocybin-prl-analyses/src/prl_hgf/fitting/hierarchical_patrl.py" source_line=362}
  param_57.15 = f64[192,4]{1,0} parameter(57)
  dynamic-slice.5281.5.clone.1 = f64[1,4]{1,0} dynamic-slice(param_57.15, select.8898.57, constant_5060_27), dynamic_slice_sizes={1,4}, metadata={op_name="jit(while)/jit(main)/while/body/jit(update)/while/body/cond/branch_0_fun/transpose(jvp(vmap(while)))/body/dynamic_slice[slice_sizes=(1, 4)]" source_file="/fs04/fc37/adam/projects/psilocybin-prl-analyses/src/prl_hgf/fitting/hierarchical_patrl.py" source_line=378}
  bitcast.15744.5.clone.1 = f64[4]{0} bitcast(dynamic-slice.5281.5.clone.1)
  multiply.11295.5.clone.1 = f64[4]{0} multiply(multiply.11294.7.clone.1, bitcast.15744.5.clone.1), metadata={op_name="jit(while)/jit(main)/while/body/jit(update)/cond/branch_0_fun/transpose(jvp(vmap(while)))/body/jit(beliefs_propagation)/jit(continuous_node_prediction_error)/jit(continuous_node_volatility_prediction_error)/mul" source_file="/fs04/fc37/adam/projects/psilocybin-prl-analyses/src/prl_hgf/fitting/hierarchical_patrl.py" source_line=362}
  add.9478.3.clone.1 = f64[4]{0} add(select.8914.5.clone.1, multiply.11295.5.clone.1), metadata={op_name="jit(while)/jit(main)/while/body/jit(update)/cond/branch_0_fun/transpose(jvp(vmap(while)))/body/jit(beliefs_propagation)/jit(continuous_node_prediction_error)/add_any" source_file="/fs04/fc37/adam/projects/psilocybin-prl-analyses/src/prl_hgf/fitting/hierarchical_patrl.py" source_line=362}
  negate.1717.3.clone.1 = f64[4]{0} negate(add.9478.3.clone.1), metadata={op_name="jit(while)/jit(main)/while/body/jit(update)/cond/branch_0_fun/transpose(jvp(vmap(while)))/body/jit(beliefs_propagation)/jit(continuous_node_prediction_error)/jit(continuous_node_value_prediction_error)/neg" source_file="/fs04/fc37/adam/projects/psilocybin-prl-analyses/src/prl_hgf/fitting/hierarchical_patrl.py" source_line=362}
  add.9481.3.clone.1 = f64[4]{0} add(select.8915.5.clone.1, negate.1717.3.clone.1), metadata={op_name="jit(while)/jit(main)/while/body/jit(update)/cond/branch_0_fun/transpose(jvp(vmap(while)))/body/jit(beliefs_propagation)/add_any" source_file="/fs04/fc37/adam/projects/psilocybin-prl-analyses/src/prl_hgf/fitting/hierarchical_patrl.py" source_line=362}
  select.8913.5.clone.1 = f64[4]{0} select(bitcast.15457.29, add.9471.5.clone.1, broadcast.4924.clone.83), metadata={op_name="jit(while)/jit(main)/while/body/jit(update)/cond/branch_0_fun/transpose(jvp(vmap(while)))/body/jit(_where)/select_n" source_file="/fs04/fc37/adam/projects/psilocybin-prl-analyses/src/prl_hgf/env/pat_rl_simulator.py" source_line=92}
  add.9479.3.clone.1 = f64[4]{0} add(select.8913.5.clone.1, add.9478.3.clone.1), metadata={op_name="jit(while)/jit(main)/while/body/jit(update)/cond/branch_0_fun/transpose(jvp(vmap(while)))/body/jit(beliefs_propagation)/add_any" source_file="/fs04/fc37/adam/projects/psilocybin-prl-analyses/src/prl_hgf/fitting/hierarchical_patrl.py" source_line=362}
  add.9483.3.clone.1 = f64[4]{0} add(add.9479.3.clone.1, param_3.5577), metadata={op_name="jit(while)/jit(main)/while/body/jit(update)/cond/branch_0_fun/transpose(jvp(vmap(while)))/body/jit(beliefs_propagation)/jit(continuous_node_posterior_update)/add_any" source_file="/fs04/fc37/adam/projects/psilocybin-…
  get-tuple-element.62017 = f64[192,4]{1,0} get-tuple-element(call.21), index=10
  get-tuple-element.62018 = f64[192,4]{1,0} get-tuple-element(call.21), index=11
  get-tuple-element.62019 = f64[192,4]{1,0} get-tuple-element(call.21), index=12
  get-tuple-element.62020 = f64[192,4]{1,0} get-tuple-element(call.21), index=13
  get-tuple-element.62021 = f64[192,4]{1,0} get-tuple-element(call.21), index=14
  get-tuple-element.62022 = pred[192,4]{1,0} get-tuple-element(call.21), index=15
  get-tuple-element.62023 = f64[192,4]{1,0} get-tuple-element(call.21), index=16
  get-tuple-element.62024 = f64[192,4]{1,0} get-tuple-element(call.21), index=17
  get-tuple-element.62025 = f64[192,4]{1,0} get-tuple-element(call.21), index=18
  get-tuple-element.62026 = f64[192,4]{1,0} get-tuple-element(call.21), index=19
  get-tuple-element.62027 = f64[192,4]{1,0} get-tuple-element(call.21), index=20
  get-tuple-element.62028 = f64[192,4]{1,0} get-tuple-element(call.21), index=21
  get-tuple-element.62029 = f64[192]{0} get-tuple-element(call.21), index=22
  get-tuple-element.62030 = f64[192,4]{1,0} get-tuple-element(call.21), index=23
  get-tuple-element.62031 = f64[192,4]{1,0} get-tuple-element(call.21), index=24
  get-tuple-element.62032 = s32[192]{0} get-tuple-element(call.21), index=25
  get-tuple-element.62033 = f64[192,4]{1,0} get-tuple-element(call.21), index=26
  get-tuple-element.62034 = f64[192,4]{1,0} get-tuple-element(call.21), index=27
  get-tuple-element.62035 = pred[192,4]{1,0} get-tuple-element(call.21), index=28
  get-tuple-element.62036 = f64[192,4]{1,0} get-tuple-element(call.21), index=29
  get-tuple-element.62037 = f64[192,4]{1,0} get-tuple-element(call.21), index=30
  get-tuple-element.62038 = f64[192,4]{1,0} get-tuple-element(call.21), index=31
  get-tuple-element.62039 = f64[192,4]{1,0} get-tuple-element(call.21), index=32
  get-tuple-element.62040 = f64[192,4]{1,0} get-tuple-element(call.21), index=33
  get-tuple-element.62041 = f64[192,4]{1,0} get-tuple-element(call.21), index=34
  get-tuple-element.62042 = f64[192,4]{1,0} get-tuple-element(call.21), index=35
  get-tuple-element.62043 = f64[192,4]{1,0} get-tuple-element(call.21), index=36
  get-tuple-element.62044 = f64[192,4]{1,0} get-tuple-element(call.21), index=37
  get-tuple-element.62045 = f64[192,4]{1,0} get-tuple-element(call.21), index=38
  get-tuple-element.62046 = f64[192,4]{1,0} get-tuple-element(call.21), index=39
  get-tuple-element.62047 = f64[192,4]{1,0} get-tuple-element(call.21), index=40
  get-tuple-element.62048 = f64[192,4]{1,0} get-tuple-element(call.21), index=41
  get-tuple-element.62049 = f64[192,4]{1,0} get-tuple-element(call.21), index=42
  get-tuple-element.62050 = f64[192,4]{1,0} get-tuple-element(call.21), index=43
  get-tuple-element.62051 = s32[192,4]{1,0} get-tuple-element(call.21), index=44
  get-tuple-element.62052 = pred[192,4]{1,0} get-tuple-element(call.21), index=45
  get-tuple-element.62053 = f64[192,4]{1,0} get-tuple-element(call.21), index=46
  get-tuple-element.62054 = f64[192,4]{1,0} get-tuple-element(call.21), index=47
  get-tuple-element.62055 = pred[192,4]{1,0} get-tuple-element(call.21), index=48
  get-tuple-element.62056 = pred[192,4,1]{2,1,0} get-tuple-element(call.21), index=49
  get-tuple-element.62057 = f64[192,4]{1,0} get-tuple-element(call.21), index=50
  get-tuple-element.62058 = f64[192,4]{1,0} get-tuple-element(call.21), index=51
  get-tuple-element.62059 = f64[192,4]{1,0} get-tuple-element(call.21), index=52
  get-tuple-element.62060 = f64[192,4]{1,0} get-tuple-element(call.21), index=53
  get-tuple-element.62061 = f64[192,4]{1,0} get-tuple-element(call.21), index=54
  get-tuple-element.62062 = pred[192,4]{1,0} get-tuple-element(call.21), index=55
  get-tuple-element.62063 = pred[192,4]{1,0} get-tuple-element(call.21), index=56
  get-tuple-element.62064 = pred[192,4,1]{2,1,0} get-tuple-element(call.21), index=57
  get-tuple-element.62065 = f64[4]{0} get-tuple-element(call.21), index=58
  get-tuple-element.62066 = f64[4]{0} get-tuple-element(call.21), index=59
  get-tuple-element.62067 = f64[4]{0} get-tuple-element(call.21), index=60
  get-tuple-element.62068 = f64[4]{0} get-tuple-element(call.21), index=61
  get-tuple-element.62069 = f64[4]{0} get-tuple-element(call.21), index=62
  get-tuple-element.62070 = f64[4]{0} get-tuple-element(call.21), index=63
  get-tuple-element.62071 = f64[4]{0} get-tuple-element(call.21), index=64
  get-tuple-element.62072 = f64[4]{0} get-tuple-element(call.21), index=65
  get-tuple-element.62073 = f64[4]{0} get-tuple-element(call.21), index=66
  get-tuple-element.62074 = f64[4]{0} get-tuple-element(call.21), index=67
  get-tuple-element.62075 = f64[4]{0} get-tuple-element(call.21), index=68
  get-tuple-element.62076 = f64[4]{0} get-tuple-element(call.21), index=69
  get-tuple-element.62077 = f64[4]{0} get-tuple-element(call.21), index=70
  get-tuple-element.62078 = f64[4]{0} get-tuple-element(call.21), index=71
  get-tuple-element.62079 = f64[4]{0} get-tuple-element(call.21), index=72
  get-tuple-element.62080 = f64[4]{0} get-tuple-element(call.21), index=73
  get-tuple-element.62081 = f64[4]{0} get-tuple-element(call.21), index=74
  get-tuple-element.62082 = f64[4]{0} get-tuple-element(call.21), index=75
  get-tuple-element.62083 = f64[4]{0} get-tuple-element(call.21), index=76
  get-tuple-element.62084 = s64[] get-tuple-element(call.21), index=77
  get-tuple-element.62085 = f64[4,1]{1,0} get-tuple-element(call.21), index=78
  tuple.2570 = (s64[], f64[4]{0}, f64[4]{0}, f64[4]{0}, f64[4]{0}, /*index=5*/f64[4]{0}, f64[4]{0}, f64[4]{0}, f64[4]{0}, f64[4]{0}, /*index=10*/f64[4]{0}, f64[4]{0}, f64[4]{0}, f64[4]{0}, f64[4]{0}, /*index=15*/f64[4]{0}, f64[4]{0}, f64[4]{0}, f64[4]{0}, f64[4]{0}, /*index=20*/f64[4]{0}, f64[4,1]{1,0}, f64[192,4]{1,0}, f64[192,4]{1,0}, f64[192,4]{1,0}, /*index=25*/f64[192,4]{1,0}, pred[192,4]{1,0}, f64[192,4]{1,0}, f64[192,4]{1,0}, f64[192,4]{1,0}, /*index=30*/f64[192,4]{1,0}, f64[192,4]{1,0}, f64[192,4]{1,0}, pred[192,4]{1,0}, f64[192,4]{1,0}, /*index=35*/f64[192,4]{1,0}, f64[192,4]{1,0}, f64[192,4]{1,0}, f64[192,4]{1,0}, f64[192,4]{1,0}, /*index=40*/f64[192]{0}, f64[192,4]{1,0}, f64[192,4]{1,0}, s32[192]{0}, f64[192,4]{1,0}, /*index=45*/f64[192,4]{1,0}, pred[192,4]{1,0}, f64[192,4]{1,0}, f64[192,4]{1,0}, f64[192,4]{1,0}, /*index=50*/f64[192,4]{1,0}, f64[192,4]{1,0}, f64[192,4]{1,0}, f64[192,4]{1,0}, f64[192,4]{1,0}, /*index=55*/f64[192,4]{1,0}, f64[192,4]{1,0}, f64[192,4]{1,0}, f64[192,4]{1,0}, f64[192,4]{1,0}, /*index=60*/f64[192,4]{1,0}, f64[192,4]{1,0}, s32[192,4]{1,0}, pred[192,4]{1,0}, f64[192,4]{1,0}, /*index=65*/f64[192,4]{1,0}, pred[192,4]{1,0}, pred[192,4,1]{2,1,0}, f64[192,4]{1,0}, f64[192,4]{1,0}, /*index=70*/f64[192,4]{1,0}, f64[192,4]{1,0}, f64[192,4]{1,0}, pred[192,4]{1,0}, pred[192,4]{1,0}, /*index=75*/pred[192,4,1]{2,1,0}) tuple(get-tuple-element.62084, get-tuple-element.61930, get-tuple-element.62065, get-tuple-element.62066, get-tuple-element.62067, /*index=5*/get-tuple-element.62068, get-tuple-element.62069, get-tuple-element.62070, get-tuple-element.62071, get-tuple-element.62072, /*index=10*/get-tuple-element.62073, get-tuple-element.62074, get-tuple-element.62075, get-tuple-element.62076, get-tuple-element.62077, /*index=15*/get-tuple-element.62078, get-tuple-element.62079, get-tuple-element.62080, get-tuple-element.62081, get-tuple-element.62082, /*index=20*/get-tuple-element.62083, get-tuple-element.62085, get-tuple-element.62011, get-tuple-element.62012, get-tuple-element.62013, /*index=25*/get-tuple-element.62014, get-tuple-element.62015, get-tuple-element.62016, get-tuple-element.62017, get-tuple-element.62018, /*index=30*/get-tuple-element.62019, get-tuple-element.62020, get-tuple-element.62021, get-tuple-element.62022, get-tuple-element.62023, /*index=35*/get-tuple-element.62024, get-tuple-element.62025, get-tuple-element.62026, get-tuple-element.62027, get-tuple-element.62028, /*index=40*/get-tuple-element.62029, get-tuple-element.62030, get-tuple-element.62031, get-tuple-element.62032, get-tuple-element.62033, /*index=45*/get-tuple-element.62034, get-tuple-element.62035, get-tuple-element.62036, get-tuple-element.62037, get-tuple-element.62038, /*index=50*/get-tuple-element.62039, get-tuple-element.62040, get-tuple-element.62041, get-tuple-element.62042, get-tuple-element.62043, /*index=55*/get-tuple-element.62044, get-tuple-element.62045, get-tuple-element.62046, get-tuple-element.62047, get-tuple-element.62048, /*index=60*/get-tuple-element.62049, get-tuple-element.62050, get-tuple-element.62051, get-tuple-element.62052, get-tuple-element.62053, /*index=65*/get-tuple-element.62054, get-tuple-element.62055, get-tuple-element.62056, get-tuple-element.62057, get-tuple-element.62058, /*index=70*/get-tuple-element.62059, get-tuple-element.62060, get-tuple-element.62061, get-tuple-element.62062, get-tuple-element.62063, /*index=75*/get-tuple-element.62064)
  while.178.0 = (s64[], f64[4]{0}, f64[4]{0}, f64[4]{0}, f64[4]{0}, /*index=5*/f64[4]{0}, f64[4]{0}, f64[4]{0}, f64[4]{0}, f64[4]{0}, /*index=10*/f64[4]{0}, f64[4]{0}, f64[4]{0}, f64[4]{0}, f64[4]{0}, /*index=15*/f64[4]{0}, f64[4]{0}, f64[4]{0}, f64[4]{0}, f64[4]{0}, /*index=20*/f64[4]{0}, f64[4,1]{1,0}, f64[192,4]{1,0}, f64[192,4]{1,0}, f64[192,4]{1,0}, /*index=25*/f64[192,4]{1,0}, pred[192,4]{1,0}, f64[192,4]{1,0}, f64[192,4]{1,0}, f64[192,4]{1,0}, /*index=30*/f64[192,4]{1,0}, f64[192,4]{1,0}, f64[192,4]{1,0}, pred[192,4]{1,0}, f64[192,4]{1,0}, /*index=35*/f64[192,4]{1,0}, f64[192,4]{1,0}, f64[192,4]{1,0}, f64[192,4]{1,0}, f64[192,4]{1,0}, /*index=40*/f64[192]{0}, f64[192,4]{1,0}, f64[192,4]{1,0}, s32[192]{0}, f64[192,4]{1,0}, /*index=45*/f64[192,4]{1,0}, pred[192,4]{1,0}, f64[192,4]{1,0}, f64[192,4]{1,0}, f64[192,4]{1,0}, /*index=50*/f64[192,4]{1,0}, f64[192,4]{1,0}, f64[192,4]{1,0}, f64[192,4]{1,0}, f64[192,4]{1,0}, /*index=55*/f64[192,4]{1,0}, f64[192,4]{1,0}, f64[192,4]{1,0}, f64[192,4]{1,0}, f64[192,4]{1,0}, /*index=60*/f64[192,4]{1,0}, f64[192,4]{1,0}, s32[192,4]{1,0}, pred[192,4]{1,0}, f64[192,4]{1,0}, /*index=65*/f64[192,4]{1,0}, pred[192,4]{1,0}, pred[192,4,1]{2,1,0}, f64[192,4]{1,0}, f64[192,4]{1,0}, /*index=70*/f64[192,4]{1,0}, f64[192,4]{1,0}, f64[192,4]{1,0}, pred[192,4]{1,0}, pred[192,4]{1,0}, /*index=75*/pred[192,4,1]{2,1,0}) while(tuple.2570), condition=region_62.12021.clone.clone.clone.clone.clone.clone.clone.clone.clone.clone.clone.clone.clone.clone.clone.clone.clone.clone.clone, body=region_39.6431.clone.clone.clone.clone.clone.clone.clone.clone.clone.clone.clone.clone.clone.clone.clone.clone.clone.clone, metadata={op_name="jit(while)/jit(main)/while/body/jit(update)/cond/branch_0_fun/while[cond_nconsts=0 body_nconsts=118]" source_file="/fs04/fc37/adam/projects/psilocybin-prl-analyses/src/prl_hgf/fitting/hierarchical_patrl.py" source_line=378}, backend_config={"known_trip_count":{"n":"192"}}
  get-tuple-element.11846.0 = f64[4,1]{1,0} get-tuple-element(while.178.0), index=21, metadata={op_name="jit(while)/jit(main)/while/body/jit(update)/cond/branch_0_fun/while[cond_nconsts=0 body_nconsts=118]" source_file="/fs04/fc37/adam/projects/psilocybin-prl-analyses/src/prl_hgf/fitting/hierarchical_patrl.py" source_line=378}
  get-tuple-element.11847.0 = f64[4]{0} get-tuple-element(while.178.0), index=16, metadata={op_name="jit(while)/jit(main)/while/body/jit(update)/cond/branch_0_fun/while[cond_nconsts=0 body_nconsts=118]" source_file="/fs04/fc37/adam/projects/psilocybin-prl-analyses/src/prl_hgf/fitting/hierarchical_patrl.py" source_line=378}
  get-tuple-element.59436 = f64[4]{0} get-tuple-element(get-tuple-element.62010), index=1, metadata={op_name="jit(while)/jit(main)/while/body/jit(update)/cond/branch_0_fun/mul" source_file="/fs04/fc37/adam/projects/psilocybin-prl-analyses/src/prl_hgf/models/response_patrl.py" source_line=154}
  call.22 = (f64[], pred[], f64[4]{0}, f64[4]{0}, f64[4]{0}, /*index=5*/f64[4]{0}, f64[4]{0}, f64[4]{0}, f64[4]{0}, f64[4]{0}, /*index=10*/f64[4]{0}, f64[4]{0}, f64[4]{0}, f64[4]{0}, f64[], /*index=15*/f64[], f64[], f64[], f64[], f64[], /*index=20*/f64[], f64[], f64[], f64[], f64[], /*index=25*/f64[], f64[], pred[], f64[], s32[], /*index=30*/s32[], s64[], pred[]) call(get-tuple-element.61538, get-tuple-element.11846.0, get-tuple-element.61874, get-tuple-element.61873, get-tuple-element.61834, /*index=5*/get-tuple-element.61877, get-tuple-element.11847.0, get-tuple-element.61879, get-tuple-element.61828, get-tuple-element.61537, /*index=10*/get-tuple-element.59436, get-tuple-element.62008, while.178.0, get-tuple-element.61881, get-tuple-element.61883, /*index=15*/get-tuple-element.61838, get-tuple-element.61836, get-tuple-element.61884, get-tuple-element.61886, get-tuple-element.62010, /*index=20*/get-tuple-element.61539, get-tuple-element.62007, get-tuple-element.61832, get-tuple-element.62009, get-tuple-element.61875, /*index=25*/arg_tuple.22.0, get-tuple-element.61830, get-tuple-element.61878, get-tuple-element.61885, get-tuple-element.61882, /*index=30*/constant_2497_0, constant_2458_0, constant_2480_0), to_apply=command_buffer.10
  get-tuple-element.62125 = f64[] get-tuple-element(call.22), index=0
  get-tuple-element.62126 = pred[] get-tuple-element(call.22), index=1
  get-tuple-element.62127 = f64[4]{0} get-tuple-element(call.22), index=2
  get-tuple-element.62128 = f64[4]{0} get-tuple-element(call.22), index=3
  get-tuple-element.62129 = f64[4]{0} get-tuple-element(call.22), index=4
  get-tuple-element.62130 = f64[4]{0} get-tuple-element(call.22), index=5
  get-tuple-element.62131 = f64[4]{0} get-tuple-element(call.22), index=6
  get-tuple-element.62132 = f64[4]{0} get-tuple-element(call.22), index=7
  get-tuple-element.62133 = f64[4]{0} get-tuple-element(call.22), index=8
  get-tuple-element.62134 = f64[4]{0} get-tuple-element(call.22), index=9
  get-tuple-element.62135 = f64[4]{0} get-tuple-element(call.22), index=10
  get-tuple-element.62136 = f64[4]{0} get-tuple-element(call.22), index=11
  get-tuple-element.62137 = f64[4]{0} get-tuple-element(call.22), index=12
  get-tuple-element.62138 = f64[4]{0} get-tuple-element(call.22), index=13
  get-tuple-element.62139 = f64[] get-tuple-element(call.22), index=14
  get-tuple-element.62140 = f64[] get-tuple-element(call.22), index=15
  get-tuple-element.62141 = f64[] get-tuple-element(call.22), index=16
  get-tuple-element.62142 = f64[] get-tuple-element(call.22), index=17
  get-tuple-element.62143 = f64[] get-tuple-element(call.22), index=18
  get-tuple-element.62144 = f64[] get-tuple-element(call.22), index=19
  get-tuple-element.62145 = f64[] get-tuple-element(call.22), index=20
  get-tuple-element.62146 = f64[] get-tuple-element(call.22), index=21
  get-tuple-element.62147 = f64[] get-tuple-element(call.22), index=22
  get-tuple-element.62148 = f64[] get-tuple-element(call.22), index=23
  get-tuple-element.62149 = f64[] get-tuple-element(call.22), index=24
  get-tuple-element.62150 = f64[] get-tuple-element(call.22), index=25
  get-tuple-element.62151 = f64[] get-tuple-element(call.22), index=26
  get-tuple-element.62152 = pred[] get-tuple-element(call.22), index=27
  get-tuple-element.62153 = f64[] get-tuple-element(call.22), index=28
  get-tuple-element.62154 = s32[] get-tuple-element(call.22), index=29
  get-tuple-element.62155 = s32[] get-tuple-element(call.22), index=30
  get-tuple-element.62156 = s64[] get-tuple-element(call.22), index=31
  get-tuple-element.62157 = pred[] get-tuple-element(call.22), index=32
  tuple.2573 = (s64[], f64[], s64[], f64[4]{0}, f64[4]{0}, /*index=5*/f64[4]{0}, f64[4]{0}, f64[4]{0}, f64[4]{0}, f64[], /*index=10*/f64[4]{0}, f64[4]{0}, f64[4]{0}, f64[4]{0}, f64[4]{0}, /*index=15*/f64[4]{0}, s32[], s32[], pred[], pred[], /*index=20*/pred[], f64[], f64[], f64[], f64[], /*index=25*/f64[], f64[], f64[], f64[], f64[], /*index=30*/f64[], f64[], f64[], f64[4]{0}, f64[4]{0}, /*index=35*/f64[4]{0}, f64[4]{0}, f64[4]{0}, f64[4]{0}, f64[], /*index=40*/f64[]) tuple(get-tuple-element.61840, get-tuple-element.61873, get-tuple-element.62156, get-tuple-element.62127, get-tuple-element.62129, /*index=5*/get-tuple-element.62131, get-tuple-element.62133, get-tuple-element.62135, get-tuple-element.62137, get-tuple-element.62151, /*index=10*/get-tuple-element.62128, get-tuple-element.62130, get-tuple-element.62132, get-tuple-element.62134, get-tuple-element.62136, /*index=15*/get-tuple-element.62138, get-tuple-element.62154, get-tuple-element.62155, get-tuple-element.62126, get-tuple-element.62157, /*index=20*/get-tuple-element.62152, get-tuple-element.62153, get-tuple-element.62139, get-tuple-element.62140, get-tuple-element.62146, /*index=25*/get-tuple-element.62143, get-tuple-element.62148, get-tuple-element.62142, get-tuple-element.62145, get-tuple-element.62150, /*index=30*/get-tuple-element.62147, get-tuple-element.62144, get-tuple-element.62149, get-tuple-element.61537, get-tuple-element.61538, /*index=35*/get-tuple-element.61539, get-tuple-element.61877, get-tuple-element.61884, get-tuple-element.61881, get-tuple-element.62125, /*index=40*/get-tuple-element.62141)
  while.38.0 = (s64[], f64[], s64[], f64[4]{0}, f64[4]{0}, /*index=5*/f64[4]{0}, f64[4]{0}, f64[4]{0}, f64[4]{0}, f64[], /*index=10*/f64[4]{0}, f64[4]{0}, f64[4]{0}, f64[4]{0}, f64[4]{0}, /*index=15*/f64[4]{0}, s32[], s32[], pred[], pred[], /*index=20*/pred[], f64[], f64[], f64[], f64[], /*index=25*/f64[], f64[], f64[], f64[], f64[], /*index=30*/f64[], f64[], f64[], f64[4]{0}, f64[4]{0}, /*index=35*/f64[4]{0}, f64[4]{0}, f64[4]{0}, f64[4]{0}, f64[], /*index=40*/f64[]) while(tuple.2573), condition=region_103.24495.clone, body=region_44.24385.clone, control-predecessors={call.18, call.20, call.21, call.22}, metadata={op_name="jit(while)/jit(main)/while/body/jit(update)/while[cond_nconsts=0 body_nconsts=8]" source_file="/fs04/fc37/adam/projects/psilocybin-prl-analyses/src/prl_hgf/fitting/fit_vb_laplace_patrl.py" source_line=332}
  get-tuple-element.61700 = f64[4]{0} get-tuple-element(while.38.0), index=3, metadata={op_name="jit(while)/jit(main)/while/body/jit(update)/while[cond_nconsts=0 body_nconsts=8]" source_file="/fs04/fc37/adam/projects/psilocybin-prl-analyses/src/prl_hgf/fitting/fit_vb_laplace_patrl.py" source_line=332}
  call.23 = (f64[10,4]{1,0}, f64[4]{0}, f64[10,4]{1,0}, f64[4]{0}, f64[10,4]{1,0}, /*index=5*/f64[4]{0}, f64[10,4]{1,0}, f64[4]{0}, f64[10,4]{1,0}, f64[4]{0}, /*index=10*/f64[10,4]{1,0}, f64[4]{0}, f64[10,4]{1,0}, f64[4]{0}, f64[10,4]{1,0}, /*index=15*/f64[4]{0}, f64[10,4]{1,0}, f64[4]{0}, f64[10,4]{1,0}, f64[4]{0}, /*index=20*/f64[10,4]{1,0}, f64[4]{0}, f64[10,4]{1,0}, f64[], f64[10]{0}, /*index=25*/f64[], f64[], s32[], s32[], s32[], /*index=30*/f64[], pred[], s64[]) call(constant_2598_0, get-tuple-element.61706, get-tuple-element.61698, get-tuple-element.61842, get-tuple-element.61700, /*index=5*/get-tuple-element.62008, while.38.0, get-tuple-element.61843, get-tuple-element.61874, get-tuple-element.61848, /*index=10*/get-tuple-element.61828, get-tuple-element.61849, get-tuple-element.61830, get-tuple-element.61844, get-tuple-element.62007, /*index=15*/get-tuple-element.61845, get-tuple-element.61878, get-tuple-element.61846, get-tuple-element.61885, get-tuple-element.61847, /*index=20*/get-tuple-element.61882, get-tuple-element.61850, get-tuple-element.61832, get-tuple-element.61851, get-tuple-element.61834, /*index=25*/get-tuple-element.61852, get-tuple-element.61836, get-tuple-element.61853, get-tuple-element.61838, get-tuple-element.61854, /*index=30*/arg_tuple.22.0), to_apply=command_buffer.12, control-predecessors={while.34.0, while.35.0, call.19, call.18}
  get-tuple-element.62199 = f64[10,4]{1,0} get-tuple-element(call.23), index=0
  get-tuple-element.62200 = f64[4]{0} get-tuple-element(call.23), index=1
  get-tuple-element.62201 = f64[10,4]{1,0} get-tuple-element(call.23), index=2
  get-tuple-element.62202 = f64[4]{0} get-tuple-element(call.23), index=3
  get-tuple-element.62203 = f64[10,4]{1,0} get-tuple-element(call.23), index=4
  get-tuple-element.62204 = f64[4]{0} get-tuple-element(call.23), index=5
  get-tuple-element.62205 = f64[10,4]{1,0} get-tuple-element(call.23), index=6
  get-tuple-element.62206 = f64[4]{0} get-tuple-element(call.23), index=7
  get-tuple-element.62207 = f64[10,4]{1,0} get-tuple-element(call.23), index=8
  get-tuple-element.62208 = f64[4]{0} get-tuple-element(call.23), index=9
  get-tuple-element.62209 = f64[10,4]{1,0} get-tuple-element(call.23), index=10
  get-tuple-element.62210 = f64[4]{0} get-tuple-element(call.23), index=11
  get-tuple-element.62211 = f64[10,4]{1,0} get-tuple-element(call.23), index=12
  get-tuple-element.62212 = f64[4]{0} get-tuple-element(call.23), index=13
  get-tuple-element.62213 = f64[10,4]{1,0} get-tuple-element(call.23), index=14
  get-tuple-element.62214 = f64[4]{0} get-tuple-element(call.23), index=15
  get-tuple-element.62215 = f64[10,4]{1,0} get-tuple-element(call.23), index=16
  get-tuple-element.62216 = f64[4]{0} get-tuple-element(call.23), index=17
  get-tuple-element.62217 = f64[10,4]{1,0} get-tuple-element(call.23), index=18
  get-tuple-element.62218 = f64[4]{0} get-tuple-element(call.23), index=19
  get-tuple-element.62219 = f64[10,4]{1,0} get-tuple-element(call.23), index=20
  get-tuple-element.62220 = f64[4]{0} get-tuple-element(call.23), index=21
  get-tuple-element.62221 = f64[10,4]{1,0} get-tuple-element(call.23), index=22
  get-tuple-element.62222 = f64[] get-tuple-element(call.23), index=23
  get-tuple-element.62223 = f64[10]{0} get-tuple-element(call.23), index=24
  get-tuple-element.62224 = f64[] get-tuple-element(call.23), index=25
  get-tuple-element.62225 = f64[] get-tuple-element(call.23), index=26
  get-tuple-element.62226 = s32[] get-tuple-element(call.23), index=27
  get-tuple-element.62227 = s32[] get-tuple-element(call.23), index=28
  get-tuple-element.62228 = s32[] get-tuple-element(call.23), index=29
  get-tuple-element.62229 = f64[] get-tuple-element(call.23), index=30
  get-tuple-element.62230 = pred[] get-tuple-element(call.23), index=31
  get-tuple-element.62231 = s64[] get-tuple-element(call.23), index=32
  get-tuple-element.61699 = s64[] get-tuple-element(arg_tuple.22.0), index=0
  ROOT tuple.2578 = (s64[], f64[4]{0}, f64[4]{0}, f64[4]{0}, f64[4]{0}, /*index=5*/f64[4]{0}, f64[4]{0}, s64[], f64[], f64[4]{0}, /*index=10*/f64[4]{0}, f64[4]{0}, f64[4]{0}, f64[4]{0}, f64[4]{0}, /*index=15*/f64[], f64[], f64[10,4]{1,0}, f64[10,4]{1,0}, f64[10,4]{1,0}, /*index=20*/f64[10,4]{1,0}, f64[10,4]{1,0}, f64[10,4]{1,0}, f64[10,4]{1,0}, f64[10,4]{1,0}, /*index=25*/f64[10,4]{1,0}, f64[10,4]{1,0}, f64[10,4]{1,0}, f64[10,4]{1,0}, f64[10]{0}, /*index=30*/f64[], pred[], s32[], s32[], s32[], /*index=35*/s64[]) tuple(get-tuple-element.61699, get-tuple-element.61700, get-tuple-element.62200, get-tuple-element.62206, get-tuple-element.62208, /*index=5*/get-tuple-element.62210, get-tuple-element.62212, get-tuple-element.61706, get-tuple-element.62225, get-tuple-element.62202, /*index=10*/get-tuple-element.62204, get-tuple-element.62214, get-tuple-element.62216, get-tuple-element.62218, get-tuple-element.62220, /*index=15*/get-tuple-element.62229, get-tuple-element.62224, get-tuple-element.62199, get-tuple-element.62201, get-tuple-element.62207, /*index=20*/get-tuple-element.62209, get-tuple-element.62211, get-tuple-element.62213, get-tuple-element.62203, get-tuple-element.62205, /*index=25*/get-tuple-element.62215, get-tuple-element.62217, get-tuple-element.62219, get-tuple-element.62221, get-tuple-element.62223, /*index=30*/get-tuple-element.62222, get-tuple-element.62230, get-tuple-element.62227, get-tuple-element.62228, get-tuple-element.62226, /*index=35*/get-tuple-element.62231)
} // region_0.26059.clone.clone

fused_and.1 {
  param_2.6823 = f64[] parameter(2)
  constant_2457_1 = f64[] constant(1e-05)
  compare.2763.1 = pred[] compare(param_2.6823, constant_2457_1), direction=GT, metadata={op_name="jit(while)/jit(main)/while/cond/gt" source_file="/fs04/fc37/adam/projects/psilocybin-prl-analyses/src/prl_hgf/fitting/fit_vb_laplace_patrl.py" source_line=332}
  param_0.5870 = s64[] parameter(0)
  param_1.8191 = s64[] parameter(1)
  add.10087.1 = s64[] add(param_0.5870, param_1.8191)
  constant_2456_1 = s64[] constant(198)
  compare.2764.1 = pred[] compare(add.10087.1, constant_2456_1), direction=LE, metadata={op_name="jit(while)/jit(main)/while/cond/le" source_file="/fs04/fc37/adam/projects/psilocybin-prl-analyses/src/prl_hgf/fitting/fit_vb_laplace_patrl.py" source_line=332}
  ROOT and.245.1 = pred[] and(compare.2763.1, compare.2764.1), metadata={op_name="jit(while)/jit(main)/while/cond/and" source_file="/fs04/fc37/adam/projects/psilocybin-prl-analyses/src/prl_hgf/fitting/fit_vb_laplace_patrl.py" source_line=332}
} // fused_and.1

region_123.26134.clone {
  arg_tuple.21.0 = (s64[], f64[4]{0}, f64[4]{0}, f64[4]{0}, f64[4]{0}, /*index=5*/f64[4]{0}, f64[4]{0}, s64[], f64[], f64[4]{0}, /*index=10*/f64[4]{0}, f64[4]{0}, f64[4]{0}, f64[4]{0}, f64[4]{0}, /*index=15*/f64[], f64[], f64[10,4]{1,0}, f64[10,4]{1,0}, f64[10,4]{1,0}, /*index=20*/f64[10,4]{1,0}, f64[10,4]{1,0}, f64[10,4]{1,0}, f64[10,4]{1,0}, f64[10,4]{1,0}, /*index=25*/f64[10,4]{1,0}, f64[10,4]{1,0}, f64[10,4]{1,0}, f64[10,4]{1,0}, f64[10]{0}, /*index=30*/f64[], pred[], s32[], s32[], s32[], /*index=35*/s64[]) parameter(0)
  get-tuple-element.11690.0 = f64[] get-tuple-element(arg_tuple.21.0), index=16
  get-tuple-element.11727.0 = s64[] get-tuple-element(arg_tuple.21.0), index=0
  get-tuple-element.11726.0 = s64[] get-tuple-element(arg_tuple.21.0), index=35
  ROOT loop_and_fusion.1 = pred[] fusion(get-tuple-element.11727.0, get-tuple-element.11726.0, get-tuple-element.11690.0), kind=kLoop, calls=fused_and.1, metadata={op_name="jit(while)/jit(main)/while/cond/and" source_file="/fs04/fc37/adam/projects/psilocybin-prl-analyses/src/prl_hgf/fitting/fit_vb_laplace_patrl.py" source_line=332}
}

fused_add.35 {
  param_0_0 = s64[] parameter(0)
  param_0_1 = s64[] parameter(1)
  add.10088.2 = s64[] add(param_0_0, param_0_1)
  param_1_0 = s64[] parameter(2)
  add.10089.2 = s64[] add(param_1_0, param_0_1)
  ROOT tuple.2484 = (s64[], s64[]) tuple(add.10088.2, add.10089.2)
} // fused_add.35

wrapped_copy_computation.2 {
  param_0.5918 = s64[] parameter(0)
  ROOT copy.1703 = s64[] copy(param_0.5918)
}

wrapped_copy_computation.1 {
  param_0.5917 = pred[] parameter(0)
  ROOT copy.1702 = pred[] copy(param_0.5917)
}

copy_horizontally_fused_computation {
  param_0_0.1 = s32[] parameter(0)
  copy.1642 = s32[] copy(param_0_0.1)
  param_1_0.1 = s32[] parameter(1)
  copy.1643 = s32[] copy(param_1_0.1)
  param_2_0 = s32[] parameter(2)
  copy.1644 = s32[] copy(param_2_0)
  ROOT tuple.2579 = (s32[], s32[], s32[]) tuple(copy.1642, copy.1643, copy.1644)
} // copy_horizontally_fused_computation

copy_horizontally_fused_computation.1 {
  param_0_0.2 = f64[] parameter(0)
  copy.1649 = f64[] copy(param_0_0.2)
  param_1_0.2 = f64[] parameter(1)
  copy.1650 = f64[] copy(param_1_0.2)
  param_2_0.1 = f64[] parameter(2)
  copy.1651 = f64[] copy(param_2_0.1)
  param_3_0 = f64[] parameter(3)
  copy.1652 = f64[] copy(param_3_0)
  ROOT tuple.2580 = (f64[], f64[], f64[], f64[]) tuple(copy.1649, copy.1650, copy.1651, copy.1652)
} // copy_horizontally_fused_computation.1

wrapped_copy_computation {
  param_0.5916 = f64[10]{0} parameter(0)
  ROOT copy.1701 = f64[10]{0} copy(param_0.5916)
}

copy_horizontally_fused_computation.2 {
  param_0_0.3 = f64[4]{0} parameter(0)
  copy.1665 = f64[4]{0} copy(param_0_0.3)
  param_1_0.3 = f64[4]{0} parameter(1)
  copy.1666 = f64[4]{0} copy(param_1_0.3)
  param_2_0.2 = f64[4]{0} parameter(2)
  copy.1667 = f64[4]{0} copy(param_2_0.2)
  param_3_0.1 = f64[4]{0} parameter(3)
  copy.1668 = f64[4]{0} copy(param_3_0.1)
  param_4_0 = f64[4]{0} parameter(4)
  copy.1669 = f64[4]{0} copy(param_4_0)
  param_5_0 = f64[4]{0} parameter(5)
  copy.1670 = f64[4]{0} copy(param_5_0)
  param_6_0 = f64[4]{0} parameter(6)
  copy.1671 = f64[4]{0} copy(param_6_0)
  param_7_0 = f64[4]{0} parameter(7)
  copy.1672 = f64[4]{0} copy(param_7_0)
  param_8_0 = f64[4]{0} parameter(8)
  copy.1673 = f64[4]{0} copy(param_8_0)
  param_9_0 = f64[4]{0} parameter(9)
  copy.1674 = f64[4]{0} copy(param_9_0)
  param_10_0 = f64[4]{0} parameter(10)
  copy.1675 = f64[4]{0} copy(param_10_0)
  param_11_0 = f64[4]{0} parameter(11)
  copy.1676 = f64[4]{0} copy(param_11_0)
  ROOT tuple.2581 = (f64[4]{0}, f64[4]{0}, f64[4]{0}, f64[4]{0}, f64[4]{0}, /*index=5*/f64[4]{0}, f64[4]{0}, f64[4]{0}, f64[4]{0}, f64[4]{0}, /*index=10*/f64[4]{0}, f64[4]{0}) tuple(copy.1665, copy.1666, copy.1667, copy.1668, copy.1669, /*index=5*/copy.1670, copy.1671, copy.1672, copy.1673, copy.1674, /*index=10*/copy.1675, copy.1676)
} // copy_horizontally_fused_computation.2

copy_horizontally_fused_computation.3 {
  param_0_0.4 = f64[10,4]{1,0} parameter(0)
  copy.1689 = f64[10,4]{1,0} copy(param_0_0.4)
  param_1_0.4 = f64[10,4]{1,0} parameter(1)
  copy.1690 = f64[10,4]{1,0} copy(param_1_0.4)
  param_2_0.3 = f64[10,4]{1,0} parameter(2)
  copy.1691 = f64[10,4]{1,0} copy(param_2_0.3)
  param_3_0.2 = f64[10,4]{1,0} parameter(3)
  copy.1692 = f64[10,4]{1,0} copy(param_3_0.2)
  param_4_0.1 = f64[10,4]{1,0} parameter(4)
  copy.1693 = f64[10,4]{1,0} copy(param_4_0.1)
  param_5_0.1 = f64[10,4]{1,0} parameter(5)
  copy.1694 = f64[10,4]{1,0} copy(param_5_0.1)
  param_6_0.1 = f64[10,4]{1,0} parameter(6)
  copy.1695 = f64[10,4]{1,0} copy(param_6_0.1)
  param_7_0.1 = f64[10,4]{1,0} parameter(7)
  copy.1696 = f64[10,4]{1,0} copy(param_7_0.1)
  param_8_0.1 = f64[10,4]{1,0} parameter(8)
  copy.1697 = f64[10,4]{1,0} copy(param_8_0.1)
  param_9_0.1 = f64[10,4]{1,0} parameter(9)
  copy.1698 = f64[10,4]{1,0} copy(param_9_0.1)
  param_10_0.1 = f64[10,4]{1,0} parameter(10)
  copy.1699 = f64[10,4]{1,0} copy(param_10_0.1)
  param_11_0.1 = f64[10,4]{1,0} parameter(11)
  copy.1700 = f64[10,4]{1,0} copy(param_11_0.1)
  ROOT tuple.2582 = (f64[10,4]{1,0}, f64[10,4]{1,0}, f64[10,4]{1,0}, f64[10,4]{1,0}, f64[10,4]{1,0}, /*index=5*/f64[10,4]{1,0}, f64[10,4]{1,0}, f64[10,4]{1,0}, f64[10,4]{1,0}, f64[10,4]{1,0}, /*index=10*/f64[10,4]{1,0}, f64[10,4]{1,0}) tuple(copy.1689, copy.1690, copy.1691, copy.1692, copy.1693, /*index=5*/copy.1694, copy.1695, copy.1696, copy.1697, copy.1698, /*index=10*/copy.1699, copy.1700)
} // copy_horizontally_fused_computation.3

command_buffer {
  p = s64[] parameter(0)
  p.1 = pred[] parameter(1)
  p.2 = s32[] parameter(2)
  p.3 = s32[] parameter(3)
  p.4 = s32[] parameter(4)
  p.5 = f64[] parameter(5)
  p.6 = f64[] parameter(6)
  p.7 = f64[] parameter(7)
  p.8 = f64[] parameter(8)
  p.9 = f64[10]{0} parameter(9)
  p.10 = f64[4]{0} parameter(10)
  p.11 = f64[4]{0} parameter(11)
  p.12 = f64[4]{0} parameter(12)
  p.13 = f64[4]{0} parameter(13)
  p.14 = f64[4]{0} parameter(14)
  p.15 = f64[4]{0} parameter(15)
  p.16 = f64[4]{0} parameter(16)
  p.17 = f64[4]{0} parameter(17)
  p.18 = f64[4]{0} parameter(18)
  p.19 = f64[4]{0} parameter(19)
  p.20 = f64[4]{0} parameter(20)
  p.21 = f64[4]{0} parameter(21)
  p.22 = f64[10,4]{1,0} parameter(22)
  p.23 = f64[10,4]{1,0} parameter(23)
  p.24 = f64[10,4]{1,0} parameter(24)
  p.25 = f64[10,4]{1,0} parameter(25)
  p.26 = f64[10,4]{1,0} parameter(26)
  p.27 = f64[10,4]{1,0} parameter(27)
  p.28 = f64[10,4]{1,0} parameter(28)
  p.29 = f64[10,4]{1,0} parameter(29)
  p.30 = f64[10,4]{1,0} parameter(30)
  p.31 = f64[10,4]{1,0} parameter(31)
  p.32 = f64[10,4]{1,0} parameter(32)
  p.33 = f64[10,4]{1,0} parameter(33)
  wrapped_copy.2 = s64[] fusion(p), kind=kLoop, calls=wrapped_copy_computation.2
  wrapped_copy.1 = pred[] fusion(p.1), kind=kLoop, calls=wrapped_copy_computation.1
  copy_fusion = (s32[], s32[], s32[]) fusion(p.2, p.3, p.4), kind=kLoop, calls=copy_horizontally_fused_computation
  get-tuple-element.61737 = s32[] get-tuple-element(copy_fusion), index=2
  bitcast.29774 = s32[] bitcast(get-tuple-element.61737)
  get-tuple-element.61736 = s32[] get-tuple-element(copy_fusion), index=1
  bitcast.29773 = s32[] bitcast(get-tuple-element.61736)
  get-tuple-element.61735 = s32[] get-tuple-element(copy_fusion), index=0
  bitcast.29772 = s32[] bitcast(get-tuple-element.61735)
  copy_fusion.1 = (f64[], f64[], f64[], f64[]) fusion(p.5, p.6, p.7, p.8), kind=kLoop, calls=copy_horizontally_fused_computation.1
  get-tuple-element.61741 = f64[] get-tuple-element(copy_fusion.1), index=3
  bitcast.29778 = f64[] bitcast(get-tuple-element.61741)
  get-tuple-element.61740 = f64[] get-tuple-element(copy_fusion.1), index=2
  bitcast.29777 = f64[] bitcast(get-tuple-element.61740)
  get-tuple-element.61739 = f64[] get-tuple-element(copy_fusion.1), index=1
  bitcast.29776 = f64[] bitcast(get-tuple-element.61739)
  get-tuple-element.61738 = f64[] get-tuple-element(copy_fusion.1), index=0
  bitcast.29775 = f64[] bitcast(get-tuple-element.61738)
  wrapped_copy = f64[10]{0} fusion(p.9), kind=kLoop, calls=wrapped_copy_computation
  copy_fusion.2 = (f64[4]{0}, f64[4]{0}, f64[4]{0}, f64[4]{0}, f64[4]{0}, /*index=5*/f64[4]{0}, f64[4]{0}, f64[4]{0}, f64[4]{0}, f64[4]{0}, /*index=10*/f64[4]{0}, f64[4]{0}) fusion(p.10, p.11, p.12, p.13, p.14, /*index=5*/p.15, p.16, p.17, p.18, p.19, /*index=10*/p.20, p.21), kind=kLoop, calls=copy_horizontally_fused_computation.2
  get-tuple-element.61753 = f64[4]{0} get-tuple-element(copy_fusion.2), index=11
  get-tuple-element.61752 = f64[4]{0} get-tuple-element(copy_fusion.2), index=10
  get-tuple-element.61751 = f64[4]{0} get-tuple-element(copy_fusion.2), index=9
  get-tuple-element.61750 = f64[4]{0} get-tuple-element(copy_fusion.2), index=8
  get-tuple-element.61749 = f64[4]{0} get-tuple-element(copy_fusion.2), index=7
  get-tuple-element.61748 = f64[4]{0} get-tuple-element(copy_fusion.2), index=6
  get-tuple-element.61747 = f64[4]{0} get-tuple-element(copy_fusion.2), index=5
  get-tuple-element.61746 = f64[4]{0} get-tuple-element(copy_fusion.2), index=4
  get-tuple-element.61745 = f64[4]{0} get-tuple-element(copy_fusion.2), index=3
  get-tuple-element.61744 = f64[4]{0} get-tuple-element(copy_fusion.2), index=2
  get-tuple-element.61743 = f64[4]{0} get-tuple-element(copy_fusion.2), index=1
  get-tuple-element.61742 = f64[4]{0} get-tuple-element(copy_fusion.2), index=0
  copy_fusion.3 = (f64[10,4]{1,0}, f64[10,4]{1,0}, f64[10,4]{1,0}, f64[10,4]{1,0}, f64[10,4]{1,0}, /*index=5*/f64[10,4]{1,0}, f64[10,4]{1,0}, f64[10,4]{1,0}, f64[10,4]{1,0}, f64[10,4]{1,0}, /*index=10*/f64[10,4]{1,0}, f64[10,4]{1,0}) fusion(p.22, p.23, p.24, p.25, p.26, /*index=5*/p.27, p.28, p.29, p.30, p.31, /*index=10*/p.32, p.33), kind=kLoop, calls=copy_horizontally_fused_computation.3
  ROOT tuple.2583 = (s64[], pred[], s32[], s32[], s32[], /*index=5*/f64[], f64[], f64[], f64[], f64[10]{0}, /*index=10*/f64[4]{0}, f64[4]{0}, f64[4]{0}, f64[4]{0}, f64[4]{0}, /*index=15*/f64[4]{0}, f64[4]{0}, f64[4]{0}, f64[4]{0}, f64[4]{0}, /*index=20*/f64[4]{0}, f64[4]{0}, (f64[10,4]{1,0}, f64[10,4]{1,0}, f64[10,4]{1,0}, f64[10,4]{1,0}, f64[10,4]{1,0}, /*index=5*/f64[10,4]{1,0}, f64[10,4]{1,0}, f64[10,4]{1,0}, f64[10,4]{1,0}, f64[10,4]{1,0}, /*index=10*/f64[10,4]{1,0}, f64[10,4]{1,0})) tuple(wrapped_copy.2, wrapped_copy.1, bitcast.29774, bitcast.29773, bitcast.29772, /*index=5*/bitcast.29778, bitcast.29777, bitcast.29776, bitcast.29775, wrapped_copy, /*index=10*/get-tuple-element.61753, get-tuple-element.61752, get-tuple-element.61751, get-tuple-element.61750, get-tuple-element.61749, /*index=15*/get-tuple-element.61748, get-tuple-element.61747, get-tuple-element.61746, get-tuple-element.61745, get-tuple-element.61744, /*index=20*/get-tuple-element.61743, get-tuple-element.61742, copy_fusion.3)
} // command_buffer

ENTRY main.26213 {
  constant_2738_0 = s64[] constant(0)
  Arg_34.35.0 = s32[] parameter(34), metadata={op_name="args[34]"}
  Arg_33.34.0 = s32[] parameter(33), metadata={op_name="args[33]"}
  Arg_32.33.0 = s32[] parameter(32), metadata={op_name="args[32]"}
  Arg_31.32.0 = pred[] parameter(31), metadata={op_name="args[31]"}
  Arg_30.31.0 = f64[] parameter(30), metadata={op_name="args[30]"}
  Arg_16.17.0 = f64[] parameter(16), metadata={op_name="args[16]"}
  Arg_15.16.0 = f64[] parameter(15), metadata={op_name="args[15]"}
  Arg_8.9.0 = f64[] parameter(8), metadata={op_name="args[8]"}
  Arg_7.8.0 = s64[] parameter(7), metadata={op_name="args[7]"}
  Arg_0.1.0 = s64[] parameter(0), metadata={op_name="args[0]"}
  Arg_29.30.0 = f64[10]{0} parameter(29), metadata={op_name="args[29]"}
  Arg_28.29.0 = f64[10,4]{1,0} parameter(28), metadata={op_name="args[28]"}
  Arg_27.28.0 = f64[10,4]{1,0} parameter(27), metadata={op_name="args[27]"}
  Arg_26.27.0 = f64[10,4]{1,0} parameter(26), metadata={op_name="args[26]"}
  Arg_25.26.0 = f64[10,4]{1,0} parameter(25), metadata={op_name="args[25]"}
  Arg_24.25.0 = f64[10,4]{1,0} parameter(24), metadata={op_name="args[24]"}
  Arg_23.24.0 = f64[10,4]{1,0} parameter(23), metadata={op_name="args[23]"}
  Arg_22.23.0 = f64[10,4]{1,0} parameter(22), metadata={op_name="args[22]"}
  Arg_21.22.0 = f64[10,4]{1,0} parameter(21), metadata={op_name="args[21]"}
  Arg_20.21.0 = f64[10,4]{1,0} parameter(20), metadata={op_name="args[20]"}
  Arg_19.20.0 = f64[10,4]{1,0} parameter(19), metadata={op_name="args[19]"}
  Arg_18.19.0 = f64[10,4]{1,0} parameter(18), metadata={op_name="args[18]"}
  Arg_17.18.0 = f64[10,4]{1,0} parameter(17), metadata={op_name="args[17]"}
  Arg_14.15.0 = f64[4]{0} parameter(14), metadata={op_name="args[14]"}
  Arg_13.14.0 = f64[4]{0} parameter(13), metadata={op_name="args[13]"}
  Arg_12.13.0 = f64[4]{0} parameter(12), metadata={op_name="args[12]"}
  Arg_11.12.0 = f64[4]{0} parameter(11), metadata={op_name="args[11]"}
  Arg_10.11.0 = f64[4]{0} parameter(10), metadata={op_name="args[10]"}
  Arg_9.10.0 = f64[4]{0} parameter(9), metadata={op_name="args[9]"}
  Arg_6.7.0 = f64[4]{0} parameter(6), metadata={op_name="args[6]"}
  Arg_5.6.0 = f64[4]{0} parameter(5), metadata={op_name="args[5]"}
  Arg_4.5.0 = f64[4]{0} parameter(4), metadata={op_name="args[4]"}
  Arg_3.4.0 = f64[4]{0} parameter(3), metadata={op_name="args[3]"}
  Arg_2.3.0 = f64[4]{0} parameter(2), metadata={op_name="args[2]"}
  Arg_1.2.0 = f64[4]{0} parameter(1), metadata={op_name="args[1]"}
  call.17 = (s64[], pred[], s32[], s32[], s32[], /*index=5*/f64[], f64[], f64[], f64[], f64[10]{0}, /*index=10*/f64[4]{0}, f64[4]{0}, f64[4]{0}, f64[4]{0}, f64[4]{0}, /*index=15*/f64[4]{0}, f64[4]{0}, f64[4]{0}, f64[4]{0}, f64[4]{0}, /*index=20*/f64[4]{0}, f64[4]{0}, (f64[10,4]{1,0}, f64[10,4]{1,0}, f64[10,4]{1,0}, f64[10,4]{1,0}, f64[10,4]{1,0}, /*index=5*/f64[10,4]{1,0}, f64[10,4]{1,0}, f64[10,4]{1,0}, f64[10,4]{1,0}, f64[10,4]{1,0}, /*index=10*/f64[10,4]{1,0}, f64[10,4]{1,0})) call(constant_2738_0, Arg_31.32.0, Arg_32.33.0, Arg_33.34.0, Arg_34.35.0, /*index=5*/Arg_8.9.0, Arg_15.16.0, Arg_16.17.0, Arg_30.31.0, Arg_29.30.0, /*index=10*/Arg_1.2.0, Arg_2.3.0, Arg_3.4.0, Arg_4.5.0, Arg_5.6.0, /*index=15*/Arg_6.7.0, Arg_9.10.0, Arg_10.11.0, Arg_11.12.0, Arg_12.13.0, /*index=20*/Arg_13.14.0, Arg_14.15.0, Arg_17.18.0, Arg_18.19.0, Arg_19.20.0, /*index=25*/Arg_20.21.0, Arg_21.22.0, Arg_22.23.0, Arg_23.24.0, Arg_24.25.0, /*index=30*/Arg_25.26.0, Arg_26.27.0, Arg_27.28.0, Arg_28.29.0), to_apply=command_buffer
  get-tuple-element.61785 = s64[] get-tuple-element(call.17), index=0
  get-tuple-element.61786 = pred[] get-tuple-element(call.17), index=1
  get-tuple-element.61787 = s32[] get-tuple-element(call.17), index=2
  get-tuple-element.61788 = s32[] get-tuple-element(call.17), index=3
  get-tuple-element.61789 = s32[] get-tuple-element(call.17), index=4
  get-tuple-element.61790 = f64[] get-tuple-element(call.17), index=5
  get-tuple-element.61791 = f64[] get-tuple-element(call.17), index=6
  get-tuple-element.61792 = f64[] get-tuple-element(call.17), index=7
  get-tuple-element.61793 = f64[] get-tuple-element(call.17), index=8
  get-tuple-element.61794 = f64[10]{0} get-tuple-element(call.17), index=9
  get-tuple-element.61795 = f64[4]{0} get-tuple-element(call.17), index=10
  get-tuple-element.61796 = f64[4]{0} get-tuple-element(call.17), index=11
  get-tuple-element.61797 = f64[4]{0} get-tuple-element(call.17), index=12
  get-tuple-element.61798 = f64[4]{0} get-tuple-element(call.17), index=13
  get-tuple-element.61799 = f64[4]{0} get-tuple-element(call.17), index=14
  get-tuple-element.61800 = f64[4]{0} get-tuple-element(call.17), index=15
  get-tuple-element.61801 = f64[4]{0} get-tuple-element(call.17), index=16
  get-tuple-element.61802 = f64[4]{0} get-tuple-element(call.17), index=17
  get-tuple-element.61803 = f64[4]{0} get-tuple-element(call.17), index=18
  get-tuple-element.61804 = f64[4]{0} get-tuple-element(call.17), index=19
  get-tuple-element.61805 = f64[4]{0} get-tuple-element(call.17), index=20
  get-tuple-element.61806 = f64[4]{0} get-tuple-element(call.17), index=21
  get-tuple-element.61807 = (f64[10,4]{1,0}, f64[10,4]{1,0}, f64[10,4]{1,0}, f64[10,4]{1,0}, f64[10,4]{1,0}, /*index=5*/f64[10,4]{1,0}, f64[10,4]{1,0}, f64[10,4]{1,0}, f64[10,4]{1,0}, f64[10,4]{1,0}, /*index=10*/f64[10,4]{1,0}, f64[10,4]{1,0}) get-tuple-element(call.17), index=22
  get-tuple-element.61765 = f64[10,4]{1,0} get-tuple-element(get-tuple-element.61807), index=11
  bitcast.29790 = f64[10,4]{1,0} bitcast(get-tuple-element.61765)
  get-tuple-element.61764 = f64[10,4]{1,0} get-tuple-element(get-tuple-element.61807), index=10
  bitcast.29789 = f64[10,4]{1,0} bitcast(get-tuple-element.61764)
  get-tuple-element.61763 = f64[10,4]{1,0} get-tuple-element(get-tuple-element.61807), index=9
  bitcast.29788 = f64[10,4]{1,0} bitcast(get-tuple-element.61763)
  get-tuple-element.61762 = f64[10,4]{1,0} get-tuple-element(get-tuple-element.61807), index=8
  bitcast.29787 = f64[10,4]{1,0} bitcast(get-tuple-element.61762)
  get-tuple-element.61761 = f64[10,4]{1,0} get-tuple-element(get-tuple-element.61807), index=7
  bitcast.29786 = f64[10,4]{1,0} bitcast(get-tuple-element.61761)
  get-tuple-element.61760 = f64[10,4]{1,0} get-tuple-element(get-tuple-element.61807), index=6
  bitcast.29785 = f64[10,4]{1,0} bitcast(get-tuple-element.61760)
  get-tuple-element.61759 = f64[10,4]{1,0} get-tuple-element(get-tuple-element.61807), index=5
  bitcast.29784 = f64[10,4]{1,0} bitcast(get-tuple-element.61759)
  get-tuple-element.61758 = f64[10,4]{1,0} get-tuple-element(get-tuple-element.61807), index=4
  bitcast.29783 = f64[10,4]{1,0} bitcast(get-tuple-element.61758)
  get-tuple-element.61757 = f64[10,4]{1,0} get-tuple-element(get-tuple-element.61807), index=3
  bitcast.29782 = f64[10,4]{1,0} bitcast(get-tuple-element.61757)
  get-tuple-element.61756 = f64[10,4]{1,0} get-tuple-element(get-tuple-element.61807), index=2
  bitcast.29781 = f64[10,4]{1,0} bitcast(get-tuple-element.61756)
  get-tuple-element.61755 = f64[10,4]{1,0} get-tuple-element(get-tuple-element.61807), index=1
  get-tuple-element.61754 = f64[10,4]{1,0} get-tuple-element(get-tuple-element.61807), index=0
  bitcast.29779 = f64[10,4]{1,0} bitcast(get-tuple-element.61754)
  bitcast.29780 = f64[10,4]{1,0} bitcast(get-tuple-element.61755)
  tuple.2576 = (s64[], f64[4]{0}, f64[4]{0}, f64[4]{0}, f64[4]{0}, /*index=5*/f64[4]{0}, f64[4]{0}, s64[], f64[], f64[4]{0}, /*index=10*/f64[4]{0}, f64[4]{0}, f64[4]{0}, f64[4]{0}, f64[4]{0}, /*index=15*/f64[], f64[], f64[10,4]{1,0}, f64[10,4]{1,0}, f64[10,4]{1,0}, /*index=20*/f64[10,4]{1,0}, f64[10,4]{1,0}, f64[10,4]{1,0}, f64[10,4]{1,0}, f64[10,4]{1,0}, /*index=25*/f64[10,4]{1,0}, f64[10,4]{1,0}, f64[10,4]{1,0}, f64[10,4]{1,0}, f64[10]{0}, /*index=30*/f64[], pred[], s32[], s32[], s32[], /*index=35*/s64[]) tuple(Arg_0.1.0, get-tuple-element.61806, get-tuple-element.61805, get-tuple-element.61804, get-tuple-element.61803, /*index=5*/get-tuple-element.61802, get-tuple-element.61801, Arg_7.8.0, get-tuple-element.61793, get-tuple-element.61800, /*index=10*/get-tuple-element.61799, get-tuple-element.61798, get-tuple-element.61797, get-tuple-element.61796, get-tuple-element.61795, /*index=15*/get-tuple-element.61792, get-tuple-element.61791, bitcast.29779, bitcast.29780, bitcast.29781, /*index=20*/bitcast.29782, bitcast.29783, bitcast.29784, bitcast.29785, bitcast.29786, /*index=25*/bitcast.29787, bitcast.29788, bitcast.29789, bitcast.29790, get-tuple-element.61794, /*index=30*/get-tuple-element.61790, get-tuple-element.61786, get-tuple-element.61789, get-tuple-element.61788, get-tuple-element.61787, /*index=35*/get-tuple-element.61785)
  while.39.0 = (s64[], f64[4]{0}, f64[4]{0}, f64[4]{0}, f64[4]{0}, /*index=5*/f64[4]{0}, f64[4]{0}, s64[], f64[], f64[4]{0}, /*index=10*/f64[4]{0}, f64[4]{0}, f64[4]{0}, f64[4]{0}, f64[4]{0}, /*index=15*/f64[], f64[], f64[10,4]{1,0}, f64[10,4]{1,0}, f64[10,4]{1,0}, /*index=20*/f64[10,4]{1,0}, f64[10,4]{1,0}, f64[10,4]{1,0}, f64[10,4]{1,0}, f64[10,4]{1,0}, /*index=25*/f64[10,4]{1,0}, f64[10,4]{1,0}, f64[10,4]{1,0}, f64[10,4]{1,0}, f64[10]{0}, /*index=30*/f64[], pred[], s32[], s32[], s32[], /*index=35*/s64[]) while(tuple.2576), condition=region_123.26134.clone, body=region_0.26059.clone.clone, metadata={op_name="jit(while)/jit(main)/while[cond_nconsts=0 body_nconsts=0]" source_file="/fs04/fc37/adam/projects/psilocybin-prl-analyses/src/prl_hgf/fitting/fit_vb_laplace_patrl.py" source_line=332}
  get-tuple-element.13292.0 = s32[] get-tuple-element(while.39.0), index=33
  get-tuple-element.13291.0 = s32[] get-tuple-element(while.39.0), index=32
  get-tuple-element.13290.0 = pred[] get-tuple-element(while.39.0), index=31
  get-tuple-element.13289.0 = f64[] get-tuple-element(while.39.0), index=30
  get-tuple-element.13275.0 = f64[] get-tuple-element(while.39.0), index=16
  get-tuple-element.13274.0 = f64[] get-tuple-element(while.39.0), index=15
  get-tuple-element.13267.0 = f64[] get-tuple-element(while.39.0), index=8
  get-tuple-element.13293.0 = s32[] get-tuple-element(while.39.0), index=34
  get-tuple-element.13265.0 = s64[] get-tuple-element(while.39.0), index=7
  get-tuple-element.13258.0 = s64[] get-tuple-element(while.39.0), index=35
  get-tuple-element.13257.0 = s64[] get-tuple-element(while.39.0), index=0
  get-tuple-element.13288.0 = f64[10]{0} get-tuple-element(while.39.0), index=29
  get-tuple-element.13287.0 = f64[10,4]{1,0} get-tuple-element(while.39.0), index=28
  get-tuple-element.13286.0 = f64[10,4]{1,0} get-tuple-element(while.39.0), index=27
  get-tuple-element.13285.0 = f64[10,4]{1,0} get-tuple-element(while.39.0), index=26
  get-tuple-element.13284.0 = f64[10,4]{1,0} get-tuple-element(while.39.0), index=25
  get-tuple-element.13283.0 = f64[10,4]{1,0} get-tuple-element(while.39.0), index=24
  get-tuple-element.13282.0 = f64[10,4]{1,0} get-tuple-element(while.39.0), index=23
  get-tuple-element.13281.0 = f64[10,4]{1,0} get-tuple-element(while.39.0), index=22
  get-tuple-element.13280.0 = f64[10,4]{1,0} get-tuple-element(while.39.0), index=21
  get-tuple-element.13279.0 = f64[10,4]{1,0} get-tuple-element(while.39.0), index=20
  get-tuple-element.13278.0 = f64[10,4]{1,0} get-tuple-element(while.39.0), index=19
  get-tuple-element.13277.0 = f64[10,4]{1,0} get-tuple-element(while.39.0), index=18
  get-tuple-element.13276.0 = f64[10,4]{1,0} get-tuple-element(while.39.0), index=17
  get-tuple-element.13273.0 = f64[4]{0} get-tuple-element(while.39.0), index=14
  get-tuple-element.13272.0 = f64[4]{0} get-tuple-element(while.39.0), index=13
  get-tuple-element.13271.0 = f64[4]{0} get-tuple-element(while.39.0), index=12
  get-tuple-element.13270.0 = f64[4]{0} get-tuple-element(while.39.0), index=11
  get-tuple-element.13269.0 = f64[4]{0} get-tuple-element(while.39.0), index=10
  get-tuple-element.13268.0 = f64[4]{0} get-tuple-element(while.39.0), index=9
  get-tuple-element.13264.0 = f64[4]{0} get-tuple-element(while.39.0), index=6
  get-tuple-element.13263.0 = f64[4]{0} get-tuple-element(while.39.0), index=5
  get-tuple-element.13262.0 = f64[4]{0} get-tuple-element(while.39.0), index=4
  get-tuple-element.13261.0 = f64[4]{0} get-tuple-element(while.39.0), index=3
  get-tuple-element.13260.0 = f64[4]{0} get-tuple-element(while.39.0), index=2
  get-tuple-element.13259.0 = f64[4]{0} get-tuple-element(while.39.0), index=1
  loop_add_fusion.35 = (s64[], s64[]) fusion(get-tuple-element.13257.0, get-tuple-element.13258.0, get-tuple-element.13265.0), kind=kLoop, calls=fused_add.35
  get-tuple-element.59472 = s64[] get-tuple-element(loop_add_fusion.35), index=1
  get-tuple-element.59471 = s64[] get-tuple-element(loop_add_fusion.35), index=0
  ROOT tuple.1543.0 = (s64[], f64[4]{0}, f64[4]{0}, f64[4]{0}, f64[4]{0}, /*index=5*/f64[4]{0}, f64[4]{0}, s64[], f64[], f64[4]{0}, /*index=10*/f64[4]{0}, f64[4]{0}, f64[4]{0}, f64[4]{0}, f64[4]{0}, /*index=15*/f64[], f64[], f64[10,4]{1,0}, f64[10,4]{1,0}, f64[10,4]{1,0}, /*index=20*/f64[10,4]{1,0}, f64[10,4]{1,0}, f64[10,4]{1,0}, f64[10,4]{1,0}, f64[10,4]{1,0}, /*index=25*/f64[10,4]{1,0}, f64[10,4]{1,0}, f64[10,4]{1,0}, f64[10,4]{1,0}, f64[10]{0}, /*index=30*/f64[], pred[], s32[], s32[], s32[]) tuple(get-tuple-element.59471, get-tuple-element.13259.0, get-tuple-element.13260.0, get-tuple-element.13261.0, get-tuple-element.13262.0, /*index=5*/get-tuple-element.13263.0, get-tuple-element.13264.0, get-tuple-element.59472, get-tuple-element.13267.0, get-tuple-element.13268.0, /*index=10*/get-tuple-element.13269.0, get-tuple-element.13270.0, get-tuple-element.13271.0, get-tuple-element.13272.0, get-tuple-element.13273.0, /*index=15*/get-tuple-element.13274.0, get-tuple-element.13275.0, get-tuple-element.13276.0, get-tuple-element.13277.0, get-tuple-element.13278.0, /*index=20*/get-tuple-element.13279.0, get-tuple-element.13280.0, get-tuple-element.13281.0, get-tuple-element.13282.0, get-tuple-element.13283.0, /*index=25*/get-tuple-element.13284.0, get-tuple-element.13285.0, get-tuple-element.13286.0, get-tuple-element.13287.0, get-tuple-element.13288.0, /*index=30*/get-tuple-element.13289.0, get-tuple-element.13290.0, get-tuple-element.13291.0, get-tuple-element.13292.0, get-tuple-element.13293.0), metadata={op_name="jit(while)/jit(main)/while[cond_nconsts=0 body_nconsts=0]" source_file="/fs04/fc37/adam/projects/psilocybin-prl-analyses/src/prl_hgf/fitting/fit_vb_laplace_patrl.py" source_line=332}
} // main.26213

