HloModule jit_scan, is_scheduled=true, entry_computation_layout={(f64[4]{0}, f64[4]{0}, f64[4]{0}, f64[4]{0}, f64[4]{0}, /*index=5*/f64[4]{0}, f64[4]{0}, s32[4]{0}, f64[4]{0}, f64[4]{0}, /*index=10*/f64[4,1]{1,0}, f64[4]{0}, f64[4]{0}, f64[4]{0}, f64[4]{0}, /*index=15*/s64[4]{0}, f64[4]{0}, f64[4]{0}, f64[4]{0}, f64[4]{0}, /*index=20*/f64[4]{0}, f64[4]{0}, f64[4]{0}, f64[4,1]{1,0}, f64[4,1]{1,0}, /*index=25*/f64[4]{0}, f64[4]{0}, f64[4]{0}, f64[4]{0}, s64[4]{0}, /*index=30*/f64[4]{0}, f64[4]{0}, f64[4]{0}, f64[4]{0}, f64[4]{0}, /*index=35*/f64[4]{0}, f64[4]{0}, f64[4,1]{1,0}, f64[192,4,1]{2,1,0}, s32[192]{0}, /*index=40*/f64[192]{0})->(f64[4]{0}, f64[4]{0}, f64[4]{0}, f64[4]{0}, s32[4]{0}, /*index=5*/f64[4]{0}, f64[4]{0}, f64[4,1]{1,0}, f64[4]{0}, f64[4]{0}, /*index=10*/f64[4]{0}, f64[4]{0}, s64[4]{0}, f64[4]{0}, f64[4]{0}, /*index=15*/f64[4]{0}, f64[4]{0}, f64[4]{0}, f64[4]{0}, f64[4]{0}, /*index=20*/f64[4,1]{1,0}, f64[4,1]{1,0}, f64[4]{0}, f64[4]{0}, f64[4]{0}, /*index=25*/f64[4]{0}, s64[4]{0}, f64[4]{0}, f64[4]{0}, f64[4]{0}, /*index=30*/f64[4]{0}, f64[4]{0}, f64[4]{0}, f64[4]{0}, f64[4,1]{1,0}, /*index=35*/f64[192,4]{1,0}, f64[192,4]{1,0}, f64[192,4]{1,0}, f64[192,4]{1,0}, pred[192,4]{1,0}, /*index=40*/f64[192,4]{1,0}, f64[192,4]{1,0}, f64[192,4]{1,0}, f64[192,4]{1,0}, f64[192,4]{1,0}, /*index=45*/f64[192,4]{1,0}, f64[192,4]{1,0}, f64[192,4]{1,0}, pred[192,4]{1,0}, f64[192,4]{1,0}, /*index=50*/f64[192,4]{1,0}, f64[192,4]{1,0}, f64[192,4]{1,0}, f64[192,4]{1,0}, f64[192,4]{1,0}, /*index=55*/f64[192,4]{1,0}, f64[192]{0}, f64[192,4]{1,0}, f64[192,4]{1,0}, f64[192,4]{1,0}, /*index=60*/s32[192]{0}, f64[192,4]{1,0}, f64[192]{0}, f64[192,4]{1,0}, f64[192,4]{1,0}, /*index=65*/f64[192,4]{1,0}, pred[192,4]{1,0}, f64[192,4]{1,0}, f64[192,4]{1,0}, f64[192,4]{1,0}, /*index=70*/f64[192,4]{1,0}, f64[192,4]{1,0}, f64[192,4]{1,0}, f64[192]{0}, f64[192,4]{1,0}, /*index=75*/f64[192,4]{1,0}, f64[192,4]{1,0}, f64[192,4]{1,0}, f64[192,4]{1,0}, f64[192,4]{1,0}, /*index=80*/f64[192,4]{1,0}, f64[192,4]{1,0}, f64[192,4]{1,0}, f64[192,4]{1,0}, f64[192,4]{1,0}, /*index=85*/s32[192,4]{1,0}, pred[192,4]{1,0}, pred[192,4,1]{2,1,0}, f64[192,4]{1,0}, f64[192,4]{1,0}, /*index=90*/f64[192,4]{1,0}, f64[192,4]{1,0}, pred[192,4]{1,0}, pred[192,4,1]{2,1,0}, f64[192,4]{1,0}, /*index=95*/f64[192,4]{1,0}, f64[192,4]{1,0}, f64[192,4]{1,0}, f64[192,4]{1,0}, f64[192,4]{1,0}, /*index=100*/f64[192,4]{1,0}, f64[192,4]{1,0}, f64[192,4]{1,0}, f64[192,4]{1,0}, pred[192,4]{1,0}, /*index=105*/pred[192,4]{1,0}, pred[192,4,1]{2,1,0})}, allow_spmd_sharding_propagation_to_parameters={true,true,true,true,true,true,true,true,true,true,true,true,true,true,true,true,true,true,true,true,true,true,true,true,true,true,true,true,true,true,true,true,true,true,true,true,true,true,true,true,true}, allow_spmd_sharding_propagation_to_output={true,true,true,true,true,true,true,true,true,true,true,true,true,true,true,true,true,true,true,true,true,true,true,true,true,true,true,true,true,true,true,true,true,true,true,true,true,true,true,true,true,true,true,true,true,true,true,true,true,true,true,true,true,true,true,true,true,true,true,true,true,true,true,true,true,true,true,true,true,true,true,true,true,true,true,true,true,true,true,true,true,true,true,true,true,true,true,true,true,true,true,true,true,true,true,true,true,true,true,true,true,true,true,true,true,true,true}, frontend_attributes={fingerprint_before_lhs="8c000139badf7e2ec734643fc7b18d34"}

fused_divide_exponential {
  constant_17_2 = f64[] constant(1)
  broadcast.445.1 = f64[4]{0} broadcast(constant_17_2), dimensions={}
  param_1.734 = f64[4]{0} parameter(1)
  divide.385.5 = f64[4]{0} divide(broadcast.445.1, param_1.734), metadata={op_name="jit(scan)/jit(main)/while/body/jit(beliefs_propagation)/jit(continuous_node_posterior_update)/jit(posterior_update_precision_continuous_node)/cond/branch_0_fun/jit(precision_update_missing_values)/div" source_file="/fs04/fc37/adam/projects/psilocybin-prl-analyses/src/prl_hgf/fitting/hierarchical_patrl.py" source_line=362}
  param_0.474 = f64[] parameter(0)
  broadcast.446.5 = f64[4]{0} broadcast(param_0.474), dimensions={}, metadata={op_name="jit(scan)/jit(main)/while/body/jit(beliefs_propagation)/jit(continuous_node_posterior_update)/jit(posterior_update_precision_continuous_node)/cond/branch_0_fun/jit(precision_update_missing_values)/mul" source_file="/fs04/fc37/adam/projects/psilocybin-prl-analyses/src/prl_hgf/fitting/hierarchical_patrl.py" source_line=362}
  param_2.688 = f64[4]{0} parameter(2)
  param_4.556 = f64[4,1]{1,0} parameter(4)
  bitcast.1630.5.clone.1 = f64[4]{0} bitcast(param_4.556)
  param_3.635 = f64[4]{0} parameter(3)
  multiply.841.5.clone.1 = f64[4]{0} multiply(bitcast.1630.5.clone.1, param_3.635), metadata={op_name="jit(scan)/jit(main)/while/body/jit(beliefs_propagation)/jit(continuous_node_posterior_update)/jit(posterior_update_precision_continuous_node)/cond/branch_0_fun/jit(precision_update_missing_values)/mul" source_file="/fs04/fc37/adam/projects/psilocybin-prl-analyses/src/prl_hgf/fitting/hierarchical_patrl.py" source_line=362}
  add.335.3.clone.1 = f64[4]{0} add(param_2.688, multiply.841.5.clone.1), metadata={op_name="jit(scan)/jit(main)/while/body/jit(beliefs_propagation)/jit(continuous_node_posterior_update)/jit(posterior_update_precision_continuous_node)/cond/branch_0_fun/jit(precision_update_missing_values)/add" source_file="/fs04/fc37/adam/projects/psilocybin-prl-analyses/src/prl_hgf/fitting/hierarchical_patrl.py" source_line=362}
  exponential.58.1.clone.1 = f64[4]{0} exponential(add.335.3.clone.1), metadata={op_name="jit(scan)/jit(main)/while/body/jit(beliefs_propagation)/jit(continuous_node_posterior_update)/jit(posterior_update_precision_continuous_node)/cond/branch_0_fun/jit(precision_update_missing_values)/exp" source_file="/fs04/fc37/adam/projects/psilocybin-prl-analyses/src/prl_hgf/fitting/hierarchical_patrl.py" source_line=362}
  multiply.842.5 = f64[4]{0} multiply(broadcast.446.5, exponential.58.1.clone.1), metadata={op_name="jit(scan)/jit(main)/while/body/jit(beliefs_propagation)/jit(continuous_node_posterior_update)/jit(posterior_update_precision_continuous_node)/cond/branch_0_fun/jit(precision_update_missing_values)/mul" source_file="/fs04/fc37/adam/projects/psilocybin-prl-analyses/src/prl_hgf/fitting/hierarchical_patrl.py" source_line=362}
  add.336.5 = f64[4]{0} add(divide.385.5, multiply.842.5), metadata={op_name="jit(scan)/jit(main)/while/body/jit(beliefs_propagation)/jit(continuous_node_posterior_update)/jit(posterior_update_precision_continuous_node)/cond/branch_0_fun/jit(precision_update_missing_values)/add" source_file="/fs04/fc37/adam/projects/psilocybin-prl-analyses/src/prl_hgf/fitting/hierarchical_patrl.py" source_line=362}
  divide.387.1 = f64[4]{0} divide(broadcast.445.1, add.336.5), metadata={op_name="jit(scan)/jit(main)/while/body/jit(beliefs_propagation)/jit(continuous_node_posterior_update)/jit(posterior_update_precision_continuous_node)/cond/branch_0_fun/jit(precision_update_missing_values)/div" source_file="/fs04/fc37/adam/projects/psilocybin-prl-analyses/src/prl_hgf/fitting/hierarchical_patrl.py" source_line=362}
  multiply.843.1.clone.1 = f64[4]{0} multiply(param_1.734, param_1.734), metadata={op_name="jit(scan)/jit(main)/while/body/jit(beliefs_propagation)/jit(continuous_node_posterior_update)/jit(posterior_update_precision_continuous_node)/cond/branch_0_fun/jit(precision_update_missing_values)/mul" source_file="/fs04/fc37/adam/projects/psilocybin-prl-analyses/src/prl_hgf/fitting/hierarchical_patrl.py" source_line=362}
  divide.388.1.clone.1 = f64[4]{0} divide(broadcast.445.1, multiply.843.1.clone.1), metadata={op_name="jit(scan)/jit(main)/while/body/jit(beliefs_propagation)/jit(continuous_node_posterior_update)/jit(posterior_update_precision_continuous_node)/cond/branch_0_fun/jit(precision_update_missing_values)/div" source_file="/fs04/fc37/adam/projects/psilocybin-prl-analyses/src/prl_hgf/fitting/hierarchical_patrl.py" source_line=362}
  multiply.844.1.clone.1 = f64[4]{0} multiply(add.336.5, add.336.5), metadata={op_name="jit(scan)/jit(main)/while/body/jit(beliefs_propagation)/jit(continuous_node_posterior_update)/jit(posterior_update_precision_continuous_node)/cond/branch_0_fun/jit(precision_update_missing_values)/mul" source_file="/fs04/fc37/adam/projects/psilocybin-prl-analyses/src/prl_hgf/fitting/hierarchical_patrl.py" source_line=362}
  divide.389.1.clone.1 = f64[4]{0} divide(broadcast.445.1, multiply.844.1.clone.1), metadata={op_name="jit(scan)/jit(main)/while/body/jit(beliefs_propagation)/jit(continuous_node_posterior_update)/jit(posterior_update_precision_continuous_node)/cond/branch_0_fun/jit(precision_update_missing_values)/div" source_file="/fs04/fc37/adam/projects/psilocybin-prl-analyses/src/prl_hgf/fitting/hierarchical_patrl.py" source_line=362}
  ROOT tuple.141 = (f64[4]{0}, f64[4]{0}, f64[4]{0}, f64[4]{0}) tuple(divide.387.1, divide.388.1.clone.1, divide.389.1.clone.1, exponential.58.1.clone.1)
} // fused_divide_exponential

fused_broadcast {
  constant_288_1 = pred[] constant(false)
  ROOT broadcast.447.1 = pred[4]{0} broadcast(constant_288_1), dimensions={}
}

wrapped_copy_computation.4 {
  param_0.582 = f64[4]{0} parameter(0)
  ROOT copy.570 = f64[4]{0} copy(param_0.582)
}

region_2.281 {
  arg_tuple.282.0 = (f64[], f64[4]{0}, f64[4]{0}, f64[4,1]{1,0}, f64[4]{0}) parameter(0)
  get-tuple-element.5168 = f64[] get-tuple-element(arg_tuple.282.0), index=0
  get-tuple-element.286.0 = f64[4,1]{1,0} get-tuple-element(arg_tuple.282.0), index=3
  bitcast.1630.0 = f64[4]{0} bitcast(get-tuple-element.286.0)
  get-tuple-element.287.0 = f64[4]{0} get-tuple-element(arg_tuple.282.0), index=4
  get-tuple-element.285.0 = f64[4]{0} get-tuple-element(arg_tuple.282.0), index=2
  get-tuple-element.284.0 = f64[4]{0} get-tuple-element(arg_tuple.282.0), index=1
  loop_broadcast_fusion = pred[4]{0} fusion(), kind=kLoop, calls=fused_broadcast
  wrapped_copy.4 = f64[4]{0} fusion(bitcast.1630.0), kind=kLoop, calls=wrapped_copy_computation.4
  loop_divide_exponential_fusion = (f64[4]{0}, f64[4]{0}, f64[4]{0}, f64[4]{0}) fusion(get-tuple-element.5168, get-tuple-element.284.0, get-tuple-element.285.0, get-tuple-element.287.0, get-tuple-element.286.0), kind=kLoop, calls=fused_divide_exponential, metadata={op_name="jit(scan)/jit(main)/while/body/jit(beliefs_propagation)/jit(continuous_node_posterior_update)/jit(posterior_update_precision_continuous_node)/cond/branch_0_fun/jit(precision_update_missing_values)/div" source_file="/fs04/fc37/adam/projects/psilocybin-prl-analyses/src/prl_hgf/fitting/hierarchical_patrl.py" source_line=362}
  get-tuple-element.5170 = f64[4]{0} get-tuple-element(loop_divide_exponential_fusion), index=3, metadata={op_name="jit(scan)/jit(main)/while/body/jit(beliefs_propagation)/jit(continuous_node_posterior_update)/jit(posterior_update_precision_continuous_node)/cond/branch_0_fun/jit(precision_update_missing_values)/div" source_file="/fs04/fc37/adam/projects/psilocybin-prl-analyses/src/prl_hgf/fitting/hierarchical_patrl.py" source_line=362}
  get-tuple-element.5171 = f64[4]{0} get-tuple-element(loop_divide_exponential_fusion), index=2, metadata={op_name="jit(scan)/jit(main)/while/body/jit(beliefs_propagation)/jit(continuous_node_posterior_update)/jit(posterior_update_precision_continuous_node)/cond/branch_0_fun/jit(precision_update_missing_values)/div" source_file="/fs04/fc37/adam/projects/psilocybin-prl-analyses/src/prl_hgf/fitting/hierarchical_patrl.py" source_line=362}
  get-tuple-element.5167 = f64[4]{0} get-tuple-element(loop_divide_exponential_fusion), index=1, metadata={op_name="jit(scan)/jit(main)/while/body/jit(beliefs_propagation)/jit(continuous_node_posterior_update)/jit(posterior_update_precision_continuous_node)/cond/branch_0_fun/jit(precision_update_missing_values)/div" source_file="/fs04/fc37/adam/projects/psilocybin-prl-analyses/src/prl_hgf/fitting/hierarchical_patrl.py" source_line=362}
  get-tuple-element.5166 = f64[4]{0} get-tuple-element(loop_divide_exponential_fusion), index=0, metadata={op_name="jit(scan)/jit(main)/while/body/jit(beliefs_propagation)/jit(continuous_node_posterior_update)/jit(posterior_update_precision_continuous_node)/cond/branch_0_fun/jit(precision_update_missing_values)/div" source_file="/fs04/fc37/adam/projects/psilocybin-prl-analyses/src/prl_hgf/fitting/hierarchical_patrl.py" source_line=362}
  ROOT tuple.179 = (f64[4]{0}, f64[4]{0}, f64[], f64[4]{0}, f64[4]{0}, /*index=5*/f64[4]{0}, pred[4]{0}) tuple(get-tuple-element.5166, get-tuple-element.5167, get-tuple-element.5168, wrapped_copy.4, get-tuple-element.5170, /*index=5*/get-tuple-element.5171, loop_broadcast_fusion)
} // region_2.281

wrapped_convert_computation {
  param_0.583 = s32[] parameter(0)
  ROOT convert.83.1 = f64[] convert(param_0.583), metadata={op_name="jit(scan)/jit(main)/while/body/jit(beliefs_propagation)/jit(continuous_node_posterior_update)/jit(posterior_update_precision_continuous_node)/cond/branch_1_fun/jit(precision_update)/convert_element_type[new_dtype=float64 weak_type=False sharding=None]" source_file="/fs04/fc37/adam/projects/psilocybin-prl-analyses/src/prl_hgf/fitting/hierarchical_patrl.py" source_line=362}
}

fused_broadcast.1 {
  constant_335_1 = f64[] constant(0)
  ROOT broadcast.451.1 = f64[4]{0} broadcast(constant_335_1), dimensions={}
}

wrapped_copy_computation.5 {
  param_0.584 = f64[4]{0} parameter(0)
  ROOT copy.571 = f64[4]{0} copy(param_0.584)
}

wrapped_copy_computation.6 {
  param_0.585 = f64[4]{0} parameter(0)
  ROOT copy.572 = f64[4]{0} copy(param_0.585)
}

fused_compare_multiply_select {
  param_0.475 = f64[4]{0} parameter(0)
  param_3.636 = f64[4,1]{1,0} parameter(3)
  multiply.845.5.clone.1 = f64[4,1]{1,0} multiply(param_3.636, param_3.636), metadata={op_name="jit(scan)/jit(main)/while/body/jit(beliefs_propagation)/jit(continuous_node_posterior_update)/jit(posterior_update_precision_continuous_node)/cond/branch_1_fun/jit(precision_update)/integer_pow[y=2]" source_file="/fs04/fc37/adam/projects/psilocybin-prl-analyses/src/prl_hgf/fitting/hierarchical_patrl.py" source_line=362}
  bitcast.1663.9.clone.1 = f64[4]{0} bitcast(multiply.845.5.clone.1)
  param_2.689 = f64[4]{0} parameter(2)
  multiply.846.9.clone.1 = f64[4]{0} multiply(bitcast.1663.9.clone.1, param_2.689), metadata={op_name="jit(scan)/jit(main)/while/body/jit(beliefs_propagation)/jit(continuous_node_posterior_update)/jit(posterior_update_precision_continuous_node)/cond/branch_1_fun/jit(precision_update)/mul" source_file="/fs04/fc37/adam/projects/psilocybin-prl-analyses/src/prl_hgf/fitting/hierarchical_patrl.py" source_line=362}
  param_1.735 = f64[] parameter(1)
  broadcast.448.5.clone.1 = f64[4]{0} broadcast(param_1.735), dimensions={}, metadata={op_name="jit(scan)/jit(main)/while/body/jit(beliefs_propagation)/jit(continuous_node_posterior_update)/jit(posterior_update_precision_continuous_node)/cond/branch_1_fun/jit(precision_update)/mul" source_file="/fs04/fc37/adam/projects/psilocybin-prl-analyses/src/prl_hgf/fitting/hierarchical_patrl.py" source_line=362}
  multiply.847.7.clone.1 = f64[4]{0} multiply(multiply.846.9.clone.1, broadcast.448.5.clone.1), metadata={op_name="jit(scan)/jit(main)/while/body/jit(beliefs_propagation)/jit(continuous_node_posterior_update)/jit(posterior_update_precision_continuous_node)/cond/branch_1_fun/jit(precision_update)/mul" source_file="/fs04/fc37/adam/projects/psilocybin-prl-analyses/src/prl_hgf/fitting/hierarchical_patrl.py" source_line=362}
  add.337.5.clone.1 = f64[4]{0} add(param_0.475, multiply.847.7.clone.1), metadata={op_name="jit(scan)/jit(main)/while/body/jit(beliefs_propagation)/jit(continuous_node_posterior_update)/jit(posterior_update_precision_continuous_node)/cond/branch_1_fun/jit(precision_update)/add" source_file="/fs04/fc37/adam/projects/psilocybin-prl-analyses/src/prl_hgf/fitting/hierarchical_patrl.py" source_line=362}
  constant_22_1_clone_1 = f64[] constant(1e-128)
  broadcast.449.1.clone.1 = f64[4]{0} broadcast(constant_22_1_clone_1), dimensions={}
  compare.262.1.clone.1 = pred[4]{0} compare(add.337.5.clone.1, broadcast.449.1.clone.1), direction=GT, metadata={op_name="jit(scan)/jit(main)/while/body/jit(beliefs_propagation)/jit(continuous_node_posterior_update)/jit(posterior_update_precision_continuous_node)/cond/branch_1_fun/jit(precision_update)/gt" source_file="/fs04/fc37/adam/projects/psilocybin-prl-analyses/src/prl_hgf/fitting/hierarchical_patrl.py" source_line=362}
  constant_23_1 = f64[] constant(nan)
  broadcast.450.1 = f64[4]{0} broadcast(constant_23_1), dimensions={}, metadata={op_name="jit(scan)/jit(main)/while/body/jit(beliefs_propagation)/jit(continuous_node_posterior_update)/jit(posterior_update_precision_continuous_node)/cond/branch_1_fun/jit(precision_update)/jit(_where)/broadcast_in_dim[shape=(4,) broadcast_dimensions=()]" source_file="/fs04/fc37/adam/projects/psilocybin-prl-analyses/src/prl_hgf/env/pat_rl_simulator.py" source_line=92}
  select.508.1 = f64[4]{0} select(compare.262.1.clone.1, add.337.5.clone.1, broadcast.450.1), metadata={op_name="jit(scan)/jit(main)/while/body/jit(beliefs_propagation)/jit(continuous_node_posterior_update)/jit(posterior_update_precision_continuous_node)/cond/branch_1_fun/jit(precision_update)/jit(_where)/select_n" source_file="/fs04/fc37/adam/projects/psilocybin-prl-analyses/src/prl_hgf/env/pat_rl_simulator.py" source_line=92}
  ROOT tuple.143 = (f64[4]{0}, pred[4]{0}, f64[4,1]{1,0}) tuple(select.508.1, compare.262.1.clone.1, multiply.845.5.clone.1)
} // fused_compare_multiply_select

command_buffer.6 {
  p.312 = s32[] parameter(0)
  p.313 = (f64[4]{0}, s32[], f64[4]{0}, f64[4,1]{1,0}) parameter(1)
  wrapped_convert = f64[] fusion(p.312), kind=kLoop, calls=wrapped_convert_computation, metadata={op_name="jit(scan)/jit(main)/while/body/jit(beliefs_propagation)/jit(continuous_node_posterior_update)/jit(posterior_update_precision_continuous_node)/cond/branch_1_fun/jit(precision_update)/convert_element_type[new_dtype=float64 weak_type=False sharding=None]" source_file="/fs04/fc37/adam/projects/psilocybin-prl-analyses/src/prl_hgf/fitting/hierarchical_patrl.py" source_line=362}
  get-tuple-element.334.0 = f64[4,1]{1,0} get-tuple-element(p.313), index=3, metadata={op_name="jit(scan)/jit(main)/while/body/jit(beliefs_propagation)/jit(continuous_node_posterior_update)/jit(posterior_update_precision_continuous_node)/cond/branch_1_fun/jit(precision_update)/squeeze[dimensions=(1,)]" source_file="/fs04/fc37/adam/projects/psilocybin-prl-analyses/src/prl_hgf/fitting/hierarchical_patrl.py" source_line=362}
  get-tuple-element.333.0 = f64[4]{0} get-tuple-element(p.313), index=2
  get-tuple-element.331.0 = f64[4]{0} get-tuple-element(p.313), index=0
  loop_broadcast_fusion.1 = f64[4]{0} fusion(), kind=kLoop, calls=fused_broadcast.1
  wrapped_copy.5 = f64[4]{0} fusion(loop_broadcast_fusion.1), kind=kLoop, calls=wrapped_copy_computation.5
  wrapped_copy.6 = f64[4]{0} fusion(loop_broadcast_fusion.1), kind=kLoop, calls=wrapped_copy_computation.6
  loop_compare_multiply_select_fusion = (f64[4]{0}, pred[4]{0}, f64[4,1]{1,0}) fusion(get-tuple-element.333.0, wrapped_convert, get-tuple-element.331.0, get-tuple-element.334.0), kind=kLoop, calls=fused_compare_multiply_select, metadata={op_name="jit(scan)/jit(main)/while/body/jit(beliefs_propagation)/jit(continuous_node_posterior_update)/jit(posterior_update_precision_continuous_node)/cond/branch_1_fun/jit(precision_update)/jit(_where)/select_n" source_file="/fs04/fc37/adam/projects/psilocybin-prl-analyses/src/prl_hgf/env/pat_rl_simulator.py" source_line=92}
  ROOT tuple.203 = (f64[], f64[4]{0}, f64[4]{0}, f64[4]{0}, (f64[4]{0}, pred[4]{0}, f64[4,1]{1,0})) tuple(wrapped_convert, loop_broadcast_fusion.1, wrapped_copy.5, wrapped_copy.6, loop_compare_multiply_select_fusion)
} // command_buffer.6

region_3.329 {
  arg_tuple.330.0 = (f64[4]{0}, s32[], f64[4]{0}, f64[4,1]{1,0}) parameter(0)
  get-tuple-element.332.0 = s32[] get-tuple-element(arg_tuple.330.0), index=1
  call.3 = (f64[], f64[4]{0}, f64[4]{0}, f64[4]{0}, (f64[4]{0}, pred[4]{0}, f64[4,1]{1,0})) call(get-tuple-element.332.0, arg_tuple.330.0), to_apply=command_buffer.6
  get-tuple-element.5891 = f64[] get-tuple-element(call.3), index=0
  get-tuple-element.5892 = f64[4]{0} get-tuple-element(call.3), index=1
  get-tuple-element.5893 = f64[4]{0} get-tuple-element(call.3), index=2
  get-tuple-element.5894 = f64[4]{0} get-tuple-element(call.3), index=3
  get-tuple-element.5895 = (f64[4]{0}, pred[4]{0}, f64[4,1]{1,0}) get-tuple-element(call.3), index=4
  get-tuple-element.5123 = f64[4,1]{1,0} get-tuple-element(get-tuple-element.5895), index=2, metadata={op_name="jit(scan)/jit(main)/while/body/jit(beliefs_propagation)/jit(continuous_node_posterior_update)/jit(posterior_update_precision_continuous_node)/cond/branch_1_fun/jit(precision_update)/jit(_where)/select_n" source_file="/fs04/fc37/adam/projects/psilocybin-prl-analyses/src/prl_hgf/env/pat_rl_simulator.py" source_line=92}
  bitcast.1663.0 = f64[4]{0} bitcast(get-tuple-element.5123)
  get-tuple-element.5179 = pred[4]{0} get-tuple-element(get-tuple-element.5895), index=1, metadata={op_name="jit(scan)/jit(main)/while/body/jit(beliefs_propagation)/jit(continuous_node_posterior_update)/jit(posterior_update_precision_continuous_node)/cond/branch_1_fun/jit(precision_update)/jit(_where)/select_n" source_file="/fs04/fc37/adam/projects/psilocybin-prl-analyses/src/prl_hgf/env/pat_rl_simulator.py" source_line=92}
  get-tuple-element.5173 = f64[4]{0} get-tuple-element(get-tuple-element.5895), index=0, metadata={op_name="jit(scan)/jit(main)/while/body/jit(beliefs_propagation)/jit(continuous_node_posterior_update)/jit(posterior_update_precision_continuous_node)/cond/branch_1_fun/jit(precision_update)/jit(_where)/select_n" source_file="/fs04/fc37/adam/projects/psilocybin-prl-analyses/src/prl_hgf/env/pat_rl_simulator.py" source_line=92}
  ROOT tuple.180 = (f64[4]{0}, f64[4]{0}, f64[], f64[4]{0}, f64[4]{0}, /*index=5*/f64[4]{0}, pred[4]{0}) tuple(get-tuple-element.5173, get-tuple-element.5892, get-tuple-element.5891, bitcast.1663.0, get-tuple-element.5893, /*index=5*/get-tuple-element.5894, get-tuple-element.5179)
} // region_3.329

fused_divide_exponential_multiply {
  constant_358_4 = f64[] constant(1)
  broadcast.453.1.clone.1 = f64[4]{0} broadcast(constant_358_4), dimensions={}
  param_3.646 = f64[4]{0} parameter(3)
  param_4.571 = f64[4]{0} parameter(4)
  multiply.848.7.clone.1 = f64[4]{0} multiply(param_3.646, param_4.571), metadata={op_name="jit(scan)/jit(main)/while/body/jit(beliefs_propagation)/jit(continuous_node_prediction)/jit(predict_mean)/mul" source_file="/fs04/fc37/adam/projects/psilocybin-prl-analyses/src/prl_hgf/fitting/hierarchical_patrl.py" source_line=362}
  param_1.743 = f64[192]{0} parameter(1)
  param_2.696 = s64[] parameter(2)
  constant_357_78_clone_1 = s64[] constant(0)
  compare.263.193.clone.1 = pred[] compare(param_2.696, constant_357_78_clone_1), direction=LT, metadata={op_name="jit(scan)/jit(main)/while/body/lt" source_file="/fs04/fc37/adam/projects/psilocybin-prl-analyses/src/prl_hgf/fitting/hierarchical_patrl.py" source_line=378}
  constant_356_78_clone_1 = s64[] constant(192)
  add.339.193.clone.1 = s64[] add(param_2.696, constant_356_78_clone_1), metadata={op_name="jit(scan)/jit(main)/while/body/add" source_file="/fs04/fc37/adam/projects/psilocybin-prl-analyses/src/prl_hgf/fitting/hierarchical_patrl.py" source_line=378}
  select.509.193.clone.1 = s64[] select(compare.263.193.clone.1, add.339.193.clone.1, param_2.696), metadata={op_name="jit(scan)/jit(main)/while/body/select_n" source_file="/fs04/fc37/adam/projects/psilocybin-prl-analyses/src/prl_hgf/fitting/hierarchical_patrl.py" source_line=378}
  dynamic-slice.39.55.clone.1 = f64[1]{0} dynamic-slice(param_1.743, select.509.193.clone.1), dynamic_slice_sizes={1}, metadata={op_name="jit(scan)/jit(main)/while/body/dynamic_slice[slice_sizes=(1,)]" source_file="/fs04/fc37/adam/projects/psilocybin-prl-analyses/src/prl_hgf/fitting/hierarchical_patrl.py" source_line=378}
  bitcast.1707.66.clone.1 = f64[] bitcast(dynamic-slice.39.55.clone.1)
  broadcast.452.63.clone.1 = f64[4]{0} broadcast(bitcast.1707.66.clone.1), dimensions={}, metadata={op_name="jit(scan)/jit(main)/while/body/jit(beliefs_propagation)/jit(continuous_node_prediction)/jit(predict_mean)/mul" source_file="/fs04/fc37/adam/projects/psilocybin-prl-analyses/src/prl_hgf/fitting/hierarchical_patrl.py" source_line=362}
  param_0.478 = f64[4]{0} parameter(0)
  multiply.849.9.clone.1 = f64[4]{0} multiply(broadcast.452.63.clone.1, param_0.478), metadata={op_name="jit(scan)/jit(main)/while/body/jit(beliefs_propagation)/jit(continuous_node_prediction)/jit(predict_mean)/mul" source_file="/fs04/fc37/adam/projects/psilocybin-prl-analyses/src/prl_hgf/fitting/hierarchical_patrl.py" source_line=362}
  add.340.7.clone.1 = f64[4]{0} add(multiply.848.7.clone.1, multiply.849.9.clone.1), metadata={op_name="jit(scan)/jit(main)/while/body/jit(beliefs_propagation)/jit(continuous_node_prediction)/jit(predict_mean)/add" source_file="/fs04/fc37/adam/projects/psilocybin-prl-analyses/src/prl_hgf/fitting/hierarchical_patrl.py" source_line=362}
  negate.18.1.clone.1 = f64[4]{0} negate(add.340.7.clone.1), metadata={op_name="jit(scan)/jit(main)/while/body/jit(beliefs_propagation)/jit(binary_state_node_prediction)/neg" source_file="/fs04/fc37/adam/projects/psilocybin-prl-analyses/src/prl_hgf/fitting/hierarchical_patrl.py" source_line=362}
  exponential.59.1.clone.1 = f64[4]{0} exponential(negate.18.1.clone.1), metadata={op_name="jit(scan)/jit(main)/while/body/jit(beliefs_propagation)/jit(binary_state_node_prediction)/exp" source_file="/fs04/fc37/adam/projects/psilocybin-prl-analyses/src/prl_hgf/fitting/hierarchical_patrl.py" source_line=362}
  add.341.1.clone.1 = f64[4]{0} add(exponential.59.1.clone.1, broadcast.453.1.clone.1), metadata={op_name="jit(scan)/jit(main)/while/body/jit(beliefs_propagation)/jit(binary_state_node_prediction)/add" source_file="/fs04/fc37/adam/projects/psilocybin-prl-analyses/src/prl_hgf/fitting/hierarchical_patrl.py" source_line=362}
  divide.390.1.clone.1 = f64[4]{0} divide(broadcast.453.1.clone.1, add.341.1.clone.1), metadata={op_name="jit(scan)/jit(main)/while/body/jit(beliefs_propagation)/jit(binary_state_node_prediction)/div" source_file="/fs04/fc37/adam/projects/psilocybin-prl-analyses/src/prl_hgf/fitting/hierarchical_patrl.py" source_line=362}
  subtract.76.5 = f64[4]{0} subtract(broadcast.453.1.clone.1, divide.390.1.clone.1), metadata={op_name="jit(scan)/jit(main)/while/body/jit(beliefs_propagation)/jit(binary_state_node_prediction)/sub" source_file="/fs04/fc37/adam/projects/psilocybin-prl-analyses/src/prl_hgf/fitting/hierarchical_patrl.py" source_line=362}
  multiply.850.1 = f64[4]{0} multiply(divide.390.1.clone.1, subtract.76.5), metadata={op_name="jit(scan)/jit(main)/while/body/jit(beliefs_propagation)/jit(binary_state_node_prediction)/mul" source_file="/fs04/fc37/adam/projects/psilocybin-prl-analyses/src/prl_hgf/fitting/hierarchical_patrl.py" source_line=362}
  param_9.130 = f64[4]{0} parameter(9)
  divide.391.1.clone.1.clone.1 = f64[4]{0} divide(broadcast.453.1.clone.1, param_9.130), metadata={op_name="jit(scan)/jit(main)/while/body/jit(beliefs_propagation)/jit(continuous_node_prediction)/jit(predict_precision)/div" source_file="/fs04/fc37/adam/projects/psilocybin-prl-analyses/src/prl_hgf/fitting/hierarchical_patrl.py" source_line=362}
  param_6.313 = f64[4]{0} parameter(6)
  param_8.174 = f64[4,1]{1,0} parameter(8)
  bitcast.1776.5.clone.1.clone.1 = f64[4]{0} bitcast(param_8.174)
  param_7.224 = f64[4]{0} parameter(7)
  multiply.852.5.clone.1.clone.1 = f64[4]{0} multiply(bitcast.1776.5.clone.1.clone.1, param_7.224), metadata={op_name="jit(scan)/jit(main)/while/body/jit(beliefs_propagation)/jit(continuous_node_prediction)/jit(predict_precision)/mul" source_file="/fs04/fc37/adam/projects/psilocybin-prl-analyses/src/prl_hgf/fitting/hierarchical_patrl.py" source_line=362}
  add.342.3.clone.1.clone.1 = f64[4]{0} add(param_6.313, multiply.852.5.clone.1.clone.1), metadata={op_name="jit(scan)/jit(main)/while/body/jit(beliefs_propagation)/jit(continuous_node_prediction)/jit(predict_precision)/add" source_file="/fs04/fc37/adam/projects/psilocybin-prl-analyses/src/prl_hgf/fitting/hierarchical_patrl.py" source_line=362}
  exponential.60.1.clone.1.clone.1 = f64[4]{0} exponential(add.342.3.clone.1.clone.1), metadata={op_name="jit(scan)/jit(main)/while/body/jit(beliefs_propagation)/jit(continuous_node_prediction)/jit(predict_precision)/exp" source_file="/fs04/fc37/adam/projects/psilocybin-prl-analyses/src/prl_hgf/fitting/hierarchical_patrl.py" source_line=362}
  multiply.853.13.clone.1 = f64[4]{0} multiply(broadcast.452.63.clone.1, exponential.60.1.clone.1.clone.1), metadata={op_name="jit(scan)/jit(main)/while/body/jit(beliefs_propagation)/jit(continuous_node_prediction)/jit(predict_precision)/mul" source_file="/fs04/fc37/adam/projects/psilocybin-prl-analyses/src/prl_hgf/fitting/hierarchical_patrl.py" source_line=362}
  constant_359_13_clone_1 = f64[] constant(1e-128)
  broadcast.454.clone.37.clone.1 = f64[4]{0} broadcast(constant_359_13_clone_1), dimensions={}
  compare.265.15.clone.1 = pred[4]{0} compare(multiply.853.13.clone.1, broadcast.454.clone.37.clone.1), direction=GT, metadata={op_name="jit(scan)/jit(main)/while/body/jit(beliefs_propagation)/jit(continuous_node_prediction)/jit(predict_precision)/gt" source_file="/fs04/fc37/adam/projects/psilocybin-prl-analyses/src/prl_hgf/fitting/hierarchical_patrl.py" source_line=362}
  param_5.431 = f64[4]{0} parameter(5)
  select.510.11.clone.1 = f64[4]{0} select(compare.265.15.clone.1, multiply.853.13.clone.1, param_5.431), metadata={op_name="jit(scan)/jit(main)/while/body/jit(beliefs_propagation)/jit(continuous_node_prediction)/jit(predict_precision)/jit(_where)/select_n" source_file="/fs04/fc37/adam/projects/psilocybin-prl-analyses/src/prl_hgf/env/pat_rl_simulator.py" source_line=92}
  add.343.5.clone.1 = f64[4]{0} add(divide.391.1.clone.1.clone.1, select.510.11.clone.1), metadata={op_name="jit(scan)/jit(main)/while/body/jit(beliefs_propagation)/jit(continuous_node_prediction)/jit(predict_precision)/add" source_file="/fs04/fc37/adam/projects/psilocybin-prl-analyses/src/prl_hgf/fitting/hierarchical_patrl.py" source_line=362}
  divide.392.1.clone.1 = f64[4]{0} divide(broadcast.453.1.clone.1, add.343.5.clone.1), metadata={op_name="jit(scan)/jit(main)/while/body/jit(beliefs_propagation)/jit(continuous_node_prediction)/jit(predict_precision)/div" source_file="/fs04/fc37/adam/projects/psilocybin-prl-analyses/src/prl_hgf/fitting/hierarchical_patrl.py" source_line=362}
  ROOT tuple.175 = (f64[4]{0}, f64[4]{0}, f64[4]{0}, f64[4]{0}, f64[4]{0}) tuple(multiply.850.1, divide.390.1.clone.1, divide.392.1.clone.1, exponential.60.1.clone.1.clone.1, divide.391.1.clone.1.clone.1)
} // fused_divide_exponential_multiply

fused_dynamic_slice {
  param_0.329 = f64[192]{0} parameter(0)
  param_1.453 = s64[] parameter(1)
  constant_357_62 = s64[] constant(0)
  compare.263.7 = pred[] compare(param_1.453, constant_357_62), direction=LT, metadata={op_name="jit(scan)/jit(main)/while/body/lt" source_file="/fs04/fc37/adam/projects/psilocybin-prl-analyses/src/prl_hgf/fitting/hierarchical_patrl.py" source_line=378}
  constant_356_4 = s64[] constant(192)
  add.339.7 = s64[] add(param_1.453, constant_356_4), metadata={op_name="jit(scan)/jit(main)/while/body/add" source_file="/fs04/fc37/adam/projects/psilocybin-prl-analyses/src/prl_hgf/fitting/hierarchical_patrl.py" source_line=378}
  select.509.7 = s64[] select(compare.263.7, add.339.7, param_1.453), metadata={op_name="jit(scan)/jit(main)/while/body/select_n" source_file="/fs04/fc37/adam/projects/psilocybin-prl-analyses/src/prl_hgf/fitting/hierarchical_patrl.py" source_line=378}
  ROOT dynamic-slice.39.7 = f64[1]{0} dynamic-slice(param_0.329, select.509.7), dynamic_slice_sizes={1}, metadata={op_name="jit(scan)/jit(main)/while/body/dynamic_slice[slice_sizes=(1,)]" source_file="/fs04/fc37/adam/projects/psilocybin-prl-analyses/src/prl_hgf/fitting/hierarchical_patrl.py" source_line=378}
} // fused_dynamic_slice

fused_convert_dynamic_slice {
  param_0.331 = s32[192]{0} parameter(0)
  param_1.457 = s64[] parameter(1)
  constant_357_63 = s64[] constant(0)
  compare.263.9 = pred[] compare(param_1.457, constant_357_63), direction=LT, metadata={op_name="jit(scan)/jit(main)/while/body/lt" source_file="/fs04/fc37/adam/projects/psilocybin-prl-analyses/src/prl_hgf/fitting/hierarchical_patrl.py" source_line=378}
  constant_356_5 = s64[] constant(192)
  add.339.9 = s64[] add(param_1.457, constant_356_5), metadata={op_name="jit(scan)/jit(main)/while/body/add" source_file="/fs04/fc37/adam/projects/psilocybin-prl-analyses/src/prl_hgf/fitting/hierarchical_patrl.py" source_line=378}
  select.509.9 = s64[] select(compare.263.9, add.339.9, param_1.457), metadata={op_name="jit(scan)/jit(main)/while/body/select_n" source_file="/fs04/fc37/adam/projects/psilocybin-prl-analyses/src/prl_hgf/fitting/hierarchical_patrl.py" source_line=378}
  dynamic-slice.40.19 = s32[1]{0} dynamic-slice(param_0.331, select.509.9), dynamic_slice_sizes={1}, metadata={op_name="jit(scan)/jit(main)/while/body/dynamic_slice[slice_sizes=(1,)]" source_file="/fs04/fc37/adam/projects/psilocybin-prl-analyses/src/prl_hgf/fitting/hierarchical_patrl.py" source_line=378}
  constant_360_2_clone_1 = s32[1]{0} constant({0})
  compare.264.1.clone.1 = pred[1]{0} compare(dynamic-slice.40.19, constant_360_2_clone_1), direction=NE, metadata={op_name="jit(scan)/jit(main)/while/body/jit(beliefs_propagation)/jit(continuous_node_posterior_update)/jit(posterior_update_precision_continuous_node)/convert_element_type[new_dtype=bool weak_type=False sharding=None]" source_file="/fs04/fc37/adam/projects/psilocybin-prl-analyses/src/prl_hgf/fitting/hierarchical_patrl.py" source_line=362}
  convert.84.2.clone.1 = s32[1]{0} convert(compare.264.1.clone.1), metadata={op_name="jit(scan)/jit(main)/while/body/jit(beliefs_propagation)/jit(continuous_node_posterior_update)/jit(posterior_update_precision_continuous_node)/convert_element_type[new_dtype=int32 weak_type=False sharding=None]" source_file="/fs04/fc37/adam/projects/psilocybin-prl-analyses/src/prl_hgf/fitting/hierarchical_patrl.py" source_line=362}
  ROOT tuple.172 = (s32[1]{0}, s32[1]{0}) tuple(dynamic-slice.40.19, convert.84.2.clone.1)
} // fused_convert_dynamic_slice

wrapped_copy_computation.3 {
  param_0.581 = f64[4]{0} parameter(0)
  ROOT copy.569 = f64[4]{0} copy(param_0.581)
}

fused_dynamic_update_slice.30 {
  param_0.66 = pred[192,4]{1,0} parameter(0)
  param_1.701 = pred[4]{0} parameter(1)
  bitcast.2439.1 = pred[1,4]{1,0} bitcast(param_1.701)
  param_2.629 = s64[] parameter(2)
  constant_357_56 = s64[] constant(0)
  compare.263.75 = pred[] compare(param_2.629, constant_357_56), direction=LT, metadata={op_name="jit(scan)/jit(main)/while/body/lt" source_file="/fs04/fc37/adam/projects/psilocybin-prl-analyses/src/prl_hgf/fitting/hierarchical_patrl.py" source_line=378}
  constant_356_38 = s64[] constant(192)
  add.339.75 = s64[] add(param_2.629, constant_356_38), metadata={op_name="jit(scan)/jit(main)/while/body/add" source_file="/fs04/fc37/adam/projects/psilocybin-prl-analyses/src/prl_hgf/fitting/hierarchical_patrl.py" source_line=378}
  select.509.75 = s64[] select(compare.263.75, add.339.75, param_2.629), metadata={op_name="jit(scan)/jit(main)/while/body/select_n" source_file="/fs04/fc37/adam/projects/psilocybin-prl-analyses/src/prl_hgf/fitting/hierarchical_patrl.py" source_line=378}
  ROOT dynamic-update-slice.887.1 = pred[192,4]{1,0} dynamic-update-slice(param_0.66, bitcast.2439.1, select.509.75, constant_357_56), metadata={op_name="jit(scan)/jit(main)/while/body/dynamic_update_slice" source_file="/fs04/fc37/adam/projects/psilocybin-prl-analyses/src/prl_hgf/fitting/hierarchical_patrl.py" source_line=378}
} // fused_dynamic_update_slice.30

fused_dynamic_update_slice.45 {
  param_0.81 = pred[192,4]{1,0} parameter(0)
  param_3.608 = f64[192]{0} parameter(3)
  param_1.715 = s64[] parameter(1)
  constant_357_38 = s64[] constant(0)
  compare.263.167 = pred[] compare(param_1.715, constant_357_38), direction=LT, metadata={op_name="jit(scan)/jit(main)/while/body/lt" source_file="/fs04/fc37/adam/projects/psilocybin-prl-analyses/src/prl_hgf/fitting/hierarchical_patrl.py" source_line=378}
  constant_356_20 = s64[] constant(192)
  add.339.167 = s64[] add(param_1.715, constant_356_20), metadata={op_name="jit(scan)/jit(main)/while/body/add" source_file="/fs04/fc37/adam/projects/psilocybin-prl-analyses/src/prl_hgf/fitting/hierarchical_patrl.py" source_line=378}
  select.509.167 = s64[] select(compare.263.167, add.339.167, param_1.715), metadata={op_name="jit(scan)/jit(main)/while/body/select_n" source_file="/fs04/fc37/adam/projects/psilocybin-prl-analyses/src/prl_hgf/fitting/hierarchical_patrl.py" source_line=378}
  dynamic-slice.39.29 = f64[1]{0} dynamic-slice(param_3.608, select.509.167), dynamic_slice_sizes={1}, metadata={op_name="jit(scan)/jit(main)/while/body/dynamic_slice[slice_sizes=(1,)]" source_file="/fs04/fc37/adam/projects/psilocybin-prl-analyses/src/prl_hgf/fitting/hierarchical_patrl.py" source_line=378}
  bitcast.1707.40 = f64[] bitcast(dynamic-slice.39.29)
  broadcast.452.37 = f64[4]{0} broadcast(bitcast.1707.40), dimensions={}, metadata={op_name="jit(scan)/jit(main)/while/body/jit(beliefs_propagation)/jit(continuous_node_prediction)/jit(predict_mean)/mul" source_file="/fs04/fc37/adam/projects/psilocybin-prl-analyses/src/prl_hgf/fitting/hierarchical_patrl.py" source_line=362}
  param_2.652 = f64[4]{0} parameter(2)
  multiply.853.5 = f64[4]{0} multiply(broadcast.452.37, param_2.652), metadata={op_name="jit(scan)/jit(main)/while/body/jit(beliefs_propagation)/jit(continuous_node_prediction)/jit(predict_precision)/mul" source_file="/fs04/fc37/adam/projects/psilocybin-prl-analyses/src/prl_hgf/fitting/hierarchical_patrl.py" source_line=362}
  constant_359_6 = f64[] constant(1e-128)
  broadcast.454.clone.15 = f64[4]{0} broadcast(constant_359_6), dimensions={}
  compare.265.3 = pred[4]{0} compare(multiply.853.5, broadcast.454.clone.15), direction=GT, metadata={op_name="jit(scan)/jit(main)/while/body/jit(beliefs_propagation)/jit(continuous_node_prediction)/jit(predict_precision)/gt" source_file="/fs04/fc37/adam/projects/psilocybin-prl-analyses/src/prl_hgf/fitting/hierarchical_patrl.py" source_line=362}
  bitcast.2263.1 = pred[1,4]{1,0} bitcast(compare.265.3)
  ROOT dynamic-update-slice.871.1 = pred[192,4]{1,0} dynamic-update-slice(param_0.81, bitcast.2263.1, select.509.167, constant_357_38), metadata={op_name="jit(scan)/jit(main)/while/body/dynamic_update_slice" source_file="/fs04/fc37/adam/projects/psilocybin-prl-analyses/src/prl_hgf/fitting/hierarchical_patrl.py" source_line=378}
} // fused_dynamic_update_slice.45

fused_dynamic_update_slice.8 {
  param_0.44 = pred[192,4,1]{2,1,0} parameter(0)
  param_1.722 = s64[4]{0} parameter(1)
  constant_357_60 = s64[] constant(0)
  broadcast.460.13 = s64[4]{0} broadcast(constant_357_60), dimensions={}
  compare.268.13 = pred[4]{0} compare(param_1.722, broadcast.460.13), direction=NE, metadata={op_name="jit(scan)/jit(main)/while/body/jit(beliefs_propagation)/jit(continuous_node_posterior_update_ehgf)/jit(posterior_update_precision_continuous_node)/convert_element_type[new_dtype=bool weak_type=False sharding=None]" source_file="/fs04/fc37/adam/projects/psilocybin-prl-analyses/src/prl_hgf/fitting/hierarchical_patrl.py" source_line=362}
  convert.87.13 = s32[4]{0} convert(compare.268.13), metadata={op_name="jit(scan)/jit(main)/while/body/jit(beliefs_propagation)/jit(continuous_node_posterior_update_ehgf)/jit(posterior_update_precision_continuous_node)/convert_element_type[new_dtype=int32 weak_type=False sharding=None]" source_file="/fs04/fc37/adam/projects/psilocybin-prl-analyses/src/prl_hgf/fitting/hierarchical_patrl.py" source_line=362}
  constant_362_3 = s32[] constant(1)
  broadcast.461.clone.9 = s32[4]{0} broadcast(constant_362_3), dimensions={}
  compare.272.3 = pred[4]{0} compare(convert.87.13, broadcast.461.clone.9), direction=EQ, metadata={op_name="jit(scan)/jit(main)/while/body/jit(beliefs_propagation)/jit(continuous_node_posterior_update_ehgf)/jit(posterior_update_precision_continuous_node)/eq" source_file="/fs04/fc37/adam/projects/psilocybin-prl-analyses/src/prl_hgf/fitting/hierarchical_patrl.py" source_line=362}
  bitcast.2714.1 = pred[1,4,1]{2,1,0} bitcast(compare.272.3)
  param_2.662 = s64[] parameter(2)
  compare.263.3 = pred[] compare(param_2.662, constant_357_60), direction=LT, metadata={op_name="jit(scan)/jit(main)/while/body/lt" source_file="/fs04/fc37/adam/projects/psilocybin-prl-analyses/src/prl_hgf/fitting/hierarchical_patrl.py" source_line=378}
  constant_356_2 = s64[] constant(192)
  add.339.3 = s64[] add(param_2.662, constant_356_2), metadata={op_name="jit(scan)/jit(main)/while/body/add" source_file="/fs04/fc37/adam/projects/psilocybin-prl-analyses/src/prl_hgf/fitting/hierarchical_patrl.py" source_line=378}
  select.509.3 = s64[] select(compare.263.3, add.339.3, param_2.662), metadata={op_name="jit(scan)/jit(main)/while/body/select_n" source_file="/fs04/fc37/adam/projects/psilocybin-prl-analyses/src/prl_hgf/fitting/hierarchical_patrl.py" source_line=378}
  ROOT dynamic-update-slice.910.1 = pred[192,4,1]{2,1,0} dynamic-update-slice(param_0.44, bitcast.2714.1, select.509.3, constant_357_60, constant_357_60), metadata={op_name="jit(scan)/jit(main)/while/body/dynamic_update_slice" source_file="/fs04/fc37/adam/projects/psilocybin-prl-analyses/src/prl_hgf/fitting/hierarchical_patrl.py" source_line=378}
} // fused_dynamic_update_slice.8

fused_dynamic_update_slice.9 {
  param_0.45 = pred[192,4]{1,0} parameter(0)
  param_1.720 = s64[4]{0} parameter(1)
  constant_357_5 = s64[] constant(0)
  broadcast.460.7 = s64[4]{0} broadcast(constant_357_5), dimensions={}
  compare.268.7 = pred[4]{0} compare(param_1.720, broadcast.460.7), direction=NE, metadata={op_name="jit(scan)/jit(main)/while/body/jit(beliefs_propagation)/jit(continuous_node_posterior_update_ehgf)/jit(posterior_update_precision_continuous_node)/convert_element_type[new_dtype=bool weak_type=False sharding=None]" source_file="/fs04/fc37/adam/projects/psilocybin-prl-analyses/src/prl_hgf/fitting/hierarchical_patrl.py" source_line=362}
  convert.87.7 = s32[4]{0} convert(compare.268.7), metadata={op_name="jit(scan)/jit(main)/while/body/jit(beliefs_propagation)/jit(continuous_node_posterior_update_ehgf)/jit(posterior_update_precision_continuous_node)/convert_element_type[new_dtype=int32 weak_type=False sharding=None]" source_file="/fs04/fc37/adam/projects/psilocybin-prl-analyses/src/prl_hgf/fitting/hierarchical_patrl.py" source_line=362}
  constant_362_1 = s32[] constant(1)
  broadcast.461.clone.11 = s32[4]{0} broadcast(constant_362_1), dimensions={}
  compare.272.5 = pred[4]{0} compare(convert.87.7, broadcast.461.clone.11), direction=EQ, metadata={op_name="jit(scan)/jit(main)/while/body/jit(beliefs_propagation)/jit(continuous_node_posterior_update_ehgf)/jit(posterior_update_precision_continuous_node)/eq" source_file="/fs04/fc37/adam/projects/psilocybin-prl-analyses/src/prl_hgf/fitting/hierarchical_patrl.py" source_line=362}
  bitcast.2703.1 = pred[1,4]{1,0} bitcast(compare.272.5)
  param_2.660 = s64[] parameter(2)
  compare.263.127 = pred[] compare(param_2.660, constant_357_5), direction=LT, metadata={op_name="jit(scan)/jit(main)/while/body/lt" source_file="/fs04/fc37/adam/projects/psilocybin-prl-analyses/src/prl_hgf/fitting/hierarchical_patrl.py" source_line=378}
  constant_356_64 = s64[] constant(192)
  add.339.127 = s64[] add(param_2.660, constant_356_64), metadata={op_name="jit(scan)/jit(main)/while/body/add" source_file="/fs04/fc37/adam/projects/psilocybin-prl-analyses/src/prl_hgf/fitting/hierarchical_patrl.py" source_line=378}
  select.509.127 = s64[] select(compare.263.127, add.339.127, param_2.660), metadata={op_name="jit(scan)/jit(main)/while/body/select_n" source_file="/fs04/fc37/adam/projects/psilocybin-prl-analyses/src/prl_hgf/fitting/hierarchical_patrl.py" source_line=378}
  ROOT dynamic-update-slice.909.1 = pred[192,4]{1,0} dynamic-update-slice(param_0.45, bitcast.2703.1, select.509.127, constant_357_5), metadata={op_name="jit(scan)/jit(main)/while/body/dynamic_update_slice" source_file="/fs04/fc37/adam/projects/psilocybin-prl-analyses/src/prl_hgf/fitting/hierarchical_patrl.py" source_line=378}
} // fused_dynamic_update_slice.9

fused_dynamic_update_slice.11 {
  param_0.47 = pred[192,4,1]{2,1,0} parameter(0)
  param_1.724 = s64[4]{0} parameter(1)
  constant_357_27 = s64[] constant(0)
  broadcast.460.11 = s64[4]{0} broadcast(constant_357_27), dimensions={}
  compare.268.11 = pred[4]{0} compare(param_1.724, broadcast.460.11), direction=NE, metadata={op_name="jit(scan)/jit(main)/while/body/jit(beliefs_propagation)/jit(continuous_node_posterior_update_ehgf)/jit(posterior_update_precision_continuous_node)/convert_element_type[new_dtype=bool weak_type=False sharding=None]" source_file="/fs04/fc37/adam/projects/psilocybin-prl-analyses/src/prl_hgf/fitting/hierarchical_patrl.py" source_line=362}
  convert.87.11 = s32[4]{0} convert(compare.268.11), metadata={op_name="jit(scan)/jit(main)/while/body/jit(beliefs_propagation)/jit(continuous_node_posterior_update_ehgf)/jit(posterior_update_precision_continuous_node)/convert_element_type[new_dtype=int32 weak_type=False sharding=None]" source_file="/fs04/fc37/adam/projects/psilocybin-prl-analyses/src/prl_hgf/fitting/hierarchical_patrl.py" source_line=362}
  constant_364_2 = s32[] constant(0)
  broadcast.463.3 = s32[4]{0} broadcast(constant_364_2), dimensions={}
  compare.271.3 = pred[4]{0} compare(convert.87.11, broadcast.463.3), direction=EQ, metadata={op_name="jit(scan)/jit(main)/while/body/jit(beliefs_propagation)/jit(continuous_node_posterior_update_ehgf)/jit(posterior_update_precision_continuous_node)/eq" source_file="/fs04/fc37/adam/projects/psilocybin-prl-analyses/src/prl_hgf/fitting/hierarchical_patrl.py" source_line=362}
  bitcast.2662.1 = pred[1,4,1]{2,1,0} bitcast(compare.271.3)
  param_2.666 = s64[] parameter(2)
  compare.263.117 = pred[] compare(param_2.666, constant_357_27), direction=LT, metadata={op_name="jit(scan)/jit(main)/while/body/lt" source_file="/fs04/fc37/adam/projects/psilocybin-prl-analyses/src/prl_hgf/fitting/hierarchical_patrl.py" source_line=378}
  constant_356_59 = s64[] constant(192)
  add.339.117 = s64[] add(param_2.666, constant_356_59), metadata={op_name="jit(scan)/jit(main)/while/body/add" source_file="/fs04/fc37/adam/projects/psilocybin-prl-analyses/src/prl_hgf/fitting/hierarchical_patrl.py" source_line=378}
  select.509.117 = s64[] select(compare.263.117, add.339.117, param_2.666), metadata={op_name="jit(scan)/jit(main)/while/body/select_n" source_file="/fs04/fc37/adam/projects/psilocybin-prl-analyses/src/prl_hgf/fitting/hierarchical_patrl.py" source_line=378}
  ROOT dynamic-update-slice.906.1 = pred[192,4,1]{2,1,0} dynamic-update-slice(param_0.47, bitcast.2662.1, select.509.117, constant_357_27, constant_357_27), metadata={op_name="jit(scan)/jit(main)/while/body/dynamic_update_slice" source_file="/fs04/fc37/adam/projects/psilocybin-prl-analyses/src/prl_hgf/fitting/hierarchical_patrl.py" source_line=378}
} // fused_dynamic_update_slice.11

fused_dynamic_update_slice.12 {
  param_0.48 = pred[192,4]{1,0} parameter(0)
  param_1.723 = s64[4]{0} parameter(1)
  constant_357_39 = s64[] constant(0)
  broadcast.460.3 = s64[4]{0} broadcast(constant_357_39), dimensions={}
  compare.268.3 = pred[4]{0} compare(param_1.723, broadcast.460.3), direction=NE, metadata={op_name="jit(scan)/jit(main)/while/body/jit(beliefs_propagation)/jit(continuous_node_posterior_update_ehgf)/jit(posterior_update_precision_continuous_node)/convert_element_type[new_dtype=bool weak_type=False sharding=None]" source_file="/fs04/fc37/adam/projects/psilocybin-prl-analyses/src/prl_hgf/fitting/hierarchical_patrl.py" source_line=362}
  convert.87.3 = s32[4]{0} convert(compare.268.3), metadata={op_name="jit(scan)/jit(main)/while/body/jit(beliefs_propagation)/jit(continuous_node_posterior_update_ehgf)/jit(posterior_update_precision_continuous_node)/convert_element_type[new_dtype=int32 weak_type=False sharding=None]" source_file="/fs04/fc37/adam/projects/psilocybin-prl-analyses/src/prl_hgf/fitting/hierarchical_patrl.py" source_line=362}
  constant_364_1 = s32[] constant(0)
  broadcast.463.5 = s32[4]{0} broadcast(constant_364_1), dimensions={}
  compare.271.5 = pred[4]{0} compare(convert.87.3, broadcast.463.5), direction=EQ, metadata={op_name="jit(scan)/jit(main)/while/body/jit(beliefs_propagation)/jit(continuous_node_posterior_update_ehgf)/jit(posterior_update_precision_continuous_node)/eq" source_file="/fs04/fc37/adam/projects/psilocybin-prl-analyses/src/prl_hgf/fitting/hierarchical_patrl.py" source_line=362}
  bitcast.2651.1 = pred[1,4]{1,0} bitcast(compare.271.5)
  param_2.665 = s64[] parameter(2)
  compare.263.115 = pred[] compare(param_2.665, constant_357_39), direction=LT, metadata={op_name="jit(scan)/jit(main)/while/body/lt" source_file="/fs04/fc37/adam/projects/psilocybin-prl-analyses/src/prl_hgf/fitting/hierarchical_patrl.py" source_line=378}
  constant_356_58 = s64[] constant(192)
  add.339.115 = s64[] add(param_2.665, constant_356_58), metadata={op_name="jit(scan)/jit(main)/while/body/add" source_file="/fs04/fc37/adam/projects/psilocybin-prl-analyses/src/prl_hgf/fitting/hierarchical_patrl.py" source_line=378}
  select.509.115 = s64[] select(compare.263.115, add.339.115, param_2.665), metadata={op_name="jit(scan)/jit(main)/while/body/select_n" source_file="/fs04/fc37/adam/projects/psilocybin-prl-analyses/src/prl_hgf/fitting/hierarchical_patrl.py" source_line=378}
  ROOT dynamic-update-slice.905.1 = pred[192,4]{1,0} dynamic-update-slice(param_0.48, bitcast.2651.1, select.509.115, constant_357_39), metadata={op_name="jit(scan)/jit(main)/while/body/dynamic_update_slice" source_file="/fs04/fc37/adam/projects/psilocybin-prl-analyses/src/prl_hgf/fitting/hierarchical_patrl.py" source_line=378}
} // fused_dynamic_update_slice.12

fused_dynamic_update_slice.59 {
  param_0.219 = s32[192]{0} parameter(0)
  param_1.716 = s32[192]{0} parameter(1)
  param_2.655 = s64[] parameter(2)
  constant_357_65 = s64[] constant(0)
  compare.263.63 = pred[] compare(param_2.655, constant_357_65), direction=LT, metadata={op_name="jit(scan)/jit(main)/while/body/lt" source_file="/fs04/fc37/adam/projects/psilocybin-prl-analyses/src/prl_hgf/fitting/hierarchical_patrl.py" source_line=378}
  constant_356_32 = s64[] constant(192)
  add.339.63 = s64[] add(param_2.655, constant_356_32), metadata={op_name="jit(scan)/jit(main)/while/body/add" source_file="/fs04/fc37/adam/projects/psilocybin-prl-analyses/src/prl_hgf/fitting/hierarchical_patrl.py" source_line=378}
  select.509.63 = s64[] select(compare.263.63, add.339.63, param_2.655), metadata={op_name="jit(scan)/jit(main)/while/body/select_n" source_file="/fs04/fc37/adam/projects/psilocybin-prl-analyses/src/prl_hgf/fitting/hierarchical_patrl.py" source_line=378}
  dynamic-slice.40.1 = s32[1]{0} dynamic-slice(param_1.716, select.509.63), dynamic_slice_sizes={1}, metadata={op_name="jit(scan)/jit(main)/while/body/dynamic_slice[slice_sizes=(1,)]" source_file="/fs04/fc37/adam/projects/psilocybin-prl-analyses/src/prl_hgf/fitting/hierarchical_patrl.py" source_line=378}
  constant_360_1 = s32[1]{0} constant({0})
  compare.264.2 = pred[1]{0} compare(dynamic-slice.40.1, constant_360_1), direction=NE, metadata={op_name="jit(scan)/jit(main)/while/body/jit(beliefs_propagation)/jit(continuous_node_posterior_update)/jit(posterior_update_precision_continuous_node)/convert_element_type[new_dtype=bool weak_type=False sharding=None]" source_file="/fs04/fc37/adam/projects/psilocybin-prl-analyses/src/prl_hgf/fitting/hierarchical_patrl.py" source_line=362}
  convert.84.1 = s32[1]{0} convert(compare.264.2), metadata={op_name="jit(scan)/jit(main)/while/body/jit(beliefs_propagation)/jit(continuous_node_posterior_update)/jit(posterior_update_precision_continuous_node)/convert_element_type[new_dtype=int32 weak_type=False sharding=None]" source_file="/fs04/fc37/adam/projects/psilocybin-prl-analyses/src/prl_hgf/fitting/hierarchical_patrl.py" source_line=362}
  ROOT dynamic-update-slice.881.1 = s32[192]{0} dynamic-update-slice(param_0.219, convert.84.1, select.509.63), metadata={op_name="jit(scan)/jit(main)/while/body/dynamic_update_slice" source_file="/fs04/fc37/adam/projects/psilocybin-prl-analyses/src/prl_hgf/fitting/hierarchical_patrl.py" source_line=378}
} // fused_dynamic_update_slice.59

fused_dynamic_update_slice.34 {
  param_0.70 = f64[192]{0} parameter(0)
  param_1.514 = f64[] parameter(1)
  bitcast.2397.1 = f64[1]{0} bitcast(param_1.514)
  param_2.408 = s64[] parameter(2)
  constant_357_66 = s64[] constant(0)
  compare.263.67 = pred[] compare(param_2.408, constant_357_66), direction=LT, metadata={op_name="jit(scan)/jit(main)/while/body/lt" source_file="/fs04/fc37/adam/projects/psilocybin-prl-analyses/src/prl_hgf/fitting/hierarchical_patrl.py" source_line=378}
  constant_356_34 = s64[] constant(192)
  add.339.67 = s64[] add(param_2.408, constant_356_34), metadata={op_name="jit(scan)/jit(main)/while/body/add" source_file="/fs04/fc37/adam/projects/psilocybin-prl-analyses/src/prl_hgf/fitting/hierarchical_patrl.py" source_line=378}
  select.509.67 = s64[] select(compare.263.67, add.339.67, param_2.408), metadata={op_name="jit(scan)/jit(main)/while/body/select_n" source_file="/fs04/fc37/adam/projects/psilocybin-prl-analyses/src/prl_hgf/fitting/hierarchical_patrl.py" source_line=378}
  ROOT dynamic-update-slice.883.1 = f64[192]{0} dynamic-update-slice(param_0.70, bitcast.2397.1, select.509.67), metadata={op_name="jit(scan)/jit(main)/while/body/dynamic_update_slice" source_file="/fs04/fc37/adam/projects/psilocybin-prl-analyses/src/prl_hgf/fitting/hierarchical_patrl.py" source_line=378}
} // fused_dynamic_update_slice.34

fused_dynamic_update_slice.38 {
  param_0.74 = f64[192]{0} parameter(0)
  param_1.502 = s32[192]{0} parameter(1)
  param_2.395 = s64[] parameter(2)
  constant_357_64 = s64[] constant(0)
  compare.263.55 = pred[] compare(param_2.395, constant_357_64), direction=LT, metadata={op_name="jit(scan)/jit(main)/while/body/lt" source_file="/fs04/fc37/adam/projects/psilocybin-prl-analyses/src/prl_hgf/fitting/hierarchical_patrl.py" source_line=378}
  constant_356_28 = s64[] constant(192)
  add.339.55 = s64[] add(param_2.395, constant_356_28), metadata={op_name="jit(scan)/jit(main)/while/body/add" source_file="/fs04/fc37/adam/projects/psilocybin-prl-analyses/src/prl_hgf/fitting/hierarchical_patrl.py" source_line=378}
  select.509.55 = s64[] select(compare.263.55, add.339.55, param_2.395), metadata={op_name="jit(scan)/jit(main)/while/body/select_n" source_file="/fs04/fc37/adam/projects/psilocybin-prl-analyses/src/prl_hgf/fitting/hierarchical_patrl.py" source_line=378}
  dynamic-slice.40.6 = s32[1]{0} dynamic-slice(param_1.502, select.509.55), dynamic_slice_sizes={1}, metadata={op_name="jit(scan)/jit(main)/while/body/dynamic_slice[slice_sizes=(1,)]" source_file="/fs04/fc37/adam/projects/psilocybin-prl-analyses/src/prl_hgf/fitting/hierarchical_patrl.py" source_line=378}
  bitcast.1762.6 = s32[] bitcast(dynamic-slice.40.6)
  convert.85.3 = f64[] convert(bitcast.1762.6), metadata={op_name="jit(scan)/jit(main)/while/body/jit(beliefs_propagation)/jit(binary_state_node_prediction_error)/convert_element_type[new_dtype=float64 weak_type=False sharding=None]" source_file="/fs04/fc37/adam/projects/psilocybin-prl-analyses/src/prl_hgf/fitting/hierarchical_patrl.py" source_line=362}
  bitcast.2344.1 = f64[1]{0} bitcast(convert.85.3)
  ROOT dynamic-update-slice.878.1 = f64[192]{0} dynamic-update-slice(param_0.74, bitcast.2344.1, select.509.55), metadata={op_name="jit(scan)/jit(main)/while/body/dynamic_update_slice" source_file="/fs04/fc37/adam/projects/psilocybin-prl-analyses/src/prl_hgf/fitting/hierarchical_patrl.py" source_line=378}
} // fused_dynamic_update_slice.38

fused_dynamic_update_slice.13 {
  param_0.49 = s32[192,4]{1,0} parameter(0)
  param_1.699 = s64[4]{0} parameter(1)
  constant_357_54 = s64[] constant(0)
  broadcast.460.9 = s64[4]{0} broadcast(constant_357_54), dimensions={}
  compare.268.9 = pred[4]{0} compare(param_1.699, broadcast.460.9), direction=NE, metadata={op_name="jit(scan)/jit(main)/while/body/jit(beliefs_propagation)/jit(continuous_node_posterior_update_ehgf)/jit(posterior_update_precision_continuous_node)/convert_element_type[new_dtype=bool weak_type=False sharding=None]" source_file="/fs04/fc37/adam/projects/psilocybin-prl-analyses/src/prl_hgf/fitting/hierarchical_patrl.py" source_line=362}
  convert.87.9 = s32[4]{0} convert(compare.268.9), metadata={op_name="jit(scan)/jit(main)/while/body/jit(beliefs_propagation)/jit(continuous_node_posterior_update_ehgf)/jit(posterior_update_precision_continuous_node)/convert_element_type[new_dtype=int32 weak_type=False sharding=None]" source_file="/fs04/fc37/adam/projects/psilocybin-prl-analyses/src/prl_hgf/fitting/hierarchical_patrl.py" source_line=362}
  bitcast.2637.1 = s32[1,4]{1,0} bitcast(convert.87.9)
  param_2.627 = s64[] parameter(2)
  compare.263.113 = pred[] compare(param_2.627, constant_357_54), direction=LT, metadata={op_name="jit(scan)/jit(main)/while/body/lt" source_file="/fs04/fc37/adam/projects/psilocybin-prl-analyses/src/prl_hgf/fitting/hierarchical_patrl.py" source_line=378}
  constant_356_57 = s64[] constant(192)
  add.339.113 = s64[] add(param_2.627, constant_356_57), metadata={op_name="jit(scan)/jit(main)/while/body/add" source_file="/fs04/fc37/adam/projects/psilocybin-prl-analyses/src/prl_hgf/fitting/hierarchical_patrl.py" source_line=378}
  select.509.113 = s64[] select(compare.263.113, add.339.113, param_2.627), metadata={op_name="jit(scan)/jit(main)/while/body/select_n" source_file="/fs04/fc37/adam/projects/psilocybin-prl-analyses/src/prl_hgf/fitting/hierarchical_patrl.py" source_line=378}
  ROOT dynamic-update-slice.904.1 = s32[192,4]{1,0} dynamic-update-slice(param_0.49, bitcast.2637.1, select.509.113, constant_357_54), metadata={op_name="jit(scan)/jit(main)/while/body/dynamic_update_slice" source_file="/fs04/fc37/adam/projects/psilocybin-prl-analyses/src/prl_hgf/fitting/hierarchical_patrl.py" source_line=378}
} // fused_dynamic_update_slice.13

fused_dynamic_update_slice.35 {
  param_0.71 = f64[192,4]{1,0} parameter(0)
  param_1.650 = f64[4]{0} parameter(1)
  bitcast.2386.1 = f64[1,4]{1,0} bitcast(param_1.650)
  param_2.578 = s64[] parameter(2)
  constant_357_4 = s64[] constant(0)
  compare.263.65 = pred[] compare(param_2.578, constant_357_4), direction=LT, metadata={op_name="jit(scan)/jit(main)/while/body/lt" source_file="/fs04/fc37/adam/projects/psilocybin-prl-analyses/src/prl_hgf/fitting/hierarchical_patrl.py" source_line=378}
  constant_356_33 = s64[] constant(192)
  add.339.65 = s64[] add(param_2.578, constant_356_33), metadata={op_name="jit(scan)/jit(main)/while/body/add" source_file="/fs04/fc37/adam/projects/psilocybin-prl-analyses/src/prl_hgf/fitting/hierarchical_patrl.py" source_line=378}
  select.509.65 = s64[] select(compare.263.65, add.339.65, param_2.578), metadata={op_name="jit(scan)/jit(main)/while/body/select_n" source_file="/fs04/fc37/adam/projects/psilocybin-prl-analyses/src/prl_hgf/fitting/hierarchical_patrl.py" source_line=378}
  ROOT dynamic-update-slice.882.1 = f64[192,4]{1,0} dynamic-update-slice(param_0.71, bitcast.2386.1, select.509.65, constant_357_4), metadata={op_name="jit(scan)/jit(main)/while/body/dynamic_update_slice" source_file="/fs04/fc37/adam/projects/psilocybin-prl-analyses/src/prl_hgf/fitting/hierarchical_patrl.py" source_line=378}
} // fused_dynamic_update_slice.35

fused_dynamic_update_slice.33 {
  param_0.69 = f64[192,4]{1,0} parameter(0)
  param_1.671 = f64[4]{0} parameter(1)
  bitcast.2406.1 = f64[1,4]{1,0} bitcast(param_1.671)
  param_2.599 = s64[] parameter(2)
  constant_357_26 = s64[] constant(0)
  compare.263.69 = pred[] compare(param_2.599, constant_357_26), direction=LT, metadata={op_name="jit(scan)/jit(main)/while/body/lt" source_file="/fs04/fc37/adam/projects/psilocybin-prl-analyses/src/prl_hgf/fitting/hierarchical_patrl.py" source_line=378}
  constant_356_35 = s64[] constant(192)
  add.339.69 = s64[] add(param_2.599, constant_356_35), metadata={op_name="jit(scan)/jit(main)/while/body/add" source_file="/fs04/fc37/adam/projects/psilocybin-prl-analyses/src/prl_hgf/fitting/hierarchical_patrl.py" source_line=378}
  select.509.69 = s64[] select(compare.263.69, add.339.69, param_2.599), metadata={op_name="jit(scan)/jit(main)/while/body/select_n" source_file="/fs04/fc37/adam/projects/psilocybin-prl-analyses/src/prl_hgf/fitting/hierarchical_patrl.py" source_line=378}
  ROOT dynamic-update-slice.884.1 = f64[192,4]{1,0} dynamic-update-slice(param_0.69, bitcast.2406.1, select.509.69, constant_357_26), metadata={op_name="jit(scan)/jit(main)/while/body/dynamic_update_slice" source_file="/fs04/fc37/adam/projects/psilocybin-prl-analyses/src/prl_hgf/fitting/hierarchical_patrl.py" source_line=378}
} // fused_dynamic_update_slice.33

fused_dynamic_update_slice.32 {
  param_0.68 = f64[192,4]{1,0} parameter(0)
  param_1.690 = f64[4]{0} parameter(1)
  bitcast.2417.1 = f64[1,4]{1,0} bitcast(param_1.690)
  param_2.618 = s64[] parameter(2)
  constant_357_45 = s64[] constant(0)
  compare.263.71 = pred[] compare(param_2.618, constant_357_45), direction=LT, metadata={op_name="jit(scan)/jit(main)/while/body/lt" source_file="/fs04/fc37/adam/projects/psilocybin-prl-analyses/src/prl_hgf/fitting/hierarchical_patrl.py" source_line=378}
  constant_356_36 = s64[] constant(192)
  add.339.71 = s64[] add(param_2.618, constant_356_36), metadata={op_name="jit(scan)/jit(main)/while/body/add" source_file="/fs04/fc37/adam/projects/psilocybin-prl-analyses/src/prl_hgf/fitting/hierarchical_patrl.py" source_line=378}
  select.509.71 = s64[] select(compare.263.71, add.339.71, param_2.618), metadata={op_name="jit(scan)/jit(main)/while/body/select_n" source_file="/fs04/fc37/adam/projects/psilocybin-prl-analyses/src/prl_hgf/fitting/hierarchical_patrl.py" source_line=378}
  ROOT dynamic-update-slice.885.1 = f64[192,4]{1,0} dynamic-update-slice(param_0.68, bitcast.2417.1, select.509.71, constant_357_45), metadata={op_name="jit(scan)/jit(main)/while/body/dynamic_update_slice" source_file="/fs04/fc37/adam/projects/psilocybin-prl-analyses/src/prl_hgf/fitting/hierarchical_patrl.py" source_line=378}
} // fused_dynamic_update_slice.32

fused_dynamic_update_slice.31 {
  param_0.67 = f64[192,4]{1,0} parameter(0)
  param_1.686 = f64[4]{0} parameter(1)
  bitcast.2428.1 = f64[1,4]{1,0} bitcast(param_1.686)
  param_2.614 = s64[] parameter(2)
  constant_357_41 = s64[] constant(0)
  compare.263.73 = pred[] compare(param_2.614, constant_357_41), direction=LT, metadata={op_name="jit(scan)/jit(main)/while/body/lt" source_file="/fs04/fc37/adam/projects/psilocybin-prl-analyses/src/prl_hgf/fitting/hierarchical_patrl.py" source_line=378}
  constant_356_37 = s64[] constant(192)
  add.339.73 = s64[] add(param_2.614, constant_356_37), metadata={op_name="jit(scan)/jit(main)/while/body/add" source_file="/fs04/fc37/adam/projects/psilocybin-prl-analyses/src/prl_hgf/fitting/hierarchical_patrl.py" source_line=378}
  select.509.73 = s64[] select(compare.263.73, add.339.73, param_2.614), metadata={op_name="jit(scan)/jit(main)/while/body/select_n" source_file="/fs04/fc37/adam/projects/psilocybin-prl-analyses/src/prl_hgf/fitting/hierarchical_patrl.py" source_line=378}
  ROOT dynamic-update-slice.886.1 = f64[192,4]{1,0} dynamic-update-slice(param_0.67, bitcast.2428.1, select.509.73, constant_357_41), metadata={op_name="jit(scan)/jit(main)/while/body/dynamic_update_slice" source_file="/fs04/fc37/adam/projects/psilocybin-prl-analyses/src/prl_hgf/fitting/hierarchical_patrl.py" source_line=378}
} // fused_dynamic_update_slice.31

fused_dynamic_update_slice.26 {
  param_0.62 = f64[192,4]{1,0} parameter(0)
  constant_358_17 = f64[] constant(1)
  broadcast.453.16 = f64[4]{0} broadcast(constant_358_17), dimensions={}
  param_1.660 = f64[4]{0} parameter(1)
  multiply.883.1 = f64[4]{0} multiply(param_1.660, param_1.660), metadata={op_name="jit(scan)/jit(main)/while/body/jit(beliefs_propagation)/jit(continuous_node_posterior_update)/jit(posterior_update_mean_continuous_node)/mul" source_file="/fs04/fc37/adam/projects/psilocybin-prl-analyses/src/prl_hgf/fitting/hierarchical_patrl.py" source_line=362}
  divide.405.1 = f64[4]{0} divide(broadcast.453.16, multiply.883.1), metadata={op_name="jit(scan)/jit(main)/while/body/jit(beliefs_propagation)/jit(continuous_node_posterior_update)/jit(posterior_update_mean_continuous_node)/div" source_file="/fs04/fc37/adam/projects/psilocybin-prl-analyses/src/prl_hgf/fitting/hierarchical_patrl.py" source_line=362}
  bitcast.2487.1 = f64[1,4]{1,0} bitcast(divide.405.1)
  param_2.646 = s64[] parameter(2)
  constant_357_15 = s64[] constant(0)
  compare.263.83 = pred[] compare(param_2.646, constant_357_15), direction=LT, metadata={op_name="jit(scan)/jit(main)/while/body/lt" source_file="/fs04/fc37/adam/projects/psilocybin-prl-analyses/src/prl_hgf/fitting/hierarchical_patrl.py" source_line=378}
  constant_356_42 = s64[] constant(192)
  add.339.83 = s64[] add(param_2.646, constant_356_42), metadata={op_name="jit(scan)/jit(main)/while/body/add" source_file="/fs04/fc37/adam/projects/psilocybin-prl-analyses/src/prl_hgf/fitting/hierarchical_patrl.py" source_line=378}
  select.509.83 = s64[] select(compare.263.83, add.339.83, param_2.646), metadata={op_name="jit(scan)/jit(main)/while/body/select_n" source_file="/fs04/fc37/adam/projects/psilocybin-prl-analyses/src/prl_hgf/fitting/hierarchical_patrl.py" source_line=378}
  ROOT dynamic-update-slice.891.1 = f64[192,4]{1,0} dynamic-update-slice(param_0.62, bitcast.2487.1, select.509.83, constant_357_15), metadata={op_name="jit(scan)/jit(main)/while/body/dynamic_update_slice" source_file="/fs04/fc37/adam/projects/psilocybin-prl-analyses/src/prl_hgf/fitting/hierarchical_patrl.py" source_line=378}
} // fused_dynamic_update_slice.26

fused_dynamic_update_slice.24 {
  param_0.60 = f64[192,4]{1,0} parameter(0)
  param_4.504 = f64[4,1]{1,0} parameter(4)
  bitcast.1716.7 = f64[4]{0} bitcast(param_4.504)
  param_3.576 = f64[4]{0} parameter(3)
  multiply.851.7 = f64[4]{0} multiply(bitcast.1716.7, param_3.576), metadata={op_name="jit(scan)/jit(main)/while/body/jit(beliefs_propagation)/jit(continuous_node_posterior_update)/jit(posterior_update_mean_continuous_node)/mul" source_file="/fs04/fc37/adam/projects/psilocybin-prl-analyses/src/prl_hgf/fitting/hierarchical_patrl.py" source_line=362}
  param_2.604 = f64[4]{0} parameter(2)
  divide.393.3 = f64[4]{0} divide(multiply.851.7, param_2.604), metadata={op_name="jit(scan)/jit(main)/while/body/jit(beliefs_propagation)/jit(continuous_node_posterior_update)/jit(posterior_update_mean_continuous_node)/div" source_file="/fs04/fc37/adam/projects/psilocybin-prl-analyses/src/prl_hgf/fitting/hierarchical_patrl.py" source_line=362}
  bitcast.2509.1 = f64[1,4]{1,0} bitcast(divide.393.3)
  param_1.676 = s64[] parameter(1)
  constant_357_31 = s64[] constant(0)
  compare.263.87 = pred[] compare(param_1.676, constant_357_31), direction=LT, metadata={op_name="jit(scan)/jit(main)/while/body/lt" source_file="/fs04/fc37/adam/projects/psilocybin-prl-analyses/src/prl_hgf/fitting/hierarchical_patrl.py" source_line=378}
  constant_356_44 = s64[] constant(192)
  add.339.87 = s64[] add(param_1.676, constant_356_44), metadata={op_name="jit(scan)/jit(main)/while/body/add" source_file="/fs04/fc37/adam/projects/psilocybin-prl-analyses/src/prl_hgf/fitting/hierarchical_patrl.py" source_line=378}
  select.509.87 = s64[] select(compare.263.87, add.339.87, param_1.676), metadata={op_name="jit(scan)/jit(main)/while/body/select_n" source_file="/fs04/fc37/adam/projects/psilocybin-prl-analyses/src/prl_hgf/fitting/hierarchical_patrl.py" source_line=378}
  ROOT dynamic-update-slice.893.1 = f64[192,4]{1,0} dynamic-update-slice(param_0.60, bitcast.2509.1, select.509.87, constant_357_31), metadata={op_name="jit(scan)/jit(main)/while/body/dynamic_update_slice" source_file="/fs04/fc37/adam/projects/psilocybin-prl-analyses/src/prl_hgf/fitting/hierarchical_patrl.py" source_line=378}
} // fused_dynamic_update_slice.24

fused_dynamic_update_slice.28 {
  param_0.64 = f64[192,4]{1,0} parameter(0)
  param_1.698 = f64[4]{0} parameter(1)
  bitcast.2461.1 = f64[1,4]{1,0} bitcast(param_1.698)
  param_2.626 = s64[] parameter(2)
  constant_357_53 = s64[] constant(0)
  compare.263.79 = pred[] compare(param_2.626, constant_357_53), direction=LT, metadata={op_name="jit(scan)/jit(main)/while/body/lt" source_file="/fs04/fc37/adam/projects/psilocybin-prl-analyses/src/prl_hgf/fitting/hierarchical_patrl.py" source_line=378}
  constant_356_40 = s64[] constant(192)
  add.339.79 = s64[] add(param_2.626, constant_356_40), metadata={op_name="jit(scan)/jit(main)/while/body/add" source_file="/fs04/fc37/adam/projects/psilocybin-prl-analyses/src/prl_hgf/fitting/hierarchical_patrl.py" source_line=378}
  select.509.79 = s64[] select(compare.263.79, add.339.79, param_2.626), metadata={op_name="jit(scan)/jit(main)/while/body/select_n" source_file="/fs04/fc37/adam/projects/psilocybin-prl-analyses/src/prl_hgf/fitting/hierarchical_patrl.py" source_line=378}
  ROOT dynamic-update-slice.889.1 = f64[192,4]{1,0} dynamic-update-slice(param_0.64, bitcast.2461.1, select.509.79, constant_357_53), metadata={op_name="jit(scan)/jit(main)/while/body/dynamic_update_slice" source_file="/fs04/fc37/adam/projects/psilocybin-prl-analyses/src/prl_hgf/fitting/hierarchical_patrl.py" source_line=378}
} // fused_dynamic_update_slice.28

fused_dynamic_update_slice.42 {
  param_0.78 = f64[192,4]{1,0} parameter(0)
  constant_358_15 = f64[] constant(1)
  broadcast.453.14 = f64[4]{0} broadcast(constant_358_15), dimensions={}
  param_1.712 = f64[4]{0} parameter(1)
  param_5.390 = f64[192]{0} parameter(5)
  param_3.609 = s64[] parameter(3)
  constant_357_46 = s64[] constant(0)
  compare.263.171 = pred[] compare(param_3.609, constant_357_46), direction=LT, metadata={op_name="jit(scan)/jit(main)/while/body/lt" source_file="/fs04/fc37/adam/projects/psilocybin-prl-analyses/src/prl_hgf/fitting/hierarchical_patrl.py" source_line=378}
  constant_356_24 = s64[] constant(192)
  add.339.171 = s64[] add(param_3.609, constant_356_24), metadata={op_name="jit(scan)/jit(main)/while/body/add" source_file="/fs04/fc37/adam/projects/psilocybin-prl-analyses/src/prl_hgf/fitting/hierarchical_patrl.py" source_line=378}
  select.509.171 = s64[] select(compare.263.171, add.339.171, param_3.609), metadata={op_name="jit(scan)/jit(main)/while/body/select_n" source_file="/fs04/fc37/adam/projects/psilocybin-prl-analyses/src/prl_hgf/fitting/hierarchical_patrl.py" source_line=378}
  dynamic-slice.39.33 = f64[1]{0} dynamic-slice(param_5.390, select.509.171), dynamic_slice_sizes={1}, metadata={op_name="jit(scan)/jit(main)/while/body/dynamic_slice[slice_sizes=(1,)]" source_file="/fs04/fc37/adam/projects/psilocybin-prl-analyses/src/prl_hgf/fitting/hierarchical_patrl.py" source_line=378}
  bitcast.1707.44 = f64[] bitcast(dynamic-slice.39.33)
  broadcast.452.41 = f64[4]{0} broadcast(bitcast.1707.44), dimensions={}, metadata={op_name="jit(scan)/jit(main)/while/body/jit(beliefs_propagation)/jit(continuous_node_prediction)/jit(predict_mean)/mul" source_file="/fs04/fc37/adam/projects/psilocybin-prl-analyses/src/prl_hgf/fitting/hierarchical_patrl.py" source_line=362}
  param_4.530 = f64[4]{0} parameter(4)
  multiply.853.9 = f64[4]{0} multiply(broadcast.452.41, param_4.530), metadata={op_name="jit(scan)/jit(main)/while/body/jit(beliefs_propagation)/jit(continuous_node_prediction)/jit(predict_precision)/mul" source_file="/fs04/fc37/adam/projects/psilocybin-prl-analyses/src/prl_hgf/fitting/hierarchical_patrl.py" source_line=362}
  constant_359_8 = f64[] constant(1e-128)
  broadcast.454.clone.39 = f64[4]{0} broadcast(constant_359_8), dimensions={}
  compare.265.17 = pred[4]{0} compare(multiply.853.9, broadcast.454.clone.39), direction=GT, metadata={op_name="jit(scan)/jit(main)/while/body/jit(beliefs_propagation)/jit(continuous_node_prediction)/jit(predict_precision)/gt" source_file="/fs04/fc37/adam/projects/psilocybin-prl-analyses/src/prl_hgf/fitting/hierarchical_patrl.py" source_line=362}
  param_2.644 = f64[4]{0} parameter(2)
  select.510.13 = f64[4]{0} select(compare.265.17, multiply.853.9, param_2.644), metadata={op_name="jit(scan)/jit(main)/while/body/jit(beliefs_propagation)/jit(continuous_node_prediction)/jit(predict_precision)/jit(_where)/select_n" source_file="/fs04/fc37/adam/projects/psilocybin-prl-analyses/src/prl_hgf/env/pat_rl_simulator.py" source_line=92}
  add.343.7 = f64[4]{0} add(param_1.712, select.510.13), metadata={op_name="jit(scan)/jit(main)/while/body/jit(beliefs_propagation)/jit(continuous_node_prediction)/jit(predict_precision)/add" source_file="/fs04/fc37/adam/projects/psilocybin-prl-analyses/src/prl_hgf/fitting/hierarchical_patrl.py" source_line=362}
  multiply.881.1 = f64[4]{0} multiply(add.343.7, add.343.7), metadata={op_name="jit(scan)/jit(main)/while/body/jit(beliefs_propagation)/jit(continuous_node_prediction)/jit(predict_precision)/mul" source_file="/fs04/fc37/adam/projects/psilocybin-prl-analyses/src/prl_hgf/fitting/hierarchical_patrl.py" source_line=362}
  divide.403.1 = f64[4]{0} divide(broadcast.453.14, multiply.881.1), metadata={op_name="jit(scan)/jit(main)/while/body/jit(beliefs_propagation)/jit(continuous_node_prediction)/jit(predict_precision)/div" source_file="/fs04/fc37/adam/projects/psilocybin-prl-analyses/src/prl_hgf/fitting/hierarchical_patrl.py" source_line=362}
  bitcast.2300.1 = f64[1,4]{1,0} bitcast(divide.403.1)
  ROOT dynamic-update-slice.874.1 = f64[192,4]{1,0} dynamic-update-slice(param_0.78, bitcast.2300.1, select.509.171, constant_357_46), metadata={op_name="jit(scan)/jit(main)/while/body/dynamic_update_slice" source_file="/fs04/fc37/adam/projects/psilocybin-prl-analyses/src/prl_hgf/fitting/hierarchical_patrl.py" source_line=378}
} // fused_dynamic_update_slice.42

fused_dynamic_update_slice.39 {
  param_0.75 = f64[192,4]{1,0} parameter(0)
  param_1.697 = f64[4]{0} parameter(1)
  bitcast.2333.1 = f64[1,4]{1,0} bitcast(param_1.697)
  param_2.625 = s64[] parameter(2)
  constant_357_52 = s64[] constant(0)
  compare.263.53 = pred[] compare(param_2.625, constant_357_52), direction=LT, metadata={op_name="jit(scan)/jit(main)/while/body/lt" source_file="/fs04/fc37/adam/projects/psilocybin-prl-analyses/src/prl_hgf/fitting/hierarchical_patrl.py" source_line=378}
  constant_356_27 = s64[] constant(192)
  add.339.53 = s64[] add(param_2.625, constant_356_27), metadata={op_name="jit(scan)/jit(main)/while/body/add" source_file="/fs04/fc37/adam/projects/psilocybin-prl-analyses/src/prl_hgf/fitting/hierarchical_patrl.py" source_line=378}
  select.509.53 = s64[] select(compare.263.53, add.339.53, param_2.625), metadata={op_name="jit(scan)/jit(main)/while/body/select_n" source_file="/fs04/fc37/adam/projects/psilocybin-prl-analyses/src/prl_hgf/fitting/hierarchical_patrl.py" source_line=378}
  ROOT dynamic-update-slice.877.1 = f64[192,4]{1,0} dynamic-update-slice(param_0.75, bitcast.2333.1, select.509.53, constant_357_52), metadata={op_name="jit(scan)/jit(main)/while/body/dynamic_update_slice" source_file="/fs04/fc37/adam/projects/psilocybin-prl-analyses/src/prl_hgf/fitting/hierarchical_patrl.py" source_line=378}
} // fused_dynamic_update_slice.39

fused_dynamic_update_slice.40 {
  param_0.76 = f64[192,4]{1,0} parameter(0)
  constant_358_18 = f64[] constant(1)
  broadcast.453.19 = f64[4]{0} broadcast(constant_358_18), dimensions={}
  param_1.695 = f64[4]{0} parameter(1)
  subtract.76.3 = f64[4]{0} subtract(broadcast.453.19, param_1.695), metadata={op_name="jit(scan)/jit(main)/while/body/jit(beliefs_propagation)/jit(binary_state_node_prediction)/sub" source_file="/fs04/fc37/adam/projects/psilocybin-prl-analyses/src/prl_hgf/fitting/hierarchical_patrl.py" source_line=362}
  bitcast.2322.1 = f64[1,4]{1,0} bitcast(subtract.76.3)
  param_2.647 = s64[] parameter(2)
  constant_357_50 = s64[] constant(0)
  compare.263.51 = pred[] compare(param_2.647, constant_357_50), direction=LT, metadata={op_name="jit(scan)/jit(main)/while/body/lt" source_file="/fs04/fc37/adam/projects/psilocybin-prl-analyses/src/prl_hgf/fitting/hierarchical_patrl.py" source_line=378}
  constant_356_26 = s64[] constant(192)
  add.339.51 = s64[] add(param_2.647, constant_356_26), metadata={op_name="jit(scan)/jit(main)/while/body/add" source_file="/fs04/fc37/adam/projects/psilocybin-prl-analyses/src/prl_hgf/fitting/hierarchical_patrl.py" source_line=378}
  select.509.51 = s64[] select(compare.263.51, add.339.51, param_2.647), metadata={op_name="jit(scan)/jit(main)/while/body/select_n" source_file="/fs04/fc37/adam/projects/psilocybin-prl-analyses/src/prl_hgf/fitting/hierarchical_patrl.py" source_line=378}
  ROOT dynamic-update-slice.876.1 = f64[192,4]{1,0} dynamic-update-slice(param_0.76, bitcast.2322.1, select.509.51, constant_357_50), metadata={op_name="jit(scan)/jit(main)/while/body/dynamic_update_slice" source_file="/fs04/fc37/adam/projects/psilocybin-prl-analyses/src/prl_hgf/fitting/hierarchical_patrl.py" source_line=378}
} // fused_dynamic_update_slice.40

fused_dynamic_update_slice.25 {
  param_0.61 = f64[192,4]{1,0} parameter(0)
  param_5.369 = f64[192,4,1]{2,1,0} parameter(5)
  param_2.596 = s64[] parameter(2)
  constant_357_23 = s64[] constant(0)
  compare.263.221 = pred[] compare(param_2.596, constant_357_23), direction=LT, metadata={op_name="jit(scan)/jit(main)/while/body/lt" source_file="/fs04/fc37/adam/projects/psilocybin-prl-analyses/src/prl_hgf/fitting/hierarchical_patrl.py" source_line=378}
  constant_356_43 = s64[] constant(192)
  add.339.221 = s64[] add(param_2.596, constant_356_43), metadata={op_name="jit(scan)/jit(main)/while/body/add" source_file="/fs04/fc37/adam/projects/psilocybin-prl-analyses/src/prl_hgf/fitting/hierarchical_patrl.py" source_line=378}
  select.509.221 = s64[] select(compare.263.221, add.339.221, param_2.596), metadata={op_name="jit(scan)/jit(main)/while/body/select_n" source_file="/fs04/fc37/adam/projects/psilocybin-prl-analyses/src/prl_hgf/fitting/hierarchical_patrl.py" source_line=378}
  dynamic-slice.41.12 = f64[1,4,1]{2,1,0} dynamic-slice(param_5.369, select.509.221, constant_357_23, constant_357_23), dynamic_slice_sizes={1,4,1}, metadata={op_name="jit(scan)/jit(main)/while/body/dynamic_slice[slice_sizes=(1, 4, 1)]" source_file="/fs04/fc37/adam/projects/psilocybin-prl-analyses/src/prl_hgf/fitting/hierarchical_patrl.py" source_line=378}
  bitcast.1804.14 = f64[4]{0} bitcast(dynamic-slice.41.12)
  param_4.500 = f64[4]{0} parameter(4)
  subtract.77.13 = f64[4]{0} subtract(bitcast.1804.14, param_4.500), metadata={op_name="jit(scan)/jit(main)/while/body/jit(beliefs_propagation)/jit(binary_state_node_prediction_error)/sub" source_file="/fs04/fc37/adam/projects/psilocybin-prl-analyses/src/prl_hgf/fitting/hierarchical_patrl.py" source_line=362}
  param_1.668 = s32[192]{0} parameter(1)
  dynamic-slice.40.25 = s32[1]{0} dynamic-slice(param_1.668, select.509.221), dynamic_slice_sizes={1}, metadata={op_name="jit(scan)/jit(main)/while/body/dynamic_slice[slice_sizes=(1,)]" source_file="/fs04/fc37/adam/projects/psilocybin-prl-analyses/src/prl_hgf/fitting/hierarchical_patrl.py" source_line=378}
  bitcast.1762.24 = s32[] bitcast(dynamic-slice.40.25)
  convert.85.21 = f64[] convert(bitcast.1762.24), metadata={op_name="jit(scan)/jit(main)/while/body/jit(beliefs_propagation)/jit(binary_state_node_prediction_error)/convert_element_type[new_dtype=float64 weak_type=False sharding=None]" source_file="/fs04/fc37/adam/projects/psilocybin-prl-analyses/src/prl_hgf/fitting/hierarchical_patrl.py" source_line=362}
  broadcast.455.16 = f64[4]{0} broadcast(convert.85.21), dimensions={}, metadata={op_name="jit(scan)/jit(main)/while/body/jit(beliefs_propagation)/jit(binary_state_node_prediction_error)/mul" source_file="/fs04/fc37/adam/projects/psilocybin-prl-analyses/src/prl_hgf/fitting/hierarchical_patrl.py" source_line=362}
  multiply.854.11 = f64[4]{0} multiply(subtract.77.13, broadcast.455.16), metadata={op_name="jit(scan)/jit(main)/while/body/jit(beliefs_propagation)/jit(binary_state_node_prediction_error)/mul" source_file="/fs04/fc37/adam/projects/psilocybin-prl-analyses/src/prl_hgf/fitting/hierarchical_patrl.py" source_line=362}
  param_3.569 = f64[4]{0} parameter(3)
  divide.394.7 = f64[4]{0} divide(multiply.854.11, param_3.569), metadata={op_name="jit(scan)/jit(main)/while/body/jit(beliefs_propagation)/jit(binary_state_node_prediction_error)/div" source_file="/fs04/fc37/adam/projects/psilocybin-prl-analyses/src/prl_hgf/fitting/hierarchical_patrl.py" source_line=362}
  multiply.855.3 = f64[4]{0} multiply(divide.394.7, broadcast.455.16), metadata={op_name="jit(scan)/jit(main)/while/body/jit(beliefs_propagation)/jit(continuous_node_posterior_update)/jit(posterior_update_mean_continuous_node)/mul" source_file="/fs04/fc37/adam/projects/psilocybin-prl-analyses/src/prl_hgf/fitting/hierarchical_patrl.py" source_line=362}
  bitcast.2498.1 = f64[1,4]{1,0} bitcast(multiply.855.3)
  ROOT dynamic-update-slice.892.1 = f64[192,4]{1,0} dynamic-update-slice(param_0.61, bitcast.2498.1, select.509.221, constant_357_23), metadata={op_name="jit(scan)/jit(main)/while/body/dynamic_update_slice" source_file="/fs04/fc37/adam/projects/psilocybin-prl-analyses/src/prl_hgf/fitting/hierarchical_patrl.py" source_line=378}
} // fused_dynamic_update_slice.25

fused_dynamic_update_slice.37 {
  param_0.73 = f64[192,4]{1,0} parameter(0)
  param_3.588 = f64[192,4,1]{2,1,0} parameter(3)
  param_4.513 = s64[] parameter(4)
  constant_357_57 = s64[] constant(0)
  compare.263.59 = pred[] compare(param_4.513, constant_357_57), direction=LT, metadata={op_name="jit(scan)/jit(main)/while/body/lt" source_file="/fs04/fc37/adam/projects/psilocybin-prl-analyses/src/prl_hgf/fitting/hierarchical_patrl.py" source_line=378}
  constant_356_30 = s64[] constant(192)
  add.339.59 = s64[] add(param_4.513, constant_356_30), metadata={op_name="jit(scan)/jit(main)/while/body/add" source_file="/fs04/fc37/adam/projects/psilocybin-prl-analyses/src/prl_hgf/fitting/hierarchical_patrl.py" source_line=378}
  select.509.59 = s64[] select(compare.263.59, add.339.59, param_4.513), metadata={op_name="jit(scan)/jit(main)/while/body/select_n" source_file="/fs04/fc37/adam/projects/psilocybin-prl-analyses/src/prl_hgf/fitting/hierarchical_patrl.py" source_line=378}
  dynamic-slice.41.4 = f64[1,4,1]{2,1,0} dynamic-slice(param_3.588, select.509.59, constant_357_57, constant_357_57), dynamic_slice_sizes={1,4,1}, metadata={op_name="jit(scan)/jit(main)/while/body/dynamic_slice[slice_sizes=(1, 4, 1)]" source_file="/fs04/fc37/adam/projects/psilocybin-prl-analyses/src/prl_hgf/fitting/hierarchical_patrl.py" source_line=378}
  bitcast.1804.6 = f64[4]{0} bitcast(dynamic-slice.41.4)
  param_2.630 = f64[4]{0} parameter(2)
  subtract.77.5 = f64[4]{0} subtract(bitcast.1804.6, param_2.630), metadata={op_name="jit(scan)/jit(main)/while/body/jit(beliefs_propagation)/jit(binary_state_node_prediction_error)/sub" source_file="/fs04/fc37/adam/projects/psilocybin-prl-analyses/src/prl_hgf/fitting/hierarchical_patrl.py" source_line=362}
  param_1.702 = s32[192]{0} parameter(1)
  dynamic-slice.40.16 = s32[1]{0} dynamic-slice(param_1.702, select.509.59), dynamic_slice_sizes={1}, metadata={op_name="jit(scan)/jit(main)/while/body/dynamic_slice[slice_sizes=(1,)]" source_file="/fs04/fc37/adam/projects/psilocybin-prl-analyses/src/prl_hgf/fitting/hierarchical_patrl.py" source_line=378}
  bitcast.1762.16 = s32[] bitcast(dynamic-slice.40.16)
  convert.85.13 = f64[] convert(bitcast.1762.16), metadata={op_name="jit(scan)/jit(main)/while/body/jit(beliefs_propagation)/jit(binary_state_node_prediction_error)/convert_element_type[new_dtype=float64 weak_type=False sharding=None]" source_file="/fs04/fc37/adam/projects/psilocybin-prl-analyses/src/prl_hgf/fitting/hierarchical_patrl.py" source_line=362}
  broadcast.455.8 = f64[4]{0} broadcast(convert.85.13), dimensions={}, metadata={op_name="jit(scan)/jit(main)/while/body/jit(beliefs_propagation)/jit(binary_state_node_prediction_error)/mul" source_file="/fs04/fc37/adam/projects/psilocybin-prl-analyses/src/prl_hgf/fitting/hierarchical_patrl.py" source_line=362}
  multiply.854.3 = f64[4]{0} multiply(subtract.77.5, broadcast.455.8), metadata={op_name="jit(scan)/jit(main)/while/body/jit(beliefs_propagation)/jit(binary_state_node_prediction_error)/mul" source_file="/fs04/fc37/adam/projects/psilocybin-prl-analyses/src/prl_hgf/fitting/hierarchical_patrl.py" source_line=362}
  bitcast.2353.1 = f64[1,4]{1,0} bitcast(multiply.854.3)
  ROOT dynamic-update-slice.879.1 = f64[192,4]{1,0} dynamic-update-slice(param_0.73, bitcast.2353.1, select.509.59, constant_357_57), metadata={op_name="jit(scan)/jit(main)/while/body/dynamic_update_slice" source_file="/fs04/fc37/adam/projects/psilocybin-prl-analyses/src/prl_hgf/fitting/hierarchical_patrl.py" source_line=378}
} // fused_dynamic_update_slice.37

fused_dynamic_update_slice.41 {
  param_0.77 = f64[192,4]{1,0} parameter(0)
  param_1.693 = f64[4]{0} parameter(1)
  bitcast.2311.1 = f64[1,4]{1,0} bitcast(param_1.693)
  param_2.621 = s64[] parameter(2)
  constant_357_48 = s64[] constant(0)
  compare.263.49 = pred[] compare(param_2.621, constant_357_48), direction=LT, metadata={op_name="jit(scan)/jit(main)/while/body/lt" source_file="/fs04/fc37/adam/projects/psilocybin-prl-analyses/src/prl_hgf/fitting/hierarchical_patrl.py" source_line=378}
  constant_356_25 = s64[] constant(192)
  add.339.49 = s64[] add(param_2.621, constant_356_25), metadata={op_name="jit(scan)/jit(main)/while/body/add" source_file="/fs04/fc37/adam/projects/psilocybin-prl-analyses/src/prl_hgf/fitting/hierarchical_patrl.py" source_line=378}
  select.509.49 = s64[] select(compare.263.49, add.339.49, param_2.621), metadata={op_name="jit(scan)/jit(main)/while/body/select_n" source_file="/fs04/fc37/adam/projects/psilocybin-prl-analyses/src/prl_hgf/fitting/hierarchical_patrl.py" source_line=378}
  ROOT dynamic-update-slice.875.1 = f64[192,4]{1,0} dynamic-update-slice(param_0.77, bitcast.2311.1, select.509.49, constant_357_48), metadata={op_name="jit(scan)/jit(main)/while/body/dynamic_update_slice" source_file="/fs04/fc37/adam/projects/psilocybin-prl-analyses/src/prl_hgf/fitting/hierarchical_patrl.py" source_line=378}
} // fused_dynamic_update_slice.41

fused_dynamic_update_slice.36 {
  param_0.72 = f64[192,4]{1,0} parameter(0)
  constant_358_16 = f64[] constant(1)
  broadcast.453.15 = f64[4]{0} broadcast(constant_358_16), dimensions={}
  param_1.704 = f64[4]{0} parameter(1)
  multiply.882.1 = f64[4]{0} multiply(param_1.704, param_1.704), metadata={op_name="jit(scan)/jit(main)/while/body/jit(beliefs_propagation)/jit(binary_state_node_prediction_error)/mul" source_file="/fs04/fc37/adam/projects/psilocybin-prl-analyses/src/prl_hgf/fitting/hierarchical_patrl.py" source_line=362}
  divide.404.1 = f64[4]{0} divide(broadcast.453.15, multiply.882.1), metadata={op_name="jit(scan)/jit(main)/while/body/jit(beliefs_propagation)/jit(binary_state_node_prediction_error)/div" source_file="/fs04/fc37/adam/projects/psilocybin-prl-analyses/src/prl_hgf/fitting/hierarchical_patrl.py" source_line=362}
  bitcast.2368.1 = f64[1,4]{1,0} bitcast(divide.404.1)
  param_2.645 = s64[] parameter(2)
  constant_357_59 = s64[] constant(0)
  compare.263.61 = pred[] compare(param_2.645, constant_357_59), direction=LT, metadata={op_name="jit(scan)/jit(main)/while/body/lt" source_file="/fs04/fc37/adam/projects/psilocybin-prl-analyses/src/prl_hgf/fitting/hierarchical_patrl.py" source_line=378}
  constant_356_31 = s64[] constant(192)
  add.339.61 = s64[] add(param_2.645, constant_356_31), metadata={op_name="jit(scan)/jit(main)/while/body/add" source_file="/fs04/fc37/adam/projects/psilocybin-prl-analyses/src/prl_hgf/fitting/hierarchical_patrl.py" source_line=378}
  select.509.61 = s64[] select(compare.263.61, add.339.61, param_2.645), metadata={op_name="jit(scan)/jit(main)/while/body/select_n" source_file="/fs04/fc37/adam/projects/psilocybin-prl-analyses/src/prl_hgf/fitting/hierarchical_patrl.py" source_line=378}
  ROOT dynamic-update-slice.880.1 = f64[192,4]{1,0} dynamic-update-slice(param_0.72, bitcast.2368.1, select.509.61, constant_357_59), metadata={op_name="jit(scan)/jit(main)/while/body/dynamic_update_slice" source_file="/fs04/fc37/adam/projects/psilocybin-prl-analyses/src/prl_hgf/fitting/hierarchical_patrl.py" source_line=378}
} // fused_dynamic_update_slice.36

fused_dynamic_update_slice.27 {
  param_0.63 = f64[192,4]{1,0} parameter(0)
  param_2.584 = f64[4,1]{1,0} parameter(2)
  bitcast.1716.3 = f64[4]{0} bitcast(param_2.584)
  param_1.656 = f64[4]{0} parameter(1)
  multiply.851.3 = f64[4]{0} multiply(bitcast.1716.3, param_1.656), metadata={op_name="jit(scan)/jit(main)/while/body/jit(beliefs_propagation)/jit(continuous_node_posterior_update)/jit(posterior_update_mean_continuous_node)/mul" source_file="/fs04/fc37/adam/projects/psilocybin-prl-analyses/src/prl_hgf/fitting/hierarchical_patrl.py" source_line=362}
  bitcast.2472.1 = f64[1,4]{1,0} bitcast(multiply.851.3)
  param_3.563 = s64[] parameter(3)
  constant_357_11 = s64[] constant(0)
  compare.263.81 = pred[] compare(param_3.563, constant_357_11), direction=LT, metadata={op_name="jit(scan)/jit(main)/while/body/lt" source_file="/fs04/fc37/adam/projects/psilocybin-prl-analyses/src/prl_hgf/fitting/hierarchical_patrl.py" source_line=378}
  constant_356_41 = s64[] constant(192)
  add.339.81 = s64[] add(param_3.563, constant_356_41), metadata={op_name="jit(scan)/jit(main)/while/body/add" source_file="/fs04/fc37/adam/projects/psilocybin-prl-analyses/src/prl_hgf/fitting/hierarchical_patrl.py" source_line=378}
  select.509.81 = s64[] select(compare.263.81, add.339.81, param_3.563), metadata={op_name="jit(scan)/jit(main)/while/body/select_n" source_file="/fs04/fc37/adam/projects/psilocybin-prl-analyses/src/prl_hgf/fitting/hierarchical_patrl.py" source_line=378}
  ROOT dynamic-update-slice.890.1 = f64[192,4]{1,0} dynamic-update-slice(param_0.63, bitcast.2472.1, select.509.81, constant_357_11), metadata={op_name="jit(scan)/jit(main)/while/body/dynamic_update_slice" source_file="/fs04/fc37/adam/projects/psilocybin-prl-analyses/src/prl_hgf/fitting/hierarchical_patrl.py" source_line=378}
} // fused_dynamic_update_slice.27

fused_dynamic_update_slice.21 {
  param_0.57 = f64[192,4]{1,0} parameter(0)
  param_5.396 = f64[192]{0} parameter(5)
  param_1.652 = s64[] parameter(1)
  constant_357_6 = s64[] constant(0)
  compare.263.183 = pred[] compare(param_1.652, constant_357_6), direction=LT, metadata={op_name="jit(scan)/jit(main)/while/body/lt" source_file="/fs04/fc37/adam/projects/psilocybin-prl-analyses/src/prl_hgf/fitting/hierarchical_patrl.py" source_line=378}
  constant_356_49 = s64[] constant(192)
  add.339.183 = s64[] add(param_1.652, constant_356_49), metadata={op_name="jit(scan)/jit(main)/while/body/add" source_file="/fs04/fc37/adam/projects/psilocybin-prl-analyses/src/prl_hgf/fitting/hierarchical_patrl.py" source_line=378}
  select.509.183 = s64[] select(compare.263.183, add.339.183, param_1.652), metadata={op_name="jit(scan)/jit(main)/while/body/select_n" source_file="/fs04/fc37/adam/projects/psilocybin-prl-analyses/src/prl_hgf/fitting/hierarchical_patrl.py" source_line=378}
  dynamic-slice.39.45 = f64[1]{0} dynamic-slice(param_5.396, select.509.183), dynamic_slice_sizes={1}, metadata={op_name="jit(scan)/jit(main)/while/body/dynamic_slice[slice_sizes=(1,)]" source_file="/fs04/fc37/adam/projects/psilocybin-prl-analyses/src/prl_hgf/fitting/hierarchical_patrl.py" source_line=378}
  bitcast.1707.56 = f64[] bitcast(dynamic-slice.39.45)
  broadcast.452.53 = f64[4]{0} broadcast(bitcast.1707.56), dimensions={}, metadata={op_name="jit(scan)/jit(main)/while/body/jit(beliefs_propagation)/jit(continuous_node_prediction)/jit(predict_mean)/mul" source_file="/fs04/fc37/adam/projects/psilocybin-prl-analyses/src/prl_hgf/fitting/hierarchical_patrl.py" source_line=362}
  param_4.535 = f64[4]{0} parameter(4)
  multiply.853.21 = f64[4]{0} multiply(broadcast.452.53, param_4.535), metadata={op_name="jit(scan)/jit(main)/while/body/jit(beliefs_propagation)/jit(continuous_node_prediction)/jit(predict_precision)/mul" source_file="/fs04/fc37/adam/projects/psilocybin-prl-analyses/src/prl_hgf/fitting/hierarchical_patrl.py" source_line=362}
  constant_359_16 = f64[] constant(1e-128)
  broadcast.454.clone.47 = f64[4]{0} broadcast(constant_359_16), dimensions={}
  compare.265.25 = pred[4]{0} compare(multiply.853.21, broadcast.454.clone.47), direction=GT, metadata={op_name="jit(scan)/jit(main)/while/body/jit(beliefs_propagation)/jit(continuous_node_prediction)/jit(predict_precision)/gt" source_file="/fs04/fc37/adam/projects/psilocybin-prl-analyses/src/prl_hgf/fitting/hierarchical_patrl.py" source_line=362}
  param_3.559 = f64[4]{0} parameter(3)
  select.510.21 = f64[4]{0} select(compare.265.25, multiply.853.21, param_3.559), metadata={op_name="jit(scan)/jit(main)/while/body/jit(beliefs_propagation)/jit(continuous_node_prediction)/jit(predict_precision)/jit(_where)/select_n" source_file="/fs04/fc37/adam/projects/psilocybin-prl-analyses/src/prl_hgf/env/pat_rl_simulator.py" source_line=92}
  param_2.580 = f64[4]{0} parameter(2)
  multiply.857.9 = f64[4]{0} multiply(select.510.21, param_2.580), metadata={op_name="jit(scan)/jit(main)/while/body/jit(beliefs_propagation)/jit(continuous_node_prediction)/jit(predict_precision)/mul" source_file="/fs04/fc37/adam/projects/psilocybin-prl-analyses/src/prl_hgf/fitting/hierarchical_patrl.py" source_line=362}
  bitcast.2545.1 = f64[1,4]{1,0} bitcast(multiply.857.9)
  ROOT dynamic-update-slice.896.1 = f64[192,4]{1,0} dynamic-update-slice(param_0.57, bitcast.2545.1, select.509.183, constant_357_6), metadata={op_name="jit(scan)/jit(main)/while/body/dynamic_update_slice" source_file="/fs04/fc37/adam/projects/psilocybin-prl-analyses/src/prl_hgf/fitting/hierarchical_patrl.py" source_line=378}
} // fused_dynamic_update_slice.21

fused_dynamic_update_slice.6 {
  param_0.42 = f64[192,4]{1,0} parameter(0)
  param_6.286 = f64[4,1]{1,0} parameter(6)
  bitcast.2010.27 = f64[4]{0} bitcast(param_6.286)
  param_5.399 = f64[192]{0} parameter(5)
  param_1.682 = s64[] parameter(1)
  constant_357_37 = s64[] constant(0)
  compare.263.211 = pred[] compare(param_1.682, constant_357_37), direction=LT, metadata={op_name="jit(scan)/jit(main)/while/body/lt" source_file="/fs04/fc37/adam/projects/psilocybin-prl-analyses/src/prl_hgf/fitting/hierarchical_patrl.py" source_line=378}
  constant_356_3 = s64[] constant(192)
  add.339.211 = s64[] add(param_1.682, constant_356_3), metadata={op_name="jit(scan)/jit(main)/while/body/add" source_file="/fs04/fc37/adam/projects/psilocybin-prl-analyses/src/prl_hgf/fitting/hierarchical_patrl.py" source_line=378}
  select.509.211 = s64[] select(compare.263.211, add.339.211, param_1.682), metadata={op_name="jit(scan)/jit(main)/while/body/select_n" source_file="/fs04/fc37/adam/projects/psilocybin-prl-analyses/src/prl_hgf/fitting/hierarchical_patrl.py" source_line=378}
  dynamic-slice.39.73 = f64[1]{0} dynamic-slice(param_5.399, select.509.211), dynamic_slice_sizes={1}, metadata={op_name="jit(scan)/jit(main)/while/body/dynamic_slice[slice_sizes=(1,)]" source_file="/fs04/fc37/adam/projects/psilocybin-prl-analyses/src/prl_hgf/fitting/hierarchical_patrl.py" source_line=378}
  bitcast.1707.84 = f64[] bitcast(dynamic-slice.39.73)
  broadcast.452.81 = f64[4]{0} broadcast(bitcast.1707.84), dimensions={}, metadata={op_name="jit(scan)/jit(main)/while/body/jit(beliefs_propagation)/jit(continuous_node_prediction)/jit(predict_mean)/mul" source_file="/fs04/fc37/adam/projects/psilocybin-prl-analyses/src/prl_hgf/fitting/hierarchical_patrl.py" source_line=362}
  param_4.537 = f64[4]{0} parameter(4)
  multiply.853.35 = f64[4]{0} multiply(broadcast.452.81, param_4.537), metadata={op_name="jit(scan)/jit(main)/while/body/jit(beliefs_propagation)/jit(continuous_node_prediction)/jit(predict_precision)/mul" source_file="/fs04/fc37/adam/projects/psilocybin-prl-analyses/src/prl_hgf/fitting/hierarchical_patrl.py" source_line=362}
  constant_359_20 = f64[] constant(1e-128)
  broadcast.454.clone.63 = f64[4]{0} broadcast(constant_359_20), dimensions={}
  compare.265.41 = pred[4]{0} compare(multiply.853.35, broadcast.454.clone.63), direction=GT, metadata={op_name="jit(scan)/jit(main)/while/body/jit(beliefs_propagation)/jit(continuous_node_prediction)/jit(predict_precision)/gt" source_file="/fs04/fc37/adam/projects/psilocybin-prl-analyses/src/prl_hgf/fitting/hierarchical_patrl.py" source_line=362}
  param_3.579 = f64[4]{0} parameter(3)
  select.510.37 = f64[4]{0} select(compare.265.41, multiply.853.35, param_3.579), metadata={op_name="jit(scan)/jit(main)/while/body/jit(beliefs_propagation)/jit(continuous_node_prediction)/jit(predict_precision)/jit(_where)/select_n" source_file="/fs04/fc37/adam/projects/psilocybin-prl-analyses/src/prl_hgf/env/pat_rl_simulator.py" source_line=92}
  param_2.610 = f64[4]{0} parameter(2)
  multiply.857.25 = f64[4]{0} multiply(select.510.37, param_2.610), metadata={op_name="jit(scan)/jit(main)/while/body/jit(beliefs_propagation)/jit(continuous_node_prediction)/jit(predict_precision)/mul" source_file="/fs04/fc37/adam/projects/psilocybin-prl-analyses/src/prl_hgf/fitting/hierarchical_patrl.py" source_line=362}
  multiply.864.11 = f64[4]{0} multiply(bitcast.2010.27, multiply.857.25), metadata={op_name="jit(scan)/jit(main)/while/body/jit(beliefs_propagation)/jit(continuous_node_posterior_update_ehgf)/jit(posterior_update_mean_continuous_node)/mul" source_file="/fs04/fc37/adam/projects/psilocybin-prl-analyses/src/prl_hgf/fitting/hierarchical_patrl.py" source_line=362}
  multiply.869.1 = f64[4]{0} multiply(multiply.864.11, multiply.864.11), metadata={op_name="jit(scan)/jit(main)/while/body/jit(beliefs_propagation)/jit(continuous_node_posterior_update_ehgf)/jit(posterior_update_precision_continuous_node)/jit(precision_update)/integer_pow[y=2]" source_file="/fs04/fc37/adam/projects/psilocybin-prl-analyses/src/prl_hgf/fitting/hierarchical_patrl.py" source_line=362}
  bitcast.2739.1 = f64[1,4]{1,0} bitcast(multiply.869.1)
  ROOT dynamic-update-slice.912.1 = f64[192,4]{1,0} dynamic-update-slice(param_0.42, bitcast.2739.1, select.509.211, constant_357_37), metadata={op_name="jit(scan)/jit(main)/while/body/dynamic_update_slice" source_file="/fs04/fc37/adam/projects/psilocybin-prl-analyses/src/prl_hgf/fitting/hierarchical_patrl.py" source_line=378}
} // fused_dynamic_update_slice.6

fused_dynamic_update_slice.44 {
  param_0.80 = f64[192,4]{1,0} parameter(0)
  param_1.685 = f64[4]{0} parameter(1)
  bitcast.2274.1 = f64[1,4]{1,0} bitcast(param_1.685)
  param_2.613 = s64[] parameter(2)
  constant_357_40 = s64[] constant(0)
  compare.263.41 = pred[] compare(param_2.613, constant_357_40), direction=LT, metadata={op_name="jit(scan)/jit(main)/while/body/lt" source_file="/fs04/fc37/adam/projects/psilocybin-prl-analyses/src/prl_hgf/fitting/hierarchical_patrl.py" source_line=378}
  constant_356_21 = s64[] constant(192)
  add.339.41 = s64[] add(param_2.613, constant_356_21), metadata={op_name="jit(scan)/jit(main)/while/body/add" source_file="/fs04/fc37/adam/projects/psilocybin-prl-analyses/src/prl_hgf/fitting/hierarchical_patrl.py" source_line=378}
  select.509.41 = s64[] select(compare.263.41, add.339.41, param_2.613), metadata={op_name="jit(scan)/jit(main)/while/body/select_n" source_file="/fs04/fc37/adam/projects/psilocybin-prl-analyses/src/prl_hgf/fitting/hierarchical_patrl.py" source_line=378}
  ROOT dynamic-update-slice.872.1 = f64[192,4]{1,0} dynamic-update-slice(param_0.80, bitcast.2274.1, select.509.41, constant_357_40), metadata={op_name="jit(scan)/jit(main)/while/body/dynamic_update_slice" source_file="/fs04/fc37/adam/projects/psilocybin-prl-analyses/src/prl_hgf/fitting/hierarchical_patrl.py" source_line=378}
} // fused_dynamic_update_slice.44

fused_dynamic_update_slice.18 {
  param_0.54 = f64[192,4]{1,0} parameter(0)
  param_6.285 = f64[4,1]{1,0} parameter(6)
  bitcast.2010.25 = f64[4]{0} bitcast(param_6.285)
  param_5.398 = f64[192]{0} parameter(5)
  param_1.692 = s64[] parameter(1)
  constant_357_47 = s64[] constant(0)
  compare.263.209 = pred[] compare(param_1.692, constant_357_47), direction=LT, metadata={op_name="jit(scan)/jit(main)/while/body/lt" source_file="/fs04/fc37/adam/projects/psilocybin-prl-analyses/src/prl_hgf/fitting/hierarchical_patrl.py" source_line=378}
  constant_356_52 = s64[] constant(192)
  add.339.209 = s64[] add(param_1.692, constant_356_52), metadata={op_name="jit(scan)/jit(main)/while/body/add" source_file="/fs04/fc37/adam/projects/psilocybin-prl-analyses/src/prl_hgf/fitting/hierarchical_patrl.py" source_line=378}
  select.509.209 = s64[] select(compare.263.209, add.339.209, param_1.692), metadata={op_name="jit(scan)/jit(main)/while/body/select_n" source_file="/fs04/fc37/adam/projects/psilocybin-prl-analyses/src/prl_hgf/fitting/hierarchical_patrl.py" source_line=378}
  dynamic-slice.39.71 = f64[1]{0} dynamic-slice(param_5.398, select.509.209), dynamic_slice_sizes={1}, metadata={op_name="jit(scan)/jit(main)/while/body/dynamic_slice[slice_sizes=(1,)]" source_file="/fs04/fc37/adam/projects/psilocybin-prl-analyses/src/prl_hgf/fitting/hierarchical_patrl.py" source_line=378}
  bitcast.1707.82 = f64[] bitcast(dynamic-slice.39.71)
  broadcast.452.79 = f64[4]{0} broadcast(bitcast.1707.82), dimensions={}, metadata={op_name="jit(scan)/jit(main)/while/body/jit(beliefs_propagation)/jit(continuous_node_prediction)/jit(predict_mean)/mul" source_file="/fs04/fc37/adam/projects/psilocybin-prl-analyses/src/prl_hgf/fitting/hierarchical_patrl.py" source_line=362}
  param_4.536 = f64[4]{0} parameter(4)
  multiply.853.33 = f64[4]{0} multiply(broadcast.452.79, param_4.536), metadata={op_name="jit(scan)/jit(main)/while/body/jit(beliefs_propagation)/jit(continuous_node_prediction)/jit(predict_precision)/mul" source_file="/fs04/fc37/adam/projects/psilocybin-prl-analyses/src/prl_hgf/fitting/hierarchical_patrl.py" source_line=362}
  constant_359_19 = f64[] constant(1e-128)
  broadcast.454.clone.61 = f64[4]{0} broadcast(constant_359_19), dimensions={}
  compare.265.39 = pred[4]{0} compare(multiply.853.33, broadcast.454.clone.61), direction=GT, metadata={op_name="jit(scan)/jit(main)/while/body/jit(beliefs_propagation)/jit(continuous_node_prediction)/jit(predict_precision)/gt" source_file="/fs04/fc37/adam/projects/psilocybin-prl-analyses/src/prl_hgf/fitting/hierarchical_patrl.py" source_line=362}
  param_3.584 = f64[4]{0} parameter(3)
  select.510.35 = f64[4]{0} select(compare.265.39, multiply.853.33, param_3.584), metadata={op_name="jit(scan)/jit(main)/while/body/jit(beliefs_propagation)/jit(continuous_node_prediction)/jit(predict_precision)/jit(_where)/select_n" source_file="/fs04/fc37/adam/projects/psilocybin-prl-analyses/src/prl_hgf/env/pat_rl_simulator.py" source_line=92}
  param_2.620 = f64[4]{0} parameter(2)
  multiply.857.23 = f64[4]{0} multiply(select.510.35, param_2.620), metadata={op_name="jit(scan)/jit(main)/while/body/jit(beliefs_propagation)/jit(continuous_node_prediction)/jit(predict_precision)/mul" source_file="/fs04/fc37/adam/projects/psilocybin-prl-analyses/src/prl_hgf/fitting/hierarchical_patrl.py" source_line=362}
  multiply.864.9 = f64[4]{0} multiply(bitcast.2010.25, multiply.857.23), metadata={op_name="jit(scan)/jit(main)/while/body/jit(beliefs_propagation)/jit(continuous_node_posterior_update_ehgf)/jit(posterior_update_mean_continuous_node)/mul" source_file="/fs04/fc37/adam/projects/psilocybin-prl-analyses/src/prl_hgf/fitting/hierarchical_patrl.py" source_line=362}
  bitcast.2578.1 = f64[1,4]{1,0} bitcast(multiply.864.9)
  ROOT dynamic-update-slice.899.1 = f64[192,4]{1,0} dynamic-update-slice(param_0.54, bitcast.2578.1, select.509.209, constant_357_47), metadata={op_name="jit(scan)/jit(main)/while/body/dynamic_update_slice" source_file="/fs04/fc37/adam/projects/psilocybin-prl-analyses/src/prl_hgf/fitting/hierarchical_patrl.py" source_line=378}
} // fused_dynamic_update_slice.18

fused_dynamic_update_slice.3 {
  param_0.39 = f64[192,4]{1,0} parameter(0)
  param_2.663 = f64[4,1]{1,0} parameter(2)
  bitcast.2010.13 = f64[4]{0} bitcast(param_2.663)
  multiply.872.9 = f64[4]{0} multiply(bitcast.2010.13, bitcast.2010.13), metadata={op_name="jit(scan)/jit(main)/while/body/jit(beliefs_propagation)/jit(continuous_node_posterior_update_ehgf)/jit(posterior_update_precision_continuous_node)/jit(precision_update)/integer_pow[y=2]" source_file="/fs04/fc37/adam/projects/psilocybin-prl-analyses/src/prl_hgf/fitting/hierarchical_patrl.py" source_line=362}
  constant_363_1 = f64[] constant(0.5)
  broadcast.462.clone.17 = f64[4]{0} broadcast(constant_363_1), dimensions={}
  multiply.873.7 = f64[4]{0} multiply(multiply.872.9, broadcast.462.clone.17), metadata={op_name="jit(scan)/jit(main)/while/body/jit(beliefs_propagation)/jit(continuous_node_posterior_update_ehgf)/jit(posterior_update_precision_continuous_node)/jit(precision_update)/mul" source_file="/fs04/fc37/adam/projects/psilocybin-prl-analyses/src/prl_hgf/fitting/hierarchical_patrl.py" source_line=362}
  param_6.290 = f64[192]{0} parameter(6)
  param_1.670 = s64[] parameter(1)
  constant_357_25 = s64[] constant(0)
  compare.263.169 = pred[] compare(param_1.670, constant_357_25), direction=LT, metadata={op_name="jit(scan)/jit(main)/while/body/lt" source_file="/fs04/fc37/adam/projects/psilocybin-prl-analyses/src/prl_hgf/fitting/hierarchical_patrl.py" source_line=378}
  constant_356_29 = s64[] constant(192)
  add.339.169 = s64[] add(param_1.670, constant_356_29), metadata={op_name="jit(scan)/jit(main)/while/body/add" source_file="/fs04/fc37/adam/projects/psilocybin-prl-analyses/src/prl_hgf/fitting/hierarchical_patrl.py" source_line=378}
  select.509.169 = s64[] select(compare.263.169, add.339.169, param_1.670), metadata={op_name="jit(scan)/jit(main)/while/body/select_n" source_file="/fs04/fc37/adam/projects/psilocybin-prl-analyses/src/prl_hgf/fitting/hierarchical_patrl.py" source_line=378}
  dynamic-slice.39.31 = f64[1]{0} dynamic-slice(param_6.290, select.509.169), dynamic_slice_sizes={1}, metadata={op_name="jit(scan)/jit(main)/while/body/dynamic_slice[slice_sizes=(1,)]" source_file="/fs04/fc37/adam/projects/psilocybin-prl-analyses/src/prl_hgf/fitting/hierarchical_patrl.py" source_line=378}
  bitcast.1707.42 = f64[] bitcast(dynamic-slice.39.31)
  broadcast.452.39 = f64[4]{0} broadcast(bitcast.1707.42), dimensions={}, metadata={op_name="jit(scan)/jit(main)/while/body/jit(beliefs_propagation)/jit(continuous_node_prediction)/jit(predict_mean)/mul" source_file="/fs04/fc37/adam/projects/psilocybin-prl-analyses/src/prl_hgf/fitting/hierarchical_patrl.py" source_line=362}
  param_5.403 = f64[4]{0} parameter(5)
  multiply.853.7 = f64[4]{0} multiply(broadcast.452.39, param_5.403), metadata={op_name="jit(scan)/jit(main)/while/body/jit(beliefs_propagation)/jit(continuous_node_prediction)/jit(predict_precision)/mul" source_file="/fs04/fc37/adam/projects/psilocybin-prl-analyses/src/prl_hgf/fitting/hierarchical_patrl.py" source_line=362}
  constant_359_7 = f64[] constant(1e-128)
  broadcast.454.clone.49 = f64[4]{0} broadcast(constant_359_7), dimensions={}
  compare.265.27 = pred[4]{0} compare(multiply.853.7, broadcast.454.clone.49), direction=GT, metadata={op_name="jit(scan)/jit(main)/while/body/jit(beliefs_propagation)/jit(continuous_node_prediction)/jit(predict_precision)/gt" source_file="/fs04/fc37/adam/projects/psilocybin-prl-analyses/src/prl_hgf/fitting/hierarchical_patrl.py" source_line=362}
  param_4.541 = f64[4]{0} parameter(4)
  select.510.23 = f64[4]{0} select(compare.265.27, multiply.853.7, param_4.541), metadata={op_name="jit(scan)/jit(main)/while/body/jit(beliefs_propagation)/jit(continuous_node_prediction)/jit(predict_precision)/jit(_where)/select_n" source_file="/fs04/fc37/adam/projects/psilocybin-prl-analyses/src/prl_hgf/env/pat_rl_simulator.py" source_line=92}
  param_3.617 = f64[4]{0} parameter(3)
  multiply.857.11 = f64[4]{0} multiply(select.510.23, param_3.617), metadata={op_name="jit(scan)/jit(main)/while/body/jit(beliefs_propagation)/jit(continuous_node_prediction)/jit(predict_precision)/mul" source_file="/fs04/fc37/adam/projects/psilocybin-prl-analyses/src/prl_hgf/fitting/hierarchical_patrl.py" source_line=362}
  multiply.874.1 = f64[4]{0} multiply(multiply.873.7, multiply.857.11), metadata={op_name="jit(scan)/jit(main)/while/body/jit(beliefs_propagation)/jit(continuous_node_posterior_update_ehgf)/jit(posterior_update_precision_continuous_node)/jit(precision_update)/mul" source_file="/fs04/fc37/adam/projects/psilocybin-prl-analyses/src/prl_hgf/fitting/hierarchical_patrl.py" source_line=362}
  bitcast.2777.1 = f64[1,4]{1,0} bitcast(multiply.874.1)
  ROOT dynamic-update-slice.915.1 = f64[192,4]{1,0} dynamic-update-slice(param_0.39, bitcast.2777.1, select.509.169, constant_357_25), metadata={op_name="jit(scan)/jit(main)/while/body/dynamic_update_slice" source_file="/fs04/fc37/adam/projects/psilocybin-prl-analyses/src/prl_hgf/fitting/hierarchical_patrl.py" source_line=378}
} // fused_dynamic_update_slice.3

fused_dynamic_update_slice.7 {
  param_0.43 = f64[192,4]{1,0} parameter(0)
  param_6.288 = f64[4,1]{1,0} parameter(6)
  bitcast.2010.23 = f64[4]{0} bitcast(param_6.288)
  param_5.401 = f64[192]{0} parameter(5)
  param_1.719 = s64[] parameter(1)
  constant_357_49 = s64[] constant(0)
  compare.263.207 = pred[] compare(param_1.719, constant_357_49), direction=LT, metadata={op_name="jit(scan)/jit(main)/while/body/lt" source_file="/fs04/fc37/adam/projects/psilocybin-prl-analyses/src/prl_hgf/fitting/hierarchical_patrl.py" source_line=378}
  constant_356_23 = s64[] constant(192)
  add.339.207 = s64[] add(param_1.719, constant_356_23), metadata={op_name="jit(scan)/jit(main)/while/body/add" source_file="/fs04/fc37/adam/projects/psilocybin-prl-analyses/src/prl_hgf/fitting/hierarchical_patrl.py" source_line=378}
  select.509.207 = s64[] select(compare.263.207, add.339.207, param_1.719), metadata={op_name="jit(scan)/jit(main)/while/body/select_n" source_file="/fs04/fc37/adam/projects/psilocybin-prl-analyses/src/prl_hgf/fitting/hierarchical_patrl.py" source_line=378}
  dynamic-slice.39.69 = f64[1]{0} dynamic-slice(param_5.401, select.509.207), dynamic_slice_sizes={1}, metadata={op_name="jit(scan)/jit(main)/while/body/dynamic_slice[slice_sizes=(1,)]" source_file="/fs04/fc37/adam/projects/psilocybin-prl-analyses/src/prl_hgf/fitting/hierarchical_patrl.py" source_line=378}
  bitcast.1707.80 = f64[] bitcast(dynamic-slice.39.69)
  broadcast.452.77 = f64[4]{0} broadcast(bitcast.1707.80), dimensions={}, metadata={op_name="jit(scan)/jit(main)/while/body/jit(beliefs_propagation)/jit(continuous_node_prediction)/jit(predict_mean)/mul" source_file="/fs04/fc37/adam/projects/psilocybin-prl-analyses/src/prl_hgf/fitting/hierarchical_patrl.py" source_line=362}
  param_4.539 = f64[4]{0} parameter(4)
  multiply.853.31 = f64[4]{0} multiply(broadcast.452.77, param_4.539), metadata={op_name="jit(scan)/jit(main)/while/body/jit(beliefs_propagation)/jit(continuous_node_prediction)/jit(predict_precision)/mul" source_file="/fs04/fc37/adam/projects/psilocybin-prl-analyses/src/prl_hgf/fitting/hierarchical_patrl.py" source_line=362}
  constant_359_18 = f64[] constant(1e-128)
  broadcast.454.clone.59 = f64[4]{0} broadcast(constant_359_18), dimensions={}
  compare.265.37 = pred[4]{0} compare(multiply.853.31, broadcast.454.clone.59), direction=GT, metadata={op_name="jit(scan)/jit(main)/while/body/jit(beliefs_propagation)/jit(continuous_node_prediction)/jit(predict_precision)/gt" source_file="/fs04/fc37/adam/projects/psilocybin-prl-analyses/src/prl_hgf/fitting/hierarchical_patrl.py" source_line=362}
  param_3.615 = f64[4]{0} parameter(3)
  select.510.33 = f64[4]{0} select(compare.265.37, multiply.853.31, param_3.615), metadata={op_name="jit(scan)/jit(main)/while/body/jit(beliefs_propagation)/jit(continuous_node_prediction)/jit(predict_precision)/jit(_where)/select_n" source_file="/fs04/fc37/adam/projects/psilocybin-prl-analyses/src/prl_hgf/env/pat_rl_simulator.py" source_line=92}
  param_2.658 = f64[4]{0} parameter(2)
  multiply.857.21 = f64[4]{0} multiply(select.510.33, param_2.658), metadata={op_name="jit(scan)/jit(main)/while/body/jit(beliefs_propagation)/jit(continuous_node_prediction)/jit(predict_precision)/mul" source_file="/fs04/fc37/adam/projects/psilocybin-prl-analyses/src/prl_hgf/fitting/hierarchical_patrl.py" source_line=362}
  multiply.864.7 = f64[4]{0} multiply(bitcast.2010.23, multiply.857.21), metadata={op_name="jit(scan)/jit(main)/while/body/jit(beliefs_propagation)/jit(continuous_node_posterior_update_ehgf)/jit(posterior_update_mean_continuous_node)/mul" source_file="/fs04/fc37/adam/projects/psilocybin-prl-analyses/src/prl_hgf/fitting/hierarchical_patrl.py" source_line=362}
  constant_361_4 = f64[] constant(2)
  broadcast.459.clone.9 = f64[4]{0} broadcast(constant_361_4), dimensions={}
  multiply.887.3 = f64[4]{0} multiply(multiply.864.7, broadcast.459.clone.9), metadata={op_name="jit(scan)/jit(main)/while/body/jit(beliefs_propagation)/jit(continuous_node_posterior_update_ehgf)/jit(posterior_update_precision_continuous_node)/jit(precision_update)/mul" source_file="/fs04/fc37/adam/projects/psilocybin-prl-analyses/src/prl_hgf/fitting/hierarchical_patrl.py" source_line=362}
  bitcast.2728.1 = f64[1,4]{1,0} bitcast(multiply.887.3)
  ROOT dynamic-update-slice.911.1 = f64[192,4]{1,0} dynamic-update-slice(param_0.43, bitcast.2728.1, select.509.207, constant_357_49), metadata={op_name="jit(scan)/jit(main)/while/body/dynamic_update_slice" source_file="/fs04/fc37/adam/projects/psilocybin-prl-analyses/src/prl_hgf/fitting/hierarchical_patrl.py" source_line=378}
} // fused_dynamic_update_slice.7

fused_dynamic_update_slice.43 {
  param_0.79 = f64[192,4]{1,0} parameter(0)
  param_4.527 = f64[192]{0} parameter(4)
  param_2.648 = s64[] parameter(2)
  constant_357_42 = s64[] constant(0)
  compare.263.165 = pred[] compare(param_2.648, constant_357_42), direction=LT, metadata={op_name="jit(scan)/jit(main)/while/body/lt" source_file="/fs04/fc37/adam/projects/psilocybin-prl-analyses/src/prl_hgf/fitting/hierarchical_patrl.py" source_line=378}
  constant_356_22 = s64[] constant(192)
  add.339.165 = s64[] add(param_2.648, constant_356_22), metadata={op_name="jit(scan)/jit(main)/while/body/add" source_file="/fs04/fc37/adam/projects/psilocybin-prl-analyses/src/prl_hgf/fitting/hierarchical_patrl.py" source_line=378}
  select.509.165 = s64[] select(compare.263.165, add.339.165, param_2.648), metadata={op_name="jit(scan)/jit(main)/while/body/select_n" source_file="/fs04/fc37/adam/projects/psilocybin-prl-analyses/src/prl_hgf/fitting/hierarchical_patrl.py" source_line=378}
  dynamic-slice.39.27 = f64[1]{0} dynamic-slice(param_4.527, select.509.165), dynamic_slice_sizes={1}, metadata={op_name="jit(scan)/jit(main)/while/body/dynamic_slice[slice_sizes=(1,)]" source_file="/fs04/fc37/adam/projects/psilocybin-prl-analyses/src/prl_hgf/fitting/hierarchical_patrl.py" source_line=378}
  bitcast.1707.38 = f64[] bitcast(dynamic-slice.39.27)
  broadcast.452.35 = f64[4]{0} broadcast(bitcast.1707.38), dimensions={}, metadata={op_name="jit(scan)/jit(main)/while/body/jit(beliefs_propagation)/jit(continuous_node_prediction)/jit(predict_mean)/mul" source_file="/fs04/fc37/adam/projects/psilocybin-prl-analyses/src/prl_hgf/fitting/hierarchical_patrl.py" source_line=362}
  param_3.604 = f64[4]{0} parameter(3)
  multiply.853.3 = f64[4]{0} multiply(broadcast.452.35, param_3.604), metadata={op_name="jit(scan)/jit(main)/while/body/jit(beliefs_propagation)/jit(continuous_node_prediction)/jit(predict_precision)/mul" source_file="/fs04/fc37/adam/projects/psilocybin-prl-analyses/src/prl_hgf/fitting/hierarchical_patrl.py" source_line=362}
  constant_359_2 = f64[] constant(1e-128)
  broadcast.454.clone.23 = f64[4]{0} broadcast(constant_359_2), dimensions={}
  compare.265.11 = pred[4]{0} compare(multiply.853.3, broadcast.454.clone.23), direction=GT, metadata={op_name="jit(scan)/jit(main)/while/body/jit(beliefs_propagation)/jit(continuous_node_prediction)/jit(predict_precision)/gt" source_file="/fs04/fc37/adam/projects/psilocybin-prl-analyses/src/prl_hgf/fitting/hierarchical_patrl.py" source_line=362}
  param_1.687 = f64[4]{0} parameter(1)
  select.510.7 = f64[4]{0} select(compare.265.11, multiply.853.3, param_1.687), metadata={op_name="jit(scan)/jit(main)/while/body/jit(beliefs_propagation)/jit(continuous_node_prediction)/jit(predict_precision)/jit(_where)/select_n" source_file="/fs04/fc37/adam/projects/psilocybin-prl-analyses/src/prl_hgf/env/pat_rl_simulator.py" source_line=92}
  bitcast.2285.1 = f64[1,4]{1,0} bitcast(select.510.7)
  ROOT dynamic-update-slice.873.1 = f64[192,4]{1,0} dynamic-update-slice(param_0.79, bitcast.2285.1, select.509.165, constant_357_42), metadata={op_name="jit(scan)/jit(main)/while/body/dynamic_update_slice" source_file="/fs04/fc37/adam/projects/psilocybin-prl-analyses/src/prl_hgf/fitting/hierarchical_patrl.py" source_line=378}
} // fused_dynamic_update_slice.43

fused_dynamic_update_slice.46 {
  param_0.82 = f64[192,4]{1,0} parameter(0)
  param_1.681 = f64[4]{0} parameter(1)
  bitcast.2252.1 = f64[1,4]{1,0} bitcast(param_1.681)
  param_2.609 = s64[] parameter(2)
  constant_357_36 = s64[] constant(0)
  compare.263.37 = pred[] compare(param_2.609, constant_357_36), direction=LT, metadata={op_name="jit(scan)/jit(main)/while/body/lt" source_file="/fs04/fc37/adam/projects/psilocybin-prl-analyses/src/prl_hgf/fitting/hierarchical_patrl.py" source_line=378}
  constant_356_19 = s64[] constant(192)
  add.339.37 = s64[] add(param_2.609, constant_356_19), metadata={op_name="jit(scan)/jit(main)/while/body/add" source_file="/fs04/fc37/adam/projects/psilocybin-prl-analyses/src/prl_hgf/fitting/hierarchical_patrl.py" source_line=378}
  select.509.37 = s64[] select(compare.263.37, add.339.37, param_2.609), metadata={op_name="jit(scan)/jit(main)/while/body/select_n" source_file="/fs04/fc37/adam/projects/psilocybin-prl-analyses/src/prl_hgf/fitting/hierarchical_patrl.py" source_line=378}
  ROOT dynamic-update-slice.870.1 = f64[192,4]{1,0} dynamic-update-slice(param_0.82, bitcast.2252.1, select.509.37, constant_357_36), metadata={op_name="jit(scan)/jit(main)/while/body/dynamic_update_slice" source_file="/fs04/fc37/adam/projects/psilocybin-prl-analyses/src/prl_hgf/fitting/hierarchical_patrl.py" source_line=378}
} // fused_dynamic_update_slice.46

fused_dynamic_update_slice.4 {
  param_0.40 = f64[192,4]{1,0} parameter(0)
  param_2.664 = f64[4,1]{1,0} parameter(2)
  bitcast.2010.9 = f64[4]{0} bitcast(param_2.664)
  multiply.872.5 = f64[4]{0} multiply(bitcast.2010.9, bitcast.2010.9), metadata={op_name="jit(scan)/jit(main)/while/body/jit(beliefs_propagation)/jit(continuous_node_posterior_update_ehgf)/jit(posterior_update_precision_continuous_node)/jit(precision_update)/integer_pow[y=2]" source_file="/fs04/fc37/adam/projects/psilocybin-prl-analyses/src/prl_hgf/fitting/hierarchical_patrl.py" source_line=362}
  constant_363_3 = f64[] constant(0.5)
  broadcast.462.clone.13 = f64[4]{0} broadcast(constant_363_3), dimensions={}
  multiply.873.3 = f64[4]{0} multiply(multiply.872.5, broadcast.462.clone.13), metadata={op_name="jit(scan)/jit(main)/while/body/jit(beliefs_propagation)/jit(continuous_node_posterior_update_ehgf)/jit(posterior_update_precision_continuous_node)/jit(precision_update)/mul" source_file="/fs04/fc37/adam/projects/psilocybin-prl-analyses/src/prl_hgf/fitting/hierarchical_patrl.py" source_line=362}
  bitcast.2766.1 = f64[1,4]{1,0} bitcast(multiply.873.3)
  param_1.674 = s64[] parameter(1)
  constant_357_29 = s64[] constant(0)
  compare.263.89 = pred[] compare(param_1.674, constant_357_29), direction=LT, metadata={op_name="jit(scan)/jit(main)/while/body/lt" source_file="/fs04/fc37/adam/projects/psilocybin-prl-analyses/src/prl_hgf/fitting/hierarchical_patrl.py" source_line=378}
  constant_356_45 = s64[] constant(192)
  add.339.89 = s64[] add(param_1.674, constant_356_45), metadata={op_name="jit(scan)/jit(main)/while/body/add" source_file="/fs04/fc37/adam/projects/psilocybin-prl-analyses/src/prl_hgf/fitting/hierarchical_patrl.py" source_line=378}
  select.509.89 = s64[] select(compare.263.89, add.339.89, param_1.674), metadata={op_name="jit(scan)/jit(main)/while/body/select_n" source_file="/fs04/fc37/adam/projects/psilocybin-prl-analyses/src/prl_hgf/fitting/hierarchical_patrl.py" source_line=378}
  ROOT dynamic-update-slice.914.1 = f64[192,4]{1,0} dynamic-update-slice(param_0.40, bitcast.2766.1, select.509.89, constant_357_29), metadata={op_name="jit(scan)/jit(main)/while/body/dynamic_update_slice" source_file="/fs04/fc37/adam/projects/psilocybin-prl-analyses/src/prl_hgf/fitting/hierarchical_patrl.py" source_line=378}
} // fused_dynamic_update_slice.4

fused_dynamic_update_slice.5 {
  param_0.41 = f64[192,4]{1,0} parameter(0)
  param_1.678 = f64[4,1]{1,0} parameter(1)
  bitcast.2010.5 = f64[4]{0} bitcast(param_1.678)
  constant_361_1 = f64[] constant(2)
  broadcast.459.clone.7 = f64[4]{0} broadcast(constant_361_1), dimensions={}
  multiply.888.3 = f64[4]{0} multiply(bitcast.2010.5, broadcast.459.clone.7), metadata={op_name="jit(scan)/jit(main)/while/body/jit(beliefs_propagation)/jit(continuous_node_posterior_update_ehgf)/jit(posterior_update_precision_continuous_node)/jit(precision_update)/mul" source_file="/fs04/fc37/adam/projects/psilocybin-prl-analyses/src/prl_hgf/fitting/hierarchical_patrl.py" source_line=362}
  bitcast.2755.1 = f64[1,4]{1,0} bitcast(multiply.888.3)
  param_2.656 = s64[] parameter(2)
  constant_357_33 = s64[] constant(0)
  compare.263.91 = pred[] compare(param_2.656, constant_357_33), direction=LT, metadata={op_name="jit(scan)/jit(main)/while/body/lt" source_file="/fs04/fc37/adam/projects/psilocybin-prl-analyses/src/prl_hgf/fitting/hierarchical_patrl.py" source_line=378}
  constant_356_46 = s64[] constant(192)
  add.339.91 = s64[] add(param_2.656, constant_356_46), metadata={op_name="jit(scan)/jit(main)/while/body/add" source_file="/fs04/fc37/adam/projects/psilocybin-prl-analyses/src/prl_hgf/fitting/hierarchical_patrl.py" source_line=378}
  select.509.91 = s64[] select(compare.263.91, add.339.91, param_2.656), metadata={op_name="jit(scan)/jit(main)/while/body/select_n" source_file="/fs04/fc37/adam/projects/psilocybin-prl-analyses/src/prl_hgf/fitting/hierarchical_patrl.py" source_line=378}
  ROOT dynamic-update-slice.913.1 = f64[192,4]{1,0} dynamic-update-slice(param_0.41, bitcast.2755.1, select.509.91, constant_357_33), metadata={op_name="jit(scan)/jit(main)/while/body/dynamic_update_slice" source_file="/fs04/fc37/adam/projects/psilocybin-prl-analyses/src/prl_hgf/fitting/hierarchical_patrl.py" source_line=378}
} // fused_dynamic_update_slice.5

fused_dynamic_update_slice.58 {
  param_0.118 = f64[192,4]{1,0} parameter(0)
  param_1.689 = f64[192]{0} parameter(1)
  param_2.617 = s64[] parameter(2)
  constant_357_44 = s64[] constant(0)
  compare.263.121 = pred[] compare(param_2.617, constant_357_44), direction=LT, metadata={op_name="jit(scan)/jit(main)/while/body/lt" source_file="/fs04/fc37/adam/projects/psilocybin-prl-analyses/src/prl_hgf/fitting/hierarchical_patrl.py" source_line=378}
  constant_356_61 = s64[] constant(192)
  add.339.121 = s64[] add(param_2.617, constant_356_61), metadata={op_name="jit(scan)/jit(main)/while/body/add" source_file="/fs04/fc37/adam/projects/psilocybin-prl-analyses/src/prl_hgf/fitting/hierarchical_patrl.py" source_line=378}
  select.509.121 = s64[] select(compare.263.121, add.339.121, param_2.617), metadata={op_name="jit(scan)/jit(main)/while/body/select_n" source_file="/fs04/fc37/adam/projects/psilocybin-prl-analyses/src/prl_hgf/fitting/hierarchical_patrl.py" source_line=378}
  dynamic-slice.39.2 = f64[1]{0} dynamic-slice(param_1.689, select.509.121), dynamic_slice_sizes={1}, metadata={op_name="jit(scan)/jit(main)/while/body/dynamic_slice[slice_sizes=(1,)]" source_file="/fs04/fc37/adam/projects/psilocybin-prl-analyses/src/prl_hgf/fitting/hierarchical_patrl.py" source_line=378}
  bitcast.1707.4 = f64[] bitcast(dynamic-slice.39.2)
  broadcast.464.3 = f64[1,4]{1,0} broadcast(bitcast.1707.4), dimensions={}, metadata={op_name="jit(scan)/jit(main)/while/body/broadcast_in_dim[shape=(1, 4) broadcast_dimensions=(1,)]" source_file="/fs04/fc37/adam/projects/psilocybin-prl-analyses/src/prl_hgf/fitting/hierarchical_patrl.py" source_line=378}
  ROOT dynamic-update-slice.907.1 = f64[192,4]{1,0} dynamic-update-slice(param_0.118, broadcast.464.3, select.509.121, constant_357_44), metadata={op_name="jit(scan)/jit(main)/while/body/dynamic_update_slice" source_file="/fs04/fc37/adam/projects/psilocybin-prl-analyses/src/prl_hgf/fitting/hierarchical_patrl.py" source_line=378}
} // fused_dynamic_update_slice.58

fused_dynamic_update_slice.14 {
  param_0.50 = f64[192,4]{1,0} parameter(0)
  param_1.666 = s64[4]{0} parameter(1)
  convert.86.3 = f64[4]{0} convert(param_1.666), metadata={op_name="jit(scan)/jit(main)/while/body/jit(beliefs_propagation)/jit(continuous_node_posterior_update_ehgf)/jit(posterior_update_mean_continuous_node)/convert_element_type[new_dtype=float64 weak_type=False sharding=None]" source_file="/fs04/fc37/adam/projects/psilocybin-prl-analyses/src/prl_hgf/fitting/hierarchical_patrl.py" source_line=362}
  bitcast.2626.1 = f64[1,4]{1,0} bitcast(convert.86.3)
  param_2.594 = s64[] parameter(2)
  constant_357_21 = s64[] constant(0)
  compare.263.111 = pred[] compare(param_2.594, constant_357_21), direction=LT, metadata={op_name="jit(scan)/jit(main)/while/body/lt" source_file="/fs04/fc37/adam/projects/psilocybin-prl-analyses/src/prl_hgf/fitting/hierarchical_patrl.py" source_line=378}
  constant_356_56 = s64[] constant(192)
  add.339.111 = s64[] add(param_2.594, constant_356_56), metadata={op_name="jit(scan)/jit(main)/while/body/add" source_file="/fs04/fc37/adam/projects/psilocybin-prl-analyses/src/prl_hgf/fitting/hierarchical_patrl.py" source_line=378}
  select.509.111 = s64[] select(compare.263.111, add.339.111, param_2.594), metadata={op_name="jit(scan)/jit(main)/while/body/select_n" source_file="/fs04/fc37/adam/projects/psilocybin-prl-analyses/src/prl_hgf/fitting/hierarchical_patrl.py" source_line=378}
  ROOT dynamic-update-slice.903.1 = f64[192,4]{1,0} dynamic-update-slice(param_0.50, bitcast.2626.1, select.509.111, constant_357_21), metadata={op_name="jit(scan)/jit(main)/while/body/dynamic_update_slice" source_file="/fs04/fc37/adam/projects/psilocybin-prl-analyses/src/prl_hgf/fitting/hierarchical_patrl.py" source_line=378}
} // fused_dynamic_update_slice.14

fused_dynamic_update_slice.20 {
  param_0.56 = f64[192,4]{1,0} parameter(0)
  param_1.688 = f64[4,1]{1,0} parameter(1)
  bitcast.2556.1 = f64[1,4]{1,0} bitcast(param_1.688)
  param_2.616 = s64[] parameter(2)
  constant_357_43 = s64[] constant(0)
  compare.263.99 = pred[] compare(param_2.616, constant_357_43), direction=LT, metadata={op_name="jit(scan)/jit(main)/while/body/lt" source_file="/fs04/fc37/adam/projects/psilocybin-prl-analyses/src/prl_hgf/fitting/hierarchical_patrl.py" source_line=378}
  constant_356_50 = s64[] constant(192)
  add.339.99 = s64[] add(param_2.616, constant_356_50), metadata={op_name="jit(scan)/jit(main)/while/body/add" source_file="/fs04/fc37/adam/projects/psilocybin-prl-analyses/src/prl_hgf/fitting/hierarchical_patrl.py" source_line=378}
  select.509.99 = s64[] select(compare.263.99, add.339.99, param_2.616), metadata={op_name="jit(scan)/jit(main)/while/body/select_n" source_file="/fs04/fc37/adam/projects/psilocybin-prl-analyses/src/prl_hgf/fitting/hierarchical_patrl.py" source_line=378}
  ROOT dynamic-update-slice.897.1 = f64[192,4]{1,0} dynamic-update-slice(param_0.56, bitcast.2556.1, select.509.99, constant_357_43), metadata={op_name="jit(scan)/jit(main)/while/body/dynamic_update_slice" source_file="/fs04/fc37/adam/projects/psilocybin-prl-analyses/src/prl_hgf/fitting/hierarchical_patrl.py" source_line=378}
} // fused_dynamic_update_slice.20

fused_dynamic_update_slice.29 {
  param_0.65 = f64[192,4]{1,0} parameter(0)
  param_1.700 = f64[4,1]{1,0} parameter(1)
  bitcast.2450.1 = f64[1,4]{1,0} bitcast(param_1.700)
  param_2.628 = s64[] parameter(2)
  constant_357_55 = s64[] constant(0)
  compare.263.77 = pred[] compare(param_2.628, constant_357_55), direction=LT, metadata={op_name="jit(scan)/jit(main)/while/body/lt" source_file="/fs04/fc37/adam/projects/psilocybin-prl-analyses/src/prl_hgf/fitting/hierarchical_patrl.py" source_line=378}
  constant_356_39 = s64[] constant(192)
  add.339.77 = s64[] add(param_2.628, constant_356_39), metadata={op_name="jit(scan)/jit(main)/while/body/add" source_file="/fs04/fc37/adam/projects/psilocybin-prl-analyses/src/prl_hgf/fitting/hierarchical_patrl.py" source_line=378}
  select.509.77 = s64[] select(compare.263.77, add.339.77, param_2.628), metadata={op_name="jit(scan)/jit(main)/while/body/select_n" source_file="/fs04/fc37/adam/projects/psilocybin-prl-analyses/src/prl_hgf/fitting/hierarchical_patrl.py" source_line=378}
  ROOT dynamic-update-slice.888.1 = f64[192,4]{1,0} dynamic-update-slice(param_0.65, bitcast.2450.1, select.509.77, constant_357_55), metadata={op_name="jit(scan)/jit(main)/while/body/dynamic_update_slice" source_file="/fs04/fc37/adam/projects/psilocybin-prl-analyses/src/prl_hgf/fitting/hierarchical_patrl.py" source_line=378}
} // fused_dynamic_update_slice.29

fused_dynamic_update_slice.47 {
  param_0.83 = f64[192,4]{1,0} parameter(0)
  param_1.679 = f64[4,1]{1,0} parameter(1)
  bitcast.2241.1 = f64[1,4]{1,0} bitcast(param_1.679)
  param_2.607 = s64[] parameter(2)
  constant_357_34 = s64[] constant(0)
  compare.263.35 = pred[] compare(param_2.607, constant_357_34), direction=LT, metadata={op_name="jit(scan)/jit(main)/while/body/lt" source_file="/fs04/fc37/adam/projects/psilocybin-prl-analyses/src/prl_hgf/fitting/hierarchical_patrl.py" source_line=378}
  constant_356_18 = s64[] constant(192)
  add.339.35 = s64[] add(param_2.607, constant_356_18), metadata={op_name="jit(scan)/jit(main)/while/body/add" source_file="/fs04/fc37/adam/projects/psilocybin-prl-analyses/src/prl_hgf/fitting/hierarchical_patrl.py" source_line=378}
  select.509.35 = s64[] select(compare.263.35, add.339.35, param_2.607), metadata={op_name="jit(scan)/jit(main)/while/body/select_n" source_file="/fs04/fc37/adam/projects/psilocybin-prl-analyses/src/prl_hgf/fitting/hierarchical_patrl.py" source_line=378}
  ROOT dynamic-update-slice.869.1 = f64[192,4]{1,0} dynamic-update-slice(param_0.83, bitcast.2241.1, select.509.35, constant_357_34), metadata={op_name="jit(scan)/jit(main)/while/body/dynamic_update_slice" source_file="/fs04/fc37/adam/projects/psilocybin-prl-analyses/src/prl_hgf/fitting/hierarchical_patrl.py" source_line=378}
} // fused_dynamic_update_slice.47

fused_dynamic_update_slice.48 {
  param_0.84 = f64[192,4]{1,0} parameter(0)
  param_1.677 = f64[4]{0} parameter(1)
  bitcast.2230.1 = f64[1,4]{1,0} bitcast(param_1.677)
  param_2.605 = s64[] parameter(2)
  constant_357_32 = s64[] constant(0)
  compare.263.33 = pred[] compare(param_2.605, constant_357_32), direction=LT, metadata={op_name="jit(scan)/jit(main)/while/body/lt" source_file="/fs04/fc37/adam/projects/psilocybin-prl-analyses/src/prl_hgf/fitting/hierarchical_patrl.py" source_line=378}
  constant_356_17 = s64[] constant(192)
  add.339.33 = s64[] add(param_2.605, constant_356_17), metadata={op_name="jit(scan)/jit(main)/while/body/add" source_file="/fs04/fc37/adam/projects/psilocybin-prl-analyses/src/prl_hgf/fitting/hierarchical_patrl.py" source_line=378}
  select.509.33 = s64[] select(compare.263.33, add.339.33, param_2.605), metadata={op_name="jit(scan)/jit(main)/while/body/select_n" source_file="/fs04/fc37/adam/projects/psilocybin-prl-analyses/src/prl_hgf/fitting/hierarchical_patrl.py" source_line=378}
  ROOT dynamic-update-slice.868.1 = f64[192,4]{1,0} dynamic-update-slice(param_0.84, bitcast.2230.1, select.509.33, constant_357_32), metadata={op_name="jit(scan)/jit(main)/while/body/dynamic_update_slice" source_file="/fs04/fc37/adam/projects/psilocybin-prl-analyses/src/prl_hgf/fitting/hierarchical_patrl.py" source_line=378}
} // fused_dynamic_update_slice.48

fused_dynamic_update_slice.49 {
  param_0.85 = f64[192,4]{1,0} parameter(0)
  constant_358_14 = f64[] constant(1)
  broadcast.453.13 = f64[4]{0} broadcast(constant_358_14), dimensions={}
  param_1.675 = f64[4]{0} parameter(1)
  multiply.880.1 = f64[4]{0} multiply(param_1.675, param_1.675), metadata={op_name="jit(scan)/jit(main)/while/body/jit(beliefs_propagation)/jit(continuous_node_prediction)/mul" source_file="/fs04/fc37/adam/projects/psilocybin-prl-analyses/src/prl_hgf/fitting/hierarchical_patrl.py" source_line=362}
  divide.402.1 = f64[4]{0} divide(broadcast.453.13, multiply.880.1), metadata={op_name="jit(scan)/jit(main)/while/body/jit(beliefs_propagation)/jit(continuous_node_prediction)/div" source_file="/fs04/fc37/adam/projects/psilocybin-prl-analyses/src/prl_hgf/fitting/hierarchical_patrl.py" source_line=362}
  bitcast.2219.1 = f64[1,4]{1,0} bitcast(divide.402.1)
  param_2.643 = s64[] parameter(2)
  constant_357_30 = s64[] constant(0)
  compare.263.31 = pred[] compare(param_2.643, constant_357_30), direction=LT, metadata={op_name="jit(scan)/jit(main)/while/body/lt" source_file="/fs04/fc37/adam/projects/psilocybin-prl-analyses/src/prl_hgf/fitting/hierarchical_patrl.py" source_line=378}
  constant_356_16 = s64[] constant(192)
  add.339.31 = s64[] add(param_2.643, constant_356_16), metadata={op_name="jit(scan)/jit(main)/while/body/add" source_file="/fs04/fc37/adam/projects/psilocybin-prl-analyses/src/prl_hgf/fitting/hierarchical_patrl.py" source_line=378}
  select.509.31 = s64[] select(compare.263.31, add.339.31, param_2.643), metadata={op_name="jit(scan)/jit(main)/while/body/select_n" source_file="/fs04/fc37/adam/projects/psilocybin-prl-analyses/src/prl_hgf/fitting/hierarchical_patrl.py" source_line=378}
  ROOT dynamic-update-slice.867.1 = f64[192,4]{1,0} dynamic-update-slice(param_0.85, bitcast.2219.1, select.509.31, constant_357_30), metadata={op_name="jit(scan)/jit(main)/while/body/dynamic_update_slice" source_file="/fs04/fc37/adam/projects/psilocybin-prl-analyses/src/prl_hgf/fitting/hierarchical_patrl.py" source_line=378}
} // fused_dynamic_update_slice.49

fused_dynamic_update_slice.55 {
  param_0.91 = f64[192,4]{1,0} parameter(0)
  param_1.661 = f64[4]{0} parameter(1)
  bitcast.2145.1 = f64[1,4]{1,0} bitcast(param_1.661)
  param_2.589 = s64[] parameter(2)
  constant_357_16 = s64[] constant(0)
  compare.263.17 = pred[] compare(param_2.589, constant_357_16), direction=LT, metadata={op_name="jit(scan)/jit(main)/while/body/lt" source_file="/fs04/fc37/adam/projects/psilocybin-prl-analyses/src/prl_hgf/fitting/hierarchical_patrl.py" source_line=378}
  constant_356_9 = s64[] constant(192)
  add.339.17 = s64[] add(param_2.589, constant_356_9), metadata={op_name="jit(scan)/jit(main)/while/body/add" source_file="/fs04/fc37/adam/projects/psilocybin-prl-analyses/src/prl_hgf/fitting/hierarchical_patrl.py" source_line=378}
  select.509.17 = s64[] select(compare.263.17, add.339.17, param_2.589), metadata={op_name="jit(scan)/jit(main)/while/body/select_n" source_file="/fs04/fc37/adam/projects/psilocybin-prl-analyses/src/prl_hgf/fitting/hierarchical_patrl.py" source_line=378}
  ROOT dynamic-update-slice.861.1 = f64[192,4]{1,0} dynamic-update-slice(param_0.91, bitcast.2145.1, select.509.17, constant_357_16), metadata={op_name="jit(scan)/jit(main)/while/body/dynamic_update_slice" source_file="/fs04/fc37/adam/projects/psilocybin-prl-analyses/src/prl_hgf/fitting/hierarchical_patrl.py" source_line=378}
} // fused_dynamic_update_slice.55

fused_dynamic_update_slice.56 {
  param_0.92 = f64[192,4]{1,0} parameter(0)
  constant_358_12 = f64[] constant(1)
  broadcast.453.11 = f64[4]{0} broadcast(constant_358_12), dimensions={}
  param_1.659 = f64[4]{0} parameter(1)
  multiply.878.1 = f64[4]{0} multiply(param_1.659, param_1.659), metadata={op_name="jit(scan)/jit(main)/while/body/jit(beliefs_propagation)/jit(continuous_node_prediction)/mul" source_file="/fs04/fc37/adam/projects/psilocybin-prl-analyses/src/prl_hgf/fitting/hierarchical_patrl.py" source_line=362}
  divide.400.1 = f64[4]{0} divide(broadcast.453.11, multiply.878.1), metadata={op_name="jit(scan)/jit(main)/while/body/jit(beliefs_propagation)/jit(continuous_node_prediction)/div" source_file="/fs04/fc37/adam/projects/psilocybin-prl-analyses/src/prl_hgf/fitting/hierarchical_patrl.py" source_line=362}
  bitcast.2134.1 = f64[1,4]{1,0} bitcast(divide.400.1)
  param_2.641 = s64[] parameter(2)
  constant_357_14 = s64[] constant(0)
  compare.263.15 = pred[] compare(param_2.641, constant_357_14), direction=LT, metadata={op_name="jit(scan)/jit(main)/while/body/lt" source_file="/fs04/fc37/adam/projects/psilocybin-prl-analyses/src/prl_hgf/fitting/hierarchical_patrl.py" source_line=378}
  constant_356_8 = s64[] constant(192)
  add.339.15 = s64[] add(param_2.641, constant_356_8), metadata={op_name="jit(scan)/jit(main)/while/body/add" source_file="/fs04/fc37/adam/projects/psilocybin-prl-analyses/src/prl_hgf/fitting/hierarchical_patrl.py" source_line=378}
  select.509.15 = s64[] select(compare.263.15, add.339.15, param_2.641), metadata={op_name="jit(scan)/jit(main)/while/body/select_n" source_file="/fs04/fc37/adam/projects/psilocybin-prl-analyses/src/prl_hgf/fitting/hierarchical_patrl.py" source_line=378}
  ROOT dynamic-update-slice.860.1 = f64[192,4]{1,0} dynamic-update-slice(param_0.92, bitcast.2134.1, select.509.15, constant_357_14), metadata={op_name="jit(scan)/jit(main)/while/body/dynamic_update_slice" source_file="/fs04/fc37/adam/projects/psilocybin-prl-analyses/src/prl_hgf/fitting/hierarchical_patrl.py" source_line=378}
} // fused_dynamic_update_slice.56

fused_add_divide_exponential_select {
  param_20.36 = f64[4]{0} parameter(20)
  param_21.48 = f64[4]{0} parameter(21)
  multiply.848.3.clone.1 = f64[4]{0} multiply(param_20.36, param_21.48), metadata={op_name="jit(scan)/jit(main)/while/body/jit(beliefs_propagation)/jit(continuous_node_prediction)/jit(predict_mean)/mul" source_file="/fs04/fc37/adam/projects/psilocybin-prl-analyses/src/prl_hgf/fitting/hierarchical_patrl.py" source_line=362}
  param_3.638 = f64[192]{0} parameter(3)
  param_4.563 = s64[] parameter(4)
  constant_357_1 = s64[] constant(0)
  compare.263.189.clone.1 = pred[] compare(param_4.563, constant_357_1), direction=LT, metadata={op_name="jit(scan)/jit(main)/while/body/lt" source_file="/fs04/fc37/adam/projects/psilocybin-prl-analyses/src/prl_hgf/fitting/hierarchical_patrl.py" source_line=378}
  constant_356_74 = s64[] constant(192)
  add.339.189.clone.1 = s64[] add(param_4.563, constant_356_74), metadata={op_name="jit(scan)/jit(main)/while/body/add" source_file="/fs04/fc37/adam/projects/psilocybin-prl-analyses/src/prl_hgf/fitting/hierarchical_patrl.py" source_line=378}
  select.509.189.clone.1 = s64[] select(compare.263.189.clone.1, add.339.189.clone.1, param_4.563), metadata={op_name="jit(scan)/jit(main)/while/body/select_n" source_file="/fs04/fc37/adam/projects/psilocybin-prl-analyses/src/prl_hgf/fitting/hierarchical_patrl.py" source_line=378}
  dynamic-slice.39.51.clone.1 = f64[1]{0} dynamic-slice(param_3.638, select.509.189.clone.1), dynamic_slice_sizes={1}, metadata={op_name="jit(scan)/jit(main)/while/body/dynamic_slice[slice_sizes=(1,)]" source_file="/fs04/fc37/adam/projects/psilocybin-prl-analyses/src/prl_hgf/fitting/hierarchical_patrl.py" source_line=378}
  bitcast.1707.62.clone.1 = f64[] bitcast(dynamic-slice.39.51.clone.1)
  broadcast.452.59.clone.1 = f64[4]{0} broadcast(bitcast.1707.62.clone.1), dimensions={}, metadata={op_name="jit(scan)/jit(main)/while/body/jit(beliefs_propagation)/jit(continuous_node_prediction)/jit(predict_mean)/mul" source_file="/fs04/fc37/adam/projects/psilocybin-prl-analyses/src/prl_hgf/fitting/hierarchical_patrl.py" source_line=362}
  param_19.31 = f64[4]{0} parameter(19)
  multiply.849.5.clone.1 = f64[4]{0} multiply(broadcast.452.59.clone.1, param_19.31), metadata={op_name="jit(scan)/jit(main)/while/body/jit(beliefs_propagation)/jit(continuous_node_prediction)/jit(predict_mean)/mul" source_file="/fs04/fc37/adam/projects/psilocybin-prl-analyses/src/prl_hgf/fitting/hierarchical_patrl.py" source_line=362}
  add.340.3.clone.1 = f64[4]{0} add(multiply.848.3.clone.1, multiply.849.5.clone.1), metadata={op_name="jit(scan)/jit(main)/while/body/jit(beliefs_propagation)/jit(continuous_node_prediction)/jit(predict_mean)/add" source_file="/fs04/fc37/adam/projects/psilocybin-prl-analyses/src/prl_hgf/fitting/hierarchical_patrl.py" source_line=362}
  param_41.12 = f64[4,1]{1,0} parameter(41)
  bitcast.1716.9.clone.1 = f64[4]{0} bitcast(param_41.12)
  param_27.11 = f64[4]{0} parameter(27)
  multiply.851.9.clone.1 = f64[4]{0} multiply(bitcast.1716.9.clone.1, param_27.11), metadata={op_name="jit(scan)/jit(main)/while/body/jit(beliefs_propagation)/jit(continuous_node_posterior_update)/jit(posterior_update_mean_continuous_node)/mul" source_file="/fs04/fc37/adam/projects/psilocybin-prl-analyses/src/prl_hgf/fitting/hierarchical_patrl.py" source_line=362}
  param_22.38 = f64[4]{0} parameter(22)
  divide.393.5.clone.1 = f64[4]{0} divide(multiply.851.9.clone.1, param_22.38), metadata={op_name="jit(scan)/jit(main)/while/body/jit(beliefs_propagation)/jit(continuous_node_posterior_update)/jit(posterior_update_mean_continuous_node)/div" source_file="/fs04/fc37/adam/projects/psilocybin-prl-analyses/src/prl_hgf/fitting/hierarchical_patrl.py" source_line=362}
  param_30.8 = f64[192,4,1]{2,1,0} parameter(30)
  dynamic-slice.41.10.clone.1 = f64[1,4,1]{2,1,0} dynamic-slice(param_30.8, select.509.189.clone.1, constant_357_1, constant_357_1), dynamic_slice_sizes={1,4,1}, metadata={op_name="jit(scan)/jit(main)/while/body/dynamic_slice[slice_sizes=(1, 4, 1)]" source_file="/fs04/fc37/adam/projects/psilocybin-prl-analyses/src/prl_hgf/fitting/hierarchical_patrl.py" source_line=378}
  bitcast.1804.12.clone.1 = f64[4]{0} bitcast(dynamic-slice.41.10.clone.1)
  param_24.4 = f64[4]{0} parameter(24)
  subtract.77.11.clone.1 = f64[4]{0} subtract(bitcast.1804.12.clone.1, param_24.4), metadata={op_name="jit(scan)/jit(main)/while/body/jit(beliefs_propagation)/jit(binary_state_node_prediction_error)/sub" source_file="/fs04/fc37/adam/projects/psilocybin-prl-analyses/src/prl_hgf/fitting/hierarchical_patrl.py" source_line=362}
  param_32.8 = s32[192]{0} parameter(32)
  dynamic-slice.40.23.clone.1 = s32[1]{0} dynamic-slice(param_32.8, select.509.189.clone.1), dynamic_slice_sizes={1}, metadata={op_name="jit(scan)/jit(main)/while/body/dynamic_slice[slice_sizes=(1,)]" source_file="/fs04/fc37/adam/projects/psilocybin-prl-analyses/src/prl_hgf/fitting/hierarchical_patrl.py" source_line=378}
  bitcast.1762.22.clone.1 = s32[] bitcast(dynamic-slice.40.23.clone.1)
  convert.85.19.clone.1 = f64[] convert(bitcast.1762.22.clone.1), metadata={op_name="jit(scan)/jit(main)/while/body/jit(beliefs_propagation)/jit(binary_state_node_prediction_error)/convert_element_type[new_dtype=float64 weak_type=False sharding=None]" source_file="/fs04/fc37/adam/projects/psilocybin-prl-analyses/src/prl_hgf/fitting/hierarchical_patrl.py" source_line=362}
  broadcast.455.14.clone.1 = f64[4]{0} broadcast(convert.85.19.clone.1), dimensions={}, metadata={op_name="jit(scan)/jit(main)/while/body/jit(beliefs_propagation)/jit(binary_state_node_prediction_error)/mul" source_file="/fs04/fc37/adam/projects/psilocybin-prl-analyses/src/prl_hgf/fitting/hierarchical_patrl.py" source_line=362}
  multiply.854.9.clone.1 = f64[4]{0} multiply(subtract.77.11.clone.1, broadcast.455.14.clone.1), metadata={op_name="jit(scan)/jit(main)/while/body/jit(beliefs_propagation)/jit(binary_state_node_prediction_error)/mul" source_file="/fs04/fc37/adam/projects/psilocybin-prl-analyses/src/prl_hgf/fitting/hierarchical_patrl.py" source_line=362}
  divide.394.5.clone.1 = f64[4]{0} divide(multiply.854.9.clone.1, param_27.11), metadata={op_name="jit(scan)/jit(main)/while/body/jit(beliefs_propagation)/jit(binary_state_node_prediction_error)/div" source_file="/fs04/fc37/adam/projects/psilocybin-prl-analyses/src/prl_hgf/fitting/hierarchical_patrl.py" source_line=362}
  multiply.855.5.clone.1 = f64[4]{0} multiply(divide.394.5.clone.1, broadcast.455.14.clone.1), metadata={op_name="jit(scan)/jit(main)/while/body/jit(beliefs_propagation)/jit(continuous_node_posterior_update)/jit(posterior_update_mean_continuous_node)/mul" source_file="/fs04/fc37/adam/projects/psilocybin-prl-analyses/src/prl_hgf/fitting/hierarchical_patrl.py" source_line=362}
  multiply.856.1.clone.1 = f64[4]{0} multiply(divide.393.5.clone.1, multiply.855.5.clone.1), metadata={op_name="jit(scan)/jit(main)/while/body/jit(beliefs_propagation)/jit(continuous_node_posterior_update)/jit(posterior_update_mean_continuous_node)/mul" source_file="/fs04/fc37/adam/projects/psilocybin-prl-analyses/src/prl_hgf/fitting/hierarchical_patrl.py" source_line=362}
  add.344.1.clone.1 = f64[4]{0} add(add.340.3.clone.1, multiply.856.1.clone.1), metadata={op_name="jit(scan)/jit(main)/while/body/jit(beliefs_propagation)/jit(continuous_node_posterior_update)/jit(posterior_update_mean_continuous_node)/add" source_file="/fs04/fc37/adam/projects/psilocybin-prl-analyses/src/prl_hgf/fitting/hierarchical_patrl.py" source_line=362}
  is-finite.14.39 = pred[4]{0} is-finite(add.344.1.clone.1), metadata={op_name="jit(scan)/jit(main)/while/body/is_finite" source_file="/fs04/fc37/adam/projects/psilocybin-prl-analyses/src/prl_hgf/fitting/hierarchical_patrl.py" source_line=366}
  abs.14.39 = f64[4]{0} abs(add.344.1.clone.1), metadata={op_name="jit(scan)/jit(main)/while/body/abs" source_file="/fs04/fc37/adam/projects/psilocybin-prl-analyses/src/prl_hgf/fitting/hierarchical_patrl.py" source_line=367}
  constant_365_20 = f64[] constant(14)
  broadcast.456.39 = f64[4]{0} broadcast(constant_365_20), dimensions={}
  compare.266.39 = pred[4]{0} compare(abs.14.39, broadcast.456.39), direction=LT, metadata={op_name="jit(scan)/jit(main)/while/body/lt" source_file="/fs04/fc37/adam/projects/psilocybin-prl-analyses/src/prl_hgf/fitting/hierarchical_patrl.py" source_line=367}
  and.14.39 = pred[4]{0} and(is-finite.14.39, compare.266.39), metadata={op_name="jit(scan)/jit(main)/while/body/and" source_file="/fs04/fc37/adam/projects/psilocybin-prl-analyses/src/prl_hgf/fitting/hierarchical_patrl.py" source_line=366}
  param_2.661 = s64[4]{0} parameter(2)
  broadcast.460.5 = s64[4]{0} broadcast(constant_357_1), dimensions={}
  compare.268.5 = pred[4]{0} compare(param_2.661, broadcast.460.5), direction=NE, metadata={op_name="jit(scan)/jit(main)/while/body/jit(beliefs_propagation)/jit(continuous_node_posterior_update_ehgf)/jit(posterior_update_precision_continuous_node)/convert_element_type[new_dtype=bool weak_type=False sharding=None]" source_file="/fs04/fc37/adam/projects/psilocybin-prl-analyses/src/prl_hgf/fitting/hierarchical_patrl.py" source_line=362}
  convert.87.5 = s32[4]{0} convert(compare.268.5), metadata={op_name="jit(scan)/jit(main)/while/body/jit(beliefs_propagation)/jit(continuous_node_posterior_update_ehgf)/jit(posterior_update_precision_continuous_node)/convert_element_type[new_dtype=int32 weak_type=False sharding=None]" source_file="/fs04/fc37/adam/projects/psilocybin-prl-analyses/src/prl_hgf/fitting/hierarchical_patrl.py" source_line=362}
  constant_362_2 = s32[] constant(1)
  broadcast.461.clone.7 = s32[4]{0} broadcast(constant_362_2), dimensions={}
  compare.269.5 = pred[4]{0} compare(convert.87.5, broadcast.461.clone.7), direction=LT, metadata={op_name="jit(scan)/jit(main)/while/body/jit(beliefs_propagation)/jit(continuous_node_posterior_update_ehgf)/jit(posterior_update_precision_continuous_node)/select_n" source_file="/fs04/fc37/adam/projects/psilocybin-prl-analyses/src/prl_hgf/fitting/hierarchical_patrl.py" source_line=362}
  constant_358_11 = f64[] constant(1)
  broadcast.453.10 = f64[4]{0} broadcast(constant_358_11), dimensions={}
  param_0.319 = f64[4]{0} parameter(0)
  divide.396.1.clone.1 = f64[4]{0} divide(broadcast.453.10, param_0.319), metadata={op_name="jit(scan)/jit(main)/while/body/jit(beliefs_propagation)/jit(continuous_node_prediction)/jit(predict_precision)/div" source_file="/fs04/fc37/adam/projects/psilocybin-prl-analyses/src/prl_hgf/fitting/hierarchical_patrl.py" source_line=362}
  param_15.44 = f64[4]{0} parameter(15)
  exponential.61.1 = f64[4]{0} exponential(param_15.44), metadata={op_name="jit(scan)/jit(main)/while/body/jit(beliefs_propagation)/jit(continuous_node_prediction)/jit(predict_precision)/exp" source_file="/fs04/fc37/adam/projects/psilocybin-prl-analyses/src/prl_hgf/fitting/hierarchical_patrl.py" source_line=362}
  multiply.863.3 = f64[4]{0} multiply(broadcast.452.59.clone.1, exponential.61.1), metadata={op_name="jit(scan)/jit(main)/while/body/jit(beliefs_propagation)/jit(continuous_node_prediction)/jit(predict_precision)/mul" source_file="/fs04/fc37/adam/projects/psilocybin-prl-analyses/src/prl_hgf/fitting/hierarchical_patrl.py" source_line=362}
  add.350.2 = f64[4]{0} add(divide.396.1.clone.1, multiply.863.3), metadata={op_name="jit(scan)/jit(main)/while/body/jit(beliefs_propagation)/jit(continuous_node_posterior_update_ehgf)/jit(posterior_update_precision_continuous_node)/jit(precision_update_missing_values)/add" source_file="/fs04/fc37/adam/projects/psilocybin-prl-analyses/src/prl_hgf/fitting/hierarchical_patrl.py" source_line=362}
  divide.399.1 = f64[4]{0} divide(broadcast.453.10, add.350.2), metadata={op_name="jit(scan)/jit(main)/while/body/jit(beliefs_propagation)/jit(continuous_node_posterior_update_ehgf)/jit(posterior_update_precision_continuous_node)/jit(precision_update_missing_values)/div" source_file="/fs04/fc37/adam/projects/psilocybin-prl-analyses/src/prl_hgf/fitting/hierarchical_patrl.py" source_line=362}
  constant_359_1 = f64[] constant(1e-128)
…
  get-tuple-element.5729 = f64[4]{0} get-tuple-element(call), index=15
  get-tuple-element.5730 = f64[4]{0} get-tuple-element(call), index=16
  get-tuple-element.5731 = f64[4]{0} get-tuple-element(call), index=17
  get-tuple-element.5732 = f64[4]{0} get-tuple-element(call), index=18
  get-tuple-element.5733 = f64[4]{0} get-tuple-element(call), index=19
  get-tuple-element.5734 = f64[4]{0} get-tuple-element(call), index=20
  get-tuple-element.5735 = f64[4]{0} get-tuple-element(call), index=21
  get-tuple-element.5736 = pred[192,4]{1,0} get-tuple-element(call), index=22
  get-tuple-element.5737 = pred[192,4,1]{2,1,0} get-tuple-element(call), index=23
  get-tuple-element.5738 = pred[192,4,1]{2,1,0} get-tuple-element(call), index=24
  get-tuple-element.5739 = pred[192,4,1]{2,1,0} get-tuple-element(call), index=25
  get-tuple-element.5740 = pred[192,4]{1,0} get-tuple-element(call), index=26
  get-tuple-element.5741 = pred[192,4]{1,0} get-tuple-element(call), index=27
  get-tuple-element.5742 = pred[192,4]{1,0} get-tuple-element(call), index=28
  get-tuple-element.5743 = pred[192,4]{1,0} get-tuple-element(call), index=29
  get-tuple-element.5744 = pred[192,4]{1,0} get-tuple-element(call), index=30
  get-tuple-element.5745 = pred[192,4]{1,0} get-tuple-element(call), index=31
  get-tuple-element.5746 = s32[192]{0} get-tuple-element(call), index=32
  get-tuple-element.5747 = s32[192,4]{1,0} get-tuple-element(call), index=33
  get-tuple-element.5748 = f64[192]{0} get-tuple-element(call), index=34
  get-tuple-element.5749 = f64[192,4]{1,0} get-tuple-element(call), index=35
  get-tuple-element.5750 = f64[192]{0} get-tuple-element(call), index=36
  get-tuple-element.5751 = (f64[192,4]{1,0}, f64[192,4]{1,0}, f64[192,4]{1,0}, f64[192,4]{1,0}, f64[192,4]{1,0}, /*index=5*/f64[192,4]{1,0}, f64[192,4]{1,0}, f64[192,4]{1,0}, f64[192,4]{1,0}, f64[192,4]{1,0}, /*index=10*/f64[192,4]{1,0}, f64[192,4]{1,0}, f64[192,4]{1,0}, f64[192,4]{1,0}, f64[192,4]{1,0}, /*index=15*/f64[192,4]{1,0}, f64[192,4]{1,0}, f64[192,4]{1,0}, f64[192,4]{1,0}, f64[192,4]{1,0}, /*index=20*/f64[192,4]{1,0}, f64[192,4]{1,0}, f64[192,4]{1,0}, f64[192,4]{1,0}, f64[192,4]{1,0}, /*index=25*/f64[192,4]{1,0}, f64[192,4]{1,0}, f64[192,4]{1,0}, f64[192,4]{1,0}, f64[192,4]{1,0}, /*index=30*/f64[192,4]{1,0}, f64[192,4]{1,0}, f64[192,4]{1,0}, f64[192,4]{1,0}, f64[192,4]{1,0}, /*index=35*/f64[192,4]{1,0}, f64[192,4]{1,0}, f64[192,4]{1,0}, f64[192,4]{1,0}, f64[192,4]{1,0}, /*index=40*/f64[192,4]{1,0}, f64[192,4]{1,0}, f64[192,4]{1,0}, f64[192,4]{1,0}, f64[192,4]{1,0}) get-tuple-element(call), index=37
  get-tuple-element.5677 = f64[192,4]{1,0} get-tuple-element(get-tuple-element.5751), index=44
  bitcast.3251 = f64[192,4]{1,0} bitcast(get-tuple-element.5677)
  get-tuple-element.5676 = f64[192,4]{1,0} get-tuple-element(get-tuple-element.5751), index=43
  bitcast.3250 = f64[192,4]{1,0} bitcast(get-tuple-element.5676)
  get-tuple-element.5675 = f64[192,4]{1,0} get-tuple-element(get-tuple-element.5751), index=42
  bitcast.3249 = f64[192,4]{1,0} bitcast(get-tuple-element.5675)
  get-tuple-element.5674 = f64[192,4]{1,0} get-tuple-element(get-tuple-element.5751), index=41
  bitcast.3248 = f64[192,4]{1,0} bitcast(get-tuple-element.5674)
  get-tuple-element.5673 = f64[192,4]{1,0} get-tuple-element(get-tuple-element.5751), index=40
  bitcast.3247 = f64[192,4]{1,0} bitcast(get-tuple-element.5673)
  get-tuple-element.5672 = f64[192,4]{1,0} get-tuple-element(get-tuple-element.5751), index=39
  bitcast.3246 = f64[192,4]{1,0} bitcast(get-tuple-element.5672)
  get-tuple-element.5671 = f64[192,4]{1,0} get-tuple-element(get-tuple-element.5751), index=38
  bitcast.3245 = f64[192,4]{1,0} bitcast(get-tuple-element.5671)
  get-tuple-element.5670 = f64[192,4]{1,0} get-tuple-element(get-tuple-element.5751), index=37
  bitcast.3244 = f64[192,4]{1,0} bitcast(get-tuple-element.5670)
  get-tuple-element.5669 = f64[192,4]{1,0} get-tuple-element(get-tuple-element.5751), index=36
  bitcast.3243 = f64[192,4]{1,0} bitcast(get-tuple-element.5669)
  get-tuple-element.5668 = f64[192,4]{1,0} get-tuple-element(get-tuple-element.5751), index=35
  bitcast.3242 = f64[192,4]{1,0} bitcast(get-tuple-element.5668)
  get-tuple-element.5667 = f64[192,4]{1,0} get-tuple-element(get-tuple-element.5751), index=34
  bitcast.3241 = f64[192,4]{1,0} bitcast(get-tuple-element.5667)
  get-tuple-element.5666 = f64[192,4]{1,0} get-tuple-element(get-tuple-element.5751), index=33
  bitcast.3240 = f64[192,4]{1,0} bitcast(get-tuple-element.5666)
  get-tuple-element.5665 = f64[192,4]{1,0} get-tuple-element(get-tuple-element.5751), index=32
  bitcast.3239 = f64[192,4]{1,0} bitcast(get-tuple-element.5665)
  get-tuple-element.5664 = f64[192,4]{1,0} get-tuple-element(get-tuple-element.5751), index=31
  bitcast.3238 = f64[192,4]{1,0} bitcast(get-tuple-element.5664)
  get-tuple-element.5663 = f64[192,4]{1,0} get-tuple-element(get-tuple-element.5751), index=30
  bitcast.3237 = f64[192,4]{1,0} bitcast(get-tuple-element.5663)
  get-tuple-element.5662 = f64[192,4]{1,0} get-tuple-element(get-tuple-element.5751), index=29
  bitcast.3236 = f64[192,4]{1,0} bitcast(get-tuple-element.5662)
  get-tuple-element.5661 = f64[192,4]{1,0} get-tuple-element(get-tuple-element.5751), index=28
  bitcast.3235 = f64[192,4]{1,0} bitcast(get-tuple-element.5661)
  get-tuple-element.5660 = f64[192,4]{1,0} get-tuple-element(get-tuple-element.5751), index=27
  bitcast.3234 = f64[192,4]{1,0} bitcast(get-tuple-element.5660)
  get-tuple-element.5659 = f64[192,4]{1,0} get-tuple-element(get-tuple-element.5751), index=26
  bitcast.3233 = f64[192,4]{1,0} bitcast(get-tuple-element.5659)
  get-tuple-element.5658 = f64[192,4]{1,0} get-tuple-element(get-tuple-element.5751), index=25
  bitcast.3232 = f64[192,4]{1,0} bitcast(get-tuple-element.5658)
  get-tuple-element.5657 = f64[192,4]{1,0} get-tuple-element(get-tuple-element.5751), index=24
  bitcast.3231 = f64[192,4]{1,0} bitcast(get-tuple-element.5657)
  get-tuple-element.5656 = f64[192,4]{1,0} get-tuple-element(get-tuple-element.5751), index=23
  bitcast.3230 = f64[192,4]{1,0} bitcast(get-tuple-element.5656)
  get-tuple-element.5655 = f64[192,4]{1,0} get-tuple-element(get-tuple-element.5751), index=22
  bitcast.3229 = f64[192,4]{1,0} bitcast(get-tuple-element.5655)
  get-tuple-element.5654 = f64[192,4]{1,0} get-tuple-element(get-tuple-element.5751), index=21
  bitcast.3228 = f64[192,4]{1,0} bitcast(get-tuple-element.5654)
  get-tuple-element.5653 = f64[192,4]{1,0} get-tuple-element(get-tuple-element.5751), index=20
  bitcast.3227 = f64[192,4]{1,0} bitcast(get-tuple-element.5653)
  get-tuple-element.5652 = f64[192,4]{1,0} get-tuple-element(get-tuple-element.5751), index=19
  bitcast.3226 = f64[192,4]{1,0} bitcast(get-tuple-element.5652)
  get-tuple-element.5651 = f64[192,4]{1,0} get-tuple-element(get-tuple-element.5751), index=18
  bitcast.3225 = f64[192,4]{1,0} bitcast(get-tuple-element.5651)
  get-tuple-element.5650 = f64[192,4]{1,0} get-tuple-element(get-tuple-element.5751), index=17
  bitcast.3224 = f64[192,4]{1,0} bitcast(get-tuple-element.5650)
  get-tuple-element.5649 = f64[192,4]{1,0} get-tuple-element(get-tuple-element.5751), index=16
  bitcast.3223 = f64[192,4]{1,0} bitcast(get-tuple-element.5649)
  get-tuple-element.5648 = f64[192,4]{1,0} get-tuple-element(get-tuple-element.5751), index=15
  bitcast.3222 = f64[192,4]{1,0} bitcast(get-tuple-element.5648)
  get-tuple-element.5647 = f64[192,4]{1,0} get-tuple-element(get-tuple-element.5751), index=14
  bitcast.3221 = f64[192,4]{1,0} bitcast(get-tuple-element.5647)
  get-tuple-element.5646 = f64[192,4]{1,0} get-tuple-element(get-tuple-element.5751), index=13
  bitcast.3220 = f64[192,4]{1,0} bitcast(get-tuple-element.5646)
  get-tuple-element.5645 = f64[192,4]{1,0} get-tuple-element(get-tuple-element.5751), index=12
  bitcast.3219 = f64[192,4]{1,0} bitcast(get-tuple-element.5645)
  get-tuple-element.5644 = f64[192,4]{1,0} get-tuple-element(get-tuple-element.5751), index=11
  bitcast.3218 = f64[192,4]{1,0} bitcast(get-tuple-element.5644)
  get-tuple-element.5643 = f64[192,4]{1,0} get-tuple-element(get-tuple-element.5751), index=10
  bitcast.3217 = f64[192,4]{1,0} bitcast(get-tuple-element.5643)
  get-tuple-element.5642 = f64[192,4]{1,0} get-tuple-element(get-tuple-element.5751), index=9
  bitcast.3216 = f64[192,4]{1,0} bitcast(get-tuple-element.5642)
  get-tuple-element.5641 = f64[192,4]{1,0} get-tuple-element(get-tuple-element.5751), index=8
  bitcast.3215 = f64[192,4]{1,0} bitcast(get-tuple-element.5641)
  get-tuple-element.5640 = f64[192,4]{1,0} get-tuple-element(get-tuple-element.5751), index=7
  bitcast.3214 = f64[192,4]{1,0} bitcast(get-tuple-element.5640)
  get-tuple-element.5639 = f64[192,4]{1,0} get-tuple-element(get-tuple-element.5751), index=6
  bitcast.3213 = f64[192,4]{1,0} bitcast(get-tuple-element.5639)
  get-tuple-element.5638 = f64[192,4]{1,0} get-tuple-element(get-tuple-element.5751), index=5
  bitcast.3212 = f64[192,4]{1,0} bitcast(get-tuple-element.5638)
  get-tuple-element.5637 = f64[192,4]{1,0} get-tuple-element(get-tuple-element.5751), index=4
  bitcast.3211 = f64[192,4]{1,0} bitcast(get-tuple-element.5637)
  get-tuple-element.5636 = f64[192,4]{1,0} get-tuple-element(get-tuple-element.5751), index=3
  bitcast.3210 = f64[192,4]{1,0} bitcast(get-tuple-element.5636)
  get-tuple-element.5635 = f64[192,4]{1,0} get-tuple-element(get-tuple-element.5751), index=2
  bitcast.3209 = f64[192,4]{1,0} bitcast(get-tuple-element.5635)
  get-tuple-element.5634 = f64[192,4]{1,0} get-tuple-element(get-tuple-element.5751), index=1
  get-tuple-element.5633 = f64[192,4]{1,0} get-tuple-element(get-tuple-element.5751), index=0
  bitcast.3207 = f64[192,4]{1,0} bitcast(get-tuple-element.5633)
  bitcast.3208 = f64[192,4]{1,0} bitcast(get-tuple-element.5634)
  tuple.181 = (s64[], f64[4]{0}, f64[4]{0}, f64[4]{0}, f64[4]{0}, /*index=5*/s32[4]{0}, f64[4]{0}, f64[4]{0}, f64[4]{0}, f64[4]{0}, /*index=10*/f64[4]{0}, f64[4]{0}, s64[4]{0}, f64[4]{0}, f64[4]{0}, /*index=15*/f64[4]{0}, f64[4]{0}, f64[4]{0}, f64[4]{0}, f64[4]{0}, /*index=20*/f64[4,1]{1,0}, f64[4,1]{1,0}, f64[4]{0}, f64[4]{0}, f64[4]{0}, /*index=25*/f64[4]{0}, f64[4]{0}, f64[4]{0}, f64[4]{0}, f64[4]{0}, /*index=30*/f64[4]{0}, f64[4,1]{1,0}, f64[192,4]{1,0}, f64[192,4]{1,0}, f64[192,4]{1,0}, /*index=35*/f64[192,4]{1,0}, pred[192,4]{1,0}, f64[192,4]{1,0}, f64[192,4]{1,0}, f64[192,4]{1,0}, /*index=40*/f64[192,4]{1,0}, f64[192,4]{1,0}, f64[192,4]{1,0}, f64[192,4]{1,0}, pred[192,4]{1,0}, /*index=45*/f64[192,4]{1,0}, f64[192,4]{1,0}, f64[192,4]{1,0}, f64[192,4]{1,0}, f64[192,4]{1,0}, /*index=50*/f64[192,4]{1,0}, f64[192]{0}, f64[192,4]{1,0}, f64[192,4]{1,0}, s32[192]{0}, /*index=55*/f64[192,4]{1,0}, f64[192]{0}, f64[192,4]{1,0}, f64[192,4]{1,0}, f64[192,4]{1,0}, /*index=60*/pred[192,4]{1,0}, f64[192,4]{1,0}, f64[192,4]{1,0}, f64[192,4]{1,0}, f64[192,4]{1,0}, /*index=65*/f64[192,4]{1,0}, f64[192,4]{1,0}, f64[192,4]{1,0}, f64[192,4]{1,0}, f64[192,4]{1,0}, /*index=70*/f64[192,4]{1,0}, f64[192,4]{1,0}, f64[192,4]{1,0}, f64[192,4]{1,0}, f64[192,4]{1,0}, /*index=75*/f64[192,4]{1,0}, f64[192,4]{1,0}, s32[192,4]{1,0}, pred[192,4]{1,0}, pred[192,4,1]{2,1,0}, /*index=80*/f64[192,4]{1,0}, f64[192,4]{1,0}, pred[192,4]{1,0}, pred[192,4,1]{2,1,0}, f64[192,4]{1,0}, /*index=85*/f64[192,4]{1,0}, f64[192,4]{1,0}, f64[192,4]{1,0}, f64[192,4]{1,0}, pred[192,4]{1,0}, /*index=90*/pred[192,4]{1,0}, pred[192,4,1]{2,1,0}, f64[192,4,1]{2,1,0}, s32[192]{0}, f64[192]{0}, /*index=95*/f64[4]{0}, f64[4]{0}, f64[4]{0}) tuple(get-tuple-element.5714, get-tuple-element.5735, get-tuple-element.5734, get-tuple-element.5733, get-tuple-element.5732, /*index=5*/get-tuple-element.5715, get-tuple-element.5731, get-tuple-element.5730, Arg_11.12.0, get-tuple-element.5729, /*index=10*/get-tuple-element.5728, get-tuple-element.5727, Arg_15.16.0, get-tuple-element.5726, get-tuple-element.5725, /*index=15*/get-tuple-element.5724, get-tuple-element.5723, get-tuple-element.5722, Arg_21.22.0, Arg_22.23.0, /*index=20*/Arg_23.24.0, Arg_24.25.0, Arg_25.26.0, get-tuple-element.5721, get-tuple-element.5720, /*index=25*/get-tuple-element.5719, get-tuple-element.5718, get-tuple-element.5717, get-tuple-element.5716, Arg_35.36.0, /*index=30*/Arg_36.37.0, Arg_37.38.0, get-tuple-element.5749, bitcast.3207, bitcast.3208, /*index=35*/bitcast.3209, get-tuple-element.5736, bitcast.3210, bitcast.3211, bitcast.3212, /*index=40*/bitcast.3213, bitcast.3214, bitcast.3215, bitcast.3216, get-tuple-element.5744, /*index=45*/bitcast.3217, bitcast.3218, bitcast.3219, bitcast.3220, bitcast.3221, /*index=50*/bitcast.3222, get-tuple-element.5748, bitcast.3223, bitcast.3224, get-tuple-element.5746, /*index=55*/bitcast.3225, get-tuple-element.5750, bitcast.3226, bitcast.3227, bitcast.3228, /*index=60*/get-tuple-element.5745, bitcast.3229, bitcast.3230, bitcast.3231, bitcast.3232, /*index=65*/bitcast.3233, bitcast.3234, bitcast.3235, bitcast.3236, bitcast.3237, /*index=70*/bitcast.3238, bitcast.3239, bitcast.3240, bitcast.3241, bitcast.3242, /*index=75*/bitcast.3243, bitcast.3244, get-tuple-element.5747, get-tuple-element.5743, get-tuple-element.5737, /*index=80*/bitcast.3245, bitcast.3246, get-tuple-element.5742, get-tuple-element.5738, bitcast.3247, /*index=85*/bitcast.3248, bitcast.3249, bitcast.3250, bitcast.3251, get-tuple-element.5740, /*index=90*/get-tuple-element.5741, get-tuple-element.5739, Arg_38.39.0, Arg_39.40.0, Arg_40.41.0, /*index=95*/Arg_0.1.0, Arg_1.2.0, Arg_2.3.0)
  while.11.0 = (s64[], f64[4]{0}, f64[4]{0}, f64[4]{0}, f64[4]{0}, /*index=5*/s32[4]{0}, f64[4]{0}, f64[4]{0}, f64[4]{0}, f64[4]{0}, /*index=10*/f64[4]{0}, f64[4]{0}, s64[4]{0}, f64[4]{0}, f64[4]{0}, /*index=15*/f64[4]{0}, f64[4]{0}, f64[4]{0}, f64[4]{0}, f64[4]{0}, /*index=20*/f64[4,1]{1,0}, f64[4,1]{1,0}, f64[4]{0}, f64[4]{0}, f64[4]{0}, /*index=25*/f64[4]{0}, f64[4]{0}, f64[4]{0}, f64[4]{0}, f64[4]{0}, /*index=30*/f64[4]{0}, f64[4,1]{1,0}, f64[192,4]{1,0}, f64[192,4]{1,0}, f64[192,4]{1,0}, /*index=35*/f64[192,4]{1,0}, pred[192,4]{1,0}, f64[192,4]{1,0}, f64[192,4]{1,0}, f64[192,4]{1,0}, /*index=40*/f64[192,4]{1,0}, f64[192,4]{1,0}, f64[192,4]{1,0}, f64[192,4]{1,0}, pred[192,4]{1,0}, /*index=45*/f64[192,4]{1,0}, f64[192,4]{1,0}, f64[192,4]{1,0}, f64[192,4]{1,0}, f64[192,4]{1,0}, /*index=50*/f64[192,4]{1,0}, f64[192]{0}, f64[192,4]{1,0}, f64[192,4]{1,0}, s32[192]{0}, /*index=55*/f64[192,4]{1,0}, f64[192]{0}, f64[192,4]{1,0}, f64[192,4]{1,0}, f64[192,4]{1,0}, /*index=60*/pred[192,4]{1,0}, f64[192,4]{1,0}, f64[192,4]{1,0}, f64[192,4]{1,0}, f64[192,4]{1,0}, /*index=65*/f64[192,4]{1,0}, f64[192,4]{1,0}, f64[192,4]{1,0}, f64[192,4]{1,0}, f64[192,4]{1,0}, /*index=70*/f64[192,4]{1,0}, f64[192,4]{1,0}, f64[192,4]{1,0}, f64[192,4]{1,0}, f64[192,4]{1,0}, /*index=75*/f64[192,4]{1,0}, f64[192,4]{1,0}, s32[192,4]{1,0}, pred[192,4]{1,0}, pred[192,4,1]{2,1,0}, /*index=80*/f64[192,4]{1,0}, f64[192,4]{1,0}, pred[192,4]{1,0}, pred[192,4,1]{2,1,0}, f64[192,4]{1,0}, /*index=85*/f64[192,4]{1,0}, f64[192,4]{1,0}, f64[192,4]{1,0}, f64[192,4]{1,0}, pred[192,4]{1,0}, /*index=90*/pred[192,4]{1,0}, pred[192,4,1]{2,1,0}, f64[192,4,1]{2,1,0}, s32[192]{0}, f64[192]{0}, /*index=95*/f64[4]{0}, f64[4]{0}, f64[4]{0}) while(tuple.181), condition=region_5.1726.clone.clone.clone.clone.clone.clone.clone.clone.clone.clone.clone.clone, body=region_0.1122.clone.clone.clone.clone.clone.clone.clone.clone.clone.clone.clone.clone, metadata={op_name="jit(scan)/jit(main)/while[cond_nconsts=0 body_nconsts=6]" source_file="/fs04/fc37/adam/projects/psilocybin-prl-analyses/src/prl_hgf/fitting/hierarchical_patrl.py" source_line=378}, backend_config={"known_trip_count":{"n":"192"}}
  get-tuple-element.5571 = f64[192,4]{1,0} get-tuple-element(while.11.0), index=84, metadata={op_name="jit(scan)/jit(main)/while[cond_nconsts=0 body_nconsts=6]" source_file="/fs04/fc37/adam/projects/psilocybin-prl-analyses/src/prl_hgf/fitting/hierarchical_patrl.py" source_line=378}
  get-tuple-element.5577 = f64[192,4]{1,0} get-tuple-element(while.11.0), index=76, metadata={op_name="jit(scan)/jit(main)/while[cond_nconsts=0 body_nconsts=6]" source_file="/fs04/fc37/adam/projects/psilocybin-prl-analyses/src/prl_hgf/fitting/hierarchical_patrl.py" source_line=378}
  get-tuple-element.5572 = f64[192,4]{1,0} get-tuple-element(while.11.0), index=71, metadata={op_name="jit(scan)/jit(main)/while[cond_nconsts=0 body_nconsts=6]" source_file="/fs04/fc37/adam/projects/psilocybin-prl-analyses/src/prl_hgf/fitting/hierarchical_patrl.py" source_line=378}
  get-tuple-element.5569 = f64[192,4]{1,0} get-tuple-element(while.11.0), index=70, metadata={op_name="jit(scan)/jit(main)/while[cond_nconsts=0 body_nconsts=6]" source_file="/fs04/fc37/adam/projects/psilocybin-prl-analyses/src/prl_hgf/fitting/hierarchical_patrl.py" source_line=378}
  get-tuple-element.5568 = f64[192,4]{1,0} get-tuple-element(while.11.0), index=69, metadata={op_name="jit(scan)/jit(main)/while[cond_nconsts=0 body_nconsts=6]" source_file="/fs04/fc37/adam/projects/psilocybin-prl-analyses/src/prl_hgf/fitting/hierarchical_patrl.py" source_line=378}
  get-tuple-element.5548 = f64[192,4]{1,0} get-tuple-element(while.11.0), index=64, metadata={op_name="jit(scan)/jit(main)/while[cond_nconsts=0 body_nconsts=6]" source_file="/fs04/fc37/adam/projects/psilocybin-prl-analyses/src/prl_hgf/fitting/hierarchical_patrl.py" source_line=378}
  get-tuple-element.5547 = f64[192]{0} get-tuple-element(while.11.0), index=51, metadata={op_name="jit(scan)/jit(main)/while[cond_nconsts=0 body_nconsts=6]" source_file="/fs04/fc37/adam/projects/psilocybin-prl-analyses/src/prl_hgf/fitting/hierarchical_patrl.py" source_line=378}
  get-tuple-element.5531 = f64[192,4]{1,0} get-tuple-element(while.11.0), index=48, metadata={op_name="jit(scan)/jit(main)/while[cond_nconsts=0 body_nconsts=6]" source_file="/fs04/fc37/adam/projects/psilocybin-prl-analyses/src/prl_hgf/fitting/hierarchical_patrl.py" source_line=378}
  get-tuple-element.5525 = f64[192,4]{1,0} get-tuple-element(while.11.0), index=40, metadata={op_name="jit(scan)/jit(main)/while[cond_nconsts=0 body_nconsts=6]" source_file="/fs04/fc37/adam/projects/psilocybin-prl-analyses/src/prl_hgf/fitting/hierarchical_patrl.py" source_line=378}
  get-tuple-element.5564 = f64[192,4]{1,0} get-tuple-element(while.11.0), index=35, metadata={op_name="jit(scan)/jit(main)/while[cond_nconsts=0 body_nconsts=6]" source_file="/fs04/fc37/adam/projects/psilocybin-prl-analyses/src/prl_hgf/fitting/hierarchical_patrl.py" source_line=378}
  get-tuple-element.5562 = f64[192,4]{1,0} get-tuple-element(while.11.0), index=33, metadata={op_name="jit(scan)/jit(main)/while[cond_nconsts=0 body_nconsts=6]" source_file="/fs04/fc37/adam/projects/psilocybin-prl-analyses/src/prl_hgf/fitting/hierarchical_patrl.py" source_line=378}
  get-tuple-element.5578 = pred[192,4]{1,0} get-tuple-element(while.11.0), index=89, metadata={op_name="jit(scan)/jit(main)/while[cond_nconsts=0 body_nconsts=6]" source_file="/fs04/fc37/adam/projects/psilocybin-prl-analyses/src/prl_hgf/fitting/hierarchical_patrl.py" source_line=378}
  get-tuple-element.5576 = f64[192,4]{1,0} get-tuple-element(while.11.0), index=88, metadata={op_name="jit(scan)/jit(main)/while[cond_nconsts=0 body_nconsts=6]" source_file="/fs04/fc37/adam/projects/psilocybin-prl-analyses/src/prl_hgf/fitting/hierarchical_patrl.py" source_line=378}
  get-tuple-element.5575 = f64[192,4]{1,0} get-tuple-element(while.11.0), index=87, metadata={op_name="jit(scan)/jit(main)/while[cond_nconsts=0 body_nconsts=6]" source_file="/fs04/fc37/adam/projects/psilocybin-prl-analyses/src/prl_hgf/fitting/hierarchical_patrl.py" source_line=378}
  get-tuple-element.5574 = f64[192,4]{1,0} get-tuple-element(while.11.0), index=86, metadata={op_name="jit(scan)/jit(main)/while[cond_nconsts=0 body_nconsts=6]" source_file="/fs04/fc37/adam/projects/psilocybin-prl-analyses/src/prl_hgf/fitting/hierarchical_patrl.py" source_line=378}
  get-tuple-element.5573 = f64[192,4]{1,0} get-tuple-element(while.11.0), index=85, metadata={op_name="jit(scan)/jit(main)/while[cond_nconsts=0 body_nconsts=6]" source_file="/fs04/fc37/adam/projects/psilocybin-prl-analyses/src/prl_hgf/fitting/hierarchical_patrl.py" source_line=378}
  get-tuple-element.5579 = pred[192,4]{1,0} get-tuple-element(while.11.0), index=90, metadata={op_name="jit(scan)/jit(main)/while[cond_nconsts=0 body_nconsts=6]" source_file="/fs04/fc37/adam/projects/psilocybin-prl-analyses/src/prl_hgf/fitting/hierarchical_patrl.py" source_line=378}
  get-tuple-element.5567 = pred[192,4,1]{2,1,0} get-tuple-element(while.11.0), index=83, metadata={op_name="jit(scan)/jit(main)/while[cond_nconsts=0 body_nconsts=6]" source_file="/fs04/fc37/adam/projects/psilocybin-prl-analyses/src/prl_hgf/fitting/hierarchical_patrl.py" source_line=378}
  get-tuple-element.5566 = pred[192,4]{1,0} get-tuple-element(while.11.0), index=82, metadata={op_name="jit(scan)/jit(main)/while[cond_nconsts=0 body_nconsts=6]" source_file="/fs04/fc37/adam/projects/psilocybin-prl-analyses/src/prl_hgf/fitting/hierarchical_patrl.py" source_line=378}
  get-tuple-element.5565 = f64[192,4]{1,0} get-tuple-element(while.11.0), index=81, metadata={op_name="jit(scan)/jit(main)/while[cond_nconsts=0 body_nconsts=6]" source_file="/fs04/fc37/adam/projects/psilocybin-prl-analyses/src/prl_hgf/fitting/hierarchical_patrl.py" source_line=378}
  get-tuple-element.5563 = f64[192,4]{1,0} get-tuple-element(while.11.0), index=80, metadata={op_name="jit(scan)/jit(main)/while[cond_nconsts=0 body_nconsts=6]" source_file="/fs04/fc37/adam/projects/psilocybin-prl-analyses/src/prl_hgf/fitting/hierarchical_patrl.py" source_line=378}
  get-tuple-element.5561 = pred[192,4,1]{2,1,0} get-tuple-element(while.11.0), index=79, metadata={op_name="jit(scan)/jit(main)/while[cond_nconsts=0 body_nconsts=6]" source_file="/fs04/fc37/adam/projects/psilocybin-prl-analyses/src/prl_hgf/fitting/hierarchical_patrl.py" source_line=378}
  get-tuple-element.5560 = pred[192,4]{1,0} get-tuple-element(while.11.0), index=78, metadata={op_name="jit(scan)/jit(main)/while[cond_nconsts=0 body_nconsts=6]" source_file="/fs04/fc37/adam/projects/psilocybin-prl-analyses/src/prl_hgf/fitting/hierarchical_patrl.py" source_line=378}
  get-tuple-element.5559 = s32[192,4]{1,0} get-tuple-element(while.11.0), index=77, metadata={op_name="jit(scan)/jit(main)/while[cond_nconsts=0 body_nconsts=6]" source_file="/fs04/fc37/adam/projects/psilocybin-prl-analyses/src/prl_hgf/fitting/hierarchical_patrl.py" source_line=378}
  get-tuple-element.5557 = f64[192,4]{1,0} get-tuple-element(while.11.0), index=75, metadata={op_name="jit(scan)/jit(main)/while[cond_nconsts=0 body_nconsts=6]" source_file="/fs04/fc37/adam/projects/psilocybin-prl-analyses/src/prl_hgf/fitting/hierarchical_patrl.py" source_line=378}
  get-tuple-element.5556 = f64[192,4]{1,0} get-tuple-element(while.11.0), index=74, metadata={op_name="jit(scan)/jit(main)/while[cond_nconsts=0 body_nconsts=6]" source_file="/fs04/fc37/adam/projects/psilocybin-prl-analyses/src/prl_hgf/fitting/hierarchical_patrl.py" source_line=378}
  get-tuple-element.5555 = f64[192,4]{1,0} get-tuple-element(while.11.0), index=73, metadata={op_name="jit(scan)/jit(main)/while[cond_nconsts=0 body_nconsts=6]" source_file="/fs04/fc37/adam/projects/psilocybin-prl-analyses/src/prl_hgf/fitting/hierarchical_patrl.py" source_line=378}
  get-tuple-element.5554 = f64[192,4]{1,0} get-tuple-element(while.11.0), index=72, metadata={op_name="jit(scan)/jit(main)/while[cond_nconsts=0 body_nconsts=6]" source_file="/fs04/fc37/adam/projects/psilocybin-prl-analyses/src/prl_hgf/fitting/hierarchical_patrl.py" source_line=378}
  get-tuple-element.5550 = f64[192,4]{1,0} get-tuple-element(while.11.0), index=68, metadata={op_name="jit(scan)/jit(main)/while[cond_nconsts=0 body_nconsts=6]" source_file="/fs04/fc37/adam/projects/psilocybin-prl-analyses/src/prl_hgf/fitting/hierarchical_patrl.py" source_line=378}
  get-tuple-element.5549 = f64[192,4]{1,0} get-tuple-element(while.11.0), index=67, metadata={op_name="jit(scan)/jit(main)/while[cond_nconsts=0 body_nconsts=6]" source_file="/fs04/fc37/adam/projects/psilocybin-prl-analyses/src/prl_hgf/fitting/hierarchical_patrl.py" source_line=378}
  get-tuple-element.5546 = f64[192,4]{1,0} get-tuple-element(while.11.0), index=66, metadata={op_name="jit(scan)/jit(main)/while[cond_nconsts=0 body_nconsts=6]" source_file="/fs04/fc37/adam/projects/psilocybin-prl-analyses/src/prl_hgf/fitting/hierarchical_patrl.py" source_line=378}
  get-tuple-element.5545 = f64[192,4]{1,0} get-tuple-element(while.11.0), index=65, metadata={op_name="jit(scan)/jit(main)/while[cond_nconsts=0 body_nconsts=6]" source_file="/fs04/fc37/adam/projects/psilocybin-prl-analyses/src/prl_hgf/fitting/hierarchical_patrl.py" source_line=378}
  get-tuple-element.5543 = f64[192,4]{1,0} get-tuple-element(while.11.0), index=63, metadata={op_name="jit(scan)/jit(main)/while[cond_nconsts=0 body_nconsts=6]" source_file="/fs04/fc37/adam/projects/psilocybin-prl-analyses/src/prl_hgf/fitting/hierarchical_patrl.py" source_line=378}
  get-tuple-element.5542 = f64[192,4]{1,0} get-tuple-element(while.11.0), index=62, metadata={op_name="jit(scan)/jit(main)/while[cond_nconsts=0 body_nconsts=6]" source_file="/fs04/fc37/adam/projects/psilocybin-prl-analyses/src/prl_hgf/fitting/hierarchical_patrl.py" source_line=378}
  get-tuple-element.5541 = f64[192,4]{1,0} get-tuple-element(while.11.0), index=61, metadata={op_name="jit(scan)/jit(main)/while[cond_nconsts=0 body_nconsts=6]" source_file="/fs04/fc37/adam/projects/psilocybin-prl-analyses/src/prl_hgf/fitting/hierarchical_patrl.py" source_line=378}
  get-tuple-element.5540 = pred[192,4]{1,0} get-tuple-element(while.11.0), index=60, metadata={op_name="jit(scan)/jit(main)/while[cond_nconsts=0 body_nconsts=6]" source_file="/fs04/fc37/adam/projects/psilocybin-prl-analyses/src/prl_hgf/fitting/hierarchical_patrl.py" source_line=378}
  get-tuple-element.5539 = f64[192,4]{1,0} get-tuple-element(while.11.0), index=59, metadata={op_name="jit(scan)/jit(main)/while[cond_nconsts=0 body_nconsts=6]" source_file="/fs04/fc37/adam/projects/psilocybin-prl-analyses/src/prl_hgf/fitting/hierarchical_patrl.py" source_line=378}
  get-tuple-element.5538 = f64[192,4]{1,0} get-tuple-element(while.11.0), index=58, metadata={op_name="jit(scan)/jit(main)/while[cond_nconsts=0 body_nconsts=6]" source_file="/fs04/fc37/adam/projects/psilocybin-prl-analyses/src/prl_hgf/fitting/hierarchical_patrl.py" source_line=378}
  get-tuple-element.5537 = f64[192,4]{1,0} get-tuple-element(while.11.0), index=57, metadata={op_name="jit(scan)/jit(main)/while[cond_nconsts=0 body_nconsts=6]" source_file="/fs04/fc37/adam/projects/psilocybin-prl-analyses/src/prl_hgf/fitting/hierarchical_patrl.py" source_line=378}
  get-tuple-element.5536 = f64[192]{0} get-tuple-element(while.11.0), index=56, metadata={op_name="jit(scan)/jit(main)/while[cond_nconsts=0 body_nconsts=6]" source_file="/fs04/fc37/adam/projects/psilocybin-prl-analyses/src/prl_hgf/fitting/hierarchical_patrl.py" source_line=378}
  get-tuple-element.5535 = f64[192,4]{1,0} get-tuple-element(while.11.0), index=55, metadata={op_name="jit(scan)/jit(main)/while[cond_nconsts=0 body_nconsts=6]" source_file="/fs04/fc37/adam/projects/psilocybin-prl-analyses/src/prl_hgf/fitting/hierarchical_patrl.py" source_line=378}
  get-tuple-element.5534 = s32[192]{0} get-tuple-element(while.11.0), index=54, metadata={op_name="jit(scan)/jit(main)/while[cond_nconsts=0 body_nconsts=6]" source_file="/fs04/fc37/adam/projects/psilocybin-prl-analyses/src/prl_hgf/fitting/hierarchical_patrl.py" source_line=378}
  get-tuple-element.5533 = f64[192,4]{1,0} get-tuple-element(while.11.0), index=53, metadata={op_name="jit(scan)/jit(main)/while[cond_nconsts=0 body_nconsts=6]" source_file="/fs04/fc37/adam/projects/psilocybin-prl-analyses/src/prl_hgf/fitting/hierarchical_patrl.py" source_line=378}
  get-tuple-element.5532 = f64[192,4]{1,0} get-tuple-element(while.11.0), index=52, metadata={op_name="jit(scan)/jit(main)/while[cond_nconsts=0 body_nconsts=6]" source_file="/fs04/fc37/adam/projects/psilocybin-prl-analyses/src/prl_hgf/fitting/hierarchical_patrl.py" source_line=378}
  get-tuple-element.5529 = f64[192,4]{1,0} get-tuple-element(while.11.0), index=50, metadata={op_name="jit(scan)/jit(main)/while[cond_nconsts=0 body_nconsts=6]" source_file="/fs04/fc37/adam/projects/psilocybin-prl-analyses/src/prl_hgf/fitting/hierarchical_patrl.py" source_line=378}
  get-tuple-element.5528 = f64[192,4]{1,0} get-tuple-element(while.11.0), index=49, metadata={op_name="jit(scan)/jit(main)/while[cond_nconsts=0 body_nconsts=6]" source_file="/fs04/fc37/adam/projects/psilocybin-prl-analyses/src/prl_hgf/fitting/hierarchical_patrl.py" source_line=378}
  get-tuple-element.5526 = f64[192,4]{1,0} get-tuple-element(while.11.0), index=47, metadata={op_name="jit(scan)/jit(main)/while[cond_nconsts=0 body_nconsts=6]" source_file="/fs04/fc37/adam/projects/psilocybin-prl-analyses/src/prl_hgf/fitting/hierarchical_patrl.py" source_line=378}
  get-tuple-element.5524 = f64[192,4]{1,0} get-tuple-element(while.11.0), index=46, metadata={op_name="jit(scan)/jit(main)/while[cond_nconsts=0 body_nconsts=6]" source_file="/fs04/fc37/adam/projects/psilocybin-prl-analyses/src/prl_hgf/fitting/hierarchical_patrl.py" source_line=378}
  get-tuple-element.5523 = f64[192,4]{1,0} get-tuple-element(while.11.0), index=45, metadata={op_name="jit(scan)/jit(main)/while[cond_nconsts=0 body_nconsts=6]" source_file="/fs04/fc37/adam/projects/psilocybin-prl-analyses/src/prl_hgf/fitting/hierarchical_patrl.py" source_line=378}
  get-tuple-element.5522 = pred[192,4]{1,0} get-tuple-element(while.11.0), index=44, metadata={op_name="jit(scan)/jit(main)/while[cond_nconsts=0 body_nconsts=6]" source_file="/fs04/fc37/adam/projects/psilocybin-prl-analyses/src/prl_hgf/fitting/hierarchical_patrl.py" source_line=378}
  get-tuple-element.5521 = f64[192,4]{1,0} get-tuple-element(while.11.0), index=43, metadata={op_name="jit(scan)/jit(main)/while[cond_nconsts=0 body_nconsts=6]" source_file="/fs04/fc37/adam/projects/psilocybin-prl-analyses/src/prl_hgf/fitting/hierarchical_patrl.py" source_line=378}
  get-tuple-element.5520 = f64[192,4]{1,0} get-tuple-element(while.11.0), index=42, metadata={op_name="jit(scan)/jit(main)/while[cond_nconsts=0 body_nconsts=6]" source_file="/fs04/fc37/adam/projects/psilocybin-prl-analyses/src/prl_hgf/fitting/hierarchical_patrl.py" source_line=378}
  get-tuple-element.5519 = f64[192,4]{1,0} get-tuple-element(while.11.0), index=41, metadata={op_name="jit(scan)/jit(main)/while[cond_nconsts=0 body_nconsts=6]" source_file="/fs04/fc37/adam/projects/psilocybin-prl-analyses/src/prl_hgf/fitting/hierarchical_patrl.py" source_line=378}
  get-tuple-element.5517 = f64[192,4]{1,0} get-tuple-element(while.11.0), index=39, metadata={op_name="jit(scan)/jit(main)/while[cond_nconsts=0 body_nconsts=6]" source_file="/fs04/fc37/adam/projects/psilocybin-prl-analyses/src/prl_hgf/fitting/hierarchical_patrl.py" source_line=378}
  get-tuple-element.5515 = f64[192,4]{1,0} get-tuple-element(while.11.0), index=38, metadata={op_name="jit(scan)/jit(main)/while[cond_nconsts=0 body_nconsts=6]" source_file="/fs04/fc37/adam/projects/psilocybin-prl-analyses/src/prl_hgf/fitting/hierarchical_patrl.py" source_line=378}
  get-tuple-element.5514 = f64[192,4]{1,0} get-tuple-element(while.11.0), index=37, metadata={op_name="jit(scan)/jit(main)/while[cond_nconsts=0 body_nconsts=6]" source_file="/fs04/fc37/adam/projects/psilocybin-prl-analyses/src/prl_hgf/fitting/hierarchical_patrl.py" source_line=378}
  get-tuple-element.5513 = pred[192,4]{1,0} get-tuple-element(while.11.0), index=36, metadata={op_name="jit(scan)/jit(main)/while[cond_nconsts=0 body_nconsts=6]" source_file="/fs04/fc37/adam/projects/psilocybin-prl-analyses/src/prl_hgf/fitting/hierarchical_patrl.py" source_line=378}
  get-tuple-element.5511 = f64[192,4]{1,0} get-tuple-element(while.11.0), index=34, metadata={op_name="jit(scan)/jit(main)/while[cond_nconsts=0 body_nconsts=6]" source_file="/fs04/fc37/adam/projects/psilocybin-prl-analyses/src/prl_hgf/fitting/hierarchical_patrl.py" source_line=378}
  get-tuple-element.5509 = f64[192,4]{1,0} get-tuple-element(while.11.0), index=32, metadata={op_name="jit(scan)/jit(main)/while[cond_nconsts=0 body_nconsts=6]" source_file="/fs04/fc37/adam/projects/psilocybin-prl-analyses/src/prl_hgf/fitting/hierarchical_patrl.py" source_line=378}
  get-tuple-element.5508 = f64[4,1]{1,0} get-tuple-element(while.11.0), index=31, metadata={op_name="jit(scan)/jit(main)/while[cond_nconsts=0 body_nconsts=6]" source_file="/fs04/fc37/adam/projects/psilocybin-prl-analyses/src/prl_hgf/fitting/hierarchical_patrl.py" source_line=378}
  get-tuple-element.5507 = f64[4]{0} get-tuple-element(while.11.0), index=30, metadata={op_name="jit(scan)/jit(main)/while[cond_nconsts=0 body_nconsts=6]" source_file="/fs04/fc37/adam/projects/psilocybin-prl-analyses/src/prl_hgf/fitting/hierarchical_patrl.py" source_line=378}
  get-tuple-element.5506 = f64[4]{0} get-tuple-element(while.11.0), index=29, metadata={op_name="jit(scan)/jit(main)/while[cond_nconsts=0 body_nconsts=6]" source_file="/fs04/fc37/adam/projects/psilocybin-prl-analyses/src/prl_hgf/fitting/hierarchical_patrl.py" source_line=378}
  get-tuple-element.5503 = f64[4]{0} get-tuple-element(while.11.0), index=28, metadata={op_name="jit(scan)/jit(main)/while[cond_nconsts=0 body_nconsts=6]" source_file="/fs04/fc37/adam/projects/psilocybin-prl-analyses/src/prl_hgf/fitting/hierarchical_patrl.py" source_line=378}
  get-tuple-element.5502 = f64[4]{0} get-tuple-element(while.11.0), index=27, metadata={op_name="jit(scan)/jit(main)/while[cond_nconsts=0 body_nconsts=6]" source_file="/fs04/fc37/adam/projects/psilocybin-prl-analyses/src/prl_hgf/fitting/hierarchical_patrl.py" source_line=378}
  get-tuple-element.5501 = f64[4]{0} get-tuple-element(while.11.0), index=26, metadata={op_name="jit(scan)/jit(main)/while[cond_nconsts=0 body_nconsts=6]" source_file="/fs04/fc37/adam/projects/psilocybin-prl-analyses/src/prl_hgf/fitting/hierarchical_patrl.py" source_line=378}
  get-tuple-element.5499 = f64[4]{0} get-tuple-element(while.11.0), index=25, metadata={op_name="jit(scan)/jit(main)/while[cond_nconsts=0 body_nconsts=6]" source_file="/fs04/fc37/adam/projects/psilocybin-prl-analyses/src/prl_hgf/fitting/hierarchical_patrl.py" source_line=378}
  get-tuple-element.5498 = f64[4]{0} get-tuple-element(while.11.0), index=24, metadata={op_name="jit(scan)/jit(main)/while[cond_nconsts=0 body_nconsts=6]" source_file="/fs04/fc37/adam/projects/psilocybin-prl-analyses/src/prl_hgf/fitting/hierarchical_patrl.py" source_line=378}
  get-tuple-element.5497 = f64[4]{0} get-tuple-element(while.11.0), index=23, metadata={op_name="jit(scan)/jit(main)/while[cond_nconsts=0 body_nconsts=6]" source_file="/fs04/fc37/adam/projects/psilocybin-prl-analyses/src/prl_hgf/fitting/hierarchical_patrl.py" source_line=378}
  get-tuple-element.5496 = f64[4]{0} get-tuple-element(while.11.0), index=22, metadata={op_name="jit(scan)/jit(main)/while[cond_nconsts=0 body_nconsts=6]" source_file="/fs04/fc37/adam/projects/psilocybin-prl-analyses/src/prl_hgf/fitting/hierarchical_patrl.py" source_line=378}
  get-tuple-element.5495 = f64[4,1]{1,0} get-tuple-element(while.11.0), index=21, metadata={op_name="jit(scan)/jit(main)/while[cond_nconsts=0 body_nconsts=6]" source_file="/fs04/fc37/adam/projects/psilocybin-prl-analyses/src/prl_hgf/fitting/hierarchical_patrl.py" source_line=378}
  get-tuple-element.5494 = f64[4,1]{1,0} get-tuple-element(while.11.0), index=20, metadata={op_name="jit(scan)/jit(main)/while[cond_nconsts=0 body_nconsts=6]" source_file="/fs04/fc37/adam/projects/psilocybin-prl-analyses/src/prl_hgf/fitting/hierarchical_patrl.py" source_line=378}
  get-tuple-element.5493 = f64[4]{0} get-tuple-element(while.11.0), index=19, metadata={op_name="jit(scan)/jit(main)/while[cond_nconsts=0 body_nconsts=6]" source_file="/fs04/fc37/adam/projects/psilocybin-prl-analyses/src/prl_hgf/fitting/hierarchical_patrl.py" source_line=378}
  get-tuple-element.5492 = f64[4]{0} get-tuple-element(while.11.0), index=18, metadata={op_name="jit(scan)/jit(main)/while[cond_nconsts=0 body_nconsts=6]" source_file="/fs04/fc37/adam/projects/psilocybin-prl-analyses/src/prl_hgf/fitting/hierarchical_patrl.py" source_line=378}
  get-tuple-element.5491 = f64[4]{0} get-tuple-element(while.11.0), index=17, metadata={op_name="jit(scan)/jit(main)/while[cond_nconsts=0 body_nconsts=6]" source_file="/fs04/fc37/adam/projects/psilocybin-prl-analyses/src/prl_hgf/fitting/hierarchical_patrl.py" source_line=378}
  get-tuple-element.5490 = f64[4]{0} get-tuple-element(while.11.0), index=16, metadata={op_name="jit(scan)/jit(main)/while[cond_nconsts=0 body_nconsts=6]" source_file="/fs04/fc37/adam/projects/psilocybin-prl-analyses/src/prl_hgf/fitting/hierarchical_patrl.py" source_line=378}
  get-tuple-element.5489 = f64[4]{0} get-tuple-element(while.11.0), index=15, metadata={op_name="jit(scan)/jit(main)/while[cond_nconsts=0 body_nconsts=6]" source_file="/fs04/fc37/adam/projects/psilocybin-prl-analyses/src/prl_hgf/fitting/hierarchical_patrl.py" source_line=378}
  get-tuple-element.5488 = f64[4]{0} get-tuple-element(while.11.0), index=14, metadata={op_name="jit(scan)/jit(main)/while[cond_nconsts=0 body_nconsts=6]" source_file="/fs04/fc37/adam/projects/psilocybin-prl-analyses/src/prl_hgf/fitting/hierarchical_patrl.py" source_line=378}
  get-tuple-element.5487 = f64[4]{0} get-tuple-element(while.11.0), index=13, metadata={op_name="jit(scan)/jit(main)/while[cond_nconsts=0 body_nconsts=6]" source_file="/fs04/fc37/adam/projects/psilocybin-prl-analyses/src/prl_hgf/fitting/hierarchical_patrl.py" source_line=378}
  get-tuple-element.5486 = s64[4]{0} get-tuple-element(while.11.0), index=12, metadata={op_name="jit(scan)/jit(main)/while[cond_nconsts=0 body_nconsts=6]" source_file="/fs04/fc37/adam/projects/psilocybin-prl-analyses/src/prl_hgf/fitting/hierarchical_patrl.py" source_line=378}
  get-tuple-element.5485 = f64[4]{0} get-tuple-element(while.11.0), index=11, metadata={op_name="jit(scan)/jit(main)/while[cond_nconsts=0 body_nconsts=6]" source_file="/fs04/fc37/adam/projects/psilocybin-prl-analyses/src/prl_hgf/fitting/hierarchical_patrl.py" source_line=378}
  get-tuple-element.5484 = f64[4]{0} get-tuple-element(while.11.0), index=10, metadata={op_name="jit(scan)/jit(main)/while[cond_nconsts=0 body_nconsts=6]" source_file="/fs04/fc37/adam/projects/psilocybin-prl-analyses/src/prl_hgf/fitting/hierarchical_patrl.py" source_line=378}
  get-tuple-element.5483 = f64[4]{0} get-tuple-element(while.11.0), index=9, metadata={op_name="jit(scan)/jit(main)/while[cond_nconsts=0 body_nconsts=6]" source_file="/fs04/fc37/adam/projects/psilocybin-prl-analyses/src/prl_hgf/fitting/hierarchical_patrl.py" source_line=378}
  get-tuple-element.5482 = f64[4]{0} get-tuple-element(while.11.0), index=8, metadata={op_name="jit(scan)/jit(main)/while[cond_nconsts=0 body_nconsts=6]" source_file="/fs04/fc37/adam/projects/psilocybin-prl-analyses/src/prl_hgf/fitting/hierarchical_patrl.py" source_line=378}
  get-tuple-element.5480 = f64[4]{0} get-tuple-element(while.11.0), index=7, metadata={op_name="jit(scan)/jit(main)/while[cond_nconsts=0 body_nconsts=6]" source_file="/fs04/fc37/adam/projects/psilocybin-prl-analyses/src/prl_hgf/fitting/hierarchical_patrl.py" source_line=378}
  get-tuple-element.5479 = f64[4]{0} get-tuple-element(while.11.0), index=6, metadata={op_name="jit(scan)/jit(main)/while[cond_nconsts=0 body_nconsts=6]" source_file="/fs04/fc37/adam/projects/psilocybin-prl-analyses/src/prl_hgf/fitting/hierarchical_patrl.py" source_line=378}
  get-tuple-element.5478 = s32[4]{0} get-tuple-element(while.11.0), index=5, metadata={op_name="jit(scan)/jit(main)/while[cond_nconsts=0 body_nconsts=6]" source_file="/fs04/fc37/adam/projects/psilocybin-prl-analyses/src/prl_hgf/fitting/hierarchical_patrl.py" source_line=378}
  get-tuple-element.5477 = f64[4]{0} get-tuple-element(while.11.0), index=4, metadata={op_name="jit(scan)/jit(main)/while[cond_nconsts=0 body_nconsts=6]" source_file="/fs04/fc37/adam/projects/psilocybin-prl-analyses/src/prl_hgf/fitting/hierarchical_patrl.py" source_line=378}
  get-tuple-element.5476 = f64[4]{0} get-tuple-element(while.11.0), index=3, metadata={op_name="jit(scan)/jit(main)/while[cond_nconsts=0 body_nconsts=6]" source_file="/fs04/fc37/adam/projects/psilocybin-prl-analyses/src/prl_hgf/fitting/hierarchical_patrl.py" source_line=378}
  get-tuple-element.5475 = f64[4]{0} get-tuple-element(while.11.0), index=2, metadata={op_name="jit(scan)/jit(main)/while[cond_nconsts=0 body_nconsts=6]" source_file="/fs04/fc37/adam/projects/psilocybin-prl-analyses/src/prl_hgf/fitting/hierarchical_patrl.py" source_line=378}
  get-tuple-element.5474 = f64[4]{0} get-tuple-element(while.11.0), index=1, metadata={op_name="jit(scan)/jit(main)/while[cond_nconsts=0 body_nconsts=6]" source_file="/fs04/fc37/adam/projects/psilocybin-prl-analyses/src/prl_hgf/fitting/hierarchical_patrl.py" source_line=378}
  get-tuple-element.5580 = pred[192,4,1]{2,1,0} get-tuple-element(while.11.0), index=91, metadata={op_name="jit(scan)/jit(main)/while[cond_nconsts=0 body_nconsts=6]" source_file="/fs04/fc37/adam/projects/psilocybin-prl-analyses/src/prl_hgf/fitting/hierarchical_patrl.py" source_line=378}
  call.1 = (s64[4]{0}, s64[4]{0}, f64[4,1]{1,0}, f64[4,1]{1,0}, f64[4]{0}, /*index=5*/f64[4]{0}, f64[4]{0}, f64[4]{0}, f64[4]{0}, f64[4]{0}, /*index=10*/f64[4]{0}, f64[4]{0}, f64[192]{0}, f64[4,1]{1,0}, f64[4,1]{1,0}, /*index=15*/(f64[192,4]{1,0}, f64[192,4]{1,0}, f64[192,4]{1,0}, f64[192,4]{1,0}, f64[192,4]{1,0}, /*index=5*/f64[192,4]{1,0}, f64[192,4]{1,0}, f64[192,4]{1,0}, f64[192,4]{1,0}, f64[192,4]{1,0}, /*index=10*/f64[192,4]{1,0})) call(get-tuple-element.5486, Arg_29.30.0, get-tuple-element.5494, get-tuple-element.5495, get-tuple-element.5482, /*index=5*/get-tuple-element.5492, get-tuple-element.5493, get-tuple-element.5496, Arg_33.34.0, Arg_34.35.0, /*index=10*/get-tuple-element.5506, get-tuple-element.5507, Arg_10.11.0, get-tuple-element.5508, get-tuple-element.5547, /*index=15*/get-tuple-element.5562, get-tuple-element.5525, get-tuple-element.5531, get-tuple-element.5548, get-tuple-element.5564, /*index=20*/get-tuple-element.5568, get-tuple-element.5569, get-tuple-element.5571, get-tuple-element.5572, get-tuple-element.5577), to_apply=command_buffer.2
  get-tuple-element.5767 = s64[4]{0} get-tuple-element(call.1), index=0
  get-tuple-element.5768 = s64[4]{0} get-tuple-element(call.1), index=1
  get-tuple-element.5769 = f64[4,1]{1,0} get-tuple-element(call.1), index=2
  get-tuple-element.5770 = f64[4,1]{1,0} get-tuple-element(call.1), index=3
  get-tuple-element.5771 = f64[4]{0} get-tuple-element(call.1), index=4
  get-tuple-element.5772 = f64[4]{0} get-tuple-element(call.1), index=5
  get-tuple-element.5773 = f64[4]{0} get-tuple-element(call.1), index=6
  get-tuple-element.5774 = f64[4]{0} get-tuple-element(call.1), index=7
  get-tuple-element.5775 = f64[4]{0} get-tuple-element(call.1), index=8
  get-tuple-element.5776 = f64[4]{0} get-tuple-element(call.1), index=9
  get-tuple-element.5777 = f64[4]{0} get-tuple-element(call.1), index=10
  get-tuple-element.5778 = f64[4]{0} get-tuple-element(call.1), index=11
  get-tuple-element.5779 = f64[192]{0} get-tuple-element(call.1), index=12
  get-tuple-element.5780 = f64[4,1]{1,0} get-tuple-element(call.1), index=13
  get-tuple-element.5781 = f64[4,1]{1,0} get-tuple-element(call.1), index=14
  get-tuple-element.5782 = (f64[192,4]{1,0}, f64[192,4]{1,0}, f64[192,4]{1,0}, f64[192,4]{1,0}, f64[192,4]{1,0}, /*index=5*/f64[192,4]{1,0}, f64[192,4]{1,0}, f64[192,4]{1,0}, f64[192,4]{1,0}, f64[192,4]{1,0}, /*index=10*/f64[192,4]{1,0}) get-tuple-element(call.1), index=15
  get-tuple-element.5603 = f64[192,4]{1,0} get-tuple-element(get-tuple-element.5782), index=10
  bitcast.3198 = f64[192,4]{1,0} bitcast(get-tuple-element.5603)
  get-tuple-element.5602 = f64[192,4]{1,0} get-tuple-element(get-tuple-element.5782), index=9
  bitcast.3197 = f64[192,4]{1,0} bitcast(get-tuple-element.5602)
  get-tuple-element.5601 = f64[192,4]{1,0} get-tuple-element(get-tuple-element.5782), index=8
  bitcast.3196 = f64[192,4]{1,0} bitcast(get-tuple-element.5601)
  get-tuple-element.5600 = f64[192,4]{1,0} get-tuple-element(get-tuple-element.5782), index=7
  bitcast.3195 = f64[192,4]{1,0} bitcast(get-tuple-element.5600)
  get-tuple-element.5599 = f64[192,4]{1,0} get-tuple-element(get-tuple-element.5782), index=6
  bitcast.3194 = f64[192,4]{1,0} bitcast(get-tuple-element.5599)
  get-tuple-element.5598 = f64[192,4]{1,0} get-tuple-element(get-tuple-element.5782), index=5
  bitcast.3193 = f64[192,4]{1,0} bitcast(get-tuple-element.5598)
  get-tuple-element.5597 = f64[192,4]{1,0} get-tuple-element(get-tuple-element.5782), index=4
  bitcast.3192 = f64[192,4]{1,0} bitcast(get-tuple-element.5597)
  get-tuple-element.5596 = f64[192,4]{1,0} get-tuple-element(get-tuple-element.5782), index=3
  bitcast.3191 = f64[192,4]{1,0} bitcast(get-tuple-element.5596)
  get-tuple-element.5595 = f64[192,4]{1,0} get-tuple-element(get-tuple-element.5782), index=2
  bitcast.3190 = f64[192,4]{1,0} bitcast(get-tuple-element.5595)
  get-tuple-element.5594 = f64[192,4]{1,0} get-tuple-element(get-tuple-element.5782), index=1
  get-tuple-element.5593 = f64[192,4]{1,0} get-tuple-element(get-tuple-element.5782), index=0
  bitcast.3188 = f64[192,4]{1,0} bitcast(get-tuple-element.5593)
  bitcast.3189 = f64[192,4]{1,0} bitcast(get-tuple-element.5594)
  ROOT tuple.185 = (f64[4]{0}, f64[4]{0}, f64[4]{0}, f64[4]{0}, s32[4]{0}, /*index=5*/f64[4]{0}, f64[4]{0}, f64[4,1]{1,0}, f64[4]{0}, f64[4]{0}, /*index=10*/f64[4]{0}, f64[4]{0}, s64[4]{0}, f64[4]{0}, f64[4]{0}, /*index=15*/f64[4]{0}, f64[4]{0}, f64[4]{0}, f64[4]{0}, f64[4]{0}, /*index=20*/f64[4,1]{1,0}, f64[4,1]{1,0}, f64[4]{0}, f64[4]{0}, f64[4]{0}, /*index=25*/f64[4]{0}, s64[4]{0}, f64[4]{0}, f64[4]{0}, f64[4]{0}, /*index=30*/f64[4]{0}, f64[4]{0}, f64[4]{0}, f64[4]{0}, f64[4,1]{1,0}, /*index=35*/f64[192,4]{1,0}, f64[192,4]{1,0}, f64[192,4]{1,0}, f64[192,4]{1,0}, pred[192,4]{1,0}, /*index=40*/f64[192,4]{1,0}, f64[192,4]{1,0}, f64[192,4]{1,0}, f64[192,4]{1,0}, f64[192,4]{1,0}, /*index=45*/f64[192,4]{1,0}, f64[192,4]{1,0}, f64[192,4]{1,0}, pred[192,4]{1,0}, f64[192,4]{1,0}, /*index=50*/f64[192,4]{1,0}, f64[192,4]{1,0}, f64[192,4]{1,0}, f64[192,4]{1,0}, f64[192,4]{1,0}, /*index=55*/f64[192,4]{1,0}, f64[192]{0}, f64[192,4]{1,0}, f64[192,4]{1,0}, f64[192,4]{1,0}, /*index=60*/s32[192]{0}, f64[192,4]{1,0}, f64[192]{0}, f64[192,4]{1,0}, f64[192,4]{1,0}, /*index=65*/f64[192,4]{1,0}, pred[192,4]{1,0}, f64[192,4]{1,0}, f64[192,4]{1,0}, f64[192,4]{1,0}, /*index=70*/f64[192,4]{1,0}, f64[192,4]{1,0}, f64[192,4]{1,0}, f64[192]{0}, f64[192,4]{1,0}, /*index=75*/f64[192,4]{1,0}, f64[192,4]{1,0}, f64[192,4]{1,0}, f64[192,4]{1,0}, f64[192,4]{1,0}, /*index=80*/f64[192,4]{1,0}, f64[192,4]{1,0}, f64[192,4]{1,0}, f64[192,4]{1,0}, f64[192,4]{1,0}, /*index=85*/s32[192,4]{1,0}, pred[192,4]{1,0}, pred[192,4,1]{2,1,0}, f64[192,4]{1,0}, f64[192,4]{1,0}, /*index=90*/f64[192,4]{1,0}, f64[192,4]{1,0}, pred[192,4]{1,0}, pred[192,4,1]{2,1,0}, f64[192,4]{1,0}, /*index=95*/f64[192,4]{1,0}, f64[192,4]{1,0}, f64[192,4]{1,0}, f64[192,4]{1,0}, f64[192,4]{1,0}, /*index=100*/f64[192,4]{1,0}, f64[192,4]{1,0}, f64[192,4]{1,0}, f64[192,4]{1,0}, pred[192,4]{1,0}, /*index=105*/pred[192,4]{1,0}, pred[192,4,1]{2,1,0}) tuple(get-tuple-element.5474, get-tuple-element.5475, get-tuple-element.5476, get-tuple-element.5477, get-tuple-element.5478, /*index=5*/get-tuple-element.5479, get-tuple-element.5480, get-tuple-element.5780, get-tuple-element.5773, get-tuple-element.5483, /*index=10*/get-tuple-element.5484, get-tuple-element.5485, get-tuple-element.5768, get-tuple-element.5487, get-tuple-element.5488, /*index=15*/get-tuple-element.5489, get-tuple-element.5490, get-tuple-element.5491, get-tuple-element.5772, get-tuple-element.5771, /*index=20*/get-tuple-element.5769, get-tuple-element.5770, get-tuple-element.5778, get-tuple-element.5497, get-tuple-element.5498, /*index=25*/get-tuple-element.5499, get-tuple-element.5767, get-tuple-element.5501, get-tuple-element.5502, get-tuple-element.5503, /*index=30*/get-tuple-element.5777, get-tuple-element.5776, get-tuple-element.5775, get-tuple-element.5774, get-tuple-element.5781, /*index=35*/get-tuple-element.5509, get-tuple-element.5562, get-tuple-element.5511, get-tuple-element.5564, get-tuple-element.5513, /*index=40*/get-tuple-element.5514, get-tuple-element.5515, bitcast.3188, get-tuple-element.5517, get-tuple-element.5525, /*index=45*/get-tuple-element.5519, get-tuple-element.5520, get-tuple-element.5521, get-tuple-element.5522, get-tuple-element.5523, /*index=50*/get-tuple-element.5524, bitcast.3189, get-tuple-element.5526, get-tuple-element.5531, get-tuple-element.5528, /*index=55*/get-tuple-element.5529, get-tuple-element.5547, bitcast.3190, get-tuple-element.5532, get-tuple-element.5533, /*index=60*/get-tuple-element.5534, get-tuple-element.5535, get-tuple-element.5536, get-tuple-element.5537, get-tuple-element.5538, /*index=65*/get-tuple-element.5539, get-tuple-element.5540, get-tuple-element.5541, get-tuple-element.5542, get-tuple-element.5543, /*index=70*/get-tuple-element.5548, get-tuple-element.5545, get-tuple-element.5546, get-tuple-element.5779, bitcast.3191, /*index=75*/get-tuple-element.5549, get-tuple-element.5550, get-tuple-element.5568, get-tuple-element.5569, get-tuple-element.5572, /*index=80*/get-tuple-element.5554, get-tuple-element.5555, get-tuple-element.5556, get-tuple-element.5557, get-tuple-element.5577, /*index=85*/get-tuple-element.5559, get-tuple-element.5560, get-tuple-element.5561, bitcast.3192, get-tuple-element.5563, /*index=90*/bitcast.3193, get-tuple-element.5565, get-tuple-element.5566, get-tuple-element.5567, bitcast.3194, /*index=95*/bitcast.3195, get-tuple-element.5571, bitcast.3196, bitcast.3197, get-tuple-element.5573, /*index=100*/get-tuple-element.5574, get-tuple-element.5575, get-tuple-element.5576, bitcast.3198, get-tuple-element.5578, /*index=105*/get-tuple-element.5579, get-tuple-element.5580)
} // main.1960

