HloModule jit_scan, entry_computation_layout={(f64[], f64[], f64[], f64[], s64[], /*index=5*/f64[], f64[], f64[1]{0}, f64[], f64[], /*index=10*/f64[], f64[], s64[], f64[], f64[], /*index=15*/f64[], f64[], f64[], f64[], f64[], /*index=20*/f64[1]{0}, f64[192,1]{1,0}, s64[192]{0}, f64[192]{0})->(f64[], f64[], f64[], f64[], s64[], /*index=5*/f64[], f64[], f64[1]{0}, f64[], f64[], /*index=10*/f64[], f64[], s64[], f64[], f64[], /*index=15*/f64[], f64[], f64[], f64[], f64[], /*index=20*/f64[1]{0}, f64[192]{0}, f64[192]{0}, f64[192]{0}, f64[192]{0}, /*index=25*/s64[192]{0}, f64[192]{0}, f64[192]{0}, f64[192,1]{1,0}, f64[192]{0}, /*index=30*/f64[192]{0}, f64[192]{0}, f64[192]{0}, s64[192]{0}, f64[192]{0}, /*index=35*/f64[192]{0}, f64[192]{0}, f64[192]{0}, f64[192]{0}, f64[192]{0}, /*index=40*/f64[192]{0}, f64[192,1]{1,0})}, allow_spmd_sharding_propagation_to_parameters={true,true,true,true,true,true,true,true,true,true,true,true,true,true,true,true,true,true,true,true,true,true,true,true}, allow_spmd_sharding_propagation_to_output={true,true,true,true,true,true,true,true,true,true,true,true,true,true,true,true,true,true,true,true,true,true,true,true,true,true,true,true,true,true,true,true,true,true,true,true,true,true,true,true,true,true}

predict_mean.33 {
  Arg_1.35 = f64[] parameter(1), metadata={op_name="jit(scan)/jit(main)/while/body/jit(beliefs_propagation)/jit(continuous_node_prediction)/pjit[in_shardings=(UnspecifiedValue, UnspecifiedValue, UnspecifiedValue, UnspecifiedValue) out_shardings=(UnspecifiedValue,) in_layouts=(None, None, None, None) out_layouts=(None,) resource_env=None donated_invars=(False, False, False, False) name=predict_mean keep_unused=False inline=False]"}
  Arg_2.36 = f64[] parameter(2), metadata={op_name="jit(scan)/jit(main)/while/body/jit(beliefs_propagation)/jit(continuous_node_prediction)/pjit[in_shardings=(UnspecifiedValue, UnspecifiedValue, UnspecifiedValue, UnspecifiedValue) out_shardings=(UnspecifiedValue,) in_layouts=(None, None, None, None) out_layouts=(None,) resource_env=None donated_invars=(False, False, False, False) name=predict_mean keep_unused=False inline=False]"}
  multiply.38 = f64[] multiply(Arg_1.35, Arg_2.36), metadata={op_name="jit(scan)/jit(main)/while/body/jit(beliefs_propagation)/jit(continuous_node_prediction)/jit(predict_mean)/mul" source_file="/fs04/fc37/adam/projects/psilocybin-prl-analyses/src/prl_hgf/env/pat_rl_simulator.py" source_line=92}
  Arg_0.34 = f64[] parameter(0), metadata={op_name="jit(scan)/jit(main)/while/body/jit(beliefs_propagation)/jit(continuous_node_prediction)/pjit[in_shardings=(UnspecifiedValue, UnspecifiedValue, UnspecifiedValue, UnspecifiedValue) out_shardings=(UnspecifiedValue,) in_layouts=(None, None, None, None) out_layouts=(None,) resource_env=None donated_invars=(False, False, False, False) name=predict_mean keep_unused=False inline=False]"}
  Arg_3.37 = f64[] parameter(3), metadata={op_name="jit(scan)/jit(main)/while/body/jit(beliefs_propagation)/jit(continuous_node_prediction)/pjit[in_shardings=(UnspecifiedValue, UnspecifiedValue, UnspecifiedValue, UnspecifiedValue) out_shardings=(UnspecifiedValue,) in_layouts=(None, None, None, None) out_layouts=(None,) resource_env=None donated_invars=(False, False, False, False) name=predict_mean keep_unused=False inline=False]"}
  multiply.39 = f64[] multiply(Arg_0.34, Arg_3.37), metadata={op_name="jit(scan)/jit(main)/while/body/jit(beliefs_propagation)/jit(continuous_node_prediction)/jit(predict_mean)/mul" source_file="/fs04/fc37/adam/projects/psilocybin-prl-analyses/src/prl_hgf/env/pat_rl_simulator.py" source_line=92}
  ROOT add.40 = f64[] add(multiply.38, multiply.39), metadata={op_name="jit(scan)/jit(main)/while/body/jit(beliefs_propagation)/jit(continuous_node_prediction)/jit(predict_mean)/add" source_file="/fs04/fc37/adam/projects/psilocybin-prl-analyses/src/prl_hgf/env/pat_rl_simulator.py" source_line=92}
} // predict_mean.33

_where.41 {
  Arg_0.42 = pred[] parameter(0), metadata={op_name="jit(scan)/jit(main)/while/body/jit(beliefs_propagation)/jit(continuous_node_prediction)/jit(predict_precision)/pjit[in_shardings=(UnspecifiedValue, UnspecifiedValue, UnspecifiedValue) out_shardings=(UnspecifiedValue,) in_layouts=(None, None, None) out_layouts=(None,) resource_env=None donated_invars=(False, False, False) name=_where keep_unused=False inline=False]"}
  Arg_1.43 = f64[] parameter(1), metadata={op_name="jit(scan)/jit(main)/while/body/jit(beliefs_propagation)/jit(continuous_node_prediction)/jit(predict_precision)/pjit[in_shardings=(UnspecifiedValue, UnspecifiedValue, UnspecifiedValue) out_shardings=(UnspecifiedValue,) in_layouts=(None, None, None) out_layouts=(None,) resource_env=None donated_invars=(False, False, False) name=_where keep_unused=False inline=False]"}
  Arg_2.44 = f64[] parameter(2), metadata={op_name="jit(scan)/jit(main)/while/body/jit(beliefs_propagation)/jit(continuous_node_prediction)/jit(predict_precision)/pjit[in_shardings=(UnspecifiedValue, UnspecifiedValue, UnspecifiedValue) out_shardings=(UnspecifiedValue,) in_layouts=(None, None, None) out_layouts=(None,) resource_env=None donated_invars=(False, False, False) name=_where keep_unused=False inline=False]"}
  ROOT select.45 = f64[] select(Arg_0.42, Arg_1.43, Arg_2.44), metadata={op_name="jit(scan)/jit(main)/while/body/jit(beliefs_propagation)/jit(continuous_node_prediction)/jit(predict_precision)/jit(_where)/select_n" source_file="/fs04/fc37/adam/projects/psilocybin-prl-analyses/src/prl_hgf/env/pat_rl_simulator.py" source_line=92}
}

predict_precision.46 {
  constant.50 = f64[] constant(1)
  Arg_1.48 = f64[] parameter(1), metadata={op_name="jit(scan)/jit(main)/while/body/jit(beliefs_propagation)/jit(continuous_node_prediction)/pjit[in_shardings=(UnspecifiedValue, UnspecifiedValue, UnspecifiedValue) out_shardings=(UnspecifiedValue, UnspecifiedValue) in_layouts=(None, None, None) out_layouts=(None, None) resource_env=None donated_invars=(False, False, False) name=predict_precision keep_unused=False inline=False]"}
  divide.57 = f64[] divide(constant.50, Arg_1.48), metadata={op_name="jit(scan)/jit(main)/while/body/jit(beliefs_propagation)/jit(continuous_node_prediction)/jit(predict_precision)/div" source_file="/fs04/fc37/adam/projects/psilocybin-prl-analyses/src/prl_hgf/env/pat_rl_simulator.py" source_line=92}
  Arg_0.47 = f64[] parameter(0), metadata={op_name="jit(scan)/jit(main)/while/body/jit(beliefs_propagation)/jit(continuous_node_prediction)/pjit[in_shardings=(UnspecifiedValue, UnspecifiedValue, UnspecifiedValue) out_shardings=(UnspecifiedValue, UnspecifiedValue) in_layouts=(None, None, None) out_layouts=(None, None) resource_env=None donated_invars=(False, False, False) name=predict_precision keep_unused=False inline=False]"}
  Arg_2.49 = f64[] parameter(2), metadata={op_name="jit(scan)/jit(main)/while/body/jit(beliefs_propagation)/jit(continuous_node_prediction)/pjit[in_shardings=(UnspecifiedValue, UnspecifiedValue, UnspecifiedValue) out_shardings=(UnspecifiedValue, UnspecifiedValue) in_layouts=(None, None, None) out_layouts=(None, None) resource_env=None donated_invars=(False, False, False) name=predict_precision keep_unused=False inline=False]"}
  exponential.53 = f64[] exponential(Arg_2.49), metadata={op_name="jit(scan)/jit(main)/while/body/jit(beliefs_propagation)/jit(continuous_node_prediction)/jit(predict_precision)/exp" source_file="/fs04/fc37/adam/projects/psilocybin-prl-analyses/src/prl_hgf/env/pat_rl_simulator.py" source_line=92}
  multiply.54 = f64[] multiply(Arg_0.47, exponential.53), metadata={op_name="jit(scan)/jit(main)/while/body/jit(beliefs_propagation)/jit(continuous_node_prediction)/jit(predict_precision)/mul" source_file="/fs04/fc37/adam/projects/psilocybin-prl-analyses/src/prl_hgf/env/pat_rl_simulator.py" source_line=92}
  constant.52 = f64[] constant(1e-128)
  compare.55 = pred[] compare(multiply.54, constant.52), direction=GT, metadata={op_name="jit(scan)/jit(main)/while/body/jit(beliefs_propagation)/jit(continuous_node_prediction)/jit(predict_precision)/gt" source_file="/fs04/fc37/adam/projects/psilocybin-prl-analyses/src/prl_hgf/env/pat_rl_simulator.py" source_line=92}
  constant.51 = f64[] constant(nan)
  call.56 = f64[] call(compare.55, multiply.54, constant.51), to_apply=_where.41
  add.58 = f64[] add(divide.57, call.56), metadata={op_name="jit(scan)/jit(main)/while/body/jit(beliefs_propagation)/jit(continuous_node_prediction)/jit(predict_precision)/add" source_file="/fs04/fc37/adam/projects/psilocybin-prl-analyses/src/prl_hgf/env/pat_rl_simulator.py" source_line=92}
  divide.59 = f64[] divide(constant.50, add.58), metadata={op_name="jit(scan)/jit(main)/while/body/jit(beliefs_propagation)/jit(continuous_node_prediction)/jit(predict_precision)/div" source_file="/fs04/fc37/adam/projects/psilocybin-prl-analyses/src/prl_hgf/env/pat_rl_simulator.py" source_line=92}
  multiply.60 = f64[] multiply(call.56, divide.59), metadata={op_name="jit(scan)/jit(main)/while/body/jit(beliefs_propagation)/jit(continuous_node_prediction)/jit(predict_precision)/mul" source_file="/fs04/fc37/adam/projects/psilocybin-prl-analyses/src/prl_hgf/env/pat_rl_simulator.py" source_line=92}
  ROOT tuple.61 = (f64[], f64[]) tuple(divide.59, multiply.60)
} // predict_precision.46

continuous_node_prediction.62 {
  Arg_0.63 = f64[] parameter(0), metadata={op_name="jit(scan)/jit(main)/while/body/jit(beliefs_propagation)/pjit[in_shardings=(UnspecifiedValue, UnspecifiedValue, UnspecifiedValue, UnspecifiedValue, UnspecifiedValue, UnspecifiedValue) out_shardings=(UnspecifiedValue, UnspecifiedValue, UnspecifiedValue, UnspecifiedValue) in_layouts=(None, None, None, None, None, None) out_layouts=(None, None, None, None) resource_env=None donated_invars=(False, False, False, False, False, False) name=continuous_node_prediction keep_unused=False inline=False]"}
  Arg_1.64 = f64[] parameter(1), metadata={op_name="jit(scan)/jit(main)/while/body/jit(beliefs_propagation)/pjit[in_shardings=(UnspecifiedValue, UnspecifiedValue, UnspecifiedValue, UnspecifiedValue, UnspecifiedValue, UnspecifiedValue) out_shardings=(UnspecifiedValue, UnspecifiedValue, UnspecifiedValue, UnspecifiedValue) in_layouts=(None, None, None, None, None, None) out_layouts=(None, None, None, None) resource_env=None donated_invars=(False, False, False, False, False, False) name=continuous_node_prediction keep_unused=False inline=False]"}
  Arg_2.65 = f64[] parameter(2), metadata={op_name="jit(scan)/jit(main)/while/body/jit(beliefs_propagation)/pjit[in_shardings=(UnspecifiedValue, UnspecifiedValue, UnspecifiedValue, UnspecifiedValue, UnspecifiedValue, UnspecifiedValue) out_shardings=(UnspecifiedValue, UnspecifiedValue, UnspecifiedValue, UnspecifiedValue) in_layouts=(None, None, None, None, None, None) out_layouts=(None, None, None, None) resource_env=None donated_invars=(False, False, False, False, False, False) name=continuous_node_prediction keep_unused=False inline=False]"}
  Arg_4.67 = f64[] parameter(4), metadata={op_name="jit(scan)/jit(main)/while/body/jit(beliefs_propagation)/pjit[in_shardings=(UnspecifiedValue, UnspecifiedValue, UnspecifiedValue, UnspecifiedValue, UnspecifiedValue, UnspecifiedValue) out_shardings=(UnspecifiedValue, UnspecifiedValue, UnspecifiedValue, UnspecifiedValue) in_layouts=(None, None, None, None, None, None) out_layouts=(None, None, None, None) resource_env=None donated_invars=(False, False, False, False, False, False) name=continuous_node_prediction keep_unused=False inline=False]"}
  call.71 = f64[] call(Arg_0.63, Arg_1.64, Arg_2.65, Arg_4.67), to_apply=predict_mean.33
  Arg_3.66 = f64[] parameter(3), metadata={op_name="jit(scan)/jit(main)/while/body/jit(beliefs_propagation)/pjit[in_shardings=(UnspecifiedValue, UnspecifiedValue, UnspecifiedValue, UnspecifiedValue, UnspecifiedValue, UnspecifiedValue) out_shardings=(UnspecifiedValue, UnspecifiedValue, UnspecifiedValue, UnspecifiedValue) in_layouts=(None, None, None, None, None, None) out_layouts=(None, None, None, None) resource_env=None donated_invars=(False, False, False, False, False, False) name=continuous_node_prediction keep_unused=False inline=False]"}
  Arg_5.68 = f64[] parameter(5), metadata={op_name="jit(scan)/jit(main)/while/body/jit(beliefs_propagation)/pjit[in_shardings=(UnspecifiedValue, UnspecifiedValue, UnspecifiedValue, UnspecifiedValue, UnspecifiedValue, UnspecifiedValue) out_shardings=(UnspecifiedValue, UnspecifiedValue, UnspecifiedValue, UnspecifiedValue) in_layouts=(None, None, None, None, None, None) out_layouts=(None, None, None, None) resource_env=None donated_invars=(False, False, False, False, False, False) name=continuous_node_prediction keep_unused=False inline=False]"}
  call.72 = (f64[], f64[]) call(Arg_0.63, Arg_3.66, Arg_5.68), to_apply=predict_precision.46
  get-tuple-element.73 = f64[] get-tuple-element(call.72), index=0
  constant.69 = f64[] constant(1)
  divide.70 = f64[] divide(constant.69, Arg_3.66), metadata={op_name="jit(scan)/jit(main)/while/body/jit(beliefs_propagation)/jit(continuous_node_prediction)/div" source_file="/fs04/fc37/adam/projects/psilocybin-prl-analyses/src/prl_hgf/env/pat_rl_simulator.py" source_line=92}
  get-tuple-element.74 = f64[] get-tuple-element(call.72), index=1
  ROOT tuple.75 = (f64[], f64[], f64[], f64[]) tuple(call.71, get-tuple-element.73, divide.70, get-tuple-element.74)
} // continuous_node_prediction.62

binary_state_node_prediction.76 {
  constant.78 = f64[] constant(1)
  Arg_0.77 = f64[] parameter(0), metadata={op_name="jit(scan)/jit(main)/while/body/jit(beliefs_propagation)/pjit[in_shardings=(UnspecifiedValue,) out_shardings=(UnspecifiedValue, UnspecifiedValue) in_layouts=(None,) out_layouts=(None, None) resource_env=None donated_invars=(False,) name=binary_state_node_prediction keep_unused=False inline=False]"}
  negate.79 = f64[] negate(Arg_0.77), metadata={op_name="jit(scan)/jit(main)/while/body/jit(beliefs_propagation)/jit(binary_state_node_prediction)/neg" source_file="/fs04/fc37/adam/projects/psilocybin-prl-analyses/src/prl_hgf/env/pat_rl_simulator.py" source_line=92}
  exponential.80 = f64[] exponential(negate.79), metadata={op_name="jit(scan)/jit(main)/while/body/jit(beliefs_propagation)/jit(binary_state_node_prediction)/exp" source_file="/fs04/fc37/adam/projects/psilocybin-prl-analyses/src/prl_hgf/env/pat_rl_simulator.py" source_line=92}
  add.81 = f64[] add(exponential.80, constant.78), metadata={op_name="jit(scan)/jit(main)/while/body/jit(beliefs_propagation)/jit(binary_state_node_prediction)/add" source_file="/fs04/fc37/adam/projects/psilocybin-prl-analyses/src/prl_hgf/env/pat_rl_simulator.py" source_line=92}
  divide.82 = f64[] divide(constant.78, add.81), metadata={op_name="jit(scan)/jit(main)/while/body/jit(beliefs_propagation)/jit(binary_state_node_prediction)/div" source_file="/fs04/fc37/adam/projects/psilocybin-prl-analyses/src/prl_hgf/env/pat_rl_simulator.py" source_line=92}
  subtract.83 = f64[] subtract(constant.78, divide.82), metadata={op_name="jit(scan)/jit(main)/while/body/jit(beliefs_propagation)/jit(binary_state_node_prediction)/sub" source_file="/fs04/fc37/adam/projects/psilocybin-prl-analyses/src/prl_hgf/env/pat_rl_simulator.py" source_line=92}
  multiply.84 = f64[] multiply(divide.82, subtract.83), metadata={op_name="jit(scan)/jit(main)/while/body/jit(beliefs_propagation)/jit(binary_state_node_prediction)/mul" source_file="/fs04/fc37/adam/projects/psilocybin-prl-analyses/src/prl_hgf/env/pat_rl_simulator.py" source_line=92}
  ROOT tuple.85 = (f64[], f64[]) tuple(divide.82, multiply.84)
} // binary_state_node_prediction.76

binary_state_node_prediction_error.86 {
  Arg_2.89 = f64[] parameter(2), metadata={op_name="jit(scan)/jit(main)/while/body/jit(beliefs_propagation)/pjit[in_shardings=(UnspecifiedValue, UnspecifiedValue, UnspecifiedValue, UnspecifiedValue) out_shardings=(UnspecifiedValue,) in_layouts=(None, None, None, None) out_layouts=(None,) resource_env=None donated_invars=(False, False, False, False) name=binary_state_node_prediction_error keep_unused=False inline=False]"}
  Arg_0.87 = f64[] parameter(0), metadata={op_name="jit(scan)/jit(main)/while/body/jit(beliefs_propagation)/pjit[in_shardings=(UnspecifiedValue, UnspecifiedValue, UnspecifiedValue, UnspecifiedValue) out_shardings=(UnspecifiedValue,) in_layouts=(None, None, None, None) out_layouts=(None,) resource_env=None donated_invars=(False, False, False, False) name=binary_state_node_prediction_error keep_unused=False inline=False]"}
  subtract.91 = f64[] subtract(Arg_2.89, Arg_0.87), metadata={op_name="jit(scan)/jit(main)/while/body/jit(beliefs_propagation)/jit(binary_state_node_prediction_error)/sub" source_file="/fs04/fc37/adam/projects/psilocybin-prl-analyses/src/prl_hgf/env/pat_rl_simulator.py" source_line=92}
  Arg_3.90 = s64[] parameter(3), metadata={op_name="jit(scan)/jit(main)/while/body/jit(beliefs_propagation)/pjit[in_shardings=(UnspecifiedValue, UnspecifiedValue, UnspecifiedValue, UnspecifiedValue) out_shardings=(UnspecifiedValue,) in_layouts=(None, None, None, None) out_layouts=(None,) resource_env=None donated_invars=(False, False, False, False) name=binary_state_node_prediction_error keep_unused=False inline=False]"}
  convert.92 = f64[] convert(Arg_3.90), metadata={op_name="jit(scan)/jit(main)/while/body/jit(beliefs_propagation)/jit(binary_state_node_prediction_error)/convert_element_type[new_dtype=float64 weak_type=False sharding=None]" source_file="/fs04/fc37/adam/projects/psilocybin-prl-analyses/src/prl_hgf/env/pat_rl_simulator.py" source_line=92}
  multiply.93 = f64[] multiply(subtract.91, convert.92), metadata={op_name="jit(scan)/jit(main)/while/body/jit(beliefs_propagation)/jit(binary_state_node_prediction_error)/mul" source_file="/fs04/fc37/adam/projects/psilocybin-prl-analyses/src/prl_hgf/env/pat_rl_simulator.py" source_line=92}
  Arg_1.88 = f64[] parameter(1), metadata={op_name="jit(scan)/jit(main)/while/body/jit(beliefs_propagation)/pjit[in_shardings=(UnspecifiedValue, UnspecifiedValue, UnspecifiedValue, UnspecifiedValue) out_shardings=(UnspecifiedValue,) in_layouts=(None, None, None, None) out_layouts=(None,) resource_env=None donated_invars=(False, False, False, False) name=binary_state_node_prediction_error keep_unused=False inline=False]"}
  ROOT divide.94 = f64[] divide(multiply.93, Arg_1.88), metadata={op_name="jit(scan)/jit(main)/while/body/jit(beliefs_propagation)/jit(binary_state_node_prediction_error)/div" source_file="/fs04/fc37/adam/projects/psilocybin-prl-analyses/src/prl_hgf/env/pat_rl_simulator.py" source_line=92}
} // binary_state_node_prediction_error.86

region_1.95 {
  Arg_0.96 = pred[] parameter(0), metadata={op_name="jit(scan)/jit(main)/while/body/jit(beliefs_propagation)/jit(continuous_node_posterior_update)/jit(posterior_update_precision_continuous_node)/reduce_or[axes=(0,)]"}
  Arg_1.97 = pred[] parameter(1), metadata={op_name="jit(scan)/jit(main)/while/body/jit(beliefs_propagation)/jit(continuous_node_posterior_update)/jit(posterior_update_precision_continuous_node)/reduce_or[axes=(0,)]"}
  ROOT or.98 = pred[] or(Arg_0.96, Arg_1.97), metadata={op_name="jit(scan)/jit(main)/while/body/jit(beliefs_propagation)/jit(continuous_node_posterior_update)/jit(posterior_update_precision_continuous_node)/reduce_or[axes=(0,)]" source_file="/fs04/fc37/adam/projects/psilocybin-prl-analyses/src/prl_hgf/env/pat_rl_simulator.py" source_line=92}
}

precision_update_missing_values.99 {
  constant.103 = f64[] constant(1)
  Arg_1.101 = f64[] parameter(1), metadata={op_name="jit(scan)/jit(main)/while/body/jit(beliefs_propagation)/jit(continuous_node_posterior_update)/jit(posterior_update_precision_continuous_node)/cond/branch_0_fun/pjit[in_shardings=(UnspecifiedValue, UnspecifiedValue, UnspecifiedValue) out_shardings=(UnspecifiedValue,) in_layouts=(None, None, None) out_layouts=(None,) resource_env=None donated_invars=(False, False, False) name=precision_update_missing_values keep_unused=False inline=False]"}
  divide.106 = f64[] divide(constant.103, Arg_1.101), metadata={op_name="jit(scan)/jit(main)/while/body/jit(beliefs_propagation)/jit(continuous_node_posterior_update)/jit(posterior_update_precision_continuous_node)/cond/branch_0_fun/jit(precision_update_missing_values)/div" source_file="/fs04/fc37/adam/projects/psilocybin-prl-analyses/src/prl_hgf/env/pat_rl_simulator.py" source_line=92}
  Arg_0.100 = f64[] parameter(0), metadata={op_name="jit(scan)/jit(main)/while/body/jit(beliefs_propagation)/jit(continuous_node_posterior_update)/jit(posterior_update_precision_continuous_node)/cond/branch_0_fun/pjit[in_shardings=(UnspecifiedValue, UnspecifiedValue, UnspecifiedValue) out_shardings=(UnspecifiedValue,) in_layouts=(None, None, None) out_layouts=(None,) resource_env=None donated_invars=(False, False, False) name=precision_update_missing_values keep_unused=False inline=False]"}
  Arg_2.102 = f64[] parameter(2), metadata={op_name="jit(scan)/jit(main)/while/body/jit(beliefs_propagation)/jit(continuous_node_posterior_update)/jit(posterior_update_precision_continuous_node)/cond/branch_0_fun/pjit[in_shardings=(UnspecifiedValue, UnspecifiedValue, UnspecifiedValue) out_shardings=(UnspecifiedValue,) in_layouts=(None, None, None) out_layouts=(None,) resource_env=None donated_invars=(False, False, False) name=precision_update_missing_values keep_unused=False inline=False]"}
  exponential.104 = f64[] exponential(Arg_2.102), metadata={op_name="jit(scan)/jit(main)/while/body/jit(beliefs_propagation)/jit(continuous_node_posterior_update)/jit(posterior_update_precision_continuous_node)/cond/branch_0_fun/jit(precision_update_missing_values)/exp" source_file="/fs04/fc37/adam/projects/psilocybin-prl-analyses/src/prl_hgf/env/pat_rl_simulator.py" source_line=92}
  multiply.105 = f64[] multiply(Arg_0.100, exponential.104), metadata={op_name="jit(scan)/jit(main)/while/body/jit(beliefs_propagation)/jit(continuous_node_posterior_update)/jit(posterior_update_precision_continuous_node)/cond/branch_0_fun/jit(precision_update_missing_values)/mul" source_file="/fs04/fc37/adam/projects/psilocybin-prl-analyses/src/prl_hgf/env/pat_rl_simulator.py" source_line=92}
  add.107 = f64[] add(divide.106, multiply.105), metadata={op_name="jit(scan)/jit(main)/while/body/jit(beliefs_propagation)/jit(continuous_node_posterior_update)/jit(posterior_update_precision_continuous_node)/cond/branch_0_fun/jit(precision_update_missing_values)/add" source_file="/fs04/fc37/adam/projects/psilocybin-prl-analyses/src/prl_hgf/env/pat_rl_simulator.py" source_line=92}
  ROOT divide.108 = f64[] divide(constant.103, add.107), metadata={op_name="jit(scan)/jit(main)/while/body/jit(beliefs_propagation)/jit(continuous_node_posterior_update)/jit(posterior_update_precision_continuous_node)/cond/branch_0_fun/jit(precision_update_missing_values)/div" source_file="/fs04/fc37/adam/projects/psilocybin-prl-analyses/src/prl_hgf/env/pat_rl_simulator.py" source_line=92}
} // precision_update_missing_values.99

region_2.109 {
  arg_tuple.110 = (f64[], f64[], f64[]) parameter(0)
  get-tuple-element.111 = f64[] get-tuple-element(arg_tuple.110), index=0
  get-tuple-element.112 = f64[] get-tuple-element(arg_tuple.110), index=1
  get-tuple-element.113 = f64[] get-tuple-element(arg_tuple.110), index=2
  ROOT call.114 = f64[] call(get-tuple-element.111, get-tuple-element.112, get-tuple-element.113), to_apply=precision_update_missing_values.99
}

_where.115 {
  Arg_0.116 = pred[] parameter(0), metadata={op_name="jit(scan)/jit(main)/while/body/jit(beliefs_propagation)/jit(continuous_node_prediction)/jit(predict_precision)/pjit[in_shardings=(UnspecifiedValue, UnspecifiedValue, UnspecifiedValue) out_shardings=(UnspecifiedValue,) in_layouts=(None, None, None) out_layouts=(None,) resource_env=None donated_invars=(False, False, False) name=_where keep_unused=False inline=False]"}
  Arg_1.117 = f64[] parameter(1), metadata={op_name="jit(scan)/jit(main)/while/body/jit(beliefs_propagation)/jit(continuous_node_prediction)/jit(predict_precision)/pjit[in_shardings=(UnspecifiedValue, UnspecifiedValue, UnspecifiedValue) out_shardings=(UnspecifiedValue,) in_layouts=(None, None, None) out_layouts=(None,) resource_env=None donated_invars=(False, False, False) name=_where keep_unused=False inline=False]"}
  Arg_2.118 = f64[] parameter(2), metadata={op_name="jit(scan)/jit(main)/while/body/jit(beliefs_propagation)/jit(continuous_node_prediction)/jit(predict_precision)/pjit[in_shardings=(UnspecifiedValue, UnspecifiedValue, UnspecifiedValue) out_shardings=(UnspecifiedValue,) in_layouts=(None, None, None) out_layouts=(None,) resource_env=None donated_invars=(False, False, False) name=_where keep_unused=False inline=False]"}
  ROOT select.119 = f64[] select(Arg_0.116, Arg_1.117, Arg_2.118), metadata={op_name="jit(scan)/jit(main)/while/body/jit(beliefs_propagation)/jit(continuous_node_prediction)/jit(predict_precision)/jit(_where)/select_n" source_file="/fs04/fc37/adam/projects/psilocybin-prl-analyses/src/prl_hgf/env/pat_rl_simulator.py" source_line=92}
}

precision_update.120 {
  Arg_2.123 = f64[] parameter(2), metadata={op_name="jit(scan)/jit(main)/while/body/jit(beliefs_propagation)/jit(continuous_node_posterior_update)/jit(posterior_update_precision_continuous_node)/cond/branch_1_fun/pjit[in_shardings=(UnspecifiedValue, UnspecifiedValue, UnspecifiedValue, UnspecifiedValue) out_shardings=(UnspecifiedValue,) in_layouts=(None, None, None, None) out_layouts=(None,) resource_env=None donated_invars=(False, False, False, False) name=precision_update keep_unused=False inline=False]"}
  Arg_3.124 = f64[1]{0} parameter(3), metadata={op_name="jit(scan)/jit(main)/while/body/jit(beliefs_propagation)/jit(continuous_node_posterior_update)/jit(posterior_update_precision_continuous_node)/cond/branch_1_fun/pjit[in_shardings=(UnspecifiedValue, UnspecifiedValue, UnspecifiedValue, UnspecifiedValue) out_shardings=(UnspecifiedValue,) in_layouts=(None, None, None, None) out_layouts=(None,) resource_env=None donated_invars=(False, False, False, False) name=precision_update keep_unused=False inline=False]"}
  reshape.128 = f64[] reshape(Arg_3.124), metadata={op_name="jit(scan)/jit(main)/while/body/jit(beliefs_propagation)/jit(continuous_node_posterior_update)/jit(posterior_update_precision_continuous_node)/cond/branch_1_fun/jit(precision_update)/squeeze[dimensions=(0,)]" source_file="/fs04/fc37/adam/projects/psilocybin-prl-analyses/src/prl_hgf/env/pat_rl_simulator.py" source_line=92}
  multiply.129 = f64[] multiply(reshape.128, reshape.128), metadata={op_name="jit(scan)/jit(main)/while/body/jit(beliefs_propagation)/jit(continuous_node_posterior_update)/jit(posterior_update_precision_continuous_node)/cond/branch_1_fun/jit(precision_update)/integer_pow[y=2]" source_file="/fs04/fc37/adam/projects/psilocybin-prl-analyses/src/prl_hgf/env/pat_rl_simulator.py" source_line=92}
  Arg_0.121 = f64[] parameter(0), metadata={op_name="jit(scan)/jit(main)/while/body/jit(beliefs_propagation)/jit(continuous_node_posterior_update)/jit(posterior_update_precision_continuous_node)/cond/branch_1_fun/pjit[in_shardings=(UnspecifiedValue, UnspecifiedValue, UnspecifiedValue, UnspecifiedValue) out_shardings=(UnspecifiedValue,) in_layouts=(None, None, None, None) out_layouts=(None,) resource_env=None donated_invars=(False, False, False, False) name=precision_update keep_unused=False inline=False]"}
  multiply.130 = f64[] multiply(multiply.129, Arg_0.121), metadata={op_name="jit(scan)/jit(main)/while/body/jit(beliefs_propagation)/jit(continuous_node_posterior_update)/jit(posterior_update_precision_continuous_node)/cond/branch_1_fun/jit(precision_update)/mul" source_file="/fs04/fc37/adam/projects/psilocybin-prl-analyses/src/prl_hgf/env/pat_rl_simulator.py" source_line=92}
  constant.127 = f64[] constant(0)
  subtract.131 = f64[] subtract(multiply.130, constant.127), metadata={op_name="jit(scan)/jit(main)/while/body/jit(beliefs_propagation)/jit(continuous_node_posterior_update)/jit(posterior_update_precision_continuous_node)/cond/branch_1_fun/jit(precision_update)/sub" source_file="/fs04/fc37/adam/projects/psilocybin-prl-analyses/src/prl_hgf/env/pat_rl_simulator.py" source_line=92}
  Arg_1.122 = s64[] parameter(1), metadata={op_name="jit(scan)/jit(main)/while/body/jit(beliefs_propagation)/jit(continuous_node_posterior_update)/jit(posterior_update_precision_continuous_node)/cond/branch_1_fun/pjit[in_shardings=(UnspecifiedValue, UnspecifiedValue, UnspecifiedValue, UnspecifiedValue) out_shardings=(UnspecifiedValue,) in_layouts=(None, None, None, None) out_layouts=(None,) resource_env=None donated_invars=(False, False, False, False) name=precision_update keep_unused=False inline=False]"}
  convert.132 = f64[] convert(Arg_1.122), metadata={op_name="jit(scan)/jit(main)/while/body/jit(beliefs_propagation)/jit(continuous_node_posterior_update)/jit(posterior_update_precision_continuous_node)/cond/branch_1_fun/jit(precision_update)/convert_element_type[new_dtype=float64 weak_type=False sharding=None]" source_file="/fs04/fc37/adam/projects/psilocybin-prl-analyses/src/prl_hgf/env/pat_rl_simulator.py" source_line=92}
  multiply.133 = f64[] multiply(subtract.131, convert.132), metadata={op_name="jit(scan)/jit(main)/while/body/jit(beliefs_propagation)/jit(continuous_node_posterior_update)/jit(posterior_update_precision_continuous_node)/cond/branch_1_fun/jit(precision_update)/mul" source_file="/fs04/fc37/adam/projects/psilocybin-prl-analyses/src/prl_hgf/env/pat_rl_simulator.py" source_line=92}
  add.134 = f64[] add(Arg_2.123, multiply.133), metadata={op_name="jit(scan)/jit(main)/while/body/jit(beliefs_propagation)/jit(continuous_node_posterior_update)/jit(posterior_update_precision_continuous_node)/cond/branch_1_fun/jit(precision_update)/add" source_file="/fs04/fc37/adam/projects/psilocybin-prl-analyses/src/prl_hgf/env/pat_rl_simulator.py" source_line=92}
  constant.126 = f64[] constant(1e-128)
  compare.135 = pred[] compare(add.134, constant.126), direction=GT, metadata={op_name="jit(scan)/jit(main)/while/body/jit(beliefs_propagation)/jit(continuous_node_posterior_update)/jit(posterior_update_precision_continuous_node)/cond/branch_1_fun/jit(precision_update)/gt" source_file="/fs04/fc37/adam/projects/psilocybin-prl-analyses/src/prl_hgf/env/pat_rl_simulator.py" source_line=92}
  constant.125 = f64[] constant(nan)
  ROOT call.136 = f64[] call(compare.135, add.134, constant.125), to_apply=_where.115
} // precision_update.120

region_3.137 {
  arg_tuple.138 = (f64[], s64[], f64[], f64[1]{0}) parameter(0)
  get-tuple-element.139 = f64[] get-tuple-element(arg_tuple.138), index=0
  get-tuple-element.140 = s64[] get-tuple-element(arg_tuple.138), index=1
  get-tuple-element.141 = f64[] get-tuple-element(arg_tuple.138), index=2
  get-tuple-element.142 = f64[1]{0} get-tuple-element(arg_tuple.138), index=3
  ROOT call.143 = f64[] call(get-tuple-element.139, get-tuple-element.140, get-tuple-element.141, get-tuple-element.142), to_apply=precision_update.120
} // region_3.137

posterior_update_precision_continuous_node.144 {
  Arg_2.147 = s64[] parameter(2), metadata={op_name="jit(scan)/jit(main)/while/body/jit(beliefs_propagation)/jit(continuous_node_posterior_update)/pjit[in_shardings=(UnspecifiedValue, UnspecifiedValue, UnspecifiedValue, UnspecifiedValue, UnspecifiedValue, UnspecifiedValue, UnspecifiedValue) out_shardings=(UnspecifiedValue,) in_layouts=(None, None, None, None, None, None, None) out_layouts=(None,) resource_env=None donated_invars=(False, False, False, False, False, False, False) name=posterior_update_precision_continuous_node keep_unused=False inline=False]"}
  reshape.154 = s64[1]{0} reshape(Arg_2.147), metadata={op_name="jit(scan)/jit(main)/while/body/jit(beliefs_propagation)/jit(continuous_node_posterior_update)/jit(posterior_update_precision_continuous_node)/broadcast_in_dim[shape=(1,) broadcast_dimensions=()]" source_file="/fs04/fc37/adam/projects/psilocybin-prl-analyses/src/prl_hgf/env/pat_rl_simulator.py" source_line=92}
  constant.152 = s64[1]{0} constant({0})
  compare.155 = pred[1]{0} compare(reshape.154, constant.152), direction=NE, metadata={op_name="jit(scan)/jit(main)/while/body/jit(beliefs_propagation)/jit(continuous_node_posterior_update)/jit(posterior_update_precision_continuous_node)/convert_element_type[new_dtype=bool weak_type=False sharding=None]" source_file="/fs04/fc37/adam/projects/psilocybin-prl-analyses/src/prl_hgf/env/pat_rl_simulator.py" source_line=92}
  constant.153 = pred[] constant(false)
  reduce.156 = pred[] reduce(compare.155, constant.153), dimensions={0}, to_apply=region_1.95, metadata={op_name="jit(scan)/jit(main)/while/body/jit(beliefs_propagation)/jit(continuous_node_posterior_update)/jit(posterior_update_precision_continuous_node)/reduce_or[axes=(0,)]" source_file="/fs04/fc37/adam/projects/psilocybin-prl-analyses/src/prl_hgf/env/pat_rl_simulator.py" source_line=92}
  convert.157 = s32[] convert(reduce.156), metadata={op_name="jit(scan)/jit(main)/while/body/jit(beliefs_propagation)/jit(continuous_node_posterior_update)/jit(posterior_update_precision_continuous_node)/convert_element_type[new_dtype=int32 weak_type=False sharding=None]" source_file="/fs04/fc37/adam/projects/psilocybin-prl-analyses/src/prl_hgf/env/pat_rl_simulator.py" source_line=92}
  Arg_0.145 = f64[] parameter(0), metadata={op_name="jit(scan)/jit(main)/while/body/jit(beliefs_propagation)/jit(continuous_node_posterior_update)/pjit[in_shardings=(UnspecifiedValue, UnspecifiedValue, UnspecifiedValue, UnspecifiedValue, UnspecifiedValue, UnspecifiedValue, UnspecifiedValue) out_shardings=(UnspecifiedValue,) in_layouts=(None, None, None, None, None, None, None) out_layouts=(None,) resource_env=None donated_invars=(False, False, False, False, False, False, False) name=posterior_update_precision_continuous_node keep_unused=False inline=False]"}
  Arg_4.149 = f64[] parameter(4), metadata={op_name="jit(scan)/jit(main)/while/body/jit(beliefs_propagation)/jit(continuous_node_posterior_update)/pjit[in_shardings=(UnspecifiedValue, UnspecifiedValue, UnspecifiedValue, UnspecifiedValue, UnspecifiedValue, UnspecifiedValue, UnspecifiedValue) out_shardings=(UnspecifiedValue,) in_layouts=(None, None, None, None, None, None, None) out_layouts=(None,) resource_env=None donated_invars=(False, False, False, False, False, False, False) name=posterior_update_precision_continuous_node keep_unused=False inline=False]"}
  Arg_5.150 = f64[] parameter(5), metadata={op_name="jit(scan)/jit(main)/while/body/jit(beliefs_propagation)/jit(continuous_node_posterior_update)/pjit[in_shardings=(UnspecifiedValue, UnspecifiedValue, UnspecifiedValue, UnspecifiedValue, UnspecifiedValue, UnspecifiedValue, UnspecifiedValue) out_shardings=(UnspecifiedValue,) in_layouts=(None, None, None, None, None, None, None) out_layouts=(None,) resource_env=None donated_invars=(False, False, False, False, False, False, False) name=posterior_update_precision_continuous_node keep_unused=False inline=False]"}
  tuple.158 = (f64[], f64[], f64[]) tuple(Arg_0.145, Arg_4.149, Arg_5.150), metadata={op_name="jit(scan)/jit(main)/while/body/jit(beliefs_propagation)/jit(continuous_node_posterior_update)/jit(posterior_update_precision_continuous_node)/cond" source_file="/fs04/fc37/adam/projects/psilocybin-prl-analyses/src/prl_hgf/env/pat_rl_simulator.py" source_line=92}
  Arg_1.146 = f64[] parameter(1), metadata={op_name="jit(scan)/jit(main)/while/body/jit(beliefs_propagation)/jit(continuous_node_posterior_update)/pjit[in_shardings=(UnspecifiedValue, UnspecifiedValue, UnspecifiedValue, UnspecifiedValue, UnspecifiedValue, UnspecifiedValue, UnspecifiedValue) out_shardings=(UnspecifiedValue,) in_layouts=(None, None, None, None, None, None, None) out_layouts=(None,) resource_env=None donated_invars=(False, False, False, False, False, False, False) name=posterior_update_precision_continuous_node keep_unused=False inline=False]"}
  Arg_3.148 = f64[] parameter(3), metadata={op_name="jit(scan)/jit(main)/while/body/jit(beliefs_propagation)/jit(continuous_node_posterior_update)/pjit[in_shardings=(UnspecifiedValue, UnspecifiedValue, UnspecifiedValue, UnspecifiedValue, UnspecifiedValue, UnspecifiedValue, UnspecifiedValue) out_shardings=(UnspecifiedValue,) in_layouts=(None, None, None, None, None, None, None) out_layouts=(None,) resource_env=None donated_invars=(False, False, False, False, False, False, False) name=posterior_update_precision_continuous_node keep_unused=False inline=False]"}
  Arg_6.151 = f64[1]{0} parameter(6), metadata={op_name="jit(scan)/jit(main)/while/body/jit(beliefs_propagation)/jit(continuous_node_posterior_update)/pjit[in_shardings=(UnspecifiedValue, UnspecifiedValue, UnspecifiedValue, UnspecifiedValue, UnspecifiedValue, UnspecifiedValue, UnspecifiedValue) out_shardings=(UnspecifiedValue,) in_layouts=(None, None, None, None, None, None, None) out_layouts=(None,) resource_env=None donated_invars=(False, False, False, False, False, False, False) name=posterior_update_precision_continuous_node keep_unused=False inline=False]"}
  tuple.159 = (f64[], s64[], f64[], f64[1]{0}) tuple(Arg_1.146, Arg_2.147, Arg_3.148, Arg_6.151), metadata={op_name="jit(scan)/jit(main)/while/body/jit(beliefs_propagation)/jit(continuous_node_posterior_update)/jit(posterior_update_precision_continuous_node)/cond" source_file="/fs04/fc37/adam/projects/psilocybin-prl-analyses/src/prl_hgf/env/pat_rl_simulator.py" source_line=92}
  ROOT conditional.160 = f64[] conditional(convert.157, tuple.158, tuple.159), branch_computations={region_2.109, region_3.137}, metadata={op_name="jit(scan)/jit(main)/while/body/jit(beliefs_propagation)/jit(continuous_node_posterior_update)/jit(posterior_update_precision_continuous_node)/cond" source_file="/fs04/fc37/adam/projects/psilocybin-prl-analyses/src/prl_hgf/env/pat_rl_simulator.py" source_line=92}
} // posterior_update_precision_continuous_node.144

posterior_update_mean_continuous_node.161 {
  Arg_3.165 = f64[] parameter(3), metadata={op_name="jit(scan)/jit(main)/while/body/jit(beliefs_propagation)/jit(continuous_node_posterior_update)/pjit[in_shardings=(UnspecifiedValue, UnspecifiedValue, UnspecifiedValue, UnspecifiedValue, UnspecifiedValue, UnspecifiedValue) out_shardings=(UnspecifiedValue,) in_layouts=(None, None, None, None, None, None) out_layouts=(None,) resource_env=None donated_invars=(False, False, False, False, False, False) name=posterior_update_mean_continuous_node keep_unused=False inline=False]"}
  Arg_4.166 = f64[1]{0} parameter(4), metadata={op_name="jit(scan)/jit(main)/while/body/jit(beliefs_propagation)/jit(continuous_node_posterior_update)/pjit[in_shardings=(UnspecifiedValue, UnspecifiedValue, UnspecifiedValue, UnspecifiedValue, UnspecifiedValue, UnspecifiedValue) out_shardings=(UnspecifiedValue,) in_layouts=(None, None, None, None, None, None) out_layouts=(None,) resource_env=None donated_invars=(False, False, False, False, False, False) name=posterior_update_mean_continuous_node keep_unused=False inline=False]"}
  reshape.168 = f64[] reshape(Arg_4.166), metadata={op_name="jit(scan)/jit(main)/while/body/jit(beliefs_propagation)/jit(continuous_node_posterior_update)/jit(posterior_update_mean_continuous_node)/squeeze[dimensions=(0,)]" source_file="/fs04/fc37/adam/projects/psilocybin-prl-analyses/src/prl_hgf/env/pat_rl_simulator.py" source_line=92}
  Arg_0.162 = f64[] parameter(0), metadata={op_name="jit(scan)/jit(main)/while/body/jit(beliefs_propagation)/jit(continuous_node_posterior_update)/pjit[in_shardings=(UnspecifiedValue, UnspecifiedValue, UnspecifiedValue, UnspecifiedValue, UnspecifiedValue, UnspecifiedValue) out_shardings=(UnspecifiedValue,) in_layouts=(None, None, None, None, None, None) out_layouts=(None,) resource_env=None donated_invars=(False, False, False, False, False, False) name=posterior_update_mean_continuous_node keep_unused=False inline=False]"}
  multiply.171 = f64[] multiply(reshape.168, Arg_0.162), metadata={op_name="jit(scan)/jit(main)/while/body/jit(beliefs_propagation)/jit(continuous_node_posterior_update)/jit(posterior_update_mean_continuous_node)/mul" source_file="/fs04/fc37/adam/projects/psilocybin-prl-analyses/src/prl_hgf/env/pat_rl_simulator.py" source_line=92}
  Arg_5.167 = f64[] parameter(5), metadata={op_name="jit(scan)/jit(main)/while/body/jit(beliefs_propagation)/jit(continuous_node_posterior_update)/pjit[in_shardings=(UnspecifiedValue, UnspecifiedValue, UnspecifiedValue, UnspecifiedValue, UnspecifiedValue, UnspecifiedValue) out_shardings=(UnspecifiedValue,) in_layouts=(None, None, None, None, None, None) out_layouts=(None,) resource_env=None donated_invars=(False, False, False, False, False, False) name=posterior_update_mean_continuous_node keep_unused=False inline=False]"}
  divide.172 = f64[] divide(multiply.171, Arg_5.167), metadata={op_name="jit(scan)/jit(main)/while/body/jit(beliefs_propagation)/jit(continuous_node_posterior_update)/jit(posterior_update_mean_continuous_node)/div" source_file="/fs04/fc37/adam/projects/psilocybin-prl-analyses/src/prl_hgf/env/pat_rl_simulator.py" source_line=92}
  Arg_2.164 = f64[] parameter(2), metadata={op_name="jit(scan)/jit(main)/while/body/jit(beliefs_propagation)/jit(continuous_node_posterior_update)/pjit[in_shardings=(UnspecifiedValue, UnspecifiedValue, UnspecifiedValue, UnspecifiedValue, UnspecifiedValue, UnspecifiedValue) out_shardings=(UnspecifiedValue,) in_layouts=(None, None, None, None, None, None) out_layouts=(None,) resource_env=None donated_invars=(False, False, False, False, False, False) name=posterior_update_mean_continuous_node keep_unused=False inline=False]"}
  Arg_1.163 = s64[] parameter(1), metadata={op_name="jit(scan)/jit(main)/while/body/jit(beliefs_propagation)/jit(continuous_node_posterior_update)/pjit[in_shardings=(UnspecifiedValue, UnspecifiedValue, UnspecifiedValue, UnspecifiedValue, UnspecifiedValue, UnspecifiedValue) out_shardings=(UnspecifiedValue,) in_layouts=(None, None, None, None, None, None) out_layouts=(None,) resource_env=None donated_invars=(False, False, False, False, False, False) name=posterior_update_mean_continuous_node keep_unused=False inline=False]"}
  convert.169 = f64[] convert(Arg_1.163), metadata={op_name="jit(scan)/jit(main)/while/body/jit(beliefs_propagation)/jit(continuous_node_posterior_update)/jit(posterior_update_mean_continuous_node)/convert_element_type[new_dtype=float64 weak_type=False sharding=None]" source_file="/fs04/fc37/adam/projects/psilocybin-prl-analyses/src/prl_hgf/env/pat_rl_simulator.py" source_line=92}
  multiply.170 = f64[] multiply(Arg_2.164, convert.169), metadata={op_name="jit(scan)/jit(main)/while/body/jit(beliefs_propagation)/jit(continuous_node_posterior_update)/jit(posterior_update_mean_continuous_node)/mul" source_file="/fs04/fc37/adam/projects/psilocybin-prl-analyses/src/prl_hgf/env/pat_rl_simulator.py" source_line=92}
  multiply.173 = f64[] multiply(divide.172, multiply.170), metadata={op_name="jit(scan)/jit(main)/while/body/jit(beliefs_propagation)/jit(continuous_node_posterior_update)/jit(posterior_update_mean_continuous_node)/mul" source_file="/fs04/fc37/adam/projects/psilocybin-prl-analyses/src/prl_hgf/env/pat_rl_simulator.py" source_line=92}
  ROOT add.174 = f64[] add(Arg_3.165, multiply.173), metadata={op_name="jit(scan)/jit(main)/while/body/jit(beliefs_propagation)/jit(continuous_node_posterior_update)/jit(posterior_update_mean_continuous_node)/add" source_file="/fs04/fc37/adam/projects/psilocybin-prl-analyses/src/prl_hgf/env/pat_rl_simulator.py" source_line=92}
} // posterior_update_mean_continuous_node.161

continuous_node_posterior_update.175 {
  Arg_1.177 = f64[] parameter(1), metadata={op_name="jit(scan)/jit(main)/while/body/jit(beliefs_propagation)/pjit[in_shardings=(UnspecifiedValue, UnspecifiedValue, UnspecifiedValue, UnspecifiedValue, UnspecifiedValue, UnspecifiedValue, UnspecifiedValue, UnspecifiedValue, UnspecifiedValue) out_shardings=(UnspecifiedValue, UnspecifiedValue) in_layouts=(None, None, None, None, None, None, None, None, None) out_layouts=(None, None) resource_env=None donated_invars=(False, False, False, False, False, False, False, False, False) name=continuous_node_posterior_update keep_unused=False inline=False]"}
  Arg_2.178 = s64[] parameter(2), metadata={op_name="jit(scan)/jit(main)/while/body/jit(beliefs_propagation)/pjit[in_shardings=(UnspecifiedValue, UnspecifiedValue, UnspecifiedValue, UnspecifiedValue, UnspecifiedValue, UnspecifiedValue, UnspecifiedValue, UnspecifiedValue, UnspecifiedValue) out_shardings=(UnspecifiedValue, UnspecifiedValue) in_layouts=(None, None, None, None, None, None, None, None, None) out_layouts=(None, None) resource_env=None donated_invars=(False, False, False, False, False, False, False, False, False) name=continuous_node_posterior_update keep_unused=False inline=False]"}
  Arg_3.179 = f64[] parameter(3), metadata={op_name="jit(scan)/jit(main)/while/body/jit(beliefs_propagation)/pjit[in_shardings=(UnspecifiedValue, UnspecifiedValue, UnspecifiedValue, UnspecifiedValue, UnspecifiedValue, UnspecifiedValue, UnspecifiedValue, UnspecifiedValue, UnspecifiedValue) out_shardings=(UnspecifiedValue, UnspecifiedValue) in_layouts=(None, None, None, None, None, None, None, None, None) out_layouts=(None, None) resource_env=None donated_invars=(False, False, False, False, False, False, False, False, False) name=continuous_node_posterior_update keep_unused=False inline=False]"}
  Arg_4.180 = f64[] parameter(4), metadata={op_name="jit(scan)/jit(main)/while/body/jit(beliefs_propagation)/pjit[in_shardings=(UnspecifiedValue, UnspecifiedValue, UnspecifiedValue, UnspecifiedValue, UnspecifiedValue, UnspecifiedValue, UnspecifiedValue, UnspecifiedValue, UnspecifiedValue) out_shardings=(UnspecifiedValue, UnspecifiedValue) in_layouts=(None, None, None, None, None, None, None, None, None) out_layouts=(None, None) resource_env=None donated_invars=(False, False, False, False, False, False, False, False, False) name=continuous_node_posterior_update keep_unused=False inline=False]"}
  Arg_8.184 = f64[1]{0} parameter(8), metadata={op_name="jit(scan)/jit(main)/while/body/jit(beliefs_propagation)/pjit[in_shardings=(UnspecifiedValue, UnspecifiedValue, UnspecifiedValue, UnspecifiedValue, UnspecifiedValue, UnspecifiedValue, UnspecifiedValue, UnspecifiedValue, UnspecifiedValue) out_shardings=(UnspecifiedValue, UnspecifiedValue) in_layouts=(None, None, None, None, None, None, None, None, None) out_layouts=(None, None) resource_env=None donated_invars=(False, False, False, False, False, False, False, False, False) name=continuous_node_posterior_update keep_unused=False inline=False]"}
  Arg_0.176 = f64[] parameter(0), metadata={op_name="jit(scan)/jit(main)/while/body/jit(beliefs_propagation)/pjit[in_shardings=(UnspecifiedValue, UnspecifiedValue, UnspecifiedValue, UnspecifiedValue, UnspecifiedValue, UnspecifiedValue, UnspecifiedValue, UnspecifiedValue, UnspecifiedValue) out_shardings=(UnspecifiedValue, UnspecifiedValue) in_layouts=(None, None, None, None, None, None, None, None, None) out_layouts=(None, None) resource_env=None donated_invars=(False, False, False, False, False, False, False, False, False) name=continuous_node_posterior_update keep_unused=False inline=False]"}
  Arg_5.181 = f64[] parameter(5), metadata={op_name="jit(scan)/jit(main)/while/body/jit(beliefs_propagation)/pjit[in_shardings=(UnspecifiedValue, UnspecifiedValue, UnspecifiedValue, UnspecifiedValue, UnspecifiedValue, UnspecifiedValue, UnspecifiedValue, UnspecifiedValue, UnspecifiedValue) out_shardings=(UnspecifiedValue, UnspecifiedValue) in_layouts=(None, None, None, None, None, None, None, None, None) out_layouts=(None, None) resource_env=None donated_invars=(False, False, False, False, False, False, False, False, False) name=continuous_node_posterior_update keep_unused=False inline=False]"}
  Arg_6.182 = f64[] parameter(6), metadata={op_name="jit(scan)/jit(main)/while/body/jit(beliefs_propagation)/pjit[in_shardings=(UnspecifiedValue, UnspecifiedValue, UnspecifiedValue, UnspecifiedValue, UnspecifiedValue, UnspecifiedValue, UnspecifiedValue, UnspecifiedValue, UnspecifiedValue) out_shardings=(UnspecifiedValue, UnspecifiedValue) in_layouts=(None, None, None, None, None, None, None, None, None) out_layouts=(None, None) resource_env=None donated_invars=(False, False, False, False, False, False, False, False, False) name=continuous_node_posterior_update keep_unused=False inline=False]"}
  Arg_7.183 = f64[] parameter(7), metadata={op_name="jit(scan)/jit(main)/while/body/jit(beliefs_propagation)/pjit[in_shardings=(UnspecifiedValue, UnspecifiedValue, UnspecifiedValue, UnspecifiedValue, UnspecifiedValue, UnspecifiedValue, UnspecifiedValue, UnspecifiedValue, UnspecifiedValue) out_shardings=(UnspecifiedValue, UnspecifiedValue) in_layouts=(None, None, None, None, None, None, None, None, None) out_layouts=(None, None) resource_env=None donated_invars=(False, False, False, False, False, False, False, False, False) name=continuous_node_posterior_update keep_unused=False inline=False]"}
  call.185 = f64[] call(Arg_0.176, Arg_1.177, Arg_2.178, Arg_5.181, Arg_6.182, /*index=5*/Arg_7.183, Arg_8.184), to_apply=posterior_update_precision_continuous_node.144
  call.186 = f64[] call(Arg_1.177, Arg_2.178, Arg_3.179, Arg_4.180, Arg_8.184, /*index=5*/call.185), to_apply=posterior_update_mean_continuous_node.161
  ROOT tuple.187 = (f64[], f64[]) tuple(call.186, call.185)
} // continuous_node_posterior_update.175

beliefs_propagation.188 {
  Arg_8.197 = f64[] parameter(8), metadata={op_name="jit(scan)/jit(main)/while/body/pjit[in_shardings=(UnspecifiedValue, UnspecifiedValue, UnspecifiedValue, UnspecifiedValue, UnspecifiedValue, UnspecifiedValue, UnspecifiedValue, UnspecifiedValue, UnspecifiedValue) out_shardings=(UnspecifiedValue, UnspecifiedValue, UnspecifiedValue, UnspecifiedValue, UnspecifiedValue, UnspecifiedValue, UnspecifiedValue, UnspecifiedValue, UnspecifiedValue, UnspecifiedValue, UnspecifiedValue, UnspecifiedValue, UnspecifiedValue, UnspecifiedValue, UnspecifiedValue, UnspecifiedValue, UnspecifiedValue, UnspecifiedValue, UnspecifiedValue, UnspecifiedValue, UnspecifiedValue, UnspecifiedValue) in_layouts=(None, None, None, None, None, None, None, None, None) out_layouts=(None, None, None, None, None, None, None, None, None, None, None, None, None, None, None, None, None, None, None, None, None, None) resource_env=None donated_invars=(False, False, False, False, False, False, False, False, False) name=beliefs_propagation keep_unused=False inline=False]"}
  Arg_0.189 = f64[] parameter(0), metadata={op_name="jit(scan)/jit(main)/while/body/pjit[in_shardings=(UnspecifiedValue, UnspecifiedValue, UnspecifiedValue, UnspecifiedValue, UnspecifiedValue, UnspecifiedValue, UnspecifiedValue, UnspecifiedValue, UnspecifiedValue) out_shardings=(UnspecifiedValue, UnspecifiedValue, UnspecifiedValue, UnspecifiedValue, UnspecifiedValue, UnspecifiedValue, UnspecifiedValue, UnspecifiedValue, UnspecifiedValue, UnspecifiedValue, UnspecifiedValue, UnspecifiedValue, UnspecifiedValue, UnspecifiedValue, UnspecifiedValue, UnspecifiedValue, UnspecifiedValue, UnspecifiedValue, UnspecifiedValue, UnspecifiedValue, UnspecifiedValue, UnspecifiedValue) in_layouts=(None, None, None, None, None, None, None, None, None) out_layouts=(None, None, None, None, None, None, None, None, None, None, None, None, None, None, None, None, None, None, None, None, None, None) resource_env=None donated_invars=(False, False, False, False, False, False, False, False, False) name=beliefs_propagation keep_unused=False inline=False]"}
  Arg_1.190 = f64[] parameter(1), metadata={op_name="jit(scan)/jit(main)/while/body/pjit[in_shardings=(UnspecifiedValue, UnspecifiedValue, UnspecifiedValue, UnspecifiedValue, UnspecifiedValue, UnspecifiedValue, UnspecifiedValue, UnspecifiedValue, UnspecifiedValue) out_shardings=(UnspecifiedValue, UnspecifiedValue, UnspecifiedValue, UnspecifiedValue, UnspecifiedValue, UnspecifiedValue, UnspecifiedValue, UnspecifiedValue, UnspecifiedValue, UnspecifiedValue, UnspecifiedValue, UnspecifiedValue, UnspecifiedValue, UnspecifiedValue, UnspecifiedValue, UnspecifiedValue, UnspecifiedValue, UnspecifiedValue, UnspecifiedValue, UnspecifiedValue, UnspecifiedValue, UnspecifiedValue) in_layouts=(None, None, None, None, None, None, None, None, None) out_layouts=(None, None, None, None, None, None, None, None, None, None, None, None, None, None, None, None, None, None, None, None, None, None) resource_env=None donated_invars=(False, False, False, False, False, False, False, False, False) name=beliefs_propagation keep_unused=False inline=False]"}
  Arg_2.191 = f64[] parameter(2), metadata={op_name="jit(scan)/jit(main)/while/body/pjit[in_shardings=(UnspecifiedValue, UnspecifiedValue, UnspecifiedValue, UnspecifiedValue, UnspecifiedValue, UnspecifiedValue, UnspecifiedValue, UnspecifiedValue, UnspecifiedValue) out_shardings=(UnspecifiedValue, UnspecifiedValue, UnspecifiedValue, UnspecifiedValue, UnspecifiedValue, UnspecifiedValue, UnspecifiedValue, UnspecifiedValue, UnspecifiedValue, UnspecifiedValue, UnspecifiedValue, UnspecifiedValue, UnspecifiedValue, UnspecifiedValue, UnspecifiedValue, UnspecifiedValue, UnspecifiedValue, UnspecifiedValue, UnspecifiedValue, UnspecifiedValue, UnspecifiedValue, UnspecifiedValue) in_layouts=(None, None, None, None, None, None, None, None, None) out_layouts=(None, None, None, None, None, None, None, None, None, None, None, None, None, None, None, None, None, None, None, None, None, None) resource_env=None donated_invars=(False, False, False, False, False, False, False, False, False) name=beliefs_propagation keep_unused=False inline=False]"}
  Arg_3.192 = f64[] parameter(3), metadata={op_name="jit(scan)/jit(main)/while/body/pjit[in_shardings=(UnspecifiedValue, UnspecifiedValue, UnspecifiedValue, UnspecifiedValue, UnspecifiedValue, UnspecifiedValue, UnspecifiedValue, UnspecifiedValue, UnspecifiedValue) out_shardings=(UnspecifiedValue, UnspecifiedValue, UnspecifiedValue, UnspecifiedValue, UnspecifiedValue, UnspecifiedValue, UnspecifiedValue, UnspecifiedValue, UnspecifiedValue, UnspecifiedValue, UnspecifiedValue, UnspecifiedValue, UnspecifiedValue, UnspecifiedValue, UnspecifiedValue, UnspecifiedValue, UnspecifiedValue, UnspecifiedValue, UnspecifiedValue, UnspecifiedValue, UnspecifiedValue, UnspecifiedValue) in_layouts=(None, None, None, None, None, None, None, None, None) out_layouts=(None, None, None, None, None, None, None, None, None, None, None, None, None, None, None, None, None, None, None, None, None, None) resource_env=None donated_invars=(False, False, False, False, False, False, False, False, False) name=beliefs_propagation keep_unused=False inline=False]"}
  Arg_4.193 = f64[] parameter(4), metadata={op_name="jit(scan)/jit(main)/while/body/pjit[in_shardings=(UnspecifiedValue, UnspecifiedValue, UnspecifiedValue, UnspecifiedValue, UnspecifiedValue, UnspecifiedValue, UnspecifiedValue, UnspecifiedValue, UnspecifiedValue) out_shardings=(UnspecifiedValue, UnspecifiedValue, UnspecifiedValue, UnspecifiedValue, UnspecifiedValue, UnspecifiedValue, UnspecifiedValue, UnspecifiedValue, UnspecifiedValue, UnspecifiedValue, UnspecifiedValue, UnspecifiedValue, UnspecifiedValue, UnspecifiedValue, UnspecifiedValue, UnspecifiedValue, UnspecifiedValue, UnspecifiedValue, UnspecifiedValue, UnspecifiedValue, UnspecifiedValue, UnspecifiedValue) in_layouts=(None, None, None, None, None, None, None, None, None) out_layouts=(None, None, None, None, None, None, None, None, None, None, None, None, None, None, None, None, None, None, None, None, None, None) resource_env=None donated_invars=(False, False, False, False, False, False, False, False, False) name=beliefs_propagation keep_unused=False inline=False]"}
  call.198 = (f64[], f64[], f64[], f64[]) call(Arg_8.197, Arg_0.189, Arg_1.190, Arg_2.191, Arg_3.192, /*index=5*/Arg_4.193), to_apply=continuous_node_prediction.62
  get-tuple-element.199 = f64[] get-tuple-element(call.198), index=0
  call.203 = (f64[], f64[]) call(get-tuple-element.199), to_apply=binary_state_node_prediction.76
  get-tuple-element.204 = f64[] get-tuple-element(call.203), index=0
  get-tuple-element.205 = f64[] get-tuple-element(call.203), index=1
  Arg_6.195 = f64[1]{0} parameter(6), metadata={op_name="jit(scan)/jit(main)/while/body/pjit[in_shardings=(UnspecifiedValue, UnspecifiedValue, UnspecifiedValue, UnspecifiedValue, UnspecifiedValue, UnspecifiedValue, UnspecifiedValue, UnspecifiedValue, UnspecifiedValue) out_shardings=(UnspecifiedValue, UnspecifiedValue, UnspecifiedValue, UnspecifiedValue, UnspecifiedValue, UnspecifiedValue, UnspecifiedValue, UnspecifiedValue, UnspecifiedValue, UnspecifiedValue, UnspecifiedValue, UnspecifiedValue, UnspecifiedValue, UnspecifiedValue, UnspecifiedValue, UnspecifiedValue, UnspecifiedValue, UnspecifiedValue, UnspecifiedValue, UnspecifiedValue, UnspecifiedValue, UnspecifiedValue) in_layouts=(None, None, None, None, None, None, None, None, None) out_layouts=(None, None, None, None, None, None, None, None, None, None, None, None, None, None, None, None, None, None, None, None, None, None) resource_env=None donated_invars=(False, False, False, False, False, False, False, False, False) name=beliefs_propagation keep_unused=False inline=False]"}
  reshape.206 = f64[] reshape(Arg_6.195), metadata={op_name="jit(scan)/jit(main)/while/body/jit(beliefs_propagation)/squeeze[dimensions=(0,)]" source_file="/fs04/fc37/adam/projects/psilocybin-prl-analyses/src/prl_hgf/env/pat_rl_simulator.py" source_line=92}
  Arg_7.196 = s64[] parameter(7), metadata={op_name="jit(scan)/jit(main)/while/body/pjit[in_shardings=(UnspecifiedValue, UnspecifiedValue, UnspecifiedValue, UnspecifiedValue, UnspecifiedValue, UnspecifiedValue, UnspecifiedValue, UnspecifiedValue, UnspecifiedValue) out_shardings=(UnspecifiedValue, UnspecifiedValue, UnspecifiedValue, UnspecifiedValue, UnspecifiedValue, UnspecifiedValue, UnspecifiedValue, UnspecifiedValue, UnspecifiedValue, UnspecifiedValue, UnspecifiedValue, UnspecifiedValue, UnspecifiedValue, UnspecifiedValue, UnspecifiedValue, UnspecifiedValue, UnspecifiedValue, UnspecifiedValue, UnspecifiedValue, UnspecifiedValue, UnspecifiedValue, UnspecifiedValue) in_layouts=(None, None, None, None, None, None, None, None, None) out_layouts=(None, None, None, None, None, None, None, None, None, None, None, None, None, None, None, None, None, None, None, None, None, None) resource_env=None donated_invars=(False, False, False, False, False, False, False, False, False) name=beliefs_propagation keep_unused=False inline=False]"}
  call.207 = f64[] call(get-tuple-element.204, get-tuple-element.205, reshape.206, Arg_7.196), to_apply=binary_state_node_prediction_error.86
  get-tuple-element.200 = f64[] get-tuple-element(call.198), index=1
  Arg_5.194 = f64[1]{0} parameter(5), metadata={op_name="jit(scan)/jit(main)/while/body/pjit[in_shardings=(UnspecifiedValue, UnspecifiedValue, UnspecifiedValue, UnspecifiedValue, UnspecifiedValue, UnspecifiedValue, UnspecifiedValue, UnspecifiedValue, UnspecifiedValue) out_shardings=(UnspecifiedValue, UnspecifiedValue, UnspecifiedValue, UnspecifiedValue, UnspecifiedValue, UnspecifiedValue, UnspecifiedValue, UnspecifiedValue, UnspecifiedValue, UnspecifiedValue, UnspecifiedValue, UnspecifiedValue, UnspecifiedValue, UnspecifiedValue, UnspecifiedValue, UnspecifiedValue, UnspecifiedValue, UnspecifiedValue, UnspecifiedValue, UnspecifiedValue, UnspecifiedValue, UnspecifiedValue) in_layouts=(None, None, None, None, None, None, None, None, None) out_layouts=(None, None, None, None, None, None, None, None, None, None, None, None, None, None, None, None, None, None, None, None, None, None) resource_env=None donated_invars=(False, False, False, False, False, False, False, False, False) name=beliefs_propagation keep_unused=False inline=False]"}
  call.208 = (f64[], f64[]) call(Arg_8.197, get-tuple-element.205, Arg_7.196, call.207, get-tuple-element.199, /*index=5*/get-tuple-element.200, Arg_2.191, Arg_4.193, Arg_5.194), to_apply=continuous_node_posterior_update.175
  get-tuple-element.209 = f64[] get-tuple-element(call.208), index=0
  get-tuple-element.210 = f64[] get-tuple-element(call.208), index=1
  get-tuple-element.201 = f64[] get-tuple-element(call.198), index=2
  get-tuple-element.202 = f64[] get-tuple-element(call.198), index=3
  ROOT tuple.211 = (f64[], f64[], f64[], f64[], f64[], /*index=5*/f64[], f64[], f64[], f64[], f64[], /*index=10*/f64[], f64[], f64[], f64[], f64[], /*index=15*/f64[], f64[], f64[], f64[], f64[], /*index=20*/f64[], f64[]) tuple(get-tuple-element.204, get-tuple-element.205, reshape.206, get-tuple-element.205, call.207, /*index=5*/get-tuple-element.199, get-tuple-element.200, get-tuple-element.209, get-tuple-element.210, get-tuple-element.201, /*index=10*/get-tuple-element.202, get-tuple-element.204, get-tuple-element.205, reshape.206, get-tuple-element.205, /*index=15*/call.207, get-tuple-element.199, get-tuple-element.200, get-tuple-element.209, get-tuple-element.210, /*index=20*/get-tuple-element.201, get-tuple-element.202)
} // beliefs_propagation.188

None.212 {
  Arg_0.213 = f64[] parameter(0), metadata={op_name="jit(scan)/jit(main)/while/body/closed_call"}
  Arg_1.214 = f64[] parameter(1), metadata={op_name="jit(scan)/jit(main)/while/body/closed_call"}
  Arg_2.215 = f64[] parameter(2), metadata={op_name="jit(scan)/jit(main)/while/body/closed_call"}
  Arg_3.216 = f64[] parameter(3), metadata={op_name="jit(scan)/jit(main)/while/body/closed_call"}
  Arg_4.217 = s64[] parameter(4), metadata={op_name="jit(scan)/jit(main)/while/body/closed_call"}
  Arg_5.218 = f64[] parameter(5), metadata={op_name="jit(scan)/jit(main)/while/body/closed_call"}
  Arg_6.219 = f64[] parameter(6), metadata={op_name="jit(scan)/jit(main)/while/body/closed_call"}
  Arg_9.222 = f64[] parameter(9), metadata={op_name="jit(scan)/jit(main)/while/body/closed_call"}
  Arg_10.223 = f64[] parameter(10), metadata={op_name="jit(scan)/jit(main)/while/body/closed_call"}
  Arg_14.227 = f64[] parameter(14), metadata={op_name="jit(scan)/jit(main)/while/body/closed_call"}
  Arg_15.228 = f64[] parameter(15), metadata={op_name="jit(scan)/jit(main)/while/body/closed_call"}
  Arg_23.236 = f64[] parameter(23), metadata={op_name="jit(scan)/jit(main)/while/body/closed_call"}
  Arg_8.221 = f64[] parameter(8), metadata={op_name="jit(scan)/jit(main)/while/body/closed_call"}
  Arg_11.224 = f64[] parameter(11), metadata={op_name="jit(scan)/jit(main)/while/body/closed_call"}
  Arg_13.226 = f64[] parameter(13), metadata={op_name="jit(scan)/jit(main)/while/body/closed_call"}
  Arg_18.231 = f64[] parameter(18), metadata={op_name="jit(scan)/jit(main)/while/body/closed_call"}
  Arg_19.232 = f64[] parameter(19), metadata={op_name="jit(scan)/jit(main)/while/body/closed_call"}
  Arg_20.233 = f64[1]{0} parameter(20), metadata={op_name="jit(scan)/jit(main)/while/body/closed_call"}
  Arg_21.234 = f64[1]{0} parameter(21), metadata={op_name="jit(scan)/jit(main)/while/body/closed_call"}
  Arg_22.235 = s64[] parameter(22), metadata={op_name="jit(scan)/jit(main)/while/body/closed_call"}
  call.237 = (f64[], f64[], f64[], f64[], f64[], /*index=5*/f64[], f64[], f64[], f64[], f64[], /*index=10*/f64[], f64[], f64[], f64[], f64[], /*index=15*/f64[], f64[], f64[], f64[], f64[], /*index=20*/f64[], f64[]) call(Arg_8.221, Arg_11.224, Arg_13.226, Arg_18.231, Arg_19.232, /*index=5*/Arg_20.233, Arg_21.234, Arg_22.235, Arg_23.236), to_apply=beliefs_propagation.188
  get-tuple-element.238 = f64[] get-tuple-element(call.237), index=0
  get-tuple-element.239 = f64[] get-tuple-element(call.237), index=1
  get-tuple-element.240 = f64[] get-tuple-element(call.237), index=2
  get-tuple-element.241 = f64[] get-tuple-element(call.237), index=3
  get-tuple-element.242 = f64[] get-tuple-element(call.237), index=4
  Arg_7.220 = f64[1]{0} parameter(7), metadata={op_name="jit(scan)/jit(main)/while/body/closed_call"}
  get-tuple-element.243 = f64[] get-tuple-element(call.237), index=5
  get-tuple-element.244 = f64[] get-tuple-element(call.237), index=6
  get-tuple-element.245 = f64[] get-tuple-element(call.237), index=7
  Arg_12.225 = s64[] parameter(12), metadata={op_name="jit(scan)/jit(main)/while/body/closed_call"}
  get-tuple-element.246 = f64[] get-tuple-element(call.237), index=8
  get-tuple-element.247 = f64[] get-tuple-element(call.237), index=9
  get-tuple-element.248 = f64[] get-tuple-element(call.237), index=10
  Arg_16.229 = f64[] parameter(16), metadata={op_name="jit(scan)/jit(main)/while/body/closed_call"}
  Arg_17.230 = f64[] parameter(17), metadata={op_name="jit(scan)/jit(main)/while/body/closed_call"}
  get-tuple-element.249 = f64[] get-tuple-element(call.237), index=11
  get-tuple-element.250 = f64[] get-tuple-element(call.237), index=12
  get-tuple-element.251 = f64[] get-tuple-element(call.237), index=13
  get-tuple-element.252 = f64[] get-tuple-element(call.237), index=14
  get-tuple-element.253 = f64[] get-tuple-element(call.237), index=15
  get-tuple-element.254 = f64[] get-tuple-element(call.237), index=16
  get-tuple-element.255 = f64[] get-tuple-element(call.237), index=17
  get-tuple-element.256 = f64[] get-tuple-element(call.237), index=18
  get-tuple-element.257 = f64[] get-tuple-element(call.237), index=19
  get-tuple-element.258 = f64[] get-tuple-element(call.237), index=20
  get-tuple-element.259 = f64[] get-tuple-element(call.237), index=21
  ROOT tuple.260 = (f64[], f64[], f64[], f64[], s64[], /*index=5*/f64[], f64[], f64[1]{0}, f64[], f64[], /*index=10*/f64[], f64[], s64[], f64[], f64[], /*index=15*/f64[], f64[], f64[], f64[], f64[], /*index=20*/f64[1]{0}, f64[], f64[], f64[], f64[], /*index=25*/s64[], f64[], f64[], f64[1]{0}, f64[], /*index=30*/f64[], f64[], f64[], s64[], f64[], /*index=35*/f64[], f64[], f64[], f64[], f64[], /*index=40*/f64[], f64[1]{0}) tuple(Arg_23.236, get-tuple-element.238, get-tuple-element.239, get-tuple-element.240, Arg_22.235, /*index=5*/get-tuple-element.241, get-tuple-element.242, Arg_7.220, Arg_8.221, get-tuple-element.243, /*index=10*/get-tuple-element.244, get-tuple-element.245, Arg_12.225, get-tuple-element.246, get-tuple-element.247, /*index=15*/get-tuple-element.248, Arg_16.229, Arg_17.230, Arg_18.231, Arg_19.232, /*index=20*/Arg_20.233, Arg_23.236, get-tuple-element.249, get-tuple-element.250, get-tuple-element.251, /*index=25*/Arg_22.235, get-tuple-element.252, get-tuple-element.253, Arg_7.220, Arg_8.221, /*index=30*/get-tuple-element.254, get-tuple-element.255, get-tuple-element.256, Arg_12.225, get-tuple-element.257, /*index=35*/get-tuple-element.258, get-tuple-element.259, Arg_16.229, Arg_17.230, Arg_18.231, /*index=40*/Arg_19.232, Arg_20.233)
} // None.212

region_0.261 {
  arg_tuple.262 = (s64[], f64[], f64[], f64[], f64[], /*index=5*/s64[], f64[], f64[], f64[1]{0}, f64[], /*index=10*/f64[], f64[], f64[], s64[], f64[], /*index=15*/f64[], f64[], f64[], f64[], f64[], /*index=20*/f64[], f64[1]{0}, f64[192]{0}, f64[192]{0}, f64[192]{0}, /*index=25*/f64[192]{0}, s64[192]{0}, f64[192]{0}, f64[192]{0}, f64[192,1]{1,0}, /*index=30*/f64[192]{0}, f64[192]{0}, f64[192]{0}, f64[192]{0}, s64[192]{0}, /*index=35*/f64[192]{0}, f64[192]{0}, f64[192]{0}, f64[192]{0}, f64[192]{0}, /*index=40*/f64[192]{0}, f64[192]{0}, f64[192,1]{1,0}, f64[192,1]{1,0}, s64[192]{0}, /*index=45*/f64[192]{0}) parameter(0)
  get-tuple-element.263 = s64[] get-tuple-element(arg_tuple.262), index=0
  constant.309 = s64[] constant(1)
  add.475 = s64[] add(get-tuple-element.263, constant.309), metadata={op_name="jit(scan)/jit(main)/while/body/add" source_file="/fs04/fc37/adam/projects/psilocybin-prl-analyses/src/prl_hgf/env/pat_rl_simulator.py" source_line=92}
  get-tuple-element.264 = f64[] get-tuple-element(arg_tuple.262), index=1
  get-tuple-element.265 = f64[] get-tuple-element(arg_tuple.262), index=2
  get-tuple-element.266 = f64[] get-tuple-element(arg_tuple.262), index=3
  get-tuple-element.267 = f64[] get-tuple-element(arg_tuple.262), index=4
  get-tuple-element.268 = s64[] get-tuple-element(arg_tuple.262), index=5
  get-tuple-element.269 = f64[] get-tuple-element(arg_tuple.262), index=6
  get-tuple-element.270 = f64[] get-tuple-element(arg_tuple.262), index=7
  get-tuple-element.271 = f64[1]{0} get-tuple-element(arg_tuple.262), index=8
  get-tuple-element.272 = f64[] get-tuple-element(arg_tuple.262), index=9
  get-tuple-element.273 = f64[] get-tuple-element(arg_tuple.262), index=10
  get-tuple-element.274 = f64[] get-tuple-element(arg_tuple.262), index=11
  get-tuple-element.275 = f64[] get-tuple-element(arg_tuple.262), index=12
  get-tuple-element.276 = s64[] get-tuple-element(arg_tuple.262), index=13
  get-tuple-element.277 = f64[] get-tuple-element(arg_tuple.262), index=14
  get-tuple-element.278 = f64[] get-tuple-element(arg_tuple.262), index=15
  get-tuple-element.279 = f64[] get-tuple-element(arg_tuple.262), index=16
  get-tuple-element.280 = f64[] get-tuple-element(arg_tuple.262), index=17
  get-tuple-element.281 = f64[] get-tuple-element(arg_tuple.262), index=18
  get-tuple-element.282 = f64[] get-tuple-element(arg_tuple.262), index=19
  get-tuple-element.283 = f64[] get-tuple-element(arg_tuple.262), index=20
  get-tuple-element.284 = f64[1]{0} get-tuple-element(arg_tuple.262), index=21
  get-tuple-element.306 = f64[192,1]{1,0} get-tuple-element(arg_tuple.262), index=43
  constant.311 = s64[] constant(0)
  compare.312 = pred[] compare(get-tuple-element.263, constant.311), direction=LT, metadata={op_name="jit(scan)/jit(main)/while/body/lt" source_file="/fs04/fc37/adam/projects/psilocybin-prl-analyses/src/prl_hgf/env/pat_rl_simulator.py" source_line=92}
  constant.310 = s64[] constant(192)
  add.313 = s64[] add(get-tuple-element.263, constant.310), metadata={op_name="jit(scan)/jit(main)/while/body/add" source_file="/fs04/fc37/adam/projects/psilocybin-prl-analyses/src/prl_hgf/env/pat_rl_simulator.py" source_line=92}
  select.314 = s64[] select(compare.312, add.313, get-tuple-element.263), metadata={op_name="jit(scan)/jit(main)/while/body/select_n" source_file="/fs04/fc37/adam/projects/psilocybin-prl-analyses/src/prl_hgf/env/pat_rl_simulator.py" source_line=92}
  dynamic-slice.315 = f64[1,1]{1,0} dynamic-slice(get-tuple-element.306, select.314, constant.311), dynamic_slice_sizes={1,1}, metadata={op_name="jit(scan)/jit(main)/while/body/dynamic_slice[slice_sizes=(1, 1)]" source_file="/fs04/fc37/adam/projects/psilocybin-prl-analyses/src/prl_hgf/env/pat_rl_simulator.py" source_line=92}
  reshape.316 = f64[1]{0} reshape(dynamic-slice.315), metadata={op_name="jit(scan)/jit(main)/while/body/squeeze[dimensions=(0,)]" source_file="/fs04/fc37/adam/projects/psilocybin-prl-analyses/src/prl_hgf/env/pat_rl_simulator.py" source_line=92}
  get-tuple-element.307 = s64[192]{0} get-tuple-element(arg_tuple.262), index=44
  compare.317 = pred[] compare(get-tuple-element.263, constant.311), direction=LT, metadata={op_name="jit(scan)/jit(main)/while/body/lt" source_file="/fs04/fc37/adam/projects/psilocybin-prl-analyses/src/prl_hgf/env/pat_rl_simulator.py" source_line=92}
  add.318 = s64[] add(get-tuple-element.263, constant.310), metadata={op_name="jit(scan)/jit(main)/while/body/add" source_file="/fs04/fc37/adam/projects/psilocybin-prl-analyses/src/prl_hgf/env/pat_rl_simulator.py" source_line=92}
  select.319 = s64[] select(compare.317, add.318, get-tuple-element.263), metadata={op_name="jit(scan)/jit(main)/while/body/select_n" source_file="/fs04/fc37/adam/projects/psilocybin-prl-analyses/src/prl_hgf/env/pat_rl_simulator.py" source_line=92}
  dynamic-slice.320 = s64[1]{0} dynamic-slice(get-tuple-element.307, select.319), dynamic_slice_sizes={1}, metadata={op_name="jit(scan)/jit(main)/while/body/dynamic_slice[slice_sizes=(1,)]" source_file="/fs04/fc37/adam/projects/psilocybin-prl-analyses/src/prl_hgf/env/pat_rl_simulator.py" source_line=92}
  reshape.321 = s64[] reshape(dynamic-slice.320), metadata={op_name="jit(scan)/jit(main)/while/body/squeeze[dimensions=(0,)]" source_file="/fs04/fc37/adam/projects/psilocybin-prl-analyses/src/prl_hgf/env/pat_rl_simulator.py" source_line=92}
  get-tuple-element.308 = f64[192]{0} get-tuple-element(arg_tuple.262), index=45
  compare.322 = pred[] compare(get-tuple-element.263, constant.311), direction=LT, metadata={op_name="jit(scan)/jit(main)/while/body/lt" source_file="/fs04/fc37/adam/projects/psilocybin-prl-analyses/src/prl_hgf/env/pat_rl_simulator.py" source_line=92}
  add.323 = s64[] add(get-tuple-element.263, constant.310), metadata={op_name="jit(scan)/jit(main)/while/body/add" source_file="/fs04/fc37/adam/projects/psilocybin-prl-analyses/src/prl_hgf/env/pat_rl_simulator.py" source_line=92}
  select.324 = s64[] select(compare.322, add.323, get-tuple-element.263), metadata={op_name="jit(scan)/jit(main)/while/body/select_n" source_file="/fs04/fc37/adam/projects/psilocybin-prl-analyses/src/prl_hgf/env/pat_rl_simulator.py" source_line=92}
  dynamic-slice.325 = f64[1]{0} dynamic-slice(get-tuple-element.308, select.324), dynamic_slice_sizes={1}, metadata={op_name="jit(scan)/jit(main)/while/body/dynamic_slice[slice_sizes=(1,)]" source_file="/fs04/fc37/adam/projects/psilocybin-prl-analyses/src/prl_hgf/env/pat_rl_simulator.py" source_line=92}
  reshape.326 = f64[] reshape(dynamic-slice.325), metadata={op_name="jit(scan)/jit(main)/while/body/squeeze[dimensions=(0,)]" source_file="/fs04/fc37/adam/projects/psilocybin-prl-analyses/src/prl_hgf/env/pat_rl_simulator.py" source_line=92}
  call.327 = (f64[], f64[], f64[], f64[], s64[], /*index=5*/f64[], f64[], f64[1]{0}, f64[], f64[], /*index=10*/f64[], f64[], s64[], f64[], f64[], /*index=15*/f64[], f64[], f64[], f64[], f64[], /*index=20*/f64[1]{0}, f64[], f64[], f64[], f64[], /*index=25*/s64[], f64[], f64[], f64[1]{0}, f64[], /*index=30*/f64[], f64[], f64[], s64[], f64[], /*index=35*/f64[], f64[], f64[], f64[], f64[], /*index=40*/f64[], f64[1]{0}) call(get-tuple-element.264, get-tuple-element.265, get-tuple-element.266, get-tuple-element.267, get-tuple-element.268, /*index=5*/get-tuple-element.269, get-tuple-element.270, get-tuple-element.271, get-tuple-element.272, get-tuple-element.273, /*index=10*/get-tuple-element.274, get-tuple-element.275, get-tuple-element.276, get-tuple-element.277, get-tuple-element.278, /*index=15*/get-tuple-element.279, get-tuple-element.280, get-tuple-element.281, get-tuple-element.282, get-tuple-element.283, /*index=20*/get-tuple-element.284, reshape.316, reshape.321, reshape.326), to_apply=None.212
  get-tuple-element.328 = f64[] get-tuple-element(call.327), index=0
  get-tuple-element.329 = f64[] get-tuple-element(call.327), index=1
  get-tuple-element.330 = f64[] get-tuple-element(call.327), index=2
  get-tuple-element.331 = f64[] get-tuple-element(call.327), index=3
  get-tuple-element.332 = s64[] get-tuple-element(call.327), index=4
  get-tuple-element.333 = f64[] get-tuple-element(call.327), index=5
  get-tuple-element.334 = f64[] get-tuple-element(call.327), index=6
  get-tuple-element.335 = f64[1]{0} get-tuple-element(call.327), index=7
  get-tuple-element.336 = f64[] get-tuple-element(call.327), index=8
  get-tuple-element.337 = f64[] get-tuple-element(call.327), index=9
  get-tuple-element.338 = f64[] get-tuple-element(call.327), index=10
  get-tuple-element.339 = f64[] get-tuple-element(call.327), index=11
  get-tuple-element.340 = s64[] get-tuple-element(call.327), index=12
  get-tuple-element.341 = f64[] get-tuple-element(call.327), index=13
  get-tuple-element.342 = f64[] get-tuple-element(call.327), index=14
  get-tuple-element.343 = f64[] get-tuple-element(call.327), index=15
  get-tuple-element.344 = f64[] get-tuple-element(call.327), index=16
  get-tuple-element.345 = f64[] get-tuple-element(call.327), index=17
  get-tuple-element.346 = f64[] get-tuple-element(call.327), index=18
  get-tuple-element.347 = f64[] get-tuple-element(call.327), index=19
  get-tuple-element.348 = f64[1]{0} get-tuple-element(call.327), index=20
  get-tuple-element.285 = f64[192]{0} get-tuple-element(arg_tuple.262), index=22
  get-tuple-element.349 = f64[] get-tuple-element(call.327), index=21
  reshape.370 = f64[1]{0} reshape(get-tuple-element.349), metadata={op_name="jit(scan)/jit(main)/while/body/broadcast_in_dim[shape=(1,) broadcast_dimensions=()]" source_file="/fs04/fc37/adam/projects/psilocybin-prl-analyses/src/prl_hgf/env/pat_rl_simulator.py" source_line=92}
  compare.371 = pred[] compare(get-tuple-element.263, constant.311), direction=LT, metadata={op_name="jit(scan)/jit(main)/while/body/lt" source_file="/fs04/fc37/adam/projects/psilocybin-prl-analyses/src/prl_hgf/env/pat_rl_simulator.py" source_line=92}
  add.372 = s64[] add(get-tuple-element.263, constant.310), metadata={op_name="jit(scan)/jit(main)/while/body/add" source_file="/fs04/fc37/adam/projects/psilocybin-prl-analyses/src/prl_hgf/env/pat_rl_simulator.py" source_line=92}
  select.373 = s64[] select(compare.371, add.372, get-tuple-element.263), metadata={op_name="jit(scan)/jit(main)/while/body/select_n" source_file="/fs04/fc37/adam/projects/psilocybin-prl-analyses/src/prl_hgf/env/pat_rl_simulator.py" source_line=92}
  dynamic-update-slice.374 = f64[192]{0} dynamic-update-slice(get-tuple-element.285, reshape.370, select.373), metadata={op_name="jit(scan)/jit(main)/while/body/dynamic_update_slice" source_file="/fs04/fc37/adam/projects/psilocybin-prl-analyses/src/prl_hgf/env/pat_rl_simulator.py" source_line=92}
  get-tuple-element.286 = f64[192]{0} get-tuple-element(arg_tuple.262), index=23
  get-tuple-element.350 = f64[] get-tuple-element(call.327), index=22
  reshape.375 = f64[1]{0} reshape(get-tuple-element.350), metadata={op_name="jit(scan)/jit(main)/while/body/broadcast_in_dim[shape=(1,) broadcast_dimensions=()]" source_file="/fs04/fc37/adam/projects/psilocybin-prl-analyses/src/prl_hgf/env/pat_rl_simulator.py" source_line=92}
  compare.376 = pred[] compare(get-tuple-element.263, constant.311), direction=LT, metadata={op_name="jit(scan)/jit(main)/while/body/lt" source_file="/fs04/fc37/adam/projects/psilocybin-prl-analyses/src/prl_hgf/env/pat_rl_simulator.py" source_line=92}
  add.377 = s64[] add(get-tuple-element.263, constant.310), metadata={op_name="jit(scan)/jit(main)/while/body/add" source_file="/fs04/fc37/adam/projects/psilocybin-prl-analyses/src/prl_hgf/env/pat_rl_simulator.py" source_line=92}
  select.378 = s64[] select(compare.376, add.377, get-tuple-element.263), metadata={op_name="jit(scan)/jit(main)/while/body/select_n" source_file="/fs04/fc37/adam/projects/psilocybin-prl-analyses/src/prl_hgf/env/pat_rl_simulator.py" source_line=92}
  dynamic-update-slice.379 = f64[192]{0} dynamic-update-slice(get-tuple-element.286, reshape.375, select.378), metadata={op_name="jit(scan)/jit(main)/while/body/dynamic_update_slice" source_file="/fs04/fc37/adam/projects/psilocybin-prl-analyses/src/prl_hgf/env/pat_rl_simulator.py" source_line=92}
  get-tuple-element.287 = f64[192]{0} get-tuple-element(arg_tuple.262), index=24
  get-tuple-element.351 = f64[] get-tuple-element(call.327), index=23
  reshape.380 = f64[1]{0} reshape(get-tuple-element.351), metadata={op_name="jit(scan)/jit(main)/while/body/broadcast_in_dim[shape=(1,) broadcast_dimensions=()]" source_file="/fs04/fc37/adam/projects/psilocybin-prl-analyses/src/prl_hgf/env/pat_rl_simulator.py" source_line=92}
  compare.381 = pred[] compare(get-tuple-element.263, constant.311), direction=LT, metadata={op_name="jit(scan)/jit(main)/while/body/lt" source_file="/fs04/fc37/adam/projects/psilocybin-prl-analyses/src/prl_hgf/env/pat_rl_simulator.py" source_line=92}
  add.382 = s64[] add(get-tuple-element.263, constant.310), metadata={op_name="jit(scan)/jit(main)/while/body/add" source_file="/fs04/fc37/adam/projects/psilocybin-prl-analyses/src/prl_hgf/env/pat_rl_simulator.py" source_line=92}
  select.383 = s64[] select(compare.381, add.382, get-tuple-element.263), metadata={op_name="jit(scan)/jit(main)/while/body/select_n" source_file="/fs04/fc37/adam/projects/psilocybin-prl-analyses/src/prl_hgf/env/pat_rl_simulator.py" source_line=92}
  dynamic-update-slice.384 = f64[192]{0} dynamic-update-slice(get-tuple-element.287, reshape.380, select.383), metadata={op_name="jit(scan)/jit(main)/while/body/dynamic_update_slice" source_file="/fs04/fc37/adam/projects/psilocybin-prl-analyses/src/prl_hgf/env/pat_rl_simulator.py" source_line=92}
  get-tuple-element.288 = f64[192]{0} get-tuple-element(arg_tuple.262), index=25
  get-tuple-element.352 = f64[] get-tuple-element(call.327), index=24
  reshape.385 = f64[1]{0} reshape(get-tuple-element.352), metadata={op_name="jit(scan)/jit(main)/while/body/broadcast_in_dim[shape=(1,) broadcast_dimensions=()]" source_file="/fs04/fc37/adam/projects/psilocybin-prl-analyses/src/prl_hgf/env/pat_rl_simulator.py" source_line=92}
  compare.386 = pred[] compare(get-tuple-element.263, constant.311), direction=LT, metadata={op_name="jit(scan)/jit(main)/while/body/lt" source_file="/fs04/fc37/adam/projects/psilocybin-prl-analyses/src/prl_hgf/env/pat_rl_simulator.py" source_line=92}
  add.387 = s64[] add(get-tuple-element.263, constant.310), metadata={op_name="jit(scan)/jit(main)/while/body/add" source_file="/fs04/fc37/adam/projects/psilocybin-prl-analyses/src/prl_hgf/env/pat_rl_simulator.py" source_line=92}
  select.388 = s64[] select(compare.386, add.387, get-tuple-element.263), metadata={op_name="jit(scan)/jit(main)/while/body/select_n" source_file="/fs04/fc37/adam/projects/psilocybin-prl-analyses/src/prl_hgf/env/pat_rl_simulator.py" source_line=92}
  dynamic-update-slice.389 = f64[192]{0} dynamic-update-slice(get-tuple-element.288, reshape.385, select.388), metadata={op_name="jit(scan)/jit(main)/while/body/dynamic_update_slice" source_file="/fs04/fc37/adam/projects/psilocybin-prl-analyses/src/prl_hgf/env/pat_rl_simulator.py" source_line=92}
  get-tuple-element.289 = s64[192]{0} get-tuple-element(arg_tuple.262), index=26
  get-tuple-element.353 = s64[] get-tuple-element(call.327), index=25
  reshape.390 = s64[1]{0} reshape(get-tuple-element.353), metadata={op_name="jit(scan)/jit(main)/while/body/broadcast_in_dim[shape=(1,) broadcast_dimensions=()]" source_file="/fs04/fc37/adam/projects/psilocybin-prl-analyses/src/prl_hgf/env/pat_rl_simulator.py" source_line=92}
  compare.391 = pred[] compare(get-tuple-element.263, constant.311), direction=LT, metadata={op_name="jit(scan)/jit(main)/while/body/lt" source_file="/fs04/fc37/adam/projects/psilocybin-prl-analyses/src/prl_hgf/env/pat_rl_simulator.py" source_line=92}
  add.392 = s64[] add(get-tuple-element.263, constant.310), metadata={op_name="jit(scan)/jit(main)/while/body/add" source_file="/fs04/fc37/adam/projects/psilocybin-prl-analyses/src/prl_hgf/env/pat_rl_simulator.py" source_line=92}
  select.393 = s64[] select(compare.391, add.392, get-tuple-element.263), metadata={op_name="jit(scan)/jit(main)/while/body/select_n" source_file="/fs04/fc37/adam/projects/psilocybin-prl-analyses/src/prl_hgf/env/pat_rl_simulator.py" source_line=92}
  dynamic-update-slice.394 = s64[192]{0} dynamic-update-slice(get-tuple-element.289, reshape.390, select.393), metadata={op_name="jit(scan)/jit(main)/while/body/dynamic_update_slice" source_file="/fs04/fc37/adam/projects/psilocybin-prl-analyses/src/prl_hgf/env/pat_rl_simulator.py" source_line=92}
  get-tuple-element.290 = f64[192]{0} get-tuple-element(arg_tuple.262), index=27
  get-tuple-element.354 = f64[] get-tuple-element(call.327), index=26
  reshape.395 = f64[1]{0} reshape(get-tuple-element.354), metadata={op_name="jit(scan)/jit(main)/while/body/broadcast_in_dim[shape=(1,) broadcast_dimensions=()]" source_file="/fs04/fc37/adam/projects/psilocybin-prl-analyses/src/prl_hgf/env/pat_rl_simulator.py" source_line=92}
  compare.396 = pred[] compare(get-tuple-element.263, constant.311), direction=LT, metadata={op_name="jit(scan)/jit(main)/while/body/lt" source_file="/fs04/fc37/adam/projects/psilocybin-prl-analyses/src/prl_hgf/env/pat_rl_simulator.py" source_line=92}
  add.397 = s64[] add(get-tuple-element.263, constant.310), metadata={op_name="jit(scan)/jit(main)/while/body/add" source_file="/fs04/fc37/adam/projects/psilocybin-prl-analyses/src/prl_hgf/env/pat_rl_simulator.py" source_line=92}
  select.398 = s64[] select(compare.396, add.397, get-tuple-element.263), metadata={op_name="jit(scan)/jit(main)/while/body/select_n" source_file="/fs04/fc37/adam/projects/psilocybin-prl-analyses/src/prl_hgf/env/pat_rl_simulator.py" source_line=92}
  dynamic-update-slice.399 = f64[192]{0} dynamic-update-slice(get-tuple-element.290, reshape.395, select.398), metadata={op_name="jit(scan)/jit(main)/while/body/dynamic_update_slice" source_file="/fs04/fc37/adam/projects/psilocybin-prl-analyses/src/prl_hgf/env/pat_rl_simulator.py" source_line=92}
  get-tuple-element.291 = f64[192]{0} get-tuple-element(arg_tuple.262), index=28
  get-tuple-element.355 = f64[] get-tuple-element(call.327), index=27
  reshape.400 = f64[1]{0} reshape(get-tuple-element.355), metadata={op_name="jit(scan)/jit(main)/while/body/broadcast_in_dim[shape=(1,) broadcast_dimensions=()]" source_file="/fs04/fc37/adam/projects/psilocybin-prl-analyses/src/prl_hgf/env/pat_rl_simulator.py" source_line=92}
  compare.401 = pred[] compare(get-tuple-element.263, constant.311), direction=LT, metadata={op_name="jit(scan)/jit(main)/while/body/lt" source_file="/fs04/fc37/adam/projects/psilocybin-prl-analyses/src/prl_hgf/env/pat_rl_simulator.py" source_line=92}
  add.402 = s64[] add(get-tuple-element.263, constant.310), metadata={op_name="jit(scan)/jit(main)/while/body/add" source_file="/fs04/fc37/adam/projects/psilocybin-prl-analyses/src/prl_hgf/env/pat_rl_simulator.py" source_line=92}
  select.403 = s64[] select(compare.401, add.402, get-tuple-element.263), metadata={op_name="jit(scan)/jit(main)/while/body/select_n" source_file="/fs04/fc37/adam/projects/psilocybin-prl-analyses/src/prl_hgf/env/pat_rl_simulator.py" source_line=92}
  dynamic-update-slice.404 = f64[192]{0} dynamic-update-slice(get-tuple-element.291, reshape.400, select.403), metadata={op_name="jit(scan)/jit(main)/while/body/dynamic_update_slice" source_file="/fs04/fc37/adam/projects/psilocybin-prl-analyses/src/prl_hgf/env/pat_rl_simulator.py" source_line=92}
  get-tuple-element.292 = f64[192,1]{1,0} get-tuple-element(arg_tuple.262), index=29
  get-tuple-element.356 = f64[1]{0} get-tuple-element(call.327), index=28
  reshape.405 = f64[1,1]{1,0} reshape(get-tuple-element.356), metadata={op_name="jit(scan)/jit(main)/while/body/broadcast_in_dim[shape=(1, 1) broadcast_dimensions=(1,)]" source_file="/fs04/fc37/adam/projects/psilocybin-prl-analyses/src/prl_hgf/env/pat_rl_simulator.py" source_line=92}
  compare.406 = pred[] compare(get-tuple-element.263, constant.311), direction=LT, metadata={op_name="jit(scan)/jit(main)/while/body/lt" source_file="/fs04/fc37/adam/projects/psilocybin-prl-analyses/src/prl_hgf/env/pat_rl_simulator.py" source_line=92}
  add.407 = s64[] add(get-tuple-element.263, constant.310), metadata={op_name="jit(scan)/jit(main)/while/body/add" source_file="/fs04/fc37/adam/projects/psilocybin-prl-analyses/src/prl_hgf/env/pat_rl_simulator.py" source_line=92}
  select.408 = s64[] select(compare.406, add.407, get-tuple-element.263), metadata={op_name="jit(scan)/jit(main)/while/body/select_n" source_file="/fs04/fc37/adam/projects/psilocybin-prl-analyses/src/prl_hgf/env/pat_rl_simulator.py" source_line=92}
  dynamic-update-slice.409 = f64[192,1]{1,0} dynamic-update-slice(get-tuple-element.292, reshape.405, select.408, constant.311), metadata={op_name="jit(scan)/jit(main)/while/body/dynamic_update_slice" source_file="/fs04/fc37/adam/projects/psilocybin-prl-analyses/src/prl_hgf/env/pat_rl_simulator.py" source_line=92}
  get-tuple-element.293 = f64[192]{0} get-tuple-element(arg_tuple.262), index=30
  get-tuple-element.357 = f64[] get-tuple-element(call.327), index=29
  reshape.410 = f64[1]{0} reshape(get-tuple-element.357), metadata={op_name="jit(scan)/jit(main)/while/body/broadcast_in_dim[shape=(1,) broadcast_dimensions=()]" source_file="/fs04/fc37/adam/projects/psilocybin-prl-analyses/src/prl_hgf/env/pat_rl_simulator.py" source_line=92}
  compare.411 = pred[] compare(get-tuple-element.263, constant.311), direction=LT, metadata={op_name="jit(scan)/jit(main)/while/body/lt" source_file="/fs04/fc37/adam/projects/psilocybin-prl-analyses/src/prl_hgf/env/pat_rl_simulator.py" source_line=92}
  add.412 = s64[] add(get-tuple-element.263, constant.310), metadata={op_name="jit(scan)/jit(main)/while/body/add" source_file="/fs04/fc37/adam/projects/psilocybin-prl-analyses/src/prl_hgf/env/pat_rl_simulator.py" source_line=92}
  select.413 = s64[] select(compare.411, add.412, get-tuple-element.263), metadata={op_name="jit(scan)/jit(main)/while/body/select_n" source_file="/fs04/fc37/adam/projects/psilocybin-prl-analyses/src/prl_hgf/env/pat_rl_simulator.py" source_line=92}
  dynamic-update-slice.414 = f64[192]{0} dynamic-update-slice(get-tuple-element.293, reshape.410, select.413), metadata={op_name="jit(scan)/jit(main)/while/body/dynamic_update_slice" source_file="/fs04/fc37/adam/projects/psilocybin-prl-analyses/src/prl_hgf/env/pat_rl_simulator.py" source_line=92}
  get-tuple-element.294 = f64[192]{0} get-tuple-element(arg_tuple.262), index=31
  get-tuple-element.358 = f64[] get-tuple-element(call.327), index=30
  reshape.415 = f64[1]{0} reshape(get-tuple-element.358), metadata={op_name="jit(scan)/jit(main)/while/body/broadcast_in_dim[shape=(1,) broadcast_dimensions=()]" source_file="/fs04/fc37/adam/projects/psilocybin-prl-analyses/src/prl_hgf/env/pat_rl_simulator.py" source_line=92}
  compare.416 = pred[] compare(get-tuple-element.263, constant.311), direction=LT, metadata={op_name="jit(scan)/jit(main)/while/body/lt" source_file="/fs04/fc37/adam/projects/psilocybin-prl-analyses/src/prl_hgf/env/pat_rl_simulator.py" source_line=92}
  add.417 = s64[] add(get-tuple-element.263, constant.310), metadata={op_name="jit(scan)/jit(main)/while/body/add" source_file="/fs04/fc37/adam/projects/psilocybin-prl-analyses/src/prl_hgf/env/pat_rl_simulator.py" source_line=92}
  select.418 = s64[] select(compare.416, add.417, get-tuple-element.263), metadata={op_name="jit(scan)/jit(main)/while/body/select_n" source_file="/fs04/fc37/adam/projects/psilocybin-prl-analyses/src/prl_hgf/env/pat_rl_simulator.py" source_line=92}
  dynamic-update-slice.419 = f64[192]{0} dynamic-update-slice(get-tuple-element.294, reshape.415, select.418), metadata={op_name="jit(scan)/jit(main)/while/body/dynamic_update_slice" source_file="/fs04/fc37/adam/projects/psilocybin-prl-analyses/src/prl_hgf/env/pat_rl_simulator.py" source_line=92}
  get-tuple-element.295 = f64[192]{0} get-tuple-element(arg_tuple.262), index=32
  get-tuple-element.359 = f64[] get-tuple-element(call.327), index=31
  reshape.420 = f64[1]{0} reshape(get-tuple-element.359), metadata={op_name="jit(scan)/jit(main)/while/body/broadcast_in_dim[shape=(1,) broadcast_dimensions=()]" source_file="/fs04/fc37/adam/projects/psilocybin-prl-analyses/src/prl_hgf/env/pat_rl_simulator.py" source_line=92}
  compare.421 = pred[] compare(get-tuple-element.263, constant.311), direction=LT, metadata={op_name="jit(scan)/jit(main)/while/body/lt" source_file="/fs04/fc37/adam/projects/psilocybin-prl-analyses/src/prl_hgf/env/pat_rl_simulator.py" source_line=92}
  add.422 = s64[] add(get-tuple-element.263, constant.310), metadata={op_name="jit(scan)/jit(main)/while/body/add" source_file="/fs04/fc37/adam/projects/psilocybin-prl-analyses/src/prl_hgf/env/pat_rl_simulator.py" source_line=92}
  select.423 = s64[] select(compare.421, add.422, get-tuple-element.263), metadata={op_name="jit(scan)/jit(main)/while/body/select_n" source_file="/fs04/fc37/adam/projects/psilocybin-prl-analyses/src/prl_hgf/env/pat_rl_simulator.py" source_line=92}
  dynamic-update-slice.424 = f64[192]{0} dynamic-update-slice(get-tuple-element.295, reshape.420, select.423), metadata={op_name="jit(scan)/jit(main)/while/body/dynamic_update_slice" source_file="/fs04/fc37/adam/projects/psilocybin-prl-analyses/src/prl_hgf/env/pat_rl_simulator.py" source_line=92}
  get-tuple-element.296 = f64[192]{0} get-tuple-element(arg_tuple.262), index=33
  get-tuple-element.360 = f64[] get-tuple-element(call.327), index=32
  reshape.425 = f64[1]{0} reshape(get-tuple-element.360), metadata={op_name="jit(scan)/jit(main)/while/body/broadcast_in_dim[shape=(1,) broadcast_dimensions=()]" source_file="/fs04/fc37/adam/projects/psilocybin-prl-analyses/src/prl_hgf/env/pat_rl_simulator.py" source_line=92}
  compare.426 = pred[] compare(get-tuple-element.263, constant.311), direction=LT, metadata={op_name="jit(scan)/jit(main)/while/body/lt" source_file="/fs04/fc37/adam/projects/psilocybin-prl-analyses/src/prl_hgf/env/pat_rl_simulator.py" source_line=92}
  add.427 = s64[] add(get-tuple-element.263, constant.310), metadata={op_name="jit(scan)/jit(main)/while/body/add" source_file="/fs04/fc37/adam/projects/psilocybin-prl-analyses/src/prl_hgf/env/pat_rl_simulator.py" source_line=92}
  select.428 = s64[] select(compare.426, add.427, get-tuple-element.263), metadata={op_name="jit(scan)/jit(main)/while/body/select_n" source_file="/fs04/fc37/adam/projects/psilocybin-prl-analyses/src/prl_hgf/env/pat_rl_simulator.py" source_line=92}
  dynamic-update-slice.429 = f64[192]{0} dynamic-update-slice(get-tuple-element.296, reshape.425, select.428), metadata={op_name="jit(scan)/jit(main)/while/body/dynamic_update_slice" source_file="/fs04/fc37/adam/projects/psilocybin-prl-analyses/src/prl_hgf/env/pat_rl_simulator.py" source_line=92}
  get-tuple-element.297 = s64[192]{0} get-tuple-element(arg_tuple.262), index=34
  get-tuple-element.361 = s64[] get-tuple-element(call.327), index=33
  reshape.430 = s64[1]{0} reshape(get-tuple-element.361), metadata={op_name="jit(scan)/jit(main)/while/body/broadcast_in_dim[shape=(1,) broadcast_dimensions=()]" source_file="/fs04/fc37/adam/projects/psilocybin-prl-analyses/src/prl_hgf/env/pat_rl_simulator.py" source_line=92}
  compare.431 = pred[] compare(get-tuple-element.263, constant.311), direction=LT, metadata={op_name="jit(scan)/jit(main)/while/body/lt" source_file="/fs04/fc37/adam/projects/psilocybin-prl-analyses/src/prl_hgf/env/pat_rl_simulator.py" source_line=92}
  add.432 = s64[] add(get-tuple-element.263, constant.310), metadata={op_name="jit(scan)/jit(main)/while/body/add" source_file="/fs04/fc37/adam/projects/psilocybin-prl-analyses/src/prl_hgf/env/pat_rl_simulator.py" source_line=92}
  select.433 = s64[] select(compare.431, add.432, get-tuple-element.263), metadata={op_name="jit(scan)/jit(main)/while/body/select_n" source_file="/fs04/fc37/adam/projects/psilocybin-prl-analyses/src/prl_hgf/env/pat_rl_simulator.py" source_line=92}
  dynamic-update-slice.434 = s64[192]{0} dynamic-update-slice(get-tuple-element.297, reshape.430, select.433), metadata={op_name="jit(scan)/jit(main)/while/body/dynamic_update_slice" source_file="/fs04/fc37/adam/projects/psilocybin-prl-analyses/src/prl_hgf/env/pat_rl_simulator.py" source_line=92}
  get-tuple-element.298 = f64[192]{0} get-tuple-element(arg_tuple.262), index=35
  get-tuple-element.362 = f64[] get-tuple-element(call.327), index=34
  reshape.435 = f64[1]{0} reshape(get-tuple-element.362), metadata={op_name="jit(scan)/jit(main)/while/body/broadcast_in_dim[shape=(1,) broadcast_dimensions=()]" source_file="/fs04/fc37/adam/projects/psilocybin-prl-analyses/src/prl_hgf/env/pat_rl_simulator.py" source_line=92}
  compare.436 = pred[] compare(get-tuple-element.263, constant.311), direction=LT, metadata={op_name="jit(scan)/jit(main)/while/body/lt" source_file="/fs04/fc37/adam/projects/psilocybin-prl-analyses/src/prl_hgf/env/pat_rl_simulator.py" source_line=92}
  add.437 = s64[] add(get-tuple-element.263, constant.310), metadata={op_name="jit(scan)/jit(main)/while/body/add" source_file="/fs04/fc37/adam/projects/psilocybin-prl-analyses/src/prl_hgf/env/pat_rl_simulator.py" source_line=92}
  select.438 = s64[] select(compare.436, add.437, get-tuple-element.263), metadata={op_name="jit(scan)/jit(main)/while/body/select_n" source_file="/fs04/fc37/adam/projects/psilocybin-prl-analyses/src/prl_hgf/env/pat_rl_simulator.py" source_line=92}
  dynamic-update-slice.439 = f64[192]{0} dynamic-update-slice(get-tuple-element.298, reshape.435, select.438), metadata={op_name="jit(scan)/jit(main)/while/body/dynamic_update_slice" source_file="/fs04/fc37/adam/projects/psilocybin-prl-analyses/src/prl_hgf/env/pat_rl_simulator.py" source_line=92}
  get-tuple-element.299 = f64[192]{0} get-tuple-element(arg_tuple.262), index=36
  get-tuple-element.363 = f64[] get-tuple-element(call.327), index=35
  reshape.440 = f64[1]{0} reshape(get-tuple-element.363), metadata={op_name="jit(scan)/jit(main)/while/body/broadcast_in_dim[shape=(1,) broadcast_dimensions=()]" source_file="/fs04/fc37/adam/projects/psilocybin-prl-analyses/src/prl_hgf/env/pat_rl_simulator.py" source_line=92}
  compare.441 = pred[] compare(get-tuple-element.263, constant.311), direction=LT, metadata={op_name="jit(scan)/jit(main)/while/body/lt" source_file="/fs04/fc37/adam/projects/psilocybin-prl-analyses/src/prl_hgf/env/pat_rl_simulator.py" source_line=92}
  add.442 = s64[] add(get-tuple-element.263, constant.310), metadata={op_name="jit(scan)/jit(main)/while/body/add" source_file="/fs04/fc37/adam/projects/psilocybin-prl-analyses/src/prl_hgf/env/pat_rl_simulator.py" source_line=92}
  select.443 = s64[] select(compare.441, add.442, get-tuple-element.263), metadata={op_name="jit(scan)/jit(main)/while/body/select_n" source_file="/fs04/fc37/adam/projects/psilocybin-prl-analyses/src/prl_hgf/env/pat_rl_simulator.py" source_line=92}
  dynamic-update-slice.444 = f64[192]{0} dynamic-update-slice(get-tuple-element.299, reshape.440, select.443), metadata={op_name="jit(scan)/jit(main)/while/body/dynamic_update_slice" source_file="/fs04/fc37/adam/projects/psilocybin-prl-analyses/src/prl_hgf/env/pat_rl_simulator.py" source_line=92}
  get-tuple-element.300 = f64[192]{0} get-tuple-element(arg_tuple.262), index=37
  get-tuple-element.364 = f64[] get-tuple-element(call.327), index=36
  reshape.445 = f64[1]{0} reshape(get-tuple-element.364), metadata={op_name="jit(scan)/jit(main)/while/body/broadcast_in_dim[shape=(1,) broadcast_dimensions=()]" source_file="/fs04/fc37/adam/projects/psilocybin-prl-analyses/src/prl_hgf/env/pat_rl_simulator.py" source_line=92}
  compare.446 = pred[] compare(get-tuple-element.263, constant.311), direction=LT, metadata={op_name="jit(scan)/jit(main)/while/body/lt" source_file="/fs04/fc37/adam/projects/psilocybin-prl-analyses/src/prl_hgf/env/pat_rl_simulator.py" source_line=92}
  add.447 = s64[] add(get-tuple-element.263, constant.310), metadata={op_name="jit(scan)/jit(main)/while/body/add" source_file="/fs04/fc37/adam/projects/psilocybin-prl-analyses/src/prl_hgf/env/pat_rl_simulator.py" source_line=92}
  select.448 = s64[] select(compare.446, add.447, get-tuple-element.263), metadata={op_name="jit(scan)/jit(main)/while/body/select_n" source_file="/fs04/fc37/adam/projects/psilocybin-prl-analyses/src/prl_hgf/env/pat_rl_simulator.py" source_line=92}
  dynamic-update-slice.449 = f64[192]{0} dynamic-update-slice(get-tuple-element.300, reshape.445, select.448), metadata={op_name="jit(scan)/jit(main)/while/body/dynamic_update_slice" source_file="/fs04/fc37/adam/projects/psilocybin-prl-analyses/src/prl_hgf/env/pat_rl_simulator.py" source_line=92}
  get-tuple-element.301 = f64[192]{0} get-tuple-element(arg_tuple.262), index=38
  get-tuple-element.365 = f64[] get-tuple-element(call.327), index=37
  reshape.450 = f64[1]{0} reshape(get-tuple-element.365), metadata={op_name="jit(scan)/jit(main)/while/body/broadcast_in_dim[shape=(1,) broadcast_dimensions=()]" source_file="/fs04/fc37/adam/projects/psilocybin-prl-analyses/src/prl_hgf/env/pat_rl_simulator.py" source_line=92}
  compare.451 = pred[] compare(get-tuple-element.263, constant.311), direction=LT, metadata={op_name="jit(scan)/jit(main)/while/body/lt" source_file="/fs04/fc37/adam/projects/psilocybin-prl-analyses/src/prl_hgf/env/pat_rl_simulator.py" source_line=92}
  add.452 = s64[] add(get-tuple-element.263, constant.310), metadata={op_name="jit(scan)/jit(main)/while/body/add" source_file="/fs04/fc37/adam/projects/psilocybin-prl-analyses/src/prl_hgf/env/pat_rl_simulator.py" source_line=92}
  select.453 = s64[] select(compare.451, add.452, get-tuple-element.263), metadata={op_name="jit(scan)/jit(main)/while/body/select_n" source_file="/fs04/fc37/adam/projects/psilocybin-prl-analyses/src/prl_hgf/env/pat_rl_simulator.py" source_line=92}
  dynamic-update-slice.454 = f64[192]{0} dynamic-update-slice(get-tuple-element.301, reshape.450, select.453), metadata={op_name="jit(scan)/jit(main)/while/body/dynamic_update_slice" source_file="/fs04/fc37/adam/projects/psilocybin-prl-analyses/src/prl_hgf/env/pat_rl_simulator.py" source_line=92}
  get-tuple-element.302 = f64[192]{0} get-tuple-element(arg_tuple.262), index=39
  get-tuple-element.366 = f64[] get-tuple-element(call.327), index=38
  reshape.455 = f64[1]{0} reshape(get-tuple-element.366), metadata={op_name="jit(scan)/jit(main)/while/body/broadcast_in_dim[shape=(1,) broadcast_dimensions=()]" source_file="/fs04/fc37/adam/projects/psilocybin-prl-analyses/src/prl_hgf/env/pat_rl_simulator.py" source_line=92}
  compare.456 = pred[] compare(get-tuple-element.263, constant.311), direction=LT, metadata={op_name="jit(scan)/jit(main)/while/body/lt" source_file="/fs04/fc37/adam/projects/psilocybin-prl-analyses/src/prl_hgf/env/pat_rl_simulator.py" source_line=92}
  add.457 = s64[] add(get-tuple-element.263, constant.310), metadata={op_name="jit(scan)/jit(main)/while/body/add" source_file="/fs04/fc37/adam/projects/psilocybin-prl-analyses/src/prl_hgf/env/pat_rl_simulator.py" source_line=92}
  select.458 = s64[] select(compare.456, add.457, get-tuple-element.263), metadata={op_name="jit(scan)/jit(main)/while/body/select_n" source_file="/fs04/fc37/adam/projects/psilocybin-prl-analyses/src/prl_hgf/env/pat_rl_simulator.py" source_line=92}
  dynamic-update-slice.459 = f64[192]{0} dynamic-update-slice(get-tuple-element.302, reshape.455, select.458), metadata={op_name="jit(scan)/jit(main)/while/body/dynamic_update_slice" source_file="/fs04/fc37/adam/projects/psilocybin-prl-analyses/src/prl_hgf/env/pat_rl_simulator.py" source_line=92}
  get-tuple-element.303 = f64[192]{0} get-tuple-element(arg_tuple.262), index=40
  get-tuple-element.367 = f64[] get-tuple-element(call.327), index=39
  reshape.460 = f64[1]{0} reshape(get-tuple-element.367), metadata={op_name="jit(scan)/jit(main)/while/body/broadcast_in_dim[shape=(1,) broadcast_dimensions=()]" source_file="/fs04/fc37/adam/projects/psilocybin-prl-analyses/src/prl_hgf/env/pat_rl_simulator.py" source_line=92}
  compare.461 = pred[] compare(get-tuple-element.263, constant.311), direction=LT, metadata={op_name="jit(scan)/jit(main)/while/body/lt" source_file="/fs04/fc37/adam/projects/psilocybin-prl-analyses/src/prl_hgf/env/pat_rl_simulator.py" source_line=92}
  add.462 = s64[] add(get-tuple-element.263, constant.310), metadata={op_name="jit(scan)/jit(main)/while/body/add" source_file="/fs04/fc37/adam/projects/psilocybin-prl-analyses/src/prl_hgf/env/pat_rl_simulator.py" source_line=92}
  select.463 = s64[] select(compare.461, add.462, get-tuple-element.263), metadata={op_name="jit(scan)/jit(main)/while/body/select_n" source_file="/fs04/fc37/adam/projects/psilocybin-prl-analyses/src/prl_hgf/env/pat_rl_simulator.py" source_line=92}
  dynamic-update-slice.464 = f64[192]{0} dynamic-update-slice(get-tuple-element.303, reshape.460, select.463), metadata={op_name="jit(scan)/jit(main)/while/body/dynamic_update_slice" source_file="/fs04/fc37/adam/projects/psilocybin-prl-analyses/src/prl_hgf/env/pat_rl_simulator.py" source_line=92}
  get-tuple-element.304 = f64[192]{0} get-tuple-element(arg_tuple.262), index=41
  get-tuple-element.368 = f64[] get-tuple-element(call.327), index=40
  reshape.465 = f64[1]{0} reshape(get-tuple-element.368), metadata={op_name="jit(scan)/jit(main)/while/body/broadcast_in_dim[shape=(1,) broadcast_dimensions=()]" source_file="/fs04/fc37/adam/projects/psilocybin-prl-analyses/src/prl_hgf/env/pat_rl_simulator.py" source_line=92}
  compare.466 = pred[] compare(get-tuple-element.263, constant.311), direction=LT, metadata={op_name="jit(scan)/jit(main)/while/body/lt" source_file="/fs04/fc37/adam/projects/psilocybin-prl-analyses/src/prl_hgf/env/pat_rl_simulator.py" source_line=92}
  add.467 = s64[] add(get-tuple-element.263, constant.310), metadata={op_name="jit(scan)/jit(main)/while/body/add" source_file="/fs04/fc37/adam/projects/psilocybin-prl-analyses/src/prl_hgf/env/pat_rl_simulator.py" source_line=92}
  select.468 = s64[] select(compare.466, add.467, get-tuple-element.263), metadata={op_name="jit(scan)/jit(main)/while/body/select_n" source_file="/fs04/fc37/adam/projects/psilocybin-prl-analyses/src/prl_hgf/env/pat_rl_simulator.py" source_line=92}
  dynamic-update-slice.469 = f64[192]{0} dynamic-update-slice(get-tuple-element.304, reshape.465, select.468), metadata={op_name="jit(scan)/jit(main)/while/body/dynamic_update_slice" source_file="/fs04/fc37/adam/projects/psilocybin-prl-analyses/src/prl_hgf/env/pat_rl_simulator.py" source_line=92}
  get-tuple-element.305 = f64[192,1]{1,0} get-tuple-element(arg_tuple.262), index=42
  get-tuple-element.369 = f64[1]{0} get-tuple-element(call.327), index=41
  reshape.470 = f64[1,1]{1,0} reshape(get-tuple-element.369), metadata={op_name="jit(scan)/jit(main)/while/body/broadcast_in_dim[shape=(1, 1) broadcast_dimensions=(1,)]" source_file="/fs04/fc37/adam/projects/psilocybin-prl-analyses/src/prl_hgf/env/pat_rl_simulator.py" source_line=92}
  compare.471 = pred[] compare(get-tuple-element.263, constant.311), direction=LT, metadata={op_name="jit(scan)/jit(main)/while/body/lt" source_file="/fs04/fc37/adam/projects/psilocybin-prl-analyses/src/prl_hgf/env/pat_rl_simulator.py" source_line=92}
  add.472 = s64[] add(get-tuple-element.263, constant.310), metadata={op_name="jit(scan)/jit(main)/while/body/add" source_file="/fs04/fc37/adam/projects/psilocybin-prl-analyses/src/prl_hgf/env/pat_rl_simulator.py" source_line=92}
  select.473 = s64[] select(compare.471, add.472, get-tuple-element.263), metadata={op_name="jit(scan)/jit(main)/while/body/select_n" source_file="/fs04/fc37/adam/projects/psilocybin-prl-analyses/src/prl_hgf/env/pat_rl_simulator.py" source_line=92}
  dynamic-update-slice.474 = f64[192,1]{1,0} dynamic-update-slice(get-tuple-element.305, reshape.470, select.473, constant.311), metadata={op_name="jit(scan)/jit(main)/while/body/dynamic_update_slice" source_file="/fs04/fc37/adam/projects/psilocybin-prl-analyses/src/prl_hgf/env/pat_rl_simulator.py" source_line=92}
  ROOT tuple.476 = (s64[], f64[], f64[], f64[], f64[], /*index=5*/s64[], f64[], f64[], f64[1]{0}, f64[], /*index=10*/f64[], f64[], f64[], s64[], f64[], /*index=15*/f64[], f64[], f64[], f64[], f64[], /*index=20*/f64[], f64[1]{0}, f64[192]{0}, f64[192]{0}, f64[192]{0}, /*index=25*/f64[192]{0}, s64[192]{0}, f64[192]{0}, f64[192]{0}, f64[192,1]{1,0}, /*index=30*/f64[192]{0}, f64[192]{0}, f64[192]{0}, f64[192]{0}, s64[192]{0}, /*index=35*/f64[192]{0}, f64[192]{0}, f64[192]{0}, f64[192]{0}, f64[192]{0}, /*index=40*/f64[192]{0}, f64[192]{0}, f64[192,1]{1,0}, f64[192,1]{1,0}, s64[192]{0}, /*index=45*/f64[192]{0}) tuple(add.475, get-tuple-element.328, get-tuple-element.329, get-tuple-element.330, get-tuple-element.331, /*index=5*/get-tuple-element.332, get-tuple-element.333, get-tuple-element.334, get-tuple-element.335, get-tuple-element.336, /*index=10*/get-tuple-element.337, get-tuple-element.338, get-tuple-element.339, get-tuple-element.340, get-tuple-element.341, /*index=15*/get-tuple-element.342, get-tuple-element.343, get-tuple-element.344, get-tuple-element.345, get-tuple-element.346, /*index=20*/get-tuple-element.347, get-tuple-element.348, dynamic-update-slice.374, dynamic-update-slice.379, dynamic-update-slice.384, /*index=25*/dynamic-update-slice.389, dynamic-update-slice.394, dynamic-update-slice.399, dynamic-update-slice.404, dynamic-update-slice.409, /*index=30*/dynamic-update-slice.414, dynamic-update-slice.419, dynamic-update-slice.424, dynamic-update-slice.429, dynamic-update-slice.434, /*index=35*/dynamic-update-slice.439, dynamic-update-slice.444, dynamic-update-slice.449, dynamic-update-slice.454, dynamic-update-slice.459, /*index=40*/dynamic-update-slice.464, dynamic-update-slice.469, dynamic-update-slice.474, get-tuple-element.306, get-tuple-element.307, /*index=45*/get-tuple-element.308)
} // region_0.261

region_4.477 {
  arg_tuple.478 = (s64[], f64[], f64[], f64[], f64[], /*index=5*/s64[], f64[], f64[], f64[1]{0}, f64[], /*index=10*/f64[], f64[], f64[], s64[], f64[], /*index=15*/f64[], f64[], f64[], f64[], f64[], /*index=20*/f64[], f64[1]{0}, f64[192]{0}, f64[192]{0}, f64[192]{0}, /*index=25*/f64[192]{0}, s64[192]{0}, f64[192]{0}, f64[192]{0}, f64[192,1]{1,0}, /*index=30*/f64[192]{0}, f64[192]{0}, f64[192]{0}, f64[192]{0}, s64[192]{0}, /*index=35*/f64[192]{0}, f64[192]{0}, f64[192]{0}, f64[192]{0}, f64[192]{0}, /*index=40*/f64[192]{0}, f64[192]{0}, f64[192,1]{1,0}, f64[192,1]{1,0}, s64[192]{0}, /*index=45*/f64[192]{0}) parameter(0)
  get-tuple-element.480 = f64[] get-tuple-element(arg_tuple.478), index=1
  get-tuple-element.481 = f64[] get-tuple-element(arg_tuple.478), index=2
  get-tuple-element.482 = f64[] get-tuple-element(arg_tuple.478), index=3
  get-tuple-element.483 = f64[] get-tuple-element(arg_tuple.478), index=4
  get-tuple-element.484 = s64[] get-tuple-element(arg_tuple.478), index=5
  get-tuple-element.485 = f64[] get-tuple-element(arg_tuple.478), index=6
  get-tuple-element.486 = f64[] get-tuple-element(arg_tuple.478), index=7
  get-tuple-element.487 = f64[1]{0} get-tuple-element(arg_tuple.478), index=8
  get-tuple-element.488 = f64[] get-tuple-element(arg_tuple.478), index=9
  get-tuple-element.489 = f64[] get-tuple-element(arg_tuple.478), index=10
  get-tuple-element.490 = f64[] get-tuple-element(arg_tuple.478), index=11
  get-tuple-element.491 = f64[] get-tuple-element(arg_tuple.478), index=12
  get-tuple-element.492 = s64[] get-tuple-element(arg_tuple.478), index=13
  get-tuple-element.493 = f64[] get-tuple-element(arg_tuple.478), index=14
  get-tuple-element.494 = f64[] get-tuple-element(arg_tuple.478), index=15
  get-tuple-element.495 = f64[] get-tuple-element(arg_tuple.478), index=16
  get-tuple-element.496 = f64[] get-tuple-element(arg_tuple.478), index=17
  get-tuple-element.497 = f64[] get-tuple-element(arg_tuple.478), index=18
  get-tuple-element.498 = f64[] get-tuple-element(arg_tuple.478), index=19
  get-tuple-element.499 = f64[] get-tuple-element(arg_tuple.478), index=20
  get-tuple-element.500 = f64[1]{0} get-tuple-element(arg_tuple.478), index=21
  get-tuple-element.501 = f64[192]{0} get-tuple-element(arg_tuple.478), index=22
  get-tuple-element.502 = f64[192]{0} get-tuple-element(arg_tuple.478), index=23
  get-tuple-element.503 = f64[192]{0} get-tuple-element(arg_tuple.478), index=24
  get-tuple-element.504 = f64[192]{0} get-tuple-element(arg_tuple.478), index=25
  get-tuple-element.505 = s64[192]{0} get-tuple-element(arg_tuple.478), index=26
  get-tuple-element.506 = f64[192]{0} get-tuple-element(arg_tuple.478), index=27
  get-tuple-element.507 = f64[192]{0} get-tuple-element(arg_tuple.478), index=28
  get-tuple-element.508 = f64[192,1]{1,0} get-tuple-element(arg_tuple.478), index=29
  get-tuple-element.509 = f64[192]{0} get-tuple-element(arg_tuple.478), index=30
  get-tuple-element.510 = f64[192]{0} get-tuple-element(arg_tuple.478), index=31
  get-tuple-element.511 = f64[192]{0} get-tuple-element(arg_tuple.478), index=32
  get-tuple-element.512 = f64[192]{0} get-tuple-element(arg_tuple.478), index=33
  get-tuple-element.513 = s64[192]{0} get-tuple-element(arg_tuple.478), index=34
  get-tuple-element.514 = f64[192]{0} get-tuple-element(arg_tuple.478), index=35
  get-tuple-element.515 = f64[192]{0} get-tuple-element(arg_tuple.478), index=36
  get-tuple-element.516 = f64[192]{0} get-tuple-element(arg_tuple.478), index=37
  get-tuple-element.517 = f64[192]{0} get-tuple-element(arg_tuple.478), index=38
  get-tuple-element.518 = f64[192]{0} get-tuple-element(arg_tuple.478), index=39
  get-tuple-element.519 = f64[192]{0} get-tuple-element(arg_tuple.478), index=40
  get-tuple-element.520 = f64[192]{0} get-tuple-element(arg_tuple.478), index=41
  get-tuple-element.521 = f64[192,1]{1,0} get-tuple-element(arg_tuple.478), index=42
  get-tuple-element.522 = f64[192,1]{1,0} get-tuple-element(arg_tuple.478), index=43
  get-tuple-element.523 = s64[192]{0} get-tuple-element(arg_tuple.478), index=44
  get-tuple-element.524 = f64[192]{0} get-tuple-element(arg_tuple.478), index=45
  get-tuple-element.479 = s64[] get-tuple-element(arg_tuple.478), index=0
  constant.525 = s64[] constant(192)
  ROOT compare.526 = pred[] compare(get-tuple-element.479, constant.525), direction=LT, metadata={op_name="jit(scan)/jit(main)/while/cond/lt" source_file="/fs04/fc37/adam/projects/psilocybin-prl-analyses/src/prl_hgf/env/pat_rl_simulator.py" source_line=92}
} // region_4.477

ENTRY main.575 {
  constant.25 = s64[] constant(0)
  Arg_0.1 = f64[] parameter(0), metadata={op_name="args[0]"}
  Arg_1.2 = f64[] parameter(1), metadata={op_name="args[1]"}
  Arg_2.3 = f64[] parameter(2), metadata={op_name="args[2]"}
  Arg_3.4 = f64[] parameter(3), metadata={op_name="args[3]"}
  Arg_4.5 = s64[] parameter(4), metadata={op_name="args[4]"}
  Arg_5.6 = f64[] parameter(5), metadata={op_name="args[5]"}
  Arg_6.7 = f64[] parameter(6), metadata={op_name="args[6]"}
  Arg_7.8 = f64[1]{0} parameter(7), metadata={op_name="args[7]"}
  Arg_8.9 = f64[] parameter(8), metadata={op_name="args[8]"}
  Arg_9.10 = f64[] parameter(9), metadata={op_name="args[9]"}
  Arg_10.11 = f64[] parameter(10), metadata={op_name="args[10]"}
  Arg_11.12 = f64[] parameter(11), metadata={op_name="args[11]"}
  Arg_12.13 = s64[] parameter(12), metadata={op_name="args[12]"}
  Arg_13.14 = f64[] parameter(13), metadata={op_name="args[13]"}
  Arg_14.15 = f64[] parameter(14), metadata={op_name="args[14]"}
  Arg_15.16 = f64[] parameter(15), metadata={op_name="args[15]"}
  Arg_16.17 = f64[] parameter(16), metadata={op_name="args[16]"}
  Arg_17.18 = f64[] parameter(17), metadata={op_name="args[17]"}
  Arg_18.19 = f64[] parameter(18), metadata={op_name="args[18]"}
  Arg_19.20 = f64[] parameter(19), metadata={op_name="args[19]"}
  Arg_20.21 = f64[1]{0} parameter(20), metadata={op_name="args[20]"}
  constant.26 = f64[] constant(0)
  broadcast.27 = f64[192]{0} broadcast(constant.26), dimensions={}
  constant.28 = s64[] constant(0)
  broadcast.29 = s64[192]{0} broadcast(constant.28), dimensions={}
  constant.30 = f64[] constant(0)
  broadcast.31 = f64[192,1]{1,0} broadcast(constant.30), dimensions={}
  Arg_21.22 = f64[192,1]{1,0} parameter(21), metadata={op_name="args[21]"}
  Arg_22.23 = s64[192]{0} parameter(22), metadata={op_name="args[22]"}
  Arg_23.24 = f64[192]{0} parameter(23), metadata={op_name="args[23]"}
  tuple.32 = (s64[], f64[], f64[], f64[], f64[], /*index=5*/s64[], f64[], f64[], f64[1]{0}, f64[], /*index=10*/f64[], f64[], f64[], s64[], f64[], /*index=15*/f64[], f64[], f64[], f64[], f64[], /*index=20*/f64[], f64[1]{0}, f64[192]{0}, f64[192]{0}, f64[192]{0}, /*index=25*/f64[192]{0}, s64[192]{0}, f64[192]{0}, f64[192]{0}, f64[192,1]{1,0}, /*index=30*/f64[192]{0}, f64[192]{0}, f64[192]{0}, f64[192]{0}, s64[192]{0}, /*index=35*/f64[192]{0}, f64[192]{0}, f64[192]{0}, f64[192]{0}, f64[192]{0}, /*index=40*/f64[192]{0}, f64[192]{0}, f64[192,1]{1,0}, f64[192,1]{1,0}, s64[192]{0}, /*index=45*/f64[192]{0}) tuple(constant.25, Arg_0.1, Arg_1.2, Arg_2.3, Arg_3.4, /*index=5*/Arg_4.5, Arg_5.6, Arg_6.7, Arg_7.8, Arg_8.9, /*index=10*/Arg_9.10, Arg_10.11, Arg_11.12, Arg_12.13, Arg_13.14, /*index=15*/Arg_14.15, Arg_15.16, Arg_16.17, Arg_17.18, Arg_18.19, /*index=20*/Arg_19.20, Arg_20.21, broadcast.27, broadcast.27, broadcast.27, /*index=25*/broadcast.27, broadcast.29, broadcast.27, broadcast.27, broadcast.31, /*index=30*/broadcast.27, broadcast.27, broadcast.27, broadcast.27, broadcast.29, /*index=35*/broadcast.27, broadcast.27, broadcast.27, broadcast.27, broadcast.27, /*index=40*/broadcast.27, broadcast.27, broadcast.31, Arg_21.22, Arg_22.23, /*index=45*/Arg_23.24), metadata={op_name="jit(scan)/jit(main)/while[cond_nconsts=0 body_nconsts=3]" source_file="/fs04/fc37/adam/projects/psilocybin-prl-analyses/src/prl_hgf/env/pat_rl_simulator.py" source_line=92}
  while.527 = (s64[], f64[], f64[], f64[], f64[], /*index=5*/s64[], f64[], f64[], f64[1]{0}, f64[], /*index=10*/f64[], f64[], f64[], s64[], f64[], /*index=15*/f64[], f64[], f64[], f64[], f64[], /*index=20*/f64[], f64[1]{0}, f64[192]{0}, f64[192]{0}, f64[192]{0}, /*index=25*/f64[192]{0}, s64[192]{0}, f64[192]{0}, f64[192]{0}, f64[192,1]{1,0}, /*index=30*/f64[192]{0}, f64[192]{0}, f64[192]{0}, f64[192]{0}, s64[192]{0}, /*index=35*/f64[192]{0}, f64[192]{0}, f64[192]{0}, f64[192]{0}, f64[192]{0}, /*index=40*/f64[192]{0}, f64[192]{0}, f64[192,1]{1,0}, f64[192,1]{1,0}, s64[192]{0}, /*index=45*/f64[192]{0}) while(tuple.32), condition=region_4.477, body=region_0.261, metadata={op_name="jit(scan)/jit(main)/while[cond_nconsts=0 body_nconsts=3]" source_file="/fs04/fc37/adam/projects/psilocybin-prl-analyses/src/prl_hgf/env/pat_rl_simulator.py" source_line=92}
  get-tuple-element.528 = s64[] get-tuple-element(while.527), index=0, metadata={op_name="jit(scan)/jit(main)/while[cond_nconsts=0 body_nconsts=3]" source_file="/fs04/fc37/adam/projects/psilocybin-prl-analyses/src/prl_hgf/env/pat_rl_simulator.py" source_line=92}
  get-tuple-element.571 = f64[192,1]{1,0} get-tuple-element(while.527), index=43, metadata={op_name="jit(scan)/jit(main)/while[cond_nconsts=0 body_nconsts=3]" source_file="/fs04/fc37/adam/projects/psilocybin-prl-analyses/src/prl_hgf/env/pat_rl_simulator.py" source_line=92}
  get-tuple-element.572 = s64[192]{0} get-tuple-element(while.527), index=44, metadata={op_name="jit(scan)/jit(main)/while[cond_nconsts=0 body_nconsts=3]" source_file="/fs04/fc37/adam/projects/psilocybin-prl-analyses/src/prl_hgf/env/pat_rl_simulator.py" source_line=92}
  get-tuple-element.573 = f64[192]{0} get-tuple-element(while.527), index=45, metadata={op_name="jit(scan)/jit(main)/while[cond_nconsts=0 body_nconsts=3]" source_file="/fs04/fc37/adam/projects/psilocybin-prl-analyses/src/prl_hgf/env/pat_rl_simulator.py" source_line=92}
  get-tuple-element.529 = f64[] get-tuple-element(while.527), index=1, metadata={op_name="jit(scan)/jit(main)/while[cond_nconsts=0 body_nconsts=3]" source_file="/fs04/fc37/adam/projects/psilocybin-prl-analyses/src/prl_hgf/env/pat_rl_simulator.py" source_line=92}
  get-tuple-element.530 = f64[] get-tuple-element(while.527), index=2, metadata={op_name="jit(scan)/jit(main)/while[cond_nconsts=0 body_nconsts=3]" source_file="/fs04/fc37/adam/projects/psilocybin-prl-analyses/src/prl_hgf/env/pat_rl_simulator.py" source_line=92}
  get-tuple-element.531 = f64[] get-tuple-element(while.527), index=3, metadata={op_name="jit(scan)/jit(main)/while[cond_nconsts=0 body_nconsts=3]" source_file="/fs04/fc37/adam/projects/psilocybin-prl-analyses/src/prl_hgf/env/pat_rl_simulator.py" source_line=92}
  get-tuple-element.532 = f64[] get-tuple-element(while.527), index=4, metadata={op_name="jit(scan)/jit(main)/while[cond_nconsts=0 body_nconsts=3]" source_file="/fs04/fc37/adam/projects/psilocybin-prl-analyses/src/prl_hgf/env/pat_rl_simulator.py" source_line=92}
  get-tuple-element.533 = s64[] get-tuple-element(while.527), index=5, metadata={op_name="jit(scan)/jit(main)/while[cond_nconsts=0 body_nconsts=3]" source_file="/fs04/fc37/adam/projects/psilocybin-prl-analyses/src/prl_hgf/env/pat_rl_simulator.py" source_line=92}
  get-tuple-element.534 = f64[] get-tuple-element(while.527), index=6, metadata={op_name="jit(scan)/jit(main)/while[cond_nconsts=0 body_nconsts=3]" source_file="/fs04/fc37/adam/projects/psilocybin-prl-analyses/src/prl_hgf/env/pat_rl_simulator.py" source_line=92}
  get-tuple-element.535 = f64[] get-tuple-element(while.527), index=7, metadata={op_name="jit(scan)/jit(main)/while[cond_nconsts=0 body_nconsts=3]" source_file="/fs04/fc37/adam/projects/psilocybin-prl-analyses/src/prl_hgf/env/pat_rl_simulator.py" source_line=92}
  get-tuple-element.536 = f64[1]{0} get-tuple-element(while.527), index=8, metadata={op_name="jit(scan)/jit(main)/while[cond_nconsts=0 body_nconsts=3]" source_file="/fs04/fc37/adam/projects/psilocybin-prl-analyses/src/prl_hgf/env/pat_rl_simulator.py" source_line=92}
  get-tuple-element.537 = f64[] get-tuple-element(while.527), index=9, metadata={op_name="jit(scan)/jit(main)/while[cond_nconsts=0 body_nconsts=3]" source_file="/fs04/fc37/adam/projects/psilocybin-prl-analyses/src/prl_hgf/env/pat_rl_simulator.py" source_line=92}
  get-tuple-element.538 = f64[] get-tuple-element(while.527), index=10, metadata={op_name="jit(scan)/jit(main)/while[cond_nconsts=0 body_nconsts=3]" source_file="/fs04/fc37/adam/projects/psilocybin-prl-analyses/src/prl_hgf/env/pat_rl_simulator.py" source_line=92}
  get-tuple-element.539 = f64[] get-tuple-element(while.527), index=11, metadata={op_name="jit(scan)/jit(main)/while[cond_nconsts=0 body_nconsts=3]" source_file="/fs04/fc37/adam/projects/psilocybin-prl-analyses/src/prl_hgf/env/pat_rl_simulator.py" source_line=92}
  get-tuple-element.540 = f64[] get-tuple-element(while.527), index=12, metadata={op_name="jit(scan)/jit(main)/while[cond_nconsts=0 body_nconsts=3]" source_file="/fs04/fc37/adam/projects/psilocybin-prl-analyses/src/prl_hgf/env/pat_rl_simulator.py" source_line=92}
  get-tuple-element.541 = s64[] get-tuple-element(while.527), index=13, metadata={op_name="jit(scan)/jit(main)/while[cond_nconsts=0 body_nconsts=3]" source_file="/fs04/fc37/adam/projects/psilocybin-prl-analyses/src/prl_hgf/env/pat_rl_simulator.py" source_line=92}
  get-tuple-element.542 = f64[] get-tuple-element(while.527), index=14, metadata={op_name="jit(scan)/jit(main)/while[cond_nconsts=0 body_nconsts=3]" source_file="/fs04/fc37/adam/projects/psilocybin-prl-analyses/src/prl_hgf/env/pat_rl_simulator.py" source_line=92}
  get-tuple-element.543 = f64[] get-tuple-element(while.527), index=15, metadata={op_name="jit(scan)/jit(main)/while[cond_nconsts=0 body_nconsts=3]" source_file="/fs04/fc37/adam/projects/psilocybin-prl-analyses/src/prl_hgf/env/pat_rl_simulator.py" source_line=92}
  get-tuple-element.544 = f64[] get-tuple-element(while.527), index=16, metadata={op_name="jit(scan)/jit(main)/while[cond_nconsts=0 body_nconsts=3]" source_file="/fs04/fc37/adam/projects/psilocybin-prl-analyses/src/prl_hgf/env/pat_rl_simulator.py" source_line=92}
  get-tuple-element.545 = f64[] get-tuple-element(while.527), index=17, metadata={op_name="jit(scan)/jit(main)/while[cond_nconsts=0 body_nconsts=3]" source_file="/fs04/fc37/adam/projects/psilocybin-prl-analyses/src/prl_hgf/env/pat_rl_simulator.py" source_line=92}
  get-tuple-element.546 = f64[] get-tuple-element(while.527), index=18, metadata={op_name="jit(scan)/jit(main)/while[cond_nconsts=0 body_nconsts=3]" source_file="/fs04/fc37/adam/projects/psilocybin-prl-analyses/src/prl_hgf/env/pat_rl_simulator.py" source_line=92}
  get-tuple-element.547 = f64[] get-tuple-element(while.527), index=19, metadata={op_name="jit(scan)/jit(main)/while[cond_nconsts=0 body_nconsts=3]" source_file="/fs04/fc37/adam/projects/psilocybin-prl-analyses/src/prl_hgf/env/pat_rl_simulator.py" source_line=92}
  get-tuple-element.548 = f64[] get-tuple-element(while.527), index=20, metadata={op_name="jit(scan)/jit(main)/while[cond_nconsts=0 body_nconsts=3]" source_file="/fs04/fc37/adam/projects/psilocybin-prl-analyses/src/prl_hgf/env/pat_rl_simulator.py" source_line=92}
  get-tuple-element.549 = f64[1]{0} get-tuple-element(while.527), index=21, metadata={op_name="jit(scan)/jit(main)/while[cond_nconsts=0 body_nconsts=3]" source_file="/fs04/fc37/adam/projects/psilocybin-prl-analyses/src/prl_hgf/env/pat_rl_simulator.py" source_line=92}
  get-tuple-element.550 = f64[192]{0} get-tuple-element(while.527), index=22, metadata={op_name="jit(scan)/jit(main)/while[cond_nconsts=0 body_nconsts=3]" source_file="/fs04/fc37/adam/projects/psilocybin-prl-analyses/src/prl_hgf/env/pat_rl_simulator.py" source_line=92}
  get-tuple-element.551 = f64[192]{0} get-tuple-element(while.527), index=23, metadata={op_name="jit(scan)/jit(main)/while[cond_nconsts=0 body_nconsts=3]" source_file="/fs04/fc37/adam/projects/psilocybin-prl-analyses/src/prl_hgf/env/pat_rl_simulator.py" source_line=92}
  get-tuple-element.552 = f64[192]{0} get-tuple-element(while.527), index=24, metadata={op_name="jit(scan)/jit(main)/while[cond_nconsts=0 body_nconsts=3]" source_file="/fs04/fc37/adam/projects/psilocybin-prl-analyses/src/prl_hgf/env/pat_rl_simulator.py" source_line=92}
  get-tuple-element.553 = f64[192]{0} get-tuple-element(while.527), index=25, metadata={op_name="jit(scan)/jit(main)/while[cond_nconsts=0 body_nconsts=3]" source_file="/fs04/fc37/adam/projects/psilocybin-prl-analyses/src/prl_hgf/env/pat_rl_simulator.py" source_line=92}
  get-tuple-element.554 = s64[192]{0} get-tuple-element(while.527), index=26, metadata={op_name="jit(scan)/jit(main)/while[cond_nconsts=0 body_nconsts=3]" source_file="/fs04/fc37/adam/projects/psilocybin-prl-analyses/src/prl_hgf/env/pat_rl_simulator.py" source_line=92}
  get-tuple-element.555 = f64[192]{0} get-tuple-element(while.527), index=27, metadata={op_name="jit(scan)/jit(main)/while[cond_nconsts=0 body_nconsts=3]" source_file="/fs04/fc37/adam/projects/psilocybin-prl-analyses/src/prl_hgf/env/pat_rl_simulator.py" source_line=92}
  get-tuple-element.556 = f64[192]{0} get-tuple-element(while.527), index=28, metadata={op_name="jit(scan)/jit(main)/while[cond_nconsts=0 body_nconsts=3]" source_file="/fs04/fc37/adam/projects/psilocybin-prl-analyses/src/prl_hgf/env/pat_rl_simulator.py" source_line=92}
  get-tuple-element.557 = f64[192,1]{1,0} get-tuple-element(while.527), index=29, metadata={op_name="jit(scan)/jit(main)/while[cond_nconsts=0 body_nconsts=3]" source_file="/fs04/fc37/adam/projects/psilocybin-prl-analyses/src/prl_hgf/env/pat_rl_simulator.py" source_line=92}
  get-tuple-element.558 = f64[192]{0} get-tuple-element(while.527), index=30, metadata={op_name="jit(scan)/jit(main)/while[cond_nconsts=0 body_nconsts=3]" source_file="/fs04/fc37/adam/projects/psilocybin-prl-analyses/src/prl_hgf/env/pat_rl_simulator.py" source_line=92}
  get-tuple-element.559 = f64[192]{0} get-tuple-element(while.527), index=31, metadata={op_name="jit(scan)/jit(main)/while[cond_nconsts=0 body_nconsts=3]" source_file="/fs04/fc37/adam/projects/psilocybin-prl-analyses/src/prl_hgf/env/pat_rl_simulator.py" source_line=92}
  get-tuple-element.560 = f64[192]{0} get-tuple-element(while.527), index=32, metadata={op_name="jit(scan)/jit(main)/while[cond_nconsts=0 body_nconsts=3]" source_file="/fs04/fc37/adam/projects/psilocybin-prl-analyses/src/prl_hgf/env/pat_rl_simulator.py" source_line=92}
  get-tuple-element.561 = f64[192]{0} get-tuple-element(while.527), index=33, metadata={op_name="jit(scan)/jit(main)/while[cond_nconsts=0 body_nconsts=3]" source_file="/fs04/fc37/adam/projects/psilocybin-prl-analyses/src/prl_hgf/env/pat_rl_simulator.py" source_line=92}
  get-tuple-element.562 = s64[192]{0} get-tuple-element(while.527), index=34, metadata={op_name="jit(scan)/jit(main)/while[cond_nconsts=0 body_nconsts=3]" source_file="/fs04/fc37/adam/projects/psilocybin-prl-analyses/src/prl_hgf/env/pat_rl_simulator.py" source_line=92}
  get-tuple-element.563 = f64[192]{0} get-tuple-element(while.527), index=35, metadata={op_name="jit(scan)/jit(main)/while[cond_nconsts=0 body_nconsts=3]" source_file="/fs04/fc37/adam/projects/psilocybin-prl-analyses/src/prl_hgf/env/pat_rl_simulator.py" source_line=92}
  get-tuple-element.564 = f64[192]{0} get-tuple-element(while.527), index=36, metadata={op_name="jit(scan)/jit(main)/while[cond_nconsts=0 body_nconsts=3]" source_file="/fs04/fc37/adam/projects/psilocybin-prl-analyses/src/prl_hgf/env/pat_rl_simulator.py" source_line=92}
  get-tuple-element.565 = f64[192]{0} get-tuple-element(while.527), index=37, metadata={op_name="jit(scan)/jit(main)/while[cond_nconsts=0 body_nconsts=3]" source_file="/fs04/fc37/adam/projects/psilocybin-prl-analyses/src/prl_hgf/env/pat_rl_simulator.py" source_line=92}
  get-tuple-element.566 = f64[192]{0} get-tuple-element(while.527), index=38, metadata={op_name="jit(scan)/jit(main)/while[cond_nconsts=0 body_nconsts=3]" source_file="/fs04/fc37/adam/projects/psilocybin-prl-analyses/src/prl_hgf/env/pat_rl_simulator.py" source_line=92}
  get-tuple-element.567 = f64[192]{0} get-tuple-element(while.527), index=39, metadata={op_name="jit(scan)/jit(main)/while[cond_nconsts=0 body_nconsts=3]" source_file="/fs04/fc37/adam/projects/psilocybin-prl-analyses/src/prl_hgf/env/pat_rl_simulator.py" source_line=92}
  get-tuple-element.568 = f64[192]{0} get-tuple-element(while.527), index=40, metadata={op_name="jit(scan)/jit(main)/while[cond_nconsts=0 body_nconsts=3]" source_file="/fs04/fc37/adam/projects/psilocybin-prl-analyses/src/prl_hgf/env/pat_rl_simulator.py" source_line=92}
  get-tuple-element.569 = f64[192]{0} get-tuple-element(while.527), index=41, metadata={op_name="jit(scan)/jit(main)/while[cond_nconsts=0 body_nconsts=3]" source_file="/fs04/fc37/adam/projects/psilocybin-prl-analyses/src/prl_hgf/env/pat_rl_simulator.py" source_line=92}
  get-tuple-element.570 = f64[192,1]{1,0} get-tuple-element(while.527), index=42, metadata={op_name="jit(scan)/jit(main)/while[cond_nconsts=0 body_nconsts=3]" source_file="/fs04/fc37/adam/projects/psilocybin-prl-analyses/src/prl_hgf/env/pat_rl_simulator.py" source_line=92}
  ROOT tuple.574 = (f64[], f64[], f64[], f64[], s64[], /*index=5*/f64[], f64[], f64[1]{0}, f64[], f64[], /*index=10*/f64[], f64[], s64[], f64[], f64[], /*index=15*/f64[], f64[], f64[], f64[], f64[], /*index=20*/f64[1]{0}, f64[192]{0}, f64[192]{0}, f64[192]{0}, f64[192]{0}, /*index=25*/s64[192]{0}, f64[192]{0}, f64[192]{0}, f64[192,1]{1,0}, f64[192]{0}, /*index=30*/f64[192]{0}, f64[192]{0}, f64[192]{0}, s64[192]{0}, f64[192]{0}, /*index=35*/f64[192]{0}, f64[192]{0}, f64[192]{0}, f64[192]{0}, f64[192]{0}, /*index=40*/f64[192]{0}, f64[192,1]{1,0}) tuple(get-tuple-element.529, get-tuple-element.530, get-tuple-element.531, get-tuple-element.532, get-tuple-element.533, /*index=5*/get-tuple-element.534, get-tuple-element.535, get-tuple-element.536, get-tuple-element.537, get-tuple-element.538, /*index=10*/get-tuple-element.539, get-tuple-element.540, get-tuple-element.541, get-tuple-element.542, get-tuple-element.543, /*index=15*/get-tuple-element.544, get-tuple-element.545, get-tuple-element.546, get-tuple-element.547, get-tuple-element.548, /*index=20*/get-tuple-element.549, get-tuple-element.550, get-tuple-element.551, get-tuple-element.552, get-tuple-element.553, /*index=25*/get-tuple-element.554, get-tuple-element.555, get-tuple-element.556, get-tuple-element.557, get-tuple-element.558, /*index=30*/get-tuple-element.559, get-tuple-element.560, get-tuple-element.561, get-tuple-element.562, get-tuple-element.563, /*index=35*/get-tuple-element.564, get-tuple-element.565, get-tuple-element.566, get-tuple-element.567, get-tuple-element.568, /*index=40*/get-tuple-element.569, get-tuple-element.570)
} // main.575

