HloModule jit_scan, is_scheduled=true, entry_computation_layout={(f64[2,48]{1,0}, f64[2,48]{1,0}, f64[2,48]{1,0}, f64[2,48]{1,0}, f64[2,48]{1,0}, /*index=5*/f64[2,48]{1,0}, f64[2]{0}, f64[2,48]{1,0}, f64[2,48]{1,0}, f64[2,48]{1,0}, /*index=10*/f64[2,48]{1,0}, f64[2,48]{1,0}, f64[2,48]{1,0}, u32[10,2]{1,0})->(f64[2,48]{1,0}, f64[2,48]{1,0}, f64[2,48]{1,0}, f64[2,48]{1,0}, f64[2,48]{1,0}, /*index=5*/f64[2,48]{1,0}, f64[2]{0}, f64[2,48]{1,0}, f64[2,48]{1,0}, f64[2,48]{1,0}, /*index=10*/f64[2,48]{1,0}, f64[2,48]{1,0}, f64[2,48]{1,0}, f64[10,2,48]{2,1,0}, f64[10,2,48]{2,1,0}, /*index=15*/f64[10,2,48]{2,1,0}, f64[10,2,48]{2,1,0}, f64[10,2,48]{2,1,0}, f64[10,2,48]{2,1,0}, f64[10,2]{1,0}, /*index=20*/f64[10,2,48]{2,1,0}, f64[10,2,48]{2,1,0}, f64[10,2,48]{2,1,0}, f64[10,2,48]{2,1,0}, f64[10,2,48]{2,1,0}, /*index=25*/f64[10,2,48]{2,1,0}, f64[10,2,48]{2,1,0}, f64[10,2,48]{2,1,0}, f64[10,2,48]{2,1,0}, f64[10,2,48]{2,1,0}, /*index=30*/f64[10,2,48]{2,1,0}, f64[10,2,48]{2,1,0}, pred[10,2]{1,0}, pred[10,2]{1,0}, f64[10,2]{1,0}, /*index=35*/f64[10,2,48]{2,1,0}, f64[10,2,48]{2,1,0}, f64[10,2,48]{2,1,0}, f64[10,2,48]{2,1,0}, f64[10,2,48]{2,1,0}, /*index=40*/f64[10,2,48]{2,1,0}, f64[10,2,48]{2,1,0}, f64[10,2,48]{2,1,0}, f64[10,2,48]{2,1,0}, f64[10,2,48]{2,1,0}, /*index=45*/f64[10,2,48]{2,1,0}, f64[10,2,48]{2,1,0}, f64[10,2]{1,0}, f64[10,2,48]{2,1,0}, f64[10,2,48]{2,1,0}, /*index=50*/f64[10,2,48]{2,1,0}, f64[10,2,48]{2,1,0}, f64[10,2,48]{2,1,0}, f64[10,2,48]{2,1,0}, f64[10,2,48]{2,1,0}, /*index=55*/f64[10,2,48]{2,1,0}, f64[10,2,48]{2,1,0}, f64[10,2,48]{2,1,0}, f64[10,2,48]{2,1,0}, f64[10,2,48]{2,1,0}, /*index=60*/f64[10,2,48]{2,1,0}, f64[10,2,48]{2,1,0}, f64[10,2,48]{2,1,0}, f64[10,2,48]{2,1,0}, f64[10,2,48]{2,1,0}, /*index=65*/f64[10,2,48]{2,1,0}, f64[10,2]{1,0}, f64[10,2,48]{2,1,0}, f64[10,2,48]{2,1,0}, f64[10,2,48]{2,1,0}, /*index=70*/f64[10,2,48]{2,1,0}, f64[10,2,48]{2,1,0}, f64[10,2,48]{2,1,0}, s64[10,2]{1,0}, s64[10,2]{1,0}, /*index=75*/f64[10,2]{1,0})}, allow_spmd_sharding_propagation_to_parameters={true,true,true,true,true,true,true,true,true,true,true,true,true,true}, allow_spmd_sharding_propagation_to_output={true,true,true,true,true,true,true,true,true,true,true,true,true,true,true,true,true,true,true,true,true,true,true,true,true,true,true,true,true,true,true,true,true,true,true,true,true,true,true,true,true,true,true,true,true,true,true,true,true,true,true,true,true,true,true,true,true,true,true,true,true,true,true,true,true,true,true,true,true,true,true,true,true,true,true,true}, frontend_attributes={fingerprint_before_lhs="42cddb9af6e1a4780666ce1d8f226a44"}

fused_select {
  param_3.49 = s32[2]{0} parameter(3)
  param_4.45 = s32[2]{0} parameter(4)
  compare.1126.2 = pred[2]{0} compare(param_3.49, param_4.45), direction=GE, metadata={op_name="jit(scan)/jit(main)/while/body/jit(_one_step)/vmap(while)/body/while/body/while/body_pred/ge" source_file="/fs04/fc37/adam/projects/psilocybin-prl-analyses/src/prl_hgf/fitting/hierarchical.py" source_line=1147}
  param_0.36 = pred[2]{0} parameter(0)
  not.20.2 = pred[2]{0} not(param_0.36), metadata={op_name="jit(scan)/jit(main)/while/body/jit(_one_step)/vmap(while)/body/while/body/while/body_pred/not" source_file="/fs04/fc37/adam/projects/psilocybin-prl-analyses/src/prl_hgf/fitting/hierarchical.py" source_line=1147}
  and.64.1 = pred[2]{0} and(compare.1126.2, not.20.2), metadata={op_name="jit(scan)/jit(main)/while/body/jit(_one_step)/vmap(while)/body/while/body/while/body_pred/and" source_file="/fs04/fc37/adam/projects/psilocybin-prl-analyses/src/prl_hgf/fitting/hierarchical.py" source_line=1147}
  param_2.57 = f64[2]{0} parameter(2)
  constant_6912_1 = f64[] constant(0)
  broadcast.4015.clone.9 = f64[2]{0} broadcast(constant_6912_1), dimensions={}
  compare.1128.3 = pred[2]{0} compare(param_2.57, broadcast.4015.clone.9), direction=LE, metadata={op_name="jit(scan)/jit(main)/while/body/jit(_one_step)/vmap(while)/body/while/body/while/body/le" source_file="/fs04/fc37/adam/projects/psilocybin-prl-analyses/src/prl_hgf/fitting/hierarchical.py" source_line=1147}
  param_1.53 = f64[2]{0} parameter(1)
  compare.1129.5 = pred[2]{0} compare(param_1.53, broadcast.4015.clone.9), direction=LE, metadata={op_name="jit(scan)/jit(main)/while/body/jit(_one_step)/vmap(while)/body/while/body/while/body/le" source_file="/fs04/fc37/adam/projects/psilocybin-prl-analyses/src/prl_hgf/fitting/hierarchical.py" source_line=1147}
  or.801.3 = pred[2]{0} or(compare.1128.3, compare.1129.5), metadata={op_name="jit(scan)/jit(main)/while/body/jit(_one_step)/vmap(while)/body/while/body/while/body/or" source_file="/fs04/fc37/adam/projects/psilocybin-prl-analyses/src/prl_hgf/fitting/hierarchical.py" source_line=1147}
  select.2971.1 = pred[2]{0} select(and.64.1, or.801.3, param_0.36), metadata={op_name="jit(scan)/jit(main)/while/body/jit(_one_step)/vmap(while)/body/while/body/while[cond_nconsts=1 body_nconsts=5]" source_file="/fs04/fc37/adam/projects/psilocybin-prl-analyses/src/prl_hgf/fitting/hierarchical.py" source_line=1147}
  constant_1334_1_clone_1 = s32[] constant(-1)
  broadcast.4010.3.clone.1 = s32[2]{0} broadcast(constant_1334_1_clone_1), dimensions={}
  add.3970.3.clone.1 = s32[2]{0} add(param_3.49, broadcast.4010.3.clone.1), metadata={op_name="jit(scan)/jit(main)/while/body/jit(_one_step)/vmap(while)/body/while/body/while/body/sub" source_file="/fs04/fc37/adam/projects/psilocybin-prl-analyses/src/prl_hgf/fitting/hierarchical.py" source_line=1147}
  select.2969.1.clone.1 = s32[2]{0} select(and.64.1, add.3970.3.clone.1, param_3.49), metadata={op_name="jit(scan)/jit(main)/while/body/jit(_one_step)/vmap(while)/body/while/body/while[cond_nconsts=1 body_nconsts=5]" source_file="/fs04/fc37/adam/projects/psilocybin-prl-analyses/src/prl_hgf/fitting/hierarchical.py" source_line=1147}
  ROOT tuple.479 = (pred[2]{0}, s32[2]{0}) tuple(select.2971.1, select.2969.1.clone.1)
} // fused_select

scalar_add_computation {
  scalar_rhs = f64[] parameter(1)
  scalar_lhs = f64[] parameter(0)
  ROOT add.3969 = f64[] add(scalar_lhs, scalar_rhs)
}

fused_reduce {
  param_0.50 = f64[2,288]{1,0} parameter(0)
  param_3.54 = f64[2,288]{1,0} parameter(3)
  param_4.52 = f64[2,10,288]{2,1,0} parameter(4)
  iota.42.18 = s32[2,1]{1,0} iota(), iota_dimension=0, metadata={op_name="jit(scan)/jit(main)/while/body/jit(_one_step)/vmap(while)/body/while/body/while/body/iota[dtype=int32 shape=(2, 1) dimension=0]" source_file="/fs04/fc37/adam/projects/psilocybin-prl-analyses/src/prl_hgf/fitting/hierarchical.py" source_line=1147}
  param_2.60 = s32[2]{0} parameter(2)
  constant_6918_2 = s32[] constant(0)
  broadcast.4011.18 = s32[2]{0} broadcast(constant_6918_2), dimensions={}
  compare.1127.18 = pred[2]{0} compare(param_2.60, broadcast.4011.18), direction=LT, metadata={op_name="jit(scan)/jit(main)/while/body/jit(_one_step)/vmap(while)/body/while/body/while/body/lt" source_file="/fs04/fc37/adam/projects/psilocybin-prl-analyses/src/prl_hgf/fitting/hierarchical.py" source_line=1147}
  constant_6920_2 = s32[] constant(10)
  broadcast.4012.18 = s32[2]{0} broadcast(constant_6920_2), dimensions={}
  add.3971.18 = s32[2]{0} add(param_2.60, broadcast.4012.18), metadata={op_name="jit(scan)/jit(main)/while/body/jit(_one_step)/vmap(while)/body/while/body/while/body/add" source_file="/fs04/fc37/adam/projects/psilocybin-prl-analyses/src/prl_hgf/fitting/hierarchical.py" source_line=1147}
  select.2970.18 = s32[2]{0} select(compare.1127.18, add.3971.18, param_2.60), metadata={op_name="jit(scan)/jit(main)/while/body/jit(_one_step)/vmap(while)/body/while/body/while/body/select_n" source_file="/fs04/fc37/adam/projects/psilocybin-prl-analyses/src/prl_hgf/fitting/hierarchical.py" source_line=1147}
  bitcast.10507.27 = s32[2,1]{1,0} bitcast(select.2970.18)
  broadcast.4013.18 = s32[2,1]{1,0} broadcast(constant_6918_2), dimensions={}
  concatenate.36.27 = s32[2,3]{1,0} concatenate(iota.42.18, bitcast.10507.27, broadcast.4013.18), dimensions={1}, metadata={op_name="jit(scan)/jit(main)/while/body/jit(_one_step)/vmap(while)/body/while/body/while/body/concatenate[dimension=1]" source_file="/fs04/fc37/adam/projects/psilocybin-prl-analyses/src/prl_hgf/fitting/hierarchical.py" source_line=1147}
  gather.4.9 = f64[2,1,1,288]{3,0,2,1} gather(param_4.52, concatenate.36.27), offset_dims={1,2,3}, collapsed_slice_dims={}, start_index_map={0,1,2}, index_vector_dim=1, slice_sizes={1,1,288}, indices_are_sorted=true, metadata={op_name="jit(scan)/jit(main)/while/body/jit(_one_step)/vmap(while)/body/while/body/while/body/gather[dimension_numbers=GatherDimensionNumbers(offset_dims=(np.int64(1), np.int64(2)), collapsed_slice_dims=(0,), start_index_map=(0, np.int64(1), np.int64(2))) slice_sizes=(1, 1, 288) unique_indices=True indices_are_sorted=True mode=GatherScatterMode.PROMISE_IN_BOUNDS fill_value=None]" source_file="/fs04/fc37/adam/projects/psilocybin-prl-analyses/src/prl_hgf/fitting/hierarchical.py" source_line=1147}
  bitcast.10525.7 = f64[2,288]{1,0} bitcast(gather.4.9)
  subtract.218.7 = f64[2,288]{1,0} subtract(param_3.54, bitcast.10525.7), metadata={op_name="jit(scan)/jit(main)/while/body/jit(_one_step)/vmap(while)/body/while/body/while/body/sub" source_file="/fs04/fc37/adam/projects/psilocybin-prl-analyses/src/prl_hgf/fitting/hierarchical.py" source_line=1147}
  param_1.71 = f64[2,10,288]{2,1,0} parameter(1)
  gather.3.15 = f64[2,1,1,288]{3,0,2,1} gather(param_1.71, concatenate.36.27), offset_dims={1,2,3}, collapsed_slice_dims={}, start_index_map={0,1,2}, index_vector_dim=1, slice_sizes={1,1,288}, indices_are_sorted=true, metadata={op_name="jit(scan)/jit(main)/while/body/jit(_one_step)/vmap(while)/body/while/body/while/body/gather[dimension_numbers=GatherDimensionNumbers(offset_dims=(np.int64(1), np.int64(2)), collapsed_slice_dims=(0,), start_index_map=(0, np.int64(1), np.int64(2))) slice_sizes=(1, 1, 288) unique_indices=True indices_are_sorted=True mode=GatherScatterMode.PROMISE_IN_BOUNDS fill_value=None]" source_file="/fs04/fc37/adam/projects/psilocybin-prl-analyses/src/prl_hgf/fitting/hierarchical.py" source_line=1147}
  bitcast.10535.19 = f64[2,288]{1,0} bitcast(gather.3.15)
  add.3972.9 = f64[2,288]{1,0} add(subtract.218.7, bitcast.10535.19), metadata={op_name="jit(scan)/jit(main)/while/body/jit(_one_step)/vmap(while)/body/while/body/while/body/add" source_file="/fs04/fc37/adam/projects/psilocybin-prl-analyses/src/prl_hgf/fitting/hierarchical.py" source_line=1147}
  add.3973.9 = f64[2,288]{1,0} add(param_0.50, bitcast.10535.19), metadata={op_name="jit(scan)/jit(main)/while/body/jit(_one_step)/vmap(while)/body/while/body/while/body/add" source_file="/fs04/fc37/adam/projects/psilocybin-prl-analyses/src/prl_hgf/fitting/hierarchical.py" source_line=1147}
  constant_1117_1 = f64[] constant(0.5)
  broadcast.4014.7 = f64[2,288]{1,0} broadcast(constant_1117_1), dimensions={}
  multiply.2886.7 = f64[2,288]{1,0} multiply(add.3973.9, broadcast.4014.7), metadata={op_name="jit(scan)/jit(main)/while/body/jit(_one_step)/vmap(while)/body/while/body/while/body/div" source_file="/fs04/fc37/adam/projects/psilocybin-prl-analyses/src/prl_hgf/fitting/hierarchical.py" source_line=1147}
  subtract.219.7 = f64[2,288]{1,0} subtract(add.3972.9, multiply.2886.7), metadata={op_name="jit(scan)/jit(main)/while/body/jit(_one_step)/vmap(while)/body/while/body/while/body/sub" source_file="/fs04/fc37/adam/projects/psilocybin-prl-analyses/src/prl_hgf/fitting/hierarchical.py" source_line=1147}
  multiply.2888.3 = f64[2,288]{1,0} multiply(param_0.50, subtract.219.7)
  constant_6912_3 = f64[] constant(0)
  reduce.14.1 = f64[2]{0} reduce(multiply.2888.3, constant_6912_3), dimensions={1}, to_apply=scalar_add_computation, metadata={op_name="jit(scan)/jit(main)/while/body/jit(_one_step)/vmap(while)/body/while/body/while/body/dot_general[dimension_numbers=(((1,), (1,)), ((0,), (0,))) precision=None preferred_element_type=float64]" source_file="/fs04/fc37/adam/projects/psilocybin-prl-analyses/src/prl_hgf/fitting/hierarchical.py" source_line=1147}
  multiply.2887.3.clone.1 = f64[2,288]{1,0} multiply(bitcast.10535.19, subtract.219.7)
  reduce.13.1.clone.1 = f64[2]{0} reduce(multiply.2887.3.clone.1, constant_6912_3), dimensions={1}, to_apply=scalar_add_computation, metadata={op_name="jit(scan)/jit(main)/while/body/jit(_one_step)/vmap(while)/body/while/body/while/body/dot_general[dimension_numbers=(((1,), (1,)), ((0,), (0,))) precision=None preferred_element_type=float64]" source_file="/fs04/fc37/adam/projects/psilocybin-prl-analyses/src/prl_hgf/fitting/hierarchical.py" source_line=1147}
  ROOT tuple.478 = (f64[2]{0}, f64[2]{0}) tuple(reduce.14.1, reduce.13.1.clone.1)
} // fused_reduce

region_35.6903 {
  arg_tuple.6904.0 = (s32[2]{0}, pred[2]{0}, s32[2]{0}, f64[2,10,288]{2,1,0}, f64[2,288]{1,0}, /*index=5*/f64[2,10,288]{2,1,0}, f64[2,288]{1,0}) parameter(0)
  get-tuple-element.16418 = s32[2]{0} get-tuple-element(arg_tuple.6904.0), index=0
  get-tuple-element.16427 = s32[2]{0} get-tuple-element(arg_tuple.6904.0), index=2
  get-tuple-element.16428 = f64[2,10,288]{2,1,0} get-tuple-element(arg_tuple.6904.0), index=3
  get-tuple-element.16429 = f64[2,288]{1,0} get-tuple-element(arg_tuple.6904.0), index=4
  get-tuple-element.16430 = f64[2,10,288]{2,1,0} get-tuple-element(arg_tuple.6904.0), index=5
  get-tuple-element.16431 = f64[2,288]{1,0} get-tuple-element(arg_tuple.6904.0), index=6
  get-tuple-element.16419 = pred[2]{0} get-tuple-element(arg_tuple.6904.0), index=1
  input_reduce_fusion = (f64[2]{0}, f64[2]{0}) fusion(get-tuple-element.16431, get-tuple-element.16430, get-tuple-element.16418, get-tuple-element.16429, get-tuple-element.16428), kind=kInput, calls=fused_reduce, metadata={op_name="jit(scan)/jit(main)/while/body/jit(_one_step)/vmap(while)/body/while/body/while/body/dot_general[dimension_numbers=(((1,), (1,)), ((0,), (0,))) precision=None preferred_element_type=float64]" source_file="/fs04/fc37/adam/projects/psilocybin-prl-analyses/src/prl_hgf/fitting/hierarchical.py" source_line=1147}
  get-tuple-element.15649 = f64[2]{0} get-tuple-element(input_reduce_fusion), index=1, metadata={op_name="jit(scan)/jit(main)/while/body/jit(_one_step)/vmap(while)/body/while/body/while/body/dot_general[dimension_numbers=(((1,), (1,)), ((0,), (0,))) precision=None preferred_element_type=float64]" source_file="/fs04/fc37/adam/projects/psilocybin-prl-analyses/src/prl_hgf/fitting/hierarchical.py" source_line=1147}
  get-tuple-element.15648 = f64[2]{0} get-tuple-element(input_reduce_fusion), index=0, metadata={op_name="jit(scan)/jit(main)/while/body/jit(_one_step)/vmap(while)/body/while/body/while/body/dot_general[dimension_numbers=(((1,), (1,)), ((0,), (0,))) precision=None preferred_element_type=float64]" source_file="/fs04/fc37/adam/projects/psilocybin-prl-analyses/src/prl_hgf/fitting/hierarchical.py" source_line=1147}
  loop_select_fusion = (pred[2]{0}, s32[2]{0}) fusion(get-tuple-element.16419, get-tuple-element.15648, get-tuple-element.15649, get-tuple-element.16418, get-tuple-element.16427), kind=kLoop, calls=fused_select, control-predecessors={input_reduce_fusion}, metadata={op_name="jit(scan)/jit(main)/while/body/jit(_one_step)/vmap(while)/body/while/body/while[cond_nconsts=1 body_nconsts=5]" source_file="/fs04/fc37/adam/projects/psilocybin-prl-analyses/src/prl_hgf/fitting/hierarchical.py" source_line=1147}
  get-tuple-element.16425 = s32[2]{0} get-tuple-element(loop_select_fusion), index=1, metadata={op_name="jit(scan)/jit(main)/while/body/jit(_one_step)/vmap(while)/body/while/body/while[cond_nconsts=1 body_nconsts=5]" source_file="/fs04/fc37/adam/projects/psilocybin-prl-analyses/src/prl_hgf/fitting/hierarchical.py" source_line=1147}
  get-tuple-element.16426 = pred[2]{0} get-tuple-element(loop_select_fusion), index=0, metadata={op_name="jit(scan)/jit(main)/while/body/jit(_one_step)/vmap(while)/body/while/body/while[cond_nconsts=1 body_nconsts=5]" source_file="/fs04/fc37/adam/projects/psilocybin-prl-analyses/src/prl_hgf/fitting/hierarchical.py" source_line=1147}
  ROOT tuple.756 = (s32[2]{0}, pred[2]{0}, s32[2]{0}, f64[2,10,288]{2,1,0}, f64[2,288]{1,0}, /*index=5*/f64[2,10,288]{2,1,0}, f64[2,288]{1,0}) tuple(get-tuple-element.16425, get-tuple-element.16426, get-tuple-element.16427, get-tuple-element.16428, get-tuple-element.16429, /*index=5*/get-tuple-element.16430, get-tuple-element.16431)
} // region_35.6903

region_37.6968 {
  Arg_1.6970 = pred[] parameter(1), metadata={op_name="jit(scan)/jit(main)/while/body/jit(_one_step)/vmap(while)/body/while/body/while[cond_nconsts=1 body_nconsts=5]"}
  Arg_0.6969 = pred[] parameter(0), metadata={op_name="jit(scan)/jit(main)/while/body/jit(_one_step)/vmap(while)/body/while/body/while[cond_nconsts=1 body_nconsts=5]"}
  ROOT or.802 = pred[] or(Arg_0.6969, Arg_1.6970), metadata={op_name="jit(scan)/jit(main)/while/body/jit(_one_step)/vmap(while)/body/while/body/while[cond_nconsts=1 body_nconsts=5]" source_file="/fs04/fc37/adam/projects/psilocybin-prl-analyses/src/prl_hgf/fitting/hierarchical.py" source_line=1147}
}

fused_reduce.1 {
  param_1.77 = s32[2]{0} parameter(1)
  param_2.66 = s32[2]{0} parameter(2)
  compare.1130.1 = pred[2]{0} compare(param_1.77, param_2.66), direction=GE, metadata={op_name="jit(scan)/jit(main)/while/body/jit(_one_step)/vmap(while)/body/while/body/while/cond/ge" source_file="/fs04/fc37/adam/projects/psilocybin-prl-analyses/src/prl_hgf/fitting/hierarchical.py" source_line=1147}
  param_0.54 = pred[2]{0} parameter(0)
  not.21.1 = pred[2]{0} not(param_0.54), metadata={op_name="jit(scan)/jit(main)/while/body/jit(_one_step)/vmap(while)/body/while/body/while/cond/not" source_file="/fs04/fc37/adam/projects/psilocybin-prl-analyses/src/prl_hgf/fitting/hierarchical.py" source_line=1147}
  and.65.1 = pred[2]{0} and(compare.1130.1, not.21.1), metadata={op_name="jit(scan)/jit(main)/while/body/jit(_one_step)/vmap(while)/body/while/body/while/cond/and" source_file="/fs04/fc37/adam/projects/psilocybin-prl-analyses/src/prl_hgf/fitting/hierarchical.py" source_line=1147}
  constant_6981_1 = pred[] constant(false)
  ROOT reduce.6985.1 = pred[] reduce(and.65.1, constant_6981_1), dimensions={0}, to_apply=region_37.6968, metadata={op_name="jit(scan)/jit(main)/while/body/jit(_one_step)/vmap(while)/body/while/body/while[cond_nconsts=1 body_nconsts=5]" source_file="/fs04/fc37/adam/projects/psilocybin-prl-analyses/src/prl_hgf/fitting/hierarchical.py" source_line=1147}
} // fused_reduce.1

region_36.6972 {
  arg_tuple.6973.0 = (s32[2]{0}, pred[2]{0}, s32[2]{0}, f64[2,10,288]{2,1,0}, f64[2,288]{1,0}, /*index=5*/f64[2,10,288]{2,1,0}, f64[2,288]{1,0}) parameter(0)
  get-tuple-element.6974.0 = s32[2]{0} get-tuple-element(arg_tuple.6973.0), index=0
  get-tuple-element.6976.0 = s32[2]{0} get-tuple-element(arg_tuple.6973.0), index=2
  get-tuple-element.6975.0 = pred[2]{0} get-tuple-element(arg_tuple.6973.0), index=1
  ROOT input_reduce_fusion.1 = pred[] fusion(get-tuple-element.6975.0, get-tuple-element.6974.0, get-tuple-element.6976.0), kind=kInput, calls=fused_reduce.1, metadata={op_name="jit(scan)/jit(main)/while/body/jit(_one_step)/vmap(while)/body/while/body/while[cond_nconsts=1 body_nconsts=5]" source_file="/fs04/fc37/adam/projects/psilocybin-prl-analyses/src/prl_hgf/fitting/hierarchical.py" source_line=1147}
}

fused_broadcast.2 {
  constant_1429_3 = f64[] constant(0)
  ROOT broadcast.4019.1 = f64[48,1]{1,0} broadcast(constant_1429_3), dimensions={}
}

fused_broadcast.1 {
  constant_1429_2 = f64[] constant(0)
  ROOT broadcast.4016.1 = f64[48]{0} broadcast(constant_1429_2), dimensions={}
}

fused_broadcast {
  constant_1429_1 = f64[] constant(0)
  ROOT broadcast.4017.1 = f64[2,48]{1,0} broadcast(constant_1429_1), dimensions={}
}

wrapped_copy_computation.176 {
  param_0.5672 = f64[2,48]{1,0} parameter(0)
  ROOT copy.1365 = f64[2,48]{1,0} copy(param_0.5672)
}

fused_multiply_negate {
  param_0.5407 = f64[2,48]{1,0} parameter(0)
  param_4.3730 = f64[] parameter(4)
  broadcast.4018.3.clone.1 = f64[2,48]{1,0} broadcast(param_4.3730), dimensions={}, metadata={op_name="jit(scan)/jit(main)/while/body/jit(_one_step)/vmap(while)/body/while/body/transpose(jvp(vmap(while)))/body/jit(beliefs_propagation)/jit(continuous_node_posterior_update)/jit(posterior_update_precision_continuous_node)/cond/branch_0_fun/jit(precision_update_missing_values)/mul" source_file="/fs04/fc37/adam/projects/psilocybin-prl-analyses/src/prl_hgf/fitting/hierarchical_patrl.py" source_line=362}
  param_2.5844 = f64[2,48]{1,0} parameter(2)
  param_3.4909 = f64[2,48]{1,0} parameter(3)
  multiply.2889.2.clone.1 = f64[2,48]{1,0} multiply(param_2.5844, param_3.4909), metadata={op_name="jit(scan)/jit(main)/while/body/jit(_one_step)/vmap(while)/body/while/body/transpose(jvp(vmap(while)))/body/jit(beliefs_propagation)/jit(continuous_node_posterior_update)/jit(posterior_update_precision_continuous_node)/cond/branch_0_fun/jit(precision_update_missing_values)/mul" source_file="/fs04/fc37/adam/projects/psilocybin-prl-analyses/src/prl_hgf/fitting/hierarchical_patrl.py" source_line=362}
  negate.466.4.clone.1 = f64[2,48]{1,0} negate(multiply.2889.2.clone.1), metadata={op_name="jit(scan)/jit(main)/while/body/jit(_one_step)/vmap(while)/body/while/body/transpose(jvp(vmap(while)))/body/jit(beliefs_propagation)/jit(continuous_node_posterior_update)/jit(posterior_update_precision_continuous_node)/cond/branch_0_fun/jit(precision_update_missing_values)/neg" source_file="/fs04/fc37/adam/projects/psilocybin-prl-analyses/src/prl_hgf/fitting/hierarchical_patrl.py" source_line=362}
  multiply.2891.3.clone.1 = f64[2,48]{1,0} multiply(broadcast.4018.3.clone.1, negate.466.4.clone.1), metadata={op_name="jit(scan)/jit(main)/while/body/jit(_one_step)/vmap(while)/body/while/body/transpose(jvp(vmap(while)))/body/jit(beliefs_propagation)/jit(continuous_node_posterior_update)/jit(posterior_update_precision_continuous_node)/cond/branch_0_fun/jit(precision_update_missing_values)/mul" source_file="/fs04/fc37/adam/projects/psilocybin-prl-analyses/src/prl_hgf/fitting/hierarchical_patrl.py" source_line=362}
  param_1.7687 = f64[2,48]{1,0} parameter(1)
  multiply.2892.1.clone.1 = f64[2,48]{1,0} multiply(multiply.2891.3.clone.1, param_1.7687), metadata={op_name="jit(scan)/jit(main)/while/body/jit(_one_step)/vmap(while)/body/while/body/transpose(jvp(vmap(while)))/body/jit(beliefs_propagation)/jit(continuous_node_posterior_update)/jit(posterior_update_precision_continuous_node)/cond/branch_0_fun/jit(precision_update_missing_values)/mul" source_file="/fs04/fc37/adam/projects/psilocybin-prl-analyses/src/prl_hgf/fitting/hierarchical_patrl.py" source_line=362}
  multiply.2893.1 = f64[2,48]{1,0} multiply(param_0.5407, multiply.2892.1.clone.1), metadata={op_name="jit(scan)/jit(main)/while/body/jit(_one_step)/vmap(while)/body/while/body/transpose(jvp(vmap(while)))/body/jit(beliefs_propagation)/jit(continuous_node_posterior_update)/jit(posterior_update_precision_continuous_node)/cond/branch_0_fun/jit(precision_update_missing_values)/mul" source_file="/fs04/fc37/adam/projects/psilocybin-prl-analyses/src/prl_hgf/fitting/hierarchical_patrl.py" source_line=362}
  param_5.2954 = f64[2,48]{1,0} parameter(5)
  multiply.2890.1.clone.1 = f64[2,48]{1,0} multiply(negate.466.4.clone.1, param_5.2954), metadata={op_name="jit(scan)/jit(main)/while/body/jit(_one_step)/vmap(while)/body/while/body/transpose(jvp(vmap(while)))/body/jit(beliefs_propagation)/jit(continuous_node_posterior_update)/jit(posterior_update_precision_continuous_node)/cond/branch_0_fun/jit(precision_update_missing_values)/mul" source_file="/fs04/fc37/adam/projects/psilocybin-prl-analyses/src/prl_hgf/fitting/hierarchical_patrl.py" source_line=362}
  negate.467.1.clone.1 = f64[2,48]{1,0} negate(multiply.2890.1.clone.1), metadata={op_name="jit(scan)/jit(main)/while/body/jit(_one_step)/vmap(while)/body/while/body/transpose(jvp(vmap(while)))/body/jit(beliefs_propagation)/jit(continuous_node_posterior_update)/jit(posterior_update_precision_continuous_node)/cond/branch_0_fun/jit(precision_update_missing_values)/neg" source_file="/fs04/fc37/adam/projects/psilocybin-prl-analyses/src/prl_hgf/fitting/hierarchical_patrl.py" source_line=362}
  ROOT tuple.481 = (f64[2,48]{1,0}, f64[2,48]{1,0}, f64[2,48]{1,0}) tuple(multiply.2893.1, multiply.2892.1.clone.1, negate.467.1.clone.1)
} // fused_multiply_negate

command_buffer.24 {
  p.1032 = f64[2,48]{1,0} parameter(0)
  p.1033 = f64[2,48]{1,0} parameter(1)
  p.1034 = f64[2,48]{1,0} parameter(2)
  p.1035 = f64[2,48]{1,0} parameter(3)
  p.1036 = f64[] parameter(4)
  p.1037 = f64[2,48]{1,0} parameter(5)
  loop_broadcast_fusion.2 = f64[48,1]{1,0} fusion(), kind=kLoop, calls=fused_broadcast.2
  loop_broadcast_fusion.1 = f64[48]{0} fusion(), kind=kLoop, calls=fused_broadcast.1
  loop_broadcast_fusion = f64[2,48]{1,0} fusion(), kind=kLoop, calls=fused_broadcast
  wrapped_copy.176 = f64[2,48]{1,0} fusion(loop_broadcast_fusion), kind=kLoop, calls=wrapped_copy_computation.176
  loop_multiply_negate_fusion = (f64[2,48]{1,0}, f64[2,48]{1,0}, f64[2,48]{1,0}) fusion(p.1032, p.1033, p.1034, p.1035, p.1036, /*index=5*/p.1037), kind=kLoop, calls=fused_multiply_negate, metadata={op_name="jit(scan)/jit(main)/while/body/jit(_one_step)/vmap(while)/body/while/body/transpose(jvp(vmap(while)))/body/jit(beliefs_propagation)/jit(continuous_node_posterior_update)/jit(posterior_update_precision_continuous_node)/cond/branch_0_fun/jit(precision_update_missing_values)/mul" source_file="/fs04/fc37/adam/projects/psilocybin-prl-analyses/src/prl_hgf/fitting/hierarchical_patrl.py" source_line=362}
  ROOT tuple.795 = (f64[48,1]{1,0}, f64[48]{0}, f64[2,48]{1,0}, f64[2,48]{1,0}, (f64[2,48]{1,0}, f64[2,48]{1,0}, f64[2,48]{1,0})) tuple(loop_broadcast_fusion.2, loop_broadcast_fusion.1, loop_broadcast_fusion, wrapped_copy.176, loop_multiply_negate_fusion)
} // command_buffer.24

region_29.5206.clone {
  arg_tuple.6.0 = (f64[2,48]{1,0}, f64[], f64[2,48]{1,0}, f64[2,48]{1,0}, f64[2,48]{1,0}, /*index=5*/f64[2,48]{1,0}) parameter(0)
  get-tuple-element.2425.0 = f64[] get-tuple-element(arg_tuple.6.0), index=1
  get-tuple-element.2429.0 = f64[2,48]{1,0} get-tuple-element(arg_tuple.6.0), index=5
  get-tuple-element.2428.0 = f64[2,48]{1,0} get-tuple-element(arg_tuple.6.0), index=4
  get-tuple-element.2427.0 = f64[2,48]{1,0} get-tuple-element(arg_tuple.6.0), index=3
  get-tuple-element.2426.0 = f64[2,48]{1,0} get-tuple-element(arg_tuple.6.0), index=2
  get-tuple-element.2424.0 = f64[2,48]{1,0} get-tuple-element(arg_tuple.6.0), index=0
  call.13 = (f64[48,1]{1,0}, f64[48]{0}, f64[2,48]{1,0}, f64[2,48]{1,0}, (f64[2,48]{1,0}, f64[2,48]{1,0}, f64[2,48]{1,0})) call(get-tuple-element.2426.0, get-tuple-element.2427.0, get-tuple-element.2429.0, get-tuple-element.2428.0, get-tuple-element.2425.0, /*index=5*/get-tuple-element.2424.0), to_apply=command_buffer.24
  get-tuple-element.18181 = f64[48,1]{1,0} get-tuple-element(call.13), index=0
  get-tuple-element.18182 = f64[48]{0} get-tuple-element(call.13), index=1
  get-tuple-element.18183 = f64[2,48]{1,0} get-tuple-element(call.13), index=2
  get-tuple-element.18184 = f64[2,48]{1,0} get-tuple-element(call.13), index=3
  get-tuple-element.18185 = (f64[2,48]{1,0}, f64[2,48]{1,0}, f64[2,48]{1,0}) get-tuple-element(call.13), index=4
  get-tuple-element.15971 = f64[2,48]{1,0} get-tuple-element(get-tuple-element.18185), index=2, metadata={op_name="jit(scan)/jit(main)/while/body/jit(_one_step)/vmap(while)/body/while/body/transpose(jvp(vmap(while)))/body/jit(beliefs_propagation)/jit(continuous_node_posterior_update)/jit(posterior_update_precision_continuous_node)/cond/branch_0_fun/jit(precision_update_missing_values)/mul" source_file="/fs04/fc37/adam/projects/psilocybin-prl-analyses/src/prl_hgf/fitting/hierarchical_patrl.py" source_line=362}
  get-tuple-element.15972 = f64[2,48]{1,0} get-tuple-element(get-tuple-element.18185), index=1, metadata={op_name="jit(scan)/jit(main)/while/body/jit(_one_step)/vmap(while)/body/while/body/transpose(jvp(vmap(while)))/body/jit(beliefs_propagation)/jit(continuous_node_posterior_update)/jit(posterior_update_precision_continuous_node)/cond/branch_0_fun/jit(precision_update_missing_values)/mul" source_file="/fs04/fc37/adam/projects/psilocybin-prl-analyses/src/prl_hgf/fitting/hierarchical_patrl.py" source_line=362}
  get-tuple-element.15973 = f64[2,48]{1,0} get-tuple-element(get-tuple-element.18185), index=0, metadata={op_name="jit(scan)/jit(main)/while/body/jit(_one_step)/vmap(while)/body/while/body/transpose(jvp(vmap(while)))/body/jit(beliefs_propagation)/jit(continuous_node_posterior_update)/jit(posterior_update_precision_continuous_node)/cond/branch_0_fun/jit(precision_update_missing_values)/mul" source_file="/fs04/fc37/adam/projects/psilocybin-prl-analyses/src/prl_hgf/fitting/hierarchical_patrl.py" source_line=362}
  ROOT tuple.746 = (f64[48]{0}, f64[2,48]{1,0}, f64[2,48]{1,0}, f64[2,48]{1,0}, f64[2,48]{1,0}, /*index=5*/f64[2,48]{1,0}, f64[48,1]{1,0}) tuple(get-tuple-element.18182, get-tuple-element.18183, get-tuple-element.18184, get-tuple-element.15971, get-tuple-element.15972, /*index=5*/get-tuple-element.15973, get-tuple-element.18181)
} // region_29.5206.clone

fused_broadcast.4 {
  constant_1436_3 = f64[] constant(0)
  ROOT broadcast.4023.1 = f64[48,1]{1,0} broadcast(constant_1436_3), dimensions={}
}

fused_broadcast.3 {
  constant_1436_2 = f64[] constant(0)
  ROOT broadcast.4020.1 = f64[48]{0} broadcast(constant_1436_2), dimensions={}
}

fused_broadcast_multiply_select {
  param_0.68 = f64[2,48]{1,0} parameter(0)
  param_2.5845 = pred[2,48]{1,0} parameter(2)
  param_3.4910 = f64[2,48]{1,0} parameter(3)
  constant_1436_1_clone_1 = f64[] constant(0)
  broadcast.4021.clone.2.1.clone.1 = f64[2,48]{1,0} broadcast(constant_1436_1_clone_1), dimensions={}, metadata={op_name="jit(scan)/jit(main)/while/body/jit(_one_step)/vmap(while)/body/while/body/transpose(jvp(vmap(while)))/body/jit(beliefs_propagation)/jit(continuous_node_posterior_update)/jit(posterior_update_precision_continuous_node)/cond/branch_1_fun/jit(precision_update)/jit(_where)/broadcast_in_dim[shape=(2, 48) broadcast_dimensions=(np.int64(1),)]" source_file="/fs04/fc37/adam/projects/psilocybin-prl-analyses/src/prl_hgf/env/pat_rl_simulator.py" source_line=92}
  select.2972.1 = f64[2,48]{1,0} select(param_2.5845, param_3.4910, broadcast.4021.clone.2.1.clone.1), metadata={op_name="jit(scan)/jit(main)/while/body/jit(_one_step)/vmap(while)/body/while/body/transpose(jvp(vmap(while)))/body/jit(beliefs_propagation)/jit(continuous_node_posterior_update)/jit(posterior_update_precision_continuous_node)/cond/branch_1_fun/jit(precision_update)/jit(_where)/select_n" source_file="/fs04/fc37/adam/projects/psilocybin-prl-analyses/src/prl_hgf/env/pat_rl_simulator.py" source_line=92}
  param_1.7688 = f64[] parameter(1)
  broadcast.4022.3 = f64[2,48]{1,0} broadcast(param_1.7688), dimensions={}, metadata={op_name="jit(scan)/jit(main)/while/body/jit(_one_step)/vmap(while)/body/while/body/transpose(jvp(vmap(while)))/body/jit(beliefs_propagation)/jit(continuous_node_posterior_update)/jit(posterior_update_precision_continuous_node)/cond/branch_1_fun/jit(precision_update)/mul" source_file="/fs04/fc37/adam/projects/psilocybin-prl-analyses/src/prl_hgf/fitting/hierarchical_patrl.py" source_line=362}
  multiply.2894.3 = f64[2,48]{1,0} multiply(select.2972.1, broadcast.4022.3), metadata={op_name="jit(scan)/jit(main)/while/body/jit(_one_step)/vmap(while)/body/while/body/transpose(jvp(vmap(while)))/body/jit(beliefs_propagation)/jit(continuous_node_posterior_update)/jit(posterior_update_precision_continuous_node)/cond/branch_1_fun/jit(precision_update)/mul" source_file="/fs04/fc37/adam/projects/psilocybin-prl-analyses/src/prl_hgf/fitting/hierarchical_patrl.py" source_line=362}
  multiply.2895.1 = f64[2,48]{1,0} multiply(param_0.68, multiply.2894.3), metadata={op_name="jit(scan)/jit(main)/while/body/jit(_one_step)/vmap(while)/body/while/body/transpose(jvp(vmap(while)))/body/jit(beliefs_propagation)/jit(continuous_node_posterior_update)/jit(posterior_update_precision_continuous_node)/cond/branch_1_fun/jit(precision_update)/mul" source_file="/fs04/fc37/adam/projects/psilocybin-prl-analyses/src/prl_hgf/fitting/hierarchical_patrl.py" source_line=362}
  ROOT tuple.483 = (f64[2,48]{1,0}, f64[2,48]{1,0}, f64[2,48]{1,0}) tuple(multiply.2895.1, select.2972.1, broadcast.4021.clone.2.1.clone.1)
} // fused_broadcast_multiply_select

wrapped_copy_computation.177 {
  param_0.5673 = f64[2,48]{1,0} parameter(0)
  ROOT copy.1366 = f64[2,48]{1,0} copy(param_0.5673)
}

wrapped_copy_computation.178 {
  param_0.5674 = f64[2,48]{1,0} parameter(0)
  ROOT copy.1367 = f64[2,48]{1,0} copy(param_0.5674)
}

command_buffer.22 {
  p.1024 = f64[2,48]{1,0} parameter(0)
  p.1025 = f64[] parameter(1)
  p.1026 = pred[2,48]{1,0} parameter(2)
  p.1027 = f64[2,48]{1,0} parameter(3)
  loop_broadcast_fusion.4 = f64[48,1]{1,0} fusion(), kind=kLoop, calls=fused_broadcast.4
  loop_broadcast_fusion.3 = f64[48]{0} fusion(), kind=kLoop, calls=fused_broadcast.3
  loop_broadcast_multiply_select_fusion = (f64[2,48]{1,0}, f64[2,48]{1,0}, f64[2,48]{1,0}) fusion(p.1024, p.1025, p.1026, p.1027), kind=kLoop, calls=fused_broadcast_multiply_select, metadata={op_name="jit(scan)/jit(main)/while/body/jit(_one_step)/vmap(while)/body/while/body/transpose(jvp(vmap(while)))/body/jit(beliefs_propagation)/jit(continuous_node_posterior_update)/jit(posterior_update_precision_continuous_node)/cond/branch_1_fun/jit(precision_update)/mul" source_file="/fs04/fc37/adam/projects/psilocybin-prl-analyses/src/prl_hgf/fitting/hierarchical_patrl.py" source_line=362}
  get-tuple-element.15980 = f64[2,48]{1,0} get-tuple-element(loop_broadcast_multiply_select_fusion), index=2, metadata={op_name="jit(scan)/jit(main)/while/body/jit(_one_step)/vmap(while)/body/while/body/transpose(jvp(vmap(while)))/body/jit(beliefs_propagation)/jit(continuous_node_posterior_update)/jit(posterior_update_precision_continuous_node)/cond/branch_1_fun/jit(precision_update)/mul" source_file="/fs04/fc37/adam/projects/psilocybin-prl-analyses/src/prl_hgf/fitting/hierarchical_patrl.py" source_line=362}
  get-tuple-element.15977 = f64[2,48]{1,0} get-tuple-element(loop_broadcast_multiply_select_fusion), index=1, metadata={op_name="jit(scan)/jit(main)/while/body/jit(_one_step)/vmap(while)/body/while/body/transpose(jvp(vmap(while)))/body/jit(beliefs_propagation)/jit(continuous_node_posterior_update)/jit(posterior_update_precision_continuous_node)/cond/branch_1_fun/jit(precision_update)/mul" source_file="/fs04/fc37/adam/projects/psilocybin-prl-analyses/src/prl_hgf/fitting/hierarchical_patrl.py" source_line=362}
  get-tuple-element.15976 = f64[2,48]{1,0} get-tuple-element(loop_broadcast_multiply_select_fusion), index=0, metadata={op_name="jit(scan)/jit(main)/while/body/jit(_one_step)/vmap(while)/body/while/body/transpose(jvp(vmap(while)))/body/jit(beliefs_propagation)/jit(continuous_node_posterior_update)/jit(posterior_update_precision_continuous_node)/cond/branch_1_fun/jit(precision_update)/mul" source_file="/fs04/fc37/adam/projects/psilocybin-prl-analyses/src/prl_hgf/fitting/hierarchical_patrl.py" source_line=362}
  wrapped_copy.177 = f64[2,48]{1,0} fusion(get-tuple-element.15980), kind=kLoop, calls=wrapped_copy_computation.177
  wrapped_copy.178 = f64[2,48]{1,0} fusion(get-tuple-element.15980), kind=kLoop, calls=wrapped_copy_computation.178
  ROOT tuple.793 = (f64[48,1]{1,0}, f64[48]{0}, f64[2,48]{1,0}, f64[2,48]{1,0}, f64[2,48]{1,0}, /*index=5*/f64[2,48]{1,0}, f64[2,48]{1,0}) tuple(loop_broadcast_fusion.4, loop_broadcast_fusion.3, get-tuple-element.15980, get-tuple-element.15977, get-tuple-element.15976, /*index=5*/wrapped_copy.177, wrapped_copy.178)
} // command_buffer.22

region_30.5243.clone.clone {
  arg_tuple.8.0 = (f64[2,48]{1,0}, f64[], pred[2,48]{1,0}, f64[2,48]{1,0}) parameter(0)
  get-tuple-element.2449.0 = f64[] get-tuple-element(arg_tuple.8.0), index=1
  get-tuple-element.2451.0 = f64[2,48]{1,0} get-tuple-element(arg_tuple.8.0), index=3
  get-tuple-element.2450.0 = pred[2,48]{1,0} get-tuple-element(arg_tuple.8.0), index=2
  get-tuple-element.2448.0 = f64[2,48]{1,0} get-tuple-element(arg_tuple.8.0), index=0
  call.12 = (f64[48,1]{1,0}, f64[48]{0}, f64[2,48]{1,0}, f64[2,48]{1,0}, f64[2,48]{1,0}, /*index=5*/f64[2,48]{1,0}, f64[2,48]{1,0}) call(get-tuple-element.2448.0, get-tuple-element.2449.0, get-tuple-element.2450.0, get-tuple-element.2451.0), to_apply=command_buffer.22
  get-tuple-element.18174 = f64[48,1]{1,0} get-tuple-element(call.12), index=0
  get-tuple-element.18175 = f64[48]{0} get-tuple-element(call.12), index=1
  get-tuple-element.18176 = f64[2,48]{1,0} get-tuple-element(call.12), index=2
  get-tuple-element.18177 = f64[2,48]{1,0} get-tuple-element(call.12), index=3
  get-tuple-element.18178 = f64[2,48]{1,0} get-tuple-element(call.12), index=4
  get-tuple-element.18179 = f64[2,48]{1,0} get-tuple-element(call.12), index=5
  get-tuple-element.18180 = f64[2,48]{1,0} get-tuple-element(call.12), index=6
  ROOT tuple.747 = (f64[48]{0}, f64[2,48]{1,0}, f64[2,48]{1,0}, f64[2,48]{1,0}, f64[2,48]{1,0}, /*index=5*/f64[2,48]{1,0}, f64[48,1]{1,0}) tuple(get-tuple-element.18175, get-tuple-element.18178, get-tuple-element.18177, get-tuple-element.18176, get-tuple-element.18179, /*index=5*/get-tuple-element.18180, get-tuple-element.18174)
} // region_30.5243.clone.clone

fused_add_select {
  param_5.403 = pred[192,2,48]{2,1,0} parameter(5)
  constant_1987_14 = s64[] constant(191)
  param_8.262 = s64[] parameter(8)
  subtract.220.27 = s64[] subtract(constant_1987_14, param_8.262), metadata={op_name="jit(scan)/jit(main)/while/body/jit(_one_step)/vmap(while)/body/while/body/transpose(jvp(vmap(while)))/body/sub" source_file="/fs04/fc37/adam/projects/psilocybin-prl-analyses/src/prl_hgf/fitting/hierarchical_patrl.py" source_line=378}
  constant_1980_26 = s64[] constant(0)
  compare.1131.27 = pred[] compare(subtract.220.27, constant_1980_26), direction=LT, metadata={op_name="jit(scan)/jit(main)/while/body/jit(_one_step)/vmap(while)/body/while/body/transpose(jvp(vmap(while)))/body/lt" source_file="/fs04/fc37/adam/projects/psilocybin-prl-analyses/src/prl_hgf/fitting/hierarchical_patrl.py" source_line=378}
  constant_1988_14 = s64[] constant(383)
  subtract.221.27 = s64[] subtract(constant_1988_14, param_8.262), metadata={op_name="jit(scan)/jit(main)/while/body/jit(_one_step)/vmap(while)/body/while/body/transpose(jvp(vmap(while)))/body/add" source_file="/fs04/fc37/adam/projects/psilocybin-prl-analyses/src/prl_hgf/fitting/hierarchical_patrl.py" source_line=378}
  select.2973.27 = s64[] select(compare.1131.27, subtract.221.27, subtract.220.27), metadata={op_name="jit(scan)/jit(main)/while/body/jit(_one_step)/vmap(while)/body/while/body/transpose(jvp(vmap(while)))/body/select_n" source_file="/fs04/fc37/adam/projects/psilocybin-prl-analyses/src/prl_hgf/fitting/hierarchical_patrl.py" source_line=378}
  dynamic-slice.1237.17 = pred[1,2,48]{2,1,0} dynamic-slice(param_5.403, select.2973.27, constant_1980_26, constant_1980_26), dynamic_slice_sizes={1,2,48}, metadata={op_name="jit(scan)/jit(main)/while/body/jit(_one_step)/vmap(while)/body/while/body/transpose(jvp(vmap(while)))/body/dynamic_slice[slice_sizes=(1, 2, 48)]" source_file="/fs04/fc37/adam/projects/psilocybin-prl-analyses/src/prl_hgf/fitting/hierarchical_patrl.py" source_line=378}
  bitcast.10661.52 = pred[2,48]{1,0} bitcast(dynamic-slice.1237.17)
  constant_1982_16 = f64[] constant(0)
  broadcast.4024.clone.87 = f64[2,48]{1,0} broadcast(constant_1982_16), dimensions={}
  param_0.466 = f64[2,48]{1,0} parameter(0)
  select.3011.3 = f64[2,48]{1,0} select(bitcast.10661.52, broadcast.4024.clone.87, param_0.466), metadata={op_name="jit(scan)/jit(main)/while/body/jit(_one_step)/vmap(while)/body/while/body/transpose(jvp(vmap(while)))/body/jit(_where)/select_n" source_file="/fs04/fc37/adam/projects/psilocybin-prl-analyses/src/prl_hgf/env/pat_rl_simulator.py" source_line=92}
  param_3.678 = pred[192,2,48]{2,1,0} parameter(3)
  dynamic-slice.1276.4 = pred[1,2,48]{2,1,0} dynamic-slice(param_3.678, select.2973.27, constant_1980_26, constant_1980_26), dynamic_slice_sizes={1,2,48}, metadata={op_name="jit(scan)/jit(main)/while/body/jit(_one_step)/vmap(while)/body/while/body/transpose(jvp(vmap(while)))/body/dynamic_slice[slice_sizes=(1, 2, 48)]" source_file="/fs04/fc37/adam/projects/psilocybin-prl-analyses/src/prl_hgf/fitting/hierarchical_patrl.py" source_line=378}
  bitcast.11553.8 = pred[2,48]{1,0} bitcast(dynamic-slice.1276.4)
  param_7.288 = s32[192,2,48]{2,1,0} parameter(7)
  dynamic-slice.1246.12 = s32[1,2,48]{2,1,0} dynamic-slice(param_7.288, select.2973.27, constant_1980_26, constant_1980_26), dynamic_slice_sizes={1,2,48}, metadata={op_name="jit(scan)/jit(main)/while/body/jit(_one_step)/vmap(while)/body/while/body/transpose(jvp(vmap(while)))/body/dynamic_slice[slice_sizes=(1, 2, 48)]" source_file="/fs04/fc37/adam/projects/psilocybin-prl-analyses/src/prl_hgf/fitting/hierarchical_patrl.py" source_line=378}
  constant_1985_1 = s32[] constant(0)
  broadcast.4029.7 = s32[1,2,48]{2,1,0} broadcast(constant_1985_1), dimensions={}, metadata={op_name="jit(scan)/jit(main)/while/body/jit(_one_step)/vmap(while)/body/while/body/transpose(jvp(vmap(while)))/body/jit(beliefs_propagation)/jit(continuous_node_posterior_update_ehgf)/jit(posterior_update_precision_continuous_node)/eq" source_file="/fs04/fc37/adam/projects/psilocybin-prl-analyses/src/prl_hgf/fitting/hierarchical_patrl.py" source_line=362}
  compare.1133.7 = pred[1,2,48]{2,1,0} compare(dynamic-slice.1246.12, broadcast.4029.7), direction=EQ, metadata={op_name="jit(scan)/jit(main)/while/body/jit(_one_step)/vmap(while)/body/while/body/transpose(jvp(vmap(while)))/body/jit(beliefs_propagation)/jit(continuous_node_posterior_update_ehgf)/jit(posterior_update_precision_continuous_node)/eq" source_file="/fs04/fc37/adam/projects/psilocybin-prl-analyses/src/prl_hgf/fitting/hierarchical_patrl.py" source_line=362}
  bitcast.11560.9 = pred[2,48]{1,0} bitcast(compare.1133.7)
  select.2983.19 = f64[2,48]{1,0} select(bitcast.10661.52, param_0.466, broadcast.4024.clone.87), metadata={op_name="jit(scan)/jit(main)/while/body/jit(_one_step)/vmap(while)/body/while/body/transpose(jvp(vmap(while)))/body/jit(_where)/select_n" source_file="/fs04/fc37/adam/projects/psilocybin-prl-analyses/src/prl_hgf/env/pat_rl_simulator.py" source_line=92}
  select.3012.9 = f64[2,48]{1,0} select(bitcast.11560.9, select.2983.19, broadcast.4024.clone.87), metadata={op_name="jit(scan)/jit(main)/while/body/jit(_one_step)/vmap(while)/body/while/body/transpose(jvp(vmap(while)))/body/jit(beliefs_propagation)/jit(continuous_node_posterior_update_ehgf)/jit(posterior_update_precision_continuous_node)/select_n" source_file="/fs04/fc37/adam/projects/psilocybin-prl-analyses/src/prl_hgf/fitting/hierarchical_patrl.py" source_line=362}
  param_6.352 = f64[192,2,48]{2,1,0} parameter(6)
  dynamic-slice.1277.5 = f64[1,2,48]{2,1,0} dynamic-slice(param_6.352, select.2973.27, constant_1980_26, constant_1980_26), dynamic_slice_sizes={1,2,48}, metadata={op_name="jit(scan)/jit(main)/while/body/jit(_one_step)/vmap(while)/body/while/body/transpose(jvp(vmap(while)))/body/dynamic_slice[slice_sizes=(1, 2, 48)]" source_file="/fs04/fc37/adam/projects/psilocybin-prl-analyses/src/prl_hgf/fitting/hierarchical_patrl.py" source_line=378}
  bitcast.11574.7 = f64[2,48]{1,0} bitcast(dynamic-slice.1277.5)
  multiply.2939.7 = f64[2,48]{1,0} multiply(select.3012.9, bitcast.11574.7), metadata={op_name="jit(scan)/jit(main)/while/body/jit(_one_step)/vmap(while)/body/while/body/transpose(jvp(vmap(while)))/body/jit(beliefs_propagation)/jit(continuous_node_posterior_update_ehgf)/jit(posterior_update_precision_continuous_node)/jit(precision_update_missing_values)/mul" source_file="/fs04/fc37/adam/projects/psilocybin-prl-analyses/src/prl_hgf/fitting/hierarchical_patrl.py" source_line=362}
  negate.478.5 = f64[2,48]{1,0} negate(multiply.2939.7), metadata={op_name="jit(scan)/jit(main)/while/body/jit(_one_step)/vmap(while)/body/while/body/transpose(jvp(vmap(while)))/body/jit(beliefs_propagation)/jit(continuous_node_posterior_update_ehgf)/jit(posterior_update_precision_continuous_node)/jit(precision_update_missing_values)/neg" source_file="/fs04/fc37/adam/projects/psilocybin-prl-analyses/src/prl_hgf/fitting/hierarchical_patrl.py" source_line=362}
  param_2.802 = f64[192,2,48]{2,1,0} parameter(2)
  dynamic-slice.1278.7 = f64[1,2,48]{2,1,0} dynamic-slice(param_2.802, select.2973.27, constant_1980_26, constant_1980_26), dynamic_slice_sizes={1,2,48}, metadata={op_name="jit(scan)/jit(main)/while/body/jit(_one_step)/vmap(while)/body/while/body/transpose(jvp(vmap(while)))/body/dynamic_slice[slice_sizes=(1, 2, 48)]" source_file="/fs04/fc37/adam/projects/psilocybin-prl-analyses/src/prl_hgf/fitting/hierarchical_patrl.py" source_line=378}
  bitcast.11585.15 = f64[2,48]{1,0} bitcast(dynamic-slice.1278.7)
  multiply.2940.9 = f64[2,48]{1,0} multiply(negate.478.5, bitcast.11585.15), metadata={op_name="jit(scan)/jit(main)/while/body/jit(_one_step)/vmap(while)/body/while/body/transpose(jvp(vmap(while)))/body/jit(beliefs_propagation)/jit(continuous_node_posterior_update_ehgf)/jit(posterior_update_precision_continuous_node)/jit(precision_update_missing_values)/mul" source_file="/fs04/fc37/adam/projects/psilocybin-prl-analyses/src/prl_hgf/fitting/hierarchical_patrl.py" source_line=362}
  negate.479.7 = f64[2,48]{1,0} negate(multiply.2940.9), metadata={op_name="jit(scan)/jit(main)/while/body/jit(_one_step)/vmap(while)/body/while/body/transpose(jvp(vmap(while)))/body/jit(beliefs_propagation)/jit(continuous_node_posterior_update_ehgf)/jit(posterior_update_precision_continuous_node)/jit(precision_update_missing_values)/neg" source_file="/fs04/fc37/adam/projects/psilocybin-prl-analyses/src/prl_hgf/fitting/hierarchical_patrl.py" source_line=362}
  select.3013.5 = f64[2,48]{1,0} select(bitcast.11553.8, negate.479.7, broadcast.4024.clone.87), metadata={op_name="jit(scan)/jit(main)/while/body/jit(_one_step)/vmap(while)/body/while/body/transpose(jvp(vmap(while)))/body/jit(beliefs_propagation)/jit(continuous_node_posterior_update_ehgf)/jit(posterior_update_precision_continuous_node)/select_n" source_file="/fs04/fc37/adam/projects/psilocybin-prl-analyses/src/prl_hgf/fitting/hierarchical_patrl.py" source_line=362}
  param_1.1015 = f64[48]{0} parameter(1)
  broadcast.4026.39 = f64[2,48]{1,0} broadcast(param_1.1015), dimensions={1}, metadata={op_name="jit(scan)/jit(main)/while/body/jit(_one_step)/vmap(while)/body/while/body/transpose(jvp(vmap(while)))/body/jit(beliefs_propagation)/broadcast_in_dim[shape=(2, 48) broadcast_dimensions=(np.int64(1),)]" source_file="/fs04/fc37/adam/projects/psilocybin-prl-analyses/src/prl_hgf/fitting/hierarchical_patrl.py" source_line=362}
  add.4024.3 = f64[2,48]{1,0} add(select.3013.5, broadcast.4026.39), metadata={op_name="jit(scan)/jit(main)/while/body/jit(_one_step)/vmap(while)/body/while/body/transpose(jvp(vmap(while)))/body/jit(beliefs_propagation)/add_any" source_file="/fs04/fc37/adam/projects/psilocybin-prl-analyses/src/prl_hgf/fitting/hierarchical_patrl.py" source_line=362}
  param_18.156 = f64[2,48]{1,0} parameter(18)
  select.3014.9 = f64[2,48]{1,0} select(bitcast.10661.52, param_18.156, broadcast.4024.clone.87), metadata={op_name="jit(scan)/jit(main)/while/body/jit(_one_step)/vmap(while)/body/while/body/transpose(jvp(vmap(while)))/body/jit(_where)/select_n" source_file="/fs04/fc37/adam/projects/psilocybin-prl-analyses/src/prl_hgf/env/pat_rl_simulator.py" source_line=92}
  param_17.194 = pred[192,2,48]{2,1,0} parameter(17)
  dynamic-slice.1243.11 = pred[1,2,48]{2,1,0} dynamic-slice(param_17.194, select.2973.27, constant_1980_26, constant_1980_26), dynamic_slice_sizes={1,2,48}, metadata={op_name="jit(scan)/jit(main)/while/body/jit(_one_step)/vmap(while)/body/while/body/transpose(jvp(vmap(while)))/body/dynamic_slice[slice_sizes=(1, 2, 48)]" source_file="/fs04/fc37/adam/projects/psilocybin-prl-analyses/src/prl_hgf/fitting/hierarchical_patrl.py" source_line=378}
  bitcast.10789.23 = pred[2,48]{1,0} bitcast(dynamic-slice.1243.11)
  param_16.186 = pred[192,2,48]{2,1,0} parameter(16)
  dynamic-slice.1245.14 = pred[1,2,48]{2,1,0} dynamic-slice(param_16.186, select.2973.27, constant_1980_26, constant_1980_26), dynamic_slice_sizes={1,2,48}, metadata={op_name="jit(scan)/jit(main)/while/body/jit(_one_step)/vmap(while)/body/while/body/transpose(jvp(vmap(while)))/body/dynamic_slice[slice_sizes=(1, 2, 48)]" source_file="/fs04/fc37/adam/projects/psilocybin-prl-analyses/src/prl_hgf/fitting/hierarchical_patrl.py" source_line=378}
  bitcast.10807.17 = pred[2,48]{1,0} bitcast(dynamic-slice.1245.14)
  constant_1983_1 = s32[] constant(1)
  broadcast.4025.15 = s32[1,2,48]{2,1,0} broadcast(constant_1983_1), dimensions={}
  compare.1132.15 = pred[1,2,48]{2,1,0} compare(dynamic-slice.1246.12, broadcast.4025.15), direction=EQ, metadata={op_name="jit(scan)/jit(main)/while/body/jit(_one_step)/vmap(while)/body/while/body/transpose(jvp(vmap(while)))/body/jit(beliefs_propagation)/jit(continuous_node_posterior_update_ehgf)/jit(posterior_update_precision_continuous_node)/eq" source_file="/fs04/fc37/adam/projects/psilocybin-prl-analyses/src/prl_hgf/fitting/hierarchical_patrl.py" source_line=362}
  bitcast.10819.19 = pred[2,48]{1,0} bitcast(compare.1132.15)
  select.2984.19 = f64[2,48]{1,0} select(bitcast.10819.19, select.2983.19, broadcast.4024.clone.87), metadata={op_name="jit(scan)/jit(main)/while/body/jit(_one_step)/vmap(while)/body/while/body/transpose(jvp(vmap(while)))/body/jit(beliefs_propagation)/jit(continuous_node_posterior_update_ehgf)/jit(posterior_update_precision_continuous_node)/select_n" source_file="/fs04/fc37/adam/projects/psilocybin-prl-analyses/src/prl_hgf/fitting/hierarchical_patrl.py" source_line=362}
  select.2985.17 = f64[2,48]{1,0} select(bitcast.10807.17, select.2984.19, broadcast.4024.clone.87), metadata={op_name="jit(scan)/jit(main)/while/body/jit(_one_step)/vmap(while)/body/while/body/transpose(jvp(vmap(while)))/body/jit(beliefs_propagation)/jit(continuous_node_posterior_update_ehgf)/jit(posterior_update_precision_continuous_node)/jit(precision_update)/jit(_where)/select_n" source_file="/fs04/fc37/adam/projects/psilocybin-prl-analyses/src/prl_hgf/env/pat_rl_simulator.py" source_line=92}
  select.3015.11 = f64[2,48]{1,0} select(bitcast.10789.23, select.2985.17, broadcast.4024.clone.87), metadata={op_name="jit(scan)/jit(main)/while/body/jit(_one_step)/vmap(while)/body/while/body/transpose(jvp(vmap(while)))/body/jit(beliefs_propagation)/jit(continuous_node_posterior_update_ehgf)/jit(posterior_update_precision_continuous_node)/select_n" source_file="/fs04/fc37/adam/projects/psilocybin-prl-analyses/src/prl_hgf/fitting/hierarchical_patrl.py" source_line=362}
  param_15.154 = f64[192,2,48]{2,1,0} parameter(15)
  dynamic-slice.1279.9 = f64[1,2,48]{2,1,0} dynamic-slice(param_15.154, select.2973.27, constant_1980_26, constant_1980_26), dynamic_slice_sizes={1,2,48}, metadata={op_name="jit(scan)/jit(main)/while/body/jit(_one_step)/vmap(while)/body/while/body/transpose(jvp(vmap(while)))/body/dynamic_slice[slice_sizes=(1, 2, 48)]" source_file="/fs04/fc37/adam/projects/psilocybin-prl-analyses/src/prl_hgf/fitting/hierarchical_patrl.py" source_line=378}
  bitcast.11618.9 = f64[2,48]{1,0} bitcast(dynamic-slice.1279.9)
  param_14.144 = f64[2,48]{1,0} parameter(14)
  select.2987.21 = f64[2,48]{1,0} select(bitcast.10661.52, param_14.144, broadcast.4024.clone.87), metadata={op_name="jit(scan)/jit(main)/while/body/jit(_one_step)/vmap(while)/body/while/body/transpose(jvp(vmap(while)))/body/jit(_where)/select_n" source_file="/fs04/fc37/adam/projects/psilocybin-prl-analyses/src/prl_hgf/fitting/hierarchical_patrl.py" source_line=370}
  param_13.155 = f64[192,2,48]{2,1,0} parameter(13)
  dynamic-slice.1247.22 = f64[1,2,48]{2,1,0} dynamic-slice(param_13.155, select.2973.27, constant_1980_26, constant_1980_26), dynamic_slice_sizes={1,2,48}, metadata={op_name="jit(scan)/jit(main)/while/body/jit(_one_step)/vmap(while)/body/while/body/transpose(jvp(vmap(while)))/body/dynamic_slice[slice_sizes=(1, 2, 48)]" source_file="/fs04/fc37/adam/projects/psilocybin-prl-analyses/src/prl_hgf/fitting/hierarchical_patrl.py" source_line=378}
  bitcast.10839.22 = f64[2,48]{1,0} bitcast(dynamic-slice.1247.22)
  multiply.2899.15 = f64[2,48]{1,0} multiply(select.2987.21, bitcast.10839.22), metadata={op_name="jit(scan)/jit(main)/while/body/jit(_one_step)/vmap(while)/body/while/body/transpose(jvp(vmap(while)))/body/jit(beliefs_propagation)/jit(continuous_node_posterior_update_ehgf)/jit(posterior_update_mean_continuous_node)/mul" source_file="/fs04/fc37/adam/projects/psilocybin-prl-analyses/src/prl_hgf/fitting/hierarchical_patrl.py" source_line=362}
  multiply.2941.9 = f64[2,48]{1,0} multiply(bitcast.11618.9, multiply.2899.15), metadata={op_name="jit(scan)/jit(main)/while/body/jit(_one_step)/vmap(while)/body/while/body/transpose(jvp(vmap(while)))/body/jit(beliefs_propagation)/jit(continuous_node_posterior_update_ehgf)/jit(posterior_update_mean_continuous_node)/mul" source_file="/fs04/fc37/adam/projects/psilocybin-prl-analyses/src/prl_hgf/fitting/hierarchical_patrl.py" source_line=362}
  param_12.156 = f64[192,2,48]{2,1,0} parameter(12)
  dynamic-slice.1280.9 = f64[1,2,48]{2,1,0} dynamic-slice(param_12.156, select.2973.27, constant_1980_26, constant_1980_26), dynamic_slice_sizes={1,2,48}, metadata={op_name="jit(scan)/jit(main)/while/body/jit(_one_step)/vmap(while)/body/while/body/transpose(jvp(vmap(while)))/body/dynamic_slice[slice_sizes=(1, 2, 48)]" source_file="/fs04/fc37/adam/projects/psilocybin-prl-analyses/src/prl_hgf/fitting/hierarchical_patrl.py" source_line=378}
  bitcast.11630.11 = f64[2,48]{1,0} bitcast(dynamic-slice.1280.9)
  multiply.2942.11 = f64[2,48]{1,0} multiply(multiply.2941.9, bitcast.11630.11), metadata={op_name="jit(scan)/jit(main)/while/body/jit(_one_step)/vmap(while)/body/while/body/transpose(jvp(vmap(while)))/body/jit(beliefs_propagation)/jit(continuous_node_posterior_update_ehgf)/jit(posterior_update_mean_continuous_node)/mul" source_file="/fs04/fc37/adam/projects/psilocybin-prl-analyses/src/prl_hgf/fitting/hierarchical_patrl.py" source_line=362}
  negate.480.9 = f64[2,48]{1,0} negate(multiply.2942.11), metadata={op_name="jit(scan)/jit(main)/while/body/jit(_one_step)/vmap(while)/body/while/body/transpose(jvp(vmap(while)))/body/jit(beliefs_propagation)/jit(continuous_node_posterior_update_ehgf)/jit(posterior_update_mean_continuous_node)/neg" source_file="/fs04/fc37/adam/projects/psilocybin-prl-analyses/src/prl_hgf/fitting/hierarchical_patrl.py" source_line=362}
  constant_1986_1 = f64[] constant(2)
  broadcast.4030.9 = f64[2,48]{1,0} broadcast(constant_1986_1), dimensions={}
  multiply.2943.9 = f64[2,48]{1,0} multiply(negate.480.9, broadcast.4030.9), metadata={op_name="jit(scan)/jit(main)/while/body/jit(_one_step)/vmap(while)/body/while/body/transpose(jvp(vmap(while)))/body/jit(beliefs_propagation)/jit(continuous_node_posterior_update_ehgf)/jit(posterior_update_mean_continuous_node)/mul" source_file="/fs04/fc37/adam/projects/psilocybin-prl-analyses/src/prl_hgf/fitting/hierarchical_patrl.py" source_line=362}
  add.4025.9 = f64[2,48]{1,0} add(select.3015.11, multiply.2943.9), metadata={op_name="jit(scan)/jit(main)/while/body/jit(_one_step)/vmap(while)/body/while/body/transpose(jvp(vmap(while)))/body/jit(beliefs_propagation)/jit(continuous_node_posterior_update_ehgf)/add_any" source_file="/fs04/fc37/adam/projects/psilocybin-prl-analyses/src/prl_hgf/fitting/hierarchical_patrl.py" source_line=362}
  add.4026.7 = f64[2,48]{1,0} add(select.3014.9, add.4025.9), metadata={op_name="jit(scan)/jit(main)/while/body/jit(_one_step)/vmap(while)/body/while/body/transpose(jvp(vmap(while)))/body/jit(beliefs_propagation)/add_any" source_file="/fs04/fc37/adam/projects/psilocybin-prl-analyses/src/prl_hgf/fitting/hierarchical_patrl.py" source_line=362}
  add.4027.9 = f64[2,48]{1,0} add(add.4026.7, broadcast.4026.39), metadata={op_name="jit(scan)/jit(main)/while/body/jit(_one_step)/vmap(while)/body/while/body/transpose(jvp(vmap(while)))/body/jit(beliefs_propagation)/add_any" source_file="/fs04/fc37/adam/projects/psilocybin-prl-analyses/src/prl_hgf/fitting/hierarchical_patrl.py" source_line=362}
  param_11.180 = f64[192,2,48]{2,1,0} parameter(11)
  dynamic-slice.1281.9 = f64[1,2,48]{2,1,0} dynamic-slice(param_11.180, select.2973.27, constant_1980_26, constant_1980_26), dynamic_slice_sizes={1,2,48}, metadata={op_name="jit(scan)/jit(main)/while/body/jit(_one_step)/vmap(while)/body/while/body/transpose(jvp(vmap(while)))/body/dynamic_slice[slice_sizes=(1, 2, 48)]" source_file="/fs04/fc37/adam/projects/psilocybin-prl-analyses/src/prl_hgf/fitting/hierarchical_patrl.py" source_line=378}
  bitcast.11649.9 = f64[2,48]{1,0} bitcast(dynamic-slice.1281.9)
  param_10.234 = f64[2,48]{1,0} parameter(10)
  select.3016.11 = f64[2,48]{1,0} select(bitcast.10661.52, param_10.234, broadcast.4024.clone.87), metadata={op_name="jit(scan)/jit(main)/while/body/jit(_one_step)/vmap(while)/body/while/body/transpose(jvp(vmap(while)))/body/jit(_where)/select_n" source_file="/fs04/fc37/adam/projects/psilocybin-prl-analyses/src/prl_hgf/env/pat_rl_simulator.py" source_line=92}
  add.4028.9 = f64[2,48]{1,0} add(select.3016.11, broadcast.4026.39), metadata={op_name="jit(scan)/jit(main)/while/body/jit(_one_step)/vmap(while)/body/while/body/transpose(jvp(vmap(while)))/body/jit(beliefs_propagation)/add_any" source_file="/fs04/fc37/adam/projects/psilocybin-prl-analyses/src/prl_hgf/fitting/hierarchical_patrl.py" source_line=362}
  multiply.2944.9 = f64[2,48]{1,0} multiply(bitcast.11649.9, add.4028.9), metadata={op_name="jit(scan)/jit(main)/while/body/jit(_one_step)/vmap(while)/body/while/body/transpose(jvp(vmap(while)))/body/jit(beliefs_propagation)/jit(continuous_node_prediction)/jit(predict_precision)/mul" source_file="/fs04/fc37/adam/projects/psilocybin-prl-analyses/src/prl_hgf/fitting/hierarchical_patrl.py" source_line=362}
  add.4029.7 = f64[2,48]{1,0} add(add.4027.9, multiply.2944.9), metadata={op_name="jit(scan)/jit(main)/while/body/jit(_one_step)/vmap(while)/body/while/body/transpose(jvp(vmap(while)))/body/jit(beliefs_propagation)/jit(continuous_node_prediction)/jit(predict_precision)/add_any" source_file="/fs04/fc37/adam/projects/psilocybin-prl-analyses/src/prl_hgf/fitting/hierarchical_patrl.py" source_line=362}
  param_9.251 = f64[192,2,48]{2,1,0} parameter(9)
  dynamic-slice.1282.5 = f64[1,2,48]{2,1,0} dynamic-slice(param_9.251, select.2973.27, constant_1980_26, constant_1980_26), dynamic_slice_sizes={1,2,48}, metadata={op_name="jit(scan)/jit(main)/while/body/jit(_one_step)/vmap(while)/body/while/body/transpose(jvp(vmap(while)))/body/dynamic_slice[slice_sizes=(1, 2, 48)]" source_file="/fs04/fc37/adam/projects/psilocybin-prl-analyses/src/prl_hgf/fitting/hierarchical_patrl.py" source_line=378}
  bitcast.11672.7 = f64[2,48]{1,0} bitcast(dynamic-slice.1282.5)
  multiply.2945.7 = f64[2,48]{1,0} multiply(add.4029.7, bitcast.11672.7), metadata={op_name="jit(scan)/jit(main)/while/body/jit(_one_step)/vmap(while)/body/while/body/transpose(jvp(vmap(while)))/body/jit(beliefs_propagation)/jit(continuous_node_prediction)/jit(predict_precision)/mul" source_file="/fs04/fc37/adam/projects/psilocybin-prl-analyses/src/prl_hgf/fitting/hierarchical_patrl.py" source_line=362}
  negate.481.5 = f64[2,48]{1,0} negate(multiply.2945.7), metadata={op_name="jit(scan)/jit(main)/while/body/jit(_one_step)/vmap(while)/body/while/body/transpose(jvp(vmap(while)))/body/jit(beliefs_propagation)/jit(continuous_node_prediction)/jit(predict_precision)/neg" source_file="/fs04/fc37/adam/projects/psilocybin-prl-analyses/src/prl_hgf/fitting/hierarchical_patrl.py" source_line=362}
  multiply.2946.5 = f64[2,48]{1,0} multiply(negate.481.5, bitcast.11585.15), metadata={op_name="jit(scan)/jit(main)/while/body/jit(_one_step)/vmap(while)/body/while/body/transpose(jvp(vmap(while)))/body/jit(beliefs_propagation)/jit(continuous_node_prediction)/jit(predict_precision)/mul" source_file="/fs04/fc37/adam/projects/psilocybin-prl-analyses/src/prl_hgf/fitting/hierarchical_patrl.py" source_line=362}
  negate.482.3 = f64[2,48]{1,0} negate(multiply.2946.5), metadata={op_name="jit(scan)/jit(main)/while/body/jit(_one_step)/vmap(while)/body/while/body/transpose(jvp(vmap(while)))/body/jit(beliefs_propagation)/jit(continuous_node_prediction)/jit(predict_precision)/neg" source_file="/fs04/fc37/adam/projects/psilocybin-prl-analyses/src/prl_hgf/fitting/hierarchical_patrl.py" source_line=362}
  param_4.512 = f64[2,48]{1,0} parameter(4)
  select.3017.7 = f64[2,48]{1,0} select(bitcast.10661.52, param_4.512, broadcast.4024.clone.87), metadata={op_name="jit(scan)/jit(main)/while/body/jit(_one_step)/vmap(while)/body/while/body/transpose(jvp(vmap(while)))/body/jit(_where)/select_n" source_file="/fs04/fc37/adam/projects/psilocybin-prl-analyses/src/prl_hgf/fitting/hierarchical_patrl.py" source_line=370}
  add.4031.5 = f64[2,48]{1,0} add(select.3017.7, broadcast.4026.39), metadata={op_name="jit(scan)/jit(main)/while/body/jit(_one_step)/vmap(while)/body/while/body/transpose(jvp(vmap(while)))/body/jit(beliefs_propagation)/add_any" source_file="/fs04/fc37/adam/projects/psilocybin-prl-analyses/src/prl_hgf/fitting/hierarchical_patrl.py" source_line=362}
  multiply.2947.5 = f64[2,48]{1,0} multiply(add.4031.5, bitcast.11585.15), metadata={op_name="jit(scan)/jit(main)/while/body/jit(_one_step)/vmap(while)/body/while/body/transpose(jvp(vmap(while)))/body/jit(beliefs_propagation)/jit(continuous_node_prediction)/mul" source_file="/fs04/fc37/adam/projects/psilocybin-prl-analyses/src/prl_hgf/fitting/hierarchical_patrl.py" source_line=362}
  negate.483.3 = f64[2,48]{1,0} negate(multiply.2947.5), metadata={op_name="jit(scan)/jit(main)/while/body/jit(_one_step)/vmap(while)/body/while/body/transpose(jvp(vmap(while)))/body/jit(beliefs_propagation)/jit(continuous_node_prediction)/neg" source_file="/fs04/fc37/adam/projects/psilocybin-prl-analyses/src/prl_hgf/fitting/hierarchical_patrl.py" source_line=362}
  add.4032.1 = f64[2,48]{1,0} add(negate.482.3, negate.483.3), metadata={op_name="jit(scan)/jit(main)/while/body/jit(_one_step)/vmap(while)/body/while/body/transpose(jvp(vmap(while)))/body/jit(beliefs_propagation)/jit(continuous_node_prediction)/add_any" source_file="/fs04/fc37/adam/projects/psilocybin-prl-analyses/src/prl_hgf/fitting/hierarchical_patrl.py" source_line=362}
  add.4033.1 = f64[2,48]{1,0} add(add.4024.3, add.4032.1), metadata={op_name="jit(scan)/jit(main)/while/body/jit(_one_step)/vmap(while)/body/while/body/transpose(jvp(vmap(while)))/body/jit(beliefs_propagation)/add_any" source_file="/fs04/fc37/adam/projects/psilocybin-prl-analyses/src/prl_hgf/fitting/hierarchical_patrl.py" source_line=362}
  add.4034.1 = f64[2,48]{1,0} add(select.3011.3, add.4033.1), metadata={op_name="jit(scan)/jit(main)/while/body/jit(_one_step)/vmap(while)/body/while/body/transpose(jvp(vmap(while)))/body/add_any" source_file="/fs04/fc37/adam/projects/psilocybin-prl-analyses/src/prl_hgf/fitting/hierarchical_patrl.py" source_line=362}
  param_23.929 = f64[2,48]{1,0} parameter(23)
  select.3020.5.clone.1 = f64[2,48]{1,0} select(bitcast.10661.52, param_23.929, broadcast.4024.clone.87), metadata={op_name="jit(scan)/jit(main)/while/body/jit(_one_step)/vmap(while)/body/while/body/transpose(jvp(vmap(while)))/body/jit(_where)/select_n" source_file="/fs04/fc37/adam/projects/psilocybin-prl-analyses/src/prl_hgf/fitting/hierarchical_patrl.py" source_line=370}
  select.3021.5.clone.1 = f64[2,48]{1,0} select(bitcast.10661.52, broadcast.4024.clone.87, param_23.929), metadata={op_name="jit(scan)/jit(main)/while/body/jit(_one_step)/vmap(while)/body/while/body/transpose(jvp(vmap(while)))/body/jit(_where)/select_n" source_file="/fs04/fc37/adam/projects/psilocybin-prl-analyses/src/prl_hgf/fitting/hierarchical_patrl.py" source_line=370}
  add.4036.3.clone.1 = f64[2,48]{1,0} add(select.3020.5.clone.1, select.3021.5.clone.1), metadata={op_name="jit(scan)/jit(main)/while/body/jit(_one_step)/vmap(while)/body/while/body/transpose(jvp(vmap(while)))/body/add_any" source_file="/fs04/fc37/adam/projects/psilocybin-prl-analyses/src/prl_hgf/fitting/hierarchical_patrl.py" source_line=370}
  param_22.1100 = f64[192,2,48]{2,1,0} parameter(22)
  dynamic-slice.1283.5.clone.1 = f64[1,2,48]{2,1,0} dynamic-slice(param_22.1100, select.2973.27, constant_1980_26, constant_1980_26), dynamic_slice_sizes={1,2,48}, metadata={op_name="jit(scan)/jit(main)/while/body/jit(_one_step)/vmap(while)/body/while/body/transpose(jvp(vmap(while)))/body/dynamic_slice[slice_sizes=(1, 2, 48)]" source_file="/fs04/fc37/adam/projects/psilocybin-prl-analyses/src/prl_hgf/fitting/hierarchical_patrl.py" source_line=378}
  bitcast.11751.7.clone.1 = f64[2,48]{1,0} bitcast(dynamic-slice.1283.5.clone.1)
  multiply.2948.7.clone.1 = f64[2,48]{1,0} multiply(bitcast.11751.7.clone.1, negate.478.5), metadata={op_name="jit(scan)/jit(main)/while/body/jit(_one_step)/vmap(while)/body/while/body/transpose(jvp(vmap(while)))/body/jit(beliefs_propagation)/jit(continuous_node_posterior_update_ehgf)/jit(posterior_update_precision_continuous_node)/jit(precision_update_missing_values)/mul" source_file="/fs04/fc37/adam/projects/psilocybin-prl-analyses/src/prl_hgf/fitting/hierarchical_patrl.py" source_line=362}
  param_21.1378 = f64[192,2,48]{2,1,0} parameter(21)
  dynamic-slice.1284.8.clone.1 = f64[1,2,48]{2,1,0} dynamic-slice(param_21.1378, select.2973.27, constant_1980_26, constant_1980_26), dynamic_slice_sizes={1,2,48}, metadata={op_name="jit(scan)/jit(main)/while/body/jit(_one_step)/vmap(while)/body/while/body/transpose(jvp(vmap(while)))/body/dynamic_slice[slice_sizes=(1, 2, 48)]" source_file="/fs04/fc37/adam/projects/psilocybin-prl-analyses/src/prl_hgf/fitting/hierarchical_patrl.py" source_line=378}
  bitcast.11763.12.clone.1 = f64[2,48]{1,0} bitcast(dynamic-slice.1284.8.clone.1)
  multiply.2949.7.clone.1 = f64[2,48]{1,0} multiply(multiply.2948.7.clone.1, bitcast.11763.12.clone.1), metadata={op_name="jit(scan)/jit(main)/while/body/jit(_one_step)/vmap(while)/body/while/body/transpose(jvp(vmap(while)))/body/jit(beliefs_propagation)/jit(continuous_node_posterior_update_ehgf)/jit(posterior_update_precision_continuous_node)/jit(precision_update_missing_values)/mul" source_file="/fs04/fc37/adam/projects/psilocybin-prl-analyses/src/prl_hgf/fitting/hierarchical_patrl.py" source_line=362}
  select.3022.5.clone.1 = f64[2,48]{1,0} select(bitcast.11553.8, multiply.2949.7.clone.1, broadcast.4024.clone.87), metadata={op_name="jit(scan)/jit(main)/while/body/jit(_one_step)/vmap(while)/body/while/body/transpose(jvp(vmap(while)))/body/jit(beliefs_propagation)/jit(continuous_node_posterior_update_ehgf)/jit(posterior_update_precision_continuous_node)/select_n" source_file="/fs04/fc37/adam/projects/psilocybin-prl-analyses/src/prl_hgf/fitting/hierarchical_patrl.py" source_line=362}
  add.4037.3.clone.1 = f64[2,48]{1,0} add(select.3022.5.clone.1, broadcast.4026.39), metadata={op_name="jit(scan)/jit(main)/while/body/jit(_one_step)/vmap(while)/body/while/body/transpose(jvp(vmap(while)))/body/jit(beliefs_propagation)/add_any" source_file="/fs04/fc37/adam/projects/psilocybin-prl-analyses/src/prl_hgf/fitting/hierarchical_patrl.py" source_line=362}
  param_20.1643 = pred[192,2,48]{2,1,0} parameter(20)
  dynamic-slice.1285.3.clone.1 = pred[1,2,48]{2,1,0} dynamic-slice(param_20.1643, select.2973.27, constant_1980_26, constant_1980_26), dynamic_slice_sizes={1,2,48}, metadata={op_name="jit(scan)/jit(main)/while/body/jit(_one_step)/vmap(while)/body/while/body/transpose(jvp(vmap(while)))/body/dynamic_slice[slice_sizes=(1, 2, 48)]" source_file="/fs04/fc37/adam/projects/psilocybin-prl-analyses/src/prl_hgf/fitting/hierarchical_patrl.py" source_line=378}
  bitcast.11779.7.clone.1 = pred[2,48]{1,0} bitcast(dynamic-slice.1285.3.clone.1)
  param_19.1610 = f64[192,2,48]{2,1,0} parameter(19)
  dynamic-slice.1286.5.clone.1 = f64[1,2,48]{2,1,0} dynamic-slice(param_19.1610, select.2973.27, constant_1980_26, constant_1980_26), dynamic_slice_sizes={1,2,48}, metadata={op_name="jit(scan)/jit(main)/while/body/jit(_one_step)/vmap(while)/body/while/body/transpose(jvp(vmap(while)))/body/dynamic_slice[slice_sizes=(1, 2, 48)]" source_file="/fs04/fc37/adam/projects/psilocybin-prl-analyses/src/prl_hgf/fitting/hierarchical_patrl.py" source_line=378}
  bitcast.11792.5.clone.1 = f64[2,48]{1,0} bitcast(dynamic-slice.1286.5.clone.1)
  multiply.2950.5.clone.1 = f64[2,48]{1,0} multiply(add.4028.9, bitcast.11792.5.clone.1), metadata={op_name="jit(scan)/jit(main)/while/body/jit(_one_step)/vmap(while)/body/while/body/transpose(jvp(vmap(while)))/body/jit(beliefs_propagation)/jit(continuous_node_prediction)/jit(predict_precision)/mul" source_file="/fs04/fc37/adam/projects/psilocybin-prl-analyses/src/prl_hgf/fitting/hierarchical_patrl.py" source_line=362}
  add.4038.3.clone.1 = f64[2,48]{1,0} add(negate.481.5, multiply.2950.5.clone.1), metadata={op_name="jit(scan)/jit(main)/while/body/jit(_one_step)/vmap(while)/body/while/body/transpose(jvp(vmap(while)))/body/jit(beliefs_propagation)/jit(continuous_node_prediction)/jit(predict_precision)/add_any" source_file="/fs04/fc37/adam/projects/psilocybin-prl-analyses/src/prl_hgf/fitting/hierarchical_patrl.py" source_line=362}
  select.3023.7.clone.1 = f64[2,48]{1,0} select(bitcast.11779.7.clone.1, add.4038.3.clone.1, broadcast.4024.clone.87), metadata={op_name="jit(scan)/jit(main)/while/body/jit(_one_step)/vmap(while)/body/while/body/transpose(jvp(vmap(while)))/body/jit(beliefs_propagation)/jit(continuous_node_posterior_update_ehgf)/jit(posterior_update_precision_continuous_node)/jit(precision_update)/jit(_where)/select_n" source_file="/fs04/fc37/adam/projects/psilocybin-prl-analyses/src/prl_hgf/env/pat_rl_simulator.py" source_line=92}
  multiply.2951.5.clone.1 = f64[2,48]{1,0} multiply(select.3023.7.clone.1, bitcast.11763.12.clone.1), metadata={op_name="jit(scan)/jit(main)/while/body/jit(_one_step)/vmap(while)/body/while/body/transpose(jvp(vmap(while)))/body/jit(beliefs_propagation)/jit(continuous_node_prediction)/jit(predict_precision)/mul" source_file="/fs04/fc37/adam/projects/psilocybin-prl-analyses/src/prl_hgf/fitting/hierarchical_patrl.py" source_line=362}
  add.4039.3.clone.1 = f64[2,48]{1,0} add(add.4037.3.clone.1, multiply.2951.5.clone.1), metadata={op_name="jit(scan)/jit(main)/while/body/jit(_one_step)/vmap(while)/body/while/body/transpose(jvp(vmap(while)))/body/jit(beliefs_propagation)/add_any" source_file="/fs04/fc37/adam/projects/psilocybin-prl-analyses/src/prl_hgf/fitting/hierarchical_patrl.py" source_line=362}
  add.4041.1.clone.1 = f64[2,48]{1,0} add(add.4036.3.clone.1, add.4039.3.clone.1), metadata={op_name="jit(scan)/jit(main)/while/body/jit(_one_step)/vmap(while)/body/while/body/transpose(jvp(vmap(while)))/body/add_any" source_file="/fs04/fc37/adam/projects/psilocybin-prl-analyses/src/prl_hgf/fitting/hierarchical_patrl.py" source_line=362}
  select.3019.1.clone.1 = f64[2,48]{1,0} select(bitcast.10661.52, broadcast.4024.clone.87, param_10.234), metadata={op_name="jit(scan)/jit(main)/while/body/jit(_one_step)/vmap(while)/body/while/body/transpose(jvp(vmap(while)))/body/jit(_where)/select_n" source_file="/fs04/fc37/adam/projects/psilocybin-prl-analyses/src/prl_hgf/env/pat_rl_simulator.py" source_line=92}
  select.3018.1.clone.1 = f64[2,48]{1,0} select(bitcast.10661.52, broadcast.4024.clone.87, param_4.512), metadata={op_name="jit(scan)/jit(main)/while/body/jit(_one_step)/vmap(while)/body/while/body/transpose(jvp(vmap(while)))/body/jit(_where)/select_n" source_file="/fs04/fc37/adam/projects/psilocybin-prl-analyses/src/prl_hgf/fitting/hierarchical_patrl.py" source_line=370}
  select.3008.1.clone.1 = f64[2,48]{1,0} select(bitcast.10661.52, broadcast.4024.clone.87, param_18.156), metadata={op_name="jit(scan)/jit(main)/while/body/jit(_one_step)/vmap(while)/body/while/body/transpose(jvp(vmap(while)))/body/jit(_where)/select_n" source_file="/fs04/fc37/adam/projects/psilocybin-prl-analyses/src/prl_hgf/env/pat_rl_simulator.py" source_line=92}
  param_49.140 = f64[2,48]{1,0} parameter(49)
  param_50.132 = f64[192,2,48]{2,1,0} parameter(50)
  dynamic-slice.1238.5.clone.1.clone.1 = f64[1,2,48]{2,1,0} dynamic-slice(param_50.132, select.2973.27, constant_1980_26, constant_1980_26), dynamic_slice_sizes={1,2,48}, metadata={op_name="jit(scan)/jit(main)/while/body/jit(_one_step)/vmap(while)/body/while/body/transpose(jvp(vmap(while)))/body/dynamic_slice[slice_sizes=(1, 2, 48)]" source_file="/fs04/fc37/adam/projects/psilocybin-prl-analyses/src/prl_hgf/fitting/hierarchical_patrl.py" source_line=378}
  bitcast.10728.5.clone.1.clone.1 = f64[2,48]{1,0} bitcast(dynamic-slice.1238.5.clone.1.clone.1)
  add.3975.5.clone.1.clone.1 = f64[2,48]{1,0} add(param_49.140, bitcast.10728.5.clone.1.clone.1), metadata={op_name="jit(scan)/jit(main)/while/body/jit(_one_step)/vmap(while)/body/while/body/transpose(jvp(vmap(while)))/body/add_any" source_file="/fs04/fc37/adam/projects/psilocybin-prl-analyses/src/prl_hgf/fitting/hierarchical_patrl.py" source_line=378}
  select.2980.3.clone.1.clone.1 = f64[2,48]{1,0} select(bitcast.10661.52, broadcast.4024.clone.87, add.3975.5.clone.1.clone.1), metadata={op_name="jit(scan)/jit(main)/while/body/jit(_one_step)/vmap(while)/body/while/body/transpose(jvp(vmap(while)))/body/jit(_where)/select_n" source_file="/fs04/fc37/adam/projects/psilocybin-prl-analyses/src/prl_hgf/env/pat_rl_simulator.py" source_line=92}
  param_48.138 = f64[192,2,48]{2,1,0} parameter(48)
  dynamic-slice.1257.6.clone.1.clone.1 = f64[1,2,48]{2,1,0} dynamic-slice(param_48.138, select.2973.27, constant_1980_26, constant_1980_26), dynamic_slice_sizes={1,2,48}, metadata={op_name="jit(scan)/jit(main)/while/body/jit(_one_step)/vmap(while)/body/while/body/transpose(jvp(vmap(while)))/body/dynamic_slice[slice_sizes=(1, 2, 48)]" source_file="/fs04/fc37/adam/projects/psilocybin-prl-analyses/src/prl_hgf/fitting/hierarchical_patrl.py" source_line=378}
  bitcast.11005.6.clone.1.clone.1 = f64[2,48]{1,0} bitcast(dynamic-slice.1257.6.clone.1.clone.1)
  param_47.155 = f64[2,48]{1,0} parameter(47)
  select.2990.9.clone.1.clone.1 = f64[2,48]{1,0} select(bitcast.10661.52, param_47.155, broadcast.4024.clone.87), metadata={op_name="jit(scan)/jit(main)/while/body/jit(_one_step)/vmap(while)/body/while/body/transpose(jvp(vmap(while)))/body/jit(_where)/select_n" source_file="/fs04/fc37/adam/projects/psilocybin-prl-analyses/src/prl_hgf/env/pat_rl_simulator.py" source_line=92}
  param_46.155 = f64[2,48]{1,0} parameter(46)
  select.2989.5.clone.1.clone.1 = f64[2,48]{1,0} select(bitcast.10661.52, param_46.155, broadcast.4024.clone.87), metadata={op_name="jit(scan)/jit(main)/while/body/jit(_one_step)/vmap(while)/body/while/body/transpose(jvp(vmap(while)))/body/jit(_where)/select_n" source_file="/fs04/fc37/adam/projects/psilocybin-prl-analyses/src/prl_hgf/env/pat_rl_simulator.py" source_line=92}
  param_45.168 = f64[192,2,48]{2,1,0} parameter(45)
  dynamic-slice.1252.11.clone.1.clone.1 = f64[1,2,48]{2,1,0} dynamic-slice(param_45.168, select.2973.27, constant_1980_26, constant_1980_26), dynamic_slice_sizes={1,2,48}, metadata={op_name="jit(scan)/jit(main)/while/body/jit(_one_step)/vmap(while)/body/while/body/transpose(jvp(vmap(while)))/body/dynamic_slice[slice_sizes=(1, 2, 48)]" source_file="/fs04/fc37/adam/projects/psilocybin-prl-analyses/src/prl_hgf/fitting/hierarchical_patrl.py" source_line=378}
  bitcast.10911.13.clone.1.clone.1 = f64[2,48]{1,0} bitcast(dynamic-slice.1252.11.clone.1.clone.1)
  param_44.172 = f64[2,48]{1,0} parameter(44)
  select.2982.5.clone.1.clone.1 = f64[2,48]{1,0} select(bitcast.10661.52, param_44.172, broadcast.4024.clone.87), metadata={op_name="jit(scan)/jit(main)/while/body/jit(_one_step)/vmap(while)/body/while/body/transpose(jvp(vmap(while)))/body/jit(_where)/select_n" source_file="/fs04/fc37/adam/projects/psilocybin-prl-analyses/src/prl_hgf/env/pat_rl_simulator.py" source_line=92}
  param_43.177 = f64[192,2,48]{2,1,0} parameter(43)
  dynamic-slice.1244.7.clone.1.clone.1 = f64[1,2,48]{2,1,0} dynamic-slice(param_43.177, select.2973.27, constant_1980_26, constant_1980_26), dynamic_slice_sizes={1,2,48}, metadata={op_name="jit(scan)/jit(main)/while/body/jit(_one_step)/vmap(while)/body/while/body/transpose(jvp(vmap(while)))/body/dynamic_slice[slice_sizes=(1, 2, 48)]" source_file="/fs04/fc37/adam/projects/psilocybin-prl-analyses/src/prl_hgf/fitting/hierarchical_patrl.py" source_line=378}
  bitcast.10798.7.clone.1.clone.1 = f64[2,48]{1,0} bitcast(dynamic-slice.1244.7.clone.1.clone.1)
  multiply.2896.9.clone.1.clone.1 = f64[2,48]{1,0} multiply(select.2985.17, bitcast.10839.22), metadata={op_name="jit(scan)/jit(main)/while/body/jit(_one_step)/vmap(while)/body/while/body/transpose(jvp(vmap(while)))/body/jit(beliefs_propagation)/jit(continuous_node_posterior_update_ehgf)/jit(posterior_update_precision_continuous_node)/jit(precision_update)/mul" source_file="/fs04/fc37/adam/projects/psilocybin-prl-analyses/src/prl_hgf/fitting/hierarchical_patrl.py" source_line=362}
  negate.468.12.clone.1.clone.1 = f64[2,48]{1,0} negate(multiply.2896.9.clone.1.clone.1), metadata={op_name="jit(scan)/jit(main)/while/body/jit(_one_step)/vmap(while)/body/while/body/transpose(jvp(vmap(while)))/body/jit(beliefs_propagation)/jit(continuous_node_posterior_update_ehgf)/jit(posterior_update_precision_continuous_node)/jit(precision_update)/neg" source_file="/fs04/fc37/adam/projects/psilocybin-prl-analyses/src/prl_hgf/fitting/hierarchical_patrl.py" source_line=362}
  multiply.2897.7.clone.1.clone.1 = f64[2,48]{1,0} multiply(bitcast.10798.7.clone.1.clone.1, negate.468.12.clone.1.clone.1), metadata={op_name="jit(scan)/jit(main)/while/body/jit(_one_step)/vmap(while)/body/while/body/transpose(jvp(vmap(while)))/body/jit(beliefs_propagation)/jit(continuous_node_posterior_update_ehgf)/jit(posterior_update_precision_continuous_node)/jit(precision_update)/mul" source_file="/fs04/fc37/adam/projects/psilocybin-prl-analyses/src/prl_hgf/fitting/hierarchical_patrl.py" source_line=362}
  param_42.197 = f64[192,2,48]{2,1,0} parameter(42)
  dynamic-slice.1248.7.clone.1.clone.1 = f64[1,2,48]{2,1,0} dynamic-slice(param_42.197, select.2973.27, constant_1980_26, constant_1980_26), dynamic_slice_sizes={1,2,48}, metadata={op_name="jit(scan)/jit(main)/while/body/jit(_one_step)/vmap(while)/body/while/body/transpose(jvp(vmap(while)))/body/dynamic_slice[slice_sizes=(1, 2, 48)]" source_file="/fs04/fc37/adam/projects/psilocybin-prl-analyses/src/prl_hgf/fitting/hierarchical_patrl.py" source_line=378}
  bitcast.10851.7.clone.1.clone.1 = f64[2,48]{1,0} bitcast(dynamic-slice.1248.7.clone.1.clone.1)
  multiply.2898.7.clone.1.clone.1 = f64[2,48]{1,0} multiply(bitcast.10851.7.clone.1.clone.1, multiply.2896.9.clone.1.clone.1), metadata={op_name="jit(scan)/jit(main)/while/body/jit(_one_step)/vmap(while)/body/while/body/transpose(jvp(vmap(while)))/body/jit(beliefs_propagation)/jit(continuous_node_posterior_update_ehgf)/jit(posterior_update_precision_continuous_node)/jit(precision_update)/mul" source_file="/fs04/fc37/adam/projects/psilocybin-prl-analyses/src/prl_hgf/fitting/hierarchical_patrl.py" source_line=362}
  add.3976.5.clone.1.clone.1 = f64[2,48]{1,0} add(multiply.2897.7.clone.1.clone.1, multiply.2898.7.clone.1.clone.1), metadata={op_name="jit(scan)/jit(main)/while/body/jit(_one_step)/vmap(while)/body/while/body/transpose(jvp(vmap(while)))/body/jit(beliefs_propagation)/jit(continuous_node_posterior_update_ehgf)/jit(posterior_update_precision_continuous_node)/jit(precision_update)/add_any" source_file="/fs04/fc37/adam/projects/psilocybin-prl-analyses/src/prl_hgf/fitting/hierarchical_patrl.py" source_line=362}
  select.2986.7.clone.1.clone.1 = f64[2,48]{1,0} select(bitcast.10789.23, add.3976.5.clone.1.clone.1, broadcast.4024.clone.87), metadata={op_name="jit(scan)/jit(main)/while/body/jit(_one_step)/vmap(while)/body/while/body/transpose(jvp(vmap(while)))/body/jit(beliefs_propagation)/jit(continuous_node_posterior_update_ehgf)/jit(posterior_update_precision_continuous_node)/select_n" source_file="/fs04/fc37/adam/projects/psilocybin-prl-analyses/src/prl_hgf/fitting/hierarchical_patrl.py" source_line=362}
  param_41.195 = f64[192,2,48]{2,1,0} parameter(41)
  dynamic-slice.1249.5.clone.1.clone.1 = f64[1,2,48]{2,1,0} dynamic-slice(param_41.195, select.2973.27, constant_1980_26, constant_1980_26), dynamic_slice_sizes={1,2,48}, metadata={op_name="jit(scan)/jit(main)/while/body/jit(_one_step)/vmap(while)/body/while/body/transpose(jvp(vmap(while)))/body/dynamic_slice[slice_sizes=(1, 2, 48)]" source_file="/fs04/fc37/adam/projects/psilocybin-prl-analyses/src/prl_hgf/fitting/hierarchical_patrl.py" source_line=378}
  bitcast.10865.5.clone.1.clone.1 = f64[2,48]{1,0} bitcast(dynamic-slice.1249.5.clone.1.clone.1)
  param_40.205 = f64[192,2,48]{2,1,0} parameter(40)
  dynamic-slice.1250.9.clone.1.clone.1 = f64[1,2,48]{2,1,0} dynamic-slice(param_40.205, select.2973.27, constant_1980_26, constant_1980_26), dynamic_slice_sizes={1,2,48}, metadata={op_name="jit(scan)/jit(main)/while/body/jit(_one_step)/vmap(while)/body/while/body/transpose(jvp(vmap(while)))/body/dynamic_slice[slice_sizes=(1, 2, 48)]" source_file="/fs04/fc37/adam/projects/psilocybin-prl-analyses/src/prl_hgf/fitting/hierarchical_patrl.py" source_line=378}
  bitcast.10888.9.clone.1.clone.1 = f64[2,48]{1,0} bitcast(dynamic-slice.1250.9.clone.1.clone.1)
  multiply.2900.9.clone.1.clone.1 = f64[2,48]{1,0} multiply(multiply.2899.15, bitcast.10888.9.clone.1.clone.1), metadata={op_name="jit(scan)/jit(main)/while/body/jit(_one_step)/vmap(while)/body/while/body/transpose(jvp(vmap(while)))/body/jit(beliefs_propagation)/jit(continuous_node_posterior_update_ehgf)/jit(posterior_update_mean_continuous_node)/mul" source_file="/fs04/fc37/adam/projects/psilocybin-prl-analyses/src/prl_hgf/fitting/hierarchical_patrl.py" source_line=362}
  multiply.2901.5.clone.1.clone.1 = f64[2,48]{1,0} multiply(bitcast.10865.5.clone.1.clone.1, multiply.2900.9.clone.1.clone.1), metadata={op_name="jit(scan)/jit(main)/while/body/jit(_one_step)/vmap(while)/body/while/body/transpose(jvp(vmap(while)))/body/jit(beliefs_propagation)/jit(continuous_node_posterior_update_ehgf)/jit(posterior_update_mean_continuous_node)/mul" source_file="/fs04/fc37/adam/projects/psilocybin-prl-analyses/src/prl_hgf/fitting/hierarchical_patrl.py" source_line=362}
  add.3977.5.clone.1.clone.1 = f64[2,48]{1,0} add(select.2986.7.clone.1.clone.1, multiply.2901.5.clone.1.clone.1), metadata={op_name="jit(scan)/jit(main)/while/body/jit(_one_step)/vmap(while)/body/while/body/transpose(jvp(vmap(while)))/body/jit(beliefs_propagation)/jit(continuous_node_posterior_update_ehgf)/add_any" source_file="/fs04/fc37/adam/projects/psilocybin-prl-analyses/src/prl_hgf/fitting/hierarchical_patrl.py" source_line=362}
  add.3978.3.clone.1.clone.1 = f64[2,48]{1,0} add(select.2982.5.clone.1.clone.1, add.3977.5.clone.1.clone.1), metadata={op_name="jit(scan)/jit(main)/while/body/jit(_one_step)/vmap(while)/body/while/body/transpose(jvp(vmap(while)))/body/jit(beliefs_propagation)/add_any" source_file="/fs04/fc37/adam/projects/psilocybin-prl-analyses/src/prl_hgf/fitting/hierarchical_patrl.py" source_line=362}
  multiply.2904.5.clone.1.clone.1 = f64[2,48]{1,0} multiply(bitcast.10911.13.clone.1.clone.1, add.3978.3.clone.1.clone.1), metadata={op_name="jit(scan)/jit(main)/while/body/jit(_one_step)/vmap(while)/body/while/body/transpose(jvp(vmap(while)))/body/jit(beliefs_propagation)/jit(continuous_node_prediction_error)/jit(continuous_node_volatility_prediction_error)/mul" source_file="/fs04/fc37/adam/projects/psilocybin-prl-analyses/src/prl_hgf/fitting/hierarchical_patrl.py" source_line=362}
  param_39.206 = f64[192,2,48]{2,1,0} parameter(39)
  dynamic-slice.1253.3.clone.1.clone.1 = f64[1,2,48]{2,1,0} dynamic-slice(param_39.206, select.2973.27, constant_1980_26, constant_1980_26), dynamic_slice_sizes={1,2,48}, metadata={op_name="jit(scan)/jit(main)/while/body/jit(_one_step)/vmap(while)/body/while/body/transpose(jvp(vmap(while)))/body/dynamic_slice[slice_sizes=(1, 2, 48)]" source_file="/fs04/fc37/adam/projects/psilocybin-prl-analyses/src/prl_hgf/fitting/hierarchical_patrl.py" source_line=378}
  bitcast.10948.5.clone.1.clone.1 = f64[2,48]{1,0} bitcast(dynamic-slice.1253.3.clone.1.clone.1)
  multiply.2905.5.clone.1.clone.1 = f64[2,48]{1,0} multiply(multiply.2904.5.clone.1.clone.1, bitcast.10948.5.clone.1.clone.1), metadata={op_name="jit(scan)/jit(main)/while/body/jit(_one_step)/vmap(while)/body/while/body/transpose(jvp(vmap(while)))/body/jit(beliefs_propagation)/jit(continuous_node_prediction_error)/jit(continuous_node_volatility_prediction_error)/mul" source_file="/fs04/fc37/adam/projects/psilocybin-prl-analyses/src/prl_hgf/fitting/hierarchical_patrl.py" source_line=362}
  add.3980.3.clone.1.clone.1 = f64[2,48]{1,0} add(select.2989.5.clone.1.clone.1, multiply.2905.5.clone.1.clone.1), metadata={op_name="jit(scan)/jit(main)/while/body/jit(_one_step)/vmap(while)/body/while/body/transpose(jvp(vmap(while)))/body/jit(beliefs_propagation)/jit(continuous_node_prediction_error)/add_any" source_file="/fs04/fc37/adam/projects/psilocybin-prl-analyses/src/prl_hgf/fitting/hierarchical_patrl.py" source_line=362}
  negate.471.5.clone.1.clone.1 = f64[2,48]{1,0} negate(add.3980.3.clone.1.clone.1), metadata={op_name="jit(scan)/jit(main)/while/body/jit(_one_step)/vmap(while)/body/while/body/transpose(jvp(vmap(while)))/body/jit(beliefs_propagation)/jit(continuous_node_prediction_error)/jit(continuous_node_value_prediction_error)/neg" source_file="/fs04/fc37/adam/projects/psilocybin-prl-analyses/src/prl_hgf/fitting/hierarchical_patrl.py" source_line=362}
  add.3983.7.clone.1.clone.1 = f64[2,48]{1,0} add(select.2990.9.clone.1.clone.1, negate.471.5.clone.1.clone.1), metadata={op_name="jit(scan)/jit(main)/while/body/jit(_one_step)/vmap(while)/body/while/body/transpose(jvp(vmap(while)))/body/jit(beliefs_propagation)/add_any" source_file="/fs04/fc37/adam/projects/psilocybin-prl-analyses/src/prl_hgf/fitting/hierarchical_patrl.py" source_line=362}
  select.2988.5.clone.1.clone.1 = f64[2,48]{1,0} select(bitcast.10661.52, add.3975.5.clone.1.clone.1, broadcast.4024.clone.87), metadata={op_name="jit(scan)/jit(main)/while/body/jit(_one_step)/vmap(while)/body/while/body/transpose(jvp(vmap(while)))/body/jit(_where)/select_n" source_file="/fs04/fc37/adam/projects/psilocybin-prl-analyses/src/prl_hgf/env/pat_rl_simulator.py" source_line=92}
  add.3981.3.clone.1.clone.1 = f64[2,48]{1,0} add(select.2988.5.clone.1.clone.1, add.3980.3.clone.1.clone.1), metadata={op_name="jit(scan)/jit(main)/while/body/jit(_one_step)/vmap(while)/body/while/body/transpose(jvp(vmap(while)))/body/jit(beliefs_propagation)/add_any" source_file="/fs04/fc37/adam/projects/psilocybin-prl-analyses/src/prl_hgf/fitting/hierarchical_patrl.py" source_line=362}
  add.3984.3.clone.1.clone.1 = f64[2,48]{1,0} add(add.3981.3.clone.1.clone.1, broadcast.4026.39), metadata={op_name="jit(scan)/jit(main)/while/body/jit(_one_step)/vmap(while)/body/while/body/transpose(jvp(vmap(while)))/body/jit(beliefs_propagation)/jit(continuous_node_posterior_update)/add_any" source_file="/fs04/fc37/adam/projects/psilocybin-prl-analyses/src/prl_hgf/fitting/hierarchical_patrl.py" source_line=362}
  add.3985.5.clone.1.clone.1 = f64[2,48]{1,0} add(add.3983.7.clone.1.clone.1, add.3984.3.clone.1.clone.1), metadata={op_name="jit(scan)/jit(main)/while/body/jit(_one_step)/vmap(while)/body/while/body/transpose(jvp(vmap(while)))/body/jit(beliefs_propagation)/add_any" source_file="/fs04/fc37/adam/projects/psilocybin-prl-analyses/src/prl_hgf/fitting/hierarchical_patrl.py" source_line=362}
  param_38.224 = f64[2,48]{1,0} parameter(38)
  select.2991.13.clone.1.clone.1 = f64[2,48]{1,0} select(bitcast.10661.52, param_38.224, broadcast.4024.clone.87), metadata={op_name="jit(scan)/jit(main)/while/body/jit(_one_step)/vmap(while)/body/while/body/transpose(jvp(vmap(while)))/body/jit(_where)/select_n" source_file="/fs04/fc37/adam/projects/psilocybin-prl-analyses/src/prl_hgf/env/pat_rl_simulator.py" source_line=92}
  add.3986.11.clone.1.clone.1 = f64[2,48]{1,0} add(select.2991.13.clone.1.clone.1, broadcast.4026.39), metadata={op_name="jit(scan)/jit(main)/while/body/jit(_one_step)/vmap(while)/body/while/body/transpose(jvp(vmap(while)))/body/jit(beliefs_propagation)/add_any" source_file="/fs04/fc37/adam/projects/psilocybin-prl-analyses/src/prl_hgf/fitting/hierarchical_patrl.py" source_line=362}
  param_37.242 = f64[2,48]{1,0} parameter(37)
  select.2992.7.clone.1.clone.1 = f64[2,48]{1,0} select(bitcast.10661.52, param_37.242, broadcast.4024.clone.87), metadata={op_name="jit(scan)/jit(main)/while/body/jit(_one_step)/vmap(while)/body/while/body/transpose(jvp(vmap(while)))/body/jit(_where)/select_n" source_file="/fs04/fc37/adam/projects/psilocybin-prl-analyses/src/prl_hgf/env/pat_rl_simulator.py" source_line=92}
  param_36.262 = f64[192,2,48]{2,1,0} parameter(36)
  dynamic-slice.1258.7.clone.1.clone.1 = f64[1,2,48]{2,1,0} dynamic-slice(param_36.262, select.2973.27, constant_1980_26, constant_1980_26), dynamic_slice_sizes={1,2,48}, metadata={op_name="jit(scan)/jit(main)/while/body/jit(_one_step)/vmap(while)/body/while/body/transpose(jvp(vmap(while)))/body/dynamic_slice[slice_sizes=(1, 2, 48)]" source_file="/fs04/fc37/adam/projects/psilocybin-prl-analyses/src/prl_hgf/fitting/hierarchical_patrl.py" source_line=378}
  bitcast.11054.7.clone.1.clone.1 = f64[2,48]{1,0} bitcast(dynamic-slice.1258.7.clone.1.clone.1)
  multiply.2909.7.clone.1.clone.1 = f64[2,48]{1,0} multiply(bitcast.11054.7.clone.1.clone.1, add.3981.3.clone.1.clone.1), metadata={op_name="jit(scan)/jit(main)/while/body/jit(_one_step)/vmap(while)/body/while/body/transpose(jvp(vmap(while)))/body/jit(beliefs_propagation)/jit(continuous_node_posterior_update)/jit(posterior_update_mean_continuous_node)/mul" source_file="/fs04/fc37/adam/projects/psilocybin-prl-analyses/src/prl_hgf/fitting/hierarchical_patrl.py" source_line=362}
  param_35.276 = f64[192]{0} parameter(35)
  dynamic-slice.1241.1.clone.1.clone.1 = f64[1]{0} dynamic-slice(param_35.276, select.2973.27), dynamic_slice_sizes={1}, metadata={op_name="jit(scan)/jit(main)/while/body/jit(_one_step)/vmap(while)/body/while/body/transpose(jvp(vmap(while)))/body/dynamic_slice[slice_sizes=(1,)]" source_file="/fs04/fc37/adam/projects/psilocybin-prl-analyses/src/prl_hgf/fitting/hierarchical_patrl.py" source_line=378}
  bitcast.10983.17.clone.1.clone.1 = f64[] bitcast(dynamic-slice.1241.1.clone.1.clone.1)
  broadcast.4027.17.clone.1.clone.1 = f64[2,48]{1,0} broadcast(bitcast.10983.17.clone.1.clone.1), dimensions={}, metadata={op_name="jit(scan)/jit(main)/while/body/jit(_one_step)/vmap(while)/body/while/body/transpose(jvp(vmap(while)))/body/jit(beliefs_propagation)/jit(continuous_node_posterior_update)/jit(posterior_update_mean_continuous_node)/mul" source_file="/fs04/fc37/adam/projects/psilocybin-prl-analyses/src/prl_hgf/fitting/hierarchical_patrl.py" source_line=362}
  multiply.2910.7.clone.1.clone.1 = f64[2,48]{1,0} multiply(multiply.2909.7.clone.1.clone.1, broadcast.4027.17.clone.1.clone.1), metadata={op_name="jit(scan)/jit(main)/while/body/jit(_one_step)/vmap(while)/body/while/body/transpose(jvp(vmap(while)))/body/jit(beliefs_propagation)/jit(continuous_node_posterior_update)/jit(posterior_update_mean_continuous_node)/mul" source_file="/fs04/fc37/adam/projects/psilocybin-prl-analyses/src/prl_hgf/fitting/hierarchical_patrl.py" source_line=362}
  add.3987.7.clone.1.clone.1 = f64[2,48]{1,0} add(multiply.2910.7.clone.1.clone.1, broadcast.4026.39), metadata={op_name="jit(scan)/jit(main)/while/body/jit(_one_step)/vmap(while)/body/while/body/transpose(jvp(vmap(while)))/body/jit(beliefs_propagation)/jit(continuous_node_posterior_update)/add_any" source_file="/fs04/fc37/adam/projects/psilocybin-prl-analyses/src/prl_hgf/fitting/hierarchical_patrl.py" source_line=362}
  add.3988.5.clone.1.clone.1 = f64[2,48]{1,0} add(select.2992.7.clone.1.clone.1, add.3987.7.clone.1.clone.1), metadata={op_name="jit(scan)/jit(main)/while/body/jit(_one_step)/vmap(while)/body/while/body/transpose(jvp(vmap(while)))/body/jit(beliefs_propagation)/add_any" source_file="/fs04/fc37/adam/projects/psilocybin-prl-analyses/src/prl_hgf/fitting/hierarchical_patrl.py" source_line=362}
  param_34.275 = f64[192,2,48]{2,1,0} parameter(34)
  dynamic-slice.1259.8.clone.1.clone.1 = f64[1,2,48]{2,1,0} dynamic-slice(param_34.275, select.2973.27, constant_1980_26, constant_1980_26), dynamic_slice_sizes={1,2,48}, metadata={op_name="jit(scan)/jit(main)/while/body/jit(_one_step)/vmap(while)/body/while/body/transpose(jvp(vmap(while)))/body/dynamic_slice[slice_sizes=(1, 2, 48)]" source_file="/fs04/fc37/adam/projects/psilocybin-prl-analyses/src/prl_hgf/fitting/hierarchical_patrl.py" source_line=378}
  bitcast.11076.8.clone.1.clone.1 = f64[2,48]{1,0} bitcast(dynamic-slice.1259.8.clone.1.clone.1)
  divide.596.5.clone.1.clone.1 = f64[2,48]{1,0} divide(add.3988.5.clone.1.clone.1, bitcast.11076.8.clone.1.clone.1), metadata={op_name="jit(scan)/jit(main)/while/body/jit(_one_step)/vmap(while)/body/while/body/transpose(jvp(vmap(while)))/body/jit(beliefs_propagation)/jit(binary_state_node_prediction_error)/div" source_file="/fs04/fc37/adam/projects/psilocybin-prl-analyses/src/prl_hgf/fitting/hierarchical_patrl.py" source_line=362}
  multiply.2911.7.clone.1.clone.1 = f64[2,48]{1,0} multiply(divide.596.5.clone.1.clone.1, broadcast.4027.17.clone.1.clone.1), metadata={op_name="jit(scan)/jit(main)/while/body/jit(_one_step)/vmap(while)/body/while/body/transpose(jvp(vmap(while)))/body/jit(beliefs_propagation)/jit(binary_state_node_prediction_error)/mul" source_file="/fs04/fc37/adam/projects/psilocybin-prl-analyses/src/prl_hgf/fitting/hierarchical_patrl.py" source_line=362}
  negate.472.5.clone.1.clone.1 = f64[2,48]{1,0} negate(multiply.2911.7.clone.1.clone.1), metadata={op_name="jit(scan)/jit(main)/while/body/jit(_one_step)/vmap(while)/body/while/body/transpose(jvp(vmap(while)))/body/jit(beliefs_propagation)/jit(binary_state_node_prediction_error)/neg" source_file="/fs04/fc37/adam/projects/psilocybin-prl-analyses/src/prl_hgf/fitting/hierarchical_patrl.py" source_line=362}
  add.3989.9.clone.1.clone.1 = f64[2,48]{1,0} add(add.3986.11.clone.1.clone.1, negate.472.5.clone.1.clone.1), metadata={op_name="jit(scan)/jit(main)/while/body/jit(_one_step)/vmap(while)/body/while/body/transpose(jvp(vmap(while)))/body/jit(beliefs_propagation)/add_any" source_file="/fs04/fc37/adam/projects/psilocybin-prl-analyses/src/prl_hgf/fitting/hierarchical_patrl.py" source_line=362}
  param_33.281 = f64[192,2,48]{2,1,0} parameter(33)
  dynamic-slice.1260.5.clone.1.clone.1 = f64[1,2,48]{2,1,0} dynamic-slice(param_33.281, select.2973.27, constant_1980_26, constant_1980_26), dynamic_slice_sizes={1,2,48}, metadata={op_name="jit(scan)/jit(main)/while/body/jit(_one_step)/vmap(while)/body/while/body/transpose(jvp(vmap(while)))/body/dynamic_slice[slice_sizes=(1, 2, 48)]" source_file="/fs04/fc37/adam/projects/psilocybin-prl-analyses/src/prl_hgf/fitting/hierarchical_patrl.py" source_line=378}
  bitcast.11089.7.clone.1.clone.1 = f64[2,48]{1,0} bitcast(dynamic-slice.1260.5.clone.1.clone.1)
  param_32.300 = f64[2,48]{1,0} parameter(32)
  select.2993.11.clone.1.clone.1 = f64[2,48]{1,0} select(bitcast.10661.52, param_32.300, broadcast.4024.clone.87), metadata={op_name="jit(scan)/jit(main)/while/body/jit(_one_step)/vmap(while)/body/while/body/transpose(jvp(vmap(while)))/body/jit(_where)/select_n" source_file="/fs04/fc37/adam/projects/psilocybin-prl-analyses/src/prl_hgf/env/pat_rl_simulator.py" source_line=92}
  param_31.347 = f64[2,48]{1,0} parameter(31)
  select.2994.11.clone.1.clone.1 = f64[2,48]{1,0} select(bitcast.10661.52, param_31.347, broadcast.4024.clone.87), metadata={op_name="jit(scan)/jit(main)/while/body/jit(_one_step)/vmap(while)/body/while/body/transpose(jvp(vmap(while)))/body/jit(_where)/select_n" source_file="/fs04/fc37/adam/projects/psilocybin-prl-analyses/src/prl_hgf/env/pat_rl_simulator.py" source_line=92}
  add.3990.9.clone.1.clone.1 = f64[2,48]{1,0} add(select.2993.11.clone.1.clone.1, select.2994.11.clone.1.clone.1), metadata={op_name="jit(scan)/jit(main)/while/body/jit(_one_step)/vmap(while)/body/while/body/transpose(jvp(vmap(while)))/body/jit(beliefs_propagation)/add_any" source_file="/fs04/fc37/adam/projects/psilocybin-prl-analyses/src/prl_hgf/fitting/hierarchical_patrl.py" source_line=362}
  param_30.395 = f64[192,2,48]{2,1,0} parameter(30)
  dynamic-slice.1261.14.clone.1.clone.1 = f64[1,2,48]{2,1,0} dynamic-slice(param_30.395, select.2973.27, constant_1980_26, constant_1980_26), dynamic_slice_sizes={1,2,48}, metadata={op_name="jit(scan)/jit(main)/while/body/jit(_one_step)/vmap(while)/body/while/body/transpose(jvp(vmap(while)))/body/dynamic_slice[slice_sizes=(1, 2, 48)]" source_file="/fs04/fc37/adam/projects/psilocybin-prl-analyses/src/prl_hgf/fitting/hierarchical_patrl.py" source_line=378}
  bitcast.11117.14.clone.1.clone.1 = f64[2,48]{1,0} bitcast(dynamic-slice.1261.14.clone.1.clone.1)
  param_29.510 = f64[192,2,48]{2,1,0} parameter(29)
  dynamic-slice.1254.3.clone.1.clone.1 = f64[1,2,48]{2,1,0} dynamic-slice(param_29.510, select.2973.27, constant_1980_26, constant_1980_26), dynamic_slice_sizes={1,2,48}, metadata={op_name="jit(scan)/jit(main)/while/body/jit(_one_step)/vmap(while)/body/while/body/transpose(jvp(vmap(while)))/body/dynamic_slice[slice_sizes=(1, 2, 48)]" source_file="/fs04/fc37/adam/projects/psilocybin-prl-analyses/src/prl_hgf/fitting/hierarchical_patrl.py" source_line=378}
  bitcast.10960.3.clone.1.clone.1 = f64[2,48]{1,0} bitcast(dynamic-slice.1254.3.clone.1.clone.1)
  multiply.2906.3.clone.1.clone.1 = f64[2,48]{1,0} multiply(add.3981.3.clone.1.clone.1, bitcast.10960.3.clone.1.clone.1), metadata={op_name="jit(scan)/jit(main)/while/body/jit(_one_step)/vmap(while)/body/while/body/transpose(jvp(vmap(while)))/body/jit(beliefs_propagation)/jit(continuous_node_posterior_update)/jit(posterior_update_mean_continuous_node)/mul" source_file="/fs04/fc37/adam/projects/psilocybin-prl-analyses/src/prl_hgf/fitting/hierarchical_patrl.py" source_line=362}
  param_28.641 = f64[192,2,48]{2,1,0} parameter(28)
  dynamic-slice.1262.10.clone.1.clone.1 = f64[1,2,48]{2,1,0} dynamic-slice(param_28.641, select.2973.27, constant_1980_26, constant_1980_26), dynamic_slice_sizes={1,2,48}, metadata={op_name="jit(scan)/jit(main)/while/body/jit(_one_step)/vmap(while)/body/while/body/transpose(jvp(vmap(while)))/body/dynamic_slice[slice_sizes=(1, 2, 48)]" source_file="/fs04/fc37/adam/projects/psilocybin-prl-analyses/src/prl_hgf/fitting/hierarchical_patrl.py" source_line=378}
  bitcast.11128.10.clone.1.clone.1 = f64[2,48]{1,0} bitcast(dynamic-slice.1262.10.clone.1.clone.1)
  divide.597.3.clone.1.clone.1 = f64[2,48]{1,0} divide(multiply.2906.3.clone.1.clone.1, bitcast.11128.10.clone.1.clone.1), metadata={op_name="jit(scan)/jit(main)/while/body/jit(_one_step)/vmap(while)/body/while/body/transpose(jvp(vmap(while)))/body/jit(beliefs_propagation)/jit(continuous_node_posterior_update)/jit(posterior_update_mean_continuous_node)/div" source_file="/fs04/fc37/adam/projects/psilocybin-prl-analyses/src/prl_hgf/fitting/hierarchical_patrl.py" source_line=362}
  multiply.2912.9.clone.1.clone.1 = f64[2,48]{1,0} multiply(bitcast.11117.14.clone.1.clone.1, divide.597.3.clone.1.clone.1), metadata={op_name="jit(scan)/jit(main)/while/body/jit(_one_step)/vmap(while)/body/while/body/transpose(jvp(vmap(while)))/body/jit(beliefs_propagation)/jit(continuous_node_posterior_update)/jit(posterior_update_mean_continuous_node)/mul" source_file="/fs04/fc37/adam/projects/psilocybin-prl-analyses/src/prl_hgf/fitting/hierarchical_patrl.py" source_line=362}
  param_27.721 = f64[2,48]{1,0} parameter(27)
  add.3991.7.clone.1.clone.1 = f64[2,48]{1,0} add(multiply.2912.9.clone.1.clone.1, param_27.721), metadata={op_name="jit(scan)/jit(main)/while/body/jit(_one_step)/vmap(while)/body/while/body/transpose(jvp(vmap(while)))/body/jit(beliefs_propagation)/jit(continuous_node_posterior_update)/add_any" source_file="/fs04/fc37/adam/projects/psilocybin-prl-analyses/src/prl_hgf/fitting/hierarchical_patrl.py" source_line=362}
  add.3992.7.clone.1.clone.1 = f64[2,48]{1,0} add(add.3990.9.clone.1.clone.1, add.3991.7.clone.1.clone.1), metadata={op_name="jit(scan)/jit(main)/while/body/jit(_one_step)/vmap(while)/body/while/body/transpose(jvp(vmap(while)))/body/jit(beliefs_propagation)/add_any" source_file="/fs04/fc37/adam/projects/psilocybin-prl-analyses/src/prl_hgf/fitting/hierarchical_patrl.py" source_line=362}
  add.3993.5.clone.1.clone.1 = f64[2,48]{1,0} add(add.3992.7.clone.1.clone.1, broadcast.4026.39), metadata={op_name="jit(scan)/jit(main)/while/body/jit(_one_step)/vmap(while)/body/while/body/transpose(jvp(vmap(while)))/body/jit(beliefs_propagation)/add_any" source_file="/fs04/fc37/adam/projects/psilocybin-prl-analyses/src/prl_hgf/fitting/hierarchical_patrl.py" source_line=362}
  param_26.757 = f64[192,2,48]{2,1,0} parameter(26)
  dynamic-slice.1263.7.clone.1.clone.1 = f64[1,2,48]{2,1,0} dynamic-slice(param_26.757, select.2973.27, constant_1980_26, constant_1980_26), dynamic_slice_sizes={1,2,48}, metadata={op_name="jit(scan)/jit(main)/while/body/jit(_one_step)/vmap(while)/body/while/body/transpose(jvp(vmap(while)))/body/dynamic_slice[slice_sizes=(1, 2, 48)]" source_file="/fs04/fc37/adam/projects/psilocybin-prl-analyses/src/prl_hgf/fitting/hierarchical_patrl.py" source_line=378}
  bitcast.11148.7.clone.1.clone.1 = f64[2,48]{1,0} bitcast(dynamic-slice.1263.7.clone.1.clone.1)
  multiply.2913.7.clone.1.clone.1 = f64[2,48]{1,0} multiply(add.3988.5.clone.1.clone.1, bitcast.11148.7.clone.1.clone.1), metadata={op_name="jit(scan)/jit(main)/while/body/jit(_one_step)/vmap(while)/body/while/body/transpose(jvp(vmap(while)))/body/jit(beliefs_propagation)/jit(binary_state_node_prediction_error)/mul" source_file="/fs04/fc37/adam/projects/psilocybin-prl-analyses/src/prl_hgf/fitting/hierarchical_patrl.py" source_line=362}
  param_25.861 = f64[192,2,48]{2,1,0} parameter(25)
  dynamic-slice.1264.7.clone.1.clone.1 = f64[1,2,48]{2,1,0} dynamic-slice(param_25.861, select.2973.27, constant_1980_26, constant_1980_26), dynamic_slice_sizes={1,2,48}, metadata={op_name="jit(scan)/jit(main)/while/body/jit(_one_step)/vmap(while)/body/while/body/transpose(jvp(vmap(while)))/body/dynamic_slice[slice_sizes=(1, 2, 48)]" source_file="/fs04/fc37/adam/projects/psilocybin-prl-analyses/src/prl_hgf/fitting/hierarchical_patrl.py" source_line=378}
  bitcast.11158.9.clone.1.clone.1 = f64[2,48]{1,0} bitcast(dynamic-slice.1264.7.clone.1.clone.1)
  multiply.2914.9.clone.1.clone.1 = f64[2,48]{1,0} multiply(multiply.2913.7.clone.1.clone.1, bitcast.11158.9.clone.1.clone.1), metadata={op_name="jit(scan)/jit(main)/while/body/jit(_one_step)/vmap(while)/body/while/body/transpose(jvp(vmap(while)))/body/jit(beliefs_propagation)/jit(binary_state_node_prediction_error)/mul" source_file="/fs04/fc37/adam/projects/psilocybin-prl-analyses/src/prl_hgf/fitting/hierarchical_patrl.py" source_line=362}
  negate.473.7.clone.1.clone.1 = f64[2,48]{1,0} negate(multiply.2914.9.clone.1.clone.1), metadata={op_name="jit(scan)/jit(main)/while/body/jit(_one_step)/vmap(while)/body/while/body/transpose(jvp(vmap(while)))/body/jit(beliefs_propagation)/jit(binary_state_node_prediction_error)/neg" source_file="/fs04/fc37/adam/projects/psilocybin-prl-analyses/src/prl_hgf/fitting/hierarchical_patrl.py" source_line=362}
  add.3994.5.clone.1.clone.1 = f64[2,48]{1,0} add(add.3993.5.clone.1.clone.1, negate.473.7.clone.1.clone.1), metadata={op_name="jit(scan)/jit(main)/while/body/jit(_one_step)/vmap(while)/body/while/body/transpose(jvp(vmap(while)))/body/jit(beliefs_propagation)/add_any" source_file="/fs04/fc37/adam/projects/psilocybin-prl-analyses/src/prl_hgf/fitting/hierarchical_patrl.py" source_line=362}
  multiply.2915.7.clone.1.clone.1 = f64[2,48]{1,0} multiply(bitcast.11089.7.clone.1.clone.1, add.3994.5.clone.1.clone.1), metadata={op_name="jit(scan)/jit(main)/while/body/jit(_one_step)/vmap(while)/body/while/body/transpose(jvp(vmap(while)))/body/jit(beliefs_propagation)/jit(binary_state_node_prediction)/mul" source_file="/fs04/fc37/adam/projects/psilocybin-prl-analyses/src/prl_hgf/fitting/hierarchical_patrl.py" source_line=362}
  negate.474.5.clone.1.clone.1 = f64[2,48]{1,0} negate(multiply.2915.7.clone.1.clone.1), metadata={op_name="jit(scan)/jit(main)/while/body/jit(_one_step)/vmap(while)/body/while/body/transpose(jvp(vmap(while)))/body/jit(beliefs_propagation)/jit(binary_state_node_prediction)/neg" source_file="/fs04/fc37/adam/projects/psilocybin-prl-analyses/src/prl_hgf/fitting/hierarchical_patrl.py" source_line=362}
  add.3995.7.clone.1.clone.1 = f64[2,48]{1,0} add(add.3989.9.clone.1.clone.1, negate.474.5.clone.1.clone.1), metadata={op_name="jit(scan)/jit(main)/while/body/jit(_one_step)/vmap(while)/body/while/body/transpose(jvp(vmap(while)))/body/jit(beliefs_propagation)/jit(binary_state_node_prediction)/add_any" source_file="/fs04/fc37/adam/projects/psilocybin-prl-analyses/src/prl_hgf/fitting/hierarchical_patrl.py" source_line=362}
  param_24.918 = f64[192,2,48]{2,1,0} parameter(24)
  dynamic-slice.1265.5.clone.1.clone.1 = f64[1,2,48]{2,1,0} dynamic-slice(param_24.918, select.2973.27, constant_1980_26, constant_1980_26), dynamic_slice_sizes={1,2,48}, metadata={op_name="jit(scan)/jit(main)/while/body/jit(_one_step)/vmap(while)/body/while/body/transpose(jvp(vmap(while)))/body/dynamic_slice[slice_sizes=(1, 2, 48)]" source_file="/fs04/fc37/adam/projects/psilocybin-prl-analyses/src/prl_hgf/fitting/hierarchical_patrl.py" source_line=378}
  bitcast.11175.5.clone.1.clone.1 = f64[2,48]{1,0} bitcast(dynamic-slice.1265.5.clone.1.clone.1)
  multiply.2916.5.clone.1.clone.1 = f64[2,48]{1,0} multiply(add.3994.5.clone.1.clone.1, bitcast.11175.5.clone.1.clone.1), metadata={op_name="jit(scan)/jit(main)/while/body/jit(_one_step)/vmap(while)/body/while/body/transpose(jvp(vmap(while)))/body/jit(beliefs_propagation)/jit(binary_state_node_prediction)/mul" source_file="/fs04/fc37/adam/projects/psilocybin-prl-analyses/src/prl_hgf/fitting/hierarchical_patrl.py" source_line=362}
  add.3996.5.clone.1.clone.1 = f64[2,48]{1,0} add(add.3995.7.clone.1.clone.1, multiply.2916.5.clone.1.clone.1), metadata={op_name="jit(scan)/jit(main)/while/body/jit(_one_step)/vmap(while)/body/while/body/transpose(jvp(vmap(while)))/body/jit(beliefs_propagation)/jit(binary_state_node_prediction)/add_any" source_file="/fs04/fc37/adam/projects/psilocybin-prl-analyses/src/prl_hgf/fitting/hierarchical_patrl.py" source_line=362}
  multiply.2917.3.clone.1.clone.1 = f64[2,48]{1,0} multiply(add.3996.5.clone.1.clone.1, bitcast.11076.8.clone.1.clone.1), metadata={op_name="jit(scan)/jit(main)/while/body/jit(_one_step)/vmap(while)/body/while/body/transpose(jvp(vmap(while)))/body/jit(beliefs_propagation)/jit(binary_state_node_prediction)/mul" source_file="/fs04/fc37/adam/projects/psilocybin-prl-analyses/src/prl_hgf/fitting/hierarchical_patrl.py" source_line=362}
  add.3997.3.clone.1.clone.1 = f64[2,48]{1,0} add(add.3985.5.clone.1.clone.1, multiply.2917.3.clone.1.clone.1), metadata={op_name="jit(scan)/jit(main)/while/body/jit(_one_step)/vmap(while)/body/while/body/transpose(jvp(vmap(while)))/body/jit(beliefs_propagation)/add_any" source_file="/fs04/fc37/adam/projects/psilocybin-prl-analyses/src/prl_hgf/fitting/hierarchical_patrl.py" source_line=362}
  multiply.2918.3.clone.1.clone.1 = f64[2,48]{1,0} multiply(bitcast.11005.6.clone.1.clone.1, add.3997.3.clone.1.clone.1), metadata={op_name="jit(scan)/jit(main)/while/body/jit(_one_step)/vmap(while)/body/while/body/transpose(jvp(vmap(while)))/body/jit(beliefs_propagation)/jit(continuous_node_prediction)/jit(predict_mean)/mul" source_file="/fs04/fc37/adam/projects/psilocybin-prl-analyses/src/prl_hgf/fitting/hierarchical_patrl.py" source_line=362}
  add.3998.3.clone.1.clone.1 = f64[2,48]{1,0} add(broadcast.4026.39, multiply.2918.3.clone.1.clone.1), metadata={op_name="jit(scan)/jit(main)/while/body/jit(_one_step)/vmap(while)/body/while/body/transpose(jvp(vmap(while)))/body/jit(beliefs_propagation)/add_any" source_file="/fs04/fc37/adam/projects/psilocybin-prl-analyses/src/prl_hgf/fitting/hierarchical_patrl.py" source_line=362}
  add.3999.1.clone.1.clone.1 = f64[2,48]{1,0} add(select.2980.3.clone.1.clone.1, add.3998.3.clone.1.clone.1), metadata={op_name="jit(scan)/jit(main)/while/body/jit(_one_step)/vmap(while)/body/while/body/transpose(jvp(vmap(while)))/body/add_any" source_file="/fs04/fc37/adam/projects/psilocybin-prl-analyses/src/prl_hgf/fitting/hierarchical_patrl.py" source_line=362}
  param_58.70 = pred[192,2,48,1]{2,1,3,0} parameter(58)
  bitcast.11808.3.clone.1.clone.1 = pred[192,1,2,48]{3,2,1,0} bitcast(param_58.70)
  dynamic-slice.1287.3.clone.1.clone.1 = pred[1,1,2,48]{3,2,1,0} dynamic-slice(bitcast.11808.3.clone.1.clone.1, select.2973.27, constant_1980_26, constant_1980_26, constant_1980_26), dynamic_slice_sizes={1,1,2,48}, metadata={op_name="jit(scan)/jit(main)/while/body/jit(_one_step)/vmap(while)/body/while/body/transpose(jvp(vmap(while)))/body/dynamic_slice[slice_sizes=(1, 2, 48, 1)]" source_file="/fs04/fc37/adam/projects/psilocybin-prl-analyses/src/prl_hgf/fitting/hierarchical_patrl.py" source_line=378}
  bitcast.11815.10.clone.1.clone.1 = pred[1,2,48]{2,1,0} bitcast(dynamic-slice.1287.3.clone.1.clone.1)
  param_57.126 = f64[2,48,1]{1,0,2} parameter(57)
  bitcast.11819.10.clone.1.clone.1 = f64[1,2,48]{2,1,0} bitcast(param_57.126)
  broadcast.4031.2.clone.1.clone.1 = f64[1,2,48]{2,1,0} broadcast(constant_1982_16), dimensions={}
  select.3024.5.clone.1.clone.1 = f64[1,2,48]{2,1,0} select(bitcast.11815.10.clone.1.clone.1, bitcast.11819.10.clone.1.clone.1, broadcast.4031.2.clone.1.clone.1), metadata={op_name="jit(scan)/jit(main)/while/body/jit(_one_step)/vmap(while)/body/while/body/transpose(jvp(vmap(while)))/body/jit(_where)/select_n" source_file="/fs04/fc37/adam/projects/psilocybin-prl-analyses/src/prl_hgf/fitting/hierarchical_patrl.py" source_line=370}
  select.3025.5.clone.1.clone.1 = f64[1,2,48]{2,1,0} select(bitcast.11815.10.clone.1.clone.1, broadcast.4031.2.clone.1.clone.1, bitcast.11819.10.clone.1.clone.1), metadata={op_name="jit(scan)/jit(main)/while/body/jit(_one_step)/vmap(while)/body/while/body/transpose(jvp(vmap(while)))/body/jit(_where)/select_n" source_file="/fs04/fc37/adam/projects/psilocybin-prl-analyses/src/prl_hgf/fitting/hierarchical_patrl.py" source_line=370}
  add.4042.3.clone.1.clone.1 = f64[1,2,48]{2,1,0} add(select.3024.5.clone.1.clone.1, select.3025.5.clone.1.clone.1), metadata={op_name="jit(scan)/jit(main)/while/body/jit(_one_step)/vmap(while)/body/while/body/transpose(jvp(vmap(while)))/body/add_any" source_file="/fs04/fc37/adam/projects/psilocybin-prl-analyses/src/prl_hgf/fitting/hierarchical_patrl.py" source_line=370}
  param_56.126 = pred[192,2,48,1]{2,1,3,0} parameter(56)
  bitcast.11840.5.clone.1.clone.1 = pred[192,1,2,48]{3,2,1,0} bitcast(param_56.126)
  dynamic-slice.1288.5.clone.1.clone.1 = pred[1,1,2,48]{3,2,1,0} dynamic-slice(bitcast.11840.5.clone.1.clone.1, select.2973.27, constant_1980_26, constant_1980_26, constant_1980_26), dynamic_slice_sizes={1,1,2,48}, metadata={op_name="jit(scan)/jit(main)/while/body/jit(_one_step)/vmap(while)/body/while/body/transpose(jvp(vmap(while)))/body/dynamic_slice[slice_sizes=(1, 2, 48, 1)]" source_file="/fs04/fc37/adam/projects/psilocybin-prl-analyses/src/prl_hgf/fitting/hierarchical_patrl.py" source_line=378}
  bitcast.11847.5.clone.1.clone.1 = pred[1,2,48]{2,1,0} bitcast(dynamic-slice.1288.5.clone.1.clone.1)
  param_55.135 = f64[192,2,48]{2,1,0} parameter(55)
  dynamic-slice.1269.11.clone.1.clone.1 = f64[1,2,48]{2,1,0} dynamic-slice(param_55.135, select.2973.27, constant_1980_26, constant_1980_26), dynamic_slice_sizes={1,2,48}, metadata={op_name="jit(scan)/jit(main)/while/body/jit(_one_step)/vmap(while)/body/while/body/transpose(jvp(vmap(while)))/body/dynamic_slice[slice_sizes=(1, 2, 48)]" source_file="/fs04/fc37/adam/projects/psilocybin-prl-analyses/src/prl_hgf/fitting/hierarchical_patrl.py" source_line=378}
  bitcast.11268.11.clone.1.clone.1 = f64[2,48]{1,0} bitcast(dynamic-slice.1269.11.clone.1.clone.1)
  multiply.2920.3.clone.1.clone.1 = f64[2,48]{1,0} multiply(negate.468.12.clone.1.clone.1, bitcast.11268.11.clone.1.clone.1), metadata={op_name="jit(scan)/jit(main)/while/body/jit(_one_step)/vmap(while)/body/while/body/transpose(jvp(vmap(while)))/body/jit(beliefs_propagation)/jit(continuous_node_posterior_update_ehgf)/jit(posterior_update_precision_continuous_node)/jit(precision_update)/mul" source_file="/fs04/fc37/adam/projects/psilocybin-prl-analyses/src/prl_hgf/fitting/hierarchical_patrl.py" source_line=362}
  param_54.135 = f64[192,2,48]{2,1,0} parameter(54)
  dynamic-slice.1289.22.clone.1.clone.1 = f64[1,2,48]{2,1,0} dynamic-slice(param_54.135, select.2973.27, constant_1980_26, constant_1980_26), dynamic_slice_sizes={1,2,48}, metadata={op_name="jit(scan)/jit(main)/while/body/jit(_one_step)/vmap(while)/body/while/body/transpose(jvp(vmap(while)))/body/dynamic_slice[slice_sizes=(1, 2, 48)]" source_file="/fs04/fc37/adam/projects/psilocybin-prl-analyses/src/prl_hgf/fitting/hierarchical_patrl.py" source_line=378}
  bitcast.11858.24.clone.1.clone.1 = f64[2,48]{1,0} bitcast(dynamic-slice.1289.22.clone.1.clone.1)
  multiply.2952.7.clone.1.clone.1 = f64[2,48]{1,0} multiply(multiply.2920.3.clone.1.clone.1, bitcast.11858.24.clone.1.clone.1), metadata={op_name="jit(scan)/jit(main)/while/body/jit(_one_step)/vmap(while)/body/while/body/transpose(jvp(vmap(while)))/body/jit(beliefs_propagation)/jit(continuous_node_posterior_update_ehgf)/jit(posterior_update_precision_continuous_node)/jit(precision_update)/mul" source_file="/fs04/fc37/adam/projects/psilocybin-prl-analyses/src/prl_hgf/fitting/hierarchical_patrl.py" source_line=362}
  constant_1984_1_clone_1_clone_1 = f64[] constant(0.5)
  broadcast.4028.clone.11.clone.1.clone.1 = f64[2,48]{1,0} broadcast(constant_1984_1_clone_1_clone_1), dimensions={}
  multiply.2953.7.clone.1.clone.1 = f64[2,48]{1,0} multiply(multiply.2952.7.clone.1.clone.1, broadcast.4028.clone.11.clone.1.clone.1), metadata={op_name="jit(scan)/jit(main)/while/body/jit(_one_step)/vmap(while)/body/while/body/transpose(jvp(vmap(while)))/body/jit(beliefs_propagation)/jit(continuous_node_posterior_update_ehgf)/jit(posterior_update_precision_continuous_node)/jit(precision_update)/mul" source_file="/fs04/fc37/adam/projects/psilocybin-prl-analyses/src/prl_hgf/fitting/hierarchical_patrl.py" source_line=362}
  param_53.138 = f64[192,2,48]{2,1,0} parameter(53)
  dynamic-slice.1290.5.clone.1.clone.1 = f64[1,2,48]{2,1,0} dynamic-slice(param_53.138, select.2973.27, constant_1980_26, constant_1980_26), dynamic_slice_sizes={1,2,48}, metadata={op_name="jit(scan)/jit(main)/while/body/jit(_one_step)/vmap(while)/body/while/body/transpose(jvp(vmap(while)))/body/dynamic_slice[slice_sizes=(1, 2, 48)]" source_file="/fs04/fc37/adam/projects/psilocybin-prl-analyses/src/prl_hgf/fitting/hierarchical_patrl.py" source_line=378}
  bitcast.11871.5.clone.1.clone.1 = f64[2,48]{1,0} bitcast(dynamic-slice.1290.5.clone.1.clone.1)
  multiply.2954.5.clone.1.clone.1 = f64[2,48]{1,0} multiply(multiply.2953.7.clone.1.clone.1, bitcast.11871.5.clone.1.clone.1), metadata={op_name="jit(scan)/jit(main)/while/body/jit(_one_step)/vmap(while)/body/while/body/transpose(jvp(vmap(while)))/body/jit(beliefs_propagation)/jit(continuous_node_posterior_update_ehgf)/jit(posterior_update_precision_continuous_node)/jit(precision_update)/mul" source_file="/fs04/fc37/adam/projects/psilocybin-prl-analyses/src/prl_hgf/fitting/hierarchical_patrl.py" source_line=362}
  multiply.2922.5.clone.1.clone.1 = f64[2,48]{1,0} multiply(multiply.2896.9.clone.1.clone.1, bitcast.11268.11.clone.1.clone.1), metadata={op_name="jit(scan)/jit(main)/while/body/jit(_one_step)/vmap(while)/body/while/body/transpose(jvp(vmap(while)))/body/jit(beliefs_propagation)/jit(continuous_node_posterior_update_ehgf)/jit(posterior_update_precision_continuous_node)/jit(precision_update)/mul" source_file="/fs04/fc37/adam/projects/psilocybin-prl-analyses/src/prl_hgf/fitting/hierarchical_patrl.py" source_line=362}
  param_52.134 = f64[192,2,48]{2,1,0} parameter(52)
  dynamic-slice.1271.8.clone.1.clone.1 = f64[1,2,48]{2,1,0} dynamic-slice(param_52.134, select.2973.27, constant_1980_26, constant_1980_26), dynamic_slice_sizes={1,2,48}, metadata={op_name="jit(scan)/jit(main)/while/body/jit(_one_step)/vmap(while)/body/while/body/transpose(jvp(vmap(while)))/body/dynamic_slice[slice_sizes=(1, 2, 48)]" source_file="/fs04/fc37/adam/projects/psilocybin-prl-analyses/src/prl_hgf/fitting/hierarchical_patrl.py" source_line=378}
  bitcast.11295.8.clone.1.clone.1 = f64[2,48]{1,0} bitcast(dynamic-slice.1271.8.clone.1.clone.1)
  multiply.2923.3.clone.1.clone.1 = f64[2,48]{1,0} multiply(multiply.2922.5.clone.1.clone.1, bitcast.11295.8.clone.1.clone.1), metadata={op_name="jit(scan)/jit(main)/while/body/jit(_one_step)/vmap(while)/body/while/body/transpose(jvp(vmap(while)))/body/jit(beliefs_propagation)/jit(continuous_node_posterior_update_ehgf)/jit(posterior_update_precision_continuous_node)/jit(precision_update)/mul" source_file="/fs04/fc37/adam/projects/psilocybin-prl-analyses/src/prl_hgf/fitting/hierarchical_patrl.py" source_line=362}
  multiply.2955.7.clone.1.clone.1 = f64[2,48]{1,0} multiply(multiply.2923.3.clone.1.clone.1, bitcast.11858.24.clone.1.clone.1), metadata={op_name="jit(scan)/jit(main)/while/body/jit(_one_step)/vmap(while)/body/while/body/transpose(jvp(vmap(while)))/body/jit(beliefs_propagation)/jit(continuous_node_posterior_update_ehgf)/jit(posterior_update_precision_continuous_node)/jit(precision_update)/mul" source_file="/fs04/fc37/adam/projects/psilocybin-prl-analyses/src/prl_hgf/fitting/hierarchical_patrl.py" source_line=362}
  add.4043.5.clone.1.clone.1 = f64[2,48]{1,0} add(multiply.2954.5.clone.1.clone.1, multiply.2955.7.clone.1.clone.1), metadata={op_name="jit(scan)/jit(main)/while/body/jit(_one_step)/vmap(while)/body/while/body/transpose(jvp(vmap(while)))/body/jit(beliefs_propagation)/jit(continuous_node_posterior_update_ehgf)/jit(posterior_update_precision_continuous_node)/jit(precision_update)/add_any" source_file="/fs04/fc37/adam/projects/psilocybin-prl-analyses/src/prl_hgf/fitting/hierarchical_patrl.py" source_line=362}
  multiply.2925.5.clone.1.clone.1 = f64[2,48]{1,0} multiply(multiply.2896.9.clone.1.clone.1, broadcast.4028.clone.11.clone.1.clone.1), metadata={op_name="jit(scan)/jit(main)/while/body/jit(_one_step)/vmap(while)/body/while/body/transpose(jvp(vmap(while)))/body/jit(beliefs_propagation)/jit(continuous_node_posterior_update_ehgf)/jit(posterior_update_precision_continuous_node)/jit(precision_update)/mul" source_file="/fs04/fc37/adam/projects/psilocybin-prl-analyses/src/prl_hgf/fitting/hierarchical_patrl.py" source_line=362}
  multiply.2926.3.clone.1.clone.1 = f64[2,48]{1,0} multiply(multiply.2925.5.clone.1.clone.1, bitcast.11295.8.clone.1.clone.1), metadata={op_name="jit(scan)/jit(main)/while/body/jit(_one_step)/vmap(while)/body/while/body/transpose(jvp(vmap(while)))/body/jit(beliefs_propagation)/jit(continuous_node_posterior_update_ehgf)/jit(posterior_update_precision_continuous_node)/jit(precision_update)/mul" source_file="/fs04/fc37/adam/projects/psilocybin-prl-analyses/src/prl_hgf/fitting/hierarchical_patrl.py" source_line=362}
  multiply.2956.5.clone.1.clone.1 = f64[2,48]{1,0} multiply(multiply.2926.3.clone.1.clone.1, bitcast.11858.24.clone.1.clone.1), metadata={op_name="jit(scan)/jit(main)/while/body/jit(_one_step)/vmap(while)/body/while/body/transpose(jvp(vmap(while)))/body/jit(beliefs_propagation)/jit(continuous_node_posterior_update_ehgf)/jit(posterior_update_precision_continuous_node)/jit(precision_update)/mul" source_file="/fs04/fc37/adam/projects/psilocybin-prl-analyses/src/prl_hgf/fitting/hierarchical_patrl.py" source_line=362}
  add.4044.3.clone.1.clone.1 = f64[2,48]{1,0} add(add.4043.5.clone.1.clone.1, multiply.2956.5.clone.1.clone.1), metadata={op_name="jit(scan)/jit(main)/while/body/jit(_one_step)/vmap(while)/body/while/body/transpose(jvp(vmap(while)))/body/jit(beliefs_propagation)/jit(continuous_node_posterior_update_ehgf)/jit(posterior_update_precision_continuous_node)/jit(precision_update)/add_any" source_file="/fs04/fc37/adam/projects/psilocybin-prl-analyses/src/prl_hgf/fitting/hierarchical_patrl.py" source_line=362}
  bitcast.11890.5.clone.1.clone.1 = f64[1,2,48]{2,1,0} bitcast(add.4044.3.clone.1.clone.1)
  select.3026.5.clone.1.clone.1 = f64[1,2,48]{2,1,0} select(bitcast.11847.5.clone.1.clone.1, bitcast.11890.5.clone.1.clone.1, broadcast.4031.2.clone.1.clone.1), metadata={op_name="jit(scan)/jit(main)/while/body/jit(_one_step)/vmap(while)/body/while/body/transpose(jvp(vmap(while)))/body/jit(beliefs_propagation)/jit(continuous_node_posterior_update_ehgf)/jit(posterior_update_precision_continuous_node)/select_n" source_file="/fs04/fc37/adam/projects/psilocybin-prl-analyses/src/prl_hgf/fitting/hierarchical_patrl.py" source_line=362}
  multiply.2928.3.clone.1.clone.1 = f64[2,48]{1,0} multiply(multiply.2900.9.clone.1.clone.1, bitcast.11268.11.clone.1.clone.1), metadata={op_name="jit(scan)/jit(main)/while/body/jit(_one_step)/vmap(while)/body/while/body/transpose(jvp(vmap(while)))/body/jit(beliefs_propagation)/jit(continuous_node_posterior_update_ehgf)/jit(posterior_update_mean_continuous_node)/mul" source_file="/fs04/fc37/adam/projects/psilocybin-prl-analyses/src/prl_hgf/fitting/hierarchical_patrl.py" source_line=362}
  multiply.2957.5.clone.1.clone.1 = f64[2,48]{1,0} multiply(multiply.2928.3.clone.1.clone.1, bitcast.11858.24.clone.1.clone.1), metadata={op_name="jit(scan)/jit(main)/while/body/jit(_one_step)/vmap(while)/body/while/body/transpose(jvp(vmap(while)))/body/jit(beliefs_propagation)/jit(continuous_node_posterior_update_ehgf)/jit(posterior_update_mean_continuous_node)/mul" source_file="/fs04/fc37/adam/projects/psilocybin-prl-analyses/src/prl_hgf/fitting/hierarchical_patrl.py" source_line=362}
  bitcast.11903.3.clone.1.clone.1 = f64[1,2,48]{2,1,0} bitcast(multiply.2957.5.clone.1.clone.1)
  add.4046.3.clone.1.clone.1 = f64[1,2,48]{2,1,0} add(select.3026.5.clone.1.clone.1, bitcast.11903.3.clone.1.clone.1), metadata={op_name="jit(scan)/jit(main)/while/body/jit(_one_step)/vmap(while)/body/while/body/transpose(jvp(vmap(while)))/body/jit(beliefs_propagation)/jit(continuous_node_posterior_update_ehgf)/add_any" source_file="/fs04/fc37/adam/projects/psilocybin-prl-analyses/src/prl_hgf/fitting/hierarchical_patrl.py" source_line=362}
  param_51.137 = f64[48,1]{1,0} parameter(51)
  bitcast.11908.5.clone.1.clone.1 = f64[48]{0} bitcast(param_51.137)
  broadcast.4034.5.clone.1.clone.1 = f64[1,2,48]{2,1,0} broadcast(bitcast.11908.5.clone.1.clone.1), dimensions={2}, metadata={op_name="jit(scan)/jit(main)/while/body/jit(_one_step)/vmap(while)/body/while/body/transpose(jvp(vmap(while)))/body/jit(beliefs_propagation)/broadcast_in_dim[shape=(2, 48, 1) broadcast_dimensions=(np.int64(1), np.int64(2))]" source_file="/fs04/fc37/adam/projects/psilocybin-prl-analyses/src/prl_hgf/fitting/hierarchical_patrl.py" source_line=362}
  add.4047.3.clone.1.clone.1 = f64[1,2,48]{2,1,0} add(add.4046.3.clone.1.clone.1, broadcast.4034.5.clone.1.clone.1), metadata={op_name="jit(scan)/jit(main)/while/body/jit(_one_step)/vmap(while)/body/while/body/transpose(jvp(vmap(while)))/body/jit(beliefs_propagation)/add_any" source_file="/fs04/fc37/adam/projects/psilocybin-prl-analyses/src/prl_hgf/fitting/hierarchical_patrl.py" source_line=362}
  add.4048.1.clone.1.clone.1 = f64[1,2,48]{2,1,0} add(add.4042.3.clone.1.clone.1, add.4047.3.clone.1.clone.1), metadata={op_name="jit(scan)/jit(main)/while/body/jit(_one_step)/vmap(while)/body/while/body/transpose(jvp(vmap(while)))/body/add_any" source_file="/fs04/fc37/adam/projects/psilocybin-prl-analyses/src/prl_hgf/fitting/hierarchical_patrl.py" source_line=362}
  param_59.66 = f64[2,48]{1,0} parameter(59)
  select.3001.1.clone.1.clone.1 = f64[2,48]{1,0} select(bitcast.10661.52, broadcast.4024.clone.87, param_59.66), metadata={op_name="jit(scan)/jit(main)/while/body/jit(_one_step)/vmap(while)/body/while/body/transpose(jvp(vmap(while)))/body/jit(_where)/select_n" source_file="/fs04/fc37/adam/projects/psilocybin-prl-analyses/src/prl_hgf/env/pat_rl_simulator.py" source_line=92}
  param_63.72 = f64[2,48]{1,0} parameter(63)
  select.2995.3.clone.1.clone.1 = f64[2,48]{1,0} select(bitcast.10661.52, broadcast.4024.clone.87, param_63.72), metadata={op_name="jit(scan)/jit(main)/while/body/jit(_one_step)/vmap(while)/body/while/body/transpose(jvp(vmap(while)))/body/jit(_where)/select_n" source_file="/fs04/fc37/adam/projects/psilocybin-prl-analyses/src/prl_hgf/env/pat_rl_simulator.py" source_line=92}
  param_60.71 = f64[2,48]{1,0} parameter(60)
  param_76.45 = f64[2,48]{1,0} parameter(76)
  select.2996.9.clone.1.clone.1 = f64[2,48]{1,0} select(bitcast.10661.52, param_76.45, broadcast.4024.clone.87), metadata={op_name="jit(scan)/jit(main)/while/body/jit(_one_step)/vmap(while)/body/while/body/transpose(jvp(vmap(while)))/body/jit(_where)/select_n" source_file="/fs04/fc37/adam/projects/psilocybin-prl-analyses/src/prl_hgf/env/pat_rl_simulator.py" source_line=92}
  param_75.39 = f64[192,2,48]{2,1,0} parameter(75)
  dynamic-slice.1266.7.clone.1.clone.1 = f64[1,2,48]{2,1,0} dynamic-slice(param_75.39, select.2973.27, constant_1980_26, constant_1980_26), dynamic_slice_sizes={1,2,48}, metadata={op_name="jit(scan)/jit(main)/while/body/jit(_one_step)/vmap(while)/body/while/body/transpose(jvp(vmap(while)))/body/dynamic_slice[slice_sizes=(1, 2, 48)]" source_file="/fs04/fc37/adam/projects/psilocybin-prl-analyses/src/prl_hgf/fitting/hierarchical_patrl.py" source_line=378}
  bitcast.11213.7.clone.1.clone.1 = f64[2,48]{1,0} bitcast(dynamic-slice.1266.7.clone.1.clone.1)
  multiply.2919.7.clone.1.clone.1 = f64[2,48]{1,0} multiply(add.3978.3.clone.1.clone.1, bitcast.11213.7.clone.1.clone.1), metadata={op_name="jit(scan)/jit(main)/while/body/jit(_one_step)/vmap(while)/body/while/body/transpose(jvp(vmap(while)))/body/jit(beliefs_propagation)/jit(continuous_node_prediction_error)/jit(continuous_node_volatility_prediction_error)/mul" source_file="/fs04/fc37/adam/projects/psilocybin-prl-analyses/src/prl_hgf/fitting/hierarchical_patrl.py" source_line=362}
  divide.598.7.clone.1.clone.1 = f64[2,48]{1,0} divide(add.3978.3.clone.1.clone.1, bitcast.11128.10.clone.1.clone.1), metadata={op_name="jit(scan)/jit(main)/while/body/jit(_one_step)/vmap(while)/body/while/body/transpose(jvp(vmap(while)))/body/jit(beliefs_propagation)/jit(continuous_node_prediction_error)/jit(continuous_node_volatility_prediction_error)/div" source_file="/fs04/fc37/adam/projects/psilocybin-prl-analyses/src/prl_hgf/fitting/hierarchical_patrl.py" source_line=362}
  add.4000.5.clone.1.clone.1 = f64[2,48]{1,0} add(multiply.2919.7.clone.1.clone.1, divide.598.7.clone.1.clone.1), metadata={op_name="jit(scan)/jit(main)/while/body/jit(_one_step)/vmap(while)/body/while/body/transpose(jvp(vmap(while)))/body/jit(beliefs_propagation)/jit(continuous_node_prediction_error)/jit(continuous_node_volatility_prediction_error)/add_any" source_file="/fs04/fc37/adam/projects/psilocybin-prl-analyses/src/prl_hgf/fitting/hierarchical_patrl.py" source_line=362}
  add.4001.7.clone.1.clone.1 = f64[2,48]{1,0} add(select.2996.9.clone.1.clone.1, add.4000.5.clone.1.clone.1), metadata={op_name="jit(scan)/jit(main)/while/body/jit(_one_step)/vmap(while)/body/while/body/transpose(jvp(vmap(while)))/body/jit(beliefs_propagation)/add_any" source_file="/fs04/fc37/adam/projects/psilocybin-prl-analyses/src/prl_hgf/fitting/hierarchical_patrl.py" source_line=362}
  param_74.48 = f64[2,48]{1,0} parameter(74)
  add.4002.5.clone.1.clone.1 = f64[2,48]{1,0} add(add.4001.7.clone.1.clone.1, param_74.48), metadata={op_name="jit(scan)/jit(main)/while/body/jit(_one_step)/vmap(while)/body/while/body/transpose(jvp(vmap(while)))/body/jit(beliefs_propagation)/add_any" source_file="/fs04/fc37/adam/projects/psilocybin-prl-analyses/src/prl_hgf/fitting/hierarchical_patrl.py" source_line=362}
  param_73.54 = f64[192,2,48]{2,1,0} parameter(73)
  dynamic-slice.1267.5.clone.1.clone.1 = f64[1,2,48]{2,1,0} dynamic-slice(param_73.54, select.2973.27, constant_1980_26, constant_1980_26), dynamic_slice_sizes={1,2,48}, metadata={op_name="jit(scan)/jit(main)/while/body/jit(_one_step)/vmap(while)/body/while/body/transpose(jvp(vmap(while)))/body/dynamic_slice[slice_sizes=(1, 2, 48)]" source_file="/fs04/fc37/adam/projects/psilocybin-prl-analyses/src/prl_hgf/fitting/hierarchical_patrl.py" source_line=378}
  bitcast.11235.5.clone.1.clone.1 = f64[2,48]{1,0} bitcast(dynamic-slice.1267.5.clone.1.clone.1)
  select.2997.9.clone.1.clone.1 = f64[2,48]{1,0} select(bitcast.10661.52, param_59.66, broadcast.4024.clone.87), metadata={op_name="jit(scan)/jit(main)/while/body/jit(_one_step)/vmap(while)/body/while/body/transpose(jvp(vmap(while)))/body/jit(_where)/select_n" source_file="/fs04/fc37/adam/projects/psilocybin-prl-analyses/src/prl_hgf/env/pat_rl_simulator.py" source_line=92}
  param_67.41 = f64[192,2,48]{2,1,0} parameter(67)
  dynamic-slice.1268.13.clone.1.clone.1 = f64[1,2,48]{2,1,0} dynamic-slice(param_67.41, select.2973.27, constant_1980_26, constant_1980_26), dynamic_slice_sizes={1,2,48}, metadata={op_name="jit(scan)/jit(main)/while/body/jit(_one_step)/vmap(while)/body/while/body/transpose(jvp(vmap(while)))/body/dynamic_slice[slice_sizes=(1, 2, 48)]" source_file="/fs04/fc37/adam/projects/psilocybin-prl-analyses/src/prl_hgf/fitting/hierarchical_patrl.py" source_line=378}
  bitcast.11257.13.clone.1.clone.1 = f64[2,48]{1,0} bitcast(dynamic-slice.1268.13.clone.1.clone.1)
  multiply.2921.13.clone.1.clone.1 = f64[2,48]{1,0} multiply(bitcast.11257.13.clone.1.clone.1, multiply.2920.3.clone.1.clone.1), metadata={op_name="jit(scan)/jit(main)/while/body/jit(_one_step)/vmap(while)/body/while/body/transpose(jvp(vmap(while)))/body/jit(beliefs_propagation)/jit(continuous_node_posterior_update_ehgf)/jit(posterior_update_precision_continuous_node)/jit(precision_update)/mul" source_file="/fs04/fc37/adam/projects/psilocybin-prl-analyses/src/prl_hgf/fitting/hierarchical_patrl.py" source_line=362}
  param_66.57 = f64[192,2,48]{2,1,0} parameter(66)
  dynamic-slice.1270.31.clone.1.clone.1 = f64[1,2,48]{2,1,0} dynamic-slice(param_66.57, select.2973.27, constant_1980_26, constant_1980_26), dynamic_slice_sizes={1,2,48}, metadata={op_name="jit(scan)/jit(main)/while/body/jit(_one_step)/vmap(while)/body/while/body/transpose(jvp(vmap(while)))/body/dynamic_slice[slice_sizes=(1, 2, 48)]" source_file="/fs04/fc37/adam/projects/psilocybin-prl-analyses/src/prl_hgf/fitting/hierarchical_patrl.py" source_line=378}
  bitcast.11279.31.clone.1.clone.1 = f64[2,48]{1,0} bitcast(dynamic-slice.1270.31.clone.1.clone.1)
  multiply.2924.11.clone.1.clone.1 = f64[2,48]{1,0} multiply(bitcast.11279.31.clone.1.clone.1, multiply.2923.3.clone.1.clone.1), metadata={op_name="jit(scan)/jit(main)/while/body/jit(_one_step)/vmap(while)/body/while/body/transpose(jvp(vmap(while)))/body/jit(beliefs_propagation)/jit(continuous_node_posterior_update_ehgf)/jit(posterior_update_precision_continuous_node)/jit(precision_update)/mul" source_file="/fs04/fc37/adam/projects/psilocybin-prl-analyses/src/prl_hgf/fitting/hierarchical_patrl.py" source_line=362}
  add.4003.11.clone.1.clone.1 = f64[2,48]{1,0} add(multiply.2921.13.clone.1.clone.1, multiply.2924.11.clone.1.clone.1), metadata={op_name="jit(scan)/jit(main)/while/body/jit(_one_step)/vmap(while)/body/while/body/transpose(jvp(vmap(while)))/body/jit(beliefs_propagation)/jit(continuous_node_posterior_update_ehgf)/jit(posterior_update_precision_continuous_node)/jit(precision_update)/add_any" source_file="/fs04/fc37/adam/projects/psilocybin-prl-analyses/src/prl_hgf/fitting/hierarchical_patrl.py" source_line=362}
  multiply.2927.11.clone.1.clone.1 = f64[2,48]{1,0} multiply(bitcast.11279.31.clone.1.clone.1, multiply.2926.3.clone.1.clone.1), metadata={op_name="jit(scan)/jit(main)/while/body/jit(_one_step)/vmap(while)/body/while/body/transpose(jvp(vmap(while)))/body/jit(beliefs_propagation)/jit(continuous_node_posterior_update_ehgf)/jit(posterior_update_precision_continuous_node)/jit(precision_update)/mul" source_file="/fs04/fc37/adam/projects/psilocybin-prl-analyses/src/prl_hgf/fitting/hierarchical_patrl.py" source_line=362}
  add.4004.9.clone.1.clone.1 = f64[2,48]{1,0} add(add.4003.11.clone.1.clone.1, multiply.2927.11.clone.1.clone.1), metadata={op_name="jit(scan)/jit(main)/while/body/jit(_one_step)/vmap(while)/body/while/body/transpose(jvp(vmap(while)))/body/jit(beliefs_propagation)/jit(continuous_node_posterior_update_ehgf)/jit(posterior_update_precision_continuous_node)/jit(precision_update)/add_any" source_file="/fs04/fc37/adam/projects/psilocybin-prl-analyses/src/prl_hgf/fitting/hierarchical_patrl.py" source_line=362}
  select.2998.11.clone.1.clone.1 = f64[2,48]{1,0} select(bitcast.10789.23, add.4004.9.clone.1.clone.1, broadcast.4024.clone.87), metadata={op_name="jit(scan)/jit(main)/while/body/jit(_one_step)/vmap(while)/body/while/body/transpose(jvp(vmap(while)))/body/jit(beliefs_propagation)/jit(continuous_node_posterior_update_ehgf)/jit(posterior_update_precision_continuous_node)/select_n" source_file="/fs04/fc37/adam/projects/psilocybin-prl-analyses/src/prl_hgf/fitting/hierarchical_patrl.py" source_line=362}
  multiply.2929.9.clone.1.clone.1 = f64[2,48]{1,0} multiply(bitcast.11279.31.clone.1.clone.1, multiply.2928.3.clone.1.clone.1), metadata={op_name="jit(scan)/jit(main)/while/body/jit(_one_step)/vmap(while)/body/while/body/transpose(jvp(vmap(while)))/body/jit(beliefs_propagation)/jit(continuous_node_posterior_update_ehgf)/jit(posterior_update_mean_continuous_node)/mul" source_file="/fs04/fc37/adam/projects/psilocybin-prl-analyses/src/prl_hgf/fitting/hierarchical_patrl.py" source_line=362}
  add.4005.9.clone.1.clone.1 = f64[2,48]{1,0} add(select.2998.11.clone.1.clone.1, multiply.2929.9.clone.1.clone.1), metadata={op_name="jit(scan)/jit(main)/while/body/jit(_one_step)/vmap(while)/body/while/body/transpose(jvp(vmap(while)))/body/jit(beliefs_propagation)/jit(continuous_node_posterior_update_ehgf)/add_any" source_file="/fs04/fc37/adam/projects/psilocybin-prl-analyses/src/prl_hgf/fitting/hierarchical_patrl.py" source_line=362}
  add.4006.7.clone.1.clone.1 = f64[2,48]{1,0} add(select.2997.9.clone.1.clone.1, add.4005.9.clone.1.clone.1), metadata={op_name="jit(scan)/jit(main)/while/body/jit(_one_step)/vmap(while)/body/while/body/transpose(jvp(vmap(while)))/body/jit(beliefs_propagation)/add_any" source_file="/fs04/fc37/adam/projects/psilocybin-prl-analyses/src/prl_hgf/fitting/hierarchical_patrl.py" source_line=362}
  add.4007.5.clone.1.clone.1 = f64[2,48]{1,0} add(add.4006.7.clone.1.clone.1, broadcast.4026.39), metadata={op_name="jit(scan)/jit(main)/while/body/jit(_one_step)/vmap(while)/body/while/body/transpose(jvp(vmap(while)))/body/jit(beliefs_propagation)/add_any" source_file="/fs04/fc37/adam/projects/psilocybin-prl-analyses/src/prl_hgf/fitting/hierarchical_patrl.py" source_line=362}
  multiply.2930.5.clone.1.clone.1 = f64[2,48]{1,0} multiply(bitcast.11235.5.clone.1.clone.1, add.4007.5.clone.1.clone.1), metadata={op_name="jit(scan)/jit(main)/while/body/jit(_one_step)/vmap(while)/body/while/body/transpose(jvp(vmap(while)))/body/jit(beliefs_propagation)/jit(continuous_node_prediction)/jit(predict_precision)/mul" source_file="/fs04/fc37/adam/projects/psilocybin-prl-analyses/src/prl_hgf/fitting/hierarchical_patrl.py" source_line=362}
  add.4008.3.clone.1.clone.1 = f64[2,48]{1,0} add(add.4002.5.clone.1.clone.1, multiply.2930.5.clone.1.clone.1), metadata={op_name="jit(scan)/jit(main)/while/body/jit(_one_step)/vmap(while)/body/while/body/transpose(jvp(vmap(while)))/body/jit(beliefs_propagation)/jit(continuous_node_prediction)/jit(predict_precision)/add_any" source_file="/fs04/fc37/adam/projects/psilocybin-prl-analyses/src/prl_hgf/fitting/hierarchical_patrl.py" source_line=362}
  param_72.49 = f64[192,2,48]{2,1,0} parameter(72)
  dynamic-slice.1272.1.clone.1.clone.1 = f64[1,2,48]{2,1,0} dynamic-slice(param_72.49, select.2973.27, constant_1980_26, constant_1980_26), dynamic_slice_sizes={1,2,48}, metadata={op_name="jit(scan)/jit(main)/while/body/jit(_one_step)/vmap(while)/body/while/body/transpose(jvp(vmap(while)))/body/dynamic_slice[slice_sizes=(1, 2, 48)]" source_file="/fs04/fc37/adam/projects/psilocybin-prl-analyses/src/prl_hgf/fitting/hierarchical_patrl.py" source_line=378}
  bitcast.11345.3.clone.1.clone.1 = f64[2,48]{1,0} bitcast(dynamic-slice.1272.1.clone.1.clone.1)
  multiply.2931.3.clone.1.clone.1 = f64[2,48]{1,0} multiply(add.4008.3.clone.1.clone.1, bitcast.11345.3.clone.1.clone.1), metadata={op_name="jit(scan)/jit(main)/while/body/jit(_one_step)/vmap(while)/body/while/body/transpose(jvp(vmap(while)))/body/jit(beliefs_propagation)/jit(continuous_node_prediction)/jit(predict_precision)/mul" source_file="/fs04/fc37/adam/projects/psilocybin-prl-analyses/src/prl_hgf/fitting/hierarchical_patrl.py" source_line=362}
  negate.475.1.clone.1.clone.1 = f64[2,48]{1,0} negate(multiply.2931.3.clone.1.clone.1), metadata={op_name="jit(scan)/jit(main)/while/body/jit(_one_step)/vmap(while)/body/while/body/transpose(jvp(vmap(while)))/body/jit(beliefs_propagation)/jit(continuous_node_prediction)/jit(predict_precision)/neg" source_file="/fs04/fc37/adam/projects/psilocybin-prl-analyses/src/prl_hgf/fitting/hierarchical_patrl.py" source_line=362}
  param_62.70 = f64[192,2,48]{2,1,0} parameter(62)
  dynamic-slice.1273.4.clone.1.clone.1 = f64[1,2,48]{2,1,0} dynamic-slice(param_62.70, select.2973.27, constant_1980_26, constant_1980_26), dynamic_slice_sizes={1,2,48}, metadata={op_name="jit(scan)/jit(main)/while/body/jit(_one_step)/vmap(while)/body/while/body/transpose(jvp(vmap(while)))/body/dynamic_slice[slice_sizes=(1, 2, 48)]" source_file="/fs04/fc37/adam/projects/psilocybin-prl-analyses/src/prl_hgf/fitting/hierarchical_patrl.py" source_line=378}
  bitcast.11356.8.clone.1.clone.1 = f64[2,48]{1,0} bitcast(dynamic-slice.1273.4.clone.1.clone.1)
  multiply.2932.5.clone.1.clone.1 = f64[2,48]{1,0} multiply(negate.475.1.clone.1.clone.1, bitcast.11356.8.clone.1.clone.1), metadata={op_name="jit(scan)/jit(main)/while/body/jit(_one_step)/vmap(while)/body/while/body/transpose(jvp(vmap(while)))/body/jit(beliefs_propagation)/jit(continuous_node_prediction)/jit(predict_precision)/mul" source_file="/fs04/fc37/adam/projects/psilocybin-prl-analyses/src/prl_hgf/fitting/hierarchical_patrl.py" source_line=362}
  negate.476.3.clone.1.clone.1 = f64[2,48]{1,0} negate(multiply.2932.5.clone.1.clone.1), metadata={op_name="jit(scan)/jit(main)/while/body/jit(_one_step)/vmap(while)/body/while/body/transpose(jvp(vmap(while)))/body/jit(beliefs_propagation)/jit(continuous_node_prediction)/jit(predict_precision)/neg" source_file="/fs04/fc37/adam/projects/psilocybin-prl-analyses/src/prl_hgf/fitting/hierarchical_patrl.py" source_line=362}
  param_61.76 = f64[2,48]{1,0} parameter(61)
  select.2999.7.clone.1.clone.1 = f64[2,48]{1,0} select(bitcast.10661.52, param_61.76, broadcast.4024.clone.87), metadata={op_name="jit(scan)/jit(main)/while/body/jit(_one_step)/vmap(while)/body/while/body/transpose(jvp(vmap(while)))/body/jit(_where)/select_n" source_file="/fs04/fc37/adam/projects/psilocybin-prl-analyses/src/prl_hgf/fitting/hierarchical_patrl.py" source_line=370}
  add.4009.5.clone.1.clone.1 = f64[2,48]{1,0} add(select.2999.7.clone.1.clone.1, broadcast.4026.39), metadata={op_name="jit(scan)/jit(main)/while/body/jit(_one_step)/vmap(while)/body/while/body/transpose(jvp(vmap(while)))/body/jit(beliefs_propagation)/add_any" source_file="/fs04/fc37/adam/projects/psilocybin-prl-analyses/src/prl_hgf/fitting/hierarchical_patrl.py" source_line=362}
  multiply.2934.5.clone.1.clone.1 = f64[2,48]{1,0} multiply(add.4009.5.clone.1.clone.1, bitcast.11356.8.clone.1.clone.1), metadata={op_name="jit(scan)/jit(main)/while/body/jit(_one_step)/vmap(while)/body/while/body/transpose(jvp(vmap(while)))/body/jit(beliefs_propagation)/jit(continuous_node_prediction)/mul" source_file="/fs04/fc37/adam/projects/psilocybin-prl-analyses/src/prl_hgf/fitting/hierarchical_patrl.py" source_line=362}
  negate.477.3.clone.1.clone.1 = f64[2,48]{1,0} negate(multiply.2934.5.clone.1.clone.1), metadata={op_name="jit(scan)/jit(main)/while/body/jit(_one_step)/vmap(while)/body/while/body/transpose(jvp(vmap(while)))/body/jit(beliefs_propagation)/jit(continuous_node_prediction)/neg" source_file="/fs04/fc37/adam/projects/psilocybin-prl-analyses/src/prl_hgf/fitting/hierarchical_patrl.py" source_line=362}
  add.4010.1.clone.1.clone.1 = f64[2,48]{1,0} add(negate.476.3.clone.1.clone.1, negate.477.3.clone.1.clone.1), metadata={op_name="jit(scan)/jit(main)/while/body/jit(_one_step)/vmap(while)/body/while/body/transpose(jvp(vmap(while)))/body/jit(beliefs_propagation)/jit(continuous_node_prediction)/add_any" source_file="/fs04/fc37/adam/projects/psilocybin-prl-analyses/src/prl_hgf/fitting/hierarchical_patrl.py" source_line=362}
  add.4011.1.clone.1.clone.1 = f64[2,48]{1,0} add(param_60.71, add.4010.1.clone.1.clone.1), metadata={op_name="jit(scan)/jit(main)/while/body/jit(_one_step)/vmap(while)/body/while/body/transpose(jvp(vmap(while)))/body/jit(beliefs_propagation)/add_any" source_file="/fs04/fc37/adam/projects/psilocybin-prl-analyses/src/prl_hgf/fitting/hierarchical_patrl.py" source_line=362}
  add.4012.1.clone.1.clone.1 = f64[2,48]{1,0} add(select.2995.3.clone.1.clone.1, add.4011.1.clone.1.clone.1), metadata={op_name="jit(scan)/jit(main)/while/body/jit(_one_step)/vmap(while)/body/while/body/transpose(jvp(vmap(while)))/body/add_any" source_file="/fs04/fc37/adam/projects/psilocybin-prl-analyses/src/prl_hgf/fitting/hierarchical_patrl.py" source_line=362}
  select.3000.1.clone.1.clone.1.clone.1 = f64[2,48]{1,0} select(bitcast.10661.52, broadcast.4024.clone.87, param_61.76), metadata={op_name="jit(scan)/jit(main)/while/body/jit(_one_step)/vmap(while)/body/while/body/transpose(jvp(vmap(while)))/body/jit(_where)/select_n" source_file="/fs04/fc37/adam/projects/psilocybin-prl-analyses/src/prl_hgf/fitting/hierarchical_patrl.py" source_line=370}
  param_69.26 = f64[2,48]{1,0} parameter(69)
  select.3004.5.clone.1.clone.1 = f64[2,48]{1,0} select(bitcast.10661.52, param_69.26, broadcast.4024.clone.87), metadata={op_name="jit(scan)/jit(main)/while/body/jit(_one_step)/vmap(while)/body/while/body/transpose(jvp(vmap(while)))/body/jit(_where)/select_n" source_file="/fs04/fc37/adam/projects/psilocybin-prl-analyses/src/prl_hgf/fitting/hierarchical_patrl.py" source_line=370}
  select.3005.5.clone.1.clone.1 = f64[2,48]{1,0} select(bitcast.10661.52, broadcast.4024.clone.87, param_69.26), metadata={op_name="jit(scan)/jit(main)/while/body/jit(_one_step)/vmap(while)/body/while/body/transpose(jvp(vmap(while)))/body/jit(_where)/select_n" source_file="/fs04/fc37/adam/projects/psilocybin-prl-analyses/src/prl_hgf/fitting/hierarchical_patrl.py" source_line=370}
  add.4015.3.clone.1.clone.1 = f64[2,48]{1,0} add(select.3004.5.clone.1.clone.1, select.3005.5.clone.1.clone.1), metadata={op_name="jit(scan)/jit(main)/while/body/jit(_one_step)/vmap(while)/body/while/body/transpose(jvp(vmap(while)))/body/add_any" source_file="/fs04/fc37/adam/projects/psilocybin-prl-analyses/src/prl_hgf/fitting/hierarchical_patrl.py" source_line=370}
  param_64.75 = f64[2,48]{1,0} parameter(64)
  param_68.37 = pred[192,2,48]{2,1,0} parameter(68)
  dynamic-slice.1274.5.clone.1.clone.1 = pred[1,2,48]{2,1,0} dynamic-slice(param_68.37, select.2973.27, constant_1980_26, constant_1980_26), dynamic_slice_sizes={1,2,48}, metadata={op_name="jit(scan)/jit(main)/while/body/jit(_one_step)/vmap(while)/body/while/body/transpose(jvp(vmap(while)))/body/dynamic_slice[slice_sizes=(1, 2, 48)]" source_file="/fs04/fc37/adam/projects/psilocybin-prl-analyses/src/prl_hgf/fitting/hierarchical_patrl.py" source_line=378}
  bitcast.11451.7.clone.1.clone.1 = pred[2,48]{1,0} bitcast(dynamic-slice.1274.5.clone.1.clone.1)
  multiply.2935.7.clone.1.clone.1 = f64[2,48]{1,0} multiply(add.4007.5.clone.1.clone.1, bitcast.10911.13.clone.1.clone.1), metadata={op_name="jit(scan)/jit(main)/while/body/jit(_one_step)/vmap(while)/body/while/body/transpose(jvp(vmap(while)))/body/jit(beliefs_propagation)/jit(continuous_node_prediction)/jit(predict_precision)/mul" source_file="/fs04/fc37/adam/projects/psilocybin-prl-analyses/src/prl_hgf/fitting/hierarchical_patrl.py" source_line=362}
  add.4016.5.clone.1.clone.1 = f64[2,48]{1,0} add(negate.475.1.clone.1.clone.1, multiply.2935.7.clone.1.clone.1), metadata={op_name="jit(scan)/jit(main)/while/body/jit(_one_step)/vmap(while)/body/while/body/transpose(jvp(vmap(while)))/body/jit(beliefs_propagation)/jit(continuous_node_prediction)/jit(predict_precision)/add_any" source_file="/fs04/fc37/adam/projects/psilocybin-prl-analyses/src/prl_hgf/fitting/hierarchical_patrl.py" source_line=362}
  select.3006.7.clone.1.clone.1 = f64[2,48]{1,0} select(bitcast.11451.7.clone.1.clone.1, add.4016.5.clone.1.clone.1, broadcast.4024.clone.87), metadata={op_name="jit(scan)/jit(main)/while/body/jit(_one_step)/vmap(while)/body/while/body/transpose(jvp(vmap(while)))/body/jit(beliefs_propagation)/jit(continuous_node_posterior_update_ehgf)/jit(posterior_update_precision_continuous_node)/jit(precision_update)/jit(_where)/select_n" source_file="/fs04/fc37/adam/projects/psilocybin-prl-analyses/src/prl_hgf/env/pat_rl_simulator.py" source_line=92}
  param_65.82 = f64[192,2,48]{2,1,0} parameter(65)
  dynamic-slice.1275.5.clone.1.clone.1 = f64[1,2,48]{2,1,0} dynamic-slice(param_65.82, select.2973.27, constant_1980_26, constant_1980_26), dynamic_slice_sizes={1,2,48}, metadata={op_name="jit(scan)/jit(main)/while/body/jit(_one_step)/vmap(while)/body/while/body/transpose(jvp(vmap(while)))/body/dynamic_slice[slice_sizes=(1, 2, 48)]" source_file="/fs04/fc37/adam/projects/psilocybin-prl-analyses/src/prl_hgf/fitting/hierarchical_patrl.py" source_line=378}
  bitcast.11473.5.clone.1.clone.1 = f64[2,48]{1,0} bitcast(dynamic-slice.1275.5.clone.1.clone.1)
  multiply.2936.5.clone.1.clone.1 = f64[2,48]{1,0} multiply(select.3006.7.clone.1.clone.1, bitcast.11473.5.clone.1.clone.1), metadata={op_name="jit(scan)/jit(main)/while/body/jit(_one_step)/vmap(while)/body/while/body/transpose(jvp(vmap(while)))/body/jit(beliefs_propagation)/jit(continuous_node_prediction)/jit(predict_precision)/mul" source_file="/fs04/fc37/adam/projects/psilocybin-prl-analyses/src/prl_hgf/fitting/hierarchical_patrl.py" source_line=362}
  add.4017.1.clone.1.clone.1 = f64[2,48]{1,0} add(param_64.75, multiply.2936.5.clone.1.clone.1), metadata={op_name="jit(scan)/jit(main)/while/body/jit(_one_step)/vmap(while)/body/while/body/transpose(jvp(vmap(while)))/body/jit(beliefs_propagation)/add_any" source_file="/fs04/fc37/adam/projects/psilocybin-prl-analyses/src/prl_hgf/fitting/hierarchical_patrl.py" source_line=362}
  add.4018.1.clone.1.clone.1 = f64[2,48]{1,0} add(add.4015.3.clone.1.clone.1, add.4017.1.clone.1.clone.1), metadata={op_name="jit(scan)/jit(main)/while/body/jit(_one_step)/vmap(while)/body/while/body/transpose(jvp(vmap(while)))/body/add_any" source_file="/fs04/fc37/adam/projects/psilocybin-prl-analyses/src/prl_hgf/fitting/hierarchical_patrl.py" source_line=362}
  select.3009.3.clone.1.clone.1 = f64[2,48]{1,0} select(bitcast.10661.52, broadcast.4024.clone.87, param_14.144), metadata={op_name="jit(scan)/jit(main)/while/body/jit(_one_step)/vmap(while)/body/while/body/transpose(jvp(vmap(while)))/body/jit(_where)/select_n" source_file="/fs04/fc37/adam/projects/psilocybin-prl-analyses/src/prl_hgf/fitting/hierarchical_patrl.py" source_line=370}
  param_71.36 = f64[2,48]{1,0} parameter(71)
  multiply.2937.5.clone.1.clone.1 = f64[2,48]{1,0} multiply(bitcast.11117.14.clone.1.clone.1, multiply.2936.5.clone.1.clone.1), metadata={op_name="jit(scan)/jit(main)/while/body/jit(_one_step)/vmap(while)/body/while/body/transpose(jvp(vmap(while)))/body/jit(beliefs_propagation)/jit(continuous_node_prediction)/jit(predict_precision)/mul" source_file="/fs04/fc37/adam/projects/psilocybin-prl-analyses/src/prl_hgf/fitting/hierarchical_patrl.py" source_line=362}
  add.4019.3.clone.1.clone.1 = f64[2,48]{1,0} add(param_71.36, multiply.2937.5.clone.1.clone.1), metadata={op_name="jit(scan)/jit(main)/while/body/jit(_one_step)/vmap(while)/body/while/body/transpose(jvp(vmap(while)))/body/jit(beliefs_propagation)/add_any" source_file="/fs04/fc37/adam/projects/psilocybin-prl-analyses/src/prl_hgf/fitting/hierarchical_patrl.py" source_line=362}
  param_70.30 = f64[2,48]{1,0} parameter(70)
  select.3010.9.clone.1.clone.1 = f64[2,48]{1,0} select(bitcast.10661.52, param_70.30, broadcast.4024.clone.87), metadata={op_name="jit(scan)/jit(main)/while/body/jit(_one_step)/vmap(while)/body/while/body/transpose(jvp(vmap(while)))/body/jit(_where)/select_n" source_file="/fs04/fc37/adam/projects/psilocybin-prl-analyses/src/prl_hgf/env/pat_rl_simulator.py" source_line=92}
  add.4020.7.clone.1.clone.1 = f64[2,48]{1,0} add(select.3010.9.clone.1.clone.1, select.2987.21), metadata={op_name="jit(scan)/jit(main)/while/body/jit(_one_step)/vmap(while)/body/while/body/transpose(jvp(vmap(while)))/body/jit(beliefs_propagation)/add_any" source_file="/fs04/fc37/adam/projects/psilocybin-prl-analyses/src/prl_hgf/fitting/hierarchical_patrl.py" source_line=362}
  add.4021.5.clone.1.clone.1 = f64[2,48]{1,0} add(add.4020.7.clone.1.clone.1, broadcast.4026.39), metadata={op_name="jit(scan)/jit(main)/while/body/jit(_one_step)/vmap(while)/body/while/body/transpose(jvp(vmap(while)))/body/jit(beliefs_propagation)/add_any" source_file="/fs04/fc37/adam/projects/psilocybin-prl-analyses/src/prl_hgf/fitting/hierarchical_patrl.py" source_line=362}
  multiply.2938.3.clone.1.clone.1 = f64[2,48]{1,0} multiply(bitcast.11005.6.clone.1.clone.1, add.4021.5.clone.1.clone.1), metadata={op_name="jit(scan)/jit(main)/while/body/jit(_one_step)/vmap(while)/body/while/body/transpose(jvp(vmap(while)))/body/jit(beliefs_propagation)/jit(continuous_node_prediction)/jit(predict_mean)/mul" source_file="/fs04/fc37/adam/projects/psilocybin-prl-analyses/src/prl_hgf/fitting/hierarchical_patrl.py" source_line=362}
…
  get-tuple-element.17101 = f64[2,48]{1,0} get-tuple-element(copy_fusion.1), index=1
  get-tuple-element.17100 = f64[2,48]{1,0} get-tuple-element(copy_fusion.1), index=0
  bitcast.20854 = f64[2,48]{1,0} bitcast(get-tuple-element.17100)
  bitcast.20855 = f64[2,48]{1,0} bitcast(get-tuple-element.17101)
  copy_fusion.2 = (f64[10,2,48]{2,1,0}, f64[10,2,48]{2,1,0}, f64[10,2,48]{2,1,0}, f64[10,2,48]{2,1,0}, f64[10,2,48]{2,1,0}, /*index=5*/f64[10,2,48]{2,1,0}, f64[10,2,48]{2,1,0}, f64[10,2,48]{2,1,0}, f64[10,2,48]{2,1,0}, f64[10,2,48]{2,1,0}, /*index=10*/f64[10,2,48]{2,1,0}, f64[10,2,48]{2,1,0}, f64[10,2,48]{2,1,0}, f64[10,2,48]{2,1,0}, f64[10,2,48]{2,1,0}, /*index=15*/f64[10,2,48]{2,1,0}, f64[10,2,48]{2,1,0}, f64[10,2,48]{2,1,0}, f64[10,2,48]{2,1,0}, f64[10,2,48]{2,1,0}, /*index=20*/f64[10,2,48]{2,1,0}, f64[10,2,48]{2,1,0}, f64[10,2,48]{2,1,0}, f64[10,2,48]{2,1,0}, f64[10,2,48]{2,1,0}, /*index=25*/f64[10,2,48]{2,1,0}, f64[10,2,48]{2,1,0}, f64[10,2,48]{2,1,0}, f64[10,2,48]{2,1,0}, f64[10,2,48]{2,1,0}, /*index=30*/f64[10,2,48]{2,1,0}, f64[10,2,48]{2,1,0}, f64[10,2,48]{2,1,0}, f64[10,2,48]{2,1,0}, f64[10,2,48]{2,1,0}, /*index=35*/f64[10,2,48]{2,1,0}, f64[10,2,48]{2,1,0}, f64[10,2,48]{2,1,0}, f64[10,2,48]{2,1,0}, f64[10,2,48]{2,1,0}, /*index=40*/f64[10,2,48]{2,1,0}, f64[10,2,48]{2,1,0}, f64[10,2,48]{2,1,0}, f64[10,2,48]{2,1,0}, f64[10,2,48]{2,1,0}, /*index=45*/f64[10,2,48]{2,1,0}, f64[10,2,48]{2,1,0}, f64[10,2,48]{2,1,0}, f64[10,2,48]{2,1,0}, f64[10,2,48]{2,1,0}, /*index=50*/f64[10,2,48]{2,1,0}, f64[10,2,48]{2,1,0}, f64[10,2,48]{2,1,0}) fusion(bitcast.20849), kind=kLoop, calls=copy_horizontally_fused_computation.2
  ROOT tuple.771 = (s64[], f64[2]{0}, pred[10,2]{1,0}, pred[10,2]{1,0}, s64[10,2]{1,0}, /*index=5*/s64[10,2]{1,0}, f64[10,2]{1,0}, f64[10,2,48]{2,1,0}, f64[10,2]{1,0}, f64[10,2]{1,0}, /*index=10*/f64[10,2]{1,0}, f64[10,2]{1,0}, f64[2,48]{1,0}, f64[2,48]{1,0}, f64[2,48]{1,0}, /*index=15*/f64[2,48]{1,0}, f64[2,48]{1,0}, f64[2,48]{1,0}, f64[2,48]{1,0}, f64[2,48]{1,0}, /*index=20*/f64[2,48]{1,0}, f64[2,48]{1,0}, f64[2,48]{1,0}, f64[2,48]{1,0}, (f64[10,2,48]{2,1,0}, f64[10,2,48]{2,1,0}, f64[10,2,48]{2,1,0}, f64[10,2,48]{2,1,0}, f64[10,2,48]{2,1,0}, /*index=5*/f64[10,2,48]{2,1,0}, f64[10,2,48]{2,1,0}, f64[10,2,48]{2,1,0}, f64[10,2,48]{2,1,0}, f64[10,2,48]{2,1,0}, /*index=10*/f64[10,2,48]{2,1,0}, f64[10,2,48]{2,1,0}, f64[10,2,48]{2,1,0}, f64[10,2,48]{2,1,0}, f64[10,2,48]{2,1,0}, /*index=15*/f64[10,2,48]{2,1,0}, f64[10,2,48]{2,1,0}, f64[10,2,48]{2,1,0}, f64[10,2,48]{2,1,0}, f64[10,2,48]{2,1,0}, /*index=20*/f64[10,2,48]{2,1,0}, f64[10,2,48]{2,1,0}, f64[10,2,48]{2,1,0}, f64[10,2,48]{2,1,0}, f64[10,2,48]{2,1,0}, /*index=25*/f64[10,2,48]{2,1,0}, f64[10,2,48]{2,1,0}, f64[10,2,48]{2,1,0}, f64[10,2,48]{2,1,0}, f64[10,2,48]{2,1,0}, /*index=30*/f64[10,2,48]{2,1,0}, f64[10,2,48]{2,1,0}, f64[10,2,48]{2,1,0}, f64[10,2,48]{2,1,0}, f64[10,2,48]{2,1,0}, /*index=35*/f64[10,2,48]{2,1,0}, f64[10,2,48]{2,1,0}, f64[10,2,48]{2,1,0}, f64[10,2,48]{2,1,0}, f64[10,2,48]{2,1,0}, /*index=40*/f64[10,2,48]{2,1,0}, f64[10,2,48]{2,1,0}, f64[10,2,48]{2,1,0}, f64[10,2,48]{2,1,0}, f64[10,2,48]{2,1,0}, /*index=45*/f64[10,2,48]{2,1,0}, f64[10,2,48]{2,1,0}, f64[10,2,48]{2,1,0}, f64[10,2,48]{2,1,0}, f64[10,2,48]{2,1,0}, /*index=50*/f64[10,2,48]{2,1,0}, f64[10,2,48]{2,1,0}, f64[10,2,48]{2,1,0})) tuple(wrapped_copy, wrapped_copy.1, get-tuple-element.17092, get-tuple-element.17093, get-tuple-element.17094, /*index=5*/get-tuple-element.17095, bitcast.20848, bitcast.20849, bitcast.20853, bitcast.20852, /*index=10*/bitcast.20850, bitcast.20851, bitcast.20865, bitcast.20864, bitcast.20863, /*index=15*/bitcast.20862, bitcast.20861, bitcast.20860, bitcast.20859, bitcast.20858, /*index=20*/bitcast.20857, bitcast.20856, bitcast.20854, bitcast.20855, copy_fusion.2)
} // command_buffer

ENTRY main.10354 {
  constant_15_0 = s64[] constant(0)
  Arg_13.14.0 = u32[10,2]{1,0} parameter(13), metadata={op_name="args[13]"}
  Arg_12.13.0 = f64[2,48]{1,0} parameter(12), metadata={op_name="args[12]"}
  Arg_11.12.0 = f64[2,48]{1,0} parameter(11), metadata={op_name="args[11]"}
  Arg_10.11.0 = f64[2,48]{1,0} parameter(10), metadata={op_name="args[10]"}
  Arg_9.10.0 = f64[2,48]{1,0} parameter(9), metadata={op_name="args[9]"}
  Arg_8.9.0 = f64[2,48]{1,0} parameter(8), metadata={op_name="args[8]"}
  Arg_7.8.0 = f64[2,48]{1,0} parameter(7), metadata={op_name="args[7]"}
  Arg_6.7.0 = f64[2]{0} parameter(6), metadata={op_name="args[6]"}
  Arg_5.6.0 = f64[2,48]{1,0} parameter(5), metadata={op_name="args[5]"}
  Arg_4.5.0 = f64[2,48]{1,0} parameter(4), metadata={op_name="args[4]"}
  Arg_3.4.0 = f64[2,48]{1,0} parameter(3), metadata={op_name="args[3]"}
  Arg_2.3.0 = f64[2,48]{1,0} parameter(2), metadata={op_name="args[2]"}
  Arg_1.2.0 = f64[2,48]{1,0} parameter(1), metadata={op_name="args[1]"}
  Arg_0.1.0 = f64[2,48]{1,0} parameter(0), metadata={op_name="args[0]"}
  call.1 = (s64[], f64[2]{0}, pred[10,2]{1,0}, pred[10,2]{1,0}, s64[10,2]{1,0}, /*index=5*/s64[10,2]{1,0}, f64[10,2]{1,0}, f64[10,2,48]{2,1,0}, f64[10,2]{1,0}, f64[10,2]{1,0}, /*index=10*/f64[10,2]{1,0}, f64[10,2]{1,0}, f64[2,48]{1,0}, f64[2,48]{1,0}, f64[2,48]{1,0}, /*index=15*/f64[2,48]{1,0}, f64[2,48]{1,0}, f64[2,48]{1,0}, f64[2,48]{1,0}, f64[2,48]{1,0}, /*index=20*/f64[2,48]{1,0}, f64[2,48]{1,0}, f64[2,48]{1,0}, f64[2,48]{1,0}, (f64[10,2,48]{2,1,0}, f64[10,2,48]{2,1,0}, f64[10,2,48]{2,1,0}, f64[10,2,48]{2,1,0}, f64[10,2,48]{2,1,0}, /*index=5*/f64[10,2,48]{2,1,0}, f64[10,2,48]{2,1,0}, f64[10,2,48]{2,1,0}, f64[10,2,48]{2,1,0}, f64[10,2,48]{2,1,0}, /*index=10*/f64[10,2,48]{2,1,0}, f64[10,2,48]{2,1,0}, f64[10,2,48]{2,1,0}, f64[10,2,48]{2,1,0}, f64[10,2,48]{2,1,0}, /*index=15*/f64[10,2,48]{2,1,0}, f64[10,2,48]{2,1,0}, f64[10,2,48]{2,1,0}, f64[10,2,48]{2,1,0}, f64[10,2,48]{2,1,0}, /*index=20*/f64[10,2,48]{2,1,0}, f64[10,2,48]{2,1,0}, f64[10,2,48]{2,1,0}, f64[10,2,48]{2,1,0}, f64[10,2,48]{2,1,0}, /*index=25*/f64[10,2,48]{2,1,0}, f64[10,2,48]{2,1,0}, f64[10,2,48]{2,1,0}, f64[10,2,48]{2,1,0}, f64[10,2,48]{2,1,0}, /*index=30*/f64[10,2,48]{2,1,0}, f64[10,2,48]{2,1,0}, f64[10,2,48]{2,1,0}, f64[10,2,48]{2,1,0}, f64[10,2,48]{2,1,0}, /*index=35*/f64[10,2,48]{2,1,0}, f64[10,2,48]{2,1,0}, f64[10,2,48]{2,1,0}, f64[10,2,48]{2,1,0}, f64[10,2,48]{2,1,0}, /*index=40*/f64[10,2,48]{2,1,0}, f64[10,2,48]{2,1,0}, f64[10,2,48]{2,1,0}, f64[10,2,48]{2,1,0}, f64[10,2,48]{2,1,0}, /*index=45*/f64[10,2,48]{2,1,0}, f64[10,2,48]{2,1,0}, f64[10,2,48]{2,1,0}, f64[10,2,48]{2,1,0}, f64[10,2,48]{2,1,0}, /*index=50*/f64[10,2,48]{2,1,0}, f64[10,2,48]{2,1,0}, f64[10,2,48]{2,1,0})) call(constant_15_0, Arg_6.7.0, Arg_0.1.0, Arg_1.2.0, Arg_2.3.0, /*index=5*/Arg_3.4.0, Arg_4.5.0, Arg_5.6.0, Arg_7.8.0, Arg_8.9.0, /*index=10*/Arg_9.10.0, Arg_10.11.0, Arg_11.12.0, Arg_12.13.0), to_apply=command_buffer
  get-tuple-element.17187 = s64[] get-tuple-element(call.1), index=0
  get-tuple-element.17188 = f64[2]{0} get-tuple-element(call.1), index=1
  get-tuple-element.17189 = pred[10,2]{1,0} get-tuple-element(call.1), index=2
  get-tuple-element.17190 = pred[10,2]{1,0} get-tuple-element(call.1), index=3
  get-tuple-element.17191 = s64[10,2]{1,0} get-tuple-element(call.1), index=4
  get-tuple-element.17192 = s64[10,2]{1,0} get-tuple-element(call.1), index=5
  get-tuple-element.17193 = f64[10,2]{1,0} get-tuple-element(call.1), index=6
  get-tuple-element.17194 = f64[10,2,48]{2,1,0} get-tuple-element(call.1), index=7
  get-tuple-element.17195 = f64[10,2]{1,0} get-tuple-element(call.1), index=8
  get-tuple-element.17196 = f64[10,2]{1,0} get-tuple-element(call.1), index=9
  get-tuple-element.17197 = f64[10,2]{1,0} get-tuple-element(call.1), index=10
  get-tuple-element.17198 = f64[10,2]{1,0} get-tuple-element(call.1), index=11
  get-tuple-element.17199 = f64[2,48]{1,0} get-tuple-element(call.1), index=12
  get-tuple-element.17200 = f64[2,48]{1,0} get-tuple-element(call.1), index=13
  get-tuple-element.17201 = f64[2,48]{1,0} get-tuple-element(call.1), index=14
  get-tuple-element.17202 = f64[2,48]{1,0} get-tuple-element(call.1), index=15
  get-tuple-element.17203 = f64[2,48]{1,0} get-tuple-element(call.1), index=16
  get-tuple-element.17204 = f64[2,48]{1,0} get-tuple-element(call.1), index=17
  get-tuple-element.17205 = f64[2,48]{1,0} get-tuple-element(call.1), index=18
  get-tuple-element.17206 = f64[2,48]{1,0} get-tuple-element(call.1), index=19
  get-tuple-element.17207 = f64[2,48]{1,0} get-tuple-element(call.1), index=20
  get-tuple-element.17208 = f64[2,48]{1,0} get-tuple-element(call.1), index=21
  get-tuple-element.17209 = f64[2,48]{1,0} get-tuple-element(call.1), index=22
  get-tuple-element.17210 = f64[2,48]{1,0} get-tuple-element(call.1), index=23
  get-tuple-element.17211 = (f64[10,2,48]{2,1,0}, f64[10,2,48]{2,1,0}, f64[10,2,48]{2,1,0}, f64[10,2,48]{2,1,0}, f64[10,2,48]{2,1,0}, /*index=5*/f64[10,2,48]{2,1,0}, f64[10,2,48]{2,1,0}, f64[10,2,48]{2,1,0}, f64[10,2,48]{2,1,0}, f64[10,2,48]{2,1,0}, /*index=10*/f64[10,2,48]{2,1,0}, f64[10,2,48]{2,1,0}, f64[10,2,48]{2,1,0}, f64[10,2,48]{2,1,0}, f64[10,2,48]{2,1,0}, /*index=15*/f64[10,2,48]{2,1,0}, f64[10,2,48]{2,1,0}, f64[10,2,48]{2,1,0}, f64[10,2,48]{2,1,0}, f64[10,2,48]{2,1,0}, /*index=20*/f64[10,2,48]{2,1,0}, f64[10,2,48]{2,1,0}, f64[10,2,48]{2,1,0}, f64[10,2,48]{2,1,0}, f64[10,2,48]{2,1,0}, /*index=25*/f64[10,2,48]{2,1,0}, f64[10,2,48]{2,1,0}, f64[10,2,48]{2,1,0}, f64[10,2,48]{2,1,0}, f64[10,2,48]{2,1,0}, /*index=30*/f64[10,2,48]{2,1,0}, f64[10,2,48]{2,1,0}, f64[10,2,48]{2,1,0}, f64[10,2,48]{2,1,0}, f64[10,2,48]{2,1,0}, /*index=35*/f64[10,2,48]{2,1,0}, f64[10,2,48]{2,1,0}, f64[10,2,48]{2,1,0}, f64[10,2,48]{2,1,0}, f64[10,2,48]{2,1,0}, /*index=40*/f64[10,2,48]{2,1,0}, f64[10,2,48]{2,1,0}, f64[10,2,48]{2,1,0}, f64[10,2,48]{2,1,0}, f64[10,2,48]{2,1,0}, /*index=45*/f64[10,2,48]{2,1,0}, f64[10,2,48]{2,1,0}, f64[10,2,48]{2,1,0}, f64[10,2,48]{2,1,0}, f64[10,2,48]{2,1,0}, /*index=50*/f64[10,2,48]{2,1,0}, f64[10,2,48]{2,1,0}, f64[10,2,48]{2,1,0}) get-tuple-element(call.1), index=24
  get-tuple-element.17164 = f64[10,2,48]{2,1,0} get-tuple-element(get-tuple-element.17211), index=52
  bitcast.20918 = f64[10,2,48]{2,1,0} bitcast(get-tuple-element.17164)
  get-tuple-element.17163 = f64[10,2,48]{2,1,0} get-tuple-element(get-tuple-element.17211), index=51
  bitcast.20917 = f64[10,2,48]{2,1,0} bitcast(get-tuple-element.17163)
  get-tuple-element.17162 = f64[10,2,48]{2,1,0} get-tuple-element(get-tuple-element.17211), index=50
  bitcast.20916 = f64[10,2,48]{2,1,0} bitcast(get-tuple-element.17162)
  get-tuple-element.17161 = f64[10,2,48]{2,1,0} get-tuple-element(get-tuple-element.17211), index=49
  bitcast.20915 = f64[10,2,48]{2,1,0} bitcast(get-tuple-element.17161)
  get-tuple-element.17160 = f64[10,2,48]{2,1,0} get-tuple-element(get-tuple-element.17211), index=48
  bitcast.20914 = f64[10,2,48]{2,1,0} bitcast(get-tuple-element.17160)
  get-tuple-element.17159 = f64[10,2,48]{2,1,0} get-tuple-element(get-tuple-element.17211), index=47
  bitcast.20913 = f64[10,2,48]{2,1,0} bitcast(get-tuple-element.17159)
  get-tuple-element.17158 = f64[10,2,48]{2,1,0} get-tuple-element(get-tuple-element.17211), index=46
  bitcast.20912 = f64[10,2,48]{2,1,0} bitcast(get-tuple-element.17158)
  get-tuple-element.17157 = f64[10,2,48]{2,1,0} get-tuple-element(get-tuple-element.17211), index=45
  bitcast.20911 = f64[10,2,48]{2,1,0} bitcast(get-tuple-element.17157)
  get-tuple-element.17156 = f64[10,2,48]{2,1,0} get-tuple-element(get-tuple-element.17211), index=44
  bitcast.20910 = f64[10,2,48]{2,1,0} bitcast(get-tuple-element.17156)
  get-tuple-element.17155 = f64[10,2,48]{2,1,0} get-tuple-element(get-tuple-element.17211), index=43
  bitcast.20909 = f64[10,2,48]{2,1,0} bitcast(get-tuple-element.17155)
  get-tuple-element.17154 = f64[10,2,48]{2,1,0} get-tuple-element(get-tuple-element.17211), index=42
  bitcast.20908 = f64[10,2,48]{2,1,0} bitcast(get-tuple-element.17154)
  get-tuple-element.17153 = f64[10,2,48]{2,1,0} get-tuple-element(get-tuple-element.17211), index=41
  bitcast.20907 = f64[10,2,48]{2,1,0} bitcast(get-tuple-element.17153)
  get-tuple-element.17152 = f64[10,2,48]{2,1,0} get-tuple-element(get-tuple-element.17211), index=40
  bitcast.20906 = f64[10,2,48]{2,1,0} bitcast(get-tuple-element.17152)
  get-tuple-element.17151 = f64[10,2,48]{2,1,0} get-tuple-element(get-tuple-element.17211), index=39
  bitcast.20905 = f64[10,2,48]{2,1,0} bitcast(get-tuple-element.17151)
  get-tuple-element.17150 = f64[10,2,48]{2,1,0} get-tuple-element(get-tuple-element.17211), index=38
  bitcast.20904 = f64[10,2,48]{2,1,0} bitcast(get-tuple-element.17150)
  get-tuple-element.17149 = f64[10,2,48]{2,1,0} get-tuple-element(get-tuple-element.17211), index=37
  bitcast.20903 = f64[10,2,48]{2,1,0} bitcast(get-tuple-element.17149)
  get-tuple-element.17148 = f64[10,2,48]{2,1,0} get-tuple-element(get-tuple-element.17211), index=36
  bitcast.20902 = f64[10,2,48]{2,1,0} bitcast(get-tuple-element.17148)
  get-tuple-element.17147 = f64[10,2,48]{2,1,0} get-tuple-element(get-tuple-element.17211), index=35
  bitcast.20901 = f64[10,2,48]{2,1,0} bitcast(get-tuple-element.17147)
  get-tuple-element.17146 = f64[10,2,48]{2,1,0} get-tuple-element(get-tuple-element.17211), index=34
  bitcast.20900 = f64[10,2,48]{2,1,0} bitcast(get-tuple-element.17146)
  get-tuple-element.17145 = f64[10,2,48]{2,1,0} get-tuple-element(get-tuple-element.17211), index=33
  bitcast.20899 = f64[10,2,48]{2,1,0} bitcast(get-tuple-element.17145)
  get-tuple-element.17144 = f64[10,2,48]{2,1,0} get-tuple-element(get-tuple-element.17211), index=32
  bitcast.20898 = f64[10,2,48]{2,1,0} bitcast(get-tuple-element.17144)
  get-tuple-element.17143 = f64[10,2,48]{2,1,0} get-tuple-element(get-tuple-element.17211), index=31
  bitcast.20897 = f64[10,2,48]{2,1,0} bitcast(get-tuple-element.17143)
  get-tuple-element.17142 = f64[10,2,48]{2,1,0} get-tuple-element(get-tuple-element.17211), index=30
  bitcast.20896 = f64[10,2,48]{2,1,0} bitcast(get-tuple-element.17142)
  get-tuple-element.17141 = f64[10,2,48]{2,1,0} get-tuple-element(get-tuple-element.17211), index=29
  bitcast.20895 = f64[10,2,48]{2,1,0} bitcast(get-tuple-element.17141)
  get-tuple-element.17140 = f64[10,2,48]{2,1,0} get-tuple-element(get-tuple-element.17211), index=28
  bitcast.20894 = f64[10,2,48]{2,1,0} bitcast(get-tuple-element.17140)
  get-tuple-element.17139 = f64[10,2,48]{2,1,0} get-tuple-element(get-tuple-element.17211), index=27
  bitcast.20893 = f64[10,2,48]{2,1,0} bitcast(get-tuple-element.17139)
  get-tuple-element.17138 = f64[10,2,48]{2,1,0} get-tuple-element(get-tuple-element.17211), index=26
  bitcast.20892 = f64[10,2,48]{2,1,0} bitcast(get-tuple-element.17138)
  get-tuple-element.17137 = f64[10,2,48]{2,1,0} get-tuple-element(get-tuple-element.17211), index=25
  bitcast.20891 = f64[10,2,48]{2,1,0} bitcast(get-tuple-element.17137)
  get-tuple-element.17136 = f64[10,2,48]{2,1,0} get-tuple-element(get-tuple-element.17211), index=24
  bitcast.20890 = f64[10,2,48]{2,1,0} bitcast(get-tuple-element.17136)
  get-tuple-element.17135 = f64[10,2,48]{2,1,0} get-tuple-element(get-tuple-element.17211), index=23
  bitcast.20889 = f64[10,2,48]{2,1,0} bitcast(get-tuple-element.17135)
  get-tuple-element.17134 = f64[10,2,48]{2,1,0} get-tuple-element(get-tuple-element.17211), index=22
  bitcast.20888 = f64[10,2,48]{2,1,0} bitcast(get-tuple-element.17134)
  get-tuple-element.17133 = f64[10,2,48]{2,1,0} get-tuple-element(get-tuple-element.17211), index=21
  bitcast.20887 = f64[10,2,48]{2,1,0} bitcast(get-tuple-element.17133)
  get-tuple-element.17132 = f64[10,2,48]{2,1,0} get-tuple-element(get-tuple-element.17211), index=20
  bitcast.20886 = f64[10,2,48]{2,1,0} bitcast(get-tuple-element.17132)
  get-tuple-element.17131 = f64[10,2,48]{2,1,0} get-tuple-element(get-tuple-element.17211), index=19
  bitcast.20885 = f64[10,2,48]{2,1,0} bitcast(get-tuple-element.17131)
  get-tuple-element.17130 = f64[10,2,48]{2,1,0} get-tuple-element(get-tuple-element.17211), index=18
  bitcast.20884 = f64[10,2,48]{2,1,0} bitcast(get-tuple-element.17130)
  get-tuple-element.17129 = f64[10,2,48]{2,1,0} get-tuple-element(get-tuple-element.17211), index=17
  bitcast.20883 = f64[10,2,48]{2,1,0} bitcast(get-tuple-element.17129)
  get-tuple-element.17128 = f64[10,2,48]{2,1,0} get-tuple-element(get-tuple-element.17211), index=16
  bitcast.20882 = f64[10,2,48]{2,1,0} bitcast(get-tuple-element.17128)
  get-tuple-element.17127 = f64[10,2,48]{2,1,0} get-tuple-element(get-tuple-element.17211), index=15
  bitcast.20881 = f64[10,2,48]{2,1,0} bitcast(get-tuple-element.17127)
  get-tuple-element.17126 = f64[10,2,48]{2,1,0} get-tuple-element(get-tuple-element.17211), index=14
  bitcast.20880 = f64[10,2,48]{2,1,0} bitcast(get-tuple-element.17126)
  get-tuple-element.17125 = f64[10,2,48]{2,1,0} get-tuple-element(get-tuple-element.17211), index=13
  bitcast.20879 = f64[10,2,48]{2,1,0} bitcast(get-tuple-element.17125)
  get-tuple-element.17124 = f64[10,2,48]{2,1,0} get-tuple-element(get-tuple-element.17211), index=12
  bitcast.20878 = f64[10,2,48]{2,1,0} bitcast(get-tuple-element.17124)
  get-tuple-element.17123 = f64[10,2,48]{2,1,0} get-tuple-element(get-tuple-element.17211), index=11
  bitcast.20877 = f64[10,2,48]{2,1,0} bitcast(get-tuple-element.17123)
  get-tuple-element.17122 = f64[10,2,48]{2,1,0} get-tuple-element(get-tuple-element.17211), index=10
  bitcast.20876 = f64[10,2,48]{2,1,0} bitcast(get-tuple-element.17122)
  get-tuple-element.17121 = f64[10,2,48]{2,1,0} get-tuple-element(get-tuple-element.17211), index=9
  bitcast.20875 = f64[10,2,48]{2,1,0} bitcast(get-tuple-element.17121)
  get-tuple-element.17120 = f64[10,2,48]{2,1,0} get-tuple-element(get-tuple-element.17211), index=8
  bitcast.20874 = f64[10,2,48]{2,1,0} bitcast(get-tuple-element.17120)
  get-tuple-element.17119 = f64[10,2,48]{2,1,0} get-tuple-element(get-tuple-element.17211), index=7
  bitcast.20873 = f64[10,2,48]{2,1,0} bitcast(get-tuple-element.17119)
  get-tuple-element.17118 = f64[10,2,48]{2,1,0} get-tuple-element(get-tuple-element.17211), index=6
  bitcast.20872 = f64[10,2,48]{2,1,0} bitcast(get-tuple-element.17118)
  get-tuple-element.17117 = f64[10,2,48]{2,1,0} get-tuple-element(get-tuple-element.17211), index=5
  bitcast.20871 = f64[10,2,48]{2,1,0} bitcast(get-tuple-element.17117)
  get-tuple-element.17116 = f64[10,2,48]{2,1,0} get-tuple-element(get-tuple-element.17211), index=4
  bitcast.20870 = f64[10,2,48]{2,1,0} bitcast(get-tuple-element.17116)
  get-tuple-element.17115 = f64[10,2,48]{2,1,0} get-tuple-element(get-tuple-element.17211), index=3
  bitcast.20869 = f64[10,2,48]{2,1,0} bitcast(get-tuple-element.17115)
  get-tuple-element.17114 = f64[10,2,48]{2,1,0} get-tuple-element(get-tuple-element.17211), index=2
  bitcast.20868 = f64[10,2,48]{2,1,0} bitcast(get-tuple-element.17114)
  get-tuple-element.17113 = f64[10,2,48]{2,1,0} get-tuple-element(get-tuple-element.17211), index=1
  get-tuple-element.17112 = f64[10,2,48]{2,1,0} get-tuple-element(get-tuple-element.17211), index=0
  bitcast.20866 = f64[10,2,48]{2,1,0} bitcast(get-tuple-element.17112)
  bitcast.20867 = f64[10,2,48]{2,1,0} bitcast(get-tuple-element.17113)
  tuple.763 = (s64[], f64[2,48]{1,0}, f64[2,48]{1,0}, f64[2,48]{1,0}, f64[2,48]{1,0}, /*index=5*/f64[2,48]{1,0}, f64[2,48]{1,0}, f64[2]{0}, f64[2,48]{1,0}, f64[2,48]{1,0}, /*index=10*/f64[2,48]{1,0}, f64[2,48]{1,0}, f64[2,48]{1,0}, f64[2,48]{1,0}, f64[10,2,48]{2,1,0}, /*index=15*/f64[10,2,48]{2,1,0}, f64[10,2,48]{2,1,0}, f64[10,2,48]{2,1,0}, f64[10,2,48]{2,1,0}, f64[10,2,48]{2,1,0}, /*index=20*/f64[10,2]{1,0}, f64[10,2,48]{2,1,0}, f64[10,2,48]{2,1,0}, f64[10,2,48]{2,1,0}, f64[10,2,48]{2,1,0}, /*index=25*/f64[10,2,48]{2,1,0}, f64[10,2,48]{2,1,0}, f64[10,2,48]{2,1,0}, f64[10,2,48]{2,1,0}, f64[10,2,48]{2,1,0}, /*index=30*/f64[10,2,48]{2,1,0}, f64[10,2,48]{2,1,0}, f64[10,2,48]{2,1,0}, pred[10,2]{1,0}, pred[10,2]{1,0}, /*index=35*/f64[10,2]{1,0}, f64[10,2,48]{2,1,0}, f64[10,2,48]{2,1,0}, f64[10,2,48]{2,1,0}, f64[10,2,48]{2,1,0}, /*index=40*/f64[10,2,48]{2,1,0}, f64[10,2,48]{2,1,0}, f64[10,2,48]{2,1,0}, f64[10,2,48]{2,1,0}, f64[10,2,48]{2,1,0}, /*index=45*/f64[10,2,48]{2,1,0}, f64[10,2,48]{2,1,0}, f64[10,2,48]{2,1,0}, f64[10,2]{1,0}, f64[10,2,48]{2,1,0}, /*index=50*/f64[10,2,48]{2,1,0}, f64[10,2,48]{2,1,0}, f64[10,2,48]{2,1,0}, f64[10,2,48]{2,1,0}, f64[10,2,48]{2,1,0}, /*index=55*/f64[10,2,48]{2,1,0}, f64[10,2,48]{2,1,0}, f64[10,2,48]{2,1,0}, f64[10,2,48]{2,1,0}, f64[10,2,48]{2,1,0}, /*index=60*/f64[10,2,48]{2,1,0}, f64[10,2,48]{2,1,0}, f64[10,2,48]{2,1,0}, f64[10,2,48]{2,1,0}, f64[10,2,48]{2,1,0}, /*index=65*/f64[10,2,48]{2,1,0}, f64[10,2,48]{2,1,0}, f64[10,2]{1,0}, f64[10,2,48]{2,1,0}, f64[10,2,48]{2,1,0}, /*index=70*/f64[10,2,48]{2,1,0}, f64[10,2,48]{2,1,0}, f64[10,2,48]{2,1,0}, f64[10,2,48]{2,1,0}, s64[10,2]{1,0}, /*index=75*/s64[10,2]{1,0}, f64[10,2]{1,0}, u32[10,2]{1,0}) tuple(get-tuple-element.17187, get-tuple-element.17209, get-tuple-element.17210, get-tuple-element.17208, get-tuple-element.17207, /*index=5*/get-tuple-element.17206, get-tuple-element.17205, get-tuple-element.17188, get-tuple-element.17204, get-tuple-element.17203, /*index=10*/get-tuple-element.17202, get-tuple-element.17201, get-tuple-element.17200, get-tuple-element.17199, get-tuple-element.17194, /*index=15*/bitcast.20866, bitcast.20867, bitcast.20868, bitcast.20869, bitcast.20870, /*index=20*/get-tuple-element.17193, bitcast.20871, bitcast.20872, bitcast.20873, bitcast.20874, /*index=25*/bitcast.20875, bitcast.20876, bitcast.20877, bitcast.20878, bitcast.20879, /*index=30*/bitcast.20880, bitcast.20881, bitcast.20882, get-tuple-element.17189, get-tuple-element.17190, /*index=35*/get-tuple-element.17197, bitcast.20883, bitcast.20884, bitcast.20885, bitcast.20886, /*index=40*/bitcast.20887, bitcast.20888, bitcast.20889, bitcast.20890, bitcast.20891, /*index=45*/bitcast.20892, bitcast.20893, bitcast.20894, get-tuple-element.17198, bitcast.20895, /*index=50*/bitcast.20896, bitcast.20897, bitcast.20898, bitcast.20899, bitcast.20900, /*index=55*/bitcast.20901, bitcast.20902, bitcast.20903, bitcast.20904, bitcast.20905, /*index=60*/bitcast.20906, bitcast.20907, bitcast.20908, bitcast.20909, bitcast.20910, /*index=65*/bitcast.20911, bitcast.20912, get-tuple-element.17196, bitcast.20913, bitcast.20914, /*index=70*/bitcast.20915, bitcast.20916, bitcast.20917, bitcast.20918, get-tuple-element.17191, /*index=75*/get-tuple-element.17192, get-tuple-element.17195, Arg_13.14.0)
  while.10274.0 = (s64[], f64[2,48]{1,0}, f64[2,48]{1,0}, f64[2,48]{1,0}, f64[2,48]{1,0}, /*index=5*/f64[2,48]{1,0}, f64[2,48]{1,0}, f64[2]{0}, f64[2,48]{1,0}, f64[2,48]{1,0}, /*index=10*/f64[2,48]{1,0}, f64[2,48]{1,0}, f64[2,48]{1,0}, f64[2,48]{1,0}, f64[10,2,48]{2,1,0}, /*index=15*/f64[10,2,48]{2,1,0}, f64[10,2,48]{2,1,0}, f64[10,2,48]{2,1,0}, f64[10,2,48]{2,1,0}, f64[10,2,48]{2,1,0}, /*index=20*/f64[10,2]{1,0}, f64[10,2,48]{2,1,0}, f64[10,2,48]{2,1,0}, f64[10,2,48]{2,1,0}, f64[10,2,48]{2,1,0}, /*index=25*/f64[10,2,48]{2,1,0}, f64[10,2,48]{2,1,0}, f64[10,2,48]{2,1,0}, f64[10,2,48]{2,1,0}, f64[10,2,48]{2,1,0}, /*index=30*/f64[10,2,48]{2,1,0}, f64[10,2,48]{2,1,0}, f64[10,2,48]{2,1,0}, pred[10,2]{1,0}, pred[10,2]{1,0}, /*index=35*/f64[10,2]{1,0}, f64[10,2,48]{2,1,0}, f64[10,2,48]{2,1,0}, f64[10,2,48]{2,1,0}, f64[10,2,48]{2,1,0}, /*index=40*/f64[10,2,48]{2,1,0}, f64[10,2,48]{2,1,0}, f64[10,2,48]{2,1,0}, f64[10,2,48]{2,1,0}, f64[10,2,48]{2,1,0}, /*index=45*/f64[10,2,48]{2,1,0}, f64[10,2,48]{2,1,0}, f64[10,2,48]{2,1,0}, f64[10,2]{1,0}, f64[10,2,48]{2,1,0}, /*index=50*/f64[10,2,48]{2,1,0}, f64[10,2,48]{2,1,0}, f64[10,2,48]{2,1,0}, f64[10,2,48]{2,1,0}, f64[10,2,48]{2,1,0}, /*index=55*/f64[10,2,48]{2,1,0}, f64[10,2,48]{2,1,0}, f64[10,2,48]{2,1,0}, f64[10,2,48]{2,1,0}, f64[10,2,48]{2,1,0}, /*index=60*/f64[10,2,48]{2,1,0}, f64[10,2,48]{2,1,0}, f64[10,2,48]{2,1,0}, f64[10,2,48]{2,1,0}, f64[10,2,48]{2,1,0}, /*index=65*/f64[10,2,48]{2,1,0}, f64[10,2,48]{2,1,0}, f64[10,2]{1,0}, f64[10,2,48]{2,1,0}, f64[10,2,48]{2,1,0}, /*index=70*/f64[10,2,48]{2,1,0}, f64[10,2,48]{2,1,0}, f64[10,2,48]{2,1,0}, f64[10,2,48]{2,1,0}, s64[10,2]{1,0}, /*index=75*/s64[10,2]{1,0}, f64[10,2]{1,0}, u32[10,2]{1,0}) while(tuple.763), condition=region_42.10192, body=region_0.9710, metadata={op_name="jit(scan)/jit(main)/while[cond_nconsts=0 body_nconsts=1]" source_file="/fs04/fc37/adam/projects/psilocybin-prl-analyses/src/prl_hgf/fitting/hierarchical.py" source_line=1153}, backend_config={"known_trip_count":{"n":"10"}}
  get-tuple-element.10349.0 = s64[10,2]{1,0} get-tuple-element(while.10274.0), index=74, metadata={op_name="jit(scan)/jit(main)/while[cond_nconsts=0 body_nconsts=1]" source_file="/fs04/fc37/adam/projects/psilocybin-prl-analyses/src/prl_hgf/fitting/hierarchical.py" source_line=1153}
  get-tuple-element.10348.0 = f64[10,2,48]{2,1,0} get-tuple-element(while.10274.0), index=73, metadata={op_name="jit(scan)/jit(main)/while[cond_nconsts=0 body_nconsts=1]" source_file="/fs04/fc37/adam/projects/psilocybin-prl-analyses/src/prl_hgf/fitting/hierarchical.py" source_line=1153}
  get-tuple-element.10347.0 = f64[10,2,48]{2,1,0} get-tuple-element(while.10274.0), index=72, metadata={op_name="jit(scan)/jit(main)/while[cond_nconsts=0 body_nconsts=1]" source_file="/fs04/fc37/adam/projects/psilocybin-prl-analyses/src/prl_hgf/fitting/hierarchical.py" source_line=1153}
  get-tuple-element.10346.0 = f64[10,2,48]{2,1,0} get-tuple-element(while.10274.0), index=71, metadata={op_name="jit(scan)/jit(main)/while[cond_nconsts=0 body_nconsts=1]" source_file="/fs04/fc37/adam/projects/psilocybin-prl-analyses/src/prl_hgf/fitting/hierarchical.py" source_line=1153}
  get-tuple-element.10345.0 = f64[10,2,48]{2,1,0} get-tuple-element(while.10274.0), index=70, metadata={op_name="jit(scan)/jit(main)/while[cond_nconsts=0 body_nconsts=1]" source_file="/fs04/fc37/adam/projects/psilocybin-prl-analyses/src/prl_hgf/fitting/hierarchical.py" source_line=1153}
  get-tuple-element.10344.0 = f64[10,2,48]{2,1,0} get-tuple-element(while.10274.0), index=69, metadata={op_name="jit(scan)/jit(main)/while[cond_nconsts=0 body_nconsts=1]" source_file="/fs04/fc37/adam/projects/psilocybin-prl-analyses/src/prl_hgf/fitting/hierarchical.py" source_line=1153}
  get-tuple-element.10343.0 = f64[10,2,48]{2,1,0} get-tuple-element(while.10274.0), index=68, metadata={op_name="jit(scan)/jit(main)/while[cond_nconsts=0 body_nconsts=1]" source_file="/fs04/fc37/adam/projects/psilocybin-prl-analyses/src/prl_hgf/fitting/hierarchical.py" source_line=1153}
  get-tuple-element.10342.0 = f64[10,2]{1,0} get-tuple-element(while.10274.0), index=67, metadata={op_name="jit(scan)/jit(main)/while[cond_nconsts=0 body_nconsts=1]" source_file="/fs04/fc37/adam/projects/psilocybin-prl-analyses/src/prl_hgf/fitting/hierarchical.py" source_line=1153}
  get-tuple-element.10341.0 = f64[10,2,48]{2,1,0} get-tuple-element(while.10274.0), index=66, metadata={op_name="jit(scan)/jit(main)/while[cond_nconsts=0 body_nconsts=1]" source_file="/fs04/fc37/adam/projects/psilocybin-prl-analyses/src/prl_hgf/fitting/hierarchical.py" source_line=1153}
  get-tuple-element.10340.0 = f64[10,2,48]{2,1,0} get-tuple-element(while.10274.0), index=65, metadata={op_name="jit(scan)/jit(main)/while[cond_nconsts=0 body_nconsts=1]" source_file="/fs04/fc37/adam/projects/psilocybin-prl-analyses/src/prl_hgf/fitting/hierarchical.py" source_line=1153}
  get-tuple-element.10339.0 = f64[10,2,48]{2,1,0} get-tuple-element(while.10274.0), index=64, metadata={op_name="jit(scan)/jit(main)/while[cond_nconsts=0 body_nconsts=1]" source_file="/fs04/fc37/adam/projects/psilocybin-prl-analyses/src/prl_hgf/fitting/hierarchical.py" source_line=1153}
  get-tuple-element.10338.0 = f64[10,2,48]{2,1,0} get-tuple-element(while.10274.0), index=63, metadata={op_name="jit(scan)/jit(main)/while[cond_nconsts=0 body_nconsts=1]" source_file="/fs04/fc37/adam/projects/psilocybin-prl-analyses/src/prl_hgf/fitting/hierarchical.py" source_line=1153}
  get-tuple-element.10337.0 = f64[10,2,48]{2,1,0} get-tuple-element(while.10274.0), index=62, metadata={op_name="jit(scan)/jit(main)/while[cond_nconsts=0 body_nconsts=1]" source_file="/fs04/fc37/adam/projects/psilocybin-prl-analyses/src/prl_hgf/fitting/hierarchical.py" source_line=1153}
  get-tuple-element.10336.0 = f64[10,2,48]{2,1,0} get-tuple-element(while.10274.0), index=61, metadata={op_name="jit(scan)/jit(main)/while[cond_nconsts=0 body_nconsts=1]" source_file="/fs04/fc37/adam/projects/psilocybin-prl-analyses/src/prl_hgf/fitting/hierarchical.py" source_line=1153}
  get-tuple-element.10335.0 = f64[10,2,48]{2,1,0} get-tuple-element(while.10274.0), index=60, metadata={op_name="jit(scan)/jit(main)/while[cond_nconsts=0 body_nconsts=1]" source_file="/fs04/fc37/adam/projects/psilocybin-prl-analyses/src/prl_hgf/fitting/hierarchical.py" source_line=1153}
  get-tuple-element.10334.0 = f64[10,2,48]{2,1,0} get-tuple-element(while.10274.0), index=59, metadata={op_name="jit(scan)/jit(main)/while[cond_nconsts=0 body_nconsts=1]" source_file="/fs04/fc37/adam/projects/psilocybin-prl-analyses/src/prl_hgf/fitting/hierarchical.py" source_line=1153}
  get-tuple-element.10333.0 = f64[10,2,48]{2,1,0} get-tuple-element(while.10274.0), index=58, metadata={op_name="jit(scan)/jit(main)/while[cond_nconsts=0 body_nconsts=1]" source_file="/fs04/fc37/adam/projects/psilocybin-prl-analyses/src/prl_hgf/fitting/hierarchical.py" source_line=1153}
  get-tuple-element.10332.0 = f64[10,2,48]{2,1,0} get-tuple-element(while.10274.0), index=57, metadata={op_name="jit(scan)/jit(main)/while[cond_nconsts=0 body_nconsts=1]" source_file="/fs04/fc37/adam/projects/psilocybin-prl-analyses/src/prl_hgf/fitting/hierarchical.py" source_line=1153}
  get-tuple-element.10331.0 = f64[10,2,48]{2,1,0} get-tuple-element(while.10274.0), index=56, metadata={op_name="jit(scan)/jit(main)/while[cond_nconsts=0 body_nconsts=1]" source_file="/fs04/fc37/adam/projects/psilocybin-prl-analyses/src/prl_hgf/fitting/hierarchical.py" source_line=1153}
  get-tuple-element.10330.0 = f64[10,2,48]{2,1,0} get-tuple-element(while.10274.0), index=55, metadata={op_name="jit(scan)/jit(main)/while[cond_nconsts=0 body_nconsts=1]" source_file="/fs04/fc37/adam/projects/psilocybin-prl-analyses/src/prl_hgf/fitting/hierarchical.py" source_line=1153}
  get-tuple-element.10329.0 = f64[10,2,48]{2,1,0} get-tuple-element(while.10274.0), index=54, metadata={op_name="jit(scan)/jit(main)/while[cond_nconsts=0 body_nconsts=1]" source_file="/fs04/fc37/adam/projects/psilocybin-prl-analyses/src/prl_hgf/fitting/hierarchical.py" source_line=1153}
  get-tuple-element.10328.0 = f64[10,2,48]{2,1,0} get-tuple-element(while.10274.0), index=53, metadata={op_name="jit(scan)/jit(main)/while[cond_nconsts=0 body_nconsts=1]" source_file="/fs04/fc37/adam/projects/psilocybin-prl-analyses/src/prl_hgf/fitting/hierarchical.py" source_line=1153}
  get-tuple-element.10327.0 = f64[10,2,48]{2,1,0} get-tuple-element(while.10274.0), index=52, metadata={op_name="jit(scan)/jit(main)/while[cond_nconsts=0 body_nconsts=1]" source_file="/fs04/fc37/adam/projects/psilocybin-prl-analyses/src/prl_hgf/fitting/hierarchical.py" source_line=1153}
  get-tuple-element.10326.0 = f64[10,2,48]{2,1,0} get-tuple-element(while.10274.0), index=51, metadata={op_name="jit(scan)/jit(main)/while[cond_nconsts=0 body_nconsts=1]" source_file="/fs04/fc37/adam/projects/psilocybin-prl-analyses/src/prl_hgf/fitting/hierarchical.py" source_line=1153}
  get-tuple-element.10325.0 = f64[10,2,48]{2,1,0} get-tuple-element(while.10274.0), index=50, metadata={op_name="jit(scan)/jit(main)/while[cond_nconsts=0 body_nconsts=1]" source_file="/fs04/fc37/adam/projects/psilocybin-prl-analyses/src/prl_hgf/fitting/hierarchical.py" source_line=1153}
  get-tuple-element.10324.0 = f64[10,2,48]{2,1,0} get-tuple-element(while.10274.0), index=49, metadata={op_name="jit(scan)/jit(main)/while[cond_nconsts=0 body_nconsts=1]" source_file="/fs04/fc37/adam/projects/psilocybin-prl-analyses/src/prl_hgf/fitting/hierarchical.py" source_line=1153}
  get-tuple-element.10323.0 = f64[10,2]{1,0} get-tuple-element(while.10274.0), index=48, metadata={op_name="jit(scan)/jit(main)/while[cond_nconsts=0 body_nconsts=1]" source_file="/fs04/fc37/adam/projects/psilocybin-prl-analyses/src/prl_hgf/fitting/hierarchical.py" source_line=1153}
  get-tuple-element.10322.0 = f64[10,2,48]{2,1,0} get-tuple-element(while.10274.0), index=47, metadata={op_name="jit(scan)/jit(main)/while[cond_nconsts=0 body_nconsts=1]" source_file="/fs04/fc37/adam/projects/psilocybin-prl-analyses/src/prl_hgf/fitting/hierarchical.py" source_line=1153}
  get-tuple-element.10321.0 = f64[10,2,48]{2,1,0} get-tuple-element(while.10274.0), index=46, metadata={op_name="jit(scan)/jit(main)/while[cond_nconsts=0 body_nconsts=1]" source_file="/fs04/fc37/adam/projects/psilocybin-prl-analyses/src/prl_hgf/fitting/hierarchical.py" source_line=1153}
  get-tuple-element.10320.0 = f64[10,2,48]{2,1,0} get-tuple-element(while.10274.0), index=45, metadata={op_name="jit(scan)/jit(main)/while[cond_nconsts=0 body_nconsts=1]" source_file="/fs04/fc37/adam/projects/psilocybin-prl-analyses/src/prl_hgf/fitting/hierarchical.py" source_line=1153}
  get-tuple-element.10319.0 = f64[10,2,48]{2,1,0} get-tuple-element(while.10274.0), index=44, metadata={op_name="jit(scan)/jit(main)/while[cond_nconsts=0 body_nconsts=1]" source_file="/fs04/fc37/adam/projects/psilocybin-prl-analyses/src/prl_hgf/fitting/hierarchical.py" source_line=1153}
  get-tuple-element.10318.0 = f64[10,2,48]{2,1,0} get-tuple-element(while.10274.0), index=43, metadata={op_name="jit(scan)/jit(main)/while[cond_nconsts=0 body_nconsts=1]" source_file="/fs04/fc37/adam/projects/psilocybin-prl-analyses/src/prl_hgf/fitting/hierarchical.py" source_line=1153}
  get-tuple-element.10317.0 = f64[10,2,48]{2,1,0} get-tuple-element(while.10274.0), index=42, metadata={op_name="jit(scan)/jit(main)/while[cond_nconsts=0 body_nconsts=1]" source_file="/fs04/fc37/adam/projects/psilocybin-prl-analyses/src/prl_hgf/fitting/hierarchical.py" source_line=1153}
  get-tuple-element.10316.0 = f64[10,2,48]{2,1,0} get-tuple-element(while.10274.0), index=41, metadata={op_name="jit(scan)/jit(main)/while[cond_nconsts=0 body_nconsts=1]" source_file="/fs04/fc37/adam/projects/psilocybin-prl-analyses/src/prl_hgf/fitting/hierarchical.py" source_line=1153}
  get-tuple-element.10315.0 = f64[10,2,48]{2,1,0} get-tuple-element(while.10274.0), index=40, metadata={op_name="jit(scan)/jit(main)/while[cond_nconsts=0 body_nconsts=1]" source_file="/fs04/fc37/adam/projects/psilocybin-prl-analyses/src/prl_hgf/fitting/hierarchical.py" source_line=1153}
  get-tuple-element.10314.0 = f64[10,2,48]{2,1,0} get-tuple-element(while.10274.0), index=39, metadata={op_name="jit(scan)/jit(main)/while[cond_nconsts=0 body_nconsts=1]" source_file="/fs04/fc37/adam/projects/psilocybin-prl-analyses/src/prl_hgf/fitting/hierarchical.py" source_line=1153}
  get-tuple-element.10313.0 = f64[10,2,48]{2,1,0} get-tuple-element(while.10274.0), index=38, metadata={op_name="jit(scan)/jit(main)/while[cond_nconsts=0 body_nconsts=1]" source_file="/fs04/fc37/adam/projects/psilocybin-prl-analyses/src/prl_hgf/fitting/hierarchical.py" source_line=1153}
  get-tuple-element.10312.0 = f64[10,2,48]{2,1,0} get-tuple-element(while.10274.0), index=37, metadata={op_name="jit(scan)/jit(main)/while[cond_nconsts=0 body_nconsts=1]" source_file="/fs04/fc37/adam/projects/psilocybin-prl-analyses/src/prl_hgf/fitting/hierarchical.py" source_line=1153}
  get-tuple-element.10311.0 = f64[10,2,48]{2,1,0} get-tuple-element(while.10274.0), index=36, metadata={op_name="jit(scan)/jit(main)/while[cond_nconsts=0 body_nconsts=1]" source_file="/fs04/fc37/adam/projects/psilocybin-prl-analyses/src/prl_hgf/fitting/hierarchical.py" source_line=1153}
  get-tuple-element.10310.0 = f64[10,2]{1,0} get-tuple-element(while.10274.0), index=35, metadata={op_name="jit(scan)/jit(main)/while[cond_nconsts=0 body_nconsts=1]" source_file="/fs04/fc37/adam/projects/psilocybin-prl-analyses/src/prl_hgf/fitting/hierarchical.py" source_line=1153}
  get-tuple-element.10309.0 = pred[10,2]{1,0} get-tuple-element(while.10274.0), index=34, metadata={op_name="jit(scan)/jit(main)/while[cond_nconsts=0 body_nconsts=1]" source_file="/fs04/fc37/adam/projects/psilocybin-prl-analyses/src/prl_hgf/fitting/hierarchical.py" source_line=1153}
  get-tuple-element.10308.0 = pred[10,2]{1,0} get-tuple-element(while.10274.0), index=33, metadata={op_name="jit(scan)/jit(main)/while[cond_nconsts=0 body_nconsts=1]" source_file="/fs04/fc37/adam/projects/psilocybin-prl-analyses/src/prl_hgf/fitting/hierarchical.py" source_line=1153}
  get-tuple-element.10307.0 = f64[10,2,48]{2,1,0} get-tuple-element(while.10274.0), index=32, metadata={op_name="jit(scan)/jit(main)/while[cond_nconsts=0 body_nconsts=1]" source_file="/fs04/fc37/adam/projects/psilocybin-prl-analyses/src/prl_hgf/fitting/hierarchical.py" source_line=1153}
  get-tuple-element.10306.0 = f64[10,2,48]{2,1,0} get-tuple-element(while.10274.0), index=31, metadata={op_name="jit(scan)/jit(main)/while[cond_nconsts=0 body_nconsts=1]" source_file="/fs04/fc37/adam/projects/psilocybin-prl-analyses/src/prl_hgf/fitting/hierarchical.py" source_line=1153}
  get-tuple-element.10305.0 = f64[10,2,48]{2,1,0} get-tuple-element(while.10274.0), index=30, metadata={op_name="jit(scan)/jit(main)/while[cond_nconsts=0 body_nconsts=1]" source_file="/fs04/fc37/adam/projects/psilocybin-prl-analyses/src/prl_hgf/fitting/hierarchical.py" source_line=1153}
  get-tuple-element.10304.0 = f64[10,2,48]{2,1,0} get-tuple-element(while.10274.0), index=29, metadata={op_name="jit(scan)/jit(main)/while[cond_nconsts=0 body_nconsts=1]" source_file="/fs04/fc37/adam/projects/psilocybin-prl-analyses/src/prl_hgf/fitting/hierarchical.py" source_line=1153}
  get-tuple-element.10303.0 = f64[10,2,48]{2,1,0} get-tuple-element(while.10274.0), index=28, metadata={op_name="jit(scan)/jit(main)/while[cond_nconsts=0 body_nconsts=1]" source_file="/fs04/fc37/adam/projects/psilocybin-prl-analyses/src/prl_hgf/fitting/hierarchical.py" source_line=1153}
  get-tuple-element.10302.0 = f64[10,2,48]{2,1,0} get-tuple-element(while.10274.0), index=27, metadata={op_name="jit(scan)/jit(main)/while[cond_nconsts=0 body_nconsts=1]" source_file="/fs04/fc37/adam/projects/psilocybin-prl-analyses/src/prl_hgf/fitting/hierarchical.py" source_line=1153}
  get-tuple-element.10301.0 = f64[10,2,48]{2,1,0} get-tuple-element(while.10274.0), index=26, metadata={op_name="jit(scan)/jit(main)/while[cond_nconsts=0 body_nconsts=1]" source_file="/fs04/fc37/adam/projects/psilocybin-prl-analyses/src/prl_hgf/fitting/hierarchical.py" source_line=1153}
  get-tuple-element.10300.0 = f64[10,2,48]{2,1,0} get-tuple-element(while.10274.0), index=25, metadata={op_name="jit(scan)/jit(main)/while[cond_nconsts=0 body_nconsts=1]" source_file="/fs04/fc37/adam/projects/psilocybin-prl-analyses/src/prl_hgf/fitting/hierarchical.py" source_line=1153}
  get-tuple-element.10299.0 = f64[10,2,48]{2,1,0} get-tuple-element(while.10274.0), index=24, metadata={op_name="jit(scan)/jit(main)/while[cond_nconsts=0 body_nconsts=1]" source_file="/fs04/fc37/adam/projects/psilocybin-prl-analyses/src/prl_hgf/fitting/hierarchical.py" source_line=1153}
  get-tuple-element.10298.0 = f64[10,2,48]{2,1,0} get-tuple-element(while.10274.0), index=23, metadata={op_name="jit(scan)/jit(main)/while[cond_nconsts=0 body_nconsts=1]" source_file="/fs04/fc37/adam/projects/psilocybin-prl-analyses/src/prl_hgf/fitting/hierarchical.py" source_line=1153}
  get-tuple-element.10297.0 = f64[10,2,48]{2,1,0} get-tuple-element(while.10274.0), index=22, metadata={op_name="jit(scan)/jit(main)/while[cond_nconsts=0 body_nconsts=1]" source_file="/fs04/fc37/adam/projects/psilocybin-prl-analyses/src/prl_hgf/fitting/hierarchical.py" source_line=1153}
  get-tuple-element.10296.0 = f64[10,2,48]{2,1,0} get-tuple-element(while.10274.0), index=21, metadata={op_name="jit(scan)/jit(main)/while[cond_nconsts=0 body_nconsts=1]" source_file="/fs04/fc37/adam/projects/psilocybin-prl-analyses/src/prl_hgf/fitting/hierarchical.py" source_line=1153}
  get-tuple-element.10295.0 = f64[10,2]{1,0} get-tuple-element(while.10274.0), index=20, metadata={op_name="jit(scan)/jit(main)/while[cond_nconsts=0 body_nconsts=1]" source_file="/fs04/fc37/adam/projects/psilocybin-prl-analyses/src/prl_hgf/fitting/hierarchical.py" source_line=1153}
  get-tuple-element.10294.0 = f64[10,2,48]{2,1,0} get-tuple-element(while.10274.0), index=19, metadata={op_name="jit(scan)/jit(main)/while[cond_nconsts=0 body_nconsts=1]" source_file="/fs04/fc37/adam/projects/psilocybin-prl-analyses/src/prl_hgf/fitting/hierarchical.py" source_line=1153}
  get-tuple-element.10293.0 = f64[10,2,48]{2,1,0} get-tuple-element(while.10274.0), index=18, metadata={op_name="jit(scan)/jit(main)/while[cond_nconsts=0 body_nconsts=1]" source_file="/fs04/fc37/adam/projects/psilocybin-prl-analyses/src/prl_hgf/fitting/hierarchical.py" source_line=1153}
  get-tuple-element.10292.0 = f64[10,2,48]{2,1,0} get-tuple-element(while.10274.0), index=17, metadata={op_name="jit(scan)/jit(main)/while[cond_nconsts=0 body_nconsts=1]" source_file="/fs04/fc37/adam/projects/psilocybin-prl-analyses/src/prl_hgf/fitting/hierarchical.py" source_line=1153}
  get-tuple-element.10291.0 = f64[10,2,48]{2,1,0} get-tuple-element(while.10274.0), index=16, metadata={op_name="jit(scan)/jit(main)/while[cond_nconsts=0 body_nconsts=1]" source_file="/fs04/fc37/adam/projects/psilocybin-prl-analyses/src/prl_hgf/fitting/hierarchical.py" source_line=1153}
  get-tuple-element.10290.0 = f64[10,2,48]{2,1,0} get-tuple-element(while.10274.0), index=15, metadata={op_name="jit(scan)/jit(main)/while[cond_nconsts=0 body_nconsts=1]" source_file="/fs04/fc37/adam/projects/psilocybin-prl-analyses/src/prl_hgf/fitting/hierarchical.py" source_line=1153}
  get-tuple-element.10289.0 = f64[10,2,48]{2,1,0} get-tuple-element(while.10274.0), index=14, metadata={op_name="jit(scan)/jit(main)/while[cond_nconsts=0 body_nconsts=1]" source_file="/fs04/fc37/adam/projects/psilocybin-prl-analyses/src/prl_hgf/fitting/hierarchical.py" source_line=1153}
  get-tuple-element.10288.0 = f64[2,48]{1,0} get-tuple-element(while.10274.0), index=13, metadata={op_name="jit(scan)/jit(main)/while[cond_nconsts=0 body_nconsts=1]" source_file="/fs04/fc37/adam/projects/psilocybin-prl-analyses/src/prl_hgf/fitting/hierarchical.py" source_line=1153}
  get-tuple-element.10287.0 = f64[2,48]{1,0} get-tuple-element(while.10274.0), index=12, metadata={op_name="jit(scan)/jit(main)/while[cond_nconsts=0 body_nconsts=1]" source_file="/fs04/fc37/adam/projects/psilocybin-prl-analyses/src/prl_hgf/fitting/hierarchical.py" source_line=1153}
  get-tuple-element.10286.0 = f64[2,48]{1,0} get-tuple-element(while.10274.0), index=11, metadata={op_name="jit(scan)/jit(main)/while[cond_nconsts=0 body_nconsts=1]" source_file="/fs04/fc37/adam/projects/psilocybin-prl-analyses/src/prl_hgf/fitting/hierarchical.py" source_line=1153}
  get-tuple-element.10285.0 = f64[2,48]{1,0} get-tuple-element(while.10274.0), index=10, metadata={op_name="jit(scan)/jit(main)/while[cond_nconsts=0 body_nconsts=1]" source_file="/fs04/fc37/adam/projects/psilocybin-prl-analyses/src/prl_hgf/fitting/hierarchical.py" source_line=1153}
  get-tuple-element.10284.0 = f64[2,48]{1,0} get-tuple-element(while.10274.0), index=9, metadata={op_name="jit(scan)/jit(main)/while[cond_nconsts=0 body_nconsts=1]" source_file="/fs04/fc37/adam/projects/psilocybin-prl-analyses/src/prl_hgf/fitting/hierarchical.py" source_line=1153}
  get-tuple-element.10283.0 = f64[2,48]{1,0} get-tuple-element(while.10274.0), index=8, metadata={op_name="jit(scan)/jit(main)/while[cond_nconsts=0 body_nconsts=1]" source_file="/fs04/fc37/adam/projects/psilocybin-prl-analyses/src/prl_hgf/fitting/hierarchical.py" source_line=1153}
  get-tuple-element.10282.0 = f64[2]{0} get-tuple-element(while.10274.0), index=7, metadata={op_name="jit(scan)/jit(main)/while[cond_nconsts=0 body_nconsts=1]" source_file="/fs04/fc37/adam/projects/psilocybin-prl-analyses/src/prl_hgf/fitting/hierarchical.py" source_line=1153}
  get-tuple-element.10281.0 = f64[2,48]{1,0} get-tuple-element(while.10274.0), index=6, metadata={op_name="jit(scan)/jit(main)/while[cond_nconsts=0 body_nconsts=1]" source_file="/fs04/fc37/adam/projects/psilocybin-prl-analyses/src/prl_hgf/fitting/hierarchical.py" source_line=1153}
  get-tuple-element.10280.0 = f64[2,48]{1,0} get-tuple-element(while.10274.0), index=5, metadata={op_name="jit(scan)/jit(main)/while[cond_nconsts=0 body_nconsts=1]" source_file="/fs04/fc37/adam/projects/psilocybin-prl-analyses/src/prl_hgf/fitting/hierarchical.py" source_line=1153}
  get-tuple-element.10279.0 = f64[2,48]{1,0} get-tuple-element(while.10274.0), index=4, metadata={op_name="jit(scan)/jit(main)/while[cond_nconsts=0 body_nconsts=1]" source_file="/fs04/fc37/adam/projects/psilocybin-prl-analyses/src/prl_hgf/fitting/hierarchical.py" source_line=1153}
  get-tuple-element.10278.0 = f64[2,48]{1,0} get-tuple-element(while.10274.0), index=3, metadata={op_name="jit(scan)/jit(main)/while[cond_nconsts=0 body_nconsts=1]" source_file="/fs04/fc37/adam/projects/psilocybin-prl-analyses/src/prl_hgf/fitting/hierarchical.py" source_line=1153}
  get-tuple-element.10277.0 = f64[2,48]{1,0} get-tuple-element(while.10274.0), index=2, metadata={op_name="jit(scan)/jit(main)/while[cond_nconsts=0 body_nconsts=1]" source_file="/fs04/fc37/adam/projects/psilocybin-prl-analyses/src/prl_hgf/fitting/hierarchical.py" source_line=1153}
  get-tuple-element.10276.0 = f64[2,48]{1,0} get-tuple-element(while.10274.0), index=1, metadata={op_name="jit(scan)/jit(main)/while[cond_nconsts=0 body_nconsts=1]" source_file="/fs04/fc37/adam/projects/psilocybin-prl-analyses/src/prl_hgf/fitting/hierarchical.py" source_line=1153}
  get-tuple-element.10350.0 = s64[10,2]{1,0} get-tuple-element(while.10274.0), index=75, metadata={op_name="jit(scan)/jit(main)/while[cond_nconsts=0 body_nconsts=1]" source_file="/fs04/fc37/adam/projects/psilocybin-prl-analyses/src/prl_hgf/fitting/hierarchical.py" source_line=1153}
  get-tuple-element.10351.0 = f64[10,2]{1,0} get-tuple-element(while.10274.0), index=76, metadata={op_name="jit(scan)/jit(main)/while[cond_nconsts=0 body_nconsts=1]" source_file="/fs04/fc37/adam/projects/psilocybin-prl-analyses/src/prl_hgf/fitting/hierarchical.py" source_line=1153}
  ROOT tuple.10353.0 = (f64[2,48]{1,0}, f64[2,48]{1,0}, f64[2,48]{1,0}, f64[2,48]{1,0}, f64[2,48]{1,0}, /*index=5*/f64[2,48]{1,0}, f64[2]{0}, f64[2,48]{1,0}, f64[2,48]{1,0}, f64[2,48]{1,0}, /*index=10*/f64[2,48]{1,0}, f64[2,48]{1,0}, f64[2,48]{1,0}, f64[10,2,48]{2,1,0}, f64[10,2,48]{2,1,0}, /*index=15*/f64[10,2,48]{2,1,0}, f64[10,2,48]{2,1,0}, f64[10,2,48]{2,1,0}, f64[10,2,48]{2,1,0}, f64[10,2]{1,0}, /*index=20*/f64[10,2,48]{2,1,0}, f64[10,2,48]{2,1,0}, f64[10,2,48]{2,1,0}, f64[10,2,48]{2,1,0}, f64[10,2,48]{2,1,0}, /*index=25*/f64[10,2,48]{2,1,0}, f64[10,2,48]{2,1,0}, f64[10,2,48]{2,1,0}, f64[10,2,48]{2,1,0}, f64[10,2,48]{2,1,0}, /*index=30*/f64[10,2,48]{2,1,0}, f64[10,2,48]{2,1,0}, pred[10,2]{1,0}, pred[10,2]{1,0}, f64[10,2]{1,0}, /*index=35*/f64[10,2,48]{2,1,0}, f64[10,2,48]{2,1,0}, f64[10,2,48]{2,1,0}, f64[10,2,48]{2,1,0}, f64[10,2,48]{2,1,0}, /*index=40*/f64[10,2,48]{2,1,0}, f64[10,2,48]{2,1,0}, f64[10,2,48]{2,1,0}, f64[10,2,48]{2,1,0}, f64[10,2,48]{2,1,0}, /*index=45*/f64[10,2,48]{2,1,0}, f64[10,2,48]{2,1,0}, f64[10,2]{1,0}, f64[10,2,48]{2,1,0}, f64[10,2,48]{2,1,0}, /*index=50*/f64[10,2,48]{2,1,0}, f64[10,2,48]{2,1,0}, f64[10,2,48]{2,1,0}, f64[10,2,48]{2,1,0}, f64[10,2,48]{2,1,0}, /*index=55*/f64[10,2,48]{2,1,0}, f64[10,2,48]{2,1,0}, f64[10,2,48]{2,1,0}, f64[10,2,48]{2,1,0}, f64[10,2,48]{2,1,0}, /*index=60*/f64[10,2,48]{2,1,0}, f64[10,2,48]{2,1,0}, f64[10,2,48]{2,1,0}, f64[10,2,48]{2,1,0}, f64[10,2,48]{2,1,0}, /*index=65*/f64[10,2,48]{2,1,0}, f64[10,2]{1,0}, f64[10,2,48]{2,1,0}, f64[10,2,48]{2,1,0}, f64[10,2,48]{2,1,0}, /*index=70*/f64[10,2,48]{2,1,0}, f64[10,2,48]{2,1,0}, f64[10,2,48]{2,1,0}, s64[10,2]{1,0}, s64[10,2]{1,0}, /*index=75*/f64[10,2]{1,0}) tuple(get-tuple-element.10276.0, get-tuple-element.10277.0, get-tuple-element.10278.0, get-tuple-element.10279.0, get-tuple-element.10280.0, /*index=5*/get-tuple-element.10281.0, get-tuple-element.10282.0, get-tuple-element.10283.0, get-tuple-element.10284.0, get-tuple-element.10285.0, /*index=10*/get-tuple-element.10286.0, get-tuple-element.10287.0, get-tuple-element.10288.0, get-tuple-element.10289.0, get-tuple-element.10290.0, /*index=15*/get-tuple-element.10291.0, get-tuple-element.10292.0, get-tuple-element.10293.0, get-tuple-element.10294.0, get-tuple-element.10295.0, /*index=20*/get-tuple-element.10296.0, get-tuple-element.10297.0, get-tuple-element.10298.0, get-tuple-element.10299.0, get-tuple-element.10300.0, /*index=25*/get-tuple-element.10301.0, get-tuple-element.10302.0, get-tuple-element.10303.0, get-tuple-element.10304.0, get-tuple-element.10305.0, /*index=30*/get-tuple-element.10306.0, get-tuple-element.10307.0, get-tuple-element.10308.0, get-tuple-element.10309.0, get-tuple-element.10310.0, /*index=35*/get-tuple-element.10311.0, get-tuple-element.10312.0, get-tuple-element.10313.0, get-tuple-element.10314.0, get-tuple-element.10315.0, /*index=40*/get-tuple-element.10316.0, get-tuple-element.10317.0, get-tuple-element.10318.0, get-tuple-element.10319.0, get-tuple-element.10320.0, /*index=45*/get-tuple-element.10321.0, get-tuple-element.10322.0, get-tuple-element.10323.0, get-tuple-element.10324.0, get-tuple-element.10325.0, /*index=50*/get-tuple-element.10326.0, get-tuple-element.10327.0, get-tuple-element.10328.0, get-tuple-element.10329.0, get-tuple-element.10330.0, /*index=55*/get-tuple-element.10331.0, get-tuple-element.10332.0, get-tuple-element.10333.0, get-tuple-element.10334.0, get-tuple-element.10335.0, /*index=60*/get-tuple-element.10336.0, get-tuple-element.10337.0, get-tuple-element.10338.0, get-tuple-element.10339.0, get-tuple-element.10340.0, /*index=65*/get-tuple-element.10341.0, get-tuple-element.10342.0, get-tuple-element.10343.0, get-tuple-element.10344.0, get-tuple-element.10345.0, /*index=70*/get-tuple-element.10346.0, get-tuple-element.10347.0, get-tuple-element.10348.0, get-tuple-element.10349.0, get-tuple-element.10350.0, /*index=75*/get-tuple-element.10351.0)
} // main.10354

