module @jit_logdensity_fn attributes {mhlo.num_partitions = 1 : i32, mhlo.num_replicas = 1 : i32} {
  func.func public @main(%arg0: tensor<3xf64> {mhlo.layout_mode = "default"}, %arg1: tensor<3xf64> {mhlo.layout_mode = "default"}, %arg2: tensor<3xf64> {mhlo.layout_mode = "default"}, %arg3: tensor<3xf64> {mhlo.layout_mode = "default"}, %arg4: tensor<3xf64> {mhlo.layout_mode = "default"}, %arg5: tensor<3xf64> {mhlo.layout_mode = "default"}) -> (tensor<f64> {jax.result_info = "", mhlo.layout_mode = "default"}) {
    %c = stablehlo.constant dense<"…"> : tensor<3x192xi32>
    %cst = stablehlo.constant dense<1.000000e+00> : tensor<1xf64>
    %cst_0 = stablehlo.constant dense<1.000000e+00> : tensor<1xf64>
    %cst_1 = stablehlo.constant dense<"…"> : tensor<3x192xf32>
    %cst_2 = stablehlo.constant dense<"…"> : tensor<3x192xf32>
    %c_3 = stablehlo.constant dense<"…"> : tensor<3x192xi32>
    %c_4 = stablehlo.constant dense<true> : tensor<3x192xi1>
    %0 = stablehlo.exponential %arg2 : tensor<3xf64>
    %cst_5 = stablehlo.constant dense<2.000000e+00> : tensor<f64>
    %1 = stablehlo.multiply %cst_5, %cst_5 : tensor<f64>
    %cst_6 = stablehlo.constant dense<6.2831853071795862> : tensor<f64>
    %2 = stablehlo.multiply %cst_6, %1 : tensor<f64>
    %3 = stablehlo.log %2 : tensor<f64>
    %cst_7 = stablehlo.constant dense<-4.000000e+00> : tensor<f64>
    %4 = stablehlo.broadcast_in_dim %cst_7, dims = [] : (tensor<f64>) -> tensor<3xf64>
    %5 = stablehlo.subtract %arg4, %4 : tensor<3xf64>
    %6 = stablehlo.multiply %5, %5 : tensor<3xf64>
    %7 = stablehlo.broadcast_in_dim %1, dims = [] : (tensor<f64>) -> tensor<3xf64>
    %8 = stablehlo.divide %6, %7 : tensor<3xf64>
    %9 = stablehlo.broadcast_in_dim %3, dims = [] : (tensor<f64>) -> tensor<3xf64>
    %10 = stablehlo.add %9, %8 : tensor<3xf64>
    %cst_8 = stablehlo.constant dense<-2.000000e+00> : tensor<f64>
    %11 = stablehlo.broadcast_in_dim %cst_8, dims = [] : (tensor<f64>) -> tensor<3xf64>
    %12 = stablehlo.divide %10, %11 : tensor<3xf64>
    %cst_9 = stablehlo.constant dense<0.000000e+00> : tensor<f64>
    %13 = stablehlo.reduce(%12 init: %cst_9) applies stablehlo.add across dimensions = [0] : (tensor<3xf64>, tensor<f64>) -> tensor<f64>
    %cst_10 = stablehlo.constant dense<7.500000e-01> : tensor<f64>
    %14 = stablehlo.multiply %cst_10, %cst_10 : tensor<f64>
    %cst_11 = stablehlo.constant dense<6.2831853071795862> : tensor<f64>
    %15 = stablehlo.multiply %cst_11, %14 : tensor<f64>
    %16 = stablehlo.log %15 : tensor<f64>
    %cst_12 = stablehlo.constant dense<1.3862943611198906> : tensor<f64>
    %17 = stablehlo.broadcast_in_dim %cst_12, dims = [] : (tensor<f64>) -> tensor<3xf64>
    %18 = stablehlo.subtract %arg2, %17 : tensor<3xf64>
    %19 = stablehlo.multiply %18, %18 : tensor<3xf64>
    %20 = stablehlo.broadcast_in_dim %14, dims = [] : (tensor<f64>) -> tensor<3xf64>
    %21 = stablehlo.divide %19, %20 : tensor<3xf64>
    %22 = stablehlo.broadcast_in_dim %16, dims = [] : (tensor<f64>) -> tensor<3xf64>
    %23 = stablehlo.add %22, %21 : tensor<3xf64>
    %cst_13 = stablehlo.constant dense<-2.000000e+00> : tensor<f64>
    %24 = stablehlo.broadcast_in_dim %cst_13, dims = [] : (tensor<f64>) -> tensor<3xf64>
    %25 = stablehlo.divide %23, %24 : tensor<3xf64>
    %cst_14 = stablehlo.constant dense<0.000000e+00> : tensor<f64>
    %26 = stablehlo.reduce(%25 init: %cst_14) applies stablehlo.add across dimensions = [0] : (tensor<3xf64>, tensor<f64>) -> tensor<f64>
    %27 = stablehlo.add %13, %26 : tensor<f64>
    %cst_15 = stablehlo.constant dense<1.000000e+00> : tensor<f64>
    %28 = stablehlo.multiply %cst_15, %cst_15 : tensor<f64>
    %cst_16 = stablehlo.constant dense<6.2831853071795862> : tensor<f64>
    %29 = stablehlo.multiply %cst_16, %28 : tensor<f64>
    %30 = stablehlo.log %29 : tensor<f64>
    %cst_17 = stablehlo.constant dense<0.000000e+00> : tensor<f64>
    %31 = stablehlo.broadcast_in_dim %cst_17, dims = [] : (tensor<f64>) -> tensor<3xf64>
    %32 = stablehlo.subtract %arg0, %31 : tensor<3xf64>
    %33 = stablehlo.multiply %32, %32 : tensor<3xf64>
    %34 = stablehlo.broadcast_in_dim %28, dims = [] : (tensor<f64>) -> tensor<3xf64>
    %35 = stablehlo.divide %33, %34 : tensor<3xf64>
    %36 = stablehlo.broadcast_in_dim %30, dims = [] : (tensor<f64>) -> tensor<3xf64>
    %37 = stablehlo.add %36, %35 : tensor<3xf64>
    %cst_18 = stablehlo.constant dense<-2.000000e+00> : tensor<f64>
    %38 = stablehlo.broadcast_in_dim %cst_18, dims = [] : (tensor<f64>) -> tensor<3xf64>
    %39 = stablehlo.divide %37, %38 : tensor<3xf64>
    %cst_19 = stablehlo.constant dense<0.000000e+00> : tensor<f64>
    %40 = stablehlo.reduce(%39 init: %cst_19) applies stablehlo.add across dimensions = [0] : (tensor<3xf64>, tensor<f64>) -> tensor<f64>
    %41 = stablehlo.add %27, %40 : tensor<f64>
    %cst_20 = stablehlo.constant dense<2.000000e+00> : tensor<f64>
    %42 = stablehlo.multiply %cst_20, %cst_20 : tensor<f64>
    %cst_21 = stablehlo.constant dense<6.2831853071795862> : tensor<f64>
    %43 = stablehlo.multiply %cst_21, %42 : tensor<f64>
    %44 = stablehlo.log %43 : tensor<f64>
    %cst_22 = stablehlo.constant dense<-6.000000e+00> : tensor<f64>
    %45 = stablehlo.broadcast_in_dim %cst_22, dims = [] : (tensor<f64>) -> tensor<3xf64>
    %46 = stablehlo.subtract %arg5, %45 : tensor<3xf64>
    %47 = stablehlo.multiply %46, %46 : tensor<3xf64>
    %48 = stablehlo.broadcast_in_dim %42, dims = [] : (tensor<f64>) -> tensor<3xf64>
    %49 = stablehlo.divide %47, %48 : tensor<3xf64>
    %50 = stablehlo.broadcast_in_dim %44, dims = [] : (tensor<f64>) -> tensor<3xf64>
    %51 = stablehlo.add %50, %49 : tensor<3xf64>
    %cst_23 = stablehlo.constant dense<-2.000000e+00> : tensor<f64>
    %52 = stablehlo.broadcast_in_dim %cst_23, dims = [] : (tensor<f64>) -> tensor<3xf64>
    %53 = stablehlo.divide %51, %52 : tensor<3xf64>
    %cst_24 = stablehlo.constant dense<0.000000e+00> : tensor<f64>
    %54 = stablehlo.reduce(%53 init: %cst_24) applies stablehlo.add across dimensions = [0] : (tensor<3xf64>, tensor<f64>) -> tensor<f64>
    %55 = stablehlo.add %41, %54 : tensor<f64>
    %cst_25 = stablehlo.constant dense<5.000000e-01> : tensor<f64>
    %56 = stablehlo.multiply %cst_25, %cst_25 : tensor<f64>
    %cst_26 = stablehlo.constant dense<6.2831853071795862> : tensor<f64>
    %57 = stablehlo.multiply %cst_26, %56 : tensor<f64>
    %58 = stablehlo.log %57 : tensor<f64>
    %cst_27 = stablehlo.constant dense<1.000000e+00> : tensor<f64>
    %59 = stablehlo.broadcast_in_dim %cst_27, dims = [] : (tensor<f64>) -> tensor<3xf64>
    %60 = stablehlo.subtract %arg1, %59 : tensor<3xf64>
    %61 = stablehlo.multiply %60, %60 : tensor<3xf64>
    %62 = stablehlo.broadcast_in_dim %56, dims = [] : (tensor<f64>) -> tensor<3xf64>
    %63 = stablehlo.divide %61, %62 : tensor<3xf64>
    %64 = stablehlo.broadcast_in_dim %58, dims = [] : (tensor<f64>) -> tensor<3xf64>
    %65 = stablehlo.add %64, %63 : tensor<3xf64>
    %cst_28 = stablehlo.constant dense<-2.000000e+00> : tensor<f64>
    %66 = stablehlo.broadcast_in_dim %cst_28, dims = [] : (tensor<f64>) -> tensor<3xf64>
    %67 = stablehlo.divide %65, %66 : tensor<3xf64>
    %cst_29 = stablehlo.constant dense<0.000000e+00> : tensor<f64>
    %68 = stablehlo.reduce(%67 init: %cst_29) applies stablehlo.add across dimensions = [0] : (tensor<3xf64>, tensor<f64>) -> tensor<f64>
    %69 = stablehlo.add %55, %68 : tensor<f64>
    %cst_30 = stablehlo.constant dense<1.000000e+00> : tensor<f64>
    %70 = stablehlo.multiply %cst_30, %cst_30 : tensor<f64>
    %cst_31 = stablehlo.constant dense<6.2831853071795862> : tensor<f64>
    %71 = stablehlo.multiply %cst_31, %70 : tensor<f64>
    %72 = stablehlo.log %71 : tensor<f64>
    %cst_32 = stablehlo.constant dense<1.000000e+00> : tensor<f64>
    %73 = stablehlo.broadcast_in_dim %cst_32, dims = [] : (tensor<f64>) -> tensor<3xf64>
    %74 = stablehlo.subtract %arg3, %73 : tensor<3xf64>
    %75 = stablehlo.multiply %74, %74 : tensor<3xf64>
    %76 = stablehlo.broadcast_in_dim %70, dims = [] : (tensor<f64>) -> tensor<3xf64>
    %77 = stablehlo.divide %75, %76 : tensor<3xf64>
    %78 = stablehlo.broadcast_in_dim %72, dims = [] : (tensor<f64>) -> tensor<3xf64>
    %79 = stablehlo.add %78, %77 : tensor<3xf64>
    %cst_33 = stablehlo.constant dense<-2.000000e+00> : tensor<f64>
    %80 = stablehlo.broadcast_in_dim %cst_33, dims = [] : (tensor<f64>) -> tensor<3xf64>
    %81 = stablehlo.divide %79, %80 : tensor<3xf64>
    %cst_34 = stablehlo.constant dense<0.000000e+00> : tensor<f64>
    %82 = stablehlo.reduce(%81 init: %cst_34) applies stablehlo.add across dimensions = [0] : (tensor<3xf64>, tensor<f64>) -> tensor<f64>
    %83 = stablehlo.add %69, %82 : tensor<f64>
    %84 = stablehlo.convert %arg1 : tensor<3xf64>
    %85 = stablehlo.broadcast_in_dim %84, dims = [0] : (tensor<3xf64>) -> tensor<3x1xf64>
    %86 = stablehlo.convert %c : (tensor<3x192xi32>) -> tensor<3x192xf64>
    %87 = stablehlo.broadcast_in_dim %86, dims = [0, 1] : (tensor<3x192xf64>) -> tensor<3x192x1xf64>
    %c_35 = stablehlo.constant dense<1> : tensor<i32>
    %88 = stablehlo.broadcast_in_dim %c_35, dims = [] : (tensor<i32>) -> tensor<192xi32>
    %cst_36 = stablehlo.constant dense<1.000000e+00> : tensor<f64>
    %89 = stablehlo.broadcast_in_dim %cst_36, dims = [] : (tensor<f64>) -> tensor<192xf64>
    %cst_37 = stablehlo.constant dense<1.000000e+00> : tensor<f64>
    %90 = stablehlo.broadcast_in_dim %cst_37, dims = [] : (tensor<f64>) -> tensor<3xf64>
    %cst_38 = stablehlo.constant dense<0.000000e+00> : tensor<f64>
    %91 = stablehlo.broadcast_in_dim %cst_38, dims = [] : (tensor<f64>) -> tensor<3xf64>
    %c_39 = stablehlo.constant dense<1> : tensor<i64>
    %92 = stablehlo.broadcast_in_dim %c_39, dims = [] : (tensor<i64>) -> tensor<3xi64>
    %cst_40 = stablehlo.constant dense<1.000000e+00> : tensor<f64>
    %93 = stablehlo.broadcast_in_dim %cst_40, dims = [] : (tensor<f64>) -> tensor<3xf64>
    %cst_41 = stablehlo.constant dense<0.000000e+00> : tensor<f64>
    %94 = stablehlo.broadcast_in_dim %cst_41, dims = [] : (tensor<f64>) -> tensor<3xf64>
    %95 = stablehlo.broadcast_in_dim %cst, dims = [1] : (tensor<1xf64>) -> tensor<3x1xf64>
    %96 = stablehlo.broadcast_in_dim %cst_0, dims = [1] : (tensor<1xf64>) -> tensor<3x1xf64>
    %cst_42 = stablehlo.constant dense<1.000000e+00> : tensor<f64>
    %97 = stablehlo.broadcast_in_dim %cst_42, dims = [] : (tensor<f64>) -> tensor<3xf64>
    %cst_43 = stablehlo.constant dense<1.000000e+00> : tensor<f64>
    %98 = stablehlo.broadcast_in_dim %cst_43, dims = [] : (tensor<f64>) -> tensor<3xf64>
    %cst_44 = stablehlo.constant dense<0.000000e+00> : tensor<f64>
    %99 = stablehlo.broadcast_in_dim %cst_44, dims = [] : (tensor<f64>) -> tensor<3xf64>
    %100 = stablehlo.transpose %87, dims = [1, 0, 2] : (tensor<3x192x1xf64>) -> tensor<192x3x1xf64>
    %cst_45 = stablehlo.constant dense<0.000000e+00> : tensor<f64>
    %101 = stablehlo.broadcast_in_dim %cst_45, dims = [] : (tensor<f64>) -> tensor<192x3xf64>
    %c_46 = stablehlo.constant dense<0> : tensor<i64>
    %102:19 = stablehlo.while(%iterArg = %100, %iterArg_56 = %88, %iterArg_57 = %89, %iterArg_58 = %c_46, %iterArg_59 = %90, %iterArg_60 = %91, %iterArg_61 = %92, %iterArg_62 = %93, %iterArg_63 = %94, %iterArg_64 = %arg4, %iterArg_65 = %95, %iterArg_66 = %96, %iterArg_67 = %97, %iterArg_68 = %arg3, %iterArg_69 = %98, %iterArg_70 = %99, %iterArg_71 = %arg5, %iterArg_72 = %85, %iterArg_73 = %101) : tensor<192x3x1xf64>, tensor<192xi32>, tensor<192xf64>, tensor<i64>, tensor<3xf64>, tensor<3xf64>, tensor<3xi64>, tensor<3xf64>, tensor<3xf64>, tensor<3xf64>, tensor<3x1xf64>, tensor<3x1xf64>, tensor<3xf64>, tensor<3xf64>, tensor<3xf64>, tensor<3xf64>, tensor<3xf64>, tensor<3x1xf64>, tensor<192x3xf64>
     cond {
      %c_74 = stablehlo.constant dense<192> : tensor<i64>
      %140 = stablehlo.compare  LT, %iterArg_58, %c_74,  SIGNED : (tensor<i64>, tensor<i64>) -> tensor<i1>
      stablehlo.return %140 : tensor<i1>
    } do {
      %c_74 = stablehlo.constant dense<0> : tensor<i64>
      %140 = stablehlo.compare  LT, %iterArg_58, %c_74,  SIGNED : (tensor<i64>, tensor<i64>) -> tensor<i1>
      %141 = stablehlo.convert %iterArg_58 : tensor<i64>
      %c_75 = stablehlo.constant dense<192> : tensor<i64>
      %142 = stablehlo.add %141, %c_75 : tensor<i64>
      %143 = stablehlo.select %140, %142, %iterArg_58 : tensor<i1>, tensor<i64>
      %c_76 = stablehlo.constant dense<0> : tensor<i64>
      %c_77 = stablehlo.constant dense<0> : tensor<i64>
      %144 = stablehlo.dynamic_slice %iterArg, %143, %c_76, %c_77, sizes = [1, 3, 1] : (tensor<192x3x1xf64>, tensor<i64>, tensor<i64>, tensor<i64>) -> tensor<1x3x1xf64>
      %145 = stablehlo.reshape %144 : (tensor<1x3x1xf64>) -> tensor<3x1xf64>
      %c_78 = stablehlo.constant dense<0> : tensor<i64>
      %146 = stablehlo.compare  LT, %iterArg_58, %c_78,  SIGNED : (tensor<i64>, tensor<i64>) -> tensor<i1>
      %147 = stablehlo.convert %iterArg_58 : tensor<i64>
      %c_79 = stablehlo.constant dense<192> : tensor<i64>
      %148 = stablehlo.add %147, %c_79 : tensor<i64>
      %149 = stablehlo.select %146, %148, %iterArg_58 : tensor<i1>, tensor<i64>
      %150 = stablehlo.dynamic_slice %iterArg_56, %149, sizes = [1] : (tensor<192xi32>, tensor<i64>) -> tensor<1xi32>
      %151 = stablehlo.reshape %150 : (tensor<1xi32>) -> tensor<i32>
      %c_80 = stablehlo.constant dense<0> : tensor<i64>
      %152 = stablehlo.compare  LT, %iterArg_58, %c_80,  SIGNED : (tensor<i64>, tensor<i64>) -> tensor<i1>
      %153 = stablehlo.convert %iterArg_58 : tensor<i64>
      %c_81 = stablehlo.constant dense<192> : tensor<i64>
      %154 = stablehlo.add %153, %c_81 : tensor<i64>
      %155 = stablehlo.select %152, %154, %iterArg_58 : tensor<i1>, tensor<i64>
      %156 = stablehlo.dynamic_slice %iterArg_57, %155, sizes = [1] : (tensor<192xf64>, tensor<i64>) -> tensor<1xf64>
      %157 = stablehlo.reshape %156 : (tensor<1xf64>) -> tensor<f64>
      %158:15 = func.call @None(%iterArg_59, %iterArg_60, %iterArg_61, %iterArg_62, %iterArg_63, %iterArg_64, %iterArg_65, %iterArg_66, %iterArg_67, %iterArg_68, %iterArg_69, %iterArg_70, %iterArg_71, %iterArg_72, %145, %151, %157) : (tensor<3xf64>, tensor<3xf64>, tensor<3xi64>, tensor<3xf64>, tensor<3xf64>, tensor<3xf64>, tensor<3x1xf64>, tensor<3x1xf64>, tensor<3xf64>, tensor<3xf64>, tensor<3xf64>, tensor<3xf64>, tensor<3xf64>, tensor<3x1xf64>, tensor<3x1xf64>, tensor<i32>, tensor<f64>) -> (tensor<3xf64>, tensor<3xf64>, tensor<3xi64>, tensor<3xf64>, tensor<3xf64>, tensor<3xf64>, tensor<3x1xf64>, tensor<3x1xf64>, tensor<3xf64>, tensor<3xf64>, tensor<3xf64>, tensor<3xf64>, tensor<3xf64>, tensor<3x1xf64>, tensor<3xf64>)
      %159 = stablehlo.broadcast_in_dim %158#14, dims = [1] : (tensor<3xf64>) -> tensor<1x3xf64>
      %c_82 = stablehlo.constant dense<0> : tensor<i64>
      %160 = stablehlo.compare  LT, %iterArg_58, %c_82,  SIGNED : (tensor<i64>, tensor<i64>) -> tensor<i1>
      %161 = stablehlo.convert %iterArg_58 : tensor<i64>
      %c_83 = stablehlo.constant dense<192> : tensor<i64>
      %162 = stablehlo.add %161, %c_83 : tensor<i64>
      %163 = stablehlo.select %160, %162, %iterArg_58 : tensor<i1>, tensor<i64>
      %c_84 = stablehlo.constant dense<0> : tensor<i64>
      %164 = stablehlo.dynamic_update_slice %iterArg_73, %159, %163, %c_84 : (tensor<192x3xf64>, tensor<1x3xf64>, tensor<i64>, tensor<i64>) -> tensor<192x3xf64>
      %c_85 = stablehlo.constant dense<1> : tensor<i64>
      %165 = stablehlo.add %iterArg_58, %c_85 : tensor<i64>
      stablehlo.return %iterArg, %iterArg_56, %iterArg_57, %165, %158#0, %158#1, %158#2, %158#3, %158#4, %158#5, %158#6, %158#7, %158#8, %158#9, %158#10, %158#11, %158#12, %158#13, %164 : tensor<192x3x1xf64>, tensor<192xi32>, tensor<192xf64>, tensor<i64>, tensor<3xf64>, tensor<3xf64>, tensor<3xi64>, tensor<3xf64>, tensor<3xf64>, tensor<3xf64>, tensor<3x1xf64>, tensor<3x1xf64>, tensor<3xf64>, tensor<3xf64>, tensor<3xf64>, tensor<3xf64>, tensor<3xf64>, tensor<3x1xf64>, tensor<192x3xf64>
    }
    %103 = stablehlo.convert %cst_1 : (tensor<3x192xf32>) -> tensor<3x192xf64>
    %104 = stablehlo.convert %cst_2 : (tensor<3x192xf32>) -> tensor<3x192xf64>
    %cst_47 = stablehlo.constant dense<-3.000000e+01> : tensor<f64>
    %cst_48 = stablehlo.constant dense<3.000000e+01> : tensor<f64>
    %105 = call @clip_13(%102#18, %cst_47, %cst_48) : (tensor<192x3xf64>, tensor<f64>, tensor<f64>) -> tensor<192x3xf64>
    %106 = stablehlo.negate %105 : tensor<192x3xf64>
    %107 = stablehlo.exponential %106 : tensor<192x3xf64>
    %cst_49 = stablehlo.constant dense<1.000000e+00> : tensor<f64>
    %108 = stablehlo.broadcast_in_dim %cst_49, dims = [] : (tensor<f64>) -> tensor<192x3xf64>
    %109 = stablehlo.add %108, %107 : tensor<192x3xf64>
    %cst_50 = stablehlo.constant dense<1.000000e+00> : tensor<f64>
    %110 = stablehlo.broadcast_in_dim %cst_50, dims = [] : (tensor<f64>) -> tensor<192x3xf64>
    %111 = stablehlo.divide %110, %109 : tensor<192x3xf64>
    %cst_51 = stablehlo.constant dense<1.000000e+00> : tensor<f64>
    %112 = stablehlo.broadcast_in_dim %cst_51, dims = [] : (tensor<f64>) -> tensor<192x3xf64>
    %113 = stablehlo.subtract %112, %111 : tensor<192x3xf64>
    %114 = stablehlo.transpose %113, dims = [1, 0] : (tensor<192x3xf64>) -> tensor<3x192xf64>
    %115 = stablehlo.multiply %114, %103 : tensor<3x192xf64>
    %116 = stablehlo.transpose %111, dims = [1, 0] : (tensor<192x3xf64>) -> tensor<3x192xf64>
    %117 = stablehlo.multiply %116, %104 : tensor<3x192xf64>
    %118 = stablehlo.subtract %115, %117 : tensor<3x192xf64>
    %cst_52 = stablehlo.constant dense<0.000000e+00> : tensor<f64>
    %119 = stablehlo.broadcast_in_dim %cst_52, dims = [] : (tensor<f64>) -> tensor<192xf64>
    %120 = stablehlo.convert %0 : tensor<3xf64>
    %121 = stablehlo.broadcast_in_dim %120, dims = [0] : (tensor<3xf64>) -> tensor<3x1xf64>
    %122 = stablehlo.broadcast_in_dim %121, dims = [0, 1] : (tensor<3x1xf64>) -> tensor<3x192xf64>
    %123 = stablehlo.multiply %122, %118 : tensor<3x192xf64>
    %124 = stablehlo.convert %arg0 : tensor<3xf64>
    %125 = stablehlo.broadcast_in_dim %124, dims = [0] : (tensor<3xf64>) -> tensor<3x1xf64>
    %126 = stablehlo.broadcast_in_dim %125, dims = [0, 1] : (tensor<3x1xf64>) -> tensor<3x192xf64>
    %127 = stablehlo.add %123, %126 : tensor<3x192xf64>
    %128 = stablehlo.broadcast_in_dim %119, dims = [0] : (tensor<192xf64>) -> tensor<192x1xf64>
    %129 = stablehlo.broadcast_in_dim %127, dims = [0, 1] : (tensor<3x192xf64>) -> tensor<3x192x1xf64>
    %130 = stablehlo.broadcast_in_dim %128, dims = [1, 2] : (tensor<192x1xf64>) -> tensor<3x192x1xf64>
    %131 = stablehlo.concatenate %130, %129, dim = 2 : (tensor<3x192x1xf64>, tensor<3x192x1xf64>) -> tensor<3x192x2xf64>
    %132 = call @log_softmax(%131) : (tensor<3x192x2xf64>) -> tensor<3x192x2xf64>
    %133 = stablehlo.broadcast_in_dim %c_3, dims = [0, 1] : (tensor<3x192xi32>) -> tensor<3x192x1xi32>
    %134 = call @take_along_axis(%132, %133) : (tensor<3x192x2xf64>, tensor<3x192x1xi32>) -> tensor<3x192x1xf64>
    %135 = stablehlo.reshape %134 : (tensor<3x192x1xf64>) -> tensor<3x192xf64>
    %cst_53 = stablehlo.constant dense<0.000000e+00> : tensor<f64>
    %136 = call @_where_14(%c_4, %135, %cst_53) : (tensor<3x192xi1>, tensor<3x192xf64>, tensor<f64>) -> tensor<3x192xf64>
    %cst_54 = stablehlo.constant dense<0.000000e+00> : tensor<f64>
    %137 = stablehlo.reduce(%136 init: %cst_54) applies stablehlo.add across dimensions = [1] : (tensor<3x192xf64>, tensor<f64>) -> tensor<3xf64>
    %cst_55 = stablehlo.constant dense<0.000000e+00> : tensor<f64>
    %138 = stablehlo.reduce(%137 init: %cst_55) applies stablehlo.add across dimensions = [0] : (tensor<3xf64>, tensor<f64>) -> tensor<f64>
    %139 = stablehlo.add %83, %138 : tensor<f64>
    return %139 : tensor<f64>
  }
  func.func private @None(%arg0: tensor<3xf64>, %arg1: tensor<3xf64>, %arg2: tensor<3xi64>, %arg3: tensor<3xf64>, %arg4: tensor<3xf64>, %arg5: tensor<3xf64>, %arg6: tensor<3x1xf64>, %arg7: tensor<3x1xf64>, %arg8: tensor<3xf64>, %arg9: tensor<3xf64>, %arg10: tensor<3xf64>, %arg11: tensor<3xf64>, %arg12: tensor<3xf64>, %arg13: tensor<3x1xf64>, %arg14: tensor<3x1xf64>, %arg15: tensor<i32>, %arg16: tensor<f64>) -> (tensor<3xf64>, tensor<3xf64>, tensor<3xi64>, tensor<3xf64>, tensor<3xf64>, tensor<3xf64>, tensor<3x1xf64>, tensor<3x1xf64>, tensor<3xf64>, tensor<3xf64>, tensor<3xf64>, tensor<3xf64>, tensor<3xf64>, tensor<3x1xf64>, tensor<3xf64>) {
    %0:4 = call @beliefs_propagation(%arg0, %arg1, %arg2, %arg3, %arg4, %arg5, %arg6, %arg7, %arg8, %arg9, %arg10, %arg11, %arg12, %arg13, %arg14, %arg15, %arg16) : (tensor<3xf64>, tensor<3xf64>, tensor<3xi64>, tensor<3xf64>, tensor<3xf64>, tensor<3xf64>, tensor<3x1xf64>, tensor<3x1xf64>, tensor<3xf64>, tensor<3xf64>, tensor<3xf64>, tensor<3xf64>, tensor<3xf64>, tensor<3x1xf64>, tensor<3x1xf64>, tensor<i32>, tensor<f64>) -> (tensor<3xf64>, tensor<3xf64>, tensor<3xf64>, tensor<3xf64>)
    %1 = stablehlo.is_finite %0#0 : (tensor<3xf64>) -> tensor<3xi1>
    %c = stablehlo.constant dense<true> : tensor<i1>
    %2 = stablehlo.reduce(%1 init: %c) applies stablehlo.and across dimensions = [] : (tensor<3xi1>, tensor<i1>) -> tensor<3xi1>
    %3 = stablehlo.abs %0#0 : tensor<3xf64>
    %cst = stablehlo.constant dense<1.400000e+01> : tensor<f64>
    %4 = stablehlo.broadcast_in_dim %cst, dims = [] : (tensor<f64>) -> tensor<3xf64>
    %5 = stablehlo.compare  LT, %3, %4,  FLOAT : (tensor<3xf64>, tensor<3xf64>) -> tensor<3xi1>
    %6 = stablehlo.and %2, %5 : tensor<3xi1>
    %7 = call @_where_9(%6, %arg0, %arg0) : (tensor<3xi1>, tensor<3xf64>, tensor<3xf64>) -> tensor<3xf64>
    %8 = call @_where_10(%6, %0#0, %arg1) : (tensor<3xi1>, tensor<3xf64>, tensor<3xf64>) -> tensor<3xf64>
    %9 = call @_where_11(%6, %arg2, %arg2) : (tensor<3xi1>, tensor<3xi64>, tensor<3xi64>) -> tensor<3xi64>
    %10 = call @_where_10(%6, %0#1, %arg3) : (tensor<3xi1>, tensor<3xf64>, tensor<3xf64>) -> tensor<3xf64>
    %11 = call @_where_9(%6, %arg4, %arg4) : (tensor<3xi1>, tensor<3xf64>, tensor<3xf64>) -> tensor<3xf64>
    %12 = call @_where_9(%6, %arg5, %arg5) : (tensor<3xi1>, tensor<3xf64>, tensor<3xf64>) -> tensor<3xf64>
    %13 = call @_where_12(%6, %arg6, %arg6) : (tensor<3xi1>, tensor<3x1xf64>, tensor<3x1xf64>) -> tensor<3x1xf64>
    %14 = call @_where_12(%6, %arg7, %arg7) : (tensor<3xi1>, tensor<3x1xf64>, tensor<3x1xf64>) -> tensor<3x1xf64>
    %15 = call @_where_9(%6, %arg8, %arg8) : (tensor<3xi1>, tensor<3xf64>, tensor<3xf64>) -> tensor<3xf64>
    %16 = call @_where_10(%6, %0#2, %arg9) : (tensor<3xi1>, tensor<3xf64>, tensor<3xf64>) -> tensor<3xf64>
    %17 = call @_where_10(%6, %0#3, %arg10) : (tensor<3xi1>, tensor<3xf64>, tensor<3xf64>) -> tensor<3xf64>
    %18 = call @_where_9(%6, %arg11, %arg11) : (tensor<3xi1>, tensor<3xf64>, tensor<3xf64>) -> tensor<3xf64>
    %19 = call @_where_9(%6, %arg12, %arg12) : (tensor<3xi1>, tensor<3xf64>, tensor<3xf64>) -> tensor<3xf64>
    %20 = call @_where_12(%6, %arg13, %arg13) : (tensor<3xi1>, tensor<3x1xf64>, tensor<3x1xf64>) -> tensor<3x1xf64>
    return %7, %8, %9, %10, %11, %12, %13, %14, %15, %16, %17, %18, %19, %20, %8 : tensor<3xf64>, tensor<3xf64>, tensor<3xi64>, tensor<3xf64>, tensor<3xf64>, tensor<3xf64>, tensor<3x1xf64>, tensor<3x1xf64>, tensor<3xf64>, tensor<3xf64>, tensor<3xf64>, tensor<3xf64>, tensor<3xf64>, tensor<3x1xf64>, tensor<3xf64>
  }
  func.func private @beliefs_propagation(%arg0: tensor<3xf64> {mhlo.layout_mode = "default"}, %arg1: tensor<3xf64> {mhlo.layout_mode = "default"}, %arg2: tensor<3xi64> {mhlo.layout_mode = "default"}, %arg3: tensor<3xf64> {mhlo.layout_mode = "default"}, %arg4: tensor<3xf64> {mhlo.layout_mode = "default"}, %arg5: tensor<3xf64> {mhlo.layout_mode = "default"}, %arg6: tensor<3x1xf64> {mhlo.layout_mode = "default"}, %arg7: tensor<3x1xf64> {mhlo.layout_mode = "default"}, %arg8: tensor<3xf64> {mhlo.layout_mode = "default"}, %arg9: tensor<3xf64> {mhlo.layout_mode = "default"}, %arg10: tensor<3xf64> {mhlo.layout_mode = "default"}, %arg11: tensor<3xf64> {mhlo.layout_mode = "default"}, %arg12: tensor<3xf64> {mhlo.layout_mode = "default"}, %arg13: tensor<3x1xf64> {mhlo.layout_mode = "default"}, %arg14: tensor<3x1xf64> {mhlo.layout_mode = "default"}, %arg15: tensor<i32> {mhlo.layout_mode = "default"}, %arg16: tensor<f64> {mhlo.layout_mode = "default"}) -> (tensor<3xf64> {mhlo.layout_mode = "default"}, tensor<3xf64> {mhlo.layout_mode = "default"}, tensor<3xf64> {mhlo.layout_mode = "default"}, tensor<3xf64> {mhlo.layout_mode = "default"}) {
    %0:2 = call @continuous_node_prediction(%arg16, %arg8, %arg9, %arg10, %arg11, %arg12) : (tensor<f64>, tensor<3xf64>, tensor<3xf64>, tensor<3xf64>, tensor<3xf64>, tensor<3xf64>) -> (tensor<3xf64>, tensor<3xf64>)
    %1:3 = call @continuous_node_prediction_0(%arg16, %arg0, %arg1, %arg3, %arg4, %arg5, %arg7, %0#0) : (tensor<f64>, tensor<3xf64>, tensor<3xf64>, tensor<3xf64>, tensor<3xf64>, tensor<3xf64>, tensor<3x1xf64>, tensor<3xf64>) -> (tensor<3xf64>, tensor<3xf64>, tensor<3xf64>)
    %2:2 = call @binary_state_node_prediction(%1#0) : (tensor<3xf64>) -> (tensor<3xf64>, tensor<3xf64>)
    %3 = stablehlo.reshape %arg14 : (tensor<3x1xf64>) -> tensor<3xf64>
    %4 = call @binary_state_node_prediction_error(%2#0, %2#1, %3, %arg15) : (tensor<3xf64>, tensor<3xf64>, tensor<3xf64>, tensor<i32>) -> tensor<3xf64>
    %5:2 = call @continuous_node_posterior_update(%arg16, %2#1, %arg15, %4, %1#0, %1#1, %arg3, %arg5, %arg6, %arg7, %arg9) : (tensor<f64>, tensor<3xf64>, tensor<i32>, tensor<3xf64>, tensor<3xf64>, tensor<3xf64>, tensor<3xf64>, tensor<3xf64>, tensor<3x1xf64>, tensor<3x1xf64>, tensor<3xf64>) -> (tensor<3xf64>, tensor<3xf64>)
    %6 = call @continuous_node_prediction_error(%1#0, %1#1, %5#0, %5#1) : (tensor<3xf64>, tensor<3xf64>, tensor<3xf64>, tensor<3xf64>) -> tensor<3xf64>
    %7:2 = call @continuous_node_posterior_update_ehgf(%arg16, %arg2, %1#2, %6, %0#0, %0#1, %arg10, %arg12, %arg13) : (tensor<f64>, tensor<3xi64>, tensor<3xf64>, tensor<3xf64>, tensor<3xf64>, tensor<3xf64>, tensor<3xf64>, tensor<3xf64>, tensor<3x1xf64>) -> (tensor<3xf64>, tensor<3xf64>)
    return %5#0, %5#1, %7#0, %7#1 : tensor<3xf64>, tensor<3xf64>, tensor<3xf64>, tensor<3xf64>
  }
  func.func private @continuous_node_prediction(%arg0: tensor<f64> {mhlo.layout_mode = "default"}, %arg1: tensor<3xf64> {mhlo.layout_mode = "default"}, %arg2: tensor<3xf64> {mhlo.layout_mode = "default"}, %arg3: tensor<3xf64> {mhlo.layout_mode = "default"}, %arg4: tensor<3xf64> {mhlo.layout_mode = "default"}, %arg5: tensor<3xf64> {mhlo.layout_mode = "default"}) -> (tensor<3xf64> {mhlo.layout_mode = "default"}, tensor<3xf64> {mhlo.layout_mode = "default"}) {
    %0 = call @predict_mean(%arg0, %arg1, %arg2, %arg4) : (tensor<f64>, tensor<3xf64>, tensor<3xf64>, tensor<3xf64>) -> tensor<3xf64>
    %1 = call @predict_precision(%arg0, %arg3, %arg5) : (tensor<f64>, tensor<3xf64>, tensor<3xf64>) -> tensor<3xf64>
    return %0, %1 : tensor<3xf64>, tensor<3xf64>
  }
  func.func private @predict_mean(%arg0: tensor<f64> {mhlo.layout_mode = "default"}, %arg1: tensor<3xf64> {mhlo.layout_mode = "default"}, %arg2: tensor<3xf64> {mhlo.layout_mode = "default"}, %arg3: tensor<3xf64> {mhlo.layout_mode = "default"}) -> (tensor<3xf64> {mhlo.layout_mode = "default"}) {
    %0 = stablehlo.multiply %arg1, %arg2 : tensor<3xf64>
    %1 = stablehlo.convert %arg3 : tensor<3xf64>
    %2 = stablehlo.broadcast_in_dim %arg0, dims = [] : (tensor<f64>) -> tensor<3xf64>
    %3 = stablehlo.multiply %2, %1 : tensor<3xf64>
    %4 = stablehlo.convert %0 : tensor<3xf64>
    %5 = stablehlo.add %4, %3 : tensor<3xf64>
    return %5 : tensor<3xf64>
  }
  func.func private @predict_precision(%arg0: tensor<f64> {mhlo.layout_mode = "default"}, %arg1: tensor<3xf64> {mhlo.layout_mode = "default"}, %arg2: tensor<3xf64> {mhlo.layout_mode = "default"}) -> (tensor<3xf64> {mhlo.layout_mode = "default"}) {
    %cst = stablehlo.constant dense<8.000000e+01> : tensor<f64>
    %cst_0 = stablehlo.constant dense<-8.000000e+01> : tensor<f64>
    %0 = call @clip(%arg2, %cst, %cst_0) : (tensor<3xf64>, tensor<f64>, tensor<f64>) -> tensor<3xf64>
    %1 = stablehlo.exponential %0 : tensor<3xf64>
    %2 = stablehlo.convert %1 : tensor<3xf64>
    %3 = stablehlo.broadcast_in_dim %arg0, dims = [] : (tensor<f64>) -> tensor<3xf64>
    %4 = stablehlo.multiply %3, %2 : tensor<3xf64>
    %cst_1 = stablehlo.constant dense<1.000000e-128> : tensor<f64>
    %5 = stablehlo.broadcast_in_dim %cst_1, dims = [] : (tensor<f64>) -> tensor<3xf64>
    %6 = stablehlo.maximum %4, %5 : tensor<3xf64>
    %cst_2 = stablehlo.constant dense<1.000000e+00> : tensor<f64>
    %7 = stablehlo.broadcast_in_dim %cst_2, dims = [] : (tensor<f64>) -> tensor<3xf64>
    %8 = stablehlo.divide %7, %arg1 : tensor<3xf64>
    %9 = stablehlo.convert %8 : tensor<3xf64>
    %10 = stablehlo.add %9, %6 : tensor<3xf64>
    %cst_3 = stablehlo.constant dense<1.000000e+00> : tensor<f64>
    %11 = stablehlo.broadcast_in_dim %cst_3, dims = [] : (tensor<f64>) -> tensor<3xf64>
    %12 = stablehlo.divide %11, %10 : tensor<3xf64>
    return %12 : tensor<3xf64>
  }
  func.func private @clip(%arg0: tensor<3xf64> {mhlo.layout_mode = "default"}, %arg1: tensor<f64> {mhlo.layout_mode = "default"}, %arg2: tensor<f64> {mhlo.layout_mode = "default"}) -> (tensor<3xf64> {mhlo.layout_mode = "default"}) {
    %0 = stablehlo.broadcast_in_dim %arg2, dims = [] : (tensor<f64>) -> tensor<3xf64>
    %1 = stablehlo.maximum %0, %arg0 : tensor<3xf64>
    %2 = stablehlo.broadcast_in_dim %arg1, dims = [] : (tensor<f64>) -> tensor<3xf64>
    %3 = stablehlo.minimum %2, %1 : tensor<3xf64>
    return %3 : tensor<3xf64>
  }
  func.func private @continuous_node_prediction_0(%arg0: tensor<f64> {mhlo.layout_mode = "default"}, %arg1: tensor<3xf64> {mhlo.layout_mode = "default"}, %arg2: tensor<3xf64> {mhlo.layout_mode = "default"}, %arg3: tensor<3xf64> {mhlo.layout_mode = "default"}, %arg4: tensor<3xf64> {mhlo.layout_mode = "default"}, %arg5: tensor<3xf64> {mhlo.layout_mode = "default"}, %arg6: tensor<3x1xf64> {mhlo.layout_mode = "default"}, %arg7: tensor<3xf64> {mhlo.layout_mode = "default"}) -> (tensor<3xf64> {mhlo.layout_mode = "default"}, tensor<3xf64> {mhlo.layout_mode = "default"}, tensor<3xf64> {mhlo.layout_mode = "default"}) {
    %0 = call @predict_mean_1(%arg0, %arg1, %arg2, %arg4) : (tensor<f64>, tensor<3xf64>, tensor<3xf64>, tensor<3xf64>) -> tensor<3xf64>
    %1:2 = call @predict_precision_2(%arg0, %arg3, %arg5, %arg6, %arg7) : (tensor<f64>, tensor<3xf64>, tensor<3xf64>, tensor<3x1xf64>, tensor<3xf64>) -> (tensor<3xf64>, tensor<3xf64>)
    return %0, %1#0, %1#1 : tensor<3xf64>, tensor<3xf64>, tensor<3xf64>
  }
  func.func private @predict_mean_1(%arg0: tensor<f64> {mhlo.layout_mode = "default"}, %arg1: tensor<3xf64> {mhlo.layout_mode = "default"}, %arg2: tensor<3xf64> {mhlo.layout_mode = "default"}, %arg3: tensor<3xf64> {mhlo.layout_mode = "default"}) -> (tensor<3xf64> {mhlo.layout_mode = "default"}) {
    %0 = stablehlo.multiply %arg1, %arg2 : tensor<3xf64>
    %1 = stablehlo.convert %arg3 : tensor<3xf64>
    %2 = stablehlo.broadcast_in_dim %arg0, dims = [] : (tensor<f64>) -> tensor<3xf64>
    %3 = stablehlo.multiply %2, %1 : tensor<3xf64>
    %4 = stablehlo.convert %0 : tensor<3xf64>
    %5 = stablehlo.add %4, %3 : tensor<3xf64>
    return %5 : tensor<3xf64>
  }
  func.func private @predict_precision_2(%arg0: tensor<f64> {mhlo.layout_mode = "default"}, %arg1: tensor<3xf64> {mhlo.layout_mode = "default"}, %arg2: tensor<3xf64> {mhlo.layout_mode = "default"}, %arg3: tensor<3x1xf64> {mhlo.layout_mode = "default"}, %arg4: tensor<3xf64> {mhlo.layout_mode = "default"}) -> (tensor<3xf64> {mhlo.layout_mode = "default"}, tensor<3xf64> {mhlo.layout_mode = "default"}) {
    %0 = stablehlo.slice %arg3 [0:3, 0:1] : (tensor<3x1xf64>) -> tensor<3x1xf64>
    %1 = stablehlo.reshape %0 : (tensor<3x1xf64>) -> tensor<3xf64>
    %2 = stablehlo.multiply %1, %arg4 : tensor<3xf64>
    %3 = stablehlo.convert %arg2 : tensor<3xf64>
    %4 = stablehlo.add %3, %2 : tensor<3xf64>
    %cst = stablehlo.constant dense<8.000000e+01> : tensor<f64>
    %cst_0 = stablehlo.constant dense<-8.000000e+01> : tensor<f64>
    %5 = call @clip_3(%4, %cst, %cst_0) : (tensor<3xf64>, tensor<f64>, tensor<f64>) -> tensor<3xf64>
    %6 = stablehlo.exponential %5 : tensor<3xf64>
    %7 = stablehlo.broadcast_in_dim %arg0, dims = [] : (tensor<f64>) -> tensor<3xf64>
    %8 = stablehlo.multiply %7, %6 : tensor<3xf64>
    %cst_1 = stablehlo.constant dense<1.000000e-128> : tensor<f64>
    %9 = stablehlo.broadcast_in_dim %cst_1, dims = [] : (tensor<f64>) -> tensor<3xf64>
    %10 = stablehlo.maximum %8, %9 : tensor<3xf64>
    %cst_2 = stablehlo.constant dense<1.000000e+00> : tensor<f64>
    %11 = stablehlo.broadcast_in_dim %cst_2, dims = [] : (tensor<f64>) -> tensor<3xf64>
    %12 = stablehlo.divide %11, %arg1 : tensor<3xf64>
    %13 = stablehlo.convert %12 : tensor<3xf64>
    %14 = stablehlo.add %13, %10 : tensor<3xf64>
    %cst_3 = stablehlo.constant dense<1.000000e+00> : tensor<f64>
    %15 = stablehlo.broadcast_in_dim %cst_3, dims = [] : (tensor<f64>) -> tensor<3xf64>
    %16 = stablehlo.divide %15, %14 : tensor<3xf64>
    %17 = stablehlo.multiply %10, %16 : tensor<3xf64>
    return %16, %17 : tensor<3xf64>, tensor<3xf64>
  }
  func.func private @clip_3(%arg0: tensor<3xf64> {mhlo.layout_mode = "default"}, %arg1: tensor<f64> {mhlo.layout_mode = "default"}, %arg2: tensor<f64> {mhlo.layout_mode = "default"}) -> (tensor<3xf64> {mhlo.layout_mode = "default"}) {
    %0 = stablehlo.convert %arg2 : tensor<f64>
    %1 = stablehlo.broadcast_in_dim %0, dims = [] : (tensor<f64>) -> tensor<3xf64>
    %2 = stablehlo.maximum %1, %arg0 : tensor<3xf64>
    %3 = stablehlo.convert %arg1 : tensor<f64>
    %4 = stablehlo.broadcast_in_dim %3, dims = [] : (tensor<f64>) -> tensor<3xf64>
    %5 = stablehlo.minimum %4, %2 : tensor<3xf64>
    return %5 : tensor<3xf64>
  }
  func.func private @binary_state_node_prediction(%arg0: tensor<3xf64> {mhlo.layout_mode = "default"}) -> (tensor<3xf64> {mhlo.layout_mode = "default"}, tensor<3xf64> {mhlo.layout_mode = "default"}) {
    %cst = stablehlo.constant dense<0.000000e+00> : tensor<f64>
    %0 = stablehlo.broadcast_in_dim %cst, dims = [] : (tensor<f64>) -> tensor<3xf64>
    %1 = stablehlo.add %0, %arg0 : tensor<3xf64>
    %2 = stablehlo.negate %1 : tensor<3xf64>
    %3 = stablehlo.exponential %2 : tensor<3xf64>
    %cst_0 = stablehlo.constant dense<1.000000e+00> : tensor<f64>
    %4 = stablehlo.broadcast_in_dim %cst_0, dims = [] : (tensor<f64>) -> tensor<3xf64>
    %5 = stablehlo.add %4, %3 : tensor<3xf64>
    %cst_1 = stablehlo.constant dense<1.000000e+00> : tensor<f64>
    %6 = stablehlo.broadcast_in_dim %cst_1, dims = [] : (tensor<f64>) -> tensor<3xf64>
    %7 = stablehlo.divide %6, %5 : tensor<3xf64>
    %cst_2 = stablehlo.constant dense<9.9999999999999995E-7> : tensor<f64>
    %cst_3 = stablehlo.constant dense<0.99999899999999997> : tensor<f64>
    %8 = call @clip_4(%7, %cst_2, %cst_3) : (tensor<3xf64>, tensor<f64>, tensor<f64>) -> tensor<3xf64>
    %cst_4 = stablehlo.constant dense<1.000000e+00> : tensor<f64>
    %9 = stablehlo.broadcast_in_dim %cst_4, dims = [] : (tensor<f64>) -> tensor<3xf64>
    %10 = stablehlo.subtract %9, %8 : tensor<3xf64>
    %11 = stablehlo.multiply %8, %10 : tensor<3xf64>
    return %8, %11 : tensor<3xf64>, tensor<3xf64>
  }
  func.func private @clip_4(%arg0: tensor<3xf64> {mhlo.layout_mode = "default"}, %arg1: tensor<f64> {mhlo.layout_mode = "default"}, %arg2: tensor<f64> {mhlo.layout_mode = "default"}) -> (tensor<3xf64> {mhlo.layout_mode = "default"}) {
    %0 = stablehlo.convert %arg1 : tensor<f64>
    %1 = stablehlo.broadcast_in_dim %0, dims = [] : (tensor<f64>) -> tensor<3xf64>
    %2 = stablehlo.maximum %1, %arg0 : tensor<3xf64>
    %3 = stablehlo.convert %arg2 : tensor<f64>
    %4 = stablehlo.broadcast_in_dim %3, dims = [] : (tensor<f64>) -> tensor<3xf64>
    %5 = stablehlo.minimum %4, %2 : tensor<3xf64>
    return %5 : tensor<3xf64>
  }
  func.func private @binary_state_node_prediction_error(%arg0: tensor<3xf64> {mhlo.layout_mode = "default"}, %arg1: tensor<3xf64> {mhlo.layout_mode = "default"}, %arg2: tensor<3xf64> {mhlo.layout_mode = "default"}, %arg3: tensor<i32> {mhlo.layout_mode = "default"}) -> (tensor<3xf64> {mhlo.layout_mode = "default"}) {
    %0 = stablehlo.subtract %arg2, %arg0 : tensor<3xf64>
    %1 = stablehlo.convert %arg3 : (tensor<i32>) -> tensor<f64>
    %2 = stablehlo.broadcast_in_dim %1, dims = [] : (tensor<f64>) -> tensor<3xf64>
    %3 = stablehlo.multiply %0, %2 : tensor<3xf64>
    %4 = stablehlo.divide %3, %arg1 : tensor<3xf64>
    return %4 : tensor<3xf64>
  }
  func.func private @continuous_node_posterior_update(%arg0: tensor<f64> {mhlo.layout_mode = "default"}, %arg1: tensor<3xf64> {mhlo.layout_mode = "default"}, %arg2: tensor<i32> {mhlo.layout_mode = "default"}, %arg3: tensor<3xf64> {mhlo.layout_mode = "default"}, %arg4: tensor<3xf64> {mhlo.layout_mode = "default"}, %arg5: tensor<3xf64> {mhlo.layout_mode = "default"}, %arg6: tensor<3xf64> {mhlo.layout_mode = "default"}, %arg7: tensor<3xf64> {mhlo.layout_mode = "default"}, %arg8: tensor<3x1xf64> {mhlo.layout_mode = "default"}, %arg9: tensor<3x1xf64> {mhlo.layout_mode = "default"}, %arg10: tensor<3xf64> {mhlo.layout_mode = "default"}) -> (tensor<3xf64> {mhlo.layout_mode = "default"}, tensor<3xf64> {mhlo.layout_mode = "default"}) {
    %0 = call @posterior_update_precision_continuous_node(%arg0, %arg1, %arg2, %arg5, %arg6, %arg7, %arg8, %arg9, %arg10) : (tensor<f64>, tensor<3xf64>, tensor<i32>, tensor<3xf64>, tensor<3xf64>, tensor<3xf64>, tensor<3x1xf64>, tensor<3x1xf64>, tensor<3xf64>) -> tensor<3xf64>
    %1 = call @posterior_update_mean_continuous_node(%arg1, %arg2, %arg3, %arg4, %arg8, %0) : (tensor<3xf64>, tensor<i32>, tensor<3xf64>, tensor<3xf64>, tensor<3x1xf64>, tensor<3xf64>) -> tensor<3xf64>
    return %1, %0 : tensor<3xf64>, tensor<3xf64>
  }
  func.func private @posterior_update_precision_continuous_node(%arg0: tensor<f64> {mhlo.layout_mode = "default"}, %arg1: tensor<3xf64> {mhlo.layout_mode = "default"}, %arg2: tensor<i32> {mhlo.layout_mode = "default"}, %arg3: tensor<3xf64> {mhlo.layout_mode = "default"}, %arg4: tensor<3xf64> {mhlo.layout_mode = "default"}, %arg5: tensor<3xf64> {mhlo.layout_mode = "default"}, %arg6: tensor<3x1xf64> {mhlo.layout_mode = "default"}, %arg7: tensor<3x1xf64> {mhlo.layout_mode = "default"}, %arg8: tensor<3xf64> {mhlo.layout_mode = "default"}) -> (tensor<3xf64> {mhlo.layout_mode = "default"}) {
    %0 = stablehlo.broadcast_in_dim %arg2, dims = [] : (tensor<i32>) -> tensor<1xi32>
    %c = stablehlo.constant dense<0> : tensor<i32>
    %1 = stablehlo.broadcast_in_dim %c, dims = [] : (tensor<i32>) -> tensor<1xi32>
    %2 = stablehlo.compare  NE, %0, %1,  SIGNED : (tensor<1xi32>, tensor<1xi32>) -> tensor<1xi1>
    %3 = stablehlo.convert %2 : tensor<1xi1>
    %c_0 = stablehlo.constant dense<false> : tensor<i1>
    %4 = stablehlo.reduce(%3 init: %c_0) applies stablehlo.or across dimensions = [0] : (tensor<1xi1>, tensor<i1>) -> tensor<i1>
    %5 = stablehlo.convert %4 : (tensor<i1>) -> tensor<i32>
    %6 = "stablehlo.case"(%5) ({
      %7 = func.call @precision_update_missing_values(%arg0, %arg4, %arg5, %arg7, %arg8) : (tensor<f64>, tensor<3xf64>, tensor<3xf64>, tensor<3x1xf64>, tensor<3xf64>) -> tensor<3xf64>
      stablehlo.return %7 : tensor<3xf64>
    }, {
      %7 = func.call @precision_update(%arg1, %arg2, %arg3, %arg6) : (tensor<3xf64>, tensor<i32>, tensor<3xf64>, tensor<3x1xf64>) -> tensor<3xf64>
      stablehlo.return %7 : tensor<3xf64>
    }) : (tensor<i32>) -> tensor<3xf64>
    return %6 : tensor<3xf64>
  }
  func.func private @precision_update_missing_values(%arg0: tensor<f64> {mhlo.layout_mode = "default"}, %arg1: tensor<3xf64> {mhlo.layout_mode = "default"}, %arg2: tensor<3xf64> {mhlo.layout_mode = "default"}, %arg3: tensor<3x1xf64> {mhlo.layout_mode = "default"}, %arg4: tensor<3xf64> {mhlo.layout_mode = "default"}) -> (tensor<3xf64> {mhlo.layout_mode = "default"}) {
    %0 = stablehlo.slice %arg3 [0:3, 0:1] : (tensor<3x1xf64>) -> tensor<3x1xf64>
    %1 = stablehlo.reshape %0 : (tensor<3x1xf64>) -> tensor<3xf64>
    %2 = stablehlo.convert %arg4 : tensor<3xf64>
    %3 = stablehlo.multiply %1, %2 : tensor<3xf64>
    %4 = stablehlo.convert %arg2 : tensor<3xf64>
    %5 = stablehlo.add %4, %3 : tensor<3xf64>
    %6 = stablehlo.exponential %5 : tensor<3xf64>
    %7 = stablehlo.broadcast_in_dim %arg0, dims = [] : (tensor<f64>) -> tensor<3xf64>
    %8 = stablehlo.multiply %7, %6 : tensor<3xf64>
    %cst = stablehlo.constant dense<1.000000e+00> : tensor<f64>
    %9 = stablehlo.broadcast_in_dim %cst, dims = [] : (tensor<f64>) -> tensor<3xf64>
    %10 = stablehlo.divide %9, %arg1 : tensor<3xf64>
    %11 = stablehlo.convert %10 : tensor<3xf64>
    %12 = stablehlo.add %11, %8 : tensor<3xf64>
    %cst_0 = stablehlo.constant dense<1.000000e+00> : tensor<f64>
    %13 = stablehlo.broadcast_in_dim %cst_0, dims = [] : (tensor<f64>) -> tensor<3xf64>
    %14 = stablehlo.divide %13, %12 : tensor<3xf64>
    return %14 : tensor<3xf64>
  }
  func.func private @precision_update(%arg0: tensor<3xf64> {mhlo.layout_mode = "default"}, %arg1: tensor<i32> {mhlo.layout_mode = "default"}, %arg2: tensor<3xf64> {mhlo.layout_mode = "default"}, %arg3: tensor<3x1xf64> {mhlo.layout_mode = "default"}) -> (tensor<3xf64> {mhlo.layout_mode = "default"}) {
    %0 = stablehlo.slice %arg3 [0:3, 0:1] : (tensor<3x1xf64>) -> tensor<3x1xf64>
    %1 = stablehlo.reshape %0 : (tensor<3x1xf64>) -> tensor<3xf64>
    %2 = stablehlo.multiply %1, %1 : tensor<3xf64>
    %3 = stablehlo.multiply %2, %arg0 : tensor<3xf64>
    %cst = stablehlo.constant dense<1.000000e+00> : tensor<f64>
    %4 = stablehlo.broadcast_in_dim %cst, dims = [] : (tensor<f64>) -> tensor<3xf64>
    %5 = stablehlo.multiply %3, %4 : tensor<3xf64>
    %cst_0 = stablehlo.constant dense<0.000000e+00> : tensor<f64>
    %6 = stablehlo.broadcast_in_dim %cst_0, dims = [] : (tensor<f64>) -> tensor<3xf64>
    %7 = stablehlo.subtract %5, %6 : tensor<3xf64>
    %8 = stablehlo.convert %arg1 : (tensor<i32>) -> tensor<f64>
    %9 = stablehlo.broadcast_in_dim %8, dims = [] : (tensor<f64>) -> tensor<3xf64>
    %10 = stablehlo.multiply %7, %9 : tensor<3xf64>
    %cst_1 = stablehlo.constant dense<0.000000e+00> : tensor<f64>
    %11 = stablehlo.broadcast_in_dim %cst_1, dims = [] : (tensor<f64>) -> tensor<3xf64>
    %12 = stablehlo.add %11, %10 : tensor<3xf64>
    %13 = stablehlo.add %arg2, %12 : tensor<3xf64>
    %cst_2 = stablehlo.constant dense<1.000000e-128> : tensor<f64>
    %14 = stablehlo.broadcast_in_dim %cst_2, dims = [] : (tensor<f64>) -> tensor<3xf64>
    %15 = stablehlo.compare  GT, %13, %14,  FLOAT : (tensor<3xf64>, tensor<3xf64>) -> tensor<3xi1>
    %cst_3 = stablehlo.constant dense<0x7FF8000000000000> : tensor<f64>
    %16 = call @_where(%15, %13, %cst_3) : (tensor<3xi1>, tensor<3xf64>, tensor<f64>) -> tensor<3xf64>
    return %16 : tensor<3xf64>
  }
  func.func private @_where(%arg0: tensor<3xi1> {mhlo.layout_mode = "default"}, %arg1: tensor<3xf64> {mhlo.layout_mode = "default"}, %arg2: tensor<f64> {mhlo.layout_mode = "default"}) -> (tensor<3xf64> {mhlo.layout_mode = "default"}) {
    %0 = stablehlo.convert %arg2 : tensor<f64>
    %1 = stablehlo.broadcast_in_dim %0, dims = [] : (tensor<f64>) -> tensor<3xf64>
    %2 = stablehlo.select %arg0, %arg1, %1 : tensor<3xi1>, tensor<3xf64>
    return %2 : tensor<3xf64>
  }
  func.func private @posterior_update_mean_continuous_node(%arg0: tensor<3xf64> {mhlo.layout_mode = "default"}, %arg1: tensor<i32> {mhlo.layout_mode = "default"}, %arg2: tensor<3xf64> {mhlo.layout_mode = "default"}, %arg3: tensor<3xf64> {mhlo.layout_mode = "default"}, %arg4: tensor<3x1xf64> {mhlo.layout_mode = "default"}, %arg5: tensor<3xf64> {mhlo.layout_mode = "default"}) -> (tensor<3xf64> {mhlo.layout_mode = "default"}) {
    %0 = stablehlo.slice %arg4 [0:3, 0:1] : (tensor<3x1xf64>) -> tensor<3x1xf64>
    %1 = stablehlo.reshape %0 : (tensor<3x1xf64>) -> tensor<3xf64>
    %2 = stablehlo.convert %arg1 : (tensor<i32>) -> tensor<f64>
    %3 = stablehlo.broadcast_in_dim %2, dims = [] : (tensor<f64>) -> tensor<3xf64>
    %4 = stablehlo.multiply %arg2, %3 : tensor<3xf64>
    %5 = stablehlo.multiply %1, %arg0 : tensor<3xf64>
    %cst = stablehlo.constant dense<1.000000e+00> : tensor<f64>
    %6 = stablehlo.broadcast_in_dim %cst, dims = [] : (tensor<f64>) -> tensor<3xf64>
    %7 = stablehlo.multiply %5, %6 : tensor<3xf64>
    %8 = stablehlo.divide %7, %arg5 : tensor<3xf64>
    %9 = stablehlo.multiply %8, %4 : tensor<3xf64>
    %cst_0 = stablehlo.constant dense<0.000000e+00> : tensor<f64>
    %10 = stablehlo.broadcast_in_dim %cst_0, dims = [] : (tensor<f64>) -> tensor<3xf64>
    %11 = stablehlo.add %10, %9 : tensor<3xf64>
    %12 = stablehlo.add %arg3, %11 : tensor<3xf64>
    %cst_1 = stablehlo.constant dense<0.000000e+00> : tensor<f64>
    %13 = stablehlo.broadcast_in_dim %cst_1, dims = [] : (tensor<f64>) -> tensor<3xf64>
    %14 = stablehlo.add %12, %13 : tensor<3xf64>
    return %14 : tensor<3xf64>
  }
  func.func private @continuous_node_prediction_error(%arg0: tensor<3xf64> {mhlo.layout_mode = "default"}, %arg1: tensor<3xf64> {mhlo.layout_mode = "default"}, %arg2: tensor<3xf64> {mhlo.layout_mode = "default"}, %arg3: tensor<3xf64> {mhlo.layout_mode = "default"}) -> (tensor<3xf64> {mhlo.layout_mode = "default"}) {
    %0 = call @continuous_node_volatility_prediction_error(%arg0, %arg1, %arg2, %arg3) : (tensor<3xf64>, tensor<3xf64>, tensor<3xf64>, tensor<3xf64>) -> tensor<3xf64>
    return %0 : tensor<3xf64>
  }
  func.func private @continuous_node_volatility_prediction_error(%arg0: tensor<3xf64> {mhlo.layout_mode = "default"}, %arg1: tensor<3xf64> {mhlo.layout_mode = "default"}, %arg2: tensor<3xf64> {mhlo.layout_mode = "default"}, %arg3: tensor<3xf64> {mhlo.layout_mode = "default"}) -> (tensor<3xf64> {mhlo.layout_mode = "default"}) {
    %0 = stablehlo.divide %arg1, %arg3 : tensor<3xf64>
    %1 = stablehlo.subtract %arg2, %arg0 : tensor<3xf64>
    %2 = stablehlo.multiply %1, %1 : tensor<3xf64>
    %3 = stablehlo.multiply %arg1, %2 : tensor<3xf64>
    %4 = stablehlo.add %0, %3 : tensor<3xf64>
    %cst = stablehlo.constant dense<1.000000e+00> : tensor<f64>
    %5 = stablehlo.broadcast_in_dim %cst, dims = [] : (tensor<f64>) -> tensor<3xf64>
    %6 = stablehlo.subtract %4, %5 : tensor<3xf64>
    %cst_0 = stablehlo.constant dense<1.000000e+00> : tensor<f64>
    %7 = stablehlo.broadcast_in_dim %cst_0, dims = [] : (tensor<f64>) -> tensor<3xf64>
    %8 = stablehlo.divide %6, %7 : tensor<3xf64>
    return %8 : tensor<3xf64>
  }
  func.func private @continuous_node_posterior_update_ehgf(%arg0: tensor<f64> {mhlo.layout_mode = "default"}, %arg1: tensor<3xi64> {mhlo.layout_mode = "default"}, %arg2: tensor<3xf64> {mhlo.layout_mode = "default"}, %arg3: tensor<3xf64> {mhlo.layout_mode = "default"}, %arg4: tensor<3xf64> {mhlo.layout_mode = "default"}, %arg5: tensor<3xf64> {mhlo.layout_mode = "default"}, %arg6: tensor<3xf64> {mhlo.layout_mode = "default"}, %arg7: tensor<3xf64> {mhlo.layout_mode = "default"}, %arg8: tensor<3x1xf64> {mhlo.layout_mode = "default"}) -> (tensor<3xf64> {mhlo.layout_mode = "default"}, tensor<3xf64> {mhlo.layout_mode = "default"}) {
    %0 = call @posterior_update_mean_continuous_node_5(%arg1, %arg2, %arg3, %arg4, %arg8, %arg5) : (tensor<3xi64>, tensor<3xf64>, tensor<3xf64>, tensor<3xf64>, tensor<3x1xf64>, tensor<3xf64>) -> tensor<3xf64>
    %1 = call @posterior_update_precision_continuous_node_6(%arg0, %arg1, %arg2, %arg3, %arg5, %arg6, %arg7, %arg8) : (tensor<f64>, tensor<3xi64>, tensor<3xf64>, tensor<3xf64>, tensor<3xf64>, tensor<3xf64>, tensor<3xf64>, tensor<3x1xf64>) -> tensor<3xf64>
    return %0, %1 : tensor<3xf64>, tensor<3xf64>
  }
  func.func private @posterior_update_mean_continuous_node_5(%arg0: tensor<3xi64> {mhlo.layout_mode = "default"}, %arg1: tensor<3xf64> {mhlo.layout_mode = "default"}, %arg2: tensor<3xf64> {mhlo.layout_mode = "default"}, %arg3: tensor<3xf64> {mhlo.layout_mode = "default"}, %arg4: tensor<3x1xf64> {mhlo.layout_mode = "default"}, %arg5: tensor<3xf64> {mhlo.layout_mode = "default"}) -> (tensor<3xf64> {mhlo.layout_mode = "default"}) {
    %0 = stablehlo.slice %arg4 [0:3, 0:1] : (tensor<3x1xf64>) -> tensor<3x1xf64>
    %1 = stablehlo.reshape %0 : (tensor<3x1xf64>) -> tensor<3xf64>
    %2 = stablehlo.multiply %1, %arg1 : tensor<3xf64>
    %3 = stablehlo.multiply %2, %arg2 : tensor<3xf64>
    %cst = stablehlo.constant dense<2.000000e+00> : tensor<f64>
    %4 = stablehlo.broadcast_in_dim %cst, dims = [] : (tensor<f64>) -> tensor<3xf64>
    %5 = stablehlo.multiply %4, %arg5 : tensor<3xf64>
    %cst_0 = stablehlo.constant dense<1.000000e+00> : tensor<f64>
    %6 = stablehlo.broadcast_in_dim %cst_0, dims = [] : (tensor<f64>) -> tensor<3xf64>
    %7 = stablehlo.divide %6, %5 : tensor<3xf64>
    %8 = stablehlo.multiply %3, %7 : tensor<3xf64>
    %9 = stablehlo.convert %arg0 : (tensor<3xi64>) -> tensor<3xf64>
    %10 = stablehlo.multiply %8, %9 : tensor<3xf64>
    %cst_1 = stablehlo.constant dense<0.000000e+00> : tensor<f64>
    %11 = stablehlo.broadcast_in_dim %cst_1, dims = [] : (tensor<f64>) -> tensor<3xf64>
    %12 = stablehlo.add %11, %10 : tensor<3xf64>
    %cst_2 = stablehlo.constant dense<0.000000e+00> : tensor<f64>
    %13 = stablehlo.broadcast_in_dim %cst_2, dims = [] : (tensor<f64>) -> tensor<3xf64>
    %14 = stablehlo.add %arg3, %13 : tensor<3xf64>
    %15 = stablehlo.add %14, %12 : tensor<3xf64>
    return %15 : tensor<3xf64>
  }
  func.func private @posterior_update_precision_continuous_node_6(%arg0: tensor<f64> {mhlo.layout_mode = "default"}, %arg1: tensor<3xi64> {mhlo.layout_mode = "default"}, %arg2: tensor<3xf64> {mhlo.layout_mode = "default"}, %arg3: tensor<3xf64> {mhlo.layout_mode = "default"}, %arg4: tensor<3xf64> {mhlo.layout_mode = "default"}, %arg5: tensor<3xf64> {mhlo.layout_mode = "default"}, %arg6: tensor<3xf64> {mhlo.layout_mode = "default"}, %arg7: tensor<3x1xf64> {mhlo.layout_mode = "default"}) -> (tensor<3xf64> {mhlo.layout_mode = "default"}) {
    %0 = stablehlo.convert %arg1 : tensor<3xi64>
    %1 = stablehlo.broadcast_in_dim %0, dims = [0] : (tensor<3xi64>) -> tensor<3x1xi64>
    %c = stablehlo.constant dense<0> : tensor<i64>
    %2 = stablehlo.broadcast_in_dim %c, dims = [] : (tensor<i64>) -> tensor<3x1xi64>
    %3 = stablehlo.compare  NE, %1, %2,  SIGNED : (tensor<3x1xi64>, tensor<3x1xi64>) -> tensor<3x1xi1>
    %4 = stablehlo.convert %3 : tensor<3x1xi1>
    %c_0 = stablehlo.constant dense<false> : tensor<i1>
    %5 = stablehlo.reduce(%4 init: %c_0) applies stablehlo.or across dimensions = [1] : (tensor<3x1xi1>, tensor<i1>) -> tensor<3xi1>
    %6 = stablehlo.convert %5 : (tensor<3xi1>) -> tensor<3xi32>
    %7 = stablehlo.broadcast_in_dim %arg0, dims = [] : (tensor<f64>) -> tensor<3xf64>
    %c_1 = stablehlo.constant dense<0> : tensor<i32>
    %8 = stablehlo.broadcast_in_dim %c_1, dims = [] : (tensor<i32>) -> tensor<3xi32>
    %9 = stablehlo.compare  EQ, %6, %8,  SIGNED : (tensor<3xi32>, tensor<3xi32>) -> tensor<3xi1>
    %10 = stablehlo.select %9, %7, %7 : tensor<3xi1>, tensor<3xf64>
    %11 = stablehlo.select %9, %arg5, %arg5 : tensor<3xi1>, tensor<3xf64>
    %12 = stablehlo.select %9, %arg6, %arg6 : tensor<3xi1>, tensor<3xf64>
    %13 = call @precision_update_missing_values_7(%10, %11, %12) : (tensor<3xf64>, tensor<3xf64>, tensor<3xf64>) -> tensor<3xf64>
    %c_2 = stablehlo.constant dense<1> : tensor<i32>
    %14 = stablehlo.broadcast_in_dim %c_2, dims = [] : (tensor<i32>) -> tensor<3xi32>
    %15 = stablehlo.compare  EQ, %6, %14,  SIGNED : (tensor<3xi32>, tensor<3xi32>) -> tensor<3xi1>
    %16 = stablehlo.select %15, %arg1, %arg1 : tensor<3xi1>, tensor<3xi64>
    %17 = stablehlo.select %15, %arg2, %arg2 : tensor<3xi1>, tensor<3xf64>
    %18 = stablehlo.select %15, %arg3, %arg3 : tensor<3xi1>, tensor<3xf64>
    %19 = stablehlo.select %15, %arg4, %arg4 : tensor<3xi1>, tensor<3xf64>
    %20 = stablehlo.broadcast_in_dim %15, dims = [0] : (tensor<3xi1>) -> tensor<3x1xi1>
    %21 = stablehlo.select %20, %arg7, %arg7 : tensor<3x1xi1>, tensor<3x1xf64>
    %22 = call @precision_update_8(%16, %17, %18, %19, %21) : (tensor<3xi64>, tensor<3xf64>, tensor<3xf64>, tensor<3xf64>, tensor<3x1xf64>) -> tensor<3xf64>
    %c_3 = stablehlo.constant dense<1> : tensor<i32>
    %23 = stablehlo.broadcast_in_dim %c_3, dims = [] : (tensor<i32>) -> tensor<3xi32>
    %24 = stablehlo.compare  LT, %6, %23,  SIGNED : (tensor<3xi32>, tensor<3xi32>) -> tensor<3xi1>
    %25 = stablehlo.select %24, %13, %22 : tensor<3xi1>, tensor<3xf64>
    return %25 : tensor<3xf64>
  }
  func.func private @precision_update_missing_values_7(%arg0: tensor<3xf64> {mhlo.layout_mode = "default"}, %arg1: tensor<3xf64> {mhlo.layout_mode = "default"}, %arg2: tensor<3xf64> {mhlo.layout_mode = "default"}) -> (tensor<3xf64> {mhlo.layout_mode = "default"}) {
    %0 = stablehlo.exponential %arg2 : tensor<3xf64>
    %1 = stablehlo.convert %0 : tensor<3xf64>
    %2 = stablehlo.multiply %arg0, %1 : tensor<3xf64>
    %cst = stablehlo.constant dense<1.000000e+00> : tensor<f64>
    %3 = stablehlo.broadcast_in_dim %cst, dims = [] : (tensor<f64>) -> tensor<3xf64>
    %4 = stablehlo.divide %3, %arg1 : tensor<3xf64>
    %5 = stablehlo.convert %4 : tensor<3xf64>
    %6 = stablehlo.add %5, %2 : tensor<3xf64>
    %cst_0 = stablehlo.constant dense<1.000000e+00> : tensor<f64>
    %7 = stablehlo.broadcast_in_dim %cst_0, dims = [] : (tensor<f64>) -> tensor<3xf64>
    %8 = stablehlo.divide %7, %6 : tensor<3xf64>
    return %8 : tensor<3xf64>
  }
  func.func private @precision_update_8(%arg0: tensor<3xi64> {mhlo.layout_mode = "default"}, %arg1: tensor<3xf64> {mhlo.layout_mode = "default"}, %arg2: tensor<3xf64> {mhlo.layout_mode = "default"}, %arg3: tensor<3xf64> {mhlo.layout_mode = "default"}, %arg4: tensor<3x1xf64> {mhlo.layout_mode = "default"}) -> (tensor<3xf64> {mhlo.layout_mode = "default"}) {
    %0 = stablehlo.slice %arg4 [0:3, 0:1] : (tensor<3x1xf64>) -> tensor<3x1xf64>
    %1 = stablehlo.reshape %0 : (tensor<3x1xf64>) -> tensor<3xf64>
    %2 = stablehlo.multiply %1, %arg1 : tensor<3xf64>
    %3 = stablehlo.multiply %2, %2 : tensor<3xf64>
    %cst = stablehlo.constant dense<5.000000e-01> : tensor<f64>
    %4 = stablehlo.broadcast_in_dim %cst, dims = [] : (tensor<f64>) -> tensor<3xf64>
    %5 = stablehlo.multiply %4, %3 : tensor<3xf64>
    %6 = stablehlo.multiply %1, %arg1 : tensor<3xf64>
    %7 = stablehlo.multiply %6, %6 : tensor<3xf64>
    %8 = stablehlo.multiply %7, %arg2 : tensor<3xf64>
    %9 = stablehlo.add %5, %8 : tensor<3xf64>
    %10 = stablehlo.multiply %1, %1 : tensor<3xf64>
    %cst_0 = stablehlo.constant dense<5.000000e-01> : tensor<f64>
    %11 = stablehlo.broadcast_in_dim %cst_0, dims = [] : (tensor<f64>) -> tensor<3xf64>
    %12 = stablehlo.multiply %11, %10 : tensor<3xf64>
    %13 = stablehlo.multiply %12, %arg1 : tensor<3xf64>
    %14 = stablehlo.multiply %13, %arg2 : tensor<3xf64>
    %15 = stablehlo.subtract %9, %14 : tensor<3xf64>
    %16 = stablehlo.convert %arg0 : (tensor<3xi64>) -> tensor<3xf64>
    %17 = stablehlo.multiply %15, %16 : tensor<3xf64>
    %cst_1 = stablehlo.constant dense<0.000000e+00> : tensor<f64>
    %18 = stablehlo.broadcast_in_dim %cst_1, dims = [] : (tensor<f64>) -> tensor<3xf64>
    %19 = stablehlo.add %18, %17 : tensor<3xf64>
    %20 = stablehlo.add %arg3, %19 : tensor<3xf64>
    %cst_2 = stablehlo.constant dense<1.000000e-128> : tensor<f64>
    %21 = stablehlo.broadcast_in_dim %cst_2, dims = [] : (tensor<f64>) -> tensor<3xf64>
    %22 = stablehlo.compare  GT, %20, %21,  FLOAT : (tensor<3xf64>, tensor<3xf64>) -> tensor<3xi1>
    %cst_3 = stablehlo.constant dense<0x7FF8000000000000> : tensor<f64>
    %23 = call @_where(%22, %20, %cst_3) : (tensor<3xi1>, tensor<3xf64>, tensor<f64>) -> tensor<3xf64>
    return %23 : tensor<3xf64>
  }
  func.func private @_where_9(%arg0: tensor<3xi1> {mhlo.layout_mode = "default"}, %arg1: tensor<3xf64> {mhlo.layout_mode = "default"}, %arg2: tensor<3xf64> {mhlo.layout_mode = "default"}) -> (tensor<3xf64> {mhlo.layout_mode = "default"}) {
    %0 = stablehlo.select %arg0, %arg1, %arg2 : tensor<3xi1>, tensor<3xf64>
    return %0 : tensor<3xf64>
  }
  func.func private @_where_10(%arg0: tensor<3xi1> {mhlo.layout_mode = "default"}, %arg1: tensor<3xf64> {mhlo.layout_mode = "default"}, %arg2: tensor<3xf64> {mhlo.layout_mode = "default"}) -> (tensor<3xf64> {mhlo.layout_mode = "default"}) {
    %0 = stablehlo.convert %arg2 : tensor<3xf64>
    %1 = stablehlo.select %arg0, %arg1, %0 : tensor<3xi1>, tensor<3xf64>
    return %1 : tensor<3xf64>
  }
  func.func private @_where_11(%arg0: tensor<3xi1> {mhlo.layout_mode = "default"}, %arg1: tensor<3xi64> {mhlo.layout_mode = "default"}, %arg2: tensor<3xi64> {mhlo.layout_mode = "default"}) -> (tensor<3xi64> {mhlo.layout_mode = "default"}) {
    %0 = stablehlo.select %arg0, %arg1, %arg2 : tensor<3xi1>, tensor<3xi64>
    return %0 : tensor<3xi64>
  }
  func.func private @_where_12(%arg0: tensor<3xi1> {mhlo.layout_mode = "default"}, %arg1: tensor<3x1xf64> {mhlo.layout_mode = "default"}, %arg2: tensor<3x1xf64> {mhlo.layout_mode = "default"}) -> (tensor<3x1xf64> {mhlo.layout_mode = "default"}) {
    %0 = stablehlo.broadcast_in_dim %arg0, dims = [0] : (tensor<3xi1>) -> tensor<3x1xi1>
    %1 = stablehlo.select %0, %arg1, %arg2 : tensor<3x1xi1>, tensor<3x1xf64>
    return %1 : tensor<3x1xf64>
  }
  func.func private @clip_13(%arg0: tensor<192x3xf64> {mhlo.layout_mode = "default"}, %arg1: tensor<f64> {mhlo.layout_mode = "default"}, %arg2: tensor<f64> {mhlo.layout_mode = "default"}) -> (tensor<192x3xf64> {mhlo.layout_mode = "default"}) {
    %0 = stablehlo.convert %arg1 : tensor<f64>
    %1 = stablehlo.broadcast_in_dim %0, dims = [] : (tensor<f64>) -> tensor<192x3xf64>
    %2 = stablehlo.maximum %1, %arg0 : tensor<192x3xf64>
    %3 = stablehlo.convert %arg2 : tensor<f64>
    %4 = stablehlo.broadcast_in_dim %3, dims = [] : (tensor<f64>) -> tensor<192x3xf64>
    %5 = stablehlo.minimum %4, %2 : tensor<192x3xf64>
    return %5 : tensor<192x3xf64>
  }
  func.func private @log_softmax(%arg0: tensor<3x192x2xf64> {mhlo.layout_mode = "default"}) -> (tensor<3x192x2xf64> {mhlo.layout_mode = "default"}) {
    %cst = stablehlo.constant dense<0xFFF0000000000000> : tensor<f64>
    %0 = stablehlo.reduce(%arg0 init: %cst) applies stablehlo.maximum across dimensions = [2] : (tensor<3x192x2xf64>, tensor<f64>) -> tensor<3x192xf64>
    %cst_0 = stablehlo.constant dense<0xFFF0000000000000> : tensor<f64>
    %1 = stablehlo.broadcast_in_dim %cst_0, dims = [] : (tensor<f64>) -> tensor<3x192xf64>
    %2 = stablehlo.maximum %1, %0 : tensor<3x192xf64>
    %3 = stablehlo.broadcast_in_dim %2, dims = [0, 1] : (tensor<3x192xf64>) -> tensor<3x192x1xf64>
    %4 = stablehlo.broadcast_in_dim %3, dims = [0, 1, 2] : (tensor<3x192x1xf64>) -> tensor<3x192x2xf64>
    %5 = stablehlo.subtract %arg0, %4 : tensor<3x192x2xf64>
    %6 = stablehlo.exponential %5 : tensor<3x192x2xf64>
    %cst_1 = stablehlo.constant dense<0.000000e+00> : tensor<f64>
    %7 = stablehlo.reduce(%6 init: %cst_1) applies stablehlo.add across dimensions = [2] : (tensor<3x192x2xf64>, tensor<f64>) -> tensor<3x192xf64>
    %8 = stablehlo.broadcast_in_dim %7, dims = [0, 1] : (tensor<3x192xf64>) -> tensor<3x192x1xf64>
    %9 = stablehlo.log %8 : tensor<3x192x1xf64>
    %10 = stablehlo.broadcast_in_dim %9, dims = [0, 1, 2] : (tensor<3x192x1xf64>) -> tensor<3x192x2xf64>
    %11 = stablehlo.subtract %5, %10 : tensor<3x192x2xf64>
    return %11 : tensor<3x192x2xf64>
  }
  func.func private @take_along_axis(%arg0: tensor<3x192x2xf64> {mhlo.layout_mode = "default"}, %arg1: tensor<3x192x1xi32> {mhlo.layout_mode = "default"}) -> (tensor<3x192x1xf64> {mhlo.layout_mode = "default"}) {
    %0 = stablehlo.iota dim = 0 : tensor<192x1x1xi32>
    %c = stablehlo.constant dense<0> : tensor<i32>
    %1 = stablehlo.broadcast_in_dim %c, dims = [] : (tensor<i32>) -> tensor<3x192x1xi32>
    %2 = stablehlo.compare  LT, %arg1, %1,  SIGNED : (tensor<3x192x1xi32>, tensor<3x192x1xi32>) -> tensor<3x192x1xi1>
    %c_0 = stablehlo.constant dense<2> : tensor<i32>
    %3 = stablehlo.broadcast_in_dim %c_0, dims = [] : (tensor<i32>) -> tensor<3x192x1xi32>
    %4 = stablehlo.add %arg1, %3 : tensor<3x192x1xi32>
    %5 = stablehlo.select %2, %4, %arg1 : tensor<3x192x1xi1>, tensor<3x192x1xi32>
    %6 = stablehlo.reshape %5 : (tensor<3x192x1xi32>) -> tensor<3x192x1x1xi32>
    %7 = stablehlo.broadcast_in_dim %0, dims = [1, 2, 3] : (tensor<192x1x1xi32>) -> tensor<3x192x1x1xi32>
    %8 = stablehlo.concatenate %7, %6, dim = 3 : (tensor<3x192x1x1xi32>, tensor<3x192x1x1xi32>) -> tensor<3x192x1x2xi32>
    %9 = stablehlo.iota dim = 0 : tensor<3x192x1x1xi32>
    %10 = stablehlo.concatenate %9, %8, dim = 3 : (tensor<3x192x1x1xi32>, tensor<3x192x1x2xi32>) -> tensor<3x192x1x3xi32>
    %c_1 = stablehlo.constant dense<[0, 1, 2]> : tensor<3xi64>
    %c_2 = stablehlo.constant dense<[0, 1, 2]> : tensor<3xi64>
    %c_3 = stablehlo.constant dense<3> : tensor<i64>
    %11 = stablehlo.broadcast_in_dim %c_3, dims = [] : (tensor<i64>) -> tensor<1xi64>
    %c_4 = stablehlo.constant dense<192> : tensor<i64>
    %12 = stablehlo.broadcast_in_dim %c_4, dims = [] : (tensor<i64>) -> tensor<1xi64>
    %c_5 = stablehlo.constant dense<2> : tensor<i64>
    %13 = stablehlo.broadcast_in_dim %c_5, dims = [] : (tensor<i64>) -> tensor<1xi64>
    %14 = stablehlo.concatenate %11, %12, %13, dim = 0 : (tensor<1xi64>, tensor<1xi64>, tensor<1xi64>) -> tensor<3xi64>
    %15 = stablehlo.convert %10 : (tensor<3x192x1x3xi32>) -> tensor<3x192x1x3xi64>
    %c_6 = stablehlo.constant dense<0> : tensor<i64>
    %16 = stablehlo.broadcast_in_dim %c_6, dims = [] : (tensor<i64>) -> tensor<3xi64>
    %17 = stablehlo.compare  LT, %c_1, %16,  SIGNED : (tensor<3xi64>, tensor<3xi64>) -> tensor<3xi1>
    %c_7 = stablehlo.constant dense<3> : tensor<i64>
    %18 = stablehlo.broadcast_in_dim %c_7, dims = [] : (tensor<i64>) -> tensor<3xi64>
    %19 = stablehlo.add %c_1, %18 : tensor<3xi64>
    %20 = stablehlo.select %17, %19, %c_1 : tensor<3xi1>, tensor<3xi64>
    %21 = stablehlo.convert %20 : (tensor<3xi64>) -> tensor<3xi32>
    %22 = stablehlo.broadcast_in_dim %21, dims = [0] : (tensor<3xi32>) -> tensor<3x1xi32>
    %23 = "stablehlo.gather"(%14, %22) <{dimension_numbers = #stablehlo.gather<collapsed_slice_dims = [0], start_index_map = [0], index_vector_dim = 1>, indices_are_sorted = false, slice_sizes = array<i64: 1>}> : (tensor<3xi64>, tensor<3x1xi32>) -> tensor<3xi64>
    %c_8 = stablehlo.constant dense<1> : tensor<i64>
    %24 = stablehlo.broadcast_in_dim %c_8, dims = [] : (tensor<i64>) -> tensor<1xi64>
    %c_9 = stablehlo.constant dense<1> : tensor<i64>
    %25 = stablehlo.broadcast_in_dim %c_9, dims = [] : (tensor<i64>) -> tensor<1xi64>
    %c_10 = stablehlo.constant dense<1> : tensor<i64>
    %26 = stablehlo.broadcast_in_dim %c_10, dims = [] : (tensor<i64>) -> tensor<1xi64>
    %27 = stablehlo.concatenate %24, %25, %26, dim = 0 : (tensor<1xi64>, tensor<1xi64>, tensor<1xi64>) -> tensor<3xi64>
    %c_11 = stablehlo.constant dense<0> : tensor<i64>
    %28 = stablehlo.broadcast_in_dim %c_11, dims = [] : (tensor<i64>) -> tensor<3xi64>
    %29 = stablehlo.compare  LT, %c_2, %28,  SIGNED : (tensor<3xi64>, tensor<3xi64>) -> tensor<3xi1>
    %c_12 = stablehlo.constant dense<3> : tensor<i64>
    %30 = stablehlo.broadcast_in_dim %c_12, dims = [] : (tensor<i64>) -> tensor<3xi64>
    %31 = stablehlo.add %c_2, %30 : tensor<3xi64>
    %32 = stablehlo.select %29, %31, %c_2 : tensor<3xi1>, tensor<3xi64>
    %33 = stablehlo.convert %32 : (tensor<3xi64>) -> tensor<3xi32>
    %34 = stablehlo.broadcast_in_dim %33, dims = [0] : (tensor<3xi32>) -> tensor<3x1xi32>
    %35 = "stablehlo.gather"(%27, %34) <{dimension_numbers = #stablehlo.gather<collapsed_slice_dims = [0], start_index_map = [0], index_vector_dim = 1>, indices_are_sorted = false, slice_sizes = array<i64: 1>}> : (tensor<3xi64>, tensor<3x1xi32>) -> tensor<3xi64>
    %36 = stablehlo.subtract %23, %35 : tensor<3xi64>
    %c_13 = stablehlo.constant dense<0> : tensor<i64>
    %37 = stablehlo.broadcast_in_dim %c_13, dims = [] : (tensor<i64>) -> tensor<3x192x1x3xi64>
    %38 = stablehlo.compare  GE, %15, %37,  SIGNED : (tensor<3x192x1x3xi64>, tensor<3x192x1x3xi64>) -> tensor<3x192x1x3xi1>
    %39 = stablehlo.broadcast_in_dim %36, dims = [3] : (tensor<3xi64>) -> tensor<1x1x1x3xi64>
    %40 = stablehlo.broadcast_in_dim %39, dims = [0, 1, 2, 3] : (tensor<1x1x1x3xi64>) -> tensor<3x192x1x3xi64>
    %41 = stablehlo.compare  LE, %15, %40,  SIGNED : (tensor<3x192x1x3xi64>, tensor<3x192x1x3xi64>) -> tensor<3x192x1x3xi1>
    %42 = stablehlo.and %38, %41 : tensor<3x192x1x3xi1>
    %c_14 = stablehlo.constant dense<true> : tensor<i1>
    %43 = stablehlo.reduce(%42 init: %c_14) applies stablehlo.and across dimensions = [3] : (tensor<3x192x1x3xi1>, tensor<i1>) -> tensor<3x192x1xi1>
    %44 = "stablehlo.gather"(%arg0, %15) <{dimension_numbers = #stablehlo.gather<collapsed_slice_dims = [0, 1, 2], start_index_map = [0, 1, 2], index_vector_dim = 3>, indices_are_sorted = false, slice_sizes = array<i64: 1, 1, 1>}> : (tensor<3x192x2xf64>, tensor<3x192x1x3xi64>) -> tensor<3x192x1xf64>
    %cst = stablehlo.constant dense<0x7FF8000000000000> : tensor<f64>
    %45 = stablehlo.broadcast_in_dim %cst, dims = [] : (tensor<f64>) -> tensor<3x192x1xf64>
    %46 = stablehlo.select %43, %44, %45 : tensor<3x192x1xi1>, tensor<3x192x1xf64>
    return %46 : tensor<3x192x1xf64>
  }
  func.func private @_where_14(%arg0: tensor<3x192xi1> {mhlo.layout_mode = "default"}, %arg1: tensor<3x192xf64> {mhlo.layout_mode = "default"}, %arg2: tensor<f64> {mhlo.layout_mode = "default"}) -> (tensor<3x192xf64> {mhlo.layout_mode = "default"}) {
    %0 = stablehlo.convert %arg2 : tensor<f64>
    %1 = stablehlo.broadcast_in_dim %0, dims = [] : (tensor<f64>) -> tensor<192xf64>
    %2 = stablehlo.broadcast_in_dim %1, dims = [1] : (tensor<192xf64>) -> tensor<3x192xf64>
    %3 = stablehlo.select %arg0, %arg1, %2 : tensor<3x192xi1>, tensor<3x192xf64>
    return %3 : tensor<3x192xf64>
  }
}
