module @jit_logdensity_fn attributes {mhlo.num_partitions = 1 : i32, mhlo.num_replicas = 1 : i32} {
  func.func public @main(%arg0: tensor<3xf64> {mhlo.layout_mode = "default"}, %arg1: tensor<3xf64> {mhlo.layout_mode = "default"}, %arg2: tensor<3xf64> {mhlo.layout_mode = "default"}) -> (tensor<f64> {jax.result_info = "", mhlo.layout_mode = "default"}) {
    %c = stablehlo.constant dense<"…"> : tensor<3x192xi32>
    %cst = stablehlo.constant dense<1.000000e+00> : tensor<1xf64>
    %cst_0 = stablehlo.constant dense<"…"> : tensor<3x192xf32>
    %cst_1 = stablehlo.constant dense<"…"> : tensor<3x192xf32>
    %c_2 = stablehlo.constant dense<"…"> : tensor<3x192xi32>
    %c_3 = stablehlo.constant dense<true> : tensor<3x192xi1>
    %0 = stablehlo.exponential %arg1 : tensor<3xf64>
    %cst_4 = stablehlo.constant dense<2.000000e+00> : tensor<f64>
    %1 = stablehlo.multiply %cst_4, %cst_4 : tensor<f64>
    %cst_5 = stablehlo.constant dense<6.2831853071795862> : tensor<f64>
    %2 = stablehlo.multiply %cst_5, %1 : tensor<f64>
    %3 = stablehlo.log %2 : tensor<f64>
    %cst_6 = stablehlo.constant dense<-4.000000e+00> : tensor<f64>
    %4 = stablehlo.broadcast_in_dim %cst_6, dims = [] : (tensor<f64>) -> tensor<3xf64>
    %5 = stablehlo.subtract %arg2, %4 : tensor<3xf64>
    %6 = stablehlo.multiply %5, %5 : tensor<3xf64>
    %7 = stablehlo.broadcast_in_dim %1, dims = [] : (tensor<f64>) -> tensor<3xf64>
    %8 = stablehlo.divide %6, %7 : tensor<3xf64>
    %9 = stablehlo.broadcast_in_dim %3, dims = [] : (tensor<f64>) -> tensor<3xf64>
    %10 = stablehlo.add %9, %8 : tensor<3xf64>
    %cst_7 = stablehlo.constant dense<-2.000000e+00> : tensor<f64>
    %11 = stablehlo.broadcast_in_dim %cst_7, dims = [] : (tensor<f64>) -> tensor<3xf64>
    %12 = stablehlo.divide %10, %11 : tensor<3xf64>
    %cst_8 = stablehlo.constant dense<0.000000e+00> : tensor<f64>
    %13 = stablehlo.reduce(%12 init: %cst_8) applies stablehlo.add across dimensions = [0] : (tensor<3xf64>, tensor<f64>) -> tensor<f64>
    %cst_9 = stablehlo.constant dense<7.500000e-01> : tensor<f64>
    %14 = stablehlo.multiply %cst_9, %cst_9 : tensor<f64>
    %cst_10 = stablehlo.constant dense<6.2831853071795862> : tensor<f64>
    %15 = stablehlo.multiply %cst_10, %14 : tensor<f64>
    %16 = stablehlo.log %15 : tensor<f64>
    %cst_11 = stablehlo.constant dense<1.3862943611198906> : tensor<f64>
    %17 = stablehlo.broadcast_in_dim %cst_11, dims = [] : (tensor<f64>) -> tensor<3xf64>
    %18 = stablehlo.subtract %arg1, %17 : tensor<3xf64>
    %19 = stablehlo.multiply %18, %18 : tensor<3xf64>
    %20 = stablehlo.broadcast_in_dim %14, dims = [] : (tensor<f64>) -> tensor<3xf64>
    %21 = stablehlo.divide %19, %20 : tensor<3xf64>
    %22 = stablehlo.broadcast_in_dim %16, dims = [] : (tensor<f64>) -> tensor<3xf64>
    %23 = stablehlo.add %22, %21 : tensor<3xf64>
    %cst_12 = stablehlo.constant dense<-2.000000e+00> : tensor<f64>
    %24 = stablehlo.broadcast_in_dim %cst_12, dims = [] : (tensor<f64>) -> tensor<3xf64>
    %25 = stablehlo.divide %23, %24 : tensor<3xf64>
    %cst_13 = stablehlo.constant dense<0.000000e+00> : tensor<f64>
    %26 = stablehlo.reduce(%25 init: %cst_13) applies stablehlo.add across dimensions = [0] : (tensor<3xf64>, tensor<f64>) -> tensor<f64>
    %27 = stablehlo.add %13, %26 : tensor<f64>
    %cst_14 = stablehlo.constant dense<1.000000e+00> : tensor<f64>
    %28 = stablehlo.multiply %cst_14, %cst_14 : tensor<f64>
    %cst_15 = stablehlo.constant dense<6.2831853071795862> : tensor<f64>
    %29 = stablehlo.multiply %cst_15, %28 : tensor<f64>
    %30 = stablehlo.log %29 : tensor<f64>
    %cst_16 = stablehlo.constant dense<0.000000e+00> : tensor<f64>
    %31 = stablehlo.broadcast_in_dim %cst_16, dims = [] : (tensor<f64>) -> tensor<3xf64>
    %32 = stablehlo.subtract %arg0, %31 : tensor<3xf64>
    %33 = stablehlo.multiply %32, %32 : tensor<3xf64>
    %34 = stablehlo.broadcast_in_dim %28, dims = [] : (tensor<f64>) -> tensor<3xf64>
    %35 = stablehlo.divide %33, %34 : tensor<3xf64>
    %36 = stablehlo.broadcast_in_dim %30, dims = [] : (tensor<f64>) -> tensor<3xf64>
    %37 = stablehlo.add %36, %35 : tensor<3xf64>
    %cst_17 = stablehlo.constant dense<-2.000000e+00> : tensor<f64>
    %38 = stablehlo.broadcast_in_dim %cst_17, dims = [] : (tensor<f64>) -> tensor<3xf64>
    %39 = stablehlo.divide %37, %38 : tensor<3xf64>
    %cst_18 = stablehlo.constant dense<0.000000e+00> : tensor<f64>
    %40 = stablehlo.reduce(%39 init: %cst_18) applies stablehlo.add across dimensions = [0] : (tensor<3xf64>, tensor<f64>) -> tensor<f64>
    %41 = stablehlo.add %27, %40 : tensor<f64>
    %42 = stablehlo.convert %c : (tensor<3x192xi32>) -> tensor<3x192xf64>
    %43 = stablehlo.broadcast_in_dim %42, dims = [0, 1] : (tensor<3x192xf64>) -> tensor<3x192x1xf64>
    %c_19 = stablehlo.constant dense<1> : tensor<i32>
    %44 = stablehlo.broadcast_in_dim %c_19, dims = [] : (tensor<i32>) -> tensor<192xi32>
    %cst_20 = stablehlo.constant dense<1.000000e+00> : tensor<f64>
    %45 = stablehlo.broadcast_in_dim %cst_20, dims = [] : (tensor<f64>) -> tensor<192xf64>
    %cst_21 = stablehlo.constant dense<1.000000e+00> : tensor<f64>
    %46 = stablehlo.broadcast_in_dim %cst_21, dims = [] : (tensor<f64>) -> tensor<3xf64>
    %cst_22 = stablehlo.constant dense<0.000000e+00> : tensor<f64>
    %47 = stablehlo.broadcast_in_dim %cst_22, dims = [] : (tensor<f64>) -> tensor<3xf64>
    %cst_23 = stablehlo.constant dense<1.000000e+00> : tensor<f64>
    %48 = stablehlo.broadcast_in_dim %cst_23, dims = [] : (tensor<f64>) -> tensor<3xf64>
    %cst_24 = stablehlo.constant dense<0.000000e+00> : tensor<f64>
    %49 = stablehlo.broadcast_in_dim %cst_24, dims = [] : (tensor<f64>) -> tensor<3xf64>
    %50 = stablehlo.broadcast_in_dim %cst, dims = [1] : (tensor<1xf64>) -> tensor<3x1xf64>
    %51 = stablehlo.transpose %43, dims = [1, 0, 2] : (tensor<3x192x1xf64>) -> tensor<192x3x1xf64>
    %cst_25 = stablehlo.constant dense<0.000000e+00> : tensor<f64>
    %52 = stablehlo.broadcast_in_dim %cst_25, dims = [] : (tensor<f64>) -> tensor<192x3xf64>
    %c_26 = stablehlo.constant dense<0> : tensor<i64>
    %53:11 = stablehlo.while(%iterArg = %51, %iterArg_36 = %44, %iterArg_37 = %45, %iterArg_38 = %c_26, %iterArg_39 = %46, %iterArg_40 = %47, %iterArg_41 = %48, %iterArg_42 = %49, %iterArg_43 = %arg2, %iterArg_44 = %50, %iterArg_45 = %52) : tensor<192x3x1xf64>, tensor<192xi32>, tensor<192xf64>, tensor<i64>, tensor<3xf64>, tensor<3xf64>, tensor<3xf64>, tensor<3xf64>, tensor<3xf64>, tensor<3x1xf64>, tensor<192x3xf64>
     cond {
      %c_46 = stablehlo.constant dense<192> : tensor<i64>
      %91 = stablehlo.compare  LT, %iterArg_38, %c_46,  SIGNED : (tensor<i64>, tensor<i64>) -> tensor<i1>
      stablehlo.return %91 : tensor<i1>
    } do {
      %c_46 = stablehlo.constant dense<0> : tensor<i64>
      %91 = stablehlo.compare  LT, %iterArg_38, %c_46,  SIGNED : (tensor<i64>, tensor<i64>) -> tensor<i1>
      %92 = stablehlo.convert %iterArg_38 : tensor<i64>
      %c_47 = stablehlo.constant dense<192> : tensor<i64>
      %93 = stablehlo.add %92, %c_47 : tensor<i64>
      %94 = stablehlo.select %91, %93, %iterArg_38 : tensor<i1>, tensor<i64>
      %c_48 = stablehlo.constant dense<0> : tensor<i64>
      %c_49 = stablehlo.constant dense<0> : tensor<i64>
      %95 = stablehlo.dynamic_slice %iterArg, %94, %c_48, %c_49, sizes = [1, 3, 1] : (tensor<192x3x1xf64>, tensor<i64>, tensor<i64>, tensor<i64>) -> tensor<1x3x1xf64>
      %96 = stablehlo.reshape %95 : (tensor<1x3x1xf64>) -> tensor<3x1xf64>
      %c_50 = stablehlo.constant dense<0> : tensor<i64>
      %97 = stablehlo.compare  LT, %iterArg_38, %c_50,  SIGNED : (tensor<i64>, tensor<i64>) -> tensor<i1>
      %98 = stablehlo.convert %iterArg_38 : tensor<i64>
      %c_51 = stablehlo.constant dense<192> : tensor<i64>
      %99 = stablehlo.add %98, %c_51 : tensor<i64>
      %100 = stablehlo.select %97, %99, %iterArg_38 : tensor<i1>, tensor<i64>
      %101 = stablehlo.dynamic_slice %iterArg_36, %100, sizes = [1] : (tensor<192xi32>, tensor<i64>) -> tensor<1xi32>
      %102 = stablehlo.reshape %101 : (tensor<1xi32>) -> tensor<i32>
      %c_52 = stablehlo.constant dense<0> : tensor<i64>
      %103 = stablehlo.compare  LT, %iterArg_38, %c_52,  SIGNED : (tensor<i64>, tensor<i64>) -> tensor<i1>
      %104 = stablehlo.convert %iterArg_38 : tensor<i64>
      %c_53 = stablehlo.constant dense<192> : tensor<i64>
      %105 = stablehlo.add %104, %c_53 : tensor<i64>
      %106 = stablehlo.select %103, %105, %iterArg_38 : tensor<i1>, tensor<i64>
      %107 = stablehlo.dynamic_slice %iterArg_37, %106, sizes = [1] : (tensor<192xf64>, tensor<i64>) -> tensor<1xf64>
      %108 = stablehlo.reshape %107 : (tensor<1xf64>) -> tensor<f64>
      %109:7 = func.call @None(%iterArg_39, %iterArg_40, %iterArg_41, %iterArg_42, %iterArg_43, %iterArg_44, %96, %102, %108) : (tensor<3xf64>, tensor<3xf64>, tensor<3xf64>, tensor<3xf64>, tensor<3xf64>, tensor<3x1xf64>, tensor<3x1xf64>, tensor<i32>, tensor<f64>) -> (tensor<3xf64>, tensor<3xf64>, tensor<3xf64>, tensor<3xf64>, tensor<3xf64>, tensor<3x1xf64>, tensor<3xf64>)
      %110 = stablehlo.broadcast_in_dim %109#6, dims = [1] : (tensor<3xf64>) -> tensor<1x3xf64>
      %c_54 = stablehlo.constant dense<0> : tensor<i64>
      %111 = stablehlo.compare  LT, %iterArg_38, %c_54,  SIGNED : (tensor<i64>, tensor<i64>) -> tensor<i1>
      %112 = stablehlo.convert %iterArg_38 : tensor<i64>
      %c_55 = stablehlo.constant dense<192> : tensor<i64>
      %113 = stablehlo.add %112, %c_55 : tensor<i64>
      %114 = stablehlo.select %111, %113, %iterArg_38 : tensor<i1>, tensor<i64>
      %c_56 = stablehlo.constant dense<0> : tensor<i64>
      %115 = stablehlo.dynamic_update_slice %iterArg_45, %110, %114, %c_56 : (tensor<192x3xf64>, tensor<1x3xf64>, tensor<i64>, tensor<i64>) -> tensor<192x3xf64>
      %c_57 = stablehlo.constant dense<1> : tensor<i64>
      %116 = stablehlo.add %iterArg_38, %c_57 : tensor<i64>
      stablehlo.return %iterArg, %iterArg_36, %iterArg_37, %116, %109#0, %109#1, %109#2, %109#3, %109#4, %109#5, %115 : tensor<192x3x1xf64>, tensor<192xi32>, tensor<192xf64>, tensor<i64>, tensor<3xf64>, tensor<3xf64>, tensor<3xf64>, tensor<3xf64>, tensor<3xf64>, tensor<3x1xf64>, tensor<192x3xf64>
    }
    %54 = stablehlo.convert %cst_0 : (tensor<3x192xf32>) -> tensor<3x192xf64>
    %55 = stablehlo.convert %cst_1 : (tensor<3x192xf32>) -> tensor<3x192xf64>
    %cst_27 = stablehlo.constant dense<-3.000000e+01> : tensor<f64>
    %cst_28 = stablehlo.constant dense<3.000000e+01> : tensor<f64>
    %56 = call @clip_4(%53#10, %cst_27, %cst_28) : (tensor<192x3xf64>, tensor<f64>, tensor<f64>) -> tensor<192x3xf64>
    %57 = stablehlo.negate %56 : tensor<192x3xf64>
    %58 = stablehlo.exponential %57 : tensor<192x3xf64>
    %cst_29 = stablehlo.constant dense<1.000000e+00> : tensor<f64>
    %59 = stablehlo.broadcast_in_dim %cst_29, dims = [] : (tensor<f64>) -> tensor<192x3xf64>
    %60 = stablehlo.add %59, %58 : tensor<192x3xf64>
    %cst_30 = stablehlo.constant dense<1.000000e+00> : tensor<f64>
    %61 = stablehlo.broadcast_in_dim %cst_30, dims = [] : (tensor<f64>) -> tensor<192x3xf64>
    %62 = stablehlo.divide %61, %60 : tensor<192x3xf64>
    %cst_31 = stablehlo.constant dense<1.000000e+00> : tensor<f64>
    %63 = stablehlo.broadcast_in_dim %cst_31, dims = [] : (tensor<f64>) -> tensor<192x3xf64>
    %64 = stablehlo.subtract %63, %62 : tensor<192x3xf64>
    %65 = stablehlo.transpose %64, dims = [1, 0] : (tensor<192x3xf64>) -> tensor<3x192xf64>
    %66 = stablehlo.multiply %65, %54 : tensor<3x192xf64>
    %67 = stablehlo.transpose %62, dims = [1, 0] : (tensor<192x3xf64>) -> tensor<3x192xf64>
    %68 = stablehlo.multiply %67, %55 : tensor<3x192xf64>
    %69 = stablehlo.subtract %66, %68 : tensor<3x192xf64>
    %cst_32 = stablehlo.constant dense<0.000000e+00> : tensor<f64>
    %70 = stablehlo.broadcast_in_dim %cst_32, dims = [] : (tensor<f64>) -> tensor<192xf64>
    %71 = stablehlo.convert %0 : tensor<3xf64>
    %72 = stablehlo.broadcast_in_dim %71, dims = [0] : (tensor<3xf64>) -> tensor<3x1xf64>
    %73 = stablehlo.broadcast_in_dim %72, dims = [0, 1] : (tensor<3x1xf64>) -> tensor<3x192xf64>
    %74 = stablehlo.multiply %73, %69 : tensor<3x192xf64>
    %75 = stablehlo.convert %arg0 : tensor<3xf64>
    %76 = stablehlo.broadcast_in_dim %75, dims = [0] : (tensor<3xf64>) -> tensor<3x1xf64>
    %77 = stablehlo.broadcast_in_dim %76, dims = [0, 1] : (tensor<3x1xf64>) -> tensor<3x192xf64>
    %78 = stablehlo.add %74, %77 : tensor<3x192xf64>
    %79 = stablehlo.broadcast_in_dim %70, dims = [0] : (tensor<192xf64>) -> tensor<192x1xf64>
    %80 = stablehlo.broadcast_in_dim %78, dims = [0, 1] : (tensor<3x192xf64>) -> tensor<3x192x1xf64>
    %81 = stablehlo.broadcast_in_dim %79, dims = [1, 2] : (tensor<192x1xf64>) -> tensor<3x192x1xf64>
    %82 = stablehlo.concatenate %81, %80, dim = 2 : (tensor<3x192x1xf64>, tensor<3x192x1xf64>) -> tensor<3x192x2xf64>
    %83 = call @log_softmax(%82) : (tensor<3x192x2xf64>) -> tensor<3x192x2xf64>
    %84 = stablehlo.broadcast_in_dim %c_2, dims = [0, 1] : (tensor<3x192xi32>) -> tensor<3x192x1xi32>
    %85 = call @take_along_axis(%83, %84) : (tensor<3x192x2xf64>, tensor<3x192x1xi32>) -> tensor<3x192x1xf64>
    %86 = stablehlo.reshape %85 : (tensor<3x192x1xf64>) -> tensor<3x192xf64>
    %cst_33 = stablehlo.constant dense<0.000000e+00> : tensor<f64>
    %87 = call @_where_5(%c_3, %86, %cst_33) : (tensor<3x192xi1>, tensor<3x192xf64>, tensor<f64>) -> tensor<3x192xf64>
    %cst_34 = stablehlo.constant dense<0.000000e+00> : tensor<f64>
    %88 = stablehlo.reduce(%87 init: %cst_34) applies stablehlo.add across dimensions = [1] : (tensor<3x192xf64>, tensor<f64>) -> tensor<3xf64>
    %cst_35 = stablehlo.constant dense<0.000000e+00> : tensor<f64>
    %89 = stablehlo.reduce(%88 init: %cst_35) applies stablehlo.add across dimensions = [0] : (tensor<3xf64>, tensor<f64>) -> tensor<f64>
    %90 = stablehlo.add %41, %89 : tensor<f64>
    return %90 : tensor<f64>
  }
  func.func private @None(%arg0: tensor<3xf64>, %arg1: tensor<3xf64>, %arg2: tensor<3xf64>, %arg3: tensor<3xf64>, %arg4: tensor<3xf64>, %arg5: tensor<3x1xf64>, %arg6: tensor<3x1xf64>, %arg7: tensor<i32>, %arg8: tensor<f64>) -> (tensor<3xf64>, tensor<3xf64>, tensor<3xf64>, tensor<3xf64>, tensor<3xf64>, tensor<3x1xf64>, tensor<3xf64>) {
    %0:2 = call @beliefs_propagation(%arg0, %arg1, %arg2, %arg3, %arg4, %arg5, %arg6, %arg7, %arg8) : (tensor<3xf64>, tensor<3xf64>, tensor<3xf64>, tensor<3xf64>, tensor<3xf64>, tensor<3x1xf64>, tensor<3x1xf64>, tensor<i32>, tensor<f64>) -> (tensor<3xf64>, tensor<3xf64>)
    %1 = stablehlo.is_finite %0#0 : (tensor<3xf64>) -> tensor<3xi1>
    %c = stablehlo.constant dense<true> : tensor<i1>
    %2 = stablehlo.reduce(%1 init: %c) applies stablehlo.and across dimensions = [] : (tensor<3xi1>, tensor<i1>) -> tensor<3xi1>
    %3 = stablehlo.abs %0#0 : tensor<3xf64>
    %cst = stablehlo.constant dense<1.400000e+01> : tensor<f64>
    %4 = stablehlo.broadcast_in_dim %cst, dims = [] : (tensor<f64>) -> tensor<3xf64>
    %5 = stablehlo.compare  LT, %3, %4,  FLOAT : (tensor<3xf64>, tensor<3xf64>) -> tensor<3xi1>
    %6 = stablehlo.and %2, %5 : tensor<3xi1>
    %7 = call @_where_1(%6, %arg0, %arg0) : (tensor<3xi1>, tensor<3xf64>, tensor<3xf64>) -> tensor<3xf64>
    %8 = call @_where_2(%6, %0#0, %arg1) : (tensor<3xi1>, tensor<3xf64>, tensor<3xf64>) -> tensor<3xf64>
    %9 = call @_where_2(%6, %0#1, %arg2) : (tensor<3xi1>, tensor<3xf64>, tensor<3xf64>) -> tensor<3xf64>
    %10 = call @_where_1(%6, %arg3, %arg3) : (tensor<3xi1>, tensor<3xf64>, tensor<3xf64>) -> tensor<3xf64>
    %11 = call @_where_1(%6, %arg4, %arg4) : (tensor<3xi1>, tensor<3xf64>, tensor<3xf64>) -> tensor<3xf64>
    %12 = call @_where_3(%6, %arg5, %arg5) : (tensor<3xi1>, tensor<3x1xf64>, tensor<3x1xf64>) -> tensor<3x1xf64>
    return %7, %8, %9, %10, %11, %12, %8 : tensor<3xf64>, tensor<3xf64>, tensor<3xf64>, tensor<3xf64>, tensor<3xf64>, tensor<3x1xf64>, tensor<3xf64>
  }
  func.func private @beliefs_propagation(%arg0: tensor<3xf64> {mhlo.layout_mode = "default"}, %arg1: tensor<3xf64> {mhlo.layout_mode = "default"}, %arg2: tensor<3xf64> {mhlo.layout_mode = "default"}, %arg3: tensor<3xf64> {mhlo.layout_mode = "default"}, %arg4: tensor<3xf64> {mhlo.layout_mode = "default"}, %arg5: tensor<3x1xf64> {mhlo.layout_mode = "default"}, %arg6: tensor<3x1xf64> {mhlo.layout_mode = "default"}, %arg7: tensor<i32> {mhlo.layout_mode = "default"}, %arg8: tensor<f64> {mhlo.layout_mode = "default"}) -> (tensor<3xf64> {mhlo.layout_mode = "default"}, tensor<3xf64> {mhlo.layout_mode = "default"}) {
    %0:2 = call @continuous_node_prediction(%arg8, %arg0, %arg1, %arg2, %arg3, %arg4) : (tensor<f64>, tensor<3xf64>, tensor<3xf64>, tensor<3xf64>, tensor<3xf64>, tensor<3xf64>) -> (tensor<3xf64>, tensor<3xf64>)
    %1:2 = call @binary_state_node_prediction(%0#0) : (tensor<3xf64>) -> (tensor<3xf64>, tensor<3xf64>)
    %2 = stablehlo.reshape %arg6 : (tensor<3x1xf64>) -> tensor<3xf64>
    %3 = call @binary_state_node_prediction_error(%1#0, %1#1, %2, %arg7) : (tensor<3xf64>, tensor<3xf64>, tensor<3xf64>, tensor<i32>) -> tensor<3xf64>
    %4:2 = call @continuous_node_posterior_update(%arg8, %1#1, %arg7, %3, %0#0, %0#1, %arg2, %arg4, %arg5) : (tensor<f64>, tensor<3xf64>, tensor<i32>, tensor<3xf64>, tensor<3xf64>, tensor<3xf64>, tensor<3xf64>, tensor<3xf64>, tensor<3x1xf64>) -> (tensor<3xf64>, tensor<3xf64>)
    return %4#0, %4#1 : tensor<3xf64>, tensor<3xf64>
  }
  func.func private @continuous_node_prediction(%arg0: tensor<f64> {mhlo.layout_mode = "default"}, %arg1: tensor<3xf64> {mhlo.layout_mode = "default"}, %arg2: tensor<3xf64> {mhlo.layout_mode = "default"}, %arg3: tensor<3xf64> {mhlo.layout_mode = "default"}, %arg4: tensor<3xf64> {mhlo.layout_mode = "default"}, %arg5: tensor<3xf64> {mhlo.layout_mode = "default"}) -> (tensor<3xf64> {mhlo.layout_mode = "default"}, tensor<3xf64> {mhlo.layout_mode = "default"}) {
    %0 = call @predict_mean(%arg0, %arg1, %arg2, %arg4) : (tensor<f64>, tensor<3xf64>, tensor<3xf64>, tensor<3xf64>) -> tensor<3xf64>
    %1 = call @predict_precision(%arg0, %arg3, %arg5) : (tensor<f64>, tensor<3xf64>, tensor<3xf64>) -> tensor<3xf64>
    return %0, %1 : tensor<3xf64>, tensor<3xf64>
  }
  func.func private @predict_mean(%arg0: tensor<f64> {mhlo.layout_mode = "default"}, %arg1: tensor<3xf64> {mhlo.layout_mode = "default"}, %arg2: tensor<3xf64> {mhlo.layout_mode = "default"}, %arg3: tensor<3xf64> {mhlo.layout_mode = "default"}) -> (tensor<3xf64> {mhlo.layout_mode = "default"}) {
    %0 = stablehlo.multiply %arg1, %arg2 : tensor<3xf64>
    %1 = stablehlo.convert %arg3 : tensor<3xf64>
    %2 = stablehlo.broadcast_in_dim %arg0, dims = [] : (tensor<f64>) -> tensor<3xf64>
    %3 = stablehlo.multiply %2, %1 : tensor<3xf64>
    %4 = stablehlo.convert %0 : tensor<3xf64>
    %5 = stablehlo.add %4, %3 : tensor<3xf64>
    return %5 : tensor<3xf64>
  }
  func.func private @predict_precision(%arg0: tensor<f64> {mhlo.layout_mode = "default"}, %arg1: tensor<3xf64> {mhlo.layout_mode = "default"}, %arg2: tensor<3xf64> {mhlo.layout_mode = "default"}) -> (tensor<3xf64> {mhlo.layout_mode = "default"}) {
    %cst = stablehlo.constant dense<8.000000e+01> : tensor<f64>
    %cst_0 = stablehlo.constant dense<-8.000000e+01> : tensor<f64>
    %0 = call @clip(%arg2, %cst, %cst_0) : (tensor<3xf64>, tensor<f64>, tensor<f64>) -> tensor<3xf64>
    %1 = stablehlo.exponential %0 : tensor<3xf64>
    %2 = stablehlo.convert %1 : tensor<3xf64>
    %3 = stablehlo.broadcast_in_dim %arg0, dims = [] : (tensor<f64>) -> tensor<3xf64>
    %4 = stablehlo.multiply %3, %2 : tensor<3xf64>
    %cst_1 = stablehlo.constant dense<1.000000e-128> : tensor<f64>
    %5 = stablehlo.broadcast_in_dim %cst_1, dims = [] : (tensor<f64>) -> tensor<3xf64>
    %6 = stablehlo.maximum %4, %5 : tensor<3xf64>
    %cst_2 = stablehlo.constant dense<1.000000e+00> : tensor<f64>
    %7 = stablehlo.broadcast_in_dim %cst_2, dims = [] : (tensor<f64>) -> tensor<3xf64>
    %8 = stablehlo.divide %7, %arg1 : tensor<3xf64>
    %9 = stablehlo.convert %8 : tensor<3xf64>
    %10 = stablehlo.add %9, %6 : tensor<3xf64>
    %cst_3 = stablehlo.constant dense<1.000000e+00> : tensor<f64>
    %11 = stablehlo.broadcast_in_dim %cst_3, dims = [] : (tensor<f64>) -> tensor<3xf64>
    %12 = stablehlo.divide %11, %10 : tensor<3xf64>
    return %12 : tensor<3xf64>
  }
  func.func private @clip(%arg0: tensor<3xf64> {mhlo.layout_mode = "default"}, %arg1: tensor<f64> {mhlo.layout_mode = "default"}, %arg2: tensor<f64> {mhlo.layout_mode = "default"}) -> (tensor<3xf64> {mhlo.layout_mode = "default"}) {
    %0 = stablehlo.broadcast_in_dim %arg2, dims = [] : (tensor<f64>) -> tensor<3xf64>
    %1 = stablehlo.maximum %0, %arg0 : tensor<3xf64>
    %2 = stablehlo.broadcast_in_dim %arg1, dims = [] : (tensor<f64>) -> tensor<3xf64>
    %3 = stablehlo.minimum %2, %1 : tensor<3xf64>
    return %3 : tensor<3xf64>
  }
  func.func private @binary_state_node_prediction(%arg0: tensor<3xf64> {mhlo.layout_mode = "default"}) -> (tensor<3xf64> {mhlo.layout_mode = "default"}, tensor<3xf64> {mhlo.layout_mode = "default"}) {
    %cst = stablehlo.constant dense<0.000000e+00> : tensor<f64>
    %0 = stablehlo.broadcast_in_dim %cst, dims = [] : (tensor<f64>) -> tensor<3xf64>
    %1 = stablehlo.add %0, %arg0 : tensor<3xf64>
    %2 = stablehlo.negate %1 : tensor<3xf64>
    %3 = stablehlo.exponential %2 : tensor<3xf64>
    %cst_0 = stablehlo.constant dense<1.000000e+00> : tensor<f64>
    %4 = stablehlo.broadcast_in_dim %cst_0, dims = [] : (tensor<f64>) -> tensor<3xf64>
    %5 = stablehlo.add %4, %3 : tensor<3xf64>
    %cst_1 = stablehlo.constant dense<1.000000e+00> : tensor<f64>
    %6 = stablehlo.broadcast_in_dim %cst_1, dims = [] : (tensor<f64>) -> tensor<3xf64>
    %7 = stablehlo.divide %6, %5 : tensor<3xf64>
    %cst_2 = stablehlo.constant dense<9.9999999999999995E-7> : tensor<f64>
    %cst_3 = stablehlo.constant dense<0.99999899999999997> : tensor<f64>
    %8 = call @clip_0(%7, %cst_2, %cst_3) : (tensor<3xf64>, tensor<f64>, tensor<f64>) -> tensor<3xf64>
    %cst_4 = stablehlo.constant dense<1.000000e+00> : tensor<f64>
    %9 = stablehlo.broadcast_in_dim %cst_4, dims = [] : (tensor<f64>) -> tensor<3xf64>
    %10 = stablehlo.subtract %9, %8 : tensor<3xf64>
    %11 = stablehlo.multiply %8, %10 : tensor<3xf64>
    return %8, %11 : tensor<3xf64>, tensor<3xf64>
  }
  func.func private @clip_0(%arg0: tensor<3xf64> {mhlo.layout_mode = "default"}, %arg1: tensor<f64> {mhlo.layout_mode = "default"}, %arg2: tensor<f64> {mhlo.layout_mode = "default"}) -> (tensor<3xf64> {mhlo.layout_mode = "default"}) {
    %0 = stablehlo.convert %arg1 : tensor<f64>
    %1 = stablehlo.broadcast_in_dim %0, dims = [] : (tensor<f64>) -> tensor<3xf64>
    %2 = stablehlo.maximum %1, %arg0 : tensor<3xf64>
    %3 = stablehlo.convert %arg2 : tensor<f64>
    %4 = stablehlo.broadcast_in_dim %3, dims = [] : (tensor<f64>) -> tensor<3xf64>
    %5 = stablehlo.minimum %4, %2 : tensor<3xf64>
    return %5 : tensor<3xf64>
  }
  func.func private @binary_state_node_prediction_error(%arg0: tensor<3xf64> {mhlo.layout_mode = "default"}, %arg1: tensor<3xf64> {mhlo.layout_mode = "default"}, %arg2: tensor<3xf64> {mhlo.layout_mode = "default"}, %arg3: tensor<i32> {mhlo.layout_mode = "default"}) -> (tensor<3xf64> {mhlo.layout_mode = "default"}) {
    %0 = stablehlo.subtract %arg2, %arg0 : tensor<3xf64>
    %1 = stablehlo.convert %arg3 : (tensor<i32>) -> tensor<f64>
    %2 = stablehlo.broadcast_in_dim %1, dims = [] : (tensor<f64>) -> tensor<3xf64>
    %3 = stablehlo.multiply %0, %2 : tensor<3xf64>
    %4 = stablehlo.divide %3, %arg1 : tensor<3xf64>
    return %4 : tensor<3xf64>
  }
  func.func private @continuous_node_posterior_update(%arg0: tensor<f64> {mhlo.layout_mode = "default"}, %arg1: tensor<3xf64> {mhlo.layout_mode = "default"}, %arg2: tensor<i32> {mhlo.layout_mode = "default"}, %arg3: tensor<3xf64> {mhlo.layout_mode = "default"}, %arg4: tensor<3xf64> {mhlo.layout_mode = "default"}, %arg5: tensor<3xf64> {mhlo.layout_mode = "default"}, %arg6: tensor<3xf64> {mhlo.layout_mode = "default"}, %arg7: tensor<3xf64> {mhlo.layout_mode = "default"}, %arg8: tensor<3x1xf64> {mhlo.layout_mode = "default"}) -> (tensor<3xf64> {mhlo.layout_mode = "default"}, tensor<3xf64> {mhlo.layout_mode = "default"}) {
    %0 = call @posterior_update_precision_continuous_node(%arg0, %arg1, %arg2, %arg5, %arg6, %arg7, %arg8) : (tensor<f64>, tensor<3xf64>, tensor<i32>, tensor<3xf64>, tensor<3xf64>, tensor<3xf64>, tensor<3x1xf64>) -> tensor<3xf64>
    %1 = call @posterior_update_mean_continuous_node(%arg1, %arg2, %arg3, %arg4, %arg8, %0) : (tensor<3xf64>, tensor<i32>, tensor<3xf64>, tensor<3xf64>, tensor<3x1xf64>, tensor<3xf64>) -> tensor<3xf64>
    return %1, %0 : tensor<3xf64>, tensor<3xf64>
  }
  func.func private @posterior_update_precision_continuous_node(%arg0: tensor<f64> {mhlo.layout_mode = "default"}, %arg1: tensor<3xf64> {mhlo.layout_mode = "default"}, %arg2: tensor<i32> {mhlo.layout_mode = "default"}, %arg3: tensor<3xf64> {mhlo.layout_mode = "default"}, %arg4: tensor<3xf64> {mhlo.layout_mode = "default"}, %arg5: tensor<3xf64> {mhlo.layout_mode = "default"}, %arg6: tensor<3x1xf64> {mhlo.layout_mode = "default"}) -> (tensor<3xf64> {mhlo.layout_mode = "default"}) {
    %0 = stablehlo.broadcast_in_dim %arg2, dims = [] : (tensor<i32>) -> tensor<1xi32>
    %c = stablehlo.constant dense<0> : tensor<i32>
    %1 = stablehlo.broadcast_in_dim %c, dims = [] : (tensor<i32>) -> tensor<1xi32>
    %2 = stablehlo.compare  NE, %0, %1,  SIGNED : (tensor<1xi32>, tensor<1xi32>) -> tensor<1xi1>
    %3 = stablehlo.convert %2 : tensor<1xi1>
    %c_0 = stablehlo.constant dense<false> : tensor<i1>
    %4 = stablehlo.reduce(%3 init: %c_0) applies stablehlo.or across dimensions = [0] : (tensor<1xi1>, tensor<i1>) -> tensor<i1>
    %5 = stablehlo.convert %4 : (tensor<i1>) -> tensor<i32>
    %6 = "stablehlo.case"(%5) ({
      %7 = func.call @precision_update_missing_values(%arg0, %arg4, %arg5) : (tensor<f64>, tensor<3xf64>, tensor<3xf64>) -> tensor<3xf64>
      stablehlo.return %7 : tensor<3xf64>
    }, {
      %7 = func.call @precision_update(%arg1, %arg2, %arg3, %arg6) : (tensor<3xf64>, tensor<i32>, tensor<3xf64>, tensor<3x1xf64>) -> tensor<3xf64>
      stablehlo.return %7 : tensor<3xf64>
    }) : (tensor<i32>) -> tensor<3xf64>
    return %6 : tensor<3xf64>
  }
  func.func private @precision_update_missing_values(%arg0: tensor<f64> {mhlo.layout_mode = "default"}, %arg1: tensor<3xf64> {mhlo.layout_mode = "default"}, %arg2: tensor<3xf64> {mhlo.layout_mode = "default"}) -> (tensor<3xf64> {mhlo.layout_mode = "default"}) {
    %0 = stablehlo.exponential %arg2 : tensor<3xf64>
    %1 = stablehlo.convert %0 : tensor<3xf64>
    %2 = stablehlo.broadcast_in_dim %arg0, dims = [] : (tensor<f64>) -> tensor<3xf64>
    %3 = stablehlo.multiply %2, %1 : tensor<3xf64>
    %cst = stablehlo.constant dense<1.000000e+00> : tensor<f64>
    %4 = stablehlo.broadcast_in_dim %cst, dims = [] : (tensor<f64>) -> tensor<3xf64>
    %5 = stablehlo.divide %4, %arg1 : tensor<3xf64>
    %6 = stablehlo.convert %5 : tensor<3xf64>
    %7 = stablehlo.add %6, %3 : tensor<3xf64>
    %cst_0 = stablehlo.constant dense<1.000000e+00> : tensor<f64>
    %8 = stablehlo.broadcast_in_dim %cst_0, dims = [] : (tensor<f64>) -> tensor<3xf64>
    %9 = stablehlo.divide %8, %7 : tensor<3xf64>
    return %9 : tensor<3xf64>
  }
  func.func private @precision_update(%arg0: tensor<3xf64> {mhlo.layout_mode = "default"}, %arg1: tensor<i32> {mhlo.layout_mode = "default"}, %arg2: tensor<3xf64> {mhlo.layout_mode = "default"}, %arg3: tensor<3x1xf64> {mhlo.layout_mode = "default"}) -> (tensor<3xf64> {mhlo.layout_mode = "default"}) {
    %0 = stablehlo.slice %arg3 [0:3, 0:1] : (tensor<3x1xf64>) -> tensor<3x1xf64>
    %1 = stablehlo.reshape %0 : (tensor<3x1xf64>) -> tensor<3xf64>
    %2 = stablehlo.multiply %1, %1 : tensor<3xf64>
    %3 = stablehlo.multiply %2, %arg0 : tensor<3xf64>
    %cst = stablehlo.constant dense<1.000000e+00> : tensor<f64>
    %4 = stablehlo.broadcast_in_dim %cst, dims = [] : (tensor<f64>) -> tensor<3xf64>
    %5 = stablehlo.multiply %3, %4 : tensor<3xf64>
    %cst_0 = stablehlo.constant dense<0.000000e+00> : tensor<f64>
    %6 = stablehlo.broadcast_in_dim %cst_0, dims = [] : (tensor<f64>) -> tensor<3xf64>
    %7 = stablehlo.subtract %5, %6 : tensor<3xf64>
    %8 = stablehlo.convert %arg1 : (tensor<i32>) -> tensor<f64>
    %9 = stablehlo.broadcast_in_dim %8, dims = [] : (tensor<f64>) -> tensor<3xf64>
    %10 = stablehlo.multiply %7, %9 : tensor<3xf64>
    %cst_1 = stablehlo.constant dense<0.000000e+00> : tensor<f64>
    %11 = stablehlo.broadcast_in_dim %cst_1, dims = [] : (tensor<f64>) -> tensor<3xf64>
    %12 = stablehlo.add %11, %10 : tensor<3xf64>
    %13 = stablehlo.add %arg2, %12 : tensor<3xf64>
    %cst_2 = stablehlo.constant dense<1.000000e-128> : tensor<f64>
    %14 = stablehlo.broadcast_in_dim %cst_2, dims = [] : (tensor<f64>) -> tensor<3xf64>
    %15 = stablehlo.compare  GT, %13, %14,  FLOAT : (tensor<3xf64>, tensor<3xf64>) -> tensor<3xi1>
    %cst_3 = stablehlo.constant dense<0x7FF8000000000000> : tensor<f64>
    %16 = call @_where(%15, %13, %cst_3) : (tensor<3xi1>, tensor<3xf64>, tensor<f64>) -> tensor<3xf64>
    return %16 : tensor<3xf64>
  }
  func.func private @_where(%arg0: tensor<3xi1> {mhlo.layout_mode = "default"}, %arg1: tensor<3xf64> {mhlo.layout_mode = "default"}, %arg2: tensor<f64> {mhlo.layout_mode = "default"}) -> (tensor<3xf64> {mhlo.layout_mode = "default"}) {
    %0 = stablehlo.convert %arg2 : tensor<f64>
    %1 = stablehlo.broadcast_in_dim %0, dims = [] : (tensor<f64>) -> tensor<3xf64>
    %2 = stablehlo.select %arg0, %arg1, %1 : tensor<3xi1>, tensor<3xf64>
    return %2 : tensor<3xf64>
  }
  func.func private @posterior_update_mean_continuous_node(%arg0: tensor<3xf64> {mhlo.layout_mode = "default"}, %arg1: tensor<i32> {mhlo.layout_mode = "default"}, %arg2: tensor<3xf64> {mhlo.layout_mode = "default"}, %arg3: tensor<3xf64> {mhlo.layout_mode = "default"}, %arg4: tensor<3x1xf64> {mhlo.layout_mode = "default"}, %arg5: tensor<3xf64> {mhlo.layout_mode = "default"}) -> (tensor<3xf64> {mhlo.layout_mode = "default"}) {
    %0 = stablehlo.slice %arg4 [0:3, 0:1] : (tensor<3x1xf64>) -> tensor<3x1xf64>
    %1 = stablehlo.reshape %0 : (tensor<3x1xf64>) -> tensor<3xf64>
    %2 = stablehlo.convert %arg1 : (tensor<i32>) -> tensor<f64>
    %3 = stablehlo.broadcast_in_dim %2, dims = [] : (tensor<f64>) -> tensor<3xf64>
    %4 = stablehlo.multiply %arg2, %3 : tensor<3xf64>
    %5 = stablehlo.multiply %1, %arg0 : tensor<3xf64>
    %cst = stablehlo.constant dense<1.000000e+00> : tensor<f64>
    %6 = stablehlo.broadcast_in_dim %cst, dims = [] : (tensor<f64>) -> tensor<3xf64>
    %7 = stablehlo.multiply %5, %6 : tensor<3xf64>
    %8 = stablehlo.divide %7, %arg5 : tensor<3xf64>
    %9 = stablehlo.multiply %8, %4 : tensor<3xf64>
    %cst_0 = stablehlo.constant dense<0.000000e+00> : tensor<f64>
    %10 = stablehlo.broadcast_in_dim %cst_0, dims = [] : (tensor<f64>) -> tensor<3xf64>
    %11 = stablehlo.add %10, %9 : tensor<3xf64>
    %12 = stablehlo.add %arg3, %11 : tensor<3xf64>
    %cst_1 = stablehlo.constant dense<0.000000e+00> : tensor<f64>
    %13 = stablehlo.broadcast_in_dim %cst_1, dims = [] : (tensor<f64>) -> tensor<3xf64>
    %14 = stablehlo.add %12, %13 : tensor<3xf64>
    return %14 : tensor<3xf64>
  }
  func.func private @_where_1(%arg0: tensor<3xi1> {mhlo.layout_mode = "default"}, %arg1: tensor<3xf64> {mhlo.layout_mode = "default"}, %arg2: tensor<3xf64> {mhlo.layout_mode = "default"}) -> (tensor<3xf64> {mhlo.layout_mode = "default"}) {
    %0 = stablehlo.select %arg0, %arg1, %arg2 : tensor<3xi1>, tensor<3xf64>
    return %0 : tensor<3xf64>
  }
  func.func private @_where_2(%arg0: tensor<3xi1> {mhlo.layout_mode = "default"}, %arg1: tensor<3xf64> {mhlo.layout_mode = "default"}, %arg2: tensor<3xf64> {mhlo.layout_mode = "default"}) -> (tensor<3xf64> {mhlo.layout_mode = "default"}) {
    %0 = stablehlo.convert %arg2 : tensor<3xf64>
    %1 = stablehlo.select %arg0, %arg1, %0 : tensor<3xi1>, tensor<3xf64>
    return %1 : tensor<3xf64>
  }
  func.func private @_where_3(%arg0: tensor<3xi1> {mhlo.layout_mode = "default"}, %arg1: tensor<3x1xf64> {mhlo.layout_mode = "default"}, %arg2: tensor<3x1xf64> {mhlo.layout_mode = "default"}) -> (tensor<3x1xf64> {mhlo.layout_mode = "default"}) {
    %0 = stablehlo.broadcast_in_dim %arg0, dims = [0] : (tensor<3xi1>) -> tensor<3x1xi1>
    %1 = stablehlo.select %0, %arg1, %arg2 : tensor<3x1xi1>, tensor<3x1xf64>
    return %1 : tensor<3x1xf64>
  }
  func.func private @clip_4(%arg0: tensor<192x3xf64> {mhlo.layout_mode = "default"}, %arg1: tensor<f64> {mhlo.layout_mode = "default"}, %arg2: tensor<f64> {mhlo.layout_mode = "default"}) -> (tensor<192x3xf64> {mhlo.layout_mode = "default"}) {
    %0 = stablehlo.convert %arg1 : tensor<f64>
    %1 = stablehlo.broadcast_in_dim %0, dims = [] : (tensor<f64>) -> tensor<192x3xf64>
    %2 = stablehlo.maximum %1, %arg0 : tensor<192x3xf64>
    %3 = stablehlo.convert %arg2 : tensor<f64>
    %4 = stablehlo.broadcast_in_dim %3, dims = [] : (tensor<f64>) -> tensor<192x3xf64>
    %5 = stablehlo.minimum %4, %2 : tensor<192x3xf64>
    return %5 : tensor<192x3xf64>
  }
  func.func private @log_softmax(%arg0: tensor<3x192x2xf64> {mhlo.layout_mode = "default"}) -> (tensor<3x192x2xf64> {mhlo.layout_mode = "default"}) {
    %cst = stablehlo.constant dense<0xFFF0000000000000> : tensor<f64>
    %0 = stablehlo.reduce(%arg0 init: %cst) applies stablehlo.maximum across dimensions = [2] : (tensor<3x192x2xf64>, tensor<f64>) -> tensor<3x192xf64>
    %cst_0 = stablehlo.constant dense<0xFFF0000000000000> : tensor<f64>
    %1 = stablehlo.broadcast_in_dim %cst_0, dims = [] : (tensor<f64>) -> tensor<3x192xf64>
    %2 = stablehlo.maximum %1, %0 : tensor<3x192xf64>
    %3 = stablehlo.broadcast_in_dim %2, dims = [0, 1] : (tensor<3x192xf64>) -> tensor<3x192x1xf64>
    %4 = stablehlo.broadcast_in_dim %3, dims = [0, 1, 2] : (tensor<3x192x1xf64>) -> tensor<3x192x2xf64>
    %5 = stablehlo.subtract %arg0, %4 : tensor<3x192x2xf64>
    %6 = stablehlo.exponential %5 : tensor<3x192x2xf64>
    %cst_1 = stablehlo.constant dense<0.000000e+00> : tensor<f64>
    %7 = stablehlo.reduce(%6 init: %cst_1) applies stablehlo.add across dimensions = [2] : (tensor<3x192x2xf64>, tensor<f64>) -> tensor<3x192xf64>
    %8 = stablehlo.broadcast_in_dim %7, dims = [0, 1] : (tensor<3x192xf64>) -> tensor<3x192x1xf64>
    %9 = stablehlo.log %8 : tensor<3x192x1xf64>
    %10 = stablehlo.broadcast_in_dim %9, dims = [0, 1, 2] : (tensor<3x192x1xf64>) -> tensor<3x192x2xf64>
    %11 = stablehlo.subtract %5, %10 : tensor<3x192x2xf64>
    return %11 : tensor<3x192x2xf64>
  }
  func.func private @take_along_axis(%arg0: tensor<3x192x2xf64> {mhlo.layout_mode = "default"}, %arg1: tensor<3x192x1xi32> {mhlo.layout_mode = "default"}) -> (tensor<3x192x1xf64> {mhlo.layout_mode = "default"}) {
    %0 = stablehlo.iota dim = 0 : tensor<192x1x1xi32>
    %c = stablehlo.constant dense<0> : tensor<i32>
    %1 = stablehlo.broadcast_in_dim %c, dims = [] : (tensor<i32>) -> tensor<3x192x1xi32>
    %2 = stablehlo.compare  LT, %arg1, %1,  SIGNED : (tensor<3x192x1xi32>, tensor<3x192x1xi32>) -> tensor<3x192x1xi1>
    %c_0 = stablehlo.constant dense<2> : tensor<i32>
    %3 = stablehlo.broadcast_in_dim %c_0, dims = [] : (tensor<i32>) -> tensor<3x192x1xi32>
    %4 = stablehlo.add %arg1, %3 : tensor<3x192x1xi32>
    %5 = stablehlo.select %2, %4, %arg1 : tensor<3x192x1xi1>, tensor<3x192x1xi32>
    %6 = stablehlo.reshape %5 : (tensor<3x192x1xi32>) -> tensor<3x192x1x1xi32>
    %7 = stablehlo.broadcast_in_dim %0, dims = [1, 2, 3] : (tensor<192x1x1xi32>) -> tensor<3x192x1x1xi32>
    %8 = stablehlo.concatenate %7, %6, dim = 3 : (tensor<3x192x1x1xi32>, tensor<3x192x1x1xi32>) -> tensor<3x192x1x2xi32>
    %9 = stablehlo.iota dim = 0 : tensor<3x192x1x1xi32>
    %10 = stablehlo.concatenate %9, %8, dim = 3 : (tensor<3x192x1x1xi32>, tensor<3x192x1x2xi32>) -> tensor<3x192x1x3xi32>
    %c_1 = stablehlo.constant dense<[0, 1, 2]> : tensor<3xi64>
    %c_2 = stablehlo.constant dense<[0, 1, 2]> : tensor<3xi64>
    %c_3 = stablehlo.constant dense<3> : tensor<i64>
    %11 = stablehlo.broadcast_in_dim %c_3, dims = [] : (tensor<i64>) -> tensor<1xi64>
    %c_4 = stablehlo.constant dense<192> : tensor<i64>
    %12 = stablehlo.broadcast_in_dim %c_4, dims = [] : (tensor<i64>) -> tensor<1xi64>
    %c_5 = stablehlo.constant dense<2> : tensor<i64>
    %13 = stablehlo.broadcast_in_dim %c_5, dims = [] : (tensor<i64>) -> tensor<1xi64>
    %14 = stablehlo.concatenate %11, %12, %13, dim = 0 : (tensor<1xi64>, tensor<1xi64>, tensor<1xi64>) -> tensor<3xi64>
    %15 = stablehlo.convert %10 : (tensor<3x192x1x3xi32>) -> tensor<3x192x1x3xi64>
    %c_6 = stablehlo.constant dense<0> : tensor<i64>
    %16 = stablehlo.broadcast_in_dim %c_6, dims = [] : (tensor<i64>) -> tensor<3xi64>
    %17 = stablehlo.compare  LT, %c_1, %16,  SIGNED : (tensor<3xi64>, tensor<3xi64>) -> tensor<3xi1>
    %c_7 = stablehlo.constant dense<3> : tensor<i64>
    %18 = stablehlo.broadcast_in_dim %c_7, dims = [] : (tensor<i64>) -> tensor<3xi64>
    %19 = stablehlo.add %c_1, %18 : tensor<3xi64>
    %20 = stablehlo.select %17, %19, %c_1 : tensor<3xi1>, tensor<3xi64>
    %21 = stablehlo.convert %20 : (tensor<3xi64>) -> tensor<3xi32>
    %22 = stablehlo.broadcast_in_dim %21, dims = [0] : (tensor<3xi32>) -> tensor<3x1xi32>
    %23 = "stablehlo.gather"(%14, %22) <{dimension_numbers = #stablehlo.gather<collapsed_slice_dims = [0], start_index_map = [0], index_vector_dim = 1>, indices_are_sorted = false, slice_sizes = array<i64: 1>}> : (tensor<3xi64>, tensor<3x1xi32>) -> tensor<3xi64>
    %c_8 = stablehlo.constant dense<1> : tensor<i64>
    %24 = stablehlo.broadcast_in_dim %c_8, dims = [] : (tensor<i64>) -> tensor<1xi64>
    %c_9 = stablehlo.constant dense<1> : tensor<i64>
    %25 = stablehlo.broadcast_in_dim %c_9, dims = [] : (tensor<i64>) -> tensor<1xi64>
    %c_10 = stablehlo.constant dense<1> : tensor<i64>
    %26 = stablehlo.broadcast_in_dim %c_10, dims = [] : (tensor<i64>) -> tensor<1xi64>
    %27 = stablehlo.concatenate %24, %25, %26, dim = 0 : (tensor<1xi64>, tensor<1xi64>, tensor<1xi64>) -> tensor<3xi64>
    %c_11 = stablehlo.constant dense<0> : tensor<i64>
    %28 = stablehlo.broadcast_in_dim %c_11, dims = [] : (tensor<i64>) -> tensor<3xi64>
    %29 = stablehlo.compare  LT, %c_2, %28,  SIGNED : (tensor<3xi64>, tensor<3xi64>) -> tensor<3xi1>
    %c_12 = stablehlo.constant dense<3> : tensor<i64>
    %30 = stablehlo.broadcast_in_dim %c_12, dims = [] : (tensor<i64>) -> tensor<3xi64>
    %31 = stablehlo.add %c_2, %30 : tensor<3xi64>
    %32 = stablehlo.select %29, %31, %c_2 : tensor<3xi1>, tensor<3xi64>
    %33 = stablehlo.convert %32 : (tensor<3xi64>) -> tensor<3xi32>
    %34 = stablehlo.broadcast_in_dim %33, dims = [0] : (tensor<3xi32>) -> tensor<3x1xi32>
    %35 = "stablehlo.gather"(%27, %34) <{dimension_numbers = #stablehlo.gather<collapsed_slice_dims = [0], start_index_map = [0], index_vector_dim = 1>, indices_are_sorted = false, slice_sizes = array<i64: 1>}> : (tensor<3xi64>, tensor<3x1xi32>) -> tensor<3xi64>
    %36 = stablehlo.subtract %23, %35 : tensor<3xi64>
    %c_13 = stablehlo.constant dense<0> : tensor<i64>
    %37 = stablehlo.broadcast_in_dim %c_13, dims = [] : (tensor<i64>) -> tensor<3x192x1x3xi64>
    %38 = stablehlo.compare  GE, %15, %37,  SIGNED : (tensor<3x192x1x3xi64>, tensor<3x192x1x3xi64>) -> tensor<3x192x1x3xi1>
    %39 = stablehlo.broadcast_in_dim %36, dims = [3] : (tensor<3xi64>) -> tensor<1x1x1x3xi64>
    %40 = stablehlo.broadcast_in_dim %39, dims = [0, 1, 2, 3] : (tensor<1x1x1x3xi64>) -> tensor<3x192x1x3xi64>
    %41 = stablehlo.compare  LE, %15, %40,  SIGNED : (tensor<3x192x1x3xi64>, tensor<3x192x1x3xi64>) -> tensor<3x192x1x3xi1>
    %42 = stablehlo.and %38, %41 : tensor<3x192x1x3xi1>
    %c_14 = stablehlo.constant dense<true> : tensor<i1>
    %43 = stablehlo.reduce(%42 init: %c_14) applies stablehlo.and across dimensions = [3] : (tensor<3x192x1x3xi1>, tensor<i1>) -> tensor<3x192x1xi1>
    %44 = "stablehlo.gather"(%arg0, %15) <{dimension_numbers = #stablehlo.gather<collapsed_slice_dims = [0, 1, 2], start_index_map = [0, 1, 2], index_vector_dim = 3>, indices_are_sorted = false, slice_sizes = array<i64: 1, 1, 1>}> : (tensor<3x192x2xf64>, tensor<3x192x1x3xi64>) -> tensor<3x192x1xf64>
    %cst = stablehlo.constant dense<0x7FF8000000000000> : tensor<f64>
    %45 = stablehlo.broadcast_in_dim %cst, dims = [] : (tensor<f64>) -> tensor<3x192x1xf64>
    %46 = stablehlo.select %43, %44, %45 : tensor<3x192x1xi1>, tensor<3x192x1xf64>
    return %46 : tensor<3x192x1xf64>
  }
  func.func private @_where_5(%arg0: tensor<3x192xi1> {mhlo.layout_mode = "default"}, %arg1: tensor<3x192xf64> {mhlo.layout_mode = "default"}, %arg2: tensor<f64> {mhlo.layout_mode = "default"}) -> (tensor<3x192xf64> {mhlo.layout_mode = "default"}) {
    %0 = stablehlo.convert %arg2 : tensor<f64>
    %1 = stablehlo.broadcast_in_dim %0, dims = [] : (tensor<f64>) -> tensor<192xf64>
    %2 = stablehlo.broadcast_in_dim %1, dims = [1] : (tensor<192xf64>) -> tensor<3x192xf64>
    %3 = stablehlo.select %arg0, %arg1, %2 : tensor<3x192xi1>, tensor<3x192xf64>
    return %3 : tensor<3x192xf64>
  }
}
