HloModule jit_scan, is_scheduled=true, entry_computation_layout={(f64[20]{0}, f64[20]{0}, f64[20]{0}, f64[20]{0}, f64[20]{0}, /*index=5*/f64[20]{0}, f64[20]{0}, f64[20]{0}, f64[20]{0}, f64[20]{0}, /*index=10*/f64[20]{0}, f64[20]{0}, f64[20]{0}, f64[20]{0}, f64[20]{0}, /*index=15*/f64[20]{0}, f64[20]{0}, f64[20]{0}, f64[20]{0}, f64[20]{0}, /*index=20*/f64[20,1]{1,0}, f64[192,20]{1,0}, f64[192,20]{1,0}, f64[192,20]{1,0}, f64[192]{0}, /*index=25*/f64[192,20]{1,0}, pred[192,20]{1,0}, f64[192,20]{1,0}, f64[192,20]{1,0}, f64[192,20]{1,0}, /*index=30*/f64[192,20]{1,0}, f64[192,20]{1,0}, f64[192,20]{1,0}, f64[192,20]{1,0}, f64[192,20]{1,0}, /*index=35*/pred[192,20]{1,0}, f64[192,20]{1,0}, f64[192,20]{1,0}, f64[192,20]{1,0}, f64[192,20]{1,0}, /*index=40*/f64[192,20]{1,0}, f64[192,20]{1,0}, f64[192,20]{1,0}, f64[192]{0}, f64[192,20]{1,0}, /*index=45*/f64[192,20]{1,0}, f64[192,20]{1,0}, s32[192]{0}, f64[192,20]{1,0}, f64[192]{0}, /*index=50*/f64[192,20]{1,0}, f64[192,20]{1,0}, f64[192,20]{1,0}, pred[192,20]{1,0}, f64[192,20]{1,0}, /*index=55*/f64[192,20]{1,0}, f64[192,20]{1,0}, f64[192,20]{1,0}, f64[192,20]{1,0}, f64[192,20]{1,0}, /*index=60*/f64[192]{0}, f64[192,20]{1,0}, f64[192,20]{1,0}, f64[192,20]{1,0}, f64[192,20]{1,0}, /*index=65*/f64[192,20]{1,0}, f64[192,20]{1,0}, f64[192,20]{1,0}, f64[192,20]{1,0}, f64[192,20]{1,0}, /*index=70*/f64[192,20]{1,0}, f64[192,20]{1,0}, s32[192,20]{1,0}, pred[192,20]{1,0}, f64[192,20]{1,0}, /*index=75*/f64[192,20]{1,0}, f64[192,20]{1,0}, f64[192,20]{1,0}, pred[192,20]{1,0}, pred[192,20,1]{2,1,0}, /*index=80*/f64[192,20]{1,0}, f64[192,20]{1,0}, f64[192,20]{1,0}, f64[192,20]{1,0}, f64[192,20]{1,0}, /*index=85*/f64[192,20]{1,0}, f64[192,20]{1,0}, f64[192,20]{1,0}, f64[192,20]{1,0}, f64[192,20]{1,0}, /*index=90*/pred[192,20]{1,0}, pred[192,20]{1,0}, pred[192,20,1]{2,1,0})->(f64[20]{0}, f64[20]{0}, f64[20]{0}, f64[20]{0}, f64[20]{0}, /*index=5*/f64[20]{0}, f64[20]{0}, f64[20]{0}, f64[20]{0}, f64[20]{0}, /*index=10*/f64[20]{0}, f64[20]{0}, f64[20]{0}, f64[20]{0}, f64[20]{0}, /*index=15*/f64[20]{0}, f64[20]{0}, f64[20]{0}, f64[20]{0}, f64[20]{0}, /*index=20*/f64[20,1]{1,0})}, allow_spmd_sharding_propagation_to_parameters={true,true,true,true,true,true,true,true,true,true,true,true,true,true,true,true,true,true,true,true,true,true,true,true,true,true,true,true,true,true,true,true,true,true,true,true,true,true,true,true,true,true,true,true,true,true,true,true,true,true,true,true,true,true,true,true,true,true,true,true,true,true,true,true,true,true,true,true,true,true,true,true,true,true,true,true,true,true,true,true,true,true,true,true,true,true,true,true,true,true,true,true,true}, allow_spmd_sharding_propagation_to_output={true,true,true,true,true,true,true,true,true,true,true,true,true,true,true,true,true,true,true,true,true}, frontend_attributes={fingerprint_before_lhs="54095487fc74dd080d4833931a39532e"}

fused_broadcast.1 {
  constant_90_2 = f64[] constant(0)
  ROOT broadcast.137.1 = f64[20]{0} broadcast(constant_90_2), dimensions={}
}

wrapped_copy_computation.2 {
  param_0.714 = f64[20]{0} parameter(0)
  ROOT copy.144 = f64[20]{0} copy(param_0.714)
}

wrapped_copy_computation.3 {
  param_0.715 = f64[20]{0} parameter(0)
  ROOT copy.145 = f64[20]{0} copy(param_0.715)
}

fused_broadcast {
  constant_90_1 = f64[] constant(0)
  ROOT broadcast.139.1 = f64[20,1]{1,0} broadcast(constant_90_1), dimensions={}
}

fused_multiply_negate {
  param_0.691 = f64[20]{0} parameter(0)
  param_4.468 = f64[] parameter(4)
  broadcast.138.3.clone.1 = f64[20]{0} broadcast(param_4.468), dimensions={}, metadata={op_name="jit(scan)/jit(main)/while/body/jit(beliefs_propagation)/jit(continuous_node_posterior_update)/jit(posterior_update_precision_continuous_node)/cond/branch_0_fun/jit(precision_update_missing_values)/mul" source_file="/fs04/fc37/adam/projects/psilocybin-prl-analyses/src/prl_hgf/fitting/hierarchical_patrl.py" source_line=362}
  param_2.843 = f64[20]{0} parameter(2)
  param_3.705 = f64[20]{0} parameter(3)
  multiply.368.2.clone.1 = f64[20]{0} multiply(param_2.843, param_3.705), metadata={op_name="jit(scan)/jit(main)/while/body/jit(beliefs_propagation)/jit(continuous_node_posterior_update)/jit(posterior_update_precision_continuous_node)/cond/branch_0_fun/jit(precision_update_missing_values)/mul" source_file="/fs04/fc37/adam/projects/psilocybin-prl-analyses/src/prl_hgf/fitting/hierarchical_patrl.py" source_line=362}
  negate.85.4.clone.1 = f64[20]{0} negate(multiply.368.2.clone.1), metadata={op_name="jit(scan)/jit(main)/while/body/jit(beliefs_propagation)/jit(continuous_node_posterior_update)/jit(posterior_update_precision_continuous_node)/cond/branch_0_fun/jit(precision_update_missing_values)/neg" source_file="/fs04/fc37/adam/projects/psilocybin-prl-analyses/src/prl_hgf/fitting/hierarchical_patrl.py" source_line=362}
  multiply.370.3.clone.1 = f64[20]{0} multiply(broadcast.138.3.clone.1, negate.85.4.clone.1), metadata={op_name="jit(scan)/jit(main)/while/body/jit(beliefs_propagation)/jit(continuous_node_posterior_update)/jit(posterior_update_precision_continuous_node)/cond/branch_0_fun/jit(precision_update_missing_values)/mul" source_file="/fs04/fc37/adam/projects/psilocybin-prl-analyses/src/prl_hgf/fitting/hierarchical_patrl.py" source_line=362}
  param_1.982 = f64[20]{0} parameter(1)
  multiply.371.1.clone.1 = f64[20]{0} multiply(multiply.370.3.clone.1, param_1.982), metadata={op_name="jit(scan)/jit(main)/while/body/jit(beliefs_propagation)/jit(continuous_node_posterior_update)/jit(posterior_update_precision_continuous_node)/cond/branch_0_fun/jit(precision_update_missing_values)/mul" source_file="/fs04/fc37/adam/projects/psilocybin-prl-analyses/src/prl_hgf/fitting/hierarchical_patrl.py" source_line=362}
  multiply.372.1 = f64[20]{0} multiply(param_0.691, multiply.371.1.clone.1), metadata={op_name="jit(scan)/jit(main)/while/body/jit(beliefs_propagation)/jit(continuous_node_posterior_update)/jit(posterior_update_precision_continuous_node)/cond/branch_0_fun/jit(precision_update_missing_values)/mul" source_file="/fs04/fc37/adam/projects/psilocybin-prl-analyses/src/prl_hgf/fitting/hierarchical_patrl.py" source_line=362}
  param_5.390 = f64[20]{0} parameter(5)
  multiply.369.1.clone.1 = f64[20]{0} multiply(negate.85.4.clone.1, param_5.390), metadata={op_name="jit(scan)/jit(main)/while/body/jit(beliefs_propagation)/jit(continuous_node_posterior_update)/jit(posterior_update_precision_continuous_node)/cond/branch_0_fun/jit(precision_update_missing_values)/mul" source_file="/fs04/fc37/adam/projects/psilocybin-prl-analyses/src/prl_hgf/fitting/hierarchical_patrl.py" source_line=362}
  negate.86.1.clone.1 = f64[20]{0} negate(multiply.369.1.clone.1), metadata={op_name="jit(scan)/jit(main)/while/body/jit(beliefs_propagation)/jit(continuous_node_posterior_update)/jit(posterior_update_precision_continuous_node)/cond/branch_0_fun/jit(precision_update_missing_values)/neg" source_file="/fs04/fc37/adam/projects/psilocybin-prl-analyses/src/prl_hgf/fitting/hierarchical_patrl.py" source_line=362}
  ROOT tuple.120 = (f64[20]{0}, f64[20]{0}, f64[20]{0}) tuple(multiply.372.1, multiply.371.1.clone.1, negate.86.1.clone.1)
} // fused_multiply_negate

command_buffer.4 {
  p.54 = f64[20]{0} parameter(0)
  p.55 = f64[20]{0} parameter(1)
  p.56 = f64[20]{0} parameter(2)
  p.57 = f64[20]{0} parameter(3)
  p.58 = f64[] parameter(4)
  p.59 = f64[20]{0} parameter(5)
  loop_broadcast_fusion.1 = f64[20]{0} fusion(), kind=kLoop, calls=fused_broadcast.1
  wrapped_copy.2 = f64[20]{0} fusion(loop_broadcast_fusion.1), kind=kLoop, calls=wrapped_copy_computation.2
  wrapped_copy.3 = f64[20]{0} fusion(loop_broadcast_fusion.1), kind=kLoop, calls=wrapped_copy_computation.3
  loop_broadcast_fusion = f64[20,1]{1,0} fusion(), kind=kLoop, calls=fused_broadcast
  loop_multiply_negate_fusion = (f64[20]{0}, f64[20]{0}, f64[20]{0}) fusion(p.54, p.55, p.56, p.57, p.58, /*index=5*/p.59), kind=kLoop, calls=fused_multiply_negate, metadata={op_name="jit(scan)/jit(main)/while/body/jit(beliefs_propagation)/jit(continuous_node_posterior_update)/jit(posterior_update_precision_continuous_node)/cond/branch_0_fun/jit(precision_update_missing_values)/mul" source_file="/fs04/fc37/adam/projects/psilocybin-prl-analyses/src/prl_hgf/fitting/hierarchical_patrl.py" source_line=362}
  ROOT tuple.158 = (f64[20]{0}, f64[20]{0}, f64[20]{0}, f64[20,1]{1,0}, (f64[20]{0}, f64[20]{0}, f64[20]{0})) tuple(loop_broadcast_fusion.1, wrapped_copy.2, wrapped_copy.3, loop_broadcast_fusion, loop_multiply_negate_fusion)
} // command_buffer.4

region_1.514.clone {
  arg_tuple.0.0 = (f64[20]{0}, f64[], f64[20]{0}, f64[20]{0}, f64[20]{0}, /*index=5*/f64[20]{0}) parameter(0)
  get-tuple-element.372.0 = f64[] get-tuple-element(arg_tuple.0.0), index=1
  get-tuple-element.376.0 = f64[20]{0} get-tuple-element(arg_tuple.0.0), index=5
  get-tuple-element.375.0 = f64[20]{0} get-tuple-element(arg_tuple.0.0), index=4
  get-tuple-element.374.0 = f64[20]{0} get-tuple-element(arg_tuple.0.0), index=3
  get-tuple-element.373.0 = f64[20]{0} get-tuple-element(arg_tuple.0.0), index=2
  get-tuple-element.371.0 = f64[20]{0} get-tuple-element(arg_tuple.0.0), index=0
  call.2 = (f64[20]{0}, f64[20]{0}, f64[20]{0}, f64[20,1]{1,0}, (f64[20]{0}, f64[20]{0}, f64[20]{0})) call(get-tuple-element.373.0, get-tuple-element.374.0, get-tuple-element.376.0, get-tuple-element.375.0, get-tuple-element.372.0, /*index=5*/get-tuple-element.371.0), to_apply=command_buffer.4
  get-tuple-element.970 = f64[20]{0} get-tuple-element(call.2), index=0
  get-tuple-element.971 = f64[20]{0} get-tuple-element(call.2), index=1
  get-tuple-element.972 = f64[20]{0} get-tuple-element(call.2), index=2
  get-tuple-element.973 = f64[20,1]{1,0} get-tuple-element(call.2), index=3
  get-tuple-element.974 = (f64[20]{0}, f64[20]{0}, f64[20]{0}) get-tuple-element(call.2), index=4
  get-tuple-element.439 = f64[20]{0} get-tuple-element(get-tuple-element.974), index=2, metadata={op_name="jit(scan)/jit(main)/while/body/jit(beliefs_propagation)/jit(continuous_node_posterior_update)/jit(posterior_update_precision_continuous_node)/cond/branch_0_fun/jit(precision_update_missing_values)/mul" source_file="/fs04/fc37/adam/projects/psilocybin-prl-analyses/src/prl_hgf/fitting/hierarchical_patrl.py" source_line=362}
  get-tuple-element.440 = f64[20]{0} get-tuple-element(get-tuple-element.974), index=1, metadata={op_name="jit(scan)/jit(main)/while/body/jit(beliefs_propagation)/jit(continuous_node_posterior_update)/jit(posterior_update_precision_continuous_node)/cond/branch_0_fun/jit(precision_update_missing_values)/mul" source_file="/fs04/fc37/adam/projects/psilocybin-prl-analyses/src/prl_hgf/fitting/hierarchical_patrl.py" source_line=362}
  get-tuple-element.441 = f64[20]{0} get-tuple-element(get-tuple-element.974), index=0, metadata={op_name="jit(scan)/jit(main)/while/body/jit(beliefs_propagation)/jit(continuous_node_posterior_update)/jit(posterior_update_precision_continuous_node)/cond/branch_0_fun/jit(precision_update_missing_values)/mul" source_file="/fs04/fc37/adam/projects/psilocybin-prl-analyses/src/prl_hgf/fitting/hierarchical_patrl.py" source_line=362}
  ROOT tuple.147 = (f64[20]{0}, f64[20]{0}, f64[20]{0}, f64[20]{0}, f64[20]{0}, /*index=5*/f64[20]{0}, f64[20,1]{1,0}) tuple(get-tuple-element.970, get-tuple-element.971, get-tuple-element.972, get-tuple-element.439, get-tuple-element.440, /*index=5*/get-tuple-element.441, get-tuple-element.973)
} // region_1.514.clone

fused_broadcast.2 {
  constant_92_1 = f64[] constant(0)
  ROOT broadcast.143.1 = f64[20,1]{1,0} broadcast(constant_92_1), dimensions={}
}

fused_broadcast_multiply_select {
  param_0.12 = f64[20]{0} parameter(0)
  param_2.844 = pred[20]{0} parameter(2)
  param_3.706 = f64[20]{0} parameter(3)
  constant_92_2_clone_1 = f64[] constant(0)
  broadcast.141.clone.5.clone.1 = f64[20]{0} broadcast(constant_92_2_clone_1), dimensions={}
  select.220.1 = f64[20]{0} select(param_2.844, param_3.706, broadcast.141.clone.5.clone.1), metadata={op_name="jit(scan)/jit(main)/while/body/jit(beliefs_propagation)/jit(continuous_node_posterior_update_ehgf)/jit(posterior_update_precision_continuous_node)/jit(precision_update)/jit(_where)/select_n" source_file="/fs04/fc37/adam/projects/psilocybin-prl-analyses/src/prl_hgf/env/pat_rl_simulator.py" source_line=92}
  param_1.983 = f64[] parameter(1)
  broadcast.142.3 = f64[20]{0} broadcast(param_1.983), dimensions={}, metadata={op_name="jit(scan)/jit(main)/while/body/jit(beliefs_propagation)/jit(continuous_node_posterior_update)/jit(posterior_update_precision_continuous_node)/cond/branch_1_fun/jit(precision_update)/mul" source_file="/fs04/fc37/adam/projects/psilocybin-prl-analyses/src/prl_hgf/fitting/hierarchical_patrl.py" source_line=362}
  multiply.373.3 = f64[20]{0} multiply(select.220.1, broadcast.142.3), metadata={op_name="jit(scan)/jit(main)/while/body/jit(beliefs_propagation)/jit(continuous_node_posterior_update)/jit(posterior_update_precision_continuous_node)/cond/branch_1_fun/jit(precision_update)/mul" source_file="/fs04/fc37/adam/projects/psilocybin-prl-analyses/src/prl_hgf/fitting/hierarchical_patrl.py" source_line=362}
  multiply.374.1 = f64[20]{0} multiply(param_0.12, multiply.373.3), metadata={op_name="jit(scan)/jit(main)/while/body/jit(beliefs_propagation)/jit(continuous_node_posterior_update)/jit(posterior_update_precision_continuous_node)/cond/branch_1_fun/jit(precision_update)/mul" source_file="/fs04/fc37/adam/projects/psilocybin-prl-analyses/src/prl_hgf/fitting/hierarchical_patrl.py" source_line=362}
  ROOT tuple.122 = (f64[20]{0}, f64[20]{0}, f64[20]{0}) tuple(multiply.374.1, select.220.1, broadcast.141.clone.5.clone.1)
} // fused_broadcast_multiply_select

wrapped_copy_computation.5 {
  param_0.717 = f64[20]{0} parameter(0)
  ROOT copy.147 = f64[20]{0} copy(param_0.717)
}

wrapped_copy_computation.4 {
  param_0.716 = f64[20]{0} parameter(0)
  ROOT copy.146 = f64[20]{0} copy(param_0.716)
}

wrapped_copy_computation.6 {
  param_0.718 = f64[20]{0} parameter(0)
  ROOT copy.148 = f64[20]{0} copy(param_0.718)
}

command_buffer.2 {
  p.46 = f64[20]{0} parameter(0)
  p.47 = f64[] parameter(1)
  p.48 = pred[20]{0} parameter(2)
  p.49 = f64[20]{0} parameter(3)
  loop_broadcast_fusion.2 = f64[20,1]{1,0} fusion(), kind=kLoop, calls=fused_broadcast.2
  loop_broadcast_multiply_select_fusion = (f64[20]{0}, f64[20]{0}, f64[20]{0}) fusion(p.46, p.47, p.48, p.49), kind=kLoop, calls=fused_broadcast_multiply_select, metadata={op_name="jit(scan)/jit(main)/while/body/jit(beliefs_propagation)/jit(continuous_node_posterior_update)/jit(posterior_update_precision_continuous_node)/cond/branch_1_fun/jit(precision_update)/mul" source_file="/fs04/fc37/adam/projects/psilocybin-prl-analyses/src/prl_hgf/fitting/hierarchical_patrl.py" source_line=362}
  get-tuple-element.448 = f64[20]{0} get-tuple-element(loop_broadcast_multiply_select_fusion), index=2, metadata={op_name="jit(scan)/jit(main)/while/body/jit(beliefs_propagation)/jit(continuous_node_posterior_update)/jit(posterior_update_precision_continuous_node)/cond/branch_1_fun/jit(precision_update)/mul" source_file="/fs04/fc37/adam/projects/psilocybin-prl-analyses/src/prl_hgf/fitting/hierarchical_patrl.py" source_line=362}
  get-tuple-element.445 = f64[20]{0} get-tuple-element(loop_broadcast_multiply_select_fusion), index=1, metadata={op_name="jit(scan)/jit(main)/while/body/jit(beliefs_propagation)/jit(continuous_node_posterior_update)/jit(posterior_update_precision_continuous_node)/cond/branch_1_fun/jit(precision_update)/mul" source_file="/fs04/fc37/adam/projects/psilocybin-prl-analyses/src/prl_hgf/fitting/hierarchical_patrl.py" source_line=362}
  get-tuple-element.444 = f64[20]{0} get-tuple-element(loop_broadcast_multiply_select_fusion), index=0, metadata={op_name="jit(scan)/jit(main)/while/body/jit(beliefs_propagation)/jit(continuous_node_posterior_update)/jit(posterior_update_precision_continuous_node)/cond/branch_1_fun/jit(precision_update)/mul" source_file="/fs04/fc37/adam/projects/psilocybin-prl-analyses/src/prl_hgf/fitting/hierarchical_patrl.py" source_line=362}
  wrapped_copy.5 = f64[20]{0} fusion(get-tuple-element.448), kind=kLoop, calls=wrapped_copy_computation.5
  wrapped_copy.4 = f64[20]{0} fusion(get-tuple-element.448), kind=kLoop, calls=wrapped_copy_computation.4
  wrapped_copy.6 = f64[20]{0} fusion(get-tuple-element.448), kind=kLoop, calls=wrapped_copy_computation.6
  ROOT tuple.156 = (f64[20,1]{1,0}, f64[20]{0}, f64[20]{0}, f64[20]{0}, f64[20]{0}, /*index=5*/f64[20]{0}, f64[20]{0}) tuple(loop_broadcast_fusion.2, get-tuple-element.448, get-tuple-element.445, get-tuple-element.444, wrapped_copy.5, /*index=5*/wrapped_copy.4, wrapped_copy.6)
} // command_buffer.2

region_2.547.clone {
  arg_tuple.1.0 = (f64[20]{0}, f64[], pred[20]{0}, f64[20]{0}) parameter(0)
  get-tuple-element.385.0 = f64[] get-tuple-element(arg_tuple.1.0), index=1
  get-tuple-element.387.0 = f64[20]{0} get-tuple-element(arg_tuple.1.0), index=3
  get-tuple-element.386.0 = pred[20]{0} get-tuple-element(arg_tuple.1.0), index=2
  get-tuple-element.384.0 = f64[20]{0} get-tuple-element(arg_tuple.1.0), index=0
  call.1 = (f64[20,1]{1,0}, f64[20]{0}, f64[20]{0}, f64[20]{0}, f64[20]{0}, /*index=5*/f64[20]{0}, f64[20]{0}) call(get-tuple-element.384.0, get-tuple-element.385.0, get-tuple-element.386.0, get-tuple-element.387.0), to_apply=command_buffer.2
  get-tuple-element.963 = f64[20,1]{1,0} get-tuple-element(call.1), index=0
  get-tuple-element.964 = f64[20]{0} get-tuple-element(call.1), index=1
  get-tuple-element.965 = f64[20]{0} get-tuple-element(call.1), index=2
  get-tuple-element.966 = f64[20]{0} get-tuple-element(call.1), index=3
  get-tuple-element.967 = f64[20]{0} get-tuple-element(call.1), index=4
  get-tuple-element.968 = f64[20]{0} get-tuple-element(call.1), index=5
  get-tuple-element.969 = f64[20]{0} get-tuple-element(call.1), index=6
  ROOT tuple.148 = (f64[20]{0}, f64[20]{0}, f64[20]{0}, f64[20]{0}, f64[20]{0}, /*index=5*/f64[20]{0}, f64[20,1]{1,0}) tuple(get-tuple-element.964, get-tuple-element.966, get-tuple-element.965, get-tuple-element.968, get-tuple-element.967, /*index=5*/get-tuple-element.969, get-tuple-element.963)
} // region_2.547.clone

fused_add_select {
  param_1.960 = pred[192,20]{1,0} parameter(1)
  constant_96_22 = s64[] constant(191)
  param_2.836 = s64[] parameter(2)
  subtract.4.75 = s64[] subtract(constant_96_22, param_2.836), metadata={op_name="jit(scan)/jit(main)/while/body/sub" source_file="/fs04/fc37/adam/projects/psilocybin-prl-analyses/src/prl_hgf/fitting/hierarchical_patrl.py" source_line=378}
  constant_1230_11 = s64[] constant(0)
  compare.14.75 = pred[] compare(subtract.4.75, constant_1230_11), direction=LT, metadata={op_name="jit(scan)/jit(main)/while/body/lt" source_file="/fs04/fc37/adam/projects/psilocybin-prl-analyses/src/prl_hgf/fitting/hierarchical_patrl.py" source_line=378}
  constant_97_22 = s64[] constant(383)
  subtract.5.75 = s64[] subtract(constant_97_22, param_2.836), metadata={op_name="jit(scan)/jit(main)/while/body/add" source_file="/fs04/fc37/adam/projects/psilocybin-prl-analyses/src/prl_hgf/fitting/hierarchical_patrl.py" source_line=378}
  select.223.75 = s64[] select(compare.14.75, subtract.5.75, subtract.4.75), metadata={op_name="jit(scan)/jit(main)/while/body/select_n" source_file="/fs04/fc37/adam/projects/psilocybin-prl-analyses/src/prl_hgf/fitting/hierarchical_patrl.py" source_line=378}
  dynamic-slice.72.6 = pred[1,20]{1,0} dynamic-slice(param_1.960, select.223.75, constant_1230_11), dynamic_slice_sizes={1,20}, metadata={op_name="jit(scan)/jit(main)/while/body/dynamic_slice[slice_sizes=(1, 20)]" source_file="/fs04/fc37/adam/projects/psilocybin-prl-analyses/src/prl_hgf/fitting/hierarchical_patrl.py" source_line=378}
  bitcast.1874.5 = pred[20]{0} bitcast(dynamic-slice.72.6)
  constant_58_8 = f64[] constant(0)
  broadcast.144.clone.54 = f64[20]{0} broadcast(constant_58_8), dimensions={}
  param_0.331 = f64[20]{0} parameter(0)
  select.228.1 = f64[20]{0} select(bitcast.1874.5, broadcast.144.clone.54, param_0.331), metadata={op_name="jit(scan)/jit(main)/while/body/jit(_where)/select_n" source_file="/fs04/fc37/adam/projects/psilocybin-prl-analyses/src/prl_hgf/env/pat_rl_simulator.py" source_line=92}
  param_37.57 = f64[20]{0} parameter(37)
  param_38.59 = f64[192,20]{1,0} parameter(38)
  dynamic-slice.73.5.clone.1 = f64[1,20]{1,0} dynamic-slice(param_38.59, select.223.75, constant_1230_11), dynamic_slice_sizes={1,20}, metadata={op_name="jit(scan)/jit(main)/while/body/dynamic_slice[slice_sizes=(1, 20)]" source_file="/fs04/fc37/adam/projects/psilocybin-prl-analyses/src/prl_hgf/fitting/hierarchical_patrl.py" source_line=378}
  bitcast.1941.5.clone.1 = f64[20]{0} bitcast(dynamic-slice.73.5.clone.1)
  add.240.5.clone.1 = f64[20]{0} add(param_37.57, bitcast.1941.5.clone.1), metadata={op_name="jit(scan)/jit(main)/while/body/add_any" source_file="/fs04/fc37/adam/projects/psilocybin-prl-analyses/src/prl_hgf/fitting/hierarchical_patrl.py" source_line=378}
  select.232.3.clone.1 = f64[20]{0} select(bitcast.1874.5, broadcast.144.clone.54, add.240.5.clone.1), metadata={op_name="jit(scan)/jit(main)/while/body/jit(_where)/select_n" source_file="/fs04/fc37/adam/projects/psilocybin-prl-analyses/src/prl_hgf/env/pat_rl_simulator.py" source_line=92}
  param_3.710 = f64[20]{0} parameter(3)
  param_36.62 = f64[192,20]{1,0} parameter(36)
  dynamic-slice.96.5.clone.1 = f64[1,20]{1,0} dynamic-slice(param_36.62, select.223.75, constant_1230_11), dynamic_slice_sizes={1,20}, metadata={op_name="jit(scan)/jit(main)/while/body/dynamic_slice[slice_sizes=(1, 20)]" source_file="/fs04/fc37/adam/projects/psilocybin-prl-analyses/src/prl_hgf/fitting/hierarchical_patrl.py" source_line=378}
  bitcast.2245.5.clone.1 = f64[20]{0} bitcast(dynamic-slice.96.5.clone.1)
  select.244.13.clone.1 = f64[20]{0} select(bitcast.1874.5, param_0.331, broadcast.144.clone.54), metadata={op_name="jit(scan)/jit(main)/while/body/jit(_where)/select_n" source_file="/fs04/fc37/adam/projects/psilocybin-prl-analyses/src/prl_hgf/env/pat_rl_simulator.py" source_line=92}
  param_35.77 = f64[20]{0} parameter(35)
  select.243.5.clone.1 = f64[20]{0} select(bitcast.1874.5, param_35.77, broadcast.144.clone.54), metadata={op_name="jit(scan)/jit(main)/while/body/jit(_where)/select_n" source_file="/fs04/fc37/adam/projects/psilocybin-prl-analyses/src/prl_hgf/env/pat_rl_simulator.py" source_line=92}
  param_34.91 = f64[192,20]{1,0} parameter(34)
  dynamic-slice.90.19.clone.1 = f64[1,20]{1,0} dynamic-slice(param_34.91, select.223.75, constant_1230_11), dynamic_slice_sizes={1,20}, metadata={op_name="jit(scan)/jit(main)/while/body/dynamic_slice[slice_sizes=(1, 20)]" source_file="/fs04/fc37/adam/projects/psilocybin-prl-analyses/src/prl_hgf/fitting/hierarchical_patrl.py" source_line=378}
  bitcast.2147.19.clone.1 = f64[20]{0} bitcast(dynamic-slice.90.19.clone.1)
  param_33.97 = f64[20]{0} parameter(33)
  select.234.5.clone.1 = f64[20]{0} select(bitcast.1874.5, param_33.97, broadcast.144.clone.54), metadata={op_name="jit(scan)/jit(main)/while/body/jit(_where)/select_n" source_file="/fs04/fc37/adam/projects/psilocybin-prl-analyses/src/prl_hgf/env/pat_rl_simulator.py" source_line=92}
  param_32.154 = pred[192,20]{1,0} parameter(32)
  dynamic-slice.80.9.clone.1 = pred[1,20]{1,0} dynamic-slice(param_32.154, select.223.75, constant_1230_11), dynamic_slice_sizes={1,20}, metadata={op_name="jit(scan)/jit(main)/while/body/dynamic_slice[slice_sizes=(1, 20)]" source_file="/fs04/fc37/adam/projects/psilocybin-prl-analyses/src/prl_hgf/fitting/hierarchical_patrl.py" source_line=378}
  bitcast.2020.29.clone.1 = pred[20]{0} bitcast(dynamic-slice.80.9.clone.1)
  param_31.150 = f64[192,20]{1,0} parameter(31)
  dynamic-slice.81.7.clone.1 = f64[1,20]{1,0} dynamic-slice(param_31.150, select.223.75, constant_1230_11), dynamic_slice_sizes={1,20}, metadata={op_name="jit(scan)/jit(main)/while/body/dynamic_slice[slice_sizes=(1, 20)]" source_file="/fs04/fc37/adam/projects/psilocybin-prl-analyses/src/prl_hgf/fitting/hierarchical_patrl.py" source_line=378}
  bitcast.2029.7.clone.1 = f64[20]{0} bitcast(dynamic-slice.81.7.clone.1)
  param_30.158 = pred[192,20]{1,0} parameter(30)
  dynamic-slice.82.14.clone.1 = pred[1,20]{1,0} dynamic-slice(param_30.158, select.223.75, constant_1230_11), dynamic_slice_sizes={1,20}, metadata={op_name="jit(scan)/jit(main)/while/body/dynamic_slice[slice_sizes=(1, 20)]" source_file="/fs04/fc37/adam/projects/psilocybin-prl-analyses/src/prl_hgf/fitting/hierarchical_patrl.py" source_line=378}
  bitcast.2038.25.clone.1 = pred[20]{0} bitcast(dynamic-slice.82.14.clone.1)
  param_29.178 = s32[192,20]{1,0} parameter(29)
  dynamic-slice.83.30.clone.1 = s32[1,20]{1,0} dynamic-slice(param_29.178, select.223.75, constant_1230_11), dynamic_slice_sizes={1,20}, metadata={op_name="jit(scan)/jit(main)/while/body/dynamic_slice[slice_sizes=(1, 20)]" source_file="/fs04/fc37/adam/projects/psilocybin-prl-analyses/src/prl_hgf/fitting/hierarchical_patrl.py" source_line=378}
  constant_68_6_clone_1 = s32[] constant(1)
  broadcast.145.25.clone.1 = s32[1,20]{1,0} broadcast(constant_68_6_clone_1), dimensions={}
  compare.15.25.clone.1 = pred[1,20]{1,0} compare(dynamic-slice.83.30.clone.1, broadcast.145.25.clone.1), direction=EQ, metadata={op_name="jit(scan)/jit(main)/while/body/jit(beliefs_propagation)/jit(continuous_node_posterior_update_ehgf)/jit(posterior_update_precision_continuous_node)/eq" source_file="/fs04/fc37/adam/projects/psilocybin-prl-analyses/src/prl_hgf/fitting/hierarchical_patrl.py" source_line=362}
  bitcast.2050.27.clone.1 = pred[20]{0} bitcast(compare.15.25.clone.1)
  param_28.177 = f64[20]{0} parameter(28)
  select.235.39.clone.1 = f64[20]{0} select(bitcast.1874.5, param_28.177, broadcast.144.clone.54), metadata={op_name="jit(scan)/jit(main)/while/body/jit(_where)/select_n" source_file="/fs04/fc37/adam/projects/psilocybin-prl-analyses/src/prl_hgf/env/pat_rl_simulator.py" source_line=92}
  select.236.27.clone.1 = f64[20]{0} select(bitcast.2050.27.clone.1, select.235.39.clone.1, broadcast.144.clone.54), metadata={op_name="jit(scan)/jit(main)/while/body/jit(beliefs_propagation)/jit(continuous_node_posterior_update_ehgf)/jit(posterior_update_precision_continuous_node)/select_n" source_file="/fs04/fc37/adam/projects/psilocybin-prl-analyses/src/prl_hgf/fitting/hierarchical_patrl.py" source_line=362}
  select.239.25.clone.1 = f64[20]{0} select(bitcast.2038.25.clone.1, select.236.27.clone.1, broadcast.144.clone.54), metadata={op_name="jit(scan)/jit(main)/while/body/jit(beliefs_propagation)/jit(continuous_node_posterior_update_ehgf)/jit(posterior_update_precision_continuous_node)/jit(precision_update)/jit(_where)/select_n" source_file="/fs04/fc37/adam/projects/psilocybin-prl-analyses/src/prl_hgf/env/pat_rl_simulator.py" source_line=92}
  param_27.159 = f64[192,20]{1,0} parameter(27)
  dynamic-slice.84.9.clone.1 = f64[1,20]{1,0} dynamic-slice(param_27.159, select.223.75, constant_1230_11), dynamic_slice_sizes={1,20}, metadata={op_name="jit(scan)/jit(main)/while/body/dynamic_slice[slice_sizes=(1, 20)]" source_file="/fs04/fc37/adam/projects/psilocybin-prl-analyses/src/prl_hgf/fitting/hierarchical_patrl.py" source_line=378}
  bitcast.2070.9.clone.1 = f64[20]{0} bitcast(dynamic-slice.84.9.clone.1)
  multiply.375.9.clone.1 = f64[20]{0} multiply(select.239.25.clone.1, bitcast.2070.9.clone.1), metadata={op_name="jit(scan)/jit(main)/while/body/jit(beliefs_propagation)/jit(continuous_node_posterior_update_ehgf)/jit(posterior_update_precision_continuous_node)/jit(precision_update)/mul" source_file="/fs04/fc37/adam/projects/psilocybin-prl-analyses/src/prl_hgf/fitting/hierarchical_patrl.py" source_line=362}
  negate.87.12.clone.1 = f64[20]{0} negate(multiply.375.9.clone.1), metadata={op_name="jit(scan)/jit(main)/while/body/jit(beliefs_propagation)/jit(continuous_node_posterior_update_ehgf)/jit(posterior_update_precision_continuous_node)/jit(precision_update)/neg" source_file="/fs04/fc37/adam/projects/psilocybin-prl-analyses/src/prl_hgf/fitting/hierarchical_patrl.py" source_line=362}
  multiply.376.7.clone.1 = f64[20]{0} multiply(bitcast.2029.7.clone.1, negate.87.12.clone.1), metadata={op_name="jit(scan)/jit(main)/while/body/jit(beliefs_propagation)/jit(continuous_node_posterior_update_ehgf)/jit(posterior_update_precision_continuous_node)/jit(precision_update)/mul" source_file="/fs04/fc37/adam/projects/psilocybin-prl-analyses/src/prl_hgf/fitting/hierarchical_patrl.py" source_line=362}
  param_26.180 = f64[192,20]{1,0} parameter(26)
  dynamic-slice.85.5.clone.1 = f64[1,20]{1,0} dynamic-slice(param_26.180, select.223.75, constant_1230_11), dynamic_slice_sizes={1,20}, metadata={op_name="jit(scan)/jit(main)/while/body/dynamic_slice[slice_sizes=(1, 20)]" source_file="/fs04/fc37/adam/projects/psilocybin-prl-analyses/src/prl_hgf/fitting/hierarchical_patrl.py" source_line=378}
  bitcast.2082.5.clone.1 = f64[20]{0} bitcast(dynamic-slice.85.5.clone.1)
  multiply.377.5.clone.1 = f64[20]{0} multiply(bitcast.2082.5.clone.1, multiply.375.9.clone.1), metadata={op_name="jit(scan)/jit(main)/while/body/jit(beliefs_propagation)/jit(continuous_node_posterior_update_ehgf)/jit(posterior_update_precision_continuous_node)/jit(precision_update)/mul" source_file="/fs04/fc37/adam/projects/psilocybin-prl-analyses/src/prl_hgf/fitting/hierarchical_patrl.py" source_line=362}
  add.241.5.clone.1 = f64[20]{0} add(multiply.376.7.clone.1, multiply.377.5.clone.1), metadata={op_name="jit(scan)/jit(main)/while/body/jit(beliefs_propagation)/jit(continuous_node_posterior_update_ehgf)/jit(posterior_update_precision_continuous_node)/jit(precision_update)/add_any" source_file="/fs04/fc37/adam/projects/psilocybin-prl-analyses/src/prl_hgf/fitting/hierarchical_patrl.py" source_line=362}
  select.240.7.clone.1 = f64[20]{0} select(bitcast.2020.29.clone.1, add.241.5.clone.1, broadcast.144.clone.54), metadata={op_name="jit(scan)/jit(main)/while/body/jit(beliefs_propagation)/jit(continuous_node_posterior_update_ehgf)/jit(posterior_update_precision_continuous_node)/select_n" source_file="/fs04/fc37/adam/projects/psilocybin-prl-analyses/src/prl_hgf/fitting/hierarchical_patrl.py" source_line=362}
  param_25.164 = f64[192,20]{1,0} parameter(25)
  dynamic-slice.86.5.clone.1 = f64[1,20]{1,0} dynamic-slice(param_25.164, select.223.75, constant_1230_11), dynamic_slice_sizes={1,20}, metadata={op_name="jit(scan)/jit(main)/while/body/dynamic_slice[slice_sizes=(1, 20)]" source_file="/fs04/fc37/adam/projects/psilocybin-prl-analyses/src/prl_hgf/fitting/hierarchical_patrl.py" source_line=378}
  bitcast.2096.5.clone.1 = f64[20]{0} bitcast(dynamic-slice.86.5.clone.1)
  param_24.183 = f64[20]{0} parameter(24)
  select.241.25.clone.1 = f64[20]{0} select(bitcast.1874.5, param_24.183, broadcast.144.clone.54), metadata={op_name="jit(scan)/jit(main)/while/body/jit(_where)/select_n" source_file="/fs04/fc37/adam/projects/psilocybin-prl-analyses/src/prl_hgf/env/pat_rl_simulator.py" source_line=92}
  param_23.185 = f64[192,20]{1,0} parameter(23)
  dynamic-slice.87.15.clone.1 = f64[1,20]{1,0} dynamic-slice(param_23.185, select.223.75, constant_1230_11), dynamic_slice_sizes={1,20}, metadata={op_name="jit(scan)/jit(main)/while/body/dynamic_slice[slice_sizes=(1, 20)]" source_file="/fs04/fc37/adam/projects/psilocybin-prl-analyses/src/prl_hgf/fitting/hierarchical_patrl.py" source_line=378}
  bitcast.2114.15.clone.1 = f64[20]{0} bitcast(dynamic-slice.87.15.clone.1)
  multiply.378.15.clone.1 = f64[20]{0} multiply(select.241.25.clone.1, bitcast.2114.15.clone.1), metadata={op_name="jit(scan)/jit(main)/while/body/jit(beliefs_propagation)/jit(continuous_node_posterior_update_ehgf)/jit(posterior_update_mean_continuous_node)/mul" source_file="/fs04/fc37/adam/projects/psilocybin-prl-analyses/src/prl_hgf/fitting/hierarchical_patrl.py" source_line=362}
  param_22.177 = f64[192,20]{1,0} parameter(22)
  dynamic-slice.88.11.clone.1 = f64[1,20]{1,0} dynamic-slice(param_22.177, select.223.75, constant_1230_11), dynamic_slice_sizes={1,20}, metadata={op_name="jit(scan)/jit(main)/while/body/dynamic_slice[slice_sizes=(1, 20)]" source_file="/fs04/fc37/adam/projects/psilocybin-prl-analyses/src/prl_hgf/fitting/hierarchical_patrl.py" source_line=378}
  bitcast.2124.11.clone.1 = f64[20]{0} bitcast(dynamic-slice.88.11.clone.1)
  multiply.379.11.clone.1 = f64[20]{0} multiply(multiply.378.15.clone.1, bitcast.2124.11.clone.1), metadata={op_name="jit(scan)/jit(main)/while/body/jit(beliefs_propagation)/jit(continuous_node_posterior_update_ehgf)/jit(posterior_update_mean_continuous_node)/mul" source_file="/fs04/fc37/adam/projects/psilocybin-prl-analyses/src/prl_hgf/fitting/hierarchical_patrl.py" source_line=362}
  multiply.380.5.clone.1 = f64[20]{0} multiply(bitcast.2096.5.clone.1, multiply.379.11.clone.1), metadata={op_name="jit(scan)/jit(main)/while/body/jit(beliefs_propagation)/jit(continuous_node_posterior_update_ehgf)/jit(posterior_update_mean_continuous_node)/mul" source_file="/fs04/fc37/adam/projects/psilocybin-prl-analyses/src/prl_hgf/fitting/hierarchical_patrl.py" source_line=362}
  add.242.5.clone.1 = f64[20]{0} add(select.240.7.clone.1, multiply.380.5.clone.1), metadata={op_name="jit(scan)/jit(main)/while/body/jit(beliefs_propagation)/jit(continuous_node_posterior_update_ehgf)/add_any" source_file="/fs04/fc37/adam/projects/psilocybin-prl-analyses/src/prl_hgf/fitting/hierarchical_patrl.py" source_line=362}
  add.243.3.clone.1 = f64[20]{0} add(select.234.5.clone.1, add.242.5.clone.1), metadata={op_name="jit(scan)/jit(main)/while/body/jit(beliefs_propagation)/add_any" source_file="/fs04/fc37/adam/projects/psilocybin-prl-analyses/src/prl_hgf/fitting/hierarchical_patrl.py" source_line=362}
  multiply.386.7.clone.1 = f64[20]{0} multiply(bitcast.2147.19.clone.1, add.243.3.clone.1), metadata={op_name="jit(scan)/jit(main)/while/body/jit(beliefs_propagation)/jit(continuous_node_prediction_error)/jit(continuous_node_volatility_prediction_error)/mul" source_file="/fs04/fc37/adam/projects/psilocybin-prl-analyses/src/prl_hgf/fitting/hierarchical_patrl.py" source_line=362}
  param_21.182 = f64[192,20]{1,0} parameter(21)
  dynamic-slice.91.5.clone.1 = f64[1,20]{1,0} dynamic-slice(param_21.182, select.223.75, constant_1230_11), dynamic_slice_sizes={1,20}, metadata={op_name="jit(scan)/jit(main)/while/body/dynamic_slice[slice_sizes=(1, 20)]" source_file="/fs04/fc37/adam/projects/psilocybin-prl-analyses/src/prl_hgf/fitting/hierarchical_patrl.py" source_line=378}
  bitcast.2184.5.clone.1 = f64[20]{0} bitcast(dynamic-slice.91.5.clone.1)
  multiply.393.5.clone.1 = f64[20]{0} multiply(multiply.386.7.clone.1, bitcast.2184.5.clone.1), metadata={op_name="jit(scan)/jit(main)/while/body/jit(beliefs_propagation)/jit(continuous_node_prediction_error)/jit(continuous_node_volatility_prediction_error)/mul" source_file="/fs04/fc37/adam/projects/psilocybin-prl-analyses/src/prl_hgf/fitting/hierarchical_patrl.py" source_line=362}
  add.245.3.clone.1 = f64[20]{0} add(select.243.5.clone.1, multiply.393.5.clone.1), metadata={op_name="jit(scan)/jit(main)/while/body/jit(beliefs_propagation)/jit(continuous_node_prediction_error)/add_any" source_file="/fs04/fc37/adam/projects/psilocybin-prl-analyses/src/prl_hgf/fitting/hierarchical_patrl.py" source_line=362}
  negate.90.11.clone.1 = f64[20]{0} negate(add.245.3.clone.1), metadata={op_name="jit(scan)/jit(main)/while/body/jit(beliefs_propagation)/jit(continuous_node_prediction_error)/jit(continuous_node_value_prediction_error)/neg" source_file="/fs04/fc37/adam/projects/psilocybin-prl-analyses/src/prl_hgf/fitting/hierarchical_patrl.py" source_line=362}
  add.248.11.clone.1 = f64[20]{0} add(select.244.13.clone.1, negate.90.11.clone.1), metadata={op_name="jit(scan)/jit(main)/while/body/jit(beliefs_propagation)/add_any" source_file="/fs04/fc37/adam/projects/psilocybin-prl-analyses/src/prl_hgf/fitting/hierarchical_patrl.py" source_line=362}
  select.242.5.clone.1 = f64[20]{0} select(bitcast.1874.5, add.240.5.clone.1, broadcast.144.clone.54), metadata={op_name="jit(scan)/jit(main)/while/body/jit(_where)/select_n" source_file="/fs04/fc37/adam/projects/psilocybin-prl-analyses/src/prl_hgf/env/pat_rl_simulator.py" source_line=92}
  add.246.3.clone.1 = f64[20]{0} add(select.242.5.clone.1, add.245.3.clone.1), metadata={op_name="jit(scan)/jit(main)/while/body/jit(beliefs_propagation)/add_any" source_file="/fs04/fc37/adam/projects/psilocybin-prl-analyses/src/prl_hgf/fitting/hierarchical_patrl.py" source_line=362}
  add.249.1.clone.1 = f64[20]{0} add(add.246.3.clone.1, param_3.710), metadata={op_name="jit(scan)/jit(main)/while/body/jit(beliefs_propagation)/jit(continuous_node_posterior_update)/add_any" source_file="/fs04/fc37/adam/projects/psilocybin-prl-analyses/src/prl_hgf/fitting/hierarchical_patrl.py" source_line=362}
  add.250.9.clone.1 = f64[20]{0} add(add.248.11.clone.1, add.249.1.clone.1), metadata={op_name="jit(scan)/jit(main)/while/body/jit(beliefs_propagation)/add_any" source_file="/fs04/fc37/adam/projects/psilocybin-prl-analyses/src/prl_hgf/fitting/hierarchical_patrl.py" source_line=362}
  param_20.197 = f64[20]{0} parameter(20)
  select.247.7.clone.1 = f64[20]{0} select(bitcast.1874.5, param_20.197, broadcast.144.clone.54), metadata={op_name="jit(scan)/jit(main)/while/body/jit(_where)/select_n" source_file="/fs04/fc37/adam/projects/psilocybin-prl-analyses/src/prl_hgf/env/pat_rl_simulator.py" source_line=92}
  add.251.5.clone.1 = f64[20]{0} add(select.247.7.clone.1, param_3.710), metadata={op_name="jit(scan)/jit(main)/while/body/jit(beliefs_propagation)/add_any" source_file="/fs04/fc37/adam/projects/psilocybin-prl-analyses/src/prl_hgf/fitting/hierarchical_patrl.py" source_line=362}
  param_19.185 = f64[20]{0} parameter(19)
  select.248.7.clone.1 = f64[20]{0} select(bitcast.1874.5, param_19.185, broadcast.144.clone.54), metadata={op_name="jit(scan)/jit(main)/while/body/jit(_where)/select_n" source_file="/fs04/fc37/adam/projects/psilocybin-prl-analyses/src/prl_hgf/env/pat_rl_simulator.py" source_line=92}
  param_18.212 = f64[192,20]{1,0} parameter(18)
  dynamic-slice.97.7.clone.1 = f64[1,20]{1,0} dynamic-slice(param_18.212, select.223.75, constant_1230_11), dynamic_slice_sizes={1,20}, metadata={op_name="jit(scan)/jit(main)/while/body/dynamic_slice[slice_sizes=(1, 20)]" source_file="/fs04/fc37/adam/projects/psilocybin-prl-analyses/src/prl_hgf/fitting/hierarchical_patrl.py" source_line=378}
  bitcast.2294.7.clone.1 = f64[20]{0} bitcast(dynamic-slice.97.7.clone.1)
  multiply.397.7.clone.1 = f64[20]{0} multiply(bitcast.2294.7.clone.1, add.246.3.clone.1), metadata={op_name="jit(scan)/jit(main)/while/body/jit(beliefs_propagation)/jit(continuous_node_posterior_update)/jit(posterior_update_mean_continuous_node)/mul" source_file="/fs04/fc37/adam/projects/psilocybin-prl-analyses/src/prl_hgf/fitting/hierarchical_patrl.py" source_line=362}
  param_17.193 = f64[192]{0} parameter(17)
  dynamic-slice.98.1.clone.1 = f64[1]{0} dynamic-slice(param_17.193, select.223.75), dynamic_slice_sizes={1}, metadata={op_name="jit(scan)/jit(main)/while/body/dynamic_slice[slice_sizes=(1,)]" source_file="/fs04/fc37/adam/projects/psilocybin-prl-analyses/src/prl_hgf/fitting/hierarchical_patrl.py" source_line=378}
  bitcast.2304.11.clone.1 = f64[] bitcast(dynamic-slice.98.1.clone.1)
  broadcast.146.11.clone.1 = f64[20]{0} broadcast(bitcast.2304.11.clone.1), dimensions={}, metadata={op_name="jit(scan)/jit(main)/while/body/jit(beliefs_propagation)/jit(continuous_node_posterior_update)/jit(posterior_update_mean_continuous_node)/mul" source_file="/fs04/fc37/adam/projects/psilocybin-prl-analyses/src/prl_hgf/fitting/hierarchical_patrl.py" source_line=362}
  multiply.398.9.clone.1 = f64[20]{0} multiply(multiply.397.7.clone.1, broadcast.146.11.clone.1), metadata={op_name="jit(scan)/jit(main)/while/body/jit(beliefs_propagation)/jit(continuous_node_posterior_update)/jit(posterior_update_mean_continuous_node)/mul" source_file="/fs04/fc37/adam/projects/psilocybin-prl-analyses/src/prl_hgf/fitting/hierarchical_patrl.py" source_line=362}
  add.252.7.clone.1 = f64[20]{0} add(multiply.398.9.clone.1, param_3.710), metadata={op_name="jit(scan)/jit(main)/while/body/jit(beliefs_propagation)/jit(continuous_node_posterior_update)/add_any" source_file="/fs04/fc37/adam/projects/psilocybin-prl-analyses/src/prl_hgf/fitting/hierarchical_patrl.py" source_line=362}
  add.253.5.clone.1 = f64[20]{0} add(select.248.7.clone.1, add.252.7.clone.1), metadata={op_name="jit(scan)/jit(main)/while/body/jit(beliefs_propagation)/add_any" source_file="/fs04/fc37/adam/projects/psilocybin-prl-analyses/src/prl_hgf/fitting/hierarchical_patrl.py" source_line=362}
  param_16.170 = f64[192,20]{1,0} parameter(16)
  dynamic-slice.99.5.clone.1 = f64[1,20]{1,0} dynamic-slice(param_16.170, select.223.75, constant_1230_11), dynamic_slice_sizes={1,20}, metadata={op_name="jit(scan)/jit(main)/while/body/dynamic_slice[slice_sizes=(1, 20)]" source_file="/fs04/fc37/adam/projects/psilocybin-prl-analyses/src/prl_hgf/fitting/hierarchical_patrl.py" source_line=378}
  bitcast.2319.5.clone.1 = f64[20]{0} bitcast(dynamic-slice.99.5.clone.1)
  divide.18.5.clone.1 = f64[20]{0} divide(add.253.5.clone.1, bitcast.2319.5.clone.1), metadata={op_name="jit(scan)/jit(main)/while/body/jit(beliefs_propagation)/jit(binary_state_node_prediction_error)/div" source_file="/fs04/fc37/adam/projects/psilocybin-prl-analyses/src/prl_hgf/fitting/hierarchical_patrl.py" source_line=362}
  param_15.181 = f64[192]{0} parameter(15)
  dynamic-slice.100.1.clone.1 = f64[1]{0} dynamic-slice(param_15.181, select.223.75), dynamic_slice_sizes={1}, metadata={op_name="jit(scan)/jit(main)/while/body/dynamic_slice[slice_sizes=(1,)]" source_file="/fs04/fc37/adam/projects/psilocybin-prl-analyses/src/prl_hgf/fitting/hierarchical_patrl.py" source_line=378}
  bitcast.2327.11.clone.1 = f64[] bitcast(dynamic-slice.100.1.clone.1)
  broadcast.147.11.clone.1 = f64[20]{0} broadcast(bitcast.2327.11.clone.1), dimensions={}, metadata={op_name="jit(scan)/jit(main)/while/body/jit(beliefs_propagation)/jit(binary_state_node_prediction_error)/mul" source_file="/fs04/fc37/adam/projects/psilocybin-prl-analyses/src/prl_hgf/fitting/hierarchical_patrl.py" source_line=362}
  multiply.399.9.clone.1 = f64[20]{0} multiply(divide.18.5.clone.1, broadcast.147.11.clone.1), metadata={op_name="jit(scan)/jit(main)/while/body/jit(beliefs_propagation)/jit(binary_state_node_prediction_error)/mul" source_file="/fs04/fc37/adam/projects/psilocybin-prl-analyses/src/prl_hgf/fitting/hierarchical_patrl.py" source_line=362}
  negate.91.7.clone.1 = f64[20]{0} negate(multiply.399.9.clone.1), metadata={op_name="jit(scan)/jit(main)/while/body/jit(beliefs_propagation)/jit(binary_state_node_prediction_error)/neg" source_file="/fs04/fc37/adam/projects/psilocybin-prl-analyses/src/prl_hgf/fitting/hierarchical_patrl.py" source_line=362}
  add.254.5.clone.1 = f64[20]{0} add(add.251.5.clone.1, negate.91.7.clone.1), metadata={op_name="jit(scan)/jit(main)/while/body/jit(beliefs_propagation)/add_any" source_file="/fs04/fc37/adam/projects/psilocybin-prl-analyses/src/prl_hgf/fitting/hierarchical_patrl.py" source_line=362}
  param_14.208 = f64[192,20]{1,0} parameter(14)
  dynamic-slice.101.11.clone.1 = f64[1,20]{1,0} dynamic-slice(param_14.208, select.223.75, constant_1230_11), dynamic_slice_sizes={1,20}, metadata={op_name="jit(scan)/jit(main)/while/body/dynamic_slice[slice_sizes=(1, 20)]" source_file="/fs04/fc37/adam/projects/psilocybin-prl-analyses/src/prl_hgf/fitting/hierarchical_patrl.py" source_line=378}
  bitcast.2340.11.clone.1 = f64[20]{0} bitcast(dynamic-slice.101.11.clone.1)
  param_13.215 = f64[20]{0} parameter(13)
  select.249.13.clone.1 = f64[20]{0} select(bitcast.1874.5, param_13.215, broadcast.144.clone.54), metadata={op_name="jit(scan)/jit(main)/while/body/jit(_where)/select_n" source_file="/fs04/fc37/adam/projects/psilocybin-prl-analyses/src/prl_hgf/env/pat_rl_simulator.py" source_line=92}
  param_12.227 = f64[20]{0} parameter(12)
  select.250.13.clone.1 = f64[20]{0} select(bitcast.1874.5, param_12.227, broadcast.144.clone.54), metadata={op_name="jit(scan)/jit(main)/while/body/jit(_where)/select_n" source_file="/fs04/fc37/adam/projects/psilocybin-prl-analyses/src/prl_hgf/env/pat_rl_simulator.py" source_line=92}
  add.255.11.clone.1 = f64[20]{0} add(select.249.13.clone.1, select.250.13.clone.1), metadata={op_name="jit(scan)/jit(main)/while/body/jit(beliefs_propagation)/add_any" source_file="/fs04/fc37/adam/projects/psilocybin-prl-analyses/src/prl_hgf/fitting/hierarchical_patrl.py" source_line=362}
  param_11.240 = f64[192,20]{1,0} parameter(11)
  dynamic-slice.102.9.clone.1 = f64[1,20]{1,0} dynamic-slice(param_11.240, select.223.75, constant_1230_11), dynamic_slice_sizes={1,20}, metadata={op_name="jit(scan)/jit(main)/while/body/dynamic_slice[slice_sizes=(1, 20)]" source_file="/fs04/fc37/adam/projects/psilocybin-prl-analyses/src/prl_hgf/fitting/hierarchical_patrl.py" source_line=378}
  bitcast.2368.9.clone.1 = f64[20]{0} bitcast(dynamic-slice.102.9.clone.1)
  param_10.242 = f64[192,20]{1,0} parameter(10)
  dynamic-slice.92.3.clone.1 = f64[1,20]{1,0} dynamic-slice(param_10.242, select.223.75, constant_1230_11), dynamic_slice_sizes={1,20}, metadata={op_name="jit(scan)/jit(main)/while/body/dynamic_slice[slice_sizes=(1, 20)]" source_file="/fs04/fc37/adam/projects/psilocybin-prl-analyses/src/prl_hgf/fitting/hierarchical_patrl.py" source_line=378}
  bitcast.2196.3.clone.1 = f64[20]{0} bitcast(dynamic-slice.92.3.clone.1)
  multiply.394.3.clone.1 = f64[20]{0} multiply(add.246.3.clone.1, bitcast.2196.3.clone.1), metadata={op_name="jit(scan)/jit(main)/while/body/jit(beliefs_propagation)/jit(continuous_node_posterior_update)/jit(posterior_update_mean_continuous_node)/mul" source_file="/fs04/fc37/adam/projects/psilocybin-prl-analyses/src/prl_hgf/fitting/hierarchical_patrl.py" source_line=362}
  param_9.244 = f64[192,20]{1,0} parameter(9)
  dynamic-slice.103.10.clone.1 = f64[1,20]{1,0} dynamic-slice(param_9.244, select.223.75, constant_1230_11), dynamic_slice_sizes={1,20}, metadata={op_name="jit(scan)/jit(main)/while/body/dynamic_slice[slice_sizes=(1, 20)]" source_file="/fs04/fc37/adam/projects/psilocybin-prl-analyses/src/prl_hgf/fitting/hierarchical_patrl.py" source_line=378}
  bitcast.2379.10.clone.1 = f64[20]{0} bitcast(dynamic-slice.103.10.clone.1)
  divide.19.7.clone.1 = f64[20]{0} divide(multiply.394.3.clone.1, bitcast.2379.10.clone.1), metadata={op_name="jit(scan)/jit(main)/while/body/jit(beliefs_propagation)/jit(continuous_node_posterior_update)/jit(posterior_update_mean_continuous_node)/div" source_file="/fs04/fc37/adam/projects/psilocybin-prl-analyses/src/prl_hgf/fitting/hierarchical_patrl.py" source_line=362}
  multiply.400.9.clone.1 = f64[20]{0} multiply(bitcast.2368.9.clone.1, divide.19.7.clone.1), metadata={op_name="jit(scan)/jit(main)/while/body/jit(beliefs_propagation)/jit(continuous_node_posterior_update)/jit(posterior_update_mean_continuous_node)/mul" source_file="/fs04/fc37/adam/projects/psilocybin-prl-analyses/src/prl_hgf/fitting/hierarchical_patrl.py" source_line=362}
  param_8.248 = f64[20]{0} parameter(8)
  add.256.7.clone.1 = f64[20]{0} add(multiply.400.9.clone.1, param_8.248), metadata={op_name="jit(scan)/jit(main)/while/body/jit(beliefs_propagation)/jit(continuous_node_posterior_update)/add_any" source_file="/fs04/fc37/adam/projects/psilocybin-prl-analyses/src/prl_hgf/fitting/hierarchical_patrl.py" source_line=362}
  add.257.9.clone.1 = f64[20]{0} add(add.255.11.clone.1, add.256.7.clone.1), metadata={op_name="jit(scan)/jit(main)/while/body/jit(beliefs_propagation)/add_any" source_file="/fs04/fc37/adam/projects/psilocybin-prl-analyses/src/prl_hgf/fitting/hierarchical_patrl.py" source_line=362}
  add.258.7.clone.1 = f64[20]{0} add(add.257.9.clone.1, param_3.710), metadata={op_name="jit(scan)/jit(main)/while/body/jit(beliefs_propagation)/add_any" source_file="/fs04/fc37/adam/projects/psilocybin-prl-analyses/src/prl_hgf/fitting/hierarchical_patrl.py" source_line=362}
  param_7.276 = f64[192,20]{1,0} parameter(7)
  dynamic-slice.104.7.clone.1 = f64[1,20]{1,0} dynamic-slice(param_7.276, select.223.75, constant_1230_11), dynamic_slice_sizes={1,20}, metadata={op_name="jit(scan)/jit(main)/while/body/dynamic_slice[slice_sizes=(1, 20)]" source_file="/fs04/fc37/adam/projects/psilocybin-prl-analyses/src/prl_hgf/fitting/hierarchical_patrl.py" source_line=378}
  bitcast.2399.7.clone.1 = f64[20]{0} bitcast(dynamic-slice.104.7.clone.1)
  multiply.401.7.clone.1 = f64[20]{0} multiply(add.253.5.clone.1, bitcast.2399.7.clone.1), metadata={op_name="jit(scan)/jit(main)/while/body/jit(beliefs_propagation)/jit(binary_state_node_prediction_error)/mul" source_file="/fs04/fc37/adam/projects/psilocybin-prl-analyses/src/prl_hgf/fitting/hierarchical_patrl.py" source_line=362}
  param_6.359 = f64[192,20]{1,0} parameter(6)
  dynamic-slice.105.9.clone.1 = f64[1,20]{1,0} dynamic-slice(param_6.359, select.223.75, constant_1230_11), dynamic_slice_sizes={1,20}, metadata={op_name="jit(scan)/jit(main)/while/body/dynamic_slice[slice_sizes=(1, 20)]" source_file="/fs04/fc37/adam/projects/psilocybin-prl-analyses/src/prl_hgf/fitting/hierarchical_patrl.py" source_line=378}
  bitcast.2409.9.clone.1 = f64[20]{0} bitcast(dynamic-slice.105.9.clone.1)
  multiply.402.9.clone.1 = f64[20]{0} multiply(multiply.401.7.clone.1, bitcast.2409.9.clone.1), metadata={op_name="jit(scan)/jit(main)/while/body/jit(beliefs_propagation)/jit(binary_state_node_prediction_error)/mul" source_file="/fs04/fc37/adam/projects/psilocybin-prl-analyses/src/prl_hgf/fitting/hierarchical_patrl.py" source_line=362}
  negate.92.7.clone.1 = f64[20]{0} negate(multiply.402.9.clone.1), metadata={op_name="jit(scan)/jit(main)/while/body/jit(beliefs_propagation)/jit(binary_state_node_prediction_error)/neg" source_file="/fs04/fc37/adam/projects/psilocybin-prl-analyses/src/prl_hgf/fitting/hierarchical_patrl.py" source_line=362}
  add.259.5.clone.1 = f64[20]{0} add(add.258.7.clone.1, negate.92.7.clone.1), metadata={op_name="jit(scan)/jit(main)/while/body/jit(beliefs_propagation)/add_any" source_file="/fs04/fc37/adam/projects/psilocybin-prl-analyses/src/prl_hgf/fitting/hierarchical_patrl.py" source_line=362}
  multiply.403.11.clone.1 = f64[20]{0} multiply(bitcast.2340.11.clone.1, add.259.5.clone.1), metadata={op_name="jit(scan)/jit(main)/while/body/jit(beliefs_propagation)/jit(binary_state_node_prediction)/mul" source_file="/fs04/fc37/adam/projects/psilocybin-prl-analyses/src/prl_hgf/fitting/hierarchical_patrl.py" source_line=362}
  negate.93.9.clone.1 = f64[20]{0} negate(multiply.403.11.clone.1), metadata={op_name="jit(scan)/jit(main)/while/body/jit(beliefs_propagation)/jit(binary_state_node_prediction)/neg" source_file="/fs04/fc37/adam/projects/psilocybin-prl-analyses/src/prl_hgf/fitting/hierarchical_patrl.py" source_line=362}
  add.260.7.clone.1 = f64[20]{0} add(add.254.5.clone.1, negate.93.9.clone.1), metadata={op_name="jit(scan)/jit(main)/while/body/jit(beliefs_propagation)/jit(binary_state_node_prediction)/add_any" source_file="/fs04/fc37/adam/projects/psilocybin-prl-analyses/src/prl_hgf/fitting/hierarchical_patrl.py" source_line=362}
  param_5.406 = f64[192,20]{1,0} parameter(5)
  dynamic-slice.106.5.clone.1 = f64[1,20]{1,0} dynamic-slice(param_5.406, select.223.75, constant_1230_11), dynamic_slice_sizes={1,20}, metadata={op_name="jit(scan)/jit(main)/while/body/dynamic_slice[slice_sizes=(1, 20)]" source_file="/fs04/fc37/adam/projects/psilocybin-prl-analyses/src/prl_hgf/fitting/hierarchical_patrl.py" source_line=378}
  bitcast.2426.5.clone.1 = f64[20]{0} bitcast(dynamic-slice.106.5.clone.1)
  multiply.404.5.clone.1 = f64[20]{0} multiply(add.259.5.clone.1, bitcast.2426.5.clone.1), metadata={op_name="jit(scan)/jit(main)/while/body/jit(beliefs_propagation)/jit(binary_state_node_prediction)/mul" source_file="/fs04/fc37/adam/projects/psilocybin-prl-analyses/src/prl_hgf/fitting/hierarchical_patrl.py" source_line=362}
  add.261.5.clone.1 = f64[20]{0} add(add.260.7.clone.1, multiply.404.5.clone.1), metadata={op_name="jit(scan)/jit(main)/while/body/jit(beliefs_propagation)/jit(binary_state_node_prediction)/add_any" source_file="/fs04/fc37/adam/projects/psilocybin-prl-analyses/src/prl_hgf/fitting/hierarchical_patrl.py" source_line=362}
  param_4.478 = f64[192,20]{1,0} parameter(4)
  dynamic-slice.107.3.clone.1 = f64[1,20]{1,0} dynamic-slice(param_4.478, select.223.75, constant_1230_11), dynamic_slice_sizes={1,20}, metadata={op_name="jit(scan)/jit(main)/while/body/dynamic_slice[slice_sizes=(1, 20)]" source_file="/fs04/fc37/adam/projects/psilocybin-prl-analyses/src/prl_hgf/fitting/hierarchical_patrl.py" source_line=378}
  bitcast.2437.3.clone.1 = f64[20]{0} bitcast(dynamic-slice.107.3.clone.1)
  multiply.405.3.clone.1 = f64[20]{0} multiply(add.261.5.clone.1, bitcast.2437.3.clone.1), metadata={op_name="jit(scan)/jit(main)/while/body/jit(beliefs_propagation)/jit(binary_state_node_prediction)/mul" source_file="/fs04/fc37/adam/projects/psilocybin-prl-analyses/src/prl_hgf/fitting/hierarchical_patrl.py" source_line=362}
  add.262.7.clone.1 = f64[20]{0} add(add.250.9.clone.1, multiply.405.3.clone.1), metadata={op_name="jit(scan)/jit(main)/while/body/jit(beliefs_propagation)/add_any" source_file="/fs04/fc37/adam/projects/psilocybin-prl-analyses/src/prl_hgf/fitting/hierarchical_patrl.py" source_line=362}
  multiply.406.5.clone.1 = f64[20]{0} multiply(bitcast.2245.5.clone.1, add.262.7.clone.1), metadata={op_name="jit(scan)/jit(main)/while/body/jit(beliefs_propagation)/jit(continuous_node_prediction)/jit(predict_mean)/mul" source_file="/fs04/fc37/adam/projects/psilocybin-prl-analyses/src/prl_hgf/fitting/hierarchical_patrl.py" source_line=362}
  add.263.3.clone.1 = f64[20]{0} add(param_3.710, multiply.406.5.clone.1), metadata={op_name="jit(scan)/jit(main)/while/body/jit(beliefs_propagation)/add_any" source_file="/fs04/fc37/adam/projects/psilocybin-prl-analyses/src/prl_hgf/fitting/hierarchical_patrl.py" source_line=362}
  add.264.1.clone.1 = f64[20]{0} add(select.232.3.clone.1, add.263.3.clone.1), metadata={op_name="jit(scan)/jit(main)/while/body/add_any" source_file="/fs04/fc37/adam/projects/psilocybin-prl-analyses/src/prl_hgf/fitting/hierarchical_patrl.py" source_line=362}
  select.227.1.clone.1 = f64[20]{0} select(bitcast.1874.5, broadcast.144.clone.54, param_19.185), metadata={op_name="jit(scan)/jit(main)/while/body/jit(_where)/select_n" source_file="/fs04/fc37/adam/projects/psilocybin-prl-analyses/src/prl_hgf/env/pat_rl_simulator.py" source_line=92}
  select.226.1.clone.1 = f64[20]{0} select(bitcast.1874.5, broadcast.144.clone.54, param_12.227), metadata={op_name="jit(scan)/jit(main)/while/body/jit(_where)/select_n" source_file="/fs04/fc37/adam/projects/psilocybin-prl-analyses/src/prl_hgf/env/pat_rl_simulator.py" source_line=92}
  select.225.1.clone.1 = f64[20]{0} select(bitcast.1874.5, broadcast.144.clone.54, param_13.215), metadata={op_name="jit(scan)/jit(main)/while/body/jit(_where)/select_n" source_file="/fs04/fc37/adam/projects/psilocybin-prl-analyses/src/prl_hgf/env/pat_rl_simulator.py" source_line=92}
  ROOT tuple.145 = (f64[20]{0}, f64[20]{0}, f64[20]{0}, f64[20]{0}, f64[20]{0}) tuple(select.228.1, add.264.1.clone.1, select.227.1.clone.1, select.226.1.clone.1, select.225.1.clone.1)
} // fused_add_select

fused_add_select.1 {
  param_7.251 = pred[192,20]{1,0} parameter(7)
  constant_96_14 = s64[] constant(191)
  param_10.216 = s64[] parameter(10)
  subtract.4.27 = s64[] subtract(constant_96_14, param_10.216), metadata={op_name="jit(scan)/jit(main)/while/body/sub" source_file="/fs04/fc37/adam/projects/psilocybin-prl-analyses/src/prl_hgf/fitting/hierarchical_patrl.py" source_line=378}
  constant_1230_8 = s64[] constant(0)
  compare.14.27 = pred[] compare(subtract.4.27, constant_1230_8), direction=LT, metadata={op_name="jit(scan)/jit(main)/while/body/lt" source_file="/fs04/fc37/adam/projects/psilocybin-prl-analyses/src/prl_hgf/fitting/hierarchical_patrl.py" source_line=378}
  constant_97_14 = s64[] constant(383)
  subtract.5.27 = s64[] subtract(constant_97_14, param_10.216), metadata={op_name="jit(scan)/jit(main)/while/body/add" source_file="/fs04/fc37/adam/projects/psilocybin-prl-analyses/src/prl_hgf/fitting/hierarchical_patrl.py" source_line=378}
  select.223.27 = s64[] select(compare.14.27, subtract.5.27, subtract.4.27), metadata={op_name="jit(scan)/jit(main)/while/body/select_n" source_file="/fs04/fc37/adam/projects/psilocybin-prl-analyses/src/prl_hgf/fitting/hierarchical_patrl.py" source_line=378}
  dynamic-slice.72.17 = pred[1,20]{1,0} dynamic-slice(param_7.251, select.223.27, constant_1230_8), dynamic_slice_sizes={1,20}, metadata={op_name="jit(scan)/jit(main)/while/body/dynamic_slice[slice_sizes=(1, 20)]" source_file="/fs04/fc37/adam/projects/psilocybin-prl-analyses/src/prl_hgf/fitting/hierarchical_patrl.py" source_line=378}
  bitcast.1874.52 = pred[20]{0} bitcast(dynamic-slice.72.17)
  constant_58_20 = f64[] constant(0)
  broadcast.144.clone.87 = f64[20]{0} broadcast(constant_58_20), dimensions={}
  param_0.404 = f64[20]{0} parameter(0)
  select.272.3 = f64[20]{0} select(bitcast.1874.52, broadcast.144.clone.87, param_0.404), metadata={op_name="jit(scan)/jit(main)/while/body/jit(_where)/select_n" source_file="/fs04/fc37/adam/projects/psilocybin-prl-analyses/src/prl_hgf/env/pat_rl_simulator.py" source_line=92}
  param_6.335 = pred[192,20]{1,0} parameter(6)
  dynamic-slice.125.2 = pred[1,20]{1,0} dynamic-slice(param_6.335, select.223.27, constant_1230_8), dynamic_slice_sizes={1,20}, metadata={op_name="jit(scan)/jit(main)/while/body/dynamic_slice[slice_sizes=(1, 20)]" source_file="/fs04/fc37/adam/projects/psilocybin-prl-analyses/src/prl_hgf/fitting/hierarchical_patrl.py" source_line=378}
  bitcast.2852.8 = pred[20]{0} bitcast(dynamic-slice.125.2)
  param_9.213 = s32[192,20]{1,0} parameter(9)
  dynamic-slice.83.18 = s32[1,20]{1,0} dynamic-slice(param_9.213, select.223.27, constant_1230_8), dynamic_slice_sizes={1,20}, metadata={op_name="jit(scan)/jit(main)/while/body/dynamic_slice[slice_sizes=(1, 20)]" source_file="/fs04/fc37/adam/projects/psilocybin-prl-analyses/src/prl_hgf/fitting/hierarchical_patrl.py" source_line=378}
  constant_73_1 = s32[] constant(0)
  broadcast.151.5 = s32[1,20]{1,0} broadcast(constant_73_1), dimensions={}
  compare.16.5 = pred[1,20]{1,0} compare(dynamic-slice.83.18, broadcast.151.5), direction=EQ, metadata={op_name="jit(scan)/jit(main)/while/body/jit(beliefs_propagation)/jit(continuous_node_posterior_update_ehgf)/jit(posterior_update_precision_continuous_node)/eq" source_file="/fs04/fc37/adam/projects/psilocybin-prl-analyses/src/prl_hgf/fitting/hierarchical_patrl.py" source_line=362}
  bitcast.2859.9 = pred[20]{0} bitcast(compare.16.5)
  select.235.27 = f64[20]{0} select(bitcast.1874.52, param_0.404, broadcast.144.clone.87), metadata={op_name="jit(scan)/jit(main)/while/body/jit(_where)/select_n" source_file="/fs04/fc37/adam/projects/psilocybin-prl-analyses/src/prl_hgf/env/pat_rl_simulator.py" source_line=92}
  select.273.9 = f64[20]{0} select(bitcast.2859.9, select.235.27, broadcast.144.clone.87), metadata={op_name="jit(scan)/jit(main)/while/body/jit(beliefs_propagation)/jit(continuous_node_posterior_update_ehgf)/jit(posterior_update_precision_continuous_node)/select_n" source_file="/fs04/fc37/adam/projects/psilocybin-prl-analyses/src/prl_hgf/fitting/hierarchical_patrl.py" source_line=362}
  param_8.221 = f64[192,20]{1,0} parameter(8)
  dynamic-slice.126.7 = f64[1,20]{1,0} dynamic-slice(param_8.221, select.223.27, constant_1230_8), dynamic_slice_sizes={1,20}, metadata={op_name="jit(scan)/jit(main)/while/body/dynamic_slice[slice_sizes=(1, 20)]" source_file="/fs04/fc37/adam/projects/psilocybin-prl-analyses/src/prl_hgf/fitting/hierarchical_patrl.py" source_line=378}
  bitcast.2873.7 = f64[20]{0} bitcast(dynamic-slice.126.7)
  multiply.427.7 = f64[20]{0} multiply(select.273.9, bitcast.2873.7), metadata={op_name="jit(scan)/jit(main)/while/body/jit(beliefs_propagation)/jit(continuous_node_posterior_update_ehgf)/jit(posterior_update_precision_continuous_node)/jit(precision_update_missing_values)/mul" source_file="/fs04/fc37/adam/projects/psilocybin-prl-analyses/src/prl_hgf/fitting/hierarchical_patrl.py" source_line=362}
  negate.97.5 = f64[20]{0} negate(multiply.427.7), metadata={op_name="jit(scan)/jit(main)/while/body/jit(beliefs_propagation)/jit(continuous_node_posterior_update_ehgf)/jit(posterior_update_precision_continuous_node)/jit(precision_update_missing_values)/neg" source_file="/fs04/fc37/adam/projects/psilocybin-prl-analyses/src/prl_hgf/fitting/hierarchical_patrl.py" source_line=362}
  param_4.462 = f64[192,20]{1,0} parameter(4)
  dynamic-slice.127.7 = f64[1,20]{1,0} dynamic-slice(param_4.462, select.223.27, constant_1230_8), dynamic_slice_sizes={1,20}, metadata={op_name="jit(scan)/jit(main)/while/body/dynamic_slice[slice_sizes=(1, 20)]" source_file="/fs04/fc37/adam/projects/psilocybin-prl-analyses/src/prl_hgf/fitting/hierarchical_patrl.py" source_line=378}
  bitcast.2884.7 = f64[20]{0} bitcast(dynamic-slice.127.7)
  multiply.428.7 = f64[20]{0} multiply(negate.97.5, bitcast.2884.7), metadata={op_name="jit(scan)/jit(main)/while/body/jit(beliefs_propagation)/jit(continuous_node_posterior_update_ehgf)/jit(posterior_update_precision_continuous_node)/jit(precision_update_missing_values)/mul" source_file="/fs04/fc37/adam/projects/psilocybin-prl-analyses/src/prl_hgf/fitting/hierarchical_patrl.py" source_line=362}
  negate.98.5 = f64[20]{0} negate(multiply.428.7), metadata={op_name="jit(scan)/jit(main)/while/body/jit(beliefs_propagation)/jit(continuous_node_posterior_update_ehgf)/jit(posterior_update_precision_continuous_node)/jit(precision_update_missing_values)/neg" source_file="/fs04/fc37/adam/projects/psilocybin-prl-analyses/src/prl_hgf/fitting/hierarchical_patrl.py" source_line=362}
  select.274.5 = f64[20]{0} select(bitcast.2852.8, negate.98.5, broadcast.144.clone.87), metadata={op_name="jit(scan)/jit(main)/while/body/jit(beliefs_propagation)/jit(continuous_node_posterior_update_ehgf)/jit(posterior_update_precision_continuous_node)/select_n" source_file="/fs04/fc37/adam/projects/psilocybin-prl-analyses/src/prl_hgf/fitting/hierarchical_patrl.py" source_line=362}
  param_3.695 = f64[20]{0} parameter(3)
  add.289.3 = f64[20]{0} add(select.274.5, param_3.695), metadata={op_name="jit(scan)/jit(main)/while/body/jit(beliefs_propagation)/add_any" source_file="/fs04/fc37/adam/projects/psilocybin-prl-analyses/src/prl_hgf/fitting/hierarchical_patrl.py" source_line=362}
  param_20.162 = f64[20]{0} parameter(20)
  select.275.13 = f64[20]{0} select(bitcast.1874.52, param_20.162, broadcast.144.clone.87), metadata={op_name="jit(scan)/jit(main)/while/body/jit(_where)/select_n" source_file="/fs04/fc37/adam/projects/psilocybin-prl-analyses/src/prl_hgf/env/pat_rl_simulator.py" source_line=92}
  param_19.150 = pred[192,20]{1,0} parameter(19)
  dynamic-slice.80.7 = pred[1,20]{1,0} dynamic-slice(param_19.150, select.223.27, constant_1230_8), dynamic_slice_sizes={1,20}, metadata={op_name="jit(scan)/jit(main)/while/body/dynamic_slice[slice_sizes=(1, 20)]" source_file="/fs04/fc37/adam/projects/psilocybin-prl-analyses/src/prl_hgf/fitting/hierarchical_patrl.py" source_line=378}
  bitcast.2020.27 = pred[20]{0} bitcast(dynamic-slice.80.7)
  param_18.176 = pred[192,20]{1,0} parameter(18)
  dynamic-slice.82.12 = pred[1,20]{1,0} dynamic-slice(param_18.176, select.223.27, constant_1230_8), dynamic_slice_sizes={1,20}, metadata={op_name="jit(scan)/jit(main)/while/body/dynamic_slice[slice_sizes=(1, 20)]" source_file="/fs04/fc37/adam/projects/psilocybin-prl-analyses/src/prl_hgf/fitting/hierarchical_patrl.py" source_line=378}
  bitcast.2038.23 = pred[20]{0} bitcast(dynamic-slice.82.12)
  constant_68_1 = s32[] constant(1)
  broadcast.145.23 = s32[1,20]{1,0} broadcast(constant_68_1), dimensions={}
  compare.15.23 = pred[1,20]{1,0} compare(dynamic-slice.83.18, broadcast.145.23), direction=EQ, metadata={op_name="jit(scan)/jit(main)/while/body/jit(beliefs_propagation)/jit(continuous_node_posterior_update_ehgf)/jit(posterior_update_precision_continuous_node)/eq" source_file="/fs04/fc37/adam/projects/psilocybin-prl-analyses/src/prl_hgf/fitting/hierarchical_patrl.py" source_line=362}
  bitcast.2050.25 = pred[20]{0} bitcast(compare.15.23)
  select.236.25 = f64[20]{0} select(bitcast.2050.25, select.235.27, broadcast.144.clone.87), metadata={op_name="jit(scan)/jit(main)/while/body/jit(beliefs_propagation)/jit(continuous_node_posterior_update_ehgf)/jit(posterior_update_precision_continuous_node)/select_n" source_file="/fs04/fc37/adam/projects/psilocybin-prl-analyses/src/prl_hgf/fitting/hierarchical_patrl.py" source_line=362}
  select.239.23 = f64[20]{0} select(bitcast.2038.23, select.236.25, broadcast.144.clone.87), metadata={op_name="jit(scan)/jit(main)/while/body/jit(beliefs_propagation)/jit(continuous_node_posterior_update_ehgf)/jit(posterior_update_precision_continuous_node)/jit(precision_update)/jit(_where)/select_n" source_file="/fs04/fc37/adam/projects/psilocybin-prl-analyses/src/prl_hgf/env/pat_rl_simulator.py" source_line=92}
  select.276.15 = f64[20]{0} select(bitcast.2020.27, select.239.23, broadcast.144.clone.87), metadata={op_name="jit(scan)/jit(main)/while/body/jit(beliefs_propagation)/jit(continuous_node_posterior_update_ehgf)/jit(posterior_update_precision_continuous_node)/select_n" source_file="/fs04/fc37/adam/projects/psilocybin-prl-analyses/src/prl_hgf/fitting/hierarchical_patrl.py" source_line=362}
  param_17.160 = f64[192,20]{1,0} parameter(17)
  dynamic-slice.128.7 = f64[1,20]{1,0} dynamic-slice(param_17.160, select.223.27, constant_1230_8), dynamic_slice_sizes={1,20}, metadata={op_name="jit(scan)/jit(main)/while/body/dynamic_slice[slice_sizes=(1, 20)]" source_file="/fs04/fc37/adam/projects/psilocybin-prl-analyses/src/prl_hgf/fitting/hierarchical_patrl.py" source_line=378}
  bitcast.2917.7 = f64[20]{0} bitcast(dynamic-slice.128.7)
  param_16.137 = f64[20]{0} parameter(16)
  select.241.23 = f64[20]{0} select(bitcast.1874.52, param_16.137, broadcast.144.clone.87), metadata={op_name="jit(scan)/jit(main)/while/body/jit(_where)/select_n" source_file="/fs04/fc37/adam/projects/psilocybin-prl-analyses/src/prl_hgf/env/pat_rl_simulator.py" source_line=92}
  param_15.150 = f64[192,20]{1,0} parameter(15)
  dynamic-slice.87.13 = f64[1,20]{1,0} dynamic-slice(param_15.150, select.223.27, constant_1230_8), dynamic_slice_sizes={1,20}, metadata={op_name="jit(scan)/jit(main)/while/body/dynamic_slice[slice_sizes=(1, 20)]" source_file="/fs04/fc37/adam/projects/psilocybin-prl-analyses/src/prl_hgf/fitting/hierarchical_patrl.py" source_line=378}
  bitcast.2114.13 = f64[20]{0} bitcast(dynamic-slice.87.13)
  multiply.378.13 = f64[20]{0} multiply(select.241.23, bitcast.2114.13), metadata={op_name="jit(scan)/jit(main)/while/body/jit(beliefs_propagation)/jit(continuous_node_posterior_update_ehgf)/jit(posterior_update_mean_continuous_node)/mul" source_file="/fs04/fc37/adam/projects/psilocybin-prl-analyses/src/prl_hgf/fitting/hierarchical_patrl.py" source_line=362}
  multiply.429.7 = f64[20]{0} multiply(bitcast.2917.7, multiply.378.13), metadata={op_name="jit(scan)/jit(main)/while/body/jit(beliefs_propagation)/jit(continuous_node_posterior_update_ehgf)/jit(posterior_update_mean_continuous_node)/mul" source_file="/fs04/fc37/adam/projects/psilocybin-prl-analyses/src/prl_hgf/fitting/hierarchical_patrl.py" source_line=362}
  param_14.175 = f64[192,20]{1,0} parameter(14)
  dynamic-slice.129.19 = f64[1,20]{1,0} dynamic-slice(param_14.175, select.223.27, constant_1230_8), dynamic_slice_sizes={1,20}, metadata={op_name="jit(scan)/jit(main)/while/body/dynamic_slice[slice_sizes=(1, 20)]" source_file="/fs04/fc37/adam/projects/psilocybin-prl-analyses/src/prl_hgf/fitting/hierarchical_patrl.py" source_line=378}
  bitcast.2929.19 = f64[20]{0} bitcast(dynamic-slice.129.19)
  multiply.430.19 = f64[20]{0} multiply(multiply.429.7, bitcast.2929.19), metadata={op_name="jit(scan)/jit(main)/while/body/jit(beliefs_propagation)/jit(continuous_node_posterior_update_ehgf)/jit(posterior_update_mean_continuous_node)/mul" source_file="/fs04/fc37/adam/projects/psilocybin-prl-analyses/src/prl_hgf/fitting/hierarchical_patrl.py" source_line=362}
  negate.99.17 = f64[20]{0} negate(multiply.430.19), metadata={op_name="jit(scan)/jit(main)/while/body/jit(beliefs_propagation)/jit(continuous_node_posterior_update_ehgf)/jit(posterior_update_mean_continuous_node)/neg" source_file="/fs04/fc37/adam/projects/psilocybin-prl-analyses/src/prl_hgf/fitting/hierarchical_patrl.py" source_line=362}
  constant_76_1 = f64[] constant(2)
  broadcast.152.15 = f64[20]{0} broadcast(constant_76_1), dimensions={}
  multiply.431.15 = f64[20]{0} multiply(negate.99.17, broadcast.152.15), metadata={op_name="jit(scan)/jit(main)/while/body/jit(beliefs_propagation)/jit(continuous_node_posterior_update_ehgf)/jit(posterior_update_mean_continuous_node)/mul" source_file="/fs04/fc37/adam/projects/psilocybin-prl-analyses/src/prl_hgf/fitting/hierarchical_patrl.py" source_line=362}
  add.290.13 = f64[20]{0} add(select.276.15, multiply.431.15), metadata={op_name="jit(scan)/jit(main)/while/body/jit(beliefs_propagation)/jit(continuous_node_posterior_update_ehgf)/add_any" source_file="/fs04/fc37/adam/projects/psilocybin-prl-analyses/src/prl_hgf/fitting/hierarchical_patrl.py" source_line=362}
  add.291.11 = f64[20]{0} add(select.275.13, add.290.13), metadata={op_name="jit(scan)/jit(main)/while/body/jit(beliefs_propagation)/add_any" source_file="/fs04/fc37/adam/projects/psilocybin-prl-analyses/src/prl_hgf/fitting/hierarchical_patrl.py" source_line=362}
  add.292.9 = f64[20]{0} add(add.291.11, param_3.695), metadata={op_name="jit(scan)/jit(main)/while/body/jit(beliefs_propagation)/add_any" source_file="/fs04/fc37/adam/projects/psilocybin-prl-analyses/src/prl_hgf/fitting/hierarchical_patrl.py" source_line=362}
  param_13.187 = f64[192,20]{1,0} parameter(13)
  dynamic-slice.130.7 = f64[1,20]{1,0} dynamic-slice(param_13.187, select.223.27, constant_1230_8), dynamic_slice_sizes={1,20}, metadata={op_name="jit(scan)/jit(main)/while/body/dynamic_slice[slice_sizes=(1, 20)]" source_file="/fs04/fc37/adam/projects/psilocybin-prl-analyses/src/prl_hgf/fitting/hierarchical_patrl.py" source_line=378}
  bitcast.2948.7 = f64[20]{0} bitcast(dynamic-slice.130.7)
  param_12.199 = f64[20]{0} parameter(12)
  select.277.11 = f64[20]{0} select(bitcast.1874.52, param_12.199, broadcast.144.clone.87), metadata={op_name="jit(scan)/jit(main)/while/body/jit(_where)/select_n" source_file="/fs04/fc37/adam/projects/psilocybin-prl-analyses/src/prl_hgf/env/pat_rl_simulator.py" source_line=92}
  add.293.9 = f64[20]{0} add(select.277.11, param_3.695), metadata={op_name="jit(scan)/jit(main)/while/body/jit(beliefs_propagation)/add_any" source_file="/fs04/fc37/adam/projects/psilocybin-prl-analyses/src/prl_hgf/fitting/hierarchical_patrl.py" source_line=362}
  multiply.432.7 = f64[20]{0} multiply(bitcast.2948.7, add.293.9), metadata={op_name="jit(scan)/jit(main)/while/body/jit(beliefs_propagation)/jit(continuous_node_prediction)/jit(predict_precision)/mul" source_file="/fs04/fc37/adam/projects/psilocybin-prl-analyses/src/prl_hgf/fitting/hierarchical_patrl.py" source_line=362}
  add.294.7 = f64[20]{0} add(add.292.9, multiply.432.7), metadata={op_name="jit(scan)/jit(main)/while/body/jit(beliefs_propagation)/jit(continuous_node_prediction)/jit(predict_precision)/add_any" source_file="/fs04/fc37/adam/projects/psilocybin-prl-analyses/src/prl_hgf/fitting/hierarchical_patrl.py" source_line=362}
  param_11.215 = f64[192,20]{1,0} parameter(11)
  dynamic-slice.131.7 = f64[1,20]{1,0} dynamic-slice(param_11.215, select.223.27, constant_1230_8), dynamic_slice_sizes={1,20}, metadata={op_name="jit(scan)/jit(main)/while/body/dynamic_slice[slice_sizes=(1, 20)]" source_file="/fs04/fc37/adam/projects/psilocybin-prl-analyses/src/prl_hgf/fitting/hierarchical_patrl.py" source_line=378}
  bitcast.2971.7 = f64[20]{0} bitcast(dynamic-slice.131.7)
  multiply.433.7 = f64[20]{0} multiply(add.294.7, bitcast.2971.7), metadata={op_name="jit(scan)/jit(main)/while/body/jit(beliefs_propagation)/jit(continuous_node_prediction)/jit(predict_precision)/mul" source_file="/fs04/fc37/adam/projects/psilocybin-prl-analyses/src/prl_hgf/fitting/hierarchical_patrl.py" source_line=362}
  negate.100.5 = f64[20]{0} negate(multiply.433.7), metadata={op_name="jit(scan)/jit(main)/while/body/jit(beliefs_propagation)/jit(continuous_node_prediction)/jit(predict_precision)/neg" source_file="/fs04/fc37/adam/projects/psilocybin-prl-analyses/src/prl_hgf/fitting/hierarchical_patrl.py" source_line=362}
  param_2.825 = f64[192,20]{1,0} parameter(2)
  dynamic-slice.132.5 = f64[1,20]{1,0} dynamic-slice(param_2.825, select.223.27, constant_1230_8), dynamic_slice_sizes={1,20}, metadata={op_name="jit(scan)/jit(main)/while/body/dynamic_slice[slice_sizes=(1, 20)]" source_file="/fs04/fc37/adam/projects/psilocybin-prl-analyses/src/prl_hgf/fitting/hierarchical_patrl.py" source_line=378}
  bitcast.2982.5 = f64[20]{0} bitcast(dynamic-slice.132.5)
  multiply.434.5 = f64[20]{0} multiply(negate.100.5, bitcast.2982.5), metadata={op_name="jit(scan)/jit(main)/while/body/jit(beliefs_propagation)/jit(continuous_node_prediction)/jit(predict_precision)/mul" source_file="/fs04/fc37/adam/projects/psilocybin-prl-analyses/src/prl_hgf/fitting/hierarchical_patrl.py" source_line=362}
  negate.101.3 = f64[20]{0} negate(multiply.434.5), metadata={op_name="jit(scan)/jit(main)/while/body/jit(beliefs_propagation)/jit(continuous_node_prediction)/jit(predict_precision)/neg" source_file="/fs04/fc37/adam/projects/psilocybin-prl-analyses/src/prl_hgf/fitting/hierarchical_patrl.py" source_line=362}
  param_5.383 = f64[20]{0} parameter(5)
  select.278.5 = f64[20]{0} select(bitcast.1874.52, param_5.383, broadcast.144.clone.87), metadata={op_name="jit(scan)/jit(main)/while/body/jit(_where)/select_n" source_file="/fs04/fc37/adam/projects/psilocybin-prl-analyses/src/prl_hgf/fitting/hierarchical_patrl.py" source_line=370}
  add.296.3 = f64[20]{0} add(select.278.5, param_3.695), metadata={op_name="jit(scan)/jit(main)/while/body/jit(beliefs_propagation)/add_any" source_file="/fs04/fc37/adam/projects/psilocybin-prl-analyses/src/prl_hgf/fitting/hierarchical_patrl.py" source_line=362}
  param_1.968 = f64[192,20]{1,0} parameter(1)
  dynamic-slice.133.9 = f64[1,20]{1,0} dynamic-slice(param_1.968, select.223.27, constant_1230_8), dynamic_slice_sizes={1,20}, metadata={op_name="jit(scan)/jit(main)/while/body/dynamic_slice[slice_sizes=(1, 20)]" source_file="/fs04/fc37/adam/projects/psilocybin-prl-analyses/src/prl_hgf/fitting/hierarchical_patrl.py" source_line=378}
  bitcast.3005.9 = f64[20]{0} bitcast(dynamic-slice.133.9)
  multiply.435.9 = f64[20]{0} multiply(add.296.3, bitcast.3005.9), metadata={op_name="jit(scan)/jit(main)/while/body/jit(beliefs_propagation)/jit(continuous_node_prediction)/mul" source_file="/fs04/fc37/adam/projects/psilocybin-prl-analyses/src/prl_hgf/fitting/hierarchical_patrl.py" source_line=362}
  negate.102.7 = f64[20]{0} negate(multiply.435.9), metadata={op_name="jit(scan)/jit(main)/while/body/jit(beliefs_propagation)/jit(continuous_node_prediction)/neg" source_file="/fs04/fc37/adam/projects/psilocybin-prl-analyses/src/prl_hgf/fitting/hierarchical_patrl.py" source_line=362}
  add.297.5 = f64[20]{0} add(negate.101.3, negate.102.7), metadata={op_name="jit(scan)/jit(main)/while/body/jit(beliefs_propagation)/jit(continuous_node_prediction)/add_any" source_file="/fs04/fc37/adam/projects/psilocybin-prl-analyses/src/prl_hgf/fitting/hierarchical_patrl.py" source_line=362}
  add.298.3 = f64[20]{0} add(add.289.3, add.297.5), metadata={op_name="jit(scan)/jit(main)/while/body/jit(beliefs_propagation)/add_any" source_file="/fs04/fc37/adam/projects/psilocybin-prl-analyses/src/prl_hgf/fitting/hierarchical_patrl.py" source_line=362}
  add.300.1 = f64[20]{0} add(select.272.3, add.298.3), metadata={op_name="jit(scan)/jit(main)/while/body/add_any" source_file="/fs04/fc37/adam/projects/psilocybin-prl-analyses/src/prl_hgf/fitting/hierarchical_patrl.py" source_line=362}
  param_27.122 = f64[20]{0} parameter(27)
  select.281.5.clone.1 = f64[20]{0} select(bitcast.1874.52, param_27.122, broadcast.144.clone.87), metadata={op_name="jit(scan)/jit(main)/while/body/jit(_where)/select_n" source_file="/fs04/fc37/adam/projects/psilocybin-prl-analyses/src/prl_hgf/fitting/hierarchical_patrl.py" source_line=370}
  select.282.5.clone.1 = f64[20]{0} select(bitcast.1874.52, broadcast.144.clone.87, param_27.122), metadata={op_name="jit(scan)/jit(main)/while/body/jit(_where)/select_n" source_file="/fs04/fc37/adam/projects/psilocybin-prl-analyses/src/prl_hgf/fitting/hierarchical_patrl.py" source_line=370}
  add.302.3.clone.1 = f64[20]{0} add(select.281.5.clone.1, select.282.5.clone.1), metadata={op_name="jit(scan)/jit(main)/while/body/add_any" source_file="/fs04/fc37/adam/projects/psilocybin-prl-analyses/src/prl_hgf/fitting/hierarchical_patrl.py" source_line=370}
  param_26.144 = f64[192,20]{1,0} parameter(26)
  dynamic-slice.134.5.clone.1 = f64[1,20]{1,0} dynamic-slice(param_26.144, select.223.27, constant_1230_8), dynamic_slice_sizes={1,20}, metadata={op_name="jit(scan)/jit(main)/while/body/dynamic_slice[slice_sizes=(1, 20)]" source_file="/fs04/fc37/adam/projects/psilocybin-prl-analyses/src/prl_hgf/fitting/hierarchical_patrl.py" source_line=378}
  bitcast.3060.5.clone.1 = f64[20]{0} bitcast(dynamic-slice.134.5.clone.1)
  multiply.436.5.clone.1 = f64[20]{0} multiply(bitcast.3060.5.clone.1, negate.97.5), metadata={op_name="jit(scan)/jit(main)/while/body/jit(beliefs_propagation)/jit(continuous_node_posterior_update_ehgf)/jit(posterior_update_precision_continuous_node)/jit(precision_update_missing_values)/mul" source_file="/fs04/fc37/adam/projects/psilocybin-prl-analyses/src/prl_hgf/fitting/hierarchical_patrl.py" source_line=362}
  param_25.134 = f64[192,20]{1,0} parameter(25)
  dynamic-slice.135.3.clone.1 = f64[1,20]{1,0} dynamic-slice(param_25.134, select.223.27, constant_1230_8), dynamic_slice_sizes={1,20}, metadata={op_name="jit(scan)/jit(main)/while/body/dynamic_slice[slice_sizes=(1, 20)]" source_file="/fs04/fc37/adam/projects/psilocybin-prl-analyses/src/prl_hgf/fitting/hierarchical_patrl.py" source_line=378}
  bitcast.3072.3.clone.1 = f64[20]{0} bitcast(dynamic-slice.135.3.clone.1)
  multiply.437.3.clone.1 = f64[20]{0} multiply(multiply.436.5.clone.1, bitcast.3072.3.clone.1), metadata={op_name="jit(scan)/jit(main)/while/body/jit(beliefs_propagation)/jit(continuous_node_posterior_update_ehgf)/jit(posterior_update_precision_continuous_node)/jit(precision_update_missing_values)/mul" source_file="/fs04/fc37/adam/projects/psilocybin-prl-analyses/src/prl_hgf/fitting/hierarchical_patrl.py" source_line=362}
  select.283.7.clone.1 = f64[20]{0} select(bitcast.2852.8, multiply.437.3.clone.1, broadcast.144.clone.87), metadata={op_name="jit(scan)/jit(main)/while/body/jit(beliefs_propagation)/jit(continuous_node_posterior_update_ehgf)/jit(posterior_update_precision_continuous_node)/select_n" source_file="/fs04/fc37/adam/projects/psilocybin-prl-analyses/src/prl_hgf/fitting/hierarchical_patrl.py" source_line=362}
  add.303.5.clone.1 = f64[20]{0} add(select.283.7.clone.1, param_3.695), metadata={op_name="jit(scan)/jit(main)/while/body/jit(beliefs_propagation)/add_any" source_file="/fs04/fc37/adam/projects/psilocybin-prl-analyses/src/prl_hgf/fitting/hierarchical_patrl.py" source_line=362}
  param_24.154 = f64[192]{0} parameter(24)
  dynamic-slice.120.2.clone.1 = f64[1]{0} dynamic-slice(param_24.154, select.223.27), dynamic_slice_sizes={1}, metadata={op_name="jit(scan)/jit(main)/while/body/dynamic_slice[slice_sizes=(1,)]" source_file="/fs04/fc37/adam/projects/psilocybin-prl-analyses/src/prl_hgf/fitting/hierarchical_patrl.py" source_line=378}
  bitcast.2729.11.clone.1 = f64[] bitcast(dynamic-slice.120.2.clone.1)
  broadcast.150.11.clone.1 = f64[20]{0} broadcast(bitcast.2729.11.clone.1), dimensions={}, metadata={op_name="jit(scan)/jit(main)/while/body/jit(beliefs_propagation)/jit(continuous_node_prediction)/jit(predict_precision)/mul" source_file="/fs04/fc37/adam/projects/psilocybin-prl-analyses/src/prl_hgf/fitting/hierarchical_patrl.py" source_line=362}
  param_23.151 = pred[192,20]{1,0} parameter(23)
  dynamic-slice.136.1.clone.1 = pred[1,20]{1,0} dynamic-slice(param_23.151, select.223.27, constant_1230_8), dynamic_slice_sizes={1,20}, metadata={op_name="jit(scan)/jit(main)/while/body/dynamic_slice[slice_sizes=(1, 20)]" source_file="/fs04/fc37/adam/projects/psilocybin-prl-analyses/src/prl_hgf/fitting/hierarchical_patrl.py" source_line=378}
  bitcast.3090.7.clone.1 = pred[20]{0} bitcast(dynamic-slice.136.1.clone.1)
  param_22.146 = f64[192,20]{1,0} parameter(22)
  dynamic-slice.137.7.clone.1 = f64[1,20]{1,0} dynamic-slice(param_22.146, select.223.27, constant_1230_8), dynamic_slice_sizes={1,20}, metadata={op_name="jit(scan)/jit(main)/while/body/dynamic_slice[slice_sizes=(1, 20)]" source_file="/fs04/fc37/adam/projects/psilocybin-prl-analyses/src/prl_hgf/fitting/hierarchical_patrl.py" source_line=378}
  bitcast.3103.7.clone.1 = f64[20]{0} bitcast(dynamic-slice.137.7.clone.1)
  multiply.438.7.clone.1 = f64[20]{0} multiply(add.293.9, bitcast.3103.7.clone.1), metadata={op_name="jit(scan)/jit(main)/while/body/jit(beliefs_propagation)/jit(continuous_node_prediction)/jit(predict_precision)/mul" source_file="/fs04/fc37/adam/projects/psilocybin-prl-analyses/src/prl_hgf/fitting/hierarchical_patrl.py" source_line=362}
  add.304.5.clone.1 = f64[20]{0} add(negate.100.5, multiply.438.7.clone.1), metadata={op_name="jit(scan)/jit(main)/while/body/jit(beliefs_propagation)/jit(continuous_node_prediction)/jit(predict_precision)/add_any" source_file="/fs04/fc37/adam/projects/psilocybin-prl-analyses/src/prl_hgf/fitting/hierarchical_patrl.py" source_line=362}
  select.284.7.clone.1 = f64[20]{0} select(bitcast.3090.7.clone.1, add.304.5.clone.1, broadcast.144.clone.87), metadata={op_name="jit(scan)/jit(main)/while/body/jit(beliefs_propagation)/jit(continuous_node_posterior_update_ehgf)/jit(posterior_update_precision_continuous_node)/jit(precision_update)/jit(_where)/select_n" source_file="/fs04/fc37/adam/projects/psilocybin-prl-analyses/src/prl_hgf/env/pat_rl_simulator.py" source_line=92}
  multiply.439.5.clone.1 = f64[20]{0} multiply(broadcast.150.11.clone.1, select.284.7.clone.1), metadata={op_name="jit(scan)/jit(main)/while/body/jit(beliefs_propagation)/jit(continuous_node_prediction)/jit(predict_precision)/mul" source_file="/fs04/fc37/adam/projects/psilocybin-prl-analyses/src/prl_hgf/fitting/hierarchical_patrl.py" source_line=362}
  param_21.149 = f64[192,20]{1,0} parameter(21)
  dynamic-slice.138.3.clone.1 = f64[1,20]{1,0} dynamic-slice(param_21.149, select.223.27, constant_1230_8), dynamic_slice_sizes={1,20}, metadata={op_name="jit(scan)/jit(main)/while/body/dynamic_slice[slice_sizes=(1, 20)]" source_file="/fs04/fc37/adam/projects/psilocybin-prl-analyses/src/prl_hgf/fitting/hierarchical_patrl.py" source_line=378}
  bitcast.3118.3.clone.1 = f64[20]{0} bitcast(dynamic-slice.138.3.clone.1)
  multiply.440.3.clone.1 = f64[20]{0} multiply(multiply.439.5.clone.1, bitcast.3118.3.clone.1), metadata={op_name="jit(scan)/jit(main)/while/body/jit(beliefs_propagation)/jit(continuous_node_prediction)/jit(predict_precision)/mul" source_file="/fs04/fc37/adam/projects/psilocybin-prl-analyses/src/prl_hgf/fitting/hierarchical_patrl.py" source_line=362}
  add.306.3.clone.1 = f64[20]{0} add(add.303.5.clone.1, multiply.440.3.clone.1), metadata={op_name="jit(scan)/jit(main)/while/body/jit(beliefs_propagation)/add_any" source_file="/fs04/fc37/adam/projects/psilocybin-prl-analyses/src/prl_hgf/fitting/hierarchical_patrl.py" source_line=362}
  add.308.1.clone.1 = f64[20]{0} add(add.302.3.clone.1, add.306.3.clone.1), metadata={op_name="jit(scan)/jit(main)/while/body/add_any" source_file="/fs04/fc37/adam/projects/psilocybin-prl-analyses/src/prl_hgf/fitting/hierarchical_patrl.py" source_line=362}
  select.280.1.clone.1 = f64[20]{0} select(bitcast.1874.52, broadcast.144.clone.87, param_12.199), metadata={op_name="jit(scan)/jit(main)/while/body/jit(_where)/select_n" source_file="/fs04/fc37/adam/projects/psilocybin-prl-analyses/src/prl_hgf/env/pat_rl_simulator.py" source_line=92}
  select.279.1.clone.1 = f64[20]{0} select(bitcast.1874.52, broadcast.144.clone.87, param_5.383), metadata={op_name="jit(scan)/jit(main)/while/body/jit(_where)/select_n" source_file="/fs04/fc37/adam/projects/psilocybin-prl-analyses/src/prl_hgf/fitting/hierarchical_patrl.py" source_line=370}
  select.268.1.clone.1 = f64[20]{0} select(bitcast.1874.52, broadcast.144.clone.87, param_20.162), metadata={op_name="jit(scan)/jit(main)/while/body/jit(_where)/select_n" source_file="/fs04/fc37/adam/projects/psilocybin-prl-analyses/src/prl_hgf/env/pat_rl_simulator.py" source_line=92}
  select.270.3.clone.1.clone.1 = f64[20]{0} select(bitcast.1874.52, broadcast.144.clone.87, param_16.137), metadata={op_name="jit(scan)/jit(main)/while/body/jit(_where)/select_n" source_file="/fs04/fc37/adam/projects/psilocybin-prl-analyses/src/prl_hgf/env/pat_rl_simulator.py" source_line=92}
  param_30.145 = f64[20]{0} parameter(30)
  param_44.31 = f64[192,20]{1,0} parameter(44)
  dynamic-slice.123.7.clone.1.clone.1 = f64[1,20]{1,0} dynamic-slice(param_44.31, select.223.27, constant_1230_8), dynamic_slice_sizes={1,20}, metadata={op_name="jit(scan)/jit(main)/while/body/dynamic_slice[slice_sizes=(1, 20)]" source_file="/fs04/fc37/adam/projects/psilocybin-prl-analyses/src/prl_hgf/fitting/hierarchical_patrl.py" source_line=378}
  bitcast.2803.7.clone.1.clone.1 = f64[20]{0} bitcast(dynamic-slice.123.7.clone.1.clone.1)
  param_43.26 = pred[192,20]{1,0} parameter(43)
  dynamic-slice.121.3.clone.1.clone.1 = pred[1,20]{1,0} dynamic-slice(param_43.26, select.223.27, constant_1230_8), dynamic_slice_sizes={1,20}, metadata={op_name="jit(scan)/jit(main)/while/body/dynamic_slice[slice_sizes=(1, 20)]" source_file="/fs04/fc37/adam/projects/psilocybin-prl-analyses/src/prl_hgf/fitting/hierarchical_patrl.py" source_line=378}
  bitcast.2739.7.clone.1.clone.1 = pred[20]{0} bitcast(dynamic-slice.121.3.clone.1.clone.1)
  param_61.17 = f64[20]{0} parameter(61)
  select.252.9.clone.1 = f64[20]{0} select(bitcast.1874.52, param_61.17, broadcast.144.clone.87), metadata={op_name="jit(scan)/jit(main)/while/body/jit(_where)/select_n" source_file="/fs04/fc37/adam/projects/psilocybin-prl-analyses/src/prl_hgf/env/pat_rl_simulator.py" source_line=92}
  param_60.18 = f64[20]{0} parameter(60)
  select.234.9.clone.1 = f64[20]{0} select(bitcast.1874.52, param_60.18, broadcast.144.clone.87), metadata={op_name="jit(scan)/jit(main)/while/body/jit(_where)/select_n" source_file="/fs04/fc37/adam/projects/psilocybin-prl-analyses/src/prl_hgf/env/pat_rl_simulator.py" source_line=92}
  param_59.30 = f64[192,20]{1,0} parameter(59)
  dynamic-slice.81.11.clone.1 = f64[1,20]{1,0} dynamic-slice(param_59.30, select.223.27, constant_1230_8), dynamic_slice_sizes={1,20}, metadata={op_name="jit(scan)/jit(main)/while/body/dynamic_slice[slice_sizes=(1, 20)]" source_file="/fs04/fc37/adam/projects/psilocybin-prl-analyses/src/prl_hgf/fitting/hierarchical_patrl.py" source_line=378}
  bitcast.2029.11.clone.1 = f64[20]{0} bitcast(dynamic-slice.81.11.clone.1)
  param_40.33 = f64[192,20]{1,0} parameter(40)
  dynamic-slice.84.13.clone.1 = f64[1,20]{1,0} dynamic-slice(param_40.33, select.223.27, constant_1230_8), dynamic_slice_sizes={1,20}, metadata={op_name="jit(scan)/jit(main)/while/body/dynamic_slice[slice_sizes=(1, 20)]" source_file="/fs04/fc37/adam/projects/psilocybin-prl-analyses/src/prl_hgf/fitting/hierarchical_patrl.py" source_line=378}
  bitcast.2070.13.clone.1 = f64[20]{0} bitcast(dynamic-slice.84.13.clone.1)
  multiply.375.13.clone.1 = f64[20]{0} multiply(select.239.23, bitcast.2070.13.clone.1), metadata={op_name="jit(scan)/jit(main)/while/body/jit(beliefs_propagation)/jit(continuous_node_posterior_update_ehgf)/jit(posterior_update_precision_continuous_node)/jit(precision_update)/mul" source_file="/fs04/fc37/adam/projects/psilocybin-prl-analyses/src/prl_hgf/fitting/hierarchical_patrl.py" source_line=362}
  negate.87.16.clone.1 = f64[20]{0} negate(multiply.375.13.clone.1), metadata={op_name="jit(scan)/jit(main)/while/body/jit(beliefs_propagation)/jit(continuous_node_posterior_update_ehgf)/jit(posterior_update_precision_continuous_node)/jit(precision_update)/neg" source_file="/fs04/fc37/adam/projects/psilocybin-prl-analyses/src/prl_hgf/fitting/hierarchical_patrl.py" source_line=362}
  multiply.376.11.clone.1 = f64[20]{0} multiply(bitcast.2029.11.clone.1, negate.87.16.clone.1), metadata={op_name="jit(scan)/jit(main)/while/body/jit(beliefs_propagation)/jit(continuous_node_posterior_update_ehgf)/jit(posterior_update_precision_continuous_node)/jit(precision_update)/mul" source_file="/fs04/fc37/adam/projects/psilocybin-prl-analyses/src/prl_hgf/fitting/hierarchical_patrl.py" source_line=362}
  param_58.26 = f64[192,20]{1,0} parameter(58)
  dynamic-slice.85.9.clone.1 = f64[1,20]{1,0} dynamic-slice(param_58.26, select.223.27, constant_1230_8), dynamic_slice_sizes={1,20}, metadata={op_name="jit(scan)/jit(main)/while/body/dynamic_slice[slice_sizes=(1, 20)]" source_file="/fs04/fc37/adam/projects/psilocybin-prl-analyses/src/prl_hgf/fitting/hierarchical_patrl.py" source_line=378}
  bitcast.2082.9.clone.1 = f64[20]{0} bitcast(dynamic-slice.85.9.clone.1)
  multiply.377.9.clone.1 = f64[20]{0} multiply(bitcast.2082.9.clone.1, multiply.375.13.clone.1), metadata={op_name="jit(scan)/jit(main)/while/body/jit(beliefs_propagation)/jit(continuous_node_posterior_update_ehgf)/jit(posterior_update_precision_continuous_node)/jit(precision_update)/mul" source_file="/fs04/fc37/adam/projects/psilocybin-prl-analyses/src/prl_hgf/fitting/hierarchical_patrl.py" source_line=362}
  add.241.9.clone.1 = f64[20]{0} add(multiply.376.11.clone.1, multiply.377.9.clone.1), metadata={op_name="jit(scan)/jit(main)/while/body/jit(beliefs_propagation)/jit(continuous_node_posterior_update_ehgf)/jit(posterior_update_precision_continuous_node)/jit(precision_update)/add_any" source_file="/fs04/fc37/adam/projects/psilocybin-prl-analyses/src/prl_hgf/fitting/hierarchical_patrl.py" source_line=362}
  select.240.11.clone.1 = f64[20]{0} select(bitcast.2020.27, add.241.9.clone.1, broadcast.144.clone.87), metadata={op_name="jit(scan)/jit(main)/while/body/jit(beliefs_propagation)/jit(continuous_node_posterior_update_ehgf)/jit(posterior_update_precision_continuous_node)/select_n" source_file="/fs04/fc37/adam/projects/psilocybin-prl-analyses/src/prl_hgf/fitting/hierarchical_patrl.py" source_line=362}
  param_57.27 = f64[192,20]{1,0} parameter(57)
  dynamic-slice.86.9.clone.1 = f64[1,20]{1,0} dynamic-slice(param_57.27, select.223.27, constant_1230_8), dynamic_slice_sizes={1,20}, metadata={op_name="jit(scan)/jit(main)/while/body/dynamic_slice[slice_sizes=(1, 20)]" source_file="/fs04/fc37/adam/projects/psilocybin-prl-analyses/src/prl_hgf/fitting/hierarchical_patrl.py" source_line=378}
  bitcast.2096.9.clone.1 = f64[20]{0} bitcast(dynamic-slice.86.9.clone.1)
  param_34.76 = f64[192,20]{1,0} parameter(34)
  dynamic-slice.88.15.clone.1 = f64[1,20]{1,0} dynamic-slice(param_34.76, select.223.27, constant_1230_8), dynamic_slice_sizes={1,20}, metadata={op_name="jit(scan)/jit(main)/while/body/dynamic_slice[slice_sizes=(1, 20)]" source_file="/fs04/fc37/adam/projects/psilocybin-prl-analyses/src/prl_hgf/fitting/hierarchical_patrl.py" source_line=378}
  bitcast.2124.15.clone.1 = f64[20]{0} bitcast(dynamic-slice.88.15.clone.1)
  multiply.379.15.clone.1 = f64[20]{0} multiply(multiply.378.13, bitcast.2124.15.clone.1), metadata={op_name="jit(scan)/jit(main)/while/body/jit(beliefs_propagation)/jit(continuous_node_posterior_update_ehgf)/jit(posterior_update_mean_continuous_node)/mul" source_file="/fs04/fc37/adam/projects/psilocybin-prl-analyses/src/prl_hgf/fitting/hierarchical_patrl.py" source_line=362}
  multiply.380.9.clone.1 = f64[20]{0} multiply(bitcast.2096.9.clone.1, multiply.379.15.clone.1), metadata={op_name="jit(scan)/jit(main)/while/body/jit(beliefs_propagation)/jit(continuous_node_posterior_update_ehgf)/jit(posterior_update_mean_continuous_node)/mul" source_file="/fs04/fc37/adam/projects/psilocybin-prl-analyses/src/prl_hgf/fitting/hierarchical_patrl.py" source_line=362}
  add.242.9.clone.1 = f64[20]{0} add(select.240.11.clone.1, multiply.380.9.clone.1), metadata={op_name="jit(scan)/jit(main)/while/body/jit(beliefs_propagation)/jit(continuous_node_posterior_update_ehgf)/add_any" source_file="/fs04/fc37/adam/projects/psilocybin-prl-analyses/src/prl_hgf/fitting/hierarchical_patrl.py" source_line=362}
  add.243.7.clone.1 = f64[20]{0} add(select.234.9.clone.1, add.242.9.clone.1), metadata={op_name="jit(scan)/jit(main)/while/body/jit(beliefs_propagation)/add_any" source_file="/fs04/fc37/adam/projects/psilocybin-prl-analyses/src/prl_hgf/fitting/hierarchical_patrl.py" source_line=362}
  param_56.30 = f64[192,20]{1,0} parameter(56)
  dynamic-slice.108.5.clone.1 = f64[1,20]{1,0} dynamic-slice(param_56.30, select.223.27, constant_1230_8), dynamic_slice_sizes={1,20}, metadata={op_name="jit(scan)/jit(main)/while/body/dynamic_slice[slice_sizes=(1, 20)]" source_file="/fs04/fc37/adam/projects/psilocybin-prl-analyses/src/prl_hgf/fitting/hierarchical_patrl.py" source_line=378}
  bitcast.2473.5.clone.1 = f64[20]{0} bitcast(dynamic-slice.108.5.clone.1)
  multiply.407.5.clone.1 = f64[20]{0} multiply(add.243.7.clone.1, bitcast.2473.5.clone.1), metadata={op_name="jit(scan)/jit(main)/while/body/jit(beliefs_propagation)/jit(continuous_node_prediction_error)/jit(continuous_node_volatility_prediction_error)/mul" source_file="/fs04/fc37/adam/projects/psilocybin-prl-analyses/src/prl_hgf/fitting/hierarchical_patrl.py" source_line=362}
  param_55.25 = f64[192,20]{1,0} parameter(55)
  dynamic-slice.103.12.clone.1 = f64[1,20]{1,0} dynamic-slice(param_55.25, select.223.27, constant_1230_8), dynamic_slice_sizes={1,20}, metadata={op_name="jit(scan)/jit(main)/while/body/dynamic_slice[slice_sizes=(1, 20)]" source_file="/fs04/fc37/adam/projects/psilocybin-prl-analyses/src/prl_hgf/fitting/hierarchical_patrl.py" source_line=378}
  bitcast.2379.12.clone.1 = f64[20]{0} bitcast(dynamic-slice.103.12.clone.1)
  divide.20.5.clone.1 = f64[20]{0} divide(add.243.7.clone.1, bitcast.2379.12.clone.1), metadata={op_name="jit(scan)/jit(main)/while/body/jit(beliefs_propagation)/jit(continuous_node_prediction_error)/jit(continuous_node_volatility_prediction_error)/div" source_file="/fs04/fc37/adam/projects/psilocybin-prl-analyses/src/prl_hgf/fitting/hierarchical_patrl.py" source_line=362}
  add.265.3.clone.1 = f64[20]{0} add(multiply.407.5.clone.1, divide.20.5.clone.1), metadata={op_name="jit(scan)/jit(main)/while/body/jit(beliefs_propagation)/jit(continuous_node_prediction_error)/jit(continuous_node_volatility_prediction_error)/add_any" source_file="/fs04/fc37/adam/projects/psilocybin-prl-analyses/src/prl_hgf/fitting/hierarchical_patrl.py" source_line=362}
  add.266.7.clone.1 = f64[20]{0} add(select.252.9.clone.1, add.265.3.clone.1), metadata={op_name="jit(scan)/jit(main)/while/body/jit(beliefs_propagation)/add_any" source_file="/fs04/fc37/adam/projects/psilocybin-prl-analyses/src/prl_hgf/fitting/hierarchical_patrl.py" source_line=362}
  param_54.20 = f64[20]{0} parameter(54)
  add.267.5.clone.1 = f64[20]{0} add(add.266.7.clone.1, param_54.20), metadata={op_name="jit(scan)/jit(main)/while/body/jit(beliefs_propagation)/add_any" source_file="/fs04/fc37/adam/projects/psilocybin-prl-analyses/src/prl_hgf/fitting/hierarchical_patrl.py" source_line=362}
  param_53.31 = f64[192,20]{1,0} parameter(53)
  dynamic-slice.109.3.clone.1 = f64[1,20]{1,0} dynamic-slice(param_53.31, select.223.27, constant_1230_8), dynamic_slice_sizes={1,20}, metadata={op_name="jit(scan)/jit(main)/while/body/dynamic_slice[slice_sizes=(1, 20)]" source_file="/fs04/fc37/adam/projects/psilocybin-prl-analyses/src/prl_hgf/fitting/hierarchical_patrl.py" source_line=378}
  bitcast.2495.3.clone.1 = f64[20]{0} bitcast(dynamic-slice.109.3.clone.1)
  param_42.22 = f64[20]{0} parameter(42)
  select.255.9.clone.1 = f64[20]{0} select(bitcast.1874.52, param_42.22, broadcast.144.clone.87), metadata={op_name="jit(scan)/jit(main)/while/body/jit(_where)/select_n" source_file="/fs04/fc37/adam/projects/psilocybin-prl-analyses/src/prl_hgf/env/pat_rl_simulator.py" source_line=92}
  param_41.26 = f64[192,20]{1,0} parameter(41)
  dynamic-slice.110.11.clone.1 = f64[1,20]{1,0} dynamic-slice(param_41.26, select.223.27, constant_1230_8), dynamic_slice_sizes={1,20}, metadata={op_name="jit(scan)/jit(main)/while/body/dynamic_slice[slice_sizes=(1, 20)]" source_file="/fs04/fc37/adam/projects/psilocybin-prl-analyses/src/prl_hgf/fitting/hierarchical_patrl.py" source_line=378}
  bitcast.2517.11.clone.1 = f64[20]{0} bitcast(dynamic-slice.110.11.clone.1)
  param_39.45 = f64[192,20]{1,0} parameter(39)
  dynamic-slice.111.20.clone.1 = f64[1,20]{1,0} dynamic-slice(param_39.45, select.223.27, constant_1230_8), dynamic_slice_sizes={1,20}, metadata={op_name="jit(scan)/jit(main)/while/body/dynamic_slice[slice_sizes=(1, 20)]" source_file="/fs04/fc37/adam/projects/psilocybin-prl-analyses/src/prl_hgf/fitting/hierarchical_patrl.py" source_line=378}
  bitcast.2528.20.clone.1 = f64[20]{0} bitcast(dynamic-slice.111.20.clone.1)
  multiply.408.9.clone.1 = f64[20]{0} multiply(negate.87.16.clone.1, bitcast.2528.20.clone.1), metadata={op_name="jit(scan)/jit(main)/while/body/jit(beliefs_propagation)/jit(continuous_node_posterior_update_ehgf)/jit(posterior_update_precision_continuous_node)/jit(precision_update)/mul" source_file="/fs04/fc37/adam/projects/psilocybin-prl-analyses/src/prl_hgf/fitting/hierarchical_patrl.py" source_line=362}
  multiply.409.11.clone.1 = f64[20]{0} multiply(bitcast.2517.11.clone.1, multiply.408.9.clone.1), metadata={op_name="jit(scan)/jit(main)/while/body/jit(beliefs_propagation)/jit(continuous_node_posterior_update_ehgf)/jit(posterior_update_precision_continuous_node)/jit(precision_update)/mul" source_file="/fs04/fc37/adam/projects/psilocybin-prl-analyses/src/prl_hgf/fitting/hierarchical_patrl.py" source_line=362}
  param_38.43 = f64[192,20]{1,0} parameter(38)
  dynamic-slice.112.14.clone.1 = f64[1,20]{1,0} dynamic-slice(param_38.43, select.223.27, constant_1230_8), dynamic_slice_sizes={1,20}, metadata={op_name="jit(scan)/jit(main)/while/body/dynamic_slice[slice_sizes=(1, 20)]" source_file="/fs04/fc37/adam/projects/psilocybin-prl-analyses/src/prl_hgf/fitting/hierarchical_patrl.py" source_line=378}
  bitcast.2539.14.clone.1 = f64[20]{0} bitcast(dynamic-slice.112.14.clone.1)
  multiply.410.11.clone.1 = f64[20]{0} multiply(multiply.375.13.clone.1, bitcast.2528.20.clone.1), metadata={op_name="jit(scan)/jit(main)/while/body/jit(beliefs_propagation)/jit(continuous_node_posterior_update_ehgf)/jit(posterior_update_precision_continuous_node)/jit(precision_update)/mul" source_file="/fs04/fc37/adam/projects/psilocybin-prl-analyses/src/prl_hgf/fitting/hierarchical_patrl.py" source_line=362}
  param_37.38 = f64[192,20]{1,0} parameter(37)
  dynamic-slice.113.9.clone.1 = f64[1,20]{1,0} dynamic-slice(param_37.38, select.223.27, constant_1230_8), dynamic_slice_sizes={1,20}, metadata={op_name="jit(scan)/jit(main)/while/body/dynamic_slice[slice_sizes=(1, 20)]" source_file="/fs04/fc37/adam/projects/psilocybin-prl-analyses/src/prl_hgf/fitting/hierarchical_patrl.py" source_line=378}
  bitcast.2555.9.clone.1 = f64[20]{0} bitcast(dynamic-slice.113.9.clone.1)
  multiply.411.9.clone.1 = f64[20]{0} multiply(multiply.410.11.clone.1, bitcast.2555.9.clone.1), metadata={op_name="jit(scan)/jit(main)/while/body/jit(beliefs_propagation)/jit(continuous_node_posterior_update_ehgf)/jit(posterior_update_precision_continuous_node)/jit(precision_update)/mul" source_file="/fs04/fc37/adam/projects/psilocybin-prl-analyses/src/prl_hgf/fitting/hierarchical_patrl.py" source_line=362}
  multiply.412.7.clone.1 = f64[20]{0} multiply(bitcast.2539.14.clone.1, multiply.411.9.clone.1), metadata={op_name="jit(scan)/jit(main)/while/body/jit(beliefs_propagation)/jit(continuous_node_posterior_update_ehgf)/jit(posterior_update_precision_continuous_node)/jit(precision_update)/mul" source_file="/fs04/fc37/adam/projects/psilocybin-prl-analyses/src/prl_hgf/fitting/hierarchical_patrl.py" source_line=362}
  add.268.9.clone.1 = f64[20]{0} add(multiply.409.11.clone.1, multiply.412.7.clone.1), metadata={op_name="jit(scan)/jit(main)/while/body/jit(beliefs_propagation)/jit(continuous_node_posterior_update_ehgf)/jit(posterior_update_precision_continuous_node)/jit(precision_update)/add_any" source_file="/fs04/fc37/adam/projects/psilocybin-prl-analyses/src/prl_hgf/fitting/hierarchical_patrl.py" source_line=362}
  constant_72_2_clone_1_clone_1 = f64[] constant(0.5)
  broadcast.149.clone.21.clone.1 = f64[20]{0} broadcast(constant_72_2_clone_1_clone_1), dimensions={}
  multiply.413.11.clone.1 = f64[20]{0} multiply(multiply.375.13.clone.1, broadcast.149.clone.21.clone.1), metadata={op_name="jit(scan)/jit(main)/while/body/jit(beliefs_propagation)/jit(continuous_node_posterior_update_ehgf)/jit(posterior_update_precision_continuous_node)/jit(precision_update)/mul" source_file="/fs04/fc37/adam/projects/psilocybin-prl-analyses/src/prl_hgf/fitting/hierarchical_patrl.py" source_line=362}
  param_36.44 = f64[192,20]{1,0} parameter(36)
  dynamic-slice.114.9.clone.1 = f64[1,20]{1,0} dynamic-slice(param_36.44, select.223.27, constant_1230_8), dynamic_slice_sizes={1,20}, metadata={op_name="jit(scan)/jit(main)/while/body/dynamic_slice[slice_sizes=(1, 20)]" source_file="/fs04/fc37/adam/projects/psilocybin-prl-analyses/src/prl_hgf/fitting/hierarchical_patrl.py" source_line=378}
  bitcast.2576.9.clone.1 = f64[20]{0} bitcast(dynamic-slice.114.9.clone.1)
  multiply.414.9.clone.1 = f64[20]{0} multiply(multiply.413.11.clone.1, bitcast.2576.9.clone.1), metadata={op_name="jit(scan)/jit(main)/while/body/jit(beliefs_propagation)/jit(continuous_node_posterior_update_ehgf)/jit(posterior_update_precision_continuous_node)/jit(precision_update)/mul" source_file="/fs04/fc37/adam/projects/psilocybin-prl-analyses/src/prl_hgf/fitting/hierarchical_patrl.py" source_line=362}
  multiply.415.7.clone.1 = f64[20]{0} multiply(bitcast.2539.14.clone.1, multiply.414.9.clone.1), metadata={op_name="jit(scan)/jit(main)/while/body/jit(beliefs_propagation)/jit(continuous_node_posterior_update_ehgf)/jit(posterior_update_precision_continuous_node)/jit(precision_update)/mul" source_file="/fs04/fc37/adam/projects/psilocybin-prl-analyses/src/prl_hgf/fitting/hierarchical_patrl.py" source_line=362}
  add.269.7.clone.1 = f64[20]{0} add(add.268.9.clone.1, multiply.415.7.clone.1), metadata={op_name="jit(scan)/jit(main)/while/body/jit(beliefs_propagation)/jit(continuous_node_posterior_update_ehgf)/jit(posterior_update_precision_continuous_node)/jit(precision_update)/add_any" source_file="/fs04/fc37/adam/projects/psilocybin-prl-analyses/src/prl_hgf/fitting/hierarchical_patrl.py" source_line=362}
  select.256.11.clone.1 = f64[20]{0} select(bitcast.2020.27, add.269.7.clone.1, broadcast.144.clone.87), metadata={op_name="jit(scan)/jit(main)/while/body/jit(beliefs_propagation)/jit(continuous_node_posterior_update_ehgf)/jit(posterior_update_precision_continuous_node)/select_n" source_file="/fs04/fc37/adam/projects/psilocybin-prl-analyses/src/prl_hgf/fitting/hierarchical_patrl.py" source_line=362}
  param_35.61 = f64[192,20]{1,0} parameter(35)
  dynamic-slice.115.7.clone.1 = f64[1,20]{1,0} dynamic-slice(param_35.61, select.223.27, constant_1230_8), dynamic_slice_sizes={1,20}, metadata={op_name="jit(scan)/jit(main)/while/body/dynamic_slice[slice_sizes=(1, 20)]" source_file="/fs04/fc37/adam/projects/psilocybin-prl-analyses/src/prl_hgf/fitting/hierarchical_patrl.py" source_line=378}
  bitcast.2591.7.clone.1 = f64[20]{0} bitcast(dynamic-slice.115.7.clone.1)
  param_33.83 = f64[192,20]{1,0} parameter(33)
  dynamic-slice.116.9.clone.1 = f64[1,20]{1,0} dynamic-slice(param_33.83, select.223.27, constant_1230_8), dynamic_slice_sizes={1,20}, metadata={op_name="jit(scan)/jit(main)/while/body/dynamic_slice[slice_sizes=(1, 20)]" source_file="/fs04/fc37/adam/projects/psilocybin-prl-analyses/src/prl_hgf/fitting/hierarchical_patrl.py" source_line=378}
  bitcast.2602.9.clone.1 = f64[20]{0} bitcast(dynamic-slice.116.9.clone.1)
  multiply.416.9.clone.1 = f64[20]{0} multiply(multiply.379.15.clone.1, bitcast.2602.9.clone.1), metadata={op_name="jit(scan)/jit(main)/while/body/jit(beliefs_propagation)/jit(continuous_node_posterior_update_ehgf)/jit(posterior_update_mean_continuous_node)/mul" source_file="/fs04/fc37/adam/projects/psilocybin-prl-analyses/src/prl_hgf/fitting/hierarchical_patrl.py" source_line=362}
  multiply.417.7.clone.1 = f64[20]{0} multiply(bitcast.2591.7.clone.1, multiply.416.9.clone.1), metadata={op_name="jit(scan)/jit(main)/while/body/jit(beliefs_propagation)/jit(continuous_node_posterior_update_ehgf)/jit(posterior_update_mean_continuous_node)/mul" source_file="/fs04/fc37/adam/projects/psilocybin-prl-analyses/src/prl_hgf/fitting/hierarchical_patrl.py" source_line=362}
  add.270.9.clone.1 = f64[20]{0} add(select.256.11.clone.1, multiply.417.7.clone.1), metadata={op_name="jit(scan)/jit(main)/while/body/jit(beliefs_propagation)/jit(continuous_node_posterior_update_ehgf)/add_any" source_file="/fs04/fc37/adam/projects/psilocybin-prl-analyses/src/prl_hgf/fitting/hierarchical_patrl.py" source_line=362}
  add.271.7.clone.1 = f64[20]{0} add(select.255.9.clone.1, add.270.9.clone.1), metadata={op_name="jit(scan)/jit(main)/while/body/jit(beliefs_propagation)/add_any" source_file="/fs04/fc37/adam/projects/psilocybin-prl-analyses/src/prl_hgf/fitting/hierarchical_patrl.py" source_line=362}
  add.272.5.clone.1 = f64[20]{0} add(add.271.7.clone.1, param_3.695), metadata={op_name="jit(scan)/jit(main)/while/body/jit(beliefs_propagation)/add_any" source_file="/fs04/fc37/adam/projects/psilocybin-prl-analyses/src/prl_hgf/fitting/hierarchical_patrl.py" source_line=362}
  multiply.418.3.clone.1 = f64[20]{0} multiply(bitcast.2495.3.clone.1, add.272.5.clone.1), metadata={op_name="jit(scan)/jit(main)/while/body/jit(beliefs_propagation)/jit(continuous_node_prediction)/jit(predict_precision)/mul" source_file="/fs04/fc37/adam/projects/psilocybin-prl-analyses/src/prl_hgf/fitting/hierarchical_patrl.py" source_line=362}
  add.273.3.clone.1 = f64[20]{0} add(add.267.5.clone.1, multiply.418.3.clone.1), metadata={op_name="jit(scan)/jit(main)/while/body/jit(beliefs_propagation)/jit(continuous_node_prediction)/jit(predict_precision)/add_any" source_file="/fs04/fc37/adam/projects/psilocybin-prl-analyses/src/prl_hgf/fitting/hierarchical_patrl.py" source_line=362}
  param_52.33 = f64[192,20]{1,0} parameter(52)
  dynamic-slice.117.3.clone.1 = f64[1,20]{1,0} dynamic-slice(param_52.33, select.223.27, constant_1230_8), dynamic_slice_sizes={1,20}, metadata={op_name="jit(scan)/jit(main)/while/body/dynamic_slice[slice_sizes=(1, 20)]" source_file="/fs04/fc37/adam/projects/psilocybin-prl-analyses/src/prl_hgf/fitting/hierarchical_patrl.py" source_line=378}
  bitcast.2620.3.clone.1 = f64[20]{0} bitcast(dynamic-slice.117.3.clone.1)
  multiply.419.3.clone.1 = f64[20]{0} multiply(add.273.3.clone.1, bitcast.2620.3.clone.1), metadata={op_name="jit(scan)/jit(main)/while/body/jit(beliefs_propagation)/jit(continuous_node_prediction)/jit(predict_precision)/mul" source_file="/fs04/fc37/adam/projects/psilocybin-prl-analyses/src/prl_hgf/fitting/hierarchical_patrl.py" source_line=362}
  negate.94.1.clone.1 = f64[20]{0} negate(multiply.419.3.clone.1), metadata={op_name="jit(scan)/jit(main)/while/body/jit(beliefs_propagation)/jit(continuous_node_prediction)/jit(predict_precision)/neg" source_file="/fs04/fc37/adam/projects/psilocybin-prl-analyses/src/prl_hgf/fitting/hierarchical_patrl.py" source_line=362}
  param_32.141 = f64[192,20]{1,0} parameter(32)
  dynamic-slice.90.23.clone.1.clone.1 = f64[1,20]{1,0} dynamic-slice(param_32.141, select.223.27, constant_1230_8), dynamic_slice_sizes={1,20}, metadata={op_name="jit(scan)/jit(main)/while/body/dynamic_slice[slice_sizes=(1, 20)]" source_file="/fs04/fc37/adam/projects/psilocybin-prl-analyses/src/prl_hgf/fitting/hierarchical_patrl.py" source_line=378}
  bitcast.2147.23.clone.1.clone.1 = f64[20]{0} bitcast(dynamic-slice.90.23.clone.1.clone.1)
  multiply.422.7.clone.1.clone.1 = f64[20]{0} multiply(add.272.5.clone.1, bitcast.2147.23.clone.1.clone.1), metadata={op_name="jit(scan)/jit(main)/while/body/jit(beliefs_propagation)/jit(continuous_node_prediction)/jit(predict_precision)/mul" source_file="/fs04/fc37/adam/projects/psilocybin-prl-analyses/src/prl_hgf/fitting/hierarchical_patrl.py" source_line=362}
  add.281.5.clone.1.clone.1 = f64[20]{0} add(negate.94.1.clone.1, multiply.422.7.clone.1.clone.1), metadata={op_name="jit(scan)/jit(main)/while/body/jit(beliefs_propagation)/jit(continuous_node_prediction)/jit(predict_precision)/add_any" source_file="/fs04/fc37/adam/projects/psilocybin-prl-analyses/src/prl_hgf/fitting/hierarchical_patrl.py" source_line=362}
  select.266.7.clone.1.clone.1 = f64[20]{0} select(bitcast.2739.7.clone.1.clone.1, add.281.5.clone.1.clone.1, broadcast.144.clone.87), metadata={op_name="jit(scan)/jit(main)/while/body/jit(beliefs_propagation)/jit(continuous_node_posterior_update_ehgf)/jit(posterior_update_precision_continuous_node)/jit(precision_update)/jit(_where)/select_n" source_file="/fs04/fc37/adam/projects/psilocybin-prl-analyses/src/prl_hgf/env/pat_rl_simulator.py" source_line=92}
  multiply.423.5.clone.1.clone.1 = f64[20]{0} multiply(broadcast.150.11.clone.1, select.266.7.clone.1.clone.1), metadata={op_name="jit(scan)/jit(main)/while/body/jit(beliefs_propagation)/jit(continuous_node_prediction)/jit(predict_precision)/mul" source_file="/fs04/fc37/adam/projects/psilocybin-prl-analyses/src/prl_hgf/fitting/hierarchical_patrl.py" source_line=362}
  param_31.136 = f64[192,20]{1,0} parameter(31)
  dynamic-slice.122.3.clone.1.clone.1 = f64[1,20]{1,0} dynamic-slice(param_31.136, select.223.27, constant_1230_8), dynamic_slice_sizes={1,20}, metadata={op_name="jit(scan)/jit(main)/while/body/dynamic_slice[slice_sizes=(1, 20)]" source_file="/fs04/fc37/adam/projects/psilocybin-prl-analyses/src/prl_hgf/fitting/hierarchical_patrl.py" source_line=378}
  bitcast.2762.3.clone.1.clone.1 = f64[20]{0} bitcast(dynamic-slice.122.3.clone.1.clone.1)
  multiply.424.3.clone.1.clone.1 = f64[20]{0} multiply(multiply.423.5.clone.1.clone.1, bitcast.2762.3.clone.1.clone.1), metadata={op_name="jit(scan)/jit(main)/while/body/jit(beliefs_propagation)/jit(continuous_node_prediction)/jit(predict_precision)/mul" source_file="/fs04/fc37/adam/projects/psilocybin-prl-analyses/src/prl_hgf/fitting/hierarchical_patrl.py" source_line=362}
  multiply.425.7.clone.1.clone.1 = f64[20]{0} multiply(bitcast.2803.7.clone.1.clone.1, multiply.424.3.clone.1.clone.1), metadata={op_name="jit(scan)/jit(main)/while/body/jit(beliefs_propagation)/jit(continuous_node_prediction)/jit(predict_precision)/mul" source_file="/fs04/fc37/adam/projects/psilocybin-prl-analyses/src/prl_hgf/fitting/hierarchical_patrl.py" source_line=362}
  add.284.5.clone.1.clone.1 = f64[20]{0} add(param_30.145, multiply.425.7.clone.1.clone.1), metadata={op_name="jit(scan)/jit(main)/while/body/jit(beliefs_propagation)/add_any" source_file="/fs04/fc37/adam/projects/psilocybin-prl-analyses/src/prl_hgf/fitting/hierarchical_patrl.py" source_line=362}
  param_29.164 = f64[192,20]{1,0} parameter(29)
  dynamic-slice.124.3.clone.1.clone.1 = f64[1,20]{1,0} dynamic-slice(param_29.164, select.223.27, constant_1230_8), dynamic_slice_sizes={1,20}, metadata={op_name="jit(scan)/jit(main)/while/body/dynamic_slice[slice_sizes=(1, 20)]" source_file="/fs04/fc37/adam/projects/psilocybin-prl-analyses/src/prl_hgf/fitting/hierarchical_patrl.py" source_line=378}
  bitcast.2816.3.clone.1.clone.1 = f64[20]{0} bitcast(dynamic-slice.124.3.clone.1.clone.1)
  param_28.154 = f64[20]{0} parameter(28)
  select.271.9.clone.1.clone.1 = f64[20]{0} select(bitcast.1874.52, param_28.154, broadcast.144.clone.87), metadata={op_name="jit(scan)/jit(main)/while/body/jit(_where)/select_n" source_file="/fs04/fc37/adam/projects/psilocybin-prl-analyses/src/prl_hgf/env/pat_rl_simulator.py" source_line=92}
  add.285.7.clone.1.clone.1 = f64[20]{0} add(select.271.9.clone.1.clone.1, select.241.23), metadata={op_name="jit(scan)/jit(main)/while/body/jit(beliefs_propagation)/add_any" source_file="/fs04/fc37/adam/projects/psilocybin-prl-analyses/src/prl_hgf/fitting/hierarchical_patrl.py" source_line=362}
  add.286.5.clone.1.clone.1 = f64[20]{0} add(add.285.7.clone.1.clone.1, param_3.695), metadata={op_name="jit(scan)/jit(main)/while/body/jit(beliefs_propagation)/add_any" source_file="/fs04/fc37/adam/projects/psilocybin-prl-analyses/src/prl_hgf/fitting/hierarchical_patrl.py" source_line=362}
  multiply.426.3.clone.1.clone.1 = f64[20]{0} multiply(bitcast.2816.3.clone.1.clone.1, add.286.5.clone.1.clone.1), metadata={op_name="jit(scan)/jit(main)/while/body/jit(beliefs_propagation)/jit(continuous_node_prediction)/jit(predict_mean)/mul" source_file="/fs04/fc37/adam/projects/psilocybin-prl-analyses/src/prl_hgf/fitting/hierarchical_patrl.py" source_line=362}
  add.287.3.clone.1.clone.1 = f64[20]{0} add(add.284.5.clone.1.clone.1, multiply.426.3.clone.1.clone.1), metadata={op_name="jit(scan)/jit(main)/while/body/jit(beliefs_propagation)/add_any" source_file="/fs04/fc37/adam/projects/psilocybin-prl-analyses/src/prl_hgf/fitting/hierarchical_patrl.py" source_line=362}
  add.288.1.clone.1.clone.1 = f64[20]{0} add(select.270.3.clone.1.clone.1, add.287.3.clone.1.clone.1), metadata={op_name="jit(scan)/jit(main)/while/body/add_any" source_file="/fs04/fc37/adam/projects/psilocybin-prl-analyses/src/prl_hgf/fitting/hierarchical_patrl.py" source_line=362}
  select.267.1.clone.1 = f64[20]{0} select(bitcast.1874.52, broadcast.144.clone.87, param_28.154), metadata={op_name="jit(scan)/jit(main)/while/body/jit(_where)/select_n" source_file="/fs04/fc37/adam/projects/psilocybin-prl-analyses/src/prl_hgf/env/pat_rl_simulator.py" source_line=92}
  param_46.31 = f64[20]{0} parameter(46)
  select.264.5.clone.1 = f64[20]{0} select(bitcast.1874.52, param_46.31, broadcast.144.clone.87), metadata={op_name="jit(scan)/jit(main)/while/body/jit(_where)/select_n" source_file="/fs04/fc37/adam/projects/psilocybin-prl-analyses/src/prl_hgf/fitting/hierarchical_patrl.py" source_line=370}
  select.265.5.clone.1 = f64[20]{0} select(bitcast.1874.52, broadcast.144.clone.87, param_46.31), metadata={op_name="jit(scan)/jit(main)/while/body/jit(_where)/select_n" source_file="/fs04/fc37/adam/projects/psilocybin-prl-analyses/src/prl_hgf/fitting/hierarchical_patrl.py" source_line=370}
  add.280.3.clone.1 = f64[20]{0} add(select.264.5.clone.1, select.265.5.clone.1), metadata={op_name="jit(scan)/jit(main)/while/body/add_any" source_file="/fs04/fc37/adam/projects/psilocybin-prl-analyses/src/prl_hgf/fitting/hierarchical_patrl.py" source_line=370}
  param_45.29 = f64[20]{0} parameter(45)
  add.282.1.clone.1 = f64[20]{0} add(param_45.29, multiply.424.3.clone.1.clone.1), metadata={op_name="jit(scan)/jit(main)/while/body/jit(beliefs_propagation)/add_any" source_file="/fs04/fc37/adam/projects/psilocybin-prl-analyses/src/prl_hgf/fitting/hierarchical_patrl.py" source_line=362}
  add.283.1.clone.1 = f64[20]{0} add(add.280.3.clone.1, add.282.1.clone.1), metadata={op_name="jit(scan)/jit(main)/while/body/add_any" source_file="/fs04/fc37/adam/projects/psilocybin-prl-analyses/src/prl_hgf/fitting/hierarchical_patrl.py" source_line=362}
  param_47.30 = f64[20]{0} parameter(47)
  select.258.1.clone.1.clone.1 = f64[20]{0} select(bitcast.1874.52, broadcast.144.clone.87, param_47.30), metadata={op_name="jit(scan)/jit(main)/while/body/jit(_where)/select_n" source_file="/fs04/fc37/adam/projects/psilocybin-prl-analyses/src/prl_hgf/fitting/hierarchical_patrl.py" source_line=370}
  param_51.34 = f64[20]{0} parameter(51)
  select.251.3.clone.1 = f64[20]{0} select(bitcast.1874.52, broadcast.144.clone.87, param_51.34), metadata={op_name="jit(scan)/jit(main)/while/body/jit(_where)/select_n" source_file="/fs04/fc37/adam/projects/psilocybin-prl-analyses/src/prl_hgf/env/pat_rl_simulator.py" source_line=92}
  param_48.31 = f64[20]{0} parameter(48)
  param_50.32 = f64[192,20]{1,0} parameter(50)
  dynamic-slice.118.5.clone.1 = f64[1,20]{1,0} dynamic-slice(param_50.32, select.223.27, constant_1230_8), dynamic_slice_sizes={1,20}, metadata={op_name="jit(scan)/jit(main)/while/body/dynamic_slice[slice_sizes=(1, 20)]" source_file="/fs04/fc37/adam/projects/psilocybin-prl-analyses/src/prl_hgf/fitting/hierarchical_patrl.py" source_line=378}
  bitcast.2631.5.clone.1 = f64[20]{0} bitcast(dynamic-slice.118.5.clone.1)
  multiply.420.5.clone.1 = f64[20]{0} multiply(negate.94.1.clone.1, bitcast.2631.5.clone.1), metadata={op_name="jit(scan)/jit(main)/while/body/jit(beliefs_propagation)/jit(continuous_node_prediction)/jit(predict_precision)/mul" source_file="/fs04/fc37/adam/projects/psilocybin-prl-analyses/src/prl_hgf/fitting/hierarchical_patrl.py" source_line=362}
  negate.95.3.clone.1 = f64[20]{0} negate(multiply.420.5.clone.1), metadata={op_name="jit(scan)/jit(main)/while/body/jit(beliefs_propagation)/jit(continuous_node_prediction)/jit(predict_precision)/neg" source_file="/fs04/fc37/adam/projects/psilocybin-prl-analyses/src/prl_hgf/fitting/hierarchical_patrl.py" source_line=362}
  select.257.5.clone.1 = f64[20]{0} select(bitcast.1874.52, param_47.30, broadcast.144.clone.87), metadata={op_name="jit(scan)/jit(main)/while/body/jit(_where)/select_n" source_file="/fs04/fc37/adam/projects/psilocybin-prl-analyses/src/prl_hgf/fitting/hierarchical_patrl.py" source_line=370}
  add.274.3.clone.1 = f64[20]{0} add(select.257.5.clone.1, param_3.695), metadata={op_name="jit(scan)/jit(main)/while/body/jit(beliefs_propagation)/add_any" source_file="/fs04/fc37/adam/projects/psilocybin-prl-analyses/src/prl_hgf/fitting/hierarchical_patrl.py" source_line=362}
  param_49.36 = f64[192,20]{1,0} parameter(49)
  dynamic-slice.119.9.clone.1 = f64[1,20]{1,0} dynamic-slice(param_49.36, select.223.27, constant_1230_8), dynamic_slice_sizes={1,20}, metadata={op_name="jit(scan)/jit(main)/while/body/dynamic_slice[slice_sizes=(1, 20)]" source_file="/fs04/fc37/adam/projects/psilocybin-prl-analyses/src/prl_hgf/fitting/hierarchical_patrl.py" source_line=378}
  bitcast.2654.9.clone.1 = f64[20]{0} bitcast(dynamic-slice.119.9.clone.1)
  multiply.421.9.clone.1 = f64[20]{0} multiply(add.274.3.clone.1, bitcast.2654.9.clone.1), metadata={op_name="jit(scan)/jit(main)/while/body/jit(beliefs_propagation)/jit(continuous_node_prediction)/mul" source_file="/fs04/fc37/adam/projects/psilocybin-prl-analyses/src/prl_hgf/fitting/hierarchical_patrl.py" source_line=362}
  negate.96.7.clone.1 = f64[20]{0} negate(multiply.421.9.clone.1), metadata={op_name="jit(scan)/jit(main)/while/body/jit(beliefs_propagation)/jit(continuous_node_prediction)/neg" source_file="/fs04/fc37/adam/projects/psilocybin-prl-analyses/src/prl_hgf/fitting/hierarchical_patrl.py" source_line=362}
  add.275.5.clone.1 = f64[20]{0} add(negate.95.3.clone.1, negate.96.7.clone.1), metadata={op_name="jit(scan)/jit(main)/while/body/jit(beliefs_propagation)/jit(continuous_node_prediction)/add_any" source_file="/fs04/fc37/adam/projects/psilocybin-prl-analyses/src/prl_hgf/fitting/hierarchical_patrl.py" source_line=362}
  add.276.3.clone.1 = f64[20]{0} add(param_48.31, add.275.5.clone.1), metadata={op_name="jit(scan)/jit(main)/while/body/jit(beliefs_propagation)/add_any" source_file="/fs04/fc37/adam/projects/psilocybin-prl-analyses/src/prl_hgf/fitting/hierarchical_patrl.py" source_line=362}
  add.277.1.clone.1 = f64[20]{0} add(select.251.3.clone.1, add.276.3.clone.1), metadata={op_name="jit(scan)/jit(main)/while/body/add_any" source_file="/fs04/fc37/adam/projects/psilocybin-prl-analyses/src/prl_hgf/fitting/hierarchical_patrl.py" source_line=362}
  select.259.1.clone.1 = f64[20]{0} select(bitcast.1874.52, broadcast.144.clone.87, param_42.22), metadata={op_name="jit(scan)/jit(main)/while/body/jit(_where)/select_n" source_file="/fs04/fc37/adam/projects/psilocybin-prl-analyses/src/prl_hgf/env/pat_rl_simulator.py" source_line=92}
  param_68.28 = pred[192,20,1]{2,1,0} parameter(68)
  dynamic-slice.139.1.clone.1 = pred[1,20,1]{2,1,0} dynamic-slice(param_68.28, select.223.27, constant_1230_8, constant_1230_8), dynamic_slice_sizes={1,20,1}, metadata={op_name="jit(scan)/jit(main)/while/body/dynamic_slice[slice_sizes=(1, 20, 1)]" source_file="/fs04/fc37/adam/projects/psilocybin-prl-analyses/src/prl_hgf/fitting/hierarchical_patrl.py" source_line=378}
  bitcast.3130.10.clone.1 = pred[20,1]{1,0} bitcast(dynamic-slice.139.1.clone.1)
  param_67.20 = f64[20,1]{1,0} parameter(67)
  broadcast.153.clone.6.clone.1 = f64[20,1]{1,0} broadcast(constant_58_20), dimensions={}
  select.285.5.clone.1 = f64[20,1]{1,0} select(bitcast.3130.10.clone.1, param_67.20, broadcast.153.clone.6.clone.1), metadata={op_name="jit(scan)/jit(main)/while/body/jit(_where)/select_n" source_file="/fs04/fc37/adam/projects/psilocybin-prl-analyses/src/prl_hgf/fitting/hierarchical_patrl.py" source_line=370}
  select.286.5.clone.1 = f64[20,1]{1,0} select(bitcast.3130.10.clone.1, broadcast.153.clone.6.clone.1, param_67.20), metadata={op_name="jit(scan)/jit(main)/while/body/jit(_where)/select_n" source_file="/fs04/fc37/adam/projects/psilocybin-prl-analyses/src/prl_hgf/fitting/hierarchical_patrl.py" source_line=370}
  add.309.3.clone.1 = f64[20,1]{1,0} add(select.285.5.clone.1, select.286.5.clone.1), metadata={op_name="jit(scan)/jit(main)/while/body/add_any" source_file="/fs04/fc37/adam/projects/psilocybin-prl-analyses/src/prl_hgf/fitting/hierarchical_patrl.py" source_line=370}
  param_66.22 = pred[192,20,1]{2,1,0} parameter(66)
  dynamic-slice.140.1.clone.1 = pred[1,20,1]{2,1,0} dynamic-slice(param_66.22, select.223.27, constant_1230_8, constant_1230_8), dynamic_slice_sizes={1,20,1}, metadata={op_name="jit(scan)/jit(main)/while/body/dynamic_slice[slice_sizes=(1, 20, 1)]" source_file="/fs04/fc37/adam/projects/psilocybin-prl-analyses/src/prl_hgf/fitting/hierarchical_patrl.py" source_line=378}
  bitcast.3155.7.clone.1 = pred[20,1]{1,0} bitcast(dynamic-slice.140.1.clone.1)
  param_65.24 = f64[192,20]{1,0} parameter(65)
  dynamic-slice.141.27.clone.1 = f64[1,20]{1,0} dynamic-slice(param_65.24, select.223.27, constant_1230_8), dynamic_slice_sizes={1,20}, metadata={op_name="jit(scan)/jit(main)/while/body/dynamic_slice[slice_sizes=(1, 20)]" source_file="/fs04/fc37/adam/projects/psilocybin-prl-analyses/src/prl_hgf/fitting/hierarchical_patrl.py" source_line=378}
  bitcast.3166.27.clone.1 = f64[20]{0} bitcast(dynamic-slice.141.27.clone.1)
  multiply.441.9.clone.1 = f64[20]{0} multiply(multiply.408.9.clone.1, bitcast.3166.27.clone.1), metadata={op_name="jit(scan)/jit(main)/while/body/jit(beliefs_propagation)/jit(continuous_node_posterior_update_ehgf)/jit(posterior_update_precision_continuous_node)/jit(precision_update)/mul" source_file="/fs04/fc37/adam/projects/psilocybin-prl-analyses/src/prl_hgf/fitting/hierarchical_patrl.py" source_line=362}
  multiply.442.9.clone.1 = f64[20]{0} multiply(multiply.441.9.clone.1, broadcast.149.clone.21.clone.1), metadata={op_name="jit(scan)/jit(main)/while/body/jit(beliefs_propagation)/jit(continuous_node_posterior_update_ehgf)/jit(posterior_update_precision_continuous_node)/jit(precision_update)/mul" source_file="/fs04/fc37/adam/projects/psilocybin-prl-analyses/src/prl_hgf/fitting/hierarchical_patrl.py" source_line=362}
  param_64.33 = f64[192,20]{1,0} parameter(64)
  dynamic-slice.142.7.clone.1 = f64[1,20]{1,0} dynamic-slice(param_64.33, select.223.27, constant_1230_8), dynamic_slice_sizes={1,20}, metadata={op_name="jit(scan)/jit(main)/while/body/dynamic_slice[slice_sizes=(1, 20)]" source_file="/fs04/fc37/adam/projects/psilocybin-prl-analyses/src/prl_hgf/fitting/hierarchical_patrl.py" source_line=378}
  bitcast.3179.7.clone.1 = f64[20]{0} bitcast(dynamic-slice.142.7.clone.1)
  multiply.443.7.clone.1 = f64[20]{0} multiply(multiply.442.9.clone.1, bitcast.3179.7.clone.1), metadata={op_name="jit(scan)/jit(main)/while/body/jit(beliefs_propagation)/jit(continuous_node_posterior_update_ehgf)/jit(posterior_update_precision_continuous_node)/jit(precision_update)/mul" source_file="/fs04/fc37/adam/projects/psilocybin-prl-analyses/src/prl_hgf/fitting/hierarchical_patrl.py" source_line=362}
  multiply.444.9.clone.1 = f64[20]{0} multiply(multiply.411.9.clone.1, bitcast.3166.27.clone.1), metadata={op_name="jit(scan)/jit(main)/while/body/jit(beliefs_propagation)/jit(continuous_node_posterior_update_ehgf)/jit(posterior_update_precision_continuous_node)/jit(precision_update)/mul" source_file="/fs04/fc37/adam/projects/psilocybin-prl-analyses/src/prl_hgf/fitting/hierarchical_patrl.py" source_line=362}
  add.310.7.clone.1 = f64[20]{0} add(multiply.443.7.clone.1, multiply.444.9.clone.1), metadata={op_name="jit(scan)/jit(main)/while/body/jit(beliefs_propagation)/jit(continuous_node_posterior_update_ehgf)/jit(posterior_update_precision_continuous_node)/jit(precision_update)/add_any" source_file="/fs04/fc37/adam/projects/psilocybin-prl-analyses/src/prl_hgf/fitting/hierarchical_patrl.py" source_line=362}
  multiply.445.9.clone.1 = f64[20]{0} multiply(multiply.414.9.clone.1, bitcast.3166.27.clone.1), metadata={op_name="jit(scan)/jit(main)/while/body/jit(beliefs_propagation)/jit(continuous_node_posterior_update_ehgf)/jit(posterior_update_precision_continuous_node)/jit(precision_update)/mul" source_file="/fs04/fc37/adam/projects/psilocybin-prl-analyses/src/prl_hgf/fitting/hierarchical_patrl.py" source_line=362}
  add.311.7.clone.1 = f64[20]{0} add(add.310.7.clone.1, multiply.445.9.clone.1), metadata={op_name="jit(scan)/jit(main)/while/body/jit(beliefs_propagation)/jit(continuous_node_posterior_update_ehgf)/jit(posterior_update_precision_continuous_node)/jit(precision_update)/add_any" source_file="/fs04/fc37/adam/projects/psilocybin-prl-analyses/src/prl_hgf/fitting/hierarchical_patrl.py" source_line=362}
  bitcast.3198.7.clone.1 = f64[20,1]{1,0} bitcast(add.311.7.clone.1)
  select.287.7.clone.1 = f64[20,1]{1,0} select(bitcast.3155.7.clone.1, bitcast.3198.7.clone.1, broadcast.153.clone.6.clone.1), metadata={op_name="jit(scan)/jit(main)/while/body/jit(beliefs_propagation)/jit(continuous_node_posterior_update_ehgf)/jit(posterior_update_precision_continuous_node)/select_n" source_file="/fs04/fc37/adam/projects/psilocybin-prl-analyses/src/prl_hgf/fitting/hierarchical_patrl.py" source_line=362}
  param_63.28 = f64[192,20]{1,0} parameter(63)
  dynamic-slice.143.7.clone.1 = f64[1,20]{1,0} dynamic-slice(param_63.28, select.223.27, constant_1230_8), dynamic_slice_sizes={1,20}, metadata={op_name="jit(scan)/jit(main)/while/body/dynamic_slice[slice_sizes=(1, 20)]" source_file="/fs04/fc37/adam/projects/psilocybin-prl-analyses/src/prl_hgf/fitting/hierarchical_patrl.py" source_line=378}
  bitcast.3212.7.clone.1 = f64[20]{0} bitcast(dynamic-slice.143.7.clone.1)
  multiply.446.7.clone.1 = f64[20]{0} multiply(multiply.416.9.clone.1, bitcast.3212.7.clone.1), metadata={op_name="jit(scan)/jit(main)/while/body/jit(beliefs_propagation)/jit(continuous_node_posterior_update_ehgf)/jit(posterior_update_mean_continuous_node)/mul" source_file="/fs04/fc37/adam/projects/psilocybin-prl-analyses/src/prl_hgf/fitting/hierarchical_patrl.py" source_line=362}
  bitcast.3215.5.clone.1 = f64[20,1]{1,0} bitcast(multiply.446.7.clone.1)
  add.312.5.clone.1 = f64[20,1]{1,0} add(select.287.7.clone.1, bitcast.3215.5.clone.1), metadata={op_name="jit(scan)/jit(main)/while/body/jit(beliefs_propagation)/jit(continuous_node_posterior_update_ehgf)/add_any" source_file="/fs04/fc37/adam/projects/psilocybin-prl-analyses/src/prl_hgf/fitting/hierarchical_patrl.py" source_line=362}
  param_62.30 = f64[20,1]{1,0} parameter(62)
  add.313.3.clone.1 = f64[20,1]{1,0} add(add.312.5.clone.1, param_62.30), metadata={op_name="jit(scan)/jit(main)/while/body/jit(beliefs_propagation)/add_any" source_file="/fs04/fc37/adam/projects/psilocybin-prl-analyses/src/prl_hgf/fitting/hierarchical_patrl.py" source_line=362}
  add.314.1.clone.1 = f64[20,1]{1,0} add(add.309.3.clone.1, add.313.3.clone.1), metadata={op_name="jit(scan)/jit(main)/while/body/add_any" source_file="/fs04/fc37/adam/projects/psilocybin-prl-analyses/src/prl_hgf/fitting/hierarchical_patrl.py" source_line=362}
  select.263.3.clone.1 = f64[20]{0} select(bitcast.1874.52, broadcast.144.clone.87, param_60.18), metadata={op_name="jit(scan)/jit(main)/while/body/jit(_where)/select_n" source_file="/fs04/fc37/adam/projects/psilocybin-prl-analyses/src/prl_hgf/env/pat_rl_simulator.py" source_line=92}
  add.279.1.clone.1 = f64[20]{0} add(select.263.3.clone.1, param_3.695), metadata={op_name="jit(scan)/jit(main)/while/body/add_any" source_file="/fs04/fc37/adam/projects/psilocybin-prl-analyses/src/prl_hgf/fitting/hierarchical_patrl.py" source_line=362}
  param_69.34 = f64[20]{0} parameter(69)
  select.260.3.clone.1 = f64[20]{0} select(bitcast.1874.52, broadcast.144.clone.87, param_69.34), metadata={op_name="jit(scan)/jit(main)/while/body/jit(_where)/select_n" source_file="/fs04/fc37/adam/projects/psilocybin-prl-analyses/src/prl_hgf/env/pat_rl_simulator.py" source_line=92}
  add.278.1.clone.1 = f64[20]{0} add(select.260.3.clone.1, param_3.695), metadata={op_name="jit(scan)/jit(main)/while/body/add_any" source_file="/fs04/fc37/adam/projects/psilocybin-prl-analyses/src/prl_hgf/fitting/hierarchical_patrl.py" source_line=362}
  select.231.1.clone.1 = f64[20]{0} select(bitcast.1874.52, broadcast.144.clone.87, param_61.17), metadata={op_name="jit(scan)/jit(main)/while/body/jit(_where)/select_n" source_file="/fs04/fc37/adam/projects/psilocybin-prl-analyses/src/prl_hgf/env/pat_rl_simulator.py" source_line=92}
  param_70.31 = f64[20]{0} parameter(70)
  select.224.1.clone.1 = f64[20]{0} select(bitcast.1874.52, broadcast.144.clone.87, param_70.31), metadata={op_name="jit(scan)/jit(main)/while/body/jit(_where)/select_n" source_file="/fs04/fc37/adam/projects/psilocybin-prl-analyses/src/prl_hgf/env/pat_rl_simulator.py" source_line=92}
  ROOT tuple.146 = (f64[20]{0}, f64[20]{0}, f64[20]{0}, f64[20]{0}, f64[20]{0}, /*index=5*/f64[20]{0}, f64[20]{0}, f64[20]{0}, f64[20]{0}, f64[20]{0}, /*index=10*/f64[20]{0}, f64[20,1]{1,0}, f64[20]{0}, f64[20]{0}, f64[20]{0}, /*index=15*/f64[20]{0}) tuple(add.300.1, add.308.1.clone.1, select.280.1.clone.1, select.279.1.clone.1, select.268.1.clone.1, /*index=5*/add.288.1.clone.1.clone.1, select.267.1.clone.1, add.283.1.clone.1, select.258.1.clone.1.clone.1, add.277.1.clone.1, /*index=10*/select.259.1.clone.1, add.314.1.clone.1, add.279.1.clone.1, add.278.1.clone.1, select.231.1.clone.1, /*index=15*/select.224.1.clone.1)
} // fused_add_select.1

fused_add.1 {
  param_0.688 = s64[] parameter(0)
  constant_1231_1 = s64[] constant(1)
  ROOT add.239.1 = s64[] add(param_0.688, constant_1231_1), metadata={op_name="jit(scan)/jit(main)/while/body/add" source_file="/fs04/fc37/adam/projects/psilocybin-prl-analyses/src/prl_hgf/fitting/hierarchical_patrl.py" source_line=378}
}

fused_dynamic_slice {
  param_0.620 = s32[192]{0} parameter(0)
  constant_96_6 = s64[] constant(191)
  param_1.972 = s64[] parameter(1)
  subtract.4.11 = s64[] subtract(constant_96_6, param_1.972), metadata={op_name="jit(scan)/jit(main)/while/body/sub" source_file="/fs04/fc37/adam/projects/psilocybin-prl-analyses/src/prl_hgf/fitting/hierarchical_patrl.py" source_line=378}
  constant_1230_18 = s64[] constant(0)
  compare.14.11 = pred[] compare(subtract.4.11, constant_1230_18), direction=LT, metadata={op_name="jit(scan)/jit(main)/while/body/lt" source_file="/fs04/fc37/adam/projects/psilocybin-prl-analyses/src/prl_hgf/fitting/hierarchical_patrl.py" source_line=378}
  constant_97_6 = s64[] constant(383)
  subtract.5.11 = s64[] subtract(constant_97_6, param_1.972), metadata={op_name="jit(scan)/jit(main)/while/body/add" source_file="/fs04/fc37/adam/projects/psilocybin-prl-analyses/src/prl_hgf/fitting/hierarchical_patrl.py" source_line=378}
  select.223.11 = s64[] select(compare.14.11, subtract.5.11, subtract.4.11), metadata={op_name="jit(scan)/jit(main)/while/body/select_n" source_file="/fs04/fc37/adam/projects/psilocybin-prl-analyses/src/prl_hgf/fitting/hierarchical_patrl.py" source_line=378}
  ROOT dynamic-slice.74.1 = s32[1]{0} dynamic-slice(param_0.620, select.223.11), dynamic_slice_sizes={1}, metadata={op_name="jit(scan)/jit(main)/while/body/dynamic_slice[slice_sizes=(1,)]" source_file="/fs04/fc37/adam/projects/psilocybin-prl-analyses/src/prl_hgf/fitting/hierarchical_patrl.py" source_line=378}
} // fused_dynamic_slice

fused_dynamic_slice.2 {
  param_0.624 = f64[192]{0} parameter(0)
  constant_96_8 = s64[] constant(191)
  param_1.974 = s64[] parameter(1)
  subtract.4.15 = s64[] subtract(constant_96_8, param_1.974), metadata={op_name="jit(scan)/jit(main)/while/body/sub" source_file="/fs04/fc37/adam/projects/psilocybin-prl-analyses/src/prl_hgf/fitting/hierarchical_patrl.py" source_line=378}
  constant_1230_2 = s64[] constant(0)
  compare.14.15 = pred[] compare(subtract.4.15, constant_1230_2), direction=LT, metadata={op_name="jit(scan)/jit(main)/while/body/lt" source_file="/fs04/fc37/adam/projects/psilocybin-prl-analyses/src/prl_hgf/fitting/hierarchical_patrl.py" source_line=378}
  constant_97_8 = s64[] constant(383)
  subtract.5.15 = s64[] subtract(constant_97_8, param_1.974), metadata={op_name="jit(scan)/jit(main)/while/body/add" source_file="/fs04/fc37/adam/projects/psilocybin-prl-analyses/src/prl_hgf/fitting/hierarchical_patrl.py" source_line=378}
  select.223.15 = s64[] select(compare.14.15, subtract.5.15, subtract.4.15), metadata={op_name="jit(scan)/jit(main)/while/body/select_n" source_file="/fs04/fc37/adam/projects/psilocybin-prl-analyses/src/prl_hgf/fitting/hierarchical_patrl.py" source_line=378}
  ROOT dynamic-slice.76.1 = f64[1]{0} dynamic-slice(param_0.624, select.223.15), dynamic_slice_sizes={1}, metadata={op_name="jit(scan)/jit(main)/while/body/dynamic_slice[slice_sizes=(1,)]" source_file="/fs04/fc37/adam/projects/psilocybin-prl-analyses/src/prl_hgf/fitting/hierarchical_patrl.py" source_line=378}
} // fused_dynamic_slice.2

fused_dynamic_slice.6 {
  param_0.647 = pred[192,20]{1,0} parameter(0)
  constant_96_27 = s64[] constant(191)
  param_1.978 = s64[] parameter(1)
  subtract.4.53 = s64[] subtract(constant_96_27, param_1.978), metadata={op_name="jit(scan)/jit(main)/while/body/sub" source_file="/fs04/fc37/adam/projects/psilocybin-prl-analyses/src/prl_hgf/fitting/hierarchical_patrl.py" source_line=378}
  constant_1230_13 = s64[] constant(0)
  compare.14.53 = pred[] compare(subtract.4.53, constant_1230_13), direction=LT, metadata={op_name="jit(scan)/jit(main)/while/body/lt" source_file="/fs04/fc37/adam/projects/psilocybin-prl-analyses/src/prl_hgf/fitting/hierarchical_patrl.py" source_line=378}
  constant_97_27 = s64[] constant(383)
  subtract.5.53 = s64[] subtract(constant_97_27, param_1.978), metadata={op_name="jit(scan)/jit(main)/while/body/add" source_file="/fs04/fc37/adam/projects/psilocybin-prl-analyses/src/prl_hgf/fitting/hierarchical_patrl.py" source_line=378}
  select.223.53 = s64[] select(compare.14.53, subtract.5.53, subtract.4.53), metadata={op_name="jit(scan)/jit(main)/while/body/select_n" source_file="/fs04/fc37/adam/projects/psilocybin-prl-analyses/src/prl_hgf/fitting/hierarchical_patrl.py" source_line=378}
  ROOT dynamic-slice.95.1 = pred[1,20]{1,0} dynamic-slice(param_0.647, select.223.53, constant_1230_13), dynamic_slice_sizes={1,20}, metadata={op_name="jit(scan)/jit(main)/while/body/dynamic_slice[slice_sizes=(1, 20)]" source_file="/fs04/fc37/adam/projects/psilocybin-prl-analyses/src/prl_hgf/fitting/hierarchical_patrl.py" source_line=378}
} // fused_dynamic_slice.6

fused_add {
  param_5.377 = pred[192,20]{1,0} parameter(5)
  constant_96_26 = s64[] constant(191)
  param_9.221 = s64[] parameter(9)
  subtract.4.51 = s64[] subtract(constant_96_26, param_9.221), metadata={op_name="jit(scan)/jit(main)/while/body/sub" source_file="/fs04/fc37/adam/projects/psilocybin-prl-analyses/src/prl_hgf/fitting/hierarchical_patrl.py" source_line=378}
  constant_1230_19 = s64[] constant(0)
  compare.14.51 = pred[] compare(subtract.4.51, constant_1230_19), direction=LT, metadata={op_name="jit(scan)/jit(main)/while/body/lt" source_file="/fs04/fc37/adam/projects/psilocybin-prl-analyses/src/prl_hgf/fitting/hierarchical_patrl.py" source_line=378}
  constant_97_26 = s64[] constant(383)
  subtract.5.51 = s64[] subtract(constant_97_26, param_9.221), metadata={op_name="jit(scan)/jit(main)/while/body/add" source_file="/fs04/fc37/adam/projects/psilocybin-prl-analyses/src/prl_hgf/fitting/hierarchical_patrl.py" source_line=378}
  select.223.51 = s64[] select(compare.14.51, subtract.5.51, subtract.4.51), metadata={op_name="jit(scan)/jit(main)/while/body/select_n" source_file="/fs04/fc37/adam/projects/psilocybin-prl-analyses/src/prl_hgf/fitting/hierarchical_patrl.py" source_line=378}
  dynamic-slice.72.9 = pred[1,20]{1,0} dynamic-slice(param_5.377, select.223.51, constant_1230_19), dynamic_slice_sizes={1,20}, metadata={op_name="jit(scan)/jit(main)/while/body/dynamic_slice[slice_sizes=(1, 20)]" source_file="/fs04/fc37/adam/projects/psilocybin-prl-analyses/src/prl_hgf/fitting/hierarchical_patrl.py" source_line=378}
  bitcast.1874.114 = pred[20]{0} bitcast(dynamic-slice.72.9)
  param_2.806 = f64[20]{0} parameter(2)
  constant_58_11 = f64[] constant(0)
  broadcast.144.clone.120 = f64[20]{0} broadcast(constant_58_11), dimensions={}
  select.233.5 = f64[20]{0} select(bitcast.1874.114, param_2.806, broadcast.144.clone.120), metadata={op_name="jit(scan)/jit(main)/while/body/jit(_where)/select_n" source_file="/fs04/fc37/adam/projects/psilocybin-prl-analyses/src/prl_hgf/env/pat_rl_simulator.py" source_line=92}
  param_23.143 = f64[20]{0} parameter(23)
  select.234.7 = f64[20]{0} select(bitcast.1874.114, param_23.143, broadcast.144.clone.120), metadata={op_name="jit(scan)/jit(main)/while/body/jit(_where)/select_n" source_file="/fs04/fc37/adam/projects/psilocybin-prl-analyses/src/prl_hgf/env/pat_rl_simulator.py" source_line=92}
  param_22.140 = pred[192,20]{1,0} parameter(22)
  dynamic-slice.80.11 = pred[1,20]{1,0} dynamic-slice(param_22.140, select.223.51, constant_1230_19), dynamic_slice_sizes={1,20}, metadata={op_name="jit(scan)/jit(main)/while/body/dynamic_slice[slice_sizes=(1, 20)]" source_file="/fs04/fc37/adam/projects/psilocybin-prl-analyses/src/prl_hgf/fitting/hierarchical_patrl.py" source_line=378}
  bitcast.2020.31 = pred[20]{0} bitcast(dynamic-slice.80.11)
  param_21.147 = f64[192,20]{1,0} parameter(21)
  dynamic-slice.81.9 = f64[1,20]{1,0} dynamic-slice(param_21.147, select.223.51, constant_1230_19), dynamic_slice_sizes={1,20}, metadata={op_name="jit(scan)/jit(main)/while/body/dynamic_slice[slice_sizes=(1, 20)]" source_file="/fs04/fc37/adam/projects/psilocybin-prl-analyses/src/prl_hgf/fitting/hierarchical_patrl.py" source_line=378}
  bitcast.2029.9 = f64[20]{0} bitcast(dynamic-slice.81.9)
  param_20.166 = pred[192,20]{1,0} parameter(20)
  dynamic-slice.82.16 = pred[1,20]{1,0} dynamic-slice(param_20.166, select.223.51, constant_1230_19), dynamic_slice_sizes={1,20}, metadata={op_name="jit(scan)/jit(main)/while/body/dynamic_slice[slice_sizes=(1, 20)]" source_file="/fs04/fc37/adam/projects/psilocybin-prl-analyses/src/prl_hgf/fitting/hierarchical_patrl.py" source_line=378}
  bitcast.2038.27 = pred[20]{0} bitcast(dynamic-slice.82.16)
  param_19.155 = s32[192,20]{1,0} parameter(19)
  dynamic-slice.83.32 = s32[1,20]{1,0} dynamic-slice(param_19.155, select.223.51, constant_1230_19), dynamic_slice_sizes={1,20}, metadata={op_name="jit(scan)/jit(main)/while/body/dynamic_slice[slice_sizes=(1, 20)]" source_file="/fs04/fc37/adam/projects/psilocybin-prl-analyses/src/prl_hgf/fitting/hierarchical_patrl.py" source_line=378}
  constant_68_7 = s32[] constant(1)
  broadcast.145.27 = s32[1,20]{1,0} broadcast(constant_68_7), dimensions={}
  compare.15.27 = pred[1,20]{1,0} compare(dynamic-slice.83.32, broadcast.145.27), direction=EQ, metadata={op_name="jit(scan)/jit(main)/while/body/jit(beliefs_propagation)/jit(continuous_node_posterior_update_ehgf)/jit(posterior_update_precision_continuous_node)/eq" source_file="/fs04/fc37/adam/projects/psilocybin-prl-analyses/src/prl_hgf/fitting/hierarchical_patrl.py" source_line=362}
  bitcast.2050.29 = pred[20]{0} bitcast(compare.15.27)
  param_18.181 = f64[20]{0} parameter(18)
  select.235.41 = f64[20]{0} select(bitcast.1874.114, param_18.181, broadcast.144.clone.120), metadata={op_name="jit(scan)/jit(main)/while/body/jit(_where)/select_n" source_file="/fs04/fc37/adam/projects/psilocybin-prl-analyses/src/prl_hgf/env/pat_rl_simulator.py" source_line=92}
  select.236.29 = f64[20]{0} select(bitcast.2050.29, select.235.41, broadcast.144.clone.120), metadata={op_name="jit(scan)/jit(main)/while/body/jit(beliefs_propagation)/jit(continuous_node_posterior_update_ehgf)/jit(posterior_update_precision_continuous_node)/select_n" source_file="/fs04/fc37/adam/projects/psilocybin-prl-analyses/src/prl_hgf/fitting/hierarchical_patrl.py" source_line=362}
  select.239.27 = f64[20]{0} select(bitcast.2038.27, select.236.29, broadcast.144.clone.120), metadata={op_name="jit(scan)/jit(main)/while/body/jit(beliefs_propagation)/jit(continuous_node_posterior_update_ehgf)/jit(posterior_update_precision_continuous_node)/jit(precision_update)/jit(_where)/select_n" source_file="/fs04/fc37/adam/projects/psilocybin-prl-analyses/src/prl_hgf/env/pat_rl_simulator.py" source_line=92}
  param_17.165 = f64[192,20]{1,0} parameter(17)
  dynamic-slice.84.11 = f64[1,20]{1,0} dynamic-slice(param_17.165, select.223.51, constant_1230_19), dynamic_slice_sizes={1,20}, metadata={op_name="jit(scan)/jit(main)/while/body/dynamic_slice[slice_sizes=(1, 20)]" source_file="/fs04/fc37/adam/projects/psilocybin-prl-analyses/src/prl_hgf/fitting/hierarchical_patrl.py" source_line=378}
  bitcast.2070.11 = f64[20]{0} bitcast(dynamic-slice.84.11)
  multiply.375.11 = f64[20]{0} multiply(select.239.27, bitcast.2070.11), metadata={op_name="jit(scan)/jit(main)/while/body/jit(beliefs_propagation)/jit(continuous_node_posterior_update_ehgf)/jit(posterior_update_precision_continuous_node)/jit(precision_update)/mul" source_file="/fs04/fc37/adam/projects/psilocybin-prl-analyses/src/prl_hgf/fitting/hierarchical_patrl.py" source_line=362}
  negate.87.14 = f64[20]{0} negate(multiply.375.11), metadata={op_name="jit(scan)/jit(main)/while/body/jit(beliefs_propagation)/jit(continuous_node_posterior_update_ehgf)/jit(posterior_update_precision_continuous_node)/jit(precision_update)/neg" source_file="/fs04/fc37/adam/projects/psilocybin-prl-analyses/src/prl_hgf/fitting/hierarchical_patrl.py" source_line=362}
  multiply.376.9 = f64[20]{0} multiply(bitcast.2029.9, negate.87.14), metadata={op_name="jit(scan)/jit(main)/while/body/jit(beliefs_propagation)/jit(continuous_node_posterior_update_ehgf)/jit(posterior_update_precision_continuous_node)/jit(precision_update)/mul" source_file="/fs04/fc37/adam/projects/psilocybin-prl-analyses/src/prl_hgf/fitting/hierarchical_patrl.py" source_line=362}
  param_16.142 = f64[192,20]{1,0} parameter(16)
  dynamic-slice.85.7 = f64[1,20]{1,0} dynamic-slice(param_16.142, select.223.51, constant_1230_19), dynamic_slice_sizes={1,20}, metadata={op_name="jit(scan)/jit(main)/while/body/dynamic_slice[slice_sizes=(1, 20)]" source_file="/fs04/fc37/adam/projects/psilocybin-prl-analyses/src/prl_hgf/fitting/hierarchical_patrl.py" source_line=378}
  bitcast.2082.7 = f64[20]{0} bitcast(dynamic-slice.85.7)
  multiply.377.7 = f64[20]{0} multiply(bitcast.2082.7, multiply.375.11), metadata={op_name="jit(scan)/jit(main)/while/body/jit(beliefs_propagation)/jit(continuous_node_posterior_update_ehgf)/jit(posterior_update_precision_continuous_node)/jit(precision_update)/mul" source_file="/fs04/fc37/adam/projects/psilocybin-prl-analyses/src/prl_hgf/fitting/hierarchical_patrl.py" source_line=362}
  add.241.7 = f64[20]{0} add(multiply.376.9, multiply.377.7), metadata={op_name="jit(scan)/jit(main)/while/body/jit(beliefs_propagation)/jit(continuous_node_posterior_update_ehgf)/jit(posterior_update_precision_continuous_node)/jit(precision_update)/add_any" source_file="/fs04/fc37/adam/projects/psilocybin-prl-analyses/src/prl_hgf/fitting/hierarchical_patrl.py" source_line=362}
  select.240.9 = f64[20]{0} select(bitcast.2020.31, add.241.7, broadcast.144.clone.120), metadata={op_name="jit(scan)/jit(main)/while/body/jit(beliefs_propagation)/jit(continuous_node_posterior_update_ehgf)/jit(posterior_update_precision_continuous_node)/select_n" source_file="/fs04/fc37/adam/projects/psilocybin-prl-analyses/src/prl_hgf/fitting/hierarchical_patrl.py" source_line=362}
  param_15.155 = f64[192,20]{1,0} parameter(15)
  dynamic-slice.86.7 = f64[1,20]{1,0} dynamic-slice(param_15.155, select.223.51, constant_1230_19), dynamic_slice_sizes={1,20}, metadata={op_name="jit(scan)/jit(main)/while/body/dynamic_slice[slice_sizes=(1, 20)]" source_file="/fs04/fc37/adam/projects/psilocybin-prl-analyses/src/prl_hgf/fitting/hierarchical_patrl.py" source_line=378}
  bitcast.2096.7 = f64[20]{0} bitcast(dynamic-slice.86.7)
  param_14.180 = f64[20]{0} parameter(14)
  select.241.27 = f64[20]{0} select(bitcast.1874.114, param_14.180, broadcast.144.clone.120), metadata={op_name="jit(scan)/jit(main)/while/body/jit(_where)/select_n" source_file="/fs04/fc37/adam/projects/psilocybin-prl-analyses/src/prl_hgf/env/pat_rl_simulator.py" source_line=92}
  param_13.191 = f64[192,20]{1,0} parameter(13)
  dynamic-slice.87.17 = f64[1,20]{1,0} dynamic-slice(param_13.191, select.223.51, constant_1230_19), dynamic_slice_sizes={1,20}, metadata={op_name="jit(scan)/jit(main)/while/body/dynamic_slice[slice_sizes=(1, 20)]" source_file="/fs04/fc37/adam/projects/psilocybin-prl-analyses/src/prl_hgf/fitting/hierarchical_patrl.py" source_line=378}
  bitcast.2114.17 = f64[20]{0} bitcast(dynamic-slice.87.17)
  multiply.378.17 = f64[20]{0} multiply(select.241.27, bitcast.2114.17), metadata={op_name="jit(scan)/jit(main)/while/body/jit(beliefs_propagation)/jit(continuous_node_posterior_update_ehgf)/jit(posterior_update_mean_continuous_node)/mul" source_file="/fs04/fc37/adam/projects/psilocybin-prl-analyses/src/prl_hgf/fitting/hierarchical_patrl.py" source_line=362}
  param_12.203 = f64[192,20]{1,0} parameter(12)
  dynamic-slice.88.13 = f64[1,20]{1,0} dynamic-slice(param_12.203, select.223.51, constant_1230_19), dynamic_slice_sizes={1,20}, metadata={op_name="jit(scan)/jit(main)/while/body/dynamic_slice[slice_sizes=(1, 20)]" source_file="/fs04/fc37/adam/projects/psilocybin-prl-analyses/src/prl_hgf/fitting/hierarchical_patrl.py" source_line=378}
  bitcast.2124.13 = f64[20]{0} bitcast(dynamic-slice.88.13)
  multiply.379.13 = f64[20]{0} multiply(multiply.378.17, bitcast.2124.13), metadata={op_name="jit(scan)/jit(main)/while/body/jit(beliefs_propagation)/jit(continuous_node_posterior_update_ehgf)/jit(posterior_update_mean_continuous_node)/mul" source_file="/fs04/fc37/adam/projects/psilocybin-prl-analyses/src/prl_hgf/fitting/hierarchical_patrl.py" source_line=362}
  multiply.380.7 = f64[20]{0} multiply(bitcast.2096.7, multiply.379.13), metadata={op_name="jit(scan)/jit(main)/while/body/jit(beliefs_propagation)/jit(continuous_node_posterior_update_ehgf)/jit(posterior_update_mean_continuous_node)/mul" source_file="/fs04/fc37/adam/projects/psilocybin-prl-analyses/src/prl_hgf/fitting/hierarchical_patrl.py" source_line=362}
  add.242.7 = f64[20]{0} add(select.240.9, multiply.380.7), metadata={op_name="jit(scan)/jit(main)/while/body/jit(beliefs_propagation)/jit(continuous_node_posterior_update_ehgf)/add_any" source_file="/fs04/fc37/adam/projects/psilocybin-prl-analyses/src/prl_hgf/fitting/hierarchical_patrl.py" source_line=362}
  add.243.5 = f64[20]{0} add(select.234.7, add.242.7), metadata={op_name="jit(scan)/jit(main)/while/body/jit(beliefs_propagation)/add_any" source_file="/fs04/fc37/adam/projects/psilocybin-prl-analyses/src/prl_hgf/fitting/hierarchical_patrl.py" source_line=362}
  param_3.686 = f64[192,20]{1,0} parameter(3)
  dynamic-slice.89.3 = f64[1,20]{1,0} dynamic-slice(param_3.686, select.223.51, constant_1230_19), dynamic_slice_sizes={1,20}, metadata={op_name="jit(scan)/jit(main)/while/body/dynamic_slice[slice_sizes=(1, 20)]" source_file="/fs04/fc37/adam/projects/psilocybin-prl-analyses/src/prl_hgf/fitting/hierarchical_patrl.py" source_line=378}
  bitcast.2137.3 = f64[20]{0} bitcast(dynamic-slice.89.3)
  multiply.381.3 = f64[20]{0} multiply(add.243.5, bitcast.2137.3), metadata={op_name="jit(scan)/jit(main)/while/body/jit(beliefs_propagation)/jit(continuous_node_prediction_error)/jit(continuous_node_volatility_prediction_error)/mul" source_file="/fs04/fc37/adam/projects/psilocybin-prl-analyses/src/prl_hgf/fitting/hierarchical_patrl.py" source_line=362}
  param_1.950 = f64[192,20]{1,0} parameter(1)
  dynamic-slice.90.9 = f64[1,20]{1,0} dynamic-slice(param_1.950, select.223.51, constant_1230_19), dynamic_slice_sizes={1,20}, metadata={op_name="jit(scan)/jit(main)/while/body/dynamic_slice[slice_sizes=(1, 20)]" source_file="/fs04/fc37/adam/projects/psilocybin-prl-analyses/src/prl_hgf/fitting/hierarchical_patrl.py" source_line=378}
  bitcast.2147.9 = f64[20]{0} bitcast(dynamic-slice.90.9)
  multiply.382.7 = f64[20]{0} multiply(multiply.381.3, bitcast.2147.9), metadata={op_name="jit(scan)/jit(main)/while/body/jit(beliefs_propagation)/jit(continuous_node_prediction_error)/jit(continuous_node_volatility_prediction_error)/mul" source_file="/fs04/fc37/adam/projects/psilocybin-prl-analyses/src/prl_hgf/fitting/hierarchical_patrl.py" source_line=362}
  negate.88.5 = f64[20]{0} negate(multiply.382.7), metadata={op_name="jit(scan)/jit(main)/while/body/jit(beliefs_propagation)/jit(continuous_node_prediction_error)/jit(continuous_node_volatility_prediction_error)/neg" source_file="/fs04/fc37/adam/projects/psilocybin-prl-analyses/src/prl_hgf/fitting/hierarchical_patrl.py" source_line=362}
…
  call = (s32[], f64[192,20]{1,0}, f64[192]{0}, f64[], f64[192,20]{1,0}, /*index=5*/f64[192,20]{1,0}, f64[192,20]{1,0}, pred[192,20]{1,0}, f64[192,20]{1,0}, f64[192,20]{1,0}, /*index=10*/f64[192,20]{1,0}, f64[192,20]{1,0}, f64[192]{0}, f64[192,20]{1,0}, f64[192,20]{1,0}, /*index=15*/f64[192,20]{1,0}, f64[192,20]{1,0}, f64[192,20]{1,0}, f64[192,20]{1,0}, f64[192,20]{1,0}, /*index=20*/pred[192,20]{1,0}, f64[192,20]{1,0}, f64[192,20]{1,0}, f64[192,20]{1,0}, f64[192,20]{1,0}, /*index=25*/pred[192,20,1]{2,1,0}, f64[192,20]{1,0}, f64[192,20]{1,0}, f64[192,20]{1,0}, f64[192,20]{1,0}, /*index=30*/f64[192,20]{1,0}, f64[192,20]{1,0}, f64[192,20]{1,0}, pred[192,20,1]{2,1,0}, f64[20]{0}, /*index=35*/f64[20]{0}, f64[20]{0}, f64[20]{0}, f64[20]{0}, f64[20]{0}, /*index=40*/f64[20]{0}, f64[20]{0}, f64[20]{0}, f64[20]{0}, f64[20]{0}, /*index=45*/f64[20]{0}, f64[20]{0}, f64[20,1]{1,0}, f64[20]{0}, f64[20]{0}, /*index=50*/f64[20]{0}, f64[20]{0}, (f64[20]{0}, f64[], pred[20]{0}, f64[20]{0}), f64[1,20]{1,0}) call(get-tuple-element.752, get-tuple-element.562, arg_tuple.1135.0, get-tuple-element.741, get-tuple-element.570, /*index=5*/get-tuple-element.798, get-tuple-element.763, get-tuple-element.569, get-tuple-element.726, get-tuple-element.768, /*index=10*/get-tuple-element.594, get-tuple-element.773, get-tuple-element.778, get-tuple-element.599, get-tuple-element.772, /*index=15*/get-tuple-element.792, get-tuple-element.796, get-tuple-element.600, get-tuple-element.779, get-tuple-element.797, /*index=20*/get-tuple-element.795, get-tuple-element.785, get-tuple-element.595), to_apply=command_buffer
  get-tuple-element.866 = s32[] get-tuple-element(call), index=0
  get-tuple-element.867 = f64[192,20]{1,0} get-tuple-element(call), index=1
  get-tuple-element.868 = f64[192]{0} get-tuple-element(call), index=2
  get-tuple-element.869 = f64[] get-tuple-element(call), index=3
  get-tuple-element.870 = f64[192,20]{1,0} get-tuple-element(call), index=4
  get-tuple-element.871 = f64[192,20]{1,0} get-tuple-element(call), index=5
  get-tuple-element.872 = f64[192,20]{1,0} get-tuple-element(call), index=6
  get-tuple-element.879 = pred[192,20]{1,0} get-tuple-element(call), index=7
  get-tuple-element.880 = f64[192,20]{1,0} get-tuple-element(call), index=8
  get-tuple-element.881 = f64[192,20]{1,0} get-tuple-element(call), index=9
  get-tuple-element.882 = f64[192,20]{1,0} get-tuple-element(call), index=10
  get-tuple-element.883 = f64[192,20]{1,0} get-tuple-element(call), index=11
  get-tuple-element.888 = f64[192]{0} get-tuple-element(call), index=12
  get-tuple-element.889 = f64[192,20]{1,0} get-tuple-element(call), index=13
  get-tuple-element.890 = f64[192,20]{1,0} get-tuple-element(call), index=14
  get-tuple-element.891 = f64[192,20]{1,0} get-tuple-element(call), index=15
  get-tuple-element.892 = f64[192,20]{1,0} get-tuple-element(call), index=16
  get-tuple-element.914 = f64[192,20]{1,0} get-tuple-element(call), index=17
  get-tuple-element.915 = f64[192,20]{1,0} get-tuple-element(call), index=18
  get-tuple-element.916 = f64[192,20]{1,0} get-tuple-element(call), index=19
  get-tuple-element.917 = pred[192,20]{1,0} get-tuple-element(call), index=20
  get-tuple-element.918 = f64[192,20]{1,0} get-tuple-element(call), index=21
  get-tuple-element.919 = f64[192,20]{1,0} get-tuple-element(call), index=22
  get-tuple-element.920 = f64[192,20]{1,0} get-tuple-element(call), index=23
  get-tuple-element.921 = f64[192,20]{1,0} get-tuple-element(call), index=24
  get-tuple-element.922 = pred[192,20,1]{2,1,0} get-tuple-element(call), index=25
  get-tuple-element.923 = f64[192,20]{1,0} get-tuple-element(call), index=26
  get-tuple-element.924 = f64[192,20]{1,0} get-tuple-element(call), index=27
  get-tuple-element.925 = f64[192,20]{1,0} get-tuple-element(call), index=28
  get-tuple-element.926 = f64[192,20]{1,0} get-tuple-element(call), index=29
  get-tuple-element.927 = f64[192,20]{1,0} get-tuple-element(call), index=30
  get-tuple-element.928 = f64[192,20]{1,0} get-tuple-element(call), index=31
  get-tuple-element.929 = f64[192,20]{1,0} get-tuple-element(call), index=32
  get-tuple-element.932 = pred[192,20,1]{2,1,0} get-tuple-element(call), index=33
  get-tuple-element.933 = f64[20]{0} get-tuple-element(call), index=34
  get-tuple-element.934 = f64[20]{0} get-tuple-element(call), index=35
  get-tuple-element.935 = f64[20]{0} get-tuple-element(call), index=36
  get-tuple-element.936 = f64[20]{0} get-tuple-element(call), index=37
  get-tuple-element.941 = f64[20]{0} get-tuple-element(call), index=38
  get-tuple-element.942 = f64[20]{0} get-tuple-element(call), index=39
  get-tuple-element.943 = f64[20]{0} get-tuple-element(call), index=40
  get-tuple-element.944 = f64[20]{0} get-tuple-element(call), index=41
  get-tuple-element.945 = f64[20]{0} get-tuple-element(call), index=42
  get-tuple-element.949 = f64[20]{0} get-tuple-element(call), index=43
  get-tuple-element.950 = f64[20]{0} get-tuple-element(call), index=44
  get-tuple-element.951 = f64[20]{0} get-tuple-element(call), index=45
  get-tuple-element.952 = f64[20]{0} get-tuple-element(call), index=46
  get-tuple-element.953 = f64[20,1]{1,0} get-tuple-element(call), index=47
  get-tuple-element.954 = f64[20]{0} get-tuple-element(call), index=48
  get-tuple-element.955 = f64[20]{0} get-tuple-element(call), index=49
  get-tuple-element.956 = f64[20]{0} get-tuple-element(call), index=50
  get-tuple-element.957 = f64[20]{0} get-tuple-element(call), index=51
  get-tuple-element.958 = (f64[20]{0}, f64[], pred[20]{0}, f64[20]{0}) get-tuple-element(call), index=52
  get-tuple-element.959 = f64[1,20]{1,0} get-tuple-element(call), index=53
  bitcast.1960.0 = f64[20]{0} bitcast(get-tuple-element.959)
  tuple.91.0 = (f64[20]{0}, f64[], f64[20]{0}, f64[20]{0}, f64[20]{0}, /*index=5*/f64[20]{0}) tuple(bitcast.1960.0, get-tuple-element.869, get-tuple-element.957, get-tuple-element.956, get-tuple-element.955, /*index=5*/get-tuple-element.954), metadata={op_name="jit(scan)/jit(main)/while/body/jit(beliefs_propagation)/jit(continuous_node_posterior_update)/jit(posterior_update_precision_continuous_node)/cond" source_file="/fs04/fc37/adam/projects/psilocybin-prl-analyses/src/prl_hgf/fitting/hierarchical_patrl.py" source_line=362}
  conditional.3.0 = (f64[20]{0}, f64[20]{0}, f64[20]{0}, f64[20]{0}, f64[20]{0}, /*index=5*/f64[20]{0}, f64[20,1]{1,0}) conditional(get-tuple-element.866, tuple.91.0, get-tuple-element.958), branch_computations={region_1.514.clone, region_2.547.clone}, metadata={op_name="jit(scan)/jit(main)/while/body/jit(beliefs_propagation)/jit(continuous_node_posterior_update)/jit(posterior_update_precision_continuous_node)/cond" source_file="/fs04/fc37/adam/projects/psilocybin-prl-analyses/src/prl_hgf/fitting/hierarchical_patrl.py" source_line=362}
  get-tuple-element.285.0 = f64[20]{0} get-tuple-element(conditional.3.0), index=0, metadata={op_name="jit(scan)/jit(main)/while/body/jit(beliefs_propagation)/jit(continuous_node_posterior_update)/jit(posterior_update_precision_continuous_node)/cond" source_file="/fs04/fc37/adam/projects/psilocybin-prl-analyses/src/prl_hgf/fitting/hierarchical_patrl.py" source_line=362}
  get-tuple-element.301.0 = f64[20]{0} get-tuple-element(conditional.3.0), index=2, metadata={op_name="jit(scan)/jit(main)/while/body/jit(beliefs_propagation)/jit(continuous_node_posterior_update)/jit(posterior_update_precision_continuous_node)/cond" source_file="/fs04/fc37/adam/projects/psilocybin-prl-analyses/src/prl_hgf/fitting/hierarchical_patrl.py" source_line=362}
  get-tuple-element.338.0 = f64[20,1]{1,0} get-tuple-element(conditional.3.0), index=6, metadata={op_name="jit(scan)/jit(main)/while/body/jit(beliefs_propagation)/jit(continuous_node_posterior_update)/jit(posterior_update_precision_continuous_node)/cond" source_file="/fs04/fc37/adam/projects/psilocybin-prl-analyses/src/prl_hgf/fitting/hierarchical_patrl.py" source_line=362}
  get-tuple-element.315.0 = f64[20]{0} get-tuple-element(conditional.3.0), index=4, metadata={op_name="jit(scan)/jit(main)/while/body/jit(beliefs_propagation)/jit(continuous_node_posterior_update)/jit(posterior_update_precision_continuous_node)/cond" source_file="/fs04/fc37/adam/projects/psilocybin-prl-analyses/src/prl_hgf/fitting/hierarchical_patrl.py" source_line=362}
  get-tuple-element.317.0 = f64[20]{0} get-tuple-element(conditional.3.0), index=5, metadata={op_name="jit(scan)/jit(main)/while/body/jit(beliefs_propagation)/jit(continuous_node_posterior_update)/jit(posterior_update_precision_continuous_node)/cond" source_file="/fs04/fc37/adam/projects/psilocybin-prl-analyses/src/prl_hgf/fitting/hierarchical_patrl.py" source_line=362}
  get-tuple-element.264.0 = f64[20]{0} get-tuple-element(conditional.3.0), index=1, metadata={op_name="jit(scan)/jit(main)/while/body/jit(beliefs_propagation)/jit(continuous_node_posterior_update)/jit(posterior_update_precision_continuous_node)/cond" source_file="/fs04/fc37/adam/projects/psilocybin-prl-analyses/src/prl_hgf/fitting/hierarchical_patrl.py" source_line=362}
  get-tuple-element.311.0 = f64[20]{0} get-tuple-element(conditional.3.0), index=3, metadata={op_name="jit(scan)/jit(main)/while/body/jit(beliefs_propagation)/jit(continuous_node_posterior_update)/jit(posterior_update_precision_continuous_node)/cond" source_file="/fs04/fc37/adam/projects/psilocybin-prl-analyses/src/prl_hgf/fitting/hierarchical_patrl.py" source_line=362}
  loop_add_select_fusion = (f64[20]{0}, f64[20]{0}, f64[20]{0}, f64[20]{0}, f64[20]{0}) fusion(get-tuple-element.936, get-tuple-element.798, get-tuple-element.562, get-tuple-element.285.0, get-tuple-element.745, /*index=5*/get-tuple-element.746, get-tuple-element.750, get-tuple-element.751, get-tuple-element.264.0, get-tuple-element.760, /*index=10*/get-tuple-element.763, get-tuple-element.880, get-tuple-element.934, get-tuple-element.933, get-tuple-element.747, /*index=15*/get-tuple-element.748, get-tuple-element.749, get-tuple-element.888, get-tuple-element.883, get-tuple-element.935, /*index=20*/get-tuple-element.563, get-tuple-element.768, get-tuple-element.773, get-tuple-element.778, get-tuple-element.599, /*index=25*/get-tuple-element.772, get-tuple-element.792, get-tuple-element.796, get-tuple-element.600, get-tuple-element.779, /*index=30*/get-tuple-element.797, get-tuple-element.795, get-tuple-element.785, get-tuple-element.595, get-tuple-element.741, /*index=35*/get-tuple-element.594, get-tuple-element.737, get-tuple-element.569, get-tuple-element.726), kind=kLoop, calls=fused_add_select, control-predecessors={call}, metadata={op_name="jit(scan)/jit(main)/while/body/jit(_where)/select_n" source_file="/fs04/fc37/adam/projects/psilocybin-prl-analyses/src/prl_hgf/env/pat_rl_simulator.py" source_line=92}
  get-tuple-element.703 = f64[20]{0} get-tuple-element(loop_add_select_fusion), index=4, metadata={op_name="jit(scan)/jit(main)/while/body/jit(_where)/select_n" source_file="/fs04/fc37/adam/projects/psilocybin-prl-analyses/src/prl_hgf/env/pat_rl_simulator.py" source_line=92}
  get-tuple-element.704 = f64[20]{0} get-tuple-element(loop_add_select_fusion), index=3, metadata={op_name="jit(scan)/jit(main)/while/body/jit(_where)/select_n" source_file="/fs04/fc37/adam/projects/psilocybin-prl-analyses/src/prl_hgf/env/pat_rl_simulator.py" source_line=92}
  get-tuple-element.705 = f64[20]{0} get-tuple-element(loop_add_select_fusion), index=2, metadata={op_name="jit(scan)/jit(main)/while/body/jit(_where)/select_n" source_file="/fs04/fc37/adam/projects/psilocybin-prl-analyses/src/prl_hgf/env/pat_rl_simulator.py" source_line=92}
  get-tuple-element.708 = f64[20]{0} get-tuple-element(loop_add_select_fusion), index=1, metadata={op_name="jit(scan)/jit(main)/while/body/jit(_where)/select_n" source_file="/fs04/fc37/adam/projects/psilocybin-prl-analyses/src/prl_hgf/env/pat_rl_simulator.py" source_line=92}
  get-tuple-element.706 = f64[20]{0} get-tuple-element(loop_add_select_fusion), index=0, metadata={op_name="jit(scan)/jit(main)/while/body/jit(_where)/select_n" source_file="/fs04/fc37/adam/projects/psilocybin-prl-analyses/src/prl_hgf/env/pat_rl_simulator.py" source_line=92}
  loop_add_select_fusion.1 = (f64[20]{0}, f64[20]{0}, f64[20]{0}, f64[20]{0}, f64[20]{0}, /*index=5*/f64[20]{0}, f64[20]{0}, f64[20]{0}, f64[20]{0}, f64[20]{0}, /*index=10*/f64[20]{0}, f64[20,1]{1,0}, f64[20]{0}, f64[20]{0}, f64[20]{0}, /*index=15*/f64[20]{0}) fusion(get-tuple-element.600, get-tuple-element.727, get-tuple-element.734, get-tuple-element.285.0, get-tuple-element.918, /*index=5*/get-tuple-element.950, get-tuple-element.917, get-tuple-element.798, get-tuple-element.921, get-tuple-element.779, /*index=10*/get-tuple-element.562, get-tuple-element.735, get-tuple-element.951, get-tuple-element.733, get-tuple-element.916, /*index=15*/get-tuple-element.778, get-tuple-element.599, get-tuple-element.915, get-tuple-element.797, get-tuple-element.785, /*index=20*/get-tuple-element.949, get-tuple-element.730, get-tuple-element.732, get-tuple-element.731, get-tuple-element.729, /*index=25*/get-tuple-element.920, get-tuple-element.919, get-tuple-element.952, get-tuple-element.945, get-tuple-element.728, /*index=30*/get-tuple-element.317.0, get-tuple-element.739, get-tuple-element.741, get-tuple-element.914, get-tuple-element.773, /*index=35*/get-tuple-element.892, get-tuple-element.925, get-tuple-element.926, get-tuple-element.924, get-tuple-element.927, /*index=40*/get-tuple-element.796, get-tuple-element.929, get-tuple-element.943, get-tuple-element.740, get-tuple-element.738, /*index=45*/get-tuple-element.315.0, get-tuple-element.944, get-tuple-element.942, get-tuple-element.311.0, get-tuple-element.736, /*index=50*/get-tuple-element.743, get-tuple-element.570, get-tuple-element.744, get-tuple-element.742, get-tuple-element.301.0, /*index=55*/get-tuple-element.760, get-tuple-element.890, get-tuple-element.772, get-tuple-element.792, get-tuple-element.795, /*index=60*/get-tuple-element.595, get-tuple-element.941, get-tuple-element.338.0, get-tuple-element.891, get-tuple-element.928, /*index=65*/get-tuple-element.923, get-tuple-element.922, get-tuple-element.953, get-tuple-element.932, get-tuple-element.594, /*index=70*/get-tuple-element.563), kind=kLoop, calls=fused_add_select.1, control-predecessors={loop_add_select_fusion, call}, metadata={op_name="jit(scan)/jit(main)/while/body/add_any" source_file="/fs04/fc37/adam/projects/psilocybin-prl-analyses/src/prl_hgf/fitting/hierarchical_patrl.py" source_line=362}
  loop_add_fusion.1 = s64[] fusion(get-tuple-element.562), kind=kLoop, calls=fused_add.1, control-predecessors={loop_add_select_fusion.1, loop_add_select_fusion, call}, metadata={op_name="jit(scan)/jit(main)/while/body/add" source_file="/fs04/fc37/adam/projects/psilocybin-prl-analyses/src/prl_hgf/fitting/hierarchical_patrl.py" source_line=378}
  get-tuple-element.702 = f64[20]{0} get-tuple-element(loop_add_select_fusion.1), index=15, metadata={op_name="jit(scan)/jit(main)/while/body/add_any" source_file="/fs04/fc37/adam/projects/psilocybin-prl-analyses/src/prl_hgf/fitting/hierarchical_patrl.py" source_line=362}
  get-tuple-element.707 = f64[20]{0} get-tuple-element(loop_add_select_fusion.1), index=14, metadata={op_name="jit(scan)/jit(main)/while/body/add_any" source_file="/fs04/fc37/adam/projects/psilocybin-prl-analyses/src/prl_hgf/fitting/hierarchical_patrl.py" source_line=362}
  get-tuple-element.712 = f64[20]{0} get-tuple-element(loop_add_select_fusion.1), index=13, metadata={op_name="jit(scan)/jit(main)/while/body/add_any" source_file="/fs04/fc37/adam/projects/psilocybin-prl-analyses/src/prl_hgf/fitting/hierarchical_patrl.py" source_line=362}
  get-tuple-element.713 = f64[20]{0} get-tuple-element(loop_add_select_fusion.1), index=12, metadata={op_name="jit(scan)/jit(main)/while/body/add_any" source_file="/fs04/fc37/adam/projects/psilocybin-prl-analyses/src/prl_hgf/fitting/hierarchical_patrl.py" source_line=362}
  get-tuple-element.725 = f64[20,1]{1,0} get-tuple-element(loop_add_select_fusion.1), index=11, metadata={op_name="jit(scan)/jit(main)/while/body/add_any" source_file="/fs04/fc37/adam/projects/psilocybin-prl-analyses/src/prl_hgf/fitting/hierarchical_patrl.py" source_line=362}
  get-tuple-element.711 = f64[20]{0} get-tuple-element(loop_add_select_fusion.1), index=10, metadata={op_name="jit(scan)/jit(main)/while/body/add_any" source_file="/fs04/fc37/adam/projects/psilocybin-prl-analyses/src/prl_hgf/fitting/hierarchical_patrl.py" source_line=362}
  get-tuple-element.709 = f64[20]{0} get-tuple-element(loop_add_select_fusion.1), index=9, metadata={op_name="jit(scan)/jit(main)/while/body/add_any" source_file="/fs04/fc37/adam/projects/psilocybin-prl-analyses/src/prl_hgf/fitting/hierarchical_patrl.py" source_line=362}
  get-tuple-element.710 = f64[20]{0} get-tuple-element(loop_add_select_fusion.1), index=8, metadata={op_name="jit(scan)/jit(main)/while/body/add_any" source_file="/fs04/fc37/adam/projects/psilocybin-prl-analyses/src/prl_hgf/fitting/hierarchical_patrl.py" source_line=362}
  get-tuple-element.714 = f64[20]{0} get-tuple-element(loop_add_select_fusion.1), index=7, metadata={op_name="jit(scan)/jit(main)/while/body/add_any" source_file="/fs04/fc37/adam/projects/psilocybin-prl-analyses/src/prl_hgf/fitting/hierarchical_patrl.py" source_line=362}
  get-tuple-element.715 = f64[20]{0} get-tuple-element(loop_add_select_fusion.1), index=6, metadata={op_name="jit(scan)/jit(main)/while/body/add_any" source_file="/fs04/fc37/adam/projects/psilocybin-prl-analyses/src/prl_hgf/fitting/hierarchical_patrl.py" source_line=362}
  get-tuple-element.717 = f64[20]{0} get-tuple-element(loop_add_select_fusion.1), index=5, metadata={op_name="jit(scan)/jit(main)/while/body/add_any" source_file="/fs04/fc37/adam/projects/psilocybin-prl-analyses/src/prl_hgf/fitting/hierarchical_patrl.py" source_line=362}
  get-tuple-element.716 = f64[20]{0} get-tuple-element(loop_add_select_fusion.1), index=4, metadata={op_name="jit(scan)/jit(main)/while/body/add_any" source_file="/fs04/fc37/adam/projects/psilocybin-prl-analyses/src/prl_hgf/fitting/hierarchical_patrl.py" source_line=362}
  get-tuple-element.719 = f64[20]{0} get-tuple-element(loop_add_select_fusion.1), index=3, metadata={op_name="jit(scan)/jit(main)/while/body/add_any" source_file="/fs04/fc37/adam/projects/psilocybin-prl-analyses/src/prl_hgf/fitting/hierarchical_patrl.py" source_line=362}
  get-tuple-element.723 = f64[20]{0} get-tuple-element(loop_add_select_fusion.1), index=2, metadata={op_name="jit(scan)/jit(main)/while/body/add_any" source_file="/fs04/fc37/adam/projects/psilocybin-prl-analyses/src/prl_hgf/fitting/hierarchical_patrl.py" source_line=362}
  get-tuple-element.724 = f64[20]{0} get-tuple-element(loop_add_select_fusion.1), index=1, metadata={op_name="jit(scan)/jit(main)/while/body/add_any" source_file="/fs04/fc37/adam/projects/psilocybin-prl-analyses/src/prl_hgf/fitting/hierarchical_patrl.py" source_line=362}
  get-tuple-element.718 = f64[20]{0} get-tuple-element(loop_add_select_fusion.1), index=0, metadata={op_name="jit(scan)/jit(main)/while/body/add_any" source_file="/fs04/fc37/adam/projects/psilocybin-prl-analyses/src/prl_hgf/fitting/hierarchical_patrl.py" source_line=362}
  ROOT tuple.152 = (s64[], f64[20]{0}, f64[20]{0}, f64[20]{0}, f64[20]{0}, /*index=5*/f64[20]{0}, f64[20]{0}, f64[20]{0}, f64[20]{0}, f64[20]{0}, /*index=10*/f64[20]{0}, f64[20]{0}, f64[20]{0}, f64[20]{0}, f64[20]{0}, /*index=15*/f64[20]{0}, f64[20]{0}, f64[20]{0}, f64[20]{0}, f64[20]{0}, /*index=20*/f64[20]{0}, f64[20,1]{1,0}, f64[192,20]{1,0}, f64[192,20]{1,0}, f64[192,20]{1,0}, /*index=25*/f64[192]{0}, f64[192,20]{1,0}, pred[192,20]{1,0}, f64[192,20]{1,0}, f64[192,20]{1,0}, /*index=30*/f64[192,20]{1,0}, f64[192,20]{1,0}, f64[192,20]{1,0}, f64[192,20]{1,0}, f64[192,20]{1,0}, /*index=35*/f64[192,20]{1,0}, pred[192,20]{1,0}, f64[192,20]{1,0}, f64[192,20]{1,0}, f64[192,20]{1,0}, /*index=40*/f64[192,20]{1,0}, f64[192,20]{1,0}, f64[192,20]{1,0}, f64[192,20]{1,0}, f64[192]{0}, /*index=45*/f64[192,20]{1,0}, f64[192,20]{1,0}, f64[192,20]{1,0}, s32[192]{0}, f64[192,20]{1,0}, /*index=50*/f64[192]{0}, f64[192,20]{1,0}, f64[192,20]{1,0}, f64[192,20]{1,0}, pred[192,20]{1,0}, /*index=55*/f64[192,20]{1,0}, f64[192,20]{1,0}, f64[192,20]{1,0}, f64[192,20]{1,0}, f64[192,20]{1,0}, /*index=60*/f64[192,20]{1,0}, f64[192]{0}, f64[192,20]{1,0}, f64[192,20]{1,0}, f64[192,20]{1,0}, /*index=65*/f64[192,20]{1,0}, f64[192,20]{1,0}, f64[192,20]{1,0}, f64[192,20]{1,0}, f64[192,20]{1,0}, /*index=70*/f64[192,20]{1,0}, f64[192,20]{1,0}, f64[192,20]{1,0}, s32[192,20]{1,0}, pred[192,20]{1,0}, /*index=75*/f64[192,20]{1,0}, f64[192,20]{1,0}, f64[192,20]{1,0}, f64[192,20]{1,0}, pred[192,20]{1,0}, /*index=80*/pred[192,20,1]{2,1,0}, f64[192,20]{1,0}, f64[192,20]{1,0}, f64[192,20]{1,0}, f64[192,20]{1,0}, /*index=85*/f64[192,20]{1,0}, f64[192,20]{1,0}, f64[192,20]{1,0}, f64[192,20]{1,0}, f64[192,20]{1,0}, /*index=90*/f64[192,20]{1,0}, pred[192,20]{1,0}, pred[192,20]{1,0}, pred[192,20,1]{2,1,0}) tuple(loop_add_fusion.1, get-tuple-element.702, get-tuple-element.703, get-tuple-element.704, get-tuple-element.705, /*index=5*/get-tuple-element.706, get-tuple-element.707, get-tuple-element.708, get-tuple-element.709, get-tuple-element.710, /*index=10*/get-tuple-element.711, get-tuple-element.712, get-tuple-element.713, get-tuple-element.714, get-tuple-element.715, /*index=15*/get-tuple-element.716, get-tuple-element.717, get-tuple-element.718, get-tuple-element.719, get-tuple-element.723, /*index=20*/get-tuple-element.724, get-tuple-element.725, get-tuple-element.726, get-tuple-element.727, get-tuple-element.728, /*index=25*/get-tuple-element.729, get-tuple-element.730, get-tuple-element.731, get-tuple-element.732, get-tuple-element.733, /*index=30*/get-tuple-element.734, get-tuple-element.735, get-tuple-element.736, get-tuple-element.737, get-tuple-element.738, /*index=35*/get-tuple-element.739, get-tuple-element.740, get-tuple-element.741, get-tuple-element.742, get-tuple-element.743, /*index=40*/get-tuple-element.744, get-tuple-element.745, get-tuple-element.746, get-tuple-element.747, get-tuple-element.748, /*index=45*/get-tuple-element.749, get-tuple-element.750, get-tuple-element.751, get-tuple-element.752, get-tuple-element.867, /*index=50*/get-tuple-element.868, get-tuple-element.870, get-tuple-element.871, get-tuple-element.872, get-tuple-element.879, /*index=55*/get-tuple-element.880, get-tuple-element.760, get-tuple-element.881, get-tuple-element.882, get-tuple-element.763, /*index=60*/get-tuple-element.883, get-tuple-element.888, get-tuple-element.889, get-tuple-element.890, get-tuple-element.768, /*index=65*/get-tuple-element.891, get-tuple-element.892, get-tuple-element.914, get-tuple-element.772, get-tuple-element.773, /*index=70*/get-tuple-element.915, get-tuple-element.916, get-tuple-element.778, get-tuple-element.779, get-tuple-element.917, /*index=75*/get-tuple-element.918, get-tuple-element.919, get-tuple-element.920, get-tuple-element.921, get-tuple-element.785, /*index=80*/get-tuple-element.922, get-tuple-element.923, get-tuple-element.924, get-tuple-element.925, get-tuple-element.926, /*index=85*/get-tuple-element.927, get-tuple-element.792, get-tuple-element.928, get-tuple-element.929, get-tuple-element.795, /*index=90*/get-tuple-element.796, get-tuple-element.797, get-tuple-element.798, get-tuple-element.932)
} // region_0.1134

fused_compare {
  param_0.690 = s64[] parameter(0)
  constant_1715_1 = s64[] constant(192)
  ROOT compare.17.1 = pred[] compare(param_0.690, constant_1715_1), direction=LT, metadata={op_name="jit(scan)/jit(main)/while/cond/lt" source_file="/fs04/fc37/adam/projects/psilocybin-prl-analyses/src/prl_hgf/fitting/hierarchical_patrl.py" source_line=378}
}

region_3.1619 {
  arg_tuple.1620.0 = (s64[], f64[20]{0}, f64[20]{0}, f64[20]{0}, f64[20]{0}, /*index=5*/f64[20]{0}, f64[20]{0}, f64[20]{0}, f64[20]{0}, f64[20]{0}, /*index=10*/f64[20]{0}, f64[20]{0}, f64[20]{0}, f64[20]{0}, f64[20]{0}, /*index=15*/f64[20]{0}, f64[20]{0}, f64[20]{0}, f64[20]{0}, f64[20]{0}, /*index=20*/f64[20]{0}, f64[20,1]{1,0}, f64[192,20]{1,0}, f64[192,20]{1,0}, f64[192,20]{1,0}, /*index=25*/f64[192]{0}, f64[192,20]{1,0}, pred[192,20]{1,0}, f64[192,20]{1,0}, f64[192,20]{1,0}, /*index=30*/f64[192,20]{1,0}, f64[192,20]{1,0}, f64[192,20]{1,0}, f64[192,20]{1,0}, f64[192,20]{1,0}, /*index=35*/f64[192,20]{1,0}, pred[192,20]{1,0}, f64[192,20]{1,0}, f64[192,20]{1,0}, f64[192,20]{1,0}, /*index=40*/f64[192,20]{1,0}, f64[192,20]{1,0}, f64[192,20]{1,0}, f64[192,20]{1,0}, f64[192]{0}, /*index=45*/f64[192,20]{1,0}, f64[192,20]{1,0}, f64[192,20]{1,0}, s32[192]{0}, f64[192,20]{1,0}, /*index=50*/f64[192]{0}, f64[192,20]{1,0}, f64[192,20]{1,0}, f64[192,20]{1,0}, pred[192,20]{1,0}, /*index=55*/f64[192,20]{1,0}, f64[192,20]{1,0}, f64[192,20]{1,0}, f64[192,20]{1,0}, f64[192,20]{1,0}, /*index=60*/f64[192,20]{1,0}, f64[192]{0}, f64[192,20]{1,0}, f64[192,20]{1,0}, f64[192,20]{1,0}, /*index=65*/f64[192,20]{1,0}, f64[192,20]{1,0}, f64[192,20]{1,0}, f64[192,20]{1,0}, f64[192,20]{1,0}, /*index=70*/f64[192,20]{1,0}, f64[192,20]{1,0}, f64[192,20]{1,0}, s32[192,20]{1,0}, pred[192,20]{1,0}, /*index=75*/f64[192,20]{1,0}, f64[192,20]{1,0}, f64[192,20]{1,0}, f64[192,20]{1,0}, pred[192,20]{1,0}, /*index=80*/pred[192,20,1]{2,1,0}, f64[192,20]{1,0}, f64[192,20]{1,0}, f64[192,20]{1,0}, f64[192,20]{1,0}, /*index=85*/f64[192,20]{1,0}, f64[192,20]{1,0}, f64[192,20]{1,0}, f64[192,20]{1,0}, f64[192,20]{1,0}, /*index=90*/f64[192,20]{1,0}, pred[192,20]{1,0}, pred[192,20]{1,0}, pred[192,20,1]{2,1,0}) parameter(0)
  get-tuple-element.1621.0 = s64[] get-tuple-element(arg_tuple.1620.0), index=0
  ROOT loop_compare_fusion = pred[] fusion(get-tuple-element.1621.0), kind=kLoop, calls=fused_compare, metadata={op_name="jit(scan)/jit(main)/while/cond/lt" source_file="/fs04/fc37/adam/projects/psilocybin-prl-analyses/src/prl_hgf/fitting/hierarchical_patrl.py" source_line=378}
}

copy_horizontally_fused_computation {
  param_0_0 = f64[20]{0} parameter(0)
  copy.122 = f64[20]{0} copy(param_0_0)
  param_1_0 = f64[20]{0} parameter(1)
  copy.123 = f64[20]{0} copy(param_1_0)
  param_2_0 = f64[20]{0} parameter(2)
  copy.124 = f64[20]{0} copy(param_2_0)
  param_3_0 = f64[20]{0} parameter(3)
  copy.125 = f64[20]{0} copy(param_3_0)
  param_4_0 = f64[20]{0} parameter(4)
  copy.126 = f64[20]{0} copy(param_4_0)
  param_5_0 = f64[20]{0} parameter(5)
  copy.127 = f64[20]{0} copy(param_5_0)
  param_6_0 = f64[20]{0} parameter(6)
  copy.128 = f64[20]{0} copy(param_6_0)
  param_7_0 = f64[20]{0} parameter(7)
  copy.129 = f64[20]{0} copy(param_7_0)
  param_8_0 = f64[20]{0} parameter(8)
  copy.130 = f64[20]{0} copy(param_8_0)
  param_9_0 = f64[20]{0} parameter(9)
  copy.131 = f64[20]{0} copy(param_9_0)
  param_10_0 = f64[20]{0} parameter(10)
  copy.132 = f64[20]{0} copy(param_10_0)
  param_11_0 = f64[20]{0} parameter(11)
  copy.133 = f64[20]{0} copy(param_11_0)
  param_12_0 = f64[20]{0} parameter(12)
  copy.134 = f64[20]{0} copy(param_12_0)
  param_13_0 = f64[20]{0} parameter(13)
  copy.135 = f64[20]{0} copy(param_13_0)
  param_14_0 = f64[20]{0} parameter(14)
  copy.136 = f64[20]{0} copy(param_14_0)
  param_15_0 = f64[20]{0} parameter(15)
  copy.137 = f64[20]{0} copy(param_15_0)
  param_16_0 = f64[20]{0} parameter(16)
  copy.138 = f64[20]{0} copy(param_16_0)
  param_17_0 = f64[20]{0} parameter(17)
  copy.139 = f64[20]{0} copy(param_17_0)
  param_18_0 = f64[20]{0} parameter(18)
  copy.140 = f64[20]{0} copy(param_18_0)
  param_19_0 = f64[20]{0} parameter(19)
  copy.141 = f64[20]{0} copy(param_19_0)
  ROOT tuple.153 = (f64[20]{0}, f64[20]{0}, f64[20]{0}, f64[20]{0}, f64[20]{0}, /*index=5*/f64[20]{0}, f64[20]{0}, f64[20]{0}, f64[20]{0}, f64[20]{0}, /*index=10*/f64[20]{0}, f64[20]{0}, f64[20]{0}, f64[20]{0}, f64[20]{0}, /*index=15*/f64[20]{0}, f64[20]{0}, f64[20]{0}, f64[20]{0}, f64[20]{0}) tuple(copy.122, copy.123, copy.124, copy.125, copy.126, /*index=5*/copy.127, copy.128, copy.129, copy.130, copy.131, /*index=10*/copy.132, copy.133, copy.134, copy.135, copy.136, /*index=15*/copy.137, copy.138, copy.139, copy.140, copy.141)
} // copy_horizontally_fused_computation

wrapped_copy_computation {
  param_0.712 = s64[] parameter(0)
  ROOT copy.142 = s64[] copy(param_0.712)
}

wrapped_copy_computation.1 {
  param_0.713 = f64[20,1]{1,0} parameter(0)
  ROOT copy.143 = f64[20,1]{1,0} copy(param_0.713)
}

ENTRY main.1813 {
  constant_94_0 = s64[] constant(0)
  Arg_92.93.0 = pred[192,20,1]{2,1,0} parameter(92), metadata={op_name="args[138]"}
  Arg_91.92.0 = pred[192,20]{1,0} parameter(91), metadata={op_name="args[137]"}
  Arg_90.91.0 = pred[192,20]{1,0} parameter(90), metadata={op_name="args[136]"}
  Arg_89.90.0 = f64[192,20]{1,0} parameter(89), metadata={op_name="args[135]"}
  Arg_88.89.0 = f64[192,20]{1,0} parameter(88), metadata={op_name="args[134]"}
  Arg_87.88.0 = f64[192,20]{1,0} parameter(87), metadata={op_name="args[133]"}
  Arg_86.87.0 = f64[192,20]{1,0} parameter(86), metadata={op_name="args[132]"}
  Arg_85.86.0 = f64[192,20]{1,0} parameter(85), metadata={op_name="args[131]"}
  Arg_84.85.0 = f64[192,20]{1,0} parameter(84), metadata={op_name="args[130]"}
  Arg_83.84.0 = f64[192,20]{1,0} parameter(83), metadata={op_name="args[129]"}
  Arg_82.83.0 = f64[192,20]{1,0} parameter(82), metadata={op_name="args[128]"}
  Arg_81.82.0 = f64[192,20]{1,0} parameter(81), metadata={op_name="args[127]"}
  Arg_80.81.0 = f64[192,20]{1,0} parameter(80), metadata={op_name="args[126]"}
  Arg_79.80.0 = pred[192,20,1]{2,1,0} parameter(79), metadata={op_name="args[125]"}
  Arg_78.79.0 = pred[192,20]{1,0} parameter(78), metadata={op_name="args[124]"}
  Arg_77.78.0 = f64[192,20]{1,0} parameter(77), metadata={op_name="args[123]"}
  Arg_76.77.0 = f64[192,20]{1,0} parameter(76), metadata={op_name="args[122]"}
  Arg_75.76.0 = f64[192,20]{1,0} parameter(75), metadata={op_name="args[121]"}
  Arg_74.75.0 = f64[192,20]{1,0} parameter(74), metadata={op_name="args[120]"}
  Arg_73.74.0 = pred[192,20]{1,0} parameter(73), metadata={op_name="args[118]"}
  Arg_72.73.0 = s32[192,20]{1,0} parameter(72), metadata={op_name="args[117]"}
  Arg_71.72.0 = f64[192,20]{1,0} parameter(71), metadata={op_name="args[116]"}
  Arg_70.71.0 = f64[192,20]{1,0} parameter(70), metadata={op_name="args[115]"}
  Arg_69.70.0 = f64[192,20]{1,0} parameter(69), metadata={op_name="args[114]"}
  Arg_68.69.0 = f64[192,20]{1,0} parameter(68), metadata={op_name="args[113]"}
  Arg_67.68.0 = f64[192,20]{1,0} parameter(67), metadata={op_name="args[112]"}
  Arg_66.67.0 = f64[192,20]{1,0} parameter(66), metadata={op_name="args[111]"}
  Arg_65.66.0 = f64[192,20]{1,0} parameter(65), metadata={op_name="args[110]"}
  Arg_64.65.0 = f64[192,20]{1,0} parameter(64), metadata={op_name="args[109]"}
  Arg_63.64.0 = f64[192,20]{1,0} parameter(63), metadata={op_name="args[108]"}
  Arg_62.63.0 = f64[192,20]{1,0} parameter(62), metadata={op_name="args[107]"}
  Arg_61.62.0 = f64[192,20]{1,0} parameter(61), metadata={op_name="args[106]"}
  Arg_60.61.0 = f64[192]{0} parameter(60), metadata={op_name="args[105]"}
  Arg_59.60.0 = f64[192,20]{1,0} parameter(59), metadata={op_name="args[104]"}
  Arg_58.59.0 = f64[192,20]{1,0} parameter(58), metadata={op_name="args[103]"}
  Arg_57.58.0 = f64[192,20]{1,0} parameter(57), metadata={op_name="args[102]"}
  Arg_56.57.0 = f64[192,20]{1,0} parameter(56), metadata={op_name="args[101]"}
  Arg_55.56.0 = f64[192,20]{1,0} parameter(55), metadata={op_name="args[100]"}
  Arg_54.55.0 = f64[192,20]{1,0} parameter(54), metadata={op_name="args[99]"}
  Arg_53.54.0 = pred[192,20]{1,0} parameter(53), metadata={op_name="args[98]"}
  Arg_52.53.0 = f64[192,20]{1,0} parameter(52), metadata={op_name="args[97]"}
  Arg_51.52.0 = f64[192,20]{1,0} parameter(51), metadata={op_name="args[96]"}
  Arg_50.51.0 = f64[192,20]{1,0} parameter(50), metadata={op_name="args[95]"}
  Arg_49.50.0 = f64[192]{0} parameter(49), metadata={op_name="args[94]"}
  Arg_48.49.0 = f64[192,20]{1,0} parameter(48), metadata={op_name="args[93]"}
  Arg_47.48.0 = s32[192]{0} parameter(47), metadata={op_name="args[92]"}
  Arg_46.47.0 = f64[192,20]{1,0} parameter(46), metadata={op_name="args[91]"}
  Arg_45.46.0 = f64[192,20]{1,0} parameter(45), metadata={op_name="args[90]"}
  Arg_44.45.0 = f64[192,20]{1,0} parameter(44), metadata={op_name="args[89]"}
  Arg_43.44.0 = f64[192]{0} parameter(43), metadata={op_name="args[88]"}
  Arg_42.43.0 = f64[192,20]{1,0} parameter(42), metadata={op_name="args[87]"}
  Arg_41.42.0 = f64[192,20]{1,0} parameter(41), metadata={op_name="args[86]"}
  Arg_40.41.0 = f64[192,20]{1,0} parameter(40), metadata={op_name="args[85]"}
  Arg_39.40.0 = f64[192,20]{1,0} parameter(39), metadata={op_name="args[84]"}
  Arg_38.39.0 = f64[192,20]{1,0} parameter(38), metadata={op_name="args[83]"}
  Arg_37.38.0 = f64[192,20]{1,0} parameter(37), metadata={op_name="args[82]"}
  Arg_36.37.0 = f64[192,20]{1,0} parameter(36), metadata={op_name="args[81]"}
  Arg_35.36.0 = pred[192,20]{1,0} parameter(35), metadata={op_name="args[80]"}
  Arg_34.35.0 = f64[192,20]{1,0} parameter(34), metadata={op_name="args[79]"}
  Arg_33.34.0 = f64[192,20]{1,0} parameter(33), metadata={op_name="args[78]"}
  Arg_32.33.0 = f64[192,20]{1,0} parameter(32), metadata={op_name="args[77]"}
  Arg_31.32.0 = f64[192,20]{1,0} parameter(31), metadata={op_name="args[76]"}
  Arg_30.31.0 = f64[192,20]{1,0} parameter(30), metadata={op_name="args[75]"}
  Arg_29.30.0 = f64[192,20]{1,0} parameter(29), metadata={op_name="args[74]"}
  Arg_28.29.0 = f64[192,20]{1,0} parameter(28), metadata={op_name="args[73]"}
  Arg_27.28.0 = f64[192,20]{1,0} parameter(27), metadata={op_name="args[72]"}
  Arg_26.27.0 = pred[192,20]{1,0} parameter(26), metadata={op_name="args[71]"}
  Arg_25.26.0 = f64[192,20]{1,0} parameter(25), metadata={op_name="args[70]"}
  Arg_24.25.0 = f64[192]{0} parameter(24), metadata={op_name="args[69]"}
  Arg_23.24.0 = f64[192,20]{1,0} parameter(23), metadata={op_name="args[68]"}
  Arg_22.23.0 = f64[192,20]{1,0} parameter(22), metadata={op_name="args[67]"}
  Arg_21.22.0 = f64[192,20]{1,0} parameter(21), metadata={op_name="args[66]"}
  Arg_20.21.0 = f64[20,1]{1,0} parameter(20), metadata={op_name="args[65]"}
  Arg_19.20.0 = f64[20]{0} parameter(19), metadata={op_name="args[64]"}
  Arg_18.19.0 = f64[20]{0} parameter(18), metadata={op_name="args[63]"}
  Arg_17.18.0 = f64[20]{0} parameter(17), metadata={op_name="args[62]"}
  Arg_16.17.0 = f64[20]{0} parameter(16), metadata={op_name="args[61]"}
  Arg_15.16.0 = f64[20]{0} parameter(15), metadata={op_name="args[60]"}
  Arg_14.15.0 = f64[20]{0} parameter(14), metadata={op_name="args[59]"}
  Arg_13.14.0 = f64[20]{0} parameter(13), metadata={op_name="args[58]"}
  Arg_12.13.0 = f64[20]{0} parameter(12), metadata={op_name="args[57]"}
  Arg_11.12.0 = f64[20]{0} parameter(11), metadata={op_name="args[56]"}
  Arg_10.11.0 = f64[20]{0} parameter(10), metadata={op_name="args[55]"}
  Arg_9.10.0 = f64[20]{0} parameter(9), metadata={op_name="args[54]"}
  Arg_8.9.0 = f64[20]{0} parameter(8), metadata={op_name="args[53]"}
  Arg_7.8.0 = f64[20]{0} parameter(7), metadata={op_name="args[52]"}
  Arg_6.7.0 = f64[20]{0} parameter(6), metadata={op_name="args[51]"}
  Arg_5.6.0 = f64[20]{0} parameter(5), metadata={op_name="args[50]"}
  Arg_4.5.0 = f64[20]{0} parameter(4), metadata={op_name="args[49]"}
  Arg_3.4.0 = f64[20]{0} parameter(3), metadata={op_name="args[48]"}
  Arg_2.3.0 = f64[20]{0} parameter(2), metadata={op_name="args[47]"}
  Arg_1.2.0 = f64[20]{0} parameter(1), metadata={op_name="args[46]"}
  Arg_0.1.0 = f64[20]{0} parameter(0), metadata={op_name="args[45]"}
  wrapped_copy = s64[] fusion(constant_94_0), kind=kLoop, calls=wrapped_copy_computation
  wrapped_copy.1 = f64[20,1]{1,0} fusion(Arg_20.21.0), kind=kLoop, calls=wrapped_copy_computation.1
  copy_fusion = (f64[20]{0}, f64[20]{0}, f64[20]{0}, f64[20]{0}, f64[20]{0}, /*index=5*/f64[20]{0}, f64[20]{0}, f64[20]{0}, f64[20]{0}, f64[20]{0}, /*index=10*/f64[20]{0}, f64[20]{0}, f64[20]{0}, f64[20]{0}, f64[20]{0}, /*index=15*/f64[20]{0}, f64[20]{0}, f64[20]{0}, f64[20]{0}, f64[20]{0}) fusion(Arg_0.1.0, Arg_1.2.0, Arg_2.3.0, Arg_3.4.0, Arg_4.5.0, /*index=5*/Arg_5.6.0, Arg_6.7.0, Arg_7.8.0, Arg_8.9.0, Arg_9.10.0, /*index=10*/Arg_10.11.0, Arg_11.12.0, Arg_12.13.0, Arg_13.14.0, Arg_14.15.0, /*index=15*/Arg_15.16.0, Arg_16.17.0, Arg_17.18.0, Arg_18.19.0, Arg_19.20.0), kind=kLoop, calls=copy_horizontally_fused_computation
  get-tuple-element.819 = f64[20]{0} get-tuple-element(copy_fusion), index=19
  get-tuple-element.818 = f64[20]{0} get-tuple-element(copy_fusion), index=18
  get-tuple-element.817 = f64[20]{0} get-tuple-element(copy_fusion), index=17
  get-tuple-element.816 = f64[20]{0} get-tuple-element(copy_fusion), index=16
  get-tuple-element.815 = f64[20]{0} get-tuple-element(copy_fusion), index=15
  get-tuple-element.814 = f64[20]{0} get-tuple-element(copy_fusion), index=14
  get-tuple-element.813 = f64[20]{0} get-tuple-element(copy_fusion), index=13
  get-tuple-element.812 = f64[20]{0} get-tuple-element(copy_fusion), index=12
  get-tuple-element.811 = f64[20]{0} get-tuple-element(copy_fusion), index=11
  get-tuple-element.810 = f64[20]{0} get-tuple-element(copy_fusion), index=10
  get-tuple-element.809 = f64[20]{0} get-tuple-element(copy_fusion), index=9
  get-tuple-element.808 = f64[20]{0} get-tuple-element(copy_fusion), index=8
  get-tuple-element.807 = f64[20]{0} get-tuple-element(copy_fusion), index=7
  get-tuple-element.806 = f64[20]{0} get-tuple-element(copy_fusion), index=6
  get-tuple-element.805 = f64[20]{0} get-tuple-element(copy_fusion), index=5
  get-tuple-element.804 = f64[20]{0} get-tuple-element(copy_fusion), index=4
  get-tuple-element.803 = f64[20]{0} get-tuple-element(copy_fusion), index=3
  get-tuple-element.802 = f64[20]{0} get-tuple-element(copy_fusion), index=2
  get-tuple-element.801 = f64[20]{0} get-tuple-element(copy_fusion), index=1
  get-tuple-element.800 = f64[20]{0} get-tuple-element(copy_fusion), index=0
  tuple.149 = (s64[], f64[20]{0}, f64[20]{0}, f64[20]{0}, f64[20]{0}, /*index=5*/f64[20]{0}, f64[20]{0}, f64[20]{0}, f64[20]{0}, f64[20]{0}, /*index=10*/f64[20]{0}, f64[20]{0}, f64[20]{0}, f64[20]{0}, f64[20]{0}, /*index=15*/f64[20]{0}, f64[20]{0}, f64[20]{0}, f64[20]{0}, f64[20]{0}, /*index=20*/f64[20]{0}, f64[20,1]{1,0}, f64[192,20]{1,0}, f64[192,20]{1,0}, f64[192,20]{1,0}, /*index=25*/f64[192]{0}, f64[192,20]{1,0}, pred[192,20]{1,0}, f64[192,20]{1,0}, f64[192,20]{1,0}, /*index=30*/f64[192,20]{1,0}, f64[192,20]{1,0}, f64[192,20]{1,0}, f64[192,20]{1,0}, f64[192,20]{1,0}, /*index=35*/f64[192,20]{1,0}, pred[192,20]{1,0}, f64[192,20]{1,0}, f64[192,20]{1,0}, f64[192,20]{1,0}, /*index=40*/f64[192,20]{1,0}, f64[192,20]{1,0}, f64[192,20]{1,0}, f64[192,20]{1,0}, f64[192]{0}, /*index=45*/f64[192,20]{1,0}, f64[192,20]{1,0}, f64[192,20]{1,0}, s32[192]{0}, f64[192,20]{1,0}, /*index=50*/f64[192]{0}, f64[192,20]{1,0}, f64[192,20]{1,0}, f64[192,20]{1,0}, pred[192,20]{1,0}, /*index=55*/f64[192,20]{1,0}, f64[192,20]{1,0}, f64[192,20]{1,0}, f64[192,20]{1,0}, f64[192,20]{1,0}, /*index=60*/f64[192,20]{1,0}, f64[192]{0}, f64[192,20]{1,0}, f64[192,20]{1,0}, f64[192,20]{1,0}, /*index=65*/f64[192,20]{1,0}, f64[192,20]{1,0}, f64[192,20]{1,0}, f64[192,20]{1,0}, f64[192,20]{1,0}, /*index=70*/f64[192,20]{1,0}, f64[192,20]{1,0}, f64[192,20]{1,0}, s32[192,20]{1,0}, pred[192,20]{1,0}, /*index=75*/f64[192,20]{1,0}, f64[192,20]{1,0}, f64[192,20]{1,0}, f64[192,20]{1,0}, pred[192,20]{1,0}, /*index=80*/pred[192,20,1]{2,1,0}, f64[192,20]{1,0}, f64[192,20]{1,0}, f64[192,20]{1,0}, f64[192,20]{1,0}, /*index=85*/f64[192,20]{1,0}, f64[192,20]{1,0}, f64[192,20]{1,0}, f64[192,20]{1,0}, f64[192,20]{1,0}, /*index=90*/f64[192,20]{1,0}, pred[192,20]{1,0}, pred[192,20]{1,0}, pred[192,20,1]{2,1,0}) tuple(wrapped_copy, get-tuple-element.800, get-tuple-element.801, get-tuple-element.802, get-tuple-element.803, /*index=5*/get-tuple-element.804, get-tuple-element.805, get-tuple-element.806, get-tuple-element.807, get-tuple-element.808, /*index=10*/get-tuple-element.809, get-tuple-element.810, get-tuple-element.811, get-tuple-element.812, get-tuple-element.813, /*index=15*/get-tuple-element.814, get-tuple-element.815, get-tuple-element.816, get-tuple-element.817, get-tuple-element.818, /*index=20*/get-tuple-element.819, wrapped_copy.1, Arg_21.22.0, Arg_22.23.0, Arg_23.24.0, /*index=25*/Arg_24.25.0, Arg_25.26.0, Arg_26.27.0, Arg_27.28.0, Arg_28.29.0, /*index=30*/Arg_29.30.0, Arg_30.31.0, Arg_31.32.0, Arg_32.33.0, Arg_33.34.0, /*index=35*/Arg_34.35.0, Arg_35.36.0, Arg_36.37.0, Arg_37.38.0, Arg_38.39.0, /*index=40*/Arg_39.40.0, Arg_40.41.0, Arg_41.42.0, Arg_42.43.0, Arg_43.44.0, /*index=45*/Arg_44.45.0, Arg_45.46.0, Arg_46.47.0, Arg_47.48.0, Arg_48.49.0, /*index=50*/Arg_49.50.0, Arg_50.51.0, Arg_51.52.0, Arg_52.53.0, Arg_53.54.0, /*index=55*/Arg_54.55.0, Arg_55.56.0, Arg_56.57.0, Arg_57.58.0, Arg_58.59.0, /*index=60*/Arg_59.60.0, Arg_60.61.0, Arg_61.62.0, Arg_62.63.0, Arg_63.64.0, /*index=65*/Arg_64.65.0, Arg_65.66.0, Arg_66.67.0, Arg_67.68.0, Arg_68.69.0, /*index=70*/Arg_69.70.0, Arg_70.71.0, Arg_71.72.0, Arg_72.73.0, Arg_73.74.0, /*index=75*/Arg_74.75.0, Arg_75.76.0, Arg_76.77.0, Arg_77.78.0, Arg_78.79.0, /*index=80*/Arg_79.80.0, Arg_80.81.0, Arg_81.82.0, Arg_82.83.0, Arg_83.84.0, /*index=85*/Arg_84.85.0, Arg_85.86.0, Arg_86.87.0, Arg_87.88.0, Arg_88.89.0, /*index=90*/Arg_89.90.0, Arg_90.91.0, Arg_91.92.0, Arg_92.93.0)
  while.1717.0 = (s64[], f64[20]{0}, f64[20]{0}, f64[20]{0}, f64[20]{0}, /*index=5*/f64[20]{0}, f64[20]{0}, f64[20]{0}, f64[20]{0}, f64[20]{0}, /*index=10*/f64[20]{0}, f64[20]{0}, f64[20]{0}, f64[20]{0}, f64[20]{0}, /*index=15*/f64[20]{0}, f64[20]{0}, f64[20]{0}, f64[20]{0}, f64[20]{0}, /*index=20*/f64[20]{0}, f64[20,1]{1,0}, f64[192,20]{1,0}, f64[192,20]{1,0}, f64[192,20]{1,0}, /*index=25*/f64[192]{0}, f64[192,20]{1,0}, pred[192,20]{1,0}, f64[192,20]{1,0}, f64[192,20]{1,0}, /*index=30*/f64[192,20]{1,0}, f64[192,20]{1,0}, f64[192,20]{1,0}, f64[192,20]{1,0}, f64[192,20]{1,0}, /*index=35*/f64[192,20]{1,0}, pred[192,20]{1,0}, f64[192,20]{1,0}, f64[192,20]{1,0}, f64[192,20]{1,0}, /*index=40*/f64[192,20]{1,0}, f64[192,20]{1,0}, f64[192,20]{1,0}, f64[192,20]{1,0}, f64[192]{0}, /*index=45*/f64[192,20]{1,0}, f64[192,20]{1,0}, f64[192,20]{1,0}, s32[192]{0}, f64[192,20]{1,0}, /*index=50*/f64[192]{0}, f64[192,20]{1,0}, f64[192,20]{1,0}, f64[192,20]{1,0}, pred[192,20]{1,0}, /*index=55*/f64[192,20]{1,0}, f64[192,20]{1,0}, f64[192,20]{1,0}, f64[192,20]{1,0}, f64[192,20]{1,0}, /*index=60*/f64[192,20]{1,0}, f64[192]{0}, f64[192,20]{1,0}, f64[192,20]{1,0}, f64[192,20]{1,0}, /*index=65*/f64[192,20]{1,0}, f64[192,20]{1,0}, f64[192,20]{1,0}, f64[192,20]{1,0}, f64[192,20]{1,0}, /*index=70*/f64[192,20]{1,0}, f64[192,20]{1,0}, f64[192,20]{1,0}, s32[192,20]{1,0}, pred[192,20]{1,0}, /*index=75*/f64[192,20]{1,0}, f64[192,20]{1,0}, f64[192,20]{1,0}, f64[192,20]{1,0}, pred[192,20]{1,0}, /*index=80*/pred[192,20,1]{2,1,0}, f64[192,20]{1,0}, f64[192,20]{1,0}, f64[192,20]{1,0}, f64[192,20]{1,0}, /*index=85*/f64[192,20]{1,0}, f64[192,20]{1,0}, f64[192,20]{1,0}, f64[192,20]{1,0}, f64[192,20]{1,0}, /*index=90*/f64[192,20]{1,0}, pred[192,20]{1,0}, pred[192,20]{1,0}, pred[192,20,1]{2,1,0}) while(tuple.149), condition=region_3.1619, body=region_0.1134, metadata={op_name="jit(scan)/jit(main)/while[cond_nconsts=0 body_nconsts=72]" source_file="/fs04/fc37/adam/projects/psilocybin-prl-analyses/src/prl_hgf/fitting/hierarchical_patrl.py" source_line=378}, backend_config={"known_trip_count":{"n":"192"}}
  get-tuple-element.1719.0 = f64[20]{0} get-tuple-element(while.1717.0), index=1, metadata={op_name="jit(scan)/jit(main)/while[cond_nconsts=0 body_nconsts=72]" source_file="/fs04/fc37/adam/projects/psilocybin-prl-analyses/src/prl_hgf/fitting/hierarchical_patrl.py" source_line=378}
  get-tuple-element.1720.0 = f64[20]{0} get-tuple-element(while.1717.0), index=2, metadata={op_name="jit(scan)/jit(main)/while[cond_nconsts=0 body_nconsts=72]" source_file="/fs04/fc37/adam/projects/psilocybin-prl-analyses/src/prl_hgf/fitting/hierarchical_patrl.py" source_line=378}
  get-tuple-element.1721.0 = f64[20]{0} get-tuple-element(while.1717.0), index=3, metadata={op_name="jit(scan)/jit(main)/while[cond_nconsts=0 body_nconsts=72]" source_file="/fs04/fc37/adam/projects/psilocybin-prl-analyses/src/prl_hgf/fitting/hierarchical_patrl.py" source_line=378}
  get-tuple-element.1722.0 = f64[20]{0} get-tuple-element(while.1717.0), index=4, metadata={op_name="jit(scan)/jit(main)/while[cond_nconsts=0 body_nconsts=72]" source_file="/fs04/fc37/adam/projects/psilocybin-prl-analyses/src/prl_hgf/fitting/hierarchical_patrl.py" source_line=378}
  get-tuple-element.1723.0 = f64[20]{0} get-tuple-element(while.1717.0), index=5, metadata={op_name="jit(scan)/jit(main)/while[cond_nconsts=0 body_nconsts=72]" source_file="/fs04/fc37/adam/projects/psilocybin-prl-analyses/src/prl_hgf/fitting/hierarchical_patrl.py" source_line=378}
  get-tuple-element.1724.0 = f64[20]{0} get-tuple-element(while.1717.0), index=6, metadata={op_name="jit(scan)/jit(main)/while[cond_nconsts=0 body_nconsts=72]" source_file="/fs04/fc37/adam/projects/psilocybin-prl-analyses/src/prl_hgf/fitting/hierarchical_patrl.py" source_line=378}
  get-tuple-element.1725.0 = f64[20]{0} get-tuple-element(while.1717.0), index=7, metadata={op_name="jit(scan)/jit(main)/while[cond_nconsts=0 body_nconsts=72]" source_file="/fs04/fc37/adam/projects/psilocybin-prl-analyses/src/prl_hgf/fitting/hierarchical_patrl.py" source_line=378}
  get-tuple-element.1726.0 = f64[20]{0} get-tuple-element(while.1717.0), index=8, metadata={op_name="jit(scan)/jit(main)/while[cond_nconsts=0 body_nconsts=72]" source_file="/fs04/fc37/adam/projects/psilocybin-prl-analyses/src/prl_hgf/fitting/hierarchical_patrl.py" source_line=378}
  get-tuple-element.1727.0 = f64[20]{0} get-tuple-element(while.1717.0), index=9, metadata={op_name="jit(scan)/jit(main)/while[cond_nconsts=0 body_nconsts=72]" source_file="/fs04/fc37/adam/projects/psilocybin-prl-analyses/src/prl_hgf/fitting/hierarchical_patrl.py" source_line=378}
  get-tuple-element.1728.0 = f64[20]{0} get-tuple-element(while.1717.0), index=10, metadata={op_name="jit(scan)/jit(main)/while[cond_nconsts=0 body_nconsts=72]" source_file="/fs04/fc37/adam/projects/psilocybin-prl-analyses/src/prl_hgf/fitting/hierarchical_patrl.py" source_line=378}
  get-tuple-element.1729.0 = f64[20]{0} get-tuple-element(while.1717.0), index=11, metadata={op_name="jit(scan)/jit(main)/while[cond_nconsts=0 body_nconsts=72]" source_file="/fs04/fc37/adam/projects/psilocybin-prl-analyses/src/prl_hgf/fitting/hierarchical_patrl.py" source_line=378}
  get-tuple-element.1730.0 = f64[20]{0} get-tuple-element(while.1717.0), index=12, metadata={op_name="jit(scan)/jit(main)/while[cond_nconsts=0 body_nconsts=72]" source_file="/fs04/fc37/adam/projects/psilocybin-prl-analyses/src/prl_hgf/fitting/hierarchical_patrl.py" source_line=378}
  get-tuple-element.1731.0 = f64[20]{0} get-tuple-element(while.1717.0), index=13, metadata={op_name="jit(scan)/jit(main)/while[cond_nconsts=0 body_nconsts=72]" source_file="/fs04/fc37/adam/projects/psilocybin-prl-analyses/src/prl_hgf/fitting/hierarchical_patrl.py" source_line=378}
  get-tuple-element.1732.0 = f64[20]{0} get-tuple-element(while.1717.0), index=14, metadata={op_name="jit(scan)/jit(main)/while[cond_nconsts=0 body_nconsts=72]" source_file="/fs04/fc37/adam/projects/psilocybin-prl-analyses/src/prl_hgf/fitting/hierarchical_patrl.py" source_line=378}
  get-tuple-element.1733.0 = f64[20]{0} get-tuple-element(while.1717.0), index=15, metadata={op_name="jit(scan)/jit(main)/while[cond_nconsts=0 body_nconsts=72]" source_file="/fs04/fc37/adam/projects/psilocybin-prl-analyses/src/prl_hgf/fitting/hierarchical_patrl.py" source_line=378}
  get-tuple-element.1734.0 = f64[20]{0} get-tuple-element(while.1717.0), index=16, metadata={op_name="jit(scan)/jit(main)/while[cond_nconsts=0 body_nconsts=72]" source_file="/fs04/fc37/adam/projects/psilocybin-prl-analyses/src/prl_hgf/fitting/hierarchical_patrl.py" source_line=378}
  get-tuple-element.1735.0 = f64[20]{0} get-tuple-element(while.1717.0), index=17, metadata={op_name="jit(scan)/jit(main)/while[cond_nconsts=0 body_nconsts=72]" source_file="/fs04/fc37/adam/projects/psilocybin-prl-analyses/src/prl_hgf/fitting/hierarchical_patrl.py" source_line=378}
  get-tuple-element.1736.0 = f64[20]{0} get-tuple-element(while.1717.0), index=18, metadata={op_name="jit(scan)/jit(main)/while[cond_nconsts=0 body_nconsts=72]" source_file="/fs04/fc37/adam/projects/psilocybin-prl-analyses/src/prl_hgf/fitting/hierarchical_patrl.py" source_line=378}
  get-tuple-element.1737.0 = f64[20]{0} get-tuple-element(while.1717.0), index=19, metadata={op_name="jit(scan)/jit(main)/while[cond_nconsts=0 body_nconsts=72]" source_file="/fs04/fc37/adam/projects/psilocybin-prl-analyses/src/prl_hgf/fitting/hierarchical_patrl.py" source_line=378}
  get-tuple-element.1738.0 = f64[20]{0} get-tuple-element(while.1717.0), index=20, metadata={op_name="jit(scan)/jit(main)/while[cond_nconsts=0 body_nconsts=72]" source_file="/fs04/fc37/adam/projects/psilocybin-prl-analyses/src/prl_hgf/fitting/hierarchical_patrl.py" source_line=378}
  get-tuple-element.1739.0 = f64[20,1]{1,0} get-tuple-element(while.1717.0), index=21, metadata={op_name="jit(scan)/jit(main)/while[cond_nconsts=0 body_nconsts=72]" source_file="/fs04/fc37/adam/projects/psilocybin-prl-analyses/src/prl_hgf/fitting/hierarchical_patrl.py" source_line=378}
  ROOT tuple.1812.0 = (f64[20]{0}, f64[20]{0}, f64[20]{0}, f64[20]{0}, f64[20]{0}, /*index=5*/f64[20]{0}, f64[20]{0}, f64[20]{0}, f64[20]{0}, f64[20]{0}, /*index=10*/f64[20]{0}, f64[20]{0}, f64[20]{0}, f64[20]{0}, f64[20]{0}, /*index=15*/f64[20]{0}, f64[20]{0}, f64[20]{0}, f64[20]{0}, f64[20]{0}, /*index=20*/f64[20,1]{1,0}) tuple(get-tuple-element.1719.0, get-tuple-element.1720.0, get-tuple-element.1721.0, get-tuple-element.1722.0, get-tuple-element.1723.0, /*index=5*/get-tuple-element.1724.0, get-tuple-element.1725.0, get-tuple-element.1726.0, get-tuple-element.1727.0, get-tuple-element.1728.0, /*index=10*/get-tuple-element.1729.0, get-tuple-element.1730.0, get-tuple-element.1731.0, get-tuple-element.1732.0, get-tuple-element.1733.0, /*index=15*/get-tuple-element.1734.0, get-tuple-element.1735.0, get-tuple-element.1736.0, get-tuple-element.1737.0, get-tuple-element.1738.0, /*index=20*/get-tuple-element.1739.0)
} // main.1813

